…
I0503 21:52:11.815071 22658 net.cpp:323] The NetState phase (0) differed from the phase (1) specified by a rule in layer intercept
I0503 21:52:11.815088 22658 net.cpp:323] The NetState phase (0) differed from the phase (1) specified by a rule in layer loss
I0503 21:52:11.815170 22658 net.cpp:52] Initializing net from parameters: 
state {
  phase: TRAIN
}
layer {
  name: "parameters"
  type: "HDF5Data"
  top: "data"
  top: "label"
  include {
    phase: TRAIN
  }
  hdf5_data_param {
    source: "/home/purduethu/scratch/radon/d/deng106/CNNStatisticalModel/distributions/input/20_distributions_900_sample_size_train-parameters-path.txt"
    batch_size: 20
  }
}
layer {
  name: "conv1"
  type: "Convolution"
  bottom: "data"
  top: "conv1"
  param {
    lr_mult: 1
  }
  param {
    lr_mult: 2
  }
  convolution_param {
    num_output: 64
    pad: 2
    kernel_size: 5
    stride: 1
    weight_filler {
      type: "gaussian"
      std: 0.0001
    }
    bias_filler {
      type: "constant"
    }
  }
}
layer {
  name: "relu1"
  type: "ReLU"
  bottom: "conv1"
  top: "conv1"
}
layer {
  name: "conv2"
  type: "Convolution"
  bottom: "conv1"
  top: "conv2"
  param {
    lr_mult: 1
  }
  param {
    lr_mult: 2
  }
  convolution_param {
    num_output: 64
    pad: 2
    kernel_size: 5
    stride: 1
    weight_filler {
      type: "gaussian"
      std: 0.01
    }
    bias_filler {
      type: "constant"
    }
  }
}
layer {
  name: "relu2"
  type: "ReLU"
  bottom: "conv2"
  top: "conv2"
}
layer {
  name: "pool2"
  type: "Pooling"
  bottom: "conv2"
  top: "pool2"
  pooling_param {
    pool: MAX
    kernel_size: 3
    stride: 2
  }
}
layer {
  name: "conv3"
  type: "Convolution"
  bottom: "pool2"
  top: "conv3"
  param {
    lr_mult: 1
  }
  param {
    lr_mult: 2
  }
  convolution_param {
    num_output: 128
    pad: 2
    kernel_size: 5
    stride: 1
    weight_filler {
      type: "gaussian"
      std: 0.01
    }
    bias_filler {
      type: "constant"
    }
  }
}
layer {
  name: "relu3"
  type: "ReLU"
  bottom: "conv3"
  top: "conv3"
}
layer {
  name: "conv4"
  type: "Convolution"
  bottom: "conv3"
  top: "conv4"
  param {
    lr_mult: 1
  }
  param {
    lr_mult: 2
  }
  convolution_param {
    num_output: 128
    pad: 2
    kernel_size: 5
    stride: 1
    weight_filler {
      type: "gaussian"
      std: 0.01
    }
    bias_filler {
      type: "constant"
    }
  }
}
layer {
  name: "relu4"
  type: "ReLU"
  bottom: "conv4"
  top: "conv4"
}
layer {
  name: "conv5"
  type: "Convolution"
  bottom: "conv4"
  top: "conv5"
  param {
    lr_mult: 1
  }
  param {
    lr_mult: 2
  }
  convolution_param {
    num_output: 128
    pad: 2
    kernel_size: 5
    stride: 1
    weight_filler {
      type: "gaussian"
      std: 0.01
    }
    bias_filler {
      type: "constant"
    }
  }
}
layer {
  name: "relu5"
  type: "ReLU"
  bottom: "conv5"
  top: "conv5"
}
layer {
  name: "pool5"
  type: "Pooling"
  bottom: "conv5"
  top: "pool5"
  pooling_param {
    pool: AVE
    kernel_size: 3
    stride: 2
  }
}
layer {
  name: "ip1"
  type: "InnerProduct"
  bottom: "pool5"
  top: "ip1"
  param {
    lr_mult: 1
  }
  param {
    lr_mult: 2
  }
  inner_product_param {
    num_output: 1024
    weight_filler {
      type: "gaussian"
      std: 0.1
    }
    bias_filler {
      type: "constant"
    }
  }
}
layer {
  name: "ip2"
  type: "InnerProduct"
  bottom: "ip1"
  top: "ip2"
  param {
    lr_mult: 1
  }
  param {
    lr_mult: 2
  }
  inner_product_param {
    num_output: 512
    weight_filler {
      type: "gaussian"
      std: 0.1
    }
    bias_filler {
      type: "constant"
    }
  }
}
layer {
  name: "ip3"
  type: "InnerProduct"
  bottom: "ip2"
  top: "ip3"
  param {
    lr_mult: 1
  }
  param {
    lr_mult: 2
  }
  inner_product_param {
    num_output: 1
    weight_filler {
      type: "gaussian"
      std: 0.1
    }
    bias_filler {
      type: "constant"
    }
  }
}
layer {
  name: "loss"
  type: "HuberLoss"
  bottom: "ip3"
  bottom: "label"
  top: "loss"
  include {
    phase: TRAIN
  }
}
I0503 21:52:11.815225 22658 layer_factory.hpp:77] Creating layer parameters
I0503 21:52:11.815238 22658 net.cpp:94] Creating Layer parameters
I0503 21:52:11.815243 22658 net.cpp:409] parameters -> data
I0503 21:52:11.815253 22658 net.cpp:409] parameters -> label
I0503 21:52:11.815263 22658 hdf5_data_layer.cpp:79] Loading list of HDF5 filenames from: /home/purduethu/scratch/radon/d/deng106/CNNStatisticalModel/distributions/input/20_distributions_900_sample_size_train-parameters-path.txt
I0503 21:52:11.815277 22658 hdf5_data_layer.cpp:93] Number of HDF5 files: 1
I0503 21:52:11.815837 22658 hdf5.cpp:32] Datatype class: H5T_FLOAT
I0503 21:52:12.408260 22658 net.cpp:144] Setting up parameters
I0503 21:52:12.408290 22658 net.cpp:151] Top shape: 20 1 30 30 (18000)
I0503 21:52:12.408296 22658 net.cpp:151] Top shape: 20 (20)
I0503 21:52:12.408299 22658 net.cpp:159] Memory required for data: 72080
I0503 21:52:12.408305 22658 layer_factory.hpp:77] Creating layer conv1
I0503 21:52:12.408321 22658 net.cpp:94] Creating Layer conv1
I0503 21:52:12.408326 22658 net.cpp:435] conv1 <- data
I0503 21:52:12.408332 22658 net.cpp:409] conv1 -> conv1
I0503 21:52:12.414850 22658 net.cpp:144] Setting up conv1
I0503 21:52:12.414865 22658 net.cpp:151] Top shape: 20 64 30 30 (1152000)
I0503 21:52:12.414868 22658 net.cpp:159] Memory required for data: 4680080
I0503 21:52:12.414878 22658 layer_factory.hpp:77] Creating layer relu1
I0503 21:52:12.414885 22658 net.cpp:94] Creating Layer relu1
I0503 21:52:12.414890 22658 net.cpp:435] relu1 <- conv1
I0503 21:52:12.414893 22658 net.cpp:396] relu1 -> conv1 (in-place)
I0503 21:52:12.414904 22658 net.cpp:144] Setting up relu1
I0503 21:52:12.414908 22658 net.cpp:151] Top shape: 20 64 30 30 (1152000)
I0503 21:52:12.414911 22658 net.cpp:159] Memory required for data: 9288080
I0503 21:52:12.414914 22658 layer_factory.hpp:77] Creating layer conv2
I0503 21:52:12.414922 22658 net.cpp:94] Creating Layer conv2
I0503 21:52:12.414925 22658 net.cpp:435] conv2 <- conv1
I0503 21:52:12.414930 22658 net.cpp:409] conv2 -> conv2
I0503 21:52:12.430377 22658 net.cpp:144] Setting up conv2
I0503 21:52:12.430392 22658 net.cpp:151] Top shape: 20 64 30 30 (1152000)
I0503 21:52:12.430397 22658 net.cpp:159] Memory required for data: 13896080
I0503 21:52:12.430404 22658 layer_factory.hpp:77] Creating layer relu2
I0503 21:52:12.430410 22658 net.cpp:94] Creating Layer relu2
I0503 21:52:12.430414 22658 net.cpp:435] relu2 <- conv2
I0503 21:52:12.430418 22658 net.cpp:396] relu2 -> conv2 (in-place)
I0503 21:52:12.430425 22658 net.cpp:144] Setting up relu2
I0503 21:52:12.430429 22658 net.cpp:151] Top shape: 20 64 30 30 (1152000)
I0503 21:52:12.430433 22658 net.cpp:159] Memory required for data: 18504080
I0503 21:52:12.430435 22658 layer_factory.hpp:77] Creating layer pool2
I0503 21:52:12.430447 22658 net.cpp:94] Creating Layer pool2
I0503 21:52:12.430451 22658 net.cpp:435] pool2 <- conv2
I0503 21:52:12.430455 22658 net.cpp:409] pool2 -> pool2
I0503 21:52:12.430505 22658 net.cpp:144] Setting up pool2
I0503 21:52:12.430513 22658 net.cpp:151] Top shape: 20 64 15 15 (288000)
I0503 21:52:12.430516 22658 net.cpp:159] Memory required for data: 19656080
I0503 21:52:12.430519 22658 layer_factory.hpp:77] Creating layer conv3
I0503 21:52:12.430527 22658 net.cpp:94] Creating Layer conv3
I0503 21:52:12.430531 22658 net.cpp:435] conv3 <- pool2
I0503 21:52:12.430536 22658 net.cpp:409] conv3 -> conv3
I0503 21:52:12.443364 22658 net.cpp:144] Setting up conv3
I0503 21:52:12.443379 22658 net.cpp:151] Top shape: 20 128 15 15 (576000)
I0503 21:52:12.443383 22658 net.cpp:159] Memory required for data: 21960080
I0503 21:52:12.443392 22658 layer_factory.hpp:77] Creating layer relu3
I0503 21:52:12.443397 22658 net.cpp:94] Creating Layer relu3
I0503 21:52:12.443401 22658 net.cpp:435] relu3 <- conv3
I0503 21:52:12.443405 22658 net.cpp:396] relu3 -> conv3 (in-place)
I0503 21:52:12.443413 22658 net.cpp:144] Setting up relu3
I0503 21:52:12.443418 22658 net.cpp:151] Top shape: 20 128 15 15 (576000)
I0503 21:52:12.443420 22658 net.cpp:159] Memory required for data: 24264080
I0503 21:52:12.443423 22658 layer_factory.hpp:77] Creating layer conv4
I0503 21:52:12.443431 22658 net.cpp:94] Creating Layer conv4
I0503 21:52:12.443435 22658 net.cpp:435] conv4 <- conv3
I0503 21:52:12.443440 22658 net.cpp:409] conv4 -> conv4
I0503 21:52:12.466094 22658 net.cpp:144] Setting up conv4
I0503 21:52:12.466109 22658 net.cpp:151] Top shape: 20 128 15 15 (576000)
I0503 21:52:12.466112 22658 net.cpp:159] Memory required for data: 26568080
I0503 21:52:12.466119 22658 layer_factory.hpp:77] Creating layer relu4
I0503 21:52:12.466125 22658 net.cpp:94] Creating Layer relu4
I0503 21:52:12.466128 22658 net.cpp:435] relu4 <- conv4
I0503 21:52:12.466132 22658 net.cpp:396] relu4 -> conv4 (in-place)
I0503 21:52:12.466140 22658 net.cpp:144] Setting up relu4
I0503 21:52:12.466145 22658 net.cpp:151] Top shape: 20 128 15 15 (576000)
I0503 21:52:12.466146 22658 net.cpp:159] Memory required for data: 28872080
I0503 21:52:12.466150 22658 layer_factory.hpp:77] Creating layer conv5
I0503 21:52:12.466157 22658 net.cpp:94] Creating Layer conv5
I0503 21:52:12.466161 22658 net.cpp:435] conv5 <- conv4
I0503 21:52:12.466166 22658 net.cpp:409] conv5 -> conv5
I0503 21:52:12.488595 22658 net.cpp:144] Setting up conv5
I0503 21:52:12.488610 22658 net.cpp:151] Top shape: 20 128 15 15 (576000)
I0503 21:52:12.488613 22658 net.cpp:159] Memory required for data: 31176080
I0503 21:52:12.488622 22658 layer_factory.hpp:77] Creating layer relu5
I0503 21:52:12.488628 22658 net.cpp:94] Creating Layer relu5
I0503 21:52:12.488632 22658 net.cpp:435] relu5 <- conv5
I0503 21:52:12.488636 22658 net.cpp:396] relu5 -> conv5 (in-place)
I0503 21:52:12.488643 22658 net.cpp:144] Setting up relu5
I0503 21:52:12.488647 22658 net.cpp:151] Top shape: 20 128 15 15 (576000)
I0503 21:52:12.488651 22658 net.cpp:159] Memory required for data: 33480080
I0503 21:52:12.488653 22658 layer_factory.hpp:77] Creating layer pool5
I0503 21:52:12.488658 22658 net.cpp:94] Creating Layer pool5
I0503 21:52:12.488662 22658 net.cpp:435] pool5 <- conv5
I0503 21:52:12.488665 22658 net.cpp:409] pool5 -> pool5
I0503 21:52:12.488703 22658 net.cpp:144] Setting up pool5
I0503 21:52:12.488710 22658 net.cpp:151] Top shape: 20 128 7 7 (125440)
I0503 21:52:12.488713 22658 net.cpp:159] Memory required for data: 33981840
I0503 21:52:12.488718 22658 layer_factory.hpp:77] Creating layer ip1
I0503 21:52:12.488723 22658 net.cpp:94] Creating Layer ip1
I0503 21:52:12.488728 22658 net.cpp:435] ip1 <- pool5
I0503 21:52:12.488732 22658 net.cpp:409] ip1 -> ip1
I0503 21:52:12.650149 22658 net.cpp:144] Setting up ip1
I0503 21:52:12.650184 22658 net.cpp:151] Top shape: 20 1024 (20480)
I0503 21:52:12.650188 22658 net.cpp:159] Memory required for data: 34063760
I0503 21:52:12.650197 22658 layer_factory.hpp:77] Creating layer ip2
I0503 21:52:12.650207 22658 net.cpp:94] Creating Layer ip2
I0503 21:52:12.650223 22658 net.cpp:435] ip2 <- ip1
I0503 21:52:12.650229 22658 net.cpp:409] ip2 -> ip2
I0503 21:52:12.663419 22658 net.cpp:144] Setting up ip2
I0503 21:52:12.663432 22658 net.cpp:151] Top shape: 20 512 (10240)
I0503 21:52:12.663436 22658 net.cpp:159] Memory required for data: 34104720
I0503 21:52:12.663441 22658 layer_factory.hpp:77] Creating layer ip3
I0503 21:52:12.663447 22658 net.cpp:94] Creating Layer ip3
I0503 21:52:12.663450 22658 net.cpp:435] ip3 <- ip2
I0503 21:52:12.663455 22658 net.cpp:409] ip3 -> ip3
I0503 21:52:12.663564 22658 net.cpp:144] Setting up ip3
I0503 21:52:12.663571 22658 net.cpp:151] Top shape: 20 1 (20)
I0503 21:52:12.663574 22658 net.cpp:159] Memory required for data: 34104800
I0503 21:52:12.663579 22658 layer_factory.hpp:77] Creating layer loss
I0503 21:52:12.663592 22658 net.cpp:94] Creating Layer loss
I0503 21:52:12.663596 22658 net.cpp:435] loss <- ip3
I0503 21:52:12.663599 22658 net.cpp:435] loss <- label
I0503 21:52:12.663604 22658 net.cpp:409] loss -> loss
I0503 21:52:12.663652 22658 net.cpp:144] Setting up loss
…
I0503 21:52:13.027869 22658 net.cpp:323] The NetState phase (0) differed from the phase (1) specified by a rule in layer intercept
I0503 21:52:13.027884 22658 net.cpp:323] The NetState phase (0) differed from the phase (1) specified by a rule in layer accuracy
I0503 21:52:13.027971 22658 net.cpp:52] Initializing net from parameters: 
state {
  phase: TRAIN
}
layer {
  name: "parameters"
  type: "HDF5Data"
  top: "data"
  top: "label"
  include {
    phase: TRAIN
  }
  hdf5_data_param {
    source: "/home/purduethu/scratch/radon/d/deng106/CNNStatisticalModel/distributions/input/20_distributions_900_sample_size_train-distributions-path.txt"
    batch_size: 20
  }
}
layer {
  name: "conv1"
  type: "Convolution"
  bottom: "data"
  top: "conv1"
  param {
    lr_mult: 1
  }
  param {
    lr_mult: 2
  }
  convolution_param {
    num_output: 64
    pad: 2
    kernel_size: 5
    stride: 1
    weight_filler {
      type: "gaussian"
      std: 0.0001
    }
    bias_filler {
      type: "constant"
    }
  }
}
layer {
  name: "relu1"
  type: "ReLU"
  bottom: "conv1"
  top: "conv1"
}
layer {
  name: "conv2"
  type: "Convolution"
  bottom: "conv1"
  top: "conv2"
  param {
    lr_mult: 1
  }
  param {
    lr_mult: 2
  }
  convolution_param {
    num_output: 64
    pad: 2
    kernel_size: 5
    stride: 1
    weight_filler {
      type: "gaussian"
      std: 0.01
    }
    bias_filler {
      type: "constant"
    }
  }
}
layer {
  name: "relu2"
  type: "ReLU"
  bottom: "conv2"
  top: "conv2"
}
layer {
  name: "pool2"
  type: "Pooling"
  bottom: "conv2"
  top: "pool2"
  pooling_param {
    pool: MAX
    kernel_size: 3
    stride: 2
  }
}
layer {
  name: "conv3"
  type: "Convolution"
  bottom: "pool2"
  top: "conv3"
  param {
    lr_mult: 1
  }
  param {
    lr_mult: 2
  }
  convolution_param {
    num_output: 128
    pad: 2
    kernel_size: 5
    stride: 1
    weight_filler {
      type: "gaussian"
      std: 0.01
    }
    bias_filler {
      type: "constant"
    }
  }
}
layer {
  name: "relu3"
  type: "ReLU"
  bottom: "conv3"
  top: "conv3"
}
layer {
  name: "conv4"
  type: "Convolution"
  bottom: "conv3"
  top: "conv4"
  param {
    lr_mult: 1
  }
  param {
    lr_mult: 2
  }
  convolution_param {
    num_output: 128
    pad: 2
    kernel_size: 5
    stride: 1
    weight_filler {
      type: "gaussian"
      std: 0.01
    }
    bias_filler {
      type: "constant"
    }
  }
}
layer {
  name: "relu4"
  type: "ReLU"
  bottom: "conv4"
  top: "conv4"
}
layer {
  name: "conv5"
  type: "Convolution"
  bottom: "conv4"
  top: "conv5"
  param {
    lr_mult: 1
  }
  param {
    lr_mult: 2
  }
  convolution_param {
    num_output: 128
    pad: 2
    kernel_size: 5
    stride: 1
    weight_filler {
      type: "gaussian"
      std: 0.01
    }
    bias_filler {
      type: "constant"
    }
  }
}
layer {
  name: "relu5"
  type: "ReLU"
  bottom: "conv5"
  top: "conv5"
}
layer {
  name: "pool5"
  type: "Pooling"
  bottom: "conv5"
  top: "pool5"
  pooling_param {
    pool: AVE
    kernel_size: 3
    stride: 2
  }
}
layer {
  name: "ip1"
  type: "InnerProduct"
  bottom: "pool5"
  top: "ip1"
  param {
    lr_mult: 1
  }
  param {
    lr_mult: 2
  }
  inner_product_param {
    num_output: 1024
    weight_filler {
      type: "gaussian"
      std: 0.1
    }
    bias_filler {
      type: "constant"
    }
  }
}
layer {
  name: "ip2"
  type: "InnerProduct"
  bottom: "ip1"
  top: "ip2"
  param {
    lr_mult: 1
  }
  param {
    lr_mult: 2
  }
  inner_product_param {
    num_output: 512
    weight_filler {
      type: "gaussian"
      std: 0.1
    }
    bias_filler {
      type: "constant"
    }
  }
}
layer {
  name: "ip3"
  type: "InnerProduct"
  bottom: "ip2"
  top: "ip3"
  param {
    lr_mult: 1
  }
  param {
    lr_mult: 2
  }
  inner_product_param {
    num_output: 50
    weight_filler {
      type: "gaussian"
      std: 0.1
    }
    bias_filler {
      type: "constant"
    }
  }
}
layer {
  name: "loss"
  type: "SoftmaxWithLoss"
  bottom: "ip3"
  bottom: "label"
  top: "loss"
}
I0503 21:52:13.028020 22658 layer_factory.hpp:77] Creating layer parameters
I0503 21:52:13.028028 22658 net.cpp:94] Creating Layer parameters
I0503 21:52:13.028033 22658 net.cpp:409] parameters -> data
I0503 21:52:13.028039 22658 net.cpp:409] parameters -> label
I0503 21:52:13.028044 22658 hdf5_data_layer.cpp:79] Loading list of HDF5 filenames from: /home/purduethu/scratch/radon/d/deng106/CNNStatisticalModel/distributions/input/20_distributions_900_sample_size_train-distributions-path.txt
I0503 21:52:13.028059 22658 hdf5_data_layer.cpp:93] Number of HDF5 files: 1
I0503 21:52:13.600642 22658 hdf5.cpp:35] Datatype class: H5T_INTEGER
I0503 21:52:13.601685 22658 net.cpp:144] Setting up parameters
I0503 21:52:13.601701 22658 net.cpp:151] Top shape: 20 1 30 30 (18000)
I0503 21:52:13.601704 22658 net.cpp:151] Top shape: 20 (20)
I0503 21:52:13.601708 22658 net.cpp:159] Memory required for data: 72080
I0503 21:52:13.601714 22658 layer_factory.hpp:77] Creating layer conv1
I0503 21:52:13.601730 22658 net.cpp:94] Creating Layer conv1
I0503 21:52:13.601734 22658 net.cpp:435] conv1 <- data
I0503 21:52:13.601742 22658 net.cpp:409] conv1 -> conv1
I0503 21:52:13.605262 22658 net.cpp:144] Setting up conv1
I0503 21:52:13.605278 22658 net.cpp:151] Top shape: 20 64 30 30 (1152000)
I0503 21:52:13.605283 22658 net.cpp:159] Memory required for data: 4680080
I0503 21:52:13.605291 22658 layer_factory.hpp:77] Creating layer relu1
I0503 21:52:13.605299 22658 net.cpp:94] Creating Layer relu1
I0503 21:52:13.605303 22658 net.cpp:435] relu1 <- conv1
I0503 21:52:13.605307 22658 net.cpp:396] relu1 -> conv1 (in-place)
I0503 21:52:13.605314 22658 net.cpp:144] Setting up relu1
I0503 21:52:13.605319 22658 net.cpp:151] Top shape: 20 64 30 30 (1152000)
I0503 21:52:13.605322 22658 net.cpp:159] Memory required for data: 9288080
I0503 21:52:13.605325 22658 layer_factory.hpp:77] Creating layer conv2
I0503 21:52:13.605332 22658 net.cpp:94] Creating Layer conv2
I0503 21:52:13.605336 22658 net.cpp:435] conv2 <- conv1
I0503 21:52:13.605340 22658 net.cpp:409] conv2 -> conv2
I0503 21:52:13.621220 22658 net.cpp:144] Setting up conv2
I0503 21:52:13.621240 22658 net.cpp:151] Top shape: 20 64 30 30 (1152000)
I0503 21:52:13.621244 22658 net.cpp:159] Memory required for data: 13896080
I0503 21:52:13.621254 22658 layer_factory.hpp:77] Creating layer relu2
I0503 21:52:13.621263 22658 net.cpp:94] Creating Layer relu2
I0503 21:52:13.621268 22658 net.cpp:435] relu2 <- conv2
I0503 21:52:13.621273 22658 net.cpp:396] relu2 -> conv2 (in-place)
I0503 21:52:13.621280 22658 net.cpp:144] Setting up relu2
I0503 21:52:13.621285 22658 net.cpp:151] Top shape: 20 64 30 30 (1152000)
I0503 21:52:13.621289 22658 net.cpp:159] Memory required for data: 18504080
I0503 21:52:13.621292 22658 layer_factory.hpp:77] Creating layer pool2
I0503 21:52:13.621299 22658 net.cpp:94] Creating Layer pool2
I0503 21:52:13.621301 22658 net.cpp:435] pool2 <- conv2
I0503 21:52:13.621306 22658 net.cpp:409] pool2 -> pool2
I0503 21:52:13.621371 22658 net.cpp:144] Setting up pool2
I0503 21:52:13.621381 22658 net.cpp:151] Top shape: 20 64 15 15 (288000)
I0503 21:52:13.621383 22658 net.cpp:159] Memory required for data: 19656080
I0503 21:52:13.621387 22658 layer_factory.hpp:77] Creating layer conv3
I0503 21:52:13.621397 22658 net.cpp:94] Creating Layer conv3
I0503 21:52:13.621408 22658 net.cpp:435] conv3 <- pool2
I0503 21:52:13.621414 22658 net.cpp:409] conv3 -> conv3
I0503 21:52:13.635396 22658 net.cpp:144] Setting up conv3
I0503 21:52:13.635413 22658 net.cpp:151] Top shape: 20 128 15 15 (576000)
I0503 21:52:13.635417 22658 net.cpp:159] Memory required for data: 21960080
I0503 21:52:13.635426 22658 layer_factory.hpp:77] Creating layer relu3
I0503 21:52:13.635432 22658 net.cpp:94] Creating Layer relu3
I0503 21:52:13.635437 22658 net.cpp:435] relu3 <- conv3
I0503 21:52:13.635442 22658 net.cpp:396] relu3 -> conv3 (in-place)
I0503 21:52:13.635449 22658 net.cpp:144] Setting up relu3
I0503 21:52:13.635453 22658 net.cpp:151] Top shape: 20 128 15 15 (576000)
I0503 21:52:13.635457 22658 net.cpp:159] Memory required for data: 24264080
I0503 21:52:13.635460 22658 layer_factory.hpp:77] Creating layer conv4
I0503 21:52:13.635469 22658 net.cpp:94] Creating Layer conv4
I0503 21:52:13.635473 22658 net.cpp:435] conv4 <- conv3
I0503 21:52:13.635478 22658 net.cpp:409] conv4 -> conv4
I0503 21:52:13.659008 22658 net.cpp:144] Setting up conv4
I0503 21:52:13.659027 22658 net.cpp:151] Top shape: 20 128 15 15 (576000)
I0503 21:52:13.659031 22658 net.cpp:159] Memory required for data: 26568080
I0503 21:52:13.659039 22658 layer_factory.hpp:77] Creating layer relu4
I0503 21:52:13.659045 22658 net.cpp:94] Creating Layer relu4
I0503 21:52:13.659049 22658 net.cpp:435] relu4 <- conv4
I0503 21:52:13.659054 22658 net.cpp:396] relu4 -> conv4 (in-place)
I0503 21:52:13.659061 22658 net.cpp:144] Setting up relu4
I0503 21:52:13.659065 22658 net.cpp:151] Top shape: 20 128 15 15 (576000)
I0503 21:52:13.659068 22658 net.cpp:159] Memory required for data: 28872080
I0503 21:52:13.659071 22658 layer_factory.hpp:77] Creating layer conv5
I0503 21:52:13.659080 22658 net.cpp:94] Creating Layer conv5
I0503 21:52:13.659082 22658 net.cpp:435] conv5 <- conv4
I0503 21:52:13.659087 22658 net.cpp:409] conv5 -> conv5
I0503 21:52:13.681741 22658 net.cpp:144] Setting up conv5
I0503 21:52:13.681762 22658 net.cpp:151] Top shape: 20 128 15 15 (576000)
I0503 21:52:13.681766 22658 net.cpp:159] Memory required for data: 31176080
I0503 21:52:13.681777 22658 layer_factory.hpp:77] Creating layer relu5
I0503 21:52:13.681783 22658 net.cpp:94] Creating Layer relu5
I0503 21:52:13.681787 22658 net.cpp:435] relu5 <- conv5
I0503 21:52:13.681792 22658 net.cpp:396] relu5 -> conv5 (in-place)
I0503 21:52:13.681799 22658 net.cpp:144] Setting up relu5
I0503 21:52:13.681803 22658 net.cpp:151] Top shape: 20 128 15 15 (576000)
I0503 21:52:13.681807 22658 net.cpp:159] Memory required for data: 33480080
I0503 21:52:13.681809 22658 layer_factory.hpp:77] Creating layer pool5
I0503 21:52:13.681814 22658 net.cpp:94] Creating Layer pool5
I0503 21:52:13.681818 22658 net.cpp:435] pool5 <- conv5
I0503 21:52:13.681821 22658 net.cpp:409] pool5 -> pool5
I0503 21:52:13.681862 22658 net.cpp:144] Setting up pool5
I0503 21:52:13.681869 22658 net.cpp:151] Top shape: 20 128 7 7 (125440)
I0503 21:52:13.681872 22658 net.cpp:159] Memory required for data: 33981840
I0503 21:52:13.681875 22658 layer_factory.hpp:77] Creating layer ip1
I0503 21:52:13.681882 22658 net.cpp:94] Creating Layer ip1
I0503 21:52:13.681885 22658 net.cpp:435] ip1 <- pool5
I0503 21:52:13.681890 22658 net.cpp:409] ip1 -> ip1
I0503 21:52:13.837791 22658 net.cpp:144] Setting up ip1
I0503 21:52:13.837827 22658 net.cpp:151] Top shape: 20 1024 (20480)
I0503 21:52:13.837831 22658 net.cpp:159] Memory required for data: 34063760
I0503 21:52:13.837839 22658 layer_factory.hpp:77] Creating layer ip2
I0503 21:52:13.837851 22658 net.cpp:94] Creating Layer ip2
I0503 21:52:13.837854 22658 net.cpp:435] ip2 <- ip1
I0503 21:52:13.837862 22658 net.cpp:409] ip2 -> ip2
I0503 21:52:13.851119 22658 net.cpp:144] Setting up ip2
I0503 21:52:13.851138 22658 net.cpp:151] Top shape: 20 512 (10240)
I0503 21:52:13.851141 22658 net.cpp:159] Memory required for data: 34104720
I0503 21:52:13.851148 22658 layer_factory.hpp:77] Creating layer ip3
I0503 21:52:13.851156 22658 net.cpp:94] Creating Layer ip3
I0503 21:52:13.851160 22658 net.cpp:435] ip3 <- ip2
I0503 21:52:13.851172 22658 net.cpp:409] ip3 -> ip3
I0503 21:52:13.851913 22658 net.cpp:144] Setting up ip3
I0503 21:52:13.851922 22658 net.cpp:151] Top shape: 20 50 (1000)
I0503 21:52:13.851924 22658 net.cpp:159] Memory required for data: 34108720
I0503 21:52:13.851929 22658 layer_factory.hpp:77] Creating layer loss
I0503 21:52:13.851938 22658 net.cpp:94] Creating Layer loss
I0503 21:52:13.851940 22658 net.cpp:435] loss <- ip3
I0503 21:52:13.851943 22658 net.cpp:435] loss <- label
I0503 21:52:13.851948 22658 net.cpp:409] loss -> loss
I0503 21:52:13.851955 22658 layer_factory.hpp:77] Creating layer loss
…
I0503 21:52:13.852466 22658 solver.cpp:181] Creating test net (#0) specified by net file: ./protocol/dis_20_900_dimension.protocol_distribution
I0503 21:52:13.852494 22658 net.cpp:323] The NetState phase (1) differed from the phase (0) specified by a rule in layer parameters
I0503 21:52:13.852605 22658 net.cpp:52] Initializing net from parameters: 
state {
  phase: TEST
}
layer {
  name: "intercept"
  type: "HDF5Data"
  top: "data"
  top: "label"
  include {
    phase: TEST
  }
  hdf5_data_param {
    source: "/home/purduethu/scratch/radon/d/deng106/CNNStatisticalModel/distributions/input/20_distributions_900_sample_size_test-distributions-path.txt"
    batch_size: 20
  }
}
layer {
  name: "conv1"
  type: "Convolution"
  bottom: "data"
  top: "conv1"
  param {
    lr_mult: 1
  }
  param {
    lr_mult: 2
  }
  convolution_param {
    num_output: 64
    pad: 2
    kernel_size: 5
    stride: 1
    weight_filler {
      type: "gaussian"
      std: 0.0001
    }
    bias_filler {
      type: "constant"
    }
  }
}
layer {
  name: "relu1"
  type: "ReLU"
  bottom: "conv1"
  top: "conv1"
}
layer {
  name: "conv2"
  type: "Convolution"
  bottom: "conv1"
  top: "conv2"
  param {
    lr_mult: 1
  }
  param {
    lr_mult: 2
  }
  convolution_param {
    num_output: 64
    pad: 2
    kernel_size: 5
    stride: 1
    weight_filler {
      type: "gaussian"
      std: 0.01
    }
    bias_filler {
      type: "constant"
    }
  }
}
layer {
  name: "relu2"
  type: "ReLU"
  bottom: "conv2"
  top: "conv2"
}
layer {
  name: "pool2"
  type: "Pooling"
  bottom: "conv2"
  top: "pool2"
  pooling_param {
    pool: MAX
    kernel_size: 3
    stride: 2
  }
}
layer {
  name: "conv3"
  type: "Convolution"
  bottom: "pool2"
  top: "conv3"
  param {
    lr_mult: 1
  }
  param {
    lr_mult: 2
  }
  convolution_param {
    num_output: 128
    pad: 2
    kernel_size: 5
    stride: 1
    weight_filler {
      type: "gaussian"
      std: 0.01
    }
    bias_filler {
      type: "constant"
    }
  }
}
layer {
  name: "relu3"
  type: "ReLU"
  bottom: "conv3"
  top: "conv3"
}
layer {
  name: "conv4"
  type: "Convolution"
  bottom: "conv3"
  top: "conv4"
  param {
    lr_mult: 1
  }
  param {
    lr_mult: 2
  }
  convolution_param {
    num_output: 128
    pad: 2
    kernel_size: 5
    stride: 1
    weight_filler {
      type: "gaussian"
      std: 0.01
    }
    bias_filler {
      type: "constant"
    }
  }
}
layer {
  name: "relu4"
  type: "ReLU"
  bottom: "conv4"
  top: "conv4"
}
layer {
  name: "conv5"
  type: "Convolution"
  bottom: "conv4"
  top: "conv5"
  param {
    lr_mult: 1
  }
  param {
    lr_mult: 2
  }
  convolution_param {
    num_output: 128
    pad: 2
    kernel_size: 5
    stride: 1
    weight_filler {
      type: "gaussian"
      std: 0.01
    }
    bias_filler {
      type: "constant"
    }
  }
}
layer {
  name: "relu5"
  type: "ReLU"
  bottom: "conv5"
  top: "conv5"
}
layer {
  name: "pool5"
  type: "Pooling"
  bottom: "conv5"
  top: "pool5"
  pooling_param {
    pool: AVE
    kernel_size: 3
    stride: 2
  }
}
layer {
  name: "ip1"
  type: "InnerProduct"
  bottom: "pool5"
  top: "ip1"
  param {
    lr_mult: 1
  }
  param {
    lr_mult: 2
  }
  inner_product_param {
    num_output: 1024
    weight_filler {
      type: "gaussian"
      std: 0.1
    }
    bias_filler {
      type: "constant"
    }
  }
}
layer {
  name: "ip2"
  type: "InnerProduct"
  bottom: "ip1"
  top: "ip2"
  param {
    lr_mult: 1
  }
  param {
    lr_mult: 2
  }
  inner_product_param {
    num_output: 512
    weight_filler {
      type: "gaussian"
      std: 0.1
    }
    bias_filler {
      type: "constant"
    }
  }
}
layer {
  name: "ip3"
  type: "InnerProduct"
  bottom: "ip2"
  top: "ip3"
  param {
    lr_mult: 1
  }
  param {
    lr_mult: 2
  }
  inner_product_param {
    num_output: 50
    weight_filler {
      type: "gaussian"
      std: 0.1
    }
    bias_filler {
      type: "constant"
    }
  }
}
layer {
  name: "accuracy"
  type: "Accuracy"
  bottom: "ip3"
  bottom: "label"
  top: "accuracy"
  include {
    phase: TEST
  }
}
layer {
  name: "loss"
  type: "SoftmaxWithLoss"
  bottom: "ip3"
  bottom: "label"
  top: "loss"
}
I0503 21:52:13.852677 22658 layer_factory.hpp:77] Creating layer intercept
I0503 21:52:13.852686 22658 net.cpp:94] Creating Layer intercept
I0503 21:52:13.852690 22658 net.cpp:409] intercept -> data
I0503 21:52:13.852696 22658 net.cpp:409] intercept -> label
I0503 21:52:13.852702 22658 hdf5_data_layer.cpp:79] Loading list of HDF5 filenames from: /home/purduethu/scratch/radon/d/deng106/CNNStatisticalModel/distributions/input/20_distributions_900_sample_size_test-distributions-path.txt
I0503 21:52:13.852722 22658 hdf5_data_layer.cpp:93] Number of HDF5 files: 1
I0503 21:52:13.994978 22658 net.cpp:144] Setting up intercept
I0503 21:52:13.995010 22658 net.cpp:151] Top shape: 20 1 30 30 (18000)
I0503 21:52:13.995015 22658 net.cpp:151] Top shape: 20 (20)
I0503 21:52:13.995018 22658 net.cpp:159] Memory required for data: 72080
I0503 21:52:13.995024 22658 layer_factory.hpp:77] Creating layer label_intercept_1_split
I0503 21:52:13.995036 22658 net.cpp:94] Creating Layer label_intercept_1_split
I0503 21:52:13.995040 22658 net.cpp:435] label_intercept_1_split <- label
I0503 21:52:13.995046 22658 net.cpp:409] label_intercept_1_split -> label_intercept_1_split_0
I0503 21:52:13.995054 22658 net.cpp:409] label_intercept_1_split -> label_intercept_1_split_1
I0503 21:52:13.995102 22658 net.cpp:144] Setting up label_intercept_1_split
I0503 21:52:13.995108 22658 net.cpp:151] Top shape: 20 (20)
I0503 21:52:13.995111 22658 net.cpp:151] Top shape: 20 (20)
I0503 21:52:13.995115 22658 net.cpp:159] Memory required for data: 72240
I0503 21:52:13.995117 22658 layer_factory.hpp:77] Creating layer conv1
I0503 21:52:13.995128 22658 net.cpp:94] Creating Layer conv1
I0503 21:52:13.995131 22658 net.cpp:435] conv1 <- data
I0503 21:52:13.995136 22658 net.cpp:409] conv1 -> conv1
I0503 21:52:13.996651 22658 net.cpp:144] Setting up conv1
I0503 21:52:13.996667 22658 net.cpp:151] Top shape: 20 64 30 30 (1152000)
I0503 21:52:13.996671 22658 net.cpp:159] Memory required for data: 4680240
I0503 21:52:13.996681 22658 layer_factory.hpp:77] Creating layer relu1
I0503 21:52:13.996690 22658 net.cpp:94] Creating Layer relu1
I0503 21:52:13.996692 22658 net.cpp:435] relu1 <- conv1
I0503 21:52:13.996697 22658 net.cpp:396] relu1 -> conv1 (in-place)
I0503 21:52:13.996706 22658 net.cpp:144] Setting up relu1
I0503 21:52:13.996711 22658 net.cpp:151] Top shape: 20 64 30 30 (1152000)
I0503 21:52:13.996712 22658 net.cpp:159] Memory required for data: 9288240
I0503 21:52:13.996716 22658 layer_factory.hpp:77] Creating layer conv2
I0503 21:52:13.996724 22658 net.cpp:94] Creating Layer conv2
I0503 21:52:13.996727 22658 net.cpp:435] conv2 <- conv1
I0503 21:52:13.996732 22658 net.cpp:409] conv2 -> conv2
I0503 21:52:14.003623 22658 net.cpp:144] Setting up conv2
I0503 21:52:14.003661 22658 net.cpp:151] Top shape: 20 64 30 30 (1152000)
I0503 21:52:14.003672 22658 net.cpp:159] Memory required for data: 13896240
I0503 21:52:14.003693 22658 layer_factory.hpp:77] Creating layer relu2
I0503 21:52:14.003710 22658 net.cpp:94] Creating Layer relu2
I0503 21:52:14.003720 22658 net.cpp:435] relu2 <- conv2
I0503 21:52:14.003732 22658 net.cpp:396] relu2 -> conv2 (in-place)
I0503 21:52:14.003751 22658 net.cpp:144] Setting up relu2
I0503 21:52:14.003763 22658 net.cpp:151] Top shape: 20 64 30 30 (1152000)
I0503 21:52:14.003772 22658 net.cpp:159] Memory required for data: 18504240
I0503 21:52:14.003780 22658 layer_factory.hpp:77] Creating layer pool2
I0503 21:52:14.003794 22658 net.cpp:94] Creating Layer pool2
I0503 21:52:14.003803 22658 net.cpp:435] pool2 <- conv2
I0503 21:52:14.003815 22658 net.cpp:409] pool2 -> pool2
I0503 21:52:14.003900 22658 net.cpp:144] Setting up pool2
I0503 21:52:14.003906 22658 net.cpp:151] Top shape: 20 64 15 15 (288000)
I0503 21:52:14.003909 22658 net.cpp:159] Memory required for data: 19656240
I0503 21:52:14.003912 22658 layer_factory.hpp:77] Creating layer conv3
I0503 21:52:14.003921 22658 net.cpp:94] Creating Layer conv3
I0503 21:52:14.003923 22658 net.cpp:435] conv3 <- pool2
I0503 21:52:14.003928 22658 net.cpp:409] conv3 -> conv3
I0503 21:52:14.011433 22658 net.cpp:144] Setting up conv3
I0503 21:52:14.011449 22658 net.cpp:151] Top shape: 20 128 15 15 (576000)
I0503 21:52:14.011453 22658 net.cpp:159] Memory required for data: 21960240
I0503 21:52:14.011461 22658 layer_factory.hpp:77] Creating layer relu3
I0503 21:52:14.011467 22658 net.cpp:94] Creating Layer relu3
I0503 21:52:14.011471 22658 net.cpp:435] relu3 <- conv3
I0503 21:52:14.011476 22658 net.cpp:396] relu3 -> conv3 (in-place)
I0503 21:52:14.011482 22658 net.cpp:144] Setting up relu3
I0503 21:52:14.011487 22658 net.cpp:151] Top shape: 20 128 15 15 (576000)
I0503 21:52:14.011489 22658 net.cpp:159] Memory required for data: 24264240
I0503 21:52:14.011492 22658 layer_factory.hpp:77] Creating layer conv4
I0503 21:52:14.011500 22658 net.cpp:94] Creating Layer conv4
I0503 21:52:14.011503 22658 net.cpp:435] conv4 <- conv3
I0503 21:52:14.011508 22658 net.cpp:409] conv4 -> conv4
I0503 21:52:14.027039 22658 net.cpp:144] Setting up conv4
I0503 21:52:14.027055 22658 net.cpp:151] Top shape: 20 128 15 15 (576000)
I0503 21:52:14.027058 22658 net.cpp:159] Memory required for data: 26568240
I0503 21:52:14.027065 22658 layer_factory.hpp:77] Creating layer relu4
I0503 21:52:14.027071 22658 net.cpp:94] Creating Layer relu4
I0503 21:52:14.027076 22658 net.cpp:435] relu4 <- conv4
I0503 21:52:14.027081 22658 net.cpp:396] relu4 -> conv4 (in-place)
I0503 21:52:14.027086 22658 net.cpp:144] Setting up relu4
I0503 21:52:14.027091 22658 net.cpp:151] Top shape: 20 128 15 15 (576000)
I0503 21:52:14.027093 22658 net.cpp:159] Memory required for data: 28872240
I0503 21:52:14.027096 22658 layer_factory.hpp:77] Creating layer conv5
I0503 21:52:14.027104 22658 net.cpp:94] Creating Layer conv5
I0503 21:52:14.027107 22658 net.cpp:435] conv5 <- conv4
I0503 21:52:14.027118 22658 net.cpp:409] conv5 -> conv5
I0503 21:52:14.042198 22658 net.cpp:144] Setting up conv5
I0503 21:52:14.042215 22658 net.cpp:151] Top shape: 20 128 15 15 (576000)
I0503 21:52:14.042219 22658 net.cpp:159] Memory required for data: 31176240
I0503 21:52:14.042228 22658 layer_factory.hpp:77] Creating layer relu5
I0503 21:52:14.042235 22658 net.cpp:94] Creating Layer relu5
I0503 21:52:14.042238 22658 net.cpp:435] relu5 <- conv5
I0503 21:52:14.042243 22658 net.cpp:396] relu5 -> conv5 (in-place)
I0503 21:52:14.042250 22658 net.cpp:144] Setting up relu5
I0503 21:52:14.042254 22658 net.cpp:151] Top shape: 20 128 15 15 (576000)
I0503 21:52:14.042258 22658 net.cpp:159] Memory required for data: 33480240
I0503 21:52:14.042259 22658 layer_factory.hpp:77] Creating layer pool5
I0503 21:52:14.042265 22658 net.cpp:94] Creating Layer pool5
I0503 21:52:14.042268 22658 net.cpp:435] pool5 <- conv5
I0503 21:52:14.042273 22658 net.cpp:409] pool5 -> pool5
I0503 21:52:14.042310 22658 net.cpp:144] Setting up pool5
I0503 21:52:14.042317 22658 net.cpp:151] Top shape: 20 128 7 7 (125440)
I0503 21:52:14.042320 22658 net.cpp:159] Memory required for data: 33982000
I0503 21:52:14.042323 22658 layer_factory.hpp:77] Creating layer ip1
I0503 21:52:14.042330 22658 net.cpp:94] Creating Layer ip1
I0503 21:52:14.042333 22658 net.cpp:435] ip1 <- pool5
I0503 21:52:14.042337 22658 net.cpp:409] ip1 -> ip1
I0503 21:52:14.197762 22658 net.cpp:144] Setting up ip1
I0503 21:52:14.197798 22658 net.cpp:151] Top shape: 20 1024 (20480)
I0503 21:52:14.197801 22658 net.cpp:159] Memory required for data: 34063920
I0503 21:52:14.197809 22658 layer_factory.hpp:77] Creating layer ip2
I0503 21:52:14.197819 22658 net.cpp:94] Creating Layer ip2
I0503 21:52:14.197824 22658 net.cpp:435] ip2 <- ip1
I0503 21:52:14.197831 22658 net.cpp:409] ip2 -> ip2
I0503 21:52:14.211114 22658 net.cpp:144] Setting up ip2
I0503 21:52:14.211134 22658 net.cpp:151] Top shape: 20 512 (10240)
I0503 21:52:14.211138 22658 net.cpp:159] Memory required for data: 34104880
I0503 21:52:14.211144 22658 layer_factory.hpp:77] Creating layer ip3
I0503 21:52:14.211156 22658 net.cpp:94] Creating Layer ip3
I0503 21:52:14.211160 22658 net.cpp:435] ip3 <- ip2
I0503 21:52:14.211166 22658 net.cpp:409] ip3 -> ip3
I0503 21:52:14.211923 22658 net.cpp:144] Setting up ip3
I0503 21:52:14.211930 22658 net.cpp:151] Top shape: 20 50 (1000)
I0503 21:52:14.211933 22658 net.cpp:159] Memory required for data: 34108880
I0503 21:52:14.211938 22658 layer_factory.hpp:77] Creating layer ip3_ip3_0_split
I0503 21:52:14.211946 22658 net.cpp:94] Creating Layer ip3_ip3_0_split
I0503 21:52:14.211948 22658 net.cpp:435] ip3_ip3_0_split <- ip3
I0503 21:52:14.211952 22658 net.cpp:409] ip3_ip3_0_split -> ip3_ip3_0_split_0
I0503 21:52:14.211957 22658 net.cpp:409] ip3_ip3_0_split -> ip3_ip3_0_split_1
I0503 21:52:14.212000 22658 net.cpp:144] Setting up ip3_ip3_0_split
I0503 21:52:14.212005 22658 net.cpp:151] Top shape: 20 50 (1000)
I0503 21:52:14.212009 22658 net.cpp:151] Top shape: 20 50 (1000)
I0503 21:52:14.212013 22658 net.cpp:159] Memory required for data: 34116880
I0503 21:52:14.212015 22658 layer_factory.hpp:77] Creating layer accuracy
I0503 21:52:14.212020 22658 net.cpp:94] Creating Layer accuracy
I0503 21:52:14.212023 22658 net.cpp:435] accuracy <- ip3_ip3_0_split_0
I0503 21:52:14.212028 22658 net.cpp:435] accuracy <- label_intercept_1_split_0
I0503 21:52:14.212033 22658 net.cpp:409] accuracy -> accuracy
…
