…
I0507 20:18:50.950435  6963 net.cpp:323] The NetState phase (0) differed from the phase (1) specified by a rule in layer intercept
I0507 20:18:50.950451  6963 net.cpp:323] The NetState phase (0) differed from the phase (1) specified by a rule in layer loss
I0507 20:18:50.950528  6963 net.cpp:52] Initializing net from parameters: 
state {
  phase: TRAIN
}
layer {
  name: "parameters"
  type: "HDF5Data"
  top: "data"
  top: "label"
  include {
    phase: TRAIN
  }
  hdf5_data_param {
    source: "/home/purduethu/scratch/radon/d/deng106/CNNStatisticalModel/distributions/input/50_distributions_100_sample_size_train-parameters-path.txt"
    batch_size: 20
  }
}
layer {
  name: "conv1"
  type: "Convolution"
  bottom: "data"
  top: "conv1"
  param {
    lr_mult: 1
  }
  param {
    lr_mult: 2
  }
  convolution_param {
    num_output: 64
    pad: 2
    kernel_size: 5
    stride: 1
    weight_filler {
      type: "gaussian"
      std: 0.0001
    }
    bias_filler {
      type: "constant"
    }
  }
}
layer {
  name: "relu1"
  type: "ReLU"
  bottom: "conv1"
  top: "conv1"
}
layer {
  name: "conv2"
  type: "Convolution"
  bottom: "conv1"
  top: "conv2"
  param {
    lr_mult: 1
  }
  param {
    lr_mult: 2
  }
  convolution_param {
    num_output: 64
    pad: 2
    kernel_size: 5
    stride: 1
    weight_filler {
      type: "gaussian"
      std: 0.01
    }
    bias_filler {
      type: "constant"
    }
  }
}
layer {
  name: "relu2"
  type: "ReLU"
  bottom: "conv2"
  top: "conv2"
}
layer {
  name: "pool2"
  type: "Pooling"
  bottom: "conv2"
  top: "pool2"
  pooling_param {
    pool: MAX
    kernel_size: 3
    stride: 2
  }
}
layer {
  name: "conv3"
  type: "Convolution"
  bottom: "pool2"
  top: "conv3"
  param {
    lr_mult: 1
  }
  param {
    lr_mult: 2
  }
  convolution_param {
    num_output: 64
    pad: 2
    kernel_size: 5
    stride: 1
    weight_filler {
      type: "gaussian"
      std: 0.01
    }
    bias_filler {
      type: "constant"
    }
  }
}
layer {
  name: "relu3"
  type: "ReLU"
  bottom: "conv3"
  top: "conv3"
}
layer {
  name: "conv4"
  type: "Convolution"
  bottom: "conv3"
  top: "conv4"
  param {
    lr_mult: 1
  }
  param {
    lr_mult: 2
  }
  convolution_param {
    num_output: 64
    pad: 2
    kernel_size: 5
    stride: 1
    weight_filler {
      type: "gaussian"
      std: 0.01
    }
    bias_filler {
      type: "constant"
    }
  }
}
layer {
  name: "relu4"
  type: "ReLU"
  bottom: "conv4"
  top: "conv4"
}
layer {
  name: "conv5"
  type: "Convolution"
  bottom: "conv4"
  top: "conv5"
  param {
    lr_mult: 1
  }
  param {
    lr_mult: 2
  }
  convolution_param {
    num_output: 64
    pad: 2
    kernel_size: 5
    stride: 1
    weight_filler {
      type: "gaussian"
      std: 0.01
    }
    bias_filler {
      type: "constant"
    }
  }
}
layer {
  name: "relu5"
  type: "ReLU"
  bottom: "conv5"
  top: "conv5"
}
layer {
  name: "pool5"
  type: "Pooling"
  bottom: "conv5"
  top: "pool5"
  pooling_param {
    pool: AVE
    kernel_size: 3
    stride: 2
  }
}
layer {
  name: "ip1"
  type: "InnerProduct"
  bottom: "pool5"
  top: "ip1"
  param {
    lr_mult: 1
  }
  param {
    lr_mult: 2
  }
  inner_product_param {
    num_output: 64
    weight_filler {
      type: "gaussian"
      std: 0.1
    }
    bias_filler {
      type: "constant"
    }
  }
}
layer {
  name: "ip2"
  type: "InnerProduct"
  bottom: "ip1"
  top: "ip2"
  param {
    lr_mult: 1
  }
  param {
    lr_mult: 2
  }
  inner_product_param {
    num_output: 64
    weight_filler {
      type: "gaussian"
      std: 0.1
    }
    bias_filler {
      type: "constant"
    }
  }
}
layer {
  name: "ip3"
  type: "InnerProduct"
  bottom: "ip2"
  top: "ip3"
  param {
    lr_mult: 1
  }
  param {
    lr_mult: 2
  }
  inner_product_param {
    num_output: 1
    weight_filler {
      type: "gaussian"
      std: 0.1
    }
    bias_filler {
      type: "constant"
    }
  }
}
layer {
  name: "loss"
  type: "HuberLoss"
  bottom: "ip3"
  bottom: "label"
  top: "loss"
  include {
    phase: TRAIN
  }
}
I0507 20:18:50.950583  6963 layer_factory.hpp:77] Creating layer parameters
I0507 20:18:50.950599  6963 net.cpp:94] Creating Layer parameters
I0507 20:18:50.950604  6963 net.cpp:409] parameters -> data
I0507 20:18:50.950614  6963 net.cpp:409] parameters -> label
I0507 20:18:50.950621  6963 hdf5_data_layer.cpp:79] Loading list of HDF5 filenames from: /home/purduethu/scratch/radon/d/deng106/CNNStatisticalModel/distributions/input/50_distributions_100_sample_size_train-parameters-path.txt
I0507 20:18:50.950636  6963 hdf5_data_layer.cpp:93] Number of HDF5 files: 1
I0507 20:18:50.951174  6963 hdf5.cpp:32] Datatype class: H5T_FLOAT
I0507 20:18:51.113520  6963 net.cpp:144] Setting up parameters
I0507 20:18:51.113551  6963 net.cpp:151] Top shape: 20 1 10 10 (2000)
I0507 20:18:51.113559  6963 net.cpp:151] Top shape: 20 (20)
I0507 20:18:51.113561  6963 net.cpp:159] Memory required for data: 8080
I0507 20:18:51.113569  6963 layer_factory.hpp:77] Creating layer conv1
I0507 20:18:51.113584  6963 net.cpp:94] Creating Layer conv1
I0507 20:18:51.113590  6963 net.cpp:435] conv1 <- data
I0507 20:18:51.113596  6963 net.cpp:409] conv1 -> conv1
I0507 20:18:51.117771  6963 net.cpp:144] Setting up conv1
I0507 20:18:51.117787  6963 net.cpp:151] Top shape: 20 64 10 10 (128000)
I0507 20:18:51.117791  6963 net.cpp:159] Memory required for data: 520080
I0507 20:18:51.117802  6963 layer_factory.hpp:77] Creating layer relu1
I0507 20:18:51.117811  6963 net.cpp:94] Creating Layer relu1
I0507 20:18:51.117815  6963 net.cpp:435] relu1 <- conv1
I0507 20:18:51.117820  6963 net.cpp:396] relu1 -> conv1 (in-place)
I0507 20:18:51.117828  6963 net.cpp:144] Setting up relu1
I0507 20:18:51.117833  6963 net.cpp:151] Top shape: 20 64 10 10 (128000)
I0507 20:18:51.117836  6963 net.cpp:159] Memory required for data: 1032080
I0507 20:18:51.117839  6963 layer_factory.hpp:77] Creating layer conv2
I0507 20:18:51.117847  6963 net.cpp:94] Creating Layer conv2
I0507 20:18:51.117851  6963 net.cpp:435] conv2 <- conv1
I0507 20:18:51.117856  6963 net.cpp:409] conv2 -> conv2
I0507 20:18:51.123942  6963 net.cpp:144] Setting up conv2
I0507 20:18:51.123957  6963 net.cpp:151] Top shape: 20 64 10 10 (128000)
I0507 20:18:51.123961  6963 net.cpp:159] Memory required for data: 1544080
I0507 20:18:51.123970  6963 layer_factory.hpp:77] Creating layer relu2
I0507 20:18:51.123977  6963 net.cpp:94] Creating Layer relu2
I0507 20:18:51.123981  6963 net.cpp:435] relu2 <- conv2
I0507 20:18:51.123986  6963 net.cpp:396] relu2 -> conv2 (in-place)
I0507 20:18:51.123993  6963 net.cpp:144] Setting up relu2
I0507 20:18:51.123998  6963 net.cpp:151] Top shape: 20 64 10 10 (128000)
I0507 20:18:51.124001  6963 net.cpp:159] Memory required for data: 2056080
I0507 20:18:51.124004  6963 layer_factory.hpp:77] Creating layer pool2
I0507 20:18:51.124018  6963 net.cpp:94] Creating Layer pool2
I0507 20:18:51.124022  6963 net.cpp:435] pool2 <- conv2
I0507 20:18:51.124027  6963 net.cpp:409] pool2 -> pool2
I0507 20:18:51.124085  6963 net.cpp:144] Setting up pool2
I0507 20:18:51.124094  6963 net.cpp:151] Top shape: 20 64 5 5 (32000)
I0507 20:18:51.124097  6963 net.cpp:159] Memory required for data: 2184080
I0507 20:18:51.124100  6963 layer_factory.hpp:77] Creating layer conv3
I0507 20:18:51.124109  6963 net.cpp:94] Creating Layer conv3
I0507 20:18:51.124112  6963 net.cpp:435] conv3 <- pool2
I0507 20:18:51.124119  6963 net.cpp:409] conv3 -> conv3
I0507 20:18:51.129020  6963 net.cpp:144] Setting up conv3
I0507 20:18:51.129034  6963 net.cpp:151] Top shape: 20 64 5 5 (32000)
I0507 20:18:51.129039  6963 net.cpp:159] Memory required for data: 2312080
I0507 20:18:51.129047  6963 layer_factory.hpp:77] Creating layer relu3
I0507 20:18:51.129053  6963 net.cpp:94] Creating Layer relu3
I0507 20:18:51.129057  6963 net.cpp:435] relu3 <- conv3
I0507 20:18:51.129062  6963 net.cpp:396] relu3 -> conv3 (in-place)
I0507 20:18:51.129070  6963 net.cpp:144] Setting up relu3
I0507 20:18:51.129075  6963 net.cpp:151] Top shape: 20 64 5 5 (32000)
I0507 20:18:51.129077  6963 net.cpp:159] Memory required for data: 2440080
I0507 20:18:51.129081  6963 layer_factory.hpp:77] Creating layer conv4
I0507 20:18:51.129089  6963 net.cpp:94] Creating Layer conv4
I0507 20:18:51.129093  6963 net.cpp:435] conv4 <- conv3
I0507 20:18:51.129098  6963 net.cpp:409] conv4 -> conv4
I0507 20:18:51.133528  6963 net.cpp:144] Setting up conv4
I0507 20:18:51.133543  6963 net.cpp:151] Top shape: 20 64 5 5 (32000)
I0507 20:18:51.133546  6963 net.cpp:159] Memory required for data: 2568080
I0507 20:18:51.133553  6963 layer_factory.hpp:77] Creating layer relu4
I0507 20:18:51.133559  6963 net.cpp:94] Creating Layer relu4
I0507 20:18:51.133563  6963 net.cpp:435] relu4 <- conv4
I0507 20:18:51.133568  6963 net.cpp:396] relu4 -> conv4 (in-place)
I0507 20:18:51.133574  6963 net.cpp:144] Setting up relu4
I0507 20:18:51.133579  6963 net.cpp:151] Top shape: 20 64 5 5 (32000)
I0507 20:18:51.133584  6963 net.cpp:159] Memory required for data: 2696080
I0507 20:18:51.133586  6963 layer_factory.hpp:77] Creating layer conv5
I0507 20:18:51.133594  6963 net.cpp:94] Creating Layer conv5
I0507 20:18:51.133599  6963 net.cpp:435] conv5 <- conv4
I0507 20:18:51.133602  6963 net.cpp:409] conv5 -> conv5
I0507 20:18:51.138440  6963 net.cpp:144] Setting up conv5
I0507 20:18:51.138454  6963 net.cpp:151] Top shape: 20 64 5 5 (32000)
I0507 20:18:51.138458  6963 net.cpp:159] Memory required for data: 2824080
I0507 20:18:51.138468  6963 layer_factory.hpp:77] Creating layer relu5
I0507 20:18:51.138473  6963 net.cpp:94] Creating Layer relu5
I0507 20:18:51.138478  6963 net.cpp:435] relu5 <- conv5
I0507 20:18:51.138483  6963 net.cpp:396] relu5 -> conv5 (in-place)
I0507 20:18:51.138489  6963 net.cpp:144] Setting up relu5
I0507 20:18:51.138494  6963 net.cpp:151] Top shape: 20 64 5 5 (32000)
I0507 20:18:51.138497  6963 net.cpp:159] Memory required for data: 2952080
I0507 20:18:51.138500  6963 layer_factory.hpp:77] Creating layer pool5
I0507 20:18:51.138505  6963 net.cpp:94] Creating Layer pool5
I0507 20:18:51.138509  6963 net.cpp:435] pool5 <- conv5
I0507 20:18:51.138514  6963 net.cpp:409] pool5 -> pool5
I0507 20:18:51.138552  6963 net.cpp:144] Setting up pool5
I0507 20:18:51.138561  6963 net.cpp:151] Top shape: 20 64 2 2 (5120)
I0507 20:18:51.138563  6963 net.cpp:159] Memory required for data: 2972560
I0507 20:18:51.138567  6963 layer_factory.hpp:77] Creating layer ip1
I0507 20:18:51.138576  6963 net.cpp:94] Creating Layer ip1
I0507 20:18:51.138581  6963 net.cpp:435] ip1 <- pool5
I0507 20:18:51.138586  6963 net.cpp:409] ip1 -> ip1
I0507 20:18:51.139905  6963 net.cpp:144] Setting up ip1
I0507 20:18:51.139919  6963 net.cpp:151] Top shape: 20 64 (1280)
I0507 20:18:51.139924  6963 net.cpp:159] Memory required for data: 2977680
I0507 20:18:51.139930  6963 layer_factory.hpp:77] Creating layer ip2
I0507 20:18:51.139936  6963 net.cpp:94] Creating Layer ip2
I0507 20:18:51.139945  6963 net.cpp:435] ip2 <- ip1
I0507 20:18:51.139951  6963 net.cpp:409] ip2 -> ip2
I0507 20:18:51.140168  6963 net.cpp:144] Setting up ip2
I0507 20:18:51.140175  6963 net.cpp:151] Top shape: 20 64 (1280)
I0507 20:18:51.140179  6963 net.cpp:159] Memory required for data: 2982800
I0507 20:18:51.140184  6963 layer_factory.hpp:77] Creating layer ip3
I0507 20:18:51.140190  6963 net.cpp:94] Creating Layer ip3
I0507 20:18:51.140194  6963 net.cpp:435] ip3 <- ip2
I0507 20:18:51.140199  6963 net.cpp:409] ip3 -> ip3
I0507 20:18:51.140306  6963 net.cpp:144] Setting up ip3
I0507 20:18:51.140313  6963 net.cpp:151] Top shape: 20 1 (20)
I0507 20:18:51.140317  6963 net.cpp:159] Memory required for data: 2982880
I0507 20:18:51.140322  6963 layer_factory.hpp:77] Creating layer loss
I0507 20:18:51.140333  6963 net.cpp:94] Creating Layer loss
I0507 20:18:51.140337  6963 net.cpp:435] loss <- ip3
I0507 20:18:51.140341  6963 net.cpp:435] loss <- label
I0507 20:18:51.140347  6963 net.cpp:409] loss -> loss
I0507 20:18:51.140398  6963 net.cpp:144] Setting up loss
…
I0507 20:18:51.201692  6963 net.cpp:323] The NetState phase (0) differed from the phase (1) specified by a rule in layer intercept
I0507 20:18:51.201709  6963 net.cpp:323] The NetState phase (0) differed from the phase (1) specified by a rule in layer accuracy
I0507 20:18:51.201792  6963 net.cpp:52] Initializing net from parameters: 
state {
  phase: TRAIN
}
layer {
  name: "parameters"
  type: "HDF5Data"
  top: "data"
  top: "label"
  include {
    phase: TRAIN
  }
  hdf5_data_param {
    source: "/home/purduethu/scratch/radon/d/deng106/CNNStatisticalModel/distributions/input/50_distributions_100_sample_size_train-distributions-path.txt"
    batch_size: 20
  }
}
layer {
  name: "conv1"
  type: "Convolution"
  bottom: "data"
  top: "conv1"
  param {
    lr_mult: 1
  }
  param {
    lr_mult: 2
  }
  convolution_param {
    num_output: 64
    pad: 2
    kernel_size: 5
    stride: 1
    weight_filler {
      type: "gaussian"
      std: 0.0001
    }
    bias_filler {
      type: "constant"
    }
  }
}
layer {
  name: "relu1"
  type: "ReLU"
  bottom: "conv1"
  top: "conv1"
}
layer {
  name: "conv2"
  type: "Convolution"
  bottom: "conv1"
  top: "conv2"
  param {
    lr_mult: 1
  }
  param {
    lr_mult: 2
  }
  convolution_param {
    num_output: 64
    pad: 2
    kernel_size: 5
    stride: 1
    weight_filler {
      type: "gaussian"
      std: 0.01
    }
    bias_filler {
      type: "constant"
    }
  }
}
layer {
  name: "relu2"
  type: "ReLU"
  bottom: "conv2"
  top: "conv2"
}
layer {
  name: "pool2"
  type: "Pooling"
  bottom: "conv2"
  top: "pool2"
  pooling_param {
    pool: MAX
    kernel_size: 3
    stride: 2
  }
}
layer {
  name: "conv3"
  type: "Convolution"
  bottom: "pool2"
  top: "conv3"
  param {
    lr_mult: 1
  }
  param {
    lr_mult: 2
  }
  convolution_param {
    num_output: 64
    pad: 2
    kernel_size: 5
    stride: 1
    weight_filler {
      type: "gaussian"
      std: 0.01
    }
    bias_filler {
      type: "constant"
    }
  }
}
layer {
  name: "relu3"
  type: "ReLU"
  bottom: "conv3"
  top: "conv3"
}
layer {
  name: "conv4"
  type: "Convolution"
  bottom: "conv3"
  top: "conv4"
  param {
    lr_mult: 1
  }
  param {
    lr_mult: 2
  }
  convolution_param {
    num_output: 64
    pad: 2
    kernel_size: 5
    stride: 1
    weight_filler {
      type: "gaussian"
      std: 0.01
    }
    bias_filler {
      type: "constant"
    }
  }
}
layer {
  name: "relu4"
  type: "ReLU"
  bottom: "conv4"
  top: "conv4"
}
layer {
  name: "conv5"
  type: "Convolution"
  bottom: "conv4"
  top: "conv5"
  param {
    lr_mult: 1
  }
  param {
    lr_mult: 2
  }
  convolution_param {
    num_output: 64
    pad: 2
    kernel_size: 5
    stride: 1
    weight_filler {
      type: "gaussian"
      std: 0.01
    }
    bias_filler {
      type: "constant"
    }
  }
}
layer {
  name: "relu5"
  type: "ReLU"
  bottom: "conv5"
  top: "conv5"
}
layer {
  name: "pool5"
  type: "Pooling"
  bottom: "conv5"
  top: "pool5"
  pooling_param {
    pool: AVE
    kernel_size: 3
    stride: 2
  }
}
layer {
  name: "ip1"
  type: "InnerProduct"
  bottom: "pool5"
  top: "ip1"
  param {
    lr_mult: 1
  }
  param {
    lr_mult: 2
  }
  inner_product_param {
    num_output: 64
    weight_filler {
      type: "gaussian"
      std: 0.1
    }
    bias_filler {
      type: "constant"
    }
  }
}
layer {
  name: "ip2"
  type: "InnerProduct"
  bottom: "ip1"
  top: "ip2"
  param {
    lr_mult: 1
  }
  param {
    lr_mult: 2
  }
  inner_product_param {
    num_output: 64
    weight_filler {
      type: "gaussian"
      std: 0.1
    }
    bias_filler {
      type: "constant"
    }
  }
}
layer {
  name: "ip3"
  type: "InnerProduct"
  bottom: "ip2"
  top: "ip3"
  param {
    lr_mult: 1
  }
  param {
    lr_mult: 2
  }
  inner_product_param {
    num_output: 50
    weight_filler {
      type: "gaussian"
      std: 0.1
    }
    bias_filler {
      type: "constant"
    }
  }
}
layer {
  name: "loss"
  type: "SoftmaxWithLoss"
  bottom: "ip3"
  bottom: "label"
  top: "loss"
}
I0507 20:18:51.201844  6963 layer_factory.hpp:77] Creating layer parameters
I0507 20:18:51.201853  6963 net.cpp:94] Creating Layer parameters
I0507 20:18:51.201858  6963 net.cpp:409] parameters -> data
I0507 20:18:51.201864  6963 net.cpp:409] parameters -> label
I0507 20:18:51.201870  6963 hdf5_data_layer.cpp:79] Loading list of HDF5 filenames from: /home/purduethu/scratch/radon/d/deng106/CNNStatisticalModel/distributions/input/50_distributions_100_sample_size_train-distributions-path.txt
I0507 20:18:51.201885  6963 hdf5_data_layer.cpp:93] Number of HDF5 files: 1
I0507 20:18:51.358579  6963 hdf5.cpp:35] Datatype class: H5T_INTEGER
I0507 20:18:51.361627  6963 net.cpp:144] Setting up parameters
I0507 20:18:51.361650  6963 net.cpp:151] Top shape: 20 1 10 10 (2000)
I0507 20:18:51.361655  6963 net.cpp:151] Top shape: 20 (20)
I0507 20:18:51.361660  6963 net.cpp:159] Memory required for data: 8080
I0507 20:18:51.361665  6963 layer_factory.hpp:77] Creating layer conv1
I0507 20:18:51.361681  6963 net.cpp:94] Creating Layer conv1
I0507 20:18:51.361685  6963 net.cpp:435] conv1 <- data
I0507 20:18:51.361692  6963 net.cpp:409] conv1 -> conv1
I0507 20:18:51.363412  6963 net.cpp:144] Setting up conv1
I0507 20:18:51.363425  6963 net.cpp:151] Top shape: 20 64 10 10 (128000)
I0507 20:18:51.363430  6963 net.cpp:159] Memory required for data: 520080
I0507 20:18:51.363440  6963 layer_factory.hpp:77] Creating layer relu1
I0507 20:18:51.363448  6963 net.cpp:94] Creating Layer relu1
I0507 20:18:51.363452  6963 net.cpp:435] relu1 <- conv1
I0507 20:18:51.363456  6963 net.cpp:396] relu1 -> conv1 (in-place)
I0507 20:18:51.363464  6963 net.cpp:144] Setting up relu1
I0507 20:18:51.363468  6963 net.cpp:151] Top shape: 20 64 10 10 (128000)
I0507 20:18:51.363472  6963 net.cpp:159] Memory required for data: 1032080
I0507 20:18:51.363476  6963 layer_factory.hpp:77] Creating layer conv2
I0507 20:18:51.363482  6963 net.cpp:94] Creating Layer conv2
I0507 20:18:51.363487  6963 net.cpp:435] conv2 <- conv1
I0507 20:18:51.363492  6963 net.cpp:409] conv2 -> conv2
I0507 20:18:51.368856  6963 net.cpp:144] Setting up conv2
I0507 20:18:51.368870  6963 net.cpp:151] Top shape: 20 64 10 10 (128000)
I0507 20:18:51.368875  6963 net.cpp:159] Memory required for data: 1544080
I0507 20:18:51.368882  6963 layer_factory.hpp:77] Creating layer relu2
I0507 20:18:51.368888  6963 net.cpp:94] Creating Layer relu2
I0507 20:18:51.368892  6963 net.cpp:435] relu2 <- conv2
I0507 20:18:51.368897  6963 net.cpp:396] relu2 -> conv2 (in-place)
I0507 20:18:51.368904  6963 net.cpp:144] Setting up relu2
I0507 20:18:51.368908  6963 net.cpp:151] Top shape: 20 64 10 10 (128000)
I0507 20:18:51.368912  6963 net.cpp:159] Memory required for data: 2056080
I0507 20:18:51.368916  6963 layer_factory.hpp:77] Creating layer pool2
I0507 20:18:51.368921  6963 net.cpp:94] Creating Layer pool2
I0507 20:18:51.368926  6963 net.cpp:435] pool2 <- conv2
I0507 20:18:51.368929  6963 net.cpp:409] pool2 -> pool2
I0507 20:18:51.368983  6963 net.cpp:144] Setting up pool2
I0507 20:18:51.368991  6963 net.cpp:151] Top shape: 20 64 5 5 (32000)
I0507 20:18:51.368994  6963 net.cpp:159] Memory required for data: 2184080
I0507 20:18:51.368999  6963 layer_factory.hpp:77] Creating layer conv3
I0507 20:18:51.369006  6963 net.cpp:94] Creating Layer conv3
I0507 20:18:51.369010  6963 net.cpp:435] conv3 <- pool2
I0507 20:18:51.369015  6963 net.cpp:409] conv3 -> conv3
I0507 20:18:51.374738  6963 net.cpp:144] Setting up conv3
I0507 20:18:51.374753  6963 net.cpp:151] Top shape: 20 64 5 5 (32000)
I0507 20:18:51.374758  6963 net.cpp:159] Memory required for data: 2312080
I0507 20:18:51.374765  6963 layer_factory.hpp:77] Creating layer relu3
I0507 20:18:51.374773  6963 net.cpp:94] Creating Layer relu3
I0507 20:18:51.374776  6963 net.cpp:435] relu3 <- conv3
I0507 20:18:51.374780  6963 net.cpp:396] relu3 -> conv3 (in-place)
I0507 20:18:51.374788  6963 net.cpp:144] Setting up relu3
I0507 20:18:51.374792  6963 net.cpp:151] Top shape: 20 64 5 5 (32000)
I0507 20:18:51.374796  6963 net.cpp:159] Memory required for data: 2440080
I0507 20:18:51.374799  6963 layer_factory.hpp:77] Creating layer conv4
I0507 20:18:51.374809  6963 net.cpp:94] Creating Layer conv4
I0507 20:18:51.374812  6963 net.cpp:435] conv4 <- conv3
I0507 20:18:51.374817  6963 net.cpp:409] conv4 -> conv4
I0507 20:18:51.379706  6963 net.cpp:144] Setting up conv4
I0507 20:18:51.379720  6963 net.cpp:151] Top shape: 20 64 5 5 (32000)
I0507 20:18:51.379724  6963 net.cpp:159] Memory required for data: 2568080
I0507 20:18:51.379730  6963 layer_factory.hpp:77] Creating layer relu4
I0507 20:18:51.379737  6963 net.cpp:94] Creating Layer relu4
I0507 20:18:51.379741  6963 net.cpp:435] relu4 <- conv4
I0507 20:18:51.379745  6963 net.cpp:396] relu4 -> conv4 (in-place)
I0507 20:18:51.379752  6963 net.cpp:144] Setting up relu4
I0507 20:18:51.379757  6963 net.cpp:151] Top shape: 20 64 5 5 (32000)
I0507 20:18:51.379760  6963 net.cpp:159] Memory required for data: 2696080
I0507 20:18:51.379765  6963 layer_factory.hpp:77] Creating layer conv5
I0507 20:18:51.379771  6963 net.cpp:94] Creating Layer conv5
I0507 20:18:51.379776  6963 net.cpp:435] conv5 <- conv4
I0507 20:18:51.379781  6963 net.cpp:409] conv5 -> conv5
I0507 20:18:51.384235  6963 net.cpp:144] Setting up conv5
I0507 20:18:51.384248  6963 net.cpp:151] Top shape: 20 64 5 5 (32000)
I0507 20:18:51.384253  6963 net.cpp:159] Memory required for data: 2824080
I0507 20:18:51.384261  6963 layer_factory.hpp:77] Creating layer relu5
I0507 20:18:51.384268  6963 net.cpp:94] Creating Layer relu5
I0507 20:18:51.384271  6963 net.cpp:435] relu5 <- conv5
I0507 20:18:51.384276  6963 net.cpp:396] relu5 -> conv5 (in-place)
I0507 20:18:51.384284  6963 net.cpp:144] Setting up relu5
I0507 20:18:51.384289  6963 net.cpp:151] Top shape: 20 64 5 5 (32000)
I0507 20:18:51.384291  6963 net.cpp:159] Memory required for data: 2952080
I0507 20:18:51.384294  6963 layer_factory.hpp:77] Creating layer pool5
I0507 20:18:51.384300  6963 net.cpp:94] Creating Layer pool5
I0507 20:18:51.384304  6963 net.cpp:435] pool5 <- conv5
I0507 20:18:51.384308  6963 net.cpp:409] pool5 -> pool5
I0507 20:18:51.384344  6963 net.cpp:144] Setting up pool5
I0507 20:18:51.384351  6963 net.cpp:151] Top shape: 20 64 2 2 (5120)
I0507 20:18:51.384354  6963 net.cpp:159] Memory required for data: 2972560
I0507 20:18:51.384358  6963 layer_factory.hpp:77] Creating layer ip1
I0507 20:18:51.384366  6963 net.cpp:94] Creating Layer ip1
I0507 20:18:51.384368  6963 net.cpp:435] ip1 <- pool5
I0507 20:18:51.384373  6963 net.cpp:409] ip1 -> ip1
I0507 20:18:51.384902  6963 net.cpp:144] Setting up ip1
I0507 20:18:51.384910  6963 net.cpp:151] Top shape: 20 64 (1280)
I0507 20:18:51.384914  6963 net.cpp:159] Memory required for data: 2977680
I0507 20:18:51.384920  6963 layer_factory.hpp:77] Creating layer ip2
I0507 20:18:51.384927  6963 net.cpp:94] Creating Layer ip2
I0507 20:18:51.384930  6963 net.cpp:435] ip2 <- ip1
I0507 20:18:51.384935  6963 net.cpp:409] ip2 -> ip2
I0507 20:18:51.385161  6963 net.cpp:144] Setting up ip2
I0507 20:18:51.385169  6963 net.cpp:151] Top shape: 20 64 (1280)
I0507 20:18:51.385172  6963 net.cpp:159] Memory required for data: 2982800
I0507 20:18:51.385177  6963 layer_factory.hpp:77] Creating layer ip3
I0507 20:18:51.385184  6963 net.cpp:94] Creating Layer ip3
I0507 20:18:51.385187  6963 net.cpp:435] ip3 <- ip2
I0507 20:18:51.385192  6963 net.cpp:409] ip3 -> ip3
I0507 20:18:51.385388  6963 net.cpp:144] Setting up ip3
I0507 20:18:51.385396  6963 net.cpp:151] Top shape: 20 50 (1000)
I0507 20:18:51.385403  6963 net.cpp:159] Memory required for data: 2986800
I0507 20:18:51.385409  6963 layer_factory.hpp:77] Creating layer loss
I0507 20:18:51.385416  6963 net.cpp:94] Creating Layer loss
I0507 20:18:51.385421  6963 net.cpp:435] loss <- ip3
I0507 20:18:51.385424  6963 net.cpp:435] loss <- label
I0507 20:18:51.385429  6963 net.cpp:409] loss -> loss
I0507 20:18:51.385437  6963 layer_factory.hpp:77] Creating layer loss
…
I0507 20:18:51.386792  6963 solver.cpp:181] Creating test net (#0) specified by net file: ./protocol/dis_50_100_dimension.protocol_distribution
I0507 20:18:51.386819  6963 net.cpp:323] The NetState phase (1) differed from the phase (0) specified by a rule in layer parameters
I0507 20:18:51.386911  6963 net.cpp:52] Initializing net from parameters: 
state {
  phase: TEST
}
layer {
  name: "intercept"
  type: "HDF5Data"
  top: "data"
  top: "label"
  include {
    phase: TEST
  }
  hdf5_data_param {
    source: "/home/purduethu/scratch/radon/d/deng106/CNNStatisticalModel/distributions/input/50_distributions_100_sample_size_test-distributions-path.txt"
    batch_size: 20
  }
}
layer {
  name: "conv1"
  type: "Convolution"
  bottom: "data"
  top: "conv1"
  param {
    lr_mult: 1
  }
  param {
    lr_mult: 2
  }
  convolution_param {
    num_output: 64
    pad: 2
    kernel_size: 5
    stride: 1
    weight_filler {
      type: "gaussian"
      std: 0.0001
    }
    bias_filler {
      type: "constant"
    }
  }
}
layer {
  name: "relu1"
  type: "ReLU"
  bottom: "conv1"
  top: "conv1"
}
layer {
  name: "conv2"
  type: "Convolution"
  bottom: "conv1"
  top: "conv2"
  param {
    lr_mult: 1
  }
  param {
    lr_mult: 2
  }
  convolution_param {
    num_output: 64
    pad: 2
    kernel_size: 5
    stride: 1
    weight_filler {
      type: "gaussian"
      std: 0.01
    }
    bias_filler {
      type: "constant"
    }
  }
}
layer {
  name: "relu2"
  type: "ReLU"
  bottom: "conv2"
  top: "conv2"
}
layer {
  name: "pool2"
  type: "Pooling"
  bottom: "conv2"
  top: "pool2"
  pooling_param {
    pool: MAX
    kernel_size: 3
    stride: 2
  }
}
layer {
  name: "conv3"
  type: "Convolution"
  bottom: "pool2"
  top: "conv3"
  param {
    lr_mult: 1
  }
  param {
    lr_mult: 2
  }
  convolution_param {
    num_output: 64
    pad: 2
    kernel_size: 5
    stride: 1
    weight_filler {
      type: "gaussian"
      std: 0.01
    }
    bias_filler {
      type: "constant"
    }
  }
}
layer {
  name: "relu3"
  type: "ReLU"
  bottom: "conv3"
  top: "conv3"
}
layer {
  name: "conv4"
  type: "Convolution"
  bottom: "conv3"
  top: "conv4"
  param {
    lr_mult: 1
  }
  param {
    lr_mult: 2
  }
  convolution_param {
    num_output: 64
    pad: 2
    kernel_size: 5
    stride: 1
    weight_filler {
      type: "gaussian"
      std: 0.01
    }
    bias_filler {
      type: "constant"
    }
  }
}
layer {
  name: "relu4"
  type: "ReLU"
  bottom: "conv4"
  top: "conv4"
}
layer {
  name: "conv5"
  type: "Convolution"
  bottom: "conv4"
  top: "conv5"
  param {
    lr_mult: 1
  }
  param {
    lr_mult: 2
  }
  convolution_param {
    num_output: 64
    pad: 2
    kernel_size: 5
    stride: 1
    weight_filler {
      type: "gaussian"
      std: 0.01
    }
    bias_filler {
      type: "constant"
    }
  }
}
layer {
  name: "relu5"
  type: "ReLU"
  bottom: "conv5"
  top: "conv5"
}
layer {
  name: "pool5"
  type: "Pooling"
  bottom: "conv5"
  top: "pool5"
  pooling_param {
    pool: AVE
    kernel_size: 3
    stride: 2
  }
}
layer {
  name: "ip1"
  type: "InnerProduct"
  bottom: "pool5"
  top: "ip1"
  param {
    lr_mult: 1
  }
  param {
    lr_mult: 2
  }
  inner_product_param {
    num_output: 64
    weight_filler {
      type: "gaussian"
      std: 0.1
    }
    bias_filler {
      type: "constant"
    }
  }
}
layer {
  name: "ip2"
  type: "InnerProduct"
  bottom: "ip1"
  top: "ip2"
  param {
    lr_mult: 1
  }
  param {
    lr_mult: 2
  }
  inner_product_param {
    num_output: 64
    weight_filler {
      type: "gaussian"
      std: 0.1
    }
    bias_filler {
      type: "constant"
    }
  }
}
layer {
  name: "ip3"
  type: "InnerProduct"
  bottom: "ip2"
  top: "ip3"
  param {
    lr_mult: 1
  }
  param {
    lr_mult: 2
  }
  inner_product_param {
    num_output: 50
    weight_filler {
      type: "gaussian"
      std: 0.1
    }
    bias_filler {
      type: "constant"
    }
  }
}
layer {
  name: "accuracy"
  type: "Accuracy"
  bottom: "ip3"
  bottom: "label"
  top: "accuracy"
  include {
    phase: TEST
  }
}
layer {
  name: "loss"
  type: "SoftmaxWithLoss"
  bottom: "ip3"
  bottom: "label"
  top: "loss"
}
I0507 20:18:51.386976  6963 layer_factory.hpp:77] Creating layer intercept
I0507 20:18:51.386984  6963 net.cpp:94] Creating Layer intercept
I0507 20:18:51.386988  6963 net.cpp:409] intercept -> data
I0507 20:18:51.386996  6963 net.cpp:409] intercept -> label
I0507 20:18:51.387002  6963 hdf5_data_layer.cpp:79] Loading list of HDF5 filenames from: /home/purduethu/scratch/radon/d/deng106/CNNStatisticalModel/distributions/input/50_distributions_100_sample_size_test-distributions-path.txt
I0507 20:18:51.387022  6963 hdf5_data_layer.cpp:93] Number of HDF5 files: 1
I0507 20:18:51.428409  6963 net.cpp:144] Setting up intercept
I0507 20:18:51.428443  6963 net.cpp:151] Top shape: 20 1 10 10 (2000)
I0507 20:18:51.428449  6963 net.cpp:151] Top shape: 20 (20)
I0507 20:18:51.428452  6963 net.cpp:159] Memory required for data: 8080
I0507 20:18:51.428459  6963 layer_factory.hpp:77] Creating layer label_intercept_1_split
I0507 20:18:51.428478  6963 net.cpp:94] Creating Layer label_intercept_1_split
I0507 20:18:51.428483  6963 net.cpp:435] label_intercept_1_split <- label
I0507 20:18:51.428490  6963 net.cpp:409] label_intercept_1_split -> label_intercept_1_split_0
I0507 20:18:51.428498  6963 net.cpp:409] label_intercept_1_split -> label_intercept_1_split_1
I0507 20:18:51.428544  6963 net.cpp:144] Setting up label_intercept_1_split
I0507 20:18:51.428561  6963 net.cpp:151] Top shape: 20 (20)
I0507 20:18:51.428566  6963 net.cpp:151] Top shape: 20 (20)
I0507 20:18:51.428570  6963 net.cpp:159] Memory required for data: 8240
I0507 20:18:51.428575  6963 layer_factory.hpp:77] Creating layer conv1
I0507 20:18:51.428586  6963 net.cpp:94] Creating Layer conv1
I0507 20:18:51.428591  6963 net.cpp:435] conv1 <- data
I0507 20:18:51.428596  6963 net.cpp:409] conv1 -> conv1
I0507 20:18:51.429396  6963 net.cpp:144] Setting up conv1
I0507 20:18:51.429409  6963 net.cpp:151] Top shape: 20 64 10 10 (128000)
I0507 20:18:51.429420  6963 net.cpp:159] Memory required for data: 520240
I0507 20:18:51.429431  6963 layer_factory.hpp:77] Creating layer relu1
I0507 20:18:51.429438  6963 net.cpp:94] Creating Layer relu1
I0507 20:18:51.429442  6963 net.cpp:435] relu1 <- conv1
I0507 20:18:51.429446  6963 net.cpp:396] relu1 -> conv1 (in-place)
I0507 20:18:51.429455  6963 net.cpp:144] Setting up relu1
I0507 20:18:51.429458  6963 net.cpp:151] Top shape: 20 64 10 10 (128000)
I0507 20:18:51.429462  6963 net.cpp:159] Memory required for data: 1032240
I0507 20:18:51.429466  6963 layer_factory.hpp:77] Creating layer conv2
I0507 20:18:51.429473  6963 net.cpp:94] Creating Layer conv2
I0507 20:18:51.429476  6963 net.cpp:435] conv2 <- conv1
I0507 20:18:51.429481  6963 net.cpp:409] conv2 -> conv2
I0507 20:18:51.433557  6963 net.cpp:144] Setting up conv2
I0507 20:18:51.433569  6963 net.cpp:151] Top shape: 20 64 10 10 (128000)
I0507 20:18:51.433574  6963 net.cpp:159] Memory required for data: 1544240
I0507 20:18:51.433583  6963 layer_factory.hpp:77] Creating layer relu2
I0507 20:18:51.433590  6963 net.cpp:94] Creating Layer relu2
I0507 20:18:51.433594  6963 net.cpp:435] relu2 <- conv2
I0507 20:18:51.433599  6963 net.cpp:396] relu2 -> conv2 (in-place)
I0507 20:18:51.433606  6963 net.cpp:144] Setting up relu2
I0507 20:18:51.433610  6963 net.cpp:151] Top shape: 20 64 10 10 (128000)
I0507 20:18:51.433614  6963 net.cpp:159] Memory required for data: 2056240
I0507 20:18:51.433617  6963 layer_factory.hpp:77] Creating layer pool2
I0507 20:18:51.433624  6963 net.cpp:94] Creating Layer pool2
I0507 20:18:51.433626  6963 net.cpp:435] pool2 <- conv2
I0507 20:18:51.433630  6963 net.cpp:409] pool2 -> pool2
I0507 20:18:51.433687  6963 net.cpp:144] Setting up pool2
I0507 20:18:51.433694  6963 net.cpp:151] Top shape: 20 64 5 5 (32000)
I0507 20:18:51.433698  6963 net.cpp:159] Memory required for data: 2184240
I0507 20:18:51.433701  6963 layer_factory.hpp:77] Creating layer conv3
I0507 20:18:51.433710  6963 net.cpp:94] Creating Layer conv3
I0507 20:18:51.433714  6963 net.cpp:435] conv3 <- pool2
I0507 20:18:51.433720  6963 net.cpp:409] conv3 -> conv3
I0507 20:18:51.438138  6963 net.cpp:144] Setting up conv3
I0507 20:18:51.438151  6963 net.cpp:151] Top shape: 20 64 5 5 (32000)
I0507 20:18:51.438155  6963 net.cpp:159] Memory required for data: 2312240
I0507 20:18:51.438164  6963 layer_factory.hpp:77] Creating layer relu3
I0507 20:18:51.438171  6963 net.cpp:94] Creating Layer relu3
I0507 20:18:51.438175  6963 net.cpp:435] relu3 <- conv3
I0507 20:18:51.438180  6963 net.cpp:396] relu3 -> conv3 (in-place)
I0507 20:18:51.438187  6963 net.cpp:144] Setting up relu3
I0507 20:18:51.438191  6963 net.cpp:151] Top shape: 20 64 5 5 (32000)
I0507 20:18:51.438195  6963 net.cpp:159] Memory required for data: 2440240
I0507 20:18:51.438199  6963 layer_factory.hpp:77] Creating layer conv4
I0507 20:18:51.438207  6963 net.cpp:94] Creating Layer conv4
I0507 20:18:51.438211  6963 net.cpp:435] conv4 <- conv3
I0507 20:18:51.438217  6963 net.cpp:409] conv4 -> conv4
I0507 20:18:51.441773  6963 net.cpp:144] Setting up conv4
I0507 20:18:51.441787  6963 net.cpp:151] Top shape: 20 64 5 5 (32000)
I0507 20:18:51.441792  6963 net.cpp:159] Memory required for data: 2568240
I0507 20:18:51.441797  6963 layer_factory.hpp:77] Creating layer relu4
I0507 20:18:51.441803  6963 net.cpp:94] Creating Layer relu4
I0507 20:18:51.441807  6963 net.cpp:435] relu4 <- conv4
I0507 20:18:51.441812  6963 net.cpp:396] relu4 -> conv4 (in-place)
I0507 20:18:51.441818  6963 net.cpp:144] Setting up relu4
I0507 20:18:51.441823  6963 net.cpp:151] Top shape: 20 64 5 5 (32000)
I0507 20:18:51.441826  6963 net.cpp:159] Memory required for data: 2696240
I0507 20:18:51.441829  6963 layer_factory.hpp:77] Creating layer conv5
I0507 20:18:51.441839  6963 net.cpp:94] Creating Layer conv5
I0507 20:18:51.441843  6963 net.cpp:435] conv5 <- conv4
I0507 20:18:51.441848  6963 net.cpp:409] conv5 -> conv5
I0507 20:18:51.445830  6963 net.cpp:144] Setting up conv5
I0507 20:18:51.445843  6963 net.cpp:151] Top shape: 20 64 5 5 (32000)
I0507 20:18:51.445847  6963 net.cpp:159] Memory required for data: 2824240
I0507 20:18:51.445863  6963 layer_factory.hpp:77] Creating layer relu5
I0507 20:18:51.445869  6963 net.cpp:94] Creating Layer relu5
I0507 20:18:51.445873  6963 net.cpp:435] relu5 <- conv5
I0507 20:18:51.445878  6963 net.cpp:396] relu5 -> conv5 (in-place)
I0507 20:18:51.445885  6963 net.cpp:144] Setting up relu5
I0507 20:18:51.445890  6963 net.cpp:151] Top shape: 20 64 5 5 (32000)
I0507 20:18:51.445894  6963 net.cpp:159] Memory required for data: 2952240
I0507 20:18:51.445896  6963 layer_factory.hpp:77] Creating layer pool5
I0507 20:18:51.445902  6963 net.cpp:94] Creating Layer pool5
I0507 20:18:51.445905  6963 net.cpp:435] pool5 <- conv5
I0507 20:18:51.445912  6963 net.cpp:409] pool5 -> pool5
I0507 20:18:51.445951  6963 net.cpp:144] Setting up pool5
I0507 20:18:51.445958  6963 net.cpp:151] Top shape: 20 64 2 2 (5120)
I0507 20:18:51.445962  6963 net.cpp:159] Memory required for data: 2972720
I0507 20:18:51.445966  6963 layer_factory.hpp:77] Creating layer ip1
I0507 20:18:51.445973  6963 net.cpp:94] Creating Layer ip1
I0507 20:18:51.445977  6963 net.cpp:435] ip1 <- pool5
I0507 20:18:51.445983  6963 net.cpp:409] ip1 -> ip1
I0507 20:18:51.446512  6963 net.cpp:144] Setting up ip1
I0507 20:18:51.446519  6963 net.cpp:151] Top shape: 20 64 (1280)
I0507 20:18:51.446523  6963 net.cpp:159] Memory required for data: 2977840
I0507 20:18:51.446528  6963 layer_factory.hpp:77] Creating layer ip2
I0507 20:18:51.446535  6963 net.cpp:94] Creating Layer ip2
I0507 20:18:51.446538  6963 net.cpp:435] ip2 <- ip1
I0507 20:18:51.446543  6963 net.cpp:409] ip2 -> ip2
I0507 20:18:51.446771  6963 net.cpp:144] Setting up ip2
I0507 20:18:51.446779  6963 net.cpp:151] Top shape: 20 64 (1280)
I0507 20:18:51.446782  6963 net.cpp:159] Memory required for data: 2982960
I0507 20:18:51.446787  6963 layer_factory.hpp:77] Creating layer ip3
I0507 20:18:51.446795  6963 net.cpp:94] Creating Layer ip3
I0507 20:18:51.446799  6963 net.cpp:435] ip3 <- ip2
I0507 20:18:51.446805  6963 net.cpp:409] ip3 -> ip3
I0507 20:18:51.447007  6963 net.cpp:144] Setting up ip3
I0507 20:18:51.447015  6963 net.cpp:151] Top shape: 20 50 (1000)
I0507 20:18:51.447017  6963 net.cpp:159] Memory required for data: 2986960
I0507 20:18:51.447022  6963 layer_factory.hpp:77] Creating layer ip3_ip3_0_split
I0507 20:18:51.447028  6963 net.cpp:94] Creating Layer ip3_ip3_0_split
I0507 20:18:51.447031  6963 net.cpp:435] ip3_ip3_0_split <- ip3
I0507 20:18:51.447036  6963 net.cpp:409] ip3_ip3_0_split -> ip3_ip3_0_split_0
I0507 20:18:51.447042  6963 net.cpp:409] ip3_ip3_0_split -> ip3_ip3_0_split_1
I0507 20:18:51.447084  6963 net.cpp:144] Setting up ip3_ip3_0_split
I0507 20:18:51.447090  6963 net.cpp:151] Top shape: 20 50 (1000)
I0507 20:18:51.447094  6963 net.cpp:151] Top shape: 20 50 (1000)
I0507 20:18:51.447098  6963 net.cpp:159] Memory required for data: 2994960
I0507 20:18:51.447100  6963 layer_factory.hpp:77] Creating layer accuracy
I0507 20:18:51.447106  6963 net.cpp:94] Creating Layer accuracy
I0507 20:18:51.447110  6963 net.cpp:435] accuracy <- ip3_ip3_0_split_0
I0507 20:18:51.447114  6963 net.cpp:435] accuracy <- label_intercept_1_split_0
I0507 20:18:51.447119  6963 net.cpp:409] accuracy -> accuracy
…
