…
I0507 04:03:15.924088 31309 net.cpp:323] The NetState phase (0) differed from the phase (1) specified by a rule in layer intercept
I0507 04:03:15.924109 31309 net.cpp:323] The NetState phase (0) differed from the phase (1) specified by a rule in layer loss
I0507 04:03:15.924221 31309 net.cpp:52] Initializing net from parameters: 
state {
  phase: TRAIN
}
layer {
  name: "parameters"
  type: "HDF5Data"
  top: "data"
  top: "label"
  include {
    phase: TRAIN
  }
  hdf5_data_param {
    source: "/home/purduethu/scratch/radon/d/deng106/CNNStatisticalModel/distributions/input/50_distributions_100_sample_size_train-parameters-path.txt"
    batch_size: 20
  }
}
layer {
  name: "conv1"
  type: "Convolution"
  bottom: "data"
  top: "conv1"
  param {
    lr_mult: 1
  }
  param {
    lr_mult: 2
  }
  convolution_param {
    num_output: 64
    pad: 2
    kernel_size: 5
    stride: 1
    weight_filler {
      type: "gaussian"
      std: 0.0001
    }
    bias_filler {
      type: "constant"
    }
  }
}
layer {
  name: "relu1"
  type: "ReLU"
  bottom: "conv1"
  top: "conv1"
}
layer {
  name: "conv2"
  type: "Convolution"
  bottom: "conv1"
  top: "conv2"
  param {
    lr_mult: 1
  }
  param {
    lr_mult: 2
  }
  convolution_param {
    num_output: 64
    pad: 2
    kernel_size: 5
    stride: 1
    weight_filler {
      type: "gaussian"
      std: 0.01
    }
    bias_filler {
      type: "constant"
    }
  }
}
layer {
  name: "relu2"
  type: "ReLU"
  bottom: "conv2"
  top: "conv2"
}
layer {
  name: "pool2"
  type: "Pooling"
  bottom: "conv2"
  top: "pool2"
  pooling_param {
    pool: MAX
    kernel_size: 3
    stride: 2
  }
}
layer {
  name: "conv3"
  type: "Convolution"
  bottom: "pool2"
  top: "conv3"
  param {
    lr_mult: 1
  }
  param {
    lr_mult: 2
  }
  convolution_param {
    num_output: 64
    pad: 2
    kernel_size: 5
    stride: 1
    weight_filler {
      type: "gaussian"
      std: 0.01
    }
    bias_filler {
      type: "constant"
    }
  }
}
layer {
  name: "relu3"
  type: "ReLU"
  bottom: "conv3"
  top: "conv3"
}
layer {
  name: "conv4"
  type: "Convolution"
  bottom: "conv3"
  top: "conv4"
  param {
    lr_mult: 1
  }
  param {
    lr_mult: 2
  }
  convolution_param {
    num_output: 64
    pad: 2
    kernel_size: 5
    stride: 1
    weight_filler {
      type: "gaussian"
      std: 0.01
    }
    bias_filler {
      type: "constant"
    }
  }
}
layer {
  name: "relu4"
  type: "ReLU"
  bottom: "conv4"
  top: "conv4"
}
layer {
  name: "conv5"
  type: "Convolution"
  bottom: "conv4"
  top: "conv5"
  param {
    lr_mult: 1
  }
  param {
    lr_mult: 2
  }
  convolution_param {
    num_output: 64
    pad: 2
    kernel_size: 5
    stride: 1
    weight_filler {
      type: "gaussian"
      std: 0.01
    }
    bias_filler {
      type: "constant"
    }
  }
}
layer {
  name: "relu5"
  type: "ReLU"
  bottom: "conv5"
  top: "conv5"
}
layer {
  name: "pool5"
  type: "Pooling"
  bottom: "conv5"
  top: "pool5"
  pooling_param {
    pool: AVE
    kernel_size: 3
    stride: 2
  }
}
layer {
  name: "ip1"
  type: "InnerProduct"
  bottom: "pool5"
  top: "ip1"
  param {
    lr_mult: 1
  }
  param {
    lr_mult: 2
  }
  inner_product_param {
    num_output: 64
    weight_filler {
      type: "gaussian"
      std: 0.1
    }
    bias_filler {
      type: "constant"
    }
  }
}
layer {
  name: "ip2"
  type: "InnerProduct"
  bottom: "ip1"
  top: "ip2"
  param {
    lr_mult: 1
  }
  param {
    lr_mult: 2
  }
  inner_product_param {
    num_output: 64
    weight_filler {
      type: "gaussian"
      std: 0.1
    }
    bias_filler {
      type: "constant"
    }
  }
}
layer {
  name: "ip3"
  type: "InnerProduct"
  bottom: "ip2"
  top: "ip3"
  param {
    lr_mult: 1
  }
  param {
    lr_mult: 2
  }
  inner_product_param {
    num_output: 1
    weight_filler {
      type: "gaussian"
      std: 0.1
    }
    bias_filler {
      type: "constant"
    }
  }
}
layer {
  name: "loss"
  type: "HuberLoss"
  bottom: "ip3"
  bottom: "label"
  top: "loss"
  include {
    phase: TRAIN
  }
}
I0507 04:03:15.924293 31309 layer_factory.hpp:77] Creating layer parameters
I0507 04:03:15.924309 31309 net.cpp:94] Creating Layer parameters
I0507 04:03:15.924315 31309 net.cpp:409] parameters -> data
I0507 04:03:15.924332 31309 net.cpp:409] parameters -> label
I0507 04:03:15.924341 31309 hdf5_data_layer.cpp:79] Loading list of HDF5 filenames from: /home/purduethu/scratch/radon/d/deng106/CNNStatisticalModel/distributions/input/50_distributions_100_sample_size_train-parameters-path.txt
I0507 04:03:15.924360 31309 hdf5_data_layer.cpp:93] Number of HDF5 files: 1
I0507 04:03:15.925071 31309 hdf5.cpp:32] Datatype class: H5T_FLOAT
I0507 04:03:16.097759 31309 net.cpp:144] Setting up parameters
I0507 04:03:16.097791 31309 net.cpp:151] Top shape: 20 1 10 10 (2000)
I0507 04:03:16.097797 31309 net.cpp:151] Top shape: 20 (20)
I0507 04:03:16.097801 31309 net.cpp:159] Memory required for data: 8080
I0507 04:03:16.097807 31309 layer_factory.hpp:77] Creating layer conv1
I0507 04:03:16.097826 31309 net.cpp:94] Creating Layer conv1
I0507 04:03:16.097831 31309 net.cpp:435] conv1 <- data
I0507 04:03:16.097836 31309 net.cpp:409] conv1 -> conv1
I0507 04:03:16.102027 31309 net.cpp:144] Setting up conv1
I0507 04:03:16.102043 31309 net.cpp:151] Top shape: 20 64 10 10 (128000)
I0507 04:03:16.102047 31309 net.cpp:159] Memory required for data: 520080
I0507 04:03:16.102058 31309 layer_factory.hpp:77] Creating layer relu1
I0507 04:03:16.102067 31309 net.cpp:94] Creating Layer relu1
I0507 04:03:16.102072 31309 net.cpp:435] relu1 <- conv1
I0507 04:03:16.102075 31309 net.cpp:396] relu1 -> conv1 (in-place)
I0507 04:03:16.102084 31309 net.cpp:144] Setting up relu1
I0507 04:03:16.102088 31309 net.cpp:151] Top shape: 20 64 10 10 (128000)
I0507 04:03:16.102092 31309 net.cpp:159] Memory required for data: 1032080
I0507 04:03:16.102095 31309 layer_factory.hpp:77] Creating layer conv2
I0507 04:03:16.102104 31309 net.cpp:94] Creating Layer conv2
I0507 04:03:16.102108 31309 net.cpp:435] conv2 <- conv1
I0507 04:03:16.102113 31309 net.cpp:409] conv2 -> conv2
I0507 04:03:16.108197 31309 net.cpp:144] Setting up conv2
I0507 04:03:16.108211 31309 net.cpp:151] Top shape: 20 64 10 10 (128000)
I0507 04:03:16.108216 31309 net.cpp:159] Memory required for data: 1544080
I0507 04:03:16.108224 31309 layer_factory.hpp:77] Creating layer relu2
I0507 04:03:16.108232 31309 net.cpp:94] Creating Layer relu2
I0507 04:03:16.108235 31309 net.cpp:435] relu2 <- conv2
I0507 04:03:16.108240 31309 net.cpp:396] relu2 -> conv2 (in-place)
I0507 04:03:16.108247 31309 net.cpp:144] Setting up relu2
I0507 04:03:16.108253 31309 net.cpp:151] Top shape: 20 64 10 10 (128000)
I0507 04:03:16.108255 31309 net.cpp:159] Memory required for data: 2056080
I0507 04:03:16.108259 31309 layer_factory.hpp:77] Creating layer pool2
I0507 04:03:16.108265 31309 net.cpp:94] Creating Layer pool2
I0507 04:03:16.108268 31309 net.cpp:435] pool2 <- conv2
I0507 04:03:16.108273 31309 net.cpp:409] pool2 -> pool2
I0507 04:03:16.108326 31309 net.cpp:144] Setting up pool2
I0507 04:03:16.108335 31309 net.cpp:151] Top shape: 20 64 5 5 (32000)
I0507 04:03:16.108337 31309 net.cpp:159] Memory required for data: 2184080
I0507 04:03:16.108341 31309 layer_factory.hpp:77] Creating layer conv3
I0507 04:03:16.108350 31309 net.cpp:94] Creating Layer conv3
I0507 04:03:16.108355 31309 net.cpp:435] conv3 <- pool2
I0507 04:03:16.108366 31309 net.cpp:409] conv3 -> conv3
I0507 04:03:16.113279 31309 net.cpp:144] Setting up conv3
I0507 04:03:16.113293 31309 net.cpp:151] Top shape: 20 64 5 5 (32000)
I0507 04:03:16.113297 31309 net.cpp:159] Memory required for data: 2312080
I0507 04:03:16.113306 31309 layer_factory.hpp:77] Creating layer relu3
I0507 04:03:16.113313 31309 net.cpp:94] Creating Layer relu3
I0507 04:03:16.113317 31309 net.cpp:435] relu3 <- conv3
I0507 04:03:16.113322 31309 net.cpp:396] relu3 -> conv3 (in-place)
I0507 04:03:16.113329 31309 net.cpp:144] Setting up relu3
I0507 04:03:16.113334 31309 net.cpp:151] Top shape: 20 64 5 5 (32000)
I0507 04:03:16.113337 31309 net.cpp:159] Memory required for data: 2440080
I0507 04:03:16.113340 31309 layer_factory.hpp:77] Creating layer conv4
I0507 04:03:16.113349 31309 net.cpp:94] Creating Layer conv4
I0507 04:03:16.113353 31309 net.cpp:435] conv4 <- conv3
I0507 04:03:16.113358 31309 net.cpp:409] conv4 -> conv4
I0507 04:03:16.117789 31309 net.cpp:144] Setting up conv4
I0507 04:03:16.117804 31309 net.cpp:151] Top shape: 20 64 5 5 (32000)
I0507 04:03:16.117808 31309 net.cpp:159] Memory required for data: 2568080
I0507 04:03:16.117815 31309 layer_factory.hpp:77] Creating layer relu4
I0507 04:03:16.117820 31309 net.cpp:94] Creating Layer relu4
I0507 04:03:16.117825 31309 net.cpp:435] relu4 <- conv4
I0507 04:03:16.117830 31309 net.cpp:396] relu4 -> conv4 (in-place)
I0507 04:03:16.117836 31309 net.cpp:144] Setting up relu4
I0507 04:03:16.117841 31309 net.cpp:151] Top shape: 20 64 5 5 (32000)
I0507 04:03:16.117844 31309 net.cpp:159] Memory required for data: 2696080
I0507 04:03:16.117848 31309 layer_factory.hpp:77] Creating layer conv5
I0507 04:03:16.117856 31309 net.cpp:94] Creating Layer conv5
I0507 04:03:16.117861 31309 net.cpp:435] conv5 <- conv4
I0507 04:03:16.117866 31309 net.cpp:409] conv5 -> conv5
I0507 04:03:16.122736 31309 net.cpp:144] Setting up conv5
I0507 04:03:16.122750 31309 net.cpp:151] Top shape: 20 64 5 5 (32000)
I0507 04:03:16.122756 31309 net.cpp:159] Memory required for data: 2824080
I0507 04:03:16.122763 31309 layer_factory.hpp:77] Creating layer relu5
I0507 04:03:16.122771 31309 net.cpp:94] Creating Layer relu5
I0507 04:03:16.122774 31309 net.cpp:435] relu5 <- conv5
I0507 04:03:16.122779 31309 net.cpp:396] relu5 -> conv5 (in-place)
I0507 04:03:16.122786 31309 net.cpp:144] Setting up relu5
I0507 04:03:16.122790 31309 net.cpp:151] Top shape: 20 64 5 5 (32000)
I0507 04:03:16.122794 31309 net.cpp:159] Memory required for data: 2952080
I0507 04:03:16.122797 31309 layer_factory.hpp:77] Creating layer pool5
I0507 04:03:16.122802 31309 net.cpp:94] Creating Layer pool5
I0507 04:03:16.122807 31309 net.cpp:435] pool5 <- conv5
I0507 04:03:16.122810 31309 net.cpp:409] pool5 -> pool5
I0507 04:03:16.122848 31309 net.cpp:144] Setting up pool5
I0507 04:03:16.122855 31309 net.cpp:151] Top shape: 20 64 2 2 (5120)
I0507 04:03:16.122859 31309 net.cpp:159] Memory required for data: 2972560
I0507 04:03:16.122862 31309 layer_factory.hpp:77] Creating layer ip1
I0507 04:03:16.122872 31309 net.cpp:94] Creating Layer ip1
I0507 04:03:16.122876 31309 net.cpp:435] ip1 <- pool5
I0507 04:03:16.122881 31309 net.cpp:409] ip1 -> ip1
I0507 04:03:16.124198 31309 net.cpp:144] Setting up ip1
I0507 04:03:16.124212 31309 net.cpp:151] Top shape: 20 64 (1280)
I0507 04:03:16.124217 31309 net.cpp:159] Memory required for data: 2977680
I0507 04:03:16.124222 31309 layer_factory.hpp:77] Creating layer ip2
I0507 04:03:16.124230 31309 net.cpp:94] Creating Layer ip2
I0507 04:03:16.124234 31309 net.cpp:435] ip2 <- ip1
I0507 04:03:16.124240 31309 net.cpp:409] ip2 -> ip2
I0507 04:03:16.124449 31309 net.cpp:144] Setting up ip2
I0507 04:03:16.124457 31309 net.cpp:151] Top shape: 20 64 (1280)
I0507 04:03:16.124460 31309 net.cpp:159] Memory required for data: 2982800
I0507 04:03:16.124466 31309 layer_factory.hpp:77] Creating layer ip3
I0507 04:03:16.124472 31309 net.cpp:94] Creating Layer ip3
I0507 04:03:16.124476 31309 net.cpp:435] ip3 <- ip2
I0507 04:03:16.124481 31309 net.cpp:409] ip3 -> ip3
I0507 04:03:16.124601 31309 net.cpp:144] Setting up ip3
I0507 04:03:16.124610 31309 net.cpp:151] Top shape: 20 1 (20)
I0507 04:03:16.124614 31309 net.cpp:159] Memory required for data: 2982880
I0507 04:03:16.124619 31309 layer_factory.hpp:77] Creating layer loss
I0507 04:03:16.124630 31309 net.cpp:94] Creating Layer loss
I0507 04:03:16.124634 31309 net.cpp:435] loss <- ip3
I0507 04:03:16.124639 31309 net.cpp:435] loss <- label
I0507 04:03:16.124644 31309 net.cpp:409] loss -> loss
I0507 04:03:16.124694 31309 net.cpp:144] Setting up loss
…
I0507 04:03:16.186300 31309 net.cpp:323] The NetState phase (0) differed from the phase (1) specified by a rule in layer intercept
I0507 04:03:16.186318 31309 net.cpp:323] The NetState phase (0) differed from the phase (1) specified by a rule in layer accuracy
I0507 04:03:16.186408 31309 net.cpp:52] Initializing net from parameters: 
state {
  phase: TRAIN
}
layer {
  name: "parameters"
  type: "HDF5Data"
  top: "data"
  top: "label"
  include {
    phase: TRAIN
  }
  hdf5_data_param {
    source: "/home/purduethu/scratch/radon/d/deng106/CNNStatisticalModel/distributions/input/50_distributions_100_sample_size_train-distributions-path.txt"
    batch_size: 20
  }
}
layer {
  name: "conv1"
  type: "Convolution"
  bottom: "data"
  top: "conv1"
  param {
    lr_mult: 1
  }
  param {
    lr_mult: 2
  }
  convolution_param {
    num_output: 64
    pad: 2
    kernel_size: 5
    stride: 1
    weight_filler {
      type: "gaussian"
      std: 0.0001
    }
    bias_filler {
      type: "constant"
    }
  }
}
layer {
  name: "relu1"
  type: "ReLU"
  bottom: "conv1"
  top: "conv1"
}
layer {
  name: "conv2"
  type: "Convolution"
  bottom: "conv1"
  top: "conv2"
  param {
    lr_mult: 1
  }
  param {
    lr_mult: 2
  }
  convolution_param {
    num_output: 64
    pad: 2
    kernel_size: 5
    stride: 1
    weight_filler {
      type: "gaussian"
      std: 0.01
    }
    bias_filler {
      type: "constant"
    }
  }
}
layer {
  name: "relu2"
  type: "ReLU"
  bottom: "conv2"
  top: "conv2"
}
layer {
  name: "pool2"
  type: "Pooling"
  bottom: "conv2"
  top: "pool2"
  pooling_param {
    pool: MAX
    kernel_size: 3
    stride: 2
  }
}
layer {
  name: "conv3"
  type: "Convolution"
  bottom: "pool2"
  top: "conv3"
  param {
    lr_mult: 1
  }
  param {
    lr_mult: 2
  }
  convolution_param {
    num_output: 64
    pad: 2
    kernel_size: 5
    stride: 1
    weight_filler {
      type: "gaussian"
      std: 0.01
    }
    bias_filler {
      type: "constant"
    }
  }
}
layer {
  name: "relu3"
  type: "ReLU"
  bottom: "conv3"
  top: "conv3"
}
layer {
  name: "conv4"
  type: "Convolution"
  bottom: "conv3"
  top: "conv4"
  param {
    lr_mult: 1
  }
  param {
    lr_mult: 2
  }
  convolution_param {
    num_output: 64
    pad: 2
    kernel_size: 5
    stride: 1
    weight_filler {
      type: "gaussian"
      std: 0.01
    }
    bias_filler {
      type: "constant"
    }
  }
}
layer {
  name: "relu4"
  type: "ReLU"
  bottom: "conv4"
  top: "conv4"
}
layer {
  name: "conv5"
  type: "Convolution"
  bottom: "conv4"
  top: "conv5"
  param {
    lr_mult: 1
  }
  param {
    lr_mult: 2
  }
  convolution_param {
    num_output: 64
    pad: 2
    kernel_size: 5
    stride: 1
    weight_filler {
      type: "gaussian"
      std: 0.01
    }
    bias_filler {
      type: "constant"
    }
  }
}
layer {
  name: "relu5"
  type: "ReLU"
  bottom: "conv5"
  top: "conv5"
}
layer {
  name: "pool5"
  type: "Pooling"
  bottom: "conv5"
  top: "pool5"
  pooling_param {
    pool: AVE
    kernel_size: 3
    stride: 2
  }
}
layer {
  name: "ip1"
  type: "InnerProduct"
  bottom: "pool5"
  top: "ip1"
  param {
    lr_mult: 1
  }
  param {
    lr_mult: 2
  }
  inner_product_param {
    num_output: 64
    weight_filler {
      type: "gaussian"
      std: 0.1
    }
    bias_filler {
      type: "constant"
    }
  }
}
layer {
  name: "ip2"
  type: "InnerProduct"
  bottom: "ip1"
  top: "ip2"
  param {
    lr_mult: 1
  }
  param {
    lr_mult: 2
  }
  inner_product_param {
    num_output: 64
    weight_filler {
      type: "gaussian"
      std: 0.1
    }
    bias_filler {
      type: "constant"
    }
  }
}
layer {
  name: "ip3"
  type: "InnerProduct"
  bottom: "ip2"
  top: "ip3"
  param {
    lr_mult: 1
  }
  param {
    lr_mult: 2
  }
  inner_product_param {
    num_output: 50
    weight_filler {
      type: "gaussian"
      std: 0.1
    }
    bias_filler {
      type: "constant"
    }
  }
}
layer {
  name: "loss"
  type: "SoftmaxWithLoss"
  bottom: "ip3"
  bottom: "label"
  top: "loss"
}
I0507 04:03:16.186462 31309 layer_factory.hpp:77] Creating layer parameters
I0507 04:03:16.186471 31309 net.cpp:94] Creating Layer parameters
I0507 04:03:16.186475 31309 net.cpp:409] parameters -> data
I0507 04:03:16.186483 31309 net.cpp:409] parameters -> label
I0507 04:03:16.186489 31309 hdf5_data_layer.cpp:79] Loading list of HDF5 filenames from: /home/purduethu/scratch/radon/d/deng106/CNNStatisticalModel/distributions/input/50_distributions_100_sample_size_train-distributions-path.txt
I0507 04:03:16.186506 31309 hdf5_data_layer.cpp:93] Number of HDF5 files: 1
I0507 04:03:16.344854 31309 hdf5.cpp:35] Datatype class: H5T_INTEGER
I0507 04:03:16.347929 31309 net.cpp:144] Setting up parameters
I0507 04:03:16.347944 31309 net.cpp:151] Top shape: 20 1 10 10 (2000)
I0507 04:03:16.347950 31309 net.cpp:151] Top shape: 20 (20)
I0507 04:03:16.347954 31309 net.cpp:159] Memory required for data: 8080
I0507 04:03:16.347959 31309 layer_factory.hpp:77] Creating layer conv1
I0507 04:03:16.347976 31309 net.cpp:94] Creating Layer conv1
I0507 04:03:16.347981 31309 net.cpp:435] conv1 <- data
I0507 04:03:16.347988 31309 net.cpp:409] conv1 -> conv1
I0507 04:03:16.349768 31309 net.cpp:144] Setting up conv1
I0507 04:03:16.349783 31309 net.cpp:151] Top shape: 20 64 10 10 (128000)
I0507 04:03:16.349787 31309 net.cpp:159] Memory required for data: 520080
I0507 04:03:16.349797 31309 layer_factory.hpp:77] Creating layer relu1
I0507 04:03:16.349805 31309 net.cpp:94] Creating Layer relu1
I0507 04:03:16.349809 31309 net.cpp:435] relu1 <- conv1
I0507 04:03:16.349814 31309 net.cpp:396] relu1 -> conv1 (in-place)
I0507 04:03:16.349822 31309 net.cpp:144] Setting up relu1
I0507 04:03:16.349827 31309 net.cpp:151] Top shape: 20 64 10 10 (128000)
I0507 04:03:16.349830 31309 net.cpp:159] Memory required for data: 1032080
I0507 04:03:16.349833 31309 layer_factory.hpp:77] Creating layer conv2
I0507 04:03:16.349841 31309 net.cpp:94] Creating Layer conv2
I0507 04:03:16.349845 31309 net.cpp:435] conv2 <- conv1
I0507 04:03:16.349850 31309 net.cpp:409] conv2 -> conv2
I0507 04:03:16.355166 31309 net.cpp:144] Setting up conv2
I0507 04:03:16.355180 31309 net.cpp:151] Top shape: 20 64 10 10 (128000)
I0507 04:03:16.355185 31309 net.cpp:159] Memory required for data: 1544080
I0507 04:03:16.355192 31309 layer_factory.hpp:77] Creating layer relu2
I0507 04:03:16.355199 31309 net.cpp:94] Creating Layer relu2
I0507 04:03:16.355203 31309 net.cpp:435] relu2 <- conv2
I0507 04:03:16.355208 31309 net.cpp:396] relu2 -> conv2 (in-place)
I0507 04:03:16.355216 31309 net.cpp:144] Setting up relu2
I0507 04:03:16.355221 31309 net.cpp:151] Top shape: 20 64 10 10 (128000)
I0507 04:03:16.355224 31309 net.cpp:159] Memory required for data: 2056080
I0507 04:03:16.355227 31309 layer_factory.hpp:77] Creating layer pool2
I0507 04:03:16.355233 31309 net.cpp:94] Creating Layer pool2
I0507 04:03:16.355237 31309 net.cpp:435] pool2 <- conv2
I0507 04:03:16.355242 31309 net.cpp:409] pool2 -> pool2
I0507 04:03:16.355293 31309 net.cpp:144] Setting up pool2
I0507 04:03:16.355299 31309 net.cpp:151] Top shape: 20 64 5 5 (32000)
I0507 04:03:16.355304 31309 net.cpp:159] Memory required for data: 2184080
I0507 04:03:16.355306 31309 layer_factory.hpp:77] Creating layer conv3
I0507 04:03:16.355315 31309 net.cpp:94] Creating Layer conv3
I0507 04:03:16.355319 31309 net.cpp:435] conv3 <- pool2
I0507 04:03:16.355324 31309 net.cpp:409] conv3 -> conv3
I0507 04:03:16.361116 31309 net.cpp:144] Setting up conv3
I0507 04:03:16.361130 31309 net.cpp:151] Top shape: 20 64 5 5 (32000)
I0507 04:03:16.361135 31309 net.cpp:159] Memory required for data: 2312080
I0507 04:03:16.361143 31309 layer_factory.hpp:77] Creating layer relu3
I0507 04:03:16.361150 31309 net.cpp:94] Creating Layer relu3
I0507 04:03:16.361155 31309 net.cpp:435] relu3 <- conv3
I0507 04:03:16.361160 31309 net.cpp:396] relu3 -> conv3 (in-place)
I0507 04:03:16.361166 31309 net.cpp:144] Setting up relu3
I0507 04:03:16.361171 31309 net.cpp:151] Top shape: 20 64 5 5 (32000)
I0507 04:03:16.361181 31309 net.cpp:159] Memory required for data: 2440080
I0507 04:03:16.361184 31309 layer_factory.hpp:77] Creating layer conv4
I0507 04:03:16.361193 31309 net.cpp:94] Creating Layer conv4
I0507 04:03:16.361197 31309 net.cpp:435] conv4 <- conv3
I0507 04:03:16.361202 31309 net.cpp:409] conv4 -> conv4
I0507 04:03:16.366124 31309 net.cpp:144] Setting up conv4
I0507 04:03:16.366138 31309 net.cpp:151] Top shape: 20 64 5 5 (32000)
I0507 04:03:16.366143 31309 net.cpp:159] Memory required for data: 2568080
I0507 04:03:16.366150 31309 layer_factory.hpp:77] Creating layer relu4
I0507 04:03:16.366156 31309 net.cpp:94] Creating Layer relu4
I0507 04:03:16.366160 31309 net.cpp:435] relu4 <- conv4
I0507 04:03:16.366165 31309 net.cpp:396] relu4 -> conv4 (in-place)
I0507 04:03:16.366173 31309 net.cpp:144] Setting up relu4
I0507 04:03:16.366178 31309 net.cpp:151] Top shape: 20 64 5 5 (32000)
I0507 04:03:16.366180 31309 net.cpp:159] Memory required for data: 2696080
I0507 04:03:16.366183 31309 layer_factory.hpp:77] Creating layer conv5
I0507 04:03:16.366191 31309 net.cpp:94] Creating Layer conv5
I0507 04:03:16.366195 31309 net.cpp:435] conv5 <- conv4
I0507 04:03:16.366200 31309 net.cpp:409] conv5 -> conv5
I0507 04:03:16.370630 31309 net.cpp:144] Setting up conv5
I0507 04:03:16.370645 31309 net.cpp:151] Top shape: 20 64 5 5 (32000)
I0507 04:03:16.370649 31309 net.cpp:159] Memory required for data: 2824080
I0507 04:03:16.370657 31309 layer_factory.hpp:77] Creating layer relu5
I0507 04:03:16.370664 31309 net.cpp:94] Creating Layer relu5
I0507 04:03:16.370668 31309 net.cpp:435] relu5 <- conv5
I0507 04:03:16.370673 31309 net.cpp:396] relu5 -> conv5 (in-place)
I0507 04:03:16.370681 31309 net.cpp:144] Setting up relu5
I0507 04:03:16.370685 31309 net.cpp:151] Top shape: 20 64 5 5 (32000)
I0507 04:03:16.370688 31309 net.cpp:159] Memory required for data: 2952080
I0507 04:03:16.370692 31309 layer_factory.hpp:77] Creating layer pool5
I0507 04:03:16.370697 31309 net.cpp:94] Creating Layer pool5
I0507 04:03:16.370700 31309 net.cpp:435] pool5 <- conv5
I0507 04:03:16.370705 31309 net.cpp:409] pool5 -> pool5
I0507 04:03:16.370738 31309 net.cpp:144] Setting up pool5
I0507 04:03:16.370746 31309 net.cpp:151] Top shape: 20 64 2 2 (5120)
I0507 04:03:16.370749 31309 net.cpp:159] Memory required for data: 2972560
I0507 04:03:16.370754 31309 layer_factory.hpp:77] Creating layer ip1
I0507 04:03:16.370761 31309 net.cpp:94] Creating Layer ip1
I0507 04:03:16.370764 31309 net.cpp:435] ip1 <- pool5
I0507 04:03:16.370769 31309 net.cpp:409] ip1 -> ip1
I0507 04:03:16.371290 31309 net.cpp:144] Setting up ip1
I0507 04:03:16.371299 31309 net.cpp:151] Top shape: 20 64 (1280)
I0507 04:03:16.371302 31309 net.cpp:159] Memory required for data: 2977680
I0507 04:03:16.371309 31309 layer_factory.hpp:77] Creating layer ip2
I0507 04:03:16.371315 31309 net.cpp:94] Creating Layer ip2
I0507 04:03:16.371318 31309 net.cpp:435] ip2 <- ip1
I0507 04:03:16.371323 31309 net.cpp:409] ip2 -> ip2
I0507 04:03:16.371542 31309 net.cpp:144] Setting up ip2
I0507 04:03:16.371551 31309 net.cpp:151] Top shape: 20 64 (1280)
I0507 04:03:16.371553 31309 net.cpp:159] Memory required for data: 2982800
I0507 04:03:16.371559 31309 layer_factory.hpp:77] Creating layer ip3
I0507 04:03:16.371565 31309 net.cpp:94] Creating Layer ip3
I0507 04:03:16.371568 31309 net.cpp:435] ip3 <- ip2
I0507 04:03:16.371574 31309 net.cpp:409] ip3 -> ip3
I0507 04:03:16.371767 31309 net.cpp:144] Setting up ip3
I0507 04:03:16.371773 31309 net.cpp:151] Top shape: 20 50 (1000)
I0507 04:03:16.371778 31309 net.cpp:159] Memory required for data: 2986800
I0507 04:03:16.371783 31309 layer_factory.hpp:77] Creating layer loss
I0507 04:03:16.371789 31309 net.cpp:94] Creating Layer loss
I0507 04:03:16.371793 31309 net.cpp:435] loss <- ip3
I0507 04:03:16.371798 31309 net.cpp:435] loss <- label
I0507 04:03:16.371801 31309 net.cpp:409] loss -> loss
I0507 04:03:16.371809 31309 layer_factory.hpp:77] Creating layer loss
…
I0507 04:03:16.373160 31309 solver.cpp:181] Creating test net (#0) specified by net file: ./protocol/dis_50_100_dimension.protocol_distribution
I0507 04:03:16.373188 31309 net.cpp:323] The NetState phase (1) differed from the phase (0) specified by a rule in layer parameters
I0507 04:03:16.373284 31309 net.cpp:52] Initializing net from parameters: 
state {
  phase: TEST
}
layer {
  name: "intercept"
  type: "HDF5Data"
  top: "data"
  top: "label"
  include {
    phase: TEST
  }
  hdf5_data_param {
    source: "/home/purduethu/scratch/radon/d/deng106/CNNStatisticalModel/distributions/input/50_distributions_100_sample_size_test-distributions-path.txt"
    batch_size: 20
  }
}
layer {
  name: "conv1"
  type: "Convolution"
  bottom: "data"
  top: "conv1"
  param {
    lr_mult: 1
  }
  param {
    lr_mult: 2
  }
  convolution_param {
    num_output: 64
    pad: 2
    kernel_size: 5
    stride: 1
    weight_filler {
      type: "gaussian"
      std: 0.0001
    }
    bias_filler {
      type: "constant"
    }
  }
}
layer {
  name: "relu1"
  type: "ReLU"
  bottom: "conv1"
  top: "conv1"
}
layer {
  name: "conv2"
  type: "Convolution"
  bottom: "conv1"
  top: "conv2"
  param {
    lr_mult: 1
  }
  param {
    lr_mult: 2
  }
  convolution_param {
    num_output: 64
    pad: 2
    kernel_size: 5
    stride: 1
    weight_filler {
      type: "gaussian"
      std: 0.01
    }
    bias_filler {
      type: "constant"
    }
  }
}
layer {
  name: "relu2"
  type: "ReLU"
  bottom: "conv2"
  top: "conv2"
}
layer {
  name: "pool2"
  type: "Pooling"
  bottom: "conv2"
  top: "pool2"
  pooling_param {
    pool: MAX
    kernel_size: 3
    stride: 2
  }
}
layer {
  name: "conv3"
  type: "Convolution"
  bottom: "pool2"
  top: "conv3"
  param {
    lr_mult: 1
  }
  param {
    lr_mult: 2
  }
  convolution_param {
    num_output: 64
    pad: 2
    kernel_size: 5
    stride: 1
    weight_filler {
      type: "gaussian"
      std: 0.01
    }
    bias_filler {
      type: "constant"
    }
  }
}
layer {
  name: "relu3"
  type: "ReLU"
  bottom: "conv3"
  top: "conv3"
}
layer {
  name: "conv4"
  type: "Convolution"
  bottom: "conv3"
  top: "conv4"
  param {
    lr_mult: 1
  }
  param {
    lr_mult: 2
  }
  convolution_param {
    num_output: 64
    pad: 2
    kernel_size: 5
    stride: 1
    weight_filler {
      type: "gaussian"
      std: 0.01
    }
    bias_filler {
      type: "constant"
    }
  }
}
layer {
  name: "relu4"
  type: "ReLU"
  bottom: "conv4"
  top: "conv4"
}
layer {
  name: "conv5"
  type: "Convolution"
  bottom: "conv4"
  top: "conv5"
  param {
    lr_mult: 1
  }
  param {
    lr_mult: 2
  }
  convolution_param {
    num_output: 64
    pad: 2
    kernel_size: 5
    stride: 1
    weight_filler {
      type: "gaussian"
      std: 0.01
    }
    bias_filler {
      type: "constant"
    }
  }
}
layer {
  name: "relu5"
  type: "ReLU"
  bottom: "conv5"
  top: "conv5"
}
layer {
  name: "pool5"
  type: "Pooling"
  bottom: "conv5"
  top: "pool5"
  pooling_param {
    pool: AVE
    kernel_size: 3
    stride: 2
  }
}
layer {
  name: "ip1"
  type: "InnerProduct"
  bottom: "pool5"
  top: "ip1"
  param {
    lr_mult: 1
  }
  param {
    lr_mult: 2
  }
  inner_product_param {
    num_output: 64
    weight_filler {
      type: "gaussian"
      std: 0.1
    }
    bias_filler {
      type: "constant"
    }
  }
}
layer {
  name: "ip2"
  type: "InnerProduct"
  bottom: "ip1"
  top: "ip2"
  param {
    lr_mult: 1
  }
  param {
    lr_mult: 2
  }
  inner_product_param {
    num_output: 64
    weight_filler {
      type: "gaussian"
      std: 0.1
    }
    bias_filler {
      type: "constant"
    }
  }
}
layer {
  name: "ip3"
  type: "InnerProduct"
  bottom: "ip2"
  top: "ip3"
  param {
    lr_mult: 1
  }
  param {
    lr_mult: 2
  }
  inner_product_param {
    num_output: 50
    weight_filler {
      type: "gaussian"
      std: 0.1
    }
    bias_filler {
      type: "constant"
    }
  }
}
layer {
  name: "accuracy"
  type: "Accuracy"
  bottom: "ip3"
  bottom: "label"
  top: "accuracy"
  include {
    phase: TEST
  }
}
layer {
  name: "loss"
  type: "SoftmaxWithLoss"
  bottom: "ip3"
  bottom: "label"
  top: "loss"
}
I0507 04:03:16.373353 31309 layer_factory.hpp:77] Creating layer intercept
I0507 04:03:16.373361 31309 net.cpp:94] Creating Layer intercept
I0507 04:03:16.373366 31309 net.cpp:409] intercept -> data
I0507 04:03:16.373373 31309 net.cpp:409] intercept -> label
I0507 04:03:16.373380 31309 hdf5_data_layer.cpp:79] Loading list of HDF5 filenames from: /home/purduethu/scratch/radon/d/deng106/CNNStatisticalModel/distributions/input/50_distributions_100_sample_size_test-distributions-path.txt
I0507 04:03:16.373399 31309 hdf5_data_layer.cpp:93] Number of HDF5 files: 1
I0507 04:03:16.414819 31309 net.cpp:144] Setting up intercept
I0507 04:03:16.414852 31309 net.cpp:151] Top shape: 20 1 10 10 (2000)
I0507 04:03:16.414858 31309 net.cpp:151] Top shape: 20 (20)
I0507 04:03:16.414861 31309 net.cpp:159] Memory required for data: 8080
I0507 04:03:16.414867 31309 layer_factory.hpp:77] Creating layer label_intercept_1_split
I0507 04:03:16.414887 31309 net.cpp:94] Creating Layer label_intercept_1_split
I0507 04:03:16.414892 31309 net.cpp:435] label_intercept_1_split <- label
I0507 04:03:16.414899 31309 net.cpp:409] label_intercept_1_split -> label_intercept_1_split_0
I0507 04:03:16.414908 31309 net.cpp:409] label_intercept_1_split -> label_intercept_1_split_1
I0507 04:03:16.414949 31309 net.cpp:144] Setting up label_intercept_1_split
I0507 04:03:16.414957 31309 net.cpp:151] Top shape: 20 (20)
I0507 04:03:16.414960 31309 net.cpp:151] Top shape: 20 (20)
I0507 04:03:16.414964 31309 net.cpp:159] Memory required for data: 8240
I0507 04:03:16.414968 31309 layer_factory.hpp:77] Creating layer conv1
I0507 04:03:16.414979 31309 net.cpp:94] Creating Layer conv1
I0507 04:03:16.414983 31309 net.cpp:435] conv1 <- data
I0507 04:03:16.414989 31309 net.cpp:409] conv1 -> conv1
I0507 04:03:16.415802 31309 net.cpp:144] Setting up conv1
I0507 04:03:16.415817 31309 net.cpp:151] Top shape: 20 64 10 10 (128000)
I0507 04:03:16.415820 31309 net.cpp:159] Memory required for data: 520240
I0507 04:03:16.415830 31309 layer_factory.hpp:77] Creating layer relu1
I0507 04:03:16.415838 31309 net.cpp:94] Creating Layer relu1
I0507 04:03:16.415841 31309 net.cpp:435] relu1 <- conv1
I0507 04:03:16.415846 31309 net.cpp:396] relu1 -> conv1 (in-place)
I0507 04:03:16.415854 31309 net.cpp:144] Setting up relu1
I0507 04:03:16.415858 31309 net.cpp:151] Top shape: 20 64 10 10 (128000)
I0507 04:03:16.415861 31309 net.cpp:159] Memory required for data: 1032240
I0507 04:03:16.415873 31309 layer_factory.hpp:77] Creating layer conv2
I0507 04:03:16.415881 31309 net.cpp:94] Creating Layer conv2
I0507 04:03:16.415885 31309 net.cpp:435] conv2 <- conv1
I0507 04:03:16.415890 31309 net.cpp:409] conv2 -> conv2
I0507 04:03:16.420027 31309 net.cpp:144] Setting up conv2
I0507 04:03:16.420040 31309 net.cpp:151] Top shape: 20 64 10 10 (128000)
I0507 04:03:16.420045 31309 net.cpp:159] Memory required for data: 1544240
I0507 04:03:16.420055 31309 layer_factory.hpp:77] Creating layer relu2
I0507 04:03:16.420061 31309 net.cpp:94] Creating Layer relu2
I0507 04:03:16.420065 31309 net.cpp:435] relu2 <- conv2
I0507 04:03:16.420070 31309 net.cpp:396] relu2 -> conv2 (in-place)
I0507 04:03:16.420078 31309 net.cpp:144] Setting up relu2
I0507 04:03:16.420083 31309 net.cpp:151] Top shape: 20 64 10 10 (128000)
I0507 04:03:16.420085 31309 net.cpp:159] Memory required for data: 2056240
I0507 04:03:16.420089 31309 layer_factory.hpp:77] Creating layer pool2
I0507 04:03:16.420094 31309 net.cpp:94] Creating Layer pool2
I0507 04:03:16.420099 31309 net.cpp:435] pool2 <- conv2
I0507 04:03:16.420102 31309 net.cpp:409] pool2 -> pool2
I0507 04:03:16.420156 31309 net.cpp:144] Setting up pool2
I0507 04:03:16.420163 31309 net.cpp:151] Top shape: 20 64 5 5 (32000)
I0507 04:03:16.420166 31309 net.cpp:159] Memory required for data: 2184240
I0507 04:03:16.420169 31309 layer_factory.hpp:77] Creating layer conv3
I0507 04:03:16.420178 31309 net.cpp:94] Creating Layer conv3
I0507 04:03:16.420183 31309 net.cpp:435] conv3 <- pool2
I0507 04:03:16.420189 31309 net.cpp:409] conv3 -> conv3
I0507 04:03:16.424670 31309 net.cpp:144] Setting up conv3
I0507 04:03:16.424685 31309 net.cpp:151] Top shape: 20 64 5 5 (32000)
I0507 04:03:16.424690 31309 net.cpp:159] Memory required for data: 2312240
I0507 04:03:16.424697 31309 layer_factory.hpp:77] Creating layer relu3
I0507 04:03:16.424705 31309 net.cpp:94] Creating Layer relu3
I0507 04:03:16.424708 31309 net.cpp:435] relu3 <- conv3
I0507 04:03:16.424713 31309 net.cpp:396] relu3 -> conv3 (in-place)
I0507 04:03:16.424721 31309 net.cpp:144] Setting up relu3
I0507 04:03:16.424726 31309 net.cpp:151] Top shape: 20 64 5 5 (32000)
I0507 04:03:16.424728 31309 net.cpp:159] Memory required for data: 2440240
I0507 04:03:16.424731 31309 layer_factory.hpp:77] Creating layer conv4
I0507 04:03:16.424742 31309 net.cpp:94] Creating Layer conv4
I0507 04:03:16.424746 31309 net.cpp:435] conv4 <- conv3
I0507 04:03:16.424751 31309 net.cpp:409] conv4 -> conv4
I0507 04:03:16.428344 31309 net.cpp:144] Setting up conv4
I0507 04:03:16.428356 31309 net.cpp:151] Top shape: 20 64 5 5 (32000)
I0507 04:03:16.428360 31309 net.cpp:159] Memory required for data: 2568240
I0507 04:03:16.428367 31309 layer_factory.hpp:77] Creating layer relu4
I0507 04:03:16.428373 31309 net.cpp:94] Creating Layer relu4
I0507 04:03:16.428376 31309 net.cpp:435] relu4 <- conv4
I0507 04:03:16.428381 31309 net.cpp:396] relu4 -> conv4 (in-place)
I0507 04:03:16.428388 31309 net.cpp:144] Setting up relu4
I0507 04:03:16.428393 31309 net.cpp:151] Top shape: 20 64 5 5 (32000)
I0507 04:03:16.428396 31309 net.cpp:159] Memory required for data: 2696240
I0507 04:03:16.428400 31309 layer_factory.hpp:77] Creating layer conv5
I0507 04:03:16.428411 31309 net.cpp:94] Creating Layer conv5
I0507 04:03:16.428414 31309 net.cpp:435] conv5 <- conv4
I0507 04:03:16.428419 31309 net.cpp:409] conv5 -> conv5
I0507 04:03:16.432476 31309 net.cpp:144] Setting up conv5
I0507 04:03:16.432489 31309 net.cpp:151] Top shape: 20 64 5 5 (32000)
I0507 04:03:16.432493 31309 net.cpp:159] Memory required for data: 2824240
I0507 04:03:16.432502 31309 layer_factory.hpp:77] Creating layer relu5
I0507 04:03:16.432508 31309 net.cpp:94] Creating Layer relu5
I0507 04:03:16.432513 31309 net.cpp:435] relu5 <- conv5
I0507 04:03:16.432518 31309 net.cpp:396] relu5 -> conv5 (in-place)
I0507 04:03:16.432525 31309 net.cpp:144] Setting up relu5
I0507 04:03:16.432530 31309 net.cpp:151] Top shape: 20 64 5 5 (32000)
I0507 04:03:16.432533 31309 net.cpp:159] Memory required for data: 2952240
I0507 04:03:16.432540 31309 layer_factory.hpp:77] Creating layer pool5
I0507 04:03:16.432546 31309 net.cpp:94] Creating Layer pool5
I0507 04:03:16.432549 31309 net.cpp:435] pool5 <- conv5
I0507 04:03:16.432565 31309 net.cpp:409] pool5 -> pool5
I0507 04:03:16.432602 31309 net.cpp:144] Setting up pool5
I0507 04:03:16.432610 31309 net.cpp:151] Top shape: 20 64 2 2 (5120)
I0507 04:03:16.432613 31309 net.cpp:159] Memory required for data: 2972720
I0507 04:03:16.432616 31309 layer_factory.hpp:77] Creating layer ip1
I0507 04:03:16.432624 31309 net.cpp:94] Creating Layer ip1
I0507 04:03:16.432628 31309 net.cpp:435] ip1 <- pool5
I0507 04:03:16.432634 31309 net.cpp:409] ip1 -> ip1
I0507 04:03:16.433166 31309 net.cpp:144] Setting up ip1
I0507 04:03:16.433174 31309 net.cpp:151] Top shape: 20 64 (1280)
I0507 04:03:16.433177 31309 net.cpp:159] Memory required for data: 2977840
I0507 04:03:16.433183 31309 layer_factory.hpp:77] Creating layer ip2
I0507 04:03:16.433189 31309 net.cpp:94] Creating Layer ip2
I0507 04:03:16.433193 31309 net.cpp:435] ip2 <- ip1
I0507 04:03:16.433198 31309 net.cpp:409] ip2 -> ip2
I0507 04:03:16.433429 31309 net.cpp:144] Setting up ip2
I0507 04:03:16.433435 31309 net.cpp:151] Top shape: 20 64 (1280)
I0507 04:03:16.433439 31309 net.cpp:159] Memory required for data: 2982960
I0507 04:03:16.433444 31309 layer_factory.hpp:77] Creating layer ip3
I0507 04:03:16.433454 31309 net.cpp:94] Creating Layer ip3
I0507 04:03:16.433457 31309 net.cpp:435] ip3 <- ip2
I0507 04:03:16.433462 31309 net.cpp:409] ip3 -> ip3
I0507 04:03:16.433665 31309 net.cpp:144] Setting up ip3
I0507 04:03:16.433672 31309 net.cpp:151] Top shape: 20 50 (1000)
I0507 04:03:16.433676 31309 net.cpp:159] Memory required for data: 2986960
I0507 04:03:16.433681 31309 layer_factory.hpp:77] Creating layer ip3_ip3_0_split
I0507 04:03:16.433686 31309 net.cpp:94] Creating Layer ip3_ip3_0_split
I0507 04:03:16.433689 31309 net.cpp:435] ip3_ip3_0_split <- ip3
I0507 04:03:16.433696 31309 net.cpp:409] ip3_ip3_0_split -> ip3_ip3_0_split_0
I0507 04:03:16.433701 31309 net.cpp:409] ip3_ip3_0_split -> ip3_ip3_0_split_1
I0507 04:03:16.433743 31309 net.cpp:144] Setting up ip3_ip3_0_split
I0507 04:03:16.433748 31309 net.cpp:151] Top shape: 20 50 (1000)
I0507 04:03:16.433753 31309 net.cpp:151] Top shape: 20 50 (1000)
I0507 04:03:16.433756 31309 net.cpp:159] Memory required for data: 2994960
I0507 04:03:16.433759 31309 layer_factory.hpp:77] Creating layer accuracy
I0507 04:03:16.433765 31309 net.cpp:94] Creating Layer accuracy
I0507 04:03:16.433769 31309 net.cpp:435] accuracy <- ip3_ip3_0_split_0
I0507 04:03:16.433773 31309 net.cpp:435] accuracy <- label_intercept_1_split_0
I0507 04:03:16.433779 31309 net.cpp:409] accuracy -> accuracy
…
