…
I0501 20:04:49.462131 14411 net.cpp:323] The NetState phase (0) differed from the phase (1) specified by a rule in layer intercept
I0501 20:04:49.462146 14411 net.cpp:323] The NetState phase (0) differed from the phase (1) specified by a rule in layer loss
I0501 20:04:49.462234 14411 net.cpp:52] Initializing net from parameters: 
state {
  phase: TRAIN
}
layer {
  name: "parameters"
  type: "HDF5Data"
  top: "data"
  top: "label"
  include {
    phase: TRAIN
  }
  hdf5_data_param {
    source: "/home/purduethu/scratch/radon/d/deng106/CNNStatisticalModel/distributions/input/5_distributions_400_sample_size_train-parameters-path.txt"
    batch_size: 20
  }
}
layer {
  name: "conv1"
  type: "Convolution"
  bottom: "data"
  top: "conv1"
  param {
    lr_mult: 1
  }
  param {
    lr_mult: 2
  }
  convolution_param {
    num_output: 64
    pad: 2
    kernel_size: 5
    stride: 1
    weight_filler {
      type: "gaussian"
      std: 0.0001
    }
    bias_filler {
      type: "constant"
    }
  }
}
layer {
  name: "relu1"
  type: "ReLU"
  bottom: "conv1"
  top: "conv1"
}
layer {
  name: "conv2"
  type: "Convolution"
  bottom: "conv1"
  top: "conv2"
  param {
    lr_mult: 1
  }
  param {
    lr_mult: 2
  }
  convolution_param {
    num_output: 64
    pad: 2
    kernel_size: 5
    stride: 1
    weight_filler {
      type: "gaussian"
      std: 0.01
    }
    bias_filler {
      type: "constant"
    }
  }
}
layer {
  name: "relu2"
  type: "ReLU"
  bottom: "conv2"
  top: "conv2"
}
layer {
  name: "pool2"
  type: "Pooling"
  bottom: "conv2"
  top: "pool2"
  pooling_param {
    pool: MAX
    kernel_size: 3
    stride: 2
  }
}
layer {
  name: "conv3"
  type: "Convolution"
  bottom: "pool2"
  top: "conv3"
  param {
    lr_mult: 1
  }
  param {
    lr_mult: 2
  }
  convolution_param {
    num_output: 64
    pad: 2
    kernel_size: 5
    stride: 1
    weight_filler {
      type: "gaussian"
      std: 0.01
    }
    bias_filler {
      type: "constant"
    }
  }
}
layer {
  name: "relu3"
  type: "ReLU"
  bottom: "conv3"
  top: "conv3"
}
layer {
  name: "conv4"
  type: "Convolution"
  bottom: "conv3"
  top: "conv4"
  param {
    lr_mult: 1
  }
  param {
    lr_mult: 2
  }
  convolution_param {
    num_output: 64
    pad: 2
    kernel_size: 5
    stride: 1
    weight_filler {
      type: "gaussian"
      std: 0.01
    }
    bias_filler {
      type: "constant"
    }
  }
}
layer {
  name: "relu4"
  type: "ReLU"
  bottom: "conv4"
  top: "conv4"
}
layer {
  name: "conv5"
  type: "Convolution"
  bottom: "conv4"
  top: "conv5"
  param {
    lr_mult: 1
  }
  param {
    lr_mult: 2
  }
  convolution_param {
    num_output: 64
    pad: 2
    kernel_size: 5
    stride: 1
    weight_filler {
      type: "gaussian"
      std: 0.01
    }
    bias_filler {
      type: "constant"
    }
  }
}
layer {
  name: "relu5"
  type: "ReLU"
  bottom: "conv5"
  top: "conv5"
}
layer {
  name: "pool5"
  type: "Pooling"
  bottom: "conv5"
  top: "pool5"
  pooling_param {
    pool: AVE
    kernel_size: 3
    stride: 2
  }
}
layer {
  name: "ip1"
  type: "InnerProduct"
  bottom: "pool5"
  top: "ip1"
  param {
    lr_mult: 1
  }
  param {
    lr_mult: 2
  }
  inner_product_param {
    num_output: 64
    weight_filler {
      type: "gaussian"
      std: 0.1
    }
    bias_filler {
      type: "constant"
    }
  }
}
layer {
  name: "ip2"
  type: "InnerProduct"
  bottom: "ip1"
  top: "ip2"
  param {
    lr_mult: 1
  }
  param {
    lr_mult: 2
  }
  inner_product_param {
    num_output: 64
    weight_filler {
      type: "gaussian"
      std: 0.1
    }
    bias_filler {
      type: "constant"
    }
  }
}
layer {
  name: "ip3"
  type: "InnerProduct"
  bottom: "ip2"
  top: "ip3"
  param {
    lr_mult: 1
  }
  param {
    lr_mult: 2
  }
  inner_product_param {
    num_output: 1
    weight_filler {
      type: "gaussian"
      std: 0.1
    }
    bias_filler {
      type: "constant"
    }
  }
}
layer {
  name: "loss"
  type: "HuberLoss"
  bottom: "ip3"
  bottom: "label"
  top: "loss"
  include {
    phase: TRAIN
  }
}
I0501 20:04:49.462307 14411 layer_factory.hpp:77] Creating layer parameters
I0501 20:04:49.462322 14411 net.cpp:94] Creating Layer parameters
I0501 20:04:49.462327 14411 net.cpp:409] parameters -> data
I0501 20:04:49.462347 14411 net.cpp:409] parameters -> label
I0501 20:04:49.462357 14411 hdf5_data_layer.cpp:79] Loading list of HDF5 filenames from: /home/purduethu/scratch/radon/d/deng106/CNNStatisticalModel/distributions/input/5_distributions_400_sample_size_train-parameters-path.txt
I0501 20:04:49.462378 14411 hdf5_data_layer.cpp:93] Number of HDF5 files: 1
I0501 20:04:49.462829 14411 hdf5.cpp:32] Datatype class: H5T_FLOAT
I0501 20:04:49.523757 14411 net.cpp:144] Setting up parameters
I0501 20:04:49.523790 14411 net.cpp:151] Top shape: 20 1 20 20 (8000)
I0501 20:04:49.523795 14411 net.cpp:151] Top shape: 20 (20)
I0501 20:04:49.523799 14411 net.cpp:159] Memory required for data: 32080
I0501 20:04:49.523808 14411 layer_factory.hpp:77] Creating layer conv1
I0501 20:04:49.523826 14411 net.cpp:94] Creating Layer conv1
I0501 20:04:49.523831 14411 net.cpp:435] conv1 <- data
I0501 20:04:49.523843 14411 net.cpp:409] conv1 -> conv1
I0501 20:04:49.528616 14411 net.cpp:144] Setting up conv1
I0501 20:04:49.528632 14411 net.cpp:151] Top shape: 20 64 20 20 (512000)
I0501 20:04:49.528637 14411 net.cpp:159] Memory required for data: 2080080
I0501 20:04:49.528648 14411 layer_factory.hpp:77] Creating layer relu1
I0501 20:04:49.528656 14411 net.cpp:94] Creating Layer relu1
I0501 20:04:49.528661 14411 net.cpp:435] relu1 <- conv1
I0501 20:04:49.528666 14411 net.cpp:396] relu1 -> conv1 (in-place)
I0501 20:04:49.528677 14411 net.cpp:144] Setting up relu1
I0501 20:04:49.528682 14411 net.cpp:151] Top shape: 20 64 20 20 (512000)
I0501 20:04:49.528686 14411 net.cpp:159] Memory required for data: 4128080
I0501 20:04:49.528688 14411 layer_factory.hpp:77] Creating layer conv2
I0501 20:04:49.528697 14411 net.cpp:94] Creating Layer conv2
I0501 20:04:49.528700 14411 net.cpp:435] conv2 <- conv1
I0501 20:04:49.528704 14411 net.cpp:409] conv2 -> conv2
I0501 20:04:49.539122 14411 net.cpp:144] Setting up conv2
I0501 20:04:49.539137 14411 net.cpp:151] Top shape: 20 64 20 20 (512000)
I0501 20:04:49.539142 14411 net.cpp:159] Memory required for data: 6176080
I0501 20:04:49.539150 14411 layer_factory.hpp:77] Creating layer relu2
I0501 20:04:49.539157 14411 net.cpp:94] Creating Layer relu2
I0501 20:04:49.539161 14411 net.cpp:435] relu2 <- conv2
I0501 20:04:49.539165 14411 net.cpp:396] relu2 -> conv2 (in-place)
I0501 20:04:49.539172 14411 net.cpp:144] Setting up relu2
I0501 20:04:49.539177 14411 net.cpp:151] Top shape: 20 64 20 20 (512000)
I0501 20:04:49.539180 14411 net.cpp:159] Memory required for data: 8224080
I0501 20:04:49.539183 14411 layer_factory.hpp:77] Creating layer pool2
I0501 20:04:49.539191 14411 net.cpp:94] Creating Layer pool2
I0501 20:04:49.539201 14411 net.cpp:435] pool2 <- conv2
I0501 20:04:49.539206 14411 net.cpp:409] pool2 -> pool2
I0501 20:04:49.539252 14411 net.cpp:144] Setting up pool2
I0501 20:04:49.539259 14411 net.cpp:151] Top shape: 20 64 10 10 (128000)
I0501 20:04:49.539263 14411 net.cpp:159] Memory required for data: 8736080
I0501 20:04:49.539266 14411 layer_factory.hpp:77] Creating layer conv3
I0501 20:04:49.539274 14411 net.cpp:94] Creating Layer conv3
I0501 20:04:49.539278 14411 net.cpp:435] conv3 <- pool2
I0501 20:04:49.539283 14411 net.cpp:409] conv3 -> conv3
I0501 20:04:49.544349 14411 net.cpp:144] Setting up conv3
I0501 20:04:49.544363 14411 net.cpp:151] Top shape: 20 64 10 10 (128000)
I0501 20:04:49.544368 14411 net.cpp:159] Memory required for data: 9248080
I0501 20:04:49.544375 14411 layer_factory.hpp:77] Creating layer relu3
I0501 20:04:49.544381 14411 net.cpp:94] Creating Layer relu3
I0501 20:04:49.544385 14411 net.cpp:435] relu3 <- conv3
I0501 20:04:49.544390 14411 net.cpp:396] relu3 -> conv3 (in-place)
I0501 20:04:49.544397 14411 net.cpp:144] Setting up relu3
I0501 20:04:49.544401 14411 net.cpp:151] Top shape: 20 64 10 10 (128000)
I0501 20:04:49.544404 14411 net.cpp:159] Memory required for data: 9760080
I0501 20:04:49.544409 14411 layer_factory.hpp:77] Creating layer conv4
I0501 20:04:49.544417 14411 net.cpp:94] Creating Layer conv4
I0501 20:04:49.544420 14411 net.cpp:435] conv4 <- conv3
I0501 20:04:49.544425 14411 net.cpp:409] conv4 -> conv4
I0501 20:04:49.549530 14411 net.cpp:144] Setting up conv4
I0501 20:04:49.549543 14411 net.cpp:151] Top shape: 20 64 10 10 (128000)
I0501 20:04:49.549546 14411 net.cpp:159] Memory required for data: 10272080
I0501 20:04:49.549553 14411 layer_factory.hpp:77] Creating layer relu4
I0501 20:04:49.549558 14411 net.cpp:94] Creating Layer relu4
I0501 20:04:49.549562 14411 net.cpp:435] relu4 <- conv4
I0501 20:04:49.549567 14411 net.cpp:396] relu4 -> conv4 (in-place)
I0501 20:04:49.549574 14411 net.cpp:144] Setting up relu4
I0501 20:04:49.549579 14411 net.cpp:151] Top shape: 20 64 10 10 (128000)
I0501 20:04:49.549582 14411 net.cpp:159] Memory required for data: 10784080
I0501 20:04:49.549585 14411 layer_factory.hpp:77] Creating layer conv5
I0501 20:04:49.549593 14411 net.cpp:94] Creating Layer conv5
I0501 20:04:49.549597 14411 net.cpp:435] conv5 <- conv4
I0501 20:04:49.549602 14411 net.cpp:409] conv5 -> conv5
I0501 20:04:49.554731 14411 net.cpp:144] Setting up conv5
I0501 20:04:49.554744 14411 net.cpp:151] Top shape: 20 64 10 10 (128000)
I0501 20:04:49.554749 14411 net.cpp:159] Memory required for data: 11296080
I0501 20:04:49.554757 14411 layer_factory.hpp:77] Creating layer relu5
I0501 20:04:49.554764 14411 net.cpp:94] Creating Layer relu5
I0501 20:04:49.554767 14411 net.cpp:435] relu5 <- conv5
I0501 20:04:49.554771 14411 net.cpp:396] relu5 -> conv5 (in-place)
I0501 20:04:49.554778 14411 net.cpp:144] Setting up relu5
I0501 20:04:49.554783 14411 net.cpp:151] Top shape: 20 64 10 10 (128000)
I0501 20:04:49.554786 14411 net.cpp:159] Memory required for data: 11808080
I0501 20:04:49.554790 14411 layer_factory.hpp:77] Creating layer pool5
I0501 20:04:49.554795 14411 net.cpp:94] Creating Layer pool5
I0501 20:04:49.554798 14411 net.cpp:435] pool5 <- conv5
I0501 20:04:49.554802 14411 net.cpp:409] pool5 -> pool5
I0501 20:04:49.554836 14411 net.cpp:144] Setting up pool5
I0501 20:04:49.554842 14411 net.cpp:151] Top shape: 20 64 5 5 (32000)
I0501 20:04:49.554846 14411 net.cpp:159] Memory required for data: 11936080
I0501 20:04:49.554849 14411 layer_factory.hpp:77] Creating layer ip1
I0501 20:04:49.554858 14411 net.cpp:94] Creating Layer ip1
I0501 20:04:49.554862 14411 net.cpp:435] ip1 <- pool5
I0501 20:04:49.554867 14411 net.cpp:409] ip1 -> ip1
I0501 20:04:49.557361 14411 net.cpp:144] Setting up ip1
I0501 20:04:49.557370 14411 net.cpp:151] Top shape: 20 64 (1280)
I0501 20:04:49.557374 14411 net.cpp:159] Memory required for data: 11941200
I0501 20:04:49.557379 14411 layer_factory.hpp:77] Creating layer ip2
I0501 20:04:49.557385 14411 net.cpp:94] Creating Layer ip2
I0501 20:04:49.557389 14411 net.cpp:435] ip2 <- ip1
I0501 20:04:49.557399 14411 net.cpp:409] ip2 -> ip2
I0501 20:04:49.557561 14411 net.cpp:144] Setting up ip2
I0501 20:04:49.557569 14411 net.cpp:151] Top shape: 20 64 (1280)
I0501 20:04:49.557571 14411 net.cpp:159] Memory required for data: 11946320
I0501 20:04:49.557576 14411 layer_factory.hpp:77] Creating layer ip3
I0501 20:04:49.557582 14411 net.cpp:94] Creating Layer ip3
I0501 20:04:49.557586 14411 net.cpp:435] ip3 <- ip2
I0501 20:04:49.557590 14411 net.cpp:409] ip3 -> ip3
I0501 20:04:49.557651 14411 net.cpp:144] Setting up ip3
I0501 20:04:49.557664 14411 net.cpp:151] Top shape: 20 1 (20)
I0501 20:04:49.557667 14411 net.cpp:159] Memory required for data: 11946400
I0501 20:04:49.557672 14411 layer_factory.hpp:77] Creating layer loss
I0501 20:04:49.557682 14411 net.cpp:94] Creating Layer loss
I0501 20:04:49.557687 14411 net.cpp:435] loss <- ip3
I0501 20:04:49.557690 14411 net.cpp:435] loss <- label
I0501 20:04:49.557695 14411 net.cpp:409] loss -> loss
I0501 20:04:49.557730 14411 net.cpp:144] Setting up loss
…
