…
I0506 09:42:42.390578 21131 net.cpp:323] The NetState phase (0) differed from the phase (1) specified by a rule in layer intercept
I0506 09:42:42.390594 21131 net.cpp:323] The NetState phase (0) differed from the phase (1) specified by a rule in layer loss
I0506 09:42:42.390674 21131 net.cpp:52] Initializing net from parameters: 
state {
  phase: TRAIN
}
layer {
  name: "parameters"
  type: "HDF5Data"
  top: "data"
  top: "label"
  include {
    phase: TRAIN
  }
  hdf5_data_param {
    source: "/home/purduethu/scratch/radon/d/deng106/CNNStatisticalModel/distributions/input/50_distributions_100_sample_size_train-parameters-path.txt"
    batch_size: 20
  }
}
layer {
  name: "conv1"
  type: "Convolution"
  bottom: "data"
  top: "conv1"
  param {
    lr_mult: 1
  }
  param {
    lr_mult: 2
  }
  convolution_param {
    num_output: 64
    pad: 2
    kernel_size: 5
    stride: 1
    weight_filler {
      type: "gaussian"
      std: 0.0001
    }
    bias_filler {
      type: "constant"
    }
  }
}
layer {
  name: "relu1"
  type: "ReLU"
  bottom: "conv1"
  top: "conv1"
}
layer {
  name: "conv2"
  type: "Convolution"
  bottom: "conv1"
  top: "conv2"
  param {
    lr_mult: 1
  }
  param {
    lr_mult: 2
  }
  convolution_param {
    num_output: 64
    pad: 2
    kernel_size: 5
    stride: 1
    weight_filler {
      type: "gaussian"
      std: 0.01
    }
    bias_filler {
      type: "constant"
    }
  }
}
layer {
  name: "relu2"
  type: "ReLU"
  bottom: "conv2"
  top: "conv2"
}
layer {
  name: "pool2"
  type: "Pooling"
  bottom: "conv2"
  top: "pool2"
  pooling_param {
    pool: MAX
    kernel_size: 3
    stride: 2
  }
}
layer {
  name: "conv3"
  type: "Convolution"
  bottom: "pool2"
  top: "conv3"
  param {
    lr_mult: 1
  }
  param {
    lr_mult: 2
  }
  convolution_param {
    num_output: 128
    pad: 2
    kernel_size: 5
    stride: 1
    weight_filler {
      type: "gaussian"
      std: 0.01
    }
    bias_filler {
      type: "constant"
    }
  }
}
layer {
  name: "relu3"
  type: "ReLU"
  bottom: "conv3"
  top: "conv3"
}
layer {
  name: "conv4"
  type: "Convolution"
  bottom: "conv3"
  top: "conv4"
  param {
    lr_mult: 1
  }
  param {
    lr_mult: 2
  }
  convolution_param {
    num_output: 128
    pad: 2
    kernel_size: 5
    stride: 1
    weight_filler {
      type: "gaussian"
      std: 0.01
    }
    bias_filler {
      type: "constant"
    }
  }
}
layer {
  name: "relu4"
  type: "ReLU"
  bottom: "conv4"
  top: "conv4"
}
layer {
  name: "conv5"
  type: "Convolution"
  bottom: "conv4"
  top: "conv5"
  param {
    lr_mult: 1
  }
  param {
    lr_mult: 2
  }
  convolution_param {
    num_output: 128
    pad: 2
    kernel_size: 5
    stride: 1
    weight_filler {
      type: "gaussian"
      std: 0.01
    }
    bias_filler {
      type: "constant"
    }
  }
}
layer {
  name: "relu5"
  type: "ReLU"
  bottom: "conv5"
  top: "conv5"
}
layer {
  name: "pool5"
  type: "Pooling"
  bottom: "conv5"
  top: "pool5"
  pooling_param {
    pool: AVE
    kernel_size: 3
    stride: 2
  }
}
layer {
  name: "ip1"
  type: "InnerProduct"
  bottom: "pool5"
  top: "ip1"
  param {
    lr_mult: 1
  }
  param {
    lr_mult: 2
  }
  inner_product_param {
    num_output: 1024
    weight_filler {
      type: "gaussian"
      std: 0.1
    }
    bias_filler {
      type: "constant"
    }
  }
}
layer {
  name: "ip2"
  type: "InnerProduct"
  bottom: "ip1"
  top: "ip2"
  param {
    lr_mult: 1
  }
  param {
    lr_mult: 2
  }
  inner_product_param {
    num_output: 512
    weight_filler {
      type: "gaussian"
      std: 0.1
    }
    bias_filler {
      type: "constant"
    }
  }
}
layer {
  name: "ip3"
  type: "InnerProduct"
  bottom: "ip2"
  top: "ip3"
  param {
    lr_mult: 1
  }
  param {
    lr_mult: 2
  }
  inner_product_param {
    num_output: 1
    weight_filler {
      type: "gaussian"
      std: 0.1
    }
    bias_filler {
      type: "constant"
    }
  }
}
layer {
  name: "loss"
  type: "HuberLoss"
  bottom: "ip3"
  bottom: "label"
  top: "loss"
  include {
    phase: TRAIN
  }
}
I0506 09:42:42.390729 21131 layer_factory.hpp:77] Creating layer parameters
I0506 09:42:42.390746 21131 net.cpp:94] Creating Layer parameters
I0506 09:42:42.390751 21131 net.cpp:409] parameters -> data
I0506 09:42:42.390761 21131 net.cpp:409] parameters -> label
I0506 09:42:42.390769 21131 hdf5_data_layer.cpp:79] Loading list of HDF5 filenames from: /home/purduethu/scratch/radon/d/deng106/CNNStatisticalModel/distributions/input/50_distributions_100_sample_size_train-parameters-path.txt
I0506 09:42:42.390784 21131 hdf5_data_layer.cpp:93] Number of HDF5 files: 1
I0506 09:42:42.391302 21131 hdf5.cpp:32] Datatype class: H5T_FLOAT
I0506 09:42:42.553253 21131 net.cpp:144] Setting up parameters
I0506 09:42:42.553287 21131 net.cpp:151] Top shape: 20 1 10 10 (2000)
I0506 09:42:42.553292 21131 net.cpp:151] Top shape: 20 (20)
I0506 09:42:42.553297 21131 net.cpp:159] Memory required for data: 8080
I0506 09:42:42.553303 21131 layer_factory.hpp:77] Creating layer conv1
I0506 09:42:42.553318 21131 net.cpp:94] Creating Layer conv1
I0506 09:42:42.553323 21131 net.cpp:435] conv1 <- data
I0506 09:42:42.553329 21131 net.cpp:409] conv1 -> conv1
I0506 09:42:42.557582 21131 net.cpp:144] Setting up conv1
I0506 09:42:42.557600 21131 net.cpp:151] Top shape: 20 64 10 10 (128000)
I0506 09:42:42.557605 21131 net.cpp:159] Memory required for data: 520080
I0506 09:42:42.557616 21131 layer_factory.hpp:77] Creating layer relu1
I0506 09:42:42.557626 21131 net.cpp:94] Creating Layer relu1
I0506 09:42:42.557629 21131 net.cpp:435] relu1 <- conv1
I0506 09:42:42.557634 21131 net.cpp:396] relu1 -> conv1 (in-place)
I0506 09:42:42.557642 21131 net.cpp:144] Setting up relu1
I0506 09:42:42.557647 21131 net.cpp:151] Top shape: 20 64 10 10 (128000)
I0506 09:42:42.557651 21131 net.cpp:159] Memory required for data: 1032080
I0506 09:42:42.557653 21131 layer_factory.hpp:77] Creating layer conv2
I0506 09:42:42.557662 21131 net.cpp:94] Creating Layer conv2
I0506 09:42:42.557665 21131 net.cpp:435] conv2 <- conv1
I0506 09:42:42.557669 21131 net.cpp:409] conv2 -> conv2
I0506 09:42:42.563735 21131 net.cpp:144] Setting up conv2
I0506 09:42:42.563751 21131 net.cpp:151] Top shape: 20 64 10 10 (128000)
I0506 09:42:42.563755 21131 net.cpp:159] Memory required for data: 1544080
I0506 09:42:42.563766 21131 layer_factory.hpp:77] Creating layer relu2
I0506 09:42:42.563772 21131 net.cpp:94] Creating Layer relu2
I0506 09:42:42.563776 21131 net.cpp:435] relu2 <- conv2
I0506 09:42:42.563781 21131 net.cpp:396] relu2 -> conv2 (in-place)
I0506 09:42:42.563788 21131 net.cpp:144] Setting up relu2
I0506 09:42:42.563793 21131 net.cpp:151] Top shape: 20 64 10 10 (128000)
I0506 09:42:42.563796 21131 net.cpp:159] Memory required for data: 2056080
I0506 09:42:42.563799 21131 layer_factory.hpp:77] Creating layer pool2
I0506 09:42:42.563807 21131 net.cpp:94] Creating Layer pool2
I0506 09:42:42.563809 21131 net.cpp:435] pool2 <- conv2
I0506 09:42:42.563813 21131 net.cpp:409] pool2 -> pool2
I0506 09:42:42.563874 21131 net.cpp:144] Setting up pool2
I0506 09:42:42.563882 21131 net.cpp:151] Top shape: 20 64 5 5 (32000)
I0506 09:42:42.563885 21131 net.cpp:159] Memory required for data: 2184080
I0506 09:42:42.563889 21131 layer_factory.hpp:77] Creating layer conv3
I0506 09:42:42.563896 21131 net.cpp:94] Creating Layer conv3
I0506 09:42:42.563906 21131 net.cpp:435] conv3 <- pool2
I0506 09:42:42.563912 21131 net.cpp:409] conv3 -> conv3
I0506 09:42:42.572108 21131 net.cpp:144] Setting up conv3
I0506 09:42:42.572123 21131 net.cpp:151] Top shape: 20 128 5 5 (64000)
I0506 09:42:42.572125 21131 net.cpp:159] Memory required for data: 2440080
I0506 09:42:42.572134 21131 layer_factory.hpp:77] Creating layer relu3
I0506 09:42:42.572141 21131 net.cpp:94] Creating Layer relu3
I0506 09:42:42.572144 21131 net.cpp:435] relu3 <- conv3
I0506 09:42:42.572149 21131 net.cpp:396] relu3 -> conv3 (in-place)
I0506 09:42:42.572156 21131 net.cpp:144] Setting up relu3
I0506 09:42:42.572161 21131 net.cpp:151] Top shape: 20 128 5 5 (64000)
I0506 09:42:42.572165 21131 net.cpp:159] Memory required for data: 2696080
I0506 09:42:42.572167 21131 layer_factory.hpp:77] Creating layer conv4
I0506 09:42:42.572175 21131 net.cpp:94] Creating Layer conv4
I0506 09:42:42.572180 21131 net.cpp:435] conv4 <- conv3
I0506 09:42:42.572183 21131 net.cpp:409] conv4 -> conv4
I0506 09:42:42.587343 21131 net.cpp:144] Setting up conv4
I0506 09:42:42.587358 21131 net.cpp:151] Top shape: 20 128 5 5 (64000)
I0506 09:42:42.587363 21131 net.cpp:159] Memory required for data: 2952080
I0506 09:42:42.587369 21131 layer_factory.hpp:77] Creating layer relu4
I0506 09:42:42.587375 21131 net.cpp:94] Creating Layer relu4
I0506 09:42:42.587379 21131 net.cpp:435] relu4 <- conv4
I0506 09:42:42.587384 21131 net.cpp:396] relu4 -> conv4 (in-place)
I0506 09:42:42.587393 21131 net.cpp:144] Setting up relu4
I0506 09:42:42.587396 21131 net.cpp:151] Top shape: 20 128 5 5 (64000)
I0506 09:42:42.587399 21131 net.cpp:159] Memory required for data: 3208080
I0506 09:42:42.587402 21131 layer_factory.hpp:77] Creating layer conv5
I0506 09:42:42.587410 21131 net.cpp:94] Creating Layer conv5
I0506 09:42:42.587414 21131 net.cpp:435] conv5 <- conv4
I0506 09:42:42.587419 21131 net.cpp:409] conv5 -> conv5
I0506 09:42:42.601908 21131 net.cpp:144] Setting up conv5
I0506 09:42:42.601924 21131 net.cpp:151] Top shape: 20 128 5 5 (64000)
I0506 09:42:42.601928 21131 net.cpp:159] Memory required for data: 3464080
I0506 09:42:42.601938 21131 layer_factory.hpp:77] Creating layer relu5
I0506 09:42:42.601946 21131 net.cpp:94] Creating Layer relu5
I0506 09:42:42.601950 21131 net.cpp:435] relu5 <- conv5
I0506 09:42:42.601954 21131 net.cpp:396] relu5 -> conv5 (in-place)
I0506 09:42:42.601963 21131 net.cpp:144] Setting up relu5
I0506 09:42:42.601968 21131 net.cpp:151] Top shape: 20 128 5 5 (64000)
I0506 09:42:42.601970 21131 net.cpp:159] Memory required for data: 3720080
I0506 09:42:42.601974 21131 layer_factory.hpp:77] Creating layer pool5
I0506 09:42:42.601979 21131 net.cpp:94] Creating Layer pool5
I0506 09:42:42.601984 21131 net.cpp:435] pool5 <- conv5
I0506 09:42:42.601987 21131 net.cpp:409] pool5 -> pool5
I0506 09:42:42.602033 21131 net.cpp:144] Setting up pool5
I0506 09:42:42.602041 21131 net.cpp:151] Top shape: 20 128 2 2 (10240)
I0506 09:42:42.602044 21131 net.cpp:159] Memory required for data: 3761040
I0506 09:42:42.602047 21131 layer_factory.hpp:77] Creating layer ip1
I0506 09:42:42.602057 21131 net.cpp:94] Creating Layer ip1
I0506 09:42:42.602061 21131 net.cpp:435] ip1 <- pool5
I0506 09:42:42.602066 21131 net.cpp:409] ip1 -> ip1
I0506 09:42:42.615989 21131 net.cpp:144] Setting up ip1
I0506 09:42:42.616009 21131 net.cpp:151] Top shape: 20 1024 (20480)
I0506 09:42:42.616014 21131 net.cpp:159] Memory required for data: 3842960
I0506 09:42:42.616019 21131 layer_factory.hpp:77] Creating layer ip2
I0506 09:42:42.616029 21131 net.cpp:94] Creating Layer ip2
I0506 09:42:42.616034 21131 net.cpp:435] ip2 <- ip1
I0506 09:42:42.616039 21131 net.cpp:409] ip2 -> ip2
I0506 09:42:42.629143 21131 net.cpp:144] Setting up ip2
I0506 09:42:42.629161 21131 net.cpp:151] Top shape: 20 512 (10240)
I0506 09:42:42.629165 21131 net.cpp:159] Memory required for data: 3883920
I0506 09:42:42.629173 21131 layer_factory.hpp:77] Creating layer ip3
I0506 09:42:42.629180 21131 net.cpp:94] Creating Layer ip3
I0506 09:42:42.629184 21131 net.cpp:435] ip3 <- ip2
I0506 09:42:42.629196 21131 net.cpp:409] ip3 -> ip3
I0506 09:42:42.629320 21131 net.cpp:144] Setting up ip3
I0506 09:42:42.629328 21131 net.cpp:151] Top shape: 20 1 (20)
I0506 09:42:42.629331 21131 net.cpp:159] Memory required for data: 3884000
I0506 09:42:42.629336 21131 layer_factory.hpp:77] Creating layer loss
I0506 09:42:42.629350 21131 net.cpp:94] Creating Layer loss
I0506 09:42:42.629354 21131 net.cpp:435] loss <- ip3
I0506 09:42:42.629359 21131 net.cpp:435] loss <- label
I0506 09:42:42.629362 21131 net.cpp:409] loss -> loss
I0506 09:42:42.629416 21131 net.cpp:144] Setting up loss
…
I0506 09:42:42.778945 21131 net.cpp:323] The NetState phase (0) differed from the phase (1) specified by a rule in layer intercept
I0506 09:42:42.778971 21131 net.cpp:323] The NetState phase (0) differed from the phase (1) specified by a rule in layer accuracy
I0506 09:42:42.779119 21131 net.cpp:52] Initializing net from parameters: 
state {
  phase: TRAIN
}
layer {
  name: "parameters"
  type: "HDF5Data"
  top: "data"
  top: "label"
  include {
    phase: TRAIN
  }
  hdf5_data_param {
    source: "/home/purduethu/scratch/radon/d/deng106/CNNStatisticalModel/distributions/input/50_distributions_100_sample_size_train-distributions-path.txt"
    batch_size: 20
  }
}
layer {
  name: "conv1"
  type: "Convolution"
  bottom: "data"
  top: "conv1"
  param {
    lr_mult: 1
  }
  param {
    lr_mult: 2
  }
  convolution_param {
    num_output: 64
    pad: 2
    kernel_size: 5
    stride: 1
    weight_filler {
      type: "gaussian"
      std: 0.0001
    }
    bias_filler {
      type: "constant"
    }
  }
}
layer {
  name: "relu1"
  type: "ReLU"
  bottom: "conv1"
  top: "conv1"
}
layer {
  name: "conv2"
  type: "Convolution"
  bottom: "conv1"
  top: "conv2"
  param {
    lr_mult: 1
  }
  param {
    lr_mult: 2
  }
  convolution_param {
    num_output: 64
    pad: 2
    kernel_size: 5
    stride: 1
    weight_filler {
      type: "gaussian"
      std: 0.01
    }
    bias_filler {
      type: "constant"
    }
  }
}
layer {
  name: "relu2"
  type: "ReLU"
  bottom: "conv2"
  top: "conv2"
}
layer {
  name: "pool2"
  type: "Pooling"
  bottom: "conv2"
  top: "pool2"
  pooling_param {
    pool: MAX
    kernel_size: 3
    stride: 2
  }
}
layer {
  name: "conv3"
  type: "Convolution"
  bottom: "pool2"
  top: "conv3"
  param {
    lr_mult: 1
  }
  param {
    lr_mult: 2
  }
  convolution_param {
    num_output: 128
    pad: 2
    kernel_size: 5
    stride: 1
    weight_filler {
      type: "gaussian"
      std: 0.01
    }
    bias_filler {
      type: "constant"
    }
  }
}
layer {
  name: "relu3"
  type: "ReLU"
  bottom: "conv3"
  top: "conv3"
}
layer {
  name: "conv4"
  type: "Convolution"
  bottom: "conv3"
  top: "conv4"
  param {
    lr_mult: 1
  }
  param {
    lr_mult: 2
  }
  convolution_param {
    num_output: 128
    pad: 2
    kernel_size: 5
    stride: 1
    weight_filler {
      type: "gaussian"
      std: 0.01
    }
    bias_filler {
      type: "constant"
    }
  }
}
layer {
  name: "relu4"
  type: "ReLU"
  bottom: "conv4"
  top: "conv4"
}
layer {
  name: "conv5"
  type: "Convolution"
  bottom: "conv4"
  top: "conv5"
  param {
    lr_mult: 1
  }
  param {
    lr_mult: 2
  }
  convolution_param {
    num_output: 128
    pad: 2
    kernel_size: 5
    stride: 1
    weight_filler {
      type: "gaussian"
      std: 0.01
    }
    bias_filler {
      type: "constant"
    }
  }
}
layer {
  name: "relu5"
  type: "ReLU"
  bottom: "conv5"
  top: "conv5"
}
layer {
  name: "pool5"
  type: "Pooling"
  bottom: "conv5"
  top: "pool5"
  pooling_param {
    pool: AVE
    kernel_size: 3
    stride: 2
  }
}
layer {
  name: "ip1"
  type: "InnerProduct"
  bottom: "pool5"
  top: "ip1"
  param {
    lr_mult: 1
  }
  param {
    lr_mult: 2
  }
  inner_product_param {
    num_output: 1024
    weight_filler {
      type: "gaussian"
      std: 0.1
    }
    bias_filler {
      type: "constant"
    }
  }
}
layer {
  name: "ip2"
  type: "InnerProduct"
  bottom: "ip1"
  top: "ip2"
  param {
    lr_mult: 1
  }
  param {
    lr_mult: 2
  }
  inner_product_param {
    num_output: 512
    weight_filler {
      type: "gaussian"
      std: 0.1
    }
    bias_filler {
      type: "constant"
    }
  }
}
layer {
  name: "ip3"
  type: "InnerProduct"
  bottom: "ip2"
  top: "ip3"
  param {
    lr_mult: 1
  }
  param {
    lr_mult: 2
  }
  inner_product_param {
    num_output: 50
    weight_filler {
      type: "gaussian"
      std: 0.1
    }
    bias_filler {
      type: "constant"
    }
  }
}
layer {
  name: "loss"
  type: "SoftmaxWithLoss"
  bottom: "ip3"
  bottom: "label"
  top: "loss"
}
I0506 09:42:42.779206 21131 layer_factory.hpp:77] Creating layer parameters
I0506 09:42:42.779219 21131 net.cpp:94] Creating Layer parameters
I0506 09:42:42.779227 21131 net.cpp:409] parameters -> data
I0506 09:42:42.779238 21131 net.cpp:409] parameters -> label
I0506 09:42:42.779248 21131 hdf5_data_layer.cpp:79] Loading list of HDF5 filenames from: /home/purduethu/scratch/radon/d/deng106/CNNStatisticalModel/distributions/input/50_distributions_100_sample_size_train-distributions-path.txt
I0506 09:42:42.779274 21131 hdf5_data_layer.cpp:93] Number of HDF5 files: 1
I0506 09:42:42.965147 21131 hdf5.cpp:35] Datatype class: H5T_INTEGER
I0506 09:42:42.968413 21131 net.cpp:144] Setting up parameters
I0506 09:42:42.968439 21131 net.cpp:151] Top shape: 20 1 10 10 (2000)
I0506 09:42:42.968444 21131 net.cpp:151] Top shape: 20 (20)
I0506 09:42:42.968448 21131 net.cpp:159] Memory required for data: 8080
I0506 09:42:42.968454 21131 layer_factory.hpp:77] Creating layer conv1
I0506 09:42:42.968472 21131 net.cpp:94] Creating Layer conv1
I0506 09:42:42.968477 21131 net.cpp:435] conv1 <- data
I0506 09:42:42.968482 21131 net.cpp:409] conv1 -> conv1
I0506 09:42:42.970343 21131 net.cpp:144] Setting up conv1
I0506 09:42:42.970360 21131 net.cpp:151] Top shape: 20 64 10 10 (128000)
I0506 09:42:42.970365 21131 net.cpp:159] Memory required for data: 520080
I0506 09:42:42.970376 21131 layer_factory.hpp:77] Creating layer relu1
I0506 09:42:42.970384 21131 net.cpp:94] Creating Layer relu1
I0506 09:42:42.970387 21131 net.cpp:435] relu1 <- conv1
I0506 09:42:42.970392 21131 net.cpp:396] relu1 -> conv1 (in-place)
I0506 09:42:42.970401 21131 net.cpp:144] Setting up relu1
I0506 09:42:42.970405 21131 net.cpp:151] Top shape: 20 64 10 10 (128000)
I0506 09:42:42.970408 21131 net.cpp:159] Memory required for data: 1032080
I0506 09:42:42.970412 21131 layer_factory.hpp:77] Creating layer conv2
I0506 09:42:42.970420 21131 net.cpp:94] Creating Layer conv2
I0506 09:42:42.970423 21131 net.cpp:435] conv2 <- conv1
I0506 09:42:42.970428 21131 net.cpp:409] conv2 -> conv2
I0506 09:42:42.975916 21131 net.cpp:144] Setting up conv2
I0506 09:42:42.975931 21131 net.cpp:151] Top shape: 20 64 10 10 (128000)
I0506 09:42:42.975935 21131 net.cpp:159] Memory required for data: 1544080
I0506 09:42:42.975944 21131 layer_factory.hpp:77] Creating layer relu2
I0506 09:42:42.975951 21131 net.cpp:94] Creating Layer relu2
I0506 09:42:42.975955 21131 net.cpp:435] relu2 <- conv2
I0506 09:42:42.975960 21131 net.cpp:396] relu2 -> conv2 (in-place)
I0506 09:42:42.975967 21131 net.cpp:144] Setting up relu2
I0506 09:42:42.975972 21131 net.cpp:151] Top shape: 20 64 10 10 (128000)
I0506 09:42:42.975975 21131 net.cpp:159] Memory required for data: 2056080
I0506 09:42:42.975978 21131 layer_factory.hpp:77] Creating layer pool2
I0506 09:42:42.975985 21131 net.cpp:94] Creating Layer pool2
I0506 09:42:42.975987 21131 net.cpp:435] pool2 <- conv2
I0506 09:42:42.975992 21131 net.cpp:409] pool2 -> pool2
I0506 09:42:42.976053 21131 net.cpp:144] Setting up pool2
I0506 09:42:42.976060 21131 net.cpp:151] Top shape: 20 64 5 5 (32000)
I0506 09:42:42.976064 21131 net.cpp:159] Memory required for data: 2184080
I0506 09:42:42.976068 21131 layer_factory.hpp:77] Creating layer conv3
I0506 09:42:42.976075 21131 net.cpp:94] Creating Layer conv3
I0506 09:42:42.976079 21131 net.cpp:435] conv3 <- pool2
I0506 09:42:42.976084 21131 net.cpp:409] conv3 -> conv3
I0506 09:42:42.985210 21131 net.cpp:144] Setting up conv3
I0506 09:42:42.985226 21131 net.cpp:151] Top shape: 20 128 5 5 (64000)
I0506 09:42:42.985231 21131 net.cpp:159] Memory required for data: 2440080
I0506 09:42:42.985240 21131 layer_factory.hpp:77] Creating layer relu3
I0506 09:42:42.985246 21131 net.cpp:94] Creating Layer relu3
I0506 09:42:42.985250 21131 net.cpp:435] relu3 <- conv3
I0506 09:42:42.985255 21131 net.cpp:396] relu3 -> conv3 (in-place)
I0506 09:42:42.985270 21131 net.cpp:144] Setting up relu3
I0506 09:42:42.985275 21131 net.cpp:151] Top shape: 20 128 5 5 (64000)
I0506 09:42:42.985278 21131 net.cpp:159] Memory required for data: 2696080
I0506 09:42:42.985282 21131 layer_factory.hpp:77] Creating layer conv4
I0506 09:42:42.985291 21131 net.cpp:94] Creating Layer conv4
I0506 09:42:42.985296 21131 net.cpp:435] conv4 <- conv3
I0506 09:42:42.985301 21131 net.cpp:409] conv4 -> conv4
I0506 09:42:43.000417 21131 net.cpp:144] Setting up conv4
I0506 09:42:43.000437 21131 net.cpp:151] Top shape: 20 128 5 5 (64000)
I0506 09:42:43.000442 21131 net.cpp:159] Memory required for data: 2952080
I0506 09:42:43.000448 21131 layer_factory.hpp:77] Creating layer relu4
I0506 09:42:43.000455 21131 net.cpp:94] Creating Layer relu4
I0506 09:42:43.000459 21131 net.cpp:435] relu4 <- conv4
I0506 09:42:43.000464 21131 net.cpp:396] relu4 -> conv4 (in-place)
I0506 09:42:43.000473 21131 net.cpp:144] Setting up relu4
I0506 09:42:43.000478 21131 net.cpp:151] Top shape: 20 128 5 5 (64000)
I0506 09:42:43.000480 21131 net.cpp:159] Memory required for data: 3208080
I0506 09:42:43.000483 21131 layer_factory.hpp:77] Creating layer conv5
I0506 09:42:43.000491 21131 net.cpp:94] Creating Layer conv5
I0506 09:42:43.000495 21131 net.cpp:435] conv5 <- conv4
I0506 09:42:43.000500 21131 net.cpp:409] conv5 -> conv5
I0506 09:42:43.016672 21131 net.cpp:144] Setting up conv5
I0506 09:42:43.016693 21131 net.cpp:151] Top shape: 20 128 5 5 (64000)
I0506 09:42:43.016697 21131 net.cpp:159] Memory required for data: 3464080
I0506 09:42:43.016708 21131 layer_factory.hpp:77] Creating layer relu5
I0506 09:42:43.016716 21131 net.cpp:94] Creating Layer relu5
I0506 09:42:43.016721 21131 net.cpp:435] relu5 <- conv5
I0506 09:42:43.016726 21131 net.cpp:396] relu5 -> conv5 (in-place)
I0506 09:42:43.016734 21131 net.cpp:144] Setting up relu5
I0506 09:42:43.016738 21131 net.cpp:151] Top shape: 20 128 5 5 (64000)
I0506 09:42:43.016742 21131 net.cpp:159] Memory required for data: 3720080
I0506 09:42:43.016746 21131 layer_factory.hpp:77] Creating layer pool5
I0506 09:42:43.016751 21131 net.cpp:94] Creating Layer pool5
I0506 09:42:43.016754 21131 net.cpp:435] pool5 <- conv5
I0506 09:42:43.016758 21131 net.cpp:409] pool5 -> pool5
I0506 09:42:43.016804 21131 net.cpp:144] Setting up pool5
I0506 09:42:43.016813 21131 net.cpp:151] Top shape: 20 128 2 2 (10240)
I0506 09:42:43.016815 21131 net.cpp:159] Memory required for data: 3761040
I0506 09:42:43.016819 21131 layer_factory.hpp:77] Creating layer ip1
I0506 09:42:43.016826 21131 net.cpp:94] Creating Layer ip1
I0506 09:42:43.016829 21131 net.cpp:435] ip1 <- pool5
I0506 09:42:43.016839 21131 net.cpp:409] ip1 -> ip1
I0506 09:42:43.030618 21131 net.cpp:144] Setting up ip1
I0506 09:42:43.030637 21131 net.cpp:151] Top shape: 20 1024 (20480)
I0506 09:42:43.030642 21131 net.cpp:159] Memory required for data: 3842960
I0506 09:42:43.030648 21131 layer_factory.hpp:77] Creating layer ip2
I0506 09:42:43.030658 21131 net.cpp:94] Creating Layer ip2
I0506 09:42:43.030660 21131 net.cpp:435] ip2 <- ip1
I0506 09:42:43.030668 21131 net.cpp:409] ip2 -> ip2
I0506 09:42:43.044617 21131 net.cpp:144] Setting up ip2
I0506 09:42:43.044636 21131 net.cpp:151] Top shape: 20 512 (10240)
I0506 09:42:43.044639 21131 net.cpp:159] Memory required for data: 3883920
I0506 09:42:43.044646 21131 layer_factory.hpp:77] Creating layer ip3
I0506 09:42:43.044656 21131 net.cpp:94] Creating Layer ip3
I0506 09:42:43.044659 21131 net.cpp:435] ip3 <- ip2
I0506 09:42:43.044664 21131 net.cpp:409] ip3 -> ip3
I0506 09:42:43.046298 21131 net.cpp:144] Setting up ip3
I0506 09:42:43.046313 21131 net.cpp:151] Top shape: 20 50 (1000)
I0506 09:42:43.046316 21131 net.cpp:159] Memory required for data: 3887920
I0506 09:42:43.046322 21131 layer_factory.hpp:77] Creating layer loss
I0506 09:42:43.046331 21131 net.cpp:94] Creating Layer loss
I0506 09:42:43.046335 21131 net.cpp:435] loss <- ip3
I0506 09:42:43.046340 21131 net.cpp:435] loss <- label
I0506 09:42:43.046344 21131 net.cpp:409] loss -> loss
I0506 09:42:43.046352 21131 layer_factory.hpp:77] Creating layer loss
…
I0506 09:42:43.046911 21131 solver.cpp:181] Creating test net (#0) specified by net file: ./protocol/dis_50_100_dimension.protocol_distribution
I0506 09:42:43.046939 21131 net.cpp:323] The NetState phase (1) differed from the phase (0) specified by a rule in layer parameters
I0506 09:42:43.047039 21131 net.cpp:52] Initializing net from parameters: 
state {
  phase: TEST
}
layer {
  name: "intercept"
  type: "HDF5Data"
  top: "data"
  top: "label"
  include {
    phase: TEST
  }
  hdf5_data_param {
    source: "/home/purduethu/scratch/radon/d/deng106/CNNStatisticalModel/distributions/input/50_distributions_100_sample_size_test-distributions-path.txt"
    batch_size: 20
  }
}
layer {
  name: "conv1"
  type: "Convolution"
  bottom: "data"
  top: "conv1"
  param {
    lr_mult: 1
  }
  param {
    lr_mult: 2
  }
  convolution_param {
    num_output: 64
    pad: 2
    kernel_size: 5
    stride: 1
    weight_filler {
      type: "gaussian"
      std: 0.0001
    }
    bias_filler {
      type: "constant"
    }
  }
}
layer {
  name: "relu1"
  type: "ReLU"
  bottom: "conv1"
  top: "conv1"
}
layer {
  name: "conv2"
  type: "Convolution"
  bottom: "conv1"
  top: "conv2"
  param {
    lr_mult: 1
  }
  param {
    lr_mult: 2
  }
  convolution_param {
    num_output: 64
    pad: 2
    kernel_size: 5
    stride: 1
    weight_filler {
      type: "gaussian"
      std: 0.01
    }
    bias_filler {
      type: "constant"
    }
  }
}
layer {
  name: "relu2"
  type: "ReLU"
  bottom: "conv2"
  top: "conv2"
}
layer {
  name: "pool2"
  type: "Pooling"
  bottom: "conv2"
  top: "pool2"
  pooling_param {
    pool: MAX
    kernel_size: 3
    stride: 2
  }
}
layer {
  name: "conv3"
  type: "Convolution"
  bottom: "pool2"
  top: "conv3"
  param {
    lr_mult: 1
  }
  param {
    lr_mult: 2
  }
  convolution_param {
    num_output: 128
    pad: 2
    kernel_size: 5
    stride: 1
    weight_filler {
      type: "gaussian"
      std: 0.01
    }
    bias_filler {
      type: "constant"
    }
  }
}
layer {
  name: "relu3"
  type: "ReLU"
  bottom: "conv3"
  top: "conv3"
}
layer {
  name: "conv4"
  type: "Convolution"
  bottom: "conv3"
  top: "conv4"
  param {
    lr_mult: 1
  }
  param {
    lr_mult: 2
  }
  convolution_param {
    num_output: 128
    pad: 2
    kernel_size: 5
    stride: 1
    weight_filler {
      type: "gaussian"
      std: 0.01
    }
    bias_filler {
      type: "constant"
    }
  }
}
layer {
  name: "relu4"
  type: "ReLU"
  bottom: "conv4"
  top: "conv4"
}
layer {
  name: "conv5"
  type: "Convolution"
  bottom: "conv4"
  top: "conv5"
  param {
    lr_mult: 1
  }
  param {
    lr_mult: 2
  }
  convolution_param {
    num_output: 128
    pad: 2
    kernel_size: 5
    stride: 1
    weight_filler {
      type: "gaussian"
      std: 0.01
    }
    bias_filler {
      type: "constant"
    }
  }
}
layer {
  name: "relu5"
  type: "ReLU"
  bottom: "conv5"
  top: "conv5"
}
layer {
  name: "pool5"
  type: "Pooling"
  bottom: "conv5"
  top: "pool5"
  pooling_param {
    pool: AVE
    kernel_size: 3
    stride: 2
  }
}
layer {
  name: "ip1"
  type: "InnerProduct"
  bottom: "pool5"
  top: "ip1"
  param {
    lr_mult: 1
  }
  param {
    lr_mult: 2
  }
  inner_product_param {
    num_output: 1024
    weight_filler {
      type: "gaussian"
      std: 0.1
    }
    bias_filler {
      type: "constant"
    }
  }
}
layer {
  name: "ip2"
  type: "InnerProduct"
  bottom: "ip1"
  top: "ip2"
  param {
    lr_mult: 1
  }
  param {
    lr_mult: 2
  }
  inner_product_param {
    num_output: 512
    weight_filler {
      type: "gaussian"
      std: 0.1
    }
    bias_filler {
      type: "constant"
    }
  }
}
layer {
  name: "ip3"
  type: "InnerProduct"
  bottom: "ip2"
  top: "ip3"
  param {
    lr_mult: 1
  }
  param {
    lr_mult: 2
  }
  inner_product_param {
    num_output: 50
    weight_filler {
      type: "gaussian"
      std: 0.1
    }
    bias_filler {
      type: "constant"
    }
  }
}
layer {
  name: "accuracy"
  type: "Accuracy"
  bottom: "ip3"
  bottom: "label"
  top: "accuracy"
  include {
    phase: TEST
  }
}
layer {
  name: "loss"
  type: "SoftmaxWithLoss"
  bottom: "ip3"
  bottom: "label"
  top: "loss"
}
I0506 09:42:43.047106 21131 layer_factory.hpp:77] Creating layer intercept
I0506 09:42:43.047116 21131 net.cpp:94] Creating Layer intercept
I0506 09:42:43.047121 21131 net.cpp:409] intercept -> data
I0506 09:42:43.047127 21131 net.cpp:409] intercept -> label
I0506 09:42:43.047133 21131 hdf5_data_layer.cpp:79] Loading list of HDF5 filenames from: /home/purduethu/scratch/radon/d/deng106/CNNStatisticalModel/distributions/input/50_distributions_100_sample_size_test-distributions-path.txt
I0506 09:42:43.047154 21131 hdf5_data_layer.cpp:93] Number of HDF5 files: 1
I0506 09:42:43.089233 21131 net.cpp:144] Setting up intercept
I0506 09:42:43.089267 21131 net.cpp:151] Top shape: 20 1 10 10 (2000)
I0506 09:42:43.089272 21131 net.cpp:151] Top shape: 20 (20)
I0506 09:42:43.089275 21131 net.cpp:159] Memory required for data: 8080
I0506 09:42:43.089282 21131 layer_factory.hpp:77] Creating layer label_intercept_1_split
I0506 09:42:43.089303 21131 net.cpp:94] Creating Layer label_intercept_1_split
I0506 09:42:43.089306 21131 net.cpp:435] label_intercept_1_split <- label
I0506 09:42:43.089313 21131 net.cpp:409] label_intercept_1_split -> label_intercept_1_split_0
I0506 09:42:43.089323 21131 net.cpp:409] label_intercept_1_split -> label_intercept_1_split_1
I0506 09:42:43.089370 21131 net.cpp:144] Setting up label_intercept_1_split
I0506 09:42:43.089377 21131 net.cpp:151] Top shape: 20 (20)
I0506 09:42:43.089380 21131 net.cpp:151] Top shape: 20 (20)
I0506 09:42:43.089385 21131 net.cpp:159] Memory required for data: 8240
I0506 09:42:43.089387 21131 layer_factory.hpp:77] Creating layer conv1
I0506 09:42:43.089399 21131 net.cpp:94] Creating Layer conv1
I0506 09:42:43.089402 21131 net.cpp:435] conv1 <- data
I0506 09:42:43.089408 21131 net.cpp:409] conv1 -> conv1
I0506 09:42:43.090322 21131 net.cpp:144] Setting up conv1
I0506 09:42:43.090335 21131 net.cpp:151] Top shape: 20 64 10 10 (128000)
I0506 09:42:43.090339 21131 net.cpp:159] Memory required for data: 520240
I0506 09:42:43.090349 21131 layer_factory.hpp:77] Creating layer relu1
I0506 09:42:43.090358 21131 net.cpp:94] Creating Layer relu1
I0506 09:42:43.090361 21131 net.cpp:435] relu1 <- conv1
I0506 09:42:43.090365 21131 net.cpp:396] relu1 -> conv1 (in-place)
I0506 09:42:43.090373 21131 net.cpp:144] Setting up relu1
I0506 09:42:43.090378 21131 net.cpp:151] Top shape: 20 64 10 10 (128000)
I0506 09:42:43.090389 21131 net.cpp:159] Memory required for data: 1032240
I0506 09:42:43.090392 21131 layer_factory.hpp:77] Creating layer conv2
I0506 09:42:43.090401 21131 net.cpp:94] Creating Layer conv2
I0506 09:42:43.090404 21131 net.cpp:435] conv2 <- conv1
I0506 09:42:43.090409 21131 net.cpp:409] conv2 -> conv2
I0506 09:42:43.094748 21131 net.cpp:144] Setting up conv2
I0506 09:42:43.094763 21131 net.cpp:151] Top shape: 20 64 10 10 (128000)
I0506 09:42:43.094766 21131 net.cpp:159] Memory required for data: 1544240
I0506 09:42:43.094775 21131 layer_factory.hpp:77] Creating layer relu2
I0506 09:42:43.094782 21131 net.cpp:94] Creating Layer relu2
I0506 09:42:43.094786 21131 net.cpp:435] relu2 <- conv2
I0506 09:42:43.094792 21131 net.cpp:396] relu2 -> conv2 (in-place)
I0506 09:42:43.094799 21131 net.cpp:144] Setting up relu2
I0506 09:42:43.094805 21131 net.cpp:151] Top shape: 20 64 10 10 (128000)
I0506 09:42:43.094807 21131 net.cpp:159] Memory required for data: 2056240
I0506 09:42:43.094810 21131 layer_factory.hpp:77] Creating layer pool2
I0506 09:42:43.094817 21131 net.cpp:94] Creating Layer pool2
I0506 09:42:43.094820 21131 net.cpp:435] pool2 <- conv2
I0506 09:42:43.094825 21131 net.cpp:409] pool2 -> pool2
I0506 09:42:43.094890 21131 net.cpp:144] Setting up pool2
I0506 09:42:43.094897 21131 net.cpp:151] Top shape: 20 64 5 5 (32000)
I0506 09:42:43.094900 21131 net.cpp:159] Memory required for data: 2184240
I0506 09:42:43.094903 21131 layer_factory.hpp:77] Creating layer conv3
I0506 09:42:43.094915 21131 net.cpp:94] Creating Layer conv3
I0506 09:42:43.094918 21131 net.cpp:435] conv3 <- pool2
I0506 09:42:43.094924 21131 net.cpp:409] conv3 -> conv3
I0506 09:42:43.101265 21131 net.cpp:144] Setting up conv3
I0506 09:42:43.101279 21131 net.cpp:151] Top shape: 20 128 5 5 (64000)
I0506 09:42:43.101284 21131 net.cpp:159] Memory required for data: 2440240
I0506 09:42:43.101291 21131 layer_factory.hpp:77] Creating layer relu3
I0506 09:42:43.101300 21131 net.cpp:94] Creating Layer relu3
I0506 09:42:43.101303 21131 net.cpp:435] relu3 <- conv3
I0506 09:42:43.101308 21131 net.cpp:396] relu3 -> conv3 (in-place)
I0506 09:42:43.101315 21131 net.cpp:144] Setting up relu3
I0506 09:42:43.101320 21131 net.cpp:151] Top shape: 20 128 5 5 (64000)
I0506 09:42:43.101323 21131 net.cpp:159] Memory required for data: 2696240
I0506 09:42:43.101326 21131 layer_factory.hpp:77] Creating layer conv4
I0506 09:42:43.101336 21131 net.cpp:94] Creating Layer conv4
I0506 09:42:43.101338 21131 net.cpp:435] conv4 <- conv3
I0506 09:42:43.101344 21131 net.cpp:409] conv4 -> conv4
I0506 09:42:43.114605 21131 net.cpp:144] Setting up conv4
I0506 09:42:43.114622 21131 net.cpp:151] Top shape: 20 128 5 5 (64000)
I0506 09:42:43.114626 21131 net.cpp:159] Memory required for data: 2952240
I0506 09:42:43.114634 21131 layer_factory.hpp:77] Creating layer relu4
I0506 09:42:43.114639 21131 net.cpp:94] Creating Layer relu4
I0506 09:42:43.114644 21131 net.cpp:435] relu4 <- conv4
I0506 09:42:43.114648 21131 net.cpp:396] relu4 -> conv4 (in-place)
I0506 09:42:43.114655 21131 net.cpp:144] Setting up relu4
I0506 09:42:43.114660 21131 net.cpp:151] Top shape: 20 128 5 5 (64000)
I0506 09:42:43.114663 21131 net.cpp:159] Memory required for data: 3208240
I0506 09:42:43.114666 21131 layer_factory.hpp:77] Creating layer conv5
I0506 09:42:43.114675 21131 net.cpp:94] Creating Layer conv5
I0506 09:42:43.114679 21131 net.cpp:435] conv5 <- conv4
I0506 09:42:43.114686 21131 net.cpp:409] conv5 -> conv5
I0506 09:42:43.127933 21131 net.cpp:144] Setting up conv5
I0506 09:42:43.127952 21131 net.cpp:151] Top shape: 20 128 5 5 (64000)
I0506 09:42:43.127956 21131 net.cpp:159] Memory required for data: 3464240
I0506 09:42:43.127966 21131 layer_factory.hpp:77] Creating layer relu5
I0506 09:42:43.127974 21131 net.cpp:94] Creating Layer relu5
I0506 09:42:43.127979 21131 net.cpp:435] relu5 <- conv5
I0506 09:42:43.127982 21131 net.cpp:396] relu5 -> conv5 (in-place)
I0506 09:42:43.127990 21131 net.cpp:144] Setting up relu5
I0506 09:42:43.127995 21131 net.cpp:151] Top shape: 20 128 5 5 (64000)
I0506 09:42:43.128005 21131 net.cpp:159] Memory required for data: 3720240
I0506 09:42:43.128008 21131 layer_factory.hpp:77] Creating layer pool5
I0506 09:42:43.128016 21131 net.cpp:94] Creating Layer pool5
I0506 09:42:43.128020 21131 net.cpp:435] pool5 <- conv5
I0506 09:42:43.128024 21131 net.cpp:409] pool5 -> pool5
I0506 09:42:43.128070 21131 net.cpp:144] Setting up pool5
I0506 09:42:43.128078 21131 net.cpp:151] Top shape: 20 128 2 2 (10240)
I0506 09:42:43.128082 21131 net.cpp:159] Memory required for data: 3761200
I0506 09:42:43.128084 21131 layer_factory.hpp:77] Creating layer ip1
I0506 09:42:43.128092 21131 net.cpp:94] Creating Layer ip1
I0506 09:42:43.128094 21131 net.cpp:435] ip1 <- pool5
I0506 09:42:43.128100 21131 net.cpp:409] ip1 -> ip1
I0506 09:42:43.141913 21131 net.cpp:144] Setting up ip1
I0506 09:42:43.141930 21131 net.cpp:151] Top shape: 20 1024 (20480)
I0506 09:42:43.141934 21131 net.cpp:159] Memory required for data: 3843120
I0506 09:42:43.141940 21131 layer_factory.hpp:77] Creating layer ip2
I0506 09:42:43.141950 21131 net.cpp:94] Creating Layer ip2
I0506 09:42:43.141954 21131 net.cpp:435] ip2 <- ip1
I0506 09:42:43.141959 21131 net.cpp:409] ip2 -> ip2
I0506 09:42:43.155717 21131 net.cpp:144] Setting up ip2
I0506 09:42:43.155735 21131 net.cpp:151] Top shape: 20 512 (10240)
I0506 09:42:43.155738 21131 net.cpp:159] Memory required for data: 3884080
I0506 09:42:43.155745 21131 layer_factory.hpp:77] Creating layer ip3
I0506 09:42:43.155755 21131 net.cpp:94] Creating Layer ip3
I0506 09:42:43.155758 21131 net.cpp:435] ip3 <- ip2
I0506 09:42:43.155764 21131 net.cpp:409] ip3 -> ip3
I0506 09:42:43.156563 21131 net.cpp:144] Setting up ip3
I0506 09:42:43.156574 21131 net.cpp:151] Top shape: 20 50 (1000)
I0506 09:42:43.156577 21131 net.cpp:159] Memory required for data: 3888080
I0506 09:42:43.156584 21131 layer_factory.hpp:77] Creating layer ip3_ip3_0_split
I0506 09:42:43.156589 21131 net.cpp:94] Creating Layer ip3_ip3_0_split
I0506 09:42:43.156594 21131 net.cpp:435] ip3_ip3_0_split <- ip3
I0506 09:42:43.156599 21131 net.cpp:409] ip3_ip3_0_split -> ip3_ip3_0_split_0
I0506 09:42:43.156605 21131 net.cpp:409] ip3_ip3_0_split -> ip3_ip3_0_split_1
I0506 09:42:43.156656 21131 net.cpp:144] Setting up ip3_ip3_0_split
I0506 09:42:43.156662 21131 net.cpp:151] Top shape: 20 50 (1000)
I0506 09:42:43.156666 21131 net.cpp:151] Top shape: 20 50 (1000)
I0506 09:42:43.156669 21131 net.cpp:159] Memory required for data: 3896080
I0506 09:42:43.156672 21131 layer_factory.hpp:77] Creating layer accuracy
I0506 09:42:43.156679 21131 net.cpp:94] Creating Layer accuracy
I0506 09:42:43.156682 21131 net.cpp:435] accuracy <- ip3_ip3_0_split_0
I0506 09:42:43.156687 21131 net.cpp:435] accuracy <- label_intercept_1_split_0
I0506 09:42:43.156692 21131 net.cpp:409] accuracy -> accuracy
…
