…
I0505 04:17:04.384027  3241 net.cpp:323] The NetState phase (0) differed from the phase (1) specified by a rule in layer intercept
I0505 04:17:04.384042  3241 net.cpp:323] The NetState phase (0) differed from the phase (1) specified by a rule in layer loss
I0505 04:17:04.384119  3241 net.cpp:52] Initializing net from parameters: 
state {
  phase: TRAIN
}
layer {
  name: "parameters"
  type: "HDF5Data"
  top: "data"
  top: "label"
  include {
    phase: TRAIN
  }
  hdf5_data_param {
    source: "/home/purduethu/scratch/radon/d/deng106/CNNStatisticalModel/distributions/input/5_distributions_400_sample_size_train-parameters-path.txt"
    batch_size: 20
  }
}
layer {
  name: "conv1"
  type: "Convolution"
  bottom: "data"
  top: "conv1"
  param {
    lr_mult: 1
  }
  param {
    lr_mult: 2
  }
  convolution_param {
    num_output: 64
    pad: 2
    kernel_size: 5
    stride: 1
    weight_filler {
      type: "gaussian"
      std: 0.0001
    }
    bias_filler {
      type: "constant"
    }
  }
}
layer {
  name: "relu1"
  type: "ReLU"
  bottom: "conv1"
  top: "conv1"
}
layer {
  name: "pool1"
  type: "Pooling"
  bottom: "conv1"
  top: "pool1"
  pooling_param {
    pool: MAX
    kernel_size: 3
    stride: 2
  }
}
layer {
  name: "conv2"
  type: "Convolution"
  bottom: "pool1"
  top: "conv2"
  param {
    lr_mult: 1
  }
  param {
    lr_mult: 2
  }
  convolution_param {
    num_output: 128
    pad: 2
    kernel_size: 5
    stride: 1
    weight_filler {
      type: "gaussian"
      std: 0.01
    }
    bias_filler {
      type: "constant"
    }
  }
}
layer {
  name: "relu2"
  type: "ReLU"
  bottom: "conv2"
  top: "conv2"
}
layer {
  name: "conv3"
  type: "Convolution"
  bottom: "conv2"
  top: "conv3"
  param {
    lr_mult: 1
  }
  param {
    lr_mult: 2
  }
  convolution_param {
    num_output: 128
    pad: 2
    kernel_size: 5
    stride: 1
    weight_filler {
      type: "gaussian"
      std: 0.01
    }
    bias_filler {
      type: "constant"
    }
  }
}
layer {
  name: "relu3"
  type: "ReLU"
  bottom: "conv3"
  top: "conv3"
}
layer {
  name: "pool3"
  type: "Pooling"
  bottom: "conv3"
  top: "pool3"
  pooling_param {
    pool: AVE
    kernel_size: 3
    stride: 2
  }
}
layer {
  name: "ip1"
  type: "InnerProduct"
  bottom: "pool3"
  top: "ip1"
  param {
    lr_mult: 1
  }
  param {
    lr_mult: 2
  }
  inner_product_param {
    num_output: 512
    weight_filler {
      type: "gaussian"
      std: 0.1
    }
    bias_filler {
      type: "constant"
    }
  }
}
layer {
  name: "ip2"
  type: "InnerProduct"
  bottom: "ip1"
  top: "ip2"
  param {
    lr_mult: 1
  }
  param {
    lr_mult: 2
  }
  inner_product_param {
    num_output: 256
    weight_filler {
      type: "gaussian"
      std: 0.1
    }
    bias_filler {
      type: "constant"
    }
  }
}
layer {
  name: "ip3"
  type: "InnerProduct"
  bottom: "ip2"
  top: "ip3"
  param {
    lr_mult: 1
  }
  param {
    lr_mult: 2
  }
  inner_product_param {
    num_output: 1
    weight_filler {
      type: "gaussian"
      std: 0.1
    }
    bias_filler {
      type: "constant"
    }
  }
}
layer {
  name: "loss"
  type: "HuberLoss"
  bottom: "ip3"
  bottom: "label"
  top: "loss"
  include {
    phase: TRAIN
  }
}
I0505 04:17:04.384182  3241 layer_factory.hpp:77] Creating layer parameters
I0505 04:17:04.384196  3241 net.cpp:94] Creating Layer parameters
I0505 04:17:04.384210  3241 net.cpp:409] parameters -> data
I0505 04:17:04.384230  3241 net.cpp:409] parameters -> label
I0505 04:17:04.384243  3241 hdf5_data_layer.cpp:79] Loading list of HDF5 filenames from: /home/purduethu/scratch/radon/d/deng106/CNNStatisticalModel/distributions/input/5_distributions_400_sample_size_train-parameters-path.txt
I0505 04:17:04.384264  3241 hdf5_data_layer.cpp:93] Number of HDF5 files: 1
I0505 04:17:04.384768  3241 hdf5.cpp:32] Datatype class: H5T_FLOAT
I0505 04:17:04.447501  3241 net.cpp:144] Setting up parameters
I0505 04:17:04.447535  3241 net.cpp:151] Top shape: 20 1 20 20 (8000)
I0505 04:17:04.447541  3241 net.cpp:151] Top shape: 20 (20)
I0505 04:17:04.447546  3241 net.cpp:159] Memory required for data: 32080
I0505 04:17:04.447552  3241 layer_factory.hpp:77] Creating layer conv1
I0505 04:17:04.447577  3241 net.cpp:94] Creating Layer conv1
I0505 04:17:04.447583  3241 net.cpp:435] conv1 <- data
I0505 04:17:04.447594  3241 net.cpp:409] conv1 -> conv1
I0505 04:17:04.452409  3241 net.cpp:144] Setting up conv1
I0505 04:17:04.452426  3241 net.cpp:151] Top shape: 20 64 20 20 (512000)
I0505 04:17:04.452430  3241 net.cpp:159] Memory required for data: 2080080
I0505 04:17:04.452441  3241 layer_factory.hpp:77] Creating layer relu1
I0505 04:17:04.452450  3241 net.cpp:94] Creating Layer relu1
I0505 04:17:04.452455  3241 net.cpp:435] relu1 <- conv1
I0505 04:17:04.452460  3241 net.cpp:396] relu1 -> conv1 (in-place)
I0505 04:17:04.452476  3241 net.cpp:144] Setting up relu1
I0505 04:17:04.452482  3241 net.cpp:151] Top shape: 20 64 20 20 (512000)
I0505 04:17:04.452486  3241 net.cpp:159] Memory required for data: 4128080
I0505 04:17:04.452489  3241 layer_factory.hpp:77] Creating layer pool1
I0505 04:17:04.452497  3241 net.cpp:94] Creating Layer pool1
I0505 04:17:04.452499  3241 net.cpp:435] pool1 <- conv1
I0505 04:17:04.452504  3241 net.cpp:409] pool1 -> pool1
I0505 04:17:04.452545  3241 net.cpp:144] Setting up pool1
I0505 04:17:04.452574  3241 net.cpp:151] Top shape: 20 64 10 10 (128000)
I0505 04:17:04.452581  3241 net.cpp:159] Memory required for data: 4640080
I0505 04:17:04.452585  3241 layer_factory.hpp:77] Creating layer conv2
I0505 04:17:04.452594  3241 net.cpp:94] Creating Layer conv2
I0505 04:17:04.452599  3241 net.cpp:435] conv2 <- pool1
I0505 04:17:04.452605  3241 net.cpp:409] conv2 -> conv2
I0505 04:17:04.462792  3241 net.cpp:144] Setting up conv2
I0505 04:17:04.462806  3241 net.cpp:151] Top shape: 20 128 10 10 (256000)
I0505 04:17:04.462811  3241 net.cpp:159] Memory required for data: 5664080
I0505 04:17:04.462819  3241 layer_factory.hpp:77] Creating layer relu2
I0505 04:17:04.462826  3241 net.cpp:94] Creating Layer relu2
I0505 04:17:04.462829  3241 net.cpp:435] relu2 <- conv2
I0505 04:17:04.462834  3241 net.cpp:396] relu2 -> conv2 (in-place)
I0505 04:17:04.462841  3241 net.cpp:144] Setting up relu2
I0505 04:17:04.462846  3241 net.cpp:151] Top shape: 20 128 10 10 (256000)
I0505 04:17:04.462849  3241 net.cpp:159] Memory required for data: 6688080
I0505 04:17:04.462853  3241 layer_factory.hpp:77] Creating layer conv3
I0505 04:17:04.462862  3241 net.cpp:94] Creating Layer conv3
I0505 04:17:04.462864  3241 net.cpp:435] conv3 <- conv2
I0505 04:17:04.462869  3241 net.cpp:409] conv3 -> conv3
I0505 04:17:04.480159  3241 net.cpp:144] Setting up conv3
I0505 04:17:04.480175  3241 net.cpp:151] Top shape: 20 128 10 10 (256000)
I0505 04:17:04.480180  3241 net.cpp:159] Memory required for data: 7712080
I0505 04:17:04.480188  3241 layer_factory.hpp:77] Creating layer relu3
I0505 04:17:04.480195  3241 net.cpp:94] Creating Layer relu3
I0505 04:17:04.480206  3241 net.cpp:435] relu3 <- conv3
I0505 04:17:04.480211  3241 net.cpp:396] relu3 -> conv3 (in-place)
I0505 04:17:04.480218  3241 net.cpp:144] Setting up relu3
I0505 04:17:04.480224  3241 net.cpp:151] Top shape: 20 128 10 10 (256000)
I0505 04:17:04.480227  3241 net.cpp:159] Memory required for data: 8736080
I0505 04:17:04.480231  3241 layer_factory.hpp:77] Creating layer pool3
I0505 04:17:04.480237  3241 net.cpp:94] Creating Layer pool3
I0505 04:17:04.480240  3241 net.cpp:435] pool3 <- conv3
I0505 04:17:04.480252  3241 net.cpp:409] pool3 -> pool3
I0505 04:17:04.480288  3241 net.cpp:144] Setting up pool3
I0505 04:17:04.480295  3241 net.cpp:151] Top shape: 20 128 5 5 (64000)
I0505 04:17:04.480298  3241 net.cpp:159] Memory required for data: 8992080
I0505 04:17:04.480303  3241 layer_factory.hpp:77] Creating layer ip1
I0505 04:17:04.480312  3241 net.cpp:94] Creating Layer ip1
I0505 04:17:04.480315  3241 net.cpp:435] ip1 <- pool3
I0505 04:17:04.480320  3241 net.cpp:409] ip1 -> ip1
I0505 04:17:04.521702  3241 net.cpp:144] Setting up ip1
I0505 04:17:04.521716  3241 net.cpp:151] Top shape: 20 512 (10240)
I0505 04:17:04.521720  3241 net.cpp:159] Memory required for data: 9033040
I0505 04:17:04.521728  3241 layer_factory.hpp:77] Creating layer ip2
I0505 04:17:04.521735  3241 net.cpp:94] Creating Layer ip2
I0505 04:17:04.521739  3241 net.cpp:435] ip2 <- ip1
I0505 04:17:04.521744  3241 net.cpp:409] ip2 -> ip2
I0505 04:17:04.525012  3241 net.cpp:144] Setting up ip2
I0505 04:17:04.525022  3241 net.cpp:151] Top shape: 20 256 (5120)
I0505 04:17:04.525025  3241 net.cpp:159] Memory required for data: 9053520
I0505 04:17:04.525032  3241 layer_factory.hpp:77] Creating layer ip3
I0505 04:17:04.525039  3241 net.cpp:94] Creating Layer ip3
I0505 04:17:04.525043  3241 net.cpp:435] ip3 <- ip2
I0505 04:17:04.525048  3241 net.cpp:409] ip3 -> ip3
I0505 04:17:04.525115  3241 net.cpp:144] Setting up ip3
I0505 04:17:04.525120  3241 net.cpp:151] Top shape: 20 1 (20)
I0505 04:17:04.525125  3241 net.cpp:159] Memory required for data: 9053600
I0505 04:17:04.525130  3241 layer_factory.hpp:77] Creating layer loss
I0505 04:17:04.525135  3241 net.cpp:94] Creating Layer loss
I0505 04:17:04.525140  3241 net.cpp:435] loss <- ip3
I0505 04:17:04.525143  3241 net.cpp:435] loss <- label
I0505 04:17:04.525148  3241 net.cpp:409] loss -> loss
I0505 04:17:04.525182  3241 net.cpp:144] Setting up loss
…
