…
I0501 21:00:11.067154 14676 net.cpp:323] The NetState phase (0) differed from the phase (1) specified by a rule in layer intercept
I0501 21:00:11.067170 14676 net.cpp:323] The NetState phase (0) differed from the phase (1) specified by a rule in layer accuracy
I0501 21:00:11.067262 14676 net.cpp:52] Initializing net from parameters: 
state {
  phase: TRAIN
}
layer {
  name: "parameters"
  type: "HDF5Data"
  top: "data"
  top: "label"
  include {
    phase: TRAIN
  }
  hdf5_data_param {
    source: "/home/purduethu/scratch/radon/d/deng106/CNNStatisticalModel/distributions/input/20_distributions_900_sample_size_train-distributions-path.txt"
    batch_size: 20
  }
}
layer {
  name: "conv1"
  type: "Convolution"
  bottom: "data"
  top: "conv1"
  param {
    lr_mult: 1
  }
  param {
    lr_mult: 2
  }
  convolution_param {
    num_output: 64
    pad: 2
    kernel_size: 5
    stride: 1
    weight_filler {
      type: "gaussian"
      std: 0.0001
    }
    bias_filler {
      type: "constant"
    }
  }
}
layer {
  name: "relu1"
  type: "ReLU"
  bottom: "conv1"
  top: "conv1"
}
layer {
  name: "conv2"
  type: "Convolution"
  bottom: "conv1"
  top: "conv2"
  param {
    lr_mult: 1
  }
  param {
    lr_mult: 2
  }
  convolution_param {
    num_output: 64
    pad: 2
    kernel_size: 5
    stride: 1
    weight_filler {
      type: "gaussian"
      std: 0.01
    }
    bias_filler {
      type: "constant"
    }
  }
}
layer {
  name: "relu2"
  type: "ReLU"
  bottom: "conv2"
  top: "conv2"
}
layer {
  name: "pool2"
  type: "Pooling"
  bottom: "conv2"
  top: "pool2"
  pooling_param {
    pool: MAX
    kernel_size: 3
    stride: 2
  }
}
layer {
  name: "conv3"
  type: "Convolution"
  bottom: "pool2"
  top: "conv3"
  param {
    lr_mult: 1
  }
  param {
    lr_mult: 2
  }
  convolution_param {
    num_output: 64
    pad: 2
    kernel_size: 5
    stride: 1
    weight_filler {
      type: "gaussian"
      std: 0.01
    }
    bias_filler {
      type: "constant"
    }
  }
}
layer {
  name: "relu3"
  type: "ReLU"
  bottom: "conv3"
  top: "conv3"
}
layer {
  name: "conv4"
  type: "Convolution"
  bottom: "conv3"
  top: "conv4"
  param {
    lr_mult: 1
  }
  param {
    lr_mult: 2
  }
  convolution_param {
    num_output: 64
    pad: 2
    kernel_size: 5
    stride: 1
    weight_filler {
      type: "gaussian"
      std: 0.01
    }
    bias_filler {
      type: "constant"
    }
  }
}
layer {
  name: "relu4"
  type: "ReLU"
  bottom: "conv4"
  top: "conv4"
}
layer {
  name: "conv5"
  type: "Convolution"
  bottom: "conv4"
  top: "conv5"
  param {
    lr_mult: 1
  }
  param {
    lr_mult: 2
  }
  convolution_param {
    num_output: 64
    pad: 2
    kernel_size: 5
    stride: 1
    weight_filler {
      type: "gaussian"
      std: 0.01
    }
    bias_filler {
      type: "constant"
    }
  }
}
layer {
  name: "relu5"
  type: "ReLU"
  bottom: "conv5"
  top: "conv5"
}
layer {
  name: "pool5"
  type: "Pooling"
  bottom: "conv5"
  top: "pool5"
  pooling_param {
    pool: AVE
    kernel_size: 3
    stride: 2
  }
}
layer {
  name: "ip1"
  type: "InnerProduct"
  bottom: "pool5"
  top: "ip1"
  param {
    lr_mult: 1
  }
  param {
    lr_mult: 2
  }
  inner_product_param {
    num_output: 64
    weight_filler {
      type: "gaussian"
      std: 0.1
    }
    bias_filler {
      type: "constant"
    }
  }
}
layer {
  name: "ip2"
  type: "InnerProduct"
  bottom: "ip1"
  top: "ip2"
  param {
    lr_mult: 1
  }
  param {
    lr_mult: 2
  }
  inner_product_param {
    num_output: 64
    weight_filler {
      type: "gaussian"
      std: 0.1
    }
    bias_filler {
      type: "constant"
    }
  }
}
layer {
  name: "ip3"
  type: "InnerProduct"
  bottom: "ip2"
  top: "ip3"
  param {
    lr_mult: 1
  }
  param {
    lr_mult: 2
  }
  inner_product_param {
    num_output: 50
    weight_filler {
      type: "gaussian"
      std: 0.1
    }
    bias_filler {
      type: "constant"
    }
  }
}
layer {
  name: "loss"
  type: "SoftmaxWithLoss"
  bottom: "ip3"
  bottom: "label"
  top: "loss"
}
I0501 21:00:11.067339 14676 layer_factory.hpp:77] Creating layer parameters
I0501 21:00:11.067354 14676 net.cpp:94] Creating Layer parameters
I0501 21:00:11.067360 14676 net.cpp:409] parameters -> data
I0501 21:00:11.067379 14676 net.cpp:409] parameters -> label
I0501 21:00:11.067389 14676 hdf5_data_layer.cpp:79] Loading list of HDF5 filenames from: /home/purduethu/scratch/radon/d/deng106/CNNStatisticalModel/distributions/input/20_distributions_900_sample_size_train-distributions-path.txt
I0501 21:00:11.067412 14676 hdf5_data_layer.cpp:93] Number of HDF5 files: 1
I0501 21:00:11.067893 14676 hdf5.cpp:32] Datatype class: H5T_FLOAT
I0501 21:00:11.641849 14676 hdf5.cpp:35] Datatype class: H5T_INTEGER
I0501 21:00:11.643395 14676 net.cpp:144] Setting up parameters
I0501 21:00:11.643414 14676 net.cpp:151] Top shape: 20 1 30 30 (18000)
I0501 21:00:11.643419 14676 net.cpp:151] Top shape: 20 (20)
I0501 21:00:11.643422 14676 net.cpp:159] Memory required for data: 72080
I0501 21:00:11.643430 14676 layer_factory.hpp:77] Creating layer conv1
I0501 21:00:11.643450 14676 net.cpp:94] Creating Layer conv1
I0501 21:00:11.643455 14676 net.cpp:435] conv1 <- data
I0501 21:00:11.643466 14676 net.cpp:409] conv1 -> conv1
I0501 21:00:11.649382 14676 net.cpp:144] Setting up conv1
I0501 21:00:11.649397 14676 net.cpp:151] Top shape: 20 64 30 30 (1152000)
I0501 21:00:11.649401 14676 net.cpp:159] Memory required for data: 4680080
I0501 21:00:11.649412 14676 layer_factory.hpp:77] Creating layer relu1
I0501 21:00:11.649420 14676 net.cpp:94] Creating Layer relu1
I0501 21:00:11.649425 14676 net.cpp:435] relu1 <- conv1
I0501 21:00:11.649428 14676 net.cpp:396] relu1 -> conv1 (in-place)
I0501 21:00:11.649446 14676 net.cpp:144] Setting up relu1
I0501 21:00:11.649451 14676 net.cpp:151] Top shape: 20 64 30 30 (1152000)
I0501 21:00:11.649454 14676 net.cpp:159] Memory required for data: 9288080
I0501 21:00:11.649457 14676 layer_factory.hpp:77] Creating layer conv2
I0501 21:00:11.649464 14676 net.cpp:94] Creating Layer conv2
I0501 21:00:11.649468 14676 net.cpp:435] conv2 <- conv1
I0501 21:00:11.649473 14676 net.cpp:409] conv2 -> conv2
I0501 21:00:11.664129 14676 net.cpp:144] Setting up conv2
I0501 21:00:11.664144 14676 net.cpp:151] Top shape: 20 64 30 30 (1152000)
I0501 21:00:11.664149 14676 net.cpp:159] Memory required for data: 13896080
I0501 21:00:11.664156 14676 layer_factory.hpp:77] Creating layer relu2
I0501 21:00:11.664162 14676 net.cpp:94] Creating Layer relu2
I0501 21:00:11.664166 14676 net.cpp:435] relu2 <- conv2
I0501 21:00:11.664171 14676 net.cpp:396] relu2 -> conv2 (in-place)
I0501 21:00:11.664178 14676 net.cpp:144] Setting up relu2
I0501 21:00:11.664182 14676 net.cpp:151] Top shape: 20 64 30 30 (1152000)
I0501 21:00:11.664186 14676 net.cpp:159] Memory required for data: 18504080
I0501 21:00:11.664189 14676 layer_factory.hpp:77] Creating layer pool2
I0501 21:00:11.664203 14676 net.cpp:94] Creating Layer pool2
I0501 21:00:11.664207 14676 net.cpp:435] pool2 <- conv2
I0501 21:00:11.664211 14676 net.cpp:409] pool2 -> pool2
I0501 21:00:11.664254 14676 net.cpp:144] Setting up pool2
I0501 21:00:11.664263 14676 net.cpp:151] Top shape: 20 64 15 15 (288000)
I0501 21:00:11.664265 14676 net.cpp:159] Memory required for data: 19656080
I0501 21:00:11.664268 14676 layer_factory.hpp:77] Creating layer conv3
I0501 21:00:11.664276 14676 net.cpp:94] Creating Layer conv3
I0501 21:00:11.664280 14676 net.cpp:435] conv3 <- pool2
I0501 21:00:11.664293 14676 net.cpp:409] conv3 -> conv3
I0501 21:00:11.672411 14676 net.cpp:144] Setting up conv3
I0501 21:00:11.672426 14676 net.cpp:151] Top shape: 20 64 15 15 (288000)
I0501 21:00:11.672430 14676 net.cpp:159] Memory required for data: 20808080
I0501 21:00:11.672438 14676 layer_factory.hpp:77] Creating layer relu3
I0501 21:00:11.672444 14676 net.cpp:94] Creating Layer relu3
I0501 21:00:11.672447 14676 net.cpp:435] relu3 <- conv3
I0501 21:00:11.672452 14676 net.cpp:396] relu3 -> conv3 (in-place)
I0501 21:00:11.672459 14676 net.cpp:144] Setting up relu3
I0501 21:00:11.672463 14676 net.cpp:151] Top shape: 20 64 15 15 (288000)
I0501 21:00:11.672467 14676 net.cpp:159] Memory required for data: 21960080
I0501 21:00:11.672471 14676 layer_factory.hpp:77] Creating layer conv4
I0501 21:00:11.672478 14676 net.cpp:94] Creating Layer conv4
I0501 21:00:11.672482 14676 net.cpp:435] conv4 <- conv3
I0501 21:00:11.672487 14676 net.cpp:409] conv4 -> conv4
I0501 21:00:11.679718 14676 net.cpp:144] Setting up conv4
I0501 21:00:11.679733 14676 net.cpp:151] Top shape: 20 64 15 15 (288000)
I0501 21:00:11.679738 14676 net.cpp:159] Memory required for data: 23112080
I0501 21:00:11.679744 14676 layer_factory.hpp:77] Creating layer relu4
I0501 21:00:11.679749 14676 net.cpp:94] Creating Layer relu4
I0501 21:00:11.679752 14676 net.cpp:435] relu4 <- conv4
I0501 21:00:11.679757 14676 net.cpp:396] relu4 -> conv4 (in-place)
I0501 21:00:11.679764 14676 net.cpp:144] Setting up relu4
I0501 21:00:11.679769 14676 net.cpp:151] Top shape: 20 64 15 15 (288000)
I0501 21:00:11.679771 14676 net.cpp:159] Memory required for data: 24264080
I0501 21:00:11.679774 14676 layer_factory.hpp:77] Creating layer conv5
I0501 21:00:11.679782 14676 net.cpp:94] Creating Layer conv5
I0501 21:00:11.679786 14676 net.cpp:435] conv5 <- conv4
I0501 21:00:11.679791 14676 net.cpp:409] conv5 -> conv5
I0501 21:00:11.689123 14676 net.cpp:144] Setting up conv5
I0501 21:00:11.689138 14676 net.cpp:151] Top shape: 20 64 15 15 (288000)
I0501 21:00:11.689143 14676 net.cpp:159] Memory required for data: 25416080
I0501 21:00:11.689152 14676 layer_factory.hpp:77] Creating layer relu5
I0501 21:00:11.689157 14676 net.cpp:94] Creating Layer relu5
I0501 21:00:11.689162 14676 net.cpp:435] relu5 <- conv5
I0501 21:00:11.689167 14676 net.cpp:396] relu5 -> conv5 (in-place)
I0501 21:00:11.689173 14676 net.cpp:144] Setting up relu5
I0501 21:00:11.689178 14676 net.cpp:151] Top shape: 20 64 15 15 (288000)
I0501 21:00:11.689182 14676 net.cpp:159] Memory required for data: 26568080
I0501 21:00:11.689184 14676 layer_factory.hpp:77] Creating layer pool5
I0501 21:00:11.689189 14676 net.cpp:94] Creating Layer pool5
I0501 21:00:11.689193 14676 net.cpp:435] pool5 <- conv5
I0501 21:00:11.689198 14676 net.cpp:409] pool5 -> pool5
I0501 21:00:11.689230 14676 net.cpp:144] Setting up pool5
I0501 21:00:11.689237 14676 net.cpp:151] Top shape: 20 64 7 7 (62720)
I0501 21:00:11.689241 14676 net.cpp:159] Memory required for data: 26818960
I0501 21:00:11.689244 14676 layer_factory.hpp:77] Creating layer ip1
I0501 21:00:11.689251 14676 net.cpp:94] Creating Layer ip1
I0501 21:00:11.689254 14676 net.cpp:435] ip1 <- pool5
I0501 21:00:11.689260 14676 net.cpp:409] ip1 -> ip1
I0501 21:00:11.693989 14676 net.cpp:144] Setting up ip1
I0501 21:00:11.694000 14676 net.cpp:151] Top shape: 20 64 (1280)
I0501 21:00:11.694002 14676 net.cpp:159] Memory required for data: 26824080
I0501 21:00:11.694007 14676 layer_factory.hpp:77] Creating layer ip2
I0501 21:00:11.694017 14676 net.cpp:94] Creating Layer ip2
I0501 21:00:11.694021 14676 net.cpp:435] ip2 <- ip1
I0501 21:00:11.694025 14676 net.cpp:409] ip2 -> ip2
I0501 21:00:11.694190 14676 net.cpp:144] Setting up ip2
I0501 21:00:11.694197 14676 net.cpp:151] Top shape: 20 64 (1280)
I0501 21:00:11.694201 14676 net.cpp:159] Memory required for data: 26829200
I0501 21:00:11.694206 14676 layer_factory.hpp:77] Creating layer ip3
I0501 21:00:11.694211 14676 net.cpp:94] Creating Layer ip3
I0501 21:00:11.694214 14676 net.cpp:435] ip3 <- ip2
I0501 21:00:11.694219 14676 net.cpp:409] ip3 -> ip3
I0501 21:00:11.694366 14676 net.cpp:144] Setting up ip3
I0501 21:00:11.694373 14676 net.cpp:151] Top shape: 20 50 (1000)
I0501 21:00:11.694376 14676 net.cpp:159] Memory required for data: 26833200
I0501 21:00:11.694380 14676 layer_factory.hpp:77] Creating layer loss
I0501 21:00:11.694387 14676 net.cpp:94] Creating Layer loss
I0501 21:00:11.694391 14676 net.cpp:435] loss <- ip3
I0501 21:00:11.694394 14676 net.cpp:435] loss <- label
I0501 21:00:11.694399 14676 net.cpp:409] loss -> loss
I0501 21:00:11.694409 14676 layer_factory.hpp:77] Creating layer loss
…
I0501 21:00:11.694888 14676 solver.cpp:181] Creating test net (#0) specified by net file: ./protocol/dis_20_900_dimension.protocol_distribution
I0501 21:00:11.694916 14676 net.cpp:323] The NetState phase (1) differed from the phase (0) specified by a rule in layer parameters
I0501 21:00:11.695008 14676 net.cpp:52] Initializing net from parameters: 
state {
  phase: TEST
}
layer {
  name: "intercept"
  type: "HDF5Data"
  top: "data"
  top: "label"
  include {
    phase: TEST
  }
  hdf5_data_param {
    source: "/home/purduethu/scratch/radon/d/deng106/CNNStatisticalModel/distributions/input/20_distributions_900_sample_size_test-distributions-path.txt"
    batch_size: 20
  }
}
layer {
  name: "conv1"
  type: "Convolution"
  bottom: "data"
  top: "conv1"
  param {
    lr_mult: 1
  }
  param {
    lr_mult: 2
  }
  convolution_param {
    num_output: 64
    pad: 2
    kernel_size: 5
    stride: 1
    weight_filler {
      type: "gaussian"
      std: 0.0001
    }
    bias_filler {
      type: "constant"
    }
  }
}
layer {
  name: "relu1"
  type: "ReLU"
  bottom: "conv1"
  top: "conv1"
}
layer {
  name: "conv2"
  type: "Convolution"
  bottom: "conv1"
  top: "conv2"
  param {
    lr_mult: 1
  }
  param {
    lr_mult: 2
  }
  convolution_param {
    num_output: 64
    pad: 2
    kernel_size: 5
    stride: 1
    weight_filler {
      type: "gaussian"
      std: 0.01
    }
    bias_filler {
      type: "constant"
    }
  }
}
layer {
  name: "relu2"
  type: "ReLU"
  bottom: "conv2"
  top: "conv2"
}
layer {
  name: "pool2"
  type: "Pooling"
  bottom: "conv2"
  top: "pool2"
  pooling_param {
    pool: MAX
    kernel_size: 3
    stride: 2
  }
}
layer {
  name: "conv3"
  type: "Convolution"
  bottom: "pool2"
  top: "conv3"
  param {
    lr_mult: 1
  }
  param {
    lr_mult: 2
  }
  convolution_param {
    num_output: 64
    pad: 2
    kernel_size: 5
    stride: 1
    weight_filler {
      type: "gaussian"
      std: 0.01
    }
    bias_filler {
      type: "constant"
    }
  }
}
layer {
  name: "relu3"
  type: "ReLU"
  bottom: "conv3"
  top: "conv3"
}
layer {
  name: "conv4"
  type: "Convolution"
  bottom: "conv3"
  top: "conv4"
  param {
    lr_mult: 1
  }
  param {
    lr_mult: 2
  }
  convolution_param {
    num_output: 64
    pad: 2
    kernel_size: 5
    stride: 1
    weight_filler {
      type: "gaussian"
      std: 0.01
    }
    bias_filler {
      type: "constant"
    }
  }
}
layer {
  name: "relu4"
  type: "ReLU"
  bottom: "conv4"
  top: "conv4"
}
layer {
  name: "conv5"
  type: "Convolution"
  bottom: "conv4"
  top: "conv5"
  param {
    lr_mult: 1
  }
  param {
    lr_mult: 2
  }
  convolution_param {
    num_output: 64
    pad: 2
    kernel_size: 5
    stride: 1
    weight_filler {
      type: "gaussian"
      std: 0.01
    }
    bias_filler {
      type: "constant"
    }
  }
}
layer {
  name: "relu5"
  type: "ReLU"
  bottom: "conv5"
  top: "conv5"
}
layer {
  name: "pool5"
  type: "Pooling"
  bottom: "conv5"
  top: "pool5"
  pooling_param {
    pool: AVE
    kernel_size: 3
    stride: 2
  }
}
layer {
  name: "ip1"
  type: "InnerProduct"
  bottom: "pool5"
  top: "ip1"
  param {
    lr_mult: 1
  }
  param {
    lr_mult: 2
  }
  inner_product_param {
    num_output: 64
    weight_filler {
      type: "gaussian"
      std: 0.1
    }
    bias_filler {
      type: "constant"
    }
  }
}
layer {
  name: "ip2"
  type: "InnerProduct"
  bottom: "ip1"
  top: "ip2"
  param {
    lr_mult: 1
  }
  param {
    lr_mult: 2
  }
  inner_product_param {
    num_output: 64
    weight_filler {
      type: "gaussian"
      std: 0.1
    }
    bias_filler {
      type: "constant"
    }
  }
}
layer {
  name: "ip3"
  type: "InnerProduct"
  bottom: "ip2"
  top: "ip3"
  param {
    lr_mult: 1
  }
  param {
    lr_mult: 2
  }
  inner_product_param {
    num_output: 50
    weight_filler {
      type: "gaussian"
      std: 0.1
    }
    bias_filler {
      type: "constant"
    }
  }
}
layer {
  name: "accuracy"
  type: "Accuracy"
  bottom: "ip3"
  bottom: "label"
  top: "accuracy"
  include {
    phase: TEST
  }
}
layer {
  name: "loss"
  type: "SoftmaxWithLoss"
  bottom: "ip3"
  bottom: "label"
  top: "loss"
}
I0501 21:00:11.695080 14676 layer_factory.hpp:77] Creating layer intercept
I0501 21:00:11.695087 14676 net.cpp:94] Creating Layer intercept
I0501 21:00:11.695091 14676 net.cpp:409] intercept -> data
I0501 21:00:11.695097 14676 net.cpp:409] intercept -> label
I0501 21:00:11.695103 14676 hdf5_data_layer.cpp:79] Loading list of HDF5 filenames from: /home/purduethu/scratch/radon/d/deng106/CNNStatisticalModel/distributions/input/20_distributions_900_sample_size_test-distributions-path.txt
I0501 21:00:11.695122 14676 hdf5_data_layer.cpp:93] Number of HDF5 files: 1
I0501 21:00:11.834307 14676 net.cpp:144] Setting up intercept
I0501 21:00:11.834336 14676 net.cpp:151] Top shape: 20 1 30 30 (18000)
I0501 21:00:11.834342 14676 net.cpp:151] Top shape: 20 (20)
I0501 21:00:11.834344 14676 net.cpp:159] Memory required for data: 72080
I0501 21:00:11.834349 14676 layer_factory.hpp:77] Creating layer label_intercept_1_split
I0501 21:00:11.834365 14676 net.cpp:94] Creating Layer label_intercept_1_split
I0501 21:00:11.834370 14676 net.cpp:435] label_intercept_1_split <- label
I0501 21:00:11.834377 14676 net.cpp:409] label_intercept_1_split -> label_intercept_1_split_0
I0501 21:00:11.834385 14676 net.cpp:409] label_intercept_1_split -> label_intercept_1_split_1
I0501 21:00:11.834419 14676 net.cpp:144] Setting up label_intercept_1_split
I0501 21:00:11.834426 14676 net.cpp:151] Top shape: 20 (20)
I0501 21:00:11.834430 14676 net.cpp:151] Top shape: 20 (20)
I0501 21:00:11.834434 14676 net.cpp:159] Memory required for data: 72240
I0501 21:00:11.834436 14676 layer_factory.hpp:77] Creating layer conv1
I0501 21:00:11.834448 14676 net.cpp:94] Creating Layer conv1
I0501 21:00:11.834452 14676 net.cpp:435] conv1 <- data
I0501 21:00:11.834456 14676 net.cpp:409] conv1 -> conv1
I0501 21:00:11.835687 14676 net.cpp:144] Setting up conv1
I0501 21:00:11.835701 14676 net.cpp:151] Top shape: 20 64 30 30 (1152000)
I0501 21:00:11.835705 14676 net.cpp:159] Memory required for data: 4680240
I0501 21:00:11.835714 14676 layer_factory.hpp:77] Creating layer relu1
I0501 21:00:11.835721 14676 net.cpp:94] Creating Layer relu1
I0501 21:00:11.835726 14676 net.cpp:435] relu1 <- conv1
I0501 21:00:11.835729 14676 net.cpp:396] relu1 -> conv1 (in-place)
I0501 21:00:11.835737 14676 net.cpp:144] Setting up relu1
I0501 21:00:11.835741 14676 net.cpp:151] Top shape: 20 64 30 30 (1152000)
I0501 21:00:11.835744 14676 net.cpp:159] Memory required for data: 9288240
I0501 21:00:11.835747 14676 layer_factory.hpp:77] Creating layer conv2
I0501 21:00:11.835757 14676 net.cpp:94] Creating Layer conv2
I0501 21:00:11.835759 14676 net.cpp:435] conv2 <- conv1
I0501 21:00:11.835764 14676 net.cpp:409] conv2 -> conv2
I0501 21:00:11.841918 14676 net.cpp:144] Setting up conv2
I0501 21:00:11.841933 14676 net.cpp:151] Top shape: 20 64 30 30 (1152000)
I0501 21:00:11.841936 14676 net.cpp:159] Memory required for data: 13896240
I0501 21:00:11.841943 14676 layer_factory.hpp:77] Creating layer relu2
I0501 21:00:11.841949 14676 net.cpp:94] Creating Layer relu2
I0501 21:00:11.841953 14676 net.cpp:435] relu2 <- conv2
I0501 21:00:11.841958 14676 net.cpp:396] relu2 -> conv2 (in-place)
I0501 21:00:11.841964 14676 net.cpp:144] Setting up relu2
I0501 21:00:11.841969 14676 net.cpp:151] Top shape: 20 64 30 30 (1152000)
I0501 21:00:11.841971 14676 net.cpp:159] Memory required for data: 18504240
I0501 21:00:11.841975 14676 layer_factory.hpp:77] Creating layer pool2
I0501 21:00:11.841980 14676 net.cpp:94] Creating Layer pool2
I0501 21:00:11.841984 14676 net.cpp:435] pool2 <- conv2
I0501 21:00:11.841989 14676 net.cpp:409] pool2 -> pool2
I0501 21:00:11.842021 14676 net.cpp:144] Setting up pool2
I0501 21:00:11.842027 14676 net.cpp:151] Top shape: 20 64 15 15 (288000)
I0501 21:00:11.842031 14676 net.cpp:159] Memory required for data: 19656240
I0501 21:00:11.842034 14676 layer_factory.hpp:77] Creating layer conv3
I0501 21:00:11.842041 14676 net.cpp:94] Creating Layer conv3
I0501 21:00:11.842046 14676 net.cpp:435] conv3 <- pool2
I0501 21:00:11.842051 14676 net.cpp:409] conv3 -> conv3
I0501 21:00:11.846890 14676 net.cpp:144] Setting up conv3
I0501 21:00:11.846904 14676 net.cpp:151] Top shape: 20 64 15 15 (288000)
I0501 21:00:11.846909 14676 net.cpp:159] Memory required for data: 20808240
I0501 21:00:11.846916 14676 layer_factory.hpp:77] Creating layer relu3
I0501 21:00:11.846923 14676 net.cpp:94] Creating Layer relu3
I0501 21:00:11.846927 14676 net.cpp:435] relu3 <- conv3
I0501 21:00:11.846931 14676 net.cpp:396] relu3 -> conv3 (in-place)
I0501 21:00:11.846938 14676 net.cpp:144] Setting up relu3
I0501 21:00:11.846943 14676 net.cpp:151] Top shape: 20 64 15 15 (288000)
I0501 21:00:11.846946 14676 net.cpp:159] Memory required for data: 21960240
I0501 21:00:11.846949 14676 layer_factory.hpp:77] Creating layer conv4
I0501 21:00:11.846956 14676 net.cpp:94] Creating Layer conv4
I0501 21:00:11.846961 14676 net.cpp:435] conv4 <- conv3
I0501 21:00:11.846964 14676 net.cpp:409] conv4 -> conv4
I0501 21:00:11.851954 14676 net.cpp:144] Setting up conv4
I0501 21:00:11.851969 14676 net.cpp:151] Top shape: 20 64 15 15 (288000)
I0501 21:00:11.851974 14676 net.cpp:159] Memory required for data: 23112240
I0501 21:00:11.851979 14676 layer_factory.hpp:77] Creating layer relu4
I0501 21:00:11.851985 14676 net.cpp:94] Creating Layer relu4
I0501 21:00:11.851994 14676 net.cpp:435] relu4 <- conv4
I0501 21:00:11.851999 14676 net.cpp:396] relu4 -> conv4 (in-place)
I0501 21:00:11.852005 14676 net.cpp:144] Setting up relu4
I0501 21:00:11.852010 14676 net.cpp:151] Top shape: 20 64 15 15 (288000)
I0501 21:00:11.852013 14676 net.cpp:159] Memory required for data: 24264240
I0501 21:00:11.852016 14676 layer_factory.hpp:77] Creating layer conv5
I0501 21:00:11.852023 14676 net.cpp:94] Creating Layer conv5
I0501 21:00:11.852027 14676 net.cpp:435] conv5 <- conv4
I0501 21:00:11.852032 14676 net.cpp:409] conv5 -> conv5
I0501 21:00:11.856415 14676 net.cpp:144] Setting up conv5
I0501 21:00:11.856428 14676 net.cpp:151] Top shape: 20 64 15 15 (288000)
I0501 21:00:11.856432 14676 net.cpp:159] Memory required for data: 25416240
I0501 21:00:11.856441 14676 layer_factory.hpp:77] Creating layer relu5
I0501 21:00:11.856446 14676 net.cpp:94] Creating Layer relu5
I0501 21:00:11.856451 14676 net.cpp:435] relu5 <- conv5
I0501 21:00:11.856454 14676 net.cpp:396] relu5 -> conv5 (in-place)
I0501 21:00:11.856462 14676 net.cpp:144] Setting up relu5
I0501 21:00:11.856465 14676 net.cpp:151] Top shape: 20 64 15 15 (288000)
I0501 21:00:11.856468 14676 net.cpp:159] Memory required for data: 26568240
I0501 21:00:11.856472 14676 layer_factory.hpp:77] Creating layer pool5
I0501 21:00:11.856477 14676 net.cpp:94] Creating Layer pool5
I0501 21:00:11.856479 14676 net.cpp:435] pool5 <- conv5
I0501 21:00:11.856484 14676 net.cpp:409] pool5 -> pool5
I0501 21:00:11.856509 14676 net.cpp:144] Setting up pool5
I0501 21:00:11.856515 14676 net.cpp:151] Top shape: 20 64 7 7 (62720)
I0501 21:00:11.856518 14676 net.cpp:159] Memory required for data: 26819120
I0501 21:00:11.856523 14676 layer_factory.hpp:77] Creating layer ip1
I0501 21:00:11.856528 14676 net.cpp:94] Creating Layer ip1
I0501 21:00:11.856533 14676 net.cpp:435] ip1 <- pool5
I0501 21:00:11.856536 14676 net.cpp:409] ip1 -> ip1
I0501 21:00:11.861302 14676 net.cpp:144] Setting up ip1
I0501 21:00:11.861311 14676 net.cpp:151] Top shape: 20 64 (1280)
I0501 21:00:11.861315 14676 net.cpp:159] Memory required for data: 26824240
I0501 21:00:11.861320 14676 layer_factory.hpp:77] Creating layer ip2
I0501 21:00:11.861326 14676 net.cpp:94] Creating Layer ip2
I0501 21:00:11.861330 14676 net.cpp:435] ip2 <- ip1
I0501 21:00:11.861335 14676 net.cpp:409] ip2 -> ip2
I0501 21:00:11.861505 14676 net.cpp:144] Setting up ip2
I0501 21:00:11.861511 14676 net.cpp:151] Top shape: 20 64 (1280)
I0501 21:00:11.861515 14676 net.cpp:159] Memory required for data: 26829360
I0501 21:00:11.861519 14676 layer_factory.hpp:77] Creating layer ip3
I0501 21:00:11.861526 14676 net.cpp:94] Creating Layer ip3
I0501 21:00:11.861529 14676 net.cpp:435] ip3 <- ip2
I0501 21:00:11.861534 14676 net.cpp:409] ip3 -> ip3
I0501 21:00:11.861682 14676 net.cpp:144] Setting up ip3
I0501 21:00:11.861688 14676 net.cpp:151] Top shape: 20 50 (1000)
I0501 21:00:11.861691 14676 net.cpp:159] Memory required for data: 26833360
I0501 21:00:11.861696 14676 layer_factory.hpp:77] Creating layer ip3_ip3_0_split
I0501 21:00:11.861701 14676 net.cpp:94] Creating Layer ip3_ip3_0_split
I0501 21:00:11.861704 14676 net.cpp:435] ip3_ip3_0_split <- ip3
I0501 21:00:11.861708 14676 net.cpp:409] ip3_ip3_0_split -> ip3_ip3_0_split_0
I0501 21:00:11.861714 14676 net.cpp:409] ip3_ip3_0_split -> ip3_ip3_0_split_1
I0501 21:00:11.861739 14676 net.cpp:144] Setting up ip3_ip3_0_split
I0501 21:00:11.861744 14676 net.cpp:151] Top shape: 20 50 (1000)
I0501 21:00:11.861748 14676 net.cpp:151] Top shape: 20 50 (1000)
I0501 21:00:11.861752 14676 net.cpp:159] Memory required for data: 26841360
I0501 21:00:11.861754 14676 layer_factory.hpp:77] Creating layer accuracy
I0501 21:00:11.861764 14676 net.cpp:94] Creating Layer accuracy
I0501 21:00:11.861768 14676 net.cpp:435] accuracy <- ip3_ip3_0_split_0
I0501 21:00:11.861771 14676 net.cpp:435] accuracy <- label_intercept_1_split_0
I0501 21:00:11.861776 14676 net.cpp:409] accuracy -> accuracy
…
