…
I0505 14:58:54.160830  7452 net.cpp:323] The NetState phase (0) differed from the phase (1) specified by a rule in layer intercept
I0505 14:58:54.160845  7452 net.cpp:323] The NetState phase (0) differed from the phase (1) specified by a rule in layer loss
I0505 14:58:54.160912  7452 net.cpp:52] Initializing net from parameters: 
state {
  phase: TRAIN
}
layer {
  name: "parameters"
  type: "HDF5Data"
  top: "data"
  top: "label"
  include {
    phase: TRAIN
  }
  hdf5_data_param {
    source: "/home/purduethu/scratch/radon/d/deng106/CNNStatisticalModel/distributions/input/5_distributions_100_sample_size_train-parameters-path.txt"
    batch_size: 20
  }
}
layer {
  name: "conv1"
  type: "Convolution"
  bottom: "data"
  top: "conv1"
  param {
    lr_mult: 1
  }
  param {
    lr_mult: 2
  }
  convolution_param {
    num_output: 64
    pad: 2
    kernel_size: 5
    stride: 1
    weight_filler {
      type: "gaussian"
      std: 0.0001
    }
    bias_filler {
      type: "constant"
    }
  }
}
layer {
  name: "relu1"
  type: "ReLU"
  bottom: "conv1"
  top: "conv1"
}
layer {
  name: "pool1"
  type: "Pooling"
  bottom: "conv1"
  top: "pool1"
  pooling_param {
    pool: MAX
    kernel_size: 3
    stride: 2
  }
}
layer {
  name: "conv2"
  type: "Convolution"
  bottom: "pool1"
  top: "conv2"
  param {
    lr_mult: 1
  }
  param {
    lr_mult: 2
  }
  convolution_param {
    num_output: 128
    pad: 2
    kernel_size: 5
    stride: 1
    weight_filler {
      type: "gaussian"
      std: 0.01
    }
    bias_filler {
      type: "constant"
    }
  }
}
layer {
  name: "relu2"
  type: "ReLU"
  bottom: "conv2"
  top: "conv2"
}
layer {
  name: "conv3"
  type: "Convolution"
  bottom: "conv2"
  top: "conv3"
  param {
    lr_mult: 1
  }
  param {
    lr_mult: 2
  }
  convolution_param {
    num_output: 128
    pad: 2
    kernel_size: 5
    stride: 1
    weight_filler {
      type: "gaussian"
      std: 0.01
    }
    bias_filler {
      type: "constant"
    }
  }
}
layer {
  name: "relu3"
  type: "ReLU"
  bottom: "conv3"
  top: "conv3"
}
layer {
  name: "pool3"
  type: "Pooling"
  bottom: "conv3"
  top: "pool3"
  pooling_param {
    pool: AVE
    kernel_size: 3
    stride: 2
  }
}
layer {
  name: "ip1"
  type: "InnerProduct"
  bottom: "pool3"
  top: "ip1"
  param {
    lr_mult: 1
  }
  param {
    lr_mult: 2
  }
  inner_product_param {
    num_output: 512
    weight_filler {
      type: "gaussian"
      std: 0.1
    }
    bias_filler {
      type: "constant"
    }
  }
}
layer {
  name: "ip2"
  type: "InnerProduct"
  bottom: "ip1"
  top: "ip2"
  param {
    lr_mult: 1
  }
  param {
    lr_mult: 2
  }
  inner_product_param {
    num_output: 256
    weight_filler {
      type: "gaussian"
      std: 0.1
    }
    bias_filler {
      type: "constant"
    }
  }
}
layer {
  name: "ip3"
  type: "InnerProduct"
  bottom: "ip2"
  top: "ip3"
  param {
    lr_mult: 1
  }
  param {
    lr_mult: 2
  }
  inner_product_param {
    num_output: 1
    weight_filler {
      type: "gaussian"
      std: 0.1
    }
    bias_filler {
      type: "constant"
    }
  }
}
layer {
  name: "loss"
  type: "HuberLoss"
  bottom: "ip3"
  bottom: "label"
  top: "loss"
  include {
    phase: TRAIN
  }
}
I0505 14:58:54.160960  7452 layer_factory.hpp:77] Creating layer parameters
I0505 14:58:54.160976  7452 net.cpp:94] Creating Layer parameters
I0505 14:58:54.160981  7452 net.cpp:409] parameters -> data
I0505 14:58:54.160990  7452 net.cpp:409] parameters -> label
I0505 14:58:54.160996  7452 hdf5_data_layer.cpp:79] Loading list of HDF5 filenames from: /home/purduethu/scratch/radon/d/deng106/CNNStatisticalModel/distributions/input/5_distributions_100_sample_size_train-parameters-path.txt
I0505 14:58:54.161011  7452 hdf5_data_layer.cpp:93] Number of HDF5 files: 1
I0505 14:58:54.161566  7452 hdf5.cpp:32] Datatype class: H5T_FLOAT
I0505 14:58:54.179913  7452 net.cpp:144] Setting up parameters
I0505 14:58:54.179944  7452 net.cpp:151] Top shape: 20 1 10 10 (2000)
I0505 14:58:54.179949  7452 net.cpp:151] Top shape: 20 (20)
I0505 14:58:54.179952  7452 net.cpp:159] Memory required for data: 8080
I0505 14:58:54.179960  7452 layer_factory.hpp:77] Creating layer conv1
I0505 14:58:54.179975  7452 net.cpp:94] Creating Layer conv1
I0505 14:58:54.179978  7452 net.cpp:435] conv1 <- data
I0505 14:58:54.179986  7452 net.cpp:409] conv1 -> conv1
I0505 14:58:54.184041  7452 net.cpp:144] Setting up conv1
I0505 14:58:54.184057  7452 net.cpp:151] Top shape: 20 64 10 10 (128000)
I0505 14:58:54.184062  7452 net.cpp:159] Memory required for data: 520080
I0505 14:58:54.184072  7452 layer_factory.hpp:77] Creating layer relu1
I0505 14:58:54.184080  7452 net.cpp:94] Creating Layer relu1
I0505 14:58:54.184083  7452 net.cpp:435] relu1 <- conv1
I0505 14:58:54.184088  7452 net.cpp:396] relu1 -> conv1 (in-place)
I0505 14:58:54.184095  7452 net.cpp:144] Setting up relu1
I0505 14:58:54.184100  7452 net.cpp:151] Top shape: 20 64 10 10 (128000)
I0505 14:58:54.184103  7452 net.cpp:159] Memory required for data: 1032080
I0505 14:58:54.184106  7452 layer_factory.hpp:77] Creating layer pool1
I0505 14:58:54.184111  7452 net.cpp:94] Creating Layer pool1
I0505 14:58:54.184114  7452 net.cpp:435] pool1 <- conv1
I0505 14:58:54.184118  7452 net.cpp:409] pool1 -> pool1
I0505 14:58:54.184172  7452 net.cpp:144] Setting up pool1
I0505 14:58:54.184178  7452 net.cpp:151] Top shape: 20 64 5 5 (32000)
I0505 14:58:54.184182  7452 net.cpp:159] Memory required for data: 1160080
I0505 14:58:54.184185  7452 layer_factory.hpp:77] Creating layer conv2
I0505 14:58:54.184195  7452 net.cpp:94] Creating Layer conv2
I0505 14:58:54.184198  7452 net.cpp:435] conv2 <- pool1
I0505 14:58:54.184202  7452 net.cpp:409] conv2 -> conv2
I0505 14:58:54.193212  7452 net.cpp:144] Setting up conv2
I0505 14:58:54.193228  7452 net.cpp:151] Top shape: 20 128 5 5 (64000)
I0505 14:58:54.193231  7452 net.cpp:159] Memory required for data: 1416080
I0505 14:58:54.193239  7452 layer_factory.hpp:77] Creating layer relu2
I0505 14:58:54.193246  7452 net.cpp:94] Creating Layer relu2
I0505 14:58:54.193249  7452 net.cpp:435] relu2 <- conv2
I0505 14:58:54.193254  7452 net.cpp:396] relu2 -> conv2 (in-place)
I0505 14:58:54.193261  7452 net.cpp:144] Setting up relu2
I0505 14:58:54.193265  7452 net.cpp:151] Top shape: 20 128 5 5 (64000)
I0505 14:58:54.193269  7452 net.cpp:159] Memory required for data: 1672080
I0505 14:58:54.193271  7452 layer_factory.hpp:77] Creating layer conv3
I0505 14:58:54.193279  7452 net.cpp:94] Creating Layer conv3
I0505 14:58:54.193282  7452 net.cpp:435] conv3 <- conv2
I0505 14:58:54.193287  7452 net.cpp:409] conv3 -> conv3
I0505 14:58:54.208465  7452 net.cpp:144] Setting up conv3
I0505 14:58:54.208482  7452 net.cpp:151] Top shape: 20 128 5 5 (64000)
I0505 14:58:54.208485  7452 net.cpp:159] Memory required for data: 1928080
I0505 14:58:54.208494  7452 layer_factory.hpp:77] Creating layer relu3
I0505 14:58:54.208500  7452 net.cpp:94] Creating Layer relu3
I0505 14:58:54.208509  7452 net.cpp:435] relu3 <- conv3
I0505 14:58:54.208515  7452 net.cpp:396] relu3 -> conv3 (in-place)
I0505 14:58:54.208521  7452 net.cpp:144] Setting up relu3
I0505 14:58:54.208526  7452 net.cpp:151] Top shape: 20 128 5 5 (64000)
I0505 14:58:54.208529  7452 net.cpp:159] Memory required for data: 2184080
I0505 14:58:54.208533  7452 layer_factory.hpp:77] Creating layer pool3
I0505 14:58:54.208539  7452 net.cpp:94] Creating Layer pool3
I0505 14:58:54.208541  7452 net.cpp:435] pool3 <- conv3
I0505 14:58:54.208545  7452 net.cpp:409] pool3 -> pool3
I0505 14:58:54.208591  7452 net.cpp:144] Setting up pool3
I0505 14:58:54.208600  7452 net.cpp:151] Top shape: 20 128 2 2 (10240)
I0505 14:58:54.208602  7452 net.cpp:159] Memory required for data: 2225040
I0505 14:58:54.208606  7452 layer_factory.hpp:77] Creating layer ip1
I0505 14:58:54.208616  7452 net.cpp:94] Creating Layer ip1
I0505 14:58:54.208618  7452 net.cpp:435] ip1 <- pool3
I0505 14:58:54.208623  7452 net.cpp:409] ip1 -> ip1
I0505 14:58:54.215778  7452 net.cpp:144] Setting up ip1
I0505 14:58:54.215793  7452 net.cpp:151] Top shape: 20 512 (10240)
I0505 14:58:54.215797  7452 net.cpp:159] Memory required for data: 2266000
I0505 14:58:54.215803  7452 layer_factory.hpp:77] Creating layer ip2
I0505 14:58:54.215811  7452 net.cpp:94] Creating Layer ip2
I0505 14:58:54.215816  7452 net.cpp:435] ip2 <- ip1
I0505 14:58:54.215821  7452 net.cpp:409] ip2 -> ip2
I0505 14:58:54.219843  7452 net.cpp:144] Setting up ip2
I0505 14:58:54.219858  7452 net.cpp:151] Top shape: 20 256 (5120)
I0505 14:58:54.219863  7452 net.cpp:159] Memory required for data: 2286480
I0505 14:58:54.219871  7452 layer_factory.hpp:77] Creating layer ip3
I0505 14:58:54.219877  7452 net.cpp:94] Creating Layer ip3
I0505 14:58:54.219882  7452 net.cpp:435] ip3 <- ip2
I0505 14:58:54.219887  7452 net.cpp:409] ip3 -> ip3
I0505 14:58:54.219988  7452 net.cpp:144] Setting up ip3
I0505 14:58:54.219995  7452 net.cpp:151] Top shape: 20 1 (20)
I0505 14:58:54.219998  7452 net.cpp:159] Memory required for data: 2286560
I0505 14:58:54.220003  7452 layer_factory.hpp:77] Creating layer loss
I0505 14:58:54.220015  7452 net.cpp:94] Creating Layer loss
I0505 14:58:54.220017  7452 net.cpp:435] loss <- ip3
I0505 14:58:54.220021  7452 net.cpp:435] loss <- label
I0505 14:58:54.220026  7452 net.cpp:409] loss -> loss
I0505 14:58:54.220077  7452 net.cpp:144] Setting up loss
…
I0505 14:58:54.258188  7452 net.cpp:323] The NetState phase (0) differed from the phase (1) specified by a rule in layer intercept
I0505 14:58:54.258201  7452 net.cpp:323] The NetState phase (0) differed from the phase (1) specified by a rule in layer accuracy
I0505 14:58:54.258270  7452 net.cpp:52] Initializing net from parameters: 
state {
  phase: TRAIN
}
layer {
  name: "parameters"
  type: "HDF5Data"
  top: "data"
  top: "label"
  include {
    phase: TRAIN
  }
  hdf5_data_param {
    source: "/home/purduethu/scratch/radon/d/deng106/CNNStatisticalModel/distributions/input/5_distributions_100_sample_size_train-distributions-path.txt"
    batch_size: 20
  }
}
layer {
  name: "conv1"
  type: "Convolution"
  bottom: "data"
  top: "conv1"
  param {
    lr_mult: 1
  }
  param {
    lr_mult: 2
  }
  convolution_param {
    num_output: 64
    pad: 2
    kernel_size: 5
    stride: 1
    weight_filler {
      type: "gaussian"
      std: 0.0001
    }
    bias_filler {
      type: "constant"
    }
  }
}
layer {
  name: "relu1"
  type: "ReLU"
  bottom: "conv1"
  top: "conv1"
}
layer {
  name: "pool1"
  type: "Pooling"
  bottom: "conv1"
  top: "pool1"
  pooling_param {
    pool: MAX
    kernel_size: 3
    stride: 2
  }
}
layer {
  name: "conv2"
  type: "Convolution"
  bottom: "pool1"
  top: "conv2"
  param {
    lr_mult: 1
  }
  param {
    lr_mult: 2
  }
  convolution_param {
    num_output: 128
    pad: 2
    kernel_size: 5
    stride: 1
    weight_filler {
      type: "gaussian"
      std: 0.01
    }
    bias_filler {
      type: "constant"
    }
  }
}
layer {
  name: "relu2"
  type: "ReLU"
  bottom: "conv2"
  top: "conv2"
}
layer {
  name: "conv3"
  type: "Convolution"
  bottom: "conv2"
  top: "conv3"
  param {
    lr_mult: 1
  }
  param {
    lr_mult: 2
  }
  convolution_param {
    num_output: 128
    pad: 2
    kernel_size: 5
    stride: 1
    weight_filler {
      type: "gaussian"
      std: 0.01
    }
    bias_filler {
      type: "constant"
    }
  }
}
layer {
  name: "relu3"
  type: "ReLU"
  bottom: "conv3"
  top: "conv3"
}
layer {
  name: "pool3"
  type: "Pooling"
  bottom: "conv3"
  top: "pool3"
  pooling_param {
    pool: AVE
    kernel_size: 3
    stride: 2
  }
}
layer {
  name: "ip1"
  type: "InnerProduct"
  bottom: "pool3"
  top: "ip1"
  param {
    lr_mult: 1
  }
  param {
    lr_mult: 2
  }
  inner_product_param {
    num_output: 512
    weight_filler {
      type: "gaussian"
      std: 0.1
    }
    bias_filler {
      type: "constant"
    }
  }
}
layer {
  name: "ip2"
  type: "InnerProduct"
  bottom: "ip1"
  top: "ip2"
  param {
    lr_mult: 1
  }
  param {
    lr_mult: 2
  }
  inner_product_param {
    num_output: 256
    weight_filler {
      type: "gaussian"
      std: 0.1
    }
    bias_filler {
      type: "constant"
    }
  }
}
layer {
  name: "ip3"
  type: "InnerProduct"
  bottom: "ip2"
  top: "ip3"
  param {
    lr_mult: 1
  }
  param {
    lr_mult: 2
  }
  inner_product_param {
    num_output: 50
    weight_filler {
      type: "gaussian"
      std: 0.1
    }
    bias_filler {
      type: "constant"
    }
  }
}
layer {
  name: "loss"
  type: "SoftmaxWithLoss"
  bottom: "ip3"
  bottom: "label"
  top: "loss"
}
I0505 14:58:54.258312  7452 layer_factory.hpp:77] Creating layer parameters
I0505 14:58:54.258319  7452 net.cpp:94] Creating Layer parameters
I0505 14:58:54.258323  7452 net.cpp:409] parameters -> data
I0505 14:58:54.258330  7452 net.cpp:409] parameters -> label
I0505 14:58:54.258337  7452 hdf5_data_layer.cpp:79] Loading list of HDF5 filenames from: /home/purduethu/scratch/radon/d/deng106/CNNStatisticalModel/distributions/input/5_distributions_100_sample_size_train-distributions-path.txt
I0505 14:58:54.258352  7452 hdf5_data_layer.cpp:93] Number of HDF5 files: 1
I0505 14:58:54.274467  7452 hdf5.cpp:35] Datatype class: H5T_INTEGER
I0505 14:58:54.274889  7452 net.cpp:144] Setting up parameters
I0505 14:58:54.274906  7452 net.cpp:151] Top shape: 20 1 10 10 (2000)
I0505 14:58:54.274911  7452 net.cpp:151] Top shape: 20 (20)
I0505 14:58:54.274914  7452 net.cpp:159] Memory required for data: 8080
I0505 14:58:54.274921  7452 layer_factory.hpp:77] Creating layer conv1
I0505 14:58:54.274937  7452 net.cpp:94] Creating Layer conv1
I0505 14:58:54.274941  7452 net.cpp:435] conv1 <- data
I0505 14:58:54.274948  7452 net.cpp:409] conv1 -> conv1
I0505 14:58:54.276640  7452 net.cpp:144] Setting up conv1
I0505 14:58:54.276654  7452 net.cpp:151] Top shape: 20 64 10 10 (128000)
I0505 14:58:54.276659  7452 net.cpp:159] Memory required for data: 520080
I0505 14:58:54.276667  7452 layer_factory.hpp:77] Creating layer relu1
I0505 14:58:54.276675  7452 net.cpp:94] Creating Layer relu1
I0505 14:58:54.276679  7452 net.cpp:435] relu1 <- conv1
I0505 14:58:54.276682  7452 net.cpp:396] relu1 -> conv1 (in-place)
I0505 14:58:54.276690  7452 net.cpp:144] Setting up relu1
I0505 14:58:54.276693  7452 net.cpp:151] Top shape: 20 64 10 10 (128000)
I0505 14:58:54.276696  7452 net.cpp:159] Memory required for data: 1032080
I0505 14:58:54.276700  7452 layer_factory.hpp:77] Creating layer pool1
I0505 14:58:54.276705  7452 net.cpp:94] Creating Layer pool1
I0505 14:58:54.276708  7452 net.cpp:435] pool1 <- conv1
I0505 14:58:54.276712  7452 net.cpp:409] pool1 -> pool1
I0505 14:58:54.276770  7452 net.cpp:144] Setting up pool1
I0505 14:58:54.276777  7452 net.cpp:151] Top shape: 20 64 5 5 (32000)
I0505 14:58:54.276780  7452 net.cpp:159] Memory required for data: 1160080
I0505 14:58:54.276783  7452 layer_factory.hpp:77] Creating layer conv2
I0505 14:58:54.276793  7452 net.cpp:94] Creating Layer conv2
I0505 14:58:54.276795  7452 net.cpp:435] conv2 <- pool1
I0505 14:58:54.276800  7452 net.cpp:409] conv2 -> conv2
I0505 14:58:54.285966  7452 net.cpp:144] Setting up conv2
I0505 14:58:54.285980  7452 net.cpp:151] Top shape: 20 128 5 5 (64000)
I0505 14:58:54.285984  7452 net.cpp:159] Memory required for data: 1416080
I0505 14:58:54.285993  7452 layer_factory.hpp:77] Creating layer relu2
I0505 14:58:54.286000  7452 net.cpp:94] Creating Layer relu2
I0505 14:58:54.286003  7452 net.cpp:435] relu2 <- conv2
I0505 14:58:54.286008  7452 net.cpp:396] relu2 -> conv2 (in-place)
I0505 14:58:54.286015  7452 net.cpp:144] Setting up relu2
I0505 14:58:54.286020  7452 net.cpp:151] Top shape: 20 128 5 5 (64000)
I0505 14:58:54.286022  7452 net.cpp:159] Memory required for data: 1672080
I0505 14:58:54.286026  7452 layer_factory.hpp:77] Creating layer conv3
I0505 14:58:54.286032  7452 net.cpp:94] Creating Layer conv3
I0505 14:58:54.286036  7452 net.cpp:435] conv3 <- conv2
I0505 14:58:54.286041  7452 net.cpp:409] conv3 -> conv3
I0505 14:58:54.300557  7452 net.cpp:144] Setting up conv3
I0505 14:58:54.300572  7452 net.cpp:151] Top shape: 20 128 5 5 (64000)
I0505 14:58:54.300576  7452 net.cpp:159] Memory required for data: 1928080
I0505 14:58:54.300585  7452 layer_factory.hpp:77] Creating layer relu3
I0505 14:58:54.300591  7452 net.cpp:94] Creating Layer relu3
I0505 14:58:54.300595  7452 net.cpp:435] relu3 <- conv3
I0505 14:58:54.300601  7452 net.cpp:396] relu3 -> conv3 (in-place)
I0505 14:58:54.300606  7452 net.cpp:144] Setting up relu3
I0505 14:58:54.300611  7452 net.cpp:151] Top shape: 20 128 5 5 (64000)
I0505 14:58:54.300613  7452 net.cpp:159] Memory required for data: 2184080
I0505 14:58:54.300616  7452 layer_factory.hpp:77] Creating layer pool3
I0505 14:58:54.300622  7452 net.cpp:94] Creating Layer pool3
I0505 14:58:54.300626  7452 net.cpp:435] pool3 <- conv3
I0505 14:58:54.300629  7452 net.cpp:409] pool3 -> pool3
I0505 14:58:54.300664  7452 net.cpp:144] Setting up pool3
I0505 14:58:54.300671  7452 net.cpp:151] Top shape: 20 128 2 2 (10240)
I0505 14:58:54.300673  7452 net.cpp:159] Memory required for data: 2225040
I0505 14:58:54.300676  7452 layer_factory.hpp:77] Creating layer ip1
I0505 14:58:54.300684  7452 net.cpp:94] Creating Layer ip1
I0505 14:58:54.300688  7452 net.cpp:435] ip1 <- pool3
I0505 14:58:54.300691  7452 net.cpp:409] ip1 -> ip1
I0505 14:58:54.306882  7452 net.cpp:144] Setting up ip1
I0505 14:58:54.306891  7452 net.cpp:151] Top shape: 20 512 (10240)
I0505 14:58:54.306895  7452 net.cpp:159] Memory required for data: 2266000
I0505 14:58:54.306900  7452 layer_factory.hpp:77] Creating layer ip2
I0505 14:58:54.306906  7452 net.cpp:94] Creating Layer ip2
I0505 14:58:54.306910  7452 net.cpp:435] ip2 <- ip1
I0505 14:58:54.306913  7452 net.cpp:409] ip2 -> ip2
I0505 14:58:54.310077  7452 net.cpp:144] Setting up ip2
I0505 14:58:54.310086  7452 net.cpp:151] Top shape: 20 256 (5120)
I0505 14:58:54.310088  7452 net.cpp:159] Memory required for data: 2286480
I0505 14:58:54.310096  7452 layer_factory.hpp:77] Creating layer ip3
I0505 14:58:54.310101  7452 net.cpp:94] Creating Layer ip3
I0505 14:58:54.310104  7452 net.cpp:435] ip3 <- ip2
I0505 14:58:54.310108  7452 net.cpp:409] ip3 -> ip3
I0505 14:58:54.310526  7452 net.cpp:144] Setting up ip3
I0505 14:58:54.310533  7452 net.cpp:151] Top shape: 20 50 (1000)
I0505 14:58:54.310535  7452 net.cpp:159] Memory required for data: 2290480
I0505 14:58:54.310540  7452 layer_factory.hpp:77] Creating layer loss
I0505 14:58:54.310545  7452 net.cpp:94] Creating Layer loss
I0505 14:58:54.310549  7452 net.cpp:435] loss <- ip3
I0505 14:58:54.310551  7452 net.cpp:435] loss <- label
I0505 14:58:54.310555  7452 net.cpp:409] loss -> loss
I0505 14:58:54.310562  7452 layer_factory.hpp:77] Creating layer loss
…
I0505 14:58:54.310995  7452 solver.cpp:181] Creating test net (#0) specified by net file: ./protocol/dis_5_100_dimension.protocol_distribution
I0505 14:58:54.311018  7452 net.cpp:323] The NetState phase (1) differed from the phase (0) specified by a rule in layer parameters
I0505 14:58:54.311096  7452 net.cpp:52] Initializing net from parameters: 
state {
  phase: TEST
}
layer {
  name: "intercept"
  type: "HDF5Data"
  top: "data"
  top: "label"
  include {
    phase: TEST
  }
  hdf5_data_param {
    source: "/home/purduethu/scratch/radon/d/deng106/CNNStatisticalModel/distributions/input/5_distributions_100_sample_size_test-distributions-path.txt"
    batch_size: 20
  }
}
layer {
  name: "conv1"
  type: "Convolution"
  bottom: "data"
  top: "conv1"
  param {
    lr_mult: 1
  }
  param {
    lr_mult: 2
  }
  convolution_param {
    num_output: 64
    pad: 2
    kernel_size: 5
    stride: 1
    weight_filler {
      type: "gaussian"
      std: 0.0001
    }
    bias_filler {
      type: "constant"
    }
  }
}
layer {
  name: "relu1"
  type: "ReLU"
  bottom: "conv1"
  top: "conv1"
}
layer {
  name: "pool1"
  type: "Pooling"
  bottom: "conv1"
  top: "pool1"
  pooling_param {
    pool: MAX
    kernel_size: 3
    stride: 2
  }
}
layer {
  name: "conv2"
  type: "Convolution"
  bottom: "pool1"
  top: "conv2"
  param {
    lr_mult: 1
  }
  param {
    lr_mult: 2
  }
  convolution_param {
    num_output: 128
    pad: 2
    kernel_size: 5
    stride: 1
    weight_filler {
      type: "gaussian"
      std: 0.01
    }
    bias_filler {
      type: "constant"
    }
  }
}
layer {
  name: "relu2"
  type: "ReLU"
  bottom: "conv2"
  top: "conv2"
}
layer {
  name: "conv3"
  type: "Convolution"
  bottom: "conv2"
  top: "conv3"
  param {
    lr_mult: 1
  }
  param {
    lr_mult: 2
  }
  convolution_param {
    num_output: 128
    pad: 2
    kernel_size: 5
    stride: 1
    weight_filler {
      type: "gaussian"
      std: 0.01
    }
    bias_filler {
      type: "constant"
    }
  }
}
layer {
  name: "relu3"
  type: "ReLU"
  bottom: "conv3"
  top: "conv3"
}
layer {
  name: "pool3"
  type: "Pooling"
  bottom: "conv3"
  top: "pool3"
  pooling_param {
    pool: AVE
    kernel_size: 3
    stride: 2
  }
}
layer {
  name: "ip1"
  type: "InnerProduct"
  bottom: "pool3"
  top: "ip1"
  param {
    lr_mult: 1
  }
  param {
    lr_mult: 2
  }
  inner_product_param {
    num_output: 512
    weight_filler {
      type: "gaussian"
      std: 0.1
    }
    bias_filler {
      type: "constant"
    }
  }
}
layer {
  name: "ip2"
  type: "InnerProduct"
  bottom: "ip1"
  top: "ip2"
  param {
    lr_mult: 1
  }
  param {
    lr_mult: 2
  }
  inner_product_param {
    num_output: 256
    weight_filler {
      type: "gaussian"
      std: 0.1
    }
    bias_filler {
      type: "constant"
    }
  }
}
layer {
  name: "ip3"
  type: "InnerProduct"
  bottom: "ip2"
  top: "ip3"
  param {
    lr_mult: 1
  }
  param {
    lr_mult: 2
  }
  inner_product_param {
    num_output: 50
    weight_filler {
      type: "gaussian"
      std: 0.1
    }
    bias_filler {
      type: "constant"
    }
  }
}
layer {
  name: "accuracy"
  type: "Accuracy"
  bottom: "ip3"
  bottom: "label"
  top: "accuracy"
  include {
    phase: TEST
  }
}
layer {
  name: "loss"
  type: "SoftmaxWithLoss"
  bottom: "ip3"
  bottom: "label"
  top: "loss"
}
I0505 14:58:54.311152  7452 layer_factory.hpp:77] Creating layer intercept
I0505 14:58:54.311159  7452 net.cpp:94] Creating Layer intercept
I0505 14:58:54.311163  7452 net.cpp:409] intercept -> data
I0505 14:58:54.311170  7452 net.cpp:409] intercept -> label
I0505 14:58:54.311175  7452 hdf5_data_layer.cpp:79] Loading list of HDF5 filenames from: /home/purduethu/scratch/radon/d/deng106/CNNStatisticalModel/distributions/input/5_distributions_100_sample_size_test-distributions-path.txt
I0505 14:58:54.311194  7452 hdf5_data_layer.cpp:93] Number of HDF5 files: 1
I0505 14:58:54.315731  7452 net.cpp:144] Setting up intercept
I0505 14:58:54.315763  7452 net.cpp:151] Top shape: 20 1 10 10 (2000)
I0505 14:58:54.315768  7452 net.cpp:151] Top shape: 20 (20)
I0505 14:58:54.315771  7452 net.cpp:159] Memory required for data: 8080
I0505 14:58:54.315776  7452 layer_factory.hpp:77] Creating layer label_intercept_1_split
I0505 14:58:54.315793  7452 net.cpp:94] Creating Layer label_intercept_1_split
I0505 14:58:54.315798  7452 net.cpp:435] label_intercept_1_split <- label
I0505 14:58:54.315803  7452 net.cpp:409] label_intercept_1_split -> label_intercept_1_split_0
I0505 14:58:54.315810  7452 net.cpp:409] label_intercept_1_split -> label_intercept_1_split_1
I0505 14:58:54.315848  7452 net.cpp:144] Setting up label_intercept_1_split
I0505 14:58:54.315855  7452 net.cpp:151] Top shape: 20 (20)
I0505 14:58:54.315857  7452 net.cpp:151] Top shape: 20 (20)
I0505 14:58:54.315860  7452 net.cpp:159] Memory required for data: 8240
I0505 14:58:54.315863  7452 layer_factory.hpp:77] Creating layer conv1
I0505 14:58:54.315873  7452 net.cpp:94] Creating Layer conv1
I0505 14:58:54.315877  7452 net.cpp:435] conv1 <- data
I0505 14:58:54.315881  7452 net.cpp:409] conv1 -> conv1
I0505 14:58:54.316673  7452 net.cpp:144] Setting up conv1
I0505 14:58:54.316685  7452 net.cpp:151] Top shape: 20 64 10 10 (128000)
I0505 14:58:54.316689  7452 net.cpp:159] Memory required for data: 520240
I0505 14:58:54.316699  7452 layer_factory.hpp:77] Creating layer relu1
I0505 14:58:54.316705  7452 net.cpp:94] Creating Layer relu1
I0505 14:58:54.316709  7452 net.cpp:435] relu1 <- conv1
I0505 14:58:54.316712  7452 net.cpp:396] relu1 -> conv1 (in-place)
I0505 14:58:54.316720  7452 net.cpp:144] Setting up relu1
I0505 14:58:54.316723  7452 net.cpp:151] Top shape: 20 64 10 10 (128000)
I0505 14:58:54.316726  7452 net.cpp:159] Memory required for data: 1032240
I0505 14:58:54.316730  7452 layer_factory.hpp:77] Creating layer pool1
I0505 14:58:54.316735  7452 net.cpp:94] Creating Layer pool1
I0505 14:58:54.316738  7452 net.cpp:435] pool1 <- conv1
I0505 14:58:54.316742  7452 net.cpp:409] pool1 -> pool1
I0505 14:58:54.316793  7452 net.cpp:144] Setting up pool1
I0505 14:58:54.316800  7452 net.cpp:151] Top shape: 20 64 5 5 (32000)
I0505 14:58:54.316803  7452 net.cpp:159] Memory required for data: 1160240
I0505 14:58:54.316807  7452 layer_factory.hpp:77] Creating layer conv2
I0505 14:58:54.316814  7452 net.cpp:94] Creating Layer conv2
I0505 14:58:54.316818  7452 net.cpp:435] conv2 <- pool1
I0505 14:58:54.316823  7452 net.cpp:409] conv2 -> conv2
I0505 14:58:54.324318  7452 net.cpp:144] Setting up conv2
I0505 14:58:54.324333  7452 net.cpp:151] Top shape: 20 128 5 5 (64000)
I0505 14:58:54.324337  7452 net.cpp:159] Memory required for data: 1416240
I0505 14:58:54.324345  7452 layer_factory.hpp:77] Creating layer relu2
I0505 14:58:54.324352  7452 net.cpp:94] Creating Layer relu2
I0505 14:58:54.324362  7452 net.cpp:435] relu2 <- conv2
I0505 14:58:54.324367  7452 net.cpp:396] relu2 -> conv2 (in-place)
I0505 14:58:54.324373  7452 net.cpp:144] Setting up relu2
I0505 14:58:54.324378  7452 net.cpp:151] Top shape: 20 128 5 5 (64000)
I0505 14:58:54.324380  7452 net.cpp:159] Memory required for data: 1672240
I0505 14:58:54.324383  7452 layer_factory.hpp:77] Creating layer conv3
I0505 14:58:54.324391  7452 net.cpp:94] Creating Layer conv3
I0505 14:58:54.324394  7452 net.cpp:435] conv3 <- conv2
I0505 14:58:54.324399  7452 net.cpp:409] conv3 -> conv3
I0505 14:58:54.336841  7452 net.cpp:144] Setting up conv3
I0505 14:58:54.336856  7452 net.cpp:151] Top shape: 20 128 5 5 (64000)
I0505 14:58:54.336860  7452 net.cpp:159] Memory required for data: 1928240
I0505 14:58:54.336869  7452 layer_factory.hpp:77] Creating layer relu3
I0505 14:58:54.336876  7452 net.cpp:94] Creating Layer relu3
I0505 14:58:54.336880  7452 net.cpp:435] relu3 <- conv3
I0505 14:58:54.336884  7452 net.cpp:396] relu3 -> conv3 (in-place)
I0505 14:58:54.336891  7452 net.cpp:144] Setting up relu3
I0505 14:58:54.336895  7452 net.cpp:151] Top shape: 20 128 5 5 (64000)
I0505 14:58:54.336899  7452 net.cpp:159] Memory required for data: 2184240
I0505 14:58:54.336901  7452 layer_factory.hpp:77] Creating layer pool3
I0505 14:58:54.336906  7452 net.cpp:94] Creating Layer pool3
I0505 14:58:54.336910  7452 net.cpp:435] pool3 <- conv3
I0505 14:58:54.336913  7452 net.cpp:409] pool3 -> pool3
I0505 14:58:54.336951  7452 net.cpp:144] Setting up pool3
I0505 14:58:54.336957  7452 net.cpp:151] Top shape: 20 128 2 2 (10240)
I0505 14:58:54.336961  7452 net.cpp:159] Memory required for data: 2225200
I0505 14:58:54.336963  7452 layer_factory.hpp:77] Creating layer ip1
I0505 14:58:54.336971  7452 net.cpp:94] Creating Layer ip1
I0505 14:58:54.336973  7452 net.cpp:435] ip1 <- pool3
I0505 14:58:54.336977  7452 net.cpp:409] ip1 -> ip1
I0505 14:58:54.343189  7452 net.cpp:144] Setting up ip1
I0505 14:58:54.343199  7452 net.cpp:151] Top shape: 20 512 (10240)
I0505 14:58:54.343201  7452 net.cpp:159] Memory required for data: 2266160
I0505 14:58:54.343206  7452 layer_factory.hpp:77] Creating layer ip2
I0505 14:58:54.343212  7452 net.cpp:94] Creating Layer ip2
I0505 14:58:54.343216  7452 net.cpp:435] ip2 <- ip1
I0505 14:58:54.343220  7452 net.cpp:409] ip2 -> ip2
I0505 14:58:54.346396  7452 net.cpp:144] Setting up ip2
I0505 14:58:54.346405  7452 net.cpp:151] Top shape: 20 256 (5120)
I0505 14:58:54.346407  7452 net.cpp:159] Memory required for data: 2286640
I0505 14:58:54.346415  7452 layer_factory.hpp:77] Creating layer ip3
I0505 14:58:54.346421  7452 net.cpp:94] Creating Layer ip3
I0505 14:58:54.346423  7452 net.cpp:435] ip3 <- ip2
I0505 14:58:54.346428  7452 net.cpp:409] ip3 -> ip3
I0505 14:58:54.346846  7452 net.cpp:144] Setting up ip3
I0505 14:58:54.346853  7452 net.cpp:151] Top shape: 20 50 (1000)
I0505 14:58:54.346856  7452 net.cpp:159] Memory required for data: 2290640
I0505 14:58:54.346861  7452 layer_factory.hpp:77] Creating layer ip3_ip3_0_split
I0505 14:58:54.346868  7452 net.cpp:94] Creating Layer ip3_ip3_0_split
I0505 14:58:54.346870  7452 net.cpp:435] ip3_ip3_0_split <- ip3
I0505 14:58:54.346874  7452 net.cpp:409] ip3_ip3_0_split -> ip3_ip3_0_split_0
I0505 14:58:54.346879  7452 net.cpp:409] ip3_ip3_0_split -> ip3_ip3_0_split_1
I0505 14:58:54.346915  7452 net.cpp:144] Setting up ip3_ip3_0_split
I0505 14:58:54.346921  7452 net.cpp:151] Top shape: 20 50 (1000)
I0505 14:58:54.346925  7452 net.cpp:151] Top shape: 20 50 (1000)
I0505 14:58:54.346927  7452 net.cpp:159] Memory required for data: 2298640
I0505 14:58:54.346930  7452 layer_factory.hpp:77] Creating layer accuracy
I0505 14:58:54.346936  7452 net.cpp:94] Creating Layer accuracy
I0505 14:58:54.346940  7452 net.cpp:435] accuracy <- ip3_ip3_0_split_0
I0505 14:58:54.346942  7452 net.cpp:435] accuracy <- label_intercept_1_split_0
I0505 14:58:54.346946  7452 net.cpp:409] accuracy -> accuracy
…
