…
I0505 10:59:59.199308  6453 net.cpp:323] The NetState phase (0) differed from the phase (1) specified by a rule in layer intercept
I0505 10:59:59.199322  6453 net.cpp:323] The NetState phase (0) differed from the phase (1) specified by a rule in layer loss
I0505 10:59:59.199396  6453 net.cpp:52] Initializing net from parameters: 
state {
  phase: TRAIN
}
layer {
  name: "parameters"
  type: "HDF5Data"
  top: "data"
  top: "label"
  include {
    phase: TRAIN
  }
  hdf5_data_param {
    source: "/home/purduethu/scratch/radon/d/deng106/CNNStatisticalModel/distributions/input/50_distributions_400_sample_size_train-parameters-path.txt"
    batch_size: 20
  }
}
layer {
  name: "conv1"
  type: "Convolution"
  bottom: "data"
  top: "conv1"
  param {
    lr_mult: 1
  }
  param {
    lr_mult: 2
  }
  convolution_param {
    num_output: 64
    pad: 2
    kernel_size: 5
    stride: 1
    weight_filler {
      type: "gaussian"
      std: 0.0001
    }
    bias_filler {
      type: "constant"
    }
  }
}
layer {
  name: "relu1"
  type: "ReLU"
  bottom: "conv1"
  top: "conv1"
}
layer {
  name: "pool1"
  type: "Pooling"
  bottom: "conv1"
  top: "pool1"
  pooling_param {
    pool: MAX
    kernel_size: 3
    stride: 2
  }
}
layer {
  name: "conv2"
  type: "Convolution"
  bottom: "pool1"
  top: "conv2"
  param {
    lr_mult: 1
  }
  param {
    lr_mult: 2
  }
  convolution_param {
    num_output: 128
    pad: 2
    kernel_size: 5
    stride: 1
    weight_filler {
      type: "gaussian"
      std: 0.01
    }
    bias_filler {
      type: "constant"
    }
  }
}
layer {
  name: "relu2"
  type: "ReLU"
  bottom: "conv2"
  top: "conv2"
}
layer {
  name: "conv3"
  type: "Convolution"
  bottom: "conv2"
  top: "conv3"
  param {
    lr_mult: 1
  }
  param {
    lr_mult: 2
  }
  convolution_param {
    num_output: 128
    pad: 2
    kernel_size: 5
    stride: 1
    weight_filler {
      type: "gaussian"
      std: 0.01
    }
    bias_filler {
      type: "constant"
    }
  }
}
layer {
  name: "relu3"
  type: "ReLU"
  bottom: "conv3"
  top: "conv3"
}
layer {
  name: "pool3"
  type: "Pooling"
  bottom: "conv3"
  top: "pool3"
  pooling_param {
    pool: AVE
    kernel_size: 3
    stride: 2
  }
}
layer {
  name: "ip1"
  type: "InnerProduct"
  bottom: "pool3"
  top: "ip1"
  param {
    lr_mult: 1
  }
  param {
    lr_mult: 2
  }
  inner_product_param {
    num_output: 512
    weight_filler {
      type: "gaussian"
      std: 0.1
    }
    bias_filler {
      type: "constant"
    }
  }
}
layer {
  name: "ip2"
  type: "InnerProduct"
  bottom: "ip1"
  top: "ip2"
  param {
    lr_mult: 1
  }
  param {
    lr_mult: 2
  }
  inner_product_param {
    num_output: 256
    weight_filler {
      type: "gaussian"
      std: 0.1
    }
    bias_filler {
      type: "constant"
    }
  }
}
layer {
  name: "ip3"
  type: "InnerProduct"
  bottom: "ip2"
  top: "ip3"
  param {
    lr_mult: 1
  }
  param {
    lr_mult: 2
  }
  inner_product_param {
    num_output: 1
    weight_filler {
      type: "gaussian"
      std: 0.1
    }
    bias_filler {
      type: "constant"
    }
  }
}
layer {
  name: "loss"
  type: "HuberLoss"
  bottom: "ip3"
  bottom: "label"
  top: "loss"
  include {
    phase: TRAIN
  }
}
I0505 10:59:59.199445  6453 layer_factory.hpp:77] Creating layer parameters
I0505 10:59:59.199460  6453 net.cpp:94] Creating Layer parameters
I0505 10:59:59.199465  6453 net.cpp:409] parameters -> data
I0505 10:59:59.199478  6453 net.cpp:409] parameters -> label
I0505 10:59:59.199486  6453 hdf5_data_layer.cpp:79] Loading list of HDF5 filenames from: /home/purduethu/scratch/radon/d/deng106/CNNStatisticalModel/distributions/input/50_distributions_400_sample_size_train-parameters-path.txt
I0505 10:59:59.199501  6453 hdf5_data_layer.cpp:93] Number of HDF5 files: 1
I0505 10:59:59.200083  6453 hdf5.cpp:32] Datatype class: H5T_FLOAT
I0505 10:59:59.864881  6453 net.cpp:144] Setting up parameters
I0505 10:59:59.864913  6453 net.cpp:151] Top shape: 20 1 20 20 (8000)
I0505 10:59:59.864918  6453 net.cpp:151] Top shape: 20 (20)
I0505 10:59:59.864922  6453 net.cpp:159] Memory required for data: 32080
I0505 10:59:59.864928  6453 layer_factory.hpp:77] Creating layer conv1
I0505 10:59:59.864943  6453 net.cpp:94] Creating Layer conv1
I0505 10:59:59.864948  6453 net.cpp:435] conv1 <- data
I0505 10:59:59.864954  6453 net.cpp:409] conv1 -> conv1
I0505 10:59:59.870503  6453 net.cpp:144] Setting up conv1
I0505 10:59:59.870525  6453 net.cpp:151] Top shape: 20 64 20 20 (512000)
I0505 10:59:59.870529  6453 net.cpp:159] Memory required for data: 2080080
I0505 10:59:59.870540  6453 layer_factory.hpp:77] Creating layer relu1
I0505 10:59:59.870550  6453 net.cpp:94] Creating Layer relu1
I0505 10:59:59.870554  6453 net.cpp:435] relu1 <- conv1
I0505 10:59:59.870559  6453 net.cpp:396] relu1 -> conv1 (in-place)
I0505 10:59:59.870568  6453 net.cpp:144] Setting up relu1
I0505 10:59:59.870573  6453 net.cpp:151] Top shape: 20 64 20 20 (512000)
I0505 10:59:59.870575  6453 net.cpp:159] Memory required for data: 4128080
I0505 10:59:59.870579  6453 layer_factory.hpp:77] Creating layer pool1
I0505 10:59:59.870584  6453 net.cpp:94] Creating Layer pool1
I0505 10:59:59.870587  6453 net.cpp:435] pool1 <- conv1
I0505 10:59:59.870591  6453 net.cpp:409] pool1 -> pool1
I0505 10:59:59.870641  6453 net.cpp:144] Setting up pool1
I0505 10:59:59.870648  6453 net.cpp:151] Top shape: 20 64 10 10 (128000)
I0505 10:59:59.870651  6453 net.cpp:159] Memory required for data: 4640080
I0505 10:59:59.870654  6453 layer_factory.hpp:77] Creating layer conv2
I0505 10:59:59.870663  6453 net.cpp:94] Creating Layer conv2
I0505 10:59:59.870667  6453 net.cpp:435] conv2 <- pool1
I0505 10:59:59.870672  6453 net.cpp:409] conv2 -> conv2
I0505 10:59:59.881625  6453 net.cpp:144] Setting up conv2
I0505 10:59:59.881642  6453 net.cpp:151] Top shape: 20 128 10 10 (256000)
I0505 10:59:59.881646  6453 net.cpp:159] Memory required for data: 5664080
I0505 10:59:59.881654  6453 layer_factory.hpp:77] Creating layer relu2
I0505 10:59:59.881661  6453 net.cpp:94] Creating Layer relu2
I0505 10:59:59.881665  6453 net.cpp:435] relu2 <- conv2
I0505 10:59:59.881670  6453 net.cpp:396] relu2 -> conv2 (in-place)
I0505 10:59:59.881677  6453 net.cpp:144] Setting up relu2
I0505 10:59:59.881681  6453 net.cpp:151] Top shape: 20 128 10 10 (256000)
I0505 10:59:59.881685  6453 net.cpp:159] Memory required for data: 6688080
I0505 10:59:59.881687  6453 layer_factory.hpp:77] Creating layer conv3
I0505 10:59:59.881695  6453 net.cpp:94] Creating Layer conv3
I0505 10:59:59.881698  6453 net.cpp:435] conv3 <- conv2
I0505 10:59:59.881703  6453 net.cpp:409] conv3 -> conv3
I0505 10:59:59.900164  6453 net.cpp:144] Setting up conv3
I0505 10:59:59.900182  6453 net.cpp:151] Top shape: 20 128 10 10 (256000)
I0505 10:59:59.900185  6453 net.cpp:159] Memory required for data: 7712080
I0505 10:59:59.900195  6453 layer_factory.hpp:77] Creating layer relu3
I0505 10:59:59.900207  6453 net.cpp:94] Creating Layer relu3
I0505 10:59:59.900212  6453 net.cpp:435] relu3 <- conv3
I0505 10:59:59.900216  6453 net.cpp:396] relu3 -> conv3 (in-place)
I0505 10:59:59.900224  6453 net.cpp:144] Setting up relu3
I0505 10:59:59.900228  6453 net.cpp:151] Top shape: 20 128 10 10 (256000)
I0505 10:59:59.900231  6453 net.cpp:159] Memory required for data: 8736080
I0505 10:59:59.900234  6453 layer_factory.hpp:77] Creating layer pool3
I0505 10:59:59.900241  6453 net.cpp:94] Creating Layer pool3
I0505 10:59:59.900244  6453 net.cpp:435] pool3 <- conv3
I0505 10:59:59.900249  6453 net.cpp:409] pool3 -> pool3
I0505 10:59:59.900290  6453 net.cpp:144] Setting up pool3
I0505 10:59:59.900296  6453 net.cpp:151] Top shape: 20 128 5 5 (64000)
I0505 10:59:59.900300  6453 net.cpp:159] Memory required for data: 8992080
I0505 10:59:59.900303  6453 layer_factory.hpp:77] Creating layer ip1
I0505 10:59:59.900312  6453 net.cpp:94] Creating Layer ip1
I0505 10:59:59.900316  6453 net.cpp:435] ip1 <- pool3
I0505 10:59:59.900321  6453 net.cpp:409] ip1 -> ip1
I0505 10:59:59.940385  6453 net.cpp:144] Setting up ip1
I0505 10:59:59.940410  6453 net.cpp:151] Top shape: 20 512 (10240)
I0505 10:59:59.940414  6453 net.cpp:159] Memory required for data: 9033040
I0505 10:59:59.940423  6453 layer_factory.hpp:77] Creating layer ip2
I0505 10:59:59.940430  6453 net.cpp:94] Creating Layer ip2
I0505 10:59:59.940434  6453 net.cpp:435] ip2 <- ip1
I0505 10:59:59.940440  6453 net.cpp:409] ip2 -> ip2
I0505 10:59:59.943614  6453 net.cpp:144] Setting up ip2
I0505 10:59:59.943626  6453 net.cpp:151] Top shape: 20 256 (5120)
I0505 10:59:59.943629  6453 net.cpp:159] Memory required for data: 9053520
I0505 10:59:59.943637  6453 layer_factory.hpp:77] Creating layer ip3
I0505 10:59:59.943644  6453 net.cpp:94] Creating Layer ip3
I0505 10:59:59.943646  6453 net.cpp:435] ip3 <- ip2
I0505 10:59:59.943651  6453 net.cpp:409] ip3 -> ip3
I0505 10:59:59.943752  6453 net.cpp:144] Setting up ip3
I0505 10:59:59.943758  6453 net.cpp:151] Top shape: 20 1 (20)
I0505 10:59:59.943761  6453 net.cpp:159] Memory required for data: 9053600
I0505 10:59:59.943765  6453 layer_factory.hpp:77] Creating layer loss
I0505 10:59:59.943778  6453 net.cpp:94] Creating Layer loss
I0505 10:59:59.943781  6453 net.cpp:435] loss <- ip3
I0505 10:59:59.943785  6453 net.cpp:435] loss <- label
I0505 10:59:59.943790  6453 net.cpp:409] loss -> loss
I0505 10:59:59.943838  6453 net.cpp:144] Setting up loss
…
I0505 11:00:00.176329  6453 net.cpp:323] The NetState phase (0) differed from the phase (1) specified by a rule in layer intercept
I0505 11:00:00.176342  6453 net.cpp:323] The NetState phase (0) differed from the phase (1) specified by a rule in layer accuracy
I0505 11:00:00.176419  6453 net.cpp:52] Initializing net from parameters: 
state {
  phase: TRAIN
}
layer {
  name: "parameters"
  type: "HDF5Data"
  top: "data"
  top: "label"
  include {
    phase: TRAIN
  }
  hdf5_data_param {
    source: "/home/purduethu/scratch/radon/d/deng106/CNNStatisticalModel/distributions/input/50_distributions_400_sample_size_train-distributions-path.txt"
    batch_size: 20
  }
}
layer {
  name: "conv1"
  type: "Convolution"
  bottom: "data"
  top: "conv1"
  param {
    lr_mult: 1
  }
  param {
    lr_mult: 2
  }
  convolution_param {
    num_output: 64
    pad: 2
    kernel_size: 5
    stride: 1
    weight_filler {
      type: "gaussian"
      std: 0.0001
    }
    bias_filler {
      type: "constant"
    }
  }
}
layer {
  name: "relu1"
  type: "ReLU"
  bottom: "conv1"
  top: "conv1"
}
layer {
  name: "pool1"
  type: "Pooling"
  bottom: "conv1"
  top: "pool1"
  pooling_param {
    pool: MAX
    kernel_size: 3
    stride: 2
  }
}
layer {
  name: "conv2"
  type: "Convolution"
  bottom: "pool1"
  top: "conv2"
  param {
    lr_mult: 1
  }
  param {
    lr_mult: 2
  }
  convolution_param {
    num_output: 128
    pad: 2
    kernel_size: 5
    stride: 1
    weight_filler {
      type: "gaussian"
      std: 0.01
    }
    bias_filler {
      type: "constant"
    }
  }
}
layer {
  name: "relu2"
  type: "ReLU"
  bottom: "conv2"
  top: "conv2"
}
layer {
  name: "conv3"
  type: "Convolution"
  bottom: "conv2"
  top: "conv3"
  param {
    lr_mult: 1
  }
  param {
    lr_mult: 2
  }
  convolution_param {
    num_output: 128
    pad: 2
    kernel_size: 5
    stride: 1
    weight_filler {
      type: "gaussian"
      std: 0.01
    }
    bias_filler {
      type: "constant"
    }
  }
}
layer {
  name: "relu3"
  type: "ReLU"
  bottom: "conv3"
  top: "conv3"
}
layer {
  name: "pool3"
  type: "Pooling"
  bottom: "conv3"
  top: "pool3"
  pooling_param {
    pool: AVE
    kernel_size: 3
    stride: 2
  }
}
layer {
  name: "ip1"
  type: "InnerProduct"
  bottom: "pool3"
  top: "ip1"
  param {
    lr_mult: 1
  }
  param {
    lr_mult: 2
  }
  inner_product_param {
    num_output: 512
    weight_filler {
      type: "gaussian"
      std: 0.1
    }
    bias_filler {
      type: "constant"
    }
  }
}
layer {
  name: "ip2"
  type: "InnerProduct"
  bottom: "ip1"
  top: "ip2"
  param {
    lr_mult: 1
  }
  param {
    lr_mult: 2
  }
  inner_product_param {
    num_output: 256
    weight_filler {
      type: "gaussian"
      std: 0.1
    }
    bias_filler {
      type: "constant"
    }
  }
}
layer {
  name: "ip3"
  type: "InnerProduct"
  bottom: "ip2"
  top: "ip3"
  param {
    lr_mult: 1
  }
  param {
    lr_mult: 2
  }
  inner_product_param {
    num_output: 50
    weight_filler {
      type: "gaussian"
      std: 0.1
    }
    bias_filler {
      type: "constant"
    }
  }
}
layer {
  name: "loss"
  type: "SoftmaxWithLoss"
  bottom: "ip3"
  bottom: "label"
  top: "loss"
}
I0505 11:00:00.176465  6453 layer_factory.hpp:77] Creating layer parameters
I0505 11:00:00.176472  6453 net.cpp:94] Creating Layer parameters
I0505 11:00:00.176476  6453 net.cpp:409] parameters -> data
I0505 11:00:00.176483  6453 net.cpp:409] parameters -> label
I0505 11:00:00.176489  6453 hdf5_data_layer.cpp:79] Loading list of HDF5 filenames from: /home/purduethu/scratch/radon/d/deng106/CNNStatisticalModel/distributions/input/50_distributions_400_sample_size_train-distributions-path.txt
I0505 11:00:00.176503  6453 hdf5_data_layer.cpp:93] Number of HDF5 files: 1
I0505 11:00:00.830740  6453 hdf5.cpp:35] Datatype class: H5T_INTEGER
I0505 11:00:00.833796  6453 net.cpp:144] Setting up parameters
I0505 11:00:00.833820  6453 net.cpp:151] Top shape: 20 1 20 20 (8000)
I0505 11:00:00.833824  6453 net.cpp:151] Top shape: 20 (20)
I0505 11:00:00.833828  6453 net.cpp:159] Memory required for data: 32080
I0505 11:00:00.833834  6453 layer_factory.hpp:77] Creating layer conv1
I0505 11:00:00.833849  6453 net.cpp:94] Creating Layer conv1
I0505 11:00:00.833853  6453 net.cpp:435] conv1 <- data
I0505 11:00:00.833859  6453 net.cpp:409] conv1 -> conv1
I0505 11:00:00.836122  6453 net.cpp:144] Setting up conv1
I0505 11:00:00.836135  6453 net.cpp:151] Top shape: 20 64 20 20 (512000)
I0505 11:00:00.836138  6453 net.cpp:159] Memory required for data: 2080080
I0505 11:00:00.836149  6453 layer_factory.hpp:77] Creating layer relu1
I0505 11:00:00.836156  6453 net.cpp:94] Creating Layer relu1
I0505 11:00:00.836160  6453 net.cpp:435] relu1 <- conv1
I0505 11:00:00.836164  6453 net.cpp:396] relu1 -> conv1 (in-place)
I0505 11:00:00.836172  6453 net.cpp:144] Setting up relu1
I0505 11:00:00.836176  6453 net.cpp:151] Top shape: 20 64 20 20 (512000)
I0505 11:00:00.836179  6453 net.cpp:159] Memory required for data: 4128080
I0505 11:00:00.836182  6453 layer_factory.hpp:77] Creating layer pool1
I0505 11:00:00.836189  6453 net.cpp:94] Creating Layer pool1
I0505 11:00:00.836191  6453 net.cpp:435] pool1 <- conv1
I0505 11:00:00.836201  6453 net.cpp:409] pool1 -> pool1
I0505 11:00:00.836251  6453 net.cpp:144] Setting up pool1
I0505 11:00:00.836258  6453 net.cpp:151] Top shape: 20 64 10 10 (128000)
I0505 11:00:00.836261  6453 net.cpp:159] Memory required for data: 4640080
I0505 11:00:00.836264  6453 layer_factory.hpp:77] Creating layer conv2
I0505 11:00:00.836272  6453 net.cpp:94] Creating Layer conv2
I0505 11:00:00.836277  6453 net.cpp:435] conv2 <- pool1
I0505 11:00:00.836282  6453 net.cpp:409] conv2 -> conv2
I0505 11:00:00.847674  6453 net.cpp:144] Setting up conv2
I0505 11:00:00.847692  6453 net.cpp:151] Top shape: 20 128 10 10 (256000)
I0505 11:00:00.847695  6453 net.cpp:159] Memory required for data: 5664080
I0505 11:00:00.847704  6453 layer_factory.hpp:77] Creating layer relu2
I0505 11:00:00.847710  6453 net.cpp:94] Creating Layer relu2
I0505 11:00:00.847714  6453 net.cpp:435] relu2 <- conv2
I0505 11:00:00.847719  6453 net.cpp:396] relu2 -> conv2 (in-place)
I0505 11:00:00.847726  6453 net.cpp:144] Setting up relu2
I0505 11:00:00.847731  6453 net.cpp:151] Top shape: 20 128 10 10 (256000)
I0505 11:00:00.847734  6453 net.cpp:159] Memory required for data: 6688080
I0505 11:00:00.847738  6453 layer_factory.hpp:77] Creating layer conv3
I0505 11:00:00.847745  6453 net.cpp:94] Creating Layer conv3
I0505 11:00:00.847748  6453 net.cpp:435] conv3 <- conv2
I0505 11:00:00.847754  6453 net.cpp:409] conv3 -> conv3
I0505 11:00:00.866540  6453 net.cpp:144] Setting up conv3
I0505 11:00:00.866557  6453 net.cpp:151] Top shape: 20 128 10 10 (256000)
I0505 11:00:00.866561  6453 net.cpp:159] Memory required for data: 7712080
I0505 11:00:00.866569  6453 layer_factory.hpp:77] Creating layer relu3
I0505 11:00:00.866575  6453 net.cpp:94] Creating Layer relu3
I0505 11:00:00.866580  6453 net.cpp:435] relu3 <- conv3
I0505 11:00:00.866585  6453 net.cpp:396] relu3 -> conv3 (in-place)
I0505 11:00:00.866591  6453 net.cpp:144] Setting up relu3
I0505 11:00:00.866595  6453 net.cpp:151] Top shape: 20 128 10 10 (256000)
I0505 11:00:00.866598  6453 net.cpp:159] Memory required for data: 8736080
I0505 11:00:00.866601  6453 layer_factory.hpp:77] Creating layer pool3
I0505 11:00:00.866607  6453 net.cpp:94] Creating Layer pool3
I0505 11:00:00.866611  6453 net.cpp:435] pool3 <- conv3
I0505 11:00:00.866616  6453 net.cpp:409] pool3 -> pool3
I0505 11:00:00.866654  6453 net.cpp:144] Setting up pool3
I0505 11:00:00.866662  6453 net.cpp:151] Top shape: 20 128 5 5 (64000)
I0505 11:00:00.866664  6453 net.cpp:159] Memory required for data: 8992080
I0505 11:00:00.866667  6453 layer_factory.hpp:77] Creating layer ip1
I0505 11:00:00.866674  6453 net.cpp:94] Creating Layer ip1
I0505 11:00:00.866677  6453 net.cpp:435] ip1 <- pool3
I0505 11:00:00.866683  6453 net.cpp:409] ip1 -> ip1
I0505 11:00:00.906965  6453 net.cpp:144] Setting up ip1
I0505 11:00:00.906980  6453 net.cpp:151] Top shape: 20 512 (10240)
I0505 11:00:00.906985  6453 net.cpp:159] Memory required for data: 9033040
I0505 11:00:00.906991  6453 layer_factory.hpp:77] Creating layer ip2
I0505 11:00:00.906999  6453 net.cpp:94] Creating Layer ip2
I0505 11:00:00.907003  6453 net.cpp:435] ip2 <- ip1
I0505 11:00:00.907009  6453 net.cpp:409] ip2 -> ip2
I0505 11:00:00.910168  6453 net.cpp:144] Setting up ip2
I0505 11:00:00.910179  6453 net.cpp:151] Top shape: 20 256 (5120)
I0505 11:00:00.910183  6453 net.cpp:159] Memory required for data: 9053520
I0505 11:00:00.910192  6453 layer_factory.hpp:77] Creating layer ip3
I0505 11:00:00.910197  6453 net.cpp:94] Creating Layer ip3
I0505 11:00:00.910200  6453 net.cpp:435] ip3 <- ip2
I0505 11:00:00.910205  6453 net.cpp:409] ip3 -> ip3
I0505 11:00:00.911533  6453 net.cpp:144] Setting up ip3
I0505 11:00:00.911546  6453 net.cpp:151] Top shape: 20 50 (1000)
I0505 11:00:00.911550  6453 net.cpp:159] Memory required for data: 9057520
I0505 11:00:00.911556  6453 layer_factory.hpp:77] Creating layer loss
I0505 11:00:00.911562  6453 net.cpp:94] Creating Layer loss
I0505 11:00:00.911566  6453 net.cpp:435] loss <- ip3
I0505 11:00:00.911571  6453 net.cpp:435] loss <- label
I0505 11:00:00.911578  6453 net.cpp:409] loss -> loss
I0505 11:00:00.911586  6453 layer_factory.hpp:77] Creating layer loss
…
I0505 11:00:00.912027  6453 solver.cpp:181] Creating test net (#0) specified by net file: ./protocol/dis_50_400_dimension.protocol_distribution
I0505 11:00:00.912051  6453 net.cpp:323] The NetState phase (1) differed from the phase (0) specified by a rule in layer parameters
I0505 11:00:00.912137  6453 net.cpp:52] Initializing net from parameters: 
state {
  phase: TEST
}
layer {
  name: "intercept"
  type: "HDF5Data"
  top: "data"
  top: "label"
  include {
    phase: TEST
  }
  hdf5_data_param {
    source: "/home/purduethu/scratch/radon/d/deng106/CNNStatisticalModel/distributions/input/50_distributions_400_sample_size_test-distributions-path.txt"
    batch_size: 20
  }
}
layer {
  name: "conv1"
  type: "Convolution"
  bottom: "data"
  top: "conv1"
  param {
    lr_mult: 1
  }
  param {
    lr_mult: 2
  }
  convolution_param {
    num_output: 64
    pad: 2
    kernel_size: 5
    stride: 1
    weight_filler {
      type: "gaussian"
      std: 0.0001
    }
    bias_filler {
      type: "constant"
    }
  }
}
layer {
  name: "relu1"
  type: "ReLU"
  bottom: "conv1"
  top: "conv1"
}
layer {
  name: "pool1"
  type: "Pooling"
  bottom: "conv1"
  top: "pool1"
  pooling_param {
    pool: MAX
    kernel_size: 3
    stride: 2
  }
}
layer {
  name: "conv2"
  type: "Convolution"
  bottom: "pool1"
  top: "conv2"
  param {
    lr_mult: 1
  }
  param {
    lr_mult: 2
  }
  convolution_param {
    num_output: 128
    pad: 2
    kernel_size: 5
    stride: 1
    weight_filler {
      type: "gaussian"
      std: 0.01
    }
    bias_filler {
      type: "constant"
    }
  }
}
layer {
  name: "relu2"
  type: "ReLU"
  bottom: "conv2"
  top: "conv2"
}
layer {
  name: "conv3"
  type: "Convolution"
  bottom: "conv2"
  top: "conv3"
  param {
    lr_mult: 1
  }
  param {
    lr_mult: 2
  }
  convolution_param {
    num_output: 128
    pad: 2
    kernel_size: 5
    stride: 1
    weight_filler {
      type: "gaussian"
      std: 0.01
    }
    bias_filler {
      type: "constant"
    }
  }
}
layer {
  name: "relu3"
  type: "ReLU"
  bottom: "conv3"
  top: "conv3"
}
layer {
  name: "pool3"
  type: "Pooling"
  bottom: "conv3"
  top: "pool3"
  pooling_param {
    pool: AVE
    kernel_size: 3
    stride: 2
  }
}
layer {
  name: "ip1"
  type: "InnerProduct"
  bottom: "pool3"
  top: "ip1"
  param {
    lr_mult: 1
  }
  param {
    lr_mult: 2
  }
  inner_product_param {
    num_output: 512
    weight_filler {
      type: "gaussian"
      std: 0.1
    }
    bias_filler {
      type: "constant"
    }
  }
}
layer {
  name: "ip2"
  type: "InnerProduct"
  bottom: "ip1"
  top: "ip2"
  param {
    lr_mult: 1
  }
  param {
    lr_mult: 2
  }
  inner_product_param {
    num_output: 256
    weight_filler {
      type: "gaussian"
      std: 0.1
    }
    bias_filler {
      type: "constant"
    }
  }
}
layer {
  name: "ip3"
  type: "InnerProduct"
  bottom: "ip2"
  top: "ip3"
  param {
    lr_mult: 1
  }
  param {
    lr_mult: 2
  }
  inner_product_param {
    num_output: 50
    weight_filler {
      type: "gaussian"
      std: 0.1
    }
    bias_filler {
      type: "constant"
    }
  }
}
layer {
  name: "accuracy"
  type: "Accuracy"
  bottom: "ip3"
  bottom: "label"
  top: "accuracy"
  include {
    phase: TEST
  }
}
layer {
  name: "loss"
  type: "SoftmaxWithLoss"
  bottom: "ip3"
  bottom: "label"
  top: "loss"
}
I0505 11:00:00.912195  6453 layer_factory.hpp:77] Creating layer intercept
I0505 11:00:00.912204  6453 net.cpp:94] Creating Layer intercept
I0505 11:00:00.912207  6453 net.cpp:409] intercept -> data
I0505 11:00:00.912214  6453 net.cpp:409] intercept -> label
I0505 11:00:00.912220  6453 hdf5_data_layer.cpp:79] Loading list of HDF5 filenames from: /home/purduethu/scratch/radon/d/deng106/CNNStatisticalModel/distributions/input/50_distributions_400_sample_size_test-distributions-path.txt
I0505 11:00:00.912240  6453 hdf5_data_layer.cpp:93] Number of HDF5 files: 1
I0505 11:00:01.080436  6453 net.cpp:144] Setting up intercept
I0505 11:00:01.080471  6453 net.cpp:151] Top shape: 20 1 20 20 (8000)
I0505 11:00:01.080476  6453 net.cpp:151] Top shape: 20 (20)
I0505 11:00:01.080478  6453 net.cpp:159] Memory required for data: 32080
I0505 11:00:01.080484  6453 layer_factory.hpp:77] Creating layer label_intercept_1_split
I0505 11:00:01.080503  6453 net.cpp:94] Creating Layer label_intercept_1_split
I0505 11:00:01.080508  6453 net.cpp:435] label_intercept_1_split <- label
I0505 11:00:01.080513  6453 net.cpp:409] label_intercept_1_split -> label_intercept_1_split_0
I0505 11:00:01.080523  6453 net.cpp:409] label_intercept_1_split -> label_intercept_1_split_1
I0505 11:00:01.080574  6453 net.cpp:144] Setting up label_intercept_1_split
I0505 11:00:01.080584  6453 net.cpp:151] Top shape: 20 (20)
I0505 11:00:01.080587  6453 net.cpp:151] Top shape: 20 (20)
I0505 11:00:01.080590  6453 net.cpp:159] Memory required for data: 32240
I0505 11:00:01.080593  6453 layer_factory.hpp:77] Creating layer conv1
I0505 11:00:01.080605  6453 net.cpp:94] Creating Layer conv1
I0505 11:00:01.080610  6453 net.cpp:435] conv1 <- data
I0505 11:00:01.080615  6453 net.cpp:409] conv1 -> conv1
I0505 11:00:01.081403  6453 net.cpp:144] Setting up conv1
I0505 11:00:01.081416  6453 net.cpp:151] Top shape: 20 64 20 20 (512000)
I0505 11:00:01.081420  6453 net.cpp:159] Memory required for data: 2080240
I0505 11:00:01.081430  6453 layer_factory.hpp:77] Creating layer relu1
I0505 11:00:01.081437  6453 net.cpp:94] Creating Layer relu1
I0505 11:00:01.081441  6453 net.cpp:435] relu1 <- conv1
I0505 11:00:01.081445  6453 net.cpp:396] relu1 -> conv1 (in-place)
I0505 11:00:01.081454  6453 net.cpp:144] Setting up relu1
I0505 11:00:01.081457  6453 net.cpp:151] Top shape: 20 64 20 20 (512000)
I0505 11:00:01.081460  6453 net.cpp:159] Memory required for data: 4128240
I0505 11:00:01.081463  6453 layer_factory.hpp:77] Creating layer pool1
I0505 11:00:01.081470  6453 net.cpp:94] Creating Layer pool1
I0505 11:00:01.081473  6453 net.cpp:435] pool1 <- conv1
I0505 11:00:01.081477  6453 net.cpp:409] pool1 -> pool1
I0505 11:00:01.081527  6453 net.cpp:144] Setting up pool1
I0505 11:00:01.081534  6453 net.cpp:151] Top shape: 20 64 10 10 (128000)
I0505 11:00:01.081537  6453 net.cpp:159] Memory required for data: 4640240
I0505 11:00:01.081540  6453 layer_factory.hpp:77] Creating layer conv2
I0505 11:00:01.081548  6453 net.cpp:94] Creating Layer conv2
I0505 11:00:01.081552  6453 net.cpp:435] conv2 <- pool1
I0505 11:00:01.081557  6453 net.cpp:409] conv2 -> conv2
I0505 11:00:01.089259  6453 net.cpp:144] Setting up conv2
I0505 11:00:01.089274  6453 net.cpp:151] Top shape: 20 128 10 10 (256000)
I0505 11:00:01.089278  6453 net.cpp:159] Memory required for data: 5664240
I0505 11:00:01.089287  6453 layer_factory.hpp:77] Creating layer relu2
I0505 11:00:01.089299  6453 net.cpp:94] Creating Layer relu2
I0505 11:00:01.089304  6453 net.cpp:435] relu2 <- conv2
I0505 11:00:01.089309  6453 net.cpp:396] relu2 -> conv2 (in-place)
I0505 11:00:01.089316  6453 net.cpp:144] Setting up relu2
I0505 11:00:01.089320  6453 net.cpp:151] Top shape: 20 128 10 10 (256000)
I0505 11:00:01.089323  6453 net.cpp:159] Memory required for data: 6688240
I0505 11:00:01.089326  6453 layer_factory.hpp:77] Creating layer conv3
I0505 11:00:01.089334  6453 net.cpp:94] Creating Layer conv3
I0505 11:00:01.089337  6453 net.cpp:435] conv3 <- conv2
I0505 11:00:01.089344  6453 net.cpp:409] conv3 -> conv3
I0505 11:00:01.103101  6453 net.cpp:144] Setting up conv3
I0505 11:00:01.103116  6453 net.cpp:151] Top shape: 20 128 10 10 (256000)
I0505 11:00:01.103121  6453 net.cpp:159] Memory required for data: 7712240
I0505 11:00:01.103129  6453 layer_factory.hpp:77] Creating layer relu3
I0505 11:00:01.103137  6453 net.cpp:94] Creating Layer relu3
I0505 11:00:01.103140  6453 net.cpp:435] relu3 <- conv3
I0505 11:00:01.103145  6453 net.cpp:396] relu3 -> conv3 (in-place)
I0505 11:00:01.103152  6453 net.cpp:144] Setting up relu3
I0505 11:00:01.103157  6453 net.cpp:151] Top shape: 20 128 10 10 (256000)
I0505 11:00:01.103159  6453 net.cpp:159] Memory required for data: 8736240
I0505 11:00:01.103163  6453 layer_factory.hpp:77] Creating layer pool3
I0505 11:00:01.103168  6453 net.cpp:94] Creating Layer pool3
I0505 11:00:01.103170  6453 net.cpp:435] pool3 <- conv3
I0505 11:00:01.103175  6453 net.cpp:409] pool3 -> pool3
I0505 11:00:01.103214  6453 net.cpp:144] Setting up pool3
I0505 11:00:01.103220  6453 net.cpp:151] Top shape: 20 128 5 5 (64000)
I0505 11:00:01.103224  6453 net.cpp:159] Memory required for data: 8992240
I0505 11:00:01.103226  6453 layer_factory.hpp:77] Creating layer ip1
I0505 11:00:01.103233  6453 net.cpp:94] Creating Layer ip1
I0505 11:00:01.103236  6453 net.cpp:435] ip1 <- pool3
I0505 11:00:01.103241  6453 net.cpp:409] ip1 -> ip1
I0505 11:00:01.142917  6453 net.cpp:144] Setting up ip1
I0505 11:00:01.142941  6453 net.cpp:151] Top shape: 20 512 (10240)
I0505 11:00:01.142946  6453 net.cpp:159] Memory required for data: 9033200
I0505 11:00:01.142952  6453 layer_factory.hpp:77] Creating layer ip2
I0505 11:00:01.142962  6453 net.cpp:94] Creating Layer ip2
I0505 11:00:01.142966  6453 net.cpp:435] ip2 <- ip1
I0505 11:00:01.142972  6453 net.cpp:409] ip2 -> ip2
I0505 11:00:01.146162  6453 net.cpp:144] Setting up ip2
I0505 11:00:01.146170  6453 net.cpp:151] Top shape: 20 256 (5120)
I0505 11:00:01.146173  6453 net.cpp:159] Memory required for data: 9053680
I0505 11:00:01.146183  6453 layer_factory.hpp:77] Creating layer ip3
I0505 11:00:01.146188  6453 net.cpp:94] Creating Layer ip3
I0505 11:00:01.146193  6453 net.cpp:435] ip3 <- ip2
I0505 11:00:01.146196  6453 net.cpp:409] ip3 -> ip3
I0505 11:00:01.146625  6453 net.cpp:144] Setting up ip3
I0505 11:00:01.146632  6453 net.cpp:151] Top shape: 20 50 (1000)
I0505 11:00:01.146636  6453 net.cpp:159] Memory required for data: 9057680
I0505 11:00:01.146641  6453 layer_factory.hpp:77] Creating layer ip3_ip3_0_split
I0505 11:00:01.146647  6453 net.cpp:94] Creating Layer ip3_ip3_0_split
I0505 11:00:01.146652  6453 net.cpp:435] ip3_ip3_0_split <- ip3
I0505 11:00:01.146656  6453 net.cpp:409] ip3_ip3_0_split -> ip3_ip3_0_split_0
I0505 11:00:01.146662  6453 net.cpp:409] ip3_ip3_0_split -> ip3_ip3_0_split_1
I0505 11:00:01.146708  6453 net.cpp:144] Setting up ip3_ip3_0_split
I0505 11:00:01.146715  6453 net.cpp:151] Top shape: 20 50 (1000)
I0505 11:00:01.146719  6453 net.cpp:151] Top shape: 20 50 (1000)
I0505 11:00:01.146721  6453 net.cpp:159] Memory required for data: 9065680
I0505 11:00:01.146724  6453 layer_factory.hpp:77] Creating layer accuracy
I0505 11:00:01.146730  6453 net.cpp:94] Creating Layer accuracy
I0505 11:00:01.146733  6453 net.cpp:435] accuracy <- ip3_ip3_0_split_0
I0505 11:00:01.146739  6453 net.cpp:435] accuracy <- label_intercept_1_split_0
I0505 11:00:01.146742  6453 net.cpp:409] accuracy -> accuracy
…
