…
I0502 04:13:19.185700 18431 net.cpp:323] The NetState phase (0) differed from the phase (1) specified by a rule in layer intercept
I0502 04:13:19.185717 18431 net.cpp:323] The NetState phase (0) differed from the phase (1) specified by a rule in layer loss
I0502 04:13:19.185809 18431 net.cpp:52] Initializing net from parameters: 
state {
  phase: TRAIN
}
layer {
  name: "parameters"
  type: "HDF5Data"
  top: "data"
  top: "label"
  include {
    phase: TRAIN
  }
  hdf5_data_param {
    source: "/home/purduethu/scratch/radon/d/deng106/CNNStatisticalModel/distributions/input/20_distributions_900_sample_size_train-parameters-path.txt"
    batch_size: 20
  }
}
layer {
  name: "conv1"
  type: "Convolution"
  bottom: "data"
  top: "conv1"
  param {
    lr_mult: 1
  }
  param {
    lr_mult: 2
  }
  convolution_param {
    num_output: 64
    pad: 2
    kernel_size: 5
    stride: 1
    weight_filler {
      type: "gaussian"
      std: 0.0001
    }
    bias_filler {
      type: "constant"
    }
  }
}
layer {
  name: "relu1"
  type: "ReLU"
  bottom: "conv1"
  top: "conv1"
}
layer {
  name: "conv2"
  type: "Convolution"
  bottom: "conv1"
  top: "conv2"
  param {
    lr_mult: 1
  }
  param {
    lr_mult: 2
  }
  convolution_param {
    num_output: 64
    pad: 2
    kernel_size: 5
    stride: 1
    weight_filler {
      type: "gaussian"
      std: 0.01
    }
    bias_filler {
      type: "constant"
    }
  }
}
layer {
  name: "relu2"
  type: "ReLU"
  bottom: "conv2"
  top: "conv2"
}
layer {
  name: "pool2"
  type: "Pooling"
  bottom: "conv2"
  top: "pool2"
  pooling_param {
    pool: MAX
    kernel_size: 3
    stride: 2
  }
}
layer {
  name: "conv3"
  type: "Convolution"
  bottom: "pool2"
  top: "conv3"
  param {
    lr_mult: 1
  }
  param {
    lr_mult: 2
  }
  convolution_param {
    num_output: 64
    pad: 2
    kernel_size: 5
    stride: 1
    weight_filler {
      type: "gaussian"
      std: 0.01
    }
    bias_filler {
      type: "constant"
    }
  }
}
layer {
  name: "relu3"
  type: "ReLU"
  bottom: "conv3"
  top: "conv3"
}
layer {
  name: "conv4"
  type: "Convolution"
  bottom: "conv3"
  top: "conv4"
  param {
    lr_mult: 1
  }
  param {
    lr_mult: 2
  }
  convolution_param {
    num_output: 64
    pad: 2
    kernel_size: 5
    stride: 1
    weight_filler {
      type: "gaussian"
      std: 0.01
    }
    bias_filler {
      type: "constant"
    }
  }
}
layer {
  name: "relu4"
  type: "ReLU"
  bottom: "conv4"
  top: "conv4"
}
layer {
  name: "conv5"
  type: "Convolution"
  bottom: "conv4"
  top: "conv5"
  param {
    lr_mult: 1
  }
  param {
    lr_mult: 2
  }
  convolution_param {
    num_output: 64
    pad: 2
    kernel_size: 5
    stride: 1
    weight_filler {
      type: "gaussian"
      std: 0.01
    }
    bias_filler {
      type: "constant"
    }
  }
}
layer {
  name: "relu5"
  type: "ReLU"
  bottom: "conv5"
  top: "conv5"
}
layer {
  name: "pool5"
  type: "Pooling"
  bottom: "conv5"
  top: "pool5"
  pooling_param {
    pool: AVE
    kernel_size: 3
    stride: 2
  }
}
layer {
  name: "ip1"
  type: "InnerProduct"
  bottom: "pool5"
  top: "ip1"
  param {
    lr_mult: 1
  }
  param {
    lr_mult: 2
  }
  inner_product_param {
    num_output: 64
    weight_filler {
      type: "gaussian"
      std: 0.1
    }
    bias_filler {
      type: "constant"
    }
  }
}
layer {
  name: "ip2"
  type: "InnerProduct"
  bottom: "ip1"
  top: "ip2"
  param {
    lr_mult: 1
  }
  param {
    lr_mult: 2
  }
  inner_product_param {
    num_output: 64
    weight_filler {
      type: "gaussian"
      std: 0.1
    }
    bias_filler {
      type: "constant"
    }
  }
}
layer {
  name: "ip3"
  type: "InnerProduct"
  bottom: "ip2"
  top: "ip3"
  param {
    lr_mult: 1
  }
  param {
    lr_mult: 2
  }
  inner_product_param {
    num_output: 1
    weight_filler {
      type: "gaussian"
      std: 0.1
    }
    bias_filler {
      type: "constant"
    }
  }
}
layer {
  name: "loss"
  type: "HuberLoss"
  bottom: "ip3"
  bottom: "label"
  top: "loss"
  include {
    phase: TRAIN
  }
}
I0502 04:13:19.185885 18431 layer_factory.hpp:77] Creating layer parameters
I0502 04:13:19.185900 18431 net.cpp:94] Creating Layer parameters
I0502 04:13:19.185906 18431 net.cpp:409] parameters -> data
I0502 04:13:19.185925 18431 net.cpp:409] parameters -> label
I0502 04:13:19.185935 18431 hdf5_data_layer.cpp:79] Loading list of HDF5 filenames from: /home/purduethu/scratch/radon/d/deng106/CNNStatisticalModel/distributions/input/20_distributions_900_sample_size_train-parameters-path.txt
I0502 04:13:19.185958 18431 hdf5_data_layer.cpp:93] Number of HDF5 files: 1
I0502 04:13:19.186542 18431 hdf5.cpp:32] Datatype class: H5T_FLOAT
I0502 04:13:19.768674 18431 net.cpp:144] Setting up parameters
I0502 04:13:19.768707 18431 net.cpp:151] Top shape: 20 1 30 30 (18000)
I0502 04:13:19.768713 18431 net.cpp:151] Top shape: 20 (20)
I0502 04:13:19.768718 18431 net.cpp:159] Memory required for data: 72080
I0502 04:13:19.768724 18431 layer_factory.hpp:77] Creating layer conv1
I0502 04:13:19.768748 18431 net.cpp:94] Creating Layer conv1
I0502 04:13:19.768754 18431 net.cpp:435] conv1 <- data
I0502 04:13:19.768764 18431 net.cpp:409] conv1 -> conv1
I0502 04:13:19.774525 18431 net.cpp:144] Setting up conv1
I0502 04:13:19.774540 18431 net.cpp:151] Top shape: 20 64 30 30 (1152000)
I0502 04:13:19.774544 18431 net.cpp:159] Memory required for data: 4680080
I0502 04:13:19.774555 18431 layer_factory.hpp:77] Creating layer relu1
I0502 04:13:19.774564 18431 net.cpp:94] Creating Layer relu1
I0502 04:13:19.774567 18431 net.cpp:435] relu1 <- conv1
I0502 04:13:19.774572 18431 net.cpp:396] relu1 -> conv1 (in-place)
I0502 04:13:19.774590 18431 net.cpp:144] Setting up relu1
I0502 04:13:19.774596 18431 net.cpp:151] Top shape: 20 64 30 30 (1152000)
I0502 04:13:19.774600 18431 net.cpp:159] Memory required for data: 9288080
I0502 04:13:19.774603 18431 layer_factory.hpp:77] Creating layer conv2
I0502 04:13:19.774611 18431 net.cpp:94] Creating Layer conv2
I0502 04:13:19.774616 18431 net.cpp:435] conv2 <- conv1
I0502 04:13:19.774621 18431 net.cpp:409] conv2 -> conv2
I0502 04:13:19.788988 18431 net.cpp:144] Setting up conv2
I0502 04:13:19.789005 18431 net.cpp:151] Top shape: 20 64 30 30 (1152000)
I0502 04:13:19.789008 18431 net.cpp:159] Memory required for data: 13896080
I0502 04:13:19.789016 18431 layer_factory.hpp:77] Creating layer relu2
I0502 04:13:19.789023 18431 net.cpp:94] Creating Layer relu2
I0502 04:13:19.789027 18431 net.cpp:435] relu2 <- conv2
I0502 04:13:19.789032 18431 net.cpp:396] relu2 -> conv2 (in-place)
I0502 04:13:19.789041 18431 net.cpp:144] Setting up relu2
I0502 04:13:19.789044 18431 net.cpp:151] Top shape: 20 64 30 30 (1152000)
I0502 04:13:19.789048 18431 net.cpp:159] Memory required for data: 18504080
I0502 04:13:19.789052 18431 layer_factory.hpp:77] Creating layer pool2
I0502 04:13:19.789058 18431 net.cpp:94] Creating Layer pool2
I0502 04:13:19.789069 18431 net.cpp:435] pool2 <- conv2
I0502 04:13:19.789074 18431 net.cpp:409] pool2 -> pool2
I0502 04:13:19.789119 18431 net.cpp:144] Setting up pool2
I0502 04:13:19.789126 18431 net.cpp:151] Top shape: 20 64 15 15 (288000)
I0502 04:13:19.789129 18431 net.cpp:159] Memory required for data: 19656080
I0502 04:13:19.789134 18431 layer_factory.hpp:77] Creating layer conv3
I0502 04:13:19.789141 18431 net.cpp:94] Creating Layer conv3
I0502 04:13:19.789145 18431 net.cpp:435] conv3 <- pool2
I0502 04:13:19.789150 18431 net.cpp:409] conv3 -> conv3
I0502 04:13:19.797164 18431 net.cpp:144] Setting up conv3
I0502 04:13:19.797179 18431 net.cpp:151] Top shape: 20 64 15 15 (288000)
I0502 04:13:19.797184 18431 net.cpp:159] Memory required for data: 20808080
I0502 04:13:19.797193 18431 layer_factory.hpp:77] Creating layer relu3
I0502 04:13:19.797199 18431 net.cpp:94] Creating Layer relu3
I0502 04:13:19.797204 18431 net.cpp:435] relu3 <- conv3
I0502 04:13:19.797209 18431 net.cpp:396] relu3 -> conv3 (in-place)
I0502 04:13:19.797215 18431 net.cpp:144] Setting up relu3
I0502 04:13:19.797220 18431 net.cpp:151] Top shape: 20 64 15 15 (288000)
I0502 04:13:19.797224 18431 net.cpp:159] Memory required for data: 21960080
I0502 04:13:19.797227 18431 layer_factory.hpp:77] Creating layer conv4
I0502 04:13:19.797236 18431 net.cpp:94] Creating Layer conv4
I0502 04:13:19.797240 18431 net.cpp:435] conv4 <- conv3
I0502 04:13:19.797245 18431 net.cpp:409] conv4 -> conv4
I0502 04:13:19.804316 18431 net.cpp:144] Setting up conv4
I0502 04:13:19.804332 18431 net.cpp:151] Top shape: 20 64 15 15 (288000)
I0502 04:13:19.804337 18431 net.cpp:159] Memory required for data: 23112080
I0502 04:13:19.804343 18431 layer_factory.hpp:77] Creating layer relu4
I0502 04:13:19.804349 18431 net.cpp:94] Creating Layer relu4
I0502 04:13:19.804353 18431 net.cpp:435] relu4 <- conv4
I0502 04:13:19.804358 18431 net.cpp:396] relu4 -> conv4 (in-place)
I0502 04:13:19.804365 18431 net.cpp:144] Setting up relu4
I0502 04:13:19.804370 18431 net.cpp:151] Top shape: 20 64 15 15 (288000)
I0502 04:13:19.804373 18431 net.cpp:159] Memory required for data: 24264080
I0502 04:13:19.804378 18431 layer_factory.hpp:77] Creating layer conv5
I0502 04:13:19.804385 18431 net.cpp:94] Creating Layer conv5
I0502 04:13:19.804389 18431 net.cpp:435] conv5 <- conv4
I0502 04:13:19.804394 18431 net.cpp:409] conv5 -> conv5
I0502 04:13:19.812325 18431 net.cpp:144] Setting up conv5
I0502 04:13:19.812340 18431 net.cpp:151] Top shape: 20 64 15 15 (288000)
I0502 04:13:19.812345 18431 net.cpp:159] Memory required for data: 25416080
I0502 04:13:19.812352 18431 layer_factory.hpp:77] Creating layer relu5
I0502 04:13:19.812360 18431 net.cpp:94] Creating Layer relu5
I0502 04:13:19.812363 18431 net.cpp:435] relu5 <- conv5
I0502 04:13:19.812368 18431 net.cpp:396] relu5 -> conv5 (in-place)
I0502 04:13:19.812376 18431 net.cpp:144] Setting up relu5
I0502 04:13:19.812381 18431 net.cpp:151] Top shape: 20 64 15 15 (288000)
I0502 04:13:19.812383 18431 net.cpp:159] Memory required for data: 26568080
I0502 04:13:19.812386 18431 layer_factory.hpp:77] Creating layer pool5
I0502 04:13:19.812392 18431 net.cpp:94] Creating Layer pool5
I0502 04:13:19.812396 18431 net.cpp:435] pool5 <- conv5
I0502 04:13:19.812400 18431 net.cpp:409] pool5 -> pool5
I0502 04:13:19.812434 18431 net.cpp:144] Setting up pool5
I0502 04:13:19.812443 18431 net.cpp:151] Top shape: 20 64 7 7 (62720)
I0502 04:13:19.812445 18431 net.cpp:159] Memory required for data: 26818960
I0502 04:13:19.812449 18431 layer_factory.hpp:77] Creating layer ip1
I0502 04:13:19.812459 18431 net.cpp:94] Creating Layer ip1
I0502 04:13:19.812463 18431 net.cpp:435] ip1 <- pool5
I0502 04:13:19.812469 18431 net.cpp:409] ip1 -> ip1
I0502 04:13:19.817170 18431 net.cpp:144] Setting up ip1
I0502 04:13:19.817180 18431 net.cpp:151] Top shape: 20 64 (1280)
I0502 04:13:19.817183 18431 net.cpp:159] Memory required for data: 26824080
I0502 04:13:19.817189 18431 layer_factory.hpp:77] Creating layer ip2
I0502 04:13:19.817195 18431 net.cpp:94] Creating Layer ip2
I0502 04:13:19.817203 18431 net.cpp:435] ip2 <- ip1
I0502 04:13:19.817209 18431 net.cpp:409] ip2 -> ip2
I0502 04:13:19.817373 18431 net.cpp:144] Setting up ip2
I0502 04:13:19.817379 18431 net.cpp:151] Top shape: 20 64 (1280)
I0502 04:13:19.817383 18431 net.cpp:159] Memory required for data: 26829200
I0502 04:13:19.817387 18431 layer_factory.hpp:77] Creating layer ip3
I0502 04:13:19.817394 18431 net.cpp:94] Creating Layer ip3
I0502 04:13:19.817397 18431 net.cpp:435] ip3 <- ip2
I0502 04:13:19.817401 18431 net.cpp:409] ip3 -> ip3
I0502 04:13:19.817466 18431 net.cpp:144] Setting up ip3
I0502 04:13:19.817476 18431 net.cpp:151] Top shape: 20 1 (20)
I0502 04:13:19.817481 18431 net.cpp:159] Memory required for data: 26829280
I0502 04:13:19.817486 18431 layer_factory.hpp:77] Creating layer loss
I0502 04:13:19.817492 18431 net.cpp:94] Creating Layer loss
I0502 04:13:19.817497 18431 net.cpp:435] loss <- ip3
I0502 04:13:19.817500 18431 net.cpp:435] loss <- label
I0502 04:13:19.817505 18431 net.cpp:409] loss -> loss
I0502 04:13:19.817543 18431 net.cpp:144] Setting up loss
…
