…
I0505 11:56:59.733696  6731 net.cpp:323] The NetState phase (0) differed from the phase (1) specified by a rule in layer intercept
I0505 11:56:59.733711  6731 net.cpp:323] The NetState phase (0) differed from the phase (1) specified by a rule in layer loss
I0505 11:56:59.733778  6731 net.cpp:52] Initializing net from parameters: 
state {
  phase: TRAIN
}
layer {
  name: "parameters"
  type: "HDF5Data"
  top: "data"
  top: "label"
  include {
    phase: TRAIN
  }
  hdf5_data_param {
    source: "/home/purduethu/scratch/radon/d/deng106/CNNStatisticalModel/distributions/input/20_distributions_900_sample_size_train-parameters-path.txt"
    batch_size: 20
  }
}
layer {
  name: "conv1"
  type: "Convolution"
  bottom: "data"
  top: "conv1"
  param {
    lr_mult: 1
  }
  param {
    lr_mult: 2
  }
  convolution_param {
    num_output: 64
    pad: 2
    kernel_size: 5
    stride: 1
    weight_filler {
      type: "gaussian"
      std: 0.0001
    }
    bias_filler {
      type: "constant"
    }
  }
}
layer {
  name: "relu1"
  type: "ReLU"
  bottom: "conv1"
  top: "conv1"
}
layer {
  name: "pool1"
  type: "Pooling"
  bottom: "conv1"
  top: "pool1"
  pooling_param {
    pool: MAX
    kernel_size: 3
    stride: 2
  }
}
layer {
  name: "conv2"
  type: "Convolution"
  bottom: "pool1"
  top: "conv2"
  param {
    lr_mult: 1
  }
  param {
    lr_mult: 2
  }
  convolution_param {
    num_output: 128
    pad: 2
    kernel_size: 5
    stride: 1
    weight_filler {
      type: "gaussian"
      std: 0.01
    }
    bias_filler {
      type: "constant"
    }
  }
}
layer {
  name: "relu2"
  type: "ReLU"
  bottom: "conv2"
  top: "conv2"
}
layer {
  name: "conv3"
  type: "Convolution"
  bottom: "conv2"
  top: "conv3"
  param {
    lr_mult: 1
  }
  param {
    lr_mult: 2
  }
  convolution_param {
    num_output: 128
    pad: 2
    kernel_size: 5
    stride: 1
    weight_filler {
      type: "gaussian"
      std: 0.01
    }
    bias_filler {
      type: "constant"
    }
  }
}
layer {
  name: "relu3"
  type: "ReLU"
  bottom: "conv3"
  top: "conv3"
}
layer {
  name: "pool3"
  type: "Pooling"
  bottom: "conv3"
  top: "pool3"
  pooling_param {
    pool: AVE
    kernel_size: 3
    stride: 2
  }
}
layer {
  name: "ip1"
  type: "InnerProduct"
  bottom: "pool3"
  top: "ip1"
  param {
    lr_mult: 1
  }
  param {
    lr_mult: 2
  }
  inner_product_param {
    num_output: 512
    weight_filler {
      type: "gaussian"
      std: 0.1
    }
    bias_filler {
      type: "constant"
    }
  }
}
layer {
  name: "ip2"
  type: "InnerProduct"
  bottom: "ip1"
  top: "ip2"
  param {
    lr_mult: 1
  }
  param {
    lr_mult: 2
  }
  inner_product_param {
    num_output: 256
    weight_filler {
      type: "gaussian"
      std: 0.1
    }
    bias_filler {
      type: "constant"
    }
  }
}
layer {
  name: "ip3"
  type: "InnerProduct"
  bottom: "ip2"
  top: "ip3"
  param {
    lr_mult: 1
  }
  param {
    lr_mult: 2
  }
  inner_product_param {
    num_output: 1
    weight_filler {
      type: "gaussian"
      std: 0.1
    }
    bias_filler {
      type: "constant"
    }
  }
}
layer {
  name: "loss"
  type: "HuberLoss"
  bottom: "ip3"
  bottom: "label"
  top: "loss"
  include {
    phase: TRAIN
  }
}
I0505 11:56:59.733825  6731 layer_factory.hpp:77] Creating layer parameters
I0505 11:56:59.733841  6731 net.cpp:94] Creating Layer parameters
I0505 11:56:59.733846  6731 net.cpp:409] parameters -> data
I0505 11:56:59.733855  6731 net.cpp:409] parameters -> label
I0505 11:56:59.733862  6731 hdf5_data_layer.cpp:79] Loading list of HDF5 filenames from: /home/purduethu/scratch/radon/d/deng106/CNNStatisticalModel/distributions/input/20_distributions_900_sample_size_train-parameters-path.txt
I0505 11:56:59.733877  6731 hdf5_data_layer.cpp:93] Number of HDF5 files: 1
I0505 11:56:59.734423  6731 hdf5.cpp:32] Datatype class: H5T_FLOAT
I0505 11:57:00.330166  6731 net.cpp:144] Setting up parameters
I0505 11:57:00.330195  6731 net.cpp:151] Top shape: 20 1 30 30 (18000)
I0505 11:57:00.330200  6731 net.cpp:151] Top shape: 20 (20)
I0505 11:57:00.330204  6731 net.cpp:159] Memory required for data: 72080
I0505 11:57:00.330210  6731 layer_factory.hpp:77] Creating layer conv1
I0505 11:57:00.330226  6731 net.cpp:94] Creating Layer conv1
I0505 11:57:00.330231  6731 net.cpp:435] conv1 <- data
I0505 11:57:00.330237  6731 net.cpp:409] conv1 -> conv1
I0505 11:57:00.336745  6731 net.cpp:144] Setting up conv1
I0505 11:57:00.336766  6731 net.cpp:151] Top shape: 20 64 30 30 (1152000)
I0505 11:57:00.336771  6731 net.cpp:159] Memory required for data: 4680080
I0505 11:57:00.336781  6731 layer_factory.hpp:77] Creating layer relu1
I0505 11:57:00.336792  6731 net.cpp:94] Creating Layer relu1
I0505 11:57:00.336796  6731 net.cpp:435] relu1 <- conv1
I0505 11:57:00.336800  6731 net.cpp:396] relu1 -> conv1 (in-place)
I0505 11:57:00.336809  6731 net.cpp:144] Setting up relu1
I0505 11:57:00.336813  6731 net.cpp:151] Top shape: 20 64 30 30 (1152000)
I0505 11:57:00.336817  6731 net.cpp:159] Memory required for data: 9288080
I0505 11:57:00.336819  6731 layer_factory.hpp:77] Creating layer pool1
I0505 11:57:00.336825  6731 net.cpp:94] Creating Layer pool1
I0505 11:57:00.336828  6731 net.cpp:435] pool1 <- conv1
I0505 11:57:00.336833  6731 net.cpp:409] pool1 -> pool1
I0505 11:57:00.336885  6731 net.cpp:144] Setting up pool1
I0505 11:57:00.336892  6731 net.cpp:151] Top shape: 20 64 15 15 (288000)
I0505 11:57:00.336895  6731 net.cpp:159] Memory required for data: 10440080
I0505 11:57:00.336899  6731 layer_factory.hpp:77] Creating layer conv2
I0505 11:57:00.336907  6731 net.cpp:94] Creating Layer conv2
I0505 11:57:00.336911  6731 net.cpp:435] conv2 <- pool1
I0505 11:57:00.336916  6731 net.cpp:409] conv2 -> conv2
I0505 11:57:00.349007  6731 net.cpp:144] Setting up conv2
I0505 11:57:00.349023  6731 net.cpp:151] Top shape: 20 128 15 15 (576000)
I0505 11:57:00.349027  6731 net.cpp:159] Memory required for data: 12744080
I0505 11:57:00.349035  6731 layer_factory.hpp:77] Creating layer relu2
I0505 11:57:00.349041  6731 net.cpp:94] Creating Layer relu2
I0505 11:57:00.349045  6731 net.cpp:435] relu2 <- conv2
I0505 11:57:00.349050  6731 net.cpp:396] relu2 -> conv2 (in-place)
I0505 11:57:00.349056  6731 net.cpp:144] Setting up relu2
I0505 11:57:00.349061  6731 net.cpp:151] Top shape: 20 128 15 15 (576000)
I0505 11:57:00.349063  6731 net.cpp:159] Memory required for data: 15048080
I0505 11:57:00.349067  6731 layer_factory.hpp:77] Creating layer conv3
I0505 11:57:00.349074  6731 net.cpp:94] Creating Layer conv3
I0505 11:57:00.349078  6731 net.cpp:435] conv3 <- conv2
I0505 11:57:00.349082  6731 net.cpp:409] conv3 -> conv3
I0505 11:57:00.370640  6731 net.cpp:144] Setting up conv3
I0505 11:57:00.370656  6731 net.cpp:151] Top shape: 20 128 15 15 (576000)
I0505 11:57:00.370661  6731 net.cpp:159] Memory required for data: 17352080
I0505 11:57:00.370668  6731 layer_factory.hpp:77] Creating layer relu3
I0505 11:57:00.370682  6731 net.cpp:94] Creating Layer relu3
I0505 11:57:00.370687  6731 net.cpp:435] relu3 <- conv3
I0505 11:57:00.370692  6731 net.cpp:396] relu3 -> conv3 (in-place)
I0505 11:57:00.370698  6731 net.cpp:144] Setting up relu3
I0505 11:57:00.370703  6731 net.cpp:151] Top shape: 20 128 15 15 (576000)
I0505 11:57:00.370707  6731 net.cpp:159] Memory required for data: 19656080
I0505 11:57:00.370709  6731 layer_factory.hpp:77] Creating layer pool3
I0505 11:57:00.370715  6731 net.cpp:94] Creating Layer pool3
I0505 11:57:00.370718  6731 net.cpp:435] pool3 <- conv3
I0505 11:57:00.370723  6731 net.cpp:409] pool3 -> pool3
I0505 11:57:00.370761  6731 net.cpp:144] Setting up pool3
I0505 11:57:00.370769  6731 net.cpp:151] Top shape: 20 128 7 7 (125440)
I0505 11:57:00.370771  6731 net.cpp:159] Memory required for data: 20157840
I0505 11:57:00.370775  6731 layer_factory.hpp:77] Creating layer ip1
I0505 11:57:00.370784  6731 net.cpp:94] Creating Layer ip1
I0505 11:57:00.370787  6731 net.cpp:435] ip1 <- pool3
I0505 11:57:00.370792  6731 net.cpp:409] ip1 -> ip1
I0505 11:57:00.450222  6731 net.cpp:144] Setting up ip1
I0505 11:57:00.450256  6731 net.cpp:151] Top shape: 20 512 (10240)
I0505 11:57:00.450260  6731 net.cpp:159] Memory required for data: 20198800
I0505 11:57:00.450268  6731 layer_factory.hpp:77] Creating layer ip2
I0505 11:57:00.450279  6731 net.cpp:94] Creating Layer ip2
I0505 11:57:00.450284  6731 net.cpp:435] ip2 <- ip1
I0505 11:57:00.450290  6731 net.cpp:409] ip2 -> ip2
I0505 11:57:00.453526  6731 net.cpp:144] Setting up ip2
I0505 11:57:00.453538  6731 net.cpp:151] Top shape: 20 256 (5120)
I0505 11:57:00.453542  6731 net.cpp:159] Memory required for data: 20219280
I0505 11:57:00.453550  6731 layer_factory.hpp:77] Creating layer ip3
I0505 11:57:00.453557  6731 net.cpp:94] Creating Layer ip3
I0505 11:57:00.453559  6731 net.cpp:435] ip3 <- ip2
I0505 11:57:00.453564  6731 net.cpp:409] ip3 -> ip3
I0505 11:57:00.453665  6731 net.cpp:144] Setting up ip3
I0505 11:57:00.453670  6731 net.cpp:151] Top shape: 20 1 (20)
I0505 11:57:00.453675  6731 net.cpp:159] Memory required for data: 20219360
I0505 11:57:00.453680  6731 layer_factory.hpp:77] Creating layer loss
I0505 11:57:00.453692  6731 net.cpp:94] Creating Layer loss
I0505 11:57:00.453696  6731 net.cpp:435] loss <- ip3
I0505 11:57:00.453699  6731 net.cpp:435] loss <- label
I0505 11:57:00.453704  6731 net.cpp:409] loss -> loss
I0505 11:57:00.453753  6731 net.cpp:144] Setting up loss
…
I0505 11:57:00.712031  6731 net.cpp:323] The NetState phase (0) differed from the phase (1) specified by a rule in layer intercept
I0505 11:57:00.712044  6731 net.cpp:323] The NetState phase (0) differed from the phase (1) specified by a rule in layer accuracy
I0505 11:57:00.712115  6731 net.cpp:52] Initializing net from parameters: 
state {
  phase: TRAIN
}
layer {
  name: "parameters"
  type: "HDF5Data"
  top: "data"
  top: "label"
  include {
    phase: TRAIN
  }
  hdf5_data_param {
    source: "/home/purduethu/scratch/radon/d/deng106/CNNStatisticalModel/distributions/input/20_distributions_900_sample_size_train-distributions-path.txt"
    batch_size: 20
  }
}
layer {
  name: "conv1"
  type: "Convolution"
  bottom: "data"
  top: "conv1"
  param {
    lr_mult: 1
  }
  param {
    lr_mult: 2
  }
  convolution_param {
    num_output: 64
    pad: 2
    kernel_size: 5
    stride: 1
    weight_filler {
      type: "gaussian"
      std: 0.0001
    }
    bias_filler {
      type: "constant"
    }
  }
}
layer {
  name: "relu1"
  type: "ReLU"
  bottom: "conv1"
  top: "conv1"
}
layer {
  name: "pool1"
  type: "Pooling"
  bottom: "conv1"
  top: "pool1"
  pooling_param {
    pool: MAX
    kernel_size: 3
    stride: 2
  }
}
layer {
  name: "conv2"
  type: "Convolution"
  bottom: "pool1"
  top: "conv2"
  param {
    lr_mult: 1
  }
  param {
    lr_mult: 2
  }
  convolution_param {
    num_output: 128
    pad: 2
    kernel_size: 5
    stride: 1
    weight_filler {
      type: "gaussian"
      std: 0.01
    }
    bias_filler {
      type: "constant"
    }
  }
}
layer {
  name: "relu2"
  type: "ReLU"
  bottom: "conv2"
  top: "conv2"
}
layer {
  name: "conv3"
  type: "Convolution"
  bottom: "conv2"
  top: "conv3"
  param {
    lr_mult: 1
  }
  param {
    lr_mult: 2
  }
  convolution_param {
    num_output: 128
    pad: 2
    kernel_size: 5
    stride: 1
    weight_filler {
      type: "gaussian"
      std: 0.01
    }
    bias_filler {
      type: "constant"
    }
  }
}
layer {
  name: "relu3"
  type: "ReLU"
  bottom: "conv3"
  top: "conv3"
}
layer {
  name: "pool3"
  type: "Pooling"
  bottom: "conv3"
  top: "pool3"
  pooling_param {
    pool: AVE
    kernel_size: 3
    stride: 2
  }
}
layer {
  name: "ip1"
  type: "InnerProduct"
  bottom: "pool3"
  top: "ip1"
  param {
    lr_mult: 1
  }
  param {
    lr_mult: 2
  }
  inner_product_param {
    num_output: 512
    weight_filler {
      type: "gaussian"
      std: 0.1
    }
    bias_filler {
      type: "constant"
    }
  }
}
layer {
  name: "ip2"
  type: "InnerProduct"
  bottom: "ip1"
  top: "ip2"
  param {
    lr_mult: 1
  }
  param {
    lr_mult: 2
  }
  inner_product_param {
    num_output: 256
    weight_filler {
      type: "gaussian"
      std: 0.1
    }
    bias_filler {
      type: "constant"
    }
  }
}
layer {
  name: "ip3"
  type: "InnerProduct"
  bottom: "ip2"
  top: "ip3"
  param {
    lr_mult: 1
  }
  param {
    lr_mult: 2
  }
  inner_product_param {
    num_output: 50
    weight_filler {
      type: "gaussian"
      std: 0.1
    }
    bias_filler {
      type: "constant"
    }
  }
}
layer {
  name: "loss"
  type: "SoftmaxWithLoss"
  bottom: "ip3"
  bottom: "label"
  top: "loss"
}
I0505 11:57:00.712157  6731 layer_factory.hpp:77] Creating layer parameters
I0505 11:57:00.712165  6731 net.cpp:94] Creating Layer parameters
I0505 11:57:00.712170  6731 net.cpp:409] parameters -> data
I0505 11:57:00.712177  6731 net.cpp:409] parameters -> label
I0505 11:57:00.712183  6731 hdf5_data_layer.cpp:79] Loading list of HDF5 filenames from: /home/purduethu/scratch/radon/d/deng106/CNNStatisticalModel/distributions/input/20_distributions_900_sample_size_train-distributions-path.txt
I0505 11:57:00.712198  6731 hdf5_data_layer.cpp:93] Number of HDF5 files: 1
I0505 11:57:01.287032  6731 hdf5.cpp:35] Datatype class: H5T_INTEGER
I0505 11:57:01.288065  6731 net.cpp:144] Setting up parameters
I0505 11:57:01.288080  6731 net.cpp:151] Top shape: 20 1 30 30 (18000)
I0505 11:57:01.288085  6731 net.cpp:151] Top shape: 20 (20)
I0505 11:57:01.288089  6731 net.cpp:159] Memory required for data: 72080
I0505 11:57:01.288094  6731 layer_factory.hpp:77] Creating layer conv1
I0505 11:57:01.288110  6731 net.cpp:94] Creating Layer conv1
I0505 11:57:01.288115  6731 net.cpp:435] conv1 <- data
I0505 11:57:01.288121  6731 net.cpp:409] conv1 -> conv1
I0505 11:57:01.291770  6731 net.cpp:144] Setting up conv1
I0505 11:57:01.291787  6731 net.cpp:151] Top shape: 20 64 30 30 (1152000)
I0505 11:57:01.291791  6731 net.cpp:159] Memory required for data: 4680080
I0505 11:57:01.291802  6731 layer_factory.hpp:77] Creating layer relu1
I0505 11:57:01.291810  6731 net.cpp:94] Creating Layer relu1
I0505 11:57:01.291815  6731 net.cpp:435] relu1 <- conv1
I0505 11:57:01.291818  6731 net.cpp:396] relu1 -> conv1 (in-place)
I0505 11:57:01.291826  6731 net.cpp:144] Setting up relu1
I0505 11:57:01.291831  6731 net.cpp:151] Top shape: 20 64 30 30 (1152000)
I0505 11:57:01.291834  6731 net.cpp:159] Memory required for data: 9288080
I0505 11:57:01.291837  6731 layer_factory.hpp:77] Creating layer pool1
I0505 11:57:01.291842  6731 net.cpp:94] Creating Layer pool1
I0505 11:57:01.291852  6731 net.cpp:435] pool1 <- conv1
I0505 11:57:01.291857  6731 net.cpp:409] pool1 -> pool1
I0505 11:57:01.291910  6731 net.cpp:144] Setting up pool1
I0505 11:57:01.291918  6731 net.cpp:151] Top shape: 20 64 15 15 (288000)
I0505 11:57:01.291920  6731 net.cpp:159] Memory required for data: 10440080
I0505 11:57:01.291924  6731 layer_factory.hpp:77] Creating layer conv2
I0505 11:57:01.291934  6731 net.cpp:94] Creating Layer conv2
I0505 11:57:01.291937  6731 net.cpp:435] conv2 <- pool1
I0505 11:57:01.291942  6731 net.cpp:409] conv2 -> conv2
I0505 11:57:01.305161  6731 net.cpp:144] Setting up conv2
I0505 11:57:01.305176  6731 net.cpp:151] Top shape: 20 128 15 15 (576000)
I0505 11:57:01.305181  6731 net.cpp:159] Memory required for data: 12744080
I0505 11:57:01.305188  6731 layer_factory.hpp:77] Creating layer relu2
I0505 11:57:01.305194  6731 net.cpp:94] Creating Layer relu2
I0505 11:57:01.305198  6731 net.cpp:435] relu2 <- conv2
I0505 11:57:01.305202  6731 net.cpp:396] relu2 -> conv2 (in-place)
I0505 11:57:01.305209  6731 net.cpp:144] Setting up relu2
I0505 11:57:01.305214  6731 net.cpp:151] Top shape: 20 128 15 15 (576000)
I0505 11:57:01.305217  6731 net.cpp:159] Memory required for data: 15048080
I0505 11:57:01.305219  6731 layer_factory.hpp:77] Creating layer conv3
I0505 11:57:01.305227  6731 net.cpp:94] Creating Layer conv3
I0505 11:57:01.305230  6731 net.cpp:435] conv3 <- conv2
I0505 11:57:01.305235  6731 net.cpp:409] conv3 -> conv3
I0505 11:57:01.328109  6731 net.cpp:144] Setting up conv3
I0505 11:57:01.328125  6731 net.cpp:151] Top shape: 20 128 15 15 (576000)
I0505 11:57:01.328130  6731 net.cpp:159] Memory required for data: 17352080
I0505 11:57:01.328138  6731 layer_factory.hpp:77] Creating layer relu3
I0505 11:57:01.328145  6731 net.cpp:94] Creating Layer relu3
I0505 11:57:01.328148  6731 net.cpp:435] relu3 <- conv3
I0505 11:57:01.328152  6731 net.cpp:396] relu3 -> conv3 (in-place)
I0505 11:57:01.328160  6731 net.cpp:144] Setting up relu3
I0505 11:57:01.328164  6731 net.cpp:151] Top shape: 20 128 15 15 (576000)
I0505 11:57:01.328167  6731 net.cpp:159] Memory required for data: 19656080
I0505 11:57:01.328171  6731 layer_factory.hpp:77] Creating layer pool3
I0505 11:57:01.328176  6731 net.cpp:94] Creating Layer pool3
I0505 11:57:01.328179  6731 net.cpp:435] pool3 <- conv3
I0505 11:57:01.328184  6731 net.cpp:409] pool3 -> pool3
I0505 11:57:01.328222  6731 net.cpp:144] Setting up pool3
I0505 11:57:01.328228  6731 net.cpp:151] Top shape: 20 128 7 7 (125440)
I0505 11:57:01.328232  6731 net.cpp:159] Memory required for data: 20157840
I0505 11:57:01.328234  6731 layer_factory.hpp:77] Creating layer ip1
I0505 11:57:01.328243  6731 net.cpp:94] Creating Layer ip1
I0505 11:57:01.328245  6731 net.cpp:435] ip1 <- pool3
I0505 11:57:01.328250  6731 net.cpp:409] ip1 -> ip1
I0505 11:57:01.407613  6731 net.cpp:144] Setting up ip1
I0505 11:57:01.407649  6731 net.cpp:151] Top shape: 20 512 (10240)
I0505 11:57:01.407652  6731 net.cpp:159] Memory required for data: 20198800
I0505 11:57:01.407661  6731 layer_factory.hpp:77] Creating layer ip2
I0505 11:57:01.407671  6731 net.cpp:94] Creating Layer ip2
I0505 11:57:01.407675  6731 net.cpp:435] ip2 <- ip1
I0505 11:57:01.407682  6731 net.cpp:409] ip2 -> ip2
I0505 11:57:01.410933  6731 net.cpp:144] Setting up ip2
I0505 11:57:01.410945  6731 net.cpp:151] Top shape: 20 256 (5120)
I0505 11:57:01.410949  6731 net.cpp:159] Memory required for data: 20219280
I0505 11:57:01.410957  6731 layer_factory.hpp:77] Creating layer ip3
I0505 11:57:01.410964  6731 net.cpp:94] Creating Layer ip3
I0505 11:57:01.410967  6731 net.cpp:435] ip3 <- ip2
I0505 11:57:01.410974  6731 net.cpp:409] ip3 -> ip3
I0505 11:57:01.412365  6731 net.cpp:144] Setting up ip3
I0505 11:57:01.412379  6731 net.cpp:151] Top shape: 20 50 (1000)
I0505 11:57:01.412382  6731 net.cpp:159] Memory required for data: 20223280
I0505 11:57:01.412389  6731 layer_factory.hpp:77] Creating layer loss
I0505 11:57:01.412395  6731 net.cpp:94] Creating Layer loss
I0505 11:57:01.412398  6731 net.cpp:435] loss <- ip3
I0505 11:57:01.412402  6731 net.cpp:435] loss <- label
I0505 11:57:01.412415  6731 net.cpp:409] loss -> loss
I0505 11:57:01.412425  6731 layer_factory.hpp:77] Creating layer loss
…
I0505 11:57:01.412876  6731 solver.cpp:181] Creating test net (#0) specified by net file: ./protocol/dis_20_900_dimension.protocol_distribution
I0505 11:57:01.412900  6731 net.cpp:323] The NetState phase (1) differed from the phase (0) specified by a rule in layer parameters
I0505 11:57:01.412983  6731 net.cpp:52] Initializing net from parameters: 
state {
  phase: TEST
}
layer {
  name: "intercept"
  type: "HDF5Data"
  top: "data"
  top: "label"
  include {
    phase: TEST
  }
  hdf5_data_param {
    source: "/home/purduethu/scratch/radon/d/deng106/CNNStatisticalModel/distributions/input/20_distributions_900_sample_size_test-distributions-path.txt"
    batch_size: 20
  }
}
layer {
  name: "conv1"
  type: "Convolution"
  bottom: "data"
  top: "conv1"
  param {
    lr_mult: 1
  }
  param {
    lr_mult: 2
  }
  convolution_param {
    num_output: 64
    pad: 2
    kernel_size: 5
    stride: 1
    weight_filler {
      type: "gaussian"
      std: 0.0001
    }
    bias_filler {
      type: "constant"
    }
  }
}
layer {
  name: "relu1"
  type: "ReLU"
  bottom: "conv1"
  top: "conv1"
}
layer {
  name: "pool1"
  type: "Pooling"
  bottom: "conv1"
  top: "pool1"
  pooling_param {
    pool: MAX
    kernel_size: 3
    stride: 2
  }
}
layer {
  name: "conv2"
  type: "Convolution"
  bottom: "pool1"
  top: "conv2"
  param {
    lr_mult: 1
  }
  param {
    lr_mult: 2
  }
  convolution_param {
    num_output: 128
    pad: 2
    kernel_size: 5
    stride: 1
    weight_filler {
      type: "gaussian"
      std: 0.01
    }
    bias_filler {
      type: "constant"
    }
  }
}
layer {
  name: "relu2"
  type: "ReLU"
  bottom: "conv2"
  top: "conv2"
}
layer {
  name: "conv3"
  type: "Convolution"
  bottom: "conv2"
  top: "conv3"
  param {
    lr_mult: 1
  }
  param {
    lr_mult: 2
  }
  convolution_param {
    num_output: 128
    pad: 2
    kernel_size: 5
    stride: 1
    weight_filler {
      type: "gaussian"
      std: 0.01
    }
    bias_filler {
      type: "constant"
    }
  }
}
layer {
  name: "relu3"
  type: "ReLU"
  bottom: "conv3"
  top: "conv3"
}
layer {
  name: "pool3"
  type: "Pooling"
  bottom: "conv3"
  top: "pool3"
  pooling_param {
    pool: AVE
    kernel_size: 3
    stride: 2
  }
}
layer {
  name: "ip1"
  type: "InnerProduct"
  bottom: "pool3"
  top: "ip1"
  param {
    lr_mult: 1
  }
  param {
    lr_mult: 2
  }
  inner_product_param {
    num_output: 512
    weight_filler {
      type: "gaussian"
      std: 0.1
    }
    bias_filler {
      type: "constant"
    }
  }
}
layer {
  name: "ip2"
  type: "InnerProduct"
  bottom: "ip1"
  top: "ip2"
  param {
    lr_mult: 1
  }
  param {
    lr_mult: 2
  }
  inner_product_param {
    num_output: 256
    weight_filler {
      type: "gaussian"
      std: 0.1
    }
    bias_filler {
      type: "constant"
    }
  }
}
layer {
  name: "ip3"
  type: "InnerProduct"
  bottom: "ip2"
  top: "ip3"
  param {
    lr_mult: 1
  }
  param {
    lr_mult: 2
  }
  inner_product_param {
    num_output: 50
    weight_filler {
      type: "gaussian"
      std: 0.1
    }
    bias_filler {
      type: "constant"
    }
  }
}
layer {
  name: "accuracy"
  type: "Accuracy"
  bottom: "ip3"
  bottom: "label"
  top: "accuracy"
  include {
    phase: TEST
  }
}
layer {
  name: "loss"
  type: "SoftmaxWithLoss"
  bottom: "ip3"
  bottom: "label"
  top: "loss"
}
I0505 11:57:01.413039  6731 layer_factory.hpp:77] Creating layer intercept
I0505 11:57:01.413048  6731 net.cpp:94] Creating Layer intercept
I0505 11:57:01.413053  6731 net.cpp:409] intercept -> data
I0505 11:57:01.413059  6731 net.cpp:409] intercept -> label
I0505 11:57:01.413065  6731 hdf5_data_layer.cpp:79] Loading list of HDF5 filenames from: /home/purduethu/scratch/radon/d/deng106/CNNStatisticalModel/distributions/input/20_distributions_900_sample_size_test-distributions-path.txt
I0505 11:57:01.413085  6731 hdf5_data_layer.cpp:93] Number of HDF5 files: 1
I0505 11:57:01.557276  6731 net.cpp:144] Setting up intercept
I0505 11:57:01.557308  6731 net.cpp:151] Top shape: 20 1 30 30 (18000)
I0505 11:57:01.557314  6731 net.cpp:151] Top shape: 20 (20)
I0505 11:57:01.557317  6731 net.cpp:159] Memory required for data: 72080
I0505 11:57:01.557323  6731 layer_factory.hpp:77] Creating layer label_intercept_1_split
I0505 11:57:01.557343  6731 net.cpp:94] Creating Layer label_intercept_1_split
I0505 11:57:01.557348  6731 net.cpp:435] label_intercept_1_split <- label
I0505 11:57:01.557354  6731 net.cpp:409] label_intercept_1_split -> label_intercept_1_split_0
I0505 11:57:01.557363  6731 net.cpp:409] label_intercept_1_split -> label_intercept_1_split_1
I0505 11:57:01.557402  6731 net.cpp:144] Setting up label_intercept_1_split
I0505 11:57:01.557410  6731 net.cpp:151] Top shape: 20 (20)
I0505 11:57:01.557413  6731 net.cpp:151] Top shape: 20 (20)
I0505 11:57:01.557416  6731 net.cpp:159] Memory required for data: 72240
I0505 11:57:01.557420  6731 layer_factory.hpp:77] Creating layer conv1
I0505 11:57:01.557430  6731 net.cpp:94] Creating Layer conv1
I0505 11:57:01.557435  6731 net.cpp:435] conv1 <- data
I0505 11:57:01.557440  6731 net.cpp:409] conv1 -> conv1
I0505 11:57:01.558966  6731 net.cpp:144] Setting up conv1
I0505 11:57:01.558980  6731 net.cpp:151] Top shape: 20 64 30 30 (1152000)
I0505 11:57:01.558984  6731 net.cpp:159] Memory required for data: 4680240
I0505 11:57:01.558993  6731 layer_factory.hpp:77] Creating layer relu1
I0505 11:57:01.559000  6731 net.cpp:94] Creating Layer relu1
I0505 11:57:01.559003  6731 net.cpp:435] relu1 <- conv1
I0505 11:57:01.559008  6731 net.cpp:396] relu1 -> conv1 (in-place)
I0505 11:57:01.559015  6731 net.cpp:144] Setting up relu1
I0505 11:57:01.559020  6731 net.cpp:151] Top shape: 20 64 30 30 (1152000)
I0505 11:57:01.559023  6731 net.cpp:159] Memory required for data: 9288240
I0505 11:57:01.559026  6731 layer_factory.hpp:77] Creating layer pool1
I0505 11:57:01.559032  6731 net.cpp:94] Creating Layer pool1
I0505 11:57:01.559036  6731 net.cpp:435] pool1 <- conv1
I0505 11:57:01.559041  6731 net.cpp:409] pool1 -> pool1
I0505 11:57:01.559089  6731 net.cpp:144] Setting up pool1
I0505 11:57:01.559096  6731 net.cpp:151] Top shape: 20 64 15 15 (288000)
I0505 11:57:01.559099  6731 net.cpp:159] Memory required for data: 10440240
I0505 11:57:01.559103  6731 layer_factory.hpp:77] Creating layer conv2
I0505 11:57:01.559111  6731 net.cpp:94] Creating Layer conv2
I0505 11:57:01.559114  6731 net.cpp:435] conv2 <- pool1
I0505 11:57:01.559119  6731 net.cpp:409] conv2 -> conv2
I0505 11:57:01.567406  6731 net.cpp:144] Setting up conv2
I0505 11:57:01.567423  6731 net.cpp:151] Top shape: 20 128 15 15 (576000)
I0505 11:57:01.567427  6731 net.cpp:159] Memory required for data: 12744240
I0505 11:57:01.567441  6731 layer_factory.hpp:77] Creating layer relu2
I0505 11:57:01.567450  6731 net.cpp:94] Creating Layer relu2
I0505 11:57:01.567452  6731 net.cpp:435] relu2 <- conv2
I0505 11:57:01.567457  6731 net.cpp:396] relu2 -> conv2 (in-place)
I0505 11:57:01.567464  6731 net.cpp:144] Setting up relu2
I0505 11:57:01.567468  6731 net.cpp:151] Top shape: 20 128 15 15 (576000)
I0505 11:57:01.567471  6731 net.cpp:159] Memory required for data: 15048240
I0505 11:57:01.567474  6731 layer_factory.hpp:77] Creating layer conv3
I0505 11:57:01.567482  6731 net.cpp:94] Creating Layer conv3
I0505 11:57:01.567486  6731 net.cpp:435] conv3 <- conv2
I0505 11:57:01.567490  6731 net.cpp:409] conv3 -> conv3
I0505 11:57:01.583153  6731 net.cpp:144] Setting up conv3
I0505 11:57:01.583168  6731 net.cpp:151] Top shape: 20 128 15 15 (576000)
I0505 11:57:01.583171  6731 net.cpp:159] Memory required for data: 17352240
I0505 11:57:01.583180  6731 layer_factory.hpp:77] Creating layer relu3
I0505 11:57:01.583187  6731 net.cpp:94] Creating Layer relu3
I0505 11:57:01.583191  6731 net.cpp:435] relu3 <- conv3
I0505 11:57:01.583196  6731 net.cpp:396] relu3 -> conv3 (in-place)
I0505 11:57:01.583204  6731 net.cpp:144] Setting up relu3
I0505 11:57:01.583207  6731 net.cpp:151] Top shape: 20 128 15 15 (576000)
I0505 11:57:01.583210  6731 net.cpp:159] Memory required for data: 19656240
I0505 11:57:01.583214  6731 layer_factory.hpp:77] Creating layer pool3
I0505 11:57:01.583220  6731 net.cpp:94] Creating Layer pool3
I0505 11:57:01.583222  6731 net.cpp:435] pool3 <- conv3
I0505 11:57:01.583226  6731 net.cpp:409] pool3 -> pool3
I0505 11:57:01.583266  6731 net.cpp:144] Setting up pool3
I0505 11:57:01.583272  6731 net.cpp:151] Top shape: 20 128 7 7 (125440)
I0505 11:57:01.583276  6731 net.cpp:159] Memory required for data: 20158000
I0505 11:57:01.583278  6731 layer_factory.hpp:77] Creating layer ip1
I0505 11:57:01.583286  6731 net.cpp:94] Creating Layer ip1
I0505 11:57:01.583288  6731 net.cpp:435] ip1 <- pool3
I0505 11:57:01.583292  6731 net.cpp:409] ip1 -> ip1
I0505 11:57:01.662837  6731 net.cpp:144] Setting up ip1
I0505 11:57:01.662871  6731 net.cpp:151] Top shape: 20 512 (10240)
I0505 11:57:01.662876  6731 net.cpp:159] Memory required for data: 20198960
I0505 11:57:01.662884  6731 layer_factory.hpp:77] Creating layer ip2
I0505 11:57:01.662894  6731 net.cpp:94] Creating Layer ip2
I0505 11:57:01.662899  6731 net.cpp:435] ip2 <- ip1
I0505 11:57:01.662906  6731 net.cpp:409] ip2 -> ip2
I0505 11:57:01.666168  6731 net.cpp:144] Setting up ip2
I0505 11:57:01.666180  6731 net.cpp:151] Top shape: 20 256 (5120)
I0505 11:57:01.666184  6731 net.cpp:159] Memory required for data: 20219440
I0505 11:57:01.666193  6731 layer_factory.hpp:77] Creating layer ip3
I0505 11:57:01.666200  6731 net.cpp:94] Creating Layer ip3
I0505 11:57:01.666203  6731 net.cpp:435] ip3 <- ip2
I0505 11:57:01.666208  6731 net.cpp:409] ip3 -> ip3
I0505 11:57:01.666645  6731 net.cpp:144] Setting up ip3
I0505 11:57:01.666651  6731 net.cpp:151] Top shape: 20 50 (1000)
I0505 11:57:01.666654  6731 net.cpp:159] Memory required for data: 20223440
I0505 11:57:01.666659  6731 layer_factory.hpp:77] Creating layer ip3_ip3_0_split
I0505 11:57:01.666666  6731 net.cpp:94] Creating Layer ip3_ip3_0_split
I0505 11:57:01.666668  6731 net.cpp:435] ip3_ip3_0_split <- ip3
I0505 11:57:01.666673  6731 net.cpp:409] ip3_ip3_0_split -> ip3_ip3_0_split_0
I0505 11:57:01.666678  6731 net.cpp:409] ip3_ip3_0_split -> ip3_ip3_0_split_1
I0505 11:57:01.666718  6731 net.cpp:144] Setting up ip3_ip3_0_split
I0505 11:57:01.666724  6731 net.cpp:151] Top shape: 20 50 (1000)
I0505 11:57:01.666728  6731 net.cpp:151] Top shape: 20 50 (1000)
I0505 11:57:01.666730  6731 net.cpp:159] Memory required for data: 20231440
I0505 11:57:01.666733  6731 layer_factory.hpp:77] Creating layer accuracy
I0505 11:57:01.666739  6731 net.cpp:94] Creating Layer accuracy
I0505 11:57:01.666743  6731 net.cpp:435] accuracy <- ip3_ip3_0_split_0
I0505 11:57:01.666746  6731 net.cpp:435] accuracy <- label_intercept_1_split_0
I0505 11:57:01.666750  6731 net.cpp:409] accuracy -> accuracy
…
