…
I0507 11:43:22.065279  1411 net.cpp:323] The NetState phase (0) differed from the phase (1) specified by a rule in layer intercept
I0507 11:43:22.065294  1411 net.cpp:323] The NetState phase (0) differed from the phase (1) specified by a rule in layer loss
I0507 11:43:22.065371  1411 net.cpp:52] Initializing net from parameters: 
state {
  phase: TRAIN
}
layer {
  name: "parameters"
  type: "HDF5Data"
  top: "data"
  top: "label"
  include {
    phase: TRAIN
  }
  hdf5_data_param {
    source: "/home/purduethu/scratch/radon/d/deng106/CNNStatisticalModel/distributions/input/20_distributions_900_sample_size_train-parameters-path.txt"
    batch_size: 20
  }
}
layer {
  name: "conv1"
  type: "Convolution"
  bottom: "data"
  top: "conv1"
  param {
    lr_mult: 1
  }
  param {
    lr_mult: 2
  }
  convolution_param {
    num_output: 64
    pad: 2
    kernel_size: 5
    stride: 1
    weight_filler {
      type: "gaussian"
      std: 0.0001
    }
    bias_filler {
      type: "constant"
    }
  }
}
layer {
  name: "relu1"
  type: "ReLU"
  bottom: "conv1"
  top: "conv1"
}
layer {
  name: "conv2"
  type: "Convolution"
  bottom: "conv1"
  top: "conv2"
  param {
    lr_mult: 1
  }
  param {
    lr_mult: 2
  }
  convolution_param {
    num_output: 64
    pad: 2
    kernel_size: 5
    stride: 1
    weight_filler {
      type: "gaussian"
      std: 0.01
    }
    bias_filler {
      type: "constant"
    }
  }
}
layer {
  name: "relu2"
  type: "ReLU"
  bottom: "conv2"
  top: "conv2"
}
layer {
  name: "pool2"
  type: "Pooling"
  bottom: "conv2"
  top: "pool2"
  pooling_param {
    pool: MAX
    kernel_size: 3
    stride: 2
  }
}
layer {
  name: "conv3"
  type: "Convolution"
  bottom: "pool2"
  top: "conv3"
  param {
    lr_mult: 1
  }
  param {
    lr_mult: 2
  }
  convolution_param {
    num_output: 64
    pad: 2
    kernel_size: 5
    stride: 1
    weight_filler {
      type: "gaussian"
      std: 0.01
    }
    bias_filler {
      type: "constant"
    }
  }
}
layer {
  name: "relu3"
  type: "ReLU"
  bottom: "conv3"
  top: "conv3"
}
layer {
  name: "conv4"
  type: "Convolution"
  bottom: "conv3"
  top: "conv4"
  param {
    lr_mult: 1
  }
  param {
    lr_mult: 2
  }
  convolution_param {
    num_output: 64
    pad: 2
    kernel_size: 5
    stride: 1
    weight_filler {
      type: "gaussian"
      std: 0.01
    }
    bias_filler {
      type: "constant"
    }
  }
}
layer {
  name: "relu4"
  type: "ReLU"
  bottom: "conv4"
  top: "conv4"
}
layer {
  name: "conv5"
  type: "Convolution"
  bottom: "conv4"
  top: "conv5"
  param {
    lr_mult: 1
  }
  param {
    lr_mult: 2
  }
  convolution_param {
    num_output: 64
    pad: 2
    kernel_size: 5
    stride: 1
    weight_filler {
      type: "gaussian"
      std: 0.01
    }
    bias_filler {
      type: "constant"
    }
  }
}
layer {
  name: "relu5"
  type: "ReLU"
  bottom: "conv5"
  top: "conv5"
}
layer {
  name: "pool5"
  type: "Pooling"
  bottom: "conv5"
  top: "pool5"
  pooling_param {
    pool: AVE
    kernel_size: 3
    stride: 2
  }
}
layer {
  name: "ip1"
  type: "InnerProduct"
  bottom: "pool5"
  top: "ip1"
  param {
    lr_mult: 1
  }
  param {
    lr_mult: 2
  }
  inner_product_param {
    num_output: 64
    weight_filler {
      type: "gaussian"
      std: 0.1
    }
    bias_filler {
      type: "constant"
    }
  }
}
layer {
  name: "ip2"
  type: "InnerProduct"
  bottom: "ip1"
  top: "ip2"
  param {
    lr_mult: 1
  }
  param {
    lr_mult: 2
  }
  inner_product_param {
    num_output: 64
    weight_filler {
      type: "gaussian"
      std: 0.1
    }
    bias_filler {
      type: "constant"
    }
  }
}
layer {
  name: "ip3"
  type: "InnerProduct"
  bottom: "ip2"
  top: "ip3"
  param {
    lr_mult: 1
  }
  param {
    lr_mult: 2
  }
  inner_product_param {
    num_output: 1
    weight_filler {
      type: "gaussian"
      std: 0.1
    }
    bias_filler {
      type: "constant"
    }
  }
}
layer {
  name: "loss"
  type: "HuberLoss"
  bottom: "ip3"
  bottom: "label"
  top: "loss"
  include {
    phase: TRAIN
  }
}
I0507 11:43:22.065423  1411 layer_factory.hpp:77] Creating layer parameters
I0507 11:43:22.065436  1411 net.cpp:94] Creating Layer parameters
I0507 11:43:22.065440  1411 net.cpp:409] parameters -> data
I0507 11:43:22.065448  1411 net.cpp:409] parameters -> label
I0507 11:43:22.065457  1411 hdf5_data_layer.cpp:79] Loading list of HDF5 filenames from: /home/purduethu/scratch/radon/d/deng106/CNNStatisticalModel/distributions/input/20_distributions_900_sample_size_train-parameters-path.txt
I0507 11:43:22.065475  1411 hdf5_data_layer.cpp:93] Number of HDF5 files: 1
I0507 11:43:22.066020  1411 hdf5.cpp:32] Datatype class: H5T_FLOAT
I0507 11:43:22.639847  1411 net.cpp:144] Setting up parameters
I0507 11:43:22.639876  1411 net.cpp:151] Top shape: 20 1 30 30 (18000)
I0507 11:43:22.639881  1411 net.cpp:151] Top shape: 20 (20)
I0507 11:43:22.639884  1411 net.cpp:159] Memory required for data: 72080
I0507 11:43:22.639891  1411 layer_factory.hpp:77] Creating layer conv1
I0507 11:43:22.639911  1411 net.cpp:94] Creating Layer conv1
I0507 11:43:22.639915  1411 net.cpp:435] conv1 <- data
I0507 11:43:22.639922  1411 net.cpp:409] conv1 -> conv1
I0507 11:43:22.646335  1411 net.cpp:144] Setting up conv1
I0507 11:43:22.646373  1411 net.cpp:151] Top shape: 20 64 30 30 (1152000)
I0507 11:43:22.646384  1411 net.cpp:159] Memory required for data: 4680080
I0507 11:43:22.646409  1411 layer_factory.hpp:77] Creating layer relu1
I0507 11:43:22.646426  1411 net.cpp:94] Creating Layer relu1
I0507 11:43:22.646436  1411 net.cpp:435] relu1 <- conv1
I0507 11:43:22.646450  1411 net.cpp:396] relu1 -> conv1 (in-place)
I0507 11:43:22.646476  1411 net.cpp:144] Setting up relu1
I0507 11:43:22.646488  1411 net.cpp:151] Top shape: 20 64 30 30 (1152000)
I0507 11:43:22.646497  1411 net.cpp:159] Memory required for data: 9288080
I0507 11:43:22.646505  1411 layer_factory.hpp:77] Creating layer conv2
I0507 11:43:22.646525  1411 net.cpp:94] Creating Layer conv2
I0507 11:43:22.646534  1411 net.cpp:435] conv2 <- conv1
I0507 11:43:22.646548  1411 net.cpp:409] conv2 -> conv2
I0507 11:43:22.661303  1411 net.cpp:144] Setting up conv2
I0507 11:43:22.661317  1411 net.cpp:151] Top shape: 20 64 30 30 (1152000)
I0507 11:43:22.661321  1411 net.cpp:159] Memory required for data: 13896080
I0507 11:43:22.661329  1411 layer_factory.hpp:77] Creating layer relu2
I0507 11:43:22.661336  1411 net.cpp:94] Creating Layer relu2
I0507 11:43:22.661340  1411 net.cpp:435] relu2 <- conv2
I0507 11:43:22.661345  1411 net.cpp:396] relu2 -> conv2 (in-place)
I0507 11:43:22.661351  1411 net.cpp:144] Setting up relu2
I0507 11:43:22.661355  1411 net.cpp:151] Top shape: 20 64 30 30 (1152000)
I0507 11:43:22.661358  1411 net.cpp:159] Memory required for data: 18504080
I0507 11:43:22.661361  1411 layer_factory.hpp:77] Creating layer pool2
I0507 11:43:22.661373  1411 net.cpp:94] Creating Layer pool2
I0507 11:43:22.661377  1411 net.cpp:435] pool2 <- conv2
I0507 11:43:22.661381  1411 net.cpp:409] pool2 -> pool2
I0507 11:43:22.661433  1411 net.cpp:144] Setting up pool2
I0507 11:43:22.661442  1411 net.cpp:151] Top shape: 20 64 15 15 (288000)
I0507 11:43:22.661444  1411 net.cpp:159] Memory required for data: 19656080
I0507 11:43:22.661448  1411 layer_factory.hpp:77] Creating layer conv3
I0507 11:43:22.661455  1411 net.cpp:94] Creating Layer conv3
I0507 11:43:22.661458  1411 net.cpp:435] conv3 <- pool2
I0507 11:43:22.661463  1411 net.cpp:409] conv3 -> conv3
I0507 11:43:22.669869  1411 net.cpp:144] Setting up conv3
I0507 11:43:22.669884  1411 net.cpp:151] Top shape: 20 64 15 15 (288000)
I0507 11:43:22.669888  1411 net.cpp:159] Memory required for data: 20808080
I0507 11:43:22.669896  1411 layer_factory.hpp:77] Creating layer relu3
I0507 11:43:22.669903  1411 net.cpp:94] Creating Layer relu3
I0507 11:43:22.669906  1411 net.cpp:435] relu3 <- conv3
I0507 11:43:22.669910  1411 net.cpp:396] relu3 -> conv3 (in-place)
I0507 11:43:22.669917  1411 net.cpp:144] Setting up relu3
I0507 11:43:22.669921  1411 net.cpp:151] Top shape: 20 64 15 15 (288000)
I0507 11:43:22.669924  1411 net.cpp:159] Memory required for data: 21960080
I0507 11:43:22.669927  1411 layer_factory.hpp:77] Creating layer conv4
I0507 11:43:22.669935  1411 net.cpp:94] Creating Layer conv4
I0507 11:43:22.669939  1411 net.cpp:435] conv4 <- conv3
I0507 11:43:22.669945  1411 net.cpp:409] conv4 -> conv4
I0507 11:43:22.677407  1411 net.cpp:144] Setting up conv4
I0507 11:43:22.677422  1411 net.cpp:151] Top shape: 20 64 15 15 (288000)
I0507 11:43:22.677425  1411 net.cpp:159] Memory required for data: 23112080
I0507 11:43:22.677431  1411 layer_factory.hpp:77] Creating layer relu4
I0507 11:43:22.677438  1411 net.cpp:94] Creating Layer relu4
I0507 11:43:22.677441  1411 net.cpp:435] relu4 <- conv4
I0507 11:43:22.677445  1411 net.cpp:396] relu4 -> conv4 (in-place)
I0507 11:43:22.677453  1411 net.cpp:144] Setting up relu4
I0507 11:43:22.677456  1411 net.cpp:151] Top shape: 20 64 15 15 (288000)
I0507 11:43:22.677459  1411 net.cpp:159] Memory required for data: 24264080
I0507 11:43:22.677462  1411 layer_factory.hpp:77] Creating layer conv5
I0507 11:43:22.677469  1411 net.cpp:94] Creating Layer conv5
I0507 11:43:22.677474  1411 net.cpp:435] conv5 <- conv4
I0507 11:43:22.677477  1411 net.cpp:409] conv5 -> conv5
I0507 11:43:22.685679  1411 net.cpp:144] Setting up conv5
I0507 11:43:22.685694  1411 net.cpp:151] Top shape: 20 64 15 15 (288000)
I0507 11:43:22.685698  1411 net.cpp:159] Memory required for data: 25416080
I0507 11:43:22.685708  1411 layer_factory.hpp:77] Creating layer relu5
I0507 11:43:22.685714  1411 net.cpp:94] Creating Layer relu5
I0507 11:43:22.685716  1411 net.cpp:435] relu5 <- conv5
I0507 11:43:22.685720  1411 net.cpp:396] relu5 -> conv5 (in-place)
I0507 11:43:22.685727  1411 net.cpp:144] Setting up relu5
I0507 11:43:22.685731  1411 net.cpp:151] Top shape: 20 64 15 15 (288000)
I0507 11:43:22.685734  1411 net.cpp:159] Memory required for data: 26568080
I0507 11:43:22.685737  1411 layer_factory.hpp:77] Creating layer pool5
I0507 11:43:22.685742  1411 net.cpp:94] Creating Layer pool5
I0507 11:43:22.685745  1411 net.cpp:435] pool5 <- conv5
I0507 11:43:22.685750  1411 net.cpp:409] pool5 -> pool5
I0507 11:43:22.685787  1411 net.cpp:144] Setting up pool5
I0507 11:43:22.685794  1411 net.cpp:151] Top shape: 20 64 7 7 (62720)
I0507 11:43:22.685797  1411 net.cpp:159] Memory required for data: 26818960
I0507 11:43:22.685801  1411 layer_factory.hpp:77] Creating layer ip1
I0507 11:43:22.685809  1411 net.cpp:94] Creating Layer ip1
I0507 11:43:22.685813  1411 net.cpp:435] ip1 <- pool5
I0507 11:43:22.685817  1411 net.cpp:409] ip1 -> ip1
I0507 11:43:22.690665  1411 net.cpp:144] Setting up ip1
I0507 11:43:22.690673  1411 net.cpp:151] Top shape: 20 64 (1280)
I0507 11:43:22.690676  1411 net.cpp:159] Memory required for data: 26824080
I0507 11:43:22.690682  1411 layer_factory.hpp:77] Creating layer ip2
I0507 11:43:22.690687  1411 net.cpp:94] Creating Layer ip2
I0507 11:43:22.690695  1411 net.cpp:435] ip2 <- ip1
I0507 11:43:22.690701  1411 net.cpp:409] ip2 -> ip2
I0507 11:43:22.690907  1411 net.cpp:144] Setting up ip2
I0507 11:43:22.690914  1411 net.cpp:151] Top shape: 20 64 (1280)
I0507 11:43:22.690917  1411 net.cpp:159] Memory required for data: 26829200
I0507 11:43:22.690922  1411 layer_factory.hpp:77] Creating layer ip3
I0507 11:43:22.690928  1411 net.cpp:94] Creating Layer ip3
I0507 11:43:22.690932  1411 net.cpp:435] ip3 <- ip2
I0507 11:43:22.690935  1411 net.cpp:409] ip3 -> ip3
I0507 11:43:22.691035  1411 net.cpp:144] Setting up ip3
I0507 11:43:22.691041  1411 net.cpp:151] Top shape: 20 1 (20)
I0507 11:43:22.691045  1411 net.cpp:159] Memory required for data: 26829280
I0507 11:43:22.691049  1411 layer_factory.hpp:77] Creating layer loss
I0507 11:43:22.691056  1411 net.cpp:94] Creating Layer loss
I0507 11:43:22.691058  1411 net.cpp:435] loss <- ip3
I0507 11:43:22.691062  1411 net.cpp:435] loss <- label
I0507 11:43:22.691066  1411 net.cpp:409] loss -> loss
I0507 11:43:22.691114  1411 net.cpp:144] Setting up loss
…
I0507 11:43:22.870487  1411 net.cpp:323] The NetState phase (0) differed from the phase (1) specified by a rule in layer intercept
I0507 11:43:22.870502  1411 net.cpp:323] The NetState phase (0) differed from the phase (1) specified by a rule in layer accuracy
I0507 11:43:22.870587  1411 net.cpp:52] Initializing net from parameters: 
state {
  phase: TRAIN
}
layer {
  name: "parameters"
  type: "HDF5Data"
  top: "data"
  top: "label"
  include {
    phase: TRAIN
  }
  hdf5_data_param {
    source: "/home/purduethu/scratch/radon/d/deng106/CNNStatisticalModel/distributions/input/20_distributions_900_sample_size_train-distributions-path.txt"
    batch_size: 20
  }
}
layer {
  name: "conv1"
  type: "Convolution"
  bottom: "data"
  top: "conv1"
  param {
    lr_mult: 1
  }
  param {
    lr_mult: 2
  }
  convolution_param {
    num_output: 64
    pad: 2
    kernel_size: 5
    stride: 1
    weight_filler {
      type: "gaussian"
      std: 0.0001
    }
    bias_filler {
      type: "constant"
    }
  }
}
layer {
  name: "relu1"
  type: "ReLU"
  bottom: "conv1"
  top: "conv1"
}
layer {
  name: "conv2"
  type: "Convolution"
  bottom: "conv1"
  top: "conv2"
  param {
    lr_mult: 1
  }
  param {
    lr_mult: 2
  }
  convolution_param {
    num_output: 64
    pad: 2
    kernel_size: 5
    stride: 1
    weight_filler {
      type: "gaussian"
      std: 0.01
    }
    bias_filler {
      type: "constant"
    }
  }
}
layer {
  name: "relu2"
  type: "ReLU"
  bottom: "conv2"
  top: "conv2"
}
layer {
  name: "pool2"
  type: "Pooling"
  bottom: "conv2"
  top: "pool2"
  pooling_param {
    pool: MAX
    kernel_size: 3
    stride: 2
  }
}
layer {
  name: "conv3"
  type: "Convolution"
  bottom: "pool2"
  top: "conv3"
  param {
    lr_mult: 1
  }
  param {
    lr_mult: 2
  }
  convolution_param {
    num_output: 64
    pad: 2
    kernel_size: 5
    stride: 1
    weight_filler {
      type: "gaussian"
      std: 0.01
    }
    bias_filler {
      type: "constant"
    }
  }
}
layer {
  name: "relu3"
  type: "ReLU"
  bottom: "conv3"
  top: "conv3"
}
layer {
  name: "conv4"
  type: "Convolution"
  bottom: "conv3"
  top: "conv4"
  param {
    lr_mult: 1
  }
  param {
    lr_mult: 2
  }
  convolution_param {
    num_output: 64
    pad: 2
    kernel_size: 5
    stride: 1
    weight_filler {
      type: "gaussian"
      std: 0.01
    }
    bias_filler {
      type: "constant"
    }
  }
}
layer {
  name: "relu4"
  type: "ReLU"
  bottom: "conv4"
  top: "conv4"
}
layer {
  name: "conv5"
  type: "Convolution"
  bottom: "conv4"
  top: "conv5"
  param {
    lr_mult: 1
  }
  param {
    lr_mult: 2
  }
  convolution_param {
    num_output: 64
    pad: 2
    kernel_size: 5
    stride: 1
    weight_filler {
      type: "gaussian"
      std: 0.01
    }
    bias_filler {
      type: "constant"
    }
  }
}
layer {
  name: "relu5"
  type: "ReLU"
  bottom: "conv5"
  top: "conv5"
}
layer {
  name: "pool5"
  type: "Pooling"
  bottom: "conv5"
  top: "pool5"
  pooling_param {
    pool: AVE
    kernel_size: 3
    stride: 2
  }
}
layer {
  name: "ip1"
  type: "InnerProduct"
  bottom: "pool5"
  top: "ip1"
  param {
    lr_mult: 1
  }
  param {
    lr_mult: 2
  }
  inner_product_param {
    num_output: 64
    weight_filler {
      type: "gaussian"
      std: 0.1
    }
    bias_filler {
      type: "constant"
    }
  }
}
layer {
  name: "ip2"
  type: "InnerProduct"
  bottom: "ip1"
  top: "ip2"
  param {
    lr_mult: 1
  }
  param {
    lr_mult: 2
  }
  inner_product_param {
    num_output: 64
    weight_filler {
      type: "gaussian"
      std: 0.1
    }
    bias_filler {
      type: "constant"
    }
  }
}
layer {
  name: "ip3"
  type: "InnerProduct"
  bottom: "ip2"
  top: "ip3"
  param {
    lr_mult: 1
  }
  param {
    lr_mult: 2
  }
  inner_product_param {
    num_output: 50
    weight_filler {
      type: "gaussian"
      std: 0.1
    }
    bias_filler {
      type: "constant"
    }
  }
}
layer {
  name: "loss"
  type: "SoftmaxWithLoss"
  bottom: "ip3"
  bottom: "label"
  top: "loss"
}
I0507 11:43:22.870637  1411 layer_factory.hpp:77] Creating layer parameters
I0507 11:43:22.870645  1411 net.cpp:94] Creating Layer parameters
I0507 11:43:22.870649  1411 net.cpp:409] parameters -> data
I0507 11:43:22.870656  1411 net.cpp:409] parameters -> label
I0507 11:43:22.870661  1411 hdf5_data_layer.cpp:79] Loading list of HDF5 filenames from: /home/purduethu/scratch/radon/d/deng106/CNNStatisticalModel/distributions/input/20_distributions_900_sample_size_train-distributions-path.txt
I0507 11:43:22.870678  1411 hdf5_data_layer.cpp:93] Number of HDF5 files: 1
I0507 11:43:23.435026  1411 hdf5.cpp:35] Datatype class: H5T_INTEGER
I0507 11:43:23.437039  1411 net.cpp:144] Setting up parameters
I0507 11:43:23.437059  1411 net.cpp:151] Top shape: 20 1 30 30 (18000)
I0507 11:43:23.437064  1411 net.cpp:151] Top shape: 20 (20)
I0507 11:43:23.437067  1411 net.cpp:159] Memory required for data: 72080
I0507 11:43:23.437074  1411 layer_factory.hpp:77] Creating layer conv1
I0507 11:43:23.437089  1411 net.cpp:94] Creating Layer conv1
I0507 11:43:23.437093  1411 net.cpp:435] conv1 <- data
I0507 11:43:23.437099  1411 net.cpp:409] conv1 -> conv1
I0507 11:43:23.440596  1411 net.cpp:144] Setting up conv1
I0507 11:43:23.440634  1411 net.cpp:151] Top shape: 20 64 30 30 (1152000)
I0507 11:43:23.440644  1411 net.cpp:159] Memory required for data: 4680080
I0507 11:43:23.440670  1411 layer_factory.hpp:77] Creating layer relu1
I0507 11:43:23.440686  1411 net.cpp:94] Creating Layer relu1
I0507 11:43:23.440696  1411 net.cpp:435] relu1 <- conv1
I0507 11:43:23.440708  1411 net.cpp:396] relu1 -> conv1 (in-place)
I0507 11:43:23.440726  1411 net.cpp:144] Setting up relu1
I0507 11:43:23.440739  1411 net.cpp:151] Top shape: 20 64 30 30 (1152000)
I0507 11:43:23.440747  1411 net.cpp:159] Memory required for data: 9288080
I0507 11:43:23.440755  1411 layer_factory.hpp:77] Creating layer conv2
I0507 11:43:23.440775  1411 net.cpp:94] Creating Layer conv2
I0507 11:43:23.440784  1411 net.cpp:435] conv2 <- conv1
I0507 11:43:23.440798  1411 net.cpp:409] conv2 -> conv2
I0507 11:43:23.456825  1411 net.cpp:144] Setting up conv2
I0507 11:43:23.456863  1411 net.cpp:151] Top shape: 20 64 30 30 (1152000)
I0507 11:43:23.456874  1411 net.cpp:159] Memory required for data: 13896080
I0507 11:43:23.456895  1411 layer_factory.hpp:77] Creating layer relu2
I0507 11:43:23.456913  1411 net.cpp:94] Creating Layer relu2
I0507 11:43:23.456923  1411 net.cpp:435] relu2 <- conv2
I0507 11:43:23.456936  1411 net.cpp:396] relu2 -> conv2 (in-place)
I0507 11:43:23.456954  1411 net.cpp:144] Setting up relu2
I0507 11:43:23.456974  1411 net.cpp:151] Top shape: 20 64 30 30 (1152000)
I0507 11:43:23.456976  1411 net.cpp:159] Memory required for data: 18504080
I0507 11:43:23.456979  1411 layer_factory.hpp:77] Creating layer pool2
I0507 11:43:23.456985  1411 net.cpp:94] Creating Layer pool2
I0507 11:43:23.456989  1411 net.cpp:435] pool2 <- conv2
I0507 11:43:23.456993  1411 net.cpp:409] pool2 -> pool2
I0507 11:43:23.457046  1411 net.cpp:144] Setting up pool2
I0507 11:43:23.457052  1411 net.cpp:151] Top shape: 20 64 15 15 (288000)
I0507 11:43:23.457056  1411 net.cpp:159] Memory required for data: 19656080
I0507 11:43:23.457058  1411 layer_factory.hpp:77] Creating layer conv3
I0507 11:43:23.457065  1411 net.cpp:94] Creating Layer conv3
I0507 11:43:23.457069  1411 net.cpp:435] conv3 <- pool2
I0507 11:43:23.457080  1411 net.cpp:409] conv3 -> conv3
I0507 11:43:23.466068  1411 net.cpp:144] Setting up conv3
I0507 11:43:23.466105  1411 net.cpp:151] Top shape: 20 64 15 15 (288000)
I0507 11:43:23.466128  1411 net.cpp:159] Memory required for data: 20808080
I0507 11:43:23.466136  1411 layer_factory.hpp:77] Creating layer relu3
I0507 11:43:23.466142  1411 net.cpp:94] Creating Layer relu3
I0507 11:43:23.466146  1411 net.cpp:435] relu3 <- conv3
I0507 11:43:23.466150  1411 net.cpp:396] relu3 -> conv3 (in-place)
I0507 11:43:23.466157  1411 net.cpp:144] Setting up relu3
I0507 11:43:23.466161  1411 net.cpp:151] Top shape: 20 64 15 15 (288000)
I0507 11:43:23.466164  1411 net.cpp:159] Memory required for data: 21960080
I0507 11:43:23.466167  1411 layer_factory.hpp:77] Creating layer conv4
I0507 11:43:23.466176  1411 net.cpp:94] Creating Layer conv4
I0507 11:43:23.466179  1411 net.cpp:435] conv4 <- conv3
I0507 11:43:23.466184  1411 net.cpp:409] conv4 -> conv4
I0507 11:43:23.474087  1411 net.cpp:144] Setting up conv4
I0507 11:43:23.474102  1411 net.cpp:151] Top shape: 20 64 15 15 (288000)
I0507 11:43:23.474107  1411 net.cpp:159] Memory required for data: 23112080
I0507 11:43:23.474113  1411 layer_factory.hpp:77] Creating layer relu4
I0507 11:43:23.474118  1411 net.cpp:94] Creating Layer relu4
I0507 11:43:23.474123  1411 net.cpp:435] relu4 <- conv4
I0507 11:43:23.474128  1411 net.cpp:396] relu4 -> conv4 (in-place)
I0507 11:43:23.474134  1411 net.cpp:144] Setting up relu4
I0507 11:43:23.474138  1411 net.cpp:151] Top shape: 20 64 15 15 (288000)
I0507 11:43:23.474141  1411 net.cpp:159] Memory required for data: 24264080
I0507 11:43:23.474144  1411 layer_factory.hpp:77] Creating layer conv5
I0507 11:43:23.474153  1411 net.cpp:94] Creating Layer conv5
I0507 11:43:23.474155  1411 net.cpp:435] conv5 <- conv4
I0507 11:43:23.474160  1411 net.cpp:409] conv5 -> conv5
I0507 11:43:23.482033  1411 net.cpp:144] Setting up conv5
I0507 11:43:23.482049  1411 net.cpp:151] Top shape: 20 64 15 15 (288000)
I0507 11:43:23.482053  1411 net.cpp:159] Memory required for data: 25416080
I0507 11:43:23.482061  1411 layer_factory.hpp:77] Creating layer relu5
I0507 11:43:23.482067  1411 net.cpp:94] Creating Layer relu5
I0507 11:43:23.482071  1411 net.cpp:435] relu5 <- conv5
I0507 11:43:23.482075  1411 net.cpp:396] relu5 -> conv5 (in-place)
I0507 11:43:23.482082  1411 net.cpp:144] Setting up relu5
I0507 11:43:23.482087  1411 net.cpp:151] Top shape: 20 64 15 15 (288000)
I0507 11:43:23.482090  1411 net.cpp:159] Memory required for data: 26568080
I0507 11:43:23.482094  1411 layer_factory.hpp:77] Creating layer pool5
I0507 11:43:23.482098  1411 net.cpp:94] Creating Layer pool5
I0507 11:43:23.482101  1411 net.cpp:435] pool5 <- conv5
I0507 11:43:23.482105  1411 net.cpp:409] pool5 -> pool5
I0507 11:43:23.482142  1411 net.cpp:144] Setting up pool5
I0507 11:43:23.482149  1411 net.cpp:151] Top shape: 20 64 7 7 (62720)
I0507 11:43:23.482152  1411 net.cpp:159] Memory required for data: 26818960
I0507 11:43:23.482156  1411 layer_factory.hpp:77] Creating layer ip1
I0507 11:43:23.482162  1411 net.cpp:94] Creating Layer ip1
I0507 11:43:23.482165  1411 net.cpp:435] ip1 <- pool5
I0507 11:43:23.482170  1411 net.cpp:409] ip1 -> ip1
I0507 11:43:23.488032  1411 net.cpp:144] Setting up ip1
I0507 11:43:23.488046  1411 net.cpp:151] Top shape: 20 64 (1280)
I0507 11:43:23.488050  1411 net.cpp:159] Memory required for data: 26824080
I0507 11:43:23.488056  1411 layer_factory.hpp:77] Creating layer ip2
I0507 11:43:23.488064  1411 net.cpp:94] Creating Layer ip2
I0507 11:43:23.488067  1411 net.cpp:435] ip2 <- ip1
I0507 11:43:23.488072  1411 net.cpp:409] ip2 -> ip2
I0507 11:43:23.488297  1411 net.cpp:144] Setting up ip2
I0507 11:43:23.488304  1411 net.cpp:151] Top shape: 20 64 (1280)
I0507 11:43:23.488307  1411 net.cpp:159] Memory required for data: 26829200
I0507 11:43:23.488313  1411 layer_factory.hpp:77] Creating layer ip3
I0507 11:43:23.488318  1411 net.cpp:94] Creating Layer ip3
I0507 11:43:23.488322  1411 net.cpp:435] ip3 <- ip2
I0507 11:43:23.488327  1411 net.cpp:409] ip3 -> ip3
I0507 11:43:23.488526  1411 net.cpp:144] Setting up ip3
I0507 11:43:23.488534  1411 net.cpp:151] Top shape: 20 50 (1000)
I0507 11:43:23.488538  1411 net.cpp:159] Memory required for data: 26833200
I0507 11:43:23.488543  1411 layer_factory.hpp:77] Creating layer loss
I0507 11:43:23.488549  1411 net.cpp:94] Creating Layer loss
I0507 11:43:23.488571  1411 net.cpp:435] loss <- ip3
I0507 11:43:23.488575  1411 net.cpp:435] loss <- label
I0507 11:43:23.488579  1411 net.cpp:409] loss -> loss
I0507 11:43:23.488586  1411 layer_factory.hpp:77] Creating layer loss
…
I0507 11:43:23.489114  1411 solver.cpp:181] Creating test net (#0) specified by net file: ./protocol/dis_20_900_dimension.protocol_distribution
I0507 11:43:23.489140  1411 net.cpp:323] The NetState phase (1) differed from the phase (0) specified by a rule in layer parameters
I0507 11:43:23.489233  1411 net.cpp:52] Initializing net from parameters: 
state {
  phase: TEST
}
layer {
  name: "intercept"
  type: "HDF5Data"
  top: "data"
  top: "label"
  include {
    phase: TEST
  }
  hdf5_data_param {
    source: "/home/purduethu/scratch/radon/d/deng106/CNNStatisticalModel/distributions/input/20_distributions_900_sample_size_test-distributions-path.txt"
    batch_size: 20
  }
}
layer {
  name: "conv1"
  type: "Convolution"
  bottom: "data"
  top: "conv1"
  param {
    lr_mult: 1
  }
  param {
    lr_mult: 2
  }
  convolution_param {
    num_output: 64
    pad: 2
    kernel_size: 5
    stride: 1
    weight_filler {
      type: "gaussian"
      std: 0.0001
    }
    bias_filler {
      type: "constant"
    }
  }
}
layer {
  name: "relu1"
  type: "ReLU"
  bottom: "conv1"
  top: "conv1"
}
layer {
  name: "conv2"
  type: "Convolution"
  bottom: "conv1"
  top: "conv2"
  param {
    lr_mult: 1
  }
  param {
    lr_mult: 2
  }
  convolution_param {
    num_output: 64
    pad: 2
    kernel_size: 5
    stride: 1
    weight_filler {
      type: "gaussian"
      std: 0.01
    }
    bias_filler {
      type: "constant"
    }
  }
}
layer {
  name: "relu2"
  type: "ReLU"
  bottom: "conv2"
  top: "conv2"
}
layer {
  name: "pool2"
  type: "Pooling"
  bottom: "conv2"
  top: "pool2"
  pooling_param {
    pool: MAX
    kernel_size: 3
    stride: 2
  }
}
layer {
  name: "conv3"
  type: "Convolution"
  bottom: "pool2"
  top: "conv3"
  param {
    lr_mult: 1
  }
  param {
    lr_mult: 2
  }
  convolution_param {
    num_output: 64
    pad: 2
    kernel_size: 5
    stride: 1
    weight_filler {
      type: "gaussian"
      std: 0.01
    }
    bias_filler {
      type: "constant"
    }
  }
}
layer {
  name: "relu3"
  type: "ReLU"
  bottom: "conv3"
  top: "conv3"
}
layer {
  name: "conv4"
  type: "Convolution"
  bottom: "conv3"
  top: "conv4"
  param {
    lr_mult: 1
  }
  param {
    lr_mult: 2
  }
  convolution_param {
    num_output: 64
    pad: 2
    kernel_size: 5
    stride: 1
    weight_filler {
      type: "gaussian"
      std: 0.01
    }
    bias_filler {
      type: "constant"
    }
  }
}
layer {
  name: "relu4"
  type: "ReLU"
  bottom: "conv4"
  top: "conv4"
}
layer {
  name: "conv5"
  type: "Convolution"
  bottom: "conv4"
  top: "conv5"
  param {
    lr_mult: 1
  }
  param {
    lr_mult: 2
  }
  convolution_param {
    num_output: 64
    pad: 2
    kernel_size: 5
    stride: 1
    weight_filler {
      type: "gaussian"
      std: 0.01
    }
    bias_filler {
      type: "constant"
    }
  }
}
layer {
  name: "relu5"
  type: "ReLU"
  bottom: "conv5"
  top: "conv5"
}
layer {
  name: "pool5"
  type: "Pooling"
  bottom: "conv5"
  top: "pool5"
  pooling_param {
    pool: AVE
    kernel_size: 3
    stride: 2
  }
}
layer {
  name: "ip1"
  type: "InnerProduct"
  bottom: "pool5"
  top: "ip1"
  param {
    lr_mult: 1
  }
  param {
    lr_mult: 2
  }
  inner_product_param {
    num_output: 64
    weight_filler {
      type: "gaussian"
      std: 0.1
    }
    bias_filler {
      type: "constant"
    }
  }
}
layer {
  name: "ip2"
  type: "InnerProduct"
  bottom: "ip1"
  top: "ip2"
  param {
    lr_mult: 1
  }
  param {
    lr_mult: 2
  }
  inner_product_param {
    num_output: 64
    weight_filler {
      type: "gaussian"
      std: 0.1
    }
    bias_filler {
      type: "constant"
    }
  }
}
layer {
  name: "ip3"
  type: "InnerProduct"
  bottom: "ip2"
  top: "ip3"
  param {
    lr_mult: 1
  }
  param {
    lr_mult: 2
  }
  inner_product_param {
    num_output: 50
    weight_filler {
      type: "gaussian"
      std: 0.1
    }
    bias_filler {
      type: "constant"
    }
  }
}
layer {
  name: "accuracy"
  type: "Accuracy"
  bottom: "ip3"
  bottom: "label"
  top: "accuracy"
  include {
    phase: TEST
  }
}
layer {
  name: "loss"
  type: "SoftmaxWithLoss"
  bottom: "ip3"
  bottom: "label"
  top: "loss"
}
I0507 11:43:23.489297  1411 layer_factory.hpp:77] Creating layer intercept
I0507 11:43:23.489306  1411 net.cpp:94] Creating Layer intercept
I0507 11:43:23.489310  1411 net.cpp:409] intercept -> data
I0507 11:43:23.489316  1411 net.cpp:409] intercept -> label
I0507 11:43:23.489321  1411 hdf5_data_layer.cpp:79] Loading list of HDF5 filenames from: /home/purduethu/scratch/radon/d/deng106/CNNStatisticalModel/distributions/input/20_distributions_900_sample_size_test-distributions-path.txt
I0507 11:43:23.489342  1411 hdf5_data_layer.cpp:93] Number of HDF5 files: 1
I0507 11:43:23.631961  1411 net.cpp:144] Setting up intercept
I0507 11:43:23.631994  1411 net.cpp:151] Top shape: 20 1 30 30 (18000)
I0507 11:43:23.631999  1411 net.cpp:151] Top shape: 20 (20)
I0507 11:43:23.632002  1411 net.cpp:159] Memory required for data: 72080
I0507 11:43:23.632009  1411 layer_factory.hpp:77] Creating layer label_intercept_1_split
I0507 11:43:23.632026  1411 net.cpp:94] Creating Layer label_intercept_1_split
I0507 11:43:23.632030  1411 net.cpp:435] label_intercept_1_split <- label
I0507 11:43:23.632036  1411 net.cpp:409] label_intercept_1_split -> label_intercept_1_split_0
I0507 11:43:23.632045  1411 net.cpp:409] label_intercept_1_split -> label_intercept_1_split_1
I0507 11:43:23.632084  1411 net.cpp:144] Setting up label_intercept_1_split
I0507 11:43:23.632091  1411 net.cpp:151] Top shape: 20 (20)
I0507 11:43:23.632093  1411 net.cpp:151] Top shape: 20 (20)
I0507 11:43:23.632097  1411 net.cpp:159] Memory required for data: 72240
I0507 11:43:23.632099  1411 layer_factory.hpp:77] Creating layer conv1
I0507 11:43:23.632109  1411 net.cpp:94] Creating Layer conv1
I0507 11:43:23.632113  1411 net.cpp:435] conv1 <- data
I0507 11:43:23.632117  1411 net.cpp:409] conv1 -> conv1
I0507 11:43:23.633633  1411 net.cpp:144] Setting up conv1
I0507 11:43:23.633648  1411 net.cpp:151] Top shape: 20 64 30 30 (1152000)
I0507 11:43:23.633652  1411 net.cpp:159] Memory required for data: 4680240
I0507 11:43:23.633661  1411 layer_factory.hpp:77] Creating layer relu1
I0507 11:43:23.633668  1411 net.cpp:94] Creating Layer relu1
I0507 11:43:23.633672  1411 net.cpp:435] relu1 <- conv1
I0507 11:43:23.633677  1411 net.cpp:396] relu1 -> conv1 (in-place)
I0507 11:43:23.633683  1411 net.cpp:144] Setting up relu1
I0507 11:43:23.633687  1411 net.cpp:151] Top shape: 20 64 30 30 (1152000)
I0507 11:43:23.633690  1411 net.cpp:159] Memory required for data: 9288240
I0507 11:43:23.633693  1411 layer_factory.hpp:77] Creating layer conv2
I0507 11:43:23.633702  1411 net.cpp:94] Creating Layer conv2
I0507 11:43:23.633704  1411 net.cpp:435] conv2 <- conv1
I0507 11:43:23.633709  1411 net.cpp:409] conv2 -> conv2
I0507 11:43:23.640352  1411 net.cpp:144] Setting up conv2
I0507 11:43:23.640365  1411 net.cpp:151] Top shape: 20 64 30 30 (1152000)
I0507 11:43:23.640369  1411 net.cpp:159] Memory required for data: 13896240
I0507 11:43:23.640377  1411 layer_factory.hpp:77] Creating layer relu2
I0507 11:43:23.640383  1411 net.cpp:94] Creating Layer relu2
I0507 11:43:23.640386  1411 net.cpp:435] relu2 <- conv2
I0507 11:43:23.640391  1411 net.cpp:396] relu2 -> conv2 (in-place)
I0507 11:43:23.640398  1411 net.cpp:144] Setting up relu2
I0507 11:43:23.640401  1411 net.cpp:151] Top shape: 20 64 30 30 (1152000)
I0507 11:43:23.640404  1411 net.cpp:159] Memory required for data: 18504240
I0507 11:43:23.640408  1411 layer_factory.hpp:77] Creating layer pool2
I0507 11:43:23.640413  1411 net.cpp:94] Creating Layer pool2
I0507 11:43:23.640415  1411 net.cpp:435] pool2 <- conv2
I0507 11:43:23.640420  1411 net.cpp:409] pool2 -> pool2
I0507 11:43:23.640472  1411 net.cpp:144] Setting up pool2
I0507 11:43:23.640480  1411 net.cpp:151] Top shape: 20 64 15 15 (288000)
I0507 11:43:23.640482  1411 net.cpp:159] Memory required for data: 19656240
I0507 11:43:23.640486  1411 layer_factory.hpp:77] Creating layer conv3
I0507 11:43:23.640492  1411 net.cpp:94] Creating Layer conv3
I0507 11:43:23.640496  1411 net.cpp:435] conv3 <- pool2
I0507 11:43:23.640501  1411 net.cpp:409] conv3 -> conv3
I0507 11:43:23.645654  1411 net.cpp:144] Setting up conv3
I0507 11:43:23.645669  1411 net.cpp:151] Top shape: 20 64 15 15 (288000)
I0507 11:43:23.645673  1411 net.cpp:159] Memory required for data: 20808240
I0507 11:43:23.645683  1411 layer_factory.hpp:77] Creating layer relu3
I0507 11:43:23.645689  1411 net.cpp:94] Creating Layer relu3
I0507 11:43:23.645691  1411 net.cpp:435] relu3 <- conv3
I0507 11:43:23.645696  1411 net.cpp:396] relu3 -> conv3 (in-place)
I0507 11:43:23.645704  1411 net.cpp:144] Setting up relu3
I0507 11:43:23.645707  1411 net.cpp:151] Top shape: 20 64 15 15 (288000)
I0507 11:43:23.645709  1411 net.cpp:159] Memory required for data: 21960240
I0507 11:43:23.645712  1411 layer_factory.hpp:77] Creating layer conv4
I0507 11:43:23.645720  1411 net.cpp:94] Creating Layer conv4
I0507 11:43:23.645723  1411 net.cpp:435] conv4 <- conv3
I0507 11:43:23.645727  1411 net.cpp:409] conv4 -> conv4
I0507 11:43:23.650568  1411 net.cpp:144] Setting up conv4
I0507 11:43:23.650609  1411 net.cpp:151] Top shape: 20 64 15 15 (288000)
I0507 11:43:23.650619  1411 net.cpp:159] Memory required for data: 23112240
I0507 11:43:23.650636  1411 layer_factory.hpp:77] Creating layer relu4
I0507 11:43:23.650652  1411 net.cpp:94] Creating Layer relu4
I0507 11:43:23.650662  1411 net.cpp:435] relu4 <- conv4
I0507 11:43:23.650676  1411 net.cpp:396] relu4 -> conv4 (in-place)
I0507 11:43:23.650699  1411 net.cpp:144] Setting up relu4
I0507 11:43:23.650704  1411 net.cpp:151] Top shape: 20 64 15 15 (288000)
I0507 11:43:23.650707  1411 net.cpp:159] Memory required for data: 24264240
I0507 11:43:23.650710  1411 layer_factory.hpp:77] Creating layer conv5
I0507 11:43:23.650717  1411 net.cpp:94] Creating Layer conv5
I0507 11:43:23.650720  1411 net.cpp:435] conv5 <- conv4
I0507 11:43:23.650725  1411 net.cpp:409] conv5 -> conv5
I0507 11:43:23.656313  1411 net.cpp:144] Setting up conv5
I0507 11:43:23.656327  1411 net.cpp:151] Top shape: 20 64 15 15 (288000)
I0507 11:43:23.656332  1411 net.cpp:159] Memory required for data: 25416240
I0507 11:43:23.656340  1411 layer_factory.hpp:77] Creating layer relu5
I0507 11:43:23.656347  1411 net.cpp:94] Creating Layer relu5
I0507 11:43:23.656350  1411 net.cpp:435] relu5 <- conv5
I0507 11:43:23.656354  1411 net.cpp:396] relu5 -> conv5 (in-place)
I0507 11:43:23.656360  1411 net.cpp:144] Setting up relu5
I0507 11:43:23.656365  1411 net.cpp:151] Top shape: 20 64 15 15 (288000)
I0507 11:43:23.656368  1411 net.cpp:159] Memory required for data: 26568240
I0507 11:43:23.656370  1411 layer_factory.hpp:77] Creating layer pool5
I0507 11:43:23.656375  1411 net.cpp:94] Creating Layer pool5
I0507 11:43:23.656378  1411 net.cpp:435] pool5 <- conv5
I0507 11:43:23.656385  1411 net.cpp:409] pool5 -> pool5
I0507 11:43:23.656421  1411 net.cpp:144] Setting up pool5
I0507 11:43:23.656428  1411 net.cpp:151] Top shape: 20 64 7 7 (62720)
I0507 11:43:23.656431  1411 net.cpp:159] Memory required for data: 26819120
I0507 11:43:23.656435  1411 layer_factory.hpp:77] Creating layer ip1
I0507 11:43:23.656440  1411 net.cpp:94] Creating Layer ip1
I0507 11:43:23.656445  1411 net.cpp:435] ip1 <- pool5
I0507 11:43:23.656448  1411 net.cpp:409] ip1 -> ip1
I0507 11:43:23.661314  1411 net.cpp:144] Setting up ip1
I0507 11:43:23.661324  1411 net.cpp:151] Top shape: 20 64 (1280)
I0507 11:43:23.661326  1411 net.cpp:159] Memory required for data: 26824240
I0507 11:43:23.661332  1411 layer_factory.hpp:77] Creating layer ip2
I0507 11:43:23.661339  1411 net.cpp:94] Creating Layer ip2
I0507 11:43:23.661341  1411 net.cpp:435] ip2 <- ip1
I0507 11:43:23.661346  1411 net.cpp:409] ip2 -> ip2
I0507 11:43:23.661584  1411 net.cpp:144] Setting up ip2
I0507 11:43:23.661592  1411 net.cpp:151] Top shape: 20 64 (1280)
I0507 11:43:23.661595  1411 net.cpp:159] Memory required for data: 26829360
I0507 11:43:23.661600  1411 layer_factory.hpp:77] Creating layer ip3
I0507 11:43:23.661607  1411 net.cpp:94] Creating Layer ip3
I0507 11:43:23.661612  1411 net.cpp:435] ip3 <- ip2
I0507 11:43:23.661615  1411 net.cpp:409] ip3 -> ip3
I0507 11:43:23.661818  1411 net.cpp:144] Setting up ip3
I0507 11:43:23.661824  1411 net.cpp:151] Top shape: 20 50 (1000)
I0507 11:43:23.661828  1411 net.cpp:159] Memory required for data: 26833360
I0507 11:43:23.661833  1411 layer_factory.hpp:77] Creating layer ip3_ip3_0_split
I0507 11:43:23.661837  1411 net.cpp:94] Creating Layer ip3_ip3_0_split
I0507 11:43:23.661840  1411 net.cpp:435] ip3_ip3_0_split <- ip3
I0507 11:43:23.661845  1411 net.cpp:409] ip3_ip3_0_split -> ip3_ip3_0_split_0
I0507 11:43:23.661850  1411 net.cpp:409] ip3_ip3_0_split -> ip3_ip3_0_split_1
I0507 11:43:23.661893  1411 net.cpp:144] Setting up ip3_ip3_0_split
I0507 11:43:23.661900  1411 net.cpp:151] Top shape: 20 50 (1000)
I0507 11:43:23.661903  1411 net.cpp:151] Top shape: 20 50 (1000)
I0507 11:43:23.661906  1411 net.cpp:159] Memory required for data: 26841360
I0507 11:43:23.661908  1411 layer_factory.hpp:77] Creating layer accuracy
I0507 11:43:23.661914  1411 net.cpp:94] Creating Layer accuracy
I0507 11:43:23.661917  1411 net.cpp:435] accuracy <- ip3_ip3_0_split_0
I0507 11:43:23.661921  1411 net.cpp:435] accuracy <- label_intercept_1_split_0
I0507 11:43:23.661926  1411 net.cpp:409] accuracy -> accuracy
…
