…
I0504 02:12:16.193081 23556 net.cpp:323] The NetState phase (0) differed from the phase (1) specified by a rule in layer intercept
I0504 02:12:16.193097 23556 net.cpp:323] The NetState phase (0) differed from the phase (1) specified by a rule in layer loss
I0504 02:12:16.193176 23556 net.cpp:52] Initializing net from parameters: 
state {
  phase: TRAIN
}
layer {
  name: "parameters"
  type: "HDF5Data"
  top: "data"
  top: "label"
  include {
    phase: TRAIN
  }
  hdf5_data_param {
    source: "/home/purduethu/scratch/radon/d/deng106/CNNStatisticalModel/distributions/input/5_distributions_400_sample_size_train-parameters-path.txt"
    batch_size: 20
  }
}
layer {
  name: "conv1"
  type: "Convolution"
  bottom: "data"
  top: "conv1"
  param {
    lr_mult: 1
  }
  param {
    lr_mult: 2
  }
  convolution_param {
    num_output: 64
    pad: 2
    kernel_size: 5
    stride: 1
    weight_filler {
      type: "gaussian"
      std: 0.0001
    }
    bias_filler {
      type: "constant"
    }
  }
}
layer {
  name: "relu1"
  type: "ReLU"
  bottom: "conv1"
  top: "conv1"
}
layer {
  name: "conv2"
  type: "Convolution"
  bottom: "conv1"
  top: "conv2"
  param {
    lr_mult: 1
  }
  param {
    lr_mult: 2
  }
  convolution_param {
    num_output: 64
    pad: 2
    kernel_size: 5
    stride: 1
    weight_filler {
      type: "gaussian"
      std: 0.01
    }
    bias_filler {
      type: "constant"
    }
  }
}
layer {
  name: "relu2"
  type: "ReLU"
  bottom: "conv2"
  top: "conv2"
}
layer {
  name: "pool2"
  type: "Pooling"
  bottom: "conv2"
  top: "pool2"
  pooling_param {
    pool: MAX
    kernel_size: 3
    stride: 2
  }
}
layer {
  name: "conv3"
  type: "Convolution"
  bottom: "pool2"
  top: "conv3"
  param {
    lr_mult: 1
  }
  param {
    lr_mult: 2
  }
  convolution_param {
    num_output: 128
    pad: 2
    kernel_size: 5
    stride: 1
    weight_filler {
      type: "gaussian"
      std: 0.01
    }
    bias_filler {
      type: "constant"
    }
  }
}
layer {
  name: "relu3"
  type: "ReLU"
  bottom: "conv3"
  top: "conv3"
}
layer {
  name: "conv4"
  type: "Convolution"
  bottom: "conv3"
  top: "conv4"
  param {
    lr_mult: 1
  }
  param {
    lr_mult: 2
  }
  convolution_param {
    num_output: 128
    pad: 2
    kernel_size: 5
    stride: 1
    weight_filler {
      type: "gaussian"
      std: 0.01
    }
    bias_filler {
      type: "constant"
    }
  }
}
layer {
  name: "relu4"
  type: "ReLU"
  bottom: "conv4"
  top: "conv4"
}
layer {
  name: "conv5"
  type: "Convolution"
  bottom: "conv4"
  top: "conv5"
  param {
    lr_mult: 1
  }
  param {
    lr_mult: 2
  }
  convolution_param {
    num_output: 128
    pad: 2
    kernel_size: 5
    stride: 1
    weight_filler {
      type: "gaussian"
      std: 0.01
    }
    bias_filler {
      type: "constant"
    }
  }
}
layer {
  name: "relu5"
  type: "ReLU"
  bottom: "conv5"
  top: "conv5"
}
layer {
  name: "pool5"
  type: "Pooling"
  bottom: "conv5"
  top: "pool5"
  pooling_param {
    pool: AVE
    kernel_size: 3
    stride: 2
  }
}
layer {
  name: "ip1"
  type: "InnerProduct"
  bottom: "pool5"
  top: "ip1"
  param {
    lr_mult: 1
  }
  param {
    lr_mult: 2
  }
  inner_product_param {
    num_output: 1024
    weight_filler {
      type: "gaussian"
      std: 0.1
    }
    bias_filler {
      type: "constant"
    }
  }
}
layer {
  name: "ip2"
  type: "InnerProduct"
  bottom: "ip1"
  top: "ip2"
  param {
    lr_mult: 1
  }
  param {
    lr_mult: 2
  }
  inner_product_param {
    num_output: 512
    weight_filler {
      type: "gaussian"
      std: 0.1
    }
    bias_filler {
      type: "constant"
    }
  }
}
layer {
  name: "ip3"
  type: "InnerProduct"
  bottom: "ip2"
  top: "ip3"
  param {
    lr_mult: 1
  }
  param {
    lr_mult: 2
  }
  inner_product_param {
    num_output: 1
    weight_filler {
      type: "gaussian"
      std: 0.1
    }
    bias_filler {
      type: "constant"
    }
  }
}
layer {
  name: "loss"
  type: "HuberLoss"
  bottom: "ip3"
  bottom: "label"
  top: "loss"
  include {
    phase: TRAIN
  }
}
I0504 02:12:16.193226 23556 layer_factory.hpp:77] Creating layer parameters
I0504 02:12:16.193239 23556 net.cpp:94] Creating Layer parameters
I0504 02:12:16.193243 23556 net.cpp:409] parameters -> data
I0504 02:12:16.193253 23556 net.cpp:409] parameters -> label
I0504 02:12:16.193259 23556 hdf5_data_layer.cpp:79] Loading list of HDF5 filenames from: /home/purduethu/scratch/radon/d/deng106/CNNStatisticalModel/distributions/input/5_distributions_400_sample_size_train-parameters-path.txt
I0504 02:12:16.193272 23556 hdf5_data_layer.cpp:93] Number of HDF5 files: 1
I0504 02:12:16.193776 23556 hdf5.cpp:32] Datatype class: H5T_FLOAT
I0504 02:12:16.256593 23556 net.cpp:144] Setting up parameters
I0504 02:12:16.256624 23556 net.cpp:151] Top shape: 20 1 20 20 (8000)
I0504 02:12:16.256629 23556 net.cpp:151] Top shape: 20 (20)
I0504 02:12:16.256633 23556 net.cpp:159] Memory required for data: 32080
I0504 02:12:16.256639 23556 layer_factory.hpp:77] Creating layer conv1
I0504 02:12:16.256661 23556 net.cpp:94] Creating Layer conv1
I0504 02:12:16.256665 23556 net.cpp:435] conv1 <- data
I0504 02:12:16.256672 23556 net.cpp:409] conv1 -> conv1
I0504 02:12:16.261977 23556 net.cpp:144] Setting up conv1
I0504 02:12:16.261998 23556 net.cpp:151] Top shape: 20 64 20 20 (512000)
I0504 02:12:16.262001 23556 net.cpp:159] Memory required for data: 2080080
I0504 02:12:16.262012 23556 layer_factory.hpp:77] Creating layer relu1
I0504 02:12:16.262020 23556 net.cpp:94] Creating Layer relu1
I0504 02:12:16.262023 23556 net.cpp:435] relu1 <- conv1
I0504 02:12:16.262028 23556 net.cpp:396] relu1 -> conv1 (in-place)
I0504 02:12:16.262040 23556 net.cpp:144] Setting up relu1
I0504 02:12:16.262044 23556 net.cpp:151] Top shape: 20 64 20 20 (512000)
I0504 02:12:16.262048 23556 net.cpp:159] Memory required for data: 4128080
I0504 02:12:16.262050 23556 layer_factory.hpp:77] Creating layer conv2
I0504 02:12:16.262058 23556 net.cpp:94] Creating Layer conv2
I0504 02:12:16.262063 23556 net.cpp:435] conv2 <- conv1
I0504 02:12:16.262068 23556 net.cpp:409] conv2 -> conv2
I0504 02:12:16.272544 23556 net.cpp:144] Setting up conv2
I0504 02:12:16.272569 23556 net.cpp:151] Top shape: 20 64 20 20 (512000)
I0504 02:12:16.272573 23556 net.cpp:159] Memory required for data: 6176080
I0504 02:12:16.272581 23556 layer_factory.hpp:77] Creating layer relu2
I0504 02:12:16.272588 23556 net.cpp:94] Creating Layer relu2
I0504 02:12:16.272591 23556 net.cpp:435] relu2 <- conv2
I0504 02:12:16.272596 23556 net.cpp:396] relu2 -> conv2 (in-place)
I0504 02:12:16.272603 23556 net.cpp:144] Setting up relu2
I0504 02:12:16.272608 23556 net.cpp:151] Top shape: 20 64 20 20 (512000)
I0504 02:12:16.272610 23556 net.cpp:159] Memory required for data: 8224080
I0504 02:12:16.272614 23556 layer_factory.hpp:77] Creating layer pool2
I0504 02:12:16.272620 23556 net.cpp:94] Creating Layer pool2
I0504 02:12:16.272629 23556 net.cpp:435] pool2 <- conv2
I0504 02:12:16.272634 23556 net.cpp:409] pool2 -> pool2
I0504 02:12:16.272691 23556 net.cpp:144] Setting up pool2
I0504 02:12:16.272698 23556 net.cpp:151] Top shape: 20 64 10 10 (128000)
I0504 02:12:16.272701 23556 net.cpp:159] Memory required for data: 8736080
I0504 02:12:16.272706 23556 layer_factory.hpp:77] Creating layer conv3
I0504 02:12:16.272713 23556 net.cpp:94] Creating Layer conv3
I0504 02:12:16.272716 23556 net.cpp:435] conv3 <- pool2
I0504 02:12:16.272722 23556 net.cpp:409] conv3 -> conv3
I0504 02:12:16.281812 23556 net.cpp:144] Setting up conv3
I0504 02:12:16.281826 23556 net.cpp:151] Top shape: 20 128 10 10 (256000)
I0504 02:12:16.281831 23556 net.cpp:159] Memory required for data: 9760080
I0504 02:12:16.281838 23556 layer_factory.hpp:77] Creating layer relu3
I0504 02:12:16.281844 23556 net.cpp:94] Creating Layer relu3
I0504 02:12:16.281848 23556 net.cpp:435] relu3 <- conv3
I0504 02:12:16.281852 23556 net.cpp:396] relu3 -> conv3 (in-place)
I0504 02:12:16.281859 23556 net.cpp:144] Setting up relu3
I0504 02:12:16.281864 23556 net.cpp:151] Top shape: 20 128 10 10 (256000)
I0504 02:12:16.281867 23556 net.cpp:159] Memory required for data: 10784080
I0504 02:12:16.281869 23556 layer_factory.hpp:77] Creating layer conv4
I0504 02:12:16.281878 23556 net.cpp:94] Creating Layer conv4
I0504 02:12:16.281882 23556 net.cpp:435] conv4 <- conv3
I0504 02:12:16.281886 23556 net.cpp:409] conv4 -> conv4
I0504 02:12:16.298996 23556 net.cpp:144] Setting up conv4
I0504 02:12:16.299015 23556 net.cpp:151] Top shape: 20 128 10 10 (256000)
I0504 02:12:16.299018 23556 net.cpp:159] Memory required for data: 11808080
I0504 02:12:16.299026 23556 layer_factory.hpp:77] Creating layer relu4
I0504 02:12:16.299032 23556 net.cpp:94] Creating Layer relu4
I0504 02:12:16.299036 23556 net.cpp:435] relu4 <- conv4
I0504 02:12:16.299041 23556 net.cpp:396] relu4 -> conv4 (in-place)
I0504 02:12:16.299048 23556 net.cpp:144] Setting up relu4
I0504 02:12:16.299053 23556 net.cpp:151] Top shape: 20 128 10 10 (256000)
I0504 02:12:16.299055 23556 net.cpp:159] Memory required for data: 12832080
I0504 02:12:16.299058 23556 layer_factory.hpp:77] Creating layer conv5
I0504 02:12:16.299067 23556 net.cpp:94] Creating Layer conv5
I0504 02:12:16.299070 23556 net.cpp:435] conv5 <- conv4
I0504 02:12:16.299074 23556 net.cpp:409] conv5 -> conv5
I0504 02:12:16.315791 23556 net.cpp:144] Setting up conv5
I0504 02:12:16.315809 23556 net.cpp:151] Top shape: 20 128 10 10 (256000)
I0504 02:12:16.315812 23556 net.cpp:159] Memory required for data: 13856080
I0504 02:12:16.315822 23556 layer_factory.hpp:77] Creating layer relu5
I0504 02:12:16.315829 23556 net.cpp:94] Creating Layer relu5
I0504 02:12:16.315832 23556 net.cpp:435] relu5 <- conv5
I0504 02:12:16.315836 23556 net.cpp:396] relu5 -> conv5 (in-place)
I0504 02:12:16.315845 23556 net.cpp:144] Setting up relu5
I0504 02:12:16.315848 23556 net.cpp:151] Top shape: 20 128 10 10 (256000)
I0504 02:12:16.315851 23556 net.cpp:159] Memory required for data: 14880080
I0504 02:12:16.315855 23556 layer_factory.hpp:77] Creating layer pool5
I0504 02:12:16.315860 23556 net.cpp:94] Creating Layer pool5
I0504 02:12:16.315862 23556 net.cpp:435] pool5 <- conv5
I0504 02:12:16.315866 23556 net.cpp:409] pool5 -> pool5
I0504 02:12:16.315910 23556 net.cpp:144] Setting up pool5
I0504 02:12:16.315918 23556 net.cpp:151] Top shape: 20 128 5 5 (64000)
I0504 02:12:16.315922 23556 net.cpp:159] Memory required for data: 15136080
I0504 02:12:16.315925 23556 layer_factory.hpp:77] Creating layer ip1
I0504 02:12:16.315934 23556 net.cpp:94] Creating Layer ip1
I0504 02:12:16.315938 23556 net.cpp:435] ip1 <- pool5
I0504 02:12:16.315943 23556 net.cpp:409] ip1 -> ip1
I0504 02:12:16.395642 23556 net.cpp:144] Setting up ip1
I0504 02:12:16.395678 23556 net.cpp:151] Top shape: 20 1024 (20480)
I0504 02:12:16.395684 23556 net.cpp:159] Memory required for data: 15218000
I0504 02:12:16.395691 23556 layer_factory.hpp:77] Creating layer ip2
I0504 02:12:16.395702 23556 net.cpp:94] Creating Layer ip2
I0504 02:12:16.395715 23556 net.cpp:435] ip2 <- ip1
I0504 02:12:16.395722 23556 net.cpp:409] ip2 -> ip2
I0504 02:12:16.408957 23556 net.cpp:144] Setting up ip2
I0504 02:12:16.408975 23556 net.cpp:151] Top shape: 20 512 (10240)
I0504 02:12:16.408979 23556 net.cpp:159] Memory required for data: 15258960
I0504 02:12:16.408985 23556 layer_factory.hpp:77] Creating layer ip3
I0504 02:12:16.408994 23556 net.cpp:94] Creating Layer ip3
I0504 02:12:16.408998 23556 net.cpp:435] ip3 <- ip2
I0504 02:12:16.409003 23556 net.cpp:409] ip3 -> ip3
I0504 02:12:16.409123 23556 net.cpp:144] Setting up ip3
I0504 02:12:16.409131 23556 net.cpp:151] Top shape: 20 1 (20)
I0504 02:12:16.409133 23556 net.cpp:159] Memory required for data: 15259040
I0504 02:12:16.409138 23556 layer_factory.hpp:77] Creating layer loss
I0504 02:12:16.409147 23556 net.cpp:94] Creating Layer loss
I0504 02:12:16.409150 23556 net.cpp:435] loss <- ip3
I0504 02:12:16.409154 23556 net.cpp:435] loss <- label
I0504 02:12:16.409158 23556 net.cpp:409] loss -> loss
I0504 02:12:16.409225 23556 net.cpp:144] Setting up loss
…
I0504 02:12:16.561539 23556 net.cpp:323] The NetState phase (0) differed from the phase (1) specified by a rule in layer intercept
I0504 02:12:16.561555 23556 net.cpp:323] The NetState phase (0) differed from the phase (1) specified by a rule in layer accuracy
I0504 02:12:16.561641 23556 net.cpp:52] Initializing net from parameters: 
state {
  phase: TRAIN
}
layer {
  name: "parameters"
  type: "HDF5Data"
  top: "data"
  top: "label"
  include {
    phase: TRAIN
  }
  hdf5_data_param {
    source: "/home/purduethu/scratch/radon/d/deng106/CNNStatisticalModel/distributions/input/5_distributions_400_sample_size_train-distributions-path.txt"
    batch_size: 20
  }
}
layer {
  name: "conv1"
  type: "Convolution"
  bottom: "data"
  top: "conv1"
  param {
    lr_mult: 1
  }
  param {
    lr_mult: 2
  }
  convolution_param {
    num_output: 64
    pad: 2
    kernel_size: 5
    stride: 1
    weight_filler {
      type: "gaussian"
      std: 0.0001
    }
    bias_filler {
      type: "constant"
    }
  }
}
layer {
  name: "relu1"
  type: "ReLU"
  bottom: "conv1"
  top: "conv1"
}
layer {
  name: "conv2"
  type: "Convolution"
  bottom: "conv1"
  top: "conv2"
  param {
    lr_mult: 1
  }
  param {
    lr_mult: 2
  }
  convolution_param {
    num_output: 64
    pad: 2
    kernel_size: 5
    stride: 1
    weight_filler {
      type: "gaussian"
      std: 0.01
    }
    bias_filler {
      type: "constant"
    }
  }
}
layer {
  name: "relu2"
  type: "ReLU"
  bottom: "conv2"
  top: "conv2"
}
layer {
  name: "pool2"
  type: "Pooling"
  bottom: "conv2"
  top: "pool2"
  pooling_param {
    pool: MAX
    kernel_size: 3
    stride: 2
  }
}
layer {
  name: "conv3"
  type: "Convolution"
  bottom: "pool2"
  top: "conv3"
  param {
    lr_mult: 1
  }
  param {
    lr_mult: 2
  }
  convolution_param {
    num_output: 128
    pad: 2
    kernel_size: 5
    stride: 1
    weight_filler {
      type: "gaussian"
      std: 0.01
    }
    bias_filler {
      type: "constant"
    }
  }
}
layer {
  name: "relu3"
  type: "ReLU"
  bottom: "conv3"
  top: "conv3"
}
layer {
  name: "conv4"
  type: "Convolution"
  bottom: "conv3"
  top: "conv4"
  param {
    lr_mult: 1
  }
  param {
    lr_mult: 2
  }
  convolution_param {
    num_output: 128
    pad: 2
    kernel_size: 5
    stride: 1
    weight_filler {
      type: "gaussian"
      std: 0.01
    }
    bias_filler {
      type: "constant"
    }
  }
}
layer {
  name: "relu4"
  type: "ReLU"
  bottom: "conv4"
  top: "conv4"
}
layer {
  name: "conv5"
  type: "Convolution"
  bottom: "conv4"
  top: "conv5"
  param {
    lr_mult: 1
  }
  param {
    lr_mult: 2
  }
  convolution_param {
    num_output: 128
    pad: 2
    kernel_size: 5
    stride: 1
    weight_filler {
      type: "gaussian"
      std: 0.01
    }
    bias_filler {
      type: "constant"
    }
  }
}
layer {
  name: "relu5"
  type: "ReLU"
  bottom: "conv5"
  top: "conv5"
}
layer {
  name: "pool5"
  type: "Pooling"
  bottom: "conv5"
  top: "pool5"
  pooling_param {
    pool: AVE
    kernel_size: 3
    stride: 2
  }
}
layer {
  name: "ip1"
  type: "InnerProduct"
  bottom: "pool5"
  top: "ip1"
  param {
    lr_mult: 1
  }
  param {
    lr_mult: 2
  }
  inner_product_param {
    num_output: 1024
    weight_filler {
      type: "gaussian"
      std: 0.1
    }
    bias_filler {
      type: "constant"
    }
  }
}
layer {
  name: "ip2"
  type: "InnerProduct"
  bottom: "ip1"
  top: "ip2"
  param {
    lr_mult: 1
  }
  param {
    lr_mult: 2
  }
  inner_product_param {
    num_output: 512
    weight_filler {
      type: "gaussian"
      std: 0.1
    }
    bias_filler {
      type: "constant"
    }
  }
}
layer {
  name: "ip3"
  type: "InnerProduct"
  bottom: "ip2"
  top: "ip3"
  param {
    lr_mult: 1
  }
  param {
    lr_mult: 2
  }
  inner_product_param {
    num_output: 50
    weight_filler {
      type: "gaussian"
      std: 0.1
    }
    bias_filler {
      type: "constant"
    }
  }
}
layer {
  name: "loss"
  type: "SoftmaxWithLoss"
  bottom: "ip3"
  bottom: "label"
  top: "loss"
}
I0504 02:12:16.561697 23556 layer_factory.hpp:77] Creating layer parameters
I0504 02:12:16.561704 23556 net.cpp:94] Creating Layer parameters
I0504 02:12:16.561708 23556 net.cpp:409] parameters -> data
I0504 02:12:16.561715 23556 net.cpp:409] parameters -> label
I0504 02:12:16.561722 23556 hdf5_data_layer.cpp:79] Loading list of HDF5 filenames from: /home/purduethu/scratch/radon/d/deng106/CNNStatisticalModel/distributions/input/5_distributions_400_sample_size_train-distributions-path.txt
I0504 02:12:16.561738 23556 hdf5_data_layer.cpp:93] Number of HDF5 files: 1
I0504 02:12:16.623425 23556 hdf5.cpp:35] Datatype class: H5T_INTEGER
I0504 02:12:16.623867 23556 net.cpp:144] Setting up parameters
I0504 02:12:16.623883 23556 net.cpp:151] Top shape: 20 1 20 20 (8000)
I0504 02:12:16.623886 23556 net.cpp:151] Top shape: 20 (20)
I0504 02:12:16.623890 23556 net.cpp:159] Memory required for data: 32080
I0504 02:12:16.623896 23556 layer_factory.hpp:77] Creating layer conv1
I0504 02:12:16.623914 23556 net.cpp:94] Creating Layer conv1
I0504 02:12:16.623917 23556 net.cpp:435] conv1 <- data
I0504 02:12:16.623924 23556 net.cpp:409] conv1 -> conv1
I0504 02:12:16.627372 23556 net.cpp:144] Setting up conv1
I0504 02:12:16.627413 23556 net.cpp:151] Top shape: 20 64 20 20 (512000)
I0504 02:12:16.627424 23556 net.cpp:159] Memory required for data: 2080080
I0504 02:12:16.627450 23556 layer_factory.hpp:77] Creating layer relu1
I0504 02:12:16.627470 23556 net.cpp:94] Creating Layer relu1
I0504 02:12:16.627480 23556 net.cpp:435] relu1 <- conv1
I0504 02:12:16.627492 23556 net.cpp:396] relu1 -> conv1 (in-place)
I0504 02:12:16.627512 23556 net.cpp:144] Setting up relu1
I0504 02:12:16.627526 23556 net.cpp:151] Top shape: 20 64 20 20 (512000)
I0504 02:12:16.627534 23556 net.cpp:159] Memory required for data: 4128080
I0504 02:12:16.627542 23556 layer_factory.hpp:77] Creating layer conv2
I0504 02:12:16.627562 23556 net.cpp:94] Creating Layer conv2
I0504 02:12:16.627573 23556 net.cpp:435] conv2 <- conv1
I0504 02:12:16.627585 23556 net.cpp:409] conv2 -> conv2
I0504 02:12:16.645380 23556 net.cpp:144] Setting up conv2
I0504 02:12:16.645419 23556 net.cpp:151] Top shape: 20 64 20 20 (512000)
I0504 02:12:16.645429 23556 net.cpp:159] Memory required for data: 6176080
I0504 02:12:16.645450 23556 layer_factory.hpp:77] Creating layer relu2
I0504 02:12:16.645467 23556 net.cpp:94] Creating Layer relu2
I0504 02:12:16.645476 23556 net.cpp:435] relu2 <- conv2
I0504 02:12:16.645489 23556 net.cpp:396] relu2 -> conv2 (in-place)
I0504 02:12:16.645508 23556 net.cpp:144] Setting up relu2
I0504 02:12:16.645519 23556 net.cpp:151] Top shape: 20 64 20 20 (512000)
I0504 02:12:16.645526 23556 net.cpp:159] Memory required for data: 8224080
I0504 02:12:16.645534 23556 layer_factory.hpp:77] Creating layer pool2
I0504 02:12:16.645548 23556 net.cpp:94] Creating Layer pool2
I0504 02:12:16.645556 23556 net.cpp:435] pool2 <- conv2
I0504 02:12:16.645568 23556 net.cpp:409] pool2 -> pool2
I0504 02:12:16.645709 23556 net.cpp:144] Setting up pool2
I0504 02:12:16.645726 23556 net.cpp:151] Top shape: 20 64 10 10 (128000)
I0504 02:12:16.645735 23556 net.cpp:159] Memory required for data: 8736080
I0504 02:12:16.645743 23556 layer_factory.hpp:77] Creating layer conv3
I0504 02:12:16.645762 23556 net.cpp:94] Creating Layer conv3
I0504 02:12:16.645771 23556 net.cpp:435] conv3 <- pool2
I0504 02:12:16.645797 23556 net.cpp:409] conv3 -> conv3
I0504 02:12:16.666631 23556 net.cpp:144] Setting up conv3
I0504 02:12:16.666664 23556 net.cpp:151] Top shape: 20 128 10 10 (256000)
I0504 02:12:16.666673 23556 net.cpp:159] Memory required for data: 9760080
I0504 02:12:16.666692 23556 layer_factory.hpp:77] Creating layer relu3
I0504 02:12:16.666705 23556 net.cpp:94] Creating Layer relu3
I0504 02:12:16.666713 23556 net.cpp:435] relu3 <- conv3
I0504 02:12:16.666723 23556 net.cpp:396] relu3 -> conv3 (in-place)
I0504 02:12:16.666740 23556 net.cpp:144] Setting up relu3
I0504 02:12:16.666749 23556 net.cpp:151] Top shape: 20 128 10 10 (256000)
I0504 02:12:16.666756 23556 net.cpp:159] Memory required for data: 10784080
I0504 02:12:16.666764 23556 layer_factory.hpp:77] Creating layer conv4
I0504 02:12:16.666781 23556 net.cpp:94] Creating Layer conv4
I0504 02:12:16.666790 23556 net.cpp:435] conv4 <- conv3
I0504 02:12:16.666800 23556 net.cpp:409] conv4 -> conv4
I0504 02:12:16.702659 23556 net.cpp:144] Setting up conv4
I0504 02:12:16.702697 23556 net.cpp:151] Top shape: 20 128 10 10 (256000)
I0504 02:12:16.702705 23556 net.cpp:159] Memory required for data: 11808080
I0504 02:12:16.702720 23556 layer_factory.hpp:77] Creating layer relu4
I0504 02:12:16.702733 23556 net.cpp:94] Creating Layer relu4
I0504 02:12:16.702742 23556 net.cpp:435] relu4 <- conv4
I0504 02:12:16.702751 23556 net.cpp:396] relu4 -> conv4 (in-place)
I0504 02:12:16.702766 23556 net.cpp:144] Setting up relu4
I0504 02:12:16.702775 23556 net.cpp:151] Top shape: 20 128 10 10 (256000)
I0504 02:12:16.702781 23556 net.cpp:159] Memory required for data: 12832080
I0504 02:12:16.702787 23556 layer_factory.hpp:77] Creating layer conv5
I0504 02:12:16.702803 23556 net.cpp:94] Creating Layer conv5
I0504 02:12:16.702811 23556 net.cpp:435] conv5 <- conv4
I0504 02:12:16.702819 23556 net.cpp:409] conv5 -> conv5
I0504 02:12:16.732735 23556 net.cpp:144] Setting up conv5
I0504 02:12:16.732764 23556 net.cpp:151] Top shape: 20 128 10 10 (256000)
I0504 02:12:16.732771 23556 net.cpp:159] Memory required for data: 13856080
I0504 02:12:16.732789 23556 layer_factory.hpp:77] Creating layer relu5
I0504 02:12:16.732801 23556 net.cpp:94] Creating Layer relu5
I0504 02:12:16.732810 23556 net.cpp:435] relu5 <- conv5
I0504 02:12:16.732817 23556 net.cpp:396] relu5 -> conv5 (in-place)
I0504 02:12:16.732831 23556 net.cpp:144] Setting up relu5
I0504 02:12:16.732838 23556 net.cpp:151] Top shape: 20 128 10 10 (256000)
I0504 02:12:16.732844 23556 net.cpp:159] Memory required for data: 14880080
I0504 02:12:16.732849 23556 layer_factory.hpp:77] Creating layer pool5
I0504 02:12:16.732861 23556 net.cpp:94] Creating Layer pool5
I0504 02:12:16.732867 23556 net.cpp:435] pool5 <- conv5
I0504 02:12:16.732874 23556 net.cpp:409] pool5 -> pool5
I0504 02:12:16.732949 23556 net.cpp:144] Setting up pool5
I0504 02:12:16.732961 23556 net.cpp:151] Top shape: 20 128 5 5 (64000)
I0504 02:12:16.732966 23556 net.cpp:159] Memory required for data: 15136080
I0504 02:12:16.732972 23556 layer_factory.hpp:77] Creating layer ip1
I0504 02:12:16.732987 23556 net.cpp:94] Creating Layer ip1
I0504 02:12:16.732993 23556 net.cpp:435] ip1 <- pool5
I0504 02:12:16.733002 23556 net.cpp:409] ip1 -> ip1
I0504 02:12:16.853077 23556 net.cpp:144] Setting up ip1
I0504 02:12:16.853118 23556 net.cpp:151] Top shape: 20 1024 (20480)
I0504 02:12:16.853123 23556 net.cpp:159] Memory required for data: 15218000
I0504 02:12:16.853133 23556 layer_factory.hpp:77] Creating layer ip2
I0504 02:12:16.853145 23556 net.cpp:94] Creating Layer ip2
I0504 02:12:16.853150 23556 net.cpp:435] ip2 <- ip1
I0504 02:12:16.853157 23556 net.cpp:409] ip2 -> ip2
I0504 02:12:16.869503 23556 net.cpp:144] Setting up ip2
I0504 02:12:16.869525 23556 net.cpp:151] Top shape: 20 512 (10240)
I0504 02:12:16.869529 23556 net.cpp:159] Memory required for data: 15258960
I0504 02:12:16.869536 23556 layer_factory.hpp:77] Creating layer ip3
I0504 02:12:16.869545 23556 net.cpp:94] Creating Layer ip3
I0504 02:12:16.869549 23556 net.cpp:435] ip3 <- ip2
I0504 02:12:16.869557 23556 net.cpp:409] ip3 -> ip3
I0504 02:12:16.870450 23556 net.cpp:144] Setting up ip3
I0504 02:12:16.870460 23556 net.cpp:151] Top shape: 20 50 (1000)
I0504 02:12:16.870463 23556 net.cpp:159] Memory required for data: 15262960
I0504 02:12:16.870468 23556 layer_factory.hpp:77] Creating layer loss
I0504 02:12:16.870479 23556 net.cpp:94] Creating Layer loss
I0504 02:12:16.870483 23556 net.cpp:435] loss <- ip3
I0504 02:12:16.870487 23556 net.cpp:435] loss <- label
I0504 02:12:16.870492 23556 net.cpp:409] loss -> loss
I0504 02:12:16.870501 23556 layer_factory.hpp:77] Creating layer loss
…
I0504 02:12:16.871107 23556 solver.cpp:181] Creating test net (#0) specified by net file: ./protocol/dis_5_400_dimension.protocol_distribution
I0504 02:12:16.871139 23556 net.cpp:323] The NetState phase (1) differed from the phase (0) specified by a rule in layer parameters
I0504 02:12:16.871251 23556 net.cpp:52] Initializing net from parameters: 
state {
  phase: TEST
}
layer {
  name: "intercept"
  type: "HDF5Data"
  top: "data"
  top: "label"
  include {
    phase: TEST
  }
  hdf5_data_param {
    source: "/home/purduethu/scratch/radon/d/deng106/CNNStatisticalModel/distributions/input/5_distributions_400_sample_size_test-distributions-path.txt"
    batch_size: 20
  }
}
layer {
  name: "conv1"
  type: "Convolution"
  bottom: "data"
  top: "conv1"
  param {
    lr_mult: 1
  }
  param {
    lr_mult: 2
  }
  convolution_param {
    num_output: 64
    pad: 2
    kernel_size: 5
    stride: 1
    weight_filler {
      type: "gaussian"
      std: 0.0001
    }
    bias_filler {
      type: "constant"
    }
  }
}
layer {
  name: "relu1"
  type: "ReLU"
  bottom: "conv1"
  top: "conv1"
}
layer {
  name: "conv2"
  type: "Convolution"
  bottom: "conv1"
  top: "conv2"
  param {
    lr_mult: 1
  }
  param {
    lr_mult: 2
  }
  convolution_param {
    num_output: 64
    pad: 2
    kernel_size: 5
    stride: 1
    weight_filler {
      type: "gaussian"
      std: 0.01
    }
    bias_filler {
      type: "constant"
    }
  }
}
layer {
  name: "relu2"
  type: "ReLU"
  bottom: "conv2"
  top: "conv2"
}
layer {
  name: "pool2"
  type: "Pooling"
  bottom: "conv2"
  top: "pool2"
  pooling_param {
    pool: MAX
    kernel_size: 3
    stride: 2
  }
}
layer {
  name: "conv3"
  type: "Convolution"
  bottom: "pool2"
  top: "conv3"
  param {
    lr_mult: 1
  }
  param {
    lr_mult: 2
  }
  convolution_param {
    num_output: 128
    pad: 2
    kernel_size: 5
    stride: 1
    weight_filler {
      type: "gaussian"
      std: 0.01
    }
    bias_filler {
      type: "constant"
    }
  }
}
layer {
  name: "relu3"
  type: "ReLU"
  bottom: "conv3"
  top: "conv3"
}
layer {
  name: "conv4"
  type: "Convolution"
  bottom: "conv3"
  top: "conv4"
  param {
    lr_mult: 1
  }
  param {
    lr_mult: 2
  }
  convolution_param {
    num_output: 128
    pad: 2
    kernel_size: 5
    stride: 1
    weight_filler {
      type: "gaussian"
      std: 0.01
    }
    bias_filler {
      type: "constant"
    }
  }
}
layer {
  name: "relu4"
  type: "ReLU"
  bottom: "conv4"
  top: "conv4"
}
layer {
  name: "conv5"
  type: "Convolution"
  bottom: "conv4"
  top: "conv5"
  param {
    lr_mult: 1
  }
  param {
    lr_mult: 2
  }
  convolution_param {
    num_output: 128
    pad: 2
    kernel_size: 5
    stride: 1
    weight_filler {
      type: "gaussian"
      std: 0.01
    }
    bias_filler {
      type: "constant"
    }
  }
}
layer {
  name: "relu5"
  type: "ReLU"
  bottom: "conv5"
  top: "conv5"
}
layer {
  name: "pool5"
  type: "Pooling"
  bottom: "conv5"
  top: "pool5"
  pooling_param {
    pool: AVE
    kernel_size: 3
    stride: 2
  }
}
layer {
  name: "ip1"
  type: "InnerProduct"
  bottom: "pool5"
  top: "ip1"
  param {
    lr_mult: 1
  }
  param {
    lr_mult: 2
  }
  inner_product_param {
    num_output: 1024
    weight_filler {
      type: "gaussian"
      std: 0.1
    }
    bias_filler {
      type: "constant"
    }
  }
}
layer {
  name: "ip2"
  type: "InnerProduct"
  bottom: "ip1"
  top: "ip2"
  param {
    lr_mult: 1
  }
  param {
    lr_mult: 2
  }
  inner_product_param {
    num_output: 512
    weight_filler {
      type: "gaussian"
      std: 0.1
    }
    bias_filler {
      type: "constant"
    }
  }
}
layer {
  name: "ip3"
  type: "InnerProduct"
  bottom: "ip2"
  top: "ip3"
  param {
    lr_mult: 1
  }
  param {
    lr_mult: 2
  }
  inner_product_param {
    num_output: 50
    weight_filler {
      type: "gaussian"
      std: 0.1
    }
    bias_filler {
      type: "constant"
    }
  }
}
layer {
  name: "accuracy"
  type: "Accuracy"
  bottom: "ip3"
  bottom: "label"
  top: "accuracy"
  include {
    phase: TEST
  }
}
layer {
  name: "loss"
  type: "SoftmaxWithLoss"
  bottom: "ip3"
  bottom: "label"
  top: "loss"
}
I0504 02:12:16.871331 23556 layer_factory.hpp:77] Creating layer intercept
I0504 02:12:16.871341 23556 net.cpp:94] Creating Layer intercept
I0504 02:12:16.871346 23556 net.cpp:409] intercept -> data
I0504 02:12:16.871353 23556 net.cpp:409] intercept -> label
I0504 02:12:16.871359 23556 hdf5_data_layer.cpp:79] Loading list of HDF5 filenames from: /home/purduethu/scratch/radon/d/deng106/CNNStatisticalModel/distributions/input/5_distributions_400_sample_size_test-distributions-path.txt
I0504 02:12:16.871381 23556 hdf5_data_layer.cpp:93] Number of HDF5 files: 1
I0504 02:12:16.889353 23556 net.cpp:144] Setting up intercept
I0504 02:12:16.889385 23556 net.cpp:151] Top shape: 20 1 20 20 (8000)
I0504 02:12:16.889391 23556 net.cpp:151] Top shape: 20 (20)
I0504 02:12:16.889394 23556 net.cpp:159] Memory required for data: 32080
I0504 02:12:16.889401 23556 layer_factory.hpp:77] Creating layer label_intercept_1_split
I0504 02:12:16.889420 23556 net.cpp:94] Creating Layer label_intercept_1_split
I0504 02:12:16.889425 23556 net.cpp:435] label_intercept_1_split <- label
I0504 02:12:16.889430 23556 net.cpp:409] label_intercept_1_split -> label_intercept_1_split_0
I0504 02:12:16.889441 23556 net.cpp:409] label_intercept_1_split -> label_intercept_1_split_1
I0504 02:12:16.889490 23556 net.cpp:144] Setting up label_intercept_1_split
I0504 02:12:16.889497 23556 net.cpp:151] Top shape: 20 (20)
I0504 02:12:16.889502 23556 net.cpp:151] Top shape: 20 (20)
I0504 02:12:16.889504 23556 net.cpp:159] Memory required for data: 32240
I0504 02:12:16.889508 23556 layer_factory.hpp:77] Creating layer conv1
I0504 02:12:16.889520 23556 net.cpp:94] Creating Layer conv1
I0504 02:12:16.889524 23556 net.cpp:435] conv1 <- data
I0504 02:12:16.889529 23556 net.cpp:409] conv1 -> conv1
I0504 02:12:16.890388 23556 net.cpp:144] Setting up conv1
I0504 02:12:16.890409 23556 net.cpp:151] Top shape: 20 64 20 20 (512000)
I0504 02:12:16.890414 23556 net.cpp:159] Memory required for data: 2080240
I0504 02:12:16.890425 23556 layer_factory.hpp:77] Creating layer relu1
I0504 02:12:16.890432 23556 net.cpp:94] Creating Layer relu1
I0504 02:12:16.890436 23556 net.cpp:435] relu1 <- conv1
I0504 02:12:16.890441 23556 net.cpp:396] relu1 -> conv1 (in-place)
I0504 02:12:16.890450 23556 net.cpp:144] Setting up relu1
I0504 02:12:16.890453 23556 net.cpp:151] Top shape: 20 64 20 20 (512000)
I0504 02:12:16.890457 23556 net.cpp:159] Memory required for data: 4128240
I0504 02:12:16.890460 23556 layer_factory.hpp:77] Creating layer conv2
I0504 02:12:16.890468 23556 net.cpp:94] Creating Layer conv2
I0504 02:12:16.890472 23556 net.cpp:435] conv2 <- conv1
I0504 02:12:16.890478 23556 net.cpp:409] conv2 -> conv2
I0504 02:12:16.896092 23556 net.cpp:144] Setting up conv2
I0504 02:12:16.896109 23556 net.cpp:151] Top shape: 20 64 20 20 (512000)
I0504 02:12:16.896113 23556 net.cpp:159] Memory required for data: 6176240
I0504 02:12:16.896122 23556 layer_factory.hpp:77] Creating layer relu2
I0504 02:12:16.896128 23556 net.cpp:94] Creating Layer relu2
I0504 02:12:16.896132 23556 net.cpp:435] relu2 <- conv2
I0504 02:12:16.896137 23556 net.cpp:396] relu2 -> conv2 (in-place)
I0504 02:12:16.896145 23556 net.cpp:144] Setting up relu2
I0504 02:12:16.896149 23556 net.cpp:151] Top shape: 20 64 20 20 (512000)
I0504 02:12:16.896153 23556 net.cpp:159] Memory required for data: 8224240
I0504 02:12:16.896157 23556 layer_factory.hpp:77] Creating layer pool2
I0504 02:12:16.896162 23556 net.cpp:94] Creating Layer pool2
I0504 02:12:16.896165 23556 net.cpp:435] pool2 <- conv2
I0504 02:12:16.896170 23556 net.cpp:409] pool2 -> pool2
I0504 02:12:16.896234 23556 net.cpp:144] Setting up pool2
I0504 02:12:16.896241 23556 net.cpp:151] Top shape: 20 64 10 10 (128000)
I0504 02:12:16.896245 23556 net.cpp:159] Memory required for data: 8736240
I0504 02:12:16.896248 23556 layer_factory.hpp:77] Creating layer conv3
I0504 02:12:16.896257 23556 net.cpp:94] Creating Layer conv3
I0504 02:12:16.896261 23556 net.cpp:435] conv3 <- pool2
I0504 02:12:16.896266 23556 net.cpp:409] conv3 -> conv3
I0504 02:12:16.904348 23556 net.cpp:144] Setting up conv3
I0504 02:12:16.904366 23556 net.cpp:151] Top shape: 20 128 10 10 (256000)
I0504 02:12:16.904371 23556 net.cpp:159] Memory required for data: 9760240
I0504 02:12:16.904379 23556 layer_factory.hpp:77] Creating layer relu3
I0504 02:12:16.904386 23556 net.cpp:94] Creating Layer relu3
I0504 02:12:16.904392 23556 net.cpp:435] relu3 <- conv3
I0504 02:12:16.904397 23556 net.cpp:396] relu3 -> conv3 (in-place)
I0504 02:12:16.904404 23556 net.cpp:144] Setting up relu3
I0504 02:12:16.904408 23556 net.cpp:151] Top shape: 20 128 10 10 (256000)
I0504 02:12:16.904412 23556 net.cpp:159] Memory required for data: 10784240
I0504 02:12:16.904415 23556 layer_factory.hpp:77] Creating layer conv4
I0504 02:12:16.904423 23556 net.cpp:94] Creating Layer conv4
I0504 02:12:16.904428 23556 net.cpp:435] conv4 <- conv3
I0504 02:12:16.904433 23556 net.cpp:409] conv4 -> conv4
I0504 02:12:16.919569 23556 net.cpp:144] Setting up conv4
I0504 02:12:16.919610 23556 net.cpp:151] Top shape: 20 128 10 10 (256000)
I0504 02:12:16.919620 23556 net.cpp:159] Memory required for data: 11808240
I0504 02:12:16.919638 23556 layer_factory.hpp:77] Creating layer relu4
I0504 02:12:16.919654 23556 net.cpp:94] Creating Layer relu4
I0504 02:12:16.919664 23556 net.cpp:435] relu4 <- conv4
I0504 02:12:16.919677 23556 net.cpp:396] relu4 -> conv4 (in-place)
I0504 02:12:16.919697 23556 net.cpp:144] Setting up relu4
I0504 02:12:16.919710 23556 net.cpp:151] Top shape: 20 128 10 10 (256000)
I0504 02:12:16.919718 23556 net.cpp:159] Memory required for data: 12832240
I0504 02:12:16.919728 23556 layer_factory.hpp:77] Creating layer conv5
I0504 02:12:16.919747 23556 net.cpp:94] Creating Layer conv5
I0504 02:12:16.919756 23556 net.cpp:435] conv5 <- conv4
I0504 02:12:16.919770 23556 net.cpp:409] conv5 -> conv5
I0504 02:12:16.934362 23556 net.cpp:144] Setting up conv5
I0504 02:12:16.934386 23556 net.cpp:151] Top shape: 20 128 10 10 (256000)
I0504 02:12:16.934391 23556 net.cpp:159] Memory required for data: 13856240
I0504 02:12:16.934401 23556 layer_factory.hpp:77] Creating layer relu5
I0504 02:12:16.934407 23556 net.cpp:94] Creating Layer relu5
I0504 02:12:16.934412 23556 net.cpp:435] relu5 <- conv5
I0504 02:12:16.934417 23556 net.cpp:396] relu5 -> conv5 (in-place)
I0504 02:12:16.934424 23556 net.cpp:144] Setting up relu5
I0504 02:12:16.934428 23556 net.cpp:151] Top shape: 20 128 10 10 (256000)
I0504 02:12:16.934432 23556 net.cpp:159] Memory required for data: 14880240
I0504 02:12:16.934435 23556 layer_factory.hpp:77] Creating layer pool5
I0504 02:12:16.934442 23556 net.cpp:94] Creating Layer pool5
I0504 02:12:16.934444 23556 net.cpp:435] pool5 <- conv5
I0504 02:12:16.934448 23556 net.cpp:409] pool5 -> pool5
I0504 02:12:16.934492 23556 net.cpp:144] Setting up pool5
I0504 02:12:16.934499 23556 net.cpp:151] Top shape: 20 128 5 5 (64000)
I0504 02:12:16.934504 23556 net.cpp:159] Memory required for data: 15136240
I0504 02:12:16.934506 23556 layer_factory.hpp:77] Creating layer ip1
I0504 02:12:16.934514 23556 net.cpp:94] Creating Layer ip1
I0504 02:12:16.934517 23556 net.cpp:435] ip1 <- pool5
I0504 02:12:16.934521 23556 net.cpp:409] ip1 -> ip1
I0504 02:12:17.018342 23556 net.cpp:144] Setting up ip1
I0504 02:12:17.018378 23556 net.cpp:151] Top shape: 20 1024 (20480)
I0504 02:12:17.018383 23556 net.cpp:159] Memory required for data: 15218160
I0504 02:12:17.018391 23556 layer_factory.hpp:77] Creating layer ip2
I0504 02:12:17.018402 23556 net.cpp:94] Creating Layer ip2
I0504 02:12:17.018407 23556 net.cpp:435] ip2 <- ip1
I0504 02:12:17.018414 23556 net.cpp:409] ip2 -> ip2
I0504 02:12:17.032331 23556 net.cpp:144] Setting up ip2
I0504 02:12:17.032349 23556 net.cpp:151] Top shape: 20 512 (10240)
I0504 02:12:17.032353 23556 net.cpp:159] Memory required for data: 15259120
I0504 02:12:17.032361 23556 layer_factory.hpp:77] Creating layer ip3
I0504 02:12:17.032371 23556 net.cpp:94] Creating Layer ip3
I0504 02:12:17.032374 23556 net.cpp:435] ip3 <- ip2
I0504 02:12:17.032380 23556 net.cpp:409] ip3 -> ip3
I0504 02:12:17.033169 23556 net.cpp:144] Setting up ip3
I0504 02:12:17.033179 23556 net.cpp:151] Top shape: 20 50 (1000)
I0504 02:12:17.033182 23556 net.cpp:159] Memory required for data: 15263120
I0504 02:12:17.033187 23556 layer_factory.hpp:77] Creating layer ip3_ip3_0_split
I0504 02:12:17.033193 23556 net.cpp:94] Creating Layer ip3_ip3_0_split
I0504 02:12:17.033197 23556 net.cpp:435] ip3_ip3_0_split <- ip3
I0504 02:12:17.033201 23556 net.cpp:409] ip3_ip3_0_split -> ip3_ip3_0_split_0
I0504 02:12:17.033207 23556 net.cpp:409] ip3_ip3_0_split -> ip3_ip3_0_split_1
I0504 02:12:17.033252 23556 net.cpp:144] Setting up ip3_ip3_0_split
I0504 02:12:17.033258 23556 net.cpp:151] Top shape: 20 50 (1000)
I0504 02:12:17.033262 23556 net.cpp:151] Top shape: 20 50 (1000)
I0504 02:12:17.033265 23556 net.cpp:159] Memory required for data: 15271120
I0504 02:12:17.033268 23556 layer_factory.hpp:77] Creating layer accuracy
I0504 02:12:17.033274 23556 net.cpp:94] Creating Layer accuracy
I0504 02:12:17.033277 23556 net.cpp:435] accuracy <- ip3_ip3_0_split_0
I0504 02:12:17.033282 23556 net.cpp:435] accuracy <- label_intercept_1_split_0
I0504 02:12:17.033287 23556 net.cpp:409] accuracy -> accuracy
…
