…
I0504 05:27:39.741850 24194 net.cpp:323] The NetState phase (0) differed from the phase (1) specified by a rule in layer intercept
I0504 05:27:39.741868 24194 net.cpp:323] The NetState phase (0) differed from the phase (1) specified by a rule in layer loss
I0504 05:27:39.741958 24194 net.cpp:52] Initializing net from parameters: 
state {
  phase: TRAIN
}
layer {
  name: "parameters"
  type: "HDF5Data"
  top: "data"
  top: "label"
  include {
    phase: TRAIN
  }
  hdf5_data_param {
    source: "/home/purduethu/scratch/radon/d/deng106/CNNStatisticalModel/distributions/input/5_distributions_400_sample_size_train-parameters-path.txt"
    batch_size: 20
  }
}
layer {
  name: "conv1"
  type: "Convolution"
  bottom: "data"
  top: "conv1"
  param {
    lr_mult: 1
  }
  param {
    lr_mult: 2
  }
  convolution_param {
    num_output: 64
    pad: 2
    kernel_size: 5
    stride: 1
    weight_filler {
      type: "gaussian"
      std: 0.0001
    }
    bias_filler {
      type: "constant"
    }
  }
}
layer {
  name: "relu1"
  type: "ReLU"
  bottom: "conv1"
  top: "conv1"
}
layer {
  name: "conv2"
  type: "Convolution"
  bottom: "conv1"
  top: "conv2"
  param {
    lr_mult: 1
  }
  param {
    lr_mult: 2
  }
  convolution_param {
    num_output: 64
    pad: 2
    kernel_size: 5
    stride: 1
    weight_filler {
      type: "gaussian"
      std: 0.01
    }
    bias_filler {
      type: "constant"
    }
  }
}
layer {
  name: "relu2"
  type: "ReLU"
  bottom: "conv2"
  top: "conv2"
}
layer {
  name: "pool2"
  type: "Pooling"
  bottom: "conv2"
  top: "pool2"
  pooling_param {
    pool: MAX
    kernel_size: 3
    stride: 2
  }
}
layer {
  name: "conv3"
  type: "Convolution"
  bottom: "pool2"
  top: "conv3"
  param {
    lr_mult: 1
  }
  param {
    lr_mult: 2
  }
  convolution_param {
    num_output: 128
    pad: 2
    kernel_size: 5
    stride: 1
    weight_filler {
      type: "gaussian"
      std: 0.01
    }
    bias_filler {
      type: "constant"
    }
  }
}
layer {
  name: "relu3"
  type: "ReLU"
  bottom: "conv3"
  top: "conv3"
}
layer {
  name: "conv4"
  type: "Convolution"
  bottom: "conv3"
  top: "conv4"
  param {
    lr_mult: 1
  }
  param {
    lr_mult: 2
  }
  convolution_param {
    num_output: 128
    pad: 2
    kernel_size: 5
    stride: 1
    weight_filler {
      type: "gaussian"
      std: 0.01
    }
    bias_filler {
      type: "constant"
    }
  }
}
layer {
  name: "relu4"
  type: "ReLU"
  bottom: "conv4"
  top: "conv4"
}
layer {
  name: "conv5"
  type: "Convolution"
  bottom: "conv4"
  top: "conv5"
  param {
    lr_mult: 1
  }
  param {
    lr_mult: 2
  }
  convolution_param {
    num_output: 128
    pad: 2
    kernel_size: 5
    stride: 1
    weight_filler {
      type: "gaussian"
      std: 0.01
    }
    bias_filler {
      type: "constant"
    }
  }
}
layer {
  name: "relu5"
  type: "ReLU"
  bottom: "conv5"
  top: "conv5"
}
layer {
  name: "pool5"
  type: "Pooling"
  bottom: "conv5"
  top: "pool5"
  pooling_param {
    pool: AVE
    kernel_size: 3
    stride: 2
  }
}
layer {
  name: "ip1"
  type: "InnerProduct"
  bottom: "pool5"
  top: "ip1"
  param {
    lr_mult: 1
  }
  param {
    lr_mult: 2
  }
  inner_product_param {
    num_output: 1024
    weight_filler {
      type: "gaussian"
      std: 0.1
    }
    bias_filler {
      type: "constant"
    }
  }
}
layer {
  name: "ip2"
  type: "InnerProduct"
  bottom: "ip1"
  top: "ip2"
  param {
    lr_mult: 1
  }
  param {
    lr_mult: 2
  }
  inner_product_param {
    num_output: 512
    weight_filler {
      type: "gaussian"
      std: 0.1
    }
    bias_filler {
      type: "constant"
    }
  }
}
layer {
  name: "ip3"
  type: "InnerProduct"
  bottom: "ip2"
  top: "ip3"
  param {
    lr_mult: 1
  }
  param {
    lr_mult: 2
  }
  inner_product_param {
    num_output: 1
    weight_filler {
      type: "gaussian"
      std: 0.1
    }
    bias_filler {
      type: "constant"
    }
  }
}
layer {
  name: "loss"
  type: "HuberLoss"
  bottom: "ip3"
  bottom: "label"
  top: "loss"
  include {
    phase: TRAIN
  }
}
I0504 05:27:39.742033 24194 layer_factory.hpp:77] Creating layer parameters
I0504 05:27:39.742048 24194 net.cpp:94] Creating Layer parameters
I0504 05:27:39.742053 24194 net.cpp:409] parameters -> data
I0504 05:27:39.742071 24194 net.cpp:409] parameters -> label
I0504 05:27:39.742081 24194 hdf5_data_layer.cpp:79] Loading list of HDF5 filenames from: /home/purduethu/scratch/radon/d/deng106/CNNStatisticalModel/distributions/input/5_distributions_400_sample_size_train-parameters-path.txt
I0504 05:27:39.742108 24194 hdf5_data_layer.cpp:93] Number of HDF5 files: 1
I0504 05:27:39.742575 24194 hdf5.cpp:32] Datatype class: H5T_FLOAT
I0504 05:27:39.806589 24194 net.cpp:144] Setting up parameters
I0504 05:27:39.806622 24194 net.cpp:151] Top shape: 20 1 20 20 (8000)
I0504 05:27:39.806628 24194 net.cpp:151] Top shape: 20 (20)
I0504 05:27:39.806632 24194 net.cpp:159] Memory required for data: 32080
I0504 05:27:39.806640 24194 layer_factory.hpp:77] Creating layer conv1
I0504 05:27:39.806663 24194 net.cpp:94] Creating Layer conv1
I0504 05:27:39.806669 24194 net.cpp:435] conv1 <- data
I0504 05:27:39.806680 24194 net.cpp:409] conv1 -> conv1
I0504 05:27:39.811548 24194 net.cpp:144] Setting up conv1
I0504 05:27:39.811563 24194 net.cpp:151] Top shape: 20 64 20 20 (512000)
I0504 05:27:39.811568 24194 net.cpp:159] Memory required for data: 2080080
I0504 05:27:39.811578 24194 layer_factory.hpp:77] Creating layer relu1
I0504 05:27:39.811586 24194 net.cpp:94] Creating Layer relu1
I0504 05:27:39.811590 24194 net.cpp:435] relu1 <- conv1
I0504 05:27:39.811595 24194 net.cpp:396] relu1 -> conv1 (in-place)
I0504 05:27:39.811614 24194 net.cpp:144] Setting up relu1
I0504 05:27:39.811619 24194 net.cpp:151] Top shape: 20 64 20 20 (512000)
I0504 05:27:39.811622 24194 net.cpp:159] Memory required for data: 4128080
I0504 05:27:39.811625 24194 layer_factory.hpp:77] Creating layer conv2
I0504 05:27:39.811633 24194 net.cpp:94] Creating Layer conv2
I0504 05:27:39.811637 24194 net.cpp:435] conv2 <- conv1
I0504 05:27:39.811642 24194 net.cpp:409] conv2 -> conv2
I0504 05:27:39.822602 24194 net.cpp:144] Setting up conv2
I0504 05:27:39.822618 24194 net.cpp:151] Top shape: 20 64 20 20 (512000)
I0504 05:27:39.822621 24194 net.cpp:159] Memory required for data: 6176080
I0504 05:27:39.822629 24194 layer_factory.hpp:77] Creating layer relu2
I0504 05:27:39.822636 24194 net.cpp:94] Creating Layer relu2
I0504 05:27:39.822640 24194 net.cpp:435] relu2 <- conv2
I0504 05:27:39.822645 24194 net.cpp:396] relu2 -> conv2 (in-place)
I0504 05:27:39.822652 24194 net.cpp:144] Setting up relu2
I0504 05:27:39.822657 24194 net.cpp:151] Top shape: 20 64 20 20 (512000)
I0504 05:27:39.822660 24194 net.cpp:159] Memory required for data: 8224080
I0504 05:27:39.822664 24194 layer_factory.hpp:77] Creating layer pool2
I0504 05:27:39.822671 24194 net.cpp:94] Creating Layer pool2
I0504 05:27:39.822680 24194 net.cpp:435] pool2 <- conv2
I0504 05:27:39.822686 24194 net.cpp:409] pool2 -> pool2
I0504 05:27:39.822731 24194 net.cpp:144] Setting up pool2
I0504 05:27:39.822738 24194 net.cpp:151] Top shape: 20 64 10 10 (128000)
I0504 05:27:39.822742 24194 net.cpp:159] Memory required for data: 8736080
I0504 05:27:39.822746 24194 layer_factory.hpp:77] Creating layer conv3
I0504 05:27:39.822753 24194 net.cpp:94] Creating Layer conv3
I0504 05:27:39.822757 24194 net.cpp:435] conv3 <- pool2
I0504 05:27:39.822762 24194 net.cpp:409] conv3 -> conv3
I0504 05:27:39.832571 24194 net.cpp:144] Setting up conv3
I0504 05:27:39.832587 24194 net.cpp:151] Top shape: 20 128 10 10 (256000)
I0504 05:27:39.832590 24194 net.cpp:159] Memory required for data: 9760080
I0504 05:27:39.832598 24194 layer_factory.hpp:77] Creating layer relu3
I0504 05:27:39.832604 24194 net.cpp:94] Creating Layer relu3
I0504 05:27:39.832608 24194 net.cpp:435] relu3 <- conv3
I0504 05:27:39.832613 24194 net.cpp:396] relu3 -> conv3 (in-place)
I0504 05:27:39.832622 24194 net.cpp:144] Setting up relu3
I0504 05:27:39.832625 24194 net.cpp:151] Top shape: 20 128 10 10 (256000)
I0504 05:27:39.832628 24194 net.cpp:159] Memory required for data: 10784080
I0504 05:27:39.832633 24194 layer_factory.hpp:77] Creating layer conv4
I0504 05:27:39.832640 24194 net.cpp:94] Creating Layer conv4
I0504 05:27:39.832644 24194 net.cpp:435] conv4 <- conv3
I0504 05:27:39.832649 24194 net.cpp:409] conv4 -> conv4
I0504 05:27:39.850883 24194 net.cpp:144] Setting up conv4
I0504 05:27:39.850899 24194 net.cpp:151] Top shape: 20 128 10 10 (256000)
I0504 05:27:39.850903 24194 net.cpp:159] Memory required for data: 11808080
I0504 05:27:39.850910 24194 layer_factory.hpp:77] Creating layer relu4
I0504 05:27:39.850916 24194 net.cpp:94] Creating Layer relu4
I0504 05:27:39.850920 24194 net.cpp:435] relu4 <- conv4
I0504 05:27:39.850925 24194 net.cpp:396] relu4 -> conv4 (in-place)
I0504 05:27:39.850932 24194 net.cpp:144] Setting up relu4
I0504 05:27:39.850937 24194 net.cpp:151] Top shape: 20 128 10 10 (256000)
I0504 05:27:39.850940 24194 net.cpp:159] Memory required for data: 12832080
I0504 05:27:39.850944 24194 layer_factory.hpp:77] Creating layer conv5
I0504 05:27:39.850952 24194 net.cpp:94] Creating Layer conv5
I0504 05:27:39.850955 24194 net.cpp:435] conv5 <- conv4
I0504 05:27:39.850960 24194 net.cpp:409] conv5 -> conv5
I0504 05:27:39.868974 24194 net.cpp:144] Setting up conv5
I0504 05:27:39.868990 24194 net.cpp:151] Top shape: 20 128 10 10 (256000)
I0504 05:27:39.868994 24194 net.cpp:159] Memory required for data: 13856080
I0504 05:27:39.869004 24194 layer_factory.hpp:77] Creating layer relu5
I0504 05:27:39.869009 24194 net.cpp:94] Creating Layer relu5
I0504 05:27:39.869014 24194 net.cpp:435] relu5 <- conv5
I0504 05:27:39.869019 24194 net.cpp:396] relu5 -> conv5 (in-place)
I0504 05:27:39.869025 24194 net.cpp:144] Setting up relu5
I0504 05:27:39.869030 24194 net.cpp:151] Top shape: 20 128 10 10 (256000)
I0504 05:27:39.869033 24194 net.cpp:159] Memory required for data: 14880080
I0504 05:27:39.869036 24194 layer_factory.hpp:77] Creating layer pool5
I0504 05:27:39.869041 24194 net.cpp:94] Creating Layer pool5
I0504 05:27:39.869045 24194 net.cpp:435] pool5 <- conv5
I0504 05:27:39.869050 24194 net.cpp:409] pool5 -> pool5
I0504 05:27:39.869086 24194 net.cpp:144] Setting up pool5
I0504 05:27:39.869092 24194 net.cpp:151] Top shape: 20 128 5 5 (64000)
I0504 05:27:39.869096 24194 net.cpp:159] Memory required for data: 15136080
I0504 05:27:39.869099 24194 layer_factory.hpp:77] Creating layer ip1
I0504 05:27:39.869109 24194 net.cpp:94] Creating Layer ip1
I0504 05:27:39.869112 24194 net.cpp:435] ip1 <- pool5
I0504 05:27:39.869117 24194 net.cpp:409] ip1 -> ip1
I0504 05:27:39.951911 24194 net.cpp:144] Setting up ip1
I0504 05:27:39.951938 24194 net.cpp:151] Top shape: 20 1024 (20480)
I0504 05:27:39.951943 24194 net.cpp:159] Memory required for data: 15218000
I0504 05:27:39.951952 24194 layer_factory.hpp:77] Creating layer ip2
I0504 05:27:39.951962 24194 net.cpp:94] Creating Layer ip2
I0504 05:27:39.951967 24194 net.cpp:435] ip2 <- ip1
I0504 05:27:39.951982 24194 net.cpp:409] ip2 -> ip2
I0504 05:27:39.965507 24194 net.cpp:144] Setting up ip2
I0504 05:27:39.965520 24194 net.cpp:151] Top shape: 20 512 (10240)
I0504 05:27:39.965524 24194 net.cpp:159] Memory required for data: 15258960
I0504 05:27:39.965530 24194 layer_factory.hpp:77] Creating layer ip3
I0504 05:27:39.965538 24194 net.cpp:94] Creating Layer ip3
I0504 05:27:39.965541 24194 net.cpp:435] ip3 <- ip2
I0504 05:27:39.965546 24194 net.cpp:409] ip3 -> ip3
I0504 05:27:39.965626 24194 net.cpp:144] Setting up ip3
I0504 05:27:39.965641 24194 net.cpp:151] Top shape: 20 1 (20)
I0504 05:27:39.965646 24194 net.cpp:159] Memory required for data: 15259040
I0504 05:27:39.965651 24194 layer_factory.hpp:77] Creating layer loss
I0504 05:27:39.965659 24194 net.cpp:94] Creating Layer loss
I0504 05:27:39.965662 24194 net.cpp:435] loss <- ip3
I0504 05:27:39.965667 24194 net.cpp:435] loss <- label
I0504 05:27:39.965672 24194 net.cpp:409] loss -> loss
I0504 05:27:39.965715 24194 net.cpp:144] Setting up loss
…
