…
I0503 20:18:48.971055 22143 net.cpp:323] The NetState phase (0) differed from the phase (1) specified by a rule in layer intercept
I0503 20:18:48.971071 22143 net.cpp:323] The NetState phase (0) differed from the phase (1) specified by a rule in layer accuracy
I0503 20:18:48.971163 22143 net.cpp:52] Initializing net from parameters: 
state {
  phase: TRAIN
}
layer {
  name: "parameters"
  type: "HDF5Data"
  top: "data"
  top: "label"
  include {
    phase: TRAIN
  }
  hdf5_data_param {
    source: "/home/purduethu/scratch/radon/d/deng106/CNNStatisticalModel/distributions/input/5_distributions_100_sample_size_train-distributions-path.txt"
    batch_size: 20
  }
}
layer {
  name: "conv1"
  type: "Convolution"
  bottom: "data"
  top: "conv1"
  param {
    lr_mult: 1
  }
  param {
    lr_mult: 2
  }
  convolution_param {
    num_output: 64
    pad: 2
    kernel_size: 5
    stride: 1
    weight_filler {
      type: "gaussian"
      std: 0.0001
    }
    bias_filler {
      type: "constant"
    }
  }
}
layer {
  name: "relu1"
  type: "ReLU"
  bottom: "conv1"
  top: "conv1"
}
layer {
  name: "conv2"
  type: "Convolution"
  bottom: "conv1"
  top: "conv2"
  param {
    lr_mult: 1
  }
  param {
    lr_mult: 2
  }
  convolution_param {
    num_output: 64
    pad: 2
    kernel_size: 5
    stride: 1
    weight_filler {
      type: "gaussian"
      std: 0.01
    }
    bias_filler {
      type: "constant"
    }
  }
}
layer {
  name: "relu2"
  type: "ReLU"
  bottom: "conv2"
  top: "conv2"
}
layer {
  name: "pool2"
  type: "Pooling"
  bottom: "conv2"
  top: "pool2"
  pooling_param {
    pool: MAX
    kernel_size: 3
    stride: 2
  }
}
layer {
  name: "conv3"
  type: "Convolution"
  bottom: "pool2"
  top: "conv3"
  param {
    lr_mult: 1
  }
  param {
    lr_mult: 2
  }
  convolution_param {
    num_output: 128
    pad: 2
    kernel_size: 5
    stride: 1
    weight_filler {
      type: "gaussian"
      std: 0.01
    }
    bias_filler {
      type: "constant"
    }
  }
}
layer {
  name: "relu3"
  type: "ReLU"
  bottom: "conv3"
  top: "conv3"
}
layer {
  name: "conv4"
  type: "Convolution"
  bottom: "conv3"
  top: "conv4"
  param {
    lr_mult: 1
  }
  param {
    lr_mult: 2
  }
  convolution_param {
    num_output: 128
    pad: 2
    kernel_size: 5
    stride: 1
    weight_filler {
      type: "gaussian"
      std: 0.01
    }
    bias_filler {
      type: "constant"
    }
  }
}
layer {
  name: "relu4"
  type: "ReLU"
  bottom: "conv4"
  top: "conv4"
}
layer {
  name: "conv5"
  type: "Convolution"
  bottom: "conv4"
  top: "conv5"
  param {
    lr_mult: 1
  }
  param {
    lr_mult: 2
  }
  convolution_param {
    num_output: 128
    pad: 2
    kernel_size: 5
    stride: 1
    weight_filler {
      type: "gaussian"
      std: 0.01
    }
    bias_filler {
      type: "constant"
    }
  }
}
layer {
  name: "relu5"
  type: "ReLU"
  bottom: "conv5"
  top: "conv5"
}
layer {
  name: "pool5"
  type: "Pooling"
  bottom: "conv5"
  top: "pool5"
  pooling_param {
    pool: AVE
    kernel_size: 3
    stride: 2
  }
}
layer {
  name: "ip1"
  type: "InnerProduct"
  bottom: "pool5"
  top: "ip1"
  param {
    lr_mult: 1
  }
  param {
    lr_mult: 2
  }
  inner_product_param {
    num_output: 1024
    weight_filler {
      type: "gaussian"
      std: 0.1
    }
    bias_filler {
      type: "constant"
    }
  }
}
layer {
  name: "ip2"
  type: "InnerProduct"
  bottom: "ip1"
  top: "ip2"
  param {
    lr_mult: 1
  }
  param {
    lr_mult: 2
  }
  inner_product_param {
    num_output: 512
    weight_filler {
      type: "gaussian"
      std: 0.1
    }
    bias_filler {
      type: "constant"
    }
  }
}
layer {
  name: "ip3"
  type: "InnerProduct"
  bottom: "ip2"
  top: "ip3"
  param {
    lr_mult: 1
  }
  param {
    lr_mult: 2
  }
  inner_product_param {
    num_output: 50
    weight_filler {
      type: "gaussian"
      std: 0.1
    }
    bias_filler {
      type: "constant"
    }
  }
}
layer {
  name: "loss"
  type: "SoftmaxWithLoss"
  bottom: "ip3"
  bottom: "label"
  top: "loss"
}
I0503 20:18:48.971242 22143 layer_factory.hpp:77] Creating layer parameters
I0503 20:18:48.971257 22143 net.cpp:94] Creating Layer parameters
I0503 20:18:48.971263 22143 net.cpp:409] parameters -> data
I0503 20:18:48.971283 22143 net.cpp:409] parameters -> label
I0503 20:18:48.971293 22143 hdf5_data_layer.cpp:79] Loading list of HDF5 filenames from: /home/purduethu/scratch/radon/d/deng106/CNNStatisticalModel/distributions/input/5_distributions_100_sample_size_train-distributions-path.txt
I0503 20:18:48.971320 22143 hdf5_data_layer.cpp:93] Number of HDF5 files: 1
I0503 20:18:48.971906 22143 hdf5.cpp:32] Datatype class: H5T_FLOAT
I0503 20:18:48.988627 22143 hdf5.cpp:35] Datatype class: H5T_INTEGER
I0503 20:18:48.989770 22143 net.cpp:144] Setting up parameters
I0503 20:18:48.989790 22143 net.cpp:151] Top shape: 20 1 10 10 (2000)
I0503 20:18:48.989796 22143 net.cpp:151] Top shape: 20 (20)
I0503 20:18:48.989800 22143 net.cpp:159] Memory required for data: 8080
I0503 20:18:48.989809 22143 layer_factory.hpp:77] Creating layer conv1
I0503 20:18:48.989833 22143 net.cpp:94] Creating Layer conv1
I0503 20:18:48.989840 22143 net.cpp:435] conv1 <- data
I0503 20:18:48.989850 22143 net.cpp:409] conv1 -> conv1
I0503 20:18:48.993626 22143 net.cpp:144] Setting up conv1
I0503 20:18:48.993641 22143 net.cpp:151] Top shape: 20 64 10 10 (128000)
I0503 20:18:48.993645 22143 net.cpp:159] Memory required for data: 520080
I0503 20:18:48.993657 22143 layer_factory.hpp:77] Creating layer relu1
I0503 20:18:48.993665 22143 net.cpp:94] Creating Layer relu1
I0503 20:18:48.993669 22143 net.cpp:435] relu1 <- conv1
I0503 20:18:48.993674 22143 net.cpp:396] relu1 -> conv1 (in-place)
I0503 20:18:48.993692 22143 net.cpp:144] Setting up relu1
I0503 20:18:48.993698 22143 net.cpp:151] Top shape: 20 64 10 10 (128000)
I0503 20:18:48.993702 22143 net.cpp:159] Memory required for data: 1032080
I0503 20:18:48.993705 22143 layer_factory.hpp:77] Creating layer conv2
I0503 20:18:48.993713 22143 net.cpp:94] Creating Layer conv2
I0503 20:18:48.993717 22143 net.cpp:435] conv2 <- conv1
I0503 20:18:48.993722 22143 net.cpp:409] conv2 -> conv2
I0503 20:18:48.999519 22143 net.cpp:144] Setting up conv2
I0503 20:18:48.999533 22143 net.cpp:151] Top shape: 20 64 10 10 (128000)
I0503 20:18:48.999538 22143 net.cpp:159] Memory required for data: 1544080
I0503 20:18:48.999547 22143 layer_factory.hpp:77] Creating layer relu2
I0503 20:18:48.999553 22143 net.cpp:94] Creating Layer relu2
I0503 20:18:48.999557 22143 net.cpp:435] relu2 <- conv2
I0503 20:18:48.999562 22143 net.cpp:396] relu2 -> conv2 (in-place)
I0503 20:18:48.999568 22143 net.cpp:144] Setting up relu2
I0503 20:18:48.999573 22143 net.cpp:151] Top shape: 20 64 10 10 (128000)
I0503 20:18:48.999577 22143 net.cpp:159] Memory required for data: 2056080
I0503 20:18:48.999579 22143 layer_factory.hpp:77] Creating layer pool2
I0503 20:18:48.999593 22143 net.cpp:94] Creating Layer pool2
I0503 20:18:48.999598 22143 net.cpp:435] pool2 <- conv2
I0503 20:18:48.999603 22143 net.cpp:409] pool2 -> pool2
I0503 20:18:48.999646 22143 net.cpp:144] Setting up pool2
I0503 20:18:48.999655 22143 net.cpp:151] Top shape: 20 64 5 5 (32000)
I0503 20:18:48.999658 22143 net.cpp:159] Memory required for data: 2184080
I0503 20:18:48.999661 22143 layer_factory.hpp:77] Creating layer conv3
I0503 20:18:48.999670 22143 net.cpp:94] Creating Layer conv3
I0503 20:18:48.999673 22143 net.cpp:435] conv3 <- pool2
I0503 20:18:48.999686 22143 net.cpp:409] conv3 -> conv3
I0503 20:18:49.007812 22143 net.cpp:144] Setting up conv3
I0503 20:18:49.007825 22143 net.cpp:151] Top shape: 20 128 5 5 (64000)
I0503 20:18:49.007829 22143 net.cpp:159] Memory required for data: 2440080
I0503 20:18:49.007838 22143 layer_factory.hpp:77] Creating layer relu3
I0503 20:18:49.007843 22143 net.cpp:94] Creating Layer relu3
I0503 20:18:49.007848 22143 net.cpp:435] relu3 <- conv3
I0503 20:18:49.007853 22143 net.cpp:396] relu3 -> conv3 (in-place)
I0503 20:18:49.007859 22143 net.cpp:144] Setting up relu3
I0503 20:18:49.007864 22143 net.cpp:151] Top shape: 20 128 5 5 (64000)
I0503 20:18:49.007868 22143 net.cpp:159] Memory required for data: 2696080
I0503 20:18:49.007870 22143 layer_factory.hpp:77] Creating layer conv4
I0503 20:18:49.007879 22143 net.cpp:94] Creating Layer conv4
I0503 20:18:49.007884 22143 net.cpp:435] conv4 <- conv3
I0503 20:18:49.007889 22143 net.cpp:409] conv4 -> conv4
I0503 20:18:49.022778 22143 net.cpp:144] Setting up conv4
I0503 20:18:49.022791 22143 net.cpp:151] Top shape: 20 128 5 5 (64000)
I0503 20:18:49.022796 22143 net.cpp:159] Memory required for data: 2952080
I0503 20:18:49.022802 22143 layer_factory.hpp:77] Creating layer relu4
I0503 20:18:49.022809 22143 net.cpp:94] Creating Layer relu4
I0503 20:18:49.022812 22143 net.cpp:435] relu4 <- conv4
I0503 20:18:49.022817 22143 net.cpp:396] relu4 -> conv4 (in-place)
I0503 20:18:49.022825 22143 net.cpp:144] Setting up relu4
I0503 20:18:49.022830 22143 net.cpp:151] Top shape: 20 128 5 5 (64000)
I0503 20:18:49.022832 22143 net.cpp:159] Memory required for data: 3208080
I0503 20:18:49.022835 22143 layer_factory.hpp:77] Creating layer conv5
I0503 20:18:49.022843 22143 net.cpp:94] Creating Layer conv5
I0503 20:18:49.022847 22143 net.cpp:435] conv5 <- conv4
I0503 20:18:49.022852 22143 net.cpp:409] conv5 -> conv5
I0503 20:18:49.037365 22143 net.cpp:144] Setting up conv5
I0503 20:18:49.037380 22143 net.cpp:151] Top shape: 20 128 5 5 (64000)
I0503 20:18:49.037384 22143 net.cpp:159] Memory required for data: 3464080
I0503 20:18:49.037394 22143 layer_factory.hpp:77] Creating layer relu5
I0503 20:18:49.037400 22143 net.cpp:94] Creating Layer relu5
I0503 20:18:49.037403 22143 net.cpp:435] relu5 <- conv5
I0503 20:18:49.037408 22143 net.cpp:396] relu5 -> conv5 (in-place)
I0503 20:18:49.037415 22143 net.cpp:144] Setting up relu5
I0503 20:18:49.037420 22143 net.cpp:151] Top shape: 20 128 5 5 (64000)
I0503 20:18:49.037423 22143 net.cpp:159] Memory required for data: 3720080
I0503 20:18:49.037426 22143 layer_factory.hpp:77] Creating layer pool5
I0503 20:18:49.037432 22143 net.cpp:94] Creating Layer pool5
I0503 20:18:49.037436 22143 net.cpp:435] pool5 <- conv5
I0503 20:18:49.037439 22143 net.cpp:409] pool5 -> pool5
I0503 20:18:49.037474 22143 net.cpp:144] Setting up pool5
I0503 20:18:49.037482 22143 net.cpp:151] Top shape: 20 128 2 2 (10240)
I0503 20:18:49.037485 22143 net.cpp:159] Memory required for data: 3761040
I0503 20:18:49.037488 22143 layer_factory.hpp:77] Creating layer ip1
I0503 20:18:49.037498 22143 net.cpp:94] Creating Layer ip1
I0503 20:18:49.037503 22143 net.cpp:435] ip1 <- pool5
I0503 20:18:49.037508 22143 net.cpp:409] ip1 -> ip1
I0503 20:18:49.051609 22143 net.cpp:144] Setting up ip1
I0503 20:18:49.051623 22143 net.cpp:151] Top shape: 20 1024 (20480)
I0503 20:18:49.051627 22143 net.cpp:159] Memory required for data: 3842960
I0503 20:18:49.051633 22143 layer_factory.hpp:77] Creating layer ip2
I0503 20:18:49.051640 22143 net.cpp:94] Creating Layer ip2
I0503 20:18:49.051650 22143 net.cpp:435] ip2 <- ip1
I0503 20:18:49.051656 22143 net.cpp:409] ip2 -> ip2
I0503 20:18:49.065086 22143 net.cpp:144] Setting up ip2
I0503 20:18:49.065100 22143 net.cpp:151] Top shape: 20 512 (10240)
I0503 20:18:49.065105 22143 net.cpp:159] Memory required for data: 3883920
I0503 20:18:49.065111 22143 layer_factory.hpp:77] Creating layer ip3
I0503 20:18:49.065117 22143 net.cpp:94] Creating Layer ip3
I0503 20:18:49.065121 22143 net.cpp:435] ip3 <- ip2
I0503 20:18:49.065127 22143 net.cpp:409] ip3 -> ip3
I0503 20:18:49.065843 22143 net.cpp:144] Setting up ip3
I0503 20:18:49.065851 22143 net.cpp:151] Top shape: 20 50 (1000)
I0503 20:18:49.065855 22143 net.cpp:159] Memory required for data: 3887920
I0503 20:18:49.065860 22143 layer_factory.hpp:77] Creating layer loss
I0503 20:18:49.065868 22143 net.cpp:94] Creating Layer loss
I0503 20:18:49.065871 22143 net.cpp:435] loss <- ip3
I0503 20:18:49.065876 22143 net.cpp:435] loss <- label
I0503 20:18:49.065881 22143 net.cpp:409] loss -> loss
I0503 20:18:49.065896 22143 layer_factory.hpp:77] Creating layer loss
…
I0503 20:18:49.066400 22143 solver.cpp:181] Creating test net (#0) specified by net file: ./protocol/dis_5_100_dimension.protocol_distribution
I0503 20:18:49.066427 22143 net.cpp:323] The NetState phase (1) differed from the phase (0) specified by a rule in layer parameters
I0503 20:18:49.066524 22143 net.cpp:52] Initializing net from parameters: 
state {
  phase: TEST
}
layer {
  name: "intercept"
  type: "HDF5Data"
  top: "data"
  top: "label"
  include {
    phase: TEST
  }
  hdf5_data_param {
    source: "/home/purduethu/scratch/radon/d/deng106/CNNStatisticalModel/distributions/input/5_distributions_100_sample_size_test-distributions-path.txt"
    batch_size: 20
  }
}
layer {
  name: "conv1"
  type: "Convolution"
  bottom: "data"
  top: "conv1"
  param {
    lr_mult: 1
  }
  param {
    lr_mult: 2
  }
  convolution_param {
    num_output: 64
    pad: 2
    kernel_size: 5
    stride: 1
    weight_filler {
      type: "gaussian"
      std: 0.0001
    }
    bias_filler {
      type: "constant"
    }
  }
}
layer {
  name: "relu1"
  type: "ReLU"
  bottom: "conv1"
  top: "conv1"
}
layer {
  name: "conv2"
  type: "Convolution"
  bottom: "conv1"
  top: "conv2"
  param {
    lr_mult: 1
  }
  param {
    lr_mult: 2
  }
  convolution_param {
    num_output: 64
    pad: 2
    kernel_size: 5
    stride: 1
    weight_filler {
      type: "gaussian"
      std: 0.01
    }
    bias_filler {
      type: "constant"
    }
  }
}
layer {
  name: "relu2"
  type: "ReLU"
  bottom: "conv2"
  top: "conv2"
}
layer {
  name: "pool2"
  type: "Pooling"
  bottom: "conv2"
  top: "pool2"
  pooling_param {
    pool: MAX
    kernel_size: 3
    stride: 2
  }
}
layer {
  name: "conv3"
  type: "Convolution"
  bottom: "pool2"
  top: "conv3"
  param {
    lr_mult: 1
  }
  param {
    lr_mult: 2
  }
  convolution_param {
    num_output: 128
    pad: 2
    kernel_size: 5
    stride: 1
    weight_filler {
      type: "gaussian"
      std: 0.01
    }
    bias_filler {
      type: "constant"
    }
  }
}
layer {
  name: "relu3"
  type: "ReLU"
  bottom: "conv3"
  top: "conv3"
}
layer {
  name: "conv4"
  type: "Convolution"
  bottom: "conv3"
  top: "conv4"
  param {
    lr_mult: 1
  }
  param {
    lr_mult: 2
  }
  convolution_param {
    num_output: 128
    pad: 2
    kernel_size: 5
    stride: 1
    weight_filler {
      type: "gaussian"
      std: 0.01
    }
    bias_filler {
      type: "constant"
    }
  }
}
layer {
  name: "relu4"
  type: "ReLU"
  bottom: "conv4"
  top: "conv4"
}
layer {
  name: "conv5"
  type: "Convolution"
  bottom: "conv4"
  top: "conv5"
  param {
    lr_mult: 1
  }
  param {
    lr_mult: 2
  }
  convolution_param {
    num_output: 128
    pad: 2
    kernel_size: 5
    stride: 1
    weight_filler {
      type: "gaussian"
      std: 0.01
    }
    bias_filler {
      type: "constant"
    }
  }
}
layer {
  name: "relu5"
  type: "ReLU"
  bottom: "conv5"
  top: "conv5"
}
layer {
  name: "pool5"
  type: "Pooling"
  bottom: "conv5"
  top: "pool5"
  pooling_param {
    pool: AVE
    kernel_size: 3
    stride: 2
  }
}
layer {
  name: "ip1"
  type: "InnerProduct"
  bottom: "pool5"
  top: "ip1"
  param {
    lr_mult: 1
  }
  param {
    lr_mult: 2
  }
  inner_product_param {
    num_output: 1024
    weight_filler {
      type: "gaussian"
      std: 0.1
    }
    bias_filler {
      type: "constant"
    }
  }
}
layer {
  name: "ip2"
  type: "InnerProduct"
  bottom: "ip1"
  top: "ip2"
  param {
    lr_mult: 1
  }
  param {
    lr_mult: 2
  }
  inner_product_param {
    num_output: 512
    weight_filler {
      type: "gaussian"
      std: 0.1
    }
    bias_filler {
      type: "constant"
    }
  }
}
layer {
  name: "ip3"
  type: "InnerProduct"
  bottom: "ip2"
  top: "ip3"
  param {
    lr_mult: 1
  }
  param {
    lr_mult: 2
  }
  inner_product_param {
    num_output: 50
    weight_filler {
      type: "gaussian"
      std: 0.1
    }
    bias_filler {
      type: "constant"
    }
  }
}
layer {
  name: "accuracy"
  type: "Accuracy"
  bottom: "ip3"
  bottom: "label"
  top: "accuracy"
  include {
    phase: TEST
  }
}
layer {
  name: "loss"
  type: "SoftmaxWithLoss"
  bottom: "ip3"
  bottom: "label"
  top: "loss"
}
I0503 20:18:49.066598 22143 layer_factory.hpp:77] Creating layer intercept
I0503 20:18:49.066607 22143 net.cpp:94] Creating Layer intercept
I0503 20:18:49.066612 22143 net.cpp:409] intercept -> data
I0503 20:18:49.066618 22143 net.cpp:409] intercept -> label
I0503 20:18:49.066625 22143 hdf5_data_layer.cpp:79] Loading list of HDF5 filenames from: /home/purduethu/scratch/radon/d/deng106/CNNStatisticalModel/distributions/input/5_distributions_100_sample_size_test-distributions-path.txt
I0503 20:18:49.066648 22143 hdf5_data_layer.cpp:93] Number of HDF5 files: 1
I0503 20:18:49.071553 22143 net.cpp:144] Setting up intercept
I0503 20:18:49.071578 22143 net.cpp:151] Top shape: 20 1 10 10 (2000)
I0503 20:18:49.071583 22143 net.cpp:151] Top shape: 20 (20)
I0503 20:18:49.071588 22143 net.cpp:159] Memory required for data: 8080
I0503 20:18:49.071593 22143 layer_factory.hpp:77] Creating layer label_intercept_1_split
I0503 20:18:49.071609 22143 net.cpp:94] Creating Layer label_intercept_1_split
I0503 20:18:49.071612 22143 net.cpp:435] label_intercept_1_split <- label
I0503 20:18:49.071619 22143 net.cpp:409] label_intercept_1_split -> label_intercept_1_split_0
I0503 20:18:49.071626 22143 net.cpp:409] label_intercept_1_split -> label_intercept_1_split_1
I0503 20:18:49.071662 22143 net.cpp:144] Setting up label_intercept_1_split
I0503 20:18:49.071671 22143 net.cpp:151] Top shape: 20 (20)
I0503 20:18:49.071674 22143 net.cpp:151] Top shape: 20 (20)
I0503 20:18:49.071677 22143 net.cpp:159] Memory required for data: 8240
I0503 20:18:49.071681 22143 layer_factory.hpp:77] Creating layer conv1
I0503 20:18:49.071691 22143 net.cpp:94] Creating Layer conv1
I0503 20:18:49.071694 22143 net.cpp:435] conv1 <- data
I0503 20:18:49.071699 22143 net.cpp:409] conv1 -> conv1
I0503 20:18:49.072330 22143 net.cpp:144] Setting up conv1
I0503 20:18:49.072350 22143 net.cpp:151] Top shape: 20 64 10 10 (128000)
I0503 20:18:49.072355 22143 net.cpp:159] Memory required for data: 520240
I0503 20:18:49.072365 22143 layer_factory.hpp:77] Creating layer relu1
I0503 20:18:49.072371 22143 net.cpp:94] Creating Layer relu1
I0503 20:18:49.072374 22143 net.cpp:435] relu1 <- conv1
I0503 20:18:49.072379 22143 net.cpp:396] relu1 -> conv1 (in-place)
I0503 20:18:49.072386 22143 net.cpp:144] Setting up relu1
I0503 20:18:49.072391 22143 net.cpp:151] Top shape: 20 64 10 10 (128000)
I0503 20:18:49.072394 22143 net.cpp:159] Memory required for data: 1032240
I0503 20:18:49.072397 22143 layer_factory.hpp:77] Creating layer conv2
I0503 20:18:49.072405 22143 net.cpp:94] Creating Layer conv2
I0503 20:18:49.072408 22143 net.cpp:435] conv2 <- conv1
I0503 20:18:49.072413 22143 net.cpp:409] conv2 -> conv2
I0503 20:18:49.076292 22143 net.cpp:144] Setting up conv2
I0503 20:18:49.076306 22143 net.cpp:151] Top shape: 20 64 10 10 (128000)
I0503 20:18:49.076310 22143 net.cpp:159] Memory required for data: 1544240
I0503 20:18:49.076318 22143 layer_factory.hpp:77] Creating layer relu2
I0503 20:18:49.076324 22143 net.cpp:94] Creating Layer relu2
I0503 20:18:49.076328 22143 net.cpp:435] relu2 <- conv2
I0503 20:18:49.076333 22143 net.cpp:396] relu2 -> conv2 (in-place)
I0503 20:18:49.076339 22143 net.cpp:144] Setting up relu2
I0503 20:18:49.076344 22143 net.cpp:151] Top shape: 20 64 10 10 (128000)
I0503 20:18:49.076347 22143 net.cpp:159] Memory required for data: 2056240
I0503 20:18:49.076351 22143 layer_factory.hpp:77] Creating layer pool2
I0503 20:18:49.076357 22143 net.cpp:94] Creating Layer pool2
I0503 20:18:49.076360 22143 net.cpp:435] pool2 <- conv2
I0503 20:18:49.076364 22143 net.cpp:409] pool2 -> pool2
I0503 20:18:49.076398 22143 net.cpp:144] Setting up pool2
I0503 20:18:49.076406 22143 net.cpp:151] Top shape: 20 64 5 5 (32000)
I0503 20:18:49.076408 22143 net.cpp:159] Memory required for data: 2184240
I0503 20:18:49.076412 22143 layer_factory.hpp:77] Creating layer conv3
I0503 20:18:49.076419 22143 net.cpp:94] Creating Layer conv3
I0503 20:18:49.076423 22143 net.cpp:435] conv3 <- pool2
I0503 20:18:49.076428 22143 net.cpp:409] conv3 -> conv3
I0503 20:18:49.082969 22143 net.cpp:144] Setting up conv3
I0503 20:18:49.082983 22143 net.cpp:151] Top shape: 20 128 5 5 (64000)
I0503 20:18:49.082988 22143 net.cpp:159] Memory required for data: 2440240
I0503 20:18:49.082996 22143 layer_factory.hpp:77] Creating layer relu3
I0503 20:18:49.083003 22143 net.cpp:94] Creating Layer relu3
I0503 20:18:49.083006 22143 net.cpp:435] relu3 <- conv3
I0503 20:18:49.083011 22143 net.cpp:396] relu3 -> conv3 (in-place)
I0503 20:18:49.083019 22143 net.cpp:144] Setting up relu3
I0503 20:18:49.083024 22143 net.cpp:151] Top shape: 20 128 5 5 (64000)
I0503 20:18:49.083026 22143 net.cpp:159] Memory required for data: 2696240
I0503 20:18:49.083029 22143 layer_factory.hpp:77] Creating layer conv4
I0503 20:18:49.083037 22143 net.cpp:94] Creating Layer conv4
I0503 20:18:49.083040 22143 net.cpp:435] conv4 <- conv3
I0503 20:18:49.083045 22143 net.cpp:409] conv4 -> conv4
I0503 20:18:49.095660 22143 net.cpp:144] Setting up conv4
I0503 20:18:49.095674 22143 net.cpp:151] Top shape: 20 128 5 5 (64000)
I0503 20:18:49.095679 22143 net.cpp:159] Memory required for data: 2952240
I0503 20:18:49.095685 22143 layer_factory.hpp:77] Creating layer relu4
I0503 20:18:49.095691 22143 net.cpp:94] Creating Layer relu4
I0503 20:18:49.095695 22143 net.cpp:435] relu4 <- conv4
I0503 20:18:49.095705 22143 net.cpp:396] relu4 -> conv4 (in-place)
I0503 20:18:49.095711 22143 net.cpp:144] Setting up relu4
I0503 20:18:49.095716 22143 net.cpp:151] Top shape: 20 128 5 5 (64000)
I0503 20:18:49.095719 22143 net.cpp:159] Memory required for data: 3208240
I0503 20:18:49.095722 22143 layer_factory.hpp:77] Creating layer conv5
I0503 20:18:49.095731 22143 net.cpp:94] Creating Layer conv5
I0503 20:18:49.095734 22143 net.cpp:435] conv5 <- conv4
I0503 20:18:49.095738 22143 net.cpp:409] conv5 -> conv5
I0503 20:18:49.108315 22143 net.cpp:144] Setting up conv5
I0503 20:18:49.108335 22143 net.cpp:151] Top shape: 20 128 5 5 (64000)
I0503 20:18:49.108340 22143 net.cpp:159] Memory required for data: 3464240
I0503 20:18:49.108348 22143 layer_factory.hpp:77] Creating layer relu5
I0503 20:18:49.108355 22143 net.cpp:94] Creating Layer relu5
I0503 20:18:49.108358 22143 net.cpp:435] relu5 <- conv5
I0503 20:18:49.108362 22143 net.cpp:396] relu5 -> conv5 (in-place)
I0503 20:18:49.108369 22143 net.cpp:144] Setting up relu5
I0503 20:18:49.108374 22143 net.cpp:151] Top shape: 20 128 5 5 (64000)
I0503 20:18:49.108377 22143 net.cpp:159] Memory required for data: 3720240
I0503 20:18:49.108381 22143 layer_factory.hpp:77] Creating layer pool5
I0503 20:18:49.108386 22143 net.cpp:94] Creating Layer pool5
I0503 20:18:49.108389 22143 net.cpp:435] pool5 <- conv5
I0503 20:18:49.108393 22143 net.cpp:409] pool5 -> pool5
I0503 20:18:49.108420 22143 net.cpp:144] Setting up pool5
I0503 20:18:49.108427 22143 net.cpp:151] Top shape: 20 128 2 2 (10240)
I0503 20:18:49.108430 22143 net.cpp:159] Memory required for data: 3761200
I0503 20:18:49.108433 22143 layer_factory.hpp:77] Creating layer ip1
I0503 20:18:49.108440 22143 net.cpp:94] Creating Layer ip1
I0503 20:18:49.108443 22143 net.cpp:435] ip1 <- pool5
I0503 20:18:49.108448 22143 net.cpp:409] ip1 -> ip1
I0503 20:18:49.121919 22143 net.cpp:144] Setting up ip1
I0503 20:18:49.121933 22143 net.cpp:151] Top shape: 20 1024 (20480)
I0503 20:18:49.121937 22143 net.cpp:159] Memory required for data: 3843120
I0503 20:18:49.121943 22143 layer_factory.hpp:77] Creating layer ip2
I0503 20:18:49.121950 22143 net.cpp:94] Creating Layer ip2
I0503 20:18:49.121953 22143 net.cpp:435] ip2 <- ip1
I0503 20:18:49.121958 22143 net.cpp:409] ip2 -> ip2
I0503 20:18:49.135404 22143 net.cpp:144] Setting up ip2
I0503 20:18:49.135418 22143 net.cpp:151] Top shape: 20 512 (10240)
I0503 20:18:49.135422 22143 net.cpp:159] Memory required for data: 3884080
I0503 20:18:49.135427 22143 layer_factory.hpp:77] Creating layer ip3
I0503 20:18:49.135435 22143 net.cpp:94] Creating Layer ip3
I0503 20:18:49.135439 22143 net.cpp:435] ip3 <- ip2
I0503 20:18:49.135444 22143 net.cpp:409] ip3 -> ip3
I0503 20:18:49.136154 22143 net.cpp:144] Setting up ip3
I0503 20:18:49.136162 22143 net.cpp:151] Top shape: 20 50 (1000)
I0503 20:18:49.136165 22143 net.cpp:159] Memory required for data: 3888080
I0503 20:18:49.136170 22143 layer_factory.hpp:77] Creating layer ip3_ip3_0_split
I0503 20:18:49.136176 22143 net.cpp:94] Creating Layer ip3_ip3_0_split
I0503 20:18:49.136179 22143 net.cpp:435] ip3_ip3_0_split <- ip3
I0503 20:18:49.136184 22143 net.cpp:409] ip3_ip3_0_split -> ip3_ip3_0_split_0
I0503 20:18:49.136189 22143 net.cpp:409] ip3_ip3_0_split -> ip3_ip3_0_split_1
I0503 20:18:49.136215 22143 net.cpp:144] Setting up ip3_ip3_0_split
I0503 20:18:49.136221 22143 net.cpp:151] Top shape: 20 50 (1000)
I0503 20:18:49.136225 22143 net.cpp:151] Top shape: 20 50 (1000)
I0503 20:18:49.136229 22143 net.cpp:159] Memory required for data: 3896080
I0503 20:18:49.136231 22143 layer_factory.hpp:77] Creating layer accuracy
I0503 20:18:49.136237 22143 net.cpp:94] Creating Layer accuracy
I0503 20:18:49.136241 22143 net.cpp:435] accuracy <- ip3_ip3_0_split_0
I0503 20:18:49.136245 22143 net.cpp:435] accuracy <- label_intercept_1_split_0
I0503 20:18:49.136250 22143 net.cpp:409] accuracy -> accuracy
…
