…
I0505 03:16:46.415995  2951 net.cpp:323] The NetState phase (0) differed from the phase (1) specified by a rule in layer intercept
I0505 03:16:46.416012  2951 net.cpp:323] The NetState phase (0) differed from the phase (1) specified by a rule in layer loss
I0505 03:16:46.416090  2951 net.cpp:52] Initializing net from parameters: 
state {
  phase: TRAIN
}
layer {
  name: "parameters"
  type: "HDF5Data"
  top: "data"
  top: "label"
  include {
    phase: TRAIN
  }
  hdf5_data_param {
    source: "/home/purduethu/scratch/radon/d/deng106/CNNStatisticalModel/distributions/input/50_distributions_100_sample_size_train-parameters-path.txt"
    batch_size: 20
  }
}
layer {
  name: "conv1"
  type: "Convolution"
  bottom: "data"
  top: "conv1"
  param {
    lr_mult: 1
  }
  param {
    lr_mult: 2
  }
  convolution_param {
    num_output: 64
    pad: 2
    kernel_size: 5
    stride: 1
    weight_filler {
      type: "gaussian"
      std: 0.0001
    }
    bias_filler {
      type: "constant"
    }
  }
}
layer {
  name: "relu1"
  type: "ReLU"
  bottom: "conv1"
  top: "conv1"
}
layer {
  name: "pool1"
  type: "Pooling"
  bottom: "conv1"
  top: "pool1"
  pooling_param {
    pool: MAX
    kernel_size: 3
    stride: 2
  }
}
layer {
  name: "conv2"
  type: "Convolution"
  bottom: "pool1"
  top: "conv2"
  param {
    lr_mult: 1
  }
  param {
    lr_mult: 2
  }
  convolution_param {
    num_output: 128
    pad: 2
    kernel_size: 5
    stride: 1
    weight_filler {
      type: "gaussian"
      std: 0.01
    }
    bias_filler {
      type: "constant"
    }
  }
}
layer {
  name: "relu2"
  type: "ReLU"
  bottom: "conv2"
  top: "conv2"
}
layer {
  name: "conv3"
  type: "Convolution"
  bottom: "conv2"
  top: "conv3"
  param {
    lr_mult: 1
  }
  param {
    lr_mult: 2
  }
  convolution_param {
    num_output: 128
    pad: 2
    kernel_size: 5
    stride: 1
    weight_filler {
      type: "gaussian"
      std: 0.01
    }
    bias_filler {
      type: "constant"
    }
  }
}
layer {
  name: "relu3"
  type: "ReLU"
  bottom: "conv3"
  top: "conv3"
}
layer {
  name: "pool3"
  type: "Pooling"
  bottom: "conv3"
  top: "pool3"
  pooling_param {
    pool: AVE
    kernel_size: 3
    stride: 2
  }
}
layer {
  name: "ip1"
  type: "InnerProduct"
  bottom: "pool3"
  top: "ip1"
  param {
    lr_mult: 1
  }
  param {
    lr_mult: 2
  }
  inner_product_param {
    num_output: 512
    weight_filler {
      type: "gaussian"
      std: 0.1
    }
    bias_filler {
      type: "constant"
    }
  }
}
layer {
  name: "ip2"
  type: "InnerProduct"
  bottom: "ip1"
  top: "ip2"
  param {
    lr_mult: 1
  }
  param {
    lr_mult: 2
  }
  inner_product_param {
    num_output: 256
    weight_filler {
      type: "gaussian"
      std: 0.1
    }
    bias_filler {
      type: "constant"
    }
  }
}
layer {
  name: "ip3"
  type: "InnerProduct"
  bottom: "ip2"
  top: "ip3"
  param {
    lr_mult: 1
  }
  param {
    lr_mult: 2
  }
  inner_product_param {
    num_output: 1
    weight_filler {
      type: "gaussian"
      std: 0.1
    }
    bias_filler {
      type: "constant"
    }
  }
}
layer {
  name: "loss"
  type: "HuberLoss"
  bottom: "ip3"
  bottom: "label"
  top: "loss"
  include {
    phase: TRAIN
  }
}
I0505 03:16:46.416153  2951 layer_factory.hpp:77] Creating layer parameters
I0505 03:16:46.416167  2951 net.cpp:94] Creating Layer parameters
I0505 03:16:46.416182  2951 net.cpp:409] parameters -> data
I0505 03:16:46.416200  2951 net.cpp:409] parameters -> label
I0505 03:16:46.416214  2951 hdf5_data_layer.cpp:79] Loading list of HDF5 filenames from: /home/purduethu/scratch/radon/d/deng106/CNNStatisticalModel/distributions/input/50_distributions_100_sample_size_train-parameters-path.txt
I0505 03:16:46.416236  2951 hdf5_data_layer.cpp:93] Number of HDF5 files: 1
I0505 03:16:46.416858  2951 hdf5.cpp:32] Datatype class: H5T_FLOAT
I0505 03:16:46.579753  2951 net.cpp:144] Setting up parameters
I0505 03:16:46.579788  2951 net.cpp:151] Top shape: 20 1 10 10 (2000)
I0505 03:16:46.579794  2951 net.cpp:151] Top shape: 20 (20)
I0505 03:16:46.579797  2951 net.cpp:159] Memory required for data: 8080
I0505 03:16:46.579804  2951 layer_factory.hpp:77] Creating layer conv1
I0505 03:16:46.579828  2951 net.cpp:94] Creating Layer conv1
I0505 03:16:46.579834  2951 net.cpp:435] conv1 <- data
I0505 03:16:46.579845  2951 net.cpp:409] conv1 -> conv1
I0505 03:16:46.583828  2951 net.cpp:144] Setting up conv1
I0505 03:16:46.583843  2951 net.cpp:151] Top shape: 20 64 10 10 (128000)
I0505 03:16:46.583847  2951 net.cpp:159] Memory required for data: 520080
I0505 03:16:46.583858  2951 layer_factory.hpp:77] Creating layer relu1
I0505 03:16:46.583866  2951 net.cpp:94] Creating Layer relu1
I0505 03:16:46.583870  2951 net.cpp:435] relu1 <- conv1
I0505 03:16:46.583875  2951 net.cpp:396] relu1 -> conv1 (in-place)
I0505 03:16:46.583891  2951 net.cpp:144] Setting up relu1
I0505 03:16:46.583897  2951 net.cpp:151] Top shape: 20 64 10 10 (128000)
I0505 03:16:46.583900  2951 net.cpp:159] Memory required for data: 1032080
I0505 03:16:46.583904  2951 layer_factory.hpp:77] Creating layer pool1
I0505 03:16:46.583911  2951 net.cpp:94] Creating Layer pool1
I0505 03:16:46.583915  2951 net.cpp:435] pool1 <- conv1
I0505 03:16:46.583920  2951 net.cpp:409] pool1 -> pool1
I0505 03:16:46.583963  2951 net.cpp:144] Setting up pool1
I0505 03:16:46.583971  2951 net.cpp:151] Top shape: 20 64 5 5 (32000)
I0505 03:16:46.583974  2951 net.cpp:159] Memory required for data: 1160080
I0505 03:16:46.583977  2951 layer_factory.hpp:77] Creating layer conv2
I0505 03:16:46.583986  2951 net.cpp:94] Creating Layer conv2
I0505 03:16:46.583989  2951 net.cpp:435] conv2 <- pool1
I0505 03:16:46.583994  2951 net.cpp:409] conv2 -> conv2
I0505 03:16:46.592924  2951 net.cpp:144] Setting up conv2
I0505 03:16:46.592939  2951 net.cpp:151] Top shape: 20 128 5 5 (64000)
I0505 03:16:46.592944  2951 net.cpp:159] Memory required for data: 1416080
I0505 03:16:46.592952  2951 layer_factory.hpp:77] Creating layer relu2
I0505 03:16:46.592957  2951 net.cpp:94] Creating Layer relu2
I0505 03:16:46.592962  2951 net.cpp:435] relu2 <- conv2
I0505 03:16:46.592967  2951 net.cpp:396] relu2 -> conv2 (in-place)
I0505 03:16:46.592973  2951 net.cpp:144] Setting up relu2
I0505 03:16:46.592978  2951 net.cpp:151] Top shape: 20 128 5 5 (64000)
I0505 03:16:46.592981  2951 net.cpp:159] Memory required for data: 1672080
I0505 03:16:46.592985  2951 layer_factory.hpp:77] Creating layer conv3
I0505 03:16:46.592993  2951 net.cpp:94] Creating Layer conv3
I0505 03:16:46.592996  2951 net.cpp:435] conv3 <- conv2
I0505 03:16:46.593001  2951 net.cpp:409] conv3 -> conv3
I0505 03:16:46.607837  2951 net.cpp:144] Setting up conv3
I0505 03:16:46.607853  2951 net.cpp:151] Top shape: 20 128 5 5 (64000)
I0505 03:16:46.607858  2951 net.cpp:159] Memory required for data: 1928080
I0505 03:16:46.607867  2951 layer_factory.hpp:77] Creating layer relu3
I0505 03:16:46.607873  2951 net.cpp:94] Creating Layer relu3
I0505 03:16:46.607882  2951 net.cpp:435] relu3 <- conv3
I0505 03:16:46.607888  2951 net.cpp:396] relu3 -> conv3 (in-place)
I0505 03:16:46.607895  2951 net.cpp:144] Setting up relu3
I0505 03:16:46.607900  2951 net.cpp:151] Top shape: 20 128 5 5 (64000)
I0505 03:16:46.607903  2951 net.cpp:159] Memory required for data: 2184080
I0505 03:16:46.607906  2951 layer_factory.hpp:77] Creating layer pool3
I0505 03:16:46.607913  2951 net.cpp:94] Creating Layer pool3
I0505 03:16:46.607916  2951 net.cpp:435] pool3 <- conv3
I0505 03:16:46.607926  2951 net.cpp:409] pool3 -> pool3
I0505 03:16:46.607960  2951 net.cpp:144] Setting up pool3
I0505 03:16:46.607967  2951 net.cpp:151] Top shape: 20 128 2 2 (10240)
I0505 03:16:46.607970  2951 net.cpp:159] Memory required for data: 2225040
I0505 03:16:46.607975  2951 layer_factory.hpp:77] Creating layer ip1
I0505 03:16:46.607983  2951 net.cpp:94] Creating Layer ip1
I0505 03:16:46.607987  2951 net.cpp:435] ip1 <- pool3
I0505 03:16:46.607992  2951 net.cpp:409] ip1 -> ip1
I0505 03:16:46.615097  2951 net.cpp:144] Setting up ip1
I0505 03:16:46.615111  2951 net.cpp:151] Top shape: 20 512 (10240)
I0505 03:16:46.615115  2951 net.cpp:159] Memory required for data: 2266000
I0505 03:16:46.615121  2951 layer_factory.hpp:77] Creating layer ip2
I0505 03:16:46.615128  2951 net.cpp:94] Creating Layer ip2
I0505 03:16:46.615133  2951 net.cpp:435] ip2 <- ip1
I0505 03:16:46.615139  2951 net.cpp:409] ip2 -> ip2
I0505 03:16:46.619027  2951 net.cpp:144] Setting up ip2
I0505 03:16:46.619041  2951 net.cpp:151] Top shape: 20 256 (5120)
I0505 03:16:46.619045  2951 net.cpp:159] Memory required for data: 2286480
I0505 03:16:46.619053  2951 layer_factory.hpp:77] Creating layer ip3
I0505 03:16:46.619060  2951 net.cpp:94] Creating Layer ip3
I0505 03:16:46.619065  2951 net.cpp:435] ip3 <- ip2
I0505 03:16:46.619069  2951 net.cpp:409] ip3 -> ip3
I0505 03:16:46.619138  2951 net.cpp:144] Setting up ip3
I0505 03:16:46.619144  2951 net.cpp:151] Top shape: 20 1 (20)
I0505 03:16:46.619148  2951 net.cpp:159] Memory required for data: 2286560
I0505 03:16:46.619153  2951 layer_factory.hpp:77] Creating layer loss
I0505 03:16:46.619158  2951 net.cpp:94] Creating Layer loss
I0505 03:16:46.619163  2951 net.cpp:435] loss <- ip3
I0505 03:16:46.619166  2951 net.cpp:435] loss <- label
I0505 03:16:46.619171  2951 net.cpp:409] loss -> loss
I0505 03:16:46.619206  2951 net.cpp:144] Setting up loss
…
