…
I0502 04:24:14.565037 18480 net.cpp:323] The NetState phase (0) differed from the phase (1) specified by a rule in layer intercept
I0502 04:24:14.565055 18480 net.cpp:323] The NetState phase (0) differed from the phase (1) specified by a rule in layer loss
I0502 04:24:14.565150 18480 net.cpp:52] Initializing net from parameters: 
state {
  phase: TRAIN
}
layer {
  name: "parameters"
  type: "HDF5Data"
  top: "data"
  top: "label"
  include {
    phase: TRAIN
  }
  hdf5_data_param {
    source: "/home/purduethu/scratch/radon/d/deng106/CNNStatisticalModel/distributions/input/20_distributions_900_sample_size_train-parameters-path.txt"
    batch_size: 20
  }
}
layer {
  name: "conv1"
  type: "Convolution"
  bottom: "data"
  top: "conv1"
  param {
    lr_mult: 1
  }
  param {
    lr_mult: 2
  }
  convolution_param {
    num_output: 64
    pad: 2
    kernel_size: 5
    stride: 1
    weight_filler {
      type: "gaussian"
      std: 0.0001
    }
    bias_filler {
      type: "constant"
    }
  }
}
layer {
  name: "relu1"
  type: "ReLU"
  bottom: "conv1"
  top: "conv1"
}
layer {
  name: "conv2"
  type: "Convolution"
  bottom: "conv1"
  top: "conv2"
  param {
    lr_mult: 1
  }
  param {
    lr_mult: 2
  }
  convolution_param {
    num_output: 64
    pad: 2
    kernel_size: 5
    stride: 1
    weight_filler {
      type: "gaussian"
      std: 0.01
    }
    bias_filler {
      type: "constant"
    }
  }
}
layer {
  name: "relu2"
  type: "ReLU"
  bottom: "conv2"
  top: "conv2"
}
layer {
  name: "pool2"
  type: "Pooling"
  bottom: "conv2"
  top: "pool2"
  pooling_param {
    pool: MAX
    kernel_size: 3
    stride: 2
  }
}
layer {
  name: "conv3"
  type: "Convolution"
  bottom: "pool2"
  top: "conv3"
  param {
    lr_mult: 1
  }
  param {
    lr_mult: 2
  }
  convolution_param {
    num_output: 64
    pad: 2
    kernel_size: 5
    stride: 1
    weight_filler {
      type: "gaussian"
      std: 0.01
    }
    bias_filler {
      type: "constant"
    }
  }
}
layer {
  name: "relu3"
  type: "ReLU"
  bottom: "conv3"
  top: "conv3"
}
layer {
  name: "conv4"
  type: "Convolution"
  bottom: "conv3"
  top: "conv4"
  param {
    lr_mult: 1
  }
  param {
    lr_mult: 2
  }
  convolution_param {
    num_output: 64
    pad: 2
    kernel_size: 5
    stride: 1
    weight_filler {
      type: "gaussian"
      std: 0.01
    }
    bias_filler {
      type: "constant"
    }
  }
}
layer {
  name: "relu4"
  type: "ReLU"
  bottom: "conv4"
  top: "conv4"
}
layer {
  name: "conv5"
  type: "Convolution"
  bottom: "conv4"
  top: "conv5"
  param {
    lr_mult: 1
  }
  param {
    lr_mult: 2
  }
  convolution_param {
    num_output: 64
    pad: 2
    kernel_size: 5
    stride: 1
    weight_filler {
      type: "gaussian"
      std: 0.01
    }
    bias_filler {
      type: "constant"
    }
  }
}
layer {
  name: "relu5"
  type: "ReLU"
  bottom: "conv5"
  top: "conv5"
}
layer {
  name: "pool5"
  type: "Pooling"
  bottom: "conv5"
  top: "pool5"
  pooling_param {
    pool: AVE
    kernel_size: 3
    stride: 2
  }
}
layer {
  name: "ip1"
  type: "InnerProduct"
  bottom: "pool5"
  top: "ip1"
  param {
    lr_mult: 1
  }
  param {
    lr_mult: 2
  }
  inner_product_param {
    num_output: 64
    weight_filler {
      type: "gaussian"
      std: 0.1
    }
    bias_filler {
      type: "constant"
    }
  }
}
layer {
  name: "ip2"
  type: "InnerProduct"
  bottom: "ip1"
  top: "ip2"
  param {
    lr_mult: 1
  }
  param {
    lr_mult: 2
  }
  inner_product_param {
    num_output: 64
    weight_filler {
      type: "gaussian"
      std: 0.1
    }
    bias_filler {
      type: "constant"
    }
  }
}
layer {
  name: "ip3"
  type: "InnerProduct"
  bottom: "ip2"
  top: "ip3"
  param {
    lr_mult: 1
  }
  param {
    lr_mult: 2
  }
  inner_product_param {
    num_output: 1
    weight_filler {
      type: "gaussian"
      std: 0.1
    }
    bias_filler {
      type: "constant"
    }
  }
}
layer {
  name: "loss"
  type: "HuberLoss"
  bottom: "ip3"
  bottom: "label"
  top: "loss"
  include {
    phase: TRAIN
  }
}
I0502 04:24:14.565227 18480 layer_factory.hpp:77] Creating layer parameters
I0502 04:24:14.565243 18480 net.cpp:94] Creating Layer parameters
I0502 04:24:14.565248 18480 net.cpp:409] parameters -> data
I0502 04:24:14.565268 18480 net.cpp:409] parameters -> label
I0502 04:24:14.565279 18480 hdf5_data_layer.cpp:79] Loading list of HDF5 filenames from: /home/purduethu/scratch/radon/d/deng106/CNNStatisticalModel/distributions/input/20_distributions_900_sample_size_train-parameters-path.txt
I0502 04:24:14.565301 18480 hdf5_data_layer.cpp:93] Number of HDF5 files: 1
I0502 04:24:14.565840 18480 hdf5.cpp:32] Datatype class: H5T_FLOAT
I0502 04:24:15.145711 18480 net.cpp:144] Setting up parameters
I0502 04:24:15.145743 18480 net.cpp:151] Top shape: 20 1 30 30 (18000)
I0502 04:24:15.145750 18480 net.cpp:151] Top shape: 20 (20)
I0502 04:24:15.145753 18480 net.cpp:159] Memory required for data: 72080
I0502 04:24:15.145761 18480 layer_factory.hpp:77] Creating layer conv1
I0502 04:24:15.145781 18480 net.cpp:94] Creating Layer conv1
I0502 04:24:15.145787 18480 net.cpp:435] conv1 <- data
I0502 04:24:15.145800 18480 net.cpp:409] conv1 -> conv1
I0502 04:24:15.151710 18480 net.cpp:144] Setting up conv1
I0502 04:24:15.151726 18480 net.cpp:151] Top shape: 20 64 30 30 (1152000)
I0502 04:24:15.151731 18480 net.cpp:159] Memory required for data: 4680080
I0502 04:24:15.151742 18480 layer_factory.hpp:77] Creating layer relu1
I0502 04:24:15.151751 18480 net.cpp:94] Creating Layer relu1
I0502 04:24:15.151754 18480 net.cpp:435] relu1 <- conv1
I0502 04:24:15.151759 18480 net.cpp:396] relu1 -> conv1 (in-place)
I0502 04:24:15.151774 18480 net.cpp:144] Setting up relu1
I0502 04:24:15.151780 18480 net.cpp:151] Top shape: 20 64 30 30 (1152000)
I0502 04:24:15.151783 18480 net.cpp:159] Memory required for data: 9288080
I0502 04:24:15.151787 18480 layer_factory.hpp:77] Creating layer conv2
I0502 04:24:15.151794 18480 net.cpp:94] Creating Layer conv2
I0502 04:24:15.151798 18480 net.cpp:435] conv2 <- conv1
I0502 04:24:15.151803 18480 net.cpp:409] conv2 -> conv2
I0502 04:24:15.166478 18480 net.cpp:144] Setting up conv2
I0502 04:24:15.166494 18480 net.cpp:151] Top shape: 20 64 30 30 (1152000)
I0502 04:24:15.166498 18480 net.cpp:159] Memory required for data: 13896080
I0502 04:24:15.166507 18480 layer_factory.hpp:77] Creating layer relu2
I0502 04:24:15.166513 18480 net.cpp:94] Creating Layer relu2
I0502 04:24:15.166517 18480 net.cpp:435] relu2 <- conv2
I0502 04:24:15.166522 18480 net.cpp:396] relu2 -> conv2 (in-place)
I0502 04:24:15.166530 18480 net.cpp:144] Setting up relu2
I0502 04:24:15.166535 18480 net.cpp:151] Top shape: 20 64 30 30 (1152000)
I0502 04:24:15.166538 18480 net.cpp:159] Memory required for data: 18504080
I0502 04:24:15.166541 18480 layer_factory.hpp:77] Creating layer pool2
I0502 04:24:15.166549 18480 net.cpp:94] Creating Layer pool2
I0502 04:24:15.166558 18480 net.cpp:435] pool2 <- conv2
I0502 04:24:15.166564 18480 net.cpp:409] pool2 -> pool2
I0502 04:24:15.166613 18480 net.cpp:144] Setting up pool2
I0502 04:24:15.166621 18480 net.cpp:151] Top shape: 20 64 15 15 (288000)
I0502 04:24:15.166625 18480 net.cpp:159] Memory required for data: 19656080
I0502 04:24:15.166627 18480 layer_factory.hpp:77] Creating layer conv3
I0502 04:24:15.166636 18480 net.cpp:94] Creating Layer conv3
I0502 04:24:15.166640 18480 net.cpp:435] conv3 <- pool2
I0502 04:24:15.166646 18480 net.cpp:409] conv3 -> conv3
I0502 04:24:15.174744 18480 net.cpp:144] Setting up conv3
I0502 04:24:15.174759 18480 net.cpp:151] Top shape: 20 64 15 15 (288000)
I0502 04:24:15.174763 18480 net.cpp:159] Memory required for data: 20808080
I0502 04:24:15.174772 18480 layer_factory.hpp:77] Creating layer relu3
I0502 04:24:15.174778 18480 net.cpp:94] Creating Layer relu3
I0502 04:24:15.174782 18480 net.cpp:435] relu3 <- conv3
I0502 04:24:15.174787 18480 net.cpp:396] relu3 -> conv3 (in-place)
I0502 04:24:15.174794 18480 net.cpp:144] Setting up relu3
I0502 04:24:15.174799 18480 net.cpp:151] Top shape: 20 64 15 15 (288000)
I0502 04:24:15.174803 18480 net.cpp:159] Memory required for data: 21960080
I0502 04:24:15.174805 18480 layer_factory.hpp:77] Creating layer conv4
I0502 04:24:15.174814 18480 net.cpp:94] Creating Layer conv4
I0502 04:24:15.174818 18480 net.cpp:435] conv4 <- conv3
I0502 04:24:15.174823 18480 net.cpp:409] conv4 -> conv4
I0502 04:24:15.182130 18480 net.cpp:144] Setting up conv4
I0502 04:24:15.182147 18480 net.cpp:151] Top shape: 20 64 15 15 (288000)
I0502 04:24:15.182150 18480 net.cpp:159] Memory required for data: 23112080
I0502 04:24:15.182157 18480 layer_factory.hpp:77] Creating layer relu4
I0502 04:24:15.182163 18480 net.cpp:94] Creating Layer relu4
I0502 04:24:15.182166 18480 net.cpp:435] relu4 <- conv4
I0502 04:24:15.182171 18480 net.cpp:396] relu4 -> conv4 (in-place)
I0502 04:24:15.182179 18480 net.cpp:144] Setting up relu4
I0502 04:24:15.182183 18480 net.cpp:151] Top shape: 20 64 15 15 (288000)
I0502 04:24:15.182186 18480 net.cpp:159] Memory required for data: 24264080
I0502 04:24:15.182189 18480 layer_factory.hpp:77] Creating layer conv5
I0502 04:24:15.182198 18480 net.cpp:94] Creating Layer conv5
I0502 04:24:15.182201 18480 net.cpp:435] conv5 <- conv4
I0502 04:24:15.182206 18480 net.cpp:409] conv5 -> conv5
I0502 04:24:15.190088 18480 net.cpp:144] Setting up conv5
I0502 04:24:15.190102 18480 net.cpp:151] Top shape: 20 64 15 15 (288000)
I0502 04:24:15.190106 18480 net.cpp:159] Memory required for data: 25416080
I0502 04:24:15.190115 18480 layer_factory.hpp:77] Creating layer relu5
I0502 04:24:15.190121 18480 net.cpp:94] Creating Layer relu5
I0502 04:24:15.190125 18480 net.cpp:435] relu5 <- conv5
I0502 04:24:15.190130 18480 net.cpp:396] relu5 -> conv5 (in-place)
I0502 04:24:15.190137 18480 net.cpp:144] Setting up relu5
I0502 04:24:15.190142 18480 net.cpp:151] Top shape: 20 64 15 15 (288000)
I0502 04:24:15.190145 18480 net.cpp:159] Memory required for data: 26568080
I0502 04:24:15.190148 18480 layer_factory.hpp:77] Creating layer pool5
I0502 04:24:15.190155 18480 net.cpp:94] Creating Layer pool5
I0502 04:24:15.190157 18480 net.cpp:435] pool5 <- conv5
I0502 04:24:15.190162 18480 net.cpp:409] pool5 -> pool5
I0502 04:24:15.190196 18480 net.cpp:144] Setting up pool5
I0502 04:24:15.190203 18480 net.cpp:151] Top shape: 20 64 7 7 (62720)
I0502 04:24:15.190207 18480 net.cpp:159] Memory required for data: 26818960
I0502 04:24:15.190210 18480 layer_factory.hpp:77] Creating layer ip1
I0502 04:24:15.190219 18480 net.cpp:94] Creating Layer ip1
I0502 04:24:15.190223 18480 net.cpp:435] ip1 <- pool5
I0502 04:24:15.190228 18480 net.cpp:409] ip1 -> ip1
I0502 04:24:15.194957 18480 net.cpp:144] Setting up ip1
I0502 04:24:15.194967 18480 net.cpp:151] Top shape: 20 64 (1280)
I0502 04:24:15.194969 18480 net.cpp:159] Memory required for data: 26824080
I0502 04:24:15.194974 18480 layer_factory.hpp:77] Creating layer ip2
I0502 04:24:15.194980 18480 net.cpp:94] Creating Layer ip2
I0502 04:24:15.194988 18480 net.cpp:435] ip2 <- ip1
I0502 04:24:15.194993 18480 net.cpp:409] ip2 -> ip2
I0502 04:24:15.195158 18480 net.cpp:144] Setting up ip2
I0502 04:24:15.195165 18480 net.cpp:151] Top shape: 20 64 (1280)
I0502 04:24:15.195168 18480 net.cpp:159] Memory required for data: 26829200
I0502 04:24:15.195173 18480 layer_factory.hpp:77] Creating layer ip3
I0502 04:24:15.195179 18480 net.cpp:94] Creating Layer ip3
I0502 04:24:15.195183 18480 net.cpp:435] ip3 <- ip2
I0502 04:24:15.195188 18480 net.cpp:409] ip3 -> ip3
I0502 04:24:15.195250 18480 net.cpp:144] Setting up ip3
I0502 04:24:15.195263 18480 net.cpp:151] Top shape: 20 1 (20)
I0502 04:24:15.195266 18480 net.cpp:159] Memory required for data: 26829280
I0502 04:24:15.195271 18480 layer_factory.hpp:77] Creating layer loss
I0502 04:24:15.195281 18480 net.cpp:94] Creating Layer loss
I0502 04:24:15.195284 18480 net.cpp:435] loss <- ip3
I0502 04:24:15.195288 18480 net.cpp:435] loss <- label
I0502 04:24:15.195294 18480 net.cpp:409] loss -> loss
I0502 04:24:15.195328 18480 net.cpp:144] Setting up loss
…
