…
I0506 07:59:48.803448 20786 net.cpp:323] The NetState phase (0) differed from the phase (1) specified by a rule in layer intercept
I0506 07:59:48.803465 20786 net.cpp:323] The NetState phase (0) differed from the phase (1) specified by a rule in layer loss
I0506 07:59:48.803546 20786 net.cpp:52] Initializing net from parameters: 
state {
  phase: TRAIN
}
layer {
  name: "parameters"
  type: "HDF5Data"
  top: "data"
  top: "label"
  include {
    phase: TRAIN
  }
  hdf5_data_param {
    source: "/home/purduethu/scratch/radon/d/deng106/CNNStatisticalModel/distributions/input/50_distributions_100_sample_size_train-parameters-path.txt"
    batch_size: 20
  }
}
layer {
  name: "conv1"
  type: "Convolution"
  bottom: "data"
  top: "conv1"
  param {
    lr_mult: 1
  }
  param {
    lr_mult: 2
  }
  convolution_param {
    num_output: 64
    pad: 2
    kernel_size: 5
    stride: 1
    weight_filler {
      type: "gaussian"
      std: 0.0001
    }
    bias_filler {
      type: "constant"
    }
  }
}
layer {
  name: "relu1"
  type: "ReLU"
  bottom: "conv1"
  top: "conv1"
}
layer {
  name: "conv2"
  type: "Convolution"
  bottom: "conv1"
  top: "conv2"
  param {
    lr_mult: 1
  }
  param {
    lr_mult: 2
  }
  convolution_param {
    num_output: 64
    pad: 2
    kernel_size: 5
    stride: 1
    weight_filler {
      type: "gaussian"
      std: 0.01
    }
    bias_filler {
      type: "constant"
    }
  }
}
layer {
  name: "relu2"
  type: "ReLU"
  bottom: "conv2"
  top: "conv2"
}
layer {
  name: "pool2"
  type: "Pooling"
  bottom: "conv2"
  top: "pool2"
  pooling_param {
    pool: MAX
    kernel_size: 3
    stride: 2
  }
}
layer {
  name: "conv3"
  type: "Convolution"
  bottom: "pool2"
  top: "conv3"
  param {
    lr_mult: 1
  }
  param {
    lr_mult: 2
  }
  convolution_param {
    num_output: 128
    pad: 2
    kernel_size: 5
    stride: 1
    weight_filler {
      type: "gaussian"
      std: 0.01
    }
    bias_filler {
      type: "constant"
    }
  }
}
layer {
  name: "relu3"
  type: "ReLU"
  bottom: "conv3"
  top: "conv3"
}
layer {
  name: "conv4"
  type: "Convolution"
  bottom: "conv3"
  top: "conv4"
  param {
    lr_mult: 1
  }
  param {
    lr_mult: 2
  }
  convolution_param {
    num_output: 128
    pad: 2
    kernel_size: 5
    stride: 1
    weight_filler {
      type: "gaussian"
      std: 0.01
    }
    bias_filler {
      type: "constant"
    }
  }
}
layer {
  name: "relu4"
  type: "ReLU"
  bottom: "conv4"
  top: "conv4"
}
layer {
  name: "conv5"
  type: "Convolution"
  bottom: "conv4"
  top: "conv5"
  param {
    lr_mult: 1
  }
  param {
    lr_mult: 2
  }
  convolution_param {
    num_output: 128
    pad: 2
    kernel_size: 5
    stride: 1
    weight_filler {
      type: "gaussian"
      std: 0.01
    }
    bias_filler {
      type: "constant"
    }
  }
}
layer {
  name: "relu5"
  type: "ReLU"
  bottom: "conv5"
  top: "conv5"
}
layer {
  name: "pool5"
  type: "Pooling"
  bottom: "conv5"
  top: "pool5"
  pooling_param {
    pool: AVE
    kernel_size: 3
    stride: 2
  }
}
layer {
  name: "ip1"
  type: "InnerProduct"
  bottom: "pool5"
  top: "ip1"
  param {
    lr_mult: 1
  }
  param {
    lr_mult: 2
  }
  inner_product_param {
    num_output: 1024
    weight_filler {
      type: "gaussian"
      std: 0.1
    }
    bias_filler {
      type: "constant"
    }
  }
}
layer {
  name: "ip2"
  type: "InnerProduct"
  bottom: "ip1"
  top: "ip2"
  param {
    lr_mult: 1
  }
  param {
    lr_mult: 2
  }
  inner_product_param {
    num_output: 512
    weight_filler {
      type: "gaussian"
      std: 0.1
    }
    bias_filler {
      type: "constant"
    }
  }
}
layer {
  name: "ip3"
  type: "InnerProduct"
  bottom: "ip2"
  top: "ip3"
  param {
    lr_mult: 1
  }
  param {
    lr_mult: 2
  }
  inner_product_param {
    num_output: 1
    weight_filler {
      type: "gaussian"
      std: 0.1
    }
    bias_filler {
      type: "constant"
    }
  }
}
layer {
  name: "loss"
  type: "HuberLoss"
  bottom: "ip3"
  bottom: "label"
  top: "loss"
  include {
    phase: TRAIN
  }
}
I0506 07:59:48.803603 20786 layer_factory.hpp:77] Creating layer parameters
I0506 07:59:48.803617 20786 net.cpp:94] Creating Layer parameters
I0506 07:59:48.803622 20786 net.cpp:409] parameters -> data
I0506 07:59:48.803632 20786 net.cpp:409] parameters -> label
I0506 07:59:48.803637 20786 hdf5_data_layer.cpp:79] Loading list of HDF5 filenames from: /home/purduethu/scratch/radon/d/deng106/CNNStatisticalModel/distributions/input/50_distributions_100_sample_size_train-parameters-path.txt
I0506 07:59:48.803653 20786 hdf5_data_layer.cpp:93] Number of HDF5 files: 1
I0506 07:59:48.804216 20786 hdf5.cpp:32] Datatype class: H5T_FLOAT
I0506 07:59:48.970521 20786 net.cpp:144] Setting up parameters
I0506 07:59:48.970553 20786 net.cpp:151] Top shape: 20 1 10 10 (2000)
I0506 07:59:48.970559 20786 net.cpp:151] Top shape: 20 (20)
I0506 07:59:48.970563 20786 net.cpp:159] Memory required for data: 8080
I0506 07:59:48.970569 20786 layer_factory.hpp:77] Creating layer conv1
I0506 07:59:48.970592 20786 net.cpp:94] Creating Layer conv1
I0506 07:59:48.970597 20786 net.cpp:435] conv1 <- data
I0506 07:59:48.970603 20786 net.cpp:409] conv1 -> conv1
I0506 07:59:48.974755 20786 net.cpp:144] Setting up conv1
I0506 07:59:48.974771 20786 net.cpp:151] Top shape: 20 64 10 10 (128000)
I0506 07:59:48.974776 20786 net.cpp:159] Memory required for data: 520080
I0506 07:59:48.974786 20786 layer_factory.hpp:77] Creating layer relu1
I0506 07:59:48.974794 20786 net.cpp:94] Creating Layer relu1
I0506 07:59:48.974797 20786 net.cpp:435] relu1 <- conv1
I0506 07:59:48.974802 20786 net.cpp:396] relu1 -> conv1 (in-place)
I0506 07:59:48.974814 20786 net.cpp:144] Setting up relu1
I0506 07:59:48.974819 20786 net.cpp:151] Top shape: 20 64 10 10 (128000)
I0506 07:59:48.974822 20786 net.cpp:159] Memory required for data: 1032080
I0506 07:59:48.974825 20786 layer_factory.hpp:77] Creating layer conv2
I0506 07:59:48.974834 20786 net.cpp:94] Creating Layer conv2
I0506 07:59:48.974838 20786 net.cpp:435] conv2 <- conv1
I0506 07:59:48.974843 20786 net.cpp:409] conv2 -> conv2
I0506 07:59:48.980898 20786 net.cpp:144] Setting up conv2
I0506 07:59:48.980913 20786 net.cpp:151] Top shape: 20 64 10 10 (128000)
I0506 07:59:48.980917 20786 net.cpp:159] Memory required for data: 1544080
I0506 07:59:48.980926 20786 layer_factory.hpp:77] Creating layer relu2
I0506 07:59:48.980932 20786 net.cpp:94] Creating Layer relu2
I0506 07:59:48.980937 20786 net.cpp:435] relu2 <- conv2
I0506 07:59:48.980940 20786 net.cpp:396] relu2 -> conv2 (in-place)
I0506 07:59:48.980947 20786 net.cpp:144] Setting up relu2
I0506 07:59:48.980952 20786 net.cpp:151] Top shape: 20 64 10 10 (128000)
I0506 07:59:48.980955 20786 net.cpp:159] Memory required for data: 2056080
I0506 07:59:48.980958 20786 layer_factory.hpp:77] Creating layer pool2
I0506 07:59:48.980964 20786 net.cpp:94] Creating Layer pool2
I0506 07:59:48.980967 20786 net.cpp:435] pool2 <- conv2
I0506 07:59:48.980973 20786 net.cpp:409] pool2 -> pool2
I0506 07:59:48.981024 20786 net.cpp:144] Setting up pool2
I0506 07:59:48.981031 20786 net.cpp:151] Top shape: 20 64 5 5 (32000)
I0506 07:59:48.981034 20786 net.cpp:159] Memory required for data: 2184080
I0506 07:59:48.981039 20786 layer_factory.hpp:77] Creating layer conv3
I0506 07:59:48.981046 20786 net.cpp:94] Creating Layer conv3
I0506 07:59:48.981056 20786 net.cpp:435] conv3 <- pool2
I0506 07:59:48.981062 20786 net.cpp:409] conv3 -> conv3
I0506 07:59:48.989334 20786 net.cpp:144] Setting up conv3
I0506 07:59:48.989349 20786 net.cpp:151] Top shape: 20 128 5 5 (64000)
I0506 07:59:48.989353 20786 net.cpp:159] Memory required for data: 2440080
I0506 07:59:48.989362 20786 layer_factory.hpp:77] Creating layer relu3
I0506 07:59:48.989367 20786 net.cpp:94] Creating Layer relu3
I0506 07:59:48.989372 20786 net.cpp:435] relu3 <- conv3
I0506 07:59:48.989377 20786 net.cpp:396] relu3 -> conv3 (in-place)
I0506 07:59:48.989382 20786 net.cpp:144] Setting up relu3
I0506 07:59:48.989387 20786 net.cpp:151] Top shape: 20 128 5 5 (64000)
I0506 07:59:48.989390 20786 net.cpp:159] Memory required for data: 2696080
I0506 07:59:48.989393 20786 layer_factory.hpp:77] Creating layer conv4
I0506 07:59:48.989403 20786 net.cpp:94] Creating Layer conv4
I0506 07:59:48.989406 20786 net.cpp:435] conv4 <- conv3
I0506 07:59:48.989410 20786 net.cpp:409] conv4 -> conv4
I0506 07:59:49.004750 20786 net.cpp:144] Setting up conv4
I0506 07:59:49.004765 20786 net.cpp:151] Top shape: 20 128 5 5 (64000)
I0506 07:59:49.004768 20786 net.cpp:159] Memory required for data: 2952080
I0506 07:59:49.004775 20786 layer_factory.hpp:77] Creating layer relu4
I0506 07:59:49.004781 20786 net.cpp:94] Creating Layer relu4
I0506 07:59:49.004784 20786 net.cpp:435] relu4 <- conv4
I0506 07:59:49.004789 20786 net.cpp:396] relu4 -> conv4 (in-place)
I0506 07:59:49.004796 20786 net.cpp:144] Setting up relu4
I0506 07:59:49.004801 20786 net.cpp:151] Top shape: 20 128 5 5 (64000)
I0506 07:59:49.004804 20786 net.cpp:159] Memory required for data: 3208080
I0506 07:59:49.004807 20786 layer_factory.hpp:77] Creating layer conv5
I0506 07:59:49.004815 20786 net.cpp:94] Creating Layer conv5
I0506 07:59:49.004819 20786 net.cpp:435] conv5 <- conv4
I0506 07:59:49.004824 20786 net.cpp:409] conv5 -> conv5
I0506 07:59:49.019704 20786 net.cpp:144] Setting up conv5
I0506 07:59:49.019719 20786 net.cpp:151] Top shape: 20 128 5 5 (64000)
I0506 07:59:49.019724 20786 net.cpp:159] Memory required for data: 3464080
I0506 07:59:49.019733 20786 layer_factory.hpp:77] Creating layer relu5
I0506 07:59:49.019739 20786 net.cpp:94] Creating Layer relu5
I0506 07:59:49.019743 20786 net.cpp:435] relu5 <- conv5
I0506 07:59:49.019747 20786 net.cpp:396] relu5 -> conv5 (in-place)
I0506 07:59:49.019754 20786 net.cpp:144] Setting up relu5
I0506 07:59:49.019759 20786 net.cpp:151] Top shape: 20 128 5 5 (64000)
I0506 07:59:49.019762 20786 net.cpp:159] Memory required for data: 3720080
I0506 07:59:49.019765 20786 layer_factory.hpp:77] Creating layer pool5
I0506 07:59:49.019771 20786 net.cpp:94] Creating Layer pool5
I0506 07:59:49.019774 20786 net.cpp:435] pool5 <- conv5
I0506 07:59:49.019779 20786 net.cpp:409] pool5 -> pool5
I0506 07:59:49.019817 20786 net.cpp:144] Setting up pool5
I0506 07:59:49.019824 20786 net.cpp:151] Top shape: 20 128 2 2 (10240)
I0506 07:59:49.019829 20786 net.cpp:159] Memory required for data: 3761040
I0506 07:59:49.019831 20786 layer_factory.hpp:77] Creating layer ip1
I0506 07:59:49.019842 20786 net.cpp:94] Creating Layer ip1
I0506 07:59:49.019845 20786 net.cpp:435] ip1 <- pool5
I0506 07:59:49.019850 20786 net.cpp:409] ip1 -> ip1
I0506 07:59:49.034318 20786 net.cpp:144] Setting up ip1
I0506 07:59:49.034333 20786 net.cpp:151] Top shape: 20 1024 (20480)
I0506 07:59:49.034337 20786 net.cpp:159] Memory required for data: 3842960
I0506 07:59:49.034344 20786 layer_factory.hpp:77] Creating layer ip2
I0506 07:59:49.034351 20786 net.cpp:94] Creating Layer ip2
I0506 07:59:49.034355 20786 net.cpp:435] ip2 <- ip1
I0506 07:59:49.034361 20786 net.cpp:409] ip2 -> ip2
I0506 07:59:49.047996 20786 net.cpp:144] Setting up ip2
I0506 07:59:49.048010 20786 net.cpp:151] Top shape: 20 512 (10240)
I0506 07:59:49.048014 20786 net.cpp:159] Memory required for data: 3883920
I0506 07:59:49.048020 20786 layer_factory.hpp:77] Creating layer ip3
I0506 07:59:49.048027 20786 net.cpp:94] Creating Layer ip3
I0506 07:59:49.048032 20786 net.cpp:435] ip3 <- ip2
I0506 07:59:49.048045 20786 net.cpp:409] ip3 -> ip3
I0506 07:59:49.048162 20786 net.cpp:144] Setting up ip3
I0506 07:59:49.048171 20786 net.cpp:151] Top shape: 20 1 (20)
I0506 07:59:49.048173 20786 net.cpp:159] Memory required for data: 3884000
I0506 07:59:49.048178 20786 layer_factory.hpp:77] Creating layer loss
I0506 07:59:49.048187 20786 net.cpp:94] Creating Layer loss
I0506 07:59:49.048190 20786 net.cpp:435] loss <- ip3
I0506 07:59:49.048194 20786 net.cpp:435] loss <- label
I0506 07:59:49.048198 20786 net.cpp:409] loss -> loss
I0506 07:59:49.048254 20786 net.cpp:144] Setting up loss
…
I0506 07:59:49.156865 20786 net.cpp:323] The NetState phase (0) differed from the phase (1) specified by a rule in layer intercept
I0506 07:59:49.156883 20786 net.cpp:323] The NetState phase (0) differed from the phase (1) specified by a rule in layer accuracy
I0506 07:59:49.156970 20786 net.cpp:52] Initializing net from parameters: 
state {
  phase: TRAIN
}
layer {
  name: "parameters"
  type: "HDF5Data"
  top: "data"
  top: "label"
  include {
    phase: TRAIN
  }
  hdf5_data_param {
    source: "/home/purduethu/scratch/radon/d/deng106/CNNStatisticalModel/distributions/input/50_distributions_100_sample_size_train-distributions-path.txt"
    batch_size: 20
  }
}
layer {
  name: "conv1"
  type: "Convolution"
  bottom: "data"
  top: "conv1"
  param {
    lr_mult: 1
  }
  param {
    lr_mult: 2
  }
  convolution_param {
    num_output: 64
    pad: 2
    kernel_size: 5
    stride: 1
    weight_filler {
      type: "gaussian"
      std: 0.0001
    }
    bias_filler {
      type: "constant"
    }
  }
}
layer {
  name: "relu1"
  type: "ReLU"
  bottom: "conv1"
  top: "conv1"
}
layer {
  name: "conv2"
  type: "Convolution"
  bottom: "conv1"
  top: "conv2"
  param {
    lr_mult: 1
  }
  param {
    lr_mult: 2
  }
  convolution_param {
    num_output: 64
    pad: 2
    kernel_size: 5
    stride: 1
    weight_filler {
      type: "gaussian"
      std: 0.01
    }
    bias_filler {
      type: "constant"
    }
  }
}
layer {
  name: "relu2"
  type: "ReLU"
  bottom: "conv2"
  top: "conv2"
}
layer {
  name: "pool2"
  type: "Pooling"
  bottom: "conv2"
  top: "pool2"
  pooling_param {
    pool: MAX
    kernel_size: 3
    stride: 2
  }
}
layer {
  name: "conv3"
  type: "Convolution"
  bottom: "pool2"
  top: "conv3"
  param {
    lr_mult: 1
  }
  param {
    lr_mult: 2
  }
  convolution_param {
    num_output: 128
    pad: 2
    kernel_size: 5
    stride: 1
    weight_filler {
      type: "gaussian"
      std: 0.01
    }
    bias_filler {
      type: "constant"
    }
  }
}
layer {
  name: "relu3"
  type: "ReLU"
  bottom: "conv3"
  top: "conv3"
}
layer {
  name: "conv4"
  type: "Convolution"
  bottom: "conv3"
  top: "conv4"
  param {
    lr_mult: 1
  }
  param {
    lr_mult: 2
  }
  convolution_param {
    num_output: 128
    pad: 2
    kernel_size: 5
    stride: 1
    weight_filler {
      type: "gaussian"
      std: 0.01
    }
    bias_filler {
      type: "constant"
    }
  }
}
layer {
  name: "relu4"
  type: "ReLU"
  bottom: "conv4"
  top: "conv4"
}
layer {
  name: "conv5"
  type: "Convolution"
  bottom: "conv4"
  top: "conv5"
  param {
    lr_mult: 1
  }
  param {
    lr_mult: 2
  }
  convolution_param {
    num_output: 128
    pad: 2
    kernel_size: 5
    stride: 1
    weight_filler {
      type: "gaussian"
      std: 0.01
    }
    bias_filler {
      type: "constant"
    }
  }
}
layer {
  name: "relu5"
  type: "ReLU"
  bottom: "conv5"
  top: "conv5"
}
layer {
  name: "pool5"
  type: "Pooling"
  bottom: "conv5"
  top: "pool5"
  pooling_param {
    pool: AVE
    kernel_size: 3
    stride: 2
  }
}
layer {
  name: "ip1"
  type: "InnerProduct"
  bottom: "pool5"
  top: "ip1"
  param {
    lr_mult: 1
  }
  param {
    lr_mult: 2
  }
  inner_product_param {
    num_output: 1024
    weight_filler {
      type: "gaussian"
      std: 0.1
    }
    bias_filler {
      type: "constant"
    }
  }
}
layer {
  name: "ip2"
  type: "InnerProduct"
  bottom: "ip1"
  top: "ip2"
  param {
    lr_mult: 1
  }
  param {
    lr_mult: 2
  }
  inner_product_param {
    num_output: 512
    weight_filler {
      type: "gaussian"
      std: 0.1
    }
    bias_filler {
      type: "constant"
    }
  }
}
layer {
  name: "ip3"
  type: "InnerProduct"
  bottom: "ip2"
  top: "ip3"
  param {
    lr_mult: 1
  }
  param {
    lr_mult: 2
  }
  inner_product_param {
    num_output: 50
    weight_filler {
      type: "gaussian"
      std: 0.1
    }
    bias_filler {
      type: "constant"
    }
  }
}
layer {
  name: "loss"
  type: "SoftmaxWithLoss"
  bottom: "ip3"
  bottom: "label"
  top: "loss"
}
I0506 07:59:49.157021 20786 layer_factory.hpp:77] Creating layer parameters
I0506 07:59:49.157029 20786 net.cpp:94] Creating Layer parameters
I0506 07:59:49.157033 20786 net.cpp:409] parameters -> data
I0506 07:59:49.157040 20786 net.cpp:409] parameters -> label
I0506 07:59:49.157047 20786 hdf5_data_layer.cpp:79] Loading list of HDF5 filenames from: /home/purduethu/scratch/radon/d/deng106/CNNStatisticalModel/distributions/input/50_distributions_100_sample_size_train-distributions-path.txt
I0506 07:59:49.157063 20786 hdf5_data_layer.cpp:93] Number of HDF5 files: 1
I0506 07:59:49.314013 20786 hdf5.cpp:35] Datatype class: H5T_INTEGER
I0506 07:59:49.317178 20786 net.cpp:144] Setting up parameters
I0506 07:59:49.317195 20786 net.cpp:151] Top shape: 20 1 10 10 (2000)
I0506 07:59:49.317201 20786 net.cpp:151] Top shape: 20 (20)
I0506 07:59:49.317204 20786 net.cpp:159] Memory required for data: 8080
I0506 07:59:49.317210 20786 layer_factory.hpp:77] Creating layer conv1
I0506 07:59:49.317226 20786 net.cpp:94] Creating Layer conv1
I0506 07:59:49.317231 20786 net.cpp:435] conv1 <- data
I0506 07:59:49.317237 20786 net.cpp:409] conv1 -> conv1
I0506 07:59:49.318977 20786 net.cpp:144] Setting up conv1
I0506 07:59:49.318990 20786 net.cpp:151] Top shape: 20 64 10 10 (128000)
I0506 07:59:49.318994 20786 net.cpp:159] Memory required for data: 520080
I0506 07:59:49.319005 20786 layer_factory.hpp:77] Creating layer relu1
I0506 07:59:49.319011 20786 net.cpp:94] Creating Layer relu1
I0506 07:59:49.319015 20786 net.cpp:435] relu1 <- conv1
I0506 07:59:49.319020 20786 net.cpp:396] relu1 -> conv1 (in-place)
I0506 07:59:49.319026 20786 net.cpp:144] Setting up relu1
I0506 07:59:49.319031 20786 net.cpp:151] Top shape: 20 64 10 10 (128000)
I0506 07:59:49.319034 20786 net.cpp:159] Memory required for data: 1032080
I0506 07:59:49.319037 20786 layer_factory.hpp:77] Creating layer conv2
I0506 07:59:49.319044 20786 net.cpp:94] Creating Layer conv2
I0506 07:59:49.319047 20786 net.cpp:435] conv2 <- conv1
I0506 07:59:49.319052 20786 net.cpp:409] conv2 -> conv2
I0506 07:59:49.324367 20786 net.cpp:144] Setting up conv2
I0506 07:59:49.324380 20786 net.cpp:151] Top shape: 20 64 10 10 (128000)
I0506 07:59:49.324384 20786 net.cpp:159] Memory required for data: 1544080
I0506 07:59:49.324393 20786 layer_factory.hpp:77] Creating layer relu2
I0506 07:59:49.324398 20786 net.cpp:94] Creating Layer relu2
I0506 07:59:49.324403 20786 net.cpp:435] relu2 <- conv2
I0506 07:59:49.324407 20786 net.cpp:396] relu2 -> conv2 (in-place)
I0506 07:59:49.324414 20786 net.cpp:144] Setting up relu2
I0506 07:59:49.324419 20786 net.cpp:151] Top shape: 20 64 10 10 (128000)
I0506 07:59:49.324421 20786 net.cpp:159] Memory required for data: 2056080
I0506 07:59:49.324424 20786 layer_factory.hpp:77] Creating layer pool2
I0506 07:59:49.324430 20786 net.cpp:94] Creating Layer pool2
I0506 07:59:49.324434 20786 net.cpp:435] pool2 <- conv2
I0506 07:59:49.324439 20786 net.cpp:409] pool2 -> pool2
I0506 07:59:49.324488 20786 net.cpp:144] Setting up pool2
I0506 07:59:49.324496 20786 net.cpp:151] Top shape: 20 64 5 5 (32000)
I0506 07:59:49.324498 20786 net.cpp:159] Memory required for data: 2184080
I0506 07:59:49.324502 20786 layer_factory.hpp:77] Creating layer conv3
I0506 07:59:49.324511 20786 net.cpp:94] Creating Layer conv3
I0506 07:59:49.324513 20786 net.cpp:435] conv3 <- pool2
I0506 07:59:49.324518 20786 net.cpp:409] conv3 -> conv3
I0506 07:59:49.333204 20786 net.cpp:144] Setting up conv3
I0506 07:59:49.333217 20786 net.cpp:151] Top shape: 20 128 5 5 (64000)
I0506 07:59:49.333222 20786 net.cpp:159] Memory required for data: 2440080
I0506 07:59:49.333230 20786 layer_factory.hpp:77] Creating layer relu3
I0506 07:59:49.333236 20786 net.cpp:94] Creating Layer relu3
I0506 07:59:49.333240 20786 net.cpp:435] relu3 <- conv3
I0506 07:59:49.333245 20786 net.cpp:396] relu3 -> conv3 (in-place)
I0506 07:59:49.333257 20786 net.cpp:144] Setting up relu3
I0506 07:59:49.333263 20786 net.cpp:151] Top shape: 20 128 5 5 (64000)
I0506 07:59:49.333266 20786 net.cpp:159] Memory required for data: 2696080
I0506 07:59:49.333269 20786 layer_factory.hpp:77] Creating layer conv4
I0506 07:59:49.333278 20786 net.cpp:94] Creating Layer conv4
I0506 07:59:49.333281 20786 net.cpp:435] conv4 <- conv3
I0506 07:59:49.333287 20786 net.cpp:409] conv4 -> conv4
I0506 07:59:49.347854 20786 net.cpp:144] Setting up conv4
I0506 07:59:49.347868 20786 net.cpp:151] Top shape: 20 128 5 5 (64000)
I0506 07:59:49.347872 20786 net.cpp:159] Memory required for data: 2952080
I0506 07:59:49.347878 20786 layer_factory.hpp:77] Creating layer relu4
I0506 07:59:49.347885 20786 net.cpp:94] Creating Layer relu4
I0506 07:59:49.347888 20786 net.cpp:435] relu4 <- conv4
I0506 07:59:49.347893 20786 net.cpp:396] relu4 -> conv4 (in-place)
I0506 07:59:49.347900 20786 net.cpp:144] Setting up relu4
I0506 07:59:49.347904 20786 net.cpp:151] Top shape: 20 128 5 5 (64000)
I0506 07:59:49.347908 20786 net.cpp:159] Memory required for data: 3208080
I0506 07:59:49.347910 20786 layer_factory.hpp:77] Creating layer conv5
I0506 07:59:49.347918 20786 net.cpp:94] Creating Layer conv5
I0506 07:59:49.347921 20786 net.cpp:435] conv5 <- conv4
I0506 07:59:49.347926 20786 net.cpp:409] conv5 -> conv5
I0506 07:59:49.363001 20786 net.cpp:144] Setting up conv5
I0506 07:59:49.363016 20786 net.cpp:151] Top shape: 20 128 5 5 (64000)
I0506 07:59:49.363020 20786 net.cpp:159] Memory required for data: 3464080
I0506 07:59:49.363029 20786 layer_factory.hpp:77] Creating layer relu5
I0506 07:59:49.363035 20786 net.cpp:94] Creating Layer relu5
I0506 07:59:49.363039 20786 net.cpp:435] relu5 <- conv5
I0506 07:59:49.363044 20786 net.cpp:396] relu5 -> conv5 (in-place)
I0506 07:59:49.363050 20786 net.cpp:144] Setting up relu5
I0506 07:59:49.363054 20786 net.cpp:151] Top shape: 20 128 5 5 (64000)
I0506 07:59:49.363057 20786 net.cpp:159] Memory required for data: 3720080
I0506 07:59:49.363060 20786 layer_factory.hpp:77] Creating layer pool5
I0506 07:59:49.363066 20786 net.cpp:94] Creating Layer pool5
I0506 07:59:49.363070 20786 net.cpp:435] pool5 <- conv5
I0506 07:59:49.363073 20786 net.cpp:409] pool5 -> pool5
I0506 07:59:49.363109 20786 net.cpp:144] Setting up pool5
I0506 07:59:49.363116 20786 net.cpp:151] Top shape: 20 128 2 2 (10240)
I0506 07:59:49.363119 20786 net.cpp:159] Memory required for data: 3761040
I0506 07:59:49.363123 20786 layer_factory.hpp:77] Creating layer ip1
I0506 07:59:49.363131 20786 net.cpp:94] Creating Layer ip1
I0506 07:59:49.363133 20786 net.cpp:435] ip1 <- pool5
I0506 07:59:49.363138 20786 net.cpp:409] ip1 -> ip1
I0506 07:59:49.376193 20786 net.cpp:144] Setting up ip1
I0506 07:59:49.376205 20786 net.cpp:151] Top shape: 20 1024 (20480)
I0506 07:59:49.376209 20786 net.cpp:159] Memory required for data: 3842960
I0506 07:59:49.376216 20786 layer_factory.hpp:77] Creating layer ip2
I0506 07:59:49.376222 20786 net.cpp:94] Creating Layer ip2
I0506 07:59:49.376226 20786 net.cpp:435] ip2 <- ip1
I0506 07:59:49.376231 20786 net.cpp:409] ip2 -> ip2
I0506 07:59:49.389286 20786 net.cpp:144] Setting up ip2
I0506 07:59:49.389300 20786 net.cpp:151] Top shape: 20 512 (10240)
I0506 07:59:49.389304 20786 net.cpp:159] Memory required for data: 3883920
I0506 07:59:49.389310 20786 layer_factory.hpp:77] Creating layer ip3
I0506 07:59:49.389317 20786 net.cpp:94] Creating Layer ip3
I0506 07:59:49.389322 20786 net.cpp:435] ip3 <- ip2
I0506 07:59:49.389327 20786 net.cpp:409] ip3 -> ip3
I0506 07:59:49.390836 20786 net.cpp:144] Setting up ip3
I0506 07:59:49.390848 20786 net.cpp:151] Top shape: 20 50 (1000)
I0506 07:59:49.390852 20786 net.cpp:159] Memory required for data: 3887920
I0506 07:59:49.390858 20786 layer_factory.hpp:77] Creating layer loss
I0506 07:59:49.390866 20786 net.cpp:94] Creating Layer loss
I0506 07:59:49.390869 20786 net.cpp:435] loss <- ip3
I0506 07:59:49.390874 20786 net.cpp:435] loss <- label
I0506 07:59:49.390878 20786 net.cpp:409] loss -> loss
I0506 07:59:49.390885 20786 layer_factory.hpp:77] Creating layer loss
…
I0506 07:59:49.391405 20786 solver.cpp:181] Creating test net (#0) specified by net file: ./protocol/dis_50_100_dimension.protocol_distribution
I0506 07:59:49.391430 20786 net.cpp:323] The NetState phase (1) differed from the phase (0) specified by a rule in layer parameters
I0506 07:59:49.391522 20786 net.cpp:52] Initializing net from parameters: 
state {
  phase: TEST
}
layer {
  name: "intercept"
  type: "HDF5Data"
  top: "data"
  top: "label"
  include {
    phase: TEST
  }
  hdf5_data_param {
    source: "/home/purduethu/scratch/radon/d/deng106/CNNStatisticalModel/distributions/input/50_distributions_100_sample_size_test-distributions-path.txt"
    batch_size: 20
  }
}
layer {
  name: "conv1"
  type: "Convolution"
  bottom: "data"
  top: "conv1"
  param {
    lr_mult: 1
  }
  param {
    lr_mult: 2
  }
  convolution_param {
    num_output: 64
    pad: 2
    kernel_size: 5
    stride: 1
    weight_filler {
      type: "gaussian"
      std: 0.0001
    }
    bias_filler {
      type: "constant"
    }
  }
}
layer {
  name: "relu1"
  type: "ReLU"
  bottom: "conv1"
  top: "conv1"
}
layer {
  name: "conv2"
  type: "Convolution"
  bottom: "conv1"
  top: "conv2"
  param {
    lr_mult: 1
  }
  param {
    lr_mult: 2
  }
  convolution_param {
    num_output: 64
    pad: 2
    kernel_size: 5
    stride: 1
    weight_filler {
      type: "gaussian"
      std: 0.01
    }
    bias_filler {
      type: "constant"
    }
  }
}
layer {
  name: "relu2"
  type: "ReLU"
  bottom: "conv2"
  top: "conv2"
}
layer {
  name: "pool2"
  type: "Pooling"
  bottom: "conv2"
  top: "pool2"
  pooling_param {
    pool: MAX
    kernel_size: 3
    stride: 2
  }
}
layer {
  name: "conv3"
  type: "Convolution"
  bottom: "pool2"
  top: "conv3"
  param {
    lr_mult: 1
  }
  param {
    lr_mult: 2
  }
  convolution_param {
    num_output: 128
    pad: 2
    kernel_size: 5
    stride: 1
    weight_filler {
      type: "gaussian"
      std: 0.01
    }
    bias_filler {
      type: "constant"
    }
  }
}
layer {
  name: "relu3"
  type: "ReLU"
  bottom: "conv3"
  top: "conv3"
}
layer {
  name: "conv4"
  type: "Convolution"
  bottom: "conv3"
  top: "conv4"
  param {
    lr_mult: 1
  }
  param {
    lr_mult: 2
  }
  convolution_param {
    num_output: 128
    pad: 2
    kernel_size: 5
    stride: 1
    weight_filler {
      type: "gaussian"
      std: 0.01
    }
    bias_filler {
      type: "constant"
    }
  }
}
layer {
  name: "relu4"
  type: "ReLU"
  bottom: "conv4"
  top: "conv4"
}
layer {
  name: "conv5"
  type: "Convolution"
  bottom: "conv4"
  top: "conv5"
  param {
    lr_mult: 1
  }
  param {
    lr_mult: 2
  }
  convolution_param {
    num_output: 128
    pad: 2
    kernel_size: 5
    stride: 1
    weight_filler {
      type: "gaussian"
      std: 0.01
    }
    bias_filler {
      type: "constant"
    }
  }
}
layer {
  name: "relu5"
  type: "ReLU"
  bottom: "conv5"
  top: "conv5"
}
layer {
  name: "pool5"
  type: "Pooling"
  bottom: "conv5"
  top: "pool5"
  pooling_param {
    pool: AVE
    kernel_size: 3
    stride: 2
  }
}
layer {
  name: "ip1"
  type: "InnerProduct"
  bottom: "pool5"
  top: "ip1"
  param {
    lr_mult: 1
  }
  param {
    lr_mult: 2
  }
  inner_product_param {
    num_output: 1024
    weight_filler {
      type: "gaussian"
      std: 0.1
    }
    bias_filler {
      type: "constant"
    }
  }
}
layer {
  name: "ip2"
  type: "InnerProduct"
  bottom: "ip1"
  top: "ip2"
  param {
    lr_mult: 1
  }
  param {
    lr_mult: 2
  }
  inner_product_param {
    num_output: 512
    weight_filler {
      type: "gaussian"
      std: 0.1
    }
    bias_filler {
      type: "constant"
    }
  }
}
layer {
  name: "ip3"
  type: "InnerProduct"
  bottom: "ip2"
  top: "ip3"
  param {
    lr_mult: 1
  }
  param {
    lr_mult: 2
  }
  inner_product_param {
    num_output: 50
    weight_filler {
      type: "gaussian"
      std: 0.1
    }
    bias_filler {
      type: "constant"
    }
  }
}
layer {
  name: "accuracy"
  type: "Accuracy"
  bottom: "ip3"
  bottom: "label"
  top: "accuracy"
  include {
    phase: TEST
  }
}
layer {
  name: "loss"
  type: "SoftmaxWithLoss"
  bottom: "ip3"
  bottom: "label"
  top: "loss"
}
I0506 07:59:49.391584 20786 layer_factory.hpp:77] Creating layer intercept
I0506 07:59:49.391592 20786 net.cpp:94] Creating Layer intercept
I0506 07:59:49.391597 20786 net.cpp:409] intercept -> data
I0506 07:59:49.391604 20786 net.cpp:409] intercept -> label
I0506 07:59:49.391609 20786 hdf5_data_layer.cpp:79] Loading list of HDF5 filenames from: /home/purduethu/scratch/radon/d/deng106/CNNStatisticalModel/distributions/input/50_distributions_100_sample_size_test-distributions-path.txt
I0506 07:59:49.391628 20786 hdf5_data_layer.cpp:93] Number of HDF5 files: 1
I0506 07:59:49.432229 20786 net.cpp:144] Setting up intercept
I0506 07:59:49.432262 20786 net.cpp:151] Top shape: 20 1 10 10 (2000)
I0506 07:59:49.432267 20786 net.cpp:151] Top shape: 20 (20)
I0506 07:59:49.432271 20786 net.cpp:159] Memory required for data: 8080
I0506 07:59:49.432276 20786 layer_factory.hpp:77] Creating layer label_intercept_1_split
I0506 07:59:49.432296 20786 net.cpp:94] Creating Layer label_intercept_1_split
I0506 07:59:49.432299 20786 net.cpp:435] label_intercept_1_split <- label
I0506 07:59:49.432307 20786 net.cpp:409] label_intercept_1_split -> label_intercept_1_split_0
I0506 07:59:49.432314 20786 net.cpp:409] label_intercept_1_split -> label_intercept_1_split_1
I0506 07:59:49.432354 20786 net.cpp:144] Setting up label_intercept_1_split
I0506 07:59:49.432361 20786 net.cpp:151] Top shape: 20 (20)
I0506 07:59:49.432364 20786 net.cpp:151] Top shape: 20 (20)
I0506 07:59:49.432368 20786 net.cpp:159] Memory required for data: 8240
I0506 07:59:49.432370 20786 layer_factory.hpp:77] Creating layer conv1
I0506 07:59:49.432381 20786 net.cpp:94] Creating Layer conv1
I0506 07:59:49.432385 20786 net.cpp:435] conv1 <- data
I0506 07:59:49.432389 20786 net.cpp:409] conv1 -> conv1
I0506 07:59:49.433243 20786 net.cpp:144] Setting up conv1
I0506 07:59:49.433257 20786 net.cpp:151] Top shape: 20 64 10 10 (128000)
I0506 07:59:49.433260 20786 net.cpp:159] Memory required for data: 520240
I0506 07:59:49.433270 20786 layer_factory.hpp:77] Creating layer relu1
I0506 07:59:49.433277 20786 net.cpp:94] Creating Layer relu1
I0506 07:59:49.433280 20786 net.cpp:435] relu1 <- conv1
I0506 07:59:49.433285 20786 net.cpp:396] relu1 -> conv1 (in-place)
I0506 07:59:49.433292 20786 net.cpp:144] Setting up relu1
I0506 07:59:49.433296 20786 net.cpp:151] Top shape: 20 64 10 10 (128000)
I0506 07:59:49.433307 20786 net.cpp:159] Memory required for data: 1032240
I0506 07:59:49.433311 20786 layer_factory.hpp:77] Creating layer conv2
I0506 07:59:49.433320 20786 net.cpp:94] Creating Layer conv2
I0506 07:59:49.433323 20786 net.cpp:435] conv2 <- conv1
I0506 07:59:49.433328 20786 net.cpp:409] conv2 -> conv2
I0506 07:59:49.437417 20786 net.cpp:144] Setting up conv2
I0506 07:59:49.437430 20786 net.cpp:151] Top shape: 20 64 10 10 (128000)
I0506 07:59:49.437434 20786 net.cpp:159] Memory required for data: 1544240
I0506 07:59:49.437443 20786 layer_factory.hpp:77] Creating layer relu2
I0506 07:59:49.437448 20786 net.cpp:94] Creating Layer relu2
I0506 07:59:49.437453 20786 net.cpp:435] relu2 <- conv2
I0506 07:59:49.437458 20786 net.cpp:396] relu2 -> conv2 (in-place)
I0506 07:59:49.437464 20786 net.cpp:144] Setting up relu2
I0506 07:59:49.437469 20786 net.cpp:151] Top shape: 20 64 10 10 (128000)
I0506 07:59:49.437472 20786 net.cpp:159] Memory required for data: 2056240
I0506 07:59:49.437475 20786 layer_factory.hpp:77] Creating layer pool2
I0506 07:59:49.437481 20786 net.cpp:94] Creating Layer pool2
I0506 07:59:49.437484 20786 net.cpp:435] pool2 <- conv2
I0506 07:59:49.437489 20786 net.cpp:409] pool2 -> pool2
I0506 07:59:49.437546 20786 net.cpp:144] Setting up pool2
I0506 07:59:49.437552 20786 net.cpp:151] Top shape: 20 64 5 5 (32000)
I0506 07:59:49.437556 20786 net.cpp:159] Memory required for data: 2184240
I0506 07:59:49.437558 20786 layer_factory.hpp:77] Creating layer conv3
I0506 07:59:49.437567 20786 net.cpp:94] Creating Layer conv3
I0506 07:59:49.437571 20786 net.cpp:435] conv3 <- pool2
I0506 07:59:49.437577 20786 net.cpp:409] conv3 -> conv3
I0506 07:59:49.443598 20786 net.cpp:144] Setting up conv3
I0506 07:59:49.443610 20786 net.cpp:151] Top shape: 20 128 5 5 (64000)
I0506 07:59:49.443614 20786 net.cpp:159] Memory required for data: 2440240
I0506 07:59:49.443621 20786 layer_factory.hpp:77] Creating layer relu3
I0506 07:59:49.443629 20786 net.cpp:94] Creating Layer relu3
I0506 07:59:49.443634 20786 net.cpp:435] relu3 <- conv3
I0506 07:59:49.443637 20786 net.cpp:396] relu3 -> conv3 (in-place)
I0506 07:59:49.443645 20786 net.cpp:144] Setting up relu3
I0506 07:59:49.443650 20786 net.cpp:151] Top shape: 20 128 5 5 (64000)
I0506 07:59:49.443653 20786 net.cpp:159] Memory required for data: 2696240
I0506 07:59:49.443656 20786 layer_factory.hpp:77] Creating layer conv4
I0506 07:59:49.443663 20786 net.cpp:94] Creating Layer conv4
I0506 07:59:49.443666 20786 net.cpp:435] conv4 <- conv3
I0506 07:59:49.443672 20786 net.cpp:409] conv4 -> conv4
I0506 07:59:49.456152 20786 net.cpp:144] Setting up conv4
I0506 07:59:49.456166 20786 net.cpp:151] Top shape: 20 128 5 5 (64000)
I0506 07:59:49.456171 20786 net.cpp:159] Memory required for data: 2952240
I0506 07:59:49.456176 20786 layer_factory.hpp:77] Creating layer relu4
I0506 07:59:49.456182 20786 net.cpp:94] Creating Layer relu4
I0506 07:59:49.456187 20786 net.cpp:435] relu4 <- conv4
I0506 07:59:49.456190 20786 net.cpp:396] relu4 -> conv4 (in-place)
I0506 07:59:49.456197 20786 net.cpp:144] Setting up relu4
I0506 07:59:49.456202 20786 net.cpp:151] Top shape: 20 128 5 5 (64000)
I0506 07:59:49.456204 20786 net.cpp:159] Memory required for data: 3208240
I0506 07:59:49.456207 20786 layer_factory.hpp:77] Creating layer conv5
I0506 07:59:49.456217 20786 net.cpp:94] Creating Layer conv5
I0506 07:59:49.456220 20786 net.cpp:435] conv5 <- conv4
I0506 07:59:49.456225 20786 net.cpp:409] conv5 -> conv5
I0506 07:59:49.468735 20786 net.cpp:144] Setting up conv5
I0506 07:59:49.468750 20786 net.cpp:151] Top shape: 20 128 5 5 (64000)
I0506 07:59:49.468753 20786 net.cpp:159] Memory required for data: 3464240
I0506 07:59:49.468762 20786 layer_factory.hpp:77] Creating layer relu5
I0506 07:59:49.468770 20786 net.cpp:94] Creating Layer relu5
I0506 07:59:49.468773 20786 net.cpp:435] relu5 <- conv5
I0506 07:59:49.468777 20786 net.cpp:396] relu5 -> conv5 (in-place)
I0506 07:59:49.468785 20786 net.cpp:144] Setting up relu5
I0506 07:59:49.468788 20786 net.cpp:151] Top shape: 20 128 5 5 (64000)
I0506 07:59:49.468796 20786 net.cpp:159] Memory required for data: 3720240
I0506 07:59:49.468799 20786 layer_factory.hpp:77] Creating layer pool5
I0506 07:59:49.468806 20786 net.cpp:94] Creating Layer pool5
I0506 07:59:49.468809 20786 net.cpp:435] pool5 <- conv5
I0506 07:59:49.468813 20786 net.cpp:409] pool5 -> pool5
I0506 07:59:49.468852 20786 net.cpp:144] Setting up pool5
I0506 07:59:49.468858 20786 net.cpp:151] Top shape: 20 128 2 2 (10240)
I0506 07:59:49.468861 20786 net.cpp:159] Memory required for data: 3761200
I0506 07:59:49.468864 20786 layer_factory.hpp:77] Creating layer ip1
I0506 07:59:49.468871 20786 net.cpp:94] Creating Layer ip1
I0506 07:59:49.468874 20786 net.cpp:435] ip1 <- pool5
I0506 07:59:49.468880 20786 net.cpp:409] ip1 -> ip1
I0506 07:59:49.482237 20786 net.cpp:144] Setting up ip1
I0506 07:59:49.482250 20786 net.cpp:151] Top shape: 20 1024 (20480)
I0506 07:59:49.482254 20786 net.cpp:159] Memory required for data: 3843120
I0506 07:59:49.482260 20786 layer_factory.hpp:77] Creating layer ip2
I0506 07:59:49.482267 20786 net.cpp:94] Creating Layer ip2
I0506 07:59:49.482271 20786 net.cpp:435] ip2 <- ip1
I0506 07:59:49.482276 20786 net.cpp:409] ip2 -> ip2
I0506 07:59:49.495620 20786 net.cpp:144] Setting up ip2
I0506 07:59:49.495635 20786 net.cpp:151] Top shape: 20 512 (10240)
I0506 07:59:49.495637 20786 net.cpp:159] Memory required for data: 3884080
I0506 07:59:49.495643 20786 layer_factory.hpp:77] Creating layer ip3
I0506 07:59:49.495652 20786 net.cpp:94] Creating Layer ip3
I0506 07:59:49.495656 20786 net.cpp:435] ip3 <- ip2
I0506 07:59:49.495661 20786 net.cpp:409] ip3 -> ip3
I0506 07:59:49.496410 20786 net.cpp:144] Setting up ip3
I0506 07:59:49.496419 20786 net.cpp:151] Top shape: 20 50 (1000)
I0506 07:59:49.496423 20786 net.cpp:159] Memory required for data: 3888080
I0506 07:59:49.496428 20786 layer_factory.hpp:77] Creating layer ip3_ip3_0_split
I0506 07:59:49.496433 20786 net.cpp:94] Creating Layer ip3_ip3_0_split
I0506 07:59:49.496436 20786 net.cpp:435] ip3_ip3_0_split <- ip3
I0506 07:59:49.496443 20786 net.cpp:409] ip3_ip3_0_split -> ip3_ip3_0_split_0
I0506 07:59:49.496448 20786 net.cpp:409] ip3_ip3_0_split -> ip3_ip3_0_split_1
I0506 07:59:49.496490 20786 net.cpp:144] Setting up ip3_ip3_0_split
I0506 07:59:49.496497 20786 net.cpp:151] Top shape: 20 50 (1000)
I0506 07:59:49.496500 20786 net.cpp:151] Top shape: 20 50 (1000)
I0506 07:59:49.496503 20786 net.cpp:159] Memory required for data: 3896080
I0506 07:59:49.496507 20786 layer_factory.hpp:77] Creating layer accuracy
I0506 07:59:49.496513 20786 net.cpp:94] Creating Layer accuracy
I0506 07:59:49.496516 20786 net.cpp:435] accuracy <- ip3_ip3_0_split_0
I0506 07:59:49.496520 20786 net.cpp:435] accuracy <- label_intercept_1_split_0
I0506 07:59:49.496526 20786 net.cpp:409] accuracy -> accuracy
…
