…
I0502 11:50:10.095674 28962 net.cpp:323] The NetState phase (0) differed from the phase (1) specified by a rule in layer intercept
I0502 11:50:10.095688 28962 net.cpp:323] The NetState phase (0) differed from the phase (1) specified by a rule in layer loss
I0502 11:50:10.095767 28962 net.cpp:52] Initializing net from parameters: 
state {
  phase: TRAIN
}
layer {
  name: "parameters"
  type: "HDF5Data"
  top: "data"
  top: "label"
  include {
    phase: TRAIN
  }
  hdf5_data_param {
    source: "/home/purduethu/scratch/radon/d/deng106/CNNStatisticalModel/distributions/input/20_distributions_100_sample_size_train-parameters-path.txt"
    batch_size: 20
  }
}
layer {
  name: "conv1"
  type: "Convolution"
  bottom: "data"
  top: "conv1"
  param {
    lr_mult: 1
  }
  param {
    lr_mult: 2
  }
  convolution_param {
    num_output: 64
    pad: 2
    kernel_size: 5
    stride: 1
    weight_filler {
      type: "gaussian"
      std: 0.0001
    }
    bias_filler {
      type: "constant"
    }
  }
}
layer {
  name: "relu1"
  type: "ReLU"
  bottom: "conv1"
  top: "conv1"
}
layer {
  name: "conv2"
  type: "Convolution"
  bottom: "conv1"
  top: "conv2"
  param {
    lr_mult: 1
  }
  param {
    lr_mult: 2
  }
  convolution_param {
    num_output: 64
    pad: 2
    kernel_size: 5
    stride: 1
    weight_filler {
      type: "gaussian"
      std: 0.01
    }
    bias_filler {
      type: "constant"
    }
  }
}
layer {
  name: "relu2"
  type: "ReLU"
  bottom: "conv2"
  top: "conv2"
}
layer {
  name: "pool2"
  type: "Pooling"
  bottom: "conv2"
  top: "pool2"
  pooling_param {
    pool: MAX
    kernel_size: 3
    stride: 2
  }
}
layer {
  name: "conv3"
  type: "Convolution"
  bottom: "pool2"
  top: "conv3"
  param {
    lr_mult: 1
  }
  param {
    lr_mult: 2
  }
  convolution_param {
    num_output: 64
    pad: 2
    kernel_size: 5
    stride: 1
    weight_filler {
      type: "gaussian"
      std: 0.01
    }
    bias_filler {
      type: "constant"
    }
  }
}
layer {
  name: "relu3"
  type: "ReLU"
  bottom: "conv3"
  top: "conv3"
}
layer {
  name: "conv4"
  type: "Convolution"
  bottom: "conv3"
  top: "conv4"
  param {
    lr_mult: 1
  }
  param {
    lr_mult: 2
  }
  convolution_param {
    num_output: 64
    pad: 2
    kernel_size: 5
    stride: 1
    weight_filler {
      type: "gaussian"
      std: 0.01
    }
    bias_filler {
      type: "constant"
    }
  }
}
layer {
  name: "relu4"
  type: "ReLU"
  bottom: "conv4"
  top: "conv4"
}
layer {
  name: "conv5"
  type: "Convolution"
  bottom: "conv4"
  top: "conv5"
  param {
    lr_mult: 1
  }
  param {
    lr_mult: 2
  }
  convolution_param {
    num_output: 64
    pad: 2
    kernel_size: 5
    stride: 1
    weight_filler {
      type: "gaussian"
      std: 0.01
    }
    bias_filler {
      type: "constant"
    }
  }
}
layer {
  name: "relu5"
  type: "ReLU"
  bottom: "conv5"
  top: "conv5"
}
layer {
  name: "pool5"
  type: "Pooling"
  bottom: "conv5"
  top: "pool5"
  pooling_param {
    pool: AVE
    kernel_size: 3
    stride: 2
  }
}
layer {
  name: "ip1"
  type: "InnerProduct"
  bottom: "pool5"
  top: "ip1"
  param {
    lr_mult: 1
  }
  param {
    lr_mult: 2
  }
  inner_product_param {
    num_output: 64
    weight_filler {
      type: "gaussian"
      std: 0.1
    }
    bias_filler {
      type: "constant"
    }
  }
}
layer {
  name: "ip2"
  type: "InnerProduct"
  bottom: "ip1"
  top: "ip2"
  param {
    lr_mult: 1
  }
  param {
    lr_mult: 2
  }
  inner_product_param {
    num_output: 64
    weight_filler {
      type: "gaussian"
      std: 0.1
    }
    bias_filler {
      type: "constant"
    }
  }
}
layer {
  name: "ip3"
  type: "InnerProduct"
  bottom: "ip2"
  top: "ip3"
  param {
    lr_mult: 1
  }
  param {
    lr_mult: 2
  }
  inner_product_param {
    num_output: 1
    weight_filler {
      type: "gaussian"
      std: 0.1
    }
    bias_filler {
      type: "constant"
    }
  }
}
layer {
  name: "loss"
  type: "HuberLoss"
  bottom: "ip3"
  bottom: "label"
  top: "loss"
  include {
    phase: TRAIN
  }
}
I0502 11:50:10.095821 28962 layer_factory.hpp:77] Creating layer parameters
I0502 11:50:10.095834 28962 net.cpp:94] Creating Layer parameters
I0502 11:50:10.095839 28962 net.cpp:409] parameters -> data
I0502 11:50:10.095846 28962 net.cpp:409] parameters -> label
I0502 11:50:10.095857 28962 hdf5_data_layer.cpp:79] Loading list of HDF5 filenames from: /home/purduethu/scratch/radon/d/deng106/CNNStatisticalModel/distributions/input/20_distributions_100_sample_size_train-parameters-path.txt
I0502 11:50:10.095871 28962 hdf5_data_layer.cpp:93] Number of HDF5 files: 1
I0502 11:50:10.096451 28962 hdf5.cpp:32] Datatype class: H5T_FLOAT
I0502 11:50:10.166718 28962 net.cpp:144] Setting up parameters
I0502 11:50:10.166752 28962 net.cpp:151] Top shape: 20 1 10 10 (2000)
I0502 11:50:10.166757 28962 net.cpp:151] Top shape: 20 (20)
I0502 11:50:10.166761 28962 net.cpp:159] Memory required for data: 8080
I0502 11:50:10.166767 28962 layer_factory.hpp:77] Creating layer conv1
I0502 11:50:10.166788 28962 net.cpp:94] Creating Layer conv1
I0502 11:50:10.166792 28962 net.cpp:435] conv1 <- data
I0502 11:50:10.166800 28962 net.cpp:409] conv1 -> conv1
I0502 11:50:10.170907 28962 net.cpp:144] Setting up conv1
I0502 11:50:10.170922 28962 net.cpp:151] Top shape: 20 64 10 10 (128000)
I0502 11:50:10.170927 28962 net.cpp:159] Memory required for data: 520080
I0502 11:50:10.170938 28962 layer_factory.hpp:77] Creating layer relu1
I0502 11:50:10.170944 28962 net.cpp:94] Creating Layer relu1
I0502 11:50:10.170948 28962 net.cpp:435] relu1 <- conv1
I0502 11:50:10.170953 28962 net.cpp:396] relu1 -> conv1 (in-place)
I0502 11:50:10.170964 28962 net.cpp:144] Setting up relu1
I0502 11:50:10.170969 28962 net.cpp:151] Top shape: 20 64 10 10 (128000)
I0502 11:50:10.170970 28962 net.cpp:159] Memory required for data: 1032080
I0502 11:50:10.170974 28962 layer_factory.hpp:77] Creating layer conv2
I0502 11:50:10.170981 28962 net.cpp:94] Creating Layer conv2
I0502 11:50:10.170984 28962 net.cpp:435] conv2 <- conv1
I0502 11:50:10.170989 28962 net.cpp:409] conv2 -> conv2
I0502 11:50:10.176178 28962 net.cpp:144] Setting up conv2
I0502 11:50:10.176192 28962 net.cpp:151] Top shape: 20 64 10 10 (128000)
I0502 11:50:10.176195 28962 net.cpp:159] Memory required for data: 1544080
I0502 11:50:10.176203 28962 layer_factory.hpp:77] Creating layer relu2
I0502 11:50:10.176210 28962 net.cpp:94] Creating Layer relu2
I0502 11:50:10.176213 28962 net.cpp:435] relu2 <- conv2
I0502 11:50:10.176218 28962 net.cpp:396] relu2 -> conv2 (in-place)
I0502 11:50:10.176224 28962 net.cpp:144] Setting up relu2
I0502 11:50:10.176229 28962 net.cpp:151] Top shape: 20 64 10 10 (128000)
I0502 11:50:10.176231 28962 net.cpp:159] Memory required for data: 2056080
I0502 11:50:10.176234 28962 layer_factory.hpp:77] Creating layer pool2
I0502 11:50:10.176246 28962 net.cpp:94] Creating Layer pool2
I0502 11:50:10.176250 28962 net.cpp:435] pool2 <- conv2
I0502 11:50:10.176254 28962 net.cpp:409] pool2 -> pool2
I0502 11:50:10.176304 28962 net.cpp:144] Setting up pool2
I0502 11:50:10.176312 28962 net.cpp:151] Top shape: 20 64 5 5 (32000)
I0502 11:50:10.176316 28962 net.cpp:159] Memory required for data: 2184080
I0502 11:50:10.176318 28962 layer_factory.hpp:77] Creating layer conv3
I0502 11:50:10.176326 28962 net.cpp:94] Creating Layer conv3
I0502 11:50:10.176329 28962 net.cpp:435] conv3 <- pool2
I0502 11:50:10.176333 28962 net.cpp:409] conv3 -> conv3
I0502 11:50:10.181165 28962 net.cpp:144] Setting up conv3
I0502 11:50:10.181180 28962 net.cpp:151] Top shape: 20 64 5 5 (32000)
I0502 11:50:10.181183 28962 net.cpp:159] Memory required for data: 2312080
I0502 11:50:10.181190 28962 layer_factory.hpp:77] Creating layer relu3
I0502 11:50:10.181196 28962 net.cpp:94] Creating Layer relu3
I0502 11:50:10.181200 28962 net.cpp:435] relu3 <- conv3
I0502 11:50:10.181205 28962 net.cpp:396] relu3 -> conv3 (in-place)
I0502 11:50:10.181211 28962 net.cpp:144] Setting up relu3
I0502 11:50:10.181216 28962 net.cpp:151] Top shape: 20 64 5 5 (32000)
I0502 11:50:10.181218 28962 net.cpp:159] Memory required for data: 2440080
I0502 11:50:10.181221 28962 layer_factory.hpp:77] Creating layer conv4
I0502 11:50:10.181229 28962 net.cpp:94] Creating Layer conv4
I0502 11:50:10.181232 28962 net.cpp:435] conv4 <- conv3
I0502 11:50:10.181237 28962 net.cpp:409] conv4 -> conv4
I0502 11:50:10.185657 28962 net.cpp:144] Setting up conv4
I0502 11:50:10.185669 28962 net.cpp:151] Top shape: 20 64 5 5 (32000)
I0502 11:50:10.185672 28962 net.cpp:159] Memory required for data: 2568080
I0502 11:50:10.185678 28962 layer_factory.hpp:77] Creating layer relu4
I0502 11:50:10.185684 28962 net.cpp:94] Creating Layer relu4
I0502 11:50:10.185688 28962 net.cpp:435] relu4 <- conv4
I0502 11:50:10.185693 28962 net.cpp:396] relu4 -> conv4 (in-place)
I0502 11:50:10.185699 28962 net.cpp:144] Setting up relu4
I0502 11:50:10.185703 28962 net.cpp:151] Top shape: 20 64 5 5 (32000)
I0502 11:50:10.185706 28962 net.cpp:159] Memory required for data: 2696080
I0502 11:50:10.185709 28962 layer_factory.hpp:77] Creating layer conv5
I0502 11:50:10.185716 28962 net.cpp:94] Creating Layer conv5
I0502 11:50:10.185719 28962 net.cpp:435] conv5 <- conv4
I0502 11:50:10.185724 28962 net.cpp:409] conv5 -> conv5
I0502 11:50:10.191457 28962 net.cpp:144] Setting up conv5
I0502 11:50:10.191471 28962 net.cpp:151] Top shape: 20 64 5 5 (32000)
I0502 11:50:10.191475 28962 net.cpp:159] Memory required for data: 2824080
I0502 11:50:10.191484 28962 layer_factory.hpp:77] Creating layer relu5
I0502 11:50:10.191490 28962 net.cpp:94] Creating Layer relu5
I0502 11:50:10.191494 28962 net.cpp:435] relu5 <- conv5
I0502 11:50:10.191498 28962 net.cpp:396] relu5 -> conv5 (in-place)
I0502 11:50:10.191505 28962 net.cpp:144] Setting up relu5
I0502 11:50:10.191509 28962 net.cpp:151] Top shape: 20 64 5 5 (32000)
I0502 11:50:10.191512 28962 net.cpp:159] Memory required for data: 2952080
I0502 11:50:10.191515 28962 layer_factory.hpp:77] Creating layer pool5
I0502 11:50:10.191520 28962 net.cpp:94] Creating Layer pool5
I0502 11:50:10.191524 28962 net.cpp:435] pool5 <- conv5
I0502 11:50:10.191527 28962 net.cpp:409] pool5 -> pool5
I0502 11:50:10.191563 28962 net.cpp:144] Setting up pool5
I0502 11:50:10.191570 28962 net.cpp:151] Top shape: 20 64 2 2 (5120)
I0502 11:50:10.191573 28962 net.cpp:159] Memory required for data: 2972560
I0502 11:50:10.191576 28962 layer_factory.hpp:77] Creating layer ip1
I0502 11:50:10.191586 28962 net.cpp:94] Creating Layer ip1
I0502 11:50:10.191588 28962 net.cpp:435] ip1 <- pool5
I0502 11:50:10.191593 28962 net.cpp:409] ip1 -> ip1
I0502 11:50:10.192977 28962 net.cpp:144] Setting up ip1
I0502 11:50:10.192991 28962 net.cpp:151] Top shape: 20 64 (1280)
I0502 11:50:10.192996 28962 net.cpp:159] Memory required for data: 2977680
I0502 11:50:10.193001 28962 layer_factory.hpp:77] Creating layer ip2
I0502 11:50:10.193007 28962 net.cpp:94] Creating Layer ip2
I0502 11:50:10.193015 28962 net.cpp:435] ip2 <- ip1
I0502 11:50:10.193022 28962 net.cpp:409] ip2 -> ip2
I0502 11:50:10.193230 28962 net.cpp:144] Setting up ip2
I0502 11:50:10.193238 28962 net.cpp:151] Top shape: 20 64 (1280)
I0502 11:50:10.193240 28962 net.cpp:159] Memory required for data: 2982800
I0502 11:50:10.193245 28962 layer_factory.hpp:77] Creating layer ip3
I0502 11:50:10.193251 28962 net.cpp:94] Creating Layer ip3
I0502 11:50:10.193254 28962 net.cpp:435] ip3 <- ip2
I0502 11:50:10.193259 28962 net.cpp:409] ip3 -> ip3
I0502 11:50:10.193356 28962 net.cpp:144] Setting up ip3
I0502 11:50:10.193362 28962 net.cpp:151] Top shape: 20 1 (20)
I0502 11:50:10.193366 28962 net.cpp:159] Memory required for data: 2982880
I0502 11:50:10.193372 28962 layer_factory.hpp:77] Creating layer loss
I0502 11:50:10.193382 28962 net.cpp:94] Creating Layer loss
I0502 11:50:10.193385 28962 net.cpp:435] loss <- ip3
I0502 11:50:10.193388 28962 net.cpp:435] loss <- label
I0502 11:50:10.193393 28962 net.cpp:409] loss -> loss
I0502 11:50:10.193440 28962 net.cpp:144] Setting up loss
…
I0502 11:50:10.230995 28962 net.cpp:323] The NetState phase (0) differed from the phase (1) specified by a rule in layer intercept
I0502 11:50:10.231010 28962 net.cpp:323] The NetState phase (0) differed from the phase (1) specified by a rule in layer accuracy
I0502 11:50:10.231097 28962 net.cpp:52] Initializing net from parameters: 
state {
  phase: TRAIN
}
layer {
  name: "parameters"
  type: "HDF5Data"
  top: "data"
  top: "label"
  include {
    phase: TRAIN
  }
  hdf5_data_param {
    source: "/home/purduethu/scratch/radon/d/deng106/CNNStatisticalModel/distributions/input/20_distributions_100_sample_size_train-distributions-path.txt"
    batch_size: 20
  }
}
layer {
  name: "conv1"
  type: "Convolution"
  bottom: "data"
  top: "conv1"
  param {
    lr_mult: 1
  }
  param {
    lr_mult: 2
  }
  convolution_param {
    num_output: 64
    pad: 2
    kernel_size: 5
    stride: 1
    weight_filler {
      type: "gaussian"
      std: 0.0001
    }
    bias_filler {
      type: "constant"
    }
  }
}
layer {
  name: "relu1"
  type: "ReLU"
  bottom: "conv1"
  top: "conv1"
}
layer {
  name: "conv2"
  type: "Convolution"
  bottom: "conv1"
  top: "conv2"
  param {
    lr_mult: 1
  }
  param {
    lr_mult: 2
  }
  convolution_param {
    num_output: 64
    pad: 2
    kernel_size: 5
    stride: 1
    weight_filler {
      type: "gaussian"
      std: 0.01
    }
    bias_filler {
      type: "constant"
    }
  }
}
layer {
  name: "relu2"
  type: "ReLU"
  bottom: "conv2"
  top: "conv2"
}
layer {
  name: "pool2"
  type: "Pooling"
  bottom: "conv2"
  top: "pool2"
  pooling_param {
    pool: MAX
    kernel_size: 3
    stride: 2
  }
}
layer {
  name: "conv3"
  type: "Convolution"
  bottom: "pool2"
  top: "conv3"
  param {
    lr_mult: 1
  }
  param {
    lr_mult: 2
  }
  convolution_param {
    num_output: 64
    pad: 2
    kernel_size: 5
    stride: 1
    weight_filler {
      type: "gaussian"
      std: 0.01
    }
    bias_filler {
      type: "constant"
    }
  }
}
layer {
  name: "relu3"
  type: "ReLU"
  bottom: "conv3"
  top: "conv3"
}
layer {
  name: "conv4"
  type: "Convolution"
  bottom: "conv3"
  top: "conv4"
  param {
    lr_mult: 1
  }
  param {
    lr_mult: 2
  }
  convolution_param {
    num_output: 64
    pad: 2
    kernel_size: 5
    stride: 1
    weight_filler {
      type: "gaussian"
      std: 0.01
    }
    bias_filler {
      type: "constant"
    }
  }
}
layer {
  name: "relu4"
  type: "ReLU"
  bottom: "conv4"
  top: "conv4"
}
layer {
  name: "conv5"
  type: "Convolution"
  bottom: "conv4"
  top: "conv5"
  param {
    lr_mult: 1
  }
  param {
    lr_mult: 2
  }
  convolution_param {
    num_output: 64
    pad: 2
    kernel_size: 5
    stride: 1
    weight_filler {
      type: "gaussian"
      std: 0.01
    }
    bias_filler {
      type: "constant"
    }
  }
}
layer {
  name: "relu5"
  type: "ReLU"
  bottom: "conv5"
  top: "conv5"
}
layer {
  name: "pool5"
  type: "Pooling"
  bottom: "conv5"
  top: "pool5"
  pooling_param {
    pool: AVE
    kernel_size: 3
    stride: 2
  }
}
layer {
  name: "ip1"
  type: "InnerProduct"
  bottom: "pool5"
  top: "ip1"
  param {
    lr_mult: 1
  }
  param {
    lr_mult: 2
  }
  inner_product_param {
    num_output: 64
    weight_filler {
      type: "gaussian"
      std: 0.1
    }
    bias_filler {
      type: "constant"
    }
  }
}
layer {
  name: "ip2"
  type: "InnerProduct"
  bottom: "ip1"
  top: "ip2"
  param {
    lr_mult: 1
  }
  param {
    lr_mult: 2
  }
  inner_product_param {
    num_output: 64
    weight_filler {
      type: "gaussian"
      std: 0.1
    }
    bias_filler {
      type: "constant"
    }
  }
}
layer {
  name: "ip3"
  type: "InnerProduct"
  bottom: "ip2"
  top: "ip3"
  param {
    lr_mult: 1
  }
  param {
    lr_mult: 2
  }
  inner_product_param {
    num_output: 50
    weight_filler {
      type: "gaussian"
      std: 0.1
    }
    bias_filler {
      type: "constant"
    }
  }
}
layer {
  name: "loss"
  type: "SoftmaxWithLoss"
  bottom: "ip3"
  bottom: "label"
  top: "loss"
}
I0502 11:50:10.231153 28962 layer_factory.hpp:77] Creating layer parameters
I0502 11:50:10.231161 28962 net.cpp:94] Creating Layer parameters
I0502 11:50:10.231165 28962 net.cpp:409] parameters -> data
I0502 11:50:10.231171 28962 net.cpp:409] parameters -> label
I0502 11:50:10.231178 28962 hdf5_data_layer.cpp:79] Loading list of HDF5 filenames from: /home/purduethu/scratch/radon/d/deng106/CNNStatisticalModel/distributions/input/20_distributions_100_sample_size_train-distributions-path.txt
I0502 11:50:10.231194 28962 hdf5_data_layer.cpp:93] Number of HDF5 files: 1
I0502 11:50:10.296864 28962 hdf5.cpp:35] Datatype class: H5T_INTEGER
I0502 11:50:10.298866 28962 net.cpp:144] Setting up parameters
I0502 11:50:10.298888 28962 net.cpp:151] Top shape: 20 1 10 10 (2000)
I0502 11:50:10.298893 28962 net.cpp:151] Top shape: 20 (20)
I0502 11:50:10.298897 28962 net.cpp:159] Memory required for data: 8080
I0502 11:50:10.298902 28962 layer_factory.hpp:77] Creating layer conv1
I0502 11:50:10.298918 28962 net.cpp:94] Creating Layer conv1
I0502 11:50:10.298923 28962 net.cpp:435] conv1 <- data
I0502 11:50:10.298928 28962 net.cpp:409] conv1 -> conv1
I0502 11:50:10.300598 28962 net.cpp:144] Setting up conv1
I0502 11:50:10.300612 28962 net.cpp:151] Top shape: 20 64 10 10 (128000)
I0502 11:50:10.300616 28962 net.cpp:159] Memory required for data: 520080
I0502 11:50:10.300626 28962 layer_factory.hpp:77] Creating layer relu1
I0502 11:50:10.300633 28962 net.cpp:94] Creating Layer relu1
I0502 11:50:10.300637 28962 net.cpp:435] relu1 <- conv1
I0502 11:50:10.300642 28962 net.cpp:396] relu1 -> conv1 (in-place)
I0502 11:50:10.300647 28962 net.cpp:144] Setting up relu1
I0502 11:50:10.300652 28962 net.cpp:151] Top shape: 20 64 10 10 (128000)
I0502 11:50:10.300655 28962 net.cpp:159] Memory required for data: 1032080
I0502 11:50:10.300657 28962 layer_factory.hpp:77] Creating layer conv2
I0502 11:50:10.300664 28962 net.cpp:94] Creating Layer conv2
I0502 11:50:10.300668 28962 net.cpp:435] conv2 <- conv1
I0502 11:50:10.300673 28962 net.cpp:409] conv2 -> conv2
I0502 11:50:10.305960 28962 net.cpp:144] Setting up conv2
I0502 11:50:10.305974 28962 net.cpp:151] Top shape: 20 64 10 10 (128000)
I0502 11:50:10.305979 28962 net.cpp:159] Memory required for data: 1544080
I0502 11:50:10.305985 28962 layer_factory.hpp:77] Creating layer relu2
I0502 11:50:10.305991 28962 net.cpp:94] Creating Layer relu2
I0502 11:50:10.305995 28962 net.cpp:435] relu2 <- conv2
I0502 11:50:10.305999 28962 net.cpp:396] relu2 -> conv2 (in-place)
I0502 11:50:10.306006 28962 net.cpp:144] Setting up relu2
I0502 11:50:10.306010 28962 net.cpp:151] Top shape: 20 64 10 10 (128000)
I0502 11:50:10.306013 28962 net.cpp:159] Memory required for data: 2056080
I0502 11:50:10.306016 28962 layer_factory.hpp:77] Creating layer pool2
I0502 11:50:10.306021 28962 net.cpp:94] Creating Layer pool2
I0502 11:50:10.306025 28962 net.cpp:435] pool2 <- conv2
I0502 11:50:10.306028 28962 net.cpp:409] pool2 -> pool2
I0502 11:50:10.306077 28962 net.cpp:144] Setting up pool2
I0502 11:50:10.306084 28962 net.cpp:151] Top shape: 20 64 5 5 (32000)
I0502 11:50:10.306087 28962 net.cpp:159] Memory required for data: 2184080
I0502 11:50:10.306090 28962 layer_factory.hpp:77] Creating layer conv3
I0502 11:50:10.306098 28962 net.cpp:94] Creating Layer conv3
I0502 11:50:10.306102 28962 net.cpp:435] conv3 <- pool2
I0502 11:50:10.306107 28962 net.cpp:409] conv3 -> conv3
I0502 11:50:10.311033 28962 net.cpp:144] Setting up conv3
I0502 11:50:10.311046 28962 net.cpp:151] Top shape: 20 64 5 5 (32000)
I0502 11:50:10.311050 28962 net.cpp:159] Memory required for data: 2312080
I0502 11:50:10.311058 28962 layer_factory.hpp:77] Creating layer relu3
I0502 11:50:10.311064 28962 net.cpp:94] Creating Layer relu3
I0502 11:50:10.311067 28962 net.cpp:435] relu3 <- conv3
I0502 11:50:10.311071 28962 net.cpp:396] relu3 -> conv3 (in-place)
I0502 11:50:10.311079 28962 net.cpp:144] Setting up relu3
I0502 11:50:10.311082 28962 net.cpp:151] Top shape: 20 64 5 5 (32000)
I0502 11:50:10.311085 28962 net.cpp:159] Memory required for data: 2440080
I0502 11:50:10.311089 28962 layer_factory.hpp:77] Creating layer conv4
I0502 11:50:10.311096 28962 net.cpp:94] Creating Layer conv4
I0502 11:50:10.311100 28962 net.cpp:435] conv4 <- conv3
I0502 11:50:10.311105 28962 net.cpp:409] conv4 -> conv4
I0502 11:50:10.316000 28962 net.cpp:144] Setting up conv4
I0502 11:50:10.316014 28962 net.cpp:151] Top shape: 20 64 5 5 (32000)
I0502 11:50:10.316017 28962 net.cpp:159] Memory required for data: 2568080
I0502 11:50:10.316023 28962 layer_factory.hpp:77] Creating layer relu4
I0502 11:50:10.316030 28962 net.cpp:94] Creating Layer relu4
I0502 11:50:10.316033 28962 net.cpp:435] relu4 <- conv4
I0502 11:50:10.316037 28962 net.cpp:396] relu4 -> conv4 (in-place)
I0502 11:50:10.316045 28962 net.cpp:144] Setting up relu4
I0502 11:50:10.316048 28962 net.cpp:151] Top shape: 20 64 5 5 (32000)
I0502 11:50:10.316051 28962 net.cpp:159] Memory required for data: 2696080
I0502 11:50:10.316054 28962 layer_factory.hpp:77] Creating layer conv5
I0502 11:50:10.316061 28962 net.cpp:94] Creating Layer conv5
I0502 11:50:10.316064 28962 net.cpp:435] conv5 <- conv4
I0502 11:50:10.316069 28962 net.cpp:409] conv5 -> conv5
I0502 11:50:10.321383 28962 net.cpp:144] Setting up conv5
I0502 11:50:10.321398 28962 net.cpp:151] Top shape: 20 64 5 5 (32000)
I0502 11:50:10.321401 28962 net.cpp:159] Memory required for data: 2824080
I0502 11:50:10.321410 28962 layer_factory.hpp:77] Creating layer relu5
I0502 11:50:10.321416 28962 net.cpp:94] Creating Layer relu5
I0502 11:50:10.321419 28962 net.cpp:435] relu5 <- conv5
I0502 11:50:10.321424 28962 net.cpp:396] relu5 -> conv5 (in-place)
I0502 11:50:10.321430 28962 net.cpp:144] Setting up relu5
I0502 11:50:10.321434 28962 net.cpp:151] Top shape: 20 64 5 5 (32000)
I0502 11:50:10.321437 28962 net.cpp:159] Memory required for data: 2952080
I0502 11:50:10.321440 28962 layer_factory.hpp:77] Creating layer pool5
I0502 11:50:10.321445 28962 net.cpp:94] Creating Layer pool5
I0502 11:50:10.321449 28962 net.cpp:435] pool5 <- conv5
I0502 11:50:10.321452 28962 net.cpp:409] pool5 -> pool5
I0502 11:50:10.321485 28962 net.cpp:144] Setting up pool5
I0502 11:50:10.321492 28962 net.cpp:151] Top shape: 20 64 2 2 (5120)
I0502 11:50:10.321496 28962 net.cpp:159] Memory required for data: 2972560
I0502 11:50:10.321498 28962 layer_factory.hpp:77] Creating layer ip1
I0502 11:50:10.321506 28962 net.cpp:94] Creating Layer ip1
I0502 11:50:10.321508 28962 net.cpp:435] ip1 <- pool5
I0502 11:50:10.321512 28962 net.cpp:409] ip1 -> ip1
I0502 11:50:10.322019 28962 net.cpp:144] Setting up ip1
I0502 11:50:10.322026 28962 net.cpp:151] Top shape: 20 64 (1280)
I0502 11:50:10.322031 28962 net.cpp:159] Memory required for data: 2977680
I0502 11:50:10.322036 28962 layer_factory.hpp:77] Creating layer ip2
I0502 11:50:10.322041 28962 net.cpp:94] Creating Layer ip2
I0502 11:50:10.322044 28962 net.cpp:435] ip2 <- ip1
I0502 11:50:10.322049 28962 net.cpp:409] ip2 -> ip2
I0502 11:50:10.322260 28962 net.cpp:144] Setting up ip2
I0502 11:50:10.322268 28962 net.cpp:151] Top shape: 20 64 (1280)
I0502 11:50:10.322270 28962 net.cpp:159] Memory required for data: 2982800
I0502 11:50:10.322275 28962 layer_factory.hpp:77] Creating layer ip3
I0502 11:50:10.322280 28962 net.cpp:94] Creating Layer ip3
I0502 11:50:10.322284 28962 net.cpp:435] ip3 <- ip2
I0502 11:50:10.322288 28962 net.cpp:409] ip3 -> ip3
I0502 11:50:10.322476 28962 net.cpp:144] Setting up ip3
I0502 11:50:10.322482 28962 net.cpp:151] Top shape: 20 50 (1000)
I0502 11:50:10.322490 28962 net.cpp:159] Memory required for data: 2986800
I0502 11:50:10.322495 28962 layer_factory.hpp:77] Creating layer loss
I0502 11:50:10.322502 28962 net.cpp:94] Creating Layer loss
I0502 11:50:10.322505 28962 net.cpp:435] loss <- ip3
I0502 11:50:10.322509 28962 net.cpp:435] loss <- label
I0502 11:50:10.322512 28962 net.cpp:409] loss -> loss
I0502 11:50:10.322520 28962 layer_factory.hpp:77] Creating layer loss
…
I0502 11:50:10.323899 28962 solver.cpp:181] Creating test net (#0) specified by net file: ./protocol/dis_20_100_dimension.protocol_distribution
I0502 11:50:10.323925 28962 net.cpp:323] The NetState phase (1) differed from the phase (0) specified by a rule in layer parameters
I0502 11:50:10.324018 28962 net.cpp:52] Initializing net from parameters: 
state {
  phase: TEST
}
layer {
  name: "intercept"
  type: "HDF5Data"
  top: "data"
  top: "label"
  include {
    phase: TEST
  }
  hdf5_data_param {
    source: "/home/purduethu/scratch/radon/d/deng106/CNNStatisticalModel/distributions/input/20_distributions_100_sample_size_test-distributions-path.txt"
    batch_size: 20
  }
}
layer {
  name: "conv1"
  type: "Convolution"
  bottom: "data"
  top: "conv1"
  param {
    lr_mult: 1
  }
  param {
    lr_mult: 2
  }
  convolution_param {
    num_output: 64
    pad: 2
    kernel_size: 5
    stride: 1
    weight_filler {
      type: "gaussian"
      std: 0.0001
    }
    bias_filler {
      type: "constant"
    }
  }
}
layer {
  name: "relu1"
  type: "ReLU"
  bottom: "conv1"
  top: "conv1"
}
layer {
  name: "conv2"
  type: "Convolution"
  bottom: "conv1"
  top: "conv2"
  param {
    lr_mult: 1
  }
  param {
    lr_mult: 2
  }
  convolution_param {
    num_output: 64
    pad: 2
    kernel_size: 5
    stride: 1
    weight_filler {
      type: "gaussian"
      std: 0.01
    }
    bias_filler {
      type: "constant"
    }
  }
}
layer {
  name: "relu2"
  type: "ReLU"
  bottom: "conv2"
  top: "conv2"
}
layer {
  name: "pool2"
  type: "Pooling"
  bottom: "conv2"
  top: "pool2"
  pooling_param {
    pool: MAX
    kernel_size: 3
    stride: 2
  }
}
layer {
  name: "conv3"
  type: "Convolution"
  bottom: "pool2"
  top: "conv3"
  param {
    lr_mult: 1
  }
  param {
    lr_mult: 2
  }
  convolution_param {
    num_output: 64
    pad: 2
    kernel_size: 5
    stride: 1
    weight_filler {
      type: "gaussian"
      std: 0.01
    }
    bias_filler {
      type: "constant"
    }
  }
}
layer {
  name: "relu3"
  type: "ReLU"
  bottom: "conv3"
  top: "conv3"
}
layer {
  name: "conv4"
  type: "Convolution"
  bottom: "conv3"
  top: "conv4"
  param {
    lr_mult: 1
  }
  param {
    lr_mult: 2
  }
  convolution_param {
    num_output: 64
    pad: 2
    kernel_size: 5
    stride: 1
    weight_filler {
      type: "gaussian"
      std: 0.01
    }
    bias_filler {
      type: "constant"
    }
  }
}
layer {
  name: "relu4"
  type: "ReLU"
  bottom: "conv4"
  top: "conv4"
}
layer {
  name: "conv5"
  type: "Convolution"
  bottom: "conv4"
  top: "conv5"
  param {
    lr_mult: 1
  }
  param {
    lr_mult: 2
  }
  convolution_param {
    num_output: 64
    pad: 2
    kernel_size: 5
    stride: 1
    weight_filler {
      type: "gaussian"
      std: 0.01
    }
    bias_filler {
      type: "constant"
    }
  }
}
layer {
  name: "relu5"
  type: "ReLU"
  bottom: "conv5"
  top: "conv5"
}
layer {
  name: "pool5"
  type: "Pooling"
  bottom: "conv5"
  top: "pool5"
  pooling_param {
    pool: AVE
    kernel_size: 3
    stride: 2
  }
}
layer {
  name: "ip1"
  type: "InnerProduct"
  bottom: "pool5"
  top: "ip1"
  param {
    lr_mult: 1
  }
  param {
    lr_mult: 2
  }
  inner_product_param {
    num_output: 64
    weight_filler {
      type: "gaussian"
      std: 0.1
    }
    bias_filler {
      type: "constant"
    }
  }
}
layer {
  name: "ip2"
  type: "InnerProduct"
  bottom: "ip1"
  top: "ip2"
  param {
    lr_mult: 1
  }
  param {
    lr_mult: 2
  }
  inner_product_param {
    num_output: 64
    weight_filler {
      type: "gaussian"
      std: 0.1
    }
    bias_filler {
      type: "constant"
    }
  }
}
layer {
  name: "ip3"
  type: "InnerProduct"
  bottom: "ip2"
  top: "ip3"
  param {
    lr_mult: 1
  }
  param {
    lr_mult: 2
  }
  inner_product_param {
    num_output: 50
    weight_filler {
      type: "gaussian"
      std: 0.1
    }
    bias_filler {
      type: "constant"
    }
  }
}
layer {
  name: "accuracy"
  type: "Accuracy"
  bottom: "ip3"
  bottom: "label"
  top: "accuracy"
  include {
    phase: TEST
  }
}
layer {
  name: "loss"
  type: "SoftmaxWithLoss"
  bottom: "ip3"
  bottom: "label"
  top: "loss"
}
I0502 11:50:10.324084 28962 layer_factory.hpp:77] Creating layer intercept
I0502 11:50:10.324091 28962 net.cpp:94] Creating Layer intercept
I0502 11:50:10.324095 28962 net.cpp:409] intercept -> data
I0502 11:50:10.324102 28962 net.cpp:409] intercept -> label
I0502 11:50:10.324107 28962 hdf5_data_layer.cpp:79] Loading list of HDF5 filenames from: /home/purduethu/scratch/radon/d/deng106/CNNStatisticalModel/distributions/input/20_distributions_100_sample_size_test-distributions-path.txt
I0502 11:50:10.324126 28962 hdf5_data_layer.cpp:93] Number of HDF5 files: 1
I0502 11:50:10.341722 28962 net.cpp:144] Setting up intercept
I0502 11:50:10.341754 28962 net.cpp:151] Top shape: 20 1 10 10 (2000)
I0502 11:50:10.341759 28962 net.cpp:151] Top shape: 20 (20)
I0502 11:50:10.341763 28962 net.cpp:159] Memory required for data: 8080
I0502 11:50:10.341768 28962 layer_factory.hpp:77] Creating layer label_intercept_1_split
I0502 11:50:10.341786 28962 net.cpp:94] Creating Layer label_intercept_1_split
I0502 11:50:10.341790 28962 net.cpp:435] label_intercept_1_split <- label
I0502 11:50:10.341796 28962 net.cpp:409] label_intercept_1_split -> label_intercept_1_split_0
I0502 11:50:10.341804 28962 net.cpp:409] label_intercept_1_split -> label_intercept_1_split_1
I0502 11:50:10.341843 28962 net.cpp:144] Setting up label_intercept_1_split
I0502 11:50:10.341850 28962 net.cpp:151] Top shape: 20 (20)
I0502 11:50:10.341852 28962 net.cpp:151] Top shape: 20 (20)
I0502 11:50:10.341856 28962 net.cpp:159] Memory required for data: 8240
I0502 11:50:10.341858 28962 layer_factory.hpp:77] Creating layer conv1
I0502 11:50:10.341869 28962 net.cpp:94] Creating Layer conv1
I0502 11:50:10.341872 28962 net.cpp:435] conv1 <- data
I0502 11:50:10.341877 28962 net.cpp:409] conv1 -> conv1
I0502 11:50:10.342631 28962 net.cpp:144] Setting up conv1
I0502 11:50:10.342644 28962 net.cpp:151] Top shape: 20 64 10 10 (128000)
I0502 11:50:10.342656 28962 net.cpp:159] Memory required for data: 520240
I0502 11:50:10.342666 28962 layer_factory.hpp:77] Creating layer relu1
I0502 11:50:10.342674 28962 net.cpp:94] Creating Layer relu1
I0502 11:50:10.342676 28962 net.cpp:435] relu1 <- conv1
I0502 11:50:10.342680 28962 net.cpp:396] relu1 -> conv1 (in-place)
I0502 11:50:10.342687 28962 net.cpp:144] Setting up relu1
I0502 11:50:10.342691 28962 net.cpp:151] Top shape: 20 64 10 10 (128000)
I0502 11:50:10.342694 28962 net.cpp:159] Memory required for data: 1032240
I0502 11:50:10.342697 28962 layer_factory.hpp:77] Creating layer conv2
I0502 11:50:10.342705 28962 net.cpp:94] Creating Layer conv2
I0502 11:50:10.342707 28962 net.cpp:435] conv2 <- conv1
I0502 11:50:10.342712 28962 net.cpp:409] conv2 -> conv2
I0502 11:50:10.346768 28962 net.cpp:144] Setting up conv2
I0502 11:50:10.346782 28962 net.cpp:151] Top shape: 20 64 10 10 (128000)
I0502 11:50:10.346786 28962 net.cpp:159] Memory required for data: 1544240
I0502 11:50:10.346793 28962 layer_factory.hpp:77] Creating layer relu2
I0502 11:50:10.346799 28962 net.cpp:94] Creating Layer relu2
I0502 11:50:10.346802 28962 net.cpp:435] relu2 <- conv2
I0502 11:50:10.346807 28962 net.cpp:396] relu2 -> conv2 (in-place)
I0502 11:50:10.346813 28962 net.cpp:144] Setting up relu2
I0502 11:50:10.346817 28962 net.cpp:151] Top shape: 20 64 10 10 (128000)
I0502 11:50:10.346820 28962 net.cpp:159] Memory required for data: 2056240
I0502 11:50:10.346823 28962 layer_factory.hpp:77] Creating layer pool2
I0502 11:50:10.346828 28962 net.cpp:94] Creating Layer pool2
I0502 11:50:10.346832 28962 net.cpp:435] pool2 <- conv2
I0502 11:50:10.346835 28962 net.cpp:409] pool2 -> pool2
I0502 11:50:10.346884 28962 net.cpp:144] Setting up pool2
I0502 11:50:10.346890 28962 net.cpp:151] Top shape: 20 64 5 5 (32000)
I0502 11:50:10.346894 28962 net.cpp:159] Memory required for data: 2184240
I0502 11:50:10.346896 28962 layer_factory.hpp:77] Creating layer conv3
I0502 11:50:10.346904 28962 net.cpp:94] Creating Layer conv3
I0502 11:50:10.346907 28962 net.cpp:435] conv3 <- pool2
I0502 11:50:10.346912 28962 net.cpp:409] conv3 -> conv3
I0502 11:50:10.350456 28962 net.cpp:144] Setting up conv3
I0502 11:50:10.350468 28962 net.cpp:151] Top shape: 20 64 5 5 (32000)
I0502 11:50:10.350472 28962 net.cpp:159] Memory required for data: 2312240
I0502 11:50:10.350479 28962 layer_factory.hpp:77] Creating layer relu3
I0502 11:50:10.350486 28962 net.cpp:94] Creating Layer relu3
I0502 11:50:10.350489 28962 net.cpp:435] relu3 <- conv3
I0502 11:50:10.350493 28962 net.cpp:396] relu3 -> conv3 (in-place)
I0502 11:50:10.350499 28962 net.cpp:144] Setting up relu3
I0502 11:50:10.350503 28962 net.cpp:151] Top shape: 20 64 5 5 (32000)
I0502 11:50:10.350507 28962 net.cpp:159] Memory required for data: 2440240
I0502 11:50:10.350509 28962 layer_factory.hpp:77] Creating layer conv4
I0502 11:50:10.350517 28962 net.cpp:94] Creating Layer conv4
I0502 11:50:10.350519 28962 net.cpp:435] conv4 <- conv3
I0502 11:50:10.350524 28962 net.cpp:409] conv4 -> conv4
I0502 11:50:10.354060 28962 net.cpp:144] Setting up conv4
I0502 11:50:10.354074 28962 net.cpp:151] Top shape: 20 64 5 5 (32000)
I0502 11:50:10.354076 28962 net.cpp:159] Memory required for data: 2568240
I0502 11:50:10.354082 28962 layer_factory.hpp:77] Creating layer relu4
I0502 11:50:10.354087 28962 net.cpp:94] Creating Layer relu4
I0502 11:50:10.354091 28962 net.cpp:435] relu4 <- conv4
I0502 11:50:10.354095 28962 net.cpp:396] relu4 -> conv4 (in-place)
I0502 11:50:10.354101 28962 net.cpp:144] Setting up relu4
I0502 11:50:10.354105 28962 net.cpp:151] Top shape: 20 64 5 5 (32000)
I0502 11:50:10.354109 28962 net.cpp:159] Memory required for data: 2696240
I0502 11:50:10.354110 28962 layer_factory.hpp:77] Creating layer conv5
I0502 11:50:10.354117 28962 net.cpp:94] Creating Layer conv5
I0502 11:50:10.354120 28962 net.cpp:435] conv5 <- conv4
I0502 11:50:10.354125 28962 net.cpp:409] conv5 -> conv5
I0502 11:50:10.358155 28962 net.cpp:144] Setting up conv5
I0502 11:50:10.358168 28962 net.cpp:151] Top shape: 20 64 5 5 (32000)
I0502 11:50:10.358172 28962 net.cpp:159] Memory required for data: 2824240
I0502 11:50:10.358184 28962 layer_factory.hpp:77] Creating layer relu5
I0502 11:50:10.358191 28962 net.cpp:94] Creating Layer relu5
I0502 11:50:10.358194 28962 net.cpp:435] relu5 <- conv5
I0502 11:50:10.358198 28962 net.cpp:396] relu5 -> conv5 (in-place)
I0502 11:50:10.358204 28962 net.cpp:144] Setting up relu5
I0502 11:50:10.358208 28962 net.cpp:151] Top shape: 20 64 5 5 (32000)
I0502 11:50:10.358211 28962 net.cpp:159] Memory required for data: 2952240
I0502 11:50:10.358214 28962 layer_factory.hpp:77] Creating layer pool5
I0502 11:50:10.358219 28962 net.cpp:94] Creating Layer pool5
I0502 11:50:10.358222 28962 net.cpp:435] pool5 <- conv5
I0502 11:50:10.358227 28962 net.cpp:409] pool5 -> pool5
I0502 11:50:10.358263 28962 net.cpp:144] Setting up pool5
I0502 11:50:10.358268 28962 net.cpp:151] Top shape: 20 64 2 2 (5120)
I0502 11:50:10.358271 28962 net.cpp:159] Memory required for data: 2972720
I0502 11:50:10.358274 28962 layer_factory.hpp:77] Creating layer ip1
I0502 11:50:10.358283 28962 net.cpp:94] Creating Layer ip1
I0502 11:50:10.358285 28962 net.cpp:435] ip1 <- pool5
I0502 11:50:10.358290 28962 net.cpp:409] ip1 -> ip1
I0502 11:50:10.358800 28962 net.cpp:144] Setting up ip1
I0502 11:50:10.358808 28962 net.cpp:151] Top shape: 20 64 (1280)
I0502 11:50:10.358811 28962 net.cpp:159] Memory required for data: 2977840
I0502 11:50:10.358816 28962 layer_factory.hpp:77] Creating layer ip2
I0502 11:50:10.358821 28962 net.cpp:94] Creating Layer ip2
I0502 11:50:10.358824 28962 net.cpp:435] ip2 <- ip1
I0502 11:50:10.358830 28962 net.cpp:409] ip2 -> ip2
I0502 11:50:10.359056 28962 net.cpp:144] Setting up ip2
I0502 11:50:10.359063 28962 net.cpp:151] Top shape: 20 64 (1280)
I0502 11:50:10.359066 28962 net.cpp:159] Memory required for data: 2982960
I0502 11:50:10.359071 28962 layer_factory.hpp:77] Creating layer ip3
I0502 11:50:10.359078 28962 net.cpp:94] Creating Layer ip3
I0502 11:50:10.359081 28962 net.cpp:435] ip3 <- ip2
I0502 11:50:10.359086 28962 net.cpp:409] ip3 -> ip3
I0502 11:50:10.359282 28962 net.cpp:144] Setting up ip3
I0502 11:50:10.359289 28962 net.cpp:151] Top shape: 20 50 (1000)
I0502 11:50:10.359292 28962 net.cpp:159] Memory required for data: 2986960
I0502 11:50:10.359297 28962 layer_factory.hpp:77] Creating layer ip3_ip3_0_split
I0502 11:50:10.359302 28962 net.cpp:94] Creating Layer ip3_ip3_0_split
I0502 11:50:10.359304 28962 net.cpp:435] ip3_ip3_0_split <- ip3
I0502 11:50:10.359309 28962 net.cpp:409] ip3_ip3_0_split -> ip3_ip3_0_split_0
I0502 11:50:10.359314 28962 net.cpp:409] ip3_ip3_0_split -> ip3_ip3_0_split_1
I0502 11:50:10.359354 28962 net.cpp:144] Setting up ip3_ip3_0_split
I0502 11:50:10.359360 28962 net.cpp:151] Top shape: 20 50 (1000)
I0502 11:50:10.359364 28962 net.cpp:151] Top shape: 20 50 (1000)
I0502 11:50:10.359366 28962 net.cpp:159] Memory required for data: 2994960
I0502 11:50:10.359369 28962 layer_factory.hpp:77] Creating layer accuracy
I0502 11:50:10.359375 28962 net.cpp:94] Creating Layer accuracy
I0502 11:50:10.359377 28962 net.cpp:435] accuracy <- ip3_ip3_0_split_0
I0502 11:50:10.359381 28962 net.cpp:435] accuracy <- label_intercept_1_split_0
I0502 11:50:10.359386 28962 net.cpp:409] accuracy -> accuracy
…
