…
I0505 13:03:11.701182  7030 net.cpp:323] The NetState phase (0) differed from the phase (1) specified by a rule in layer intercept
I0505 13:03:11.701197  7030 net.cpp:323] The NetState phase (0) differed from the phase (1) specified by a rule in layer loss
I0505 13:03:11.701262  7030 net.cpp:52] Initializing net from parameters: 
state {
  phase: TRAIN
}
layer {
  name: "parameters"
  type: "HDF5Data"
  top: "data"
  top: "label"
  include {
    phase: TRAIN
  }
  hdf5_data_param {
    source: "/home/purduethu/scratch/radon/d/deng106/CNNStatisticalModel/distributions/input/20_distributions_100_sample_size_train-parameters-path.txt"
    batch_size: 20
  }
}
layer {
  name: "conv1"
  type: "Convolution"
  bottom: "data"
  top: "conv1"
  param {
    lr_mult: 1
  }
  param {
    lr_mult: 2
  }
  convolution_param {
    num_output: 64
    pad: 2
    kernel_size: 5
    stride: 1
    weight_filler {
      type: "gaussian"
      std: 0.0001
    }
    bias_filler {
      type: "constant"
    }
  }
}
layer {
  name: "relu1"
  type: "ReLU"
  bottom: "conv1"
  top: "conv1"
}
layer {
  name: "pool1"
  type: "Pooling"
  bottom: "conv1"
  top: "pool1"
  pooling_param {
    pool: MAX
    kernel_size: 3
    stride: 2
  }
}
layer {
  name: "conv2"
  type: "Convolution"
  bottom: "pool1"
  top: "conv2"
  param {
    lr_mult: 1
  }
  param {
    lr_mult: 2
  }
  convolution_param {
    num_output: 128
    pad: 2
    kernel_size: 5
    stride: 1
    weight_filler {
      type: "gaussian"
      std: 0.01
    }
    bias_filler {
      type: "constant"
    }
  }
}
layer {
  name: "relu2"
  type: "ReLU"
  bottom: "conv2"
  top: "conv2"
}
layer {
  name: "conv3"
  type: "Convolution"
  bottom: "conv2"
  top: "conv3"
  param {
    lr_mult: 1
  }
  param {
    lr_mult: 2
  }
  convolution_param {
    num_output: 128
    pad: 2
    kernel_size: 5
    stride: 1
    weight_filler {
      type: "gaussian"
      std: 0.01
    }
    bias_filler {
      type: "constant"
    }
  }
}
layer {
  name: "relu3"
  type: "ReLU"
  bottom: "conv3"
  top: "conv3"
}
layer {
  name: "pool3"
  type: "Pooling"
  bottom: "conv3"
  top: "pool3"
  pooling_param {
    pool: AVE
    kernel_size: 3
    stride: 2
  }
}
layer {
  name: "ip1"
  type: "InnerProduct"
  bottom: "pool3"
  top: "ip1"
  param {
    lr_mult: 1
  }
  param {
    lr_mult: 2
  }
  inner_product_param {
    num_output: 512
    weight_filler {
      type: "gaussian"
      std: 0.1
    }
    bias_filler {
      type: "constant"
    }
  }
}
layer {
  name: "ip2"
  type: "InnerProduct"
  bottom: "ip1"
  top: "ip2"
  param {
    lr_mult: 1
  }
  param {
    lr_mult: 2
  }
  inner_product_param {
    num_output: 256
    weight_filler {
      type: "gaussian"
      std: 0.1
    }
    bias_filler {
      type: "constant"
    }
  }
}
layer {
  name: "ip3"
  type: "InnerProduct"
  bottom: "ip2"
  top: "ip3"
  param {
    lr_mult: 1
  }
  param {
    lr_mult: 2
  }
  inner_product_param {
    num_output: 1
    weight_filler {
      type: "gaussian"
      std: 0.1
    }
    bias_filler {
      type: "constant"
    }
  }
}
layer {
  name: "loss"
  type: "HuberLoss"
  bottom: "ip3"
  bottom: "label"
  top: "loss"
  include {
    phase: TRAIN
  }
}
I0505 13:03:11.701309  7030 layer_factory.hpp:77] Creating layer parameters
I0505 13:03:11.701321  7030 net.cpp:94] Creating Layer parameters
I0505 13:03:11.701325  7030 net.cpp:409] parameters -> data
I0505 13:03:11.701335  7030 net.cpp:409] parameters -> label
I0505 13:03:11.701344  7030 hdf5_data_layer.cpp:79] Loading list of HDF5 filenames from: /home/purduethu/scratch/radon/d/deng106/CNNStatisticalModel/distributions/input/20_distributions_100_sample_size_train-parameters-path.txt
I0505 13:03:11.701359  7030 hdf5_data_layer.cpp:93] Number of HDF5 files: 1
I0505 13:03:11.701774  7030 hdf5.cpp:32] Datatype class: H5T_FLOAT
I0505 13:03:11.769842  7030 net.cpp:144] Setting up parameters
I0505 13:03:11.769875  7030 net.cpp:151] Top shape: 20 1 10 10 (2000)
I0505 13:03:11.769879  7030 net.cpp:151] Top shape: 20 (20)
I0505 13:03:11.769882  7030 net.cpp:159] Memory required for data: 8080
I0505 13:03:11.769888  7030 layer_factory.hpp:77] Creating layer conv1
I0505 13:03:11.769909  7030 net.cpp:94] Creating Layer conv1
I0505 13:03:11.769914  7030 net.cpp:435] conv1 <- data
I0505 13:03:11.769922  7030 net.cpp:409] conv1 -> conv1
I0505 13:03:11.774061  7030 net.cpp:144] Setting up conv1
I0505 13:03:11.774080  7030 net.cpp:151] Top shape: 20 64 10 10 (128000)
I0505 13:03:11.774083  7030 net.cpp:159] Memory required for data: 520080
I0505 13:03:11.774093  7030 layer_factory.hpp:77] Creating layer relu1
I0505 13:03:11.774102  7030 net.cpp:94] Creating Layer relu1
I0505 13:03:11.774106  7030 net.cpp:435] relu1 <- conv1
I0505 13:03:11.774111  7030 net.cpp:396] relu1 -> conv1 (in-place)
I0505 13:03:11.774121  7030 net.cpp:144] Setting up relu1
I0505 13:03:11.774127  7030 net.cpp:151] Top shape: 20 64 10 10 (128000)
I0505 13:03:11.774129  7030 net.cpp:159] Memory required for data: 1032080
I0505 13:03:11.774132  7030 layer_factory.hpp:77] Creating layer pool1
I0505 13:03:11.774138  7030 net.cpp:94] Creating Layer pool1
I0505 13:03:11.774142  7030 net.cpp:435] pool1 <- conv1
I0505 13:03:11.774145  7030 net.cpp:409] pool1 -> pool1
I0505 13:03:11.774205  7030 net.cpp:144] Setting up pool1
I0505 13:03:11.774212  7030 net.cpp:151] Top shape: 20 64 5 5 (32000)
I0505 13:03:11.774215  7030 net.cpp:159] Memory required for data: 1160080
I0505 13:03:11.774219  7030 layer_factory.hpp:77] Creating layer conv2
I0505 13:03:11.774227  7030 net.cpp:94] Creating Layer conv2
I0505 13:03:11.774230  7030 net.cpp:435] conv2 <- pool1
I0505 13:03:11.774235  7030 net.cpp:409] conv2 -> conv2
I0505 13:03:11.782436  7030 net.cpp:144] Setting up conv2
I0505 13:03:11.782451  7030 net.cpp:151] Top shape: 20 128 5 5 (64000)
I0505 13:03:11.782455  7030 net.cpp:159] Memory required for data: 1416080
I0505 13:03:11.782464  7030 layer_factory.hpp:77] Creating layer relu2
I0505 13:03:11.782469  7030 net.cpp:94] Creating Layer relu2
I0505 13:03:11.782474  7030 net.cpp:435] relu2 <- conv2
I0505 13:03:11.782477  7030 net.cpp:396] relu2 -> conv2 (in-place)
I0505 13:03:11.782485  7030 net.cpp:144] Setting up relu2
I0505 13:03:11.782488  7030 net.cpp:151] Top shape: 20 128 5 5 (64000)
I0505 13:03:11.782491  7030 net.cpp:159] Memory required for data: 1672080
I0505 13:03:11.782495  7030 layer_factory.hpp:77] Creating layer conv3
I0505 13:03:11.782502  7030 net.cpp:94] Creating Layer conv3
I0505 13:03:11.782506  7030 net.cpp:435] conv3 <- conv2
I0505 13:03:11.782510  7030 net.cpp:409] conv3 -> conv3
I0505 13:03:11.797500  7030 net.cpp:144] Setting up conv3
I0505 13:03:11.797516  7030 net.cpp:151] Top shape: 20 128 5 5 (64000)
I0505 13:03:11.797520  7030 net.cpp:159] Memory required for data: 1928080
I0505 13:03:11.797529  7030 layer_factory.hpp:77] Creating layer relu3
I0505 13:03:11.797543  7030 net.cpp:94] Creating Layer relu3
I0505 13:03:11.797546  7030 net.cpp:435] relu3 <- conv3
I0505 13:03:11.797551  7030 net.cpp:396] relu3 -> conv3 (in-place)
I0505 13:03:11.797559  7030 net.cpp:144] Setting up relu3
I0505 13:03:11.797562  7030 net.cpp:151] Top shape: 20 128 5 5 (64000)
I0505 13:03:11.797565  7030 net.cpp:159] Memory required for data: 2184080
I0505 13:03:11.797569  7030 layer_factory.hpp:77] Creating layer pool3
I0505 13:03:11.797574  7030 net.cpp:94] Creating Layer pool3
I0505 13:03:11.797577  7030 net.cpp:435] pool3 <- conv3
I0505 13:03:11.797581  7030 net.cpp:409] pool3 -> pool3
I0505 13:03:11.797623  7030 net.cpp:144] Setting up pool3
I0505 13:03:11.797631  7030 net.cpp:151] Top shape: 20 128 2 2 (10240)
I0505 13:03:11.797633  7030 net.cpp:159] Memory required for data: 2225040
I0505 13:03:11.797636  7030 layer_factory.hpp:77] Creating layer ip1
I0505 13:03:11.797646  7030 net.cpp:94] Creating Layer ip1
I0505 13:03:11.797649  7030 net.cpp:435] ip1 <- pool3
I0505 13:03:11.797654  7030 net.cpp:409] ip1 -> ip1
I0505 13:03:11.805502  7030 net.cpp:144] Setting up ip1
I0505 13:03:11.805519  7030 net.cpp:151] Top shape: 20 512 (10240)
I0505 13:03:11.805523  7030 net.cpp:159] Memory required for data: 2266000
I0505 13:03:11.805531  7030 layer_factory.hpp:77] Creating layer ip2
I0505 13:03:11.805538  7030 net.cpp:94] Creating Layer ip2
I0505 13:03:11.805542  7030 net.cpp:435] ip2 <- ip1
I0505 13:03:11.805548  7030 net.cpp:409] ip2 -> ip2
I0505 13:03:11.808689  7030 net.cpp:144] Setting up ip2
I0505 13:03:11.808698  7030 net.cpp:151] Top shape: 20 256 (5120)
I0505 13:03:11.808702  7030 net.cpp:159] Memory required for data: 2286480
I0505 13:03:11.808709  7030 layer_factory.hpp:77] Creating layer ip3
I0505 13:03:11.808715  7030 net.cpp:94] Creating Layer ip3
I0505 13:03:11.808719  7030 net.cpp:435] ip3 <- ip2
I0505 13:03:11.808724  7030 net.cpp:409] ip3 -> ip3
I0505 13:03:11.808835  7030 net.cpp:144] Setting up ip3
I0505 13:03:11.808841  7030 net.cpp:151] Top shape: 20 1 (20)
I0505 13:03:11.808845  7030 net.cpp:159] Memory required for data: 2286560
I0505 13:03:11.808850  7030 layer_factory.hpp:77] Creating layer loss
I0505 13:03:11.808856  7030 net.cpp:94] Creating Layer loss
I0505 13:03:11.808859  7030 net.cpp:435] loss <- ip3
I0505 13:03:11.808862  7030 net.cpp:435] loss <- label
I0505 13:03:11.808867  7030 net.cpp:409] loss -> loss
I0505 13:03:11.808929  7030 net.cpp:144] Setting up loss
…
I0505 13:03:11.859589  7030 net.cpp:323] The NetState phase (0) differed from the phase (1) specified by a rule in layer intercept
I0505 13:03:11.859601  7030 net.cpp:323] The NetState phase (0) differed from the phase (1) specified by a rule in layer accuracy
I0505 13:03:11.859671  7030 net.cpp:52] Initializing net from parameters: 
state {
  phase: TRAIN
}
layer {
  name: "parameters"
  type: "HDF5Data"
  top: "data"
  top: "label"
  include {
    phase: TRAIN
  }
  hdf5_data_param {
    source: "/home/purduethu/scratch/radon/d/deng106/CNNStatisticalModel/distributions/input/20_distributions_100_sample_size_train-distributions-path.txt"
    batch_size: 20
  }
}
layer {
  name: "conv1"
  type: "Convolution"
  bottom: "data"
  top: "conv1"
  param {
    lr_mult: 1
  }
  param {
    lr_mult: 2
  }
  convolution_param {
    num_output: 64
    pad: 2
    kernel_size: 5
    stride: 1
    weight_filler {
      type: "gaussian"
      std: 0.0001
    }
    bias_filler {
      type: "constant"
    }
  }
}
layer {
  name: "relu1"
  type: "ReLU"
  bottom: "conv1"
  top: "conv1"
}
layer {
  name: "pool1"
  type: "Pooling"
  bottom: "conv1"
  top: "pool1"
  pooling_param {
    pool: MAX
    kernel_size: 3
    stride: 2
  }
}
layer {
  name: "conv2"
  type: "Convolution"
  bottom: "pool1"
  top: "conv2"
  param {
    lr_mult: 1
  }
  param {
    lr_mult: 2
  }
  convolution_param {
    num_output: 128
    pad: 2
    kernel_size: 5
    stride: 1
    weight_filler {
      type: "gaussian"
      std: 0.01
    }
    bias_filler {
      type: "constant"
    }
  }
}
layer {
  name: "relu2"
  type: "ReLU"
  bottom: "conv2"
  top: "conv2"
}
layer {
  name: "conv3"
  type: "Convolution"
  bottom: "conv2"
  top: "conv3"
  param {
    lr_mult: 1
  }
  param {
    lr_mult: 2
  }
  convolution_param {
    num_output: 128
    pad: 2
    kernel_size: 5
    stride: 1
    weight_filler {
      type: "gaussian"
      std: 0.01
    }
    bias_filler {
      type: "constant"
    }
  }
}
layer {
  name: "relu3"
  type: "ReLU"
  bottom: "conv3"
  top: "conv3"
}
layer {
  name: "pool3"
  type: "Pooling"
  bottom: "conv3"
  top: "pool3"
  pooling_param {
    pool: AVE
    kernel_size: 3
    stride: 2
  }
}
layer {
  name: "ip1"
  type: "InnerProduct"
  bottom: "pool3"
  top: "ip1"
  param {
    lr_mult: 1
  }
  param {
    lr_mult: 2
  }
  inner_product_param {
    num_output: 512
    weight_filler {
      type: "gaussian"
      std: 0.1
    }
    bias_filler {
      type: "constant"
    }
  }
}
layer {
  name: "ip2"
  type: "InnerProduct"
  bottom: "ip1"
  top: "ip2"
  param {
    lr_mult: 1
  }
  param {
    lr_mult: 2
  }
  inner_product_param {
    num_output: 256
    weight_filler {
      type: "gaussian"
      std: 0.1
    }
    bias_filler {
      type: "constant"
    }
  }
}
layer {
  name: "ip3"
  type: "InnerProduct"
  bottom: "ip2"
  top: "ip3"
  param {
    lr_mult: 1
  }
  param {
    lr_mult: 2
  }
  inner_product_param {
    num_output: 50
    weight_filler {
      type: "gaussian"
      std: 0.1
    }
    bias_filler {
      type: "constant"
    }
  }
}
layer {
  name: "loss"
  type: "SoftmaxWithLoss"
  bottom: "ip3"
  bottom: "label"
  top: "loss"
}
I0505 13:03:11.859712  7030 layer_factory.hpp:77] Creating layer parameters
I0505 13:03:11.859720  7030 net.cpp:94] Creating Layer parameters
I0505 13:03:11.859724  7030 net.cpp:409] parameters -> data
I0505 13:03:11.859730  7030 net.cpp:409] parameters -> label
I0505 13:03:11.859736  7030 hdf5_data_layer.cpp:79] Loading list of HDF5 filenames from: /home/purduethu/scratch/radon/d/deng106/CNNStatisticalModel/distributions/input/20_distributions_100_sample_size_train-distributions-path.txt
I0505 13:03:11.859750  7030 hdf5_data_layer.cpp:93] Number of HDF5 files: 1
I0505 13:03:11.924614  7030 hdf5.cpp:35] Datatype class: H5T_INTEGER
I0505 13:03:11.926506  7030 net.cpp:144] Setting up parameters
I0505 13:03:11.926527  7030 net.cpp:151] Top shape: 20 1 10 10 (2000)
I0505 13:03:11.926532  7030 net.cpp:151] Top shape: 20 (20)
I0505 13:03:11.926535  7030 net.cpp:159] Memory required for data: 8080
I0505 13:03:11.926542  7030 layer_factory.hpp:77] Creating layer conv1
I0505 13:03:11.926558  7030 net.cpp:94] Creating Layer conv1
I0505 13:03:11.926563  7030 net.cpp:435] conv1 <- data
I0505 13:03:11.926569  7030 net.cpp:409] conv1 -> conv1
I0505 13:03:11.928370  7030 net.cpp:144] Setting up conv1
I0505 13:03:11.928386  7030 net.cpp:151] Top shape: 20 64 10 10 (128000)
I0505 13:03:11.928390  7030 net.cpp:159] Memory required for data: 520080
I0505 13:03:11.928400  7030 layer_factory.hpp:77] Creating layer relu1
I0505 13:03:11.928408  7030 net.cpp:94] Creating Layer relu1
I0505 13:03:11.928412  7030 net.cpp:435] relu1 <- conv1
I0505 13:03:11.928416  7030 net.cpp:396] relu1 -> conv1 (in-place)
I0505 13:03:11.928424  7030 net.cpp:144] Setting up relu1
I0505 13:03:11.928428  7030 net.cpp:151] Top shape: 20 64 10 10 (128000)
I0505 13:03:11.928431  7030 net.cpp:159] Memory required for data: 1032080
I0505 13:03:11.928434  7030 layer_factory.hpp:77] Creating layer pool1
I0505 13:03:11.928441  7030 net.cpp:94] Creating Layer pool1
I0505 13:03:11.928443  7030 net.cpp:435] pool1 <- conv1
I0505 13:03:11.928457  7030 net.cpp:409] pool1 -> pool1
I0505 13:03:11.928520  7030 net.cpp:144] Setting up pool1
I0505 13:03:11.928526  7030 net.cpp:151] Top shape: 20 64 5 5 (32000)
I0505 13:03:11.928530  7030 net.cpp:159] Memory required for data: 1160080
I0505 13:03:11.928534  7030 layer_factory.hpp:77] Creating layer conv2
I0505 13:03:11.928542  7030 net.cpp:94] Creating Layer conv2
I0505 13:03:11.928546  7030 net.cpp:435] conv2 <- pool1
I0505 13:03:11.928566  7030 net.cpp:409] conv2 -> conv2
I0505 13:03:11.936817  7030 net.cpp:144] Setting up conv2
I0505 13:03:11.936832  7030 net.cpp:151] Top shape: 20 128 5 5 (64000)
I0505 13:03:11.936836  7030 net.cpp:159] Memory required for data: 1416080
I0505 13:03:11.936844  7030 layer_factory.hpp:77] Creating layer relu2
I0505 13:03:11.936851  7030 net.cpp:94] Creating Layer relu2
I0505 13:03:11.936856  7030 net.cpp:435] relu2 <- conv2
I0505 13:03:11.936861  7030 net.cpp:396] relu2 -> conv2 (in-place)
I0505 13:03:11.936866  7030 net.cpp:144] Setting up relu2
I0505 13:03:11.936872  7030 net.cpp:151] Top shape: 20 128 5 5 (64000)
I0505 13:03:11.936875  7030 net.cpp:159] Memory required for data: 1672080
I0505 13:03:11.936878  7030 layer_factory.hpp:77] Creating layer conv3
I0505 13:03:11.936887  7030 net.cpp:94] Creating Layer conv3
I0505 13:03:11.936889  7030 net.cpp:435] conv3 <- conv2
I0505 13:03:11.936895  7030 net.cpp:409] conv3 -> conv3
I0505 13:03:11.951613  7030 net.cpp:144] Setting up conv3
I0505 13:03:11.951629  7030 net.cpp:151] Top shape: 20 128 5 5 (64000)
I0505 13:03:11.951633  7030 net.cpp:159] Memory required for data: 1928080
I0505 13:03:11.951642  7030 layer_factory.hpp:77] Creating layer relu3
I0505 13:03:11.951649  7030 net.cpp:94] Creating Layer relu3
I0505 13:03:11.951653  7030 net.cpp:435] relu3 <- conv3
I0505 13:03:11.951658  7030 net.cpp:396] relu3 -> conv3 (in-place)
I0505 13:03:11.951665  7030 net.cpp:144] Setting up relu3
I0505 13:03:11.951669  7030 net.cpp:151] Top shape: 20 128 5 5 (64000)
I0505 13:03:11.951673  7030 net.cpp:159] Memory required for data: 2184080
I0505 13:03:11.951675  7030 layer_factory.hpp:77] Creating layer pool3
I0505 13:03:11.951683  7030 net.cpp:94] Creating Layer pool3
I0505 13:03:11.951686  7030 net.cpp:435] pool3 <- conv3
I0505 13:03:11.951690  7030 net.cpp:409] pool3 -> pool3
I0505 13:03:11.951733  7030 net.cpp:144] Setting up pool3
I0505 13:03:11.951742  7030 net.cpp:151] Top shape: 20 128 2 2 (10240)
I0505 13:03:11.951745  7030 net.cpp:159] Memory required for data: 2225040
I0505 13:03:11.951748  7030 layer_factory.hpp:77] Creating layer ip1
I0505 13:03:11.951756  7030 net.cpp:94] Creating Layer ip1
I0505 13:03:11.951758  7030 net.cpp:435] ip1 <- pool3
I0505 13:03:11.951764  7030 net.cpp:409] ip1 -> ip1
I0505 13:03:11.958874  7030 net.cpp:144] Setting up ip1
I0505 13:03:11.958889  7030 net.cpp:151] Top shape: 20 512 (10240)
I0505 13:03:11.958891  7030 net.cpp:159] Memory required for data: 2266000
I0505 13:03:11.958899  7030 layer_factory.hpp:77] Creating layer ip2
I0505 13:03:11.958906  7030 net.cpp:94] Creating Layer ip2
I0505 13:03:11.958910  7030 net.cpp:435] ip2 <- ip1
I0505 13:03:11.958915  7030 net.cpp:409] ip2 -> ip2
I0505 13:03:11.962116  7030 net.cpp:144] Setting up ip2
I0505 13:03:11.962124  7030 net.cpp:151] Top shape: 20 256 (5120)
I0505 13:03:11.962127  7030 net.cpp:159] Memory required for data: 2286480
I0505 13:03:11.962136  7030 layer_factory.hpp:77] Creating layer ip3
I0505 13:03:11.962142  7030 net.cpp:94] Creating Layer ip3
I0505 13:03:11.962146  7030 net.cpp:435] ip3 <- ip2
I0505 13:03:11.962151  7030 net.cpp:409] ip3 -> ip3
I0505 13:03:11.963418  7030 net.cpp:144] Setting up ip3
I0505 13:03:11.963430  7030 net.cpp:151] Top shape: 20 50 (1000)
I0505 13:03:11.963434  7030 net.cpp:159] Memory required for data: 2290480
I0505 13:03:11.963439  7030 layer_factory.hpp:77] Creating layer loss
I0505 13:03:11.963448  7030 net.cpp:94] Creating Layer loss
I0505 13:03:11.963451  7030 net.cpp:435] loss <- ip3
I0505 13:03:11.963455  7030 net.cpp:435] loss <- label
I0505 13:03:11.963459  7030 net.cpp:409] loss -> loss
I0505 13:03:11.963472  7030 layer_factory.hpp:77] Creating layer loss
…
I0505 13:03:11.963961  7030 solver.cpp:181] Creating test net (#0) specified by net file: ./protocol/dis_20_100_dimension.protocol_distribution
I0505 13:03:11.963984  7030 net.cpp:323] The NetState phase (1) differed from the phase (0) specified by a rule in layer parameters
I0505 13:03:11.964066  7030 net.cpp:52] Initializing net from parameters: 
state {
  phase: TEST
}
layer {
  name: "intercept"
  type: "HDF5Data"
  top: "data"
  top: "label"
  include {
    phase: TEST
  }
  hdf5_data_param {
    source: "/home/purduethu/scratch/radon/d/deng106/CNNStatisticalModel/distributions/input/20_distributions_100_sample_size_test-distributions-path.txt"
    batch_size: 20
  }
}
layer {
  name: "conv1"
  type: "Convolution"
  bottom: "data"
  top: "conv1"
  param {
    lr_mult: 1
  }
  param {
    lr_mult: 2
  }
  convolution_param {
    num_output: 64
    pad: 2
    kernel_size: 5
    stride: 1
    weight_filler {
      type: "gaussian"
      std: 0.0001
    }
    bias_filler {
      type: "constant"
    }
  }
}
layer {
  name: "relu1"
  type: "ReLU"
  bottom: "conv1"
  top: "conv1"
}
layer {
  name: "pool1"
  type: "Pooling"
  bottom: "conv1"
  top: "pool1"
  pooling_param {
    pool: MAX
    kernel_size: 3
    stride: 2
  }
}
layer {
  name: "conv2"
  type: "Convolution"
  bottom: "pool1"
  top: "conv2"
  param {
    lr_mult: 1
  }
  param {
    lr_mult: 2
  }
  convolution_param {
    num_output: 128
    pad: 2
    kernel_size: 5
    stride: 1
    weight_filler {
      type: "gaussian"
      std: 0.01
    }
    bias_filler {
      type: "constant"
    }
  }
}
layer {
  name: "relu2"
  type: "ReLU"
  bottom: "conv2"
  top: "conv2"
}
layer {
  name: "conv3"
  type: "Convolution"
  bottom: "conv2"
  top: "conv3"
  param {
    lr_mult: 1
  }
  param {
    lr_mult: 2
  }
  convolution_param {
    num_output: 128
    pad: 2
    kernel_size: 5
    stride: 1
    weight_filler {
      type: "gaussian"
      std: 0.01
    }
    bias_filler {
      type: "constant"
    }
  }
}
layer {
  name: "relu3"
  type: "ReLU"
  bottom: "conv3"
  top: "conv3"
}
layer {
  name: "pool3"
  type: "Pooling"
  bottom: "conv3"
  top: "pool3"
  pooling_param {
    pool: AVE
    kernel_size: 3
    stride: 2
  }
}
layer {
  name: "ip1"
  type: "InnerProduct"
  bottom: "pool3"
  top: "ip1"
  param {
    lr_mult: 1
  }
  param {
    lr_mult: 2
  }
  inner_product_param {
    num_output: 512
    weight_filler {
      type: "gaussian"
      std: 0.1
    }
    bias_filler {
      type: "constant"
    }
  }
}
layer {
  name: "ip2"
  type: "InnerProduct"
  bottom: "ip1"
  top: "ip2"
  param {
    lr_mult: 1
  }
  param {
    lr_mult: 2
  }
  inner_product_param {
    num_output: 256
    weight_filler {
      type: "gaussian"
      std: 0.1
    }
    bias_filler {
      type: "constant"
    }
  }
}
layer {
  name: "ip3"
  type: "InnerProduct"
  bottom: "ip2"
  top: "ip3"
  param {
    lr_mult: 1
  }
  param {
    lr_mult: 2
  }
  inner_product_param {
    num_output: 50
    weight_filler {
      type: "gaussian"
      std: 0.1
    }
    bias_filler {
      type: "constant"
    }
  }
}
layer {
  name: "accuracy"
  type: "Accuracy"
  bottom: "ip3"
  bottom: "label"
  top: "accuracy"
  include {
    phase: TEST
  }
}
layer {
  name: "loss"
  type: "SoftmaxWithLoss"
  bottom: "ip3"
  bottom: "label"
  top: "loss"
}
I0505 13:03:11.964125  7030 layer_factory.hpp:77] Creating layer intercept
I0505 13:03:11.964134  7030 net.cpp:94] Creating Layer intercept
I0505 13:03:11.964138  7030 net.cpp:409] intercept -> data
I0505 13:03:11.964144  7030 net.cpp:409] intercept -> label
I0505 13:03:11.964150  7030 hdf5_data_layer.cpp:79] Loading list of HDF5 filenames from: /home/purduethu/scratch/radon/d/deng106/CNNStatisticalModel/distributions/input/20_distributions_100_sample_size_test-distributions-path.txt
I0505 13:03:11.964169  7030 hdf5_data_layer.cpp:93] Number of HDF5 files: 1
I0505 13:03:11.981577  7030 net.cpp:144] Setting up intercept
I0505 13:03:11.981612  7030 net.cpp:151] Top shape: 20 1 10 10 (2000)
I0505 13:03:11.981617  7030 net.cpp:151] Top shape: 20 (20)
I0505 13:03:11.981621  7030 net.cpp:159] Memory required for data: 8080
I0505 13:03:11.981626  7030 layer_factory.hpp:77] Creating layer label_intercept_1_split
I0505 13:03:11.981643  7030 net.cpp:94] Creating Layer label_intercept_1_split
I0505 13:03:11.981648  7030 net.cpp:435] label_intercept_1_split <- label
I0505 13:03:11.981654  7030 net.cpp:409] label_intercept_1_split -> label_intercept_1_split_0
I0505 13:03:11.981662  7030 net.cpp:409] label_intercept_1_split -> label_intercept_1_split_1
I0505 13:03:11.981705  7030 net.cpp:144] Setting up label_intercept_1_split
I0505 13:03:11.981712  7030 net.cpp:151] Top shape: 20 (20)
I0505 13:03:11.981715  7030 net.cpp:151] Top shape: 20 (20)
I0505 13:03:11.981719  7030 net.cpp:159] Memory required for data: 8240
I0505 13:03:11.981721  7030 layer_factory.hpp:77] Creating layer conv1
I0505 13:03:11.981731  7030 net.cpp:94] Creating Layer conv1
I0505 13:03:11.981735  7030 net.cpp:435] conv1 <- data
I0505 13:03:11.981739  7030 net.cpp:409] conv1 -> conv1
I0505 13:03:11.982568  7030 net.cpp:144] Setting up conv1
I0505 13:03:11.982581  7030 net.cpp:151] Top shape: 20 64 10 10 (128000)
I0505 13:03:11.982585  7030 net.cpp:159] Memory required for data: 520240
I0505 13:03:11.982594  7030 layer_factory.hpp:77] Creating layer relu1
I0505 13:03:11.982601  7030 net.cpp:94] Creating Layer relu1
I0505 13:03:11.982605  7030 net.cpp:435] relu1 <- conv1
I0505 13:03:11.982609  7030 net.cpp:396] relu1 -> conv1 (in-place)
I0505 13:03:11.982616  7030 net.cpp:144] Setting up relu1
I0505 13:03:11.982620  7030 net.cpp:151] Top shape: 20 64 10 10 (128000)
I0505 13:03:11.982623  7030 net.cpp:159] Memory required for data: 1032240
I0505 13:03:11.982626  7030 layer_factory.hpp:77] Creating layer pool1
I0505 13:03:11.982633  7030 net.cpp:94] Creating Layer pool1
I0505 13:03:11.982636  7030 net.cpp:435] pool1 <- conv1
I0505 13:03:11.982640  7030 net.cpp:409] pool1 -> pool1
I0505 13:03:11.982699  7030 net.cpp:144] Setting up pool1
I0505 13:03:11.982705  7030 net.cpp:151] Top shape: 20 64 5 5 (32000)
I0505 13:03:11.982708  7030 net.cpp:159] Memory required for data: 1160240
I0505 13:03:11.982712  7030 layer_factory.hpp:77] Creating layer conv2
I0505 13:03:11.982719  7030 net.cpp:94] Creating Layer conv2
I0505 13:03:11.982723  7030 net.cpp:435] conv2 <- pool1
I0505 13:03:11.982728  7030 net.cpp:409] conv2 -> conv2
I0505 13:03:11.990253  7030 net.cpp:144] Setting up conv2
I0505 13:03:11.990269  7030 net.cpp:151] Top shape: 20 128 5 5 (64000)
I0505 13:03:11.990274  7030 net.cpp:159] Memory required for data: 1416240
I0505 13:03:11.990283  7030 layer_factory.hpp:77] Creating layer relu2
I0505 13:03:11.990295  7030 net.cpp:94] Creating Layer relu2
I0505 13:03:11.990299  7030 net.cpp:435] relu2 <- conv2
I0505 13:03:11.990304  7030 net.cpp:396] relu2 -> conv2 (in-place)
I0505 13:03:11.990311  7030 net.cpp:144] Setting up relu2
I0505 13:03:11.990316  7030 net.cpp:151] Top shape: 20 128 5 5 (64000)
I0505 13:03:11.990319  7030 net.cpp:159] Memory required for data: 1672240
I0505 13:03:11.990321  7030 layer_factory.hpp:77] Creating layer conv3
I0505 13:03:11.990329  7030 net.cpp:94] Creating Layer conv3
I0505 13:03:11.990334  7030 net.cpp:435] conv3 <- conv2
I0505 13:03:11.990337  7030 net.cpp:409] conv3 -> conv3
I0505 13:03:12.002810  7030 net.cpp:144] Setting up conv3
I0505 13:03:12.002826  7030 net.cpp:151] Top shape: 20 128 5 5 (64000)
I0505 13:03:12.002830  7030 net.cpp:159] Memory required for data: 1928240
I0505 13:03:12.002838  7030 layer_factory.hpp:77] Creating layer relu3
I0505 13:03:12.002846  7030 net.cpp:94] Creating Layer relu3
I0505 13:03:12.002849  7030 net.cpp:435] relu3 <- conv3
I0505 13:03:12.002854  7030 net.cpp:396] relu3 -> conv3 (in-place)
I0505 13:03:12.002861  7030 net.cpp:144] Setting up relu3
I0505 13:03:12.002866  7030 net.cpp:151] Top shape: 20 128 5 5 (64000)
I0505 13:03:12.002868  7030 net.cpp:159] Memory required for data: 2184240
I0505 13:03:12.002871  7030 layer_factory.hpp:77] Creating layer pool3
I0505 13:03:12.002876  7030 net.cpp:94] Creating Layer pool3
I0505 13:03:12.002879  7030 net.cpp:435] pool3 <- conv3
I0505 13:03:12.002883  7030 net.cpp:409] pool3 -> pool3
I0505 13:03:12.002924  7030 net.cpp:144] Setting up pool3
I0505 13:03:12.002931  7030 net.cpp:151] Top shape: 20 128 2 2 (10240)
I0505 13:03:12.002934  7030 net.cpp:159] Memory required for data: 2225200
I0505 13:03:12.002938  7030 layer_factory.hpp:77] Creating layer ip1
I0505 13:03:12.002944  7030 net.cpp:94] Creating Layer ip1
I0505 13:03:12.002948  7030 net.cpp:435] ip1 <- pool3
I0505 13:03:12.002952  7030 net.cpp:409] ip1 -> ip1
I0505 13:03:12.009202  7030 net.cpp:144] Setting up ip1
I0505 13:03:12.009212  7030 net.cpp:151] Top shape: 20 512 (10240)
I0505 13:03:12.009215  7030 net.cpp:159] Memory required for data: 2266160
I0505 13:03:12.009222  7030 layer_factory.hpp:77] Creating layer ip2
I0505 13:03:12.009227  7030 net.cpp:94] Creating Layer ip2
I0505 13:03:12.009232  7030 net.cpp:435] ip2 <- ip1
I0505 13:03:12.009235  7030 net.cpp:409] ip2 -> ip2
I0505 13:03:12.012382  7030 net.cpp:144] Setting up ip2
I0505 13:03:12.012389  7030 net.cpp:151] Top shape: 20 256 (5120)
I0505 13:03:12.012392  7030 net.cpp:159] Memory required for data: 2286640
I0505 13:03:12.012399  7030 layer_factory.hpp:77] Creating layer ip3
I0505 13:03:12.012405  7030 net.cpp:94] Creating Layer ip3
I0505 13:03:12.012408  7030 net.cpp:435] ip3 <- ip2
I0505 13:03:12.012413  7030 net.cpp:409] ip3 -> ip3
I0505 13:03:12.012864  7030 net.cpp:144] Setting up ip3
I0505 13:03:12.012882  7030 net.cpp:151] Top shape: 20 50 (1000)
I0505 13:03:12.012886  7030 net.cpp:159] Memory required for data: 2290640
I0505 13:03:12.012890  7030 layer_factory.hpp:77] Creating layer ip3_ip3_0_split
I0505 13:03:12.012897  7030 net.cpp:94] Creating Layer ip3_ip3_0_split
I0505 13:03:12.012899  7030 net.cpp:435] ip3_ip3_0_split <- ip3
I0505 13:03:12.012903  7030 net.cpp:409] ip3_ip3_0_split -> ip3_ip3_0_split_0
I0505 13:03:12.012909  7030 net.cpp:409] ip3_ip3_0_split -> ip3_ip3_0_split_1
I0505 13:03:12.012950  7030 net.cpp:144] Setting up ip3_ip3_0_split
I0505 13:03:12.012956  7030 net.cpp:151] Top shape: 20 50 (1000)
I0505 13:03:12.012959  7030 net.cpp:151] Top shape: 20 50 (1000)
I0505 13:03:12.012962  7030 net.cpp:159] Memory required for data: 2298640
I0505 13:03:12.012965  7030 layer_factory.hpp:77] Creating layer accuracy
I0505 13:03:12.012971  7030 net.cpp:94] Creating Layer accuracy
I0505 13:03:12.012974  7030 net.cpp:435] accuracy <- ip3_ip3_0_split_0
I0505 13:03:12.012979  7030 net.cpp:435] accuracy <- label_intercept_1_split_0
I0505 13:03:12.012982  7030 net.cpp:409] accuracy -> accuracy
…
