…
I0503 19:13:46.240391 21960 net.cpp:323] The NetState phase (0) differed from the phase (1) specified by a rule in layer intercept
I0503 19:13:46.240409 21960 net.cpp:323] The NetState phase (0) differed from the phase (1) specified by a rule in layer accuracy
I0503 19:13:46.240506 21960 net.cpp:52] Initializing net from parameters: 
state {
  phase: TRAIN
}
layer {
  name: "parameters"
  type: "HDF5Data"
  top: "data"
  top: "label"
  include {
    phase: TRAIN
  }
  hdf5_data_param {
    source: "/home/purduethu/scratch/radon/d/deng106/CNNStatisticalModel/distributions/input/20_distributions_100_sample_size_train-distributions-path.txt"
    batch_size: 20
  }
}
layer {
  name: "conv1"
  type: "Convolution"
  bottom: "data"
  top: "conv1"
  param {
    lr_mult: 1
  }
  param {
    lr_mult: 2
  }
  convolution_param {
    num_output: 64
    pad: 2
    kernel_size: 5
    stride: 1
    weight_filler {
      type: "gaussian"
      std: 0.0001
    }
    bias_filler {
      type: "constant"
    }
  }
}
layer {
  name: "relu1"
  type: "ReLU"
  bottom: "conv1"
  top: "conv1"
}
layer {
  name: "conv2"
  type: "Convolution"
  bottom: "conv1"
  top: "conv2"
  param {
    lr_mult: 1
  }
  param {
    lr_mult: 2
  }
  convolution_param {
    num_output: 64
    pad: 2
    kernel_size: 5
    stride: 1
    weight_filler {
      type: "gaussian"
      std: 0.01
    }
    bias_filler {
      type: "constant"
    }
  }
}
layer {
  name: "relu2"
  type: "ReLU"
  bottom: "conv2"
  top: "conv2"
}
layer {
  name: "pool2"
  type: "Pooling"
  bottom: "conv2"
  top: "pool2"
  pooling_param {
    pool: MAX
    kernel_size: 3
    stride: 2
  }
}
layer {
  name: "conv3"
  type: "Convolution"
  bottom: "pool2"
  top: "conv3"
  param {
    lr_mult: 1
  }
  param {
    lr_mult: 2
  }
  convolution_param {
    num_output: 128
    pad: 2
    kernel_size: 5
    stride: 1
    weight_filler {
      type: "gaussian"
      std: 0.01
    }
    bias_filler {
      type: "constant"
    }
  }
}
layer {
  name: "relu3"
  type: "ReLU"
  bottom: "conv3"
  top: "conv3"
}
layer {
  name: "conv4"
  type: "Convolution"
  bottom: "conv3"
  top: "conv4"
  param {
    lr_mult: 1
  }
  param {
    lr_mult: 2
  }
  convolution_param {
    num_output: 128
    pad: 2
    kernel_size: 5
    stride: 1
    weight_filler {
      type: "gaussian"
      std: 0.01
    }
    bias_filler {
      type: "constant"
    }
  }
}
layer {
  name: "relu4"
  type: "ReLU"
  bottom: "conv4"
  top: "conv4"
}
layer {
  name: "conv5"
  type: "Convolution"
  bottom: "conv4"
  top: "conv5"
  param {
    lr_mult: 1
  }
  param {
    lr_mult: 2
  }
  convolution_param {
    num_output: 128
    pad: 2
    kernel_size: 5
    stride: 1
    weight_filler {
      type: "gaussian"
      std: 0.01
    }
    bias_filler {
      type: "constant"
    }
  }
}
layer {
  name: "relu5"
  type: "ReLU"
  bottom: "conv5"
  top: "conv5"
}
layer {
  name: "pool5"
  type: "Pooling"
  bottom: "conv5"
  top: "pool5"
  pooling_param {
    pool: AVE
    kernel_size: 3
    stride: 2
  }
}
layer {
  name: "ip1"
  type: "InnerProduct"
  bottom: "pool5"
  top: "ip1"
  param {
    lr_mult: 1
  }
  param {
    lr_mult: 2
  }
  inner_product_param {
    num_output: 1024
    weight_filler {
      type: "gaussian"
      std: 0.1
    }
    bias_filler {
      type: "constant"
    }
  }
}
layer {
  name: "ip2"
  type: "InnerProduct"
  bottom: "ip1"
  top: "ip2"
  param {
    lr_mult: 1
  }
  param {
    lr_mult: 2
  }
  inner_product_param {
    num_output: 512
    weight_filler {
      type: "gaussian"
      std: 0.1
    }
    bias_filler {
      type: "constant"
    }
  }
}
layer {
  name: "ip3"
  type: "InnerProduct"
  bottom: "ip2"
  top: "ip3"
  param {
    lr_mult: 1
  }
  param {
    lr_mult: 2
  }
  inner_product_param {
    num_output: 50
    weight_filler {
      type: "gaussian"
      std: 0.1
    }
    bias_filler {
      type: "constant"
    }
  }
}
layer {
  name: "loss"
  type: "SoftmaxWithLoss"
  bottom: "ip3"
  bottom: "label"
  top: "loss"
}
I0503 19:13:46.240598 21960 layer_factory.hpp:77] Creating layer parameters
I0503 19:13:46.240617 21960 net.cpp:94] Creating Layer parameters
I0503 19:13:46.240622 21960 net.cpp:409] parameters -> data
I0503 19:13:46.240643 21960 net.cpp:409] parameters -> label
I0503 19:13:46.240654 21960 hdf5_data_layer.cpp:79] Loading list of HDF5 filenames from: /home/purduethu/scratch/radon/d/deng106/CNNStatisticalModel/distributions/input/20_distributions_100_sample_size_train-distributions-path.txt
I0503 19:13:46.240684 21960 hdf5_data_layer.cpp:93] Number of HDF5 files: 1
I0503 19:13:46.241189 21960 hdf5.cpp:32] Datatype class: H5T_FLOAT
I0503 19:13:46.320526 21960 hdf5.cpp:35] Datatype class: H5T_INTEGER
I0503 19:13:46.322404 21960 net.cpp:144] Setting up parameters
I0503 19:13:46.322429 21960 net.cpp:151] Top shape: 20 1 10 10 (2000)
I0503 19:13:46.322435 21960 net.cpp:151] Top shape: 20 (20)
I0503 19:13:46.322439 21960 net.cpp:159] Memory required for data: 8080
I0503 19:13:46.322448 21960 layer_factory.hpp:77] Creating layer conv1
I0503 19:13:46.322470 21960 net.cpp:94] Creating Layer conv1
I0503 19:13:46.322476 21960 net.cpp:435] conv1 <- data
I0503 19:13:46.322489 21960 net.cpp:409] conv1 -> conv1
I0503 19:13:46.326450 21960 net.cpp:144] Setting up conv1
I0503 19:13:46.326467 21960 net.cpp:151] Top shape: 20 64 10 10 (128000)
I0503 19:13:46.326472 21960 net.cpp:159] Memory required for data: 520080
I0503 19:13:46.326484 21960 layer_factory.hpp:77] Creating layer relu1
I0503 19:13:46.326493 21960 net.cpp:94] Creating Layer relu1
I0503 19:13:46.326496 21960 net.cpp:435] relu1 <- conv1
I0503 19:13:46.326501 21960 net.cpp:396] relu1 -> conv1 (in-place)
I0503 19:13:46.326519 21960 net.cpp:144] Setting up relu1
I0503 19:13:46.326526 21960 net.cpp:151] Top shape: 20 64 10 10 (128000)
I0503 19:13:46.326529 21960 net.cpp:159] Memory required for data: 1032080
I0503 19:13:46.326532 21960 layer_factory.hpp:77] Creating layer conv2
I0503 19:13:46.326541 21960 net.cpp:94] Creating Layer conv2
I0503 19:13:46.326545 21960 net.cpp:435] conv2 <- conv1
I0503 19:13:46.326550 21960 net.cpp:409] conv2 -> conv2
I0503 19:13:46.331737 21960 net.cpp:144] Setting up conv2
I0503 19:13:46.331753 21960 net.cpp:151] Top shape: 20 64 10 10 (128000)
I0503 19:13:46.331758 21960 net.cpp:159] Memory required for data: 1544080
I0503 19:13:46.331765 21960 layer_factory.hpp:77] Creating layer relu2
I0503 19:13:46.331773 21960 net.cpp:94] Creating Layer relu2
I0503 19:13:46.331776 21960 net.cpp:435] relu2 <- conv2
I0503 19:13:46.331781 21960 net.cpp:396] relu2 -> conv2 (in-place)
I0503 19:13:46.331789 21960 net.cpp:144] Setting up relu2
I0503 19:13:46.331794 21960 net.cpp:151] Top shape: 20 64 10 10 (128000)
I0503 19:13:46.331797 21960 net.cpp:159] Memory required for data: 2056080
I0503 19:13:46.331801 21960 layer_factory.hpp:77] Creating layer pool2
I0503 19:13:46.331816 21960 net.cpp:94] Creating Layer pool2
I0503 19:13:46.331820 21960 net.cpp:435] pool2 <- conv2
I0503 19:13:46.331825 21960 net.cpp:409] pool2 -> pool2
I0503 19:13:46.331873 21960 net.cpp:144] Setting up pool2
I0503 19:13:46.331882 21960 net.cpp:151] Top shape: 20 64 5 5 (32000)
I0503 19:13:46.331887 21960 net.cpp:159] Memory required for data: 2184080
I0503 19:13:46.331889 21960 layer_factory.hpp:77] Creating layer conv3
I0503 19:13:46.331898 21960 net.cpp:94] Creating Layer conv3
I0503 19:13:46.331902 21960 net.cpp:435] conv3 <- pool2
I0503 19:13:46.331915 21960 net.cpp:409] conv3 -> conv3
I0503 19:13:46.340157 21960 net.cpp:144] Setting up conv3
I0503 19:13:46.340173 21960 net.cpp:151] Top shape: 20 128 5 5 (64000)
I0503 19:13:46.340178 21960 net.cpp:159] Memory required for data: 2440080
I0503 19:13:46.340185 21960 layer_factory.hpp:77] Creating layer relu3
I0503 19:13:46.340193 21960 net.cpp:94] Creating Layer relu3
I0503 19:13:46.340196 21960 net.cpp:435] relu3 <- conv3
I0503 19:13:46.340201 21960 net.cpp:396] relu3 -> conv3 (in-place)
I0503 19:13:46.340209 21960 net.cpp:144] Setting up relu3
I0503 19:13:46.340214 21960 net.cpp:151] Top shape: 20 128 5 5 (64000)
I0503 19:13:46.340217 21960 net.cpp:159] Memory required for data: 2696080
I0503 19:13:46.340220 21960 layer_factory.hpp:77] Creating layer conv4
I0503 19:13:46.340229 21960 net.cpp:94] Creating Layer conv4
I0503 19:13:46.340234 21960 net.cpp:435] conv4 <- conv3
I0503 19:13:46.340239 21960 net.cpp:409] conv4 -> conv4
I0503 19:13:46.355448 21960 net.cpp:144] Setting up conv4
I0503 19:13:46.355463 21960 net.cpp:151] Top shape: 20 128 5 5 (64000)
I0503 19:13:46.355468 21960 net.cpp:159] Memory required for data: 2952080
I0503 19:13:46.355474 21960 layer_factory.hpp:77] Creating layer relu4
I0503 19:13:46.355481 21960 net.cpp:94] Creating Layer relu4
I0503 19:13:46.355485 21960 net.cpp:435] relu4 <- conv4
I0503 19:13:46.355490 21960 net.cpp:396] relu4 -> conv4 (in-place)
I0503 19:13:46.355499 21960 net.cpp:144] Setting up relu4
I0503 19:13:46.355504 21960 net.cpp:151] Top shape: 20 128 5 5 (64000)
I0503 19:13:46.355506 21960 net.cpp:159] Memory required for data: 3208080
I0503 19:13:46.355510 21960 layer_factory.hpp:77] Creating layer conv5
I0503 19:13:46.355518 21960 net.cpp:94] Creating Layer conv5
I0503 19:13:46.355521 21960 net.cpp:435] conv5 <- conv4
I0503 19:13:46.355527 21960 net.cpp:409] conv5 -> conv5
I0503 19:13:46.370301 21960 net.cpp:144] Setting up conv5
I0503 19:13:46.370342 21960 net.cpp:151] Top shape: 20 128 5 5 (64000)
I0503 19:13:46.370353 21960 net.cpp:159] Memory required for data: 3464080
I0503 19:13:46.370378 21960 layer_factory.hpp:77] Creating layer relu5
I0503 19:13:46.370394 21960 net.cpp:94] Creating Layer relu5
I0503 19:13:46.370404 21960 net.cpp:435] relu5 <- conv5
I0503 19:13:46.370419 21960 net.cpp:396] relu5 -> conv5 (in-place)
I0503 19:13:46.370440 21960 net.cpp:144] Setting up relu5
I0503 19:13:46.370455 21960 net.cpp:151] Top shape: 20 128 5 5 (64000)
I0503 19:13:46.370463 21960 net.cpp:159] Memory required for data: 3720080
I0503 19:13:46.370473 21960 layer_factory.hpp:77] Creating layer pool5
I0503 19:13:46.370486 21960 net.cpp:94] Creating Layer pool5
I0503 19:13:46.370496 21960 net.cpp:435] pool5 <- conv5
I0503 19:13:46.370509 21960 net.cpp:409] pool5 -> pool5
I0503 19:13:46.370596 21960 net.cpp:144] Setting up pool5
I0503 19:13:46.370616 21960 net.cpp:151] Top shape: 20 128 2 2 (10240)
I0503 19:13:46.370627 21960 net.cpp:159] Memory required for data: 3761040
I0503 19:13:46.370636 21960 layer_factory.hpp:77] Creating layer ip1
I0503 19:13:46.370653 21960 net.cpp:94] Creating Layer ip1
I0503 19:13:46.370664 21960 net.cpp:435] ip1 <- pool5
I0503 19:13:46.370677 21960 net.cpp:409] ip1 -> ip1
I0503 19:13:46.385041 21960 net.cpp:144] Setting up ip1
I0503 19:13:46.385057 21960 net.cpp:151] Top shape: 20 1024 (20480)
I0503 19:13:46.385062 21960 net.cpp:159] Memory required for data: 3842960
I0503 19:13:46.385069 21960 layer_factory.hpp:77] Creating layer ip2
I0503 19:13:46.385076 21960 net.cpp:94] Creating Layer ip2
I0503 19:13:46.385085 21960 net.cpp:435] ip2 <- ip1
I0503 19:13:46.385092 21960 net.cpp:409] ip2 -> ip2
I0503 19:13:46.398602 21960 net.cpp:144] Setting up ip2
I0503 19:13:46.398617 21960 net.cpp:151] Top shape: 20 512 (10240)
I0503 19:13:46.398622 21960 net.cpp:159] Memory required for data: 3883920
I0503 19:13:46.398628 21960 layer_factory.hpp:77] Creating layer ip3
I0503 19:13:46.398636 21960 net.cpp:94] Creating Layer ip3
I0503 19:13:46.398640 21960 net.cpp:435] ip3 <- ip2
I0503 19:13:46.398645 21960 net.cpp:409] ip3 -> ip3
I0503 19:13:46.400061 21960 net.cpp:144] Setting up ip3
I0503 19:13:46.400075 21960 net.cpp:151] Top shape: 20 50 (1000)
I0503 19:13:46.400080 21960 net.cpp:159] Memory required for data: 3887920
I0503 19:13:46.400086 21960 layer_factory.hpp:77] Creating layer loss
I0503 19:13:46.400095 21960 net.cpp:94] Creating Layer loss
I0503 19:13:46.400099 21960 net.cpp:435] loss <- ip3
I0503 19:13:46.400104 21960 net.cpp:435] loss <- label
I0503 19:13:46.400110 21960 net.cpp:409] loss -> loss
I0503 19:13:46.400122 21960 layer_factory.hpp:77] Creating layer loss
…
I0503 19:13:46.400665 21960 solver.cpp:181] Creating test net (#0) specified by net file: ./protocol/dis_20_100_dimension.protocol_distribution
I0503 19:13:46.400696 21960 net.cpp:323] The NetState phase (1) differed from the phase (0) specified by a rule in layer parameters
I0503 19:13:46.400800 21960 net.cpp:52] Initializing net from parameters: 
state {
  phase: TEST
}
layer {
  name: "intercept"
  type: "HDF5Data"
  top: "data"
  top: "label"
  include {
    phase: TEST
  }
  hdf5_data_param {
    source: "/home/purduethu/scratch/radon/d/deng106/CNNStatisticalModel/distributions/input/20_distributions_100_sample_size_test-distributions-path.txt"
    batch_size: 20
  }
}
layer {
  name: "conv1"
  type: "Convolution"
  bottom: "data"
  top: "conv1"
  param {
    lr_mult: 1
  }
  param {
    lr_mult: 2
  }
  convolution_param {
    num_output: 64
    pad: 2
    kernel_size: 5
    stride: 1
    weight_filler {
      type: "gaussian"
      std: 0.0001
    }
    bias_filler {
      type: "constant"
    }
  }
}
layer {
  name: "relu1"
  type: "ReLU"
  bottom: "conv1"
  top: "conv1"
}
layer {
  name: "conv2"
  type: "Convolution"
  bottom: "conv1"
  top: "conv2"
  param {
    lr_mult: 1
  }
  param {
    lr_mult: 2
  }
  convolution_param {
    num_output: 64
    pad: 2
    kernel_size: 5
    stride: 1
    weight_filler {
      type: "gaussian"
      std: 0.01
    }
    bias_filler {
      type: "constant"
    }
  }
}
layer {
  name: "relu2"
  type: "ReLU"
  bottom: "conv2"
  top: "conv2"
}
layer {
  name: "pool2"
  type: "Pooling"
  bottom: "conv2"
  top: "pool2"
  pooling_param {
    pool: MAX
    kernel_size: 3
    stride: 2
  }
}
layer {
  name: "conv3"
  type: "Convolution"
  bottom: "pool2"
  top: "conv3"
  param {
    lr_mult: 1
  }
  param {
    lr_mult: 2
  }
  convolution_param {
    num_output: 128
    pad: 2
    kernel_size: 5
    stride: 1
    weight_filler {
      type: "gaussian"
      std: 0.01
    }
    bias_filler {
      type: "constant"
    }
  }
}
layer {
  name: "relu3"
  type: "ReLU"
  bottom: "conv3"
  top: "conv3"
}
layer {
  name: "conv4"
  type: "Convolution"
  bottom: "conv3"
  top: "conv4"
  param {
    lr_mult: 1
  }
  param {
    lr_mult: 2
  }
  convolution_param {
    num_output: 128
    pad: 2
    kernel_size: 5
    stride: 1
    weight_filler {
      type: "gaussian"
      std: 0.01
    }
    bias_filler {
      type: "constant"
    }
  }
}
layer {
  name: "relu4"
  type: "ReLU"
  bottom: "conv4"
  top: "conv4"
}
layer {
  name: "conv5"
  type: "Convolution"
  bottom: "conv4"
  top: "conv5"
  param {
    lr_mult: 1
  }
  param {
    lr_mult: 2
  }
  convolution_param {
    num_output: 128
    pad: 2
    kernel_size: 5
    stride: 1
    weight_filler {
      type: "gaussian"
      std: 0.01
    }
    bias_filler {
      type: "constant"
    }
  }
}
layer {
  name: "relu5"
  type: "ReLU"
  bottom: "conv5"
  top: "conv5"
}
layer {
  name: "pool5"
  type: "Pooling"
  bottom: "conv5"
  top: "pool5"
  pooling_param {
    pool: AVE
    kernel_size: 3
    stride: 2
  }
}
layer {
  name: "ip1"
  type: "InnerProduct"
  bottom: "pool5"
  top: "ip1"
  param {
    lr_mult: 1
  }
  param {
    lr_mult: 2
  }
  inner_product_param {
    num_output: 1024
    weight_filler {
      type: "gaussian"
      std: 0.1
    }
    bias_filler {
      type: "constant"
    }
  }
}
layer {
  name: "ip2"
  type: "InnerProduct"
  bottom: "ip1"
  top: "ip2"
  param {
    lr_mult: 1
  }
  param {
    lr_mult: 2
  }
  inner_product_param {
    num_output: 512
    weight_filler {
      type: "gaussian"
      std: 0.1
    }
    bias_filler {
      type: "constant"
    }
  }
}
layer {
  name: "ip3"
  type: "InnerProduct"
  bottom: "ip2"
  top: "ip3"
  param {
    lr_mult: 1
  }
  param {
    lr_mult: 2
  }
  inner_product_param {
    num_output: 50
    weight_filler {
      type: "gaussian"
      std: 0.1
    }
    bias_filler {
      type: "constant"
    }
  }
}
layer {
  name: "accuracy"
  type: "Accuracy"
  bottom: "ip3"
  bottom: "label"
  top: "accuracy"
  include {
    phase: TEST
  }
}
layer {
  name: "loss"
  type: "SoftmaxWithLoss"
  bottom: "ip3"
  bottom: "label"
  top: "loss"
}
I0503 19:13:46.400877 21960 layer_factory.hpp:77] Creating layer intercept
I0503 19:13:46.400887 21960 net.cpp:94] Creating Layer intercept
I0503 19:13:46.400892 21960 net.cpp:409] intercept -> data
I0503 19:13:46.400899 21960 net.cpp:409] intercept -> label
I0503 19:13:46.400905 21960 hdf5_data_layer.cpp:79] Loading list of HDF5 filenames from: /home/purduethu/scratch/radon/d/deng106/CNNStatisticalModel/distributions/input/20_distributions_100_sample_size_test-distributions-path.txt
I0503 19:13:46.400933 21960 hdf5_data_layer.cpp:93] Number of HDF5 files: 1
I0503 19:13:46.419355 21960 net.cpp:144] Setting up intercept
I0503 19:13:46.419394 21960 net.cpp:151] Top shape: 20 1 10 10 (2000)
I0503 19:13:46.419400 21960 net.cpp:151] Top shape: 20 (20)
I0503 19:13:46.419404 21960 net.cpp:159] Memory required for data: 8080
I0503 19:13:46.419410 21960 layer_factory.hpp:77] Creating layer label_intercept_1_split
I0503 19:13:46.419433 21960 net.cpp:94] Creating Layer label_intercept_1_split
I0503 19:13:46.419438 21960 net.cpp:435] label_intercept_1_split <- label
I0503 19:13:46.419445 21960 net.cpp:409] label_intercept_1_split -> label_intercept_1_split_0
I0503 19:13:46.419455 21960 net.cpp:409] label_intercept_1_split -> label_intercept_1_split_1
I0503 19:13:46.419494 21960 net.cpp:144] Setting up label_intercept_1_split
I0503 19:13:46.419502 21960 net.cpp:151] Top shape: 20 (20)
I0503 19:13:46.419507 21960 net.cpp:151] Top shape: 20 (20)
I0503 19:13:46.419510 21960 net.cpp:159] Memory required for data: 8240
I0503 19:13:46.419513 21960 layer_factory.hpp:77] Creating layer conv1
I0503 19:13:46.419524 21960 net.cpp:94] Creating Layer conv1
I0503 19:13:46.419528 21960 net.cpp:435] conv1 <- data
I0503 19:13:46.419534 21960 net.cpp:409] conv1 -> conv1
I0503 19:13:46.420274 21960 net.cpp:144] Setting up conv1
I0503 19:13:46.420297 21960 net.cpp:151] Top shape: 20 64 10 10 (128000)
I0503 19:13:46.420302 21960 net.cpp:159] Memory required for data: 520240
I0503 19:13:46.420312 21960 layer_factory.hpp:77] Creating layer relu1
I0503 19:13:46.420320 21960 net.cpp:94] Creating Layer relu1
I0503 19:13:46.420325 21960 net.cpp:435] relu1 <- conv1
I0503 19:13:46.420330 21960 net.cpp:396] relu1 -> conv1 (in-place)
I0503 19:13:46.420337 21960 net.cpp:144] Setting up relu1
I0503 19:13:46.420342 21960 net.cpp:151] Top shape: 20 64 10 10 (128000)
I0503 19:13:46.420346 21960 net.cpp:159] Memory required for data: 1032240
I0503 19:13:46.420349 21960 layer_factory.hpp:77] Creating layer conv2
I0503 19:13:46.420358 21960 net.cpp:94] Creating Layer conv2
I0503 19:13:46.420362 21960 net.cpp:435] conv2 <- conv1
I0503 19:13:46.420367 21960 net.cpp:409] conv2 -> conv2
I0503 19:13:46.424383 21960 net.cpp:144] Setting up conv2
I0503 19:13:46.424398 21960 net.cpp:151] Top shape: 20 64 10 10 (128000)
I0503 19:13:46.424403 21960 net.cpp:159] Memory required for data: 1544240
I0503 19:13:46.424412 21960 layer_factory.hpp:77] Creating layer relu2
I0503 19:13:46.424418 21960 net.cpp:94] Creating Layer relu2
I0503 19:13:46.424422 21960 net.cpp:435] relu2 <- conv2
I0503 19:13:46.424427 21960 net.cpp:396] relu2 -> conv2 (in-place)
I0503 19:13:46.424434 21960 net.cpp:144] Setting up relu2
I0503 19:13:46.424439 21960 net.cpp:151] Top shape: 20 64 10 10 (128000)
I0503 19:13:46.424443 21960 net.cpp:159] Memory required for data: 2056240
I0503 19:13:46.424446 21960 layer_factory.hpp:77] Creating layer pool2
I0503 19:13:46.424453 21960 net.cpp:94] Creating Layer pool2
I0503 19:13:46.424456 21960 net.cpp:435] pool2 <- conv2
I0503 19:13:46.424460 21960 net.cpp:409] pool2 -> pool2
I0503 19:13:46.424497 21960 net.cpp:144] Setting up pool2
I0503 19:13:46.424504 21960 net.cpp:151] Top shape: 20 64 5 5 (32000)
I0503 19:13:46.424507 21960 net.cpp:159] Memory required for data: 2184240
I0503 19:13:46.424511 21960 layer_factory.hpp:77] Creating layer conv3
I0503 19:13:46.424520 21960 net.cpp:94] Creating Layer conv3
I0503 19:13:46.424525 21960 net.cpp:435] conv3 <- pool2
I0503 19:13:46.424530 21960 net.cpp:409] conv3 -> conv3
I0503 19:13:46.431835 21960 net.cpp:144] Setting up conv3
I0503 19:13:46.431850 21960 net.cpp:151] Top shape: 20 128 5 5 (64000)
I0503 19:13:46.431855 21960 net.cpp:159] Memory required for data: 2440240
I0503 19:13:46.431864 21960 layer_factory.hpp:77] Creating layer relu3
I0503 19:13:46.431871 21960 net.cpp:94] Creating Layer relu3
I0503 19:13:46.431875 21960 net.cpp:435] relu3 <- conv3
I0503 19:13:46.431880 21960 net.cpp:396] relu3 -> conv3 (in-place)
I0503 19:13:46.431887 21960 net.cpp:144] Setting up relu3
I0503 19:13:46.431892 21960 net.cpp:151] Top shape: 20 128 5 5 (64000)
I0503 19:13:46.431896 21960 net.cpp:159] Memory required for data: 2696240
I0503 19:13:46.431900 21960 layer_factory.hpp:77] Creating layer conv4
I0503 19:13:46.431907 21960 net.cpp:94] Creating Layer conv4
I0503 19:13:46.431911 21960 net.cpp:435] conv4 <- conv3
I0503 19:13:46.431916 21960 net.cpp:409] conv4 -> conv4
I0503 19:13:46.444840 21960 net.cpp:144] Setting up conv4
I0503 19:13:46.444876 21960 net.cpp:151] Top shape: 20 128 5 5 (64000)
I0503 19:13:46.444888 21960 net.cpp:159] Memory required for data: 2952240
I0503 19:13:46.444905 21960 layer_factory.hpp:77] Creating layer relu4
I0503 19:13:46.444922 21960 net.cpp:94] Creating Layer relu4
I0503 19:13:46.444932 21960 net.cpp:435] relu4 <- conv4
I0503 19:13:46.444965 21960 net.cpp:396] relu4 -> conv4 (in-place)
I0503 19:13:46.444973 21960 net.cpp:144] Setting up relu4
I0503 19:13:46.444978 21960 net.cpp:151] Top shape: 20 128 5 5 (64000)
I0503 19:13:46.444981 21960 net.cpp:159] Memory required for data: 3208240
I0503 19:13:46.444984 21960 layer_factory.hpp:77] Creating layer conv5
I0503 19:13:46.444993 21960 net.cpp:94] Creating Layer conv5
I0503 19:13:46.444996 21960 net.cpp:435] conv5 <- conv4
I0503 19:13:46.445001 21960 net.cpp:409] conv5 -> conv5
I0503 19:13:46.457965 21960 net.cpp:144] Setting up conv5
I0503 19:13:46.457989 21960 net.cpp:151] Top shape: 20 128 5 5 (64000)
I0503 19:13:46.457994 21960 net.cpp:159] Memory required for data: 3464240
I0503 19:13:46.458004 21960 layer_factory.hpp:77] Creating layer relu5
I0503 19:13:46.458010 21960 net.cpp:94] Creating Layer relu5
I0503 19:13:46.458014 21960 net.cpp:435] relu5 <- conv5
I0503 19:13:46.458019 21960 net.cpp:396] relu5 -> conv5 (in-place)
I0503 19:13:46.458027 21960 net.cpp:144] Setting up relu5
I0503 19:13:46.458032 21960 net.cpp:151] Top shape: 20 128 5 5 (64000)
I0503 19:13:46.458035 21960 net.cpp:159] Memory required for data: 3720240
I0503 19:13:46.458039 21960 layer_factory.hpp:77] Creating layer pool5
I0503 19:13:46.458045 21960 net.cpp:94] Creating Layer pool5
I0503 19:13:46.458047 21960 net.cpp:435] pool5 <- conv5
I0503 19:13:46.458052 21960 net.cpp:409] pool5 -> pool5
I0503 19:13:46.458081 21960 net.cpp:144] Setting up pool5
I0503 19:13:46.458088 21960 net.cpp:151] Top shape: 20 128 2 2 (10240)
I0503 19:13:46.458091 21960 net.cpp:159] Memory required for data: 3761200
I0503 19:13:46.458096 21960 layer_factory.hpp:77] Creating layer ip1
I0503 19:13:46.458102 21960 net.cpp:94] Creating Layer ip1
I0503 19:13:46.458106 21960 net.cpp:435] ip1 <- pool5
I0503 19:13:46.458112 21960 net.cpp:409] ip1 -> ip1
I0503 19:13:46.471662 21960 net.cpp:144] Setting up ip1
I0503 19:13:46.471676 21960 net.cpp:151] Top shape: 20 1024 (20480)
I0503 19:13:46.471681 21960 net.cpp:159] Memory required for data: 3843120
I0503 19:13:46.471688 21960 layer_factory.hpp:77] Creating layer ip2
I0503 19:13:46.471694 21960 net.cpp:94] Creating Layer ip2
I0503 19:13:46.471698 21960 net.cpp:435] ip2 <- ip1
I0503 19:13:46.471704 21960 net.cpp:409] ip2 -> ip2
I0503 19:13:46.485235 21960 net.cpp:144] Setting up ip2
I0503 19:13:46.485250 21960 net.cpp:151] Top shape: 20 512 (10240)
I0503 19:13:46.485255 21960 net.cpp:159] Memory required for data: 3884080
I0503 19:13:46.485261 21960 layer_factory.hpp:77] Creating layer ip3
I0503 19:13:46.485270 21960 net.cpp:94] Creating Layer ip3
I0503 19:13:46.485275 21960 net.cpp:435] ip3 <- ip2
I0503 19:13:46.485280 21960 net.cpp:409] ip3 -> ip3
I0503 19:13:46.485997 21960 net.cpp:144] Setting up ip3
I0503 19:13:46.486006 21960 net.cpp:151] Top shape: 20 50 (1000)
I0503 19:13:46.486009 21960 net.cpp:159] Memory required for data: 3888080
I0503 19:13:46.486014 21960 layer_factory.hpp:77] Creating layer ip3_ip3_0_split
I0503 19:13:46.486021 21960 net.cpp:94] Creating Layer ip3_ip3_0_split
I0503 19:13:46.486024 21960 net.cpp:435] ip3_ip3_0_split <- ip3
I0503 19:13:46.486029 21960 net.cpp:409] ip3_ip3_0_split -> ip3_ip3_0_split_0
I0503 19:13:46.486034 21960 net.cpp:409] ip3_ip3_0_split -> ip3_ip3_0_split_1
I0503 19:13:46.486062 21960 net.cpp:144] Setting up ip3_ip3_0_split
I0503 19:13:46.486068 21960 net.cpp:151] Top shape: 20 50 (1000)
I0503 19:13:46.486073 21960 net.cpp:151] Top shape: 20 50 (1000)
I0503 19:13:46.486075 21960 net.cpp:159] Memory required for data: 3896080
I0503 19:13:46.486078 21960 layer_factory.hpp:77] Creating layer accuracy
I0503 19:13:46.486089 21960 net.cpp:94] Creating Layer accuracy
I0503 19:13:46.486093 21960 net.cpp:435] accuracy <- ip3_ip3_0_split_0
I0503 19:13:46.486098 21960 net.cpp:435] accuracy <- label_intercept_1_split_0
I0503 19:13:46.486102 21960 net.cpp:409] accuracy -> accuracy
…
