…
I0505 07:54:52.163823  4823 net.cpp:323] The NetState phase (0) differed from the phase (1) specified by a rule in layer intercept
I0505 07:54:52.163839  4823 net.cpp:323] The NetState phase (0) differed from the phase (1) specified by a rule in layer loss
I0505 07:54:52.163919  4823 net.cpp:52] Initializing net from parameters: 
state {
  phase: TRAIN
}
layer {
  name: "parameters"
  type: "HDF5Data"
  top: "data"
  top: "label"
  include {
    phase: TRAIN
  }
  hdf5_data_param {
    source: "/home/purduethu/scratch/radon/d/deng106/CNNStatisticalModel/distributions/input/5_distributions_400_sample_size_train-parameters-path.txt"
    batch_size: 20
  }
}
layer {
  name: "conv1"
  type: "Convolution"
  bottom: "data"
  top: "conv1"
  param {
    lr_mult: 1
  }
  param {
    lr_mult: 2
  }
  convolution_param {
    num_output: 64
    pad: 2
    kernel_size: 5
    stride: 1
    weight_filler {
      type: "gaussian"
      std: 0.0001
    }
    bias_filler {
      type: "constant"
    }
  }
}
layer {
  name: "relu1"
  type: "ReLU"
  bottom: "conv1"
  top: "conv1"
}
layer {
  name: "pool1"
  type: "Pooling"
  bottom: "conv1"
  top: "pool1"
  pooling_param {
    pool: MAX
    kernel_size: 3
    stride: 2
  }
}
layer {
  name: "conv2"
  type: "Convolution"
  bottom: "pool1"
  top: "conv2"
  param {
    lr_mult: 1
  }
  param {
    lr_mult: 2
  }
  convolution_param {
    num_output: 128
    pad: 2
    kernel_size: 5
    stride: 1
    weight_filler {
      type: "gaussian"
      std: 0.01
    }
    bias_filler {
      type: "constant"
    }
  }
}
layer {
  name: "relu2"
  type: "ReLU"
  bottom: "conv2"
  top: "conv2"
}
layer {
  name: "conv3"
  type: "Convolution"
  bottom: "conv2"
  top: "conv3"
  param {
    lr_mult: 1
  }
  param {
    lr_mult: 2
  }
  convolution_param {
    num_output: 128
    pad: 2
    kernel_size: 5
    stride: 1
    weight_filler {
      type: "gaussian"
      std: 0.01
    }
    bias_filler {
      type: "constant"
    }
  }
}
layer {
  name: "relu3"
  type: "ReLU"
  bottom: "conv3"
  top: "conv3"
}
layer {
  name: "pool3"
  type: "Pooling"
  bottom: "conv3"
  top: "pool3"
  pooling_param {
    pool: AVE
    kernel_size: 3
    stride: 2
  }
}
layer {
  name: "ip1"
  type: "InnerProduct"
  bottom: "pool3"
  top: "ip1"
  param {
    lr_mult: 1
  }
  param {
    lr_mult: 2
  }
  inner_product_param {
    num_output: 512
    weight_filler {
      type: "gaussian"
      std: 0.1
    }
    bias_filler {
      type: "constant"
    }
  }
}
layer {
  name: "ip2"
  type: "InnerProduct"
  bottom: "ip1"
  top: "ip2"
  param {
    lr_mult: 1
  }
  param {
    lr_mult: 2
  }
  inner_product_param {
    num_output: 256
    weight_filler {
      type: "gaussian"
      std: 0.1
    }
    bias_filler {
      type: "constant"
    }
  }
}
layer {
  name: "ip3"
  type: "InnerProduct"
  bottom: "ip2"
  top: "ip3"
  param {
    lr_mult: 1
  }
  param {
    lr_mult: 2
  }
  inner_product_param {
    num_output: 1
    weight_filler {
      type: "gaussian"
      std: 0.1
    }
    bias_filler {
      type: "constant"
    }
  }
}
layer {
  name: "loss"
  type: "HuberLoss"
  bottom: "ip3"
  bottom: "label"
  top: "loss"
  include {
    phase: TRAIN
  }
}
I0505 07:54:52.163981  4823 layer_factory.hpp:77] Creating layer parameters
I0505 07:54:52.163995  4823 net.cpp:94] Creating Layer parameters
I0505 07:54:52.164008  4823 net.cpp:409] parameters -> data
I0505 07:54:52.164028  4823 net.cpp:409] parameters -> label
I0505 07:54:52.164038  4823 hdf5_data_layer.cpp:79] Loading list of HDF5 filenames from: /home/purduethu/scratch/radon/d/deng106/CNNStatisticalModel/distributions/input/5_distributions_400_sample_size_train-parameters-path.txt
I0505 07:54:52.164062  4823 hdf5_data_layer.cpp:93] Number of HDF5 files: 1
I0505 07:54:52.164644  4823 hdf5.cpp:32] Datatype class: H5T_FLOAT
I0505 07:54:52.227480  4823 net.cpp:144] Setting up parameters
I0505 07:54:52.227504  4823 net.cpp:151] Top shape: 20 1 20 20 (8000)
I0505 07:54:52.227509  4823 net.cpp:151] Top shape: 20 (20)
I0505 07:54:52.227514  4823 net.cpp:159] Memory required for data: 32080
I0505 07:54:52.227521  4823 layer_factory.hpp:77] Creating layer conv1
I0505 07:54:52.227540  4823 net.cpp:94] Creating Layer conv1
I0505 07:54:52.227546  4823 net.cpp:435] conv1 <- data
I0505 07:54:52.227557  4823 net.cpp:409] conv1 -> conv1
I0505 07:54:52.232334  4823 net.cpp:144] Setting up conv1
I0505 07:54:52.232350  4823 net.cpp:151] Top shape: 20 64 20 20 (512000)
I0505 07:54:52.232354  4823 net.cpp:159] Memory required for data: 2080080
I0505 07:54:52.232367  4823 layer_factory.hpp:77] Creating layer relu1
I0505 07:54:52.232374  4823 net.cpp:94] Creating Layer relu1
I0505 07:54:52.232378  4823 net.cpp:435] relu1 <- conv1
I0505 07:54:52.232383  4823 net.cpp:396] relu1 -> conv1 (in-place)
I0505 07:54:52.232394  4823 net.cpp:144] Setting up relu1
I0505 07:54:52.232400  4823 net.cpp:151] Top shape: 20 64 20 20 (512000)
I0505 07:54:52.232403  4823 net.cpp:159] Memory required for data: 4128080
I0505 07:54:52.232406  4823 layer_factory.hpp:77] Creating layer pool1
I0505 07:54:52.232414  4823 net.cpp:94] Creating Layer pool1
I0505 07:54:52.232417  4823 net.cpp:435] pool1 <- conv1
I0505 07:54:52.232422  4823 net.cpp:409] pool1 -> pool1
I0505 07:54:52.232467  4823 net.cpp:144] Setting up pool1
I0505 07:54:52.232475  4823 net.cpp:151] Top shape: 20 64 10 10 (128000)
I0505 07:54:52.232478  4823 net.cpp:159] Memory required for data: 4640080
I0505 07:54:52.232481  4823 layer_factory.hpp:77] Creating layer conv2
I0505 07:54:52.232491  4823 net.cpp:94] Creating Layer conv2
I0505 07:54:52.232494  4823 net.cpp:435] conv2 <- pool1
I0505 07:54:52.232501  4823 net.cpp:409] conv2 -> conv2
I0505 07:54:52.242920  4823 net.cpp:144] Setting up conv2
I0505 07:54:52.242936  4823 net.cpp:151] Top shape: 20 128 10 10 (256000)
I0505 07:54:52.242941  4823 net.cpp:159] Memory required for data: 5664080
I0505 07:54:52.242950  4823 layer_factory.hpp:77] Creating layer relu2
I0505 07:54:52.242956  4823 net.cpp:94] Creating Layer relu2
I0505 07:54:52.242960  4823 net.cpp:435] relu2 <- conv2
I0505 07:54:52.242965  4823 net.cpp:396] relu2 -> conv2 (in-place)
I0505 07:54:52.242972  4823 net.cpp:144] Setting up relu2
I0505 07:54:52.242977  4823 net.cpp:151] Top shape: 20 128 10 10 (256000)
I0505 07:54:52.242981  4823 net.cpp:159] Memory required for data: 6688080
I0505 07:54:52.242985  4823 layer_factory.hpp:77] Creating layer conv3
I0505 07:54:52.242992  4823 net.cpp:94] Creating Layer conv3
I0505 07:54:52.242996  4823 net.cpp:435] conv3 <- conv2
I0505 07:54:52.243001  4823 net.cpp:409] conv3 -> conv3
I0505 07:54:52.260736  4823 net.cpp:144] Setting up conv3
I0505 07:54:52.260752  4823 net.cpp:151] Top shape: 20 128 10 10 (256000)
I0505 07:54:52.260756  4823 net.cpp:159] Memory required for data: 7712080
I0505 07:54:52.260766  4823 layer_factory.hpp:77] Creating layer relu3
I0505 07:54:52.260772  4823 net.cpp:94] Creating Layer relu3
I0505 07:54:52.260782  4823 net.cpp:435] relu3 <- conv3
I0505 07:54:52.260787  4823 net.cpp:396] relu3 -> conv3 (in-place)
I0505 07:54:52.260795  4823 net.cpp:144] Setting up relu3
I0505 07:54:52.260800  4823 net.cpp:151] Top shape: 20 128 10 10 (256000)
I0505 07:54:52.260804  4823 net.cpp:159] Memory required for data: 8736080
I0505 07:54:52.260807  4823 layer_factory.hpp:77] Creating layer pool3
I0505 07:54:52.260813  4823 net.cpp:94] Creating Layer pool3
I0505 07:54:52.260818  4823 net.cpp:435] pool3 <- conv3
I0505 07:54:52.260828  4823 net.cpp:409] pool3 -> pool3
I0505 07:54:52.260864  4823 net.cpp:144] Setting up pool3
I0505 07:54:52.260871  4823 net.cpp:151] Top shape: 20 128 5 5 (64000)
I0505 07:54:52.260874  4823 net.cpp:159] Memory required for data: 8992080
I0505 07:54:52.260879  4823 layer_factory.hpp:77] Creating layer ip1
I0505 07:54:52.260888  4823 net.cpp:94] Creating Layer ip1
I0505 07:54:52.260891  4823 net.cpp:435] ip1 <- pool3
I0505 07:54:52.260896  4823 net.cpp:409] ip1 -> ip1
I0505 07:54:52.302341  4823 net.cpp:144] Setting up ip1
I0505 07:54:52.302361  4823 net.cpp:151] Top shape: 20 512 (10240)
I0505 07:54:52.302364  4823 net.cpp:159] Memory required for data: 9033040
I0505 07:54:52.302371  4823 layer_factory.hpp:77] Creating layer ip2
I0505 07:54:52.302379  4823 net.cpp:94] Creating Layer ip2
I0505 07:54:52.302383  4823 net.cpp:435] ip2 <- ip1
I0505 07:54:52.302388  4823 net.cpp:409] ip2 -> ip2
I0505 07:54:52.305649  4823 net.cpp:144] Setting up ip2
I0505 07:54:52.305658  4823 net.cpp:151] Top shape: 20 256 (5120)
I0505 07:54:52.305661  4823 net.cpp:159] Memory required for data: 9053520
I0505 07:54:52.305668  4823 layer_factory.hpp:77] Creating layer ip3
I0505 07:54:52.305675  4823 net.cpp:94] Creating Layer ip3
I0505 07:54:52.305680  4823 net.cpp:435] ip3 <- ip2
I0505 07:54:52.305685  4823 net.cpp:409] ip3 -> ip3
I0505 07:54:52.305752  4823 net.cpp:144] Setting up ip3
I0505 07:54:52.305757  4823 net.cpp:151] Top shape: 20 1 (20)
I0505 07:54:52.305761  4823 net.cpp:159] Memory required for data: 9053600
I0505 07:54:52.305766  4823 layer_factory.hpp:77] Creating layer loss
I0505 07:54:52.305778  4823 net.cpp:94] Creating Layer loss
I0505 07:54:52.305781  4823 net.cpp:435] loss <- ip3
I0505 07:54:52.305785  4823 net.cpp:435] loss <- label
I0505 07:54:52.305791  4823 net.cpp:409] loss -> loss
I0505 07:54:52.305825  4823 net.cpp:144] Setting up loss
…
