…
I0502 15:39:00.910607 11343 net.cpp:323] The NetState phase (0) differed from the phase (1) specified by a rule in layer intercept
I0502 15:39:00.910624 11343 net.cpp:323] The NetState phase (0) differed from the phase (1) specified by a rule in layer loss
I0502 15:39:00.910718 11343 net.cpp:52] Initializing net from parameters: 
state {
  phase: TRAIN
}
layer {
  name: "parameters"
  type: "HDF5Data"
  top: "data"
  top: "label"
  include {
    phase: TRAIN
  }
  hdf5_data_param {
    source: "/home/purduethu/scratch/radon/d/deng106/CNNStatisticalModel/distributions/input/5_distributions_400_sample_size_train-parameters-path.txt"
    batch_size: 20
  }
}
layer {
  name: "conv1"
  type: "Convolution"
  bottom: "data"
  top: "conv1"
  param {
    lr_mult: 1
  }
  param {
    lr_mult: 2
  }
  convolution_param {
    num_output: 64
    pad: 2
    kernel_size: 5
    stride: 1
    weight_filler {
      type: "gaussian"
      std: 0.0001
    }
    bias_filler {
      type: "constant"
    }
  }
}
layer {
  name: "relu1"
  type: "ReLU"
  bottom: "conv1"
  top: "conv1"
}
layer {
  name: "conv2"
  type: "Convolution"
  bottom: "conv1"
  top: "conv2"
  param {
    lr_mult: 1
  }
  param {
    lr_mult: 2
  }
  convolution_param {
    num_output: 64
    pad: 2
    kernel_size: 5
    stride: 1
    weight_filler {
      type: "gaussian"
      std: 0.01
    }
    bias_filler {
      type: "constant"
    }
  }
}
layer {
  name: "relu2"
  type: "ReLU"
  bottom: "conv2"
  top: "conv2"
}
layer {
  name: "pool2"
  type: "Pooling"
  bottom: "conv2"
  top: "pool2"
  pooling_param {
    pool: MAX
    kernel_size: 3
    stride: 2
  }
}
layer {
  name: "conv3"
  type: "Convolution"
  bottom: "pool2"
  top: "conv3"
  param {
    lr_mult: 1
  }
  param {
    lr_mult: 2
  }
  convolution_param {
    num_output: 64
    pad: 2
    kernel_size: 5
    stride: 1
    weight_filler {
      type: "gaussian"
      std: 0.01
    }
    bias_filler {
      type: "constant"
    }
  }
}
layer {
  name: "relu3"
  type: "ReLU"
  bottom: "conv3"
  top: "conv3"
}
layer {
  name: "conv4"
  type: "Convolution"
  bottom: "conv3"
  top: "conv4"
  param {
    lr_mult: 1
  }
  param {
    lr_mult: 2
  }
  convolution_param {
    num_output: 64
    pad: 2
    kernel_size: 5
    stride: 1
    weight_filler {
      type: "gaussian"
      std: 0.01
    }
    bias_filler {
      type: "constant"
    }
  }
}
layer {
  name: "relu4"
  type: "ReLU"
  bottom: "conv4"
  top: "conv4"
}
layer {
  name: "conv5"
  type: "Convolution"
  bottom: "conv4"
  top: "conv5"
  param {
    lr_mult: 1
  }
  param {
    lr_mult: 2
  }
  convolution_param {
    num_output: 64
    pad: 2
    kernel_size: 5
    stride: 1
    weight_filler {
      type: "gaussian"
      std: 0.01
    }
    bias_filler {
      type: "constant"
    }
  }
}
layer {
  name: "relu5"
  type: "ReLU"
  bottom: "conv5"
  top: "conv5"
}
layer {
  name: "pool5"
  type: "Pooling"
  bottom: "conv5"
  top: "pool5"
  pooling_param {
    pool: AVE
    kernel_size: 3
    stride: 2
  }
}
layer {
  name: "ip1"
  type: "InnerProduct"
  bottom: "pool5"
  top: "ip1"
  param {
    lr_mult: 1
  }
  param {
    lr_mult: 2
  }
  inner_product_param {
    num_output: 64
    weight_filler {
      type: "gaussian"
      std: 0.1
    }
    bias_filler {
      type: "constant"
    }
  }
}
layer {
  name: "ip2"
  type: "InnerProduct"
  bottom: "ip1"
  top: "ip2"
  param {
    lr_mult: 1
  }
  param {
    lr_mult: 2
  }
  inner_product_param {
    num_output: 64
    weight_filler {
      type: "gaussian"
      std: 0.1
    }
    bias_filler {
      type: "constant"
    }
  }
}
layer {
  name: "ip3"
  type: "InnerProduct"
  bottom: "ip2"
  top: "ip3"
  param {
    lr_mult: 1
  }
  param {
    lr_mult: 2
  }
  inner_product_param {
    num_output: 1
    weight_filler {
      type: "gaussian"
      std: 0.1
    }
    bias_filler {
      type: "constant"
    }
  }
}
layer {
  name: "loss"
  type: "HuberLoss"
  bottom: "ip3"
  bottom: "label"
  top: "loss"
  include {
    phase: TRAIN
  }
}
I0502 15:39:00.910799 11343 layer_factory.hpp:77] Creating layer parameters
I0502 15:39:00.910815 11343 net.cpp:94] Creating Layer parameters
I0502 15:39:00.910820 11343 net.cpp:409] parameters -> data
I0502 15:39:00.910840 11343 net.cpp:409] parameters -> label
I0502 15:39:00.910851 11343 hdf5_data_layer.cpp:79] Loading list of HDF5 filenames from: /home/purduethu/scratch/radon/d/deng106/CNNStatisticalModel/distributions/input/5_distributions_400_sample_size_train-parameters-path.txt
I0502 15:39:00.910873 11343 hdf5_data_layer.cpp:93] Number of HDF5 files: 1
I0502 15:39:00.911383 11343 hdf5.cpp:32] Datatype class: H5T_FLOAT
I0502 15:39:00.977684 11343 net.cpp:144] Setting up parameters
I0502 15:39:00.977717 11343 net.cpp:151] Top shape: 20 1 20 20 (8000)
I0502 15:39:00.977723 11343 net.cpp:151] Top shape: 20 (20)
I0502 15:39:00.977727 11343 net.cpp:159] Memory required for data: 32080
I0502 15:39:00.977735 11343 layer_factory.hpp:77] Creating layer conv1
I0502 15:39:00.977754 11343 net.cpp:94] Creating Layer conv1
I0502 15:39:00.977761 11343 net.cpp:435] conv1 <- data
I0502 15:39:00.977772 11343 net.cpp:409] conv1 -> conv1
I0502 15:39:00.982724 11343 net.cpp:144] Setting up conv1
I0502 15:39:00.982745 11343 net.cpp:151] Top shape: 20 64 20 20 (512000)
I0502 15:39:00.982750 11343 net.cpp:159] Memory required for data: 2080080
I0502 15:39:00.982762 11343 layer_factory.hpp:77] Creating layer relu1
I0502 15:39:00.982771 11343 net.cpp:94] Creating Layer relu1
I0502 15:39:00.982775 11343 net.cpp:435] relu1 <- conv1
I0502 15:39:00.982780 11343 net.cpp:396] relu1 -> conv1 (in-place)
I0502 15:39:00.982792 11343 net.cpp:144] Setting up relu1
I0502 15:39:00.982797 11343 net.cpp:151] Top shape: 20 64 20 20 (512000)
I0502 15:39:00.982801 11343 net.cpp:159] Memory required for data: 4128080
I0502 15:39:00.982805 11343 layer_factory.hpp:77] Creating layer conv2
I0502 15:39:00.982812 11343 net.cpp:94] Creating Layer conv2
I0502 15:39:00.982816 11343 net.cpp:435] conv2 <- conv1
I0502 15:39:00.982821 11343 net.cpp:409] conv2 -> conv2
I0502 15:39:00.993423 11343 net.cpp:144] Setting up conv2
I0502 15:39:00.993451 11343 net.cpp:151] Top shape: 20 64 20 20 (512000)
I0502 15:39:00.993456 11343 net.cpp:159] Memory required for data: 6176080
I0502 15:39:00.993466 11343 layer_factory.hpp:77] Creating layer relu2
I0502 15:39:00.993475 11343 net.cpp:94] Creating Layer relu2
I0502 15:39:00.993480 11343 net.cpp:435] relu2 <- conv2
I0502 15:39:00.993485 11343 net.cpp:396] relu2 -> conv2 (in-place)
I0502 15:39:00.993494 11343 net.cpp:144] Setting up relu2
I0502 15:39:00.993499 11343 net.cpp:151] Top shape: 20 64 20 20 (512000)
I0502 15:39:00.993501 11343 net.cpp:159] Memory required for data: 8224080
I0502 15:39:00.993505 11343 layer_factory.hpp:77] Creating layer pool2
I0502 15:39:00.993512 11343 net.cpp:94] Creating Layer pool2
I0502 15:39:00.993522 11343 net.cpp:435] pool2 <- conv2
I0502 15:39:00.993527 11343 net.cpp:409] pool2 -> pool2
I0502 15:39:00.993577 11343 net.cpp:144] Setting up pool2
I0502 15:39:00.993583 11343 net.cpp:151] Top shape: 20 64 10 10 (128000)
I0502 15:39:00.993587 11343 net.cpp:159] Memory required for data: 8736080
I0502 15:39:00.993590 11343 layer_factory.hpp:77] Creating layer conv3
I0502 15:39:00.993599 11343 net.cpp:94] Creating Layer conv3
I0502 15:39:00.993603 11343 net.cpp:435] conv3 <- pool2
I0502 15:39:00.993608 11343 net.cpp:409] conv3 -> conv3
I0502 15:39:00.998898 11343 net.cpp:144] Setting up conv3
I0502 15:39:00.998915 11343 net.cpp:151] Top shape: 20 64 10 10 (128000)
I0502 15:39:00.998919 11343 net.cpp:159] Memory required for data: 9248080
I0502 15:39:00.998929 11343 layer_factory.hpp:77] Creating layer relu3
I0502 15:39:00.998934 11343 net.cpp:94] Creating Layer relu3
I0502 15:39:00.998939 11343 net.cpp:435] relu3 <- conv3
I0502 15:39:00.998944 11343 net.cpp:396] relu3 -> conv3 (in-place)
I0502 15:39:00.998950 11343 net.cpp:144] Setting up relu3
I0502 15:39:00.998955 11343 net.cpp:151] Top shape: 20 64 10 10 (128000)
I0502 15:39:00.998958 11343 net.cpp:159] Memory required for data: 9760080
I0502 15:39:00.998961 11343 layer_factory.hpp:77] Creating layer conv4
I0502 15:39:00.998970 11343 net.cpp:94] Creating Layer conv4
I0502 15:39:00.998975 11343 net.cpp:435] conv4 <- conv3
I0502 15:39:00.998980 11343 net.cpp:409] conv4 -> conv4
I0502 15:39:01.004235 11343 net.cpp:144] Setting up conv4
I0502 15:39:01.004251 11343 net.cpp:151] Top shape: 20 64 10 10 (128000)
I0502 15:39:01.004256 11343 net.cpp:159] Memory required for data: 10272080
I0502 15:39:01.004261 11343 layer_factory.hpp:77] Creating layer relu4
I0502 15:39:01.004267 11343 net.cpp:94] Creating Layer relu4
I0502 15:39:01.004271 11343 net.cpp:435] relu4 <- conv4
I0502 15:39:01.004276 11343 net.cpp:396] relu4 -> conv4 (in-place)
I0502 15:39:01.004283 11343 net.cpp:144] Setting up relu4
I0502 15:39:01.004288 11343 net.cpp:151] Top shape: 20 64 10 10 (128000)
I0502 15:39:01.004292 11343 net.cpp:159] Memory required for data: 10784080
I0502 15:39:01.004295 11343 layer_factory.hpp:77] Creating layer conv5
I0502 15:39:01.004302 11343 net.cpp:94] Creating Layer conv5
I0502 15:39:01.004307 11343 net.cpp:435] conv5 <- conv4
I0502 15:39:01.004312 11343 net.cpp:409] conv5 -> conv5
I0502 15:39:01.009567 11343 net.cpp:144] Setting up conv5
I0502 15:39:01.009582 11343 net.cpp:151] Top shape: 20 64 10 10 (128000)
I0502 15:39:01.009588 11343 net.cpp:159] Memory required for data: 11296080
I0502 15:39:01.009596 11343 layer_factory.hpp:77] Creating layer relu5
I0502 15:39:01.009603 11343 net.cpp:94] Creating Layer relu5
I0502 15:39:01.009608 11343 net.cpp:435] relu5 <- conv5
I0502 15:39:01.009611 11343 net.cpp:396] relu5 -> conv5 (in-place)
I0502 15:39:01.009618 11343 net.cpp:144] Setting up relu5
I0502 15:39:01.009624 11343 net.cpp:151] Top shape: 20 64 10 10 (128000)
I0502 15:39:01.009626 11343 net.cpp:159] Memory required for data: 11808080
I0502 15:39:01.009630 11343 layer_factory.hpp:77] Creating layer pool5
I0502 15:39:01.009635 11343 net.cpp:94] Creating Layer pool5
I0502 15:39:01.009639 11343 net.cpp:435] pool5 <- conv5
I0502 15:39:01.009644 11343 net.cpp:409] pool5 -> pool5
I0502 15:39:01.009683 11343 net.cpp:144] Setting up pool5
I0502 15:39:01.009691 11343 net.cpp:151] Top shape: 20 64 5 5 (32000)
I0502 15:39:01.009694 11343 net.cpp:159] Memory required for data: 11936080
I0502 15:39:01.009698 11343 layer_factory.hpp:77] Creating layer ip1
I0502 15:39:01.009708 11343 net.cpp:94] Creating Layer ip1
I0502 15:39:01.009712 11343 net.cpp:435] ip1 <- pool5
I0502 15:39:01.009717 11343 net.cpp:409] ip1 -> ip1
I0502 15:39:01.012296 11343 net.cpp:144] Setting up ip1
I0502 15:39:01.012305 11343 net.cpp:151] Top shape: 20 64 (1280)
I0502 15:39:01.012308 11343 net.cpp:159] Memory required for data: 11941200
I0502 15:39:01.012313 11343 layer_factory.hpp:77] Creating layer ip2
I0502 15:39:01.012320 11343 net.cpp:94] Creating Layer ip2
I0502 15:39:01.012323 11343 net.cpp:435] ip2 <- ip1
I0502 15:39:01.012334 11343 net.cpp:409] ip2 -> ip2
I0502 15:39:01.012503 11343 net.cpp:144] Setting up ip2
I0502 15:39:01.012511 11343 net.cpp:151] Top shape: 20 64 (1280)
I0502 15:39:01.012513 11343 net.cpp:159] Memory required for data: 11946320
I0502 15:39:01.012518 11343 layer_factory.hpp:77] Creating layer ip3
I0502 15:39:01.012524 11343 net.cpp:94] Creating Layer ip3
I0502 15:39:01.012528 11343 net.cpp:435] ip3 <- ip2
I0502 15:39:01.012533 11343 net.cpp:409] ip3 -> ip3
I0502 15:39:01.012603 11343 net.cpp:144] Setting up ip3
I0502 15:39:01.012619 11343 net.cpp:151] Top shape: 20 1 (20)
I0502 15:39:01.012622 11343 net.cpp:159] Memory required for data: 11946400
I0502 15:39:01.012627 11343 layer_factory.hpp:77] Creating layer loss
I0502 15:39:01.012639 11343 net.cpp:94] Creating Layer loss
I0502 15:39:01.012643 11343 net.cpp:435] loss <- ip3
I0502 15:39:01.012647 11343 net.cpp:435] loss <- label
I0502 15:39:01.012653 11343 net.cpp:409] loss -> loss
I0502 15:39:01.012689 11343 net.cpp:144] Setting up loss
…
