…
I0505 00:55:04.559937  1457 net.cpp:323] The NetState phase (0) differed from the phase (1) specified by a rule in layer intercept
I0505 00:55:04.559952  1457 net.cpp:323] The NetState phase (0) differed from the phase (1) specified by a rule in layer accuracy
I0505 00:55:04.560029  1457 net.cpp:52] Initializing net from parameters: 
state {
  phase: TRAIN
}
layer {
  name: "parameters"
  type: "HDF5Data"
  top: "data"
  top: "label"
  include {
    phase: TRAIN
  }
  hdf5_data_param {
    source: "/home/purduethu/scratch/radon/d/deng106/CNNStatisticalModel/distributions/input/50_distributions_900_sample_size_train-distributions-path.txt"
    batch_size: 20
  }
}
layer {
  name: "conv1"
  type: "Convolution"
  bottom: "data"
  top: "conv1"
  param {
    lr_mult: 1
  }
  param {
    lr_mult: 2
  }
  convolution_param {
    num_output: 64
    pad: 2
    kernel_size: 5
    stride: 1
    weight_filler {
      type: "gaussian"
      std: 0.0001
    }
    bias_filler {
      type: "constant"
    }
  }
}
layer {
  name: "relu1"
  type: "ReLU"
  bottom: "conv1"
  top: "conv1"
}
layer {
  name: "pool1"
  type: "Pooling"
  bottom: "conv1"
  top: "pool1"
  pooling_param {
    pool: MAX
    kernel_size: 3
    stride: 2
  }
}
layer {
  name: "conv2"
  type: "Convolution"
  bottom: "pool1"
  top: "conv2"
  param {
    lr_mult: 1
  }
  param {
    lr_mult: 2
  }
  convolution_param {
    num_output: 128
    pad: 2
    kernel_size: 5
    stride: 1
    weight_filler {
      type: "gaussian"
      std: 0.01
    }
    bias_filler {
      type: "constant"
    }
  }
}
layer {
  name: "relu2"
  type: "ReLU"
  bottom: "conv2"
  top: "conv2"
}
layer {
  name: "conv3"
  type: "Convolution"
  bottom: "conv2"
  top: "conv3"
  param {
    lr_mult: 1
  }
  param {
    lr_mult: 2
  }
  convolution_param {
    num_output: 128
    pad: 2
    kernel_size: 5
    stride: 1
    weight_filler {
      type: "gaussian"
      std: 0.01
    }
    bias_filler {
      type: "constant"
    }
  }
}
layer {
  name: "relu3"
  type: "ReLU"
  bottom: "conv3"
  top: "conv3"
}
layer {
  name: "pool3"
  type: "Pooling"
  bottom: "conv3"
  top: "pool3"
  pooling_param {
    pool: AVE
    kernel_size: 3
    stride: 2
  }
}
layer {
  name: "ip1"
  type: "InnerProduct"
  bottom: "pool3"
  top: "ip1"
  param {
    lr_mult: 1
  }
  param {
    lr_mult: 2
  }
  inner_product_param {
    num_output: 512
    weight_filler {
      type: "gaussian"
      std: 0.1
    }
    bias_filler {
      type: "constant"
    }
  }
}
layer {
  name: "ip2"
  type: "InnerProduct"
  bottom: "ip1"
  top: "ip2"
  param {
    lr_mult: 1
  }
  param {
    lr_mult: 2
  }
  inner_product_param {
    num_output: 256
    weight_filler {
      type: "gaussian"
      std: 0.1
    }
    bias_filler {
      type: "constant"
    }
  }
}
layer {
  name: "ip3"
  type: "InnerProduct"
  bottom: "ip2"
  top: "ip3"
  param {
    lr_mult: 1
  }
  param {
    lr_mult: 2
  }
  inner_product_param {
    num_output: 50
    weight_filler {
      type: "gaussian"
      std: 0.1
    }
    bias_filler {
      type: "constant"
    }
  }
}
layer {
  name: "loss"
  type: "SoftmaxWithLoss"
  bottom: "ip3"
  bottom: "label"
  top: "loss"
}
I0505 00:55:04.560091  1457 layer_factory.hpp:77] Creating layer parameters
I0505 00:55:04.560106  1457 net.cpp:94] Creating Layer parameters
I0505 00:55:04.560120  1457 net.cpp:409] parameters -> data
I0505 00:55:04.560142  1457 net.cpp:409] parameters -> label
I0505 00:55:04.560151  1457 hdf5_data_layer.cpp:79] Loading list of HDF5 filenames from: /home/purduethu/scratch/radon/d/deng106/CNNStatisticalModel/distributions/input/50_distributions_900_sample_size_train-distributions-path.txt
I0505 00:55:04.560174  1457 hdf5_data_layer.cpp:93] Number of HDF5 files: 1
I0505 00:55:04.560657  1457 hdf5.cpp:32] Datatype class: H5T_FLOAT
I0505 00:55:06.010488  1457 hdf5.cpp:35] Datatype class: H5T_INTEGER
I0505 00:55:06.013319  1457 net.cpp:144] Setting up parameters
I0505 00:55:06.013340  1457 net.cpp:151] Top shape: 20 1 30 30 (18000)
I0505 00:55:06.013346  1457 net.cpp:151] Top shape: 20 (20)
I0505 00:55:06.013350  1457 net.cpp:159] Memory required for data: 72080
I0505 00:55:06.013357  1457 layer_factory.hpp:77] Creating layer conv1
I0505 00:55:06.013382  1457 net.cpp:94] Creating Layer conv1
I0505 00:55:06.013388  1457 net.cpp:435] conv1 <- data
I0505 00:55:06.013399  1457 net.cpp:409] conv1 -> conv1
I0505 00:55:06.019170  1457 net.cpp:144] Setting up conv1
I0505 00:55:06.019194  1457 net.cpp:151] Top shape: 20 64 30 30 (1152000)
I0505 00:55:06.019199  1457 net.cpp:159] Memory required for data: 4680080
I0505 00:55:06.019212  1457 layer_factory.hpp:77] Creating layer relu1
I0505 00:55:06.019220  1457 net.cpp:94] Creating Layer relu1
I0505 00:55:06.019225  1457 net.cpp:435] relu1 <- conv1
I0505 00:55:06.019230  1457 net.cpp:396] relu1 -> conv1 (in-place)
I0505 00:55:06.019249  1457 net.cpp:144] Setting up relu1
I0505 00:55:06.019255  1457 net.cpp:151] Top shape: 20 64 30 30 (1152000)
I0505 00:55:06.019258  1457 net.cpp:159] Memory required for data: 9288080
I0505 00:55:06.019263  1457 layer_factory.hpp:77] Creating layer pool1
I0505 00:55:06.019270  1457 net.cpp:94] Creating Layer pool1
I0505 00:55:06.019274  1457 net.cpp:435] pool1 <- conv1
I0505 00:55:06.019279  1457 net.cpp:409] pool1 -> pool1
I0505 00:55:06.019321  1457 net.cpp:144] Setting up pool1
I0505 00:55:06.019328  1457 net.cpp:151] Top shape: 20 64 15 15 (288000)
I0505 00:55:06.019332  1457 net.cpp:159] Memory required for data: 10440080
I0505 00:55:06.019335  1457 layer_factory.hpp:77] Creating layer conv2
I0505 00:55:06.019345  1457 net.cpp:94] Creating Layer conv2
I0505 00:55:06.019349  1457 net.cpp:435] conv2 <- pool1
I0505 00:55:06.019354  1457 net.cpp:409] conv2 -> conv2
I0505 00:55:06.032271  1457 net.cpp:144] Setting up conv2
I0505 00:55:06.032300  1457 net.cpp:151] Top shape: 20 128 15 15 (576000)
I0505 00:55:06.032305  1457 net.cpp:159] Memory required for data: 12744080
I0505 00:55:06.032315  1457 layer_factory.hpp:77] Creating layer relu2
I0505 00:55:06.032323  1457 net.cpp:94] Creating Layer relu2
I0505 00:55:06.032328  1457 net.cpp:435] relu2 <- conv2
I0505 00:55:06.032333  1457 net.cpp:396] relu2 -> conv2 (in-place)
I0505 00:55:06.032342  1457 net.cpp:144] Setting up relu2
I0505 00:55:06.032347  1457 net.cpp:151] Top shape: 20 128 15 15 (576000)
I0505 00:55:06.032351  1457 net.cpp:159] Memory required for data: 15048080
I0505 00:55:06.032354  1457 layer_factory.hpp:77] Creating layer conv3
I0505 00:55:06.032363  1457 net.cpp:94] Creating Layer conv3
I0505 00:55:06.032367  1457 net.cpp:435] conv3 <- conv2
I0505 00:55:06.032372  1457 net.cpp:409] conv3 -> conv3
I0505 00:55:06.053946  1457 net.cpp:144] Setting up conv3
I0505 00:55:06.053978  1457 net.cpp:151] Top shape: 20 128 15 15 (576000)
I0505 00:55:06.053983  1457 net.cpp:159] Memory required for data: 17352080
I0505 00:55:06.054003  1457 layer_factory.hpp:77] Creating layer relu3
I0505 00:55:06.054013  1457 net.cpp:94] Creating Layer relu3
I0505 00:55:06.054018  1457 net.cpp:435] relu3 <- conv3
I0505 00:55:06.054023  1457 net.cpp:396] relu3 -> conv3 (in-place)
I0505 00:55:06.054033  1457 net.cpp:144] Setting up relu3
I0505 00:55:06.054038  1457 net.cpp:151] Top shape: 20 128 15 15 (576000)
I0505 00:55:06.054040  1457 net.cpp:159] Memory required for data: 19656080
I0505 00:55:06.054044  1457 layer_factory.hpp:77] Creating layer pool3
I0505 00:55:06.054060  1457 net.cpp:94] Creating Layer pool3
I0505 00:55:06.054064  1457 net.cpp:435] pool3 <- conv3
I0505 00:55:06.054069  1457 net.cpp:409] pool3 -> pool3
I0505 00:55:06.054126  1457 net.cpp:144] Setting up pool3
I0505 00:55:06.054132  1457 net.cpp:151] Top shape: 20 128 7 7 (125440)
I0505 00:55:06.054136  1457 net.cpp:159] Memory required for data: 20157840
I0505 00:55:06.054139  1457 layer_factory.hpp:77] Creating layer ip1
I0505 00:55:06.054149  1457 net.cpp:94] Creating Layer ip1
I0505 00:55:06.054153  1457 net.cpp:435] ip1 <- pool3
I0505 00:55:06.054158  1457 net.cpp:409] ip1 -> ip1
I0505 00:55:06.133297  1457 net.cpp:144] Setting up ip1
I0505 00:55:06.133335  1457 net.cpp:151] Top shape: 20 512 (10240)
I0505 00:55:06.133340  1457 net.cpp:159] Memory required for data: 20198800
I0505 00:55:06.133349  1457 layer_factory.hpp:77] Creating layer ip2
I0505 00:55:06.133360  1457 net.cpp:94] Creating Layer ip2
I0505 00:55:06.133365  1457 net.cpp:435] ip2 <- ip1
I0505 00:55:06.133373  1457 net.cpp:409] ip2 -> ip2
I0505 00:55:06.136569  1457 net.cpp:144] Setting up ip2
I0505 00:55:06.136577  1457 net.cpp:151] Top shape: 20 256 (5120)
I0505 00:55:06.136581  1457 net.cpp:159] Memory required for data: 20219280
I0505 00:55:06.136589  1457 layer_factory.hpp:77] Creating layer ip3
I0505 00:55:06.136595  1457 net.cpp:94] Creating Layer ip3
I0505 00:55:06.136598  1457 net.cpp:435] ip3 <- ip2
I0505 00:55:06.136603  1457 net.cpp:409] ip3 -> ip3
I0505 00:55:06.137747  1457 net.cpp:144] Setting up ip3
I0505 00:55:06.137759  1457 net.cpp:151] Top shape: 20 50 (1000)
I0505 00:55:06.137763  1457 net.cpp:159] Memory required for data: 20223280
I0505 00:55:06.137769  1457 layer_factory.hpp:77] Creating layer loss
I0505 00:55:06.137775  1457 net.cpp:94] Creating Layer loss
I0505 00:55:06.137779  1457 net.cpp:435] loss <- ip3
I0505 00:55:06.137784  1457 net.cpp:435] loss <- label
I0505 00:55:06.137790  1457 net.cpp:409] loss -> loss
I0505 00:55:06.137802  1457 layer_factory.hpp:77] Creating layer loss
…
I0505 00:55:06.138244  1457 solver.cpp:181] Creating test net (#0) specified by net file: ./protocol/dis_50_900_dimension.protocol_distribution
I0505 00:55:06.138276  1457 net.cpp:323] The NetState phase (1) differed from the phase (0) specified by a rule in layer parameters
I0505 00:55:06.138360  1457 net.cpp:52] Initializing net from parameters: 
state {
  phase: TEST
}
layer {
  name: "intercept"
  type: "HDF5Data"
  top: "data"
  top: "label"
  include {
    phase: TEST
  }
  hdf5_data_param {
    source: "/home/purduethu/scratch/radon/d/deng106/CNNStatisticalModel/distributions/input/50_distributions_900_sample_size_test-distributions-path.txt"
    batch_size: 20
  }
}
layer {
  name: "conv1"
  type: "Convolution"
  bottom: "data"
  top: "conv1"
  param {
    lr_mult: 1
  }
  param {
    lr_mult: 2
  }
  convolution_param {
    num_output: 64
    pad: 2
    kernel_size: 5
    stride: 1
    weight_filler {
      type: "gaussian"
      std: 0.0001
    }
    bias_filler {
      type: "constant"
    }
  }
}
layer {
  name: "relu1"
  type: "ReLU"
  bottom: "conv1"
  top: "conv1"
}
layer {
  name: "pool1"
  type: "Pooling"
  bottom: "conv1"
  top: "pool1"
  pooling_param {
    pool: MAX
    kernel_size: 3
    stride: 2
  }
}
layer {
  name: "conv2"
  type: "Convolution"
  bottom: "pool1"
  top: "conv2"
  param {
    lr_mult: 1
  }
  param {
    lr_mult: 2
  }
  convolution_param {
    num_output: 128
    pad: 2
    kernel_size: 5
    stride: 1
    weight_filler {
      type: "gaussian"
      std: 0.01
    }
    bias_filler {
      type: "constant"
    }
  }
}
layer {
  name: "relu2"
  type: "ReLU"
  bottom: "conv2"
  top: "conv2"
}
layer {
  name: "conv3"
  type: "Convolution"
  bottom: "conv2"
  top: "conv3"
  param {
    lr_mult: 1
  }
  param {
    lr_mult: 2
  }
  convolution_param {
    num_output: 128
    pad: 2
    kernel_size: 5
    stride: 1
    weight_filler {
      type: "gaussian"
      std: 0.01
    }
    bias_filler {
      type: "constant"
    }
  }
}
layer {
  name: "relu3"
  type: "ReLU"
  bottom: "conv3"
  top: "conv3"
}
layer {
  name: "pool3"
  type: "Pooling"
  bottom: "conv3"
  top: "pool3"
  pooling_param {
    pool: AVE
    kernel_size: 3
    stride: 2
  }
}
layer {
  name: "ip1"
  type: "InnerProduct"
  bottom: "pool3"
  top: "ip1"
  param {
    lr_mult: 1
  }
  param {
    lr_mult: 2
  }
  inner_product_param {
    num_output: 512
    weight_filler {
      type: "gaussian"
      std: 0.1
    }
    bias_filler {
      type: "constant"
    }
  }
}
layer {
  name: "ip2"
  type: "InnerProduct"
  bottom: "ip1"
  top: "ip2"
  param {
    lr_mult: 1
  }
  param {
    lr_mult: 2
  }
  inner_product_param {
    num_output: 256
    weight_filler {
      type: "gaussian"
      std: 0.1
    }
    bias_filler {
      type: "constant"
    }
  }
}
layer {
  name: "ip3"
  type: "InnerProduct"
  bottom: "ip2"
  top: "ip3"
  param {
    lr_mult: 1
  }
  param {
    lr_mult: 2
  }
  inner_product_param {
    num_output: 50
    weight_filler {
      type: "gaussian"
      std: 0.1
    }
    bias_filler {
      type: "constant"
    }
  }
}
layer {
  name: "accuracy"
  type: "Accuracy"
  bottom: "ip3"
  bottom: "label"
  top: "accuracy"
  include {
    phase: TEST
  }
}
layer {
  name: "loss"
  type: "SoftmaxWithLoss"
  bottom: "ip3"
  bottom: "label"
  top: "loss"
}
I0505 00:55:06.138427  1457 layer_factory.hpp:77] Creating layer intercept
I0505 00:55:06.138434  1457 net.cpp:94] Creating Layer intercept
I0505 00:55:06.138438  1457 net.cpp:409] intercept -> data
I0505 00:55:06.138445  1457 net.cpp:409] intercept -> label
I0505 00:55:06.138453  1457 hdf5_data_layer.cpp:79] Loading list of HDF5 filenames from: /home/purduethu/scratch/radon/d/deng106/CNNStatisticalModel/distributions/input/50_distributions_900_sample_size_test-distributions-path.txt
I0505 00:55:06.138471  1457 hdf5_data_layer.cpp:93] Number of HDF5 files: 1
I0505 00:55:06.495723  1457 net.cpp:144] Setting up intercept
I0505 00:55:06.495759  1457 net.cpp:151] Top shape: 20 1 30 30 (18000)
I0505 00:55:06.495764  1457 net.cpp:151] Top shape: 20 (20)
I0505 00:55:06.495767  1457 net.cpp:159] Memory required for data: 72080
I0505 00:55:06.495774  1457 layer_factory.hpp:77] Creating layer label_intercept_1_split
I0505 00:55:06.495801  1457 net.cpp:94] Creating Layer label_intercept_1_split
I0505 00:55:06.495806  1457 net.cpp:435] label_intercept_1_split <- label
I0505 00:55:06.495812  1457 net.cpp:409] label_intercept_1_split -> label_intercept_1_split_0
I0505 00:55:06.495821  1457 net.cpp:409] label_intercept_1_split -> label_intercept_1_split_1
I0505 00:55:06.495847  1457 net.cpp:144] Setting up label_intercept_1_split
I0505 00:55:06.495853  1457 net.cpp:151] Top shape: 20 (20)
I0505 00:55:06.495857  1457 net.cpp:151] Top shape: 20 (20)
I0505 00:55:06.495869  1457 net.cpp:159] Memory required for data: 72240
I0505 00:55:06.495873  1457 layer_factory.hpp:77] Creating layer conv1
I0505 00:55:06.495884  1457 net.cpp:94] Creating Layer conv1
I0505 00:55:06.495888  1457 net.cpp:435] conv1 <- data
I0505 00:55:06.495893  1457 net.cpp:409] conv1 -> conv1
I0505 00:55:06.497212  1457 net.cpp:144] Setting up conv1
I0505 00:55:06.497227  1457 net.cpp:151] Top shape: 20 64 30 30 (1152000)
I0505 00:55:06.497231  1457 net.cpp:159] Memory required for data: 4680240
I0505 00:55:06.497241  1457 layer_factory.hpp:77] Creating layer relu1
I0505 00:55:06.497247  1457 net.cpp:94] Creating Layer relu1
I0505 00:55:06.497251  1457 net.cpp:435] relu1 <- conv1
I0505 00:55:06.497256  1457 net.cpp:396] relu1 -> conv1 (in-place)
I0505 00:55:06.497263  1457 net.cpp:144] Setting up relu1
I0505 00:55:06.497268  1457 net.cpp:151] Top shape: 20 64 30 30 (1152000)
I0505 00:55:06.497272  1457 net.cpp:159] Memory required for data: 9288240
I0505 00:55:06.497274  1457 layer_factory.hpp:77] Creating layer pool1
I0505 00:55:06.497282  1457 net.cpp:94] Creating Layer pool1
I0505 00:55:06.497284  1457 net.cpp:435] pool1 <- conv1
I0505 00:55:06.497289  1457 net.cpp:409] pool1 -> pool1
I0505 00:55:06.497323  1457 net.cpp:144] Setting up pool1
I0505 00:55:06.497328  1457 net.cpp:151] Top shape: 20 64 15 15 (288000)
I0505 00:55:06.497331  1457 net.cpp:159] Memory required for data: 10440240
I0505 00:55:06.497335  1457 layer_factory.hpp:77] Creating layer conv2
I0505 00:55:06.497344  1457 net.cpp:94] Creating Layer conv2
I0505 00:55:06.497347  1457 net.cpp:435] conv2 <- pool1
I0505 00:55:06.497352  1457 net.cpp:409] conv2 -> conv2
I0505 00:55:06.505527  1457 net.cpp:144] Setting up conv2
I0505 00:55:06.505550  1457 net.cpp:151] Top shape: 20 128 15 15 (576000)
I0505 00:55:06.505555  1457 net.cpp:159] Memory required for data: 12744240
I0505 00:55:06.505565  1457 layer_factory.hpp:77] Creating layer relu2
I0505 00:55:06.505573  1457 net.cpp:94] Creating Layer relu2
I0505 00:55:06.505578  1457 net.cpp:435] relu2 <- conv2
I0505 00:55:06.505583  1457 net.cpp:396] relu2 -> conv2 (in-place)
I0505 00:55:06.505590  1457 net.cpp:144] Setting up relu2
I0505 00:55:06.505595  1457 net.cpp:151] Top shape: 20 128 15 15 (576000)
I0505 00:55:06.505599  1457 net.cpp:159] Memory required for data: 15048240
I0505 00:55:06.505601  1457 layer_factory.hpp:77] Creating layer conv3
I0505 00:55:06.505609  1457 net.cpp:94] Creating Layer conv3
I0505 00:55:06.505614  1457 net.cpp:435] conv3 <- conv2
I0505 00:55:06.505619  1457 net.cpp:409] conv3 -> conv3
I0505 00:55:06.521062  1457 net.cpp:144] Setting up conv3
I0505 00:55:06.521095  1457 net.cpp:151] Top shape: 20 128 15 15 (576000)
I0505 00:55:06.521098  1457 net.cpp:159] Memory required for data: 17352240
I0505 00:55:06.521111  1457 layer_factory.hpp:77] Creating layer relu3
I0505 00:55:06.521121  1457 net.cpp:94] Creating Layer relu3
I0505 00:55:06.521126  1457 net.cpp:435] relu3 <- conv3
I0505 00:55:06.521131  1457 net.cpp:396] relu3 -> conv3 (in-place)
I0505 00:55:06.521140  1457 net.cpp:144] Setting up relu3
I0505 00:55:06.521145  1457 net.cpp:151] Top shape: 20 128 15 15 (576000)
I0505 00:55:06.521148  1457 net.cpp:159] Memory required for data: 19656240
I0505 00:55:06.521152  1457 layer_factory.hpp:77] Creating layer pool3
I0505 00:55:06.521157  1457 net.cpp:94] Creating Layer pool3
I0505 00:55:06.521162  1457 net.cpp:435] pool3 <- conv3
I0505 00:55:06.521165  1457 net.cpp:409] pool3 -> pool3
I0505 00:55:06.521198  1457 net.cpp:144] Setting up pool3
I0505 00:55:06.521212  1457 net.cpp:151] Top shape: 20 128 7 7 (125440)
I0505 00:55:06.521216  1457 net.cpp:159] Memory required for data: 20158000
I0505 00:55:06.521219  1457 layer_factory.hpp:77] Creating layer ip1
I0505 00:55:06.521226  1457 net.cpp:94] Creating Layer ip1
I0505 00:55:06.521230  1457 net.cpp:435] ip1 <- pool3
I0505 00:55:06.521235  1457 net.cpp:409] ip1 -> ip1
I0505 00:55:06.600332  1457 net.cpp:144] Setting up ip1
I0505 00:55:06.600370  1457 net.cpp:151] Top shape: 20 512 (10240)
I0505 00:55:06.600374  1457 net.cpp:159] Memory required for data: 20198960
I0505 00:55:06.600399  1457 layer_factory.hpp:77] Creating layer ip2
I0505 00:55:06.600409  1457 net.cpp:94] Creating Layer ip2
I0505 00:55:06.600414  1457 net.cpp:435] ip2 <- ip1
I0505 00:55:06.600420  1457 net.cpp:409] ip2 -> ip2
I0505 00:55:06.603618  1457 net.cpp:144] Setting up ip2
I0505 00:55:06.603627  1457 net.cpp:151] Top shape: 20 256 (5120)
I0505 00:55:06.603631  1457 net.cpp:159] Memory required for data: 20219440
I0505 00:55:06.603641  1457 layer_factory.hpp:77] Creating layer ip3
I0505 00:55:06.603646  1457 net.cpp:94] Creating Layer ip3
I0505 00:55:06.603651  1457 net.cpp:435] ip3 <- ip2
I0505 00:55:06.603655  1457 net.cpp:409] ip3 -> ip3
I0505 00:55:06.604037  1457 net.cpp:144] Setting up ip3
I0505 00:55:06.604043  1457 net.cpp:151] Top shape: 20 50 (1000)
I0505 00:55:06.604046  1457 net.cpp:159] Memory required for data: 20223440
I0505 00:55:06.604051  1457 layer_factory.hpp:77] Creating layer ip3_ip3_0_split
I0505 00:55:06.604058  1457 net.cpp:94] Creating Layer ip3_ip3_0_split
I0505 00:55:06.604061  1457 net.cpp:435] ip3_ip3_0_split <- ip3
I0505 00:55:06.604065  1457 net.cpp:409] ip3_ip3_0_split -> ip3_ip3_0_split_0
I0505 00:55:06.604071  1457 net.cpp:409] ip3_ip3_0_split -> ip3_ip3_0_split_1
I0505 00:55:06.604096  1457 net.cpp:144] Setting up ip3_ip3_0_split
I0505 00:55:06.604101  1457 net.cpp:151] Top shape: 20 50 (1000)
I0505 00:55:06.604105  1457 net.cpp:151] Top shape: 20 50 (1000)
I0505 00:55:06.604109  1457 net.cpp:159] Memory required for data: 20231440
I0505 00:55:06.604111  1457 layer_factory.hpp:77] Creating layer accuracy
I0505 00:55:06.604117  1457 net.cpp:94] Creating Layer accuracy
I0505 00:55:06.604121  1457 net.cpp:435] accuracy <- ip3_ip3_0_split_0
I0505 00:55:06.604125  1457 net.cpp:435] accuracy <- label_intercept_1_split_0
I0505 00:55:06.604130  1457 net.cpp:409] accuracy -> accuracy
…
