…
I0507 10:15:48.574630 32468 net.cpp:323] The NetState phase (0) differed from the phase (1) specified by a rule in layer intercept
I0507 10:15:48.574647 32468 net.cpp:323] The NetState phase (0) differed from the phase (1) specified by a rule in layer loss
I0507 10:15:48.574741 32468 net.cpp:52] Initializing net from parameters: 
state {
  phase: TRAIN
}
layer {
  name: "parameters"
  type: "HDF5Data"
  top: "data"
  top: "label"
  include {
    phase: TRAIN
  }
  hdf5_data_param {
    source: "/home/purduethu/scratch/radon/d/deng106/CNNStatisticalModel/distributions/input/50_distributions_900_sample_size_train-parameters-path.txt"
    batch_size: 20
  }
}
layer {
  name: "conv1"
  type: "Convolution"
  bottom: "data"
  top: "conv1"
  param {
    lr_mult: 1
  }
  param {
    lr_mult: 2
  }
  convolution_param {
    num_output: 64
    pad: 2
    kernel_size: 5
    stride: 1
    weight_filler {
      type: "gaussian"
      std: 0.0001
    }
    bias_filler {
      type: "constant"
    }
  }
}
layer {
  name: "relu1"
  type: "ReLU"
  bottom: "conv1"
  top: "conv1"
}
layer {
  name: "conv2"
  type: "Convolution"
  bottom: "conv1"
  top: "conv2"
  param {
    lr_mult: 1
  }
  param {
    lr_mult: 2
  }
  convolution_param {
    num_output: 64
    pad: 2
    kernel_size: 5
    stride: 1
    weight_filler {
      type: "gaussian"
      std: 0.01
    }
    bias_filler {
      type: "constant"
    }
  }
}
layer {
  name: "relu2"
  type: "ReLU"
  bottom: "conv2"
  top: "conv2"
}
layer {
  name: "pool2"
  type: "Pooling"
  bottom: "conv2"
  top: "pool2"
  pooling_param {
    pool: MAX
    kernel_size: 3
    stride: 2
  }
}
layer {
  name: "conv3"
  type: "Convolution"
  bottom: "pool2"
  top: "conv3"
  param {
    lr_mult: 1
  }
  param {
    lr_mult: 2
  }
  convolution_param {
    num_output: 64
    pad: 2
    kernel_size: 5
    stride: 1
    weight_filler {
      type: "gaussian"
      std: 0.01
    }
    bias_filler {
      type: "constant"
    }
  }
}
layer {
  name: "relu3"
  type: "ReLU"
  bottom: "conv3"
  top: "conv3"
}
layer {
  name: "conv4"
  type: "Convolution"
  bottom: "conv3"
  top: "conv4"
  param {
    lr_mult: 1
  }
  param {
    lr_mult: 2
  }
  convolution_param {
    num_output: 64
    pad: 2
    kernel_size: 5
    stride: 1
    weight_filler {
      type: "gaussian"
      std: 0.01
    }
    bias_filler {
      type: "constant"
    }
  }
}
layer {
  name: "relu4"
  type: "ReLU"
  bottom: "conv4"
  top: "conv4"
}
layer {
  name: "conv5"
  type: "Convolution"
  bottom: "conv4"
  top: "conv5"
  param {
    lr_mult: 1
  }
  param {
    lr_mult: 2
  }
  convolution_param {
    num_output: 64
    pad: 2
    kernel_size: 5
    stride: 1
    weight_filler {
      type: "gaussian"
      std: 0.01
    }
    bias_filler {
      type: "constant"
    }
  }
}
layer {
  name: "relu5"
  type: "ReLU"
  bottom: "conv5"
  top: "conv5"
}
layer {
  name: "pool5"
  type: "Pooling"
  bottom: "conv5"
  top: "pool5"
  pooling_param {
    pool: AVE
    kernel_size: 3
    stride: 2
  }
}
layer {
  name: "ip1"
  type: "InnerProduct"
  bottom: "pool5"
  top: "ip1"
  param {
    lr_mult: 1
  }
  param {
    lr_mult: 2
  }
  inner_product_param {
    num_output: 64
    weight_filler {
      type: "gaussian"
      std: 0.1
    }
    bias_filler {
      type: "constant"
    }
  }
}
layer {
  name: "ip2"
  type: "InnerProduct"
  bottom: "ip1"
  top: "ip2"
  param {
    lr_mult: 1
  }
  param {
    lr_mult: 2
  }
  inner_product_param {
    num_output: 64
    weight_filler {
      type: "gaussian"
      std: 0.1
    }
    bias_filler {
      type: "constant"
    }
  }
}
layer {
  name: "ip3"
  type: "InnerProduct"
  bottom: "ip2"
  top: "ip3"
  param {
    lr_mult: 1
  }
  param {
    lr_mult: 2
  }
  inner_product_param {
    num_output: 1
    weight_filler {
      type: "gaussian"
      std: 0.1
    }
    bias_filler {
      type: "constant"
    }
  }
}
layer {
  name: "loss"
  type: "HuberLoss"
  bottom: "ip3"
  bottom: "label"
  top: "loss"
  include {
    phase: TRAIN
  }
}
I0507 10:15:48.574796 32468 layer_factory.hpp:77] Creating layer parameters
I0507 10:15:48.574815 32468 net.cpp:94] Creating Layer parameters
I0507 10:15:48.574820 32468 net.cpp:409] parameters -> data
I0507 10:15:48.574829 32468 net.cpp:409] parameters -> label
I0507 10:15:48.574836 32468 hdf5_data_layer.cpp:79] Loading list of HDF5 filenames from: /home/purduethu/scratch/radon/d/deng106/CNNStatisticalModel/distributions/input/50_distributions_900_sample_size_train-parameters-path.txt
I0507 10:15:48.574851 32468 hdf5_data_layer.cpp:93] Number of HDF5 files: 1
I0507 10:15:48.575395 32468 hdf5.cpp:32] Datatype class: H5T_FLOAT
I0507 10:15:50.036628 32468 net.cpp:144] Setting up parameters
I0507 10:15:50.036659 32468 net.cpp:151] Top shape: 20 1 30 30 (18000)
I0507 10:15:50.036664 32468 net.cpp:151] Top shape: 20 (20)
I0507 10:15:50.036669 32468 net.cpp:159] Memory required for data: 72080
I0507 10:15:50.036674 32468 layer_factory.hpp:77] Creating layer conv1
I0507 10:15:50.036690 32468 net.cpp:94] Creating Layer conv1
I0507 10:15:50.036695 32468 net.cpp:435] conv1 <- data
I0507 10:15:50.036702 32468 net.cpp:409] conv1 -> conv1
I0507 10:15:50.043305 32468 net.cpp:144] Setting up conv1
I0507 10:15:50.043325 32468 net.cpp:151] Top shape: 20 64 30 30 (1152000)
I0507 10:15:50.043329 32468 net.cpp:159] Memory required for data: 4680080
I0507 10:15:50.043340 32468 layer_factory.hpp:77] Creating layer relu1
I0507 10:15:50.043349 32468 net.cpp:94] Creating Layer relu1
I0507 10:15:50.043354 32468 net.cpp:435] relu1 <- conv1
I0507 10:15:50.043357 32468 net.cpp:396] relu1 -> conv1 (in-place)
I0507 10:15:50.043365 32468 net.cpp:144] Setting up relu1
I0507 10:15:50.043370 32468 net.cpp:151] Top shape: 20 64 30 30 (1152000)
I0507 10:15:50.043373 32468 net.cpp:159] Memory required for data: 9288080
I0507 10:15:50.043376 32468 layer_factory.hpp:77] Creating layer conv2
I0507 10:15:50.043385 32468 net.cpp:94] Creating Layer conv2
I0507 10:15:50.043388 32468 net.cpp:435] conv2 <- conv1
I0507 10:15:50.043392 32468 net.cpp:409] conv2 -> conv2
I0507 10:15:50.060017 32468 net.cpp:144] Setting up conv2
I0507 10:15:50.060044 32468 net.cpp:151] Top shape: 20 64 30 30 (1152000)
I0507 10:15:50.060051 32468 net.cpp:159] Memory required for data: 13896080
I0507 10:15:50.060066 32468 layer_factory.hpp:77] Creating layer relu2
I0507 10:15:50.060078 32468 net.cpp:94] Creating Layer relu2
I0507 10:15:50.060086 32468 net.cpp:435] relu2 <- conv2
I0507 10:15:50.060094 32468 net.cpp:396] relu2 -> conv2 (in-place)
I0507 10:15:50.060107 32468 net.cpp:144] Setting up relu2
I0507 10:15:50.060115 32468 net.cpp:151] Top shape: 20 64 30 30 (1152000)
I0507 10:15:50.060122 32468 net.cpp:159] Memory required for data: 18504080
I0507 10:15:50.060127 32468 layer_factory.hpp:77] Creating layer pool2
I0507 10:15:50.060147 32468 net.cpp:94] Creating Layer pool2
I0507 10:15:50.060153 32468 net.cpp:435] pool2 <- conv2
I0507 10:15:50.060161 32468 net.cpp:409] pool2 -> pool2
I0507 10:15:50.060258 32468 net.cpp:144] Setting up pool2
I0507 10:15:50.060272 32468 net.cpp:151] Top shape: 20 64 15 15 (288000)
I0507 10:15:50.060278 32468 net.cpp:159] Memory required for data: 19656080
I0507 10:15:50.060286 32468 layer_factory.hpp:77] Creating layer conv3
I0507 10:15:50.060307 32468 net.cpp:94] Creating Layer conv3
I0507 10:15:50.060310 32468 net.cpp:435] conv3 <- pool2
I0507 10:15:50.060315 32468 net.cpp:409] conv3 -> conv3
I0507 10:15:50.069355 32468 net.cpp:144] Setting up conv3
I0507 10:15:50.069381 32468 net.cpp:151] Top shape: 20 64 15 15 (288000)
I0507 10:15:50.069389 32468 net.cpp:159] Memory required for data: 20808080
I0507 10:15:50.069406 32468 layer_factory.hpp:77] Creating layer relu3
I0507 10:15:50.069416 32468 net.cpp:94] Creating Layer relu3
I0507 10:15:50.069423 32468 net.cpp:435] relu3 <- conv3
I0507 10:15:50.069432 32468 net.cpp:396] relu3 -> conv3 (in-place)
I0507 10:15:50.069453 32468 net.cpp:144] Setting up relu3
I0507 10:15:50.069456 32468 net.cpp:151] Top shape: 20 64 15 15 (288000)
I0507 10:15:50.069460 32468 net.cpp:159] Memory required for data: 21960080
I0507 10:15:50.069463 32468 layer_factory.hpp:77] Creating layer conv4
I0507 10:15:50.069473 32468 net.cpp:94] Creating Layer conv4
I0507 10:15:50.069475 32468 net.cpp:435] conv4 <- conv3
I0507 10:15:50.069480 32468 net.cpp:409] conv4 -> conv4
I0507 10:15:50.077469 32468 net.cpp:144] Setting up conv4
I0507 10:15:50.077486 32468 net.cpp:151] Top shape: 20 64 15 15 (288000)
I0507 10:15:50.077489 32468 net.cpp:159] Memory required for data: 23112080
I0507 10:15:50.077497 32468 layer_factory.hpp:77] Creating layer relu4
I0507 10:15:50.077502 32468 net.cpp:94] Creating Layer relu4
I0507 10:15:50.077507 32468 net.cpp:435] relu4 <- conv4
I0507 10:15:50.077512 32468 net.cpp:396] relu4 -> conv4 (in-place)
I0507 10:15:50.077519 32468 net.cpp:144] Setting up relu4
I0507 10:15:50.077523 32468 net.cpp:151] Top shape: 20 64 15 15 (288000)
I0507 10:15:50.077527 32468 net.cpp:159] Memory required for data: 24264080
I0507 10:15:50.077529 32468 layer_factory.hpp:77] Creating layer conv5
I0507 10:15:50.077538 32468 net.cpp:94] Creating Layer conv5
I0507 10:15:50.077541 32468 net.cpp:435] conv5 <- conv4
I0507 10:15:50.077546 32468 net.cpp:409] conv5 -> conv5
I0507 10:15:50.085640 32468 net.cpp:144] Setting up conv5
I0507 10:15:50.085667 32468 net.cpp:151] Top shape: 20 64 15 15 (288000)
I0507 10:15:50.085675 32468 net.cpp:159] Memory required for data: 25416080
I0507 10:15:50.085692 32468 layer_factory.hpp:77] Creating layer relu5
I0507 10:15:50.085703 32468 net.cpp:94] Creating Layer relu5
I0507 10:15:50.085711 32468 net.cpp:435] relu5 <- conv5
I0507 10:15:50.085719 32468 net.cpp:396] relu5 -> conv5 (in-place)
I0507 10:15:50.085732 32468 net.cpp:144] Setting up relu5
I0507 10:15:50.085741 32468 net.cpp:151] Top shape: 20 64 15 15 (288000)
I0507 10:15:50.085747 32468 net.cpp:159] Memory required for data: 26568080
I0507 10:15:50.085752 32468 layer_factory.hpp:77] Creating layer pool5
I0507 10:15:50.085762 32468 net.cpp:94] Creating Layer pool5
I0507 10:15:50.085767 32468 net.cpp:435] pool5 <- conv5
I0507 10:15:50.085775 32468 net.cpp:409] pool5 -> pool5
I0507 10:15:50.085829 32468 net.cpp:144] Setting up pool5
I0507 10:15:50.085836 32468 net.cpp:151] Top shape: 20 64 7 7 (62720)
I0507 10:15:50.085839 32468 net.cpp:159] Memory required for data: 26818960
I0507 10:15:50.085844 32468 layer_factory.hpp:77] Creating layer ip1
I0507 10:15:50.085852 32468 net.cpp:94] Creating Layer ip1
I0507 10:15:50.085856 32468 net.cpp:435] ip1 <- pool5
I0507 10:15:50.085861 32468 net.cpp:409] ip1 -> ip1
I0507 10:15:50.091837 32468 net.cpp:144] Setting up ip1
I0507 10:15:50.091852 32468 net.cpp:151] Top shape: 20 64 (1280)
I0507 10:15:50.091856 32468 net.cpp:159] Memory required for data: 26824080
I0507 10:15:50.091862 32468 layer_factory.hpp:77] Creating layer ip2
I0507 10:15:50.091871 32468 net.cpp:94] Creating Layer ip2
I0507 10:15:50.091878 32468 net.cpp:435] ip2 <- ip1
I0507 10:15:50.091884 32468 net.cpp:409] ip2 -> ip2
I0507 10:15:50.092108 32468 net.cpp:144] Setting up ip2
I0507 10:15:50.092115 32468 net.cpp:151] Top shape: 20 64 (1280)
I0507 10:15:50.092119 32468 net.cpp:159] Memory required for data: 26829200
I0507 10:15:50.092124 32468 layer_factory.hpp:77] Creating layer ip3
I0507 10:15:50.092131 32468 net.cpp:94] Creating Layer ip3
I0507 10:15:50.092134 32468 net.cpp:435] ip3 <- ip2
I0507 10:15:50.092139 32468 net.cpp:409] ip3 -> ip3
I0507 10:15:50.092247 32468 net.cpp:144] Setting up ip3
I0507 10:15:50.092253 32468 net.cpp:151] Top shape: 20 1 (20)
I0507 10:15:50.092257 32468 net.cpp:159] Memory required for data: 26829280
I0507 10:15:50.092262 32468 layer_factory.hpp:77] Creating layer loss
I0507 10:15:50.092274 32468 net.cpp:94] Creating Layer loss
I0507 10:15:50.092278 32468 net.cpp:435] loss <- ip3
I0507 10:15:50.092283 32468 net.cpp:435] loss <- label
I0507 10:15:50.092286 32468 net.cpp:409] loss -> loss
I0507 10:15:50.092339 32468 net.cpp:144] Setting up loss
…
I0507 10:15:50.490654 32468 net.cpp:323] The NetState phase (0) differed from the phase (1) specified by a rule in layer intercept
I0507 10:15:50.490669 32468 net.cpp:323] The NetState phase (0) differed from the phase (1) specified by a rule in layer accuracy
I0507 10:15:50.490761 32468 net.cpp:52] Initializing net from parameters: 
state {
  phase: TRAIN
}
layer {
  name: "parameters"
  type: "HDF5Data"
  top: "data"
  top: "label"
  include {
    phase: TRAIN
  }
  hdf5_data_param {
    source: "/home/purduethu/scratch/radon/d/deng106/CNNStatisticalModel/distributions/input/50_distributions_900_sample_size_train-distributions-path.txt"
    batch_size: 20
  }
}
layer {
  name: "conv1"
  type: "Convolution"
  bottom: "data"
  top: "conv1"
  param {
    lr_mult: 1
  }
  param {
    lr_mult: 2
  }
  convolution_param {
    num_output: 64
    pad: 2
    kernel_size: 5
    stride: 1
    weight_filler {
      type: "gaussian"
      std: 0.0001
    }
    bias_filler {
      type: "constant"
    }
  }
}
layer {
  name: "relu1"
  type: "ReLU"
  bottom: "conv1"
  top: "conv1"
}
layer {
  name: "conv2"
  type: "Convolution"
  bottom: "conv1"
  top: "conv2"
  param {
    lr_mult: 1
  }
  param {
    lr_mult: 2
  }
  convolution_param {
    num_output: 64
    pad: 2
    kernel_size: 5
    stride: 1
    weight_filler {
      type: "gaussian"
      std: 0.01
    }
    bias_filler {
      type: "constant"
    }
  }
}
layer {
  name: "relu2"
  type: "ReLU"
  bottom: "conv2"
  top: "conv2"
}
layer {
  name: "pool2"
  type: "Pooling"
  bottom: "conv2"
  top: "pool2"
  pooling_param {
    pool: MAX
    kernel_size: 3
    stride: 2
  }
}
layer {
  name: "conv3"
  type: "Convolution"
  bottom: "pool2"
  top: "conv3"
  param {
    lr_mult: 1
  }
  param {
    lr_mult: 2
  }
  convolution_param {
    num_output: 64
    pad: 2
    kernel_size: 5
    stride: 1
    weight_filler {
      type: "gaussian"
      std: 0.01
    }
    bias_filler {
      type: "constant"
    }
  }
}
layer {
  name: "relu3"
  type: "ReLU"
  bottom: "conv3"
  top: "conv3"
}
layer {
  name: "conv4"
  type: "Convolution"
  bottom: "conv3"
  top: "conv4"
  param {
    lr_mult: 1
  }
  param {
    lr_mult: 2
  }
  convolution_param {
    num_output: 64
    pad: 2
    kernel_size: 5
    stride: 1
    weight_filler {
      type: "gaussian"
      std: 0.01
    }
    bias_filler {
      type: "constant"
    }
  }
}
layer {
  name: "relu4"
  type: "ReLU"
  bottom: "conv4"
  top: "conv4"
}
layer {
  name: "conv5"
  type: "Convolution"
  bottom: "conv4"
  top: "conv5"
  param {
    lr_mult: 1
  }
  param {
    lr_mult: 2
  }
  convolution_param {
    num_output: 64
    pad: 2
    kernel_size: 5
    stride: 1
    weight_filler {
      type: "gaussian"
      std: 0.01
    }
    bias_filler {
      type: "constant"
    }
  }
}
layer {
  name: "relu5"
  type: "ReLU"
  bottom: "conv5"
  top: "conv5"
}
layer {
  name: "pool5"
  type: "Pooling"
  bottom: "conv5"
  top: "pool5"
  pooling_param {
    pool: AVE
    kernel_size: 3
    stride: 2
  }
}
layer {
  name: "ip1"
  type: "InnerProduct"
  bottom: "pool5"
  top: "ip1"
  param {
    lr_mult: 1
  }
  param {
    lr_mult: 2
  }
  inner_product_param {
    num_output: 64
    weight_filler {
      type: "gaussian"
      std: 0.1
    }
    bias_filler {
      type: "constant"
    }
  }
}
layer {
  name: "ip2"
  type: "InnerProduct"
  bottom: "ip1"
  top: "ip2"
  param {
    lr_mult: 1
  }
  param {
    lr_mult: 2
  }
  inner_product_param {
    num_output: 64
    weight_filler {
      type: "gaussian"
      std: 0.1
    }
    bias_filler {
      type: "constant"
    }
  }
}
layer {
  name: "ip3"
  type: "InnerProduct"
  bottom: "ip2"
  top: "ip3"
  param {
    lr_mult: 1
  }
  param {
    lr_mult: 2
  }
  inner_product_param {
    num_output: 50
    weight_filler {
      type: "gaussian"
      std: 0.1
    }
    bias_filler {
      type: "constant"
    }
  }
}
layer {
  name: "loss"
  type: "SoftmaxWithLoss"
  bottom: "ip3"
  bottom: "label"
  top: "loss"
}
I0507 10:15:50.490814 32468 layer_factory.hpp:77] Creating layer parameters
I0507 10:15:50.490824 32468 net.cpp:94] Creating Layer parameters
I0507 10:15:50.490828 32468 net.cpp:409] parameters -> data
I0507 10:15:50.490835 32468 net.cpp:409] parameters -> label
I0507 10:15:50.490841 32468 hdf5_data_layer.cpp:79] Loading list of HDF5 filenames from: /home/purduethu/scratch/radon/d/deng106/CNNStatisticalModel/distributions/input/50_distributions_900_sample_size_train-distributions-path.txt
I0507 10:15:50.490857 32468 hdf5_data_layer.cpp:93] Number of HDF5 files: 1
I0507 10:15:52.069280 32468 hdf5.cpp:35] Datatype class: H5T_INTEGER
I0507 10:15:52.072394 32468 net.cpp:144] Setting up parameters
I0507 10:15:52.072417 32468 net.cpp:151] Top shape: 20 1 30 30 (18000)
I0507 10:15:52.072423 32468 net.cpp:151] Top shape: 20 (20)
I0507 10:15:52.072427 32468 net.cpp:159] Memory required for data: 72080
I0507 10:15:52.072433 32468 layer_factory.hpp:77] Creating layer conv1
I0507 10:15:52.072449 32468 net.cpp:94] Creating Layer conv1
I0507 10:15:52.072454 32468 net.cpp:435] conv1 <- data
I0507 10:15:52.072460 32468 net.cpp:409] conv1 -> conv1
I0507 10:15:52.076056 32468 net.cpp:144] Setting up conv1
I0507 10:15:52.076071 32468 net.cpp:151] Top shape: 20 64 30 30 (1152000)
I0507 10:15:52.076074 32468 net.cpp:159] Memory required for data: 4680080
I0507 10:15:52.076084 32468 layer_factory.hpp:77] Creating layer relu1
I0507 10:15:52.076092 32468 net.cpp:94] Creating Layer relu1
I0507 10:15:52.076097 32468 net.cpp:435] relu1 <- conv1
I0507 10:15:52.076100 32468 net.cpp:396] relu1 -> conv1 (in-place)
I0507 10:15:52.076108 32468 net.cpp:144] Setting up relu1
I0507 10:15:52.076112 32468 net.cpp:151] Top shape: 20 64 30 30 (1152000)
I0507 10:15:52.076115 32468 net.cpp:159] Memory required for data: 9288080
I0507 10:15:52.076118 32468 layer_factory.hpp:77] Creating layer conv2
I0507 10:15:52.076125 32468 net.cpp:94] Creating Layer conv2
I0507 10:15:52.076129 32468 net.cpp:435] conv2 <- conv1
I0507 10:15:52.076134 32468 net.cpp:409] conv2 -> conv2
I0507 10:15:52.092077 32468 net.cpp:144] Setting up conv2
I0507 10:15:52.092092 32468 net.cpp:151] Top shape: 20 64 30 30 (1152000)
I0507 10:15:52.092095 32468 net.cpp:159] Memory required for data: 13896080
I0507 10:15:52.092104 32468 layer_factory.hpp:77] Creating layer relu2
I0507 10:15:52.092110 32468 net.cpp:94] Creating Layer relu2
I0507 10:15:52.092114 32468 net.cpp:435] relu2 <- conv2
I0507 10:15:52.092119 32468 net.cpp:396] relu2 -> conv2 (in-place)
I0507 10:15:52.092126 32468 net.cpp:144] Setting up relu2
I0507 10:15:52.092131 32468 net.cpp:151] Top shape: 20 64 30 30 (1152000)
I0507 10:15:52.092134 32468 net.cpp:159] Memory required for data: 18504080
I0507 10:15:52.092137 32468 layer_factory.hpp:77] Creating layer pool2
I0507 10:15:52.092144 32468 net.cpp:94] Creating Layer pool2
I0507 10:15:52.092146 32468 net.cpp:435] pool2 <- conv2
I0507 10:15:52.092150 32468 net.cpp:409] pool2 -> pool2
I0507 10:15:52.092203 32468 net.cpp:144] Setting up pool2
I0507 10:15:52.092211 32468 net.cpp:151] Top shape: 20 64 15 15 (288000)
I0507 10:15:52.092214 32468 net.cpp:159] Memory required for data: 19656080
I0507 10:15:52.092217 32468 layer_factory.hpp:77] Creating layer conv3
I0507 10:15:52.092226 32468 net.cpp:94] Creating Layer conv3
I0507 10:15:52.092228 32468 net.cpp:435] conv3 <- pool2
I0507 10:15:52.092241 32468 net.cpp:409] conv3 -> conv3
I0507 10:15:52.101056 32468 net.cpp:144] Setting up conv3
I0507 10:15:52.101071 32468 net.cpp:151] Top shape: 20 64 15 15 (288000)
I0507 10:15:52.101075 32468 net.cpp:159] Memory required for data: 20808080
I0507 10:15:52.101084 32468 layer_factory.hpp:77] Creating layer relu3
I0507 10:15:52.101090 32468 net.cpp:94] Creating Layer relu3
I0507 10:15:52.101094 32468 net.cpp:435] relu3 <- conv3
I0507 10:15:52.101099 32468 net.cpp:396] relu3 -> conv3 (in-place)
I0507 10:15:52.101106 32468 net.cpp:144] Setting up relu3
I0507 10:15:52.101111 32468 net.cpp:151] Top shape: 20 64 15 15 (288000)
I0507 10:15:52.101114 32468 net.cpp:159] Memory required for data: 21960080
I0507 10:15:52.101117 32468 layer_factory.hpp:77] Creating layer conv4
I0507 10:15:52.101125 32468 net.cpp:94] Creating Layer conv4
I0507 10:15:52.101130 32468 net.cpp:435] conv4 <- conv3
I0507 10:15:52.101133 32468 net.cpp:409] conv4 -> conv4
I0507 10:15:52.109907 32468 net.cpp:144] Setting up conv4
I0507 10:15:52.109923 32468 net.cpp:151] Top shape: 20 64 15 15 (288000)
I0507 10:15:52.109928 32468 net.cpp:159] Memory required for data: 23112080
I0507 10:15:52.109935 32468 layer_factory.hpp:77] Creating layer relu4
I0507 10:15:52.109941 32468 net.cpp:94] Creating Layer relu4
I0507 10:15:52.109946 32468 net.cpp:435] relu4 <- conv4
I0507 10:15:52.109949 32468 net.cpp:396] relu4 -> conv4 (in-place)
I0507 10:15:52.109957 32468 net.cpp:144] Setting up relu4
I0507 10:15:52.109961 32468 net.cpp:151] Top shape: 20 64 15 15 (288000)
I0507 10:15:52.109964 32468 net.cpp:159] Memory required for data: 24264080
I0507 10:15:52.109968 32468 layer_factory.hpp:77] Creating layer conv5
I0507 10:15:52.109975 32468 net.cpp:94] Creating Layer conv5
I0507 10:15:52.109978 32468 net.cpp:435] conv5 <- conv4
I0507 10:15:52.109983 32468 net.cpp:409] conv5 -> conv5
I0507 10:15:52.117770 32468 net.cpp:144] Setting up conv5
I0507 10:15:52.117785 32468 net.cpp:151] Top shape: 20 64 15 15 (288000)
I0507 10:15:52.117789 32468 net.cpp:159] Memory required for data: 25416080
I0507 10:15:52.117799 32468 layer_factory.hpp:77] Creating layer relu5
I0507 10:15:52.117805 32468 net.cpp:94] Creating Layer relu5
I0507 10:15:52.117808 32468 net.cpp:435] relu5 <- conv5
I0507 10:15:52.117812 32468 net.cpp:396] relu5 -> conv5 (in-place)
I0507 10:15:52.117820 32468 net.cpp:144] Setting up relu5
I0507 10:15:52.117825 32468 net.cpp:151] Top shape: 20 64 15 15 (288000)
I0507 10:15:52.117827 32468 net.cpp:159] Memory required for data: 26568080
I0507 10:15:52.117830 32468 layer_factory.hpp:77] Creating layer pool5
I0507 10:15:52.117836 32468 net.cpp:94] Creating Layer pool5
I0507 10:15:52.117839 32468 net.cpp:435] pool5 <- conv5
I0507 10:15:52.117843 32468 net.cpp:409] pool5 -> pool5
I0507 10:15:52.117882 32468 net.cpp:144] Setting up pool5
I0507 10:15:52.117889 32468 net.cpp:151] Top shape: 20 64 7 7 (62720)
I0507 10:15:52.117892 32468 net.cpp:159] Memory required for data: 26818960
I0507 10:15:52.117895 32468 layer_factory.hpp:77] Creating layer ip1
I0507 10:15:52.117902 32468 net.cpp:94] Creating Layer ip1
I0507 10:15:52.117905 32468 net.cpp:435] ip1 <- pool5
I0507 10:15:52.117910 32468 net.cpp:409] ip1 -> ip1
I0507 10:15:52.122915 32468 net.cpp:144] Setting up ip1
I0507 10:15:52.122923 32468 net.cpp:151] Top shape: 20 64 (1280)
I0507 10:15:52.122927 32468 net.cpp:159] Memory required for data: 26824080
I0507 10:15:52.122932 32468 layer_factory.hpp:77] Creating layer ip2
I0507 10:15:52.122938 32468 net.cpp:94] Creating Layer ip2
I0507 10:15:52.122942 32468 net.cpp:435] ip2 <- ip1
I0507 10:15:52.122947 32468 net.cpp:409] ip2 -> ip2
I0507 10:15:52.123172 32468 net.cpp:144] Setting up ip2
I0507 10:15:52.123180 32468 net.cpp:151] Top shape: 20 64 (1280)
I0507 10:15:52.123183 32468 net.cpp:159] Memory required for data: 26829200
I0507 10:15:52.123188 32468 layer_factory.hpp:77] Creating layer ip3
I0507 10:15:52.123194 32468 net.cpp:94] Creating Layer ip3
I0507 10:15:52.123198 32468 net.cpp:435] ip3 <- ip2
I0507 10:15:52.123203 32468 net.cpp:409] ip3 -> ip3
I0507 10:15:52.123404 32468 net.cpp:144] Setting up ip3
I0507 10:15:52.123412 32468 net.cpp:151] Top shape: 20 50 (1000)
I0507 10:15:52.123415 32468 net.cpp:159] Memory required for data: 26833200
I0507 10:15:52.123420 32468 layer_factory.hpp:77] Creating layer loss
I0507 10:15:52.123426 32468 net.cpp:94] Creating Layer loss
I0507 10:15:52.123430 32468 net.cpp:435] loss <- ip3
I0507 10:15:52.123435 32468 net.cpp:435] loss <- label
I0507 10:15:52.123438 32468 net.cpp:409] loss -> loss
I0507 10:15:52.123445 32468 layer_factory.hpp:77] Creating layer loss
…
I0507 10:15:52.123966 32468 solver.cpp:181] Creating test net (#0) specified by net file: ./protocol/dis_50_900_dimension.protocol_distribution
I0507 10:15:52.123993 32468 net.cpp:323] The NetState phase (1) differed from the phase (0) specified by a rule in layer parameters
I0507 10:15:52.124094 32468 net.cpp:52] Initializing net from parameters: 
state {
  phase: TEST
}
layer {
  name: "intercept"
  type: "HDF5Data"
  top: "data"
  top: "label"
  include {
    phase: TEST
  }
  hdf5_data_param {
    source: "/home/purduethu/scratch/radon/d/deng106/CNNStatisticalModel/distributions/input/50_distributions_900_sample_size_test-distributions-path.txt"
    batch_size: 20
  }
}
layer {
  name: "conv1"
  type: "Convolution"
  bottom: "data"
  top: "conv1"
  param {
    lr_mult: 1
  }
  param {
    lr_mult: 2
  }
  convolution_param {
    num_output: 64
    pad: 2
    kernel_size: 5
    stride: 1
    weight_filler {
      type: "gaussian"
      std: 0.0001
    }
    bias_filler {
      type: "constant"
    }
  }
}
layer {
  name: "relu1"
  type: "ReLU"
  bottom: "conv1"
  top: "conv1"
}
layer {
  name: "conv2"
  type: "Convolution"
  bottom: "conv1"
  top: "conv2"
  param {
    lr_mult: 1
  }
  param {
    lr_mult: 2
  }
  convolution_param {
    num_output: 64
    pad: 2
    kernel_size: 5
    stride: 1
    weight_filler {
      type: "gaussian"
      std: 0.01
    }
    bias_filler {
      type: "constant"
    }
  }
}
layer {
  name: "relu2"
  type: "ReLU"
  bottom: "conv2"
  top: "conv2"
}
layer {
  name: "pool2"
  type: "Pooling"
  bottom: "conv2"
  top: "pool2"
  pooling_param {
    pool: MAX
    kernel_size: 3
    stride: 2
  }
}
layer {
  name: "conv3"
  type: "Convolution"
  bottom: "pool2"
  top: "conv3"
  param {
    lr_mult: 1
  }
  param {
    lr_mult: 2
  }
  convolution_param {
    num_output: 64
    pad: 2
    kernel_size: 5
    stride: 1
    weight_filler {
      type: "gaussian"
      std: 0.01
    }
    bias_filler {
      type: "constant"
    }
  }
}
layer {
  name: "relu3"
  type: "ReLU"
  bottom: "conv3"
  top: "conv3"
}
layer {
  name: "conv4"
  type: "Convolution"
  bottom: "conv3"
  top: "conv4"
  param {
    lr_mult: 1
  }
  param {
    lr_mult: 2
  }
  convolution_param {
    num_output: 64
    pad: 2
    kernel_size: 5
    stride: 1
    weight_filler {
      type: "gaussian"
      std: 0.01
    }
    bias_filler {
      type: "constant"
    }
  }
}
layer {
  name: "relu4"
  type: "ReLU"
  bottom: "conv4"
  top: "conv4"
}
layer {
  name: "conv5"
  type: "Convolution"
  bottom: "conv4"
  top: "conv5"
  param {
    lr_mult: 1
  }
  param {
    lr_mult: 2
  }
  convolution_param {
    num_output: 64
    pad: 2
    kernel_size: 5
    stride: 1
    weight_filler {
      type: "gaussian"
      std: 0.01
    }
    bias_filler {
      type: "constant"
    }
  }
}
layer {
  name: "relu5"
  type: "ReLU"
  bottom: "conv5"
  top: "conv5"
}
layer {
  name: "pool5"
  type: "Pooling"
  bottom: "conv5"
  top: "pool5"
  pooling_param {
    pool: AVE
    kernel_size: 3
    stride: 2
  }
}
layer {
  name: "ip1"
  type: "InnerProduct"
  bottom: "pool5"
  top: "ip1"
  param {
    lr_mult: 1
  }
  param {
    lr_mult: 2
  }
  inner_product_param {
    num_output: 64
    weight_filler {
      type: "gaussian"
      std: 0.1
    }
    bias_filler {
      type: "constant"
    }
  }
}
layer {
  name: "ip2"
  type: "InnerProduct"
  bottom: "ip1"
  top: "ip2"
  param {
    lr_mult: 1
  }
  param {
    lr_mult: 2
  }
  inner_product_param {
    num_output: 64
    weight_filler {
      type: "gaussian"
      std: 0.1
    }
    bias_filler {
      type: "constant"
    }
  }
}
layer {
  name: "ip3"
  type: "InnerProduct"
  bottom: "ip2"
  top: "ip3"
  param {
    lr_mult: 1
  }
  param {
    lr_mult: 2
  }
  inner_product_param {
    num_output: 50
    weight_filler {
      type: "gaussian"
      std: 0.1
    }
    bias_filler {
      type: "constant"
    }
  }
}
layer {
  name: "accuracy"
  type: "Accuracy"
  bottom: "ip3"
  bottom: "label"
  top: "accuracy"
  include {
    phase: TEST
  }
}
layer {
  name: "loss"
  type: "SoftmaxWithLoss"
  bottom: "ip3"
  bottom: "label"
  top: "loss"
}
I0507 10:15:52.124161 32468 layer_factory.hpp:77] Creating layer intercept
I0507 10:15:52.124169 32468 net.cpp:94] Creating Layer intercept
I0507 10:15:52.124173 32468 net.cpp:409] intercept -> data
I0507 10:15:52.124181 32468 net.cpp:409] intercept -> label
I0507 10:15:52.124186 32468 hdf5_data_layer.cpp:79] Loading list of HDF5 filenames from: /home/purduethu/scratch/radon/d/deng106/CNNStatisticalModel/distributions/input/50_distributions_900_sample_size_test-distributions-path.txt
I0507 10:15:52.124207 32468 hdf5_data_layer.cpp:93] Number of HDF5 files: 1
I0507 10:15:52.489804 32468 net.cpp:144] Setting up intercept
I0507 10:15:52.489836 32468 net.cpp:151] Top shape: 20 1 30 30 (18000)
I0507 10:15:52.489841 32468 net.cpp:151] Top shape: 20 (20)
I0507 10:15:52.489845 32468 net.cpp:159] Memory required for data: 72080
I0507 10:15:52.489850 32468 layer_factory.hpp:77] Creating layer label_intercept_1_split
I0507 10:15:52.489871 32468 net.cpp:94] Creating Layer label_intercept_1_split
I0507 10:15:52.489874 32468 net.cpp:435] label_intercept_1_split <- label
I0507 10:15:52.489881 32468 net.cpp:409] label_intercept_1_split -> label_intercept_1_split_0
I0507 10:15:52.489888 32468 net.cpp:409] label_intercept_1_split -> label_intercept_1_split_1
I0507 10:15:52.489929 32468 net.cpp:144] Setting up label_intercept_1_split
I0507 10:15:52.489935 32468 net.cpp:151] Top shape: 20 (20)
I0507 10:15:52.489939 32468 net.cpp:151] Top shape: 20 (20)
I0507 10:15:52.489943 32468 net.cpp:159] Memory required for data: 72240
I0507 10:15:52.489945 32468 layer_factory.hpp:77] Creating layer conv1
I0507 10:15:52.489955 32468 net.cpp:94] Creating Layer conv1
I0507 10:15:52.489959 32468 net.cpp:435] conv1 <- data
I0507 10:15:52.489964 32468 net.cpp:409] conv1 -> conv1
I0507 10:15:52.491483 32468 net.cpp:144] Setting up conv1
I0507 10:15:52.491498 32468 net.cpp:151] Top shape: 20 64 30 30 (1152000)
I0507 10:15:52.491502 32468 net.cpp:159] Memory required for data: 4680240
I0507 10:15:52.491511 32468 layer_factory.hpp:77] Creating layer relu1
I0507 10:15:52.491518 32468 net.cpp:94] Creating Layer relu1
I0507 10:15:52.491521 32468 net.cpp:435] relu1 <- conv1
I0507 10:15:52.491526 32468 net.cpp:396] relu1 -> conv1 (in-place)
I0507 10:15:52.491533 32468 net.cpp:144] Setting up relu1
I0507 10:15:52.491538 32468 net.cpp:151] Top shape: 20 64 30 30 (1152000)
I0507 10:15:52.491540 32468 net.cpp:159] Memory required for data: 9288240
I0507 10:15:52.491544 32468 layer_factory.hpp:77] Creating layer conv2
I0507 10:15:52.491551 32468 net.cpp:94] Creating Layer conv2
I0507 10:15:52.491554 32468 net.cpp:435] conv2 <- conv1
I0507 10:15:52.491559 32468 net.cpp:409] conv2 -> conv2
I0507 10:15:52.499033 32468 net.cpp:144] Setting up conv2
I0507 10:15:52.499047 32468 net.cpp:151] Top shape: 20 64 30 30 (1152000)
I0507 10:15:52.499052 32468 net.cpp:159] Memory required for data: 13896240
I0507 10:15:52.499059 32468 layer_factory.hpp:77] Creating layer relu2
I0507 10:15:52.499065 32468 net.cpp:94] Creating Layer relu2
I0507 10:15:52.499068 32468 net.cpp:435] relu2 <- conv2
I0507 10:15:52.499073 32468 net.cpp:396] relu2 -> conv2 (in-place)
I0507 10:15:52.499079 32468 net.cpp:144] Setting up relu2
I0507 10:15:52.499084 32468 net.cpp:151] Top shape: 20 64 30 30 (1152000)
I0507 10:15:52.499088 32468 net.cpp:159] Memory required for data: 18504240
I0507 10:15:52.499090 32468 layer_factory.hpp:77] Creating layer pool2
I0507 10:15:52.499097 32468 net.cpp:94] Creating Layer pool2
I0507 10:15:52.499100 32468 net.cpp:435] pool2 <- conv2
I0507 10:15:52.499104 32468 net.cpp:409] pool2 -> pool2
I0507 10:15:52.499160 32468 net.cpp:144] Setting up pool2
I0507 10:15:52.499166 32468 net.cpp:151] Top shape: 20 64 15 15 (288000)
I0507 10:15:52.499169 32468 net.cpp:159] Memory required for data: 19656240
I0507 10:15:52.499173 32468 layer_factory.hpp:77] Creating layer conv3
I0507 10:15:52.499182 32468 net.cpp:94] Creating Layer conv3
I0507 10:15:52.499186 32468 net.cpp:435] conv3 <- pool2
I0507 10:15:52.499191 32468 net.cpp:409] conv3 -> conv3
I0507 10:15:52.504336 32468 net.cpp:144] Setting up conv3
I0507 10:15:52.504350 32468 net.cpp:151] Top shape: 20 64 15 15 (288000)
I0507 10:15:52.504354 32468 net.cpp:159] Memory required for data: 20808240
I0507 10:15:52.504362 32468 layer_factory.hpp:77] Creating layer relu3
I0507 10:15:52.504369 32468 net.cpp:94] Creating Layer relu3
I0507 10:15:52.504374 32468 net.cpp:435] relu3 <- conv3
I0507 10:15:52.504379 32468 net.cpp:396] relu3 -> conv3 (in-place)
I0507 10:15:52.504384 32468 net.cpp:144] Setting up relu3
I0507 10:15:52.504390 32468 net.cpp:151] Top shape: 20 64 15 15 (288000)
I0507 10:15:52.504393 32468 net.cpp:159] Memory required for data: 21960240
I0507 10:15:52.504396 32468 layer_factory.hpp:77] Creating layer conv4
I0507 10:15:52.504403 32468 net.cpp:94] Creating Layer conv4
I0507 10:15:52.504406 32468 net.cpp:435] conv4 <- conv3
I0507 10:15:52.504411 32468 net.cpp:409] conv4 -> conv4
I0507 10:15:52.509104 32468 net.cpp:144] Setting up conv4
I0507 10:15:52.509119 32468 net.cpp:151] Top shape: 20 64 15 15 (288000)
I0507 10:15:52.509122 32468 net.cpp:159] Memory required for data: 23112240
I0507 10:15:52.509129 32468 layer_factory.hpp:77] Creating layer relu4
I0507 10:15:52.509135 32468 net.cpp:94] Creating Layer relu4
I0507 10:15:52.509138 32468 net.cpp:435] relu4 <- conv4
I0507 10:15:52.509142 32468 net.cpp:396] relu4 -> conv4 (in-place)
I0507 10:15:52.509150 32468 net.cpp:144] Setting up relu4
I0507 10:15:52.509153 32468 net.cpp:151] Top shape: 20 64 15 15 (288000)
I0507 10:15:52.509156 32468 net.cpp:159] Memory required for data: 24264240
I0507 10:15:52.509160 32468 layer_factory.hpp:77] Creating layer conv5
I0507 10:15:52.509169 32468 net.cpp:94] Creating Layer conv5
I0507 10:15:52.509172 32468 net.cpp:435] conv5 <- conv4
I0507 10:15:52.509177 32468 net.cpp:409] conv5 -> conv5
I0507 10:15:52.513869 32468 net.cpp:144] Setting up conv5
I0507 10:15:52.513883 32468 net.cpp:151] Top shape: 20 64 15 15 (288000)
I0507 10:15:52.513887 32468 net.cpp:159] Memory required for data: 25416240
I0507 10:15:52.513896 32468 layer_factory.hpp:77] Creating layer relu5
I0507 10:15:52.513903 32468 net.cpp:94] Creating Layer relu5
I0507 10:15:52.513906 32468 net.cpp:435] relu5 <- conv5
I0507 10:15:52.513911 32468 net.cpp:396] relu5 -> conv5 (in-place)
I0507 10:15:52.513918 32468 net.cpp:144] Setting up relu5
I0507 10:15:52.513923 32468 net.cpp:151] Top shape: 20 64 15 15 (288000)
I0507 10:15:52.513926 32468 net.cpp:159] Memory required for data: 26568240
I0507 10:15:52.513929 32468 layer_factory.hpp:77] Creating layer pool5
I0507 10:15:52.513934 32468 net.cpp:94] Creating Layer pool5
I0507 10:15:52.513937 32468 net.cpp:435] pool5 <- conv5
I0507 10:15:52.513942 32468 net.cpp:409] pool5 -> pool5
I0507 10:15:52.513980 32468 net.cpp:144] Setting up pool5
I0507 10:15:52.513988 32468 net.cpp:151] Top shape: 20 64 7 7 (62720)
I0507 10:15:52.513991 32468 net.cpp:159] Memory required for data: 26819120
I0507 10:15:52.513994 32468 layer_factory.hpp:77] Creating layer ip1
I0507 10:15:52.514001 32468 net.cpp:94] Creating Layer ip1
I0507 10:15:52.514005 32468 net.cpp:435] ip1 <- pool5
I0507 10:15:52.514009 32468 net.cpp:409] ip1 -> ip1
I0507 10:15:52.519598 32468 net.cpp:144] Setting up ip1
I0507 10:15:52.519611 32468 net.cpp:151] Top shape: 20 64 (1280)
I0507 10:15:52.519615 32468 net.cpp:159] Memory required for data: 26824240
I0507 10:15:52.519621 32468 layer_factory.hpp:77] Creating layer ip2
I0507 10:15:52.519629 32468 net.cpp:94] Creating Layer ip2
I0507 10:15:52.519631 32468 net.cpp:435] ip2 <- ip1
I0507 10:15:52.519636 32468 net.cpp:409] ip2 -> ip2
I0507 10:15:52.519870 32468 net.cpp:144] Setting up ip2
I0507 10:15:52.519876 32468 net.cpp:151] Top shape: 20 64 (1280)
I0507 10:15:52.519881 32468 net.cpp:159] Memory required for data: 26829360
I0507 10:15:52.519886 32468 layer_factory.hpp:77] Creating layer ip3
I0507 10:15:52.519893 32468 net.cpp:94] Creating Layer ip3
I0507 10:15:52.519897 32468 net.cpp:435] ip3 <- ip2
I0507 10:15:52.519902 32468 net.cpp:409] ip3 -> ip3
I0507 10:15:52.520098 32468 net.cpp:144] Setting up ip3
I0507 10:15:52.520107 32468 net.cpp:151] Top shape: 20 50 (1000)
I0507 10:15:52.520109 32468 net.cpp:159] Memory required for data: 26833360
I0507 10:15:52.520113 32468 layer_factory.hpp:77] Creating layer ip3_ip3_0_split
I0507 10:15:52.520119 32468 net.cpp:94] Creating Layer ip3_ip3_0_split
I0507 10:15:52.520123 32468 net.cpp:435] ip3_ip3_0_split <- ip3
I0507 10:15:52.520126 32468 net.cpp:409] ip3_ip3_0_split -> ip3_ip3_0_split_0
I0507 10:15:52.520133 32468 net.cpp:409] ip3_ip3_0_split -> ip3_ip3_0_split_1
I0507 10:15:52.520174 32468 net.cpp:144] Setting up ip3_ip3_0_split
I0507 10:15:52.520180 32468 net.cpp:151] Top shape: 20 50 (1000)
I0507 10:15:52.520184 32468 net.cpp:151] Top shape: 20 50 (1000)
I0507 10:15:52.520187 32468 net.cpp:159] Memory required for data: 26841360
I0507 10:15:52.520190 32468 layer_factory.hpp:77] Creating layer accuracy
I0507 10:15:52.520195 32468 net.cpp:94] Creating Layer accuracy
I0507 10:15:52.520198 32468 net.cpp:435] accuracy <- ip3_ip3_0_split_0
I0507 10:15:52.520202 32468 net.cpp:435] accuracy <- label_intercept_1_split_0
I0507 10:15:52.520206 32468 net.cpp:409] accuracy -> accuracy
…
