…
I0505 07:30:47.452533  4689 net.cpp:323] The NetState phase (0) differed from the phase (1) specified by a rule in layer intercept
I0505 07:30:47.452548  4689 net.cpp:323] The NetState phase (0) differed from the phase (1) specified by a rule in layer loss
I0505 07:30:47.452646  4689 net.cpp:52] Initializing net from parameters: 
state {
  phase: TRAIN
}
layer {
  name: "parameters"
  type: "HDF5Data"
  top: "data"
  top: "label"
  include {
    phase: TRAIN
  }
  hdf5_data_param {
    source: "/home/purduethu/scratch/radon/d/deng106/CNNStatisticalModel/distributions/input/20_distributions_100_sample_size_train-parameters-path.txt"
    batch_size: 20
  }
}
layer {
  name: "conv1"
  type: "Convolution"
  bottom: "data"
  top: "conv1"
  param {
    lr_mult: 1
  }
  param {
    lr_mult: 2
  }
  convolution_param {
    num_output: 64
    pad: 2
    kernel_size: 5
    stride: 1
    weight_filler {
      type: "gaussian"
      std: 0.0001
    }
    bias_filler {
      type: "constant"
    }
  }
}
layer {
  name: "relu1"
  type: "ReLU"
  bottom: "conv1"
  top: "conv1"
}
layer {
  name: "pool1"
  type: "Pooling"
  bottom: "conv1"
  top: "pool1"
  pooling_param {
    pool: MAX
    kernel_size: 3
    stride: 2
  }
}
layer {
  name: "conv2"
  type: "Convolution"
  bottom: "pool1"
  top: "conv2"
  param {
    lr_mult: 1
  }
  param {
    lr_mult: 2
  }
  convolution_param {
    num_output: 128
    pad: 2
    kernel_size: 5
    stride: 1
    weight_filler {
      type: "gaussian"
      std: 0.01
    }
    bias_filler {
      type: "constant"
    }
  }
}
layer {
  name: "relu2"
  type: "ReLU"
  bottom: "conv2"
  top: "conv2"
}
layer {
  name: "conv3"
  type: "Convolution"
  bottom: "conv2"
  top: "conv3"
  param {
    lr_mult: 1
  }
  param {
    lr_mult: 2
  }
  convolution_param {
    num_output: 128
    pad: 2
    kernel_size: 5
    stride: 1
    weight_filler {
      type: "gaussian"
      std: 0.01
    }
    bias_filler {
      type: "constant"
    }
  }
}
layer {
  name: "relu3"
  type: "ReLU"
  bottom: "conv3"
  top: "conv3"
}
layer {
  name: "pool3"
  type: "Pooling"
  bottom: "conv3"
  top: "pool3"
  pooling_param {
    pool: AVE
    kernel_size: 3
    stride: 2
  }
}
layer {
  name: "ip1"
  type: "InnerProduct"
  bottom: "pool3"
  top: "ip1"
  param {
    lr_mult: 1
  }
  param {
    lr_mult: 2
  }
  inner_product_param {
    num_output: 512
    weight_filler {
      type: "gaussian"
      std: 0.1
    }
    bias_filler {
      type: "constant"
    }
  }
}
layer {
  name: "ip2"
  type: "InnerProduct"
  bottom: "ip1"
  top: "ip2"
  param {
    lr_mult: 1
  }
  param {
    lr_mult: 2
  }
  inner_product_param {
    num_output: 256
    weight_filler {
      type: "gaussian"
      std: 0.1
    }
    bias_filler {
      type: "constant"
    }
  }
}
layer {
  name: "ip3"
  type: "InnerProduct"
  bottom: "ip2"
  top: "ip3"
  param {
    lr_mult: 1
  }
  param {
    lr_mult: 2
  }
  inner_product_param {
    num_output: 1
    weight_filler {
      type: "gaussian"
      std: 0.1
    }
    bias_filler {
      type: "constant"
    }
  }
}
layer {
  name: "loss"
  type: "HuberLoss"
  bottom: "ip3"
  bottom: "label"
  top: "loss"
  include {
    phase: TRAIN
  }
}
I0505 07:30:47.452708  4689 layer_factory.hpp:77] Creating layer parameters
I0505 07:30:47.452723  4689 net.cpp:94] Creating Layer parameters
I0505 07:30:47.452735  4689 net.cpp:409] parameters -> data
I0505 07:30:47.452754  4689 net.cpp:409] parameters -> label
I0505 07:30:47.452764  4689 hdf5_data_layer.cpp:79] Loading list of HDF5 filenames from: /home/purduethu/scratch/radon/d/deng106/CNNStatisticalModel/distributions/input/20_distributions_100_sample_size_train-parameters-path.txt
I0505 07:30:47.452786  4689 hdf5_data_layer.cpp:93] Number of HDF5 files: 1
I0505 07:30:47.453346  4689 hdf5.cpp:32] Datatype class: H5T_FLOAT
I0505 07:30:47.518872  4689 net.cpp:144] Setting up parameters
I0505 07:30:47.518904  4689 net.cpp:151] Top shape: 20 1 10 10 (2000)
I0505 07:30:47.518910  4689 net.cpp:151] Top shape: 20 (20)
I0505 07:30:47.518914  4689 net.cpp:159] Memory required for data: 8080
I0505 07:30:47.518923  4689 layer_factory.hpp:77] Creating layer conv1
I0505 07:30:47.518946  4689 net.cpp:94] Creating Layer conv1
I0505 07:30:47.518952  4689 net.cpp:435] conv1 <- data
I0505 07:30:47.518963  4689 net.cpp:409] conv1 -> conv1
I0505 07:30:47.522650  4689 net.cpp:144] Setting up conv1
I0505 07:30:47.522665  4689 net.cpp:151] Top shape: 20 64 10 10 (128000)
I0505 07:30:47.522668  4689 net.cpp:159] Memory required for data: 520080
I0505 07:30:47.522680  4689 layer_factory.hpp:77] Creating layer relu1
I0505 07:30:47.522687  4689 net.cpp:94] Creating Layer relu1
I0505 07:30:47.522691  4689 net.cpp:435] relu1 <- conv1
I0505 07:30:47.522696  4689 net.cpp:396] relu1 -> conv1 (in-place)
I0505 07:30:47.522712  4689 net.cpp:144] Setting up relu1
I0505 07:30:47.522718  4689 net.cpp:151] Top shape: 20 64 10 10 (128000)
I0505 07:30:47.522722  4689 net.cpp:159] Memory required for data: 1032080
I0505 07:30:47.522724  4689 layer_factory.hpp:77] Creating layer pool1
I0505 07:30:47.522732  4689 net.cpp:94] Creating Layer pool1
I0505 07:30:47.522734  4689 net.cpp:435] pool1 <- conv1
I0505 07:30:47.522739  4689 net.cpp:409] pool1 -> pool1
I0505 07:30:47.522783  4689 net.cpp:144] Setting up pool1
I0505 07:30:47.522789  4689 net.cpp:151] Top shape: 20 64 5 5 (32000)
I0505 07:30:47.522792  4689 net.cpp:159] Memory required for data: 1160080
I0505 07:30:47.522795  4689 layer_factory.hpp:77] Creating layer conv2
I0505 07:30:47.522804  4689 net.cpp:94] Creating Layer conv2
I0505 07:30:47.522807  4689 net.cpp:435] conv2 <- pool1
I0505 07:30:47.522812  4689 net.cpp:409] conv2 -> conv2
I0505 07:30:47.530732  4689 net.cpp:144] Setting up conv2
I0505 07:30:47.530746  4689 net.cpp:151] Top shape: 20 128 5 5 (64000)
I0505 07:30:47.530751  4689 net.cpp:159] Memory required for data: 1416080
I0505 07:30:47.530760  4689 layer_factory.hpp:77] Creating layer relu2
I0505 07:30:47.530766  4689 net.cpp:94] Creating Layer relu2
I0505 07:30:47.530769  4689 net.cpp:435] relu2 <- conv2
I0505 07:30:47.530774  4689 net.cpp:396] relu2 -> conv2 (in-place)
I0505 07:30:47.530781  4689 net.cpp:144] Setting up relu2
I0505 07:30:47.530786  4689 net.cpp:151] Top shape: 20 128 5 5 (64000)
I0505 07:30:47.530788  4689 net.cpp:159] Memory required for data: 1672080
I0505 07:30:47.530792  4689 layer_factory.hpp:77] Creating layer conv3
I0505 07:30:47.530800  4689 net.cpp:94] Creating Layer conv3
I0505 07:30:47.530803  4689 net.cpp:435] conv3 <- conv2
I0505 07:30:47.530808  4689 net.cpp:409] conv3 -> conv3
I0505 07:30:47.545408  4689 net.cpp:144] Setting up conv3
I0505 07:30:47.545421  4689 net.cpp:151] Top shape: 20 128 5 5 (64000)
I0505 07:30:47.545426  4689 net.cpp:159] Memory required for data: 1928080
I0505 07:30:47.545434  4689 layer_factory.hpp:77] Creating layer relu3
I0505 07:30:47.545440  4689 net.cpp:94] Creating Layer relu3
I0505 07:30:47.545450  4689 net.cpp:435] relu3 <- conv3
I0505 07:30:47.545455  4689 net.cpp:396] relu3 -> conv3 (in-place)
I0505 07:30:47.545462  4689 net.cpp:144] Setting up relu3
I0505 07:30:47.545467  4689 net.cpp:151] Top shape: 20 128 5 5 (64000)
I0505 07:30:47.545470  4689 net.cpp:159] Memory required for data: 2184080
I0505 07:30:47.545473  4689 layer_factory.hpp:77] Creating layer pool3
I0505 07:30:47.545480  4689 net.cpp:94] Creating Layer pool3
I0505 07:30:47.545483  4689 net.cpp:435] pool3 <- conv3
I0505 07:30:47.545493  4689 net.cpp:409] pool3 -> pool3
I0505 07:30:47.545528  4689 net.cpp:144] Setting up pool3
I0505 07:30:47.545536  4689 net.cpp:151] Top shape: 20 128 2 2 (10240)
I0505 07:30:47.545538  4689 net.cpp:159] Memory required for data: 2225040
I0505 07:30:47.545542  4689 layer_factory.hpp:77] Creating layer ip1
I0505 07:30:47.545552  4689 net.cpp:94] Creating Layer ip1
I0505 07:30:47.545555  4689 net.cpp:435] ip1 <- pool3
I0505 07:30:47.545560  4689 net.cpp:409] ip1 -> ip1
I0505 07:30:47.552983  4689 net.cpp:144] Setting up ip1
I0505 07:30:47.552996  4689 net.cpp:151] Top shape: 20 512 (10240)
I0505 07:30:47.553000  4689 net.cpp:159] Memory required for data: 2266000
I0505 07:30:47.553006  4689 layer_factory.hpp:77] Creating layer ip2
I0505 07:30:47.553014  4689 net.cpp:94] Creating Layer ip2
I0505 07:30:47.553017  4689 net.cpp:435] ip2 <- ip1
I0505 07:30:47.553022  4689 net.cpp:409] ip2 -> ip2
I0505 07:30:47.556092  4689 net.cpp:144] Setting up ip2
I0505 07:30:47.556100  4689 net.cpp:151] Top shape: 20 256 (5120)
I0505 07:30:47.556103  4689 net.cpp:159] Memory required for data: 2286480
I0505 07:30:47.556110  4689 layer_factory.hpp:77] Creating layer ip3
I0505 07:30:47.556116  4689 net.cpp:94] Creating Layer ip3
I0505 07:30:47.556119  4689 net.cpp:435] ip3 <- ip2
I0505 07:30:47.556124  4689 net.cpp:409] ip3 -> ip3
I0505 07:30:47.556187  4689 net.cpp:144] Setting up ip3
I0505 07:30:47.556193  4689 net.cpp:151] Top shape: 20 1 (20)
I0505 07:30:47.556196  4689 net.cpp:159] Memory required for data: 2286560
I0505 07:30:47.556201  4689 layer_factory.hpp:77] Creating layer loss
I0505 07:30:47.556207  4689 net.cpp:94] Creating Layer loss
I0505 07:30:47.556210  4689 net.cpp:435] loss <- ip3
I0505 07:30:47.556215  4689 net.cpp:435] loss <- label
I0505 07:30:47.556219  4689 net.cpp:409] loss -> loss
I0505 07:30:47.556253  4689 net.cpp:144] Setting up loss
…
