…
I0507 18:49:49.748852  6160 net.cpp:323] The NetState phase (0) differed from the phase (1) specified by a rule in layer intercept
I0507 18:49:49.748879  6160 net.cpp:323] The NetState phase (0) differed from the phase (1) specified by a rule in layer loss
I0507 18:49:49.748960  6160 net.cpp:52] Initializing net from parameters: 
state {
  phase: TRAIN
}
layer {
  name: "parameters"
  type: "HDF5Data"
  top: "data"
  top: "label"
  include {
    phase: TRAIN
  }
  hdf5_data_param {
    source: "/home/purduethu/scratch/radon/d/deng106/CNNStatisticalModel/distributions/input/5_distributions_100_sample_size_train-parameters-path.txt"
    batch_size: 20
  }
}
layer {
  name: "conv1"
  type: "Convolution"
  bottom: "data"
  top: "conv1"
  param {
    lr_mult: 1
  }
  param {
    lr_mult: 2
  }
  convolution_param {
    num_output: 64
    pad: 2
    kernel_size: 5
    stride: 1
    weight_filler {
      type: "gaussian"
      std: 0.0001
    }
    bias_filler {
      type: "constant"
    }
  }
}
layer {
  name: "relu1"
  type: "ReLU"
  bottom: "conv1"
  top: "conv1"
}
layer {
  name: "conv2"
  type: "Convolution"
  bottom: "conv1"
  top: "conv2"
  param {
    lr_mult: 1
  }
  param {
    lr_mult: 2
  }
  convolution_param {
    num_output: 64
    pad: 2
    kernel_size: 5
    stride: 1
    weight_filler {
      type: "gaussian"
      std: 0.01
    }
    bias_filler {
      type: "constant"
    }
  }
}
layer {
  name: "relu2"
  type: "ReLU"
  bottom: "conv2"
  top: "conv2"
}
layer {
  name: "pool2"
  type: "Pooling"
  bottom: "conv2"
  top: "pool2"
  pooling_param {
    pool: MAX
    kernel_size: 3
    stride: 2
  }
}
layer {
  name: "conv3"
  type: "Convolution"
  bottom: "pool2"
  top: "conv3"
  param {
    lr_mult: 1
  }
  param {
    lr_mult: 2
  }
  convolution_param {
    num_output: 64
    pad: 2
    kernel_size: 5
    stride: 1
    weight_filler {
      type: "gaussian"
      std: 0.01
    }
    bias_filler {
      type: "constant"
    }
  }
}
layer {
  name: "relu3"
  type: "ReLU"
  bottom: "conv3"
  top: "conv3"
}
layer {
  name: "conv4"
  type: "Convolution"
  bottom: "conv3"
  top: "conv4"
  param {
    lr_mult: 1
  }
  param {
    lr_mult: 2
  }
  convolution_param {
    num_output: 64
    pad: 2
    kernel_size: 5
    stride: 1
    weight_filler {
      type: "gaussian"
      std: 0.01
    }
    bias_filler {
      type: "constant"
    }
  }
}
layer {
  name: "relu4"
  type: "ReLU"
  bottom: "conv4"
  top: "conv4"
}
layer {
  name: "conv5"
  type: "Convolution"
  bottom: "conv4"
  top: "conv5"
  param {
    lr_mult: 1
  }
  param {
    lr_mult: 2
  }
  convolution_param {
    num_output: 64
    pad: 2
    kernel_size: 5
    stride: 1
    weight_filler {
      type: "gaussian"
      std: 0.01
    }
    bias_filler {
      type: "constant"
    }
  }
}
layer {
  name: "relu5"
  type: "ReLU"
  bottom: "conv5"
  top: "conv5"
}
layer {
  name: "pool5"
  type: "Pooling"
  bottom: "conv5"
  top: "pool5"
  pooling_param {
    pool: AVE
    kernel_size: 3
    stride: 2
  }
}
layer {
  name: "ip1"
  type: "InnerProduct"
  bottom: "pool5"
  top: "ip1"
  param {
    lr_mult: 1
  }
  param {
    lr_mult: 2
  }
  inner_product_param {
    num_output: 64
    weight_filler {
      type: "gaussian"
      std: 0.1
    }
    bias_filler {
      type: "constant"
    }
  }
}
layer {
  name: "ip2"
  type: "InnerProduct"
  bottom: "ip1"
  top: "ip2"
  param {
    lr_mult: 1
  }
  param {
    lr_mult: 2
  }
  inner_product_param {
    num_output: 64
    weight_filler {
      type: "gaussian"
      std: 0.1
    }
    bias_filler {
      type: "constant"
    }
  }
}
layer {
  name: "ip3"
  type: "InnerProduct"
  bottom: "ip2"
  top: "ip3"
  param {
    lr_mult: 1
  }
  param {
    lr_mult: 2
  }
  inner_product_param {
    num_output: 1
    weight_filler {
      type: "gaussian"
      std: 0.1
    }
    bias_filler {
      type: "constant"
    }
  }
}
layer {
  name: "loss"
  type: "HuberLoss"
  bottom: "ip3"
  bottom: "label"
  top: "loss"
  include {
    phase: TRAIN
  }
}
I0507 18:49:49.749013  6160 layer_factory.hpp:77] Creating layer parameters
I0507 18:49:49.749027  6160 net.cpp:94] Creating Layer parameters
I0507 18:49:49.749030  6160 net.cpp:409] parameters -> data
I0507 18:49:49.749039  6160 net.cpp:409] parameters -> label
I0507 18:49:49.749050  6160 hdf5_data_layer.cpp:79] Loading list of HDF5 filenames from: /home/purduethu/scratch/radon/d/deng106/CNNStatisticalModel/distributions/input/5_distributions_100_sample_size_train-parameters-path.txt
I0507 18:49:49.749065  6160 hdf5_data_layer.cpp:93] Number of HDF5 files: 1
I0507 18:49:49.749615  6160 hdf5.cpp:32] Datatype class: H5T_FLOAT
I0507 18:49:49.767446  6160 net.cpp:144] Setting up parameters
I0507 18:49:49.767473  6160 net.cpp:151] Top shape: 20 1 10 10 (2000)
I0507 18:49:49.767478  6160 net.cpp:151] Top shape: 20 (20)
I0507 18:49:49.767482  6160 net.cpp:159] Memory required for data: 8080
I0507 18:49:49.767488  6160 layer_factory.hpp:77] Creating layer conv1
I0507 18:49:49.767508  6160 net.cpp:94] Creating Layer conv1
I0507 18:49:49.767513  6160 net.cpp:435] conv1 <- data
I0507 18:49:49.767519  6160 net.cpp:409] conv1 -> conv1
I0507 18:49:49.771692  6160 net.cpp:144] Setting up conv1
I0507 18:49:49.771705  6160 net.cpp:151] Top shape: 20 64 10 10 (128000)
I0507 18:49:49.771709  6160 net.cpp:159] Memory required for data: 520080
I0507 18:49:49.771718  6160 layer_factory.hpp:77] Creating layer relu1
I0507 18:49:49.771725  6160 net.cpp:94] Creating Layer relu1
I0507 18:49:49.771729  6160 net.cpp:435] relu1 <- conv1
I0507 18:49:49.771733  6160 net.cpp:396] relu1 -> conv1 (in-place)
I0507 18:49:49.771744  6160 net.cpp:144] Setting up relu1
I0507 18:49:49.771749  6160 net.cpp:151] Top shape: 20 64 10 10 (128000)
I0507 18:49:49.771752  6160 net.cpp:159] Memory required for data: 1032080
I0507 18:49:49.771755  6160 layer_factory.hpp:77] Creating layer conv2
I0507 18:49:49.771762  6160 net.cpp:94] Creating Layer conv2
I0507 18:49:49.771766  6160 net.cpp:435] conv2 <- conv1
I0507 18:49:49.771770  6160 net.cpp:409] conv2 -> conv2
I0507 18:49:49.777811  6160 net.cpp:144] Setting up conv2
I0507 18:49:49.777825  6160 net.cpp:151] Top shape: 20 64 10 10 (128000)
I0507 18:49:49.777829  6160 net.cpp:159] Memory required for data: 1544080
I0507 18:49:49.777837  6160 layer_factory.hpp:77] Creating layer relu2
I0507 18:49:49.777843  6160 net.cpp:94] Creating Layer relu2
I0507 18:49:49.777846  6160 net.cpp:435] relu2 <- conv2
I0507 18:49:49.777851  6160 net.cpp:396] relu2 -> conv2 (in-place)
I0507 18:49:49.777858  6160 net.cpp:144] Setting up relu2
I0507 18:49:49.777863  6160 net.cpp:151] Top shape: 20 64 10 10 (128000)
I0507 18:49:49.777865  6160 net.cpp:159] Memory required for data: 2056080
I0507 18:49:49.777868  6160 layer_factory.hpp:77] Creating layer pool2
I0507 18:49:49.777879  6160 net.cpp:94] Creating Layer pool2
I0507 18:49:49.777884  6160 net.cpp:435] pool2 <- conv2
I0507 18:49:49.777887  6160 net.cpp:409] pool2 -> pool2
I0507 18:49:49.777943  6160 net.cpp:144] Setting up pool2
I0507 18:49:49.777951  6160 net.cpp:151] Top shape: 20 64 5 5 (32000)
I0507 18:49:49.777953  6160 net.cpp:159] Memory required for data: 2184080
I0507 18:49:49.777957  6160 layer_factory.hpp:77] Creating layer conv3
I0507 18:49:49.777966  6160 net.cpp:94] Creating Layer conv3
I0507 18:49:49.777968  6160 net.cpp:435] conv3 <- pool2
I0507 18:49:49.777973  6160 net.cpp:409] conv3 -> conv3
I0507 18:49:49.782843  6160 net.cpp:144] Setting up conv3
I0507 18:49:49.782857  6160 net.cpp:151] Top shape: 20 64 5 5 (32000)
I0507 18:49:49.782861  6160 net.cpp:159] Memory required for data: 2312080
I0507 18:49:49.782869  6160 layer_factory.hpp:77] Creating layer relu3
I0507 18:49:49.782874  6160 net.cpp:94] Creating Layer relu3
I0507 18:49:49.782878  6160 net.cpp:435] relu3 <- conv3
I0507 18:49:49.782882  6160 net.cpp:396] relu3 -> conv3 (in-place)
I0507 18:49:49.782889  6160 net.cpp:144] Setting up relu3
I0507 18:49:49.782893  6160 net.cpp:151] Top shape: 20 64 5 5 (32000)
I0507 18:49:49.782896  6160 net.cpp:159] Memory required for data: 2440080
I0507 18:49:49.782899  6160 layer_factory.hpp:77] Creating layer conv4
I0507 18:49:49.782908  6160 net.cpp:94] Creating Layer conv4
I0507 18:49:49.782912  6160 net.cpp:435] conv4 <- conv3
I0507 18:49:49.782917  6160 net.cpp:409] conv4 -> conv4
I0507 18:49:49.787292  6160 net.cpp:144] Setting up conv4
I0507 18:49:49.787307  6160 net.cpp:151] Top shape: 20 64 5 5 (32000)
I0507 18:49:49.787309  6160 net.cpp:159] Memory required for data: 2568080
I0507 18:49:49.787317  6160 layer_factory.hpp:77] Creating layer relu4
I0507 18:49:49.787322  6160 net.cpp:94] Creating Layer relu4
I0507 18:49:49.787325  6160 net.cpp:435] relu4 <- conv4
I0507 18:49:49.787329  6160 net.cpp:396] relu4 -> conv4 (in-place)
I0507 18:49:49.787336  6160 net.cpp:144] Setting up relu4
I0507 18:49:49.787340  6160 net.cpp:151] Top shape: 20 64 5 5 (32000)
I0507 18:49:49.787343  6160 net.cpp:159] Memory required for data: 2696080
I0507 18:49:49.787346  6160 layer_factory.hpp:77] Creating layer conv5
I0507 18:49:49.787353  6160 net.cpp:94] Creating Layer conv5
I0507 18:49:49.787356  6160 net.cpp:435] conv5 <- conv4
I0507 18:49:49.787361  6160 net.cpp:409] conv5 -> conv5
I0507 18:49:49.792196  6160 net.cpp:144] Setting up conv5
I0507 18:49:49.792209  6160 net.cpp:151] Top shape: 20 64 5 5 (32000)
I0507 18:49:49.792213  6160 net.cpp:159] Memory required for data: 2824080
I0507 18:49:49.792222  6160 layer_factory.hpp:77] Creating layer relu5
I0507 18:49:49.792227  6160 net.cpp:94] Creating Layer relu5
I0507 18:49:49.792230  6160 net.cpp:435] relu5 <- conv5
I0507 18:49:49.792235  6160 net.cpp:396] relu5 -> conv5 (in-place)
I0507 18:49:49.792242  6160 net.cpp:144] Setting up relu5
I0507 18:49:49.792246  6160 net.cpp:151] Top shape: 20 64 5 5 (32000)
I0507 18:49:49.792248  6160 net.cpp:159] Memory required for data: 2952080
I0507 18:49:49.792251  6160 layer_factory.hpp:77] Creating layer pool5
I0507 18:49:49.792258  6160 net.cpp:94] Creating Layer pool5
I0507 18:49:49.792261  6160 net.cpp:435] pool5 <- conv5
I0507 18:49:49.792265  6160 net.cpp:409] pool5 -> pool5
I0507 18:49:49.792305  6160 net.cpp:144] Setting up pool5
I0507 18:49:49.792312  6160 net.cpp:151] Top shape: 20 64 2 2 (5120)
I0507 18:49:49.792315  6160 net.cpp:159] Memory required for data: 2972560
I0507 18:49:49.792318  6160 layer_factory.hpp:77] Creating layer ip1
I0507 18:49:49.792327  6160 net.cpp:94] Creating Layer ip1
I0507 18:49:49.792330  6160 net.cpp:435] ip1 <- pool5
I0507 18:49:49.792335  6160 net.cpp:409] ip1 -> ip1
I0507 18:49:49.793668  6160 net.cpp:144] Setting up ip1
I0507 18:49:49.793682  6160 net.cpp:151] Top shape: 20 64 (1280)
I0507 18:49:49.793686  6160 net.cpp:159] Memory required for data: 2977680
I0507 18:49:49.793692  6160 layer_factory.hpp:77] Creating layer ip2
I0507 18:49:49.793699  6160 net.cpp:94] Creating Layer ip2
I0507 18:49:49.793705  6160 net.cpp:435] ip2 <- ip1
I0507 18:49:49.793710  6160 net.cpp:409] ip2 -> ip2
I0507 18:49:49.793933  6160 net.cpp:144] Setting up ip2
I0507 18:49:49.793941  6160 net.cpp:151] Top shape: 20 64 (1280)
I0507 18:49:49.793944  6160 net.cpp:159] Memory required for data: 2982800
I0507 18:49:49.793949  6160 layer_factory.hpp:77] Creating layer ip3
I0507 18:49:49.793956  6160 net.cpp:94] Creating Layer ip3
I0507 18:49:49.793958  6160 net.cpp:435] ip3 <- ip2
I0507 18:49:49.793964  6160 net.cpp:409] ip3 -> ip3
I0507 18:49:49.794077  6160 net.cpp:144] Setting up ip3
I0507 18:49:49.794083  6160 net.cpp:151] Top shape: 20 1 (20)
I0507 18:49:49.794086  6160 net.cpp:159] Memory required for data: 2982880
I0507 18:49:49.794091  6160 layer_factory.hpp:77] Creating layer loss
I0507 18:49:49.794101  6160 net.cpp:94] Creating Layer loss
I0507 18:49:49.794106  6160 net.cpp:435] loss <- ip3
I0507 18:49:49.794108  6160 net.cpp:435] loss <- label
I0507 18:49:49.794113  6160 net.cpp:409] loss -> loss
I0507 18:49:49.794170  6160 net.cpp:144] Setting up loss
…
I0507 18:49:49.817984  6160 net.cpp:323] The NetState phase (0) differed from the phase (1) specified by a rule in layer intercept
I0507 18:49:49.818001  6160 net.cpp:323] The NetState phase (0) differed from the phase (1) specified by a rule in layer accuracy
I0507 18:49:49.818089  6160 net.cpp:52] Initializing net from parameters: 
state {
  phase: TRAIN
}
layer {
  name: "parameters"
  type: "HDF5Data"
  top: "data"
  top: "label"
  include {
    phase: TRAIN
  }
  hdf5_data_param {
    source: "/home/purduethu/scratch/radon/d/deng106/CNNStatisticalModel/distributions/input/5_distributions_100_sample_size_train-distributions-path.txt"
    batch_size: 20
  }
}
layer {
  name: "conv1"
  type: "Convolution"
  bottom: "data"
  top: "conv1"
  param {
    lr_mult: 1
  }
  param {
    lr_mult: 2
  }
  convolution_param {
    num_output: 64
    pad: 2
    kernel_size: 5
    stride: 1
    weight_filler {
      type: "gaussian"
      std: 0.0001
    }
    bias_filler {
      type: "constant"
    }
  }
}
layer {
  name: "relu1"
  type: "ReLU"
  bottom: "conv1"
  top: "conv1"
}
layer {
  name: "conv2"
  type: "Convolution"
  bottom: "conv1"
  top: "conv2"
  param {
    lr_mult: 1
  }
  param {
    lr_mult: 2
  }
  convolution_param {
    num_output: 64
    pad: 2
    kernel_size: 5
    stride: 1
    weight_filler {
      type: "gaussian"
      std: 0.01
    }
    bias_filler {
      type: "constant"
    }
  }
}
layer {
  name: "relu2"
  type: "ReLU"
  bottom: "conv2"
  top: "conv2"
}
layer {
  name: "pool2"
  type: "Pooling"
  bottom: "conv2"
  top: "pool2"
  pooling_param {
    pool: MAX
    kernel_size: 3
    stride: 2
  }
}
layer {
  name: "conv3"
  type: "Convolution"
  bottom: "pool2"
  top: "conv3"
  param {
    lr_mult: 1
  }
  param {
    lr_mult: 2
  }
  convolution_param {
    num_output: 64
    pad: 2
    kernel_size: 5
    stride: 1
    weight_filler {
      type: "gaussian"
      std: 0.01
    }
    bias_filler {
      type: "constant"
    }
  }
}
layer {
  name: "relu3"
  type: "ReLU"
  bottom: "conv3"
  top: "conv3"
}
layer {
  name: "conv4"
  type: "Convolution"
  bottom: "conv3"
  top: "conv4"
  param {
    lr_mult: 1
  }
  param {
    lr_mult: 2
  }
  convolution_param {
    num_output: 64
    pad: 2
    kernel_size: 5
    stride: 1
    weight_filler {
      type: "gaussian"
      std: 0.01
    }
    bias_filler {
      type: "constant"
    }
  }
}
layer {
  name: "relu4"
  type: "ReLU"
  bottom: "conv4"
  top: "conv4"
}
layer {
  name: "conv5"
  type: "Convolution"
  bottom: "conv4"
  top: "conv5"
  param {
    lr_mult: 1
  }
  param {
    lr_mult: 2
  }
  convolution_param {
    num_output: 64
    pad: 2
    kernel_size: 5
    stride: 1
    weight_filler {
      type: "gaussian"
      std: 0.01
    }
    bias_filler {
      type: "constant"
    }
  }
}
layer {
  name: "relu5"
  type: "ReLU"
  bottom: "conv5"
  top: "conv5"
}
layer {
  name: "pool5"
  type: "Pooling"
  bottom: "conv5"
  top: "pool5"
  pooling_param {
    pool: AVE
    kernel_size: 3
    stride: 2
  }
}
layer {
  name: "ip1"
  type: "InnerProduct"
  bottom: "pool5"
  top: "ip1"
  param {
    lr_mult: 1
  }
  param {
    lr_mult: 2
  }
  inner_product_param {
    num_output: 64
    weight_filler {
      type: "gaussian"
      std: 0.1
    }
    bias_filler {
      type: "constant"
    }
  }
}
layer {
  name: "ip2"
  type: "InnerProduct"
  bottom: "ip1"
  top: "ip2"
  param {
    lr_mult: 1
  }
  param {
    lr_mult: 2
  }
  inner_product_param {
    num_output: 64
    weight_filler {
      type: "gaussian"
      std: 0.1
    }
    bias_filler {
      type: "constant"
    }
  }
}
layer {
  name: "ip3"
  type: "InnerProduct"
  bottom: "ip2"
  top: "ip3"
  param {
    lr_mult: 1
  }
  param {
    lr_mult: 2
  }
  inner_product_param {
    num_output: 50
    weight_filler {
      type: "gaussian"
      std: 0.1
    }
    bias_filler {
      type: "constant"
    }
  }
}
layer {
  name: "loss"
  type: "SoftmaxWithLoss"
  bottom: "ip3"
  bottom: "label"
  top: "loss"
}
I0507 18:49:49.818140  6160 layer_factory.hpp:77] Creating layer parameters
I0507 18:49:49.818150  6160 net.cpp:94] Creating Layer parameters
I0507 18:49:49.818153  6160 net.cpp:409] parameters -> data
I0507 18:49:49.818159  6160 net.cpp:409] parameters -> label
I0507 18:49:49.818166  6160 hdf5_data_layer.cpp:79] Loading list of HDF5 filenames from: /home/purduethu/scratch/radon/d/deng106/CNNStatisticalModel/distributions/input/5_distributions_100_sample_size_train-distributions-path.txt
I0507 18:49:49.818182  6160 hdf5_data_layer.cpp:93] Number of HDF5 files: 1
I0507 18:49:49.833953  6160 hdf5.cpp:35] Datatype class: H5T_INTEGER
I0507 18:49:49.834388  6160 net.cpp:144] Setting up parameters
I0507 18:49:49.834403  6160 net.cpp:151] Top shape: 20 1 10 10 (2000)
I0507 18:49:49.834406  6160 net.cpp:151] Top shape: 20 (20)
I0507 18:49:49.834409  6160 net.cpp:159] Memory required for data: 8080
I0507 18:49:49.834416  6160 layer_factory.hpp:77] Creating layer conv1
I0507 18:49:49.834432  6160 net.cpp:94] Creating Layer conv1
I0507 18:49:49.834436  6160 net.cpp:435] conv1 <- data
I0507 18:49:49.834442  6160 net.cpp:409] conv1 -> conv1
I0507 18:49:49.836202  6160 net.cpp:144] Setting up conv1
I0507 18:49:49.836216  6160 net.cpp:151] Top shape: 20 64 10 10 (128000)
I0507 18:49:49.836220  6160 net.cpp:159] Memory required for data: 520080
I0507 18:49:49.836230  6160 layer_factory.hpp:77] Creating layer relu1
I0507 18:49:49.836236  6160 net.cpp:94] Creating Layer relu1
I0507 18:49:49.836241  6160 net.cpp:435] relu1 <- conv1
I0507 18:49:49.836244  6160 net.cpp:396] relu1 -> conv1 (in-place)
I0507 18:49:49.836251  6160 net.cpp:144] Setting up relu1
I0507 18:49:49.836256  6160 net.cpp:151] Top shape: 20 64 10 10 (128000)
I0507 18:49:49.836258  6160 net.cpp:159] Memory required for data: 1032080
I0507 18:49:49.836261  6160 layer_factory.hpp:77] Creating layer conv2
I0507 18:49:49.836268  6160 net.cpp:94] Creating Layer conv2
I0507 18:49:49.836272  6160 net.cpp:435] conv2 <- conv1
I0507 18:49:49.836277  6160 net.cpp:409] conv2 -> conv2
I0507 18:49:49.841663  6160 net.cpp:144] Setting up conv2
I0507 18:49:49.841676  6160 net.cpp:151] Top shape: 20 64 10 10 (128000)
I0507 18:49:49.841681  6160 net.cpp:159] Memory required for data: 1544080
I0507 18:49:49.841687  6160 layer_factory.hpp:77] Creating layer relu2
I0507 18:49:49.841694  6160 net.cpp:94] Creating Layer relu2
I0507 18:49:49.841698  6160 net.cpp:435] relu2 <- conv2
I0507 18:49:49.841702  6160 net.cpp:396] relu2 -> conv2 (in-place)
I0507 18:49:49.841709  6160 net.cpp:144] Setting up relu2
I0507 18:49:49.841713  6160 net.cpp:151] Top shape: 20 64 10 10 (128000)
I0507 18:49:49.841717  6160 net.cpp:159] Memory required for data: 2056080
I0507 18:49:49.841719  6160 layer_factory.hpp:77] Creating layer pool2
I0507 18:49:49.841725  6160 net.cpp:94] Creating Layer pool2
I0507 18:49:49.841728  6160 net.cpp:435] pool2 <- conv2
I0507 18:49:49.841732  6160 net.cpp:409] pool2 -> pool2
I0507 18:49:49.841785  6160 net.cpp:144] Setting up pool2
I0507 18:49:49.841792  6160 net.cpp:151] Top shape: 20 64 5 5 (32000)
I0507 18:49:49.841795  6160 net.cpp:159] Memory required for data: 2184080
I0507 18:49:49.841799  6160 layer_factory.hpp:77] Creating layer conv3
I0507 18:49:49.841806  6160 net.cpp:94] Creating Layer conv3
I0507 18:49:49.841809  6160 net.cpp:435] conv3 <- pool2
I0507 18:49:49.841814  6160 net.cpp:409] conv3 -> conv3
I0507 18:49:49.846729  6160 net.cpp:144] Setting up conv3
I0507 18:49:49.846750  6160 net.cpp:151] Top shape: 20 64 5 5 (32000)
I0507 18:49:49.846753  6160 net.cpp:159] Memory required for data: 2312080
I0507 18:49:49.846761  6160 layer_factory.hpp:77] Creating layer relu3
I0507 18:49:49.846767  6160 net.cpp:94] Creating Layer relu3
I0507 18:49:49.846771  6160 net.cpp:435] relu3 <- conv3
I0507 18:49:49.846776  6160 net.cpp:396] relu3 -> conv3 (in-place)
I0507 18:49:49.846781  6160 net.cpp:144] Setting up relu3
I0507 18:49:49.846786  6160 net.cpp:151] Top shape: 20 64 5 5 (32000)
I0507 18:49:49.846788  6160 net.cpp:159] Memory required for data: 2440080
I0507 18:49:49.846791  6160 layer_factory.hpp:77] Creating layer conv4
I0507 18:49:49.846799  6160 net.cpp:94] Creating Layer conv4
I0507 18:49:49.846803  6160 net.cpp:435] conv4 <- conv3
I0507 18:49:49.846807  6160 net.cpp:409] conv4 -> conv4
I0507 18:49:49.852594  6160 net.cpp:144] Setting up conv4
I0507 18:49:49.852609  6160 net.cpp:151] Top shape: 20 64 5 5 (32000)
I0507 18:49:49.852612  6160 net.cpp:159] Memory required for data: 2568080
I0507 18:49:49.852618  6160 layer_factory.hpp:77] Creating layer relu4
I0507 18:49:49.852624  6160 net.cpp:94] Creating Layer relu4
I0507 18:49:49.852628  6160 net.cpp:435] relu4 <- conv4
I0507 18:49:49.852632  6160 net.cpp:396] relu4 -> conv4 (in-place)
I0507 18:49:49.852639  6160 net.cpp:144] Setting up relu4
I0507 18:49:49.852643  6160 net.cpp:151] Top shape: 20 64 5 5 (32000)
I0507 18:49:49.852646  6160 net.cpp:159] Memory required for data: 2696080
I0507 18:49:49.852649  6160 layer_factory.hpp:77] Creating layer conv5
I0507 18:49:49.852656  6160 net.cpp:94] Creating Layer conv5
I0507 18:49:49.852660  6160 net.cpp:435] conv5 <- conv4
I0507 18:49:49.852664  6160 net.cpp:409] conv5 -> conv5
I0507 18:49:49.857075  6160 net.cpp:144] Setting up conv5
I0507 18:49:49.857089  6160 net.cpp:151] Top shape: 20 64 5 5 (32000)
I0507 18:49:49.857092  6160 net.cpp:159] Memory required for data: 2824080
I0507 18:49:49.857100  6160 layer_factory.hpp:77] Creating layer relu5
I0507 18:49:49.857105  6160 net.cpp:94] Creating Layer relu5
I0507 18:49:49.857110  6160 net.cpp:435] relu5 <- conv5
I0507 18:49:49.857113  6160 net.cpp:396] relu5 -> conv5 (in-place)
I0507 18:49:49.857120  6160 net.cpp:144] Setting up relu5
I0507 18:49:49.857125  6160 net.cpp:151] Top shape: 20 64 5 5 (32000)
I0507 18:49:49.857127  6160 net.cpp:159] Memory required for data: 2952080
I0507 18:49:49.857130  6160 layer_factory.hpp:77] Creating layer pool5
I0507 18:49:49.857134  6160 net.cpp:94] Creating Layer pool5
I0507 18:49:49.857137  6160 net.cpp:435] pool5 <- conv5
I0507 18:49:49.857141  6160 net.cpp:409] pool5 -> pool5
I0507 18:49:49.857177  6160 net.cpp:144] Setting up pool5
I0507 18:49:49.857184  6160 net.cpp:151] Top shape: 20 64 2 2 (5120)
I0507 18:49:49.857187  6160 net.cpp:159] Memory required for data: 2972560
I0507 18:49:49.857190  6160 layer_factory.hpp:77] Creating layer ip1
I0507 18:49:49.857197  6160 net.cpp:94] Creating Layer ip1
I0507 18:49:49.857200  6160 net.cpp:435] ip1 <- pool5
I0507 18:49:49.857204  6160 net.cpp:409] ip1 -> ip1
I0507 18:49:49.857731  6160 net.cpp:144] Setting up ip1
I0507 18:49:49.857739  6160 net.cpp:151] Top shape: 20 64 (1280)
I0507 18:49:49.857743  6160 net.cpp:159] Memory required for data: 2977680
I0507 18:49:49.857748  6160 layer_factory.hpp:77] Creating layer ip2
I0507 18:49:49.857753  6160 net.cpp:94] Creating Layer ip2
I0507 18:49:49.857756  6160 net.cpp:435] ip2 <- ip1
I0507 18:49:49.857762  6160 net.cpp:409] ip2 -> ip2
I0507 18:49:49.857993  6160 net.cpp:144] Setting up ip2
I0507 18:49:49.858000  6160 net.cpp:151] Top shape: 20 64 (1280)
I0507 18:49:49.858003  6160 net.cpp:159] Memory required for data: 2982800
I0507 18:49:49.858007  6160 layer_factory.hpp:77] Creating layer ip3
I0507 18:49:49.858014  6160 net.cpp:94] Creating Layer ip3
I0507 18:49:49.858017  6160 net.cpp:435] ip3 <- ip2
I0507 18:49:49.858022  6160 net.cpp:409] ip3 -> ip3
I0507 18:49:49.858227  6160 net.cpp:144] Setting up ip3
I0507 18:49:49.858233  6160 net.cpp:151] Top shape: 20 50 (1000)
I0507 18:49:49.858239  6160 net.cpp:159] Memory required for data: 2986800
I0507 18:49:49.858244  6160 layer_factory.hpp:77] Creating layer loss
I0507 18:49:49.858253  6160 net.cpp:94] Creating Layer loss
I0507 18:49:49.858256  6160 net.cpp:435] loss <- ip3
I0507 18:49:49.858259  6160 net.cpp:435] loss <- label
I0507 18:49:49.858263  6160 net.cpp:409] loss -> loss
I0507 18:49:49.858270  6160 layer_factory.hpp:77] Creating layer loss
…
I0507 18:49:49.859625  6160 solver.cpp:181] Creating test net (#0) specified by net file: ./protocol/dis_5_100_dimension.protocol_distribution
I0507 18:49:49.859652  6160 net.cpp:323] The NetState phase (1) differed from the phase (0) specified by a rule in layer parameters
I0507 18:49:49.859750  6160 net.cpp:52] Initializing net from parameters: 
state {
  phase: TEST
}
layer {
  name: "intercept"
  type: "HDF5Data"
  top: "data"
  top: "label"
  include {
    phase: TEST
  }
  hdf5_data_param {
    source: "/home/purduethu/scratch/radon/d/deng106/CNNStatisticalModel/distributions/input/5_distributions_100_sample_size_test-distributions-path.txt"
    batch_size: 20
  }
}
layer {
  name: "conv1"
  type: "Convolution"
  bottom: "data"
  top: "conv1"
  param {
    lr_mult: 1
  }
  param {
    lr_mult: 2
  }
  convolution_param {
    num_output: 64
    pad: 2
    kernel_size: 5
    stride: 1
    weight_filler {
      type: "gaussian"
      std: 0.0001
    }
    bias_filler {
      type: "constant"
    }
  }
}
layer {
  name: "relu1"
  type: "ReLU"
  bottom: "conv1"
  top: "conv1"
}
layer {
  name: "conv2"
  type: "Convolution"
  bottom: "conv1"
  top: "conv2"
  param {
    lr_mult: 1
  }
  param {
    lr_mult: 2
  }
  convolution_param {
    num_output: 64
    pad: 2
    kernel_size: 5
    stride: 1
    weight_filler {
      type: "gaussian"
      std: 0.01
    }
    bias_filler {
      type: "constant"
    }
  }
}
layer {
  name: "relu2"
  type: "ReLU"
  bottom: "conv2"
  top: "conv2"
}
layer {
  name: "pool2"
  type: "Pooling"
  bottom: "conv2"
  top: "pool2"
  pooling_param {
    pool: MAX
    kernel_size: 3
    stride: 2
  }
}
layer {
  name: "conv3"
  type: "Convolution"
  bottom: "pool2"
  top: "conv3"
  param {
    lr_mult: 1
  }
  param {
    lr_mult: 2
  }
  convolution_param {
    num_output: 64
    pad: 2
    kernel_size: 5
    stride: 1
    weight_filler {
      type: "gaussian"
      std: 0.01
    }
    bias_filler {
      type: "constant"
    }
  }
}
layer {
  name: "relu3"
  type: "ReLU"
  bottom: "conv3"
  top: "conv3"
}
layer {
  name: "conv4"
  type: "Convolution"
  bottom: "conv3"
  top: "conv4"
  param {
    lr_mult: 1
  }
  param {
    lr_mult: 2
  }
  convolution_param {
    num_output: 64
    pad: 2
    kernel_size: 5
    stride: 1
    weight_filler {
      type: "gaussian"
      std: 0.01
    }
    bias_filler {
      type: "constant"
    }
  }
}
layer {
  name: "relu4"
  type: "ReLU"
  bottom: "conv4"
  top: "conv4"
}
layer {
  name: "conv5"
  type: "Convolution"
  bottom: "conv4"
  top: "conv5"
  param {
    lr_mult: 1
  }
  param {
    lr_mult: 2
  }
  convolution_param {
    num_output: 64
    pad: 2
    kernel_size: 5
    stride: 1
    weight_filler {
      type: "gaussian"
      std: 0.01
    }
    bias_filler {
      type: "constant"
    }
  }
}
layer {
  name: "relu5"
  type: "ReLU"
  bottom: "conv5"
  top: "conv5"
}
layer {
  name: "pool5"
  type: "Pooling"
  bottom: "conv5"
  top: "pool5"
  pooling_param {
    pool: AVE
    kernel_size: 3
    stride: 2
  }
}
layer {
  name: "ip1"
  type: "InnerProduct"
  bottom: "pool5"
  top: "ip1"
  param {
    lr_mult: 1
  }
  param {
    lr_mult: 2
  }
  inner_product_param {
    num_output: 64
    weight_filler {
      type: "gaussian"
      std: 0.1
    }
    bias_filler {
      type: "constant"
    }
  }
}
layer {
  name: "ip2"
  type: "InnerProduct"
  bottom: "ip1"
  top: "ip2"
  param {
    lr_mult: 1
  }
  param {
    lr_mult: 2
  }
  inner_product_param {
    num_output: 64
    weight_filler {
      type: "gaussian"
      std: 0.1
    }
    bias_filler {
      type: "constant"
    }
  }
}
layer {
  name: "ip3"
  type: "InnerProduct"
  bottom: "ip2"
  top: "ip3"
  param {
    lr_mult: 1
  }
  param {
    lr_mult: 2
  }
  inner_product_param {
    num_output: 50
    weight_filler {
      type: "gaussian"
      std: 0.1
    }
    bias_filler {
      type: "constant"
    }
  }
}
layer {
  name: "accuracy"
  type: "Accuracy"
  bottom: "ip3"
  bottom: "label"
  top: "accuracy"
  include {
    phase: TEST
  }
}
layer {
  name: "loss"
  type: "SoftmaxWithLoss"
  bottom: "ip3"
  bottom: "label"
  top: "loss"
}
I0507 18:49:49.859820  6160 layer_factory.hpp:77] Creating layer intercept
I0507 18:49:49.859829  6160 net.cpp:94] Creating Layer intercept
I0507 18:49:49.859833  6160 net.cpp:409] intercept -> data
I0507 18:49:49.859840  6160 net.cpp:409] intercept -> label
I0507 18:49:49.859845  6160 hdf5_data_layer.cpp:79] Loading list of HDF5 filenames from: /home/purduethu/scratch/radon/d/deng106/CNNStatisticalModel/distributions/input/5_distributions_100_sample_size_test-distributions-path.txt
I0507 18:49:49.859864  6160 hdf5_data_layer.cpp:93] Number of HDF5 files: 1
I0507 18:49:49.864248  6160 net.cpp:144] Setting up intercept
I0507 18:49:49.864276  6160 net.cpp:151] Top shape: 20 1 10 10 (2000)
I0507 18:49:49.864281  6160 net.cpp:151] Top shape: 20 (20)
I0507 18:49:49.864284  6160 net.cpp:159] Memory required for data: 8080
I0507 18:49:49.864289  6160 layer_factory.hpp:77] Creating layer label_intercept_1_split
I0507 18:49:49.864305  6160 net.cpp:94] Creating Layer label_intercept_1_split
I0507 18:49:49.864310  6160 net.cpp:435] label_intercept_1_split <- label
I0507 18:49:49.864315  6160 net.cpp:409] label_intercept_1_split -> label_intercept_1_split_0
I0507 18:49:49.864322  6160 net.cpp:409] label_intercept_1_split -> label_intercept_1_split_1
I0507 18:49:49.864364  6160 net.cpp:144] Setting up label_intercept_1_split
I0507 18:49:49.864370  6160 net.cpp:151] Top shape: 20 (20)
I0507 18:49:49.864373  6160 net.cpp:151] Top shape: 20 (20)
I0507 18:49:49.864377  6160 net.cpp:159] Memory required for data: 8240
I0507 18:49:49.864379  6160 layer_factory.hpp:77] Creating layer conv1
I0507 18:49:49.864389  6160 net.cpp:94] Creating Layer conv1
I0507 18:49:49.864393  6160 net.cpp:435] conv1 <- data
I0507 18:49:49.864398  6160 net.cpp:409] conv1 -> conv1
I0507 18:49:49.865157  6160 net.cpp:144] Setting up conv1
I0507 18:49:49.865171  6160 net.cpp:151] Top shape: 20 64 10 10 (128000)
I0507 18:49:49.865175  6160 net.cpp:159] Memory required for data: 520240
I0507 18:49:49.865190  6160 layer_factory.hpp:77] Creating layer relu1
I0507 18:49:49.865197  6160 net.cpp:94] Creating Layer relu1
I0507 18:49:49.865201  6160 net.cpp:435] relu1 <- conv1
I0507 18:49:49.865206  6160 net.cpp:396] relu1 -> conv1 (in-place)
I0507 18:49:49.865212  6160 net.cpp:144] Setting up relu1
I0507 18:49:49.865216  6160 net.cpp:151] Top shape: 20 64 10 10 (128000)
I0507 18:49:49.865219  6160 net.cpp:159] Memory required for data: 1032240
I0507 18:49:49.865222  6160 layer_factory.hpp:77] Creating layer conv2
I0507 18:49:49.865229  6160 net.cpp:94] Creating Layer conv2
I0507 18:49:49.865233  6160 net.cpp:435] conv2 <- conv1
I0507 18:49:49.865237  6160 net.cpp:409] conv2 -> conv2
I0507 18:49:49.869249  6160 net.cpp:144] Setting up conv2
I0507 18:49:49.869262  6160 net.cpp:151] Top shape: 20 64 10 10 (128000)
I0507 18:49:49.869266  6160 net.cpp:159] Memory required for data: 1544240
I0507 18:49:49.869273  6160 layer_factory.hpp:77] Creating layer relu2
I0507 18:49:49.869279  6160 net.cpp:94] Creating Layer relu2
I0507 18:49:49.869282  6160 net.cpp:435] relu2 <- conv2
I0507 18:49:49.869287  6160 net.cpp:396] relu2 -> conv2 (in-place)
I0507 18:49:49.869293  6160 net.cpp:144] Setting up relu2
I0507 18:49:49.869298  6160 net.cpp:151] Top shape: 20 64 10 10 (128000)
I0507 18:49:49.869300  6160 net.cpp:159] Memory required for data: 2056240
I0507 18:49:49.869303  6160 layer_factory.hpp:77] Creating layer pool2
I0507 18:49:49.869308  6160 net.cpp:94] Creating Layer pool2
I0507 18:49:49.869312  6160 net.cpp:435] pool2 <- conv2
I0507 18:49:49.869315  6160 net.cpp:409] pool2 -> pool2
I0507 18:49:49.869369  6160 net.cpp:144] Setting up pool2
I0507 18:49:49.869376  6160 net.cpp:151] Top shape: 20 64 5 5 (32000)
I0507 18:49:49.869379  6160 net.cpp:159] Memory required for data: 2184240
I0507 18:49:49.869382  6160 layer_factory.hpp:77] Creating layer conv3
I0507 18:49:49.869390  6160 net.cpp:94] Creating Layer conv3
I0507 18:49:49.869393  6160 net.cpp:435] conv3 <- pool2
I0507 18:49:49.869397  6160 net.cpp:409] conv3 -> conv3
I0507 18:49:49.872928  6160 net.cpp:144] Setting up conv3
I0507 18:49:49.872942  6160 net.cpp:151] Top shape: 20 64 5 5 (32000)
I0507 18:49:49.872946  6160 net.cpp:159] Memory required for data: 2312240
I0507 18:49:49.872953  6160 layer_factory.hpp:77] Creating layer relu3
I0507 18:49:49.872959  6160 net.cpp:94] Creating Layer relu3
I0507 18:49:49.872963  6160 net.cpp:435] relu3 <- conv3
I0507 18:49:49.872967  6160 net.cpp:396] relu3 -> conv3 (in-place)
I0507 18:49:49.872974  6160 net.cpp:144] Setting up relu3
I0507 18:49:49.872978  6160 net.cpp:151] Top shape: 20 64 5 5 (32000)
I0507 18:49:49.872982  6160 net.cpp:159] Memory required for data: 2440240
I0507 18:49:49.872984  6160 layer_factory.hpp:77] Creating layer conv4
I0507 18:49:49.872992  6160 net.cpp:94] Creating Layer conv4
I0507 18:49:49.872994  6160 net.cpp:435] conv4 <- conv3
I0507 18:49:49.872999  6160 net.cpp:409] conv4 -> conv4
I0507 18:49:49.876472  6160 net.cpp:144] Setting up conv4
I0507 18:49:49.876485  6160 net.cpp:151] Top shape: 20 64 5 5 (32000)
I0507 18:49:49.876488  6160 net.cpp:159] Memory required for data: 2568240
I0507 18:49:49.876494  6160 layer_factory.hpp:77] Creating layer relu4
I0507 18:49:49.876500  6160 net.cpp:94] Creating Layer relu4
I0507 18:49:49.876503  6160 net.cpp:435] relu4 <- conv4
I0507 18:49:49.876508  6160 net.cpp:396] relu4 -> conv4 (in-place)
I0507 18:49:49.876514  6160 net.cpp:144] Setting up relu4
I0507 18:49:49.876518  6160 net.cpp:151] Top shape: 20 64 5 5 (32000)
I0507 18:49:49.876521  6160 net.cpp:159] Memory required for data: 2696240
I0507 18:49:49.876524  6160 layer_factory.hpp:77] Creating layer conv5
I0507 18:49:49.876531  6160 net.cpp:94] Creating Layer conv5
I0507 18:49:49.876534  6160 net.cpp:435] conv5 <- conv4
I0507 18:49:49.876539  6160 net.cpp:409] conv5 -> conv5
I0507 18:49:49.881304  6160 net.cpp:144] Setting up conv5
I0507 18:49:49.881319  6160 net.cpp:151] Top shape: 20 64 5 5 (32000)
I0507 18:49:49.881322  6160 net.cpp:159] Memory required for data: 2824240
I0507 18:49:49.881336  6160 layer_factory.hpp:77] Creating layer relu5
I0507 18:49:49.881343  6160 net.cpp:94] Creating Layer relu5
I0507 18:49:49.881346  6160 net.cpp:435] relu5 <- conv5
I0507 18:49:49.881351  6160 net.cpp:396] relu5 -> conv5 (in-place)
I0507 18:49:49.881357  6160 net.cpp:144] Setting up relu5
I0507 18:49:49.881361  6160 net.cpp:151] Top shape: 20 64 5 5 (32000)
I0507 18:49:49.881364  6160 net.cpp:159] Memory required for data: 2952240
I0507 18:49:49.881367  6160 layer_factory.hpp:77] Creating layer pool5
I0507 18:49:49.881372  6160 net.cpp:94] Creating Layer pool5
I0507 18:49:49.881376  6160 net.cpp:435] pool5 <- conv5
I0507 18:49:49.881379  6160 net.cpp:409] pool5 -> pool5
I0507 18:49:49.881417  6160 net.cpp:144] Setting up pool5
I0507 18:49:49.881423  6160 net.cpp:151] Top shape: 20 64 2 2 (5120)
I0507 18:49:49.881427  6160 net.cpp:159] Memory required for data: 2972720
I0507 18:49:49.881429  6160 layer_factory.hpp:77] Creating layer ip1
I0507 18:49:49.881435  6160 net.cpp:94] Creating Layer ip1
I0507 18:49:49.881438  6160 net.cpp:435] ip1 <- pool5
I0507 18:49:49.881443  6160 net.cpp:409] ip1 -> ip1
I0507 18:49:49.881973  6160 net.cpp:144] Setting up ip1
I0507 18:49:49.881980  6160 net.cpp:151] Top shape: 20 64 (1280)
I0507 18:49:49.881983  6160 net.cpp:159] Memory required for data: 2977840
I0507 18:49:49.881989  6160 layer_factory.hpp:77] Creating layer ip2
I0507 18:49:49.881994  6160 net.cpp:94] Creating Layer ip2
I0507 18:49:49.881996  6160 net.cpp:435] ip2 <- ip1
I0507 18:49:49.882001  6160 net.cpp:409] ip2 -> ip2
I0507 18:49:49.882221  6160 net.cpp:144] Setting up ip2
I0507 18:49:49.882228  6160 net.cpp:151] Top shape: 20 64 (1280)
I0507 18:49:49.882231  6160 net.cpp:159] Memory required for data: 2982960
I0507 18:49:49.882236  6160 layer_factory.hpp:77] Creating layer ip3
I0507 18:49:49.882242  6160 net.cpp:94] Creating Layer ip3
I0507 18:49:49.882246  6160 net.cpp:435] ip3 <- ip2
I0507 18:49:49.882251  6160 net.cpp:409] ip3 -> ip3
I0507 18:49:49.882444  6160 net.cpp:144] Setting up ip3
I0507 18:49:49.882450  6160 net.cpp:151] Top shape: 20 50 (1000)
I0507 18:49:49.882453  6160 net.cpp:159] Memory required for data: 2986960
I0507 18:49:49.882458  6160 layer_factory.hpp:77] Creating layer ip3_ip3_0_split
I0507 18:49:49.882463  6160 net.cpp:94] Creating Layer ip3_ip3_0_split
I0507 18:49:49.882467  6160 net.cpp:435] ip3_ip3_0_split <- ip3
I0507 18:49:49.882470  6160 net.cpp:409] ip3_ip3_0_split -> ip3_ip3_0_split_0
I0507 18:49:49.882475  6160 net.cpp:409] ip3_ip3_0_split -> ip3_ip3_0_split_1
I0507 18:49:49.882514  6160 net.cpp:144] Setting up ip3_ip3_0_split
I0507 18:49:49.882520  6160 net.cpp:151] Top shape: 20 50 (1000)
I0507 18:49:49.882524  6160 net.cpp:151] Top shape: 20 50 (1000)
I0507 18:49:49.882526  6160 net.cpp:159] Memory required for data: 2994960
I0507 18:49:49.882529  6160 layer_factory.hpp:77] Creating layer accuracy
I0507 18:49:49.882534  6160 net.cpp:94] Creating Layer accuracy
I0507 18:49:49.882537  6160 net.cpp:435] accuracy <- ip3_ip3_0_split_0
I0507 18:49:49.882541  6160 net.cpp:435] accuracy <- label_intercept_1_split_0
I0507 18:49:49.882545  6160 net.cpp:409] accuracy -> accuracy
…
