…
I0506 03:09:45.984607 12552 net.cpp:323] The NetState phase (0) differed from the phase (1) specified by a rule in layer intercept
I0506 03:09:45.984624 12552 net.cpp:323] The NetState phase (0) differed from the phase (1) specified by a rule in layer loss
I0506 03:09:45.984702 12552 net.cpp:52] Initializing net from parameters: 
state {
  phase: TRAIN
}
layer {
  name: "parameters"
  type: "HDF5Data"
  top: "data"
  top: "label"
  include {
    phase: TRAIN
  }
  hdf5_data_param {
    source: "/home/purduethu/scratch/radon/d/deng106/CNNStatisticalModel/distributions/input/50_distributions_100_sample_size_train-parameters-path.txt"
    batch_size: 20
  }
}
layer {
  name: "conv1"
  type: "Convolution"
  bottom: "data"
  top: "conv1"
  param {
    lr_mult: 1
  }
  param {
    lr_mult: 2
  }
  convolution_param {
    num_output: 64
    pad: 2
    kernel_size: 5
    stride: 1
    weight_filler {
      type: "gaussian"
      std: 0.0001
    }
    bias_filler {
      type: "constant"
    }
  }
}
layer {
  name: "relu1"
  type: "ReLU"
  bottom: "conv1"
  top: "conv1"
}
layer {
  name: "conv2"
  type: "Convolution"
  bottom: "conv1"
  top: "conv2"
  param {
    lr_mult: 1
  }
  param {
    lr_mult: 2
  }
  convolution_param {
    num_output: 64
    pad: 2
    kernel_size: 5
    stride: 1
    weight_filler {
      type: "gaussian"
      std: 0.01
    }
    bias_filler {
      type: "constant"
    }
  }
}
layer {
  name: "relu2"
  type: "ReLU"
  bottom: "conv2"
  top: "conv2"
}
layer {
  name: "pool2"
  type: "Pooling"
  bottom: "conv2"
  top: "pool2"
  pooling_param {
    pool: MAX
    kernel_size: 3
    stride: 2
  }
}
layer {
  name: "conv3"
  type: "Convolution"
  bottom: "pool2"
  top: "conv3"
  param {
    lr_mult: 1
  }
  param {
    lr_mult: 2
  }
  convolution_param {
    num_output: 128
    pad: 2
    kernel_size: 5
    stride: 1
    weight_filler {
      type: "gaussian"
      std: 0.01
    }
    bias_filler {
      type: "constant"
    }
  }
}
layer {
  name: "relu3"
  type: "ReLU"
  bottom: "conv3"
  top: "conv3"
}
layer {
  name: "conv4"
  type: "Convolution"
  bottom: "conv3"
  top: "conv4"
  param {
    lr_mult: 1
  }
  param {
    lr_mult: 2
  }
  convolution_param {
    num_output: 128
    pad: 2
    kernel_size: 5
    stride: 1
    weight_filler {
      type: "gaussian"
      std: 0.01
    }
    bias_filler {
      type: "constant"
    }
  }
}
layer {
  name: "relu4"
  type: "ReLU"
  bottom: "conv4"
  top: "conv4"
}
layer {
  name: "conv5"
  type: "Convolution"
  bottom: "conv4"
  top: "conv5"
  param {
    lr_mult: 1
  }
  param {
    lr_mult: 2
  }
  convolution_param {
    num_output: 128
    pad: 2
    kernel_size: 5
    stride: 1
    weight_filler {
      type: "gaussian"
      std: 0.01
    }
    bias_filler {
      type: "constant"
    }
  }
}
layer {
  name: "relu5"
  type: "ReLU"
  bottom: "conv5"
  top: "conv5"
}
layer {
  name: "pool5"
  type: "Pooling"
  bottom: "conv5"
  top: "pool5"
  pooling_param {
    pool: AVE
    kernel_size: 3
    stride: 2
  }
}
layer {
  name: "ip1"
  type: "InnerProduct"
  bottom: "pool5"
  top: "ip1"
  param {
    lr_mult: 1
  }
  param {
    lr_mult: 2
  }
  inner_product_param {
    num_output: 1024
    weight_filler {
      type: "gaussian"
      std: 0.1
    }
    bias_filler {
      type: "constant"
    }
  }
}
layer {
  name: "ip2"
  type: "InnerProduct"
  bottom: "ip1"
  top: "ip2"
  param {
    lr_mult: 1
  }
  param {
    lr_mult: 2
  }
  inner_product_param {
    num_output: 512
    weight_filler {
      type: "gaussian"
      std: 0.1
    }
    bias_filler {
      type: "constant"
    }
  }
}
layer {
  name: "ip3"
  type: "InnerProduct"
  bottom: "ip2"
  top: "ip3"
  param {
    lr_mult: 1
  }
  param {
    lr_mult: 2
  }
  inner_product_param {
    num_output: 1
    weight_filler {
      type: "gaussian"
      std: 0.1
    }
    bias_filler {
      type: "constant"
    }
  }
}
layer {
  name: "loss"
  type: "HuberLoss"
  bottom: "ip3"
  bottom: "label"
  top: "loss"
  include {
    phase: TRAIN
  }
}
I0506 03:09:45.984755 12552 layer_factory.hpp:77] Creating layer parameters
I0506 03:09:45.984769 12552 net.cpp:94] Creating Layer parameters
I0506 03:09:45.984773 12552 net.cpp:409] parameters -> data
I0506 03:09:45.984783 12552 net.cpp:409] parameters -> label
I0506 03:09:45.984791 12552 hdf5_data_layer.cpp:79] Loading list of HDF5 filenames from: /home/purduethu/scratch/radon/d/deng106/CNNStatisticalModel/distributions/input/50_distributions_100_sample_size_train-parameters-path.txt
I0506 03:09:45.984805 12552 hdf5_data_layer.cpp:93] Number of HDF5 files: 1
I0506 03:09:45.985211 12552 hdf5.cpp:32] Datatype class: H5T_FLOAT
I0506 03:09:46.144781 12552 net.cpp:144] Setting up parameters
I0506 03:09:46.144814 12552 net.cpp:151] Top shape: 20 1 10 10 (2000)
I0506 03:09:46.144820 12552 net.cpp:151] Top shape: 20 (20)
I0506 03:09:46.144824 12552 net.cpp:159] Memory required for data: 8080
I0506 03:09:46.144830 12552 layer_factory.hpp:77] Creating layer conv1
I0506 03:09:46.144853 12552 net.cpp:94] Creating Layer conv1
I0506 03:09:46.144858 12552 net.cpp:435] conv1 <- data
I0506 03:09:46.144865 12552 net.cpp:409] conv1 -> conv1
I0506 03:09:46.149104 12552 net.cpp:144] Setting up conv1
I0506 03:09:46.149119 12552 net.cpp:151] Top shape: 20 64 10 10 (128000)
I0506 03:09:46.149123 12552 net.cpp:159] Memory required for data: 520080
I0506 03:09:46.149133 12552 layer_factory.hpp:77] Creating layer relu1
I0506 03:09:46.149140 12552 net.cpp:94] Creating Layer relu1
I0506 03:09:46.149144 12552 net.cpp:435] relu1 <- conv1
I0506 03:09:46.149148 12552 net.cpp:396] relu1 -> conv1 (in-place)
I0506 03:09:46.149163 12552 net.cpp:144] Setting up relu1
I0506 03:09:46.149168 12552 net.cpp:151] Top shape: 20 64 10 10 (128000)
I0506 03:09:46.149170 12552 net.cpp:159] Memory required for data: 1032080
I0506 03:09:46.149173 12552 layer_factory.hpp:77] Creating layer conv2
I0506 03:09:46.149181 12552 net.cpp:94] Creating Layer conv2
I0506 03:09:46.149185 12552 net.cpp:435] conv2 <- conv1
I0506 03:09:46.149190 12552 net.cpp:409] conv2 -> conv2
I0506 03:09:46.155565 12552 net.cpp:144] Setting up conv2
I0506 03:09:46.155601 12552 net.cpp:151] Top shape: 20 64 10 10 (128000)
I0506 03:09:46.155612 12552 net.cpp:159] Memory required for data: 1544080
I0506 03:09:46.155634 12552 layer_factory.hpp:77] Creating layer relu2
I0506 03:09:46.155652 12552 net.cpp:94] Creating Layer relu2
I0506 03:09:46.155663 12552 net.cpp:435] relu2 <- conv2
I0506 03:09:46.155675 12552 net.cpp:396] relu2 -> conv2 (in-place)
I0506 03:09:46.155694 12552 net.cpp:144] Setting up relu2
I0506 03:09:46.155707 12552 net.cpp:151] Top shape: 20 64 10 10 (128000)
I0506 03:09:46.155715 12552 net.cpp:159] Memory required for data: 2056080
I0506 03:09:46.155725 12552 layer_factory.hpp:77] Creating layer pool2
I0506 03:09:46.155737 12552 net.cpp:94] Creating Layer pool2
I0506 03:09:46.155747 12552 net.cpp:435] pool2 <- conv2
I0506 03:09:46.155760 12552 net.cpp:409] pool2 -> pool2
I0506 03:09:46.155910 12552 net.cpp:144] Setting up pool2
I0506 03:09:46.155930 12552 net.cpp:151] Top shape: 20 64 5 5 (32000)
I0506 03:09:46.155938 12552 net.cpp:159] Memory required for data: 2184080
I0506 03:09:46.155948 12552 layer_factory.hpp:77] Creating layer conv3
I0506 03:09:46.155967 12552 net.cpp:94] Creating Layer conv3
I0506 03:09:46.155989 12552 net.cpp:435] conv3 <- pool2
I0506 03:09:46.155994 12552 net.cpp:409] conv3 -> conv3
I0506 03:09:46.164397 12552 net.cpp:144] Setting up conv3
I0506 03:09:46.164409 12552 net.cpp:151] Top shape: 20 128 5 5 (64000)
I0506 03:09:46.164413 12552 net.cpp:159] Memory required for data: 2440080
I0506 03:09:46.164422 12552 layer_factory.hpp:77] Creating layer relu3
I0506 03:09:46.164427 12552 net.cpp:94] Creating Layer relu3
I0506 03:09:46.164432 12552 net.cpp:435] relu3 <- conv3
I0506 03:09:46.164435 12552 net.cpp:396] relu3 -> conv3 (in-place)
I0506 03:09:46.164443 12552 net.cpp:144] Setting up relu3
I0506 03:09:46.164448 12552 net.cpp:151] Top shape: 20 128 5 5 (64000)
I0506 03:09:46.164450 12552 net.cpp:159] Memory required for data: 2696080
I0506 03:09:46.164453 12552 layer_factory.hpp:77] Creating layer conv4
I0506 03:09:46.164461 12552 net.cpp:94] Creating Layer conv4
I0506 03:09:46.164464 12552 net.cpp:435] conv4 <- conv3
I0506 03:09:46.164469 12552 net.cpp:409] conv4 -> conv4
I0506 03:09:46.180001 12552 net.cpp:144] Setting up conv4
I0506 03:09:46.180014 12552 net.cpp:151] Top shape: 20 128 5 5 (64000)
I0506 03:09:46.180018 12552 net.cpp:159] Memory required for data: 2952080
I0506 03:09:46.180024 12552 layer_factory.hpp:77] Creating layer relu4
I0506 03:09:46.180030 12552 net.cpp:94] Creating Layer relu4
I0506 03:09:46.180033 12552 net.cpp:435] relu4 <- conv4
I0506 03:09:46.180038 12552 net.cpp:396] relu4 -> conv4 (in-place)
I0506 03:09:46.180045 12552 net.cpp:144] Setting up relu4
I0506 03:09:46.180049 12552 net.cpp:151] Top shape: 20 128 5 5 (64000)
I0506 03:09:46.180052 12552 net.cpp:159] Memory required for data: 3208080
I0506 03:09:46.180055 12552 layer_factory.hpp:77] Creating layer conv5
I0506 03:09:46.180063 12552 net.cpp:94] Creating Layer conv5
I0506 03:09:46.180066 12552 net.cpp:435] conv5 <- conv4
I0506 03:09:46.180071 12552 net.cpp:409] conv5 -> conv5
I0506 03:09:46.194818 12552 net.cpp:144] Setting up conv5
I0506 03:09:46.194833 12552 net.cpp:151] Top shape: 20 128 5 5 (64000)
I0506 03:09:46.194838 12552 net.cpp:159] Memory required for data: 3464080
I0506 03:09:46.194846 12552 layer_factory.hpp:77] Creating layer relu5
I0506 03:09:46.194852 12552 net.cpp:94] Creating Layer relu5
I0506 03:09:46.194855 12552 net.cpp:435] relu5 <- conv5
I0506 03:09:46.194860 12552 net.cpp:396] relu5 -> conv5 (in-place)
I0506 03:09:46.194867 12552 net.cpp:144] Setting up relu5
I0506 03:09:46.194871 12552 net.cpp:151] Top shape: 20 128 5 5 (64000)
I0506 03:09:46.194875 12552 net.cpp:159] Memory required for data: 3720080
I0506 03:09:46.194878 12552 layer_factory.hpp:77] Creating layer pool5
I0506 03:09:46.194883 12552 net.cpp:94] Creating Layer pool5
I0506 03:09:46.194886 12552 net.cpp:435] pool5 <- conv5
I0506 03:09:46.194890 12552 net.cpp:409] pool5 -> pool5
I0506 03:09:46.194936 12552 net.cpp:144] Setting up pool5
I0506 03:09:46.194944 12552 net.cpp:151] Top shape: 20 128 2 2 (10240)
I0506 03:09:46.194947 12552 net.cpp:159] Memory required for data: 3761040
I0506 03:09:46.194950 12552 layer_factory.hpp:77] Creating layer ip1
I0506 03:09:46.194960 12552 net.cpp:94] Creating Layer ip1
I0506 03:09:46.194964 12552 net.cpp:435] ip1 <- pool5
I0506 03:09:46.194969 12552 net.cpp:409] ip1 -> ip1
I0506 03:09:46.208700 12552 net.cpp:144] Setting up ip1
I0506 03:09:46.208714 12552 net.cpp:151] Top shape: 20 1024 (20480)
I0506 03:09:46.208719 12552 net.cpp:159] Memory required for data: 3842960
I0506 03:09:46.208724 12552 layer_factory.hpp:77] Creating layer ip2
I0506 03:09:46.208731 12552 net.cpp:94] Creating Layer ip2
I0506 03:09:46.208735 12552 net.cpp:435] ip2 <- ip1
I0506 03:09:46.208740 12552 net.cpp:409] ip2 -> ip2
I0506 03:09:46.221715 12552 net.cpp:144] Setting up ip2
I0506 03:09:46.221729 12552 net.cpp:151] Top shape: 20 512 (10240)
I0506 03:09:46.221732 12552 net.cpp:159] Memory required for data: 3883920
I0506 03:09:46.221738 12552 layer_factory.hpp:77] Creating layer ip3
I0506 03:09:46.221745 12552 net.cpp:94] Creating Layer ip3
I0506 03:09:46.221750 12552 net.cpp:435] ip3 <- ip2
I0506 03:09:46.221760 12552 net.cpp:409] ip3 -> ip3
I0506 03:09:46.221882 12552 net.cpp:144] Setting up ip3
I0506 03:09:46.221890 12552 net.cpp:151] Top shape: 20 1 (20)
I0506 03:09:46.221894 12552 net.cpp:159] Memory required for data: 3884000
I0506 03:09:46.221899 12552 layer_factory.hpp:77] Creating layer loss
I0506 03:09:46.221906 12552 net.cpp:94] Creating Layer loss
I0506 03:09:46.221910 12552 net.cpp:435] loss <- ip3
I0506 03:09:46.221915 12552 net.cpp:435] loss <- label
I0506 03:09:46.221918 12552 net.cpp:409] loss -> loss
I0506 03:09:46.221971 12552 net.cpp:144] Setting up loss
…
I0506 03:09:46.327831 12552 net.cpp:323] The NetState phase (0) differed from the phase (1) specified by a rule in layer intercept
I0506 03:09:46.327847 12552 net.cpp:323] The NetState phase (0) differed from the phase (1) specified by a rule in layer accuracy
I0506 03:09:46.327930 12552 net.cpp:52] Initializing net from parameters: 
state {
  phase: TRAIN
}
layer {
  name: "parameters"
  type: "HDF5Data"
  top: "data"
  top: "label"
  include {
    phase: TRAIN
  }
  hdf5_data_param {
    source: "/home/purduethu/scratch/radon/d/deng106/CNNStatisticalModel/distributions/input/50_distributions_100_sample_size_train-distributions-path.txt"
    batch_size: 20
  }
}
layer {
  name: "conv1"
  type: "Convolution"
  bottom: "data"
  top: "conv1"
  param {
    lr_mult: 1
  }
  param {
    lr_mult: 2
  }
  convolution_param {
    num_output: 64
    pad: 2
    kernel_size: 5
    stride: 1
    weight_filler {
      type: "gaussian"
      std: 0.0001
    }
    bias_filler {
      type: "constant"
    }
  }
}
layer {
  name: "relu1"
  type: "ReLU"
  bottom: "conv1"
  top: "conv1"
}
layer {
  name: "conv2"
  type: "Convolution"
  bottom: "conv1"
  top: "conv2"
  param {
    lr_mult: 1
  }
  param {
    lr_mult: 2
  }
  convolution_param {
    num_output: 64
    pad: 2
    kernel_size: 5
    stride: 1
    weight_filler {
      type: "gaussian"
      std: 0.01
    }
    bias_filler {
      type: "constant"
    }
  }
}
layer {
  name: "relu2"
  type: "ReLU"
  bottom: "conv2"
  top: "conv2"
}
layer {
  name: "pool2"
  type: "Pooling"
  bottom: "conv2"
  top: "pool2"
  pooling_param {
    pool: MAX
    kernel_size: 3
    stride: 2
  }
}
layer {
  name: "conv3"
  type: "Convolution"
  bottom: "pool2"
  top: "conv3"
  param {
    lr_mult: 1
  }
  param {
    lr_mult: 2
  }
  convolution_param {
    num_output: 128
    pad: 2
    kernel_size: 5
    stride: 1
    weight_filler {
      type: "gaussian"
      std: 0.01
    }
    bias_filler {
      type: "constant"
    }
  }
}
layer {
  name: "relu3"
  type: "ReLU"
  bottom: "conv3"
  top: "conv3"
}
layer {
  name: "conv4"
  type: "Convolution"
  bottom: "conv3"
  top: "conv4"
  param {
    lr_mult: 1
  }
  param {
    lr_mult: 2
  }
  convolution_param {
    num_output: 128
    pad: 2
    kernel_size: 5
    stride: 1
    weight_filler {
      type: "gaussian"
      std: 0.01
    }
    bias_filler {
      type: "constant"
    }
  }
}
layer {
  name: "relu4"
  type: "ReLU"
  bottom: "conv4"
  top: "conv4"
}
layer {
  name: "conv5"
  type: "Convolution"
  bottom: "conv4"
  top: "conv5"
  param {
    lr_mult: 1
  }
  param {
    lr_mult: 2
  }
  convolution_param {
    num_output: 128
    pad: 2
    kernel_size: 5
    stride: 1
    weight_filler {
      type: "gaussian"
      std: 0.01
    }
    bias_filler {
      type: "constant"
    }
  }
}
layer {
  name: "relu5"
  type: "ReLU"
  bottom: "conv5"
  top: "conv5"
}
layer {
  name: "pool5"
  type: "Pooling"
  bottom: "conv5"
  top: "pool5"
  pooling_param {
    pool: AVE
    kernel_size: 3
    stride: 2
  }
}
layer {
  name: "ip1"
  type: "InnerProduct"
  bottom: "pool5"
  top: "ip1"
  param {
    lr_mult: 1
  }
  param {
    lr_mult: 2
  }
  inner_product_param {
    num_output: 1024
    weight_filler {
      type: "gaussian"
      std: 0.1
    }
    bias_filler {
      type: "constant"
    }
  }
}
layer {
  name: "ip2"
  type: "InnerProduct"
  bottom: "ip1"
  top: "ip2"
  param {
    lr_mult: 1
  }
  param {
    lr_mult: 2
  }
  inner_product_param {
    num_output: 512
    weight_filler {
      type: "gaussian"
      std: 0.1
    }
    bias_filler {
      type: "constant"
    }
  }
}
layer {
  name: "ip3"
  type: "InnerProduct"
  bottom: "ip2"
  top: "ip3"
  param {
    lr_mult: 1
  }
  param {
    lr_mult: 2
  }
  inner_product_param {
    num_output: 50
    weight_filler {
      type: "gaussian"
      std: 0.1
    }
    bias_filler {
      type: "constant"
    }
  }
}
layer {
  name: "loss"
  type: "SoftmaxWithLoss"
  bottom: "ip3"
  bottom: "label"
  top: "loss"
}
I0506 03:09:46.327981 12552 layer_factory.hpp:77] Creating layer parameters
I0506 03:09:46.327991 12552 net.cpp:94] Creating Layer parameters
I0506 03:09:46.327994 12552 net.cpp:409] parameters -> data
I0506 03:09:46.328001 12552 net.cpp:409] parameters -> label
I0506 03:09:46.328007 12552 hdf5_data_layer.cpp:79] Loading list of HDF5 filenames from: /home/purduethu/scratch/radon/d/deng106/CNNStatisticalModel/distributions/input/50_distributions_100_sample_size_train-distributions-path.txt
I0506 03:09:46.328023 12552 hdf5_data_layer.cpp:93] Number of HDF5 files: 1
I0506 03:09:46.482411 12552 hdf5.cpp:35] Datatype class: H5T_INTEGER
I0506 03:09:46.485427 12552 net.cpp:144] Setting up parameters
I0506 03:09:46.485443 12552 net.cpp:151] Top shape: 20 1 10 10 (2000)
I0506 03:09:46.485448 12552 net.cpp:151] Top shape: 20 (20)
I0506 03:09:46.485452 12552 net.cpp:159] Memory required for data: 8080
I0506 03:09:46.485458 12552 layer_factory.hpp:77] Creating layer conv1
I0506 03:09:46.485474 12552 net.cpp:94] Creating Layer conv1
I0506 03:09:46.485479 12552 net.cpp:435] conv1 <- data
I0506 03:09:46.485486 12552 net.cpp:409] conv1 -> conv1
I0506 03:09:46.487357 12552 net.cpp:144] Setting up conv1
I0506 03:09:46.487370 12552 net.cpp:151] Top shape: 20 64 10 10 (128000)
I0506 03:09:46.487375 12552 net.cpp:159] Memory required for data: 520080
I0506 03:09:46.487385 12552 layer_factory.hpp:77] Creating layer relu1
I0506 03:09:46.487391 12552 net.cpp:94] Creating Layer relu1
I0506 03:09:46.487395 12552 net.cpp:435] relu1 <- conv1
I0506 03:09:46.487399 12552 net.cpp:396] relu1 -> conv1 (in-place)
I0506 03:09:46.487407 12552 net.cpp:144] Setting up relu1
I0506 03:09:46.487411 12552 net.cpp:151] Top shape: 20 64 10 10 (128000)
I0506 03:09:46.487414 12552 net.cpp:159] Memory required for data: 1032080
I0506 03:09:46.487417 12552 layer_factory.hpp:77] Creating layer conv2
I0506 03:09:46.487424 12552 net.cpp:94] Creating Layer conv2
I0506 03:09:46.487428 12552 net.cpp:435] conv2 <- conv1
I0506 03:09:46.487432 12552 net.cpp:409] conv2 -> conv2
I0506 03:09:46.493101 12552 net.cpp:144] Setting up conv2
I0506 03:09:46.493114 12552 net.cpp:151] Top shape: 20 64 10 10 (128000)
I0506 03:09:46.493119 12552 net.cpp:159] Memory required for data: 1544080
I0506 03:09:46.493125 12552 layer_factory.hpp:77] Creating layer relu2
I0506 03:09:46.493132 12552 net.cpp:94] Creating Layer relu2
I0506 03:09:46.493136 12552 net.cpp:435] relu2 <- conv2
I0506 03:09:46.493140 12552 net.cpp:396] relu2 -> conv2 (in-place)
I0506 03:09:46.493147 12552 net.cpp:144] Setting up relu2
I0506 03:09:46.493151 12552 net.cpp:151] Top shape: 20 64 10 10 (128000)
I0506 03:09:46.493155 12552 net.cpp:159] Memory required for data: 2056080
I0506 03:09:46.493157 12552 layer_factory.hpp:77] Creating layer pool2
I0506 03:09:46.493165 12552 net.cpp:94] Creating Layer pool2
I0506 03:09:46.493167 12552 net.cpp:435] pool2 <- conv2
I0506 03:09:46.493171 12552 net.cpp:409] pool2 -> pool2
I0506 03:09:46.493228 12552 net.cpp:144] Setting up pool2
I0506 03:09:46.493237 12552 net.cpp:151] Top shape: 20 64 5 5 (32000)
I0506 03:09:46.493239 12552 net.cpp:159] Memory required for data: 2184080
I0506 03:09:46.493242 12552 layer_factory.hpp:77] Creating layer conv3
I0506 03:09:46.493250 12552 net.cpp:94] Creating Layer conv3
I0506 03:09:46.493253 12552 net.cpp:435] conv3 <- pool2
I0506 03:09:46.493258 12552 net.cpp:409] conv3 -> conv3
I0506 03:09:46.502045 12552 net.cpp:144] Setting up conv3
I0506 03:09:46.502080 12552 net.cpp:151] Top shape: 20 128 5 5 (64000)
I0506 03:09:46.502091 12552 net.cpp:159] Memory required for data: 2440080
I0506 03:09:46.502113 12552 layer_factory.hpp:77] Creating layer relu3
I0506 03:09:46.502128 12552 net.cpp:94] Creating Layer relu3
I0506 03:09:46.502138 12552 net.cpp:435] relu3 <- conv3
I0506 03:09:46.502152 12552 net.cpp:396] relu3 -> conv3 (in-place)
I0506 03:09:46.502182 12552 net.cpp:144] Setting up relu3
I0506 03:09:46.502197 12552 net.cpp:151] Top shape: 20 128 5 5 (64000)
I0506 03:09:46.502205 12552 net.cpp:159] Memory required for data: 2696080
I0506 03:09:46.502214 12552 layer_factory.hpp:77] Creating layer conv4
I0506 03:09:46.502236 12552 net.cpp:94] Creating Layer conv4
I0506 03:09:46.502246 12552 net.cpp:435] conv4 <- conv3
I0506 03:09:46.502260 12552 net.cpp:409] conv4 -> conv4
I0506 03:09:46.517555 12552 net.cpp:144] Setting up conv4
I0506 03:09:46.517570 12552 net.cpp:151] Top shape: 20 128 5 5 (64000)
I0506 03:09:46.517573 12552 net.cpp:159] Memory required for data: 2952080
I0506 03:09:46.517580 12552 layer_factory.hpp:77] Creating layer relu4
I0506 03:09:46.517585 12552 net.cpp:94] Creating Layer relu4
I0506 03:09:46.517588 12552 net.cpp:435] relu4 <- conv4
I0506 03:09:46.517593 12552 net.cpp:396] relu4 -> conv4 (in-place)
I0506 03:09:46.517601 12552 net.cpp:144] Setting up relu4
I0506 03:09:46.517604 12552 net.cpp:151] Top shape: 20 128 5 5 (64000)
I0506 03:09:46.517607 12552 net.cpp:159] Memory required for data: 3208080
I0506 03:09:46.517611 12552 layer_factory.hpp:77] Creating layer conv5
I0506 03:09:46.517618 12552 net.cpp:94] Creating Layer conv5
I0506 03:09:46.517621 12552 net.cpp:435] conv5 <- conv4
I0506 03:09:46.517627 12552 net.cpp:409] conv5 -> conv5
I0506 03:09:46.533229 12552 net.cpp:144] Setting up conv5
I0506 03:09:46.533244 12552 net.cpp:151] Top shape: 20 128 5 5 (64000)
I0506 03:09:46.533248 12552 net.cpp:159] Memory required for data: 3464080
I0506 03:09:46.533257 12552 layer_factory.hpp:77] Creating layer relu5
I0506 03:09:46.533262 12552 net.cpp:94] Creating Layer relu5
I0506 03:09:46.533267 12552 net.cpp:435] relu5 <- conv5
I0506 03:09:46.533270 12552 net.cpp:396] relu5 -> conv5 (in-place)
I0506 03:09:46.533277 12552 net.cpp:144] Setting up relu5
I0506 03:09:46.533282 12552 net.cpp:151] Top shape: 20 128 5 5 (64000)
I0506 03:09:46.533284 12552 net.cpp:159] Memory required for data: 3720080
I0506 03:09:46.533288 12552 layer_factory.hpp:77] Creating layer pool5
I0506 03:09:46.533293 12552 net.cpp:94] Creating Layer pool5
I0506 03:09:46.533296 12552 net.cpp:435] pool5 <- conv5
I0506 03:09:46.533300 12552 net.cpp:409] pool5 -> pool5
I0506 03:09:46.533341 12552 net.cpp:144] Setting up pool5
I0506 03:09:46.533349 12552 net.cpp:151] Top shape: 20 128 2 2 (10240)
I0506 03:09:46.533352 12552 net.cpp:159] Memory required for data: 3761040
I0506 03:09:46.533355 12552 layer_factory.hpp:77] Creating layer ip1
I0506 03:09:46.533362 12552 net.cpp:94] Creating Layer ip1
I0506 03:09:46.533365 12552 net.cpp:435] ip1 <- pool5
I0506 03:09:46.533370 12552 net.cpp:409] ip1 -> ip1
I0506 03:09:46.546674 12552 net.cpp:144] Setting up ip1
I0506 03:09:46.546689 12552 net.cpp:151] Top shape: 20 1024 (20480)
I0506 03:09:46.546691 12552 net.cpp:159] Memory required for data: 3842960
I0506 03:09:46.546699 12552 layer_factory.hpp:77] Creating layer ip2
I0506 03:09:46.546705 12552 net.cpp:94] Creating Layer ip2
I0506 03:09:46.546708 12552 net.cpp:435] ip2 <- ip1
I0506 03:09:46.546713 12552 net.cpp:409] ip2 -> ip2
I0506 03:09:46.559711 12552 net.cpp:144] Setting up ip2
I0506 03:09:46.559725 12552 net.cpp:151] Top shape: 20 512 (10240)
I0506 03:09:46.559728 12552 net.cpp:159] Memory required for data: 3883920
I0506 03:09:46.559734 12552 layer_factory.hpp:77] Creating layer ip3
I0506 03:09:46.559741 12552 net.cpp:94] Creating Layer ip3
I0506 03:09:46.559744 12552 net.cpp:435] ip3 <- ip2
I0506 03:09:46.559749 12552 net.cpp:409] ip3 -> ip3
I0506 03:09:46.561257 12552 net.cpp:144] Setting up ip3
I0506 03:09:46.561270 12552 net.cpp:151] Top shape: 20 50 (1000)
I0506 03:09:46.561275 12552 net.cpp:159] Memory required for data: 3887920
I0506 03:09:46.561280 12552 layer_factory.hpp:77] Creating layer loss
I0506 03:09:46.561287 12552 net.cpp:94] Creating Layer loss
I0506 03:09:46.561290 12552 net.cpp:435] loss <- ip3
I0506 03:09:46.561295 12552 net.cpp:435] loss <- label
I0506 03:09:46.561300 12552 net.cpp:409] loss -> loss
I0506 03:09:46.561307 12552 layer_factory.hpp:77] Creating layer loss
…
I0506 03:09:46.561837 12552 solver.cpp:181] Creating test net (#0) specified by net file: ./protocol/dis_50_100_dimension.protocol_distribution
I0506 03:09:46.561864 12552 net.cpp:323] The NetState phase (1) differed from the phase (0) specified by a rule in layer parameters
I0506 03:09:46.561957 12552 net.cpp:52] Initializing net from parameters: 
state {
  phase: TEST
}
layer {
  name: "intercept"
  type: "HDF5Data"
  top: "data"
  top: "label"
  include {
    phase: TEST
  }
  hdf5_data_param {
    source: "/home/purduethu/scratch/radon/d/deng106/CNNStatisticalModel/distributions/input/50_distributions_100_sample_size_test-distributions-path.txt"
    batch_size: 20
  }
}
layer {
  name: "conv1"
  type: "Convolution"
  bottom: "data"
  top: "conv1"
  param {
    lr_mult: 1
  }
  param {
    lr_mult: 2
  }
  convolution_param {
    num_output: 64
    pad: 2
    kernel_size: 5
    stride: 1
    weight_filler {
      type: "gaussian"
      std: 0.0001
    }
    bias_filler {
      type: "constant"
    }
  }
}
layer {
  name: "relu1"
  type: "ReLU"
  bottom: "conv1"
  top: "conv1"
}
layer {
  name: "conv2"
  type: "Convolution"
  bottom: "conv1"
  top: "conv2"
  param {
    lr_mult: 1
  }
  param {
    lr_mult: 2
  }
  convolution_param {
    num_output: 64
    pad: 2
    kernel_size: 5
    stride: 1
    weight_filler {
      type: "gaussian"
      std: 0.01
    }
    bias_filler {
      type: "constant"
    }
  }
}
layer {
  name: "relu2"
  type: "ReLU"
  bottom: "conv2"
  top: "conv2"
}
layer {
  name: "pool2"
  type: "Pooling"
  bottom: "conv2"
  top: "pool2"
  pooling_param {
    pool: MAX
    kernel_size: 3
    stride: 2
  }
}
layer {
  name: "conv3"
  type: "Convolution"
  bottom: "pool2"
  top: "conv3"
  param {
    lr_mult: 1
  }
  param {
    lr_mult: 2
  }
  convolution_param {
    num_output: 128
    pad: 2
    kernel_size: 5
    stride: 1
    weight_filler {
      type: "gaussian"
      std: 0.01
    }
    bias_filler {
      type: "constant"
    }
  }
}
layer {
  name: "relu3"
  type: "ReLU"
  bottom: "conv3"
  top: "conv3"
}
layer {
  name: "conv4"
  type: "Convolution"
  bottom: "conv3"
  top: "conv4"
  param {
    lr_mult: 1
  }
  param {
    lr_mult: 2
  }
  convolution_param {
    num_output: 128
    pad: 2
    kernel_size: 5
    stride: 1
    weight_filler {
      type: "gaussian"
      std: 0.01
    }
    bias_filler {
      type: "constant"
    }
  }
}
layer {
  name: "relu4"
  type: "ReLU"
  bottom: "conv4"
  top: "conv4"
}
layer {
  name: "conv5"
  type: "Convolution"
  bottom: "conv4"
  top: "conv5"
  param {
    lr_mult: 1
  }
  param {
    lr_mult: 2
  }
  convolution_param {
    num_output: 128
    pad: 2
    kernel_size: 5
    stride: 1
    weight_filler {
      type: "gaussian"
      std: 0.01
    }
    bias_filler {
      type: "constant"
    }
  }
}
layer {
  name: "relu5"
  type: "ReLU"
  bottom: "conv5"
  top: "conv5"
}
layer {
  name: "pool5"
  type: "Pooling"
  bottom: "conv5"
  top: "pool5"
  pooling_param {
    pool: AVE
    kernel_size: 3
    stride: 2
  }
}
layer {
  name: "ip1"
  type: "InnerProduct"
  bottom: "pool5"
  top: "ip1"
  param {
    lr_mult: 1
  }
  param {
    lr_mult: 2
  }
  inner_product_param {
    num_output: 1024
    weight_filler {
      type: "gaussian"
      std: 0.1
    }
    bias_filler {
      type: "constant"
    }
  }
}
layer {
  name: "ip2"
  type: "InnerProduct"
  bottom: "ip1"
  top: "ip2"
  param {
    lr_mult: 1
  }
  param {
    lr_mult: 2
  }
  inner_product_param {
    num_output: 512
    weight_filler {
      type: "gaussian"
      std: 0.1
    }
    bias_filler {
      type: "constant"
    }
  }
}
layer {
  name: "ip3"
  type: "InnerProduct"
  bottom: "ip2"
  top: "ip3"
  param {
    lr_mult: 1
  }
  param {
    lr_mult: 2
  }
  inner_product_param {
    num_output: 50
    weight_filler {
      type: "gaussian"
      std: 0.1
    }
    bias_filler {
      type: "constant"
    }
  }
}
layer {
  name: "accuracy"
  type: "Accuracy"
  bottom: "ip3"
  bottom: "label"
  top: "accuracy"
  include {
    phase: TEST
  }
}
layer {
  name: "loss"
  type: "SoftmaxWithLoss"
  bottom: "ip3"
  bottom: "label"
  top: "loss"
}
I0506 03:09:46.562021 12552 layer_factory.hpp:77] Creating layer intercept
I0506 03:09:46.562031 12552 net.cpp:94] Creating Layer intercept
I0506 03:09:46.562034 12552 net.cpp:409] intercept -> data
I0506 03:09:46.562041 12552 net.cpp:409] intercept -> label
I0506 03:09:46.562047 12552 hdf5_data_layer.cpp:79] Loading list of HDF5 filenames from: /home/purduethu/scratch/radon/d/deng106/CNNStatisticalModel/distributions/input/50_distributions_100_sample_size_test-distributions-path.txt
I0506 03:09:46.562067 12552 hdf5_data_layer.cpp:93] Number of HDF5 files: 1
I0506 03:09:46.603945 12552 net.cpp:144] Setting up intercept
I0506 03:09:46.603971 12552 net.cpp:151] Top shape: 20 1 10 10 (2000)
I0506 03:09:46.603976 12552 net.cpp:151] Top shape: 20 (20)
I0506 03:09:46.603979 12552 net.cpp:159] Memory required for data: 8080
I0506 03:09:46.603986 12552 layer_factory.hpp:77] Creating layer label_intercept_1_split
I0506 03:09:46.604003 12552 net.cpp:94] Creating Layer label_intercept_1_split
I0506 03:09:46.604008 12552 net.cpp:435] label_intercept_1_split <- label
I0506 03:09:46.604014 12552 net.cpp:409] label_intercept_1_split -> label_intercept_1_split_0
I0506 03:09:46.604023 12552 net.cpp:409] label_intercept_1_split -> label_intercept_1_split_1
I0506 03:09:46.604069 12552 net.cpp:144] Setting up label_intercept_1_split
I0506 03:09:46.604076 12552 net.cpp:151] Top shape: 20 (20)
I0506 03:09:46.604079 12552 net.cpp:151] Top shape: 20 (20)
I0506 03:09:46.604082 12552 net.cpp:159] Memory required for data: 8240
I0506 03:09:46.604086 12552 layer_factory.hpp:77] Creating layer conv1
I0506 03:09:46.604097 12552 net.cpp:94] Creating Layer conv1
I0506 03:09:46.604100 12552 net.cpp:435] conv1 <- data
I0506 03:09:46.604105 12552 net.cpp:409] conv1 -> conv1
I0506 03:09:46.604993 12552 net.cpp:144] Setting up conv1
I0506 03:09:46.605006 12552 net.cpp:151] Top shape: 20 64 10 10 (128000)
I0506 03:09:46.605010 12552 net.cpp:159] Memory required for data: 520240
I0506 03:09:46.605020 12552 layer_factory.hpp:77] Creating layer relu1
I0506 03:09:46.605026 12552 net.cpp:94] Creating Layer relu1
I0506 03:09:46.605031 12552 net.cpp:435] relu1 <- conv1
I0506 03:09:46.605034 12552 net.cpp:396] relu1 -> conv1 (in-place)
I0506 03:09:46.605041 12552 net.cpp:144] Setting up relu1
I0506 03:09:46.605046 12552 net.cpp:151] Top shape: 20 64 10 10 (128000)
I0506 03:09:46.605054 12552 net.cpp:159] Memory required for data: 1032240
I0506 03:09:46.605057 12552 layer_factory.hpp:77] Creating layer conv2
I0506 03:09:46.605065 12552 net.cpp:94] Creating Layer conv2
I0506 03:09:46.605068 12552 net.cpp:435] conv2 <- conv1
I0506 03:09:46.605073 12552 net.cpp:409] conv2 -> conv2
I0506 03:09:46.609246 12552 net.cpp:144] Setting up conv2
I0506 03:09:46.609259 12552 net.cpp:151] Top shape: 20 64 10 10 (128000)
I0506 03:09:46.609262 12552 net.cpp:159] Memory required for data: 1544240
I0506 03:09:46.609271 12552 layer_factory.hpp:77] Creating layer relu2
I0506 03:09:46.609277 12552 net.cpp:94] Creating Layer relu2
I0506 03:09:46.609279 12552 net.cpp:435] relu2 <- conv2
I0506 03:09:46.609284 12552 net.cpp:396] relu2 -> conv2 (in-place)
I0506 03:09:46.609290 12552 net.cpp:144] Setting up relu2
I0506 03:09:46.609295 12552 net.cpp:151] Top shape: 20 64 10 10 (128000)
I0506 03:09:46.609297 12552 net.cpp:159] Memory required for data: 2056240
I0506 03:09:46.609300 12552 layer_factory.hpp:77] Creating layer pool2
I0506 03:09:46.609308 12552 net.cpp:94] Creating Layer pool2
I0506 03:09:46.609310 12552 net.cpp:435] pool2 <- conv2
I0506 03:09:46.609315 12552 net.cpp:409] pool2 -> pool2
I0506 03:09:46.609377 12552 net.cpp:144] Setting up pool2
I0506 03:09:46.609385 12552 net.cpp:151] Top shape: 20 64 5 5 (32000)
I0506 03:09:46.609387 12552 net.cpp:159] Memory required for data: 2184240
I0506 03:09:46.609390 12552 layer_factory.hpp:77] Creating layer conv3
I0506 03:09:46.609400 12552 net.cpp:94] Creating Layer conv3
I0506 03:09:46.609405 12552 net.cpp:435] conv3 <- pool2
I0506 03:09:46.609411 12552 net.cpp:409] conv3 -> conv3
I0506 03:09:46.615614 12552 net.cpp:144] Setting up conv3
I0506 03:09:46.615628 12552 net.cpp:151] Top shape: 20 128 5 5 (64000)
I0506 03:09:46.615630 12552 net.cpp:159] Memory required for data: 2440240
I0506 03:09:46.615638 12552 layer_factory.hpp:77] Creating layer relu3
I0506 03:09:46.615644 12552 net.cpp:94] Creating Layer relu3
I0506 03:09:46.615648 12552 net.cpp:435] relu3 <- conv3
I0506 03:09:46.615653 12552 net.cpp:396] relu3 -> conv3 (in-place)
I0506 03:09:46.615660 12552 net.cpp:144] Setting up relu3
I0506 03:09:46.615664 12552 net.cpp:151] Top shape: 20 128 5 5 (64000)
I0506 03:09:46.615667 12552 net.cpp:159] Memory required for data: 2696240
I0506 03:09:46.615670 12552 layer_factory.hpp:77] Creating layer conv4
I0506 03:09:46.615679 12552 net.cpp:94] Creating Layer conv4
I0506 03:09:46.615682 12552 net.cpp:435] conv4 <- conv3
I0506 03:09:46.615686 12552 net.cpp:409] conv4 -> conv4
I0506 03:09:46.628484 12552 net.cpp:144] Setting up conv4
I0506 03:09:46.628501 12552 net.cpp:151] Top shape: 20 128 5 5 (64000)
I0506 03:09:46.628505 12552 net.cpp:159] Memory required for data: 2952240
I0506 03:09:46.628511 12552 layer_factory.hpp:77] Creating layer relu4
I0506 03:09:46.628517 12552 net.cpp:94] Creating Layer relu4
I0506 03:09:46.628521 12552 net.cpp:435] relu4 <- conv4
I0506 03:09:46.628525 12552 net.cpp:396] relu4 -> conv4 (in-place)
I0506 03:09:46.628532 12552 net.cpp:144] Setting up relu4
I0506 03:09:46.628536 12552 net.cpp:151] Top shape: 20 128 5 5 (64000)
I0506 03:09:46.628540 12552 net.cpp:159] Memory required for data: 3208240
I0506 03:09:46.628542 12552 layer_factory.hpp:77] Creating layer conv5
I0506 03:09:46.628559 12552 net.cpp:94] Creating Layer conv5
I0506 03:09:46.628566 12552 net.cpp:435] conv5 <- conv4
I0506 03:09:46.628571 12552 net.cpp:409] conv5 -> conv5
I0506 03:09:46.641311 12552 net.cpp:144] Setting up conv5
I0506 03:09:46.641329 12552 net.cpp:151] Top shape: 20 128 5 5 (64000)
I0506 03:09:46.641332 12552 net.cpp:159] Memory required for data: 3464240
I0506 03:09:46.641341 12552 layer_factory.hpp:77] Creating layer relu5
I0506 03:09:46.641348 12552 net.cpp:94] Creating Layer relu5
I0506 03:09:46.641352 12552 net.cpp:435] relu5 <- conv5
I0506 03:09:46.641357 12552 net.cpp:396] relu5 -> conv5 (in-place)
I0506 03:09:46.641366 12552 net.cpp:144] Setting up relu5
I0506 03:09:46.641369 12552 net.cpp:151] Top shape: 20 128 5 5 (64000)
I0506 03:09:46.641376 12552 net.cpp:159] Memory required for data: 3720240
I0506 03:09:46.641379 12552 layer_factory.hpp:77] Creating layer pool5
I0506 03:09:46.641386 12552 net.cpp:94] Creating Layer pool5
I0506 03:09:46.641388 12552 net.cpp:435] pool5 <- conv5
I0506 03:09:46.641394 12552 net.cpp:409] pool5 -> pool5
I0506 03:09:46.641439 12552 net.cpp:144] Setting up pool5
I0506 03:09:46.641446 12552 net.cpp:151] Top shape: 20 128 2 2 (10240)
I0506 03:09:46.641449 12552 net.cpp:159] Memory required for data: 3761200
I0506 03:09:46.641453 12552 layer_factory.hpp:77] Creating layer ip1
I0506 03:09:46.641460 12552 net.cpp:94] Creating Layer ip1
I0506 03:09:46.641464 12552 net.cpp:435] ip1 <- pool5
I0506 03:09:46.641469 12552 net.cpp:409] ip1 -> ip1
I0506 03:09:46.654914 12552 net.cpp:144] Setting up ip1
I0506 03:09:46.654932 12552 net.cpp:151] Top shape: 20 1024 (20480)
I0506 03:09:46.654935 12552 net.cpp:159] Memory required for data: 3843120
I0506 03:09:46.654942 12552 layer_factory.hpp:77] Creating layer ip2
I0506 03:09:46.654950 12552 net.cpp:94] Creating Layer ip2
I0506 03:09:46.654954 12552 net.cpp:435] ip2 <- ip1
I0506 03:09:46.654959 12552 net.cpp:409] ip2 -> ip2
I0506 03:09:46.668355 12552 net.cpp:144] Setting up ip2
I0506 03:09:46.668372 12552 net.cpp:151] Top shape: 20 512 (10240)
I0506 03:09:46.668375 12552 net.cpp:159] Memory required for data: 3884080
I0506 03:09:46.668382 12552 layer_factory.hpp:77] Creating layer ip3
I0506 03:09:46.668393 12552 net.cpp:94] Creating Layer ip3
I0506 03:09:46.668397 12552 net.cpp:435] ip3 <- ip2
I0506 03:09:46.668403 12552 net.cpp:409] ip3 -> ip3
I0506 03:09:46.669178 12552 net.cpp:144] Setting up ip3
I0506 03:09:46.669186 12552 net.cpp:151] Top shape: 20 50 (1000)
I0506 03:09:46.669189 12552 net.cpp:159] Memory required for data: 3888080
I0506 03:09:46.669195 12552 layer_factory.hpp:77] Creating layer ip3_ip3_0_split
I0506 03:09:46.669200 12552 net.cpp:94] Creating Layer ip3_ip3_0_split
I0506 03:09:46.669204 12552 net.cpp:435] ip3_ip3_0_split <- ip3
I0506 03:09:46.669209 12552 net.cpp:409] ip3_ip3_0_split -> ip3_ip3_0_split_0
I0506 03:09:46.669214 12552 net.cpp:409] ip3_ip3_0_split -> ip3_ip3_0_split_1
I0506 03:09:46.669261 12552 net.cpp:144] Setting up ip3_ip3_0_split
I0506 03:09:46.669268 12552 net.cpp:151] Top shape: 20 50 (1000)
I0506 03:09:46.669271 12552 net.cpp:151] Top shape: 20 50 (1000)
I0506 03:09:46.669275 12552 net.cpp:159] Memory required for data: 3896080
I0506 03:09:46.669277 12552 layer_factory.hpp:77] Creating layer accuracy
I0506 03:09:46.669283 12552 net.cpp:94] Creating Layer accuracy
I0506 03:09:46.669287 12552 net.cpp:435] accuracy <- ip3_ip3_0_split_0
I0506 03:09:46.669291 12552 net.cpp:435] accuracy <- label_intercept_1_split_0
I0506 03:09:46.669296 12552 net.cpp:409] accuracy -> accuracy
…
