…
I0502 16:36:06.827069 11644 net.cpp:323] The NetState phase (0) differed from the phase (1) specified by a rule in layer intercept
I0502 16:36:06.827085 11644 net.cpp:323] The NetState phase (0) differed from the phase (1) specified by a rule in layer accuracy
I0502 16:36:06.827180 11644 net.cpp:52] Initializing net from parameters: 
state {
  phase: TRAIN
}
layer {
  name: "parameters"
  type: "HDF5Data"
  top: "data"
  top: "label"
  include {
    phase: TRAIN
  }
  hdf5_data_param {
    source: "/home/purduethu/scratch/radon/d/deng106/CNNStatisticalModel/distributions/input/50_distributions_100_sample_size_train-distributions-path.txt"
    batch_size: 20
  }
}
layer {
  name: "conv1"
  type: "Convolution"
  bottom: "data"
  top: "conv1"
  param {
    lr_mult: 1
  }
  param {
    lr_mult: 2
  }
  convolution_param {
    num_output: 64
    pad: 2
    kernel_size: 5
    stride: 1
    weight_filler {
      type: "gaussian"
      std: 0.0001
    }
    bias_filler {
      type: "constant"
    }
  }
}
layer {
  name: "relu1"
  type: "ReLU"
  bottom: "conv1"
  top: "conv1"
}
layer {
  name: "conv2"
  type: "Convolution"
  bottom: "conv1"
  top: "conv2"
  param {
    lr_mult: 1
  }
  param {
    lr_mult: 2
  }
  convolution_param {
    num_output: 64
    pad: 2
    kernel_size: 5
    stride: 1
    weight_filler {
      type: "gaussian"
      std: 0.01
    }
    bias_filler {
      type: "constant"
    }
  }
}
layer {
  name: "relu2"
  type: "ReLU"
  bottom: "conv2"
  top: "conv2"
}
layer {
  name: "pool2"
  type: "Pooling"
  bottom: "conv2"
  top: "pool2"
  pooling_param {
    pool: MAX
    kernel_size: 3
    stride: 2
  }
}
layer {
  name: "conv3"
  type: "Convolution"
  bottom: "pool2"
  top: "conv3"
  param {
    lr_mult: 1
  }
  param {
    lr_mult: 2
  }
  convolution_param {
    num_output: 64
    pad: 2
    kernel_size: 5
    stride: 1
    weight_filler {
      type: "gaussian"
      std: 0.01
    }
    bias_filler {
      type: "constant"
    }
  }
}
layer {
  name: "relu3"
  type: "ReLU"
  bottom: "conv3"
  top: "conv3"
}
layer {
  name: "conv4"
  type: "Convolution"
  bottom: "conv3"
  top: "conv4"
  param {
    lr_mult: 1
  }
  param {
    lr_mult: 2
  }
  convolution_param {
    num_output: 64
    pad: 2
    kernel_size: 5
    stride: 1
    weight_filler {
      type: "gaussian"
      std: 0.01
    }
    bias_filler {
      type: "constant"
    }
  }
}
layer {
  name: "relu4"
  type: "ReLU"
  bottom: "conv4"
  top: "conv4"
}
layer {
  name: "conv5"
  type: "Convolution"
  bottom: "conv4"
  top: "conv5"
  param {
    lr_mult: 1
  }
  param {
    lr_mult: 2
  }
  convolution_param {
    num_output: 64
    pad: 2
    kernel_size: 5
    stride: 1
    weight_filler {
      type: "gaussian"
      std: 0.01
    }
    bias_filler {
      type: "constant"
    }
  }
}
layer {
  name: "relu5"
  type: "ReLU"
  bottom: "conv5"
  top: "conv5"
}
layer {
  name: "pool5"
  type: "Pooling"
  bottom: "conv5"
  top: "pool5"
  pooling_param {
    pool: AVE
    kernel_size: 3
    stride: 2
  }
}
layer {
  name: "ip1"
  type: "InnerProduct"
  bottom: "pool5"
  top: "ip1"
  param {
    lr_mult: 1
  }
  param {
    lr_mult: 2
  }
  inner_product_param {
    num_output: 64
    weight_filler {
      type: "gaussian"
      std: 0.1
    }
    bias_filler {
      type: "constant"
    }
  }
}
layer {
  name: "ip2"
  type: "InnerProduct"
  bottom: "ip1"
  top: "ip2"
  param {
    lr_mult: 1
  }
  param {
    lr_mult: 2
  }
  inner_product_param {
    num_output: 64
    weight_filler {
      type: "gaussian"
      std: 0.1
    }
    bias_filler {
      type: "constant"
    }
  }
}
layer {
  name: "ip3"
  type: "InnerProduct"
  bottom: "ip2"
  top: "ip3"
  param {
    lr_mult: 1
  }
  param {
    lr_mult: 2
  }
  inner_product_param {
    num_output: 50
    weight_filler {
      type: "gaussian"
      std: 0.1
    }
    bias_filler {
      type: "constant"
    }
  }
}
layer {
  name: "loss"
  type: "SoftmaxWithLoss"
  bottom: "ip3"
  bottom: "label"
  top: "loss"
}
I0502 16:36:06.827256 11644 layer_factory.hpp:77] Creating layer parameters
I0502 16:36:06.827270 11644 net.cpp:94] Creating Layer parameters
I0502 16:36:06.827276 11644 net.cpp:409] parameters -> data
I0502 16:36:06.827296 11644 net.cpp:409] parameters -> label
I0502 16:36:06.827306 11644 hdf5_data_layer.cpp:79] Loading list of HDF5 filenames from: /home/purduethu/scratch/radon/d/deng106/CNNStatisticalModel/distributions/input/50_distributions_100_sample_size_train-distributions-path.txt
I0502 16:36:06.827329 11644 hdf5_data_layer.cpp:93] Number of HDF5 files: 1
I0502 16:36:06.827888 11644 hdf5.cpp:32] Datatype class: H5T_FLOAT
I0502 16:36:06.989050 11644 hdf5.cpp:35] Datatype class: H5T_INTEGER
I0502 16:36:06.991905 11644 net.cpp:144] Setting up parameters
I0502 16:36:06.991928 11644 net.cpp:151] Top shape: 20 1 10 10 (2000)
I0502 16:36:06.991933 11644 net.cpp:151] Top shape: 20 (20)
I0502 16:36:06.991937 11644 net.cpp:159] Memory required for data: 8080
I0502 16:36:06.991945 11644 layer_factory.hpp:77] Creating layer conv1
I0502 16:36:06.991964 11644 net.cpp:94] Creating Layer conv1
I0502 16:36:06.991971 11644 net.cpp:435] conv1 <- data
I0502 16:36:06.991981 11644 net.cpp:409] conv1 -> conv1
I0502 16:36:06.998543 11644 net.cpp:144] Setting up conv1
I0502 16:36:06.998560 11644 net.cpp:151] Top shape: 20 64 10 10 (128000)
I0502 16:36:06.998564 11644 net.cpp:159] Memory required for data: 520080
I0502 16:36:06.998577 11644 layer_factory.hpp:77] Creating layer relu1
I0502 16:36:06.998585 11644 net.cpp:94] Creating Layer relu1
I0502 16:36:06.998589 11644 net.cpp:435] relu1 <- conv1
I0502 16:36:06.998594 11644 net.cpp:396] relu1 -> conv1 (in-place)
I0502 16:36:06.998610 11644 net.cpp:144] Setting up relu1
I0502 16:36:06.998616 11644 net.cpp:151] Top shape: 20 64 10 10 (128000)
I0502 16:36:06.998620 11644 net.cpp:159] Memory required for data: 1032080
I0502 16:36:06.998623 11644 layer_factory.hpp:77] Creating layer conv2
I0502 16:36:06.998631 11644 net.cpp:94] Creating Layer conv2
I0502 16:36:06.998636 11644 net.cpp:435] conv2 <- conv1
I0502 16:36:06.998641 11644 net.cpp:409] conv2 -> conv2
I0502 16:36:07.010684 11644 net.cpp:144] Setting up conv2
I0502 16:36:07.010699 11644 net.cpp:151] Top shape: 20 64 10 10 (128000)
I0502 16:36:07.010704 11644 net.cpp:159] Memory required for data: 1544080
I0502 16:36:07.010712 11644 layer_factory.hpp:77] Creating layer relu2
I0502 16:36:07.010720 11644 net.cpp:94] Creating Layer relu2
I0502 16:36:07.010725 11644 net.cpp:435] relu2 <- conv2
I0502 16:36:07.010730 11644 net.cpp:396] relu2 -> conv2 (in-place)
I0502 16:36:07.010736 11644 net.cpp:144] Setting up relu2
I0502 16:36:07.010741 11644 net.cpp:151] Top shape: 20 64 10 10 (128000)
I0502 16:36:07.010745 11644 net.cpp:159] Memory required for data: 2056080
I0502 16:36:07.010747 11644 layer_factory.hpp:77] Creating layer pool2
I0502 16:36:07.010761 11644 net.cpp:94] Creating Layer pool2
I0502 16:36:07.010766 11644 net.cpp:435] pool2 <- conv2
I0502 16:36:07.010771 11644 net.cpp:409] pool2 -> pool2
I0502 16:36:07.010815 11644 net.cpp:144] Setting up pool2
I0502 16:36:07.010823 11644 net.cpp:151] Top shape: 20 64 5 5 (32000)
I0502 16:36:07.010826 11644 net.cpp:159] Memory required for data: 2184080
I0502 16:36:07.010830 11644 layer_factory.hpp:77] Creating layer conv3
I0502 16:36:07.010838 11644 net.cpp:94] Creating Layer conv3
I0502 16:36:07.010843 11644 net.cpp:435] conv3 <- pool2
I0502 16:36:07.010855 11644 net.cpp:409] conv3 -> conv3
I0502 16:36:07.016494 11644 net.cpp:144] Setting up conv3
I0502 16:36:07.016508 11644 net.cpp:151] Top shape: 20 64 5 5 (32000)
I0502 16:36:07.016512 11644 net.cpp:159] Memory required for data: 2312080
I0502 16:36:07.016521 11644 layer_factory.hpp:77] Creating layer relu3
I0502 16:36:07.016527 11644 net.cpp:94] Creating Layer relu3
I0502 16:36:07.016531 11644 net.cpp:435] relu3 <- conv3
I0502 16:36:07.016536 11644 net.cpp:396] relu3 -> conv3 (in-place)
I0502 16:36:07.016543 11644 net.cpp:144] Setting up relu3
I0502 16:36:07.016548 11644 net.cpp:151] Top shape: 20 64 5 5 (32000)
I0502 16:36:07.016561 11644 net.cpp:159] Memory required for data: 2440080
I0502 16:36:07.016564 11644 layer_factory.hpp:77] Creating layer conv4
I0502 16:36:07.016572 11644 net.cpp:94] Creating Layer conv4
I0502 16:36:07.016577 11644 net.cpp:435] conv4 <- conv3
I0502 16:36:07.016582 11644 net.cpp:409] conv4 -> conv4
I0502 16:36:07.022236 11644 net.cpp:144] Setting up conv4
I0502 16:36:07.022250 11644 net.cpp:151] Top shape: 20 64 5 5 (32000)
I0502 16:36:07.022254 11644 net.cpp:159] Memory required for data: 2568080
I0502 16:36:07.022260 11644 layer_factory.hpp:77] Creating layer relu4
I0502 16:36:07.022266 11644 net.cpp:94] Creating Layer relu4
I0502 16:36:07.022270 11644 net.cpp:435] relu4 <- conv4
I0502 16:36:07.022275 11644 net.cpp:396] relu4 -> conv4 (in-place)
I0502 16:36:07.022284 11644 net.cpp:144] Setting up relu4
I0502 16:36:07.022287 11644 net.cpp:151] Top shape: 20 64 5 5 (32000)
I0502 16:36:07.022291 11644 net.cpp:159] Memory required for data: 2696080
I0502 16:36:07.022294 11644 layer_factory.hpp:77] Creating layer conv5
I0502 16:36:07.022302 11644 net.cpp:94] Creating Layer conv5
I0502 16:36:07.022306 11644 net.cpp:435] conv5 <- conv4
I0502 16:36:07.022311 11644 net.cpp:409] conv5 -> conv5
I0502 16:36:07.029440 11644 net.cpp:144] Setting up conv5
I0502 16:36:07.029455 11644 net.cpp:151] Top shape: 20 64 5 5 (32000)
I0502 16:36:07.029459 11644 net.cpp:159] Memory required for data: 2824080
I0502 16:36:07.029469 11644 layer_factory.hpp:77] Creating layer relu5
I0502 16:36:07.029475 11644 net.cpp:94] Creating Layer relu5
I0502 16:36:07.029479 11644 net.cpp:435] relu5 <- conv5
I0502 16:36:07.029484 11644 net.cpp:396] relu5 -> conv5 (in-place)
I0502 16:36:07.029491 11644 net.cpp:144] Setting up relu5
I0502 16:36:07.029496 11644 net.cpp:151] Top shape: 20 64 5 5 (32000)
I0502 16:36:07.029500 11644 net.cpp:159] Memory required for data: 2952080
I0502 16:36:07.029502 11644 layer_factory.hpp:77] Creating layer pool5
I0502 16:36:07.029508 11644 net.cpp:94] Creating Layer pool5
I0502 16:36:07.029511 11644 net.cpp:435] pool5 <- conv5
I0502 16:36:07.029516 11644 net.cpp:409] pool5 -> pool5
I0502 16:36:07.029551 11644 net.cpp:144] Setting up pool5
I0502 16:36:07.029557 11644 net.cpp:151] Top shape: 20 64 2 2 (5120)
I0502 16:36:07.029561 11644 net.cpp:159] Memory required for data: 2972560
I0502 16:36:07.029564 11644 layer_factory.hpp:77] Creating layer ip1
I0502 16:36:07.029574 11644 net.cpp:94] Creating Layer ip1
I0502 16:36:07.029578 11644 net.cpp:435] ip1 <- pool5
I0502 16:36:07.029583 11644 net.cpp:409] ip1 -> ip1
I0502 16:36:07.030752 11644 net.cpp:144] Setting up ip1
I0502 16:36:07.030766 11644 net.cpp:151] Top shape: 20 64 (1280)
I0502 16:36:07.030771 11644 net.cpp:159] Memory required for data: 2977680
I0502 16:36:07.030776 11644 layer_factory.hpp:77] Creating layer ip2
I0502 16:36:07.030783 11644 net.cpp:94] Creating Layer ip2
I0502 16:36:07.030791 11644 net.cpp:435] ip2 <- ip1
I0502 16:36:07.030797 11644 net.cpp:409] ip2 -> ip2
I0502 16:36:07.030973 11644 net.cpp:144] Setting up ip2
I0502 16:36:07.030980 11644 net.cpp:151] Top shape: 20 64 (1280)
I0502 16:36:07.030984 11644 net.cpp:159] Memory required for data: 2982800
I0502 16:36:07.030989 11644 layer_factory.hpp:77] Creating layer ip3
I0502 16:36:07.030995 11644 net.cpp:94] Creating Layer ip3
I0502 16:36:07.030998 11644 net.cpp:435] ip3 <- ip2
I0502 16:36:07.031003 11644 net.cpp:409] ip3 -> ip3
I0502 16:36:07.031152 11644 net.cpp:144] Setting up ip3
I0502 16:36:07.031164 11644 net.cpp:151] Top shape: 20 50 (1000)
I0502 16:36:07.031168 11644 net.cpp:159] Memory required for data: 2986800
I0502 16:36:07.031173 11644 layer_factory.hpp:77] Creating layer loss
I0502 16:36:07.031180 11644 net.cpp:94] Creating Layer loss
I0502 16:36:07.031183 11644 net.cpp:435] loss <- ip3
I0502 16:36:07.031188 11644 net.cpp:435] loss <- label
I0502 16:36:07.031193 11644 net.cpp:409] loss -> loss
I0502 16:36:07.031203 11644 layer_factory.hpp:77] Creating layer loss
…
I0502 16:36:07.032384 11644 solver.cpp:181] Creating test net (#0) specified by net file: ./protocol/dis_50_100_dimension.protocol_distribution
I0502 16:36:07.032413 11644 net.cpp:323] The NetState phase (1) differed from the phase (0) specified by a rule in layer parameters
I0502 16:36:07.032516 11644 net.cpp:52] Initializing net from parameters: 
state {
  phase: TEST
}
layer {
  name: "intercept"
  type: "HDF5Data"
  top: "data"
  top: "label"
  include {
    phase: TEST
  }
  hdf5_data_param {
    source: "/home/purduethu/scratch/radon/d/deng106/CNNStatisticalModel/distributions/input/50_distributions_100_sample_size_test-distributions-path.txt"
    batch_size: 20
  }
}
layer {
  name: "conv1"
  type: "Convolution"
  bottom: "data"
  top: "conv1"
  param {
    lr_mult: 1
  }
  param {
    lr_mult: 2
  }
  convolution_param {
    num_output: 64
    pad: 2
    kernel_size: 5
    stride: 1
    weight_filler {
      type: "gaussian"
      std: 0.0001
    }
    bias_filler {
      type: "constant"
    }
  }
}
layer {
  name: "relu1"
  type: "ReLU"
  bottom: "conv1"
  top: "conv1"
}
layer {
  name: "conv2"
  type: "Convolution"
  bottom: "conv1"
  top: "conv2"
  param {
    lr_mult: 1
  }
  param {
    lr_mult: 2
  }
  convolution_param {
    num_output: 64
    pad: 2
    kernel_size: 5
    stride: 1
    weight_filler {
      type: "gaussian"
      std: 0.01
    }
    bias_filler {
      type: "constant"
    }
  }
}
layer {
  name: "relu2"
  type: "ReLU"
  bottom: "conv2"
  top: "conv2"
}
layer {
  name: "pool2"
  type: "Pooling"
  bottom: "conv2"
  top: "pool2"
  pooling_param {
    pool: MAX
    kernel_size: 3
    stride: 2
  }
}
layer {
  name: "conv3"
  type: "Convolution"
  bottom: "pool2"
  top: "conv3"
  param {
    lr_mult: 1
  }
  param {
    lr_mult: 2
  }
  convolution_param {
    num_output: 64
    pad: 2
    kernel_size: 5
    stride: 1
    weight_filler {
      type: "gaussian"
      std: 0.01
    }
    bias_filler {
      type: "constant"
    }
  }
}
layer {
  name: "relu3"
  type: "ReLU"
  bottom: "conv3"
  top: "conv3"
}
layer {
  name: "conv4"
  type: "Convolution"
  bottom: "conv3"
  top: "conv4"
  param {
    lr_mult: 1
  }
  param {
    lr_mult: 2
  }
  convolution_param {
    num_output: 64
    pad: 2
    kernel_size: 5
    stride: 1
    weight_filler {
      type: "gaussian"
      std: 0.01
    }
    bias_filler {
      type: "constant"
    }
  }
}
layer {
  name: "relu4"
  type: "ReLU"
  bottom: "conv4"
  top: "conv4"
}
layer {
  name: "conv5"
  type: "Convolution"
  bottom: "conv4"
  top: "conv5"
  param {
    lr_mult: 1
  }
  param {
    lr_mult: 2
  }
  convolution_param {
    num_output: 64
    pad: 2
    kernel_size: 5
    stride: 1
    weight_filler {
      type: "gaussian"
      std: 0.01
    }
    bias_filler {
      type: "constant"
    }
  }
}
layer {
  name: "relu5"
  type: "ReLU"
  bottom: "conv5"
  top: "conv5"
}
layer {
  name: "pool5"
  type: "Pooling"
  bottom: "conv5"
  top: "pool5"
  pooling_param {
    pool: AVE
    kernel_size: 3
    stride: 2
  }
}
layer {
  name: "ip1"
  type: "InnerProduct"
  bottom: "pool5"
  top: "ip1"
  param {
    lr_mult: 1
  }
  param {
    lr_mult: 2
  }
  inner_product_param {
    num_output: 64
    weight_filler {
      type: "gaussian"
      std: 0.1
    }
    bias_filler {
      type: "constant"
    }
  }
}
layer {
  name: "ip2"
  type: "InnerProduct"
  bottom: "ip1"
  top: "ip2"
  param {
    lr_mult: 1
  }
  param {
    lr_mult: 2
  }
  inner_product_param {
    num_output: 64
    weight_filler {
      type: "gaussian"
      std: 0.1
    }
    bias_filler {
      type: "constant"
    }
  }
}
layer {
  name: "ip3"
  type: "InnerProduct"
  bottom: "ip2"
  top: "ip3"
  param {
    lr_mult: 1
  }
  param {
    lr_mult: 2
  }
  inner_product_param {
    num_output: 50
    weight_filler {
      type: "gaussian"
      std: 0.1
    }
    bias_filler {
      type: "constant"
    }
  }
}
layer {
  name: "accuracy"
  type: "Accuracy"
  bottom: "ip3"
  bottom: "label"
  top: "accuracy"
  include {
    phase: TEST
  }
}
layer {
  name: "loss"
  type: "SoftmaxWithLoss"
  bottom: "ip3"
  bottom: "label"
  top: "loss"
}
I0502 16:36:07.032599 11644 layer_factory.hpp:77] Creating layer intercept
I0502 16:36:07.032609 11644 net.cpp:94] Creating Layer intercept
I0502 16:36:07.032614 11644 net.cpp:409] intercept -> data
I0502 16:36:07.032621 11644 net.cpp:409] intercept -> label
I0502 16:36:07.032629 11644 hdf5_data_layer.cpp:79] Loading list of HDF5 filenames from: /home/purduethu/scratch/radon/d/deng106/CNNStatisticalModel/distributions/input/50_distributions_100_sample_size_test-distributions-path.txt
I0502 16:36:07.032649 11644 hdf5_data_layer.cpp:93] Number of HDF5 files: 1
I0502 16:36:07.074422 11644 net.cpp:144] Setting up intercept
I0502 16:36:07.074456 11644 net.cpp:151] Top shape: 20 1 10 10 (2000)
I0502 16:36:07.074462 11644 net.cpp:151] Top shape: 20 (20)
I0502 16:36:07.074466 11644 net.cpp:159] Memory required for data: 8080
I0502 16:36:07.074473 11644 layer_factory.hpp:77] Creating layer label_intercept_1_split
I0502 16:36:07.074493 11644 net.cpp:94] Creating Layer label_intercept_1_split
I0502 16:36:07.074497 11644 net.cpp:435] label_intercept_1_split <- label
I0502 16:36:07.074503 11644 net.cpp:409] label_intercept_1_split -> label_intercept_1_split_0
I0502 16:36:07.074512 11644 net.cpp:409] label_intercept_1_split -> label_intercept_1_split_1
I0502 16:36:07.074548 11644 net.cpp:144] Setting up label_intercept_1_split
I0502 16:36:07.074555 11644 net.cpp:151] Top shape: 20 (20)
I0502 16:36:07.074559 11644 net.cpp:151] Top shape: 20 (20)
I0502 16:36:07.074563 11644 net.cpp:159] Memory required for data: 8240
I0502 16:36:07.074565 11644 layer_factory.hpp:77] Creating layer conv1
I0502 16:36:07.074578 11644 net.cpp:94] Creating Layer conv1
I0502 16:36:07.074582 11644 net.cpp:435] conv1 <- data
I0502 16:36:07.074587 11644 net.cpp:409] conv1 -> conv1
I0502 16:36:07.075981 11644 net.cpp:144] Setting up conv1
I0502 16:36:07.076004 11644 net.cpp:151] Top shape: 20 64 10 10 (128000)
I0502 16:36:07.076009 11644 net.cpp:159] Memory required for data: 520240
I0502 16:36:07.076019 11644 layer_factory.hpp:77] Creating layer relu1
I0502 16:36:07.076025 11644 net.cpp:94] Creating Layer relu1
I0502 16:36:07.076030 11644 net.cpp:435] relu1 <- conv1
I0502 16:36:07.076035 11644 net.cpp:396] relu1 -> conv1 (in-place)
I0502 16:36:07.076042 11644 net.cpp:144] Setting up relu1
I0502 16:36:07.076047 11644 net.cpp:151] Top shape: 20 64 10 10 (128000)
I0502 16:36:07.076050 11644 net.cpp:159] Memory required for data: 1032240
I0502 16:36:07.076053 11644 layer_factory.hpp:77] Creating layer conv2
I0502 16:36:07.076062 11644 net.cpp:94] Creating Layer conv2
I0502 16:36:07.076066 11644 net.cpp:435] conv2 <- conv1
I0502 16:36:07.076071 11644 net.cpp:409] conv2 -> conv2
I0502 16:36:07.081190 11644 net.cpp:144] Setting up conv2
I0502 16:36:07.081204 11644 net.cpp:151] Top shape: 20 64 10 10 (128000)
I0502 16:36:07.081208 11644 net.cpp:159] Memory required for data: 1544240
I0502 16:36:07.081217 11644 layer_factory.hpp:77] Creating layer relu2
I0502 16:36:07.081223 11644 net.cpp:94] Creating Layer relu2
I0502 16:36:07.081228 11644 net.cpp:435] relu2 <- conv2
I0502 16:36:07.081233 11644 net.cpp:396] relu2 -> conv2 (in-place)
I0502 16:36:07.081239 11644 net.cpp:144] Setting up relu2
I0502 16:36:07.081244 11644 net.cpp:151] Top shape: 20 64 10 10 (128000)
I0502 16:36:07.081248 11644 net.cpp:159] Memory required for data: 2056240
I0502 16:36:07.081251 11644 layer_factory.hpp:77] Creating layer pool2
I0502 16:36:07.081257 11644 net.cpp:94] Creating Layer pool2
I0502 16:36:07.081260 11644 net.cpp:435] pool2 <- conv2
I0502 16:36:07.081265 11644 net.cpp:409] pool2 -> pool2
I0502 16:36:07.081300 11644 net.cpp:144] Setting up pool2
I0502 16:36:07.081306 11644 net.cpp:151] Top shape: 20 64 5 5 (32000)
I0502 16:36:07.081310 11644 net.cpp:159] Memory required for data: 2184240
I0502 16:36:07.081313 11644 layer_factory.hpp:77] Creating layer conv3
I0502 16:36:07.081321 11644 net.cpp:94] Creating Layer conv3
I0502 16:36:07.081324 11644 net.cpp:435] conv3 <- pool2
I0502 16:36:07.081331 11644 net.cpp:409] conv3 -> conv3
I0502 16:36:07.085875 11644 net.cpp:144] Setting up conv3
I0502 16:36:07.085888 11644 net.cpp:151] Top shape: 20 64 5 5 (32000)
I0502 16:36:07.085892 11644 net.cpp:159] Memory required for data: 2312240
I0502 16:36:07.085901 11644 layer_factory.hpp:77] Creating layer relu3
I0502 16:36:07.085908 11644 net.cpp:94] Creating Layer relu3
I0502 16:36:07.085912 11644 net.cpp:435] relu3 <- conv3
I0502 16:36:07.085917 11644 net.cpp:396] relu3 -> conv3 (in-place)
I0502 16:36:07.085925 11644 net.cpp:144] Setting up relu3
I0502 16:36:07.085929 11644 net.cpp:151] Top shape: 20 64 5 5 (32000)
I0502 16:36:07.085933 11644 net.cpp:159] Memory required for data: 2440240
I0502 16:36:07.085937 11644 layer_factory.hpp:77] Creating layer conv4
I0502 16:36:07.085944 11644 net.cpp:94] Creating Layer conv4
I0502 16:36:07.085947 11644 net.cpp:435] conv4 <- conv3
I0502 16:36:07.085952 11644 net.cpp:409] conv4 -> conv4
I0502 16:36:07.090029 11644 net.cpp:144] Setting up conv4
I0502 16:36:07.090044 11644 net.cpp:151] Top shape: 20 64 5 5 (32000)
I0502 16:36:07.090047 11644 net.cpp:159] Memory required for data: 2568240
I0502 16:36:07.090054 11644 layer_factory.hpp:77] Creating layer relu4
I0502 16:36:07.090059 11644 net.cpp:94] Creating Layer relu4
I0502 16:36:07.090064 11644 net.cpp:435] relu4 <- conv4
I0502 16:36:07.090071 11644 net.cpp:396] relu4 -> conv4 (in-place)
I0502 16:36:07.090080 11644 net.cpp:144] Setting up relu4
I0502 16:36:07.090085 11644 net.cpp:151] Top shape: 20 64 5 5 (32000)
I0502 16:36:07.090087 11644 net.cpp:159] Memory required for data: 2696240
I0502 16:36:07.090090 11644 layer_factory.hpp:77] Creating layer conv5
I0502 16:36:07.090098 11644 net.cpp:94] Creating Layer conv5
I0502 16:36:07.090101 11644 net.cpp:435] conv5 <- conv4
I0502 16:36:07.090106 11644 net.cpp:409] conv5 -> conv5
I0502 16:36:07.094204 11644 net.cpp:144] Setting up conv5
I0502 16:36:07.094224 11644 net.cpp:151] Top shape: 20 64 5 5 (32000)
I0502 16:36:07.094228 11644 net.cpp:159] Memory required for data: 2824240
I0502 16:36:07.094236 11644 layer_factory.hpp:77] Creating layer relu5
I0502 16:36:07.094244 11644 net.cpp:94] Creating Layer relu5
I0502 16:36:07.094247 11644 net.cpp:435] relu5 <- conv5
I0502 16:36:07.094251 11644 net.cpp:396] relu5 -> conv5 (in-place)
I0502 16:36:07.094259 11644 net.cpp:144] Setting up relu5
I0502 16:36:07.094264 11644 net.cpp:151] Top shape: 20 64 5 5 (32000)
I0502 16:36:07.094266 11644 net.cpp:159] Memory required for data: 2952240
I0502 16:36:07.094269 11644 layer_factory.hpp:77] Creating layer pool5
I0502 16:36:07.094274 11644 net.cpp:94] Creating Layer pool5
I0502 16:36:07.094279 11644 net.cpp:435] pool5 <- conv5
I0502 16:36:07.094282 11644 net.cpp:409] pool5 -> pool5
I0502 16:36:07.094306 11644 net.cpp:144] Setting up pool5
I0502 16:36:07.094313 11644 net.cpp:151] Top shape: 20 64 2 2 (5120)
I0502 16:36:07.094316 11644 net.cpp:159] Memory required for data: 2972720
I0502 16:36:07.094319 11644 layer_factory.hpp:77] Creating layer ip1
I0502 16:36:07.094326 11644 net.cpp:94] Creating Layer ip1
I0502 16:36:07.094331 11644 net.cpp:435] ip1 <- pool5
I0502 16:36:07.094334 11644 net.cpp:409] ip1 -> ip1
I0502 16:36:07.094811 11644 net.cpp:144] Setting up ip1
I0502 16:36:07.094818 11644 net.cpp:151] Top shape: 20 64 (1280)
I0502 16:36:07.094821 11644 net.cpp:159] Memory required for data: 2977840
I0502 16:36:07.094827 11644 layer_factory.hpp:77] Creating layer ip2
I0502 16:36:07.094833 11644 net.cpp:94] Creating Layer ip2
I0502 16:36:07.094837 11644 net.cpp:435] ip2 <- ip1
I0502 16:36:07.094841 11644 net.cpp:409] ip2 -> ip2
I0502 16:36:07.095011 11644 net.cpp:144] Setting up ip2
I0502 16:36:07.095017 11644 net.cpp:151] Top shape: 20 64 (1280)
I0502 16:36:07.095021 11644 net.cpp:159] Memory required for data: 2982960
I0502 16:36:07.095026 11644 layer_factory.hpp:77] Creating layer ip3
I0502 16:36:07.095033 11644 net.cpp:94] Creating Layer ip3
I0502 16:36:07.095036 11644 net.cpp:435] ip3 <- ip2
I0502 16:36:07.095041 11644 net.cpp:409] ip3 -> ip3
I0502 16:36:07.095191 11644 net.cpp:144] Setting up ip3
I0502 16:36:07.095196 11644 net.cpp:151] Top shape: 20 50 (1000)
I0502 16:36:07.095201 11644 net.cpp:159] Memory required for data: 2986960
I0502 16:36:07.095206 11644 layer_factory.hpp:77] Creating layer ip3_ip3_0_split
I0502 16:36:07.095211 11644 net.cpp:94] Creating Layer ip3_ip3_0_split
I0502 16:36:07.095216 11644 net.cpp:435] ip3_ip3_0_split <- ip3
I0502 16:36:07.095219 11644 net.cpp:409] ip3_ip3_0_split -> ip3_ip3_0_split_0
I0502 16:36:07.095224 11644 net.cpp:409] ip3_ip3_0_split -> ip3_ip3_0_split_1
I0502 16:36:07.095250 11644 net.cpp:144] Setting up ip3_ip3_0_split
I0502 16:36:07.095257 11644 net.cpp:151] Top shape: 20 50 (1000)
I0502 16:36:07.095260 11644 net.cpp:151] Top shape: 20 50 (1000)
I0502 16:36:07.095263 11644 net.cpp:159] Memory required for data: 2994960
I0502 16:36:07.095266 11644 layer_factory.hpp:77] Creating layer accuracy
I0502 16:36:07.095275 11644 net.cpp:94] Creating Layer accuracy
I0502 16:36:07.095279 11644 net.cpp:435] accuracy <- ip3_ip3_0_split_0
I0502 16:36:07.095283 11644 net.cpp:435] accuracy <- label_intercept_1_split_0
I0502 16:36:07.095288 11644 net.cpp:409] accuracy -> accuracy
…
