…
I0507 18:22:54.014134  5907 net.cpp:323] The NetState phase (0) differed from the phase (1) specified by a rule in layer intercept
I0507 18:22:54.014150  5907 net.cpp:323] The NetState phase (0) differed from the phase (1) specified by a rule in layer loss
I0507 18:22:54.014227  5907 net.cpp:52] Initializing net from parameters: 
state {
  phase: TRAIN
}
layer {
  name: "parameters"
  type: "HDF5Data"
  top: "data"
  top: "label"
  include {
    phase: TRAIN
  }
  hdf5_data_param {
    source: "/home/purduethu/scratch/radon/d/deng106/CNNStatisticalModel/distributions/input/5_distributions_400_sample_size_train-parameters-path.txt"
    batch_size: 20
  }
}
layer {
  name: "conv1"
  type: "Convolution"
  bottom: "data"
  top: "conv1"
  param {
    lr_mult: 1
  }
  param {
    lr_mult: 2
  }
  convolution_param {
    num_output: 64
    pad: 2
    kernel_size: 5
    stride: 1
    weight_filler {
      type: "gaussian"
      std: 0.0001
    }
    bias_filler {
      type: "constant"
    }
  }
}
layer {
  name: "relu1"
  type: "ReLU"
  bottom: "conv1"
  top: "conv1"
}
layer {
  name: "conv2"
  type: "Convolution"
  bottom: "conv1"
  top: "conv2"
  param {
    lr_mult: 1
  }
  param {
    lr_mult: 2
  }
  convolution_param {
    num_output: 64
    pad: 2
    kernel_size: 5
    stride: 1
    weight_filler {
      type: "gaussian"
      std: 0.01
    }
    bias_filler {
      type: "constant"
    }
  }
}
layer {
  name: "relu2"
  type: "ReLU"
  bottom: "conv2"
  top: "conv2"
}
layer {
  name: "pool2"
  type: "Pooling"
  bottom: "conv2"
  top: "pool2"
  pooling_param {
    pool: MAX
    kernel_size: 3
    stride: 2
  }
}
layer {
  name: "conv3"
  type: "Convolution"
  bottom: "pool2"
  top: "conv3"
  param {
    lr_mult: 1
  }
  param {
    lr_mult: 2
  }
  convolution_param {
    num_output: 64
    pad: 2
    kernel_size: 5
    stride: 1
    weight_filler {
      type: "gaussian"
      std: 0.01
    }
    bias_filler {
      type: "constant"
    }
  }
}
layer {
  name: "relu3"
  type: "ReLU"
  bottom: "conv3"
  top: "conv3"
}
layer {
  name: "conv4"
  type: "Convolution"
  bottom: "conv3"
  top: "conv4"
  param {
    lr_mult: 1
  }
  param {
    lr_mult: 2
  }
  convolution_param {
    num_output: 64
    pad: 2
    kernel_size: 5
    stride: 1
    weight_filler {
      type: "gaussian"
      std: 0.01
    }
    bias_filler {
      type: "constant"
    }
  }
}
layer {
  name: "relu4"
  type: "ReLU"
  bottom: "conv4"
  top: "conv4"
}
layer {
  name: "conv5"
  type: "Convolution"
  bottom: "conv4"
  top: "conv5"
  param {
    lr_mult: 1
  }
  param {
    lr_mult: 2
  }
  convolution_param {
    num_output: 64
    pad: 2
    kernel_size: 5
    stride: 1
    weight_filler {
      type: "gaussian"
      std: 0.01
    }
    bias_filler {
      type: "constant"
    }
  }
}
layer {
  name: "relu5"
  type: "ReLU"
  bottom: "conv5"
  top: "conv5"
}
layer {
  name: "pool5"
  type: "Pooling"
  bottom: "conv5"
  top: "pool5"
  pooling_param {
    pool: AVE
    kernel_size: 3
    stride: 2
  }
}
layer {
  name: "ip1"
  type: "InnerProduct"
  bottom: "pool5"
  top: "ip1"
  param {
    lr_mult: 1
  }
  param {
    lr_mult: 2
  }
  inner_product_param {
    num_output: 64
    weight_filler {
      type: "gaussian"
      std: 0.1
    }
    bias_filler {
      type: "constant"
    }
  }
}
layer {
  name: "ip2"
  type: "InnerProduct"
  bottom: "ip1"
  top: "ip2"
  param {
    lr_mult: 1
  }
  param {
    lr_mult: 2
  }
  inner_product_param {
    num_output: 64
    weight_filler {
      type: "gaussian"
      std: 0.1
    }
    bias_filler {
      type: "constant"
    }
  }
}
layer {
  name: "ip3"
  type: "InnerProduct"
  bottom: "ip2"
  top: "ip3"
  param {
    lr_mult: 1
  }
  param {
    lr_mult: 2
  }
  inner_product_param {
    num_output: 1
    weight_filler {
      type: "gaussian"
      std: 0.1
    }
    bias_filler {
      type: "constant"
    }
  }
}
layer {
  name: "loss"
  type: "HuberLoss"
  bottom: "ip3"
  bottom: "label"
  top: "loss"
  include {
    phase: TRAIN
  }
}
I0507 18:22:54.014279  5907 layer_factory.hpp:77] Creating layer parameters
I0507 18:22:54.014294  5907 net.cpp:94] Creating Layer parameters
I0507 18:22:54.014298  5907 net.cpp:409] parameters -> data
I0507 18:22:54.014312  5907 net.cpp:409] parameters -> label
I0507 18:22:54.014319  5907 hdf5_data_layer.cpp:79] Loading list of HDF5 filenames from: /home/purduethu/scratch/radon/d/deng106/CNNStatisticalModel/distributions/input/5_distributions_400_sample_size_train-parameters-path.txt
I0507 18:22:54.014334  5907 hdf5_data_layer.cpp:93] Number of HDF5 files: 1
I0507 18:22:54.014760  5907 hdf5.cpp:32] Datatype class: H5T_FLOAT
I0507 18:22:54.077013  5907 net.cpp:144] Setting up parameters
I0507 18:22:54.077044  5907 net.cpp:151] Top shape: 20 1 20 20 (8000)
I0507 18:22:54.077049  5907 net.cpp:151] Top shape: 20 (20)
I0507 18:22:54.077052  5907 net.cpp:159] Memory required for data: 32080
I0507 18:22:54.077059  5907 layer_factory.hpp:77] Creating layer conv1
I0507 18:22:54.077074  5907 net.cpp:94] Creating Layer conv1
I0507 18:22:54.077077  5907 net.cpp:435] conv1 <- data
I0507 18:22:54.077085  5907 net.cpp:409] conv1 -> conv1
I0507 18:22:54.082556  5907 net.cpp:144] Setting up conv1
I0507 18:22:54.082572  5907 net.cpp:151] Top shape: 20 64 20 20 (512000)
I0507 18:22:54.082576  5907 net.cpp:159] Memory required for data: 2080080
I0507 18:22:54.082587  5907 layer_factory.hpp:77] Creating layer relu1
I0507 18:22:54.082594  5907 net.cpp:94] Creating Layer relu1
I0507 18:22:54.082598  5907 net.cpp:435] relu1 <- conv1
I0507 18:22:54.082603  5907 net.cpp:396] relu1 -> conv1 (in-place)
I0507 18:22:54.082610  5907 net.cpp:144] Setting up relu1
I0507 18:22:54.082614  5907 net.cpp:151] Top shape: 20 64 20 20 (512000)
I0507 18:22:54.082617  5907 net.cpp:159] Memory required for data: 4128080
I0507 18:22:54.082620  5907 layer_factory.hpp:77] Creating layer conv2
I0507 18:22:54.082628  5907 net.cpp:94] Creating Layer conv2
I0507 18:22:54.082633  5907 net.cpp:435] conv2 <- conv1
I0507 18:22:54.082636  5907 net.cpp:409] conv2 -> conv2
I0507 18:22:54.093163  5907 net.cpp:144] Setting up conv2
I0507 18:22:54.093178  5907 net.cpp:151] Top shape: 20 64 20 20 (512000)
I0507 18:22:54.093180  5907 net.cpp:159] Memory required for data: 6176080
I0507 18:22:54.093189  5907 layer_factory.hpp:77] Creating layer relu2
I0507 18:22:54.093195  5907 net.cpp:94] Creating Layer relu2
I0507 18:22:54.093199  5907 net.cpp:435] relu2 <- conv2
I0507 18:22:54.093204  5907 net.cpp:396] relu2 -> conv2 (in-place)
I0507 18:22:54.093210  5907 net.cpp:144] Setting up relu2
I0507 18:22:54.093215  5907 net.cpp:151] Top shape: 20 64 20 20 (512000)
I0507 18:22:54.093219  5907 net.cpp:159] Memory required for data: 8224080
I0507 18:22:54.093221  5907 layer_factory.hpp:77] Creating layer pool2
I0507 18:22:54.093233  5907 net.cpp:94] Creating Layer pool2
I0507 18:22:54.093236  5907 net.cpp:435] pool2 <- conv2
I0507 18:22:54.093241  5907 net.cpp:409] pool2 -> pool2
I0507 18:22:54.093297  5907 net.cpp:144] Setting up pool2
I0507 18:22:54.093305  5907 net.cpp:151] Top shape: 20 64 10 10 (128000)
I0507 18:22:54.093309  5907 net.cpp:159] Memory required for data: 8736080
I0507 18:22:54.093312  5907 layer_factory.hpp:77] Creating layer conv3
I0507 18:22:54.093320  5907 net.cpp:94] Creating Layer conv3
I0507 18:22:54.093323  5907 net.cpp:435] conv3 <- pool2
I0507 18:22:54.093328  5907 net.cpp:409] conv3 -> conv3
I0507 18:22:54.098623  5907 net.cpp:144] Setting up conv3
I0507 18:22:54.098635  5907 net.cpp:151] Top shape: 20 64 10 10 (128000)
I0507 18:22:54.098639  5907 net.cpp:159] Memory required for data: 9248080
I0507 18:22:54.098647  5907 layer_factory.hpp:77] Creating layer relu3
I0507 18:22:54.098654  5907 net.cpp:94] Creating Layer relu3
I0507 18:22:54.098657  5907 net.cpp:435] relu3 <- conv3
I0507 18:22:54.098661  5907 net.cpp:396] relu3 -> conv3 (in-place)
I0507 18:22:54.098668  5907 net.cpp:144] Setting up relu3
I0507 18:22:54.098672  5907 net.cpp:151] Top shape: 20 64 10 10 (128000)
I0507 18:22:54.098675  5907 net.cpp:159] Memory required for data: 9760080
I0507 18:22:54.098678  5907 layer_factory.hpp:77] Creating layer conv4
I0507 18:22:54.098686  5907 net.cpp:94] Creating Layer conv4
I0507 18:22:54.098690  5907 net.cpp:435] conv4 <- conv3
I0507 18:22:54.098695  5907 net.cpp:409] conv4 -> conv4
I0507 18:22:54.103947  5907 net.cpp:144] Setting up conv4
I0507 18:22:54.103961  5907 net.cpp:151] Top shape: 20 64 10 10 (128000)
I0507 18:22:54.103965  5907 net.cpp:159] Memory required for data: 10272080
I0507 18:22:54.103971  5907 layer_factory.hpp:77] Creating layer relu4
I0507 18:22:54.103976  5907 net.cpp:94] Creating Layer relu4
I0507 18:22:54.103981  5907 net.cpp:435] relu4 <- conv4
I0507 18:22:54.103984  5907 net.cpp:396] relu4 -> conv4 (in-place)
I0507 18:22:54.103991  5907 net.cpp:144] Setting up relu4
I0507 18:22:54.103996  5907 net.cpp:151] Top shape: 20 64 10 10 (128000)
I0507 18:22:54.103998  5907 net.cpp:159] Memory required for data: 10784080
I0507 18:22:54.104001  5907 layer_factory.hpp:77] Creating layer conv5
I0507 18:22:54.104009  5907 net.cpp:94] Creating Layer conv5
I0507 18:22:54.104012  5907 net.cpp:435] conv5 <- conv4
I0507 18:22:54.104017  5907 net.cpp:409] conv5 -> conv5
I0507 18:22:54.109315  5907 net.cpp:144] Setting up conv5
I0507 18:22:54.109329  5907 net.cpp:151] Top shape: 20 64 10 10 (128000)
I0507 18:22:54.109333  5907 net.cpp:159] Memory required for data: 11296080
I0507 18:22:54.109341  5907 layer_factory.hpp:77] Creating layer relu5
I0507 18:22:54.109349  5907 net.cpp:94] Creating Layer relu5
I0507 18:22:54.109351  5907 net.cpp:435] relu5 <- conv5
I0507 18:22:54.109356  5907 net.cpp:396] relu5 -> conv5 (in-place)
I0507 18:22:54.109362  5907 net.cpp:144] Setting up relu5
I0507 18:22:54.109366  5907 net.cpp:151] Top shape: 20 64 10 10 (128000)
I0507 18:22:54.109369  5907 net.cpp:159] Memory required for data: 11808080
I0507 18:22:54.109372  5907 layer_factory.hpp:77] Creating layer pool5
I0507 18:22:54.109378  5907 net.cpp:94] Creating Layer pool5
I0507 18:22:54.109381  5907 net.cpp:435] pool5 <- conv5
I0507 18:22:54.109385  5907 net.cpp:409] pool5 -> pool5
I0507 18:22:54.109427  5907 net.cpp:144] Setting up pool5
I0507 18:22:54.109436  5907 net.cpp:151] Top shape: 20 64 5 5 (32000)
I0507 18:22:54.109438  5907 net.cpp:159] Memory required for data: 11936080
I0507 18:22:54.109441  5907 layer_factory.hpp:77] Creating layer ip1
I0507 18:22:54.109450  5907 net.cpp:94] Creating Layer ip1
I0507 18:22:54.109454  5907 net.cpp:435] ip1 <- pool5
I0507 18:22:54.109459  5907 net.cpp:409] ip1 -> ip1
I0507 18:22:54.112006  5907 net.cpp:144] Setting up ip1
I0507 18:22:54.112015  5907 net.cpp:151] Top shape: 20 64 (1280)
I0507 18:22:54.112017  5907 net.cpp:159] Memory required for data: 11941200
I0507 18:22:54.112023  5907 layer_factory.hpp:77] Creating layer ip2
I0507 18:22:54.112028  5907 net.cpp:94] Creating Layer ip2
I0507 18:22:54.112035  5907 net.cpp:435] ip2 <- ip1
I0507 18:22:54.112040  5907 net.cpp:409] ip2 -> ip2
I0507 18:22:54.112263  5907 net.cpp:144] Setting up ip2
I0507 18:22:54.112272  5907 net.cpp:151] Top shape: 20 64 (1280)
I0507 18:22:54.112274  5907 net.cpp:159] Memory required for data: 11946320
I0507 18:22:54.112279  5907 layer_factory.hpp:77] Creating layer ip3
I0507 18:22:54.112287  5907 net.cpp:94] Creating Layer ip3
I0507 18:22:54.112289  5907 net.cpp:435] ip3 <- ip2
I0507 18:22:54.112295  5907 net.cpp:409] ip3 -> ip3
I0507 18:22:54.112409  5907 net.cpp:144] Setting up ip3
I0507 18:22:54.112416  5907 net.cpp:151] Top shape: 20 1 (20)
I0507 18:22:54.112419  5907 net.cpp:159] Memory required for data: 11946400
I0507 18:22:54.112424  5907 layer_factory.hpp:77] Creating layer loss
I0507 18:22:54.112434  5907 net.cpp:94] Creating Layer loss
I0507 18:22:54.112437  5907 net.cpp:435] loss <- ip3
I0507 18:22:54.112442  5907 net.cpp:435] loss <- label
I0507 18:22:54.112447  5907 net.cpp:409] loss -> loss
I0507 18:22:54.112504  5907 net.cpp:144] Setting up loss
…
I0507 18:22:54.178872  5907 net.cpp:323] The NetState phase (0) differed from the phase (1) specified by a rule in layer intercept
I0507 18:22:54.178903  5907 net.cpp:323] The NetState phase (0) differed from the phase (1) specified by a rule in layer accuracy
I0507 18:22:54.179059  5907 net.cpp:52] Initializing net from parameters: 
state {
  phase: TRAIN
}
layer {
  name: "parameters"
  type: "HDF5Data"
  top: "data"
  top: "label"
  include {
    phase: TRAIN
  }
  hdf5_data_param {
    source: "/home/purduethu/scratch/radon/d/deng106/CNNStatisticalModel/distributions/input/5_distributions_400_sample_size_train-distributions-path.txt"
    batch_size: 20
  }
}
layer {
  name: "conv1"
  type: "Convolution"
  bottom: "data"
  top: "conv1"
  param {
    lr_mult: 1
  }
  param {
    lr_mult: 2
  }
  convolution_param {
    num_output: 64
    pad: 2
    kernel_size: 5
    stride: 1
    weight_filler {
      type: "gaussian"
      std: 0.0001
    }
    bias_filler {
      type: "constant"
    }
  }
}
layer {
  name: "relu1"
  type: "ReLU"
  bottom: "conv1"
  top: "conv1"
}
layer {
  name: "conv2"
  type: "Convolution"
  bottom: "conv1"
  top: "conv2"
  param {
    lr_mult: 1
  }
  param {
    lr_mult: 2
  }
  convolution_param {
    num_output: 64
    pad: 2
    kernel_size: 5
    stride: 1
    weight_filler {
      type: "gaussian"
      std: 0.01
    }
    bias_filler {
      type: "constant"
    }
  }
}
layer {
  name: "relu2"
  type: "ReLU"
  bottom: "conv2"
  top: "conv2"
}
layer {
  name: "pool2"
  type: "Pooling"
  bottom: "conv2"
  top: "pool2"
  pooling_param {
    pool: MAX
    kernel_size: 3
    stride: 2
  }
}
layer {
  name: "conv3"
  type: "Convolution"
  bottom: "pool2"
  top: "conv3"
  param {
    lr_mult: 1
  }
  param {
    lr_mult: 2
  }
  convolution_param {
    num_output: 64
    pad: 2
    kernel_size: 5
    stride: 1
    weight_filler {
      type: "gaussian"
      std: 0.01
    }
    bias_filler {
      type: "constant"
    }
  }
}
layer {
  name: "relu3"
  type: "ReLU"
  bottom: "conv3"
  top: "conv3"
}
layer {
  name: "conv4"
  type: "Convolution"
  bottom: "conv3"
  top: "conv4"
  param {
    lr_mult: 1
  }
  param {
    lr_mult: 2
  }
  convolution_param {
    num_output: 64
    pad: 2
    kernel_size: 5
    stride: 1
    weight_filler {
      type: "gaussian"
      std: 0.01
    }
    bias_filler {
      type: "constant"
    }
  }
}
layer {
  name: "relu4"
  type: "ReLU"
  bottom: "conv4"
  top: "conv4"
}
layer {
  name: "conv5"
  type: "Convolution"
  bottom: "conv4"
  top: "conv5"
  param {
    lr_mult: 1
  }
  param {
    lr_mult: 2
  }
  convolution_param {
    num_output: 64
    pad: 2
    kernel_size: 5
    stride: 1
    weight_filler {
      type: "gaussian"
      std: 0.01
    }
    bias_filler {
      type: "constant"
    }
  }
}
layer {
  name: "relu5"
  type: "ReLU"
  bottom: "conv5"
  top: "conv5"
}
layer {
  name: "pool5"
  type: "Pooling"
  bottom: "conv5"
  top: "pool5"
  pooling_param {
    pool: AVE
    kernel_size: 3
    stride: 2
  }
}
layer {
  name: "ip1"
  type: "InnerProduct"
  bottom: "pool5"
  top: "ip1"
  param {
    lr_mult: 1
  }
  param {
    lr_mult: 2
  }
  inner_product_param {
    num_output: 64
    weight_filler {
      type: "gaussian"
      std: 0.1
    }
    bias_filler {
      type: "constant"
    }
  }
}
layer {
  name: "ip2"
  type: "InnerProduct"
  bottom: "ip1"
  top: "ip2"
  param {
    lr_mult: 1
  }
  param {
    lr_mult: 2
  }
  inner_product_param {
    num_output: 64
    weight_filler {
      type: "gaussian"
      std: 0.1
    }
    bias_filler {
      type: "constant"
    }
  }
}
layer {
  name: "ip3"
  type: "InnerProduct"
  bottom: "ip2"
  top: "ip3"
  param {
    lr_mult: 1
  }
  param {
    lr_mult: 2
  }
  inner_product_param {
    num_output: 50
    weight_filler {
      type: "gaussian"
      std: 0.1
    }
    bias_filler {
      type: "constant"
    }
  }
}
layer {
  name: "loss"
  type: "SoftmaxWithLoss"
  bottom: "ip3"
  bottom: "label"
  top: "loss"
}
I0507 18:22:54.179147  5907 layer_factory.hpp:77] Creating layer parameters
I0507 18:22:54.179162  5907 net.cpp:94] Creating Layer parameters
I0507 18:22:54.179168  5907 net.cpp:409] parameters -> data
I0507 18:22:54.179180  5907 net.cpp:409] parameters -> label
I0507 18:22:54.179191  5907 hdf5_data_layer.cpp:79] Loading list of HDF5 filenames from: /home/purduethu/scratch/radon/d/deng106/CNNStatisticalModel/distributions/input/5_distributions_400_sample_size_train-distributions-path.txt
I0507 18:22:54.179216  5907 hdf5_data_layer.cpp:93] Number of HDF5 files: 1
I0507 18:22:54.262706  5907 hdf5.cpp:35] Datatype class: H5T_INTEGER
I0507 18:22:54.263252  5907 net.cpp:144] Setting up parameters
I0507 18:22:54.263269  5907 net.cpp:151] Top shape: 20 1 20 20 (8000)
I0507 18:22:54.263276  5907 net.cpp:151] Top shape: 20 (20)
I0507 18:22:54.263280  5907 net.cpp:159] Memory required for data: 32080
I0507 18:22:54.263288  5907 layer_factory.hpp:77] Creating layer conv1
I0507 18:22:54.263305  5907 net.cpp:94] Creating Layer conv1
I0507 18:22:54.263311  5907 net.cpp:435] conv1 <- data
I0507 18:22:54.263319  5907 net.cpp:409] conv1 -> conv1
I0507 18:22:54.266541  5907 net.cpp:144] Setting up conv1
I0507 18:22:54.266561  5907 net.cpp:151] Top shape: 20 64 20 20 (512000)
I0507 18:22:54.266566  5907 net.cpp:159] Memory required for data: 2080080
I0507 18:22:54.266578  5907 layer_factory.hpp:77] Creating layer relu1
I0507 18:22:54.266587  5907 net.cpp:94] Creating Layer relu1
I0507 18:22:54.266592  5907 net.cpp:435] relu1 <- conv1
I0507 18:22:54.266598  5907 net.cpp:396] relu1 -> conv1 (in-place)
I0507 18:22:54.266608  5907 net.cpp:144] Setting up relu1
I0507 18:22:54.266614  5907 net.cpp:151] Top shape: 20 64 20 20 (512000)
I0507 18:22:54.266618  5907 net.cpp:159] Memory required for data: 4128080
I0507 18:22:54.266623  5907 layer_factory.hpp:77] Creating layer conv2
I0507 18:22:54.266633  5907 net.cpp:94] Creating Layer conv2
I0507 18:22:54.266636  5907 net.cpp:435] conv2 <- conv1
I0507 18:22:54.266644  5907 net.cpp:409] conv2 -> conv2
I0507 18:22:54.278240  5907 net.cpp:144] Setting up conv2
I0507 18:22:54.278259  5907 net.cpp:151] Top shape: 20 64 20 20 (512000)
I0507 18:22:54.278264  5907 net.cpp:159] Memory required for data: 6176080
I0507 18:22:54.278275  5907 layer_factory.hpp:77] Creating layer relu2
I0507 18:22:54.278283  5907 net.cpp:94] Creating Layer relu2
I0507 18:22:54.278287  5907 net.cpp:435] relu2 <- conv2
I0507 18:22:54.278293  5907 net.cpp:396] relu2 -> conv2 (in-place)
I0507 18:22:54.278302  5907 net.cpp:144] Setting up relu2
I0507 18:22:54.278308  5907 net.cpp:151] Top shape: 20 64 20 20 (512000)
I0507 18:22:54.278312  5907 net.cpp:159] Memory required for data: 8224080
I0507 18:22:54.278316  5907 layer_factory.hpp:77] Creating layer pool2
I0507 18:22:54.278322  5907 net.cpp:94] Creating Layer pool2
I0507 18:22:54.278326  5907 net.cpp:435] pool2 <- conv2
I0507 18:22:54.278332  5907 net.cpp:409] pool2 -> pool2
I0507 18:22:54.278403  5907 net.cpp:144] Setting up pool2
I0507 18:22:54.278412  5907 net.cpp:151] Top shape: 20 64 10 10 (128000)
I0507 18:22:54.278416  5907 net.cpp:159] Memory required for data: 8736080
I0507 18:22:54.278420  5907 layer_factory.hpp:77] Creating layer conv3
I0507 18:22:54.278429  5907 net.cpp:94] Creating Layer conv3
I0507 18:22:54.278434  5907 net.cpp:435] conv3 <- pool2
I0507 18:22:54.278440  5907 net.cpp:409] conv3 -> conv3
I0507 18:22:54.284847  5907 net.cpp:144] Setting up conv3
I0507 18:22:54.284888  5907 net.cpp:151] Top shape: 20 64 10 10 (128000)
I0507 18:22:54.284898  5907 net.cpp:159] Memory required for data: 9248080
I0507 18:22:54.284921  5907 layer_factory.hpp:77] Creating layer relu3
I0507 18:22:54.284939  5907 net.cpp:94] Creating Layer relu3
I0507 18:22:54.284948  5907 net.cpp:435] relu3 <- conv3
I0507 18:22:54.284960  5907 net.cpp:396] relu3 -> conv3 (in-place)
I0507 18:22:54.284981  5907 net.cpp:144] Setting up relu3
I0507 18:22:54.284993  5907 net.cpp:151] Top shape: 20 64 10 10 (128000)
I0507 18:22:54.285001  5907 net.cpp:159] Memory required for data: 9760080
I0507 18:22:54.285010  5907 layer_factory.hpp:77] Creating layer conv4
I0507 18:22:54.285032  5907 net.cpp:94] Creating Layer conv4
I0507 18:22:54.285042  5907 net.cpp:435] conv4 <- conv3
I0507 18:22:54.285055  5907 net.cpp:409] conv4 -> conv4
I0507 18:22:54.296881  5907 net.cpp:144] Setting up conv4
I0507 18:22:54.296916  5907 net.cpp:151] Top shape: 20 64 10 10 (128000)
I0507 18:22:54.296927  5907 net.cpp:159] Memory required for data: 10272080
I0507 18:22:54.296944  5907 layer_factory.hpp:77] Creating layer relu4
I0507 18:22:54.296959  5907 net.cpp:94] Creating Layer relu4
I0507 18:22:54.296969  5907 net.cpp:435] relu4 <- conv4
I0507 18:22:54.296983  5907 net.cpp:396] relu4 -> conv4 (in-place)
I0507 18:22:54.297001  5907 net.cpp:144] Setting up relu4
I0507 18:22:54.297014  5907 net.cpp:151] Top shape: 20 64 10 10 (128000)
I0507 18:22:54.297022  5907 net.cpp:159] Memory required for data: 10784080
I0507 18:22:54.297031  5907 layer_factory.hpp:77] Creating layer conv5
I0507 18:22:54.297050  5907 net.cpp:94] Creating Layer conv5
I0507 18:22:54.297060  5907 net.cpp:435] conv5 <- conv4
I0507 18:22:54.297073  5907 net.cpp:409] conv5 -> conv5
I0507 18:22:54.308449  5907 net.cpp:144] Setting up conv5
I0507 18:22:54.308480  5907 net.cpp:151] Top shape: 20 64 10 10 (128000)
I0507 18:22:54.308490  5907 net.cpp:159] Memory required for data: 11296080
I0507 18:22:54.308511  5907 layer_factory.hpp:77] Creating layer relu5
I0507 18:22:54.308523  5907 net.cpp:94] Creating Layer relu5
I0507 18:22:54.308532  5907 net.cpp:435] relu5 <- conv5
I0507 18:22:54.308544  5907 net.cpp:396] relu5 -> conv5 (in-place)
I0507 18:22:54.308578  5907 net.cpp:144] Setting up relu5
I0507 18:22:54.308593  5907 net.cpp:151] Top shape: 20 64 10 10 (128000)
I0507 18:22:54.308601  5907 net.cpp:159] Memory required for data: 11808080
I0507 18:22:54.308609  5907 layer_factory.hpp:77] Creating layer pool5
I0507 18:22:54.308620  5907 net.cpp:94] Creating Layer pool5
I0507 18:22:54.308629  5907 net.cpp:435] pool5 <- conv5
I0507 18:22:54.308640  5907 net.cpp:409] pool5 -> pool5
I0507 18:22:54.308732  5907 net.cpp:144] Setting up pool5
I0507 18:22:54.308748  5907 net.cpp:151] Top shape: 20 64 5 5 (32000)
I0507 18:22:54.308756  5907 net.cpp:159] Memory required for data: 11936080
I0507 18:22:54.308764  5907 layer_factory.hpp:77] Creating layer ip1
I0507 18:22:54.308779  5907 net.cpp:94] Creating Layer ip1
I0507 18:22:54.308786  5907 net.cpp:435] ip1 <- pool5
I0507 18:22:54.308799  5907 net.cpp:409] ip1 -> ip1
I0507 18:22:54.315656  5907 net.cpp:144] Setting up ip1
I0507 18:22:54.315677  5907 net.cpp:151] Top shape: 20 64 (1280)
I0507 18:22:54.315685  5907 net.cpp:159] Memory required for data: 11941200
I0507 18:22:54.315698  5907 layer_factory.hpp:77] Creating layer ip2
I0507 18:22:54.315714  5907 net.cpp:94] Creating Layer ip2
I0507 18:22:54.315723  5907 net.cpp:435] ip2 <- ip1
I0507 18:22:54.315737  5907 net.cpp:409] ip2 -> ip2
I0507 18:22:54.316305  5907 net.cpp:144] Setting up ip2
I0507 18:22:54.316321  5907 net.cpp:151] Top shape: 20 64 (1280)
I0507 18:22:54.316329  5907 net.cpp:159] Memory required for data: 11946320
I0507 18:22:54.316340  5907 layer_factory.hpp:77] Creating layer ip3
I0507 18:22:54.316352  5907 net.cpp:94] Creating Layer ip3
I0507 18:22:54.316359  5907 net.cpp:435] ip3 <- ip2
I0507 18:22:54.316372  5907 net.cpp:409] ip3 -> ip3
I0507 18:22:54.316890  5907 net.cpp:144] Setting up ip3
I0507 18:22:54.316915  5907 net.cpp:151] Top shape: 20 50 (1000)
I0507 18:22:54.316925  5907 net.cpp:159] Memory required for data: 11950320
I0507 18:22:54.316937  5907 layer_factory.hpp:77] Creating layer loss
I0507 18:22:54.316954  5907 net.cpp:94] Creating Layer loss
I0507 18:22:54.316962  5907 net.cpp:435] loss <- ip3
I0507 18:22:54.316972  5907 net.cpp:435] loss <- label
I0507 18:22:54.316982  5907 net.cpp:409] loss -> loss
I0507 18:22:54.316998  5907 layer_factory.hpp:77] Creating layer loss
…
I0507 18:22:54.318219  5907 solver.cpp:181] Creating test net (#0) specified by net file: ./protocol/dis_5_400_dimension.protocol_distribution
I0507 18:22:54.318279  5907 net.cpp:323] The NetState phase (1) differed from the phase (0) specified by a rule in layer parameters
I0507 18:22:54.318506  5907 net.cpp:52] Initializing net from parameters: 
state {
  phase: TEST
}
layer {
  name: "intercept"
  type: "HDF5Data"
  top: "data"
  top: "label"
  include {
    phase: TEST
  }
  hdf5_data_param {
    source: "/home/purduethu/scratch/radon/d/deng106/CNNStatisticalModel/distributions/input/5_distributions_400_sample_size_test-distributions-path.txt"
    batch_size: 20
  }
}
layer {
  name: "conv1"
  type: "Convolution"
  bottom: "data"
  top: "conv1"
  param {
    lr_mult: 1
  }
  param {
    lr_mult: 2
  }
  convolution_param {
    num_output: 64
    pad: 2
    kernel_size: 5
    stride: 1
    weight_filler {
      type: "gaussian"
      std: 0.0001
    }
    bias_filler {
      type: "constant"
    }
  }
}
layer {
  name: "relu1"
  type: "ReLU"
  bottom: "conv1"
  top: "conv1"
}
layer {
  name: "conv2"
  type: "Convolution"
  bottom: "conv1"
  top: "conv2"
  param {
    lr_mult: 1
  }
  param {
    lr_mult: 2
  }
  convolution_param {
    num_output: 64
    pad: 2
    kernel_size: 5
    stride: 1
    weight_filler {
      type: "gaussian"
      std: 0.01
    }
    bias_filler {
      type: "constant"
    }
  }
}
layer {
  name: "relu2"
  type: "ReLU"
  bottom: "conv2"
  top: "conv2"
}
layer {
  name: "pool2"
  type: "Pooling"
  bottom: "conv2"
  top: "pool2"
  pooling_param {
    pool: MAX
    kernel_size: 3
    stride: 2
  }
}
layer {
  name: "conv3"
  type: "Convolution"
  bottom: "pool2"
  top: "conv3"
  param {
    lr_mult: 1
  }
  param {
    lr_mult: 2
  }
  convolution_param {
    num_output: 64
    pad: 2
    kernel_size: 5
    stride: 1
    weight_filler {
      type: "gaussian"
      std: 0.01
    }
    bias_filler {
      type: "constant"
    }
  }
}
layer {
  name: "relu3"
  type: "ReLU"
  bottom: "conv3"
  top: "conv3"
}
layer {
  name: "conv4"
  type: "Convolution"
  bottom: "conv3"
  top: "conv4"
  param {
    lr_mult: 1
  }
  param {
    lr_mult: 2
  }
  convolution_param {
    num_output: 64
    pad: 2
    kernel_size: 5
    stride: 1
    weight_filler {
      type: "gaussian"
      std: 0.01
    }
    bias_filler {
      type: "constant"
    }
  }
}
layer {
  name: "relu4"
  type: "ReLU"
  bottom: "conv4"
  top: "conv4"
}
layer {
  name: "conv5"
  type: "Convolution"
  bottom: "conv4"
  top: "conv5"
  param {
    lr_mult: 1
  }
  param {
    lr_mult: 2
  }
  convolution_param {
    num_output: 64
    pad: 2
    kernel_size: 5
    stride: 1
    weight_filler {
      type: "gaussian"
      std: 0.01
    }
    bias_filler {
      type: "constant"
    }
  }
}
layer {
  name: "relu5"
  type: "ReLU"
  bottom: "conv5"
  top: "conv5"
}
layer {
  name: "pool5"
  type: "Pooling"
  bottom: "conv5"
  top: "pool5"
  pooling_param {
    pool: AVE
    kernel_size: 3
    stride: 2
  }
}
layer {
  name: "ip1"
  type: "InnerProduct"
  bottom: "pool5"
  top: "ip1"
  param {
    lr_mult: 1
  }
  param {
    lr_mult: 2
  }
  inner_product_param {
    num_output: 64
    weight_filler {
      type: "gaussian"
      std: 0.1
    }
    bias_filler {
      type: "constant"
    }
  }
}
layer {
  name: "ip2"
  type: "InnerProduct"
  bottom: "ip1"
  top: "ip2"
  param {
    lr_mult: 1
  }
  param {
    lr_mult: 2
  }
  inner_product_param {
    num_output: 64
    weight_filler {
      type: "gaussian"
      std: 0.1
    }
    bias_filler {
      type: "constant"
    }
  }
}
layer {
  name: "ip3"
  type: "InnerProduct"
  bottom: "ip2"
  top: "ip3"
  param {
    lr_mult: 1
  }
  param {
    lr_mult: 2
  }
  inner_product_param {
    num_output: 50
    weight_filler {
      type: "gaussian"
      std: 0.1
    }
    bias_filler {
      type: "constant"
    }
  }
}
layer {
  name: "accuracy"
  type: "Accuracy"
  bottom: "ip3"
  bottom: "label"
  top: "accuracy"
  include {
    phase: TEST
  }
}
layer {
  name: "loss"
  type: "SoftmaxWithLoss"
  bottom: "ip3"
  bottom: "label"
  top: "loss"
}
I0507 18:22:54.318668  5907 layer_factory.hpp:77] Creating layer intercept
I0507 18:22:54.318686  5907 net.cpp:94] Creating Layer intercept
I0507 18:22:54.318696  5907 net.cpp:409] intercept -> data
I0507 18:22:54.318712  5907 net.cpp:409] intercept -> label
I0507 18:22:54.318727  5907 hdf5_data_layer.cpp:79] Loading list of HDF5 filenames from: /home/purduethu/scratch/radon/d/deng106/CNNStatisticalModel/distributions/input/5_distributions_400_sample_size_test-distributions-path.txt
I0507 18:22:54.318760  5907 hdf5_data_layer.cpp:93] Number of HDF5 files: 1
I0507 18:22:54.348249  5907 net.cpp:144] Setting up intercept
I0507 18:22:54.348296  5907 net.cpp:151] Top shape: 20 1 20 20 (8000)
I0507 18:22:54.348307  5907 net.cpp:151] Top shape: 20 (20)
I0507 18:22:54.348315  5907 net.cpp:159] Memory required for data: 32080
I0507 18:22:54.348325  5907 layer_factory.hpp:77] Creating layer label_intercept_1_split
I0507 18:22:54.348351  5907 net.cpp:94] Creating Layer label_intercept_1_split
I0507 18:22:54.348359  5907 net.cpp:435] label_intercept_1_split <- label
I0507 18:22:54.348369  5907 net.cpp:409] label_intercept_1_split -> label_intercept_1_split_0
I0507 18:22:54.348386  5907 net.cpp:409] label_intercept_1_split -> label_intercept_1_split_1
I0507 18:22:54.348475  5907 net.cpp:144] Setting up label_intercept_1_split
I0507 18:22:54.348489  5907 net.cpp:151] Top shape: 20 (20)
I0507 18:22:54.348496  5907 net.cpp:151] Top shape: 20 (20)
I0507 18:22:54.348502  5907 net.cpp:159] Memory required for data: 32240
I0507 18:22:54.348510  5907 layer_factory.hpp:77] Creating layer conv1
I0507 18:22:54.348527  5907 net.cpp:94] Creating Layer conv1
I0507 18:22:54.348536  5907 net.cpp:435] conv1 <- data
I0507 18:22:54.348544  5907 net.cpp:409] conv1 -> conv1
I0507 18:22:54.350811  5907 net.cpp:144] Setting up conv1
I0507 18:22:54.350847  5907 net.cpp:151] Top shape: 20 64 20 20 (512000)
I0507 18:22:54.350855  5907 net.cpp:159] Memory required for data: 2080240
I0507 18:22:54.350873  5907 layer_factory.hpp:77] Creating layer relu1
I0507 18:22:54.350885  5907 net.cpp:94] Creating Layer relu1
I0507 18:22:54.350893  5907 net.cpp:435] relu1 <- conv1
I0507 18:22:54.350901  5907 net.cpp:396] relu1 -> conv1 (in-place)
I0507 18:22:54.350914  5907 net.cpp:144] Setting up relu1
I0507 18:22:54.350924  5907 net.cpp:151] Top shape: 20 64 20 20 (512000)
I0507 18:22:54.350929  5907 net.cpp:159] Memory required for data: 4128240
I0507 18:22:54.350935  5907 layer_factory.hpp:77] Creating layer conv2
I0507 18:22:54.350951  5907 net.cpp:94] Creating Layer conv2
I0507 18:22:54.350958  5907 net.cpp:435] conv2 <- conv1
I0507 18:22:54.350968  5907 net.cpp:409] conv2 -> conv2
I0507 18:22:54.360765  5907 net.cpp:144] Setting up conv2
I0507 18:22:54.360790  5907 net.cpp:151] Top shape: 20 64 20 20 (512000)
I0507 18:22:54.360798  5907 net.cpp:159] Memory required for data: 6176240
I0507 18:22:54.360815  5907 layer_factory.hpp:77] Creating layer relu2
I0507 18:22:54.360826  5907 net.cpp:94] Creating Layer relu2
I0507 18:22:54.360832  5907 net.cpp:435] relu2 <- conv2
I0507 18:22:54.360841  5907 net.cpp:396] relu2 -> conv2 (in-place)
I0507 18:22:54.360854  5907 net.cpp:144] Setting up relu2
I0507 18:22:54.360863  5907 net.cpp:151] Top shape: 20 64 20 20 (512000)
I0507 18:22:54.360869  5907 net.cpp:159] Memory required for data: 8224240
I0507 18:22:54.360875  5907 layer_factory.hpp:77] Creating layer pool2
I0507 18:22:54.360887  5907 net.cpp:94] Creating Layer pool2
I0507 18:22:54.360893  5907 net.cpp:435] pool2 <- conv2
I0507 18:22:54.360900  5907 net.cpp:409] pool2 -> pool2
I0507 18:22:54.361021  5907 net.cpp:144] Setting up pool2
I0507 18:22:54.361034  5907 net.cpp:151] Top shape: 20 64 10 10 (128000)
I0507 18:22:54.361039  5907 net.cpp:159] Memory required for data: 8736240
I0507 18:22:54.361045  5907 layer_factory.hpp:77] Creating layer conv3
I0507 18:22:54.361059  5907 net.cpp:94] Creating Layer conv3
I0507 18:22:54.361065  5907 net.cpp:435] conv3 <- pool2
I0507 18:22:54.361074  5907 net.cpp:409] conv3 -> conv3
I0507 18:22:54.368139  5907 net.cpp:144] Setting up conv3
I0507 18:22:54.368161  5907 net.cpp:151] Top shape: 20 64 10 10 (128000)
I0507 18:22:54.368168  5907 net.cpp:159] Memory required for data: 9248240
I0507 18:22:54.368183  5907 layer_factory.hpp:77] Creating layer relu3
I0507 18:22:54.368196  5907 net.cpp:94] Creating Layer relu3
I0507 18:22:54.368202  5907 net.cpp:435] relu3 <- conv3
I0507 18:22:54.368211  5907 net.cpp:396] relu3 -> conv3 (in-place)
I0507 18:22:54.368222  5907 net.cpp:144] Setting up relu3
I0507 18:22:54.368232  5907 net.cpp:151] Top shape: 20 64 10 10 (128000)
I0507 18:22:54.368237  5907 net.cpp:159] Memory required for data: 9760240
I0507 18:22:54.368242  5907 layer_factory.hpp:77] Creating layer conv4
I0507 18:22:54.368257  5907 net.cpp:94] Creating Layer conv4
I0507 18:22:54.368263  5907 net.cpp:435] conv4 <- conv3
I0507 18:22:54.368273  5907 net.cpp:409] conv4 -> conv4
I0507 18:22:54.374516  5907 net.cpp:144] Setting up conv4
I0507 18:22:54.374536  5907 net.cpp:151] Top shape: 20 64 10 10 (128000)
I0507 18:22:54.374543  5907 net.cpp:159] Memory required for data: 10272240
I0507 18:22:54.374554  5907 layer_factory.hpp:77] Creating layer relu4
I0507 18:22:54.374563  5907 net.cpp:94] Creating Layer relu4
I0507 18:22:54.374570  5907 net.cpp:435] relu4 <- conv4
I0507 18:22:54.374578  5907 net.cpp:396] relu4 -> conv4 (in-place)
I0507 18:22:54.374589  5907 net.cpp:144] Setting up relu4
I0507 18:22:54.374598  5907 net.cpp:151] Top shape: 20 64 10 10 (128000)
I0507 18:22:54.374603  5907 net.cpp:159] Memory required for data: 10784240
I0507 18:22:54.374609  5907 layer_factory.hpp:77] Creating layer conv5
I0507 18:22:54.374621  5907 net.cpp:94] Creating Layer conv5
I0507 18:22:54.374627  5907 net.cpp:435] conv5 <- conv4
I0507 18:22:54.374636  5907 net.cpp:409] conv5 -> conv5
I0507 18:22:54.381376  5907 net.cpp:144] Setting up conv5
I0507 18:22:54.381407  5907 net.cpp:151] Top shape: 20 64 10 10 (128000)
I0507 18:22:54.381413  5907 net.cpp:159] Memory required for data: 11296240
I0507 18:22:54.381428  5907 layer_factory.hpp:77] Creating layer relu5
I0507 18:22:54.381439  5907 net.cpp:94] Creating Layer relu5
I0507 18:22:54.381445  5907 net.cpp:435] relu5 <- conv5
I0507 18:22:54.381453  5907 net.cpp:396] relu5 -> conv5 (in-place)
I0507 18:22:54.381464  5907 net.cpp:144] Setting up relu5
I0507 18:22:54.381472  5907 net.cpp:151] Top shape: 20 64 10 10 (128000)
I0507 18:22:54.381479  5907 net.cpp:159] Memory required for data: 11808240
I0507 18:22:54.381484  5907 layer_factory.hpp:77] Creating layer pool5
I0507 18:22:54.381492  5907 net.cpp:94] Creating Layer pool5
I0507 18:22:54.381497  5907 net.cpp:435] pool5 <- conv5
I0507 18:22:54.381505  5907 net.cpp:409] pool5 -> pool5
I0507 18:22:54.381569  5907 net.cpp:144] Setting up pool5
I0507 18:22:54.381580  5907 net.cpp:151] Top shape: 20 64 5 5 (32000)
I0507 18:22:54.381587  5907 net.cpp:159] Memory required for data: 11936240
I0507 18:22:54.381592  5907 layer_factory.hpp:77] Creating layer ip1
I0507 18:22:54.381603  5907 net.cpp:94] Creating Layer ip1
I0507 18:22:54.381608  5907 net.cpp:435] ip1 <- pool5
I0507 18:22:54.381616  5907 net.cpp:409] ip1 -> ip1
I0507 18:22:54.386373  5907 net.cpp:144] Setting up ip1
I0507 18:22:54.386387  5907 net.cpp:151] Top shape: 20 64 (1280)
I0507 18:22:54.386394  5907 net.cpp:159] Memory required for data: 11941360
I0507 18:22:54.386402  5907 layer_factory.hpp:77] Creating layer ip2
I0507 18:22:54.386412  5907 net.cpp:94] Creating Layer ip2
I0507 18:22:54.386418  5907 net.cpp:435] ip2 <- ip1
I0507 18:22:54.386426  5907 net.cpp:409] ip2 -> ip2
I0507 18:22:54.386831  5907 net.cpp:144] Setting up ip2
I0507 18:22:54.386842  5907 net.cpp:151] Top shape: 20 64 (1280)
I0507 18:22:54.386847  5907 net.cpp:159] Memory required for data: 11946480
I0507 18:22:54.386855  5907 layer_factory.hpp:77] Creating layer ip3
I0507 18:22:54.386867  5907 net.cpp:94] Creating Layer ip3
I0507 18:22:54.386871  5907 net.cpp:435] ip3 <- ip2
I0507 18:22:54.386879  5907 net.cpp:409] ip3 -> ip3
I0507 18:22:54.387230  5907 net.cpp:144] Setting up ip3
I0507 18:22:54.387241  5907 net.cpp:151] Top shape: 20 50 (1000)
I0507 18:22:54.387248  5907 net.cpp:159] Memory required for data: 11950480
I0507 18:22:54.387255  5907 layer_factory.hpp:77] Creating layer ip3_ip3_0_split
I0507 18:22:54.387264  5907 net.cpp:94] Creating Layer ip3_ip3_0_split
I0507 18:22:54.387269  5907 net.cpp:435] ip3_ip3_0_split <- ip3
I0507 18:22:54.387275  5907 net.cpp:409] ip3_ip3_0_split -> ip3_ip3_0_split_0
I0507 18:22:54.387284  5907 net.cpp:409] ip3_ip3_0_split -> ip3_ip3_0_split_1
I0507 18:22:54.387354  5907 net.cpp:144] Setting up ip3_ip3_0_split
I0507 18:22:54.387363  5907 net.cpp:151] Top shape: 20 50 (1000)
I0507 18:22:54.387370  5907 net.cpp:151] Top shape: 20 50 (1000)
I0507 18:22:54.387375  5907 net.cpp:159] Memory required for data: 11958480
I0507 18:22:54.387380  5907 layer_factory.hpp:77] Creating layer accuracy
I0507 18:22:54.387388  5907 net.cpp:94] Creating Layer accuracy
I0507 18:22:54.387394  5907 net.cpp:435] accuracy <- ip3_ip3_0_split_0
I0507 18:22:54.387400  5907 net.cpp:435] accuracy <- label_intercept_1_split_0
I0507 18:22:54.387408  5907 net.cpp:409] accuracy -> accuracy
…
