…
I0505 10:13:10.115562  6308 net.cpp:323] The NetState phase (0) differed from the phase (1) specified by a rule in layer intercept
I0505 10:13:10.115577  6308 net.cpp:323] The NetState phase (0) differed from the phase (1) specified by a rule in layer loss
I0505 10:13:10.115645  6308 net.cpp:52] Initializing net from parameters: 
state {
  phase: TRAIN
}
layer {
  name: "parameters"
  type: "HDF5Data"
  top: "data"
  top: "label"
  include {
    phase: TRAIN
  }
  hdf5_data_param {
    source: "/home/purduethu/scratch/radon/d/deng106/CNNStatisticalModel/distributions/input/50_distributions_900_sample_size_train-parameters-path.txt"
    batch_size: 20
  }
}
layer {
  name: "conv1"
  type: "Convolution"
  bottom: "data"
  top: "conv1"
  param {
    lr_mult: 1
  }
  param {
    lr_mult: 2
  }
  convolution_param {
    num_output: 64
    pad: 2
    kernel_size: 5
    stride: 1
    weight_filler {
      type: "gaussian"
      std: 0.0001
    }
    bias_filler {
      type: "constant"
    }
  }
}
layer {
  name: "relu1"
  type: "ReLU"
  bottom: "conv1"
  top: "conv1"
}
layer {
  name: "pool1"
  type: "Pooling"
  bottom: "conv1"
  top: "pool1"
  pooling_param {
    pool: MAX
    kernel_size: 3
    stride: 2
  }
}
layer {
  name: "conv2"
  type: "Convolution"
  bottom: "pool1"
  top: "conv2"
  param {
    lr_mult: 1
  }
  param {
    lr_mult: 2
  }
  convolution_param {
    num_output: 128
    pad: 2
    kernel_size: 5
    stride: 1
    weight_filler {
      type: "gaussian"
      std: 0.01
    }
    bias_filler {
      type: "constant"
    }
  }
}
layer {
  name: "relu2"
  type: "ReLU"
  bottom: "conv2"
  top: "conv2"
}
layer {
  name: "conv3"
  type: "Convolution"
  bottom: "conv2"
  top: "conv3"
  param {
    lr_mult: 1
  }
  param {
    lr_mult: 2
  }
  convolution_param {
    num_output: 128
    pad: 2
    kernel_size: 5
    stride: 1
    weight_filler {
      type: "gaussian"
      std: 0.01
    }
    bias_filler {
      type: "constant"
    }
  }
}
layer {
  name: "relu3"
  type: "ReLU"
  bottom: "conv3"
  top: "conv3"
}
layer {
  name: "pool3"
  type: "Pooling"
  bottom: "conv3"
  top: "pool3"
  pooling_param {
    pool: AVE
    kernel_size: 3
    stride: 2
  }
}
layer {
  name: "ip1"
  type: "InnerProduct"
  bottom: "pool3"
  top: "ip1"
  param {
    lr_mult: 1
  }
  param {
    lr_mult: 2
  }
  inner_product_param {
    num_output: 512
    weight_filler {
      type: "gaussian"
      std: 0.1
    }
    bias_filler {
      type: "constant"
    }
  }
}
layer {
  name: "ip2"
  type: "InnerProduct"
  bottom: "ip1"
  top: "ip2"
  param {
    lr_mult: 1
  }
  param {
    lr_mult: 2
  }
  inner_product_param {
    num_output: 256
    weight_filler {
      type: "gaussian"
      std: 0.1
    }
    bias_filler {
      type: "constant"
    }
  }
}
layer {
  name: "ip3"
  type: "InnerProduct"
  bottom: "ip2"
  top: "ip3"
  param {
    lr_mult: 1
  }
  param {
    lr_mult: 2
  }
  inner_product_param {
    num_output: 1
    weight_filler {
      type: "gaussian"
      std: 0.1
    }
    bias_filler {
      type: "constant"
    }
  }
}
layer {
  name: "loss"
  type: "HuberLoss"
  bottom: "ip3"
  bottom: "label"
  top: "loss"
  include {
    phase: TRAIN
  }
}
I0505 10:13:10.115695  6308 layer_factory.hpp:77] Creating layer parameters
I0505 10:13:10.115713  6308 net.cpp:94] Creating Layer parameters
I0505 10:13:10.115718  6308 net.cpp:409] parameters -> data
I0505 10:13:10.115728  6308 net.cpp:409] parameters -> label
I0505 10:13:10.115736  6308 hdf5_data_layer.cpp:79] Loading list of HDF5 filenames from: /home/purduethu/scratch/radon/d/deng106/CNNStatisticalModel/distributions/input/50_distributions_900_sample_size_train-parameters-path.txt
I0505 10:13:10.115751  6308 hdf5_data_layer.cpp:93] Number of HDF5 files: 1
I0505 10:13:10.116302  6308 hdf5.cpp:32] Datatype class: H5T_FLOAT
I0505 10:13:11.636529  6308 net.cpp:144] Setting up parameters
I0505 10:13:11.636577  6308 net.cpp:151] Top shape: 20 1 30 30 (18000)
I0505 10:13:11.636584  6308 net.cpp:151] Top shape: 20 (20)
I0505 10:13:11.636587  6308 net.cpp:159] Memory required for data: 72080
I0505 10:13:11.636595  6308 layer_factory.hpp:77] Creating layer conv1
I0505 10:13:11.636617  6308 net.cpp:94] Creating Layer conv1
I0505 10:13:11.636622  6308 net.cpp:435] conv1 <- data
I0505 10:13:11.636628  6308 net.cpp:409] conv1 -> conv1
I0505 10:13:11.643542  6308 net.cpp:144] Setting up conv1
I0505 10:13:11.643574  6308 net.cpp:151] Top shape: 20 64 30 30 (1152000)
I0505 10:13:11.643579  6308 net.cpp:159] Memory required for data: 4680080
I0505 10:13:11.643592  6308 layer_factory.hpp:77] Creating layer relu1
I0505 10:13:11.643604  6308 net.cpp:94] Creating Layer relu1
I0505 10:13:11.643609  6308 net.cpp:435] relu1 <- conv1
I0505 10:13:11.643613  6308 net.cpp:396] relu1 -> conv1 (in-place)
I0505 10:13:11.643628  6308 net.cpp:144] Setting up relu1
I0505 10:13:11.643635  6308 net.cpp:151] Top shape: 20 64 30 30 (1152000)
I0505 10:13:11.643636  6308 net.cpp:159] Memory required for data: 9288080
I0505 10:13:11.643640  6308 layer_factory.hpp:77] Creating layer pool1
I0505 10:13:11.643646  6308 net.cpp:94] Creating Layer pool1
I0505 10:13:11.643649  6308 net.cpp:435] pool1 <- conv1
I0505 10:13:11.643653  6308 net.cpp:409] pool1 -> pool1
I0505 10:13:11.643726  6308 net.cpp:144] Setting up pool1
I0505 10:13:11.643733  6308 net.cpp:151] Top shape: 20 64 15 15 (288000)
I0505 10:13:11.643736  6308 net.cpp:159] Memory required for data: 10440080
I0505 10:13:11.643739  6308 layer_factory.hpp:77] Creating layer conv2
I0505 10:13:11.643750  6308 net.cpp:94] Creating Layer conv2
I0505 10:13:11.643754  6308 net.cpp:435] conv2 <- pool1
I0505 10:13:11.643759  6308 net.cpp:409] conv2 -> conv2
I0505 10:13:11.658368  6308 net.cpp:144] Setting up conv2
I0505 10:13:11.658404  6308 net.cpp:151] Top shape: 20 128 15 15 (576000)
I0505 10:13:11.658408  6308 net.cpp:159] Memory required for data: 12744080
I0505 10:13:11.658423  6308 layer_factory.hpp:77] Creating layer relu2
I0505 10:13:11.658434  6308 net.cpp:94] Creating Layer relu2
I0505 10:13:11.658438  6308 net.cpp:435] relu2 <- conv2
I0505 10:13:11.658443  6308 net.cpp:396] relu2 -> conv2 (in-place)
I0505 10:13:11.658455  6308 net.cpp:144] Setting up relu2
I0505 10:13:11.658460  6308 net.cpp:151] Top shape: 20 128 15 15 (576000)
I0505 10:13:11.658463  6308 net.cpp:159] Memory required for data: 15048080
I0505 10:13:11.658465  6308 layer_factory.hpp:77] Creating layer conv3
I0505 10:13:11.658476  6308 net.cpp:94] Creating Layer conv3
I0505 10:13:11.658480  6308 net.cpp:435] conv3 <- conv2
I0505 10:13:11.658485  6308 net.cpp:409] conv3 -> conv3
I0505 10:13:11.682121  6308 net.cpp:144] Setting up conv3
I0505 10:13:11.682179  6308 net.cpp:151] Top shape: 20 128 15 15 (576000)
I0505 10:13:11.682190  6308 net.cpp:159] Memory required for data: 17352080
I0505 10:13:11.682219  6308 layer_factory.hpp:77] Creating layer relu3
I0505 10:13:11.682251  6308 net.cpp:94] Creating Layer relu3
I0505 10:13:11.682263  6308 net.cpp:435] relu3 <- conv3
I0505 10:13:11.682276  6308 net.cpp:396] relu3 -> conv3 (in-place)
I0505 10:13:11.682301  6308 net.cpp:144] Setting up relu3
I0505 10:13:11.682314  6308 net.cpp:151] Top shape: 20 128 15 15 (576000)
I0505 10:13:11.682322  6308 net.cpp:159] Memory required for data: 19656080
I0505 10:13:11.682332  6308 layer_factory.hpp:77] Creating layer pool3
I0505 10:13:11.682348  6308 net.cpp:94] Creating Layer pool3
I0505 10:13:11.682356  6308 net.cpp:435] pool3 <- conv3
I0505 10:13:11.682369  6308 net.cpp:409] pool3 -> pool3
I0505 10:13:11.682467  6308 net.cpp:144] Setting up pool3
I0505 10:13:11.682476  6308 net.cpp:151] Top shape: 20 128 7 7 (125440)
I0505 10:13:11.682478  6308 net.cpp:159] Memory required for data: 20157840
I0505 10:13:11.682482  6308 layer_factory.hpp:77] Creating layer ip1
I0505 10:13:11.682492  6308 net.cpp:94] Creating Layer ip1
I0505 10:13:11.682495  6308 net.cpp:435] ip1 <- pool3
I0505 10:13:11.682500  6308 net.cpp:409] ip1 -> ip1
I0505 10:13:11.761731  6308 net.cpp:144] Setting up ip1
I0505 10:13:11.761751  6308 net.cpp:151] Top shape: 20 512 (10240)
I0505 10:13:11.761756  6308 net.cpp:159] Memory required for data: 20198800
I0505 10:13:11.761764  6308 layer_factory.hpp:77] Creating layer ip2
I0505 10:13:11.761772  6308 net.cpp:94] Creating Layer ip2
I0505 10:13:11.761776  6308 net.cpp:435] ip2 <- ip1
I0505 10:13:11.761782  6308 net.cpp:409] ip2 -> ip2
I0505 10:13:11.765017  6308 net.cpp:144] Setting up ip2
I0505 10:13:11.765025  6308 net.cpp:151] Top shape: 20 256 (5120)
I0505 10:13:11.765028  6308 net.cpp:159] Memory required for data: 20219280
I0505 10:13:11.765035  6308 layer_factory.hpp:77] Creating layer ip3
I0505 10:13:11.765041  6308 net.cpp:94] Creating Layer ip3
I0505 10:13:11.765045  6308 net.cpp:435] ip3 <- ip2
I0505 10:13:11.765049  6308 net.cpp:409] ip3 -> ip3
I0505 10:13:11.765146  6308 net.cpp:144] Setting up ip3
I0505 10:13:11.765152  6308 net.cpp:151] Top shape: 20 1 (20)
I0505 10:13:11.765156  6308 net.cpp:159] Memory required for data: 20219360
I0505 10:13:11.765161  6308 layer_factory.hpp:77] Creating layer loss
I0505 10:13:11.765166  6308 net.cpp:94] Creating Layer loss
I0505 10:13:11.765169  6308 net.cpp:435] loss <- ip3
I0505 10:13:11.765172  6308 net.cpp:435] loss <- label
I0505 10:13:11.765177  6308 net.cpp:409] loss -> loss
I0505 10:13:11.765236  6308 net.cpp:144] Setting up loss
…
I0505 10:13:12.269006  6308 net.cpp:323] The NetState phase (0) differed from the phase (1) specified by a rule in layer intercept
I0505 10:13:12.269019  6308 net.cpp:323] The NetState phase (0) differed from the phase (1) specified by a rule in layer accuracy
I0505 10:13:12.269095  6308 net.cpp:52] Initializing net from parameters: 
state {
  phase: TRAIN
}
layer {
  name: "parameters"
  type: "HDF5Data"
  top: "data"
  top: "label"
  include {
    phase: TRAIN
  }
  hdf5_data_param {
    source: "/home/purduethu/scratch/radon/d/deng106/CNNStatisticalModel/distributions/input/50_distributions_900_sample_size_train-distributions-path.txt"
    batch_size: 20
  }
}
layer {
  name: "conv1"
  type: "Convolution"
  bottom: "data"
  top: "conv1"
  param {
    lr_mult: 1
  }
  param {
    lr_mult: 2
  }
  convolution_param {
    num_output: 64
    pad: 2
    kernel_size: 5
    stride: 1
    weight_filler {
      type: "gaussian"
      std: 0.0001
    }
    bias_filler {
      type: "constant"
    }
  }
}
layer {
  name: "relu1"
  type: "ReLU"
  bottom: "conv1"
  top: "conv1"
}
layer {
  name: "pool1"
  type: "Pooling"
  bottom: "conv1"
  top: "pool1"
  pooling_param {
    pool: MAX
    kernel_size: 3
    stride: 2
  }
}
layer {
  name: "conv2"
  type: "Convolution"
  bottom: "pool1"
  top: "conv2"
  param {
    lr_mult: 1
  }
  param {
    lr_mult: 2
  }
  convolution_param {
    num_output: 128
    pad: 2
    kernel_size: 5
    stride: 1
    weight_filler {
      type: "gaussian"
      std: 0.01
    }
    bias_filler {
      type: "constant"
    }
  }
}
layer {
  name: "relu2"
  type: "ReLU"
  bottom: "conv2"
  top: "conv2"
}
layer {
  name: "conv3"
  type: "Convolution"
  bottom: "conv2"
  top: "conv3"
  param {
    lr_mult: 1
  }
  param {
    lr_mult: 2
  }
  convolution_param {
    num_output: 128
    pad: 2
    kernel_size: 5
    stride: 1
    weight_filler {
      type: "gaussian"
      std: 0.01
    }
    bias_filler {
      type: "constant"
    }
  }
}
layer {
  name: "relu3"
  type: "ReLU"
  bottom: "conv3"
  top: "conv3"
}
layer {
  name: "pool3"
  type: "Pooling"
  bottom: "conv3"
  top: "pool3"
  pooling_param {
    pool: AVE
    kernel_size: 3
    stride: 2
  }
}
layer {
  name: "ip1"
  type: "InnerProduct"
  bottom: "pool3"
  top: "ip1"
  param {
    lr_mult: 1
  }
  param {
    lr_mult: 2
  }
  inner_product_param {
    num_output: 512
    weight_filler {
      type: "gaussian"
      std: 0.1
    }
    bias_filler {
      type: "constant"
    }
  }
}
layer {
  name: "ip2"
  type: "InnerProduct"
  bottom: "ip1"
  top: "ip2"
  param {
    lr_mult: 1
  }
  param {
    lr_mult: 2
  }
  inner_product_param {
    num_output: 256
    weight_filler {
      type: "gaussian"
      std: 0.1
    }
    bias_filler {
      type: "constant"
    }
  }
}
layer {
  name: "ip3"
  type: "InnerProduct"
  bottom: "ip2"
  top: "ip3"
  param {
    lr_mult: 1
  }
  param {
    lr_mult: 2
  }
  inner_product_param {
    num_output: 50
    weight_filler {
      type: "gaussian"
      std: 0.1
    }
    bias_filler {
      type: "constant"
    }
  }
}
layer {
  name: "loss"
  type: "SoftmaxWithLoss"
  bottom: "ip3"
  bottom: "label"
  top: "loss"
}
I0505 10:13:12.269142  6308 layer_factory.hpp:77] Creating layer parameters
I0505 10:13:12.269150  6308 net.cpp:94] Creating Layer parameters
I0505 10:13:12.269155  6308 net.cpp:409] parameters -> data
I0505 10:13:12.269161  6308 net.cpp:409] parameters -> label
I0505 10:13:12.269167  6308 hdf5_data_layer.cpp:79] Loading list of HDF5 filenames from: /home/purduethu/scratch/radon/d/deng106/CNNStatisticalModel/distributions/input/50_distributions_900_sample_size_train-distributions-path.txt
I0505 10:13:12.269181  6308 hdf5_data_layer.cpp:93] Number of HDF5 files: 1
I0505 10:13:13.766782  6308 hdf5.cpp:35] Datatype class: H5T_INTEGER
I0505 10:13:13.769892  6308 net.cpp:144] Setting up parameters
I0505 10:13:13.769909  6308 net.cpp:151] Top shape: 20 1 30 30 (18000)
I0505 10:13:13.769913  6308 net.cpp:151] Top shape: 20 (20)
I0505 10:13:13.769917  6308 net.cpp:159] Memory required for data: 72080
I0505 10:13:13.769922  6308 layer_factory.hpp:77] Creating layer conv1
I0505 10:13:13.769939  6308 net.cpp:94] Creating Layer conv1
I0505 10:13:13.769943  6308 net.cpp:435] conv1 <- data
I0505 10:13:13.769949  6308 net.cpp:409] conv1 -> conv1
I0505 10:13:13.773427  6308 net.cpp:144] Setting up conv1
I0505 10:13:13.773442  6308 net.cpp:151] Top shape: 20 64 30 30 (1152000)
I0505 10:13:13.773447  6308 net.cpp:159] Memory required for data: 4680080
I0505 10:13:13.773458  6308 layer_factory.hpp:77] Creating layer relu1
I0505 10:13:13.773464  6308 net.cpp:94] Creating Layer relu1
I0505 10:13:13.773468  6308 net.cpp:435] relu1 <- conv1
I0505 10:13:13.773473  6308 net.cpp:396] relu1 -> conv1 (in-place)
I0505 10:13:13.773480  6308 net.cpp:144] Setting up relu1
I0505 10:13:13.773484  6308 net.cpp:151] Top shape: 20 64 30 30 (1152000)
I0505 10:13:13.773488  6308 net.cpp:159] Memory required for data: 9288080
I0505 10:13:13.773490  6308 layer_factory.hpp:77] Creating layer pool1
I0505 10:13:13.773496  6308 net.cpp:94] Creating Layer pool1
I0505 10:13:13.773505  6308 net.cpp:435] pool1 <- conv1
I0505 10:13:13.773509  6308 net.cpp:409] pool1 -> pool1
I0505 10:13:13.773563  6308 net.cpp:144] Setting up pool1
I0505 10:13:13.773571  6308 net.cpp:151] Top shape: 20 64 15 15 (288000)
I0505 10:13:13.773573  6308 net.cpp:159] Memory required for data: 10440080
I0505 10:13:13.773576  6308 layer_factory.hpp:77] Creating layer conv2
I0505 10:13:13.773586  6308 net.cpp:94] Creating Layer conv2
I0505 10:13:13.773588  6308 net.cpp:435] conv2 <- pool1
I0505 10:13:13.773593  6308 net.cpp:409] conv2 -> conv2
I0505 10:13:13.787250  6308 net.cpp:144] Setting up conv2
I0505 10:13:13.787266  6308 net.cpp:151] Top shape: 20 128 15 15 (576000)
I0505 10:13:13.787269  6308 net.cpp:159] Memory required for data: 12744080
I0505 10:13:13.787277  6308 layer_factory.hpp:77] Creating layer relu2
I0505 10:13:13.787283  6308 net.cpp:94] Creating Layer relu2
I0505 10:13:13.787286  6308 net.cpp:435] relu2 <- conv2
I0505 10:13:13.787292  6308 net.cpp:396] relu2 -> conv2 (in-place)
I0505 10:13:13.787298  6308 net.cpp:144] Setting up relu2
I0505 10:13:13.787302  6308 net.cpp:151] Top shape: 20 128 15 15 (576000)
I0505 10:13:13.787305  6308 net.cpp:159] Memory required for data: 15048080
I0505 10:13:13.787308  6308 layer_factory.hpp:77] Creating layer conv3
I0505 10:13:13.787315  6308 net.cpp:94] Creating Layer conv3
I0505 10:13:13.787319  6308 net.cpp:435] conv3 <- conv2
I0505 10:13:13.787323  6308 net.cpp:409] conv3 -> conv3
I0505 10:13:13.810096  6308 net.cpp:144] Setting up conv3
I0505 10:13:13.810111  6308 net.cpp:151] Top shape: 20 128 15 15 (576000)
I0505 10:13:13.810115  6308 net.cpp:159] Memory required for data: 17352080
I0505 10:13:13.810124  6308 layer_factory.hpp:77] Creating layer relu3
I0505 10:13:13.810130  6308 net.cpp:94] Creating Layer relu3
I0505 10:13:13.810134  6308 net.cpp:435] relu3 <- conv3
I0505 10:13:13.810139  6308 net.cpp:396] relu3 -> conv3 (in-place)
I0505 10:13:13.810147  6308 net.cpp:144] Setting up relu3
I0505 10:13:13.810150  6308 net.cpp:151] Top shape: 20 128 15 15 (576000)
I0505 10:13:13.810153  6308 net.cpp:159] Memory required for data: 19656080
I0505 10:13:13.810156  6308 layer_factory.hpp:77] Creating layer pool3
I0505 10:13:13.810163  6308 net.cpp:94] Creating Layer pool3
I0505 10:13:13.810165  6308 net.cpp:435] pool3 <- conv3
I0505 10:13:13.810169  6308 net.cpp:409] pool3 -> pool3
I0505 10:13:13.810209  6308 net.cpp:144] Setting up pool3
I0505 10:13:13.810214  6308 net.cpp:151] Top shape: 20 128 7 7 (125440)
I0505 10:13:13.810217  6308 net.cpp:159] Memory required for data: 20157840
I0505 10:13:13.810221  6308 layer_factory.hpp:77] Creating layer ip1
I0505 10:13:13.810227  6308 net.cpp:94] Creating Layer ip1
I0505 10:13:13.810230  6308 net.cpp:435] ip1 <- pool3
I0505 10:13:13.810235  6308 net.cpp:409] ip1 -> ip1
I0505 10:13:13.887940  6308 net.cpp:144] Setting up ip1
I0505 10:13:13.887975  6308 net.cpp:151] Top shape: 20 512 (10240)
I0505 10:13:13.887979  6308 net.cpp:159] Memory required for data: 20198800
I0505 10:13:13.887989  6308 layer_factory.hpp:77] Creating layer ip2
I0505 10:13:13.887998  6308 net.cpp:94] Creating Layer ip2
I0505 10:13:13.888002  6308 net.cpp:435] ip2 <- ip1
I0505 10:13:13.888010  6308 net.cpp:409] ip2 -> ip2
I0505 10:13:13.891173  6308 net.cpp:144] Setting up ip2
I0505 10:13:13.891183  6308 net.cpp:151] Top shape: 20 256 (5120)
I0505 10:13:13.891186  6308 net.cpp:159] Memory required for data: 20219280
I0505 10:13:13.891194  6308 layer_factory.hpp:77] Creating layer ip3
I0505 10:13:13.891199  6308 net.cpp:94] Creating Layer ip3
I0505 10:13:13.891203  6308 net.cpp:435] ip3 <- ip2
I0505 10:13:13.891207  6308 net.cpp:409] ip3 -> ip3
I0505 10:13:13.892645  6308 net.cpp:144] Setting up ip3
I0505 10:13:13.892658  6308 net.cpp:151] Top shape: 20 50 (1000)
I0505 10:13:13.892663  6308 net.cpp:159] Memory required for data: 20223280
I0505 10:13:13.892668  6308 layer_factory.hpp:77] Creating layer loss
I0505 10:13:13.892673  6308 net.cpp:94] Creating Layer loss
I0505 10:13:13.892678  6308 net.cpp:435] loss <- ip3
I0505 10:13:13.892680  6308 net.cpp:435] loss <- label
I0505 10:13:13.892691  6308 net.cpp:409] loss -> loss
I0505 10:13:13.892700  6308 layer_factory.hpp:77] Creating layer loss
…
I0505 10:13:13.893149  6308 solver.cpp:181] Creating test net (#0) specified by net file: ./protocol/dis_50_900_dimension.protocol_distribution
I0505 10:13:13.893177  6308 net.cpp:323] The NetState phase (1) differed from the phase (0) specified by a rule in layer parameters
I0505 10:13:13.893260  6308 net.cpp:52] Initializing net from parameters: 
state {
  phase: TEST
}
layer {
  name: "intercept"
  type: "HDF5Data"
  top: "data"
  top: "label"
  include {
    phase: TEST
  }
  hdf5_data_param {
    source: "/home/purduethu/scratch/radon/d/deng106/CNNStatisticalModel/distributions/input/50_distributions_900_sample_size_test-distributions-path.txt"
    batch_size: 20
  }
}
layer {
  name: "conv1"
  type: "Convolution"
  bottom: "data"
  top: "conv1"
  param {
    lr_mult: 1
  }
  param {
    lr_mult: 2
  }
  convolution_param {
    num_output: 64
    pad: 2
    kernel_size: 5
    stride: 1
    weight_filler {
      type: "gaussian"
      std: 0.0001
    }
    bias_filler {
      type: "constant"
    }
  }
}
layer {
  name: "relu1"
  type: "ReLU"
  bottom: "conv1"
  top: "conv1"
}
layer {
  name: "pool1"
  type: "Pooling"
  bottom: "conv1"
  top: "pool1"
  pooling_param {
    pool: MAX
    kernel_size: 3
    stride: 2
  }
}
layer {
  name: "conv2"
  type: "Convolution"
  bottom: "pool1"
  top: "conv2"
  param {
    lr_mult: 1
  }
  param {
    lr_mult: 2
  }
  convolution_param {
    num_output: 128
    pad: 2
    kernel_size: 5
    stride: 1
    weight_filler {
      type: "gaussian"
      std: 0.01
    }
    bias_filler {
      type: "constant"
    }
  }
}
layer {
  name: "relu2"
  type: "ReLU"
  bottom: "conv2"
  top: "conv2"
}
layer {
  name: "conv3"
  type: "Convolution"
  bottom: "conv2"
  top: "conv3"
  param {
    lr_mult: 1
  }
  param {
    lr_mult: 2
  }
  convolution_param {
    num_output: 128
    pad: 2
    kernel_size: 5
    stride: 1
    weight_filler {
      type: "gaussian"
      std: 0.01
    }
    bias_filler {
      type: "constant"
    }
  }
}
layer {
  name: "relu3"
  type: "ReLU"
  bottom: "conv3"
  top: "conv3"
}
layer {
  name: "pool3"
  type: "Pooling"
  bottom: "conv3"
  top: "pool3"
  pooling_param {
    pool: AVE
    kernel_size: 3
    stride: 2
  }
}
layer {
  name: "ip1"
  type: "InnerProduct"
  bottom: "pool3"
  top: "ip1"
  param {
    lr_mult: 1
  }
  param {
    lr_mult: 2
  }
  inner_product_param {
    num_output: 512
    weight_filler {
      type: "gaussian"
      std: 0.1
    }
    bias_filler {
      type: "constant"
    }
  }
}
layer {
  name: "ip2"
  type: "InnerProduct"
  bottom: "ip1"
  top: "ip2"
  param {
    lr_mult: 1
  }
  param {
    lr_mult: 2
  }
  inner_product_param {
    num_output: 256
    weight_filler {
      type: "gaussian"
      std: 0.1
    }
    bias_filler {
      type: "constant"
    }
  }
}
layer {
  name: "ip3"
  type: "InnerProduct"
  bottom: "ip2"
  top: "ip3"
  param {
    lr_mult: 1
  }
  param {
    lr_mult: 2
  }
  inner_product_param {
    num_output: 50
    weight_filler {
      type: "gaussian"
      std: 0.1
    }
    bias_filler {
      type: "constant"
    }
  }
}
layer {
  name: "accuracy"
  type: "Accuracy"
  bottom: "ip3"
  bottom: "label"
  top: "accuracy"
  include {
    phase: TEST
  }
}
layer {
  name: "loss"
  type: "SoftmaxWithLoss"
  bottom: "ip3"
  bottom: "label"
  top: "loss"
}
I0505 10:13:13.893316  6308 layer_factory.hpp:77] Creating layer intercept
I0505 10:13:13.893326  6308 net.cpp:94] Creating Layer intercept
I0505 10:13:13.893329  6308 net.cpp:409] intercept -> data
I0505 10:13:13.893335  6308 net.cpp:409] intercept -> label
I0505 10:13:13.893342  6308 hdf5_data_layer.cpp:79] Loading list of HDF5 filenames from: /home/purduethu/scratch/radon/d/deng106/CNNStatisticalModel/distributions/input/50_distributions_900_sample_size_test-distributions-path.txt
I0505 10:13:13.893362  6308 hdf5_data_layer.cpp:93] Number of HDF5 files: 1
I0505 10:13:14.263038  6308 net.cpp:144] Setting up intercept
I0505 10:13:14.263065  6308 net.cpp:151] Top shape: 20 1 30 30 (18000)
I0505 10:13:14.263070  6308 net.cpp:151] Top shape: 20 (20)
I0505 10:13:14.263073  6308 net.cpp:159] Memory required for data: 72080
I0505 10:13:14.263079  6308 layer_factory.hpp:77] Creating layer label_intercept_1_split
I0505 10:13:14.263098  6308 net.cpp:94] Creating Layer label_intercept_1_split
I0505 10:13:14.263103  6308 net.cpp:435] label_intercept_1_split <- label
I0505 10:13:14.263108  6308 net.cpp:409] label_intercept_1_split -> label_intercept_1_split_0
I0505 10:13:14.263116  6308 net.cpp:409] label_intercept_1_split -> label_intercept_1_split_1
I0505 10:13:14.263157  6308 net.cpp:144] Setting up label_intercept_1_split
I0505 10:13:14.263164  6308 net.cpp:151] Top shape: 20 (20)
I0505 10:13:14.263166  6308 net.cpp:151] Top shape: 20 (20)
I0505 10:13:14.263170  6308 net.cpp:159] Memory required for data: 72240
I0505 10:13:14.263172  6308 layer_factory.hpp:77] Creating layer conv1
I0505 10:13:14.263183  6308 net.cpp:94] Creating Layer conv1
I0505 10:13:14.263187  6308 net.cpp:435] conv1 <- data
I0505 10:13:14.263191  6308 net.cpp:409] conv1 -> conv1
I0505 10:13:14.264706  6308 net.cpp:144] Setting up conv1
I0505 10:13:14.264720  6308 net.cpp:151] Top shape: 20 64 30 30 (1152000)
I0505 10:13:14.264724  6308 net.cpp:159] Memory required for data: 4680240
I0505 10:13:14.264734  6308 layer_factory.hpp:77] Creating layer relu1
I0505 10:13:14.264740  6308 net.cpp:94] Creating Layer relu1
I0505 10:13:14.264744  6308 net.cpp:435] relu1 <- conv1
I0505 10:13:14.264749  6308 net.cpp:396] relu1 -> conv1 (in-place)
I0505 10:13:14.264755  6308 net.cpp:144] Setting up relu1
I0505 10:13:14.264760  6308 net.cpp:151] Top shape: 20 64 30 30 (1152000)
I0505 10:13:14.264762  6308 net.cpp:159] Memory required for data: 9288240
I0505 10:13:14.264765  6308 layer_factory.hpp:77] Creating layer pool1
I0505 10:13:14.264772  6308 net.cpp:94] Creating Layer pool1
I0505 10:13:14.264775  6308 net.cpp:435] pool1 <- conv1
I0505 10:13:14.264780  6308 net.cpp:409] pool1 -> pool1
I0505 10:13:14.264832  6308 net.cpp:144] Setting up pool1
I0505 10:13:14.264838  6308 net.cpp:151] Top shape: 20 64 15 15 (288000)
I0505 10:13:14.264842  6308 net.cpp:159] Memory required for data: 10440240
I0505 10:13:14.264845  6308 layer_factory.hpp:77] Creating layer conv2
I0505 10:13:14.264853  6308 net.cpp:94] Creating Layer conv2
I0505 10:13:14.264856  6308 net.cpp:435] conv2 <- pool1
I0505 10:13:14.264861  6308 net.cpp:409] conv2 -> conv2
I0505 10:13:14.273435  6308 net.cpp:144] Setting up conv2
I0505 10:13:14.273473  6308 net.cpp:151] Top shape: 20 128 15 15 (576000)
I0505 10:13:14.273484  6308 net.cpp:159] Memory required for data: 12744240
I0505 10:13:14.273517  6308 layer_factory.hpp:77] Creating layer relu2
I0505 10:13:14.273535  6308 net.cpp:94] Creating Layer relu2
I0505 10:13:14.273545  6308 net.cpp:435] relu2 <- conv2
I0505 10:13:14.273557  6308 net.cpp:396] relu2 -> conv2 (in-place)
I0505 10:13:14.273576  6308 net.cpp:144] Setting up relu2
I0505 10:13:14.273588  6308 net.cpp:151] Top shape: 20 128 15 15 (576000)
I0505 10:13:14.273597  6308 net.cpp:159] Memory required for data: 15048240
I0505 10:13:14.273605  6308 layer_factory.hpp:77] Creating layer conv3
I0505 10:13:14.273625  6308 net.cpp:94] Creating Layer conv3
I0505 10:13:14.273634  6308 net.cpp:435] conv3 <- conv2
I0505 10:13:14.273648  6308 net.cpp:409] conv3 -> conv3
I0505 10:13:14.289378  6308 net.cpp:144] Setting up conv3
I0505 10:13:14.289393  6308 net.cpp:151] Top shape: 20 128 15 15 (576000)
I0505 10:13:14.289397  6308 net.cpp:159] Memory required for data: 17352240
I0505 10:13:14.289407  6308 layer_factory.hpp:77] Creating layer relu3
I0505 10:13:14.289413  6308 net.cpp:94] Creating Layer relu3
I0505 10:13:14.289417  6308 net.cpp:435] relu3 <- conv3
I0505 10:13:14.289422  6308 net.cpp:396] relu3 -> conv3 (in-place)
I0505 10:13:14.289428  6308 net.cpp:144] Setting up relu3
I0505 10:13:14.289433  6308 net.cpp:151] Top shape: 20 128 15 15 (576000)
I0505 10:13:14.289436  6308 net.cpp:159] Memory required for data: 19656240
I0505 10:13:14.289439  6308 layer_factory.hpp:77] Creating layer pool3
I0505 10:13:14.289448  6308 net.cpp:94] Creating Layer pool3
I0505 10:13:14.289450  6308 net.cpp:435] pool3 <- conv3
I0505 10:13:14.289454  6308 net.cpp:409] pool3 -> pool3
I0505 10:13:14.289495  6308 net.cpp:144] Setting up pool3
I0505 10:13:14.289502  6308 net.cpp:151] Top shape: 20 128 7 7 (125440)
I0505 10:13:14.289505  6308 net.cpp:159] Memory required for data: 20158000
I0505 10:13:14.289508  6308 layer_factory.hpp:77] Creating layer ip1
I0505 10:13:14.289515  6308 net.cpp:94] Creating Layer ip1
I0505 10:13:14.289518  6308 net.cpp:435] ip1 <- pool3
I0505 10:13:14.289523  6308 net.cpp:409] ip1 -> ip1
I0505 10:13:14.367666  6308 net.cpp:144] Setting up ip1
I0505 10:13:14.367699  6308 net.cpp:151] Top shape: 20 512 (10240)
I0505 10:13:14.367703  6308 net.cpp:159] Memory required for data: 20198960
I0505 10:13:14.367712  6308 layer_factory.hpp:77] Creating layer ip2
I0505 10:13:14.367722  6308 net.cpp:94] Creating Layer ip2
I0505 10:13:14.367725  6308 net.cpp:435] ip2 <- ip1
I0505 10:13:14.367733  6308 net.cpp:409] ip2 -> ip2
I0505 10:13:14.370901  6308 net.cpp:144] Setting up ip2
I0505 10:13:14.370910  6308 net.cpp:151] Top shape: 20 256 (5120)
I0505 10:13:14.370913  6308 net.cpp:159] Memory required for data: 20219440
I0505 10:13:14.370921  6308 layer_factory.hpp:77] Creating layer ip3
I0505 10:13:14.370929  6308 net.cpp:94] Creating Layer ip3
I0505 10:13:14.370932  6308 net.cpp:435] ip3 <- ip2
I0505 10:13:14.370939  6308 net.cpp:409] ip3 -> ip3
I0505 10:13:14.371366  6308 net.cpp:144] Setting up ip3
I0505 10:13:14.371374  6308 net.cpp:151] Top shape: 20 50 (1000)
I0505 10:13:14.371377  6308 net.cpp:159] Memory required for data: 20223440
I0505 10:13:14.371382  6308 layer_factory.hpp:77] Creating layer ip3_ip3_0_split
I0505 10:13:14.371388  6308 net.cpp:94] Creating Layer ip3_ip3_0_split
I0505 10:13:14.371392  6308 net.cpp:435] ip3_ip3_0_split <- ip3
I0505 10:13:14.371395  6308 net.cpp:409] ip3_ip3_0_split -> ip3_ip3_0_split_0
I0505 10:13:14.371400  6308 net.cpp:409] ip3_ip3_0_split -> ip3_ip3_0_split_1
I0505 10:13:14.371441  6308 net.cpp:144] Setting up ip3_ip3_0_split
I0505 10:13:14.371448  6308 net.cpp:151] Top shape: 20 50 (1000)
I0505 10:13:14.371451  6308 net.cpp:151] Top shape: 20 50 (1000)
I0505 10:13:14.371454  6308 net.cpp:159] Memory required for data: 20231440
I0505 10:13:14.371456  6308 layer_factory.hpp:77] Creating layer accuracy
I0505 10:13:14.371462  6308 net.cpp:94] Creating Layer accuracy
I0505 10:13:14.371465  6308 net.cpp:435] accuracy <- ip3_ip3_0_split_0
I0505 10:13:14.371469  6308 net.cpp:435] accuracy <- label_intercept_1_split_0
I0505 10:13:14.371474  6308 net.cpp:409] accuracy -> accuracy
…
