…
I0503 07:36:14.215056 19057 net.cpp:323] The NetState phase (0) differed from the phase (1) specified by a rule in layer intercept
I0503 07:36:14.215072 19057 net.cpp:323] The NetState phase (0) differed from the phase (1) specified by a rule in layer loss
I0503 07:36:14.215159 19057 net.cpp:52] Initializing net from parameters: 
state {
  phase: TRAIN
}
layer {
  name: "parameters"
  type: "HDF5Data"
  top: "data"
  top: "label"
  include {
    phase: TRAIN
  }
  hdf5_data_param {
    source: "/home/purduethu/scratch/radon/d/deng106/CNNStatisticalModel/distributions/input/50_distributions_400_sample_size_train-parameters-path.txt"
    batch_size: 20
  }
}
layer {
  name: "conv1"
  type: "Convolution"
  bottom: "data"
  top: "conv1"
  param {
    lr_mult: 1
  }
  param {
    lr_mult: 2
  }
  convolution_param {
    num_output: 64
    pad: 2
    kernel_size: 5
    stride: 1
    weight_filler {
      type: "gaussian"
      std: 0.0001
    }
    bias_filler {
      type: "constant"
    }
  }
}
layer {
  name: "relu1"
  type: "ReLU"
  bottom: "conv1"
  top: "conv1"
}
layer {
  name: "conv2"
  type: "Convolution"
  bottom: "conv1"
  top: "conv2"
  param {
    lr_mult: 1
  }
  param {
    lr_mult: 2
  }
  convolution_param {
    num_output: 64
    pad: 2
    kernel_size: 5
    stride: 1
    weight_filler {
      type: "gaussian"
      std: 0.01
    }
    bias_filler {
      type: "constant"
    }
  }
}
layer {
  name: "relu2"
  type: "ReLU"
  bottom: "conv2"
  top: "conv2"
}
layer {
  name: "pool2"
  type: "Pooling"
  bottom: "conv2"
  top: "pool2"
  pooling_param {
    pool: MAX
    kernel_size: 3
    stride: 2
  }
}
layer {
  name: "conv3"
  type: "Convolution"
  bottom: "pool2"
  top: "conv3"
  param {
    lr_mult: 1
  }
  param {
    lr_mult: 2
  }
  convolution_param {
    num_output: 128
    pad: 2
    kernel_size: 5
    stride: 1
    weight_filler {
      type: "gaussian"
      std: 0.01
    }
    bias_filler {
      type: "constant"
    }
  }
}
layer {
  name: "relu3"
  type: "ReLU"
  bottom: "conv3"
  top: "conv3"
}
layer {
  name: "conv4"
  type: "Convolution"
  bottom: "conv3"
  top: "conv4"
  param {
    lr_mult: 1
  }
  param {
    lr_mult: 2
  }
  convolution_param {
    num_output: 128
    pad: 2
    kernel_size: 5
    stride: 1
    weight_filler {
      type: "gaussian"
      std: 0.01
    }
    bias_filler {
      type: "constant"
    }
  }
}
layer {
  name: "relu4"
  type: "ReLU"
  bottom: "conv4"
  top: "conv4"
}
layer {
  name: "conv5"
  type: "Convolution"
  bottom: "conv4"
  top: "conv5"
  param {
    lr_mult: 1
  }
  param {
    lr_mult: 2
  }
  convolution_param {
    num_output: 128
    pad: 2
    kernel_size: 5
    stride: 1
    weight_filler {
      type: "gaussian"
      std: 0.01
    }
    bias_filler {
      type: "constant"
    }
  }
}
layer {
  name: "relu5"
  type: "ReLU"
  bottom: "conv5"
  top: "conv5"
}
layer {
  name: "pool5"
  type: "Pooling"
  bottom: "conv5"
  top: "pool5"
  pooling_param {
    pool: AVE
    kernel_size: 3
    stride: 2
  }
}
layer {
  name: "ip1"
  type: "InnerProduct"
  bottom: "pool5"
  top: "ip1"
  param {
    lr_mult: 1
  }
  param {
    lr_mult: 2
  }
  inner_product_param {
    num_output: 1024
    weight_filler {
      type: "gaussian"
      std: 0.1
    }
    bias_filler {
      type: "constant"
    }
  }
}
layer {
  name: "ip2"
  type: "InnerProduct"
  bottom: "ip1"
  top: "ip2"
  param {
    lr_mult: 1
  }
  param {
    lr_mult: 2
  }
  inner_product_param {
    num_output: 512
    weight_filler {
      type: "gaussian"
      std: 0.1
    }
    bias_filler {
      type: "constant"
    }
  }
}
layer {
  name: "ip3"
  type: "InnerProduct"
  bottom: "ip2"
  top: "ip3"
  param {
    lr_mult: 1
  }
  param {
    lr_mult: 2
  }
  inner_product_param {
    num_output: 1
    weight_filler {
      type: "gaussian"
      std: 0.1
    }
    bias_filler {
      type: "constant"
    }
  }
}
layer {
  name: "loss"
  type: "HuberLoss"
  bottom: "ip3"
  bottom: "label"
  top: "loss"
  include {
    phase: TRAIN
  }
}
I0503 07:36:14.215234 19057 layer_factory.hpp:77] Creating layer parameters
I0503 07:36:14.215247 19057 net.cpp:94] Creating Layer parameters
I0503 07:36:14.215253 19057 net.cpp:409] parameters -> data
I0503 07:36:14.215273 19057 net.cpp:409] parameters -> label
I0503 07:36:14.215283 19057 hdf5_data_layer.cpp:79] Loading list of HDF5 filenames from: /home/purduethu/scratch/radon/d/deng106/CNNStatisticalModel/distributions/input/50_distributions_400_sample_size_train-parameters-path.txt
I0503 07:36:14.215304 19057 hdf5_data_layer.cpp:93] Number of HDF5 files: 1
I0503 07:36:14.215797 19057 hdf5.cpp:32] Datatype class: H5T_FLOAT
I0503 07:36:14.849054 19057 net.cpp:144] Setting up parameters
I0503 07:36:14.849086 19057 net.cpp:151] Top shape: 20 1 20 20 (8000)
I0503 07:36:14.849092 19057 net.cpp:151] Top shape: 20 (20)
I0503 07:36:14.849095 19057 net.cpp:159] Memory required for data: 32080
I0503 07:36:14.849103 19057 layer_factory.hpp:77] Creating layer conv1
I0503 07:36:14.849123 19057 net.cpp:94] Creating Layer conv1
I0503 07:36:14.849128 19057 net.cpp:435] conv1 <- data
I0503 07:36:14.849138 19057 net.cpp:409] conv1 -> conv1
I0503 07:36:14.853821 19057 net.cpp:144] Setting up conv1
I0503 07:36:14.853837 19057 net.cpp:151] Top shape: 20 64 20 20 (512000)
I0503 07:36:14.853840 19057 net.cpp:159] Memory required for data: 2080080
I0503 07:36:14.853850 19057 layer_factory.hpp:77] Creating layer relu1
I0503 07:36:14.853858 19057 net.cpp:94] Creating Layer relu1
I0503 07:36:14.853863 19057 net.cpp:435] relu1 <- conv1
I0503 07:36:14.853868 19057 net.cpp:396] relu1 -> conv1 (in-place)
I0503 07:36:14.853878 19057 net.cpp:144] Setting up relu1
I0503 07:36:14.853883 19057 net.cpp:151] Top shape: 20 64 20 20 (512000)
I0503 07:36:14.853885 19057 net.cpp:159] Memory required for data: 4128080
I0503 07:36:14.853888 19057 layer_factory.hpp:77] Creating layer conv2
I0503 07:36:14.853896 19057 net.cpp:94] Creating Layer conv2
I0503 07:36:14.853899 19057 net.cpp:435] conv2 <- conv1
I0503 07:36:14.853904 19057 net.cpp:409] conv2 -> conv2
I0503 07:36:14.864084 19057 net.cpp:144] Setting up conv2
I0503 07:36:14.864116 19057 net.cpp:151] Top shape: 20 64 20 20 (512000)
I0503 07:36:14.864121 19057 net.cpp:159] Memory required for data: 6176080
I0503 07:36:14.864133 19057 layer_factory.hpp:77] Creating layer relu2
I0503 07:36:14.864145 19057 net.cpp:94] Creating Layer relu2
I0503 07:36:14.864150 19057 net.cpp:435] relu2 <- conv2
I0503 07:36:14.864154 19057 net.cpp:396] relu2 -> conv2 (in-place)
I0503 07:36:14.864164 19057 net.cpp:144] Setting up relu2
I0503 07:36:14.864169 19057 net.cpp:151] Top shape: 20 64 20 20 (512000)
I0503 07:36:14.864172 19057 net.cpp:159] Memory required for data: 8224080
I0503 07:36:14.864176 19057 layer_factory.hpp:77] Creating layer pool2
I0503 07:36:14.864183 19057 net.cpp:94] Creating Layer pool2
I0503 07:36:14.864192 19057 net.cpp:435] pool2 <- conv2
I0503 07:36:14.864197 19057 net.cpp:409] pool2 -> pool2
I0503 07:36:14.864260 19057 net.cpp:144] Setting up pool2
I0503 07:36:14.864267 19057 net.cpp:151] Top shape: 20 64 10 10 (128000)
I0503 07:36:14.864270 19057 net.cpp:159] Memory required for data: 8736080
I0503 07:36:14.864274 19057 layer_factory.hpp:77] Creating layer conv3
I0503 07:36:14.864284 19057 net.cpp:94] Creating Layer conv3
I0503 07:36:14.864287 19057 net.cpp:435] conv3 <- pool2
I0503 07:36:14.864292 19057 net.cpp:409] conv3 -> conv3
I0503 07:36:14.873422 19057 net.cpp:144] Setting up conv3
I0503 07:36:14.873438 19057 net.cpp:151] Top shape: 20 128 10 10 (256000)
I0503 07:36:14.873442 19057 net.cpp:159] Memory required for data: 9760080
I0503 07:36:14.873450 19057 layer_factory.hpp:77] Creating layer relu3
I0503 07:36:14.873456 19057 net.cpp:94] Creating Layer relu3
I0503 07:36:14.873461 19057 net.cpp:435] relu3 <- conv3
I0503 07:36:14.873464 19057 net.cpp:396] relu3 -> conv3 (in-place)
I0503 07:36:14.873472 19057 net.cpp:144] Setting up relu3
I0503 07:36:14.873476 19057 net.cpp:151] Top shape: 20 128 10 10 (256000)
I0503 07:36:14.873479 19057 net.cpp:159] Memory required for data: 10784080
I0503 07:36:14.873482 19057 layer_factory.hpp:77] Creating layer conv4
I0503 07:36:14.873492 19057 net.cpp:94] Creating Layer conv4
I0503 07:36:14.873494 19057 net.cpp:435] conv4 <- conv3
I0503 07:36:14.873499 19057 net.cpp:409] conv4 -> conv4
I0503 07:36:14.890529 19057 net.cpp:144] Setting up conv4
I0503 07:36:14.890545 19057 net.cpp:151] Top shape: 20 128 10 10 (256000)
I0503 07:36:14.890549 19057 net.cpp:159] Memory required for data: 11808080
I0503 07:36:14.890555 19057 layer_factory.hpp:77] Creating layer relu4
I0503 07:36:14.890561 19057 net.cpp:94] Creating Layer relu4
I0503 07:36:14.890565 19057 net.cpp:435] relu4 <- conv4
I0503 07:36:14.890570 19057 net.cpp:396] relu4 -> conv4 (in-place)
I0503 07:36:14.890578 19057 net.cpp:144] Setting up relu4
I0503 07:36:14.890583 19057 net.cpp:151] Top shape: 20 128 10 10 (256000)
I0503 07:36:14.890585 19057 net.cpp:159] Memory required for data: 12832080
I0503 07:36:14.890588 19057 layer_factory.hpp:77] Creating layer conv5
I0503 07:36:14.890595 19057 net.cpp:94] Creating Layer conv5
I0503 07:36:14.890599 19057 net.cpp:435] conv5 <- conv4
I0503 07:36:14.890604 19057 net.cpp:409] conv5 -> conv5
I0503 07:36:14.907208 19057 net.cpp:144] Setting up conv5
I0503 07:36:14.907224 19057 net.cpp:151] Top shape: 20 128 10 10 (256000)
I0503 07:36:14.907229 19057 net.cpp:159] Memory required for data: 13856080
I0503 07:36:14.907238 19057 layer_factory.hpp:77] Creating layer relu5
I0503 07:36:14.907245 19057 net.cpp:94] Creating Layer relu5
I0503 07:36:14.907249 19057 net.cpp:435] relu5 <- conv5
I0503 07:36:14.907254 19057 net.cpp:396] relu5 -> conv5 (in-place)
I0503 07:36:14.907261 19057 net.cpp:144] Setting up relu5
I0503 07:36:14.907268 19057 net.cpp:151] Top shape: 20 128 10 10 (256000)
I0503 07:36:14.907270 19057 net.cpp:159] Memory required for data: 14880080
I0503 07:36:14.907274 19057 layer_factory.hpp:77] Creating layer pool5
I0503 07:36:14.907279 19057 net.cpp:94] Creating Layer pool5
I0503 07:36:14.907282 19057 net.cpp:435] pool5 <- conv5
I0503 07:36:14.907287 19057 net.cpp:409] pool5 -> pool5
I0503 07:36:14.907325 19057 net.cpp:144] Setting up pool5
I0503 07:36:14.907332 19057 net.cpp:151] Top shape: 20 128 5 5 (64000)
I0503 07:36:14.907336 19057 net.cpp:159] Memory required for data: 15136080
I0503 07:36:14.907340 19057 layer_factory.hpp:77] Creating layer ip1
I0503 07:36:14.907349 19057 net.cpp:94] Creating Layer ip1
I0503 07:36:14.907353 19057 net.cpp:435] ip1 <- pool5
I0503 07:36:14.907358 19057 net.cpp:409] ip1 -> ip1
I0503 07:36:14.987341 19057 net.cpp:144] Setting up ip1
I0503 07:36:14.987375 19057 net.cpp:151] Top shape: 20 1024 (20480)
I0503 07:36:14.987380 19057 net.cpp:159] Memory required for data: 15218000
I0503 07:36:14.987386 19057 layer_factory.hpp:77] Creating layer ip2
I0503 07:36:14.987396 19057 net.cpp:94] Creating Layer ip2
I0503 07:36:14.987407 19057 net.cpp:435] ip2 <- ip1
I0503 07:36:14.987416 19057 net.cpp:409] ip2 -> ip2
I0503 07:36:15.000488 19057 net.cpp:144] Setting up ip2
I0503 07:36:15.000501 19057 net.cpp:151] Top shape: 20 512 (10240)
I0503 07:36:15.000505 19057 net.cpp:159] Memory required for data: 15258960
I0503 07:36:15.000512 19057 layer_factory.hpp:77] Creating layer ip3
I0503 07:36:15.000519 19057 net.cpp:94] Creating Layer ip3
I0503 07:36:15.000522 19057 net.cpp:435] ip3 <- ip2
I0503 07:36:15.000527 19057 net.cpp:409] ip3 -> ip3
I0503 07:36:15.000617 19057 net.cpp:144] Setting up ip3
I0503 07:36:15.000633 19057 net.cpp:151] Top shape: 20 1 (20)
I0503 07:36:15.000636 19057 net.cpp:159] Memory required for data: 15259040
I0503 07:36:15.000643 19057 layer_factory.hpp:77] Creating layer loss
I0503 07:36:15.000655 19057 net.cpp:94] Creating Layer loss
I0503 07:36:15.000659 19057 net.cpp:435] loss <- ip3
I0503 07:36:15.000663 19057 net.cpp:435] loss <- label
I0503 07:36:15.000669 19057 net.cpp:409] loss -> loss
I0503 07:36:15.000706 19057 net.cpp:144] Setting up loss
…
