…
I0501 04:31:16.987256 30738 net.cpp:323] The NetState phase (0) differed from the phase (1) specified by a rule in layer intercept
I0501 04:31:16.987272 30738 net.cpp:323] The NetState phase (0) differed from the phase (1) specified by a rule in layer loss
I0501 04:31:16.987349 30738 net.cpp:52] Initializing net from parameters: 
state {
  phase: TRAIN
}
layer {
  name: "parameters"
  type: "HDF5Data"
  top: "data"
  top: "label"
  include {
    phase: TRAIN
  }
  hdf5_data_param {
    source: "/home/purduethu/scratch/radon/d/deng106/CNNStatisticalModel/distributions/input/50_distributions_100_sample_size_train-parameters-path.txt"
    batch_size: 20
  }
}
layer {
  name: "conv1"
  type: "Convolution"
  bottom: "data"
  top: "conv1"
  param {
    lr_mult: 1
  }
  param {
    lr_mult: 2
  }
  convolution_param {
    num_output: 64
    pad: 2
    kernel_size: 5
    stride: 1
    weight_filler {
      type: "gaussian"
      std: 0.0001
    }
    bias_filler {
      type: "constant"
    }
  }
}
layer {
  name: "relu1"
  type: "ReLU"
  bottom: "conv1"
  top: "conv1"
}
layer {
  name: "conv2"
  type: "Convolution"
  bottom: "conv1"
  top: "conv2"
  param {
    lr_mult: 1
  }
  param {
    lr_mult: 2
  }
  convolution_param {
    num_output: 64
    pad: 2
    kernel_size: 5
    stride: 1
    weight_filler {
      type: "gaussian"
      std: 0.01
    }
    bias_filler {
      type: "constant"
    }
  }
}
layer {
  name: "relu2"
  type: "ReLU"
  bottom: "conv2"
  top: "conv2"
}
layer {
  name: "pool2"
  type: "Pooling"
  bottom: "conv2"
  top: "pool2"
  pooling_param {
    pool: MAX
    kernel_size: 3
    stride: 2
  }
}
layer {
  name: "conv3"
  type: "Convolution"
  bottom: "pool2"
  top: "conv3"
  param {
    lr_mult: 1
  }
  param {
    lr_mult: 2
  }
  convolution_param {
    num_output: 128
    pad: 2
    kernel_size: 5
    stride: 1
    weight_filler {
      type: "gaussian"
      std: 0.01
    }
    bias_filler {
      type: "constant"
    }
  }
}
layer {
  name: "relu3"
  type: "ReLU"
  bottom: "conv3"
  top: "conv3"
}
layer {
  name: "conv4"
  type: "Convolution"
  bottom: "conv3"
  top: "conv4"
  param {
    lr_mult: 1
  }
  param {
    lr_mult: 2
  }
  convolution_param {
    num_output: 128
    pad: 2
    kernel_size: 5
    stride: 1
    weight_filler {
      type: "gaussian"
      std: 0.01
    }
    bias_filler {
      type: "constant"
    }
  }
}
layer {
  name: "relu4"
  type: "ReLU"
  bottom: "conv4"
  top: "conv4"
}
layer {
  name: "conv5"
  type: "Convolution"
  bottom: "conv4"
  top: "conv5"
  param {
    lr_mult: 1
  }
  param {
    lr_mult: 2
  }
  convolution_param {
    num_output: 128
    pad: 2
    kernel_size: 5
    stride: 1
    weight_filler {
      type: "gaussian"
      std: 0.01
    }
    bias_filler {
      type: "constant"
    }
  }
}
layer {
  name: "relu5"
  type: "ReLU"
  bottom: "conv5"
  top: "conv5"
}
layer {
  name: "pool5"
  type: "Pooling"
  bottom: "conv5"
  top: "pool5"
  pooling_param {
    pool: AVE
    kernel_size: 3
    stride: 2
  }
}
layer {
  name: "ip1"
  type: "InnerProduct"
  bottom: "pool5"
  top: "ip1"
  param {
    lr_mult: 1
  }
  param {
    lr_mult: 2
  }
  inner_product_param {
    num_output: 1024
    weight_filler {
      type: "gaussian"
      std: 0.1
    }
    bias_filler {
      type: "constant"
    }
  }
}
layer {
  name: "ip2"
  type: "InnerProduct"
  bottom: "ip1"
  top: "ip2"
  param {
    lr_mult: 1
  }
  param {
    lr_mult: 2
  }
  inner_product_param {
    num_output: 512
    weight_filler {
      type: "gaussian"
      std: 0.1
    }
    bias_filler {
      type: "constant"
    }
  }
}
layer {
  name: "ip3"
  type: "InnerProduct"
  bottom: "ip2"
  top: "ip3"
  param {
    lr_mult: 1
  }
  param {
    lr_mult: 2
  }
  inner_product_param {
    num_output: 1
    weight_filler {
      type: "gaussian"
      std: 0.1
    }
    bias_filler {
      type: "constant"
    }
  }
}
layer {
  name: "loss"
  type: "HuberLoss"
  bottom: "ip3"
  bottom: "label"
  top: "loss"
  include {
    phase: TRAIN
  }
}
I0501 04:31:16.987401 30738 layer_factory.hpp:77] Creating layer parameters
I0501 04:31:16.987414 30738 net.cpp:94] Creating Layer parameters
I0501 04:31:16.987418 30738 net.cpp:409] parameters -> data
I0501 04:31:16.987428 30738 net.cpp:409] parameters -> label
I0501 04:31:16.987438 30738 hdf5_data_layer.cpp:79] Loading list of HDF5 filenames from: /home/purduethu/scratch/radon/d/deng106/CNNStatisticalModel/distributions/input/50_distributions_100_sample_size_train-parameters-path.txt
I0501 04:31:16.987452 30738 hdf5_data_layer.cpp:93] Number of HDF5 files: 1
I0501 04:31:16.988000 30738 hdf5.cpp:32] Datatype class: H5T_FLOAT
I0501 04:31:17.150286 30738 net.cpp:144] Setting up parameters
I0501 04:31:17.150316 30738 net.cpp:151] Top shape: 20 1 10 10 (2000)
I0501 04:31:17.150321 30738 net.cpp:151] Top shape: 20 (20)
I0501 04:31:17.150324 30738 net.cpp:159] Memory required for data: 8080
I0501 04:31:17.150331 30738 layer_factory.hpp:77] Creating layer conv1
I0501 04:31:17.150352 30738 net.cpp:94] Creating Layer conv1
I0501 04:31:17.150355 30738 net.cpp:435] conv1 <- data
I0501 04:31:17.150362 30738 net.cpp:409] conv1 -> conv1
I0501 04:31:17.154501 30738 net.cpp:144] Setting up conv1
I0501 04:31:17.154516 30738 net.cpp:151] Top shape: 20 64 10 10 (128000)
I0501 04:31:17.154520 30738 net.cpp:159] Memory required for data: 520080
I0501 04:31:17.154530 30738 layer_factory.hpp:77] Creating layer relu1
I0501 04:31:17.154536 30738 net.cpp:94] Creating Layer relu1
I0501 04:31:17.154541 30738 net.cpp:435] relu1 <- conv1
I0501 04:31:17.154544 30738 net.cpp:396] relu1 -> conv1 (in-place)
I0501 04:31:17.154556 30738 net.cpp:144] Setting up relu1
I0501 04:31:17.154561 30738 net.cpp:151] Top shape: 20 64 10 10 (128000)
I0501 04:31:17.154563 30738 net.cpp:159] Memory required for data: 1032080
I0501 04:31:17.154567 30738 layer_factory.hpp:77] Creating layer conv2
I0501 04:31:17.154573 30738 net.cpp:94] Creating Layer conv2
I0501 04:31:17.154577 30738 net.cpp:435] conv2 <- conv1
I0501 04:31:17.154582 30738 net.cpp:409] conv2 -> conv2
I0501 04:31:17.160658 30738 net.cpp:144] Setting up conv2
I0501 04:31:17.160675 30738 net.cpp:151] Top shape: 20 64 10 10 (128000)
I0501 04:31:17.160677 30738 net.cpp:159] Memory required for data: 1544080
I0501 04:31:17.160686 30738 layer_factory.hpp:77] Creating layer relu2
I0501 04:31:17.160693 30738 net.cpp:94] Creating Layer relu2
I0501 04:31:17.160697 30738 net.cpp:435] relu2 <- conv2
I0501 04:31:17.160701 30738 net.cpp:396] relu2 -> conv2 (in-place)
I0501 04:31:17.160708 30738 net.cpp:144] Setting up relu2
I0501 04:31:17.160712 30738 net.cpp:151] Top shape: 20 64 10 10 (128000)
I0501 04:31:17.160715 30738 net.cpp:159] Memory required for data: 2056080
I0501 04:31:17.160718 30738 layer_factory.hpp:77] Creating layer pool2
I0501 04:31:17.160724 30738 net.cpp:94] Creating Layer pool2
I0501 04:31:17.160733 30738 net.cpp:435] pool2 <- conv2
I0501 04:31:17.160738 30738 net.cpp:409] pool2 -> pool2
I0501 04:31:17.160794 30738 net.cpp:144] Setting up pool2
I0501 04:31:17.160802 30738 net.cpp:151] Top shape: 20 64 5 5 (32000)
I0501 04:31:17.160805 30738 net.cpp:159] Memory required for data: 2184080
I0501 04:31:17.160809 30738 layer_factory.hpp:77] Creating layer conv3
I0501 04:31:17.160816 30738 net.cpp:94] Creating Layer conv3
I0501 04:31:17.160820 30738 net.cpp:435] conv3 <- pool2
I0501 04:31:17.160825 30738 net.cpp:409] conv3 -> conv3
I0501 04:31:17.169023 30738 net.cpp:144] Setting up conv3
I0501 04:31:17.169037 30738 net.cpp:151] Top shape: 20 128 5 5 (64000)
I0501 04:31:17.169040 30738 net.cpp:159] Memory required for data: 2440080
I0501 04:31:17.169049 30738 layer_factory.hpp:77] Creating layer relu3
I0501 04:31:17.169055 30738 net.cpp:94] Creating Layer relu3
I0501 04:31:17.169059 30738 net.cpp:435] relu3 <- conv3
I0501 04:31:17.169062 30738 net.cpp:396] relu3 -> conv3 (in-place)
I0501 04:31:17.169070 30738 net.cpp:144] Setting up relu3
I0501 04:31:17.169075 30738 net.cpp:151] Top shape: 20 128 5 5 (64000)
I0501 04:31:17.169076 30738 net.cpp:159] Memory required for data: 2696080
I0501 04:31:17.169080 30738 layer_factory.hpp:77] Creating layer conv4
I0501 04:31:17.169088 30738 net.cpp:94] Creating Layer conv4
I0501 04:31:17.169091 30738 net.cpp:435] conv4 <- conv3
I0501 04:31:17.169096 30738 net.cpp:409] conv4 -> conv4
I0501 04:31:17.184157 30738 net.cpp:144] Setting up conv4
I0501 04:31:17.184175 30738 net.cpp:151] Top shape: 20 128 5 5 (64000)
I0501 04:31:17.184178 30738 net.cpp:159] Memory required for data: 2952080
I0501 04:31:17.184185 30738 layer_factory.hpp:77] Creating layer relu4
I0501 04:31:17.184191 30738 net.cpp:94] Creating Layer relu4
I0501 04:31:17.184195 30738 net.cpp:435] relu4 <- conv4
I0501 04:31:17.184201 30738 net.cpp:396] relu4 -> conv4 (in-place)
I0501 04:31:17.184207 30738 net.cpp:144] Setting up relu4
I0501 04:31:17.184211 30738 net.cpp:151] Top shape: 20 128 5 5 (64000)
I0501 04:31:17.184214 30738 net.cpp:159] Memory required for data: 3208080
I0501 04:31:17.184217 30738 layer_factory.hpp:77] Creating layer conv5
I0501 04:31:17.184226 30738 net.cpp:94] Creating Layer conv5
I0501 04:31:17.184228 30738 net.cpp:435] conv5 <- conv4
I0501 04:31:17.184233 30738 net.cpp:409] conv5 -> conv5
I0501 04:31:17.198696 30738 net.cpp:144] Setting up conv5
I0501 04:31:17.198715 30738 net.cpp:151] Top shape: 20 128 5 5 (64000)
I0501 04:31:17.198719 30738 net.cpp:159] Memory required for data: 3464080
I0501 04:31:17.198729 30738 layer_factory.hpp:77] Creating layer relu5
I0501 04:31:17.198735 30738 net.cpp:94] Creating Layer relu5
I0501 04:31:17.198740 30738 net.cpp:435] relu5 <- conv5
I0501 04:31:17.198743 30738 net.cpp:396] relu5 -> conv5 (in-place)
I0501 04:31:17.198751 30738 net.cpp:144] Setting up relu5
I0501 04:31:17.198755 30738 net.cpp:151] Top shape: 20 128 5 5 (64000)
I0501 04:31:17.198758 30738 net.cpp:159] Memory required for data: 3720080
I0501 04:31:17.198761 30738 layer_factory.hpp:77] Creating layer pool5
I0501 04:31:17.198766 30738 net.cpp:94] Creating Layer pool5
I0501 04:31:17.198770 30738 net.cpp:435] pool5 <- conv5
I0501 04:31:17.198773 30738 net.cpp:409] pool5 -> pool5
I0501 04:31:17.198817 30738 net.cpp:144] Setting up pool5
I0501 04:31:17.198823 30738 net.cpp:151] Top shape: 20 128 2 2 (10240)
I0501 04:31:17.198827 30738 net.cpp:159] Memory required for data: 3761040
I0501 04:31:17.198830 30738 layer_factory.hpp:77] Creating layer ip1
I0501 04:31:17.198839 30738 net.cpp:94] Creating Layer ip1
I0501 04:31:17.198843 30738 net.cpp:435] ip1 <- pool5
I0501 04:31:17.198848 30738 net.cpp:409] ip1 -> ip1
I0501 04:31:17.212735 30738 net.cpp:144] Setting up ip1
I0501 04:31:17.212755 30738 net.cpp:151] Top shape: 20 1024 (20480)
I0501 04:31:17.212759 30738 net.cpp:159] Memory required for data: 3842960
I0501 04:31:17.212766 30738 layer_factory.hpp:77] Creating layer ip2
I0501 04:31:17.212775 30738 net.cpp:94] Creating Layer ip2
I0501 04:31:17.212785 30738 net.cpp:435] ip2 <- ip1
I0501 04:31:17.212792 30738 net.cpp:409] ip2 -> ip2
I0501 04:31:17.225818 30738 net.cpp:144] Setting up ip2
I0501 04:31:17.225833 30738 net.cpp:151] Top shape: 20 512 (10240)
I0501 04:31:17.225837 30738 net.cpp:159] Memory required for data: 3883920
I0501 04:31:17.225843 30738 layer_factory.hpp:77] Creating layer ip3
I0501 04:31:17.225850 30738 net.cpp:94] Creating Layer ip3
I0501 04:31:17.225854 30738 net.cpp:435] ip3 <- ip2
I0501 04:31:17.225859 30738 net.cpp:409] ip3 -> ip3
I0501 04:31:17.225978 30738 net.cpp:144] Setting up ip3
I0501 04:31:17.225986 30738 net.cpp:151] Top shape: 20 1 (20)
I0501 04:31:17.225988 30738 net.cpp:159] Memory required for data: 3884000
I0501 04:31:17.225993 30738 layer_factory.hpp:77] Creating layer loss
I0501 04:31:17.226001 30738 net.cpp:94] Creating Layer loss
I0501 04:31:17.226004 30738 net.cpp:435] loss <- ip3
I0501 04:31:17.226008 30738 net.cpp:435] loss <- label
I0501 04:31:17.226012 30738 net.cpp:409] loss -> loss
I0501 04:31:17.226065 30738 net.cpp:144] Setting up loss
…
I0501 04:31:17.333004 30738 net.cpp:323] The NetState phase (0) differed from the phase (1) specified by a rule in layer intercept
I0501 04:31:17.333020 30738 net.cpp:323] The NetState phase (0) differed from the phase (1) specified by a rule in layer accuracy
I0501 04:31:17.333106 30738 net.cpp:52] Initializing net from parameters: 
state {
  phase: TRAIN
}
layer {
  name: "parameters"
  type: "HDF5Data"
  top: "data"
  top: "label"
  include {
    phase: TRAIN
  }
  hdf5_data_param {
    source: "/home/purduethu/scratch/radon/d/deng106/CNNStatisticalModel/distributions/input/50_distributions_100_sample_size_train-distributions-path.txt"
    batch_size: 20
  }
}
layer {
  name: "conv1"
  type: "Convolution"
  bottom: "data"
  top: "conv1"
  param {
    lr_mult: 1
  }
  param {
    lr_mult: 2
  }
  convolution_param {
    num_output: 64
    pad: 2
    kernel_size: 5
    stride: 1
    weight_filler {
      type: "gaussian"
      std: 0.0001
    }
    bias_filler {
      type: "constant"
    }
  }
}
layer {
  name: "relu1"
  type: "ReLU"
  bottom: "conv1"
  top: "conv1"
}
layer {
  name: "conv2"
  type: "Convolution"
  bottom: "conv1"
  top: "conv2"
  param {
    lr_mult: 1
  }
  param {
    lr_mult: 2
  }
  convolution_param {
    num_output: 64
    pad: 2
    kernel_size: 5
    stride: 1
    weight_filler {
      type: "gaussian"
      std: 0.01
    }
    bias_filler {
      type: "constant"
    }
  }
}
layer {
  name: "relu2"
  type: "ReLU"
  bottom: "conv2"
  top: "conv2"
}
layer {
  name: "pool2"
  type: "Pooling"
  bottom: "conv2"
  top: "pool2"
  pooling_param {
    pool: MAX
    kernel_size: 3
    stride: 2
  }
}
layer {
  name: "conv3"
  type: "Convolution"
  bottom: "pool2"
  top: "conv3"
  param {
    lr_mult: 1
  }
  param {
    lr_mult: 2
  }
  convolution_param {
    num_output: 128
    pad: 2
    kernel_size: 5
    stride: 1
    weight_filler {
      type: "gaussian"
      std: 0.01
    }
    bias_filler {
      type: "constant"
    }
  }
}
layer {
  name: "relu3"
  type: "ReLU"
  bottom: "conv3"
  top: "conv3"
}
layer {
  name: "conv4"
  type: "Convolution"
  bottom: "conv3"
  top: "conv4"
  param {
    lr_mult: 1
  }
  param {
    lr_mult: 2
  }
  convolution_param {
    num_output: 128
    pad: 2
    kernel_size: 5
    stride: 1
    weight_filler {
      type: "gaussian"
      std: 0.01
    }
    bias_filler {
      type: "constant"
    }
  }
}
layer {
  name: "relu4"
  type: "ReLU"
  bottom: "conv4"
  top: "conv4"
}
layer {
  name: "conv5"
  type: "Convolution"
  bottom: "conv4"
  top: "conv5"
  param {
    lr_mult: 1
  }
  param {
    lr_mult: 2
  }
  convolution_param {
    num_output: 128
    pad: 2
    kernel_size: 5
    stride: 1
    weight_filler {
      type: "gaussian"
      std: 0.01
    }
    bias_filler {
      type: "constant"
    }
  }
}
layer {
  name: "relu5"
  type: "ReLU"
  bottom: "conv5"
  top: "conv5"
}
layer {
  name: "pool5"
  type: "Pooling"
  bottom: "conv5"
  top: "pool5"
  pooling_param {
    pool: AVE
    kernel_size: 3
    stride: 2
  }
}
layer {
  name: "ip1"
  type: "InnerProduct"
  bottom: "pool5"
  top: "ip1"
  param {
    lr_mult: 1
  }
  param {
    lr_mult: 2
  }
  inner_product_param {
    num_output: 1024
    weight_filler {
      type: "gaussian"
      std: 0.1
    }
    bias_filler {
      type: "constant"
    }
  }
}
layer {
  name: "ip2"
  type: "InnerProduct"
  bottom: "ip1"
  top: "ip2"
  param {
    lr_mult: 1
  }
  param {
    lr_mult: 2
  }
  inner_product_param {
    num_output: 512
    weight_filler {
      type: "gaussian"
      std: 0.1
    }
    bias_filler {
      type: "constant"
    }
  }
}
layer {
  name: "ip3"
  type: "InnerProduct"
  bottom: "ip2"
  top: "ip3"
  param {
    lr_mult: 1
  }
  param {
    lr_mult: 2
  }
  inner_product_param {
    num_output: 50
    weight_filler {
      type: "gaussian"
      std: 0.1
    }
    bias_filler {
      type: "constant"
    }
  }
}
layer {
  name: "loss"
  type: "SoftmaxWithLoss"
  bottom: "ip3"
  bottom: "label"
  top: "loss"
}
I0501 04:31:17.333156 30738 layer_factory.hpp:77] Creating layer parameters
I0501 04:31:17.333164 30738 net.cpp:94] Creating Layer parameters
I0501 04:31:17.333168 30738 net.cpp:409] parameters -> data
I0501 04:31:17.333174 30738 net.cpp:409] parameters -> label
I0501 04:31:17.333180 30738 hdf5_data_layer.cpp:79] Loading list of HDF5 filenames from: /home/purduethu/scratch/radon/d/deng106/CNNStatisticalModel/distributions/input/50_distributions_100_sample_size_train-distributions-path.txt
I0501 04:31:17.333197 30738 hdf5_data_layer.cpp:93] Number of HDF5 files: 1
I0501 04:31:17.489908 30738 hdf5.cpp:35] Datatype class: H5T_INTEGER
I0501 04:31:17.492987 30738 net.cpp:144] Setting up parameters
I0501 04:31:17.493005 30738 net.cpp:151] Top shape: 20 1 10 10 (2000)
I0501 04:31:17.493010 30738 net.cpp:151] Top shape: 20 (20)
I0501 04:31:17.493012 30738 net.cpp:159] Memory required for data: 8080
I0501 04:31:17.493018 30738 layer_factory.hpp:77] Creating layer conv1
I0501 04:31:17.493034 30738 net.cpp:94] Creating Layer conv1
I0501 04:31:17.493038 30738 net.cpp:435] conv1 <- data
I0501 04:31:17.493044 30738 net.cpp:409] conv1 -> conv1
I0501 04:31:17.494851 30738 net.cpp:144] Setting up conv1
I0501 04:31:17.494866 30738 net.cpp:151] Top shape: 20 64 10 10 (128000)
I0501 04:31:17.494869 30738 net.cpp:159] Memory required for data: 520080
I0501 04:31:17.494879 30738 layer_factory.hpp:77] Creating layer relu1
I0501 04:31:17.494887 30738 net.cpp:94] Creating Layer relu1
I0501 04:31:17.494890 30738 net.cpp:435] relu1 <- conv1
I0501 04:31:17.494895 30738 net.cpp:396] relu1 -> conv1 (in-place)
I0501 04:31:17.494902 30738 net.cpp:144] Setting up relu1
I0501 04:31:17.494907 30738 net.cpp:151] Top shape: 20 64 10 10 (128000)
I0501 04:31:17.494910 30738 net.cpp:159] Memory required for data: 1032080
I0501 04:31:17.494912 30738 layer_factory.hpp:77] Creating layer conv2
I0501 04:31:17.494920 30738 net.cpp:94] Creating Layer conv2
I0501 04:31:17.494923 30738 net.cpp:435] conv2 <- conv1
I0501 04:31:17.494927 30738 net.cpp:409] conv2 -> conv2
I0501 04:31:17.500474 30738 net.cpp:144] Setting up conv2
I0501 04:31:17.500489 30738 net.cpp:151] Top shape: 20 64 10 10 (128000)
I0501 04:31:17.500494 30738 net.cpp:159] Memory required for data: 1544080
I0501 04:31:17.500501 30738 layer_factory.hpp:77] Creating layer relu2
I0501 04:31:17.500509 30738 net.cpp:94] Creating Layer relu2
I0501 04:31:17.500511 30738 net.cpp:435] relu2 <- conv2
I0501 04:31:17.500516 30738 net.cpp:396] relu2 -> conv2 (in-place)
I0501 04:31:17.500524 30738 net.cpp:144] Setting up relu2
I0501 04:31:17.500527 30738 net.cpp:151] Top shape: 20 64 10 10 (128000)
I0501 04:31:17.500530 30738 net.cpp:159] Memory required for data: 2056080
I0501 04:31:17.500533 30738 layer_factory.hpp:77] Creating layer pool2
I0501 04:31:17.500538 30738 net.cpp:94] Creating Layer pool2
I0501 04:31:17.500541 30738 net.cpp:435] pool2 <- conv2
I0501 04:31:17.500545 30738 net.cpp:409] pool2 -> pool2
I0501 04:31:17.500608 30738 net.cpp:144] Setting up pool2
I0501 04:31:17.500617 30738 net.cpp:151] Top shape: 20 64 5 5 (32000)
I0501 04:31:17.500620 30738 net.cpp:159] Memory required for data: 2184080
I0501 04:31:17.500623 30738 layer_factory.hpp:77] Creating layer conv3
I0501 04:31:17.500632 30738 net.cpp:94] Creating Layer conv3
I0501 04:31:17.500634 30738 net.cpp:435] conv3 <- pool2
I0501 04:31:17.500639 30738 net.cpp:409] conv3 -> conv3
I0501 04:31:17.509425 30738 net.cpp:144] Setting up conv3
I0501 04:31:17.509440 30738 net.cpp:151] Top shape: 20 128 5 5 (64000)
I0501 04:31:17.509444 30738 net.cpp:159] Memory required for data: 2440080
I0501 04:31:17.509454 30738 layer_factory.hpp:77] Creating layer relu3
I0501 04:31:17.509459 30738 net.cpp:94] Creating Layer relu3
I0501 04:31:17.509462 30738 net.cpp:435] relu3 <- conv3
I0501 04:31:17.509467 30738 net.cpp:396] relu3 -> conv3 (in-place)
I0501 04:31:17.509474 30738 net.cpp:144] Setting up relu3
I0501 04:31:17.509479 30738 net.cpp:151] Top shape: 20 128 5 5 (64000)
I0501 04:31:17.509481 30738 net.cpp:159] Memory required for data: 2696080
I0501 04:31:17.509485 30738 layer_factory.hpp:77] Creating layer conv4
I0501 04:31:17.509492 30738 net.cpp:94] Creating Layer conv4
I0501 04:31:17.509495 30738 net.cpp:435] conv4 <- conv3
I0501 04:31:17.509500 30738 net.cpp:409] conv4 -> conv4
I0501 04:31:17.524502 30738 net.cpp:144] Setting up conv4
I0501 04:31:17.524520 30738 net.cpp:151] Top shape: 20 128 5 5 (64000)
I0501 04:31:17.524524 30738 net.cpp:159] Memory required for data: 2952080
I0501 04:31:17.524530 30738 layer_factory.hpp:77] Creating layer relu4
I0501 04:31:17.524538 30738 net.cpp:94] Creating Layer relu4
I0501 04:31:17.524541 30738 net.cpp:435] relu4 <- conv4
I0501 04:31:17.524545 30738 net.cpp:396] relu4 -> conv4 (in-place)
I0501 04:31:17.524564 30738 net.cpp:144] Setting up relu4
I0501 04:31:17.524570 30738 net.cpp:151] Top shape: 20 128 5 5 (64000)
I0501 04:31:17.524574 30738 net.cpp:159] Memory required for data: 3208080
I0501 04:31:17.524576 30738 layer_factory.hpp:77] Creating layer conv5
I0501 04:31:17.524585 30738 net.cpp:94] Creating Layer conv5
I0501 04:31:17.524587 30738 net.cpp:435] conv5 <- conv4
I0501 04:31:17.524593 30738 net.cpp:409] conv5 -> conv5
I0501 04:31:17.539718 30738 net.cpp:144] Setting up conv5
I0501 04:31:17.539736 30738 net.cpp:151] Top shape: 20 128 5 5 (64000)
I0501 04:31:17.539739 30738 net.cpp:159] Memory required for data: 3464080
I0501 04:31:17.539749 30738 layer_factory.hpp:77] Creating layer relu5
I0501 04:31:17.539755 30738 net.cpp:94] Creating Layer relu5
I0501 04:31:17.539759 30738 net.cpp:435] relu5 <- conv5
I0501 04:31:17.539763 30738 net.cpp:396] relu5 -> conv5 (in-place)
I0501 04:31:17.539770 30738 net.cpp:144] Setting up relu5
I0501 04:31:17.539775 30738 net.cpp:151] Top shape: 20 128 5 5 (64000)
I0501 04:31:17.539778 30738 net.cpp:159] Memory required for data: 3720080
I0501 04:31:17.539780 30738 layer_factory.hpp:77] Creating layer pool5
I0501 04:31:17.539785 30738 net.cpp:94] Creating Layer pool5
I0501 04:31:17.539789 30738 net.cpp:435] pool5 <- conv5
I0501 04:31:17.539793 30738 net.cpp:409] pool5 -> pool5
I0501 04:31:17.539834 30738 net.cpp:144] Setting up pool5
I0501 04:31:17.539840 30738 net.cpp:151] Top shape: 20 128 2 2 (10240)
I0501 04:31:17.539844 30738 net.cpp:159] Memory required for data: 3761040
I0501 04:31:17.539846 30738 layer_factory.hpp:77] Creating layer ip1
I0501 04:31:17.539852 30738 net.cpp:94] Creating Layer ip1
I0501 04:31:17.539856 30738 net.cpp:435] ip1 <- pool5
I0501 04:31:17.539860 30738 net.cpp:409] ip1 -> ip1
I0501 04:31:17.553154 30738 net.cpp:144] Setting up ip1
I0501 04:31:17.553174 30738 net.cpp:151] Top shape: 20 1024 (20480)
I0501 04:31:17.553176 30738 net.cpp:159] Memory required for data: 3842960
I0501 04:31:17.553184 30738 layer_factory.hpp:77] Creating layer ip2
I0501 04:31:17.553189 30738 net.cpp:94] Creating Layer ip2
I0501 04:31:17.553194 30738 net.cpp:435] ip2 <- ip1
I0501 04:31:17.553198 30738 net.cpp:409] ip2 -> ip2
I0501 04:31:17.566323 30738 net.cpp:144] Setting up ip2
I0501 04:31:17.566339 30738 net.cpp:151] Top shape: 20 512 (10240)
I0501 04:31:17.566341 30738 net.cpp:159] Memory required for data: 3883920
I0501 04:31:17.566347 30738 layer_factory.hpp:77] Creating layer ip3
I0501 04:31:17.566354 30738 net.cpp:94] Creating Layer ip3
I0501 04:31:17.566359 30738 net.cpp:435] ip3 <- ip2
I0501 04:31:17.566365 30738 net.cpp:409] ip3 -> ip3
I0501 04:31:17.567924 30738 net.cpp:144] Setting up ip3
I0501 04:31:17.567937 30738 net.cpp:151] Top shape: 20 50 (1000)
I0501 04:31:17.567947 30738 net.cpp:159] Memory required for data: 3887920
I0501 04:31:17.567953 30738 layer_factory.hpp:77] Creating layer loss
I0501 04:31:17.567962 30738 net.cpp:94] Creating Layer loss
I0501 04:31:17.567965 30738 net.cpp:435] loss <- ip3
I0501 04:31:17.567970 30738 net.cpp:435] loss <- label
I0501 04:31:17.567975 30738 net.cpp:409] loss -> loss
I0501 04:31:17.567981 30738 layer_factory.hpp:77] Creating layer loss
…
I0501 04:31:17.568501 30738 solver.cpp:181] Creating test net (#0) specified by net file: ./protocol/dis_50_100_dimension.protocol_distribution
I0501 04:31:17.568528 30738 net.cpp:323] The NetState phase (1) differed from the phase (0) specified by a rule in layer parameters
I0501 04:31:17.568637 30738 net.cpp:52] Initializing net from parameters: 
state {
  phase: TEST
}
layer {
  name: "intercept"
  type: "HDF5Data"
  top: "data"
  top: "label"
  include {
    phase: TEST
  }
  hdf5_data_param {
    source: "/home/purduethu/scratch/radon/d/deng106/CNNStatisticalModel/distributions/input/50_distributions_100_sample_size_test-distributions-path.txt"
    batch_size: 20
  }
}
layer {
  name: "conv1"
  type: "Convolution"
  bottom: "data"
  top: "conv1"
  param {
    lr_mult: 1
  }
  param {
    lr_mult: 2
  }
  convolution_param {
    num_output: 64
    pad: 2
    kernel_size: 5
    stride: 1
    weight_filler {
      type: "gaussian"
      std: 0.0001
    }
    bias_filler {
      type: "constant"
    }
  }
}
layer {
  name: "relu1"
  type: "ReLU"
  bottom: "conv1"
  top: "conv1"
}
layer {
  name: "conv2"
  type: "Convolution"
  bottom: "conv1"
  top: "conv2"
  param {
    lr_mult: 1
  }
  param {
    lr_mult: 2
  }
  convolution_param {
    num_output: 64
    pad: 2
    kernel_size: 5
    stride: 1
    weight_filler {
      type: "gaussian"
      std: 0.01
    }
    bias_filler {
      type: "constant"
    }
  }
}
layer {
  name: "relu2"
  type: "ReLU"
  bottom: "conv2"
  top: "conv2"
}
layer {
  name: "pool2"
  type: "Pooling"
  bottom: "conv2"
  top: "pool2"
  pooling_param {
    pool: MAX
    kernel_size: 3
    stride: 2
  }
}
layer {
  name: "conv3"
  type: "Convolution"
  bottom: "pool2"
  top: "conv3"
  param {
    lr_mult: 1
  }
  param {
    lr_mult: 2
  }
  convolution_param {
    num_output: 128
    pad: 2
    kernel_size: 5
    stride: 1
    weight_filler {
      type: "gaussian"
      std: 0.01
    }
    bias_filler {
      type: "constant"
    }
  }
}
layer {
  name: "relu3"
  type: "ReLU"
  bottom: "conv3"
  top: "conv3"
}
layer {
  name: "conv4"
  type: "Convolution"
  bottom: "conv3"
  top: "conv4"
  param {
    lr_mult: 1
  }
  param {
    lr_mult: 2
  }
  convolution_param {
    num_output: 128
    pad: 2
    kernel_size: 5
    stride: 1
    weight_filler {
      type: "gaussian"
      std: 0.01
    }
    bias_filler {
      type: "constant"
    }
  }
}
layer {
  name: "relu4"
  type: "ReLU"
  bottom: "conv4"
  top: "conv4"
}
layer {
  name: "conv5"
  type: "Convolution"
  bottom: "conv4"
  top: "conv5"
  param {
    lr_mult: 1
  }
  param {
    lr_mult: 2
  }
  convolution_param {
    num_output: 128
    pad: 2
    kernel_size: 5
    stride: 1
    weight_filler {
      type: "gaussian"
      std: 0.01
    }
    bias_filler {
      type: "constant"
    }
  }
}
layer {
  name: "relu5"
  type: "ReLU"
  bottom: "conv5"
  top: "conv5"
}
layer {
  name: "pool5"
  type: "Pooling"
  bottom: "conv5"
  top: "pool5"
  pooling_param {
    pool: AVE
    kernel_size: 3
    stride: 2
  }
}
layer {
  name: "ip1"
  type: "InnerProduct"
  bottom: "pool5"
  top: "ip1"
  param {
    lr_mult: 1
  }
  param {
    lr_mult: 2
  }
  inner_product_param {
    num_output: 1024
    weight_filler {
      type: "gaussian"
      std: 0.1
    }
    bias_filler {
      type: "constant"
    }
  }
}
layer {
  name: "ip2"
  type: "InnerProduct"
  bottom: "ip1"
  top: "ip2"
  param {
    lr_mult: 1
  }
  param {
    lr_mult: 2
  }
  inner_product_param {
    num_output: 512
    weight_filler {
      type: "gaussian"
      std: 0.1
    }
    bias_filler {
      type: "constant"
    }
  }
}
layer {
  name: "ip3"
  type: "InnerProduct"
  bottom: "ip2"
  top: "ip3"
  param {
    lr_mult: 1
  }
  param {
    lr_mult: 2
  }
  inner_product_param {
    num_output: 50
    weight_filler {
      type: "gaussian"
      std: 0.1
    }
    bias_filler {
      type: "constant"
    }
  }
}
layer {
  name: "accuracy"
  type: "Accuracy"
  bottom: "ip3"
  bottom: "label"
  top: "accuracy"
  include {
    phase: TEST
  }
}
layer {
  name: "loss"
  type: "SoftmaxWithLoss"
  bottom: "ip3"
  bottom: "label"
  top: "loss"
}
I0501 04:31:17.568703 30738 layer_factory.hpp:77] Creating layer intercept
I0501 04:31:17.568711 30738 net.cpp:94] Creating Layer intercept
I0501 04:31:17.568716 30738 net.cpp:409] intercept -> data
I0501 04:31:17.568722 30738 net.cpp:409] intercept -> label
I0501 04:31:17.568728 30738 hdf5_data_layer.cpp:79] Loading list of HDF5 filenames from: /home/purduethu/scratch/radon/d/deng106/CNNStatisticalModel/distributions/input/50_distributions_100_sample_size_test-distributions-path.txt
I0501 04:31:17.568747 30738 hdf5_data_layer.cpp:93] Number of HDF5 files: 1
I0501 04:31:17.610023 30738 net.cpp:144] Setting up intercept
I0501 04:31:17.610056 30738 net.cpp:151] Top shape: 20 1 10 10 (2000)
I0501 04:31:17.610062 30738 net.cpp:151] Top shape: 20 (20)
I0501 04:31:17.610065 30738 net.cpp:159] Memory required for data: 8080
I0501 04:31:17.610071 30738 layer_factory.hpp:77] Creating layer label_intercept_1_split
I0501 04:31:17.610091 30738 net.cpp:94] Creating Layer label_intercept_1_split
I0501 04:31:17.610095 30738 net.cpp:435] label_intercept_1_split <- label
I0501 04:31:17.610101 30738 net.cpp:409] label_intercept_1_split -> label_intercept_1_split_0
I0501 04:31:17.610111 30738 net.cpp:409] label_intercept_1_split -> label_intercept_1_split_1
I0501 04:31:17.610155 30738 net.cpp:144] Setting up label_intercept_1_split
I0501 04:31:17.610162 30738 net.cpp:151] Top shape: 20 (20)
I0501 04:31:17.610164 30738 net.cpp:151] Top shape: 20 (20)
I0501 04:31:17.610167 30738 net.cpp:159] Memory required for data: 8240
I0501 04:31:17.610172 30738 layer_factory.hpp:77] Creating layer conv1
I0501 04:31:17.610182 30738 net.cpp:94] Creating Layer conv1
I0501 04:31:17.610184 30738 net.cpp:435] conv1 <- data
I0501 04:31:17.610189 30738 net.cpp:409] conv1 -> conv1
I0501 04:31:17.611064 30738 net.cpp:144] Setting up conv1
I0501 04:31:17.611076 30738 net.cpp:151] Top shape: 20 64 10 10 (128000)
I0501 04:31:17.611088 30738 net.cpp:159] Memory required for data: 520240
I0501 04:31:17.611098 30738 layer_factory.hpp:77] Creating layer relu1
I0501 04:31:17.611104 30738 net.cpp:94] Creating Layer relu1
I0501 04:31:17.611107 30738 net.cpp:435] relu1 <- conv1
I0501 04:31:17.611112 30738 net.cpp:396] relu1 -> conv1 (in-place)
I0501 04:31:17.611119 30738 net.cpp:144] Setting up relu1
I0501 04:31:17.611124 30738 net.cpp:151] Top shape: 20 64 10 10 (128000)
I0501 04:31:17.611125 30738 net.cpp:159] Memory required for data: 1032240
I0501 04:31:17.611129 30738 layer_factory.hpp:77] Creating layer conv2
I0501 04:31:17.611136 30738 net.cpp:94] Creating Layer conv2
I0501 04:31:17.611140 30738 net.cpp:435] conv2 <- conv1
I0501 04:31:17.611143 30738 net.cpp:409] conv2 -> conv2
I0501 04:31:17.615310 30738 net.cpp:144] Setting up conv2
I0501 04:31:17.615324 30738 net.cpp:151] Top shape: 20 64 10 10 (128000)
I0501 04:31:17.615327 30738 net.cpp:159] Memory required for data: 1544240
I0501 04:31:17.615335 30738 layer_factory.hpp:77] Creating layer relu2
I0501 04:31:17.615340 30738 net.cpp:94] Creating Layer relu2
I0501 04:31:17.615344 30738 net.cpp:435] relu2 <- conv2
I0501 04:31:17.615350 30738 net.cpp:396] relu2 -> conv2 (in-place)
I0501 04:31:17.615356 30738 net.cpp:144] Setting up relu2
I0501 04:31:17.615360 30738 net.cpp:151] Top shape: 20 64 10 10 (128000)
I0501 04:31:17.615363 30738 net.cpp:159] Memory required for data: 2056240
I0501 04:31:17.615366 30738 layer_factory.hpp:77] Creating layer pool2
I0501 04:31:17.615371 30738 net.cpp:94] Creating Layer pool2
I0501 04:31:17.615375 30738 net.cpp:435] pool2 <- conv2
I0501 04:31:17.615378 30738 net.cpp:409] pool2 -> pool2
I0501 04:31:17.615438 30738 net.cpp:144] Setting up pool2
I0501 04:31:17.615447 30738 net.cpp:151] Top shape: 20 64 5 5 (32000)
I0501 04:31:17.615449 30738 net.cpp:159] Memory required for data: 2184240
I0501 04:31:17.615453 30738 layer_factory.hpp:77] Creating layer conv3
I0501 04:31:17.615461 30738 net.cpp:94] Creating Layer conv3
I0501 04:31:17.615465 30738 net.cpp:435] conv3 <- pool2
I0501 04:31:17.615470 30738 net.cpp:409] conv3 -> conv3
I0501 04:31:17.621567 30738 net.cpp:144] Setting up conv3
I0501 04:31:17.621580 30738 net.cpp:151] Top shape: 20 128 5 5 (64000)
I0501 04:31:17.621584 30738 net.cpp:159] Memory required for data: 2440240
I0501 04:31:17.621592 30738 layer_factory.hpp:77] Creating layer relu3
I0501 04:31:17.621598 30738 net.cpp:94] Creating Layer relu3
I0501 04:31:17.621601 30738 net.cpp:435] relu3 <- conv3
I0501 04:31:17.621606 30738 net.cpp:396] relu3 -> conv3 (in-place)
I0501 04:31:17.621613 30738 net.cpp:144] Setting up relu3
I0501 04:31:17.621616 30738 net.cpp:151] Top shape: 20 128 5 5 (64000)
I0501 04:31:17.621619 30738 net.cpp:159] Memory required for data: 2696240
I0501 04:31:17.621623 30738 layer_factory.hpp:77] Creating layer conv4
I0501 04:31:17.621630 30738 net.cpp:94] Creating Layer conv4
I0501 04:31:17.621634 30738 net.cpp:435] conv4 <- conv3
I0501 04:31:17.621639 30738 net.cpp:409] conv4 -> conv4
I0501 04:31:17.634379 30738 net.cpp:144] Setting up conv4
I0501 04:31:17.634403 30738 net.cpp:151] Top shape: 20 128 5 5 (64000)
I0501 04:31:17.634410 30738 net.cpp:159] Memory required for data: 2952240
I0501 04:31:17.634421 30738 layer_factory.hpp:77] Creating layer relu4
I0501 04:31:17.634433 30738 net.cpp:94] Creating Layer relu4
I0501 04:31:17.634440 30738 net.cpp:435] relu4 <- conv4
I0501 04:31:17.634448 30738 net.cpp:396] relu4 -> conv4 (in-place)
I0501 04:31:17.634469 30738 net.cpp:144] Setting up relu4
I0501 04:31:17.634474 30738 net.cpp:151] Top shape: 20 128 5 5 (64000)
I0501 04:31:17.634476 30738 net.cpp:159] Memory required for data: 3208240
I0501 04:31:17.634479 30738 layer_factory.hpp:77] Creating layer conv5
I0501 04:31:17.634487 30738 net.cpp:94] Creating Layer conv5
I0501 04:31:17.634491 30738 net.cpp:435] conv5 <- conv4
I0501 04:31:17.634496 30738 net.cpp:409] conv5 -> conv5
I0501 04:31:17.647176 30738 net.cpp:144] Setting up conv5
I0501 04:31:17.647194 30738 net.cpp:151] Top shape: 20 128 5 5 (64000)
I0501 04:31:17.647202 30738 net.cpp:159] Memory required for data: 3464240
I0501 04:31:17.647212 30738 layer_factory.hpp:77] Creating layer relu5
I0501 04:31:17.647218 30738 net.cpp:94] Creating Layer relu5
I0501 04:31:17.647222 30738 net.cpp:435] relu5 <- conv5
I0501 04:31:17.647227 30738 net.cpp:396] relu5 -> conv5 (in-place)
I0501 04:31:17.647233 30738 net.cpp:144] Setting up relu5
I0501 04:31:17.647238 30738 net.cpp:151] Top shape: 20 128 5 5 (64000)
I0501 04:31:17.647240 30738 net.cpp:159] Memory required for data: 3720240
I0501 04:31:17.647243 30738 layer_factory.hpp:77] Creating layer pool5
I0501 04:31:17.647248 30738 net.cpp:94] Creating Layer pool5
I0501 04:31:17.647251 30738 net.cpp:435] pool5 <- conv5
I0501 04:31:17.647258 30738 net.cpp:409] pool5 -> pool5
I0501 04:31:17.647300 30738 net.cpp:144] Setting up pool5
I0501 04:31:17.647306 30738 net.cpp:151] Top shape: 20 128 2 2 (10240)
I0501 04:31:17.647310 30738 net.cpp:159] Memory required for data: 3761200
I0501 04:31:17.647312 30738 layer_factory.hpp:77] Creating layer ip1
I0501 04:31:17.647320 30738 net.cpp:94] Creating Layer ip1
I0501 04:31:17.647323 30738 net.cpp:435] ip1 <- pool5
I0501 04:31:17.647328 30738 net.cpp:409] ip1 -> ip1
I0501 04:31:17.660485 30738 net.cpp:144] Setting up ip1
I0501 04:31:17.660500 30738 net.cpp:151] Top shape: 20 1024 (20480)
I0501 04:31:17.660502 30738 net.cpp:159] Memory required for data: 3843120
I0501 04:31:17.660508 30738 layer_factory.hpp:77] Creating layer ip2
I0501 04:31:17.660516 30738 net.cpp:94] Creating Layer ip2
I0501 04:31:17.660519 30738 net.cpp:435] ip2 <- ip1
I0501 04:31:17.660526 30738 net.cpp:409] ip2 -> ip2
I0501 04:31:17.673707 30738 net.cpp:144] Setting up ip2
I0501 04:31:17.673725 30738 net.cpp:151] Top shape: 20 512 (10240)
I0501 04:31:17.673728 30738 net.cpp:159] Memory required for data: 3884080
I0501 04:31:17.673735 30738 layer_factory.hpp:77] Creating layer ip3
I0501 04:31:17.673744 30738 net.cpp:94] Creating Layer ip3
I0501 04:31:17.673748 30738 net.cpp:435] ip3 <- ip2
I0501 04:31:17.673754 30738 net.cpp:409] ip3 -> ip3
I0501 04:31:17.674499 30738 net.cpp:144] Setting up ip3
I0501 04:31:17.674507 30738 net.cpp:151] Top shape: 20 50 (1000)
I0501 04:31:17.674510 30738 net.cpp:159] Memory required for data: 3888080
I0501 04:31:17.674515 30738 layer_factory.hpp:77] Creating layer ip3_ip3_0_split
I0501 04:31:17.674521 30738 net.cpp:94] Creating Layer ip3_ip3_0_split
I0501 04:31:17.674525 30738 net.cpp:435] ip3_ip3_0_split <- ip3
I0501 04:31:17.674530 30738 net.cpp:409] ip3_ip3_0_split -> ip3_ip3_0_split_0
I0501 04:31:17.674535 30738 net.cpp:409] ip3_ip3_0_split -> ip3_ip3_0_split_1
I0501 04:31:17.674579 30738 net.cpp:144] Setting up ip3_ip3_0_split
I0501 04:31:17.674585 30738 net.cpp:151] Top shape: 20 50 (1000)
I0501 04:31:17.674589 30738 net.cpp:151] Top shape: 20 50 (1000)
I0501 04:31:17.674592 30738 net.cpp:159] Memory required for data: 3896080
I0501 04:31:17.674594 30738 layer_factory.hpp:77] Creating layer accuracy
I0501 04:31:17.674602 30738 net.cpp:94] Creating Layer accuracy
I0501 04:31:17.674604 30738 net.cpp:435] accuracy <- ip3_ip3_0_split_0
I0501 04:31:17.674608 30738 net.cpp:435] accuracy <- label_intercept_1_split_0
I0501 04:31:17.674612 30738 net.cpp:409] accuracy -> accuracy
…
