…
I0503 03:13:34.517961 17758 net.cpp:323] The NetState phase (0) differed from the phase (1) specified by a rule in layer intercept
I0503 03:13:34.517976 17758 net.cpp:323] The NetState phase (0) differed from the phase (1) specified by a rule in layer loss
I0503 03:13:34.518059 17758 net.cpp:52] Initializing net from parameters: 
state {
  phase: TRAIN
}
layer {
  name: "parameters"
  type: "HDF5Data"
  top: "data"
  top: "label"
  include {
    phase: TRAIN
  }
  hdf5_data_param {
    source: "/home/purduethu/scratch/radon/d/deng106/CNNStatisticalModel/distributions/input/20_distributions_100_sample_size_train-parameters-path.txt"
    batch_size: 20
  }
}
layer {
  name: "conv1"
  type: "Convolution"
  bottom: "data"
  top: "conv1"
  param {
    lr_mult: 1
  }
  param {
    lr_mult: 2
  }
  convolution_param {
    num_output: 64
    pad: 2
    kernel_size: 5
    stride: 1
    weight_filler {
      type: "gaussian"
      std: 0.0001
    }
    bias_filler {
      type: "constant"
    }
  }
}
layer {
  name: "relu1"
  type: "ReLU"
  bottom: "conv1"
  top: "conv1"
}
layer {
  name: "conv2"
  type: "Convolution"
  bottom: "conv1"
  top: "conv2"
  param {
    lr_mult: 1
  }
  param {
    lr_mult: 2
  }
  convolution_param {
    num_output: 64
    pad: 2
    kernel_size: 5
    stride: 1
    weight_filler {
      type: "gaussian"
      std: 0.01
    }
    bias_filler {
      type: "constant"
    }
  }
}
layer {
  name: "relu2"
  type: "ReLU"
  bottom: "conv2"
  top: "conv2"
}
layer {
  name: "pool2"
  type: "Pooling"
  bottom: "conv2"
  top: "pool2"
  pooling_param {
    pool: MAX
    kernel_size: 3
    stride: 2
  }
}
layer {
  name: "conv3"
  type: "Convolution"
  bottom: "pool2"
  top: "conv3"
  param {
    lr_mult: 1
  }
  param {
    lr_mult: 2
  }
  convolution_param {
    num_output: 128
    pad: 2
    kernel_size: 5
    stride: 1
    weight_filler {
      type: "gaussian"
      std: 0.01
    }
    bias_filler {
      type: "constant"
    }
  }
}
layer {
  name: "relu3"
  type: "ReLU"
  bottom: "conv3"
  top: "conv3"
}
layer {
  name: "conv4"
  type: "Convolution"
  bottom: "conv3"
  top: "conv4"
  param {
    lr_mult: 1
  }
  param {
    lr_mult: 2
  }
  convolution_param {
    num_output: 128
    pad: 2
    kernel_size: 5
    stride: 1
    weight_filler {
      type: "gaussian"
      std: 0.01
    }
    bias_filler {
      type: "constant"
    }
  }
}
layer {
  name: "relu4"
  type: "ReLU"
  bottom: "conv4"
  top: "conv4"
}
layer {
  name: "conv5"
  type: "Convolution"
  bottom: "conv4"
  top: "conv5"
  param {
    lr_mult: 1
  }
  param {
    lr_mult: 2
  }
  convolution_param {
    num_output: 128
    pad: 2
    kernel_size: 5
    stride: 1
    weight_filler {
      type: "gaussian"
      std: 0.01
    }
    bias_filler {
      type: "constant"
    }
  }
}
layer {
  name: "relu5"
  type: "ReLU"
  bottom: "conv5"
  top: "conv5"
}
layer {
  name: "pool5"
  type: "Pooling"
  bottom: "conv5"
  top: "pool5"
  pooling_param {
    pool: AVE
    kernel_size: 3
    stride: 2
  }
}
layer {
  name: "ip1"
  type: "InnerProduct"
  bottom: "pool5"
  top: "ip1"
  param {
    lr_mult: 1
  }
  param {
    lr_mult: 2
  }
  inner_product_param {
    num_output: 1024
    weight_filler {
      type: "gaussian"
      std: 0.1
    }
    bias_filler {
      type: "constant"
    }
  }
}
layer {
  name: "ip2"
  type: "InnerProduct"
  bottom: "ip1"
  top: "ip2"
  param {
    lr_mult: 1
  }
  param {
    lr_mult: 2
  }
  inner_product_param {
    num_output: 512
    weight_filler {
      type: "gaussian"
      std: 0.1
    }
    bias_filler {
      type: "constant"
    }
  }
}
layer {
  name: "ip3"
  type: "InnerProduct"
  bottom: "ip2"
  top: "ip3"
  param {
    lr_mult: 1
  }
  param {
    lr_mult: 2
  }
  inner_product_param {
    num_output: 1
    weight_filler {
      type: "gaussian"
      std: 0.1
    }
    bias_filler {
      type: "constant"
    }
  }
}
layer {
  name: "loss"
  type: "HuberLoss"
  bottom: "ip3"
  bottom: "label"
  top: "loss"
  include {
    phase: TRAIN
  }
}
I0503 03:13:34.518116 17758 layer_factory.hpp:77] Creating layer parameters
I0503 03:13:34.518132 17758 net.cpp:94] Creating Layer parameters
I0503 03:13:34.518137 17758 net.cpp:409] parameters -> data
I0503 03:13:34.518147 17758 net.cpp:409] parameters -> label
I0503 03:13:34.518154 17758 hdf5_data_layer.cpp:79] Loading list of HDF5 filenames from: /home/purduethu/scratch/radon/d/deng106/CNNStatisticalModel/distributions/input/20_distributions_100_sample_size_train-parameters-path.txt
I0503 03:13:34.518170 17758 hdf5_data_layer.cpp:93] Number of HDF5 files: 1
I0503 03:13:34.518731 17758 hdf5.cpp:32] Datatype class: H5T_FLOAT
I0503 03:13:34.587368 17758 net.cpp:144] Setting up parameters
I0503 03:13:34.587399 17758 net.cpp:151] Top shape: 20 1 10 10 (2000)
I0503 03:13:34.587404 17758 net.cpp:151] Top shape: 20 (20)
I0503 03:13:34.587406 17758 net.cpp:159] Memory required for data: 8080
I0503 03:13:34.587412 17758 layer_factory.hpp:77] Creating layer conv1
I0503 03:13:34.587435 17758 net.cpp:94] Creating Layer conv1
I0503 03:13:34.587438 17758 net.cpp:435] conv1 <- data
I0503 03:13:34.587445 17758 net.cpp:409] conv1 -> conv1
I0503 03:13:34.591528 17758 net.cpp:144] Setting up conv1
I0503 03:13:34.591548 17758 net.cpp:151] Top shape: 20 64 10 10 (128000)
I0503 03:13:34.591552 17758 net.cpp:159] Memory required for data: 520080
I0503 03:13:34.591563 17758 layer_factory.hpp:77] Creating layer relu1
I0503 03:13:34.591572 17758 net.cpp:94] Creating Layer relu1
I0503 03:13:34.591576 17758 net.cpp:435] relu1 <- conv1
I0503 03:13:34.591581 17758 net.cpp:396] relu1 -> conv1 (in-place)
I0503 03:13:34.591593 17758 net.cpp:144] Setting up relu1
I0503 03:13:34.591598 17758 net.cpp:151] Top shape: 20 64 10 10 (128000)
I0503 03:13:34.591601 17758 net.cpp:159] Memory required for data: 1032080
I0503 03:13:34.591604 17758 layer_factory.hpp:77] Creating layer conv2
I0503 03:13:34.591614 17758 net.cpp:94] Creating Layer conv2
I0503 03:13:34.591617 17758 net.cpp:435] conv2 <- conv1
I0503 03:13:34.591621 17758 net.cpp:409] conv2 -> conv2
I0503 03:13:34.596843 17758 net.cpp:144] Setting up conv2
I0503 03:13:34.596858 17758 net.cpp:151] Top shape: 20 64 10 10 (128000)
I0503 03:13:34.596861 17758 net.cpp:159] Memory required for data: 1544080
I0503 03:13:34.596869 17758 layer_factory.hpp:77] Creating layer relu2
I0503 03:13:34.596876 17758 net.cpp:94] Creating Layer relu2
I0503 03:13:34.596880 17758 net.cpp:435] relu2 <- conv2
I0503 03:13:34.596884 17758 net.cpp:396] relu2 -> conv2 (in-place)
I0503 03:13:34.596891 17758 net.cpp:144] Setting up relu2
I0503 03:13:34.596896 17758 net.cpp:151] Top shape: 20 64 10 10 (128000)
I0503 03:13:34.596899 17758 net.cpp:159] Memory required for data: 2056080
I0503 03:13:34.596902 17758 layer_factory.hpp:77] Creating layer pool2
I0503 03:13:34.596909 17758 net.cpp:94] Creating Layer pool2
I0503 03:13:34.596917 17758 net.cpp:435] pool2 <- conv2
I0503 03:13:34.596922 17758 net.cpp:409] pool2 -> pool2
I0503 03:13:34.596974 17758 net.cpp:144] Setting up pool2
I0503 03:13:34.596982 17758 net.cpp:151] Top shape: 20 64 5 5 (32000)
I0503 03:13:34.596985 17758 net.cpp:159] Memory required for data: 2184080
I0503 03:13:34.596989 17758 layer_factory.hpp:77] Creating layer conv3
I0503 03:13:34.596997 17758 net.cpp:94] Creating Layer conv3
I0503 03:13:34.597000 17758 net.cpp:435] conv3 <- pool2
I0503 03:13:34.597005 17758 net.cpp:409] conv3 -> conv3
I0503 03:13:34.605211 17758 net.cpp:144] Setting up conv3
I0503 03:13:34.605224 17758 net.cpp:151] Top shape: 20 128 5 5 (64000)
I0503 03:13:34.605228 17758 net.cpp:159] Memory required for data: 2440080
I0503 03:13:34.605237 17758 layer_factory.hpp:77] Creating layer relu3
I0503 03:13:34.605242 17758 net.cpp:94] Creating Layer relu3
I0503 03:13:34.605247 17758 net.cpp:435] relu3 <- conv3
I0503 03:13:34.605250 17758 net.cpp:396] relu3 -> conv3 (in-place)
I0503 03:13:34.605257 17758 net.cpp:144] Setting up relu3
I0503 03:13:34.605262 17758 net.cpp:151] Top shape: 20 128 5 5 (64000)
I0503 03:13:34.605265 17758 net.cpp:159] Memory required for data: 2696080
I0503 03:13:34.605268 17758 layer_factory.hpp:77] Creating layer conv4
I0503 03:13:34.605278 17758 net.cpp:94] Creating Layer conv4
I0503 03:13:34.605280 17758 net.cpp:435] conv4 <- conv3
I0503 03:13:34.605285 17758 net.cpp:409] conv4 -> conv4
I0503 03:13:34.620290 17758 net.cpp:144] Setting up conv4
I0503 03:13:34.620309 17758 net.cpp:151] Top shape: 20 128 5 5 (64000)
I0503 03:13:34.620313 17758 net.cpp:159] Memory required for data: 2952080
I0503 03:13:34.620321 17758 layer_factory.hpp:77] Creating layer relu4
I0503 03:13:34.620327 17758 net.cpp:94] Creating Layer relu4
I0503 03:13:34.620332 17758 net.cpp:435] relu4 <- conv4
I0503 03:13:34.620337 17758 net.cpp:396] relu4 -> conv4 (in-place)
I0503 03:13:34.620343 17758 net.cpp:144] Setting up relu4
I0503 03:13:34.620348 17758 net.cpp:151] Top shape: 20 128 5 5 (64000)
I0503 03:13:34.620352 17758 net.cpp:159] Memory required for data: 3208080
I0503 03:13:34.620354 17758 layer_factory.hpp:77] Creating layer conv5
I0503 03:13:34.620362 17758 net.cpp:94] Creating Layer conv5
I0503 03:13:34.620365 17758 net.cpp:435] conv5 <- conv4
I0503 03:13:34.620370 17758 net.cpp:409] conv5 -> conv5
I0503 03:13:34.635035 17758 net.cpp:144] Setting up conv5
I0503 03:13:34.635053 17758 net.cpp:151] Top shape: 20 128 5 5 (64000)
I0503 03:13:34.635057 17758 net.cpp:159] Memory required for data: 3464080
I0503 03:13:34.635067 17758 layer_factory.hpp:77] Creating layer relu5
I0503 03:13:34.635074 17758 net.cpp:94] Creating Layer relu5
I0503 03:13:34.635078 17758 net.cpp:435] relu5 <- conv5
I0503 03:13:34.635082 17758 net.cpp:396] relu5 -> conv5 (in-place)
I0503 03:13:34.635090 17758 net.cpp:144] Setting up relu5
I0503 03:13:34.635094 17758 net.cpp:151] Top shape: 20 128 5 5 (64000)
I0503 03:13:34.635097 17758 net.cpp:159] Memory required for data: 3720080
I0503 03:13:34.635100 17758 layer_factory.hpp:77] Creating layer pool5
I0503 03:13:34.635107 17758 net.cpp:94] Creating Layer pool5
I0503 03:13:34.635109 17758 net.cpp:435] pool5 <- conv5
I0503 03:13:34.635114 17758 net.cpp:409] pool5 -> pool5
I0503 03:13:34.635154 17758 net.cpp:144] Setting up pool5
I0503 03:13:34.635161 17758 net.cpp:151] Top shape: 20 128 2 2 (10240)
I0503 03:13:34.635164 17758 net.cpp:159] Memory required for data: 3761040
I0503 03:13:34.635167 17758 layer_factory.hpp:77] Creating layer ip1
I0503 03:13:34.635177 17758 net.cpp:94] Creating Layer ip1
I0503 03:13:34.635181 17758 net.cpp:435] ip1 <- pool5
I0503 03:13:34.635185 17758 net.cpp:409] ip1 -> ip1
I0503 03:13:34.649382 17758 net.cpp:144] Setting up ip1
I0503 03:13:34.649402 17758 net.cpp:151] Top shape: 20 1024 (20480)
I0503 03:13:34.649407 17758 net.cpp:159] Memory required for data: 3842960
I0503 03:13:34.649415 17758 layer_factory.hpp:77] Creating layer ip2
I0503 03:13:34.649423 17758 net.cpp:94] Creating Layer ip2
I0503 03:13:34.649435 17758 net.cpp:435] ip2 <- ip1
I0503 03:13:34.649442 17758 net.cpp:409] ip2 -> ip2
I0503 03:13:34.662783 17758 net.cpp:144] Setting up ip2
I0503 03:13:34.662802 17758 net.cpp:151] Top shape: 20 512 (10240)
I0503 03:13:34.662807 17758 net.cpp:159] Memory required for data: 3883920
I0503 03:13:34.662813 17758 layer_factory.hpp:77] Creating layer ip3
I0503 03:13:34.662822 17758 net.cpp:94] Creating Layer ip3
I0503 03:13:34.662827 17758 net.cpp:435] ip3 <- ip2
I0503 03:13:34.662832 17758 net.cpp:409] ip3 -> ip3
I0503 03:13:34.662945 17758 net.cpp:144] Setting up ip3
I0503 03:13:34.662953 17758 net.cpp:151] Top shape: 20 1 (20)
I0503 03:13:34.662956 17758 net.cpp:159] Memory required for data: 3884000
I0503 03:13:34.662961 17758 layer_factory.hpp:77] Creating layer loss
I0503 03:13:34.662971 17758 net.cpp:94] Creating Layer loss
I0503 03:13:34.662973 17758 net.cpp:435] loss <- ip3
I0503 03:13:34.662977 17758 net.cpp:435] loss <- label
I0503 03:13:34.662981 17758 net.cpp:409] loss -> loss
I0503 03:13:34.663030 17758 net.cpp:144] Setting up loss
…
I0503 03:13:34.748795 17758 net.cpp:323] The NetState phase (0) differed from the phase (1) specified by a rule in layer intercept
I0503 03:13:34.748811 17758 net.cpp:323] The NetState phase (0) differed from the phase (1) specified by a rule in layer accuracy
I0503 03:13:34.748903 17758 net.cpp:52] Initializing net from parameters: 
state {
  phase: TRAIN
}
layer {
  name: "parameters"
  type: "HDF5Data"
  top: "data"
  top: "label"
  include {
    phase: TRAIN
  }
  hdf5_data_param {
    source: "/home/purduethu/scratch/radon/d/deng106/CNNStatisticalModel/distributions/input/20_distributions_100_sample_size_train-distributions-path.txt"
    batch_size: 20
  }
}
layer {
  name: "conv1"
  type: "Convolution"
  bottom: "data"
  top: "conv1"
  param {
    lr_mult: 1
  }
  param {
    lr_mult: 2
  }
  convolution_param {
    num_output: 64
    pad: 2
    kernel_size: 5
    stride: 1
    weight_filler {
      type: "gaussian"
      std: 0.0001
    }
    bias_filler {
      type: "constant"
    }
  }
}
layer {
  name: "relu1"
  type: "ReLU"
  bottom: "conv1"
  top: "conv1"
}
layer {
  name: "conv2"
  type: "Convolution"
  bottom: "conv1"
  top: "conv2"
  param {
    lr_mult: 1
  }
  param {
    lr_mult: 2
  }
  convolution_param {
    num_output: 64
    pad: 2
    kernel_size: 5
    stride: 1
    weight_filler {
      type: "gaussian"
      std: 0.01
    }
    bias_filler {
      type: "constant"
    }
  }
}
layer {
  name: "relu2"
  type: "ReLU"
  bottom: "conv2"
  top: "conv2"
}
layer {
  name: "pool2"
  type: "Pooling"
  bottom: "conv2"
  top: "pool2"
  pooling_param {
    pool: MAX
    kernel_size: 3
    stride: 2
  }
}
layer {
  name: "conv3"
  type: "Convolution"
  bottom: "pool2"
  top: "conv3"
  param {
    lr_mult: 1
  }
  param {
    lr_mult: 2
  }
  convolution_param {
    num_output: 128
    pad: 2
    kernel_size: 5
    stride: 1
    weight_filler {
      type: "gaussian"
      std: 0.01
    }
    bias_filler {
      type: "constant"
    }
  }
}
layer {
  name: "relu3"
  type: "ReLU"
  bottom: "conv3"
  top: "conv3"
}
layer {
  name: "conv4"
  type: "Convolution"
  bottom: "conv3"
  top: "conv4"
  param {
    lr_mult: 1
  }
  param {
    lr_mult: 2
  }
  convolution_param {
    num_output: 128
    pad: 2
    kernel_size: 5
    stride: 1
    weight_filler {
      type: "gaussian"
      std: 0.01
    }
    bias_filler {
      type: "constant"
    }
  }
}
layer {
  name: "relu4"
  type: "ReLU"
  bottom: "conv4"
  top: "conv4"
}
layer {
  name: "conv5"
  type: "Convolution"
  bottom: "conv4"
  top: "conv5"
  param {
    lr_mult: 1
  }
  param {
    lr_mult: 2
  }
  convolution_param {
    num_output: 128
    pad: 2
    kernel_size: 5
    stride: 1
    weight_filler {
      type: "gaussian"
      std: 0.01
    }
    bias_filler {
      type: "constant"
    }
  }
}
layer {
  name: "relu5"
  type: "ReLU"
  bottom: "conv5"
  top: "conv5"
}
layer {
  name: "pool5"
  type: "Pooling"
  bottom: "conv5"
  top: "pool5"
  pooling_param {
    pool: AVE
    kernel_size: 3
    stride: 2
  }
}
layer {
  name: "ip1"
  type: "InnerProduct"
  bottom: "pool5"
  top: "ip1"
  param {
    lr_mult: 1
  }
  param {
    lr_mult: 2
  }
  inner_product_param {
    num_output: 1024
    weight_filler {
      type: "gaussian"
      std: 0.1
    }
    bias_filler {
      type: "constant"
    }
  }
}
layer {
  name: "ip2"
  type: "InnerProduct"
  bottom: "ip1"
  top: "ip2"
  param {
    lr_mult: 1
  }
  param {
    lr_mult: 2
  }
  inner_product_param {
    num_output: 512
    weight_filler {
      type: "gaussian"
      std: 0.1
    }
    bias_filler {
      type: "constant"
    }
  }
}
layer {
  name: "ip3"
  type: "InnerProduct"
  bottom: "ip2"
  top: "ip3"
  param {
    lr_mult: 1
  }
  param {
    lr_mult: 2
  }
  inner_product_param {
    num_output: 50
    weight_filler {
      type: "gaussian"
      std: 0.1
    }
    bias_filler {
      type: "constant"
    }
  }
}
layer {
  name: "loss"
  type: "SoftmaxWithLoss"
  bottom: "ip3"
  bottom: "label"
  top: "loss"
}
I0503 03:13:34.748958 17758 layer_factory.hpp:77] Creating layer parameters
I0503 03:13:34.748967 17758 net.cpp:94] Creating Layer parameters
I0503 03:13:34.748971 17758 net.cpp:409] parameters -> data
I0503 03:13:34.748978 17758 net.cpp:409] parameters -> label
I0503 03:13:34.748986 17758 hdf5_data_layer.cpp:79] Loading list of HDF5 filenames from: /home/purduethu/scratch/radon/d/deng106/CNNStatisticalModel/distributions/input/20_distributions_100_sample_size_train-distributions-path.txt
I0503 03:13:34.749003 17758 hdf5_data_layer.cpp:93] Number of HDF5 files: 1
I0503 03:13:34.814352 17758 hdf5.cpp:35] Datatype class: H5T_INTEGER
I0503 03:13:34.815381 17758 net.cpp:144] Setting up parameters
I0503 03:13:34.815395 17758 net.cpp:151] Top shape: 20 1 10 10 (2000)
I0503 03:13:34.815400 17758 net.cpp:151] Top shape: 20 (20)
I0503 03:13:34.815403 17758 net.cpp:159] Memory required for data: 8080
I0503 03:13:34.815409 17758 layer_factory.hpp:77] Creating layer conv1
I0503 03:13:34.815426 17758 net.cpp:94] Creating Layer conv1
I0503 03:13:34.815430 17758 net.cpp:435] conv1 <- data
I0503 03:13:34.815436 17758 net.cpp:409] conv1 -> conv1
I0503 03:13:34.817267 17758 net.cpp:144] Setting up conv1
I0503 03:13:34.817283 17758 net.cpp:151] Top shape: 20 64 10 10 (128000)
I0503 03:13:34.817287 17758 net.cpp:159] Memory required for data: 520080
I0503 03:13:34.817298 17758 layer_factory.hpp:77] Creating layer relu1
I0503 03:13:34.817306 17758 net.cpp:94] Creating Layer relu1
I0503 03:13:34.817311 17758 net.cpp:435] relu1 <- conv1
I0503 03:13:34.817314 17758 net.cpp:396] relu1 -> conv1 (in-place)
I0503 03:13:34.817322 17758 net.cpp:144] Setting up relu1
I0503 03:13:34.817327 17758 net.cpp:151] Top shape: 20 64 10 10 (128000)
I0503 03:13:34.817330 17758 net.cpp:159] Memory required for data: 1032080
I0503 03:13:34.817333 17758 layer_factory.hpp:77] Creating layer conv2
I0503 03:13:34.817342 17758 net.cpp:94] Creating Layer conv2
I0503 03:13:34.817344 17758 net.cpp:435] conv2 <- conv1
I0503 03:13:34.817349 17758 net.cpp:409] conv2 -> conv2
I0503 03:13:34.822787 17758 net.cpp:144] Setting up conv2
I0503 03:13:34.822800 17758 net.cpp:151] Top shape: 20 64 10 10 (128000)
I0503 03:13:34.822804 17758 net.cpp:159] Memory required for data: 1544080
I0503 03:13:34.822813 17758 layer_factory.hpp:77] Creating layer relu2
I0503 03:13:34.822819 17758 net.cpp:94] Creating Layer relu2
I0503 03:13:34.822824 17758 net.cpp:435] relu2 <- conv2
I0503 03:13:34.822827 17758 net.cpp:396] relu2 -> conv2 (in-place)
I0503 03:13:34.822834 17758 net.cpp:144] Setting up relu2
I0503 03:13:34.822839 17758 net.cpp:151] Top shape: 20 64 10 10 (128000)
I0503 03:13:34.822842 17758 net.cpp:159] Memory required for data: 2056080
I0503 03:13:34.822845 17758 layer_factory.hpp:77] Creating layer pool2
I0503 03:13:34.822851 17758 net.cpp:94] Creating Layer pool2
I0503 03:13:34.822854 17758 net.cpp:435] pool2 <- conv2
I0503 03:13:34.822860 17758 net.cpp:409] pool2 -> pool2
I0503 03:13:34.822911 17758 net.cpp:144] Setting up pool2
I0503 03:13:34.822918 17758 net.cpp:151] Top shape: 20 64 5 5 (32000)
I0503 03:13:34.822921 17758 net.cpp:159] Memory required for data: 2184080
I0503 03:13:34.822924 17758 layer_factory.hpp:77] Creating layer conv3
I0503 03:13:34.822932 17758 net.cpp:94] Creating Layer conv3
I0503 03:13:34.822935 17758 net.cpp:435] conv3 <- pool2
I0503 03:13:34.822940 17758 net.cpp:409] conv3 -> conv3
I0503 03:13:34.831771 17758 net.cpp:144] Setting up conv3
I0503 03:13:34.831786 17758 net.cpp:151] Top shape: 20 128 5 5 (64000)
I0503 03:13:34.831790 17758 net.cpp:159] Memory required for data: 2440080
I0503 03:13:34.831799 17758 layer_factory.hpp:77] Creating layer relu3
I0503 03:13:34.831806 17758 net.cpp:94] Creating Layer relu3
I0503 03:13:34.831810 17758 net.cpp:435] relu3 <- conv3
I0503 03:13:34.831815 17758 net.cpp:396] relu3 -> conv3 (in-place)
I0503 03:13:34.831822 17758 net.cpp:144] Setting up relu3
I0503 03:13:34.831826 17758 net.cpp:151] Top shape: 20 128 5 5 (64000)
I0503 03:13:34.831830 17758 net.cpp:159] Memory required for data: 2696080
I0503 03:13:34.831832 17758 layer_factory.hpp:77] Creating layer conv4
I0503 03:13:34.831841 17758 net.cpp:94] Creating Layer conv4
I0503 03:13:34.831845 17758 net.cpp:435] conv4 <- conv3
I0503 03:13:34.831849 17758 net.cpp:409] conv4 -> conv4
I0503 03:13:34.846899 17758 net.cpp:144] Setting up conv4
I0503 03:13:34.846918 17758 net.cpp:151] Top shape: 20 128 5 5 (64000)
I0503 03:13:34.846922 17758 net.cpp:159] Memory required for data: 2952080
I0503 03:13:34.846930 17758 layer_factory.hpp:77] Creating layer relu4
I0503 03:13:34.846936 17758 net.cpp:94] Creating Layer relu4
I0503 03:13:34.846941 17758 net.cpp:435] relu4 <- conv4
I0503 03:13:34.846946 17758 net.cpp:396] relu4 -> conv4 (in-place)
I0503 03:13:34.846953 17758 net.cpp:144] Setting up relu4
I0503 03:13:34.846958 17758 net.cpp:151] Top shape: 20 128 5 5 (64000)
I0503 03:13:34.846961 17758 net.cpp:159] Memory required for data: 3208080
I0503 03:13:34.846964 17758 layer_factory.hpp:77] Creating layer conv5
I0503 03:13:34.846972 17758 net.cpp:94] Creating Layer conv5
I0503 03:13:34.846976 17758 net.cpp:435] conv5 <- conv4
I0503 03:13:34.846982 17758 net.cpp:409] conv5 -> conv5
I0503 03:13:34.862260 17758 net.cpp:144] Setting up conv5
I0503 03:13:34.862279 17758 net.cpp:151] Top shape: 20 128 5 5 (64000)
I0503 03:13:34.862283 17758 net.cpp:159] Memory required for data: 3464080
I0503 03:13:34.862293 17758 layer_factory.hpp:77] Creating layer relu5
I0503 03:13:34.862300 17758 net.cpp:94] Creating Layer relu5
I0503 03:13:34.862304 17758 net.cpp:435] relu5 <- conv5
I0503 03:13:34.862309 17758 net.cpp:396] relu5 -> conv5 (in-place)
I0503 03:13:34.862318 17758 net.cpp:144] Setting up relu5
I0503 03:13:34.862321 17758 net.cpp:151] Top shape: 20 128 5 5 (64000)
I0503 03:13:34.862325 17758 net.cpp:159] Memory required for data: 3720080
I0503 03:13:34.862329 17758 layer_factory.hpp:77] Creating layer pool5
I0503 03:13:34.862334 17758 net.cpp:94] Creating Layer pool5
I0503 03:13:34.862337 17758 net.cpp:435] pool5 <- conv5
I0503 03:13:34.862341 17758 net.cpp:409] pool5 -> pool5
I0503 03:13:34.862382 17758 net.cpp:144] Setting up pool5
I0503 03:13:34.862390 17758 net.cpp:151] Top shape: 20 128 2 2 (10240)
I0503 03:13:34.862393 17758 net.cpp:159] Memory required for data: 3761040
I0503 03:13:34.862396 17758 layer_factory.hpp:77] Creating layer ip1
I0503 03:13:34.862403 17758 net.cpp:94] Creating Layer ip1
I0503 03:13:34.862406 17758 net.cpp:435] ip1 <- pool5
I0503 03:13:34.862411 17758 net.cpp:409] ip1 -> ip1
I0503 03:13:34.875643 17758 net.cpp:144] Setting up ip1
I0503 03:13:34.875661 17758 net.cpp:151] Top shape: 20 1024 (20480)
I0503 03:13:34.875665 17758 net.cpp:159] Memory required for data: 3842960
I0503 03:13:34.875674 17758 layer_factory.hpp:77] Creating layer ip2
I0503 03:13:34.875680 17758 net.cpp:94] Creating Layer ip2
I0503 03:13:34.875684 17758 net.cpp:435] ip2 <- ip1
I0503 03:13:34.875689 17758 net.cpp:409] ip2 -> ip2
I0503 03:13:34.888844 17758 net.cpp:144] Setting up ip2
I0503 03:13:34.888862 17758 net.cpp:151] Top shape: 20 512 (10240)
I0503 03:13:34.888866 17758 net.cpp:159] Memory required for data: 3883920
I0503 03:13:34.888875 17758 layer_factory.hpp:77] Creating layer ip3
I0503 03:13:34.888881 17758 net.cpp:94] Creating Layer ip3
I0503 03:13:34.888885 17758 net.cpp:435] ip3 <- ip2
I0503 03:13:34.888890 17758 net.cpp:409] ip3 -> ip3
I0503 03:13:34.889623 17758 net.cpp:144] Setting up ip3
I0503 03:13:34.889631 17758 net.cpp:151] Top shape: 20 50 (1000)
I0503 03:13:34.889642 17758 net.cpp:159] Memory required for data: 3887920
I0503 03:13:34.889647 17758 layer_factory.hpp:77] Creating layer loss
I0503 03:13:34.889655 17758 net.cpp:94] Creating Layer loss
I0503 03:13:34.889658 17758 net.cpp:435] loss <- ip3
I0503 03:13:34.889662 17758 net.cpp:435] loss <- label
I0503 03:13:34.889667 17758 net.cpp:409] loss -> loss
I0503 03:13:34.889674 17758 layer_factory.hpp:77] Creating layer loss
…
I0503 03:13:34.890187 17758 solver.cpp:181] Creating test net (#0) specified by net file: ./protocol/dis_20_100_dimension.protocol_distribution
I0503 03:13:34.890213 17758 net.cpp:323] The NetState phase (1) differed from the phase (0) specified by a rule in layer parameters
I0503 03:13:34.890310 17758 net.cpp:52] Initializing net from parameters: 
state {
  phase: TEST
}
layer {
  name: "intercept"
  type: "HDF5Data"
  top: "data"
  top: "label"
  include {
    phase: TEST
  }
  hdf5_data_param {
    source: "/home/purduethu/scratch/radon/d/deng106/CNNStatisticalModel/distributions/input/20_distributions_100_sample_size_test-distributions-path.txt"
    batch_size: 20
  }
}
layer {
  name: "conv1"
  type: "Convolution"
  bottom: "data"
  top: "conv1"
  param {
    lr_mult: 1
  }
  param {
    lr_mult: 2
  }
  convolution_param {
    num_output: 64
    pad: 2
    kernel_size: 5
    stride: 1
    weight_filler {
      type: "gaussian"
      std: 0.0001
    }
    bias_filler {
      type: "constant"
    }
  }
}
layer {
  name: "relu1"
  type: "ReLU"
  bottom: "conv1"
  top: "conv1"
}
layer {
  name: "conv2"
  type: "Convolution"
  bottom: "conv1"
  top: "conv2"
  param {
    lr_mult: 1
  }
  param {
    lr_mult: 2
  }
  convolution_param {
    num_output: 64
    pad: 2
    kernel_size: 5
    stride: 1
    weight_filler {
      type: "gaussian"
      std: 0.01
    }
    bias_filler {
      type: "constant"
    }
  }
}
layer {
  name: "relu2"
  type: "ReLU"
  bottom: "conv2"
  top: "conv2"
}
layer {
  name: "pool2"
  type: "Pooling"
  bottom: "conv2"
  top: "pool2"
  pooling_param {
    pool: MAX
    kernel_size: 3
    stride: 2
  }
}
layer {
  name: "conv3"
  type: "Convolution"
  bottom: "pool2"
  top: "conv3"
  param {
    lr_mult: 1
  }
  param {
    lr_mult: 2
  }
  convolution_param {
    num_output: 128
    pad: 2
    kernel_size: 5
    stride: 1
    weight_filler {
      type: "gaussian"
      std: 0.01
    }
    bias_filler {
      type: "constant"
    }
  }
}
layer {
  name: "relu3"
  type: "ReLU"
  bottom: "conv3"
  top: "conv3"
}
layer {
  name: "conv4"
  type: "Convolution"
  bottom: "conv3"
  top: "conv4"
  param {
    lr_mult: 1
  }
  param {
    lr_mult: 2
  }
  convolution_param {
    num_output: 128
    pad: 2
    kernel_size: 5
    stride: 1
    weight_filler {
      type: "gaussian"
      std: 0.01
    }
    bias_filler {
      type: "constant"
    }
  }
}
layer {
  name: "relu4"
  type: "ReLU"
  bottom: "conv4"
  top: "conv4"
}
layer {
  name: "conv5"
  type: "Convolution"
  bottom: "conv4"
  top: "conv5"
  param {
    lr_mult: 1
  }
  param {
    lr_mult: 2
  }
  convolution_param {
    num_output: 128
    pad: 2
    kernel_size: 5
    stride: 1
    weight_filler {
      type: "gaussian"
      std: 0.01
    }
    bias_filler {
      type: "constant"
    }
  }
}
layer {
  name: "relu5"
  type: "ReLU"
  bottom: "conv5"
  top: "conv5"
}
layer {
  name: "pool5"
  type: "Pooling"
  bottom: "conv5"
  top: "pool5"
  pooling_param {
    pool: AVE
    kernel_size: 3
    stride: 2
  }
}
layer {
  name: "ip1"
  type: "InnerProduct"
  bottom: "pool5"
  top: "ip1"
  param {
    lr_mult: 1
  }
  param {
    lr_mult: 2
  }
  inner_product_param {
    num_output: 1024
    weight_filler {
      type: "gaussian"
      std: 0.1
    }
    bias_filler {
      type: "constant"
    }
  }
}
layer {
  name: "ip2"
  type: "InnerProduct"
  bottom: "ip1"
  top: "ip2"
  param {
    lr_mult: 1
  }
  param {
    lr_mult: 2
  }
  inner_product_param {
    num_output: 512
    weight_filler {
      type: "gaussian"
      std: 0.1
    }
    bias_filler {
      type: "constant"
    }
  }
}
layer {
  name: "ip3"
  type: "InnerProduct"
  bottom: "ip2"
  top: "ip3"
  param {
    lr_mult: 1
  }
  param {
    lr_mult: 2
  }
  inner_product_param {
    num_output: 50
    weight_filler {
      type: "gaussian"
      std: 0.1
    }
    bias_filler {
      type: "constant"
    }
  }
}
layer {
  name: "accuracy"
  type: "Accuracy"
  bottom: "ip3"
  bottom: "label"
  top: "accuracy"
  include {
    phase: TEST
  }
}
layer {
  name: "loss"
  type: "SoftmaxWithLoss"
  bottom: "ip3"
  bottom: "label"
  top: "loss"
}
I0503 03:13:34.890373 17758 layer_factory.hpp:77] Creating layer intercept
I0503 03:13:34.890382 17758 net.cpp:94] Creating Layer intercept
I0503 03:13:34.890386 17758 net.cpp:409] intercept -> data
I0503 03:13:34.890393 17758 net.cpp:409] intercept -> label
I0503 03:13:34.890398 17758 hdf5_data_layer.cpp:79] Loading list of HDF5 filenames from: /home/purduethu/scratch/radon/d/deng106/CNNStatisticalModel/distributions/input/20_distributions_100_sample_size_test-distributions-path.txt
I0503 03:13:34.890419 17758 hdf5_data_layer.cpp:93] Number of HDF5 files: 1
I0503 03:13:34.907932 17758 net.cpp:144] Setting up intercept
I0503 03:13:34.907965 17758 net.cpp:151] Top shape: 20 1 10 10 (2000)
I0503 03:13:34.907970 17758 net.cpp:151] Top shape: 20 (20)
I0503 03:13:34.907974 17758 net.cpp:159] Memory required for data: 8080
I0503 03:13:34.907980 17758 layer_factory.hpp:77] Creating layer label_intercept_1_split
I0503 03:13:34.907999 17758 net.cpp:94] Creating Layer label_intercept_1_split
I0503 03:13:34.908002 17758 net.cpp:435] label_intercept_1_split <- label
I0503 03:13:34.908008 17758 net.cpp:409] label_intercept_1_split -> label_intercept_1_split_0
I0503 03:13:34.908016 17758 net.cpp:409] label_intercept_1_split -> label_intercept_1_split_1
I0503 03:13:34.908057 17758 net.cpp:144] Setting up label_intercept_1_split
I0503 03:13:34.908063 17758 net.cpp:151] Top shape: 20 (20)
I0503 03:13:34.908067 17758 net.cpp:151] Top shape: 20 (20)
I0503 03:13:34.908071 17758 net.cpp:159] Memory required for data: 8240
I0503 03:13:34.908073 17758 layer_factory.hpp:77] Creating layer conv1
I0503 03:13:34.908084 17758 net.cpp:94] Creating Layer conv1
I0503 03:13:34.908088 17758 net.cpp:435] conv1 <- data
I0503 03:13:34.908092 17758 net.cpp:409] conv1 -> conv1
I0503 03:13:34.908939 17758 net.cpp:144] Setting up conv1
I0503 03:13:34.908953 17758 net.cpp:151] Top shape: 20 64 10 10 (128000)
I0503 03:13:34.908964 17758 net.cpp:159] Memory required for data: 520240
I0503 03:13:34.908975 17758 layer_factory.hpp:77] Creating layer relu1
I0503 03:13:34.908982 17758 net.cpp:94] Creating Layer relu1
I0503 03:13:34.908985 17758 net.cpp:435] relu1 <- conv1
I0503 03:13:34.908989 17758 net.cpp:396] relu1 -> conv1 (in-place)
I0503 03:13:34.908998 17758 net.cpp:144] Setting up relu1
I0503 03:13:34.909003 17758 net.cpp:151] Top shape: 20 64 10 10 (128000)
I0503 03:13:34.909005 17758 net.cpp:159] Memory required for data: 1032240
I0503 03:13:34.909008 17758 layer_factory.hpp:77] Creating layer conv2
I0503 03:13:34.909016 17758 net.cpp:94] Creating Layer conv2
I0503 03:13:34.909019 17758 net.cpp:435] conv2 <- conv1
I0503 03:13:34.909024 17758 net.cpp:409] conv2 -> conv2
I0503 03:13:34.913115 17758 net.cpp:144] Setting up conv2
I0503 03:13:34.913131 17758 net.cpp:151] Top shape: 20 64 10 10 (128000)
I0503 03:13:34.913136 17758 net.cpp:159] Memory required for data: 1544240
I0503 03:13:34.913143 17758 layer_factory.hpp:77] Creating layer relu2
I0503 03:13:34.913149 17758 net.cpp:94] Creating Layer relu2
I0503 03:13:34.913153 17758 net.cpp:435] relu2 <- conv2
I0503 03:13:34.913157 17758 net.cpp:396] relu2 -> conv2 (in-place)
I0503 03:13:34.913164 17758 net.cpp:144] Setting up relu2
I0503 03:13:34.913169 17758 net.cpp:151] Top shape: 20 64 10 10 (128000)
I0503 03:13:34.913172 17758 net.cpp:159] Memory required for data: 2056240
I0503 03:13:34.913175 17758 layer_factory.hpp:77] Creating layer pool2
I0503 03:13:34.913182 17758 net.cpp:94] Creating Layer pool2
I0503 03:13:34.913184 17758 net.cpp:435] pool2 <- conv2
I0503 03:13:34.913189 17758 net.cpp:409] pool2 -> pool2
I0503 03:13:34.913240 17758 net.cpp:144] Setting up pool2
I0503 03:13:34.913249 17758 net.cpp:151] Top shape: 20 64 5 5 (32000)
I0503 03:13:34.913251 17758 net.cpp:159] Memory required for data: 2184240
I0503 03:13:34.913254 17758 layer_factory.hpp:77] Creating layer conv3
I0503 03:13:34.913262 17758 net.cpp:94] Creating Layer conv3
I0503 03:13:34.913266 17758 net.cpp:435] conv3 <- pool2
I0503 03:13:34.913271 17758 net.cpp:409] conv3 -> conv3
I0503 03:13:34.919286 17758 net.cpp:144] Setting up conv3
I0503 03:13:34.919299 17758 net.cpp:151] Top shape: 20 128 5 5 (64000)
I0503 03:13:34.919302 17758 net.cpp:159] Memory required for data: 2440240
I0503 03:13:34.919311 17758 layer_factory.hpp:77] Creating layer relu3
I0503 03:13:34.919317 17758 net.cpp:94] Creating Layer relu3
I0503 03:13:34.919322 17758 net.cpp:435] relu3 <- conv3
I0503 03:13:34.919327 17758 net.cpp:396] relu3 -> conv3 (in-place)
I0503 03:13:34.919333 17758 net.cpp:144] Setting up relu3
I0503 03:13:34.919337 17758 net.cpp:151] Top shape: 20 128 5 5 (64000)
I0503 03:13:34.919340 17758 net.cpp:159] Memory required for data: 2696240
I0503 03:13:34.919343 17758 layer_factory.hpp:77] Creating layer conv4
I0503 03:13:34.919351 17758 net.cpp:94] Creating Layer conv4
I0503 03:13:34.919354 17758 net.cpp:435] conv4 <- conv3
I0503 03:13:34.919359 17758 net.cpp:409] conv4 -> conv4
I0503 03:13:34.932118 17758 net.cpp:144] Setting up conv4
I0503 03:13:34.932137 17758 net.cpp:151] Top shape: 20 128 5 5 (64000)
I0503 03:13:34.932140 17758 net.cpp:159] Memory required for data: 2952240
I0503 03:13:34.932147 17758 layer_factory.hpp:77] Creating layer relu4
I0503 03:13:34.932153 17758 net.cpp:94] Creating Layer relu4
I0503 03:13:34.932157 17758 net.cpp:435] relu4 <- conv4
I0503 03:13:34.932162 17758 net.cpp:396] relu4 -> conv4 (in-place)
I0503 03:13:34.932168 17758 net.cpp:144] Setting up relu4
I0503 03:13:34.932173 17758 net.cpp:151] Top shape: 20 128 5 5 (64000)
I0503 03:13:34.932176 17758 net.cpp:159] Memory required for data: 3208240
I0503 03:13:34.932179 17758 layer_factory.hpp:77] Creating layer conv5
I0503 03:13:34.932188 17758 net.cpp:94] Creating Layer conv5
I0503 03:13:34.932191 17758 net.cpp:435] conv5 <- conv4
I0503 03:13:34.932195 17758 net.cpp:409] conv5 -> conv5
I0503 03:13:34.944921 17758 net.cpp:144] Setting up conv5
I0503 03:13:34.944960 17758 net.cpp:151] Top shape: 20 128 5 5 (64000)
I0503 03:13:34.944983 17758 net.cpp:159] Memory required for data: 3464240
I0503 03:13:34.945008 17758 layer_factory.hpp:77] Creating layer relu5
I0503 03:13:34.945024 17758 net.cpp:94] Creating Layer relu5
I0503 03:13:34.945040 17758 net.cpp:435] relu5 <- conv5
I0503 03:13:34.945045 17758 net.cpp:396] relu5 -> conv5 (in-place)
I0503 03:13:34.945052 17758 net.cpp:144] Setting up relu5
I0503 03:13:34.945057 17758 net.cpp:151] Top shape: 20 128 5 5 (64000)
I0503 03:13:34.945060 17758 net.cpp:159] Memory required for data: 3720240
I0503 03:13:34.945063 17758 layer_factory.hpp:77] Creating layer pool5
I0503 03:13:34.945068 17758 net.cpp:94] Creating Layer pool5
I0503 03:13:34.945071 17758 net.cpp:435] pool5 <- conv5
I0503 03:13:34.945075 17758 net.cpp:409] pool5 -> pool5
I0503 03:13:34.945114 17758 net.cpp:144] Setting up pool5
I0503 03:13:34.945122 17758 net.cpp:151] Top shape: 20 128 2 2 (10240)
I0503 03:13:34.945124 17758 net.cpp:159] Memory required for data: 3761200
I0503 03:13:34.945127 17758 layer_factory.hpp:77] Creating layer ip1
I0503 03:13:34.945134 17758 net.cpp:94] Creating Layer ip1
I0503 03:13:34.945137 17758 net.cpp:435] ip1 <- pool5
I0503 03:13:34.945142 17758 net.cpp:409] ip1 -> ip1
I0503 03:13:34.958305 17758 net.cpp:144] Setting up ip1
I0503 03:13:34.958323 17758 net.cpp:151] Top shape: 20 1024 (20480)
I0503 03:13:34.958328 17758 net.cpp:159] Memory required for data: 3843120
I0503 03:13:34.958333 17758 layer_factory.hpp:77] Creating layer ip2
I0503 03:13:34.958340 17758 net.cpp:94] Creating Layer ip2
I0503 03:13:34.958344 17758 net.cpp:435] ip2 <- ip1
I0503 03:13:34.958350 17758 net.cpp:409] ip2 -> ip2
I0503 03:13:34.971554 17758 net.cpp:144] Setting up ip2
I0503 03:13:34.971572 17758 net.cpp:151] Top shape: 20 512 (10240)
I0503 03:13:34.971576 17758 net.cpp:159] Memory required for data: 3884080
I0503 03:13:34.971582 17758 layer_factory.hpp:77] Creating layer ip3
I0503 03:13:34.971596 17758 net.cpp:94] Creating Layer ip3
I0503 03:13:34.971601 17758 net.cpp:435] ip3 <- ip2
I0503 03:13:34.971606 17758 net.cpp:409] ip3 -> ip3
I0503 03:13:34.972347 17758 net.cpp:144] Setting up ip3
I0503 03:13:34.972355 17758 net.cpp:151] Top shape: 20 50 (1000)
I0503 03:13:34.972358 17758 net.cpp:159] Memory required for data: 3888080
I0503 03:13:34.972364 17758 layer_factory.hpp:77] Creating layer ip3_ip3_0_split
I0503 03:13:34.972371 17758 net.cpp:94] Creating Layer ip3_ip3_0_split
I0503 03:13:34.972374 17758 net.cpp:435] ip3_ip3_0_split <- ip3
I0503 03:13:34.972378 17758 net.cpp:409] ip3_ip3_0_split -> ip3_ip3_0_split_0
I0503 03:13:34.972383 17758 net.cpp:409] ip3_ip3_0_split -> ip3_ip3_0_split_1
I0503 03:13:34.972425 17758 net.cpp:144] Setting up ip3_ip3_0_split
I0503 03:13:34.972431 17758 net.cpp:151] Top shape: 20 50 (1000)
I0503 03:13:34.972435 17758 net.cpp:151] Top shape: 20 50 (1000)
I0503 03:13:34.972439 17758 net.cpp:159] Memory required for data: 3896080
I0503 03:13:34.972441 17758 layer_factory.hpp:77] Creating layer accuracy
I0503 03:13:34.972447 17758 net.cpp:94] Creating Layer accuracy
I0503 03:13:34.972450 17758 net.cpp:435] accuracy <- ip3_ip3_0_split_0
I0503 03:13:34.972455 17758 net.cpp:435] accuracy <- label_intercept_1_split_0
I0503 03:13:34.972460 17758 net.cpp:409] accuracy -> accuracy
…
