…
I0503 07:56:31.860548 19314 net.cpp:323] The NetState phase (0) differed from the phase (1) specified by a rule in layer intercept
I0503 07:56:31.860569 19314 net.cpp:323] The NetState phase (0) differed from the phase (1) specified by a rule in layer loss
I0503 07:56:31.860661 19314 net.cpp:52] Initializing net from parameters: 
state {
  phase: TRAIN
}
layer {
  name: "parameters"
  type: "HDF5Data"
  top: "data"
  top: "label"
  include {
    phase: TRAIN
  }
  hdf5_data_param {
    source: "/home/purduethu/scratch/radon/d/deng106/CNNStatisticalModel/distributions/input/50_distributions_100_sample_size_train-parameters-path.txt"
    batch_size: 20
  }
}
layer {
  name: "conv1"
  type: "Convolution"
  bottom: "data"
  top: "conv1"
  param {
    lr_mult: 1
  }
  param {
    lr_mult: 2
  }
  convolution_param {
    num_output: 64
    pad: 2
    kernel_size: 5
    stride: 1
    weight_filler {
      type: "gaussian"
      std: 0.0001
    }
    bias_filler {
      type: "constant"
    }
  }
}
layer {
  name: "relu1"
  type: "ReLU"
  bottom: "conv1"
  top: "conv1"
}
layer {
  name: "conv2"
  type: "Convolution"
  bottom: "conv1"
  top: "conv2"
  param {
    lr_mult: 1
  }
  param {
    lr_mult: 2
  }
  convolution_param {
    num_output: 64
    pad: 2
    kernel_size: 5
    stride: 1
    weight_filler {
      type: "gaussian"
      std: 0.01
    }
    bias_filler {
      type: "constant"
    }
  }
}
layer {
  name: "relu2"
  type: "ReLU"
  bottom: "conv2"
  top: "conv2"
}
layer {
  name: "pool2"
  type: "Pooling"
  bottom: "conv2"
  top: "pool2"
  pooling_param {
    pool: MAX
    kernel_size: 3
    stride: 2
  }
}
layer {
  name: "conv3"
  type: "Convolution"
  bottom: "pool2"
  top: "conv3"
  param {
    lr_mult: 1
  }
  param {
    lr_mult: 2
  }
  convolution_param {
    num_output: 128
    pad: 2
    kernel_size: 5
    stride: 1
    weight_filler {
      type: "gaussian"
      std: 0.01
    }
    bias_filler {
      type: "constant"
    }
  }
}
layer {
  name: "relu3"
  type: "ReLU"
  bottom: "conv3"
  top: "conv3"
}
layer {
  name: "conv4"
  type: "Convolution"
  bottom: "conv3"
  top: "conv4"
  param {
    lr_mult: 1
  }
  param {
    lr_mult: 2
  }
  convolution_param {
    num_output: 128
    pad: 2
    kernel_size: 5
    stride: 1
    weight_filler {
      type: "gaussian"
      std: 0.01
    }
    bias_filler {
      type: "constant"
    }
  }
}
layer {
  name: "relu4"
  type: "ReLU"
  bottom: "conv4"
  top: "conv4"
}
layer {
  name: "conv5"
  type: "Convolution"
  bottom: "conv4"
  top: "conv5"
  param {
    lr_mult: 1
  }
  param {
    lr_mult: 2
  }
  convolution_param {
    num_output: 128
    pad: 2
    kernel_size: 5
    stride: 1
    weight_filler {
      type: "gaussian"
      std: 0.01
    }
    bias_filler {
      type: "constant"
    }
  }
}
layer {
  name: "relu5"
  type: "ReLU"
  bottom: "conv5"
  top: "conv5"
}
layer {
  name: "pool5"
  type: "Pooling"
  bottom: "conv5"
  top: "pool5"
  pooling_param {
    pool: AVE
    kernel_size: 3
    stride: 2
  }
}
layer {
  name: "ip1"
  type: "InnerProduct"
  bottom: "pool5"
  top: "ip1"
  param {
    lr_mult: 1
  }
  param {
    lr_mult: 2
  }
  inner_product_param {
    num_output: 1024
    weight_filler {
      type: "gaussian"
      std: 0.1
    }
    bias_filler {
      type: "constant"
    }
  }
}
layer {
  name: "ip2"
  type: "InnerProduct"
  bottom: "ip1"
  top: "ip2"
  param {
    lr_mult: 1
  }
  param {
    lr_mult: 2
  }
  inner_product_param {
    num_output: 512
    weight_filler {
      type: "gaussian"
      std: 0.1
    }
    bias_filler {
      type: "constant"
    }
  }
}
layer {
  name: "ip3"
  type: "InnerProduct"
  bottom: "ip2"
  top: "ip3"
  param {
    lr_mult: 1
  }
  param {
    lr_mult: 2
  }
  inner_product_param {
    num_output: 1
    weight_filler {
      type: "gaussian"
      std: 0.1
    }
    bias_filler {
      type: "constant"
    }
  }
}
layer {
  name: "loss"
  type: "HuberLoss"
  bottom: "ip3"
  bottom: "label"
  top: "loss"
  include {
    phase: TRAIN
  }
}
I0503 07:56:31.860736 19314 layer_factory.hpp:77] Creating layer parameters
I0503 07:56:31.860752 19314 net.cpp:94] Creating Layer parameters
I0503 07:56:31.860759 19314 net.cpp:409] parameters -> data
I0503 07:56:31.860780 19314 net.cpp:409] parameters -> label
I0503 07:56:31.860790 19314 hdf5_data_layer.cpp:79] Loading list of HDF5 filenames from: /home/purduethu/scratch/radon/d/deng106/CNNStatisticalModel/distributions/input/50_distributions_100_sample_size_train-parameters-path.txt
I0503 07:56:31.860813 19314 hdf5_data_layer.cpp:93] Number of HDF5 files: 1
I0503 07:56:31.861394 19314 hdf5.cpp:32] Datatype class: H5T_FLOAT
I0503 07:56:32.027441 19314 net.cpp:144] Setting up parameters
I0503 07:56:32.027475 19314 net.cpp:151] Top shape: 20 1 10 10 (2000)
I0503 07:56:32.027482 19314 net.cpp:151] Top shape: 20 (20)
I0503 07:56:32.027487 19314 net.cpp:159] Memory required for data: 8080
I0503 07:56:32.027494 19314 layer_factory.hpp:77] Creating layer conv1
I0503 07:56:32.027518 19314 net.cpp:94] Creating Layer conv1
I0503 07:56:32.027524 19314 net.cpp:435] conv1 <- data
I0503 07:56:32.027536 19314 net.cpp:409] conv1 -> conv1
I0503 07:56:32.031417 19314 net.cpp:144] Setting up conv1
I0503 07:56:32.031433 19314 net.cpp:151] Top shape: 20 64 10 10 (128000)
I0503 07:56:32.031438 19314 net.cpp:159] Memory required for data: 520080
I0503 07:56:32.031450 19314 layer_factory.hpp:77] Creating layer relu1
I0503 07:56:32.031460 19314 net.cpp:94] Creating Layer relu1
I0503 07:56:32.031463 19314 net.cpp:435] relu1 <- conv1
I0503 07:56:32.031468 19314 net.cpp:396] relu1 -> conv1 (in-place)
I0503 07:56:32.031487 19314 net.cpp:144] Setting up relu1
I0503 07:56:32.031493 19314 net.cpp:151] Top shape: 20 64 10 10 (128000)
I0503 07:56:32.031497 19314 net.cpp:159] Memory required for data: 1032080
I0503 07:56:32.031500 19314 layer_factory.hpp:77] Creating layer conv2
I0503 07:56:32.031509 19314 net.cpp:94] Creating Layer conv2
I0503 07:56:32.031513 19314 net.cpp:435] conv2 <- conv1
I0503 07:56:32.031518 19314 net.cpp:409] conv2 -> conv2
I0503 07:56:32.037315 19314 net.cpp:144] Setting up conv2
I0503 07:56:32.037330 19314 net.cpp:151] Top shape: 20 64 10 10 (128000)
I0503 07:56:32.037335 19314 net.cpp:159] Memory required for data: 1544080
I0503 07:56:32.037343 19314 layer_factory.hpp:77] Creating layer relu2
I0503 07:56:32.037351 19314 net.cpp:94] Creating Layer relu2
I0503 07:56:32.037355 19314 net.cpp:435] relu2 <- conv2
I0503 07:56:32.037360 19314 net.cpp:396] relu2 -> conv2 (in-place)
I0503 07:56:32.037369 19314 net.cpp:144] Setting up relu2
I0503 07:56:32.037374 19314 net.cpp:151] Top shape: 20 64 10 10 (128000)
I0503 07:56:32.037377 19314 net.cpp:159] Memory required for data: 2056080
I0503 07:56:32.037381 19314 layer_factory.hpp:77] Creating layer pool2
I0503 07:56:32.037389 19314 net.cpp:94] Creating Layer pool2
I0503 07:56:32.037400 19314 net.cpp:435] pool2 <- conv2
I0503 07:56:32.037405 19314 net.cpp:409] pool2 -> pool2
I0503 07:56:32.037449 19314 net.cpp:144] Setting up pool2
I0503 07:56:32.037457 19314 net.cpp:151] Top shape: 20 64 5 5 (32000)
I0503 07:56:32.037461 19314 net.cpp:159] Memory required for data: 2184080
I0503 07:56:32.037466 19314 layer_factory.hpp:77] Creating layer conv3
I0503 07:56:32.037474 19314 net.cpp:94] Creating Layer conv3
I0503 07:56:32.037478 19314 net.cpp:435] conv3 <- pool2
I0503 07:56:32.037484 19314 net.cpp:409] conv3 -> conv3
I0503 07:56:32.045694 19314 net.cpp:144] Setting up conv3
I0503 07:56:32.045709 19314 net.cpp:151] Top shape: 20 128 5 5 (64000)
I0503 07:56:32.045714 19314 net.cpp:159] Memory required for data: 2440080
I0503 07:56:32.045722 19314 layer_factory.hpp:77] Creating layer relu3
I0503 07:56:32.045729 19314 net.cpp:94] Creating Layer relu3
I0503 07:56:32.045733 19314 net.cpp:435] relu3 <- conv3
I0503 07:56:32.045738 19314 net.cpp:396] relu3 -> conv3 (in-place)
I0503 07:56:32.045747 19314 net.cpp:144] Setting up relu3
I0503 07:56:32.045752 19314 net.cpp:151] Top shape: 20 128 5 5 (64000)
I0503 07:56:32.045755 19314 net.cpp:159] Memory required for data: 2696080
I0503 07:56:32.045758 19314 layer_factory.hpp:77] Creating layer conv4
I0503 07:56:32.045768 19314 net.cpp:94] Creating Layer conv4
I0503 07:56:32.045773 19314 net.cpp:435] conv4 <- conv3
I0503 07:56:32.045778 19314 net.cpp:409] conv4 -> conv4
I0503 07:56:32.061002 19314 net.cpp:144] Setting up conv4
I0503 07:56:32.061017 19314 net.cpp:151] Top shape: 20 128 5 5 (64000)
I0503 07:56:32.061022 19314 net.cpp:159] Memory required for data: 2952080
I0503 07:56:32.061028 19314 layer_factory.hpp:77] Creating layer relu4
I0503 07:56:32.061035 19314 net.cpp:94] Creating Layer relu4
I0503 07:56:32.061039 19314 net.cpp:435] relu4 <- conv4
I0503 07:56:32.061044 19314 net.cpp:396] relu4 -> conv4 (in-place)
I0503 07:56:32.061053 19314 net.cpp:144] Setting up relu4
I0503 07:56:32.061058 19314 net.cpp:151] Top shape: 20 128 5 5 (64000)
I0503 07:56:32.061061 19314 net.cpp:159] Memory required for data: 3208080
I0503 07:56:32.061065 19314 layer_factory.hpp:77] Creating layer conv5
I0503 07:56:32.061074 19314 net.cpp:94] Creating Layer conv5
I0503 07:56:32.061077 19314 net.cpp:435] conv5 <- conv4
I0503 07:56:32.061082 19314 net.cpp:409] conv5 -> conv5
I0503 07:56:32.075837 19314 net.cpp:144] Setting up conv5
I0503 07:56:32.075852 19314 net.cpp:151] Top shape: 20 128 5 5 (64000)
I0503 07:56:32.075857 19314 net.cpp:159] Memory required for data: 3464080
I0503 07:56:32.075867 19314 layer_factory.hpp:77] Creating layer relu5
I0503 07:56:32.075873 19314 net.cpp:94] Creating Layer relu5
I0503 07:56:32.075877 19314 net.cpp:435] relu5 <- conv5
I0503 07:56:32.075882 19314 net.cpp:396] relu5 -> conv5 (in-place)
I0503 07:56:32.075891 19314 net.cpp:144] Setting up relu5
I0503 07:56:32.075896 19314 net.cpp:151] Top shape: 20 128 5 5 (64000)
I0503 07:56:32.075899 19314 net.cpp:159] Memory required for data: 3720080
I0503 07:56:32.075903 19314 layer_factory.hpp:77] Creating layer pool5
I0503 07:56:32.075909 19314 net.cpp:94] Creating Layer pool5
I0503 07:56:32.075913 19314 net.cpp:435] pool5 <- conv5
I0503 07:56:32.075918 19314 net.cpp:409] pool5 -> pool5
I0503 07:56:32.075955 19314 net.cpp:144] Setting up pool5
I0503 07:56:32.075963 19314 net.cpp:151] Top shape: 20 128 2 2 (10240)
I0503 07:56:32.075968 19314 net.cpp:159] Memory required for data: 3761040
I0503 07:56:32.075970 19314 layer_factory.hpp:77] Creating layer ip1
I0503 07:56:32.075980 19314 net.cpp:94] Creating Layer ip1
I0503 07:56:32.075985 19314 net.cpp:435] ip1 <- pool5
I0503 07:56:32.075990 19314 net.cpp:409] ip1 -> ip1
I0503 07:56:32.089804 19314 net.cpp:144] Setting up ip1
I0503 07:56:32.089818 19314 net.cpp:151] Top shape: 20 1024 (20480)
I0503 07:56:32.089823 19314 net.cpp:159] Memory required for data: 3842960
I0503 07:56:32.089829 19314 layer_factory.hpp:77] Creating layer ip2
I0503 07:56:32.089838 19314 net.cpp:94] Creating Layer ip2
I0503 07:56:32.089841 19314 net.cpp:435] ip2 <- ip1
I0503 07:56:32.089851 19314 net.cpp:409] ip2 -> ip2
I0503 07:56:32.102818 19314 net.cpp:144] Setting up ip2
I0503 07:56:32.102830 19314 net.cpp:151] Top shape: 20 512 (10240)
I0503 07:56:32.102834 19314 net.cpp:159] Memory required for data: 3883920
I0503 07:56:32.102840 19314 layer_factory.hpp:77] Creating layer ip3
I0503 07:56:32.102849 19314 net.cpp:94] Creating Layer ip3
I0503 07:56:32.102851 19314 net.cpp:435] ip3 <- ip2
I0503 07:56:32.102857 19314 net.cpp:409] ip3 -> ip3
I0503 07:56:32.102931 19314 net.cpp:144] Setting up ip3
I0503 07:56:32.102938 19314 net.cpp:151] Top shape: 20 1 (20)
I0503 07:56:32.102949 19314 net.cpp:159] Memory required for data: 3884000
I0503 07:56:32.102955 19314 layer_factory.hpp:77] Creating layer loss
I0503 07:56:32.102963 19314 net.cpp:94] Creating Layer loss
I0503 07:56:32.102967 19314 net.cpp:435] loss <- ip3
I0503 07:56:32.102972 19314 net.cpp:435] loss <- label
I0503 07:56:32.102977 19314 net.cpp:409] loss -> loss
I0503 07:56:32.103013 19314 net.cpp:144] Setting up loss
…
