…
I0504 00:49:20.068004 23295 net.cpp:323] The NetState phase (0) differed from the phase (1) specified by a rule in layer intercept
I0504 00:49:20.068020 23295 net.cpp:323] The NetState phase (0) differed from the phase (1) specified by a rule in layer loss
I0504 00:49:20.068104 23295 net.cpp:52] Initializing net from parameters: 
state {
  phase: TRAIN
}
layer {
  name: "parameters"
  type: "HDF5Data"
  top: "data"
  top: "label"
  include {
    phase: TRAIN
  }
  hdf5_data_param {
    source: "/home/purduethu/scratch/radon/d/deng106/CNNStatisticalModel/distributions/input/5_distributions_900_sample_size_train-parameters-path.txt"
    batch_size: 20
  }
}
layer {
  name: "conv1"
  type: "Convolution"
  bottom: "data"
  top: "conv1"
  param {
    lr_mult: 1
  }
  param {
    lr_mult: 2
  }
  convolution_param {
    num_output: 64
    pad: 2
    kernel_size: 5
    stride: 1
    weight_filler {
      type: "gaussian"
      std: 0.0001
    }
    bias_filler {
      type: "constant"
    }
  }
}
layer {
  name: "relu1"
  type: "ReLU"
  bottom: "conv1"
  top: "conv1"
}
layer {
  name: "conv2"
  type: "Convolution"
  bottom: "conv1"
  top: "conv2"
  param {
    lr_mult: 1
  }
  param {
    lr_mult: 2
  }
  convolution_param {
    num_output: 64
    pad: 2
    kernel_size: 5
    stride: 1
    weight_filler {
      type: "gaussian"
      std: 0.01
    }
    bias_filler {
      type: "constant"
    }
  }
}
layer {
  name: "relu2"
  type: "ReLU"
  bottom: "conv2"
  top: "conv2"
}
layer {
  name: "pool2"
  type: "Pooling"
  bottom: "conv2"
  top: "pool2"
  pooling_param {
    pool: MAX
    kernel_size: 3
    stride: 2
  }
}
layer {
  name: "conv3"
  type: "Convolution"
  bottom: "pool2"
  top: "conv3"
  param {
    lr_mult: 1
  }
  param {
    lr_mult: 2
  }
  convolution_param {
    num_output: 128
    pad: 2
    kernel_size: 5
    stride: 1
    weight_filler {
      type: "gaussian"
      std: 0.01
    }
    bias_filler {
      type: "constant"
    }
  }
}
layer {
  name: "relu3"
  type: "ReLU"
  bottom: "conv3"
  top: "conv3"
}
layer {
  name: "conv4"
  type: "Convolution"
  bottom: "conv3"
  top: "conv4"
  param {
    lr_mult: 1
  }
  param {
    lr_mult: 2
  }
  convolution_param {
    num_output: 128
    pad: 2
    kernel_size: 5
    stride: 1
    weight_filler {
      type: "gaussian"
      std: 0.01
    }
    bias_filler {
      type: "constant"
    }
  }
}
layer {
  name: "relu4"
  type: "ReLU"
  bottom: "conv4"
  top: "conv4"
}
layer {
  name: "conv5"
  type: "Convolution"
  bottom: "conv4"
  top: "conv5"
  param {
    lr_mult: 1
  }
  param {
    lr_mult: 2
  }
  convolution_param {
    num_output: 128
    pad: 2
    kernel_size: 5
    stride: 1
    weight_filler {
      type: "gaussian"
      std: 0.01
    }
    bias_filler {
      type: "constant"
    }
  }
}
layer {
  name: "relu5"
  type: "ReLU"
  bottom: "conv5"
  top: "conv5"
}
layer {
  name: "pool5"
  type: "Pooling"
  bottom: "conv5"
  top: "pool5"
  pooling_param {
    pool: AVE
    kernel_size: 3
    stride: 2
  }
}
layer {
  name: "ip1"
  type: "InnerProduct"
  bottom: "pool5"
  top: "ip1"
  param {
    lr_mult: 1
  }
  param {
    lr_mult: 2
  }
  inner_product_param {
    num_output: 1024
    weight_filler {
      type: "gaussian"
      std: 0.1
    }
    bias_filler {
      type: "constant"
    }
  }
}
layer {
  name: "ip2"
  type: "InnerProduct"
  bottom: "ip1"
  top: "ip2"
  param {
    lr_mult: 1
  }
  param {
    lr_mult: 2
  }
  inner_product_param {
    num_output: 512
    weight_filler {
      type: "gaussian"
      std: 0.1
    }
    bias_filler {
      type: "constant"
    }
  }
}
layer {
  name: "ip3"
  type: "InnerProduct"
  bottom: "ip2"
  top: "ip3"
  param {
    lr_mult: 1
  }
  param {
    lr_mult: 2
  }
  inner_product_param {
    num_output: 1
    weight_filler {
      type: "gaussian"
      std: 0.1
    }
    bias_filler {
      type: "constant"
    }
  }
}
layer {
  name: "loss"
  type: "HuberLoss"
  bottom: "ip3"
  bottom: "label"
  top: "loss"
  include {
    phase: TRAIN
  }
}
I0504 00:49:20.068157 23295 layer_factory.hpp:77] Creating layer parameters
I0504 00:49:20.068171 23295 net.cpp:94] Creating Layer parameters
I0504 00:49:20.068176 23295 net.cpp:409] parameters -> data
I0504 00:49:20.068188 23295 net.cpp:409] parameters -> label
I0504 00:49:20.068195 23295 hdf5_data_layer.cpp:79] Loading list of HDF5 filenames from: /home/purduethu/scratch/radon/d/deng106/CNNStatisticalModel/distributions/input/5_distributions_900_sample_size_train-parameters-path.txt
I0504 00:49:20.068210 23295 hdf5_data_layer.cpp:93] Number of HDF5 files: 1
I0504 00:49:20.068739 23295 hdf5.cpp:32] Datatype class: H5T_FLOAT
I0504 00:49:20.207214 23295 net.cpp:144] Setting up parameters
I0504 00:49:20.207244 23295 net.cpp:151] Top shape: 20 1 30 30 (18000)
I0504 00:49:20.207250 23295 net.cpp:151] Top shape: 20 (20)
I0504 00:49:20.207253 23295 net.cpp:159] Memory required for data: 72080
I0504 00:49:20.207259 23295 layer_factory.hpp:77] Creating layer conv1
I0504 00:49:20.207275 23295 net.cpp:94] Creating Layer conv1
I0504 00:49:20.207279 23295 net.cpp:435] conv1 <- data
I0504 00:49:20.207286 23295 net.cpp:409] conv1 -> conv1
I0504 00:49:20.213886 23295 net.cpp:144] Setting up conv1
I0504 00:49:20.213906 23295 net.cpp:151] Top shape: 20 64 30 30 (1152000)
I0504 00:49:20.213909 23295 net.cpp:159] Memory required for data: 4680080
I0504 00:49:20.213920 23295 layer_factory.hpp:77] Creating layer relu1
I0504 00:49:20.213929 23295 net.cpp:94] Creating Layer relu1
I0504 00:49:20.213933 23295 net.cpp:435] relu1 <- conv1
I0504 00:49:20.213937 23295 net.cpp:396] relu1 -> conv1 (in-place)
I0504 00:49:20.213946 23295 net.cpp:144] Setting up relu1
I0504 00:49:20.213950 23295 net.cpp:151] Top shape: 20 64 30 30 (1152000)
I0504 00:49:20.213953 23295 net.cpp:159] Memory required for data: 9288080
I0504 00:49:20.213956 23295 layer_factory.hpp:77] Creating layer conv2
I0504 00:49:20.213964 23295 net.cpp:94] Creating Layer conv2
I0504 00:49:20.213968 23295 net.cpp:435] conv2 <- conv1
I0504 00:49:20.213973 23295 net.cpp:409] conv2 -> conv2
I0504 00:49:20.229531 23295 net.cpp:144] Setting up conv2
I0504 00:49:20.229552 23295 net.cpp:151] Top shape: 20 64 30 30 (1152000)
I0504 00:49:20.229555 23295 net.cpp:159] Memory required for data: 13896080
I0504 00:49:20.229564 23295 layer_factory.hpp:77] Creating layer relu2
I0504 00:49:20.229571 23295 net.cpp:94] Creating Layer relu2
I0504 00:49:20.229575 23295 net.cpp:435] relu2 <- conv2
I0504 00:49:20.229580 23295 net.cpp:396] relu2 -> conv2 (in-place)
I0504 00:49:20.229588 23295 net.cpp:144] Setting up relu2
I0504 00:49:20.229591 23295 net.cpp:151] Top shape: 20 64 30 30 (1152000)
I0504 00:49:20.229594 23295 net.cpp:159] Memory required for data: 18504080
I0504 00:49:20.229598 23295 layer_factory.hpp:77] Creating layer pool2
I0504 00:49:20.229604 23295 net.cpp:94] Creating Layer pool2
I0504 00:49:20.229612 23295 net.cpp:435] pool2 <- conv2
I0504 00:49:20.229617 23295 net.cpp:409] pool2 -> pool2
I0504 00:49:20.229676 23295 net.cpp:144] Setting up pool2
I0504 00:49:20.229684 23295 net.cpp:151] Top shape: 20 64 15 15 (288000)
I0504 00:49:20.229687 23295 net.cpp:159] Memory required for data: 19656080
I0504 00:49:20.229691 23295 layer_factory.hpp:77] Creating layer conv3
I0504 00:49:20.229698 23295 net.cpp:94] Creating Layer conv3
I0504 00:49:20.229702 23295 net.cpp:435] conv3 <- pool2
I0504 00:49:20.229707 23295 net.cpp:409] conv3 -> conv3
I0504 00:49:20.242468 23295 net.cpp:144] Setting up conv3
I0504 00:49:20.242486 23295 net.cpp:151] Top shape: 20 128 15 15 (576000)
I0504 00:49:20.242489 23295 net.cpp:159] Memory required for data: 21960080
I0504 00:49:20.242498 23295 layer_factory.hpp:77] Creating layer relu3
I0504 00:49:20.242504 23295 net.cpp:94] Creating Layer relu3
I0504 00:49:20.242508 23295 net.cpp:435] relu3 <- conv3
I0504 00:49:20.242512 23295 net.cpp:396] relu3 -> conv3 (in-place)
I0504 00:49:20.242519 23295 net.cpp:144] Setting up relu3
I0504 00:49:20.242524 23295 net.cpp:151] Top shape: 20 128 15 15 (576000)
I0504 00:49:20.242527 23295 net.cpp:159] Memory required for data: 24264080
I0504 00:49:20.242530 23295 layer_factory.hpp:77] Creating layer conv4
I0504 00:49:20.242538 23295 net.cpp:94] Creating Layer conv4
I0504 00:49:20.242542 23295 net.cpp:435] conv4 <- conv3
I0504 00:49:20.242547 23295 net.cpp:409] conv4 -> conv4
I0504 00:49:20.264633 23295 net.cpp:144] Setting up conv4
I0504 00:49:20.264653 23295 net.cpp:151] Top shape: 20 128 15 15 (576000)
I0504 00:49:20.264658 23295 net.cpp:159] Memory required for data: 26568080
I0504 00:49:20.264665 23295 layer_factory.hpp:77] Creating layer relu4
I0504 00:49:20.264672 23295 net.cpp:94] Creating Layer relu4
I0504 00:49:20.264677 23295 net.cpp:435] relu4 <- conv4
I0504 00:49:20.264681 23295 net.cpp:396] relu4 -> conv4 (in-place)
I0504 00:49:20.264689 23295 net.cpp:144] Setting up relu4
I0504 00:49:20.264693 23295 net.cpp:151] Top shape: 20 128 15 15 (576000)
I0504 00:49:20.264696 23295 net.cpp:159] Memory required for data: 28872080
I0504 00:49:20.264699 23295 layer_factory.hpp:77] Creating layer conv5
I0504 00:49:20.264708 23295 net.cpp:94] Creating Layer conv5
I0504 00:49:20.264711 23295 net.cpp:435] conv5 <- conv4
I0504 00:49:20.264715 23295 net.cpp:409] conv5 -> conv5
I0504 00:49:20.286419 23295 net.cpp:144] Setting up conv5
I0504 00:49:20.286439 23295 net.cpp:151] Top shape: 20 128 15 15 (576000)
I0504 00:49:20.286443 23295 net.cpp:159] Memory required for data: 31176080
I0504 00:49:20.286453 23295 layer_factory.hpp:77] Creating layer relu5
I0504 00:49:20.286459 23295 net.cpp:94] Creating Layer relu5
I0504 00:49:20.286463 23295 net.cpp:435] relu5 <- conv5
I0504 00:49:20.286468 23295 net.cpp:396] relu5 -> conv5 (in-place)
I0504 00:49:20.286475 23295 net.cpp:144] Setting up relu5
I0504 00:49:20.286480 23295 net.cpp:151] Top shape: 20 128 15 15 (576000)
I0504 00:49:20.286484 23295 net.cpp:159] Memory required for data: 33480080
I0504 00:49:20.286486 23295 layer_factory.hpp:77] Creating layer pool5
I0504 00:49:20.286491 23295 net.cpp:94] Creating Layer pool5
I0504 00:49:20.286494 23295 net.cpp:435] pool5 <- conv5
I0504 00:49:20.286499 23295 net.cpp:409] pool5 -> pool5
I0504 00:49:20.286547 23295 net.cpp:144] Setting up pool5
I0504 00:49:20.286554 23295 net.cpp:151] Top shape: 20 128 7 7 (125440)
I0504 00:49:20.286557 23295 net.cpp:159] Memory required for data: 33981840
I0504 00:49:20.286561 23295 layer_factory.hpp:77] Creating layer ip1
I0504 00:49:20.286571 23295 net.cpp:94] Creating Layer ip1
I0504 00:49:20.286573 23295 net.cpp:435] ip1 <- pool5
I0504 00:49:20.286578 23295 net.cpp:409] ip1 -> ip1
I0504 00:49:20.443004 23295 net.cpp:144] Setting up ip1
I0504 00:49:20.443040 23295 net.cpp:151] Top shape: 20 1024 (20480)
I0504 00:49:20.443044 23295 net.cpp:159] Memory required for data: 34063760
I0504 00:49:20.443054 23295 layer_factory.hpp:77] Creating layer ip2
I0504 00:49:20.443066 23295 net.cpp:94] Creating Layer ip2
I0504 00:49:20.443078 23295 net.cpp:435] ip2 <- ip1
I0504 00:49:20.443085 23295 net.cpp:409] ip2 -> ip2
I0504 00:49:20.456317 23295 net.cpp:144] Setting up ip2
I0504 00:49:20.456337 23295 net.cpp:151] Top shape: 20 512 (10240)
I0504 00:49:20.456341 23295 net.cpp:159] Memory required for data: 34104720
I0504 00:49:20.456348 23295 layer_factory.hpp:77] Creating layer ip3
I0504 00:49:20.456356 23295 net.cpp:94] Creating Layer ip3
I0504 00:49:20.456359 23295 net.cpp:435] ip3 <- ip2
I0504 00:49:20.456367 23295 net.cpp:409] ip3 -> ip3
I0504 00:49:20.456495 23295 net.cpp:144] Setting up ip3
I0504 00:49:20.456501 23295 net.cpp:151] Top shape: 20 1 (20)
I0504 00:49:20.456504 23295 net.cpp:159] Memory required for data: 34104800
I0504 00:49:20.456509 23295 layer_factory.hpp:77] Creating layer loss
I0504 00:49:20.456524 23295 net.cpp:94] Creating Layer loss
I0504 00:49:20.456528 23295 net.cpp:435] loss <- ip3
I0504 00:49:20.456532 23295 net.cpp:435] loss <- label
I0504 00:49:20.456537 23295 net.cpp:409] loss -> loss
I0504 00:49:20.456607 23295 net.cpp:144] Setting up loss
…
I0504 00:49:20.716076 23295 net.cpp:323] The NetState phase (0) differed from the phase (1) specified by a rule in layer intercept
I0504 00:49:20.716091 23295 net.cpp:323] The NetState phase (0) differed from the phase (1) specified by a rule in layer accuracy
I0504 00:49:20.716183 23295 net.cpp:52] Initializing net from parameters: 
state {
  phase: TRAIN
}
layer {
  name: "parameters"
  type: "HDF5Data"
  top: "data"
  top: "label"
  include {
    phase: TRAIN
  }
  hdf5_data_param {
    source: "/home/purduethu/scratch/radon/d/deng106/CNNStatisticalModel/distributions/input/5_distributions_900_sample_size_train-distributions-path.txt"
    batch_size: 20
  }
}
layer {
  name: "conv1"
  type: "Convolution"
  bottom: "data"
  top: "conv1"
  param {
    lr_mult: 1
  }
  param {
    lr_mult: 2
  }
  convolution_param {
    num_output: 64
    pad: 2
    kernel_size: 5
    stride: 1
    weight_filler {
      type: "gaussian"
      std: 0.0001
    }
    bias_filler {
      type: "constant"
    }
  }
}
layer {
  name: "relu1"
  type: "ReLU"
  bottom: "conv1"
  top: "conv1"
}
layer {
  name: "conv2"
  type: "Convolution"
  bottom: "conv1"
  top: "conv2"
  param {
    lr_mult: 1
  }
  param {
    lr_mult: 2
  }
  convolution_param {
    num_output: 64
    pad: 2
    kernel_size: 5
    stride: 1
    weight_filler {
      type: "gaussian"
      std: 0.01
    }
    bias_filler {
      type: "constant"
    }
  }
}
layer {
  name: "relu2"
  type: "ReLU"
  bottom: "conv2"
  top: "conv2"
}
layer {
  name: "pool2"
  type: "Pooling"
  bottom: "conv2"
  top: "pool2"
  pooling_param {
    pool: MAX
    kernel_size: 3
    stride: 2
  }
}
layer {
  name: "conv3"
  type: "Convolution"
  bottom: "pool2"
  top: "conv3"
  param {
    lr_mult: 1
  }
  param {
    lr_mult: 2
  }
  convolution_param {
    num_output: 128
    pad: 2
    kernel_size: 5
    stride: 1
    weight_filler {
      type: "gaussian"
      std: 0.01
    }
    bias_filler {
      type: "constant"
    }
  }
}
layer {
  name: "relu3"
  type: "ReLU"
  bottom: "conv3"
  top: "conv3"
}
layer {
  name: "conv4"
  type: "Convolution"
  bottom: "conv3"
  top: "conv4"
  param {
    lr_mult: 1
  }
  param {
    lr_mult: 2
  }
  convolution_param {
    num_output: 128
    pad: 2
    kernel_size: 5
    stride: 1
    weight_filler {
      type: "gaussian"
      std: 0.01
    }
    bias_filler {
      type: "constant"
    }
  }
}
layer {
  name: "relu4"
  type: "ReLU"
  bottom: "conv4"
  top: "conv4"
}
layer {
  name: "conv5"
  type: "Convolution"
  bottom: "conv4"
  top: "conv5"
  param {
    lr_mult: 1
  }
  param {
    lr_mult: 2
  }
  convolution_param {
    num_output: 128
    pad: 2
    kernel_size: 5
    stride: 1
    weight_filler {
      type: "gaussian"
      std: 0.01
    }
    bias_filler {
      type: "constant"
    }
  }
}
layer {
  name: "relu5"
  type: "ReLU"
  bottom: "conv5"
  top: "conv5"
}
layer {
  name: "pool5"
  type: "Pooling"
  bottom: "conv5"
  top: "pool5"
  pooling_param {
    pool: AVE
    kernel_size: 3
    stride: 2
  }
}
layer {
  name: "ip1"
  type: "InnerProduct"
  bottom: "pool5"
  top: "ip1"
  param {
    lr_mult: 1
  }
  param {
    lr_mult: 2
  }
  inner_product_param {
    num_output: 1024
    weight_filler {
      type: "gaussian"
      std: 0.1
    }
    bias_filler {
      type: "constant"
    }
  }
}
layer {
  name: "ip2"
  type: "InnerProduct"
  bottom: "ip1"
  top: "ip2"
  param {
    lr_mult: 1
  }
  param {
    lr_mult: 2
  }
  inner_product_param {
    num_output: 512
    weight_filler {
      type: "gaussian"
      std: 0.1
    }
    bias_filler {
      type: "constant"
    }
  }
}
layer {
  name: "ip3"
  type: "InnerProduct"
  bottom: "ip2"
  top: "ip3"
  param {
    lr_mult: 1
  }
  param {
    lr_mult: 2
  }
  inner_product_param {
    num_output: 50
    weight_filler {
      type: "gaussian"
      std: 0.1
    }
    bias_filler {
      type: "constant"
    }
  }
}
layer {
  name: "loss"
  type: "SoftmaxWithLoss"
  bottom: "ip3"
  bottom: "label"
  top: "loss"
}
I0504 00:49:20.716238 23295 layer_factory.hpp:77] Creating layer parameters
I0504 00:49:20.716246 23295 net.cpp:94] Creating Layer parameters
I0504 00:49:20.716249 23295 net.cpp:409] parameters -> data
I0504 00:49:20.716256 23295 net.cpp:409] parameters -> label
I0504 00:49:20.716262 23295 hdf5_data_layer.cpp:79] Loading list of HDF5 filenames from: /home/purduethu/scratch/radon/d/deng106/CNNStatisticalModel/distributions/input/5_distributions_900_sample_size_train-distributions-path.txt
I0504 00:49:20.716279 23295 hdf5_data_layer.cpp:93] Number of HDF5 files: 1
I0504 00:49:20.850668 23295 hdf5.cpp:35] Datatype class: H5T_INTEGER
I0504 00:49:20.851119 23295 net.cpp:144] Setting up parameters
I0504 00:49:20.851135 23295 net.cpp:151] Top shape: 20 1 30 30 (18000)
I0504 00:49:20.851138 23295 net.cpp:151] Top shape: 20 (20)
I0504 00:49:20.851141 23295 net.cpp:159] Memory required for data: 72080
I0504 00:49:20.851147 23295 layer_factory.hpp:77] Creating layer conv1
I0504 00:49:20.851163 23295 net.cpp:94] Creating Layer conv1
I0504 00:49:20.851167 23295 net.cpp:435] conv1 <- data
I0504 00:49:20.851173 23295 net.cpp:409] conv1 -> conv1
I0504 00:49:20.854899 23295 net.cpp:144] Setting up conv1
I0504 00:49:20.854915 23295 net.cpp:151] Top shape: 20 64 30 30 (1152000)
I0504 00:49:20.854919 23295 net.cpp:159] Memory required for data: 4680080
I0504 00:49:20.854930 23295 layer_factory.hpp:77] Creating layer relu1
I0504 00:49:20.854938 23295 net.cpp:94] Creating Layer relu1
I0504 00:49:20.854941 23295 net.cpp:435] relu1 <- conv1
I0504 00:49:20.854946 23295 net.cpp:396] relu1 -> conv1 (in-place)
I0504 00:49:20.854954 23295 net.cpp:144] Setting up relu1
I0504 00:49:20.854957 23295 net.cpp:151] Top shape: 20 64 30 30 (1152000)
I0504 00:49:20.854960 23295 net.cpp:159] Memory required for data: 9288080
I0504 00:49:20.854964 23295 layer_factory.hpp:77] Creating layer conv2
I0504 00:49:20.854972 23295 net.cpp:94] Creating Layer conv2
I0504 00:49:20.854975 23295 net.cpp:435] conv2 <- conv1
I0504 00:49:20.854980 23295 net.cpp:409] conv2 -> conv2
I0504 00:49:20.871199 23295 net.cpp:144] Setting up conv2
I0504 00:49:20.871215 23295 net.cpp:151] Top shape: 20 64 30 30 (1152000)
I0504 00:49:20.871219 23295 net.cpp:159] Memory required for data: 13896080
I0504 00:49:20.871227 23295 layer_factory.hpp:77] Creating layer relu2
I0504 00:49:20.871234 23295 net.cpp:94] Creating Layer relu2
I0504 00:49:20.871238 23295 net.cpp:435] relu2 <- conv2
I0504 00:49:20.871243 23295 net.cpp:396] relu2 -> conv2 (in-place)
I0504 00:49:20.871249 23295 net.cpp:144] Setting up relu2
I0504 00:49:20.871253 23295 net.cpp:151] Top shape: 20 64 30 30 (1152000)
I0504 00:49:20.871256 23295 net.cpp:159] Memory required for data: 18504080
I0504 00:49:20.871259 23295 layer_factory.hpp:77] Creating layer pool2
I0504 00:49:20.871265 23295 net.cpp:94] Creating Layer pool2
I0504 00:49:20.871268 23295 net.cpp:435] pool2 <- conv2
I0504 00:49:20.871273 23295 net.cpp:409] pool2 -> pool2
I0504 00:49:20.871332 23295 net.cpp:144] Setting up pool2
I0504 00:49:20.871340 23295 net.cpp:151] Top shape: 20 64 15 15 (288000)
I0504 00:49:20.871342 23295 net.cpp:159] Memory required for data: 19656080
I0504 00:49:20.871345 23295 layer_factory.hpp:77] Creating layer conv3
I0504 00:49:20.871353 23295 net.cpp:94] Creating Layer conv3
I0504 00:49:20.871356 23295 net.cpp:435] conv3 <- pool2
I0504 00:49:20.871368 23295 net.cpp:409] conv3 -> conv3
I0504 00:49:20.885123 23295 net.cpp:144] Setting up conv3
I0504 00:49:20.885140 23295 net.cpp:151] Top shape: 20 128 15 15 (576000)
I0504 00:49:20.885144 23295 net.cpp:159] Memory required for data: 21960080
I0504 00:49:20.885154 23295 layer_factory.hpp:77] Creating layer relu3
I0504 00:49:20.885159 23295 net.cpp:94] Creating Layer relu3
I0504 00:49:20.885162 23295 net.cpp:435] relu3 <- conv3
I0504 00:49:20.885167 23295 net.cpp:396] relu3 -> conv3 (in-place)
I0504 00:49:20.885174 23295 net.cpp:144] Setting up relu3
I0504 00:49:20.885179 23295 net.cpp:151] Top shape: 20 128 15 15 (576000)
I0504 00:49:20.885182 23295 net.cpp:159] Memory required for data: 24264080
I0504 00:49:20.885185 23295 layer_factory.hpp:77] Creating layer conv4
I0504 00:49:20.885193 23295 net.cpp:94] Creating Layer conv4
I0504 00:49:20.885197 23295 net.cpp:435] conv4 <- conv3
I0504 00:49:20.885202 23295 net.cpp:409] conv4 -> conv4
I0504 00:49:20.908269 23295 net.cpp:144] Setting up conv4
I0504 00:49:20.908288 23295 net.cpp:151] Top shape: 20 128 15 15 (576000)
I0504 00:49:20.908293 23295 net.cpp:159] Memory required for data: 26568080
I0504 00:49:20.908299 23295 layer_factory.hpp:77] Creating layer relu4
I0504 00:49:20.908305 23295 net.cpp:94] Creating Layer relu4
I0504 00:49:20.908309 23295 net.cpp:435] relu4 <- conv4
I0504 00:49:20.908314 23295 net.cpp:396] relu4 -> conv4 (in-place)
I0504 00:49:20.908321 23295 net.cpp:144] Setting up relu4
I0504 00:49:20.908325 23295 net.cpp:151] Top shape: 20 128 15 15 (576000)
I0504 00:49:20.908329 23295 net.cpp:159] Memory required for data: 28872080
I0504 00:49:20.908331 23295 layer_factory.hpp:77] Creating layer conv5
I0504 00:49:20.908339 23295 net.cpp:94] Creating Layer conv5
I0504 00:49:20.908342 23295 net.cpp:435] conv5 <- conv4
I0504 00:49:20.908349 23295 net.cpp:409] conv5 -> conv5
I0504 00:49:20.931058 23295 net.cpp:144] Setting up conv5
I0504 00:49:20.931079 23295 net.cpp:151] Top shape: 20 128 15 15 (576000)
I0504 00:49:20.931083 23295 net.cpp:159] Memory required for data: 31176080
I0504 00:49:20.931094 23295 layer_factory.hpp:77] Creating layer relu5
I0504 00:49:20.931102 23295 net.cpp:94] Creating Layer relu5
I0504 00:49:20.931104 23295 net.cpp:435] relu5 <- conv5
I0504 00:49:20.931110 23295 net.cpp:396] relu5 -> conv5 (in-place)
I0504 00:49:20.931118 23295 net.cpp:144] Setting up relu5
I0504 00:49:20.931121 23295 net.cpp:151] Top shape: 20 128 15 15 (576000)
I0504 00:49:20.931124 23295 net.cpp:159] Memory required for data: 33480080
I0504 00:49:20.931128 23295 layer_factory.hpp:77] Creating layer pool5
I0504 00:49:20.931133 23295 net.cpp:94] Creating Layer pool5
I0504 00:49:20.931136 23295 net.cpp:435] pool5 <- conv5
I0504 00:49:20.931141 23295 net.cpp:409] pool5 -> pool5
I0504 00:49:20.931188 23295 net.cpp:144] Setting up pool5
I0504 00:49:20.931195 23295 net.cpp:151] Top shape: 20 128 7 7 (125440)
I0504 00:49:20.931198 23295 net.cpp:159] Memory required for data: 33981840
I0504 00:49:20.931201 23295 layer_factory.hpp:77] Creating layer ip1
I0504 00:49:20.931210 23295 net.cpp:94] Creating Layer ip1
I0504 00:49:20.931212 23295 net.cpp:435] ip1 <- pool5
I0504 00:49:20.931218 23295 net.cpp:409] ip1 -> ip1
I0504 00:49:21.086916 23295 net.cpp:144] Setting up ip1
I0504 00:49:21.086951 23295 net.cpp:151] Top shape: 20 1024 (20480)
I0504 00:49:21.086956 23295 net.cpp:159] Memory required for data: 34063760
I0504 00:49:21.086963 23295 layer_factory.hpp:77] Creating layer ip2
I0504 00:49:21.086973 23295 net.cpp:94] Creating Layer ip2
I0504 00:49:21.086978 23295 net.cpp:435] ip2 <- ip1
I0504 00:49:21.086984 23295 net.cpp:409] ip2 -> ip2
I0504 00:49:21.100241 23295 net.cpp:144] Setting up ip2
I0504 00:49:21.100260 23295 net.cpp:151] Top shape: 20 512 (10240)
I0504 00:49:21.100263 23295 net.cpp:159] Memory required for data: 34104720
I0504 00:49:21.100270 23295 layer_factory.hpp:77] Creating layer ip3
I0504 00:49:21.100277 23295 net.cpp:94] Creating Layer ip3
I0504 00:49:21.100281 23295 net.cpp:435] ip3 <- ip2
I0504 00:49:21.100288 23295 net.cpp:409] ip3 -> ip3
I0504 00:49:21.101095 23295 net.cpp:144] Setting up ip3
I0504 00:49:21.101105 23295 net.cpp:151] Top shape: 20 50 (1000)
I0504 00:49:21.101109 23295 net.cpp:159] Memory required for data: 34108720
I0504 00:49:21.101114 23295 layer_factory.hpp:77] Creating layer loss
I0504 00:49:21.101122 23295 net.cpp:94] Creating Layer loss
I0504 00:49:21.101126 23295 net.cpp:435] loss <- ip3
I0504 00:49:21.101130 23295 net.cpp:435] loss <- label
I0504 00:49:21.101135 23295 net.cpp:409] loss -> loss
I0504 00:49:21.101141 23295 layer_factory.hpp:77] Creating layer loss
…
I0504 00:49:21.101673 23295 solver.cpp:181] Creating test net (#0) specified by net file: ./protocol/dis_5_900_dimension.protocol_distribution
I0504 00:49:21.101702 23295 net.cpp:323] The NetState phase (1) differed from the phase (0) specified by a rule in layer parameters
I0504 00:49:21.101800 23295 net.cpp:52] Initializing net from parameters: 
state {
  phase: TEST
}
layer {
  name: "intercept"
  type: "HDF5Data"
  top: "data"
  top: "label"
  include {
    phase: TEST
  }
  hdf5_data_param {
    source: "/home/purduethu/scratch/radon/d/deng106/CNNStatisticalModel/distributions/input/5_distributions_900_sample_size_test-distributions-path.txt"
    batch_size: 20
  }
}
layer {
  name: "conv1"
  type: "Convolution"
  bottom: "data"
  top: "conv1"
  param {
    lr_mult: 1
  }
  param {
    lr_mult: 2
  }
  convolution_param {
    num_output: 64
    pad: 2
    kernel_size: 5
    stride: 1
    weight_filler {
      type: "gaussian"
      std: 0.0001
    }
    bias_filler {
      type: "constant"
    }
  }
}
layer {
  name: "relu1"
  type: "ReLU"
  bottom: "conv1"
  top: "conv1"
}
layer {
  name: "conv2"
  type: "Convolution"
  bottom: "conv1"
  top: "conv2"
  param {
    lr_mult: 1
  }
  param {
    lr_mult: 2
  }
  convolution_param {
    num_output: 64
    pad: 2
    kernel_size: 5
    stride: 1
    weight_filler {
      type: "gaussian"
      std: 0.01
    }
    bias_filler {
      type: "constant"
    }
  }
}
layer {
  name: "relu2"
  type: "ReLU"
  bottom: "conv2"
  top: "conv2"
}
layer {
  name: "pool2"
  type: "Pooling"
  bottom: "conv2"
  top: "pool2"
  pooling_param {
    pool: MAX
    kernel_size: 3
    stride: 2
  }
}
layer {
  name: "conv3"
  type: "Convolution"
  bottom: "pool2"
  top: "conv3"
  param {
    lr_mult: 1
  }
  param {
    lr_mult: 2
  }
  convolution_param {
    num_output: 128
    pad: 2
    kernel_size: 5
    stride: 1
    weight_filler {
      type: "gaussian"
      std: 0.01
    }
    bias_filler {
      type: "constant"
    }
  }
}
layer {
  name: "relu3"
  type: "ReLU"
  bottom: "conv3"
  top: "conv3"
}
layer {
  name: "conv4"
  type: "Convolution"
  bottom: "conv3"
  top: "conv4"
  param {
    lr_mult: 1
  }
  param {
    lr_mult: 2
  }
  convolution_param {
    num_output: 128
    pad: 2
    kernel_size: 5
    stride: 1
    weight_filler {
      type: "gaussian"
      std: 0.01
    }
    bias_filler {
      type: "constant"
    }
  }
}
layer {
  name: "relu4"
  type: "ReLU"
  bottom: "conv4"
  top: "conv4"
}
layer {
  name: "conv5"
  type: "Convolution"
  bottom: "conv4"
  top: "conv5"
  param {
    lr_mult: 1
  }
  param {
    lr_mult: 2
  }
  convolution_param {
    num_output: 128
    pad: 2
    kernel_size: 5
    stride: 1
    weight_filler {
      type: "gaussian"
      std: 0.01
    }
    bias_filler {
      type: "constant"
    }
  }
}
layer {
  name: "relu5"
  type: "ReLU"
  bottom: "conv5"
  top: "conv5"
}
layer {
  name: "pool5"
  type: "Pooling"
  bottom: "conv5"
  top: "pool5"
  pooling_param {
    pool: AVE
    kernel_size: 3
    stride: 2
  }
}
layer {
  name: "ip1"
  type: "InnerProduct"
  bottom: "pool5"
  top: "ip1"
  param {
    lr_mult: 1
  }
  param {
    lr_mult: 2
  }
  inner_product_param {
    num_output: 1024
    weight_filler {
      type: "gaussian"
      std: 0.1
    }
    bias_filler {
      type: "constant"
    }
  }
}
layer {
  name: "ip2"
  type: "InnerProduct"
  bottom: "ip1"
  top: "ip2"
  param {
    lr_mult: 1
  }
  param {
    lr_mult: 2
  }
  inner_product_param {
    num_output: 512
    weight_filler {
      type: "gaussian"
      std: 0.1
    }
    bias_filler {
      type: "constant"
    }
  }
}
layer {
  name: "ip3"
  type: "InnerProduct"
  bottom: "ip2"
  top: "ip3"
  param {
    lr_mult: 1
  }
  param {
    lr_mult: 2
  }
  inner_product_param {
    num_output: 50
    weight_filler {
      type: "gaussian"
      std: 0.1
    }
    bias_filler {
      type: "constant"
    }
  }
}
layer {
  name: "accuracy"
  type: "Accuracy"
  bottom: "ip3"
  bottom: "label"
  top: "accuracy"
  include {
    phase: TEST
  }
}
layer {
  name: "loss"
  type: "SoftmaxWithLoss"
  bottom: "ip3"
  bottom: "label"
  top: "loss"
}
I0504 00:49:21.101871 23295 layer_factory.hpp:77] Creating layer intercept
I0504 00:49:21.101881 23295 net.cpp:94] Creating Layer intercept
I0504 00:49:21.101883 23295 net.cpp:409] intercept -> data
I0504 00:49:21.101891 23295 net.cpp:409] intercept -> label
I0504 00:49:21.101897 23295 hdf5_data_layer.cpp:79] Loading list of HDF5 filenames from: /home/purduethu/scratch/radon/d/deng106/CNNStatisticalModel/distributions/input/5_distributions_900_sample_size_test-distributions-path.txt
I0504 00:49:21.101917 23295 hdf5_data_layer.cpp:93] Number of HDF5 files: 1
I0504 00:49:21.137099 23295 net.cpp:144] Setting up intercept
I0504 00:49:21.137135 23295 net.cpp:151] Top shape: 20 1 30 30 (18000)
I0504 00:49:21.137140 23295 net.cpp:151] Top shape: 20 (20)
I0504 00:49:21.137142 23295 net.cpp:159] Memory required for data: 72080
I0504 00:49:21.137148 23295 layer_factory.hpp:77] Creating layer label_intercept_1_split
I0504 00:49:21.137166 23295 net.cpp:94] Creating Layer label_intercept_1_split
I0504 00:49:21.137171 23295 net.cpp:435] label_intercept_1_split <- label
I0504 00:49:21.137176 23295 net.cpp:409] label_intercept_1_split -> label_intercept_1_split_0
I0504 00:49:21.137184 23295 net.cpp:409] label_intercept_1_split -> label_intercept_1_split_1
I0504 00:49:21.137229 23295 net.cpp:144] Setting up label_intercept_1_split
I0504 00:49:21.137235 23295 net.cpp:151] Top shape: 20 (20)
I0504 00:49:21.137239 23295 net.cpp:151] Top shape: 20 (20)
I0504 00:49:21.137243 23295 net.cpp:159] Memory required for data: 72240
I0504 00:49:21.137245 23295 layer_factory.hpp:77] Creating layer conv1
I0504 00:49:21.137256 23295 net.cpp:94] Creating Layer conv1
I0504 00:49:21.137259 23295 net.cpp:435] conv1 <- data
I0504 00:49:21.137264 23295 net.cpp:409] conv1 -> conv1
I0504 00:49:21.138824 23295 net.cpp:144] Setting up conv1
I0504 00:49:21.138839 23295 net.cpp:151] Top shape: 20 64 30 30 (1152000)
I0504 00:49:21.138844 23295 net.cpp:159] Memory required for data: 4680240
I0504 00:49:21.138854 23295 layer_factory.hpp:77] Creating layer relu1
I0504 00:49:21.138861 23295 net.cpp:94] Creating Layer relu1
I0504 00:49:21.138865 23295 net.cpp:435] relu1 <- conv1
I0504 00:49:21.138870 23295 net.cpp:396] relu1 -> conv1 (in-place)
I0504 00:49:21.138877 23295 net.cpp:144] Setting up relu1
I0504 00:49:21.138882 23295 net.cpp:151] Top shape: 20 64 30 30 (1152000)
I0504 00:49:21.138885 23295 net.cpp:159] Memory required for data: 9288240
I0504 00:49:21.138888 23295 layer_factory.hpp:77] Creating layer conv2
I0504 00:49:21.138896 23295 net.cpp:94] Creating Layer conv2
I0504 00:49:21.138900 23295 net.cpp:435] conv2 <- conv1
I0504 00:49:21.138905 23295 net.cpp:409] conv2 -> conv2
I0504 00:49:21.146342 23295 net.cpp:144] Setting up conv2
I0504 00:49:21.146359 23295 net.cpp:151] Top shape: 20 64 30 30 (1152000)
I0504 00:49:21.146363 23295 net.cpp:159] Memory required for data: 13896240
I0504 00:49:21.146373 23295 layer_factory.hpp:77] Creating layer relu2
I0504 00:49:21.146379 23295 net.cpp:94] Creating Layer relu2
I0504 00:49:21.146384 23295 net.cpp:435] relu2 <- conv2
I0504 00:49:21.146387 23295 net.cpp:396] relu2 -> conv2 (in-place)
I0504 00:49:21.146394 23295 net.cpp:144] Setting up relu2
I0504 00:49:21.146399 23295 net.cpp:151] Top shape: 20 64 30 30 (1152000)
I0504 00:49:21.146402 23295 net.cpp:159] Memory required for data: 18504240
I0504 00:49:21.146405 23295 layer_factory.hpp:77] Creating layer pool2
I0504 00:49:21.146411 23295 net.cpp:94] Creating Layer pool2
I0504 00:49:21.146414 23295 net.cpp:435] pool2 <- conv2
I0504 00:49:21.146419 23295 net.cpp:409] pool2 -> pool2
I0504 00:49:21.146481 23295 net.cpp:144] Setting up pool2
I0504 00:49:21.146487 23295 net.cpp:151] Top shape: 20 64 15 15 (288000)
I0504 00:49:21.146491 23295 net.cpp:159] Memory required for data: 19656240
I0504 00:49:21.146493 23295 layer_factory.hpp:77] Creating layer conv3
I0504 00:49:21.146502 23295 net.cpp:94] Creating Layer conv3
I0504 00:49:21.146505 23295 net.cpp:435] conv3 <- pool2
I0504 00:49:21.146510 23295 net.cpp:409] conv3 -> conv3
I0504 00:49:21.155601 23295 net.cpp:144] Setting up conv3
I0504 00:49:21.155618 23295 net.cpp:151] Top shape: 20 128 15 15 (576000)
I0504 00:49:21.155622 23295 net.cpp:159] Memory required for data: 21960240
I0504 00:49:21.155632 23295 layer_factory.hpp:77] Creating layer relu3
I0504 00:49:21.155639 23295 net.cpp:94] Creating Layer relu3
I0504 00:49:21.155642 23295 net.cpp:435] relu3 <- conv3
I0504 00:49:21.155647 23295 net.cpp:396] relu3 -> conv3 (in-place)
I0504 00:49:21.155655 23295 net.cpp:144] Setting up relu3
I0504 00:49:21.155659 23295 net.cpp:151] Top shape: 20 128 15 15 (576000)
I0504 00:49:21.155663 23295 net.cpp:159] Memory required for data: 24264240
I0504 00:49:21.155665 23295 layer_factory.hpp:77] Creating layer conv4
I0504 00:49:21.155673 23295 net.cpp:94] Creating Layer conv4
I0504 00:49:21.155678 23295 net.cpp:435] conv4 <- conv3
I0504 00:49:21.155683 23295 net.cpp:409] conv4 -> conv4
I0504 00:49:21.174111 23295 net.cpp:144] Setting up conv4
I0504 00:49:21.174131 23295 net.cpp:151] Top shape: 20 128 15 15 (576000)
I0504 00:49:21.174135 23295 net.cpp:159] Memory required for data: 26568240
I0504 00:49:21.174144 23295 layer_factory.hpp:77] Creating layer relu4
I0504 00:49:21.174150 23295 net.cpp:94] Creating Layer relu4
I0504 00:49:21.174154 23295 net.cpp:435] relu4 <- conv4
I0504 00:49:21.174160 23295 net.cpp:396] relu4 -> conv4 (in-place)
I0504 00:49:21.174167 23295 net.cpp:144] Setting up relu4
I0504 00:49:21.174171 23295 net.cpp:151] Top shape: 20 128 15 15 (576000)
I0504 00:49:21.174175 23295 net.cpp:159] Memory required for data: 28872240
I0504 00:49:21.174177 23295 layer_factory.hpp:77] Creating layer conv5
I0504 00:49:21.174186 23295 net.cpp:94] Creating Layer conv5
I0504 00:49:21.174190 23295 net.cpp:435] conv5 <- conv4
I0504 00:49:21.174195 23295 net.cpp:409] conv5 -> conv5
I0504 00:49:21.192070 23295 net.cpp:144] Setting up conv5
I0504 00:49:21.192113 23295 net.cpp:151] Top shape: 20 128 15 15 (576000)
I0504 00:49:21.192126 23295 net.cpp:159] Memory required for data: 31176240
I0504 00:49:21.192150 23295 layer_factory.hpp:77] Creating layer relu5
I0504 00:49:21.192167 23295 net.cpp:94] Creating Layer relu5
I0504 00:49:21.192178 23295 net.cpp:435] relu5 <- conv5
I0504 00:49:21.192190 23295 net.cpp:396] relu5 -> conv5 (in-place)
I0504 00:49:21.192209 23295 net.cpp:144] Setting up relu5
I0504 00:49:21.192222 23295 net.cpp:151] Top shape: 20 128 15 15 (576000)
I0504 00:49:21.192231 23295 net.cpp:159] Memory required for data: 33480240
I0504 00:49:21.192239 23295 layer_factory.hpp:77] Creating layer pool5
I0504 00:49:21.192253 23295 net.cpp:94] Creating Layer pool5
I0504 00:49:21.192262 23295 net.cpp:435] pool5 <- conv5
I0504 00:49:21.192275 23295 net.cpp:409] pool5 -> pool5
I0504 00:49:21.192353 23295 net.cpp:144] Setting up pool5
I0504 00:49:21.192360 23295 net.cpp:151] Top shape: 20 128 7 7 (125440)
I0504 00:49:21.192363 23295 net.cpp:159] Memory required for data: 33982000
I0504 00:49:21.192366 23295 layer_factory.hpp:77] Creating layer ip1
I0504 00:49:21.192373 23295 net.cpp:94] Creating Layer ip1
I0504 00:49:21.192376 23295 net.cpp:435] ip1 <- pool5
I0504 00:49:21.192381 23295 net.cpp:409] ip1 -> ip1
I0504 00:49:21.347616 23295 net.cpp:144] Setting up ip1
I0504 00:49:21.347651 23295 net.cpp:151] Top shape: 20 1024 (20480)
I0504 00:49:21.347656 23295 net.cpp:159] Memory required for data: 34063920
I0504 00:49:21.347664 23295 layer_factory.hpp:77] Creating layer ip2
I0504 00:49:21.347674 23295 net.cpp:94] Creating Layer ip2
I0504 00:49:21.347678 23295 net.cpp:435] ip2 <- ip1
I0504 00:49:21.347685 23295 net.cpp:409] ip2 -> ip2
I0504 00:49:21.360963 23295 net.cpp:144] Setting up ip2
I0504 00:49:21.360985 23295 net.cpp:151] Top shape: 20 512 (10240)
I0504 00:49:21.360988 23295 net.cpp:159] Memory required for data: 34104880
I0504 00:49:21.360996 23295 layer_factory.hpp:77] Creating layer ip3
I0504 00:49:21.361006 23295 net.cpp:94] Creating Layer ip3
I0504 00:49:21.361009 23295 net.cpp:435] ip3 <- ip2
I0504 00:49:21.361014 23295 net.cpp:409] ip3 -> ip3
I0504 00:49:21.361769 23295 net.cpp:144] Setting up ip3
I0504 00:49:21.361778 23295 net.cpp:151] Top shape: 20 50 (1000)
I0504 00:49:21.361781 23295 net.cpp:159] Memory required for data: 34108880
I0504 00:49:21.361788 23295 layer_factory.hpp:77] Creating layer ip3_ip3_0_split
I0504 00:49:21.361793 23295 net.cpp:94] Creating Layer ip3_ip3_0_split
I0504 00:49:21.361796 23295 net.cpp:435] ip3_ip3_0_split <- ip3
I0504 00:49:21.361800 23295 net.cpp:409] ip3_ip3_0_split -> ip3_ip3_0_split_0
I0504 00:49:21.361806 23295 net.cpp:409] ip3_ip3_0_split -> ip3_ip3_0_split_1
I0504 00:49:21.361852 23295 net.cpp:144] Setting up ip3_ip3_0_split
I0504 00:49:21.361858 23295 net.cpp:151] Top shape: 20 50 (1000)
I0504 00:49:21.361861 23295 net.cpp:151] Top shape: 20 50 (1000)
I0504 00:49:21.361865 23295 net.cpp:159] Memory required for data: 34116880
I0504 00:49:21.361868 23295 layer_factory.hpp:77] Creating layer accuracy
I0504 00:49:21.361874 23295 net.cpp:94] Creating Layer accuracy
I0504 00:49:21.361877 23295 net.cpp:435] accuracy <- ip3_ip3_0_split_0
I0504 00:49:21.361881 23295 net.cpp:435] accuracy <- label_intercept_1_split_0
I0504 00:49:21.361886 23295 net.cpp:409] accuracy -> accuracy
…
