…
I0506 04:29:00.206419 12834 net.cpp:323] The NetState phase (0) differed from the phase (1) specified by a rule in layer intercept
I0506 04:29:00.206437 12834 net.cpp:323] The NetState phase (0) differed from the phase (1) specified by a rule in layer loss
I0506 04:29:00.206518 12834 net.cpp:52] Initializing net from parameters: 
state {
  phase: TRAIN
}
layer {
  name: "parameters"
  type: "HDF5Data"
  top: "data"
  top: "label"
  include {
    phase: TRAIN
  }
  hdf5_data_param {
    source: "/home/purduethu/scratch/radon/d/deng106/CNNStatisticalModel/distributions/input/50_distributions_100_sample_size_train-parameters-path.txt"
    batch_size: 20
  }
}
layer {
  name: "conv1"
  type: "Convolution"
  bottom: "data"
  top: "conv1"
  param {
    lr_mult: 1
  }
  param {
    lr_mult: 2
  }
  convolution_param {
    num_output: 64
    pad: 2
    kernel_size: 5
    stride: 1
    weight_filler {
      type: "gaussian"
      std: 0.0001
    }
    bias_filler {
      type: "constant"
    }
  }
}
layer {
  name: "relu1"
  type: "ReLU"
  bottom: "conv1"
  top: "conv1"
}
layer {
  name: "conv2"
  type: "Convolution"
  bottom: "conv1"
  top: "conv2"
  param {
    lr_mult: 1
  }
  param {
    lr_mult: 2
  }
  convolution_param {
    num_output: 64
    pad: 2
    kernel_size: 5
    stride: 1
    weight_filler {
      type: "gaussian"
      std: 0.01
    }
    bias_filler {
      type: "constant"
    }
  }
}
layer {
  name: "relu2"
  type: "ReLU"
  bottom: "conv2"
  top: "conv2"
}
layer {
  name: "pool2"
  type: "Pooling"
  bottom: "conv2"
  top: "pool2"
  pooling_param {
    pool: MAX
    kernel_size: 3
    stride: 2
  }
}
layer {
  name: "conv3"
  type: "Convolution"
  bottom: "pool2"
  top: "conv3"
  param {
    lr_mult: 1
  }
  param {
    lr_mult: 2
  }
  convolution_param {
    num_output: 128
    pad: 2
    kernel_size: 5
    stride: 1
    weight_filler {
      type: "gaussian"
      std: 0.01
    }
    bias_filler {
      type: "constant"
    }
  }
}
layer {
  name: "relu3"
  type: "ReLU"
  bottom: "conv3"
  top: "conv3"
}
layer {
  name: "conv4"
  type: "Convolution"
  bottom: "conv3"
  top: "conv4"
  param {
    lr_mult: 1
  }
  param {
    lr_mult: 2
  }
  convolution_param {
    num_output: 128
    pad: 2
    kernel_size: 5
    stride: 1
    weight_filler {
      type: "gaussian"
      std: 0.01
    }
    bias_filler {
      type: "constant"
    }
  }
}
layer {
  name: "relu4"
  type: "ReLU"
  bottom: "conv4"
  top: "conv4"
}
layer {
  name: "conv5"
  type: "Convolution"
  bottom: "conv4"
  top: "conv5"
  param {
    lr_mult: 1
  }
  param {
    lr_mult: 2
  }
  convolution_param {
    num_output: 128
    pad: 2
    kernel_size: 5
    stride: 1
    weight_filler {
      type: "gaussian"
      std: 0.01
    }
    bias_filler {
      type: "constant"
    }
  }
}
layer {
  name: "relu5"
  type: "ReLU"
  bottom: "conv5"
  top: "conv5"
}
layer {
  name: "pool5"
  type: "Pooling"
  bottom: "conv5"
  top: "pool5"
  pooling_param {
    pool: AVE
    kernel_size: 3
    stride: 2
  }
}
layer {
  name: "ip1"
  type: "InnerProduct"
  bottom: "pool5"
  top: "ip1"
  param {
    lr_mult: 1
  }
  param {
    lr_mult: 2
  }
  inner_product_param {
    num_output: 1024
    weight_filler {
      type: "gaussian"
      std: 0.1
    }
    bias_filler {
      type: "constant"
    }
  }
}
layer {
  name: "ip2"
  type: "InnerProduct"
  bottom: "ip1"
  top: "ip2"
  param {
    lr_mult: 1
  }
  param {
    lr_mult: 2
  }
  inner_product_param {
    num_output: 512
    weight_filler {
      type: "gaussian"
      std: 0.1
    }
    bias_filler {
      type: "constant"
    }
  }
}
layer {
  name: "ip3"
  type: "InnerProduct"
  bottom: "ip2"
  top: "ip3"
  param {
    lr_mult: 1
  }
  param {
    lr_mult: 2
  }
  inner_product_param {
    num_output: 1
    weight_filler {
      type: "gaussian"
      std: 0.1
    }
    bias_filler {
      type: "constant"
    }
  }
}
layer {
  name: "loss"
  type: "HuberLoss"
  bottom: "ip3"
  bottom: "label"
  top: "loss"
  include {
    phase: TRAIN
  }
}
I0506 04:29:00.206578 12834 layer_factory.hpp:77] Creating layer parameters
I0506 04:29:00.206595 12834 net.cpp:94] Creating Layer parameters
I0506 04:29:00.206600 12834 net.cpp:409] parameters -> data
I0506 04:29:00.206609 12834 net.cpp:409] parameters -> label
I0506 04:29:00.206616 12834 hdf5_data_layer.cpp:79] Loading list of HDF5 filenames from: /home/purduethu/scratch/radon/d/deng106/CNNStatisticalModel/distributions/input/50_distributions_100_sample_size_train-parameters-path.txt
I0506 04:29:00.206632 12834 hdf5_data_layer.cpp:93] Number of HDF5 files: 1
I0506 04:29:00.207271 12834 hdf5.cpp:32] Datatype class: H5T_FLOAT
I0506 04:29:00.381638 12834 net.cpp:144] Setting up parameters
I0506 04:29:00.381671 12834 net.cpp:151] Top shape: 20 1 10 10 (2000)
I0506 04:29:00.381676 12834 net.cpp:151] Top shape: 20 (20)
I0506 04:29:00.381680 12834 net.cpp:159] Memory required for data: 8080
I0506 04:29:00.381686 12834 layer_factory.hpp:77] Creating layer conv1
I0506 04:29:00.381703 12834 net.cpp:94] Creating Layer conv1
I0506 04:29:00.381707 12834 net.cpp:435] conv1 <- data
I0506 04:29:00.381714 12834 net.cpp:409] conv1 -> conv1
I0506 04:29:00.385872 12834 net.cpp:144] Setting up conv1
I0506 04:29:00.385888 12834 net.cpp:151] Top shape: 20 64 10 10 (128000)
I0506 04:29:00.385893 12834 net.cpp:159] Memory required for data: 520080
I0506 04:29:00.385903 12834 layer_factory.hpp:77] Creating layer relu1
I0506 04:29:00.385911 12834 net.cpp:94] Creating Layer relu1
I0506 04:29:00.385915 12834 net.cpp:435] relu1 <- conv1
I0506 04:29:00.385920 12834 net.cpp:396] relu1 -> conv1 (in-place)
I0506 04:29:00.385927 12834 net.cpp:144] Setting up relu1
I0506 04:29:00.385932 12834 net.cpp:151] Top shape: 20 64 10 10 (128000)
I0506 04:29:00.385936 12834 net.cpp:159] Memory required for data: 1032080
I0506 04:29:00.385938 12834 layer_factory.hpp:77] Creating layer conv2
I0506 04:29:00.385946 12834 net.cpp:94] Creating Layer conv2
I0506 04:29:00.385949 12834 net.cpp:435] conv2 <- conv1
I0506 04:29:00.385954 12834 net.cpp:409] conv2 -> conv2
I0506 04:29:00.391911 12834 net.cpp:144] Setting up conv2
I0506 04:29:00.391926 12834 net.cpp:151] Top shape: 20 64 10 10 (128000)
I0506 04:29:00.391928 12834 net.cpp:159] Memory required for data: 1544080
I0506 04:29:00.391937 12834 layer_factory.hpp:77] Creating layer relu2
I0506 04:29:00.391944 12834 net.cpp:94] Creating Layer relu2
I0506 04:29:00.391948 12834 net.cpp:435] relu2 <- conv2
I0506 04:29:00.391952 12834 net.cpp:396] relu2 -> conv2 (in-place)
I0506 04:29:00.391959 12834 net.cpp:144] Setting up relu2
I0506 04:29:00.391964 12834 net.cpp:151] Top shape: 20 64 10 10 (128000)
I0506 04:29:00.391968 12834 net.cpp:159] Memory required for data: 2056080
I0506 04:29:00.391969 12834 layer_factory.hpp:77] Creating layer pool2
I0506 04:29:00.391976 12834 net.cpp:94] Creating Layer pool2
I0506 04:29:00.391979 12834 net.cpp:435] pool2 <- conv2
I0506 04:29:00.391983 12834 net.cpp:409] pool2 -> pool2
I0506 04:29:00.392043 12834 net.cpp:144] Setting up pool2
I0506 04:29:00.392051 12834 net.cpp:151] Top shape: 20 64 5 5 (32000)
I0506 04:29:00.392055 12834 net.cpp:159] Memory required for data: 2184080
I0506 04:29:00.392058 12834 layer_factory.hpp:77] Creating layer conv3
I0506 04:29:00.392066 12834 net.cpp:94] Creating Layer conv3
I0506 04:29:00.392076 12834 net.cpp:435] conv3 <- pool2
I0506 04:29:00.392081 12834 net.cpp:409] conv3 -> conv3
I0506 04:29:00.400187 12834 net.cpp:144] Setting up conv3
I0506 04:29:00.400199 12834 net.cpp:151] Top shape: 20 128 5 5 (64000)
I0506 04:29:00.400203 12834 net.cpp:159] Memory required for data: 2440080
I0506 04:29:00.400213 12834 layer_factory.hpp:77] Creating layer relu3
I0506 04:29:00.400218 12834 net.cpp:94] Creating Layer relu3
I0506 04:29:00.400221 12834 net.cpp:435] relu3 <- conv3
I0506 04:29:00.400226 12834 net.cpp:396] relu3 -> conv3 (in-place)
I0506 04:29:00.400233 12834 net.cpp:144] Setting up relu3
I0506 04:29:00.400238 12834 net.cpp:151] Top shape: 20 128 5 5 (64000)
I0506 04:29:00.400240 12834 net.cpp:159] Memory required for data: 2696080
I0506 04:29:00.400243 12834 layer_factory.hpp:77] Creating layer conv4
I0506 04:29:00.400251 12834 net.cpp:94] Creating Layer conv4
I0506 04:29:00.400255 12834 net.cpp:435] conv4 <- conv3
I0506 04:29:00.400260 12834 net.cpp:409] conv4 -> conv4
I0506 04:29:00.415105 12834 net.cpp:144] Setting up conv4
I0506 04:29:00.415120 12834 net.cpp:151] Top shape: 20 128 5 5 (64000)
I0506 04:29:00.415124 12834 net.cpp:159] Memory required for data: 2952080
I0506 04:29:00.415130 12834 layer_factory.hpp:77] Creating layer relu4
I0506 04:29:00.415136 12834 net.cpp:94] Creating Layer relu4
I0506 04:29:00.415140 12834 net.cpp:435] relu4 <- conv4
I0506 04:29:00.415145 12834 net.cpp:396] relu4 -> conv4 (in-place)
I0506 04:29:00.415153 12834 net.cpp:144] Setting up relu4
I0506 04:29:00.415156 12834 net.cpp:151] Top shape: 20 128 5 5 (64000)
I0506 04:29:00.415159 12834 net.cpp:159] Memory required for data: 3208080
I0506 04:29:00.415163 12834 layer_factory.hpp:77] Creating layer conv5
I0506 04:29:00.415170 12834 net.cpp:94] Creating Layer conv5
I0506 04:29:00.415174 12834 net.cpp:435] conv5 <- conv4
I0506 04:29:00.415179 12834 net.cpp:409] conv5 -> conv5
I0506 04:29:00.429426 12834 net.cpp:144] Setting up conv5
I0506 04:29:00.429441 12834 net.cpp:151] Top shape: 20 128 5 5 (64000)
I0506 04:29:00.429445 12834 net.cpp:159] Memory required for data: 3464080
I0506 04:29:00.429455 12834 layer_factory.hpp:77] Creating layer relu5
I0506 04:29:00.429461 12834 net.cpp:94] Creating Layer relu5
I0506 04:29:00.429463 12834 net.cpp:435] relu5 <- conv5
I0506 04:29:00.429468 12834 net.cpp:396] relu5 -> conv5 (in-place)
I0506 04:29:00.429476 12834 net.cpp:144] Setting up relu5
I0506 04:29:00.429481 12834 net.cpp:151] Top shape: 20 128 5 5 (64000)
I0506 04:29:00.429483 12834 net.cpp:159] Memory required for data: 3720080
I0506 04:29:00.429486 12834 layer_factory.hpp:77] Creating layer pool5
I0506 04:29:00.429491 12834 net.cpp:94] Creating Layer pool5
I0506 04:29:00.429494 12834 net.cpp:435] pool5 <- conv5
I0506 04:29:00.429498 12834 net.cpp:409] pool5 -> pool5
I0506 04:29:00.429539 12834 net.cpp:144] Setting up pool5
I0506 04:29:00.429548 12834 net.cpp:151] Top shape: 20 128 2 2 (10240)
I0506 04:29:00.429550 12834 net.cpp:159] Memory required for data: 3761040
I0506 04:29:00.429553 12834 layer_factory.hpp:77] Creating layer ip1
I0506 04:29:00.429563 12834 net.cpp:94] Creating Layer ip1
I0506 04:29:00.429566 12834 net.cpp:435] ip1 <- pool5
I0506 04:29:00.429572 12834 net.cpp:409] ip1 -> ip1
I0506 04:29:00.443809 12834 net.cpp:144] Setting up ip1
I0506 04:29:00.443822 12834 net.cpp:151] Top shape: 20 1024 (20480)
I0506 04:29:00.443826 12834 net.cpp:159] Memory required for data: 3842960
I0506 04:29:00.443832 12834 layer_factory.hpp:77] Creating layer ip2
I0506 04:29:00.443840 12834 net.cpp:94] Creating Layer ip2
I0506 04:29:00.443845 12834 net.cpp:435] ip2 <- ip1
I0506 04:29:00.443850 12834 net.cpp:409] ip2 -> ip2
I0506 04:29:00.457237 12834 net.cpp:144] Setting up ip2
I0506 04:29:00.457249 12834 net.cpp:151] Top shape: 20 512 (10240)
I0506 04:29:00.457253 12834 net.cpp:159] Memory required for data: 3883920
I0506 04:29:00.457259 12834 layer_factory.hpp:77] Creating layer ip3
I0506 04:29:00.457267 12834 net.cpp:94] Creating Layer ip3
I0506 04:29:00.457269 12834 net.cpp:435] ip3 <- ip2
I0506 04:29:00.457281 12834 net.cpp:409] ip3 -> ip3
I0506 04:29:00.457403 12834 net.cpp:144] Setting up ip3
I0506 04:29:00.457412 12834 net.cpp:151] Top shape: 20 1 (20)
I0506 04:29:00.457414 12834 net.cpp:159] Memory required for data: 3884000
I0506 04:29:00.457420 12834 layer_factory.hpp:77] Creating layer loss
I0506 04:29:00.457432 12834 net.cpp:94] Creating Layer loss
I0506 04:29:00.457437 12834 net.cpp:435] loss <- ip3
I0506 04:29:00.457440 12834 net.cpp:435] loss <- label
I0506 04:29:00.457444 12834 net.cpp:409] loss -> loss
I0506 04:29:00.457499 12834 net.cpp:144] Setting up loss
…
I0506 04:29:00.563359 12834 net.cpp:323] The NetState phase (0) differed from the phase (1) specified by a rule in layer intercept
I0506 04:29:00.563374 12834 net.cpp:323] The NetState phase (0) differed from the phase (1) specified by a rule in layer accuracy
I0506 04:29:00.563459 12834 net.cpp:52] Initializing net from parameters: 
state {
  phase: TRAIN
}
layer {
  name: "parameters"
  type: "HDF5Data"
  top: "data"
  top: "label"
  include {
    phase: TRAIN
  }
  hdf5_data_param {
    source: "/home/purduethu/scratch/radon/d/deng106/CNNStatisticalModel/distributions/input/50_distributions_100_sample_size_train-distributions-path.txt"
    batch_size: 20
  }
}
layer {
  name: "conv1"
  type: "Convolution"
  bottom: "data"
  top: "conv1"
  param {
    lr_mult: 1
  }
  param {
    lr_mult: 2
  }
  convolution_param {
    num_output: 64
    pad: 2
    kernel_size: 5
    stride: 1
    weight_filler {
      type: "gaussian"
      std: 0.0001
    }
    bias_filler {
      type: "constant"
    }
  }
}
layer {
  name: "relu1"
  type: "ReLU"
  bottom: "conv1"
  top: "conv1"
}
layer {
  name: "conv2"
  type: "Convolution"
  bottom: "conv1"
  top: "conv2"
  param {
    lr_mult: 1
  }
  param {
    lr_mult: 2
  }
  convolution_param {
    num_output: 64
    pad: 2
    kernel_size: 5
    stride: 1
    weight_filler {
      type: "gaussian"
      std: 0.01
    }
    bias_filler {
      type: "constant"
    }
  }
}
layer {
  name: "relu2"
  type: "ReLU"
  bottom: "conv2"
  top: "conv2"
}
layer {
  name: "pool2"
  type: "Pooling"
  bottom: "conv2"
  top: "pool2"
  pooling_param {
    pool: MAX
    kernel_size: 3
    stride: 2
  }
}
layer {
  name: "conv3"
  type: "Convolution"
  bottom: "pool2"
  top: "conv3"
  param {
    lr_mult: 1
  }
  param {
    lr_mult: 2
  }
  convolution_param {
    num_output: 128
    pad: 2
    kernel_size: 5
    stride: 1
    weight_filler {
      type: "gaussian"
      std: 0.01
    }
    bias_filler {
      type: "constant"
    }
  }
}
layer {
  name: "relu3"
  type: "ReLU"
  bottom: "conv3"
  top: "conv3"
}
layer {
  name: "conv4"
  type: "Convolution"
  bottom: "conv3"
  top: "conv4"
  param {
    lr_mult: 1
  }
  param {
    lr_mult: 2
  }
  convolution_param {
    num_output: 128
    pad: 2
    kernel_size: 5
    stride: 1
    weight_filler {
      type: "gaussian"
      std: 0.01
    }
    bias_filler {
      type: "constant"
    }
  }
}
layer {
  name: "relu4"
  type: "ReLU"
  bottom: "conv4"
  top: "conv4"
}
layer {
  name: "conv5"
  type: "Convolution"
  bottom: "conv4"
  top: "conv5"
  param {
    lr_mult: 1
  }
  param {
    lr_mult: 2
  }
  convolution_param {
    num_output: 128
    pad: 2
    kernel_size: 5
    stride: 1
    weight_filler {
      type: "gaussian"
      std: 0.01
    }
    bias_filler {
      type: "constant"
    }
  }
}
layer {
  name: "relu5"
  type: "ReLU"
  bottom: "conv5"
  top: "conv5"
}
layer {
  name: "pool5"
  type: "Pooling"
  bottom: "conv5"
  top: "pool5"
  pooling_param {
    pool: AVE
    kernel_size: 3
    stride: 2
  }
}
layer {
  name: "ip1"
  type: "InnerProduct"
  bottom: "pool5"
  top: "ip1"
  param {
    lr_mult: 1
  }
  param {
    lr_mult: 2
  }
  inner_product_param {
    num_output: 1024
    weight_filler {
      type: "gaussian"
      std: 0.1
    }
    bias_filler {
      type: "constant"
    }
  }
}
layer {
  name: "ip2"
  type: "InnerProduct"
  bottom: "ip1"
  top: "ip2"
  param {
    lr_mult: 1
  }
  param {
    lr_mult: 2
  }
  inner_product_param {
    num_output: 512
    weight_filler {
      type: "gaussian"
      std: 0.1
    }
    bias_filler {
      type: "constant"
    }
  }
}
layer {
  name: "ip3"
  type: "InnerProduct"
  bottom: "ip2"
  top: "ip3"
  param {
    lr_mult: 1
  }
  param {
    lr_mult: 2
  }
  inner_product_param {
    num_output: 50
    weight_filler {
      type: "gaussian"
      std: 0.1
    }
    bias_filler {
      type: "constant"
    }
  }
}
layer {
  name: "loss"
  type: "SoftmaxWithLoss"
  bottom: "ip3"
  bottom: "label"
  top: "loss"
}
I0506 04:29:00.563511 12834 layer_factory.hpp:77] Creating layer parameters
I0506 04:29:00.563519 12834 net.cpp:94] Creating Layer parameters
I0506 04:29:00.563524 12834 net.cpp:409] parameters -> data
I0506 04:29:00.563530 12834 net.cpp:409] parameters -> label
I0506 04:29:00.563536 12834 hdf5_data_layer.cpp:79] Loading list of HDF5 filenames from: /home/purduethu/scratch/radon/d/deng106/CNNStatisticalModel/distributions/input/50_distributions_100_sample_size_train-distributions-path.txt
I0506 04:29:00.563552 12834 hdf5_data_layer.cpp:93] Number of HDF5 files: 1
I0506 04:29:00.718542 12834 hdf5.cpp:35] Datatype class: H5T_INTEGER
I0506 04:29:00.721762 12834 net.cpp:144] Setting up parameters
I0506 04:29:00.721787 12834 net.cpp:151] Top shape: 20 1 10 10 (2000)
I0506 04:29:00.721792 12834 net.cpp:151] Top shape: 20 (20)
I0506 04:29:00.721796 12834 net.cpp:159] Memory required for data: 8080
I0506 04:29:00.721801 12834 layer_factory.hpp:77] Creating layer conv1
I0506 04:29:00.721819 12834 net.cpp:94] Creating Layer conv1
I0506 04:29:00.721823 12834 net.cpp:435] conv1 <- data
I0506 04:29:00.721829 12834 net.cpp:409] conv1 -> conv1
I0506 04:29:00.723526 12834 net.cpp:144] Setting up conv1
I0506 04:29:00.723538 12834 net.cpp:151] Top shape: 20 64 10 10 (128000)
I0506 04:29:00.723542 12834 net.cpp:159] Memory required for data: 520080
I0506 04:29:00.723552 12834 layer_factory.hpp:77] Creating layer relu1
I0506 04:29:00.723561 12834 net.cpp:94] Creating Layer relu1
I0506 04:29:00.723564 12834 net.cpp:435] relu1 <- conv1
I0506 04:29:00.723568 12834 net.cpp:396] relu1 -> conv1 (in-place)
I0506 04:29:00.723575 12834 net.cpp:144] Setting up relu1
I0506 04:29:00.723580 12834 net.cpp:151] Top shape: 20 64 10 10 (128000)
I0506 04:29:00.723583 12834 net.cpp:159] Memory required for data: 1032080
I0506 04:29:00.723587 12834 layer_factory.hpp:77] Creating layer conv2
I0506 04:29:00.723593 12834 net.cpp:94] Creating Layer conv2
I0506 04:29:00.723597 12834 net.cpp:435] conv2 <- conv1
I0506 04:29:00.723601 12834 net.cpp:409] conv2 -> conv2
I0506 04:29:00.728875 12834 net.cpp:144] Setting up conv2
I0506 04:29:00.728888 12834 net.cpp:151] Top shape: 20 64 10 10 (128000)
I0506 04:29:00.728893 12834 net.cpp:159] Memory required for data: 1544080
I0506 04:29:00.728900 12834 layer_factory.hpp:77] Creating layer relu2
I0506 04:29:00.728907 12834 net.cpp:94] Creating Layer relu2
I0506 04:29:00.728910 12834 net.cpp:435] relu2 <- conv2
I0506 04:29:00.728915 12834 net.cpp:396] relu2 -> conv2 (in-place)
I0506 04:29:00.728921 12834 net.cpp:144] Setting up relu2
I0506 04:29:00.728926 12834 net.cpp:151] Top shape: 20 64 10 10 (128000)
I0506 04:29:00.728929 12834 net.cpp:159] Memory required for data: 2056080
I0506 04:29:00.728932 12834 layer_factory.hpp:77] Creating layer pool2
I0506 04:29:00.728938 12834 net.cpp:94] Creating Layer pool2
I0506 04:29:00.728940 12834 net.cpp:435] pool2 <- conv2
I0506 04:29:00.728945 12834 net.cpp:409] pool2 -> pool2
I0506 04:29:00.729001 12834 net.cpp:144] Setting up pool2
I0506 04:29:00.729010 12834 net.cpp:151] Top shape: 20 64 5 5 (32000)
I0506 04:29:00.729013 12834 net.cpp:159] Memory required for data: 2184080
I0506 04:29:00.729017 12834 layer_factory.hpp:77] Creating layer conv3
I0506 04:29:00.729024 12834 net.cpp:94] Creating Layer conv3
I0506 04:29:00.729028 12834 net.cpp:435] conv3 <- pool2
I0506 04:29:00.729033 12834 net.cpp:409] conv3 -> conv3
I0506 04:29:00.737607 12834 net.cpp:144] Setting up conv3
I0506 04:29:00.737620 12834 net.cpp:151] Top shape: 20 128 5 5 (64000)
I0506 04:29:00.737624 12834 net.cpp:159] Memory required for data: 2440080
I0506 04:29:00.737633 12834 layer_factory.hpp:77] Creating layer relu3
I0506 04:29:00.737638 12834 net.cpp:94] Creating Layer relu3
I0506 04:29:00.737643 12834 net.cpp:435] relu3 <- conv3
I0506 04:29:00.737646 12834 net.cpp:396] relu3 -> conv3 (in-place)
I0506 04:29:00.737659 12834 net.cpp:144] Setting up relu3
I0506 04:29:00.737664 12834 net.cpp:151] Top shape: 20 128 5 5 (64000)
I0506 04:29:00.737668 12834 net.cpp:159] Memory required for data: 2696080
I0506 04:29:00.737670 12834 layer_factory.hpp:77] Creating layer conv4
I0506 04:29:00.737679 12834 net.cpp:94] Creating Layer conv4
I0506 04:29:00.737682 12834 net.cpp:435] conv4 <- conv3
I0506 04:29:00.737687 12834 net.cpp:409] conv4 -> conv4
I0506 04:29:00.752115 12834 net.cpp:144] Setting up conv4
I0506 04:29:00.752128 12834 net.cpp:151] Top shape: 20 128 5 5 (64000)
I0506 04:29:00.752132 12834 net.cpp:159] Memory required for data: 2952080
I0506 04:29:00.752138 12834 layer_factory.hpp:77] Creating layer relu4
I0506 04:29:00.752144 12834 net.cpp:94] Creating Layer relu4
I0506 04:29:00.752148 12834 net.cpp:435] relu4 <- conv4
I0506 04:29:00.752152 12834 net.cpp:396] relu4 -> conv4 (in-place)
I0506 04:29:00.752159 12834 net.cpp:144] Setting up relu4
I0506 04:29:00.752164 12834 net.cpp:151] Top shape: 20 128 5 5 (64000)
I0506 04:29:00.752167 12834 net.cpp:159] Memory required for data: 3208080
I0506 04:29:00.752171 12834 layer_factory.hpp:77] Creating layer conv5
I0506 04:29:00.752177 12834 net.cpp:94] Creating Layer conv5
I0506 04:29:00.752182 12834 net.cpp:435] conv5 <- conv4
I0506 04:29:00.752185 12834 net.cpp:409] conv5 -> conv5
I0506 04:29:00.766744 12834 net.cpp:144] Setting up conv5
I0506 04:29:00.766759 12834 net.cpp:151] Top shape: 20 128 5 5 (64000)
I0506 04:29:00.766763 12834 net.cpp:159] Memory required for data: 3464080
I0506 04:29:00.766772 12834 layer_factory.hpp:77] Creating layer relu5
I0506 04:29:00.766778 12834 net.cpp:94] Creating Layer relu5
I0506 04:29:00.766782 12834 net.cpp:435] relu5 <- conv5
I0506 04:29:00.766786 12834 net.cpp:396] relu5 -> conv5 (in-place)
I0506 04:29:00.766793 12834 net.cpp:144] Setting up relu5
I0506 04:29:00.766798 12834 net.cpp:151] Top shape: 20 128 5 5 (64000)
I0506 04:29:00.766801 12834 net.cpp:159] Memory required for data: 3720080
I0506 04:29:00.766804 12834 layer_factory.hpp:77] Creating layer pool5
I0506 04:29:00.766809 12834 net.cpp:94] Creating Layer pool5
I0506 04:29:00.766813 12834 net.cpp:435] pool5 <- conv5
I0506 04:29:00.766816 12834 net.cpp:409] pool5 -> pool5
I0506 04:29:00.766857 12834 net.cpp:144] Setting up pool5
I0506 04:29:00.766865 12834 net.cpp:151] Top shape: 20 128 2 2 (10240)
I0506 04:29:00.766868 12834 net.cpp:159] Memory required for data: 3761040
I0506 04:29:00.766871 12834 layer_factory.hpp:77] Creating layer ip1
I0506 04:29:00.766878 12834 net.cpp:94] Creating Layer ip1
I0506 04:29:00.766881 12834 net.cpp:435] ip1 <- pool5
I0506 04:29:00.766886 12834 net.cpp:409] ip1 -> ip1
I0506 04:29:00.780285 12834 net.cpp:144] Setting up ip1
I0506 04:29:00.780299 12834 net.cpp:151] Top shape: 20 1024 (20480)
I0506 04:29:00.780303 12834 net.cpp:159] Memory required for data: 3842960
I0506 04:29:00.780309 12834 layer_factory.hpp:77] Creating layer ip2
I0506 04:29:00.780316 12834 net.cpp:94] Creating Layer ip2
I0506 04:29:00.780320 12834 net.cpp:435] ip2 <- ip1
I0506 04:29:00.780325 12834 net.cpp:409] ip2 -> ip2
I0506 04:29:00.793738 12834 net.cpp:144] Setting up ip2
I0506 04:29:00.793752 12834 net.cpp:151] Top shape: 20 512 (10240)
I0506 04:29:00.793756 12834 net.cpp:159] Memory required for data: 3883920
I0506 04:29:00.793762 12834 layer_factory.hpp:77] Creating layer ip3
I0506 04:29:00.793769 12834 net.cpp:94] Creating Layer ip3
I0506 04:29:00.793773 12834 net.cpp:435] ip3 <- ip2
I0506 04:29:00.793778 12834 net.cpp:409] ip3 -> ip3
I0506 04:29:00.795320 12834 net.cpp:144] Setting up ip3
I0506 04:29:00.795332 12834 net.cpp:151] Top shape: 20 50 (1000)
I0506 04:29:00.795336 12834 net.cpp:159] Memory required for data: 3887920
I0506 04:29:00.795342 12834 layer_factory.hpp:77] Creating layer loss
I0506 04:29:00.795351 12834 net.cpp:94] Creating Layer loss
I0506 04:29:00.795353 12834 net.cpp:435] loss <- ip3
I0506 04:29:00.795357 12834 net.cpp:435] loss <- label
I0506 04:29:00.795362 12834 net.cpp:409] loss -> loss
I0506 04:29:00.795369 12834 layer_factory.hpp:77] Creating layer loss
…
I0506 04:29:00.795898 12834 solver.cpp:181] Creating test net (#0) specified by net file: ./protocol/dis_50_100_dimension.protocol_distribution
I0506 04:29:00.795924 12834 net.cpp:323] The NetState phase (1) differed from the phase (0) specified by a rule in layer parameters
I0506 04:29:00.796018 12834 net.cpp:52] Initializing net from parameters: 
state {
  phase: TEST
}
layer {
  name: "intercept"
  type: "HDF5Data"
  top: "data"
  top: "label"
  include {
    phase: TEST
  }
  hdf5_data_param {
    source: "/home/purduethu/scratch/radon/d/deng106/CNNStatisticalModel/distributions/input/50_distributions_100_sample_size_test-distributions-path.txt"
    batch_size: 20
  }
}
layer {
  name: "conv1"
  type: "Convolution"
  bottom: "data"
  top: "conv1"
  param {
    lr_mult: 1
  }
  param {
    lr_mult: 2
  }
  convolution_param {
    num_output: 64
    pad: 2
    kernel_size: 5
    stride: 1
    weight_filler {
      type: "gaussian"
      std: 0.0001
    }
    bias_filler {
      type: "constant"
    }
  }
}
layer {
  name: "relu1"
  type: "ReLU"
  bottom: "conv1"
  top: "conv1"
}
layer {
  name: "conv2"
  type: "Convolution"
  bottom: "conv1"
  top: "conv2"
  param {
    lr_mult: 1
  }
  param {
    lr_mult: 2
  }
  convolution_param {
    num_output: 64
    pad: 2
    kernel_size: 5
    stride: 1
    weight_filler {
      type: "gaussian"
      std: 0.01
    }
    bias_filler {
      type: "constant"
    }
  }
}
layer {
  name: "relu2"
  type: "ReLU"
  bottom: "conv2"
  top: "conv2"
}
layer {
  name: "pool2"
  type: "Pooling"
  bottom: "conv2"
  top: "pool2"
  pooling_param {
    pool: MAX
    kernel_size: 3
    stride: 2
  }
}
layer {
  name: "conv3"
  type: "Convolution"
  bottom: "pool2"
  top: "conv3"
  param {
    lr_mult: 1
  }
  param {
    lr_mult: 2
  }
  convolution_param {
    num_output: 128
    pad: 2
    kernel_size: 5
    stride: 1
    weight_filler {
      type: "gaussian"
      std: 0.01
    }
    bias_filler {
      type: "constant"
    }
  }
}
layer {
  name: "relu3"
  type: "ReLU"
  bottom: "conv3"
  top: "conv3"
}
layer {
  name: "conv4"
  type: "Convolution"
  bottom: "conv3"
  top: "conv4"
  param {
    lr_mult: 1
  }
  param {
    lr_mult: 2
  }
  convolution_param {
    num_output: 128
    pad: 2
    kernel_size: 5
    stride: 1
    weight_filler {
      type: "gaussian"
      std: 0.01
    }
    bias_filler {
      type: "constant"
    }
  }
}
layer {
  name: "relu4"
  type: "ReLU"
  bottom: "conv4"
  top: "conv4"
}
layer {
  name: "conv5"
  type: "Convolution"
  bottom: "conv4"
  top: "conv5"
  param {
    lr_mult: 1
  }
  param {
    lr_mult: 2
  }
  convolution_param {
    num_output: 128
    pad: 2
    kernel_size: 5
    stride: 1
    weight_filler {
      type: "gaussian"
      std: 0.01
    }
    bias_filler {
      type: "constant"
    }
  }
}
layer {
  name: "relu5"
  type: "ReLU"
  bottom: "conv5"
  top: "conv5"
}
layer {
  name: "pool5"
  type: "Pooling"
  bottom: "conv5"
  top: "pool5"
  pooling_param {
    pool: AVE
    kernel_size: 3
    stride: 2
  }
}
layer {
  name: "ip1"
  type: "InnerProduct"
  bottom: "pool5"
  top: "ip1"
  param {
    lr_mult: 1
  }
  param {
    lr_mult: 2
  }
  inner_product_param {
    num_output: 1024
    weight_filler {
      type: "gaussian"
      std: 0.1
    }
    bias_filler {
      type: "constant"
    }
  }
}
layer {
  name: "ip2"
  type: "InnerProduct"
  bottom: "ip1"
  top: "ip2"
  param {
    lr_mult: 1
  }
  param {
    lr_mult: 2
  }
  inner_product_param {
    num_output: 512
    weight_filler {
      type: "gaussian"
      std: 0.1
    }
    bias_filler {
      type: "constant"
    }
  }
}
layer {
  name: "ip3"
  type: "InnerProduct"
  bottom: "ip2"
  top: "ip3"
  param {
    lr_mult: 1
  }
  param {
    lr_mult: 2
  }
  inner_product_param {
    num_output: 50
    weight_filler {
      type: "gaussian"
      std: 0.1
    }
    bias_filler {
      type: "constant"
    }
  }
}
layer {
  name: "accuracy"
  type: "Accuracy"
  bottom: "ip3"
  bottom: "label"
  top: "accuracy"
  include {
    phase: TEST
  }
}
layer {
  name: "loss"
  type: "SoftmaxWithLoss"
  bottom: "ip3"
  bottom: "label"
  top: "loss"
}
I0506 04:29:00.796084 12834 layer_factory.hpp:77] Creating layer intercept
I0506 04:29:00.796093 12834 net.cpp:94] Creating Layer intercept
I0506 04:29:00.796097 12834 net.cpp:409] intercept -> data
I0506 04:29:00.796103 12834 net.cpp:409] intercept -> label
I0506 04:29:00.796109 12834 hdf5_data_layer.cpp:79] Loading list of HDF5 filenames from: /home/purduethu/scratch/radon/d/deng106/CNNStatisticalModel/distributions/input/50_distributions_100_sample_size_test-distributions-path.txt
I0506 04:29:00.796128 12834 hdf5_data_layer.cpp:93] Number of HDF5 files: 1
I0506 04:29:00.836942 12834 net.cpp:144] Setting up intercept
I0506 04:29:00.836977 12834 net.cpp:151] Top shape: 20 1 10 10 (2000)
I0506 04:29:00.836982 12834 net.cpp:151] Top shape: 20 (20)
I0506 04:29:00.836987 12834 net.cpp:159] Memory required for data: 8080
I0506 04:29:00.836992 12834 layer_factory.hpp:77] Creating layer label_intercept_1_split
I0506 04:29:00.837010 12834 net.cpp:94] Creating Layer label_intercept_1_split
I0506 04:29:00.837014 12834 net.cpp:435] label_intercept_1_split <- label
I0506 04:29:00.837020 12834 net.cpp:409] label_intercept_1_split -> label_intercept_1_split_0
I0506 04:29:00.837029 12834 net.cpp:409] label_intercept_1_split -> label_intercept_1_split_1
I0506 04:29:00.837074 12834 net.cpp:144] Setting up label_intercept_1_split
I0506 04:29:00.837080 12834 net.cpp:151] Top shape: 20 (20)
I0506 04:29:00.837083 12834 net.cpp:151] Top shape: 20 (20)
I0506 04:29:00.837086 12834 net.cpp:159] Memory required for data: 8240
I0506 04:29:00.837090 12834 layer_factory.hpp:77] Creating layer conv1
I0506 04:29:00.837100 12834 net.cpp:94] Creating Layer conv1
I0506 04:29:00.837105 12834 net.cpp:435] conv1 <- data
I0506 04:29:00.837108 12834 net.cpp:409] conv1 -> conv1
I0506 04:29:00.837931 12834 net.cpp:144] Setting up conv1
I0506 04:29:00.837944 12834 net.cpp:151] Top shape: 20 64 10 10 (128000)
I0506 04:29:00.837949 12834 net.cpp:159] Memory required for data: 520240
I0506 04:29:00.837957 12834 layer_factory.hpp:77] Creating layer relu1
I0506 04:29:00.837965 12834 net.cpp:94] Creating Layer relu1
I0506 04:29:00.837968 12834 net.cpp:435] relu1 <- conv1
I0506 04:29:00.837972 12834 net.cpp:396] relu1 -> conv1 (in-place)
I0506 04:29:00.837980 12834 net.cpp:144] Setting up relu1
I0506 04:29:00.837983 12834 net.cpp:151] Top shape: 20 64 10 10 (128000)
I0506 04:29:00.837994 12834 net.cpp:159] Memory required for data: 1032240
I0506 04:29:00.837997 12834 layer_factory.hpp:77] Creating layer conv2
I0506 04:29:00.838006 12834 net.cpp:94] Creating Layer conv2
I0506 04:29:00.838009 12834 net.cpp:435] conv2 <- conv1
I0506 04:29:00.838014 12834 net.cpp:409] conv2 -> conv2
I0506 04:29:00.842098 12834 net.cpp:144] Setting up conv2
I0506 04:29:00.842113 12834 net.cpp:151] Top shape: 20 64 10 10 (128000)
I0506 04:29:00.842116 12834 net.cpp:159] Memory required for data: 1544240
I0506 04:29:00.842123 12834 layer_factory.hpp:77] Creating layer relu2
I0506 04:29:00.842131 12834 net.cpp:94] Creating Layer relu2
I0506 04:29:00.842134 12834 net.cpp:435] relu2 <- conv2
I0506 04:29:00.842139 12834 net.cpp:396] relu2 -> conv2 (in-place)
I0506 04:29:00.842145 12834 net.cpp:144] Setting up relu2
I0506 04:29:00.842150 12834 net.cpp:151] Top shape: 20 64 10 10 (128000)
I0506 04:29:00.842154 12834 net.cpp:159] Memory required for data: 2056240
I0506 04:29:00.842156 12834 layer_factory.hpp:77] Creating layer pool2
I0506 04:29:00.842164 12834 net.cpp:94] Creating Layer pool2
I0506 04:29:00.842166 12834 net.cpp:435] pool2 <- conv2
I0506 04:29:00.842170 12834 net.cpp:409] pool2 -> pool2
I0506 04:29:00.842231 12834 net.cpp:144] Setting up pool2
I0506 04:29:00.842237 12834 net.cpp:151] Top shape: 20 64 5 5 (32000)
I0506 04:29:00.842242 12834 net.cpp:159] Memory required for data: 2184240
I0506 04:29:00.842244 12834 layer_factory.hpp:77] Creating layer conv3
I0506 04:29:00.842252 12834 net.cpp:94] Creating Layer conv3
I0506 04:29:00.842257 12834 net.cpp:435] conv3 <- pool2
I0506 04:29:00.842262 12834 net.cpp:409] conv3 -> conv3
I0506 04:29:00.848330 12834 net.cpp:144] Setting up conv3
I0506 04:29:00.848343 12834 net.cpp:151] Top shape: 20 128 5 5 (64000)
I0506 04:29:00.848347 12834 net.cpp:159] Memory required for data: 2440240
I0506 04:29:00.848354 12834 layer_factory.hpp:77] Creating layer relu3
I0506 04:29:00.848362 12834 net.cpp:94] Creating Layer relu3
I0506 04:29:00.848366 12834 net.cpp:435] relu3 <- conv3
I0506 04:29:00.848371 12834 net.cpp:396] relu3 -> conv3 (in-place)
I0506 04:29:00.848378 12834 net.cpp:144] Setting up relu3
I0506 04:29:00.848383 12834 net.cpp:151] Top shape: 20 128 5 5 (64000)
I0506 04:29:00.848387 12834 net.cpp:159] Memory required for data: 2696240
I0506 04:29:00.848389 12834 layer_factory.hpp:77] Creating layer conv4
I0506 04:29:00.848397 12834 net.cpp:94] Creating Layer conv4
I0506 04:29:00.848402 12834 net.cpp:435] conv4 <- conv3
I0506 04:29:00.848407 12834 net.cpp:409] conv4 -> conv4
I0506 04:29:00.860817 12834 net.cpp:144] Setting up conv4
I0506 04:29:00.860831 12834 net.cpp:151] Top shape: 20 128 5 5 (64000)
I0506 04:29:00.860836 12834 net.cpp:159] Memory required for data: 2952240
I0506 04:29:00.860841 12834 layer_factory.hpp:77] Creating layer relu4
I0506 04:29:00.860847 12834 net.cpp:94] Creating Layer relu4
I0506 04:29:00.860852 12834 net.cpp:435] relu4 <- conv4
I0506 04:29:00.860855 12834 net.cpp:396] relu4 -> conv4 (in-place)
I0506 04:29:00.860862 12834 net.cpp:144] Setting up relu4
I0506 04:29:00.860867 12834 net.cpp:151] Top shape: 20 128 5 5 (64000)
I0506 04:29:00.860869 12834 net.cpp:159] Memory required for data: 3208240
I0506 04:29:00.860872 12834 layer_factory.hpp:77] Creating layer conv5
I0506 04:29:00.860883 12834 net.cpp:94] Creating Layer conv5
I0506 04:29:00.860887 12834 net.cpp:435] conv5 <- conv4
I0506 04:29:00.860891 12834 net.cpp:409] conv5 -> conv5
I0506 04:29:00.873258 12834 net.cpp:144] Setting up conv5
I0506 04:29:00.873271 12834 net.cpp:151] Top shape: 20 128 5 5 (64000)
I0506 04:29:00.873275 12834 net.cpp:159] Memory required for data: 3464240
I0506 04:29:00.873286 12834 layer_factory.hpp:77] Creating layer relu5
I0506 04:29:00.873292 12834 net.cpp:94] Creating Layer relu5
I0506 04:29:00.873296 12834 net.cpp:435] relu5 <- conv5
I0506 04:29:00.873301 12834 net.cpp:396] relu5 -> conv5 (in-place)
I0506 04:29:00.873308 12834 net.cpp:144] Setting up relu5
I0506 04:29:00.873312 12834 net.cpp:151] Top shape: 20 128 5 5 (64000)
I0506 04:29:00.873320 12834 net.cpp:159] Memory required for data: 3720240
I0506 04:29:00.873324 12834 layer_factory.hpp:77] Creating layer pool5
I0506 04:29:00.873329 12834 net.cpp:94] Creating Layer pool5
I0506 04:29:00.873332 12834 net.cpp:435] pool5 <- conv5
I0506 04:29:00.873337 12834 net.cpp:409] pool5 -> pool5
I0506 04:29:00.873379 12834 net.cpp:144] Setting up pool5
I0506 04:29:00.873386 12834 net.cpp:151] Top shape: 20 128 2 2 (10240)
I0506 04:29:00.873389 12834 net.cpp:159] Memory required for data: 3761200
I0506 04:29:00.873392 12834 layer_factory.hpp:77] Creating layer ip1
I0506 04:29:00.873399 12834 net.cpp:94] Creating Layer ip1
I0506 04:29:00.873404 12834 net.cpp:435] ip1 <- pool5
I0506 04:29:00.873409 12834 net.cpp:409] ip1 -> ip1
I0506 04:29:00.886569 12834 net.cpp:144] Setting up ip1
I0506 04:29:00.886581 12834 net.cpp:151] Top shape: 20 1024 (20480)
I0506 04:29:00.886585 12834 net.cpp:159] Memory required for data: 3843120
I0506 04:29:00.886591 12834 layer_factory.hpp:77] Creating layer ip2
I0506 04:29:00.886598 12834 net.cpp:94] Creating Layer ip2
I0506 04:29:00.886601 12834 net.cpp:435] ip2 <- ip1
I0506 04:29:00.886617 12834 net.cpp:409] ip2 -> ip2
I0506 04:29:00.899691 12834 net.cpp:144] Setting up ip2
I0506 04:29:00.899704 12834 net.cpp:151] Top shape: 20 512 (10240)
I0506 04:29:00.899708 12834 net.cpp:159] Memory required for data: 3884080
I0506 04:29:00.899714 12834 layer_factory.hpp:77] Creating layer ip3
I0506 04:29:00.899724 12834 net.cpp:94] Creating Layer ip3
I0506 04:29:00.899727 12834 net.cpp:435] ip3 <- ip2
I0506 04:29:00.899732 12834 net.cpp:409] ip3 -> ip3
I0506 04:29:00.900473 12834 net.cpp:144] Setting up ip3
I0506 04:29:00.900482 12834 net.cpp:151] Top shape: 20 50 (1000)
I0506 04:29:00.900485 12834 net.cpp:159] Memory required for data: 3888080
I0506 04:29:00.900490 12834 layer_factory.hpp:77] Creating layer ip3_ip3_0_split
I0506 04:29:00.900498 12834 net.cpp:94] Creating Layer ip3_ip3_0_split
I0506 04:29:00.900501 12834 net.cpp:435] ip3_ip3_0_split <- ip3
I0506 04:29:00.900506 12834 net.cpp:409] ip3_ip3_0_split -> ip3_ip3_0_split_0
I0506 04:29:00.900511 12834 net.cpp:409] ip3_ip3_0_split -> ip3_ip3_0_split_1
I0506 04:29:00.900574 12834 net.cpp:144] Setting up ip3_ip3_0_split
I0506 04:29:00.900581 12834 net.cpp:151] Top shape: 20 50 (1000)
I0506 04:29:00.900585 12834 net.cpp:151] Top shape: 20 50 (1000)
I0506 04:29:00.900588 12834 net.cpp:159] Memory required for data: 3896080
I0506 04:29:00.900591 12834 layer_factory.hpp:77] Creating layer accuracy
I0506 04:29:00.900598 12834 net.cpp:94] Creating Layer accuracy
I0506 04:29:00.900600 12834 net.cpp:435] accuracy <- ip3_ip3_0_split_0
I0506 04:29:00.900605 12834 net.cpp:435] accuracy <- label_intercept_1_split_0
I0506 04:29:00.900610 12834 net.cpp:409] accuracy -> accuracy
…
