…
I0506 13:44:27.266218 21792 net.cpp:323] The NetState phase (0) differed from the phase (1) specified by a rule in layer intercept
I0506 13:44:27.266234 21792 net.cpp:323] The NetState phase (0) differed from the phase (1) specified by a rule in layer loss
I0506 13:44:27.266314 21792 net.cpp:52] Initializing net from parameters: 
state {
  phase: TRAIN
}
layer {
  name: "parameters"
  type: "HDF5Data"
  top: "data"
  top: "label"
  include {
    phase: TRAIN
  }
  hdf5_data_param {
    source: "/home/purduethu/scratch/radon/d/deng106/CNNStatisticalModel/distributions/input/50_distributions_100_sample_size_train-parameters-path.txt"
    batch_size: 20
  }
}
layer {
  name: "conv1"
  type: "Convolution"
  bottom: "data"
  top: "conv1"
  param {
    lr_mult: 1
  }
  param {
    lr_mult: 2
  }
  convolution_param {
    num_output: 64
    pad: 2
    kernel_size: 5
    stride: 1
    weight_filler {
      type: "gaussian"
      std: 0.0001
    }
    bias_filler {
      type: "constant"
    }
  }
}
layer {
  name: "relu1"
  type: "ReLU"
  bottom: "conv1"
  top: "conv1"
}
layer {
  name: "conv2"
  type: "Convolution"
  bottom: "conv1"
  top: "conv2"
  param {
    lr_mult: 1
  }
  param {
    lr_mult: 2
  }
  convolution_param {
    num_output: 64
    pad: 2
    kernel_size: 5
    stride: 1
    weight_filler {
      type: "gaussian"
      std: 0.01
    }
    bias_filler {
      type: "constant"
    }
  }
}
layer {
  name: "relu2"
  type: "ReLU"
  bottom: "conv2"
  top: "conv2"
}
layer {
  name: "pool2"
  type: "Pooling"
  bottom: "conv2"
  top: "pool2"
  pooling_param {
    pool: MAX
    kernel_size: 3
    stride: 2
  }
}
layer {
  name: "conv3"
  type: "Convolution"
  bottom: "pool2"
  top: "conv3"
  param {
    lr_mult: 1
  }
  param {
    lr_mult: 2
  }
  convolution_param {
    num_output: 128
    pad: 2
    kernel_size: 5
    stride: 1
    weight_filler {
      type: "gaussian"
      std: 0.01
    }
    bias_filler {
      type: "constant"
    }
  }
}
layer {
  name: "relu3"
  type: "ReLU"
  bottom: "conv3"
  top: "conv3"
}
layer {
  name: "conv4"
  type: "Convolution"
  bottom: "conv3"
  top: "conv4"
  param {
    lr_mult: 1
  }
  param {
    lr_mult: 2
  }
  convolution_param {
    num_output: 128
    pad: 2
    kernel_size: 5
    stride: 1
    weight_filler {
      type: "gaussian"
      std: 0.01
    }
    bias_filler {
      type: "constant"
    }
  }
}
layer {
  name: "relu4"
  type: "ReLU"
  bottom: "conv4"
  top: "conv4"
}
layer {
  name: "conv5"
  type: "Convolution"
  bottom: "conv4"
  top: "conv5"
  param {
    lr_mult: 1
  }
  param {
    lr_mult: 2
  }
  convolution_param {
    num_output: 128
    pad: 2
    kernel_size: 5
    stride: 1
    weight_filler {
      type: "gaussian"
      std: 0.01
    }
    bias_filler {
      type: "constant"
    }
  }
}
layer {
  name: "relu5"
  type: "ReLU"
  bottom: "conv5"
  top: "conv5"
}
layer {
  name: "pool5"
  type: "Pooling"
  bottom: "conv5"
  top: "pool5"
  pooling_param {
    pool: AVE
    kernel_size: 3
    stride: 2
  }
}
layer {
  name: "ip1"
  type: "InnerProduct"
  bottom: "pool5"
  top: "ip1"
  param {
    lr_mult: 1
  }
  param {
    lr_mult: 2
  }
  inner_product_param {
    num_output: 1024
    weight_filler {
      type: "gaussian"
      std: 0.1
    }
    bias_filler {
      type: "constant"
    }
  }
}
layer {
  name: "ip2"
  type: "InnerProduct"
  bottom: "ip1"
  top: "ip2"
  param {
    lr_mult: 1
  }
  param {
    lr_mult: 2
  }
  inner_product_param {
    num_output: 512
    weight_filler {
      type: "gaussian"
      std: 0.1
    }
    bias_filler {
      type: "constant"
    }
  }
}
layer {
  name: "ip3"
  type: "InnerProduct"
  bottom: "ip2"
  top: "ip3"
  param {
    lr_mult: 1
  }
  param {
    lr_mult: 2
  }
  inner_product_param {
    num_output: 1
    weight_filler {
      type: "gaussian"
      std: 0.1
    }
    bias_filler {
      type: "constant"
    }
  }
}
layer {
  name: "loss"
  type: "HuberLoss"
  bottom: "ip3"
  bottom: "label"
  top: "loss"
  include {
    phase: TRAIN
  }
}
I0506 13:44:27.266367 21792 layer_factory.hpp:77] Creating layer parameters
I0506 13:44:27.266384 21792 net.cpp:94] Creating Layer parameters
I0506 13:44:27.266388 21792 net.cpp:409] parameters -> data
I0506 13:44:27.266398 21792 net.cpp:409] parameters -> label
I0506 13:44:27.266405 21792 hdf5_data_layer.cpp:79] Loading list of HDF5 filenames from: /home/purduethu/scratch/radon/d/deng106/CNNStatisticalModel/distributions/input/50_distributions_100_sample_size_train-parameters-path.txt
I0506 13:44:27.266420 21792 hdf5_data_layer.cpp:93] Number of HDF5 files: 1
I0506 13:44:27.266839 21792 hdf5.cpp:32] Datatype class: H5T_FLOAT
I0506 13:44:27.427510 21792 net.cpp:144] Setting up parameters
I0506 13:44:27.427542 21792 net.cpp:151] Top shape: 20 1 10 10 (2000)
I0506 13:44:27.427547 21792 net.cpp:151] Top shape: 20 (20)
I0506 13:44:27.427551 21792 net.cpp:159] Memory required for data: 8080
I0506 13:44:27.427557 21792 layer_factory.hpp:77] Creating layer conv1
I0506 13:44:27.427574 21792 net.cpp:94] Creating Layer conv1
I0506 13:44:27.427578 21792 net.cpp:435] conv1 <- data
I0506 13:44:27.427585 21792 net.cpp:409] conv1 -> conv1
I0506 13:44:27.431879 21792 net.cpp:144] Setting up conv1
I0506 13:44:27.431895 21792 net.cpp:151] Top shape: 20 64 10 10 (128000)
I0506 13:44:27.431900 21792 net.cpp:159] Memory required for data: 520080
I0506 13:44:27.431910 21792 layer_factory.hpp:77] Creating layer relu1
I0506 13:44:27.431916 21792 net.cpp:94] Creating Layer relu1
I0506 13:44:27.431921 21792 net.cpp:435] relu1 <- conv1
I0506 13:44:27.431924 21792 net.cpp:396] relu1 -> conv1 (in-place)
I0506 13:44:27.431932 21792 net.cpp:144] Setting up relu1
I0506 13:44:27.431936 21792 net.cpp:151] Top shape: 20 64 10 10 (128000)
I0506 13:44:27.431939 21792 net.cpp:159] Memory required for data: 1032080
I0506 13:44:27.431942 21792 layer_factory.hpp:77] Creating layer conv2
I0506 13:44:27.431951 21792 net.cpp:94] Creating Layer conv2
I0506 13:44:27.431954 21792 net.cpp:435] conv2 <- conv1
I0506 13:44:27.431959 21792 net.cpp:409] conv2 -> conv2
I0506 13:44:27.438084 21792 net.cpp:144] Setting up conv2
I0506 13:44:27.438098 21792 net.cpp:151] Top shape: 20 64 10 10 (128000)
I0506 13:44:27.438102 21792 net.cpp:159] Memory required for data: 1544080
I0506 13:44:27.438110 21792 layer_factory.hpp:77] Creating layer relu2
I0506 13:44:27.438117 21792 net.cpp:94] Creating Layer relu2
I0506 13:44:27.438120 21792 net.cpp:435] relu2 <- conv2
I0506 13:44:27.438125 21792 net.cpp:396] relu2 -> conv2 (in-place)
I0506 13:44:27.438133 21792 net.cpp:144] Setting up relu2
I0506 13:44:27.438136 21792 net.cpp:151] Top shape: 20 64 10 10 (128000)
I0506 13:44:27.438139 21792 net.cpp:159] Memory required for data: 2056080
I0506 13:44:27.438143 21792 layer_factory.hpp:77] Creating layer pool2
I0506 13:44:27.438148 21792 net.cpp:94] Creating Layer pool2
I0506 13:44:27.438151 21792 net.cpp:435] pool2 <- conv2
I0506 13:44:27.438155 21792 net.cpp:409] pool2 -> pool2
I0506 13:44:27.438217 21792 net.cpp:144] Setting up pool2
I0506 13:44:27.438225 21792 net.cpp:151] Top shape: 20 64 5 5 (32000)
I0506 13:44:27.438227 21792 net.cpp:159] Memory required for data: 2184080
I0506 13:44:27.438230 21792 layer_factory.hpp:77] Creating layer conv3
I0506 13:44:27.438240 21792 net.cpp:94] Creating Layer conv3
I0506 13:44:27.438249 21792 net.cpp:435] conv3 <- pool2
I0506 13:44:27.438254 21792 net.cpp:409] conv3 -> conv3
I0506 13:44:27.446343 21792 net.cpp:144] Setting up conv3
I0506 13:44:27.446357 21792 net.cpp:151] Top shape: 20 128 5 5 (64000)
I0506 13:44:27.446362 21792 net.cpp:159] Memory required for data: 2440080
I0506 13:44:27.446369 21792 layer_factory.hpp:77] Creating layer relu3
I0506 13:44:27.446375 21792 net.cpp:94] Creating Layer relu3
I0506 13:44:27.446379 21792 net.cpp:435] relu3 <- conv3
I0506 13:44:27.446383 21792 net.cpp:396] relu3 -> conv3 (in-place)
I0506 13:44:27.446390 21792 net.cpp:144] Setting up relu3
I0506 13:44:27.446395 21792 net.cpp:151] Top shape: 20 128 5 5 (64000)
I0506 13:44:27.446398 21792 net.cpp:159] Memory required for data: 2696080
I0506 13:44:27.446400 21792 layer_factory.hpp:77] Creating layer conv4
I0506 13:44:27.446409 21792 net.cpp:94] Creating Layer conv4
I0506 13:44:27.446413 21792 net.cpp:435] conv4 <- conv3
I0506 13:44:27.446418 21792 net.cpp:409] conv4 -> conv4
I0506 13:44:27.461666 21792 net.cpp:144] Setting up conv4
I0506 13:44:27.461683 21792 net.cpp:151] Top shape: 20 128 5 5 (64000)
I0506 13:44:27.461686 21792 net.cpp:159] Memory required for data: 2952080
I0506 13:44:27.461694 21792 layer_factory.hpp:77] Creating layer relu4
I0506 13:44:27.461699 21792 net.cpp:94] Creating Layer relu4
I0506 13:44:27.461704 21792 net.cpp:435] relu4 <- conv4
I0506 13:44:27.461707 21792 net.cpp:396] relu4 -> conv4 (in-place)
I0506 13:44:27.461714 21792 net.cpp:144] Setting up relu4
I0506 13:44:27.461719 21792 net.cpp:151] Top shape: 20 128 5 5 (64000)
I0506 13:44:27.461722 21792 net.cpp:159] Memory required for data: 3208080
I0506 13:44:27.461725 21792 layer_factory.hpp:77] Creating layer conv5
I0506 13:44:27.461732 21792 net.cpp:94] Creating Layer conv5
I0506 13:44:27.461736 21792 net.cpp:435] conv5 <- conv4
I0506 13:44:27.461741 21792 net.cpp:409] conv5 -> conv5
I0506 13:44:27.476218 21792 net.cpp:144] Setting up conv5
I0506 13:44:27.476234 21792 net.cpp:151] Top shape: 20 128 5 5 (64000)
I0506 13:44:27.476238 21792 net.cpp:159] Memory required for data: 3464080
I0506 13:44:27.476248 21792 layer_factory.hpp:77] Creating layer relu5
I0506 13:44:27.476253 21792 net.cpp:94] Creating Layer relu5
I0506 13:44:27.476256 21792 net.cpp:435] relu5 <- conv5
I0506 13:44:27.476261 21792 net.cpp:396] relu5 -> conv5 (in-place)
I0506 13:44:27.476269 21792 net.cpp:144] Setting up relu5
I0506 13:44:27.476272 21792 net.cpp:151] Top shape: 20 128 5 5 (64000)
I0506 13:44:27.476275 21792 net.cpp:159] Memory required for data: 3720080
I0506 13:44:27.476279 21792 layer_factory.hpp:77] Creating layer pool5
I0506 13:44:27.476284 21792 net.cpp:94] Creating Layer pool5
I0506 13:44:27.476287 21792 net.cpp:435] pool5 <- conv5
I0506 13:44:27.476291 21792 net.cpp:409] pool5 -> pool5
I0506 13:44:27.476332 21792 net.cpp:144] Setting up pool5
I0506 13:44:27.476339 21792 net.cpp:151] Top shape: 20 128 2 2 (10240)
I0506 13:44:27.476342 21792 net.cpp:159] Memory required for data: 3761040
I0506 13:44:27.476346 21792 layer_factory.hpp:77] Creating layer ip1
I0506 13:44:27.476356 21792 net.cpp:94] Creating Layer ip1
I0506 13:44:27.476359 21792 net.cpp:435] ip1 <- pool5
I0506 13:44:27.476364 21792 net.cpp:409] ip1 -> ip1
I0506 13:44:27.490288 21792 net.cpp:144] Setting up ip1
I0506 13:44:27.490305 21792 net.cpp:151] Top shape: 20 1024 (20480)
I0506 13:44:27.490309 21792 net.cpp:159] Memory required for data: 3842960
I0506 13:44:27.490315 21792 layer_factory.hpp:77] Creating layer ip2
I0506 13:44:27.490324 21792 net.cpp:94] Creating Layer ip2
I0506 13:44:27.490326 21792 net.cpp:435] ip2 <- ip1
I0506 13:44:27.490332 21792 net.cpp:409] ip2 -> ip2
I0506 13:44:27.503372 21792 net.cpp:144] Setting up ip2
I0506 13:44:27.503386 21792 net.cpp:151] Top shape: 20 512 (10240)
I0506 13:44:27.503391 21792 net.cpp:159] Memory required for data: 3883920
I0506 13:44:27.503396 21792 layer_factory.hpp:77] Creating layer ip3
I0506 13:44:27.503403 21792 net.cpp:94] Creating Layer ip3
I0506 13:44:27.503407 21792 net.cpp:435] ip3 <- ip2
I0506 13:44:27.503418 21792 net.cpp:409] ip3 -> ip3
I0506 13:44:27.503538 21792 net.cpp:144] Setting up ip3
I0506 13:44:27.503546 21792 net.cpp:151] Top shape: 20 1 (20)
I0506 13:44:27.503549 21792 net.cpp:159] Memory required for data: 3884000
I0506 13:44:27.503554 21792 layer_factory.hpp:77] Creating layer loss
I0506 13:44:27.503567 21792 net.cpp:94] Creating Layer loss
I0506 13:44:27.503571 21792 net.cpp:435] loss <- ip3
I0506 13:44:27.503574 21792 net.cpp:435] loss <- label
I0506 13:44:27.503578 21792 net.cpp:409] loss -> loss
I0506 13:44:27.503631 21792 net.cpp:144] Setting up loss
…
I0506 13:44:27.609630 21792 net.cpp:323] The NetState phase (0) differed from the phase (1) specified by a rule in layer intercept
I0506 13:44:27.609647 21792 net.cpp:323] The NetState phase (0) differed from the phase (1) specified by a rule in layer accuracy
I0506 13:44:27.609732 21792 net.cpp:52] Initializing net from parameters: 
state {
  phase: TRAIN
}
layer {
  name: "parameters"
  type: "HDF5Data"
  top: "data"
  top: "label"
  include {
    phase: TRAIN
  }
  hdf5_data_param {
    source: "/home/purduethu/scratch/radon/d/deng106/CNNStatisticalModel/distributions/input/50_distributions_100_sample_size_train-distributions-path.txt"
    batch_size: 20
  }
}
layer {
  name: "conv1"
  type: "Convolution"
  bottom: "data"
  top: "conv1"
  param {
    lr_mult: 1
  }
  param {
    lr_mult: 2
  }
  convolution_param {
    num_output: 64
    pad: 2
    kernel_size: 5
    stride: 1
    weight_filler {
      type: "gaussian"
      std: 0.0001
    }
    bias_filler {
      type: "constant"
    }
  }
}
layer {
  name: "relu1"
  type: "ReLU"
  bottom: "conv1"
  top: "conv1"
}
layer {
  name: "conv2"
  type: "Convolution"
  bottom: "conv1"
  top: "conv2"
  param {
    lr_mult: 1
  }
  param {
    lr_mult: 2
  }
  convolution_param {
    num_output: 64
    pad: 2
    kernel_size: 5
    stride: 1
    weight_filler {
      type: "gaussian"
      std: 0.01
    }
    bias_filler {
      type: "constant"
    }
  }
}
layer {
  name: "relu2"
  type: "ReLU"
  bottom: "conv2"
  top: "conv2"
}
layer {
  name: "pool2"
  type: "Pooling"
  bottom: "conv2"
  top: "pool2"
  pooling_param {
    pool: MAX
    kernel_size: 3
    stride: 2
  }
}
layer {
  name: "conv3"
  type: "Convolution"
  bottom: "pool2"
  top: "conv3"
  param {
    lr_mult: 1
  }
  param {
    lr_mult: 2
  }
  convolution_param {
    num_output: 128
    pad: 2
    kernel_size: 5
    stride: 1
    weight_filler {
      type: "gaussian"
      std: 0.01
    }
    bias_filler {
      type: "constant"
    }
  }
}
layer {
  name: "relu3"
  type: "ReLU"
  bottom: "conv3"
  top: "conv3"
}
layer {
  name: "conv4"
  type: "Convolution"
  bottom: "conv3"
  top: "conv4"
  param {
    lr_mult: 1
  }
  param {
    lr_mult: 2
  }
  convolution_param {
    num_output: 128
    pad: 2
    kernel_size: 5
    stride: 1
    weight_filler {
      type: "gaussian"
      std: 0.01
    }
    bias_filler {
      type: "constant"
    }
  }
}
layer {
  name: "relu4"
  type: "ReLU"
  bottom: "conv4"
  top: "conv4"
}
layer {
  name: "conv5"
  type: "Convolution"
  bottom: "conv4"
  top: "conv5"
  param {
    lr_mult: 1
  }
  param {
    lr_mult: 2
  }
  convolution_param {
    num_output: 128
    pad: 2
    kernel_size: 5
    stride: 1
    weight_filler {
      type: "gaussian"
      std: 0.01
    }
    bias_filler {
      type: "constant"
    }
  }
}
layer {
  name: "relu5"
  type: "ReLU"
  bottom: "conv5"
  top: "conv5"
}
layer {
  name: "pool5"
  type: "Pooling"
  bottom: "conv5"
  top: "pool5"
  pooling_param {
    pool: AVE
    kernel_size: 3
    stride: 2
  }
}
layer {
  name: "ip1"
  type: "InnerProduct"
  bottom: "pool5"
  top: "ip1"
  param {
    lr_mult: 1
  }
  param {
    lr_mult: 2
  }
  inner_product_param {
    num_output: 1024
    weight_filler {
      type: "gaussian"
      std: 0.1
    }
    bias_filler {
      type: "constant"
    }
  }
}
layer {
  name: "ip2"
  type: "InnerProduct"
  bottom: "ip1"
  top: "ip2"
  param {
    lr_mult: 1
  }
  param {
    lr_mult: 2
  }
  inner_product_param {
    num_output: 512
    weight_filler {
      type: "gaussian"
      std: 0.1
    }
    bias_filler {
      type: "constant"
    }
  }
}
layer {
  name: "ip3"
  type: "InnerProduct"
  bottom: "ip2"
  top: "ip3"
  param {
    lr_mult: 1
  }
  param {
    lr_mult: 2
  }
  inner_product_param {
    num_output: 50
    weight_filler {
      type: "gaussian"
      std: 0.1
    }
    bias_filler {
      type: "constant"
    }
  }
}
layer {
  name: "loss"
  type: "SoftmaxWithLoss"
  bottom: "ip3"
  bottom: "label"
  top: "loss"
}
I0506 13:44:27.609784 21792 layer_factory.hpp:77] Creating layer parameters
I0506 13:44:27.609792 21792 net.cpp:94] Creating Layer parameters
I0506 13:44:27.609797 21792 net.cpp:409] parameters -> data
I0506 13:44:27.609802 21792 net.cpp:409] parameters -> label
I0506 13:44:27.609808 21792 hdf5_data_layer.cpp:79] Loading list of HDF5 filenames from: /home/purduethu/scratch/radon/d/deng106/CNNStatisticalModel/distributions/input/50_distributions_100_sample_size_train-distributions-path.txt
I0506 13:44:27.609824 21792 hdf5_data_layer.cpp:93] Number of HDF5 files: 1
I0506 13:44:27.765578 21792 hdf5.cpp:35] Datatype class: H5T_INTEGER
I0506 13:44:27.768640 21792 net.cpp:144] Setting up parameters
I0506 13:44:27.768656 21792 net.cpp:151] Top shape: 20 1 10 10 (2000)
I0506 13:44:27.768662 21792 net.cpp:151] Top shape: 20 (20)
I0506 13:44:27.768666 21792 net.cpp:159] Memory required for data: 8080
I0506 13:44:27.768672 21792 layer_factory.hpp:77] Creating layer conv1
I0506 13:44:27.768689 21792 net.cpp:94] Creating Layer conv1
I0506 13:44:27.768693 21792 net.cpp:435] conv1 <- data
I0506 13:44:27.768699 21792 net.cpp:409] conv1 -> conv1
I0506 13:44:27.770587 21792 net.cpp:144] Setting up conv1
I0506 13:44:27.770601 21792 net.cpp:151] Top shape: 20 64 10 10 (128000)
I0506 13:44:27.770606 21792 net.cpp:159] Memory required for data: 520080
I0506 13:44:27.770615 21792 layer_factory.hpp:77] Creating layer relu1
I0506 13:44:27.770622 21792 net.cpp:94] Creating Layer relu1
I0506 13:44:27.770627 21792 net.cpp:435] relu1 <- conv1
I0506 13:44:27.770630 21792 net.cpp:396] relu1 -> conv1 (in-place)
I0506 13:44:27.770637 21792 net.cpp:144] Setting up relu1
I0506 13:44:27.770642 21792 net.cpp:151] Top shape: 20 64 10 10 (128000)
I0506 13:44:27.770645 21792 net.cpp:159] Memory required for data: 1032080
I0506 13:44:27.770648 21792 layer_factory.hpp:77] Creating layer conv2
I0506 13:44:27.770655 21792 net.cpp:94] Creating Layer conv2
I0506 13:44:27.770658 21792 net.cpp:435] conv2 <- conv1
I0506 13:44:27.770663 21792 net.cpp:409] conv2 -> conv2
I0506 13:44:27.776140 21792 net.cpp:144] Setting up conv2
I0506 13:44:27.776154 21792 net.cpp:151] Top shape: 20 64 10 10 (128000)
I0506 13:44:27.776159 21792 net.cpp:159] Memory required for data: 1544080
I0506 13:44:27.776166 21792 layer_factory.hpp:77] Creating layer relu2
I0506 13:44:27.776173 21792 net.cpp:94] Creating Layer relu2
I0506 13:44:27.776177 21792 net.cpp:435] relu2 <- conv2
I0506 13:44:27.776181 21792 net.cpp:396] relu2 -> conv2 (in-place)
I0506 13:44:27.776188 21792 net.cpp:144] Setting up relu2
I0506 13:44:27.776192 21792 net.cpp:151] Top shape: 20 64 10 10 (128000)
I0506 13:44:27.776196 21792 net.cpp:159] Memory required for data: 2056080
I0506 13:44:27.776198 21792 layer_factory.hpp:77] Creating layer pool2
I0506 13:44:27.776204 21792 net.cpp:94] Creating Layer pool2
I0506 13:44:27.776207 21792 net.cpp:435] pool2 <- conv2
I0506 13:44:27.776212 21792 net.cpp:409] pool2 -> pool2
I0506 13:44:27.776269 21792 net.cpp:144] Setting up pool2
I0506 13:44:27.776276 21792 net.cpp:151] Top shape: 20 64 5 5 (32000)
I0506 13:44:27.776279 21792 net.cpp:159] Memory required for data: 2184080
I0506 13:44:27.776283 21792 layer_factory.hpp:77] Creating layer conv3
I0506 13:44:27.776290 21792 net.cpp:94] Creating Layer conv3
I0506 13:44:27.776293 21792 net.cpp:435] conv3 <- pool2
I0506 13:44:27.776298 21792 net.cpp:409] conv3 -> conv3
I0506 13:44:27.785379 21792 net.cpp:144] Setting up conv3
I0506 13:44:27.785393 21792 net.cpp:151] Top shape: 20 128 5 5 (64000)
I0506 13:44:27.785398 21792 net.cpp:159] Memory required for data: 2440080
I0506 13:44:27.785405 21792 layer_factory.hpp:77] Creating layer relu3
I0506 13:44:27.785411 21792 net.cpp:94] Creating Layer relu3
I0506 13:44:27.785415 21792 net.cpp:435] relu3 <- conv3
I0506 13:44:27.785419 21792 net.cpp:396] relu3 -> conv3 (in-place)
I0506 13:44:27.785432 21792 net.cpp:144] Setting up relu3
I0506 13:44:27.785437 21792 net.cpp:151] Top shape: 20 128 5 5 (64000)
I0506 13:44:27.785440 21792 net.cpp:159] Memory required for data: 2696080
I0506 13:44:27.785444 21792 layer_factory.hpp:77] Creating layer conv4
I0506 13:44:27.785452 21792 net.cpp:94] Creating Layer conv4
I0506 13:44:27.785455 21792 net.cpp:435] conv4 <- conv3
I0506 13:44:27.785460 21792 net.cpp:409] conv4 -> conv4
I0506 13:44:27.800477 21792 net.cpp:144] Setting up conv4
I0506 13:44:27.800492 21792 net.cpp:151] Top shape: 20 128 5 5 (64000)
I0506 13:44:27.800495 21792 net.cpp:159] Memory required for data: 2952080
I0506 13:44:27.800501 21792 layer_factory.hpp:77] Creating layer relu4
I0506 13:44:27.800508 21792 net.cpp:94] Creating Layer relu4
I0506 13:44:27.800511 21792 net.cpp:435] relu4 <- conv4
I0506 13:44:27.800515 21792 net.cpp:396] relu4 -> conv4 (in-place)
I0506 13:44:27.800523 21792 net.cpp:144] Setting up relu4
I0506 13:44:27.800528 21792 net.cpp:151] Top shape: 20 128 5 5 (64000)
I0506 13:44:27.800530 21792 net.cpp:159] Memory required for data: 3208080
I0506 13:44:27.800534 21792 layer_factory.hpp:77] Creating layer conv5
I0506 13:44:27.800540 21792 net.cpp:94] Creating Layer conv5
I0506 13:44:27.800544 21792 net.cpp:435] conv5 <- conv4
I0506 13:44:27.800549 21792 net.cpp:409] conv5 -> conv5
I0506 13:44:27.815999 21792 net.cpp:144] Setting up conv5
I0506 13:44:27.816016 21792 net.cpp:151] Top shape: 20 128 5 5 (64000)
I0506 13:44:27.816020 21792 net.cpp:159] Memory required for data: 3464080
I0506 13:44:27.816030 21792 layer_factory.hpp:77] Creating layer relu5
I0506 13:44:27.816035 21792 net.cpp:94] Creating Layer relu5
I0506 13:44:27.816038 21792 net.cpp:435] relu5 <- conv5
I0506 13:44:27.816043 21792 net.cpp:396] relu5 -> conv5 (in-place)
I0506 13:44:27.816051 21792 net.cpp:144] Setting up relu5
I0506 13:44:27.816056 21792 net.cpp:151] Top shape: 20 128 5 5 (64000)
I0506 13:44:27.816058 21792 net.cpp:159] Memory required for data: 3720080
I0506 13:44:27.816061 21792 layer_factory.hpp:77] Creating layer pool5
I0506 13:44:27.816066 21792 net.cpp:94] Creating Layer pool5
I0506 13:44:27.816069 21792 net.cpp:435] pool5 <- conv5
I0506 13:44:27.816073 21792 net.cpp:409] pool5 -> pool5
I0506 13:44:27.816115 21792 net.cpp:144] Setting up pool5
I0506 13:44:27.816123 21792 net.cpp:151] Top shape: 20 128 2 2 (10240)
I0506 13:44:27.816126 21792 net.cpp:159] Memory required for data: 3761040
I0506 13:44:27.816130 21792 layer_factory.hpp:77] Creating layer ip1
I0506 13:44:27.816136 21792 net.cpp:94] Creating Layer ip1
I0506 13:44:27.816140 21792 net.cpp:435] ip1 <- pool5
I0506 13:44:27.816144 21792 net.cpp:409] ip1 -> ip1
I0506 13:44:27.829483 21792 net.cpp:144] Setting up ip1
I0506 13:44:27.829497 21792 net.cpp:151] Top shape: 20 1024 (20480)
I0506 13:44:27.829501 21792 net.cpp:159] Memory required for data: 3842960
I0506 13:44:27.829507 21792 layer_factory.hpp:77] Creating layer ip2
I0506 13:44:27.829515 21792 net.cpp:94] Creating Layer ip2
I0506 13:44:27.829519 21792 net.cpp:435] ip2 <- ip1
I0506 13:44:27.829524 21792 net.cpp:409] ip2 -> ip2
I0506 13:44:27.842818 21792 net.cpp:144] Setting up ip2
I0506 13:44:27.842833 21792 net.cpp:151] Top shape: 20 512 (10240)
I0506 13:44:27.842836 21792 net.cpp:159] Memory required for data: 3883920
I0506 13:44:27.842842 21792 layer_factory.hpp:77] Creating layer ip3
I0506 13:44:27.842849 21792 net.cpp:94] Creating Layer ip3
I0506 13:44:27.842854 21792 net.cpp:435] ip3 <- ip2
I0506 13:44:27.842859 21792 net.cpp:409] ip3 -> ip3
I0506 13:44:27.844413 21792 net.cpp:144] Setting up ip3
I0506 13:44:27.844426 21792 net.cpp:151] Top shape: 20 50 (1000)
I0506 13:44:27.844430 21792 net.cpp:159] Memory required for data: 3887920
I0506 13:44:27.844436 21792 layer_factory.hpp:77] Creating layer loss
I0506 13:44:27.844444 21792 net.cpp:94] Creating Layer loss
I0506 13:44:27.844447 21792 net.cpp:435] loss <- ip3
I0506 13:44:27.844451 21792 net.cpp:435] loss <- label
I0506 13:44:27.844456 21792 net.cpp:409] loss -> loss
I0506 13:44:27.844465 21792 layer_factory.hpp:77] Creating layer loss
…
I0506 13:44:27.845013 21792 solver.cpp:181] Creating test net (#0) specified by net file: ./protocol/dis_50_100_dimension.protocol_distribution
I0506 13:44:27.845041 21792 net.cpp:323] The NetState phase (1) differed from the phase (0) specified by a rule in layer parameters
I0506 13:44:27.845134 21792 net.cpp:52] Initializing net from parameters: 
state {
  phase: TEST
}
layer {
  name: "intercept"
  type: "HDF5Data"
  top: "data"
  top: "label"
  include {
    phase: TEST
  }
  hdf5_data_param {
    source: "/home/purduethu/scratch/radon/d/deng106/CNNStatisticalModel/distributions/input/50_distributions_100_sample_size_test-distributions-path.txt"
    batch_size: 20
  }
}
layer {
  name: "conv1"
  type: "Convolution"
  bottom: "data"
  top: "conv1"
  param {
    lr_mult: 1
  }
  param {
    lr_mult: 2
  }
  convolution_param {
    num_output: 64
    pad: 2
    kernel_size: 5
    stride: 1
    weight_filler {
      type: "gaussian"
      std: 0.0001
    }
    bias_filler {
      type: "constant"
    }
  }
}
layer {
  name: "relu1"
  type: "ReLU"
  bottom: "conv1"
  top: "conv1"
}
layer {
  name: "conv2"
  type: "Convolution"
  bottom: "conv1"
  top: "conv2"
  param {
    lr_mult: 1
  }
  param {
    lr_mult: 2
  }
  convolution_param {
    num_output: 64
    pad: 2
    kernel_size: 5
    stride: 1
    weight_filler {
      type: "gaussian"
      std: 0.01
    }
    bias_filler {
      type: "constant"
    }
  }
}
layer {
  name: "relu2"
  type: "ReLU"
  bottom: "conv2"
  top: "conv2"
}
layer {
  name: "pool2"
  type: "Pooling"
  bottom: "conv2"
  top: "pool2"
  pooling_param {
    pool: MAX
    kernel_size: 3
    stride: 2
  }
}
layer {
  name: "conv3"
  type: "Convolution"
  bottom: "pool2"
  top: "conv3"
  param {
    lr_mult: 1
  }
  param {
    lr_mult: 2
  }
  convolution_param {
    num_output: 128
    pad: 2
    kernel_size: 5
    stride: 1
    weight_filler {
      type: "gaussian"
      std: 0.01
    }
    bias_filler {
      type: "constant"
    }
  }
}
layer {
  name: "relu3"
  type: "ReLU"
  bottom: "conv3"
  top: "conv3"
}
layer {
  name: "conv4"
  type: "Convolution"
  bottom: "conv3"
  top: "conv4"
  param {
    lr_mult: 1
  }
  param {
    lr_mult: 2
  }
  convolution_param {
    num_output: 128
    pad: 2
    kernel_size: 5
    stride: 1
    weight_filler {
      type: "gaussian"
      std: 0.01
    }
    bias_filler {
      type: "constant"
    }
  }
}
layer {
  name: "relu4"
  type: "ReLU"
  bottom: "conv4"
  top: "conv4"
}
layer {
  name: "conv5"
  type: "Convolution"
  bottom: "conv4"
  top: "conv5"
  param {
    lr_mult: 1
  }
  param {
    lr_mult: 2
  }
  convolution_param {
    num_output: 128
    pad: 2
    kernel_size: 5
    stride: 1
    weight_filler {
      type: "gaussian"
      std: 0.01
    }
    bias_filler {
      type: "constant"
    }
  }
}
layer {
  name: "relu5"
  type: "ReLU"
  bottom: "conv5"
  top: "conv5"
}
layer {
  name: "pool5"
  type: "Pooling"
  bottom: "conv5"
  top: "pool5"
  pooling_param {
    pool: AVE
    kernel_size: 3
    stride: 2
  }
}
layer {
  name: "ip1"
  type: "InnerProduct"
  bottom: "pool5"
  top: "ip1"
  param {
    lr_mult: 1
  }
  param {
    lr_mult: 2
  }
  inner_product_param {
    num_output: 1024
    weight_filler {
      type: "gaussian"
      std: 0.1
    }
    bias_filler {
      type: "constant"
    }
  }
}
layer {
  name: "ip2"
  type: "InnerProduct"
  bottom: "ip1"
  top: "ip2"
  param {
    lr_mult: 1
  }
  param {
    lr_mult: 2
  }
  inner_product_param {
    num_output: 512
    weight_filler {
      type: "gaussian"
      std: 0.1
    }
    bias_filler {
      type: "constant"
    }
  }
}
layer {
  name: "ip3"
  type: "InnerProduct"
  bottom: "ip2"
  top: "ip3"
  param {
    lr_mult: 1
  }
  param {
    lr_mult: 2
  }
  inner_product_param {
    num_output: 50
    weight_filler {
      type: "gaussian"
      std: 0.1
    }
    bias_filler {
      type: "constant"
    }
  }
}
layer {
  name: "accuracy"
  type: "Accuracy"
  bottom: "ip3"
  bottom: "label"
  top: "accuracy"
  include {
    phase: TEST
  }
}
layer {
  name: "loss"
  type: "SoftmaxWithLoss"
  bottom: "ip3"
  bottom: "label"
  top: "loss"
}
I0506 13:44:27.845199 21792 layer_factory.hpp:77] Creating layer intercept
I0506 13:44:27.845207 21792 net.cpp:94] Creating Layer intercept
I0506 13:44:27.845211 21792 net.cpp:409] intercept -> data
I0506 13:44:27.845218 21792 net.cpp:409] intercept -> label
I0506 13:44:27.845224 21792 hdf5_data_layer.cpp:79] Loading list of HDF5 filenames from: /home/purduethu/scratch/radon/d/deng106/CNNStatisticalModel/distributions/input/50_distributions_100_sample_size_test-distributions-path.txt
I0506 13:44:27.845243 21792 hdf5_data_layer.cpp:93] Number of HDF5 files: 1
I0506 13:44:27.886173 21792 net.cpp:144] Setting up intercept
I0506 13:44:27.886206 21792 net.cpp:151] Top shape: 20 1 10 10 (2000)
I0506 13:44:27.886212 21792 net.cpp:151] Top shape: 20 (20)
I0506 13:44:27.886215 21792 net.cpp:159] Memory required for data: 8080
I0506 13:44:27.886221 21792 layer_factory.hpp:77] Creating layer label_intercept_1_split
I0506 13:44:27.886242 21792 net.cpp:94] Creating Layer label_intercept_1_split
I0506 13:44:27.886246 21792 net.cpp:435] label_intercept_1_split <- label
I0506 13:44:27.886252 21792 net.cpp:409] label_intercept_1_split -> label_intercept_1_split_0
I0506 13:44:27.886260 21792 net.cpp:409] label_intercept_1_split -> label_intercept_1_split_1
I0506 13:44:27.886307 21792 net.cpp:144] Setting up label_intercept_1_split
I0506 13:44:27.886312 21792 net.cpp:151] Top shape: 20 (20)
I0506 13:44:27.886317 21792 net.cpp:151] Top shape: 20 (20)
I0506 13:44:27.886319 21792 net.cpp:159] Memory required for data: 8240
I0506 13:44:27.886322 21792 layer_factory.hpp:77] Creating layer conv1
I0506 13:44:27.886334 21792 net.cpp:94] Creating Layer conv1
I0506 13:44:27.886337 21792 net.cpp:435] conv1 <- data
I0506 13:44:27.886343 21792 net.cpp:409] conv1 -> conv1
I0506 13:44:27.887228 21792 net.cpp:144] Setting up conv1
I0506 13:44:27.887243 21792 net.cpp:151] Top shape: 20 64 10 10 (128000)
I0506 13:44:27.887248 21792 net.cpp:159] Memory required for data: 520240
I0506 13:44:27.887256 21792 layer_factory.hpp:77] Creating layer relu1
I0506 13:44:27.887264 21792 net.cpp:94] Creating Layer relu1
I0506 13:44:27.887266 21792 net.cpp:435] relu1 <- conv1
I0506 13:44:27.887271 21792 net.cpp:396] relu1 -> conv1 (in-place)
I0506 13:44:27.887279 21792 net.cpp:144] Setting up relu1
I0506 13:44:27.887282 21792 net.cpp:151] Top shape: 20 64 10 10 (128000)
I0506 13:44:27.887292 21792 net.cpp:159] Memory required for data: 1032240
I0506 13:44:27.887296 21792 layer_factory.hpp:77] Creating layer conv2
I0506 13:44:27.887305 21792 net.cpp:94] Creating Layer conv2
I0506 13:44:27.887307 21792 net.cpp:435] conv2 <- conv1
I0506 13:44:27.887312 21792 net.cpp:409] conv2 -> conv2
I0506 13:44:27.891474 21792 net.cpp:144] Setting up conv2
I0506 13:44:27.891487 21792 net.cpp:151] Top shape: 20 64 10 10 (128000)
I0506 13:44:27.891491 21792 net.cpp:159] Memory required for data: 1544240
I0506 13:44:27.891499 21792 layer_factory.hpp:77] Creating layer relu2
I0506 13:44:27.891505 21792 net.cpp:94] Creating Layer relu2
I0506 13:44:27.891510 21792 net.cpp:435] relu2 <- conv2
I0506 13:44:27.891515 21792 net.cpp:396] relu2 -> conv2 (in-place)
I0506 13:44:27.891520 21792 net.cpp:144] Setting up relu2
I0506 13:44:27.891525 21792 net.cpp:151] Top shape: 20 64 10 10 (128000)
I0506 13:44:27.891527 21792 net.cpp:159] Memory required for data: 2056240
I0506 13:44:27.891530 21792 layer_factory.hpp:77] Creating layer pool2
I0506 13:44:27.891537 21792 net.cpp:94] Creating Layer pool2
I0506 13:44:27.891541 21792 net.cpp:435] pool2 <- conv2
I0506 13:44:27.891546 21792 net.cpp:409] pool2 -> pool2
I0506 13:44:27.891607 21792 net.cpp:144] Setting up pool2
I0506 13:44:27.891614 21792 net.cpp:151] Top shape: 20 64 5 5 (32000)
I0506 13:44:27.891618 21792 net.cpp:159] Memory required for data: 2184240
I0506 13:44:27.891620 21792 layer_factory.hpp:77] Creating layer conv3
I0506 13:44:27.891628 21792 net.cpp:94] Creating Layer conv3
I0506 13:44:27.891633 21792 net.cpp:435] conv3 <- pool2
I0506 13:44:27.891638 21792 net.cpp:409] conv3 -> conv3
I0506 13:44:27.897743 21792 net.cpp:144] Setting up conv3
I0506 13:44:27.897758 21792 net.cpp:151] Top shape: 20 128 5 5 (64000)
I0506 13:44:27.897761 21792 net.cpp:159] Memory required for data: 2440240
I0506 13:44:27.897769 21792 layer_factory.hpp:77] Creating layer relu3
I0506 13:44:27.897778 21792 net.cpp:94] Creating Layer relu3
I0506 13:44:27.897781 21792 net.cpp:435] relu3 <- conv3
I0506 13:44:27.897786 21792 net.cpp:396] relu3 -> conv3 (in-place)
I0506 13:44:27.897794 21792 net.cpp:144] Setting up relu3
I0506 13:44:27.897797 21792 net.cpp:151] Top shape: 20 128 5 5 (64000)
I0506 13:44:27.897800 21792 net.cpp:159] Memory required for data: 2696240
I0506 13:44:27.897804 21792 layer_factory.hpp:77] Creating layer conv4
I0506 13:44:27.897812 21792 net.cpp:94] Creating Layer conv4
I0506 13:44:27.897815 21792 net.cpp:435] conv4 <- conv3
I0506 13:44:27.897820 21792 net.cpp:409] conv4 -> conv4
I0506 13:44:27.910478 21792 net.cpp:144] Setting up conv4
I0506 13:44:27.910493 21792 net.cpp:151] Top shape: 20 128 5 5 (64000)
I0506 13:44:27.910497 21792 net.cpp:159] Memory required for data: 2952240
I0506 13:44:27.910503 21792 layer_factory.hpp:77] Creating layer relu4
I0506 13:44:27.910509 21792 net.cpp:94] Creating Layer relu4
I0506 13:44:27.910513 21792 net.cpp:435] relu4 <- conv4
I0506 13:44:27.910517 21792 net.cpp:396] relu4 -> conv4 (in-place)
I0506 13:44:27.910524 21792 net.cpp:144] Setting up relu4
I0506 13:44:27.910528 21792 net.cpp:151] Top shape: 20 128 5 5 (64000)
I0506 13:44:27.910531 21792 net.cpp:159] Memory required for data: 3208240
I0506 13:44:27.910534 21792 layer_factory.hpp:77] Creating layer conv5
I0506 13:44:27.910544 21792 net.cpp:94] Creating Layer conv5
I0506 13:44:27.910548 21792 net.cpp:435] conv5 <- conv4
I0506 13:44:27.910552 21792 net.cpp:409] conv5 -> conv5
I0506 13:44:27.923120 21792 net.cpp:144] Setting up conv5
I0506 13:44:27.923135 21792 net.cpp:151] Top shape: 20 128 5 5 (64000)
I0506 13:44:27.923140 21792 net.cpp:159] Memory required for data: 3464240
I0506 13:44:27.923149 21792 layer_factory.hpp:77] Creating layer relu5
I0506 13:44:27.923156 21792 net.cpp:94] Creating Layer relu5
I0506 13:44:27.923159 21792 net.cpp:435] relu5 <- conv5
I0506 13:44:27.923164 21792 net.cpp:396] relu5 -> conv5 (in-place)
I0506 13:44:27.923171 21792 net.cpp:144] Setting up relu5
I0506 13:44:27.923176 21792 net.cpp:151] Top shape: 20 128 5 5 (64000)
I0506 13:44:27.923183 21792 net.cpp:159] Memory required for data: 3720240
I0506 13:44:27.923187 21792 layer_factory.hpp:77] Creating layer pool5
I0506 13:44:27.923192 21792 net.cpp:94] Creating Layer pool5
I0506 13:44:27.923194 21792 net.cpp:435] pool5 <- conv5
I0506 13:44:27.923199 21792 net.cpp:409] pool5 -> pool5
I0506 13:44:27.923246 21792 net.cpp:144] Setting up pool5
I0506 13:44:27.923254 21792 net.cpp:151] Top shape: 20 128 2 2 (10240)
I0506 13:44:27.923256 21792 net.cpp:159] Memory required for data: 3761200
I0506 13:44:27.923259 21792 layer_factory.hpp:77] Creating layer ip1
I0506 13:44:27.923267 21792 net.cpp:94] Creating Layer ip1
I0506 13:44:27.923270 21792 net.cpp:435] ip1 <- pool5
I0506 13:44:27.923275 21792 net.cpp:409] ip1 -> ip1
I0506 13:44:27.936491 21792 net.cpp:144] Setting up ip1
I0506 13:44:27.936503 21792 net.cpp:151] Top shape: 20 1024 (20480)
I0506 13:44:27.936506 21792 net.cpp:159] Memory required for data: 3843120
I0506 13:44:27.936512 21792 layer_factory.hpp:77] Creating layer ip2
I0506 13:44:27.936519 21792 net.cpp:94] Creating Layer ip2
I0506 13:44:27.936523 21792 net.cpp:435] ip2 <- ip1
I0506 13:44:27.936528 21792 net.cpp:409] ip2 -> ip2
I0506 13:44:27.949693 21792 net.cpp:144] Setting up ip2
I0506 13:44:27.949708 21792 net.cpp:151] Top shape: 20 512 (10240)
I0506 13:44:27.949712 21792 net.cpp:159] Memory required for data: 3884080
I0506 13:44:27.949717 21792 layer_factory.hpp:77] Creating layer ip3
I0506 13:44:27.949728 21792 net.cpp:94] Creating Layer ip3
I0506 13:44:27.949733 21792 net.cpp:435] ip3 <- ip2
I0506 13:44:27.949738 21792 net.cpp:409] ip3 -> ip3
I0506 13:44:27.950484 21792 net.cpp:144] Setting up ip3
I0506 13:44:27.950492 21792 net.cpp:151] Top shape: 20 50 (1000)
I0506 13:44:27.950495 21792 net.cpp:159] Memory required for data: 3888080
I0506 13:44:27.950500 21792 layer_factory.hpp:77] Creating layer ip3_ip3_0_split
I0506 13:44:27.950507 21792 net.cpp:94] Creating Layer ip3_ip3_0_split
I0506 13:44:27.950510 21792 net.cpp:435] ip3_ip3_0_split <- ip3
I0506 13:44:27.950515 21792 net.cpp:409] ip3_ip3_0_split -> ip3_ip3_0_split_0
I0506 13:44:27.950520 21792 net.cpp:409] ip3_ip3_0_split -> ip3_ip3_0_split_1
I0506 13:44:27.950567 21792 net.cpp:144] Setting up ip3_ip3_0_split
I0506 13:44:27.950573 21792 net.cpp:151] Top shape: 20 50 (1000)
I0506 13:44:27.950577 21792 net.cpp:151] Top shape: 20 50 (1000)
I0506 13:44:27.950579 21792 net.cpp:159] Memory required for data: 3896080
I0506 13:44:27.950582 21792 layer_factory.hpp:77] Creating layer accuracy
I0506 13:44:27.950589 21792 net.cpp:94] Creating Layer accuracy
I0506 13:44:27.950592 21792 net.cpp:435] accuracy <- ip3_ip3_0_split_0
I0506 13:44:27.950597 21792 net.cpp:435] accuracy <- label_intercept_1_split_0
I0506 13:44:27.950600 21792 net.cpp:409] accuracy -> accuracy
…
