…
I0501 18:40:46.113363 14080 net.cpp:323] The NetState phase (0) differed from the phase (1) specified by a rule in layer intercept
I0501 18:40:46.113380 14080 net.cpp:323] The NetState phase (0) differed from the phase (1) specified by a rule in layer loss
I0501 18:40:46.113471 14080 net.cpp:52] Initializing net from parameters: 
state {
  phase: TRAIN
}
layer {
  name: "parameters"
  type: "HDF5Data"
  top: "data"
  top: "label"
  include {
    phase: TRAIN
  }
  hdf5_data_param {
    source: "/home/purduethu/scratch/radon/d/deng106/CNNStatisticalModel/distributions/input/50_distributions_400_sample_size_train-parameters-path.txt"
    batch_size: 20
  }
}
layer {
  name: "conv1"
  type: "Convolution"
  bottom: "data"
  top: "conv1"
  param {
    lr_mult: 1
  }
  param {
    lr_mult: 2
  }
  convolution_param {
    num_output: 64
    pad: 2
    kernel_size: 5
    stride: 1
    weight_filler {
      type: "gaussian"
      std: 0.0001
    }
    bias_filler {
      type: "constant"
    }
  }
}
layer {
  name: "relu1"
  type: "ReLU"
  bottom: "conv1"
  top: "conv1"
}
layer {
  name: "conv2"
  type: "Convolution"
  bottom: "conv1"
  top: "conv2"
  param {
    lr_mult: 1
  }
  param {
    lr_mult: 2
  }
  convolution_param {
    num_output: 64
    pad: 2
    kernel_size: 5
    stride: 1
    weight_filler {
      type: "gaussian"
      std: 0.01
    }
    bias_filler {
      type: "constant"
    }
  }
}
layer {
  name: "relu2"
  type: "ReLU"
  bottom: "conv2"
  top: "conv2"
}
layer {
  name: "pool2"
  type: "Pooling"
  bottom: "conv2"
  top: "pool2"
  pooling_param {
    pool: MAX
    kernel_size: 3
    stride: 2
  }
}
layer {
  name: "conv3"
  type: "Convolution"
  bottom: "pool2"
  top: "conv3"
  param {
    lr_mult: 1
  }
  param {
    lr_mult: 2
  }
  convolution_param {
    num_output: 64
    pad: 2
    kernel_size: 5
    stride: 1
    weight_filler {
      type: "gaussian"
      std: 0.01
    }
    bias_filler {
      type: "constant"
    }
  }
}
layer {
  name: "relu3"
  type: "ReLU"
  bottom: "conv3"
  top: "conv3"
}
layer {
  name: "conv4"
  type: "Convolution"
  bottom: "conv3"
  top: "conv4"
  param {
    lr_mult: 1
  }
  param {
    lr_mult: 2
  }
  convolution_param {
    num_output: 64
    pad: 2
    kernel_size: 5
    stride: 1
    weight_filler {
      type: "gaussian"
      std: 0.01
    }
    bias_filler {
      type: "constant"
    }
  }
}
layer {
  name: "relu4"
  type: "ReLU"
  bottom: "conv4"
  top: "conv4"
}
layer {
  name: "conv5"
  type: "Convolution"
  bottom: "conv4"
  top: "conv5"
  param {
    lr_mult: 1
  }
  param {
    lr_mult: 2
  }
  convolution_param {
    num_output: 64
    pad: 2
    kernel_size: 5
    stride: 1
    weight_filler {
      type: "gaussian"
      std: 0.01
    }
    bias_filler {
      type: "constant"
    }
  }
}
layer {
  name: "relu5"
  type: "ReLU"
  bottom: "conv5"
  top: "conv5"
}
layer {
  name: "pool5"
  type: "Pooling"
  bottom: "conv5"
  top: "pool5"
  pooling_param {
    pool: AVE
    kernel_size: 3
    stride: 2
  }
}
layer {
  name: "ip1"
  type: "InnerProduct"
  bottom: "pool5"
  top: "ip1"
  param {
    lr_mult: 1
  }
  param {
    lr_mult: 2
  }
  inner_product_param {
    num_output: 64
    weight_filler {
      type: "gaussian"
      std: 0.1
    }
    bias_filler {
      type: "constant"
    }
  }
}
layer {
  name: "ip2"
  type: "InnerProduct"
  bottom: "ip1"
  top: "ip2"
  param {
    lr_mult: 1
  }
  param {
    lr_mult: 2
  }
  inner_product_param {
    num_output: 64
    weight_filler {
      type: "gaussian"
      std: 0.1
    }
    bias_filler {
      type: "constant"
    }
  }
}
layer {
  name: "ip3"
  type: "InnerProduct"
  bottom: "ip2"
  top: "ip3"
  param {
    lr_mult: 1
  }
  param {
    lr_mult: 2
  }
  inner_product_param {
    num_output: 1
    weight_filler {
      type: "gaussian"
      std: 0.1
    }
    bias_filler {
      type: "constant"
    }
  }
}
layer {
  name: "loss"
  type: "HuberLoss"
  bottom: "ip3"
  bottom: "label"
  top: "loss"
  include {
    phase: TRAIN
  }
}
I0501 18:40:46.113545 14080 layer_factory.hpp:77] Creating layer parameters
I0501 18:40:46.113559 14080 net.cpp:94] Creating Layer parameters
I0501 18:40:46.113565 14080 net.cpp:409] parameters -> data
I0501 18:40:46.113584 14080 net.cpp:409] parameters -> label
I0501 18:40:46.113595 14080 hdf5_data_layer.cpp:79] Loading list of HDF5 filenames from: /home/purduethu/scratch/radon/d/deng106/CNNStatisticalModel/distributions/input/50_distributions_400_sample_size_train-parameters-path.txt
I0501 18:40:46.113618 14080 hdf5_data_layer.cpp:93] Number of HDF5 files: 1
I0501 18:40:46.114085 14080 hdf5.cpp:32] Datatype class: H5T_FLOAT
I0501 18:40:46.756764 14080 net.cpp:144] Setting up parameters
I0501 18:40:46.756798 14080 net.cpp:151] Top shape: 20 1 20 20 (8000)
I0501 18:40:46.756803 14080 net.cpp:151] Top shape: 20 (20)
I0501 18:40:46.756806 14080 net.cpp:159] Memory required for data: 32080
I0501 18:40:46.756814 14080 layer_factory.hpp:77] Creating layer conv1
I0501 18:40:46.756832 14080 net.cpp:94] Creating Layer conv1
I0501 18:40:46.756839 14080 net.cpp:435] conv1 <- data
I0501 18:40:46.756850 14080 net.cpp:409] conv1 -> conv1
I0501 18:40:46.761659 14080 net.cpp:144] Setting up conv1
I0501 18:40:46.761674 14080 net.cpp:151] Top shape: 20 64 20 20 (512000)
I0501 18:40:46.761679 14080 net.cpp:159] Memory required for data: 2080080
I0501 18:40:46.761690 14080 layer_factory.hpp:77] Creating layer relu1
I0501 18:40:46.761698 14080 net.cpp:94] Creating Layer relu1
I0501 18:40:46.761703 14080 net.cpp:435] relu1 <- conv1
I0501 18:40:46.761706 14080 net.cpp:396] relu1 -> conv1 (in-place)
I0501 18:40:46.761723 14080 net.cpp:144] Setting up relu1
I0501 18:40:46.761728 14080 net.cpp:151] Top shape: 20 64 20 20 (512000)
I0501 18:40:46.761730 14080 net.cpp:159] Memory required for data: 4128080
I0501 18:40:46.761734 14080 layer_factory.hpp:77] Creating layer conv2
I0501 18:40:46.761741 14080 net.cpp:94] Creating Layer conv2
I0501 18:40:46.761744 14080 net.cpp:435] conv2 <- conv1
I0501 18:40:46.761749 14080 net.cpp:409] conv2 -> conv2
I0501 18:40:46.772884 14080 net.cpp:144] Setting up conv2
I0501 18:40:46.772900 14080 net.cpp:151] Top shape: 20 64 20 20 (512000)
I0501 18:40:46.772904 14080 net.cpp:159] Memory required for data: 6176080
I0501 18:40:46.772912 14080 layer_factory.hpp:77] Creating layer relu2
I0501 18:40:46.772918 14080 net.cpp:94] Creating Layer relu2
I0501 18:40:46.772922 14080 net.cpp:435] relu2 <- conv2
I0501 18:40:46.772927 14080 net.cpp:396] relu2 -> conv2 (in-place)
I0501 18:40:46.772934 14080 net.cpp:144] Setting up relu2
I0501 18:40:46.772939 14080 net.cpp:151] Top shape: 20 64 20 20 (512000)
I0501 18:40:46.772943 14080 net.cpp:159] Memory required for data: 8224080
I0501 18:40:46.772945 14080 layer_factory.hpp:77] Creating layer pool2
I0501 18:40:46.772953 14080 net.cpp:94] Creating Layer pool2
I0501 18:40:46.772964 14080 net.cpp:435] pool2 <- conv2
I0501 18:40:46.772969 14080 net.cpp:409] pool2 -> pool2
I0501 18:40:46.773012 14080 net.cpp:144] Setting up pool2
I0501 18:40:46.773020 14080 net.cpp:151] Top shape: 20 64 10 10 (128000)
I0501 18:40:46.773023 14080 net.cpp:159] Memory required for data: 8736080
I0501 18:40:46.773027 14080 layer_factory.hpp:77] Creating layer conv3
I0501 18:40:46.773035 14080 net.cpp:94] Creating Layer conv3
I0501 18:40:46.773038 14080 net.cpp:435] conv3 <- pool2
I0501 18:40:46.773043 14080 net.cpp:409] conv3 -> conv3
I0501 18:40:46.778286 14080 net.cpp:144] Setting up conv3
I0501 18:40:46.778301 14080 net.cpp:151] Top shape: 20 64 10 10 (128000)
I0501 18:40:46.778304 14080 net.cpp:159] Memory required for data: 9248080
I0501 18:40:46.778312 14080 layer_factory.hpp:77] Creating layer relu3
I0501 18:40:46.778318 14080 net.cpp:94] Creating Layer relu3
I0501 18:40:46.778321 14080 net.cpp:435] relu3 <- conv3
I0501 18:40:46.778326 14080 net.cpp:396] relu3 -> conv3 (in-place)
I0501 18:40:46.778333 14080 net.cpp:144] Setting up relu3
I0501 18:40:46.778337 14080 net.cpp:151] Top shape: 20 64 10 10 (128000)
I0501 18:40:46.778342 14080 net.cpp:159] Memory required for data: 9760080
I0501 18:40:46.778344 14080 layer_factory.hpp:77] Creating layer conv4
I0501 18:40:46.778352 14080 net.cpp:94] Creating Layer conv4
I0501 18:40:46.778357 14080 net.cpp:435] conv4 <- conv3
I0501 18:40:46.778362 14080 net.cpp:409] conv4 -> conv4
I0501 18:40:46.783627 14080 net.cpp:144] Setting up conv4
I0501 18:40:46.783641 14080 net.cpp:151] Top shape: 20 64 10 10 (128000)
I0501 18:40:46.783646 14080 net.cpp:159] Memory required for data: 10272080
I0501 18:40:46.783653 14080 layer_factory.hpp:77] Creating layer relu4
I0501 18:40:46.783658 14080 net.cpp:94] Creating Layer relu4
I0501 18:40:46.783661 14080 net.cpp:435] relu4 <- conv4
I0501 18:40:46.783666 14080 net.cpp:396] relu4 -> conv4 (in-place)
I0501 18:40:46.783674 14080 net.cpp:144] Setting up relu4
I0501 18:40:46.783677 14080 net.cpp:151] Top shape: 20 64 10 10 (128000)
I0501 18:40:46.783681 14080 net.cpp:159] Memory required for data: 10784080
I0501 18:40:46.783684 14080 layer_factory.hpp:77] Creating layer conv5
I0501 18:40:46.783691 14080 net.cpp:94] Creating Layer conv5
I0501 18:40:46.783695 14080 net.cpp:435] conv5 <- conv4
I0501 18:40:46.783700 14080 net.cpp:409] conv5 -> conv5
I0501 18:40:46.788975 14080 net.cpp:144] Setting up conv5
I0501 18:40:46.788988 14080 net.cpp:151] Top shape: 20 64 10 10 (128000)
I0501 18:40:46.788992 14080 net.cpp:159] Memory required for data: 11296080
I0501 18:40:46.789000 14080 layer_factory.hpp:77] Creating layer relu5
I0501 18:40:46.789006 14080 net.cpp:94] Creating Layer relu5
I0501 18:40:46.789011 14080 net.cpp:435] relu5 <- conv5
I0501 18:40:46.789014 14080 net.cpp:396] relu5 -> conv5 (in-place)
I0501 18:40:46.789021 14080 net.cpp:144] Setting up relu5
I0501 18:40:46.789026 14080 net.cpp:151] Top shape: 20 64 10 10 (128000)
I0501 18:40:46.789029 14080 net.cpp:159] Memory required for data: 11808080
I0501 18:40:46.789032 14080 layer_factory.hpp:77] Creating layer pool5
I0501 18:40:46.789038 14080 net.cpp:94] Creating Layer pool5
I0501 18:40:46.789041 14080 net.cpp:435] pool5 <- conv5
I0501 18:40:46.789046 14080 net.cpp:409] pool5 -> pool5
I0501 18:40:46.789078 14080 net.cpp:144] Setting up pool5
I0501 18:40:46.789085 14080 net.cpp:151] Top shape: 20 64 5 5 (32000)
I0501 18:40:46.789089 14080 net.cpp:159] Memory required for data: 11936080
I0501 18:40:46.789093 14080 layer_factory.hpp:77] Creating layer ip1
I0501 18:40:46.789101 14080 net.cpp:94] Creating Layer ip1
I0501 18:40:46.789105 14080 net.cpp:435] ip1 <- pool5
I0501 18:40:46.789110 14080 net.cpp:409] ip1 -> ip1
I0501 18:40:46.791600 14080 net.cpp:144] Setting up ip1
I0501 18:40:46.791609 14080 net.cpp:151] Top shape: 20 64 (1280)
I0501 18:40:46.791611 14080 net.cpp:159] Memory required for data: 11941200
I0501 18:40:46.791616 14080 layer_factory.hpp:77] Creating layer ip2
I0501 18:40:46.791622 14080 net.cpp:94] Creating Layer ip2
I0501 18:40:46.791630 14080 net.cpp:435] ip2 <- ip1
I0501 18:40:46.791635 14080 net.cpp:409] ip2 -> ip2
I0501 18:40:46.791801 14080 net.cpp:144] Setting up ip2
I0501 18:40:46.791807 14080 net.cpp:151] Top shape: 20 64 (1280)
I0501 18:40:46.791810 14080 net.cpp:159] Memory required for data: 11946320
I0501 18:40:46.791815 14080 layer_factory.hpp:77] Creating layer ip3
I0501 18:40:46.791821 14080 net.cpp:94] Creating Layer ip3
I0501 18:40:46.791824 14080 net.cpp:435] ip3 <- ip2
I0501 18:40:46.791829 14080 net.cpp:409] ip3 -> ip3
I0501 18:40:46.791891 14080 net.cpp:144] Setting up ip3
I0501 18:40:46.791903 14080 net.cpp:151] Top shape: 20 1 (20)
I0501 18:40:46.791906 14080 net.cpp:159] Memory required for data: 11946400
I0501 18:40:46.791911 14080 layer_factory.hpp:77] Creating layer loss
I0501 18:40:46.791921 14080 net.cpp:94] Creating Layer loss
I0501 18:40:46.791924 14080 net.cpp:435] loss <- ip3
I0501 18:40:46.791929 14080 net.cpp:435] loss <- label
I0501 18:40:46.791934 14080 net.cpp:409] loss -> loss
I0501 18:40:46.791970 14080 net.cpp:144] Setting up loss
…
