…
I0502 09:22:21.797812 21149 net.cpp:323] The NetState phase (0) differed from the phase (1) specified by a rule in layer intercept
I0502 09:22:21.797828 21149 net.cpp:323] The NetState phase (0) differed from the phase (1) specified by a rule in layer loss
I0502 09:22:21.797907 21149 net.cpp:52] Initializing net from parameters: 
state {
  phase: TRAIN
}
layer {
  name: "parameters"
  type: "HDF5Data"
  top: "data"
  top: "label"
  include {
    phase: TRAIN
  }
  hdf5_data_param {
    source: "/home/purduethu/scratch/radon/d/deng106/CNNStatisticalModel/distributions/input/50_distributions_400_sample_size_train-parameters-path.txt"
    batch_size: 20
  }
}
layer {
  name: "conv1"
  type: "Convolution"
  bottom: "data"
  top: "conv1"
  param {
    lr_mult: 1
  }
  param {
    lr_mult: 2
  }
  convolution_param {
    num_output: 64
    pad: 2
    kernel_size: 5
    stride: 1
    weight_filler {
      type: "gaussian"
      std: 0.0001
    }
    bias_filler {
      type: "constant"
    }
  }
}
layer {
  name: "relu1"
  type: "ReLU"
  bottom: "conv1"
  top: "conv1"
}
layer {
  name: "conv2"
  type: "Convolution"
  bottom: "conv1"
  top: "conv2"
  param {
    lr_mult: 1
  }
  param {
    lr_mult: 2
  }
  convolution_param {
    num_output: 64
    pad: 2
    kernel_size: 5
    stride: 1
    weight_filler {
      type: "gaussian"
      std: 0.01
    }
    bias_filler {
      type: "constant"
    }
  }
}
layer {
  name: "relu2"
  type: "ReLU"
  bottom: "conv2"
  top: "conv2"
}
layer {
  name: "pool2"
  type: "Pooling"
  bottom: "conv2"
  top: "pool2"
  pooling_param {
    pool: MAX
    kernel_size: 3
    stride: 2
  }
}
layer {
  name: "conv3"
  type: "Convolution"
  bottom: "pool2"
  top: "conv3"
  param {
    lr_mult: 1
  }
  param {
    lr_mult: 2
  }
  convolution_param {
    num_output: 64
    pad: 2
    kernel_size: 5
    stride: 1
    weight_filler {
      type: "gaussian"
      std: 0.01
    }
    bias_filler {
      type: "constant"
    }
  }
}
layer {
  name: "relu3"
  type: "ReLU"
  bottom: "conv3"
  top: "conv3"
}
layer {
  name: "conv4"
  type: "Convolution"
  bottom: "conv3"
  top: "conv4"
  param {
    lr_mult: 1
  }
  param {
    lr_mult: 2
  }
  convolution_param {
    num_output: 64
    pad: 2
    kernel_size: 5
    stride: 1
    weight_filler {
      type: "gaussian"
      std: 0.01
    }
    bias_filler {
      type: "constant"
    }
  }
}
layer {
  name: "relu4"
  type: "ReLU"
  bottom: "conv4"
  top: "conv4"
}
layer {
  name: "conv5"
  type: "Convolution"
  bottom: "conv4"
  top: "conv5"
  param {
    lr_mult: 1
  }
  param {
    lr_mult: 2
  }
  convolution_param {
    num_output: 64
    pad: 2
    kernel_size: 5
    stride: 1
    weight_filler {
      type: "gaussian"
      std: 0.01
    }
    bias_filler {
      type: "constant"
    }
  }
}
layer {
  name: "relu5"
  type: "ReLU"
  bottom: "conv5"
  top: "conv5"
}
layer {
  name: "pool5"
  type: "Pooling"
  bottom: "conv5"
  top: "pool5"
  pooling_param {
    pool: AVE
    kernel_size: 3
    stride: 2
  }
}
layer {
  name: "ip1"
  type: "InnerProduct"
  bottom: "pool5"
  top: "ip1"
  param {
    lr_mult: 1
  }
  param {
    lr_mult: 2
  }
  inner_product_param {
    num_output: 64
    weight_filler {
      type: "gaussian"
      std: 0.1
    }
    bias_filler {
      type: "constant"
    }
  }
}
layer {
  name: "ip2"
  type: "InnerProduct"
  bottom: "ip1"
  top: "ip2"
  param {
    lr_mult: 1
  }
  param {
    lr_mult: 2
  }
  inner_product_param {
    num_output: 64
    weight_filler {
      type: "gaussian"
      std: 0.1
    }
    bias_filler {
      type: "constant"
    }
  }
}
layer {
  name: "ip3"
  type: "InnerProduct"
  bottom: "ip2"
  top: "ip3"
  param {
    lr_mult: 1
  }
  param {
    lr_mult: 2
  }
  inner_product_param {
    num_output: 1
    weight_filler {
      type: "gaussian"
      std: 0.1
    }
    bias_filler {
      type: "constant"
    }
  }
}
layer {
  name: "loss"
  type: "HuberLoss"
  bottom: "ip3"
  bottom: "label"
  top: "loss"
  include {
    phase: TRAIN
  }
}
I0502 09:22:21.797960 21149 layer_factory.hpp:77] Creating layer parameters
I0502 09:22:21.797973 21149 net.cpp:94] Creating Layer parameters
I0502 09:22:21.797977 21149 net.cpp:409] parameters -> data
I0502 09:22:21.797986 21149 net.cpp:409] parameters -> label
I0502 09:22:21.797996 21149 hdf5_data_layer.cpp:79] Loading list of HDF5 filenames from: /home/purduethu/scratch/radon/d/deng106/CNNStatisticalModel/distributions/input/50_distributions_400_sample_size_train-parameters-path.txt
I0502 09:22:21.798012 21149 hdf5_data_layer.cpp:93] Number of HDF5 files: 1
I0502 09:22:21.798576 21149 hdf5.cpp:32] Datatype class: H5T_FLOAT
I0502 09:22:22.450377 21149 net.cpp:144] Setting up parameters
I0502 09:22:22.450410 21149 net.cpp:151] Top shape: 20 1 20 20 (8000)
I0502 09:22:22.450415 21149 net.cpp:151] Top shape: 20 (20)
I0502 09:22:22.450418 21149 net.cpp:159] Memory required for data: 32080
I0502 09:22:22.450425 21149 layer_factory.hpp:77] Creating layer conv1
I0502 09:22:22.450443 21149 net.cpp:94] Creating Layer conv1
I0502 09:22:22.450448 21149 net.cpp:435] conv1 <- data
I0502 09:22:22.450453 21149 net.cpp:409] conv1 -> conv1
I0502 09:22:22.456053 21149 net.cpp:144] Setting up conv1
I0502 09:22:22.456070 21149 net.cpp:151] Top shape: 20 64 20 20 (512000)
I0502 09:22:22.456074 21149 net.cpp:159] Memory required for data: 2080080
I0502 09:22:22.456084 21149 layer_factory.hpp:77] Creating layer relu1
I0502 09:22:22.456092 21149 net.cpp:94] Creating Layer relu1
I0502 09:22:22.456096 21149 net.cpp:435] relu1 <- conv1
I0502 09:22:22.456100 21149 net.cpp:396] relu1 -> conv1 (in-place)
I0502 09:22:22.456112 21149 net.cpp:144] Setting up relu1
I0502 09:22:22.456117 21149 net.cpp:151] Top shape: 20 64 20 20 (512000)
I0502 09:22:22.456120 21149 net.cpp:159] Memory required for data: 4128080
I0502 09:22:22.456122 21149 layer_factory.hpp:77] Creating layer conv2
I0502 09:22:22.456130 21149 net.cpp:94] Creating Layer conv2
I0502 09:22:22.456135 21149 net.cpp:435] conv2 <- conv1
I0502 09:22:22.456138 21149 net.cpp:409] conv2 -> conv2
I0502 09:22:22.467849 21149 net.cpp:144] Setting up conv2
I0502 09:22:22.467864 21149 net.cpp:151] Top shape: 20 64 20 20 (512000)
I0502 09:22:22.467869 21149 net.cpp:159] Memory required for data: 6176080
I0502 09:22:22.467876 21149 layer_factory.hpp:77] Creating layer relu2
I0502 09:22:22.467883 21149 net.cpp:94] Creating Layer relu2
I0502 09:22:22.467886 21149 net.cpp:435] relu2 <- conv2
I0502 09:22:22.467891 21149 net.cpp:396] relu2 -> conv2 (in-place)
I0502 09:22:22.467898 21149 net.cpp:144] Setting up relu2
I0502 09:22:22.467902 21149 net.cpp:151] Top shape: 20 64 20 20 (512000)
I0502 09:22:22.467905 21149 net.cpp:159] Memory required for data: 8224080
I0502 09:22:22.467908 21149 layer_factory.hpp:77] Creating layer pool2
I0502 09:22:22.467919 21149 net.cpp:94] Creating Layer pool2
I0502 09:22:22.467923 21149 net.cpp:435] pool2 <- conv2
I0502 09:22:22.467928 21149 net.cpp:409] pool2 -> pool2
I0502 09:22:22.467985 21149 net.cpp:144] Setting up pool2
I0502 09:22:22.467993 21149 net.cpp:151] Top shape: 20 64 10 10 (128000)
I0502 09:22:22.467996 21149 net.cpp:159] Memory required for data: 8736080
I0502 09:22:22.467999 21149 layer_factory.hpp:77] Creating layer conv3
I0502 09:22:22.468008 21149 net.cpp:94] Creating Layer conv3
I0502 09:22:22.468010 21149 net.cpp:435] conv3 <- pool2
I0502 09:22:22.468015 21149 net.cpp:409] conv3 -> conv3
I0502 09:22:22.473450 21149 net.cpp:144] Setting up conv3
I0502 09:22:22.473464 21149 net.cpp:151] Top shape: 20 64 10 10 (128000)
I0502 09:22:22.473469 21149 net.cpp:159] Memory required for data: 9248080
I0502 09:22:22.473476 21149 layer_factory.hpp:77] Creating layer relu3
I0502 09:22:22.473482 21149 net.cpp:94] Creating Layer relu3
I0502 09:22:22.473486 21149 net.cpp:435] relu3 <- conv3
I0502 09:22:22.473490 21149 net.cpp:396] relu3 -> conv3 (in-place)
I0502 09:22:22.473497 21149 net.cpp:144] Setting up relu3
I0502 09:22:22.473501 21149 net.cpp:151] Top shape: 20 64 10 10 (128000)
I0502 09:22:22.473505 21149 net.cpp:159] Memory required for data: 9760080
I0502 09:22:22.473507 21149 layer_factory.hpp:77] Creating layer conv4
I0502 09:22:22.473516 21149 net.cpp:94] Creating Layer conv4
I0502 09:22:22.473520 21149 net.cpp:435] conv4 <- conv3
I0502 09:22:22.473525 21149 net.cpp:409] conv4 -> conv4
I0502 09:22:22.478891 21149 net.cpp:144] Setting up conv4
I0502 09:22:22.478904 21149 net.cpp:151] Top shape: 20 64 10 10 (128000)
I0502 09:22:22.478909 21149 net.cpp:159] Memory required for data: 10272080
I0502 09:22:22.478914 21149 layer_factory.hpp:77] Creating layer relu4
I0502 09:22:22.478920 21149 net.cpp:94] Creating Layer relu4
I0502 09:22:22.478924 21149 net.cpp:435] relu4 <- conv4
I0502 09:22:22.478929 21149 net.cpp:396] relu4 -> conv4 (in-place)
I0502 09:22:22.478935 21149 net.cpp:144] Setting up relu4
I0502 09:22:22.478940 21149 net.cpp:151] Top shape: 20 64 10 10 (128000)
I0502 09:22:22.478941 21149 net.cpp:159] Memory required for data: 10784080
I0502 09:22:22.478945 21149 layer_factory.hpp:77] Creating layer conv5
I0502 09:22:22.478952 21149 net.cpp:94] Creating Layer conv5
I0502 09:22:22.478955 21149 net.cpp:435] conv5 <- conv4
I0502 09:22:22.478960 21149 net.cpp:409] conv5 -> conv5
I0502 09:22:22.484349 21149 net.cpp:144] Setting up conv5
I0502 09:22:22.484361 21149 net.cpp:151] Top shape: 20 64 10 10 (128000)
I0502 09:22:22.484365 21149 net.cpp:159] Memory required for data: 11296080
I0502 09:22:22.484374 21149 layer_factory.hpp:77] Creating layer relu5
I0502 09:22:22.484380 21149 net.cpp:94] Creating Layer relu5
I0502 09:22:22.484382 21149 net.cpp:435] relu5 <- conv5
I0502 09:22:22.484387 21149 net.cpp:396] relu5 -> conv5 (in-place)
I0502 09:22:22.484393 21149 net.cpp:144] Setting up relu5
I0502 09:22:22.484398 21149 net.cpp:151] Top shape: 20 64 10 10 (128000)
I0502 09:22:22.484401 21149 net.cpp:159] Memory required for data: 11808080
I0502 09:22:22.484405 21149 layer_factory.hpp:77] Creating layer pool5
I0502 09:22:22.484410 21149 net.cpp:94] Creating Layer pool5
I0502 09:22:22.484412 21149 net.cpp:435] pool5 <- conv5
I0502 09:22:22.484416 21149 net.cpp:409] pool5 -> pool5
I0502 09:22:22.484457 21149 net.cpp:144] Setting up pool5
I0502 09:22:22.484464 21149 net.cpp:151] Top shape: 20 64 5 5 (32000)
I0502 09:22:22.484467 21149 net.cpp:159] Memory required for data: 11936080
I0502 09:22:22.484470 21149 layer_factory.hpp:77] Creating layer ip1
I0502 09:22:22.484477 21149 net.cpp:94] Creating Layer ip1
I0502 09:22:22.484480 21149 net.cpp:435] ip1 <- pool5
I0502 09:22:22.484485 21149 net.cpp:409] ip1 -> ip1
I0502 09:22:22.487041 21149 net.cpp:144] Setting up ip1
I0502 09:22:22.487051 21149 net.cpp:151] Top shape: 20 64 (1280)
I0502 09:22:22.487054 21149 net.cpp:159] Memory required for data: 11941200
I0502 09:22:22.487059 21149 layer_factory.hpp:77] Creating layer ip2
I0502 09:22:22.487066 21149 net.cpp:94] Creating Layer ip2
I0502 09:22:22.487073 21149 net.cpp:435] ip2 <- ip1
I0502 09:22:22.487078 21149 net.cpp:409] ip2 -> ip2
I0502 09:22:22.487296 21149 net.cpp:144] Setting up ip2
I0502 09:22:22.487303 21149 net.cpp:151] Top shape: 20 64 (1280)
I0502 09:22:22.487306 21149 net.cpp:159] Memory required for data: 11946320
I0502 09:22:22.487311 21149 layer_factory.hpp:77] Creating layer ip3
I0502 09:22:22.487318 21149 net.cpp:94] Creating Layer ip3
I0502 09:22:22.487321 21149 net.cpp:435] ip3 <- ip2
I0502 09:22:22.487325 21149 net.cpp:409] ip3 -> ip3
I0502 09:22:22.487435 21149 net.cpp:144] Setting up ip3
I0502 09:22:22.487442 21149 net.cpp:151] Top shape: 20 1 (20)
I0502 09:22:22.487445 21149 net.cpp:159] Memory required for data: 11946400
I0502 09:22:22.487450 21149 layer_factory.hpp:77] Creating layer loss
I0502 09:22:22.487460 21149 net.cpp:94] Creating Layer loss
I0502 09:22:22.487464 21149 net.cpp:435] loss <- ip3
I0502 09:22:22.487468 21149 net.cpp:435] loss <- label
I0502 09:22:22.487473 21149 net.cpp:409] loss -> loss
I0502 09:22:22.487525 21149 net.cpp:144] Setting up loss
…
I0502 09:22:22.675927 21149 net.cpp:323] The NetState phase (0) differed from the phase (1) specified by a rule in layer intercept
I0502 09:22:22.675945 21149 net.cpp:323] The NetState phase (0) differed from the phase (1) specified by a rule in layer accuracy
I0502 09:22:22.676033 21149 net.cpp:52] Initializing net from parameters: 
state {
  phase: TRAIN
}
layer {
  name: "parameters"
  type: "HDF5Data"
  top: "data"
  top: "label"
  include {
    phase: TRAIN
  }
  hdf5_data_param {
    source: "/home/purduethu/scratch/radon/d/deng106/CNNStatisticalModel/distributions/input/50_distributions_400_sample_size_train-distributions-path.txt"
    batch_size: 20
  }
}
layer {
  name: "conv1"
  type: "Convolution"
  bottom: "data"
  top: "conv1"
  param {
    lr_mult: 1
  }
  param {
    lr_mult: 2
  }
  convolution_param {
    num_output: 64
    pad: 2
    kernel_size: 5
    stride: 1
    weight_filler {
      type: "gaussian"
      std: 0.0001
    }
    bias_filler {
      type: "constant"
    }
  }
}
layer {
  name: "relu1"
  type: "ReLU"
  bottom: "conv1"
  top: "conv1"
}
layer {
  name: "conv2"
  type: "Convolution"
  bottom: "conv1"
  top: "conv2"
  param {
    lr_mult: 1
  }
  param {
    lr_mult: 2
  }
  convolution_param {
    num_output: 64
    pad: 2
    kernel_size: 5
    stride: 1
    weight_filler {
      type: "gaussian"
      std: 0.01
    }
    bias_filler {
      type: "constant"
    }
  }
}
layer {
  name: "relu2"
  type: "ReLU"
  bottom: "conv2"
  top: "conv2"
}
layer {
  name: "pool2"
  type: "Pooling"
  bottom: "conv2"
  top: "pool2"
  pooling_param {
    pool: MAX
    kernel_size: 3
    stride: 2
  }
}
layer {
  name: "conv3"
  type: "Convolution"
  bottom: "pool2"
  top: "conv3"
  param {
    lr_mult: 1
  }
  param {
    lr_mult: 2
  }
  convolution_param {
    num_output: 64
    pad: 2
    kernel_size: 5
    stride: 1
    weight_filler {
      type: "gaussian"
      std: 0.01
    }
    bias_filler {
      type: "constant"
    }
  }
}
layer {
  name: "relu3"
  type: "ReLU"
  bottom: "conv3"
  top: "conv3"
}
layer {
  name: "conv4"
  type: "Convolution"
  bottom: "conv3"
  top: "conv4"
  param {
    lr_mult: 1
  }
  param {
    lr_mult: 2
  }
  convolution_param {
    num_output: 64
    pad: 2
    kernel_size: 5
    stride: 1
    weight_filler {
      type: "gaussian"
      std: 0.01
    }
    bias_filler {
      type: "constant"
    }
  }
}
layer {
  name: "relu4"
  type: "ReLU"
  bottom: "conv4"
  top: "conv4"
}
layer {
  name: "conv5"
  type: "Convolution"
  bottom: "conv4"
  top: "conv5"
  param {
    lr_mult: 1
  }
  param {
    lr_mult: 2
  }
  convolution_param {
    num_output: 64
    pad: 2
    kernel_size: 5
    stride: 1
    weight_filler {
      type: "gaussian"
      std: 0.01
    }
    bias_filler {
      type: "constant"
    }
  }
}
layer {
  name: "relu5"
  type: "ReLU"
  bottom: "conv5"
  top: "conv5"
}
layer {
  name: "pool5"
  type: "Pooling"
  bottom: "conv5"
  top: "pool5"
  pooling_param {
    pool: AVE
    kernel_size: 3
    stride: 2
  }
}
layer {
  name: "ip1"
  type: "InnerProduct"
  bottom: "pool5"
  top: "ip1"
  param {
    lr_mult: 1
  }
  param {
    lr_mult: 2
  }
  inner_product_param {
    num_output: 64
    weight_filler {
      type: "gaussian"
      std: 0.1
    }
    bias_filler {
      type: "constant"
    }
  }
}
layer {
  name: "ip2"
  type: "InnerProduct"
  bottom: "ip1"
  top: "ip2"
  param {
    lr_mult: 1
  }
  param {
    lr_mult: 2
  }
  inner_product_param {
    num_output: 64
    weight_filler {
      type: "gaussian"
      std: 0.1
    }
    bias_filler {
      type: "constant"
    }
  }
}
layer {
  name: "ip3"
  type: "InnerProduct"
  bottom: "ip2"
  top: "ip3"
  param {
    lr_mult: 1
  }
  param {
    lr_mult: 2
  }
  inner_product_param {
    num_output: 50
    weight_filler {
      type: "gaussian"
      std: 0.1
    }
    bias_filler {
      type: "constant"
    }
  }
}
layer {
  name: "loss"
  type: "SoftmaxWithLoss"
  bottom: "ip3"
  bottom: "label"
  top: "loss"
}
I0502 09:22:22.676085 21149 layer_factory.hpp:77] Creating layer parameters
I0502 09:22:22.676093 21149 net.cpp:94] Creating Layer parameters
I0502 09:22:22.676097 21149 net.cpp:409] parameters -> data
I0502 09:22:22.676105 21149 net.cpp:409] parameters -> label
I0502 09:22:22.676110 21149 hdf5_data_layer.cpp:79] Loading list of HDF5 filenames from: /home/purduethu/scratch/radon/d/deng106/CNNStatisticalModel/distributions/input/50_distributions_400_sample_size_train-distributions-path.txt
I0502 09:22:22.676126 21149 hdf5_data_layer.cpp:93] Number of HDF5 files: 1
I0502 09:22:23.325397 21149 hdf5.cpp:35] Datatype class: H5T_INTEGER
I0502 09:22:23.328431 21149 net.cpp:144] Setting up parameters
I0502 09:22:23.328449 21149 net.cpp:151] Top shape: 20 1 20 20 (8000)
I0502 09:22:23.328454 21149 net.cpp:151] Top shape: 20 (20)
I0502 09:22:23.328457 21149 net.cpp:159] Memory required for data: 32080
I0502 09:22:23.328464 21149 layer_factory.hpp:77] Creating layer conv1
I0502 09:22:23.328480 21149 net.cpp:94] Creating Layer conv1
I0502 09:22:23.328483 21149 net.cpp:435] conv1 <- data
I0502 09:22:23.328490 21149 net.cpp:409] conv1 -> conv1
I0502 09:22:23.331230 21149 net.cpp:144] Setting up conv1
I0502 09:22:23.331245 21149 net.cpp:151] Top shape: 20 64 20 20 (512000)
I0502 09:22:23.331249 21149 net.cpp:159] Memory required for data: 2080080
I0502 09:22:23.331259 21149 layer_factory.hpp:77] Creating layer relu1
I0502 09:22:23.331267 21149 net.cpp:94] Creating Layer relu1
I0502 09:22:23.331270 21149 net.cpp:435] relu1 <- conv1
I0502 09:22:23.331275 21149 net.cpp:396] relu1 -> conv1 (in-place)
I0502 09:22:23.331282 21149 net.cpp:144] Setting up relu1
I0502 09:22:23.331287 21149 net.cpp:151] Top shape: 20 64 20 20 (512000)
I0502 09:22:23.331290 21149 net.cpp:159] Memory required for data: 4128080
I0502 09:22:23.331293 21149 layer_factory.hpp:77] Creating layer conv2
I0502 09:22:23.331300 21149 net.cpp:94] Creating Layer conv2
I0502 09:22:23.331305 21149 net.cpp:435] conv2 <- conv1
I0502 09:22:23.331310 21149 net.cpp:409] conv2 -> conv2
I0502 09:22:23.341480 21149 net.cpp:144] Setting up conv2
I0502 09:22:23.341495 21149 net.cpp:151] Top shape: 20 64 20 20 (512000)
I0502 09:22:23.341500 21149 net.cpp:159] Memory required for data: 6176080
I0502 09:22:23.341508 21149 layer_factory.hpp:77] Creating layer relu2
I0502 09:22:23.341514 21149 net.cpp:94] Creating Layer relu2
I0502 09:22:23.341518 21149 net.cpp:435] relu2 <- conv2
I0502 09:22:23.341523 21149 net.cpp:396] relu2 -> conv2 (in-place)
I0502 09:22:23.341531 21149 net.cpp:144] Setting up relu2
I0502 09:22:23.341536 21149 net.cpp:151] Top shape: 20 64 20 20 (512000)
I0502 09:22:23.341537 21149 net.cpp:159] Memory required for data: 8224080
I0502 09:22:23.341542 21149 layer_factory.hpp:77] Creating layer pool2
I0502 09:22:23.341547 21149 net.cpp:94] Creating Layer pool2
I0502 09:22:23.341550 21149 net.cpp:435] pool2 <- conv2
I0502 09:22:23.341554 21149 net.cpp:409] pool2 -> pool2
I0502 09:22:23.341611 21149 net.cpp:144] Setting up pool2
I0502 09:22:23.341619 21149 net.cpp:151] Top shape: 20 64 10 10 (128000)
I0502 09:22:23.341622 21149 net.cpp:159] Memory required for data: 8736080
I0502 09:22:23.341626 21149 layer_factory.hpp:77] Creating layer conv3
I0502 09:22:23.341634 21149 net.cpp:94] Creating Layer conv3
I0502 09:22:23.341639 21149 net.cpp:435] conv3 <- pool2
I0502 09:22:23.341650 21149 net.cpp:409] conv3 -> conv3
I0502 09:22:23.347126 21149 net.cpp:144] Setting up conv3
I0502 09:22:23.347139 21149 net.cpp:151] Top shape: 20 64 10 10 (128000)
I0502 09:22:23.347143 21149 net.cpp:159] Memory required for data: 9248080
I0502 09:22:23.347151 21149 layer_factory.hpp:77] Creating layer relu3
I0502 09:22:23.347157 21149 net.cpp:94] Creating Layer relu3
I0502 09:22:23.347160 21149 net.cpp:435] relu3 <- conv3
I0502 09:22:23.347165 21149 net.cpp:396] relu3 -> conv3 (in-place)
I0502 09:22:23.347172 21149 net.cpp:144] Setting up relu3
I0502 09:22:23.347177 21149 net.cpp:151] Top shape: 20 64 10 10 (128000)
I0502 09:22:23.347179 21149 net.cpp:159] Memory required for data: 9760080
I0502 09:22:23.347182 21149 layer_factory.hpp:77] Creating layer conv4
I0502 09:22:23.347190 21149 net.cpp:94] Creating Layer conv4
I0502 09:22:23.347193 21149 net.cpp:435] conv4 <- conv3
I0502 09:22:23.347198 21149 net.cpp:409] conv4 -> conv4
I0502 09:22:23.352649 21149 net.cpp:144] Setting up conv4
I0502 09:22:23.352663 21149 net.cpp:151] Top shape: 20 64 10 10 (128000)
I0502 09:22:23.352668 21149 net.cpp:159] Memory required for data: 10272080
I0502 09:22:23.352674 21149 layer_factory.hpp:77] Creating layer relu4
I0502 09:22:23.352679 21149 net.cpp:94] Creating Layer relu4
I0502 09:22:23.352682 21149 net.cpp:435] relu4 <- conv4
I0502 09:22:23.352687 21149 net.cpp:396] relu4 -> conv4 (in-place)
I0502 09:22:23.352694 21149 net.cpp:144] Setting up relu4
I0502 09:22:23.352699 21149 net.cpp:151] Top shape: 20 64 10 10 (128000)
I0502 09:22:23.352701 21149 net.cpp:159] Memory required for data: 10784080
I0502 09:22:23.352705 21149 layer_factory.hpp:77] Creating layer conv5
I0502 09:22:23.352711 21149 net.cpp:94] Creating Layer conv5
I0502 09:22:23.352715 21149 net.cpp:435] conv5 <- conv4
I0502 09:22:23.352720 21149 net.cpp:409] conv5 -> conv5
I0502 09:22:23.358140 21149 net.cpp:144] Setting up conv5
I0502 09:22:23.358155 21149 net.cpp:151] Top shape: 20 64 10 10 (128000)
I0502 09:22:23.358157 21149 net.cpp:159] Memory required for data: 11296080
I0502 09:22:23.358166 21149 layer_factory.hpp:77] Creating layer relu5
I0502 09:22:23.358171 21149 net.cpp:94] Creating Layer relu5
I0502 09:22:23.358175 21149 net.cpp:435] relu5 <- conv5
I0502 09:22:23.358180 21149 net.cpp:396] relu5 -> conv5 (in-place)
I0502 09:22:23.358186 21149 net.cpp:144] Setting up relu5
I0502 09:22:23.358191 21149 net.cpp:151] Top shape: 20 64 10 10 (128000)
I0502 09:22:23.358193 21149 net.cpp:159] Memory required for data: 11808080
I0502 09:22:23.358196 21149 layer_factory.hpp:77] Creating layer pool5
I0502 09:22:23.358201 21149 net.cpp:94] Creating Layer pool5
I0502 09:22:23.358206 21149 net.cpp:435] pool5 <- conv5
I0502 09:22:23.358209 21149 net.cpp:409] pool5 -> pool5
I0502 09:22:23.358247 21149 net.cpp:144] Setting up pool5
I0502 09:22:23.358254 21149 net.cpp:151] Top shape: 20 64 5 5 (32000)
I0502 09:22:23.358258 21149 net.cpp:159] Memory required for data: 11936080
I0502 09:22:23.358260 21149 layer_factory.hpp:77] Creating layer ip1
I0502 09:22:23.358268 21149 net.cpp:94] Creating Layer ip1
I0502 09:22:23.358270 21149 net.cpp:435] ip1 <- pool5
I0502 09:22:23.358275 21149 net.cpp:409] ip1 -> ip1
I0502 09:22:23.361690 21149 net.cpp:144] Setting up ip1
I0502 09:22:23.361704 21149 net.cpp:151] Top shape: 20 64 (1280)
I0502 09:22:23.361708 21149 net.cpp:159] Memory required for data: 11941200
I0502 09:22:23.361714 21149 layer_factory.hpp:77] Creating layer ip2
I0502 09:22:23.361721 21149 net.cpp:94] Creating Layer ip2
I0502 09:22:23.361726 21149 net.cpp:435] ip2 <- ip1
I0502 09:22:23.361730 21149 net.cpp:409] ip2 -> ip2
I0502 09:22:23.361959 21149 net.cpp:144] Setting up ip2
I0502 09:22:23.361968 21149 net.cpp:151] Top shape: 20 64 (1280)
I0502 09:22:23.361970 21149 net.cpp:159] Memory required for data: 11946320
I0502 09:22:23.361976 21149 layer_factory.hpp:77] Creating layer ip3
I0502 09:22:23.361981 21149 net.cpp:94] Creating Layer ip3
I0502 09:22:23.361985 21149 net.cpp:435] ip3 <- ip2
I0502 09:22:23.361990 21149 net.cpp:409] ip3 -> ip3
I0502 09:22:23.362196 21149 net.cpp:144] Setting up ip3
I0502 09:22:23.362205 21149 net.cpp:151] Top shape: 20 50 (1000)
I0502 09:22:23.362207 21149 net.cpp:159] Memory required for data: 11950320
I0502 09:22:23.362212 21149 layer_factory.hpp:77] Creating layer loss
I0502 09:22:23.362220 21149 net.cpp:94] Creating Layer loss
I0502 09:22:23.362222 21149 net.cpp:435] loss <- ip3
I0502 09:22:23.362226 21149 net.cpp:435] loss <- label
I0502 09:22:23.362231 21149 net.cpp:409] loss -> loss
I0502 09:22:23.362237 21149 layer_factory.hpp:77] Creating layer loss
…
I0502 09:22:23.362758 21149 solver.cpp:181] Creating test net (#0) specified by net file: ./protocol/dis_50_400_dimension.protocol_distribution
I0502 09:22:23.362784 21149 net.cpp:323] The NetState phase (1) differed from the phase (0) specified by a rule in layer parameters
I0502 09:22:23.362880 21149 net.cpp:52] Initializing net from parameters: 
state {
  phase: TEST
}
layer {
  name: "intercept"
  type: "HDF5Data"
  top: "data"
  top: "label"
  include {
    phase: TEST
  }
  hdf5_data_param {
    source: "/home/purduethu/scratch/radon/d/deng106/CNNStatisticalModel/distributions/input/50_distributions_400_sample_size_test-distributions-path.txt"
    batch_size: 20
  }
}
layer {
  name: "conv1"
  type: "Convolution"
  bottom: "data"
  top: "conv1"
  param {
    lr_mult: 1
  }
  param {
    lr_mult: 2
  }
  convolution_param {
    num_output: 64
    pad: 2
    kernel_size: 5
    stride: 1
    weight_filler {
      type: "gaussian"
      std: 0.0001
    }
    bias_filler {
      type: "constant"
    }
  }
}
layer {
  name: "relu1"
  type: "ReLU"
  bottom: "conv1"
  top: "conv1"
}
layer {
  name: "conv2"
  type: "Convolution"
  bottom: "conv1"
  top: "conv2"
  param {
    lr_mult: 1
  }
  param {
    lr_mult: 2
  }
  convolution_param {
    num_output: 64
    pad: 2
    kernel_size: 5
    stride: 1
    weight_filler {
      type: "gaussian"
      std: 0.01
    }
    bias_filler {
      type: "constant"
    }
  }
}
layer {
  name: "relu2"
  type: "ReLU"
  bottom: "conv2"
  top: "conv2"
}
layer {
  name: "pool2"
  type: "Pooling"
  bottom: "conv2"
  top: "pool2"
  pooling_param {
    pool: MAX
    kernel_size: 3
    stride: 2
  }
}
layer {
  name: "conv3"
  type: "Convolution"
  bottom: "pool2"
  top: "conv3"
  param {
    lr_mult: 1
  }
  param {
    lr_mult: 2
  }
  convolution_param {
    num_output: 64
    pad: 2
    kernel_size: 5
    stride: 1
    weight_filler {
      type: "gaussian"
      std: 0.01
    }
    bias_filler {
      type: "constant"
    }
  }
}
layer {
  name: "relu3"
  type: "ReLU"
  bottom: "conv3"
  top: "conv3"
}
layer {
  name: "conv4"
  type: "Convolution"
  bottom: "conv3"
  top: "conv4"
  param {
    lr_mult: 1
  }
  param {
    lr_mult: 2
  }
  convolution_param {
    num_output: 64
    pad: 2
    kernel_size: 5
    stride: 1
    weight_filler {
      type: "gaussian"
      std: 0.01
    }
    bias_filler {
      type: "constant"
    }
  }
}
layer {
  name: "relu4"
  type: "ReLU"
  bottom: "conv4"
  top: "conv4"
}
layer {
  name: "conv5"
  type: "Convolution"
  bottom: "conv4"
  top: "conv5"
  param {
    lr_mult: 1
  }
  param {
    lr_mult: 2
  }
  convolution_param {
    num_output: 64
    pad: 2
    kernel_size: 5
    stride: 1
    weight_filler {
      type: "gaussian"
      std: 0.01
    }
    bias_filler {
      type: "constant"
    }
  }
}
layer {
  name: "relu5"
  type: "ReLU"
  bottom: "conv5"
  top: "conv5"
}
layer {
  name: "pool5"
  type: "Pooling"
  bottom: "conv5"
  top: "pool5"
  pooling_param {
    pool: AVE
    kernel_size: 3
    stride: 2
  }
}
layer {
  name: "ip1"
  type: "InnerProduct"
  bottom: "pool5"
  top: "ip1"
  param {
    lr_mult: 1
  }
  param {
    lr_mult: 2
  }
  inner_product_param {
    num_output: 64
    weight_filler {
      type: "gaussian"
      std: 0.1
    }
    bias_filler {
      type: "constant"
    }
  }
}
layer {
  name: "ip2"
  type: "InnerProduct"
  bottom: "ip1"
  top: "ip2"
  param {
    lr_mult: 1
  }
  param {
    lr_mult: 2
  }
  inner_product_param {
    num_output: 64
    weight_filler {
      type: "gaussian"
      std: 0.1
    }
    bias_filler {
      type: "constant"
    }
  }
}
layer {
  name: "ip3"
  type: "InnerProduct"
  bottom: "ip2"
  top: "ip3"
  param {
    lr_mult: 1
  }
  param {
    lr_mult: 2
  }
  inner_product_param {
    num_output: 50
    weight_filler {
      type: "gaussian"
      std: 0.1
    }
    bias_filler {
      type: "constant"
    }
  }
}
layer {
  name: "accuracy"
  type: "Accuracy"
  bottom: "ip3"
  bottom: "label"
  top: "accuracy"
  include {
    phase: TEST
  }
}
layer {
  name: "loss"
  type: "SoftmaxWithLoss"
  bottom: "ip3"
  bottom: "label"
  top: "loss"
}
I0502 09:22:23.362946 21149 layer_factory.hpp:77] Creating layer intercept
I0502 09:22:23.362953 21149 net.cpp:94] Creating Layer intercept
I0502 09:22:23.362957 21149 net.cpp:409] intercept -> data
I0502 09:22:23.362964 21149 net.cpp:409] intercept -> label
I0502 09:22:23.362969 21149 hdf5_data_layer.cpp:79] Loading list of HDF5 filenames from: /home/purduethu/scratch/radon/d/deng106/CNNStatisticalModel/distributions/input/50_distributions_400_sample_size_test-distributions-path.txt
I0502 09:22:23.362988 21149 hdf5_data_layer.cpp:93] Number of HDF5 files: 1
I0502 09:22:23.527742 21149 net.cpp:144] Setting up intercept
I0502 09:22:23.527776 21149 net.cpp:151] Top shape: 20 1 20 20 (8000)
I0502 09:22:23.527782 21149 net.cpp:151] Top shape: 20 (20)
I0502 09:22:23.527786 21149 net.cpp:159] Memory required for data: 32080
I0502 09:22:23.527791 21149 layer_factory.hpp:77] Creating layer label_intercept_1_split
I0502 09:22:23.527802 21149 net.cpp:94] Creating Layer label_intercept_1_split
I0502 09:22:23.527806 21149 net.cpp:435] label_intercept_1_split <- label
I0502 09:22:23.527812 21149 net.cpp:409] label_intercept_1_split -> label_intercept_1_split_0
I0502 09:22:23.527820 21149 net.cpp:409] label_intercept_1_split -> label_intercept_1_split_1
I0502 09:22:23.527874 21149 net.cpp:144] Setting up label_intercept_1_split
I0502 09:22:23.527880 21149 net.cpp:151] Top shape: 20 (20)
I0502 09:22:23.527884 21149 net.cpp:151] Top shape: 20 (20)
I0502 09:22:23.527887 21149 net.cpp:159] Memory required for data: 32240
I0502 09:22:23.527890 21149 layer_factory.hpp:77] Creating layer conv1
I0502 09:22:23.527901 21149 net.cpp:94] Creating Layer conv1
I0502 09:22:23.527904 21149 net.cpp:435] conv1 <- data
I0502 09:22:23.527909 21149 net.cpp:409] conv1 -> conv1
I0502 09:22:23.529296 21149 net.cpp:144] Setting up conv1
I0502 09:22:23.529316 21149 net.cpp:151] Top shape: 20 64 20 20 (512000)
I0502 09:22:23.529321 21149 net.cpp:159] Memory required for data: 2080240
I0502 09:22:23.529331 21149 layer_factory.hpp:77] Creating layer relu1
I0502 09:22:23.529338 21149 net.cpp:94] Creating Layer relu1
I0502 09:22:23.529341 21149 net.cpp:435] relu1 <- conv1
I0502 09:22:23.529345 21149 net.cpp:396] relu1 -> conv1 (in-place)
I0502 09:22:23.529352 21149 net.cpp:144] Setting up relu1
I0502 09:22:23.529357 21149 net.cpp:151] Top shape: 20 64 20 20 (512000)
I0502 09:22:23.529361 21149 net.cpp:159] Memory required for data: 4128240
I0502 09:22:23.529363 21149 layer_factory.hpp:77] Creating layer conv2
I0502 09:22:23.529371 21149 net.cpp:94] Creating Layer conv2
I0502 09:22:23.529373 21149 net.cpp:435] conv2 <- conv1
I0502 09:22:23.529378 21149 net.cpp:409] conv2 -> conv2
I0502 09:22:23.534538 21149 net.cpp:144] Setting up conv2
I0502 09:22:23.534551 21149 net.cpp:151] Top shape: 20 64 20 20 (512000)
I0502 09:22:23.534555 21149 net.cpp:159] Memory required for data: 6176240
I0502 09:22:23.534564 21149 layer_factory.hpp:77] Creating layer relu2
I0502 09:22:23.534570 21149 net.cpp:94] Creating Layer relu2
I0502 09:22:23.534574 21149 net.cpp:435] relu2 <- conv2
I0502 09:22:23.534579 21149 net.cpp:396] relu2 -> conv2 (in-place)
I0502 09:22:23.534585 21149 net.cpp:144] Setting up relu2
I0502 09:22:23.534590 21149 net.cpp:151] Top shape: 20 64 20 20 (512000)
I0502 09:22:23.534592 21149 net.cpp:159] Memory required for data: 8224240
I0502 09:22:23.534595 21149 layer_factory.hpp:77] Creating layer pool2
I0502 09:22:23.534602 21149 net.cpp:94] Creating Layer pool2
I0502 09:22:23.534605 21149 net.cpp:435] pool2 <- conv2
I0502 09:22:23.534610 21149 net.cpp:409] pool2 -> pool2
I0502 09:22:23.534667 21149 net.cpp:144] Setting up pool2
I0502 09:22:23.534673 21149 net.cpp:151] Top shape: 20 64 10 10 (128000)
I0502 09:22:23.534677 21149 net.cpp:159] Memory required for data: 8736240
I0502 09:22:23.534679 21149 layer_factory.hpp:77] Creating layer conv3
I0502 09:22:23.534688 21149 net.cpp:94] Creating Layer conv3
I0502 09:22:23.534692 21149 net.cpp:435] conv3 <- pool2
I0502 09:22:23.534698 21149 net.cpp:409] conv3 -> conv3
I0502 09:22:23.538713 21149 net.cpp:144] Setting up conv3
I0502 09:22:23.538727 21149 net.cpp:151] Top shape: 20 64 10 10 (128000)
I0502 09:22:23.538730 21149 net.cpp:159] Memory required for data: 9248240
I0502 09:22:23.538738 21149 layer_factory.hpp:77] Creating layer relu3
I0502 09:22:23.538744 21149 net.cpp:94] Creating Layer relu3
I0502 09:22:23.538748 21149 net.cpp:435] relu3 <- conv3
I0502 09:22:23.538753 21149 net.cpp:396] relu3 -> conv3 (in-place)
I0502 09:22:23.538760 21149 net.cpp:144] Setting up relu3
I0502 09:22:23.538764 21149 net.cpp:151] Top shape: 20 64 10 10 (128000)
I0502 09:22:23.538767 21149 net.cpp:159] Memory required for data: 9760240
I0502 09:22:23.538770 21149 layer_factory.hpp:77] Creating layer conv4
I0502 09:22:23.538779 21149 net.cpp:94] Creating Layer conv4
I0502 09:22:23.538782 21149 net.cpp:435] conv4 <- conv3
I0502 09:22:23.538787 21149 net.cpp:409] conv4 -> conv4
I0502 09:22:23.542342 21149 net.cpp:144] Setting up conv4
I0502 09:22:23.542356 21149 net.cpp:151] Top shape: 20 64 10 10 (128000)
I0502 09:22:23.542358 21149 net.cpp:159] Memory required for data: 10272240
I0502 09:22:23.542364 21149 layer_factory.hpp:77] Creating layer relu4
I0502 09:22:23.542371 21149 net.cpp:94] Creating Layer relu4
I0502 09:22:23.542373 21149 net.cpp:435] relu4 <- conv4
I0502 09:22:23.542379 21149 net.cpp:396] relu4 -> conv4 (in-place)
I0502 09:22:23.542385 21149 net.cpp:144] Setting up relu4
I0502 09:22:23.542390 21149 net.cpp:151] Top shape: 20 64 10 10 (128000)
I0502 09:22:23.542392 21149 net.cpp:159] Memory required for data: 10784240
I0502 09:22:23.542395 21149 layer_factory.hpp:77] Creating layer conv5
I0502 09:22:23.542403 21149 net.cpp:94] Creating Layer conv5
I0502 09:22:23.542407 21149 net.cpp:435] conv5 <- conv4
I0502 09:22:23.542412 21149 net.cpp:409] conv5 -> conv5
I0502 09:22:23.547268 21149 net.cpp:144] Setting up conv5
I0502 09:22:23.547287 21149 net.cpp:151] Top shape: 20 64 10 10 (128000)
I0502 09:22:23.547291 21149 net.cpp:159] Memory required for data: 11296240
I0502 09:22:23.547300 21149 layer_factory.hpp:77] Creating layer relu5
I0502 09:22:23.547305 21149 net.cpp:94] Creating Layer relu5
I0502 09:22:23.547309 21149 net.cpp:435] relu5 <- conv5
I0502 09:22:23.547313 21149 net.cpp:396] relu5 -> conv5 (in-place)
I0502 09:22:23.547319 21149 net.cpp:144] Setting up relu5
I0502 09:22:23.547324 21149 net.cpp:151] Top shape: 20 64 10 10 (128000)
I0502 09:22:23.547327 21149 net.cpp:159] Memory required for data: 11808240
I0502 09:22:23.547329 21149 layer_factory.hpp:77] Creating layer pool5
I0502 09:22:23.547336 21149 net.cpp:94] Creating Layer pool5
I0502 09:22:23.547339 21149 net.cpp:435] pool5 <- conv5
I0502 09:22:23.547343 21149 net.cpp:409] pool5 -> pool5
I0502 09:22:23.547384 21149 net.cpp:144] Setting up pool5
I0502 09:22:23.547390 21149 net.cpp:151] Top shape: 20 64 5 5 (32000)
I0502 09:22:23.547394 21149 net.cpp:159] Memory required for data: 11936240
I0502 09:22:23.547396 21149 layer_factory.hpp:77] Creating layer ip1
I0502 09:22:23.547404 21149 net.cpp:94] Creating Layer ip1
I0502 09:22:23.547406 21149 net.cpp:435] ip1 <- pool5
I0502 09:22:23.547412 21149 net.cpp:409] ip1 -> ip1
I0502 09:22:23.549976 21149 net.cpp:144] Setting up ip1
I0502 09:22:23.549985 21149 net.cpp:151] Top shape: 20 64 (1280)
I0502 09:22:23.549988 21149 net.cpp:159] Memory required for data: 11941360
I0502 09:22:23.549994 21149 layer_factory.hpp:77] Creating layer ip2
I0502 09:22:23.550000 21149 net.cpp:94] Creating Layer ip2
I0502 09:22:23.550004 21149 net.cpp:435] ip2 <- ip1
I0502 09:22:23.550009 21149 net.cpp:409] ip2 -> ip2
I0502 09:22:23.550252 21149 net.cpp:144] Setting up ip2
I0502 09:22:23.550261 21149 net.cpp:151] Top shape: 20 64 (1280)
I0502 09:22:23.550263 21149 net.cpp:159] Memory required for data: 11946480
I0502 09:22:23.550268 21149 layer_factory.hpp:77] Creating layer ip3
I0502 09:22:23.550276 21149 net.cpp:94] Creating Layer ip3
I0502 09:22:23.550281 21149 net.cpp:435] ip3 <- ip2
I0502 09:22:23.550285 21149 net.cpp:409] ip3 -> ip3
I0502 09:22:23.550494 21149 net.cpp:144] Setting up ip3
I0502 09:22:23.550501 21149 net.cpp:151] Top shape: 20 50 (1000)
I0502 09:22:23.550504 21149 net.cpp:159] Memory required for data: 11950480
I0502 09:22:23.550509 21149 layer_factory.hpp:77] Creating layer ip3_ip3_0_split
I0502 09:22:23.550518 21149 net.cpp:94] Creating Layer ip3_ip3_0_split
I0502 09:22:23.550520 21149 net.cpp:435] ip3_ip3_0_split <- ip3
I0502 09:22:23.550524 21149 net.cpp:409] ip3_ip3_0_split -> ip3_ip3_0_split_0
I0502 09:22:23.550529 21149 net.cpp:409] ip3_ip3_0_split -> ip3_ip3_0_split_1
I0502 09:22:23.550573 21149 net.cpp:144] Setting up ip3_ip3_0_split
I0502 09:22:23.550580 21149 net.cpp:151] Top shape: 20 50 (1000)
I0502 09:22:23.550583 21149 net.cpp:151] Top shape: 20 50 (1000)
I0502 09:22:23.550586 21149 net.cpp:159] Memory required for data: 11958480
I0502 09:22:23.550590 21149 layer_factory.hpp:77] Creating layer accuracy
I0502 09:22:23.550596 21149 net.cpp:94] Creating Layer accuracy
I0502 09:22:23.550599 21149 net.cpp:435] accuracy <- ip3_ip3_0_split_0
I0502 09:22:23.550603 21149 net.cpp:435] accuracy <- label_intercept_1_split_0
I0502 09:22:23.550607 21149 net.cpp:409] accuracy -> accuracy
…
