…
I0505 19:34:57.010916  8854 net.cpp:323] The NetState phase (0) differed from the phase (1) specified by a rule in layer intercept
I0505 19:34:57.010931  8854 net.cpp:323] The NetState phase (0) differed from the phase (1) specified by a rule in layer loss
I0505 19:34:57.010996  8854 net.cpp:52] Initializing net from parameters: 
state {
  phase: TRAIN
}
layer {
  name: "parameters"
  type: "HDF5Data"
  top: "data"
  top: "label"
  include {
    phase: TRAIN
  }
  hdf5_data_param {
    source: "/home/purduethu/scratch/radon/d/deng106/CNNStatisticalModel/distributions/input/5_distributions_400_sample_size_train-parameters-path.txt"
    batch_size: 20
  }
}
layer {
  name: "conv1"
  type: "Convolution"
  bottom: "data"
  top: "conv1"
  param {
    lr_mult: 1
  }
  param {
    lr_mult: 2
  }
  convolution_param {
    num_output: 64
    pad: 2
    kernel_size: 5
    stride: 1
    weight_filler {
      type: "gaussian"
      std: 0.0001
    }
    bias_filler {
      type: "constant"
    }
  }
}
layer {
  name: "relu1"
  type: "ReLU"
  bottom: "conv1"
  top: "conv1"
}
layer {
  name: "pool1"
  type: "Pooling"
  bottom: "conv1"
  top: "pool1"
  pooling_param {
    pool: MAX
    kernel_size: 3
    stride: 2
  }
}
layer {
  name: "conv2"
  type: "Convolution"
  bottom: "pool1"
  top: "conv2"
  param {
    lr_mult: 1
  }
  param {
    lr_mult: 2
  }
  convolution_param {
    num_output: 128
    pad: 2
    kernel_size: 5
    stride: 1
    weight_filler {
      type: "gaussian"
      std: 0.01
    }
    bias_filler {
      type: "constant"
    }
  }
}
layer {
  name: "relu2"
  type: "ReLU"
  bottom: "conv2"
  top: "conv2"
}
layer {
  name: "conv3"
  type: "Convolution"
  bottom: "conv2"
  top: "conv3"
  param {
    lr_mult: 1
  }
  param {
    lr_mult: 2
  }
  convolution_param {
    num_output: 128
    pad: 2
    kernel_size: 5
    stride: 1
    weight_filler {
      type: "gaussian"
      std: 0.01
    }
    bias_filler {
      type: "constant"
    }
  }
}
layer {
  name: "relu3"
  type: "ReLU"
  bottom: "conv3"
  top: "conv3"
}
layer {
  name: "pool3"
  type: "Pooling"
  bottom: "conv3"
  top: "pool3"
  pooling_param {
    pool: AVE
    kernel_size: 3
    stride: 2
  }
}
layer {
  name: "ip1"
  type: "InnerProduct"
  bottom: "pool3"
  top: "ip1"
  param {
    lr_mult: 1
  }
  param {
    lr_mult: 2
  }
  inner_product_param {
    num_output: 512
    weight_filler {
      type: "gaussian"
      std: 0.1
    }
    bias_filler {
      type: "constant"
    }
  }
}
layer {
  name: "ip2"
  type: "InnerProduct"
  bottom: "ip1"
  top: "ip2"
  param {
    lr_mult: 1
  }
  param {
    lr_mult: 2
  }
  inner_product_param {
    num_output: 256
    weight_filler {
      type: "gaussian"
      std: 0.1
    }
    bias_filler {
      type: "constant"
    }
  }
}
layer {
  name: "ip3"
  type: "InnerProduct"
  bottom: "ip2"
  top: "ip3"
  param {
    lr_mult: 1
  }
  param {
    lr_mult: 2
  }
  inner_product_param {
    num_output: 1
    weight_filler {
      type: "gaussian"
      std: 0.1
    }
    bias_filler {
      type: "constant"
    }
  }
}
layer {
  name: "loss"
  type: "HuberLoss"
  bottom: "ip3"
  bottom: "label"
  top: "loss"
  include {
    phase: TRAIN
  }
}
I0505 19:34:57.011044  8854 layer_factory.hpp:77] Creating layer parameters
I0505 19:34:57.011059  8854 net.cpp:94] Creating Layer parameters
I0505 19:34:57.011063  8854 net.cpp:409] parameters -> data
I0505 19:34:57.011072  8854 net.cpp:409] parameters -> label
I0505 19:34:57.011080  8854 hdf5_data_layer.cpp:79] Loading list of HDF5 filenames from: /home/purduethu/scratch/radon/d/deng106/CNNStatisticalModel/distributions/input/5_distributions_400_sample_size_train-parameters-path.txt
I0505 19:34:57.011093  8854 hdf5_data_layer.cpp:93] Number of HDF5 files: 1
I0505 19:34:57.011636  8854 hdf5.cpp:32] Datatype class: H5T_FLOAT
I0505 19:34:57.074893  8854 net.cpp:144] Setting up parameters
I0505 19:34:57.074925  8854 net.cpp:151] Top shape: 20 1 20 20 (8000)
I0505 19:34:57.074930  8854 net.cpp:151] Top shape: 20 (20)
I0505 19:34:57.074934  8854 net.cpp:159] Memory required for data: 32080
I0505 19:34:57.074940  8854 layer_factory.hpp:77] Creating layer conv1
I0505 19:34:57.074956  8854 net.cpp:94] Creating Layer conv1
I0505 19:34:57.074960  8854 net.cpp:435] conv1 <- data
I0505 19:34:57.074967  8854 net.cpp:409] conv1 -> conv1
I0505 19:34:57.080276  8854 net.cpp:144] Setting up conv1
I0505 19:34:57.080296  8854 net.cpp:151] Top shape: 20 64 20 20 (512000)
I0505 19:34:57.080301  8854 net.cpp:159] Memory required for data: 2080080
I0505 19:34:57.080312  8854 layer_factory.hpp:77] Creating layer relu1
I0505 19:34:57.080320  8854 net.cpp:94] Creating Layer relu1
I0505 19:34:57.080323  8854 net.cpp:435] relu1 <- conv1
I0505 19:34:57.080328  8854 net.cpp:396] relu1 -> conv1 (in-place)
I0505 19:34:57.080337  8854 net.cpp:144] Setting up relu1
I0505 19:34:57.080341  8854 net.cpp:151] Top shape: 20 64 20 20 (512000)
I0505 19:34:57.080343  8854 net.cpp:159] Memory required for data: 4128080
I0505 19:34:57.080346  8854 layer_factory.hpp:77] Creating layer pool1
I0505 19:34:57.080353  8854 net.cpp:94] Creating Layer pool1
I0505 19:34:57.080356  8854 net.cpp:435] pool1 <- conv1
I0505 19:34:57.080360  8854 net.cpp:409] pool1 -> pool1
I0505 19:34:57.080410  8854 net.cpp:144] Setting up pool1
I0505 19:34:57.080416  8854 net.cpp:151] Top shape: 20 64 10 10 (128000)
I0505 19:34:57.080420  8854 net.cpp:159] Memory required for data: 4640080
I0505 19:34:57.080423  8854 layer_factory.hpp:77] Creating layer conv2
I0505 19:34:57.080432  8854 net.cpp:94] Creating Layer conv2
I0505 19:34:57.080435  8854 net.cpp:435] conv2 <- pool1
I0505 19:34:57.080440  8854 net.cpp:409] conv2 -> conv2
I0505 19:34:57.091063  8854 net.cpp:144] Setting up conv2
I0505 19:34:57.091079  8854 net.cpp:151] Top shape: 20 128 10 10 (256000)
I0505 19:34:57.091084  8854 net.cpp:159] Memory required for data: 5664080
I0505 19:34:57.091091  8854 layer_factory.hpp:77] Creating layer relu2
I0505 19:34:57.091099  8854 net.cpp:94] Creating Layer relu2
I0505 19:34:57.091101  8854 net.cpp:435] relu2 <- conv2
I0505 19:34:57.091106  8854 net.cpp:396] relu2 -> conv2 (in-place)
I0505 19:34:57.091114  8854 net.cpp:144] Setting up relu2
I0505 19:34:57.091117  8854 net.cpp:151] Top shape: 20 128 10 10 (256000)
I0505 19:34:57.091120  8854 net.cpp:159] Memory required for data: 6688080
I0505 19:34:57.091123  8854 layer_factory.hpp:77] Creating layer conv3
I0505 19:34:57.091131  8854 net.cpp:94] Creating Layer conv3
I0505 19:34:57.091135  8854 net.cpp:435] conv3 <- conv2
I0505 19:34:57.091140  8854 net.cpp:409] conv3 -> conv3
I0505 19:34:57.108791  8854 net.cpp:144] Setting up conv3
I0505 19:34:57.108808  8854 net.cpp:151] Top shape: 20 128 10 10 (256000)
I0505 19:34:57.108813  8854 net.cpp:159] Memory required for data: 7712080
I0505 19:34:57.108821  8854 layer_factory.hpp:77] Creating layer relu3
I0505 19:34:57.108834  8854 net.cpp:94] Creating Layer relu3
I0505 19:34:57.108839  8854 net.cpp:435] relu3 <- conv3
I0505 19:34:57.108842  8854 net.cpp:396] relu3 -> conv3 (in-place)
I0505 19:34:57.108850  8854 net.cpp:144] Setting up relu3
I0505 19:34:57.108855  8854 net.cpp:151] Top shape: 20 128 10 10 (256000)
I0505 19:34:57.108857  8854 net.cpp:159] Memory required for data: 8736080
I0505 19:34:57.108860  8854 layer_factory.hpp:77] Creating layer pool3
I0505 19:34:57.108866  8854 net.cpp:94] Creating Layer pool3
I0505 19:34:57.108870  8854 net.cpp:435] pool3 <- conv3
I0505 19:34:57.108875  8854 net.cpp:409] pool3 -> pool3
I0505 19:34:57.108913  8854 net.cpp:144] Setting up pool3
I0505 19:34:57.108921  8854 net.cpp:151] Top shape: 20 128 5 5 (64000)
I0505 19:34:57.108923  8854 net.cpp:159] Memory required for data: 8992080
I0505 19:34:57.108927  8854 layer_factory.hpp:77] Creating layer ip1
I0505 19:34:57.108937  8854 net.cpp:94] Creating Layer ip1
I0505 19:34:57.108939  8854 net.cpp:435] ip1 <- pool3
I0505 19:34:57.108944  8854 net.cpp:409] ip1 -> ip1
I0505 19:34:57.148680  8854 net.cpp:144] Setting up ip1
I0505 19:34:57.148705  8854 net.cpp:151] Top shape: 20 512 (10240)
I0505 19:34:57.148710  8854 net.cpp:159] Memory required for data: 9033040
I0505 19:34:57.148717  8854 layer_factory.hpp:77] Creating layer ip2
I0505 19:34:57.148727  8854 net.cpp:94] Creating Layer ip2
I0505 19:34:57.148731  8854 net.cpp:435] ip2 <- ip1
I0505 19:34:57.148737  8854 net.cpp:409] ip2 -> ip2
I0505 19:34:57.151871  8854 net.cpp:144] Setting up ip2
I0505 19:34:57.151881  8854 net.cpp:151] Top shape: 20 256 (5120)
I0505 19:34:57.151885  8854 net.cpp:159] Memory required for data: 9053520
I0505 19:34:57.151892  8854 layer_factory.hpp:77] Creating layer ip3
I0505 19:34:57.151898  8854 net.cpp:94] Creating Layer ip3
I0505 19:34:57.151902  8854 net.cpp:435] ip3 <- ip2
I0505 19:34:57.151906  8854 net.cpp:409] ip3 -> ip3
I0505 19:34:57.152006  8854 net.cpp:144] Setting up ip3
I0505 19:34:57.152012  8854 net.cpp:151] Top shape: 20 1 (20)
I0505 19:34:57.152015  8854 net.cpp:159] Memory required for data: 9053600
I0505 19:34:57.152020  8854 layer_factory.hpp:77] Creating layer loss
I0505 19:34:57.152034  8854 net.cpp:94] Creating Layer loss
I0505 19:34:57.152037  8854 net.cpp:435] loss <- ip3
I0505 19:34:57.152040  8854 net.cpp:435] loss <- label
I0505 19:34:57.152045  8854 net.cpp:409] loss -> loss
I0505 19:34:57.152096  8854 net.cpp:144] Setting up loss
…
I0505 19:34:57.236266  8854 net.cpp:323] The NetState phase (0) differed from the phase (1) specified by a rule in layer intercept
I0505 19:34:57.236279  8854 net.cpp:323] The NetState phase (0) differed from the phase (1) specified by a rule in layer accuracy
I0505 19:34:57.236348  8854 net.cpp:52] Initializing net from parameters: 
state {
  phase: TRAIN
}
layer {
  name: "parameters"
  type: "HDF5Data"
  top: "data"
  top: "label"
  include {
    phase: TRAIN
  }
  hdf5_data_param {
    source: "/home/purduethu/scratch/radon/d/deng106/CNNStatisticalModel/distributions/input/5_distributions_400_sample_size_train-distributions-path.txt"
    batch_size: 20
  }
}
layer {
  name: "conv1"
  type: "Convolution"
  bottom: "data"
  top: "conv1"
  param {
    lr_mult: 1
  }
  param {
    lr_mult: 2
  }
  convolution_param {
    num_output: 64
    pad: 2
    kernel_size: 5
    stride: 1
    weight_filler {
      type: "gaussian"
      std: 0.0001
    }
    bias_filler {
      type: "constant"
    }
  }
}
layer {
  name: "relu1"
  type: "ReLU"
  bottom: "conv1"
  top: "conv1"
}
layer {
  name: "pool1"
  type: "Pooling"
  bottom: "conv1"
  top: "pool1"
  pooling_param {
    pool: MAX
    kernel_size: 3
    stride: 2
  }
}
layer {
  name: "conv2"
  type: "Convolution"
  bottom: "pool1"
  top: "conv2"
  param {
    lr_mult: 1
  }
  param {
    lr_mult: 2
  }
  convolution_param {
    num_output: 128
    pad: 2
    kernel_size: 5
    stride: 1
    weight_filler {
      type: "gaussian"
      std: 0.01
    }
    bias_filler {
      type: "constant"
    }
  }
}
layer {
  name: "relu2"
  type: "ReLU"
  bottom: "conv2"
  top: "conv2"
}
layer {
  name: "conv3"
  type: "Convolution"
  bottom: "conv2"
  top: "conv3"
  param {
    lr_mult: 1
  }
  param {
    lr_mult: 2
  }
  convolution_param {
    num_output: 128
    pad: 2
    kernel_size: 5
    stride: 1
    weight_filler {
      type: "gaussian"
      std: 0.01
    }
    bias_filler {
      type: "constant"
    }
  }
}
layer {
  name: "relu3"
  type: "ReLU"
  bottom: "conv3"
  top: "conv3"
}
layer {
  name: "pool3"
  type: "Pooling"
  bottom: "conv3"
  top: "pool3"
  pooling_param {
    pool: AVE
    kernel_size: 3
    stride: 2
  }
}
layer {
  name: "ip1"
  type: "InnerProduct"
  bottom: "pool3"
  top: "ip1"
  param {
    lr_mult: 1
  }
  param {
    lr_mult: 2
  }
  inner_product_param {
    num_output: 512
    weight_filler {
      type: "gaussian"
      std: 0.1
    }
    bias_filler {
      type: "constant"
    }
  }
}
layer {
  name: "ip2"
  type: "InnerProduct"
  bottom: "ip1"
  top: "ip2"
  param {
    lr_mult: 1
  }
  param {
    lr_mult: 2
  }
  inner_product_param {
    num_output: 256
    weight_filler {
      type: "gaussian"
      std: 0.1
    }
    bias_filler {
      type: "constant"
    }
  }
}
layer {
  name: "ip3"
  type: "InnerProduct"
  bottom: "ip2"
  top: "ip3"
  param {
    lr_mult: 1
  }
  param {
    lr_mult: 2
  }
  inner_product_param {
    num_output: 50
    weight_filler {
      type: "gaussian"
      std: 0.1
    }
    bias_filler {
      type: "constant"
    }
  }
}
layer {
  name: "loss"
  type: "SoftmaxWithLoss"
  bottom: "ip3"
  bottom: "label"
  top: "loss"
}
I0505 19:34:57.236388  8854 layer_factory.hpp:77] Creating layer parameters
I0505 19:34:57.236395  8854 net.cpp:94] Creating Layer parameters
I0505 19:34:57.236399  8854 net.cpp:409] parameters -> data
I0505 19:34:57.236407  8854 net.cpp:409] parameters -> label
I0505 19:34:57.236412  8854 hdf5_data_layer.cpp:79] Loading list of HDF5 filenames from: /home/purduethu/scratch/radon/d/deng106/CNNStatisticalModel/distributions/input/5_distributions_400_sample_size_train-distributions-path.txt
I0505 19:34:57.236426  8854 hdf5_data_layer.cpp:93] Number of HDF5 files: 1
I0505 19:34:57.298091  8854 hdf5.cpp:35] Datatype class: H5T_INTEGER
I0505 19:34:57.298538  8854 net.cpp:144] Setting up parameters
I0505 19:34:57.298557  8854 net.cpp:151] Top shape: 20 1 20 20 (8000)
I0505 19:34:57.298562  8854 net.cpp:151] Top shape: 20 (20)
I0505 19:34:57.298565  8854 net.cpp:159] Memory required for data: 32080
I0505 19:34:57.298571  8854 layer_factory.hpp:77] Creating layer conv1
I0505 19:34:57.298589  8854 net.cpp:94] Creating Layer conv1
I0505 19:34:57.298593  8854 net.cpp:435] conv1 <- data
I0505 19:34:57.298599  8854 net.cpp:409] conv1 -> conv1
I0505 19:34:57.300848  8854 net.cpp:144] Setting up conv1
I0505 19:34:57.300863  8854 net.cpp:151] Top shape: 20 64 20 20 (512000)
I0505 19:34:57.300866  8854 net.cpp:159] Memory required for data: 2080080
I0505 19:34:57.300876  8854 layer_factory.hpp:77] Creating layer relu1
I0505 19:34:57.300884  8854 net.cpp:94] Creating Layer relu1
I0505 19:34:57.300887  8854 net.cpp:435] relu1 <- conv1
I0505 19:34:57.300891  8854 net.cpp:396] relu1 -> conv1 (in-place)
I0505 19:34:57.300899  8854 net.cpp:144] Setting up relu1
I0505 19:34:57.300904  8854 net.cpp:151] Top shape: 20 64 20 20 (512000)
I0505 19:34:57.300905  8854 net.cpp:159] Memory required for data: 4128080
I0505 19:34:57.300909  8854 layer_factory.hpp:77] Creating layer pool1
I0505 19:34:57.300915  8854 net.cpp:94] Creating Layer pool1
I0505 19:34:57.300917  8854 net.cpp:435] pool1 <- conv1
I0505 19:34:57.300928  8854 net.cpp:409] pool1 -> pool1
I0505 19:34:57.300978  8854 net.cpp:144] Setting up pool1
I0505 19:34:57.300984  8854 net.cpp:151] Top shape: 20 64 10 10 (128000)
I0505 19:34:57.300988  8854 net.cpp:159] Memory required for data: 4640080
I0505 19:34:57.300992  8854 layer_factory.hpp:77] Creating layer conv2
I0505 19:34:57.300999  8854 net.cpp:94] Creating Layer conv2
I0505 19:34:57.301003  8854 net.cpp:435] conv2 <- pool1
I0505 19:34:57.301007  8854 net.cpp:409] conv2 -> conv2
I0505 19:34:57.311771  8854 net.cpp:144] Setting up conv2
I0505 19:34:57.311787  8854 net.cpp:151] Top shape: 20 128 10 10 (256000)
I0505 19:34:57.311791  8854 net.cpp:159] Memory required for data: 5664080
I0505 19:34:57.311800  8854 layer_factory.hpp:77] Creating layer relu2
I0505 19:34:57.311806  8854 net.cpp:94] Creating Layer relu2
I0505 19:34:57.311810  8854 net.cpp:435] relu2 <- conv2
I0505 19:34:57.311815  8854 net.cpp:396] relu2 -> conv2 (in-place)
I0505 19:34:57.311821  8854 net.cpp:144] Setting up relu2
I0505 19:34:57.311825  8854 net.cpp:151] Top shape: 20 128 10 10 (256000)
I0505 19:34:57.311828  8854 net.cpp:159] Memory required for data: 6688080
I0505 19:34:57.311832  8854 layer_factory.hpp:77] Creating layer conv3
I0505 19:34:57.311839  8854 net.cpp:94] Creating Layer conv3
I0505 19:34:57.311843  8854 net.cpp:435] conv3 <- conv2
I0505 19:34:57.311848  8854 net.cpp:409] conv3 -> conv3
I0505 19:34:57.329542  8854 net.cpp:144] Setting up conv3
I0505 19:34:57.329557  8854 net.cpp:151] Top shape: 20 128 10 10 (256000)
I0505 19:34:57.329561  8854 net.cpp:159] Memory required for data: 7712080
I0505 19:34:57.329571  8854 layer_factory.hpp:77] Creating layer relu3
I0505 19:34:57.329577  8854 net.cpp:94] Creating Layer relu3
I0505 19:34:57.329581  8854 net.cpp:435] relu3 <- conv3
I0505 19:34:57.329586  8854 net.cpp:396] relu3 -> conv3 (in-place)
I0505 19:34:57.329592  8854 net.cpp:144] Setting up relu3
I0505 19:34:57.329597  8854 net.cpp:151] Top shape: 20 128 10 10 (256000)
I0505 19:34:57.329601  8854 net.cpp:159] Memory required for data: 8736080
I0505 19:34:57.329603  8854 layer_factory.hpp:77] Creating layer pool3
I0505 19:34:57.329609  8854 net.cpp:94] Creating Layer pool3
I0505 19:34:57.329612  8854 net.cpp:435] pool3 <- conv3
I0505 19:34:57.329617  8854 net.cpp:409] pool3 -> pool3
I0505 19:34:57.329653  8854 net.cpp:144] Setting up pool3
I0505 19:34:57.329660  8854 net.cpp:151] Top shape: 20 128 5 5 (64000)
I0505 19:34:57.329663  8854 net.cpp:159] Memory required for data: 8992080
I0505 19:34:57.329666  8854 layer_factory.hpp:77] Creating layer ip1
I0505 19:34:57.329674  8854 net.cpp:94] Creating Layer ip1
I0505 19:34:57.329676  8854 net.cpp:435] ip1 <- pool3
I0505 19:34:57.329681  8854 net.cpp:409] ip1 -> ip1
I0505 19:34:57.369387  8854 net.cpp:144] Setting up ip1
I0505 19:34:57.369407  8854 net.cpp:151] Top shape: 20 512 (10240)
I0505 19:34:57.369410  8854 net.cpp:159] Memory required for data: 9033040
I0505 19:34:57.369417  8854 layer_factory.hpp:77] Creating layer ip2
I0505 19:34:57.369426  8854 net.cpp:94] Creating Layer ip2
I0505 19:34:57.369429  8854 net.cpp:435] ip2 <- ip1
I0505 19:34:57.369434  8854 net.cpp:409] ip2 -> ip2
I0505 19:34:57.372583  8854 net.cpp:144] Setting up ip2
I0505 19:34:57.372592  8854 net.cpp:151] Top shape: 20 256 (5120)
I0505 19:34:57.372596  8854 net.cpp:159] Memory required for data: 9053520
I0505 19:34:57.372603  8854 layer_factory.hpp:77] Creating layer ip3
I0505 19:34:57.372609  8854 net.cpp:94] Creating Layer ip3
I0505 19:34:57.372612  8854 net.cpp:435] ip3 <- ip2
I0505 19:34:57.372617  8854 net.cpp:409] ip3 -> ip3
I0505 19:34:57.373036  8854 net.cpp:144] Setting up ip3
I0505 19:34:57.373044  8854 net.cpp:151] Top shape: 20 50 (1000)
I0505 19:34:57.373046  8854 net.cpp:159] Memory required for data: 9057520
I0505 19:34:57.373051  8854 layer_factory.hpp:77] Creating layer loss
I0505 19:34:57.373057  8854 net.cpp:94] Creating Layer loss
I0505 19:34:57.373060  8854 net.cpp:435] loss <- ip3
I0505 19:34:57.373064  8854 net.cpp:435] loss <- label
I0505 19:34:57.373069  8854 net.cpp:409] loss -> loss
I0505 19:34:57.373082  8854 layer_factory.hpp:77] Creating layer loss
…
I0505 19:34:57.373517  8854 solver.cpp:181] Creating test net (#0) specified by net file: ./protocol/dis_5_400_dimension.protocol_distribution
I0505 19:34:57.373540  8854 net.cpp:323] The NetState phase (1) differed from the phase (0) specified by a rule in layer parameters
I0505 19:34:57.373621  8854 net.cpp:52] Initializing net from parameters: 
state {
  phase: TEST
}
layer {
  name: "intercept"
  type: "HDF5Data"
  top: "data"
  top: "label"
  include {
    phase: TEST
  }
  hdf5_data_param {
    source: "/home/purduethu/scratch/radon/d/deng106/CNNStatisticalModel/distributions/input/5_distributions_400_sample_size_test-distributions-path.txt"
    batch_size: 20
  }
}
layer {
  name: "conv1"
  type: "Convolution"
  bottom: "data"
  top: "conv1"
  param {
    lr_mult: 1
  }
  param {
    lr_mult: 2
  }
  convolution_param {
    num_output: 64
    pad: 2
    kernel_size: 5
    stride: 1
    weight_filler {
      type: "gaussian"
      std: 0.0001
    }
    bias_filler {
      type: "constant"
    }
  }
}
layer {
  name: "relu1"
  type: "ReLU"
  bottom: "conv1"
  top: "conv1"
}
layer {
  name: "pool1"
  type: "Pooling"
  bottom: "conv1"
  top: "pool1"
  pooling_param {
    pool: MAX
    kernel_size: 3
    stride: 2
  }
}
layer {
  name: "conv2"
  type: "Convolution"
  bottom: "pool1"
  top: "conv2"
  param {
    lr_mult: 1
  }
  param {
    lr_mult: 2
  }
  convolution_param {
    num_output: 128
    pad: 2
    kernel_size: 5
    stride: 1
    weight_filler {
      type: "gaussian"
      std: 0.01
    }
    bias_filler {
      type: "constant"
    }
  }
}
layer {
  name: "relu2"
  type: "ReLU"
  bottom: "conv2"
  top: "conv2"
}
layer {
  name: "conv3"
  type: "Convolution"
  bottom: "conv2"
  top: "conv3"
  param {
    lr_mult: 1
  }
  param {
    lr_mult: 2
  }
  convolution_param {
    num_output: 128
    pad: 2
    kernel_size: 5
    stride: 1
    weight_filler {
      type: "gaussian"
      std: 0.01
    }
    bias_filler {
      type: "constant"
    }
  }
}
layer {
  name: "relu3"
  type: "ReLU"
  bottom: "conv3"
  top: "conv3"
}
layer {
  name: "pool3"
  type: "Pooling"
  bottom: "conv3"
  top: "pool3"
  pooling_param {
    pool: AVE
    kernel_size: 3
    stride: 2
  }
}
layer {
  name: "ip1"
  type: "InnerProduct"
  bottom: "pool3"
  top: "ip1"
  param {
    lr_mult: 1
  }
  param {
    lr_mult: 2
  }
  inner_product_param {
    num_output: 512
    weight_filler {
      type: "gaussian"
      std: 0.1
    }
    bias_filler {
      type: "constant"
    }
  }
}
layer {
  name: "ip2"
  type: "InnerProduct"
  bottom: "ip1"
  top: "ip2"
  param {
    lr_mult: 1
  }
  param {
    lr_mult: 2
  }
  inner_product_param {
    num_output: 256
    weight_filler {
      type: "gaussian"
      std: 0.1
    }
    bias_filler {
      type: "constant"
    }
  }
}
layer {
  name: "ip3"
  type: "InnerProduct"
  bottom: "ip2"
  top: "ip3"
  param {
    lr_mult: 1
  }
  param {
    lr_mult: 2
  }
  inner_product_param {
    num_output: 50
    weight_filler {
      type: "gaussian"
      std: 0.1
    }
    bias_filler {
      type: "constant"
    }
  }
}
layer {
  name: "accuracy"
  type: "Accuracy"
  bottom: "ip3"
  bottom: "label"
  top: "accuracy"
  include {
    phase: TEST
  }
}
layer {
  name: "loss"
  type: "SoftmaxWithLoss"
  bottom: "ip3"
  bottom: "label"
  top: "loss"
}
I0505 19:34:57.373677  8854 layer_factory.hpp:77] Creating layer intercept
I0505 19:34:57.373685  8854 net.cpp:94] Creating Layer intercept
I0505 19:34:57.373689  8854 net.cpp:409] intercept -> data
I0505 19:34:57.373695  8854 net.cpp:409] intercept -> label
I0505 19:34:57.373700  8854 hdf5_data_layer.cpp:79] Loading list of HDF5 filenames from: /home/purduethu/scratch/radon/d/deng106/CNNStatisticalModel/distributions/input/5_distributions_400_sample_size_test-distributions-path.txt
I0505 19:34:57.373720  8854 hdf5_data_layer.cpp:93] Number of HDF5 files: 1
I0505 19:34:57.389777  8854 net.cpp:144] Setting up intercept
I0505 19:34:57.389811  8854 net.cpp:151] Top shape: 20 1 20 20 (8000)
I0505 19:34:57.389817  8854 net.cpp:151] Top shape: 20 (20)
I0505 19:34:57.389820  8854 net.cpp:159] Memory required for data: 32080
I0505 19:34:57.389825  8854 layer_factory.hpp:77] Creating layer label_intercept_1_split
I0505 19:34:57.389845  8854 net.cpp:94] Creating Layer label_intercept_1_split
I0505 19:34:57.389850  8854 net.cpp:435] label_intercept_1_split <- label
I0505 19:34:57.389855  8854 net.cpp:409] label_intercept_1_split -> label_intercept_1_split_0
I0505 19:34:57.389863  8854 net.cpp:409] label_intercept_1_split -> label_intercept_1_split_1
I0505 19:34:57.389904  8854 net.cpp:144] Setting up label_intercept_1_split
I0505 19:34:57.389909  8854 net.cpp:151] Top shape: 20 (20)
I0505 19:34:57.389914  8854 net.cpp:151] Top shape: 20 (20)
I0505 19:34:57.389915  8854 net.cpp:159] Memory required for data: 32240
I0505 19:34:57.389919  8854 layer_factory.hpp:77] Creating layer conv1
I0505 19:34:57.389930  8854 net.cpp:94] Creating Layer conv1
I0505 19:34:57.389933  8854 net.cpp:435] conv1 <- data
I0505 19:34:57.389938  8854 net.cpp:409] conv1 -> conv1
I0505 19:34:57.390734  8854 net.cpp:144] Setting up conv1
I0505 19:34:57.390748  8854 net.cpp:151] Top shape: 20 64 20 20 (512000)
I0505 19:34:57.390750  8854 net.cpp:159] Memory required for data: 2080240
I0505 19:34:57.390760  8854 layer_factory.hpp:77] Creating layer relu1
I0505 19:34:57.390768  8854 net.cpp:94] Creating Layer relu1
I0505 19:34:57.390770  8854 net.cpp:435] relu1 <- conv1
I0505 19:34:57.390774  8854 net.cpp:396] relu1 -> conv1 (in-place)
I0505 19:34:57.390781  8854 net.cpp:144] Setting up relu1
I0505 19:34:57.390786  8854 net.cpp:151] Top shape: 20 64 20 20 (512000)
I0505 19:34:57.390789  8854 net.cpp:159] Memory required for data: 4128240
I0505 19:34:57.390791  8854 layer_factory.hpp:77] Creating layer pool1
I0505 19:34:57.390799  8854 net.cpp:94] Creating Layer pool1
I0505 19:34:57.390801  8854 net.cpp:435] pool1 <- conv1
I0505 19:34:57.390805  8854 net.cpp:409] pool1 -> pool1
I0505 19:34:57.390852  8854 net.cpp:144] Setting up pool1
I0505 19:34:57.390859  8854 net.cpp:151] Top shape: 20 64 10 10 (128000)
I0505 19:34:57.390861  8854 net.cpp:159] Memory required for data: 4640240
I0505 19:34:57.390864  8854 layer_factory.hpp:77] Creating layer conv2
I0505 19:34:57.390872  8854 net.cpp:94] Creating Layer conv2
I0505 19:34:57.390875  8854 net.cpp:435] conv2 <- pool1
I0505 19:34:57.390880  8854 net.cpp:409] conv2 -> conv2
I0505 19:34:57.398545  8854 net.cpp:144] Setting up conv2
I0505 19:34:57.398558  8854 net.cpp:151] Top shape: 20 128 10 10 (256000)
I0505 19:34:57.398561  8854 net.cpp:159] Memory required for data: 5664240
I0505 19:34:57.398569  8854 layer_factory.hpp:77] Creating layer relu2
I0505 19:34:57.398581  8854 net.cpp:94] Creating Layer relu2
I0505 19:34:57.398586  8854 net.cpp:435] relu2 <- conv2
I0505 19:34:57.398591  8854 net.cpp:396] relu2 -> conv2 (in-place)
I0505 19:34:57.398597  8854 net.cpp:144] Setting up relu2
I0505 19:34:57.398602  8854 net.cpp:151] Top shape: 20 128 10 10 (256000)
I0505 19:34:57.398604  8854 net.cpp:159] Memory required for data: 6688240
I0505 19:34:57.398607  8854 layer_factory.hpp:77] Creating layer conv3
I0505 19:34:57.398614  8854 net.cpp:94] Creating Layer conv3
I0505 19:34:57.398617  8854 net.cpp:435] conv3 <- conv2
I0505 19:34:57.398622  8854 net.cpp:409] conv3 -> conv3
I0505 19:34:57.412255  8854 net.cpp:144] Setting up conv3
I0505 19:34:57.412271  8854 net.cpp:151] Top shape: 20 128 10 10 (256000)
I0505 19:34:57.412274  8854 net.cpp:159] Memory required for data: 7712240
I0505 19:34:57.412283  8854 layer_factory.hpp:77] Creating layer relu3
I0505 19:34:57.412291  8854 net.cpp:94] Creating Layer relu3
I0505 19:34:57.412294  8854 net.cpp:435] relu3 <- conv3
I0505 19:34:57.412299  8854 net.cpp:396] relu3 -> conv3 (in-place)
I0505 19:34:57.412307  8854 net.cpp:144] Setting up relu3
I0505 19:34:57.412312  8854 net.cpp:151] Top shape: 20 128 10 10 (256000)
I0505 19:34:57.412314  8854 net.cpp:159] Memory required for data: 8736240
I0505 19:34:57.412317  8854 layer_factory.hpp:77] Creating layer pool3
I0505 19:34:57.412322  8854 net.cpp:94] Creating Layer pool3
I0505 19:34:57.412325  8854 net.cpp:435] pool3 <- conv3
I0505 19:34:57.412329  8854 net.cpp:409] pool3 -> pool3
I0505 19:34:57.412369  8854 net.cpp:144] Setting up pool3
I0505 19:34:57.412375  8854 net.cpp:151] Top shape: 20 128 5 5 (64000)
I0505 19:34:57.412379  8854 net.cpp:159] Memory required for data: 8992240
I0505 19:34:57.412381  8854 layer_factory.hpp:77] Creating layer ip1
I0505 19:34:57.412389  8854 net.cpp:94] Creating Layer ip1
I0505 19:34:57.412391  8854 net.cpp:435] ip1 <- pool3
I0505 19:34:57.412396  8854 net.cpp:409] ip1 -> ip1
I0505 19:34:57.452080  8854 net.cpp:144] Setting up ip1
I0505 19:34:57.452096  8854 net.cpp:151] Top shape: 20 512 (10240)
I0505 19:34:57.452100  8854 net.cpp:159] Memory required for data: 9033200
I0505 19:34:57.452106  8854 layer_factory.hpp:77] Creating layer ip2
I0505 19:34:57.452113  8854 net.cpp:94] Creating Layer ip2
I0505 19:34:57.452117  8854 net.cpp:435] ip2 <- ip1
I0505 19:34:57.452122  8854 net.cpp:409] ip2 -> ip2
I0505 19:34:57.455274  8854 net.cpp:144] Setting up ip2
I0505 19:34:57.455283  8854 net.cpp:151] Top shape: 20 256 (5120)
I0505 19:34:57.455286  8854 net.cpp:159] Memory required for data: 9053680
I0505 19:34:57.455293  8854 layer_factory.hpp:77] Creating layer ip3
I0505 19:34:57.455299  8854 net.cpp:94] Creating Layer ip3
I0505 19:34:57.455302  8854 net.cpp:435] ip3 <- ip2
I0505 19:34:57.455307  8854 net.cpp:409] ip3 -> ip3
I0505 19:34:57.455735  8854 net.cpp:144] Setting up ip3
I0505 19:34:57.455742  8854 net.cpp:151] Top shape: 20 50 (1000)
I0505 19:34:57.455744  8854 net.cpp:159] Memory required for data: 9057680
I0505 19:34:57.455749  8854 layer_factory.hpp:77] Creating layer ip3_ip3_0_split
I0505 19:34:57.455755  8854 net.cpp:94] Creating Layer ip3_ip3_0_split
I0505 19:34:57.455759  8854 net.cpp:435] ip3_ip3_0_split <- ip3
I0505 19:34:57.455762  8854 net.cpp:409] ip3_ip3_0_split -> ip3_ip3_0_split_0
I0505 19:34:57.455767  8854 net.cpp:409] ip3_ip3_0_split -> ip3_ip3_0_split_1
I0505 19:34:57.455806  8854 net.cpp:144] Setting up ip3_ip3_0_split
I0505 19:34:57.455811  8854 net.cpp:151] Top shape: 20 50 (1000)
I0505 19:34:57.455814  8854 net.cpp:151] Top shape: 20 50 (1000)
I0505 19:34:57.455817  8854 net.cpp:159] Memory required for data: 9065680
I0505 19:34:57.455821  8854 layer_factory.hpp:77] Creating layer accuracy
I0505 19:34:57.455826  8854 net.cpp:94] Creating Layer accuracy
I0505 19:34:57.455829  8854 net.cpp:435] accuracy <- ip3_ip3_0_split_0
I0505 19:34:57.455833  8854 net.cpp:435] accuracy <- label_intercept_1_split_0
I0505 19:34:57.455837  8854 net.cpp:409] accuracy -> accuracy
…
