…
I0502 11:43:04.038683 28495 net.cpp:323] The NetState phase (0) differed from the phase (1) specified by a rule in layer intercept
I0502 11:43:04.038700 28495 net.cpp:323] The NetState phase (0) differed from the phase (1) specified by a rule in layer loss
I0502 11:43:04.038777 28495 net.cpp:52] Initializing net from parameters: 
state {
  phase: TRAIN
}
layer {
  name: "parameters"
  type: "HDF5Data"
  top: "data"
  top: "label"
  include {
    phase: TRAIN
  }
  hdf5_data_param {
    source: "/home/purduethu/scratch/radon/d/deng106/CNNStatisticalModel/distributions/input/20_distributions_100_sample_size_train-parameters-path.txt"
    batch_size: 20
  }
}
layer {
  name: "conv1"
  type: "Convolution"
  bottom: "data"
  top: "conv1"
  param {
    lr_mult: 1
  }
  param {
    lr_mult: 2
  }
  convolution_param {
    num_output: 64
    pad: 2
    kernel_size: 5
    stride: 1
    weight_filler {
      type: "gaussian"
      std: 0.0001
    }
    bias_filler {
      type: "constant"
    }
  }
}
layer {
  name: "relu1"
  type: "ReLU"
  bottom: "conv1"
  top: "conv1"
}
layer {
  name: "conv2"
  type: "Convolution"
  bottom: "conv1"
  top: "conv2"
  param {
    lr_mult: 1
  }
  param {
    lr_mult: 2
  }
  convolution_param {
    num_output: 64
    pad: 2
    kernel_size: 5
    stride: 1
    weight_filler {
      type: "gaussian"
      std: 0.01
    }
    bias_filler {
      type: "constant"
    }
  }
}
layer {
  name: "relu2"
  type: "ReLU"
  bottom: "conv2"
  top: "conv2"
}
layer {
  name: "pool2"
  type: "Pooling"
  bottom: "conv2"
  top: "pool2"
  pooling_param {
    pool: MAX
    kernel_size: 3
    stride: 2
  }
}
layer {
  name: "conv3"
  type: "Convolution"
  bottom: "pool2"
  top: "conv3"
  param {
    lr_mult: 1
  }
  param {
    lr_mult: 2
  }
  convolution_param {
    num_output: 64
    pad: 2
    kernel_size: 5
    stride: 1
    weight_filler {
      type: "gaussian"
      std: 0.01
    }
    bias_filler {
      type: "constant"
    }
  }
}
layer {
  name: "relu3"
  type: "ReLU"
  bottom: "conv3"
  top: "conv3"
}
layer {
  name: "conv4"
  type: "Convolution"
  bottom: "conv3"
  top: "conv4"
  param {
    lr_mult: 1
  }
  param {
    lr_mult: 2
  }
  convolution_param {
    num_output: 64
    pad: 2
    kernel_size: 5
    stride: 1
    weight_filler {
      type: "gaussian"
      std: 0.01
    }
    bias_filler {
      type: "constant"
    }
  }
}
layer {
  name: "relu4"
  type: "ReLU"
  bottom: "conv4"
  top: "conv4"
}
layer {
  name: "conv5"
  type: "Convolution"
  bottom: "conv4"
  top: "conv5"
  param {
    lr_mult: 1
  }
  param {
    lr_mult: 2
  }
  convolution_param {
    num_output: 64
    pad: 2
    kernel_size: 5
    stride: 1
    weight_filler {
      type: "gaussian"
      std: 0.01
    }
    bias_filler {
      type: "constant"
    }
  }
}
layer {
  name: "relu5"
  type: "ReLU"
  bottom: "conv5"
  top: "conv5"
}
layer {
  name: "pool5"
  type: "Pooling"
  bottom: "conv5"
  top: "pool5"
  pooling_param {
    pool: AVE
    kernel_size: 3
    stride: 2
  }
}
layer {
  name: "ip1"
  type: "InnerProduct"
  bottom: "pool5"
  top: "ip1"
  param {
    lr_mult: 1
  }
  param {
    lr_mult: 2
  }
  inner_product_param {
    num_output: 64
    weight_filler {
      type: "gaussian"
      std: 0.1
    }
    bias_filler {
      type: "constant"
    }
  }
}
layer {
  name: "ip2"
  type: "InnerProduct"
  bottom: "ip1"
  top: "ip2"
  param {
    lr_mult: 1
  }
  param {
    lr_mult: 2
  }
  inner_product_param {
    num_output: 64
    weight_filler {
      type: "gaussian"
      std: 0.1
    }
    bias_filler {
      type: "constant"
    }
  }
}
layer {
  name: "ip3"
  type: "InnerProduct"
  bottom: "ip2"
  top: "ip3"
  param {
    lr_mult: 1
  }
  param {
    lr_mult: 2
  }
  inner_product_param {
    num_output: 1
    weight_filler {
      type: "gaussian"
      std: 0.1
    }
    bias_filler {
      type: "constant"
    }
  }
}
layer {
  name: "loss"
  type: "HuberLoss"
  bottom: "ip3"
  bottom: "label"
  top: "loss"
  include {
    phase: TRAIN
  }
}
I0502 11:43:04.038830 28495 layer_factory.hpp:77] Creating layer parameters
I0502 11:43:04.038842 28495 net.cpp:94] Creating Layer parameters
I0502 11:43:04.038846 28495 net.cpp:409] parameters -> data
I0502 11:43:04.038856 28495 net.cpp:409] parameters -> label
I0502 11:43:04.038861 28495 hdf5_data_layer.cpp:79] Loading list of HDF5 filenames from: /home/purduethu/scratch/radon/d/deng106/CNNStatisticalModel/distributions/input/20_distributions_100_sample_size_train-parameters-path.txt
I0502 11:43:04.038877 28495 hdf5_data_layer.cpp:93] Number of HDF5 files: 1
I0502 11:43:04.039439 28495 hdf5.cpp:32] Datatype class: H5T_FLOAT
I0502 11:43:04.108927 28495 net.cpp:144] Setting up parameters
I0502 11:43:04.108958 28495 net.cpp:151] Top shape: 20 1 10 10 (2000)
I0502 11:43:04.108963 28495 net.cpp:151] Top shape: 20 (20)
I0502 11:43:04.108966 28495 net.cpp:159] Memory required for data: 8080
I0502 11:43:04.108973 28495 layer_factory.hpp:77] Creating layer conv1
I0502 11:43:04.108994 28495 net.cpp:94] Creating Layer conv1
I0502 11:43:04.108999 28495 net.cpp:435] conv1 <- data
I0502 11:43:04.109005 28495 net.cpp:409] conv1 -> conv1
I0502 11:43:04.113167 28495 net.cpp:144] Setting up conv1
I0502 11:43:04.113183 28495 net.cpp:151] Top shape: 20 64 10 10 (128000)
I0502 11:43:04.113188 28495 net.cpp:159] Memory required for data: 520080
I0502 11:43:04.113198 28495 layer_factory.hpp:77] Creating layer relu1
I0502 11:43:04.113206 28495 net.cpp:94] Creating Layer relu1
I0502 11:43:04.113210 28495 net.cpp:435] relu1 <- conv1
I0502 11:43:04.113214 28495 net.cpp:396] relu1 -> conv1 (in-place)
I0502 11:43:04.113229 28495 net.cpp:144] Setting up relu1
I0502 11:43:04.113234 28495 net.cpp:151] Top shape: 20 64 10 10 (128000)
I0502 11:43:04.113236 28495 net.cpp:159] Memory required for data: 1032080
I0502 11:43:04.113240 28495 layer_factory.hpp:77] Creating layer conv2
I0502 11:43:04.113247 28495 net.cpp:94] Creating Layer conv2
I0502 11:43:04.113251 28495 net.cpp:435] conv2 <- conv1
I0502 11:43:04.113256 28495 net.cpp:409] conv2 -> conv2
I0502 11:43:04.119148 28495 net.cpp:144] Setting up conv2
I0502 11:43:04.119161 28495 net.cpp:151] Top shape: 20 64 10 10 (128000)
I0502 11:43:04.119165 28495 net.cpp:159] Memory required for data: 1544080
I0502 11:43:04.119174 28495 layer_factory.hpp:77] Creating layer relu2
I0502 11:43:04.119179 28495 net.cpp:94] Creating Layer relu2
I0502 11:43:04.119184 28495 net.cpp:435] relu2 <- conv2
I0502 11:43:04.119189 28495 net.cpp:396] relu2 -> conv2 (in-place)
I0502 11:43:04.119194 28495 net.cpp:144] Setting up relu2
I0502 11:43:04.119199 28495 net.cpp:151] Top shape: 20 64 10 10 (128000)
I0502 11:43:04.119202 28495 net.cpp:159] Memory required for data: 2056080
I0502 11:43:04.119205 28495 layer_factory.hpp:77] Creating layer pool2
I0502 11:43:04.119217 28495 net.cpp:94] Creating Layer pool2
I0502 11:43:04.119221 28495 net.cpp:435] pool2 <- conv2
I0502 11:43:04.119225 28495 net.cpp:409] pool2 -> pool2
I0502 11:43:04.119282 28495 net.cpp:144] Setting up pool2
I0502 11:43:04.119289 28495 net.cpp:151] Top shape: 20 64 5 5 (32000)
I0502 11:43:04.119293 28495 net.cpp:159] Memory required for data: 2184080
I0502 11:43:04.119297 28495 layer_factory.hpp:77] Creating layer conv3
I0502 11:43:04.119304 28495 net.cpp:94] Creating Layer conv3
I0502 11:43:04.119308 28495 net.cpp:435] conv3 <- pool2
I0502 11:43:04.119313 28495 net.cpp:409] conv3 -> conv3
I0502 11:43:04.124830 28495 net.cpp:144] Setting up conv3
I0502 11:43:04.124845 28495 net.cpp:151] Top shape: 20 64 5 5 (32000)
I0502 11:43:04.124848 28495 net.cpp:159] Memory required for data: 2312080
I0502 11:43:04.124856 28495 layer_factory.hpp:77] Creating layer relu3
I0502 11:43:04.124862 28495 net.cpp:94] Creating Layer relu3
I0502 11:43:04.124866 28495 net.cpp:435] relu3 <- conv3
I0502 11:43:04.124871 28495 net.cpp:396] relu3 -> conv3 (in-place)
I0502 11:43:04.124878 28495 net.cpp:144] Setting up relu3
I0502 11:43:04.124882 28495 net.cpp:151] Top shape: 20 64 5 5 (32000)
I0502 11:43:04.124886 28495 net.cpp:159] Memory required for data: 2440080
I0502 11:43:04.124888 28495 layer_factory.hpp:77] Creating layer conv4
I0502 11:43:04.124897 28495 net.cpp:94] Creating Layer conv4
I0502 11:43:04.124900 28495 net.cpp:435] conv4 <- conv3
I0502 11:43:04.124905 28495 net.cpp:409] conv4 -> conv4
I0502 11:43:04.129909 28495 net.cpp:144] Setting up conv4
I0502 11:43:04.129922 28495 net.cpp:151] Top shape: 20 64 5 5 (32000)
I0502 11:43:04.129926 28495 net.cpp:159] Memory required for data: 2568080
I0502 11:43:04.129932 28495 layer_factory.hpp:77] Creating layer relu4
I0502 11:43:04.129938 28495 net.cpp:94] Creating Layer relu4
I0502 11:43:04.129942 28495 net.cpp:435] relu4 <- conv4
I0502 11:43:04.129946 28495 net.cpp:396] relu4 -> conv4 (in-place)
I0502 11:43:04.129953 28495 net.cpp:144] Setting up relu4
I0502 11:43:04.129958 28495 net.cpp:151] Top shape: 20 64 5 5 (32000)
I0502 11:43:04.129961 28495 net.cpp:159] Memory required for data: 2696080
I0502 11:43:04.129964 28495 layer_factory.hpp:77] Creating layer conv5
I0502 11:43:04.129971 28495 net.cpp:94] Creating Layer conv5
I0502 11:43:04.129974 28495 net.cpp:435] conv5 <- conv4
I0502 11:43:04.129979 28495 net.cpp:409] conv5 -> conv5
I0502 11:43:04.136327 28495 net.cpp:144] Setting up conv5
I0502 11:43:04.136342 28495 net.cpp:151] Top shape: 20 64 5 5 (32000)
I0502 11:43:04.136345 28495 net.cpp:159] Memory required for data: 2824080
I0502 11:43:04.136354 28495 layer_factory.hpp:77] Creating layer relu5
I0502 11:43:04.136360 28495 net.cpp:94] Creating Layer relu5
I0502 11:43:04.136363 28495 net.cpp:435] relu5 <- conv5
I0502 11:43:04.136368 28495 net.cpp:396] relu5 -> conv5 (in-place)
I0502 11:43:04.136375 28495 net.cpp:144] Setting up relu5
I0502 11:43:04.136380 28495 net.cpp:151] Top shape: 20 64 5 5 (32000)
I0502 11:43:04.136382 28495 net.cpp:159] Memory required for data: 2952080
I0502 11:43:04.136385 28495 layer_factory.hpp:77] Creating layer pool5
I0502 11:43:04.136391 28495 net.cpp:94] Creating Layer pool5
I0502 11:43:04.136394 28495 net.cpp:435] pool5 <- conv5
I0502 11:43:04.136399 28495 net.cpp:409] pool5 -> pool5
I0502 11:43:04.136440 28495 net.cpp:144] Setting up pool5
I0502 11:43:04.136446 28495 net.cpp:151] Top shape: 20 64 2 2 (5120)
I0502 11:43:04.136449 28495 net.cpp:159] Memory required for data: 2972560
I0502 11:43:04.136453 28495 layer_factory.hpp:77] Creating layer ip1
I0502 11:43:04.136463 28495 net.cpp:94] Creating Layer ip1
I0502 11:43:04.136467 28495 net.cpp:435] ip1 <- pool5
I0502 11:43:04.136472 28495 net.cpp:409] ip1 -> ip1
I0502 11:43:04.137883 28495 net.cpp:144] Setting up ip1
I0502 11:43:04.137897 28495 net.cpp:151] Top shape: 20 64 (1280)
I0502 11:43:04.137902 28495 net.cpp:159] Memory required for data: 2977680
I0502 11:43:04.137907 28495 layer_factory.hpp:77] Creating layer ip2
I0502 11:43:04.137914 28495 net.cpp:94] Creating Layer ip2
I0502 11:43:04.137926 28495 net.cpp:435] ip2 <- ip1
I0502 11:43:04.137933 28495 net.cpp:409] ip2 -> ip2
I0502 11:43:04.138152 28495 net.cpp:144] Setting up ip2
I0502 11:43:04.138159 28495 net.cpp:151] Top shape: 20 64 (1280)
I0502 11:43:04.138164 28495 net.cpp:159] Memory required for data: 2982800
I0502 11:43:04.138169 28495 layer_factory.hpp:77] Creating layer ip3
I0502 11:43:04.138175 28495 net.cpp:94] Creating Layer ip3
I0502 11:43:04.138177 28495 net.cpp:435] ip3 <- ip2
I0502 11:43:04.138182 28495 net.cpp:409] ip3 -> ip3
I0502 11:43:04.138293 28495 net.cpp:144] Setting up ip3
I0502 11:43:04.138299 28495 net.cpp:151] Top shape: 20 1 (20)
I0502 11:43:04.138303 28495 net.cpp:159] Memory required for data: 2982880
I0502 11:43:04.138309 28495 layer_factory.hpp:77] Creating layer loss
I0502 11:43:04.138315 28495 net.cpp:94] Creating Layer loss
I0502 11:43:04.138319 28495 net.cpp:435] loss <- ip3
I0502 11:43:04.138322 28495 net.cpp:435] loss <- label
I0502 11:43:04.138326 28495 net.cpp:409] loss -> loss
I0502 11:43:04.138383 28495 net.cpp:144] Setting up loss
…
I0502 11:43:04.176106 28495 net.cpp:323] The NetState phase (0) differed from the phase (1) specified by a rule in layer intercept
I0502 11:43:04.176122 28495 net.cpp:323] The NetState phase (0) differed from the phase (1) specified by a rule in layer accuracy
I0502 11:43:04.176209 28495 net.cpp:52] Initializing net from parameters: 
state {
  phase: TRAIN
}
layer {
  name: "parameters"
  type: "HDF5Data"
  top: "data"
  top: "label"
  include {
    phase: TRAIN
  }
  hdf5_data_param {
    source: "/home/purduethu/scratch/radon/d/deng106/CNNStatisticalModel/distributions/input/20_distributions_100_sample_size_train-distributions-path.txt"
    batch_size: 20
  }
}
layer {
  name: "conv1"
  type: "Convolution"
  bottom: "data"
  top: "conv1"
  param {
    lr_mult: 1
  }
  param {
    lr_mult: 2
  }
  convolution_param {
    num_output: 64
    pad: 2
    kernel_size: 5
    stride: 1
    weight_filler {
      type: "gaussian"
      std: 0.0001
    }
    bias_filler {
      type: "constant"
    }
  }
}
layer {
  name: "relu1"
  type: "ReLU"
  bottom: "conv1"
  top: "conv1"
}
layer {
  name: "conv2"
  type: "Convolution"
  bottom: "conv1"
  top: "conv2"
  param {
    lr_mult: 1
  }
  param {
    lr_mult: 2
  }
  convolution_param {
    num_output: 64
    pad: 2
    kernel_size: 5
    stride: 1
    weight_filler {
      type: "gaussian"
      std: 0.01
    }
    bias_filler {
      type: "constant"
    }
  }
}
layer {
  name: "relu2"
  type: "ReLU"
  bottom: "conv2"
  top: "conv2"
}
layer {
  name: "pool2"
  type: "Pooling"
  bottom: "conv2"
  top: "pool2"
  pooling_param {
    pool: MAX
    kernel_size: 3
    stride: 2
  }
}
layer {
  name: "conv3"
  type: "Convolution"
  bottom: "pool2"
  top: "conv3"
  param {
    lr_mult: 1
  }
  param {
    lr_mult: 2
  }
  convolution_param {
    num_output: 64
    pad: 2
    kernel_size: 5
    stride: 1
    weight_filler {
      type: "gaussian"
      std: 0.01
    }
    bias_filler {
      type: "constant"
    }
  }
}
layer {
  name: "relu3"
  type: "ReLU"
  bottom: "conv3"
  top: "conv3"
}
layer {
  name: "conv4"
  type: "Convolution"
  bottom: "conv3"
  top: "conv4"
  param {
    lr_mult: 1
  }
  param {
    lr_mult: 2
  }
  convolution_param {
    num_output: 64
    pad: 2
    kernel_size: 5
    stride: 1
    weight_filler {
      type: "gaussian"
      std: 0.01
    }
    bias_filler {
      type: "constant"
    }
  }
}
layer {
  name: "relu4"
  type: "ReLU"
  bottom: "conv4"
  top: "conv4"
}
layer {
  name: "conv5"
  type: "Convolution"
  bottom: "conv4"
  top: "conv5"
  param {
    lr_mult: 1
  }
  param {
    lr_mult: 2
  }
  convolution_param {
    num_output: 64
    pad: 2
    kernel_size: 5
    stride: 1
    weight_filler {
      type: "gaussian"
      std: 0.01
    }
    bias_filler {
      type: "constant"
    }
  }
}
layer {
  name: "relu5"
  type: "ReLU"
  bottom: "conv5"
  top: "conv5"
}
layer {
  name: "pool5"
  type: "Pooling"
  bottom: "conv5"
  top: "pool5"
  pooling_param {
    pool: AVE
    kernel_size: 3
    stride: 2
  }
}
layer {
  name: "ip1"
  type: "InnerProduct"
  bottom: "pool5"
  top: "ip1"
  param {
    lr_mult: 1
  }
  param {
    lr_mult: 2
  }
  inner_product_param {
    num_output: 64
    weight_filler {
      type: "gaussian"
      std: 0.1
    }
    bias_filler {
      type: "constant"
    }
  }
}
layer {
  name: "ip2"
  type: "InnerProduct"
  bottom: "ip1"
  top: "ip2"
  param {
    lr_mult: 1
  }
  param {
    lr_mult: 2
  }
  inner_product_param {
    num_output: 64
    weight_filler {
      type: "gaussian"
      std: 0.1
    }
    bias_filler {
      type: "constant"
    }
  }
}
layer {
  name: "ip3"
  type: "InnerProduct"
  bottom: "ip2"
  top: "ip3"
  param {
    lr_mult: 1
  }
  param {
    lr_mult: 2
  }
  inner_product_param {
    num_output: 50
    weight_filler {
      type: "gaussian"
      std: 0.1
    }
    bias_filler {
      type: "constant"
    }
  }
}
layer {
  name: "loss"
  type: "SoftmaxWithLoss"
  bottom: "ip3"
  bottom: "label"
  top: "loss"
}
I0502 11:43:04.176261 28495 layer_factory.hpp:77] Creating layer parameters
I0502 11:43:04.176270 28495 net.cpp:94] Creating Layer parameters
I0502 11:43:04.176275 28495 net.cpp:409] parameters -> data
I0502 11:43:04.176280 28495 net.cpp:409] parameters -> label
I0502 11:43:04.176286 28495 hdf5_data_layer.cpp:79] Loading list of HDF5 filenames from: /home/purduethu/scratch/radon/d/deng106/CNNStatisticalModel/distributions/input/20_distributions_100_sample_size_train-distributions-path.txt
I0502 11:43:04.176302 28495 hdf5_data_layer.cpp:93] Number of HDF5 files: 1
I0502 11:43:04.242852 28495 hdf5.cpp:35] Datatype class: H5T_INTEGER
I0502 11:43:04.244976 28495 net.cpp:144] Setting up parameters
I0502 11:43:04.244992 28495 net.cpp:151] Top shape: 20 1 10 10 (2000)
I0502 11:43:04.244997 28495 net.cpp:151] Top shape: 20 (20)
I0502 11:43:04.245000 28495 net.cpp:159] Memory required for data: 8080
I0502 11:43:04.245007 28495 layer_factory.hpp:77] Creating layer conv1
I0502 11:43:04.245023 28495 net.cpp:94] Creating Layer conv1
I0502 11:43:04.245028 28495 net.cpp:435] conv1 <- data
I0502 11:43:04.245033 28495 net.cpp:409] conv1 -> conv1
I0502 11:43:04.246754 28495 net.cpp:144] Setting up conv1
I0502 11:43:04.246768 28495 net.cpp:151] Top shape: 20 64 10 10 (128000)
I0502 11:43:04.246773 28495 net.cpp:159] Memory required for data: 520080
I0502 11:43:04.246783 28495 layer_factory.hpp:77] Creating layer relu1
I0502 11:43:04.246790 28495 net.cpp:94] Creating Layer relu1
I0502 11:43:04.246794 28495 net.cpp:435] relu1 <- conv1
I0502 11:43:04.246798 28495 net.cpp:396] relu1 -> conv1 (in-place)
I0502 11:43:04.246806 28495 net.cpp:144] Setting up relu1
I0502 11:43:04.246810 28495 net.cpp:151] Top shape: 20 64 10 10 (128000)
I0502 11:43:04.246814 28495 net.cpp:159] Memory required for data: 1032080
I0502 11:43:04.246816 28495 layer_factory.hpp:77] Creating layer conv2
I0502 11:43:04.246824 28495 net.cpp:94] Creating Layer conv2
I0502 11:43:04.246827 28495 net.cpp:435] conv2 <- conv1
I0502 11:43:04.246831 28495 net.cpp:409] conv2 -> conv2
I0502 11:43:04.252751 28495 net.cpp:144] Setting up conv2
I0502 11:43:04.252765 28495 net.cpp:151] Top shape: 20 64 10 10 (128000)
I0502 11:43:04.252769 28495 net.cpp:159] Memory required for data: 1544080
I0502 11:43:04.252777 28495 layer_factory.hpp:77] Creating layer relu2
I0502 11:43:04.252784 28495 net.cpp:94] Creating Layer relu2
I0502 11:43:04.252787 28495 net.cpp:435] relu2 <- conv2
I0502 11:43:04.252791 28495 net.cpp:396] relu2 -> conv2 (in-place)
I0502 11:43:04.252799 28495 net.cpp:144] Setting up relu2
I0502 11:43:04.252802 28495 net.cpp:151] Top shape: 20 64 10 10 (128000)
I0502 11:43:04.252805 28495 net.cpp:159] Memory required for data: 2056080
I0502 11:43:04.252809 28495 layer_factory.hpp:77] Creating layer pool2
I0502 11:43:04.252815 28495 net.cpp:94] Creating Layer pool2
I0502 11:43:04.252817 28495 net.cpp:435] pool2 <- conv2
I0502 11:43:04.252821 28495 net.cpp:409] pool2 -> pool2
I0502 11:43:04.252876 28495 net.cpp:144] Setting up pool2
I0502 11:43:04.252884 28495 net.cpp:151] Top shape: 20 64 5 5 (32000)
I0502 11:43:04.252887 28495 net.cpp:159] Memory required for data: 2184080
I0502 11:43:04.252890 28495 layer_factory.hpp:77] Creating layer conv3
I0502 11:43:04.252898 28495 net.cpp:94] Creating Layer conv3
I0502 11:43:04.252902 28495 net.cpp:435] conv3 <- pool2
I0502 11:43:04.252907 28495 net.cpp:409] conv3 -> conv3
I0502 11:43:04.258424 28495 net.cpp:144] Setting up conv3
I0502 11:43:04.258437 28495 net.cpp:151] Top shape: 20 64 5 5 (32000)
I0502 11:43:04.258441 28495 net.cpp:159] Memory required for data: 2312080
I0502 11:43:04.258450 28495 layer_factory.hpp:77] Creating layer relu3
I0502 11:43:04.258455 28495 net.cpp:94] Creating Layer relu3
I0502 11:43:04.258458 28495 net.cpp:435] relu3 <- conv3
I0502 11:43:04.258463 28495 net.cpp:396] relu3 -> conv3 (in-place)
I0502 11:43:04.258471 28495 net.cpp:144] Setting up relu3
I0502 11:43:04.258474 28495 net.cpp:151] Top shape: 20 64 5 5 (32000)
I0502 11:43:04.258477 28495 net.cpp:159] Memory required for data: 2440080
I0502 11:43:04.258481 28495 layer_factory.hpp:77] Creating layer conv4
I0502 11:43:04.258489 28495 net.cpp:94] Creating Layer conv4
I0502 11:43:04.258492 28495 net.cpp:435] conv4 <- conv3
I0502 11:43:04.258497 28495 net.cpp:409] conv4 -> conv4
I0502 11:43:04.264016 28495 net.cpp:144] Setting up conv4
I0502 11:43:04.264029 28495 net.cpp:151] Top shape: 20 64 5 5 (32000)
I0502 11:43:04.264034 28495 net.cpp:159] Memory required for data: 2568080
I0502 11:43:04.264040 28495 layer_factory.hpp:77] Creating layer relu4
I0502 11:43:04.264046 28495 net.cpp:94] Creating Layer relu4
I0502 11:43:04.264050 28495 net.cpp:435] relu4 <- conv4
I0502 11:43:04.264055 28495 net.cpp:396] relu4 -> conv4 (in-place)
I0502 11:43:04.264061 28495 net.cpp:144] Setting up relu4
I0502 11:43:04.264065 28495 net.cpp:151] Top shape: 20 64 5 5 (32000)
I0502 11:43:04.264068 28495 net.cpp:159] Memory required for data: 2696080
I0502 11:43:04.264071 28495 layer_factory.hpp:77] Creating layer conv5
I0502 11:43:04.264078 28495 net.cpp:94] Creating Layer conv5
I0502 11:43:04.264082 28495 net.cpp:435] conv5 <- conv4
I0502 11:43:04.264086 28495 net.cpp:409] conv5 -> conv5
I0502 11:43:04.270061 28495 net.cpp:144] Setting up conv5
I0502 11:43:04.270074 28495 net.cpp:151] Top shape: 20 64 5 5 (32000)
I0502 11:43:04.270078 28495 net.cpp:159] Memory required for data: 2824080
I0502 11:43:04.270087 28495 layer_factory.hpp:77] Creating layer relu5
I0502 11:43:04.270093 28495 net.cpp:94] Creating Layer relu5
I0502 11:43:04.270097 28495 net.cpp:435] relu5 <- conv5
I0502 11:43:04.270102 28495 net.cpp:396] relu5 -> conv5 (in-place)
I0502 11:43:04.270108 28495 net.cpp:144] Setting up relu5
I0502 11:43:04.270113 28495 net.cpp:151] Top shape: 20 64 5 5 (32000)
I0502 11:43:04.270117 28495 net.cpp:159] Memory required for data: 2952080
I0502 11:43:04.270119 28495 layer_factory.hpp:77] Creating layer pool5
I0502 11:43:04.270124 28495 net.cpp:94] Creating Layer pool5
I0502 11:43:04.270128 28495 net.cpp:435] pool5 <- conv5
I0502 11:43:04.270133 28495 net.cpp:409] pool5 -> pool5
I0502 11:43:04.270169 28495 net.cpp:144] Setting up pool5
I0502 11:43:04.270176 28495 net.cpp:151] Top shape: 20 64 2 2 (5120)
I0502 11:43:04.270179 28495 net.cpp:159] Memory required for data: 2972560
I0502 11:43:04.270184 28495 layer_factory.hpp:77] Creating layer ip1
I0502 11:43:04.270190 28495 net.cpp:94] Creating Layer ip1
I0502 11:43:04.270193 28495 net.cpp:435] ip1 <- pool5
I0502 11:43:04.270197 28495 net.cpp:409] ip1 -> ip1
I0502 11:43:04.270719 28495 net.cpp:144] Setting up ip1
I0502 11:43:04.270726 28495 net.cpp:151] Top shape: 20 64 (1280)
I0502 11:43:04.270730 28495 net.cpp:159] Memory required for data: 2977680
I0502 11:43:04.270735 28495 layer_factory.hpp:77] Creating layer ip2
I0502 11:43:04.270741 28495 net.cpp:94] Creating Layer ip2
I0502 11:43:04.270745 28495 net.cpp:435] ip2 <- ip1
I0502 11:43:04.270750 28495 net.cpp:409] ip2 -> ip2
I0502 11:43:04.270979 28495 net.cpp:144] Setting up ip2
I0502 11:43:04.270987 28495 net.cpp:151] Top shape: 20 64 (1280)
I0502 11:43:04.270989 28495 net.cpp:159] Memory required for data: 2982800
I0502 11:43:04.270994 28495 layer_factory.hpp:77] Creating layer ip3
I0502 11:43:04.271000 28495 net.cpp:94] Creating Layer ip3
I0502 11:43:04.271004 28495 net.cpp:435] ip3 <- ip2
I0502 11:43:04.271008 28495 net.cpp:409] ip3 -> ip3
I0502 11:43:04.271209 28495 net.cpp:144] Setting up ip3
I0502 11:43:04.271215 28495 net.cpp:151] Top shape: 20 50 (1000)
I0502 11:43:04.271224 28495 net.cpp:159] Memory required for data: 2986800
I0502 11:43:04.271229 28495 layer_factory.hpp:77] Creating layer loss
I0502 11:43:04.271236 28495 net.cpp:94] Creating Layer loss
I0502 11:43:04.271239 28495 net.cpp:435] loss <- ip3
I0502 11:43:04.271244 28495 net.cpp:435] loss <- label
I0502 11:43:04.271247 28495 net.cpp:409] loss -> loss
I0502 11:43:04.271255 28495 layer_factory.hpp:77] Creating layer loss
…
I0502 11:43:04.272688 28495 solver.cpp:181] Creating test net (#0) specified by net file: ./protocol/dis_20_100_dimension.protocol_distribution
I0502 11:43:04.272716 28495 net.cpp:323] The NetState phase (1) differed from the phase (0) specified by a rule in layer parameters
I0502 11:43:04.272810 28495 net.cpp:52] Initializing net from parameters: 
state {
  phase: TEST
}
layer {
  name: "intercept"
  type: "HDF5Data"
  top: "data"
  top: "label"
  include {
    phase: TEST
  }
  hdf5_data_param {
    source: "/home/purduethu/scratch/radon/d/deng106/CNNStatisticalModel/distributions/input/20_distributions_100_sample_size_test-distributions-path.txt"
    batch_size: 20
  }
}
layer {
  name: "conv1"
  type: "Convolution"
  bottom: "data"
  top: "conv1"
  param {
    lr_mult: 1
  }
  param {
    lr_mult: 2
  }
  convolution_param {
    num_output: 64
    pad: 2
    kernel_size: 5
    stride: 1
    weight_filler {
      type: "gaussian"
      std: 0.0001
    }
    bias_filler {
      type: "constant"
    }
  }
}
layer {
  name: "relu1"
  type: "ReLU"
  bottom: "conv1"
  top: "conv1"
}
layer {
  name: "conv2"
  type: "Convolution"
  bottom: "conv1"
  top: "conv2"
  param {
    lr_mult: 1
  }
  param {
    lr_mult: 2
  }
  convolution_param {
    num_output: 64
    pad: 2
    kernel_size: 5
    stride: 1
    weight_filler {
      type: "gaussian"
      std: 0.01
    }
    bias_filler {
      type: "constant"
    }
  }
}
layer {
  name: "relu2"
  type: "ReLU"
  bottom: "conv2"
  top: "conv2"
}
layer {
  name: "pool2"
  type: "Pooling"
  bottom: "conv2"
  top: "pool2"
  pooling_param {
    pool: MAX
    kernel_size: 3
    stride: 2
  }
}
layer {
  name: "conv3"
  type: "Convolution"
  bottom: "pool2"
  top: "conv3"
  param {
    lr_mult: 1
  }
  param {
    lr_mult: 2
  }
  convolution_param {
    num_output: 64
    pad: 2
    kernel_size: 5
    stride: 1
    weight_filler {
      type: "gaussian"
      std: 0.01
    }
    bias_filler {
      type: "constant"
    }
  }
}
layer {
  name: "relu3"
  type: "ReLU"
  bottom: "conv3"
  top: "conv3"
}
layer {
  name: "conv4"
  type: "Convolution"
  bottom: "conv3"
  top: "conv4"
  param {
    lr_mult: 1
  }
  param {
    lr_mult: 2
  }
  convolution_param {
    num_output: 64
    pad: 2
    kernel_size: 5
    stride: 1
    weight_filler {
      type: "gaussian"
      std: 0.01
    }
    bias_filler {
      type: "constant"
    }
  }
}
layer {
  name: "relu4"
  type: "ReLU"
  bottom: "conv4"
  top: "conv4"
}
layer {
  name: "conv5"
  type: "Convolution"
  bottom: "conv4"
  top: "conv5"
  param {
    lr_mult: 1
  }
  param {
    lr_mult: 2
  }
  convolution_param {
    num_output: 64
    pad: 2
    kernel_size: 5
    stride: 1
    weight_filler {
      type: "gaussian"
      std: 0.01
    }
    bias_filler {
      type: "constant"
    }
  }
}
layer {
  name: "relu5"
  type: "ReLU"
  bottom: "conv5"
  top: "conv5"
}
layer {
  name: "pool5"
  type: "Pooling"
  bottom: "conv5"
  top: "pool5"
  pooling_param {
    pool: AVE
    kernel_size: 3
    stride: 2
  }
}
layer {
  name: "ip1"
  type: "InnerProduct"
  bottom: "pool5"
  top: "ip1"
  param {
    lr_mult: 1
  }
  param {
    lr_mult: 2
  }
  inner_product_param {
    num_output: 64
    weight_filler {
      type: "gaussian"
      std: 0.1
    }
    bias_filler {
      type: "constant"
    }
  }
}
layer {
  name: "ip2"
  type: "InnerProduct"
  bottom: "ip1"
  top: "ip2"
  param {
    lr_mult: 1
  }
  param {
    lr_mult: 2
  }
  inner_product_param {
    num_output: 64
    weight_filler {
      type: "gaussian"
      std: 0.1
    }
    bias_filler {
      type: "constant"
    }
  }
}
layer {
  name: "ip3"
  type: "InnerProduct"
  bottom: "ip2"
  top: "ip3"
  param {
    lr_mult: 1
  }
  param {
    lr_mult: 2
  }
  inner_product_param {
    num_output: 50
    weight_filler {
      type: "gaussian"
      std: 0.1
    }
    bias_filler {
      type: "constant"
    }
  }
}
layer {
  name: "accuracy"
  type: "Accuracy"
  bottom: "ip3"
  bottom: "label"
  top: "accuracy"
  include {
    phase: TEST
  }
}
layer {
  name: "loss"
  type: "SoftmaxWithLoss"
  bottom: "ip3"
  bottom: "label"
  top: "loss"
}
I0502 11:43:04.272878 28495 layer_factory.hpp:77] Creating layer intercept
I0502 11:43:04.272886 28495 net.cpp:94] Creating Layer intercept
I0502 11:43:04.272891 28495 net.cpp:409] intercept -> data
I0502 11:43:04.272897 28495 net.cpp:409] intercept -> label
I0502 11:43:04.272903 28495 hdf5_data_layer.cpp:79] Loading list of HDF5 filenames from: /home/purduethu/scratch/radon/d/deng106/CNNStatisticalModel/distributions/input/20_distributions_100_sample_size_test-distributions-path.txt
I0502 11:43:04.272922 28495 hdf5_data_layer.cpp:93] Number of HDF5 files: 1
I0502 11:43:04.290877 28495 net.cpp:144] Setting up intercept
I0502 11:43:04.290911 28495 net.cpp:151] Top shape: 20 1 10 10 (2000)
I0502 11:43:04.290916 28495 net.cpp:151] Top shape: 20 (20)
I0502 11:43:04.290920 28495 net.cpp:159] Memory required for data: 8080
I0502 11:43:04.290925 28495 layer_factory.hpp:77] Creating layer label_intercept_1_split
I0502 11:43:04.290944 28495 net.cpp:94] Creating Layer label_intercept_1_split
I0502 11:43:04.290949 28495 net.cpp:435] label_intercept_1_split <- label
I0502 11:43:04.290956 28495 net.cpp:409] label_intercept_1_split -> label_intercept_1_split_0
I0502 11:43:04.290964 28495 net.cpp:409] label_intercept_1_split -> label_intercept_1_split_1
I0502 11:43:04.291008 28495 net.cpp:144] Setting up label_intercept_1_split
I0502 11:43:04.291014 28495 net.cpp:151] Top shape: 20 (20)
I0502 11:43:04.291018 28495 net.cpp:151] Top shape: 20 (20)
I0502 11:43:04.291021 28495 net.cpp:159] Memory required for data: 8240
I0502 11:43:04.291024 28495 layer_factory.hpp:77] Creating layer conv1
I0502 11:43:04.291035 28495 net.cpp:94] Creating Layer conv1
I0502 11:43:04.291039 28495 net.cpp:435] conv1 <- data
I0502 11:43:04.291044 28495 net.cpp:409] conv1 -> conv1
I0502 11:43:04.291824 28495 net.cpp:144] Setting up conv1
I0502 11:43:04.291838 28495 net.cpp:151] Top shape: 20 64 10 10 (128000)
I0502 11:43:04.291849 28495 net.cpp:159] Memory required for data: 520240
I0502 11:43:04.291860 28495 layer_factory.hpp:77] Creating layer relu1
I0502 11:43:04.291867 28495 net.cpp:94] Creating Layer relu1
I0502 11:43:04.291872 28495 net.cpp:435] relu1 <- conv1
I0502 11:43:04.291875 28495 net.cpp:396] relu1 -> conv1 (in-place)
I0502 11:43:04.291883 28495 net.cpp:144] Setting up relu1
I0502 11:43:04.291888 28495 net.cpp:151] Top shape: 20 64 10 10 (128000)
I0502 11:43:04.291891 28495 net.cpp:159] Memory required for data: 1032240
I0502 11:43:04.291894 28495 layer_factory.hpp:77] Creating layer conv2
I0502 11:43:04.291903 28495 net.cpp:94] Creating Layer conv2
I0502 11:43:04.291905 28495 net.cpp:435] conv2 <- conv1
I0502 11:43:04.291910 28495 net.cpp:409] conv2 -> conv2
I0502 11:43:04.295980 28495 net.cpp:144] Setting up conv2
I0502 11:43:04.295994 28495 net.cpp:151] Top shape: 20 64 10 10 (128000)
I0502 11:43:04.295997 28495 net.cpp:159] Memory required for data: 1544240
I0502 11:43:04.296005 28495 layer_factory.hpp:77] Creating layer relu2
I0502 11:43:04.296011 28495 net.cpp:94] Creating Layer relu2
I0502 11:43:04.296015 28495 net.cpp:435] relu2 <- conv2
I0502 11:43:04.296020 28495 net.cpp:396] relu2 -> conv2 (in-place)
I0502 11:43:04.296026 28495 net.cpp:144] Setting up relu2
I0502 11:43:04.296030 28495 net.cpp:151] Top shape: 20 64 10 10 (128000)
I0502 11:43:04.296033 28495 net.cpp:159] Memory required for data: 2056240
I0502 11:43:04.296036 28495 layer_factory.hpp:77] Creating layer pool2
I0502 11:43:04.296041 28495 net.cpp:94] Creating Layer pool2
I0502 11:43:04.296044 28495 net.cpp:435] pool2 <- conv2
I0502 11:43:04.296049 28495 net.cpp:409] pool2 -> pool2
I0502 11:43:04.296104 28495 net.cpp:144] Setting up pool2
I0502 11:43:04.296111 28495 net.cpp:151] Top shape: 20 64 5 5 (32000)
I0502 11:43:04.296114 28495 net.cpp:159] Memory required for data: 2184240
I0502 11:43:04.296118 28495 layer_factory.hpp:77] Creating layer conv3
I0502 11:43:04.296125 28495 net.cpp:94] Creating Layer conv3
I0502 11:43:04.296129 28495 net.cpp:435] conv3 <- pool2
I0502 11:43:04.296134 28495 net.cpp:409] conv3 -> conv3
I0502 11:43:04.299674 28495 net.cpp:144] Setting up conv3
I0502 11:43:04.299686 28495 net.cpp:151] Top shape: 20 64 5 5 (32000)
I0502 11:43:04.299690 28495 net.cpp:159] Memory required for data: 2312240
I0502 11:43:04.299698 28495 layer_factory.hpp:77] Creating layer relu3
I0502 11:43:04.299705 28495 net.cpp:94] Creating Layer relu3
I0502 11:43:04.299708 28495 net.cpp:435] relu3 <- conv3
I0502 11:43:04.299713 28495 net.cpp:396] relu3 -> conv3 (in-place)
I0502 11:43:04.299720 28495 net.cpp:144] Setting up relu3
I0502 11:43:04.299723 28495 net.cpp:151] Top shape: 20 64 5 5 (32000)
I0502 11:43:04.299726 28495 net.cpp:159] Memory required for data: 2440240
I0502 11:43:04.299731 28495 layer_factory.hpp:77] Creating layer conv4
I0502 11:43:04.299737 28495 net.cpp:94] Creating Layer conv4
I0502 11:43:04.299741 28495 net.cpp:435] conv4 <- conv3
I0502 11:43:04.299746 28495 net.cpp:409] conv4 -> conv4
I0502 11:43:04.303288 28495 net.cpp:144] Setting up conv4
I0502 11:43:04.303302 28495 net.cpp:151] Top shape: 20 64 5 5 (32000)
I0502 11:43:04.303305 28495 net.cpp:159] Memory required for data: 2568240
I0502 11:43:04.303311 28495 layer_factory.hpp:77] Creating layer relu4
I0502 11:43:04.303316 28495 net.cpp:94] Creating Layer relu4
I0502 11:43:04.303319 28495 net.cpp:435] relu4 <- conv4
I0502 11:43:04.303324 28495 net.cpp:396] relu4 -> conv4 (in-place)
I0502 11:43:04.303330 28495 net.cpp:144] Setting up relu4
I0502 11:43:04.303334 28495 net.cpp:151] Top shape: 20 64 5 5 (32000)
I0502 11:43:04.303338 28495 net.cpp:159] Memory required for data: 2696240
I0502 11:43:04.303340 28495 layer_factory.hpp:77] Creating layer conv5
I0502 11:43:04.303347 28495 net.cpp:94] Creating Layer conv5
I0502 11:43:04.303350 28495 net.cpp:435] conv5 <- conv4
I0502 11:43:04.303355 28495 net.cpp:409] conv5 -> conv5
I0502 11:43:04.307345 28495 net.cpp:144] Setting up conv5
I0502 11:43:04.307359 28495 net.cpp:151] Top shape: 20 64 5 5 (32000)
I0502 11:43:04.307363 28495 net.cpp:159] Memory required for data: 2824240
I0502 11:43:04.307375 28495 layer_factory.hpp:77] Creating layer relu5
I0502 11:43:04.307381 28495 net.cpp:94] Creating Layer relu5
I0502 11:43:04.307385 28495 net.cpp:435] relu5 <- conv5
I0502 11:43:04.307389 28495 net.cpp:396] relu5 -> conv5 (in-place)
I0502 11:43:04.307396 28495 net.cpp:144] Setting up relu5
I0502 11:43:04.307400 28495 net.cpp:151] Top shape: 20 64 5 5 (32000)
I0502 11:43:04.307404 28495 net.cpp:159] Memory required for data: 2952240
I0502 11:43:04.307406 28495 layer_factory.hpp:77] Creating layer pool5
I0502 11:43:04.307411 28495 net.cpp:94] Creating Layer pool5
I0502 11:43:04.307415 28495 net.cpp:435] pool5 <- conv5
I0502 11:43:04.307420 28495 net.cpp:409] pool5 -> pool5
I0502 11:43:04.307457 28495 net.cpp:144] Setting up pool5
I0502 11:43:04.307464 28495 net.cpp:151] Top shape: 20 64 2 2 (5120)
I0502 11:43:04.307467 28495 net.cpp:159] Memory required for data: 2972720
I0502 11:43:04.307471 28495 layer_factory.hpp:77] Creating layer ip1
I0502 11:43:04.307478 28495 net.cpp:94] Creating Layer ip1
I0502 11:43:04.307482 28495 net.cpp:435] ip1 <- pool5
I0502 11:43:04.307487 28495 net.cpp:409] ip1 -> ip1
I0502 11:43:04.308017 28495 net.cpp:144] Setting up ip1
I0502 11:43:04.308024 28495 net.cpp:151] Top shape: 20 64 (1280)
I0502 11:43:04.308027 28495 net.cpp:159] Memory required for data: 2977840
I0502 11:43:04.308033 28495 layer_factory.hpp:77] Creating layer ip2
I0502 11:43:04.308039 28495 net.cpp:94] Creating Layer ip2
I0502 11:43:04.308043 28495 net.cpp:435] ip2 <- ip1
I0502 11:43:04.308048 28495 net.cpp:409] ip2 -> ip2
I0502 11:43:04.308285 28495 net.cpp:144] Setting up ip2
I0502 11:43:04.308293 28495 net.cpp:151] Top shape: 20 64 (1280)
I0502 11:43:04.308296 28495 net.cpp:159] Memory required for data: 2982960
I0502 11:43:04.308301 28495 layer_factory.hpp:77] Creating layer ip3
I0502 11:43:04.308310 28495 net.cpp:94] Creating Layer ip3
I0502 11:43:04.308312 28495 net.cpp:435] ip3 <- ip2
I0502 11:43:04.308317 28495 net.cpp:409] ip3 -> ip3
I0502 11:43:04.308526 28495 net.cpp:144] Setting up ip3
I0502 11:43:04.308532 28495 net.cpp:151] Top shape: 20 50 (1000)
I0502 11:43:04.308535 28495 net.cpp:159] Memory required for data: 2986960
I0502 11:43:04.308540 28495 layer_factory.hpp:77] Creating layer ip3_ip3_0_split
I0502 11:43:04.308545 28495 net.cpp:94] Creating Layer ip3_ip3_0_split
I0502 11:43:04.308548 28495 net.cpp:435] ip3_ip3_0_split <- ip3
I0502 11:43:04.308568 28495 net.cpp:409] ip3_ip3_0_split -> ip3_ip3_0_split_0
I0502 11:43:04.308574 28495 net.cpp:409] ip3_ip3_0_split -> ip3_ip3_0_split_1
I0502 11:43:04.308619 28495 net.cpp:144] Setting up ip3_ip3_0_split
I0502 11:43:04.308625 28495 net.cpp:151] Top shape: 20 50 (1000)
I0502 11:43:04.308629 28495 net.cpp:151] Top shape: 20 50 (1000)
I0502 11:43:04.308632 28495 net.cpp:159] Memory required for data: 2994960
I0502 11:43:04.308635 28495 layer_factory.hpp:77] Creating layer accuracy
I0502 11:43:04.308641 28495 net.cpp:94] Creating Layer accuracy
I0502 11:43:04.308645 28495 net.cpp:435] accuracy <- ip3_ip3_0_split_0
I0502 11:43:04.308648 28495 net.cpp:435] accuracy <- label_intercept_1_split_0
I0502 11:43:04.308653 28495 net.cpp:409] accuracy -> accuracy
…
