…
I0504 21:59:11.598348 31169 net.cpp:323] The NetState phase (0) differed from the phase (1) specified by a rule in layer intercept
I0504 21:59:11.598366 31169 net.cpp:323] The NetState phase (0) differed from the phase (1) specified by a rule in layer loss
I0504 21:59:11.598465 31169 net.cpp:52] Initializing net from parameters: 
state {
  phase: TRAIN
}
layer {
  name: "parameters"
  type: "HDF5Data"
  top: "data"
  top: "label"
  include {
    phase: TRAIN
  }
  hdf5_data_param {
    source: "/home/purduethu/scratch/radon/d/deng106/CNNStatisticalModel/distributions/input/5_distributions_100_sample_size_train-parameters-path.txt"
    batch_size: 20
  }
}
layer {
  name: "conv1"
  type: "Convolution"
  bottom: "data"
  top: "conv1"
  param {
    lr_mult: 1
  }
  param {
    lr_mult: 2
  }
  convolution_param {
    num_output: 64
    pad: 2
    kernel_size: 5
    stride: 1
    weight_filler {
      type: "gaussian"
      std: 0.0001
    }
    bias_filler {
      type: "constant"
    }
  }
}
layer {
  name: "relu1"
  type: "ReLU"
  bottom: "conv1"
  top: "conv1"
}
layer {
  name: "conv2"
  type: "Convolution"
  bottom: "conv1"
  top: "conv2"
  param {
    lr_mult: 1
  }
  param {
    lr_mult: 2
  }
  convolution_param {
    num_output: 64
    pad: 2
    kernel_size: 5
    stride: 1
    weight_filler {
      type: "gaussian"
      std: 0.01
    }
    bias_filler {
      type: "constant"
    }
  }
}
layer {
  name: "relu2"
  type: "ReLU"
  bottom: "conv2"
  top: "conv2"
}
layer {
  name: "pool2"
  type: "Pooling"
  bottom: "conv2"
  top: "pool2"
  pooling_param {
    pool: MAX
    kernel_size: 3
    stride: 2
  }
}
layer {
  name: "conv3"
  type: "Convolution"
  bottom: "pool2"
  top: "conv3"
  param {
    lr_mult: 1
  }
  param {
    lr_mult: 2
  }
  convolution_param {
    num_output: 64
    pad: 2
    kernel_size: 5
    stride: 1
    weight_filler {
      type: "gaussian"
      std: 0.01
    }
    bias_filler {
      type: "constant"
    }
  }
}
layer {
  name: "relu3"
  type: "ReLU"
  bottom: "conv3"
  top: "conv3"
}
layer {
  name: "conv4"
  type: "Convolution"
  bottom: "conv3"
  top: "conv4"
  param {
    lr_mult: 1
  }
  param {
    lr_mult: 2
  }
  convolution_param {
    num_output: 64
    pad: 2
    kernel_size: 5
    stride: 1
    weight_filler {
      type: "gaussian"
      std: 0.01
    }
    bias_filler {
      type: "constant"
    }
  }
}
layer {
  name: "relu4"
  type: "ReLU"
  bottom: "conv4"
  top: "conv4"
}
layer {
  name: "conv5"
  type: "Convolution"
  bottom: "conv4"
  top: "conv5"
  param {
    lr_mult: 1
  }
  param {
    lr_mult: 2
  }
  convolution_param {
    num_output: 64
    pad: 2
    kernel_size: 5
    stride: 1
    weight_filler {
      type: "gaussian"
      std: 0.01
    }
    bias_filler {
      type: "constant"
    }
  }
}
layer {
  name: "relu5"
  type: "ReLU"
  bottom: "conv5"
  top: "conv5"
}
layer {
  name: "pool5"
  type: "Pooling"
  bottom: "conv5"
  top: "pool5"
  pooling_param {
    pool: AVE
    kernel_size: 3
    stride: 2
  }
}
layer {
  name: "ip1"
  type: "InnerProduct"
  bottom: "pool5"
  top: "ip1"
  param {
    lr_mult: 1
  }
  param {
    lr_mult: 2
  }
  inner_product_param {
    num_output: 64
    weight_filler {
      type: "gaussian"
      std: 0.1
    }
    bias_filler {
      type: "constant"
    }
  }
}
layer {
  name: "ip2"
  type: "InnerProduct"
  bottom: "ip1"
  top: "ip2"
  param {
    lr_mult: 1
  }
  param {
    lr_mult: 2
  }
  inner_product_param {
    num_output: 64
    weight_filler {
      type: "gaussian"
      std: 0.1
    }
    bias_filler {
      type: "constant"
    }
  }
}
layer {
  name: "ip3"
  type: "InnerProduct"
  bottom: "ip2"
  top: "ip3"
  param {
    lr_mult: 1
  }
  param {
    lr_mult: 2
  }
  inner_product_param {
    num_output: 1
    weight_filler {
      type: "gaussian"
      std: 0.1
    }
    bias_filler {
      type: "constant"
    }
  }
}
layer {
  name: "loss"
  type: "HuberLoss"
  bottom: "ip3"
  bottom: "label"
  top: "loss"
  include {
    phase: TRAIN
  }
}
I0504 21:59:11.598546 31169 layer_factory.hpp:77] Creating layer parameters
I0504 21:59:11.598562 31169 net.cpp:94] Creating Layer parameters
I0504 21:59:11.598569 31169 net.cpp:409] parameters -> data
I0504 21:59:11.598590 31169 net.cpp:409] parameters -> label
I0504 21:59:11.598601 31169 hdf5_data_layer.cpp:79] Loading list of HDF5 filenames from: /home/purduethu/scratch/radon/d/deng106/CNNStatisticalModel/distributions/input/5_distributions_100_sample_size_train-parameters-path.txt
I0504 21:59:11.598626 31169 hdf5_data_layer.cpp:93] Number of HDF5 files: 1
I0504 21:59:11.599270 31169 hdf5.cpp:32] Datatype class: H5T_FLOAT
I0504 21:59:11.618145 31169 net.cpp:144] Setting up parameters
I0504 21:59:11.618182 31169 net.cpp:151] Top shape: 20 1 10 10 (2000)
I0504 21:59:11.618190 31169 net.cpp:151] Top shape: 20 (20)
I0504 21:59:11.618193 31169 net.cpp:159] Memory required for data: 8080
I0504 21:59:11.618202 31169 layer_factory.hpp:77] Creating layer conv1
I0504 21:59:11.618232 31169 net.cpp:94] Creating Layer conv1
I0504 21:59:11.618237 31169 net.cpp:435] conv1 <- data
I0504 21:59:11.618249 31169 net.cpp:409] conv1 -> conv1
I0504 21:59:11.622463 31169 net.cpp:144] Setting up conv1
I0504 21:59:11.622481 31169 net.cpp:151] Top shape: 20 64 10 10 (128000)
I0504 21:59:11.622486 31169 net.cpp:159] Memory required for data: 520080
I0504 21:59:11.622499 31169 layer_factory.hpp:77] Creating layer relu1
I0504 21:59:11.622508 31169 net.cpp:94] Creating Layer relu1
I0504 21:59:11.622512 31169 net.cpp:435] relu1 <- conv1
I0504 21:59:11.622516 31169 net.cpp:396] relu1 -> conv1 (in-place)
I0504 21:59:11.622534 31169 net.cpp:144] Setting up relu1
I0504 21:59:11.622540 31169 net.cpp:151] Top shape: 20 64 10 10 (128000)
I0504 21:59:11.622544 31169 net.cpp:159] Memory required for data: 1032080
I0504 21:59:11.622547 31169 layer_factory.hpp:77] Creating layer conv2
I0504 21:59:11.622556 31169 net.cpp:94] Creating Layer conv2
I0504 21:59:11.622560 31169 net.cpp:435] conv2 <- conv1
I0504 21:59:11.622565 31169 net.cpp:409] conv2 -> conv2
I0504 21:59:11.628865 31169 net.cpp:144] Setting up conv2
I0504 21:59:11.628880 31169 net.cpp:151] Top shape: 20 64 10 10 (128000)
I0504 21:59:11.628885 31169 net.cpp:159] Memory required for data: 1544080
I0504 21:59:11.628895 31169 layer_factory.hpp:77] Creating layer relu2
I0504 21:59:11.628901 31169 net.cpp:94] Creating Layer relu2
I0504 21:59:11.628906 31169 net.cpp:435] relu2 <- conv2
I0504 21:59:11.628911 31169 net.cpp:396] relu2 -> conv2 (in-place)
I0504 21:59:11.628918 31169 net.cpp:144] Setting up relu2
I0504 21:59:11.628923 31169 net.cpp:151] Top shape: 20 64 10 10 (128000)
I0504 21:59:11.628927 31169 net.cpp:159] Memory required for data: 2056080
I0504 21:59:11.628931 31169 layer_factory.hpp:77] Creating layer pool2
I0504 21:59:11.628938 31169 net.cpp:94] Creating Layer pool2
I0504 21:59:11.628948 31169 net.cpp:435] pool2 <- conv2
I0504 21:59:11.628954 31169 net.cpp:409] pool2 -> pool2
I0504 21:59:11.629004 31169 net.cpp:144] Setting up pool2
I0504 21:59:11.629011 31169 net.cpp:151] Top shape: 20 64 5 5 (32000)
I0504 21:59:11.629015 31169 net.cpp:159] Memory required for data: 2184080
I0504 21:59:11.629019 31169 layer_factory.hpp:77] Creating layer conv3
I0504 21:59:11.629027 31169 net.cpp:94] Creating Layer conv3
I0504 21:59:11.629031 31169 net.cpp:435] conv3 <- pool2
I0504 21:59:11.629036 31169 net.cpp:409] conv3 -> conv3
I0504 21:59:11.634332 31169 net.cpp:144] Setting up conv3
I0504 21:59:11.634348 31169 net.cpp:151] Top shape: 20 64 5 5 (32000)
I0504 21:59:11.634352 31169 net.cpp:159] Memory required for data: 2312080
I0504 21:59:11.634361 31169 layer_factory.hpp:77] Creating layer relu3
I0504 21:59:11.634368 31169 net.cpp:94] Creating Layer relu3
I0504 21:59:11.634372 31169 net.cpp:435] relu3 <- conv3
I0504 21:59:11.634377 31169 net.cpp:396] relu3 -> conv3 (in-place)
I0504 21:59:11.634385 31169 net.cpp:144] Setting up relu3
I0504 21:59:11.634389 31169 net.cpp:151] Top shape: 20 64 5 5 (32000)
I0504 21:59:11.634393 31169 net.cpp:159] Memory required for data: 2440080
I0504 21:59:11.634397 31169 layer_factory.hpp:77] Creating layer conv4
I0504 21:59:11.634407 31169 net.cpp:94] Creating Layer conv4
I0504 21:59:11.634410 31169 net.cpp:435] conv4 <- conv3
I0504 21:59:11.634415 31169 net.cpp:409] conv4 -> conv4
I0504 21:59:11.639132 31169 net.cpp:144] Setting up conv4
I0504 21:59:11.639147 31169 net.cpp:151] Top shape: 20 64 5 5 (32000)
I0504 21:59:11.639153 31169 net.cpp:159] Memory required for data: 2568080
I0504 21:59:11.639158 31169 layer_factory.hpp:77] Creating layer relu4
I0504 21:59:11.639165 31169 net.cpp:94] Creating Layer relu4
I0504 21:59:11.639169 31169 net.cpp:435] relu4 <- conv4
I0504 21:59:11.639174 31169 net.cpp:396] relu4 -> conv4 (in-place)
I0504 21:59:11.639181 31169 net.cpp:144] Setting up relu4
I0504 21:59:11.639186 31169 net.cpp:151] Top shape: 20 64 5 5 (32000)
I0504 21:59:11.639190 31169 net.cpp:159] Memory required for data: 2696080
I0504 21:59:11.639194 31169 layer_factory.hpp:77] Creating layer conv5
I0504 21:59:11.639201 31169 net.cpp:94] Creating Layer conv5
I0504 21:59:11.639205 31169 net.cpp:435] conv5 <- conv4
I0504 21:59:11.639210 31169 net.cpp:409] conv5 -> conv5
I0504 21:59:11.644358 31169 net.cpp:144] Setting up conv5
I0504 21:59:11.644374 31169 net.cpp:151] Top shape: 20 64 5 5 (32000)
I0504 21:59:11.644379 31169 net.cpp:159] Memory required for data: 2824080
I0504 21:59:11.644388 31169 layer_factory.hpp:77] Creating layer relu5
I0504 21:59:11.644395 31169 net.cpp:94] Creating Layer relu5
I0504 21:59:11.644399 31169 net.cpp:435] relu5 <- conv5
I0504 21:59:11.644404 31169 net.cpp:396] relu5 -> conv5 (in-place)
I0504 21:59:11.644412 31169 net.cpp:144] Setting up relu5
I0504 21:59:11.644417 31169 net.cpp:151] Top shape: 20 64 5 5 (32000)
I0504 21:59:11.644420 31169 net.cpp:159] Memory required for data: 2952080
I0504 21:59:11.644423 31169 layer_factory.hpp:77] Creating layer pool5
I0504 21:59:11.644429 31169 net.cpp:94] Creating Layer pool5
I0504 21:59:11.644433 31169 net.cpp:435] pool5 <- conv5
I0504 21:59:11.644438 31169 net.cpp:409] pool5 -> pool5
I0504 21:59:11.644474 31169 net.cpp:144] Setting up pool5
I0504 21:59:11.644481 31169 net.cpp:151] Top shape: 20 64 2 2 (5120)
I0504 21:59:11.644484 31169 net.cpp:159] Memory required for data: 2972560
I0504 21:59:11.644489 31169 layer_factory.hpp:77] Creating layer ip1
I0504 21:59:11.644498 31169 net.cpp:94] Creating Layer ip1
I0504 21:59:11.644501 31169 net.cpp:435] ip1 <- pool5
I0504 21:59:11.644507 31169 net.cpp:409] ip1 -> ip1
I0504 21:59:11.645709 31169 net.cpp:144] Setting up ip1
I0504 21:59:11.645723 31169 net.cpp:151] Top shape: 20 64 (1280)
I0504 21:59:11.645727 31169 net.cpp:159] Memory required for data: 2977680
I0504 21:59:11.645735 31169 layer_factory.hpp:77] Creating layer ip2
I0504 21:59:11.645742 31169 net.cpp:94] Creating Layer ip2
I0504 21:59:11.645746 31169 net.cpp:435] ip2 <- ip1
I0504 21:59:11.645757 31169 net.cpp:409] ip2 -> ip2
I0504 21:59:11.645931 31169 net.cpp:144] Setting up ip2
I0504 21:59:11.645939 31169 net.cpp:151] Top shape: 20 64 (1280)
I0504 21:59:11.645943 31169 net.cpp:159] Memory required for data: 2982800
I0504 21:59:11.645948 31169 layer_factory.hpp:77] Creating layer ip3
I0504 21:59:11.645954 31169 net.cpp:94] Creating Layer ip3
I0504 21:59:11.645958 31169 net.cpp:435] ip3 <- ip2
I0504 21:59:11.645963 31169 net.cpp:409] ip3 -> ip3
I0504 21:59:11.646029 31169 net.cpp:144] Setting up ip3
I0504 21:59:11.646035 31169 net.cpp:151] Top shape: 20 1 (20)
I0504 21:59:11.646047 31169 net.cpp:159] Memory required for data: 2982880
I0504 21:59:11.646054 31169 layer_factory.hpp:77] Creating layer loss
I0504 21:59:11.646065 31169 net.cpp:94] Creating Layer loss
I0504 21:59:11.646070 31169 net.cpp:435] loss <- ip3
I0504 21:59:11.646075 31169 net.cpp:435] loss <- label
I0504 21:59:11.646080 31169 net.cpp:409] loss -> loss
I0504 21:59:11.646118 31169 net.cpp:144] Setting up loss
…
