…
I0505 21:02:42.016520  9273 net.cpp:323] The NetState phase (0) differed from the phase (1) specified by a rule in layer intercept
I0505 21:02:42.016533  9273 net.cpp:323] The NetState phase (0) differed from the phase (1) specified by a rule in layer loss
I0505 21:02:42.016621  9273 net.cpp:52] Initializing net from parameters: 
state {
  phase: TRAIN
}
layer {
  name: "parameters"
  type: "HDF5Data"
  top: "data"
  top: "label"
  include {
    phase: TRAIN
  }
  hdf5_data_param {
    source: "/home/purduethu/scratch/radon/d/deng106/CNNStatisticalModel/distributions/input/50_distributions_100_sample_size_train-parameters-path.txt"
    batch_size: 20
  }
}
layer {
  name: "conv1"
  type: "Convolution"
  bottom: "data"
  top: "conv1"
  param {
    lr_mult: 1
  }
  param {
    lr_mult: 2
  }
  convolution_param {
    num_output: 64
    pad: 2
    kernel_size: 5
    stride: 1
    weight_filler {
      type: "gaussian"
      std: 0.0001
    }
    bias_filler {
      type: "constant"
    }
  }
}
layer {
  name: "relu1"
  type: "ReLU"
  bottom: "conv1"
  top: "conv1"
}
layer {
  name: "pool1"
  type: "Pooling"
  bottom: "conv1"
  top: "pool1"
  pooling_param {
    pool: MAX
    kernel_size: 3
    stride: 2
  }
}
layer {
  name: "conv2"
  type: "Convolution"
  bottom: "pool1"
  top: "conv2"
  param {
    lr_mult: 1
  }
  param {
    lr_mult: 2
  }
  convolution_param {
    num_output: 128
    pad: 2
    kernel_size: 5
    stride: 1
    weight_filler {
      type: "gaussian"
      std: 0.01
    }
    bias_filler {
      type: "constant"
    }
  }
}
layer {
  name: "relu2"
  type: "ReLU"
  bottom: "conv2"
  top: "conv2"
}
layer {
  name: "conv3"
  type: "Convolution"
  bottom: "conv2"
  top: "conv3"
  param {
    lr_mult: 1
  }
  param {
    lr_mult: 2
  }
  convolution_param {
    num_output: 128
    pad: 2
    kernel_size: 5
    stride: 1
    weight_filler {
      type: "gaussian"
      std: 0.01
    }
    bias_filler {
      type: "constant"
    }
  }
}
layer {
  name: "relu3"
  type: "ReLU"
  bottom: "conv3"
  top: "conv3"
}
layer {
  name: "pool3"
  type: "Pooling"
  bottom: "conv3"
  top: "pool3"
  pooling_param {
    pool: AVE
    kernel_size: 3
    stride: 2
  }
}
layer {
  name: "ip1"
  type: "InnerProduct"
  bottom: "pool3"
  top: "ip1"
  param {
    lr_mult: 1
  }
  param {
    lr_mult: 2
  }
  inner_product_param {
    num_output: 512
    weight_filler {
      type: "gaussian"
      std: 0.1
    }
    bias_filler {
      type: "constant"
    }
  }
}
layer {
  name: "ip2"
  type: "InnerProduct"
  bottom: "ip1"
  top: "ip2"
  param {
    lr_mult: 1
  }
  param {
    lr_mult: 2
  }
  inner_product_param {
    num_output: 256
    weight_filler {
      type: "gaussian"
      std: 0.1
    }
    bias_filler {
      type: "constant"
    }
  }
}
layer {
  name: "ip3"
  type: "InnerProduct"
  bottom: "ip2"
  top: "ip3"
  param {
    lr_mult: 1
  }
  param {
    lr_mult: 2
  }
  inner_product_param {
    num_output: 1
    weight_filler {
      type: "gaussian"
      std: 0.1
    }
    bias_filler {
      type: "constant"
    }
  }
}
layer {
  name: "loss"
  type: "HuberLoss"
  bottom: "ip3"
  bottom: "label"
  top: "loss"
  include {
    phase: TRAIN
  }
}
I0505 21:02:42.016672  9273 layer_factory.hpp:77] Creating layer parameters
I0505 21:02:42.016685  9273 net.cpp:94] Creating Layer parameters
I0505 21:02:42.016690  9273 net.cpp:409] parameters -> data
I0505 21:02:42.016700  9273 net.cpp:409] parameters -> label
I0505 21:02:42.016711  9273 hdf5_data_layer.cpp:79] Loading list of HDF5 filenames from: /home/purduethu/scratch/radon/d/deng106/CNNStatisticalModel/distributions/input/50_distributions_100_sample_size_train-parameters-path.txt
I0505 21:02:42.016727  9273 hdf5_data_layer.cpp:93] Number of HDF5 files: 1
I0505 21:02:42.017287  9273 hdf5.cpp:32] Datatype class: H5T_FLOAT
I0505 21:02:42.181069  9273 net.cpp:144] Setting up parameters
I0505 21:02:42.181103  9273 net.cpp:151] Top shape: 20 1 10 10 (2000)
I0505 21:02:42.181108  9273 net.cpp:151] Top shape: 20 (20)
I0505 21:02:42.181112  9273 net.cpp:159] Memory required for data: 8080
I0505 21:02:42.181118  9273 layer_factory.hpp:77] Creating layer conv1
I0505 21:02:42.181138  9273 net.cpp:94] Creating Layer conv1
I0505 21:02:42.181143  9273 net.cpp:435] conv1 <- data
I0505 21:02:42.181149  9273 net.cpp:409] conv1 -> conv1
I0505 21:02:42.185315  9273 net.cpp:144] Setting up conv1
I0505 21:02:42.185333  9273 net.cpp:151] Top shape: 20 64 10 10 (128000)
I0505 21:02:42.185336  9273 net.cpp:159] Memory required for data: 520080
I0505 21:02:42.185348  9273 layer_factory.hpp:77] Creating layer relu1
I0505 21:02:42.185355  9273 net.cpp:94] Creating Layer relu1
I0505 21:02:42.185359  9273 net.cpp:435] relu1 <- conv1
I0505 21:02:42.185364  9273 net.cpp:396] relu1 -> conv1 (in-place)
I0505 21:02:42.185376  9273 net.cpp:144] Setting up relu1
I0505 21:02:42.185380  9273 net.cpp:151] Top shape: 20 64 10 10 (128000)
I0505 21:02:42.185384  9273 net.cpp:159] Memory required for data: 1032080
I0505 21:02:42.185386  9273 layer_factory.hpp:77] Creating layer pool1
I0505 21:02:42.185392  9273 net.cpp:94] Creating Layer pool1
I0505 21:02:42.185395  9273 net.cpp:435] pool1 <- conv1
I0505 21:02:42.185400  9273 net.cpp:409] pool1 -> pool1
I0505 21:02:42.185459  9273 net.cpp:144] Setting up pool1
I0505 21:02:42.185466  9273 net.cpp:151] Top shape: 20 64 5 5 (32000)
I0505 21:02:42.185469  9273 net.cpp:159] Memory required for data: 1160080
I0505 21:02:42.185472  9273 layer_factory.hpp:77] Creating layer conv2
I0505 21:02:42.185482  9273 net.cpp:94] Creating Layer conv2
I0505 21:02:42.185484  9273 net.cpp:435] conv2 <- pool1
I0505 21:02:42.185489  9273 net.cpp:409] conv2 -> conv2
I0505 21:02:42.194705  9273 net.cpp:144] Setting up conv2
I0505 21:02:42.194720  9273 net.cpp:151] Top shape: 20 128 5 5 (64000)
I0505 21:02:42.194725  9273 net.cpp:159] Memory required for data: 1416080
I0505 21:02:42.194732  9273 layer_factory.hpp:77] Creating layer relu2
I0505 21:02:42.194739  9273 net.cpp:94] Creating Layer relu2
I0505 21:02:42.194742  9273 net.cpp:435] relu2 <- conv2
I0505 21:02:42.194747  9273 net.cpp:396] relu2 -> conv2 (in-place)
I0505 21:02:42.194754  9273 net.cpp:144] Setting up relu2
I0505 21:02:42.194758  9273 net.cpp:151] Top shape: 20 128 5 5 (64000)
I0505 21:02:42.194761  9273 net.cpp:159] Memory required for data: 1672080
I0505 21:02:42.194764  9273 layer_factory.hpp:77] Creating layer conv3
I0505 21:02:42.194772  9273 net.cpp:94] Creating Layer conv3
I0505 21:02:42.194774  9273 net.cpp:435] conv3 <- conv2
I0505 21:02:42.194779  9273 net.cpp:409] conv3 -> conv3
I0505 21:02:42.209592  9273 net.cpp:144] Setting up conv3
I0505 21:02:42.209606  9273 net.cpp:151] Top shape: 20 128 5 5 (64000)
I0505 21:02:42.209610  9273 net.cpp:159] Memory required for data: 1928080
I0505 21:02:42.209619  9273 layer_factory.hpp:77] Creating layer relu3
I0505 21:02:42.209631  9273 net.cpp:94] Creating Layer relu3
I0505 21:02:42.209635  9273 net.cpp:435] relu3 <- conv3
I0505 21:02:42.209640  9273 net.cpp:396] relu3 -> conv3 (in-place)
I0505 21:02:42.209647  9273 net.cpp:144] Setting up relu3
I0505 21:02:42.209651  9273 net.cpp:151] Top shape: 20 128 5 5 (64000)
I0505 21:02:42.209655  9273 net.cpp:159] Memory required for data: 2184080
I0505 21:02:42.209657  9273 layer_factory.hpp:77] Creating layer pool3
I0505 21:02:42.209663  9273 net.cpp:94] Creating Layer pool3
I0505 21:02:42.209667  9273 net.cpp:435] pool3 <- conv3
I0505 21:02:42.209671  9273 net.cpp:409] pool3 -> pool3
I0505 21:02:42.209710  9273 net.cpp:144] Setting up pool3
I0505 21:02:42.209717  9273 net.cpp:151] Top shape: 20 128 2 2 (10240)
I0505 21:02:42.209720  9273 net.cpp:159] Memory required for data: 2225040
I0505 21:02:42.209723  9273 layer_factory.hpp:77] Creating layer ip1
I0505 21:02:42.209733  9273 net.cpp:94] Creating Layer ip1
I0505 21:02:42.209736  9273 net.cpp:435] ip1 <- pool3
I0505 21:02:42.209741  9273 net.cpp:409] ip1 -> ip1
I0505 21:02:42.216773  9273 net.cpp:144] Setting up ip1
I0505 21:02:42.216787  9273 net.cpp:151] Top shape: 20 512 (10240)
I0505 21:02:42.216791  9273 net.cpp:159] Memory required for data: 2266000
I0505 21:02:42.216797  9273 layer_factory.hpp:77] Creating layer ip2
I0505 21:02:42.216804  9273 net.cpp:94] Creating Layer ip2
I0505 21:02:42.216809  9273 net.cpp:435] ip2 <- ip1
I0505 21:02:42.216814  9273 net.cpp:409] ip2 -> ip2
I0505 21:02:42.220805  9273 net.cpp:144] Setting up ip2
I0505 21:02:42.220820  9273 net.cpp:151] Top shape: 20 256 (5120)
I0505 21:02:42.220824  9273 net.cpp:159] Memory required for data: 2286480
I0505 21:02:42.220832  9273 layer_factory.hpp:77] Creating layer ip3
I0505 21:02:42.220851  9273 net.cpp:94] Creating Layer ip3
I0505 21:02:42.220854  9273 net.cpp:435] ip3 <- ip2
I0505 21:02:42.220860  9273 net.cpp:409] ip3 -> ip3
I0505 21:02:42.220964  9273 net.cpp:144] Setting up ip3
I0505 21:02:42.220970  9273 net.cpp:151] Top shape: 20 1 (20)
I0505 21:02:42.220973  9273 net.cpp:159] Memory required for data: 2286560
I0505 21:02:42.220978  9273 layer_factory.hpp:77] Creating layer loss
I0505 21:02:42.220988  9273 net.cpp:94] Creating Layer loss
I0505 21:02:42.220991  9273 net.cpp:435] loss <- ip3
I0505 21:02:42.220995  9273 net.cpp:435] loss <- label
I0505 21:02:42.221000  9273 net.cpp:409] loss -> loss
I0505 21:02:42.221050  9273 net.cpp:144] Setting up loss
…
I0505 21:02:42.295378  9273 net.cpp:323] The NetState phase (0) differed from the phase (1) specified by a rule in layer intercept
I0505 21:02:42.295392  9273 net.cpp:323] The NetState phase (0) differed from the phase (1) specified by a rule in layer accuracy
I0505 21:02:42.295464  9273 net.cpp:52] Initializing net from parameters: 
state {
  phase: TRAIN
}
layer {
  name: "parameters"
  type: "HDF5Data"
  top: "data"
  top: "label"
  include {
    phase: TRAIN
  }
  hdf5_data_param {
    source: "/home/purduethu/scratch/radon/d/deng106/CNNStatisticalModel/distributions/input/50_distributions_100_sample_size_train-distributions-path.txt"
    batch_size: 20
  }
}
layer {
  name: "conv1"
  type: "Convolution"
  bottom: "data"
  top: "conv1"
  param {
    lr_mult: 1
  }
  param {
    lr_mult: 2
  }
  convolution_param {
    num_output: 64
    pad: 2
    kernel_size: 5
    stride: 1
    weight_filler {
      type: "gaussian"
      std: 0.0001
    }
    bias_filler {
      type: "constant"
    }
  }
}
layer {
  name: "relu1"
  type: "ReLU"
  bottom: "conv1"
  top: "conv1"
}
layer {
  name: "pool1"
  type: "Pooling"
  bottom: "conv1"
  top: "pool1"
  pooling_param {
    pool: MAX
    kernel_size: 3
    stride: 2
  }
}
layer {
  name: "conv2"
  type: "Convolution"
  bottom: "pool1"
  top: "conv2"
  param {
    lr_mult: 1
  }
  param {
    lr_mult: 2
  }
  convolution_param {
    num_output: 128
    pad: 2
    kernel_size: 5
    stride: 1
    weight_filler {
      type: "gaussian"
      std: 0.01
    }
    bias_filler {
      type: "constant"
    }
  }
}
layer {
  name: "relu2"
  type: "ReLU"
  bottom: "conv2"
  top: "conv2"
}
layer {
  name: "conv3"
  type: "Convolution"
  bottom: "conv2"
  top: "conv3"
  param {
    lr_mult: 1
  }
  param {
    lr_mult: 2
  }
  convolution_param {
    num_output: 128
    pad: 2
    kernel_size: 5
    stride: 1
    weight_filler {
      type: "gaussian"
      std: 0.01
    }
    bias_filler {
      type: "constant"
    }
  }
}
layer {
  name: "relu3"
  type: "ReLU"
  bottom: "conv3"
  top: "conv3"
}
layer {
  name: "pool3"
  type: "Pooling"
  bottom: "conv3"
  top: "pool3"
  pooling_param {
    pool: AVE
    kernel_size: 3
    stride: 2
  }
}
layer {
  name: "ip1"
  type: "InnerProduct"
  bottom: "pool3"
  top: "ip1"
  param {
    lr_mult: 1
  }
  param {
    lr_mult: 2
  }
  inner_product_param {
    num_output: 512
    weight_filler {
      type: "gaussian"
      std: 0.1
    }
    bias_filler {
      type: "constant"
    }
  }
}
layer {
  name: "ip2"
  type: "InnerProduct"
  bottom: "ip1"
  top: "ip2"
  param {
    lr_mult: 1
  }
  param {
    lr_mult: 2
  }
  inner_product_param {
    num_output: 256
    weight_filler {
      type: "gaussian"
      std: 0.1
    }
    bias_filler {
      type: "constant"
    }
  }
}
layer {
  name: "ip3"
  type: "InnerProduct"
  bottom: "ip2"
  top: "ip3"
  param {
    lr_mult: 1
  }
  param {
    lr_mult: 2
  }
  inner_product_param {
    num_output: 50
    weight_filler {
      type: "gaussian"
      std: 0.1
    }
    bias_filler {
      type: "constant"
    }
  }
}
layer {
  name: "loss"
  type: "SoftmaxWithLoss"
  bottom: "ip3"
  bottom: "label"
  top: "loss"
}
I0505 21:02:42.295507  9273 layer_factory.hpp:77] Creating layer parameters
I0505 21:02:42.295516  9273 net.cpp:94] Creating Layer parameters
I0505 21:02:42.295518  9273 net.cpp:409] parameters -> data
I0505 21:02:42.295526  9273 net.cpp:409] parameters -> label
I0505 21:02:42.295531  9273 hdf5_data_layer.cpp:79] Loading list of HDF5 filenames from: /home/purduethu/scratch/radon/d/deng106/CNNStatisticalModel/distributions/input/50_distributions_100_sample_size_train-distributions-path.txt
I0505 21:02:42.295545  9273 hdf5_data_layer.cpp:93] Number of HDF5 files: 1
I0505 21:02:42.453375  9273 hdf5.cpp:35] Datatype class: H5T_INTEGER
I0505 21:02:42.456459  9273 net.cpp:144] Setting up parameters
I0505 21:02:42.456481  9273 net.cpp:151] Top shape: 20 1 10 10 (2000)
I0505 21:02:42.456486  9273 net.cpp:151] Top shape: 20 (20)
I0505 21:02:42.456490  9273 net.cpp:159] Memory required for data: 8080
I0505 21:02:42.456496  9273 layer_factory.hpp:77] Creating layer conv1
I0505 21:02:42.456512  9273 net.cpp:94] Creating Layer conv1
I0505 21:02:42.456516  9273 net.cpp:435] conv1 <- data
I0505 21:02:42.456522  9273 net.cpp:409] conv1 -> conv1
I0505 21:02:42.458348  9273 net.cpp:144] Setting up conv1
I0505 21:02:42.458361  9273 net.cpp:151] Top shape: 20 64 10 10 (128000)
I0505 21:02:42.458365  9273 net.cpp:159] Memory required for data: 520080
I0505 21:02:42.458375  9273 layer_factory.hpp:77] Creating layer relu1
I0505 21:02:42.458382  9273 net.cpp:94] Creating Layer relu1
I0505 21:02:42.458386  9273 net.cpp:435] relu1 <- conv1
I0505 21:02:42.458390  9273 net.cpp:396] relu1 -> conv1 (in-place)
I0505 21:02:42.458397  9273 net.cpp:144] Setting up relu1
I0505 21:02:42.458402  9273 net.cpp:151] Top shape: 20 64 10 10 (128000)
I0505 21:02:42.458405  9273 net.cpp:159] Memory required for data: 1032080
I0505 21:02:42.458408  9273 layer_factory.hpp:77] Creating layer pool1
I0505 21:02:42.458415  9273 net.cpp:94] Creating Layer pool1
I0505 21:02:42.458417  9273 net.cpp:435] pool1 <- conv1
I0505 21:02:42.458427  9273 net.cpp:409] pool1 -> pool1
I0505 21:02:42.458485  9273 net.cpp:144] Setting up pool1
I0505 21:02:42.458492  9273 net.cpp:151] Top shape: 20 64 5 5 (32000)
I0505 21:02:42.458495  9273 net.cpp:159] Memory required for data: 1160080
I0505 21:02:42.458498  9273 layer_factory.hpp:77] Creating layer conv2
I0505 21:02:42.458508  9273 net.cpp:94] Creating Layer conv2
I0505 21:02:42.458510  9273 net.cpp:435] conv2 <- pool1
I0505 21:02:42.458515  9273 net.cpp:409] conv2 -> conv2
I0505 21:02:42.467780  9273 net.cpp:144] Setting up conv2
I0505 21:02:42.467797  9273 net.cpp:151] Top shape: 20 128 5 5 (64000)
I0505 21:02:42.467802  9273 net.cpp:159] Memory required for data: 1416080
I0505 21:02:42.467809  9273 layer_factory.hpp:77] Creating layer relu2
I0505 21:02:42.467816  9273 net.cpp:94] Creating Layer relu2
I0505 21:02:42.467820  9273 net.cpp:435] relu2 <- conv2
I0505 21:02:42.467824  9273 net.cpp:396] relu2 -> conv2 (in-place)
I0505 21:02:42.467831  9273 net.cpp:144] Setting up relu2
I0505 21:02:42.467836  9273 net.cpp:151] Top shape: 20 128 5 5 (64000)
I0505 21:02:42.467839  9273 net.cpp:159] Memory required for data: 1672080
I0505 21:02:42.467841  9273 layer_factory.hpp:77] Creating layer conv3
I0505 21:02:42.467849  9273 net.cpp:94] Creating Layer conv3
I0505 21:02:42.467852  9273 net.cpp:435] conv3 <- conv2
I0505 21:02:42.467857  9273 net.cpp:409] conv3 -> conv3
I0505 21:02:42.482614  9273 net.cpp:144] Setting up conv3
I0505 21:02:42.482631  9273 net.cpp:151] Top shape: 20 128 5 5 (64000)
I0505 21:02:42.482635  9273 net.cpp:159] Memory required for data: 1928080
I0505 21:02:42.482643  9273 layer_factory.hpp:77] Creating layer relu3
I0505 21:02:42.482650  9273 net.cpp:94] Creating Layer relu3
I0505 21:02:42.482653  9273 net.cpp:435] relu3 <- conv3
I0505 21:02:42.482658  9273 net.cpp:396] relu3 -> conv3 (in-place)
I0505 21:02:42.482666  9273 net.cpp:144] Setting up relu3
I0505 21:02:42.482669  9273 net.cpp:151] Top shape: 20 128 5 5 (64000)
I0505 21:02:42.482672  9273 net.cpp:159] Memory required for data: 2184080
I0505 21:02:42.482676  9273 layer_factory.hpp:77] Creating layer pool3
I0505 21:02:42.482681  9273 net.cpp:94] Creating Layer pool3
I0505 21:02:42.482684  9273 net.cpp:435] pool3 <- conv3
I0505 21:02:42.482688  9273 net.cpp:409] pool3 -> pool3
I0505 21:02:42.482728  9273 net.cpp:144] Setting up pool3
I0505 21:02:42.482734  9273 net.cpp:151] Top shape: 20 128 2 2 (10240)
I0505 21:02:42.482738  9273 net.cpp:159] Memory required for data: 2225040
I0505 21:02:42.482740  9273 layer_factory.hpp:77] Creating layer ip1
I0505 21:02:42.482748  9273 net.cpp:94] Creating Layer ip1
I0505 21:02:42.482750  9273 net.cpp:435] ip1 <- pool3
I0505 21:02:42.482755  9273 net.cpp:409] ip1 -> ip1
I0505 21:02:42.489099  9273 net.cpp:144] Setting up ip1
I0505 21:02:42.489109  9273 net.cpp:151] Top shape: 20 512 (10240)
I0505 21:02:42.489112  9273 net.cpp:159] Memory required for data: 2266000
I0505 21:02:42.489118  9273 layer_factory.hpp:77] Creating layer ip2
I0505 21:02:42.489125  9273 net.cpp:94] Creating Layer ip2
I0505 21:02:42.489128  9273 net.cpp:435] ip2 <- ip1
I0505 21:02:42.489133  9273 net.cpp:409] ip2 -> ip2
I0505 21:02:42.492365  9273 net.cpp:144] Setting up ip2
I0505 21:02:42.492373  9273 net.cpp:151] Top shape: 20 256 (5120)
I0505 21:02:42.492377  9273 net.cpp:159] Memory required for data: 2286480
I0505 21:02:42.492383  9273 layer_factory.hpp:77] Creating layer ip3
I0505 21:02:42.492389  9273 net.cpp:94] Creating Layer ip3
I0505 21:02:42.492393  9273 net.cpp:435] ip3 <- ip2
I0505 21:02:42.492396  9273 net.cpp:409] ip3 -> ip3
I0505 21:02:42.493683  9273 net.cpp:144] Setting up ip3
I0505 21:02:42.493697  9273 net.cpp:151] Top shape: 20 50 (1000)
I0505 21:02:42.493701  9273 net.cpp:159] Memory required for data: 2290480
I0505 21:02:42.493707  9273 layer_factory.hpp:77] Creating layer loss
I0505 21:02:42.493713  9273 net.cpp:94] Creating Layer loss
I0505 21:02:42.493716  9273 net.cpp:435] loss <- ip3
I0505 21:02:42.493721  9273 net.cpp:435] loss <- label
I0505 21:02:42.493726  9273 net.cpp:409] loss -> loss
I0505 21:02:42.493738  9273 layer_factory.hpp:77] Creating layer loss
…
I0505 21:02:42.494185  9273 solver.cpp:181] Creating test net (#0) specified by net file: ./protocol/dis_50_100_dimension.protocol_distribution
I0505 21:02:42.494209  9273 net.cpp:323] The NetState phase (1) differed from the phase (0) specified by a rule in layer parameters
I0505 21:02:42.494287  9273 net.cpp:52] Initializing net from parameters: 
state {
  phase: TEST
}
layer {
  name: "intercept"
  type: "HDF5Data"
  top: "data"
  top: "label"
  include {
    phase: TEST
  }
  hdf5_data_param {
    source: "/home/purduethu/scratch/radon/d/deng106/CNNStatisticalModel/distributions/input/50_distributions_100_sample_size_test-distributions-path.txt"
    batch_size: 20
  }
}
layer {
  name: "conv1"
  type: "Convolution"
  bottom: "data"
  top: "conv1"
  param {
    lr_mult: 1
  }
  param {
    lr_mult: 2
  }
  convolution_param {
    num_output: 64
    pad: 2
    kernel_size: 5
    stride: 1
    weight_filler {
      type: "gaussian"
      std: 0.0001
    }
    bias_filler {
      type: "constant"
    }
  }
}
layer {
  name: "relu1"
  type: "ReLU"
  bottom: "conv1"
  top: "conv1"
}
layer {
  name: "pool1"
  type: "Pooling"
  bottom: "conv1"
  top: "pool1"
  pooling_param {
    pool: MAX
    kernel_size: 3
    stride: 2
  }
}
layer {
  name: "conv2"
  type: "Convolution"
  bottom: "pool1"
  top: "conv2"
  param {
    lr_mult: 1
  }
  param {
    lr_mult: 2
  }
  convolution_param {
    num_output: 128
    pad: 2
    kernel_size: 5
    stride: 1
    weight_filler {
      type: "gaussian"
      std: 0.01
    }
    bias_filler {
      type: "constant"
    }
  }
}
layer {
  name: "relu2"
  type: "ReLU"
  bottom: "conv2"
  top: "conv2"
}
layer {
  name: "conv3"
  type: "Convolution"
  bottom: "conv2"
  top: "conv3"
  param {
    lr_mult: 1
  }
  param {
    lr_mult: 2
  }
  convolution_param {
    num_output: 128
    pad: 2
    kernel_size: 5
    stride: 1
    weight_filler {
      type: "gaussian"
      std: 0.01
    }
    bias_filler {
      type: "constant"
    }
  }
}
layer {
  name: "relu3"
  type: "ReLU"
  bottom: "conv3"
  top: "conv3"
}
layer {
  name: "pool3"
  type: "Pooling"
  bottom: "conv3"
  top: "pool3"
  pooling_param {
    pool: AVE
    kernel_size: 3
    stride: 2
  }
}
layer {
  name: "ip1"
  type: "InnerProduct"
  bottom: "pool3"
  top: "ip1"
  param {
    lr_mult: 1
  }
  param {
    lr_mult: 2
  }
  inner_product_param {
    num_output: 512
    weight_filler {
      type: "gaussian"
      std: 0.1
    }
    bias_filler {
      type: "constant"
    }
  }
}
layer {
  name: "ip2"
  type: "InnerProduct"
  bottom: "ip1"
  top: "ip2"
  param {
    lr_mult: 1
  }
  param {
    lr_mult: 2
  }
  inner_product_param {
    num_output: 256
    weight_filler {
      type: "gaussian"
      std: 0.1
    }
    bias_filler {
      type: "constant"
    }
  }
}
layer {
  name: "ip3"
  type: "InnerProduct"
  bottom: "ip2"
  top: "ip3"
  param {
    lr_mult: 1
  }
  param {
    lr_mult: 2
  }
  inner_product_param {
    num_output: 50
    weight_filler {
      type: "gaussian"
      std: 0.1
    }
    bias_filler {
      type: "constant"
    }
  }
}
layer {
  name: "accuracy"
  type: "Accuracy"
  bottom: "ip3"
  bottom: "label"
  top: "accuracy"
  include {
    phase: TEST
  }
}
layer {
  name: "loss"
  type: "SoftmaxWithLoss"
  bottom: "ip3"
  bottom: "label"
  top: "loss"
}
I0505 21:02:42.494345  9273 layer_factory.hpp:77] Creating layer intercept
I0505 21:02:42.494354  9273 net.cpp:94] Creating Layer intercept
I0505 21:02:42.494357  9273 net.cpp:409] intercept -> data
I0505 21:02:42.494364  9273 net.cpp:409] intercept -> label
I0505 21:02:42.494370  9273 hdf5_data_layer.cpp:79] Loading list of HDF5 filenames from: /home/purduethu/scratch/radon/d/deng106/CNNStatisticalModel/distributions/input/50_distributions_100_sample_size_test-distributions-path.txt
I0505 21:02:42.494388  9273 hdf5_data_layer.cpp:93] Number of HDF5 files: 1
I0505 21:02:42.535815  9273 net.cpp:144] Setting up intercept
I0505 21:02:42.535850  9273 net.cpp:151] Top shape: 20 1 10 10 (2000)
I0505 21:02:42.535854  9273 net.cpp:151] Top shape: 20 (20)
I0505 21:02:42.535857  9273 net.cpp:159] Memory required for data: 8080
I0505 21:02:42.535863  9273 layer_factory.hpp:77] Creating layer label_intercept_1_split
I0505 21:02:42.535883  9273 net.cpp:94] Creating Layer label_intercept_1_split
I0505 21:02:42.535887  9273 net.cpp:435] label_intercept_1_split <- label
I0505 21:02:42.535893  9273 net.cpp:409] label_intercept_1_split -> label_intercept_1_split_0
I0505 21:02:42.535902  9273 net.cpp:409] label_intercept_1_split -> label_intercept_1_split_1
I0505 21:02:42.535943  9273 net.cpp:144] Setting up label_intercept_1_split
I0505 21:02:42.535949  9273 net.cpp:151] Top shape: 20 (20)
I0505 21:02:42.535953  9273 net.cpp:151] Top shape: 20 (20)
I0505 21:02:42.535956  9273 net.cpp:159] Memory required for data: 8240
I0505 21:02:42.535959  9273 layer_factory.hpp:77] Creating layer conv1
I0505 21:02:42.535971  9273 net.cpp:94] Creating Layer conv1
I0505 21:02:42.535974  9273 net.cpp:435] conv1 <- data
I0505 21:02:42.535979  9273 net.cpp:409] conv1 -> conv1
I0505 21:02:42.536854  9273 net.cpp:144] Setting up conv1
I0505 21:02:42.536867  9273 net.cpp:151] Top shape: 20 64 10 10 (128000)
I0505 21:02:42.536871  9273 net.cpp:159] Memory required for data: 520240
I0505 21:02:42.536881  9273 layer_factory.hpp:77] Creating layer relu1
I0505 21:02:42.536888  9273 net.cpp:94] Creating Layer relu1
I0505 21:02:42.536891  9273 net.cpp:435] relu1 <- conv1
I0505 21:02:42.536896  9273 net.cpp:396] relu1 -> conv1 (in-place)
I0505 21:02:42.536903  9273 net.cpp:144] Setting up relu1
I0505 21:02:42.536907  9273 net.cpp:151] Top shape: 20 64 10 10 (128000)
I0505 21:02:42.536911  9273 net.cpp:159] Memory required for data: 1032240
I0505 21:02:42.536913  9273 layer_factory.hpp:77] Creating layer pool1
I0505 21:02:42.536919  9273 net.cpp:94] Creating Layer pool1
I0505 21:02:42.536922  9273 net.cpp:435] pool1 <- conv1
I0505 21:02:42.536927  9273 net.cpp:409] pool1 -> pool1
I0505 21:02:42.536988  9273 net.cpp:144] Setting up pool1
I0505 21:02:42.536993  9273 net.cpp:151] Top shape: 20 64 5 5 (32000)
I0505 21:02:42.536996  9273 net.cpp:159] Memory required for data: 1160240
I0505 21:02:42.536999  9273 layer_factory.hpp:77] Creating layer conv2
I0505 21:02:42.537008  9273 net.cpp:94] Creating Layer conv2
I0505 21:02:42.537011  9273 net.cpp:435] conv2 <- pool1
I0505 21:02:42.537016  9273 net.cpp:409] conv2 -> conv2
I0505 21:02:42.544648  9273 net.cpp:144] Setting up conv2
I0505 21:02:42.544663  9273 net.cpp:151] Top shape: 20 128 5 5 (64000)
I0505 21:02:42.544667  9273 net.cpp:159] Memory required for data: 1416240
I0505 21:02:42.544675  9273 layer_factory.hpp:77] Creating layer relu2
I0505 21:02:42.544687  9273 net.cpp:94] Creating Layer relu2
I0505 21:02:42.544692  9273 net.cpp:435] relu2 <- conv2
I0505 21:02:42.544697  9273 net.cpp:396] relu2 -> conv2 (in-place)
I0505 21:02:42.544703  9273 net.cpp:144] Setting up relu2
I0505 21:02:42.544708  9273 net.cpp:151] Top shape: 20 128 5 5 (64000)
I0505 21:02:42.544710  9273 net.cpp:159] Memory required for data: 1672240
I0505 21:02:42.544713  9273 layer_factory.hpp:77] Creating layer conv3
I0505 21:02:42.544720  9273 net.cpp:94] Creating Layer conv3
I0505 21:02:42.544723  9273 net.cpp:435] conv3 <- conv2
I0505 21:02:42.544728  9273 net.cpp:409] conv3 -> conv3
I0505 21:02:42.557519  9273 net.cpp:144] Setting up conv3
I0505 21:02:42.557556  9273 net.cpp:151] Top shape: 20 128 5 5 (64000)
I0505 21:02:42.557566  9273 net.cpp:159] Memory required for data: 1928240
I0505 21:02:42.557590  9273 layer_factory.hpp:77] Creating layer relu3
I0505 21:02:42.557612  9273 net.cpp:94] Creating Layer relu3
I0505 21:02:42.557616  9273 net.cpp:435] relu3 <- conv3
I0505 21:02:42.557621  9273 net.cpp:396] relu3 -> conv3 (in-place)
I0505 21:02:42.557627  9273 net.cpp:144] Setting up relu3
I0505 21:02:42.557631  9273 net.cpp:151] Top shape: 20 128 5 5 (64000)
I0505 21:02:42.557634  9273 net.cpp:159] Memory required for data: 2184240
I0505 21:02:42.557637  9273 layer_factory.hpp:77] Creating layer pool3
I0505 21:02:42.557642  9273 net.cpp:94] Creating Layer pool3
I0505 21:02:42.557646  9273 net.cpp:435] pool3 <- conv3
I0505 21:02:42.557651  9273 net.cpp:409] pool3 -> pool3
I0505 21:02:42.557688  9273 net.cpp:144] Setting up pool3
I0505 21:02:42.557695  9273 net.cpp:151] Top shape: 20 128 2 2 (10240)
I0505 21:02:42.557698  9273 net.cpp:159] Memory required for data: 2225200
I0505 21:02:42.557701  9273 layer_factory.hpp:77] Creating layer ip1
I0505 21:02:42.557708  9273 net.cpp:94] Creating Layer ip1
I0505 21:02:42.557711  9273 net.cpp:435] ip1 <- pool3
I0505 21:02:42.557716  9273 net.cpp:409] ip1 -> ip1
I0505 21:02:42.563943  9273 net.cpp:144] Setting up ip1
I0505 21:02:42.563953  9273 net.cpp:151] Top shape: 20 512 (10240)
I0505 21:02:42.563956  9273 net.cpp:159] Memory required for data: 2266160
I0505 21:02:42.563962  9273 layer_factory.hpp:77] Creating layer ip2
I0505 21:02:42.563971  9273 net.cpp:94] Creating Layer ip2
I0505 21:02:42.563973  9273 net.cpp:435] ip2 <- ip1
I0505 21:02:42.563978  9273 net.cpp:409] ip2 -> ip2
I0505 21:02:42.567998  9273 net.cpp:144] Setting up ip2
I0505 21:02:42.568012  9273 net.cpp:151] Top shape: 20 256 (5120)
I0505 21:02:42.568017  9273 net.cpp:159] Memory required for data: 2286640
I0505 21:02:42.568023  9273 layer_factory.hpp:77] Creating layer ip3
I0505 21:02:42.568030  9273 net.cpp:94] Creating Layer ip3
I0505 21:02:42.568033  9273 net.cpp:435] ip3 <- ip2
I0505 21:02:42.568038  9273 net.cpp:409] ip3 -> ip3
I0505 21:02:42.568481  9273 net.cpp:144] Setting up ip3
I0505 21:02:42.568488  9273 net.cpp:151] Top shape: 20 50 (1000)
I0505 21:02:42.568491  9273 net.cpp:159] Memory required for data: 2290640
I0505 21:02:42.568496  9273 layer_factory.hpp:77] Creating layer ip3_ip3_0_split
I0505 21:02:42.568502  9273 net.cpp:94] Creating Layer ip3_ip3_0_split
I0505 21:02:42.568506  9273 net.cpp:435] ip3_ip3_0_split <- ip3
I0505 21:02:42.568511  9273 net.cpp:409] ip3_ip3_0_split -> ip3_ip3_0_split_0
I0505 21:02:42.568516  9273 net.cpp:409] ip3_ip3_0_split -> ip3_ip3_0_split_1
I0505 21:02:42.568577  9273 net.cpp:144] Setting up ip3_ip3_0_split
I0505 21:02:42.568584  9273 net.cpp:151] Top shape: 20 50 (1000)
I0505 21:02:42.568588  9273 net.cpp:151] Top shape: 20 50 (1000)
I0505 21:02:42.568590  9273 net.cpp:159] Memory required for data: 2298640
I0505 21:02:42.568594  9273 layer_factory.hpp:77] Creating layer accuracy
I0505 21:02:42.568599  9273 net.cpp:94] Creating Layer accuracy
I0505 21:02:42.568603  9273 net.cpp:435] accuracy <- ip3_ip3_0_split_0
I0505 21:02:42.568606  9273 net.cpp:435] accuracy <- label_intercept_1_split_0
I0505 21:02:42.568611  9273 net.cpp:409] accuracy -> accuracy
…
