…
I0501 23:04:50.951679 16376 net.cpp:323] The NetState phase (0) differed from the phase (1) specified by a rule in layer intercept
I0501 23:04:50.951696 16376 net.cpp:323] The NetState phase (0) differed from the phase (1) specified by a rule in layer loss
I0501 23:04:50.951777 16376 net.cpp:52] Initializing net from parameters: 
state {
  phase: TRAIN
}
layer {
  name: "parameters"
  type: "HDF5Data"
  top: "data"
  top: "label"
  include {
    phase: TRAIN
  }
  hdf5_data_param {
    source: "/home/purduethu/scratch/radon/d/deng106/CNNStatisticalModel/distributions/input/50_distributions_400_sample_size_train-parameters-path.txt"
    batch_size: 20
  }
}
layer {
  name: "conv1"
  type: "Convolution"
  bottom: "data"
  top: "conv1"
  param {
    lr_mult: 1
  }
  param {
    lr_mult: 2
  }
  convolution_param {
    num_output: 64
    pad: 2
    kernel_size: 5
    stride: 1
    weight_filler {
      type: "gaussian"
      std: 0.0001
    }
    bias_filler {
      type: "constant"
    }
  }
}
layer {
  name: "relu1"
  type: "ReLU"
  bottom: "conv1"
  top: "conv1"
}
layer {
  name: "conv2"
  type: "Convolution"
  bottom: "conv1"
  top: "conv2"
  param {
    lr_mult: 1
  }
  param {
    lr_mult: 2
  }
  convolution_param {
    num_output: 64
    pad: 2
    kernel_size: 5
    stride: 1
    weight_filler {
      type: "gaussian"
      std: 0.01
    }
    bias_filler {
      type: "constant"
    }
  }
}
layer {
  name: "relu2"
  type: "ReLU"
  bottom: "conv2"
  top: "conv2"
}
layer {
  name: "pool2"
  type: "Pooling"
  bottom: "conv2"
  top: "pool2"
  pooling_param {
    pool: MAX
    kernel_size: 3
    stride: 2
  }
}
layer {
  name: "conv3"
  type: "Convolution"
  bottom: "pool2"
  top: "conv3"
  param {
    lr_mult: 1
  }
  param {
    lr_mult: 2
  }
  convolution_param {
    num_output: 64
    pad: 2
    kernel_size: 5
    stride: 1
    weight_filler {
      type: "gaussian"
      std: 0.01
    }
    bias_filler {
      type: "constant"
    }
  }
}
layer {
  name: "relu3"
  type: "ReLU"
  bottom: "conv3"
  top: "conv3"
}
layer {
  name: "conv4"
  type: "Convolution"
  bottom: "conv3"
  top: "conv4"
  param {
    lr_mult: 1
  }
  param {
    lr_mult: 2
  }
  convolution_param {
    num_output: 64
    pad: 2
    kernel_size: 5
    stride: 1
    weight_filler {
      type: "gaussian"
      std: 0.01
    }
    bias_filler {
      type: "constant"
    }
  }
}
layer {
  name: "relu4"
  type: "ReLU"
  bottom: "conv4"
  top: "conv4"
}
layer {
  name: "conv5"
  type: "Convolution"
  bottom: "conv4"
  top: "conv5"
  param {
    lr_mult: 1
  }
  param {
    lr_mult: 2
  }
  convolution_param {
    num_output: 64
    pad: 2
    kernel_size: 5
    stride: 1
    weight_filler {
      type: "gaussian"
      std: 0.01
    }
    bias_filler {
      type: "constant"
    }
  }
}
layer {
  name: "relu5"
  type: "ReLU"
  bottom: "conv5"
  top: "conv5"
}
layer {
  name: "pool5"
  type: "Pooling"
  bottom: "conv5"
  top: "pool5"
  pooling_param {
    pool: AVE
    kernel_size: 3
    stride: 2
  }
}
layer {
  name: "ip1"
  type: "InnerProduct"
  bottom: "pool5"
  top: "ip1"
  param {
    lr_mult: 1
  }
  param {
    lr_mult: 2
  }
  inner_product_param {
    num_output: 64
    weight_filler {
      type: "gaussian"
      std: 0.1
    }
    bias_filler {
      type: "constant"
    }
  }
}
layer {
  name: "ip2"
  type: "InnerProduct"
  bottom: "ip1"
  top: "ip2"
  param {
    lr_mult: 1
  }
  param {
    lr_mult: 2
  }
  inner_product_param {
    num_output: 64
    weight_filler {
      type: "gaussian"
      std: 0.1
    }
    bias_filler {
      type: "constant"
    }
  }
}
layer {
  name: "ip3"
  type: "InnerProduct"
  bottom: "ip2"
  top: "ip3"
  param {
    lr_mult: 1
  }
  param {
    lr_mult: 2
  }
  inner_product_param {
    num_output: 1
    weight_filler {
      type: "gaussian"
      std: 0.1
    }
    bias_filler {
      type: "constant"
    }
  }
}
layer {
  name: "loss"
  type: "HuberLoss"
  bottom: "ip3"
  bottom: "label"
  top: "loss"
  include {
    phase: TRAIN
  }
}
I0501 23:04:50.951833 16376 layer_factory.hpp:77] Creating layer parameters
I0501 23:04:50.951845 16376 net.cpp:94] Creating Layer parameters
I0501 23:04:50.951850 16376 net.cpp:409] parameters -> data
I0501 23:04:50.951859 16376 net.cpp:409] parameters -> label
I0501 23:04:50.951870 16376 hdf5_data_layer.cpp:79] Loading list of HDF5 filenames from: /home/purduethu/scratch/radon/d/deng106/CNNStatisticalModel/distributions/input/50_distributions_400_sample_size_train-parameters-path.txt
I0501 23:04:50.951885 16376 hdf5_data_layer.cpp:93] Number of HDF5 files: 1
I0501 23:04:50.952450 16376 hdf5.cpp:32] Datatype class: H5T_FLOAT
I0501 23:04:51.596065 16376 net.cpp:144] Setting up parameters
I0501 23:04:51.596096 16376 net.cpp:151] Top shape: 20 1 20 20 (8000)
I0501 23:04:51.596101 16376 net.cpp:151] Top shape: 20 (20)
I0501 23:04:51.596105 16376 net.cpp:159] Memory required for data: 32080
I0501 23:04:51.596112 16376 layer_factory.hpp:77] Creating layer conv1
I0501 23:04:51.596127 16376 net.cpp:94] Creating Layer conv1
I0501 23:04:51.596132 16376 net.cpp:435] conv1 <- data
I0501 23:04:51.596138 16376 net.cpp:409] conv1 -> conv1
I0501 23:04:51.601634 16376 net.cpp:144] Setting up conv1
I0501 23:04:51.601655 16376 net.cpp:151] Top shape: 20 64 20 20 (512000)
I0501 23:04:51.601658 16376 net.cpp:159] Memory required for data: 2080080
I0501 23:04:51.601670 16376 layer_factory.hpp:77] Creating layer relu1
I0501 23:04:51.601678 16376 net.cpp:94] Creating Layer relu1
I0501 23:04:51.601682 16376 net.cpp:435] relu1 <- conv1
I0501 23:04:51.601687 16376 net.cpp:396] relu1 -> conv1 (in-place)
I0501 23:04:51.601699 16376 net.cpp:144] Setting up relu1
I0501 23:04:51.601704 16376 net.cpp:151] Top shape: 20 64 20 20 (512000)
I0501 23:04:51.601707 16376 net.cpp:159] Memory required for data: 4128080
I0501 23:04:51.601711 16376 layer_factory.hpp:77] Creating layer conv2
I0501 23:04:51.601719 16376 net.cpp:94] Creating Layer conv2
I0501 23:04:51.601723 16376 net.cpp:435] conv2 <- conv1
I0501 23:04:51.601728 16376 net.cpp:409] conv2 -> conv2
I0501 23:04:51.616773 16376 net.cpp:144] Setting up conv2
I0501 23:04:51.616791 16376 net.cpp:151] Top shape: 20 64 20 20 (512000)
I0501 23:04:51.616794 16376 net.cpp:159] Memory required for data: 6176080
I0501 23:04:51.616802 16376 layer_factory.hpp:77] Creating layer relu2
I0501 23:04:51.616811 16376 net.cpp:94] Creating Layer relu2
I0501 23:04:51.616813 16376 net.cpp:435] relu2 <- conv2
I0501 23:04:51.616818 16376 net.cpp:396] relu2 -> conv2 (in-place)
I0501 23:04:51.616825 16376 net.cpp:144] Setting up relu2
I0501 23:04:51.616830 16376 net.cpp:151] Top shape: 20 64 20 20 (512000)
I0501 23:04:51.616833 16376 net.cpp:159] Memory required for data: 8224080
I0501 23:04:51.616837 16376 layer_factory.hpp:77] Creating layer pool2
I0501 23:04:51.616848 16376 net.cpp:94] Creating Layer pool2
I0501 23:04:51.616852 16376 net.cpp:435] pool2 <- conv2
I0501 23:04:51.616858 16376 net.cpp:409] pool2 -> pool2
I0501 23:04:51.616910 16376 net.cpp:144] Setting up pool2
I0501 23:04:51.616917 16376 net.cpp:151] Top shape: 20 64 10 10 (128000)
I0501 23:04:51.616921 16376 net.cpp:159] Memory required for data: 8736080
I0501 23:04:51.616925 16376 layer_factory.hpp:77] Creating layer conv3
I0501 23:04:51.616932 16376 net.cpp:94] Creating Layer conv3
I0501 23:04:51.616935 16376 net.cpp:435] conv3 <- pool2
I0501 23:04:51.616940 16376 net.cpp:409] conv3 -> conv3
I0501 23:04:51.622309 16376 net.cpp:144] Setting up conv3
I0501 23:04:51.622323 16376 net.cpp:151] Top shape: 20 64 10 10 (128000)
I0501 23:04:51.622328 16376 net.cpp:159] Memory required for data: 9248080
I0501 23:04:51.622335 16376 layer_factory.hpp:77] Creating layer relu3
I0501 23:04:51.622341 16376 net.cpp:94] Creating Layer relu3
I0501 23:04:51.622344 16376 net.cpp:435] relu3 <- conv3
I0501 23:04:51.622349 16376 net.cpp:396] relu3 -> conv3 (in-place)
I0501 23:04:51.622356 16376 net.cpp:144] Setting up relu3
I0501 23:04:51.622360 16376 net.cpp:151] Top shape: 20 64 10 10 (128000)
I0501 23:04:51.622364 16376 net.cpp:159] Memory required for data: 9760080
I0501 23:04:51.622367 16376 layer_factory.hpp:77] Creating layer conv4
I0501 23:04:51.622375 16376 net.cpp:94] Creating Layer conv4
I0501 23:04:51.622380 16376 net.cpp:435] conv4 <- conv3
I0501 23:04:51.622385 16376 net.cpp:409] conv4 -> conv4
I0501 23:04:51.627791 16376 net.cpp:144] Setting up conv4
I0501 23:04:51.627805 16376 net.cpp:151] Top shape: 20 64 10 10 (128000)
I0501 23:04:51.627809 16376 net.cpp:159] Memory required for data: 10272080
I0501 23:04:51.627815 16376 layer_factory.hpp:77] Creating layer relu4
I0501 23:04:51.627820 16376 net.cpp:94] Creating Layer relu4
I0501 23:04:51.627825 16376 net.cpp:435] relu4 <- conv4
I0501 23:04:51.627830 16376 net.cpp:396] relu4 -> conv4 (in-place)
I0501 23:04:51.627836 16376 net.cpp:144] Setting up relu4
I0501 23:04:51.627840 16376 net.cpp:151] Top shape: 20 64 10 10 (128000)
I0501 23:04:51.627843 16376 net.cpp:159] Memory required for data: 10784080
I0501 23:04:51.627846 16376 layer_factory.hpp:77] Creating layer conv5
I0501 23:04:51.627853 16376 net.cpp:94] Creating Layer conv5
I0501 23:04:51.627857 16376 net.cpp:435] conv5 <- conv4
I0501 23:04:51.627861 16376 net.cpp:409] conv5 -> conv5
I0501 23:04:51.633273 16376 net.cpp:144] Setting up conv5
I0501 23:04:51.633287 16376 net.cpp:151] Top shape: 20 64 10 10 (128000)
I0501 23:04:51.633291 16376 net.cpp:159] Memory required for data: 11296080
I0501 23:04:51.633299 16376 layer_factory.hpp:77] Creating layer relu5
I0501 23:04:51.633306 16376 net.cpp:94] Creating Layer relu5
I0501 23:04:51.633309 16376 net.cpp:435] relu5 <- conv5
I0501 23:04:51.633313 16376 net.cpp:396] relu5 -> conv5 (in-place)
I0501 23:04:51.633321 16376 net.cpp:144] Setting up relu5
I0501 23:04:51.633324 16376 net.cpp:151] Top shape: 20 64 10 10 (128000)
I0501 23:04:51.633327 16376 net.cpp:159] Memory required for data: 11808080
I0501 23:04:51.633332 16376 layer_factory.hpp:77] Creating layer pool5
I0501 23:04:51.633337 16376 net.cpp:94] Creating Layer pool5
I0501 23:04:51.633339 16376 net.cpp:435] pool5 <- conv5
I0501 23:04:51.633343 16376 net.cpp:409] pool5 -> pool5
I0501 23:04:51.633381 16376 net.cpp:144] Setting up pool5
I0501 23:04:51.633388 16376 net.cpp:151] Top shape: 20 64 5 5 (32000)
I0501 23:04:51.633393 16376 net.cpp:159] Memory required for data: 11936080
I0501 23:04:51.633395 16376 layer_factory.hpp:77] Creating layer ip1
I0501 23:04:51.633402 16376 net.cpp:94] Creating Layer ip1
I0501 23:04:51.633405 16376 net.cpp:435] ip1 <- pool5
I0501 23:04:51.633410 16376 net.cpp:409] ip1 -> ip1
I0501 23:04:51.635943 16376 net.cpp:144] Setting up ip1
I0501 23:04:51.635951 16376 net.cpp:151] Top shape: 20 64 (1280)
I0501 23:04:51.635956 16376 net.cpp:159] Memory required for data: 11941200
I0501 23:04:51.635960 16376 layer_factory.hpp:77] Creating layer ip2
I0501 23:04:51.635967 16376 net.cpp:94] Creating Layer ip2
I0501 23:04:51.635973 16376 net.cpp:435] ip2 <- ip1
I0501 23:04:51.635979 16376 net.cpp:409] ip2 -> ip2
I0501 23:04:51.636184 16376 net.cpp:144] Setting up ip2
I0501 23:04:51.636193 16376 net.cpp:151] Top shape: 20 64 (1280)
I0501 23:04:51.636195 16376 net.cpp:159] Memory required for data: 11946320
I0501 23:04:51.636200 16376 layer_factory.hpp:77] Creating layer ip3
I0501 23:04:51.636206 16376 net.cpp:94] Creating Layer ip3
I0501 23:04:51.636209 16376 net.cpp:435] ip3 <- ip2
I0501 23:04:51.636214 16376 net.cpp:409] ip3 -> ip3
I0501 23:04:51.636314 16376 net.cpp:144] Setting up ip3
I0501 23:04:51.636322 16376 net.cpp:151] Top shape: 20 1 (20)
I0501 23:04:51.636324 16376 net.cpp:159] Memory required for data: 11946400
I0501 23:04:51.636329 16376 layer_factory.hpp:77] Creating layer loss
I0501 23:04:51.636340 16376 net.cpp:94] Creating Layer loss
I0501 23:04:51.636343 16376 net.cpp:435] loss <- ip3
I0501 23:04:51.636348 16376 net.cpp:435] loss <- label
I0501 23:04:51.636351 16376 net.cpp:409] loss -> loss
I0501 23:04:51.636401 16376 net.cpp:144] Setting up loss
…
I0501 23:04:51.822444 16376 net.cpp:323] The NetState phase (0) differed from the phase (1) specified by a rule in layer intercept
I0501 23:04:51.822460 16376 net.cpp:323] The NetState phase (0) differed from the phase (1) specified by a rule in layer accuracy
I0501 23:04:51.822551 16376 net.cpp:52] Initializing net from parameters: 
state {
  phase: TRAIN
}
layer {
  name: "parameters"
  type: "HDF5Data"
  top: "data"
  top: "label"
  include {
    phase: TRAIN
  }
  hdf5_data_param {
    source: "/home/purduethu/scratch/radon/d/deng106/CNNStatisticalModel/distributions/input/50_distributions_400_sample_size_train-distributions-path.txt"
    batch_size: 20
  }
}
layer {
  name: "conv1"
  type: "Convolution"
  bottom: "data"
  top: "conv1"
  param {
    lr_mult: 1
  }
  param {
    lr_mult: 2
  }
  convolution_param {
    num_output: 64
    pad: 2
    kernel_size: 5
    stride: 1
    weight_filler {
      type: "gaussian"
      std: 0.0001
    }
    bias_filler {
      type: "constant"
    }
  }
}
layer {
  name: "relu1"
  type: "ReLU"
  bottom: "conv1"
  top: "conv1"
}
layer {
  name: "conv2"
  type: "Convolution"
  bottom: "conv1"
  top: "conv2"
  param {
    lr_mult: 1
  }
  param {
    lr_mult: 2
  }
  convolution_param {
    num_output: 64
    pad: 2
    kernel_size: 5
    stride: 1
    weight_filler {
      type: "gaussian"
      std: 0.01
    }
    bias_filler {
      type: "constant"
    }
  }
}
layer {
  name: "relu2"
  type: "ReLU"
  bottom: "conv2"
  top: "conv2"
}
layer {
  name: "pool2"
  type: "Pooling"
  bottom: "conv2"
  top: "pool2"
  pooling_param {
    pool: MAX
    kernel_size: 3
    stride: 2
  }
}
layer {
  name: "conv3"
  type: "Convolution"
  bottom: "pool2"
  top: "conv3"
  param {
    lr_mult: 1
  }
  param {
    lr_mult: 2
  }
  convolution_param {
    num_output: 64
    pad: 2
    kernel_size: 5
    stride: 1
    weight_filler {
      type: "gaussian"
      std: 0.01
    }
    bias_filler {
      type: "constant"
    }
  }
}
layer {
  name: "relu3"
  type: "ReLU"
  bottom: "conv3"
  top: "conv3"
}
layer {
  name: "conv4"
  type: "Convolution"
  bottom: "conv3"
  top: "conv4"
  param {
    lr_mult: 1
  }
  param {
    lr_mult: 2
  }
  convolution_param {
    num_output: 64
    pad: 2
    kernel_size: 5
    stride: 1
    weight_filler {
      type: "gaussian"
      std: 0.01
    }
    bias_filler {
      type: "constant"
    }
  }
}
layer {
  name: "relu4"
  type: "ReLU"
  bottom: "conv4"
  top: "conv4"
}
layer {
  name: "conv5"
  type: "Convolution"
  bottom: "conv4"
  top: "conv5"
  param {
    lr_mult: 1
  }
  param {
    lr_mult: 2
  }
  convolution_param {
    num_output: 64
    pad: 2
    kernel_size: 5
    stride: 1
    weight_filler {
      type: "gaussian"
      std: 0.01
    }
    bias_filler {
      type: "constant"
    }
  }
}
layer {
  name: "relu5"
  type: "ReLU"
  bottom: "conv5"
  top: "conv5"
}
layer {
  name: "pool5"
  type: "Pooling"
  bottom: "conv5"
  top: "pool5"
  pooling_param {
    pool: AVE
    kernel_size: 3
    stride: 2
  }
}
layer {
  name: "ip1"
  type: "InnerProduct"
  bottom: "pool5"
  top: "ip1"
  param {
    lr_mult: 1
  }
  param {
    lr_mult: 2
  }
  inner_product_param {
    num_output: 64
    weight_filler {
      type: "gaussian"
      std: 0.1
    }
    bias_filler {
      type: "constant"
    }
  }
}
layer {
  name: "ip2"
  type: "InnerProduct"
  bottom: "ip1"
  top: "ip2"
  param {
    lr_mult: 1
  }
  param {
    lr_mult: 2
  }
  inner_product_param {
    num_output: 64
    weight_filler {
      type: "gaussian"
      std: 0.1
    }
    bias_filler {
      type: "constant"
    }
  }
}
layer {
  name: "ip3"
  type: "InnerProduct"
  bottom: "ip2"
  top: "ip3"
  param {
    lr_mult: 1
  }
  param {
    lr_mult: 2
  }
  inner_product_param {
    num_output: 50
    weight_filler {
      type: "gaussian"
      std: 0.1
    }
    bias_filler {
      type: "constant"
    }
  }
}
layer {
  name: "loss"
  type: "SoftmaxWithLoss"
  bottom: "ip3"
  bottom: "label"
  top: "loss"
}
I0501 23:04:51.822604 16376 layer_factory.hpp:77] Creating layer parameters
I0501 23:04:51.822613 16376 net.cpp:94] Creating Layer parameters
I0501 23:04:51.822618 16376 net.cpp:409] parameters -> data
I0501 23:04:51.822624 16376 net.cpp:409] parameters -> label
I0501 23:04:51.822630 16376 hdf5_data_layer.cpp:79] Loading list of HDF5 filenames from: /home/purduethu/scratch/radon/d/deng106/CNNStatisticalModel/distributions/input/50_distributions_400_sample_size_train-distributions-path.txt
I0501 23:04:51.822648 16376 hdf5_data_layer.cpp:93] Number of HDF5 files: 1
I0501 23:04:52.471783 16376 hdf5.cpp:35] Datatype class: H5T_INTEGER
I0501 23:04:52.474836 16376 net.cpp:144] Setting up parameters
I0501 23:04:52.474854 16376 net.cpp:151] Top shape: 20 1 20 20 (8000)
I0501 23:04:52.474859 16376 net.cpp:151] Top shape: 20 (20)
I0501 23:04:52.474864 16376 net.cpp:159] Memory required for data: 32080
I0501 23:04:52.474869 16376 layer_factory.hpp:77] Creating layer conv1
I0501 23:04:52.474885 16376 net.cpp:94] Creating Layer conv1
I0501 23:04:52.474890 16376 net.cpp:435] conv1 <- data
I0501 23:04:52.474897 16376 net.cpp:409] conv1 -> conv1
I0501 23:04:52.477614 16376 net.cpp:144] Setting up conv1
I0501 23:04:52.477628 16376 net.cpp:151] Top shape: 20 64 20 20 (512000)
I0501 23:04:52.477632 16376 net.cpp:159] Memory required for data: 2080080
I0501 23:04:52.477643 16376 layer_factory.hpp:77] Creating layer relu1
I0501 23:04:52.477650 16376 net.cpp:94] Creating Layer relu1
I0501 23:04:52.477653 16376 net.cpp:435] relu1 <- conv1
I0501 23:04:52.477658 16376 net.cpp:396] relu1 -> conv1 (in-place)
I0501 23:04:52.477665 16376 net.cpp:144] Setting up relu1
I0501 23:04:52.477670 16376 net.cpp:151] Top shape: 20 64 20 20 (512000)
I0501 23:04:52.477674 16376 net.cpp:159] Memory required for data: 4128080
I0501 23:04:52.477676 16376 layer_factory.hpp:77] Creating layer conv2
I0501 23:04:52.477684 16376 net.cpp:94] Creating Layer conv2
I0501 23:04:52.477687 16376 net.cpp:435] conv2 <- conv1
I0501 23:04:52.477692 16376 net.cpp:409] conv2 -> conv2
I0501 23:04:52.489626 16376 net.cpp:144] Setting up conv2
I0501 23:04:52.489641 16376 net.cpp:151] Top shape: 20 64 20 20 (512000)
I0501 23:04:52.489646 16376 net.cpp:159] Memory required for data: 6176080
I0501 23:04:52.489655 16376 layer_factory.hpp:77] Creating layer relu2
I0501 23:04:52.489661 16376 net.cpp:94] Creating Layer relu2
I0501 23:04:52.489665 16376 net.cpp:435] relu2 <- conv2
I0501 23:04:52.489670 16376 net.cpp:396] relu2 -> conv2 (in-place)
I0501 23:04:52.489676 16376 net.cpp:144] Setting up relu2
I0501 23:04:52.489681 16376 net.cpp:151] Top shape: 20 64 20 20 (512000)
I0501 23:04:52.489683 16376 net.cpp:159] Memory required for data: 8224080
I0501 23:04:52.489686 16376 layer_factory.hpp:77] Creating layer pool2
I0501 23:04:52.489692 16376 net.cpp:94] Creating Layer pool2
I0501 23:04:52.489696 16376 net.cpp:435] pool2 <- conv2
I0501 23:04:52.489699 16376 net.cpp:409] pool2 -> pool2
I0501 23:04:52.489751 16376 net.cpp:144] Setting up pool2
I0501 23:04:52.489758 16376 net.cpp:151] Top shape: 20 64 10 10 (128000)
I0501 23:04:52.489761 16376 net.cpp:159] Memory required for data: 8736080
I0501 23:04:52.489764 16376 layer_factory.hpp:77] Creating layer conv3
I0501 23:04:52.489773 16376 net.cpp:94] Creating Layer conv3
I0501 23:04:52.489775 16376 net.cpp:435] conv3 <- pool2
I0501 23:04:52.489787 16376 net.cpp:409] conv3 -> conv3
I0501 23:04:52.495286 16376 net.cpp:144] Setting up conv3
I0501 23:04:52.495301 16376 net.cpp:151] Top shape: 20 64 10 10 (128000)
I0501 23:04:52.495306 16376 net.cpp:159] Memory required for data: 9248080
I0501 23:04:52.495313 16376 layer_factory.hpp:77] Creating layer relu3
I0501 23:04:52.495319 16376 net.cpp:94] Creating Layer relu3
I0501 23:04:52.495323 16376 net.cpp:435] relu3 <- conv3
I0501 23:04:52.495327 16376 net.cpp:396] relu3 -> conv3 (in-place)
I0501 23:04:52.495334 16376 net.cpp:144] Setting up relu3
I0501 23:04:52.495339 16376 net.cpp:151] Top shape: 20 64 10 10 (128000)
I0501 23:04:52.495342 16376 net.cpp:159] Memory required for data: 9760080
I0501 23:04:52.495345 16376 layer_factory.hpp:77] Creating layer conv4
I0501 23:04:52.495353 16376 net.cpp:94] Creating Layer conv4
I0501 23:04:52.495357 16376 net.cpp:435] conv4 <- conv3
I0501 23:04:52.495362 16376 net.cpp:409] conv4 -> conv4
I0501 23:04:52.500869 16376 net.cpp:144] Setting up conv4
I0501 23:04:52.500881 16376 net.cpp:151] Top shape: 20 64 10 10 (128000)
I0501 23:04:52.500885 16376 net.cpp:159] Memory required for data: 10272080
I0501 23:04:52.500892 16376 layer_factory.hpp:77] Creating layer relu4
I0501 23:04:52.500897 16376 net.cpp:94] Creating Layer relu4
I0501 23:04:52.500901 16376 net.cpp:435] relu4 <- conv4
I0501 23:04:52.500906 16376 net.cpp:396] relu4 -> conv4 (in-place)
I0501 23:04:52.500913 16376 net.cpp:144] Setting up relu4
I0501 23:04:52.500917 16376 net.cpp:151] Top shape: 20 64 10 10 (128000)
I0501 23:04:52.500921 16376 net.cpp:159] Memory required for data: 10784080
I0501 23:04:52.500923 16376 layer_factory.hpp:77] Creating layer conv5
I0501 23:04:52.500931 16376 net.cpp:94] Creating Layer conv5
I0501 23:04:52.500934 16376 net.cpp:435] conv5 <- conv4
I0501 23:04:52.500939 16376 net.cpp:409] conv5 -> conv5
I0501 23:04:52.506616 16376 net.cpp:144] Setting up conv5
I0501 23:04:52.506630 16376 net.cpp:151] Top shape: 20 64 10 10 (128000)
I0501 23:04:52.506633 16376 net.cpp:159] Memory required for data: 11296080
I0501 23:04:52.506642 16376 layer_factory.hpp:77] Creating layer relu5
I0501 23:04:52.506647 16376 net.cpp:94] Creating Layer relu5
I0501 23:04:52.506651 16376 net.cpp:435] relu5 <- conv5
I0501 23:04:52.506656 16376 net.cpp:396] relu5 -> conv5 (in-place)
I0501 23:04:52.506664 16376 net.cpp:144] Setting up relu5
I0501 23:04:52.506667 16376 net.cpp:151] Top shape: 20 64 10 10 (128000)
I0501 23:04:52.506670 16376 net.cpp:159] Memory required for data: 11808080
I0501 23:04:52.506674 16376 layer_factory.hpp:77] Creating layer pool5
I0501 23:04:52.506678 16376 net.cpp:94] Creating Layer pool5
I0501 23:04:52.506682 16376 net.cpp:435] pool5 <- conv5
I0501 23:04:52.506686 16376 net.cpp:409] pool5 -> pool5
I0501 23:04:52.506721 16376 net.cpp:144] Setting up pool5
I0501 23:04:52.506728 16376 net.cpp:151] Top shape: 20 64 5 5 (32000)
I0501 23:04:52.506731 16376 net.cpp:159] Memory required for data: 11936080
I0501 23:04:52.506734 16376 layer_factory.hpp:77] Creating layer ip1
I0501 23:04:52.506742 16376 net.cpp:94] Creating Layer ip1
I0501 23:04:52.506744 16376 net.cpp:435] ip1 <- pool5
I0501 23:04:52.506749 16376 net.cpp:409] ip1 -> ip1
I0501 23:04:52.510154 16376 net.cpp:144] Setting up ip1
I0501 23:04:52.510169 16376 net.cpp:151] Top shape: 20 64 (1280)
I0501 23:04:52.510171 16376 net.cpp:159] Memory required for data: 11941200
I0501 23:04:52.510179 16376 layer_factory.hpp:77] Creating layer ip2
I0501 23:04:52.510185 16376 net.cpp:94] Creating Layer ip2
I0501 23:04:52.510188 16376 net.cpp:435] ip2 <- ip1
I0501 23:04:52.510195 16376 net.cpp:409] ip2 -> ip2
I0501 23:04:52.510413 16376 net.cpp:144] Setting up ip2
I0501 23:04:52.510421 16376 net.cpp:151] Top shape: 20 64 (1280)
I0501 23:04:52.510424 16376 net.cpp:159] Memory required for data: 11946320
I0501 23:04:52.510429 16376 layer_factory.hpp:77] Creating layer ip3
I0501 23:04:52.510435 16376 net.cpp:94] Creating Layer ip3
I0501 23:04:52.510438 16376 net.cpp:435] ip3 <- ip2
I0501 23:04:52.510443 16376 net.cpp:409] ip3 -> ip3
I0501 23:04:52.510638 16376 net.cpp:144] Setting up ip3
I0501 23:04:52.510646 16376 net.cpp:151] Top shape: 20 50 (1000)
I0501 23:04:52.510649 16376 net.cpp:159] Memory required for data: 11950320
I0501 23:04:52.510654 16376 layer_factory.hpp:77] Creating layer loss
I0501 23:04:52.510661 16376 net.cpp:94] Creating Layer loss
I0501 23:04:52.510664 16376 net.cpp:435] loss <- ip3
I0501 23:04:52.510668 16376 net.cpp:435] loss <- label
I0501 23:04:52.510673 16376 net.cpp:409] loss -> loss
I0501 23:04:52.510679 16376 layer_factory.hpp:77] Creating layer loss
…
I0501 23:04:52.511203 16376 solver.cpp:181] Creating test net (#0) specified by net file: ./protocol/dis_50_400_dimension.protocol_distribution
I0501 23:04:52.511229 16376 net.cpp:323] The NetState phase (1) differed from the phase (0) specified by a rule in layer parameters
I0501 23:04:52.511327 16376 net.cpp:52] Initializing net from parameters: 
state {
  phase: TEST
}
layer {
  name: "intercept"
  type: "HDF5Data"
  top: "data"
  top: "label"
  include {
    phase: TEST
  }
  hdf5_data_param {
    source: "/home/purduethu/scratch/radon/d/deng106/CNNStatisticalModel/distributions/input/50_distributions_400_sample_size_test-distributions-path.txt"
    batch_size: 20
  }
}
layer {
  name: "conv1"
  type: "Convolution"
  bottom: "data"
  top: "conv1"
  param {
    lr_mult: 1
  }
  param {
    lr_mult: 2
  }
  convolution_param {
    num_output: 64
    pad: 2
    kernel_size: 5
    stride: 1
    weight_filler {
      type: "gaussian"
      std: 0.0001
    }
    bias_filler {
      type: "constant"
    }
  }
}
layer {
  name: "relu1"
  type: "ReLU"
  bottom: "conv1"
  top: "conv1"
}
layer {
  name: "conv2"
  type: "Convolution"
  bottom: "conv1"
  top: "conv2"
  param {
    lr_mult: 1
  }
  param {
    lr_mult: 2
  }
  convolution_param {
    num_output: 64
    pad: 2
    kernel_size: 5
    stride: 1
    weight_filler {
      type: "gaussian"
      std: 0.01
    }
    bias_filler {
      type: "constant"
    }
  }
}
layer {
  name: "relu2"
  type: "ReLU"
  bottom: "conv2"
  top: "conv2"
}
layer {
  name: "pool2"
  type: "Pooling"
  bottom: "conv2"
  top: "pool2"
  pooling_param {
    pool: MAX
    kernel_size: 3
    stride: 2
  }
}
layer {
  name: "conv3"
  type: "Convolution"
  bottom: "pool2"
  top: "conv3"
  param {
    lr_mult: 1
  }
  param {
    lr_mult: 2
  }
  convolution_param {
    num_output: 64
    pad: 2
    kernel_size: 5
    stride: 1
    weight_filler {
      type: "gaussian"
      std: 0.01
    }
    bias_filler {
      type: "constant"
    }
  }
}
layer {
  name: "relu3"
  type: "ReLU"
  bottom: "conv3"
  top: "conv3"
}
layer {
  name: "conv4"
  type: "Convolution"
  bottom: "conv3"
  top: "conv4"
  param {
    lr_mult: 1
  }
  param {
    lr_mult: 2
  }
  convolution_param {
    num_output: 64
    pad: 2
    kernel_size: 5
    stride: 1
    weight_filler {
      type: "gaussian"
      std: 0.01
    }
    bias_filler {
      type: "constant"
    }
  }
}
layer {
  name: "relu4"
  type: "ReLU"
  bottom: "conv4"
  top: "conv4"
}
layer {
  name: "conv5"
  type: "Convolution"
  bottom: "conv4"
  top: "conv5"
  param {
    lr_mult: 1
  }
  param {
    lr_mult: 2
  }
  convolution_param {
    num_output: 64
    pad: 2
    kernel_size: 5
    stride: 1
    weight_filler {
      type: "gaussian"
      std: 0.01
    }
    bias_filler {
      type: "constant"
    }
  }
}
layer {
  name: "relu5"
  type: "ReLU"
  bottom: "conv5"
  top: "conv5"
}
layer {
  name: "pool5"
  type: "Pooling"
  bottom: "conv5"
  top: "pool5"
  pooling_param {
    pool: AVE
    kernel_size: 3
    stride: 2
  }
}
layer {
  name: "ip1"
  type: "InnerProduct"
  bottom: "pool5"
  top: "ip1"
  param {
    lr_mult: 1
  }
  param {
    lr_mult: 2
  }
  inner_product_param {
    num_output: 64
    weight_filler {
      type: "gaussian"
      std: 0.1
    }
    bias_filler {
      type: "constant"
    }
  }
}
layer {
  name: "ip2"
  type: "InnerProduct"
  bottom: "ip1"
  top: "ip2"
  param {
    lr_mult: 1
  }
  param {
    lr_mult: 2
  }
  inner_product_param {
    num_output: 64
    weight_filler {
      type: "gaussian"
      std: 0.1
    }
    bias_filler {
      type: "constant"
    }
  }
}
layer {
  name: "ip3"
  type: "InnerProduct"
  bottom: "ip2"
  top: "ip3"
  param {
    lr_mult: 1
  }
  param {
    lr_mult: 2
  }
  inner_product_param {
    num_output: 50
    weight_filler {
      type: "gaussian"
      std: 0.1
    }
    bias_filler {
      type: "constant"
    }
  }
}
layer {
  name: "accuracy"
  type: "Accuracy"
  bottom: "ip3"
  bottom: "label"
  top: "accuracy"
  include {
    phase: TEST
  }
}
layer {
  name: "loss"
  type: "SoftmaxWithLoss"
  bottom: "ip3"
  bottom: "label"
  top: "loss"
}
I0501 23:04:52.511394 16376 layer_factory.hpp:77] Creating layer intercept
I0501 23:04:52.511401 16376 net.cpp:94] Creating Layer intercept
I0501 23:04:52.511405 16376 net.cpp:409] intercept -> data
I0501 23:04:52.511412 16376 net.cpp:409] intercept -> label
I0501 23:04:52.511418 16376 hdf5_data_layer.cpp:79] Loading list of HDF5 filenames from: /home/purduethu/scratch/radon/d/deng106/CNNStatisticalModel/distributions/input/50_distributions_400_sample_size_test-distributions-path.txt
I0501 23:04:52.511437 16376 hdf5_data_layer.cpp:93] Number of HDF5 files: 1
I0501 23:04:52.676424 16376 net.cpp:144] Setting up intercept
I0501 23:04:52.676457 16376 net.cpp:151] Top shape: 20 1 20 20 (8000)
I0501 23:04:52.676462 16376 net.cpp:151] Top shape: 20 (20)
I0501 23:04:52.676465 16376 net.cpp:159] Memory required for data: 32080
I0501 23:04:52.676472 16376 layer_factory.hpp:77] Creating layer label_intercept_1_split
I0501 23:04:52.676491 16376 net.cpp:94] Creating Layer label_intercept_1_split
I0501 23:04:52.676496 16376 net.cpp:435] label_intercept_1_split <- label
I0501 23:04:52.676502 16376 net.cpp:409] label_intercept_1_split -> label_intercept_1_split_0
I0501 23:04:52.676511 16376 net.cpp:409] label_intercept_1_split -> label_intercept_1_split_1
I0501 23:04:52.676566 16376 net.cpp:144] Setting up label_intercept_1_split
I0501 23:04:52.676574 16376 net.cpp:151] Top shape: 20 (20)
I0501 23:04:52.676578 16376 net.cpp:151] Top shape: 20 (20)
I0501 23:04:52.676581 16376 net.cpp:159] Memory required for data: 32240
I0501 23:04:52.676584 16376 layer_factory.hpp:77] Creating layer conv1
I0501 23:04:52.676596 16376 net.cpp:94] Creating Layer conv1
I0501 23:04:52.676599 16376 net.cpp:435] conv1 <- data
I0501 23:04:52.676604 16376 net.cpp:409] conv1 -> conv1
I0501 23:04:52.677975 16376 net.cpp:144] Setting up conv1
I0501 23:04:52.677994 16376 net.cpp:151] Top shape: 20 64 20 20 (512000)
I0501 23:04:52.677999 16376 net.cpp:159] Memory required for data: 2080240
I0501 23:04:52.678009 16376 layer_factory.hpp:77] Creating layer relu1
I0501 23:04:52.678015 16376 net.cpp:94] Creating Layer relu1
I0501 23:04:52.678019 16376 net.cpp:435] relu1 <- conv1
I0501 23:04:52.678022 16376 net.cpp:396] relu1 -> conv1 (in-place)
I0501 23:04:52.678030 16376 net.cpp:144] Setting up relu1
I0501 23:04:52.678035 16376 net.cpp:151] Top shape: 20 64 20 20 (512000)
I0501 23:04:52.678037 16376 net.cpp:159] Memory required for data: 4128240
I0501 23:04:52.678040 16376 layer_factory.hpp:77] Creating layer conv2
I0501 23:04:52.678048 16376 net.cpp:94] Creating Layer conv2
I0501 23:04:52.678051 16376 net.cpp:435] conv2 <- conv1
I0501 23:04:52.678056 16376 net.cpp:409] conv2 -> conv2
I0501 23:04:52.683212 16376 net.cpp:144] Setting up conv2
I0501 23:04:52.683226 16376 net.cpp:151] Top shape: 20 64 20 20 (512000)
I0501 23:04:52.683230 16376 net.cpp:159] Memory required for data: 6176240
I0501 23:04:52.683239 16376 layer_factory.hpp:77] Creating layer relu2
I0501 23:04:52.683245 16376 net.cpp:94] Creating Layer relu2
I0501 23:04:52.683249 16376 net.cpp:435] relu2 <- conv2
I0501 23:04:52.683254 16376 net.cpp:396] relu2 -> conv2 (in-place)
I0501 23:04:52.683261 16376 net.cpp:144] Setting up relu2
I0501 23:04:52.683265 16376 net.cpp:151] Top shape: 20 64 20 20 (512000)
I0501 23:04:52.683269 16376 net.cpp:159] Memory required for data: 8224240
I0501 23:04:52.683271 16376 layer_factory.hpp:77] Creating layer pool2
I0501 23:04:52.683277 16376 net.cpp:94] Creating Layer pool2
I0501 23:04:52.683280 16376 net.cpp:435] pool2 <- conv2
I0501 23:04:52.683284 16376 net.cpp:409] pool2 -> pool2
I0501 23:04:52.683337 16376 net.cpp:144] Setting up pool2
I0501 23:04:52.683344 16376 net.cpp:151] Top shape: 20 64 10 10 (128000)
I0501 23:04:52.683347 16376 net.cpp:159] Memory required for data: 8736240
I0501 23:04:52.683351 16376 layer_factory.hpp:77] Creating layer conv3
I0501 23:04:52.683358 16376 net.cpp:94] Creating Layer conv3
I0501 23:04:52.683362 16376 net.cpp:435] conv3 <- pool2
I0501 23:04:52.683368 16376 net.cpp:409] conv3 -> conv3
I0501 23:04:52.687420 16376 net.cpp:144] Setting up conv3
I0501 23:04:52.687433 16376 net.cpp:151] Top shape: 20 64 10 10 (128000)
I0501 23:04:52.687436 16376 net.cpp:159] Memory required for data: 9248240
I0501 23:04:52.687444 16376 layer_factory.hpp:77] Creating layer relu3
I0501 23:04:52.687451 16376 net.cpp:94] Creating Layer relu3
I0501 23:04:52.687454 16376 net.cpp:435] relu3 <- conv3
I0501 23:04:52.687460 16376 net.cpp:396] relu3 -> conv3 (in-place)
I0501 23:04:52.687467 16376 net.cpp:144] Setting up relu3
I0501 23:04:52.687471 16376 net.cpp:151] Top shape: 20 64 10 10 (128000)
I0501 23:04:52.687474 16376 net.cpp:159] Memory required for data: 9760240
I0501 23:04:52.687479 16376 layer_factory.hpp:77] Creating layer conv4
I0501 23:04:52.687486 16376 net.cpp:94] Creating Layer conv4
I0501 23:04:52.687490 16376 net.cpp:435] conv4 <- conv3
I0501 23:04:52.687496 16376 net.cpp:409] conv4 -> conv4
I0501 23:04:52.691076 16376 net.cpp:144] Setting up conv4
I0501 23:04:52.691088 16376 net.cpp:151] Top shape: 20 64 10 10 (128000)
I0501 23:04:52.691092 16376 net.cpp:159] Memory required for data: 10272240
I0501 23:04:52.691097 16376 layer_factory.hpp:77] Creating layer relu4
I0501 23:04:52.691104 16376 net.cpp:94] Creating Layer relu4
I0501 23:04:52.691107 16376 net.cpp:435] relu4 <- conv4
I0501 23:04:52.691112 16376 net.cpp:396] relu4 -> conv4 (in-place)
I0501 23:04:52.691118 16376 net.cpp:144] Setting up relu4
I0501 23:04:52.691123 16376 net.cpp:151] Top shape: 20 64 10 10 (128000)
I0501 23:04:52.691125 16376 net.cpp:159] Memory required for data: 10784240
I0501 23:04:52.691128 16376 layer_factory.hpp:77] Creating layer conv5
I0501 23:04:52.691136 16376 net.cpp:94] Creating Layer conv5
I0501 23:04:52.691140 16376 net.cpp:435] conv5 <- conv4
I0501 23:04:52.691146 16376 net.cpp:409] conv5 -> conv5
I0501 23:04:52.695983 16376 net.cpp:144] Setting up conv5
I0501 23:04:52.696002 16376 net.cpp:151] Top shape: 20 64 10 10 (128000)
I0501 23:04:52.696007 16376 net.cpp:159] Memory required for data: 11296240
I0501 23:04:52.696014 16376 layer_factory.hpp:77] Creating layer relu5
I0501 23:04:52.696020 16376 net.cpp:94] Creating Layer relu5
I0501 23:04:52.696023 16376 net.cpp:435] relu5 <- conv5
I0501 23:04:52.696028 16376 net.cpp:396] relu5 -> conv5 (in-place)
I0501 23:04:52.696034 16376 net.cpp:144] Setting up relu5
I0501 23:04:52.696039 16376 net.cpp:151] Top shape: 20 64 10 10 (128000)
I0501 23:04:52.696043 16376 net.cpp:159] Memory required for data: 11808240
I0501 23:04:52.696044 16376 layer_factory.hpp:77] Creating layer pool5
I0501 23:04:52.696051 16376 net.cpp:94] Creating Layer pool5
I0501 23:04:52.696054 16376 net.cpp:435] pool5 <- conv5
I0501 23:04:52.696060 16376 net.cpp:409] pool5 -> pool5
I0501 23:04:52.696096 16376 net.cpp:144] Setting up pool5
I0501 23:04:52.696104 16376 net.cpp:151] Top shape: 20 64 5 5 (32000)
I0501 23:04:52.696106 16376 net.cpp:159] Memory required for data: 11936240
I0501 23:04:52.696110 16376 layer_factory.hpp:77] Creating layer ip1
I0501 23:04:52.696117 16376 net.cpp:94] Creating Layer ip1
I0501 23:04:52.696120 16376 net.cpp:435] ip1 <- pool5
I0501 23:04:52.696125 16376 net.cpp:409] ip1 -> ip1
I0501 23:04:52.698678 16376 net.cpp:144] Setting up ip1
I0501 23:04:52.698686 16376 net.cpp:151] Top shape: 20 64 (1280)
I0501 23:04:52.698689 16376 net.cpp:159] Memory required for data: 11941360
I0501 23:04:52.698695 16376 layer_factory.hpp:77] Creating layer ip2
I0501 23:04:52.698703 16376 net.cpp:94] Creating Layer ip2
I0501 23:04:52.698705 16376 net.cpp:435] ip2 <- ip1
I0501 23:04:52.698710 16376 net.cpp:409] ip2 -> ip2
I0501 23:04:52.698940 16376 net.cpp:144] Setting up ip2
I0501 23:04:52.698948 16376 net.cpp:151] Top shape: 20 64 (1280)
I0501 23:04:52.698951 16376 net.cpp:159] Memory required for data: 11946480
I0501 23:04:52.698956 16376 layer_factory.hpp:77] Creating layer ip3
I0501 23:04:52.698963 16376 net.cpp:94] Creating Layer ip3
I0501 23:04:52.698966 16376 net.cpp:435] ip3 <- ip2
I0501 23:04:52.698972 16376 net.cpp:409] ip3 -> ip3
I0501 23:04:52.699172 16376 net.cpp:144] Setting up ip3
I0501 23:04:52.699180 16376 net.cpp:151] Top shape: 20 50 (1000)
I0501 23:04:52.699183 16376 net.cpp:159] Memory required for data: 11950480
I0501 23:04:52.699188 16376 layer_factory.hpp:77] Creating layer ip3_ip3_0_split
I0501 23:04:52.699193 16376 net.cpp:94] Creating Layer ip3_ip3_0_split
I0501 23:04:52.699196 16376 net.cpp:435] ip3_ip3_0_split <- ip3
I0501 23:04:52.699200 16376 net.cpp:409] ip3_ip3_0_split -> ip3_ip3_0_split_0
I0501 23:04:52.699208 16376 net.cpp:409] ip3_ip3_0_split -> ip3_ip3_0_split_1
I0501 23:04:52.699246 16376 net.cpp:144] Setting up ip3_ip3_0_split
I0501 23:04:52.699254 16376 net.cpp:151] Top shape: 20 50 (1000)
I0501 23:04:52.699256 16376 net.cpp:151] Top shape: 20 50 (1000)
I0501 23:04:52.699259 16376 net.cpp:159] Memory required for data: 11958480
I0501 23:04:52.699262 16376 layer_factory.hpp:77] Creating layer accuracy
I0501 23:04:52.699270 16376 net.cpp:94] Creating Layer accuracy
I0501 23:04:52.699272 16376 net.cpp:435] accuracy <- ip3_ip3_0_split_0
I0501 23:04:52.699276 16376 net.cpp:435] accuracy <- label_intercept_1_split_0
I0501 23:04:52.699280 16376 net.cpp:409] accuracy -> accuracy
…
