…
I0502 15:03:54.388010  9181 net.cpp:323] The NetState phase (0) differed from the phase (1) specified by a rule in layer intercept
I0502 15:03:54.388026  9181 net.cpp:323] The NetState phase (0) differed from the phase (1) specified by a rule in layer loss
I0502 15:03:54.388116  9181 net.cpp:52] Initializing net from parameters: 
state {
  phase: TRAIN
}
layer {
  name: "parameters"
  type: "HDF5Data"
  top: "data"
  top: "label"
  include {
    phase: TRAIN
  }
  hdf5_data_param {
    source: "/home/purduethu/scratch/radon/d/deng106/CNNStatisticalModel/distributions/input/20_distributions_100_sample_size_train-parameters-path.txt"
    batch_size: 20
  }
}
layer {
  name: "conv1"
  type: "Convolution"
  bottom: "data"
  top: "conv1"
  param {
    lr_mult: 1
  }
  param {
    lr_mult: 2
  }
  convolution_param {
    num_output: 64
    pad: 2
    kernel_size: 5
    stride: 1
    weight_filler {
      type: "gaussian"
      std: 0.0001
    }
    bias_filler {
      type: "constant"
    }
  }
}
layer {
  name: "relu1"
  type: "ReLU"
  bottom: "conv1"
  top: "conv1"
}
layer {
  name: "conv2"
  type: "Convolution"
  bottom: "conv1"
  top: "conv2"
  param {
    lr_mult: 1
  }
  param {
    lr_mult: 2
  }
  convolution_param {
    num_output: 64
    pad: 2
    kernel_size: 5
    stride: 1
    weight_filler {
      type: "gaussian"
      std: 0.01
    }
    bias_filler {
      type: "constant"
    }
  }
}
layer {
  name: "relu2"
  type: "ReLU"
  bottom: "conv2"
  top: "conv2"
}
layer {
  name: "pool2"
  type: "Pooling"
  bottom: "conv2"
  top: "pool2"
  pooling_param {
    pool: MAX
    kernel_size: 3
    stride: 2
  }
}
layer {
  name: "conv3"
  type: "Convolution"
  bottom: "pool2"
  top: "conv3"
  param {
    lr_mult: 1
  }
  param {
    lr_mult: 2
  }
  convolution_param {
    num_output: 64
    pad: 2
    kernel_size: 5
    stride: 1
    weight_filler {
      type: "gaussian"
      std: 0.01
    }
    bias_filler {
      type: "constant"
    }
  }
}
layer {
  name: "relu3"
  type: "ReLU"
  bottom: "conv3"
  top: "conv3"
}
layer {
  name: "conv4"
  type: "Convolution"
  bottom: "conv3"
  top: "conv4"
  param {
    lr_mult: 1
  }
  param {
    lr_mult: 2
  }
  convolution_param {
    num_output: 64
    pad: 2
    kernel_size: 5
    stride: 1
    weight_filler {
      type: "gaussian"
      std: 0.01
    }
    bias_filler {
      type: "constant"
    }
  }
}
layer {
  name: "relu4"
  type: "ReLU"
  bottom: "conv4"
  top: "conv4"
}
layer {
  name: "conv5"
  type: "Convolution"
  bottom: "conv4"
  top: "conv5"
  param {
    lr_mult: 1
  }
  param {
    lr_mult: 2
  }
  convolution_param {
    num_output: 64
    pad: 2
    kernel_size: 5
    stride: 1
    weight_filler {
      type: "gaussian"
      std: 0.01
    }
    bias_filler {
      type: "constant"
    }
  }
}
layer {
  name: "relu5"
  type: "ReLU"
  bottom: "conv5"
  top: "conv5"
}
layer {
  name: "pool5"
  type: "Pooling"
  bottom: "conv5"
  top: "pool5"
  pooling_param {
    pool: AVE
    kernel_size: 3
    stride: 2
  }
}
layer {
  name: "ip1"
  type: "InnerProduct"
  bottom: "pool5"
  top: "ip1"
  param {
    lr_mult: 1
  }
  param {
    lr_mult: 2
  }
  inner_product_param {
    num_output: 64
    weight_filler {
      type: "gaussian"
      std: 0.1
    }
    bias_filler {
      type: "constant"
    }
  }
}
layer {
  name: "ip2"
  type: "InnerProduct"
  bottom: "ip1"
  top: "ip2"
  param {
    lr_mult: 1
  }
  param {
    lr_mult: 2
  }
  inner_product_param {
    num_output: 64
    weight_filler {
      type: "gaussian"
      std: 0.1
    }
    bias_filler {
      type: "constant"
    }
  }
}
layer {
  name: "ip3"
  type: "InnerProduct"
  bottom: "ip2"
  top: "ip3"
  param {
    lr_mult: 1
  }
  param {
    lr_mult: 2
  }
  inner_product_param {
    num_output: 1
    weight_filler {
      type: "gaussian"
      std: 0.1
    }
    bias_filler {
      type: "constant"
    }
  }
}
layer {
  name: "loss"
  type: "HuberLoss"
  bottom: "ip3"
  bottom: "label"
  top: "loss"
  include {
    phase: TRAIN
  }
}
I0502 15:03:54.388193  9181 layer_factory.hpp:77] Creating layer parameters
I0502 15:03:54.388207  9181 net.cpp:94] Creating Layer parameters
I0502 15:03:54.388213  9181 net.cpp:409] parameters -> data
I0502 15:03:54.388232  9181 net.cpp:409] parameters -> label
I0502 15:03:54.388243  9181 hdf5_data_layer.cpp:79] Loading list of HDF5 filenames from: /home/purduethu/scratch/radon/d/deng106/CNNStatisticalModel/distributions/input/20_distributions_100_sample_size_train-parameters-path.txt
I0502 15:03:54.388264  9181 hdf5_data_layer.cpp:93] Number of HDF5 files: 1
I0502 15:03:54.388932  9181 hdf5.cpp:32] Datatype class: H5T_FLOAT
I0502 15:03:54.458356  9181 net.cpp:144] Setting up parameters
I0502 15:03:54.458389  9181 net.cpp:151] Top shape: 20 1 10 10 (2000)
I0502 15:03:54.458395  9181 net.cpp:151] Top shape: 20 (20)
I0502 15:03:54.458400  9181 net.cpp:159] Memory required for data: 8080
I0502 15:03:54.458406  9181 layer_factory.hpp:77] Creating layer conv1
I0502 15:03:54.458425  9181 net.cpp:94] Creating Layer conv1
I0502 15:03:54.458431  9181 net.cpp:435] conv1 <- data
I0502 15:03:54.458442  9181 net.cpp:409] conv1 -> conv1
I0502 15:03:54.462347  9181 net.cpp:144] Setting up conv1
I0502 15:03:54.462362  9181 net.cpp:151] Top shape: 20 64 10 10 (128000)
I0502 15:03:54.462366  9181 net.cpp:159] Memory required for data: 520080
I0502 15:03:54.462378  9181 layer_factory.hpp:77] Creating layer relu1
I0502 15:03:54.462386  9181 net.cpp:94] Creating Layer relu1
I0502 15:03:54.462389  9181 net.cpp:435] relu1 <- conv1
I0502 15:03:54.462394  9181 net.cpp:396] relu1 -> conv1 (in-place)
I0502 15:03:54.462412  9181 net.cpp:144] Setting up relu1
I0502 15:03:54.462419  9181 net.cpp:151] Top shape: 20 64 10 10 (128000)
I0502 15:03:54.462421  9181 net.cpp:159] Memory required for data: 1032080
I0502 15:03:54.462424  9181 layer_factory.hpp:77] Creating layer conv2
I0502 15:03:54.462432  9181 net.cpp:94] Creating Layer conv2
I0502 15:03:54.462436  9181 net.cpp:435] conv2 <- conv1
I0502 15:03:54.462441  9181 net.cpp:409] conv2 -> conv2
I0502 15:03:54.467684  9181 net.cpp:144] Setting up conv2
I0502 15:03:54.467699  9181 net.cpp:151] Top shape: 20 64 10 10 (128000)
I0502 15:03:54.467702  9181 net.cpp:159] Memory required for data: 1544080
I0502 15:03:54.467710  9181 layer_factory.hpp:77] Creating layer relu2
I0502 15:03:54.467718  9181 net.cpp:94] Creating Layer relu2
I0502 15:03:54.467721  9181 net.cpp:435] relu2 <- conv2
I0502 15:03:54.467726  9181 net.cpp:396] relu2 -> conv2 (in-place)
I0502 15:03:54.467733  9181 net.cpp:144] Setting up relu2
I0502 15:03:54.467738  9181 net.cpp:151] Top shape: 20 64 10 10 (128000)
I0502 15:03:54.467741  9181 net.cpp:159] Memory required for data: 2056080
I0502 15:03:54.467744  9181 layer_factory.hpp:77] Creating layer pool2
I0502 15:03:54.467752  9181 net.cpp:94] Creating Layer pool2
I0502 15:03:54.467763  9181 net.cpp:435] pool2 <- conv2
I0502 15:03:54.467768  9181 net.cpp:409] pool2 -> pool2
I0502 15:03:54.467811  9181 net.cpp:144] Setting up pool2
I0502 15:03:54.467819  9181 net.cpp:151] Top shape: 20 64 5 5 (32000)
I0502 15:03:54.467823  9181 net.cpp:159] Memory required for data: 2184080
I0502 15:03:54.467826  9181 layer_factory.hpp:77] Creating layer conv3
I0502 15:03:54.467834  9181 net.cpp:94] Creating Layer conv3
I0502 15:03:54.467839  9181 net.cpp:435] conv3 <- pool2
I0502 15:03:54.467842  9181 net.cpp:409] conv3 -> conv3
I0502 15:03:54.472719  9181 net.cpp:144] Setting up conv3
I0502 15:03:54.472733  9181 net.cpp:151] Top shape: 20 64 5 5 (32000)
I0502 15:03:54.472738  9181 net.cpp:159] Memory required for data: 2312080
I0502 15:03:54.472746  9181 layer_factory.hpp:77] Creating layer relu3
I0502 15:03:54.472753  9181 net.cpp:94] Creating Layer relu3
I0502 15:03:54.472756  9181 net.cpp:435] relu3 <- conv3
I0502 15:03:54.472761  9181 net.cpp:396] relu3 -> conv3 (in-place)
I0502 15:03:54.472769  9181 net.cpp:144] Setting up relu3
I0502 15:03:54.472772  9181 net.cpp:151] Top shape: 20 64 5 5 (32000)
I0502 15:03:54.472776  9181 net.cpp:159] Memory required for data: 2440080
I0502 15:03:54.472779  9181 layer_factory.hpp:77] Creating layer conv4
I0502 15:03:54.472787  9181 net.cpp:94] Creating Layer conv4
I0502 15:03:54.472791  9181 net.cpp:435] conv4 <- conv3
I0502 15:03:54.472795  9181 net.cpp:409] conv4 -> conv4
I0502 15:03:54.477213  9181 net.cpp:144] Setting up conv4
I0502 15:03:54.477227  9181 net.cpp:151] Top shape: 20 64 5 5 (32000)
I0502 15:03:54.477231  9181 net.cpp:159] Memory required for data: 2568080
I0502 15:03:54.477237  9181 layer_factory.hpp:77] Creating layer relu4
I0502 15:03:54.477243  9181 net.cpp:94] Creating Layer relu4
I0502 15:03:54.477247  9181 net.cpp:435] relu4 <- conv4
I0502 15:03:54.477252  9181 net.cpp:396] relu4 -> conv4 (in-place)
I0502 15:03:54.477259  9181 net.cpp:144] Setting up relu4
I0502 15:03:54.477264  9181 net.cpp:151] Top shape: 20 64 5 5 (32000)
I0502 15:03:54.477267  9181 net.cpp:159] Memory required for data: 2696080
I0502 15:03:54.477270  9181 layer_factory.hpp:77] Creating layer conv5
I0502 15:03:54.477278  9181 net.cpp:94] Creating Layer conv5
I0502 15:03:54.477282  9181 net.cpp:435] conv5 <- conv4
I0502 15:03:54.477286  9181 net.cpp:409] conv5 -> conv5
I0502 15:03:54.482782  9181 net.cpp:144] Setting up conv5
I0502 15:03:54.482796  9181 net.cpp:151] Top shape: 20 64 5 5 (32000)
I0502 15:03:54.482801  9181 net.cpp:159] Memory required for data: 2824080
I0502 15:03:54.482810  9181 layer_factory.hpp:77] Creating layer relu5
I0502 15:03:54.482816  9181 net.cpp:94] Creating Layer relu5
I0502 15:03:54.482820  9181 net.cpp:435] relu5 <- conv5
I0502 15:03:54.482825  9181 net.cpp:396] relu5 -> conv5 (in-place)
I0502 15:03:54.482831  9181 net.cpp:144] Setting up relu5
I0502 15:03:54.482836  9181 net.cpp:151] Top shape: 20 64 5 5 (32000)
I0502 15:03:54.482841  9181 net.cpp:159] Memory required for data: 2952080
I0502 15:03:54.482843  9181 layer_factory.hpp:77] Creating layer pool5
I0502 15:03:54.482848  9181 net.cpp:94] Creating Layer pool5
I0502 15:03:54.482851  9181 net.cpp:435] pool5 <- conv5
I0502 15:03:54.482856  9181 net.cpp:409] pool5 -> pool5
I0502 15:03:54.482889  9181 net.cpp:144] Setting up pool5
I0502 15:03:54.482897  9181 net.cpp:151] Top shape: 20 64 2 2 (5120)
I0502 15:03:54.482900  9181 net.cpp:159] Memory required for data: 2972560
I0502 15:03:54.482903  9181 layer_factory.hpp:77] Creating layer ip1
I0502 15:03:54.482910  9181 net.cpp:94] Creating Layer ip1
I0502 15:03:54.482913  9181 net.cpp:435] ip1 <- pool5
I0502 15:03:54.482919  9181 net.cpp:409] ip1 -> ip1
I0502 15:03:54.484064  9181 net.cpp:144] Setting up ip1
I0502 15:03:54.484077  9181 net.cpp:151] Top shape: 20 64 (1280)
I0502 15:03:54.484081  9181 net.cpp:159] Memory required for data: 2977680
I0502 15:03:54.484087  9181 layer_factory.hpp:77] Creating layer ip2
I0502 15:03:54.484094  9181 net.cpp:94] Creating Layer ip2
I0502 15:03:54.484098  9181 net.cpp:435] ip2 <- ip1
I0502 15:03:54.484107  9181 net.cpp:409] ip2 -> ip2
I0502 15:03:54.484280  9181 net.cpp:144] Setting up ip2
I0502 15:03:54.484287  9181 net.cpp:151] Top shape: 20 64 (1280)
I0502 15:03:54.484292  9181 net.cpp:159] Memory required for data: 2982800
I0502 15:03:54.484297  9181 layer_factory.hpp:77] Creating layer ip3
I0502 15:03:54.484302  9181 net.cpp:94] Creating Layer ip3
I0502 15:03:54.484305  9181 net.cpp:435] ip3 <- ip2
I0502 15:03:54.484310  9181 net.cpp:409] ip3 -> ip3
I0502 15:03:54.484375  9181 net.cpp:144] Setting up ip3
I0502 15:03:54.484380  9181 net.cpp:151] Top shape: 20 1 (20)
I0502 15:03:54.484390  9181 net.cpp:159] Memory required for data: 2982880
I0502 15:03:54.484395  9181 layer_factory.hpp:77] Creating layer loss
I0502 15:03:54.484406  9181 net.cpp:94] Creating Layer loss
I0502 15:03:54.484411  9181 net.cpp:435] loss <- ip3
I0502 15:03:54.484414  9181 net.cpp:435] loss <- label
I0502 15:03:54.484421  9181 net.cpp:409] loss -> loss
I0502 15:03:54.484457  9181 net.cpp:144] Setting up loss
…
