…
I0503 12:26:14.595165 20655 net.cpp:323] The NetState phase (0) differed from the phase (1) specified by a rule in layer intercept
I0503 12:26:14.595183 20655 net.cpp:323] The NetState phase (0) differed from the phase (1) specified by a rule in layer accuracy
I0503 12:26:14.595276 20655 net.cpp:52] Initializing net from parameters: 
state {
  phase: TRAIN
}
layer {
  name: "parameters"
  type: "HDF5Data"
  top: "data"
  top: "label"
  include {
    phase: TRAIN
  }
  hdf5_data_param {
    source: "/home/purduethu/scratch/radon/d/deng106/CNNStatisticalModel/distributions/input/5_distributions_900_sample_size_train-distributions-path.txt"
    batch_size: 20
  }
}
layer {
  name: "conv1"
  type: "Convolution"
  bottom: "data"
  top: "conv1"
  param {
    lr_mult: 1
  }
  param {
    lr_mult: 2
  }
  convolution_param {
    num_output: 64
    pad: 2
    kernel_size: 5
    stride: 1
    weight_filler {
      type: "gaussian"
      std: 0.0001
    }
    bias_filler {
      type: "constant"
    }
  }
}
layer {
  name: "relu1"
  type: "ReLU"
  bottom: "conv1"
  top: "conv1"
}
layer {
  name: "conv2"
  type: "Convolution"
  bottom: "conv1"
  top: "conv2"
  param {
    lr_mult: 1
  }
  param {
    lr_mult: 2
  }
  convolution_param {
    num_output: 64
    pad: 2
    kernel_size: 5
    stride: 1
    weight_filler {
      type: "gaussian"
      std: 0.01
    }
    bias_filler {
      type: "constant"
    }
  }
}
layer {
  name: "relu2"
  type: "ReLU"
  bottom: "conv2"
  top: "conv2"
}
layer {
  name: "pool2"
  type: "Pooling"
  bottom: "conv2"
  top: "pool2"
  pooling_param {
    pool: MAX
    kernel_size: 3
    stride: 2
  }
}
layer {
  name: "conv3"
  type: "Convolution"
  bottom: "pool2"
  top: "conv3"
  param {
    lr_mult: 1
  }
  param {
    lr_mult: 2
  }
  convolution_param {
    num_output: 128
    pad: 2
    kernel_size: 5
    stride: 1
    weight_filler {
      type: "gaussian"
      std: 0.01
    }
    bias_filler {
      type: "constant"
    }
  }
}
layer {
  name: "relu3"
  type: "ReLU"
  bottom: "conv3"
  top: "conv3"
}
layer {
  name: "conv4"
  type: "Convolution"
  bottom: "conv3"
  top: "conv4"
  param {
    lr_mult: 1
  }
  param {
    lr_mult: 2
  }
  convolution_param {
    num_output: 128
    pad: 2
    kernel_size: 5
    stride: 1
    weight_filler {
      type: "gaussian"
      std: 0.01
    }
    bias_filler {
      type: "constant"
    }
  }
}
layer {
  name: "relu4"
  type: "ReLU"
  bottom: "conv4"
  top: "conv4"
}
layer {
  name: "conv5"
  type: "Convolution"
  bottom: "conv4"
  top: "conv5"
  param {
    lr_mult: 1
  }
  param {
    lr_mult: 2
  }
  convolution_param {
    num_output: 128
    pad: 2
    kernel_size: 5
    stride: 1
    weight_filler {
      type: "gaussian"
      std: 0.01
    }
    bias_filler {
      type: "constant"
    }
  }
}
layer {
  name: "relu5"
  type: "ReLU"
  bottom: "conv5"
  top: "conv5"
}
layer {
  name: "pool5"
  type: "Pooling"
  bottom: "conv5"
  top: "pool5"
  pooling_param {
    pool: AVE
    kernel_size: 3
    stride: 2
  }
}
layer {
  name: "ip1"
  type: "InnerProduct"
  bottom: "pool5"
  top: "ip1"
  param {
    lr_mult: 1
  }
  param {
    lr_mult: 2
  }
  inner_product_param {
    num_output: 1024
    weight_filler {
      type: "gaussian"
      std: 0.1
    }
    bias_filler {
      type: "constant"
    }
  }
}
layer {
  name: "ip2"
  type: "InnerProduct"
  bottom: "ip1"
  top: "ip2"
  param {
    lr_mult: 1
  }
  param {
    lr_mult: 2
  }
  inner_product_param {
    num_output: 512
    weight_filler {
      type: "gaussian"
      std: 0.1
    }
    bias_filler {
      type: "constant"
    }
  }
}
layer {
  name: "ip3"
  type: "InnerProduct"
  bottom: "ip2"
  top: "ip3"
  param {
    lr_mult: 1
  }
  param {
    lr_mult: 2
  }
  inner_product_param {
    num_output: 50
    weight_filler {
      type: "gaussian"
      std: 0.1
    }
    bias_filler {
      type: "constant"
    }
  }
}
layer {
  name: "loss"
  type: "SoftmaxWithLoss"
  bottom: "ip3"
  bottom: "label"
  top: "loss"
}
I0503 12:26:14.595353 20655 layer_factory.hpp:77] Creating layer parameters
I0503 12:26:14.595368 20655 net.cpp:94] Creating Layer parameters
I0503 12:26:14.595374 20655 net.cpp:409] parameters -> data
I0503 12:26:14.595394 20655 net.cpp:409] parameters -> label
I0503 12:26:14.595404 20655 hdf5_data_layer.cpp:79] Loading list of HDF5 filenames from: /home/purduethu/scratch/radon/d/deng106/CNNStatisticalModel/distributions/input/5_distributions_900_sample_size_train-distributions-path.txt
I0503 12:26:14.595429 20655 hdf5_data_layer.cpp:93] Number of HDF5 files: 1
I0503 12:26:14.595937 20655 hdf5.cpp:32] Datatype class: H5T_FLOAT
I0503 12:26:14.732182 20655 hdf5.cpp:35] Datatype class: H5T_INTEGER
I0503 12:26:14.733335 20655 net.cpp:144] Setting up parameters
I0503 12:26:14.733352 20655 net.cpp:151] Top shape: 20 1 30 30 (18000)
I0503 12:26:14.733358 20655 net.cpp:151] Top shape: 20 (20)
I0503 12:26:14.733362 20655 net.cpp:159] Memory required for data: 72080
I0503 12:26:14.733369 20655 layer_factory.hpp:77] Creating layer conv1
I0503 12:26:14.733388 20655 net.cpp:94] Creating Layer conv1
I0503 12:26:14.733394 20655 net.cpp:435] conv1 <- data
I0503 12:26:14.733405 20655 net.cpp:409] conv1 -> conv1
I0503 12:26:14.739200 20655 net.cpp:144] Setting up conv1
I0503 12:26:14.739219 20655 net.cpp:151] Top shape: 20 64 30 30 (1152000)
I0503 12:26:14.739225 20655 net.cpp:159] Memory required for data: 4680080
I0503 12:26:14.739240 20655 layer_factory.hpp:77] Creating layer relu1
I0503 12:26:14.739250 20655 net.cpp:94] Creating Layer relu1
I0503 12:26:14.739255 20655 net.cpp:435] relu1 <- conv1
I0503 12:26:14.739261 20655 net.cpp:396] relu1 -> conv1 (in-place)
I0503 12:26:14.739279 20655 net.cpp:144] Setting up relu1
I0503 12:26:14.739286 20655 net.cpp:151] Top shape: 20 64 30 30 (1152000)
I0503 12:26:14.739291 20655 net.cpp:159] Memory required for data: 9288080
I0503 12:26:14.739295 20655 layer_factory.hpp:77] Creating layer conv2
I0503 12:26:14.739307 20655 net.cpp:94] Creating Layer conv2
I0503 12:26:14.739312 20655 net.cpp:435] conv2 <- conv1
I0503 12:26:14.739318 20655 net.cpp:409] conv2 -> conv2
I0503 12:26:14.754653 20655 net.cpp:144] Setting up conv2
I0503 12:26:14.754673 20655 net.cpp:151] Top shape: 20 64 30 30 (1152000)
I0503 12:26:14.754678 20655 net.cpp:159] Memory required for data: 13896080
I0503 12:26:14.754689 20655 layer_factory.hpp:77] Creating layer relu2
I0503 12:26:14.754698 20655 net.cpp:94] Creating Layer relu2
I0503 12:26:14.754703 20655 net.cpp:435] relu2 <- conv2
I0503 12:26:14.754709 20655 net.cpp:396] relu2 -> conv2 (in-place)
I0503 12:26:14.754719 20655 net.cpp:144] Setting up relu2
I0503 12:26:14.754725 20655 net.cpp:151] Top shape: 20 64 30 30 (1152000)
I0503 12:26:14.754729 20655 net.cpp:159] Memory required for data: 18504080
I0503 12:26:14.754734 20655 layer_factory.hpp:77] Creating layer pool2
I0503 12:26:14.754750 20655 net.cpp:94] Creating Layer pool2
I0503 12:26:14.754755 20655 net.cpp:435] pool2 <- conv2
I0503 12:26:14.754761 20655 net.cpp:409] pool2 -> pool2
I0503 12:26:14.754818 20655 net.cpp:144] Setting up pool2
I0503 12:26:14.754827 20655 net.cpp:151] Top shape: 20 64 15 15 (288000)
I0503 12:26:14.754832 20655 net.cpp:159] Memory required for data: 19656080
I0503 12:26:14.754837 20655 layer_factory.hpp:77] Creating layer conv3
I0503 12:26:14.754847 20655 net.cpp:94] Creating Layer conv3
I0503 12:26:14.754851 20655 net.cpp:435] conv3 <- pool2
I0503 12:26:14.754866 20655 net.cpp:409] conv3 -> conv3
I0503 12:26:14.767212 20655 net.cpp:144] Setting up conv3
I0503 12:26:14.767227 20655 net.cpp:151] Top shape: 20 128 15 15 (576000)
I0503 12:26:14.767232 20655 net.cpp:159] Memory required for data: 21960080
I0503 12:26:14.767241 20655 layer_factory.hpp:77] Creating layer relu3
I0503 12:26:14.767246 20655 net.cpp:94] Creating Layer relu3
I0503 12:26:14.767251 20655 net.cpp:435] relu3 <- conv3
I0503 12:26:14.767254 20655 net.cpp:396] relu3 -> conv3 (in-place)
I0503 12:26:14.767261 20655 net.cpp:144] Setting up relu3
I0503 12:26:14.767266 20655 net.cpp:151] Top shape: 20 128 15 15 (576000)
I0503 12:26:14.767269 20655 net.cpp:159] Memory required for data: 24264080
I0503 12:26:14.767272 20655 layer_factory.hpp:77] Creating layer conv4
I0503 12:26:14.767282 20655 net.cpp:94] Creating Layer conv4
I0503 12:26:14.767284 20655 net.cpp:435] conv4 <- conv3
I0503 12:26:14.767289 20655 net.cpp:409] conv4 -> conv4
I0503 12:26:14.788898 20655 net.cpp:144] Setting up conv4
I0503 12:26:14.788914 20655 net.cpp:151] Top shape: 20 128 15 15 (576000)
I0503 12:26:14.788918 20655 net.cpp:159] Memory required for data: 26568080
I0503 12:26:14.788925 20655 layer_factory.hpp:77] Creating layer relu4
I0503 12:26:14.788931 20655 net.cpp:94] Creating Layer relu4
I0503 12:26:14.788935 20655 net.cpp:435] relu4 <- conv4
I0503 12:26:14.788939 20655 net.cpp:396] relu4 -> conv4 (in-place)
I0503 12:26:14.788946 20655 net.cpp:144] Setting up relu4
I0503 12:26:14.788951 20655 net.cpp:151] Top shape: 20 128 15 15 (576000)
I0503 12:26:14.788954 20655 net.cpp:159] Memory required for data: 28872080
I0503 12:26:14.788957 20655 layer_factory.hpp:77] Creating layer conv5
I0503 12:26:14.788964 20655 net.cpp:94] Creating Layer conv5
I0503 12:26:14.788969 20655 net.cpp:435] conv5 <- conv4
I0503 12:26:14.788974 20655 net.cpp:409] conv5 -> conv5
I0503 12:26:14.809991 20655 net.cpp:144] Setting up conv5
I0503 12:26:14.810006 20655 net.cpp:151] Top shape: 20 128 15 15 (576000)
I0503 12:26:14.810011 20655 net.cpp:159] Memory required for data: 31176080
I0503 12:26:14.810020 20655 layer_factory.hpp:77] Creating layer relu5
I0503 12:26:14.810026 20655 net.cpp:94] Creating Layer relu5
I0503 12:26:14.810029 20655 net.cpp:435] relu5 <- conv5
I0503 12:26:14.810034 20655 net.cpp:396] relu5 -> conv5 (in-place)
I0503 12:26:14.810041 20655 net.cpp:144] Setting up relu5
I0503 12:26:14.810046 20655 net.cpp:151] Top shape: 20 128 15 15 (576000)
I0503 12:26:14.810050 20655 net.cpp:159] Memory required for data: 33480080
I0503 12:26:14.810052 20655 layer_factory.hpp:77] Creating layer pool5
I0503 12:26:14.810057 20655 net.cpp:94] Creating Layer pool5
I0503 12:26:14.810061 20655 net.cpp:435] pool5 <- conv5
I0503 12:26:14.810065 20655 net.cpp:409] pool5 -> pool5
I0503 12:26:14.810099 20655 net.cpp:144] Setting up pool5
I0503 12:26:14.810106 20655 net.cpp:151] Top shape: 20 128 7 7 (125440)
I0503 12:26:14.810111 20655 net.cpp:159] Memory required for data: 33981840
I0503 12:26:14.810113 20655 layer_factory.hpp:77] Creating layer ip1
I0503 12:26:14.810123 20655 net.cpp:94] Creating Layer ip1
I0503 12:26:14.810127 20655 net.cpp:435] ip1 <- pool5
I0503 12:26:14.810132 20655 net.cpp:409] ip1 -> ip1
I0503 12:26:14.964890 20655 net.cpp:144] Setting up ip1
I0503 12:26:14.964925 20655 net.cpp:151] Top shape: 20 1024 (20480)
I0503 12:26:14.964929 20655 net.cpp:159] Memory required for data: 34063760
I0503 12:26:14.964937 20655 layer_factory.hpp:77] Creating layer ip2
I0503 12:26:14.964957 20655 net.cpp:94] Creating Layer ip2
I0503 12:26:14.964962 20655 net.cpp:435] ip2 <- ip1
I0503 12:26:14.964969 20655 net.cpp:409] ip2 -> ip2
I0503 12:26:14.977928 20655 net.cpp:144] Setting up ip2
I0503 12:26:14.977941 20655 net.cpp:151] Top shape: 20 512 (10240)
I0503 12:26:14.977946 20655 net.cpp:159] Memory required for data: 34104720
I0503 12:26:14.977952 20655 layer_factory.hpp:77] Creating layer ip3
I0503 12:26:14.977957 20655 net.cpp:94] Creating Layer ip3
I0503 12:26:14.977962 20655 net.cpp:435] ip3 <- ip2
I0503 12:26:14.977967 20655 net.cpp:409] ip3 -> ip3
I0503 12:26:14.978643 20655 net.cpp:144] Setting up ip3
I0503 12:26:14.978652 20655 net.cpp:151] Top shape: 20 50 (1000)
I0503 12:26:14.978654 20655 net.cpp:159] Memory required for data: 34108720
I0503 12:26:14.978659 20655 layer_factory.hpp:77] Creating layer loss
I0503 12:26:14.978667 20655 net.cpp:94] Creating Layer loss
I0503 12:26:14.978670 20655 net.cpp:435] loss <- ip3
I0503 12:26:14.978674 20655 net.cpp:435] loss <- label
I0503 12:26:14.978680 20655 net.cpp:409] loss -> loss
I0503 12:26:14.978691 20655 layer_factory.hpp:77] Creating layer loss
…
I0503 12:26:14.979188 20655 solver.cpp:181] Creating test net (#0) specified by net file: ./protocol/dis_5_900_dimension.protocol_distribution
I0503 12:26:14.979216 20655 net.cpp:323] The NetState phase (1) differed from the phase (0) specified by a rule in layer parameters
I0503 12:26:14.979310 20655 net.cpp:52] Initializing net from parameters: 
state {
  phase: TEST
}
layer {
  name: "intercept"
  type: "HDF5Data"
  top: "data"
  top: "label"
  include {
    phase: TEST
  }
  hdf5_data_param {
    source: "/home/purduethu/scratch/radon/d/deng106/CNNStatisticalModel/distributions/input/5_distributions_900_sample_size_test-distributions-path.txt"
    batch_size: 20
  }
}
layer {
  name: "conv1"
  type: "Convolution"
  bottom: "data"
  top: "conv1"
  param {
    lr_mult: 1
  }
  param {
    lr_mult: 2
  }
  convolution_param {
    num_output: 64
    pad: 2
    kernel_size: 5
    stride: 1
    weight_filler {
      type: "gaussian"
      std: 0.0001
    }
    bias_filler {
      type: "constant"
    }
  }
}
layer {
  name: "relu1"
  type: "ReLU"
  bottom: "conv1"
  top: "conv1"
}
layer {
  name: "conv2"
  type: "Convolution"
  bottom: "conv1"
  top: "conv2"
  param {
    lr_mult: 1
  }
  param {
    lr_mult: 2
  }
  convolution_param {
    num_output: 64
    pad: 2
    kernel_size: 5
    stride: 1
    weight_filler {
      type: "gaussian"
      std: 0.01
    }
    bias_filler {
      type: "constant"
    }
  }
}
layer {
  name: "relu2"
  type: "ReLU"
  bottom: "conv2"
  top: "conv2"
}
layer {
  name: "pool2"
  type: "Pooling"
  bottom: "conv2"
  top: "pool2"
  pooling_param {
    pool: MAX
    kernel_size: 3
    stride: 2
  }
}
layer {
  name: "conv3"
  type: "Convolution"
  bottom: "pool2"
  top: "conv3"
  param {
    lr_mult: 1
  }
  param {
    lr_mult: 2
  }
  convolution_param {
    num_output: 128
    pad: 2
    kernel_size: 5
    stride: 1
    weight_filler {
      type: "gaussian"
      std: 0.01
    }
    bias_filler {
      type: "constant"
    }
  }
}
layer {
  name: "relu3"
  type: "ReLU"
  bottom: "conv3"
  top: "conv3"
}
layer {
  name: "conv4"
  type: "Convolution"
  bottom: "conv3"
  top: "conv4"
  param {
    lr_mult: 1
  }
  param {
    lr_mult: 2
  }
  convolution_param {
    num_output: 128
    pad: 2
    kernel_size: 5
    stride: 1
    weight_filler {
      type: "gaussian"
      std: 0.01
    }
    bias_filler {
      type: "constant"
    }
  }
}
layer {
  name: "relu4"
  type: "ReLU"
  bottom: "conv4"
  top: "conv4"
}
layer {
  name: "conv5"
  type: "Convolution"
  bottom: "conv4"
  top: "conv5"
  param {
    lr_mult: 1
  }
  param {
    lr_mult: 2
  }
  convolution_param {
    num_output: 128
    pad: 2
    kernel_size: 5
    stride: 1
    weight_filler {
      type: "gaussian"
      std: 0.01
    }
    bias_filler {
      type: "constant"
    }
  }
}
layer {
  name: "relu5"
  type: "ReLU"
  bottom: "conv5"
  top: "conv5"
}
layer {
  name: "pool5"
  type: "Pooling"
  bottom: "conv5"
  top: "pool5"
  pooling_param {
    pool: AVE
    kernel_size: 3
    stride: 2
  }
}
layer {
  name: "ip1"
  type: "InnerProduct"
  bottom: "pool5"
  top: "ip1"
  param {
    lr_mult: 1
  }
  param {
    lr_mult: 2
  }
  inner_product_param {
    num_output: 1024
    weight_filler {
      type: "gaussian"
      std: 0.1
    }
    bias_filler {
      type: "constant"
    }
  }
}
layer {
  name: "ip2"
  type: "InnerProduct"
  bottom: "ip1"
  top: "ip2"
  param {
    lr_mult: 1
  }
  param {
    lr_mult: 2
  }
  inner_product_param {
    num_output: 512
    weight_filler {
      type: "gaussian"
      std: 0.1
    }
    bias_filler {
      type: "constant"
    }
  }
}
layer {
  name: "ip3"
  type: "InnerProduct"
  bottom: "ip2"
  top: "ip3"
  param {
    lr_mult: 1
  }
  param {
    lr_mult: 2
  }
  inner_product_param {
    num_output: 50
    weight_filler {
      type: "gaussian"
      std: 0.1
    }
    bias_filler {
      type: "constant"
    }
  }
}
layer {
  name: "accuracy"
  type: "Accuracy"
  bottom: "ip3"
  bottom: "label"
  top: "accuracy"
  include {
    phase: TEST
  }
}
layer {
  name: "loss"
  type: "SoftmaxWithLoss"
  bottom: "ip3"
  bottom: "label"
  top: "loss"
}
I0503 12:26:14.979380 20655 layer_factory.hpp:77] Creating layer intercept
I0503 12:26:14.979388 20655 net.cpp:94] Creating Layer intercept
I0503 12:26:14.979393 20655 net.cpp:409] intercept -> data
I0503 12:26:14.979399 20655 net.cpp:409] intercept -> label
I0503 12:26:14.979405 20655 hdf5_data_layer.cpp:79] Loading list of HDF5 filenames from: /home/purduethu/scratch/radon/d/deng106/CNNStatisticalModel/distributions/input/5_distributions_900_sample_size_test-distributions-path.txt
I0503 12:26:14.979424 20655 hdf5_data_layer.cpp:93] Number of HDF5 files: 1
I0503 12:26:15.017459 20655 net.cpp:144] Setting up intercept
I0503 12:26:15.017490 20655 net.cpp:151] Top shape: 20 1 30 30 (18000)
I0503 12:26:15.017495 20655 net.cpp:151] Top shape: 20 (20)
I0503 12:26:15.017499 20655 net.cpp:159] Memory required for data: 72080
I0503 12:26:15.017505 20655 layer_factory.hpp:77] Creating layer label_intercept_1_split
I0503 12:26:15.017521 20655 net.cpp:94] Creating Layer label_intercept_1_split
I0503 12:26:15.017526 20655 net.cpp:435] label_intercept_1_split <- label
I0503 12:26:15.017531 20655 net.cpp:409] label_intercept_1_split -> label_intercept_1_split_0
I0503 12:26:15.017540 20655 net.cpp:409] label_intercept_1_split -> label_intercept_1_split_1
I0503 12:26:15.017575 20655 net.cpp:144] Setting up label_intercept_1_split
I0503 12:26:15.017581 20655 net.cpp:151] Top shape: 20 (20)
I0503 12:26:15.017585 20655 net.cpp:151] Top shape: 20 (20)
I0503 12:26:15.017588 20655 net.cpp:159] Memory required for data: 72240
I0503 12:26:15.017591 20655 layer_factory.hpp:77] Creating layer conv1
I0503 12:26:15.017602 20655 net.cpp:94] Creating Layer conv1
I0503 12:26:15.017606 20655 net.cpp:435] conv1 <- data
I0503 12:26:15.017611 20655 net.cpp:409] conv1 -> conv1
I0503 12:26:15.018813 20655 net.cpp:144] Setting up conv1
I0503 12:26:15.018826 20655 net.cpp:151] Top shape: 20 64 30 30 (1152000)
I0503 12:26:15.018831 20655 net.cpp:159] Memory required for data: 4680240
I0503 12:26:15.018841 20655 layer_factory.hpp:77] Creating layer relu1
I0503 12:26:15.018847 20655 net.cpp:94] Creating Layer relu1
I0503 12:26:15.018851 20655 net.cpp:435] relu1 <- conv1
I0503 12:26:15.018857 20655 net.cpp:396] relu1 -> conv1 (in-place)
I0503 12:26:15.018863 20655 net.cpp:144] Setting up relu1
I0503 12:26:15.018867 20655 net.cpp:151] Top shape: 20 64 30 30 (1152000)
I0503 12:26:15.018870 20655 net.cpp:159] Memory required for data: 9288240
I0503 12:26:15.018874 20655 layer_factory.hpp:77] Creating layer conv2
I0503 12:26:15.018882 20655 net.cpp:94] Creating Layer conv2
I0503 12:26:15.018887 20655 net.cpp:435] conv2 <- conv1
I0503 12:26:15.018890 20655 net.cpp:409] conv2 -> conv2
I0503 12:26:15.025095 20655 net.cpp:144] Setting up conv2
I0503 12:26:15.025110 20655 net.cpp:151] Top shape: 20 64 30 30 (1152000)
I0503 12:26:15.025115 20655 net.cpp:159] Memory required for data: 13896240
I0503 12:26:15.025122 20655 layer_factory.hpp:77] Creating layer relu2
I0503 12:26:15.025128 20655 net.cpp:94] Creating Layer relu2
I0503 12:26:15.025132 20655 net.cpp:435] relu2 <- conv2
I0503 12:26:15.025137 20655 net.cpp:396] relu2 -> conv2 (in-place)
I0503 12:26:15.025144 20655 net.cpp:144] Setting up relu2
I0503 12:26:15.025149 20655 net.cpp:151] Top shape: 20 64 30 30 (1152000)
I0503 12:26:15.025152 20655 net.cpp:159] Memory required for data: 18504240
I0503 12:26:15.025156 20655 layer_factory.hpp:77] Creating layer pool2
I0503 12:26:15.025161 20655 net.cpp:94] Creating Layer pool2
I0503 12:26:15.025166 20655 net.cpp:435] pool2 <- conv2
I0503 12:26:15.025169 20655 net.cpp:409] pool2 -> pool2
I0503 12:26:15.025204 20655 net.cpp:144] Setting up pool2
I0503 12:26:15.025210 20655 net.cpp:151] Top shape: 20 64 15 15 (288000)
I0503 12:26:15.025213 20655 net.cpp:159] Memory required for data: 19656240
I0503 12:26:15.025216 20655 layer_factory.hpp:77] Creating layer conv3
I0503 12:26:15.025224 20655 net.cpp:94] Creating Layer conv3
I0503 12:26:15.025228 20655 net.cpp:435] conv3 <- pool2
I0503 12:26:15.025233 20655 net.cpp:409] conv3 -> conv3
I0503 12:26:15.034276 20655 net.cpp:144] Setting up conv3
I0503 12:26:15.034291 20655 net.cpp:151] Top shape: 20 128 15 15 (576000)
I0503 12:26:15.034294 20655 net.cpp:159] Memory required for data: 21960240
I0503 12:26:15.034303 20655 layer_factory.hpp:77] Creating layer relu3
I0503 12:26:15.034310 20655 net.cpp:94] Creating Layer relu3
I0503 12:26:15.034314 20655 net.cpp:435] relu3 <- conv3
I0503 12:26:15.034318 20655 net.cpp:396] relu3 -> conv3 (in-place)
I0503 12:26:15.034325 20655 net.cpp:144] Setting up relu3
I0503 12:26:15.034330 20655 net.cpp:151] Top shape: 20 128 15 15 (576000)
I0503 12:26:15.034333 20655 net.cpp:159] Memory required for data: 24264240
I0503 12:26:15.034337 20655 layer_factory.hpp:77] Creating layer conv4
I0503 12:26:15.034343 20655 net.cpp:94] Creating Layer conv4
I0503 12:26:15.034348 20655 net.cpp:435] conv4 <- conv3
I0503 12:26:15.034353 20655 net.cpp:409] conv4 -> conv4
I0503 12:26:15.049365 20655 net.cpp:144] Setting up conv4
I0503 12:26:15.049381 20655 net.cpp:151] Top shape: 20 128 15 15 (576000)
I0503 12:26:15.049386 20655 net.cpp:159] Memory required for data: 26568240
I0503 12:26:15.049392 20655 layer_factory.hpp:77] Creating layer relu4
I0503 12:26:15.049398 20655 net.cpp:94] Creating Layer relu4
I0503 12:26:15.049405 20655 net.cpp:435] relu4 <- conv4
I0503 12:26:15.049412 20655 net.cpp:396] relu4 -> conv4 (in-place)
I0503 12:26:15.049418 20655 net.cpp:144] Setting up relu4
I0503 12:26:15.049423 20655 net.cpp:151] Top shape: 20 128 15 15 (576000)
I0503 12:26:15.049427 20655 net.cpp:159] Memory required for data: 28872240
I0503 12:26:15.049429 20655 layer_factory.hpp:77] Creating layer conv5
I0503 12:26:15.049437 20655 net.cpp:94] Creating Layer conv5
I0503 12:26:15.049441 20655 net.cpp:435] conv5 <- conv4
I0503 12:26:15.049445 20655 net.cpp:409] conv5 -> conv5
I0503 12:26:15.064188 20655 net.cpp:144] Setting up conv5
I0503 12:26:15.064203 20655 net.cpp:151] Top shape: 20 128 15 15 (576000)
I0503 12:26:15.064208 20655 net.cpp:159] Memory required for data: 31176240
I0503 12:26:15.064216 20655 layer_factory.hpp:77] Creating layer relu5
I0503 12:26:15.064223 20655 net.cpp:94] Creating Layer relu5
I0503 12:26:15.064225 20655 net.cpp:435] relu5 <- conv5
I0503 12:26:15.064230 20655 net.cpp:396] relu5 -> conv5 (in-place)
I0503 12:26:15.064237 20655 net.cpp:144] Setting up relu5
I0503 12:26:15.064242 20655 net.cpp:151] Top shape: 20 128 15 15 (576000)
I0503 12:26:15.064245 20655 net.cpp:159] Memory required for data: 33480240
I0503 12:26:15.064249 20655 layer_factory.hpp:77] Creating layer pool5
I0503 12:26:15.064252 20655 net.cpp:94] Creating Layer pool5
I0503 12:26:15.064256 20655 net.cpp:435] pool5 <- conv5
I0503 12:26:15.064260 20655 net.cpp:409] pool5 -> pool5
I0503 12:26:15.064286 20655 net.cpp:144] Setting up pool5
I0503 12:26:15.064292 20655 net.cpp:151] Top shape: 20 128 7 7 (125440)
I0503 12:26:15.064296 20655 net.cpp:159] Memory required for data: 33982000
I0503 12:26:15.064299 20655 layer_factory.hpp:77] Creating layer ip1
I0503 12:26:15.064306 20655 net.cpp:94] Creating Layer ip1
I0503 12:26:15.064309 20655 net.cpp:435] ip1 <- pool5
I0503 12:26:15.064313 20655 net.cpp:409] ip1 -> ip1
I0503 12:26:15.219177 20655 net.cpp:144] Setting up ip1
I0503 12:26:15.219213 20655 net.cpp:151] Top shape: 20 1024 (20480)
I0503 12:26:15.219218 20655 net.cpp:159] Memory required for data: 34063920
I0503 12:26:15.219225 20655 layer_factory.hpp:77] Creating layer ip2
I0503 12:26:15.219235 20655 net.cpp:94] Creating Layer ip2
I0503 12:26:15.219240 20655 net.cpp:435] ip2 <- ip1
I0503 12:26:15.219247 20655 net.cpp:409] ip2 -> ip2
I0503 12:26:15.232225 20655 net.cpp:144] Setting up ip2
I0503 12:26:15.232239 20655 net.cpp:151] Top shape: 20 512 (10240)
I0503 12:26:15.232244 20655 net.cpp:159] Memory required for data: 34104880
I0503 12:26:15.232249 20655 layer_factory.hpp:77] Creating layer ip3
I0503 12:26:15.232257 20655 net.cpp:94] Creating Layer ip3
I0503 12:26:15.232261 20655 net.cpp:435] ip3 <- ip2
I0503 12:26:15.232266 20655 net.cpp:409] ip3 -> ip3
I0503 12:26:15.232959 20655 net.cpp:144] Setting up ip3
I0503 12:26:15.232967 20655 net.cpp:151] Top shape: 20 50 (1000)
I0503 12:26:15.232970 20655 net.cpp:159] Memory required for data: 34108880
I0503 12:26:15.232975 20655 layer_factory.hpp:77] Creating layer ip3_ip3_0_split
I0503 12:26:15.232981 20655 net.cpp:94] Creating Layer ip3_ip3_0_split
I0503 12:26:15.232985 20655 net.cpp:435] ip3_ip3_0_split <- ip3
I0503 12:26:15.232990 20655 net.cpp:409] ip3_ip3_0_split -> ip3_ip3_0_split_0
I0503 12:26:15.232995 20655 net.cpp:409] ip3_ip3_0_split -> ip3_ip3_0_split_1
I0503 12:26:15.233019 20655 net.cpp:144] Setting up ip3_ip3_0_split
I0503 12:26:15.233024 20655 net.cpp:151] Top shape: 20 50 (1000)
I0503 12:26:15.233028 20655 net.cpp:151] Top shape: 20 50 (1000)
I0503 12:26:15.233031 20655 net.cpp:159] Memory required for data: 34116880
I0503 12:26:15.233034 20655 layer_factory.hpp:77] Creating layer accuracy
I0503 12:26:15.233047 20655 net.cpp:94] Creating Layer accuracy
I0503 12:26:15.233050 20655 net.cpp:435] accuracy <- ip3_ip3_0_split_0
I0503 12:26:15.233054 20655 net.cpp:435] accuracy <- label_intercept_1_split_0
I0503 12:26:15.233059 20655 net.cpp:409] accuracy -> accuracy
…
