…
I0502 15:50:13.744432 11413 net.cpp:323] The NetState phase (0) differed from the phase (1) specified by a rule in layer intercept
I0502 15:50:13.744448 11413 net.cpp:323] The NetState phase (0) differed from the phase (1) specified by a rule in layer loss
I0502 15:50:13.744541 11413 net.cpp:52] Initializing net from parameters: 
state {
  phase: TRAIN
}
layer {
  name: "parameters"
  type: "HDF5Data"
  top: "data"
  top: "label"
  include {
    phase: TRAIN
  }
  hdf5_data_param {
    source: "/home/purduethu/scratch/radon/d/deng106/CNNStatisticalModel/distributions/input/5_distributions_100_sample_size_train-parameters-path.txt"
    batch_size: 20
  }
}
layer {
  name: "conv1"
  type: "Convolution"
  bottom: "data"
  top: "conv1"
  param {
    lr_mult: 1
  }
  param {
    lr_mult: 2
  }
  convolution_param {
    num_output: 64
    pad: 2
    kernel_size: 5
    stride: 1
    weight_filler {
      type: "gaussian"
      std: 0.0001
    }
    bias_filler {
      type: "constant"
    }
  }
}
layer {
  name: "relu1"
  type: "ReLU"
  bottom: "conv1"
  top: "conv1"
}
layer {
  name: "conv2"
  type: "Convolution"
  bottom: "conv1"
  top: "conv2"
  param {
    lr_mult: 1
  }
  param {
    lr_mult: 2
  }
  convolution_param {
    num_output: 64
    pad: 2
    kernel_size: 5
    stride: 1
    weight_filler {
      type: "gaussian"
      std: 0.01
    }
    bias_filler {
      type: "constant"
    }
  }
}
layer {
  name: "relu2"
  type: "ReLU"
  bottom: "conv2"
  top: "conv2"
}
layer {
  name: "pool2"
  type: "Pooling"
  bottom: "conv2"
  top: "pool2"
  pooling_param {
    pool: MAX
    kernel_size: 3
    stride: 2
  }
}
layer {
  name: "conv3"
  type: "Convolution"
  bottom: "pool2"
  top: "conv3"
  param {
    lr_mult: 1
  }
  param {
    lr_mult: 2
  }
  convolution_param {
    num_output: 64
    pad: 2
    kernel_size: 5
    stride: 1
    weight_filler {
      type: "gaussian"
      std: 0.01
    }
    bias_filler {
      type: "constant"
    }
  }
}
layer {
  name: "relu3"
  type: "ReLU"
  bottom: "conv3"
  top: "conv3"
}
layer {
  name: "conv4"
  type: "Convolution"
  bottom: "conv3"
  top: "conv4"
  param {
    lr_mult: 1
  }
  param {
    lr_mult: 2
  }
  convolution_param {
    num_output: 64
    pad: 2
    kernel_size: 5
    stride: 1
    weight_filler {
      type: "gaussian"
      std: 0.01
    }
    bias_filler {
      type: "constant"
    }
  }
}
layer {
  name: "relu4"
  type: "ReLU"
  bottom: "conv4"
  top: "conv4"
}
layer {
  name: "conv5"
  type: "Convolution"
  bottom: "conv4"
  top: "conv5"
  param {
    lr_mult: 1
  }
  param {
    lr_mult: 2
  }
  convolution_param {
    num_output: 64
    pad: 2
    kernel_size: 5
    stride: 1
    weight_filler {
      type: "gaussian"
      std: 0.01
    }
    bias_filler {
      type: "constant"
    }
  }
}
layer {
  name: "relu5"
  type: "ReLU"
  bottom: "conv5"
  top: "conv5"
}
layer {
  name: "pool5"
  type: "Pooling"
  bottom: "conv5"
  top: "pool5"
  pooling_param {
    pool: AVE
    kernel_size: 3
    stride: 2
  }
}
layer {
  name: "ip1"
  type: "InnerProduct"
  bottom: "pool5"
  top: "ip1"
  param {
    lr_mult: 1
  }
  param {
    lr_mult: 2
  }
  inner_product_param {
    num_output: 64
    weight_filler {
      type: "gaussian"
      std: 0.1
    }
    bias_filler {
      type: "constant"
    }
  }
}
layer {
  name: "ip2"
  type: "InnerProduct"
  bottom: "ip1"
  top: "ip2"
  param {
    lr_mult: 1
  }
  param {
    lr_mult: 2
  }
  inner_product_param {
    num_output: 64
    weight_filler {
      type: "gaussian"
      std: 0.1
    }
    bias_filler {
      type: "constant"
    }
  }
}
layer {
  name: "ip3"
  type: "InnerProduct"
  bottom: "ip2"
  top: "ip3"
  param {
    lr_mult: 1
  }
  param {
    lr_mult: 2
  }
  inner_product_param {
    num_output: 1
    weight_filler {
      type: "gaussian"
      std: 0.1
    }
    bias_filler {
      type: "constant"
    }
  }
}
layer {
  name: "loss"
  type: "HuberLoss"
  bottom: "ip3"
  bottom: "label"
  top: "loss"
  include {
    phase: TRAIN
  }
}
I0502 15:50:13.744637 11413 layer_factory.hpp:77] Creating layer parameters
I0502 15:50:13.744655 11413 net.cpp:94] Creating Layer parameters
I0502 15:50:13.744662 11413 net.cpp:409] parameters -> data
I0502 15:50:13.744681 11413 net.cpp:409] parameters -> label
I0502 15:50:13.744691 11413 hdf5_data_layer.cpp:79] Loading list of HDF5 filenames from: /home/purduethu/scratch/radon/d/deng106/CNNStatisticalModel/distributions/input/5_distributions_100_sample_size_train-parameters-path.txt
I0502 15:50:13.744714 11413 hdf5_data_layer.cpp:93] Number of HDF5 files: 1
I0502 15:50:13.745357 11413 hdf5.cpp:32] Datatype class: H5T_FLOAT
I0502 15:50:13.763144 11413 net.cpp:144] Setting up parameters
I0502 15:50:13.763175 11413 net.cpp:151] Top shape: 20 1 10 10 (2000)
I0502 15:50:13.763181 11413 net.cpp:151] Top shape: 20 (20)
I0502 15:50:13.763185 11413 net.cpp:159] Memory required for data: 8080
I0502 15:50:13.763193 11413 layer_factory.hpp:77] Creating layer conv1
I0502 15:50:13.763213 11413 net.cpp:94] Creating Layer conv1
I0502 15:50:13.763219 11413 net.cpp:435] conv1 <- data
I0502 15:50:13.763231 11413 net.cpp:409] conv1 -> conv1
I0502 15:50:13.767165 11413 net.cpp:144] Setting up conv1
I0502 15:50:13.767180 11413 net.cpp:151] Top shape: 20 64 10 10 (128000)
I0502 15:50:13.767184 11413 net.cpp:159] Memory required for data: 520080
I0502 15:50:13.767195 11413 layer_factory.hpp:77] Creating layer relu1
I0502 15:50:13.767204 11413 net.cpp:94] Creating Layer relu1
I0502 15:50:13.767207 11413 net.cpp:435] relu1 <- conv1
I0502 15:50:13.767212 11413 net.cpp:396] relu1 -> conv1 (in-place)
I0502 15:50:13.767227 11413 net.cpp:144] Setting up relu1
I0502 15:50:13.767232 11413 net.cpp:151] Top shape: 20 64 10 10 (128000)
I0502 15:50:13.767236 11413 net.cpp:159] Memory required for data: 1032080
I0502 15:50:13.767240 11413 layer_factory.hpp:77] Creating layer conv2
I0502 15:50:13.767247 11413 net.cpp:94] Creating Layer conv2
I0502 15:50:13.767251 11413 net.cpp:435] conv2 <- conv1
I0502 15:50:13.767256 11413 net.cpp:409] conv2 -> conv2
I0502 15:50:13.773136 11413 net.cpp:144] Setting up conv2
I0502 15:50:13.773150 11413 net.cpp:151] Top shape: 20 64 10 10 (128000)
I0502 15:50:13.773154 11413 net.cpp:159] Memory required for data: 1544080
I0502 15:50:13.773164 11413 layer_factory.hpp:77] Creating layer relu2
I0502 15:50:13.773170 11413 net.cpp:94] Creating Layer relu2
I0502 15:50:13.773175 11413 net.cpp:435] relu2 <- conv2
I0502 15:50:13.773180 11413 net.cpp:396] relu2 -> conv2 (in-place)
I0502 15:50:13.773186 11413 net.cpp:144] Setting up relu2
I0502 15:50:13.773191 11413 net.cpp:151] Top shape: 20 64 10 10 (128000)
I0502 15:50:13.773195 11413 net.cpp:159] Memory required for data: 2056080
I0502 15:50:13.773198 11413 layer_factory.hpp:77] Creating layer pool2
I0502 15:50:13.773205 11413 net.cpp:94] Creating Layer pool2
I0502 15:50:13.773216 11413 net.cpp:435] pool2 <- conv2
I0502 15:50:13.773221 11413 net.cpp:409] pool2 -> pool2
I0502 15:50:13.773264 11413 net.cpp:144] Setting up pool2
I0502 15:50:13.773272 11413 net.cpp:151] Top shape: 20 64 5 5 (32000)
I0502 15:50:13.773277 11413 net.cpp:159] Memory required for data: 2184080
I0502 15:50:13.773279 11413 layer_factory.hpp:77] Creating layer conv3
I0502 15:50:13.773288 11413 net.cpp:94] Creating Layer conv3
I0502 15:50:13.773291 11413 net.cpp:435] conv3 <- pool2
I0502 15:50:13.773296 11413 net.cpp:409] conv3 -> conv3
I0502 15:50:13.778254 11413 net.cpp:144] Setting up conv3
I0502 15:50:13.778267 11413 net.cpp:151] Top shape: 20 64 5 5 (32000)
I0502 15:50:13.778272 11413 net.cpp:159] Memory required for data: 2312080
I0502 15:50:13.778280 11413 layer_factory.hpp:77] Creating layer relu3
I0502 15:50:13.778286 11413 net.cpp:94] Creating Layer relu3
I0502 15:50:13.778290 11413 net.cpp:435] relu3 <- conv3
I0502 15:50:13.778295 11413 net.cpp:396] relu3 -> conv3 (in-place)
I0502 15:50:13.778302 11413 net.cpp:144] Setting up relu3
I0502 15:50:13.778307 11413 net.cpp:151] Top shape: 20 64 5 5 (32000)
I0502 15:50:13.778311 11413 net.cpp:159] Memory required for data: 2440080
I0502 15:50:13.778313 11413 layer_factory.hpp:77] Creating layer conv4
I0502 15:50:13.778322 11413 net.cpp:94] Creating Layer conv4
I0502 15:50:13.778326 11413 net.cpp:435] conv4 <- conv3
I0502 15:50:13.778331 11413 net.cpp:409] conv4 -> conv4
I0502 15:50:13.782732 11413 net.cpp:144] Setting up conv4
I0502 15:50:13.782747 11413 net.cpp:151] Top shape: 20 64 5 5 (32000)
I0502 15:50:13.782750 11413 net.cpp:159] Memory required for data: 2568080
I0502 15:50:13.782757 11413 layer_factory.hpp:77] Creating layer relu4
I0502 15:50:13.782763 11413 net.cpp:94] Creating Layer relu4
I0502 15:50:13.782766 11413 net.cpp:435] relu4 <- conv4
I0502 15:50:13.782771 11413 net.cpp:396] relu4 -> conv4 (in-place)
I0502 15:50:13.782778 11413 net.cpp:144] Setting up relu4
I0502 15:50:13.782783 11413 net.cpp:151] Top shape: 20 64 5 5 (32000)
I0502 15:50:13.782786 11413 net.cpp:159] Memory required for data: 2696080
I0502 15:50:13.782789 11413 layer_factory.hpp:77] Creating layer conv5
I0502 15:50:13.782797 11413 net.cpp:94] Creating Layer conv5
I0502 15:50:13.782801 11413 net.cpp:435] conv5 <- conv4
I0502 15:50:13.782806 11413 net.cpp:409] conv5 -> conv5
I0502 15:50:13.787612 11413 net.cpp:144] Setting up conv5
I0502 15:50:13.787626 11413 net.cpp:151] Top shape: 20 64 5 5 (32000)
I0502 15:50:13.787631 11413 net.cpp:159] Memory required for data: 2824080
I0502 15:50:13.787639 11413 layer_factory.hpp:77] Creating layer relu5
I0502 15:50:13.787645 11413 net.cpp:94] Creating Layer relu5
I0502 15:50:13.787649 11413 net.cpp:435] relu5 <- conv5
I0502 15:50:13.787654 11413 net.cpp:396] relu5 -> conv5 (in-place)
I0502 15:50:13.787662 11413 net.cpp:144] Setting up relu5
I0502 15:50:13.787667 11413 net.cpp:151] Top shape: 20 64 5 5 (32000)
I0502 15:50:13.787669 11413 net.cpp:159] Memory required for data: 2952080
I0502 15:50:13.787672 11413 layer_factory.hpp:77] Creating layer pool5
I0502 15:50:13.787678 11413 net.cpp:94] Creating Layer pool5
I0502 15:50:13.787681 11413 net.cpp:435] pool5 <- conv5
I0502 15:50:13.787685 11413 net.cpp:409] pool5 -> pool5
I0502 15:50:13.787719 11413 net.cpp:144] Setting up pool5
I0502 15:50:13.787726 11413 net.cpp:151] Top shape: 20 64 2 2 (5120)
I0502 15:50:13.787730 11413 net.cpp:159] Memory required for data: 2972560
I0502 15:50:13.787734 11413 layer_factory.hpp:77] Creating layer ip1
I0502 15:50:13.787744 11413 net.cpp:94] Creating Layer ip1
I0502 15:50:13.787746 11413 net.cpp:435] ip1 <- pool5
I0502 15:50:13.787751 11413 net.cpp:409] ip1 -> ip1
I0502 15:50:13.788909 11413 net.cpp:144] Setting up ip1
I0502 15:50:13.788923 11413 net.cpp:151] Top shape: 20 64 (1280)
I0502 15:50:13.788928 11413 net.cpp:159] Memory required for data: 2977680
I0502 15:50:13.788933 11413 layer_factory.hpp:77] Creating layer ip2
I0502 15:50:13.788940 11413 net.cpp:94] Creating Layer ip2
I0502 15:50:13.788944 11413 net.cpp:435] ip2 <- ip1
I0502 15:50:13.788954 11413 net.cpp:409] ip2 -> ip2
I0502 15:50:13.789124 11413 net.cpp:144] Setting up ip2
I0502 15:50:13.789131 11413 net.cpp:151] Top shape: 20 64 (1280)
I0502 15:50:13.789135 11413 net.cpp:159] Memory required for data: 2982800
I0502 15:50:13.789140 11413 layer_factory.hpp:77] Creating layer ip3
I0502 15:50:13.789146 11413 net.cpp:94] Creating Layer ip3
I0502 15:50:13.789150 11413 net.cpp:435] ip3 <- ip2
I0502 15:50:13.789155 11413 net.cpp:409] ip3 -> ip3
I0502 15:50:13.789219 11413 net.cpp:144] Setting up ip3
I0502 15:50:13.789225 11413 net.cpp:151] Top shape: 20 1 (20)
I0502 15:50:13.789234 11413 net.cpp:159] Memory required for data: 2982880
I0502 15:50:13.789240 11413 layer_factory.hpp:77] Creating layer loss
I0502 15:50:13.789250 11413 net.cpp:94] Creating Layer loss
I0502 15:50:13.789254 11413 net.cpp:435] loss <- ip3
I0502 15:50:13.789258 11413 net.cpp:435] loss <- label
I0502 15:50:13.789263 11413 net.cpp:409] loss -> loss
I0502 15:50:13.789299 11413 net.cpp:144] Setting up loss
…
