…
I0503 07:03:51.413933 18846 net.cpp:323] The NetState phase (0) differed from the phase (1) specified by a rule in layer intercept
I0503 07:03:51.413950 18846 net.cpp:323] The NetState phase (0) differed from the phase (1) specified by a rule in layer loss
I0503 07:03:51.414041 18846 net.cpp:52] Initializing net from parameters: 
state {
  phase: TRAIN
}
layer {
  name: "parameters"
  type: "HDF5Data"
  top: "data"
  top: "label"
  include {
    phase: TRAIN
  }
  hdf5_data_param {
    source: "/home/purduethu/scratch/radon/d/deng106/CNNStatisticalModel/distributions/input/50_distributions_400_sample_size_train-parameters-path.txt"
    batch_size: 20
  }
}
layer {
  name: "conv1"
  type: "Convolution"
  bottom: "data"
  top: "conv1"
  param {
    lr_mult: 1
  }
  param {
    lr_mult: 2
  }
  convolution_param {
    num_output: 64
    pad: 2
    kernel_size: 5
    stride: 1
    weight_filler {
      type: "gaussian"
      std: 0.0001
    }
    bias_filler {
      type: "constant"
    }
  }
}
layer {
  name: "relu1"
  type: "ReLU"
  bottom: "conv1"
  top: "conv1"
}
layer {
  name: "conv2"
  type: "Convolution"
  bottom: "conv1"
  top: "conv2"
  param {
    lr_mult: 1
  }
  param {
    lr_mult: 2
  }
  convolution_param {
    num_output: 64
    pad: 2
    kernel_size: 5
    stride: 1
    weight_filler {
      type: "gaussian"
      std: 0.01
    }
    bias_filler {
      type: "constant"
    }
  }
}
layer {
  name: "relu2"
  type: "ReLU"
  bottom: "conv2"
  top: "conv2"
}
layer {
  name: "pool2"
  type: "Pooling"
  bottom: "conv2"
  top: "pool2"
  pooling_param {
    pool: MAX
    kernel_size: 3
    stride: 2
  }
}
layer {
  name: "conv3"
  type: "Convolution"
  bottom: "pool2"
  top: "conv3"
  param {
    lr_mult: 1
  }
  param {
    lr_mult: 2
  }
  convolution_param {
    num_output: 128
    pad: 2
    kernel_size: 5
    stride: 1
    weight_filler {
      type: "gaussian"
      std: 0.01
    }
    bias_filler {
      type: "constant"
    }
  }
}
layer {
  name: "relu3"
  type: "ReLU"
  bottom: "conv3"
  top: "conv3"
}
layer {
  name: "conv4"
  type: "Convolution"
  bottom: "conv3"
  top: "conv4"
  param {
    lr_mult: 1
  }
  param {
    lr_mult: 2
  }
  convolution_param {
    num_output: 128
    pad: 2
    kernel_size: 5
    stride: 1
    weight_filler {
      type: "gaussian"
      std: 0.01
    }
    bias_filler {
      type: "constant"
    }
  }
}
layer {
  name: "relu4"
  type: "ReLU"
  bottom: "conv4"
  top: "conv4"
}
layer {
  name: "conv5"
  type: "Convolution"
  bottom: "conv4"
  top: "conv5"
  param {
    lr_mult: 1
  }
  param {
    lr_mult: 2
  }
  convolution_param {
    num_output: 128
    pad: 2
    kernel_size: 5
    stride: 1
    weight_filler {
      type: "gaussian"
      std: 0.01
    }
    bias_filler {
      type: "constant"
    }
  }
}
layer {
  name: "relu5"
  type: "ReLU"
  bottom: "conv5"
  top: "conv5"
}
layer {
  name: "pool5"
  type: "Pooling"
  bottom: "conv5"
  top: "pool5"
  pooling_param {
    pool: AVE
    kernel_size: 3
    stride: 2
  }
}
layer {
  name: "ip1"
  type: "InnerProduct"
  bottom: "pool5"
  top: "ip1"
  param {
    lr_mult: 1
  }
  param {
    lr_mult: 2
  }
  inner_product_param {
    num_output: 1024
    weight_filler {
      type: "gaussian"
      std: 0.1
    }
    bias_filler {
      type: "constant"
    }
  }
}
layer {
  name: "ip2"
  type: "InnerProduct"
  bottom: "ip1"
  top: "ip2"
  param {
    lr_mult: 1
  }
  param {
    lr_mult: 2
  }
  inner_product_param {
    num_output: 512
    weight_filler {
      type: "gaussian"
      std: 0.1
    }
    bias_filler {
      type: "constant"
    }
  }
}
layer {
  name: "ip3"
  type: "InnerProduct"
  bottom: "ip2"
  top: "ip3"
  param {
    lr_mult: 1
  }
  param {
    lr_mult: 2
  }
  inner_product_param {
    num_output: 1
    weight_filler {
      type: "gaussian"
      std: 0.1
    }
    bias_filler {
      type: "constant"
    }
  }
}
layer {
  name: "loss"
  type: "HuberLoss"
  bottom: "ip3"
  bottom: "label"
  top: "loss"
  include {
    phase: TRAIN
  }
}
I0503 07:03:51.414116 18846 layer_factory.hpp:77] Creating layer parameters
I0503 07:03:51.414132 18846 net.cpp:94] Creating Layer parameters
I0503 07:03:51.414139 18846 net.cpp:409] parameters -> data
I0503 07:03:51.414157 18846 net.cpp:409] parameters -> label
I0503 07:03:51.414168 18846 hdf5_data_layer.cpp:79] Loading list of HDF5 filenames from: /home/purduethu/scratch/radon/d/deng106/CNNStatisticalModel/distributions/input/50_distributions_400_sample_size_train-parameters-path.txt
I0503 07:03:51.414191 18846 hdf5_data_layer.cpp:93] Number of HDF5 files: 1
I0503 07:03:51.414765 18846 hdf5.cpp:32] Datatype class: H5T_FLOAT
I0503 07:03:52.064090 18846 net.cpp:144] Setting up parameters
I0503 07:03:52.064124 18846 net.cpp:151] Top shape: 20 1 20 20 (8000)
I0503 07:03:52.064131 18846 net.cpp:151] Top shape: 20 (20)
I0503 07:03:52.064134 18846 net.cpp:159] Memory required for data: 32080
I0503 07:03:52.064142 18846 layer_factory.hpp:77] Creating layer conv1
I0503 07:03:52.064162 18846 net.cpp:94] Creating Layer conv1
I0503 07:03:52.064168 18846 net.cpp:435] conv1 <- data
I0503 07:03:52.064179 18846 net.cpp:409] conv1 -> conv1
I0503 07:03:52.068997 18846 net.cpp:144] Setting up conv1
I0503 07:03:52.069015 18846 net.cpp:151] Top shape: 20 64 20 20 (512000)
I0503 07:03:52.069018 18846 net.cpp:159] Memory required for data: 2080080
I0503 07:03:52.069031 18846 layer_factory.hpp:77] Creating layer relu1
I0503 07:03:52.069039 18846 net.cpp:94] Creating Layer relu1
I0503 07:03:52.069043 18846 net.cpp:435] relu1 <- conv1
I0503 07:03:52.069048 18846 net.cpp:396] relu1 -> conv1 (in-place)
I0503 07:03:52.069064 18846 net.cpp:144] Setting up relu1
I0503 07:03:52.069070 18846 net.cpp:151] Top shape: 20 64 20 20 (512000)
I0503 07:03:52.069073 18846 net.cpp:159] Memory required for data: 4128080
I0503 07:03:52.069077 18846 layer_factory.hpp:77] Creating layer conv2
I0503 07:03:52.069084 18846 net.cpp:94] Creating Layer conv2
I0503 07:03:52.069088 18846 net.cpp:435] conv2 <- conv1
I0503 07:03:52.069093 18846 net.cpp:409] conv2 -> conv2
I0503 07:03:52.079321 18846 net.cpp:144] Setting up conv2
I0503 07:03:52.079337 18846 net.cpp:151] Top shape: 20 64 20 20 (512000)
I0503 07:03:52.079341 18846 net.cpp:159] Memory required for data: 6176080
I0503 07:03:52.079349 18846 layer_factory.hpp:77] Creating layer relu2
I0503 07:03:52.079356 18846 net.cpp:94] Creating Layer relu2
I0503 07:03:52.079361 18846 net.cpp:435] relu2 <- conv2
I0503 07:03:52.079365 18846 net.cpp:396] relu2 -> conv2 (in-place)
I0503 07:03:52.079372 18846 net.cpp:144] Setting up relu2
I0503 07:03:52.079377 18846 net.cpp:151] Top shape: 20 64 20 20 (512000)
I0503 07:03:52.079380 18846 net.cpp:159] Memory required for data: 8224080
I0503 07:03:52.079385 18846 layer_factory.hpp:77] Creating layer pool2
I0503 07:03:52.079391 18846 net.cpp:94] Creating Layer pool2
I0503 07:03:52.079401 18846 net.cpp:435] pool2 <- conv2
I0503 07:03:52.079406 18846 net.cpp:409] pool2 -> pool2
I0503 07:03:52.079450 18846 net.cpp:144] Setting up pool2
I0503 07:03:52.079457 18846 net.cpp:151] Top shape: 20 64 10 10 (128000)
I0503 07:03:52.079462 18846 net.cpp:159] Memory required for data: 8736080
I0503 07:03:52.079464 18846 layer_factory.hpp:77] Creating layer conv3
I0503 07:03:52.079473 18846 net.cpp:94] Creating Layer conv3
I0503 07:03:52.079476 18846 net.cpp:435] conv3 <- pool2
I0503 07:03:52.079481 18846 net.cpp:409] conv3 -> conv3
I0503 07:03:52.088584 18846 net.cpp:144] Setting up conv3
I0503 07:03:52.088624 18846 net.cpp:151] Top shape: 20 128 10 10 (256000)
I0503 07:03:52.088635 18846 net.cpp:159] Memory required for data: 9760080
I0503 07:03:52.088659 18846 layer_factory.hpp:77] Creating layer relu3
I0503 07:03:52.088675 18846 net.cpp:94] Creating Layer relu3
I0503 07:03:52.088686 18846 net.cpp:435] relu3 <- conv3
I0503 07:03:52.088701 18846 net.cpp:396] relu3 -> conv3 (in-place)
I0503 07:03:52.088721 18846 net.cpp:144] Setting up relu3
I0503 07:03:52.088733 18846 net.cpp:151] Top shape: 20 128 10 10 (256000)
I0503 07:03:52.088743 18846 net.cpp:159] Memory required for data: 10784080
I0503 07:03:52.088752 18846 layer_factory.hpp:77] Creating layer conv4
I0503 07:03:52.088774 18846 net.cpp:94] Creating Layer conv4
I0503 07:03:52.088784 18846 net.cpp:435] conv4 <- conv3
I0503 07:03:52.088798 18846 net.cpp:409] conv4 -> conv4
I0503 07:03:52.105973 18846 net.cpp:144] Setting up conv4
I0503 07:03:52.105989 18846 net.cpp:151] Top shape: 20 128 10 10 (256000)
I0503 07:03:52.105993 18846 net.cpp:159] Memory required for data: 11808080
I0503 07:03:52.106003 18846 layer_factory.hpp:77] Creating layer relu4
I0503 07:03:52.106009 18846 net.cpp:94] Creating Layer relu4
I0503 07:03:52.106012 18846 net.cpp:435] relu4 <- conv4
I0503 07:03:52.106016 18846 net.cpp:396] relu4 -> conv4 (in-place)
I0503 07:03:52.106024 18846 net.cpp:144] Setting up relu4
I0503 07:03:52.106029 18846 net.cpp:151] Top shape: 20 128 10 10 (256000)
I0503 07:03:52.106031 18846 net.cpp:159] Memory required for data: 12832080
I0503 07:03:52.106034 18846 layer_factory.hpp:77] Creating layer conv5
I0503 07:03:52.106042 18846 net.cpp:94] Creating Layer conv5
I0503 07:03:52.106045 18846 net.cpp:435] conv5 <- conv4
I0503 07:03:52.106050 18846 net.cpp:409] conv5 -> conv5
I0503 07:03:52.123082 18846 net.cpp:144] Setting up conv5
I0503 07:03:52.123097 18846 net.cpp:151] Top shape: 20 128 10 10 (256000)
I0503 07:03:52.123102 18846 net.cpp:159] Memory required for data: 13856080
I0503 07:03:52.123111 18846 layer_factory.hpp:77] Creating layer relu5
I0503 07:03:52.123117 18846 net.cpp:94] Creating Layer relu5
I0503 07:03:52.123121 18846 net.cpp:435] relu5 <- conv5
I0503 07:03:52.123126 18846 net.cpp:396] relu5 -> conv5 (in-place)
I0503 07:03:52.123133 18846 net.cpp:144] Setting up relu5
I0503 07:03:52.123137 18846 net.cpp:151] Top shape: 20 128 10 10 (256000)
I0503 07:03:52.123141 18846 net.cpp:159] Memory required for data: 14880080
I0503 07:03:52.123144 18846 layer_factory.hpp:77] Creating layer pool5
I0503 07:03:52.123149 18846 net.cpp:94] Creating Layer pool5
I0503 07:03:52.123152 18846 net.cpp:435] pool5 <- conv5
I0503 07:03:52.123157 18846 net.cpp:409] pool5 -> pool5
I0503 07:03:52.123193 18846 net.cpp:144] Setting up pool5
I0503 07:03:52.123199 18846 net.cpp:151] Top shape: 20 128 5 5 (64000)
I0503 07:03:52.123203 18846 net.cpp:159] Memory required for data: 15136080
I0503 07:03:52.123206 18846 layer_factory.hpp:77] Creating layer ip1
I0503 07:03:52.123215 18846 net.cpp:94] Creating Layer ip1
I0503 07:03:52.123219 18846 net.cpp:435] ip1 <- pool5
I0503 07:03:52.123224 18846 net.cpp:409] ip1 -> ip1
I0503 07:03:52.201987 18846 net.cpp:144] Setting up ip1
I0503 07:03:52.202018 18846 net.cpp:151] Top shape: 20 1024 (20480)
I0503 07:03:52.202023 18846 net.cpp:159] Memory required for data: 15218000
I0503 07:03:52.202031 18846 layer_factory.hpp:77] Creating layer ip2
I0503 07:03:52.202041 18846 net.cpp:94] Creating Layer ip2
I0503 07:03:52.202054 18846 net.cpp:435] ip2 <- ip1
I0503 07:03:52.202060 18846 net.cpp:409] ip2 -> ip2
I0503 07:03:52.214992 18846 net.cpp:144] Setting up ip2
I0503 07:03:52.215005 18846 net.cpp:151] Top shape: 20 512 (10240)
I0503 07:03:52.215010 18846 net.cpp:159] Memory required for data: 15258960
I0503 07:03:52.215016 18846 layer_factory.hpp:77] Creating layer ip3
I0503 07:03:52.215023 18846 net.cpp:94] Creating Layer ip3
I0503 07:03:52.215028 18846 net.cpp:435] ip3 <- ip2
I0503 07:03:52.215034 18846 net.cpp:409] ip3 -> ip3
I0503 07:03:52.215109 18846 net.cpp:144] Setting up ip3
I0503 07:03:52.215123 18846 net.cpp:151] Top shape: 20 1 (20)
I0503 07:03:52.215127 18846 net.cpp:159] Memory required for data: 15259040
I0503 07:03:52.215132 18846 layer_factory.hpp:77] Creating layer loss
I0503 07:03:52.215147 18846 net.cpp:94] Creating Layer loss
I0503 07:03:52.215150 18846 net.cpp:435] loss <- ip3
I0503 07:03:52.215154 18846 net.cpp:435] loss <- label
I0503 07:03:52.215159 18846 net.cpp:409] loss -> loss
I0503 07:03:52.215196 18846 net.cpp:144] Setting up loss
…
