…
I0505 02:28:15.711333  2154 net.cpp:323] The NetState phase (0) differed from the phase (1) specified by a rule in layer intercept
I0505 02:28:15.711349  2154 net.cpp:323] The NetState phase (0) differed from the phase (1) specified by a rule in layer accuracy
I0505 02:28:15.711426  2154 net.cpp:52] Initializing net from parameters: 
state {
  phase: TRAIN
}
layer {
  name: "parameters"
  type: "HDF5Data"
  top: "data"
  top: "label"
  include {
    phase: TRAIN
  }
  hdf5_data_param {
    source: "/home/purduethu/scratch/radon/d/deng106/CNNStatisticalModel/distributions/input/5_distributions_400_sample_size_train-distributions-path.txt"
    batch_size: 20
  }
}
layer {
  name: "conv1"
  type: "Convolution"
  bottom: "data"
  top: "conv1"
  param {
    lr_mult: 1
  }
  param {
    lr_mult: 2
  }
  convolution_param {
    num_output: 64
    pad: 2
    kernel_size: 5
    stride: 1
    weight_filler {
      type: "gaussian"
      std: 0.0001
    }
    bias_filler {
      type: "constant"
    }
  }
}
layer {
  name: "relu1"
  type: "ReLU"
  bottom: "conv1"
  top: "conv1"
}
layer {
  name: "pool1"
  type: "Pooling"
  bottom: "conv1"
  top: "pool1"
  pooling_param {
    pool: MAX
    kernel_size: 3
    stride: 2
  }
}
layer {
  name: "conv2"
  type: "Convolution"
  bottom: "pool1"
  top: "conv2"
  param {
    lr_mult: 1
  }
  param {
    lr_mult: 2
  }
  convolution_param {
    num_output: 128
    pad: 2
    kernel_size: 5
    stride: 1
    weight_filler {
      type: "gaussian"
      std: 0.01
    }
    bias_filler {
      type: "constant"
    }
  }
}
layer {
  name: "relu2"
  type: "ReLU"
  bottom: "conv2"
  top: "conv2"
}
layer {
  name: "conv3"
  type: "Convolution"
  bottom: "conv2"
  top: "conv3"
  param {
    lr_mult: 1
  }
  param {
    lr_mult: 2
  }
  convolution_param {
    num_output: 128
    pad: 2
    kernel_size: 5
    stride: 1
    weight_filler {
      type: "gaussian"
      std: 0.01
    }
    bias_filler {
      type: "constant"
    }
  }
}
layer {
  name: "relu3"
  type: "ReLU"
  bottom: "conv3"
  top: "conv3"
}
layer {
  name: "pool3"
  type: "Pooling"
  bottom: "conv3"
  top: "pool3"
  pooling_param {
    pool: AVE
    kernel_size: 3
    stride: 2
  }
}
layer {
  name: "ip1"
  type: "InnerProduct"
  bottom: "pool3"
  top: "ip1"
  param {
    lr_mult: 1
  }
  param {
    lr_mult: 2
  }
  inner_product_param {
    num_output: 512
    weight_filler {
      type: "gaussian"
      std: 0.1
    }
    bias_filler {
      type: "constant"
    }
  }
}
layer {
  name: "ip2"
  type: "InnerProduct"
  bottom: "ip1"
  top: "ip2"
  param {
    lr_mult: 1
  }
  param {
    lr_mult: 2
  }
  inner_product_param {
    num_output: 256
    weight_filler {
      type: "gaussian"
      std: 0.1
    }
    bias_filler {
      type: "constant"
    }
  }
}
layer {
  name: "ip3"
  type: "InnerProduct"
  bottom: "ip2"
  top: "ip3"
  param {
    lr_mult: 1
  }
  param {
    lr_mult: 2
  }
  inner_product_param {
    num_output: 50
    weight_filler {
      type: "gaussian"
      std: 0.1
    }
    bias_filler {
      type: "constant"
    }
  }
}
layer {
  name: "loss"
  type: "SoftmaxWithLoss"
  bottom: "ip3"
  bottom: "label"
  top: "loss"
}
I0505 02:28:15.711486  2154 layer_factory.hpp:77] Creating layer parameters
I0505 02:28:15.711500  2154 net.cpp:94] Creating Layer parameters
I0505 02:28:15.711506  2154 net.cpp:409] parameters -> data
I0505 02:28:15.711532  2154 net.cpp:409] parameters -> label
I0505 02:28:15.711542  2154 hdf5_data_layer.cpp:79] Loading list of HDF5 filenames from: /home/purduethu/scratch/radon/d/deng106/CNNStatisticalModel/distributions/input/5_distributions_400_sample_size_train-distributions-path.txt
I0505 02:28:15.711565  2154 hdf5_data_layer.cpp:93] Number of HDF5 files: 1
I0505 02:28:15.712133  2154 hdf5.cpp:32] Datatype class: H5T_FLOAT
I0505 02:28:15.774230  2154 hdf5.cpp:35] Datatype class: H5T_INTEGER
I0505 02:28:15.775390  2154 net.cpp:144] Setting up parameters
I0505 02:28:15.775410  2154 net.cpp:151] Top shape: 20 1 20 20 (8000)
I0505 02:28:15.775416  2154 net.cpp:151] Top shape: 20 (20)
I0505 02:28:15.775419  2154 net.cpp:159] Memory required for data: 32080
I0505 02:28:15.775426  2154 layer_factory.hpp:77] Creating layer conv1
I0505 02:28:15.775446  2154 net.cpp:94] Creating Layer conv1
I0505 02:28:15.775451  2154 net.cpp:435] conv1 <- data
I0505 02:28:15.775462  2154 net.cpp:409] conv1 -> conv1
I0505 02:28:15.780364  2154 net.cpp:144] Setting up conv1
I0505 02:28:15.780380  2154 net.cpp:151] Top shape: 20 64 20 20 (512000)
I0505 02:28:15.780385  2154 net.cpp:159] Memory required for data: 2080080
I0505 02:28:15.780396  2154 layer_factory.hpp:77] Creating layer relu1
I0505 02:28:15.780405  2154 net.cpp:94] Creating Layer relu1
I0505 02:28:15.780410  2154 net.cpp:435] relu1 <- conv1
I0505 02:28:15.780414  2154 net.cpp:396] relu1 -> conv1 (in-place)
I0505 02:28:15.780426  2154 net.cpp:144] Setting up relu1
I0505 02:28:15.780431  2154 net.cpp:151] Top shape: 20 64 20 20 (512000)
I0505 02:28:15.780434  2154 net.cpp:159] Memory required for data: 4128080
I0505 02:28:15.780437  2154 layer_factory.hpp:77] Creating layer pool1
I0505 02:28:15.780444  2154 net.cpp:94] Creating Layer pool1
I0505 02:28:15.780448  2154 net.cpp:435] pool1 <- conv1
I0505 02:28:15.780452  2154 net.cpp:409] pool1 -> pool1
I0505 02:28:15.780496  2154 net.cpp:144] Setting up pool1
I0505 02:28:15.780503  2154 net.cpp:151] Top shape: 20 64 10 10 (128000)
I0505 02:28:15.780508  2154 net.cpp:159] Memory required for data: 4640080
I0505 02:28:15.780510  2154 layer_factory.hpp:77] Creating layer conv2
I0505 02:28:15.780519  2154 net.cpp:94] Creating Layer conv2
I0505 02:28:15.780522  2154 net.cpp:435] conv2 <- pool1
I0505 02:28:15.780527  2154 net.cpp:409] conv2 -> conv2
I0505 02:28:15.790832  2154 net.cpp:144] Setting up conv2
I0505 02:28:15.790846  2154 net.cpp:151] Top shape: 20 128 10 10 (256000)
I0505 02:28:15.790850  2154 net.cpp:159] Memory required for data: 5664080
I0505 02:28:15.790858  2154 layer_factory.hpp:77] Creating layer relu2
I0505 02:28:15.790864  2154 net.cpp:94] Creating Layer relu2
I0505 02:28:15.790868  2154 net.cpp:435] relu2 <- conv2
I0505 02:28:15.790874  2154 net.cpp:396] relu2 -> conv2 (in-place)
I0505 02:28:15.790880  2154 net.cpp:144] Setting up relu2
I0505 02:28:15.790885  2154 net.cpp:151] Top shape: 20 128 10 10 (256000)
I0505 02:28:15.790889  2154 net.cpp:159] Memory required for data: 6688080
I0505 02:28:15.790891  2154 layer_factory.hpp:77] Creating layer conv3
I0505 02:28:15.790900  2154 net.cpp:94] Creating Layer conv3
I0505 02:28:15.790904  2154 net.cpp:435] conv3 <- conv2
I0505 02:28:15.790908  2154 net.cpp:409] conv3 -> conv3
I0505 02:28:15.808753  2154 net.cpp:144] Setting up conv3
I0505 02:28:15.808768  2154 net.cpp:151] Top shape: 20 128 10 10 (256000)
I0505 02:28:15.808773  2154 net.cpp:159] Memory required for data: 7712080
I0505 02:28:15.808780  2154 layer_factory.hpp:77] Creating layer relu3
I0505 02:28:15.808794  2154 net.cpp:94] Creating Layer relu3
I0505 02:28:15.808797  2154 net.cpp:435] relu3 <- conv3
I0505 02:28:15.808802  2154 net.cpp:396] relu3 -> conv3 (in-place)
I0505 02:28:15.808810  2154 net.cpp:144] Setting up relu3
I0505 02:28:15.808815  2154 net.cpp:151] Top shape: 20 128 10 10 (256000)
I0505 02:28:15.808817  2154 net.cpp:159] Memory required for data: 8736080
I0505 02:28:15.808821  2154 layer_factory.hpp:77] Creating layer pool3
I0505 02:28:15.808827  2154 net.cpp:94] Creating Layer pool3
I0505 02:28:15.808836  2154 net.cpp:435] pool3 <- conv3
I0505 02:28:15.808841  2154 net.cpp:409] pool3 -> pool3
I0505 02:28:15.808877  2154 net.cpp:144] Setting up pool3
I0505 02:28:15.808884  2154 net.cpp:151] Top shape: 20 128 5 5 (64000)
I0505 02:28:15.808887  2154 net.cpp:159] Memory required for data: 8992080
I0505 02:28:15.808892  2154 layer_factory.hpp:77] Creating layer ip1
I0505 02:28:15.808902  2154 net.cpp:94] Creating Layer ip1
I0505 02:28:15.808904  2154 net.cpp:435] ip1 <- pool3
I0505 02:28:15.808909  2154 net.cpp:409] ip1 -> ip1
I0505 02:28:15.850276  2154 net.cpp:144] Setting up ip1
I0505 02:28:15.850292  2154 net.cpp:151] Top shape: 20 512 (10240)
I0505 02:28:15.850296  2154 net.cpp:159] Memory required for data: 9033040
I0505 02:28:15.850302  2154 layer_factory.hpp:77] Creating layer ip2
I0505 02:28:15.850311  2154 net.cpp:94] Creating Layer ip2
I0505 02:28:15.850314  2154 net.cpp:435] ip2 <- ip1
I0505 02:28:15.850319  2154 net.cpp:409] ip2 -> ip2
I0505 02:28:15.853584  2154 net.cpp:144] Setting up ip2
I0505 02:28:15.853592  2154 net.cpp:151] Top shape: 20 256 (5120)
I0505 02:28:15.853595  2154 net.cpp:159] Memory required for data: 9053520
I0505 02:28:15.853603  2154 layer_factory.hpp:77] Creating layer ip3
I0505 02:28:15.853610  2154 net.cpp:94] Creating Layer ip3
I0505 02:28:15.853612  2154 net.cpp:435] ip3 <- ip2
I0505 02:28:15.853617  2154 net.cpp:409] ip3 -> ip3
I0505 02:28:15.854655  2154 net.cpp:144] Setting up ip3
I0505 02:28:15.854666  2154 net.cpp:151] Top shape: 20 50 (1000)
I0505 02:28:15.854671  2154 net.cpp:159] Memory required for data: 9057520
I0505 02:28:15.854676  2154 layer_factory.hpp:77] Creating layer loss
I0505 02:28:15.854682  2154 net.cpp:94] Creating Layer loss
I0505 02:28:15.854686  2154 net.cpp:435] loss <- ip3
I0505 02:28:15.854691  2154 net.cpp:435] loss <- label
I0505 02:28:15.854696  2154 net.cpp:409] loss -> loss
I0505 02:28:15.854708  2154 layer_factory.hpp:77] Creating layer loss
…
I0505 02:28:15.855146  2154 solver.cpp:181] Creating test net (#0) specified by net file: ./protocol/dis_5_400_dimension.protocol_distribution
I0505 02:28:15.855170  2154 net.cpp:323] The NetState phase (1) differed from the phase (0) specified by a rule in layer parameters
I0505 02:28:15.855260  2154 net.cpp:52] Initializing net from parameters: 
state {
  phase: TEST
}
layer {
  name: "intercept"
  type: "HDF5Data"
  top: "data"
  top: "label"
  include {
    phase: TEST
  }
  hdf5_data_param {
    source: "/home/purduethu/scratch/radon/d/deng106/CNNStatisticalModel/distributions/input/5_distributions_400_sample_size_test-distributions-path.txt"
    batch_size: 20
  }
}
layer {
  name: "conv1"
  type: "Convolution"
  bottom: "data"
  top: "conv1"
  param {
    lr_mult: 1
  }
  param {
    lr_mult: 2
  }
  convolution_param {
    num_output: 64
    pad: 2
    kernel_size: 5
    stride: 1
    weight_filler {
      type: "gaussian"
      std: 0.0001
    }
    bias_filler {
      type: "constant"
    }
  }
}
layer {
  name: "relu1"
  type: "ReLU"
  bottom: "conv1"
  top: "conv1"
}
layer {
  name: "pool1"
  type: "Pooling"
  bottom: "conv1"
  top: "pool1"
  pooling_param {
    pool: MAX
    kernel_size: 3
    stride: 2
  }
}
layer {
  name: "conv2"
  type: "Convolution"
  bottom: "pool1"
  top: "conv2"
  param {
    lr_mult: 1
  }
  param {
    lr_mult: 2
  }
  convolution_param {
    num_output: 128
    pad: 2
    kernel_size: 5
    stride: 1
    weight_filler {
      type: "gaussian"
      std: 0.01
    }
    bias_filler {
      type: "constant"
    }
  }
}
layer {
  name: "relu2"
  type: "ReLU"
  bottom: "conv2"
  top: "conv2"
}
layer {
  name: "conv3"
  type: "Convolution"
  bottom: "conv2"
  top: "conv3"
  param {
    lr_mult: 1
  }
  param {
    lr_mult: 2
  }
  convolution_param {
    num_output: 128
    pad: 2
    kernel_size: 5
    stride: 1
    weight_filler {
      type: "gaussian"
      std: 0.01
    }
    bias_filler {
      type: "constant"
    }
  }
}
layer {
  name: "relu3"
  type: "ReLU"
  bottom: "conv3"
  top: "conv3"
}
layer {
  name: "pool3"
  type: "Pooling"
  bottom: "conv3"
  top: "pool3"
  pooling_param {
    pool: AVE
    kernel_size: 3
    stride: 2
  }
}
layer {
  name: "ip1"
  type: "InnerProduct"
  bottom: "pool3"
  top: "ip1"
  param {
    lr_mult: 1
  }
  param {
    lr_mult: 2
  }
  inner_product_param {
    num_output: 512
    weight_filler {
      type: "gaussian"
      std: 0.1
    }
    bias_filler {
      type: "constant"
    }
  }
}
layer {
  name: "ip2"
  type: "InnerProduct"
  bottom: "ip1"
  top: "ip2"
  param {
    lr_mult: 1
  }
  param {
    lr_mult: 2
  }
  inner_product_param {
    num_output: 256
    weight_filler {
      type: "gaussian"
      std: 0.1
    }
    bias_filler {
      type: "constant"
    }
  }
}
layer {
  name: "ip3"
  type: "InnerProduct"
  bottom: "ip2"
  top: "ip3"
  param {
    lr_mult: 1
  }
  param {
    lr_mult: 2
  }
  inner_product_param {
    num_output: 50
    weight_filler {
      type: "gaussian"
      std: 0.1
    }
    bias_filler {
      type: "constant"
    }
  }
}
layer {
  name: "accuracy"
  type: "Accuracy"
  bottom: "ip3"
  bottom: "label"
  top: "accuracy"
  include {
    phase: TEST
  }
}
layer {
  name: "loss"
  type: "SoftmaxWithLoss"
  bottom: "ip3"
  bottom: "label"
  top: "loss"
}
I0505 02:28:15.855325  2154 layer_factory.hpp:77] Creating layer intercept
I0505 02:28:15.855334  2154 net.cpp:94] Creating Layer intercept
I0505 02:28:15.855339  2154 net.cpp:409] intercept -> data
I0505 02:28:15.855345  2154 net.cpp:409] intercept -> label
I0505 02:28:15.855351  2154 hdf5_data_layer.cpp:79] Loading list of HDF5 filenames from: /home/purduethu/scratch/radon/d/deng106/CNNStatisticalModel/distributions/input/5_distributions_400_sample_size_test-distributions-path.txt
I0505 02:28:15.855370  2154 hdf5_data_layer.cpp:93] Number of HDF5 files: 1
I0505 02:28:15.871213  2154 net.cpp:144] Setting up intercept
I0505 02:28:15.871248  2154 net.cpp:151] Top shape: 20 1 20 20 (8000)
I0505 02:28:15.871253  2154 net.cpp:151] Top shape: 20 (20)
I0505 02:28:15.871258  2154 net.cpp:159] Memory required for data: 32080
I0505 02:28:15.871263  2154 layer_factory.hpp:77] Creating layer label_intercept_1_split
I0505 02:28:15.871282  2154 net.cpp:94] Creating Layer label_intercept_1_split
I0505 02:28:15.871296  2154 net.cpp:435] label_intercept_1_split <- label
I0505 02:28:15.871302  2154 net.cpp:409] label_intercept_1_split -> label_intercept_1_split_0
I0505 02:28:15.871311  2154 net.cpp:409] label_intercept_1_split -> label_intercept_1_split_1
I0505 02:28:15.871340  2154 net.cpp:144] Setting up label_intercept_1_split
I0505 02:28:15.871345  2154 net.cpp:151] Top shape: 20 (20)
I0505 02:28:15.871350  2154 net.cpp:151] Top shape: 20 (20)
I0505 02:28:15.871352  2154 net.cpp:159] Memory required for data: 32240
I0505 02:28:15.871363  2154 layer_factory.hpp:77] Creating layer conv1
I0505 02:28:15.871374  2154 net.cpp:94] Creating Layer conv1
I0505 02:28:15.871378  2154 net.cpp:435] conv1 <- data
I0505 02:28:15.871383  2154 net.cpp:409] conv1 -> conv1
I0505 02:28:15.872072  2154 net.cpp:144] Setting up conv1
I0505 02:28:15.872087  2154 net.cpp:151] Top shape: 20 64 20 20 (512000)
I0505 02:28:15.872090  2154 net.cpp:159] Memory required for data: 2080240
I0505 02:28:15.872099  2154 layer_factory.hpp:77] Creating layer relu1
I0505 02:28:15.872107  2154 net.cpp:94] Creating Layer relu1
I0505 02:28:15.872110  2154 net.cpp:435] relu1 <- conv1
I0505 02:28:15.872114  2154 net.cpp:396] relu1 -> conv1 (in-place)
I0505 02:28:15.872123  2154 net.cpp:144] Setting up relu1
I0505 02:28:15.872128  2154 net.cpp:151] Top shape: 20 64 20 20 (512000)
I0505 02:28:15.872130  2154 net.cpp:159] Memory required for data: 4128240
I0505 02:28:15.872133  2154 layer_factory.hpp:77] Creating layer pool1
I0505 02:28:15.872140  2154 net.cpp:94] Creating Layer pool1
I0505 02:28:15.872144  2154 net.cpp:435] pool1 <- conv1
I0505 02:28:15.872148  2154 net.cpp:409] pool1 -> pool1
I0505 02:28:15.872181  2154 net.cpp:144] Setting up pool1
I0505 02:28:15.872187  2154 net.cpp:151] Top shape: 20 64 10 10 (128000)
I0505 02:28:15.872191  2154 net.cpp:159] Memory required for data: 4640240
I0505 02:28:15.872195  2154 layer_factory.hpp:77] Creating layer conv2
I0505 02:28:15.872202  2154 net.cpp:94] Creating Layer conv2
I0505 02:28:15.872206  2154 net.cpp:435] conv2 <- pool1
I0505 02:28:15.872211  2154 net.cpp:409] conv2 -> conv2
I0505 02:28:15.879647  2154 net.cpp:144] Setting up conv2
I0505 02:28:15.879662  2154 net.cpp:151] Top shape: 20 128 10 10 (256000)
I0505 02:28:15.879667  2154 net.cpp:159] Memory required for data: 5664240
I0505 02:28:15.879674  2154 layer_factory.hpp:77] Creating layer relu2
I0505 02:28:15.879680  2154 net.cpp:94] Creating Layer relu2
I0505 02:28:15.879684  2154 net.cpp:435] relu2 <- conv2
I0505 02:28:15.879689  2154 net.cpp:396] relu2 -> conv2 (in-place)
I0505 02:28:15.879696  2154 net.cpp:144] Setting up relu2
I0505 02:28:15.879701  2154 net.cpp:151] Top shape: 20 128 10 10 (256000)
I0505 02:28:15.879704  2154 net.cpp:159] Memory required for data: 6688240
I0505 02:28:15.879707  2154 layer_factory.hpp:77] Creating layer conv3
I0505 02:28:15.879715  2154 net.cpp:94] Creating Layer conv3
I0505 02:28:15.879719  2154 net.cpp:435] conv3 <- conv2
I0505 02:28:15.879724  2154 net.cpp:409] conv3 -> conv3
I0505 02:28:15.893323  2154 net.cpp:144] Setting up conv3
I0505 02:28:15.893339  2154 net.cpp:151] Top shape: 20 128 10 10 (256000)
I0505 02:28:15.893343  2154 net.cpp:159] Memory required for data: 7712240
I0505 02:28:15.893352  2154 layer_factory.hpp:77] Creating layer relu3
I0505 02:28:15.893359  2154 net.cpp:94] Creating Layer relu3
I0505 02:28:15.893363  2154 net.cpp:435] relu3 <- conv3
I0505 02:28:15.893368  2154 net.cpp:396] relu3 -> conv3 (in-place)
I0505 02:28:15.893375  2154 net.cpp:144] Setting up relu3
I0505 02:28:15.893379  2154 net.cpp:151] Top shape: 20 128 10 10 (256000)
I0505 02:28:15.893383  2154 net.cpp:159] Memory required for data: 8736240
I0505 02:28:15.893386  2154 layer_factory.hpp:77] Creating layer pool3
I0505 02:28:15.893391  2154 net.cpp:94] Creating Layer pool3
I0505 02:28:15.893394  2154 net.cpp:435] pool3 <- conv3
I0505 02:28:15.893399  2154 net.cpp:409] pool3 -> pool3
I0505 02:28:15.893427  2154 net.cpp:144] Setting up pool3
I0505 02:28:15.893435  2154 net.cpp:151] Top shape: 20 128 5 5 (64000)
I0505 02:28:15.893441  2154 net.cpp:159] Memory required for data: 8992240
I0505 02:28:15.893445  2154 layer_factory.hpp:77] Creating layer ip1
I0505 02:28:15.893451  2154 net.cpp:94] Creating Layer ip1
I0505 02:28:15.893455  2154 net.cpp:435] ip1 <- pool3
I0505 02:28:15.893460  2154 net.cpp:409] ip1 -> ip1
I0505 02:28:15.934819  2154 net.cpp:144] Setting up ip1
I0505 02:28:15.934837  2154 net.cpp:151] Top shape: 20 512 (10240)
I0505 02:28:15.934841  2154 net.cpp:159] Memory required for data: 9033200
I0505 02:28:15.934856  2154 layer_factory.hpp:77] Creating layer ip2
I0505 02:28:15.934864  2154 net.cpp:94] Creating Layer ip2
I0505 02:28:15.934869  2154 net.cpp:435] ip2 <- ip1
I0505 02:28:15.934873  2154 net.cpp:409] ip2 -> ip2
I0505 02:28:15.938138  2154 net.cpp:144] Setting up ip2
I0505 02:28:15.938146  2154 net.cpp:151] Top shape: 20 256 (5120)
I0505 02:28:15.938149  2154 net.cpp:159] Memory required for data: 9053680
I0505 02:28:15.938158  2154 layer_factory.hpp:77] Creating layer ip3
I0505 02:28:15.938164  2154 net.cpp:94] Creating Layer ip3
I0505 02:28:15.938168  2154 net.cpp:435] ip3 <- ip2
I0505 02:28:15.938172  2154 net.cpp:409] ip3 -> ip3
I0505 02:28:15.938565  2154 net.cpp:144] Setting up ip3
I0505 02:28:15.938571  2154 net.cpp:151] Top shape: 20 50 (1000)
I0505 02:28:15.938575  2154 net.cpp:159] Memory required for data: 9057680
I0505 02:28:15.938580  2154 layer_factory.hpp:77] Creating layer ip3_ip3_0_split
I0505 02:28:15.938586  2154 net.cpp:94] Creating Layer ip3_ip3_0_split
I0505 02:28:15.938591  2154 net.cpp:435] ip3_ip3_0_split <- ip3
I0505 02:28:15.938594  2154 net.cpp:409] ip3_ip3_0_split -> ip3_ip3_0_split_0
I0505 02:28:15.938601  2154 net.cpp:409] ip3_ip3_0_split -> ip3_ip3_0_split_1
I0505 02:28:15.938626  2154 net.cpp:144] Setting up ip3_ip3_0_split
I0505 02:28:15.938630  2154 net.cpp:151] Top shape: 20 50 (1000)
I0505 02:28:15.938634  2154 net.cpp:151] Top shape: 20 50 (1000)
I0505 02:28:15.938637  2154 net.cpp:159] Memory required for data: 9065680
I0505 02:28:15.938640  2154 layer_factory.hpp:77] Creating layer accuracy
I0505 02:28:15.938647  2154 net.cpp:94] Creating Layer accuracy
I0505 02:28:15.938649  2154 net.cpp:435] accuracy <- ip3_ip3_0_split_0
I0505 02:28:15.938653  2154 net.cpp:435] accuracy <- label_intercept_1_split_0
I0505 02:28:15.938658  2154 net.cpp:409] accuracy -> accuracy
…
