…
I0501 04:53:37.268285 30921 net.cpp:323] The NetState phase (0) differed from the phase (1) specified by a rule in layer intercept
I0501 04:53:37.268301 30921 net.cpp:323] The NetState phase (0) differed from the phase (1) specified by a rule in layer loss
I0501 04:53:37.268379 30921 net.cpp:52] Initializing net from parameters: 
state {
  phase: TRAIN
}
layer {
  name: "parameters"
  type: "HDF5Data"
  top: "data"
  top: "label"
  include {
    phase: TRAIN
  }
  hdf5_data_param {
    source: "/home/purduethu/scratch/radon/d/deng106/CNNStatisticalModel/distributions/input/50_distributions_100_sample_size_train-parameters-path.txt"
    batch_size: 20
  }
}
layer {
  name: "conv1"
  type: "Convolution"
  bottom: "data"
  top: "conv1"
  param {
    lr_mult: 1
  }
  param {
    lr_mult: 2
  }
  convolution_param {
    num_output: 64
    pad: 2
    kernel_size: 5
    stride: 1
    weight_filler {
      type: "gaussian"
      std: 0.0001
    }
    bias_filler {
      type: "constant"
    }
  }
}
layer {
  name: "relu1"
  type: "ReLU"
  bottom: "conv1"
  top: "conv1"
}
layer {
  name: "conv2"
  type: "Convolution"
  bottom: "conv1"
  top: "conv2"
  param {
    lr_mult: 1
  }
  param {
    lr_mult: 2
  }
  convolution_param {
    num_output: 64
    pad: 2
    kernel_size: 5
    stride: 1
    weight_filler {
      type: "gaussian"
      std: 0.01
    }
    bias_filler {
      type: "constant"
    }
  }
}
layer {
  name: "relu2"
  type: "ReLU"
  bottom: "conv2"
  top: "conv2"
}
layer {
  name: "pool2"
  type: "Pooling"
  bottom: "conv2"
  top: "pool2"
  pooling_param {
    pool: MAX
    kernel_size: 3
    stride: 2
  }
}
layer {
  name: "conv3"
  type: "Convolution"
  bottom: "pool2"
  top: "conv3"
  param {
    lr_mult: 1
  }
  param {
    lr_mult: 2
  }
  convolution_param {
    num_output: 128
    pad: 2
    kernel_size: 5
    stride: 1
    weight_filler {
      type: "gaussian"
      std: 0.01
    }
    bias_filler {
      type: "constant"
    }
  }
}
layer {
  name: "relu3"
  type: "ReLU"
  bottom: "conv3"
  top: "conv3"
}
layer {
  name: "conv4"
  type: "Convolution"
  bottom: "conv3"
  top: "conv4"
  param {
    lr_mult: 1
  }
  param {
    lr_mult: 2
  }
  convolution_param {
    num_output: 128
    pad: 2
    kernel_size: 5
    stride: 1
    weight_filler {
      type: "gaussian"
      std: 0.01
    }
    bias_filler {
      type: "constant"
    }
  }
}
layer {
  name: "relu4"
  type: "ReLU"
  bottom: "conv4"
  top: "conv4"
}
layer {
  name: "conv5"
  type: "Convolution"
  bottom: "conv4"
  top: "conv5"
  param {
    lr_mult: 1
  }
  param {
    lr_mult: 2
  }
  convolution_param {
    num_output: 128
    pad: 2
    kernel_size: 5
    stride: 1
    weight_filler {
      type: "gaussian"
      std: 0.01
    }
    bias_filler {
      type: "constant"
    }
  }
}
layer {
  name: "relu5"
  type: "ReLU"
  bottom: "conv5"
  top: "conv5"
}
layer {
  name: "pool5"
  type: "Pooling"
  bottom: "conv5"
  top: "pool5"
  pooling_param {
    pool: AVE
    kernel_size: 3
    stride: 2
  }
}
layer {
  name: "ip1"
  type: "InnerProduct"
  bottom: "pool5"
  top: "ip1"
  param {
    lr_mult: 1
  }
  param {
    lr_mult: 2
  }
  inner_product_param {
    num_output: 1024
    weight_filler {
      type: "gaussian"
      std: 0.1
    }
    bias_filler {
      type: "constant"
    }
  }
}
layer {
  name: "ip2"
  type: "InnerProduct"
  bottom: "ip1"
  top: "ip2"
  param {
    lr_mult: 1
  }
  param {
    lr_mult: 2
  }
  inner_product_param {
    num_output: 512
    weight_filler {
      type: "gaussian"
      std: 0.1
    }
    bias_filler {
      type: "constant"
    }
  }
}
layer {
  name: "ip3"
  type: "InnerProduct"
  bottom: "ip2"
  top: "ip3"
  param {
    lr_mult: 1
  }
  param {
    lr_mult: 2
  }
  inner_product_param {
    num_output: 1
    weight_filler {
      type: "gaussian"
      std: 0.1
    }
    bias_filler {
      type: "constant"
    }
  }
}
layer {
  name: "loss"
  type: "HuberLoss"
  bottom: "ip3"
  bottom: "label"
  top: "loss"
  include {
    phase: TRAIN
  }
}
I0501 04:53:37.268434 30921 layer_factory.hpp:77] Creating layer parameters
I0501 04:53:37.268446 30921 net.cpp:94] Creating Layer parameters
I0501 04:53:37.268451 30921 net.cpp:409] parameters -> data
I0501 04:53:37.268465 30921 net.cpp:409] parameters -> label
I0501 04:53:37.268472 30921 hdf5_data_layer.cpp:79] Loading list of HDF5 filenames from: /home/purduethu/scratch/radon/d/deng106/CNNStatisticalModel/distributions/input/50_distributions_100_sample_size_train-parameters-path.txt
I0501 04:53:37.268487 30921 hdf5_data_layer.cpp:93] Number of HDF5 files: 1
I0501 04:53:37.269081 30921 hdf5.cpp:32] Datatype class: H5T_FLOAT
I0501 04:53:37.432494 30921 net.cpp:144] Setting up parameters
I0501 04:53:37.432524 30921 net.cpp:151] Top shape: 20 1 10 10 (2000)
I0501 04:53:37.432529 30921 net.cpp:151] Top shape: 20 (20)
I0501 04:53:37.432533 30921 net.cpp:159] Memory required for data: 8080
I0501 04:53:37.432540 30921 layer_factory.hpp:77] Creating layer conv1
I0501 04:53:37.432579 30921 net.cpp:94] Creating Layer conv1
I0501 04:53:37.432585 30921 net.cpp:435] conv1 <- data
I0501 04:53:37.432591 30921 net.cpp:409] conv1 -> conv1
I0501 04:53:37.436759 30921 net.cpp:144] Setting up conv1
I0501 04:53:37.436774 30921 net.cpp:151] Top shape: 20 64 10 10 (128000)
I0501 04:53:37.436779 30921 net.cpp:159] Memory required for data: 520080
I0501 04:53:37.436789 30921 layer_factory.hpp:77] Creating layer relu1
I0501 04:53:37.436796 30921 net.cpp:94] Creating Layer relu1
I0501 04:53:37.436800 30921 net.cpp:435] relu1 <- conv1
I0501 04:53:37.436805 30921 net.cpp:396] relu1 -> conv1 (in-place)
I0501 04:53:37.436812 30921 net.cpp:144] Setting up relu1
I0501 04:53:37.436817 30921 net.cpp:151] Top shape: 20 64 10 10 (128000)
I0501 04:53:37.436820 30921 net.cpp:159] Memory required for data: 1032080
I0501 04:53:37.436823 30921 layer_factory.hpp:77] Creating layer conv2
I0501 04:53:37.436831 30921 net.cpp:94] Creating Layer conv2
I0501 04:53:37.436836 30921 net.cpp:435] conv2 <- conv1
I0501 04:53:37.436839 30921 net.cpp:409] conv2 -> conv2
I0501 04:53:37.442875 30921 net.cpp:144] Setting up conv2
I0501 04:53:37.442891 30921 net.cpp:151] Top shape: 20 64 10 10 (128000)
I0501 04:53:37.442895 30921 net.cpp:159] Memory required for data: 1544080
I0501 04:53:37.442904 30921 layer_factory.hpp:77] Creating layer relu2
I0501 04:53:37.442912 30921 net.cpp:94] Creating Layer relu2
I0501 04:53:37.442915 30921 net.cpp:435] relu2 <- conv2
I0501 04:53:37.442920 30921 net.cpp:396] relu2 -> conv2 (in-place)
I0501 04:53:37.442927 30921 net.cpp:144] Setting up relu2
I0501 04:53:37.442932 30921 net.cpp:151] Top shape: 20 64 10 10 (128000)
I0501 04:53:37.442935 30921 net.cpp:159] Memory required for data: 2056080
I0501 04:53:37.442939 30921 layer_factory.hpp:77] Creating layer pool2
I0501 04:53:37.442945 30921 net.cpp:94] Creating Layer pool2
I0501 04:53:37.442953 30921 net.cpp:435] pool2 <- conv2
I0501 04:53:37.442958 30921 net.cpp:409] pool2 -> pool2
I0501 04:53:37.443011 30921 net.cpp:144] Setting up pool2
I0501 04:53:37.443018 30921 net.cpp:151] Top shape: 20 64 5 5 (32000)
I0501 04:53:37.443022 30921 net.cpp:159] Memory required for data: 2184080
I0501 04:53:37.443025 30921 layer_factory.hpp:77] Creating layer conv3
I0501 04:53:37.443033 30921 net.cpp:94] Creating Layer conv3
I0501 04:53:37.443037 30921 net.cpp:435] conv3 <- pool2
I0501 04:53:37.443042 30921 net.cpp:409] conv3 -> conv3
I0501 04:53:37.451189 30921 net.cpp:144] Setting up conv3
I0501 04:53:37.451203 30921 net.cpp:151] Top shape: 20 128 5 5 (64000)
I0501 04:53:37.451207 30921 net.cpp:159] Memory required for data: 2440080
I0501 04:53:37.451215 30921 layer_factory.hpp:77] Creating layer relu3
I0501 04:53:37.451221 30921 net.cpp:94] Creating Layer relu3
I0501 04:53:37.451225 30921 net.cpp:435] relu3 <- conv3
I0501 04:53:37.451230 30921 net.cpp:396] relu3 -> conv3 (in-place)
I0501 04:53:37.451236 30921 net.cpp:144] Setting up relu3
I0501 04:53:37.451241 30921 net.cpp:151] Top shape: 20 128 5 5 (64000)
I0501 04:53:37.451243 30921 net.cpp:159] Memory required for data: 2696080
I0501 04:53:37.451247 30921 layer_factory.hpp:77] Creating layer conv4
I0501 04:53:37.451256 30921 net.cpp:94] Creating Layer conv4
I0501 04:53:37.451259 30921 net.cpp:435] conv4 <- conv3
I0501 04:53:37.451264 30921 net.cpp:409] conv4 -> conv4
I0501 04:53:37.466332 30921 net.cpp:144] Setting up conv4
I0501 04:53:37.466351 30921 net.cpp:151] Top shape: 20 128 5 5 (64000)
I0501 04:53:37.466356 30921 net.cpp:159] Memory required for data: 2952080
I0501 04:53:37.466362 30921 layer_factory.hpp:77] Creating layer relu4
I0501 04:53:37.466369 30921 net.cpp:94] Creating Layer relu4
I0501 04:53:37.466373 30921 net.cpp:435] relu4 <- conv4
I0501 04:53:37.466378 30921 net.cpp:396] relu4 -> conv4 (in-place)
I0501 04:53:37.466385 30921 net.cpp:144] Setting up relu4
I0501 04:53:37.466390 30921 net.cpp:151] Top shape: 20 128 5 5 (64000)
I0501 04:53:37.466393 30921 net.cpp:159] Memory required for data: 3208080
I0501 04:53:37.466397 30921 layer_factory.hpp:77] Creating layer conv5
I0501 04:53:37.466405 30921 net.cpp:94] Creating Layer conv5
I0501 04:53:37.466408 30921 net.cpp:435] conv5 <- conv4
I0501 04:53:37.466413 30921 net.cpp:409] conv5 -> conv5
I0501 04:53:37.481145 30921 net.cpp:144] Setting up conv5
I0501 04:53:37.481165 30921 net.cpp:151] Top shape: 20 128 5 5 (64000)
I0501 04:53:37.481170 30921 net.cpp:159] Memory required for data: 3464080
I0501 04:53:37.481180 30921 layer_factory.hpp:77] Creating layer relu5
I0501 04:53:37.481186 30921 net.cpp:94] Creating Layer relu5
I0501 04:53:37.481190 30921 net.cpp:435] relu5 <- conv5
I0501 04:53:37.481196 30921 net.cpp:396] relu5 -> conv5 (in-place)
I0501 04:53:37.481204 30921 net.cpp:144] Setting up relu5
I0501 04:53:37.481209 30921 net.cpp:151] Top shape: 20 128 5 5 (64000)
I0501 04:53:37.481211 30921 net.cpp:159] Memory required for data: 3720080
I0501 04:53:37.481215 30921 layer_factory.hpp:77] Creating layer pool5
I0501 04:53:37.481220 30921 net.cpp:94] Creating Layer pool5
I0501 04:53:37.481223 30921 net.cpp:435] pool5 <- conv5
I0501 04:53:37.481227 30921 net.cpp:409] pool5 -> pool5
I0501 04:53:37.481269 30921 net.cpp:144] Setting up pool5
I0501 04:53:37.481276 30921 net.cpp:151] Top shape: 20 128 2 2 (10240)
I0501 04:53:37.481279 30921 net.cpp:159] Memory required for data: 3761040
I0501 04:53:37.481282 30921 layer_factory.hpp:77] Creating layer ip1
I0501 04:53:37.481293 30921 net.cpp:94] Creating Layer ip1
I0501 04:53:37.481297 30921 net.cpp:435] ip1 <- pool5
I0501 04:53:37.481302 30921 net.cpp:409] ip1 -> ip1
I0501 04:53:37.495334 30921 net.cpp:144] Setting up ip1
I0501 04:53:37.495354 30921 net.cpp:151] Top shape: 20 1024 (20480)
I0501 04:53:37.495358 30921 net.cpp:159] Memory required for data: 3842960
I0501 04:53:37.495367 30921 layer_factory.hpp:77] Creating layer ip2
I0501 04:53:37.495374 30921 net.cpp:94] Creating Layer ip2
I0501 04:53:37.495384 30921 net.cpp:435] ip2 <- ip1
I0501 04:53:37.495390 30921 net.cpp:409] ip2 -> ip2
I0501 04:53:37.508441 30921 net.cpp:144] Setting up ip2
I0501 04:53:37.508458 30921 net.cpp:151] Top shape: 20 512 (10240)
I0501 04:53:37.508462 30921 net.cpp:159] Memory required for data: 3883920
I0501 04:53:37.508468 30921 layer_factory.hpp:77] Creating layer ip3
I0501 04:53:37.508476 30921 net.cpp:94] Creating Layer ip3
I0501 04:53:37.508481 30921 net.cpp:435] ip3 <- ip2
I0501 04:53:37.508486 30921 net.cpp:409] ip3 -> ip3
I0501 04:53:37.508612 30921 net.cpp:144] Setting up ip3
I0501 04:53:37.508620 30921 net.cpp:151] Top shape: 20 1 (20)
I0501 04:53:37.508625 30921 net.cpp:159] Memory required for data: 3884000
I0501 04:53:37.508630 30921 layer_factory.hpp:77] Creating layer loss
I0501 04:53:37.508642 30921 net.cpp:94] Creating Layer loss
I0501 04:53:37.508646 30921 net.cpp:435] loss <- ip3
I0501 04:53:37.508651 30921 net.cpp:435] loss <- label
I0501 04:53:37.508656 30921 net.cpp:409] loss -> loss
I0501 04:53:37.508705 30921 net.cpp:144] Setting up loss
…
I0501 04:53:37.619024 30921 net.cpp:323] The NetState phase (0) differed from the phase (1) specified by a rule in layer intercept
I0501 04:53:37.619040 30921 net.cpp:323] The NetState phase (0) differed from the phase (1) specified by a rule in layer accuracy
I0501 04:53:37.619127 30921 net.cpp:52] Initializing net from parameters: 
state {
  phase: TRAIN
}
layer {
  name: "parameters"
  type: "HDF5Data"
  top: "data"
  top: "label"
  include {
    phase: TRAIN
  }
  hdf5_data_param {
    source: "/home/purduethu/scratch/radon/d/deng106/CNNStatisticalModel/distributions/input/50_distributions_100_sample_size_train-distributions-path.txt"
    batch_size: 20
  }
}
layer {
  name: "conv1"
  type: "Convolution"
  bottom: "data"
  top: "conv1"
  param {
    lr_mult: 1
  }
  param {
    lr_mult: 2
  }
  convolution_param {
    num_output: 64
    pad: 2
    kernel_size: 5
    stride: 1
    weight_filler {
      type: "gaussian"
      std: 0.0001
    }
    bias_filler {
      type: "constant"
    }
  }
}
layer {
  name: "relu1"
  type: "ReLU"
  bottom: "conv1"
  top: "conv1"
}
layer {
  name: "conv2"
  type: "Convolution"
  bottom: "conv1"
  top: "conv2"
  param {
    lr_mult: 1
  }
  param {
    lr_mult: 2
  }
  convolution_param {
    num_output: 64
    pad: 2
    kernel_size: 5
    stride: 1
    weight_filler {
      type: "gaussian"
      std: 0.01
    }
    bias_filler {
      type: "constant"
    }
  }
}
layer {
  name: "relu2"
  type: "ReLU"
  bottom: "conv2"
  top: "conv2"
}
layer {
  name: "pool2"
  type: "Pooling"
  bottom: "conv2"
  top: "pool2"
  pooling_param {
    pool: MAX
    kernel_size: 3
    stride: 2
  }
}
layer {
  name: "conv3"
  type: "Convolution"
  bottom: "pool2"
  top: "conv3"
  param {
    lr_mult: 1
  }
  param {
    lr_mult: 2
  }
  convolution_param {
    num_output: 128
    pad: 2
    kernel_size: 5
    stride: 1
    weight_filler {
      type: "gaussian"
      std: 0.01
    }
    bias_filler {
      type: "constant"
    }
  }
}
layer {
  name: "relu3"
  type: "ReLU"
  bottom: "conv3"
  top: "conv3"
}
layer {
  name: "conv4"
  type: "Convolution"
  bottom: "conv3"
  top: "conv4"
  param {
    lr_mult: 1
  }
  param {
    lr_mult: 2
  }
  convolution_param {
    num_output: 128
    pad: 2
    kernel_size: 5
    stride: 1
    weight_filler {
      type: "gaussian"
      std: 0.01
    }
    bias_filler {
      type: "constant"
    }
  }
}
layer {
  name: "relu4"
  type: "ReLU"
  bottom: "conv4"
  top: "conv4"
}
layer {
  name: "conv5"
  type: "Convolution"
  bottom: "conv4"
  top: "conv5"
  param {
    lr_mult: 1
  }
  param {
    lr_mult: 2
  }
  convolution_param {
    num_output: 128
    pad: 2
    kernel_size: 5
    stride: 1
    weight_filler {
      type: "gaussian"
      std: 0.01
    }
    bias_filler {
      type: "constant"
    }
  }
}
layer {
  name: "relu5"
  type: "ReLU"
  bottom: "conv5"
  top: "conv5"
}
layer {
  name: "pool5"
  type: "Pooling"
  bottom: "conv5"
  top: "pool5"
  pooling_param {
    pool: AVE
    kernel_size: 3
    stride: 2
  }
}
layer {
  name: "ip1"
  type: "InnerProduct"
  bottom: "pool5"
  top: "ip1"
  param {
    lr_mult: 1
  }
  param {
    lr_mult: 2
  }
  inner_product_param {
    num_output: 1024
    weight_filler {
      type: "gaussian"
      std: 0.1
    }
    bias_filler {
      type: "constant"
    }
  }
}
layer {
  name: "ip2"
  type: "InnerProduct"
  bottom: "ip1"
  top: "ip2"
  param {
    lr_mult: 1
  }
  param {
    lr_mult: 2
  }
  inner_product_param {
    num_output: 512
    weight_filler {
      type: "gaussian"
      std: 0.1
    }
    bias_filler {
      type: "constant"
    }
  }
}
layer {
  name: "ip3"
  type: "InnerProduct"
  bottom: "ip2"
  top: "ip3"
  param {
    lr_mult: 1
  }
  param {
    lr_mult: 2
  }
  inner_product_param {
    num_output: 50
    weight_filler {
      type: "gaussian"
      std: 0.1
    }
    bias_filler {
      type: "constant"
    }
  }
}
layer {
  name: "loss"
  type: "SoftmaxWithLoss"
  bottom: "ip3"
  bottom: "label"
  top: "loss"
}
I0501 04:53:37.619177 30921 layer_factory.hpp:77] Creating layer parameters
I0501 04:53:37.619185 30921 net.cpp:94] Creating Layer parameters
I0501 04:53:37.619189 30921 net.cpp:409] parameters -> data
I0501 04:53:37.619196 30921 net.cpp:409] parameters -> label
I0501 04:53:37.619202 30921 hdf5_data_layer.cpp:79] Loading list of HDF5 filenames from: /home/purduethu/scratch/radon/d/deng106/CNNStatisticalModel/distributions/input/50_distributions_100_sample_size_train-distributions-path.txt
I0501 04:53:37.619218 30921 hdf5_data_layer.cpp:93] Number of HDF5 files: 1
I0501 04:53:37.778056 30921 hdf5.cpp:35] Datatype class: H5T_INTEGER
I0501 04:53:37.781152 30921 net.cpp:144] Setting up parameters
I0501 04:53:37.781175 30921 net.cpp:151] Top shape: 20 1 10 10 (2000)
I0501 04:53:37.781180 30921 net.cpp:151] Top shape: 20 (20)
I0501 04:53:37.781183 30921 net.cpp:159] Memory required for data: 8080
I0501 04:53:37.781189 30921 layer_factory.hpp:77] Creating layer conv1
I0501 04:53:37.781205 30921 net.cpp:94] Creating Layer conv1
I0501 04:53:37.781209 30921 net.cpp:435] conv1 <- data
I0501 04:53:37.781215 30921 net.cpp:409] conv1 -> conv1
I0501 04:53:37.782943 30921 net.cpp:144] Setting up conv1
I0501 04:53:37.782958 30921 net.cpp:151] Top shape: 20 64 10 10 (128000)
I0501 04:53:37.782961 30921 net.cpp:159] Memory required for data: 520080
I0501 04:53:37.782971 30921 layer_factory.hpp:77] Creating layer relu1
I0501 04:53:37.782979 30921 net.cpp:94] Creating Layer relu1
I0501 04:53:37.782984 30921 net.cpp:435] relu1 <- conv1
I0501 04:53:37.782989 30921 net.cpp:396] relu1 -> conv1 (in-place)
I0501 04:53:37.782995 30921 net.cpp:144] Setting up relu1
I0501 04:53:37.783000 30921 net.cpp:151] Top shape: 20 64 10 10 (128000)
I0501 04:53:37.783004 30921 net.cpp:159] Memory required for data: 1032080
I0501 04:53:37.783006 30921 layer_factory.hpp:77] Creating layer conv2
I0501 04:53:37.783015 30921 net.cpp:94] Creating Layer conv2
I0501 04:53:37.783017 30921 net.cpp:435] conv2 <- conv1
I0501 04:53:37.783022 30921 net.cpp:409] conv2 -> conv2
I0501 04:53:37.788403 30921 net.cpp:144] Setting up conv2
I0501 04:53:37.788417 30921 net.cpp:151] Top shape: 20 64 10 10 (128000)
I0501 04:53:37.788421 30921 net.cpp:159] Memory required for data: 1544080
I0501 04:53:37.788429 30921 layer_factory.hpp:77] Creating layer relu2
I0501 04:53:37.788436 30921 net.cpp:94] Creating Layer relu2
I0501 04:53:37.788440 30921 net.cpp:435] relu2 <- conv2
I0501 04:53:37.788445 30921 net.cpp:396] relu2 -> conv2 (in-place)
I0501 04:53:37.788452 30921 net.cpp:144] Setting up relu2
I0501 04:53:37.788457 30921 net.cpp:151] Top shape: 20 64 10 10 (128000)
I0501 04:53:37.788460 30921 net.cpp:159] Memory required for data: 2056080
I0501 04:53:37.788463 30921 layer_factory.hpp:77] Creating layer pool2
I0501 04:53:37.788470 30921 net.cpp:94] Creating Layer pool2
I0501 04:53:37.788472 30921 net.cpp:435] pool2 <- conv2
I0501 04:53:37.788477 30921 net.cpp:409] pool2 -> pool2
I0501 04:53:37.788528 30921 net.cpp:144] Setting up pool2
I0501 04:53:37.788535 30921 net.cpp:151] Top shape: 20 64 5 5 (32000)
I0501 04:53:37.788538 30921 net.cpp:159] Memory required for data: 2184080
I0501 04:53:37.788542 30921 layer_factory.hpp:77] Creating layer conv3
I0501 04:53:37.788558 30921 net.cpp:94] Creating Layer conv3
I0501 04:53:37.788563 30921 net.cpp:435] conv3 <- pool2
I0501 04:53:37.788568 30921 net.cpp:409] conv3 -> conv3
I0501 04:53:37.797369 30921 net.cpp:144] Setting up conv3
I0501 04:53:37.797386 30921 net.cpp:151] Top shape: 20 128 5 5 (64000)
I0501 04:53:37.797390 30921 net.cpp:159] Memory required for data: 2440080
I0501 04:53:37.797399 30921 layer_factory.hpp:77] Creating layer relu3
I0501 04:53:37.797405 30921 net.cpp:94] Creating Layer relu3
I0501 04:53:37.797408 30921 net.cpp:435] relu3 <- conv3
I0501 04:53:37.797413 30921 net.cpp:396] relu3 -> conv3 (in-place)
I0501 04:53:37.797420 30921 net.cpp:144] Setting up relu3
I0501 04:53:37.797425 30921 net.cpp:151] Top shape: 20 128 5 5 (64000)
I0501 04:53:37.797428 30921 net.cpp:159] Memory required for data: 2696080
I0501 04:53:37.797431 30921 layer_factory.hpp:77] Creating layer conv4
I0501 04:53:37.797439 30921 net.cpp:94] Creating Layer conv4
I0501 04:53:37.797443 30921 net.cpp:435] conv4 <- conv3
I0501 04:53:37.797448 30921 net.cpp:409] conv4 -> conv4
I0501 04:53:37.812378 30921 net.cpp:144] Setting up conv4
I0501 04:53:37.812393 30921 net.cpp:151] Top shape: 20 128 5 5 (64000)
I0501 04:53:37.812398 30921 net.cpp:159] Memory required for data: 2952080
I0501 04:53:37.812405 30921 layer_factory.hpp:77] Creating layer relu4
I0501 04:53:37.812412 30921 net.cpp:94] Creating Layer relu4
I0501 04:53:37.812415 30921 net.cpp:435] relu4 <- conv4
I0501 04:53:37.812420 30921 net.cpp:396] relu4 -> conv4 (in-place)
I0501 04:53:37.812427 30921 net.cpp:144] Setting up relu4
I0501 04:53:37.812432 30921 net.cpp:151] Top shape: 20 128 5 5 (64000)
I0501 04:53:37.812434 30921 net.cpp:159] Memory required for data: 3208080
I0501 04:53:37.812438 30921 layer_factory.hpp:77] Creating layer conv5
I0501 04:53:37.812446 30921 net.cpp:94] Creating Layer conv5
I0501 04:53:37.812449 30921 net.cpp:435] conv5 <- conv4
I0501 04:53:37.812454 30921 net.cpp:409] conv5 -> conv5
I0501 04:53:37.827570 30921 net.cpp:144] Setting up conv5
I0501 04:53:37.827585 30921 net.cpp:151] Top shape: 20 128 5 5 (64000)
I0501 04:53:37.827590 30921 net.cpp:159] Memory required for data: 3464080
I0501 04:53:37.827599 30921 layer_factory.hpp:77] Creating layer relu5
I0501 04:53:37.827605 30921 net.cpp:94] Creating Layer relu5
I0501 04:53:37.827608 30921 net.cpp:435] relu5 <- conv5
I0501 04:53:37.827613 30921 net.cpp:396] relu5 -> conv5 (in-place)
I0501 04:53:37.827620 30921 net.cpp:144] Setting up relu5
I0501 04:53:37.827625 30921 net.cpp:151] Top shape: 20 128 5 5 (64000)
I0501 04:53:37.827628 30921 net.cpp:159] Memory required for data: 3720080
I0501 04:53:37.827631 30921 layer_factory.hpp:77] Creating layer pool5
I0501 04:53:37.827637 30921 net.cpp:94] Creating Layer pool5
I0501 04:53:37.827641 30921 net.cpp:435] pool5 <- conv5
I0501 04:53:37.827644 30921 net.cpp:409] pool5 -> pool5
I0501 04:53:37.827682 30921 net.cpp:144] Setting up pool5
I0501 04:53:37.827688 30921 net.cpp:151] Top shape: 20 128 2 2 (10240)
I0501 04:53:37.827692 30921 net.cpp:159] Memory required for data: 3761040
I0501 04:53:37.827694 30921 layer_factory.hpp:77] Creating layer ip1
I0501 04:53:37.827702 30921 net.cpp:94] Creating Layer ip1
I0501 04:53:37.827705 30921 net.cpp:435] ip1 <- pool5
I0501 04:53:37.827710 30921 net.cpp:409] ip1 -> ip1
I0501 04:53:37.841045 30921 net.cpp:144] Setting up ip1
I0501 04:53:37.841059 30921 net.cpp:151] Top shape: 20 1024 (20480)
I0501 04:53:37.841063 30921 net.cpp:159] Memory required for data: 3842960
I0501 04:53:37.841069 30921 layer_factory.hpp:77] Creating layer ip2
I0501 04:53:37.841076 30921 net.cpp:94] Creating Layer ip2
I0501 04:53:37.841080 30921 net.cpp:435] ip2 <- ip1
I0501 04:53:37.841086 30921 net.cpp:409] ip2 -> ip2
I0501 04:53:37.854387 30921 net.cpp:144] Setting up ip2
I0501 04:53:37.854400 30921 net.cpp:151] Top shape: 20 512 (10240)
I0501 04:53:37.854404 30921 net.cpp:159] Memory required for data: 3883920
I0501 04:53:37.854410 30921 layer_factory.hpp:77] Creating layer ip3
I0501 04:53:37.854418 30921 net.cpp:94] Creating Layer ip3
I0501 04:53:37.854421 30921 net.cpp:435] ip3 <- ip2
I0501 04:53:37.854426 30921 net.cpp:409] ip3 -> ip3
I0501 04:53:37.856001 30921 net.cpp:144] Setting up ip3
I0501 04:53:37.856014 30921 net.cpp:151] Top shape: 20 50 (1000)
I0501 04:53:37.856024 30921 net.cpp:159] Memory required for data: 3887920
I0501 04:53:37.856030 30921 layer_factory.hpp:77] Creating layer loss
I0501 04:53:37.856039 30921 net.cpp:94] Creating Layer loss
I0501 04:53:37.856042 30921 net.cpp:435] loss <- ip3
I0501 04:53:37.856046 30921 net.cpp:435] loss <- label
I0501 04:53:37.856051 30921 net.cpp:409] loss -> loss
I0501 04:53:37.856060 30921 layer_factory.hpp:77] Creating layer loss
…
I0501 04:53:37.856585 30921 solver.cpp:181] Creating test net (#0) specified by net file: ./protocol/dis_50_100_dimension.protocol_distribution
I0501 04:53:37.856612 30921 net.cpp:323] The NetState phase (1) differed from the phase (0) specified by a rule in layer parameters
I0501 04:53:37.856709 30921 net.cpp:52] Initializing net from parameters: 
state {
  phase: TEST
}
layer {
  name: "intercept"
  type: "HDF5Data"
  top: "data"
  top: "label"
  include {
    phase: TEST
  }
  hdf5_data_param {
    source: "/home/purduethu/scratch/radon/d/deng106/CNNStatisticalModel/distributions/input/50_distributions_100_sample_size_test-distributions-path.txt"
    batch_size: 20
  }
}
layer {
  name: "conv1"
  type: "Convolution"
  bottom: "data"
  top: "conv1"
  param {
    lr_mult: 1
  }
  param {
    lr_mult: 2
  }
  convolution_param {
    num_output: 64
    pad: 2
    kernel_size: 5
    stride: 1
    weight_filler {
      type: "gaussian"
      std: 0.0001
    }
    bias_filler {
      type: "constant"
    }
  }
}
layer {
  name: "relu1"
  type: "ReLU"
  bottom: "conv1"
  top: "conv1"
}
layer {
  name: "conv2"
  type: "Convolution"
  bottom: "conv1"
  top: "conv2"
  param {
    lr_mult: 1
  }
  param {
    lr_mult: 2
  }
  convolution_param {
    num_output: 64
    pad: 2
    kernel_size: 5
    stride: 1
    weight_filler {
      type: "gaussian"
      std: 0.01
    }
    bias_filler {
      type: "constant"
    }
  }
}
layer {
  name: "relu2"
  type: "ReLU"
  bottom: "conv2"
  top: "conv2"
}
layer {
  name: "pool2"
  type: "Pooling"
  bottom: "conv2"
  top: "pool2"
  pooling_param {
    pool: MAX
    kernel_size: 3
    stride: 2
  }
}
layer {
  name: "conv3"
  type: "Convolution"
  bottom: "pool2"
  top: "conv3"
  param {
    lr_mult: 1
  }
  param {
    lr_mult: 2
  }
  convolution_param {
    num_output: 128
    pad: 2
    kernel_size: 5
    stride: 1
    weight_filler {
      type: "gaussian"
      std: 0.01
    }
    bias_filler {
      type: "constant"
    }
  }
}
layer {
  name: "relu3"
  type: "ReLU"
  bottom: "conv3"
  top: "conv3"
}
layer {
  name: "conv4"
  type: "Convolution"
  bottom: "conv3"
  top: "conv4"
  param {
    lr_mult: 1
  }
  param {
    lr_mult: 2
  }
  convolution_param {
    num_output: 128
    pad: 2
    kernel_size: 5
    stride: 1
    weight_filler {
      type: "gaussian"
      std: 0.01
    }
    bias_filler {
      type: "constant"
    }
  }
}
layer {
  name: "relu4"
  type: "ReLU"
  bottom: "conv4"
  top: "conv4"
}
layer {
  name: "conv5"
  type: "Convolution"
  bottom: "conv4"
  top: "conv5"
  param {
    lr_mult: 1
  }
  param {
    lr_mult: 2
  }
  convolution_param {
    num_output: 128
    pad: 2
    kernel_size: 5
    stride: 1
    weight_filler {
      type: "gaussian"
      std: 0.01
    }
    bias_filler {
      type: "constant"
    }
  }
}
layer {
  name: "relu5"
  type: "ReLU"
  bottom: "conv5"
  top: "conv5"
}
layer {
  name: "pool5"
  type: "Pooling"
  bottom: "conv5"
  top: "pool5"
  pooling_param {
    pool: AVE
    kernel_size: 3
    stride: 2
  }
}
layer {
  name: "ip1"
  type: "InnerProduct"
  bottom: "pool5"
  top: "ip1"
  param {
    lr_mult: 1
  }
  param {
    lr_mult: 2
  }
  inner_product_param {
    num_output: 1024
    weight_filler {
      type: "gaussian"
      std: 0.1
    }
    bias_filler {
      type: "constant"
    }
  }
}
layer {
  name: "ip2"
  type: "InnerProduct"
  bottom: "ip1"
  top: "ip2"
  param {
    lr_mult: 1
  }
  param {
    lr_mult: 2
  }
  inner_product_param {
    num_output: 512
    weight_filler {
      type: "gaussian"
      std: 0.1
    }
    bias_filler {
      type: "constant"
    }
  }
}
layer {
  name: "ip3"
  type: "InnerProduct"
  bottom: "ip2"
  top: "ip3"
  param {
    lr_mult: 1
  }
  param {
    lr_mult: 2
  }
  inner_product_param {
    num_output: 50
    weight_filler {
      type: "gaussian"
      std: 0.1
    }
    bias_filler {
      type: "constant"
    }
  }
}
layer {
  name: "accuracy"
  type: "Accuracy"
  bottom: "ip3"
  bottom: "label"
  top: "accuracy"
  include {
    phase: TEST
  }
}
layer {
  name: "loss"
  type: "SoftmaxWithLoss"
  bottom: "ip3"
  bottom: "label"
  top: "loss"
}
I0501 04:53:37.856775 30921 layer_factory.hpp:77] Creating layer intercept
I0501 04:53:37.856783 30921 net.cpp:94] Creating Layer intercept
I0501 04:53:37.856788 30921 net.cpp:409] intercept -> data
I0501 04:53:37.856796 30921 net.cpp:409] intercept -> label
I0501 04:53:37.856801 30921 hdf5_data_layer.cpp:79] Loading list of HDF5 filenames from: /home/purduethu/scratch/radon/d/deng106/CNNStatisticalModel/distributions/input/50_distributions_100_sample_size_test-distributions-path.txt
I0501 04:53:37.856822 30921 hdf5_data_layer.cpp:93] Number of HDF5 files: 1
I0501 04:53:37.897933 30921 net.cpp:144] Setting up intercept
I0501 04:53:37.897966 30921 net.cpp:151] Top shape: 20 1 10 10 (2000)
I0501 04:53:37.897972 30921 net.cpp:151] Top shape: 20 (20)
I0501 04:53:37.897975 30921 net.cpp:159] Memory required for data: 8080
I0501 04:53:37.897980 30921 layer_factory.hpp:77] Creating layer label_intercept_1_split
I0501 04:53:37.898000 30921 net.cpp:94] Creating Layer label_intercept_1_split
I0501 04:53:37.898005 30921 net.cpp:435] label_intercept_1_split <- label
I0501 04:53:37.898010 30921 net.cpp:409] label_intercept_1_split -> label_intercept_1_split_0
I0501 04:53:37.898018 30921 net.cpp:409] label_intercept_1_split -> label_intercept_1_split_1
I0501 04:53:37.898061 30921 net.cpp:144] Setting up label_intercept_1_split
I0501 04:53:37.898066 30921 net.cpp:151] Top shape: 20 (20)
I0501 04:53:37.898071 30921 net.cpp:151] Top shape: 20 (20)
I0501 04:53:37.898073 30921 net.cpp:159] Memory required for data: 8240
I0501 04:53:37.898077 30921 layer_factory.hpp:77] Creating layer conv1
I0501 04:53:37.898087 30921 net.cpp:94] Creating Layer conv1
I0501 04:53:37.898092 30921 net.cpp:435] conv1 <- data
I0501 04:53:37.898097 30921 net.cpp:409] conv1 -> conv1
I0501 04:53:37.898903 30921 net.cpp:144] Setting up conv1
I0501 04:53:37.898917 30921 net.cpp:151] Top shape: 20 64 10 10 (128000)
I0501 04:53:37.898928 30921 net.cpp:159] Memory required for data: 520240
I0501 04:53:37.898938 30921 layer_factory.hpp:77] Creating layer relu1
I0501 04:53:37.898946 30921 net.cpp:94] Creating Layer relu1
I0501 04:53:37.898948 30921 net.cpp:435] relu1 <- conv1
I0501 04:53:37.898952 30921 net.cpp:396] relu1 -> conv1 (in-place)
I0501 04:53:37.898960 30921 net.cpp:144] Setting up relu1
I0501 04:53:37.898964 30921 net.cpp:151] Top shape: 20 64 10 10 (128000)
I0501 04:53:37.898967 30921 net.cpp:159] Memory required for data: 1032240
I0501 04:53:37.898970 30921 layer_factory.hpp:77] Creating layer conv2
I0501 04:53:37.898978 30921 net.cpp:94] Creating Layer conv2
I0501 04:53:37.898983 30921 net.cpp:435] conv2 <- conv1
I0501 04:53:37.898988 30921 net.cpp:409] conv2 -> conv2
I0501 04:53:37.903228 30921 net.cpp:144] Setting up conv2
I0501 04:53:37.903242 30921 net.cpp:151] Top shape: 20 64 10 10 (128000)
I0501 04:53:37.903246 30921 net.cpp:159] Memory required for data: 1544240
I0501 04:53:37.903254 30921 layer_factory.hpp:77] Creating layer relu2
I0501 04:53:37.903261 30921 net.cpp:94] Creating Layer relu2
I0501 04:53:37.903264 30921 net.cpp:435] relu2 <- conv2
I0501 04:53:37.903270 30921 net.cpp:396] relu2 -> conv2 (in-place)
I0501 04:53:37.903275 30921 net.cpp:144] Setting up relu2
I0501 04:53:37.903281 30921 net.cpp:151] Top shape: 20 64 10 10 (128000)
I0501 04:53:37.903285 30921 net.cpp:159] Memory required for data: 2056240
I0501 04:53:37.903287 30921 layer_factory.hpp:77] Creating layer pool2
I0501 04:53:37.903293 30921 net.cpp:94] Creating Layer pool2
I0501 04:53:37.903296 30921 net.cpp:435] pool2 <- conv2
I0501 04:53:37.903301 30921 net.cpp:409] pool2 -> pool2
I0501 04:53:37.903354 30921 net.cpp:144] Setting up pool2
I0501 04:53:37.903362 30921 net.cpp:151] Top shape: 20 64 5 5 (32000)
I0501 04:53:37.903364 30921 net.cpp:159] Memory required for data: 2184240
I0501 04:53:37.903367 30921 layer_factory.hpp:77] Creating layer conv3
I0501 04:53:37.903378 30921 net.cpp:94] Creating Layer conv3
I0501 04:53:37.903381 30921 net.cpp:435] conv3 <- pool2
I0501 04:53:37.903388 30921 net.cpp:409] conv3 -> conv3
I0501 04:53:37.909749 30921 net.cpp:144] Setting up conv3
I0501 04:53:37.909761 30921 net.cpp:151] Top shape: 20 128 5 5 (64000)
I0501 04:53:37.909765 30921 net.cpp:159] Memory required for data: 2440240
I0501 04:53:37.909775 30921 layer_factory.hpp:77] Creating layer relu3
I0501 04:53:37.909781 30921 net.cpp:94] Creating Layer relu3
I0501 04:53:37.909785 30921 net.cpp:435] relu3 <- conv3
I0501 04:53:37.909790 30921 net.cpp:396] relu3 -> conv3 (in-place)
I0501 04:53:37.909796 30921 net.cpp:144] Setting up relu3
I0501 04:53:37.909801 30921 net.cpp:151] Top shape: 20 128 5 5 (64000)
I0501 04:53:37.909804 30921 net.cpp:159] Memory required for data: 2696240
I0501 04:53:37.909807 30921 layer_factory.hpp:77] Creating layer conv4
I0501 04:53:37.909816 30921 net.cpp:94] Creating Layer conv4
I0501 04:53:37.909819 30921 net.cpp:435] conv4 <- conv3
I0501 04:53:37.909824 30921 net.cpp:409] conv4 -> conv4
I0501 04:53:37.923079 30921 net.cpp:144] Setting up conv4
I0501 04:53:37.923115 30921 net.cpp:151] Top shape: 20 128 5 5 (64000)
I0501 04:53:37.923126 30921 net.cpp:159] Memory required for data: 2952240
I0501 04:53:37.923144 30921 layer_factory.hpp:77] Creating layer relu4
I0501 04:53:37.923159 30921 net.cpp:94] Creating Layer relu4
I0501 04:53:37.923171 30921 net.cpp:435] relu4 <- conv4
I0501 04:53:37.923187 30921 net.cpp:396] relu4 -> conv4 (in-place)
I0501 04:53:37.923205 30921 net.cpp:144] Setting up relu4
I0501 04:53:37.923219 30921 net.cpp:151] Top shape: 20 128 5 5 (64000)
I0501 04:53:37.923228 30921 net.cpp:159] Memory required for data: 3208240
I0501 04:53:37.923236 30921 layer_factory.hpp:77] Creating layer conv5
I0501 04:53:37.923266 30921 net.cpp:94] Creating Layer conv5
I0501 04:53:37.923269 30921 net.cpp:435] conv5 <- conv4
I0501 04:53:37.923274 30921 net.cpp:409] conv5 -> conv5
I0501 04:53:37.936377 30921 net.cpp:144] Setting up conv5
I0501 04:53:37.936393 30921 net.cpp:151] Top shape: 20 128 5 5 (64000)
I0501 04:53:37.936399 30921 net.cpp:159] Memory required for data: 3464240
I0501 04:53:37.936410 30921 layer_factory.hpp:77] Creating layer relu5
I0501 04:53:37.936417 30921 net.cpp:94] Creating Layer relu5
I0501 04:53:37.936421 30921 net.cpp:435] relu5 <- conv5
I0501 04:53:37.936427 30921 net.cpp:396] relu5 -> conv5 (in-place)
I0501 04:53:37.936434 30921 net.cpp:144] Setting up relu5
I0501 04:53:37.936439 30921 net.cpp:151] Top shape: 20 128 5 5 (64000)
I0501 04:53:37.936441 30921 net.cpp:159] Memory required for data: 3720240
I0501 04:53:37.936444 30921 layer_factory.hpp:77] Creating layer pool5
I0501 04:53:37.936450 30921 net.cpp:94] Creating Layer pool5
I0501 04:53:37.936452 30921 net.cpp:435] pool5 <- conv5
I0501 04:53:37.936458 30921 net.cpp:409] pool5 -> pool5
I0501 04:53:37.936496 30921 net.cpp:144] Setting up pool5
I0501 04:53:37.936502 30921 net.cpp:151] Top shape: 20 128 2 2 (10240)
I0501 04:53:37.936506 30921 net.cpp:159] Memory required for data: 3761200
I0501 04:53:37.936509 30921 layer_factory.hpp:77] Creating layer ip1
I0501 04:53:37.936517 30921 net.cpp:94] Creating Layer ip1
I0501 04:53:37.936520 30921 net.cpp:435] ip1 <- pool5
I0501 04:53:37.936527 30921 net.cpp:409] ip1 -> ip1
I0501 04:53:37.949882 30921 net.cpp:144] Setting up ip1
I0501 04:53:37.949894 30921 net.cpp:151] Top shape: 20 1024 (20480)
I0501 04:53:37.949898 30921 net.cpp:159] Memory required for data: 3843120
I0501 04:53:37.949904 30921 layer_factory.hpp:77] Creating layer ip2
I0501 04:53:37.949911 30921 net.cpp:94] Creating Layer ip2
I0501 04:53:37.949915 30921 net.cpp:435] ip2 <- ip1
I0501 04:53:37.949920 30921 net.cpp:409] ip2 -> ip2
I0501 04:53:37.963258 30921 net.cpp:144] Setting up ip2
I0501 04:53:37.963271 30921 net.cpp:151] Top shape: 20 512 (10240)
I0501 04:53:37.963274 30921 net.cpp:159] Memory required for data: 3884080
I0501 04:53:37.963280 30921 layer_factory.hpp:77] Creating layer ip3
I0501 04:53:37.963290 30921 net.cpp:94] Creating Layer ip3
I0501 04:53:37.963294 30921 net.cpp:435] ip3 <- ip2
I0501 04:53:37.963301 30921 net.cpp:409] ip3 -> ip3
I0501 04:53:37.964049 30921 net.cpp:144] Setting up ip3
I0501 04:53:37.964056 30921 net.cpp:151] Top shape: 20 50 (1000)
I0501 04:53:37.964059 30921 net.cpp:159] Memory required for data: 3888080
I0501 04:53:37.964066 30921 layer_factory.hpp:77] Creating layer ip3_ip3_0_split
I0501 04:53:37.964072 30921 net.cpp:94] Creating Layer ip3_ip3_0_split
I0501 04:53:37.964076 30921 net.cpp:435] ip3_ip3_0_split <- ip3
I0501 04:53:37.964081 30921 net.cpp:409] ip3_ip3_0_split -> ip3_ip3_0_split_0
I0501 04:53:37.964085 30921 net.cpp:409] ip3_ip3_0_split -> ip3_ip3_0_split_1
I0501 04:53:37.964128 30921 net.cpp:144] Setting up ip3_ip3_0_split
I0501 04:53:37.964135 30921 net.cpp:151] Top shape: 20 50 (1000)
I0501 04:53:37.964138 30921 net.cpp:151] Top shape: 20 50 (1000)
I0501 04:53:37.964141 30921 net.cpp:159] Memory required for data: 3896080
I0501 04:53:37.964144 30921 layer_factory.hpp:77] Creating layer accuracy
I0501 04:53:37.964151 30921 net.cpp:94] Creating Layer accuracy
I0501 04:53:37.964155 30921 net.cpp:435] accuracy <- ip3_ip3_0_split_0
I0501 04:53:37.964159 30921 net.cpp:435] accuracy <- label_intercept_1_split_0
I0501 04:53:37.964164 30921 net.cpp:409] accuracy -> accuracy
…
