…
I0505 16:16:02.753185  8092 net.cpp:323] The NetState phase (0) differed from the phase (1) specified by a rule in layer intercept
I0505 16:16:02.753199  8092 net.cpp:323] The NetState phase (0) differed from the phase (1) specified by a rule in layer loss
I0505 16:16:02.753267  8092 net.cpp:52] Initializing net from parameters: 
state {
  phase: TRAIN
}
layer {
  name: "parameters"
  type: "HDF5Data"
  top: "data"
  top: "label"
  include {
    phase: TRAIN
  }
  hdf5_data_param {
    source: "/home/purduethu/scratch/radon/d/deng106/CNNStatisticalModel/distributions/input/50_distributions_100_sample_size_train-parameters-path.txt"
    batch_size: 20
  }
}
layer {
  name: "conv1"
  type: "Convolution"
  bottom: "data"
  top: "conv1"
  param {
    lr_mult: 1
  }
  param {
    lr_mult: 2
  }
  convolution_param {
    num_output: 64
    pad: 2
    kernel_size: 5
    stride: 1
    weight_filler {
      type: "gaussian"
      std: 0.0001
    }
    bias_filler {
      type: "constant"
    }
  }
}
layer {
  name: "relu1"
  type: "ReLU"
  bottom: "conv1"
  top: "conv1"
}
layer {
  name: "pool1"
  type: "Pooling"
  bottom: "conv1"
  top: "pool1"
  pooling_param {
    pool: MAX
    kernel_size: 3
    stride: 2
  }
}
layer {
  name: "conv2"
  type: "Convolution"
  bottom: "pool1"
  top: "conv2"
  param {
    lr_mult: 1
  }
  param {
    lr_mult: 2
  }
  convolution_param {
    num_output: 128
    pad: 2
    kernel_size: 5
    stride: 1
    weight_filler {
      type: "gaussian"
      std: 0.01
    }
    bias_filler {
      type: "constant"
    }
  }
}
layer {
  name: "relu2"
  type: "ReLU"
  bottom: "conv2"
  top: "conv2"
}
layer {
  name: "conv3"
  type: "Convolution"
  bottom: "conv2"
  top: "conv3"
  param {
    lr_mult: 1
  }
  param {
    lr_mult: 2
  }
  convolution_param {
    num_output: 128
    pad: 2
    kernel_size: 5
    stride: 1
    weight_filler {
      type: "gaussian"
      std: 0.01
    }
    bias_filler {
      type: "constant"
    }
  }
}
layer {
  name: "relu3"
  type: "ReLU"
  bottom: "conv3"
  top: "conv3"
}
layer {
  name: "pool3"
  type: "Pooling"
  bottom: "conv3"
  top: "pool3"
  pooling_param {
    pool: AVE
    kernel_size: 3
    stride: 2
  }
}
layer {
  name: "ip1"
  type: "InnerProduct"
  bottom: "pool3"
  top: "ip1"
  param {
    lr_mult: 1
  }
  param {
    lr_mult: 2
  }
  inner_product_param {
    num_output: 512
    weight_filler {
      type: "gaussian"
      std: 0.1
    }
    bias_filler {
      type: "constant"
    }
  }
}
layer {
  name: "ip2"
  type: "InnerProduct"
  bottom: "ip1"
  top: "ip2"
  param {
    lr_mult: 1
  }
  param {
    lr_mult: 2
  }
  inner_product_param {
    num_output: 256
    weight_filler {
      type: "gaussian"
      std: 0.1
    }
    bias_filler {
      type: "constant"
    }
  }
}
layer {
  name: "ip3"
  type: "InnerProduct"
  bottom: "ip2"
  top: "ip3"
  param {
    lr_mult: 1
  }
  param {
    lr_mult: 2
  }
  inner_product_param {
    num_output: 1
    weight_filler {
      type: "gaussian"
      std: 0.1
    }
    bias_filler {
      type: "constant"
    }
  }
}
layer {
  name: "loss"
  type: "HuberLoss"
  bottom: "ip3"
  bottom: "label"
  top: "loss"
  include {
    phase: TRAIN
  }
}
I0505 16:16:02.753310  8092 layer_factory.hpp:77] Creating layer parameters
I0505 16:16:02.753326  8092 net.cpp:94] Creating Layer parameters
I0505 16:16:02.753331  8092 net.cpp:409] parameters -> data
I0505 16:16:02.753340  8092 net.cpp:409] parameters -> label
I0505 16:16:02.753347  8092 hdf5_data_layer.cpp:79] Loading list of HDF5 filenames from: /home/purduethu/scratch/radon/d/deng106/CNNStatisticalModel/distributions/input/50_distributions_100_sample_size_train-parameters-path.txt
I0505 16:16:02.753361  8092 hdf5_data_layer.cpp:93] Number of HDF5 files: 1
I0505 16:16:02.753913  8092 hdf5.cpp:32] Datatype class: H5T_FLOAT
I0505 16:16:02.917322  8092 net.cpp:144] Setting up parameters
I0505 16:16:02.917352  8092 net.cpp:151] Top shape: 20 1 10 10 (2000)
I0505 16:16:02.917358  8092 net.cpp:151] Top shape: 20 (20)
I0505 16:16:02.917361  8092 net.cpp:159] Memory required for data: 8080
I0505 16:16:02.917368  8092 layer_factory.hpp:77] Creating layer conv1
I0505 16:16:02.917383  8092 net.cpp:94] Creating Layer conv1
I0505 16:16:02.917388  8092 net.cpp:435] conv1 <- data
I0505 16:16:02.917394  8092 net.cpp:409] conv1 -> conv1
I0505 16:16:02.921658  8092 net.cpp:144] Setting up conv1
I0505 16:16:02.921674  8092 net.cpp:151] Top shape: 20 64 10 10 (128000)
I0505 16:16:02.921679  8092 net.cpp:159] Memory required for data: 520080
I0505 16:16:02.921689  8092 layer_factory.hpp:77] Creating layer relu1
I0505 16:16:02.921696  8092 net.cpp:94] Creating Layer relu1
I0505 16:16:02.921700  8092 net.cpp:435] relu1 <- conv1
I0505 16:16:02.921705  8092 net.cpp:396] relu1 -> conv1 (in-place)
I0505 16:16:02.921711  8092 net.cpp:144] Setting up relu1
I0505 16:16:02.921716  8092 net.cpp:151] Top shape: 20 64 10 10 (128000)
I0505 16:16:02.921720  8092 net.cpp:159] Memory required for data: 1032080
I0505 16:16:02.921722  8092 layer_factory.hpp:77] Creating layer pool1
I0505 16:16:02.921728  8092 net.cpp:94] Creating Layer pool1
I0505 16:16:02.921731  8092 net.cpp:435] pool1 <- conv1
I0505 16:16:02.921736  8092 net.cpp:409] pool1 -> pool1
I0505 16:16:02.921795  8092 net.cpp:144] Setting up pool1
I0505 16:16:02.921802  8092 net.cpp:151] Top shape: 20 64 5 5 (32000)
I0505 16:16:02.921805  8092 net.cpp:159] Memory required for data: 1160080
I0505 16:16:02.921809  8092 layer_factory.hpp:77] Creating layer conv2
I0505 16:16:02.921818  8092 net.cpp:94] Creating Layer conv2
I0505 16:16:02.921821  8092 net.cpp:435] conv2 <- pool1
I0505 16:16:02.921825  8092 net.cpp:409] conv2 -> conv2
I0505 16:16:02.930904  8092 net.cpp:144] Setting up conv2
I0505 16:16:02.930920  8092 net.cpp:151] Top shape: 20 128 5 5 (64000)
I0505 16:16:02.930924  8092 net.cpp:159] Memory required for data: 1416080
I0505 16:16:02.930932  8092 layer_factory.hpp:77] Creating layer relu2
I0505 16:16:02.930938  8092 net.cpp:94] Creating Layer relu2
I0505 16:16:02.930943  8092 net.cpp:435] relu2 <- conv2
I0505 16:16:02.930946  8092 net.cpp:396] relu2 -> conv2 (in-place)
I0505 16:16:02.930953  8092 net.cpp:144] Setting up relu2
I0505 16:16:02.930958  8092 net.cpp:151] Top shape: 20 128 5 5 (64000)
I0505 16:16:02.930960  8092 net.cpp:159] Memory required for data: 1672080
I0505 16:16:02.930963  8092 layer_factory.hpp:77] Creating layer conv3
I0505 16:16:02.930971  8092 net.cpp:94] Creating Layer conv3
I0505 16:16:02.930974  8092 net.cpp:435] conv3 <- conv2
I0505 16:16:02.930979  8092 net.cpp:409] conv3 -> conv3
I0505 16:16:02.945621  8092 net.cpp:144] Setting up conv3
I0505 16:16:02.945636  8092 net.cpp:151] Top shape: 20 128 5 5 (64000)
I0505 16:16:02.945639  8092 net.cpp:159] Memory required for data: 1928080
I0505 16:16:02.945648  8092 layer_factory.hpp:77] Creating layer relu3
I0505 16:16:02.945662  8092 net.cpp:94] Creating Layer relu3
I0505 16:16:02.945665  8092 net.cpp:435] relu3 <- conv3
I0505 16:16:02.945670  8092 net.cpp:396] relu3 -> conv3 (in-place)
I0505 16:16:02.945677  8092 net.cpp:144] Setting up relu3
I0505 16:16:02.945683  8092 net.cpp:151] Top shape: 20 128 5 5 (64000)
I0505 16:16:02.945685  8092 net.cpp:159] Memory required for data: 2184080
I0505 16:16:02.945688  8092 layer_factory.hpp:77] Creating layer pool3
I0505 16:16:02.945694  8092 net.cpp:94] Creating Layer pool3
I0505 16:16:02.945698  8092 net.cpp:435] pool3 <- conv3
I0505 16:16:02.945701  8092 net.cpp:409] pool3 -> pool3
I0505 16:16:02.945741  8092 net.cpp:144] Setting up pool3
I0505 16:16:02.945749  8092 net.cpp:151] Top shape: 20 128 2 2 (10240)
I0505 16:16:02.945752  8092 net.cpp:159] Memory required for data: 2225040
I0505 16:16:02.945755  8092 layer_factory.hpp:77] Creating layer ip1
I0505 16:16:02.945765  8092 net.cpp:94] Creating Layer ip1
I0505 16:16:02.945768  8092 net.cpp:435] ip1 <- pool3
I0505 16:16:02.945773  8092 net.cpp:409] ip1 -> ip1
I0505 16:16:02.952862  8092 net.cpp:144] Setting up ip1
I0505 16:16:02.952875  8092 net.cpp:151] Top shape: 20 512 (10240)
I0505 16:16:02.952879  8092 net.cpp:159] Memory required for data: 2266000
I0505 16:16:02.952885  8092 layer_factory.hpp:77] Creating layer ip2
I0505 16:16:02.952893  8092 net.cpp:94] Creating Layer ip2
I0505 16:16:02.952896  8092 net.cpp:435] ip2 <- ip1
I0505 16:16:02.952901  8092 net.cpp:409] ip2 -> ip2
I0505 16:16:02.956851  8092 net.cpp:144] Setting up ip2
I0505 16:16:02.956867  8092 net.cpp:151] Top shape: 20 256 (5120)
I0505 16:16:02.956871  8092 net.cpp:159] Memory required for data: 2286480
I0505 16:16:02.956879  8092 layer_factory.hpp:77] Creating layer ip3
I0505 16:16:02.956885  8092 net.cpp:94] Creating Layer ip3
I0505 16:16:02.956889  8092 net.cpp:435] ip3 <- ip2
I0505 16:16:02.956894  8092 net.cpp:409] ip3 -> ip3
I0505 16:16:02.957005  8092 net.cpp:144] Setting up ip3
I0505 16:16:02.957010  8092 net.cpp:151] Top shape: 20 1 (20)
I0505 16:16:02.957015  8092 net.cpp:159] Memory required for data: 2286560
I0505 16:16:02.957020  8092 layer_factory.hpp:77] Creating layer loss
I0505 16:16:02.957029  8092 net.cpp:94] Creating Layer loss
I0505 16:16:02.957033  8092 net.cpp:435] loss <- ip3
I0505 16:16:02.957036  8092 net.cpp:435] loss <- label
I0505 16:16:02.957041  8092 net.cpp:409] loss -> loss
I0505 16:16:02.957093  8092 net.cpp:144] Setting up loss
…
I0505 16:16:03.031306  8092 net.cpp:323] The NetState phase (0) differed from the phase (1) specified by a rule in layer intercept
I0505 16:16:03.031318  8092 net.cpp:323] The NetState phase (0) differed from the phase (1) specified by a rule in layer accuracy
I0505 16:16:03.031391  8092 net.cpp:52] Initializing net from parameters: 
state {
  phase: TRAIN
}
layer {
  name: "parameters"
  type: "HDF5Data"
  top: "data"
  top: "label"
  include {
    phase: TRAIN
  }
  hdf5_data_param {
    source: "/home/purduethu/scratch/radon/d/deng106/CNNStatisticalModel/distributions/input/50_distributions_100_sample_size_train-distributions-path.txt"
    batch_size: 20
  }
}
layer {
  name: "conv1"
  type: "Convolution"
  bottom: "data"
  top: "conv1"
  param {
    lr_mult: 1
  }
  param {
    lr_mult: 2
  }
  convolution_param {
    num_output: 64
    pad: 2
    kernel_size: 5
    stride: 1
    weight_filler {
      type: "gaussian"
      std: 0.0001
    }
    bias_filler {
      type: "constant"
    }
  }
}
layer {
  name: "relu1"
  type: "ReLU"
  bottom: "conv1"
  top: "conv1"
}
layer {
  name: "pool1"
  type: "Pooling"
  bottom: "conv1"
  top: "pool1"
  pooling_param {
    pool: MAX
    kernel_size: 3
    stride: 2
  }
}
layer {
  name: "conv2"
  type: "Convolution"
  bottom: "pool1"
  top: "conv2"
  param {
    lr_mult: 1
  }
  param {
    lr_mult: 2
  }
  convolution_param {
    num_output: 128
    pad: 2
    kernel_size: 5
    stride: 1
    weight_filler {
      type: "gaussian"
      std: 0.01
    }
    bias_filler {
      type: "constant"
    }
  }
}
layer {
  name: "relu2"
  type: "ReLU"
  bottom: "conv2"
  top: "conv2"
}
layer {
  name: "conv3"
  type: "Convolution"
  bottom: "conv2"
  top: "conv3"
  param {
    lr_mult: 1
  }
  param {
    lr_mult: 2
  }
  convolution_param {
    num_output: 128
    pad: 2
    kernel_size: 5
    stride: 1
    weight_filler {
      type: "gaussian"
      std: 0.01
    }
    bias_filler {
      type: "constant"
    }
  }
}
layer {
  name: "relu3"
  type: "ReLU"
  bottom: "conv3"
  top: "conv3"
}
layer {
  name: "pool3"
  type: "Pooling"
  bottom: "conv3"
  top: "pool3"
  pooling_param {
    pool: AVE
    kernel_size: 3
    stride: 2
  }
}
layer {
  name: "ip1"
  type: "InnerProduct"
  bottom: "pool3"
  top: "ip1"
  param {
    lr_mult: 1
  }
  param {
    lr_mult: 2
  }
  inner_product_param {
    num_output: 512
    weight_filler {
      type: "gaussian"
      std: 0.1
    }
    bias_filler {
      type: "constant"
    }
  }
}
layer {
  name: "ip2"
  type: "InnerProduct"
  bottom: "ip1"
  top: "ip2"
  param {
    lr_mult: 1
  }
  param {
    lr_mult: 2
  }
  inner_product_param {
    num_output: 256
    weight_filler {
      type: "gaussian"
      std: 0.1
    }
    bias_filler {
      type: "constant"
    }
  }
}
layer {
  name: "ip3"
  type: "InnerProduct"
  bottom: "ip2"
  top: "ip3"
  param {
    lr_mult: 1
  }
  param {
    lr_mult: 2
  }
  inner_product_param {
    num_output: 50
    weight_filler {
      type: "gaussian"
      std: 0.1
    }
    bias_filler {
      type: "constant"
    }
  }
}
layer {
  name: "loss"
  type: "SoftmaxWithLoss"
  bottom: "ip3"
  bottom: "label"
  top: "loss"
}
I0505 16:16:03.031435  8092 layer_factory.hpp:77] Creating layer parameters
I0505 16:16:03.031441  8092 net.cpp:94] Creating Layer parameters
I0505 16:16:03.031445  8092 net.cpp:409] parameters -> data
I0505 16:16:03.031452  8092 net.cpp:409] parameters -> label
I0505 16:16:03.031458  8092 hdf5_data_layer.cpp:79] Loading list of HDF5 filenames from: /home/purduethu/scratch/radon/d/deng106/CNNStatisticalModel/distributions/input/50_distributions_100_sample_size_train-distributions-path.txt
I0505 16:16:03.031472  8092 hdf5_data_layer.cpp:93] Number of HDF5 files: 1
I0505 16:16:03.187618  8092 hdf5.cpp:35] Datatype class: H5T_INTEGER
I0505 16:16:03.190698  8092 net.cpp:144] Setting up parameters
I0505 16:16:03.190721  8092 net.cpp:151] Top shape: 20 1 10 10 (2000)
I0505 16:16:03.190726  8092 net.cpp:151] Top shape: 20 (20)
I0505 16:16:03.190729  8092 net.cpp:159] Memory required for data: 8080
I0505 16:16:03.190735  8092 layer_factory.hpp:77] Creating layer conv1
I0505 16:16:03.190752  8092 net.cpp:94] Creating Layer conv1
I0505 16:16:03.190757  8092 net.cpp:435] conv1 <- data
I0505 16:16:03.190762  8092 net.cpp:409] conv1 -> conv1
I0505 16:16:03.192651  8092 net.cpp:144] Setting up conv1
I0505 16:16:03.192665  8092 net.cpp:151] Top shape: 20 64 10 10 (128000)
I0505 16:16:03.192669  8092 net.cpp:159] Memory required for data: 520080
I0505 16:16:03.192679  8092 layer_factory.hpp:77] Creating layer relu1
I0505 16:16:03.192687  8092 net.cpp:94] Creating Layer relu1
I0505 16:16:03.192690  8092 net.cpp:435] relu1 <- conv1
I0505 16:16:03.192694  8092 net.cpp:396] relu1 -> conv1 (in-place)
I0505 16:16:03.192701  8092 net.cpp:144] Setting up relu1
I0505 16:16:03.192706  8092 net.cpp:151] Top shape: 20 64 10 10 (128000)
I0505 16:16:03.192709  8092 net.cpp:159] Memory required for data: 1032080
I0505 16:16:03.192713  8092 layer_factory.hpp:77] Creating layer pool1
I0505 16:16:03.192718  8092 net.cpp:94] Creating Layer pool1
I0505 16:16:03.192721  8092 net.cpp:435] pool1 <- conv1
I0505 16:16:03.192731  8092 net.cpp:409] pool1 -> pool1
I0505 16:16:03.192790  8092 net.cpp:144] Setting up pool1
I0505 16:16:03.192797  8092 net.cpp:151] Top shape: 20 64 5 5 (32000)
I0505 16:16:03.192801  8092 net.cpp:159] Memory required for data: 1160080
I0505 16:16:03.192804  8092 layer_factory.hpp:77] Creating layer conv2
I0505 16:16:03.192812  8092 net.cpp:94] Creating Layer conv2
I0505 16:16:03.192816  8092 net.cpp:435] conv2 <- pool1
I0505 16:16:03.192821  8092 net.cpp:409] conv2 -> conv2
I0505 16:16:03.201941  8092 net.cpp:144] Setting up conv2
I0505 16:16:03.201956  8092 net.cpp:151] Top shape: 20 128 5 5 (64000)
I0505 16:16:03.201961  8092 net.cpp:159] Memory required for data: 1416080
I0505 16:16:03.201967  8092 layer_factory.hpp:77] Creating layer relu2
I0505 16:16:03.201973  8092 net.cpp:94] Creating Layer relu2
I0505 16:16:03.201977  8092 net.cpp:435] relu2 <- conv2
I0505 16:16:03.201982  8092 net.cpp:396] relu2 -> conv2 (in-place)
I0505 16:16:03.201988  8092 net.cpp:144] Setting up relu2
I0505 16:16:03.201992  8092 net.cpp:151] Top shape: 20 128 5 5 (64000)
I0505 16:16:03.201995  8092 net.cpp:159] Memory required for data: 1672080
I0505 16:16:03.201998  8092 layer_factory.hpp:77] Creating layer conv3
I0505 16:16:03.202006  8092 net.cpp:94] Creating Layer conv3
I0505 16:16:03.202009  8092 net.cpp:435] conv3 <- conv2
I0505 16:16:03.202014  8092 net.cpp:409] conv3 -> conv3
I0505 16:16:03.216269  8092 net.cpp:144] Setting up conv3
I0505 16:16:03.216305  8092 net.cpp:151] Top shape: 20 128 5 5 (64000)
I0505 16:16:03.216316  8092 net.cpp:159] Memory required for data: 1928080
I0505 16:16:03.216338  8092 layer_factory.hpp:77] Creating layer relu3
I0505 16:16:03.216354  8092 net.cpp:94] Creating Layer relu3
I0505 16:16:03.216364  8092 net.cpp:435] relu3 <- conv3
I0505 16:16:03.216377  8092 net.cpp:396] relu3 -> conv3 (in-place)
I0505 16:16:03.216397  8092 net.cpp:144] Setting up relu3
I0505 16:16:03.216409  8092 net.cpp:151] Top shape: 20 128 5 5 (64000)
I0505 16:16:03.216418  8092 net.cpp:159] Memory required for data: 2184080
I0505 16:16:03.216426  8092 layer_factory.hpp:77] Creating layer pool3
I0505 16:16:03.216441  8092 net.cpp:94] Creating Layer pool3
I0505 16:16:03.216450  8092 net.cpp:435] pool3 <- conv3
I0505 16:16:03.216462  8092 net.cpp:409] pool3 -> pool3
I0505 16:16:03.216583  8092 net.cpp:144] Setting up pool3
I0505 16:16:03.216604  8092 net.cpp:151] Top shape: 20 128 2 2 (10240)
I0505 16:16:03.216614  8092 net.cpp:159] Memory required for data: 2225040
I0505 16:16:03.216622  8092 layer_factory.hpp:77] Creating layer ip1
I0505 16:16:03.216639  8092 net.cpp:94] Creating Layer ip1
I0505 16:16:03.216648  8092 net.cpp:435] ip1 <- pool3
I0505 16:16:03.216662  8092 net.cpp:409] ip1 -> ip1
I0505 16:16:03.222869  8092 net.cpp:144] Setting up ip1
I0505 16:16:03.222878  8092 net.cpp:151] Top shape: 20 512 (10240)
I0505 16:16:03.222882  8092 net.cpp:159] Memory required for data: 2266000
I0505 16:16:03.222887  8092 layer_factory.hpp:77] Creating layer ip2
I0505 16:16:03.222893  8092 net.cpp:94] Creating Layer ip2
I0505 16:16:03.222898  8092 net.cpp:435] ip2 <- ip1
I0505 16:16:03.222901  8092 net.cpp:409] ip2 -> ip2
I0505 16:16:03.226078  8092 net.cpp:144] Setting up ip2
I0505 16:16:03.226088  8092 net.cpp:151] Top shape: 20 256 (5120)
I0505 16:16:03.226090  8092 net.cpp:159] Memory required for data: 2286480
I0505 16:16:03.226097  8092 layer_factory.hpp:77] Creating layer ip3
I0505 16:16:03.226104  8092 net.cpp:94] Creating Layer ip3
I0505 16:16:03.226106  8092 net.cpp:435] ip3 <- ip2
I0505 16:16:03.226111  8092 net.cpp:409] ip3 -> ip3
I0505 16:16:03.227355  8092 net.cpp:144] Setting up ip3
I0505 16:16:03.227367  8092 net.cpp:151] Top shape: 20 50 (1000)
I0505 16:16:03.227371  8092 net.cpp:159] Memory required for data: 2290480
I0505 16:16:03.227377  8092 layer_factory.hpp:77] Creating layer loss
I0505 16:16:03.227385  8092 net.cpp:94] Creating Layer loss
I0505 16:16:03.227387  8092 net.cpp:435] loss <- ip3
I0505 16:16:03.227391  8092 net.cpp:435] loss <- label
I0505 16:16:03.227396  8092 net.cpp:409] loss -> loss
I0505 16:16:03.227408  8092 layer_factory.hpp:77] Creating layer loss
…
I0505 16:16:03.227849  8092 solver.cpp:181] Creating test net (#0) specified by net file: ./protocol/dis_50_100_dimension.protocol_distribution
I0505 16:16:03.227870  8092 net.cpp:323] The NetState phase (1) differed from the phase (0) specified by a rule in layer parameters
I0505 16:16:03.227948  8092 net.cpp:52] Initializing net from parameters: 
state {
  phase: TEST
}
layer {
  name: "intercept"
  type: "HDF5Data"
  top: "data"
  top: "label"
  include {
    phase: TEST
  }
  hdf5_data_param {
    source: "/home/purduethu/scratch/radon/d/deng106/CNNStatisticalModel/distributions/input/50_distributions_100_sample_size_test-distributions-path.txt"
    batch_size: 20
  }
}
layer {
  name: "conv1"
  type: "Convolution"
  bottom: "data"
  top: "conv1"
  param {
    lr_mult: 1
  }
  param {
    lr_mult: 2
  }
  convolution_param {
    num_output: 64
    pad: 2
    kernel_size: 5
    stride: 1
    weight_filler {
      type: "gaussian"
      std: 0.0001
    }
    bias_filler {
      type: "constant"
    }
  }
}
layer {
  name: "relu1"
  type: "ReLU"
  bottom: "conv1"
  top: "conv1"
}
layer {
  name: "pool1"
  type: "Pooling"
  bottom: "conv1"
  top: "pool1"
  pooling_param {
    pool: MAX
    kernel_size: 3
    stride: 2
  }
}
layer {
  name: "conv2"
  type: "Convolution"
  bottom: "pool1"
  top: "conv2"
  param {
    lr_mult: 1
  }
  param {
    lr_mult: 2
  }
  convolution_param {
    num_output: 128
    pad: 2
    kernel_size: 5
    stride: 1
    weight_filler {
      type: "gaussian"
      std: 0.01
    }
    bias_filler {
      type: "constant"
    }
  }
}
layer {
  name: "relu2"
  type: "ReLU"
  bottom: "conv2"
  top: "conv2"
}
layer {
  name: "conv3"
  type: "Convolution"
  bottom: "conv2"
  top: "conv3"
  param {
    lr_mult: 1
  }
  param {
    lr_mult: 2
  }
  convolution_param {
    num_output: 128
    pad: 2
    kernel_size: 5
    stride: 1
    weight_filler {
      type: "gaussian"
      std: 0.01
    }
    bias_filler {
      type: "constant"
    }
  }
}
layer {
  name: "relu3"
  type: "ReLU"
  bottom: "conv3"
  top: "conv3"
}
layer {
  name: "pool3"
  type: "Pooling"
  bottom: "conv3"
  top: "pool3"
  pooling_param {
    pool: AVE
    kernel_size: 3
    stride: 2
  }
}
layer {
  name: "ip1"
  type: "InnerProduct"
  bottom: "pool3"
  top: "ip1"
  param {
    lr_mult: 1
  }
  param {
    lr_mult: 2
  }
  inner_product_param {
    num_output: 512
    weight_filler {
      type: "gaussian"
      std: 0.1
    }
    bias_filler {
      type: "constant"
    }
  }
}
layer {
  name: "ip2"
  type: "InnerProduct"
  bottom: "ip1"
  top: "ip2"
  param {
    lr_mult: 1
  }
  param {
    lr_mult: 2
  }
  inner_product_param {
    num_output: 256
    weight_filler {
      type: "gaussian"
      std: 0.1
    }
    bias_filler {
      type: "constant"
    }
  }
}
layer {
  name: "ip3"
  type: "InnerProduct"
  bottom: "ip2"
  top: "ip3"
  param {
    lr_mult: 1
  }
  param {
    lr_mult: 2
  }
  inner_product_param {
    num_output: 50
    weight_filler {
      type: "gaussian"
      std: 0.1
    }
    bias_filler {
      type: "constant"
    }
  }
}
layer {
  name: "accuracy"
  type: "Accuracy"
  bottom: "ip3"
  bottom: "label"
  top: "accuracy"
  include {
    phase: TEST
  }
}
layer {
  name: "loss"
  type: "SoftmaxWithLoss"
  bottom: "ip3"
  bottom: "label"
  top: "loss"
}
I0505 16:16:03.228003  8092 layer_factory.hpp:77] Creating layer intercept
I0505 16:16:03.228010  8092 net.cpp:94] Creating Layer intercept
I0505 16:16:03.228014  8092 net.cpp:409] intercept -> data
I0505 16:16:03.228021  8092 net.cpp:409] intercept -> label
I0505 16:16:03.228027  8092 hdf5_data_layer.cpp:79] Loading list of HDF5 filenames from: /home/purduethu/scratch/radon/d/deng106/CNNStatisticalModel/distributions/input/50_distributions_100_sample_size_test-distributions-path.txt
I0505 16:16:03.228045  8092 hdf5_data_layer.cpp:93] Number of HDF5 files: 1
I0505 16:16:03.269034  8092 net.cpp:144] Setting up intercept
I0505 16:16:03.269069  8092 net.cpp:151] Top shape: 20 1 10 10 (2000)
I0505 16:16:03.269074  8092 net.cpp:151] Top shape: 20 (20)
I0505 16:16:03.269078  8092 net.cpp:159] Memory required for data: 8080
I0505 16:16:03.269084  8092 layer_factory.hpp:77] Creating layer label_intercept_1_split
I0505 16:16:03.269103  8092 net.cpp:94] Creating Layer label_intercept_1_split
I0505 16:16:03.269106  8092 net.cpp:435] label_intercept_1_split <- label
I0505 16:16:03.269112  8092 net.cpp:409] label_intercept_1_split -> label_intercept_1_split_0
I0505 16:16:03.269120  8092 net.cpp:409] label_intercept_1_split -> label_intercept_1_split_1
I0505 16:16:03.269163  8092 net.cpp:144] Setting up label_intercept_1_split
I0505 16:16:03.269170  8092 net.cpp:151] Top shape: 20 (20)
I0505 16:16:03.269173  8092 net.cpp:151] Top shape: 20 (20)
I0505 16:16:03.269176  8092 net.cpp:159] Memory required for data: 8240
I0505 16:16:03.269179  8092 layer_factory.hpp:77] Creating layer conv1
I0505 16:16:03.269191  8092 net.cpp:94] Creating Layer conv1
I0505 16:16:03.269194  8092 net.cpp:435] conv1 <- data
I0505 16:16:03.269199  8092 net.cpp:409] conv1 -> conv1
I0505 16:16:03.270078  8092 net.cpp:144] Setting up conv1
I0505 16:16:03.270092  8092 net.cpp:151] Top shape: 20 64 10 10 (128000)
I0505 16:16:03.270095  8092 net.cpp:159] Memory required for data: 520240
I0505 16:16:03.270104  8092 layer_factory.hpp:77] Creating layer relu1
I0505 16:16:03.270112  8092 net.cpp:94] Creating Layer relu1
I0505 16:16:03.270115  8092 net.cpp:435] relu1 <- conv1
I0505 16:16:03.270119  8092 net.cpp:396] relu1 -> conv1 (in-place)
I0505 16:16:03.270126  8092 net.cpp:144] Setting up relu1
I0505 16:16:03.270130  8092 net.cpp:151] Top shape: 20 64 10 10 (128000)
I0505 16:16:03.270133  8092 net.cpp:159] Memory required for data: 1032240
I0505 16:16:03.270136  8092 layer_factory.hpp:77] Creating layer pool1
I0505 16:16:03.270143  8092 net.cpp:94] Creating Layer pool1
I0505 16:16:03.270146  8092 net.cpp:435] pool1 <- conv1
I0505 16:16:03.270150  8092 net.cpp:409] pool1 -> pool1
I0505 16:16:03.270210  8092 net.cpp:144] Setting up pool1
I0505 16:16:03.270217  8092 net.cpp:151] Top shape: 20 64 5 5 (32000)
I0505 16:16:03.270220  8092 net.cpp:159] Memory required for data: 1160240
I0505 16:16:03.270223  8092 layer_factory.hpp:77] Creating layer conv2
I0505 16:16:03.270231  8092 net.cpp:94] Creating Layer conv2
I0505 16:16:03.270236  8092 net.cpp:435] conv2 <- pool1
I0505 16:16:03.270241  8092 net.cpp:409] conv2 -> conv2
I0505 16:16:03.277830  8092 net.cpp:144] Setting up conv2
I0505 16:16:03.277845  8092 net.cpp:151] Top shape: 20 128 5 5 (64000)
I0505 16:16:03.277849  8092 net.cpp:159] Memory required for data: 1416240
I0505 16:16:03.277858  8092 layer_factory.hpp:77] Creating layer relu2
I0505 16:16:03.277869  8092 net.cpp:94] Creating Layer relu2
I0505 16:16:03.277873  8092 net.cpp:435] relu2 <- conv2
I0505 16:16:03.277878  8092 net.cpp:396] relu2 -> conv2 (in-place)
I0505 16:16:03.277885  8092 net.cpp:144] Setting up relu2
I0505 16:16:03.277889  8092 net.cpp:151] Top shape: 20 128 5 5 (64000)
I0505 16:16:03.277892  8092 net.cpp:159] Memory required for data: 1672240
I0505 16:16:03.277895  8092 layer_factory.hpp:77] Creating layer conv3
I0505 16:16:03.277902  8092 net.cpp:94] Creating Layer conv3
I0505 16:16:03.277906  8092 net.cpp:435] conv3 <- conv2
I0505 16:16:03.277911  8092 net.cpp:409] conv3 -> conv3
I0505 16:16:03.290539  8092 net.cpp:144] Setting up conv3
I0505 16:16:03.290552  8092 net.cpp:151] Top shape: 20 128 5 5 (64000)
I0505 16:16:03.290556  8092 net.cpp:159] Memory required for data: 1928240
I0505 16:16:03.290565  8092 layer_factory.hpp:77] Creating layer relu3
I0505 16:16:03.290570  8092 net.cpp:94] Creating Layer relu3
I0505 16:16:03.290575  8092 net.cpp:435] relu3 <- conv3
I0505 16:16:03.290580  8092 net.cpp:396] relu3 -> conv3 (in-place)
I0505 16:16:03.290585  8092 net.cpp:144] Setting up relu3
I0505 16:16:03.290591  8092 net.cpp:151] Top shape: 20 128 5 5 (64000)
I0505 16:16:03.290593  8092 net.cpp:159] Memory required for data: 2184240
I0505 16:16:03.290596  8092 layer_factory.hpp:77] Creating layer pool3
I0505 16:16:03.290601  8092 net.cpp:94] Creating Layer pool3
I0505 16:16:03.290604  8092 net.cpp:435] pool3 <- conv3
I0505 16:16:03.290608  8092 net.cpp:409] pool3 -> pool3
I0505 16:16:03.290647  8092 net.cpp:144] Setting up pool3
I0505 16:16:03.290653  8092 net.cpp:151] Top shape: 20 128 2 2 (10240)
I0505 16:16:03.290657  8092 net.cpp:159] Memory required for data: 2225200
I0505 16:16:03.290659  8092 layer_factory.hpp:77] Creating layer ip1
I0505 16:16:03.290666  8092 net.cpp:94] Creating Layer ip1
I0505 16:16:03.290669  8092 net.cpp:435] ip1 <- pool3
I0505 16:16:03.290673  8092 net.cpp:409] ip1 -> ip1
I0505 16:16:03.296936  8092 net.cpp:144] Setting up ip1
I0505 16:16:03.296946  8092 net.cpp:151] Top shape: 20 512 (10240)
I0505 16:16:03.296948  8092 net.cpp:159] Memory required for data: 2266160
I0505 16:16:03.296954  8092 layer_factory.hpp:77] Creating layer ip2
I0505 16:16:03.296960  8092 net.cpp:94] Creating Layer ip2
I0505 16:16:03.296963  8092 net.cpp:435] ip2 <- ip1
I0505 16:16:03.296969  8092 net.cpp:409] ip2 -> ip2
I0505 16:16:03.300967  8092 net.cpp:144] Setting up ip2
I0505 16:16:03.300981  8092 net.cpp:151] Top shape: 20 256 (5120)
I0505 16:16:03.300984  8092 net.cpp:159] Memory required for data: 2286640
I0505 16:16:03.300992  8092 layer_factory.hpp:77] Creating layer ip3
I0505 16:16:03.301000  8092 net.cpp:94] Creating Layer ip3
I0505 16:16:03.301004  8092 net.cpp:435] ip3 <- ip2
I0505 16:16:03.301009  8092 net.cpp:409] ip3 -> ip3
I0505 16:16:03.301446  8092 net.cpp:144] Setting up ip3
I0505 16:16:03.301455  8092 net.cpp:151] Top shape: 20 50 (1000)
I0505 16:16:03.301458  8092 net.cpp:159] Memory required for data: 2290640
I0505 16:16:03.301463  8092 layer_factory.hpp:77] Creating layer ip3_ip3_0_split
I0505 16:16:03.301470  8092 net.cpp:94] Creating Layer ip3_ip3_0_split
I0505 16:16:03.301472  8092 net.cpp:435] ip3_ip3_0_split <- ip3
I0505 16:16:03.301476  8092 net.cpp:409] ip3_ip3_0_split -> ip3_ip3_0_split_0
I0505 16:16:03.301481  8092 net.cpp:409] ip3_ip3_0_split -> ip3_ip3_0_split_1
I0505 16:16:03.301525  8092 net.cpp:144] Setting up ip3_ip3_0_split
I0505 16:16:03.301532  8092 net.cpp:151] Top shape: 20 50 (1000)
I0505 16:16:03.301534  8092 net.cpp:151] Top shape: 20 50 (1000)
I0505 16:16:03.301537  8092 net.cpp:159] Memory required for data: 2298640
I0505 16:16:03.301542  8092 layer_factory.hpp:77] Creating layer accuracy
I0505 16:16:03.301547  8092 net.cpp:94] Creating Layer accuracy
I0505 16:16:03.301549  8092 net.cpp:435] accuracy <- ip3_ip3_0_split_0
I0505 16:16:03.301553  8092 net.cpp:435] accuracy <- label_intercept_1_split_0
I0505 16:16:03.301558  8092 net.cpp:409] accuracy -> accuracy
…
