…
I0505 07:46:00.173549  4790 net.cpp:323] The NetState phase (0) differed from the phase (1) specified by a rule in layer intercept
I0505 07:46:00.173564  4790 net.cpp:323] The NetState phase (0) differed from the phase (1) specified by a rule in layer loss
I0505 07:46:00.173641  4790 net.cpp:52] Initializing net from parameters: 
state {
  phase: TRAIN
}
layer {
  name: "parameters"
  type: "HDF5Data"
  top: "data"
  top: "label"
  include {
    phase: TRAIN
  }
  hdf5_data_param {
    source: "/home/purduethu/scratch/radon/d/deng106/CNNStatisticalModel/distributions/input/5_distributions_400_sample_size_train-parameters-path.txt"
    batch_size: 20
  }
}
layer {
  name: "conv1"
  type: "Convolution"
  bottom: "data"
  top: "conv1"
  param {
    lr_mult: 1
  }
  param {
    lr_mult: 2
  }
  convolution_param {
    num_output: 64
    pad: 2
    kernel_size: 5
    stride: 1
    weight_filler {
      type: "gaussian"
      std: 0.0001
    }
    bias_filler {
      type: "constant"
    }
  }
}
layer {
  name: "relu1"
  type: "ReLU"
  bottom: "conv1"
  top: "conv1"
}
layer {
  name: "pool1"
  type: "Pooling"
  bottom: "conv1"
  top: "pool1"
  pooling_param {
    pool: MAX
    kernel_size: 3
    stride: 2
  }
}
layer {
  name: "conv2"
  type: "Convolution"
  bottom: "pool1"
  top: "conv2"
  param {
    lr_mult: 1
  }
  param {
    lr_mult: 2
  }
  convolution_param {
    num_output: 128
    pad: 2
    kernel_size: 5
    stride: 1
    weight_filler {
      type: "gaussian"
      std: 0.01
    }
    bias_filler {
      type: "constant"
    }
  }
}
layer {
  name: "relu2"
  type: "ReLU"
  bottom: "conv2"
  top: "conv2"
}
layer {
  name: "conv3"
  type: "Convolution"
  bottom: "conv2"
  top: "conv3"
  param {
    lr_mult: 1
  }
  param {
    lr_mult: 2
  }
  convolution_param {
    num_output: 128
    pad: 2
    kernel_size: 5
    stride: 1
    weight_filler {
      type: "gaussian"
      std: 0.01
    }
    bias_filler {
      type: "constant"
    }
  }
}
layer {
  name: "relu3"
  type: "ReLU"
  bottom: "conv3"
  top: "conv3"
}
layer {
  name: "pool3"
  type: "Pooling"
  bottom: "conv3"
  top: "pool3"
  pooling_param {
    pool: AVE
    kernel_size: 3
    stride: 2
  }
}
layer {
  name: "ip1"
  type: "InnerProduct"
  bottom: "pool3"
  top: "ip1"
  param {
    lr_mult: 1
  }
  param {
    lr_mult: 2
  }
  inner_product_param {
    num_output: 512
    weight_filler {
      type: "gaussian"
      std: 0.1
    }
    bias_filler {
      type: "constant"
    }
  }
}
layer {
  name: "ip2"
  type: "InnerProduct"
  bottom: "ip1"
  top: "ip2"
  param {
    lr_mult: 1
  }
  param {
    lr_mult: 2
  }
  inner_product_param {
    num_output: 256
    weight_filler {
      type: "gaussian"
      std: 0.1
    }
    bias_filler {
      type: "constant"
    }
  }
}
layer {
  name: "ip3"
  type: "InnerProduct"
  bottom: "ip2"
  top: "ip3"
  param {
    lr_mult: 1
  }
  param {
    lr_mult: 2
  }
  inner_product_param {
    num_output: 1
    weight_filler {
      type: "gaussian"
      std: 0.1
    }
    bias_filler {
      type: "constant"
    }
  }
}
layer {
  name: "loss"
  type: "HuberLoss"
  bottom: "ip3"
  bottom: "label"
  top: "loss"
  include {
    phase: TRAIN
  }
}
I0505 07:46:00.173704  4790 layer_factory.hpp:77] Creating layer parameters
I0505 07:46:00.173718  4790 net.cpp:94] Creating Layer parameters
I0505 07:46:00.173732  4790 net.cpp:409] parameters -> data
I0505 07:46:00.173750  4790 net.cpp:409] parameters -> label
I0505 07:46:00.173760  4790 hdf5_data_layer.cpp:79] Loading list of HDF5 filenames from: /home/purduethu/scratch/radon/d/deng106/CNNStatisticalModel/distributions/input/5_distributions_400_sample_size_train-parameters-path.txt
I0505 07:46:00.173782  4790 hdf5_data_layer.cpp:93] Number of HDF5 files: 1
I0505 07:46:00.174262  4790 hdf5.cpp:32] Datatype class: H5T_FLOAT
I0505 07:46:00.260670  4790 net.cpp:144] Setting up parameters
I0505 07:46:00.260704  4790 net.cpp:151] Top shape: 20 1 20 20 (8000)
I0505 07:46:00.260710  4790 net.cpp:151] Top shape: 20 (20)
I0505 07:46:00.260713  4790 net.cpp:159] Memory required for data: 32080
I0505 07:46:00.260721  4790 layer_factory.hpp:77] Creating layer conv1
I0505 07:46:00.260746  4790 net.cpp:94] Creating Layer conv1
I0505 07:46:00.260751  4790 net.cpp:435] conv1 <- data
I0505 07:46:00.260762  4790 net.cpp:409] conv1 -> conv1
I0505 07:46:00.265641  4790 net.cpp:144] Setting up conv1
I0505 07:46:00.265657  4790 net.cpp:151] Top shape: 20 64 20 20 (512000)
I0505 07:46:00.265662  4790 net.cpp:159] Memory required for data: 2080080
I0505 07:46:00.265673  4790 layer_factory.hpp:77] Creating layer relu1
I0505 07:46:00.265681  4790 net.cpp:94] Creating Layer relu1
I0505 07:46:00.265686  4790 net.cpp:435] relu1 <- conv1
I0505 07:46:00.265691  4790 net.cpp:396] relu1 -> conv1 (in-place)
I0505 07:46:00.265707  4790 net.cpp:144] Setting up relu1
I0505 07:46:00.265712  4790 net.cpp:151] Top shape: 20 64 20 20 (512000)
I0505 07:46:00.265715  4790 net.cpp:159] Memory required for data: 4128080
I0505 07:46:00.265718  4790 layer_factory.hpp:77] Creating layer pool1
I0505 07:46:00.265727  4790 net.cpp:94] Creating Layer pool1
I0505 07:46:00.265730  4790 net.cpp:435] pool1 <- conv1
I0505 07:46:00.265734  4790 net.cpp:409] pool1 -> pool1
I0505 07:46:00.265775  4790 net.cpp:144] Setting up pool1
I0505 07:46:00.265782  4790 net.cpp:151] Top shape: 20 64 10 10 (128000)
I0505 07:46:00.265785  4790 net.cpp:159] Memory required for data: 4640080
I0505 07:46:00.265789  4790 layer_factory.hpp:77] Creating layer conv2
I0505 07:46:00.265799  4790 net.cpp:94] Creating Layer conv2
I0505 07:46:00.265801  4790 net.cpp:435] conv2 <- pool1
I0505 07:46:00.265806  4790 net.cpp:409] conv2 -> conv2
I0505 07:46:00.276731  4790 net.cpp:144] Setting up conv2
I0505 07:46:00.276747  4790 net.cpp:151] Top shape: 20 128 10 10 (256000)
I0505 07:46:00.276751  4790 net.cpp:159] Memory required for data: 5664080
I0505 07:46:00.276759  4790 layer_factory.hpp:77] Creating layer relu2
I0505 07:46:00.276765  4790 net.cpp:94] Creating Layer relu2
I0505 07:46:00.276769  4790 net.cpp:435] relu2 <- conv2
I0505 07:46:00.276774  4790 net.cpp:396] relu2 -> conv2 (in-place)
I0505 07:46:00.276782  4790 net.cpp:144] Setting up relu2
I0505 07:46:00.276785  4790 net.cpp:151] Top shape: 20 128 10 10 (256000)
I0505 07:46:00.276789  4790 net.cpp:159] Memory required for data: 6688080
I0505 07:46:00.276793  4790 layer_factory.hpp:77] Creating layer conv3
I0505 07:46:00.276800  4790 net.cpp:94] Creating Layer conv3
I0505 07:46:00.276803  4790 net.cpp:435] conv3 <- conv2
I0505 07:46:00.276808  4790 net.cpp:409] conv3 -> conv3
I0505 07:46:00.294857  4790 net.cpp:144] Setting up conv3
I0505 07:46:00.294872  4790 net.cpp:151] Top shape: 20 128 10 10 (256000)
I0505 07:46:00.294875  4790 net.cpp:159] Memory required for data: 7712080
I0505 07:46:00.294883  4790 layer_factory.hpp:77] Creating layer relu3
I0505 07:46:00.294890  4790 net.cpp:94] Creating Layer relu3
I0505 07:46:00.294899  4790 net.cpp:435] relu3 <- conv3
I0505 07:46:00.294905  4790 net.cpp:396] relu3 -> conv3 (in-place)
I0505 07:46:00.294912  4790 net.cpp:144] Setting up relu3
I0505 07:46:00.294917  4790 net.cpp:151] Top shape: 20 128 10 10 (256000)
I0505 07:46:00.294921  4790 net.cpp:159] Memory required for data: 8736080
I0505 07:46:00.294924  4790 layer_factory.hpp:77] Creating layer pool3
I0505 07:46:00.294930  4790 net.cpp:94] Creating Layer pool3
I0505 07:46:00.294934  4790 net.cpp:435] pool3 <- conv3
I0505 07:46:00.294945  4790 net.cpp:409] pool3 -> pool3
I0505 07:46:00.294980  4790 net.cpp:144] Setting up pool3
I0505 07:46:00.294986  4790 net.cpp:151] Top shape: 20 128 5 5 (64000)
I0505 07:46:00.294989  4790 net.cpp:159] Memory required for data: 8992080
I0505 07:46:00.294993  4790 layer_factory.hpp:77] Creating layer ip1
I0505 07:46:00.295002  4790 net.cpp:94] Creating Layer ip1
I0505 07:46:00.295006  4790 net.cpp:435] ip1 <- pool3
I0505 07:46:00.295011  4790 net.cpp:409] ip1 -> ip1
I0505 07:46:00.337153  4790 net.cpp:144] Setting up ip1
I0505 07:46:00.337172  4790 net.cpp:151] Top shape: 20 512 (10240)
I0505 07:46:00.337175  4790 net.cpp:159] Memory required for data: 9033040
I0505 07:46:00.337182  4790 layer_factory.hpp:77] Creating layer ip2
I0505 07:46:00.337189  4790 net.cpp:94] Creating Layer ip2
I0505 07:46:00.337193  4790 net.cpp:435] ip2 <- ip1
I0505 07:46:00.337199  4790 net.cpp:409] ip2 -> ip2
I0505 07:46:00.340456  4790 net.cpp:144] Setting up ip2
I0505 07:46:00.340464  4790 net.cpp:151] Top shape: 20 256 (5120)
I0505 07:46:00.340467  4790 net.cpp:159] Memory required for data: 9053520
I0505 07:46:00.340476  4790 layer_factory.hpp:77] Creating layer ip3
I0505 07:46:00.340481  4790 net.cpp:94] Creating Layer ip3
I0505 07:46:00.340484  4790 net.cpp:435] ip3 <- ip2
I0505 07:46:00.340489  4790 net.cpp:409] ip3 -> ip3
I0505 07:46:00.340559  4790 net.cpp:144] Setting up ip3
I0505 07:46:00.340565  4790 net.cpp:151] Top shape: 20 1 (20)
I0505 07:46:00.340569  4790 net.cpp:159] Memory required for data: 9053600
I0505 07:46:00.340575  4790 layer_factory.hpp:77] Creating layer loss
I0505 07:46:00.340584  4790 net.cpp:94] Creating Layer loss
I0505 07:46:00.340589  4790 net.cpp:435] loss <- ip3
I0505 07:46:00.340592  4790 net.cpp:435] loss <- label
I0505 07:46:00.340598  4790 net.cpp:409] loss -> loss
I0505 07:46:00.340633  4790 net.cpp:144] Setting up loss
…
