…
I0501 22:06:36.236461 15118 net.cpp:323] The NetState phase (0) differed from the phase (1) specified by a rule in layer intercept
I0501 22:06:36.236477 15118 net.cpp:323] The NetState phase (0) differed from the phase (1) specified by a rule in layer accuracy
I0501 22:06:36.236579 15118 net.cpp:52] Initializing net from parameters: 
state {
  phase: TRAIN
}
layer {
  name: "parameters"
  type: "HDF5Data"
  top: "data"
  top: "label"
  include {
    phase: TRAIN
  }
  hdf5_data_param {
    source: "/home/purduethu/scratch/radon/d/deng106/CNNStatisticalModel/distributions/input/5_distributions_100_sample_size_train-distributions-path.txt"
    batch_size: 20
  }
}
layer {
  name: "conv1"
  type: "Convolution"
  bottom: "data"
  top: "conv1"
  param {
    lr_mult: 1
  }
  param {
    lr_mult: 2
  }
  convolution_param {
    num_output: 64
    pad: 2
    kernel_size: 5
    stride: 1
    weight_filler {
      type: "gaussian"
      std: 0.0001
    }
    bias_filler {
      type: "constant"
    }
  }
}
layer {
  name: "relu1"
  type: "ReLU"
  bottom: "conv1"
  top: "conv1"
}
layer {
  name: "conv2"
  type: "Convolution"
  bottom: "conv1"
  top: "conv2"
  param {
    lr_mult: 1
  }
  param {
    lr_mult: 2
  }
  convolution_param {
    num_output: 64
    pad: 2
    kernel_size: 5
    stride: 1
    weight_filler {
      type: "gaussian"
      std: 0.01
    }
    bias_filler {
      type: "constant"
    }
  }
}
layer {
  name: "relu2"
  type: "ReLU"
  bottom: "conv2"
  top: "conv2"
}
layer {
  name: "pool2"
  type: "Pooling"
  bottom: "conv2"
  top: "pool2"
  pooling_param {
    pool: MAX
    kernel_size: 3
    stride: 2
  }
}
layer {
  name: "conv3"
  type: "Convolution"
  bottom: "pool2"
  top: "conv3"
  param {
    lr_mult: 1
  }
  param {
    lr_mult: 2
  }
  convolution_param {
    num_output: 64
    pad: 2
    kernel_size: 5
    stride: 1
    weight_filler {
      type: "gaussian"
      std: 0.01
    }
    bias_filler {
      type: "constant"
    }
  }
}
layer {
  name: "relu3"
  type: "ReLU"
  bottom: "conv3"
  top: "conv3"
}
layer {
  name: "conv4"
  type: "Convolution"
  bottom: "conv3"
  top: "conv4"
  param {
    lr_mult: 1
  }
  param {
    lr_mult: 2
  }
  convolution_param {
    num_output: 64
    pad: 2
    kernel_size: 5
    stride: 1
    weight_filler {
      type: "gaussian"
      std: 0.01
    }
    bias_filler {
      type: "constant"
    }
  }
}
layer {
  name: "relu4"
  type: "ReLU"
  bottom: "conv4"
  top: "conv4"
}
layer {
  name: "conv5"
  type: "Convolution"
  bottom: "conv4"
  top: "conv5"
  param {
    lr_mult: 1
  }
  param {
    lr_mult: 2
  }
  convolution_param {
    num_output: 64
    pad: 2
    kernel_size: 5
    stride: 1
    weight_filler {
      type: "gaussian"
      std: 0.01
    }
    bias_filler {
      type: "constant"
    }
  }
}
layer {
  name: "relu5"
  type: "ReLU"
  bottom: "conv5"
  top: "conv5"
}
layer {
  name: "pool5"
  type: "Pooling"
  bottom: "conv5"
  top: "pool5"
  pooling_param {
    pool: AVE
    kernel_size: 3
    stride: 2
  }
}
layer {
  name: "ip1"
  type: "InnerProduct"
  bottom: "pool5"
  top: "ip1"
  param {
    lr_mult: 1
  }
  param {
    lr_mult: 2
  }
  inner_product_param {
    num_output: 64
    weight_filler {
      type: "gaussian"
      std: 0.1
    }
    bias_filler {
      type: "constant"
    }
  }
}
layer {
  name: "ip2"
  type: "InnerProduct"
  bottom: "ip1"
  top: "ip2"
  param {
    lr_mult: 1
  }
  param {
    lr_mult: 2
  }
  inner_product_param {
    num_output: 64
    weight_filler {
      type: "gaussian"
      std: 0.1
    }
    bias_filler {
      type: "constant"
    }
  }
}
layer {
  name: "ip3"
  type: "InnerProduct"
  bottom: "ip2"
  top: "ip3"
  param {
    lr_mult: 1
  }
  param {
    lr_mult: 2
  }
  inner_product_param {
    num_output: 50
    weight_filler {
      type: "gaussian"
      std: 0.1
    }
    bias_filler {
      type: "constant"
    }
  }
}
layer {
  name: "loss"
  type: "SoftmaxWithLoss"
  bottom: "ip3"
  bottom: "label"
  top: "loss"
}
I0501 22:06:36.236657 15118 layer_factory.hpp:77] Creating layer parameters
I0501 22:06:36.236671 15118 net.cpp:94] Creating Layer parameters
I0501 22:06:36.236677 15118 net.cpp:409] parameters -> data
I0501 22:06:36.236696 15118 net.cpp:409] parameters -> label
I0501 22:06:36.236707 15118 hdf5_data_layer.cpp:79] Loading list of HDF5 filenames from: /home/purduethu/scratch/radon/d/deng106/CNNStatisticalModel/distributions/input/5_distributions_100_sample_size_train-distributions-path.txt
I0501 22:06:36.236729 15118 hdf5_data_layer.cpp:93] Number of HDF5 files: 1
I0501 22:06:36.237191 15118 hdf5.cpp:32] Datatype class: H5T_FLOAT
I0501 22:06:36.253299 15118 hdf5.cpp:35] Datatype class: H5T_INTEGER
I0501 22:06:36.254439 15118 net.cpp:144] Setting up parameters
I0501 22:06:36.254459 15118 net.cpp:151] Top shape: 20 1 10 10 (2000)
I0501 22:06:36.254464 15118 net.cpp:151] Top shape: 20 (20)
I0501 22:06:36.254468 15118 net.cpp:159] Memory required for data: 8080
I0501 22:06:36.254475 15118 layer_factory.hpp:77] Creating layer conv1
I0501 22:06:36.254494 15118 net.cpp:94] Creating Layer conv1
I0501 22:06:36.254500 15118 net.cpp:435] conv1 <- data
I0501 22:06:36.254510 15118 net.cpp:409] conv1 -> conv1
I0501 22:06:36.258390 15118 net.cpp:144] Setting up conv1
I0501 22:06:36.258405 15118 net.cpp:151] Top shape: 20 64 10 10 (128000)
I0501 22:06:36.258409 15118 net.cpp:159] Memory required for data: 520080
I0501 22:06:36.258421 15118 layer_factory.hpp:77] Creating layer relu1
I0501 22:06:36.258430 15118 net.cpp:94] Creating Layer relu1
I0501 22:06:36.258433 15118 net.cpp:435] relu1 <- conv1
I0501 22:06:36.258437 15118 net.cpp:396] relu1 -> conv1 (in-place)
I0501 22:06:36.258450 15118 net.cpp:144] Setting up relu1
I0501 22:06:36.258455 15118 net.cpp:151] Top shape: 20 64 10 10 (128000)
I0501 22:06:36.258457 15118 net.cpp:159] Memory required for data: 1032080
I0501 22:06:36.258460 15118 layer_factory.hpp:77] Creating layer conv2
I0501 22:06:36.258468 15118 net.cpp:94] Creating Layer conv2
I0501 22:06:36.258471 15118 net.cpp:435] conv2 <- conv1
I0501 22:06:36.258476 15118 net.cpp:409] conv2 -> conv2
I0501 22:06:36.264446 15118 net.cpp:144] Setting up conv2
I0501 22:06:36.264459 15118 net.cpp:151] Top shape: 20 64 10 10 (128000)
I0501 22:06:36.264463 15118 net.cpp:159] Memory required for data: 1544080
I0501 22:06:36.264472 15118 layer_factory.hpp:77] Creating layer relu2
I0501 22:06:36.264478 15118 net.cpp:94] Creating Layer relu2
I0501 22:06:36.264482 15118 net.cpp:435] relu2 <- conv2
I0501 22:06:36.264487 15118 net.cpp:396] relu2 -> conv2 (in-place)
I0501 22:06:36.264494 15118 net.cpp:144] Setting up relu2
I0501 22:06:36.264498 15118 net.cpp:151] Top shape: 20 64 10 10 (128000)
I0501 22:06:36.264502 15118 net.cpp:159] Memory required for data: 2056080
I0501 22:06:36.264505 15118 layer_factory.hpp:77] Creating layer pool2
I0501 22:06:36.264518 15118 net.cpp:94] Creating Layer pool2
I0501 22:06:36.264523 15118 net.cpp:435] pool2 <- conv2
I0501 22:06:36.264528 15118 net.cpp:409] pool2 -> pool2
I0501 22:06:36.264586 15118 net.cpp:144] Setting up pool2
I0501 22:06:36.264597 15118 net.cpp:151] Top shape: 20 64 5 5 (32000)
I0501 22:06:36.264601 15118 net.cpp:159] Memory required for data: 2184080
I0501 22:06:36.264605 15118 layer_factory.hpp:77] Creating layer conv3
I0501 22:06:36.264613 15118 net.cpp:94] Creating Layer conv3
I0501 22:06:36.264616 15118 net.cpp:435] conv3 <- pool2
I0501 22:06:36.264629 15118 net.cpp:409] conv3 -> conv3
I0501 22:06:36.269562 15118 net.cpp:144] Setting up conv3
I0501 22:06:36.269577 15118 net.cpp:151] Top shape: 20 64 5 5 (32000)
I0501 22:06:36.269582 15118 net.cpp:159] Memory required for data: 2312080
I0501 22:06:36.269589 15118 layer_factory.hpp:77] Creating layer relu3
I0501 22:06:36.269595 15118 net.cpp:94] Creating Layer relu3
I0501 22:06:36.269599 15118 net.cpp:435] relu3 <- conv3
I0501 22:06:36.269603 15118 net.cpp:396] relu3 -> conv3 (in-place)
I0501 22:06:36.269610 15118 net.cpp:144] Setting up relu3
I0501 22:06:36.269615 15118 net.cpp:151] Top shape: 20 64 5 5 (32000)
I0501 22:06:36.269618 15118 net.cpp:159] Memory required for data: 2440080
I0501 22:06:36.269621 15118 layer_factory.hpp:77] Creating layer conv4
I0501 22:06:36.269630 15118 net.cpp:94] Creating Layer conv4
I0501 22:06:36.269634 15118 net.cpp:435] conv4 <- conv3
I0501 22:06:36.269639 15118 net.cpp:409] conv4 -> conv4
I0501 22:06:36.274129 15118 net.cpp:144] Setting up conv4
I0501 22:06:36.274142 15118 net.cpp:151] Top shape: 20 64 5 5 (32000)
I0501 22:06:36.274147 15118 net.cpp:159] Memory required for data: 2568080
I0501 22:06:36.274153 15118 layer_factory.hpp:77] Creating layer relu4
I0501 22:06:36.274158 15118 net.cpp:94] Creating Layer relu4
I0501 22:06:36.274163 15118 net.cpp:435] relu4 <- conv4
I0501 22:06:36.274168 15118 net.cpp:396] relu4 -> conv4 (in-place)
I0501 22:06:36.274174 15118 net.cpp:144] Setting up relu4
I0501 22:06:36.274178 15118 net.cpp:151] Top shape: 20 64 5 5 (32000)
I0501 22:06:36.274183 15118 net.cpp:159] Memory required for data: 2696080
I0501 22:06:36.274185 15118 layer_factory.hpp:77] Creating layer conv5
I0501 22:06:36.274193 15118 net.cpp:94] Creating Layer conv5
I0501 22:06:36.274196 15118 net.cpp:435] conv5 <- conv4
I0501 22:06:36.274201 15118 net.cpp:409] conv5 -> conv5
I0501 22:06:36.279100 15118 net.cpp:144] Setting up conv5
I0501 22:06:36.279114 15118 net.cpp:151] Top shape: 20 64 5 5 (32000)
I0501 22:06:36.279119 15118 net.cpp:159] Memory required for data: 2824080
I0501 22:06:36.279127 15118 layer_factory.hpp:77] Creating layer relu5
I0501 22:06:36.279134 15118 net.cpp:94] Creating Layer relu5
I0501 22:06:36.279137 15118 net.cpp:435] relu5 <- conv5
I0501 22:06:36.279141 15118 net.cpp:396] relu5 -> conv5 (in-place)
I0501 22:06:36.279148 15118 net.cpp:144] Setting up relu5
I0501 22:06:36.279153 15118 net.cpp:151] Top shape: 20 64 5 5 (32000)
I0501 22:06:36.279156 15118 net.cpp:159] Memory required for data: 2952080
I0501 22:06:36.279160 15118 layer_factory.hpp:77] Creating layer pool5
I0501 22:06:36.279165 15118 net.cpp:94] Creating Layer pool5
I0501 22:06:36.279167 15118 net.cpp:435] pool5 <- conv5
I0501 22:06:36.279172 15118 net.cpp:409] pool5 -> pool5
I0501 22:06:36.279204 15118 net.cpp:144] Setting up pool5
I0501 22:06:36.279211 15118 net.cpp:151] Top shape: 20 64 2 2 (5120)
I0501 22:06:36.279216 15118 net.cpp:159] Memory required for data: 2972560
I0501 22:06:36.279218 15118 layer_factory.hpp:77] Creating layer ip1
I0501 22:06:36.279228 15118 net.cpp:94] Creating Layer ip1
I0501 22:06:36.279232 15118 net.cpp:435] ip1 <- pool5
I0501 22:06:36.279237 15118 net.cpp:409] ip1 -> ip1
I0501 22:06:36.280367 15118 net.cpp:144] Setting up ip1
I0501 22:06:36.280380 15118 net.cpp:151] Top shape: 20 64 (1280)
I0501 22:06:36.280385 15118 net.cpp:159] Memory required for data: 2977680
I0501 22:06:36.280390 15118 layer_factory.hpp:77] Creating layer ip2
I0501 22:06:36.280397 15118 net.cpp:94] Creating Layer ip2
I0501 22:06:36.280405 15118 net.cpp:435] ip2 <- ip1
I0501 22:06:36.280411 15118 net.cpp:409] ip2 -> ip2
I0501 22:06:36.280596 15118 net.cpp:144] Setting up ip2
I0501 22:06:36.280606 15118 net.cpp:151] Top shape: 20 64 (1280)
I0501 22:06:36.280611 15118 net.cpp:159] Memory required for data: 2982800
I0501 22:06:36.280616 15118 layer_factory.hpp:77] Creating layer ip3
I0501 22:06:36.280622 15118 net.cpp:94] Creating Layer ip3
I0501 22:06:36.280625 15118 net.cpp:435] ip3 <- ip2
I0501 22:06:36.280630 15118 net.cpp:409] ip3 -> ip3
I0501 22:06:36.280776 15118 net.cpp:144] Setting up ip3
I0501 22:06:36.280788 15118 net.cpp:151] Top shape: 20 50 (1000)
I0501 22:06:36.280792 15118 net.cpp:159] Memory required for data: 2986800
I0501 22:06:36.280797 15118 layer_factory.hpp:77] Creating layer loss
I0501 22:06:36.280803 15118 net.cpp:94] Creating Layer loss
I0501 22:06:36.280807 15118 net.cpp:435] loss <- ip3
I0501 22:06:36.280812 15118 net.cpp:435] loss <- label
I0501 22:06:36.280817 15118 net.cpp:409] loss -> loss
I0501 22:06:36.280827 15118 layer_factory.hpp:77] Creating layer loss
…
I0501 22:06:36.281991 15118 solver.cpp:181] Creating test net (#0) specified by net file: ./protocol/dis_5_100_dimension.protocol_distribution
I0501 22:06:36.282018 15118 net.cpp:323] The NetState phase (1) differed from the phase (0) specified by a rule in layer parameters
I0501 22:06:36.282117 15118 net.cpp:52] Initializing net from parameters: 
state {
  phase: TEST
}
layer {
  name: "intercept"
  type: "HDF5Data"
  top: "data"
  top: "label"
  include {
    phase: TEST
  }
  hdf5_data_param {
    source: "/home/purduethu/scratch/radon/d/deng106/CNNStatisticalModel/distributions/input/5_distributions_100_sample_size_test-distributions-path.txt"
    batch_size: 20
  }
}
layer {
  name: "conv1"
  type: "Convolution"
  bottom: "data"
  top: "conv1"
  param {
    lr_mult: 1
  }
  param {
    lr_mult: 2
  }
  convolution_param {
    num_output: 64
    pad: 2
    kernel_size: 5
    stride: 1
    weight_filler {
      type: "gaussian"
      std: 0.0001
    }
    bias_filler {
      type: "constant"
    }
  }
}
layer {
  name: "relu1"
  type: "ReLU"
  bottom: "conv1"
  top: "conv1"
}
layer {
  name: "conv2"
  type: "Convolution"
  bottom: "conv1"
  top: "conv2"
  param {
    lr_mult: 1
  }
  param {
    lr_mult: 2
  }
  convolution_param {
    num_output: 64
    pad: 2
    kernel_size: 5
    stride: 1
    weight_filler {
      type: "gaussian"
      std: 0.01
    }
    bias_filler {
      type: "constant"
    }
  }
}
layer {
  name: "relu2"
  type: "ReLU"
  bottom: "conv2"
  top: "conv2"
}
layer {
  name: "pool2"
  type: "Pooling"
  bottom: "conv2"
  top: "pool2"
  pooling_param {
    pool: MAX
    kernel_size: 3
    stride: 2
  }
}
layer {
  name: "conv3"
  type: "Convolution"
  bottom: "pool2"
  top: "conv3"
  param {
    lr_mult: 1
  }
  param {
    lr_mult: 2
  }
  convolution_param {
    num_output: 64
    pad: 2
    kernel_size: 5
    stride: 1
    weight_filler {
      type: "gaussian"
      std: 0.01
    }
    bias_filler {
      type: "constant"
    }
  }
}
layer {
  name: "relu3"
  type: "ReLU"
  bottom: "conv3"
  top: "conv3"
}
layer {
  name: "conv4"
  type: "Convolution"
  bottom: "conv3"
  top: "conv4"
  param {
    lr_mult: 1
  }
  param {
    lr_mult: 2
  }
  convolution_param {
    num_output: 64
    pad: 2
    kernel_size: 5
    stride: 1
    weight_filler {
      type: "gaussian"
      std: 0.01
    }
    bias_filler {
      type: "constant"
    }
  }
}
layer {
  name: "relu4"
  type: "ReLU"
  bottom: "conv4"
  top: "conv4"
}
layer {
  name: "conv5"
  type: "Convolution"
  bottom: "conv4"
  top: "conv5"
  param {
    lr_mult: 1
  }
  param {
    lr_mult: 2
  }
  convolution_param {
    num_output: 64
    pad: 2
    kernel_size: 5
    stride: 1
    weight_filler {
      type: "gaussian"
      std: 0.01
    }
    bias_filler {
      type: "constant"
    }
  }
}
layer {
  name: "relu5"
  type: "ReLU"
  bottom: "conv5"
  top: "conv5"
}
layer {
  name: "pool5"
  type: "Pooling"
  bottom: "conv5"
  top: "pool5"
  pooling_param {
    pool: AVE
    kernel_size: 3
    stride: 2
  }
}
layer {
  name: "ip1"
  type: "InnerProduct"
  bottom: "pool5"
  top: "ip1"
  param {
    lr_mult: 1
  }
  param {
    lr_mult: 2
  }
  inner_product_param {
    num_output: 64
    weight_filler {
      type: "gaussian"
      std: 0.1
    }
    bias_filler {
      type: "constant"
    }
  }
}
layer {
  name: "ip2"
  type: "InnerProduct"
  bottom: "ip1"
  top: "ip2"
  param {
    lr_mult: 1
  }
  param {
    lr_mult: 2
  }
  inner_product_param {
    num_output: 64
    weight_filler {
      type: "gaussian"
      std: 0.1
    }
    bias_filler {
      type: "constant"
    }
  }
}
layer {
  name: "ip3"
  type: "InnerProduct"
  bottom: "ip2"
  top: "ip3"
  param {
    lr_mult: 1
  }
  param {
    lr_mult: 2
  }
  inner_product_param {
    num_output: 50
    weight_filler {
      type: "gaussian"
      std: 0.1
    }
    bias_filler {
      type: "constant"
    }
  }
}
layer {
  name: "accuracy"
  type: "Accuracy"
  bottom: "ip3"
  bottom: "label"
  top: "accuracy"
  include {
    phase: TEST
  }
}
layer {
  name: "loss"
  type: "SoftmaxWithLoss"
  bottom: "ip3"
  bottom: "label"
  top: "loss"
}
I0501 22:06:36.282189 15118 layer_factory.hpp:77] Creating layer intercept
I0501 22:06:36.282198 15118 net.cpp:94] Creating Layer intercept
I0501 22:06:36.282202 15118 net.cpp:409] intercept -> data
I0501 22:06:36.282209 15118 net.cpp:409] intercept -> label
I0501 22:06:36.282215 15118 hdf5_data_layer.cpp:79] Loading list of HDF5 filenames from: /home/purduethu/scratch/radon/d/deng106/CNNStatisticalModel/distributions/input/5_distributions_100_sample_size_test-distributions-path.txt
I0501 22:06:36.282233 15118 hdf5_data_layer.cpp:93] Number of HDF5 files: 1
I0501 22:06:36.286301 15118 net.cpp:144] Setting up intercept
I0501 22:06:36.286329 15118 net.cpp:151] Top shape: 20 1 10 10 (2000)
I0501 22:06:36.286334 15118 net.cpp:151] Top shape: 20 (20)
I0501 22:06:36.286337 15118 net.cpp:159] Memory required for data: 8080
I0501 22:06:36.286342 15118 layer_factory.hpp:77] Creating layer label_intercept_1_split
I0501 22:06:36.286360 15118 net.cpp:94] Creating Layer label_intercept_1_split
I0501 22:06:36.286363 15118 net.cpp:435] label_intercept_1_split <- label
I0501 22:06:36.286370 15118 net.cpp:409] label_intercept_1_split -> label_intercept_1_split_0
I0501 22:06:36.286377 15118 net.cpp:409] label_intercept_1_split -> label_intercept_1_split_1
I0501 22:06:36.286411 15118 net.cpp:144] Setting up label_intercept_1_split
I0501 22:06:36.286417 15118 net.cpp:151] Top shape: 20 (20)
I0501 22:06:36.286422 15118 net.cpp:151] Top shape: 20 (20)
I0501 22:06:36.286424 15118 net.cpp:159] Memory required for data: 8240
I0501 22:06:36.286427 15118 layer_factory.hpp:77] Creating layer conv1
I0501 22:06:36.286437 15118 net.cpp:94] Creating Layer conv1
I0501 22:06:36.286442 15118 net.cpp:435] conv1 <- data
I0501 22:06:36.286447 15118 net.cpp:409] conv1 -> conv1
I0501 22:06:36.287070 15118 net.cpp:144] Setting up conv1
I0501 22:06:36.287091 15118 net.cpp:151] Top shape: 20 64 10 10 (128000)
I0501 22:06:36.287094 15118 net.cpp:159] Memory required for data: 520240
I0501 22:06:36.287103 15118 layer_factory.hpp:77] Creating layer relu1
I0501 22:06:36.287111 15118 net.cpp:94] Creating Layer relu1
I0501 22:06:36.287113 15118 net.cpp:435] relu1 <- conv1
I0501 22:06:36.287118 15118 net.cpp:396] relu1 -> conv1 (in-place)
I0501 22:06:36.287125 15118 net.cpp:144] Setting up relu1
I0501 22:06:36.287129 15118 net.cpp:151] Top shape: 20 64 10 10 (128000)
I0501 22:06:36.287132 15118 net.cpp:159] Memory required for data: 1032240
I0501 22:06:36.287135 15118 layer_factory.hpp:77] Creating layer conv2
I0501 22:06:36.287143 15118 net.cpp:94] Creating Layer conv2
I0501 22:06:36.287147 15118 net.cpp:435] conv2 <- conv1
I0501 22:06:36.287153 15118 net.cpp:409] conv2 -> conv2
I0501 22:06:36.290590 15118 net.cpp:144] Setting up conv2
I0501 22:06:36.290602 15118 net.cpp:151] Top shape: 20 64 10 10 (128000)
I0501 22:06:36.290606 15118 net.cpp:159] Memory required for data: 1544240
I0501 22:06:36.290614 15118 layer_factory.hpp:77] Creating layer relu2
I0501 22:06:36.290619 15118 net.cpp:94] Creating Layer relu2
I0501 22:06:36.290623 15118 net.cpp:435] relu2 <- conv2
I0501 22:06:36.290628 15118 net.cpp:396] relu2 -> conv2 (in-place)
I0501 22:06:36.290634 15118 net.cpp:144] Setting up relu2
I0501 22:06:36.290639 15118 net.cpp:151] Top shape: 20 64 10 10 (128000)
I0501 22:06:36.290642 15118 net.cpp:159] Memory required for data: 2056240
I0501 22:06:36.290645 15118 layer_factory.hpp:77] Creating layer pool2
I0501 22:06:36.290650 15118 net.cpp:94] Creating Layer pool2
I0501 22:06:36.290654 15118 net.cpp:435] pool2 <- conv2
I0501 22:06:36.290658 15118 net.cpp:409] pool2 -> pool2
I0501 22:06:36.290689 15118 net.cpp:144] Setting up pool2
I0501 22:06:36.290695 15118 net.cpp:151] Top shape: 20 64 5 5 (32000)
I0501 22:06:36.290699 15118 net.cpp:159] Memory required for data: 2184240
I0501 22:06:36.290702 15118 layer_factory.hpp:77] Creating layer conv3
I0501 22:06:36.290710 15118 net.cpp:94] Creating Layer conv3
I0501 22:06:36.290714 15118 net.cpp:435] conv3 <- pool2
I0501 22:06:36.290719 15118 net.cpp:409] conv3 -> conv3
I0501 22:06:36.295325 15118 net.cpp:144] Setting up conv3
I0501 22:06:36.295339 15118 net.cpp:151] Top shape: 20 64 5 5 (32000)
I0501 22:06:36.295343 15118 net.cpp:159] Memory required for data: 2312240
I0501 22:06:36.295351 15118 layer_factory.hpp:77] Creating layer relu3
I0501 22:06:36.295358 15118 net.cpp:94] Creating Layer relu3
I0501 22:06:36.295361 15118 net.cpp:435] relu3 <- conv3
I0501 22:06:36.295367 15118 net.cpp:396] relu3 -> conv3 (in-place)
I0501 22:06:36.295373 15118 net.cpp:144] Setting up relu3
I0501 22:06:36.295378 15118 net.cpp:151] Top shape: 20 64 5 5 (32000)
I0501 22:06:36.295382 15118 net.cpp:159] Memory required for data: 2440240
I0501 22:06:36.295384 15118 layer_factory.hpp:77] Creating layer conv4
I0501 22:06:36.295392 15118 net.cpp:94] Creating Layer conv4
I0501 22:06:36.295395 15118 net.cpp:435] conv4 <- conv3
I0501 22:06:36.295400 15118 net.cpp:409] conv4 -> conv4
I0501 22:06:36.298801 15118 net.cpp:144] Setting up conv4
I0501 22:06:36.298815 15118 net.cpp:151] Top shape: 20 64 5 5 (32000)
I0501 22:06:36.298818 15118 net.cpp:159] Memory required for data: 2568240
I0501 22:06:36.298825 15118 layer_factory.hpp:77] Creating layer relu4
I0501 22:06:36.298830 15118 net.cpp:94] Creating Layer relu4
I0501 22:06:36.298833 15118 net.cpp:435] relu4 <- conv4
I0501 22:06:36.298842 15118 net.cpp:396] relu4 -> conv4 (in-place)
I0501 22:06:36.298849 15118 net.cpp:144] Setting up relu4
I0501 22:06:36.298854 15118 net.cpp:151] Top shape: 20 64 5 5 (32000)
I0501 22:06:36.298857 15118 net.cpp:159] Memory required for data: 2696240
I0501 22:06:36.298861 15118 layer_factory.hpp:77] Creating layer conv5
I0501 22:06:36.298867 15118 net.cpp:94] Creating Layer conv5
I0501 22:06:36.298871 15118 net.cpp:435] conv5 <- conv4
I0501 22:06:36.298877 15118 net.cpp:409] conv5 -> conv5
I0501 22:06:36.302260 15118 net.cpp:144] Setting up conv5
I0501 22:06:36.302273 15118 net.cpp:151] Top shape: 20 64 5 5 (32000)
I0501 22:06:36.302283 15118 net.cpp:159] Memory required for data: 2824240
I0501 22:06:36.302291 15118 layer_factory.hpp:77] Creating layer relu5
I0501 22:06:36.302297 15118 net.cpp:94] Creating Layer relu5
I0501 22:06:36.302301 15118 net.cpp:435] relu5 <- conv5
I0501 22:06:36.302305 15118 net.cpp:396] relu5 -> conv5 (in-place)
I0501 22:06:36.302311 15118 net.cpp:144] Setting up relu5
I0501 22:06:36.302316 15118 net.cpp:151] Top shape: 20 64 5 5 (32000)
I0501 22:06:36.302320 15118 net.cpp:159] Memory required for data: 2952240
I0501 22:06:36.302322 15118 layer_factory.hpp:77] Creating layer pool5
I0501 22:06:36.302327 15118 net.cpp:94] Creating Layer pool5
I0501 22:06:36.302330 15118 net.cpp:435] pool5 <- conv5
I0501 22:06:36.302335 15118 net.cpp:409] pool5 -> pool5
I0501 22:06:36.302357 15118 net.cpp:144] Setting up pool5
I0501 22:06:36.302363 15118 net.cpp:151] Top shape: 20 64 2 2 (5120)
I0501 22:06:36.302366 15118 net.cpp:159] Memory required for data: 2972720
I0501 22:06:36.302369 15118 layer_factory.hpp:77] Creating layer ip1
I0501 22:06:36.302376 15118 net.cpp:94] Creating Layer ip1
I0501 22:06:36.302379 15118 net.cpp:435] ip1 <- pool5
I0501 22:06:36.302384 15118 net.cpp:409] ip1 -> ip1
I0501 22:06:36.302847 15118 net.cpp:144] Setting up ip1
I0501 22:06:36.302855 15118 net.cpp:151] Top shape: 20 64 (1280)
I0501 22:06:36.302858 15118 net.cpp:159] Memory required for data: 2977840
I0501 22:06:36.302863 15118 layer_factory.hpp:77] Creating layer ip2
I0501 22:06:36.302868 15118 net.cpp:94] Creating Layer ip2
I0501 22:06:36.302872 15118 net.cpp:435] ip2 <- ip1
I0501 22:06:36.302876 15118 net.cpp:409] ip2 -> ip2
I0501 22:06:36.303040 15118 net.cpp:144] Setting up ip2
I0501 22:06:36.303046 15118 net.cpp:151] Top shape: 20 64 (1280)
I0501 22:06:36.303050 15118 net.cpp:159] Memory required for data: 2982960
I0501 22:06:36.303055 15118 layer_factory.hpp:77] Creating layer ip3
I0501 22:06:36.303061 15118 net.cpp:94] Creating Layer ip3
I0501 22:06:36.303064 15118 net.cpp:435] ip3 <- ip2
I0501 22:06:36.303069 15118 net.cpp:409] ip3 -> ip3
I0501 22:06:36.303211 15118 net.cpp:144] Setting up ip3
I0501 22:06:36.303217 15118 net.cpp:151] Top shape: 20 50 (1000)
I0501 22:06:36.303220 15118 net.cpp:159] Memory required for data: 2986960
I0501 22:06:36.303225 15118 layer_factory.hpp:77] Creating layer ip3_ip3_0_split
I0501 22:06:36.303231 15118 net.cpp:94] Creating Layer ip3_ip3_0_split
I0501 22:06:36.303234 15118 net.cpp:435] ip3_ip3_0_split <- ip3
I0501 22:06:36.303238 15118 net.cpp:409] ip3_ip3_0_split -> ip3_ip3_0_split_0
I0501 22:06:36.303243 15118 net.cpp:409] ip3_ip3_0_split -> ip3_ip3_0_split_1
I0501 22:06:36.303267 15118 net.cpp:144] Setting up ip3_ip3_0_split
I0501 22:06:36.303272 15118 net.cpp:151] Top shape: 20 50 (1000)
I0501 22:06:36.303275 15118 net.cpp:151] Top shape: 20 50 (1000)
I0501 22:06:36.303278 15118 net.cpp:159] Memory required for data: 2994960
I0501 22:06:36.303282 15118 layer_factory.hpp:77] Creating layer accuracy
I0501 22:06:36.303287 15118 net.cpp:94] Creating Layer accuracy
I0501 22:06:36.303290 15118 net.cpp:435] accuracy <- ip3_ip3_0_split_0
I0501 22:06:36.303294 15118 net.cpp:435] accuracy <- label_intercept_1_split_0
I0501 22:06:36.303298 15118 net.cpp:409] accuracy -> accuracy
…
