…
I0502 14:25:20.071018  6692 net.cpp:323] The NetState phase (0) differed from the phase (1) specified by a rule in layer intercept
I0502 14:25:20.071035  6692 net.cpp:323] The NetState phase (0) differed from the phase (1) specified by a rule in layer loss
I0502 14:25:20.071128  6692 net.cpp:52] Initializing net from parameters: 
state {
  phase: TRAIN
}
layer {
  name: "parameters"
  type: "HDF5Data"
  top: "data"
  top: "label"
  include {
    phase: TRAIN
  }
  hdf5_data_param {
    source: "/home/purduethu/scratch/radon/d/deng106/CNNStatisticalModel/distributions/input/50_distributions_400_sample_size_train-parameters-path.txt"
    batch_size: 20
  }
}
layer {
  name: "conv1"
  type: "Convolution"
  bottom: "data"
  top: "conv1"
  param {
    lr_mult: 1
  }
  param {
    lr_mult: 2
  }
  convolution_param {
    num_output: 64
    pad: 2
    kernel_size: 5
    stride: 1
    weight_filler {
      type: "gaussian"
      std: 0.0001
    }
    bias_filler {
      type: "constant"
    }
  }
}
layer {
  name: "relu1"
  type: "ReLU"
  bottom: "conv1"
  top: "conv1"
}
layer {
  name: "conv2"
  type: "Convolution"
  bottom: "conv1"
  top: "conv2"
  param {
    lr_mult: 1
  }
  param {
    lr_mult: 2
  }
  convolution_param {
    num_output: 64
    pad: 2
    kernel_size: 5
    stride: 1
    weight_filler {
      type: "gaussian"
      std: 0.01
    }
    bias_filler {
      type: "constant"
    }
  }
}
layer {
  name: "relu2"
  type: "ReLU"
  bottom: "conv2"
  top: "conv2"
}
layer {
  name: "pool2"
  type: "Pooling"
  bottom: "conv2"
  top: "pool2"
  pooling_param {
    pool: MAX
    kernel_size: 3
    stride: 2
  }
}
layer {
  name: "conv3"
  type: "Convolution"
  bottom: "pool2"
  top: "conv3"
  param {
    lr_mult: 1
  }
  param {
    lr_mult: 2
  }
  convolution_param {
    num_output: 64
    pad: 2
    kernel_size: 5
    stride: 1
    weight_filler {
      type: "gaussian"
      std: 0.01
    }
    bias_filler {
      type: "constant"
    }
  }
}
layer {
  name: "relu3"
  type: "ReLU"
  bottom: "conv3"
  top: "conv3"
}
layer {
  name: "conv4"
  type: "Convolution"
  bottom: "conv3"
  top: "conv4"
  param {
    lr_mult: 1
  }
  param {
    lr_mult: 2
  }
  convolution_param {
    num_output: 64
    pad: 2
    kernel_size: 5
    stride: 1
    weight_filler {
      type: "gaussian"
      std: 0.01
    }
    bias_filler {
      type: "constant"
    }
  }
}
layer {
  name: "relu4"
  type: "ReLU"
  bottom: "conv4"
  top: "conv4"
}
layer {
  name: "conv5"
  type: "Convolution"
  bottom: "conv4"
  top: "conv5"
  param {
    lr_mult: 1
  }
  param {
    lr_mult: 2
  }
  convolution_param {
    num_output: 64
    pad: 2
    kernel_size: 5
    stride: 1
    weight_filler {
      type: "gaussian"
      std: 0.01
    }
    bias_filler {
      type: "constant"
    }
  }
}
layer {
  name: "relu5"
  type: "ReLU"
  bottom: "conv5"
  top: "conv5"
}
layer {
  name: "pool5"
  type: "Pooling"
  bottom: "conv5"
  top: "pool5"
  pooling_param {
    pool: AVE
    kernel_size: 3
    stride: 2
  }
}
layer {
  name: "ip1"
  type: "InnerProduct"
  bottom: "pool5"
  top: "ip1"
  param {
    lr_mult: 1
  }
  param {
    lr_mult: 2
  }
  inner_product_param {
    num_output: 64
    weight_filler {
      type: "gaussian"
      std: 0.1
    }
    bias_filler {
      type: "constant"
    }
  }
}
layer {
  name: "ip2"
  type: "InnerProduct"
  bottom: "ip1"
  top: "ip2"
  param {
    lr_mult: 1
  }
  param {
    lr_mult: 2
  }
  inner_product_param {
    num_output: 64
    weight_filler {
      type: "gaussian"
      std: 0.1
    }
    bias_filler {
      type: "constant"
    }
  }
}
layer {
  name: "ip3"
  type: "InnerProduct"
  bottom: "ip2"
  top: "ip3"
  param {
    lr_mult: 1
  }
  param {
    lr_mult: 2
  }
  inner_product_param {
    num_output: 1
    weight_filler {
      type: "gaussian"
      std: 0.1
    }
    bias_filler {
      type: "constant"
    }
  }
}
layer {
  name: "loss"
  type: "HuberLoss"
  bottom: "ip3"
  bottom: "label"
  top: "loss"
  include {
    phase: TRAIN
  }
}
I0502 14:25:20.071207  6692 layer_factory.hpp:77] Creating layer parameters
I0502 14:25:20.071223  6692 net.cpp:94] Creating Layer parameters
I0502 14:25:20.071229  6692 net.cpp:409] parameters -> data
I0502 14:25:20.071249  6692 net.cpp:409] parameters -> label
I0502 14:25:20.071259  6692 hdf5_data_layer.cpp:79] Loading list of HDF5 filenames from: /home/purduethu/scratch/radon/d/deng106/CNNStatisticalModel/distributions/input/50_distributions_400_sample_size_train-parameters-path.txt
I0502 14:25:20.071282  6692 hdf5_data_layer.cpp:93] Number of HDF5 files: 1
I0502 14:25:20.071764  6692 hdf5.cpp:32] Datatype class: H5T_FLOAT
I0502 14:25:20.763094  6692 net.cpp:144] Setting up parameters
I0502 14:25:20.763134  6692 net.cpp:151] Top shape: 20 1 20 20 (8000)
I0502 14:25:20.763139  6692 net.cpp:151] Top shape: 20 (20)
I0502 14:25:20.763144  6692 net.cpp:159] Memory required for data: 32080
I0502 14:25:20.763151  6692 layer_factory.hpp:77] Creating layer conv1
I0502 14:25:20.763171  6692 net.cpp:94] Creating Layer conv1
I0502 14:25:20.763177  6692 net.cpp:435] conv1 <- data
I0502 14:25:20.763190  6692 net.cpp:409] conv1 -> conv1
I0502 14:25:20.768198  6692 net.cpp:144] Setting up conv1
I0502 14:25:20.768216  6692 net.cpp:151] Top shape: 20 64 20 20 (512000)
I0502 14:25:20.768221  6692 net.cpp:159] Memory required for data: 2080080
I0502 14:25:20.768232  6692 layer_factory.hpp:77] Creating layer relu1
I0502 14:25:20.768241  6692 net.cpp:94] Creating Layer relu1
I0502 14:25:20.768244  6692 net.cpp:435] relu1 <- conv1
I0502 14:25:20.768249  6692 net.cpp:396] relu1 -> conv1 (in-place)
I0502 14:25:20.768268  6692 net.cpp:144] Setting up relu1
I0502 14:25:20.768275  6692 net.cpp:151] Top shape: 20 64 20 20 (512000)
I0502 14:25:20.768277  6692 net.cpp:159] Memory required for data: 4128080
I0502 14:25:20.768281  6692 layer_factory.hpp:77] Creating layer conv2
I0502 14:25:20.768290  6692 net.cpp:94] Creating Layer conv2
I0502 14:25:20.768292  6692 net.cpp:435] conv2 <- conv1
I0502 14:25:20.768298  6692 net.cpp:409] conv2 -> conv2
I0502 14:25:20.778846  6692 net.cpp:144] Setting up conv2
I0502 14:25:20.778862  6692 net.cpp:151] Top shape: 20 64 20 20 (512000)
I0502 14:25:20.778867  6692 net.cpp:159] Memory required for data: 6176080
I0502 14:25:20.778875  6692 layer_factory.hpp:77] Creating layer relu2
I0502 14:25:20.778882  6692 net.cpp:94] Creating Layer relu2
I0502 14:25:20.778887  6692 net.cpp:435] relu2 <- conv2
I0502 14:25:20.778892  6692 net.cpp:396] relu2 -> conv2 (in-place)
I0502 14:25:20.778898  6692 net.cpp:144] Setting up relu2
I0502 14:25:20.778903  6692 net.cpp:151] Top shape: 20 64 20 20 (512000)
I0502 14:25:20.778906  6692 net.cpp:159] Memory required for data: 8224080
I0502 14:25:20.778909  6692 layer_factory.hpp:77] Creating layer pool2
I0502 14:25:20.778918  6692 net.cpp:94] Creating Layer pool2
I0502 14:25:20.778928  6692 net.cpp:435] pool2 <- conv2
I0502 14:25:20.778934  6692 net.cpp:409] pool2 -> pool2
I0502 14:25:20.778978  6692 net.cpp:144] Setting up pool2
I0502 14:25:20.778986  6692 net.cpp:151] Top shape: 20 64 10 10 (128000)
I0502 14:25:20.778990  6692 net.cpp:159] Memory required for data: 8736080
I0502 14:25:20.778993  6692 layer_factory.hpp:77] Creating layer conv3
I0502 14:25:20.779001  6692 net.cpp:94] Creating Layer conv3
I0502 14:25:20.779006  6692 net.cpp:435] conv3 <- pool2
I0502 14:25:20.779011  6692 net.cpp:409] conv3 -> conv3
I0502 14:25:20.784150  6692 net.cpp:144] Setting up conv3
I0502 14:25:20.784165  6692 net.cpp:151] Top shape: 20 64 10 10 (128000)
I0502 14:25:20.784169  6692 net.cpp:159] Memory required for data: 9248080
I0502 14:25:20.784178  6692 layer_factory.hpp:77] Creating layer relu3
I0502 14:25:20.784184  6692 net.cpp:94] Creating Layer relu3
I0502 14:25:20.784188  6692 net.cpp:435] relu3 <- conv3
I0502 14:25:20.784193  6692 net.cpp:396] relu3 -> conv3 (in-place)
I0502 14:25:20.784199  6692 net.cpp:144] Setting up relu3
I0502 14:25:20.784204  6692 net.cpp:151] Top shape: 20 64 10 10 (128000)
I0502 14:25:20.784207  6692 net.cpp:159] Memory required for data: 9760080
I0502 14:25:20.784210  6692 layer_factory.hpp:77] Creating layer conv4
I0502 14:25:20.784219  6692 net.cpp:94] Creating Layer conv4
I0502 14:25:20.784224  6692 net.cpp:435] conv4 <- conv3
I0502 14:25:20.784229  6692 net.cpp:409] conv4 -> conv4
I0502 14:25:20.789336  6692 net.cpp:144] Setting up conv4
I0502 14:25:20.789350  6692 net.cpp:151] Top shape: 20 64 10 10 (128000)
I0502 14:25:20.789355  6692 net.cpp:159] Memory required for data: 10272080
I0502 14:25:20.789361  6692 layer_factory.hpp:77] Creating layer relu4
I0502 14:25:20.789367  6692 net.cpp:94] Creating Layer relu4
I0502 14:25:20.789371  6692 net.cpp:435] relu4 <- conv4
I0502 14:25:20.789376  6692 net.cpp:396] relu4 -> conv4 (in-place)
I0502 14:25:20.789383  6692 net.cpp:144] Setting up relu4
I0502 14:25:20.789388  6692 net.cpp:151] Top shape: 20 64 10 10 (128000)
I0502 14:25:20.789391  6692 net.cpp:159] Memory required for data: 10784080
I0502 14:25:20.789394  6692 layer_factory.hpp:77] Creating layer conv5
I0502 14:25:20.789402  6692 net.cpp:94] Creating Layer conv5
I0502 14:25:20.789407  6692 net.cpp:435] conv5 <- conv4
I0502 14:25:20.789412  6692 net.cpp:409] conv5 -> conv5
I0502 14:25:20.794533  6692 net.cpp:144] Setting up conv5
I0502 14:25:20.794548  6692 net.cpp:151] Top shape: 20 64 10 10 (128000)
I0502 14:25:20.794551  6692 net.cpp:159] Memory required for data: 11296080
I0502 14:25:20.794560  6692 layer_factory.hpp:77] Creating layer relu5
I0502 14:25:20.794566  6692 net.cpp:94] Creating Layer relu5
I0502 14:25:20.794570  6692 net.cpp:435] relu5 <- conv5
I0502 14:25:20.794574  6692 net.cpp:396] relu5 -> conv5 (in-place)
I0502 14:25:20.794582  6692 net.cpp:144] Setting up relu5
I0502 14:25:20.794586  6692 net.cpp:151] Top shape: 20 64 10 10 (128000)
I0502 14:25:20.794589  6692 net.cpp:159] Memory required for data: 11808080
I0502 14:25:20.794592  6692 layer_factory.hpp:77] Creating layer pool5
I0502 14:25:20.794598  6692 net.cpp:94] Creating Layer pool5
I0502 14:25:20.794601  6692 net.cpp:435] pool5 <- conv5
I0502 14:25:20.794605  6692 net.cpp:409] pool5 -> pool5
I0502 14:25:20.794641  6692 net.cpp:144] Setting up pool5
I0502 14:25:20.794647  6692 net.cpp:151] Top shape: 20 64 5 5 (32000)
I0502 14:25:20.794651  6692 net.cpp:159] Memory required for data: 11936080
I0502 14:25:20.794654  6692 layer_factory.hpp:77] Creating layer ip1
I0502 14:25:20.794661  6692 net.cpp:94] Creating Layer ip1
I0502 14:25:20.794665  6692 net.cpp:435] ip1 <- pool5
I0502 14:25:20.794670  6692 net.cpp:409] ip1 -> ip1
I0502 14:25:20.797181  6692 net.cpp:144] Setting up ip1
I0502 14:25:20.797193  6692 net.cpp:151] Top shape: 20 64 (1280)
I0502 14:25:20.797196  6692 net.cpp:159] Memory required for data: 11941200
I0502 14:25:20.797201  6692 layer_factory.hpp:77] Creating layer ip2
I0502 14:25:20.797207  6692 net.cpp:94] Creating Layer ip2
I0502 14:25:20.797215  6692 net.cpp:435] ip2 <- ip1
I0502 14:25:20.797221  6692 net.cpp:409] ip2 -> ip2
I0502 14:25:20.797386  6692 net.cpp:144] Setting up ip2
I0502 14:25:20.797394  6692 net.cpp:151] Top shape: 20 64 (1280)
I0502 14:25:20.797396  6692 net.cpp:159] Memory required for data: 11946320
I0502 14:25:20.797401  6692 layer_factory.hpp:77] Creating layer ip3
I0502 14:25:20.797407  6692 net.cpp:94] Creating Layer ip3
I0502 14:25:20.797411  6692 net.cpp:435] ip3 <- ip2
I0502 14:25:20.797415  6692 net.cpp:409] ip3 -> ip3
I0502 14:25:20.797477  6692 net.cpp:144] Setting up ip3
I0502 14:25:20.797488  6692 net.cpp:151] Top shape: 20 1 (20)
I0502 14:25:20.797492  6692 net.cpp:159] Memory required for data: 11946400
I0502 14:25:20.797497  6692 layer_factory.hpp:77] Creating layer loss
I0502 14:25:20.797508  6692 net.cpp:94] Creating Layer loss
I0502 14:25:20.797511  6692 net.cpp:435] loss <- ip3
I0502 14:25:20.797515  6692 net.cpp:435] loss <- label
I0502 14:25:20.797520  6692 net.cpp:409] loss -> loss
I0502 14:25:20.797557  6692 net.cpp:144] Setting up loss
…
