…
I0503 05:51:59.659410 18563 net.cpp:323] The NetState phase (0) differed from the phase (1) specified by a rule in layer intercept
I0503 05:51:59.659426 18563 net.cpp:323] The NetState phase (0) differed from the phase (1) specified by a rule in layer loss
I0503 05:51:59.659514 18563 net.cpp:52] Initializing net from parameters: 
state {
  phase: TRAIN
}
layer {
  name: "parameters"
  type: "HDF5Data"
  top: "data"
  top: "label"
  include {
    phase: TRAIN
  }
  hdf5_data_param {
    source: "/home/purduethu/scratch/radon/d/deng106/CNNStatisticalModel/distributions/input/5_distributions_100_sample_size_train-parameters-path.txt"
    batch_size: 20
  }
}
layer {
  name: "conv1"
  type: "Convolution"
  bottom: "data"
  top: "conv1"
  param {
    lr_mult: 1
  }
  param {
    lr_mult: 2
  }
  convolution_param {
    num_output: 64
    pad: 2
    kernel_size: 5
    stride: 1
    weight_filler {
      type: "gaussian"
      std: 0.0001
    }
    bias_filler {
      type: "constant"
    }
  }
}
layer {
  name: "relu1"
  type: "ReLU"
  bottom: "conv1"
  top: "conv1"
}
layer {
  name: "conv2"
  type: "Convolution"
  bottom: "conv1"
  top: "conv2"
  param {
    lr_mult: 1
  }
  param {
    lr_mult: 2
  }
  convolution_param {
    num_output: 64
    pad: 2
    kernel_size: 5
    stride: 1
    weight_filler {
      type: "gaussian"
      std: 0.01
    }
    bias_filler {
      type: "constant"
    }
  }
}
layer {
  name: "relu2"
  type: "ReLU"
  bottom: "conv2"
  top: "conv2"
}
layer {
  name: "pool2"
  type: "Pooling"
  bottom: "conv2"
  top: "pool2"
  pooling_param {
    pool: MAX
    kernel_size: 3
    stride: 2
  }
}
layer {
  name: "conv3"
  type: "Convolution"
  bottom: "pool2"
  top: "conv3"
  param {
    lr_mult: 1
  }
  param {
    lr_mult: 2
  }
  convolution_param {
    num_output: 128
    pad: 2
    kernel_size: 5
    stride: 1
    weight_filler {
      type: "gaussian"
      std: 0.01
    }
    bias_filler {
      type: "constant"
    }
  }
}
layer {
  name: "relu3"
  type: "ReLU"
  bottom: "conv3"
  top: "conv3"
}
layer {
  name: "conv4"
  type: "Convolution"
  bottom: "conv3"
  top: "conv4"
  param {
    lr_mult: 1
  }
  param {
    lr_mult: 2
  }
  convolution_param {
    num_output: 128
    pad: 2
    kernel_size: 5
    stride: 1
    weight_filler {
      type: "gaussian"
      std: 0.01
    }
    bias_filler {
      type: "constant"
    }
  }
}
layer {
  name: "relu4"
  type: "ReLU"
  bottom: "conv4"
  top: "conv4"
}
layer {
  name: "conv5"
  type: "Convolution"
  bottom: "conv4"
  top: "conv5"
  param {
    lr_mult: 1
  }
  param {
    lr_mult: 2
  }
  convolution_param {
    num_output: 128
    pad: 2
    kernel_size: 5
    stride: 1
    weight_filler {
      type: "gaussian"
      std: 0.01
    }
    bias_filler {
      type: "constant"
    }
  }
}
layer {
  name: "relu5"
  type: "ReLU"
  bottom: "conv5"
  top: "conv5"
}
layer {
  name: "pool5"
  type: "Pooling"
  bottom: "conv5"
  top: "pool5"
  pooling_param {
    pool: AVE
    kernel_size: 3
    stride: 2
  }
}
layer {
  name: "ip1"
  type: "InnerProduct"
  bottom: "pool5"
  top: "ip1"
  param {
    lr_mult: 1
  }
  param {
    lr_mult: 2
  }
  inner_product_param {
    num_output: 1024
    weight_filler {
      type: "gaussian"
      std: 0.1
    }
    bias_filler {
      type: "constant"
    }
  }
}
layer {
  name: "ip2"
  type: "InnerProduct"
  bottom: "ip1"
  top: "ip2"
  param {
    lr_mult: 1
  }
  param {
    lr_mult: 2
  }
  inner_product_param {
    num_output: 512
    weight_filler {
      type: "gaussian"
      std: 0.1
    }
    bias_filler {
      type: "constant"
    }
  }
}
layer {
  name: "ip3"
  type: "InnerProduct"
  bottom: "ip2"
  top: "ip3"
  param {
    lr_mult: 1
  }
  param {
    lr_mult: 2
  }
  inner_product_param {
    num_output: 1
    weight_filler {
      type: "gaussian"
      std: 0.1
    }
    bias_filler {
      type: "constant"
    }
  }
}
layer {
  name: "loss"
  type: "HuberLoss"
  bottom: "ip3"
  bottom: "label"
  top: "loss"
  include {
    phase: TRAIN
  }
}
I0503 05:51:59.659567 18563 layer_factory.hpp:77] Creating layer parameters
I0503 05:51:59.659580 18563 net.cpp:94] Creating Layer parameters
I0503 05:51:59.659584 18563 net.cpp:409] parameters -> data
I0503 05:51:59.659593 18563 net.cpp:409] parameters -> label
I0503 05:51:59.659600 18563 hdf5_data_layer.cpp:79] Loading list of HDF5 filenames from: /home/purduethu/scratch/radon/d/deng106/CNNStatisticalModel/distributions/input/5_distributions_100_sample_size_train-parameters-path.txt
I0503 05:51:59.659620 18563 hdf5_data_layer.cpp:93] Number of HDF5 files: 1
I0503 05:51:59.660156 18563 hdf5.cpp:32] Datatype class: H5T_FLOAT
I0503 05:51:59.678318 18563 net.cpp:144] Setting up parameters
I0503 05:51:59.678349 18563 net.cpp:151] Top shape: 20 1 10 10 (2000)
I0503 05:51:59.678354 18563 net.cpp:151] Top shape: 20 (20)
I0503 05:51:59.678357 18563 net.cpp:159] Memory required for data: 8080
I0503 05:51:59.678364 18563 layer_factory.hpp:77] Creating layer conv1
I0503 05:51:59.678386 18563 net.cpp:94] Creating Layer conv1
I0503 05:51:59.678391 18563 net.cpp:435] conv1 <- data
I0503 05:51:59.678398 18563 net.cpp:409] conv1 -> conv1
I0503 05:51:59.682667 18563 net.cpp:144] Setting up conv1
I0503 05:51:59.682683 18563 net.cpp:151] Top shape: 20 64 10 10 (128000)
I0503 05:51:59.682687 18563 net.cpp:159] Memory required for data: 520080
I0503 05:51:59.682698 18563 layer_factory.hpp:77] Creating layer relu1
I0503 05:51:59.682705 18563 net.cpp:94] Creating Layer relu1
I0503 05:51:59.682709 18563 net.cpp:435] relu1 <- conv1
I0503 05:51:59.682713 18563 net.cpp:396] relu1 -> conv1 (in-place)
I0503 05:51:59.682727 18563 net.cpp:144] Setting up relu1
I0503 05:51:59.682732 18563 net.cpp:151] Top shape: 20 64 10 10 (128000)
I0503 05:51:59.682735 18563 net.cpp:159] Memory required for data: 1032080
I0503 05:51:59.682739 18563 layer_factory.hpp:77] Creating layer conv2
I0503 05:51:59.682746 18563 net.cpp:94] Creating Layer conv2
I0503 05:51:59.682749 18563 net.cpp:435] conv2 <- conv1
I0503 05:51:59.682754 18563 net.cpp:409] conv2 -> conv2
I0503 05:51:59.688846 18563 net.cpp:144] Setting up conv2
I0503 05:51:59.688861 18563 net.cpp:151] Top shape: 20 64 10 10 (128000)
I0503 05:51:59.688864 18563 net.cpp:159] Memory required for data: 1544080
I0503 05:51:59.688872 18563 layer_factory.hpp:77] Creating layer relu2
I0503 05:51:59.688879 18563 net.cpp:94] Creating Layer relu2
I0503 05:51:59.688884 18563 net.cpp:435] relu2 <- conv2
I0503 05:51:59.688887 18563 net.cpp:396] relu2 -> conv2 (in-place)
I0503 05:51:59.688894 18563 net.cpp:144] Setting up relu2
I0503 05:51:59.688899 18563 net.cpp:151] Top shape: 20 64 10 10 (128000)
I0503 05:51:59.688901 18563 net.cpp:159] Memory required for data: 2056080
I0503 05:51:59.688905 18563 layer_factory.hpp:77] Creating layer pool2
I0503 05:51:59.688910 18563 net.cpp:94] Creating Layer pool2
I0503 05:51:59.688918 18563 net.cpp:435] pool2 <- conv2
I0503 05:51:59.688923 18563 net.cpp:409] pool2 -> pool2
I0503 05:51:59.688982 18563 net.cpp:144] Setting up pool2
I0503 05:51:59.688989 18563 net.cpp:151] Top shape: 20 64 5 5 (32000)
I0503 05:51:59.688993 18563 net.cpp:159] Memory required for data: 2184080
I0503 05:51:59.688997 18563 layer_factory.hpp:77] Creating layer conv3
I0503 05:51:59.689003 18563 net.cpp:94] Creating Layer conv3
I0503 05:51:59.689007 18563 net.cpp:435] conv3 <- pool2
I0503 05:51:59.689013 18563 net.cpp:409] conv3 -> conv3
I0503 05:51:59.697082 18563 net.cpp:144] Setting up conv3
I0503 05:51:59.697095 18563 net.cpp:151] Top shape: 20 128 5 5 (64000)
I0503 05:51:59.697099 18563 net.cpp:159] Memory required for data: 2440080
I0503 05:51:59.697108 18563 layer_factory.hpp:77] Creating layer relu3
I0503 05:51:59.697114 18563 net.cpp:94] Creating Layer relu3
I0503 05:51:59.697118 18563 net.cpp:435] relu3 <- conv3
I0503 05:51:59.697121 18563 net.cpp:396] relu3 -> conv3 (in-place)
I0503 05:51:59.697129 18563 net.cpp:144] Setting up relu3
I0503 05:51:59.697132 18563 net.cpp:151] Top shape: 20 128 5 5 (64000)
I0503 05:51:59.697135 18563 net.cpp:159] Memory required for data: 2696080
I0503 05:51:59.697139 18563 layer_factory.hpp:77] Creating layer conv4
I0503 05:51:59.697146 18563 net.cpp:94] Creating Layer conv4
I0503 05:51:59.697150 18563 net.cpp:435] conv4 <- conv3
I0503 05:51:59.697154 18563 net.cpp:409] conv4 -> conv4
I0503 05:51:59.712275 18563 net.cpp:144] Setting up conv4
I0503 05:51:59.712312 18563 net.cpp:151] Top shape: 20 128 5 5 (64000)
I0503 05:51:59.712323 18563 net.cpp:159] Memory required for data: 2952080
I0503 05:51:59.712345 18563 layer_factory.hpp:77] Creating layer relu4
I0503 05:51:59.712368 18563 net.cpp:94] Creating Layer relu4
I0503 05:51:59.712383 18563 net.cpp:435] relu4 <- conv4
I0503 05:51:59.712401 18563 net.cpp:396] relu4 -> conv4 (in-place)
I0503 05:51:59.712430 18563 net.cpp:144] Setting up relu4
I0503 05:51:59.712452 18563 net.cpp:151] Top shape: 20 128 5 5 (64000)
I0503 05:51:59.712467 18563 net.cpp:159] Memory required for data: 3208080
I0503 05:51:59.712481 18563 layer_factory.hpp:77] Creating layer conv5
I0503 05:51:59.712507 18563 net.cpp:94] Creating Layer conv5
I0503 05:51:59.712517 18563 net.cpp:435] conv5 <- conv4
I0503 05:51:59.712530 18563 net.cpp:409] conv5 -> conv5
I0503 05:51:59.727047 18563 net.cpp:144] Setting up conv5
I0503 05:51:59.727064 18563 net.cpp:151] Top shape: 20 128 5 5 (64000)
I0503 05:51:59.727067 18563 net.cpp:159] Memory required for data: 3464080
I0503 05:51:59.727077 18563 layer_factory.hpp:77] Creating layer relu5
I0503 05:51:59.727085 18563 net.cpp:94] Creating Layer relu5
I0503 05:51:59.727089 18563 net.cpp:435] relu5 <- conv5
I0503 05:51:59.727093 18563 net.cpp:396] relu5 -> conv5 (in-place)
I0503 05:51:59.727100 18563 net.cpp:144] Setting up relu5
I0503 05:51:59.727105 18563 net.cpp:151] Top shape: 20 128 5 5 (64000)
I0503 05:51:59.727108 18563 net.cpp:159] Memory required for data: 3720080
I0503 05:51:59.727110 18563 layer_factory.hpp:77] Creating layer pool5
I0503 05:51:59.727116 18563 net.cpp:94] Creating Layer pool5
I0503 05:51:59.727118 18563 net.cpp:435] pool5 <- conv5
I0503 05:51:59.727124 18563 net.cpp:409] pool5 -> pool5
I0503 05:51:59.727165 18563 net.cpp:144] Setting up pool5
I0503 05:51:59.727174 18563 net.cpp:151] Top shape: 20 128 2 2 (10240)
I0503 05:51:59.727176 18563 net.cpp:159] Memory required for data: 3761040
I0503 05:51:59.727180 18563 layer_factory.hpp:77] Creating layer ip1
I0503 05:51:59.727190 18563 net.cpp:94] Creating Layer ip1
I0503 05:51:59.727193 18563 net.cpp:435] ip1 <- pool5
I0503 05:51:59.727200 18563 net.cpp:409] ip1 -> ip1
I0503 05:51:59.741232 18563 net.cpp:144] Setting up ip1
I0503 05:51:59.741250 18563 net.cpp:151] Top shape: 20 1024 (20480)
I0503 05:51:59.741255 18563 net.cpp:159] Memory required for data: 3842960
I0503 05:51:59.741262 18563 layer_factory.hpp:77] Creating layer ip2
I0503 05:51:59.741271 18563 net.cpp:94] Creating Layer ip2
I0503 05:51:59.741273 18563 net.cpp:435] ip2 <- ip1
I0503 05:51:59.741284 18563 net.cpp:409] ip2 -> ip2
I0503 05:51:59.754427 18563 net.cpp:144] Setting up ip2
I0503 05:51:59.754442 18563 net.cpp:151] Top shape: 20 512 (10240)
I0503 05:51:59.754446 18563 net.cpp:159] Memory required for data: 3883920
I0503 05:51:59.754451 18563 layer_factory.hpp:77] Creating layer ip3
I0503 05:51:59.754459 18563 net.cpp:94] Creating Layer ip3
I0503 05:51:59.754462 18563 net.cpp:435] ip3 <- ip2
I0503 05:51:59.754468 18563 net.cpp:409] ip3 -> ip3
I0503 05:51:59.754598 18563 net.cpp:144] Setting up ip3
I0503 05:51:59.754606 18563 net.cpp:151] Top shape: 20 1 (20)
I0503 05:51:59.754609 18563 net.cpp:159] Memory required for data: 3884000
I0503 05:51:59.754614 18563 layer_factory.hpp:77] Creating layer loss
I0503 05:51:59.754623 18563 net.cpp:94] Creating Layer loss
I0503 05:51:59.754626 18563 net.cpp:435] loss <- ip3
I0503 05:51:59.754631 18563 net.cpp:435] loss <- label
I0503 05:51:59.754636 18563 net.cpp:409] loss -> loss
I0503 05:51:59.754689 18563 net.cpp:144] Setting up loss
…
I0503 05:51:59.826040 18563 net.cpp:323] The NetState phase (0) differed from the phase (1) specified by a rule in layer intercept
I0503 05:51:59.826056 18563 net.cpp:323] The NetState phase (0) differed from the phase (1) specified by a rule in layer accuracy
I0503 05:51:59.826140 18563 net.cpp:52] Initializing net from parameters: 
state {
  phase: TRAIN
}
layer {
  name: "parameters"
  type: "HDF5Data"
  top: "data"
  top: "label"
  include {
    phase: TRAIN
  }
  hdf5_data_param {
    source: "/home/purduethu/scratch/radon/d/deng106/CNNStatisticalModel/distributions/input/5_distributions_100_sample_size_train-distributions-path.txt"
    batch_size: 20
  }
}
layer {
  name: "conv1"
  type: "Convolution"
  bottom: "data"
  top: "conv1"
  param {
    lr_mult: 1
  }
  param {
    lr_mult: 2
  }
  convolution_param {
    num_output: 64
    pad: 2
    kernel_size: 5
    stride: 1
    weight_filler {
      type: "gaussian"
      std: 0.0001
    }
    bias_filler {
      type: "constant"
    }
  }
}
layer {
  name: "relu1"
  type: "ReLU"
  bottom: "conv1"
  top: "conv1"
}
layer {
  name: "conv2"
  type: "Convolution"
  bottom: "conv1"
  top: "conv2"
  param {
    lr_mult: 1
  }
  param {
    lr_mult: 2
  }
  convolution_param {
    num_output: 64
    pad: 2
    kernel_size: 5
    stride: 1
    weight_filler {
      type: "gaussian"
      std: 0.01
    }
    bias_filler {
      type: "constant"
    }
  }
}
layer {
  name: "relu2"
  type: "ReLU"
  bottom: "conv2"
  top: "conv2"
}
layer {
  name: "pool2"
  type: "Pooling"
  bottom: "conv2"
  top: "pool2"
  pooling_param {
    pool: MAX
    kernel_size: 3
    stride: 2
  }
}
layer {
  name: "conv3"
  type: "Convolution"
  bottom: "pool2"
  top: "conv3"
  param {
    lr_mult: 1
  }
  param {
    lr_mult: 2
  }
  convolution_param {
    num_output: 128
    pad: 2
    kernel_size: 5
    stride: 1
    weight_filler {
      type: "gaussian"
      std: 0.01
    }
    bias_filler {
      type: "constant"
    }
  }
}
layer {
  name: "relu3"
  type: "ReLU"
  bottom: "conv3"
  top: "conv3"
}
layer {
  name: "conv4"
  type: "Convolution"
  bottom: "conv3"
  top: "conv4"
  param {
    lr_mult: 1
  }
  param {
    lr_mult: 2
  }
  convolution_param {
    num_output: 128
    pad: 2
    kernel_size: 5
    stride: 1
    weight_filler {
      type: "gaussian"
      std: 0.01
    }
    bias_filler {
      type: "constant"
    }
  }
}
layer {
  name: "relu4"
  type: "ReLU"
  bottom: "conv4"
  top: "conv4"
}
layer {
  name: "conv5"
  type: "Convolution"
  bottom: "conv4"
  top: "conv5"
  param {
    lr_mult: 1
  }
  param {
    lr_mult: 2
  }
  convolution_param {
    num_output: 128
    pad: 2
    kernel_size: 5
    stride: 1
    weight_filler {
      type: "gaussian"
      std: 0.01
    }
    bias_filler {
      type: "constant"
    }
  }
}
layer {
  name: "relu5"
  type: "ReLU"
  bottom: "conv5"
  top: "conv5"
}
layer {
  name: "pool5"
  type: "Pooling"
  bottom: "conv5"
  top: "pool5"
  pooling_param {
    pool: AVE
    kernel_size: 3
    stride: 2
  }
}
layer {
  name: "ip1"
  type: "InnerProduct"
  bottom: "pool5"
  top: "ip1"
  param {
    lr_mult: 1
  }
  param {
    lr_mult: 2
  }
  inner_product_param {
    num_output: 1024
    weight_filler {
      type: "gaussian"
      std: 0.1
    }
    bias_filler {
      type: "constant"
    }
  }
}
layer {
  name: "ip2"
  type: "InnerProduct"
  bottom: "ip1"
  top: "ip2"
  param {
    lr_mult: 1
  }
  param {
    lr_mult: 2
  }
  inner_product_param {
    num_output: 512
    weight_filler {
      type: "gaussian"
      std: 0.1
    }
    bias_filler {
      type: "constant"
    }
  }
}
layer {
  name: "ip3"
  type: "InnerProduct"
  bottom: "ip2"
  top: "ip3"
  param {
    lr_mult: 1
  }
  param {
    lr_mult: 2
  }
  inner_product_param {
    num_output: 50
    weight_filler {
      type: "gaussian"
      std: 0.1
    }
    bias_filler {
      type: "constant"
    }
  }
}
layer {
  name: "loss"
  type: "SoftmaxWithLoss"
  bottom: "ip3"
  bottom: "label"
  top: "loss"
}
I0503 05:51:59.826194 18563 layer_factory.hpp:77] Creating layer parameters
I0503 05:51:59.826202 18563 net.cpp:94] Creating Layer parameters
I0503 05:51:59.826205 18563 net.cpp:409] parameters -> data
I0503 05:51:59.826212 18563 net.cpp:409] parameters -> label
I0503 05:51:59.826218 18563 hdf5_data_layer.cpp:79] Loading list of HDF5 filenames from: /home/purduethu/scratch/radon/d/deng106/CNNStatisticalModel/distributions/input/5_distributions_100_sample_size_train-distributions-path.txt
I0503 05:51:59.826234 18563 hdf5_data_layer.cpp:93] Number of HDF5 files: 1
I0503 05:51:59.842212 18563 hdf5.cpp:35] Datatype class: H5T_INTEGER
I0503 05:51:59.842658 18563 net.cpp:144] Setting up parameters
I0503 05:51:59.842671 18563 net.cpp:151] Top shape: 20 1 10 10 (2000)
I0503 05:51:59.842676 18563 net.cpp:151] Top shape: 20 (20)
I0503 05:51:59.842679 18563 net.cpp:159] Memory required for data: 8080
I0503 05:51:59.842685 18563 layer_factory.hpp:77] Creating layer conv1
I0503 05:51:59.842701 18563 net.cpp:94] Creating Layer conv1
I0503 05:51:59.842705 18563 net.cpp:435] conv1 <- data
I0503 05:51:59.842712 18563 net.cpp:409] conv1 -> conv1
I0503 05:51:59.844530 18563 net.cpp:144] Setting up conv1
I0503 05:51:59.844547 18563 net.cpp:151] Top shape: 20 64 10 10 (128000)
I0503 05:51:59.844568 18563 net.cpp:159] Memory required for data: 520080
I0503 05:51:59.844580 18563 layer_factory.hpp:77] Creating layer relu1
I0503 05:51:59.844588 18563 net.cpp:94] Creating Layer relu1
I0503 05:51:59.844593 18563 net.cpp:435] relu1 <- conv1
I0503 05:51:59.844597 18563 net.cpp:396] relu1 -> conv1 (in-place)
I0503 05:51:59.844604 18563 net.cpp:144] Setting up relu1
I0503 05:51:59.844609 18563 net.cpp:151] Top shape: 20 64 10 10 (128000)
I0503 05:51:59.844612 18563 net.cpp:159] Memory required for data: 1032080
I0503 05:51:59.844615 18563 layer_factory.hpp:77] Creating layer conv2
I0503 05:51:59.844622 18563 net.cpp:94] Creating Layer conv2
I0503 05:51:59.844625 18563 net.cpp:435] conv2 <- conv1
I0503 05:51:59.844630 18563 net.cpp:409] conv2 -> conv2
I0503 05:51:59.850075 18563 net.cpp:144] Setting up conv2
I0503 05:51:59.850088 18563 net.cpp:151] Top shape: 20 64 10 10 (128000)
I0503 05:51:59.850091 18563 net.cpp:159] Memory required for data: 1544080
I0503 05:51:59.850100 18563 layer_factory.hpp:77] Creating layer relu2
I0503 05:51:59.850106 18563 net.cpp:94] Creating Layer relu2
I0503 05:51:59.850109 18563 net.cpp:435] relu2 <- conv2
I0503 05:51:59.850113 18563 net.cpp:396] relu2 -> conv2 (in-place)
I0503 05:51:59.850121 18563 net.cpp:144] Setting up relu2
I0503 05:51:59.850126 18563 net.cpp:151] Top shape: 20 64 10 10 (128000)
I0503 05:51:59.850127 18563 net.cpp:159] Memory required for data: 2056080
I0503 05:51:59.850131 18563 layer_factory.hpp:77] Creating layer pool2
I0503 05:51:59.850136 18563 net.cpp:94] Creating Layer pool2
I0503 05:51:59.850139 18563 net.cpp:435] pool2 <- conv2
I0503 05:51:59.850143 18563 net.cpp:409] pool2 -> pool2
I0503 05:51:59.850200 18563 net.cpp:144] Setting up pool2
I0503 05:51:59.850208 18563 net.cpp:151] Top shape: 20 64 5 5 (32000)
I0503 05:51:59.850211 18563 net.cpp:159] Memory required for data: 2184080
I0503 05:51:59.850214 18563 layer_factory.hpp:77] Creating layer conv3
I0503 05:51:59.850221 18563 net.cpp:94] Creating Layer conv3
I0503 05:51:59.850225 18563 net.cpp:435] conv3 <- pool2
I0503 05:51:59.850229 18563 net.cpp:409] conv3 -> conv3
I0503 05:51:59.858851 18563 net.cpp:144] Setting up conv3
I0503 05:51:59.858872 18563 net.cpp:151] Top shape: 20 128 5 5 (64000)
I0503 05:51:59.858876 18563 net.cpp:159] Memory required for data: 2440080
I0503 05:51:59.858885 18563 layer_factory.hpp:77] Creating layer relu3
I0503 05:51:59.858891 18563 net.cpp:94] Creating Layer relu3
I0503 05:51:59.858894 18563 net.cpp:435] relu3 <- conv3
I0503 05:51:59.858899 18563 net.cpp:396] relu3 -> conv3 (in-place)
I0503 05:51:59.858906 18563 net.cpp:144] Setting up relu3
I0503 05:51:59.858911 18563 net.cpp:151] Top shape: 20 128 5 5 (64000)
I0503 05:51:59.858912 18563 net.cpp:159] Memory required for data: 2696080
I0503 05:51:59.858916 18563 layer_factory.hpp:77] Creating layer conv4
I0503 05:51:59.858924 18563 net.cpp:94] Creating Layer conv4
I0503 05:51:59.858927 18563 net.cpp:435] conv4 <- conv3
I0503 05:51:59.858932 18563 net.cpp:409] conv4 -> conv4
I0503 05:51:59.873678 18563 net.cpp:144] Setting up conv4
I0503 05:51:59.873697 18563 net.cpp:151] Top shape: 20 128 5 5 (64000)
I0503 05:51:59.873700 18563 net.cpp:159] Memory required for data: 2952080
I0503 05:51:59.873706 18563 layer_factory.hpp:77] Creating layer relu4
I0503 05:51:59.873713 18563 net.cpp:94] Creating Layer relu4
I0503 05:51:59.873716 18563 net.cpp:435] relu4 <- conv4
I0503 05:51:59.873721 18563 net.cpp:396] relu4 -> conv4 (in-place)
I0503 05:51:59.873728 18563 net.cpp:144] Setting up relu4
I0503 05:51:59.873733 18563 net.cpp:151] Top shape: 20 128 5 5 (64000)
I0503 05:51:59.873736 18563 net.cpp:159] Memory required for data: 3208080
I0503 05:51:59.873739 18563 layer_factory.hpp:77] Creating layer conv5
I0503 05:51:59.873747 18563 net.cpp:94] Creating Layer conv5
I0503 05:51:59.873750 18563 net.cpp:435] conv5 <- conv4
I0503 05:51:59.873755 18563 net.cpp:409] conv5 -> conv5
I0503 05:51:59.888792 18563 net.cpp:144] Setting up conv5
I0503 05:51:59.888809 18563 net.cpp:151] Top shape: 20 128 5 5 (64000)
I0503 05:51:59.888813 18563 net.cpp:159] Memory required for data: 3464080
I0503 05:51:59.888823 18563 layer_factory.hpp:77] Creating layer relu5
I0503 05:51:59.888829 18563 net.cpp:94] Creating Layer relu5
I0503 05:51:59.888833 18563 net.cpp:435] relu5 <- conv5
I0503 05:51:59.888836 18563 net.cpp:396] relu5 -> conv5 (in-place)
I0503 05:51:59.888844 18563 net.cpp:144] Setting up relu5
I0503 05:51:59.888849 18563 net.cpp:151] Top shape: 20 128 5 5 (64000)
I0503 05:51:59.888851 18563 net.cpp:159] Memory required for data: 3720080
I0503 05:51:59.888854 18563 layer_factory.hpp:77] Creating layer pool5
I0503 05:51:59.888859 18563 net.cpp:94] Creating Layer pool5
I0503 05:51:59.888862 18563 net.cpp:435] pool5 <- conv5
I0503 05:51:59.888865 18563 net.cpp:409] pool5 -> pool5
I0503 05:51:59.888907 18563 net.cpp:144] Setting up pool5
I0503 05:51:59.888914 18563 net.cpp:151] Top shape: 20 128 2 2 (10240)
I0503 05:51:59.888918 18563 net.cpp:159] Memory required for data: 3761040
I0503 05:51:59.888921 18563 layer_factory.hpp:77] Creating layer ip1
I0503 05:51:59.888927 18563 net.cpp:94] Creating Layer ip1
I0503 05:51:59.888931 18563 net.cpp:435] ip1 <- pool5
I0503 05:51:59.888936 18563 net.cpp:409] ip1 -> ip1
I0503 05:51:59.902137 18563 net.cpp:144] Setting up ip1
I0503 05:51:59.902153 18563 net.cpp:151] Top shape: 20 1024 (20480)
I0503 05:51:59.902156 18563 net.cpp:159] Memory required for data: 3842960
I0503 05:51:59.902163 18563 layer_factory.hpp:77] Creating layer ip2
I0503 05:51:59.902170 18563 net.cpp:94] Creating Layer ip2
I0503 05:51:59.902174 18563 net.cpp:435] ip2 <- ip1
I0503 05:51:59.902179 18563 net.cpp:409] ip2 -> ip2
I0503 05:51:59.915288 18563 net.cpp:144] Setting up ip2
I0503 05:51:59.915305 18563 net.cpp:151] Top shape: 20 512 (10240)
I0503 05:51:59.915309 18563 net.cpp:159] Memory required for data: 3883920
I0503 05:51:59.915315 18563 layer_factory.hpp:77] Creating layer ip3
I0503 05:51:59.915323 18563 net.cpp:94] Creating Layer ip3
I0503 05:51:59.915325 18563 net.cpp:435] ip3 <- ip2
I0503 05:51:59.915330 18563 net.cpp:409] ip3 -> ip3
I0503 05:51:59.916081 18563 net.cpp:144] Setting up ip3
I0503 05:51:59.916090 18563 net.cpp:151] Top shape: 20 50 (1000)
I0503 05:51:59.916100 18563 net.cpp:159] Memory required for data: 3887920
I0503 05:51:59.916105 18563 layer_factory.hpp:77] Creating layer loss
I0503 05:51:59.916115 18563 net.cpp:94] Creating Layer loss
I0503 05:51:59.916118 18563 net.cpp:435] loss <- ip3
I0503 05:51:59.916121 18563 net.cpp:435] loss <- label
I0503 05:51:59.916126 18563 net.cpp:409] loss -> loss
I0503 05:51:59.916132 18563 layer_factory.hpp:77] Creating layer loss
…
I0503 05:51:59.916664 18563 solver.cpp:181] Creating test net (#0) specified by net file: ./protocol/dis_5_100_dimension.protocol_distribution
I0503 05:51:59.916692 18563 net.cpp:323] The NetState phase (1) differed from the phase (0) specified by a rule in layer parameters
I0503 05:51:59.916790 18563 net.cpp:52] Initializing net from parameters: 
state {
  phase: TEST
}
layer {
  name: "intercept"
  type: "HDF5Data"
  top: "data"
  top: "label"
  include {
    phase: TEST
  }
  hdf5_data_param {
    source: "/home/purduethu/scratch/radon/d/deng106/CNNStatisticalModel/distributions/input/5_distributions_100_sample_size_test-distributions-path.txt"
    batch_size: 20
  }
}
layer {
  name: "conv1"
  type: "Convolution"
  bottom: "data"
  top: "conv1"
  param {
    lr_mult: 1
  }
  param {
    lr_mult: 2
  }
  convolution_param {
    num_output: 64
    pad: 2
    kernel_size: 5
    stride: 1
    weight_filler {
      type: "gaussian"
      std: 0.0001
    }
    bias_filler {
      type: "constant"
    }
  }
}
layer {
  name: "relu1"
  type: "ReLU"
  bottom: "conv1"
  top: "conv1"
}
layer {
  name: "conv2"
  type: "Convolution"
  bottom: "conv1"
  top: "conv2"
  param {
    lr_mult: 1
  }
  param {
    lr_mult: 2
  }
  convolution_param {
    num_output: 64
    pad: 2
    kernel_size: 5
    stride: 1
    weight_filler {
      type: "gaussian"
      std: 0.01
    }
    bias_filler {
      type: "constant"
    }
  }
}
layer {
  name: "relu2"
  type: "ReLU"
  bottom: "conv2"
  top: "conv2"
}
layer {
  name: "pool2"
  type: "Pooling"
  bottom: "conv2"
  top: "pool2"
  pooling_param {
    pool: MAX
    kernel_size: 3
    stride: 2
  }
}
layer {
  name: "conv3"
  type: "Convolution"
  bottom: "pool2"
  top: "conv3"
  param {
    lr_mult: 1
  }
  param {
    lr_mult: 2
  }
  convolution_param {
    num_output: 128
    pad: 2
    kernel_size: 5
    stride: 1
    weight_filler {
      type: "gaussian"
      std: 0.01
    }
    bias_filler {
      type: "constant"
    }
  }
}
layer {
  name: "relu3"
  type: "ReLU"
  bottom: "conv3"
  top: "conv3"
}
layer {
  name: "conv4"
  type: "Convolution"
  bottom: "conv3"
  top: "conv4"
  param {
    lr_mult: 1
  }
  param {
    lr_mult: 2
  }
  convolution_param {
    num_output: 128
    pad: 2
    kernel_size: 5
    stride: 1
    weight_filler {
      type: "gaussian"
      std: 0.01
    }
    bias_filler {
      type: "constant"
    }
  }
}
layer {
  name: "relu4"
  type: "ReLU"
  bottom: "conv4"
  top: "conv4"
}
layer {
  name: "conv5"
  type: "Convolution"
  bottom: "conv4"
  top: "conv5"
  param {
    lr_mult: 1
  }
  param {
    lr_mult: 2
  }
  convolution_param {
    num_output: 128
    pad: 2
    kernel_size: 5
    stride: 1
    weight_filler {
      type: "gaussian"
      std: 0.01
    }
    bias_filler {
      type: "constant"
    }
  }
}
layer {
  name: "relu5"
  type: "ReLU"
  bottom: "conv5"
  top: "conv5"
}
layer {
  name: "pool5"
  type: "Pooling"
  bottom: "conv5"
  top: "pool5"
  pooling_param {
    pool: AVE
    kernel_size: 3
    stride: 2
  }
}
layer {
  name: "ip1"
  type: "InnerProduct"
  bottom: "pool5"
  top: "ip1"
  param {
    lr_mult: 1
  }
  param {
    lr_mult: 2
  }
  inner_product_param {
    num_output: 1024
    weight_filler {
      type: "gaussian"
      std: 0.1
    }
    bias_filler {
      type: "constant"
    }
  }
}
layer {
  name: "ip2"
  type: "InnerProduct"
  bottom: "ip1"
  top: "ip2"
  param {
    lr_mult: 1
  }
  param {
    lr_mult: 2
  }
  inner_product_param {
    num_output: 512
    weight_filler {
      type: "gaussian"
      std: 0.1
    }
    bias_filler {
      type: "constant"
    }
  }
}
layer {
  name: "ip3"
  type: "InnerProduct"
  bottom: "ip2"
  top: "ip3"
  param {
    lr_mult: 1
  }
  param {
    lr_mult: 2
  }
  inner_product_param {
    num_output: 50
    weight_filler {
      type: "gaussian"
      std: 0.1
    }
    bias_filler {
      type: "constant"
    }
  }
}
layer {
  name: "accuracy"
  type: "Accuracy"
  bottom: "ip3"
  bottom: "label"
  top: "accuracy"
  include {
    phase: TEST
  }
}
layer {
  name: "loss"
  type: "SoftmaxWithLoss"
  bottom: "ip3"
  bottom: "label"
  top: "loss"
}
I0503 05:51:59.916860 18563 layer_factory.hpp:77] Creating layer intercept
I0503 05:51:59.916878 18563 net.cpp:94] Creating Layer intercept
I0503 05:51:59.916882 18563 net.cpp:409] intercept -> data
I0503 05:51:59.916888 18563 net.cpp:409] intercept -> label
I0503 05:51:59.916894 18563 hdf5_data_layer.cpp:79] Loading list of HDF5 filenames from: /home/purduethu/scratch/radon/d/deng106/CNNStatisticalModel/distributions/input/5_distributions_100_sample_size_test-distributions-path.txt
I0503 05:51:59.916913 18563 hdf5_data_layer.cpp:93] Number of HDF5 files: 1
I0503 05:51:59.921407 18563 net.cpp:144] Setting up intercept
I0503 05:51:59.921435 18563 net.cpp:151] Top shape: 20 1 10 10 (2000)
I0503 05:51:59.921442 18563 net.cpp:151] Top shape: 20 (20)
I0503 05:51:59.921444 18563 net.cpp:159] Memory required for data: 8080
I0503 05:51:59.921450 18563 layer_factory.hpp:77] Creating layer label_intercept_1_split
I0503 05:51:59.921466 18563 net.cpp:94] Creating Layer label_intercept_1_split
I0503 05:51:59.921470 18563 net.cpp:435] label_intercept_1_split <- label
I0503 05:51:59.921476 18563 net.cpp:409] label_intercept_1_split -> label_intercept_1_split_0
I0503 05:51:59.921483 18563 net.cpp:409] label_intercept_1_split -> label_intercept_1_split_1
I0503 05:51:59.921528 18563 net.cpp:144] Setting up label_intercept_1_split
I0503 05:51:59.921535 18563 net.cpp:151] Top shape: 20 (20)
I0503 05:51:59.921538 18563 net.cpp:151] Top shape: 20 (20)
I0503 05:51:59.921541 18563 net.cpp:159] Memory required for data: 8240
I0503 05:51:59.921545 18563 layer_factory.hpp:77] Creating layer conv1
I0503 05:51:59.921555 18563 net.cpp:94] Creating Layer conv1
I0503 05:51:59.921558 18563 net.cpp:435] conv1 <- data
I0503 05:51:59.921563 18563 net.cpp:409] conv1 -> conv1
I0503 05:51:59.922400 18563 net.cpp:144] Setting up conv1
I0503 05:51:59.922415 18563 net.cpp:151] Top shape: 20 64 10 10 (128000)
I0503 05:51:59.922425 18563 net.cpp:159] Memory required for data: 520240
I0503 05:51:59.922442 18563 layer_factory.hpp:77] Creating layer relu1
I0503 05:51:59.922449 18563 net.cpp:94] Creating Layer relu1
I0503 05:51:59.922453 18563 net.cpp:435] relu1 <- conv1
I0503 05:51:59.922457 18563 net.cpp:396] relu1 -> conv1 (in-place)
I0503 05:51:59.922466 18563 net.cpp:144] Setting up relu1
I0503 05:51:59.922469 18563 net.cpp:151] Top shape: 20 64 10 10 (128000)
I0503 05:51:59.922472 18563 net.cpp:159] Memory required for data: 1032240
I0503 05:51:59.922475 18563 layer_factory.hpp:77] Creating layer conv2
I0503 05:51:59.922483 18563 net.cpp:94] Creating Layer conv2
I0503 05:51:59.922487 18563 net.cpp:435] conv2 <- conv1
I0503 05:51:59.922492 18563 net.cpp:409] conv2 -> conv2
I0503 05:51:59.926582 18563 net.cpp:144] Setting up conv2
I0503 05:51:59.926597 18563 net.cpp:151] Top shape: 20 64 10 10 (128000)
I0503 05:51:59.926600 18563 net.cpp:159] Memory required for data: 1544240
I0503 05:51:59.926609 18563 layer_factory.hpp:77] Creating layer relu2
I0503 05:51:59.926614 18563 net.cpp:94] Creating Layer relu2
I0503 05:51:59.926618 18563 net.cpp:435] relu2 <- conv2
I0503 05:51:59.926622 18563 net.cpp:396] relu2 -> conv2 (in-place)
I0503 05:51:59.926628 18563 net.cpp:144] Setting up relu2
I0503 05:51:59.926633 18563 net.cpp:151] Top shape: 20 64 10 10 (128000)
I0503 05:51:59.926636 18563 net.cpp:159] Memory required for data: 2056240
I0503 05:51:59.926640 18563 layer_factory.hpp:77] Creating layer pool2
I0503 05:51:59.926645 18563 net.cpp:94] Creating Layer pool2
I0503 05:51:59.926648 18563 net.cpp:435] pool2 <- conv2
I0503 05:51:59.926652 18563 net.cpp:409] pool2 -> pool2
I0503 05:51:59.926710 18563 net.cpp:144] Setting up pool2
I0503 05:51:59.926717 18563 net.cpp:151] Top shape: 20 64 5 5 (32000)
I0503 05:51:59.926720 18563 net.cpp:159] Memory required for data: 2184240
I0503 05:51:59.926723 18563 layer_factory.hpp:77] Creating layer conv3
I0503 05:51:59.926731 18563 net.cpp:94] Creating Layer conv3
I0503 05:51:59.926734 18563 net.cpp:435] conv3 <- pool2
I0503 05:51:59.926739 18563 net.cpp:409] conv3 -> conv3
I0503 05:51:59.932739 18563 net.cpp:144] Setting up conv3
I0503 05:51:59.932754 18563 net.cpp:151] Top shape: 20 128 5 5 (64000)
I0503 05:51:59.932757 18563 net.cpp:159] Memory required for data: 2440240
I0503 05:51:59.932765 18563 layer_factory.hpp:77] Creating layer relu3
I0503 05:51:59.932772 18563 net.cpp:94] Creating Layer relu3
I0503 05:51:59.932775 18563 net.cpp:435] relu3 <- conv3
I0503 05:51:59.932780 18563 net.cpp:396] relu3 -> conv3 (in-place)
I0503 05:51:59.932786 18563 net.cpp:144] Setting up relu3
I0503 05:51:59.932790 18563 net.cpp:151] Top shape: 20 128 5 5 (64000)
I0503 05:51:59.932793 18563 net.cpp:159] Memory required for data: 2696240
I0503 05:51:59.932796 18563 layer_factory.hpp:77] Creating layer conv4
I0503 05:51:59.932804 18563 net.cpp:94] Creating Layer conv4
I0503 05:51:59.932807 18563 net.cpp:435] conv4 <- conv3
I0503 05:51:59.932811 18563 net.cpp:409] conv4 -> conv4
I0503 05:51:59.945350 18563 net.cpp:144] Setting up conv4
I0503 05:51:59.945366 18563 net.cpp:151] Top shape: 20 128 5 5 (64000)
I0503 05:51:59.945370 18563 net.cpp:159] Memory required for data: 2952240
I0503 05:51:59.945376 18563 layer_factory.hpp:77] Creating layer relu4
I0503 05:51:59.945382 18563 net.cpp:94] Creating Layer relu4
I0503 05:51:59.945386 18563 net.cpp:435] relu4 <- conv4
I0503 05:51:59.945391 18563 net.cpp:396] relu4 -> conv4 (in-place)
I0503 05:51:59.945397 18563 net.cpp:144] Setting up relu4
I0503 05:51:59.945401 18563 net.cpp:151] Top shape: 20 128 5 5 (64000)
I0503 05:51:59.945405 18563 net.cpp:159] Memory required for data: 3208240
I0503 05:51:59.945407 18563 layer_factory.hpp:77] Creating layer conv5
I0503 05:51:59.945415 18563 net.cpp:94] Creating Layer conv5
I0503 05:51:59.945418 18563 net.cpp:435] conv5 <- conv4
I0503 05:51:59.945423 18563 net.cpp:409] conv5 -> conv5
I0503 05:51:59.957886 18563 net.cpp:144] Setting up conv5
I0503 05:51:59.957903 18563 net.cpp:151] Top shape: 20 128 5 5 (64000)
I0503 05:51:59.957914 18563 net.cpp:159] Memory required for data: 3464240
I0503 05:51:59.957924 18563 layer_factory.hpp:77] Creating layer relu5
I0503 05:51:59.957931 18563 net.cpp:94] Creating Layer relu5
I0503 05:51:59.957934 18563 net.cpp:435] relu5 <- conv5
I0503 05:51:59.957939 18563 net.cpp:396] relu5 -> conv5 (in-place)
I0503 05:51:59.957947 18563 net.cpp:144] Setting up relu5
I0503 05:51:59.957950 18563 net.cpp:151] Top shape: 20 128 5 5 (64000)
I0503 05:51:59.957953 18563 net.cpp:159] Memory required for data: 3720240
I0503 05:51:59.957957 18563 layer_factory.hpp:77] Creating layer pool5
I0503 05:51:59.957962 18563 net.cpp:94] Creating Layer pool5
I0503 05:51:59.957965 18563 net.cpp:435] pool5 <- conv5
I0503 05:51:59.957969 18563 net.cpp:409] pool5 -> pool5
I0503 05:51:59.958010 18563 net.cpp:144] Setting up pool5
I0503 05:51:59.958017 18563 net.cpp:151] Top shape: 20 128 2 2 (10240)
I0503 05:51:59.958020 18563 net.cpp:159] Memory required for data: 3761200
I0503 05:51:59.958024 18563 layer_factory.hpp:77] Creating layer ip1
I0503 05:51:59.958031 18563 net.cpp:94] Creating Layer ip1
I0503 05:51:59.958034 18563 net.cpp:435] ip1 <- pool5
I0503 05:51:59.958039 18563 net.cpp:409] ip1 -> ip1
I0503 05:51:59.971240 18563 net.cpp:144] Setting up ip1
I0503 05:51:59.971256 18563 net.cpp:151] Top shape: 20 1024 (20480)
I0503 05:51:59.971261 18563 net.cpp:159] Memory required for data: 3843120
I0503 05:51:59.971266 18563 layer_factory.hpp:77] Creating layer ip2
I0503 05:51:59.971273 18563 net.cpp:94] Creating Layer ip2
I0503 05:51:59.971277 18563 net.cpp:435] ip2 <- ip1
I0503 05:51:59.971282 18563 net.cpp:409] ip2 -> ip2
I0503 05:51:59.984421 18563 net.cpp:144] Setting up ip2
I0503 05:51:59.984439 18563 net.cpp:151] Top shape: 20 512 (10240)
I0503 05:51:59.984442 18563 net.cpp:159] Memory required for data: 3884080
I0503 05:51:59.984448 18563 layer_factory.hpp:77] Creating layer ip3
I0503 05:51:59.984457 18563 net.cpp:94] Creating Layer ip3
I0503 05:51:59.984462 18563 net.cpp:435] ip3 <- ip2
I0503 05:51:59.984467 18563 net.cpp:409] ip3 -> ip3
I0503 05:51:59.985242 18563 net.cpp:144] Setting up ip3
I0503 05:51:59.985251 18563 net.cpp:151] Top shape: 20 50 (1000)
I0503 05:51:59.985255 18563 net.cpp:159] Memory required for data: 3888080
I0503 05:51:59.985260 18563 layer_factory.hpp:77] Creating layer ip3_ip3_0_split
I0503 05:51:59.985265 18563 net.cpp:94] Creating Layer ip3_ip3_0_split
I0503 05:51:59.985268 18563 net.cpp:435] ip3_ip3_0_split <- ip3
I0503 05:51:59.985273 18563 net.cpp:409] ip3_ip3_0_split -> ip3_ip3_0_split_0
I0503 05:51:59.985278 18563 net.cpp:409] ip3_ip3_0_split -> ip3_ip3_0_split_1
I0503 05:51:59.985322 18563 net.cpp:144] Setting up ip3_ip3_0_split
I0503 05:51:59.985328 18563 net.cpp:151] Top shape: 20 50 (1000)
I0503 05:51:59.985332 18563 net.cpp:151] Top shape: 20 50 (1000)
I0503 05:51:59.985334 18563 net.cpp:159] Memory required for data: 3896080
I0503 05:51:59.985338 18563 layer_factory.hpp:77] Creating layer accuracy
I0503 05:51:59.985343 18563 net.cpp:94] Creating Layer accuracy
I0503 05:51:59.985347 18563 net.cpp:435] accuracy <- ip3_ip3_0_split_0
I0503 05:51:59.985350 18563 net.cpp:435] accuracy <- label_intercept_1_split_0
I0503 05:51:59.985355 18563 net.cpp:409] accuracy -> accuracy
…
