…
I0507 19:51:51.069238  6710 net.cpp:323] The NetState phase (0) differed from the phase (1) specified by a rule in layer intercept
I0507 19:51:51.069255  6710 net.cpp:323] The NetState phase (0) differed from the phase (1) specified by a rule in layer loss
I0507 19:51:51.069342  6710 net.cpp:52] Initializing net from parameters: 
state {
  phase: TRAIN
}
layer {
  name: "parameters"
  type: "HDF5Data"
  top: "data"
  top: "label"
  include {
    phase: TRAIN
  }
  hdf5_data_param {
    source: "/home/purduethu/scratch/radon/d/deng106/CNNStatisticalModel/distributions/input/50_distributions_400_sample_size_train-parameters-path.txt"
    batch_size: 20
  }
}
layer {
  name: "conv1"
  type: "Convolution"
  bottom: "data"
  top: "conv1"
  param {
    lr_mult: 1
  }
  param {
    lr_mult: 2
  }
  convolution_param {
    num_output: 64
    pad: 2
    kernel_size: 5
    stride: 1
    weight_filler {
      type: "gaussian"
      std: 0.0001
    }
    bias_filler {
      type: "constant"
    }
  }
}
layer {
  name: "relu1"
  type: "ReLU"
  bottom: "conv1"
  top: "conv1"
}
layer {
  name: "conv2"
  type: "Convolution"
  bottom: "conv1"
  top: "conv2"
  param {
    lr_mult: 1
  }
  param {
    lr_mult: 2
  }
  convolution_param {
    num_output: 64
    pad: 2
    kernel_size: 5
    stride: 1
    weight_filler {
      type: "gaussian"
      std: 0.01
    }
    bias_filler {
      type: "constant"
    }
  }
}
layer {
  name: "relu2"
  type: "ReLU"
  bottom: "conv2"
  top: "conv2"
}
layer {
  name: "pool2"
  type: "Pooling"
  bottom: "conv2"
  top: "pool2"
  pooling_param {
    pool: MAX
    kernel_size: 3
    stride: 2
  }
}
layer {
  name: "conv3"
  type: "Convolution"
  bottom: "pool2"
  top: "conv3"
  param {
    lr_mult: 1
  }
  param {
    lr_mult: 2
  }
  convolution_param {
    num_output: 64
    pad: 2
    kernel_size: 5
    stride: 1
    weight_filler {
      type: "gaussian"
      std: 0.01
    }
    bias_filler {
      type: "constant"
    }
  }
}
layer {
  name: "relu3"
  type: "ReLU"
  bottom: "conv3"
  top: "conv3"
}
layer {
  name: "conv4"
  type: "Convolution"
  bottom: "conv3"
  top: "conv4"
  param {
    lr_mult: 1
  }
  param {
    lr_mult: 2
  }
  convolution_param {
    num_output: 64
    pad: 2
    kernel_size: 5
    stride: 1
    weight_filler {
      type: "gaussian"
      std: 0.01
    }
    bias_filler {
      type: "constant"
    }
  }
}
layer {
  name: "relu4"
  type: "ReLU"
  bottom: "conv4"
  top: "conv4"
}
layer {
  name: "conv5"
  type: "Convolution"
  bottom: "conv4"
  top: "conv5"
  param {
    lr_mult: 1
  }
  param {
    lr_mult: 2
  }
  convolution_param {
    num_output: 64
    pad: 2
    kernel_size: 5
    stride: 1
    weight_filler {
      type: "gaussian"
      std: 0.01
    }
    bias_filler {
      type: "constant"
    }
  }
}
layer {
  name: "relu5"
  type: "ReLU"
  bottom: "conv5"
  top: "conv5"
}
layer {
  name: "pool5"
  type: "Pooling"
  bottom: "conv5"
  top: "pool5"
  pooling_param {
    pool: AVE
    kernel_size: 3
    stride: 2
  }
}
layer {
  name: "ip1"
  type: "InnerProduct"
  bottom: "pool5"
  top: "ip1"
  param {
    lr_mult: 1
  }
  param {
    lr_mult: 2
  }
  inner_product_param {
    num_output: 64
    weight_filler {
      type: "gaussian"
      std: 0.1
    }
    bias_filler {
      type: "constant"
    }
  }
}
layer {
  name: "ip2"
  type: "InnerProduct"
  bottom: "ip1"
  top: "ip2"
  param {
    lr_mult: 1
  }
  param {
    lr_mult: 2
  }
  inner_product_param {
    num_output: 64
    weight_filler {
      type: "gaussian"
      std: 0.1
    }
    bias_filler {
      type: "constant"
    }
  }
}
layer {
  name: "ip3"
  type: "InnerProduct"
  bottom: "ip2"
  top: "ip3"
  param {
    lr_mult: 1
  }
  param {
    lr_mult: 2
  }
  inner_product_param {
    num_output: 1
    weight_filler {
      type: "gaussian"
      std: 0.1
    }
    bias_filler {
      type: "constant"
    }
  }
}
layer {
  name: "loss"
  type: "HuberLoss"
  bottom: "ip3"
  bottom: "label"
  top: "loss"
  include {
    phase: TRAIN
  }
}
I0507 19:51:51.069401  6710 layer_factory.hpp:77] Creating layer parameters
I0507 19:51:51.069416  6710 net.cpp:94] Creating Layer parameters
I0507 19:51:51.069422  6710 net.cpp:409] parameters -> data
I0507 19:51:51.069435  6710 net.cpp:409] parameters -> label
I0507 19:51:51.069442  6710 hdf5_data_layer.cpp:79] Loading list of HDF5 filenames from: /home/purduethu/scratch/radon/d/deng106/CNNStatisticalModel/distributions/input/50_distributions_400_sample_size_train-parameters-path.txt
I0507 19:51:51.069458  6710 hdf5_data_layer.cpp:93] Number of HDF5 files: 1
I0507 19:51:51.070024  6710 hdf5.cpp:32] Datatype class: H5T_FLOAT
I0507 19:51:51.726183  6710 net.cpp:144] Setting up parameters
I0507 19:51:51.726215  6710 net.cpp:151] Top shape: 20 1 20 20 (8000)
I0507 19:51:51.726222  6710 net.cpp:151] Top shape: 20 (20)
I0507 19:51:51.726224  6710 net.cpp:159] Memory required for data: 32080
I0507 19:51:51.726231  6710 layer_factory.hpp:77] Creating layer conv1
I0507 19:51:51.726246  6710 net.cpp:94] Creating Layer conv1
I0507 19:51:51.726251  6710 net.cpp:435] conv1 <- data
I0507 19:51:51.726258  6710 net.cpp:409] conv1 -> conv1
I0507 19:51:51.731766  6710 net.cpp:144] Setting up conv1
I0507 19:51:51.731786  6710 net.cpp:151] Top shape: 20 64 20 20 (512000)
I0507 19:51:51.731789  6710 net.cpp:159] Memory required for data: 2080080
I0507 19:51:51.731801  6710 layer_factory.hpp:77] Creating layer relu1
I0507 19:51:51.731809  6710 net.cpp:94] Creating Layer relu1
I0507 19:51:51.731813  6710 net.cpp:435] relu1 <- conv1
I0507 19:51:51.731817  6710 net.cpp:396] relu1 -> conv1 (in-place)
I0507 19:51:51.731827  6710 net.cpp:144] Setting up relu1
I0507 19:51:51.731832  6710 net.cpp:151] Top shape: 20 64 20 20 (512000)
I0507 19:51:51.731834  6710 net.cpp:159] Memory required for data: 4128080
I0507 19:51:51.731837  6710 layer_factory.hpp:77] Creating layer conv2
I0507 19:51:51.731845  6710 net.cpp:94] Creating Layer conv2
I0507 19:51:51.731848  6710 net.cpp:435] conv2 <- conv1
I0507 19:51:51.731853  6710 net.cpp:409] conv2 -> conv2
I0507 19:51:51.743122  6710 net.cpp:144] Setting up conv2
I0507 19:51:51.743139  6710 net.cpp:151] Top shape: 20 64 20 20 (512000)
I0507 19:51:51.743142  6710 net.cpp:159] Memory required for data: 6176080
I0507 19:51:51.743150  6710 layer_factory.hpp:77] Creating layer relu2
I0507 19:51:51.743157  6710 net.cpp:94] Creating Layer relu2
I0507 19:51:51.743161  6710 net.cpp:435] relu2 <- conv2
I0507 19:51:51.743165  6710 net.cpp:396] relu2 -> conv2 (in-place)
I0507 19:51:51.743173  6710 net.cpp:144] Setting up relu2
I0507 19:51:51.743177  6710 net.cpp:151] Top shape: 20 64 20 20 (512000)
I0507 19:51:51.743180  6710 net.cpp:159] Memory required for data: 8224080
I0507 19:51:51.743183  6710 layer_factory.hpp:77] Creating layer pool2
I0507 19:51:51.743196  6710 net.cpp:94] Creating Layer pool2
I0507 19:51:51.743199  6710 net.cpp:435] pool2 <- conv2
I0507 19:51:51.743204  6710 net.cpp:409] pool2 -> pool2
I0507 19:51:51.743263  6710 net.cpp:144] Setting up pool2
I0507 19:51:51.743270  6710 net.cpp:151] Top shape: 20 64 10 10 (128000)
I0507 19:51:51.743273  6710 net.cpp:159] Memory required for data: 8736080
I0507 19:51:51.743276  6710 layer_factory.hpp:77] Creating layer conv3
I0507 19:51:51.743285  6710 net.cpp:94] Creating Layer conv3
I0507 19:51:51.743288  6710 net.cpp:435] conv3 <- pool2
I0507 19:51:51.743294  6710 net.cpp:409] conv3 -> conv3
I0507 19:51:51.748832  6710 net.cpp:144] Setting up conv3
I0507 19:51:51.748847  6710 net.cpp:151] Top shape: 20 64 10 10 (128000)
I0507 19:51:51.748850  6710 net.cpp:159] Memory required for data: 9248080
I0507 19:51:51.748858  6710 layer_factory.hpp:77] Creating layer relu3
I0507 19:51:51.748864  6710 net.cpp:94] Creating Layer relu3
I0507 19:51:51.748868  6710 net.cpp:435] relu3 <- conv3
I0507 19:51:51.748873  6710 net.cpp:396] relu3 -> conv3 (in-place)
I0507 19:51:51.748880  6710 net.cpp:144] Setting up relu3
I0507 19:51:51.748884  6710 net.cpp:151] Top shape: 20 64 10 10 (128000)
I0507 19:51:51.748888  6710 net.cpp:159] Memory required for data: 9760080
I0507 19:51:51.748890  6710 layer_factory.hpp:77] Creating layer conv4
I0507 19:51:51.748899  6710 net.cpp:94] Creating Layer conv4
I0507 19:51:51.748903  6710 net.cpp:435] conv4 <- conv3
I0507 19:51:51.748908  6710 net.cpp:409] conv4 -> conv4
I0507 19:51:51.754385  6710 net.cpp:144] Setting up conv4
I0507 19:51:51.754400  6710 net.cpp:151] Top shape: 20 64 10 10 (128000)
I0507 19:51:51.754403  6710 net.cpp:159] Memory required for data: 10272080
I0507 19:51:51.754410  6710 layer_factory.hpp:77] Creating layer relu4
I0507 19:51:51.754416  6710 net.cpp:94] Creating Layer relu4
I0507 19:51:51.754420  6710 net.cpp:435] relu4 <- conv4
I0507 19:51:51.754425  6710 net.cpp:396] relu4 -> conv4 (in-place)
I0507 19:51:51.754431  6710 net.cpp:144] Setting up relu4
I0507 19:51:51.754436  6710 net.cpp:151] Top shape: 20 64 10 10 (128000)
I0507 19:51:51.754438  6710 net.cpp:159] Memory required for data: 10784080
I0507 19:51:51.754441  6710 layer_factory.hpp:77] Creating layer conv5
I0507 19:51:51.754449  6710 net.cpp:94] Creating Layer conv5
I0507 19:51:51.754452  6710 net.cpp:435] conv5 <- conv4
I0507 19:51:51.754456  6710 net.cpp:409] conv5 -> conv5
I0507 19:51:51.759958  6710 net.cpp:144] Setting up conv5
I0507 19:51:51.759973  6710 net.cpp:151] Top shape: 20 64 10 10 (128000)
I0507 19:51:51.759976  6710 net.cpp:159] Memory required for data: 11296080
I0507 19:51:51.759984  6710 layer_factory.hpp:77] Creating layer relu5
I0507 19:51:51.759990  6710 net.cpp:94] Creating Layer relu5
I0507 19:51:51.759994  6710 net.cpp:435] relu5 <- conv5
I0507 19:51:51.759999  6710 net.cpp:396] relu5 -> conv5 (in-place)
I0507 19:51:51.760005  6710 net.cpp:144] Setting up relu5
I0507 19:51:51.760010  6710 net.cpp:151] Top shape: 20 64 10 10 (128000)
I0507 19:51:51.760013  6710 net.cpp:159] Memory required for data: 11808080
I0507 19:51:51.760016  6710 layer_factory.hpp:77] Creating layer pool5
I0507 19:51:51.760020  6710 net.cpp:94] Creating Layer pool5
I0507 19:51:51.760023  6710 net.cpp:435] pool5 <- conv5
I0507 19:51:51.760027  6710 net.cpp:409] pool5 -> pool5
I0507 19:51:51.760069  6710 net.cpp:144] Setting up pool5
I0507 19:51:51.760076  6710 net.cpp:151] Top shape: 20 64 5 5 (32000)
I0507 19:51:51.760079  6710 net.cpp:159] Memory required for data: 11936080
I0507 19:51:51.760082  6710 layer_factory.hpp:77] Creating layer ip1
I0507 19:51:51.760093  6710 net.cpp:94] Creating Layer ip1
I0507 19:51:51.760097  6710 net.cpp:435] ip1 <- pool5
I0507 19:51:51.760102  6710 net.cpp:409] ip1 -> ip1
I0507 19:51:51.762718  6710 net.cpp:144] Setting up ip1
I0507 19:51:51.762728  6710 net.cpp:151] Top shape: 20 64 (1280)
I0507 19:51:51.762732  6710 net.cpp:159] Memory required for data: 11941200
I0507 19:51:51.762737  6710 layer_factory.hpp:77] Creating layer ip2
I0507 19:51:51.762743  6710 net.cpp:94] Creating Layer ip2
I0507 19:51:51.762750  6710 net.cpp:435] ip2 <- ip1
I0507 19:51:51.762756  6710 net.cpp:409] ip2 -> ip2
I0507 19:51:51.762979  6710 net.cpp:144] Setting up ip2
I0507 19:51:51.762986  6710 net.cpp:151] Top shape: 20 64 (1280)
I0507 19:51:51.762989  6710 net.cpp:159] Memory required for data: 11946320
I0507 19:51:51.762995  6710 layer_factory.hpp:77] Creating layer ip3
I0507 19:51:51.763000  6710 net.cpp:94] Creating Layer ip3
I0507 19:51:51.763003  6710 net.cpp:435] ip3 <- ip2
I0507 19:51:51.763008  6710 net.cpp:409] ip3 -> ip3
I0507 19:51:51.763119  6710 net.cpp:144] Setting up ip3
I0507 19:51:51.763125  6710 net.cpp:151] Top shape: 20 1 (20)
I0507 19:51:51.763128  6710 net.cpp:159] Memory required for data: 11946400
I0507 19:51:51.763134  6710 layer_factory.hpp:77] Creating layer loss
I0507 19:51:51.763144  6710 net.cpp:94] Creating Layer loss
I0507 19:51:51.763147  6710 net.cpp:435] loss <- ip3
I0507 19:51:51.763151  6710 net.cpp:435] loss <- label
I0507 19:51:51.763155  6710 net.cpp:409] loss -> loss
I0507 19:51:51.763209  6710 net.cpp:144] Setting up loss
…
I0507 19:51:51.951274  6710 net.cpp:323] The NetState phase (0) differed from the phase (1) specified by a rule in layer intercept
I0507 19:51:51.951289  6710 net.cpp:323] The NetState phase (0) differed from the phase (1) specified by a rule in layer accuracy
I0507 19:51:51.951377  6710 net.cpp:52] Initializing net from parameters: 
state {
  phase: TRAIN
}
layer {
  name: "parameters"
  type: "HDF5Data"
  top: "data"
  top: "label"
  include {
    phase: TRAIN
  }
  hdf5_data_param {
    source: "/home/purduethu/scratch/radon/d/deng106/CNNStatisticalModel/distributions/input/50_distributions_400_sample_size_train-distributions-path.txt"
    batch_size: 20
  }
}
layer {
  name: "conv1"
  type: "Convolution"
  bottom: "data"
  top: "conv1"
  param {
    lr_mult: 1
  }
  param {
    lr_mult: 2
  }
  convolution_param {
    num_output: 64
    pad: 2
    kernel_size: 5
    stride: 1
    weight_filler {
      type: "gaussian"
      std: 0.0001
    }
    bias_filler {
      type: "constant"
    }
  }
}
layer {
  name: "relu1"
  type: "ReLU"
  bottom: "conv1"
  top: "conv1"
}
layer {
  name: "conv2"
  type: "Convolution"
  bottom: "conv1"
  top: "conv2"
  param {
    lr_mult: 1
  }
  param {
    lr_mult: 2
  }
  convolution_param {
    num_output: 64
    pad: 2
    kernel_size: 5
    stride: 1
    weight_filler {
      type: "gaussian"
      std: 0.01
    }
    bias_filler {
      type: "constant"
    }
  }
}
layer {
  name: "relu2"
  type: "ReLU"
  bottom: "conv2"
  top: "conv2"
}
layer {
  name: "pool2"
  type: "Pooling"
  bottom: "conv2"
  top: "pool2"
  pooling_param {
    pool: MAX
    kernel_size: 3
    stride: 2
  }
}
layer {
  name: "conv3"
  type: "Convolution"
  bottom: "pool2"
  top: "conv3"
  param {
    lr_mult: 1
  }
  param {
    lr_mult: 2
  }
  convolution_param {
    num_output: 64
    pad: 2
    kernel_size: 5
    stride: 1
    weight_filler {
      type: "gaussian"
      std: 0.01
    }
    bias_filler {
      type: "constant"
    }
  }
}
layer {
  name: "relu3"
  type: "ReLU"
  bottom: "conv3"
  top: "conv3"
}
layer {
  name: "conv4"
  type: "Convolution"
  bottom: "conv3"
  top: "conv4"
  param {
    lr_mult: 1
  }
  param {
    lr_mult: 2
  }
  convolution_param {
    num_output: 64
    pad: 2
    kernel_size: 5
    stride: 1
    weight_filler {
      type: "gaussian"
      std: 0.01
    }
    bias_filler {
      type: "constant"
    }
  }
}
layer {
  name: "relu4"
  type: "ReLU"
  bottom: "conv4"
  top: "conv4"
}
layer {
  name: "conv5"
  type: "Convolution"
  bottom: "conv4"
  top: "conv5"
  param {
    lr_mult: 1
  }
  param {
    lr_mult: 2
  }
  convolution_param {
    num_output: 64
    pad: 2
    kernel_size: 5
    stride: 1
    weight_filler {
      type: "gaussian"
      std: 0.01
    }
    bias_filler {
      type: "constant"
    }
  }
}
layer {
  name: "relu5"
  type: "ReLU"
  bottom: "conv5"
  top: "conv5"
}
layer {
  name: "pool5"
  type: "Pooling"
  bottom: "conv5"
  top: "pool5"
  pooling_param {
    pool: AVE
    kernel_size: 3
    stride: 2
  }
}
layer {
  name: "ip1"
  type: "InnerProduct"
  bottom: "pool5"
  top: "ip1"
  param {
    lr_mult: 1
  }
  param {
    lr_mult: 2
  }
  inner_product_param {
    num_output: 64
    weight_filler {
      type: "gaussian"
      std: 0.1
    }
    bias_filler {
      type: "constant"
    }
  }
}
layer {
  name: "ip2"
  type: "InnerProduct"
  bottom: "ip1"
  top: "ip2"
  param {
    lr_mult: 1
  }
  param {
    lr_mult: 2
  }
  inner_product_param {
    num_output: 64
    weight_filler {
      type: "gaussian"
      std: 0.1
    }
    bias_filler {
      type: "constant"
    }
  }
}
layer {
  name: "ip3"
  type: "InnerProduct"
  bottom: "ip2"
  top: "ip3"
  param {
    lr_mult: 1
  }
  param {
    lr_mult: 2
  }
  inner_product_param {
    num_output: 50
    weight_filler {
      type: "gaussian"
      std: 0.1
    }
    bias_filler {
      type: "constant"
    }
  }
}
layer {
  name: "loss"
  type: "SoftmaxWithLoss"
  bottom: "ip3"
  bottom: "label"
  top: "loss"
}
I0507 19:51:51.951429  6710 layer_factory.hpp:77] Creating layer parameters
I0507 19:51:51.951437  6710 net.cpp:94] Creating Layer parameters
I0507 19:51:51.951442  6710 net.cpp:409] parameters -> data
I0507 19:51:51.951448  6710 net.cpp:409] parameters -> label
I0507 19:51:51.951454  6710 hdf5_data_layer.cpp:79] Loading list of HDF5 filenames from: /home/purduethu/scratch/radon/d/deng106/CNNStatisticalModel/distributions/input/50_distributions_400_sample_size_train-distributions-path.txt
I0507 19:51:51.951470  6710 hdf5_data_layer.cpp:93] Number of HDF5 files: 1
I0507 19:51:52.592931  6710 hdf5.cpp:35] Datatype class: H5T_INTEGER
I0507 19:51:52.595935  6710 net.cpp:144] Setting up parameters
I0507 19:51:52.595957  6710 net.cpp:151] Top shape: 20 1 20 20 (8000)
I0507 19:51:52.595962  6710 net.cpp:151] Top shape: 20 (20)
I0507 19:51:52.595965  6710 net.cpp:159] Memory required for data: 32080
I0507 19:51:52.595970  6710 layer_factory.hpp:77] Creating layer conv1
I0507 19:51:52.595986  6710 net.cpp:94] Creating Layer conv1
I0507 19:51:52.595990  6710 net.cpp:435] conv1 <- data
I0507 19:51:52.595996  6710 net.cpp:409] conv1 -> conv1
I0507 19:51:52.598763  6710 net.cpp:144] Setting up conv1
I0507 19:51:52.598778  6710 net.cpp:151] Top shape: 20 64 20 20 (512000)
I0507 19:51:52.598783  6710 net.cpp:159] Memory required for data: 2080080
I0507 19:51:52.598793  6710 layer_factory.hpp:77] Creating layer relu1
I0507 19:51:52.598799  6710 net.cpp:94] Creating Layer relu1
I0507 19:51:52.598803  6710 net.cpp:435] relu1 <- conv1
I0507 19:51:52.598808  6710 net.cpp:396] relu1 -> conv1 (in-place)
I0507 19:51:52.598814  6710 net.cpp:144] Setting up relu1
I0507 19:51:52.598819  6710 net.cpp:151] Top shape: 20 64 20 20 (512000)
I0507 19:51:52.598821  6710 net.cpp:159] Memory required for data: 4128080
I0507 19:51:52.598824  6710 layer_factory.hpp:77] Creating layer conv2
I0507 19:51:52.598832  6710 net.cpp:94] Creating Layer conv2
I0507 19:51:52.598835  6710 net.cpp:435] conv2 <- conv1
I0507 19:51:52.598839  6710 net.cpp:409] conv2 -> conv2
I0507 19:51:52.608844  6710 net.cpp:144] Setting up conv2
I0507 19:51:52.608881  6710 net.cpp:151] Top shape: 20 64 20 20 (512000)
I0507 19:51:52.608901  6710 net.cpp:159] Memory required for data: 6176080
I0507 19:51:52.608908  6710 layer_factory.hpp:77] Creating layer relu2
I0507 19:51:52.608916  6710 net.cpp:94] Creating Layer relu2
I0507 19:51:52.608919  6710 net.cpp:435] relu2 <- conv2
I0507 19:51:52.608923  6710 net.cpp:396] relu2 -> conv2 (in-place)
I0507 19:51:52.608930  6710 net.cpp:144] Setting up relu2
I0507 19:51:52.608934  6710 net.cpp:151] Top shape: 20 64 20 20 (512000)
I0507 19:51:52.608937  6710 net.cpp:159] Memory required for data: 8224080
I0507 19:51:52.608940  6710 layer_factory.hpp:77] Creating layer pool2
I0507 19:51:52.608947  6710 net.cpp:94] Creating Layer pool2
I0507 19:51:52.608949  6710 net.cpp:435] pool2 <- conv2
I0507 19:51:52.608953  6710 net.cpp:409] pool2 -> pool2
I0507 19:51:52.609010  6710 net.cpp:144] Setting up pool2
I0507 19:51:52.609017  6710 net.cpp:151] Top shape: 20 64 10 10 (128000)
I0507 19:51:52.609020  6710 net.cpp:159] Memory required for data: 8736080
I0507 19:51:52.609024  6710 layer_factory.hpp:77] Creating layer conv3
I0507 19:51:52.609031  6710 net.cpp:94] Creating Layer conv3
I0507 19:51:52.609035  6710 net.cpp:435] conv3 <- pool2
I0507 19:51:52.609045  6710 net.cpp:409] conv3 -> conv3
I0507 19:51:52.614522  6710 net.cpp:144] Setting up conv3
I0507 19:51:52.614537  6710 net.cpp:151] Top shape: 20 64 10 10 (128000)
I0507 19:51:52.614540  6710 net.cpp:159] Memory required for data: 9248080
I0507 19:51:52.614548  6710 layer_factory.hpp:77] Creating layer relu3
I0507 19:51:52.614554  6710 net.cpp:94] Creating Layer relu3
I0507 19:51:52.614557  6710 net.cpp:435] relu3 <- conv3
I0507 19:51:52.614562  6710 net.cpp:396] relu3 -> conv3 (in-place)
I0507 19:51:52.614568  6710 net.cpp:144] Setting up relu3
I0507 19:51:52.614573  6710 net.cpp:151] Top shape: 20 64 10 10 (128000)
I0507 19:51:52.614576  6710 net.cpp:159] Memory required for data: 9760080
I0507 19:51:52.614579  6710 layer_factory.hpp:77] Creating layer conv4
I0507 19:51:52.614588  6710 net.cpp:94] Creating Layer conv4
I0507 19:51:52.614590  6710 net.cpp:435] conv4 <- conv3
I0507 19:51:52.614595  6710 net.cpp:409] conv4 -> conv4
I0507 19:51:52.620065  6710 net.cpp:144] Setting up conv4
I0507 19:51:52.620079  6710 net.cpp:151] Top shape: 20 64 10 10 (128000)
I0507 19:51:52.620082  6710 net.cpp:159] Memory required for data: 10272080
I0507 19:51:52.620090  6710 layer_factory.hpp:77] Creating layer relu4
I0507 19:51:52.620095  6710 net.cpp:94] Creating Layer relu4
I0507 19:51:52.620098  6710 net.cpp:435] relu4 <- conv4
I0507 19:51:52.620102  6710 net.cpp:396] relu4 -> conv4 (in-place)
I0507 19:51:52.620110  6710 net.cpp:144] Setting up relu4
I0507 19:51:52.620115  6710 net.cpp:151] Top shape: 20 64 10 10 (128000)
I0507 19:51:52.620117  6710 net.cpp:159] Memory required for data: 10784080
I0507 19:51:52.620120  6710 layer_factory.hpp:77] Creating layer conv5
I0507 19:51:52.620127  6710 net.cpp:94] Creating Layer conv5
I0507 19:51:52.620131  6710 net.cpp:435] conv5 <- conv4
I0507 19:51:52.620136  6710 net.cpp:409] conv5 -> conv5
I0507 19:51:52.625602  6710 net.cpp:144] Setting up conv5
I0507 19:51:52.625617  6710 net.cpp:151] Top shape: 20 64 10 10 (128000)
I0507 19:51:52.625620  6710 net.cpp:159] Memory required for data: 11296080
I0507 19:51:52.625628  6710 layer_factory.hpp:77] Creating layer relu5
I0507 19:51:52.625635  6710 net.cpp:94] Creating Layer relu5
I0507 19:51:52.625638  6710 net.cpp:435] relu5 <- conv5
I0507 19:51:52.625643  6710 net.cpp:396] relu5 -> conv5 (in-place)
I0507 19:51:52.625649  6710 net.cpp:144] Setting up relu5
I0507 19:51:52.625653  6710 net.cpp:151] Top shape: 20 64 10 10 (128000)
I0507 19:51:52.625656  6710 net.cpp:159] Memory required for data: 11808080
I0507 19:51:52.625659  6710 layer_factory.hpp:77] Creating layer pool5
I0507 19:51:52.625664  6710 net.cpp:94] Creating Layer pool5
I0507 19:51:52.625668  6710 net.cpp:435] pool5 <- conv5
I0507 19:51:52.625671  6710 net.cpp:409] pool5 -> pool5
I0507 19:51:52.625710  6710 net.cpp:144] Setting up pool5
I0507 19:51:52.625716  6710 net.cpp:151] Top shape: 20 64 5 5 (32000)
I0507 19:51:52.625720  6710 net.cpp:159] Memory required for data: 11936080
I0507 19:51:52.625722  6710 layer_factory.hpp:77] Creating layer ip1
I0507 19:51:52.625728  6710 net.cpp:94] Creating Layer ip1
I0507 19:51:52.625731  6710 net.cpp:435] ip1 <- pool5
I0507 19:51:52.625736  6710 net.cpp:409] ip1 -> ip1
I0507 19:51:52.629123  6710 net.cpp:144] Setting up ip1
I0507 19:51:52.629137  6710 net.cpp:151] Top shape: 20 64 (1280)
I0507 19:51:52.629140  6710 net.cpp:159] Memory required for data: 11941200
I0507 19:51:52.629146  6710 layer_factory.hpp:77] Creating layer ip2
I0507 19:51:52.629153  6710 net.cpp:94] Creating Layer ip2
I0507 19:51:52.629156  6710 net.cpp:435] ip2 <- ip1
I0507 19:51:52.629161  6710 net.cpp:409] ip2 -> ip2
I0507 19:51:52.629384  6710 net.cpp:144] Setting up ip2
I0507 19:51:52.629390  6710 net.cpp:151] Top shape: 20 64 (1280)
I0507 19:51:52.629395  6710 net.cpp:159] Memory required for data: 11946320
I0507 19:51:52.629400  6710 layer_factory.hpp:77] Creating layer ip3
I0507 19:51:52.629405  6710 net.cpp:94] Creating Layer ip3
I0507 19:51:52.629407  6710 net.cpp:435] ip3 <- ip2
I0507 19:51:52.629412  6710 net.cpp:409] ip3 -> ip3
I0507 19:51:52.629613  6710 net.cpp:144] Setting up ip3
I0507 19:51:52.629621  6710 net.cpp:151] Top shape: 20 50 (1000)
I0507 19:51:52.629624  6710 net.cpp:159] Memory required for data: 11950320
I0507 19:51:52.629629  6710 layer_factory.hpp:77] Creating layer loss
I0507 19:51:52.629636  6710 net.cpp:94] Creating Layer loss
I0507 19:51:52.629638  6710 net.cpp:435] loss <- ip3
I0507 19:51:52.629642  6710 net.cpp:435] loss <- label
I0507 19:51:52.629647  6710 net.cpp:409] loss -> loss
I0507 19:51:52.629652  6710 layer_factory.hpp:77] Creating layer loss
…
I0507 19:51:52.630156  6710 solver.cpp:181] Creating test net (#0) specified by net file: ./protocol/dis_50_400_dimension.protocol_distribution
I0507 19:51:52.630182  6710 net.cpp:323] The NetState phase (1) differed from the phase (0) specified by a rule in layer parameters
I0507 19:51:52.630271  6710 net.cpp:52] Initializing net from parameters: 
state {
  phase: TEST
}
layer {
  name: "intercept"
  type: "HDF5Data"
  top: "data"
  top: "label"
  include {
    phase: TEST
  }
  hdf5_data_param {
    source: "/home/purduethu/scratch/radon/d/deng106/CNNStatisticalModel/distributions/input/50_distributions_400_sample_size_test-distributions-path.txt"
    batch_size: 20
  }
}
layer {
  name: "conv1"
  type: "Convolution"
  bottom: "data"
  top: "conv1"
  param {
    lr_mult: 1
  }
  param {
    lr_mult: 2
  }
  convolution_param {
    num_output: 64
    pad: 2
    kernel_size: 5
    stride: 1
    weight_filler {
      type: "gaussian"
      std: 0.0001
    }
    bias_filler {
      type: "constant"
    }
  }
}
layer {
  name: "relu1"
  type: "ReLU"
  bottom: "conv1"
  top: "conv1"
}
layer {
  name: "conv2"
  type: "Convolution"
  bottom: "conv1"
  top: "conv2"
  param {
    lr_mult: 1
  }
  param {
    lr_mult: 2
  }
  convolution_param {
    num_output: 64
    pad: 2
    kernel_size: 5
    stride: 1
    weight_filler {
      type: "gaussian"
      std: 0.01
    }
    bias_filler {
      type: "constant"
    }
  }
}
layer {
  name: "relu2"
  type: "ReLU"
  bottom: "conv2"
  top: "conv2"
}
layer {
  name: "pool2"
  type: "Pooling"
  bottom: "conv2"
  top: "pool2"
  pooling_param {
    pool: MAX
    kernel_size: 3
    stride: 2
  }
}
layer {
  name: "conv3"
  type: "Convolution"
  bottom: "pool2"
  top: "conv3"
  param {
    lr_mult: 1
  }
  param {
    lr_mult: 2
  }
  convolution_param {
    num_output: 64
    pad: 2
    kernel_size: 5
    stride: 1
    weight_filler {
      type: "gaussian"
      std: 0.01
    }
    bias_filler {
      type: "constant"
    }
  }
}
layer {
  name: "relu3"
  type: "ReLU"
  bottom: "conv3"
  top: "conv3"
}
layer {
  name: "conv4"
  type: "Convolution"
  bottom: "conv3"
  top: "conv4"
  param {
    lr_mult: 1
  }
  param {
    lr_mult: 2
  }
  convolution_param {
    num_output: 64
    pad: 2
    kernel_size: 5
    stride: 1
    weight_filler {
      type: "gaussian"
      std: 0.01
    }
    bias_filler {
      type: "constant"
    }
  }
}
layer {
  name: "relu4"
  type: "ReLU"
  bottom: "conv4"
  top: "conv4"
}
layer {
  name: "conv5"
  type: "Convolution"
  bottom: "conv4"
  top: "conv5"
  param {
    lr_mult: 1
  }
  param {
    lr_mult: 2
  }
  convolution_param {
    num_output: 64
    pad: 2
    kernel_size: 5
    stride: 1
    weight_filler {
      type: "gaussian"
      std: 0.01
    }
    bias_filler {
      type: "constant"
    }
  }
}
layer {
  name: "relu5"
  type: "ReLU"
  bottom: "conv5"
  top: "conv5"
}
layer {
  name: "pool5"
  type: "Pooling"
  bottom: "conv5"
  top: "pool5"
  pooling_param {
    pool: AVE
    kernel_size: 3
    stride: 2
  }
}
layer {
  name: "ip1"
  type: "InnerProduct"
  bottom: "pool5"
  top: "ip1"
  param {
    lr_mult: 1
  }
  param {
    lr_mult: 2
  }
  inner_product_param {
    num_output: 64
    weight_filler {
      type: "gaussian"
      std: 0.1
    }
    bias_filler {
      type: "constant"
    }
  }
}
layer {
  name: "ip2"
  type: "InnerProduct"
  bottom: "ip1"
  top: "ip2"
  param {
    lr_mult: 1
  }
  param {
    lr_mult: 2
  }
  inner_product_param {
    num_output: 64
    weight_filler {
      type: "gaussian"
      std: 0.1
    }
    bias_filler {
      type: "constant"
    }
  }
}
layer {
  name: "ip3"
  type: "InnerProduct"
  bottom: "ip2"
  top: "ip3"
  param {
    lr_mult: 1
  }
  param {
    lr_mult: 2
  }
  inner_product_param {
    num_output: 50
    weight_filler {
      type: "gaussian"
      std: 0.1
    }
    bias_filler {
      type: "constant"
    }
  }
}
layer {
  name: "accuracy"
  type: "Accuracy"
  bottom: "ip3"
  bottom: "label"
  top: "accuracy"
  include {
    phase: TEST
  }
}
layer {
  name: "loss"
  type: "SoftmaxWithLoss"
  bottom: "ip3"
  bottom: "label"
  top: "loss"
}
I0507 19:51:52.630334  6710 layer_factory.hpp:77] Creating layer intercept
I0507 19:51:52.630342  6710 net.cpp:94] Creating Layer intercept
I0507 19:51:52.630347  6710 net.cpp:409] intercept -> data
I0507 19:51:52.630352  6710 net.cpp:409] intercept -> label
I0507 19:51:52.630357  6710 hdf5_data_layer.cpp:79] Loading list of HDF5 filenames from: /home/purduethu/scratch/radon/d/deng106/CNNStatisticalModel/distributions/input/50_distributions_400_sample_size_test-distributions-path.txt
I0507 19:51:52.630375  6710 hdf5_data_layer.cpp:93] Number of HDF5 files: 1
I0507 19:51:52.792284  6710 net.cpp:144] Setting up intercept
I0507 19:51:52.792315  6710 net.cpp:151] Top shape: 20 1 20 20 (8000)
I0507 19:51:52.792320  6710 net.cpp:151] Top shape: 20 (20)
I0507 19:51:52.792323  6710 net.cpp:159] Memory required for data: 32080
I0507 19:51:52.792330  6710 layer_factory.hpp:77] Creating layer label_intercept_1_split
I0507 19:51:52.792349  6710 net.cpp:94] Creating Layer label_intercept_1_split
I0507 19:51:52.792354  6710 net.cpp:435] label_intercept_1_split <- label
I0507 19:51:52.792361  6710 net.cpp:409] label_intercept_1_split -> label_intercept_1_split_0
I0507 19:51:52.792368  6710 net.cpp:409] label_intercept_1_split -> label_intercept_1_split_1
I0507 19:51:52.792412  6710 net.cpp:144] Setting up label_intercept_1_split
I0507 19:51:52.792418  6710 net.cpp:151] Top shape: 20 (20)
I0507 19:51:52.792421  6710 net.cpp:151] Top shape: 20 (20)
I0507 19:51:52.792424  6710 net.cpp:159] Memory required for data: 32240
I0507 19:51:52.792428  6710 layer_factory.hpp:77] Creating layer conv1
I0507 19:51:52.792438  6710 net.cpp:94] Creating Layer conv1
I0507 19:51:52.792440  6710 net.cpp:435] conv1 <- data
I0507 19:51:52.792445  6710 net.cpp:409] conv1 -> conv1
I0507 19:51:52.793834  6710 net.cpp:144] Setting up conv1
I0507 19:51:52.793855  6710 net.cpp:151] Top shape: 20 64 20 20 (512000)
I0507 19:51:52.793859  6710 net.cpp:159] Memory required for data: 2080240
I0507 19:51:52.793869  6710 layer_factory.hpp:77] Creating layer relu1
I0507 19:51:52.793876  6710 net.cpp:94] Creating Layer relu1
I0507 19:51:52.793879  6710 net.cpp:435] relu1 <- conv1
I0507 19:51:52.793884  6710 net.cpp:396] relu1 -> conv1 (in-place)
I0507 19:51:52.793890  6710 net.cpp:144] Setting up relu1
I0507 19:51:52.793895  6710 net.cpp:151] Top shape: 20 64 20 20 (512000)
I0507 19:51:52.793897  6710 net.cpp:159] Memory required for data: 4128240
I0507 19:51:52.793900  6710 layer_factory.hpp:77] Creating layer conv2
I0507 19:51:52.793907  6710 net.cpp:94] Creating Layer conv2
I0507 19:51:52.793910  6710 net.cpp:435] conv2 <- conv1
I0507 19:51:52.793915  6710 net.cpp:409] conv2 -> conv2
I0507 19:51:52.798966  6710 net.cpp:144] Setting up conv2
I0507 19:51:52.798980  6710 net.cpp:151] Top shape: 20 64 20 20 (512000)
I0507 19:51:52.798985  6710 net.cpp:159] Memory required for data: 6176240
I0507 19:51:52.798992  6710 layer_factory.hpp:77] Creating layer relu2
I0507 19:51:52.798998  6710 net.cpp:94] Creating Layer relu2
I0507 19:51:52.799001  6710 net.cpp:435] relu2 <- conv2
I0507 19:51:52.799007  6710 net.cpp:396] relu2 -> conv2 (in-place)
I0507 19:51:52.799015  6710 net.cpp:144] Setting up relu2
I0507 19:51:52.799018  6710 net.cpp:151] Top shape: 20 64 20 20 (512000)
I0507 19:51:52.799021  6710 net.cpp:159] Memory required for data: 8224240
I0507 19:51:52.799024  6710 layer_factory.hpp:77] Creating layer pool2
I0507 19:51:52.799031  6710 net.cpp:94] Creating Layer pool2
I0507 19:51:52.799033  6710 net.cpp:435] pool2 <- conv2
I0507 19:51:52.799038  6710 net.cpp:409] pool2 -> pool2
I0507 19:51:52.799096  6710 net.cpp:144] Setting up pool2
I0507 19:51:52.799103  6710 net.cpp:151] Top shape: 20 64 10 10 (128000)
I0507 19:51:52.799106  6710 net.cpp:159] Memory required for data: 8736240
I0507 19:51:52.799109  6710 layer_factory.hpp:77] Creating layer conv3
I0507 19:51:52.799118  6710 net.cpp:94] Creating Layer conv3
I0507 19:51:52.799121  6710 net.cpp:435] conv3 <- pool2
I0507 19:51:52.799126  6710 net.cpp:409] conv3 -> conv3
I0507 19:51:52.803114  6710 net.cpp:144] Setting up conv3
I0507 19:51:52.803128  6710 net.cpp:151] Top shape: 20 64 10 10 (128000)
I0507 19:51:52.803130  6710 net.cpp:159] Memory required for data: 9248240
I0507 19:51:52.803138  6710 layer_factory.hpp:77] Creating layer relu3
I0507 19:51:52.803146  6710 net.cpp:94] Creating Layer relu3
I0507 19:51:52.803150  6710 net.cpp:435] relu3 <- conv3
I0507 19:51:52.803154  6710 net.cpp:396] relu3 -> conv3 (in-place)
I0507 19:51:52.803161  6710 net.cpp:144] Setting up relu3
I0507 19:51:52.803165  6710 net.cpp:151] Top shape: 20 64 10 10 (128000)
I0507 19:51:52.803169  6710 net.cpp:159] Memory required for data: 9760240
I0507 19:51:52.803171  6710 layer_factory.hpp:77] Creating layer conv4
I0507 19:51:52.803179  6710 net.cpp:94] Creating Layer conv4
I0507 19:51:52.803184  6710 net.cpp:435] conv4 <- conv3
I0507 19:51:52.803189  6710 net.cpp:409] conv4 -> conv4
I0507 19:51:52.806772  6710 net.cpp:144] Setting up conv4
I0507 19:51:52.806785  6710 net.cpp:151] Top shape: 20 64 10 10 (128000)
I0507 19:51:52.806788  6710 net.cpp:159] Memory required for data: 10272240
I0507 19:51:52.806794  6710 layer_factory.hpp:77] Creating layer relu4
I0507 19:51:52.806802  6710 net.cpp:94] Creating Layer relu4
I0507 19:51:52.806804  6710 net.cpp:435] relu4 <- conv4
I0507 19:51:52.806809  6710 net.cpp:396] relu4 -> conv4 (in-place)
I0507 19:51:52.806815  6710 net.cpp:144] Setting up relu4
I0507 19:51:52.806819  6710 net.cpp:151] Top shape: 20 64 10 10 (128000)
I0507 19:51:52.806823  6710 net.cpp:159] Memory required for data: 10784240
I0507 19:51:52.806825  6710 layer_factory.hpp:77] Creating layer conv5
I0507 19:51:52.806833  6710 net.cpp:94] Creating Layer conv5
I0507 19:51:52.806836  6710 net.cpp:435] conv5 <- conv4
I0507 19:51:52.806843  6710 net.cpp:409] conv5 -> conv5
I0507 19:51:52.811673  6710 net.cpp:144] Setting up conv5
I0507 19:51:52.811691  6710 net.cpp:151] Top shape: 20 64 10 10 (128000)
I0507 19:51:52.811695  6710 net.cpp:159] Memory required for data: 11296240
I0507 19:51:52.811703  6710 layer_factory.hpp:77] Creating layer relu5
I0507 19:51:52.811709  6710 net.cpp:94] Creating Layer relu5
I0507 19:51:52.811713  6710 net.cpp:435] relu5 <- conv5
I0507 19:51:52.811718  6710 net.cpp:396] relu5 -> conv5 (in-place)
I0507 19:51:52.811725  6710 net.cpp:144] Setting up relu5
I0507 19:51:52.811729  6710 net.cpp:151] Top shape: 20 64 10 10 (128000)
I0507 19:51:52.811733  6710 net.cpp:159] Memory required for data: 11808240
I0507 19:51:52.811735  6710 layer_factory.hpp:77] Creating layer pool5
I0507 19:51:52.811740  6710 net.cpp:94] Creating Layer pool5
I0507 19:51:52.811743  6710 net.cpp:435] pool5 <- conv5
I0507 19:51:52.811748  6710 net.cpp:409] pool5 -> pool5
I0507 19:51:52.811789  6710 net.cpp:144] Setting up pool5
I0507 19:51:52.811795  6710 net.cpp:151] Top shape: 20 64 5 5 (32000)
I0507 19:51:52.811799  6710 net.cpp:159] Memory required for data: 11936240
I0507 19:51:52.811801  6710 layer_factory.hpp:77] Creating layer ip1
I0507 19:51:52.811808  6710 net.cpp:94] Creating Layer ip1
I0507 19:51:52.811812  6710 net.cpp:435] ip1 <- pool5
I0507 19:51:52.811816  6710 net.cpp:409] ip1 -> ip1
I0507 19:51:52.814378  6710 net.cpp:144] Setting up ip1
I0507 19:51:52.814388  6710 net.cpp:151] Top shape: 20 64 (1280)
I0507 19:51:52.814390  6710 net.cpp:159] Memory required for data: 11941360
I0507 19:51:52.814396  6710 layer_factory.hpp:77] Creating layer ip2
I0507 19:51:52.814404  6710 net.cpp:94] Creating Layer ip2
I0507 19:51:52.814406  6710 net.cpp:435] ip2 <- ip1
I0507 19:51:52.814410  6710 net.cpp:409] ip2 -> ip2
I0507 19:51:52.814651  6710 net.cpp:144] Setting up ip2
I0507 19:51:52.814659  6710 net.cpp:151] Top shape: 20 64 (1280)
I0507 19:51:52.814662  6710 net.cpp:159] Memory required for data: 11946480
I0507 19:51:52.814667  6710 layer_factory.hpp:77] Creating layer ip3
I0507 19:51:52.814676  6710 net.cpp:94] Creating Layer ip3
I0507 19:51:52.814678  6710 net.cpp:435] ip3 <- ip2
I0507 19:51:52.814683  6710 net.cpp:409] ip3 -> ip3
I0507 19:51:52.814894  6710 net.cpp:144] Setting up ip3
I0507 19:51:52.814901  6710 net.cpp:151] Top shape: 20 50 (1000)
I0507 19:51:52.814904  6710 net.cpp:159] Memory required for data: 11950480
I0507 19:51:52.814909  6710 layer_factory.hpp:77] Creating layer ip3_ip3_0_split
I0507 19:51:52.814914  6710 net.cpp:94] Creating Layer ip3_ip3_0_split
I0507 19:51:52.814918  6710 net.cpp:435] ip3_ip3_0_split <- ip3
I0507 19:51:52.814923  6710 net.cpp:409] ip3_ip3_0_split -> ip3_ip3_0_split_0
I0507 19:51:52.814929  6710 net.cpp:409] ip3_ip3_0_split -> ip3_ip3_0_split_1
I0507 19:51:52.814971  6710 net.cpp:144] Setting up ip3_ip3_0_split
I0507 19:51:52.814977  6710 net.cpp:151] Top shape: 20 50 (1000)
I0507 19:51:52.814981  6710 net.cpp:151] Top shape: 20 50 (1000)
I0507 19:51:52.814985  6710 net.cpp:159] Memory required for data: 11958480
I0507 19:51:52.814987  6710 layer_factory.hpp:77] Creating layer accuracy
I0507 19:51:52.814992  6710 net.cpp:94] Creating Layer accuracy
I0507 19:51:52.814996  6710 net.cpp:435] accuracy <- ip3_ip3_0_split_0
I0507 19:51:52.814999  6710 net.cpp:435] accuracy <- label_intercept_1_split_0
I0507 19:51:52.815003  6710 net.cpp:409] accuracy -> accuracy
…
