…
I0505 08:33:07.873224  5316 net.cpp:323] The NetState phase (0) differed from the phase (1) specified by a rule in layer intercept
I0505 08:33:07.873239  5316 net.cpp:323] The NetState phase (0) differed from the phase (1) specified by a rule in layer accuracy
I0505 08:33:07.873317  5316 net.cpp:52] Initializing net from parameters: 
state {
  phase: TRAIN
}
layer {
  name: "parameters"
  type: "HDF5Data"
  top: "data"
  top: "label"
  include {
    phase: TRAIN
  }
  hdf5_data_param {
    source: "/home/purduethu/scratch/radon/d/deng106/CNNStatisticalModel/distributions/input/50_distributions_100_sample_size_train-distributions-path.txt"
    batch_size: 20
  }
}
layer {
  name: "conv1"
  type: "Convolution"
  bottom: "data"
  top: "conv1"
  param {
    lr_mult: 1
  }
  param {
    lr_mult: 2
  }
  convolution_param {
    num_output: 64
    pad: 2
    kernel_size: 5
    stride: 1
    weight_filler {
      type: "gaussian"
      std: 0.0001
    }
    bias_filler {
      type: "constant"
    }
  }
}
layer {
  name: "relu1"
  type: "ReLU"
  bottom: "conv1"
  top: "conv1"
}
layer {
  name: "pool1"
  type: "Pooling"
  bottom: "conv1"
  top: "pool1"
  pooling_param {
    pool: MAX
    kernel_size: 3
    stride: 2
  }
}
layer {
  name: "conv2"
  type: "Convolution"
  bottom: "pool1"
  top: "conv2"
  param {
    lr_mult: 1
  }
  param {
    lr_mult: 2
  }
  convolution_param {
    num_output: 128
    pad: 2
    kernel_size: 5
    stride: 1
    weight_filler {
      type: "gaussian"
      std: 0.01
    }
    bias_filler {
      type: "constant"
    }
  }
}
layer {
  name: "relu2"
  type: "ReLU"
  bottom: "conv2"
  top: "conv2"
}
layer {
  name: "conv3"
  type: "Convolution"
  bottom: "conv2"
  top: "conv3"
  param {
    lr_mult: 1
  }
  param {
    lr_mult: 2
  }
  convolution_param {
    num_output: 128
    pad: 2
    kernel_size: 5
    stride: 1
    weight_filler {
      type: "gaussian"
      std: 0.01
    }
    bias_filler {
      type: "constant"
    }
  }
}
layer {
  name: "relu3"
  type: "ReLU"
  bottom: "conv3"
  top: "conv3"
}
layer {
  name: "pool3"
  type: "Pooling"
  bottom: "conv3"
  top: "pool3"
  pooling_param {
    pool: AVE
    kernel_size: 3
    stride: 2
  }
}
layer {
  name: "ip1"
  type: "InnerProduct"
  bottom: "pool3"
  top: "ip1"
  param {
    lr_mult: 1
  }
  param {
    lr_mult: 2
  }
  inner_product_param {
    num_output: 512
    weight_filler {
      type: "gaussian"
      std: 0.1
    }
    bias_filler {
      type: "constant"
    }
  }
}
layer {
  name: "ip2"
  type: "InnerProduct"
  bottom: "ip1"
  top: "ip2"
  param {
    lr_mult: 1
  }
  param {
    lr_mult: 2
  }
  inner_product_param {
    num_output: 256
    weight_filler {
      type: "gaussian"
      std: 0.1
    }
    bias_filler {
      type: "constant"
    }
  }
}
layer {
  name: "ip3"
  type: "InnerProduct"
  bottom: "ip2"
  top: "ip3"
  param {
    lr_mult: 1
  }
  param {
    lr_mult: 2
  }
  inner_product_param {
    num_output: 50
    weight_filler {
      type: "gaussian"
      std: 0.1
    }
    bias_filler {
      type: "constant"
    }
  }
}
layer {
  name: "loss"
  type: "SoftmaxWithLoss"
  bottom: "ip3"
  bottom: "label"
  top: "loss"
}
I0505 08:33:07.873381  5316 layer_factory.hpp:77] Creating layer parameters
I0505 08:33:07.873396  5316 net.cpp:94] Creating Layer parameters
I0505 08:33:07.873409  5316 net.cpp:409] parameters -> data
I0505 08:33:07.873430  5316 net.cpp:409] parameters -> label
I0505 08:33:07.873440  5316 hdf5_data_layer.cpp:79] Loading list of HDF5 filenames from: /home/purduethu/scratch/radon/d/deng106/CNNStatisticalModel/distributions/input/50_distributions_100_sample_size_train-distributions-path.txt
I0505 08:33:07.873461  5316 hdf5_data_layer.cpp:93] Number of HDF5 files: 1
I0505 08:33:07.874060  5316 hdf5.cpp:32] Datatype class: H5T_FLOAT
I0505 08:33:08.038151  5316 hdf5.cpp:35] Datatype class: H5T_INTEGER
I0505 08:33:08.041028  5316 net.cpp:144] Setting up parameters
I0505 08:33:08.041048  5316 net.cpp:151] Top shape: 20 1 10 10 (2000)
I0505 08:33:08.041052  5316 net.cpp:151] Top shape: 20 (20)
I0505 08:33:08.041056  5316 net.cpp:159] Memory required for data: 8080
I0505 08:33:08.041064  5316 layer_factory.hpp:77] Creating layer conv1
I0505 08:33:08.041088  5316 net.cpp:94] Creating Layer conv1
I0505 08:33:08.041095  5316 net.cpp:435] conv1 <- data
I0505 08:33:08.041106  5316 net.cpp:409] conv1 -> conv1
I0505 08:33:08.044970  5316 net.cpp:144] Setting up conv1
I0505 08:33:08.044986  5316 net.cpp:151] Top shape: 20 64 10 10 (128000)
I0505 08:33:08.044991  5316 net.cpp:159] Memory required for data: 520080
I0505 08:33:08.045003  5316 layer_factory.hpp:77] Creating layer relu1
I0505 08:33:08.045011  5316 net.cpp:94] Creating Layer relu1
I0505 08:33:08.045014  5316 net.cpp:435] relu1 <- conv1
I0505 08:33:08.045019  5316 net.cpp:396] relu1 -> conv1 (in-place)
I0505 08:33:08.045035  5316 net.cpp:144] Setting up relu1
I0505 08:33:08.045040  5316 net.cpp:151] Top shape: 20 64 10 10 (128000)
I0505 08:33:08.045043  5316 net.cpp:159] Memory required for data: 1032080
I0505 08:33:08.045047  5316 layer_factory.hpp:77] Creating layer pool1
I0505 08:33:08.045054  5316 net.cpp:94] Creating Layer pool1
I0505 08:33:08.045058  5316 net.cpp:435] pool1 <- conv1
I0505 08:33:08.045063  5316 net.cpp:409] pool1 -> pool1
I0505 08:33:08.045106  5316 net.cpp:144] Setting up pool1
I0505 08:33:08.045114  5316 net.cpp:151] Top shape: 20 64 5 5 (32000)
I0505 08:33:08.045117  5316 net.cpp:159] Memory required for data: 1160080
I0505 08:33:08.045120  5316 layer_factory.hpp:77] Creating layer conv2
I0505 08:33:08.045130  5316 net.cpp:94] Creating Layer conv2
I0505 08:33:08.045133  5316 net.cpp:435] conv2 <- pool1
I0505 08:33:08.045138  5316 net.cpp:409] conv2 -> conv2
I0505 08:33:08.053974  5316 net.cpp:144] Setting up conv2
I0505 08:33:08.053989  5316 net.cpp:151] Top shape: 20 128 5 5 (64000)
I0505 08:33:08.053994  5316 net.cpp:159] Memory required for data: 1416080
I0505 08:33:08.054003  5316 layer_factory.hpp:77] Creating layer relu2
I0505 08:33:08.054008  5316 net.cpp:94] Creating Layer relu2
I0505 08:33:08.054013  5316 net.cpp:435] relu2 <- conv2
I0505 08:33:08.054018  5316 net.cpp:396] relu2 -> conv2 (in-place)
I0505 08:33:08.054024  5316 net.cpp:144] Setting up relu2
I0505 08:33:08.054029  5316 net.cpp:151] Top shape: 20 128 5 5 (64000)
I0505 08:33:08.054033  5316 net.cpp:159] Memory required for data: 1672080
I0505 08:33:08.054035  5316 layer_factory.hpp:77] Creating layer conv3
I0505 08:33:08.054044  5316 net.cpp:94] Creating Layer conv3
I0505 08:33:08.054047  5316 net.cpp:435] conv3 <- conv2
I0505 08:33:08.054052  5316 net.cpp:409] conv3 -> conv3
I0505 08:33:08.068708  5316 net.cpp:144] Setting up conv3
I0505 08:33:08.068724  5316 net.cpp:151] Top shape: 20 128 5 5 (64000)
I0505 08:33:08.068728  5316 net.cpp:159] Memory required for data: 1928080
I0505 08:33:08.068737  5316 layer_factory.hpp:77] Creating layer relu3
I0505 08:33:08.068749  5316 net.cpp:94] Creating Layer relu3
I0505 08:33:08.068753  5316 net.cpp:435] relu3 <- conv3
I0505 08:33:08.068758  5316 net.cpp:396] relu3 -> conv3 (in-place)
I0505 08:33:08.068766  5316 net.cpp:144] Setting up relu3
I0505 08:33:08.068770  5316 net.cpp:151] Top shape: 20 128 5 5 (64000)
I0505 08:33:08.068774  5316 net.cpp:159] Memory required for data: 2184080
I0505 08:33:08.068778  5316 layer_factory.hpp:77] Creating layer pool3
I0505 08:33:08.068783  5316 net.cpp:94] Creating Layer pool3
I0505 08:33:08.068794  5316 net.cpp:435] pool3 <- conv3
I0505 08:33:08.068799  5316 net.cpp:409] pool3 -> pool3
I0505 08:33:08.068832  5316 net.cpp:144] Setting up pool3
I0505 08:33:08.068840  5316 net.cpp:151] Top shape: 20 128 2 2 (10240)
I0505 08:33:08.068842  5316 net.cpp:159] Memory required for data: 2225040
I0505 08:33:08.068846  5316 layer_factory.hpp:77] Creating layer ip1
I0505 08:33:08.068856  5316 net.cpp:94] Creating Layer ip1
I0505 08:33:08.068859  5316 net.cpp:435] ip1 <- pool3
I0505 08:33:08.068864  5316 net.cpp:409] ip1 -> ip1
I0505 08:33:08.076122  5316 net.cpp:144] Setting up ip1
I0505 08:33:08.076135  5316 net.cpp:151] Top shape: 20 512 (10240)
I0505 08:33:08.076140  5316 net.cpp:159] Memory required for data: 2266000
I0505 08:33:08.076146  5316 layer_factory.hpp:77] Creating layer ip2
I0505 08:33:08.076153  5316 net.cpp:94] Creating Layer ip2
I0505 08:33:08.076158  5316 net.cpp:435] ip2 <- ip1
I0505 08:33:08.076164  5316 net.cpp:409] ip2 -> ip2
I0505 08:33:08.080162  5316 net.cpp:144] Setting up ip2
I0505 08:33:08.080175  5316 net.cpp:151] Top shape: 20 256 (5120)
I0505 08:33:08.080179  5316 net.cpp:159] Memory required for data: 2286480
I0505 08:33:08.080188  5316 layer_factory.hpp:77] Creating layer ip3
I0505 08:33:08.080195  5316 net.cpp:94] Creating Layer ip3
I0505 08:33:08.080199  5316 net.cpp:435] ip3 <- ip2
I0505 08:33:08.080204  5316 net.cpp:409] ip3 -> ip3
I0505 08:33:08.081250  5316 net.cpp:144] Setting up ip3
I0505 08:33:08.081264  5316 net.cpp:151] Top shape: 20 50 (1000)
I0505 08:33:08.081269  5316 net.cpp:159] Memory required for data: 2290480
I0505 08:33:08.081274  5316 layer_factory.hpp:77] Creating layer loss
I0505 08:33:08.081280  5316 net.cpp:94] Creating Layer loss
I0505 08:33:08.081284  5316 net.cpp:435] loss <- ip3
I0505 08:33:08.081290  5316 net.cpp:435] loss <- label
I0505 08:33:08.081295  5316 net.cpp:409] loss -> loss
I0505 08:33:08.081305  5316 layer_factory.hpp:77] Creating layer loss
…
I0505 08:33:08.081740  5316 solver.cpp:181] Creating test net (#0) specified by net file: ./protocol/dis_50_100_dimension.protocol_distribution
I0505 08:33:08.081765  5316 net.cpp:323] The NetState phase (1) differed from the phase (0) specified by a rule in layer parameters
I0505 08:33:08.081861  5316 net.cpp:52] Initializing net from parameters: 
state {
  phase: TEST
}
layer {
  name: "intercept"
  type: "HDF5Data"
  top: "data"
  top: "label"
  include {
    phase: TEST
  }
  hdf5_data_param {
    source: "/home/purduethu/scratch/radon/d/deng106/CNNStatisticalModel/distributions/input/50_distributions_100_sample_size_test-distributions-path.txt"
    batch_size: 20
  }
}
layer {
  name: "conv1"
  type: "Convolution"
  bottom: "data"
  top: "conv1"
  param {
    lr_mult: 1
  }
  param {
    lr_mult: 2
  }
  convolution_param {
    num_output: 64
    pad: 2
    kernel_size: 5
    stride: 1
    weight_filler {
      type: "gaussian"
      std: 0.0001
    }
    bias_filler {
      type: "constant"
    }
  }
}
layer {
  name: "relu1"
  type: "ReLU"
  bottom: "conv1"
  top: "conv1"
}
layer {
  name: "pool1"
  type: "Pooling"
  bottom: "conv1"
  top: "pool1"
  pooling_param {
    pool: MAX
    kernel_size: 3
    stride: 2
  }
}
layer {
  name: "conv2"
  type: "Convolution"
  bottom: "pool1"
  top: "conv2"
  param {
    lr_mult: 1
  }
  param {
    lr_mult: 2
  }
  convolution_param {
    num_output: 128
    pad: 2
    kernel_size: 5
    stride: 1
    weight_filler {
      type: "gaussian"
      std: 0.01
    }
    bias_filler {
      type: "constant"
    }
  }
}
layer {
  name: "relu2"
  type: "ReLU"
  bottom: "conv2"
  top: "conv2"
}
layer {
  name: "conv3"
  type: "Convolution"
  bottom: "conv2"
  top: "conv3"
  param {
    lr_mult: 1
  }
  param {
    lr_mult: 2
  }
  convolution_param {
    num_output: 128
    pad: 2
    kernel_size: 5
    stride: 1
    weight_filler {
      type: "gaussian"
      std: 0.01
    }
    bias_filler {
      type: "constant"
    }
  }
}
layer {
  name: "relu3"
  type: "ReLU"
  bottom: "conv3"
  top: "conv3"
}
layer {
  name: "pool3"
  type: "Pooling"
  bottom: "conv3"
  top: "pool3"
  pooling_param {
    pool: AVE
    kernel_size: 3
    stride: 2
  }
}
layer {
  name: "ip1"
  type: "InnerProduct"
  bottom: "pool3"
  top: "ip1"
  param {
    lr_mult: 1
  }
  param {
    lr_mult: 2
  }
  inner_product_param {
    num_output: 512
    weight_filler {
      type: "gaussian"
      std: 0.1
    }
    bias_filler {
      type: "constant"
    }
  }
}
layer {
  name: "ip2"
  type: "InnerProduct"
  bottom: "ip1"
  top: "ip2"
  param {
    lr_mult: 1
  }
  param {
    lr_mult: 2
  }
  inner_product_param {
    num_output: 256
    weight_filler {
      type: "gaussian"
      std: 0.1
    }
    bias_filler {
      type: "constant"
    }
  }
}
layer {
  name: "ip3"
  type: "InnerProduct"
  bottom: "ip2"
  top: "ip3"
  param {
    lr_mult: 1
  }
  param {
    lr_mult: 2
  }
  inner_product_param {
    num_output: 50
    weight_filler {
      type: "gaussian"
      std: 0.1
    }
    bias_filler {
      type: "constant"
    }
  }
}
layer {
  name: "accuracy"
  type: "Accuracy"
  bottom: "ip3"
  bottom: "label"
  top: "accuracy"
  include {
    phase: TEST
  }
}
layer {
  name: "loss"
  type: "SoftmaxWithLoss"
  bottom: "ip3"
  bottom: "label"
  top: "loss"
}
I0505 08:33:08.081926  5316 layer_factory.hpp:77] Creating layer intercept
I0505 08:33:08.081935  5316 net.cpp:94] Creating Layer intercept
I0505 08:33:08.081940  5316 net.cpp:409] intercept -> data
I0505 08:33:08.081948  5316 net.cpp:409] intercept -> label
I0505 08:33:08.081954  5316 hdf5_data_layer.cpp:79] Loading list of HDF5 filenames from: /home/purduethu/scratch/radon/d/deng106/CNNStatisticalModel/distributions/input/50_distributions_100_sample_size_test-distributions-path.txt
I0505 08:33:08.081974  5316 hdf5_data_layer.cpp:93] Number of HDF5 files: 1
I0505 08:33:08.124361  5316 net.cpp:144] Setting up intercept
I0505 08:33:08.124397  5316 net.cpp:151] Top shape: 20 1 10 10 (2000)
I0505 08:33:08.124402  5316 net.cpp:151] Top shape: 20 (20)
I0505 08:33:08.124405  5316 net.cpp:159] Memory required for data: 8080
I0505 08:33:08.124411  5316 layer_factory.hpp:77] Creating layer label_intercept_1_split
I0505 08:33:08.124433  5316 net.cpp:94] Creating Layer label_intercept_1_split
I0505 08:33:08.124447  5316 net.cpp:435] label_intercept_1_split <- label
I0505 08:33:08.124454  5316 net.cpp:409] label_intercept_1_split -> label_intercept_1_split_0
I0505 08:33:08.124464  5316 net.cpp:409] label_intercept_1_split -> label_intercept_1_split_1
I0505 08:33:08.124491  5316 net.cpp:144] Setting up label_intercept_1_split
I0505 08:33:08.124497  5316 net.cpp:151] Top shape: 20 (20)
I0505 08:33:08.124501  5316 net.cpp:151] Top shape: 20 (20)
I0505 08:33:08.124505  5316 net.cpp:159] Memory required for data: 8240
I0505 08:33:08.124516  5316 layer_factory.hpp:77] Creating layer conv1
I0505 08:33:08.124526  5316 net.cpp:94] Creating Layer conv1
I0505 08:33:08.124531  5316 net.cpp:435] conv1 <- data
I0505 08:33:08.124536  5316 net.cpp:409] conv1 -> conv1
I0505 08:33:08.125288  5316 net.cpp:144] Setting up conv1
I0505 08:33:08.125301  5316 net.cpp:151] Top shape: 20 64 10 10 (128000)
I0505 08:33:08.125306  5316 net.cpp:159] Memory required for data: 520240
I0505 08:33:08.125316  5316 layer_factory.hpp:77] Creating layer relu1
I0505 08:33:08.125324  5316 net.cpp:94] Creating Layer relu1
I0505 08:33:08.125327  5316 net.cpp:435] relu1 <- conv1
I0505 08:33:08.125331  5316 net.cpp:396] relu1 -> conv1 (in-place)
I0505 08:33:08.125339  5316 net.cpp:144] Setting up relu1
I0505 08:33:08.125344  5316 net.cpp:151] Top shape: 20 64 10 10 (128000)
I0505 08:33:08.125347  5316 net.cpp:159] Memory required for data: 1032240
I0505 08:33:08.125350  5316 layer_factory.hpp:77] Creating layer pool1
I0505 08:33:08.125357  5316 net.cpp:94] Creating Layer pool1
I0505 08:33:08.125361  5316 net.cpp:435] pool1 <- conv1
I0505 08:33:08.125365  5316 net.cpp:409] pool1 -> pool1
I0505 08:33:08.125402  5316 net.cpp:144] Setting up pool1
I0505 08:33:08.125408  5316 net.cpp:151] Top shape: 20 64 5 5 (32000)
I0505 08:33:08.125411  5316 net.cpp:159] Memory required for data: 1160240
I0505 08:33:08.125416  5316 layer_factory.hpp:77] Creating layer conv2
I0505 08:33:08.125423  5316 net.cpp:94] Creating Layer conv2
I0505 08:33:08.125427  5316 net.cpp:435] conv2 <- pool1
I0505 08:33:08.125432  5316 net.cpp:409] conv2 -> conv2
I0505 08:33:08.132102  5316 net.cpp:144] Setting up conv2
I0505 08:33:08.132117  5316 net.cpp:151] Top shape: 20 128 5 5 (64000)
I0505 08:33:08.132122  5316 net.cpp:159] Memory required for data: 1416240
I0505 08:33:08.132130  5316 layer_factory.hpp:77] Creating layer relu2
I0505 08:33:08.132136  5316 net.cpp:94] Creating Layer relu2
I0505 08:33:08.132140  5316 net.cpp:435] relu2 <- conv2
I0505 08:33:08.132145  5316 net.cpp:396] relu2 -> conv2 (in-place)
I0505 08:33:08.132151  5316 net.cpp:144] Setting up relu2
I0505 08:33:08.132156  5316 net.cpp:151] Top shape: 20 128 5 5 (64000)
I0505 08:33:08.132159  5316 net.cpp:159] Memory required for data: 1672240
I0505 08:33:08.132163  5316 layer_factory.hpp:77] Creating layer conv3
I0505 08:33:08.132170  5316 net.cpp:94] Creating Layer conv3
I0505 08:33:08.132174  5316 net.cpp:435] conv3 <- conv2
I0505 08:33:08.132179  5316 net.cpp:409] conv3 -> conv3
I0505 08:33:08.144737  5316 net.cpp:144] Setting up conv3
I0505 08:33:08.144752  5316 net.cpp:151] Top shape: 20 128 5 5 (64000)
I0505 08:33:08.144757  5316 net.cpp:159] Memory required for data: 1928240
I0505 08:33:08.144765  5316 layer_factory.hpp:77] Creating layer relu3
I0505 08:33:08.144773  5316 net.cpp:94] Creating Layer relu3
I0505 08:33:08.144776  5316 net.cpp:435] relu3 <- conv3
I0505 08:33:08.144781  5316 net.cpp:396] relu3 -> conv3 (in-place)
I0505 08:33:08.144788  5316 net.cpp:144] Setting up relu3
I0505 08:33:08.144793  5316 net.cpp:151] Top shape: 20 128 5 5 (64000)
I0505 08:33:08.144796  5316 net.cpp:159] Memory required for data: 2184240
I0505 08:33:08.144799  5316 layer_factory.hpp:77] Creating layer pool3
I0505 08:33:08.144804  5316 net.cpp:94] Creating Layer pool3
I0505 08:33:08.144807  5316 net.cpp:435] pool3 <- conv3
I0505 08:33:08.144812  5316 net.cpp:409] pool3 -> pool3
I0505 08:33:08.144839  5316 net.cpp:144] Setting up pool3
I0505 08:33:08.144845  5316 net.cpp:151] Top shape: 20 128 2 2 (10240)
I0505 08:33:08.144852  5316 net.cpp:159] Memory required for data: 2225200
I0505 08:33:08.144856  5316 layer_factory.hpp:77] Creating layer ip1
I0505 08:33:08.144862  5316 net.cpp:94] Creating Layer ip1
I0505 08:33:08.144866  5316 net.cpp:435] ip1 <- pool3
I0505 08:33:08.144871  5316 net.cpp:409] ip1 -> ip1
I0505 08:33:08.152091  5316 net.cpp:144] Setting up ip1
I0505 08:33:08.152106  5316 net.cpp:151] Top shape: 20 512 (10240)
I0505 08:33:08.152109  5316 net.cpp:159] Memory required for data: 2266160
I0505 08:33:08.152122  5316 layer_factory.hpp:77] Creating layer ip2
I0505 08:33:08.152129  5316 net.cpp:94] Creating Layer ip2
I0505 08:33:08.152133  5316 net.cpp:435] ip2 <- ip1
I0505 08:33:08.152139  5316 net.cpp:409] ip2 -> ip2
I0505 08:33:08.155437  5316 net.cpp:144] Setting up ip2
I0505 08:33:08.155447  5316 net.cpp:151] Top shape: 20 256 (5120)
I0505 08:33:08.155449  5316 net.cpp:159] Memory required for data: 2286640
I0505 08:33:08.155457  5316 layer_factory.hpp:77] Creating layer ip3
I0505 08:33:08.155463  5316 net.cpp:94] Creating Layer ip3
I0505 08:33:08.155467  5316 net.cpp:435] ip3 <- ip2
I0505 08:33:08.155472  5316 net.cpp:409] ip3 -> ip3
I0505 08:33:08.155861  5316 net.cpp:144] Setting up ip3
I0505 08:33:08.155869  5316 net.cpp:151] Top shape: 20 50 (1000)
I0505 08:33:08.155872  5316 net.cpp:159] Memory required for data: 2290640
I0505 08:33:08.155877  5316 layer_factory.hpp:77] Creating layer ip3_ip3_0_split
I0505 08:33:08.155882  5316 net.cpp:94] Creating Layer ip3_ip3_0_split
I0505 08:33:08.155886  5316 net.cpp:435] ip3_ip3_0_split <- ip3
I0505 08:33:08.155890  5316 net.cpp:409] ip3_ip3_0_split -> ip3_ip3_0_split_0
I0505 08:33:08.155896  5316 net.cpp:409] ip3_ip3_0_split -> ip3_ip3_0_split_1
I0505 08:33:08.155920  5316 net.cpp:144] Setting up ip3_ip3_0_split
I0505 08:33:08.155926  5316 net.cpp:151] Top shape: 20 50 (1000)
I0505 08:33:08.155930  5316 net.cpp:151] Top shape: 20 50 (1000)
I0505 08:33:08.155933  5316 net.cpp:159] Memory required for data: 2298640
I0505 08:33:08.155936  5316 layer_factory.hpp:77] Creating layer accuracy
I0505 08:33:08.155942  5316 net.cpp:94] Creating Layer accuracy
I0505 08:33:08.155946  5316 net.cpp:435] accuracy <- ip3_ip3_0_split_0
I0505 08:33:08.155951  5316 net.cpp:435] accuracy <- label_intercept_1_split_0
I0505 08:33:08.155954  5316 net.cpp:409] accuracy -> accuracy
…
