…
I0505 03:12:28.242007  2930 net.cpp:323] The NetState phase (0) differed from the phase (1) specified by a rule in layer intercept
I0505 03:12:28.242022  2930 net.cpp:323] The NetState phase (0) differed from the phase (1) specified by a rule in layer loss
I0505 03:12:28.242100  2930 net.cpp:52] Initializing net from parameters: 
state {
  phase: TRAIN
}
layer {
  name: "parameters"
  type: "HDF5Data"
  top: "data"
  top: "label"
  include {
    phase: TRAIN
  }
  hdf5_data_param {
    source: "/home/purduethu/scratch/radon/d/deng106/CNNStatisticalModel/distributions/input/50_distributions_100_sample_size_train-parameters-path.txt"
    batch_size: 20
  }
}
layer {
  name: "conv1"
  type: "Convolution"
  bottom: "data"
  top: "conv1"
  param {
    lr_mult: 1
  }
  param {
    lr_mult: 2
  }
  convolution_param {
    num_output: 64
    pad: 2
    kernel_size: 5
    stride: 1
    weight_filler {
      type: "gaussian"
      std: 0.0001
    }
    bias_filler {
      type: "constant"
    }
  }
}
layer {
  name: "relu1"
  type: "ReLU"
  bottom: "conv1"
  top: "conv1"
}
layer {
  name: "pool1"
  type: "Pooling"
  bottom: "conv1"
  top: "pool1"
  pooling_param {
    pool: MAX
    kernel_size: 3
    stride: 2
  }
}
layer {
  name: "conv2"
  type: "Convolution"
  bottom: "pool1"
  top: "conv2"
  param {
    lr_mult: 1
  }
  param {
    lr_mult: 2
  }
  convolution_param {
    num_output: 128
    pad: 2
    kernel_size: 5
    stride: 1
    weight_filler {
      type: "gaussian"
      std: 0.01
    }
    bias_filler {
      type: "constant"
    }
  }
}
layer {
  name: "relu2"
  type: "ReLU"
  bottom: "conv2"
  top: "conv2"
}
layer {
  name: "conv3"
  type: "Convolution"
  bottom: "conv2"
  top: "conv3"
  param {
    lr_mult: 1
  }
  param {
    lr_mult: 2
  }
  convolution_param {
    num_output: 128
    pad: 2
    kernel_size: 5
    stride: 1
    weight_filler {
      type: "gaussian"
      std: 0.01
    }
    bias_filler {
      type: "constant"
    }
  }
}
layer {
  name: "relu3"
  type: "ReLU"
  bottom: "conv3"
  top: "conv3"
}
layer {
  name: "pool3"
  type: "Pooling"
  bottom: "conv3"
  top: "pool3"
  pooling_param {
    pool: AVE
    kernel_size: 3
    stride: 2
  }
}
layer {
  name: "ip1"
  type: "InnerProduct"
  bottom: "pool3"
  top: "ip1"
  param {
    lr_mult: 1
  }
  param {
    lr_mult: 2
  }
  inner_product_param {
    num_output: 512
    weight_filler {
      type: "gaussian"
      std: 0.1
    }
    bias_filler {
      type: "constant"
    }
  }
}
layer {
  name: "ip2"
  type: "InnerProduct"
  bottom: "ip1"
  top: "ip2"
  param {
    lr_mult: 1
  }
  param {
    lr_mult: 2
  }
  inner_product_param {
    num_output: 256
    weight_filler {
      type: "gaussian"
      std: 0.1
    }
    bias_filler {
      type: "constant"
    }
  }
}
layer {
  name: "ip3"
  type: "InnerProduct"
  bottom: "ip2"
  top: "ip3"
  param {
    lr_mult: 1
  }
  param {
    lr_mult: 2
  }
  inner_product_param {
    num_output: 1
    weight_filler {
      type: "gaussian"
      std: 0.1
    }
    bias_filler {
      type: "constant"
    }
  }
}
layer {
  name: "loss"
  type: "HuberLoss"
  bottom: "ip3"
  bottom: "label"
  top: "loss"
  include {
    phase: TRAIN
  }
}
I0505 03:12:28.242164  2930 layer_factory.hpp:77] Creating layer parameters
I0505 03:12:28.242178  2930 net.cpp:94] Creating Layer parameters
I0505 03:12:28.242192  2930 net.cpp:409] parameters -> data
I0505 03:12:28.242211  2930 net.cpp:409] parameters -> label
I0505 03:12:28.242221  2930 hdf5_data_layer.cpp:79] Loading list of HDF5 filenames from: /home/purduethu/scratch/radon/d/deng106/CNNStatisticalModel/distributions/input/50_distributions_100_sample_size_train-parameters-path.txt
I0505 03:12:28.242244  2930 hdf5_data_layer.cpp:93] Number of HDF5 files: 1
I0505 03:12:28.242710  2930 hdf5.cpp:32] Datatype class: H5T_FLOAT
I0505 03:12:28.403519  2930 net.cpp:144] Setting up parameters
I0505 03:12:28.403551  2930 net.cpp:151] Top shape: 20 1 10 10 (2000)
I0505 03:12:28.403558  2930 net.cpp:151] Top shape: 20 (20)
I0505 03:12:28.403561  2930 net.cpp:159] Memory required for data: 8080
I0505 03:12:28.403568  2930 layer_factory.hpp:77] Creating layer conv1
I0505 03:12:28.403587  2930 net.cpp:94] Creating Layer conv1
I0505 03:12:28.403592  2930 net.cpp:435] conv1 <- data
I0505 03:12:28.403604  2930 net.cpp:409] conv1 -> conv1
I0505 03:12:28.407354  2930 net.cpp:144] Setting up conv1
I0505 03:12:28.407369  2930 net.cpp:151] Top shape: 20 64 10 10 (128000)
I0505 03:12:28.407373  2930 net.cpp:159] Memory required for data: 520080
I0505 03:12:28.407385  2930 layer_factory.hpp:77] Creating layer relu1
I0505 03:12:28.407393  2930 net.cpp:94] Creating Layer relu1
I0505 03:12:28.407397  2930 net.cpp:435] relu1 <- conv1
I0505 03:12:28.407402  2930 net.cpp:396] relu1 -> conv1 (in-place)
I0505 03:12:28.407413  2930 net.cpp:144] Setting up relu1
I0505 03:12:28.407418  2930 net.cpp:151] Top shape: 20 64 10 10 (128000)
I0505 03:12:28.407421  2930 net.cpp:159] Memory required for data: 1032080
I0505 03:12:28.407425  2930 layer_factory.hpp:77] Creating layer pool1
I0505 03:12:28.407433  2930 net.cpp:94] Creating Layer pool1
I0505 03:12:28.407436  2930 net.cpp:435] pool1 <- conv1
I0505 03:12:28.407440  2930 net.cpp:409] pool1 -> pool1
I0505 03:12:28.407485  2930 net.cpp:144] Setting up pool1
I0505 03:12:28.407491  2930 net.cpp:151] Top shape: 20 64 5 5 (32000)
I0505 03:12:28.407495  2930 net.cpp:159] Memory required for data: 1160080
I0505 03:12:28.407498  2930 layer_factory.hpp:77] Creating layer conv2
I0505 03:12:28.407507  2930 net.cpp:94] Creating Layer conv2
I0505 03:12:28.407510  2930 net.cpp:435] conv2 <- pool1
I0505 03:12:28.407516  2930 net.cpp:409] conv2 -> conv2
I0505 03:12:28.416154  2930 net.cpp:144] Setting up conv2
I0505 03:12:28.416169  2930 net.cpp:151] Top shape: 20 128 5 5 (64000)
I0505 03:12:28.416173  2930 net.cpp:159] Memory required for data: 1416080
I0505 03:12:28.416182  2930 layer_factory.hpp:77] Creating layer relu2
I0505 03:12:28.416188  2930 net.cpp:94] Creating Layer relu2
I0505 03:12:28.416191  2930 net.cpp:435] relu2 <- conv2
I0505 03:12:28.416196  2930 net.cpp:396] relu2 -> conv2 (in-place)
I0505 03:12:28.416203  2930 net.cpp:144] Setting up relu2
I0505 03:12:28.416208  2930 net.cpp:151] Top shape: 20 128 5 5 (64000)
I0505 03:12:28.416211  2930 net.cpp:159] Memory required for data: 1672080
I0505 03:12:28.416215  2930 layer_factory.hpp:77] Creating layer conv3
I0505 03:12:28.416223  2930 net.cpp:94] Creating Layer conv3
I0505 03:12:28.416226  2930 net.cpp:435] conv3 <- conv2
I0505 03:12:28.416231  2930 net.cpp:409] conv3 -> conv3
I0505 03:12:28.431004  2930 net.cpp:144] Setting up conv3
I0505 03:12:28.431032  2930 net.cpp:151] Top shape: 20 128 5 5 (64000)
I0505 03:12:28.431041  2930 net.cpp:159] Memory required for data: 1928080
I0505 03:12:28.431058  2930 layer_factory.hpp:77] Creating layer relu3
I0505 03:12:28.431071  2930 net.cpp:94] Creating Layer relu3
I0505 03:12:28.431089  2930 net.cpp:435] relu3 <- conv3
I0505 03:12:28.431100  2930 net.cpp:396] relu3 -> conv3 (in-place)
I0505 03:12:28.431115  2930 net.cpp:144] Setting up relu3
I0505 03:12:28.431125  2930 net.cpp:151] Top shape: 20 128 5 5 (64000)
I0505 03:12:28.431133  2930 net.cpp:159] Memory required for data: 2184080
I0505 03:12:28.431139  2930 layer_factory.hpp:77] Creating layer pool3
I0505 03:12:28.431151  2930 net.cpp:94] Creating Layer pool3
I0505 03:12:28.431159  2930 net.cpp:435] pool3 <- conv3
I0505 03:12:28.431180  2930 net.cpp:409] pool3 -> pool3
I0505 03:12:28.431244  2930 net.cpp:144] Setting up pool3
I0505 03:12:28.431258  2930 net.cpp:151] Top shape: 20 128 2 2 (10240)
I0505 03:12:28.431265  2930 net.cpp:159] Memory required for data: 2225040
I0505 03:12:28.431272  2930 layer_factory.hpp:77] Creating layer ip1
I0505 03:12:28.431290  2930 net.cpp:94] Creating Layer ip1
I0505 03:12:28.431298  2930 net.cpp:435] ip1 <- pool3
I0505 03:12:28.431308  2930 net.cpp:409] ip1 -> ip1
I0505 03:12:28.438165  2930 net.cpp:144] Setting up ip1
I0505 03:12:28.438179  2930 net.cpp:151] Top shape: 20 512 (10240)
I0505 03:12:28.438182  2930 net.cpp:159] Memory required for data: 2266000
I0505 03:12:28.438189  2930 layer_factory.hpp:77] Creating layer ip2
I0505 03:12:28.438195  2930 net.cpp:94] Creating Layer ip2
I0505 03:12:28.438199  2930 net.cpp:435] ip2 <- ip1
I0505 03:12:28.438205  2930 net.cpp:409] ip2 -> ip2
I0505 03:12:28.441926  2930 net.cpp:144] Setting up ip2
I0505 03:12:28.441938  2930 net.cpp:151] Top shape: 20 256 (5120)
I0505 03:12:28.441942  2930 net.cpp:159] Memory required for data: 2286480
I0505 03:12:28.441951  2930 layer_factory.hpp:77] Creating layer ip3
I0505 03:12:28.441956  2930 net.cpp:94] Creating Layer ip3
I0505 03:12:28.441961  2930 net.cpp:435] ip3 <- ip2
I0505 03:12:28.441965  2930 net.cpp:409] ip3 -> ip3
I0505 03:12:28.442034  2930 net.cpp:144] Setting up ip3
I0505 03:12:28.442040  2930 net.cpp:151] Top shape: 20 1 (20)
I0505 03:12:28.442044  2930 net.cpp:159] Memory required for data: 2286560
I0505 03:12:28.442049  2930 layer_factory.hpp:77] Creating layer loss
I0505 03:12:28.442059  2930 net.cpp:94] Creating Layer loss
I0505 03:12:28.442061  2930 net.cpp:435] loss <- ip3
I0505 03:12:28.442065  2930 net.cpp:435] loss <- label
I0505 03:12:28.442071  2930 net.cpp:409] loss -> loss
I0505 03:12:28.442106  2930 net.cpp:144] Setting up loss
…
