…
I0501 23:40:21.877480 16592 net.cpp:323] The NetState phase (0) differed from the phase (1) specified by a rule in layer intercept
I0501 23:40:21.877495 16592 net.cpp:323] The NetState phase (0) differed from the phase (1) specified by a rule in layer loss
I0501 23:40:21.877574 16592 net.cpp:52] Initializing net from parameters: 
state {
  phase: TRAIN
}
layer {
  name: "parameters"
  type: "HDF5Data"
  top: "data"
  top: "label"
  include {
    phase: TRAIN
  }
  hdf5_data_param {
    source: "/home/purduethu/scratch/radon/d/deng106/CNNStatisticalModel/distributions/input/50_distributions_100_sample_size_train-parameters-path.txt"
    batch_size: 20
  }
}
layer {
  name: "conv1"
  type: "Convolution"
  bottom: "data"
  top: "conv1"
  param {
    lr_mult: 1
  }
  param {
    lr_mult: 2
  }
  convolution_param {
    num_output: 64
    pad: 2
    kernel_size: 5
    stride: 1
    weight_filler {
      type: "gaussian"
      std: 0.0001
    }
    bias_filler {
      type: "constant"
    }
  }
}
layer {
  name: "relu1"
  type: "ReLU"
  bottom: "conv1"
  top: "conv1"
}
layer {
  name: "conv2"
  type: "Convolution"
  bottom: "conv1"
  top: "conv2"
  param {
    lr_mult: 1
  }
  param {
    lr_mult: 2
  }
  convolution_param {
    num_output: 64
    pad: 2
    kernel_size: 5
    stride: 1
    weight_filler {
      type: "gaussian"
      std: 0.01
    }
    bias_filler {
      type: "constant"
    }
  }
}
layer {
  name: "relu2"
  type: "ReLU"
  bottom: "conv2"
  top: "conv2"
}
layer {
  name: "pool2"
  type: "Pooling"
  bottom: "conv2"
  top: "pool2"
  pooling_param {
    pool: MAX
    kernel_size: 3
    stride: 2
  }
}
layer {
  name: "conv3"
  type: "Convolution"
  bottom: "pool2"
  top: "conv3"
  param {
    lr_mult: 1
  }
  param {
    lr_mult: 2
  }
  convolution_param {
    num_output: 64
    pad: 2
    kernel_size: 5
    stride: 1
    weight_filler {
      type: "gaussian"
      std: 0.01
    }
    bias_filler {
      type: "constant"
    }
  }
}
layer {
  name: "relu3"
  type: "ReLU"
  bottom: "conv3"
  top: "conv3"
}
layer {
  name: "conv4"
  type: "Convolution"
  bottom: "conv3"
  top: "conv4"
  param {
    lr_mult: 1
  }
  param {
    lr_mult: 2
  }
  convolution_param {
    num_output: 64
    pad: 2
    kernel_size: 5
    stride: 1
    weight_filler {
      type: "gaussian"
      std: 0.01
    }
    bias_filler {
      type: "constant"
    }
  }
}
layer {
  name: "relu4"
  type: "ReLU"
  bottom: "conv4"
  top: "conv4"
}
layer {
  name: "conv5"
  type: "Convolution"
  bottom: "conv4"
  top: "conv5"
  param {
    lr_mult: 1
  }
  param {
    lr_mult: 2
  }
  convolution_param {
    num_output: 64
    pad: 2
    kernel_size: 5
    stride: 1
    weight_filler {
      type: "gaussian"
      std: 0.01
    }
    bias_filler {
      type: "constant"
    }
  }
}
layer {
  name: "relu5"
  type: "ReLU"
  bottom: "conv5"
  top: "conv5"
}
layer {
  name: "pool5"
  type: "Pooling"
  bottom: "conv5"
  top: "pool5"
  pooling_param {
    pool: AVE
    kernel_size: 3
    stride: 2
  }
}
layer {
  name: "ip1"
  type: "InnerProduct"
  bottom: "pool5"
  top: "ip1"
  param {
    lr_mult: 1
  }
  param {
    lr_mult: 2
  }
  inner_product_param {
    num_output: 64
    weight_filler {
      type: "gaussian"
      std: 0.1
    }
    bias_filler {
      type: "constant"
    }
  }
}
layer {
  name: "ip2"
  type: "InnerProduct"
  bottom: "ip1"
  top: "ip2"
  param {
    lr_mult: 1
  }
  param {
    lr_mult: 2
  }
  inner_product_param {
    num_output: 64
    weight_filler {
      type: "gaussian"
      std: 0.1
    }
    bias_filler {
      type: "constant"
    }
  }
}
layer {
  name: "ip3"
  type: "InnerProduct"
  bottom: "ip2"
  top: "ip3"
  param {
    lr_mult: 1
  }
  param {
    lr_mult: 2
  }
  inner_product_param {
    num_output: 1
    weight_filler {
      type: "gaussian"
      std: 0.1
    }
    bias_filler {
      type: "constant"
    }
  }
}
layer {
  name: "loss"
  type: "HuberLoss"
  bottom: "ip3"
  bottom: "label"
  top: "loss"
  include {
    phase: TRAIN
  }
}
I0501 23:40:21.877629 16592 layer_factory.hpp:77] Creating layer parameters
I0501 23:40:21.877645 16592 net.cpp:94] Creating Layer parameters
I0501 23:40:21.877648 16592 net.cpp:409] parameters -> data
I0501 23:40:21.877657 16592 net.cpp:409] parameters -> label
I0501 23:40:21.877665 16592 hdf5_data_layer.cpp:79] Loading list of HDF5 filenames from: /home/purduethu/scratch/radon/d/deng106/CNNStatisticalModel/distributions/input/50_distributions_100_sample_size_train-parameters-path.txt
I0501 23:40:21.877679 16592 hdf5_data_layer.cpp:93] Number of HDF5 files: 1
I0501 23:40:21.878227 16592 hdf5.cpp:32] Datatype class: H5T_FLOAT
I0501 23:40:22.042121 16592 net.cpp:144] Setting up parameters
I0501 23:40:22.042150 16592 net.cpp:151] Top shape: 20 1 10 10 (2000)
I0501 23:40:22.042155 16592 net.cpp:151] Top shape: 20 (20)
I0501 23:40:22.042157 16592 net.cpp:159] Memory required for data: 8080
I0501 23:40:22.042165 16592 layer_factory.hpp:77] Creating layer conv1
I0501 23:40:22.042186 16592 net.cpp:94] Creating Layer conv1
I0501 23:40:22.042189 16592 net.cpp:435] conv1 <- data
I0501 23:40:22.042196 16592 net.cpp:409] conv1 -> conv1
I0501 23:40:22.046350 16592 net.cpp:144] Setting up conv1
I0501 23:40:22.046365 16592 net.cpp:151] Top shape: 20 64 10 10 (128000)
I0501 23:40:22.046368 16592 net.cpp:159] Memory required for data: 520080
I0501 23:40:22.046378 16592 layer_factory.hpp:77] Creating layer relu1
I0501 23:40:22.046386 16592 net.cpp:94] Creating Layer relu1
I0501 23:40:22.046391 16592 net.cpp:435] relu1 <- conv1
I0501 23:40:22.046394 16592 net.cpp:396] relu1 -> conv1 (in-place)
I0501 23:40:22.046406 16592 net.cpp:144] Setting up relu1
I0501 23:40:22.046411 16592 net.cpp:151] Top shape: 20 64 10 10 (128000)
I0501 23:40:22.046414 16592 net.cpp:159] Memory required for data: 1032080
I0501 23:40:22.046417 16592 layer_factory.hpp:77] Creating layer conv2
I0501 23:40:22.046424 16592 net.cpp:94] Creating Layer conv2
I0501 23:40:22.046428 16592 net.cpp:435] conv2 <- conv1
I0501 23:40:22.046433 16592 net.cpp:409] conv2 -> conv2
I0501 23:40:22.052436 16592 net.cpp:144] Setting up conv2
I0501 23:40:22.052450 16592 net.cpp:151] Top shape: 20 64 10 10 (128000)
I0501 23:40:22.052454 16592 net.cpp:159] Memory required for data: 1544080
I0501 23:40:22.052462 16592 layer_factory.hpp:77] Creating layer relu2
I0501 23:40:22.052469 16592 net.cpp:94] Creating Layer relu2
I0501 23:40:22.052474 16592 net.cpp:435] relu2 <- conv2
I0501 23:40:22.052477 16592 net.cpp:396] relu2 -> conv2 (in-place)
I0501 23:40:22.052484 16592 net.cpp:144] Setting up relu2
I0501 23:40:22.052489 16592 net.cpp:151] Top shape: 20 64 10 10 (128000)
I0501 23:40:22.052491 16592 net.cpp:159] Memory required for data: 2056080
I0501 23:40:22.052495 16592 layer_factory.hpp:77] Creating layer pool2
I0501 23:40:22.052506 16592 net.cpp:94] Creating Layer pool2
I0501 23:40:22.052510 16592 net.cpp:435] pool2 <- conv2
I0501 23:40:22.052515 16592 net.cpp:409] pool2 -> pool2
I0501 23:40:22.052577 16592 net.cpp:144] Setting up pool2
I0501 23:40:22.052585 16592 net.cpp:151] Top shape: 20 64 5 5 (32000)
I0501 23:40:22.052588 16592 net.cpp:159] Memory required for data: 2184080
I0501 23:40:22.052592 16592 layer_factory.hpp:77] Creating layer conv3
I0501 23:40:22.052599 16592 net.cpp:94] Creating Layer conv3
I0501 23:40:22.052603 16592 net.cpp:435] conv3 <- pool2
I0501 23:40:22.052608 16592 net.cpp:409] conv3 -> conv3
I0501 23:40:22.057426 16592 net.cpp:144] Setting up conv3
I0501 23:40:22.057440 16592 net.cpp:151] Top shape: 20 64 5 5 (32000)
I0501 23:40:22.057443 16592 net.cpp:159] Memory required for data: 2312080
I0501 23:40:22.057451 16592 layer_factory.hpp:77] Creating layer relu3
I0501 23:40:22.057457 16592 net.cpp:94] Creating Layer relu3
I0501 23:40:22.057461 16592 net.cpp:435] relu3 <- conv3
I0501 23:40:22.057466 16592 net.cpp:396] relu3 -> conv3 (in-place)
I0501 23:40:22.057471 16592 net.cpp:144] Setting up relu3
I0501 23:40:22.057476 16592 net.cpp:151] Top shape: 20 64 5 5 (32000)
I0501 23:40:22.057478 16592 net.cpp:159] Memory required for data: 2440080
I0501 23:40:22.057482 16592 layer_factory.hpp:77] Creating layer conv4
I0501 23:40:22.057489 16592 net.cpp:94] Creating Layer conv4
I0501 23:40:22.057492 16592 net.cpp:435] conv4 <- conv3
I0501 23:40:22.057497 16592 net.cpp:409] conv4 -> conv4
I0501 23:40:22.061832 16592 net.cpp:144] Setting up conv4
I0501 23:40:22.061846 16592 net.cpp:151] Top shape: 20 64 5 5 (32000)
I0501 23:40:22.061848 16592 net.cpp:159] Memory required for data: 2568080
I0501 23:40:22.061854 16592 layer_factory.hpp:77] Creating layer relu4
I0501 23:40:22.061861 16592 net.cpp:94] Creating Layer relu4
I0501 23:40:22.061863 16592 net.cpp:435] relu4 <- conv4
I0501 23:40:22.061867 16592 net.cpp:396] relu4 -> conv4 (in-place)
I0501 23:40:22.061874 16592 net.cpp:144] Setting up relu4
I0501 23:40:22.061878 16592 net.cpp:151] Top shape: 20 64 5 5 (32000)
I0501 23:40:22.061882 16592 net.cpp:159] Memory required for data: 2696080
I0501 23:40:22.061884 16592 layer_factory.hpp:77] Creating layer conv5
I0501 23:40:22.061892 16592 net.cpp:94] Creating Layer conv5
I0501 23:40:22.061895 16592 net.cpp:435] conv5 <- conv4
I0501 23:40:22.061899 16592 net.cpp:409] conv5 -> conv5
I0501 23:40:22.066689 16592 net.cpp:144] Setting up conv5
I0501 23:40:22.066701 16592 net.cpp:151] Top shape: 20 64 5 5 (32000)
I0501 23:40:22.066705 16592 net.cpp:159] Memory required for data: 2824080
I0501 23:40:22.066714 16592 layer_factory.hpp:77] Creating layer relu5
I0501 23:40:22.066720 16592 net.cpp:94] Creating Layer relu5
I0501 23:40:22.066722 16592 net.cpp:435] relu5 <- conv5
I0501 23:40:22.066726 16592 net.cpp:396] relu5 -> conv5 (in-place)
I0501 23:40:22.066733 16592 net.cpp:144] Setting up relu5
I0501 23:40:22.066737 16592 net.cpp:151] Top shape: 20 64 5 5 (32000)
I0501 23:40:22.066740 16592 net.cpp:159] Memory required for data: 2952080
I0501 23:40:22.066743 16592 layer_factory.hpp:77] Creating layer pool5
I0501 23:40:22.066748 16592 net.cpp:94] Creating Layer pool5
I0501 23:40:22.066751 16592 net.cpp:435] pool5 <- conv5
I0501 23:40:22.066756 16592 net.cpp:409] pool5 -> pool5
I0501 23:40:22.066792 16592 net.cpp:144] Setting up pool5
I0501 23:40:22.066799 16592 net.cpp:151] Top shape: 20 64 2 2 (5120)
I0501 23:40:22.066802 16592 net.cpp:159] Memory required for data: 2972560
I0501 23:40:22.066805 16592 layer_factory.hpp:77] Creating layer ip1
I0501 23:40:22.066815 16592 net.cpp:94] Creating Layer ip1
I0501 23:40:22.066818 16592 net.cpp:435] ip1 <- pool5
I0501 23:40:22.066823 16592 net.cpp:409] ip1 -> ip1
I0501 23:40:22.068151 16592 net.cpp:144] Setting up ip1
I0501 23:40:22.068164 16592 net.cpp:151] Top shape: 20 64 (1280)
I0501 23:40:22.068168 16592 net.cpp:159] Memory required for data: 2977680
I0501 23:40:22.068173 16592 layer_factory.hpp:77] Creating layer ip2
I0501 23:40:22.068181 16592 net.cpp:94] Creating Layer ip2
I0501 23:40:22.068189 16592 net.cpp:435] ip2 <- ip1
I0501 23:40:22.068195 16592 net.cpp:409] ip2 -> ip2
I0501 23:40:22.068403 16592 net.cpp:144] Setting up ip2
I0501 23:40:22.068409 16592 net.cpp:151] Top shape: 20 64 (1280)
I0501 23:40:22.068413 16592 net.cpp:159] Memory required for data: 2982800
I0501 23:40:22.068418 16592 layer_factory.hpp:77] Creating layer ip3
I0501 23:40:22.068423 16592 net.cpp:94] Creating Layer ip3
I0501 23:40:22.068426 16592 net.cpp:435] ip3 <- ip2
I0501 23:40:22.068431 16592 net.cpp:409] ip3 -> ip3
I0501 23:40:22.068531 16592 net.cpp:144] Setting up ip3
I0501 23:40:22.068538 16592 net.cpp:151] Top shape: 20 1 (20)
I0501 23:40:22.068542 16592 net.cpp:159] Memory required for data: 2982880
I0501 23:40:22.068545 16592 layer_factory.hpp:77] Creating layer loss
I0501 23:40:22.068562 16592 net.cpp:94] Creating Layer loss
I0501 23:40:22.068567 16592 net.cpp:435] loss <- ip3
I0501 23:40:22.068570 16592 net.cpp:435] loss <- label
I0501 23:40:22.068575 16592 net.cpp:409] loss -> loss
I0501 23:40:22.068625 16592 net.cpp:144] Setting up loss
…
I0501 23:40:22.130086 16592 net.cpp:323] The NetState phase (0) differed from the phase (1) specified by a rule in layer intercept
I0501 23:40:22.130103 16592 net.cpp:323] The NetState phase (0) differed from the phase (1) specified by a rule in layer accuracy
I0501 23:40:22.130192 16592 net.cpp:52] Initializing net from parameters: 
state {
  phase: TRAIN
}
layer {
  name: "parameters"
  type: "HDF5Data"
  top: "data"
  top: "label"
  include {
    phase: TRAIN
  }
  hdf5_data_param {
    source: "/home/purduethu/scratch/radon/d/deng106/CNNStatisticalModel/distributions/input/50_distributions_100_sample_size_train-distributions-path.txt"
    batch_size: 20
  }
}
layer {
  name: "conv1"
  type: "Convolution"
  bottom: "data"
  top: "conv1"
  param {
    lr_mult: 1
  }
  param {
    lr_mult: 2
  }
  convolution_param {
    num_output: 64
    pad: 2
    kernel_size: 5
    stride: 1
    weight_filler {
      type: "gaussian"
      std: 0.0001
    }
    bias_filler {
      type: "constant"
    }
  }
}
layer {
  name: "relu1"
  type: "ReLU"
  bottom: "conv1"
  top: "conv1"
}
layer {
  name: "conv2"
  type: "Convolution"
  bottom: "conv1"
  top: "conv2"
  param {
    lr_mult: 1
  }
  param {
    lr_mult: 2
  }
  convolution_param {
    num_output: 64
    pad: 2
    kernel_size: 5
    stride: 1
    weight_filler {
      type: "gaussian"
      std: 0.01
    }
    bias_filler {
      type: "constant"
    }
  }
}
layer {
  name: "relu2"
  type: "ReLU"
  bottom: "conv2"
  top: "conv2"
}
layer {
  name: "pool2"
  type: "Pooling"
  bottom: "conv2"
  top: "pool2"
  pooling_param {
    pool: MAX
    kernel_size: 3
    stride: 2
  }
}
layer {
  name: "conv3"
  type: "Convolution"
  bottom: "pool2"
  top: "conv3"
  param {
    lr_mult: 1
  }
  param {
    lr_mult: 2
  }
  convolution_param {
    num_output: 64
    pad: 2
    kernel_size: 5
    stride: 1
    weight_filler {
      type: "gaussian"
      std: 0.01
    }
    bias_filler {
      type: "constant"
    }
  }
}
layer {
  name: "relu3"
  type: "ReLU"
  bottom: "conv3"
  top: "conv3"
}
layer {
  name: "conv4"
  type: "Convolution"
  bottom: "conv3"
  top: "conv4"
  param {
    lr_mult: 1
  }
  param {
    lr_mult: 2
  }
  convolution_param {
    num_output: 64
    pad: 2
    kernel_size: 5
    stride: 1
    weight_filler {
      type: "gaussian"
      std: 0.01
    }
    bias_filler {
      type: "constant"
    }
  }
}
layer {
  name: "relu4"
  type: "ReLU"
  bottom: "conv4"
  top: "conv4"
}
layer {
  name: "conv5"
  type: "Convolution"
  bottom: "conv4"
  top: "conv5"
  param {
    lr_mult: 1
  }
  param {
    lr_mult: 2
  }
  convolution_param {
    num_output: 64
    pad: 2
    kernel_size: 5
    stride: 1
    weight_filler {
      type: "gaussian"
      std: 0.01
    }
    bias_filler {
      type: "constant"
    }
  }
}
layer {
  name: "relu5"
  type: "ReLU"
  bottom: "conv5"
  top: "conv5"
}
layer {
  name: "pool5"
  type: "Pooling"
  bottom: "conv5"
  top: "pool5"
  pooling_param {
    pool: AVE
    kernel_size: 3
    stride: 2
  }
}
layer {
  name: "ip1"
  type: "InnerProduct"
  bottom: "pool5"
  top: "ip1"
  param {
    lr_mult: 1
  }
  param {
    lr_mult: 2
  }
  inner_product_param {
    num_output: 64
    weight_filler {
      type: "gaussian"
      std: 0.1
    }
    bias_filler {
      type: "constant"
    }
  }
}
layer {
  name: "ip2"
  type: "InnerProduct"
  bottom: "ip1"
  top: "ip2"
  param {
    lr_mult: 1
  }
  param {
    lr_mult: 2
  }
  inner_product_param {
    num_output: 64
    weight_filler {
      type: "gaussian"
      std: 0.1
    }
    bias_filler {
      type: "constant"
    }
  }
}
layer {
  name: "ip3"
  type: "InnerProduct"
  bottom: "ip2"
  top: "ip3"
  param {
    lr_mult: 1
  }
  param {
    lr_mult: 2
  }
  inner_product_param {
    num_output: 50
    weight_filler {
      type: "gaussian"
      std: 0.1
    }
    bias_filler {
      type: "constant"
    }
  }
}
layer {
  name: "loss"
  type: "SoftmaxWithLoss"
  bottom: "ip3"
  bottom: "label"
  top: "loss"
}
I0501 23:40:22.130244 16592 layer_factory.hpp:77] Creating layer parameters
I0501 23:40:22.130251 16592 net.cpp:94] Creating Layer parameters
I0501 23:40:22.130254 16592 net.cpp:409] parameters -> data
I0501 23:40:22.130261 16592 net.cpp:409] parameters -> label
I0501 23:40:22.130267 16592 hdf5_data_layer.cpp:79] Loading list of HDF5 filenames from: /home/purduethu/scratch/radon/d/deng106/CNNStatisticalModel/distributions/input/50_distributions_100_sample_size_train-distributions-path.txt
I0501 23:40:22.130283 16592 hdf5_data_layer.cpp:93] Number of HDF5 files: 1
I0501 23:40:22.288776 16592 hdf5.cpp:35] Datatype class: H5T_INTEGER
I0501 23:40:22.291815 16592 net.cpp:144] Setting up parameters
I0501 23:40:22.291837 16592 net.cpp:151] Top shape: 20 1 10 10 (2000)
I0501 23:40:22.291842 16592 net.cpp:151] Top shape: 20 (20)
I0501 23:40:22.291846 16592 net.cpp:159] Memory required for data: 8080
I0501 23:40:22.291851 16592 layer_factory.hpp:77] Creating layer conv1
I0501 23:40:22.291867 16592 net.cpp:94] Creating Layer conv1
I0501 23:40:22.291872 16592 net.cpp:435] conv1 <- data
I0501 23:40:22.291877 16592 net.cpp:409] conv1 -> conv1
I0501 23:40:22.293612 16592 net.cpp:144] Setting up conv1
I0501 23:40:22.293625 16592 net.cpp:151] Top shape: 20 64 10 10 (128000)
I0501 23:40:22.293629 16592 net.cpp:159] Memory required for data: 520080
I0501 23:40:22.293638 16592 layer_factory.hpp:77] Creating layer relu1
I0501 23:40:22.293647 16592 net.cpp:94] Creating Layer relu1
I0501 23:40:22.293649 16592 net.cpp:435] relu1 <- conv1
I0501 23:40:22.293653 16592 net.cpp:396] relu1 -> conv1 (in-place)
I0501 23:40:22.293661 16592 net.cpp:144] Setting up relu1
I0501 23:40:22.293665 16592 net.cpp:151] Top shape: 20 64 10 10 (128000)
I0501 23:40:22.293668 16592 net.cpp:159] Memory required for data: 1032080
I0501 23:40:22.293671 16592 layer_factory.hpp:77] Creating layer conv2
I0501 23:40:22.293678 16592 net.cpp:94] Creating Layer conv2
I0501 23:40:22.293682 16592 net.cpp:435] conv2 <- conv1
I0501 23:40:22.293686 16592 net.cpp:409] conv2 -> conv2
I0501 23:40:22.299019 16592 net.cpp:144] Setting up conv2
I0501 23:40:22.299033 16592 net.cpp:151] Top shape: 20 64 10 10 (128000)
I0501 23:40:22.299036 16592 net.cpp:159] Memory required for data: 1544080
I0501 23:40:22.299044 16592 layer_factory.hpp:77] Creating layer relu2
I0501 23:40:22.299051 16592 net.cpp:94] Creating Layer relu2
I0501 23:40:22.299054 16592 net.cpp:435] relu2 <- conv2
I0501 23:40:22.299058 16592 net.cpp:396] relu2 -> conv2 (in-place)
I0501 23:40:22.299065 16592 net.cpp:144] Setting up relu2
I0501 23:40:22.299069 16592 net.cpp:151] Top shape: 20 64 10 10 (128000)
I0501 23:40:22.299072 16592 net.cpp:159] Memory required for data: 2056080
I0501 23:40:22.299075 16592 layer_factory.hpp:77] Creating layer pool2
I0501 23:40:22.299080 16592 net.cpp:94] Creating Layer pool2
I0501 23:40:22.299083 16592 net.cpp:435] pool2 <- conv2
I0501 23:40:22.299088 16592 net.cpp:409] pool2 -> pool2
I0501 23:40:22.299137 16592 net.cpp:144] Setting up pool2
I0501 23:40:22.299144 16592 net.cpp:151] Top shape: 20 64 5 5 (32000)
I0501 23:40:22.299147 16592 net.cpp:159] Memory required for data: 2184080
I0501 23:40:22.299151 16592 layer_factory.hpp:77] Creating layer conv3
I0501 23:40:22.299160 16592 net.cpp:94] Creating Layer conv3
I0501 23:40:22.299162 16592 net.cpp:435] conv3 <- pool2
I0501 23:40:22.299167 16592 net.cpp:409] conv3 -> conv3
I0501 23:40:22.304939 16592 net.cpp:144] Setting up conv3
I0501 23:40:22.304953 16592 net.cpp:151] Top shape: 20 64 5 5 (32000)
I0501 23:40:22.304957 16592 net.cpp:159] Memory required for data: 2312080
I0501 23:40:22.304965 16592 layer_factory.hpp:77] Creating layer relu3
I0501 23:40:22.304971 16592 net.cpp:94] Creating Layer relu3
I0501 23:40:22.304975 16592 net.cpp:435] relu3 <- conv3
I0501 23:40:22.304980 16592 net.cpp:396] relu3 -> conv3 (in-place)
I0501 23:40:22.304986 16592 net.cpp:144] Setting up relu3
I0501 23:40:22.304991 16592 net.cpp:151] Top shape: 20 64 5 5 (32000)
I0501 23:40:22.304992 16592 net.cpp:159] Memory required for data: 2440080
I0501 23:40:22.304996 16592 layer_factory.hpp:77] Creating layer conv4
I0501 23:40:22.305003 16592 net.cpp:94] Creating Layer conv4
I0501 23:40:22.305007 16592 net.cpp:435] conv4 <- conv3
I0501 23:40:22.305011 16592 net.cpp:409] conv4 -> conv4
I0501 23:40:22.309867 16592 net.cpp:144] Setting up conv4
I0501 23:40:22.309881 16592 net.cpp:151] Top shape: 20 64 5 5 (32000)
I0501 23:40:22.309885 16592 net.cpp:159] Memory required for data: 2568080
I0501 23:40:22.309890 16592 layer_factory.hpp:77] Creating layer relu4
I0501 23:40:22.309896 16592 net.cpp:94] Creating Layer relu4
I0501 23:40:22.309900 16592 net.cpp:435] relu4 <- conv4
I0501 23:40:22.309903 16592 net.cpp:396] relu4 -> conv4 (in-place)
I0501 23:40:22.309911 16592 net.cpp:144] Setting up relu4
I0501 23:40:22.309914 16592 net.cpp:151] Top shape: 20 64 5 5 (32000)
I0501 23:40:22.309917 16592 net.cpp:159] Memory required for data: 2696080
I0501 23:40:22.309921 16592 layer_factory.hpp:77] Creating layer conv5
I0501 23:40:22.309927 16592 net.cpp:94] Creating Layer conv5
I0501 23:40:22.309931 16592 net.cpp:435] conv5 <- conv4
I0501 23:40:22.309936 16592 net.cpp:409] conv5 -> conv5
I0501 23:40:22.314321 16592 net.cpp:144] Setting up conv5
I0501 23:40:22.314334 16592 net.cpp:151] Top shape: 20 64 5 5 (32000)
I0501 23:40:22.314338 16592 net.cpp:159] Memory required for data: 2824080
I0501 23:40:22.314347 16592 layer_factory.hpp:77] Creating layer relu5
I0501 23:40:22.314352 16592 net.cpp:94] Creating Layer relu5
I0501 23:40:22.314355 16592 net.cpp:435] relu5 <- conv5
I0501 23:40:22.314359 16592 net.cpp:396] relu5 -> conv5 (in-place)
I0501 23:40:22.314365 16592 net.cpp:144] Setting up relu5
I0501 23:40:22.314370 16592 net.cpp:151] Top shape: 20 64 5 5 (32000)
I0501 23:40:22.314373 16592 net.cpp:159] Memory required for data: 2952080
I0501 23:40:22.314375 16592 layer_factory.hpp:77] Creating layer pool5
I0501 23:40:22.314381 16592 net.cpp:94] Creating Layer pool5
I0501 23:40:22.314384 16592 net.cpp:435] pool5 <- conv5
I0501 23:40:22.314388 16592 net.cpp:409] pool5 -> pool5
I0501 23:40:22.314422 16592 net.cpp:144] Setting up pool5
I0501 23:40:22.314429 16592 net.cpp:151] Top shape: 20 64 2 2 (5120)
I0501 23:40:22.314432 16592 net.cpp:159] Memory required for data: 2972560
I0501 23:40:22.314435 16592 layer_factory.hpp:77] Creating layer ip1
I0501 23:40:22.314442 16592 net.cpp:94] Creating Layer ip1
I0501 23:40:22.314445 16592 net.cpp:435] ip1 <- pool5
I0501 23:40:22.314450 16592 net.cpp:409] ip1 -> ip1
I0501 23:40:22.314954 16592 net.cpp:144] Setting up ip1
I0501 23:40:22.314962 16592 net.cpp:151] Top shape: 20 64 (1280)
I0501 23:40:22.314966 16592 net.cpp:159] Memory required for data: 2977680
I0501 23:40:22.314971 16592 layer_factory.hpp:77] Creating layer ip2
I0501 23:40:22.314977 16592 net.cpp:94] Creating Layer ip2
I0501 23:40:22.314980 16592 net.cpp:435] ip2 <- ip1
I0501 23:40:22.314985 16592 net.cpp:409] ip2 -> ip2
I0501 23:40:22.315198 16592 net.cpp:144] Setting up ip2
I0501 23:40:22.315206 16592 net.cpp:151] Top shape: 20 64 (1280)
I0501 23:40:22.315208 16592 net.cpp:159] Memory required for data: 2982800
I0501 23:40:22.315213 16592 layer_factory.hpp:77] Creating layer ip3
I0501 23:40:22.315218 16592 net.cpp:94] Creating Layer ip3
I0501 23:40:22.315222 16592 net.cpp:435] ip3 <- ip2
I0501 23:40:22.315227 16592 net.cpp:409] ip3 -> ip3
I0501 23:40:22.315413 16592 net.cpp:144] Setting up ip3
I0501 23:40:22.315420 16592 net.cpp:151] Top shape: 20 50 (1000)
I0501 23:40:22.315428 16592 net.cpp:159] Memory required for data: 2986800
I0501 23:40:22.315433 16592 layer_factory.hpp:77] Creating layer loss
I0501 23:40:22.315439 16592 net.cpp:94] Creating Layer loss
I0501 23:40:22.315443 16592 net.cpp:435] loss <- ip3
I0501 23:40:22.315446 16592 net.cpp:435] loss <- label
I0501 23:40:22.315450 16592 net.cpp:409] loss -> loss
I0501 23:40:22.315457 16592 layer_factory.hpp:77] Creating layer loss
…
I0501 23:40:22.316833 16592 solver.cpp:181] Creating test net (#0) specified by net file: ./protocol/dis_50_100_dimension.protocol_distribution
I0501 23:40:22.316861 16592 net.cpp:323] The NetState phase (1) differed from the phase (0) specified by a rule in layer parameters
I0501 23:40:22.316957 16592 net.cpp:52] Initializing net from parameters: 
state {
  phase: TEST
}
layer {
  name: "intercept"
  type: "HDF5Data"
  top: "data"
  top: "label"
  include {
    phase: TEST
  }
  hdf5_data_param {
    source: "/home/purduethu/scratch/radon/d/deng106/CNNStatisticalModel/distributions/input/50_distributions_100_sample_size_test-distributions-path.txt"
    batch_size: 20
  }
}
layer {
  name: "conv1"
  type: "Convolution"
  bottom: "data"
  top: "conv1"
  param {
    lr_mult: 1
  }
  param {
    lr_mult: 2
  }
  convolution_param {
    num_output: 64
    pad: 2
    kernel_size: 5
    stride: 1
    weight_filler {
      type: "gaussian"
      std: 0.0001
    }
    bias_filler {
      type: "constant"
    }
  }
}
layer {
  name: "relu1"
  type: "ReLU"
  bottom: "conv1"
  top: "conv1"
}
layer {
  name: "conv2"
  type: "Convolution"
  bottom: "conv1"
  top: "conv2"
  param {
    lr_mult: 1
  }
  param {
    lr_mult: 2
  }
  convolution_param {
    num_output: 64
    pad: 2
    kernel_size: 5
    stride: 1
    weight_filler {
      type: "gaussian"
      std: 0.01
    }
    bias_filler {
      type: "constant"
    }
  }
}
layer {
  name: "relu2"
  type: "ReLU"
  bottom: "conv2"
  top: "conv2"
}
layer {
  name: "pool2"
  type: "Pooling"
  bottom: "conv2"
  top: "pool2"
  pooling_param {
    pool: MAX
    kernel_size: 3
    stride: 2
  }
}
layer {
  name: "conv3"
  type: "Convolution"
  bottom: "pool2"
  top: "conv3"
  param {
    lr_mult: 1
  }
  param {
    lr_mult: 2
  }
  convolution_param {
    num_output: 64
    pad: 2
    kernel_size: 5
    stride: 1
    weight_filler {
      type: "gaussian"
      std: 0.01
    }
    bias_filler {
      type: "constant"
    }
  }
}
layer {
  name: "relu3"
  type: "ReLU"
  bottom: "conv3"
  top: "conv3"
}
layer {
  name: "conv4"
  type: "Convolution"
  bottom: "conv3"
  top: "conv4"
  param {
    lr_mult: 1
  }
  param {
    lr_mult: 2
  }
  convolution_param {
    num_output: 64
    pad: 2
    kernel_size: 5
    stride: 1
    weight_filler {
      type: "gaussian"
      std: 0.01
    }
    bias_filler {
      type: "constant"
    }
  }
}
layer {
  name: "relu4"
  type: "ReLU"
  bottom: "conv4"
  top: "conv4"
}
layer {
  name: "conv5"
  type: "Convolution"
  bottom: "conv4"
  top: "conv5"
  param {
    lr_mult: 1
  }
  param {
    lr_mult: 2
  }
  convolution_param {
    num_output: 64
    pad: 2
    kernel_size: 5
    stride: 1
    weight_filler {
      type: "gaussian"
      std: 0.01
    }
    bias_filler {
      type: "constant"
    }
  }
}
layer {
  name: "relu5"
  type: "ReLU"
  bottom: "conv5"
  top: "conv5"
}
layer {
  name: "pool5"
  type: "Pooling"
  bottom: "conv5"
  top: "pool5"
  pooling_param {
    pool: AVE
    kernel_size: 3
    stride: 2
  }
}
layer {
  name: "ip1"
  type: "InnerProduct"
  bottom: "pool5"
  top: "ip1"
  param {
    lr_mult: 1
  }
  param {
    lr_mult: 2
  }
  inner_product_param {
    num_output: 64
    weight_filler {
      type: "gaussian"
      std: 0.1
    }
    bias_filler {
      type: "constant"
    }
  }
}
layer {
  name: "ip2"
  type: "InnerProduct"
  bottom: "ip1"
  top: "ip2"
  param {
    lr_mult: 1
  }
  param {
    lr_mult: 2
  }
  inner_product_param {
    num_output: 64
    weight_filler {
      type: "gaussian"
      std: 0.1
    }
    bias_filler {
      type: "constant"
    }
  }
}
layer {
  name: "ip3"
  type: "InnerProduct"
  bottom: "ip2"
  top: "ip3"
  param {
    lr_mult: 1
  }
  param {
    lr_mult: 2
  }
  inner_product_param {
    num_output: 50
    weight_filler {
      type: "gaussian"
      std: 0.1
    }
    bias_filler {
      type: "constant"
    }
  }
}
layer {
  name: "accuracy"
  type: "Accuracy"
  bottom: "ip3"
  bottom: "label"
  top: "accuracy"
  include {
    phase: TEST
  }
}
layer {
  name: "loss"
  type: "SoftmaxWithLoss"
  bottom: "ip3"
  bottom: "label"
  top: "loss"
}
I0501 23:40:22.317023 16592 layer_factory.hpp:77] Creating layer intercept
I0501 23:40:22.317031 16592 net.cpp:94] Creating Layer intercept
I0501 23:40:22.317035 16592 net.cpp:409] intercept -> data
I0501 23:40:22.317042 16592 net.cpp:409] intercept -> label
I0501 23:40:22.317049 16592 hdf5_data_layer.cpp:79] Loading list of HDF5 filenames from: /home/purduethu/scratch/radon/d/deng106/CNNStatisticalModel/distributions/input/50_distributions_100_sample_size_test-distributions-path.txt
I0501 23:40:22.317067 16592 hdf5_data_layer.cpp:93] Number of HDF5 files: 1
I0501 23:40:22.359104 16592 net.cpp:144] Setting up intercept
I0501 23:40:22.359138 16592 net.cpp:151] Top shape: 20 1 10 10 (2000)
I0501 23:40:22.359143 16592 net.cpp:151] Top shape: 20 (20)
I0501 23:40:22.359146 16592 net.cpp:159] Memory required for data: 8080
I0501 23:40:22.359153 16592 layer_factory.hpp:77] Creating layer label_intercept_1_split
I0501 23:40:22.359171 16592 net.cpp:94] Creating Layer label_intercept_1_split
I0501 23:40:22.359175 16592 net.cpp:435] label_intercept_1_split <- label
I0501 23:40:22.359181 16592 net.cpp:409] label_intercept_1_split -> label_intercept_1_split_0
I0501 23:40:22.359190 16592 net.cpp:409] label_intercept_1_split -> label_intercept_1_split_1
I0501 23:40:22.359230 16592 net.cpp:144] Setting up label_intercept_1_split
I0501 23:40:22.359236 16592 net.cpp:151] Top shape: 20 (20)
I0501 23:40:22.359241 16592 net.cpp:151] Top shape: 20 (20)
I0501 23:40:22.359242 16592 net.cpp:159] Memory required for data: 8240
I0501 23:40:22.359246 16592 layer_factory.hpp:77] Creating layer conv1
I0501 23:40:22.359257 16592 net.cpp:94] Creating Layer conv1
I0501 23:40:22.359261 16592 net.cpp:435] conv1 <- data
I0501 23:40:22.359266 16592 net.cpp:409] conv1 -> conv1
I0501 23:40:22.360080 16592 net.cpp:144] Setting up conv1
I0501 23:40:22.360092 16592 net.cpp:151] Top shape: 20 64 10 10 (128000)
I0501 23:40:22.360103 16592 net.cpp:159] Memory required for data: 520240
I0501 23:40:22.360112 16592 layer_factory.hpp:77] Creating layer relu1
I0501 23:40:22.360119 16592 net.cpp:94] Creating Layer relu1
I0501 23:40:22.360122 16592 net.cpp:435] relu1 <- conv1
I0501 23:40:22.360127 16592 net.cpp:396] relu1 -> conv1 (in-place)
I0501 23:40:22.360133 16592 net.cpp:144] Setting up relu1
I0501 23:40:22.360138 16592 net.cpp:151] Top shape: 20 64 10 10 (128000)
I0501 23:40:22.360141 16592 net.cpp:159] Memory required for data: 1032240
I0501 23:40:22.360144 16592 layer_factory.hpp:77] Creating layer conv2
I0501 23:40:22.360152 16592 net.cpp:94] Creating Layer conv2
I0501 23:40:22.360154 16592 net.cpp:435] conv2 <- conv1
I0501 23:40:22.360159 16592 net.cpp:409] conv2 -> conv2
I0501 23:40:22.364228 16592 net.cpp:144] Setting up conv2
I0501 23:40:22.364243 16592 net.cpp:151] Top shape: 20 64 10 10 (128000)
I0501 23:40:22.364245 16592 net.cpp:159] Memory required for data: 1544240
I0501 23:40:22.364253 16592 layer_factory.hpp:77] Creating layer relu2
I0501 23:40:22.364259 16592 net.cpp:94] Creating Layer relu2
I0501 23:40:22.364264 16592 net.cpp:435] relu2 <- conv2
I0501 23:40:22.364269 16592 net.cpp:396] relu2 -> conv2 (in-place)
I0501 23:40:22.364275 16592 net.cpp:144] Setting up relu2
I0501 23:40:22.364279 16592 net.cpp:151] Top shape: 20 64 10 10 (128000)
I0501 23:40:22.364282 16592 net.cpp:159] Memory required for data: 2056240
I0501 23:40:22.364285 16592 layer_factory.hpp:77] Creating layer pool2
I0501 23:40:22.364290 16592 net.cpp:94] Creating Layer pool2
I0501 23:40:22.364293 16592 net.cpp:435] pool2 <- conv2
I0501 23:40:22.364297 16592 net.cpp:409] pool2 -> pool2
I0501 23:40:22.364351 16592 net.cpp:144] Setting up pool2
I0501 23:40:22.364357 16592 net.cpp:151] Top shape: 20 64 5 5 (32000)
I0501 23:40:22.364361 16592 net.cpp:159] Memory required for data: 2184240
I0501 23:40:22.364363 16592 layer_factory.hpp:77] Creating layer conv3
I0501 23:40:22.364372 16592 net.cpp:94] Creating Layer conv3
I0501 23:40:22.364377 16592 net.cpp:435] conv3 <- pool2
I0501 23:40:22.364382 16592 net.cpp:409] conv3 -> conv3
I0501 23:40:22.368821 16592 net.cpp:144] Setting up conv3
I0501 23:40:22.368835 16592 net.cpp:151] Top shape: 20 64 5 5 (32000)
I0501 23:40:22.368839 16592 net.cpp:159] Memory required for data: 2312240
I0501 23:40:22.368846 16592 layer_factory.hpp:77] Creating layer relu3
I0501 23:40:22.368854 16592 net.cpp:94] Creating Layer relu3
I0501 23:40:22.368858 16592 net.cpp:435] relu3 <- conv3
I0501 23:40:22.368862 16592 net.cpp:396] relu3 -> conv3 (in-place)
I0501 23:40:22.368870 16592 net.cpp:144] Setting up relu3
I0501 23:40:22.368873 16592 net.cpp:151] Top shape: 20 64 5 5 (32000)
I0501 23:40:22.368876 16592 net.cpp:159] Memory required for data: 2440240
I0501 23:40:22.368880 16592 layer_factory.hpp:77] Creating layer conv4
I0501 23:40:22.368887 16592 net.cpp:94] Creating Layer conv4
I0501 23:40:22.368891 16592 net.cpp:435] conv4 <- conv3
I0501 23:40:22.368896 16592 net.cpp:409] conv4 -> conv4
I0501 23:40:22.372407 16592 net.cpp:144] Setting up conv4
I0501 23:40:22.372421 16592 net.cpp:151] Top shape: 20 64 5 5 (32000)
I0501 23:40:22.372423 16592 net.cpp:159] Memory required for data: 2568240
I0501 23:40:22.372428 16592 layer_factory.hpp:77] Creating layer relu4
I0501 23:40:22.372434 16592 net.cpp:94] Creating Layer relu4
I0501 23:40:22.372437 16592 net.cpp:435] relu4 <- conv4
I0501 23:40:22.372442 16592 net.cpp:396] relu4 -> conv4 (in-place)
I0501 23:40:22.372449 16592 net.cpp:144] Setting up relu4
I0501 23:40:22.372453 16592 net.cpp:151] Top shape: 20 64 5 5 (32000)
I0501 23:40:22.372457 16592 net.cpp:159] Memory required for data: 2696240
I0501 23:40:22.372459 16592 layer_factory.hpp:77] Creating layer conv5
I0501 23:40:22.372468 16592 net.cpp:94] Creating Layer conv5
I0501 23:40:22.372472 16592 net.cpp:435] conv5 <- conv4
I0501 23:40:22.372476 16592 net.cpp:409] conv5 -> conv5
I0501 23:40:22.376472 16592 net.cpp:144] Setting up conv5
I0501 23:40:22.376487 16592 net.cpp:151] Top shape: 20 64 5 5 (32000)
I0501 23:40:22.376489 16592 net.cpp:159] Memory required for data: 2824240
I0501 23:40:22.376502 16592 layer_factory.hpp:77] Creating layer relu5
I0501 23:40:22.376509 16592 net.cpp:94] Creating Layer relu5
I0501 23:40:22.376513 16592 net.cpp:435] relu5 <- conv5
I0501 23:40:22.376518 16592 net.cpp:396] relu5 -> conv5 (in-place)
I0501 23:40:22.376524 16592 net.cpp:144] Setting up relu5
I0501 23:40:22.376528 16592 net.cpp:151] Top shape: 20 64 5 5 (32000)
I0501 23:40:22.376531 16592 net.cpp:159] Memory required for data: 2952240
I0501 23:40:22.376534 16592 layer_factory.hpp:77] Creating layer pool5
I0501 23:40:22.376540 16592 net.cpp:94] Creating Layer pool5
I0501 23:40:22.376543 16592 net.cpp:435] pool5 <- conv5
I0501 23:40:22.376547 16592 net.cpp:409] pool5 -> pool5
I0501 23:40:22.376593 16592 net.cpp:144] Setting up pool5
I0501 23:40:22.376601 16592 net.cpp:151] Top shape: 20 64 2 2 (5120)
I0501 23:40:22.376605 16592 net.cpp:159] Memory required for data: 2972720
I0501 23:40:22.376607 16592 layer_factory.hpp:77] Creating layer ip1
I0501 23:40:22.376615 16592 net.cpp:94] Creating Layer ip1
I0501 23:40:22.376617 16592 net.cpp:435] ip1 <- pool5
I0501 23:40:22.376622 16592 net.cpp:409] ip1 -> ip1
I0501 23:40:22.377141 16592 net.cpp:144] Setting up ip1
I0501 23:40:22.377149 16592 net.cpp:151] Top shape: 20 64 (1280)
I0501 23:40:22.377152 16592 net.cpp:159] Memory required for data: 2977840
I0501 23:40:22.377157 16592 layer_factory.hpp:77] Creating layer ip2
I0501 23:40:22.377164 16592 net.cpp:94] Creating Layer ip2
I0501 23:40:22.377168 16592 net.cpp:435] ip2 <- ip1
I0501 23:40:22.377172 16592 net.cpp:409] ip2 -> ip2
I0501 23:40:22.377398 16592 net.cpp:144] Setting up ip2
I0501 23:40:22.377404 16592 net.cpp:151] Top shape: 20 64 (1280)
I0501 23:40:22.377408 16592 net.cpp:159] Memory required for data: 2982960
I0501 23:40:22.377413 16592 layer_factory.hpp:77] Creating layer ip3
I0501 23:40:22.377419 16592 net.cpp:94] Creating Layer ip3
I0501 23:40:22.377424 16592 net.cpp:435] ip3 <- ip2
I0501 23:40:22.377427 16592 net.cpp:409] ip3 -> ip3
I0501 23:40:22.377625 16592 net.cpp:144] Setting up ip3
I0501 23:40:22.377634 16592 net.cpp:151] Top shape: 20 50 (1000)
I0501 23:40:22.377636 16592 net.cpp:159] Memory required for data: 2986960
I0501 23:40:22.377641 16592 layer_factory.hpp:77] Creating layer ip3_ip3_0_split
I0501 23:40:22.377646 16592 net.cpp:94] Creating Layer ip3_ip3_0_split
I0501 23:40:22.377650 16592 net.cpp:435] ip3_ip3_0_split <- ip3
I0501 23:40:22.377655 16592 net.cpp:409] ip3_ip3_0_split -> ip3_ip3_0_split_0
I0501 23:40:22.377660 16592 net.cpp:409] ip3_ip3_0_split -> ip3_ip3_0_split_1
I0501 23:40:22.377699 16592 net.cpp:144] Setting up ip3_ip3_0_split
I0501 23:40:22.377706 16592 net.cpp:151] Top shape: 20 50 (1000)
I0501 23:40:22.377709 16592 net.cpp:151] Top shape: 20 50 (1000)
I0501 23:40:22.377712 16592 net.cpp:159] Memory required for data: 2994960
I0501 23:40:22.377714 16592 layer_factory.hpp:77] Creating layer accuracy
I0501 23:40:22.377720 16592 net.cpp:94] Creating Layer accuracy
I0501 23:40:22.377723 16592 net.cpp:435] accuracy <- ip3_ip3_0_split_0
I0501 23:40:22.377727 16592 net.cpp:435] accuracy <- label_intercept_1_split_0
I0501 23:40:22.377730 16592 net.cpp:409] accuracy -> accuracy
…
