…
I0505 12:42:57.261873  6940 net.cpp:323] The NetState phase (0) differed from the phase (1) specified by a rule in layer intercept
I0505 12:42:57.261889  6940 net.cpp:323] The NetState phase (0) differed from the phase (1) specified by a rule in layer loss
I0505 12:42:57.261963  6940 net.cpp:52] Initializing net from parameters: 
state {
  phase: TRAIN
}
layer {
  name: "parameters"
  type: "HDF5Data"
  top: "data"
  top: "label"
  include {
    phase: TRAIN
  }
  hdf5_data_param {
    source: "/home/purduethu/scratch/radon/d/deng106/CNNStatisticalModel/distributions/input/20_distributions_400_sample_size_train-parameters-path.txt"
    batch_size: 20
  }
}
layer {
  name: "conv1"
  type: "Convolution"
  bottom: "data"
  top: "conv1"
  param {
    lr_mult: 1
  }
  param {
    lr_mult: 2
  }
  convolution_param {
    num_output: 64
    pad: 2
    kernel_size: 5
    stride: 1
    weight_filler {
      type: "gaussian"
      std: 0.0001
    }
    bias_filler {
      type: "constant"
    }
  }
}
layer {
  name: "relu1"
  type: "ReLU"
  bottom: "conv1"
  top: "conv1"
}
layer {
  name: "pool1"
  type: "Pooling"
  bottom: "conv1"
  top: "pool1"
  pooling_param {
    pool: MAX
    kernel_size: 3
    stride: 2
  }
}
layer {
  name: "conv2"
  type: "Convolution"
  bottom: "pool1"
  top: "conv2"
  param {
    lr_mult: 1
  }
  param {
    lr_mult: 2
  }
  convolution_param {
    num_output: 128
    pad: 2
    kernel_size: 5
    stride: 1
    weight_filler {
      type: "gaussian"
      std: 0.01
    }
    bias_filler {
      type: "constant"
    }
  }
}
layer {
  name: "relu2"
  type: "ReLU"
  bottom: "conv2"
  top: "conv2"
}
layer {
  name: "conv3"
  type: "Convolution"
  bottom: "conv2"
  top: "conv3"
  param {
    lr_mult: 1
  }
  param {
    lr_mult: 2
  }
  convolution_param {
    num_output: 128
    pad: 2
    kernel_size: 5
    stride: 1
    weight_filler {
      type: "gaussian"
      std: 0.01
    }
    bias_filler {
      type: "constant"
    }
  }
}
layer {
  name: "relu3"
  type: "ReLU"
  bottom: "conv3"
  top: "conv3"
}
layer {
  name: "pool3"
  type: "Pooling"
  bottom: "conv3"
  top: "pool3"
  pooling_param {
    pool: AVE
    kernel_size: 3
    stride: 2
  }
}
layer {
  name: "ip1"
  type: "InnerProduct"
  bottom: "pool3"
  top: "ip1"
  param {
    lr_mult: 1
  }
  param {
    lr_mult: 2
  }
  inner_product_param {
    num_output: 512
    weight_filler {
      type: "gaussian"
      std: 0.1
    }
    bias_filler {
      type: "constant"
    }
  }
}
layer {
  name: "ip2"
  type: "InnerProduct"
  bottom: "ip1"
  top: "ip2"
  param {
    lr_mult: 1
  }
  param {
    lr_mult: 2
  }
  inner_product_param {
    num_output: 256
    weight_filler {
      type: "gaussian"
      std: 0.1
    }
    bias_filler {
      type: "constant"
    }
  }
}
layer {
  name: "ip3"
  type: "InnerProduct"
  bottom: "ip2"
  top: "ip3"
  param {
    lr_mult: 1
  }
  param {
    lr_mult: 2
  }
  inner_product_param {
    num_output: 1
    weight_filler {
      type: "gaussian"
      std: 0.1
    }
    bias_filler {
      type: "constant"
    }
  }
}
layer {
  name: "loss"
  type: "HuberLoss"
  bottom: "ip3"
  bottom: "label"
  top: "loss"
  include {
    phase: TRAIN
  }
}
I0505 12:42:57.262011  6940 layer_factory.hpp:77] Creating layer parameters
I0505 12:42:57.262023  6940 net.cpp:94] Creating Layer parameters
I0505 12:42:57.262028  6940 net.cpp:409] parameters -> data
I0505 12:42:57.262037  6940 net.cpp:409] parameters -> label
I0505 12:42:57.262048  6940 hdf5_data_layer.cpp:79] Loading list of HDF5 filenames from: /home/purduethu/scratch/radon/d/deng106/CNNStatisticalModel/distributions/input/20_distributions_400_sample_size_train-parameters-path.txt
I0505 12:42:57.262064  6940 hdf5_data_layer.cpp:93] Number of HDF5 files: 1
I0505 12:42:57.262619  6940 hdf5.cpp:32] Datatype class: H5T_FLOAT
I0505 12:42:57.524356  6940 net.cpp:144] Setting up parameters
I0505 12:42:57.524387  6940 net.cpp:151] Top shape: 20 1 20 20 (8000)
I0505 12:42:57.524394  6940 net.cpp:151] Top shape: 20 (20)
I0505 12:42:57.524396  6940 net.cpp:159] Memory required for data: 32080
I0505 12:42:57.524404  6940 layer_factory.hpp:77] Creating layer conv1
I0505 12:42:57.524420  6940 net.cpp:94] Creating Layer conv1
I0505 12:42:57.524425  6940 net.cpp:435] conv1 <- data
I0505 12:42:57.524430  6940 net.cpp:409] conv1 -> conv1
I0505 12:42:57.529867  6940 net.cpp:144] Setting up conv1
I0505 12:42:57.529887  6940 net.cpp:151] Top shape: 20 64 20 20 (512000)
I0505 12:42:57.529891  6940 net.cpp:159] Memory required for data: 2080080
I0505 12:42:57.529902  6940 layer_factory.hpp:77] Creating layer relu1
I0505 12:42:57.529911  6940 net.cpp:94] Creating Layer relu1
I0505 12:42:57.529916  6940 net.cpp:435] relu1 <- conv1
I0505 12:42:57.529920  6940 net.cpp:396] relu1 -> conv1 (in-place)
I0505 12:42:57.529932  6940 net.cpp:144] Setting up relu1
I0505 12:42:57.529937  6940 net.cpp:151] Top shape: 20 64 20 20 (512000)
I0505 12:42:57.529940  6940 net.cpp:159] Memory required for data: 4128080
I0505 12:42:57.529943  6940 layer_factory.hpp:77] Creating layer pool1
I0505 12:42:57.529949  6940 net.cpp:94] Creating Layer pool1
I0505 12:42:57.529953  6940 net.cpp:435] pool1 <- conv1
I0505 12:42:57.529958  6940 net.cpp:409] pool1 -> pool1
I0505 12:42:57.530006  6940 net.cpp:144] Setting up pool1
I0505 12:42:57.530014  6940 net.cpp:151] Top shape: 20 64 10 10 (128000)
I0505 12:42:57.530016  6940 net.cpp:159] Memory required for data: 4640080
I0505 12:42:57.530020  6940 layer_factory.hpp:77] Creating layer conv2
I0505 12:42:57.530030  6940 net.cpp:94] Creating Layer conv2
I0505 12:42:57.530033  6940 net.cpp:435] conv2 <- pool1
I0505 12:42:57.530038  6940 net.cpp:409] conv2 -> conv2
I0505 12:42:57.539746  6940 net.cpp:144] Setting up conv2
I0505 12:42:57.539770  6940 net.cpp:151] Top shape: 20 128 10 10 (256000)
I0505 12:42:57.539778  6940 net.cpp:159] Memory required for data: 5664080
I0505 12:42:57.539793  6940 layer_factory.hpp:77] Creating layer relu2
I0505 12:42:57.539803  6940 net.cpp:94] Creating Layer relu2
I0505 12:42:57.539810  6940 net.cpp:435] relu2 <- conv2
I0505 12:42:57.539819  6940 net.cpp:396] relu2 -> conv2 (in-place)
I0505 12:42:57.539831  6940 net.cpp:144] Setting up relu2
I0505 12:42:57.539839  6940 net.cpp:151] Top shape: 20 128 10 10 (256000)
I0505 12:42:57.539844  6940 net.cpp:159] Memory required for data: 6688080
I0505 12:42:57.539850  6940 layer_factory.hpp:77] Creating layer conv3
I0505 12:42:57.539863  6940 net.cpp:94] Creating Layer conv3
I0505 12:42:57.539870  6940 net.cpp:435] conv3 <- conv2
I0505 12:42:57.539880  6940 net.cpp:409] conv3 -> conv3
I0505 12:42:57.557729  6940 net.cpp:144] Setting up conv3
I0505 12:42:57.557755  6940 net.cpp:151] Top shape: 20 128 10 10 (256000)
I0505 12:42:57.557762  6940 net.cpp:159] Memory required for data: 7712080
I0505 12:42:57.557777  6940 layer_factory.hpp:77] Creating layer relu3
I0505 12:42:57.557797  6940 net.cpp:94] Creating Layer relu3
I0505 12:42:57.557804  6940 net.cpp:435] relu3 <- conv3
I0505 12:42:57.557813  6940 net.cpp:396] relu3 -> conv3 (in-place)
I0505 12:42:57.557827  6940 net.cpp:144] Setting up relu3
I0505 12:42:57.557835  6940 net.cpp:151] Top shape: 20 128 10 10 (256000)
I0505 12:42:57.557842  6940 net.cpp:159] Memory required for data: 8736080
I0505 12:42:57.557847  6940 layer_factory.hpp:77] Creating layer pool3
I0505 12:42:57.557857  6940 net.cpp:94] Creating Layer pool3
I0505 12:42:57.557863  6940 net.cpp:435] pool3 <- conv3
I0505 12:42:57.557871  6940 net.cpp:409] pool3 -> pool3
I0505 12:42:57.557937  6940 net.cpp:144] Setting up pool3
I0505 12:42:57.557948  6940 net.cpp:151] Top shape: 20 128 5 5 (64000)
I0505 12:42:57.557955  6940 net.cpp:159] Memory required for data: 8992080
I0505 12:42:57.557966  6940 layer_factory.hpp:77] Creating layer ip1
I0505 12:42:57.557977  6940 net.cpp:94] Creating Layer ip1
I0505 12:42:57.557984  6940 net.cpp:435] ip1 <- pool3
I0505 12:42:57.557992  6940 net.cpp:409] ip1 -> ip1
I0505 12:42:57.597941  6940 net.cpp:144] Setting up ip1
I0505 12:42:57.597966  6940 net.cpp:151] Top shape: 20 512 (10240)
I0505 12:42:57.597970  6940 net.cpp:159] Memory required for data: 9033040
I0505 12:42:57.597977  6940 layer_factory.hpp:77] Creating layer ip2
I0505 12:42:57.597985  6940 net.cpp:94] Creating Layer ip2
I0505 12:42:57.597990  6940 net.cpp:435] ip2 <- ip1
I0505 12:42:57.597995  6940 net.cpp:409] ip2 -> ip2
I0505 12:42:57.601143  6940 net.cpp:144] Setting up ip2
I0505 12:42:57.601153  6940 net.cpp:151] Top shape: 20 256 (5120)
I0505 12:42:57.601156  6940 net.cpp:159] Memory required for data: 9053520
I0505 12:42:57.601164  6940 layer_factory.hpp:77] Creating layer ip3
I0505 12:42:57.601171  6940 net.cpp:94] Creating Layer ip3
I0505 12:42:57.601173  6940 net.cpp:435] ip3 <- ip2
I0505 12:42:57.601178  6940 net.cpp:409] ip3 -> ip3
I0505 12:42:57.601279  6940 net.cpp:144] Setting up ip3
I0505 12:42:57.601286  6940 net.cpp:151] Top shape: 20 1 (20)
I0505 12:42:57.601289  6940 net.cpp:159] Memory required for data: 9053600
I0505 12:42:57.601294  6940 layer_factory.hpp:77] Creating layer loss
I0505 12:42:57.601306  6940 net.cpp:94] Creating Layer loss
I0505 12:42:57.601310  6940 net.cpp:435] loss <- ip3
I0505 12:42:57.601313  6940 net.cpp:435] loss <- label
I0505 12:42:57.601318  6940 net.cpp:409] loss -> loss
I0505 12:42:57.601366  6940 net.cpp:144] Setting up loss
…
I0505 12:42:57.736953  6940 net.cpp:323] The NetState phase (0) differed from the phase (1) specified by a rule in layer intercept
I0505 12:42:57.736965  6940 net.cpp:323] The NetState phase (0) differed from the phase (1) specified by a rule in layer accuracy
I0505 12:42:57.737038  6940 net.cpp:52] Initializing net from parameters: 
state {
  phase: TRAIN
}
layer {
  name: "parameters"
  type: "HDF5Data"
  top: "data"
  top: "label"
  include {
    phase: TRAIN
  }
  hdf5_data_param {
    source: "/home/purduethu/scratch/radon/d/deng106/CNNStatisticalModel/distributions/input/20_distributions_400_sample_size_train-distributions-path.txt"
    batch_size: 20
  }
}
layer {
  name: "conv1"
  type: "Convolution"
  bottom: "data"
  top: "conv1"
  param {
    lr_mult: 1
  }
  param {
    lr_mult: 2
  }
  convolution_param {
    num_output: 64
    pad: 2
    kernel_size: 5
    stride: 1
    weight_filler {
      type: "gaussian"
      std: 0.0001
    }
    bias_filler {
      type: "constant"
    }
  }
}
layer {
  name: "relu1"
  type: "ReLU"
  bottom: "conv1"
  top: "conv1"
}
layer {
  name: "pool1"
  type: "Pooling"
  bottom: "conv1"
  top: "pool1"
  pooling_param {
    pool: MAX
    kernel_size: 3
    stride: 2
  }
}
layer {
  name: "conv2"
  type: "Convolution"
  bottom: "pool1"
  top: "conv2"
  param {
    lr_mult: 1
  }
  param {
    lr_mult: 2
  }
  convolution_param {
    num_output: 128
    pad: 2
    kernel_size: 5
    stride: 1
    weight_filler {
      type: "gaussian"
      std: 0.01
    }
    bias_filler {
      type: "constant"
    }
  }
}
layer {
  name: "relu2"
  type: "ReLU"
  bottom: "conv2"
  top: "conv2"
}
layer {
  name: "conv3"
  type: "Convolution"
  bottom: "conv2"
  top: "conv3"
  param {
    lr_mult: 1
  }
  param {
    lr_mult: 2
  }
  convolution_param {
    num_output: 128
    pad: 2
    kernel_size: 5
    stride: 1
    weight_filler {
      type: "gaussian"
      std: 0.01
    }
    bias_filler {
      type: "constant"
    }
  }
}
layer {
  name: "relu3"
  type: "ReLU"
  bottom: "conv3"
  top: "conv3"
}
layer {
  name: "pool3"
  type: "Pooling"
  bottom: "conv3"
  top: "pool3"
  pooling_param {
    pool: AVE
    kernel_size: 3
    stride: 2
  }
}
layer {
  name: "ip1"
  type: "InnerProduct"
  bottom: "pool3"
  top: "ip1"
  param {
    lr_mult: 1
  }
  param {
    lr_mult: 2
  }
  inner_product_param {
    num_output: 512
    weight_filler {
      type: "gaussian"
      std: 0.1
    }
    bias_filler {
      type: "constant"
    }
  }
}
layer {
  name: "ip2"
  type: "InnerProduct"
  bottom: "ip1"
  top: "ip2"
  param {
    lr_mult: 1
  }
  param {
    lr_mult: 2
  }
  inner_product_param {
    num_output: 256
    weight_filler {
      type: "gaussian"
      std: 0.1
    }
    bias_filler {
      type: "constant"
    }
  }
}
layer {
  name: "ip3"
  type: "InnerProduct"
  bottom: "ip2"
  top: "ip3"
  param {
    lr_mult: 1
  }
  param {
    lr_mult: 2
  }
  inner_product_param {
    num_output: 50
    weight_filler {
      type: "gaussian"
      std: 0.1
    }
    bias_filler {
      type: "constant"
    }
  }
}
layer {
  name: "loss"
  type: "SoftmaxWithLoss"
  bottom: "ip3"
  bottom: "label"
  top: "loss"
}
I0505 12:42:57.737081  6940 layer_factory.hpp:77] Creating layer parameters
I0505 12:42:57.737088  6940 net.cpp:94] Creating Layer parameters
I0505 12:42:57.737092  6940 net.cpp:409] parameters -> data
I0505 12:42:57.737099  6940 net.cpp:409] parameters -> label
I0505 12:42:57.737105  6940 hdf5_data_layer.cpp:79] Loading list of HDF5 filenames from: /home/purduethu/scratch/radon/d/deng106/CNNStatisticalModel/distributions/input/20_distributions_400_sample_size_train-distributions-path.txt
I0505 12:42:57.737120  6940 hdf5_data_layer.cpp:93] Number of HDF5 files: 1
I0505 12:42:57.994182  6940 hdf5.cpp:35] Datatype class: H5T_INTEGER
I0505 12:42:57.995205  6940 net.cpp:144] Setting up parameters
I0505 12:42:57.995220  6940 net.cpp:151] Top shape: 20 1 20 20 (8000)
I0505 12:42:57.995225  6940 net.cpp:151] Top shape: 20 (20)
I0505 12:42:57.995229  6940 net.cpp:159] Memory required for data: 32080
I0505 12:42:57.995234  6940 layer_factory.hpp:77] Creating layer conv1
I0505 12:42:57.995251  6940 net.cpp:94] Creating Layer conv1
I0505 12:42:57.995256  6940 net.cpp:435] conv1 <- data
I0505 12:42:57.995262  6940 net.cpp:409] conv1 -> conv1
I0505 12:42:57.997603  6940 net.cpp:144] Setting up conv1
I0505 12:42:57.997619  6940 net.cpp:151] Top shape: 20 64 20 20 (512000)
I0505 12:42:57.997623  6940 net.cpp:159] Memory required for data: 2080080
I0505 12:42:57.997633  6940 layer_factory.hpp:77] Creating layer relu1
I0505 12:42:57.997642  6940 net.cpp:94] Creating Layer relu1
I0505 12:42:57.997645  6940 net.cpp:435] relu1 <- conv1
I0505 12:42:57.997649  6940 net.cpp:396] relu1 -> conv1 (in-place)
I0505 12:42:57.997658  6940 net.cpp:144] Setting up relu1
I0505 12:42:57.997661  6940 net.cpp:151] Top shape: 20 64 20 20 (512000)
I0505 12:42:57.997664  6940 net.cpp:159] Memory required for data: 4128080
I0505 12:42:57.997668  6940 layer_factory.hpp:77] Creating layer pool1
I0505 12:42:57.997673  6940 net.cpp:94] Creating Layer pool1
I0505 12:42:57.997676  6940 net.cpp:435] pool1 <- conv1
I0505 12:42:57.997687  6940 net.cpp:409] pool1 -> pool1
I0505 12:42:57.997736  6940 net.cpp:144] Setting up pool1
I0505 12:42:57.997742  6940 net.cpp:151] Top shape: 20 64 10 10 (128000)
I0505 12:42:57.997746  6940 net.cpp:159] Memory required for data: 4640080
I0505 12:42:57.997750  6940 layer_factory.hpp:77] Creating layer conv2
I0505 12:42:57.997758  6940 net.cpp:94] Creating Layer conv2
I0505 12:42:57.997761  6940 net.cpp:435] conv2 <- pool1
I0505 12:42:57.997766  6940 net.cpp:409] conv2 -> conv2
I0505 12:42:58.008489  6940 net.cpp:144] Setting up conv2
I0505 12:42:58.008514  6940 net.cpp:151] Top shape: 20 128 10 10 (256000)
I0505 12:42:58.008522  6940 net.cpp:159] Memory required for data: 5664080
I0505 12:42:58.008536  6940 layer_factory.hpp:77] Creating layer relu2
I0505 12:42:58.008548  6940 net.cpp:94] Creating Layer relu2
I0505 12:42:58.008574  6940 net.cpp:435] relu2 <- conv2
I0505 12:42:58.008584  6940 net.cpp:396] relu2 -> conv2 (in-place)
I0505 12:42:58.008596  6940 net.cpp:144] Setting up relu2
I0505 12:42:58.008605  6940 net.cpp:151] Top shape: 20 128 10 10 (256000)
I0505 12:42:58.008610  6940 net.cpp:159] Memory required for data: 6688080
I0505 12:42:58.008616  6940 layer_factory.hpp:77] Creating layer conv3
I0505 12:42:58.008630  6940 net.cpp:94] Creating Layer conv3
I0505 12:42:58.008636  6940 net.cpp:435] conv3 <- conv2
I0505 12:42:58.008646  6940 net.cpp:409] conv3 -> conv3
I0505 12:42:58.026828  6940 net.cpp:144] Setting up conv3
I0505 12:42:58.026844  6940 net.cpp:151] Top shape: 20 128 10 10 (256000)
I0505 12:42:58.026847  6940 net.cpp:159] Memory required for data: 7712080
I0505 12:42:58.026856  6940 layer_factory.hpp:77] Creating layer relu3
I0505 12:42:58.026863  6940 net.cpp:94] Creating Layer relu3
I0505 12:42:58.026867  6940 net.cpp:435] relu3 <- conv3
I0505 12:42:58.026872  6940 net.cpp:396] relu3 -> conv3 (in-place)
I0505 12:42:58.026880  6940 net.cpp:144] Setting up relu3
I0505 12:42:58.026885  6940 net.cpp:151] Top shape: 20 128 10 10 (256000)
I0505 12:42:58.026887  6940 net.cpp:159] Memory required for data: 8736080
I0505 12:42:58.026891  6940 layer_factory.hpp:77] Creating layer pool3
I0505 12:42:58.026897  6940 net.cpp:94] Creating Layer pool3
I0505 12:42:58.026901  6940 net.cpp:435] pool3 <- conv3
I0505 12:42:58.026906  6940 net.cpp:409] pool3 -> pool3
I0505 12:42:58.026943  6940 net.cpp:144] Setting up pool3
I0505 12:42:58.026950  6940 net.cpp:151] Top shape: 20 128 5 5 (64000)
I0505 12:42:58.026953  6940 net.cpp:159] Memory required for data: 8992080
I0505 12:42:58.026957  6940 layer_factory.hpp:77] Creating layer ip1
I0505 12:42:58.026964  6940 net.cpp:94] Creating Layer ip1
I0505 12:42:58.026968  6940 net.cpp:435] ip1 <- pool3
I0505 12:42:58.026973  6940 net.cpp:409] ip1 -> ip1
I0505 12:42:58.066849  6940 net.cpp:144] Setting up ip1
I0505 12:42:58.066874  6940 net.cpp:151] Top shape: 20 512 (10240)
I0505 12:42:58.066879  6940 net.cpp:159] Memory required for data: 9033040
I0505 12:42:58.066885  6940 layer_factory.hpp:77] Creating layer ip2
I0505 12:42:58.066895  6940 net.cpp:94] Creating Layer ip2
I0505 12:42:58.066900  6940 net.cpp:435] ip2 <- ip1
I0505 12:42:58.066905  6940 net.cpp:409] ip2 -> ip2
I0505 12:42:58.070060  6940 net.cpp:144] Setting up ip2
I0505 12:42:58.070070  6940 net.cpp:151] Top shape: 20 256 (5120)
I0505 12:42:58.070072  6940 net.cpp:159] Memory required for data: 9053520
I0505 12:42:58.070080  6940 layer_factory.hpp:77] Creating layer ip3
I0505 12:42:58.070086  6940 net.cpp:94] Creating Layer ip3
I0505 12:42:58.070089  6940 net.cpp:435] ip3 <- ip2
I0505 12:42:58.070094  6940 net.cpp:409] ip3 -> ip3
I0505 12:42:58.071432  6940 net.cpp:144] Setting up ip3
I0505 12:42:58.071449  6940 net.cpp:151] Top shape: 20 50 (1000)
I0505 12:42:58.071451  6940 net.cpp:159] Memory required for data: 9057520
I0505 12:42:58.071457  6940 layer_factory.hpp:77] Creating layer loss
I0505 12:42:58.071465  6940 net.cpp:94] Creating Layer loss
I0505 12:42:58.071467  6940 net.cpp:435] loss <- ip3
I0505 12:42:58.071472  6940 net.cpp:435] loss <- label
I0505 12:42:58.071483  6940 net.cpp:409] loss -> loss
I0505 12:42:58.071492  6940 layer_factory.hpp:77] Creating layer loss
…
I0505 12:42:58.071933  6940 solver.cpp:181] Creating test net (#0) specified by net file: ./protocol/dis_20_400_dimension.protocol_distribution
I0505 12:42:58.071956  6940 net.cpp:323] The NetState phase (1) differed from the phase (0) specified by a rule in layer parameters
I0505 12:42:58.072041  6940 net.cpp:52] Initializing net from parameters: 
state {
  phase: TEST
}
layer {
  name: "intercept"
  type: "HDF5Data"
  top: "data"
  top: "label"
  include {
    phase: TEST
  }
  hdf5_data_param {
    source: "/home/purduethu/scratch/radon/d/deng106/CNNStatisticalModel/distributions/input/20_distributions_400_sample_size_test-distributions-path.txt"
    batch_size: 20
  }
}
layer {
  name: "conv1"
  type: "Convolution"
  bottom: "data"
  top: "conv1"
  param {
    lr_mult: 1
  }
  param {
    lr_mult: 2
  }
  convolution_param {
    num_output: 64
    pad: 2
    kernel_size: 5
    stride: 1
    weight_filler {
      type: "gaussian"
      std: 0.0001
    }
    bias_filler {
      type: "constant"
    }
  }
}
layer {
  name: "relu1"
  type: "ReLU"
  bottom: "conv1"
  top: "conv1"
}
layer {
  name: "pool1"
  type: "Pooling"
  bottom: "conv1"
  top: "pool1"
  pooling_param {
    pool: MAX
    kernel_size: 3
    stride: 2
  }
}
layer {
  name: "conv2"
  type: "Convolution"
  bottom: "pool1"
  top: "conv2"
  param {
    lr_mult: 1
  }
  param {
    lr_mult: 2
  }
  convolution_param {
    num_output: 128
    pad: 2
    kernel_size: 5
    stride: 1
    weight_filler {
      type: "gaussian"
      std: 0.01
    }
    bias_filler {
      type: "constant"
    }
  }
}
layer {
  name: "relu2"
  type: "ReLU"
  bottom: "conv2"
  top: "conv2"
}
layer {
  name: "conv3"
  type: "Convolution"
  bottom: "conv2"
  top: "conv3"
  param {
    lr_mult: 1
  }
  param {
    lr_mult: 2
  }
  convolution_param {
    num_output: 128
    pad: 2
    kernel_size: 5
    stride: 1
    weight_filler {
      type: "gaussian"
      std: 0.01
    }
    bias_filler {
      type: "constant"
    }
  }
}
layer {
  name: "relu3"
  type: "ReLU"
  bottom: "conv3"
  top: "conv3"
}
layer {
  name: "pool3"
  type: "Pooling"
  bottom: "conv3"
  top: "pool3"
  pooling_param {
    pool: AVE
    kernel_size: 3
    stride: 2
  }
}
layer {
  name: "ip1"
  type: "InnerProduct"
  bottom: "pool3"
  top: "ip1"
  param {
    lr_mult: 1
  }
  param {
    lr_mult: 2
  }
  inner_product_param {
    num_output: 512
    weight_filler {
      type: "gaussian"
      std: 0.1
    }
    bias_filler {
      type: "constant"
    }
  }
}
layer {
  name: "ip2"
  type: "InnerProduct"
  bottom: "ip1"
  top: "ip2"
  param {
    lr_mult: 1
  }
  param {
    lr_mult: 2
  }
  inner_product_param {
    num_output: 256
    weight_filler {
      type: "gaussian"
      std: 0.1
    }
    bias_filler {
      type: "constant"
    }
  }
}
layer {
  name: "ip3"
  type: "InnerProduct"
  bottom: "ip2"
  top: "ip3"
  param {
    lr_mult: 1
  }
  param {
    lr_mult: 2
  }
  inner_product_param {
    num_output: 50
    weight_filler {
      type: "gaussian"
      std: 0.1
    }
    bias_filler {
      type: "constant"
    }
  }
}
layer {
  name: "accuracy"
  type: "Accuracy"
  bottom: "ip3"
  bottom: "label"
  top: "accuracy"
  include {
    phase: TEST
  }
}
layer {
  name: "loss"
  type: "SoftmaxWithLoss"
  bottom: "ip3"
  bottom: "label"
  top: "loss"
}
I0505 12:42:58.072096  6940 layer_factory.hpp:77] Creating layer intercept
I0505 12:42:58.072105  6940 net.cpp:94] Creating Layer intercept
I0505 12:42:58.072109  6940 net.cpp:409] intercept -> data
I0505 12:42:58.072116  6940 net.cpp:409] intercept -> label
I0505 12:42:58.072121  6940 hdf5_data_layer.cpp:79] Loading list of HDF5 filenames from: /home/purduethu/scratch/radon/d/deng106/CNNStatisticalModel/distributions/input/20_distributions_400_sample_size_test-distributions-path.txt
I0505 12:42:58.072141  6940 hdf5_data_layer.cpp:93] Number of HDF5 files: 1
I0505 12:42:58.137461  6940 net.cpp:144] Setting up intercept
I0505 12:42:58.137497  6940 net.cpp:151] Top shape: 20 1 20 20 (8000)
I0505 12:42:58.137502  6940 net.cpp:151] Top shape: 20 (20)
I0505 12:42:58.137506  6940 net.cpp:159] Memory required for data: 32080
I0505 12:42:58.137511  6940 layer_factory.hpp:77] Creating layer label_intercept_1_split
I0505 12:42:58.137523  6940 net.cpp:94] Creating Layer label_intercept_1_split
I0505 12:42:58.137527  6940 net.cpp:435] label_intercept_1_split <- label
I0505 12:42:58.137532  6940 net.cpp:409] label_intercept_1_split -> label_intercept_1_split_0
I0505 12:42:58.137542  6940 net.cpp:409] label_intercept_1_split -> label_intercept_1_split_1
I0505 12:42:58.137589  6940 net.cpp:144] Setting up label_intercept_1_split
I0505 12:42:58.137596  6940 net.cpp:151] Top shape: 20 (20)
I0505 12:42:58.137600  6940 net.cpp:151] Top shape: 20 (20)
I0505 12:42:58.137603  6940 net.cpp:159] Memory required for data: 32240
I0505 12:42:58.137606  6940 layer_factory.hpp:77] Creating layer conv1
I0505 12:42:58.137617  6940 net.cpp:94] Creating Layer conv1
I0505 12:42:58.137621  6940 net.cpp:435] conv1 <- data
I0505 12:42:58.137626  6940 net.cpp:409] conv1 -> conv1
I0505 12:42:58.138437  6940 net.cpp:144] Setting up conv1
I0505 12:42:58.138449  6940 net.cpp:151] Top shape: 20 64 20 20 (512000)
I0505 12:42:58.138453  6940 net.cpp:159] Memory required for data: 2080240
I0505 12:42:58.138463  6940 layer_factory.hpp:77] Creating layer relu1
I0505 12:42:58.138469  6940 net.cpp:94] Creating Layer relu1
I0505 12:42:58.138473  6940 net.cpp:435] relu1 <- conv1
I0505 12:42:58.138478  6940 net.cpp:396] relu1 -> conv1 (in-place)
I0505 12:42:58.138484  6940 net.cpp:144] Setting up relu1
I0505 12:42:58.138489  6940 net.cpp:151] Top shape: 20 64 20 20 (512000)
I0505 12:42:58.138492  6940 net.cpp:159] Memory required for data: 4128240
I0505 12:42:58.138495  6940 layer_factory.hpp:77] Creating layer pool1
I0505 12:42:58.138502  6940 net.cpp:94] Creating Layer pool1
I0505 12:42:58.138505  6940 net.cpp:435] pool1 <- conv1
I0505 12:42:58.138509  6940 net.cpp:409] pool1 -> pool1
I0505 12:42:58.138557  6940 net.cpp:144] Setting up pool1
I0505 12:42:58.138564  6940 net.cpp:151] Top shape: 20 64 10 10 (128000)
I0505 12:42:58.138567  6940 net.cpp:159] Memory required for data: 4640240
I0505 12:42:58.138571  6940 layer_factory.hpp:77] Creating layer conv2
I0505 12:42:58.138578  6940 net.cpp:94] Creating Layer conv2
I0505 12:42:58.138582  6940 net.cpp:435] conv2 <- pool1
I0505 12:42:58.138587  6940 net.cpp:409] conv2 -> conv2
I0505 12:42:58.146415  6940 net.cpp:144] Setting up conv2
I0505 12:42:58.146432  6940 net.cpp:151] Top shape: 20 128 10 10 (256000)
I0505 12:42:58.146436  6940 net.cpp:159] Memory required for data: 5664240
I0505 12:42:58.146445  6940 layer_factory.hpp:77] Creating layer relu2
I0505 12:42:58.146457  6940 net.cpp:94] Creating Layer relu2
I0505 12:42:58.146461  6940 net.cpp:435] relu2 <- conv2
I0505 12:42:58.146466  6940 net.cpp:396] relu2 -> conv2 (in-place)
I0505 12:42:58.146473  6940 net.cpp:144] Setting up relu2
I0505 12:42:58.146478  6940 net.cpp:151] Top shape: 20 128 10 10 (256000)
I0505 12:42:58.146481  6940 net.cpp:159] Memory required for data: 6688240
I0505 12:42:58.146483  6940 layer_factory.hpp:77] Creating layer conv3
I0505 12:42:58.146492  6940 net.cpp:94] Creating Layer conv3
I0505 12:42:58.146495  6940 net.cpp:435] conv3 <- conv2
I0505 12:42:58.146500  6940 net.cpp:409] conv3 -> conv3
I0505 12:42:58.160368  6940 net.cpp:144] Setting up conv3
I0505 12:42:58.160383  6940 net.cpp:151] Top shape: 20 128 10 10 (256000)
I0505 12:42:58.160387  6940 net.cpp:159] Memory required for data: 7712240
I0505 12:42:58.160396  6940 layer_factory.hpp:77] Creating layer relu3
I0505 12:42:58.160403  6940 net.cpp:94] Creating Layer relu3
I0505 12:42:58.160406  6940 net.cpp:435] relu3 <- conv3
I0505 12:42:58.160411  6940 net.cpp:396] relu3 -> conv3 (in-place)
I0505 12:42:58.160418  6940 net.cpp:144] Setting up relu3
I0505 12:42:58.160423  6940 net.cpp:151] Top shape: 20 128 10 10 (256000)
I0505 12:42:58.160426  6940 net.cpp:159] Memory required for data: 8736240
I0505 12:42:58.160429  6940 layer_factory.hpp:77] Creating layer pool3
I0505 12:42:58.160434  6940 net.cpp:94] Creating Layer pool3
I0505 12:42:58.160437  6940 net.cpp:435] pool3 <- conv3
I0505 12:42:58.160441  6940 net.cpp:409] pool3 -> pool3
I0505 12:42:58.160477  6940 net.cpp:144] Setting up pool3
I0505 12:42:58.160485  6940 net.cpp:151] Top shape: 20 128 5 5 (64000)
I0505 12:42:58.160487  6940 net.cpp:159] Memory required for data: 8992240
I0505 12:42:58.160490  6940 layer_factory.hpp:77] Creating layer ip1
I0505 12:42:58.160498  6940 net.cpp:94] Creating Layer ip1
I0505 12:42:58.160501  6940 net.cpp:435] ip1 <- pool3
I0505 12:42:58.160506  6940 net.cpp:409] ip1 -> ip1
I0505 12:42:58.200621  6940 net.cpp:144] Setting up ip1
I0505 12:42:58.200646  6940 net.cpp:151] Top shape: 20 512 (10240)
I0505 12:42:58.200650  6940 net.cpp:159] Memory required for data: 9033200
I0505 12:42:58.200657  6940 layer_factory.hpp:77] Creating layer ip2
I0505 12:42:58.200666  6940 net.cpp:94] Creating Layer ip2
I0505 12:42:58.200671  6940 net.cpp:435] ip2 <- ip1
I0505 12:42:58.200677  6940 net.cpp:409] ip2 -> ip2
I0505 12:42:58.203835  6940 net.cpp:144] Setting up ip2
I0505 12:42:58.203845  6940 net.cpp:151] Top shape: 20 256 (5120)
I0505 12:42:58.203847  6940 net.cpp:159] Memory required for data: 9053680
I0505 12:42:58.203855  6940 layer_factory.hpp:77] Creating layer ip3
I0505 12:42:58.203861  6940 net.cpp:94] Creating Layer ip3
I0505 12:42:58.203865  6940 net.cpp:435] ip3 <- ip2
I0505 12:42:58.203869  6940 net.cpp:409] ip3 -> ip3
I0505 12:42:58.204298  6940 net.cpp:144] Setting up ip3
I0505 12:42:58.204304  6940 net.cpp:151] Top shape: 20 50 (1000)
I0505 12:42:58.204308  6940 net.cpp:159] Memory required for data: 9057680
I0505 12:42:58.204313  6940 layer_factory.hpp:77] Creating layer ip3_ip3_0_split
I0505 12:42:58.204319  6940 net.cpp:94] Creating Layer ip3_ip3_0_split
I0505 12:42:58.204321  6940 net.cpp:435] ip3_ip3_0_split <- ip3
I0505 12:42:58.204325  6940 net.cpp:409] ip3_ip3_0_split -> ip3_ip3_0_split_0
I0505 12:42:58.204330  6940 net.cpp:409] ip3_ip3_0_split -> ip3_ip3_0_split_1
I0505 12:42:58.204370  6940 net.cpp:144] Setting up ip3_ip3_0_split
I0505 12:42:58.204375  6940 net.cpp:151] Top shape: 20 50 (1000)
I0505 12:42:58.204380  6940 net.cpp:151] Top shape: 20 50 (1000)
I0505 12:42:58.204382  6940 net.cpp:159] Memory required for data: 9065680
I0505 12:42:58.204385  6940 layer_factory.hpp:77] Creating layer accuracy
I0505 12:42:58.204391  6940 net.cpp:94] Creating Layer accuracy
I0505 12:42:58.204394  6940 net.cpp:435] accuracy <- ip3_ip3_0_split_0
I0505 12:42:58.204397  6940 net.cpp:435] accuracy <- label_intercept_1_split_0
I0505 12:42:58.204402  6940 net.cpp:409] accuracy -> accuracy
…
