…
I0504 23:09:02.815373 32651 net.cpp:323] The NetState phase (0) differed from the phase (1) specified by a rule in layer intercept
I0504 23:09:02.815389 32651 net.cpp:323] The NetState phase (0) differed from the phase (1) specified by a rule in layer loss
I0504 23:09:02.815469 32651 net.cpp:52] Initializing net from parameters: 
state {
  phase: TRAIN
}
layer {
  name: "parameters"
  type: "HDF5Data"
  top: "data"
  top: "label"
  include {
    phase: TRAIN
  }
  hdf5_data_param {
    source: "/home/purduethu/scratch/radon/d/deng106/CNNStatisticalModel/distributions/input/50_distributions_900_sample_size_train-parameters-path.txt"
    batch_size: 20
  }
}
layer {
  name: "conv1"
  type: "Convolution"
  bottom: "data"
  top: "conv1"
  param {
    lr_mult: 1
  }
  param {
    lr_mult: 2
  }
  convolution_param {
    num_output: 64
    pad: 2
    kernel_size: 5
    stride: 1
    weight_filler {
      type: "gaussian"
      std: 0.0001
    }
    bias_filler {
      type: "constant"
    }
  }
}
layer {
  name: "relu1"
  type: "ReLU"
  bottom: "conv1"
  top: "conv1"
}
layer {
  name: "pool1"
  type: "Pooling"
  bottom: "conv1"
  top: "pool1"
  pooling_param {
    pool: MAX
    kernel_size: 3
    stride: 2
  }
}
layer {
  name: "conv2"
  type: "Convolution"
  bottom: "pool1"
  top: "conv2"
  param {
    lr_mult: 1
  }
  param {
    lr_mult: 2
  }
  convolution_param {
    num_output: 128
    pad: 2
    kernel_size: 5
    stride: 1
    weight_filler {
      type: "gaussian"
      std: 0.01
    }
    bias_filler {
      type: "constant"
    }
  }
}
layer {
  name: "relu2"
  type: "ReLU"
  bottom: "conv2"
  top: "conv2"
}
layer {
  name: "conv3"
  type: "Convolution"
  bottom: "conv2"
  top: "conv3"
  param {
    lr_mult: 1
  }
  param {
    lr_mult: 2
  }
  convolution_param {
    num_output: 128
    pad: 2
    kernel_size: 5
    stride: 1
    weight_filler {
      type: "gaussian"
      std: 0.01
    }
    bias_filler {
      type: "constant"
    }
  }
}
layer {
  name: "relu3"
  type: "ReLU"
  bottom: "conv3"
  top: "conv3"
}
layer {
  name: "pool3"
  type: "Pooling"
  bottom: "conv3"
  top: "pool3"
  pooling_param {
    pool: AVE
    kernel_size: 3
    stride: 2
  }
}
layer {
  name: "ip1"
  type: "InnerProduct"
  bottom: "pool3"
  top: "ip1"
  param {
    lr_mult: 1
  }
  param {
    lr_mult: 2
  }
  inner_product_param {
    num_output: 512
    weight_filler {
      type: "gaussian"
      std: 0.1
    }
    bias_filler {
      type: "constant"
    }
  }
}
layer {
  name: "ip2"
  type: "InnerProduct"
  bottom: "ip1"
  top: "ip2"
  param {
    lr_mult: 1
  }
  param {
    lr_mult: 2
  }
  inner_product_param {
    num_output: 256
    weight_filler {
      type: "gaussian"
      std: 0.1
    }
    bias_filler {
      type: "constant"
    }
  }
}
layer {
  name: "ip3"
  type: "InnerProduct"
  bottom: "ip2"
  top: "ip3"
  param {
    lr_mult: 1
  }
  param {
    lr_mult: 2
  }
  inner_product_param {
    num_output: 1
    weight_filler {
      type: "gaussian"
      std: 0.1
    }
    bias_filler {
      type: "constant"
    }
  }
}
layer {
  name: "loss"
  type: "HuberLoss"
  bottom: "ip3"
  bottom: "label"
  top: "loss"
  include {
    phase: TRAIN
  }
}
I0504 23:09:02.815534 32651 layer_factory.hpp:77] Creating layer parameters
I0504 23:09:02.815551 32651 net.cpp:94] Creating Layer parameters
I0504 23:09:02.815564 32651 net.cpp:409] parameters -> data
I0504 23:09:02.815587 32651 net.cpp:409] parameters -> label
I0504 23:09:02.815596 32651 hdf5_data_layer.cpp:79] Loading list of HDF5 filenames from: /home/purduethu/scratch/radon/d/deng106/CNNStatisticalModel/distributions/input/50_distributions_900_sample_size_train-parameters-path.txt
I0504 23:09:02.815619 32651 hdf5_data_layer.cpp:93] Number of HDF5 files: 1
I0504 23:09:02.816205 32651 hdf5.cpp:32] Datatype class: H5T_FLOAT
I0504 23:09:04.313127 32651 net.cpp:144] Setting up parameters
I0504 23:09:04.313165 32651 net.cpp:151] Top shape: 20 1 30 30 (18000)
I0504 23:09:04.313171 32651 net.cpp:151] Top shape: 20 (20)
I0504 23:09:04.313175 32651 net.cpp:159] Memory required for data: 72080
I0504 23:09:04.313184 32651 layer_factory.hpp:77] Creating layer conv1
I0504 23:09:04.313202 32651 net.cpp:94] Creating Layer conv1
I0504 23:09:04.313208 32651 net.cpp:435] conv1 <- data
I0504 23:09:04.313220 32651 net.cpp:409] conv1 -> conv1
I0504 23:09:04.319149 32651 net.cpp:144] Setting up conv1
I0504 23:09:04.319177 32651 net.cpp:151] Top shape: 20 64 30 30 (1152000)
I0504 23:09:04.319181 32651 net.cpp:159] Memory required for data: 4680080
I0504 23:09:04.319195 32651 layer_factory.hpp:77] Creating layer relu1
I0504 23:09:04.319206 32651 net.cpp:94] Creating Layer relu1
I0504 23:09:04.319211 32651 net.cpp:435] relu1 <- conv1
I0504 23:09:04.319216 32651 net.cpp:396] relu1 -> conv1 (in-place)
I0504 23:09:04.319234 32651 net.cpp:144] Setting up relu1
I0504 23:09:04.319241 32651 net.cpp:151] Top shape: 20 64 30 30 (1152000)
I0504 23:09:04.319243 32651 net.cpp:159] Memory required for data: 9288080
I0504 23:09:04.319247 32651 layer_factory.hpp:77] Creating layer pool1
I0504 23:09:04.319254 32651 net.cpp:94] Creating Layer pool1
I0504 23:09:04.319258 32651 net.cpp:435] pool1 <- conv1
I0504 23:09:04.319262 32651 net.cpp:409] pool1 -> pool1
I0504 23:09:04.319306 32651 net.cpp:144] Setting up pool1
I0504 23:09:04.319314 32651 net.cpp:151] Top shape: 20 64 15 15 (288000)
I0504 23:09:04.319317 32651 net.cpp:159] Memory required for data: 10440080
I0504 23:09:04.319320 32651 layer_factory.hpp:77] Creating layer conv2
I0504 23:09:04.319330 32651 net.cpp:94] Creating Layer conv2
I0504 23:09:04.319334 32651 net.cpp:435] conv2 <- pool1
I0504 23:09:04.319339 32651 net.cpp:409] conv2 -> conv2
I0504 23:09:04.332466 32651 net.cpp:144] Setting up conv2
I0504 23:09:04.332495 32651 net.cpp:151] Top shape: 20 128 15 15 (576000)
I0504 23:09:04.332500 32651 net.cpp:159] Memory required for data: 12744080
I0504 23:09:04.332510 32651 layer_factory.hpp:77] Creating layer relu2
I0504 23:09:04.332520 32651 net.cpp:94] Creating Layer relu2
I0504 23:09:04.332525 32651 net.cpp:435] relu2 <- conv2
I0504 23:09:04.332530 32651 net.cpp:396] relu2 -> conv2 (in-place)
I0504 23:09:04.332540 32651 net.cpp:144] Setting up relu2
I0504 23:09:04.332545 32651 net.cpp:151] Top shape: 20 128 15 15 (576000)
I0504 23:09:04.332547 32651 net.cpp:159] Memory required for data: 15048080
I0504 23:09:04.332561 32651 layer_factory.hpp:77] Creating layer conv3
I0504 23:09:04.332572 32651 net.cpp:94] Creating Layer conv3
I0504 23:09:04.332576 32651 net.cpp:435] conv3 <- conv2
I0504 23:09:04.332581 32651 net.cpp:409] conv3 -> conv3
I0504 23:09:04.354326 32651 net.cpp:144] Setting up conv3
I0504 23:09:04.354357 32651 net.cpp:151] Top shape: 20 128 15 15 (576000)
I0504 23:09:04.354362 32651 net.cpp:159] Memory required for data: 17352080
I0504 23:09:04.354375 32651 layer_factory.hpp:77] Creating layer relu3
I0504 23:09:04.354393 32651 net.cpp:94] Creating Layer relu3
I0504 23:09:04.354398 32651 net.cpp:435] relu3 <- conv3
I0504 23:09:04.354403 32651 net.cpp:396] relu3 -> conv3 (in-place)
I0504 23:09:04.354413 32651 net.cpp:144] Setting up relu3
I0504 23:09:04.354418 32651 net.cpp:151] Top shape: 20 128 15 15 (576000)
I0504 23:09:04.354421 32651 net.cpp:159] Memory required for data: 19656080
I0504 23:09:04.354424 32651 layer_factory.hpp:77] Creating layer pool3
I0504 23:09:04.354432 32651 net.cpp:94] Creating Layer pool3
I0504 23:09:04.354435 32651 net.cpp:435] pool3 <- conv3
I0504 23:09:04.354449 32651 net.cpp:409] pool3 -> pool3
I0504 23:09:04.354498 32651 net.cpp:144] Setting up pool3
I0504 23:09:04.354506 32651 net.cpp:151] Top shape: 20 128 7 7 (125440)
I0504 23:09:04.354508 32651 net.cpp:159] Memory required for data: 20157840
I0504 23:09:04.354512 32651 layer_factory.hpp:77] Creating layer ip1
I0504 23:09:04.354523 32651 net.cpp:94] Creating Layer ip1
I0504 23:09:04.354526 32651 net.cpp:435] ip1 <- pool3
I0504 23:09:04.354532 32651 net.cpp:409] ip1 -> ip1
I0504 23:09:04.433629 32651 net.cpp:144] Setting up ip1
I0504 23:09:04.433665 32651 net.cpp:151] Top shape: 20 512 (10240)
I0504 23:09:04.433670 32651 net.cpp:159] Memory required for data: 20198800
I0504 23:09:04.433679 32651 layer_factory.hpp:77] Creating layer ip2
I0504 23:09:04.433689 32651 net.cpp:94] Creating Layer ip2
I0504 23:09:04.433694 32651 net.cpp:435] ip2 <- ip1
I0504 23:09:04.433701 32651 net.cpp:409] ip2 -> ip2
I0504 23:09:04.436898 32651 net.cpp:144] Setting up ip2
I0504 23:09:04.436908 32651 net.cpp:151] Top shape: 20 256 (5120)
I0504 23:09:04.436910 32651 net.cpp:159] Memory required for data: 20219280
I0504 23:09:04.436918 32651 layer_factory.hpp:77] Creating layer ip3
I0504 23:09:04.436924 32651 net.cpp:94] Creating Layer ip3
I0504 23:09:04.436928 32651 net.cpp:435] ip3 <- ip2
I0504 23:09:04.436933 32651 net.cpp:409] ip3 -> ip3
I0504 23:09:04.436996 32651 net.cpp:144] Setting up ip3
I0504 23:09:04.437002 32651 net.cpp:151] Top shape: 20 1 (20)
I0504 23:09:04.437006 32651 net.cpp:159] Memory required for data: 20219360
I0504 23:09:04.437011 32651 layer_factory.hpp:77] Creating layer loss
I0504 23:09:04.437026 32651 net.cpp:94] Creating Layer loss
I0504 23:09:04.437031 32651 net.cpp:435] loss <- ip3
I0504 23:09:04.437034 32651 net.cpp:435] loss <- label
I0504 23:09:04.437041 32651 net.cpp:409] loss -> loss
I0504 23:09:04.437075 32651 net.cpp:144] Setting up loss
…
