…
I0507 02:14:55.297042 30924 net.cpp:323] The NetState phase (0) differed from the phase (1) specified by a rule in layer intercept
I0507 02:14:55.297058 30924 net.cpp:323] The NetState phase (0) differed from the phase (1) specified by a rule in layer loss
I0507 02:14:55.297142 30924 net.cpp:52] Initializing net from parameters: 
state {
  phase: TRAIN
}
layer {
  name: "parameters"
  type: "HDF5Data"
  top: "data"
  top: "label"
  include {
    phase: TRAIN
  }
  hdf5_data_param {
    source: "/home/purduethu/scratch/radon/d/deng106/CNNStatisticalModel/distributions/input/50_distributions_100_sample_size_train-parameters-path.txt"
    batch_size: 20
  }
}
layer {
  name: "conv1"
  type: "Convolution"
  bottom: "data"
  top: "conv1"
  param {
    lr_mult: 1
  }
  param {
    lr_mult: 2
  }
  convolution_param {
    num_output: 64
    pad: 2
    kernel_size: 5
    stride: 1
    weight_filler {
      type: "gaussian"
      std: 0.0001
    }
    bias_filler {
      type: "constant"
    }
  }
}
layer {
  name: "relu1"
  type: "ReLU"
  bottom: "conv1"
  top: "conv1"
}
layer {
  name: "conv2"
  type: "Convolution"
  bottom: "conv1"
  top: "conv2"
  param {
    lr_mult: 1
  }
  param {
    lr_mult: 2
  }
  convolution_param {
    num_output: 64
    pad: 2
    kernel_size: 5
    stride: 1
    weight_filler {
      type: "gaussian"
      std: 0.01
    }
    bias_filler {
      type: "constant"
    }
  }
}
layer {
  name: "relu2"
  type: "ReLU"
  bottom: "conv2"
  top: "conv2"
}
layer {
  name: "pool2"
  type: "Pooling"
  bottom: "conv2"
  top: "pool2"
  pooling_param {
    pool: MAX
    kernel_size: 3
    stride: 2
  }
}
layer {
  name: "conv3"
  type: "Convolution"
  bottom: "pool2"
  top: "conv3"
  param {
    lr_mult: 1
  }
  param {
    lr_mult: 2
  }
  convolution_param {
    num_output: 64
    pad: 2
    kernel_size: 5
    stride: 1
    weight_filler {
      type: "gaussian"
      std: 0.01
    }
    bias_filler {
      type: "constant"
    }
  }
}
layer {
  name: "relu3"
  type: "ReLU"
  bottom: "conv3"
  top: "conv3"
}
layer {
  name: "conv4"
  type: "Convolution"
  bottom: "conv3"
  top: "conv4"
  param {
    lr_mult: 1
  }
  param {
    lr_mult: 2
  }
  convolution_param {
    num_output: 64
    pad: 2
    kernel_size: 5
    stride: 1
    weight_filler {
      type: "gaussian"
      std: 0.01
    }
    bias_filler {
      type: "constant"
    }
  }
}
layer {
  name: "relu4"
  type: "ReLU"
  bottom: "conv4"
  top: "conv4"
}
layer {
  name: "conv5"
  type: "Convolution"
  bottom: "conv4"
  top: "conv5"
  param {
    lr_mult: 1
  }
  param {
    lr_mult: 2
  }
  convolution_param {
    num_output: 64
    pad: 2
    kernel_size: 5
    stride: 1
    weight_filler {
      type: "gaussian"
      std: 0.01
    }
    bias_filler {
      type: "constant"
    }
  }
}
layer {
  name: "relu5"
  type: "ReLU"
  bottom: "conv5"
  top: "conv5"
}
layer {
  name: "pool5"
  type: "Pooling"
  bottom: "conv5"
  top: "pool5"
  pooling_param {
    pool: AVE
    kernel_size: 3
    stride: 2
  }
}
layer {
  name: "ip1"
  type: "InnerProduct"
  bottom: "pool5"
  top: "ip1"
  param {
    lr_mult: 1
  }
  param {
    lr_mult: 2
  }
  inner_product_param {
    num_output: 64
    weight_filler {
      type: "gaussian"
      std: 0.1
    }
    bias_filler {
      type: "constant"
    }
  }
}
layer {
  name: "ip2"
  type: "InnerProduct"
  bottom: "ip1"
  top: "ip2"
  param {
    lr_mult: 1
  }
  param {
    lr_mult: 2
  }
  inner_product_param {
    num_output: 64
    weight_filler {
      type: "gaussian"
      std: 0.1
    }
    bias_filler {
      type: "constant"
    }
  }
}
layer {
  name: "ip3"
  type: "InnerProduct"
  bottom: "ip2"
  top: "ip3"
  param {
    lr_mult: 1
  }
  param {
    lr_mult: 2
  }
  inner_product_param {
    num_output: 1
    weight_filler {
      type: "gaussian"
      std: 0.1
    }
    bias_filler {
      type: "constant"
    }
  }
}
layer {
  name: "loss"
  type: "HuberLoss"
  bottom: "ip3"
  bottom: "label"
  top: "loss"
  include {
    phase: TRAIN
  }
}
I0507 02:14:55.297194 30924 layer_factory.hpp:77] Creating layer parameters
I0507 02:14:55.297211 30924 net.cpp:94] Creating Layer parameters
I0507 02:14:55.297216 30924 net.cpp:409] parameters -> data
I0507 02:14:55.297225 30924 net.cpp:409] parameters -> label
I0507 02:14:55.297232 30924 hdf5_data_layer.cpp:79] Loading list of HDF5 filenames from: /home/purduethu/scratch/radon/d/deng106/CNNStatisticalModel/distributions/input/50_distributions_100_sample_size_train-parameters-path.txt
I0507 02:14:55.297247 30924 hdf5_data_layer.cpp:93] Number of HDF5 files: 1
I0507 02:14:55.297793 30924 hdf5.cpp:32] Datatype class: H5T_FLOAT
I0507 02:14:55.458504 30924 net.cpp:144] Setting up parameters
I0507 02:14:55.458534 30924 net.cpp:151] Top shape: 20 1 10 10 (2000)
I0507 02:14:55.458539 30924 net.cpp:151] Top shape: 20 (20)
I0507 02:14:55.458542 30924 net.cpp:159] Memory required for data: 8080
I0507 02:14:55.458549 30924 layer_factory.hpp:77] Creating layer conv1
I0507 02:14:55.458564 30924 net.cpp:94] Creating Layer conv1
I0507 02:14:55.458570 30924 net.cpp:435] conv1 <- data
I0507 02:14:55.458575 30924 net.cpp:409] conv1 -> conv1
I0507 02:14:55.462728 30924 net.cpp:144] Setting up conv1
I0507 02:14:55.462743 30924 net.cpp:151] Top shape: 20 64 10 10 (128000)
I0507 02:14:55.462746 30924 net.cpp:159] Memory required for data: 520080
I0507 02:14:55.462755 30924 layer_factory.hpp:77] Creating layer relu1
I0507 02:14:55.462764 30924 net.cpp:94] Creating Layer relu1
I0507 02:14:55.462766 30924 net.cpp:435] relu1 <- conv1
I0507 02:14:55.462770 30924 net.cpp:396] relu1 -> conv1 (in-place)
I0507 02:14:55.462779 30924 net.cpp:144] Setting up relu1
I0507 02:14:55.462782 30924 net.cpp:151] Top shape: 20 64 10 10 (128000)
I0507 02:14:55.462785 30924 net.cpp:159] Memory required for data: 1032080
I0507 02:14:55.462788 30924 layer_factory.hpp:77] Creating layer conv2
I0507 02:14:55.462796 30924 net.cpp:94] Creating Layer conv2
I0507 02:14:55.462800 30924 net.cpp:435] conv2 <- conv1
I0507 02:14:55.462805 30924 net.cpp:409] conv2 -> conv2
I0507 02:14:55.468868 30924 net.cpp:144] Setting up conv2
I0507 02:14:55.468881 30924 net.cpp:151] Top shape: 20 64 10 10 (128000)
I0507 02:14:55.468884 30924 net.cpp:159] Memory required for data: 1544080
I0507 02:14:55.468893 30924 layer_factory.hpp:77] Creating layer relu2
I0507 02:14:55.468899 30924 net.cpp:94] Creating Layer relu2
I0507 02:14:55.468902 30924 net.cpp:435] relu2 <- conv2
I0507 02:14:55.468907 30924 net.cpp:396] relu2 -> conv2 (in-place)
I0507 02:14:55.468914 30924 net.cpp:144] Setting up relu2
I0507 02:14:55.468919 30924 net.cpp:151] Top shape: 20 64 10 10 (128000)
I0507 02:14:55.468921 30924 net.cpp:159] Memory required for data: 2056080
I0507 02:14:55.468924 30924 layer_factory.hpp:77] Creating layer pool2
I0507 02:14:55.468930 30924 net.cpp:94] Creating Layer pool2
I0507 02:14:55.468932 30924 net.cpp:435] pool2 <- conv2
I0507 02:14:55.468937 30924 net.cpp:409] pool2 -> pool2
I0507 02:14:55.468994 30924 net.cpp:144] Setting up pool2
I0507 02:14:55.469002 30924 net.cpp:151] Top shape: 20 64 5 5 (32000)
I0507 02:14:55.469005 30924 net.cpp:159] Memory required for data: 2184080
I0507 02:14:55.469008 30924 layer_factory.hpp:77] Creating layer conv3
I0507 02:14:55.469017 30924 net.cpp:94] Creating Layer conv3
I0507 02:14:55.469019 30924 net.cpp:435] conv3 <- pool2
I0507 02:14:55.469030 30924 net.cpp:409] conv3 -> conv3
I0507 02:14:55.473920 30924 net.cpp:144] Setting up conv3
I0507 02:14:55.473934 30924 net.cpp:151] Top shape: 20 64 5 5 (32000)
I0507 02:14:55.473937 30924 net.cpp:159] Memory required for data: 2312080
I0507 02:14:55.473945 30924 layer_factory.hpp:77] Creating layer relu3
I0507 02:14:55.473951 30924 net.cpp:94] Creating Layer relu3
I0507 02:14:55.473954 30924 net.cpp:435] relu3 <- conv3
I0507 02:14:55.473959 30924 net.cpp:396] relu3 -> conv3 (in-place)
I0507 02:14:55.473965 30924 net.cpp:144] Setting up relu3
I0507 02:14:55.473969 30924 net.cpp:151] Top shape: 20 64 5 5 (32000)
I0507 02:14:55.473973 30924 net.cpp:159] Memory required for data: 2440080
I0507 02:14:55.473975 30924 layer_factory.hpp:77] Creating layer conv4
I0507 02:14:55.473984 30924 net.cpp:94] Creating Layer conv4
I0507 02:14:55.473987 30924 net.cpp:435] conv4 <- conv3
I0507 02:14:55.473991 30924 net.cpp:409] conv4 -> conv4
I0507 02:14:55.478400 30924 net.cpp:144] Setting up conv4
I0507 02:14:55.478413 30924 net.cpp:151] Top shape: 20 64 5 5 (32000)
I0507 02:14:55.478417 30924 net.cpp:159] Memory required for data: 2568080
I0507 02:14:55.478423 30924 layer_factory.hpp:77] Creating layer relu4
I0507 02:14:55.478428 30924 net.cpp:94] Creating Layer relu4
I0507 02:14:55.478432 30924 net.cpp:435] relu4 <- conv4
I0507 02:14:55.478436 30924 net.cpp:396] relu4 -> conv4 (in-place)
I0507 02:14:55.478443 30924 net.cpp:144] Setting up relu4
I0507 02:14:55.478447 30924 net.cpp:151] Top shape: 20 64 5 5 (32000)
I0507 02:14:55.478451 30924 net.cpp:159] Memory required for data: 2696080
I0507 02:14:55.478453 30924 layer_factory.hpp:77] Creating layer conv5
I0507 02:14:55.478461 30924 net.cpp:94] Creating Layer conv5
I0507 02:14:55.478464 30924 net.cpp:435] conv5 <- conv4
I0507 02:14:55.478468 30924 net.cpp:409] conv5 -> conv5
I0507 02:14:55.483315 30924 net.cpp:144] Setting up conv5
I0507 02:14:55.483328 30924 net.cpp:151] Top shape: 20 64 5 5 (32000)
I0507 02:14:55.483332 30924 net.cpp:159] Memory required for data: 2824080
I0507 02:14:55.483340 30924 layer_factory.hpp:77] Creating layer relu5
I0507 02:14:55.483345 30924 net.cpp:94] Creating Layer relu5
I0507 02:14:55.483350 30924 net.cpp:435] relu5 <- conv5
I0507 02:14:55.483353 30924 net.cpp:396] relu5 -> conv5 (in-place)
I0507 02:14:55.483361 30924 net.cpp:144] Setting up relu5
I0507 02:14:55.483364 30924 net.cpp:151] Top shape: 20 64 5 5 (32000)
I0507 02:14:55.483367 30924 net.cpp:159] Memory required for data: 2952080
I0507 02:14:55.483371 30924 layer_factory.hpp:77] Creating layer pool5
I0507 02:14:55.483376 30924 net.cpp:94] Creating Layer pool5
I0507 02:14:55.483378 30924 net.cpp:435] pool5 <- conv5
I0507 02:14:55.483382 30924 net.cpp:409] pool5 -> pool5
I0507 02:14:55.483420 30924 net.cpp:144] Setting up pool5
I0507 02:14:55.483428 30924 net.cpp:151] Top shape: 20 64 2 2 (5120)
I0507 02:14:55.483431 30924 net.cpp:159] Memory required for data: 2972560
I0507 02:14:55.483434 30924 layer_factory.hpp:77] Creating layer ip1
I0507 02:14:55.483443 30924 net.cpp:94] Creating Layer ip1
I0507 02:14:55.483446 30924 net.cpp:435] ip1 <- pool5
I0507 02:14:55.483451 30924 net.cpp:409] ip1 -> ip1
I0507 02:14:55.484843 30924 net.cpp:144] Setting up ip1
I0507 02:14:55.484858 30924 net.cpp:151] Top shape: 20 64 (1280)
I0507 02:14:55.484860 30924 net.cpp:159] Memory required for data: 2977680
I0507 02:14:55.484866 30924 layer_factory.hpp:77] Creating layer ip2
I0507 02:14:55.484874 30924 net.cpp:94] Creating Layer ip2
I0507 02:14:55.484876 30924 net.cpp:435] ip2 <- ip1
I0507 02:14:55.484881 30924 net.cpp:409] ip2 -> ip2
I0507 02:14:55.485095 30924 net.cpp:144] Setting up ip2
I0507 02:14:55.485103 30924 net.cpp:151] Top shape: 20 64 (1280)
I0507 02:14:55.485106 30924 net.cpp:159] Memory required for data: 2982800
I0507 02:14:55.485111 30924 layer_factory.hpp:77] Creating layer ip3
I0507 02:14:55.485117 30924 net.cpp:94] Creating Layer ip3
I0507 02:14:55.485121 30924 net.cpp:435] ip3 <- ip2
I0507 02:14:55.485124 30924 net.cpp:409] ip3 -> ip3
I0507 02:14:55.485236 30924 net.cpp:144] Setting up ip3
I0507 02:14:55.485244 30924 net.cpp:151] Top shape: 20 1 (20)
I0507 02:14:55.485246 30924 net.cpp:159] Memory required for data: 2982880
I0507 02:14:55.485251 30924 layer_factory.hpp:77] Creating layer loss
I0507 02:14:55.485262 30924 net.cpp:94] Creating Layer loss
I0507 02:14:55.485266 30924 net.cpp:435] loss <- ip3
I0507 02:14:55.485270 30924 net.cpp:435] loss <- label
I0507 02:14:55.485275 30924 net.cpp:409] loss -> loss
I0507 02:14:55.485327 30924 net.cpp:144] Setting up loss
…
I0507 02:14:55.546023 30924 net.cpp:323] The NetState phase (0) differed from the phase (1) specified by a rule in layer intercept
I0507 02:14:55.546041 30924 net.cpp:323] The NetState phase (0) differed from the phase (1) specified by a rule in layer accuracy
I0507 02:14:55.546129 30924 net.cpp:52] Initializing net from parameters: 
state {
  phase: TRAIN
}
layer {
  name: "parameters"
  type: "HDF5Data"
  top: "data"
  top: "label"
  include {
    phase: TRAIN
  }
  hdf5_data_param {
    source: "/home/purduethu/scratch/radon/d/deng106/CNNStatisticalModel/distributions/input/50_distributions_100_sample_size_train-distributions-path.txt"
    batch_size: 20
  }
}
layer {
  name: "conv1"
  type: "Convolution"
  bottom: "data"
  top: "conv1"
  param {
    lr_mult: 1
  }
  param {
    lr_mult: 2
  }
  convolution_param {
    num_output: 64
    pad: 2
    kernel_size: 5
    stride: 1
    weight_filler {
      type: "gaussian"
      std: 0.0001
    }
    bias_filler {
      type: "constant"
    }
  }
}
layer {
  name: "relu1"
  type: "ReLU"
  bottom: "conv1"
  top: "conv1"
}
layer {
  name: "conv2"
  type: "Convolution"
  bottom: "conv1"
  top: "conv2"
  param {
    lr_mult: 1
  }
  param {
    lr_mult: 2
  }
  convolution_param {
    num_output: 64
    pad: 2
    kernel_size: 5
    stride: 1
    weight_filler {
      type: "gaussian"
      std: 0.01
    }
    bias_filler {
      type: "constant"
    }
  }
}
layer {
  name: "relu2"
  type: "ReLU"
  bottom: "conv2"
  top: "conv2"
}
layer {
  name: "pool2"
  type: "Pooling"
  bottom: "conv2"
  top: "pool2"
  pooling_param {
    pool: MAX
    kernel_size: 3
    stride: 2
  }
}
layer {
  name: "conv3"
  type: "Convolution"
  bottom: "pool2"
  top: "conv3"
  param {
    lr_mult: 1
  }
  param {
    lr_mult: 2
  }
  convolution_param {
    num_output: 64
    pad: 2
    kernel_size: 5
    stride: 1
    weight_filler {
      type: "gaussian"
      std: 0.01
    }
    bias_filler {
      type: "constant"
    }
  }
}
layer {
  name: "relu3"
  type: "ReLU"
  bottom: "conv3"
  top: "conv3"
}
layer {
  name: "conv4"
  type: "Convolution"
  bottom: "conv3"
  top: "conv4"
  param {
    lr_mult: 1
  }
  param {
    lr_mult: 2
  }
  convolution_param {
    num_output: 64
    pad: 2
    kernel_size: 5
    stride: 1
    weight_filler {
      type: "gaussian"
      std: 0.01
    }
    bias_filler {
      type: "constant"
    }
  }
}
layer {
  name: "relu4"
  type: "ReLU"
  bottom: "conv4"
  top: "conv4"
}
layer {
  name: "conv5"
  type: "Convolution"
  bottom: "conv4"
  top: "conv5"
  param {
    lr_mult: 1
  }
  param {
    lr_mult: 2
  }
  convolution_param {
    num_output: 64
    pad: 2
    kernel_size: 5
    stride: 1
    weight_filler {
      type: "gaussian"
      std: 0.01
    }
    bias_filler {
      type: "constant"
    }
  }
}
layer {
  name: "relu5"
  type: "ReLU"
  bottom: "conv5"
  top: "conv5"
}
layer {
  name: "pool5"
  type: "Pooling"
  bottom: "conv5"
  top: "pool5"
  pooling_param {
    pool: AVE
    kernel_size: 3
    stride: 2
  }
}
layer {
  name: "ip1"
  type: "InnerProduct"
  bottom: "pool5"
  top: "ip1"
  param {
    lr_mult: 1
  }
  param {
    lr_mult: 2
  }
  inner_product_param {
    num_output: 64
    weight_filler {
      type: "gaussian"
      std: 0.1
    }
    bias_filler {
      type: "constant"
    }
  }
}
layer {
  name: "ip2"
  type: "InnerProduct"
  bottom: "ip1"
  top: "ip2"
  param {
    lr_mult: 1
  }
  param {
    lr_mult: 2
  }
  inner_product_param {
    num_output: 64
    weight_filler {
      type: "gaussian"
      std: 0.1
    }
    bias_filler {
      type: "constant"
    }
  }
}
layer {
  name: "ip3"
  type: "InnerProduct"
  bottom: "ip2"
  top: "ip3"
  param {
    lr_mult: 1
  }
  param {
    lr_mult: 2
  }
  inner_product_param {
    num_output: 50
    weight_filler {
      type: "gaussian"
      std: 0.1
    }
    bias_filler {
      type: "constant"
    }
  }
}
layer {
  name: "loss"
  type: "SoftmaxWithLoss"
  bottom: "ip3"
  bottom: "label"
  top: "loss"
}
I0507 02:14:55.546181 30924 layer_factory.hpp:77] Creating layer parameters
I0507 02:14:55.546190 30924 net.cpp:94] Creating Layer parameters
I0507 02:14:55.546193 30924 net.cpp:409] parameters -> data
I0507 02:14:55.546200 30924 net.cpp:409] parameters -> label
I0507 02:14:55.546206 30924 hdf5_data_layer.cpp:79] Loading list of HDF5 filenames from: /home/purduethu/scratch/radon/d/deng106/CNNStatisticalModel/distributions/input/50_distributions_100_sample_size_train-distributions-path.txt
I0507 02:14:55.546222 30924 hdf5_data_layer.cpp:93] Number of HDF5 files: 1
I0507 02:14:55.700951 30924 hdf5.cpp:35] Datatype class: H5T_INTEGER
I0507 02:14:55.703925 30924 net.cpp:144] Setting up parameters
I0507 02:14:55.703941 30924 net.cpp:151] Top shape: 20 1 10 10 (2000)
I0507 02:14:55.703946 30924 net.cpp:151] Top shape: 20 (20)
I0507 02:14:55.703950 30924 net.cpp:159] Memory required for data: 8080
I0507 02:14:55.703956 30924 layer_factory.hpp:77] Creating layer conv1
I0507 02:14:55.703972 30924 net.cpp:94] Creating Layer conv1
I0507 02:14:55.703976 30924 net.cpp:435] conv1 <- data
I0507 02:14:55.703984 30924 net.cpp:409] conv1 -> conv1
I0507 02:14:55.705822 30924 net.cpp:144] Setting up conv1
I0507 02:14:55.705835 30924 net.cpp:151] Top shape: 20 64 10 10 (128000)
I0507 02:14:55.705839 30924 net.cpp:159] Memory required for data: 520080
I0507 02:14:55.705848 30924 layer_factory.hpp:77] Creating layer relu1
I0507 02:14:55.705857 30924 net.cpp:94] Creating Layer relu1
I0507 02:14:55.705859 30924 net.cpp:435] relu1 <- conv1
I0507 02:14:55.705863 30924 net.cpp:396] relu1 -> conv1 (in-place)
I0507 02:14:55.705871 30924 net.cpp:144] Setting up relu1
I0507 02:14:55.705875 30924 net.cpp:151] Top shape: 20 64 10 10 (128000)
I0507 02:14:55.705878 30924 net.cpp:159] Memory required for data: 1032080
I0507 02:14:55.705881 30924 layer_factory.hpp:77] Creating layer conv2
I0507 02:14:55.705889 30924 net.cpp:94] Creating Layer conv2
I0507 02:14:55.705893 30924 net.cpp:435] conv2 <- conv1
I0507 02:14:55.705896 30924 net.cpp:409] conv2 -> conv2
I0507 02:14:55.711189 30924 net.cpp:144] Setting up conv2
I0507 02:14:55.711201 30924 net.cpp:151] Top shape: 20 64 10 10 (128000)
I0507 02:14:55.711205 30924 net.cpp:159] Memory required for data: 1544080
I0507 02:14:55.711212 30924 layer_factory.hpp:77] Creating layer relu2
I0507 02:14:55.711220 30924 net.cpp:94] Creating Layer relu2
I0507 02:14:55.711222 30924 net.cpp:435] relu2 <- conv2
I0507 02:14:55.711227 30924 net.cpp:396] relu2 -> conv2 (in-place)
I0507 02:14:55.711233 30924 net.cpp:144] Setting up relu2
I0507 02:14:55.711237 30924 net.cpp:151] Top shape: 20 64 10 10 (128000)
I0507 02:14:55.711241 30924 net.cpp:159] Memory required for data: 2056080
I0507 02:14:55.711243 30924 layer_factory.hpp:77] Creating layer pool2
I0507 02:14:55.711249 30924 net.cpp:94] Creating Layer pool2
I0507 02:14:55.711252 30924 net.cpp:435] pool2 <- conv2
I0507 02:14:55.711256 30924 net.cpp:409] pool2 -> pool2
I0507 02:14:55.711310 30924 net.cpp:144] Setting up pool2
I0507 02:14:55.711318 30924 net.cpp:151] Top shape: 20 64 5 5 (32000)
I0507 02:14:55.711320 30924 net.cpp:159] Memory required for data: 2184080
I0507 02:14:55.711324 30924 layer_factory.hpp:77] Creating layer conv3
I0507 02:14:55.711331 30924 net.cpp:94] Creating Layer conv3
I0507 02:14:55.711335 30924 net.cpp:435] conv3 <- pool2
I0507 02:14:55.711339 30924 net.cpp:409] conv3 -> conv3
I0507 02:14:55.717041 30924 net.cpp:144] Setting up conv3
I0507 02:14:55.717053 30924 net.cpp:151] Top shape: 20 64 5 5 (32000)
I0507 02:14:55.717057 30924 net.cpp:159] Memory required for data: 2312080
I0507 02:14:55.717066 30924 layer_factory.hpp:77] Creating layer relu3
I0507 02:14:55.717070 30924 net.cpp:94] Creating Layer relu3
I0507 02:14:55.717074 30924 net.cpp:435] relu3 <- conv3
I0507 02:14:55.717078 30924 net.cpp:396] relu3 -> conv3 (in-place)
I0507 02:14:55.717085 30924 net.cpp:144] Setting up relu3
I0507 02:14:55.717089 30924 net.cpp:151] Top shape: 20 64 5 5 (32000)
I0507 02:14:55.717099 30924 net.cpp:159] Memory required for data: 2440080
I0507 02:14:55.717103 30924 layer_factory.hpp:77] Creating layer conv4
I0507 02:14:55.717110 30924 net.cpp:94] Creating Layer conv4
I0507 02:14:55.717113 30924 net.cpp:435] conv4 <- conv3
I0507 02:14:55.717118 30924 net.cpp:409] conv4 -> conv4
I0507 02:14:55.722008 30924 net.cpp:144] Setting up conv4
I0507 02:14:55.722021 30924 net.cpp:151] Top shape: 20 64 5 5 (32000)
I0507 02:14:55.722025 30924 net.cpp:159] Memory required for data: 2568080
I0507 02:14:55.722031 30924 layer_factory.hpp:77] Creating layer relu4
I0507 02:14:55.722036 30924 net.cpp:94] Creating Layer relu4
I0507 02:14:55.722040 30924 net.cpp:435] relu4 <- conv4
I0507 02:14:55.722044 30924 net.cpp:396] relu4 -> conv4 (in-place)
I0507 02:14:55.722051 30924 net.cpp:144] Setting up relu4
I0507 02:14:55.722055 30924 net.cpp:151] Top shape: 20 64 5 5 (32000)
I0507 02:14:55.722059 30924 net.cpp:159] Memory required for data: 2696080
I0507 02:14:55.722061 30924 layer_factory.hpp:77] Creating layer conv5
I0507 02:14:55.722069 30924 net.cpp:94] Creating Layer conv5
I0507 02:14:55.722072 30924 net.cpp:435] conv5 <- conv4
I0507 02:14:55.722076 30924 net.cpp:409] conv5 -> conv5
I0507 02:14:55.726495 30924 net.cpp:144] Setting up conv5
I0507 02:14:55.726508 30924 net.cpp:151] Top shape: 20 64 5 5 (32000)
I0507 02:14:55.726512 30924 net.cpp:159] Memory required for data: 2824080
I0507 02:14:55.726521 30924 layer_factory.hpp:77] Creating layer relu5
I0507 02:14:55.726526 30924 net.cpp:94] Creating Layer relu5
I0507 02:14:55.726529 30924 net.cpp:435] relu5 <- conv5
I0507 02:14:55.726533 30924 net.cpp:396] relu5 -> conv5 (in-place)
I0507 02:14:55.726541 30924 net.cpp:144] Setting up relu5
I0507 02:14:55.726544 30924 net.cpp:151] Top shape: 20 64 5 5 (32000)
I0507 02:14:55.726547 30924 net.cpp:159] Memory required for data: 2952080
I0507 02:14:55.726550 30924 layer_factory.hpp:77] Creating layer pool5
I0507 02:14:55.726555 30924 net.cpp:94] Creating Layer pool5
I0507 02:14:55.726558 30924 net.cpp:435] pool5 <- conv5
I0507 02:14:55.726562 30924 net.cpp:409] pool5 -> pool5
I0507 02:14:55.726598 30924 net.cpp:144] Setting up pool5
I0507 02:14:55.726604 30924 net.cpp:151] Top shape: 20 64 2 2 (5120)
I0507 02:14:55.726608 30924 net.cpp:159] Memory required for data: 2972560
I0507 02:14:55.726610 30924 layer_factory.hpp:77] Creating layer ip1
I0507 02:14:55.726618 30924 net.cpp:94] Creating Layer ip1
I0507 02:14:55.726621 30924 net.cpp:435] ip1 <- pool5
I0507 02:14:55.726625 30924 net.cpp:409] ip1 -> ip1
I0507 02:14:55.727145 30924 net.cpp:144] Setting up ip1
I0507 02:14:55.727154 30924 net.cpp:151] Top shape: 20 64 (1280)
I0507 02:14:55.727156 30924 net.cpp:159] Memory required for data: 2977680
I0507 02:14:55.727161 30924 layer_factory.hpp:77] Creating layer ip2
I0507 02:14:55.727167 30924 net.cpp:94] Creating Layer ip2
I0507 02:14:55.727171 30924 net.cpp:435] ip2 <- ip1
I0507 02:14:55.727175 30924 net.cpp:409] ip2 -> ip2
I0507 02:14:55.727401 30924 net.cpp:144] Setting up ip2
I0507 02:14:55.727408 30924 net.cpp:151] Top shape: 20 64 (1280)
I0507 02:14:55.727411 30924 net.cpp:159] Memory required for data: 2982800
I0507 02:14:55.727416 30924 layer_factory.hpp:77] Creating layer ip3
I0507 02:14:55.727422 30924 net.cpp:94] Creating Layer ip3
I0507 02:14:55.727425 30924 net.cpp:435] ip3 <- ip2
I0507 02:14:55.727430 30924 net.cpp:409] ip3 -> ip3
I0507 02:14:55.727628 30924 net.cpp:144] Setting up ip3
I0507 02:14:55.727635 30924 net.cpp:151] Top shape: 20 50 (1000)
I0507 02:14:55.727638 30924 net.cpp:159] Memory required for data: 2986800
I0507 02:14:55.727643 30924 layer_factory.hpp:77] Creating layer loss
I0507 02:14:55.727649 30924 net.cpp:94] Creating Layer loss
I0507 02:14:55.727653 30924 net.cpp:435] loss <- ip3
I0507 02:14:55.727656 30924 net.cpp:435] loss <- label
I0507 02:14:55.727660 30924 net.cpp:409] loss -> loss
I0507 02:14:55.727668 30924 layer_factory.hpp:77] Creating layer loss
…
I0507 02:14:55.729009 30924 solver.cpp:181] Creating test net (#0) specified by net file: ./protocol/dis_50_100_dimension.protocol_distribution
I0507 02:14:55.729037 30924 net.cpp:323] The NetState phase (1) differed from the phase (0) specified by a rule in layer parameters
I0507 02:14:55.729132 30924 net.cpp:52] Initializing net from parameters: 
state {
  phase: TEST
}
layer {
  name: "intercept"
  type: "HDF5Data"
  top: "data"
  top: "label"
  include {
    phase: TEST
  }
  hdf5_data_param {
    source: "/home/purduethu/scratch/radon/d/deng106/CNNStatisticalModel/distributions/input/50_distributions_100_sample_size_test-distributions-path.txt"
    batch_size: 20
  }
}
layer {
  name: "conv1"
  type: "Convolution"
  bottom: "data"
  top: "conv1"
  param {
    lr_mult: 1
  }
  param {
    lr_mult: 2
  }
  convolution_param {
    num_output: 64
    pad: 2
    kernel_size: 5
    stride: 1
    weight_filler {
      type: "gaussian"
      std: 0.0001
    }
    bias_filler {
      type: "constant"
    }
  }
}
layer {
  name: "relu1"
  type: "ReLU"
  bottom: "conv1"
  top: "conv1"
}
layer {
  name: "conv2"
  type: "Convolution"
  bottom: "conv1"
  top: "conv2"
  param {
    lr_mult: 1
  }
  param {
    lr_mult: 2
  }
  convolution_param {
    num_output: 64
    pad: 2
    kernel_size: 5
    stride: 1
    weight_filler {
      type: "gaussian"
      std: 0.01
    }
    bias_filler {
      type: "constant"
    }
  }
}
layer {
  name: "relu2"
  type: "ReLU"
  bottom: "conv2"
  top: "conv2"
}
layer {
  name: "pool2"
  type: "Pooling"
  bottom: "conv2"
  top: "pool2"
  pooling_param {
    pool: MAX
    kernel_size: 3
    stride: 2
  }
}
layer {
  name: "conv3"
  type: "Convolution"
  bottom: "pool2"
  top: "conv3"
  param {
    lr_mult: 1
  }
  param {
    lr_mult: 2
  }
  convolution_param {
    num_output: 64
    pad: 2
    kernel_size: 5
    stride: 1
    weight_filler {
      type: "gaussian"
      std: 0.01
    }
    bias_filler {
      type: "constant"
    }
  }
}
layer {
  name: "relu3"
  type: "ReLU"
  bottom: "conv3"
  top: "conv3"
}
layer {
  name: "conv4"
  type: "Convolution"
  bottom: "conv3"
  top: "conv4"
  param {
    lr_mult: 1
  }
  param {
    lr_mult: 2
  }
  convolution_param {
    num_output: 64
    pad: 2
    kernel_size: 5
    stride: 1
    weight_filler {
      type: "gaussian"
      std: 0.01
    }
    bias_filler {
      type: "constant"
    }
  }
}
layer {
  name: "relu4"
  type: "ReLU"
  bottom: "conv4"
  top: "conv4"
}
layer {
  name: "conv5"
  type: "Convolution"
  bottom: "conv4"
  top: "conv5"
  param {
    lr_mult: 1
  }
  param {
    lr_mult: 2
  }
  convolution_param {
    num_output: 64
    pad: 2
    kernel_size: 5
    stride: 1
    weight_filler {
      type: "gaussian"
      std: 0.01
    }
    bias_filler {
      type: "constant"
    }
  }
}
layer {
  name: "relu5"
  type: "ReLU"
  bottom: "conv5"
  top: "conv5"
}
layer {
  name: "pool5"
  type: "Pooling"
  bottom: "conv5"
  top: "pool5"
  pooling_param {
    pool: AVE
    kernel_size: 3
    stride: 2
  }
}
layer {
  name: "ip1"
  type: "InnerProduct"
  bottom: "pool5"
  top: "ip1"
  param {
    lr_mult: 1
  }
  param {
    lr_mult: 2
  }
  inner_product_param {
    num_output: 64
    weight_filler {
      type: "gaussian"
      std: 0.1
    }
    bias_filler {
      type: "constant"
    }
  }
}
layer {
  name: "ip2"
  type: "InnerProduct"
  bottom: "ip1"
  top: "ip2"
  param {
    lr_mult: 1
  }
  param {
    lr_mult: 2
  }
  inner_product_param {
    num_output: 64
    weight_filler {
      type: "gaussian"
      std: 0.1
    }
    bias_filler {
      type: "constant"
    }
  }
}
layer {
  name: "ip3"
  type: "InnerProduct"
  bottom: "ip2"
  top: "ip3"
  param {
    lr_mult: 1
  }
  param {
    lr_mult: 2
  }
  inner_product_param {
    num_output: 50
    weight_filler {
      type: "gaussian"
      std: 0.1
    }
    bias_filler {
      type: "constant"
    }
  }
}
layer {
  name: "accuracy"
  type: "Accuracy"
  bottom: "ip3"
  bottom: "label"
  top: "accuracy"
  include {
    phase: TEST
  }
}
layer {
  name: "loss"
  type: "SoftmaxWithLoss"
  bottom: "ip3"
  bottom: "label"
  top: "loss"
}
I0507 02:14:55.729197 30924 layer_factory.hpp:77] Creating layer intercept
I0507 02:14:55.729204 30924 net.cpp:94] Creating Layer intercept
I0507 02:14:55.729208 30924 net.cpp:409] intercept -> data
I0507 02:14:55.729214 30924 net.cpp:409] intercept -> label
I0507 02:14:55.729220 30924 hdf5_data_layer.cpp:79] Loading list of HDF5 filenames from: /home/purduethu/scratch/radon/d/deng106/CNNStatisticalModel/distributions/input/50_distributions_100_sample_size_test-distributions-path.txt
I0507 02:14:55.729239 30924 hdf5_data_layer.cpp:93] Number of HDF5 files: 1
I0507 02:14:55.770190 30924 net.cpp:144] Setting up intercept
I0507 02:14:55.770222 30924 net.cpp:151] Top shape: 20 1 10 10 (2000)
I0507 02:14:55.770227 30924 net.cpp:151] Top shape: 20 (20)
I0507 02:14:55.770231 30924 net.cpp:159] Memory required for data: 8080
I0507 02:14:55.770236 30924 layer_factory.hpp:77] Creating layer label_intercept_1_split
I0507 02:14:55.770256 30924 net.cpp:94] Creating Layer label_intercept_1_split
I0507 02:14:55.770261 30924 net.cpp:435] label_intercept_1_split <- label
I0507 02:14:55.770265 30924 net.cpp:409] label_intercept_1_split -> label_intercept_1_split_0
I0507 02:14:55.770274 30924 net.cpp:409] label_intercept_1_split -> label_intercept_1_split_1
I0507 02:14:55.770318 30924 net.cpp:144] Setting up label_intercept_1_split
I0507 02:14:55.770323 30924 net.cpp:151] Top shape: 20 (20)
I0507 02:14:55.770328 30924 net.cpp:151] Top shape: 20 (20)
I0507 02:14:55.770330 30924 net.cpp:159] Memory required for data: 8240
I0507 02:14:55.770334 30924 layer_factory.hpp:77] Creating layer conv1
I0507 02:14:55.770344 30924 net.cpp:94] Creating Layer conv1
I0507 02:14:55.770349 30924 net.cpp:435] conv1 <- data
I0507 02:14:55.770354 30924 net.cpp:409] conv1 -> conv1
I0507 02:14:55.771140 30924 net.cpp:144] Setting up conv1
I0507 02:14:55.771152 30924 net.cpp:151] Top shape: 20 64 10 10 (128000)
I0507 02:14:55.771157 30924 net.cpp:159] Memory required for data: 520240
I0507 02:14:55.771165 30924 layer_factory.hpp:77] Creating layer relu1
I0507 02:14:55.771172 30924 net.cpp:94] Creating Layer relu1
I0507 02:14:55.771175 30924 net.cpp:435] relu1 <- conv1
I0507 02:14:55.771179 30924 net.cpp:396] relu1 -> conv1 (in-place)
I0507 02:14:55.771186 30924 net.cpp:144] Setting up relu1
I0507 02:14:55.771190 30924 net.cpp:151] Top shape: 20 64 10 10 (128000)
I0507 02:14:55.771193 30924 net.cpp:159] Memory required for data: 1032240
I0507 02:14:55.771204 30924 layer_factory.hpp:77] Creating layer conv2
I0507 02:14:55.771214 30924 net.cpp:94] Creating Layer conv2
I0507 02:14:55.771216 30924 net.cpp:435] conv2 <- conv1
I0507 02:14:55.771221 30924 net.cpp:409] conv2 -> conv2
I0507 02:14:55.775285 30924 net.cpp:144] Setting up conv2
I0507 02:14:55.775298 30924 net.cpp:151] Top shape: 20 64 10 10 (128000)
I0507 02:14:55.775302 30924 net.cpp:159] Memory required for data: 1544240
I0507 02:14:55.775310 30924 layer_factory.hpp:77] Creating layer relu2
I0507 02:14:55.775315 30924 net.cpp:94] Creating Layer relu2
I0507 02:14:55.775318 30924 net.cpp:435] relu2 <- conv2
I0507 02:14:55.775324 30924 net.cpp:396] relu2 -> conv2 (in-place)
I0507 02:14:55.775331 30924 net.cpp:144] Setting up relu2
I0507 02:14:55.775336 30924 net.cpp:151] Top shape: 20 64 10 10 (128000)
I0507 02:14:55.775338 30924 net.cpp:159] Memory required for data: 2056240
I0507 02:14:55.775341 30924 layer_factory.hpp:77] Creating layer pool2
I0507 02:14:55.775346 30924 net.cpp:94] Creating Layer pool2
I0507 02:14:55.775349 30924 net.cpp:435] pool2 <- conv2
I0507 02:14:55.775353 30924 net.cpp:409] pool2 -> pool2
I0507 02:14:55.775413 30924 net.cpp:144] Setting up pool2
I0507 02:14:55.775418 30924 net.cpp:151] Top shape: 20 64 5 5 (32000)
I0507 02:14:55.775421 30924 net.cpp:159] Memory required for data: 2184240
I0507 02:14:55.775424 30924 layer_factory.hpp:77] Creating layer conv3
I0507 02:14:55.775434 30924 net.cpp:94] Creating Layer conv3
I0507 02:14:55.775436 30924 net.cpp:435] conv3 <- pool2
I0507 02:14:55.775442 30924 net.cpp:409] conv3 -> conv3
I0507 02:14:55.779806 30924 net.cpp:144] Setting up conv3
I0507 02:14:55.779819 30924 net.cpp:151] Top shape: 20 64 5 5 (32000)
I0507 02:14:55.779824 30924 net.cpp:159] Memory required for data: 2312240
I0507 02:14:55.779831 30924 layer_factory.hpp:77] Creating layer relu3
I0507 02:14:55.779839 30924 net.cpp:94] Creating Layer relu3
I0507 02:14:55.779841 30924 net.cpp:435] relu3 <- conv3
I0507 02:14:55.779845 30924 net.cpp:396] relu3 -> conv3 (in-place)
I0507 02:14:55.779852 30924 net.cpp:144] Setting up relu3
I0507 02:14:55.779856 30924 net.cpp:151] Top shape: 20 64 5 5 (32000)
I0507 02:14:55.779860 30924 net.cpp:159] Memory required for data: 2440240
I0507 02:14:55.779862 30924 layer_factory.hpp:77] Creating layer conv4
I0507 02:14:55.779870 30924 net.cpp:94] Creating Layer conv4
I0507 02:14:55.779875 30924 net.cpp:435] conv4 <- conv3
I0507 02:14:55.779880 30924 net.cpp:409] conv4 -> conv4
I0507 02:14:55.783403 30924 net.cpp:144] Setting up conv4
I0507 02:14:55.783416 30924 net.cpp:151] Top shape: 20 64 5 5 (32000)
I0507 02:14:55.783419 30924 net.cpp:159] Memory required for data: 2568240
I0507 02:14:55.783426 30924 layer_factory.hpp:77] Creating layer relu4
I0507 02:14:55.783432 30924 net.cpp:94] Creating Layer relu4
I0507 02:14:55.783434 30924 net.cpp:435] relu4 <- conv4
I0507 02:14:55.783438 30924 net.cpp:396] relu4 -> conv4 (in-place)
I0507 02:14:55.783445 30924 net.cpp:144] Setting up relu4
I0507 02:14:55.783449 30924 net.cpp:151] Top shape: 20 64 5 5 (32000)
I0507 02:14:55.783452 30924 net.cpp:159] Memory required for data: 2696240
I0507 02:14:55.783454 30924 layer_factory.hpp:77] Creating layer conv5
I0507 02:14:55.783463 30924 net.cpp:94] Creating Layer conv5
I0507 02:14:55.783466 30924 net.cpp:435] conv5 <- conv4
I0507 02:14:55.783473 30924 net.cpp:409] conv5 -> conv5
I0507 02:14:55.787477 30924 net.cpp:144] Setting up conv5
I0507 02:14:55.787490 30924 net.cpp:151] Top shape: 20 64 5 5 (32000)
I0507 02:14:55.787494 30924 net.cpp:159] Memory required for data: 2824240
I0507 02:14:55.787503 30924 layer_factory.hpp:77] Creating layer relu5
I0507 02:14:55.787508 30924 net.cpp:94] Creating Layer relu5
I0507 02:14:55.787513 30924 net.cpp:435] relu5 <- conv5
I0507 02:14:55.787516 30924 net.cpp:396] relu5 -> conv5 (in-place)
I0507 02:14:55.787523 30924 net.cpp:144] Setting up relu5
I0507 02:14:55.787528 30924 net.cpp:151] Top shape: 20 64 5 5 (32000)
I0507 02:14:55.787529 30924 net.cpp:159] Memory required for data: 2952240
I0507 02:14:55.787536 30924 layer_factory.hpp:77] Creating layer pool5
I0507 02:14:55.787542 30924 net.cpp:94] Creating Layer pool5
I0507 02:14:55.787545 30924 net.cpp:435] pool5 <- conv5
I0507 02:14:55.787549 30924 net.cpp:409] pool5 -> pool5
I0507 02:14:55.787590 30924 net.cpp:144] Setting up pool5
I0507 02:14:55.787597 30924 net.cpp:151] Top shape: 20 64 2 2 (5120)
I0507 02:14:55.787600 30924 net.cpp:159] Memory required for data: 2972720
I0507 02:14:55.787603 30924 layer_factory.hpp:77] Creating layer ip1
I0507 02:14:55.787609 30924 net.cpp:94] Creating Layer ip1
I0507 02:14:55.787613 30924 net.cpp:435] ip1 <- pool5
I0507 02:14:55.787618 30924 net.cpp:409] ip1 -> ip1
I0507 02:14:55.788148 30924 net.cpp:144] Setting up ip1
I0507 02:14:55.788156 30924 net.cpp:151] Top shape: 20 64 (1280)
I0507 02:14:55.788159 30924 net.cpp:159] Memory required for data: 2977840
I0507 02:14:55.788164 30924 layer_factory.hpp:77] Creating layer ip2
I0507 02:14:55.788170 30924 net.cpp:94] Creating Layer ip2
I0507 02:14:55.788174 30924 net.cpp:435] ip2 <- ip1
I0507 02:14:55.788178 30924 net.cpp:409] ip2 -> ip2
I0507 02:14:55.788411 30924 net.cpp:144] Setting up ip2
I0507 02:14:55.788419 30924 net.cpp:151] Top shape: 20 64 (1280)
I0507 02:14:55.788421 30924 net.cpp:159] Memory required for data: 2982960
I0507 02:14:55.788426 30924 layer_factory.hpp:77] Creating layer ip3
I0507 02:14:55.788434 30924 net.cpp:94] Creating Layer ip3
I0507 02:14:55.788439 30924 net.cpp:435] ip3 <- ip2
I0507 02:14:55.788444 30924 net.cpp:409] ip3 -> ip3
I0507 02:14:55.788661 30924 net.cpp:144] Setting up ip3
I0507 02:14:55.788671 30924 net.cpp:151] Top shape: 20 50 (1000)
I0507 02:14:55.788673 30924 net.cpp:159] Memory required for data: 2986960
I0507 02:14:55.788678 30924 layer_factory.hpp:77] Creating layer ip3_ip3_0_split
I0507 02:14:55.788682 30924 net.cpp:94] Creating Layer ip3_ip3_0_split
I0507 02:14:55.788686 30924 net.cpp:435] ip3_ip3_0_split <- ip3
I0507 02:14:55.788691 30924 net.cpp:409] ip3_ip3_0_split -> ip3_ip3_0_split_0
I0507 02:14:55.788696 30924 net.cpp:409] ip3_ip3_0_split -> ip3_ip3_0_split_1
I0507 02:14:55.788738 30924 net.cpp:144] Setting up ip3_ip3_0_split
I0507 02:14:55.788743 30924 net.cpp:151] Top shape: 20 50 (1000)
I0507 02:14:55.788746 30924 net.cpp:151] Top shape: 20 50 (1000)
I0507 02:14:55.788749 30924 net.cpp:159] Memory required for data: 2994960
I0507 02:14:55.788753 30924 layer_factory.hpp:77] Creating layer accuracy
I0507 02:14:55.788758 30924 net.cpp:94] Creating Layer accuracy
I0507 02:14:55.788761 30924 net.cpp:435] accuracy <- ip3_ip3_0_split_0
I0507 02:14:55.788764 30924 net.cpp:435] accuracy <- label_intercept_1_split_0
I0507 02:14:55.788769 30924 net.cpp:409] accuracy -> accuracy
…
