…
I0505 13:24:30.523155  7146 net.cpp:323] The NetState phase (0) differed from the phase (1) specified by a rule in layer intercept
I0505 13:24:30.523169  7146 net.cpp:323] The NetState phase (0) differed from the phase (1) specified by a rule in layer loss
I0505 13:24:30.523237  7146 net.cpp:52] Initializing net from parameters: 
state {
  phase: TRAIN
}
layer {
  name: "parameters"
  type: "HDF5Data"
  top: "data"
  top: "label"
  include {
    phase: TRAIN
  }
  hdf5_data_param {
    source: "/home/purduethu/scratch/radon/d/deng106/CNNStatisticalModel/distributions/input/5_distributions_900_sample_size_train-parameters-path.txt"
    batch_size: 20
  }
}
layer {
  name: "conv1"
  type: "Convolution"
  bottom: "data"
  top: "conv1"
  param {
    lr_mult: 1
  }
  param {
    lr_mult: 2
  }
  convolution_param {
    num_output: 64
    pad: 2
    kernel_size: 5
    stride: 1
    weight_filler {
      type: "gaussian"
      std: 0.0001
    }
    bias_filler {
      type: "constant"
    }
  }
}
layer {
  name: "relu1"
  type: "ReLU"
  bottom: "conv1"
  top: "conv1"
}
layer {
  name: "pool1"
  type: "Pooling"
  bottom: "conv1"
  top: "pool1"
  pooling_param {
    pool: MAX
    kernel_size: 3
    stride: 2
  }
}
layer {
  name: "conv2"
  type: "Convolution"
  bottom: "pool1"
  top: "conv2"
  param {
    lr_mult: 1
  }
  param {
    lr_mult: 2
  }
  convolution_param {
    num_output: 128
    pad: 2
    kernel_size: 5
    stride: 1
    weight_filler {
      type: "gaussian"
      std: 0.01
    }
    bias_filler {
      type: "constant"
    }
  }
}
layer {
  name: "relu2"
  type: "ReLU"
  bottom: "conv2"
  top: "conv2"
}
layer {
  name: "conv3"
  type: "Convolution"
  bottom: "conv2"
  top: "conv3"
  param {
    lr_mult: 1
  }
  param {
    lr_mult: 2
  }
  convolution_param {
    num_output: 128
    pad: 2
    kernel_size: 5
    stride: 1
    weight_filler {
      type: "gaussian"
      std: 0.01
    }
    bias_filler {
      type: "constant"
    }
  }
}
layer {
  name: "relu3"
  type: "ReLU"
  bottom: "conv3"
  top: "conv3"
}
layer {
  name: "pool3"
  type: "Pooling"
  bottom: "conv3"
  top: "pool3"
  pooling_param {
    pool: AVE
    kernel_size: 3
    stride: 2
  }
}
layer {
  name: "ip1"
  type: "InnerProduct"
  bottom: "pool3"
  top: "ip1"
  param {
    lr_mult: 1
  }
  param {
    lr_mult: 2
  }
  inner_product_param {
    num_output: 512
    weight_filler {
      type: "gaussian"
      std: 0.1
    }
    bias_filler {
      type: "constant"
    }
  }
}
layer {
  name: "ip2"
  type: "InnerProduct"
  bottom: "ip1"
  top: "ip2"
  param {
    lr_mult: 1
  }
  param {
    lr_mult: 2
  }
  inner_product_param {
    num_output: 256
    weight_filler {
      type: "gaussian"
      std: 0.1
    }
    bias_filler {
      type: "constant"
    }
  }
}
layer {
  name: "ip3"
  type: "InnerProduct"
  bottom: "ip2"
  top: "ip3"
  param {
    lr_mult: 1
  }
  param {
    lr_mult: 2
  }
  inner_product_param {
    num_output: 1
    weight_filler {
      type: "gaussian"
      std: 0.1
    }
    bias_filler {
      type: "constant"
    }
  }
}
layer {
  name: "loss"
  type: "HuberLoss"
  bottom: "ip3"
  bottom: "label"
  top: "loss"
  include {
    phase: TRAIN
  }
}
I0505 13:24:30.523285  7146 layer_factory.hpp:77] Creating layer parameters
I0505 13:24:30.523298  7146 net.cpp:94] Creating Layer parameters
I0505 13:24:30.523303  7146 net.cpp:409] parameters -> data
I0505 13:24:30.523310  7146 net.cpp:409] parameters -> label
I0505 13:24:30.523316  7146 hdf5_data_layer.cpp:79] Loading list of HDF5 filenames from: /home/purduethu/scratch/radon/d/deng106/CNNStatisticalModel/distributions/input/5_distributions_900_sample_size_train-parameters-path.txt
I0505 13:24:30.523331  7146 hdf5_data_layer.cpp:93] Number of HDF5 files: 1
I0505 13:24:30.523879  7146 hdf5.cpp:32] Datatype class: H5T_FLOAT
I0505 13:24:30.663131  7146 net.cpp:144] Setting up parameters
I0505 13:24:30.663161  7146 net.cpp:151] Top shape: 20 1 30 30 (18000)
I0505 13:24:30.663166  7146 net.cpp:151] Top shape: 20 (20)
I0505 13:24:30.663169  7146 net.cpp:159] Memory required for data: 72080
I0505 13:24:30.663177  7146 layer_factory.hpp:77] Creating layer conv1
I0505 13:24:30.663197  7146 net.cpp:94] Creating Layer conv1
I0505 13:24:30.663202  7146 net.cpp:435] conv1 <- data
I0505 13:24:30.663208  7146 net.cpp:409] conv1 -> conv1
I0505 13:24:30.669787  7146 net.cpp:144] Setting up conv1
I0505 13:24:30.669808  7146 net.cpp:151] Top shape: 20 64 30 30 (1152000)
I0505 13:24:30.669812  7146 net.cpp:159] Memory required for data: 4680080
I0505 13:24:30.669822  7146 layer_factory.hpp:77] Creating layer relu1
I0505 13:24:30.669832  7146 net.cpp:94] Creating Layer relu1
I0505 13:24:30.669836  7146 net.cpp:435] relu1 <- conv1
I0505 13:24:30.669841  7146 net.cpp:396] relu1 -> conv1 (in-place)
I0505 13:24:30.669857  7146 net.cpp:144] Setting up relu1
I0505 13:24:30.669860  7146 net.cpp:151] Top shape: 20 64 30 30 (1152000)
I0505 13:24:30.669863  7146 net.cpp:159] Memory required for data: 9288080
I0505 13:24:30.669867  7146 layer_factory.hpp:77] Creating layer pool1
I0505 13:24:30.669872  7146 net.cpp:94] Creating Layer pool1
I0505 13:24:30.669875  7146 net.cpp:435] pool1 <- conv1
I0505 13:24:30.669879  7146 net.cpp:409] pool1 -> pool1
I0505 13:24:30.669936  7146 net.cpp:144] Setting up pool1
I0505 13:24:30.669942  7146 net.cpp:151] Top shape: 20 64 15 15 (288000)
I0505 13:24:30.669946  7146 net.cpp:159] Memory required for data: 10440080
I0505 13:24:30.669950  7146 layer_factory.hpp:77] Creating layer conv2
I0505 13:24:30.669958  7146 net.cpp:94] Creating Layer conv2
I0505 13:24:30.669962  7146 net.cpp:435] conv2 <- pool1
I0505 13:24:30.669966  7146 net.cpp:409] conv2 -> conv2
I0505 13:24:30.683856  7146 net.cpp:144] Setting up conv2
I0505 13:24:30.683872  7146 net.cpp:151] Top shape: 20 128 15 15 (576000)
I0505 13:24:30.683876  7146 net.cpp:159] Memory required for data: 12744080
I0505 13:24:30.683884  7146 layer_factory.hpp:77] Creating layer relu2
I0505 13:24:30.683892  7146 net.cpp:94] Creating Layer relu2
I0505 13:24:30.683895  7146 net.cpp:435] relu2 <- conv2
I0505 13:24:30.683900  7146 net.cpp:396] relu2 -> conv2 (in-place)
I0505 13:24:30.683907  7146 net.cpp:144] Setting up relu2
I0505 13:24:30.683912  7146 net.cpp:151] Top shape: 20 128 15 15 (576000)
I0505 13:24:30.683914  7146 net.cpp:159] Memory required for data: 15048080
I0505 13:24:30.683917  7146 layer_factory.hpp:77] Creating layer conv3
I0505 13:24:30.683925  7146 net.cpp:94] Creating Layer conv3
I0505 13:24:30.683928  7146 net.cpp:435] conv3 <- conv2
I0505 13:24:30.683933  7146 net.cpp:409] conv3 -> conv3
I0505 13:24:30.705924  7146 net.cpp:144] Setting up conv3
I0505 13:24:30.705941  7146 net.cpp:151] Top shape: 20 128 15 15 (576000)
I0505 13:24:30.705945  7146 net.cpp:159] Memory required for data: 17352080
I0505 13:24:30.705953  7146 layer_factory.hpp:77] Creating layer relu3
I0505 13:24:30.705966  7146 net.cpp:94] Creating Layer relu3
I0505 13:24:30.705971  7146 net.cpp:435] relu3 <- conv3
I0505 13:24:30.705976  7146 net.cpp:396] relu3 -> conv3 (in-place)
I0505 13:24:30.705983  7146 net.cpp:144] Setting up relu3
I0505 13:24:30.705987  7146 net.cpp:151] Top shape: 20 128 15 15 (576000)
I0505 13:24:30.705991  7146 net.cpp:159] Memory required for data: 19656080
I0505 13:24:30.705993  7146 layer_factory.hpp:77] Creating layer pool3
I0505 13:24:30.705999  7146 net.cpp:94] Creating Layer pool3
I0505 13:24:30.706002  7146 net.cpp:435] pool3 <- conv3
I0505 13:24:30.706007  7146 net.cpp:409] pool3 -> pool3
I0505 13:24:30.706054  7146 net.cpp:144] Setting up pool3
I0505 13:24:30.706061  7146 net.cpp:151] Top shape: 20 128 7 7 (125440)
I0505 13:24:30.706064  7146 net.cpp:159] Memory required for data: 20157840
I0505 13:24:30.706068  7146 layer_factory.hpp:77] Creating layer ip1
I0505 13:24:30.706077  7146 net.cpp:94] Creating Layer ip1
I0505 13:24:30.706080  7146 net.cpp:435] ip1 <- pool3
I0505 13:24:30.706085  7146 net.cpp:409] ip1 -> ip1
I0505 13:24:30.783982  7146 net.cpp:144] Setting up ip1
I0505 13:24:30.784015  7146 net.cpp:151] Top shape: 20 512 (10240)
I0505 13:24:30.784019  7146 net.cpp:159] Memory required for data: 20198800
I0505 13:24:30.784027  7146 layer_factory.hpp:77] Creating layer ip2
I0505 13:24:30.784037  7146 net.cpp:94] Creating Layer ip2
I0505 13:24:30.784041  7146 net.cpp:435] ip2 <- ip1
I0505 13:24:30.784049  7146 net.cpp:409] ip2 -> ip2
I0505 13:24:30.787220  7146 net.cpp:144] Setting up ip2
I0505 13:24:30.787233  7146 net.cpp:151] Top shape: 20 256 (5120)
I0505 13:24:30.787236  7146 net.cpp:159] Memory required for data: 20219280
I0505 13:24:30.787245  7146 layer_factory.hpp:77] Creating layer ip3
I0505 13:24:30.787250  7146 net.cpp:94] Creating Layer ip3
I0505 13:24:30.787255  7146 net.cpp:435] ip3 <- ip2
I0505 13:24:30.787259  7146 net.cpp:409] ip3 -> ip3
I0505 13:24:30.787375  7146 net.cpp:144] Setting up ip3
I0505 13:24:30.787382  7146 net.cpp:151] Top shape: 20 1 (20)
I0505 13:24:30.787385  7146 net.cpp:159] Memory required for data: 20219360
I0505 13:24:30.787390  7146 layer_factory.hpp:77] Creating layer loss
I0505 13:24:30.787397  7146 net.cpp:94] Creating Layer loss
I0505 13:24:30.787400  7146 net.cpp:435] loss <- ip3
I0505 13:24:30.787405  7146 net.cpp:435] loss <- label
I0505 13:24:30.787408  7146 net.cpp:409] loss -> loss
I0505 13:24:30.787459  7146 net.cpp:144] Setting up loss
…
I0505 13:24:30.932456  7146 net.cpp:323] The NetState phase (0) differed from the phase (1) specified by a rule in layer intercept
I0505 13:24:30.932468  7146 net.cpp:323] The NetState phase (0) differed from the phase (1) specified by a rule in layer accuracy
I0505 13:24:30.932544  7146 net.cpp:52] Initializing net from parameters: 
state {
  phase: TRAIN
}
layer {
  name: "parameters"
  type: "HDF5Data"
  top: "data"
  top: "label"
  include {
    phase: TRAIN
  }
  hdf5_data_param {
    source: "/home/purduethu/scratch/radon/d/deng106/CNNStatisticalModel/distributions/input/5_distributions_900_sample_size_train-distributions-path.txt"
    batch_size: 20
  }
}
layer {
  name: "conv1"
  type: "Convolution"
  bottom: "data"
  top: "conv1"
  param {
    lr_mult: 1
  }
  param {
    lr_mult: 2
  }
  convolution_param {
    num_output: 64
    pad: 2
    kernel_size: 5
    stride: 1
    weight_filler {
      type: "gaussian"
      std: 0.0001
    }
    bias_filler {
      type: "constant"
    }
  }
}
layer {
  name: "relu1"
  type: "ReLU"
  bottom: "conv1"
  top: "conv1"
}
layer {
  name: "pool1"
  type: "Pooling"
  bottom: "conv1"
  top: "pool1"
  pooling_param {
    pool: MAX
    kernel_size: 3
    stride: 2
  }
}
layer {
  name: "conv2"
  type: "Convolution"
  bottom: "pool1"
  top: "conv2"
  param {
    lr_mult: 1
  }
  param {
    lr_mult: 2
  }
  convolution_param {
    num_output: 128
    pad: 2
    kernel_size: 5
    stride: 1
    weight_filler {
      type: "gaussian"
      std: 0.01
    }
    bias_filler {
      type: "constant"
    }
  }
}
layer {
  name: "relu2"
  type: "ReLU"
  bottom: "conv2"
  top: "conv2"
}
layer {
  name: "conv3"
  type: "Convolution"
  bottom: "conv2"
  top: "conv3"
  param {
    lr_mult: 1
  }
  param {
    lr_mult: 2
  }
  convolution_param {
    num_output: 128
    pad: 2
    kernel_size: 5
    stride: 1
    weight_filler {
      type: "gaussian"
      std: 0.01
    }
    bias_filler {
      type: "constant"
    }
  }
}
layer {
  name: "relu3"
  type: "ReLU"
  bottom: "conv3"
  top: "conv3"
}
layer {
  name: "pool3"
  type: "Pooling"
  bottom: "conv3"
  top: "pool3"
  pooling_param {
    pool: AVE
    kernel_size: 3
    stride: 2
  }
}
layer {
  name: "ip1"
  type: "InnerProduct"
  bottom: "pool3"
  top: "ip1"
  param {
    lr_mult: 1
  }
  param {
    lr_mult: 2
  }
  inner_product_param {
    num_output: 512
    weight_filler {
      type: "gaussian"
      std: 0.1
    }
    bias_filler {
      type: "constant"
    }
  }
}
layer {
  name: "ip2"
  type: "InnerProduct"
  bottom: "ip1"
  top: "ip2"
  param {
    lr_mult: 1
  }
  param {
    lr_mult: 2
  }
  inner_product_param {
    num_output: 256
    weight_filler {
      type: "gaussian"
      std: 0.1
    }
    bias_filler {
      type: "constant"
    }
  }
}
layer {
  name: "ip3"
  type: "InnerProduct"
  bottom: "ip2"
  top: "ip3"
  param {
    lr_mult: 1
  }
  param {
    lr_mult: 2
  }
  inner_product_param {
    num_output: 50
    weight_filler {
      type: "gaussian"
      std: 0.1
    }
    bias_filler {
      type: "constant"
    }
  }
}
layer {
  name: "loss"
  type: "SoftmaxWithLoss"
  bottom: "ip3"
  bottom: "label"
  top: "loss"
}
I0505 13:24:30.932606  7146 layer_factory.hpp:77] Creating layer parameters
I0505 13:24:30.932615  7146 net.cpp:94] Creating Layer parameters
I0505 13:24:30.932620  7146 net.cpp:409] parameters -> data
I0505 13:24:30.932626  7146 net.cpp:409] parameters -> label
I0505 13:24:30.932631  7146 hdf5_data_layer.cpp:79] Loading list of HDF5 filenames from: /home/purduethu/scratch/radon/d/deng106/CNNStatisticalModel/distributions/input/5_distributions_900_sample_size_train-distributions-path.txt
I0505 13:24:30.932647  7146 hdf5_data_layer.cpp:93] Number of HDF5 files: 1
I0505 13:24:31.068855  7146 hdf5.cpp:35] Datatype class: H5T_INTEGER
I0505 13:24:31.069293  7146 net.cpp:144] Setting up parameters
I0505 13:24:31.069306  7146 net.cpp:151] Top shape: 20 1 30 30 (18000)
I0505 13:24:31.069311  7146 net.cpp:151] Top shape: 20 (20)
I0505 13:24:31.069314  7146 net.cpp:159] Memory required for data: 72080
I0505 13:24:31.069319  7146 layer_factory.hpp:77] Creating layer conv1
I0505 13:24:31.069336  7146 net.cpp:94] Creating Layer conv1
I0505 13:24:31.069340  7146 net.cpp:435] conv1 <- data
I0505 13:24:31.069346  7146 net.cpp:409] conv1 -> conv1
I0505 13:24:31.072811  7146 net.cpp:144] Setting up conv1
I0505 13:24:31.072826  7146 net.cpp:151] Top shape: 20 64 30 30 (1152000)
I0505 13:24:31.072830  7146 net.cpp:159] Memory required for data: 4680080
I0505 13:24:31.072840  7146 layer_factory.hpp:77] Creating layer relu1
I0505 13:24:31.072847  7146 net.cpp:94] Creating Layer relu1
I0505 13:24:31.072851  7146 net.cpp:435] relu1 <- conv1
I0505 13:24:31.072855  7146 net.cpp:396] relu1 -> conv1 (in-place)
I0505 13:24:31.072862  7146 net.cpp:144] Setting up relu1
I0505 13:24:31.072867  7146 net.cpp:151] Top shape: 20 64 30 30 (1152000)
I0505 13:24:31.072870  7146 net.cpp:159] Memory required for data: 9288080
I0505 13:24:31.072872  7146 layer_factory.hpp:77] Creating layer pool1
I0505 13:24:31.072878  7146 net.cpp:94] Creating Layer pool1
I0505 13:24:31.072880  7146 net.cpp:435] pool1 <- conv1
I0505 13:24:31.072891  7146 net.cpp:409] pool1 -> pool1
I0505 13:24:31.072948  7146 net.cpp:144] Setting up pool1
I0505 13:24:31.072955  7146 net.cpp:151] Top shape: 20 64 15 15 (288000)
I0505 13:24:31.072958  7146 net.cpp:159] Memory required for data: 10440080
I0505 13:24:31.072962  7146 layer_factory.hpp:77] Creating layer conv2
I0505 13:24:31.072969  7146 net.cpp:94] Creating Layer conv2
I0505 13:24:31.072973  7146 net.cpp:435] conv2 <- pool1
I0505 13:24:31.072978  7146 net.cpp:409] conv2 -> conv2
I0505 13:24:31.086484  7146 net.cpp:144] Setting up conv2
I0505 13:24:31.086500  7146 net.cpp:151] Top shape: 20 128 15 15 (576000)
I0505 13:24:31.086504  7146 net.cpp:159] Memory required for data: 12744080
I0505 13:24:31.086513  7146 layer_factory.hpp:77] Creating layer relu2
I0505 13:24:31.086519  7146 net.cpp:94] Creating Layer relu2
I0505 13:24:31.086521  7146 net.cpp:435] relu2 <- conv2
I0505 13:24:31.086526  7146 net.cpp:396] relu2 -> conv2 (in-place)
I0505 13:24:31.086534  7146 net.cpp:144] Setting up relu2
I0505 13:24:31.086537  7146 net.cpp:151] Top shape: 20 128 15 15 (576000)
I0505 13:24:31.086540  7146 net.cpp:159] Memory required for data: 15048080
I0505 13:24:31.086544  7146 layer_factory.hpp:77] Creating layer conv3
I0505 13:24:31.086550  7146 net.cpp:94] Creating Layer conv3
I0505 13:24:31.086554  7146 net.cpp:435] conv3 <- conv2
I0505 13:24:31.086558  7146 net.cpp:409] conv3 -> conv3
I0505 13:24:31.109057  7146 net.cpp:144] Setting up conv3
I0505 13:24:31.109074  7146 net.cpp:151] Top shape: 20 128 15 15 (576000)
I0505 13:24:31.109078  7146 net.cpp:159] Memory required for data: 17352080
I0505 13:24:31.109086  7146 layer_factory.hpp:77] Creating layer relu3
I0505 13:24:31.109093  7146 net.cpp:94] Creating Layer relu3
I0505 13:24:31.109097  7146 net.cpp:435] relu3 <- conv3
I0505 13:24:31.109102  7146 net.cpp:396] relu3 -> conv3 (in-place)
I0505 13:24:31.109108  7146 net.cpp:144] Setting up relu3
I0505 13:24:31.109112  7146 net.cpp:151] Top shape: 20 128 15 15 (576000)
I0505 13:24:31.109115  7146 net.cpp:159] Memory required for data: 19656080
I0505 13:24:31.109118  7146 layer_factory.hpp:77] Creating layer pool3
I0505 13:24:31.109124  7146 net.cpp:94] Creating Layer pool3
I0505 13:24:31.109127  7146 net.cpp:435] pool3 <- conv3
I0505 13:24:31.109132  7146 net.cpp:409] pool3 -> pool3
I0505 13:24:31.109175  7146 net.cpp:144] Setting up pool3
I0505 13:24:31.109182  7146 net.cpp:151] Top shape: 20 128 7 7 (125440)
I0505 13:24:31.109185  7146 net.cpp:159] Memory required for data: 20157840
I0505 13:24:31.109189  7146 layer_factory.hpp:77] Creating layer ip1
I0505 13:24:31.109195  7146 net.cpp:94] Creating Layer ip1
I0505 13:24:31.109199  7146 net.cpp:435] ip1 <- pool3
I0505 13:24:31.109202  7146 net.cpp:409] ip1 -> ip1
I0505 13:24:31.187942  7146 net.cpp:144] Setting up ip1
I0505 13:24:31.187974  7146 net.cpp:151] Top shape: 20 512 (10240)
I0505 13:24:31.187978  7146 net.cpp:159] Memory required for data: 20198800
I0505 13:24:31.187986  7146 layer_factory.hpp:77] Creating layer ip2
I0505 13:24:31.187996  7146 net.cpp:94] Creating Layer ip2
I0505 13:24:31.188001  7146 net.cpp:435] ip2 <- ip1
I0505 13:24:31.188007  7146 net.cpp:409] ip2 -> ip2
I0505 13:24:31.191189  7146 net.cpp:144] Setting up ip2
I0505 13:24:31.191200  7146 net.cpp:151] Top shape: 20 256 (5120)
I0505 13:24:31.191203  7146 net.cpp:159] Memory required for data: 20219280
I0505 13:24:31.191211  7146 layer_factory.hpp:77] Creating layer ip3
I0505 13:24:31.191217  7146 net.cpp:94] Creating Layer ip3
I0505 13:24:31.191220  7146 net.cpp:435] ip3 <- ip2
I0505 13:24:31.191226  7146 net.cpp:409] ip3 -> ip3
I0505 13:24:31.191663  7146 net.cpp:144] Setting up ip3
I0505 13:24:31.191670  7146 net.cpp:151] Top shape: 20 50 (1000)
I0505 13:24:31.191673  7146 net.cpp:159] Memory required for data: 20223280
I0505 13:24:31.191679  7146 layer_factory.hpp:77] Creating layer loss
I0505 13:24:31.191684  7146 net.cpp:94] Creating Layer loss
I0505 13:24:31.191687  7146 net.cpp:435] loss <- ip3
I0505 13:24:31.191691  7146 net.cpp:435] loss <- label
I0505 13:24:31.191705  7146 net.cpp:409] loss -> loss
I0505 13:24:31.191714  7146 layer_factory.hpp:77] Creating layer loss
…
I0505 13:24:31.192167  7146 solver.cpp:181] Creating test net (#0) specified by net file: ./protocol/dis_5_900_dimension.protocol_distribution
I0505 13:24:31.192190  7146 net.cpp:323] The NetState phase (1) differed from the phase (0) specified by a rule in layer parameters
I0505 13:24:31.192273  7146 net.cpp:52] Initializing net from parameters: 
state {
  phase: TEST
}
layer {
  name: "intercept"
  type: "HDF5Data"
  top: "data"
  top: "label"
  include {
    phase: TEST
  }
  hdf5_data_param {
    source: "/home/purduethu/scratch/radon/d/deng106/CNNStatisticalModel/distributions/input/5_distributions_900_sample_size_test-distributions-path.txt"
    batch_size: 20
  }
}
layer {
  name: "conv1"
  type: "Convolution"
  bottom: "data"
  top: "conv1"
  param {
    lr_mult: 1
  }
  param {
    lr_mult: 2
  }
  convolution_param {
    num_output: 64
    pad: 2
    kernel_size: 5
    stride: 1
    weight_filler {
      type: "gaussian"
      std: 0.0001
    }
    bias_filler {
      type: "constant"
    }
  }
}
layer {
  name: "relu1"
  type: "ReLU"
  bottom: "conv1"
  top: "conv1"
}
layer {
  name: "pool1"
  type: "Pooling"
  bottom: "conv1"
  top: "pool1"
  pooling_param {
    pool: MAX
    kernel_size: 3
    stride: 2
  }
}
layer {
  name: "conv2"
  type: "Convolution"
  bottom: "pool1"
  top: "conv2"
  param {
    lr_mult: 1
  }
  param {
    lr_mult: 2
  }
  convolution_param {
    num_output: 128
    pad: 2
    kernel_size: 5
    stride: 1
    weight_filler {
      type: "gaussian"
      std: 0.01
    }
    bias_filler {
      type: "constant"
    }
  }
}
layer {
  name: "relu2"
  type: "ReLU"
  bottom: "conv2"
  top: "conv2"
}
layer {
  name: "conv3"
  type: "Convolution"
  bottom: "conv2"
  top: "conv3"
  param {
    lr_mult: 1
  }
  param {
    lr_mult: 2
  }
  convolution_param {
    num_output: 128
    pad: 2
    kernel_size: 5
    stride: 1
    weight_filler {
      type: "gaussian"
      std: 0.01
    }
    bias_filler {
      type: "constant"
    }
  }
}
layer {
  name: "relu3"
  type: "ReLU"
  bottom: "conv3"
  top: "conv3"
}
layer {
  name: "pool3"
  type: "Pooling"
  bottom: "conv3"
  top: "pool3"
  pooling_param {
    pool: AVE
    kernel_size: 3
    stride: 2
  }
}
layer {
  name: "ip1"
  type: "InnerProduct"
  bottom: "pool3"
  top: "ip1"
  param {
    lr_mult: 1
  }
  param {
    lr_mult: 2
  }
  inner_product_param {
    num_output: 512
    weight_filler {
      type: "gaussian"
      std: 0.1
    }
    bias_filler {
      type: "constant"
    }
  }
}
layer {
  name: "ip2"
  type: "InnerProduct"
  bottom: "ip1"
  top: "ip2"
  param {
    lr_mult: 1
  }
  param {
    lr_mult: 2
  }
  inner_product_param {
    num_output: 256
    weight_filler {
      type: "gaussian"
      std: 0.1
    }
    bias_filler {
      type: "constant"
    }
  }
}
layer {
  name: "ip3"
  type: "InnerProduct"
  bottom: "ip2"
  top: "ip3"
  param {
    lr_mult: 1
  }
  param {
    lr_mult: 2
  }
  inner_product_param {
    num_output: 50
    weight_filler {
      type: "gaussian"
      std: 0.1
    }
    bias_filler {
      type: "constant"
    }
  }
}
layer {
  name: "accuracy"
  type: "Accuracy"
  bottom: "ip3"
  bottom: "label"
  top: "accuracy"
  include {
    phase: TEST
  }
}
layer {
  name: "loss"
  type: "SoftmaxWithLoss"
  bottom: "ip3"
  bottom: "label"
  top: "loss"
}
I0505 13:24:31.192330  7146 layer_factory.hpp:77] Creating layer intercept
I0505 13:24:31.192337  7146 net.cpp:94] Creating Layer intercept
I0505 13:24:31.192342  7146 net.cpp:409] intercept -> data
I0505 13:24:31.192348  7146 net.cpp:409] intercept -> label
I0505 13:24:31.192353  7146 hdf5_data_layer.cpp:79] Loading list of HDF5 filenames from: /home/purduethu/scratch/radon/d/deng106/CNNStatisticalModel/distributions/input/5_distributions_900_sample_size_test-distributions-path.txt
I0505 13:24:31.192373  7146 hdf5_data_layer.cpp:93] Number of HDF5 files: 1
I0505 13:24:31.227953  7146 net.cpp:144] Setting up intercept
I0505 13:24:31.227987  7146 net.cpp:151] Top shape: 20 1 30 30 (18000)
I0505 13:24:31.227991  7146 net.cpp:151] Top shape: 20 (20)
I0505 13:24:31.227994  7146 net.cpp:159] Memory required for data: 72080
I0505 13:24:31.227999  7146 layer_factory.hpp:77] Creating layer label_intercept_1_split
I0505 13:24:31.228018  7146 net.cpp:94] Creating Layer label_intercept_1_split
I0505 13:24:31.228024  7146 net.cpp:435] label_intercept_1_split <- label
I0505 13:24:31.228029  7146 net.cpp:409] label_intercept_1_split -> label_intercept_1_split_0
I0505 13:24:31.228037  7146 net.cpp:409] label_intercept_1_split -> label_intercept_1_split_1
I0505 13:24:31.228083  7146 net.cpp:144] Setting up label_intercept_1_split
I0505 13:24:31.228090  7146 net.cpp:151] Top shape: 20 (20)
I0505 13:24:31.228093  7146 net.cpp:151] Top shape: 20 (20)
I0505 13:24:31.228096  7146 net.cpp:159] Memory required for data: 72240
I0505 13:24:31.228099  7146 layer_factory.hpp:77] Creating layer conv1
I0505 13:24:31.228111  7146 net.cpp:94] Creating Layer conv1
I0505 13:24:31.228113  7146 net.cpp:435] conv1 <- data
I0505 13:24:31.228118  7146 net.cpp:409] conv1 -> conv1
I0505 13:24:31.229676  7146 net.cpp:144] Setting up conv1
I0505 13:24:31.229691  7146 net.cpp:151] Top shape: 20 64 30 30 (1152000)
I0505 13:24:31.229694  7146 net.cpp:159] Memory required for data: 4680240
I0505 13:24:31.229704  7146 layer_factory.hpp:77] Creating layer relu1
I0505 13:24:31.229712  7146 net.cpp:94] Creating Layer relu1
I0505 13:24:31.229715  7146 net.cpp:435] relu1 <- conv1
I0505 13:24:31.229719  7146 net.cpp:396] relu1 -> conv1 (in-place)
I0505 13:24:31.229727  7146 net.cpp:144] Setting up relu1
I0505 13:24:31.229730  7146 net.cpp:151] Top shape: 20 64 30 30 (1152000)
I0505 13:24:31.229733  7146 net.cpp:159] Memory required for data: 9288240
I0505 13:24:31.229737  7146 layer_factory.hpp:77] Creating layer pool1
I0505 13:24:31.229743  7146 net.cpp:94] Creating Layer pool1
I0505 13:24:31.229745  7146 net.cpp:435] pool1 <- conv1
I0505 13:24:31.229749  7146 net.cpp:409] pool1 -> pool1
I0505 13:24:31.229806  7146 net.cpp:144] Setting up pool1
I0505 13:24:31.229813  7146 net.cpp:151] Top shape: 20 64 15 15 (288000)
I0505 13:24:31.229816  7146 net.cpp:159] Memory required for data: 10440240
I0505 13:24:31.229820  7146 layer_factory.hpp:77] Creating layer conv2
I0505 13:24:31.229827  7146 net.cpp:94] Creating Layer conv2
I0505 13:24:31.229830  7146 net.cpp:435] conv2 <- pool1
I0505 13:24:31.229835  7146 net.cpp:409] conv2 -> conv2
I0505 13:24:31.238135  7146 net.cpp:144] Setting up conv2
I0505 13:24:31.238152  7146 net.cpp:151] Top shape: 20 128 15 15 (576000)
I0505 13:24:31.238155  7146 net.cpp:159] Memory required for data: 12744240
I0505 13:24:31.238169  7146 layer_factory.hpp:77] Creating layer relu2
I0505 13:24:31.238176  7146 net.cpp:94] Creating Layer relu2
I0505 13:24:31.238179  7146 net.cpp:435] relu2 <- conv2
I0505 13:24:31.238184  7146 net.cpp:396] relu2 -> conv2 (in-place)
I0505 13:24:31.238191  7146 net.cpp:144] Setting up relu2
I0505 13:24:31.238195  7146 net.cpp:151] Top shape: 20 128 15 15 (576000)
I0505 13:24:31.238198  7146 net.cpp:159] Memory required for data: 15048240
I0505 13:24:31.238200  7146 layer_factory.hpp:77] Creating layer conv3
I0505 13:24:31.238209  7146 net.cpp:94] Creating Layer conv3
I0505 13:24:31.238211  7146 net.cpp:435] conv3 <- conv2
I0505 13:24:31.238216  7146 net.cpp:409] conv3 -> conv3
I0505 13:24:31.253494  7146 net.cpp:144] Setting up conv3
I0505 13:24:31.253509  7146 net.cpp:151] Top shape: 20 128 15 15 (576000)
I0505 13:24:31.253514  7146 net.cpp:159] Memory required for data: 17352240
I0505 13:24:31.253521  7146 layer_factory.hpp:77] Creating layer relu3
I0505 13:24:31.253528  7146 net.cpp:94] Creating Layer relu3
I0505 13:24:31.253532  7146 net.cpp:435] relu3 <- conv3
I0505 13:24:31.253536  7146 net.cpp:396] relu3 -> conv3 (in-place)
I0505 13:24:31.253543  7146 net.cpp:144] Setting up relu3
I0505 13:24:31.253547  7146 net.cpp:151] Top shape: 20 128 15 15 (576000)
I0505 13:24:31.253551  7146 net.cpp:159] Memory required for data: 19656240
I0505 13:24:31.253553  7146 layer_factory.hpp:77] Creating layer pool3
I0505 13:24:31.253558  7146 net.cpp:94] Creating Layer pool3
I0505 13:24:31.253561  7146 net.cpp:435] pool3 <- conv3
I0505 13:24:31.253566  7146 net.cpp:409] pool3 -> pool3
I0505 13:24:31.253608  7146 net.cpp:144] Setting up pool3
I0505 13:24:31.253615  7146 net.cpp:151] Top shape: 20 128 7 7 (125440)
I0505 13:24:31.253618  7146 net.cpp:159] Memory required for data: 20158000
I0505 13:24:31.253621  7146 layer_factory.hpp:77] Creating layer ip1
I0505 13:24:31.253628  7146 net.cpp:94] Creating Layer ip1
I0505 13:24:31.253631  7146 net.cpp:435] ip1 <- pool3
I0505 13:24:31.253635  7146 net.cpp:409] ip1 -> ip1
I0505 13:24:31.331827  7146 net.cpp:144] Setting up ip1
I0505 13:24:31.331861  7146 net.cpp:151] Top shape: 20 512 (10240)
I0505 13:24:31.331866  7146 net.cpp:159] Memory required for data: 20198960
I0505 13:24:31.331874  7146 layer_factory.hpp:77] Creating layer ip2
I0505 13:24:31.331883  7146 net.cpp:94] Creating Layer ip2
I0505 13:24:31.331888  7146 net.cpp:435] ip2 <- ip1
I0505 13:24:31.331894  7146 net.cpp:409] ip2 -> ip2
I0505 13:24:31.335114  7146 net.cpp:144] Setting up ip2
I0505 13:24:31.335124  7146 net.cpp:151] Top shape: 20 256 (5120)
I0505 13:24:31.335126  7146 net.cpp:159] Memory required for data: 20219440
I0505 13:24:31.335135  7146 layer_factory.hpp:77] Creating layer ip3
I0505 13:24:31.335141  7146 net.cpp:94] Creating Layer ip3
I0505 13:24:31.335145  7146 net.cpp:435] ip3 <- ip2
I0505 13:24:31.335150  7146 net.cpp:409] ip3 -> ip3
I0505 13:24:31.335613  7146 net.cpp:144] Setting up ip3
I0505 13:24:31.335621  7146 net.cpp:151] Top shape: 20 50 (1000)
I0505 13:24:31.335624  7146 net.cpp:159] Memory required for data: 20223440
I0505 13:24:31.335629  7146 layer_factory.hpp:77] Creating layer ip3_ip3_0_split
I0505 13:24:31.335635  7146 net.cpp:94] Creating Layer ip3_ip3_0_split
I0505 13:24:31.335638  7146 net.cpp:435] ip3_ip3_0_split <- ip3
I0505 13:24:31.335642  7146 net.cpp:409] ip3_ip3_0_split -> ip3_ip3_0_split_0
I0505 13:24:31.335649  7146 net.cpp:409] ip3_ip3_0_split -> ip3_ip3_0_split_1
I0505 13:24:31.335691  7146 net.cpp:144] Setting up ip3_ip3_0_split
I0505 13:24:31.335697  7146 net.cpp:151] Top shape: 20 50 (1000)
I0505 13:24:31.335701  7146 net.cpp:151] Top shape: 20 50 (1000)
I0505 13:24:31.335703  7146 net.cpp:159] Memory required for data: 20231440
I0505 13:24:31.335706  7146 layer_factory.hpp:77] Creating layer accuracy
I0505 13:24:31.335712  7146 net.cpp:94] Creating Layer accuracy
I0505 13:24:31.335716  7146 net.cpp:435] accuracy <- ip3_ip3_0_split_0
I0505 13:24:31.335719  7146 net.cpp:435] accuracy <- label_intercept_1_split_0
I0505 13:24:31.335723  7146 net.cpp:409] accuracy -> accuracy
…
