…
I0501 20:41:50.287221 14581 net.cpp:323] The NetState phase (0) differed from the phase (1) specified by a rule in layer intercept
I0501 20:41:50.287237 14581 net.cpp:323] The NetState phase (0) differed from the phase (1) specified by a rule in layer accuracy
I0501 20:41:50.287328 14581 net.cpp:52] Initializing net from parameters: 
state {
  phase: TRAIN
}
layer {
  name: "parameters"
  type: "HDF5Data"
  top: "data"
  top: "label"
  include {
    phase: TRAIN
  }
  hdf5_data_param {
    source: "/home/purduethu/scratch/radon/d/deng106/CNNStatisticalModel/distributions/input/50_distributions_400_sample_size_train-distributions-path.txt"
    batch_size: 20
  }
}
layer {
  name: "conv1"
  type: "Convolution"
  bottom: "data"
  top: "conv1"
  param {
    lr_mult: 1
  }
  param {
    lr_mult: 2
  }
  convolution_param {
    num_output: 64
    pad: 2
    kernel_size: 5
    stride: 1
    weight_filler {
      type: "gaussian"
      std: 0.0001
    }
    bias_filler {
      type: "constant"
    }
  }
}
layer {
  name: "relu1"
  type: "ReLU"
  bottom: "conv1"
  top: "conv1"
}
layer {
  name: "conv2"
  type: "Convolution"
  bottom: "conv1"
  top: "conv2"
  param {
    lr_mult: 1
  }
  param {
    lr_mult: 2
  }
  convolution_param {
    num_output: 64
    pad: 2
    kernel_size: 5
    stride: 1
    weight_filler {
      type: "gaussian"
      std: 0.01
    }
    bias_filler {
      type: "constant"
    }
  }
}
layer {
  name: "relu2"
  type: "ReLU"
  bottom: "conv2"
  top: "conv2"
}
layer {
  name: "pool2"
  type: "Pooling"
  bottom: "conv2"
  top: "pool2"
  pooling_param {
    pool: MAX
    kernel_size: 3
    stride: 2
  }
}
layer {
  name: "conv3"
  type: "Convolution"
  bottom: "pool2"
  top: "conv3"
  param {
    lr_mult: 1
  }
  param {
    lr_mult: 2
  }
  convolution_param {
    num_output: 64
    pad: 2
    kernel_size: 5
    stride: 1
    weight_filler {
      type: "gaussian"
      std: 0.01
    }
    bias_filler {
      type: "constant"
    }
  }
}
layer {
  name: "relu3"
  type: "ReLU"
  bottom: "conv3"
  top: "conv3"
}
layer {
  name: "conv4"
  type: "Convolution"
  bottom: "conv3"
  top: "conv4"
  param {
    lr_mult: 1
  }
  param {
    lr_mult: 2
  }
  convolution_param {
    num_output: 64
    pad: 2
    kernel_size: 5
    stride: 1
    weight_filler {
      type: "gaussian"
      std: 0.01
    }
    bias_filler {
      type: "constant"
    }
  }
}
layer {
  name: "relu4"
  type: "ReLU"
  bottom: "conv4"
  top: "conv4"
}
layer {
  name: "conv5"
  type: "Convolution"
  bottom: "conv4"
  top: "conv5"
  param {
    lr_mult: 1
  }
  param {
    lr_mult: 2
  }
  convolution_param {
    num_output: 64
    pad: 2
    kernel_size: 5
    stride: 1
    weight_filler {
      type: "gaussian"
      std: 0.01
    }
    bias_filler {
      type: "constant"
    }
  }
}
layer {
  name: "relu5"
  type: "ReLU"
  bottom: "conv5"
  top: "conv5"
}
layer {
  name: "pool5"
  type: "Pooling"
  bottom: "conv5"
  top: "pool5"
  pooling_param {
    pool: AVE
    kernel_size: 3
    stride: 2
  }
}
layer {
  name: "ip1"
  type: "InnerProduct"
  bottom: "pool5"
  top: "ip1"
  param {
    lr_mult: 1
  }
  param {
    lr_mult: 2
  }
  inner_product_param {
    num_output: 64
    weight_filler {
      type: "gaussian"
      std: 0.1
    }
    bias_filler {
      type: "constant"
    }
  }
}
layer {
  name: "ip2"
  type: "InnerProduct"
  bottom: "ip1"
  top: "ip2"
  param {
    lr_mult: 1
  }
  param {
    lr_mult: 2
  }
  inner_product_param {
    num_output: 64
    weight_filler {
      type: "gaussian"
      std: 0.1
    }
    bias_filler {
      type: "constant"
    }
  }
}
layer {
  name: "ip3"
  type: "InnerProduct"
  bottom: "ip2"
  top: "ip3"
  param {
    lr_mult: 1
  }
  param {
    lr_mult: 2
  }
  inner_product_param {
    num_output: 50
    weight_filler {
      type: "gaussian"
      std: 0.1
    }
    bias_filler {
      type: "constant"
    }
  }
}
layer {
  name: "loss"
  type: "SoftmaxWithLoss"
  bottom: "ip3"
  bottom: "label"
  top: "loss"
}
I0501 20:41:50.287402 14581 layer_factory.hpp:77] Creating layer parameters
I0501 20:41:50.287416 14581 net.cpp:94] Creating Layer parameters
I0501 20:41:50.287422 14581 net.cpp:409] parameters -> data
I0501 20:41:50.287441 14581 net.cpp:409] parameters -> label
I0501 20:41:50.287451 14581 hdf5_data_layer.cpp:79] Loading list of HDF5 filenames from: /home/purduethu/scratch/radon/d/deng106/CNNStatisticalModel/distributions/input/50_distributions_400_sample_size_train-distributions-path.txt
I0501 20:41:50.287473 14581 hdf5_data_layer.cpp:93] Number of HDF5 files: 1
I0501 20:41:50.287963 14581 hdf5.cpp:32] Datatype class: H5T_FLOAT
I0501 20:41:50.933874 14581 hdf5.cpp:35] Datatype class: H5T_INTEGER
I0501 20:41:50.936302 14581 net.cpp:144] Setting up parameters
I0501 20:41:50.936324 14581 net.cpp:151] Top shape: 20 1 20 20 (8000)
I0501 20:41:50.936331 14581 net.cpp:151] Top shape: 20 (20)
I0501 20:41:50.936334 14581 net.cpp:159] Memory required for data: 32080
I0501 20:41:50.936342 14581 layer_factory.hpp:77] Creating layer conv1
I0501 20:41:50.936367 14581 net.cpp:94] Creating Layer conv1
I0501 20:41:50.936372 14581 net.cpp:435] conv1 <- data
I0501 20:41:50.936383 14581 net.cpp:409] conv1 -> conv1
I0501 20:41:50.942911 14581 net.cpp:144] Setting up conv1
I0501 20:41:50.942929 14581 net.cpp:151] Top shape: 20 64 20 20 (512000)
I0501 20:41:50.942934 14581 net.cpp:159] Memory required for data: 2080080
I0501 20:41:50.942945 14581 layer_factory.hpp:77] Creating layer relu1
I0501 20:41:50.942955 14581 net.cpp:94] Creating Layer relu1
I0501 20:41:50.942958 14581 net.cpp:435] relu1 <- conv1
I0501 20:41:50.942963 14581 net.cpp:396] relu1 -> conv1 (in-place)
I0501 20:41:50.942981 14581 net.cpp:144] Setting up relu1
I0501 20:41:50.942986 14581 net.cpp:151] Top shape: 20 64 20 20 (512000)
I0501 20:41:50.942988 14581 net.cpp:159] Memory required for data: 4128080
I0501 20:41:50.942992 14581 layer_factory.hpp:77] Creating layer conv2
I0501 20:41:50.943001 14581 net.cpp:94] Creating Layer conv2
I0501 20:41:50.943004 14581 net.cpp:435] conv2 <- conv1
I0501 20:41:50.943009 14581 net.cpp:409] conv2 -> conv2
I0501 20:41:50.953011 14581 net.cpp:144] Setting up conv2
I0501 20:41:50.953025 14581 net.cpp:151] Top shape: 20 64 20 20 (512000)
I0501 20:41:50.953029 14581 net.cpp:159] Memory required for data: 6176080
I0501 20:41:50.953037 14581 layer_factory.hpp:77] Creating layer relu2
I0501 20:41:50.953044 14581 net.cpp:94] Creating Layer relu2
I0501 20:41:50.953048 14581 net.cpp:435] relu2 <- conv2
I0501 20:41:50.953053 14581 net.cpp:396] relu2 -> conv2 (in-place)
I0501 20:41:50.953060 14581 net.cpp:144] Setting up relu2
I0501 20:41:50.953064 14581 net.cpp:151] Top shape: 20 64 20 20 (512000)
I0501 20:41:50.953068 14581 net.cpp:159] Memory required for data: 8224080
I0501 20:41:50.953071 14581 layer_factory.hpp:77] Creating layer pool2
I0501 20:41:50.953085 14581 net.cpp:94] Creating Layer pool2
I0501 20:41:50.953089 14581 net.cpp:435] pool2 <- conv2
I0501 20:41:50.953094 14581 net.cpp:409] pool2 -> pool2
I0501 20:41:50.953135 14581 net.cpp:144] Setting up pool2
I0501 20:41:50.953143 14581 net.cpp:151] Top shape: 20 64 10 10 (128000)
I0501 20:41:50.953146 14581 net.cpp:159] Memory required for data: 8736080
I0501 20:41:50.953150 14581 layer_factory.hpp:77] Creating layer conv3
I0501 20:41:50.953157 14581 net.cpp:94] Creating Layer conv3
I0501 20:41:50.953161 14581 net.cpp:435] conv3 <- pool2
I0501 20:41:50.953174 14581 net.cpp:409] conv3 -> conv3
I0501 20:41:50.958222 14581 net.cpp:144] Setting up conv3
I0501 20:41:50.958236 14581 net.cpp:151] Top shape: 20 64 10 10 (128000)
I0501 20:41:50.958241 14581 net.cpp:159] Memory required for data: 9248080
I0501 20:41:50.958248 14581 layer_factory.hpp:77] Creating layer relu3
I0501 20:41:50.958254 14581 net.cpp:94] Creating Layer relu3
I0501 20:41:50.958258 14581 net.cpp:435] relu3 <- conv3
I0501 20:41:50.958262 14581 net.cpp:396] relu3 -> conv3 (in-place)
I0501 20:41:50.958269 14581 net.cpp:144] Setting up relu3
I0501 20:41:50.958273 14581 net.cpp:151] Top shape: 20 64 10 10 (128000)
I0501 20:41:50.958276 14581 net.cpp:159] Memory required for data: 9760080
I0501 20:41:50.958279 14581 layer_factory.hpp:77] Creating layer conv4
I0501 20:41:50.958288 14581 net.cpp:94] Creating Layer conv4
I0501 20:41:50.958292 14581 net.cpp:435] conv4 <- conv3
I0501 20:41:50.958297 14581 net.cpp:409] conv4 -> conv4
I0501 20:41:50.963402 14581 net.cpp:144] Setting up conv4
I0501 20:41:50.963415 14581 net.cpp:151] Top shape: 20 64 10 10 (128000)
I0501 20:41:50.963419 14581 net.cpp:159] Memory required for data: 10272080
I0501 20:41:50.963425 14581 layer_factory.hpp:77] Creating layer relu4
I0501 20:41:50.963431 14581 net.cpp:94] Creating Layer relu4
I0501 20:41:50.963434 14581 net.cpp:435] relu4 <- conv4
I0501 20:41:50.963439 14581 net.cpp:396] relu4 -> conv4 (in-place)
I0501 20:41:50.963446 14581 net.cpp:144] Setting up relu4
I0501 20:41:50.963450 14581 net.cpp:151] Top shape: 20 64 10 10 (128000)
I0501 20:41:50.963454 14581 net.cpp:159] Memory required for data: 10784080
I0501 20:41:50.963457 14581 layer_factory.hpp:77] Creating layer conv5
I0501 20:41:50.963465 14581 net.cpp:94] Creating Layer conv5
I0501 20:41:50.963469 14581 net.cpp:435] conv5 <- conv4
I0501 20:41:50.963474 14581 net.cpp:409] conv5 -> conv5
I0501 20:41:50.968564 14581 net.cpp:144] Setting up conv5
I0501 20:41:50.968578 14581 net.cpp:151] Top shape: 20 64 10 10 (128000)
I0501 20:41:50.968582 14581 net.cpp:159] Memory required for data: 11296080
I0501 20:41:50.968590 14581 layer_factory.hpp:77] Creating layer relu5
I0501 20:41:50.968596 14581 net.cpp:94] Creating Layer relu5
I0501 20:41:50.968600 14581 net.cpp:435] relu5 <- conv5
I0501 20:41:50.968605 14581 net.cpp:396] relu5 -> conv5 (in-place)
I0501 20:41:50.968611 14581 net.cpp:144] Setting up relu5
I0501 20:41:50.968616 14581 net.cpp:151] Top shape: 20 64 10 10 (128000)
I0501 20:41:50.968618 14581 net.cpp:159] Memory required for data: 11808080
I0501 20:41:50.968621 14581 layer_factory.hpp:77] Creating layer pool5
I0501 20:41:50.968626 14581 net.cpp:94] Creating Layer pool5
I0501 20:41:50.968629 14581 net.cpp:435] pool5 <- conv5
I0501 20:41:50.968633 14581 net.cpp:409] pool5 -> pool5
I0501 20:41:50.968667 14581 net.cpp:144] Setting up pool5
I0501 20:41:50.968673 14581 net.cpp:151] Top shape: 20 64 5 5 (32000)
I0501 20:41:50.968677 14581 net.cpp:159] Memory required for data: 11936080
I0501 20:41:50.968679 14581 layer_factory.hpp:77] Creating layer ip1
I0501 20:41:50.968689 14581 net.cpp:94] Creating Layer ip1
I0501 20:41:50.968693 14581 net.cpp:435] ip1 <- pool5
I0501 20:41:50.968696 14581 net.cpp:409] ip1 -> ip1
I0501 20:41:50.971129 14581 net.cpp:144] Setting up ip1
I0501 20:41:50.971137 14581 net.cpp:151] Top shape: 20 64 (1280)
I0501 20:41:50.971140 14581 net.cpp:159] Memory required for data: 11941200
I0501 20:41:50.971145 14581 layer_factory.hpp:77] Creating layer ip2
I0501 20:41:50.971154 14581 net.cpp:94] Creating Layer ip2
I0501 20:41:50.971158 14581 net.cpp:435] ip2 <- ip1
I0501 20:41:50.971163 14581 net.cpp:409] ip2 -> ip2
I0501 20:41:50.971321 14581 net.cpp:144] Setting up ip2
I0501 20:41:50.971328 14581 net.cpp:151] Top shape: 20 64 (1280)
I0501 20:41:50.971330 14581 net.cpp:159] Memory required for data: 11946320
I0501 20:41:50.971335 14581 layer_factory.hpp:77] Creating layer ip3
I0501 20:41:50.971340 14581 net.cpp:94] Creating Layer ip3
I0501 20:41:50.971344 14581 net.cpp:435] ip3 <- ip2
I0501 20:41:50.971349 14581 net.cpp:409] ip3 -> ip3
I0501 20:41:50.971489 14581 net.cpp:144] Setting up ip3
I0501 20:41:50.971496 14581 net.cpp:151] Top shape: 20 50 (1000)
I0501 20:41:50.971499 14581 net.cpp:159] Memory required for data: 11950320
I0501 20:41:50.971504 14581 layer_factory.hpp:77] Creating layer loss
I0501 20:41:50.971510 14581 net.cpp:94] Creating Layer loss
I0501 20:41:50.971513 14581 net.cpp:435] loss <- ip3
I0501 20:41:50.971518 14581 net.cpp:435] loss <- label
I0501 20:41:50.971521 14581 net.cpp:409] loss -> loss
I0501 20:41:50.971530 14581 layer_factory.hpp:77] Creating layer loss
…
I0501 20:41:50.972012 14581 solver.cpp:181] Creating test net (#0) specified by net file: ./protocol/dis_50_400_dimension.protocol_distribution
I0501 20:41:50.972038 14581 net.cpp:323] The NetState phase (1) differed from the phase (0) specified by a rule in layer parameters
I0501 20:41:50.972131 14581 net.cpp:52] Initializing net from parameters: 
state {
  phase: TEST
}
layer {
  name: "intercept"
  type: "HDF5Data"
  top: "data"
  top: "label"
  include {
    phase: TEST
  }
  hdf5_data_param {
    source: "/home/purduethu/scratch/radon/d/deng106/CNNStatisticalModel/distributions/input/50_distributions_400_sample_size_test-distributions-path.txt"
    batch_size: 20
  }
}
layer {
  name: "conv1"
  type: "Convolution"
  bottom: "data"
  top: "conv1"
  param {
    lr_mult: 1
  }
  param {
    lr_mult: 2
  }
  convolution_param {
    num_output: 64
    pad: 2
    kernel_size: 5
    stride: 1
    weight_filler {
      type: "gaussian"
      std: 0.0001
    }
    bias_filler {
      type: "constant"
    }
  }
}
layer {
  name: "relu1"
  type: "ReLU"
  bottom: "conv1"
  top: "conv1"
}
layer {
  name: "conv2"
  type: "Convolution"
  bottom: "conv1"
  top: "conv2"
  param {
    lr_mult: 1
  }
  param {
    lr_mult: 2
  }
  convolution_param {
    num_output: 64
    pad: 2
    kernel_size: 5
    stride: 1
    weight_filler {
      type: "gaussian"
      std: 0.01
    }
    bias_filler {
      type: "constant"
    }
  }
}
layer {
  name: "relu2"
  type: "ReLU"
  bottom: "conv2"
  top: "conv2"
}
layer {
  name: "pool2"
  type: "Pooling"
  bottom: "conv2"
  top: "pool2"
  pooling_param {
    pool: MAX
    kernel_size: 3
    stride: 2
  }
}
layer {
  name: "conv3"
  type: "Convolution"
  bottom: "pool2"
  top: "conv3"
  param {
    lr_mult: 1
  }
  param {
    lr_mult: 2
  }
  convolution_param {
    num_output: 64
    pad: 2
    kernel_size: 5
    stride: 1
    weight_filler {
      type: "gaussian"
      std: 0.01
    }
    bias_filler {
      type: "constant"
    }
  }
}
layer {
  name: "relu3"
  type: "ReLU"
  bottom: "conv3"
  top: "conv3"
}
layer {
  name: "conv4"
  type: "Convolution"
  bottom: "conv3"
  top: "conv4"
  param {
    lr_mult: 1
  }
  param {
    lr_mult: 2
  }
  convolution_param {
    num_output: 64
    pad: 2
    kernel_size: 5
    stride: 1
    weight_filler {
      type: "gaussian"
      std: 0.01
    }
    bias_filler {
      type: "constant"
    }
  }
}
layer {
  name: "relu4"
  type: "ReLU"
  bottom: "conv4"
  top: "conv4"
}
layer {
  name: "conv5"
  type: "Convolution"
  bottom: "conv4"
  top: "conv5"
  param {
    lr_mult: 1
  }
  param {
    lr_mult: 2
  }
  convolution_param {
    num_output: 64
    pad: 2
    kernel_size: 5
    stride: 1
    weight_filler {
      type: "gaussian"
      std: 0.01
    }
    bias_filler {
      type: "constant"
    }
  }
}
layer {
  name: "relu5"
  type: "ReLU"
  bottom: "conv5"
  top: "conv5"
}
layer {
  name: "pool5"
  type: "Pooling"
  bottom: "conv5"
  top: "pool5"
  pooling_param {
    pool: AVE
    kernel_size: 3
    stride: 2
  }
}
layer {
  name: "ip1"
  type: "InnerProduct"
  bottom: "pool5"
  top: "ip1"
  param {
    lr_mult: 1
  }
  param {
    lr_mult: 2
  }
  inner_product_param {
    num_output: 64
    weight_filler {
      type: "gaussian"
      std: 0.1
    }
    bias_filler {
      type: "constant"
    }
  }
}
layer {
  name: "ip2"
  type: "InnerProduct"
  bottom: "ip1"
  top: "ip2"
  param {
    lr_mult: 1
  }
  param {
    lr_mult: 2
  }
  inner_product_param {
    num_output: 64
    weight_filler {
      type: "gaussian"
      std: 0.1
    }
    bias_filler {
      type: "constant"
    }
  }
}
layer {
  name: "ip3"
  type: "InnerProduct"
  bottom: "ip2"
  top: "ip3"
  param {
    lr_mult: 1
  }
  param {
    lr_mult: 2
  }
  inner_product_param {
    num_output: 50
    weight_filler {
      type: "gaussian"
      std: 0.1
    }
    bias_filler {
      type: "constant"
    }
  }
}
layer {
  name: "accuracy"
  type: "Accuracy"
  bottom: "ip3"
  bottom: "label"
  top: "accuracy"
  include {
    phase: TEST
  }
}
layer {
  name: "loss"
  type: "SoftmaxWithLoss"
  bottom: "ip3"
  bottom: "label"
  top: "loss"
}
I0501 20:41:50.972200 14581 layer_factory.hpp:77] Creating layer intercept
I0501 20:41:50.972208 14581 net.cpp:94] Creating Layer intercept
I0501 20:41:50.972213 14581 net.cpp:409] intercept -> data
I0501 20:41:50.972219 14581 net.cpp:409] intercept -> label
I0501 20:41:50.972225 14581 hdf5_data_layer.cpp:79] Loading list of HDF5 filenames from: /home/purduethu/scratch/radon/d/deng106/CNNStatisticalModel/distributions/input/50_distributions_400_sample_size_test-distributions-path.txt
I0501 20:41:50.972244 14581 hdf5_data_layer.cpp:93] Number of HDF5 files: 1
I0501 20:41:51.132967 14581 net.cpp:144] Setting up intercept
I0501 20:41:51.132998 14581 net.cpp:151] Top shape: 20 1 20 20 (8000)
I0501 20:41:51.133003 14581 net.cpp:151] Top shape: 20 (20)
I0501 20:41:51.133008 14581 net.cpp:159] Memory required for data: 32080
I0501 20:41:51.133013 14581 layer_factory.hpp:77] Creating layer label_intercept_1_split
I0501 20:41:51.133029 14581 net.cpp:94] Creating Layer label_intercept_1_split
I0501 20:41:51.133034 14581 net.cpp:435] label_intercept_1_split <- label
I0501 20:41:51.133039 14581 net.cpp:409] label_intercept_1_split -> label_intercept_1_split_0
I0501 20:41:51.133049 14581 net.cpp:409] label_intercept_1_split -> label_intercept_1_split_1
I0501 20:41:51.133080 14581 net.cpp:144] Setting up label_intercept_1_split
I0501 20:41:51.133087 14581 net.cpp:151] Top shape: 20 (20)
I0501 20:41:51.133090 14581 net.cpp:151] Top shape: 20 (20)
I0501 20:41:51.133093 14581 net.cpp:159] Memory required for data: 32240
I0501 20:41:51.133097 14581 layer_factory.hpp:77] Creating layer conv1
I0501 20:41:51.133108 14581 net.cpp:94] Creating Layer conv1
I0501 20:41:51.133111 14581 net.cpp:435] conv1 <- data
I0501 20:41:51.133116 14581 net.cpp:409] conv1 -> conv1
I0501 20:41:51.134148 14581 net.cpp:144] Setting up conv1
I0501 20:41:51.134169 14581 net.cpp:151] Top shape: 20 64 20 20 (512000)
I0501 20:41:51.134173 14581 net.cpp:159] Memory required for data: 2080240
I0501 20:41:51.134182 14581 layer_factory.hpp:77] Creating layer relu1
I0501 20:41:51.134191 14581 net.cpp:94] Creating Layer relu1
I0501 20:41:51.134193 14581 net.cpp:435] relu1 <- conv1
I0501 20:41:51.134198 14581 net.cpp:396] relu1 -> conv1 (in-place)
I0501 20:41:51.134205 14581 net.cpp:144] Setting up relu1
I0501 20:41:51.134209 14581 net.cpp:151] Top shape: 20 64 20 20 (512000)
I0501 20:41:51.134213 14581 net.cpp:159] Memory required for data: 4128240
I0501 20:41:51.134217 14581 layer_factory.hpp:77] Creating layer conv2
I0501 20:41:51.134224 14581 net.cpp:94] Creating Layer conv2
I0501 20:41:51.134228 14581 net.cpp:435] conv2 <- conv1
I0501 20:41:51.134232 14581 net.cpp:409] conv2 -> conv2
I0501 20:41:51.138844 14581 net.cpp:144] Setting up conv2
I0501 20:41:51.138857 14581 net.cpp:151] Top shape: 20 64 20 20 (512000)
I0501 20:41:51.138861 14581 net.cpp:159] Memory required for data: 6176240
I0501 20:41:51.138870 14581 layer_factory.hpp:77] Creating layer relu2
I0501 20:41:51.138875 14581 net.cpp:94] Creating Layer relu2
I0501 20:41:51.138880 14581 net.cpp:435] relu2 <- conv2
I0501 20:41:51.138883 14581 net.cpp:396] relu2 -> conv2 (in-place)
I0501 20:41:51.138890 14581 net.cpp:144] Setting up relu2
I0501 20:41:51.138895 14581 net.cpp:151] Top shape: 20 64 20 20 (512000)
I0501 20:41:51.138897 14581 net.cpp:159] Memory required for data: 8224240
I0501 20:41:51.138900 14581 layer_factory.hpp:77] Creating layer pool2
I0501 20:41:51.138906 14581 net.cpp:94] Creating Layer pool2
I0501 20:41:51.138909 14581 net.cpp:435] pool2 <- conv2
I0501 20:41:51.138913 14581 net.cpp:409] pool2 -> pool2
I0501 20:41:51.138945 14581 net.cpp:144] Setting up pool2
I0501 20:41:51.138952 14581 net.cpp:151] Top shape: 20 64 10 10 (128000)
I0501 20:41:51.138954 14581 net.cpp:159] Memory required for data: 8736240
I0501 20:41:51.138957 14581 layer_factory.hpp:77] Creating layer conv3
I0501 20:41:51.138965 14581 net.cpp:94] Creating Layer conv3
I0501 20:41:51.138968 14581 net.cpp:435] conv3 <- pool2
I0501 20:41:51.138973 14581 net.cpp:409] conv3 -> conv3
I0501 20:41:51.142709 14581 net.cpp:144] Setting up conv3
I0501 20:41:51.142721 14581 net.cpp:151] Top shape: 20 64 10 10 (128000)
I0501 20:41:51.142725 14581 net.cpp:159] Memory required for data: 9248240
I0501 20:41:51.142734 14581 layer_factory.hpp:77] Creating layer relu3
I0501 20:41:51.142740 14581 net.cpp:94] Creating Layer relu3
I0501 20:41:51.142745 14581 net.cpp:435] relu3 <- conv3
I0501 20:41:51.142748 14581 net.cpp:396] relu3 -> conv3 (in-place)
I0501 20:41:51.142755 14581 net.cpp:144] Setting up relu3
I0501 20:41:51.142760 14581 net.cpp:151] Top shape: 20 64 10 10 (128000)
I0501 20:41:51.142763 14581 net.cpp:159] Memory required for data: 9760240
I0501 20:41:51.142766 14581 layer_factory.hpp:77] Creating layer conv4
I0501 20:41:51.142774 14581 net.cpp:94] Creating Layer conv4
I0501 20:41:51.142777 14581 net.cpp:435] conv4 <- conv3
I0501 20:41:51.142782 14581 net.cpp:409] conv4 -> conv4
I0501 20:41:51.146144 14581 net.cpp:144] Setting up conv4
I0501 20:41:51.146157 14581 net.cpp:151] Top shape: 20 64 10 10 (128000)
I0501 20:41:51.146162 14581 net.cpp:159] Memory required for data: 10272240
I0501 20:41:51.146167 14581 layer_factory.hpp:77] Creating layer relu4
I0501 20:41:51.146173 14581 net.cpp:94] Creating Layer relu4
I0501 20:41:51.146180 14581 net.cpp:435] relu4 <- conv4
I0501 20:41:51.146185 14581 net.cpp:396] relu4 -> conv4 (in-place)
I0501 20:41:51.146193 14581 net.cpp:144] Setting up relu4
I0501 20:41:51.146196 14581 net.cpp:151] Top shape: 20 64 10 10 (128000)
I0501 20:41:51.146200 14581 net.cpp:159] Memory required for data: 10784240
I0501 20:41:51.146203 14581 layer_factory.hpp:77] Creating layer conv5
I0501 20:41:51.146210 14581 net.cpp:94] Creating Layer conv5
I0501 20:41:51.146214 14581 net.cpp:435] conv5 <- conv4
I0501 20:41:51.146217 14581 net.cpp:409] conv5 -> conv5
I0501 20:41:51.149933 14581 net.cpp:144] Setting up conv5
I0501 20:41:51.149952 14581 net.cpp:151] Top shape: 20 64 10 10 (128000)
I0501 20:41:51.149956 14581 net.cpp:159] Memory required for data: 11296240
I0501 20:41:51.149966 14581 layer_factory.hpp:77] Creating layer relu5
I0501 20:41:51.149971 14581 net.cpp:94] Creating Layer relu5
I0501 20:41:51.149974 14581 net.cpp:435] relu5 <- conv5
I0501 20:41:51.149979 14581 net.cpp:396] relu5 -> conv5 (in-place)
I0501 20:41:51.149986 14581 net.cpp:144] Setting up relu5
I0501 20:41:51.149991 14581 net.cpp:151] Top shape: 20 64 10 10 (128000)
I0501 20:41:51.149993 14581 net.cpp:159] Memory required for data: 11808240
I0501 20:41:51.149996 14581 layer_factory.hpp:77] Creating layer pool5
I0501 20:41:51.150001 14581 net.cpp:94] Creating Layer pool5
I0501 20:41:51.150004 14581 net.cpp:435] pool5 <- conv5
I0501 20:41:51.150008 14581 net.cpp:409] pool5 -> pool5
I0501 20:41:51.150032 14581 net.cpp:144] Setting up pool5
I0501 20:41:51.150038 14581 net.cpp:151] Top shape: 20 64 5 5 (32000)
I0501 20:41:51.150041 14581 net.cpp:159] Memory required for data: 11936240
I0501 20:41:51.150044 14581 layer_factory.hpp:77] Creating layer ip1
I0501 20:41:51.150050 14581 net.cpp:94] Creating Layer ip1
I0501 20:41:51.150054 14581 net.cpp:435] ip1 <- pool5
I0501 20:41:51.150058 14581 net.cpp:409] ip1 -> ip1
I0501 20:41:51.158339 14581 net.cpp:144] Setting up ip1
I0501 20:41:51.158354 14581 net.cpp:151] Top shape: 20 64 (1280)
I0501 20:41:51.158357 14581 net.cpp:159] Memory required for data: 11941360
I0501 20:41:51.158363 14581 layer_factory.hpp:77] Creating layer ip2
I0501 20:41:51.158370 14581 net.cpp:94] Creating Layer ip2
I0501 20:41:51.158375 14581 net.cpp:435] ip2 <- ip1
I0501 20:41:51.158380 14581 net.cpp:409] ip2 -> ip2
I0501 20:41:51.158545 14581 net.cpp:144] Setting up ip2
I0501 20:41:51.158551 14581 net.cpp:151] Top shape: 20 64 (1280)
I0501 20:41:51.158555 14581 net.cpp:159] Memory required for data: 11946480
I0501 20:41:51.158560 14581 layer_factory.hpp:77] Creating layer ip3
I0501 20:41:51.158566 14581 net.cpp:94] Creating Layer ip3
I0501 20:41:51.158570 14581 net.cpp:435] ip3 <- ip2
I0501 20:41:51.158574 14581 net.cpp:409] ip3 -> ip3
I0501 20:41:51.158712 14581 net.cpp:144] Setting up ip3
I0501 20:41:51.158718 14581 net.cpp:151] Top shape: 20 50 (1000)
I0501 20:41:51.158721 14581 net.cpp:159] Memory required for data: 11950480
I0501 20:41:51.158726 14581 layer_factory.hpp:77] Creating layer ip3_ip3_0_split
I0501 20:41:51.158731 14581 net.cpp:94] Creating Layer ip3_ip3_0_split
I0501 20:41:51.158735 14581 net.cpp:435] ip3_ip3_0_split <- ip3
I0501 20:41:51.158738 14581 net.cpp:409] ip3_ip3_0_split -> ip3_ip3_0_split_0
I0501 20:41:51.158745 14581 net.cpp:409] ip3_ip3_0_split -> ip3_ip3_0_split_1
I0501 20:41:51.158766 14581 net.cpp:144] Setting up ip3_ip3_0_split
I0501 20:41:51.158771 14581 net.cpp:151] Top shape: 20 50 (1000)
I0501 20:41:51.158776 14581 net.cpp:151] Top shape: 20 50 (1000)
I0501 20:41:51.158778 14581 net.cpp:159] Memory required for data: 11958480
I0501 20:41:51.158782 14581 layer_factory.hpp:77] Creating layer accuracy
I0501 20:41:51.158792 14581 net.cpp:94] Creating Layer accuracy
I0501 20:41:51.158794 14581 net.cpp:435] accuracy <- ip3_ip3_0_split_0
I0501 20:41:51.158798 14581 net.cpp:435] accuracy <- label_intercept_1_split_0
I0501 20:41:51.158803 14581 net.cpp:409] accuracy -> accuracy
…
