…
I0505 09:43:51.747027  6086 net.cpp:323] The NetState phase (0) differed from the phase (1) specified by a rule in layer intercept
I0505 09:43:51.747041  6086 net.cpp:323] The NetState phase (0) differed from the phase (1) specified by a rule in layer accuracy
I0505 09:43:51.747120  6086 net.cpp:52] Initializing net from parameters: 
state {
  phase: TRAIN
}
layer {
  name: "parameters"
  type: "HDF5Data"
  top: "data"
  top: "label"
  include {
    phase: TRAIN
  }
  hdf5_data_param {
    source: "/home/purduethu/scratch/radon/d/deng106/CNNStatisticalModel/distributions/input/5_distributions_400_sample_size_train-distributions-path.txt"
    batch_size: 20
  }
}
layer {
  name: "conv1"
  type: "Convolution"
  bottom: "data"
  top: "conv1"
  param {
    lr_mult: 1
  }
  param {
    lr_mult: 2
  }
  convolution_param {
    num_output: 64
    pad: 2
    kernel_size: 5
    stride: 1
    weight_filler {
      type: "gaussian"
      std: 0.0001
    }
    bias_filler {
      type: "constant"
    }
  }
}
layer {
  name: "relu1"
  type: "ReLU"
  bottom: "conv1"
  top: "conv1"
}
layer {
  name: "pool1"
  type: "Pooling"
  bottom: "conv1"
  top: "pool1"
  pooling_param {
    pool: MAX
    kernel_size: 3
    stride: 2
  }
}
layer {
  name: "conv2"
  type: "Convolution"
  bottom: "pool1"
  top: "conv2"
  param {
    lr_mult: 1
  }
  param {
    lr_mult: 2
  }
  convolution_param {
    num_output: 128
    pad: 2
    kernel_size: 5
    stride: 1
    weight_filler {
      type: "gaussian"
      std: 0.01
    }
    bias_filler {
      type: "constant"
    }
  }
}
layer {
  name: "relu2"
  type: "ReLU"
  bottom: "conv2"
  top: "conv2"
}
layer {
  name: "conv3"
  type: "Convolution"
  bottom: "conv2"
  top: "conv3"
  param {
    lr_mult: 1
  }
  param {
    lr_mult: 2
  }
  convolution_param {
    num_output: 128
    pad: 2
    kernel_size: 5
    stride: 1
    weight_filler {
      type: "gaussian"
      std: 0.01
    }
    bias_filler {
      type: "constant"
    }
  }
}
layer {
  name: "relu3"
  type: "ReLU"
  bottom: "conv3"
  top: "conv3"
}
layer {
  name: "pool3"
  type: "Pooling"
  bottom: "conv3"
  top: "pool3"
  pooling_param {
    pool: AVE
    kernel_size: 3
    stride: 2
  }
}
layer {
  name: "ip1"
  type: "InnerProduct"
  bottom: "pool3"
  top: "ip1"
  param {
    lr_mult: 1
  }
  param {
    lr_mult: 2
  }
  inner_product_param {
    num_output: 512
    weight_filler {
      type: "gaussian"
      std: 0.1
    }
    bias_filler {
      type: "constant"
    }
  }
}
layer {
  name: "ip2"
  type: "InnerProduct"
  bottom: "ip1"
  top: "ip2"
  param {
    lr_mult: 1
  }
  param {
    lr_mult: 2
  }
  inner_product_param {
    num_output: 256
    weight_filler {
      type: "gaussian"
      std: 0.1
    }
    bias_filler {
      type: "constant"
    }
  }
}
layer {
  name: "ip3"
  type: "InnerProduct"
  bottom: "ip2"
  top: "ip3"
  param {
    lr_mult: 1
  }
  param {
    lr_mult: 2
  }
  inner_product_param {
    num_output: 50
    weight_filler {
      type: "gaussian"
      std: 0.1
    }
    bias_filler {
      type: "constant"
    }
  }
}
layer {
  name: "loss"
  type: "SoftmaxWithLoss"
  bottom: "ip3"
  bottom: "label"
  top: "loss"
}
I0505 09:43:51.747184  6086 layer_factory.hpp:77] Creating layer parameters
I0505 09:43:51.747198  6086 net.cpp:94] Creating Layer parameters
I0505 09:43:51.747205  6086 net.cpp:409] parameters -> data
I0505 09:43:51.747231  6086 net.cpp:409] parameters -> label
I0505 09:43:51.747242  6086 hdf5_data_layer.cpp:79] Loading list of HDF5 filenames from: /home/purduethu/scratch/radon/d/deng106/CNNStatisticalModel/distributions/input/5_distributions_400_sample_size_train-distributions-path.txt
I0505 09:43:51.747265  6086 hdf5_data_layer.cpp:93] Number of HDF5 files: 1
I0505 09:43:51.747736  6086 hdf5.cpp:32] Datatype class: H5T_FLOAT
I0505 09:43:51.810010  6086 hdf5.cpp:35] Datatype class: H5T_INTEGER
I0505 09:43:51.811146  6086 net.cpp:144] Setting up parameters
I0505 09:43:51.811167  6086 net.cpp:151] Top shape: 20 1 20 20 (8000)
I0505 09:43:51.811173  6086 net.cpp:151] Top shape: 20 (20)
I0505 09:43:51.811177  6086 net.cpp:159] Memory required for data: 32080
I0505 09:43:51.811184  6086 layer_factory.hpp:77] Creating layer conv1
I0505 09:43:51.811204  6086 net.cpp:94] Creating Layer conv1
I0505 09:43:51.811210  6086 net.cpp:435] conv1 <- data
I0505 09:43:51.811221  6086 net.cpp:409] conv1 -> conv1
I0505 09:43:51.815966  6086 net.cpp:144] Setting up conv1
I0505 09:43:51.815989  6086 net.cpp:151] Top shape: 20 64 20 20 (512000)
I0505 09:43:51.815992  6086 net.cpp:159] Memory required for data: 2080080
I0505 09:43:51.816005  6086 layer_factory.hpp:77] Creating layer relu1
I0505 09:43:51.816015  6086 net.cpp:94] Creating Layer relu1
I0505 09:43:51.816020  6086 net.cpp:435] relu1 <- conv1
I0505 09:43:51.816025  6086 net.cpp:396] relu1 -> conv1 (in-place)
I0505 09:43:51.816040  6086 net.cpp:144] Setting up relu1
I0505 09:43:51.816045  6086 net.cpp:151] Top shape: 20 64 20 20 (512000)
I0505 09:43:51.816047  6086 net.cpp:159] Memory required for data: 4128080
I0505 09:43:51.816051  6086 layer_factory.hpp:77] Creating layer pool1
I0505 09:43:51.816058  6086 net.cpp:94] Creating Layer pool1
I0505 09:43:51.816062  6086 net.cpp:435] pool1 <- conv1
I0505 09:43:51.816067  6086 net.cpp:409] pool1 -> pool1
I0505 09:43:51.816113  6086 net.cpp:144] Setting up pool1
I0505 09:43:51.816120  6086 net.cpp:151] Top shape: 20 64 10 10 (128000)
I0505 09:43:51.816124  6086 net.cpp:159] Memory required for data: 4640080
I0505 09:43:51.816128  6086 layer_factory.hpp:77] Creating layer conv2
I0505 09:43:51.816138  6086 net.cpp:94] Creating Layer conv2
I0505 09:43:51.816141  6086 net.cpp:435] conv2 <- pool1
I0505 09:43:51.816146  6086 net.cpp:409] conv2 -> conv2
I0505 09:43:51.826159  6086 net.cpp:144] Setting up conv2
I0505 09:43:51.826184  6086 net.cpp:151] Top shape: 20 128 10 10 (256000)
I0505 09:43:51.826189  6086 net.cpp:159] Memory required for data: 5664080
I0505 09:43:51.826200  6086 layer_factory.hpp:77] Creating layer relu2
I0505 09:43:51.826206  6086 net.cpp:94] Creating Layer relu2
I0505 09:43:51.826211  6086 net.cpp:435] relu2 <- conv2
I0505 09:43:51.826216  6086 net.cpp:396] relu2 -> conv2 (in-place)
I0505 09:43:51.826225  6086 net.cpp:144] Setting up relu2
I0505 09:43:51.826230  6086 net.cpp:151] Top shape: 20 128 10 10 (256000)
I0505 09:43:51.826232  6086 net.cpp:159] Memory required for data: 6688080
I0505 09:43:51.826236  6086 layer_factory.hpp:77] Creating layer conv3
I0505 09:43:51.826246  6086 net.cpp:94] Creating Layer conv3
I0505 09:43:51.826249  6086 net.cpp:435] conv3 <- conv2
I0505 09:43:51.826254  6086 net.cpp:409] conv3 -> conv3
I0505 09:43:51.843444  6086 net.cpp:144] Setting up conv3
I0505 09:43:51.843468  6086 net.cpp:151] Top shape: 20 128 10 10 (256000)
I0505 09:43:51.843473  6086 net.cpp:159] Memory required for data: 7712080
I0505 09:43:51.843485  6086 layer_factory.hpp:77] Creating layer relu3
I0505 09:43:51.843502  6086 net.cpp:94] Creating Layer relu3
I0505 09:43:51.843508  6086 net.cpp:435] relu3 <- conv3
I0505 09:43:51.843513  6086 net.cpp:396] relu3 -> conv3 (in-place)
I0505 09:43:51.843523  6086 net.cpp:144] Setting up relu3
I0505 09:43:51.843528  6086 net.cpp:151] Top shape: 20 128 10 10 (256000)
I0505 09:43:51.843531  6086 net.cpp:159] Memory required for data: 8736080
I0505 09:43:51.843534  6086 layer_factory.hpp:77] Creating layer pool3
I0505 09:43:51.843541  6086 net.cpp:94] Creating Layer pool3
I0505 09:43:51.843552  6086 net.cpp:435] pool3 <- conv3
I0505 09:43:51.843557  6086 net.cpp:409] pool3 -> pool3
I0505 09:43:51.843601  6086 net.cpp:144] Setting up pool3
I0505 09:43:51.843610  6086 net.cpp:151] Top shape: 20 128 5 5 (64000)
I0505 09:43:51.843612  6086 net.cpp:159] Memory required for data: 8992080
I0505 09:43:51.843616  6086 layer_factory.hpp:77] Creating layer ip1
I0505 09:43:51.843626  6086 net.cpp:94] Creating Layer ip1
I0505 09:43:51.843631  6086 net.cpp:435] ip1 <- pool3
I0505 09:43:51.843636  6086 net.cpp:409] ip1 -> ip1
I0505 09:43:51.885169  6086 net.cpp:144] Setting up ip1
I0505 09:43:51.885208  6086 net.cpp:151] Top shape: 20 512 (10240)
I0505 09:43:51.885212  6086 net.cpp:159] Memory required for data: 9033040
I0505 09:43:51.885221  6086 layer_factory.hpp:77] Creating layer ip2
I0505 09:43:51.885232  6086 net.cpp:94] Creating Layer ip2
I0505 09:43:51.885237  6086 net.cpp:435] ip2 <- ip1
I0505 09:43:51.885244  6086 net.cpp:409] ip2 -> ip2
I0505 09:43:51.888531  6086 net.cpp:144] Setting up ip2
I0505 09:43:51.888540  6086 net.cpp:151] Top shape: 20 256 (5120)
I0505 09:43:51.888543  6086 net.cpp:159] Memory required for data: 9053520
I0505 09:43:51.888556  6086 layer_factory.hpp:77] Creating layer ip3
I0505 09:43:51.888562  6086 net.cpp:94] Creating Layer ip3
I0505 09:43:51.888566  6086 net.cpp:435] ip3 <- ip2
I0505 09:43:51.888571  6086 net.cpp:409] ip3 -> ip3
I0505 09:43:51.889725  6086 net.cpp:144] Setting up ip3
I0505 09:43:51.889739  6086 net.cpp:151] Top shape: 20 50 (1000)
I0505 09:43:51.889744  6086 net.cpp:159] Memory required for data: 9057520
I0505 09:43:51.889750  6086 layer_factory.hpp:77] Creating layer loss
I0505 09:43:51.889756  6086 net.cpp:94] Creating Layer loss
I0505 09:43:51.889760  6086 net.cpp:435] loss <- ip3
I0505 09:43:51.889765  6086 net.cpp:435] loss <- label
I0505 09:43:51.889771  6086 net.cpp:409] loss -> loss
I0505 09:43:51.889783  6086 layer_factory.hpp:77] Creating layer loss
…
I0505 09:43:51.890223  6086 solver.cpp:181] Creating test net (#0) specified by net file: ./protocol/dis_5_400_dimension.protocol_distribution
I0505 09:43:51.890247  6086 net.cpp:323] The NetState phase (1) differed from the phase (0) specified by a rule in layer parameters
I0505 09:43:51.890341  6086 net.cpp:52] Initializing net from parameters: 
state {
  phase: TEST
}
layer {
  name: "intercept"
  type: "HDF5Data"
  top: "data"
  top: "label"
  include {
    phase: TEST
  }
  hdf5_data_param {
    source: "/home/purduethu/scratch/radon/d/deng106/CNNStatisticalModel/distributions/input/5_distributions_400_sample_size_test-distributions-path.txt"
    batch_size: 20
  }
}
layer {
  name: "conv1"
  type: "Convolution"
  bottom: "data"
  top: "conv1"
  param {
    lr_mult: 1
  }
  param {
    lr_mult: 2
  }
  convolution_param {
    num_output: 64
    pad: 2
    kernel_size: 5
    stride: 1
    weight_filler {
      type: "gaussian"
      std: 0.0001
    }
    bias_filler {
      type: "constant"
    }
  }
}
layer {
  name: "relu1"
  type: "ReLU"
  bottom: "conv1"
  top: "conv1"
}
layer {
  name: "pool1"
  type: "Pooling"
  bottom: "conv1"
  top: "pool1"
  pooling_param {
    pool: MAX
    kernel_size: 3
    stride: 2
  }
}
layer {
  name: "conv2"
  type: "Convolution"
  bottom: "pool1"
  top: "conv2"
  param {
    lr_mult: 1
  }
  param {
    lr_mult: 2
  }
  convolution_param {
    num_output: 128
    pad: 2
    kernel_size: 5
    stride: 1
    weight_filler {
      type: "gaussian"
      std: 0.01
    }
    bias_filler {
      type: "constant"
    }
  }
}
layer {
  name: "relu2"
  type: "ReLU"
  bottom: "conv2"
  top: "conv2"
}
layer {
  name: "conv3"
  type: "Convolution"
  bottom: "conv2"
  top: "conv3"
  param {
    lr_mult: 1
  }
  param {
    lr_mult: 2
  }
  convolution_param {
    num_output: 128
    pad: 2
    kernel_size: 5
    stride: 1
    weight_filler {
      type: "gaussian"
      std: 0.01
    }
    bias_filler {
      type: "constant"
    }
  }
}
layer {
  name: "relu3"
  type: "ReLU"
  bottom: "conv3"
  top: "conv3"
}
layer {
  name: "pool3"
  type: "Pooling"
  bottom: "conv3"
  top: "pool3"
  pooling_param {
    pool: AVE
    kernel_size: 3
    stride: 2
  }
}
layer {
  name: "ip1"
  type: "InnerProduct"
  bottom: "pool3"
  top: "ip1"
  param {
    lr_mult: 1
  }
  param {
    lr_mult: 2
  }
  inner_product_param {
    num_output: 512
    weight_filler {
      type: "gaussian"
      std: 0.1
    }
    bias_filler {
      type: "constant"
    }
  }
}
layer {
  name: "ip2"
  type: "InnerProduct"
  bottom: "ip1"
  top: "ip2"
  param {
    lr_mult: 1
  }
  param {
    lr_mult: 2
  }
  inner_product_param {
    num_output: 256
    weight_filler {
      type: "gaussian"
      std: 0.1
    }
    bias_filler {
      type: "constant"
    }
  }
}
layer {
  name: "ip3"
  type: "InnerProduct"
  bottom: "ip2"
  top: "ip3"
  param {
    lr_mult: 1
  }
  param {
    lr_mult: 2
  }
  inner_product_param {
    num_output: 50
    weight_filler {
      type: "gaussian"
      std: 0.1
    }
    bias_filler {
      type: "constant"
    }
  }
}
layer {
  name: "accuracy"
  type: "Accuracy"
  bottom: "ip3"
  bottom: "label"
  top: "accuracy"
  include {
    phase: TEST
  }
}
layer {
  name: "loss"
  type: "SoftmaxWithLoss"
  bottom: "ip3"
  bottom: "label"
  top: "loss"
}
I0505 09:43:51.890408  6086 layer_factory.hpp:77] Creating layer intercept
I0505 09:43:51.890415  6086 net.cpp:94] Creating Layer intercept
I0505 09:43:51.890420  6086 net.cpp:409] intercept -> data
I0505 09:43:51.890427  6086 net.cpp:409] intercept -> label
I0505 09:43:51.890434  6086 hdf5_data_layer.cpp:79] Loading list of HDF5 filenames from: /home/purduethu/scratch/radon/d/deng106/CNNStatisticalModel/distributions/input/5_distributions_400_sample_size_test-distributions-path.txt
I0505 09:43:51.890453  6086 hdf5_data_layer.cpp:93] Number of HDF5 files: 1
I0505 09:43:51.906486  6086 net.cpp:144] Setting up intercept
I0505 09:43:51.906522  6086 net.cpp:151] Top shape: 20 1 20 20 (8000)
I0505 09:43:51.906527  6086 net.cpp:151] Top shape: 20 (20)
I0505 09:43:51.906532  6086 net.cpp:159] Memory required for data: 32080
I0505 09:43:51.906538  6086 layer_factory.hpp:77] Creating layer label_intercept_1_split
I0505 09:43:51.906556  6086 net.cpp:94] Creating Layer label_intercept_1_split
I0505 09:43:51.906571  6086 net.cpp:435] label_intercept_1_split <- label
I0505 09:43:51.906579  6086 net.cpp:409] label_intercept_1_split -> label_intercept_1_split_0
I0505 09:43:51.906587  6086 net.cpp:409] label_intercept_1_split -> label_intercept_1_split_1
I0505 09:43:51.906615  6086 net.cpp:144] Setting up label_intercept_1_split
I0505 09:43:51.906621  6086 net.cpp:151] Top shape: 20 (20)
I0505 09:43:51.906625  6086 net.cpp:151] Top shape: 20 (20)
I0505 09:43:51.906630  6086 net.cpp:159] Memory required for data: 32240
I0505 09:43:51.906639  6086 layer_factory.hpp:77] Creating layer conv1
I0505 09:43:51.906651  6086 net.cpp:94] Creating Layer conv1
I0505 09:43:51.906656  6086 net.cpp:435] conv1 <- data
I0505 09:43:51.906661  6086 net.cpp:409] conv1 -> conv1
I0505 09:43:51.907284  6086 net.cpp:144] Setting up conv1
I0505 09:43:51.907299  6086 net.cpp:151] Top shape: 20 64 20 20 (512000)
I0505 09:43:51.907302  6086 net.cpp:159] Memory required for data: 2080240
I0505 09:43:51.907311  6086 layer_factory.hpp:77] Creating layer relu1
I0505 09:43:51.907318  6086 net.cpp:94] Creating Layer relu1
I0505 09:43:51.907322  6086 net.cpp:435] relu1 <- conv1
I0505 09:43:51.907327  6086 net.cpp:396] relu1 -> conv1 (in-place)
I0505 09:43:51.907335  6086 net.cpp:144] Setting up relu1
I0505 09:43:51.907340  6086 net.cpp:151] Top shape: 20 64 20 20 (512000)
I0505 09:43:51.907342  6086 net.cpp:159] Memory required for data: 4128240
I0505 09:43:51.907346  6086 layer_factory.hpp:77] Creating layer pool1
I0505 09:43:51.907353  6086 net.cpp:94] Creating Layer pool1
I0505 09:43:51.907356  6086 net.cpp:435] pool1 <- conv1
I0505 09:43:51.907361  6086 net.cpp:409] pool1 -> pool1
I0505 09:43:51.907394  6086 net.cpp:144] Setting up pool1
I0505 09:43:51.907400  6086 net.cpp:151] Top shape: 20 64 10 10 (128000)
I0505 09:43:51.907404  6086 net.cpp:159] Memory required for data: 4640240
I0505 09:43:51.907407  6086 layer_factory.hpp:77] Creating layer conv2
I0505 09:43:51.907415  6086 net.cpp:94] Creating Layer conv2
I0505 09:43:51.907419  6086 net.cpp:435] conv2 <- pool1
I0505 09:43:51.907424  6086 net.cpp:409] conv2 -> conv2
I0505 09:43:51.914726  6086 net.cpp:144] Setting up conv2
I0505 09:43:51.914746  6086 net.cpp:151] Top shape: 20 128 10 10 (256000)
I0505 09:43:51.914750  6086 net.cpp:159] Memory required for data: 5664240
I0505 09:43:51.914759  6086 layer_factory.hpp:77] Creating layer relu2
I0505 09:43:51.914767  6086 net.cpp:94] Creating Layer relu2
I0505 09:43:51.914772  6086 net.cpp:435] relu2 <- conv2
I0505 09:43:51.914777  6086 net.cpp:396] relu2 -> conv2 (in-place)
I0505 09:43:51.914784  6086 net.cpp:144] Setting up relu2
I0505 09:43:51.914789  6086 net.cpp:151] Top shape: 20 128 10 10 (256000)
I0505 09:43:51.914793  6086 net.cpp:159] Memory required for data: 6688240
I0505 09:43:51.914796  6086 layer_factory.hpp:77] Creating layer conv3
I0505 09:43:51.914804  6086 net.cpp:94] Creating Layer conv3
I0505 09:43:51.914808  6086 net.cpp:435] conv3 <- conv2
I0505 09:43:51.914813  6086 net.cpp:409] conv3 -> conv3
I0505 09:43:51.928315  6086 net.cpp:144] Setting up conv3
I0505 09:43:51.928344  6086 net.cpp:151] Top shape: 20 128 10 10 (256000)
I0505 09:43:51.928347  6086 net.cpp:159] Memory required for data: 7712240
I0505 09:43:51.928357  6086 layer_factory.hpp:77] Creating layer relu3
I0505 09:43:51.928369  6086 net.cpp:94] Creating Layer relu3
I0505 09:43:51.928372  6086 net.cpp:435] relu3 <- conv3
I0505 09:43:51.928378  6086 net.cpp:396] relu3 -> conv3 (in-place)
I0505 09:43:51.928387  6086 net.cpp:144] Setting up relu3
I0505 09:43:51.928391  6086 net.cpp:151] Top shape: 20 128 10 10 (256000)
I0505 09:43:51.928395  6086 net.cpp:159] Memory required for data: 8736240
I0505 09:43:51.928398  6086 layer_factory.hpp:77] Creating layer pool3
I0505 09:43:51.928405  6086 net.cpp:94] Creating Layer pool3
I0505 09:43:51.928407  6086 net.cpp:435] pool3 <- conv3
I0505 09:43:51.928412  6086 net.cpp:409] pool3 -> pool3
I0505 09:43:51.928444  6086 net.cpp:144] Setting up pool3
I0505 09:43:51.928452  6086 net.cpp:151] Top shape: 20 128 5 5 (64000)
I0505 09:43:51.928460  6086 net.cpp:159] Memory required for data: 8992240
I0505 09:43:51.928464  6086 layer_factory.hpp:77] Creating layer ip1
I0505 09:43:51.928472  6086 net.cpp:94] Creating Layer ip1
I0505 09:43:51.928475  6086 net.cpp:435] ip1 <- pool3
I0505 09:43:51.928480  6086 net.cpp:409] ip1 -> ip1
I0505 09:43:51.969908  6086 net.cpp:144] Setting up ip1
I0505 09:43:51.969945  6086 net.cpp:151] Top shape: 20 512 (10240)
I0505 09:43:51.969949  6086 net.cpp:159] Memory required for data: 9033200
I0505 09:43:51.969971  6086 layer_factory.hpp:77] Creating layer ip2
I0505 09:43:51.969982  6086 net.cpp:94] Creating Layer ip2
I0505 09:43:51.969986  6086 net.cpp:435] ip2 <- ip1
I0505 09:43:51.969993  6086 net.cpp:409] ip2 -> ip2
I0505 09:43:51.973279  6086 net.cpp:144] Setting up ip2
I0505 09:43:51.973287  6086 net.cpp:151] Top shape: 20 256 (5120)
I0505 09:43:51.973291  6086 net.cpp:159] Memory required for data: 9053680
I0505 09:43:51.973300  6086 layer_factory.hpp:77] Creating layer ip3
I0505 09:43:51.973306  6086 net.cpp:94] Creating Layer ip3
I0505 09:43:51.973310  6086 net.cpp:435] ip3 <- ip2
I0505 09:43:51.973315  6086 net.cpp:409] ip3 -> ip3
I0505 09:43:51.973708  6086 net.cpp:144] Setting up ip3
I0505 09:43:51.973716  6086 net.cpp:151] Top shape: 20 50 (1000)
I0505 09:43:51.973718  6086 net.cpp:159] Memory required for data: 9057680
I0505 09:43:51.973723  6086 layer_factory.hpp:77] Creating layer ip3_ip3_0_split
I0505 09:43:51.973729  6086 net.cpp:94] Creating Layer ip3_ip3_0_split
I0505 09:43:51.973732  6086 net.cpp:435] ip3_ip3_0_split <- ip3
I0505 09:43:51.973737  6086 net.cpp:409] ip3_ip3_0_split -> ip3_ip3_0_split_0
I0505 09:43:51.973742  6086 net.cpp:409] ip3_ip3_0_split -> ip3_ip3_0_split_1
I0505 09:43:51.973768  6086 net.cpp:144] Setting up ip3_ip3_0_split
I0505 09:43:51.973773  6086 net.cpp:151] Top shape: 20 50 (1000)
I0505 09:43:51.973778  6086 net.cpp:151] Top shape: 20 50 (1000)
I0505 09:43:51.973780  6086 net.cpp:159] Memory required for data: 9065680
I0505 09:43:51.973784  6086 layer_factory.hpp:77] Creating layer accuracy
I0505 09:43:51.973790  6086 net.cpp:94] Creating Layer accuracy
I0505 09:43:51.973793  6086 net.cpp:435] accuracy <- ip3_ip3_0_split_0
I0505 09:43:51.973798  6086 net.cpp:435] accuracy <- label_intercept_1_split_0
I0505 09:43:51.973803  6086 net.cpp:409] accuracy -> accuracy
…
