…
I0502 20:11:53.146013 13038 net.cpp:323] The NetState phase (0) differed from the phase (1) specified by a rule in layer intercept
I0502 20:11:53.146028 13038 net.cpp:323] The NetState phase (0) differed from the phase (1) specified by a rule in layer accuracy
I0502 20:11:53.146121 13038 net.cpp:52] Initializing net from parameters: 
state {
  phase: TRAIN
}
layer {
  name: "parameters"
  type: "HDF5Data"
  top: "data"
  top: "label"
  include {
    phase: TRAIN
  }
  hdf5_data_param {
    source: "/home/purduethu/scratch/radon/d/deng106/CNNStatisticalModel/distributions/input/5_distributions_400_sample_size_train-distributions-path.txt"
    batch_size: 20
  }
}
layer {
  name: "conv1"
  type: "Convolution"
  bottom: "data"
  top: "conv1"
  param {
    lr_mult: 1
  }
  param {
    lr_mult: 2
  }
  convolution_param {
    num_output: 64
    pad: 2
    kernel_size: 5
    stride: 1
    weight_filler {
      type: "gaussian"
      std: 0.0001
    }
    bias_filler {
      type: "constant"
    }
  }
}
layer {
  name: "relu1"
  type: "ReLU"
  bottom: "conv1"
  top: "conv1"
}
layer {
  name: "conv2"
  type: "Convolution"
  bottom: "conv1"
  top: "conv2"
  param {
    lr_mult: 1
  }
  param {
    lr_mult: 2
  }
  convolution_param {
    num_output: 64
    pad: 2
    kernel_size: 5
    stride: 1
    weight_filler {
      type: "gaussian"
      std: 0.01
    }
    bias_filler {
      type: "constant"
    }
  }
}
layer {
  name: "relu2"
  type: "ReLU"
  bottom: "conv2"
  top: "conv2"
}
layer {
  name: "pool2"
  type: "Pooling"
  bottom: "conv2"
  top: "pool2"
  pooling_param {
    pool: MAX
    kernel_size: 3
    stride: 2
  }
}
layer {
  name: "conv3"
  type: "Convolution"
  bottom: "pool2"
  top: "conv3"
  param {
    lr_mult: 1
  }
  param {
    lr_mult: 2
  }
  convolution_param {
    num_output: 64
    pad: 2
    kernel_size: 5
    stride: 1
    weight_filler {
      type: "gaussian"
      std: 0.01
    }
    bias_filler {
      type: "constant"
    }
  }
}
layer {
  name: "relu3"
  type: "ReLU"
  bottom: "conv3"
  top: "conv3"
}
layer {
  name: "conv4"
  type: "Convolution"
  bottom: "conv3"
  top: "conv4"
  param {
    lr_mult: 1
  }
  param {
    lr_mult: 2
  }
  convolution_param {
    num_output: 64
    pad: 2
    kernel_size: 5
    stride: 1
    weight_filler {
      type: "gaussian"
      std: 0.01
    }
    bias_filler {
      type: "constant"
    }
  }
}
layer {
  name: "relu4"
  type: "ReLU"
  bottom: "conv4"
  top: "conv4"
}
layer {
  name: "conv5"
  type: "Convolution"
  bottom: "conv4"
  top: "conv5"
  param {
    lr_mult: 1
  }
  param {
    lr_mult: 2
  }
  convolution_param {
    num_output: 64
    pad: 2
    kernel_size: 5
    stride: 1
    weight_filler {
      type: "gaussian"
      std: 0.01
    }
    bias_filler {
      type: "constant"
    }
  }
}
layer {
  name: "relu5"
  type: "ReLU"
  bottom: "conv5"
  top: "conv5"
}
layer {
  name: "pool5"
  type: "Pooling"
  bottom: "conv5"
  top: "pool5"
  pooling_param {
    pool: AVE
    kernel_size: 3
    stride: 2
  }
}
layer {
  name: "ip1"
  type: "InnerProduct"
  bottom: "pool5"
  top: "ip1"
  param {
    lr_mult: 1
  }
  param {
    lr_mult: 2
  }
  inner_product_param {
    num_output: 64
    weight_filler {
      type: "gaussian"
      std: 0.1
    }
    bias_filler {
      type: "constant"
    }
  }
}
layer {
  name: "ip2"
  type: "InnerProduct"
  bottom: "ip1"
  top: "ip2"
  param {
    lr_mult: 1
  }
  param {
    lr_mult: 2
  }
  inner_product_param {
    num_output: 64
    weight_filler {
      type: "gaussian"
      std: 0.1
    }
    bias_filler {
      type: "constant"
    }
  }
}
layer {
  name: "ip3"
  type: "InnerProduct"
  bottom: "ip2"
  top: "ip3"
  param {
    lr_mult: 1
  }
  param {
    lr_mult: 2
  }
  inner_product_param {
    num_output: 50
    weight_filler {
      type: "gaussian"
      std: 0.1
    }
    bias_filler {
      type: "constant"
    }
  }
}
layer {
  name: "loss"
  type: "SoftmaxWithLoss"
  bottom: "ip3"
  bottom: "label"
  top: "loss"
}
I0502 20:11:53.146195 13038 layer_factory.hpp:77] Creating layer parameters
I0502 20:11:53.146210 13038 net.cpp:94] Creating Layer parameters
I0502 20:11:53.146216 13038 net.cpp:409] parameters -> data
I0502 20:11:53.146235 13038 net.cpp:409] parameters -> label
I0502 20:11:53.146245 13038 hdf5_data_layer.cpp:79] Loading list of HDF5 filenames from: /home/purduethu/scratch/radon/d/deng106/CNNStatisticalModel/distributions/input/5_distributions_400_sample_size_train-distributions-path.txt
I0502 20:11:53.146266 13038 hdf5_data_layer.cpp:93] Number of HDF5 files: 1
I0502 20:11:53.146721 13038 hdf5.cpp:32] Datatype class: H5T_FLOAT
I0502 20:11:53.209445 13038 hdf5.cpp:35] Datatype class: H5T_INTEGER
I0502 20:11:53.210628 13038 net.cpp:144] Setting up parameters
I0502 20:11:53.210645 13038 net.cpp:151] Top shape: 20 1 20 20 (8000)
I0502 20:11:53.210650 13038 net.cpp:151] Top shape: 20 (20)
I0502 20:11:53.210654 13038 net.cpp:159] Memory required for data: 32080
I0502 20:11:53.210662 13038 layer_factory.hpp:77] Creating layer conv1
I0502 20:11:53.210680 13038 net.cpp:94] Creating Layer conv1
I0502 20:11:53.210686 13038 net.cpp:435] conv1 <- data
I0502 20:11:53.210697 13038 net.cpp:409] conv1 -> conv1
I0502 20:11:53.216645 13038 net.cpp:144] Setting up conv1
I0502 20:11:53.216660 13038 net.cpp:151] Top shape: 20 64 20 20 (512000)
I0502 20:11:53.216665 13038 net.cpp:159] Memory required for data: 2080080
I0502 20:11:53.216675 13038 layer_factory.hpp:77] Creating layer relu1
I0502 20:11:53.216683 13038 net.cpp:94] Creating Layer relu1
I0502 20:11:53.216687 13038 net.cpp:435] relu1 <- conv1
I0502 20:11:53.216692 13038 net.cpp:396] relu1 -> conv1 (in-place)
I0502 20:11:53.216709 13038 net.cpp:144] Setting up relu1
I0502 20:11:53.216714 13038 net.cpp:151] Top shape: 20 64 20 20 (512000)
I0502 20:11:53.216717 13038 net.cpp:159] Memory required for data: 4128080
I0502 20:11:53.216720 13038 layer_factory.hpp:77] Creating layer conv2
I0502 20:11:53.216728 13038 net.cpp:94] Creating Layer conv2
I0502 20:11:53.216732 13038 net.cpp:435] conv2 <- conv1
I0502 20:11:53.216737 13038 net.cpp:409] conv2 -> conv2
I0502 20:11:53.232714 13038 net.cpp:144] Setting up conv2
I0502 20:11:53.232729 13038 net.cpp:151] Top shape: 20 64 20 20 (512000)
I0502 20:11:53.232733 13038 net.cpp:159] Memory required for data: 6176080
I0502 20:11:53.232743 13038 layer_factory.hpp:77] Creating layer relu2
I0502 20:11:53.232749 13038 net.cpp:94] Creating Layer relu2
I0502 20:11:53.232753 13038 net.cpp:435] relu2 <- conv2
I0502 20:11:53.232758 13038 net.cpp:396] relu2 -> conv2 (in-place)
I0502 20:11:53.232765 13038 net.cpp:144] Setting up relu2
I0502 20:11:53.232769 13038 net.cpp:151] Top shape: 20 64 20 20 (512000)
I0502 20:11:53.232772 13038 net.cpp:159] Memory required for data: 8224080
I0502 20:11:53.232775 13038 layer_factory.hpp:77] Creating layer pool2
I0502 20:11:53.232789 13038 net.cpp:94] Creating Layer pool2
I0502 20:11:53.232795 13038 net.cpp:435] pool2 <- conv2
I0502 20:11:53.232798 13038 net.cpp:409] pool2 -> pool2
I0502 20:11:53.232841 13038 net.cpp:144] Setting up pool2
I0502 20:11:53.232848 13038 net.cpp:151] Top shape: 20 64 10 10 (128000)
I0502 20:11:53.232852 13038 net.cpp:159] Memory required for data: 8736080
I0502 20:11:53.232856 13038 layer_factory.hpp:77] Creating layer conv3
I0502 20:11:53.232863 13038 net.cpp:94] Creating Layer conv3
I0502 20:11:53.232867 13038 net.cpp:435] conv3 <- pool2
I0502 20:11:53.232878 13038 net.cpp:409] conv3 -> conv3
I0502 20:11:53.238875 13038 net.cpp:144] Setting up conv3
I0502 20:11:53.238890 13038 net.cpp:151] Top shape: 20 64 10 10 (128000)
I0502 20:11:53.238894 13038 net.cpp:159] Memory required for data: 9248080
I0502 20:11:53.238903 13038 layer_factory.hpp:77] Creating layer relu3
I0502 20:11:53.238909 13038 net.cpp:94] Creating Layer relu3
I0502 20:11:53.238912 13038 net.cpp:435] relu3 <- conv3
I0502 20:11:53.238917 13038 net.cpp:396] relu3 -> conv3 (in-place)
I0502 20:11:53.238925 13038 net.cpp:144] Setting up relu3
I0502 20:11:53.238929 13038 net.cpp:151] Top shape: 20 64 10 10 (128000)
I0502 20:11:53.238932 13038 net.cpp:159] Memory required for data: 9760080
I0502 20:11:53.238935 13038 layer_factory.hpp:77] Creating layer conv4
I0502 20:11:53.238945 13038 net.cpp:94] Creating Layer conv4
I0502 20:11:53.238947 13038 net.cpp:435] conv4 <- conv3
I0502 20:11:53.238952 13038 net.cpp:409] conv4 -> conv4
I0502 20:11:53.246392 13038 net.cpp:144] Setting up conv4
I0502 20:11:53.246407 13038 net.cpp:151] Top shape: 20 64 10 10 (128000)
I0502 20:11:53.246410 13038 net.cpp:159] Memory required for data: 10272080
I0502 20:11:53.246417 13038 layer_factory.hpp:77] Creating layer relu4
I0502 20:11:53.246423 13038 net.cpp:94] Creating Layer relu4
I0502 20:11:53.246428 13038 net.cpp:435] relu4 <- conv4
I0502 20:11:53.246433 13038 net.cpp:396] relu4 -> conv4 (in-place)
I0502 20:11:53.246439 13038 net.cpp:144] Setting up relu4
I0502 20:11:53.246444 13038 net.cpp:151] Top shape: 20 64 10 10 (128000)
I0502 20:11:53.246448 13038 net.cpp:159] Memory required for data: 10784080
I0502 20:11:53.246450 13038 layer_factory.hpp:77] Creating layer conv5
I0502 20:11:53.246459 13038 net.cpp:94] Creating Layer conv5
I0502 20:11:53.246461 13038 net.cpp:435] conv5 <- conv4
I0502 20:11:53.246466 13038 net.cpp:409] conv5 -> conv5
I0502 20:11:53.252583 13038 net.cpp:144] Setting up conv5
I0502 20:11:53.252598 13038 net.cpp:151] Top shape: 20 64 10 10 (128000)
I0502 20:11:53.252601 13038 net.cpp:159] Memory required for data: 11296080
I0502 20:11:53.252610 13038 layer_factory.hpp:77] Creating layer relu5
I0502 20:11:53.252616 13038 net.cpp:94] Creating Layer relu5
I0502 20:11:53.252620 13038 net.cpp:435] relu5 <- conv5
I0502 20:11:53.252625 13038 net.cpp:396] relu5 -> conv5 (in-place)
I0502 20:11:53.252632 13038 net.cpp:144] Setting up relu5
I0502 20:11:53.252637 13038 net.cpp:151] Top shape: 20 64 10 10 (128000)
I0502 20:11:53.252640 13038 net.cpp:159] Memory required for data: 11808080
I0502 20:11:53.252643 13038 layer_factory.hpp:77] Creating layer pool5
I0502 20:11:53.252648 13038 net.cpp:94] Creating Layer pool5
I0502 20:11:53.252652 13038 net.cpp:435] pool5 <- conv5
I0502 20:11:53.252656 13038 net.cpp:409] pool5 -> pool5
I0502 20:11:53.252689 13038 net.cpp:144] Setting up pool5
I0502 20:11:53.252697 13038 net.cpp:151] Top shape: 20 64 5 5 (32000)
I0502 20:11:53.252701 13038 net.cpp:159] Memory required for data: 11936080
I0502 20:11:53.252703 13038 layer_factory.hpp:77] Creating layer ip1
I0502 20:11:53.252710 13038 net.cpp:94] Creating Layer ip1
I0502 20:11:53.252713 13038 net.cpp:435] ip1 <- pool5
I0502 20:11:53.252718 13038 net.cpp:409] ip1 -> ip1
I0502 20:11:53.255208 13038 net.cpp:144] Setting up ip1
I0502 20:11:53.255216 13038 net.cpp:151] Top shape: 20 64 (1280)
I0502 20:11:53.255219 13038 net.cpp:159] Memory required for data: 11941200
I0502 20:11:53.255224 13038 layer_factory.hpp:77] Creating layer ip2
I0502 20:11:53.255234 13038 net.cpp:94] Creating Layer ip2
I0502 20:11:53.255239 13038 net.cpp:435] ip2 <- ip1
I0502 20:11:53.255244 13038 net.cpp:409] ip2 -> ip2
I0502 20:11:53.255409 13038 net.cpp:144] Setting up ip2
I0502 20:11:53.255414 13038 net.cpp:151] Top shape: 20 64 (1280)
I0502 20:11:53.255417 13038 net.cpp:159] Memory required for data: 11946320
I0502 20:11:53.255422 13038 layer_factory.hpp:77] Creating layer ip3
I0502 20:11:53.255429 13038 net.cpp:94] Creating Layer ip3
I0502 20:11:53.255431 13038 net.cpp:435] ip3 <- ip2
I0502 20:11:53.255436 13038 net.cpp:409] ip3 -> ip3
I0502 20:11:53.255584 13038 net.cpp:144] Setting up ip3
I0502 20:11:53.255589 13038 net.cpp:151] Top shape: 20 50 (1000)
I0502 20:11:53.255592 13038 net.cpp:159] Memory required for data: 11950320
I0502 20:11:53.255597 13038 layer_factory.hpp:77] Creating layer loss
I0502 20:11:53.255604 13038 net.cpp:94] Creating Layer loss
I0502 20:11:53.255607 13038 net.cpp:435] loss <- ip3
I0502 20:11:53.255611 13038 net.cpp:435] loss <- label
I0502 20:11:53.255616 13038 net.cpp:409] loss -> loss
I0502 20:11:53.255626 13038 layer_factory.hpp:77] Creating layer loss
…
I0502 20:11:53.256112 13038 solver.cpp:181] Creating test net (#0) specified by net file: ./protocol/dis_5_400_dimension.protocol_distribution
I0502 20:11:53.256139 13038 net.cpp:323] The NetState phase (1) differed from the phase (0) specified by a rule in layer parameters
I0502 20:11:53.256242 13038 net.cpp:52] Initializing net from parameters: 
state {
  phase: TEST
}
layer {
  name: "intercept"
  type: "HDF5Data"
  top: "data"
  top: "label"
  include {
    phase: TEST
  }
  hdf5_data_param {
    source: "/home/purduethu/scratch/radon/d/deng106/CNNStatisticalModel/distributions/input/5_distributions_400_sample_size_test-distributions-path.txt"
    batch_size: 20
  }
}
layer {
  name: "conv1"
  type: "Convolution"
  bottom: "data"
  top: "conv1"
  param {
    lr_mult: 1
  }
  param {
    lr_mult: 2
  }
  convolution_param {
    num_output: 64
    pad: 2
    kernel_size: 5
    stride: 1
    weight_filler {
      type: "gaussian"
      std: 0.0001
    }
    bias_filler {
      type: "constant"
    }
  }
}
layer {
  name: "relu1"
  type: "ReLU"
  bottom: "conv1"
  top: "conv1"
}
layer {
  name: "conv2"
  type: "Convolution"
  bottom: "conv1"
  top: "conv2"
  param {
    lr_mult: 1
  }
  param {
    lr_mult: 2
  }
  convolution_param {
    num_output: 64
    pad: 2
    kernel_size: 5
    stride: 1
    weight_filler {
      type: "gaussian"
      std: 0.01
    }
    bias_filler {
      type: "constant"
    }
  }
}
layer {
  name: "relu2"
  type: "ReLU"
  bottom: "conv2"
  top: "conv2"
}
layer {
  name: "pool2"
  type: "Pooling"
  bottom: "conv2"
  top: "pool2"
  pooling_param {
    pool: MAX
    kernel_size: 3
    stride: 2
  }
}
layer {
  name: "conv3"
  type: "Convolution"
  bottom: "pool2"
  top: "conv3"
  param {
    lr_mult: 1
  }
  param {
    lr_mult: 2
  }
  convolution_param {
    num_output: 64
    pad: 2
    kernel_size: 5
    stride: 1
    weight_filler {
      type: "gaussian"
      std: 0.01
    }
    bias_filler {
      type: "constant"
    }
  }
}
layer {
  name: "relu3"
  type: "ReLU"
  bottom: "conv3"
  top: "conv3"
}
layer {
  name: "conv4"
  type: "Convolution"
  bottom: "conv3"
  top: "conv4"
  param {
    lr_mult: 1
  }
  param {
    lr_mult: 2
  }
  convolution_param {
    num_output: 64
    pad: 2
    kernel_size: 5
    stride: 1
    weight_filler {
      type: "gaussian"
      std: 0.01
    }
    bias_filler {
      type: "constant"
    }
  }
}
layer {
  name: "relu4"
  type: "ReLU"
  bottom: "conv4"
  top: "conv4"
}
layer {
  name: "conv5"
  type: "Convolution"
  bottom: "conv4"
  top: "conv5"
  param {
    lr_mult: 1
  }
  param {
    lr_mult: 2
  }
  convolution_param {
    num_output: 64
    pad: 2
    kernel_size: 5
    stride: 1
    weight_filler {
      type: "gaussian"
      std: 0.01
    }
    bias_filler {
      type: "constant"
    }
  }
}
layer {
  name: "relu5"
  type: "ReLU"
  bottom: "conv5"
  top: "conv5"
}
layer {
  name: "pool5"
  type: "Pooling"
  bottom: "conv5"
  top: "pool5"
  pooling_param {
    pool: AVE
    kernel_size: 3
    stride: 2
  }
}
layer {
  name: "ip1"
  type: "InnerProduct"
  bottom: "pool5"
  top: "ip1"
  param {
    lr_mult: 1
  }
  param {
    lr_mult: 2
  }
  inner_product_param {
    num_output: 64
    weight_filler {
      type: "gaussian"
      std: 0.1
    }
    bias_filler {
      type: "constant"
    }
  }
}
layer {
  name: "ip2"
  type: "InnerProduct"
  bottom: "ip1"
  top: "ip2"
  param {
    lr_mult: 1
  }
  param {
    lr_mult: 2
  }
  inner_product_param {
    num_output: 64
    weight_filler {
      type: "gaussian"
      std: 0.1
    }
    bias_filler {
      type: "constant"
    }
  }
}
layer {
  name: "ip3"
  type: "InnerProduct"
  bottom: "ip2"
  top: "ip3"
  param {
    lr_mult: 1
  }
  param {
    lr_mult: 2
  }
  inner_product_param {
    num_output: 50
    weight_filler {
      type: "gaussian"
      std: 0.1
    }
    bias_filler {
      type: "constant"
    }
  }
}
layer {
  name: "accuracy"
  type: "Accuracy"
  bottom: "ip3"
  bottom: "label"
  top: "accuracy"
  include {
    phase: TEST
  }
}
layer {
  name: "loss"
  type: "SoftmaxWithLoss"
  bottom: "ip3"
  bottom: "label"
  top: "loss"
}
I0502 20:11:53.256314 13038 layer_factory.hpp:77] Creating layer intercept
I0502 20:11:53.256322 13038 net.cpp:94] Creating Layer intercept
I0502 20:11:53.256326 13038 net.cpp:409] intercept -> data
I0502 20:11:53.256333 13038 net.cpp:409] intercept -> label
I0502 20:11:53.256340 13038 hdf5_data_layer.cpp:79] Loading list of HDF5 filenames from: /home/purduethu/scratch/radon/d/deng106/CNNStatisticalModel/distributions/input/5_distributions_400_sample_size_test-distributions-path.txt
I0502 20:11:53.256358 13038 hdf5_data_layer.cpp:93] Number of HDF5 files: 1
I0502 20:11:53.273288 13038 net.cpp:144] Setting up intercept
I0502 20:11:53.273317 13038 net.cpp:151] Top shape: 20 1 20 20 (8000)
I0502 20:11:53.273322 13038 net.cpp:151] Top shape: 20 (20)
I0502 20:11:53.273326 13038 net.cpp:159] Memory required for data: 32080
I0502 20:11:53.273332 13038 layer_factory.hpp:77] Creating layer label_intercept_1_split
I0502 20:11:53.273344 13038 net.cpp:94] Creating Layer label_intercept_1_split
I0502 20:11:53.273349 13038 net.cpp:435] label_intercept_1_split <- label
I0502 20:11:53.273353 13038 net.cpp:409] label_intercept_1_split -> label_intercept_1_split_0
I0502 20:11:53.273362 13038 net.cpp:409] label_intercept_1_split -> label_intercept_1_split_1
I0502 20:11:53.273401 13038 net.cpp:144] Setting up label_intercept_1_split
I0502 20:11:53.273408 13038 net.cpp:151] Top shape: 20 (20)
I0502 20:11:53.273412 13038 net.cpp:151] Top shape: 20 (20)
I0502 20:11:53.273416 13038 net.cpp:159] Memory required for data: 32240
I0502 20:11:53.273418 13038 layer_factory.hpp:77] Creating layer conv1
I0502 20:11:53.273430 13038 net.cpp:94] Creating Layer conv1
I0502 20:11:53.273434 13038 net.cpp:435] conv1 <- data
I0502 20:11:53.273439 13038 net.cpp:409] conv1 -> conv1
I0502 20:11:53.274595 13038 net.cpp:144] Setting up conv1
I0502 20:11:53.274616 13038 net.cpp:151] Top shape: 20 64 20 20 (512000)
I0502 20:11:53.274621 13038 net.cpp:159] Memory required for data: 2080240
I0502 20:11:53.274629 13038 layer_factory.hpp:77] Creating layer relu1
I0502 20:11:53.274636 13038 net.cpp:94] Creating Layer relu1
I0502 20:11:53.274639 13038 net.cpp:435] relu1 <- conv1
I0502 20:11:53.274644 13038 net.cpp:396] relu1 -> conv1 (in-place)
I0502 20:11:53.274652 13038 net.cpp:144] Setting up relu1
I0502 20:11:53.274655 13038 net.cpp:151] Top shape: 20 64 20 20 (512000)
I0502 20:11:53.274658 13038 net.cpp:159] Memory required for data: 4128240
I0502 20:11:53.274662 13038 layer_factory.hpp:77] Creating layer conv2
I0502 20:11:53.274670 13038 net.cpp:94] Creating Layer conv2
I0502 20:11:53.274673 13038 net.cpp:435] conv2 <- conv1
I0502 20:11:53.274678 13038 net.cpp:409] conv2 -> conv2
I0502 20:11:53.281150 13038 net.cpp:144] Setting up conv2
I0502 20:11:53.281167 13038 net.cpp:151] Top shape: 20 64 20 20 (512000)
I0502 20:11:53.281170 13038 net.cpp:159] Memory required for data: 6176240
I0502 20:11:53.281178 13038 layer_factory.hpp:77] Creating layer relu2
I0502 20:11:53.281184 13038 net.cpp:94] Creating Layer relu2
I0502 20:11:53.281188 13038 net.cpp:435] relu2 <- conv2
I0502 20:11:53.281193 13038 net.cpp:396] relu2 -> conv2 (in-place)
I0502 20:11:53.281199 13038 net.cpp:144] Setting up relu2
I0502 20:11:53.281204 13038 net.cpp:151] Top shape: 20 64 20 20 (512000)
I0502 20:11:53.281208 13038 net.cpp:159] Memory required for data: 8224240
I0502 20:11:53.281210 13038 layer_factory.hpp:77] Creating layer pool2
I0502 20:11:53.281215 13038 net.cpp:94] Creating Layer pool2
I0502 20:11:53.281219 13038 net.cpp:435] pool2 <- conv2
I0502 20:11:53.281224 13038 net.cpp:409] pool2 -> pool2
I0502 20:11:53.281257 13038 net.cpp:144] Setting up pool2
I0502 20:11:53.281263 13038 net.cpp:151] Top shape: 20 64 10 10 (128000)
I0502 20:11:53.281266 13038 net.cpp:159] Memory required for data: 8736240
I0502 20:11:53.281270 13038 layer_factory.hpp:77] Creating layer conv3
I0502 20:11:53.281277 13038 net.cpp:94] Creating Layer conv3
I0502 20:11:53.281280 13038 net.cpp:435] conv3 <- pool2
I0502 20:11:53.281286 13038 net.cpp:409] conv3 -> conv3
I0502 20:11:53.285864 13038 net.cpp:144] Setting up conv3
I0502 20:11:53.285878 13038 net.cpp:151] Top shape: 20 64 10 10 (128000)
I0502 20:11:53.285882 13038 net.cpp:159] Memory required for data: 9248240
I0502 20:11:53.285890 13038 layer_factory.hpp:77] Creating layer relu3
I0502 20:11:53.285897 13038 net.cpp:94] Creating Layer relu3
I0502 20:11:53.285900 13038 net.cpp:435] relu3 <- conv3
I0502 20:11:53.285905 13038 net.cpp:396] relu3 -> conv3 (in-place)
I0502 20:11:53.285912 13038 net.cpp:144] Setting up relu3
I0502 20:11:53.285917 13038 net.cpp:151] Top shape: 20 64 10 10 (128000)
I0502 20:11:53.285919 13038 net.cpp:159] Memory required for data: 9760240
I0502 20:11:53.285923 13038 layer_factory.hpp:77] Creating layer conv4
I0502 20:11:53.285930 13038 net.cpp:94] Creating Layer conv4
I0502 20:11:53.285933 13038 net.cpp:435] conv4 <- conv3
I0502 20:11:53.285938 13038 net.cpp:409] conv4 -> conv4
I0502 20:11:53.290518 13038 net.cpp:144] Setting up conv4
I0502 20:11:53.290530 13038 net.cpp:151] Top shape: 20 64 10 10 (128000)
I0502 20:11:53.290534 13038 net.cpp:159] Memory required for data: 10272240
I0502 20:11:53.290540 13038 layer_factory.hpp:77] Creating layer relu4
I0502 20:11:53.290546 13038 net.cpp:94] Creating Layer relu4
I0502 20:11:53.290554 13038 net.cpp:435] relu4 <- conv4
I0502 20:11:53.290558 13038 net.cpp:396] relu4 -> conv4 (in-place)
I0502 20:11:53.290565 13038 net.cpp:144] Setting up relu4
I0502 20:11:53.290570 13038 net.cpp:151] Top shape: 20 64 10 10 (128000)
I0502 20:11:53.290572 13038 net.cpp:159] Memory required for data: 10784240
I0502 20:11:53.290575 13038 layer_factory.hpp:77] Creating layer conv5
I0502 20:11:53.290582 13038 net.cpp:94] Creating Layer conv5
I0502 20:11:53.290585 13038 net.cpp:435] conv5 <- conv4
I0502 20:11:53.290591 13038 net.cpp:409] conv5 -> conv5
I0502 20:11:53.295466 13038 net.cpp:144] Setting up conv5
I0502 20:11:53.295486 13038 net.cpp:151] Top shape: 20 64 10 10 (128000)
I0502 20:11:53.295490 13038 net.cpp:159] Memory required for data: 11296240
I0502 20:11:53.295500 13038 layer_factory.hpp:77] Creating layer relu5
I0502 20:11:53.295505 13038 net.cpp:94] Creating Layer relu5
I0502 20:11:53.295508 13038 net.cpp:435] relu5 <- conv5
I0502 20:11:53.295512 13038 net.cpp:396] relu5 -> conv5 (in-place)
I0502 20:11:53.295519 13038 net.cpp:144] Setting up relu5
I0502 20:11:53.295523 13038 net.cpp:151] Top shape: 20 64 10 10 (128000)
I0502 20:11:53.295526 13038 net.cpp:159] Memory required for data: 11808240
I0502 20:11:53.295529 13038 layer_factory.hpp:77] Creating layer pool5
I0502 20:11:53.295534 13038 net.cpp:94] Creating Layer pool5
I0502 20:11:53.295537 13038 net.cpp:435] pool5 <- conv5
I0502 20:11:53.295542 13038 net.cpp:409] pool5 -> pool5
I0502 20:11:53.295567 13038 net.cpp:144] Setting up pool5
I0502 20:11:53.295572 13038 net.cpp:151] Top shape: 20 64 5 5 (32000)
I0502 20:11:53.295575 13038 net.cpp:159] Memory required for data: 11936240
I0502 20:11:53.295578 13038 layer_factory.hpp:77] Creating layer ip1
I0502 20:11:53.295584 13038 net.cpp:94] Creating Layer ip1
I0502 20:11:53.295588 13038 net.cpp:435] ip1 <- pool5
I0502 20:11:53.295593 13038 net.cpp:409] ip1 -> ip1
I0502 20:11:53.298084 13038 net.cpp:144] Setting up ip1
I0502 20:11:53.298094 13038 net.cpp:151] Top shape: 20 64 (1280)
I0502 20:11:53.298096 13038 net.cpp:159] Memory required for data: 11941360
I0502 20:11:53.298101 13038 layer_factory.hpp:77] Creating layer ip2
I0502 20:11:53.298107 13038 net.cpp:94] Creating Layer ip2
I0502 20:11:53.298110 13038 net.cpp:435] ip2 <- ip1
I0502 20:11:53.298115 13038 net.cpp:409] ip2 -> ip2
I0502 20:11:53.298282 13038 net.cpp:144] Setting up ip2
I0502 20:11:53.298288 13038 net.cpp:151] Top shape: 20 64 (1280)
I0502 20:11:53.298291 13038 net.cpp:159] Memory required for data: 11946480
I0502 20:11:53.298296 13038 layer_factory.hpp:77] Creating layer ip3
I0502 20:11:53.298302 13038 net.cpp:94] Creating Layer ip3
I0502 20:11:53.298306 13038 net.cpp:435] ip3 <- ip2
I0502 20:11:53.298310 13038 net.cpp:409] ip3 -> ip3
I0502 20:11:53.298455 13038 net.cpp:144] Setting up ip3
I0502 20:11:53.298461 13038 net.cpp:151] Top shape: 20 50 (1000)
I0502 20:11:53.298465 13038 net.cpp:159] Memory required for data: 11950480
I0502 20:11:53.298468 13038 layer_factory.hpp:77] Creating layer ip3_ip3_0_split
I0502 20:11:53.298473 13038 net.cpp:94] Creating Layer ip3_ip3_0_split
I0502 20:11:53.298476 13038 net.cpp:435] ip3_ip3_0_split <- ip3
I0502 20:11:53.298480 13038 net.cpp:409] ip3_ip3_0_split -> ip3_ip3_0_split_0
I0502 20:11:53.298486 13038 net.cpp:409] ip3_ip3_0_split -> ip3_ip3_0_split_1
I0502 20:11:53.298509 13038 net.cpp:144] Setting up ip3_ip3_0_split
I0502 20:11:53.298514 13038 net.cpp:151] Top shape: 20 50 (1000)
I0502 20:11:53.298518 13038 net.cpp:151] Top shape: 20 50 (1000)
I0502 20:11:53.298521 13038 net.cpp:159] Memory required for data: 11958480
I0502 20:11:53.298524 13038 layer_factory.hpp:77] Creating layer accuracy
I0502 20:11:53.298534 13038 net.cpp:94] Creating Layer accuracy
I0502 20:11:53.298537 13038 net.cpp:435] accuracy <- ip3_ip3_0_split_0
I0502 20:11:53.298542 13038 net.cpp:435] accuracy <- label_intercept_1_split_0
I0502 20:11:53.298545 13038 net.cpp:409] accuracy -> accuracy
…
