…
I0506 23:31:32.326341 28105 net.cpp:323] The NetState phase (0) differed from the phase (1) specified by a rule in layer intercept
I0506 23:31:32.326356 28105 net.cpp:323] The NetState phase (0) differed from the phase (1) specified by a rule in layer loss
I0506 23:31:32.326434 28105 net.cpp:52] Initializing net from parameters: 
state {
  phase: TRAIN
}
layer {
  name: "parameters"
  type: "HDF5Data"
  top: "data"
  top: "label"
  include {
    phase: TRAIN
  }
  hdf5_data_param {
    source: "/home/purduethu/scratch/radon/d/deng106/CNNStatisticalModel/distributions/input/50_distributions_100_sample_size_train-parameters-path.txt"
    batch_size: 20
  }
}
layer {
  name: "conv1"
  type: "Convolution"
  bottom: "data"
  top: "conv1"
  param {
    lr_mult: 1
  }
  param {
    lr_mult: 2
  }
  convolution_param {
    num_output: 64
    pad: 2
    kernel_size: 5
    stride: 1
    weight_filler {
      type: "gaussian"
      std: 0.0001
    }
    bias_filler {
      type: "constant"
    }
  }
}
layer {
  name: "relu1"
  type: "ReLU"
  bottom: "conv1"
  top: "conv1"
}
layer {
  name: "conv2"
  type: "Convolution"
  bottom: "conv1"
  top: "conv2"
  param {
    lr_mult: 1
  }
  param {
    lr_mult: 2
  }
  convolution_param {
    num_output: 64
    pad: 2
    kernel_size: 5
    stride: 1
    weight_filler {
      type: "gaussian"
      std: 0.01
    }
    bias_filler {
      type: "constant"
    }
  }
}
layer {
  name: "relu2"
  type: "ReLU"
  bottom: "conv2"
  top: "conv2"
}
layer {
  name: "pool2"
  type: "Pooling"
  bottom: "conv2"
  top: "pool2"
  pooling_param {
    pool: MAX
    kernel_size: 3
    stride: 2
  }
}
layer {
  name: "conv3"
  type: "Convolution"
  bottom: "pool2"
  top: "conv3"
  param {
    lr_mult: 1
  }
  param {
    lr_mult: 2
  }
  convolution_param {
    num_output: 64
    pad: 2
    kernel_size: 5
    stride: 1
    weight_filler {
      type: "gaussian"
      std: 0.01
    }
    bias_filler {
      type: "constant"
    }
  }
}
layer {
  name: "relu3"
  type: "ReLU"
  bottom: "conv3"
  top: "conv3"
}
layer {
  name: "conv4"
  type: "Convolution"
  bottom: "conv3"
  top: "conv4"
  param {
    lr_mult: 1
  }
  param {
    lr_mult: 2
  }
  convolution_param {
    num_output: 64
    pad: 2
    kernel_size: 5
    stride: 1
    weight_filler {
      type: "gaussian"
      std: 0.01
    }
    bias_filler {
      type: "constant"
    }
  }
}
layer {
  name: "relu4"
  type: "ReLU"
  bottom: "conv4"
  top: "conv4"
}
layer {
  name: "conv5"
  type: "Convolution"
  bottom: "conv4"
  top: "conv5"
  param {
    lr_mult: 1
  }
  param {
    lr_mult: 2
  }
  convolution_param {
    num_output: 64
    pad: 2
    kernel_size: 5
    stride: 1
    weight_filler {
      type: "gaussian"
      std: 0.01
    }
    bias_filler {
      type: "constant"
    }
  }
}
layer {
  name: "relu5"
  type: "ReLU"
  bottom: "conv5"
  top: "conv5"
}
layer {
  name: "pool5"
  type: "Pooling"
  bottom: "conv5"
  top: "pool5"
  pooling_param {
    pool: AVE
    kernel_size: 3
    stride: 2
  }
}
layer {
  name: "ip1"
  type: "InnerProduct"
  bottom: "pool5"
  top: "ip1"
  param {
    lr_mult: 1
  }
  param {
    lr_mult: 2
  }
  inner_product_param {
    num_output: 64
    weight_filler {
      type: "gaussian"
      std: 0.1
    }
    bias_filler {
      type: "constant"
    }
  }
}
layer {
  name: "ip2"
  type: "InnerProduct"
  bottom: "ip1"
  top: "ip2"
  param {
    lr_mult: 1
  }
  param {
    lr_mult: 2
  }
  inner_product_param {
    num_output: 64
    weight_filler {
      type: "gaussian"
      std: 0.1
    }
    bias_filler {
      type: "constant"
    }
  }
}
layer {
  name: "ip3"
  type: "InnerProduct"
  bottom: "ip2"
  top: "ip3"
  param {
    lr_mult: 1
  }
  param {
    lr_mult: 2
  }
  inner_product_param {
    num_output: 1
    weight_filler {
      type: "gaussian"
      std: 0.1
    }
    bias_filler {
      type: "constant"
    }
  }
}
layer {
  name: "loss"
  type: "HuberLoss"
  bottom: "ip3"
  bottom: "label"
  top: "loss"
  include {
    phase: TRAIN
  }
}
I0506 23:31:32.326488 28105 layer_factory.hpp:77] Creating layer parameters
I0506 23:31:32.326500 28105 net.cpp:94] Creating Layer parameters
I0506 23:31:32.326505 28105 net.cpp:409] parameters -> data
I0506 23:31:32.326515 28105 net.cpp:409] parameters -> label
I0506 23:31:32.326522 28105 hdf5_data_layer.cpp:79] Loading list of HDF5 filenames from: /home/purduethu/scratch/radon/d/deng106/CNNStatisticalModel/distributions/input/50_distributions_100_sample_size_train-parameters-path.txt
I0506 23:31:32.326537 28105 hdf5_data_layer.cpp:93] Number of HDF5 files: 1
I0506 23:31:32.327072 28105 hdf5.cpp:32] Datatype class: H5T_FLOAT
I0506 23:31:32.485785 28105 net.cpp:144] Setting up parameters
I0506 23:31:32.485815 28105 net.cpp:151] Top shape: 20 1 10 10 (2000)
I0506 23:31:32.485819 28105 net.cpp:151] Top shape: 20 (20)
I0506 23:31:32.485823 28105 net.cpp:159] Memory required for data: 8080
I0506 23:31:32.485831 28105 layer_factory.hpp:77] Creating layer conv1
I0506 23:31:32.485852 28105 net.cpp:94] Creating Layer conv1
I0506 23:31:32.485857 28105 net.cpp:435] conv1 <- data
I0506 23:31:32.485863 28105 net.cpp:409] conv1 -> conv1
I0506 23:31:32.490037 28105 net.cpp:144] Setting up conv1
I0506 23:31:32.490051 28105 net.cpp:151] Top shape: 20 64 10 10 (128000)
I0506 23:31:32.490056 28105 net.cpp:159] Memory required for data: 520080
I0506 23:31:32.490067 28105 layer_factory.hpp:77] Creating layer relu1
I0506 23:31:32.490073 28105 net.cpp:94] Creating Layer relu1
I0506 23:31:32.490077 28105 net.cpp:435] relu1 <- conv1
I0506 23:31:32.490082 28105 net.cpp:396] relu1 -> conv1 (in-place)
I0506 23:31:32.490097 28105 net.cpp:144] Setting up relu1
I0506 23:31:32.490101 28105 net.cpp:151] Top shape: 20 64 10 10 (128000)
I0506 23:31:32.490104 28105 net.cpp:159] Memory required for data: 1032080
I0506 23:31:32.490108 28105 layer_factory.hpp:77] Creating layer conv2
I0506 23:31:32.490116 28105 net.cpp:94] Creating Layer conv2
I0506 23:31:32.490119 28105 net.cpp:435] conv2 <- conv1
I0506 23:31:32.490124 28105 net.cpp:409] conv2 -> conv2
I0506 23:31:32.496397 28105 net.cpp:144] Setting up conv2
I0506 23:31:32.496412 28105 net.cpp:151] Top shape: 20 64 10 10 (128000)
I0506 23:31:32.496415 28105 net.cpp:159] Memory required for data: 1544080
I0506 23:31:32.496423 28105 layer_factory.hpp:77] Creating layer relu2
I0506 23:31:32.496430 28105 net.cpp:94] Creating Layer relu2
I0506 23:31:32.496434 28105 net.cpp:435] relu2 <- conv2
I0506 23:31:32.496439 28105 net.cpp:396] relu2 -> conv2 (in-place)
I0506 23:31:32.496446 28105 net.cpp:144] Setting up relu2
I0506 23:31:32.496451 28105 net.cpp:151] Top shape: 20 64 10 10 (128000)
I0506 23:31:32.496454 28105 net.cpp:159] Memory required for data: 2056080
I0506 23:31:32.496457 28105 layer_factory.hpp:77] Creating layer pool2
I0506 23:31:32.496464 28105 net.cpp:94] Creating Layer pool2
I0506 23:31:32.496466 28105 net.cpp:435] pool2 <- conv2
I0506 23:31:32.496471 28105 net.cpp:409] pool2 -> pool2
I0506 23:31:32.496526 28105 net.cpp:144] Setting up pool2
I0506 23:31:32.496533 28105 net.cpp:151] Top shape: 20 64 5 5 (32000)
I0506 23:31:32.496537 28105 net.cpp:159] Memory required for data: 2184080
I0506 23:31:32.496541 28105 layer_factory.hpp:77] Creating layer conv3
I0506 23:31:32.496548 28105 net.cpp:94] Creating Layer conv3
I0506 23:31:32.496564 28105 net.cpp:435] conv3 <- pool2
I0506 23:31:32.496578 28105 net.cpp:409] conv3 -> conv3
I0506 23:31:32.501502 28105 net.cpp:144] Setting up conv3
I0506 23:31:32.501516 28105 net.cpp:151] Top shape: 20 64 5 5 (32000)
I0506 23:31:32.501520 28105 net.cpp:159] Memory required for data: 2312080
I0506 23:31:32.501529 28105 layer_factory.hpp:77] Creating layer relu3
I0506 23:31:32.501535 28105 net.cpp:94] Creating Layer relu3
I0506 23:31:32.501538 28105 net.cpp:435] relu3 <- conv3
I0506 23:31:32.501543 28105 net.cpp:396] relu3 -> conv3 (in-place)
I0506 23:31:32.501550 28105 net.cpp:144] Setting up relu3
I0506 23:31:32.501555 28105 net.cpp:151] Top shape: 20 64 5 5 (32000)
I0506 23:31:32.501559 28105 net.cpp:159] Memory required for data: 2440080
I0506 23:31:32.501561 28105 layer_factory.hpp:77] Creating layer conv4
I0506 23:31:32.501569 28105 net.cpp:94] Creating Layer conv4
I0506 23:31:32.501574 28105 net.cpp:435] conv4 <- conv3
I0506 23:31:32.501579 28105 net.cpp:409] conv4 -> conv4
I0506 23:31:32.506199 28105 net.cpp:144] Setting up conv4
I0506 23:31:32.506212 28105 net.cpp:151] Top shape: 20 64 5 5 (32000)
I0506 23:31:32.506217 28105 net.cpp:159] Memory required for data: 2568080
I0506 23:31:32.506222 28105 layer_factory.hpp:77] Creating layer relu4
I0506 23:31:32.506228 28105 net.cpp:94] Creating Layer relu4
I0506 23:31:32.506232 28105 net.cpp:435] relu4 <- conv4
I0506 23:31:32.506237 28105 net.cpp:396] relu4 -> conv4 (in-place)
I0506 23:31:32.506243 28105 net.cpp:144] Setting up relu4
I0506 23:31:32.506248 28105 net.cpp:151] Top shape: 20 64 5 5 (32000)
I0506 23:31:32.506252 28105 net.cpp:159] Memory required for data: 2696080
I0506 23:31:32.506255 28105 layer_factory.hpp:77] Creating layer conv5
I0506 23:31:32.506263 28105 net.cpp:94] Creating Layer conv5
I0506 23:31:32.506266 28105 net.cpp:435] conv5 <- conv4
I0506 23:31:32.506270 28105 net.cpp:409] conv5 -> conv5
I0506 23:31:32.511253 28105 net.cpp:144] Setting up conv5
I0506 23:31:32.511267 28105 net.cpp:151] Top shape: 20 64 5 5 (32000)
I0506 23:31:32.511271 28105 net.cpp:159] Memory required for data: 2824080
I0506 23:31:32.511279 28105 layer_factory.hpp:77] Creating layer relu5
I0506 23:31:32.511286 28105 net.cpp:94] Creating Layer relu5
I0506 23:31:32.511289 28105 net.cpp:435] relu5 <- conv5
I0506 23:31:32.511293 28105 net.cpp:396] relu5 -> conv5 (in-place)
I0506 23:31:32.511301 28105 net.cpp:144] Setting up relu5
I0506 23:31:32.511306 28105 net.cpp:151] Top shape: 20 64 5 5 (32000)
I0506 23:31:32.511308 28105 net.cpp:159] Memory required for data: 2952080
I0506 23:31:32.511312 28105 layer_factory.hpp:77] Creating layer pool5
I0506 23:31:32.511317 28105 net.cpp:94] Creating Layer pool5
I0506 23:31:32.511320 28105 net.cpp:435] pool5 <- conv5
I0506 23:31:32.511324 28105 net.cpp:409] pool5 -> pool5
I0506 23:31:32.511363 28105 net.cpp:144] Setting up pool5
I0506 23:31:32.511369 28105 net.cpp:151] Top shape: 20 64 2 2 (5120)
I0506 23:31:32.511373 28105 net.cpp:159] Memory required for data: 2972560
I0506 23:31:32.511376 28105 layer_factory.hpp:77] Creating layer ip1
I0506 23:31:32.511386 28105 net.cpp:94] Creating Layer ip1
I0506 23:31:32.511390 28105 net.cpp:435] ip1 <- pool5
I0506 23:31:32.511394 28105 net.cpp:409] ip1 -> ip1
I0506 23:31:32.512717 28105 net.cpp:144] Setting up ip1
I0506 23:31:32.512732 28105 net.cpp:151] Top shape: 20 64 (1280)
I0506 23:31:32.512735 28105 net.cpp:159] Memory required for data: 2977680
I0506 23:31:32.512742 28105 layer_factory.hpp:77] Creating layer ip2
I0506 23:31:32.512749 28105 net.cpp:94] Creating Layer ip2
I0506 23:31:32.512753 28105 net.cpp:435] ip2 <- ip1
I0506 23:31:32.512758 28105 net.cpp:409] ip2 -> ip2
I0506 23:31:32.512970 28105 net.cpp:144] Setting up ip2
I0506 23:31:32.512979 28105 net.cpp:151] Top shape: 20 64 (1280)
I0506 23:31:32.512981 28105 net.cpp:159] Memory required for data: 2982800
I0506 23:31:32.512987 28105 layer_factory.hpp:77] Creating layer ip3
I0506 23:31:32.512994 28105 net.cpp:94] Creating Layer ip3
I0506 23:31:32.512997 28105 net.cpp:435] ip3 <- ip2
I0506 23:31:32.513001 28105 net.cpp:409] ip3 -> ip3
I0506 23:31:32.513113 28105 net.cpp:144] Setting up ip3
I0506 23:31:32.513120 28105 net.cpp:151] Top shape: 20 1 (20)
I0506 23:31:32.513123 28105 net.cpp:159] Memory required for data: 2982880
I0506 23:31:32.513129 28105 layer_factory.hpp:77] Creating layer loss
I0506 23:31:32.513135 28105 net.cpp:94] Creating Layer loss
I0506 23:31:32.513139 28105 net.cpp:435] loss <- ip3
I0506 23:31:32.513144 28105 net.cpp:435] loss <- label
I0506 23:31:32.513149 28105 net.cpp:409] loss -> loss
I0506 23:31:32.513200 28105 net.cpp:144] Setting up loss
…
I0506 23:31:32.574007 28105 net.cpp:323] The NetState phase (0) differed from the phase (1) specified by a rule in layer intercept
I0506 23:31:32.574023 28105 net.cpp:323] The NetState phase (0) differed from the phase (1) specified by a rule in layer accuracy
I0506 23:31:32.574105 28105 net.cpp:52] Initializing net from parameters: 
state {
  phase: TRAIN
}
layer {
  name: "parameters"
  type: "HDF5Data"
  top: "data"
  top: "label"
  include {
    phase: TRAIN
  }
  hdf5_data_param {
    source: "/home/purduethu/scratch/radon/d/deng106/CNNStatisticalModel/distributions/input/50_distributions_100_sample_size_train-distributions-path.txt"
    batch_size: 20
  }
}
layer {
  name: "conv1"
  type: "Convolution"
  bottom: "data"
  top: "conv1"
  param {
    lr_mult: 1
  }
  param {
    lr_mult: 2
  }
  convolution_param {
    num_output: 64
    pad: 2
    kernel_size: 5
    stride: 1
    weight_filler {
      type: "gaussian"
      std: 0.0001
    }
    bias_filler {
      type: "constant"
    }
  }
}
layer {
  name: "relu1"
  type: "ReLU"
  bottom: "conv1"
  top: "conv1"
}
layer {
  name: "conv2"
  type: "Convolution"
  bottom: "conv1"
  top: "conv2"
  param {
    lr_mult: 1
  }
  param {
    lr_mult: 2
  }
  convolution_param {
    num_output: 64
    pad: 2
    kernel_size: 5
    stride: 1
    weight_filler {
      type: "gaussian"
      std: 0.01
    }
    bias_filler {
      type: "constant"
    }
  }
}
layer {
  name: "relu2"
  type: "ReLU"
  bottom: "conv2"
  top: "conv2"
}
layer {
  name: "pool2"
  type: "Pooling"
  bottom: "conv2"
  top: "pool2"
  pooling_param {
    pool: MAX
    kernel_size: 3
    stride: 2
  }
}
layer {
  name: "conv3"
  type: "Convolution"
  bottom: "pool2"
  top: "conv3"
  param {
    lr_mult: 1
  }
  param {
    lr_mult: 2
  }
  convolution_param {
    num_output: 64
    pad: 2
    kernel_size: 5
    stride: 1
    weight_filler {
      type: "gaussian"
      std: 0.01
    }
    bias_filler {
      type: "constant"
    }
  }
}
layer {
  name: "relu3"
  type: "ReLU"
  bottom: "conv3"
  top: "conv3"
}
layer {
  name: "conv4"
  type: "Convolution"
  bottom: "conv3"
  top: "conv4"
  param {
    lr_mult: 1
  }
  param {
    lr_mult: 2
  }
  convolution_param {
    num_output: 64
    pad: 2
    kernel_size: 5
    stride: 1
    weight_filler {
      type: "gaussian"
      std: 0.01
    }
    bias_filler {
      type: "constant"
    }
  }
}
layer {
  name: "relu4"
  type: "ReLU"
  bottom: "conv4"
  top: "conv4"
}
layer {
  name: "conv5"
  type: "Convolution"
  bottom: "conv4"
  top: "conv5"
  param {
    lr_mult: 1
  }
  param {
    lr_mult: 2
  }
  convolution_param {
    num_output: 64
    pad: 2
    kernel_size: 5
    stride: 1
    weight_filler {
      type: "gaussian"
      std: 0.01
    }
    bias_filler {
      type: "constant"
    }
  }
}
layer {
  name: "relu5"
  type: "ReLU"
  bottom: "conv5"
  top: "conv5"
}
layer {
  name: "pool5"
  type: "Pooling"
  bottom: "conv5"
  top: "pool5"
  pooling_param {
    pool: AVE
    kernel_size: 3
    stride: 2
  }
}
layer {
  name: "ip1"
  type: "InnerProduct"
  bottom: "pool5"
  top: "ip1"
  param {
    lr_mult: 1
  }
  param {
    lr_mult: 2
  }
  inner_product_param {
    num_output: 64
    weight_filler {
      type: "gaussian"
      std: 0.1
    }
    bias_filler {
      type: "constant"
    }
  }
}
layer {
  name: "ip2"
  type: "InnerProduct"
  bottom: "ip1"
  top: "ip2"
  param {
    lr_mult: 1
  }
  param {
    lr_mult: 2
  }
  inner_product_param {
    num_output: 64
    weight_filler {
      type: "gaussian"
      std: 0.1
    }
    bias_filler {
      type: "constant"
    }
  }
}
layer {
  name: "ip3"
  type: "InnerProduct"
  bottom: "ip2"
  top: "ip3"
  param {
    lr_mult: 1
  }
  param {
    lr_mult: 2
  }
  inner_product_param {
    num_output: 50
    weight_filler {
      type: "gaussian"
      std: 0.1
    }
    bias_filler {
      type: "constant"
    }
  }
}
layer {
  name: "loss"
  type: "SoftmaxWithLoss"
  bottom: "ip3"
  bottom: "label"
  top: "loss"
}
I0506 23:31:32.574156 28105 layer_factory.hpp:77] Creating layer parameters
I0506 23:31:32.574164 28105 net.cpp:94] Creating Layer parameters
I0506 23:31:32.574168 28105 net.cpp:409] parameters -> data
I0506 23:31:32.574175 28105 net.cpp:409] parameters -> label
I0506 23:31:32.574182 28105 hdf5_data_layer.cpp:79] Loading list of HDF5 filenames from: /home/purduethu/scratch/radon/d/deng106/CNNStatisticalModel/distributions/input/50_distributions_100_sample_size_train-distributions-path.txt
I0506 23:31:32.574198 28105 hdf5_data_layer.cpp:93] Number of HDF5 files: 1
I0506 23:31:32.728247 28105 hdf5.cpp:35] Datatype class: H5T_INTEGER
I0506 23:31:32.731258 28105 net.cpp:144] Setting up parameters
I0506 23:31:32.731276 28105 net.cpp:151] Top shape: 20 1 10 10 (2000)
I0506 23:31:32.731281 28105 net.cpp:151] Top shape: 20 (20)
I0506 23:31:32.731284 28105 net.cpp:159] Memory required for data: 8080
I0506 23:31:32.731290 28105 layer_factory.hpp:77] Creating layer conv1
I0506 23:31:32.731307 28105 net.cpp:94] Creating Layer conv1
I0506 23:31:32.731312 28105 net.cpp:435] conv1 <- data
I0506 23:31:32.731318 28105 net.cpp:409] conv1 -> conv1
I0506 23:31:32.733183 28105 net.cpp:144] Setting up conv1
I0506 23:31:32.733197 28105 net.cpp:151] Top shape: 20 64 10 10 (128000)
I0506 23:31:32.733201 28105 net.cpp:159] Memory required for data: 520080
I0506 23:31:32.733212 28105 layer_factory.hpp:77] Creating layer relu1
I0506 23:31:32.733219 28105 net.cpp:94] Creating Layer relu1
I0506 23:31:32.733223 28105 net.cpp:435] relu1 <- conv1
I0506 23:31:32.733227 28105 net.cpp:396] relu1 -> conv1 (in-place)
I0506 23:31:32.733235 28105 net.cpp:144] Setting up relu1
I0506 23:31:32.733240 28105 net.cpp:151] Top shape: 20 64 10 10 (128000)
I0506 23:31:32.733243 28105 net.cpp:159] Memory required for data: 1032080
I0506 23:31:32.733247 28105 layer_factory.hpp:77] Creating layer conv2
I0506 23:31:32.733253 28105 net.cpp:94] Creating Layer conv2
I0506 23:31:32.733258 28105 net.cpp:435] conv2 <- conv1
I0506 23:31:32.733261 28105 net.cpp:409] conv2 -> conv2
I0506 23:31:32.738737 28105 net.cpp:144] Setting up conv2
I0506 23:31:32.738751 28105 net.cpp:151] Top shape: 20 64 10 10 (128000)
I0506 23:31:32.738755 28105 net.cpp:159] Memory required for data: 1544080
I0506 23:31:32.738764 28105 layer_factory.hpp:77] Creating layer relu2
I0506 23:31:32.738770 28105 net.cpp:94] Creating Layer relu2
I0506 23:31:32.738773 28105 net.cpp:435] relu2 <- conv2
I0506 23:31:32.738778 28105 net.cpp:396] relu2 -> conv2 (in-place)
I0506 23:31:32.738785 28105 net.cpp:144] Setting up relu2
I0506 23:31:32.738790 28105 net.cpp:151] Top shape: 20 64 10 10 (128000)
I0506 23:31:32.738792 28105 net.cpp:159] Memory required for data: 2056080
I0506 23:31:32.738795 28105 layer_factory.hpp:77] Creating layer pool2
I0506 23:31:32.738802 28105 net.cpp:94] Creating Layer pool2
I0506 23:31:32.738806 28105 net.cpp:435] pool2 <- conv2
I0506 23:31:32.738809 28105 net.cpp:409] pool2 -> pool2
I0506 23:31:32.738865 28105 net.cpp:144] Setting up pool2
I0506 23:31:32.738873 28105 net.cpp:151] Top shape: 20 64 5 5 (32000)
I0506 23:31:32.738876 28105 net.cpp:159] Memory required for data: 2184080
I0506 23:31:32.738880 28105 layer_factory.hpp:77] Creating layer conv3
I0506 23:31:32.738888 28105 net.cpp:94] Creating Layer conv3
I0506 23:31:32.738891 28105 net.cpp:435] conv3 <- pool2
I0506 23:31:32.738896 28105 net.cpp:409] conv3 -> conv3
I0506 23:31:32.744657 28105 net.cpp:144] Setting up conv3
I0506 23:31:32.744671 28105 net.cpp:151] Top shape: 20 64 5 5 (32000)
I0506 23:31:32.744676 28105 net.cpp:159] Memory required for data: 2312080
I0506 23:31:32.744684 28105 layer_factory.hpp:77] Creating layer relu3
I0506 23:31:32.744690 28105 net.cpp:94] Creating Layer relu3
I0506 23:31:32.744694 28105 net.cpp:435] relu3 <- conv3
I0506 23:31:32.744699 28105 net.cpp:396] relu3 -> conv3 (in-place)
I0506 23:31:32.744706 28105 net.cpp:144] Setting up relu3
I0506 23:31:32.744710 28105 net.cpp:151] Top shape: 20 64 5 5 (32000)
I0506 23:31:32.744719 28105 net.cpp:159] Memory required for data: 2440080
I0506 23:31:32.744724 28105 layer_factory.hpp:77] Creating layer conv4
I0506 23:31:32.744731 28105 net.cpp:94] Creating Layer conv4
I0506 23:31:32.744735 28105 net.cpp:435] conv4 <- conv3
I0506 23:31:32.744740 28105 net.cpp:409] conv4 -> conv4
I0506 23:31:32.749704 28105 net.cpp:144] Setting up conv4
I0506 23:31:32.749718 28105 net.cpp:151] Top shape: 20 64 5 5 (32000)
I0506 23:31:32.749722 28105 net.cpp:159] Memory required for data: 2568080
I0506 23:31:32.749728 28105 layer_factory.hpp:77] Creating layer relu4
I0506 23:31:32.749734 28105 net.cpp:94] Creating Layer relu4
I0506 23:31:32.749738 28105 net.cpp:435] relu4 <- conv4
I0506 23:31:32.749742 28105 net.cpp:396] relu4 -> conv4 (in-place)
I0506 23:31:32.749749 28105 net.cpp:144] Setting up relu4
I0506 23:31:32.749754 28105 net.cpp:151] Top shape: 20 64 5 5 (32000)
I0506 23:31:32.749758 28105 net.cpp:159] Memory required for data: 2696080
I0506 23:31:32.749760 28105 layer_factory.hpp:77] Creating layer conv5
I0506 23:31:32.749768 28105 net.cpp:94] Creating Layer conv5
I0506 23:31:32.749771 28105 net.cpp:435] conv5 <- conv4
I0506 23:31:32.749776 28105 net.cpp:409] conv5 -> conv5
I0506 23:31:32.754284 28105 net.cpp:144] Setting up conv5
I0506 23:31:32.754297 28105 net.cpp:151] Top shape: 20 64 5 5 (32000)
I0506 23:31:32.754302 28105 net.cpp:159] Memory required for data: 2824080
I0506 23:31:32.754310 28105 layer_factory.hpp:77] Creating layer relu5
I0506 23:31:32.754315 28105 net.cpp:94] Creating Layer relu5
I0506 23:31:32.754319 28105 net.cpp:435] relu5 <- conv5
I0506 23:31:32.754324 28105 net.cpp:396] relu5 -> conv5 (in-place)
I0506 23:31:32.754331 28105 net.cpp:144] Setting up relu5
I0506 23:31:32.754335 28105 net.cpp:151] Top shape: 20 64 5 5 (32000)
I0506 23:31:32.754339 28105 net.cpp:159] Memory required for data: 2952080
I0506 23:31:32.754343 28105 layer_factory.hpp:77] Creating layer pool5
I0506 23:31:32.754348 28105 net.cpp:94] Creating Layer pool5
I0506 23:31:32.754350 28105 net.cpp:435] pool5 <- conv5
I0506 23:31:32.754354 28105 net.cpp:409] pool5 -> pool5
I0506 23:31:32.754391 28105 net.cpp:144] Setting up pool5
I0506 23:31:32.754398 28105 net.cpp:151] Top shape: 20 64 2 2 (5120)
I0506 23:31:32.754402 28105 net.cpp:159] Memory required for data: 2972560
I0506 23:31:32.754405 28105 layer_factory.hpp:77] Creating layer ip1
I0506 23:31:32.754411 28105 net.cpp:94] Creating Layer ip1
I0506 23:31:32.754415 28105 net.cpp:435] ip1 <- pool5
I0506 23:31:32.754420 28105 net.cpp:409] ip1 -> ip1
I0506 23:31:32.754940 28105 net.cpp:144] Setting up ip1
I0506 23:31:32.754947 28105 net.cpp:151] Top shape: 20 64 (1280)
I0506 23:31:32.754951 28105 net.cpp:159] Memory required for data: 2977680
I0506 23:31:32.754956 28105 layer_factory.hpp:77] Creating layer ip2
I0506 23:31:32.754963 28105 net.cpp:94] Creating Layer ip2
I0506 23:31:32.754966 28105 net.cpp:435] ip2 <- ip1
I0506 23:31:32.754971 28105 net.cpp:409] ip2 -> ip2
I0506 23:31:32.755195 28105 net.cpp:144] Setting up ip2
I0506 23:31:32.755203 28105 net.cpp:151] Top shape: 20 64 (1280)
I0506 23:31:32.755206 28105 net.cpp:159] Memory required for data: 2982800
I0506 23:31:32.755213 28105 layer_factory.hpp:77] Creating layer ip3
I0506 23:31:32.755218 28105 net.cpp:94] Creating Layer ip3
I0506 23:31:32.755221 28105 net.cpp:435] ip3 <- ip2
I0506 23:31:32.755225 28105 net.cpp:409] ip3 -> ip3
I0506 23:31:32.755426 28105 net.cpp:144] Setting up ip3
I0506 23:31:32.755434 28105 net.cpp:151] Top shape: 20 50 (1000)
I0506 23:31:32.755436 28105 net.cpp:159] Memory required for data: 2986800
I0506 23:31:32.755442 28105 layer_factory.hpp:77] Creating layer loss
I0506 23:31:32.755448 28105 net.cpp:94] Creating Layer loss
I0506 23:31:32.755451 28105 net.cpp:435] loss <- ip3
I0506 23:31:32.755455 28105 net.cpp:435] loss <- label
I0506 23:31:32.755460 28105 net.cpp:409] loss -> loss
I0506 23:31:32.755466 28105 layer_factory.hpp:77] Creating layer loss
…
I0506 23:31:32.756810 28105 solver.cpp:181] Creating test net (#0) specified by net file: ./protocol/dis_50_100_dimension.protocol_distribution
I0506 23:31:32.756839 28105 net.cpp:323] The NetState phase (1) differed from the phase (0) specified by a rule in layer parameters
I0506 23:31:32.756932 28105 net.cpp:52] Initializing net from parameters: 
state {
  phase: TEST
}
layer {
  name: "intercept"
  type: "HDF5Data"
  top: "data"
  top: "label"
  include {
    phase: TEST
  }
  hdf5_data_param {
    source: "/home/purduethu/scratch/radon/d/deng106/CNNStatisticalModel/distributions/input/50_distributions_100_sample_size_test-distributions-path.txt"
    batch_size: 20
  }
}
layer {
  name: "conv1"
  type: "Convolution"
  bottom: "data"
  top: "conv1"
  param {
    lr_mult: 1
  }
  param {
    lr_mult: 2
  }
  convolution_param {
    num_output: 64
    pad: 2
    kernel_size: 5
    stride: 1
    weight_filler {
      type: "gaussian"
      std: 0.0001
    }
    bias_filler {
      type: "constant"
    }
  }
}
layer {
  name: "relu1"
  type: "ReLU"
  bottom: "conv1"
  top: "conv1"
}
layer {
  name: "conv2"
  type: "Convolution"
  bottom: "conv1"
  top: "conv2"
  param {
    lr_mult: 1
  }
  param {
    lr_mult: 2
  }
  convolution_param {
    num_output: 64
    pad: 2
    kernel_size: 5
    stride: 1
    weight_filler {
      type: "gaussian"
      std: 0.01
    }
    bias_filler {
      type: "constant"
    }
  }
}
layer {
  name: "relu2"
  type: "ReLU"
  bottom: "conv2"
  top: "conv2"
}
layer {
  name: "pool2"
  type: "Pooling"
  bottom: "conv2"
  top: "pool2"
  pooling_param {
    pool: MAX
    kernel_size: 3
    stride: 2
  }
}
layer {
  name: "conv3"
  type: "Convolution"
  bottom: "pool2"
  top: "conv3"
  param {
    lr_mult: 1
  }
  param {
    lr_mult: 2
  }
  convolution_param {
    num_output: 64
    pad: 2
    kernel_size: 5
    stride: 1
    weight_filler {
      type: "gaussian"
      std: 0.01
    }
    bias_filler {
      type: "constant"
    }
  }
}
layer {
  name: "relu3"
  type: "ReLU"
  bottom: "conv3"
  top: "conv3"
}
layer {
  name: "conv4"
  type: "Convolution"
  bottom: "conv3"
  top: "conv4"
  param {
    lr_mult: 1
  }
  param {
    lr_mult: 2
  }
  convolution_param {
    num_output: 64
    pad: 2
    kernel_size: 5
    stride: 1
    weight_filler {
      type: "gaussian"
      std: 0.01
    }
    bias_filler {
      type: "constant"
    }
  }
}
layer {
  name: "relu4"
  type: "ReLU"
  bottom: "conv4"
  top: "conv4"
}
layer {
  name: "conv5"
  type: "Convolution"
  bottom: "conv4"
  top: "conv5"
  param {
    lr_mult: 1
  }
  param {
    lr_mult: 2
  }
  convolution_param {
    num_output: 64
    pad: 2
    kernel_size: 5
    stride: 1
    weight_filler {
      type: "gaussian"
      std: 0.01
    }
    bias_filler {
      type: "constant"
    }
  }
}
layer {
  name: "relu5"
  type: "ReLU"
  bottom: "conv5"
  top: "conv5"
}
layer {
  name: "pool5"
  type: "Pooling"
  bottom: "conv5"
  top: "pool5"
  pooling_param {
    pool: AVE
    kernel_size: 3
    stride: 2
  }
}
layer {
  name: "ip1"
  type: "InnerProduct"
  bottom: "pool5"
  top: "ip1"
  param {
    lr_mult: 1
  }
  param {
    lr_mult: 2
  }
  inner_product_param {
    num_output: 64
    weight_filler {
      type: "gaussian"
      std: 0.1
    }
    bias_filler {
      type: "constant"
    }
  }
}
layer {
  name: "ip2"
  type: "InnerProduct"
  bottom: "ip1"
  top: "ip2"
  param {
    lr_mult: 1
  }
  param {
    lr_mult: 2
  }
  inner_product_param {
    num_output: 64
    weight_filler {
      type: "gaussian"
      std: 0.1
    }
    bias_filler {
      type: "constant"
    }
  }
}
layer {
  name: "ip3"
  type: "InnerProduct"
  bottom: "ip2"
  top: "ip3"
  param {
    lr_mult: 1
  }
  param {
    lr_mult: 2
  }
  inner_product_param {
    num_output: 50
    weight_filler {
      type: "gaussian"
      std: 0.1
    }
    bias_filler {
      type: "constant"
    }
  }
}
layer {
  name: "accuracy"
  type: "Accuracy"
  bottom: "ip3"
  bottom: "label"
  top: "accuracy"
  include {
    phase: TEST
  }
}
layer {
  name: "loss"
  type: "SoftmaxWithLoss"
  bottom: "ip3"
  bottom: "label"
  top: "loss"
}
I0506 23:31:32.756994 28105 layer_factory.hpp:77] Creating layer intercept
I0506 23:31:32.757004 28105 net.cpp:94] Creating Layer intercept
I0506 23:31:32.757007 28105 net.cpp:409] intercept -> data
I0506 23:31:32.757014 28105 net.cpp:409] intercept -> label
I0506 23:31:32.757020 28105 hdf5_data_layer.cpp:79] Loading list of HDF5 filenames from: /home/purduethu/scratch/radon/d/deng106/CNNStatisticalModel/distributions/input/50_distributions_100_sample_size_test-distributions-path.txt
I0506 23:31:32.757040 28105 hdf5_data_layer.cpp:93] Number of HDF5 files: 1
I0506 23:31:32.798012 28105 net.cpp:144] Setting up intercept
I0506 23:31:32.798046 28105 net.cpp:151] Top shape: 20 1 10 10 (2000)
I0506 23:31:32.798053 28105 net.cpp:151] Top shape: 20 (20)
I0506 23:31:32.798055 28105 net.cpp:159] Memory required for data: 8080
I0506 23:31:32.798061 28105 layer_factory.hpp:77] Creating layer label_intercept_1_split
I0506 23:31:32.798082 28105 net.cpp:94] Creating Layer label_intercept_1_split
I0506 23:31:32.798087 28105 net.cpp:435] label_intercept_1_split <- label
I0506 23:31:32.798094 28105 net.cpp:409] label_intercept_1_split -> label_intercept_1_split_0
I0506 23:31:32.798104 28105 net.cpp:409] label_intercept_1_split -> label_intercept_1_split_1
I0506 23:31:32.798147 28105 net.cpp:144] Setting up label_intercept_1_split
I0506 23:31:32.798154 28105 net.cpp:151] Top shape: 20 (20)
I0506 23:31:32.798157 28105 net.cpp:151] Top shape: 20 (20)
I0506 23:31:32.798161 28105 net.cpp:159] Memory required for data: 8240
I0506 23:31:32.798164 28105 layer_factory.hpp:77] Creating layer conv1
I0506 23:31:32.798176 28105 net.cpp:94] Creating Layer conv1
I0506 23:31:32.798179 28105 net.cpp:435] conv1 <- data
I0506 23:31:32.798184 28105 net.cpp:409] conv1 -> conv1
I0506 23:31:32.799029 28105 net.cpp:144] Setting up conv1
I0506 23:31:32.799041 28105 net.cpp:151] Top shape: 20 64 10 10 (128000)
I0506 23:31:32.799046 28105 net.cpp:159] Memory required for data: 520240
I0506 23:31:32.799055 28105 layer_factory.hpp:77] Creating layer relu1
I0506 23:31:32.799062 28105 net.cpp:94] Creating Layer relu1
I0506 23:31:32.799065 28105 net.cpp:435] relu1 <- conv1
I0506 23:31:32.799070 28105 net.cpp:396] relu1 -> conv1 (in-place)
I0506 23:31:32.799077 28105 net.cpp:144] Setting up relu1
I0506 23:31:32.799082 28105 net.cpp:151] Top shape: 20 64 10 10 (128000)
I0506 23:31:32.799085 28105 net.cpp:159] Memory required for data: 1032240
I0506 23:31:32.799095 28105 layer_factory.hpp:77] Creating layer conv2
I0506 23:31:32.799104 28105 net.cpp:94] Creating Layer conv2
I0506 23:31:32.799108 28105 net.cpp:435] conv2 <- conv1
I0506 23:31:32.799113 28105 net.cpp:409] conv2 -> conv2
I0506 23:31:32.803246 28105 net.cpp:144] Setting up conv2
I0506 23:31:32.803259 28105 net.cpp:151] Top shape: 20 64 10 10 (128000)
I0506 23:31:32.803263 28105 net.cpp:159] Memory required for data: 1544240
I0506 23:31:32.803272 28105 layer_factory.hpp:77] Creating layer relu2
I0506 23:31:32.803279 28105 net.cpp:94] Creating Layer relu2
I0506 23:31:32.803282 28105 net.cpp:435] relu2 <- conv2
I0506 23:31:32.803287 28105 net.cpp:396] relu2 -> conv2 (in-place)
I0506 23:31:32.803294 28105 net.cpp:144] Setting up relu2
I0506 23:31:32.803298 28105 net.cpp:151] Top shape: 20 64 10 10 (128000)
I0506 23:31:32.803302 28105 net.cpp:159] Memory required for data: 2056240
I0506 23:31:32.803305 28105 layer_factory.hpp:77] Creating layer pool2
I0506 23:31:32.803311 28105 net.cpp:94] Creating Layer pool2
I0506 23:31:32.803314 28105 net.cpp:435] pool2 <- conv2
I0506 23:31:32.803319 28105 net.cpp:409] pool2 -> pool2
I0506 23:31:32.803375 28105 net.cpp:144] Setting up pool2
I0506 23:31:32.803382 28105 net.cpp:151] Top shape: 20 64 5 5 (32000)
I0506 23:31:32.803385 28105 net.cpp:159] Memory required for data: 2184240
I0506 23:31:32.803390 28105 layer_factory.hpp:77] Creating layer conv3
I0506 23:31:32.803397 28105 net.cpp:94] Creating Layer conv3
I0506 23:31:32.803401 28105 net.cpp:435] conv3 <- pool2
I0506 23:31:32.803407 28105 net.cpp:409] conv3 -> conv3
I0506 23:31:32.807829 28105 net.cpp:144] Setting up conv3
I0506 23:31:32.807842 28105 net.cpp:151] Top shape: 20 64 5 5 (32000)
I0506 23:31:32.807847 28105 net.cpp:159] Memory required for data: 2312240
I0506 23:31:32.807855 28105 layer_factory.hpp:77] Creating layer relu3
I0506 23:31:32.807862 28105 net.cpp:94] Creating Layer relu3
I0506 23:31:32.807865 28105 net.cpp:435] relu3 <- conv3
I0506 23:31:32.807870 28105 net.cpp:396] relu3 -> conv3 (in-place)
I0506 23:31:32.807876 28105 net.cpp:144] Setting up relu3
I0506 23:31:32.807881 28105 net.cpp:151] Top shape: 20 64 5 5 (32000)
I0506 23:31:32.807884 28105 net.cpp:159] Memory required for data: 2440240
I0506 23:31:32.807888 28105 layer_factory.hpp:77] Creating layer conv4
I0506 23:31:32.807898 28105 net.cpp:94] Creating Layer conv4
I0506 23:31:32.807900 28105 net.cpp:435] conv4 <- conv3
I0506 23:31:32.807905 28105 net.cpp:409] conv4 -> conv4
I0506 23:31:32.811470 28105 net.cpp:144] Setting up conv4
I0506 23:31:32.811481 28105 net.cpp:151] Top shape: 20 64 5 5 (32000)
I0506 23:31:32.811486 28105 net.cpp:159] Memory required for data: 2568240
I0506 23:31:32.811492 28105 layer_factory.hpp:77] Creating layer relu4
I0506 23:31:32.811497 28105 net.cpp:94] Creating Layer relu4
I0506 23:31:32.811501 28105 net.cpp:435] relu4 <- conv4
I0506 23:31:32.811506 28105 net.cpp:396] relu4 -> conv4 (in-place)
I0506 23:31:32.811512 28105 net.cpp:144] Setting up relu4
I0506 23:31:32.811517 28105 net.cpp:151] Top shape: 20 64 5 5 (32000)
I0506 23:31:32.811520 28105 net.cpp:159] Memory required for data: 2696240
I0506 23:31:32.811523 28105 layer_factory.hpp:77] Creating layer conv5
I0506 23:31:32.811532 28105 net.cpp:94] Creating Layer conv5
I0506 23:31:32.811535 28105 net.cpp:435] conv5 <- conv4
I0506 23:31:32.811542 28105 net.cpp:409] conv5 -> conv5
I0506 23:31:32.815562 28105 net.cpp:144] Setting up conv5
I0506 23:31:32.815577 28105 net.cpp:151] Top shape: 20 64 5 5 (32000)
I0506 23:31:32.815580 28105 net.cpp:159] Memory required for data: 2824240
I0506 23:31:32.815589 28105 layer_factory.hpp:77] Creating layer relu5
I0506 23:31:32.815595 28105 net.cpp:94] Creating Layer relu5
I0506 23:31:32.815599 28105 net.cpp:435] relu5 <- conv5
I0506 23:31:32.815604 28105 net.cpp:396] relu5 -> conv5 (in-place)
I0506 23:31:32.815611 28105 net.cpp:144] Setting up relu5
I0506 23:31:32.815615 28105 net.cpp:151] Top shape: 20 64 5 5 (32000)
I0506 23:31:32.815618 28105 net.cpp:159] Memory required for data: 2952240
I0506 23:31:32.815626 28105 layer_factory.hpp:77] Creating layer pool5
I0506 23:31:32.815632 28105 net.cpp:94] Creating Layer pool5
I0506 23:31:32.815635 28105 net.cpp:435] pool5 <- conv5
I0506 23:31:32.815639 28105 net.cpp:409] pool5 -> pool5
I0506 23:31:32.815680 28105 net.cpp:144] Setting up pool5
I0506 23:31:32.815687 28105 net.cpp:151] Top shape: 20 64 2 2 (5120)
I0506 23:31:32.815690 28105 net.cpp:159] Memory required for data: 2972720
I0506 23:31:32.815693 28105 layer_factory.hpp:77] Creating layer ip1
I0506 23:31:32.815701 28105 net.cpp:94] Creating Layer ip1
I0506 23:31:32.815704 28105 net.cpp:435] ip1 <- pool5
I0506 23:31:32.815709 28105 net.cpp:409] ip1 -> ip1
I0506 23:31:32.816238 28105 net.cpp:144] Setting up ip1
I0506 23:31:32.816246 28105 net.cpp:151] Top shape: 20 64 (1280)
I0506 23:31:32.816249 28105 net.cpp:159] Memory required for data: 2977840
I0506 23:31:32.816254 28105 layer_factory.hpp:77] Creating layer ip2
I0506 23:31:32.816260 28105 net.cpp:94] Creating Layer ip2
I0506 23:31:32.816264 28105 net.cpp:435] ip2 <- ip1
I0506 23:31:32.816268 28105 net.cpp:409] ip2 -> ip2
I0506 23:31:32.816495 28105 net.cpp:144] Setting up ip2
I0506 23:31:32.816504 28105 net.cpp:151] Top shape: 20 64 (1280)
I0506 23:31:32.816506 28105 net.cpp:159] Memory required for data: 2982960
I0506 23:31:32.816511 28105 layer_factory.hpp:77] Creating layer ip3
I0506 23:31:32.816520 28105 net.cpp:94] Creating Layer ip3
I0506 23:31:32.816524 28105 net.cpp:435] ip3 <- ip2
I0506 23:31:32.816529 28105 net.cpp:409] ip3 -> ip3
I0506 23:31:32.816764 28105 net.cpp:144] Setting up ip3
I0506 23:31:32.816773 28105 net.cpp:151] Top shape: 20 50 (1000)
I0506 23:31:32.816777 28105 net.cpp:159] Memory required for data: 2986960
I0506 23:31:32.816782 28105 layer_factory.hpp:77] Creating layer ip3_ip3_0_split
I0506 23:31:32.816788 28105 net.cpp:94] Creating Layer ip3_ip3_0_split
I0506 23:31:32.816792 28105 net.cpp:435] ip3_ip3_0_split <- ip3
I0506 23:31:32.816797 28105 net.cpp:409] ip3_ip3_0_split -> ip3_ip3_0_split_0
I0506 23:31:32.816802 28105 net.cpp:409] ip3_ip3_0_split -> ip3_ip3_0_split_1
I0506 23:31:32.816846 28105 net.cpp:144] Setting up ip3_ip3_0_split
I0506 23:31:32.816853 28105 net.cpp:151] Top shape: 20 50 (1000)
I0506 23:31:32.816856 28105 net.cpp:151] Top shape: 20 50 (1000)
I0506 23:31:32.816859 28105 net.cpp:159] Memory required for data: 2994960
I0506 23:31:32.816864 28105 layer_factory.hpp:77] Creating layer accuracy
I0506 23:31:32.816869 28105 net.cpp:94] Creating Layer accuracy
I0506 23:31:32.816882 28105 net.cpp:435] accuracy <- ip3_ip3_0_split_0
I0506 23:31:32.816886 28105 net.cpp:435] accuracy <- label_intercept_1_split_0
I0506 23:31:32.816890 28105 net.cpp:409] accuracy -> accuracy
…
