…
I0505 17:51:25.523509  8393 net.cpp:323] The NetState phase (0) differed from the phase (1) specified by a rule in layer intercept
I0505 17:51:25.523524  8393 net.cpp:323] The NetState phase (0) differed from the phase (1) specified by a rule in layer loss
I0505 17:51:25.523591  8393 net.cpp:52] Initializing net from parameters: 
state {
  phase: TRAIN
}
layer {
  name: "parameters"
  type: "HDF5Data"
  top: "data"
  top: "label"
  include {
    phase: TRAIN
  }
  hdf5_data_param {
    source: "/home/purduethu/scratch/radon/d/deng106/CNNStatisticalModel/distributions/input/20_distributions_100_sample_size_train-parameters-path.txt"
    batch_size: 20
  }
}
layer {
  name: "conv1"
  type: "Convolution"
  bottom: "data"
  top: "conv1"
  param {
    lr_mult: 1
  }
  param {
    lr_mult: 2
  }
  convolution_param {
    num_output: 64
    pad: 2
    kernel_size: 5
    stride: 1
    weight_filler {
      type: "gaussian"
      std: 0.0001
    }
    bias_filler {
      type: "constant"
    }
  }
}
layer {
  name: "relu1"
  type: "ReLU"
  bottom: "conv1"
  top: "conv1"
}
layer {
  name: "pool1"
  type: "Pooling"
  bottom: "conv1"
  top: "pool1"
  pooling_param {
    pool: MAX
    kernel_size: 3
    stride: 2
  }
}
layer {
  name: "conv2"
  type: "Convolution"
  bottom: "pool1"
  top: "conv2"
  param {
    lr_mult: 1
  }
  param {
    lr_mult: 2
  }
  convolution_param {
    num_output: 128
    pad: 2
    kernel_size: 5
    stride: 1
    weight_filler {
      type: "gaussian"
      std: 0.01
    }
    bias_filler {
      type: "constant"
    }
  }
}
layer {
  name: "relu2"
  type: "ReLU"
  bottom: "conv2"
  top: "conv2"
}
layer {
  name: "conv3"
  type: "Convolution"
  bottom: "conv2"
  top: "conv3"
  param {
    lr_mult: 1
  }
  param {
    lr_mult: 2
  }
  convolution_param {
    num_output: 128
    pad: 2
    kernel_size: 5
    stride: 1
    weight_filler {
      type: "gaussian"
      std: 0.01
    }
    bias_filler {
      type: "constant"
    }
  }
}
layer {
  name: "relu3"
  type: "ReLU"
  bottom: "conv3"
  top: "conv3"
}
layer {
  name: "pool3"
  type: "Pooling"
  bottom: "conv3"
  top: "pool3"
  pooling_param {
    pool: AVE
    kernel_size: 3
    stride: 2
  }
}
layer {
  name: "ip1"
  type: "InnerProduct"
  bottom: "pool3"
  top: "ip1"
  param {
    lr_mult: 1
  }
  param {
    lr_mult: 2
  }
  inner_product_param {
    num_output: 512
    weight_filler {
      type: "gaussian"
      std: 0.1
    }
    bias_filler {
      type: "constant"
    }
  }
}
layer {
  name: "ip2"
  type: "InnerProduct"
  bottom: "ip1"
  top: "ip2"
  param {
    lr_mult: 1
  }
  param {
    lr_mult: 2
  }
  inner_product_param {
    num_output: 256
    weight_filler {
      type: "gaussian"
      std: 0.1
    }
    bias_filler {
      type: "constant"
    }
  }
}
layer {
  name: "ip3"
  type: "InnerProduct"
  bottom: "ip2"
  top: "ip3"
  param {
    lr_mult: 1
  }
  param {
    lr_mult: 2
  }
  inner_product_param {
    num_output: 1
    weight_filler {
      type: "gaussian"
      std: 0.1
    }
    bias_filler {
      type: "constant"
    }
  }
}
layer {
  name: "loss"
  type: "HuberLoss"
  bottom: "ip3"
  bottom: "label"
  top: "loss"
  include {
    phase: TRAIN
  }
}
I0505 17:51:25.523638  8393 layer_factory.hpp:77] Creating layer parameters
I0505 17:51:25.523655  8393 net.cpp:94] Creating Layer parameters
I0505 17:51:25.523660  8393 net.cpp:409] parameters -> data
I0505 17:51:25.523669  8393 net.cpp:409] parameters -> label
I0505 17:51:25.523677  8393 hdf5_data_layer.cpp:79] Loading list of HDF5 filenames from: /home/purduethu/scratch/radon/d/deng106/CNNStatisticalModel/distributions/input/20_distributions_100_sample_size_train-parameters-path.txt
I0505 17:51:25.523694  8393 hdf5_data_layer.cpp:93] Number of HDF5 files: 1
I0505 17:51:25.524118  8393 hdf5.cpp:32] Datatype class: H5T_FLOAT
I0505 17:51:25.591817  8393 net.cpp:144] Setting up parameters
I0505 17:51:25.591850  8393 net.cpp:151] Top shape: 20 1 10 10 (2000)
I0505 17:51:25.591856  8393 net.cpp:151] Top shape: 20 (20)
I0505 17:51:25.591859  8393 net.cpp:159] Memory required for data: 8080
I0505 17:51:25.591866  8393 layer_factory.hpp:77] Creating layer conv1
I0505 17:51:25.591889  8393 net.cpp:94] Creating Layer conv1
I0505 17:51:25.591895  8393 net.cpp:435] conv1 <- data
I0505 17:51:25.591902  8393 net.cpp:409] conv1 -> conv1
I0505 17:51:25.596189  8393 net.cpp:144] Setting up conv1
I0505 17:51:25.596209  8393 net.cpp:151] Top shape: 20 64 10 10 (128000)
I0505 17:51:25.596213  8393 net.cpp:159] Memory required for data: 520080
I0505 17:51:25.596223  8393 layer_factory.hpp:77] Creating layer relu1
I0505 17:51:25.596232  8393 net.cpp:94] Creating Layer relu1
I0505 17:51:25.596237  8393 net.cpp:435] relu1 <- conv1
I0505 17:51:25.596241  8393 net.cpp:396] relu1 -> conv1 (in-place)
I0505 17:51:25.596254  8393 net.cpp:144] Setting up relu1
I0505 17:51:25.596259  8393 net.cpp:151] Top shape: 20 64 10 10 (128000)
I0505 17:51:25.596263  8393 net.cpp:159] Memory required for data: 1032080
I0505 17:51:25.596266  8393 layer_factory.hpp:77] Creating layer pool1
I0505 17:51:25.596272  8393 net.cpp:94] Creating Layer pool1
I0505 17:51:25.596276  8393 net.cpp:435] pool1 <- conv1
I0505 17:51:25.596280  8393 net.cpp:409] pool1 -> pool1
I0505 17:51:25.596339  8393 net.cpp:144] Setting up pool1
I0505 17:51:25.596348  8393 net.cpp:151] Top shape: 20 64 5 5 (32000)
I0505 17:51:25.596351  8393 net.cpp:159] Memory required for data: 1160080
I0505 17:51:25.596354  8393 layer_factory.hpp:77] Creating layer conv2
I0505 17:51:25.596364  8393 net.cpp:94] Creating Layer conv2
I0505 17:51:25.596367  8393 net.cpp:435] conv2 <- pool1
I0505 17:51:25.596374  8393 net.cpp:409] conv2 -> conv2
I0505 17:51:25.604600  8393 net.cpp:144] Setting up conv2
I0505 17:51:25.604615  8393 net.cpp:151] Top shape: 20 128 5 5 (64000)
I0505 17:51:25.604620  8393 net.cpp:159] Memory required for data: 1416080
I0505 17:51:25.604629  8393 layer_factory.hpp:77] Creating layer relu2
I0505 17:51:25.604635  8393 net.cpp:94] Creating Layer relu2
I0505 17:51:25.604638  8393 net.cpp:435] relu2 <- conv2
I0505 17:51:25.604643  8393 net.cpp:396] relu2 -> conv2 (in-place)
I0505 17:51:25.604650  8393 net.cpp:144] Setting up relu2
I0505 17:51:25.604655  8393 net.cpp:151] Top shape: 20 128 5 5 (64000)
I0505 17:51:25.604660  8393 net.cpp:159] Memory required for data: 1672080
I0505 17:51:25.604662  8393 layer_factory.hpp:77] Creating layer conv3
I0505 17:51:25.604671  8393 net.cpp:94] Creating Layer conv3
I0505 17:51:25.604673  8393 net.cpp:435] conv3 <- conv2
I0505 17:51:25.604678  8393 net.cpp:409] conv3 -> conv3
I0505 17:51:25.619740  8393 net.cpp:144] Setting up conv3
I0505 17:51:25.619755  8393 net.cpp:151] Top shape: 20 128 5 5 (64000)
I0505 17:51:25.619760  8393 net.cpp:159] Memory required for data: 1928080
I0505 17:51:25.619768  8393 layer_factory.hpp:77] Creating layer relu3
I0505 17:51:25.619781  8393 net.cpp:94] Creating Layer relu3
I0505 17:51:25.619786  8393 net.cpp:435] relu3 <- conv3
I0505 17:51:25.619791  8393 net.cpp:396] relu3 -> conv3 (in-place)
I0505 17:51:25.619798  8393 net.cpp:144] Setting up relu3
I0505 17:51:25.619803  8393 net.cpp:151] Top shape: 20 128 5 5 (64000)
I0505 17:51:25.619807  8393 net.cpp:159] Memory required for data: 2184080
I0505 17:51:25.619809  8393 layer_factory.hpp:77] Creating layer pool3
I0505 17:51:25.619817  8393 net.cpp:94] Creating Layer pool3
I0505 17:51:25.619819  8393 net.cpp:435] pool3 <- conv3
I0505 17:51:25.619824  8393 net.cpp:409] pool3 -> pool3
I0505 17:51:25.619865  8393 net.cpp:144] Setting up pool3
I0505 17:51:25.619874  8393 net.cpp:151] Top shape: 20 128 2 2 (10240)
I0505 17:51:25.619877  8393 net.cpp:159] Memory required for data: 2225040
I0505 17:51:25.619881  8393 layer_factory.hpp:77] Creating layer ip1
I0505 17:51:25.619890  8393 net.cpp:94] Creating Layer ip1
I0505 17:51:25.619894  8393 net.cpp:435] ip1 <- pool3
I0505 17:51:25.619900  8393 net.cpp:409] ip1 -> ip1
I0505 17:51:25.627753  8393 net.cpp:144] Setting up ip1
I0505 17:51:25.627770  8393 net.cpp:151] Top shape: 20 512 (10240)
I0505 17:51:25.627774  8393 net.cpp:159] Memory required for data: 2266000
I0505 17:51:25.627781  8393 layer_factory.hpp:77] Creating layer ip2
I0505 17:51:25.627789  8393 net.cpp:94] Creating Layer ip2
I0505 17:51:25.627794  8393 net.cpp:435] ip2 <- ip1
I0505 17:51:25.627799  8393 net.cpp:409] ip2 -> ip2
I0505 17:51:25.630961  8393 net.cpp:144] Setting up ip2
I0505 17:51:25.630971  8393 net.cpp:151] Top shape: 20 256 (5120)
I0505 17:51:25.630975  8393 net.cpp:159] Memory required for data: 2286480
I0505 17:51:25.630982  8393 layer_factory.hpp:77] Creating layer ip3
I0505 17:51:25.630988  8393 net.cpp:94] Creating Layer ip3
I0505 17:51:25.630991  8393 net.cpp:435] ip3 <- ip2
I0505 17:51:25.630997  8393 net.cpp:409] ip3 -> ip3
I0505 17:51:25.631099  8393 net.cpp:144] Setting up ip3
I0505 17:51:25.631106  8393 net.cpp:151] Top shape: 20 1 (20)
I0505 17:51:25.631110  8393 net.cpp:159] Memory required for data: 2286560
I0505 17:51:25.631115  8393 layer_factory.hpp:77] Creating layer loss
I0505 17:51:25.631122  8393 net.cpp:94] Creating Layer loss
I0505 17:51:25.631125  8393 net.cpp:435] loss <- ip3
I0505 17:51:25.631129  8393 net.cpp:435] loss <- label
I0505 17:51:25.631134  8393 net.cpp:409] loss -> loss
I0505 17:51:25.631186  8393 net.cpp:144] Setting up loss
…
I0505 17:51:25.682070  8393 net.cpp:323] The NetState phase (0) differed from the phase (1) specified by a rule in layer intercept
I0505 17:51:25.682083  8393 net.cpp:323] The NetState phase (0) differed from the phase (1) specified by a rule in layer accuracy
I0505 17:51:25.682152  8393 net.cpp:52] Initializing net from parameters: 
state {
  phase: TRAIN
}
layer {
  name: "parameters"
  type: "HDF5Data"
  top: "data"
  top: "label"
  include {
    phase: TRAIN
  }
  hdf5_data_param {
    source: "/home/purduethu/scratch/radon/d/deng106/CNNStatisticalModel/distributions/input/20_distributions_100_sample_size_train-distributions-path.txt"
    batch_size: 20
  }
}
layer {
  name: "conv1"
  type: "Convolution"
  bottom: "data"
  top: "conv1"
  param {
    lr_mult: 1
  }
  param {
    lr_mult: 2
  }
  convolution_param {
    num_output: 64
    pad: 2
    kernel_size: 5
    stride: 1
    weight_filler {
      type: "gaussian"
      std: 0.0001
    }
    bias_filler {
      type: "constant"
    }
  }
}
layer {
  name: "relu1"
  type: "ReLU"
  bottom: "conv1"
  top: "conv1"
}
layer {
  name: "pool1"
  type: "Pooling"
  bottom: "conv1"
  top: "pool1"
  pooling_param {
    pool: MAX
    kernel_size: 3
    stride: 2
  }
}
layer {
  name: "conv2"
  type: "Convolution"
  bottom: "pool1"
  top: "conv2"
  param {
    lr_mult: 1
  }
  param {
    lr_mult: 2
  }
  convolution_param {
    num_output: 128
    pad: 2
    kernel_size: 5
    stride: 1
    weight_filler {
      type: "gaussian"
      std: 0.01
    }
    bias_filler {
      type: "constant"
    }
  }
}
layer {
  name: "relu2"
  type: "ReLU"
  bottom: "conv2"
  top: "conv2"
}
layer {
  name: "conv3"
  type: "Convolution"
  bottom: "conv2"
  top: "conv3"
  param {
    lr_mult: 1
  }
  param {
    lr_mult: 2
  }
  convolution_param {
    num_output: 128
    pad: 2
    kernel_size: 5
    stride: 1
    weight_filler {
      type: "gaussian"
      std: 0.01
    }
    bias_filler {
      type: "constant"
    }
  }
}
layer {
  name: "relu3"
  type: "ReLU"
  bottom: "conv3"
  top: "conv3"
}
layer {
  name: "pool3"
  type: "Pooling"
  bottom: "conv3"
  top: "pool3"
  pooling_param {
    pool: AVE
    kernel_size: 3
    stride: 2
  }
}
layer {
  name: "ip1"
  type: "InnerProduct"
  bottom: "pool3"
  top: "ip1"
  param {
    lr_mult: 1
  }
  param {
    lr_mult: 2
  }
  inner_product_param {
    num_output: 512
    weight_filler {
      type: "gaussian"
      std: 0.1
    }
    bias_filler {
      type: "constant"
    }
  }
}
layer {
  name: "ip2"
  type: "InnerProduct"
  bottom: "ip1"
  top: "ip2"
  param {
    lr_mult: 1
  }
  param {
    lr_mult: 2
  }
  inner_product_param {
    num_output: 256
    weight_filler {
      type: "gaussian"
      std: 0.1
    }
    bias_filler {
      type: "constant"
    }
  }
}
layer {
  name: "ip3"
  type: "InnerProduct"
  bottom: "ip2"
  top: "ip3"
  param {
    lr_mult: 1
  }
  param {
    lr_mult: 2
  }
  inner_product_param {
    num_output: 50
    weight_filler {
      type: "gaussian"
      std: 0.1
    }
    bias_filler {
      type: "constant"
    }
  }
}
layer {
  name: "loss"
  type: "SoftmaxWithLoss"
  bottom: "ip3"
  bottom: "label"
  top: "loss"
}
I0505 17:51:25.682193  8393 layer_factory.hpp:77] Creating layer parameters
I0505 17:51:25.682201  8393 net.cpp:94] Creating Layer parameters
I0505 17:51:25.682205  8393 net.cpp:409] parameters -> data
I0505 17:51:25.682212  8393 net.cpp:409] parameters -> label
I0505 17:51:25.682219  8393 hdf5_data_layer.cpp:79] Loading list of HDF5 filenames from: /home/purduethu/scratch/radon/d/deng106/CNNStatisticalModel/distributions/input/20_distributions_100_sample_size_train-distributions-path.txt
I0505 17:51:25.682234  8393 hdf5_data_layer.cpp:93] Number of HDF5 files: 1
I0505 17:51:25.746898  8393 hdf5.cpp:35] Datatype class: H5T_INTEGER
I0505 17:51:25.748849  8393 net.cpp:144] Setting up parameters
I0505 17:51:25.748879  8393 net.cpp:151] Top shape: 20 1 10 10 (2000)
I0505 17:51:25.748884  8393 net.cpp:151] Top shape: 20 (20)
I0505 17:51:25.748888  8393 net.cpp:159] Memory required for data: 8080
I0505 17:51:25.748894  8393 layer_factory.hpp:77] Creating layer conv1
I0505 17:51:25.748911  8393 net.cpp:94] Creating Layer conv1
I0505 17:51:25.748915  8393 net.cpp:435] conv1 <- data
I0505 17:51:25.748922  8393 net.cpp:409] conv1 -> conv1
I0505 17:51:25.750759  8393 net.cpp:144] Setting up conv1
I0505 17:51:25.750773  8393 net.cpp:151] Top shape: 20 64 10 10 (128000)
I0505 17:51:25.750777  8393 net.cpp:159] Memory required for data: 520080
I0505 17:51:25.750787  8393 layer_factory.hpp:77] Creating layer relu1
I0505 17:51:25.750794  8393 net.cpp:94] Creating Layer relu1
I0505 17:51:25.750798  8393 net.cpp:435] relu1 <- conv1
I0505 17:51:25.750803  8393 net.cpp:396] relu1 -> conv1 (in-place)
I0505 17:51:25.750811  8393 net.cpp:144] Setting up relu1
I0505 17:51:25.750816  8393 net.cpp:151] Top shape: 20 64 10 10 (128000)
I0505 17:51:25.750819  8393 net.cpp:159] Memory required for data: 1032080
I0505 17:51:25.750823  8393 layer_factory.hpp:77] Creating layer pool1
I0505 17:51:25.750828  8393 net.cpp:94] Creating Layer pool1
I0505 17:51:25.750831  8393 net.cpp:435] pool1 <- conv1
I0505 17:51:25.750843  8393 net.cpp:409] pool1 -> pool1
I0505 17:51:25.750902  8393 net.cpp:144] Setting up pool1
I0505 17:51:25.750910  8393 net.cpp:151] Top shape: 20 64 5 5 (32000)
I0505 17:51:25.750913  8393 net.cpp:159] Memory required for data: 1160080
I0505 17:51:25.750917  8393 layer_factory.hpp:77] Creating layer conv2
I0505 17:51:25.750926  8393 net.cpp:94] Creating Layer conv2
I0505 17:51:25.750931  8393 net.cpp:435] conv2 <- pool1
I0505 17:51:25.750936  8393 net.cpp:409] conv2 -> conv2
I0505 17:51:25.759214  8393 net.cpp:144] Setting up conv2
I0505 17:51:25.759230  8393 net.cpp:151] Top shape: 20 128 5 5 (64000)
I0505 17:51:25.759234  8393 net.cpp:159] Memory required for data: 1416080
I0505 17:51:25.759243  8393 layer_factory.hpp:77] Creating layer relu2
I0505 17:51:25.759250  8393 net.cpp:94] Creating Layer relu2
I0505 17:51:25.759253  8393 net.cpp:435] relu2 <- conv2
I0505 17:51:25.759259  8393 net.cpp:396] relu2 -> conv2 (in-place)
I0505 17:51:25.759268  8393 net.cpp:144] Setting up relu2
I0505 17:51:25.759272  8393 net.cpp:151] Top shape: 20 128 5 5 (64000)
I0505 17:51:25.759275  8393 net.cpp:159] Memory required for data: 1672080
I0505 17:51:25.759279  8393 layer_factory.hpp:77] Creating layer conv3
I0505 17:51:25.759287  8393 net.cpp:94] Creating Layer conv3
I0505 17:51:25.759291  8393 net.cpp:435] conv3 <- conv2
I0505 17:51:25.759297  8393 net.cpp:409] conv3 -> conv3
I0505 17:51:25.773960  8393 net.cpp:144] Setting up conv3
I0505 17:51:25.773977  8393 net.cpp:151] Top shape: 20 128 5 5 (64000)
I0505 17:51:25.773980  8393 net.cpp:159] Memory required for data: 1928080
I0505 17:51:25.773989  8393 layer_factory.hpp:77] Creating layer relu3
I0505 17:51:25.773996  8393 net.cpp:94] Creating Layer relu3
I0505 17:51:25.773999  8393 net.cpp:435] relu3 <- conv3
I0505 17:51:25.774006  8393 net.cpp:396] relu3 -> conv3 (in-place)
I0505 17:51:25.774013  8393 net.cpp:144] Setting up relu3
I0505 17:51:25.774019  8393 net.cpp:151] Top shape: 20 128 5 5 (64000)
I0505 17:51:25.774021  8393 net.cpp:159] Memory required for data: 2184080
I0505 17:51:25.774024  8393 layer_factory.hpp:77] Creating layer pool3
I0505 17:51:25.774030  8393 net.cpp:94] Creating Layer pool3
I0505 17:51:25.774034  8393 net.cpp:435] pool3 <- conv3
I0505 17:51:25.774039  8393 net.cpp:409] pool3 -> pool3
I0505 17:51:25.774080  8393 net.cpp:144] Setting up pool3
I0505 17:51:25.774087  8393 net.cpp:151] Top shape: 20 128 2 2 (10240)
I0505 17:51:25.774091  8393 net.cpp:159] Memory required for data: 2225040
I0505 17:51:25.774094  8393 layer_factory.hpp:77] Creating layer ip1
I0505 17:51:25.774102  8393 net.cpp:94] Creating Layer ip1
I0505 17:51:25.774106  8393 net.cpp:435] ip1 <- pool3
I0505 17:51:25.774111  8393 net.cpp:409] ip1 -> ip1
I0505 17:51:25.781292  8393 net.cpp:144] Setting up ip1
I0505 17:51:25.781306  8393 net.cpp:151] Top shape: 20 512 (10240)
I0505 17:51:25.781311  8393 net.cpp:159] Memory required for data: 2266000
I0505 17:51:25.781317  8393 layer_factory.hpp:77] Creating layer ip2
I0505 17:51:25.781324  8393 net.cpp:94] Creating Layer ip2
I0505 17:51:25.781328  8393 net.cpp:435] ip2 <- ip1
I0505 17:51:25.781335  8393 net.cpp:409] ip2 -> ip2
I0505 17:51:25.784567  8393 net.cpp:144] Setting up ip2
I0505 17:51:25.784579  8393 net.cpp:151] Top shape: 20 256 (5120)
I0505 17:51:25.784582  8393 net.cpp:159] Memory required for data: 2286480
I0505 17:51:25.784591  8393 layer_factory.hpp:77] Creating layer ip3
I0505 17:51:25.784597  8393 net.cpp:94] Creating Layer ip3
I0505 17:51:25.784601  8393 net.cpp:435] ip3 <- ip2
I0505 17:51:25.784607  8393 net.cpp:409] ip3 -> ip3
I0505 17:51:25.785935  8393 net.cpp:144] Setting up ip3
I0505 17:51:25.785948  8393 net.cpp:151] Top shape: 20 50 (1000)
I0505 17:51:25.785953  8393 net.cpp:159] Memory required for data: 2290480
I0505 17:51:25.785959  8393 layer_factory.hpp:77] Creating layer loss
I0505 17:51:25.785964  8393 net.cpp:94] Creating Layer loss
I0505 17:51:25.785969  8393 net.cpp:435] loss <- ip3
I0505 17:51:25.785972  8393 net.cpp:435] loss <- label
I0505 17:51:25.785979  8393 net.cpp:409] loss -> loss
I0505 17:51:25.785991  8393 layer_factory.hpp:77] Creating layer loss
…
I0505 17:51:25.786459  8393 solver.cpp:181] Creating test net (#0) specified by net file: ./protocol/dis_20_100_dimension.protocol_distribution
I0505 17:51:25.786484  8393 net.cpp:323] The NetState phase (1) differed from the phase (0) specified by a rule in layer parameters
I0505 17:51:25.786568  8393 net.cpp:52] Initializing net from parameters: 
state {
  phase: TEST
}
layer {
  name: "intercept"
  type: "HDF5Data"
  top: "data"
  top: "label"
  include {
    phase: TEST
  }
  hdf5_data_param {
    source: "/home/purduethu/scratch/radon/d/deng106/CNNStatisticalModel/distributions/input/20_distributions_100_sample_size_test-distributions-path.txt"
    batch_size: 20
  }
}
layer {
  name: "conv1"
  type: "Convolution"
  bottom: "data"
  top: "conv1"
  param {
    lr_mult: 1
  }
  param {
    lr_mult: 2
  }
  convolution_param {
    num_output: 64
    pad: 2
    kernel_size: 5
    stride: 1
    weight_filler {
      type: "gaussian"
      std: 0.0001
    }
    bias_filler {
      type: "constant"
    }
  }
}
layer {
  name: "relu1"
  type: "ReLU"
  bottom: "conv1"
  top: "conv1"
}
layer {
  name: "pool1"
  type: "Pooling"
  bottom: "conv1"
  top: "pool1"
  pooling_param {
    pool: MAX
    kernel_size: 3
    stride: 2
  }
}
layer {
  name: "conv2"
  type: "Convolution"
  bottom: "pool1"
  top: "conv2"
  param {
    lr_mult: 1
  }
  param {
    lr_mult: 2
  }
  convolution_param {
    num_output: 128
    pad: 2
    kernel_size: 5
    stride: 1
    weight_filler {
      type: "gaussian"
      std: 0.01
    }
    bias_filler {
      type: "constant"
    }
  }
}
layer {
  name: "relu2"
  type: "ReLU"
  bottom: "conv2"
  top: "conv2"
}
layer {
  name: "conv3"
  type: "Convolution"
  bottom: "conv2"
  top: "conv3"
  param {
    lr_mult: 1
  }
  param {
    lr_mult: 2
  }
  convolution_param {
    num_output: 128
    pad: 2
    kernel_size: 5
    stride: 1
    weight_filler {
      type: "gaussian"
      std: 0.01
    }
    bias_filler {
      type: "constant"
    }
  }
}
layer {
  name: "relu3"
  type: "ReLU"
  bottom: "conv3"
  top: "conv3"
}
layer {
  name: "pool3"
  type: "Pooling"
  bottom: "conv3"
  top: "pool3"
  pooling_param {
    pool: AVE
    kernel_size: 3
    stride: 2
  }
}
layer {
  name: "ip1"
  type: "InnerProduct"
  bottom: "pool3"
  top: "ip1"
  param {
    lr_mult: 1
  }
  param {
    lr_mult: 2
  }
  inner_product_param {
    num_output: 512
    weight_filler {
      type: "gaussian"
      std: 0.1
    }
    bias_filler {
      type: "constant"
    }
  }
}
layer {
  name: "ip2"
  type: "InnerProduct"
  bottom: "ip1"
  top: "ip2"
  param {
    lr_mult: 1
  }
  param {
    lr_mult: 2
  }
  inner_product_param {
    num_output: 256
    weight_filler {
      type: "gaussian"
      std: 0.1
    }
    bias_filler {
      type: "constant"
    }
  }
}
layer {
  name: "ip3"
  type: "InnerProduct"
  bottom: "ip2"
  top: "ip3"
  param {
    lr_mult: 1
  }
  param {
    lr_mult: 2
  }
  inner_product_param {
    num_output: 50
    weight_filler {
      type: "gaussian"
      std: 0.1
    }
    bias_filler {
      type: "constant"
    }
  }
}
layer {
  name: "accuracy"
  type: "Accuracy"
  bottom: "ip3"
  bottom: "label"
  top: "accuracy"
  include {
    phase: TEST
  }
}
layer {
  name: "loss"
  type: "SoftmaxWithLoss"
  bottom: "ip3"
  bottom: "label"
  top: "loss"
}
I0505 17:51:25.786631  8393 layer_factory.hpp:77] Creating layer intercept
I0505 17:51:25.786641  8393 net.cpp:94] Creating Layer intercept
I0505 17:51:25.786645  8393 net.cpp:409] intercept -> data
I0505 17:51:25.786653  8393 net.cpp:409] intercept -> label
I0505 17:51:25.786659  8393 hdf5_data_layer.cpp:79] Loading list of HDF5 filenames from: /home/purduethu/scratch/radon/d/deng106/CNNStatisticalModel/distributions/input/20_distributions_100_sample_size_test-distributions-path.txt
I0505 17:51:25.786681  8393 hdf5_data_layer.cpp:93] Number of HDF5 files: 1
I0505 17:51:25.804286  8393 net.cpp:144] Setting up intercept
I0505 17:51:25.804322  8393 net.cpp:151] Top shape: 20 1 10 10 (2000)
I0505 17:51:25.804328  8393 net.cpp:151] Top shape: 20 (20)
I0505 17:51:25.804333  8393 net.cpp:159] Memory required for data: 8080
I0505 17:51:25.804339  8393 layer_factory.hpp:77] Creating layer label_intercept_1_split
I0505 17:51:25.804358  8393 net.cpp:94] Creating Layer label_intercept_1_split
I0505 17:51:25.804363  8393 net.cpp:435] label_intercept_1_split <- label
I0505 17:51:25.804368  8393 net.cpp:409] label_intercept_1_split -> label_intercept_1_split_0
I0505 17:51:25.804378  8393 net.cpp:409] label_intercept_1_split -> label_intercept_1_split_1
I0505 17:51:25.804425  8393 net.cpp:144] Setting up label_intercept_1_split
I0505 17:51:25.804432  8393 net.cpp:151] Top shape: 20 (20)
I0505 17:51:25.804436  8393 net.cpp:151] Top shape: 20 (20)
I0505 17:51:25.804440  8393 net.cpp:159] Memory required for data: 8240
I0505 17:51:25.804443  8393 layer_factory.hpp:77] Creating layer conv1
I0505 17:51:25.804455  8393 net.cpp:94] Creating Layer conv1
I0505 17:51:25.804458  8393 net.cpp:435] conv1 <- data
I0505 17:51:25.804463  8393 net.cpp:409] conv1 -> conv1
I0505 17:51:25.805287  8393 net.cpp:144] Setting up conv1
I0505 17:51:25.805302  8393 net.cpp:151] Top shape: 20 64 10 10 (128000)
I0505 17:51:25.805306  8393 net.cpp:159] Memory required for data: 520240
I0505 17:51:25.805316  8393 layer_factory.hpp:77] Creating layer relu1
I0505 17:51:25.805323  8393 net.cpp:94] Creating Layer relu1
I0505 17:51:25.805327  8393 net.cpp:435] relu1 <- conv1
I0505 17:51:25.805331  8393 net.cpp:396] relu1 -> conv1 (in-place)
I0505 17:51:25.805339  8393 net.cpp:144] Setting up relu1
I0505 17:51:25.805344  8393 net.cpp:151] Top shape: 20 64 10 10 (128000)
I0505 17:51:25.805347  8393 net.cpp:159] Memory required for data: 1032240
I0505 17:51:25.805351  8393 layer_factory.hpp:77] Creating layer pool1
I0505 17:51:25.805357  8393 net.cpp:94] Creating Layer pool1
I0505 17:51:25.805361  8393 net.cpp:435] pool1 <- conv1
I0505 17:51:25.805366  8393 net.cpp:409] pool1 -> pool1
I0505 17:51:25.805421  8393 net.cpp:144] Setting up pool1
I0505 17:51:25.805429  8393 net.cpp:151] Top shape: 20 64 5 5 (32000)
I0505 17:51:25.805433  8393 net.cpp:159] Memory required for data: 1160240
I0505 17:51:25.805436  8393 layer_factory.hpp:77] Creating layer conv2
I0505 17:51:25.805444  8393 net.cpp:94] Creating Layer conv2
I0505 17:51:25.805449  8393 net.cpp:435] conv2 <- pool1
I0505 17:51:25.805454  8393 net.cpp:409] conv2 -> conv2
I0505 17:51:25.812976  8393 net.cpp:144] Setting up conv2
I0505 17:51:25.812991  8393 net.cpp:151] Top shape: 20 128 5 5 (64000)
I0505 17:51:25.812996  8393 net.cpp:159] Memory required for data: 1416240
I0505 17:51:25.813004  8393 layer_factory.hpp:77] Creating layer relu2
I0505 17:51:25.813017  8393 net.cpp:94] Creating Layer relu2
I0505 17:51:25.813021  8393 net.cpp:435] relu2 <- conv2
I0505 17:51:25.813026  8393 net.cpp:396] relu2 -> conv2 (in-place)
I0505 17:51:25.813035  8393 net.cpp:144] Setting up relu2
I0505 17:51:25.813040  8393 net.cpp:151] Top shape: 20 128 5 5 (64000)
I0505 17:51:25.813042  8393 net.cpp:159] Memory required for data: 1672240
I0505 17:51:25.813045  8393 layer_factory.hpp:77] Creating layer conv3
I0505 17:51:25.813053  8393 net.cpp:94] Creating Layer conv3
I0505 17:51:25.813057  8393 net.cpp:435] conv3 <- conv2
I0505 17:51:25.813062  8393 net.cpp:409] conv3 -> conv3
I0505 17:51:25.825451  8393 net.cpp:144] Setting up conv3
I0505 17:51:25.825467  8393 net.cpp:151] Top shape: 20 128 5 5 (64000)
I0505 17:51:25.825471  8393 net.cpp:159] Memory required for data: 1928240
I0505 17:51:25.825480  8393 layer_factory.hpp:77] Creating layer relu3
I0505 17:51:25.825487  8393 net.cpp:94] Creating Layer relu3
I0505 17:51:25.825491  8393 net.cpp:435] relu3 <- conv3
I0505 17:51:25.825496  8393 net.cpp:396] relu3 -> conv3 (in-place)
I0505 17:51:25.825503  8393 net.cpp:144] Setting up relu3
I0505 17:51:25.825508  8393 net.cpp:151] Top shape: 20 128 5 5 (64000)
I0505 17:51:25.825511  8393 net.cpp:159] Memory required for data: 2184240
I0505 17:51:25.825515  8393 layer_factory.hpp:77] Creating layer pool3
I0505 17:51:25.825520  8393 net.cpp:94] Creating Layer pool3
I0505 17:51:25.825523  8393 net.cpp:435] pool3 <- conv3
I0505 17:51:25.825527  8393 net.cpp:409] pool3 -> pool3
I0505 17:51:25.825567  8393 net.cpp:144] Setting up pool3
I0505 17:51:25.825577  8393 net.cpp:151] Top shape: 20 128 2 2 (10240)
I0505 17:51:25.825579  8393 net.cpp:159] Memory required for data: 2225200
I0505 17:51:25.825583  8393 layer_factory.hpp:77] Creating layer ip1
I0505 17:51:25.825590  8393 net.cpp:94] Creating Layer ip1
I0505 17:51:25.825594  8393 net.cpp:435] ip1 <- pool3
I0505 17:51:25.825599  8393 net.cpp:409] ip1 -> ip1
I0505 17:51:25.831847  8393 net.cpp:144] Setting up ip1
I0505 17:51:25.831857  8393 net.cpp:151] Top shape: 20 512 (10240)
I0505 17:51:25.831861  8393 net.cpp:159] Memory required for data: 2266160
I0505 17:51:25.831867  8393 layer_factory.hpp:77] Creating layer ip2
I0505 17:51:25.831873  8393 net.cpp:94] Creating Layer ip2
I0505 17:51:25.831877  8393 net.cpp:435] ip2 <- ip1
I0505 17:51:25.831882  8393 net.cpp:409] ip2 -> ip2
I0505 17:51:25.835060  8393 net.cpp:144] Setting up ip2
I0505 17:51:25.835070  8393 net.cpp:151] Top shape: 20 256 (5120)
I0505 17:51:25.835073  8393 net.cpp:159] Memory required for data: 2286640
I0505 17:51:25.835081  8393 layer_factory.hpp:77] Creating layer ip3
I0505 17:51:25.835088  8393 net.cpp:94] Creating Layer ip3
I0505 17:51:25.835091  8393 net.cpp:435] ip3 <- ip2
I0505 17:51:25.835096  8393 net.cpp:409] ip3 -> ip3
I0505 17:51:25.835526  8393 net.cpp:144] Setting up ip3
I0505 17:51:25.835536  8393 net.cpp:151] Top shape: 20 50 (1000)
I0505 17:51:25.835538  8393 net.cpp:159] Memory required for data: 2290640
I0505 17:51:25.835544  8393 layer_factory.hpp:77] Creating layer ip3_ip3_0_split
I0505 17:51:25.835549  8393 net.cpp:94] Creating Layer ip3_ip3_0_split
I0505 17:51:25.835553  8393 net.cpp:435] ip3_ip3_0_split <- ip3
I0505 17:51:25.835557  8393 net.cpp:409] ip3_ip3_0_split -> ip3_ip3_0_split_0
I0505 17:51:25.835563  8393 net.cpp:409] ip3_ip3_0_split -> ip3_ip3_0_split_1
I0505 17:51:25.835605  8393 net.cpp:144] Setting up ip3_ip3_0_split
I0505 17:51:25.835613  8393 net.cpp:151] Top shape: 20 50 (1000)
I0505 17:51:25.835616  8393 net.cpp:151] Top shape: 20 50 (1000)
I0505 17:51:25.835619  8393 net.cpp:159] Memory required for data: 2298640
I0505 17:51:25.835623  8393 layer_factory.hpp:77] Creating layer accuracy
I0505 17:51:25.835628  8393 net.cpp:94] Creating Layer accuracy
I0505 17:51:25.835633  8393 net.cpp:435] accuracy <- ip3_ip3_0_split_0
I0505 17:51:25.835636  8393 net.cpp:435] accuracy <- label_intercept_1_split_0
I0505 17:51:25.835640  8393 net.cpp:409] accuracy -> accuracy
…
