…
I0501 21:56:14.743768 14959 net.cpp:323] The NetState phase (0) differed from the phase (1) specified by a rule in layer intercept
I0501 21:56:14.743783 14959 net.cpp:323] The NetState phase (0) differed from the phase (1) specified by a rule in layer accuracy
I0501 21:56:14.743876 14959 net.cpp:52] Initializing net from parameters: 
state {
  phase: TRAIN
}
layer {
  name: "parameters"
  type: "HDF5Data"
  top: "data"
  top: "label"
  include {
    phase: TRAIN
  }
  hdf5_data_param {
    source: "/home/purduethu/scratch/radon/d/deng106/CNNStatisticalModel/distributions/input/5_distributions_400_sample_size_train-distributions-path.txt"
    batch_size: 20
  }
}
layer {
  name: "conv1"
  type: "Convolution"
  bottom: "data"
  top: "conv1"
  param {
    lr_mult: 1
  }
  param {
    lr_mult: 2
  }
  convolution_param {
    num_output: 64
    pad: 2
    kernel_size: 5
    stride: 1
    weight_filler {
      type: "gaussian"
      std: 0.0001
    }
    bias_filler {
      type: "constant"
    }
  }
}
layer {
  name: "relu1"
  type: "ReLU"
  bottom: "conv1"
  top: "conv1"
}
layer {
  name: "conv2"
  type: "Convolution"
  bottom: "conv1"
  top: "conv2"
  param {
    lr_mult: 1
  }
  param {
    lr_mult: 2
  }
  convolution_param {
    num_output: 64
    pad: 2
    kernel_size: 5
    stride: 1
    weight_filler {
      type: "gaussian"
      std: 0.01
    }
    bias_filler {
      type: "constant"
    }
  }
}
layer {
  name: "relu2"
  type: "ReLU"
  bottom: "conv2"
  top: "conv2"
}
layer {
  name: "pool2"
  type: "Pooling"
  bottom: "conv2"
  top: "pool2"
  pooling_param {
    pool: MAX
    kernel_size: 3
    stride: 2
  }
}
layer {
  name: "conv3"
  type: "Convolution"
  bottom: "pool2"
  top: "conv3"
  param {
    lr_mult: 1
  }
  param {
    lr_mult: 2
  }
  convolution_param {
    num_output: 64
    pad: 2
    kernel_size: 5
    stride: 1
    weight_filler {
      type: "gaussian"
      std: 0.01
    }
    bias_filler {
      type: "constant"
    }
  }
}
layer {
  name: "relu3"
  type: "ReLU"
  bottom: "conv3"
  top: "conv3"
}
layer {
  name: "conv4"
  type: "Convolution"
  bottom: "conv3"
  top: "conv4"
  param {
    lr_mult: 1
  }
  param {
    lr_mult: 2
  }
  convolution_param {
    num_output: 64
    pad: 2
    kernel_size: 5
    stride: 1
    weight_filler {
      type: "gaussian"
      std: 0.01
    }
    bias_filler {
      type: "constant"
    }
  }
}
layer {
  name: "relu4"
  type: "ReLU"
  bottom: "conv4"
  top: "conv4"
}
layer {
  name: "conv5"
  type: "Convolution"
  bottom: "conv4"
  top: "conv5"
  param {
    lr_mult: 1
  }
  param {
    lr_mult: 2
  }
  convolution_param {
    num_output: 64
    pad: 2
    kernel_size: 5
    stride: 1
    weight_filler {
      type: "gaussian"
      std: 0.01
    }
    bias_filler {
      type: "constant"
    }
  }
}
layer {
  name: "relu5"
  type: "ReLU"
  bottom: "conv5"
  top: "conv5"
}
layer {
  name: "pool5"
  type: "Pooling"
  bottom: "conv5"
  top: "pool5"
  pooling_param {
    pool: AVE
    kernel_size: 3
    stride: 2
  }
}
layer {
  name: "ip1"
  type: "InnerProduct"
  bottom: "pool5"
  top: "ip1"
  param {
    lr_mult: 1
  }
  param {
    lr_mult: 2
  }
  inner_product_param {
    num_output: 64
    weight_filler {
      type: "gaussian"
      std: 0.1
    }
    bias_filler {
      type: "constant"
    }
  }
}
layer {
  name: "ip2"
  type: "InnerProduct"
  bottom: "ip1"
  top: "ip2"
  param {
    lr_mult: 1
  }
  param {
    lr_mult: 2
  }
  inner_product_param {
    num_output: 64
    weight_filler {
      type: "gaussian"
      std: 0.1
    }
    bias_filler {
      type: "constant"
    }
  }
}
layer {
  name: "ip3"
  type: "InnerProduct"
  bottom: "ip2"
  top: "ip3"
  param {
    lr_mult: 1
  }
  param {
    lr_mult: 2
  }
  inner_product_param {
    num_output: 50
    weight_filler {
      type: "gaussian"
      std: 0.1
    }
    bias_filler {
      type: "constant"
    }
  }
}
layer {
  name: "loss"
  type: "SoftmaxWithLoss"
  bottom: "ip3"
  bottom: "label"
  top: "loss"
}
I0501 21:56:14.743953 14959 layer_factory.hpp:77] Creating layer parameters
I0501 21:56:14.743968 14959 net.cpp:94] Creating Layer parameters
I0501 21:56:14.743974 14959 net.cpp:409] parameters -> data
I0501 21:56:14.743994 14959 net.cpp:409] parameters -> label
I0501 21:56:14.744004 14959 hdf5_data_layer.cpp:79] Loading list of HDF5 filenames from: /home/purduethu/scratch/radon/d/deng106/CNNStatisticalModel/distributions/input/5_distributions_400_sample_size_train-distributions-path.txt
I0501 21:56:14.744027 14959 hdf5_data_layer.cpp:93] Number of HDF5 files: 1
I0501 21:56:14.744637 14959 hdf5.cpp:32] Datatype class: H5T_FLOAT
I0501 21:56:14.808604 14959 hdf5.cpp:35] Datatype class: H5T_INTEGER
I0501 21:56:14.809759 14959 net.cpp:144] Setting up parameters
I0501 21:56:14.809779 14959 net.cpp:151] Top shape: 20 1 20 20 (8000)
I0501 21:56:14.809785 14959 net.cpp:151] Top shape: 20 (20)
I0501 21:56:14.809789 14959 net.cpp:159] Memory required for data: 32080
I0501 21:56:14.809797 14959 layer_factory.hpp:77] Creating layer conv1
I0501 21:56:14.809816 14959 net.cpp:94] Creating Layer conv1
I0501 21:56:14.809823 14959 net.cpp:435] conv1 <- data
I0501 21:56:14.809834 14959 net.cpp:409] conv1 -> conv1
I0501 21:56:14.814695 14959 net.cpp:144] Setting up conv1
I0501 21:56:14.814712 14959 net.cpp:151] Top shape: 20 64 20 20 (512000)
I0501 21:56:14.814715 14959 net.cpp:159] Memory required for data: 2080080
I0501 21:56:14.814728 14959 layer_factory.hpp:77] Creating layer relu1
I0501 21:56:14.814736 14959 net.cpp:94] Creating Layer relu1
I0501 21:56:14.814739 14959 net.cpp:435] relu1 <- conv1
I0501 21:56:14.814744 14959 net.cpp:396] relu1 -> conv1 (in-place)
I0501 21:56:14.814761 14959 net.cpp:144] Setting up relu1
I0501 21:56:14.814767 14959 net.cpp:151] Top shape: 20 64 20 20 (512000)
I0501 21:56:14.814770 14959 net.cpp:159] Memory required for data: 4128080
I0501 21:56:14.814774 14959 layer_factory.hpp:77] Creating layer conv2
I0501 21:56:14.814782 14959 net.cpp:94] Creating Layer conv2
I0501 21:56:14.814785 14959 net.cpp:435] conv2 <- conv1
I0501 21:56:14.814790 14959 net.cpp:409] conv2 -> conv2
I0501 21:56:14.825314 14959 net.cpp:144] Setting up conv2
I0501 21:56:14.825330 14959 net.cpp:151] Top shape: 20 64 20 20 (512000)
I0501 21:56:14.825333 14959 net.cpp:159] Memory required for data: 6176080
I0501 21:56:14.825341 14959 layer_factory.hpp:77] Creating layer relu2
I0501 21:56:14.825350 14959 net.cpp:94] Creating Layer relu2
I0501 21:56:14.825352 14959 net.cpp:435] relu2 <- conv2
I0501 21:56:14.825357 14959 net.cpp:396] relu2 -> conv2 (in-place)
I0501 21:56:14.825364 14959 net.cpp:144] Setting up relu2
I0501 21:56:14.825369 14959 net.cpp:151] Top shape: 20 64 20 20 (512000)
I0501 21:56:14.825372 14959 net.cpp:159] Memory required for data: 8224080
I0501 21:56:14.825376 14959 layer_factory.hpp:77] Creating layer pool2
I0501 21:56:14.825389 14959 net.cpp:94] Creating Layer pool2
I0501 21:56:14.825393 14959 net.cpp:435] pool2 <- conv2
I0501 21:56:14.825398 14959 net.cpp:409] pool2 -> pool2
I0501 21:56:14.825445 14959 net.cpp:144] Setting up pool2
I0501 21:56:14.825453 14959 net.cpp:151] Top shape: 20 64 10 10 (128000)
I0501 21:56:14.825455 14959 net.cpp:159] Memory required for data: 8736080
I0501 21:56:14.825459 14959 layer_factory.hpp:77] Creating layer conv3
I0501 21:56:14.825467 14959 net.cpp:94] Creating Layer conv3
I0501 21:56:14.825470 14959 net.cpp:435] conv3 <- pool2
I0501 21:56:14.825484 14959 net.cpp:409] conv3 -> conv3
I0501 21:56:14.830660 14959 net.cpp:144] Setting up conv3
I0501 21:56:14.830674 14959 net.cpp:151] Top shape: 20 64 10 10 (128000)
I0501 21:56:14.830679 14959 net.cpp:159] Memory required for data: 9248080
I0501 21:56:14.830687 14959 layer_factory.hpp:77] Creating layer relu3
I0501 21:56:14.830693 14959 net.cpp:94] Creating Layer relu3
I0501 21:56:14.830698 14959 net.cpp:435] relu3 <- conv3
I0501 21:56:14.830703 14959 net.cpp:396] relu3 -> conv3 (in-place)
I0501 21:56:14.830709 14959 net.cpp:144] Setting up relu3
I0501 21:56:14.830714 14959 net.cpp:151] Top shape: 20 64 10 10 (128000)
I0501 21:56:14.830718 14959 net.cpp:159] Memory required for data: 9760080
I0501 21:56:14.830720 14959 layer_factory.hpp:77] Creating layer conv4
I0501 21:56:14.830729 14959 net.cpp:94] Creating Layer conv4
I0501 21:56:14.830732 14959 net.cpp:435] conv4 <- conv3
I0501 21:56:14.830737 14959 net.cpp:409] conv4 -> conv4
I0501 21:56:14.835886 14959 net.cpp:144] Setting up conv4
I0501 21:56:14.835899 14959 net.cpp:151] Top shape: 20 64 10 10 (128000)
I0501 21:56:14.835903 14959 net.cpp:159] Memory required for data: 10272080
I0501 21:56:14.835911 14959 layer_factory.hpp:77] Creating layer relu4
I0501 21:56:14.835916 14959 net.cpp:94] Creating Layer relu4
I0501 21:56:14.835921 14959 net.cpp:435] relu4 <- conv4
I0501 21:56:14.835924 14959 net.cpp:396] relu4 -> conv4 (in-place)
I0501 21:56:14.835932 14959 net.cpp:144] Setting up relu4
I0501 21:56:14.835937 14959 net.cpp:151] Top shape: 20 64 10 10 (128000)
I0501 21:56:14.835939 14959 net.cpp:159] Memory required for data: 10784080
I0501 21:56:14.835942 14959 layer_factory.hpp:77] Creating layer conv5
I0501 21:56:14.835950 14959 net.cpp:94] Creating Layer conv5
I0501 21:56:14.835953 14959 net.cpp:435] conv5 <- conv4
I0501 21:56:14.835958 14959 net.cpp:409] conv5 -> conv5
I0501 21:56:14.841116 14959 net.cpp:144] Setting up conv5
I0501 21:56:14.841130 14959 net.cpp:151] Top shape: 20 64 10 10 (128000)
I0501 21:56:14.841135 14959 net.cpp:159] Memory required for data: 11296080
I0501 21:56:14.841143 14959 layer_factory.hpp:77] Creating layer relu5
I0501 21:56:14.841150 14959 net.cpp:94] Creating Layer relu5
I0501 21:56:14.841153 14959 net.cpp:435] relu5 <- conv5
I0501 21:56:14.841157 14959 net.cpp:396] relu5 -> conv5 (in-place)
I0501 21:56:14.841164 14959 net.cpp:144] Setting up relu5
I0501 21:56:14.841169 14959 net.cpp:151] Top shape: 20 64 10 10 (128000)
I0501 21:56:14.841173 14959 net.cpp:159] Memory required for data: 11808080
I0501 21:56:14.841176 14959 layer_factory.hpp:77] Creating layer pool5
I0501 21:56:14.841181 14959 net.cpp:94] Creating Layer pool5
I0501 21:56:14.841184 14959 net.cpp:435] pool5 <- conv5
I0501 21:56:14.841189 14959 net.cpp:409] pool5 -> pool5
I0501 21:56:14.841223 14959 net.cpp:144] Setting up pool5
I0501 21:56:14.841231 14959 net.cpp:151] Top shape: 20 64 5 5 (32000)
I0501 21:56:14.841234 14959 net.cpp:159] Memory required for data: 11936080
I0501 21:56:14.841238 14959 layer_factory.hpp:77] Creating layer ip1
I0501 21:56:14.841248 14959 net.cpp:94] Creating Layer ip1
I0501 21:56:14.841253 14959 net.cpp:435] ip1 <- pool5
I0501 21:56:14.841258 14959 net.cpp:409] ip1 -> ip1
I0501 21:56:14.843812 14959 net.cpp:144] Setting up ip1
I0501 21:56:14.843821 14959 net.cpp:151] Top shape: 20 64 (1280)
I0501 21:56:14.843824 14959 net.cpp:159] Memory required for data: 11941200
I0501 21:56:14.843829 14959 layer_factory.hpp:77] Creating layer ip2
I0501 21:56:14.843839 14959 net.cpp:94] Creating Layer ip2
I0501 21:56:14.843843 14959 net.cpp:435] ip2 <- ip1
I0501 21:56:14.843848 14959 net.cpp:409] ip2 -> ip2
I0501 21:56:14.844018 14959 net.cpp:144] Setting up ip2
I0501 21:56:14.844025 14959 net.cpp:151] Top shape: 20 64 (1280)
I0501 21:56:14.844028 14959 net.cpp:159] Memory required for data: 11946320
I0501 21:56:14.844033 14959 layer_factory.hpp:77] Creating layer ip3
I0501 21:56:14.844039 14959 net.cpp:94] Creating Layer ip3
I0501 21:56:14.844043 14959 net.cpp:435] ip3 <- ip2
I0501 21:56:14.844048 14959 net.cpp:409] ip3 -> ip3
I0501 21:56:14.844200 14959 net.cpp:144] Setting up ip3
I0501 21:56:14.844207 14959 net.cpp:151] Top shape: 20 50 (1000)
I0501 21:56:14.844210 14959 net.cpp:159] Memory required for data: 11950320
I0501 21:56:14.844215 14959 layer_factory.hpp:77] Creating layer loss
I0501 21:56:14.844221 14959 net.cpp:94] Creating Layer loss
I0501 21:56:14.844225 14959 net.cpp:435] loss <- ip3
I0501 21:56:14.844229 14959 net.cpp:435] loss <- label
I0501 21:56:14.844234 14959 net.cpp:409] loss -> loss
I0501 21:56:14.844244 14959 layer_factory.hpp:77] Creating layer loss
…
I0501 21:56:14.844765 14959 solver.cpp:181] Creating test net (#0) specified by net file: ./protocol/dis_5_400_dimension.protocol_distribution
I0501 21:56:14.844794 14959 net.cpp:323] The NetState phase (1) differed from the phase (0) specified by a rule in layer parameters
I0501 21:56:14.844893 14959 net.cpp:52] Initializing net from parameters: 
state {
  phase: TEST
}
layer {
  name: "intercept"
  type: "HDF5Data"
  top: "data"
  top: "label"
  include {
    phase: TEST
  }
  hdf5_data_param {
    source: "/home/purduethu/scratch/radon/d/deng106/CNNStatisticalModel/distributions/input/5_distributions_400_sample_size_test-distributions-path.txt"
    batch_size: 20
  }
}
layer {
  name: "conv1"
  type: "Convolution"
  bottom: "data"
  top: "conv1"
  param {
    lr_mult: 1
  }
  param {
    lr_mult: 2
  }
  convolution_param {
    num_output: 64
    pad: 2
    kernel_size: 5
    stride: 1
    weight_filler {
      type: "gaussian"
      std: 0.0001
    }
    bias_filler {
      type: "constant"
    }
  }
}
layer {
  name: "relu1"
  type: "ReLU"
  bottom: "conv1"
  top: "conv1"
}
layer {
  name: "conv2"
  type: "Convolution"
  bottom: "conv1"
  top: "conv2"
  param {
    lr_mult: 1
  }
  param {
    lr_mult: 2
  }
  convolution_param {
    num_output: 64
    pad: 2
    kernel_size: 5
    stride: 1
    weight_filler {
      type: "gaussian"
      std: 0.01
    }
    bias_filler {
      type: "constant"
    }
  }
}
layer {
  name: "relu2"
  type: "ReLU"
  bottom: "conv2"
  top: "conv2"
}
layer {
  name: "pool2"
  type: "Pooling"
  bottom: "conv2"
  top: "pool2"
  pooling_param {
    pool: MAX
    kernel_size: 3
    stride: 2
  }
}
layer {
  name: "conv3"
  type: "Convolution"
  bottom: "pool2"
  top: "conv3"
  param {
    lr_mult: 1
  }
  param {
    lr_mult: 2
  }
  convolution_param {
    num_output: 64
    pad: 2
    kernel_size: 5
    stride: 1
    weight_filler {
      type: "gaussian"
      std: 0.01
    }
    bias_filler {
      type: "constant"
    }
  }
}
layer {
  name: "relu3"
  type: "ReLU"
  bottom: "conv3"
  top: "conv3"
}
layer {
  name: "conv4"
  type: "Convolution"
  bottom: "conv3"
  top: "conv4"
  param {
    lr_mult: 1
  }
  param {
    lr_mult: 2
  }
  convolution_param {
    num_output: 64
    pad: 2
    kernel_size: 5
    stride: 1
    weight_filler {
      type: "gaussian"
      std: 0.01
    }
    bias_filler {
      type: "constant"
    }
  }
}
layer {
  name: "relu4"
  type: "ReLU"
  bottom: "conv4"
  top: "conv4"
}
layer {
  name: "conv5"
  type: "Convolution"
  bottom: "conv4"
  top: "conv5"
  param {
    lr_mult: 1
  }
  param {
    lr_mult: 2
  }
  convolution_param {
    num_output: 64
    pad: 2
    kernel_size: 5
    stride: 1
    weight_filler {
      type: "gaussian"
      std: 0.01
    }
    bias_filler {
      type: "constant"
    }
  }
}
layer {
  name: "relu5"
  type: "ReLU"
  bottom: "conv5"
  top: "conv5"
}
layer {
  name: "pool5"
  type: "Pooling"
  bottom: "conv5"
  top: "pool5"
  pooling_param {
    pool: AVE
    kernel_size: 3
    stride: 2
  }
}
layer {
  name: "ip1"
  type: "InnerProduct"
  bottom: "pool5"
  top: "ip1"
  param {
    lr_mult: 1
  }
  param {
    lr_mult: 2
  }
  inner_product_param {
    num_output: 64
    weight_filler {
      type: "gaussian"
      std: 0.1
    }
    bias_filler {
      type: "constant"
    }
  }
}
layer {
  name: "ip2"
  type: "InnerProduct"
  bottom: "ip1"
  top: "ip2"
  param {
    lr_mult: 1
  }
  param {
    lr_mult: 2
  }
  inner_product_param {
    num_output: 64
    weight_filler {
      type: "gaussian"
      std: 0.1
    }
    bias_filler {
      type: "constant"
    }
  }
}
layer {
  name: "ip3"
  type: "InnerProduct"
  bottom: "ip2"
  top: "ip3"
  param {
    lr_mult: 1
  }
  param {
    lr_mult: 2
  }
  inner_product_param {
    num_output: 50
    weight_filler {
      type: "gaussian"
      std: 0.1
    }
    bias_filler {
      type: "constant"
    }
  }
}
layer {
  name: "accuracy"
  type: "Accuracy"
  bottom: "ip3"
  bottom: "label"
  top: "accuracy"
  include {
    phase: TEST
  }
}
layer {
  name: "loss"
  type: "SoftmaxWithLoss"
  bottom: "ip3"
  bottom: "label"
  top: "loss"
}
I0501 21:56:14.844969 14959 layer_factory.hpp:77] Creating layer intercept
I0501 21:56:14.844979 14959 net.cpp:94] Creating Layer intercept
I0501 21:56:14.844982 14959 net.cpp:409] intercept -> data
I0501 21:56:14.844990 14959 net.cpp:409] intercept -> label
I0501 21:56:14.844996 14959 hdf5_data_layer.cpp:79] Loading list of HDF5 filenames from: /home/purduethu/scratch/radon/d/deng106/CNNStatisticalModel/distributions/input/5_distributions_400_sample_size_test-distributions-path.txt
I0501 21:56:14.845016 14959 hdf5_data_layer.cpp:93] Number of HDF5 files: 1
I0501 21:56:14.862215 14959 net.cpp:144] Setting up intercept
I0501 21:56:14.862247 14959 net.cpp:151] Top shape: 20 1 20 20 (8000)
I0501 21:56:14.862252 14959 net.cpp:151] Top shape: 20 (20)
I0501 21:56:14.862257 14959 net.cpp:159] Memory required for data: 32080
I0501 21:56:14.862262 14959 layer_factory.hpp:77] Creating layer label_intercept_1_split
I0501 21:56:14.862279 14959 net.cpp:94] Creating Layer label_intercept_1_split
I0501 21:56:14.862283 14959 net.cpp:435] label_intercept_1_split <- label
I0501 21:56:14.862289 14959 net.cpp:409] label_intercept_1_split -> label_intercept_1_split_0
I0501 21:56:14.862298 14959 net.cpp:409] label_intercept_1_split -> label_intercept_1_split_1
I0501 21:56:14.862332 14959 net.cpp:144] Setting up label_intercept_1_split
I0501 21:56:14.862339 14959 net.cpp:151] Top shape: 20 (20)
I0501 21:56:14.862344 14959 net.cpp:151] Top shape: 20 (20)
I0501 21:56:14.862346 14959 net.cpp:159] Memory required for data: 32240
I0501 21:56:14.862350 14959 layer_factory.hpp:77] Creating layer conv1
I0501 21:56:14.862361 14959 net.cpp:94] Creating Layer conv1
I0501 21:56:14.862365 14959 net.cpp:435] conv1 <- data
I0501 21:56:14.862370 14959 net.cpp:409] conv1 -> conv1
I0501 21:56:14.863445 14959 net.cpp:144] Setting up conv1
I0501 21:56:14.863467 14959 net.cpp:151] Top shape: 20 64 20 20 (512000)
I0501 21:56:14.863471 14959 net.cpp:159] Memory required for data: 2080240
I0501 21:56:14.863481 14959 layer_factory.hpp:77] Creating layer relu1
I0501 21:56:14.863487 14959 net.cpp:94] Creating Layer relu1
I0501 21:56:14.863492 14959 net.cpp:435] relu1 <- conv1
I0501 21:56:14.863497 14959 net.cpp:396] relu1 -> conv1 (in-place)
I0501 21:56:14.863503 14959 net.cpp:144] Setting up relu1
I0501 21:56:14.863508 14959 net.cpp:151] Top shape: 20 64 20 20 (512000)
I0501 21:56:14.863512 14959 net.cpp:159] Memory required for data: 4128240
I0501 21:56:14.863514 14959 layer_factory.hpp:77] Creating layer conv2
I0501 21:56:14.863523 14959 net.cpp:94] Creating Layer conv2
I0501 21:56:14.863526 14959 net.cpp:435] conv2 <- conv1
I0501 21:56:14.863531 14959 net.cpp:409] conv2 -> conv2
I0501 21:56:14.868993 14959 net.cpp:144] Setting up conv2
I0501 21:56:14.869009 14959 net.cpp:151] Top shape: 20 64 20 20 (512000)
I0501 21:56:14.869014 14959 net.cpp:159] Memory required for data: 6176240
I0501 21:56:14.869021 14959 layer_factory.hpp:77] Creating layer relu2
I0501 21:56:14.869027 14959 net.cpp:94] Creating Layer relu2
I0501 21:56:14.869031 14959 net.cpp:435] relu2 <- conv2
I0501 21:56:14.869035 14959 net.cpp:396] relu2 -> conv2 (in-place)
I0501 21:56:14.869042 14959 net.cpp:144] Setting up relu2
I0501 21:56:14.869047 14959 net.cpp:151] Top shape: 20 64 20 20 (512000)
I0501 21:56:14.869050 14959 net.cpp:159] Memory required for data: 8224240
I0501 21:56:14.869053 14959 layer_factory.hpp:77] Creating layer pool2
I0501 21:56:14.869060 14959 net.cpp:94] Creating Layer pool2
I0501 21:56:14.869063 14959 net.cpp:435] pool2 <- conv2
I0501 21:56:14.869067 14959 net.cpp:409] pool2 -> pool2
I0501 21:56:14.869103 14959 net.cpp:144] Setting up pool2
I0501 21:56:14.869109 14959 net.cpp:151] Top shape: 20 64 10 10 (128000)
I0501 21:56:14.869113 14959 net.cpp:159] Memory required for data: 8736240
I0501 21:56:14.869117 14959 layer_factory.hpp:77] Creating layer conv3
I0501 21:56:14.869124 14959 net.cpp:94] Creating Layer conv3
I0501 21:56:14.869127 14959 net.cpp:435] conv3 <- pool2
I0501 21:56:14.869132 14959 net.cpp:409] conv3 -> conv3
I0501 21:56:14.872997 14959 net.cpp:144] Setting up conv3
I0501 21:56:14.873013 14959 net.cpp:151] Top shape: 20 64 10 10 (128000)
I0501 21:56:14.873016 14959 net.cpp:159] Memory required for data: 9248240
I0501 21:56:14.873024 14959 layer_factory.hpp:77] Creating layer relu3
I0501 21:56:14.873031 14959 net.cpp:94] Creating Layer relu3
I0501 21:56:14.873035 14959 net.cpp:435] relu3 <- conv3
I0501 21:56:14.873039 14959 net.cpp:396] relu3 -> conv3 (in-place)
I0501 21:56:14.873046 14959 net.cpp:144] Setting up relu3
I0501 21:56:14.873051 14959 net.cpp:151] Top shape: 20 64 10 10 (128000)
I0501 21:56:14.873054 14959 net.cpp:159] Memory required for data: 9760240
I0501 21:56:14.873057 14959 layer_factory.hpp:77] Creating layer conv4
I0501 21:56:14.873065 14959 net.cpp:94] Creating Layer conv4
I0501 21:56:14.873069 14959 net.cpp:435] conv4 <- conv3
I0501 21:56:14.873073 14959 net.cpp:409] conv4 -> conv4
I0501 21:56:14.876499 14959 net.cpp:144] Setting up conv4
I0501 21:56:14.876513 14959 net.cpp:151] Top shape: 20 64 10 10 (128000)
I0501 21:56:14.876516 14959 net.cpp:159] Memory required for data: 10272240
I0501 21:56:14.876523 14959 layer_factory.hpp:77] Creating layer relu4
I0501 21:56:14.876528 14959 net.cpp:94] Creating Layer relu4
I0501 21:56:14.876535 14959 net.cpp:435] relu4 <- conv4
I0501 21:56:14.876540 14959 net.cpp:396] relu4 -> conv4 (in-place)
I0501 21:56:14.876547 14959 net.cpp:144] Setting up relu4
I0501 21:56:14.876561 14959 net.cpp:151] Top shape: 20 64 10 10 (128000)
I0501 21:56:14.876565 14959 net.cpp:159] Memory required for data: 10784240
I0501 21:56:14.876569 14959 layer_factory.hpp:77] Creating layer conv5
I0501 21:56:14.876576 14959 net.cpp:94] Creating Layer conv5
I0501 21:56:14.876580 14959 net.cpp:435] conv5 <- conv4
I0501 21:56:14.876585 14959 net.cpp:409] conv5 -> conv5
I0501 21:56:14.880417 14959 net.cpp:144] Setting up conv5
I0501 21:56:14.880441 14959 net.cpp:151] Top shape: 20 64 10 10 (128000)
I0501 21:56:14.880446 14959 net.cpp:159] Memory required for data: 11296240
I0501 21:56:14.880455 14959 layer_factory.hpp:77] Creating layer relu5
I0501 21:56:14.880460 14959 net.cpp:94] Creating Layer relu5
I0501 21:56:14.880465 14959 net.cpp:435] relu5 <- conv5
I0501 21:56:14.880468 14959 net.cpp:396] relu5 -> conv5 (in-place)
I0501 21:56:14.880475 14959 net.cpp:144] Setting up relu5
I0501 21:56:14.880480 14959 net.cpp:151] Top shape: 20 64 10 10 (128000)
I0501 21:56:14.880482 14959 net.cpp:159] Memory required for data: 11808240
I0501 21:56:14.880486 14959 layer_factory.hpp:77] Creating layer pool5
I0501 21:56:14.880491 14959 net.cpp:94] Creating Layer pool5
I0501 21:56:14.880494 14959 net.cpp:435] pool5 <- conv5
I0501 21:56:14.880498 14959 net.cpp:409] pool5 -> pool5
I0501 21:56:14.880523 14959 net.cpp:144] Setting up pool5
I0501 21:56:14.880530 14959 net.cpp:151] Top shape: 20 64 5 5 (32000)
I0501 21:56:14.880533 14959 net.cpp:159] Memory required for data: 11936240
I0501 21:56:14.880537 14959 layer_factory.hpp:77] Creating layer ip1
I0501 21:56:14.880543 14959 net.cpp:94] Creating Layer ip1
I0501 21:56:14.880548 14959 net.cpp:435] ip1 <- pool5
I0501 21:56:14.880561 14959 net.cpp:409] ip1 -> ip1
I0501 21:56:14.883123 14959 net.cpp:144] Setting up ip1
I0501 21:56:14.883131 14959 net.cpp:151] Top shape: 20 64 (1280)
I0501 21:56:14.883134 14959 net.cpp:159] Memory required for data: 11941360
I0501 21:56:14.883141 14959 layer_factory.hpp:77] Creating layer ip2
I0501 21:56:14.883147 14959 net.cpp:94] Creating Layer ip2
I0501 21:56:14.883150 14959 net.cpp:435] ip2 <- ip1
I0501 21:56:14.883154 14959 net.cpp:409] ip2 -> ip2
I0501 21:56:14.883325 14959 net.cpp:144] Setting up ip2
I0501 21:56:14.883332 14959 net.cpp:151] Top shape: 20 64 (1280)
I0501 21:56:14.883334 14959 net.cpp:159] Memory required for data: 11946480
I0501 21:56:14.883339 14959 layer_factory.hpp:77] Creating layer ip3
I0501 21:56:14.883347 14959 net.cpp:94] Creating Layer ip3
I0501 21:56:14.883349 14959 net.cpp:435] ip3 <- ip2
I0501 21:56:14.883354 14959 net.cpp:409] ip3 -> ip3
I0501 21:56:14.883502 14959 net.cpp:144] Setting up ip3
I0501 21:56:14.883508 14959 net.cpp:151] Top shape: 20 50 (1000)
I0501 21:56:14.883512 14959 net.cpp:159] Memory required for data: 11950480
I0501 21:56:14.883517 14959 layer_factory.hpp:77] Creating layer ip3_ip3_0_split
I0501 21:56:14.883522 14959 net.cpp:94] Creating Layer ip3_ip3_0_split
I0501 21:56:14.883524 14959 net.cpp:435] ip3_ip3_0_split <- ip3
I0501 21:56:14.883529 14959 net.cpp:409] ip3_ip3_0_split -> ip3_ip3_0_split_0
I0501 21:56:14.883534 14959 net.cpp:409] ip3_ip3_0_split -> ip3_ip3_0_split_1
I0501 21:56:14.883558 14959 net.cpp:144] Setting up ip3_ip3_0_split
I0501 21:56:14.883563 14959 net.cpp:151] Top shape: 20 50 (1000)
I0501 21:56:14.883568 14959 net.cpp:151] Top shape: 20 50 (1000)
I0501 21:56:14.883570 14959 net.cpp:159] Memory required for data: 11958480
I0501 21:56:14.883574 14959 layer_factory.hpp:77] Creating layer accuracy
I0501 21:56:14.883579 14959 net.cpp:94] Creating Layer accuracy
I0501 21:56:14.883582 14959 net.cpp:435] accuracy <- ip3_ip3_0_split_0
I0501 21:56:14.883585 14959 net.cpp:435] accuracy <- label_intercept_1_split_0
I0501 21:56:14.883590 14959 net.cpp:409] accuracy -> accuracy
…
