…
I0503 14:53:49.148355 21012 net.cpp:323] The NetState phase (0) differed from the phase (1) specified by a rule in layer intercept
I0503 14:53:49.148371 21012 net.cpp:323] The NetState phase (0) differed from the phase (1) specified by a rule in layer accuracy
I0503 14:53:49.148464 21012 net.cpp:52] Initializing net from parameters: 
state {
  phase: TRAIN
}
layer {
  name: "parameters"
  type: "HDF5Data"
  top: "data"
  top: "label"
  include {
    phase: TRAIN
  }
  hdf5_data_param {
    source: "/home/purduethu/scratch/radon/d/deng106/CNNStatisticalModel/distributions/input/50_distributions_100_sample_size_train-distributions-path.txt"
    batch_size: 20
  }
}
layer {
  name: "conv1"
  type: "Convolution"
  bottom: "data"
  top: "conv1"
  param {
    lr_mult: 1
  }
  param {
    lr_mult: 2
  }
  convolution_param {
    num_output: 64
    pad: 2
    kernel_size: 5
    stride: 1
    weight_filler {
      type: "gaussian"
      std: 0.0001
    }
    bias_filler {
      type: "constant"
    }
  }
}
layer {
  name: "relu1"
  type: "ReLU"
  bottom: "conv1"
  top: "conv1"
}
layer {
  name: "conv2"
  type: "Convolution"
  bottom: "conv1"
  top: "conv2"
  param {
    lr_mult: 1
  }
  param {
    lr_mult: 2
  }
  convolution_param {
    num_output: 64
    pad: 2
    kernel_size: 5
    stride: 1
    weight_filler {
      type: "gaussian"
      std: 0.01
    }
    bias_filler {
      type: "constant"
    }
  }
}
layer {
  name: "relu2"
  type: "ReLU"
  bottom: "conv2"
  top: "conv2"
}
layer {
  name: "pool2"
  type: "Pooling"
  bottom: "conv2"
  top: "pool2"
  pooling_param {
    pool: MAX
    kernel_size: 3
    stride: 2
  }
}
layer {
  name: "conv3"
  type: "Convolution"
  bottom: "pool2"
  top: "conv3"
  param {
    lr_mult: 1
  }
  param {
    lr_mult: 2
  }
  convolution_param {
    num_output: 128
    pad: 2
    kernel_size: 5
    stride: 1
    weight_filler {
      type: "gaussian"
      std: 0.01
    }
    bias_filler {
      type: "constant"
    }
  }
}
layer {
  name: "relu3"
  type: "ReLU"
  bottom: "conv3"
  top: "conv3"
}
layer {
  name: "conv4"
  type: "Convolution"
  bottom: "conv3"
  top: "conv4"
  param {
    lr_mult: 1
  }
  param {
    lr_mult: 2
  }
  convolution_param {
    num_output: 128
    pad: 2
    kernel_size: 5
    stride: 1
    weight_filler {
      type: "gaussian"
      std: 0.01
    }
    bias_filler {
      type: "constant"
    }
  }
}
layer {
  name: "relu4"
  type: "ReLU"
  bottom: "conv4"
  top: "conv4"
}
layer {
  name: "conv5"
  type: "Convolution"
  bottom: "conv4"
  top: "conv5"
  param {
    lr_mult: 1
  }
  param {
    lr_mult: 2
  }
  convolution_param {
    num_output: 128
    pad: 2
    kernel_size: 5
    stride: 1
    weight_filler {
      type: "gaussian"
      std: 0.01
    }
    bias_filler {
      type: "constant"
    }
  }
}
layer {
  name: "relu5"
  type: "ReLU"
  bottom: "conv5"
  top: "conv5"
}
layer {
  name: "pool5"
  type: "Pooling"
  bottom: "conv5"
  top: "pool5"
  pooling_param {
    pool: AVE
    kernel_size: 3
    stride: 2
  }
}
layer {
  name: "ip1"
  type: "InnerProduct"
  bottom: "pool5"
  top: "ip1"
  param {
    lr_mult: 1
  }
  param {
    lr_mult: 2
  }
  inner_product_param {
    num_output: 1024
    weight_filler {
      type: "gaussian"
      std: 0.1
    }
    bias_filler {
      type: "constant"
    }
  }
}
layer {
  name: "ip2"
  type: "InnerProduct"
  bottom: "ip1"
  top: "ip2"
  param {
    lr_mult: 1
  }
  param {
    lr_mult: 2
  }
  inner_product_param {
    num_output: 512
    weight_filler {
      type: "gaussian"
      std: 0.1
    }
    bias_filler {
      type: "constant"
    }
  }
}
layer {
  name: "ip3"
  type: "InnerProduct"
  bottom: "ip2"
  top: "ip3"
  param {
    lr_mult: 1
  }
  param {
    lr_mult: 2
  }
  inner_product_param {
    num_output: 50
    weight_filler {
      type: "gaussian"
      std: 0.1
    }
    bias_filler {
      type: "constant"
    }
  }
}
layer {
  name: "loss"
  type: "SoftmaxWithLoss"
  bottom: "ip3"
  bottom: "label"
  top: "loss"
}
I0503 14:53:49.148541 21012 layer_factory.hpp:77] Creating layer parameters
I0503 14:53:49.148567 21012 net.cpp:94] Creating Layer parameters
I0503 14:53:49.148574 21012 net.cpp:409] parameters -> data
I0503 14:53:49.148594 21012 net.cpp:409] parameters -> label
I0503 14:53:49.148604 21012 hdf5_data_layer.cpp:79] Loading list of HDF5 filenames from: /home/purduethu/scratch/radon/d/deng106/CNNStatisticalModel/distributions/input/50_distributions_100_sample_size_train-distributions-path.txt
I0503 14:53:49.148627 21012 hdf5_data_layer.cpp:93] Number of HDF5 files: 1
I0503 14:53:49.149106 21012 hdf5.cpp:32] Datatype class: H5T_FLOAT
I0503 14:53:49.312530 21012 hdf5.cpp:35] Datatype class: H5T_INTEGER
I0503 14:53:49.315395 21012 net.cpp:144] Setting up parameters
I0503 14:53:49.315414 21012 net.cpp:151] Top shape: 20 1 10 10 (2000)
I0503 14:53:49.315420 21012 net.cpp:151] Top shape: 20 (20)
I0503 14:53:49.315424 21012 net.cpp:159] Memory required for data: 8080
I0503 14:53:49.315431 21012 layer_factory.hpp:77] Creating layer conv1
I0503 14:53:49.315457 21012 net.cpp:94] Creating Layer conv1
I0503 14:53:49.315464 21012 net.cpp:435] conv1 <- data
I0503 14:53:49.315474 21012 net.cpp:409] conv1 -> conv1
I0503 14:53:49.320034 21012 net.cpp:144] Setting up conv1
I0503 14:53:49.320085 21012 net.cpp:151] Top shape: 20 64 10 10 (128000)
I0503 14:53:49.320102 21012 net.cpp:159] Memory required for data: 520080
I0503 14:53:49.320144 21012 layer_factory.hpp:77] Creating layer relu1
I0503 14:53:49.320171 21012 net.cpp:94] Creating Layer relu1
I0503 14:53:49.320188 21012 net.cpp:435] relu1 <- conv1
I0503 14:53:49.320209 21012 net.cpp:396] relu1 -> conv1 (in-place)
I0503 14:53:49.320261 21012 net.cpp:144] Setting up relu1
I0503 14:53:49.320284 21012 net.cpp:151] Top shape: 20 64 10 10 (128000)
I0503 14:53:49.320299 21012 net.cpp:159] Memory required for data: 1032080
I0503 14:53:49.320315 21012 layer_factory.hpp:77] Creating layer conv2
I0503 14:53:49.320346 21012 net.cpp:94] Creating Layer conv2
I0503 14:53:49.320363 21012 net.cpp:435] conv2 <- conv1
I0503 14:53:49.320386 21012 net.cpp:409] conv2 -> conv2
I0503 14:53:49.337342 21012 net.cpp:144] Setting up conv2
I0503 14:53:49.337373 21012 net.cpp:151] Top shape: 20 64 10 10 (128000)
I0503 14:53:49.337383 21012 net.cpp:159] Memory required for data: 1544080
I0503 14:53:49.337402 21012 layer_factory.hpp:77] Creating layer relu2
I0503 14:53:49.337419 21012 net.cpp:94] Creating Layer relu2
I0503 14:53:49.337429 21012 net.cpp:435] relu2 <- conv2
I0503 14:53:49.337440 21012 net.cpp:396] relu2 -> conv2 (in-place)
I0503 14:53:49.337457 21012 net.cpp:144] Setting up relu2
I0503 14:53:49.337468 21012 net.cpp:151] Top shape: 20 64 10 10 (128000)
I0503 14:53:49.337476 21012 net.cpp:159] Memory required for data: 2056080
I0503 14:53:49.337484 21012 layer_factory.hpp:77] Creating layer pool2
I0503 14:53:49.337512 21012 net.cpp:94] Creating Layer pool2
I0503 14:53:49.337522 21012 net.cpp:435] pool2 <- conv2
I0503 14:53:49.337533 21012 net.cpp:409] pool2 -> pool2
I0503 14:53:49.337625 21012 net.cpp:144] Setting up pool2
I0503 14:53:49.337641 21012 net.cpp:151] Top shape: 20 64 5 5 (32000)
I0503 14:53:49.337648 21012 net.cpp:159] Memory required for data: 2184080
I0503 14:53:49.337656 21012 layer_factory.hpp:77] Creating layer conv3
I0503 14:53:49.337674 21012 net.cpp:94] Creating Layer conv3
I0503 14:53:49.337684 21012 net.cpp:435] conv3 <- pool2
I0503 14:53:49.337712 21012 net.cpp:409] conv3 -> conv3
I0503 14:53:49.356258 21012 net.cpp:144] Setting up conv3
I0503 14:53:49.356289 21012 net.cpp:151] Top shape: 20 128 5 5 (64000)
I0503 14:53:49.356298 21012 net.cpp:159] Memory required for data: 2440080
I0503 14:53:49.356318 21012 layer_factory.hpp:77] Creating layer relu3
I0503 14:53:49.356331 21012 net.cpp:94] Creating Layer relu3
I0503 14:53:49.356340 21012 net.cpp:435] relu3 <- conv3
I0503 14:53:49.356351 21012 net.cpp:396] relu3 -> conv3 (in-place)
I0503 14:53:49.356367 21012 net.cpp:144] Setting up relu3
I0503 14:53:49.356379 21012 net.cpp:151] Top shape: 20 128 5 5 (64000)
I0503 14:53:49.356386 21012 net.cpp:159] Memory required for data: 2696080
I0503 14:53:49.356393 21012 layer_factory.hpp:77] Creating layer conv4
I0503 14:53:49.356412 21012 net.cpp:94] Creating Layer conv4
I0503 14:53:49.356420 21012 net.cpp:435] conv4 <- conv3
I0503 14:53:49.356432 21012 net.cpp:409] conv4 -> conv4
I0503 14:53:49.384630 21012 net.cpp:144] Setting up conv4
I0503 14:53:49.384657 21012 net.cpp:151] Top shape: 20 128 5 5 (64000)
I0503 14:53:49.384665 21012 net.cpp:159] Memory required for data: 2952080
I0503 14:53:49.384677 21012 layer_factory.hpp:77] Creating layer relu4
I0503 14:53:49.384688 21012 net.cpp:94] Creating Layer relu4
I0503 14:53:49.384696 21012 net.cpp:435] relu4 <- conv4
I0503 14:53:49.384706 21012 net.cpp:396] relu4 -> conv4 (in-place)
I0503 14:53:49.384719 21012 net.cpp:144] Setting up relu4
I0503 14:53:49.384728 21012 net.cpp:151] Top shape: 20 128 5 5 (64000)
I0503 14:53:49.384735 21012 net.cpp:159] Memory required for data: 3208080
I0503 14:53:49.384742 21012 layer_factory.hpp:77] Creating layer conv5
I0503 14:53:49.384757 21012 net.cpp:94] Creating Layer conv5
I0503 14:53:49.384763 21012 net.cpp:435] conv5 <- conv4
I0503 14:53:49.384773 21012 net.cpp:409] conv5 -> conv5
I0503 14:53:49.408905 21012 net.cpp:144] Setting up conv5
I0503 14:53:49.408931 21012 net.cpp:151] Top shape: 20 128 5 5 (64000)
I0503 14:53:49.408938 21012 net.cpp:159] Memory required for data: 3464080
I0503 14:53:49.408953 21012 layer_factory.hpp:77] Creating layer relu5
I0503 14:53:49.408963 21012 net.cpp:94] Creating Layer relu5
I0503 14:53:49.408969 21012 net.cpp:435] relu5 <- conv5
I0503 14:53:49.408978 21012 net.cpp:396] relu5 -> conv5 (in-place)
I0503 14:53:49.408990 21012 net.cpp:144] Setting up relu5
I0503 14:53:49.408999 21012 net.cpp:151] Top shape: 20 128 5 5 (64000)
I0503 14:53:49.409004 21012 net.cpp:159] Memory required for data: 3720080
I0503 14:53:49.409010 21012 layer_factory.hpp:77] Creating layer pool5
I0503 14:53:49.409019 21012 net.cpp:94] Creating Layer pool5
I0503 14:53:49.409025 21012 net.cpp:435] pool5 <- conv5
I0503 14:53:49.409034 21012 net.cpp:409] pool5 -> pool5
I0503 14:53:49.409090 21012 net.cpp:144] Setting up pool5
I0503 14:53:49.409102 21012 net.cpp:151] Top shape: 20 128 2 2 (10240)
I0503 14:53:49.409108 21012 net.cpp:159] Memory required for data: 3761040
I0503 14:53:49.409114 21012 layer_factory.hpp:77] Creating layer ip1
I0503 14:53:49.409132 21012 net.cpp:94] Creating Layer ip1
I0503 14:53:49.409138 21012 net.cpp:435] ip1 <- pool5
I0503 14:53:49.409147 21012 net.cpp:409] ip1 -> ip1
I0503 14:53:49.433771 21012 net.cpp:144] Setting up ip1
I0503 14:53:49.433794 21012 net.cpp:151] Top shape: 20 1024 (20480)
I0503 14:53:49.433801 21012 net.cpp:159] Memory required for data: 3842960
I0503 14:53:49.433811 21012 layer_factory.hpp:77] Creating layer ip2
I0503 14:53:49.433822 21012 net.cpp:94] Creating Layer ip2
I0503 14:53:49.433835 21012 net.cpp:435] ip2 <- ip1
I0503 14:53:49.433845 21012 net.cpp:409] ip2 -> ip2
I0503 14:53:49.453518 21012 net.cpp:144] Setting up ip2
I0503 14:53:49.453534 21012 net.cpp:151] Top shape: 20 512 (10240)
I0503 14:53:49.453539 21012 net.cpp:159] Memory required for data: 3883920
I0503 14:53:49.453547 21012 layer_factory.hpp:77] Creating layer ip3
I0503 14:53:49.453557 21012 net.cpp:94] Creating Layer ip3
I0503 14:53:49.453562 21012 net.cpp:435] ip3 <- ip2
I0503 14:53:49.453567 21012 net.cpp:409] ip3 -> ip3
I0503 14:53:49.455188 21012 net.cpp:144] Setting up ip3
I0503 14:53:49.455204 21012 net.cpp:151] Top shape: 20 50 (1000)
I0503 14:53:49.455209 21012 net.cpp:159] Memory required for data: 3887920
I0503 14:53:49.455216 21012 layer_factory.hpp:77] Creating layer loss
I0503 14:53:49.455225 21012 net.cpp:94] Creating Layer loss
I0503 14:53:49.455230 21012 net.cpp:435] loss <- ip3
I0503 14:53:49.455236 21012 net.cpp:435] loss <- label
I0503 14:53:49.455243 21012 net.cpp:409] loss -> loss
I0503 14:53:49.455257 21012 layer_factory.hpp:77] Creating layer loss
…
I0503 14:53:49.455876 21012 solver.cpp:181] Creating test net (#0) specified by net file: ./protocol/dis_50_100_dimension.protocol_distribution
I0503 14:53:49.455909 21012 net.cpp:323] The NetState phase (1) differed from the phase (0) specified by a rule in layer parameters
I0503 14:53:49.456028 21012 net.cpp:52] Initializing net from parameters: 
state {
  phase: TEST
}
layer {
  name: "intercept"
  type: "HDF5Data"
  top: "data"
  top: "label"
  include {
    phase: TEST
  }
  hdf5_data_param {
    source: "/home/purduethu/scratch/radon/d/deng106/CNNStatisticalModel/distributions/input/50_distributions_100_sample_size_test-distributions-path.txt"
    batch_size: 20
  }
}
layer {
  name: "conv1"
  type: "Convolution"
  bottom: "data"
  top: "conv1"
  param {
    lr_mult: 1
  }
  param {
    lr_mult: 2
  }
  convolution_param {
    num_output: 64
    pad: 2
    kernel_size: 5
    stride: 1
    weight_filler {
      type: "gaussian"
      std: 0.0001
    }
    bias_filler {
      type: "constant"
    }
  }
}
layer {
  name: "relu1"
  type: "ReLU"
  bottom: "conv1"
  top: "conv1"
}
layer {
  name: "conv2"
  type: "Convolution"
  bottom: "conv1"
  top: "conv2"
  param {
    lr_mult: 1
  }
  param {
    lr_mult: 2
  }
  convolution_param {
    num_output: 64
    pad: 2
    kernel_size: 5
    stride: 1
    weight_filler {
      type: "gaussian"
      std: 0.01
    }
    bias_filler {
      type: "constant"
    }
  }
}
layer {
  name: "relu2"
  type: "ReLU"
  bottom: "conv2"
  top: "conv2"
}
layer {
  name: "pool2"
  type: "Pooling"
  bottom: "conv2"
  top: "pool2"
  pooling_param {
    pool: MAX
    kernel_size: 3
    stride: 2
  }
}
layer {
  name: "conv3"
  type: "Convolution"
  bottom: "pool2"
  top: "conv3"
  param {
    lr_mult: 1
  }
  param {
    lr_mult: 2
  }
  convolution_param {
    num_output: 128
    pad: 2
    kernel_size: 5
    stride: 1
    weight_filler {
      type: "gaussian"
      std: 0.01
    }
    bias_filler {
      type: "constant"
    }
  }
}
layer {
  name: "relu3"
  type: "ReLU"
  bottom: "conv3"
  top: "conv3"
}
layer {
  name: "conv4"
  type: "Convolution"
  bottom: "conv3"
  top: "conv4"
  param {
    lr_mult: 1
  }
  param {
    lr_mult: 2
  }
  convolution_param {
    num_output: 128
    pad: 2
    kernel_size: 5
    stride: 1
    weight_filler {
      type: "gaussian"
      std: 0.01
    }
    bias_filler {
      type: "constant"
    }
  }
}
layer {
  name: "relu4"
  type: "ReLU"
  bottom: "conv4"
  top: "conv4"
}
layer {
  name: "conv5"
  type: "Convolution"
  bottom: "conv4"
  top: "conv5"
  param {
    lr_mult: 1
  }
  param {
    lr_mult: 2
  }
  convolution_param {
    num_output: 128
    pad: 2
    kernel_size: 5
    stride: 1
    weight_filler {
      type: "gaussian"
      std: 0.01
    }
    bias_filler {
      type: "constant"
    }
  }
}
layer {
  name: "relu5"
  type: "ReLU"
  bottom: "conv5"
  top: "conv5"
}
layer {
  name: "pool5"
  type: "Pooling"
  bottom: "conv5"
  top: "pool5"
  pooling_param {
    pool: AVE
    kernel_size: 3
    stride: 2
  }
}
layer {
  name: "ip1"
  type: "InnerProduct"
  bottom: "pool5"
  top: "ip1"
  param {
    lr_mult: 1
  }
  param {
    lr_mult: 2
  }
  inner_product_param {
    num_output: 1024
    weight_filler {
      type: "gaussian"
      std: 0.1
    }
    bias_filler {
      type: "constant"
    }
  }
}
layer {
  name: "ip2"
  type: "InnerProduct"
  bottom: "ip1"
  top: "ip2"
  param {
    lr_mult: 1
  }
  param {
    lr_mult: 2
  }
  inner_product_param {
    num_output: 512
    weight_filler {
      type: "gaussian"
      std: 0.1
    }
    bias_filler {
      type: "constant"
    }
  }
}
layer {
  name: "ip3"
  type: "InnerProduct"
  bottom: "ip2"
  top: "ip3"
  param {
    lr_mult: 1
  }
  param {
    lr_mult: 2
  }
  inner_product_param {
    num_output: 50
    weight_filler {
      type: "gaussian"
      std: 0.1
    }
    bias_filler {
      type: "constant"
    }
  }
}
layer {
  name: "accuracy"
  type: "Accuracy"
  bottom: "ip3"
  bottom: "label"
  top: "accuracy"
  include {
    phase: TEST
  }
}
layer {
  name: "loss"
  type: "SoftmaxWithLoss"
  bottom: "ip3"
  bottom: "label"
  top: "loss"
}
I0503 14:53:49.456117 21012 layer_factory.hpp:77] Creating layer intercept
I0503 14:53:49.456127 21012 net.cpp:94] Creating Layer intercept
I0503 14:53:49.456132 21012 net.cpp:409] intercept -> data
I0503 14:53:49.456141 21012 net.cpp:409] intercept -> label
I0503 14:53:49.456149 21012 hdf5_data_layer.cpp:79] Loading list of HDF5 filenames from: /home/purduethu/scratch/radon/d/deng106/CNNStatisticalModel/distributions/input/50_distributions_100_sample_size_test-distributions-path.txt
I0503 14:53:49.456171 21012 hdf5_data_layer.cpp:93] Number of HDF5 files: 1
I0503 14:53:49.503737 21012 net.cpp:144] Setting up intercept
I0503 14:53:49.503783 21012 net.cpp:151] Top shape: 20 1 10 10 (2000)
I0503 14:53:49.503793 21012 net.cpp:151] Top shape: 20 (20)
I0503 14:53:49.503799 21012 net.cpp:159] Memory required for data: 8080
I0503 14:53:49.503809 21012 layer_factory.hpp:77] Creating layer label_intercept_1_split
I0503 14:53:49.503835 21012 net.cpp:94] Creating Layer label_intercept_1_split
I0503 14:53:49.503844 21012 net.cpp:435] label_intercept_1_split <- label
I0503 14:53:49.503854 21012 net.cpp:409] label_intercept_1_split -> label_intercept_1_split_0
I0503 14:53:49.503868 21012 net.cpp:409] label_intercept_1_split -> label_intercept_1_split_1
I0503 14:53:49.503921 21012 net.cpp:144] Setting up label_intercept_1_split
I0503 14:53:49.503933 21012 net.cpp:151] Top shape: 20 (20)
I0503 14:53:49.503942 21012 net.cpp:151] Top shape: 20 (20)
I0503 14:53:49.503947 21012 net.cpp:159] Memory required for data: 8240
I0503 14:53:49.503954 21012 layer_factory.hpp:77] Creating layer conv1
I0503 14:53:49.503973 21012 net.cpp:94] Creating Layer conv1
I0503 14:53:49.503979 21012 net.cpp:435] conv1 <- data
I0503 14:53:49.503989 21012 net.cpp:409] conv1 -> conv1
I0503 14:53:49.504849 21012 net.cpp:144] Setting up conv1
I0503 14:53:49.504873 21012 net.cpp:151] Top shape: 20 64 10 10 (128000)
I0503 14:53:49.504878 21012 net.cpp:159] Memory required for data: 520240
I0503 14:53:49.504889 21012 layer_factory.hpp:77] Creating layer relu1
I0503 14:53:49.504897 21012 net.cpp:94] Creating Layer relu1
I0503 14:53:49.504901 21012 net.cpp:435] relu1 <- conv1
I0503 14:53:49.504907 21012 net.cpp:396] relu1 -> conv1 (in-place)
I0503 14:53:49.504915 21012 net.cpp:144] Setting up relu1
I0503 14:53:49.504920 21012 net.cpp:151] Top shape: 20 64 10 10 (128000)
I0503 14:53:49.504925 21012 net.cpp:159] Memory required for data: 1032240
I0503 14:53:49.504928 21012 layer_factory.hpp:77] Creating layer conv2
I0503 14:53:49.504938 21012 net.cpp:94] Creating Layer conv2
I0503 14:53:49.504942 21012 net.cpp:435] conv2 <- conv1
I0503 14:53:49.504948 21012 net.cpp:409] conv2 -> conv2
I0503 14:53:49.509280 21012 net.cpp:144] Setting up conv2
I0503 14:53:49.509295 21012 net.cpp:151] Top shape: 20 64 10 10 (128000)
I0503 14:53:49.509300 21012 net.cpp:159] Memory required for data: 1544240
I0503 14:53:49.509310 21012 layer_factory.hpp:77] Creating layer relu2
I0503 14:53:49.509316 21012 net.cpp:94] Creating Layer relu2
I0503 14:53:49.509320 21012 net.cpp:435] relu2 <- conv2
I0503 14:53:49.509326 21012 net.cpp:396] relu2 -> conv2 (in-place)
I0503 14:53:49.509333 21012 net.cpp:144] Setting up relu2
I0503 14:53:49.509338 21012 net.cpp:151] Top shape: 20 64 10 10 (128000)
I0503 14:53:49.509342 21012 net.cpp:159] Memory required for data: 2056240
I0503 14:53:49.509346 21012 layer_factory.hpp:77] Creating layer pool2
I0503 14:53:49.509352 21012 net.cpp:94] Creating Layer pool2
I0503 14:53:49.509356 21012 net.cpp:435] pool2 <- conv2
I0503 14:53:49.509361 21012 net.cpp:409] pool2 -> pool2
I0503 14:53:49.509398 21012 net.cpp:144] Setting up pool2
I0503 14:53:49.509405 21012 net.cpp:151] Top shape: 20 64 5 5 (32000)
I0503 14:53:49.509409 21012 net.cpp:159] Memory required for data: 2184240
I0503 14:53:49.509413 21012 layer_factory.hpp:77] Creating layer conv3
I0503 14:53:49.509421 21012 net.cpp:94] Creating Layer conv3
I0503 14:53:49.509426 21012 net.cpp:435] conv3 <- pool2
I0503 14:53:49.509431 21012 net.cpp:409] conv3 -> conv3
I0503 14:53:49.516594 21012 net.cpp:144] Setting up conv3
I0503 14:53:49.516609 21012 net.cpp:151] Top shape: 20 128 5 5 (64000)
I0503 14:53:49.516613 21012 net.cpp:159] Memory required for data: 2440240
I0503 14:53:49.516623 21012 layer_factory.hpp:77] Creating layer relu3
I0503 14:53:49.516630 21012 net.cpp:94] Creating Layer relu3
I0503 14:53:49.516634 21012 net.cpp:435] relu3 <- conv3
I0503 14:53:49.516639 21012 net.cpp:396] relu3 -> conv3 (in-place)
I0503 14:53:49.516647 21012 net.cpp:144] Setting up relu3
I0503 14:53:49.516652 21012 net.cpp:151] Top shape: 20 128 5 5 (64000)
I0503 14:53:49.516655 21012 net.cpp:159] Memory required for data: 2696240
I0503 14:53:49.516659 21012 layer_factory.hpp:77] Creating layer conv4
I0503 14:53:49.516667 21012 net.cpp:94] Creating Layer conv4
I0503 14:53:49.516671 21012 net.cpp:435] conv4 <- conv3
I0503 14:53:49.516677 21012 net.cpp:409] conv4 -> conv4
I0503 14:53:49.530572 21012 net.cpp:144] Setting up conv4
I0503 14:53:49.530587 21012 net.cpp:151] Top shape: 20 128 5 5 (64000)
I0503 14:53:49.530592 21012 net.cpp:159] Memory required for data: 2952240
I0503 14:53:49.530599 21012 layer_factory.hpp:77] Creating layer relu4
I0503 14:53:49.530606 21012 net.cpp:94] Creating Layer relu4
I0503 14:53:49.530611 21012 net.cpp:435] relu4 <- conv4
I0503 14:53:49.530620 21012 net.cpp:396] relu4 -> conv4 (in-place)
I0503 14:53:49.530628 21012 net.cpp:144] Setting up relu4
I0503 14:53:49.530634 21012 net.cpp:151] Top shape: 20 128 5 5 (64000)
I0503 14:53:49.530637 21012 net.cpp:159] Memory required for data: 3208240
I0503 14:53:49.530642 21012 layer_factory.hpp:77] Creating layer conv5
I0503 14:53:49.530649 21012 net.cpp:94] Creating Layer conv5
I0503 14:53:49.530653 21012 net.cpp:435] conv5 <- conv4
I0503 14:53:49.530659 21012 net.cpp:409] conv5 -> conv5
I0503 14:53:49.543786 21012 net.cpp:144] Setting up conv5
I0503 14:53:49.543812 21012 net.cpp:151] Top shape: 20 128 5 5 (64000)
I0503 14:53:49.543819 21012 net.cpp:159] Memory required for data: 3464240
I0503 14:53:49.543833 21012 layer_factory.hpp:77] Creating layer relu5
I0503 14:53:49.543843 21012 net.cpp:94] Creating Layer relu5
I0503 14:53:49.543849 21012 net.cpp:435] relu5 <- conv5
I0503 14:53:49.543858 21012 net.cpp:396] relu5 -> conv5 (in-place)
I0503 14:53:49.543869 21012 net.cpp:144] Setting up relu5
I0503 14:53:49.543876 21012 net.cpp:151] Top shape: 20 128 5 5 (64000)
I0503 14:53:49.543882 21012 net.cpp:159] Memory required for data: 3720240
I0503 14:53:49.543889 21012 layer_factory.hpp:77] Creating layer pool5
I0503 14:53:49.543897 21012 net.cpp:94] Creating Layer pool5
I0503 14:53:49.543902 21012 net.cpp:435] pool5 <- conv5
I0503 14:53:49.543910 21012 net.cpp:409] pool5 -> pool5
I0503 14:53:49.543946 21012 net.cpp:144] Setting up pool5
I0503 14:53:49.543956 21012 net.cpp:151] Top shape: 20 128 2 2 (10240)
I0503 14:53:49.543962 21012 net.cpp:159] Memory required for data: 3761200
I0503 14:53:49.543967 21012 layer_factory.hpp:77] Creating layer ip1
I0503 14:53:49.543978 21012 net.cpp:94] Creating Layer ip1
I0503 14:53:49.543984 21012 net.cpp:435] ip1 <- pool5
I0503 14:53:49.543992 21012 net.cpp:409] ip1 -> ip1
I0503 14:53:49.557723 21012 net.cpp:144] Setting up ip1
I0503 14:53:49.557736 21012 net.cpp:151] Top shape: 20 1024 (20480)
I0503 14:53:49.557740 21012 net.cpp:159] Memory required for data: 3843120
I0503 14:53:49.557746 21012 layer_factory.hpp:77] Creating layer ip2
I0503 14:53:49.557754 21012 net.cpp:94] Creating Layer ip2
I0503 14:53:49.557757 21012 net.cpp:435] ip2 <- ip1
I0503 14:53:49.557763 21012 net.cpp:409] ip2 -> ip2
I0503 14:53:49.571550 21012 net.cpp:144] Setting up ip2
I0503 14:53:49.571563 21012 net.cpp:151] Top shape: 20 512 (10240)
I0503 14:53:49.571568 21012 net.cpp:159] Memory required for data: 3884080
I0503 14:53:49.571573 21012 layer_factory.hpp:77] Creating layer ip3
I0503 14:53:49.571583 21012 net.cpp:94] Creating Layer ip3
I0503 14:53:49.571586 21012 net.cpp:435] ip3 <- ip2
I0503 14:53:49.571591 21012 net.cpp:409] ip3 -> ip3
I0503 14:53:49.572304 21012 net.cpp:144] Setting up ip3
I0503 14:53:49.572310 21012 net.cpp:151] Top shape: 20 50 (1000)
I0503 14:53:49.572314 21012 net.cpp:159] Memory required for data: 3888080
I0503 14:53:49.572319 21012 layer_factory.hpp:77] Creating layer ip3_ip3_0_split
I0503 14:53:49.572325 21012 net.cpp:94] Creating Layer ip3_ip3_0_split
I0503 14:53:49.572329 21012 net.cpp:435] ip3_ip3_0_split <- ip3
I0503 14:53:49.572334 21012 net.cpp:409] ip3_ip3_0_split -> ip3_ip3_0_split_0
I0503 14:53:49.572338 21012 net.cpp:409] ip3_ip3_0_split -> ip3_ip3_0_split_1
I0503 14:53:49.572365 21012 net.cpp:144] Setting up ip3_ip3_0_split
I0503 14:53:49.572371 21012 net.cpp:151] Top shape: 20 50 (1000)
I0503 14:53:49.572374 21012 net.cpp:151] Top shape: 20 50 (1000)
I0503 14:53:49.572377 21012 net.cpp:159] Memory required for data: 3896080
I0503 14:53:49.572381 21012 layer_factory.hpp:77] Creating layer accuracy
I0503 14:53:49.572386 21012 net.cpp:94] Creating Layer accuracy
I0503 14:53:49.572389 21012 net.cpp:435] accuracy <- ip3_ip3_0_split_0
I0503 14:53:49.572393 21012 net.cpp:435] accuracy <- label_intercept_1_split_0
I0503 14:53:49.572398 21012 net.cpp:409] accuracy -> accuracy
…
