…
I0505 05:48:20.925333  3671 net.cpp:323] The NetState phase (0) differed from the phase (1) specified by a rule in layer intercept
I0505 05:48:20.925348  3671 net.cpp:323] The NetState phase (0) differed from the phase (1) specified by a rule in layer accuracy
I0505 05:48:20.925421  3671 net.cpp:52] Initializing net from parameters: 
state {
  phase: TRAIN
}
layer {
  name: "parameters"
  type: "HDF5Data"
  top: "data"
  top: "label"
  include {
    phase: TRAIN
  }
  hdf5_data_param {
    source: "/home/purduethu/scratch/radon/d/deng106/CNNStatisticalModel/distributions/input/5_distributions_900_sample_size_train-distributions-path.txt"
    batch_size: 20
  }
}
layer {
  name: "conv1"
  type: "Convolution"
  bottom: "data"
  top: "conv1"
  param {
    lr_mult: 1
  }
  param {
    lr_mult: 2
  }
  convolution_param {
    num_output: 64
    pad: 2
    kernel_size: 5
    stride: 1
    weight_filler {
      type: "gaussian"
      std: 0.0001
    }
    bias_filler {
      type: "constant"
    }
  }
}
layer {
  name: "relu1"
  type: "ReLU"
  bottom: "conv1"
  top: "conv1"
}
layer {
  name: "pool1"
  type: "Pooling"
  bottom: "conv1"
  top: "pool1"
  pooling_param {
    pool: MAX
    kernel_size: 3
    stride: 2
  }
}
layer {
  name: "conv2"
  type: "Convolution"
  bottom: "pool1"
  top: "conv2"
  param {
    lr_mult: 1
  }
  param {
    lr_mult: 2
  }
  convolution_param {
    num_output: 128
    pad: 2
    kernel_size: 5
    stride: 1
    weight_filler {
      type: "gaussian"
      std: 0.01
    }
    bias_filler {
      type: "constant"
    }
  }
}
layer {
  name: "relu2"
  type: "ReLU"
  bottom: "conv2"
  top: "conv2"
}
layer {
  name: "conv3"
  type: "Convolution"
  bottom: "conv2"
  top: "conv3"
  param {
    lr_mult: 1
  }
  param {
    lr_mult: 2
  }
  convolution_param {
    num_output: 128
    pad: 2
    kernel_size: 5
    stride: 1
    weight_filler {
      type: "gaussian"
      std: 0.01
    }
    bias_filler {
      type: "constant"
    }
  }
}
layer {
  name: "relu3"
  type: "ReLU"
  bottom: "conv3"
  top: "conv3"
}
layer {
  name: "pool3"
  type: "Pooling"
  bottom: "conv3"
  top: "pool3"
  pooling_param {
    pool: AVE
    kernel_size: 3
    stride: 2
  }
}
layer {
  name: "ip1"
  type: "InnerProduct"
  bottom: "pool3"
  top: "ip1"
  param {
    lr_mult: 1
  }
  param {
    lr_mult: 2
  }
  inner_product_param {
    num_output: 512
    weight_filler {
      type: "gaussian"
      std: 0.1
    }
    bias_filler {
      type: "constant"
    }
  }
}
layer {
  name: "ip2"
  type: "InnerProduct"
  bottom: "ip1"
  top: "ip2"
  param {
    lr_mult: 1
  }
  param {
    lr_mult: 2
  }
  inner_product_param {
    num_output: 256
    weight_filler {
      type: "gaussian"
      std: 0.1
    }
    bias_filler {
      type: "constant"
    }
  }
}
layer {
  name: "ip3"
  type: "InnerProduct"
  bottom: "ip2"
  top: "ip3"
  param {
    lr_mult: 1
  }
  param {
    lr_mult: 2
  }
  inner_product_param {
    num_output: 50
    weight_filler {
      type: "gaussian"
      std: 0.1
    }
    bias_filler {
      type: "constant"
    }
  }
}
layer {
  name: "loss"
  type: "SoftmaxWithLoss"
  bottom: "ip3"
  bottom: "label"
  top: "loss"
}
I0505 05:48:20.925482  3671 layer_factory.hpp:77] Creating layer parameters
I0505 05:48:20.925495  3671 net.cpp:94] Creating Layer parameters
I0505 05:48:20.925501  3671 net.cpp:409] parameters -> data
I0505 05:48:20.925528  3671 net.cpp:409] parameters -> label
I0505 05:48:20.925539  3671 hdf5_data_layer.cpp:79] Loading list of HDF5 filenames from: /home/purduethu/scratch/radon/d/deng106/CNNStatisticalModel/distributions/input/5_distributions_900_sample_size_train-distributions-path.txt
I0505 05:48:20.925560  3671 hdf5_data_layer.cpp:93] Number of HDF5 files: 1
I0505 05:48:20.926007  3671 hdf5.cpp:32] Datatype class: H5T_FLOAT
I0505 05:48:21.057308  3671 hdf5.cpp:35] Datatype class: H5T_INTEGER
I0505 05:48:21.058394  3671 net.cpp:144] Setting up parameters
I0505 05:48:21.058413  3671 net.cpp:151] Top shape: 20 1 30 30 (18000)
I0505 05:48:21.058418  3671 net.cpp:151] Top shape: 20 (20)
I0505 05:48:21.058421  3671 net.cpp:159] Memory required for data: 72080
I0505 05:48:21.058429  3671 layer_factory.hpp:77] Creating layer conv1
I0505 05:48:21.058449  3671 net.cpp:94] Creating Layer conv1
I0505 05:48:21.058454  3671 net.cpp:435] conv1 <- data
I0505 05:48:21.058465  3671 net.cpp:409] conv1 -> conv1
I0505 05:48:21.064147  3671 net.cpp:144] Setting up conv1
I0505 05:48:21.064162  3671 net.cpp:151] Top shape: 20 64 30 30 (1152000)
I0505 05:48:21.064167  3671 net.cpp:159] Memory required for data: 4680080
I0505 05:48:21.064179  3671 layer_factory.hpp:77] Creating layer relu1
I0505 05:48:21.064188  3671 net.cpp:94] Creating Layer relu1
I0505 05:48:21.064191  3671 net.cpp:435] relu1 <- conv1
I0505 05:48:21.064196  3671 net.cpp:396] relu1 -> conv1 (in-place)
I0505 05:48:21.064208  3671 net.cpp:144] Setting up relu1
I0505 05:48:21.064213  3671 net.cpp:151] Top shape: 20 64 30 30 (1152000)
I0505 05:48:21.064215  3671 net.cpp:159] Memory required for data: 9288080
I0505 05:48:21.064219  3671 layer_factory.hpp:77] Creating layer pool1
I0505 05:48:21.064226  3671 net.cpp:94] Creating Layer pool1
I0505 05:48:21.064229  3671 net.cpp:435] pool1 <- conv1
I0505 05:48:21.064234  3671 net.cpp:409] pool1 -> pool1
I0505 05:48:21.064275  3671 net.cpp:144] Setting up pool1
I0505 05:48:21.064281  3671 net.cpp:151] Top shape: 20 64 15 15 (288000)
I0505 05:48:21.064285  3671 net.cpp:159] Memory required for data: 10440080
I0505 05:48:21.064288  3671 layer_factory.hpp:77] Creating layer conv2
I0505 05:48:21.064297  3671 net.cpp:94] Creating Layer conv2
I0505 05:48:21.064301  3671 net.cpp:435] conv2 <- pool1
I0505 05:48:21.064306  3671 net.cpp:409] conv2 -> conv2
I0505 05:48:21.077220  3671 net.cpp:144] Setting up conv2
I0505 05:48:21.077236  3671 net.cpp:151] Top shape: 20 128 15 15 (576000)
I0505 05:48:21.077240  3671 net.cpp:159] Memory required for data: 12744080
I0505 05:48:21.077249  3671 layer_factory.hpp:77] Creating layer relu2
I0505 05:48:21.077255  3671 net.cpp:94] Creating Layer relu2
I0505 05:48:21.077260  3671 net.cpp:435] relu2 <- conv2
I0505 05:48:21.077265  3671 net.cpp:396] relu2 -> conv2 (in-place)
I0505 05:48:21.077271  3671 net.cpp:144] Setting up relu2
I0505 05:48:21.077276  3671 net.cpp:151] Top shape: 20 128 15 15 (576000)
I0505 05:48:21.077280  3671 net.cpp:159] Memory required for data: 15048080
I0505 05:48:21.077282  3671 layer_factory.hpp:77] Creating layer conv3
I0505 05:48:21.077291  3671 net.cpp:94] Creating Layer conv3
I0505 05:48:21.077293  3671 net.cpp:435] conv3 <- conv2
I0505 05:48:21.077298  3671 net.cpp:409] conv3 -> conv3
I0505 05:48:21.098465  3671 net.cpp:144] Setting up conv3
I0505 05:48:21.098481  3671 net.cpp:151] Top shape: 20 128 15 15 (576000)
I0505 05:48:21.098485  3671 net.cpp:159] Memory required for data: 17352080
I0505 05:48:21.098500  3671 layer_factory.hpp:77] Creating layer relu3
I0505 05:48:21.098507  3671 net.cpp:94] Creating Layer relu3
I0505 05:48:21.098511  3671 net.cpp:435] relu3 <- conv3
I0505 05:48:21.098515  3671 net.cpp:396] relu3 -> conv3 (in-place)
I0505 05:48:21.098523  3671 net.cpp:144] Setting up relu3
I0505 05:48:21.098527  3671 net.cpp:151] Top shape: 20 128 15 15 (576000)
I0505 05:48:21.098531  3671 net.cpp:159] Memory required for data: 19656080
I0505 05:48:21.098534  3671 layer_factory.hpp:77] Creating layer pool3
I0505 05:48:21.098541  3671 net.cpp:94] Creating Layer pool3
I0505 05:48:21.098551  3671 net.cpp:435] pool3 <- conv3
I0505 05:48:21.098556  3671 net.cpp:409] pool3 -> pool3
I0505 05:48:21.098590  3671 net.cpp:144] Setting up pool3
I0505 05:48:21.098598  3671 net.cpp:151] Top shape: 20 128 7 7 (125440)
I0505 05:48:21.098600  3671 net.cpp:159] Memory required for data: 20157840
I0505 05:48:21.098604  3671 layer_factory.hpp:77] Creating layer ip1
I0505 05:48:21.098613  3671 net.cpp:94] Creating Layer ip1
I0505 05:48:21.098618  3671 net.cpp:435] ip1 <- pool3
I0505 05:48:21.098623  3671 net.cpp:409] ip1 -> ip1
I0505 05:48:21.175673  3671 net.cpp:144] Setting up ip1
I0505 05:48:21.175703  3671 net.cpp:151] Top shape: 20 512 (10240)
I0505 05:48:21.175706  3671 net.cpp:159] Memory required for data: 20198800
I0505 05:48:21.175714  3671 layer_factory.hpp:77] Creating layer ip2
I0505 05:48:21.175724  3671 net.cpp:94] Creating Layer ip2
I0505 05:48:21.175729  3671 net.cpp:435] ip2 <- ip1
I0505 05:48:21.175735  3671 net.cpp:409] ip2 -> ip2
I0505 05:48:21.178840  3671 net.cpp:144] Setting up ip2
I0505 05:48:21.178849  3671 net.cpp:151] Top shape: 20 256 (5120)
I0505 05:48:21.178853  3671 net.cpp:159] Memory required for data: 20219280
I0505 05:48:21.178860  3671 layer_factory.hpp:77] Creating layer ip3
I0505 05:48:21.178867  3671 net.cpp:94] Creating Layer ip3
I0505 05:48:21.178871  3671 net.cpp:435] ip3 <- ip2
I0505 05:48:21.178875  3671 net.cpp:409] ip3 -> ip3
I0505 05:48:21.179950  3671 net.cpp:144] Setting up ip3
I0505 05:48:21.179962  3671 net.cpp:151] Top shape: 20 50 (1000)
I0505 05:48:21.179966  3671 net.cpp:159] Memory required for data: 20223280
I0505 05:48:21.179972  3671 layer_factory.hpp:77] Creating layer loss
I0505 05:48:21.179978  3671 net.cpp:94] Creating Layer loss
I0505 05:48:21.179982  3671 net.cpp:435] loss <- ip3
I0505 05:48:21.179986  3671 net.cpp:435] loss <- label
I0505 05:48:21.179992  3671 net.cpp:409] loss -> loss
I0505 05:48:21.180004  3671 layer_factory.hpp:77] Creating layer loss
…
I0505 05:48:21.180426  3671 solver.cpp:181] Creating test net (#0) specified by net file: ./protocol/dis_5_900_dimension.protocol_distribution
I0505 05:48:21.180450  3671 net.cpp:323] The NetState phase (1) differed from the phase (0) specified by a rule in layer parameters
I0505 05:48:21.180541  3671 net.cpp:52] Initializing net from parameters: 
state {
  phase: TEST
}
layer {
  name: "intercept"
  type: "HDF5Data"
  top: "data"
  top: "label"
  include {
    phase: TEST
  }
  hdf5_data_param {
    source: "/home/purduethu/scratch/radon/d/deng106/CNNStatisticalModel/distributions/input/5_distributions_900_sample_size_test-distributions-path.txt"
    batch_size: 20
  }
}
layer {
  name: "conv1"
  type: "Convolution"
  bottom: "data"
  top: "conv1"
  param {
    lr_mult: 1
  }
  param {
    lr_mult: 2
  }
  convolution_param {
    num_output: 64
    pad: 2
    kernel_size: 5
    stride: 1
    weight_filler {
      type: "gaussian"
      std: 0.0001
    }
    bias_filler {
      type: "constant"
    }
  }
}
layer {
  name: "relu1"
  type: "ReLU"
  bottom: "conv1"
  top: "conv1"
}
layer {
  name: "pool1"
  type: "Pooling"
  bottom: "conv1"
  top: "pool1"
  pooling_param {
    pool: MAX
    kernel_size: 3
    stride: 2
  }
}
layer {
  name: "conv2"
  type: "Convolution"
  bottom: "pool1"
  top: "conv2"
  param {
    lr_mult: 1
  }
  param {
    lr_mult: 2
  }
  convolution_param {
    num_output: 128
    pad: 2
    kernel_size: 5
    stride: 1
    weight_filler {
      type: "gaussian"
      std: 0.01
    }
    bias_filler {
      type: "constant"
    }
  }
}
layer {
  name: "relu2"
  type: "ReLU"
  bottom: "conv2"
  top: "conv2"
}
layer {
  name: "conv3"
  type: "Convolution"
  bottom: "conv2"
  top: "conv3"
  param {
    lr_mult: 1
  }
  param {
    lr_mult: 2
  }
  convolution_param {
    num_output: 128
    pad: 2
    kernel_size: 5
    stride: 1
    weight_filler {
      type: "gaussian"
      std: 0.01
    }
    bias_filler {
      type: "constant"
    }
  }
}
layer {
  name: "relu3"
  type: "ReLU"
  bottom: "conv3"
  top: "conv3"
}
layer {
  name: "pool3"
  type: "Pooling"
  bottom: "conv3"
  top: "pool3"
  pooling_param {
    pool: AVE
    kernel_size: 3
    stride: 2
  }
}
layer {
  name: "ip1"
  type: "InnerProduct"
  bottom: "pool3"
  top: "ip1"
  param {
    lr_mult: 1
  }
  param {
    lr_mult: 2
  }
  inner_product_param {
    num_output: 512
    weight_filler {
      type: "gaussian"
      std: 0.1
    }
    bias_filler {
      type: "constant"
    }
  }
}
layer {
  name: "ip2"
  type: "InnerProduct"
  bottom: "ip1"
  top: "ip2"
  param {
    lr_mult: 1
  }
  param {
    lr_mult: 2
  }
  inner_product_param {
    num_output: 256
    weight_filler {
      type: "gaussian"
      std: 0.1
    }
    bias_filler {
      type: "constant"
    }
  }
}
layer {
  name: "ip3"
  type: "InnerProduct"
  bottom: "ip2"
  top: "ip3"
  param {
    lr_mult: 1
  }
  param {
    lr_mult: 2
  }
  inner_product_param {
    num_output: 50
    weight_filler {
      type: "gaussian"
      std: 0.1
    }
    bias_filler {
      type: "constant"
    }
  }
}
layer {
  name: "accuracy"
  type: "Accuracy"
  bottom: "ip3"
  bottom: "label"
  top: "accuracy"
  include {
    phase: TEST
  }
}
layer {
  name: "loss"
  type: "SoftmaxWithLoss"
  bottom: "ip3"
  bottom: "label"
  top: "loss"
}
I0505 05:48:21.180624  3671 layer_factory.hpp:77] Creating layer intercept
I0505 05:48:21.180631  3671 net.cpp:94] Creating Layer intercept
I0505 05:48:21.180636  3671 net.cpp:409] intercept -> data
I0505 05:48:21.180642  3671 net.cpp:409] intercept -> label
I0505 05:48:21.180649  3671 hdf5_data_layer.cpp:79] Loading list of HDF5 filenames from: /home/purduethu/scratch/radon/d/deng106/CNNStatisticalModel/distributions/input/5_distributions_900_sample_size_test-distributions-path.txt
I0505 05:48:21.180668  3671 hdf5_data_layer.cpp:93] Number of HDF5 files: 1
I0505 05:48:21.215286  3671 net.cpp:144] Setting up intercept
I0505 05:48:21.215319  3671 net.cpp:151] Top shape: 20 1 30 30 (18000)
I0505 05:48:21.215324  3671 net.cpp:151] Top shape: 20 (20)
I0505 05:48:21.215328  3671 net.cpp:159] Memory required for data: 72080
I0505 05:48:21.215334  3671 layer_factory.hpp:77] Creating layer label_intercept_1_split
I0505 05:48:21.215363  3671 net.cpp:94] Creating Layer label_intercept_1_split
I0505 05:48:21.215368  3671 net.cpp:435] label_intercept_1_split <- label
I0505 05:48:21.215374  3671 net.cpp:409] label_intercept_1_split -> label_intercept_1_split_0
I0505 05:48:21.215382  3671 net.cpp:409] label_intercept_1_split -> label_intercept_1_split_1
I0505 05:48:21.215409  3671 net.cpp:144] Setting up label_intercept_1_split
I0505 05:48:21.215415  3671 net.cpp:151] Top shape: 20 (20)
I0505 05:48:21.215418  3671 net.cpp:151] Top shape: 20 (20)
I0505 05:48:21.215430  3671 net.cpp:159] Memory required for data: 72240
I0505 05:48:21.215433  3671 layer_factory.hpp:77] Creating layer conv1
I0505 05:48:21.215445  3671 net.cpp:94] Creating Layer conv1
I0505 05:48:21.215447  3671 net.cpp:435] conv1 <- data
I0505 05:48:21.215452  3671 net.cpp:409] conv1 -> conv1
I0505 05:48:21.216728  3671 net.cpp:144] Setting up conv1
I0505 05:48:21.216743  3671 net.cpp:151] Top shape: 20 64 30 30 (1152000)
I0505 05:48:21.216747  3671 net.cpp:159] Memory required for data: 4680240
I0505 05:48:21.216758  3671 layer_factory.hpp:77] Creating layer relu1
I0505 05:48:21.216765  3671 net.cpp:94] Creating Layer relu1
I0505 05:48:21.216768  3671 net.cpp:435] relu1 <- conv1
I0505 05:48:21.216773  3671 net.cpp:396] relu1 -> conv1 (in-place)
I0505 05:48:21.216780  3671 net.cpp:144] Setting up relu1
I0505 05:48:21.216785  3671 net.cpp:151] Top shape: 20 64 30 30 (1152000)
I0505 05:48:21.216789  3671 net.cpp:159] Memory required for data: 9288240
I0505 05:48:21.216791  3671 layer_factory.hpp:77] Creating layer pool1
I0505 05:48:21.216799  3671 net.cpp:94] Creating Layer pool1
I0505 05:48:21.216802  3671 net.cpp:435] pool1 <- conv1
I0505 05:48:21.216806  3671 net.cpp:409] pool1 -> pool1
I0505 05:48:21.216840  3671 net.cpp:144] Setting up pool1
I0505 05:48:21.216847  3671 net.cpp:151] Top shape: 20 64 15 15 (288000)
I0505 05:48:21.216850  3671 net.cpp:159] Memory required for data: 10440240
I0505 05:48:21.216855  3671 layer_factory.hpp:77] Creating layer conv2
I0505 05:48:21.216862  3671 net.cpp:94] Creating Layer conv2
I0505 05:48:21.216866  3671 net.cpp:435] conv2 <- pool1
I0505 05:48:21.216871  3671 net.cpp:409] conv2 -> conv2
I0505 05:48:21.224602  3671 net.cpp:144] Setting up conv2
I0505 05:48:21.224617  3671 net.cpp:151] Top shape: 20 128 15 15 (576000)
I0505 05:48:21.224622  3671 net.cpp:159] Memory required for data: 12744240
I0505 05:48:21.224630  3671 layer_factory.hpp:77] Creating layer relu2
I0505 05:48:21.224637  3671 net.cpp:94] Creating Layer relu2
I0505 05:48:21.224640  3671 net.cpp:435] relu2 <- conv2
I0505 05:48:21.224645  3671 net.cpp:396] relu2 -> conv2 (in-place)
I0505 05:48:21.224653  3671 net.cpp:144] Setting up relu2
I0505 05:48:21.224658  3671 net.cpp:151] Top shape: 20 128 15 15 (576000)
I0505 05:48:21.224660  3671 net.cpp:159] Memory required for data: 15048240
I0505 05:48:21.224663  3671 layer_factory.hpp:77] Creating layer conv3
I0505 05:48:21.224671  3671 net.cpp:94] Creating Layer conv3
I0505 05:48:21.224674  3671 net.cpp:435] conv3 <- conv2
I0505 05:48:21.224679  3671 net.cpp:409] conv3 -> conv3
I0505 05:48:21.239297  3671 net.cpp:144] Setting up conv3
I0505 05:48:21.239312  3671 net.cpp:151] Top shape: 20 128 15 15 (576000)
I0505 05:48:21.239316  3671 net.cpp:159] Memory required for data: 17352240
I0505 05:48:21.239326  3671 layer_factory.hpp:77] Creating layer relu3
I0505 05:48:21.239332  3671 net.cpp:94] Creating Layer relu3
I0505 05:48:21.239336  3671 net.cpp:435] relu3 <- conv3
I0505 05:48:21.239341  3671 net.cpp:396] relu3 -> conv3 (in-place)
I0505 05:48:21.239348  3671 net.cpp:144] Setting up relu3
I0505 05:48:21.239353  3671 net.cpp:151] Top shape: 20 128 15 15 (576000)
I0505 05:48:21.239356  3671 net.cpp:159] Memory required for data: 19656240
I0505 05:48:21.239359  3671 layer_factory.hpp:77] Creating layer pool3
I0505 05:48:21.239365  3671 net.cpp:94] Creating Layer pool3
I0505 05:48:21.239368  3671 net.cpp:435] pool3 <- conv3
I0505 05:48:21.239372  3671 net.cpp:409] pool3 -> pool3
I0505 05:48:21.239400  3671 net.cpp:144] Setting up pool3
I0505 05:48:21.239410  3671 net.cpp:151] Top shape: 20 128 7 7 (125440)
I0505 05:48:21.239414  3671 net.cpp:159] Memory required for data: 20158000
I0505 05:48:21.239418  3671 layer_factory.hpp:77] Creating layer ip1
I0505 05:48:21.239424  3671 net.cpp:94] Creating Layer ip1
I0505 05:48:21.239428  3671 net.cpp:435] ip1 <- pool3
I0505 05:48:21.239433  3671 net.cpp:409] ip1 -> ip1
I0505 05:48:21.316591  3671 net.cpp:144] Setting up ip1
I0505 05:48:21.316623  3671 net.cpp:151] Top shape: 20 512 (10240)
I0505 05:48:21.316627  3671 net.cpp:159] Memory required for data: 20198960
I0505 05:48:21.316649  3671 layer_factory.hpp:77] Creating layer ip2
I0505 05:48:21.316659  3671 net.cpp:94] Creating Layer ip2
I0505 05:48:21.316664  3671 net.cpp:435] ip2 <- ip1
I0505 05:48:21.316670  3671 net.cpp:409] ip2 -> ip2
I0505 05:48:21.319782  3671 net.cpp:144] Setting up ip2
I0505 05:48:21.319789  3671 net.cpp:151] Top shape: 20 256 (5120)
I0505 05:48:21.319793  3671 net.cpp:159] Memory required for data: 20219440
I0505 05:48:21.319802  3671 layer_factory.hpp:77] Creating layer ip3
I0505 05:48:21.319808  3671 net.cpp:94] Creating Layer ip3
I0505 05:48:21.319811  3671 net.cpp:435] ip3 <- ip2
I0505 05:48:21.319816  3671 net.cpp:409] ip3 -> ip3
I0505 05:48:21.320189  3671 net.cpp:144] Setting up ip3
I0505 05:48:21.320196  3671 net.cpp:151] Top shape: 20 50 (1000)
I0505 05:48:21.320199  3671 net.cpp:159] Memory required for data: 20223440
I0505 05:48:21.320204  3671 layer_factory.hpp:77] Creating layer ip3_ip3_0_split
I0505 05:48:21.320210  3671 net.cpp:94] Creating Layer ip3_ip3_0_split
I0505 05:48:21.320214  3671 net.cpp:435] ip3_ip3_0_split <- ip3
I0505 05:48:21.320217  3671 net.cpp:409] ip3_ip3_0_split -> ip3_ip3_0_split_0
I0505 05:48:21.320224  3671 net.cpp:409] ip3_ip3_0_split -> ip3_ip3_0_split_1
I0505 05:48:21.320247  3671 net.cpp:144] Setting up ip3_ip3_0_split
I0505 05:48:21.320252  3671 net.cpp:151] Top shape: 20 50 (1000)
I0505 05:48:21.320256  3671 net.cpp:151] Top shape: 20 50 (1000)
I0505 05:48:21.320260  3671 net.cpp:159] Memory required for data: 20231440
I0505 05:48:21.320262  3671 layer_factory.hpp:77] Creating layer accuracy
I0505 05:48:21.320267  3671 net.cpp:94] Creating Layer accuracy
I0505 05:48:21.320271  3671 net.cpp:435] accuracy <- ip3_ip3_0_split_0
I0505 05:48:21.320276  3671 net.cpp:435] accuracy <- label_intercept_1_split_0
I0505 05:48:21.320279  3671 net.cpp:409] accuracy -> accuracy
…
