…
I0501 18:51:22.614473 14108 net.cpp:323] The NetState phase (0) differed from the phase (1) specified by a rule in layer intercept
I0501 18:51:22.614488 14108 net.cpp:323] The NetState phase (0) differed from the phase (1) specified by a rule in layer loss
I0501 18:51:22.614576 14108 net.cpp:52] Initializing net from parameters: 
state {
  phase: TRAIN
}
layer {
  name: "parameters"
  type: "HDF5Data"
  top: "data"
  top: "label"
  include {
    phase: TRAIN
  }
  hdf5_data_param {
    source: "/home/purduethu/scratch/radon/d/deng106/CNNStatisticalModel/distributions/input/50_distributions_400_sample_size_train-parameters-path.txt"
    batch_size: 20
  }
}
layer {
  name: "conv1"
  type: "Convolution"
  bottom: "data"
  top: "conv1"
  param {
    lr_mult: 1
  }
  param {
    lr_mult: 2
  }
  convolution_param {
    num_output: 64
    pad: 2
    kernel_size: 5
    stride: 1
    weight_filler {
      type: "gaussian"
      std: 0.0001
    }
    bias_filler {
      type: "constant"
    }
  }
}
layer {
  name: "relu1"
  type: "ReLU"
  bottom: "conv1"
  top: "conv1"
}
layer {
  name: "conv2"
  type: "Convolution"
  bottom: "conv1"
  top: "conv2"
  param {
    lr_mult: 1
  }
  param {
    lr_mult: 2
  }
  convolution_param {
    num_output: 64
    pad: 2
    kernel_size: 5
    stride: 1
    weight_filler {
      type: "gaussian"
      std: 0.01
    }
    bias_filler {
      type: "constant"
    }
  }
}
layer {
  name: "relu2"
  type: "ReLU"
  bottom: "conv2"
  top: "conv2"
}
layer {
  name: "pool2"
  type: "Pooling"
  bottom: "conv2"
  top: "pool2"
  pooling_param {
    pool: MAX
    kernel_size: 3
    stride: 2
  }
}
layer {
  name: "conv3"
  type: "Convolution"
  bottom: "pool2"
  top: "conv3"
  param {
    lr_mult: 1
  }
  param {
    lr_mult: 2
  }
  convolution_param {
    num_output: 64
    pad: 2
    kernel_size: 5
    stride: 1
    weight_filler {
      type: "gaussian"
      std: 0.01
    }
    bias_filler {
      type: "constant"
    }
  }
}
layer {
  name: "relu3"
  type: "ReLU"
  bottom: "conv3"
  top: "conv3"
}
layer {
  name: "conv4"
  type: "Convolution"
  bottom: "conv3"
  top: "conv4"
  param {
    lr_mult: 1
  }
  param {
    lr_mult: 2
  }
  convolution_param {
    num_output: 64
    pad: 2
    kernel_size: 5
    stride: 1
    weight_filler {
      type: "gaussian"
      std: 0.01
    }
    bias_filler {
      type: "constant"
    }
  }
}
layer {
  name: "relu4"
  type: "ReLU"
  bottom: "conv4"
  top: "conv4"
}
layer {
  name: "conv5"
  type: "Convolution"
  bottom: "conv4"
  top: "conv5"
  param {
    lr_mult: 1
  }
  param {
    lr_mult: 2
  }
  convolution_param {
    num_output: 64
    pad: 2
    kernel_size: 5
    stride: 1
    weight_filler {
      type: "gaussian"
      std: 0.01
    }
    bias_filler {
      type: "constant"
    }
  }
}
layer {
  name: "relu5"
  type: "ReLU"
  bottom: "conv5"
  top: "conv5"
}
layer {
  name: "pool5"
  type: "Pooling"
  bottom: "conv5"
  top: "pool5"
  pooling_param {
    pool: AVE
    kernel_size: 3
    stride: 2
  }
}
layer {
  name: "ip1"
  type: "InnerProduct"
  bottom: "pool5"
  top: "ip1"
  param {
    lr_mult: 1
  }
  param {
    lr_mult: 2
  }
  inner_product_param {
    num_output: 64
    weight_filler {
      type: "gaussian"
      std: 0.1
    }
    bias_filler {
      type: "constant"
    }
  }
}
layer {
  name: "ip2"
  type: "InnerProduct"
  bottom: "ip1"
  top: "ip2"
  param {
    lr_mult: 1
  }
  param {
    lr_mult: 2
  }
  inner_product_param {
    num_output: 64
    weight_filler {
      type: "gaussian"
      std: 0.1
    }
    bias_filler {
      type: "constant"
    }
  }
}
layer {
  name: "ip3"
  type: "InnerProduct"
  bottom: "ip2"
  top: "ip3"
  param {
    lr_mult: 1
  }
  param {
    lr_mult: 2
  }
  inner_product_param {
    num_output: 1
    weight_filler {
      type: "gaussian"
      std: 0.1
    }
    bias_filler {
      type: "constant"
    }
  }
}
layer {
  name: "loss"
  type: "HuberLoss"
  bottom: "ip3"
  bottom: "label"
  top: "loss"
  include {
    phase: TRAIN
  }
}
I0501 18:51:22.614650 14108 layer_factory.hpp:77] Creating layer parameters
I0501 18:51:22.614665 14108 net.cpp:94] Creating Layer parameters
I0501 18:51:22.614670 14108 net.cpp:409] parameters -> data
I0501 18:51:22.614691 14108 net.cpp:409] parameters -> label
I0501 18:51:22.614699 14108 hdf5_data_layer.cpp:79] Loading list of HDF5 filenames from: /home/purduethu/scratch/radon/d/deng106/CNNStatisticalModel/distributions/input/50_distributions_400_sample_size_train-parameters-path.txt
I0501 18:51:22.614722 14108 hdf5_data_layer.cpp:93] Number of HDF5 files: 1
I0501 18:51:22.615332 14108 hdf5.cpp:32] Datatype class: H5T_FLOAT
I0501 18:51:23.258952 14108 net.cpp:144] Setting up parameters
I0501 18:51:23.258988 14108 net.cpp:151] Top shape: 20 1 20 20 (8000)
I0501 18:51:23.258994 14108 net.cpp:151] Top shape: 20 (20)
I0501 18:51:23.258998 14108 net.cpp:159] Memory required for data: 32080
I0501 18:51:23.259006 14108 layer_factory.hpp:77] Creating layer conv1
I0501 18:51:23.259024 14108 net.cpp:94] Creating Layer conv1
I0501 18:51:23.259029 14108 net.cpp:435] conv1 <- data
I0501 18:51:23.259039 14108 net.cpp:409] conv1 -> conv1
I0501 18:51:23.263813 14108 net.cpp:144] Setting up conv1
I0501 18:51:23.263829 14108 net.cpp:151] Top shape: 20 64 20 20 (512000)
I0501 18:51:23.263833 14108 net.cpp:159] Memory required for data: 2080080
I0501 18:51:23.263845 14108 layer_factory.hpp:77] Creating layer relu1
I0501 18:51:23.263854 14108 net.cpp:94] Creating Layer relu1
I0501 18:51:23.263857 14108 net.cpp:435] relu1 <- conv1
I0501 18:51:23.263862 14108 net.cpp:396] relu1 -> conv1 (in-place)
I0501 18:51:23.263873 14108 net.cpp:144] Setting up relu1
I0501 18:51:23.263878 14108 net.cpp:151] Top shape: 20 64 20 20 (512000)
I0501 18:51:23.263881 14108 net.cpp:159] Memory required for data: 4128080
I0501 18:51:23.263885 14108 layer_factory.hpp:77] Creating layer conv2
I0501 18:51:23.263892 14108 net.cpp:94] Creating Layer conv2
I0501 18:51:23.263896 14108 net.cpp:435] conv2 <- conv1
I0501 18:51:23.263901 14108 net.cpp:409] conv2 -> conv2
I0501 18:51:23.273953 14108 net.cpp:144] Setting up conv2
I0501 18:51:23.273969 14108 net.cpp:151] Top shape: 20 64 20 20 (512000)
I0501 18:51:23.273973 14108 net.cpp:159] Memory required for data: 6176080
I0501 18:51:23.273982 14108 layer_factory.hpp:77] Creating layer relu2
I0501 18:51:23.273988 14108 net.cpp:94] Creating Layer relu2
I0501 18:51:23.273993 14108 net.cpp:435] relu2 <- conv2
I0501 18:51:23.273996 14108 net.cpp:396] relu2 -> conv2 (in-place)
I0501 18:51:23.274003 14108 net.cpp:144] Setting up relu2
I0501 18:51:23.274008 14108 net.cpp:151] Top shape: 20 64 20 20 (512000)
I0501 18:51:23.274011 14108 net.cpp:159] Memory required for data: 8224080
I0501 18:51:23.274014 14108 layer_factory.hpp:77] Creating layer pool2
I0501 18:51:23.274022 14108 net.cpp:94] Creating Layer pool2
I0501 18:51:23.274031 14108 net.cpp:435] pool2 <- conv2
I0501 18:51:23.274036 14108 net.cpp:409] pool2 -> pool2
I0501 18:51:23.274080 14108 net.cpp:144] Setting up pool2
I0501 18:51:23.274087 14108 net.cpp:151] Top shape: 20 64 10 10 (128000)
I0501 18:51:23.274091 14108 net.cpp:159] Memory required for data: 8736080
I0501 18:51:23.274094 14108 layer_factory.hpp:77] Creating layer conv3
I0501 18:51:23.274102 14108 net.cpp:94] Creating Layer conv3
I0501 18:51:23.274106 14108 net.cpp:435] conv3 <- pool2
I0501 18:51:23.274111 14108 net.cpp:409] conv3 -> conv3
I0501 18:51:23.279237 14108 net.cpp:144] Setting up conv3
I0501 18:51:23.279251 14108 net.cpp:151] Top shape: 20 64 10 10 (128000)
I0501 18:51:23.279255 14108 net.cpp:159] Memory required for data: 9248080
I0501 18:51:23.279263 14108 layer_factory.hpp:77] Creating layer relu3
I0501 18:51:23.279269 14108 net.cpp:94] Creating Layer relu3
I0501 18:51:23.279273 14108 net.cpp:435] relu3 <- conv3
I0501 18:51:23.279278 14108 net.cpp:396] relu3 -> conv3 (in-place)
I0501 18:51:23.279284 14108 net.cpp:144] Setting up relu3
I0501 18:51:23.279289 14108 net.cpp:151] Top shape: 20 64 10 10 (128000)
I0501 18:51:23.279292 14108 net.cpp:159] Memory required for data: 9760080
I0501 18:51:23.279295 14108 layer_factory.hpp:77] Creating layer conv4
I0501 18:51:23.279304 14108 net.cpp:94] Creating Layer conv4
I0501 18:51:23.279307 14108 net.cpp:435] conv4 <- conv3
I0501 18:51:23.279312 14108 net.cpp:409] conv4 -> conv4
I0501 18:51:23.284391 14108 net.cpp:144] Setting up conv4
I0501 18:51:23.284405 14108 net.cpp:151] Top shape: 20 64 10 10 (128000)
I0501 18:51:23.284409 14108 net.cpp:159] Memory required for data: 10272080
I0501 18:51:23.284415 14108 layer_factory.hpp:77] Creating layer relu4
I0501 18:51:23.284421 14108 net.cpp:94] Creating Layer relu4
I0501 18:51:23.284425 14108 net.cpp:435] relu4 <- conv4
I0501 18:51:23.284430 14108 net.cpp:396] relu4 -> conv4 (in-place)
I0501 18:51:23.284436 14108 net.cpp:144] Setting up relu4
I0501 18:51:23.284441 14108 net.cpp:151] Top shape: 20 64 10 10 (128000)
I0501 18:51:23.284445 14108 net.cpp:159] Memory required for data: 10784080
I0501 18:51:23.284447 14108 layer_factory.hpp:77] Creating layer conv5
I0501 18:51:23.284456 14108 net.cpp:94] Creating Layer conv5
I0501 18:51:23.284458 14108 net.cpp:435] conv5 <- conv4
I0501 18:51:23.284463 14108 net.cpp:409] conv5 -> conv5
I0501 18:51:23.289561 14108 net.cpp:144] Setting up conv5
I0501 18:51:23.289575 14108 net.cpp:151] Top shape: 20 64 10 10 (128000)
I0501 18:51:23.289579 14108 net.cpp:159] Memory required for data: 11296080
I0501 18:51:23.289587 14108 layer_factory.hpp:77] Creating layer relu5
I0501 18:51:23.289593 14108 net.cpp:94] Creating Layer relu5
I0501 18:51:23.289597 14108 net.cpp:435] relu5 <- conv5
I0501 18:51:23.289602 14108 net.cpp:396] relu5 -> conv5 (in-place)
I0501 18:51:23.289609 14108 net.cpp:144] Setting up relu5
I0501 18:51:23.289613 14108 net.cpp:151] Top shape: 20 64 10 10 (128000)
I0501 18:51:23.289616 14108 net.cpp:159] Memory required for data: 11808080
I0501 18:51:23.289620 14108 layer_factory.hpp:77] Creating layer pool5
I0501 18:51:23.289625 14108 net.cpp:94] Creating Layer pool5
I0501 18:51:23.289628 14108 net.cpp:435] pool5 <- conv5
I0501 18:51:23.289633 14108 net.cpp:409] pool5 -> pool5
I0501 18:51:23.289666 14108 net.cpp:144] Setting up pool5
I0501 18:51:23.289674 14108 net.cpp:151] Top shape: 20 64 5 5 (32000)
I0501 18:51:23.289676 14108 net.cpp:159] Memory required for data: 11936080
I0501 18:51:23.289680 14108 layer_factory.hpp:77] Creating layer ip1
I0501 18:51:23.289690 14108 net.cpp:94] Creating Layer ip1
I0501 18:51:23.289693 14108 net.cpp:435] ip1 <- pool5
I0501 18:51:23.289697 14108 net.cpp:409] ip1 -> ip1
I0501 18:51:23.292188 14108 net.cpp:144] Setting up ip1
I0501 18:51:23.292196 14108 net.cpp:151] Top shape: 20 64 (1280)
I0501 18:51:23.292199 14108 net.cpp:159] Memory required for data: 11941200
I0501 18:51:23.292204 14108 layer_factory.hpp:77] Creating layer ip2
I0501 18:51:23.292210 14108 net.cpp:94] Creating Layer ip2
I0501 18:51:23.292218 14108 net.cpp:435] ip2 <- ip1
I0501 18:51:23.292223 14108 net.cpp:409] ip2 -> ip2
I0501 18:51:23.292387 14108 net.cpp:144] Setting up ip2
I0501 18:51:23.292394 14108 net.cpp:151] Top shape: 20 64 (1280)
I0501 18:51:23.292398 14108 net.cpp:159] Memory required for data: 11946320
I0501 18:51:23.292403 14108 layer_factory.hpp:77] Creating layer ip3
I0501 18:51:23.292409 14108 net.cpp:94] Creating Layer ip3
I0501 18:51:23.292412 14108 net.cpp:435] ip3 <- ip2
I0501 18:51:23.292418 14108 net.cpp:409] ip3 -> ip3
I0501 18:51:23.292479 14108 net.cpp:144] Setting up ip3
I0501 18:51:23.292491 14108 net.cpp:151] Top shape: 20 1 (20)
I0501 18:51:23.292495 14108 net.cpp:159] Memory required for data: 11946400
I0501 18:51:23.292500 14108 layer_factory.hpp:77] Creating layer loss
I0501 18:51:23.292510 14108 net.cpp:94] Creating Layer loss
I0501 18:51:23.292513 14108 net.cpp:435] loss <- ip3
I0501 18:51:23.292517 14108 net.cpp:435] loss <- label
I0501 18:51:23.292523 14108 net.cpp:409] loss -> loss
I0501 18:51:23.292569 14108 net.cpp:144] Setting up loss
…
