…
I0505 00:38:41.015880  1377 net.cpp:323] The NetState phase (0) differed from the phase (1) specified by a rule in layer intercept
I0505 00:38:41.015895  1377 net.cpp:323] The NetState phase (0) differed from the phase (1) specified by a rule in layer loss
I0505 00:38:41.015972  1377 net.cpp:52] Initializing net from parameters: 
state {
  phase: TRAIN
}
layer {
  name: "parameters"
  type: "HDF5Data"
  top: "data"
  top: "label"
  include {
    phase: TRAIN
  }
  hdf5_data_param {
    source: "/home/purduethu/scratch/radon/d/deng106/CNNStatisticalModel/distributions/input/5_distributions_400_sample_size_train-parameters-path.txt"
    batch_size: 20
  }
}
layer {
  name: "conv1"
  type: "Convolution"
  bottom: "data"
  top: "conv1"
  param {
    lr_mult: 1
  }
  param {
    lr_mult: 2
  }
  convolution_param {
    num_output: 64
    pad: 2
    kernel_size: 5
    stride: 1
    weight_filler {
      type: "gaussian"
      std: 0.0001
    }
    bias_filler {
      type: "constant"
    }
  }
}
layer {
  name: "relu1"
  type: "ReLU"
  bottom: "conv1"
  top: "conv1"
}
layer {
  name: "pool1"
  type: "Pooling"
  bottom: "conv1"
  top: "pool1"
  pooling_param {
    pool: MAX
    kernel_size: 3
    stride: 2
  }
}
layer {
  name: "conv2"
  type: "Convolution"
  bottom: "pool1"
  top: "conv2"
  param {
    lr_mult: 1
  }
  param {
    lr_mult: 2
  }
  convolution_param {
    num_output: 128
    pad: 2
    kernel_size: 5
    stride: 1
    weight_filler {
      type: "gaussian"
      std: 0.01
    }
    bias_filler {
      type: "constant"
    }
  }
}
layer {
  name: "relu2"
  type: "ReLU"
  bottom: "conv2"
  top: "conv2"
}
layer {
  name: "conv3"
  type: "Convolution"
  bottom: "conv2"
  top: "conv3"
  param {
    lr_mult: 1
  }
  param {
    lr_mult: 2
  }
  convolution_param {
    num_output: 128
    pad: 2
    kernel_size: 5
    stride: 1
    weight_filler {
      type: "gaussian"
      std: 0.01
    }
    bias_filler {
      type: "constant"
    }
  }
}
layer {
  name: "relu3"
  type: "ReLU"
  bottom: "conv3"
  top: "conv3"
}
layer {
  name: "pool3"
  type: "Pooling"
  bottom: "conv3"
  top: "pool3"
  pooling_param {
    pool: AVE
    kernel_size: 3
    stride: 2
  }
}
layer {
  name: "ip1"
  type: "InnerProduct"
  bottom: "pool3"
  top: "ip1"
  param {
    lr_mult: 1
  }
  param {
    lr_mult: 2
  }
  inner_product_param {
    num_output: 512
    weight_filler {
      type: "gaussian"
      std: 0.1
    }
    bias_filler {
      type: "constant"
    }
  }
}
layer {
  name: "ip2"
  type: "InnerProduct"
  bottom: "ip1"
  top: "ip2"
  param {
    lr_mult: 1
  }
  param {
    lr_mult: 2
  }
  inner_product_param {
    num_output: 256
    weight_filler {
      type: "gaussian"
      std: 0.1
    }
    bias_filler {
      type: "constant"
    }
  }
}
layer {
  name: "ip3"
  type: "InnerProduct"
  bottom: "ip2"
  top: "ip3"
  param {
    lr_mult: 1
  }
  param {
    lr_mult: 2
  }
  inner_product_param {
    num_output: 1
    weight_filler {
      type: "gaussian"
      std: 0.1
    }
    bias_filler {
      type: "constant"
    }
  }
}
layer {
  name: "loss"
  type: "HuberLoss"
  bottom: "ip3"
  bottom: "label"
  top: "loss"
  include {
    phase: TRAIN
  }
}
I0505 00:38:41.016034  1377 layer_factory.hpp:77] Creating layer parameters
I0505 00:38:41.016048  1377 net.cpp:94] Creating Layer parameters
I0505 00:38:41.016060  1377 net.cpp:409] parameters -> data
I0505 00:38:41.016080  1377 net.cpp:409] parameters -> label
I0505 00:38:41.016090  1377 hdf5_data_layer.cpp:79] Loading list of HDF5 filenames from: /home/purduethu/scratch/radon/d/deng106/CNNStatisticalModel/distributions/input/5_distributions_400_sample_size_train-parameters-path.txt
I0505 00:38:41.016113  1377 hdf5_data_layer.cpp:93] Number of HDF5 files: 1
I0505 00:38:41.016690  1377 hdf5.cpp:32] Datatype class: H5T_FLOAT
I0505 00:38:41.079885  1377 net.cpp:144] Setting up parameters
I0505 00:38:41.079919  1377 net.cpp:151] Top shape: 20 1 20 20 (8000)
I0505 00:38:41.079926  1377 net.cpp:151] Top shape: 20 (20)
I0505 00:38:41.079929  1377 net.cpp:159] Memory required for data: 32080
I0505 00:38:41.079937  1377 layer_factory.hpp:77] Creating layer conv1
I0505 00:38:41.079960  1377 net.cpp:94] Creating Layer conv1
I0505 00:38:41.079967  1377 net.cpp:435] conv1 <- data
I0505 00:38:41.079978  1377 net.cpp:409] conv1 -> conv1
I0505 00:38:41.084743  1377 net.cpp:144] Setting up conv1
I0505 00:38:41.084761  1377 net.cpp:151] Top shape: 20 64 20 20 (512000)
I0505 00:38:41.084765  1377 net.cpp:159] Memory required for data: 2080080
I0505 00:38:41.084777  1377 layer_factory.hpp:77] Creating layer relu1
I0505 00:38:41.084786  1377 net.cpp:94] Creating Layer relu1
I0505 00:38:41.084790  1377 net.cpp:435] relu1 <- conv1
I0505 00:38:41.084795  1377 net.cpp:396] relu1 -> conv1 (in-place)
I0505 00:38:41.084815  1377 net.cpp:144] Setting up relu1
I0505 00:38:41.084820  1377 net.cpp:151] Top shape: 20 64 20 20 (512000)
I0505 00:38:41.084823  1377 net.cpp:159] Memory required for data: 4128080
I0505 00:38:41.084826  1377 layer_factory.hpp:77] Creating layer pool1
I0505 00:38:41.084834  1377 net.cpp:94] Creating Layer pool1
I0505 00:38:41.084837  1377 net.cpp:435] pool1 <- conv1
I0505 00:38:41.084842  1377 net.cpp:409] pool1 -> pool1
I0505 00:38:41.084884  1377 net.cpp:144] Setting up pool1
I0505 00:38:41.084892  1377 net.cpp:151] Top shape: 20 64 10 10 (128000)
I0505 00:38:41.084895  1377 net.cpp:159] Memory required for data: 4640080
I0505 00:38:41.084899  1377 layer_factory.hpp:77] Creating layer conv2
I0505 00:38:41.084908  1377 net.cpp:94] Creating Layer conv2
I0505 00:38:41.084913  1377 net.cpp:435] conv2 <- pool1
I0505 00:38:41.084918  1377 net.cpp:409] conv2 -> conv2
I0505 00:38:41.095120  1377 net.cpp:144] Setting up conv2
I0505 00:38:41.095144  1377 net.cpp:151] Top shape: 20 128 10 10 (256000)
I0505 00:38:41.095149  1377 net.cpp:159] Memory required for data: 5664080
I0505 00:38:41.095160  1377 layer_factory.hpp:77] Creating layer relu2
I0505 00:38:41.095166  1377 net.cpp:94] Creating Layer relu2
I0505 00:38:41.095171  1377 net.cpp:435] relu2 <- conv2
I0505 00:38:41.095176  1377 net.cpp:396] relu2 -> conv2 (in-place)
I0505 00:38:41.095185  1377 net.cpp:144] Setting up relu2
I0505 00:38:41.095190  1377 net.cpp:151] Top shape: 20 128 10 10 (256000)
I0505 00:38:41.095192  1377 net.cpp:159] Memory required for data: 6688080
I0505 00:38:41.095196  1377 layer_factory.hpp:77] Creating layer conv3
I0505 00:38:41.095206  1377 net.cpp:94] Creating Layer conv3
I0505 00:38:41.095208  1377 net.cpp:435] conv3 <- conv2
I0505 00:38:41.095213  1377 net.cpp:409] conv3 -> conv3
I0505 00:38:41.112877  1377 net.cpp:144] Setting up conv3
I0505 00:38:41.112908  1377 net.cpp:151] Top shape: 20 128 10 10 (256000)
I0505 00:38:41.112913  1377 net.cpp:159] Memory required for data: 7712080
I0505 00:38:41.112924  1377 layer_factory.hpp:77] Creating layer relu3
I0505 00:38:41.112934  1377 net.cpp:94] Creating Layer relu3
I0505 00:38:41.112946  1377 net.cpp:435] relu3 <- conv3
I0505 00:38:41.112951  1377 net.cpp:396] relu3 -> conv3 (in-place)
I0505 00:38:41.112962  1377 net.cpp:144] Setting up relu3
I0505 00:38:41.112967  1377 net.cpp:151] Top shape: 20 128 10 10 (256000)
I0505 00:38:41.112969  1377 net.cpp:159] Memory required for data: 8736080
I0505 00:38:41.112973  1377 layer_factory.hpp:77] Creating layer pool3
I0505 00:38:41.112980  1377 net.cpp:94] Creating Layer pool3
I0505 00:38:41.112983  1377 net.cpp:435] pool3 <- conv3
I0505 00:38:41.112996  1377 net.cpp:409] pool3 -> pool3
I0505 00:38:41.113044  1377 net.cpp:144] Setting up pool3
I0505 00:38:41.113052  1377 net.cpp:151] Top shape: 20 128 5 5 (64000)
I0505 00:38:41.113055  1377 net.cpp:159] Memory required for data: 8992080
I0505 00:38:41.113059  1377 layer_factory.hpp:77] Creating layer ip1
I0505 00:38:41.113070  1377 net.cpp:94] Creating Layer ip1
I0505 00:38:41.113073  1377 net.cpp:435] ip1 <- pool3
I0505 00:38:41.113078  1377 net.cpp:409] ip1 -> ip1
I0505 00:38:41.154541  1377 net.cpp:144] Setting up ip1
I0505 00:38:41.154577  1377 net.cpp:151] Top shape: 20 512 (10240)
I0505 00:38:41.154582  1377 net.cpp:159] Memory required for data: 9033040
I0505 00:38:41.154592  1377 layer_factory.hpp:77] Creating layer ip2
I0505 00:38:41.154602  1377 net.cpp:94] Creating Layer ip2
I0505 00:38:41.154608  1377 net.cpp:435] ip2 <- ip1
I0505 00:38:41.154613  1377 net.cpp:409] ip2 -> ip2
I0505 00:38:41.157902  1377 net.cpp:144] Setting up ip2
I0505 00:38:41.157910  1377 net.cpp:151] Top shape: 20 256 (5120)
I0505 00:38:41.157914  1377 net.cpp:159] Memory required for data: 9053520
I0505 00:38:41.157922  1377 layer_factory.hpp:77] Creating layer ip3
I0505 00:38:41.157928  1377 net.cpp:94] Creating Layer ip3
I0505 00:38:41.157932  1377 net.cpp:435] ip3 <- ip2
I0505 00:38:41.157938  1377 net.cpp:409] ip3 -> ip3
I0505 00:38:41.158005  1377 net.cpp:144] Setting up ip3
I0505 00:38:41.158011  1377 net.cpp:151] Top shape: 20 1 (20)
I0505 00:38:41.158015  1377 net.cpp:159] Memory required for data: 9053600
I0505 00:38:41.158020  1377 layer_factory.hpp:77] Creating layer loss
I0505 00:38:41.158026  1377 net.cpp:94] Creating Layer loss
I0505 00:38:41.158030  1377 net.cpp:435] loss <- ip3
I0505 00:38:41.158033  1377 net.cpp:435] loss <- label
I0505 00:38:41.158040  1377 net.cpp:409] loss -> loss
I0505 00:38:41.158083  1377 net.cpp:144] Setting up loss
…
