…
I0505 07:19:17.170759  4616 net.cpp:323] The NetState phase (0) differed from the phase (1) specified by a rule in layer intercept
I0505 07:19:17.170774  4616 net.cpp:323] The NetState phase (0) differed from the phase (1) specified by a rule in layer loss
I0505 07:19:17.170850  4616 net.cpp:52] Initializing net from parameters: 
state {
  phase: TRAIN
}
layer {
  name: "parameters"
  type: "HDF5Data"
  top: "data"
  top: "label"
  include {
    phase: TRAIN
  }
  hdf5_data_param {
    source: "/home/purduethu/scratch/radon/d/deng106/CNNStatisticalModel/distributions/input/20_distributions_400_sample_size_train-parameters-path.txt"
    batch_size: 20
  }
}
layer {
  name: "conv1"
  type: "Convolution"
  bottom: "data"
  top: "conv1"
  param {
    lr_mult: 1
  }
  param {
    lr_mult: 2
  }
  convolution_param {
    num_output: 64
    pad: 2
    kernel_size: 5
    stride: 1
    weight_filler {
      type: "gaussian"
      std: 0.0001
    }
    bias_filler {
      type: "constant"
    }
  }
}
layer {
  name: "relu1"
  type: "ReLU"
  bottom: "conv1"
  top: "conv1"
}
layer {
  name: "pool1"
  type: "Pooling"
  bottom: "conv1"
  top: "pool1"
  pooling_param {
    pool: MAX
    kernel_size: 3
    stride: 2
  }
}
layer {
  name: "conv2"
  type: "Convolution"
  bottom: "pool1"
  top: "conv2"
  param {
    lr_mult: 1
  }
  param {
    lr_mult: 2
  }
  convolution_param {
    num_output: 128
    pad: 2
    kernel_size: 5
    stride: 1
    weight_filler {
      type: "gaussian"
      std: 0.01
    }
    bias_filler {
      type: "constant"
    }
  }
}
layer {
  name: "relu2"
  type: "ReLU"
  bottom: "conv2"
  top: "conv2"
}
layer {
  name: "conv3"
  type: "Convolution"
  bottom: "conv2"
  top: "conv3"
  param {
    lr_mult: 1
  }
  param {
    lr_mult: 2
  }
  convolution_param {
    num_output: 128
    pad: 2
    kernel_size: 5
    stride: 1
    weight_filler {
      type: "gaussian"
      std: 0.01
    }
    bias_filler {
      type: "constant"
    }
  }
}
layer {
  name: "relu3"
  type: "ReLU"
  bottom: "conv3"
  top: "conv3"
}
layer {
  name: "pool3"
  type: "Pooling"
  bottom: "conv3"
  top: "pool3"
  pooling_param {
    pool: AVE
    kernel_size: 3
    stride: 2
  }
}
layer {
  name: "ip1"
  type: "InnerProduct"
  bottom: "pool3"
  top: "ip1"
  param {
    lr_mult: 1
  }
  param {
    lr_mult: 2
  }
  inner_product_param {
    num_output: 512
    weight_filler {
      type: "gaussian"
      std: 0.1
    }
    bias_filler {
      type: "constant"
    }
  }
}
layer {
  name: "ip2"
  type: "InnerProduct"
  bottom: "ip1"
  top: "ip2"
  param {
    lr_mult: 1
  }
  param {
    lr_mult: 2
  }
  inner_product_param {
    num_output: 256
    weight_filler {
      type: "gaussian"
      std: 0.1
    }
    bias_filler {
      type: "constant"
    }
  }
}
layer {
  name: "ip3"
  type: "InnerProduct"
  bottom: "ip2"
  top: "ip3"
  param {
    lr_mult: 1
  }
  param {
    lr_mult: 2
  }
  inner_product_param {
    num_output: 1
    weight_filler {
      type: "gaussian"
      std: 0.1
    }
    bias_filler {
      type: "constant"
    }
  }
}
layer {
  name: "loss"
  type: "HuberLoss"
  bottom: "ip3"
  bottom: "label"
  top: "loss"
  include {
    phase: TRAIN
  }
}
I0505 07:19:17.170912  4616 layer_factory.hpp:77] Creating layer parameters
I0505 07:19:17.170925  4616 net.cpp:94] Creating Layer parameters
I0505 07:19:17.170938  4616 net.cpp:409] parameters -> data
I0505 07:19:17.170958  4616 net.cpp:409] parameters -> label
I0505 07:19:17.170969  4616 hdf5_data_layer.cpp:79] Loading list of HDF5 filenames from: /home/purduethu/scratch/radon/d/deng106/CNNStatisticalModel/distributions/input/20_distributions_400_sample_size_train-parameters-path.txt
I0505 07:19:17.170991  4616 hdf5_data_layer.cpp:93] Number of HDF5 files: 1
I0505 07:19:17.171561  4616 hdf5.cpp:32] Datatype class: H5T_FLOAT
I0505 07:19:17.426095  4616 net.cpp:144] Setting up parameters
I0505 07:19:17.426127  4616 net.cpp:151] Top shape: 20 1 20 20 (8000)
I0505 07:19:17.426133  4616 net.cpp:151] Top shape: 20 (20)
I0505 07:19:17.426137  4616 net.cpp:159] Memory required for data: 32080
I0505 07:19:17.426144  4616 layer_factory.hpp:77] Creating layer conv1
I0505 07:19:17.426163  4616 net.cpp:94] Creating Layer conv1
I0505 07:19:17.426168  4616 net.cpp:435] conv1 <- data
I0505 07:19:17.426180  4616 net.cpp:409] conv1 -> conv1
I0505 07:19:17.430878  4616 net.cpp:144] Setting up conv1
I0505 07:19:17.430893  4616 net.cpp:151] Top shape: 20 64 20 20 (512000)
I0505 07:19:17.430897  4616 net.cpp:159] Memory required for data: 2080080
I0505 07:19:17.430908  4616 layer_factory.hpp:77] Creating layer relu1
I0505 07:19:17.430917  4616 net.cpp:94] Creating Layer relu1
I0505 07:19:17.430920  4616 net.cpp:435] relu1 <- conv1
I0505 07:19:17.430925  4616 net.cpp:396] relu1 -> conv1 (in-place)
I0505 07:19:17.430943  4616 net.cpp:144] Setting up relu1
I0505 07:19:17.430948  4616 net.cpp:151] Top shape: 20 64 20 20 (512000)
I0505 07:19:17.430950  4616 net.cpp:159] Memory required for data: 4128080
I0505 07:19:17.430953  4616 layer_factory.hpp:77] Creating layer pool1
I0505 07:19:17.430960  4616 net.cpp:94] Creating Layer pool1
I0505 07:19:17.430964  4616 net.cpp:435] pool1 <- conv1
I0505 07:19:17.430968  4616 net.cpp:409] pool1 -> pool1
I0505 07:19:17.431008  4616 net.cpp:144] Setting up pool1
I0505 07:19:17.431015  4616 net.cpp:151] Top shape: 20 64 10 10 (128000)
I0505 07:19:17.431018  4616 net.cpp:159] Memory required for data: 4640080
I0505 07:19:17.431021  4616 layer_factory.hpp:77] Creating layer conv2
I0505 07:19:17.431030  4616 net.cpp:94] Creating Layer conv2
I0505 07:19:17.431033  4616 net.cpp:435] conv2 <- pool1
I0505 07:19:17.431038  4616 net.cpp:409] conv2 -> conv2
I0505 07:19:17.440711  4616 net.cpp:144] Setting up conv2
I0505 07:19:17.440757  4616 net.cpp:151] Top shape: 20 128 10 10 (256000)
I0505 07:19:17.440762  4616 net.cpp:159] Memory required for data: 5664080
I0505 07:19:17.440769  4616 layer_factory.hpp:77] Creating layer relu2
I0505 07:19:17.440776  4616 net.cpp:94] Creating Layer relu2
I0505 07:19:17.440780  4616 net.cpp:435] relu2 <- conv2
I0505 07:19:17.440784  4616 net.cpp:396] relu2 -> conv2 (in-place)
I0505 07:19:17.440791  4616 net.cpp:144] Setting up relu2
I0505 07:19:17.440796  4616 net.cpp:151] Top shape: 20 128 10 10 (256000)
I0505 07:19:17.440799  4616 net.cpp:159] Memory required for data: 6688080
I0505 07:19:17.440803  4616 layer_factory.hpp:77] Creating layer conv3
I0505 07:19:17.440810  4616 net.cpp:94] Creating Layer conv3
I0505 07:19:17.440814  4616 net.cpp:435] conv3 <- conv2
I0505 07:19:17.440819  4616 net.cpp:409] conv3 -> conv3
I0505 07:19:17.457921  4616 net.cpp:144] Setting up conv3
I0505 07:19:17.457937  4616 net.cpp:151] Top shape: 20 128 10 10 (256000)
I0505 07:19:17.457942  4616 net.cpp:159] Memory required for data: 7712080
I0505 07:19:17.457949  4616 layer_factory.hpp:77] Creating layer relu3
I0505 07:19:17.457955  4616 net.cpp:94] Creating Layer relu3
I0505 07:19:17.457965  4616 net.cpp:435] relu3 <- conv3
I0505 07:19:17.457970  4616 net.cpp:396] relu3 -> conv3 (in-place)
I0505 07:19:17.457978  4616 net.cpp:144] Setting up relu3
I0505 07:19:17.457983  4616 net.cpp:151] Top shape: 20 128 10 10 (256000)
I0505 07:19:17.457986  4616 net.cpp:159] Memory required for data: 8736080
I0505 07:19:17.457989  4616 layer_factory.hpp:77] Creating layer pool3
I0505 07:19:17.457994  4616 net.cpp:94] Creating Layer pool3
I0505 07:19:17.457998  4616 net.cpp:435] pool3 <- conv3
I0505 07:19:17.458009  4616 net.cpp:409] pool3 -> pool3
I0505 07:19:17.458043  4616 net.cpp:144] Setting up pool3
I0505 07:19:17.458050  4616 net.cpp:151] Top shape: 20 128 5 5 (64000)
I0505 07:19:17.458053  4616 net.cpp:159] Memory required for data: 8992080
I0505 07:19:17.458057  4616 layer_factory.hpp:77] Creating layer ip1
I0505 07:19:17.458065  4616 net.cpp:94] Creating Layer ip1
I0505 07:19:17.458067  4616 net.cpp:435] ip1 <- pool3
I0505 07:19:17.458072  4616 net.cpp:409] ip1 -> ip1
I0505 07:19:17.497501  4616 net.cpp:144] Setting up ip1
I0505 07:19:17.497517  4616 net.cpp:151] Top shape: 20 512 (10240)
I0505 07:19:17.497521  4616 net.cpp:159] Memory required for data: 9033040
I0505 07:19:17.497527  4616 layer_factory.hpp:77] Creating layer ip2
I0505 07:19:17.497534  4616 net.cpp:94] Creating Layer ip2
I0505 07:19:17.497539  4616 net.cpp:435] ip2 <- ip1
I0505 07:19:17.497544  4616 net.cpp:409] ip2 -> ip2
I0505 07:19:17.500641  4616 net.cpp:144] Setting up ip2
I0505 07:19:17.500649  4616 net.cpp:151] Top shape: 20 256 (5120)
I0505 07:19:17.500653  4616 net.cpp:159] Memory required for data: 9053520
I0505 07:19:17.500660  4616 layer_factory.hpp:77] Creating layer ip3
I0505 07:19:17.500666  4616 net.cpp:94] Creating Layer ip3
I0505 07:19:17.500670  4616 net.cpp:435] ip3 <- ip2
I0505 07:19:17.500674  4616 net.cpp:409] ip3 -> ip3
I0505 07:19:17.500738  4616 net.cpp:144] Setting up ip3
I0505 07:19:17.500744  4616 net.cpp:151] Top shape: 20 1 (20)
I0505 07:19:17.500747  4616 net.cpp:159] Memory required for data: 9053600
I0505 07:19:17.500752  4616 layer_factory.hpp:77] Creating layer loss
I0505 07:19:17.500762  4616 net.cpp:94] Creating Layer loss
I0505 07:19:17.500766  4616 net.cpp:435] loss <- ip3
I0505 07:19:17.500769  4616 net.cpp:435] loss <- label
I0505 07:19:17.500774  4616 net.cpp:409] loss -> loss
I0505 07:19:17.500808  4616 net.cpp:144] Setting up loss
…
