…
I0502 08:33:19.894520 21044 net.cpp:323] The NetState phase (0) differed from the phase (1) specified by a rule in layer intercept
I0502 08:33:19.894536 21044 net.cpp:323] The NetState phase (0) differed from the phase (1) specified by a rule in layer loss
I0502 08:33:19.894614 21044 net.cpp:52] Initializing net from parameters: 
state {
  phase: TRAIN
}
layer {
  name: "parameters"
  type: "HDF5Data"
  top: "data"
  top: "label"
  include {
    phase: TRAIN
  }
  hdf5_data_param {
    source: "/home/purduethu/scratch/radon/d/deng106/CNNStatisticalModel/distributions/input/50_distributions_900_sample_size_train-parameters-path.txt"
    batch_size: 20
  }
}
layer {
  name: "conv1"
  type: "Convolution"
  bottom: "data"
  top: "conv1"
  param {
    lr_mult: 1
  }
  param {
    lr_mult: 2
  }
  convolution_param {
    num_output: 64
    pad: 2
    kernel_size: 5
    stride: 1
    weight_filler {
      type: "gaussian"
      std: 0.0001
    }
    bias_filler {
      type: "constant"
    }
  }
}
layer {
  name: "relu1"
  type: "ReLU"
  bottom: "conv1"
  top: "conv1"
}
layer {
  name: "conv2"
  type: "Convolution"
  bottom: "conv1"
  top: "conv2"
  param {
    lr_mult: 1
  }
  param {
    lr_mult: 2
  }
  convolution_param {
    num_output: 64
    pad: 2
    kernel_size: 5
    stride: 1
    weight_filler {
      type: "gaussian"
      std: 0.01
    }
    bias_filler {
      type: "constant"
    }
  }
}
layer {
  name: "relu2"
  type: "ReLU"
  bottom: "conv2"
  top: "conv2"
}
layer {
  name: "pool2"
  type: "Pooling"
  bottom: "conv2"
  top: "pool2"
  pooling_param {
    pool: MAX
    kernel_size: 3
    stride: 2
  }
}
layer {
  name: "conv3"
  type: "Convolution"
  bottom: "pool2"
  top: "conv3"
  param {
    lr_mult: 1
  }
  param {
    lr_mult: 2
  }
  convolution_param {
    num_output: 64
    pad: 2
    kernel_size: 5
    stride: 1
    weight_filler {
      type: "gaussian"
      std: 0.01
    }
    bias_filler {
      type: "constant"
    }
  }
}
layer {
  name: "relu3"
  type: "ReLU"
  bottom: "conv3"
  top: "conv3"
}
layer {
  name: "conv4"
  type: "Convolution"
  bottom: "conv3"
  top: "conv4"
  param {
    lr_mult: 1
  }
  param {
    lr_mult: 2
  }
  convolution_param {
    num_output: 64
    pad: 2
    kernel_size: 5
    stride: 1
    weight_filler {
      type: "gaussian"
      std: 0.01
    }
    bias_filler {
      type: "constant"
    }
  }
}
layer {
  name: "relu4"
  type: "ReLU"
  bottom: "conv4"
  top: "conv4"
}
layer {
  name: "conv5"
  type: "Convolution"
  bottom: "conv4"
  top: "conv5"
  param {
    lr_mult: 1
  }
  param {
    lr_mult: 2
  }
  convolution_param {
    num_output: 64
    pad: 2
    kernel_size: 5
    stride: 1
    weight_filler {
      type: "gaussian"
      std: 0.01
    }
    bias_filler {
      type: "constant"
    }
  }
}
layer {
  name: "relu5"
  type: "ReLU"
  bottom: "conv5"
  top: "conv5"
}
layer {
  name: "pool5"
  type: "Pooling"
  bottom: "conv5"
  top: "pool5"
  pooling_param {
    pool: AVE
    kernel_size: 3
    stride: 2
  }
}
layer {
  name: "ip1"
  type: "InnerProduct"
  bottom: "pool5"
  top: "ip1"
  param {
    lr_mult: 1
  }
  param {
    lr_mult: 2
  }
  inner_product_param {
    num_output: 64
    weight_filler {
      type: "gaussian"
      std: 0.1
    }
    bias_filler {
      type: "constant"
    }
  }
}
layer {
  name: "ip2"
  type: "InnerProduct"
  bottom: "ip1"
  top: "ip2"
  param {
    lr_mult: 1
  }
  param {
    lr_mult: 2
  }
  inner_product_param {
    num_output: 64
    weight_filler {
      type: "gaussian"
      std: 0.1
    }
    bias_filler {
      type: "constant"
    }
  }
}
layer {
  name: "ip3"
  type: "InnerProduct"
  bottom: "ip2"
  top: "ip3"
  param {
    lr_mult: 1
  }
  param {
    lr_mult: 2
  }
  inner_product_param {
    num_output: 1
    weight_filler {
      type: "gaussian"
      std: 0.1
    }
    bias_filler {
      type: "constant"
    }
  }
}
layer {
  name: "loss"
  type: "HuberLoss"
  bottom: "ip3"
  bottom: "label"
  top: "loss"
  include {
    phase: TRAIN
  }
}
I0502 08:33:19.894670 21044 layer_factory.hpp:77] Creating layer parameters
I0502 08:33:19.894681 21044 net.cpp:94] Creating Layer parameters
I0502 08:33:19.894685 21044 net.cpp:409] parameters -> data
I0502 08:33:19.894701 21044 net.cpp:409] parameters -> label
I0502 08:33:19.894707 21044 hdf5_data_layer.cpp:79] Loading list of HDF5 filenames from: /home/purduethu/scratch/radon/d/deng106/CNNStatisticalModel/distributions/input/50_distributions_900_sample_size_train-parameters-path.txt
I0502 08:33:19.894724 21044 hdf5_data_layer.cpp:93] Number of HDF5 files: 1
I0502 08:33:19.895289 21044 hdf5.cpp:32] Datatype class: H5T_FLOAT
I0502 08:33:21.387869 21044 net.cpp:144] Setting up parameters
I0502 08:33:21.387910 21044 net.cpp:151] Top shape: 20 1 30 30 (18000)
I0502 08:33:21.387917 21044 net.cpp:151] Top shape: 20 (20)
I0502 08:33:21.387920 21044 net.cpp:159] Memory required for data: 72080
I0502 08:33:21.387928 21044 layer_factory.hpp:77] Creating layer conv1
I0502 08:33:21.387944 21044 net.cpp:94] Creating Layer conv1
I0502 08:33:21.387948 21044 net.cpp:435] conv1 <- data
I0502 08:33:21.387954 21044 net.cpp:409] conv1 -> conv1
I0502 08:33:21.394871 21044 net.cpp:144] Setting up conv1
I0502 08:33:21.394906 21044 net.cpp:151] Top shape: 20 64 30 30 (1152000)
I0502 08:33:21.394909 21044 net.cpp:159] Memory required for data: 4680080
I0502 08:33:21.394925 21044 layer_factory.hpp:77] Creating layer relu1
I0502 08:33:21.394937 21044 net.cpp:94] Creating Layer relu1
I0502 08:33:21.394942 21044 net.cpp:435] relu1 <- conv1
I0502 08:33:21.394946 21044 net.cpp:396] relu1 -> conv1 (in-place)
I0502 08:33:21.394958 21044 net.cpp:144] Setting up relu1
I0502 08:33:21.394963 21044 net.cpp:151] Top shape: 20 64 30 30 (1152000)
I0502 08:33:21.394965 21044 net.cpp:159] Memory required for data: 9288080
I0502 08:33:21.394968 21044 layer_factory.hpp:77] Creating layer conv2
I0502 08:33:21.394979 21044 net.cpp:94] Creating Layer conv2
I0502 08:33:21.394982 21044 net.cpp:435] conv2 <- conv1
I0502 08:33:21.394989 21044 net.cpp:409] conv2 -> conv2
I0502 08:33:21.412765 21044 net.cpp:144] Setting up conv2
I0502 08:33:21.412801 21044 net.cpp:151] Top shape: 20 64 30 30 (1152000)
I0502 08:33:21.412806 21044 net.cpp:159] Memory required for data: 13896080
I0502 08:33:21.412819 21044 layer_factory.hpp:77] Creating layer relu2
I0502 08:33:21.412832 21044 net.cpp:94] Creating Layer relu2
I0502 08:33:21.412835 21044 net.cpp:435] relu2 <- conv2
I0502 08:33:21.412842 21044 net.cpp:396] relu2 -> conv2 (in-place)
I0502 08:33:21.412853 21044 net.cpp:144] Setting up relu2
I0502 08:33:21.412858 21044 net.cpp:151] Top shape: 20 64 30 30 (1152000)
I0502 08:33:21.412860 21044 net.cpp:159] Memory required for data: 18504080
I0502 08:33:21.412863 21044 layer_factory.hpp:77] Creating layer pool2
I0502 08:33:21.412878 21044 net.cpp:94] Creating Layer pool2
I0502 08:33:21.412881 21044 net.cpp:435] pool2 <- conv2
I0502 08:33:21.412886 21044 net.cpp:409] pool2 -> pool2
I0502 08:33:21.412979 21044 net.cpp:144] Setting up pool2
I0502 08:33:21.412987 21044 net.cpp:151] Top shape: 20 64 15 15 (288000)
I0502 08:33:21.412991 21044 net.cpp:159] Memory required for data: 19656080
I0502 08:33:21.412993 21044 layer_factory.hpp:77] Creating layer conv3
I0502 08:33:21.413004 21044 net.cpp:94] Creating Layer conv3
I0502 08:33:21.413008 21044 net.cpp:435] conv3 <- pool2
I0502 08:33:21.413012 21044 net.cpp:409] conv3 -> conv3
I0502 08:33:21.422655 21044 net.cpp:144] Setting up conv3
I0502 08:33:21.422690 21044 net.cpp:151] Top shape: 20 64 15 15 (288000)
I0502 08:33:21.422694 21044 net.cpp:159] Memory required for data: 20808080
I0502 08:33:21.422709 21044 layer_factory.hpp:77] Creating layer relu3
I0502 08:33:21.422720 21044 net.cpp:94] Creating Layer relu3
I0502 08:33:21.422724 21044 net.cpp:435] relu3 <- conv3
I0502 08:33:21.422730 21044 net.cpp:396] relu3 -> conv3 (in-place)
I0502 08:33:21.422742 21044 net.cpp:144] Setting up relu3
I0502 08:33:21.422746 21044 net.cpp:151] Top shape: 20 64 15 15 (288000)
I0502 08:33:21.422749 21044 net.cpp:159] Memory required for data: 21960080
I0502 08:33:21.422752 21044 layer_factory.hpp:77] Creating layer conv4
I0502 08:33:21.422765 21044 net.cpp:94] Creating Layer conv4
I0502 08:33:21.422767 21044 net.cpp:435] conv4 <- conv3
I0502 08:33:21.422773 21044 net.cpp:409] conv4 -> conv4
I0502 08:33:21.431468 21044 net.cpp:144] Setting up conv4
I0502 08:33:21.431504 21044 net.cpp:151] Top shape: 20 64 15 15 (288000)
I0502 08:33:21.431507 21044 net.cpp:159] Memory required for data: 23112080
I0502 08:33:21.431517 21044 layer_factory.hpp:77] Creating layer relu4
I0502 08:33:21.431527 21044 net.cpp:94] Creating Layer relu4
I0502 08:33:21.431531 21044 net.cpp:435] relu4 <- conv4
I0502 08:33:21.431538 21044 net.cpp:396] relu4 -> conv4 (in-place)
I0502 08:33:21.431548 21044 net.cpp:144] Setting up relu4
I0502 08:33:21.431553 21044 net.cpp:151] Top shape: 20 64 15 15 (288000)
I0502 08:33:21.431556 21044 net.cpp:159] Memory required for data: 24264080
I0502 08:33:21.431560 21044 layer_factory.hpp:77] Creating layer conv5
I0502 08:33:21.431569 21044 net.cpp:94] Creating Layer conv5
I0502 08:33:21.431573 21044 net.cpp:435] conv5 <- conv4
I0502 08:33:21.431577 21044 net.cpp:409] conv5 -> conv5
I0502 08:33:21.440268 21044 net.cpp:144] Setting up conv5
I0502 08:33:21.440301 21044 net.cpp:151] Top shape: 20 64 15 15 (288000)
I0502 08:33:21.440305 21044 net.cpp:159] Memory required for data: 25416080
I0502 08:33:21.440320 21044 layer_factory.hpp:77] Creating layer relu5
I0502 08:33:21.440331 21044 net.cpp:94] Creating Layer relu5
I0502 08:33:21.440335 21044 net.cpp:435] relu5 <- conv5
I0502 08:33:21.440341 21044 net.cpp:396] relu5 -> conv5 (in-place)
I0502 08:33:21.440352 21044 net.cpp:144] Setting up relu5
I0502 08:33:21.440356 21044 net.cpp:151] Top shape: 20 64 15 15 (288000)
I0502 08:33:21.440359 21044 net.cpp:159] Memory required for data: 26568080
I0502 08:33:21.440362 21044 layer_factory.hpp:77] Creating layer pool5
I0502 08:33:21.440368 21044 net.cpp:94] Creating Layer pool5
I0502 08:33:21.440371 21044 net.cpp:435] pool5 <- conv5
I0502 08:33:21.440376 21044 net.cpp:409] pool5 -> pool5
I0502 08:33:21.440450 21044 net.cpp:144] Setting up pool5
I0502 08:33:21.440459 21044 net.cpp:151] Top shape: 20 64 7 7 (62720)
I0502 08:33:21.440461 21044 net.cpp:159] Memory required for data: 26818960
I0502 08:33:21.440464 21044 layer_factory.hpp:77] Creating layer ip1
I0502 08:33:21.440475 21044 net.cpp:94] Creating Layer ip1
I0502 08:33:21.440479 21044 net.cpp:435] ip1 <- pool5
I0502 08:33:21.440485 21044 net.cpp:409] ip1 -> ip1
I0502 08:33:21.446321 21044 net.cpp:144] Setting up ip1
I0502 08:33:21.446357 21044 net.cpp:151] Top shape: 20 64 (1280)
I0502 08:33:21.446360 21044 net.cpp:159] Memory required for data: 26824080
I0502 08:33:21.446370 21044 layer_factory.hpp:77] Creating layer ip2
I0502 08:33:21.446382 21044 net.cpp:94] Creating Layer ip2
I0502 08:33:21.446396 21044 net.cpp:435] ip2 <- ip1
I0502 08:33:21.446404 21044 net.cpp:409] ip2 -> ip2
I0502 08:33:21.446620 21044 net.cpp:144] Setting up ip2
I0502 08:33:21.446629 21044 net.cpp:151] Top shape: 20 64 (1280)
I0502 08:33:21.446631 21044 net.cpp:159] Memory required for data: 26829200
I0502 08:33:21.446636 21044 layer_factory.hpp:77] Creating layer ip3
I0502 08:33:21.446642 21044 net.cpp:94] Creating Layer ip3
I0502 08:33:21.446646 21044 net.cpp:435] ip3 <- ip2
I0502 08:33:21.446650 21044 net.cpp:409] ip3 -> ip3
I0502 08:33:21.446746 21044 net.cpp:144] Setting up ip3
I0502 08:33:21.446753 21044 net.cpp:151] Top shape: 20 1 (20)
I0502 08:33:21.446756 21044 net.cpp:159] Memory required for data: 26829280
I0502 08:33:21.446761 21044 layer_factory.hpp:77] Creating layer loss
I0502 08:33:21.446777 21044 net.cpp:94] Creating Layer loss
I0502 08:33:21.446780 21044 net.cpp:435] loss <- ip3
I0502 08:33:21.446784 21044 net.cpp:435] loss <- label
I0502 08:33:21.446789 21044 net.cpp:409] loss -> loss
I0502 08:33:21.446838 21044 net.cpp:144] Setting up loss
…
I0502 08:33:21.852268 21044 net.cpp:323] The NetState phase (0) differed from the phase (1) specified by a rule in layer intercept
I0502 08:33:21.852285 21044 net.cpp:323] The NetState phase (0) differed from the phase (1) specified by a rule in layer accuracy
I0502 08:33:21.852370 21044 net.cpp:52] Initializing net from parameters: 
state {
  phase: TRAIN
}
layer {
  name: "parameters"
  type: "HDF5Data"
  top: "data"
  top: "label"
  include {
    phase: TRAIN
  }
  hdf5_data_param {
    source: "/home/purduethu/scratch/radon/d/deng106/CNNStatisticalModel/distributions/input/50_distributions_900_sample_size_train-distributions-path.txt"
    batch_size: 20
  }
}
layer {
  name: "conv1"
  type: "Convolution"
  bottom: "data"
  top: "conv1"
  param {
    lr_mult: 1
  }
  param {
    lr_mult: 2
  }
  convolution_param {
    num_output: 64
    pad: 2
    kernel_size: 5
    stride: 1
    weight_filler {
      type: "gaussian"
      std: 0.0001
    }
    bias_filler {
      type: "constant"
    }
  }
}
layer {
  name: "relu1"
  type: "ReLU"
  bottom: "conv1"
  top: "conv1"
}
layer {
  name: "conv2"
  type: "Convolution"
  bottom: "conv1"
  top: "conv2"
  param {
    lr_mult: 1
  }
  param {
    lr_mult: 2
  }
  convolution_param {
    num_output: 64
    pad: 2
    kernel_size: 5
    stride: 1
    weight_filler {
      type: "gaussian"
      std: 0.01
    }
    bias_filler {
      type: "constant"
    }
  }
}
layer {
  name: "relu2"
  type: "ReLU"
  bottom: "conv2"
  top: "conv2"
}
layer {
  name: "pool2"
  type: "Pooling"
  bottom: "conv2"
  top: "pool2"
  pooling_param {
    pool: MAX
    kernel_size: 3
    stride: 2
  }
}
layer {
  name: "conv3"
  type: "Convolution"
  bottom: "pool2"
  top: "conv3"
  param {
    lr_mult: 1
  }
  param {
    lr_mult: 2
  }
  convolution_param {
    num_output: 64
    pad: 2
    kernel_size: 5
    stride: 1
    weight_filler {
      type: "gaussian"
      std: 0.01
    }
    bias_filler {
      type: "constant"
    }
  }
}
layer {
  name: "relu3"
  type: "ReLU"
  bottom: "conv3"
  top: "conv3"
}
layer {
  name: "conv4"
  type: "Convolution"
  bottom: "conv3"
  top: "conv4"
  param {
    lr_mult: 1
  }
  param {
    lr_mult: 2
  }
  convolution_param {
    num_output: 64
    pad: 2
    kernel_size: 5
    stride: 1
    weight_filler {
      type: "gaussian"
      std: 0.01
    }
    bias_filler {
      type: "constant"
    }
  }
}
layer {
  name: "relu4"
  type: "ReLU"
  bottom: "conv4"
  top: "conv4"
}
layer {
  name: "conv5"
  type: "Convolution"
  bottom: "conv4"
  top: "conv5"
  param {
    lr_mult: 1
  }
  param {
    lr_mult: 2
  }
  convolution_param {
    num_output: 64
    pad: 2
    kernel_size: 5
    stride: 1
    weight_filler {
      type: "gaussian"
      std: 0.01
    }
    bias_filler {
      type: "constant"
    }
  }
}
layer {
  name: "relu5"
  type: "ReLU"
  bottom: "conv5"
  top: "conv5"
}
layer {
  name: "pool5"
  type: "Pooling"
  bottom: "conv5"
  top: "pool5"
  pooling_param {
    pool: AVE
    kernel_size: 3
    stride: 2
  }
}
layer {
  name: "ip1"
  type: "InnerProduct"
  bottom: "pool5"
  top: "ip1"
  param {
    lr_mult: 1
  }
  param {
    lr_mult: 2
  }
  inner_product_param {
    num_output: 64
    weight_filler {
      type: "gaussian"
      std: 0.1
    }
    bias_filler {
      type: "constant"
    }
  }
}
layer {
  name: "ip2"
  type: "InnerProduct"
  bottom: "ip1"
  top: "ip2"
  param {
    lr_mult: 1
  }
  param {
    lr_mult: 2
  }
  inner_product_param {
    num_output: 64
    weight_filler {
      type: "gaussian"
      std: 0.1
    }
    bias_filler {
      type: "constant"
    }
  }
}
layer {
  name: "ip3"
  type: "InnerProduct"
  bottom: "ip2"
  top: "ip3"
  param {
    lr_mult: 1
  }
  param {
    lr_mult: 2
  }
  inner_product_param {
    num_output: 50
    weight_filler {
      type: "gaussian"
      std: 0.1
    }
    bias_filler {
      type: "constant"
    }
  }
}
layer {
  name: "loss"
  type: "SoftmaxWithLoss"
  bottom: "ip3"
  bottom: "label"
  top: "loss"
}
I0502 08:33:21.852422 21044 layer_factory.hpp:77] Creating layer parameters
I0502 08:33:21.852430 21044 net.cpp:94] Creating Layer parameters
I0502 08:33:21.852434 21044 net.cpp:409] parameters -> data
I0502 08:33:21.852440 21044 net.cpp:409] parameters -> label
I0502 08:33:21.852447 21044 hdf5_data_layer.cpp:79] Loading list of HDF5 filenames from: /home/purduethu/scratch/radon/d/deng106/CNNStatisticalModel/distributions/input/50_distributions_900_sample_size_train-distributions-path.txt
I0502 08:33:21.852463 21044 hdf5_data_layer.cpp:93] Number of HDF5 files: 1
I0502 08:33:23.410315 21044 hdf5.cpp:35] Datatype class: H5T_INTEGER
I0502 08:33:23.413377 21044 net.cpp:144] Setting up parameters
I0502 08:33:23.413398 21044 net.cpp:151] Top shape: 20 1 30 30 (18000)
I0502 08:33:23.413403 21044 net.cpp:151] Top shape: 20 (20)
I0502 08:33:23.413406 21044 net.cpp:159] Memory required for data: 72080
I0502 08:33:23.413411 21044 layer_factory.hpp:77] Creating layer conv1
I0502 08:33:23.413427 21044 net.cpp:94] Creating Layer conv1
I0502 08:33:23.413431 21044 net.cpp:435] conv1 <- data
I0502 08:33:23.413437 21044 net.cpp:409] conv1 -> conv1
I0502 08:33:23.416991 21044 net.cpp:144] Setting up conv1
I0502 08:33:23.417007 21044 net.cpp:151] Top shape: 20 64 30 30 (1152000)
I0502 08:33:23.417011 21044 net.cpp:159] Memory required for data: 4680080
I0502 08:33:23.417021 21044 layer_factory.hpp:77] Creating layer relu1
I0502 08:33:23.417029 21044 net.cpp:94] Creating Layer relu1
I0502 08:33:23.417033 21044 net.cpp:435] relu1 <- conv1
I0502 08:33:23.417037 21044 net.cpp:396] relu1 -> conv1 (in-place)
I0502 08:33:23.417045 21044 net.cpp:144] Setting up relu1
I0502 08:33:23.417050 21044 net.cpp:151] Top shape: 20 64 30 30 (1152000)
I0502 08:33:23.417053 21044 net.cpp:159] Memory required for data: 9288080
I0502 08:33:23.417057 21044 layer_factory.hpp:77] Creating layer conv2
I0502 08:33:23.417063 21044 net.cpp:94] Creating Layer conv2
I0502 08:33:23.417068 21044 net.cpp:435] conv2 <- conv1
I0502 08:33:23.417071 21044 net.cpp:409] conv2 -> conv2
I0502 08:33:23.433699 21044 net.cpp:144] Setting up conv2
I0502 08:33:23.433738 21044 net.cpp:151] Top shape: 20 64 30 30 (1152000)
I0502 08:33:23.433749 21044 net.cpp:159] Memory required for data: 13896080
I0502 08:33:23.433773 21044 layer_factory.hpp:77] Creating layer relu2
I0502 08:33:23.433789 21044 net.cpp:94] Creating Layer relu2
I0502 08:33:23.433799 21044 net.cpp:435] relu2 <- conv2
I0502 08:33:23.433811 21044 net.cpp:396] relu2 -> conv2 (in-place)
I0502 08:33:23.433830 21044 net.cpp:144] Setting up relu2
I0502 08:33:23.433843 21044 net.cpp:151] Top shape: 20 64 30 30 (1152000)
I0502 08:33:23.433851 21044 net.cpp:159] Memory required for data: 18504080
I0502 08:33:23.433861 21044 layer_factory.hpp:77] Creating layer pool2
I0502 08:33:23.433874 21044 net.cpp:94] Creating Layer pool2
I0502 08:33:23.433882 21044 net.cpp:435] pool2 <- conv2
I0502 08:33:23.433894 21044 net.cpp:409] pool2 -> pool2
I0502 08:33:23.434028 21044 net.cpp:144] Setting up pool2
I0502 08:33:23.434047 21044 net.cpp:151] Top shape: 20 64 15 15 (288000)
I0502 08:33:23.434056 21044 net.cpp:159] Memory required for data: 19656080
I0502 08:33:23.434065 21044 layer_factory.hpp:77] Creating layer conv3
I0502 08:33:23.434085 21044 net.cpp:94] Creating Layer conv3
I0502 08:33:23.434095 21044 net.cpp:435] conv3 <- pool2
I0502 08:33:23.434121 21044 net.cpp:409] conv3 -> conv3
I0502 08:33:23.443399 21044 net.cpp:144] Setting up conv3
I0502 08:33:23.443414 21044 net.cpp:151] Top shape: 20 64 15 15 (288000)
I0502 08:33:23.443418 21044 net.cpp:159] Memory required for data: 20808080
I0502 08:33:23.443426 21044 layer_factory.hpp:77] Creating layer relu3
I0502 08:33:23.443433 21044 net.cpp:94] Creating Layer relu3
I0502 08:33:23.443436 21044 net.cpp:435] relu3 <- conv3
I0502 08:33:23.443440 21044 net.cpp:396] relu3 -> conv3 (in-place)
I0502 08:33:23.443447 21044 net.cpp:144] Setting up relu3
I0502 08:33:23.443452 21044 net.cpp:151] Top shape: 20 64 15 15 (288000)
I0502 08:33:23.443455 21044 net.cpp:159] Memory required for data: 21960080
I0502 08:33:23.443459 21044 layer_factory.hpp:77] Creating layer conv4
I0502 08:33:23.443466 21044 net.cpp:94] Creating Layer conv4
I0502 08:33:23.443470 21044 net.cpp:435] conv4 <- conv3
I0502 08:33:23.443475 21044 net.cpp:409] conv4 -> conv4
I0502 08:33:23.452946 21044 net.cpp:144] Setting up conv4
I0502 08:33:23.452962 21044 net.cpp:151] Top shape: 20 64 15 15 (288000)
I0502 08:33:23.452966 21044 net.cpp:159] Memory required for data: 23112080
I0502 08:33:23.452973 21044 layer_factory.hpp:77] Creating layer relu4
I0502 08:33:23.452980 21044 net.cpp:94] Creating Layer relu4
I0502 08:33:23.452983 21044 net.cpp:435] relu4 <- conv4
I0502 08:33:23.452988 21044 net.cpp:396] relu4 -> conv4 (in-place)
I0502 08:33:23.452996 21044 net.cpp:144] Setting up relu4
I0502 08:33:23.453001 21044 net.cpp:151] Top shape: 20 64 15 15 (288000)
I0502 08:33:23.453003 21044 net.cpp:159] Memory required for data: 24264080
I0502 08:33:23.453006 21044 layer_factory.hpp:77] Creating layer conv5
I0502 08:33:23.453013 21044 net.cpp:94] Creating Layer conv5
I0502 08:33:23.453016 21044 net.cpp:435] conv5 <- conv4
I0502 08:33:23.453022 21044 net.cpp:409] conv5 -> conv5
I0502 08:33:23.461413 21044 net.cpp:144] Setting up conv5
I0502 08:33:23.461428 21044 net.cpp:151] Top shape: 20 64 15 15 (288000)
I0502 08:33:23.461433 21044 net.cpp:159] Memory required for data: 25416080
I0502 08:33:23.461441 21044 layer_factory.hpp:77] Creating layer relu5
I0502 08:33:23.461447 21044 net.cpp:94] Creating Layer relu5
I0502 08:33:23.461452 21044 net.cpp:435] relu5 <- conv5
I0502 08:33:23.461455 21044 net.cpp:396] relu5 -> conv5 (in-place)
I0502 08:33:23.461462 21044 net.cpp:144] Setting up relu5
I0502 08:33:23.461467 21044 net.cpp:151] Top shape: 20 64 15 15 (288000)
I0502 08:33:23.461470 21044 net.cpp:159] Memory required for data: 26568080
I0502 08:33:23.461473 21044 layer_factory.hpp:77] Creating layer pool5
I0502 08:33:23.461478 21044 net.cpp:94] Creating Layer pool5
I0502 08:33:23.461482 21044 net.cpp:435] pool5 <- conv5
I0502 08:33:23.461485 21044 net.cpp:409] pool5 -> pool5
I0502 08:33:23.461522 21044 net.cpp:144] Setting up pool5
I0502 08:33:23.461530 21044 net.cpp:151] Top shape: 20 64 7 7 (62720)
I0502 08:33:23.461534 21044 net.cpp:159] Memory required for data: 26818960
I0502 08:33:23.461536 21044 layer_factory.hpp:77] Creating layer ip1
I0502 08:33:23.461544 21044 net.cpp:94] Creating Layer ip1
I0502 08:33:23.461547 21044 net.cpp:435] ip1 <- pool5
I0502 08:33:23.461551 21044 net.cpp:409] ip1 -> ip1
I0502 08:33:23.466377 21044 net.cpp:144] Setting up ip1
I0502 08:33:23.466387 21044 net.cpp:151] Top shape: 20 64 (1280)
I0502 08:33:23.466390 21044 net.cpp:159] Memory required for data: 26824080
I0502 08:33:23.466395 21044 layer_factory.hpp:77] Creating layer ip2
I0502 08:33:23.466401 21044 net.cpp:94] Creating Layer ip2
I0502 08:33:23.466405 21044 net.cpp:435] ip2 <- ip1
I0502 08:33:23.466409 21044 net.cpp:409] ip2 -> ip2
I0502 08:33:23.466621 21044 net.cpp:144] Setting up ip2
I0502 08:33:23.466629 21044 net.cpp:151] Top shape: 20 64 (1280)
I0502 08:33:23.466632 21044 net.cpp:159] Memory required for data: 26829200
I0502 08:33:23.466637 21044 layer_factory.hpp:77] Creating layer ip3
I0502 08:33:23.466644 21044 net.cpp:94] Creating Layer ip3
I0502 08:33:23.466646 21044 net.cpp:435] ip3 <- ip2
I0502 08:33:23.466651 21044 net.cpp:409] ip3 -> ip3
I0502 08:33:23.466841 21044 net.cpp:144] Setting up ip3
I0502 08:33:23.466850 21044 net.cpp:151] Top shape: 20 50 (1000)
I0502 08:33:23.466852 21044 net.cpp:159] Memory required for data: 26833200
I0502 08:33:23.466857 21044 layer_factory.hpp:77] Creating layer loss
I0502 08:33:23.466863 21044 net.cpp:94] Creating Layer loss
I0502 08:33:23.466866 21044 net.cpp:435] loss <- ip3
I0502 08:33:23.466871 21044 net.cpp:435] loss <- label
I0502 08:33:23.466874 21044 net.cpp:409] loss -> loss
I0502 08:33:23.466881 21044 layer_factory.hpp:77] Creating layer loss
…
I0502 08:33:23.467381 21044 solver.cpp:181] Creating test net (#0) specified by net file: ./protocol/dis_50_900_dimension.protocol_distribution
I0502 08:33:23.467406 21044 net.cpp:323] The NetState phase (1) differed from the phase (0) specified by a rule in layer parameters
I0502 08:33:23.467495 21044 net.cpp:52] Initializing net from parameters: 
state {
  phase: TEST
}
layer {
  name: "intercept"
  type: "HDF5Data"
  top: "data"
  top: "label"
  include {
    phase: TEST
  }
  hdf5_data_param {
    source: "/home/purduethu/scratch/radon/d/deng106/CNNStatisticalModel/distributions/input/50_distributions_900_sample_size_test-distributions-path.txt"
    batch_size: 20
  }
}
layer {
  name: "conv1"
  type: "Convolution"
  bottom: "data"
  top: "conv1"
  param {
    lr_mult: 1
  }
  param {
    lr_mult: 2
  }
  convolution_param {
    num_output: 64
    pad: 2
    kernel_size: 5
    stride: 1
    weight_filler {
      type: "gaussian"
      std: 0.0001
    }
    bias_filler {
      type: "constant"
    }
  }
}
layer {
  name: "relu1"
  type: "ReLU"
  bottom: "conv1"
  top: "conv1"
}
layer {
  name: "conv2"
  type: "Convolution"
  bottom: "conv1"
  top: "conv2"
  param {
    lr_mult: 1
  }
  param {
    lr_mult: 2
  }
  convolution_param {
    num_output: 64
    pad: 2
    kernel_size: 5
    stride: 1
    weight_filler {
      type: "gaussian"
      std: 0.01
    }
    bias_filler {
      type: "constant"
    }
  }
}
layer {
  name: "relu2"
  type: "ReLU"
  bottom: "conv2"
  top: "conv2"
}
layer {
  name: "pool2"
  type: "Pooling"
  bottom: "conv2"
  top: "pool2"
  pooling_param {
    pool: MAX
    kernel_size: 3
    stride: 2
  }
}
layer {
  name: "conv3"
  type: "Convolution"
  bottom: "pool2"
  top: "conv3"
  param {
    lr_mult: 1
  }
  param {
    lr_mult: 2
  }
  convolution_param {
    num_output: 64
    pad: 2
    kernel_size: 5
    stride: 1
    weight_filler {
      type: "gaussian"
      std: 0.01
    }
    bias_filler {
      type: "constant"
    }
  }
}
layer {
  name: "relu3"
  type: "ReLU"
  bottom: "conv3"
  top: "conv3"
}
layer {
  name: "conv4"
  type: "Convolution"
  bottom: "conv3"
  top: "conv4"
  param {
    lr_mult: 1
  }
  param {
    lr_mult: 2
  }
  convolution_param {
    num_output: 64
    pad: 2
    kernel_size: 5
    stride: 1
    weight_filler {
      type: "gaussian"
      std: 0.01
    }
    bias_filler {
      type: "constant"
    }
  }
}
layer {
  name: "relu4"
  type: "ReLU"
  bottom: "conv4"
  top: "conv4"
}
layer {
  name: "conv5"
  type: "Convolution"
  bottom: "conv4"
  top: "conv5"
  param {
    lr_mult: 1
  }
  param {
    lr_mult: 2
  }
  convolution_param {
    num_output: 64
    pad: 2
    kernel_size: 5
    stride: 1
    weight_filler {
      type: "gaussian"
      std: 0.01
    }
    bias_filler {
      type: "constant"
    }
  }
}
layer {
  name: "relu5"
  type: "ReLU"
  bottom: "conv5"
  top: "conv5"
}
layer {
  name: "pool5"
  type: "Pooling"
  bottom: "conv5"
  top: "pool5"
  pooling_param {
    pool: AVE
    kernel_size: 3
    stride: 2
  }
}
layer {
  name: "ip1"
  type: "InnerProduct"
  bottom: "pool5"
  top: "ip1"
  param {
    lr_mult: 1
  }
  param {
    lr_mult: 2
  }
  inner_product_param {
    num_output: 64
    weight_filler {
      type: "gaussian"
      std: 0.1
    }
    bias_filler {
      type: "constant"
    }
  }
}
layer {
  name: "ip2"
  type: "InnerProduct"
  bottom: "ip1"
  top: "ip2"
  param {
    lr_mult: 1
  }
  param {
    lr_mult: 2
  }
  inner_product_param {
    num_output: 64
    weight_filler {
      type: "gaussian"
      std: 0.1
    }
    bias_filler {
      type: "constant"
    }
  }
}
layer {
  name: "ip3"
  type: "InnerProduct"
  bottom: "ip2"
  top: "ip3"
  param {
    lr_mult: 1
  }
  param {
    lr_mult: 2
  }
  inner_product_param {
    num_output: 50
    weight_filler {
      type: "gaussian"
      std: 0.1
    }
    bias_filler {
      type: "constant"
    }
  }
}
layer {
  name: "accuracy"
  type: "Accuracy"
  bottom: "ip3"
  bottom: "label"
  top: "accuracy"
  include {
    phase: TEST
  }
}
layer {
  name: "loss"
  type: "SoftmaxWithLoss"
  bottom: "ip3"
  bottom: "label"
  top: "loss"
}
I0502 08:33:23.467558 21044 layer_factory.hpp:77] Creating layer intercept
I0502 08:33:23.467566 21044 net.cpp:94] Creating Layer intercept
I0502 08:33:23.467569 21044 net.cpp:409] intercept -> data
I0502 08:33:23.467576 21044 net.cpp:409] intercept -> label
I0502 08:33:23.467581 21044 hdf5_data_layer.cpp:79] Loading list of HDF5 filenames from: /home/purduethu/scratch/radon/d/deng106/CNNStatisticalModel/distributions/input/50_distributions_900_sample_size_test-distributions-path.txt
I0502 08:33:23.467602 21044 hdf5_data_layer.cpp:93] Number of HDF5 files: 1
I0502 08:33:23.825395 21044 net.cpp:144] Setting up intercept
I0502 08:33:23.825429 21044 net.cpp:151] Top shape: 20 1 30 30 (18000)
I0502 08:33:23.825434 21044 net.cpp:151] Top shape: 20 (20)
I0502 08:33:23.825438 21044 net.cpp:159] Memory required for data: 72080
I0502 08:33:23.825443 21044 layer_factory.hpp:77] Creating layer label_intercept_1_split
I0502 08:33:23.825461 21044 net.cpp:94] Creating Layer label_intercept_1_split
I0502 08:33:23.825465 21044 net.cpp:435] label_intercept_1_split <- label
I0502 08:33:23.825471 21044 net.cpp:409] label_intercept_1_split -> label_intercept_1_split_0
I0502 08:33:23.825479 21044 net.cpp:409] label_intercept_1_split -> label_intercept_1_split_1
I0502 08:33:23.825520 21044 net.cpp:144] Setting up label_intercept_1_split
I0502 08:33:23.825528 21044 net.cpp:151] Top shape: 20 (20)
I0502 08:33:23.825532 21044 net.cpp:151] Top shape: 20 (20)
I0502 08:33:23.825536 21044 net.cpp:159] Memory required for data: 72240
I0502 08:33:23.825538 21044 layer_factory.hpp:77] Creating layer conv1
I0502 08:33:23.825548 21044 net.cpp:94] Creating Layer conv1
I0502 08:33:23.825551 21044 net.cpp:435] conv1 <- data
I0502 08:33:23.825556 21044 net.cpp:409] conv1 -> conv1
I0502 08:33:23.827101 21044 net.cpp:144] Setting up conv1
I0502 08:33:23.827116 21044 net.cpp:151] Top shape: 20 64 30 30 (1152000)
I0502 08:33:23.827121 21044 net.cpp:159] Memory required for data: 4680240
I0502 08:33:23.827131 21044 layer_factory.hpp:77] Creating layer relu1
I0502 08:33:23.827137 21044 net.cpp:94] Creating Layer relu1
I0502 08:33:23.827141 21044 net.cpp:435] relu1 <- conv1
I0502 08:33:23.827144 21044 net.cpp:396] relu1 -> conv1 (in-place)
I0502 08:33:23.827152 21044 net.cpp:144] Setting up relu1
I0502 08:33:23.827157 21044 net.cpp:151] Top shape: 20 64 30 30 (1152000)
I0502 08:33:23.827159 21044 net.cpp:159] Memory required for data: 9288240
I0502 08:33:23.827162 21044 layer_factory.hpp:77] Creating layer conv2
I0502 08:33:23.827170 21044 net.cpp:94] Creating Layer conv2
I0502 08:33:23.827173 21044 net.cpp:435] conv2 <- conv1
I0502 08:33:23.827178 21044 net.cpp:409] conv2 -> conv2
I0502 08:33:23.834725 21044 net.cpp:144] Setting up conv2
I0502 08:33:23.834740 21044 net.cpp:151] Top shape: 20 64 30 30 (1152000)
I0502 08:33:23.834744 21044 net.cpp:159] Memory required for data: 13896240
I0502 08:33:23.834753 21044 layer_factory.hpp:77] Creating layer relu2
I0502 08:33:23.834759 21044 net.cpp:94] Creating Layer relu2
I0502 08:33:23.834763 21044 net.cpp:435] relu2 <- conv2
I0502 08:33:23.834769 21044 net.cpp:396] relu2 -> conv2 (in-place)
I0502 08:33:23.834775 21044 net.cpp:144] Setting up relu2
I0502 08:33:23.834779 21044 net.cpp:151] Top shape: 20 64 30 30 (1152000)
I0502 08:33:23.834782 21044 net.cpp:159] Memory required for data: 18504240
I0502 08:33:23.834785 21044 layer_factory.hpp:77] Creating layer pool2
I0502 08:33:23.834791 21044 net.cpp:94] Creating Layer pool2
I0502 08:33:23.834794 21044 net.cpp:435] pool2 <- conv2
I0502 08:33:23.834799 21044 net.cpp:409] pool2 -> pool2
I0502 08:33:23.834854 21044 net.cpp:144] Setting up pool2
I0502 08:33:23.834862 21044 net.cpp:151] Top shape: 20 64 15 15 (288000)
I0502 08:33:23.834866 21044 net.cpp:159] Memory required for data: 19656240
I0502 08:33:23.834868 21044 layer_factory.hpp:77] Creating layer conv3
I0502 08:33:23.834877 21044 net.cpp:94] Creating Layer conv3
I0502 08:33:23.834880 21044 net.cpp:435] conv3 <- pool2
I0502 08:33:23.834885 21044 net.cpp:409] conv3 -> conv3
I0502 08:33:23.839987 21044 net.cpp:144] Setting up conv3
I0502 08:33:23.840000 21044 net.cpp:151] Top shape: 20 64 15 15 (288000)
I0502 08:33:23.840004 21044 net.cpp:159] Memory required for data: 20808240
I0502 08:33:23.840013 21044 layer_factory.hpp:77] Creating layer relu3
I0502 08:33:23.840018 21044 net.cpp:94] Creating Layer relu3
I0502 08:33:23.840023 21044 net.cpp:435] relu3 <- conv3
I0502 08:33:23.840026 21044 net.cpp:396] relu3 -> conv3 (in-place)
I0502 08:33:23.840034 21044 net.cpp:144] Setting up relu3
I0502 08:33:23.840037 21044 net.cpp:151] Top shape: 20 64 15 15 (288000)
I0502 08:33:23.840040 21044 net.cpp:159] Memory required for data: 21960240
I0502 08:33:23.840044 21044 layer_factory.hpp:77] Creating layer conv4
I0502 08:33:23.840054 21044 net.cpp:94] Creating Layer conv4
I0502 08:33:23.840056 21044 net.cpp:435] conv4 <- conv3
I0502 08:33:23.840061 21044 net.cpp:409] conv4 -> conv4
I0502 08:33:23.844763 21044 net.cpp:144] Setting up conv4
I0502 08:33:23.844776 21044 net.cpp:151] Top shape: 20 64 15 15 (288000)
I0502 08:33:23.844779 21044 net.cpp:159] Memory required for data: 23112240
I0502 08:33:23.844787 21044 layer_factory.hpp:77] Creating layer relu4
I0502 08:33:23.844794 21044 net.cpp:94] Creating Layer relu4
I0502 08:33:23.844796 21044 net.cpp:435] relu4 <- conv4
I0502 08:33:23.844801 21044 net.cpp:396] relu4 -> conv4 (in-place)
I0502 08:33:23.844808 21044 net.cpp:144] Setting up relu4
I0502 08:33:23.844813 21044 net.cpp:151] Top shape: 20 64 15 15 (288000)
I0502 08:33:23.844815 21044 net.cpp:159] Memory required for data: 24264240
I0502 08:33:23.844818 21044 layer_factory.hpp:77] Creating layer conv5
I0502 08:33:23.844826 21044 net.cpp:94] Creating Layer conv5
I0502 08:33:23.844830 21044 net.cpp:435] conv5 <- conv4
I0502 08:33:23.844835 21044 net.cpp:409] conv5 -> conv5
I0502 08:33:23.849522 21044 net.cpp:144] Setting up conv5
I0502 08:33:23.849537 21044 net.cpp:151] Top shape: 20 64 15 15 (288000)
I0502 08:33:23.849540 21044 net.cpp:159] Memory required for data: 25416240
I0502 08:33:23.849550 21044 layer_factory.hpp:77] Creating layer relu5
I0502 08:33:23.849555 21044 net.cpp:94] Creating Layer relu5
I0502 08:33:23.849558 21044 net.cpp:435] relu5 <- conv5
I0502 08:33:23.849565 21044 net.cpp:396] relu5 -> conv5 (in-place)
I0502 08:33:23.849571 21044 net.cpp:144] Setting up relu5
I0502 08:33:23.849575 21044 net.cpp:151] Top shape: 20 64 15 15 (288000)
I0502 08:33:23.849578 21044 net.cpp:159] Memory required for data: 26568240
I0502 08:33:23.849581 21044 layer_factory.hpp:77] Creating layer pool5
I0502 08:33:23.849586 21044 net.cpp:94] Creating Layer pool5
I0502 08:33:23.849589 21044 net.cpp:435] pool5 <- conv5
I0502 08:33:23.849599 21044 net.cpp:409] pool5 -> pool5
I0502 08:33:23.849637 21044 net.cpp:144] Setting up pool5
I0502 08:33:23.849643 21044 net.cpp:151] Top shape: 20 64 7 7 (62720)
I0502 08:33:23.849647 21044 net.cpp:159] Memory required for data: 26819120
I0502 08:33:23.849649 21044 layer_factory.hpp:77] Creating layer ip1
I0502 08:33:23.849658 21044 net.cpp:94] Creating Layer ip1
I0502 08:33:23.849660 21044 net.cpp:435] ip1 <- pool5
I0502 08:33:23.849665 21044 net.cpp:409] ip1 -> ip1
I0502 08:33:23.855275 21044 net.cpp:144] Setting up ip1
I0502 08:33:23.855289 21044 net.cpp:151] Top shape: 20 64 (1280)
I0502 08:33:23.855293 21044 net.cpp:159] Memory required for data: 26824240
I0502 08:33:23.855298 21044 layer_factory.hpp:77] Creating layer ip2
I0502 08:33:23.855306 21044 net.cpp:94] Creating Layer ip2
I0502 08:33:23.855310 21044 net.cpp:435] ip2 <- ip1
I0502 08:33:23.855315 21044 net.cpp:409] ip2 -> ip2
I0502 08:33:23.855547 21044 net.cpp:144] Setting up ip2
I0502 08:33:23.855556 21044 net.cpp:151] Top shape: 20 64 (1280)
I0502 08:33:23.855557 21044 net.cpp:159] Memory required for data: 26829360
I0502 08:33:23.855562 21044 layer_factory.hpp:77] Creating layer ip3
I0502 08:33:23.855569 21044 net.cpp:94] Creating Layer ip3
I0502 08:33:23.855572 21044 net.cpp:435] ip3 <- ip2
I0502 08:33:23.855578 21044 net.cpp:409] ip3 -> ip3
I0502 08:33:23.855772 21044 net.cpp:144] Setting up ip3
I0502 08:33:23.855779 21044 net.cpp:151] Top shape: 20 50 (1000)
I0502 08:33:23.855782 21044 net.cpp:159] Memory required for data: 26833360
I0502 08:33:23.855787 21044 layer_factory.hpp:77] Creating layer ip3_ip3_0_split
I0502 08:33:23.855792 21044 net.cpp:94] Creating Layer ip3_ip3_0_split
I0502 08:33:23.855795 21044 net.cpp:435] ip3_ip3_0_split <- ip3
I0502 08:33:23.855800 21044 net.cpp:409] ip3_ip3_0_split -> ip3_ip3_0_split_0
I0502 08:33:23.855805 21044 net.cpp:409] ip3_ip3_0_split -> ip3_ip3_0_split_1
I0502 08:33:23.855845 21044 net.cpp:144] Setting up ip3_ip3_0_split
I0502 08:33:23.855851 21044 net.cpp:151] Top shape: 20 50 (1000)
I0502 08:33:23.855854 21044 net.cpp:151] Top shape: 20 50 (1000)
I0502 08:33:23.855857 21044 net.cpp:159] Memory required for data: 26841360
I0502 08:33:23.855860 21044 layer_factory.hpp:77] Creating layer accuracy
I0502 08:33:23.855867 21044 net.cpp:94] Creating Layer accuracy
I0502 08:33:23.855870 21044 net.cpp:435] accuracy <- ip3_ip3_0_split_0
I0502 08:33:23.855875 21044 net.cpp:435] accuracy <- label_intercept_1_split_0
I0502 08:33:23.855878 21044 net.cpp:409] accuracy -> accuracy
…
