…
I0502 01:56:54.665877 17087 net.cpp:323] The NetState phase (0) differed from the phase (1) specified by a rule in layer intercept
I0502 01:56:54.665894 17087 net.cpp:323] The NetState phase (0) differed from the phase (1) specified by a rule in layer loss
I0502 01:56:54.665973 17087 net.cpp:52] Initializing net from parameters: 
state {
  phase: TRAIN
}
layer {
  name: "parameters"
  type: "HDF5Data"
  top: "data"
  top: "label"
  include {
    phase: TRAIN
  }
  hdf5_data_param {
    source: "/home/purduethu/scratch/radon/d/deng106/CNNStatisticalModel/distributions/input/5_distributions_900_sample_size_train-parameters-path.txt"
    batch_size: 20
  }
}
layer {
  name: "conv1"
  type: "Convolution"
  bottom: "data"
  top: "conv1"
  param {
    lr_mult: 1
  }
  param {
    lr_mult: 2
  }
  convolution_param {
    num_output: 64
    pad: 2
    kernel_size: 5
    stride: 1
    weight_filler {
      type: "gaussian"
      std: 0.0001
    }
    bias_filler {
      type: "constant"
    }
  }
}
layer {
  name: "relu1"
  type: "ReLU"
  bottom: "conv1"
  top: "conv1"
}
layer {
  name: "conv2"
  type: "Convolution"
  bottom: "conv1"
  top: "conv2"
  param {
    lr_mult: 1
  }
  param {
    lr_mult: 2
  }
  convolution_param {
    num_output: 64
    pad: 2
    kernel_size: 5
    stride: 1
    weight_filler {
      type: "gaussian"
      std: 0.01
    }
    bias_filler {
      type: "constant"
    }
  }
}
layer {
  name: "relu2"
  type: "ReLU"
  bottom: "conv2"
  top: "conv2"
}
layer {
  name: "pool2"
  type: "Pooling"
  bottom: "conv2"
  top: "pool2"
  pooling_param {
    pool: MAX
    kernel_size: 3
    stride: 2
  }
}
layer {
  name: "conv3"
  type: "Convolution"
  bottom: "pool2"
  top: "conv3"
  param {
    lr_mult: 1
  }
  param {
    lr_mult: 2
  }
  convolution_param {
    num_output: 64
    pad: 2
    kernel_size: 5
    stride: 1
    weight_filler {
      type: "gaussian"
      std: 0.01
    }
    bias_filler {
      type: "constant"
    }
  }
}
layer {
  name: "relu3"
  type: "ReLU"
  bottom: "conv3"
  top: "conv3"
}
layer {
  name: "conv4"
  type: "Convolution"
  bottom: "conv3"
  top: "conv4"
  param {
    lr_mult: 1
  }
  param {
    lr_mult: 2
  }
  convolution_param {
    num_output: 64
    pad: 2
    kernel_size: 5
    stride: 1
    weight_filler {
      type: "gaussian"
      std: 0.01
    }
    bias_filler {
      type: "constant"
    }
  }
}
layer {
  name: "relu4"
  type: "ReLU"
  bottom: "conv4"
  top: "conv4"
}
layer {
  name: "conv5"
  type: "Convolution"
  bottom: "conv4"
  top: "conv5"
  param {
    lr_mult: 1
  }
  param {
    lr_mult: 2
  }
  convolution_param {
    num_output: 64
    pad: 2
    kernel_size: 5
    stride: 1
    weight_filler {
      type: "gaussian"
      std: 0.01
    }
    bias_filler {
      type: "constant"
    }
  }
}
layer {
  name: "relu5"
  type: "ReLU"
  bottom: "conv5"
  top: "conv5"
}
layer {
  name: "pool5"
  type: "Pooling"
  bottom: "conv5"
  top: "pool5"
  pooling_param {
    pool: AVE
    kernel_size: 3
    stride: 2
  }
}
layer {
  name: "ip1"
  type: "InnerProduct"
  bottom: "pool5"
  top: "ip1"
  param {
    lr_mult: 1
  }
  param {
    lr_mult: 2
  }
  inner_product_param {
    num_output: 64
    weight_filler {
      type: "gaussian"
      std: 0.1
    }
    bias_filler {
      type: "constant"
    }
  }
}
layer {
  name: "ip2"
  type: "InnerProduct"
  bottom: "ip1"
  top: "ip2"
  param {
    lr_mult: 1
  }
  param {
    lr_mult: 2
  }
  inner_product_param {
    num_output: 64
    weight_filler {
      type: "gaussian"
      std: 0.1
    }
    bias_filler {
      type: "constant"
    }
  }
}
layer {
  name: "ip3"
  type: "InnerProduct"
  bottom: "ip2"
  top: "ip3"
  param {
    lr_mult: 1
  }
  param {
    lr_mult: 2
  }
  inner_product_param {
    num_output: 1
    weight_filler {
      type: "gaussian"
      std: 0.1
    }
    bias_filler {
      type: "constant"
    }
  }
}
layer {
  name: "loss"
  type: "HuberLoss"
  bottom: "ip3"
  bottom: "label"
  top: "loss"
  include {
    phase: TRAIN
  }
}
I0502 01:56:54.666026 17087 layer_factory.hpp:77] Creating layer parameters
I0502 01:56:54.666043 17087 net.cpp:94] Creating Layer parameters
I0502 01:56:54.666049 17087 net.cpp:409] parameters -> data
I0502 01:56:54.666062 17087 net.cpp:409] parameters -> label
I0502 01:56:54.666071 17087 hdf5_data_layer.cpp:79] Loading list of HDF5 filenames from: /home/purduethu/scratch/radon/d/deng106/CNNStatisticalModel/distributions/input/5_distributions_900_sample_size_train-parameters-path.txt
I0502 01:56:54.666090 17087 hdf5_data_layer.cpp:93] Number of HDF5 files: 1
I0502 01:56:54.666817 17087 hdf5.cpp:32] Datatype class: H5T_FLOAT
I0502 01:56:54.805219 17087 net.cpp:144] Setting up parameters
I0502 01:56:54.805248 17087 net.cpp:151] Top shape: 20 1 30 30 (18000)
I0502 01:56:54.805253 17087 net.cpp:151] Top shape: 20 (20)
I0502 01:56:54.805258 17087 net.cpp:159] Memory required for data: 72080
I0502 01:56:54.805263 17087 layer_factory.hpp:77] Creating layer conv1
I0502 01:56:54.805279 17087 net.cpp:94] Creating Layer conv1
I0502 01:56:54.805284 17087 net.cpp:435] conv1 <- data
I0502 01:56:54.805289 17087 net.cpp:409] conv1 -> conv1
I0502 01:56:54.812088 17087 net.cpp:144] Setting up conv1
I0502 01:56:54.812105 17087 net.cpp:151] Top shape: 20 64 30 30 (1152000)
I0502 01:56:54.812109 17087 net.cpp:159] Memory required for data: 4680080
I0502 01:56:54.812119 17087 layer_factory.hpp:77] Creating layer relu1
I0502 01:56:54.812127 17087 net.cpp:94] Creating Layer relu1
I0502 01:56:54.812131 17087 net.cpp:435] relu1 <- conv1
I0502 01:56:54.812135 17087 net.cpp:396] relu1 -> conv1 (in-place)
I0502 01:56:54.812144 17087 net.cpp:144] Setting up relu1
I0502 01:56:54.812147 17087 net.cpp:151] Top shape: 20 64 30 30 (1152000)
I0502 01:56:54.812150 17087 net.cpp:159] Memory required for data: 9288080
I0502 01:56:54.812153 17087 layer_factory.hpp:77] Creating layer conv2
I0502 01:56:54.812160 17087 net.cpp:94] Creating Layer conv2
I0502 01:56:54.812165 17087 net.cpp:435] conv2 <- conv1
I0502 01:56:54.812168 17087 net.cpp:409] conv2 -> conv2
I0502 01:56:54.827538 17087 net.cpp:144] Setting up conv2
I0502 01:56:54.827554 17087 net.cpp:151] Top shape: 20 64 30 30 (1152000)
I0502 01:56:54.827558 17087 net.cpp:159] Memory required for data: 13896080
I0502 01:56:54.827566 17087 layer_factory.hpp:77] Creating layer relu2
I0502 01:56:54.827572 17087 net.cpp:94] Creating Layer relu2
I0502 01:56:54.827576 17087 net.cpp:435] relu2 <- conv2
I0502 01:56:54.827581 17087 net.cpp:396] relu2 -> conv2 (in-place)
I0502 01:56:54.827589 17087 net.cpp:144] Setting up relu2
I0502 01:56:54.827592 17087 net.cpp:151] Top shape: 20 64 30 30 (1152000)
I0502 01:56:54.827595 17087 net.cpp:159] Memory required for data: 18504080
I0502 01:56:54.827599 17087 layer_factory.hpp:77] Creating layer pool2
I0502 01:56:54.827610 17087 net.cpp:94] Creating Layer pool2
I0502 01:56:54.827613 17087 net.cpp:435] pool2 <- conv2
I0502 01:56:54.827617 17087 net.cpp:409] pool2 -> pool2
I0502 01:56:54.827672 17087 net.cpp:144] Setting up pool2
I0502 01:56:54.827678 17087 net.cpp:151] Top shape: 20 64 15 15 (288000)
I0502 01:56:54.827682 17087 net.cpp:159] Memory required for data: 19656080
I0502 01:56:54.827685 17087 layer_factory.hpp:77] Creating layer conv3
I0502 01:56:54.827693 17087 net.cpp:94] Creating Layer conv3
I0502 01:56:54.827697 17087 net.cpp:435] conv3 <- pool2
I0502 01:56:54.827702 17087 net.cpp:409] conv3 -> conv3
I0502 01:56:54.835934 17087 net.cpp:144] Setting up conv3
I0502 01:56:54.835949 17087 net.cpp:151] Top shape: 20 64 15 15 (288000)
I0502 01:56:54.835954 17087 net.cpp:159] Memory required for data: 20808080
I0502 01:56:54.835963 17087 layer_factory.hpp:77] Creating layer relu3
I0502 01:56:54.835968 17087 net.cpp:94] Creating Layer relu3
I0502 01:56:54.835971 17087 net.cpp:435] relu3 <- conv3
I0502 01:56:54.835976 17087 net.cpp:396] relu3 -> conv3 (in-place)
I0502 01:56:54.835983 17087 net.cpp:144] Setting up relu3
I0502 01:56:54.835988 17087 net.cpp:151] Top shape: 20 64 15 15 (288000)
I0502 01:56:54.835990 17087 net.cpp:159] Memory required for data: 21960080
I0502 01:56:54.835994 17087 layer_factory.hpp:77] Creating layer conv4
I0502 01:56:54.836002 17087 net.cpp:94] Creating Layer conv4
I0502 01:56:54.836006 17087 net.cpp:435] conv4 <- conv3
I0502 01:56:54.836011 17087 net.cpp:409] conv4 -> conv4
I0502 01:56:54.843719 17087 net.cpp:144] Setting up conv4
I0502 01:56:54.843734 17087 net.cpp:151] Top shape: 20 64 15 15 (288000)
I0502 01:56:54.843739 17087 net.cpp:159] Memory required for data: 23112080
I0502 01:56:54.843745 17087 layer_factory.hpp:77] Creating layer relu4
I0502 01:56:54.843750 17087 net.cpp:94] Creating Layer relu4
I0502 01:56:54.843755 17087 net.cpp:435] relu4 <- conv4
I0502 01:56:54.843758 17087 net.cpp:396] relu4 -> conv4 (in-place)
I0502 01:56:54.843765 17087 net.cpp:144] Setting up relu4
I0502 01:56:54.843770 17087 net.cpp:151] Top shape: 20 64 15 15 (288000)
I0502 01:56:54.843772 17087 net.cpp:159] Memory required for data: 24264080
I0502 01:56:54.843775 17087 layer_factory.hpp:77] Creating layer conv5
I0502 01:56:54.843783 17087 net.cpp:94] Creating Layer conv5
I0502 01:56:54.843786 17087 net.cpp:435] conv5 <- conv4
I0502 01:56:54.843791 17087 net.cpp:409] conv5 -> conv5
I0502 01:56:54.851810 17087 net.cpp:144] Setting up conv5
I0502 01:56:54.851826 17087 net.cpp:151] Top shape: 20 64 15 15 (288000)
I0502 01:56:54.851830 17087 net.cpp:159] Memory required for data: 25416080
I0502 01:56:54.851840 17087 layer_factory.hpp:77] Creating layer relu5
I0502 01:56:54.851845 17087 net.cpp:94] Creating Layer relu5
I0502 01:56:54.851848 17087 net.cpp:435] relu5 <- conv5
I0502 01:56:54.851853 17087 net.cpp:396] relu5 -> conv5 (in-place)
I0502 01:56:54.851861 17087 net.cpp:144] Setting up relu5
I0502 01:56:54.851864 17087 net.cpp:151] Top shape: 20 64 15 15 (288000)
I0502 01:56:54.851867 17087 net.cpp:159] Memory required for data: 26568080
I0502 01:56:54.851871 17087 layer_factory.hpp:77] Creating layer pool5
I0502 01:56:54.851876 17087 net.cpp:94] Creating Layer pool5
I0502 01:56:54.851878 17087 net.cpp:435] pool5 <- conv5
I0502 01:56:54.851882 17087 net.cpp:409] pool5 -> pool5
I0502 01:56:54.851922 17087 net.cpp:144] Setting up pool5
I0502 01:56:54.851928 17087 net.cpp:151] Top shape: 20 64 7 7 (62720)
I0502 01:56:54.851932 17087 net.cpp:159] Memory required for data: 26818960
I0502 01:56:54.851935 17087 layer_factory.hpp:77] Creating layer ip1
I0502 01:56:54.851945 17087 net.cpp:94] Creating Layer ip1
I0502 01:56:54.851948 17087 net.cpp:435] ip1 <- pool5
I0502 01:56:54.851953 17087 net.cpp:409] ip1 -> ip1
I0502 01:56:54.857795 17087 net.cpp:144] Setting up ip1
I0502 01:56:54.857810 17087 net.cpp:151] Top shape: 20 64 (1280)
I0502 01:56:54.857813 17087 net.cpp:159] Memory required for data: 26824080
I0502 01:56:54.857820 17087 layer_factory.hpp:77] Creating layer ip2
I0502 01:56:54.857826 17087 net.cpp:94] Creating Layer ip2
I0502 01:56:54.857834 17087 net.cpp:435] ip2 <- ip1
I0502 01:56:54.857841 17087 net.cpp:409] ip2 -> ip2
I0502 01:56:54.858057 17087 net.cpp:144] Setting up ip2
I0502 01:56:54.858064 17087 net.cpp:151] Top shape: 20 64 (1280)
I0502 01:56:54.858067 17087 net.cpp:159] Memory required for data: 26829200
I0502 01:56:54.858073 17087 layer_factory.hpp:77] Creating layer ip3
I0502 01:56:54.858079 17087 net.cpp:94] Creating Layer ip3
I0502 01:56:54.858083 17087 net.cpp:435] ip3 <- ip2
I0502 01:56:54.858088 17087 net.cpp:409] ip3 -> ip3
I0502 01:56:54.858191 17087 net.cpp:144] Setting up ip3
I0502 01:56:54.858196 17087 net.cpp:151] Top shape: 20 1 (20)
I0502 01:56:54.858199 17087 net.cpp:159] Memory required for data: 26829280
I0502 01:56:54.858204 17087 layer_factory.hpp:77] Creating layer loss
I0502 01:56:54.858216 17087 net.cpp:94] Creating Layer loss
I0502 01:56:54.858219 17087 net.cpp:435] loss <- ip3
I0502 01:56:54.858223 17087 net.cpp:435] loss <- label
I0502 01:56:54.858228 17087 net.cpp:409] loss -> loss
I0502 01:56:54.858278 17087 net.cpp:144] Setting up loss
…
I0502 01:56:54.926146 17087 net.cpp:323] The NetState phase (0) differed from the phase (1) specified by a rule in layer intercept
I0502 01:56:54.926159 17087 net.cpp:323] The NetState phase (0) differed from the phase (1) specified by a rule in layer accuracy
I0502 01:56:54.926240 17087 net.cpp:52] Initializing net from parameters: 
state {
  phase: TRAIN
}
layer {
  name: "parameters"
  type: "HDF5Data"
  top: "data"
  top: "label"
  include {
    phase: TRAIN
  }
  hdf5_data_param {
    source: "/home/purduethu/scratch/radon/d/deng106/CNNStatisticalModel/distributions/input/5_distributions_900_sample_size_train-distributions-path.txt"
    batch_size: 20
  }
}
layer {
  name: "conv1"
  type: "Convolution"
  bottom: "data"
  top: "conv1"
  param {
    lr_mult: 1
  }
  param {
    lr_mult: 2
  }
  convolution_param {
    num_output: 64
    pad: 2
    kernel_size: 5
    stride: 1
    weight_filler {
      type: "gaussian"
      std: 0.0001
    }
    bias_filler {
      type: "constant"
    }
  }
}
layer {
  name: "relu1"
  type: "ReLU"
  bottom: "conv1"
  top: "conv1"
}
layer {
  name: "conv2"
  type: "Convolution"
  bottom: "conv1"
  top: "conv2"
  param {
    lr_mult: 1
  }
  param {
    lr_mult: 2
  }
  convolution_param {
    num_output: 64
    pad: 2
    kernel_size: 5
    stride: 1
    weight_filler {
      type: "gaussian"
      std: 0.01
    }
    bias_filler {
      type: "constant"
    }
  }
}
layer {
  name: "relu2"
  type: "ReLU"
  bottom: "conv2"
  top: "conv2"
}
layer {
  name: "pool2"
  type: "Pooling"
  bottom: "conv2"
  top: "pool2"
  pooling_param {
    pool: MAX
    kernel_size: 3
    stride: 2
  }
}
layer {
  name: "conv3"
  type: "Convolution"
  bottom: "pool2"
  top: "conv3"
  param {
    lr_mult: 1
  }
  param {
    lr_mult: 2
  }
  convolution_param {
    num_output: 64
    pad: 2
    kernel_size: 5
    stride: 1
    weight_filler {
      type: "gaussian"
      std: 0.01
    }
    bias_filler {
      type: "constant"
    }
  }
}
layer {
  name: "relu3"
  type: "ReLU"
  bottom: "conv3"
  top: "conv3"
}
layer {
  name: "conv4"
  type: "Convolution"
  bottom: "conv3"
  top: "conv4"
  param {
    lr_mult: 1
  }
  param {
    lr_mult: 2
  }
  convolution_param {
    num_output: 64
    pad: 2
    kernel_size: 5
    stride: 1
    weight_filler {
      type: "gaussian"
      std: 0.01
    }
    bias_filler {
      type: "constant"
    }
  }
}
layer {
  name: "relu4"
  type: "ReLU"
  bottom: "conv4"
  top: "conv4"
}
layer {
  name: "conv5"
  type: "Convolution"
  bottom: "conv4"
  top: "conv5"
  param {
    lr_mult: 1
  }
  param {
    lr_mult: 2
  }
  convolution_param {
    num_output: 64
    pad: 2
    kernel_size: 5
    stride: 1
    weight_filler {
      type: "gaussian"
      std: 0.01
    }
    bias_filler {
      type: "constant"
    }
  }
}
layer {
  name: "relu5"
  type: "ReLU"
  bottom: "conv5"
  top: "conv5"
}
layer {
  name: "pool5"
  type: "Pooling"
  bottom: "conv5"
  top: "pool5"
  pooling_param {
    pool: AVE
    kernel_size: 3
    stride: 2
  }
}
layer {
  name: "ip1"
  type: "InnerProduct"
  bottom: "pool5"
  top: "ip1"
  param {
    lr_mult: 1
  }
  param {
    lr_mult: 2
  }
  inner_product_param {
    num_output: 64
    weight_filler {
      type: "gaussian"
      std: 0.1
    }
    bias_filler {
      type: "constant"
    }
  }
}
layer {
  name: "ip2"
  type: "InnerProduct"
  bottom: "ip1"
  top: "ip2"
  param {
    lr_mult: 1
  }
  param {
    lr_mult: 2
  }
  inner_product_param {
    num_output: 64
    weight_filler {
      type: "gaussian"
      std: 0.1
    }
    bias_filler {
      type: "constant"
    }
  }
}
layer {
  name: "ip3"
  type: "InnerProduct"
  bottom: "ip2"
  top: "ip3"
  param {
    lr_mult: 1
  }
  param {
    lr_mult: 2
  }
  inner_product_param {
    num_output: 50
    weight_filler {
      type: "gaussian"
      std: 0.1
    }
    bias_filler {
      type: "constant"
    }
  }
}
layer {
  name: "loss"
  type: "SoftmaxWithLoss"
  bottom: "ip3"
  bottom: "label"
  top: "loss"
}
I0502 01:56:54.926288 17087 layer_factory.hpp:77] Creating layer parameters
I0502 01:56:54.926295 17087 net.cpp:94] Creating Layer parameters
I0502 01:56:54.926300 17087 net.cpp:409] parameters -> data
I0502 01:56:54.926306 17087 net.cpp:409] parameters -> label
I0502 01:56:54.926311 17087 hdf5_data_layer.cpp:79] Loading list of HDF5 filenames from: /home/purduethu/scratch/radon/d/deng106/CNNStatisticalModel/distributions/input/5_distributions_900_sample_size_train-distributions-path.txt
I0502 01:56:54.926326 17087 hdf5_data_layer.cpp:93] Number of HDF5 files: 1
I0502 01:56:55.063038 17087 hdf5.cpp:35] Datatype class: H5T_INTEGER
I0502 01:56:55.063462 17087 net.cpp:144] Setting up parameters
I0502 01:56:55.063477 17087 net.cpp:151] Top shape: 20 1 30 30 (18000)
I0502 01:56:55.063482 17087 net.cpp:151] Top shape: 20 (20)
I0502 01:56:55.063484 17087 net.cpp:159] Memory required for data: 72080
I0502 01:56:55.063491 17087 layer_factory.hpp:77] Creating layer conv1
I0502 01:56:55.063508 17087 net.cpp:94] Creating Layer conv1
I0502 01:56:55.063511 17087 net.cpp:435] conv1 <- data
I0502 01:56:55.063519 17087 net.cpp:409] conv1 -> conv1
I0502 01:56:55.066965 17087 net.cpp:144] Setting up conv1
I0502 01:56:55.066982 17087 net.cpp:151] Top shape: 20 64 30 30 (1152000)
I0502 01:56:55.066987 17087 net.cpp:159] Memory required for data: 4680080
I0502 01:56:55.066998 17087 layer_factory.hpp:77] Creating layer relu1
I0502 01:56:55.067004 17087 net.cpp:94] Creating Layer relu1
I0502 01:56:55.067008 17087 net.cpp:435] relu1 <- conv1
I0502 01:56:55.067013 17087 net.cpp:396] relu1 -> conv1 (in-place)
I0502 01:56:55.067020 17087 net.cpp:144] Setting up relu1
I0502 01:56:55.067024 17087 net.cpp:151] Top shape: 20 64 30 30 (1152000)
I0502 01:56:55.067028 17087 net.cpp:159] Memory required for data: 9288080
I0502 01:56:55.067030 17087 layer_factory.hpp:77] Creating layer conv2
I0502 01:56:55.067039 17087 net.cpp:94] Creating Layer conv2
I0502 01:56:55.067041 17087 net.cpp:435] conv2 <- conv1
I0502 01:56:55.067046 17087 net.cpp:409] conv2 -> conv2
I0502 01:56:55.081964 17087 net.cpp:144] Setting up conv2
I0502 01:56:55.082003 17087 net.cpp:151] Top shape: 20 64 30 30 (1152000)
I0502 01:56:55.082015 17087 net.cpp:159] Memory required for data: 13896080
I0502 01:56:55.082036 17087 layer_factory.hpp:77] Creating layer relu2
I0502 01:56:55.082053 17087 net.cpp:94] Creating Layer relu2
I0502 01:56:55.082063 17087 net.cpp:435] relu2 <- conv2
I0502 01:56:55.082077 17087 net.cpp:396] relu2 -> conv2 (in-place)
I0502 01:56:55.082095 17087 net.cpp:144] Setting up relu2
I0502 01:56:55.082108 17087 net.cpp:151] Top shape: 20 64 30 30 (1152000)
I0502 01:56:55.082116 17087 net.cpp:159] Memory required for data: 18504080
I0502 01:56:55.082124 17087 layer_factory.hpp:77] Creating layer pool2
I0502 01:56:55.082139 17087 net.cpp:94] Creating Layer pool2
I0502 01:56:55.082146 17087 net.cpp:435] pool2 <- conv2
I0502 01:56:55.082159 17087 net.cpp:409] pool2 -> pool2
I0502 01:56:55.082240 17087 net.cpp:144] Setting up pool2
I0502 01:56:55.082247 17087 net.cpp:151] Top shape: 20 64 15 15 (288000)
I0502 01:56:55.082250 17087 net.cpp:159] Memory required for data: 19656080
I0502 01:56:55.082253 17087 layer_factory.hpp:77] Creating layer conv3
I0502 01:56:55.082260 17087 net.cpp:94] Creating Layer conv3
I0502 01:56:55.082264 17087 net.cpp:435] conv3 <- pool2
I0502 01:56:55.082275 17087 net.cpp:409] conv3 -> conv3
I0502 01:56:55.090706 17087 net.cpp:144] Setting up conv3
I0502 01:56:55.090721 17087 net.cpp:151] Top shape: 20 64 15 15 (288000)
I0502 01:56:55.090726 17087 net.cpp:159] Memory required for data: 20808080
I0502 01:56:55.090734 17087 layer_factory.hpp:77] Creating layer relu3
I0502 01:56:55.090739 17087 net.cpp:94] Creating Layer relu3
I0502 01:56:55.090744 17087 net.cpp:435] relu3 <- conv3
I0502 01:56:55.090747 17087 net.cpp:396] relu3 -> conv3 (in-place)
I0502 01:56:55.090754 17087 net.cpp:144] Setting up relu3
I0502 01:56:55.090759 17087 net.cpp:151] Top shape: 20 64 15 15 (288000)
I0502 01:56:55.090761 17087 net.cpp:159] Memory required for data: 21960080
I0502 01:56:55.090764 17087 layer_factory.hpp:77] Creating layer conv4
I0502 01:56:55.090772 17087 net.cpp:94] Creating Layer conv4
I0502 01:56:55.090775 17087 net.cpp:435] conv4 <- conv3
I0502 01:56:55.090780 17087 net.cpp:409] conv4 -> conv4
I0502 01:56:55.098274 17087 net.cpp:144] Setting up conv4
I0502 01:56:55.098289 17087 net.cpp:151] Top shape: 20 64 15 15 (288000)
I0502 01:56:55.098292 17087 net.cpp:159] Memory required for data: 23112080
I0502 01:56:55.098299 17087 layer_factory.hpp:77] Creating layer relu4
I0502 01:56:55.098304 17087 net.cpp:94] Creating Layer relu4
I0502 01:56:55.098309 17087 net.cpp:435] relu4 <- conv4
I0502 01:56:55.098312 17087 net.cpp:396] relu4 -> conv4 (in-place)
I0502 01:56:55.098320 17087 net.cpp:144] Setting up relu4
I0502 01:56:55.098323 17087 net.cpp:151] Top shape: 20 64 15 15 (288000)
I0502 01:56:55.098326 17087 net.cpp:159] Memory required for data: 24264080
I0502 01:56:55.098330 17087 layer_factory.hpp:77] Creating layer conv5
I0502 01:56:55.098337 17087 net.cpp:94] Creating Layer conv5
I0502 01:56:55.098340 17087 net.cpp:435] conv5 <- conv4
I0502 01:56:55.098345 17087 net.cpp:409] conv5 -> conv5
I0502 01:56:55.106725 17087 net.cpp:144] Setting up conv5
I0502 01:56:55.106745 17087 net.cpp:151] Top shape: 20 64 15 15 (288000)
I0502 01:56:55.106752 17087 net.cpp:159] Memory required for data: 25416080
I0502 01:56:55.106765 17087 layer_factory.hpp:77] Creating layer relu5
I0502 01:56:55.106773 17087 net.cpp:94] Creating Layer relu5
I0502 01:56:55.106779 17087 net.cpp:435] relu5 <- conv5
I0502 01:56:55.106786 17087 net.cpp:396] relu5 -> conv5 (in-place)
I0502 01:56:55.106796 17087 net.cpp:144] Setting up relu5
I0502 01:56:55.106804 17087 net.cpp:151] Top shape: 20 64 15 15 (288000)
I0502 01:56:55.106808 17087 net.cpp:159] Memory required for data: 26568080
I0502 01:56:55.106813 17087 layer_factory.hpp:77] Creating layer pool5
I0502 01:56:55.106822 17087 net.cpp:94] Creating Layer pool5
I0502 01:56:55.106827 17087 net.cpp:435] pool5 <- conv5
I0502 01:56:55.106834 17087 net.cpp:409] pool5 -> pool5
I0502 01:56:55.106884 17087 net.cpp:144] Setting up pool5
I0502 01:56:55.106895 17087 net.cpp:151] Top shape: 20 64 7 7 (62720)
I0502 01:56:55.106900 17087 net.cpp:159] Memory required for data: 26818960
I0502 01:56:55.106905 17087 layer_factory.hpp:77] Creating layer ip1
I0502 01:56:55.106914 17087 net.cpp:94] Creating Layer ip1
I0502 01:56:55.106920 17087 net.cpp:435] ip1 <- pool5
I0502 01:56:55.106928 17087 net.cpp:409] ip1 -> ip1
I0502 01:56:55.112076 17087 net.cpp:144] Setting up ip1
I0502 01:56:55.112087 17087 net.cpp:151] Top shape: 20 64 (1280)
I0502 01:56:55.112090 17087 net.cpp:159] Memory required for data: 26824080
I0502 01:56:55.112095 17087 layer_factory.hpp:77] Creating layer ip2
I0502 01:56:55.112102 17087 net.cpp:94] Creating Layer ip2
I0502 01:56:55.112105 17087 net.cpp:435] ip2 <- ip1
I0502 01:56:55.112110 17087 net.cpp:409] ip2 -> ip2
I0502 01:56:55.112337 17087 net.cpp:144] Setting up ip2
I0502 01:56:55.112344 17087 net.cpp:151] Top shape: 20 64 (1280)
I0502 01:56:55.112347 17087 net.cpp:159] Memory required for data: 26829200
I0502 01:56:55.112352 17087 layer_factory.hpp:77] Creating layer ip3
I0502 01:56:55.112362 17087 net.cpp:94] Creating Layer ip3
I0502 01:56:55.112366 17087 net.cpp:435] ip3 <- ip2
I0502 01:56:55.112372 17087 net.cpp:409] ip3 -> ip3
I0502 01:56:55.112584 17087 net.cpp:144] Setting up ip3
I0502 01:56:55.112593 17087 net.cpp:151] Top shape: 20 50 (1000)
I0502 01:56:55.112596 17087 net.cpp:159] Memory required for data: 26833200
I0502 01:56:55.112601 17087 layer_factory.hpp:77] Creating layer loss
I0502 01:56:55.112608 17087 net.cpp:94] Creating Layer loss
I0502 01:56:55.112612 17087 net.cpp:435] loss <- ip3
I0502 01:56:55.112615 17087 net.cpp:435] loss <- label
I0502 01:56:55.112619 17087 net.cpp:409] loss -> loss
I0502 01:56:55.112627 17087 layer_factory.hpp:77] Creating layer loss
…
I0502 01:56:55.113147 17087 solver.cpp:181] Creating test net (#0) specified by net file: ./protocol/dis_5_900_dimension.protocol_distribution
I0502 01:56:55.113174 17087 net.cpp:323] The NetState phase (1) differed from the phase (0) specified by a rule in layer parameters
I0502 01:56:55.113275 17087 net.cpp:52] Initializing net from parameters: 
state {
  phase: TEST
}
layer {
  name: "intercept"
  type: "HDF5Data"
  top: "data"
  top: "label"
  include {
    phase: TEST
  }
  hdf5_data_param {
    source: "/home/purduethu/scratch/radon/d/deng106/CNNStatisticalModel/distributions/input/5_distributions_900_sample_size_test-distributions-path.txt"
    batch_size: 20
  }
}
layer {
  name: "conv1"
  type: "Convolution"
  bottom: "data"
  top: "conv1"
  param {
    lr_mult: 1
  }
  param {
    lr_mult: 2
  }
  convolution_param {
    num_output: 64
    pad: 2
    kernel_size: 5
    stride: 1
    weight_filler {
      type: "gaussian"
      std: 0.0001
    }
    bias_filler {
      type: "constant"
    }
  }
}
layer {
  name: "relu1"
  type: "ReLU"
  bottom: "conv1"
  top: "conv1"
}
layer {
  name: "conv2"
  type: "Convolution"
  bottom: "conv1"
  top: "conv2"
  param {
    lr_mult: 1
  }
  param {
    lr_mult: 2
  }
  convolution_param {
    num_output: 64
    pad: 2
    kernel_size: 5
    stride: 1
    weight_filler {
      type: "gaussian"
      std: 0.01
    }
    bias_filler {
      type: "constant"
    }
  }
}
layer {
  name: "relu2"
  type: "ReLU"
  bottom: "conv2"
  top: "conv2"
}
layer {
  name: "pool2"
  type: "Pooling"
  bottom: "conv2"
  top: "pool2"
  pooling_param {
    pool: MAX
    kernel_size: 3
    stride: 2
  }
}
layer {
  name: "conv3"
  type: "Convolution"
  bottom: "pool2"
  top: "conv3"
  param {
    lr_mult: 1
  }
  param {
    lr_mult: 2
  }
  convolution_param {
    num_output: 64
    pad: 2
    kernel_size: 5
    stride: 1
    weight_filler {
      type: "gaussian"
      std: 0.01
    }
    bias_filler {
      type: "constant"
    }
  }
}
layer {
  name: "relu3"
  type: "ReLU"
  bottom: "conv3"
  top: "conv3"
}
layer {
  name: "conv4"
  type: "Convolution"
  bottom: "conv3"
  top: "conv4"
  param {
    lr_mult: 1
  }
  param {
    lr_mult: 2
  }
  convolution_param {
    num_output: 64
    pad: 2
    kernel_size: 5
    stride: 1
    weight_filler {
      type: "gaussian"
      std: 0.01
    }
    bias_filler {
      type: "constant"
    }
  }
}
layer {
  name: "relu4"
  type: "ReLU"
  bottom: "conv4"
  top: "conv4"
}
layer {
  name: "conv5"
  type: "Convolution"
  bottom: "conv4"
  top: "conv5"
  param {
    lr_mult: 1
  }
  param {
    lr_mult: 2
  }
  convolution_param {
    num_output: 64
    pad: 2
    kernel_size: 5
    stride: 1
    weight_filler {
      type: "gaussian"
      std: 0.01
    }
    bias_filler {
      type: "constant"
    }
  }
}
layer {
  name: "relu5"
  type: "ReLU"
  bottom: "conv5"
  top: "conv5"
}
layer {
  name: "pool5"
  type: "Pooling"
  bottom: "conv5"
  top: "pool5"
  pooling_param {
    pool: AVE
    kernel_size: 3
    stride: 2
  }
}
layer {
  name: "ip1"
  type: "InnerProduct"
  bottom: "pool5"
  top: "ip1"
  param {
    lr_mult: 1
  }
  param {
    lr_mult: 2
  }
  inner_product_param {
    num_output: 64
    weight_filler {
      type: "gaussian"
      std: 0.1
    }
    bias_filler {
      type: "constant"
    }
  }
}
layer {
  name: "ip2"
  type: "InnerProduct"
  bottom: "ip1"
  top: "ip2"
  param {
    lr_mult: 1
  }
  param {
    lr_mult: 2
  }
  inner_product_param {
    num_output: 64
    weight_filler {
      type: "gaussian"
      std: 0.1
    }
    bias_filler {
      type: "constant"
    }
  }
}
layer {
  name: "ip3"
  type: "InnerProduct"
  bottom: "ip2"
  top: "ip3"
  param {
    lr_mult: 1
  }
  param {
    lr_mult: 2
  }
  inner_product_param {
    num_output: 50
    weight_filler {
      type: "gaussian"
      std: 0.1
    }
    bias_filler {
      type: "constant"
    }
  }
}
layer {
  name: "accuracy"
  type: "Accuracy"
  bottom: "ip3"
  bottom: "label"
  top: "accuracy"
  include {
    phase: TEST
  }
}
layer {
  name: "loss"
  type: "SoftmaxWithLoss"
  bottom: "ip3"
  bottom: "label"
  top: "loss"
}
I0502 01:56:55.113343 17087 layer_factory.hpp:77] Creating layer intercept
I0502 01:56:55.113351 17087 net.cpp:94] Creating Layer intercept
I0502 01:56:55.113355 17087 net.cpp:409] intercept -> data
I0502 01:56:55.113361 17087 net.cpp:409] intercept -> label
I0502 01:56:55.113368 17087 hdf5_data_layer.cpp:79] Loading list of HDF5 filenames from: /home/purduethu/scratch/radon/d/deng106/CNNStatisticalModel/distributions/input/5_distributions_900_sample_size_test-distributions-path.txt
I0502 01:56:55.113385 17087 hdf5_data_layer.cpp:93] Number of HDF5 files: 1
I0502 01:56:55.149251 17087 net.cpp:144] Setting up intercept
I0502 01:56:55.149286 17087 net.cpp:151] Top shape: 20 1 30 30 (18000)
I0502 01:56:55.149291 17087 net.cpp:151] Top shape: 20 (20)
I0502 01:56:55.149293 17087 net.cpp:159] Memory required for data: 72080
I0502 01:56:55.149300 17087 layer_factory.hpp:77] Creating layer label_intercept_1_split
I0502 01:56:55.149317 17087 net.cpp:94] Creating Layer label_intercept_1_split
I0502 01:56:55.149322 17087 net.cpp:435] label_intercept_1_split <- label
I0502 01:56:55.149327 17087 net.cpp:409] label_intercept_1_split -> label_intercept_1_split_0
I0502 01:56:55.149335 17087 net.cpp:409] label_intercept_1_split -> label_intercept_1_split_1
I0502 01:56:55.149377 17087 net.cpp:144] Setting up label_intercept_1_split
I0502 01:56:55.149384 17087 net.cpp:151] Top shape: 20 (20)
I0502 01:56:55.149386 17087 net.cpp:151] Top shape: 20 (20)
I0502 01:56:55.149389 17087 net.cpp:159] Memory required for data: 72240
I0502 01:56:55.149392 17087 layer_factory.hpp:77] Creating layer conv1
I0502 01:56:55.149404 17087 net.cpp:94] Creating Layer conv1
I0502 01:56:55.149406 17087 net.cpp:435] conv1 <- data
I0502 01:56:55.149411 17087 net.cpp:409] conv1 -> conv1
I0502 01:56:55.150871 17087 net.cpp:144] Setting up conv1
I0502 01:56:55.150892 17087 net.cpp:151] Top shape: 20 64 30 30 (1152000)
I0502 01:56:55.150895 17087 net.cpp:159] Memory required for data: 4680240
I0502 01:56:55.150905 17087 layer_factory.hpp:77] Creating layer relu1
I0502 01:56:55.150913 17087 net.cpp:94] Creating Layer relu1
I0502 01:56:55.150915 17087 net.cpp:435] relu1 <- conv1
I0502 01:56:55.150919 17087 net.cpp:396] relu1 -> conv1 (in-place)
I0502 01:56:55.150926 17087 net.cpp:144] Setting up relu1
I0502 01:56:55.150930 17087 net.cpp:151] Top shape: 20 64 30 30 (1152000)
I0502 01:56:55.150933 17087 net.cpp:159] Memory required for data: 9288240
I0502 01:56:55.150936 17087 layer_factory.hpp:77] Creating layer conv2
I0502 01:56:55.150944 17087 net.cpp:94] Creating Layer conv2
I0502 01:56:55.150949 17087 net.cpp:435] conv2 <- conv1
I0502 01:56:55.150952 17087 net.cpp:409] conv2 -> conv2
I0502 01:56:55.157395 17087 net.cpp:144] Setting up conv2
I0502 01:56:55.157434 17087 net.cpp:151] Top shape: 20 64 30 30 (1152000)
I0502 01:56:55.157445 17087 net.cpp:159] Memory required for data: 13896240
I0502 01:56:55.157466 17087 layer_factory.hpp:77] Creating layer relu2
I0502 01:56:55.157482 17087 net.cpp:94] Creating Layer relu2
I0502 01:56:55.157492 17087 net.cpp:435] relu2 <- conv2
I0502 01:56:55.157505 17087 net.cpp:396] relu2 -> conv2 (in-place)
I0502 01:56:55.157524 17087 net.cpp:144] Setting up relu2
I0502 01:56:55.157536 17087 net.cpp:151] Top shape: 20 64 30 30 (1152000)
I0502 01:56:55.157544 17087 net.cpp:159] Memory required for data: 18504240
I0502 01:56:55.157553 17087 layer_factory.hpp:77] Creating layer pool2
I0502 01:56:55.157567 17087 net.cpp:94] Creating Layer pool2
I0502 01:56:55.157575 17087 net.cpp:435] pool2 <- conv2
I0502 01:56:55.157588 17087 net.cpp:409] pool2 -> pool2
I0502 01:56:55.157726 17087 net.cpp:144] Setting up pool2
I0502 01:56:55.157742 17087 net.cpp:151] Top shape: 20 64 15 15 (288000)
I0502 01:56:55.157752 17087 net.cpp:159] Memory required for data: 19656240
I0502 01:56:55.157760 17087 layer_factory.hpp:77] Creating layer conv3
I0502 01:56:55.157780 17087 net.cpp:94] Creating Layer conv3
I0502 01:56:55.157790 17087 net.cpp:435] conv3 <- pool2
I0502 01:56:55.157804 17087 net.cpp:409] conv3 -> conv3
I0502 01:56:55.162775 17087 net.cpp:144] Setting up conv3
I0502 01:56:55.162789 17087 net.cpp:151] Top shape: 20 64 15 15 (288000)
I0502 01:56:55.162793 17087 net.cpp:159] Memory required for data: 20808240
I0502 01:56:55.162801 17087 layer_factory.hpp:77] Creating layer relu3
I0502 01:56:55.162808 17087 net.cpp:94] Creating Layer relu3
I0502 01:56:55.162812 17087 net.cpp:435] relu3 <- conv3
I0502 01:56:55.162817 17087 net.cpp:396] relu3 -> conv3 (in-place)
I0502 01:56:55.162823 17087 net.cpp:144] Setting up relu3
I0502 01:56:55.162827 17087 net.cpp:151] Top shape: 20 64 15 15 (288000)
I0502 01:56:55.162830 17087 net.cpp:159] Memory required for data: 21960240
I0502 01:56:55.162833 17087 layer_factory.hpp:77] Creating layer conv4
I0502 01:56:55.162840 17087 net.cpp:94] Creating Layer conv4
I0502 01:56:55.162844 17087 net.cpp:435] conv4 <- conv3
I0502 01:56:55.162849 17087 net.cpp:409] conv4 -> conv4
I0502 01:56:55.168221 17087 net.cpp:144] Setting up conv4
I0502 01:56:55.168236 17087 net.cpp:151] Top shape: 20 64 15 15 (288000)
I0502 01:56:55.168241 17087 net.cpp:159] Memory required for data: 23112240
I0502 01:56:55.168247 17087 layer_factory.hpp:77] Creating layer relu4
I0502 01:56:55.168253 17087 net.cpp:94] Creating Layer relu4
I0502 01:56:55.168256 17087 net.cpp:435] relu4 <- conv4
I0502 01:56:55.168262 17087 net.cpp:396] relu4 -> conv4 (in-place)
I0502 01:56:55.168267 17087 net.cpp:144] Setting up relu4
I0502 01:56:55.168272 17087 net.cpp:151] Top shape: 20 64 15 15 (288000)
I0502 01:56:55.168274 17087 net.cpp:159] Memory required for data: 24264240
I0502 01:56:55.168277 17087 layer_factory.hpp:77] Creating layer conv5
I0502 01:56:55.168285 17087 net.cpp:94] Creating Layer conv5
I0502 01:56:55.168288 17087 net.cpp:435] conv5 <- conv4
I0502 01:56:55.168293 17087 net.cpp:409] conv5 -> conv5
I0502 01:56:55.172790 17087 net.cpp:144] Setting up conv5
I0502 01:56:55.172807 17087 net.cpp:151] Top shape: 20 64 15 15 (288000)
I0502 01:56:55.172811 17087 net.cpp:159] Memory required for data: 25416240
I0502 01:56:55.172819 17087 layer_factory.hpp:77] Creating layer relu5
I0502 01:56:55.172825 17087 net.cpp:94] Creating Layer relu5
I0502 01:56:55.172828 17087 net.cpp:435] relu5 <- conv5
I0502 01:56:55.172833 17087 net.cpp:396] relu5 -> conv5 (in-place)
I0502 01:56:55.172839 17087 net.cpp:144] Setting up relu5
I0502 01:56:55.172843 17087 net.cpp:151] Top shape: 20 64 15 15 (288000)
I0502 01:56:55.172847 17087 net.cpp:159] Memory required for data: 26568240
I0502 01:56:55.172849 17087 layer_factory.hpp:77] Creating layer pool5
I0502 01:56:55.172854 17087 net.cpp:94] Creating Layer pool5
I0502 01:56:55.172857 17087 net.cpp:435] pool5 <- conv5
I0502 01:56:55.172861 17087 net.cpp:409] pool5 -> pool5
I0502 01:56:55.172896 17087 net.cpp:144] Setting up pool5
I0502 01:56:55.172904 17087 net.cpp:151] Top shape: 20 64 7 7 (62720)
I0502 01:56:55.172906 17087 net.cpp:159] Memory required for data: 26819120
I0502 01:56:55.172909 17087 layer_factory.hpp:77] Creating layer ip1
I0502 01:56:55.172916 17087 net.cpp:94] Creating Layer ip1
I0502 01:56:55.172919 17087 net.cpp:435] ip1 <- pool5
I0502 01:56:55.172924 17087 net.cpp:409] ip1 -> ip1
I0502 01:56:55.177693 17087 net.cpp:144] Setting up ip1
I0502 01:56:55.177702 17087 net.cpp:151] Top shape: 20 64 (1280)
I0502 01:56:55.177706 17087 net.cpp:159] Memory required for data: 26824240
I0502 01:56:55.177711 17087 layer_factory.hpp:77] Creating layer ip2
I0502 01:56:55.177716 17087 net.cpp:94] Creating Layer ip2
I0502 01:56:55.177719 17087 net.cpp:435] ip2 <- ip1
I0502 01:56:55.177724 17087 net.cpp:409] ip2 -> ip2
I0502 01:56:55.177942 17087 net.cpp:144] Setting up ip2
I0502 01:56:55.177948 17087 net.cpp:151] Top shape: 20 64 (1280)
I0502 01:56:55.177952 17087 net.cpp:159] Memory required for data: 26829360
I0502 01:56:55.177956 17087 layer_factory.hpp:77] Creating layer ip3
I0502 01:56:55.177963 17087 net.cpp:94] Creating Layer ip3
I0502 01:56:55.177965 17087 net.cpp:435] ip3 <- ip2
I0502 01:56:55.177970 17087 net.cpp:409] ip3 -> ip3
I0502 01:56:55.178158 17087 net.cpp:144] Setting up ip3
I0502 01:56:55.178164 17087 net.cpp:151] Top shape: 20 50 (1000)
I0502 01:56:55.178167 17087 net.cpp:159] Memory required for data: 26833360
I0502 01:56:55.178172 17087 layer_factory.hpp:77] Creating layer ip3_ip3_0_split
I0502 01:56:55.178177 17087 net.cpp:94] Creating Layer ip3_ip3_0_split
I0502 01:56:55.178180 17087 net.cpp:435] ip3_ip3_0_split <- ip3
I0502 01:56:55.178184 17087 net.cpp:409] ip3_ip3_0_split -> ip3_ip3_0_split_0
I0502 01:56:55.178190 17087 net.cpp:409] ip3_ip3_0_split -> ip3_ip3_0_split_1
I0502 01:56:55.178227 17087 net.cpp:144] Setting up ip3_ip3_0_split
I0502 01:56:55.178232 17087 net.cpp:151] Top shape: 20 50 (1000)
I0502 01:56:55.178236 17087 net.cpp:151] Top shape: 20 50 (1000)
I0502 01:56:55.178238 17087 net.cpp:159] Memory required for data: 26841360
I0502 01:56:55.178241 17087 layer_factory.hpp:77] Creating layer accuracy
I0502 01:56:55.178247 17087 net.cpp:94] Creating Layer accuracy
I0502 01:56:55.178251 17087 net.cpp:435] accuracy <- ip3_ip3_0_split_0
I0502 01:56:55.178253 17087 net.cpp:435] accuracy <- label_intercept_1_split_0
I0502 01:56:55.178257 17087 net.cpp:409] accuracy -> accuracy
…
