…
I0502 19:26:07.981174 12635 net.cpp:323] The NetState phase (0) differed from the phase (1) specified by a rule in layer intercept
I0502 19:26:07.981189 12635 net.cpp:323] The NetState phase (0) differed from the phase (1) specified by a rule in layer accuracy
I0502 19:26:07.981277 12635 net.cpp:52] Initializing net from parameters: 
state {
  phase: TRAIN
}
layer {
  name: "parameters"
  type: "HDF5Data"
  top: "data"
  top: "label"
  include {
    phase: TRAIN
  }
  hdf5_data_param {
    source: "/home/purduethu/scratch/radon/d/deng106/CNNStatisticalModel/distributions/input/5_distributions_900_sample_size_train-distributions-path.txt"
    batch_size: 20
  }
}
layer {
  name: "conv1"
  type: "Convolution"
  bottom: "data"
  top: "conv1"
  param {
    lr_mult: 1
  }
  param {
    lr_mult: 2
  }
  convolution_param {
    num_output: 64
    pad: 2
    kernel_size: 5
    stride: 1
    weight_filler {
      type: "gaussian"
      std: 0.0001
    }
    bias_filler {
      type: "constant"
    }
  }
}
layer {
  name: "relu1"
  type: "ReLU"
  bottom: "conv1"
  top: "conv1"
}
layer {
  name: "conv2"
  type: "Convolution"
  bottom: "conv1"
  top: "conv2"
  param {
    lr_mult: 1
  }
  param {
    lr_mult: 2
  }
  convolution_param {
    num_output: 64
    pad: 2
    kernel_size: 5
    stride: 1
    weight_filler {
      type: "gaussian"
      std: 0.01
    }
    bias_filler {
      type: "constant"
    }
  }
}
layer {
  name: "relu2"
  type: "ReLU"
  bottom: "conv2"
  top: "conv2"
}
layer {
  name: "pool2"
  type: "Pooling"
  bottom: "conv2"
  top: "pool2"
  pooling_param {
    pool: MAX
    kernel_size: 3
    stride: 2
  }
}
layer {
  name: "conv3"
  type: "Convolution"
  bottom: "pool2"
  top: "conv3"
  param {
    lr_mult: 1
  }
  param {
    lr_mult: 2
  }
  convolution_param {
    num_output: 64
    pad: 2
    kernel_size: 5
    stride: 1
    weight_filler {
      type: "gaussian"
      std: 0.01
    }
    bias_filler {
      type: "constant"
    }
  }
}
layer {
  name: "relu3"
  type: "ReLU"
  bottom: "conv3"
  top: "conv3"
}
layer {
  name: "conv4"
  type: "Convolution"
  bottom: "conv3"
  top: "conv4"
  param {
    lr_mult: 1
  }
  param {
    lr_mult: 2
  }
  convolution_param {
    num_output: 64
    pad: 2
    kernel_size: 5
    stride: 1
    weight_filler {
      type: "gaussian"
      std: 0.01
    }
    bias_filler {
      type: "constant"
    }
  }
}
layer {
  name: "relu4"
  type: "ReLU"
  bottom: "conv4"
  top: "conv4"
}
layer {
  name: "conv5"
  type: "Convolution"
  bottom: "conv4"
  top: "conv5"
  param {
    lr_mult: 1
  }
  param {
    lr_mult: 2
  }
  convolution_param {
    num_output: 64
    pad: 2
    kernel_size: 5
    stride: 1
    weight_filler {
      type: "gaussian"
      std: 0.01
    }
    bias_filler {
      type: "constant"
    }
  }
}
layer {
  name: "relu5"
  type: "ReLU"
  bottom: "conv5"
  top: "conv5"
}
layer {
  name: "pool5"
  type: "Pooling"
  bottom: "conv5"
  top: "pool5"
  pooling_param {
    pool: AVE
    kernel_size: 3
    stride: 2
  }
}
layer {
  name: "ip1"
  type: "InnerProduct"
  bottom: "pool5"
  top: "ip1"
  param {
    lr_mult: 1
  }
  param {
    lr_mult: 2
  }
  inner_product_param {
    num_output: 64
    weight_filler {
      type: "gaussian"
      std: 0.1
    }
    bias_filler {
      type: "constant"
    }
  }
}
layer {
  name: "ip2"
  type: "InnerProduct"
  bottom: "ip1"
  top: "ip2"
  param {
    lr_mult: 1
  }
  param {
    lr_mult: 2
  }
  inner_product_param {
    num_output: 64
    weight_filler {
      type: "gaussian"
      std: 0.1
    }
    bias_filler {
      type: "constant"
    }
  }
}
layer {
  name: "ip3"
  type: "InnerProduct"
  bottom: "ip2"
  top: "ip3"
  param {
    lr_mult: 1
  }
  param {
    lr_mult: 2
  }
  inner_product_param {
    num_output: 50
    weight_filler {
      type: "gaussian"
      std: 0.1
    }
    bias_filler {
      type: "constant"
    }
  }
}
layer {
  name: "loss"
  type: "SoftmaxWithLoss"
  bottom: "ip3"
  bottom: "label"
  top: "loss"
}
I0502 19:26:07.981353 12635 layer_factory.hpp:77] Creating layer parameters
I0502 19:26:07.981367 12635 net.cpp:94] Creating Layer parameters
I0502 19:26:07.981374 12635 net.cpp:409] parameters -> data
I0502 19:26:07.981393 12635 net.cpp:409] parameters -> label
I0502 19:26:07.981405 12635 hdf5_data_layer.cpp:79] Loading list of HDF5 filenames from: /home/purduethu/scratch/radon/d/deng106/CNNStatisticalModel/distributions/input/5_distributions_900_sample_size_train-distributions-path.txt
I0502 19:26:07.981426 12635 hdf5_data_layer.cpp:93] Number of HDF5 files: 1
I0502 19:26:07.981884 12635 hdf5.cpp:32] Datatype class: H5T_FLOAT
I0502 19:26:08.120337 12635 hdf5.cpp:35] Datatype class: H5T_INTEGER
I0502 19:26:08.121496 12635 net.cpp:144] Setting up parameters
I0502 19:26:08.121517 12635 net.cpp:151] Top shape: 20 1 30 30 (18000)
I0502 19:26:08.121523 12635 net.cpp:151] Top shape: 20 (20)
I0502 19:26:08.121526 12635 net.cpp:159] Memory required for data: 72080
I0502 19:26:08.121534 12635 layer_factory.hpp:77] Creating layer conv1
I0502 19:26:08.121559 12635 net.cpp:94] Creating Layer conv1
I0502 19:26:08.121565 12635 net.cpp:435] conv1 <- data
I0502 19:26:08.121577 12635 net.cpp:409] conv1 -> conv1
I0502 19:26:08.135992 12635 net.cpp:144] Setting up conv1
I0502 19:26:08.136023 12635 net.cpp:151] Top shape: 20 64 30 30 (1152000)
I0502 19:26:08.136028 12635 net.cpp:159] Memory required for data: 4680080
I0502 19:26:08.136039 12635 layer_factory.hpp:77] Creating layer relu1
I0502 19:26:08.136049 12635 net.cpp:94] Creating Layer relu1
I0502 19:26:08.136052 12635 net.cpp:435] relu1 <- conv1
I0502 19:26:08.136057 12635 net.cpp:396] relu1 -> conv1 (in-place)
I0502 19:26:08.136073 12635 net.cpp:144] Setting up relu1
I0502 19:26:08.136080 12635 net.cpp:151] Top shape: 20 64 30 30 (1152000)
I0502 19:26:08.136082 12635 net.cpp:159] Memory required for data: 9288080
I0502 19:26:08.136085 12635 layer_factory.hpp:77] Creating layer conv2
I0502 19:26:08.136095 12635 net.cpp:94] Creating Layer conv2
I0502 19:26:08.136098 12635 net.cpp:435] conv2 <- conv1
I0502 19:26:08.136103 12635 net.cpp:409] conv2 -> conv2
I0502 19:26:08.155900 12635 net.cpp:144] Setting up conv2
I0502 19:26:08.155916 12635 net.cpp:151] Top shape: 20 64 30 30 (1152000)
I0502 19:26:08.155920 12635 net.cpp:159] Memory required for data: 13896080
I0502 19:26:08.155928 12635 layer_factory.hpp:77] Creating layer relu2
I0502 19:26:08.155936 12635 net.cpp:94] Creating Layer relu2
I0502 19:26:08.155941 12635 net.cpp:435] relu2 <- conv2
I0502 19:26:08.155944 12635 net.cpp:396] relu2 -> conv2 (in-place)
I0502 19:26:08.155952 12635 net.cpp:144] Setting up relu2
I0502 19:26:08.155956 12635 net.cpp:151] Top shape: 20 64 30 30 (1152000)
I0502 19:26:08.155959 12635 net.cpp:159] Memory required for data: 18504080
I0502 19:26:08.155962 12635 layer_factory.hpp:77] Creating layer pool2
I0502 19:26:08.155977 12635 net.cpp:94] Creating Layer pool2
I0502 19:26:08.155980 12635 net.cpp:435] pool2 <- conv2
I0502 19:26:08.155985 12635 net.cpp:409] pool2 -> pool2
I0502 19:26:08.156029 12635 net.cpp:144] Setting up pool2
I0502 19:26:08.156038 12635 net.cpp:151] Top shape: 20 64 15 15 (288000)
I0502 19:26:08.156040 12635 net.cpp:159] Memory required for data: 19656080
I0502 19:26:08.156044 12635 layer_factory.hpp:77] Creating layer conv3
I0502 19:26:08.156051 12635 net.cpp:94] Creating Layer conv3
I0502 19:26:08.156055 12635 net.cpp:435] conv3 <- pool2
I0502 19:26:08.156069 12635 net.cpp:409] conv3 -> conv3
I0502 19:26:08.169394 12635 net.cpp:144] Setting up conv3
I0502 19:26:08.169409 12635 net.cpp:151] Top shape: 20 64 15 15 (288000)
I0502 19:26:08.169412 12635 net.cpp:159] Memory required for data: 20808080
I0502 19:26:08.169421 12635 layer_factory.hpp:77] Creating layer relu3
I0502 19:26:08.169427 12635 net.cpp:94] Creating Layer relu3
I0502 19:26:08.169431 12635 net.cpp:435] relu3 <- conv3
I0502 19:26:08.169436 12635 net.cpp:396] relu3 -> conv3 (in-place)
I0502 19:26:08.169443 12635 net.cpp:144] Setting up relu3
I0502 19:26:08.169448 12635 net.cpp:151] Top shape: 20 64 15 15 (288000)
I0502 19:26:08.169451 12635 net.cpp:159] Memory required for data: 21960080
I0502 19:26:08.169455 12635 layer_factory.hpp:77] Creating layer conv4
I0502 19:26:08.169463 12635 net.cpp:94] Creating Layer conv4
I0502 19:26:08.169467 12635 net.cpp:435] conv4 <- conv3
I0502 19:26:08.169472 12635 net.cpp:409] conv4 -> conv4
I0502 19:26:08.182368 12635 net.cpp:144] Setting up conv4
I0502 19:26:08.182412 12635 net.cpp:151] Top shape: 20 64 15 15 (288000)
I0502 19:26:08.182425 12635 net.cpp:159] Memory required for data: 23112080
I0502 19:26:08.182443 12635 layer_factory.hpp:77] Creating layer relu4
I0502 19:26:08.182459 12635 net.cpp:94] Creating Layer relu4
I0502 19:26:08.182471 12635 net.cpp:435] relu4 <- conv4
I0502 19:26:08.182485 12635 net.cpp:396] relu4 -> conv4 (in-place)
I0502 19:26:08.182507 12635 net.cpp:144] Setting up relu4
I0502 19:26:08.182519 12635 net.cpp:151] Top shape: 20 64 15 15 (288000)
I0502 19:26:08.182528 12635 net.cpp:159] Memory required for data: 24264080
I0502 19:26:08.182538 12635 layer_factory.hpp:77] Creating layer conv5
I0502 19:26:08.182559 12635 net.cpp:94] Creating Layer conv5
I0502 19:26:08.182569 12635 net.cpp:435] conv5 <- conv4
I0502 19:26:08.182584 12635 net.cpp:409] conv5 -> conv5
I0502 19:26:08.199998 12635 net.cpp:144] Setting up conv5
I0502 19:26:08.200034 12635 net.cpp:151] Top shape: 20 64 15 15 (288000)
I0502 19:26:08.200045 12635 net.cpp:159] Memory required for data: 25416080
I0502 19:26:08.200068 12635 layer_factory.hpp:77] Creating layer relu5
I0502 19:26:08.200084 12635 net.cpp:94] Creating Layer relu5
I0502 19:26:08.200094 12635 net.cpp:435] relu5 <- conv5
I0502 19:26:08.200106 12635 net.cpp:396] relu5 -> conv5 (in-place)
I0502 19:26:08.200125 12635 net.cpp:144] Setting up relu5
I0502 19:26:08.200137 12635 net.cpp:151] Top shape: 20 64 15 15 (288000)
I0502 19:26:08.200146 12635 net.cpp:159] Memory required for data: 26568080
I0502 19:26:08.200155 12635 layer_factory.hpp:77] Creating layer pool5
I0502 19:26:08.200167 12635 net.cpp:94] Creating Layer pool5
I0502 19:26:08.200176 12635 net.cpp:435] pool5 <- conv5
I0502 19:26:08.200188 12635 net.cpp:409] pool5 -> pool5
I0502 19:26:08.200268 12635 net.cpp:144] Setting up pool5
I0502 19:26:08.200286 12635 net.cpp:151] Top shape: 20 64 7 7 (62720)
I0502 19:26:08.200294 12635 net.cpp:159] Memory required for data: 26818960
I0502 19:26:08.200304 12635 layer_factory.hpp:77] Creating layer ip1
I0502 19:26:08.200325 12635 net.cpp:94] Creating Layer ip1
I0502 19:26:08.200335 12635 net.cpp:435] ip1 <- pool5
I0502 19:26:08.200347 12635 net.cpp:409] ip1 -> ip1
I0502 19:26:08.214854 12635 net.cpp:144] Setting up ip1
I0502 19:26:08.214884 12635 net.cpp:151] Top shape: 20 64 (1280)
I0502 19:26:08.214895 12635 net.cpp:159] Memory required for data: 26824080
I0502 19:26:08.214910 12635 layer_factory.hpp:77] Creating layer ip2
I0502 19:26:08.214933 12635 net.cpp:94] Creating Layer ip2
I0502 19:26:08.214944 12635 net.cpp:435] ip2 <- ip1
I0502 19:26:08.214957 12635 net.cpp:409] ip2 -> ip2
I0502 19:26:08.215384 12635 net.cpp:144] Setting up ip2
I0502 19:26:08.215399 12635 net.cpp:151] Top shape: 20 64 (1280)
I0502 19:26:08.215407 12635 net.cpp:159] Memory required for data: 26829200
I0502 19:26:08.215420 12635 layer_factory.hpp:77] Creating layer ip3
I0502 19:26:08.215435 12635 net.cpp:94] Creating Layer ip3
I0502 19:26:08.215443 12635 net.cpp:435] ip3 <- ip2
I0502 19:26:08.215456 12635 net.cpp:409] ip3 -> ip3
I0502 19:26:08.215826 12635 net.cpp:144] Setting up ip3
I0502 19:26:08.215842 12635 net.cpp:151] Top shape: 20 50 (1000)
I0502 19:26:08.215849 12635 net.cpp:159] Memory required for data: 26833200
I0502 19:26:08.215862 12635 layer_factory.hpp:77] Creating layer loss
I0502 19:26:08.215876 12635 net.cpp:94] Creating Layer loss
I0502 19:26:08.215885 12635 net.cpp:435] loss <- ip3
I0502 19:26:08.215895 12635 net.cpp:435] loss <- label
I0502 19:26:08.215909 12635 net.cpp:409] loss -> loss
I0502 19:26:08.215929 12635 layer_factory.hpp:77] Creating layer loss
…
I0502 19:26:08.217103 12635 solver.cpp:181] Creating test net (#0) specified by net file: ./protocol/dis_5_900_dimension.protocol_distribution
I0502 19:26:08.217165 12635 net.cpp:323] The NetState phase (1) differed from the phase (0) specified by a rule in layer parameters
I0502 19:26:08.217392 12635 net.cpp:52] Initializing net from parameters: 
state {
  phase: TEST
}
layer {
  name: "intercept"
  type: "HDF5Data"
  top: "data"
  top: "label"
  include {
    phase: TEST
  }
  hdf5_data_param {
    source: "/home/purduethu/scratch/radon/d/deng106/CNNStatisticalModel/distributions/input/5_distributions_900_sample_size_test-distributions-path.txt"
    batch_size: 20
  }
}
layer {
  name: "conv1"
  type: "Convolution"
  bottom: "data"
  top: "conv1"
  param {
    lr_mult: 1
  }
  param {
    lr_mult: 2
  }
  convolution_param {
    num_output: 64
    pad: 2
    kernel_size: 5
    stride: 1
    weight_filler {
      type: "gaussian"
      std: 0.0001
    }
    bias_filler {
      type: "constant"
    }
  }
}
layer {
  name: "relu1"
  type: "ReLU"
  bottom: "conv1"
  top: "conv1"
}
layer {
  name: "conv2"
  type: "Convolution"
  bottom: "conv1"
  top: "conv2"
  param {
    lr_mult: 1
  }
  param {
    lr_mult: 2
  }
  convolution_param {
    num_output: 64
    pad: 2
    kernel_size: 5
    stride: 1
    weight_filler {
      type: "gaussian"
      std: 0.01
    }
    bias_filler {
      type: "constant"
    }
  }
}
layer {
  name: "relu2"
  type: "ReLU"
  bottom: "conv2"
  top: "conv2"
}
layer {
  name: "pool2"
  type: "Pooling"
  bottom: "conv2"
  top: "pool2"
  pooling_param {
    pool: MAX
    kernel_size: 3
    stride: 2
  }
}
layer {
  name: "conv3"
  type: "Convolution"
  bottom: "pool2"
  top: "conv3"
  param {
    lr_mult: 1
  }
  param {
    lr_mult: 2
  }
  convolution_param {
    num_output: 64
    pad: 2
    kernel_size: 5
    stride: 1
    weight_filler {
      type: "gaussian"
      std: 0.01
    }
    bias_filler {
      type: "constant"
    }
  }
}
layer {
  name: "relu3"
  type: "ReLU"
  bottom: "conv3"
  top: "conv3"
}
layer {
  name: "conv4"
  type: "Convolution"
  bottom: "conv3"
  top: "conv4"
  param {
    lr_mult: 1
  }
  param {
    lr_mult: 2
  }
  convolution_param {
    num_output: 64
    pad: 2
    kernel_size: 5
    stride: 1
    weight_filler {
      type: "gaussian"
      std: 0.01
    }
    bias_filler {
      type: "constant"
    }
  }
}
layer {
  name: "relu4"
  type: "ReLU"
  bottom: "conv4"
  top: "conv4"
}
layer {
  name: "conv5"
  type: "Convolution"
  bottom: "conv4"
  top: "conv5"
  param {
    lr_mult: 1
  }
  param {
    lr_mult: 2
  }
  convolution_param {
    num_output: 64
    pad: 2
    kernel_size: 5
    stride: 1
    weight_filler {
      type: "gaussian"
      std: 0.01
    }
    bias_filler {
      type: "constant"
    }
  }
}
layer {
  name: "relu5"
  type: "ReLU"
  bottom: "conv5"
  top: "conv5"
}
layer {
  name: "pool5"
  type: "Pooling"
  bottom: "conv5"
  top: "pool5"
  pooling_param {
    pool: AVE
    kernel_size: 3
    stride: 2
  }
}
layer {
  name: "ip1"
  type: "InnerProduct"
  bottom: "pool5"
  top: "ip1"
  param {
    lr_mult: 1
  }
  param {
    lr_mult: 2
  }
  inner_product_param {
    num_output: 64
    weight_filler {
      type: "gaussian"
      std: 0.1
    }
    bias_filler {
      type: "constant"
    }
  }
}
layer {
  name: "ip2"
  type: "InnerProduct"
  bottom: "ip1"
  top: "ip2"
  param {
    lr_mult: 1
  }
  param {
    lr_mult: 2
  }
  inner_product_param {
    num_output: 64
    weight_filler {
      type: "gaussian"
      std: 0.1
    }
    bias_filler {
      type: "constant"
    }
  }
}
layer {
  name: "ip3"
  type: "InnerProduct"
  bottom: "ip2"
  top: "ip3"
  param {
    lr_mult: 1
  }
  param {
    lr_mult: 2
  }
  inner_product_param {
    num_output: 50
    weight_filler {
      type: "gaussian"
      std: 0.1
    }
    bias_filler {
      type: "constant"
    }
  }
}
layer {
  name: "accuracy"
  type: "Accuracy"
  bottom: "ip3"
  bottom: "label"
  top: "accuracy"
  include {
    phase: TEST
  }
}
layer {
  name: "loss"
  type: "SoftmaxWithLoss"
  bottom: "ip3"
  bottom: "label"
  top: "loss"
}
I0502 19:26:08.217555 12635 layer_factory.hpp:77] Creating layer intercept
I0502 19:26:08.217574 12635 net.cpp:94] Creating Layer intercept
I0502 19:26:08.217586 12635 net.cpp:409] intercept -> data
I0502 19:26:08.217602 12635 net.cpp:409] intercept -> label
I0502 19:26:08.217617 12635 hdf5_data_layer.cpp:79] Loading list of HDF5 filenames from: /home/purduethu/scratch/radon/d/deng106/CNNStatisticalModel/distributions/input/5_distributions_900_sample_size_test-distributions-path.txt
I0502 19:26:08.217653 12635 hdf5_data_layer.cpp:93] Number of HDF5 files: 1
I0502 19:26:08.280516 12635 net.cpp:144] Setting up intercept
I0502 19:26:08.280565 12635 net.cpp:151] Top shape: 20 1 30 30 (18000)
I0502 19:26:08.280577 12635 net.cpp:151] Top shape: 20 (20)
I0502 19:26:08.280583 12635 net.cpp:159] Memory required for data: 72080
I0502 19:26:08.280592 12635 layer_factory.hpp:77] Creating layer label_intercept_1_split
I0502 19:26:08.280616 12635 net.cpp:94] Creating Layer label_intercept_1_split
I0502 19:26:08.280623 12635 net.cpp:435] label_intercept_1_split <- label
I0502 19:26:08.280633 12635 net.cpp:409] label_intercept_1_split -> label_intercept_1_split_0
I0502 19:26:08.280647 12635 net.cpp:409] label_intercept_1_split -> label_intercept_1_split_1
I0502 19:26:08.280704 12635 net.cpp:144] Setting up label_intercept_1_split
I0502 19:26:08.280715 12635 net.cpp:151] Top shape: 20 (20)
I0502 19:26:08.280722 12635 net.cpp:151] Top shape: 20 (20)
I0502 19:26:08.280728 12635 net.cpp:159] Memory required for data: 72240
I0502 19:26:08.280735 12635 layer_factory.hpp:77] Creating layer conv1
I0502 19:26:08.280750 12635 net.cpp:94] Creating Layer conv1
I0502 19:26:08.280757 12635 net.cpp:435] conv1 <- data
I0502 19:26:08.280766 12635 net.cpp:409] conv1 -> conv1
I0502 19:26:08.283246 12635 net.cpp:144] Setting up conv1
I0502 19:26:08.283283 12635 net.cpp:151] Top shape: 20 64 30 30 (1152000)
I0502 19:26:08.283293 12635 net.cpp:159] Memory required for data: 4680240
I0502 19:26:08.283308 12635 layer_factory.hpp:77] Creating layer relu1
I0502 19:26:08.283320 12635 net.cpp:94] Creating Layer relu1
I0502 19:26:08.283327 12635 net.cpp:435] relu1 <- conv1
I0502 19:26:08.283336 12635 net.cpp:396] relu1 -> conv1 (in-place)
I0502 19:26:08.283349 12635 net.cpp:144] Setting up relu1
I0502 19:26:08.283359 12635 net.cpp:151] Top shape: 20 64 30 30 (1152000)
I0502 19:26:08.283365 12635 net.cpp:159] Memory required for data: 9288240
I0502 19:26:08.283370 12635 layer_factory.hpp:77] Creating layer conv2
I0502 19:26:08.283385 12635 net.cpp:94] Creating Layer conv2
I0502 19:26:08.283391 12635 net.cpp:435] conv2 <- conv1
I0502 19:26:08.283401 12635 net.cpp:409] conv2 -> conv2
I0502 19:26:08.292438 12635 net.cpp:144] Setting up conv2
I0502 19:26:08.292462 12635 net.cpp:151] Top shape: 20 64 30 30 (1152000)
I0502 19:26:08.292469 12635 net.cpp:159] Memory required for data: 13896240
I0502 19:26:08.292484 12635 layer_factory.hpp:77] Creating layer relu2
I0502 19:26:08.292495 12635 net.cpp:94] Creating Layer relu2
I0502 19:26:08.292501 12635 net.cpp:435] relu2 <- conv2
I0502 19:26:08.292510 12635 net.cpp:396] relu2 -> conv2 (in-place)
I0502 19:26:08.292521 12635 net.cpp:144] Setting up relu2
I0502 19:26:08.292529 12635 net.cpp:151] Top shape: 20 64 30 30 (1152000)
I0502 19:26:08.292536 12635 net.cpp:159] Memory required for data: 18504240
I0502 19:26:08.292541 12635 layer_factory.hpp:77] Creating layer pool2
I0502 19:26:08.292562 12635 net.cpp:94] Creating Layer pool2
I0502 19:26:08.292572 12635 net.cpp:435] pool2 <- conv2
I0502 19:26:08.292579 12635 net.cpp:409] pool2 -> pool2
I0502 19:26:08.292639 12635 net.cpp:144] Setting up pool2
I0502 19:26:08.292649 12635 net.cpp:151] Top shape: 20 64 15 15 (288000)
I0502 19:26:08.292654 12635 net.cpp:159] Memory required for data: 19656240
I0502 19:26:08.292660 12635 layer_factory.hpp:77] Creating layer conv3
I0502 19:26:08.292673 12635 net.cpp:94] Creating Layer conv3
I0502 19:26:08.292680 12635 net.cpp:435] conv3 <- pool2
I0502 19:26:08.292688 12635 net.cpp:409] conv3 -> conv3
I0502 19:26:08.301017 12635 net.cpp:144] Setting up conv3
I0502 19:26:08.301040 12635 net.cpp:151] Top shape: 20 64 15 15 (288000)
I0502 19:26:08.301048 12635 net.cpp:159] Memory required for data: 20808240
I0502 19:26:08.301061 12635 layer_factory.hpp:77] Creating layer relu3
I0502 19:26:08.301072 12635 net.cpp:94] Creating Layer relu3
I0502 19:26:08.301079 12635 net.cpp:435] relu3 <- conv3
I0502 19:26:08.301086 12635 net.cpp:396] relu3 -> conv3 (in-place)
I0502 19:26:08.301098 12635 net.cpp:144] Setting up relu3
I0502 19:26:08.301106 12635 net.cpp:151] Top shape: 20 64 15 15 (288000)
I0502 19:26:08.301111 12635 net.cpp:159] Memory required for data: 21960240
I0502 19:26:08.301116 12635 layer_factory.hpp:77] Creating layer conv4
I0502 19:26:08.301128 12635 net.cpp:94] Creating Layer conv4
I0502 19:26:08.301134 12635 net.cpp:435] conv4 <- conv3
I0502 19:26:08.301142 12635 net.cpp:409] conv4 -> conv4
I0502 19:26:08.311626 12635 net.cpp:144] Setting up conv4
I0502 19:26:08.311650 12635 net.cpp:151] Top shape: 20 64 15 15 (288000)
I0502 19:26:08.311657 12635 net.cpp:159] Memory required for data: 23112240
I0502 19:26:08.311668 12635 layer_factory.hpp:77] Creating layer relu4
I0502 19:26:08.311677 12635 net.cpp:94] Creating Layer relu4
I0502 19:26:08.311691 12635 net.cpp:435] relu4 <- conv4
I0502 19:26:08.311699 12635 net.cpp:396] relu4 -> conv4 (in-place)
I0502 19:26:08.311712 12635 net.cpp:144] Setting up relu4
I0502 19:26:08.311719 12635 net.cpp:151] Top shape: 20 64 15 15 (288000)
I0502 19:26:08.311724 12635 net.cpp:159] Memory required for data: 24264240
I0502 19:26:08.311729 12635 layer_factory.hpp:77] Creating layer conv5
I0502 19:26:08.311741 12635 net.cpp:94] Creating Layer conv5
I0502 19:26:08.311748 12635 net.cpp:435] conv5 <- conv4
I0502 19:26:08.311756 12635 net.cpp:409] conv5 -> conv5
I0502 19:26:08.318538 12635 net.cpp:144] Setting up conv5
I0502 19:26:08.318562 12635 net.cpp:151] Top shape: 20 64 15 15 (288000)
I0502 19:26:08.318569 12635 net.cpp:159] Memory required for data: 25416240
I0502 19:26:08.318583 12635 layer_factory.hpp:77] Creating layer relu5
I0502 19:26:08.318593 12635 net.cpp:94] Creating Layer relu5
I0502 19:26:08.318599 12635 net.cpp:435] relu5 <- conv5
I0502 19:26:08.318608 12635 net.cpp:396] relu5 -> conv5 (in-place)
I0502 19:26:08.318619 12635 net.cpp:144] Setting up relu5
I0502 19:26:08.318626 12635 net.cpp:151] Top shape: 20 64 15 15 (288000)
I0502 19:26:08.318631 12635 net.cpp:159] Memory required for data: 26568240
I0502 19:26:08.318636 12635 layer_factory.hpp:77] Creating layer pool5
I0502 19:26:08.318645 12635 net.cpp:94] Creating Layer pool5
I0502 19:26:08.318650 12635 net.cpp:435] pool5 <- conv5
I0502 19:26:08.318657 12635 net.cpp:409] pool5 -> pool5
I0502 19:26:08.318698 12635 net.cpp:144] Setting up pool5
I0502 19:26:08.318708 12635 net.cpp:151] Top shape: 20 64 7 7 (62720)
I0502 19:26:08.318713 12635 net.cpp:159] Memory required for data: 26819120
I0502 19:26:08.318719 12635 layer_factory.hpp:77] Creating layer ip1
I0502 19:26:08.318729 12635 net.cpp:94] Creating Layer ip1
I0502 19:26:08.318735 12635 net.cpp:435] ip1 <- pool5
I0502 19:26:08.318743 12635 net.cpp:409] ip1 -> ip1
I0502 19:26:08.327941 12635 net.cpp:144] Setting up ip1
I0502 19:26:08.327962 12635 net.cpp:151] Top shape: 20 64 (1280)
I0502 19:26:08.327970 12635 net.cpp:159] Memory required for data: 26824240
I0502 19:26:08.327978 12635 layer_factory.hpp:77] Creating layer ip2
I0502 19:26:08.327989 12635 net.cpp:94] Creating Layer ip2
I0502 19:26:08.327996 12635 net.cpp:435] ip2 <- ip1
I0502 19:26:08.328004 12635 net.cpp:409] ip2 -> ip2
I0502 19:26:08.328291 12635 net.cpp:144] Setting up ip2
I0502 19:26:08.328301 12635 net.cpp:151] Top shape: 20 64 (1280)
I0502 19:26:08.328307 12635 net.cpp:159] Memory required for data: 26829360
I0502 19:26:08.328315 12635 layer_factory.hpp:77] Creating layer ip3
I0502 19:26:08.328326 12635 net.cpp:94] Creating Layer ip3
I0502 19:26:08.328332 12635 net.cpp:435] ip3 <- ip2
I0502 19:26:08.328341 12635 net.cpp:409] ip3 -> ip3
I0502 19:26:08.328598 12635 net.cpp:144] Setting up ip3
I0502 19:26:08.328611 12635 net.cpp:151] Top shape: 20 50 (1000)
I0502 19:26:08.328616 12635 net.cpp:159] Memory required for data: 26833360
I0502 19:26:08.328625 12635 layer_factory.hpp:77] Creating layer ip3_ip3_0_split
I0502 19:26:08.328634 12635 net.cpp:94] Creating Layer ip3_ip3_0_split
I0502 19:26:08.328639 12635 net.cpp:435] ip3_ip3_0_split <- ip3
I0502 19:26:08.328647 12635 net.cpp:409] ip3_ip3_0_split -> ip3_ip3_0_split_0
I0502 19:26:08.328656 12635 net.cpp:409] ip3_ip3_0_split -> ip3_ip3_0_split_1
I0502 19:26:08.328696 12635 net.cpp:144] Setting up ip3_ip3_0_split
I0502 19:26:08.328706 12635 net.cpp:151] Top shape: 20 50 (1000)
I0502 19:26:08.328712 12635 net.cpp:151] Top shape: 20 50 (1000)
I0502 19:26:08.328717 12635 net.cpp:159] Memory required for data: 26841360
I0502 19:26:08.328722 12635 layer_factory.hpp:77] Creating layer accuracy
I0502 19:26:08.328732 12635 net.cpp:94] Creating Layer accuracy
I0502 19:26:08.328737 12635 net.cpp:435] accuracy <- ip3_ip3_0_split_0
I0502 19:26:08.328743 12635 net.cpp:435] accuracy <- label_intercept_1_split_0
I0502 19:26:08.328750 12635 net.cpp:409] accuracy -> accuracy
…
