…
I0507 04:24:46.034355 31376 net.cpp:323] The NetState phase (0) differed from the phase (1) specified by a rule in layer intercept
I0507 04:24:46.034371 31376 net.cpp:323] The NetState phase (0) differed from the phase (1) specified by a rule in layer loss
I0507 04:24:46.034451 31376 net.cpp:52] Initializing net from parameters: 
state {
  phase: TRAIN
}
layer {
  name: "parameters"
  type: "HDF5Data"
  top: "data"
  top: "label"
  include {
    phase: TRAIN
  }
  hdf5_data_param {
    source: "/home/purduethu/scratch/radon/d/deng106/CNNStatisticalModel/distributions/input/50_distributions_100_sample_size_train-parameters-path.txt"
    batch_size: 20
  }
}
layer {
  name: "conv1"
  type: "Convolution"
  bottom: "data"
  top: "conv1"
  param {
    lr_mult: 1
  }
  param {
    lr_mult: 2
  }
  convolution_param {
    num_output: 64
    pad: 2
    kernel_size: 5
    stride: 1
    weight_filler {
      type: "gaussian"
      std: 0.0001
    }
    bias_filler {
      type: "constant"
    }
  }
}
layer {
  name: "relu1"
  type: "ReLU"
  bottom: "conv1"
  top: "conv1"
}
layer {
  name: "conv2"
  type: "Convolution"
  bottom: "conv1"
  top: "conv2"
  param {
    lr_mult: 1
  }
  param {
    lr_mult: 2
  }
  convolution_param {
    num_output: 64
    pad: 2
    kernel_size: 5
    stride: 1
    weight_filler {
      type: "gaussian"
      std: 0.01
    }
    bias_filler {
      type: "constant"
    }
  }
}
layer {
  name: "relu2"
  type: "ReLU"
  bottom: "conv2"
  top: "conv2"
}
layer {
  name: "pool2"
  type: "Pooling"
  bottom: "conv2"
  top: "pool2"
  pooling_param {
    pool: MAX
    kernel_size: 3
    stride: 2
  }
}
layer {
  name: "conv3"
  type: "Convolution"
  bottom: "pool2"
  top: "conv3"
  param {
    lr_mult: 1
  }
  param {
    lr_mult: 2
  }
  convolution_param {
    num_output: 64
    pad: 2
    kernel_size: 5
    stride: 1
    weight_filler {
      type: "gaussian"
      std: 0.01
    }
    bias_filler {
      type: "constant"
    }
  }
}
layer {
  name: "relu3"
  type: "ReLU"
  bottom: "conv3"
  top: "conv3"
}
layer {
  name: "conv4"
  type: "Convolution"
  bottom: "conv3"
  top: "conv4"
  param {
    lr_mult: 1
  }
  param {
    lr_mult: 2
  }
  convolution_param {
    num_output: 64
    pad: 2
    kernel_size: 5
    stride: 1
    weight_filler {
      type: "gaussian"
      std: 0.01
    }
    bias_filler {
      type: "constant"
    }
  }
}
layer {
  name: "relu4"
  type: "ReLU"
  bottom: "conv4"
  top: "conv4"
}
layer {
  name: "conv5"
  type: "Convolution"
  bottom: "conv4"
  top: "conv5"
  param {
    lr_mult: 1
  }
  param {
    lr_mult: 2
  }
  convolution_param {
    num_output: 64
    pad: 2
    kernel_size: 5
    stride: 1
    weight_filler {
      type: "gaussian"
      std: 0.01
    }
    bias_filler {
      type: "constant"
    }
  }
}
layer {
  name: "relu5"
  type: "ReLU"
  bottom: "conv5"
  top: "conv5"
}
layer {
  name: "pool5"
  type: "Pooling"
  bottom: "conv5"
  top: "pool5"
  pooling_param {
    pool: AVE
    kernel_size: 3
    stride: 2
  }
}
layer {
  name: "ip1"
  type: "InnerProduct"
  bottom: "pool5"
  top: "ip1"
  param {
    lr_mult: 1
  }
  param {
    lr_mult: 2
  }
  inner_product_param {
    num_output: 64
    weight_filler {
      type: "gaussian"
      std: 0.1
    }
    bias_filler {
      type: "constant"
    }
  }
}
layer {
  name: "ip2"
  type: "InnerProduct"
  bottom: "ip1"
  top: "ip2"
  param {
    lr_mult: 1
  }
  param {
    lr_mult: 2
  }
  inner_product_param {
    num_output: 64
    weight_filler {
      type: "gaussian"
      std: 0.1
    }
    bias_filler {
      type: "constant"
    }
  }
}
layer {
  name: "ip3"
  type: "InnerProduct"
  bottom: "ip2"
  top: "ip3"
  param {
    lr_mult: 1
  }
  param {
    lr_mult: 2
  }
  inner_product_param {
    num_output: 1
    weight_filler {
      type: "gaussian"
      std: 0.1
    }
    bias_filler {
      type: "constant"
    }
  }
}
layer {
  name: "loss"
  type: "HuberLoss"
  bottom: "ip3"
  bottom: "label"
  top: "loss"
  include {
    phase: TRAIN
  }
}
I0507 04:24:46.034503 31376 layer_factory.hpp:77] Creating layer parameters
I0507 04:24:46.034520 31376 net.cpp:94] Creating Layer parameters
I0507 04:24:46.034525 31376 net.cpp:409] parameters -> data
I0507 04:24:46.034533 31376 net.cpp:409] parameters -> label
I0507 04:24:46.034540 31376 hdf5_data_layer.cpp:79] Loading list of HDF5 filenames from: /home/purduethu/scratch/radon/d/deng106/CNNStatisticalModel/distributions/input/50_distributions_100_sample_size_train-parameters-path.txt
I0507 04:24:46.034554 31376 hdf5_data_layer.cpp:93] Number of HDF5 files: 1
I0507 04:24:46.035068 31376 hdf5.cpp:32] Datatype class: H5T_FLOAT
I0507 04:24:46.195590 31376 net.cpp:144] Setting up parameters
I0507 04:24:46.195621 31376 net.cpp:151] Top shape: 20 1 10 10 (2000)
I0507 04:24:46.195626 31376 net.cpp:151] Top shape: 20 (20)
I0507 04:24:46.195628 31376 net.cpp:159] Memory required for data: 8080
I0507 04:24:46.195634 31376 layer_factory.hpp:77] Creating layer conv1
I0507 04:24:46.195650 31376 net.cpp:94] Creating Layer conv1
I0507 04:24:46.195654 31376 net.cpp:435] conv1 <- data
I0507 04:24:46.195660 31376 net.cpp:409] conv1 -> conv1
I0507 04:24:46.200067 31376 net.cpp:144] Setting up conv1
I0507 04:24:46.200115 31376 net.cpp:151] Top shape: 20 64 10 10 (128000)
I0507 04:24:46.200127 31376 net.cpp:159] Memory required for data: 520080
I0507 04:24:46.200153 31376 layer_factory.hpp:77] Creating layer relu1
I0507 04:24:46.200172 31376 net.cpp:94] Creating Layer relu1
I0507 04:24:46.200182 31376 net.cpp:435] relu1 <- conv1
I0507 04:24:46.200194 31376 net.cpp:396] relu1 -> conv1 (in-place)
I0507 04:24:46.200214 31376 net.cpp:144] Setting up relu1
I0507 04:24:46.200227 31376 net.cpp:151] Top shape: 20 64 10 10 (128000)
I0507 04:24:46.200235 31376 net.cpp:159] Memory required for data: 1032080
I0507 04:24:46.200243 31376 layer_factory.hpp:77] Creating layer conv2
I0507 04:24:46.200263 31376 net.cpp:94] Creating Layer conv2
I0507 04:24:46.200273 31376 net.cpp:435] conv2 <- conv1
I0507 04:24:46.200286 31376 net.cpp:409] conv2 -> conv2
I0507 04:24:46.213948 31376 net.cpp:144] Setting up conv2
I0507 04:24:46.213982 31376 net.cpp:151] Top shape: 20 64 10 10 (128000)
I0507 04:24:46.213992 31376 net.cpp:159] Memory required for data: 1544080
I0507 04:24:46.214013 31376 layer_factory.hpp:77] Creating layer relu2
I0507 04:24:46.214030 31376 net.cpp:94] Creating Layer relu2
I0507 04:24:46.214038 31376 net.cpp:435] relu2 <- conv2
I0507 04:24:46.214051 31376 net.cpp:396] relu2 -> conv2 (in-place)
I0507 04:24:46.214067 31376 net.cpp:144] Setting up relu2
I0507 04:24:46.214078 31376 net.cpp:151] Top shape: 20 64 10 10 (128000)
I0507 04:24:46.214087 31376 net.cpp:159] Memory required for data: 2056080
I0507 04:24:46.214094 31376 layer_factory.hpp:77] Creating layer pool2
I0507 04:24:46.214107 31376 net.cpp:94] Creating Layer pool2
I0507 04:24:46.214113 31376 net.cpp:435] pool2 <- conv2
I0507 04:24:46.214125 31376 net.cpp:409] pool2 -> pool2
I0507 04:24:46.214267 31376 net.cpp:144] Setting up pool2
I0507 04:24:46.214283 31376 net.cpp:151] Top shape: 20 64 5 5 (32000)
I0507 04:24:46.214293 31376 net.cpp:159] Memory required for data: 2184080
I0507 04:24:46.214300 31376 layer_factory.hpp:77] Creating layer conv3
I0507 04:24:46.214318 31376 net.cpp:94] Creating Layer conv3
I0507 04:24:46.214328 31376 net.cpp:435] conv3 <- pool2
I0507 04:24:46.214350 31376 net.cpp:409] conv3 -> conv3
I0507 04:24:46.225126 31376 net.cpp:144] Setting up conv3
I0507 04:24:46.225157 31376 net.cpp:151] Top shape: 20 64 5 5 (32000)
I0507 04:24:46.225167 31376 net.cpp:159] Memory required for data: 2312080
I0507 04:24:46.225186 31376 layer_factory.hpp:77] Creating layer relu3
I0507 04:24:46.225199 31376 net.cpp:94] Creating Layer relu3
I0507 04:24:46.225208 31376 net.cpp:435] relu3 <- conv3
I0507 04:24:46.225219 31376 net.cpp:396] relu3 -> conv3 (in-place)
I0507 04:24:46.225234 31376 net.cpp:144] Setting up relu3
I0507 04:24:46.225244 31376 net.cpp:151] Top shape: 20 64 5 5 (32000)
I0507 04:24:46.225252 31376 net.cpp:159] Memory required for data: 2440080
I0507 04:24:46.225258 31376 layer_factory.hpp:77] Creating layer conv4
I0507 04:24:46.225277 31376 net.cpp:94] Creating Layer conv4
I0507 04:24:46.225286 31376 net.cpp:435] conv4 <- conv3
I0507 04:24:46.225297 31376 net.cpp:409] conv4 -> conv4
I0507 04:24:46.234375 31376 net.cpp:144] Setting up conv4
I0507 04:24:46.234406 31376 net.cpp:151] Top shape: 20 64 5 5 (32000)
I0507 04:24:46.234416 31376 net.cpp:159] Memory required for data: 2568080
I0507 04:24:46.234431 31376 layer_factory.hpp:77] Creating layer relu4
I0507 04:24:46.234443 31376 net.cpp:94] Creating Layer relu4
I0507 04:24:46.234452 31376 net.cpp:435] relu4 <- conv4
I0507 04:24:46.234462 31376 net.cpp:396] relu4 -> conv4 (in-place)
I0507 04:24:46.234477 31376 net.cpp:144] Setting up relu4
I0507 04:24:46.234488 31376 net.cpp:151] Top shape: 20 64 5 5 (32000)
I0507 04:24:46.234495 31376 net.cpp:159] Memory required for data: 2696080
I0507 04:24:46.234503 31376 layer_factory.hpp:77] Creating layer conv5
I0507 04:24:46.234519 31376 net.cpp:94] Creating Layer conv5
I0507 04:24:46.234526 31376 net.cpp:435] conv5 <- conv4
I0507 04:24:46.234539 31376 net.cpp:409] conv5 -> conv5
I0507 04:24:46.244186 31376 net.cpp:144] Setting up conv5
I0507 04:24:46.244215 31376 net.cpp:151] Top shape: 20 64 5 5 (32000)
I0507 04:24:46.244225 31376 net.cpp:159] Memory required for data: 2824080
I0507 04:24:46.244243 31376 layer_factory.hpp:77] Creating layer relu5
I0507 04:24:46.244256 31376 net.cpp:94] Creating Layer relu5
I0507 04:24:46.244262 31376 net.cpp:435] relu5 <- conv5
I0507 04:24:46.244273 31376 net.cpp:396] relu5 -> conv5 (in-place)
I0507 04:24:46.244288 31376 net.cpp:144] Setting up relu5
I0507 04:24:46.244297 31376 net.cpp:151] Top shape: 20 64 5 5 (32000)
I0507 04:24:46.244304 31376 net.cpp:159] Memory required for data: 2952080
I0507 04:24:46.244310 31376 layer_factory.hpp:77] Creating layer pool5
I0507 04:24:46.244320 31376 net.cpp:94] Creating Layer pool5
I0507 04:24:46.244328 31376 net.cpp:435] pool5 <- conv5
I0507 04:24:46.244336 31376 net.cpp:409] pool5 -> pool5
I0507 04:24:46.244418 31376 net.cpp:144] Setting up pool5
I0507 04:24:46.244433 31376 net.cpp:151] Top shape: 20 64 2 2 (5120)
I0507 04:24:46.244441 31376 net.cpp:159] Memory required for data: 2972560
I0507 04:24:46.244447 31376 layer_factory.hpp:77] Creating layer ip1
I0507 04:24:46.244465 31376 net.cpp:94] Creating Layer ip1
I0507 04:24:46.244473 31376 net.cpp:435] ip1 <- pool5
I0507 04:24:46.244484 31376 net.cpp:409] ip1 -> ip1
I0507 04:24:46.247176 31376 net.cpp:144] Setting up ip1
I0507 04:24:46.247203 31376 net.cpp:151] Top shape: 20 64 (1280)
I0507 04:24:46.247212 31376 net.cpp:159] Memory required for data: 2977680
I0507 04:24:46.247225 31376 layer_factory.hpp:77] Creating layer ip2
I0507 04:24:46.247239 31376 net.cpp:94] Creating Layer ip2
I0507 04:24:46.247247 31376 net.cpp:435] ip2 <- ip1
I0507 04:24:46.247259 31376 net.cpp:409] ip2 -> ip2
I0507 04:24:46.247759 31376 net.cpp:144] Setting up ip2
I0507 04:24:46.247774 31376 net.cpp:151] Top shape: 20 64 (1280)
I0507 04:24:46.247782 31376 net.cpp:159] Memory required for data: 2982800
I0507 04:24:46.247793 31376 layer_factory.hpp:77] Creating layer ip3
I0507 04:24:46.247805 31376 net.cpp:94] Creating Layer ip3
I0507 04:24:46.247812 31376 net.cpp:435] ip3 <- ip2
I0507 04:24:46.247822 31376 net.cpp:409] ip3 -> ip3
I0507 04:24:46.248081 31376 net.cpp:144] Setting up ip3
I0507 04:24:46.248096 31376 net.cpp:151] Top shape: 20 1 (20)
I0507 04:24:46.248103 31376 net.cpp:159] Memory required for data: 2982880
I0507 04:24:46.248114 31376 layer_factory.hpp:77] Creating layer loss
I0507 04:24:46.248136 31376 net.cpp:94] Creating Layer loss
I0507 04:24:46.248144 31376 net.cpp:435] loss <- ip3
I0507 04:24:46.248152 31376 net.cpp:435] loss <- label
I0507 04:24:46.248162 31376 net.cpp:409] loss -> loss
I0507 04:24:46.248280 31376 net.cpp:144] Setting up loss
…
I0507 04:24:46.345198 31376 net.cpp:323] The NetState phase (0) differed from the phase (1) specified by a rule in layer intercept
I0507 04:24:46.345221 31376 net.cpp:323] The NetState phase (0) differed from the phase (1) specified by a rule in layer accuracy
I0507 04:24:46.345350 31376 net.cpp:52] Initializing net from parameters: 
state {
  phase: TRAIN
}
layer {
  name: "parameters"
  type: "HDF5Data"
  top: "data"
  top: "label"
  include {
    phase: TRAIN
  }
  hdf5_data_param {
    source: "/home/purduethu/scratch/radon/d/deng106/CNNStatisticalModel/distributions/input/50_distributions_100_sample_size_train-distributions-path.txt"
    batch_size: 20
  }
}
layer {
  name: "conv1"
  type: "Convolution"
  bottom: "data"
  top: "conv1"
  param {
    lr_mult: 1
  }
  param {
    lr_mult: 2
  }
  convolution_param {
    num_output: 64
    pad: 2
    kernel_size: 5
    stride: 1
    weight_filler {
      type: "gaussian"
      std: 0.0001
    }
    bias_filler {
      type: "constant"
    }
  }
}
layer {
  name: "relu1"
  type: "ReLU"
  bottom: "conv1"
  top: "conv1"
}
layer {
  name: "conv2"
  type: "Convolution"
  bottom: "conv1"
  top: "conv2"
  param {
    lr_mult: 1
  }
  param {
    lr_mult: 2
  }
  convolution_param {
    num_output: 64
    pad: 2
    kernel_size: 5
    stride: 1
    weight_filler {
      type: "gaussian"
      std: 0.01
    }
    bias_filler {
      type: "constant"
    }
  }
}
layer {
  name: "relu2"
  type: "ReLU"
  bottom: "conv2"
  top: "conv2"
}
layer {
  name: "pool2"
  type: "Pooling"
  bottom: "conv2"
  top: "pool2"
  pooling_param {
    pool: MAX
    kernel_size: 3
    stride: 2
  }
}
layer {
  name: "conv3"
  type: "Convolution"
  bottom: "pool2"
  top: "conv3"
  param {
    lr_mult: 1
  }
  param {
    lr_mult: 2
  }
  convolution_param {
    num_output: 64
    pad: 2
    kernel_size: 5
    stride: 1
    weight_filler {
      type: "gaussian"
      std: 0.01
    }
    bias_filler {
      type: "constant"
    }
  }
}
layer {
  name: "relu3"
  type: "ReLU"
  bottom: "conv3"
  top: "conv3"
}
layer {
  name: "conv4"
  type: "Convolution"
  bottom: "conv3"
  top: "conv4"
  param {
    lr_mult: 1
  }
  param {
    lr_mult: 2
  }
  convolution_param {
    num_output: 64
    pad: 2
    kernel_size: 5
    stride: 1
    weight_filler {
      type: "gaussian"
      std: 0.01
    }
    bias_filler {
      type: "constant"
    }
  }
}
layer {
  name: "relu4"
  type: "ReLU"
  bottom: "conv4"
  top: "conv4"
}
layer {
  name: "conv5"
  type: "Convolution"
  bottom: "conv4"
  top: "conv5"
  param {
    lr_mult: 1
  }
  param {
    lr_mult: 2
  }
  convolution_param {
    num_output: 64
    pad: 2
    kernel_size: 5
    stride: 1
    weight_filler {
      type: "gaussian"
      std: 0.01
    }
    bias_filler {
      type: "constant"
    }
  }
}
layer {
  name: "relu5"
  type: "ReLU"
  bottom: "conv5"
  top: "conv5"
}
layer {
  name: "pool5"
  type: "Pooling"
  bottom: "conv5"
  top: "pool5"
  pooling_param {
    pool: AVE
    kernel_size: 3
    stride: 2
  }
}
layer {
  name: "ip1"
  type: "InnerProduct"
  bottom: "pool5"
  top: "ip1"
  param {
    lr_mult: 1
  }
  param {
    lr_mult: 2
  }
  inner_product_param {
    num_output: 64
    weight_filler {
      type: "gaussian"
      std: 0.1
    }
    bias_filler {
      type: "constant"
    }
  }
}
layer {
  name: "ip2"
  type: "InnerProduct"
  bottom: "ip1"
  top: "ip2"
  param {
    lr_mult: 1
  }
  param {
    lr_mult: 2
  }
  inner_product_param {
    num_output: 64
    weight_filler {
      type: "gaussian"
      std: 0.1
    }
    bias_filler {
      type: "constant"
    }
  }
}
layer {
  name: "ip3"
  type: "InnerProduct"
  bottom: "ip2"
  top: "ip3"
  param {
    lr_mult: 1
  }
  param {
    lr_mult: 2
  }
  inner_product_param {
    num_output: 50
    weight_filler {
      type: "gaussian"
      std: 0.1
    }
    bias_filler {
      type: "constant"
    }
  }
}
layer {
  name: "loss"
  type: "SoftmaxWithLoss"
  bottom: "ip3"
  bottom: "label"
  top: "loss"
}
I0507 04:24:46.345423 31376 layer_factory.hpp:77] Creating layer parameters
I0507 04:24:46.345435 31376 net.cpp:94] Creating Layer parameters
I0507 04:24:46.345440 31376 net.cpp:409] parameters -> data
I0507 04:24:46.345450 31376 net.cpp:409] parameters -> label
I0507 04:24:46.345458 31376 hdf5_data_layer.cpp:79] Loading list of HDF5 filenames from: /home/purduethu/scratch/radon/d/deng106/CNNStatisticalModel/distributions/input/50_distributions_100_sample_size_train-distributions-path.txt
I0507 04:24:46.345479 31376 hdf5_data_layer.cpp:93] Number of HDF5 files: 1
I0507 04:24:46.524240 31376 hdf5.cpp:35] Datatype class: H5T_INTEGER
I0507 04:24:46.527395 31376 net.cpp:144] Setting up parameters
I0507 04:24:46.527410 31376 net.cpp:151] Top shape: 20 1 10 10 (2000)
I0507 04:24:46.527415 31376 net.cpp:151] Top shape: 20 (20)
I0507 04:24:46.527420 31376 net.cpp:159] Memory required for data: 8080
I0507 04:24:46.527426 31376 layer_factory.hpp:77] Creating layer conv1
I0507 04:24:46.527441 31376 net.cpp:94] Creating Layer conv1
I0507 04:24:46.527446 31376 net.cpp:435] conv1 <- data
I0507 04:24:46.527451 31376 net.cpp:409] conv1 -> conv1
I0507 04:24:46.529317 31376 net.cpp:144] Setting up conv1
I0507 04:24:46.529332 31376 net.cpp:151] Top shape: 20 64 10 10 (128000)
I0507 04:24:46.529336 31376 net.cpp:159] Memory required for data: 520080
I0507 04:24:46.529346 31376 layer_factory.hpp:77] Creating layer relu1
I0507 04:24:46.529353 31376 net.cpp:94] Creating Layer relu1
I0507 04:24:46.529357 31376 net.cpp:435] relu1 <- conv1
I0507 04:24:46.529361 31376 net.cpp:396] relu1 -> conv1 (in-place)
I0507 04:24:46.529369 31376 net.cpp:144] Setting up relu1
I0507 04:24:46.529373 31376 net.cpp:151] Top shape: 20 64 10 10 (128000)
I0507 04:24:46.529376 31376 net.cpp:159] Memory required for data: 1032080
I0507 04:24:46.529379 31376 layer_factory.hpp:77] Creating layer conv2
I0507 04:24:46.529386 31376 net.cpp:94] Creating Layer conv2
I0507 04:24:46.529391 31376 net.cpp:435] conv2 <- conv1
I0507 04:24:46.529394 31376 net.cpp:409] conv2 -> conv2
I0507 04:24:46.534795 31376 net.cpp:144] Setting up conv2
I0507 04:24:46.534809 31376 net.cpp:151] Top shape: 20 64 10 10 (128000)
I0507 04:24:46.534813 31376 net.cpp:159] Memory required for data: 1544080
I0507 04:24:46.534821 31376 layer_factory.hpp:77] Creating layer relu2
I0507 04:24:46.534827 31376 net.cpp:94] Creating Layer relu2
I0507 04:24:46.534832 31376 net.cpp:435] relu2 <- conv2
I0507 04:24:46.534835 31376 net.cpp:396] relu2 -> conv2 (in-place)
I0507 04:24:46.534842 31376 net.cpp:144] Setting up relu2
I0507 04:24:46.534847 31376 net.cpp:151] Top shape: 20 64 10 10 (128000)
I0507 04:24:46.534849 31376 net.cpp:159] Memory required for data: 2056080
I0507 04:24:46.534852 31376 layer_factory.hpp:77] Creating layer pool2
I0507 04:24:46.534858 31376 net.cpp:94] Creating Layer pool2
I0507 04:24:46.534862 31376 net.cpp:435] pool2 <- conv2
I0507 04:24:46.534865 31376 net.cpp:409] pool2 -> pool2
I0507 04:24:46.534921 31376 net.cpp:144] Setting up pool2
I0507 04:24:46.534929 31376 net.cpp:151] Top shape: 20 64 5 5 (32000)
I0507 04:24:46.534932 31376 net.cpp:159] Memory required for data: 2184080
I0507 04:24:46.534935 31376 layer_factory.hpp:77] Creating layer conv3
I0507 04:24:46.534943 31376 net.cpp:94] Creating Layer conv3
I0507 04:24:46.534946 31376 net.cpp:435] conv3 <- pool2
I0507 04:24:46.534951 31376 net.cpp:409] conv3 -> conv3
I0507 04:24:46.540802 31376 net.cpp:144] Setting up conv3
I0507 04:24:46.540817 31376 net.cpp:151] Top shape: 20 64 5 5 (32000)
I0507 04:24:46.540820 31376 net.cpp:159] Memory required for data: 2312080
I0507 04:24:46.540828 31376 layer_factory.hpp:77] Creating layer relu3
I0507 04:24:46.540834 31376 net.cpp:94] Creating Layer relu3
I0507 04:24:46.540838 31376 net.cpp:435] relu3 <- conv3
I0507 04:24:46.540843 31376 net.cpp:396] relu3 -> conv3 (in-place)
I0507 04:24:46.540849 31376 net.cpp:144] Setting up relu3
I0507 04:24:46.540853 31376 net.cpp:151] Top shape: 20 64 5 5 (32000)
I0507 04:24:46.540863 31376 net.cpp:159] Memory required for data: 2440080
I0507 04:24:46.540866 31376 layer_factory.hpp:77] Creating layer conv4
I0507 04:24:46.540875 31376 net.cpp:94] Creating Layer conv4
I0507 04:24:46.540879 31376 net.cpp:435] conv4 <- conv3
I0507 04:24:46.540884 31376 net.cpp:409] conv4 -> conv4
I0507 04:24:46.545883 31376 net.cpp:144] Setting up conv4
I0507 04:24:46.545898 31376 net.cpp:151] Top shape: 20 64 5 5 (32000)
I0507 04:24:46.545902 31376 net.cpp:159] Memory required for data: 2568080
I0507 04:24:46.545908 31376 layer_factory.hpp:77] Creating layer relu4
I0507 04:24:46.545914 31376 net.cpp:94] Creating Layer relu4
I0507 04:24:46.545917 31376 net.cpp:435] relu4 <- conv4
I0507 04:24:46.545922 31376 net.cpp:396] relu4 -> conv4 (in-place)
I0507 04:24:46.545929 31376 net.cpp:144] Setting up relu4
I0507 04:24:46.545933 31376 net.cpp:151] Top shape: 20 64 5 5 (32000)
I0507 04:24:46.545936 31376 net.cpp:159] Memory required for data: 2696080
I0507 04:24:46.545939 31376 layer_factory.hpp:77] Creating layer conv5
I0507 04:24:46.545946 31376 net.cpp:94] Creating Layer conv5
I0507 04:24:46.545950 31376 net.cpp:435] conv5 <- conv4
I0507 04:24:46.545955 31376 net.cpp:409] conv5 -> conv5
I0507 04:24:46.550494 31376 net.cpp:144] Setting up conv5
I0507 04:24:46.550508 31376 net.cpp:151] Top shape: 20 64 5 5 (32000)
I0507 04:24:46.550513 31376 net.cpp:159] Memory required for data: 2824080
I0507 04:24:46.550520 31376 layer_factory.hpp:77] Creating layer relu5
I0507 04:24:46.550526 31376 net.cpp:94] Creating Layer relu5
I0507 04:24:46.550529 31376 net.cpp:435] relu5 <- conv5
I0507 04:24:46.550534 31376 net.cpp:396] relu5 -> conv5 (in-place)
I0507 04:24:46.550540 31376 net.cpp:144] Setting up relu5
I0507 04:24:46.550545 31376 net.cpp:151] Top shape: 20 64 5 5 (32000)
I0507 04:24:46.550549 31376 net.cpp:159] Memory required for data: 2952080
I0507 04:24:46.550551 31376 layer_factory.hpp:77] Creating layer pool5
I0507 04:24:46.550556 31376 net.cpp:94] Creating Layer pool5
I0507 04:24:46.550559 31376 net.cpp:435] pool5 <- conv5
I0507 04:24:46.550564 31376 net.cpp:409] pool5 -> pool5
I0507 04:24:46.550601 31376 net.cpp:144] Setting up pool5
I0507 04:24:46.550607 31376 net.cpp:151] Top shape: 20 64 2 2 (5120)
I0507 04:24:46.550611 31376 net.cpp:159] Memory required for data: 2972560
I0507 04:24:46.550613 31376 layer_factory.hpp:77] Creating layer ip1
I0507 04:24:46.550621 31376 net.cpp:94] Creating Layer ip1
I0507 04:24:46.550623 31376 net.cpp:435] ip1 <- pool5
I0507 04:24:46.550628 31376 net.cpp:409] ip1 -> ip1
I0507 04:24:46.551162 31376 net.cpp:144] Setting up ip1
I0507 04:24:46.551170 31376 net.cpp:151] Top shape: 20 64 (1280)
I0507 04:24:46.551173 31376 net.cpp:159] Memory required for data: 2977680
I0507 04:24:46.551178 31376 layer_factory.hpp:77] Creating layer ip2
I0507 04:24:46.551184 31376 net.cpp:94] Creating Layer ip2
I0507 04:24:46.551187 31376 net.cpp:435] ip2 <- ip1
I0507 04:24:46.551192 31376 net.cpp:409] ip2 -> ip2
I0507 04:24:46.551425 31376 net.cpp:144] Setting up ip2
I0507 04:24:46.551432 31376 net.cpp:151] Top shape: 20 64 (1280)
I0507 04:24:46.551435 31376 net.cpp:159] Memory required for data: 2982800
I0507 04:24:46.551440 31376 layer_factory.hpp:77] Creating layer ip3
I0507 04:24:46.551446 31376 net.cpp:94] Creating Layer ip3
I0507 04:24:46.551450 31376 net.cpp:435] ip3 <- ip2
I0507 04:24:46.551455 31376 net.cpp:409] ip3 -> ip3
I0507 04:24:46.551659 31376 net.cpp:144] Setting up ip3
I0507 04:24:46.551666 31376 net.cpp:151] Top shape: 20 50 (1000)
I0507 04:24:46.551669 31376 net.cpp:159] Memory required for data: 2986800
I0507 04:24:46.551674 31376 layer_factory.hpp:77] Creating layer loss
I0507 04:24:46.551681 31376 net.cpp:94] Creating Layer loss
I0507 04:24:46.551683 31376 net.cpp:435] loss <- ip3
I0507 04:24:46.551687 31376 net.cpp:435] loss <- label
I0507 04:24:46.551692 31376 net.cpp:409] loss -> loss
I0507 04:24:46.551698 31376 layer_factory.hpp:77] Creating layer loss
…
I0507 04:24:46.553071 31376 solver.cpp:181] Creating test net (#0) specified by net file: ./protocol/dis_50_100_dimension.protocol_distribution
I0507 04:24:46.553098 31376 net.cpp:323] The NetState phase (1) differed from the phase (0) specified by a rule in layer parameters
I0507 04:24:46.553205 31376 net.cpp:52] Initializing net from parameters: 
state {
  phase: TEST
}
layer {
  name: "intercept"
  type: "HDF5Data"
  top: "data"
  top: "label"
  include {
    phase: TEST
  }
  hdf5_data_param {
    source: "/home/purduethu/scratch/radon/d/deng106/CNNStatisticalModel/distributions/input/50_distributions_100_sample_size_test-distributions-path.txt"
    batch_size: 20
  }
}
layer {
  name: "conv1"
  type: "Convolution"
  bottom: "data"
  top: "conv1"
  param {
    lr_mult: 1
  }
  param {
    lr_mult: 2
  }
  convolution_param {
    num_output: 64
    pad: 2
    kernel_size: 5
    stride: 1
    weight_filler {
      type: "gaussian"
      std: 0.0001
    }
    bias_filler {
      type: "constant"
    }
  }
}
layer {
  name: "relu1"
  type: "ReLU"
  bottom: "conv1"
  top: "conv1"
}
layer {
  name: "conv2"
  type: "Convolution"
  bottom: "conv1"
  top: "conv2"
  param {
    lr_mult: 1
  }
  param {
    lr_mult: 2
  }
  convolution_param {
    num_output: 64
    pad: 2
    kernel_size: 5
    stride: 1
    weight_filler {
      type: "gaussian"
      std: 0.01
    }
    bias_filler {
      type: "constant"
    }
  }
}
layer {
  name: "relu2"
  type: "ReLU"
  bottom: "conv2"
  top: "conv2"
}
layer {
  name: "pool2"
  type: "Pooling"
  bottom: "conv2"
  top: "pool2"
  pooling_param {
    pool: MAX
    kernel_size: 3
    stride: 2
  }
}
layer {
  name: "conv3"
  type: "Convolution"
  bottom: "pool2"
  top: "conv3"
  param {
    lr_mult: 1
  }
  param {
    lr_mult: 2
  }
  convolution_param {
    num_output: 64
    pad: 2
    kernel_size: 5
    stride: 1
    weight_filler {
      type: "gaussian"
      std: 0.01
    }
    bias_filler {
      type: "constant"
    }
  }
}
layer {
  name: "relu3"
  type: "ReLU"
  bottom: "conv3"
  top: "conv3"
}
layer {
  name: "conv4"
  type: "Convolution"
  bottom: "conv3"
  top: "conv4"
  param {
    lr_mult: 1
  }
  param {
    lr_mult: 2
  }
  convolution_param {
    num_output: 64
    pad: 2
    kernel_size: 5
    stride: 1
    weight_filler {
      type: "gaussian"
      std: 0.01
    }
    bias_filler {
      type: "constant"
    }
  }
}
layer {
  name: "relu4"
  type: "ReLU"
  bottom: "conv4"
  top: "conv4"
}
layer {
  name: "conv5"
  type: "Convolution"
  bottom: "conv4"
  top: "conv5"
  param {
    lr_mult: 1
  }
  param {
    lr_mult: 2
  }
  convolution_param {
    num_output: 64
    pad: 2
    kernel_size: 5
    stride: 1
    weight_filler {
      type: "gaussian"
      std: 0.01
    }
    bias_filler {
      type: "constant"
    }
  }
}
layer {
  name: "relu5"
  type: "ReLU"
  bottom: "conv5"
  top: "conv5"
}
layer {
  name: "pool5"
  type: "Pooling"
  bottom: "conv5"
  top: "pool5"
  pooling_param {
    pool: AVE
    kernel_size: 3
    stride: 2
  }
}
layer {
  name: "ip1"
  type: "InnerProduct"
  bottom: "pool5"
  top: "ip1"
  param {
    lr_mult: 1
  }
  param {
    lr_mult: 2
  }
  inner_product_param {
    num_output: 64
    weight_filler {
      type: "gaussian"
      std: 0.1
    }
    bias_filler {
      type: "constant"
    }
  }
}
layer {
  name: "ip2"
  type: "InnerProduct"
  bottom: "ip1"
  top: "ip2"
  param {
    lr_mult: 1
  }
  param {
    lr_mult: 2
  }
  inner_product_param {
    num_output: 64
    weight_filler {
      type: "gaussian"
      std: 0.1
    }
    bias_filler {
      type: "constant"
    }
  }
}
layer {
  name: "ip3"
  type: "InnerProduct"
  bottom: "ip2"
  top: "ip3"
  param {
    lr_mult: 1
  }
  param {
    lr_mult: 2
  }
  inner_product_param {
    num_output: 50
    weight_filler {
      type: "gaussian"
      std: 0.1
    }
    bias_filler {
      type: "constant"
    }
  }
}
layer {
  name: "accuracy"
  type: "Accuracy"
  bottom: "ip3"
  bottom: "label"
  top: "accuracy"
  include {
    phase: TEST
  }
}
layer {
  name: "loss"
  type: "SoftmaxWithLoss"
  bottom: "ip3"
  bottom: "label"
  top: "loss"
}
I0507 04:24:46.553272 31376 layer_factory.hpp:77] Creating layer intercept
I0507 04:24:46.553280 31376 net.cpp:94] Creating Layer intercept
I0507 04:24:46.553284 31376 net.cpp:409] intercept -> data
I0507 04:24:46.553292 31376 net.cpp:409] intercept -> label
I0507 04:24:46.553297 31376 hdf5_data_layer.cpp:79] Loading list of HDF5 filenames from: /home/purduethu/scratch/radon/d/deng106/CNNStatisticalModel/distributions/input/50_distributions_100_sample_size_test-distributions-path.txt
I0507 04:24:46.553316 31376 hdf5_data_layer.cpp:93] Number of HDF5 files: 1
I0507 04:24:46.596202 31376 net.cpp:144] Setting up intercept
I0507 04:24:46.596236 31376 net.cpp:151] Top shape: 20 1 10 10 (2000)
I0507 04:24:46.596241 31376 net.cpp:151] Top shape: 20 (20)
I0507 04:24:46.596246 31376 net.cpp:159] Memory required for data: 8080
I0507 04:24:46.596251 31376 layer_factory.hpp:77] Creating layer label_intercept_1_split
I0507 04:24:46.596271 31376 net.cpp:94] Creating Layer label_intercept_1_split
I0507 04:24:46.596276 31376 net.cpp:435] label_intercept_1_split <- label
I0507 04:24:46.596282 31376 net.cpp:409] label_intercept_1_split -> label_intercept_1_split_0
I0507 04:24:46.596292 31376 net.cpp:409] label_intercept_1_split -> label_intercept_1_split_1
I0507 04:24:46.596336 31376 net.cpp:144] Setting up label_intercept_1_split
I0507 04:24:46.596343 31376 net.cpp:151] Top shape: 20 (20)
I0507 04:24:46.596346 31376 net.cpp:151] Top shape: 20 (20)
I0507 04:24:46.596349 31376 net.cpp:159] Memory required for data: 8240
I0507 04:24:46.596352 31376 layer_factory.hpp:77] Creating layer conv1
I0507 04:24:46.596364 31376 net.cpp:94] Creating Layer conv1
I0507 04:24:46.596366 31376 net.cpp:435] conv1 <- data
I0507 04:24:46.596371 31376 net.cpp:409] conv1 -> conv1
I0507 04:24:46.597278 31376 net.cpp:144] Setting up conv1
I0507 04:24:46.597292 31376 net.cpp:151] Top shape: 20 64 10 10 (128000)
I0507 04:24:46.597296 31376 net.cpp:159] Memory required for data: 520240
I0507 04:24:46.597306 31376 layer_factory.hpp:77] Creating layer relu1
I0507 04:24:46.597312 31376 net.cpp:94] Creating Layer relu1
I0507 04:24:46.597316 31376 net.cpp:435] relu1 <- conv1
I0507 04:24:46.597321 31376 net.cpp:396] relu1 -> conv1 (in-place)
I0507 04:24:46.597328 31376 net.cpp:144] Setting up relu1
I0507 04:24:46.597332 31376 net.cpp:151] Top shape: 20 64 10 10 (128000)
I0507 04:24:46.597335 31376 net.cpp:159] Memory required for data: 1032240
I0507 04:24:46.597345 31376 layer_factory.hpp:77] Creating layer conv2
I0507 04:24:46.597354 31376 net.cpp:94] Creating Layer conv2
I0507 04:24:46.597357 31376 net.cpp:435] conv2 <- conv1
I0507 04:24:46.597362 31376 net.cpp:409] conv2 -> conv2
I0507 04:24:46.601549 31376 net.cpp:144] Setting up conv2
I0507 04:24:46.601563 31376 net.cpp:151] Top shape: 20 64 10 10 (128000)
I0507 04:24:46.601567 31376 net.cpp:159] Memory required for data: 1544240
I0507 04:24:46.601575 31376 layer_factory.hpp:77] Creating layer relu2
I0507 04:24:46.601582 31376 net.cpp:94] Creating Layer relu2
I0507 04:24:46.601585 31376 net.cpp:435] relu2 <- conv2
I0507 04:24:46.601589 31376 net.cpp:396] relu2 -> conv2 (in-place)
I0507 04:24:46.601595 31376 net.cpp:144] Setting up relu2
I0507 04:24:46.601600 31376 net.cpp:151] Top shape: 20 64 10 10 (128000)
I0507 04:24:46.601603 31376 net.cpp:159] Memory required for data: 2056240
I0507 04:24:46.601606 31376 layer_factory.hpp:77] Creating layer pool2
I0507 04:24:46.601613 31376 net.cpp:94] Creating Layer pool2
I0507 04:24:46.601616 31376 net.cpp:435] pool2 <- conv2
I0507 04:24:46.601620 31376 net.cpp:409] pool2 -> pool2
I0507 04:24:46.601680 31376 net.cpp:144] Setting up pool2
I0507 04:24:46.601687 31376 net.cpp:151] Top shape: 20 64 5 5 (32000)
I0507 04:24:46.601691 31376 net.cpp:159] Memory required for data: 2184240
I0507 04:24:46.601693 31376 layer_factory.hpp:77] Creating layer conv3
I0507 04:24:46.601703 31376 net.cpp:94] Creating Layer conv3
I0507 04:24:46.601706 31376 net.cpp:435] conv3 <- pool2
I0507 04:24:46.601711 31376 net.cpp:409] conv3 -> conv3
I0507 04:24:46.606254 31376 net.cpp:144] Setting up conv3
I0507 04:24:46.606268 31376 net.cpp:151] Top shape: 20 64 5 5 (32000)
I0507 04:24:46.606272 31376 net.cpp:159] Memory required for data: 2312240
I0507 04:24:46.606281 31376 layer_factory.hpp:77] Creating layer relu3
I0507 04:24:46.606288 31376 net.cpp:94] Creating Layer relu3
I0507 04:24:46.606292 31376 net.cpp:435] relu3 <- conv3
I0507 04:24:46.606297 31376 net.cpp:396] relu3 -> conv3 (in-place)
I0507 04:24:46.606304 31376 net.cpp:144] Setting up relu3
I0507 04:24:46.606308 31376 net.cpp:151] Top shape: 20 64 5 5 (32000)
I0507 04:24:46.606312 31376 net.cpp:159] Memory required for data: 2440240
I0507 04:24:46.606314 31376 layer_factory.hpp:77] Creating layer conv4
I0507 04:24:46.606323 31376 net.cpp:94] Creating Layer conv4
I0507 04:24:46.606326 31376 net.cpp:435] conv4 <- conv3
I0507 04:24:46.606331 31376 net.cpp:409] conv4 -> conv4
I0507 04:24:46.609984 31376 net.cpp:144] Setting up conv4
I0507 04:24:46.609997 31376 net.cpp:151] Top shape: 20 64 5 5 (32000)
I0507 04:24:46.610002 31376 net.cpp:159] Memory required for data: 2568240
I0507 04:24:46.610008 31376 layer_factory.hpp:77] Creating layer relu4
I0507 04:24:46.610014 31376 net.cpp:94] Creating Layer relu4
I0507 04:24:46.610018 31376 net.cpp:435] relu4 <- conv4
I0507 04:24:46.610023 31376 net.cpp:396] relu4 -> conv4 (in-place)
I0507 04:24:46.610028 31376 net.cpp:144] Setting up relu4
I0507 04:24:46.610033 31376 net.cpp:151] Top shape: 20 64 5 5 (32000)
I0507 04:24:46.610036 31376 net.cpp:159] Memory required for data: 2696240
I0507 04:24:46.610039 31376 layer_factory.hpp:77] Creating layer conv5
I0507 04:24:46.610047 31376 net.cpp:94] Creating Layer conv5
I0507 04:24:46.610050 31376 net.cpp:435] conv5 <- conv4
I0507 04:24:46.610056 31376 net.cpp:409] conv5 -> conv5
I0507 04:24:46.614152 31376 net.cpp:144] Setting up conv5
I0507 04:24:46.614166 31376 net.cpp:151] Top shape: 20 64 5 5 (32000)
I0507 04:24:46.614171 31376 net.cpp:159] Memory required for data: 2824240
I0507 04:24:46.614178 31376 layer_factory.hpp:77] Creating layer relu5
I0507 04:24:46.614184 31376 net.cpp:94] Creating Layer relu5
I0507 04:24:46.614187 31376 net.cpp:435] relu5 <- conv5
I0507 04:24:46.614193 31376 net.cpp:396] relu5 -> conv5 (in-place)
I0507 04:24:46.614200 31376 net.cpp:144] Setting up relu5
I0507 04:24:46.614204 31376 net.cpp:151] Top shape: 20 64 5 5 (32000)
I0507 04:24:46.614207 31376 net.cpp:159] Memory required for data: 2952240
I0507 04:24:46.614213 31376 layer_factory.hpp:77] Creating layer pool5
I0507 04:24:46.614219 31376 net.cpp:94] Creating Layer pool5
I0507 04:24:46.614223 31376 net.cpp:435] pool5 <- conv5
I0507 04:24:46.614228 31376 net.cpp:409] pool5 -> pool5
I0507 04:24:46.614267 31376 net.cpp:144] Setting up pool5
I0507 04:24:46.614274 31376 net.cpp:151] Top shape: 20 64 2 2 (5120)
I0507 04:24:46.614277 31376 net.cpp:159] Memory required for data: 2972720
I0507 04:24:46.614280 31376 layer_factory.hpp:77] Creating layer ip1
I0507 04:24:46.614289 31376 net.cpp:94] Creating Layer ip1
I0507 04:24:46.614291 31376 net.cpp:435] ip1 <- pool5
I0507 04:24:46.614296 31376 net.cpp:409] ip1 -> ip1
I0507 04:24:46.614843 31376 net.cpp:144] Setting up ip1
I0507 04:24:46.614851 31376 net.cpp:151] Top shape: 20 64 (1280)
I0507 04:24:46.614855 31376 net.cpp:159] Memory required for data: 2977840
I0507 04:24:46.614859 31376 layer_factory.hpp:77] Creating layer ip2
I0507 04:24:46.614866 31376 net.cpp:94] Creating Layer ip2
I0507 04:24:46.614869 31376 net.cpp:435] ip2 <- ip1
I0507 04:24:46.614874 31376 net.cpp:409] ip2 -> ip2
I0507 04:24:46.615115 31376 net.cpp:144] Setting up ip2
I0507 04:24:46.615123 31376 net.cpp:151] Top shape: 20 64 (1280)
I0507 04:24:46.615125 31376 net.cpp:159] Memory required for data: 2982960
I0507 04:24:46.615130 31376 layer_factory.hpp:77] Creating layer ip3
I0507 04:24:46.615137 31376 net.cpp:94] Creating Layer ip3
I0507 04:24:46.615140 31376 net.cpp:435] ip3 <- ip2
I0507 04:24:46.615146 31376 net.cpp:409] ip3 -> ip3
I0507 04:24:46.615365 31376 net.cpp:144] Setting up ip3
I0507 04:24:46.615371 31376 net.cpp:151] Top shape: 20 50 (1000)
I0507 04:24:46.615375 31376 net.cpp:159] Memory required for data: 2986960
I0507 04:24:46.615381 31376 layer_factory.hpp:77] Creating layer ip3_ip3_0_split
I0507 04:24:46.615384 31376 net.cpp:94] Creating Layer ip3_ip3_0_split
I0507 04:24:46.615387 31376 net.cpp:435] ip3_ip3_0_split <- ip3
I0507 04:24:46.615393 31376 net.cpp:409] ip3_ip3_0_split -> ip3_ip3_0_split_0
I0507 04:24:46.615398 31376 net.cpp:409] ip3_ip3_0_split -> ip3_ip3_0_split_1
I0507 04:24:46.615443 31376 net.cpp:144] Setting up ip3_ip3_0_split
I0507 04:24:46.615449 31376 net.cpp:151] Top shape: 20 50 (1000)
I0507 04:24:46.615453 31376 net.cpp:151] Top shape: 20 50 (1000)
I0507 04:24:46.615455 31376 net.cpp:159] Memory required for data: 2994960
I0507 04:24:46.615459 31376 layer_factory.hpp:77] Creating layer accuracy
I0507 04:24:46.615464 31376 net.cpp:94] Creating Layer accuracy
I0507 04:24:46.615468 31376 net.cpp:435] accuracy <- ip3_ip3_0_split_0
I0507 04:24:46.615471 31376 net.cpp:435] accuracy <- label_intercept_1_split_0
I0507 04:24:46.615475 31376 net.cpp:409] accuracy -> accuracy
…
