…
I0506 08:26:28.909052 20854 net.cpp:323] The NetState phase (0) differed from the phase (1) specified by a rule in layer intercept
I0506 08:26:28.909068 20854 net.cpp:323] The NetState phase (0) differed from the phase (1) specified by a rule in layer loss
I0506 08:26:28.909147 20854 net.cpp:52] Initializing net from parameters: 
state {
  phase: TRAIN
}
layer {
  name: "parameters"
  type: "HDF5Data"
  top: "data"
  top: "label"
  include {
    phase: TRAIN
  }
  hdf5_data_param {
    source: "/home/purduethu/scratch/radon/d/deng106/CNNStatisticalModel/distributions/input/50_distributions_100_sample_size_train-parameters-path.txt"
    batch_size: 20
  }
}
layer {
  name: "conv1"
  type: "Convolution"
  bottom: "data"
  top: "conv1"
  param {
    lr_mult: 1
  }
  param {
    lr_mult: 2
  }
  convolution_param {
    num_output: 64
    pad: 2
    kernel_size: 5
    stride: 1
    weight_filler {
      type: "gaussian"
      std: 0.0001
    }
    bias_filler {
      type: "constant"
    }
  }
}
layer {
  name: "relu1"
  type: "ReLU"
  bottom: "conv1"
  top: "conv1"
}
layer {
  name: "conv2"
  type: "Convolution"
  bottom: "conv1"
  top: "conv2"
  param {
    lr_mult: 1
  }
  param {
    lr_mult: 2
  }
  convolution_param {
    num_output: 64
    pad: 2
    kernel_size: 5
    stride: 1
    weight_filler {
      type: "gaussian"
      std: 0.01
    }
    bias_filler {
      type: "constant"
    }
  }
}
layer {
  name: "relu2"
  type: "ReLU"
  bottom: "conv2"
  top: "conv2"
}
layer {
  name: "pool2"
  type: "Pooling"
  bottom: "conv2"
  top: "pool2"
  pooling_param {
    pool: MAX
    kernel_size: 3
    stride: 2
  }
}
layer {
  name: "conv3"
  type: "Convolution"
  bottom: "pool2"
  top: "conv3"
  param {
    lr_mult: 1
  }
  param {
    lr_mult: 2
  }
  convolution_param {
    num_output: 128
    pad: 2
    kernel_size: 5
    stride: 1
    weight_filler {
      type: "gaussian"
      std: 0.01
    }
    bias_filler {
      type: "constant"
    }
  }
}
layer {
  name: "relu3"
  type: "ReLU"
  bottom: "conv3"
  top: "conv3"
}
layer {
  name: "conv4"
  type: "Convolution"
  bottom: "conv3"
  top: "conv4"
  param {
    lr_mult: 1
  }
  param {
    lr_mult: 2
  }
  convolution_param {
    num_output: 128
    pad: 2
    kernel_size: 5
    stride: 1
    weight_filler {
      type: "gaussian"
      std: 0.01
    }
    bias_filler {
      type: "constant"
    }
  }
}
layer {
  name: "relu4"
  type: "ReLU"
  bottom: "conv4"
  top: "conv4"
}
layer {
  name: "conv5"
  type: "Convolution"
  bottom: "conv4"
  top: "conv5"
  param {
    lr_mult: 1
  }
  param {
    lr_mult: 2
  }
  convolution_param {
    num_output: 128
    pad: 2
    kernel_size: 5
    stride: 1
    weight_filler {
      type: "gaussian"
      std: 0.01
    }
    bias_filler {
      type: "constant"
    }
  }
}
layer {
  name: "relu5"
  type: "ReLU"
  bottom: "conv5"
  top: "conv5"
}
layer {
  name: "pool5"
  type: "Pooling"
  bottom: "conv5"
  top: "pool5"
  pooling_param {
    pool: AVE
    kernel_size: 3
    stride: 2
  }
}
layer {
  name: "ip1"
  type: "InnerProduct"
  bottom: "pool5"
  top: "ip1"
  param {
    lr_mult: 1
  }
  param {
    lr_mult: 2
  }
  inner_product_param {
    num_output: 1024
    weight_filler {
      type: "gaussian"
      std: 0.1
    }
    bias_filler {
      type: "constant"
    }
  }
}
layer {
  name: "ip2"
  type: "InnerProduct"
  bottom: "ip1"
  top: "ip2"
  param {
    lr_mult: 1
  }
  param {
    lr_mult: 2
  }
  inner_product_param {
    num_output: 512
    weight_filler {
      type: "gaussian"
      std: 0.1
    }
    bias_filler {
      type: "constant"
    }
  }
}
layer {
  name: "ip3"
  type: "InnerProduct"
  bottom: "ip2"
  top: "ip3"
  param {
    lr_mult: 1
  }
  param {
    lr_mult: 2
  }
  inner_product_param {
    num_output: 1
    weight_filler {
      type: "gaussian"
      std: 0.1
    }
    bias_filler {
      type: "constant"
    }
  }
}
layer {
  name: "loss"
  type: "HuberLoss"
  bottom: "ip3"
  bottom: "label"
  top: "loss"
  include {
    phase: TRAIN
  }
}
I0506 08:26:28.909199 20854 layer_factory.hpp:77] Creating layer parameters
I0506 08:26:28.909216 20854 net.cpp:94] Creating Layer parameters
I0506 08:26:28.909221 20854 net.cpp:409] parameters -> data
I0506 08:26:28.909230 20854 net.cpp:409] parameters -> label
I0506 08:26:28.909237 20854 hdf5_data_layer.cpp:79] Loading list of HDF5 filenames from: /home/purduethu/scratch/radon/d/deng106/CNNStatisticalModel/distributions/input/50_distributions_100_sample_size_train-parameters-path.txt
I0506 08:26:28.909251 20854 hdf5_data_layer.cpp:93] Number of HDF5 files: 1
I0506 08:26:28.909793 20854 hdf5.cpp:32] Datatype class: H5T_FLOAT
I0506 08:26:29.071365 20854 net.cpp:144] Setting up parameters
I0506 08:26:29.071395 20854 net.cpp:151] Top shape: 20 1 10 10 (2000)
I0506 08:26:29.071401 20854 net.cpp:151] Top shape: 20 (20)
I0506 08:26:29.071404 20854 net.cpp:159] Memory required for data: 8080
I0506 08:26:29.071410 20854 layer_factory.hpp:77] Creating layer conv1
I0506 08:26:29.071426 20854 net.cpp:94] Creating Layer conv1
I0506 08:26:29.071431 20854 net.cpp:435] conv1 <- data
I0506 08:26:29.071437 20854 net.cpp:409] conv1 -> conv1
I0506 08:26:29.075539 20854 net.cpp:144] Setting up conv1
I0506 08:26:29.075554 20854 net.cpp:151] Top shape: 20 64 10 10 (128000)
I0506 08:26:29.075558 20854 net.cpp:159] Memory required for data: 520080
I0506 08:26:29.075568 20854 layer_factory.hpp:77] Creating layer relu1
I0506 08:26:29.075577 20854 net.cpp:94] Creating Layer relu1
I0506 08:26:29.075579 20854 net.cpp:435] relu1 <- conv1
I0506 08:26:29.075584 20854 net.cpp:396] relu1 -> conv1 (in-place)
I0506 08:26:29.075592 20854 net.cpp:144] Setting up relu1
I0506 08:26:29.075597 20854 net.cpp:151] Top shape: 20 64 10 10 (128000)
I0506 08:26:29.075599 20854 net.cpp:159] Memory required for data: 1032080
I0506 08:26:29.075603 20854 layer_factory.hpp:77] Creating layer conv2
I0506 08:26:29.075610 20854 net.cpp:94] Creating Layer conv2
I0506 08:26:29.075614 20854 net.cpp:435] conv2 <- conv1
I0506 08:26:29.075618 20854 net.cpp:409] conv2 -> conv2
I0506 08:26:29.081605 20854 net.cpp:144] Setting up conv2
I0506 08:26:29.081620 20854 net.cpp:151] Top shape: 20 64 10 10 (128000)
I0506 08:26:29.081624 20854 net.cpp:159] Memory required for data: 1544080
I0506 08:26:29.081632 20854 layer_factory.hpp:77] Creating layer relu2
I0506 08:26:29.081639 20854 net.cpp:94] Creating Layer relu2
I0506 08:26:29.081642 20854 net.cpp:435] relu2 <- conv2
I0506 08:26:29.081646 20854 net.cpp:396] relu2 -> conv2 (in-place)
I0506 08:26:29.081653 20854 net.cpp:144] Setting up relu2
I0506 08:26:29.081658 20854 net.cpp:151] Top shape: 20 64 10 10 (128000)
I0506 08:26:29.081660 20854 net.cpp:159] Memory required for data: 2056080
I0506 08:26:29.081663 20854 layer_factory.hpp:77] Creating layer pool2
I0506 08:26:29.081670 20854 net.cpp:94] Creating Layer pool2
I0506 08:26:29.081672 20854 net.cpp:435] pool2 <- conv2
I0506 08:26:29.081677 20854 net.cpp:409] pool2 -> pool2
I0506 08:26:29.081727 20854 net.cpp:144] Setting up pool2
I0506 08:26:29.081734 20854 net.cpp:151] Top shape: 20 64 5 5 (32000)
I0506 08:26:29.081738 20854 net.cpp:159] Memory required for data: 2184080
I0506 08:26:29.081742 20854 layer_factory.hpp:77] Creating layer conv3
I0506 08:26:29.081748 20854 net.cpp:94] Creating Layer conv3
I0506 08:26:29.081761 20854 net.cpp:435] conv3 <- pool2
I0506 08:26:29.081766 20854 net.cpp:409] conv3 -> conv3
I0506 08:26:29.089905 20854 net.cpp:144] Setting up conv3
I0506 08:26:29.089920 20854 net.cpp:151] Top shape: 20 128 5 5 (64000)
I0506 08:26:29.089922 20854 net.cpp:159] Memory required for data: 2440080
I0506 08:26:29.089931 20854 layer_factory.hpp:77] Creating layer relu3
I0506 08:26:29.089936 20854 net.cpp:94] Creating Layer relu3
I0506 08:26:29.089941 20854 net.cpp:435] relu3 <- conv3
I0506 08:26:29.089944 20854 net.cpp:396] relu3 -> conv3 (in-place)
I0506 08:26:29.089951 20854 net.cpp:144] Setting up relu3
I0506 08:26:29.089956 20854 net.cpp:151] Top shape: 20 128 5 5 (64000)
I0506 08:26:29.089958 20854 net.cpp:159] Memory required for data: 2696080
I0506 08:26:29.089962 20854 layer_factory.hpp:77] Creating layer conv4
I0506 08:26:29.089970 20854 net.cpp:94] Creating Layer conv4
I0506 08:26:29.089973 20854 net.cpp:435] conv4 <- conv3
I0506 08:26:29.089978 20854 net.cpp:409] conv4 -> conv4
I0506 08:26:29.120471 20854 net.cpp:144] Setting up conv4
I0506 08:26:29.120509 20854 net.cpp:151] Top shape: 20 128 5 5 (64000)
I0506 08:26:29.120522 20854 net.cpp:159] Memory required for data: 2952080
I0506 08:26:29.120539 20854 layer_factory.hpp:77] Creating layer relu4
I0506 08:26:29.120576 20854 net.cpp:94] Creating Layer relu4
I0506 08:26:29.120590 20854 net.cpp:435] relu4 <- conv4
I0506 08:26:29.120604 20854 net.cpp:396] relu4 -> conv4 (in-place)
I0506 08:26:29.120623 20854 net.cpp:144] Setting up relu4
I0506 08:26:29.120637 20854 net.cpp:151] Top shape: 20 128 5 5 (64000)
I0506 08:26:29.120645 20854 net.cpp:159] Memory required for data: 3208080
I0506 08:26:29.120654 20854 layer_factory.hpp:77] Creating layer conv5
I0506 08:26:29.120674 20854 net.cpp:94] Creating Layer conv5
I0506 08:26:29.120684 20854 net.cpp:435] conv5 <- conv4
I0506 08:26:29.120697 20854 net.cpp:409] conv5 -> conv5
I0506 08:26:29.136703 20854 net.cpp:144] Setting up conv5
I0506 08:26:29.136719 20854 net.cpp:151] Top shape: 20 128 5 5 (64000)
I0506 08:26:29.136723 20854 net.cpp:159] Memory required for data: 3464080
I0506 08:26:29.136731 20854 layer_factory.hpp:77] Creating layer relu5
I0506 08:26:29.136739 20854 net.cpp:94] Creating Layer relu5
I0506 08:26:29.136741 20854 net.cpp:435] relu5 <- conv5
I0506 08:26:29.136746 20854 net.cpp:396] relu5 -> conv5 (in-place)
I0506 08:26:29.136754 20854 net.cpp:144] Setting up relu5
I0506 08:26:29.136759 20854 net.cpp:151] Top shape: 20 128 5 5 (64000)
I0506 08:26:29.136761 20854 net.cpp:159] Memory required for data: 3720080
I0506 08:26:29.136765 20854 layer_factory.hpp:77] Creating layer pool5
I0506 08:26:29.136770 20854 net.cpp:94] Creating Layer pool5
I0506 08:26:29.136772 20854 net.cpp:435] pool5 <- conv5
I0506 08:26:29.136777 20854 net.cpp:409] pool5 -> pool5
I0506 08:26:29.136816 20854 net.cpp:144] Setting up pool5
I0506 08:26:29.136823 20854 net.cpp:151] Top shape: 20 128 2 2 (10240)
I0506 08:26:29.136826 20854 net.cpp:159] Memory required for data: 3761040
I0506 08:26:29.136829 20854 layer_factory.hpp:77] Creating layer ip1
I0506 08:26:29.136839 20854 net.cpp:94] Creating Layer ip1
I0506 08:26:29.136842 20854 net.cpp:435] ip1 <- pool5
I0506 08:26:29.136847 20854 net.cpp:409] ip1 -> ip1
I0506 08:26:29.153355 20854 net.cpp:144] Setting up ip1
I0506 08:26:29.153373 20854 net.cpp:151] Top shape: 20 1024 (20480)
I0506 08:26:29.153378 20854 net.cpp:159] Memory required for data: 3842960
I0506 08:26:29.153383 20854 layer_factory.hpp:77] Creating layer ip2
I0506 08:26:29.153391 20854 net.cpp:94] Creating Layer ip2
I0506 08:26:29.153395 20854 net.cpp:435] ip2 <- ip1
I0506 08:26:29.153400 20854 net.cpp:409] ip2 -> ip2
I0506 08:26:29.168570 20854 net.cpp:144] Setting up ip2
I0506 08:26:29.168586 20854 net.cpp:151] Top shape: 20 512 (10240)
I0506 08:26:29.168589 20854 net.cpp:159] Memory required for data: 3883920
I0506 08:26:29.168596 20854 layer_factory.hpp:77] Creating layer ip3
I0506 08:26:29.168602 20854 net.cpp:94] Creating Layer ip3
I0506 08:26:29.168606 20854 net.cpp:435] ip3 <- ip2
I0506 08:26:29.168617 20854 net.cpp:409] ip3 -> ip3
I0506 08:26:29.168735 20854 net.cpp:144] Setting up ip3
I0506 08:26:29.168742 20854 net.cpp:151] Top shape: 20 1 (20)
I0506 08:26:29.168746 20854 net.cpp:159] Memory required for data: 3884000
I0506 08:26:29.168751 20854 layer_factory.hpp:77] Creating layer loss
I0506 08:26:29.168764 20854 net.cpp:94] Creating Layer loss
I0506 08:26:29.168767 20854 net.cpp:435] loss <- ip3
I0506 08:26:29.168771 20854 net.cpp:435] loss <- label
I0506 08:26:29.168776 20854 net.cpp:409] loss -> loss
I0506 08:26:29.168825 20854 net.cpp:144] Setting up loss
…
I0506 08:26:29.275118 20854 net.cpp:323] The NetState phase (0) differed from the phase (1) specified by a rule in layer intercept
I0506 08:26:29.275133 20854 net.cpp:323] The NetState phase (0) differed from the phase (1) specified by a rule in layer accuracy
I0506 08:26:29.275218 20854 net.cpp:52] Initializing net from parameters: 
state {
  phase: TRAIN
}
layer {
  name: "parameters"
  type: "HDF5Data"
  top: "data"
  top: "label"
  include {
    phase: TRAIN
  }
  hdf5_data_param {
    source: "/home/purduethu/scratch/radon/d/deng106/CNNStatisticalModel/distributions/input/50_distributions_100_sample_size_train-distributions-path.txt"
    batch_size: 20
  }
}
layer {
  name: "conv1"
  type: "Convolution"
  bottom: "data"
  top: "conv1"
  param {
    lr_mult: 1
  }
  param {
    lr_mult: 2
  }
  convolution_param {
    num_output: 64
    pad: 2
    kernel_size: 5
    stride: 1
    weight_filler {
      type: "gaussian"
      std: 0.0001
    }
    bias_filler {
      type: "constant"
    }
  }
}
layer {
  name: "relu1"
  type: "ReLU"
  bottom: "conv1"
  top: "conv1"
}
layer {
  name: "conv2"
  type: "Convolution"
  bottom: "conv1"
  top: "conv2"
  param {
    lr_mult: 1
  }
  param {
    lr_mult: 2
  }
  convolution_param {
    num_output: 64
    pad: 2
    kernel_size: 5
    stride: 1
    weight_filler {
      type: "gaussian"
      std: 0.01
    }
    bias_filler {
      type: "constant"
    }
  }
}
layer {
  name: "relu2"
  type: "ReLU"
  bottom: "conv2"
  top: "conv2"
}
layer {
  name: "pool2"
  type: "Pooling"
  bottom: "conv2"
  top: "pool2"
  pooling_param {
    pool: MAX
    kernel_size: 3
    stride: 2
  }
}
layer {
  name: "conv3"
  type: "Convolution"
  bottom: "pool2"
  top: "conv3"
  param {
    lr_mult: 1
  }
  param {
    lr_mult: 2
  }
  convolution_param {
    num_output: 128
    pad: 2
    kernel_size: 5
    stride: 1
    weight_filler {
      type: "gaussian"
      std: 0.01
    }
    bias_filler {
      type: "constant"
    }
  }
}
layer {
  name: "relu3"
  type: "ReLU"
  bottom: "conv3"
  top: "conv3"
}
layer {
  name: "conv4"
  type: "Convolution"
  bottom: "conv3"
  top: "conv4"
  param {
    lr_mult: 1
  }
  param {
    lr_mult: 2
  }
  convolution_param {
    num_output: 128
    pad: 2
    kernel_size: 5
    stride: 1
    weight_filler {
      type: "gaussian"
      std: 0.01
    }
    bias_filler {
      type: "constant"
    }
  }
}
layer {
  name: "relu4"
  type: "ReLU"
  bottom: "conv4"
  top: "conv4"
}
layer {
  name: "conv5"
  type: "Convolution"
  bottom: "conv4"
  top: "conv5"
  param {
    lr_mult: 1
  }
  param {
    lr_mult: 2
  }
  convolution_param {
    num_output: 128
    pad: 2
    kernel_size: 5
    stride: 1
    weight_filler {
      type: "gaussian"
      std: 0.01
    }
    bias_filler {
      type: "constant"
    }
  }
}
layer {
  name: "relu5"
  type: "ReLU"
  bottom: "conv5"
  top: "conv5"
}
layer {
  name: "pool5"
  type: "Pooling"
  bottom: "conv5"
  top: "pool5"
  pooling_param {
    pool: AVE
    kernel_size: 3
    stride: 2
  }
}
layer {
  name: "ip1"
  type: "InnerProduct"
  bottom: "pool5"
  top: "ip1"
  param {
    lr_mult: 1
  }
  param {
    lr_mult: 2
  }
  inner_product_param {
    num_output: 1024
    weight_filler {
      type: "gaussian"
      std: 0.1
    }
    bias_filler {
      type: "constant"
    }
  }
}
layer {
  name: "ip2"
  type: "InnerProduct"
  bottom: "ip1"
  top: "ip2"
  param {
    lr_mult: 1
  }
  param {
    lr_mult: 2
  }
  inner_product_param {
    num_output: 512
    weight_filler {
      type: "gaussian"
      std: 0.1
    }
    bias_filler {
      type: "constant"
    }
  }
}
layer {
  name: "ip3"
  type: "InnerProduct"
  bottom: "ip2"
  top: "ip3"
  param {
    lr_mult: 1
  }
  param {
    lr_mult: 2
  }
  inner_product_param {
    num_output: 50
    weight_filler {
      type: "gaussian"
      std: 0.1
    }
    bias_filler {
      type: "constant"
    }
  }
}
layer {
  name: "loss"
  type: "SoftmaxWithLoss"
  bottom: "ip3"
  bottom: "label"
  top: "loss"
}
I0506 08:26:29.275267 20854 layer_factory.hpp:77] Creating layer parameters
I0506 08:26:29.275276 20854 net.cpp:94] Creating Layer parameters
I0506 08:26:29.275280 20854 net.cpp:409] parameters -> data
I0506 08:26:29.275286 20854 net.cpp:409] parameters -> label
I0506 08:26:29.275292 20854 hdf5_data_layer.cpp:79] Loading list of HDF5 filenames from: /home/purduethu/scratch/radon/d/deng106/CNNStatisticalModel/distributions/input/50_distributions_100_sample_size_train-distributions-path.txt
I0506 08:26:29.275308 20854 hdf5_data_layer.cpp:93] Number of HDF5 files: 1
I0506 08:26:29.431246 20854 hdf5.cpp:35] Datatype class: H5T_INTEGER
I0506 08:26:29.434240 20854 net.cpp:144] Setting up parameters
I0506 08:26:29.434257 20854 net.cpp:151] Top shape: 20 1 10 10 (2000)
I0506 08:26:29.434262 20854 net.cpp:151] Top shape: 20 (20)
I0506 08:26:29.434265 20854 net.cpp:159] Memory required for data: 8080
I0506 08:26:29.434272 20854 layer_factory.hpp:77] Creating layer conv1
I0506 08:26:29.434288 20854 net.cpp:94] Creating Layer conv1
I0506 08:26:29.434291 20854 net.cpp:435] conv1 <- data
I0506 08:26:29.434298 20854 net.cpp:409] conv1 -> conv1
I0506 08:26:29.436044 20854 net.cpp:144] Setting up conv1
I0506 08:26:29.436058 20854 net.cpp:151] Top shape: 20 64 10 10 (128000)
I0506 08:26:29.436061 20854 net.cpp:159] Memory required for data: 520080
I0506 08:26:29.436071 20854 layer_factory.hpp:77] Creating layer relu1
I0506 08:26:29.436079 20854 net.cpp:94] Creating Layer relu1
I0506 08:26:29.436081 20854 net.cpp:435] relu1 <- conv1
I0506 08:26:29.436086 20854 net.cpp:396] relu1 -> conv1 (in-place)
I0506 08:26:29.436094 20854 net.cpp:144] Setting up relu1
I0506 08:26:29.436098 20854 net.cpp:151] Top shape: 20 64 10 10 (128000)
I0506 08:26:29.436101 20854 net.cpp:159] Memory required for data: 1032080
I0506 08:26:29.436105 20854 layer_factory.hpp:77] Creating layer conv2
I0506 08:26:29.436111 20854 net.cpp:94] Creating Layer conv2
I0506 08:26:29.436115 20854 net.cpp:435] conv2 <- conv1
I0506 08:26:29.436120 20854 net.cpp:409] conv2 -> conv2
I0506 08:26:29.441470 20854 net.cpp:144] Setting up conv2
I0506 08:26:29.441483 20854 net.cpp:151] Top shape: 20 64 10 10 (128000)
I0506 08:26:29.441488 20854 net.cpp:159] Memory required for data: 1544080
I0506 08:26:29.441495 20854 layer_factory.hpp:77] Creating layer relu2
I0506 08:26:29.441501 20854 net.cpp:94] Creating Layer relu2
I0506 08:26:29.441505 20854 net.cpp:435] relu2 <- conv2
I0506 08:26:29.441509 20854 net.cpp:396] relu2 -> conv2 (in-place)
I0506 08:26:29.441516 20854 net.cpp:144] Setting up relu2
I0506 08:26:29.441520 20854 net.cpp:151] Top shape: 20 64 10 10 (128000)
I0506 08:26:29.441524 20854 net.cpp:159] Memory required for data: 2056080
I0506 08:26:29.441526 20854 layer_factory.hpp:77] Creating layer pool2
I0506 08:26:29.441532 20854 net.cpp:94] Creating Layer pool2
I0506 08:26:29.441535 20854 net.cpp:435] pool2 <- conv2
I0506 08:26:29.441540 20854 net.cpp:409] pool2 -> pool2
I0506 08:26:29.441591 20854 net.cpp:144] Setting up pool2
I0506 08:26:29.441598 20854 net.cpp:151] Top shape: 20 64 5 5 (32000)
I0506 08:26:29.441601 20854 net.cpp:159] Memory required for data: 2184080
I0506 08:26:29.441604 20854 layer_factory.hpp:77] Creating layer conv3
I0506 08:26:29.441612 20854 net.cpp:94] Creating Layer conv3
I0506 08:26:29.441615 20854 net.cpp:435] conv3 <- pool2
I0506 08:26:29.441620 20854 net.cpp:409] conv3 -> conv3
I0506 08:26:29.450306 20854 net.cpp:144] Setting up conv3
I0506 08:26:29.450320 20854 net.cpp:151] Top shape: 20 128 5 5 (64000)
I0506 08:26:29.450325 20854 net.cpp:159] Memory required for data: 2440080
I0506 08:26:29.450333 20854 layer_factory.hpp:77] Creating layer relu3
I0506 08:26:29.450340 20854 net.cpp:94] Creating Layer relu3
I0506 08:26:29.450342 20854 net.cpp:435] relu3 <- conv3
I0506 08:26:29.450347 20854 net.cpp:396] relu3 -> conv3 (in-place)
I0506 08:26:29.450359 20854 net.cpp:144] Setting up relu3
I0506 08:26:29.450364 20854 net.cpp:151] Top shape: 20 128 5 5 (64000)
I0506 08:26:29.450368 20854 net.cpp:159] Memory required for data: 2696080
I0506 08:26:29.450371 20854 layer_factory.hpp:77] Creating layer conv4
I0506 08:26:29.450379 20854 net.cpp:94] Creating Layer conv4
I0506 08:26:29.450382 20854 net.cpp:435] conv4 <- conv3
I0506 08:26:29.450387 20854 net.cpp:409] conv4 -> conv4
I0506 08:26:29.465147 20854 net.cpp:144] Setting up conv4
I0506 08:26:29.465162 20854 net.cpp:151] Top shape: 20 128 5 5 (64000)
I0506 08:26:29.465167 20854 net.cpp:159] Memory required for data: 2952080
I0506 08:26:29.465173 20854 layer_factory.hpp:77] Creating layer relu4
I0506 08:26:29.465178 20854 net.cpp:94] Creating Layer relu4
I0506 08:26:29.465183 20854 net.cpp:435] relu4 <- conv4
I0506 08:26:29.465186 20854 net.cpp:396] relu4 -> conv4 (in-place)
I0506 08:26:29.465193 20854 net.cpp:144] Setting up relu4
I0506 08:26:29.465198 20854 net.cpp:151] Top shape: 20 128 5 5 (64000)
I0506 08:26:29.465201 20854 net.cpp:159] Memory required for data: 3208080
I0506 08:26:29.465204 20854 layer_factory.hpp:77] Creating layer conv5
I0506 08:26:29.465212 20854 net.cpp:94] Creating Layer conv5
I0506 08:26:29.465215 20854 net.cpp:435] conv5 <- conv4
I0506 08:26:29.465220 20854 net.cpp:409] conv5 -> conv5
I0506 08:26:29.480212 20854 net.cpp:144] Setting up conv5
I0506 08:26:29.480226 20854 net.cpp:151] Top shape: 20 128 5 5 (64000)
I0506 08:26:29.480231 20854 net.cpp:159] Memory required for data: 3464080
I0506 08:26:29.480239 20854 layer_factory.hpp:77] Creating layer relu5
I0506 08:26:29.480245 20854 net.cpp:94] Creating Layer relu5
I0506 08:26:29.480249 20854 net.cpp:435] relu5 <- conv5
I0506 08:26:29.480254 20854 net.cpp:396] relu5 -> conv5 (in-place)
I0506 08:26:29.480262 20854 net.cpp:144] Setting up relu5
I0506 08:26:29.480265 20854 net.cpp:151] Top shape: 20 128 5 5 (64000)
I0506 08:26:29.480268 20854 net.cpp:159] Memory required for data: 3720080
I0506 08:26:29.480271 20854 layer_factory.hpp:77] Creating layer pool5
I0506 08:26:29.480276 20854 net.cpp:94] Creating Layer pool5
I0506 08:26:29.480279 20854 net.cpp:435] pool5 <- conv5
I0506 08:26:29.480284 20854 net.cpp:409] pool5 -> pool5
I0506 08:26:29.480320 20854 net.cpp:144] Setting up pool5
I0506 08:26:29.480329 20854 net.cpp:151] Top shape: 20 128 2 2 (10240)
I0506 08:26:29.480331 20854 net.cpp:159] Memory required for data: 3761040
I0506 08:26:29.480334 20854 layer_factory.hpp:77] Creating layer ip1
I0506 08:26:29.480341 20854 net.cpp:94] Creating Layer ip1
I0506 08:26:29.480345 20854 net.cpp:435] ip1 <- pool5
I0506 08:26:29.480350 20854 net.cpp:409] ip1 -> ip1
I0506 08:26:29.495555 20854 net.cpp:144] Setting up ip1
I0506 08:26:29.495569 20854 net.cpp:151] Top shape: 20 1024 (20480)
I0506 08:26:29.495573 20854 net.cpp:159] Memory required for data: 3842960
I0506 08:26:29.495579 20854 layer_factory.hpp:77] Creating layer ip2
I0506 08:26:29.495586 20854 net.cpp:94] Creating Layer ip2
I0506 08:26:29.495590 20854 net.cpp:435] ip2 <- ip1
I0506 08:26:29.495595 20854 net.cpp:409] ip2 -> ip2
I0506 08:26:29.510788 20854 net.cpp:144] Setting up ip2
I0506 08:26:29.510802 20854 net.cpp:151] Top shape: 20 512 (10240)
I0506 08:26:29.510805 20854 net.cpp:159] Memory required for data: 3883920
I0506 08:26:29.510812 20854 layer_factory.hpp:77] Creating layer ip3
I0506 08:26:29.510818 20854 net.cpp:94] Creating Layer ip3
I0506 08:26:29.510823 20854 net.cpp:435] ip3 <- ip2
I0506 08:26:29.510828 20854 net.cpp:409] ip3 -> ip3
I0506 08:26:29.512449 20854 net.cpp:144] Setting up ip3
I0506 08:26:29.512462 20854 net.cpp:151] Top shape: 20 50 (1000)
I0506 08:26:29.512466 20854 net.cpp:159] Memory required for data: 3887920
I0506 08:26:29.512472 20854 layer_factory.hpp:77] Creating layer loss
I0506 08:26:29.512480 20854 net.cpp:94] Creating Layer loss
I0506 08:26:29.512483 20854 net.cpp:435] loss <- ip3
I0506 08:26:29.512487 20854 net.cpp:435] loss <- label
I0506 08:26:29.512491 20854 net.cpp:409] loss -> loss
I0506 08:26:29.512501 20854 layer_factory.hpp:77] Creating layer loss
…
I0506 08:26:29.513039 20854 solver.cpp:181] Creating test net (#0) specified by net file: ./protocol/dis_50_100_dimension.protocol_distribution
I0506 08:26:29.513067 20854 net.cpp:323] The NetState phase (1) differed from the phase (0) specified by a rule in layer parameters
I0506 08:26:29.513159 20854 net.cpp:52] Initializing net from parameters: 
state {
  phase: TEST
}
layer {
  name: "intercept"
  type: "HDF5Data"
  top: "data"
  top: "label"
  include {
    phase: TEST
  }
  hdf5_data_param {
    source: "/home/purduethu/scratch/radon/d/deng106/CNNStatisticalModel/distributions/input/50_distributions_100_sample_size_test-distributions-path.txt"
    batch_size: 20
  }
}
layer {
  name: "conv1"
  type: "Convolution"
  bottom: "data"
  top: "conv1"
  param {
    lr_mult: 1
  }
  param {
    lr_mult: 2
  }
  convolution_param {
    num_output: 64
    pad: 2
    kernel_size: 5
    stride: 1
    weight_filler {
      type: "gaussian"
      std: 0.0001
    }
    bias_filler {
      type: "constant"
    }
  }
}
layer {
  name: "relu1"
  type: "ReLU"
  bottom: "conv1"
  top: "conv1"
}
layer {
  name: "conv2"
  type: "Convolution"
  bottom: "conv1"
  top: "conv2"
  param {
    lr_mult: 1
  }
  param {
    lr_mult: 2
  }
  convolution_param {
    num_output: 64
    pad: 2
    kernel_size: 5
    stride: 1
    weight_filler {
      type: "gaussian"
      std: 0.01
    }
    bias_filler {
      type: "constant"
    }
  }
}
layer {
  name: "relu2"
  type: "ReLU"
  bottom: "conv2"
  top: "conv2"
}
layer {
  name: "pool2"
  type: "Pooling"
  bottom: "conv2"
  top: "pool2"
  pooling_param {
    pool: MAX
    kernel_size: 3
    stride: 2
  }
}
layer {
  name: "conv3"
  type: "Convolution"
  bottom: "pool2"
  top: "conv3"
  param {
    lr_mult: 1
  }
  param {
    lr_mult: 2
  }
  convolution_param {
    num_output: 128
    pad: 2
    kernel_size: 5
    stride: 1
    weight_filler {
      type: "gaussian"
      std: 0.01
    }
    bias_filler {
      type: "constant"
    }
  }
}
layer {
  name: "relu3"
  type: "ReLU"
  bottom: "conv3"
  top: "conv3"
}
layer {
  name: "conv4"
  type: "Convolution"
  bottom: "conv3"
  top: "conv4"
  param {
    lr_mult: 1
  }
  param {
    lr_mult: 2
  }
  convolution_param {
    num_output: 128
    pad: 2
    kernel_size: 5
    stride: 1
    weight_filler {
      type: "gaussian"
      std: 0.01
    }
    bias_filler {
      type: "constant"
    }
  }
}
layer {
  name: "relu4"
  type: "ReLU"
  bottom: "conv4"
  top: "conv4"
}
layer {
  name: "conv5"
  type: "Convolution"
  bottom: "conv4"
  top: "conv5"
  param {
    lr_mult: 1
  }
  param {
    lr_mult: 2
  }
  convolution_param {
    num_output: 128
    pad: 2
    kernel_size: 5
    stride: 1
    weight_filler {
      type: "gaussian"
      std: 0.01
    }
    bias_filler {
      type: "constant"
    }
  }
}
layer {
  name: "relu5"
  type: "ReLU"
  bottom: "conv5"
  top: "conv5"
}
layer {
  name: "pool5"
  type: "Pooling"
  bottom: "conv5"
  top: "pool5"
  pooling_param {
    pool: AVE
    kernel_size: 3
    stride: 2
  }
}
layer {
  name: "ip1"
  type: "InnerProduct"
  bottom: "pool5"
  top: "ip1"
  param {
    lr_mult: 1
  }
  param {
    lr_mult: 2
  }
  inner_product_param {
    num_output: 1024
    weight_filler {
      type: "gaussian"
      std: 0.1
    }
    bias_filler {
      type: "constant"
    }
  }
}
layer {
  name: "ip2"
  type: "InnerProduct"
  bottom: "ip1"
  top: "ip2"
  param {
    lr_mult: 1
  }
  param {
    lr_mult: 2
  }
  inner_product_param {
    num_output: 512
    weight_filler {
      type: "gaussian"
      std: 0.1
    }
    bias_filler {
      type: "constant"
    }
  }
}
layer {
  name: "ip3"
  type: "InnerProduct"
  bottom: "ip2"
  top: "ip3"
  param {
    lr_mult: 1
  }
  param {
    lr_mult: 2
  }
  inner_product_param {
    num_output: 50
    weight_filler {
      type: "gaussian"
      std: 0.1
    }
    bias_filler {
      type: "constant"
    }
  }
}
layer {
  name: "accuracy"
  type: "Accuracy"
  bottom: "ip3"
  bottom: "label"
  top: "accuracy"
  include {
    phase: TEST
  }
}
layer {
  name: "loss"
  type: "SoftmaxWithLoss"
  bottom: "ip3"
  bottom: "label"
  top: "loss"
}
I0506 08:26:29.513221 20854 layer_factory.hpp:77] Creating layer intercept
I0506 08:26:29.513231 20854 net.cpp:94] Creating Layer intercept
I0506 08:26:29.513234 20854 net.cpp:409] intercept -> data
I0506 08:26:29.513242 20854 net.cpp:409] intercept -> label
I0506 08:26:29.513247 20854 hdf5_data_layer.cpp:79] Loading list of HDF5 filenames from: /home/purduethu/scratch/radon/d/deng106/CNNStatisticalModel/distributions/input/50_distributions_100_sample_size_test-distributions-path.txt
I0506 08:26:29.513267 20854 hdf5_data_layer.cpp:93] Number of HDF5 files: 1
I0506 08:26:29.553947 20854 net.cpp:144] Setting up intercept
I0506 08:26:29.553980 20854 net.cpp:151] Top shape: 20 1 10 10 (2000)
I0506 08:26:29.553987 20854 net.cpp:151] Top shape: 20 (20)
I0506 08:26:29.553989 20854 net.cpp:159] Memory required for data: 8080
I0506 08:26:29.553994 20854 layer_factory.hpp:77] Creating layer label_intercept_1_split
I0506 08:26:29.554013 20854 net.cpp:94] Creating Layer label_intercept_1_split
I0506 08:26:29.554018 20854 net.cpp:435] label_intercept_1_split <- label
I0506 08:26:29.554023 20854 net.cpp:409] label_intercept_1_split -> label_intercept_1_split_0
I0506 08:26:29.554033 20854 net.cpp:409] label_intercept_1_split -> label_intercept_1_split_1
I0506 08:26:29.554071 20854 net.cpp:144] Setting up label_intercept_1_split
I0506 08:26:29.554078 20854 net.cpp:151] Top shape: 20 (20)
I0506 08:26:29.554082 20854 net.cpp:151] Top shape: 20 (20)
I0506 08:26:29.554085 20854 net.cpp:159] Memory required for data: 8240
I0506 08:26:29.554088 20854 layer_factory.hpp:77] Creating layer conv1
I0506 08:26:29.554098 20854 net.cpp:94] Creating Layer conv1
I0506 08:26:29.554101 20854 net.cpp:435] conv1 <- data
I0506 08:26:29.554106 20854 net.cpp:409] conv1 -> conv1
I0506 08:26:29.554927 20854 net.cpp:144] Setting up conv1
I0506 08:26:29.554939 20854 net.cpp:151] Top shape: 20 64 10 10 (128000)
I0506 08:26:29.554944 20854 net.cpp:159] Memory required for data: 520240
I0506 08:26:29.554953 20854 layer_factory.hpp:77] Creating layer relu1
I0506 08:26:29.554960 20854 net.cpp:94] Creating Layer relu1
I0506 08:26:29.554963 20854 net.cpp:435] relu1 <- conv1
I0506 08:26:29.554967 20854 net.cpp:396] relu1 -> conv1 (in-place)
I0506 08:26:29.554975 20854 net.cpp:144] Setting up relu1
I0506 08:26:29.554978 20854 net.cpp:151] Top shape: 20 64 10 10 (128000)
I0506 08:26:29.554991 20854 net.cpp:159] Memory required for data: 1032240
I0506 08:26:29.554993 20854 layer_factory.hpp:77] Creating layer conv2
I0506 08:26:29.555001 20854 net.cpp:94] Creating Layer conv2
I0506 08:26:29.555006 20854 net.cpp:435] conv2 <- conv1
I0506 08:26:29.555009 20854 net.cpp:409] conv2 -> conv2
I0506 08:26:29.559110 20854 net.cpp:144] Setting up conv2
I0506 08:26:29.559124 20854 net.cpp:151] Top shape: 20 64 10 10 (128000)
I0506 08:26:29.559128 20854 net.cpp:159] Memory required for data: 1544240
I0506 08:26:29.559136 20854 layer_factory.hpp:77] Creating layer relu2
I0506 08:26:29.559142 20854 net.cpp:94] Creating Layer relu2
I0506 08:26:29.559145 20854 net.cpp:435] relu2 <- conv2
I0506 08:26:29.559151 20854 net.cpp:396] relu2 -> conv2 (in-place)
I0506 08:26:29.559157 20854 net.cpp:144] Setting up relu2
I0506 08:26:29.559162 20854 net.cpp:151] Top shape: 20 64 10 10 (128000)
I0506 08:26:29.559165 20854 net.cpp:159] Memory required for data: 2056240
I0506 08:26:29.559168 20854 layer_factory.hpp:77] Creating layer pool2
I0506 08:26:29.559173 20854 net.cpp:94] Creating Layer pool2
I0506 08:26:29.559176 20854 net.cpp:435] pool2 <- conv2
I0506 08:26:29.559181 20854 net.cpp:409] pool2 -> pool2
I0506 08:26:29.559237 20854 net.cpp:144] Setting up pool2
I0506 08:26:29.559245 20854 net.cpp:151] Top shape: 20 64 5 5 (32000)
I0506 08:26:29.559248 20854 net.cpp:159] Memory required for data: 2184240
I0506 08:26:29.559252 20854 layer_factory.hpp:77] Creating layer conv3
I0506 08:26:29.559259 20854 net.cpp:94] Creating Layer conv3
I0506 08:26:29.559263 20854 net.cpp:435] conv3 <- pool2
I0506 08:26:29.559268 20854 net.cpp:409] conv3 -> conv3
I0506 08:26:29.565387 20854 net.cpp:144] Setting up conv3
I0506 08:26:29.565399 20854 net.cpp:151] Top shape: 20 128 5 5 (64000)
I0506 08:26:29.565402 20854 net.cpp:159] Memory required for data: 2440240
I0506 08:26:29.565410 20854 layer_factory.hpp:77] Creating layer relu3
I0506 08:26:29.565418 20854 net.cpp:94] Creating Layer relu3
I0506 08:26:29.565421 20854 net.cpp:435] relu3 <- conv3
I0506 08:26:29.565426 20854 net.cpp:396] relu3 -> conv3 (in-place)
I0506 08:26:29.565433 20854 net.cpp:144] Setting up relu3
I0506 08:26:29.565438 20854 net.cpp:151] Top shape: 20 128 5 5 (64000)
I0506 08:26:29.565441 20854 net.cpp:159] Memory required for data: 2696240
I0506 08:26:29.565444 20854 layer_factory.hpp:77] Creating layer conv4
I0506 08:26:29.565451 20854 net.cpp:94] Creating Layer conv4
I0506 08:26:29.565454 20854 net.cpp:435] conv4 <- conv3
I0506 08:26:29.565460 20854 net.cpp:409] conv4 -> conv4
I0506 08:26:29.578227 20854 net.cpp:144] Setting up conv4
I0506 08:26:29.578263 20854 net.cpp:151] Top shape: 20 128 5 5 (64000)
I0506 08:26:29.578274 20854 net.cpp:159] Memory required for data: 2952240
I0506 08:26:29.578290 20854 layer_factory.hpp:77] Creating layer relu4
I0506 08:26:29.578306 20854 net.cpp:94] Creating Layer relu4
I0506 08:26:29.578316 20854 net.cpp:435] relu4 <- conv4
I0506 08:26:29.578330 20854 net.cpp:396] relu4 -> conv4 (in-place)
I0506 08:26:29.578347 20854 net.cpp:144] Setting up relu4
I0506 08:26:29.578361 20854 net.cpp:151] Top shape: 20 128 5 5 (64000)
I0506 08:26:29.578368 20854 net.cpp:159] Memory required for data: 3208240
I0506 08:26:29.578377 20854 layer_factory.hpp:77] Creating layer conv5
I0506 08:26:29.578409 20854 net.cpp:94] Creating Layer conv5
I0506 08:26:29.578413 20854 net.cpp:435] conv5 <- conv4
I0506 08:26:29.578418 20854 net.cpp:409] conv5 -> conv5
I0506 08:26:29.591020 20854 net.cpp:144] Setting up conv5
I0506 08:26:29.591055 20854 net.cpp:151] Top shape: 20 128 5 5 (64000)
I0506 08:26:29.591068 20854 net.cpp:159] Memory required for data: 3464240
I0506 08:26:29.591094 20854 layer_factory.hpp:77] Creating layer relu5
I0506 08:26:29.591101 20854 net.cpp:94] Creating Layer relu5
I0506 08:26:29.591105 20854 net.cpp:435] relu5 <- conv5
I0506 08:26:29.591109 20854 net.cpp:396] relu5 -> conv5 (in-place)
I0506 08:26:29.591116 20854 net.cpp:144] Setting up relu5
I0506 08:26:29.591120 20854 net.cpp:151] Top shape: 20 128 5 5 (64000)
I0506 08:26:29.591128 20854 net.cpp:159] Memory required for data: 3720240
I0506 08:26:29.591131 20854 layer_factory.hpp:77] Creating layer pool5
I0506 08:26:29.591138 20854 net.cpp:94] Creating Layer pool5
I0506 08:26:29.591141 20854 net.cpp:435] pool5 <- conv5
I0506 08:26:29.591145 20854 net.cpp:409] pool5 -> pool5
I0506 08:26:29.591184 20854 net.cpp:144] Setting up pool5
I0506 08:26:29.591192 20854 net.cpp:151] Top shape: 20 128 2 2 (10240)
I0506 08:26:29.591194 20854 net.cpp:159] Memory required for data: 3761200
I0506 08:26:29.591197 20854 layer_factory.hpp:77] Creating layer ip1
I0506 08:26:29.591204 20854 net.cpp:94] Creating Layer ip1
I0506 08:26:29.591208 20854 net.cpp:435] ip1 <- pool5
I0506 08:26:29.591213 20854 net.cpp:409] ip1 -> ip1
I0506 08:26:29.604593 20854 net.cpp:144] Setting up ip1
I0506 08:26:29.604607 20854 net.cpp:151] Top shape: 20 1024 (20480)
I0506 08:26:29.604611 20854 net.cpp:159] Memory required for data: 3843120
I0506 08:26:29.604616 20854 layer_factory.hpp:77] Creating layer ip2
I0506 08:26:29.604624 20854 net.cpp:94] Creating Layer ip2
I0506 08:26:29.604629 20854 net.cpp:435] ip2 <- ip1
I0506 08:26:29.604634 20854 net.cpp:409] ip2 -> ip2
I0506 08:26:29.617954 20854 net.cpp:144] Setting up ip2
I0506 08:26:29.617969 20854 net.cpp:151] Top shape: 20 512 (10240)
I0506 08:26:29.617972 20854 net.cpp:159] Memory required for data: 3884080
I0506 08:26:29.617979 20854 layer_factory.hpp:77] Creating layer ip3
I0506 08:26:29.617987 20854 net.cpp:94] Creating Layer ip3
I0506 08:26:29.617991 20854 net.cpp:435] ip3 <- ip2
I0506 08:26:29.617996 20854 net.cpp:409] ip3 -> ip3
I0506 08:26:29.618748 20854 net.cpp:144] Setting up ip3
I0506 08:26:29.618757 20854 net.cpp:151] Top shape: 20 50 (1000)
I0506 08:26:29.618759 20854 net.cpp:159] Memory required for data: 3888080
I0506 08:26:29.618764 20854 layer_factory.hpp:77] Creating layer ip3_ip3_0_split
I0506 08:26:29.618770 20854 net.cpp:94] Creating Layer ip3_ip3_0_split
I0506 08:26:29.618773 20854 net.cpp:435] ip3_ip3_0_split <- ip3
I0506 08:26:29.618779 20854 net.cpp:409] ip3_ip3_0_split -> ip3_ip3_0_split_0
I0506 08:26:29.618784 20854 net.cpp:409] ip3_ip3_0_split -> ip3_ip3_0_split_1
I0506 08:26:29.618829 20854 net.cpp:144] Setting up ip3_ip3_0_split
I0506 08:26:29.618835 20854 net.cpp:151] Top shape: 20 50 (1000)
I0506 08:26:29.618839 20854 net.cpp:151] Top shape: 20 50 (1000)
I0506 08:26:29.618841 20854 net.cpp:159] Memory required for data: 3896080
I0506 08:26:29.618844 20854 layer_factory.hpp:77] Creating layer accuracy
I0506 08:26:29.618850 20854 net.cpp:94] Creating Layer accuracy
I0506 08:26:29.618854 20854 net.cpp:435] accuracy <- ip3_ip3_0_split_0
I0506 08:26:29.618857 20854 net.cpp:435] accuracy <- label_intercept_1_split_0
I0506 08:26:29.618862 20854 net.cpp:409] accuracy -> accuracy
…
