…
I0505 23:34:21.370818 10645 net.cpp:323] The NetState phase (0) differed from the phase (1) specified by a rule in layer intercept
I0505 23:34:21.370832 10645 net.cpp:323] The NetState phase (0) differed from the phase (1) specified by a rule in layer loss
I0505 23:34:21.370898 10645 net.cpp:52] Initializing net from parameters: 
state {
  phase: TRAIN
}
layer {
  name: "parameters"
  type: "HDF5Data"
  top: "data"
  top: "label"
  include {
    phase: TRAIN
  }
  hdf5_data_param {
    source: "/home/purduethu/scratch/radon/d/deng106/CNNStatisticalModel/distributions/input/20_distributions_100_sample_size_train-parameters-path.txt"
    batch_size: 20
  }
}
layer {
  name: "conv1"
  type: "Convolution"
  bottom: "data"
  top: "conv1"
  param {
    lr_mult: 1
  }
  param {
    lr_mult: 2
  }
  convolution_param {
    num_output: 64
    pad: 2
    kernel_size: 5
    stride: 1
    weight_filler {
      type: "gaussian"
      std: 0.0001
    }
    bias_filler {
      type: "constant"
    }
  }
}
layer {
  name: "relu1"
  type: "ReLU"
  bottom: "conv1"
  top: "conv1"
}
layer {
  name: "pool1"
  type: "Pooling"
  bottom: "conv1"
  top: "pool1"
  pooling_param {
    pool: MAX
    kernel_size: 3
    stride: 2
  }
}
layer {
  name: "conv2"
  type: "Convolution"
  bottom: "pool1"
  top: "conv2"
  param {
    lr_mult: 1
  }
  param {
    lr_mult: 2
  }
  convolution_param {
    num_output: 128
    pad: 2
    kernel_size: 5
    stride: 1
    weight_filler {
      type: "gaussian"
      std: 0.01
    }
    bias_filler {
      type: "constant"
    }
  }
}
layer {
  name: "relu2"
  type: "ReLU"
  bottom: "conv2"
  top: "conv2"
}
layer {
  name: "conv3"
  type: "Convolution"
  bottom: "conv2"
  top: "conv3"
  param {
    lr_mult: 1
  }
  param {
    lr_mult: 2
  }
  convolution_param {
    num_output: 128
    pad: 2
    kernel_size: 5
    stride: 1
    weight_filler {
      type: "gaussian"
      std: 0.01
    }
    bias_filler {
      type: "constant"
    }
  }
}
layer {
  name: "relu3"
  type: "ReLU"
  bottom: "conv3"
  top: "conv3"
}
layer {
  name: "pool3"
  type: "Pooling"
  bottom: "conv3"
  top: "pool3"
  pooling_param {
    pool: AVE
    kernel_size: 3
    stride: 2
  }
}
layer {
  name: "ip1"
  type: "InnerProduct"
  bottom: "pool3"
  top: "ip1"
  param {
    lr_mult: 1
  }
  param {
    lr_mult: 2
  }
  inner_product_param {
    num_output: 512
    weight_filler {
      type: "gaussian"
      std: 0.1
    }
    bias_filler {
      type: "constant"
    }
  }
}
layer {
  name: "ip2"
  type: "InnerProduct"
  bottom: "ip1"
  top: "ip2"
  param {
    lr_mult: 1
  }
  param {
    lr_mult: 2
  }
  inner_product_param {
    num_output: 256
    weight_filler {
      type: "gaussian"
      std: 0.1
    }
    bias_filler {
      type: "constant"
    }
  }
}
layer {
  name: "ip3"
  type: "InnerProduct"
  bottom: "ip2"
  top: "ip3"
  param {
    lr_mult: 1
  }
  param {
    lr_mult: 2
  }
  inner_product_param {
    num_output: 1
    weight_filler {
      type: "gaussian"
      std: 0.1
    }
    bias_filler {
      type: "constant"
    }
  }
}
layer {
  name: "loss"
  type: "HuberLoss"
  bottom: "ip3"
  bottom: "label"
  top: "loss"
  include {
    phase: TRAIN
  }
}
I0505 23:34:21.370944 10645 layer_factory.hpp:77] Creating layer parameters
I0505 23:34:21.370956 10645 net.cpp:94] Creating Layer parameters
I0505 23:34:21.370961 10645 net.cpp:409] parameters -> data
I0505 23:34:21.370973 10645 net.cpp:409] parameters -> label
I0505 23:34:21.370980 10645 hdf5_data_layer.cpp:79] Loading list of HDF5 filenames from: /home/purduethu/scratch/radon/d/deng106/CNNStatisticalModel/distributions/input/20_distributions_100_sample_size_train-parameters-path.txt
I0505 23:34:21.370995 10645 hdf5_data_layer.cpp:93] Number of HDF5 files: 1
I0505 23:34:21.371537 10645 hdf5.cpp:32] Datatype class: H5T_FLOAT
I0505 23:34:21.438791 10645 net.cpp:144] Setting up parameters
I0505 23:34:21.438820 10645 net.cpp:151] Top shape: 20 1 10 10 (2000)
I0505 23:34:21.438825 10645 net.cpp:151] Top shape: 20 (20)
I0505 23:34:21.438829 10645 net.cpp:159] Memory required for data: 8080
I0505 23:34:21.438835 10645 layer_factory.hpp:77] Creating layer conv1
I0505 23:34:21.438851 10645 net.cpp:94] Creating Layer conv1
I0505 23:34:21.438855 10645 net.cpp:435] conv1 <- data
I0505 23:34:21.438861 10645 net.cpp:409] conv1 -> conv1
I0505 23:34:21.442916 10645 net.cpp:144] Setting up conv1
I0505 23:34:21.442934 10645 net.cpp:151] Top shape: 20 64 10 10 (128000)
I0505 23:34:21.442937 10645 net.cpp:159] Memory required for data: 520080
I0505 23:34:21.442946 10645 layer_factory.hpp:77] Creating layer relu1
I0505 23:34:21.442955 10645 net.cpp:94] Creating Layer relu1
I0505 23:34:21.442957 10645 net.cpp:435] relu1 <- conv1
I0505 23:34:21.442962 10645 net.cpp:396] relu1 -> conv1 (in-place)
I0505 23:34:21.442970 10645 net.cpp:144] Setting up relu1
I0505 23:34:21.442973 10645 net.cpp:151] Top shape: 20 64 10 10 (128000)
I0505 23:34:21.442976 10645 net.cpp:159] Memory required for data: 1032080
I0505 23:34:21.442980 10645 layer_factory.hpp:77] Creating layer pool1
I0505 23:34:21.442986 10645 net.cpp:94] Creating Layer pool1
I0505 23:34:21.442988 10645 net.cpp:435] pool1 <- conv1
I0505 23:34:21.442992 10645 net.cpp:409] pool1 -> pool1
I0505 23:34:21.443045 10645 net.cpp:144] Setting up pool1
I0505 23:34:21.443053 10645 net.cpp:151] Top shape: 20 64 5 5 (32000)
I0505 23:34:21.443055 10645 net.cpp:159] Memory required for data: 1160080
I0505 23:34:21.443058 10645 layer_factory.hpp:77] Creating layer conv2
I0505 23:34:21.443068 10645 net.cpp:94] Creating Layer conv2
I0505 23:34:21.443070 10645 net.cpp:435] conv2 <- pool1
I0505 23:34:21.443075 10645 net.cpp:409] conv2 -> conv2
I0505 23:34:21.451227 10645 net.cpp:144] Setting up conv2
I0505 23:34:21.451241 10645 net.cpp:151] Top shape: 20 128 5 5 (64000)
I0505 23:34:21.451246 10645 net.cpp:159] Memory required for data: 1416080
I0505 23:34:21.451253 10645 layer_factory.hpp:77] Creating layer relu2
I0505 23:34:21.451258 10645 net.cpp:94] Creating Layer relu2
I0505 23:34:21.451262 10645 net.cpp:435] relu2 <- conv2
I0505 23:34:21.451267 10645 net.cpp:396] relu2 -> conv2 (in-place)
I0505 23:34:21.451273 10645 net.cpp:144] Setting up relu2
I0505 23:34:21.451277 10645 net.cpp:151] Top shape: 20 128 5 5 (64000)
I0505 23:34:21.451280 10645 net.cpp:159] Memory required for data: 1672080
I0505 23:34:21.451282 10645 layer_factory.hpp:77] Creating layer conv3
I0505 23:34:21.451290 10645 net.cpp:94] Creating Layer conv3
I0505 23:34:21.451294 10645 net.cpp:435] conv3 <- conv2
I0505 23:34:21.451299 10645 net.cpp:409] conv3 -> conv3
I0505 23:34:21.466003 10645 net.cpp:144] Setting up conv3
I0505 23:34:21.466019 10645 net.cpp:151] Top shape: 20 128 5 5 (64000)
I0505 23:34:21.466023 10645 net.cpp:159] Memory required for data: 1928080
I0505 23:34:21.466032 10645 layer_factory.hpp:77] Creating layer relu3
I0505 23:34:21.466043 10645 net.cpp:94] Creating Layer relu3
I0505 23:34:21.466048 10645 net.cpp:435] relu3 <- conv3
I0505 23:34:21.466053 10645 net.cpp:396] relu3 -> conv3 (in-place)
I0505 23:34:21.466059 10645 net.cpp:144] Setting up relu3
I0505 23:34:21.466064 10645 net.cpp:151] Top shape: 20 128 5 5 (64000)
I0505 23:34:21.466066 10645 net.cpp:159] Memory required for data: 2184080
I0505 23:34:21.466069 10645 layer_factory.hpp:77] Creating layer pool3
I0505 23:34:21.466075 10645 net.cpp:94] Creating Layer pool3
I0505 23:34:21.466078 10645 net.cpp:435] pool3 <- conv3
I0505 23:34:21.466083 10645 net.cpp:409] pool3 -> pool3
I0505 23:34:21.466120 10645 net.cpp:144] Setting up pool3
I0505 23:34:21.466126 10645 net.cpp:151] Top shape: 20 128 2 2 (10240)
I0505 23:34:21.466130 10645 net.cpp:159] Memory required for data: 2225040
I0505 23:34:21.466132 10645 layer_factory.hpp:77] Creating layer ip1
I0505 23:34:21.466142 10645 net.cpp:94] Creating Layer ip1
I0505 23:34:21.466145 10645 net.cpp:435] ip1 <- pool3
I0505 23:34:21.466150 10645 net.cpp:409] ip1 -> ip1
I0505 23:34:21.473964 10645 net.cpp:144] Setting up ip1
I0505 23:34:21.473980 10645 net.cpp:151] Top shape: 20 512 (10240)
I0505 23:34:21.473984 10645 net.cpp:159] Memory required for data: 2266000
I0505 23:34:21.473990 10645 layer_factory.hpp:77] Creating layer ip2
I0505 23:34:21.473997 10645 net.cpp:94] Creating Layer ip2
I0505 23:34:21.474000 10645 net.cpp:435] ip2 <- ip1
I0505 23:34:21.474006 10645 net.cpp:409] ip2 -> ip2
I0505 23:34:21.477159 10645 net.cpp:144] Setting up ip2
I0505 23:34:21.477170 10645 net.cpp:151] Top shape: 20 256 (5120)
I0505 23:34:21.477174 10645 net.cpp:159] Memory required for data: 2286480
I0505 23:34:21.477180 10645 layer_factory.hpp:77] Creating layer ip3
I0505 23:34:21.477186 10645 net.cpp:94] Creating Layer ip3
I0505 23:34:21.477190 10645 net.cpp:435] ip3 <- ip2
I0505 23:34:21.477195 10645 net.cpp:409] ip3 -> ip3
I0505 23:34:21.477291 10645 net.cpp:144] Setting up ip3
I0505 23:34:21.477298 10645 net.cpp:151] Top shape: 20 1 (20)
I0505 23:34:21.477300 10645 net.cpp:159] Memory required for data: 2286560
I0505 23:34:21.477305 10645 layer_factory.hpp:77] Creating layer loss
I0505 23:34:21.477316 10645 net.cpp:94] Creating Layer loss
I0505 23:34:21.477319 10645 net.cpp:435] loss <- ip3
I0505 23:34:21.477324 10645 net.cpp:435] loss <- label
I0505 23:34:21.477327 10645 net.cpp:409] loss -> loss
I0505 23:34:21.477373 10645 net.cpp:144] Setting up loss
…
I0505 23:34:21.527415 10645 net.cpp:323] The NetState phase (0) differed from the phase (1) specified by a rule in layer intercept
I0505 23:34:21.527427 10645 net.cpp:323] The NetState phase (0) differed from the phase (1) specified by a rule in layer accuracy
I0505 23:34:21.527494 10645 net.cpp:52] Initializing net from parameters: 
state {
  phase: TRAIN
}
layer {
  name: "parameters"
  type: "HDF5Data"
  top: "data"
  top: "label"
  include {
    phase: TRAIN
  }
  hdf5_data_param {
    source: "/home/purduethu/scratch/radon/d/deng106/CNNStatisticalModel/distributions/input/20_distributions_100_sample_size_train-distributions-path.txt"
    batch_size: 20
  }
}
layer {
  name: "conv1"
  type: "Convolution"
  bottom: "data"
  top: "conv1"
  param {
    lr_mult: 1
  }
  param {
    lr_mult: 2
  }
  convolution_param {
    num_output: 64
    pad: 2
    kernel_size: 5
    stride: 1
    weight_filler {
      type: "gaussian"
      std: 0.0001
    }
    bias_filler {
      type: "constant"
    }
  }
}
layer {
  name: "relu1"
  type: "ReLU"
  bottom: "conv1"
  top: "conv1"
}
layer {
  name: "pool1"
  type: "Pooling"
  bottom: "conv1"
  top: "pool1"
  pooling_param {
    pool: MAX
    kernel_size: 3
    stride: 2
  }
}
layer {
  name: "conv2"
  type: "Convolution"
  bottom: "pool1"
  top: "conv2"
  param {
    lr_mult: 1
  }
  param {
    lr_mult: 2
  }
  convolution_param {
    num_output: 128
    pad: 2
    kernel_size: 5
    stride: 1
    weight_filler {
      type: "gaussian"
      std: 0.01
    }
    bias_filler {
      type: "constant"
    }
  }
}
layer {
  name: "relu2"
  type: "ReLU"
  bottom: "conv2"
  top: "conv2"
}
layer {
  name: "conv3"
  type: "Convolution"
  bottom: "conv2"
  top: "conv3"
  param {
    lr_mult: 1
  }
  param {
    lr_mult: 2
  }
  convolution_param {
    num_output: 128
    pad: 2
    kernel_size: 5
    stride: 1
    weight_filler {
      type: "gaussian"
      std: 0.01
    }
    bias_filler {
      type: "constant"
    }
  }
}
layer {
  name: "relu3"
  type: "ReLU"
  bottom: "conv3"
  top: "conv3"
}
layer {
  name: "pool3"
  type: "Pooling"
  bottom: "conv3"
  top: "pool3"
  pooling_param {
    pool: AVE
    kernel_size: 3
    stride: 2
  }
}
layer {
  name: "ip1"
  type: "InnerProduct"
  bottom: "pool3"
  top: "ip1"
  param {
    lr_mult: 1
  }
  param {
    lr_mult: 2
  }
  inner_product_param {
    num_output: 512
    weight_filler {
      type: "gaussian"
      std: 0.1
    }
    bias_filler {
      type: "constant"
    }
  }
}
layer {
  name: "ip2"
  type: "InnerProduct"
  bottom: "ip1"
  top: "ip2"
  param {
    lr_mult: 1
  }
  param {
    lr_mult: 2
  }
  inner_product_param {
    num_output: 256
    weight_filler {
      type: "gaussian"
      std: 0.1
    }
    bias_filler {
      type: "constant"
    }
  }
}
layer {
  name: "ip3"
  type: "InnerProduct"
  bottom: "ip2"
  top: "ip3"
  param {
    lr_mult: 1
  }
  param {
    lr_mult: 2
  }
  inner_product_param {
    num_output: 50
    weight_filler {
      type: "gaussian"
      std: 0.1
    }
    bias_filler {
      type: "constant"
    }
  }
}
layer {
  name: "loss"
  type: "SoftmaxWithLoss"
  bottom: "ip3"
  bottom: "label"
  top: "loss"
}
I0505 23:34:21.527537 10645 layer_factory.hpp:77] Creating layer parameters
I0505 23:34:21.527545 10645 net.cpp:94] Creating Layer parameters
I0505 23:34:21.527549 10645 net.cpp:409] parameters -> data
I0505 23:34:21.527555 10645 net.cpp:409] parameters -> label
I0505 23:34:21.527561 10645 hdf5_data_layer.cpp:79] Loading list of HDF5 filenames from: /home/purduethu/scratch/radon/d/deng106/CNNStatisticalModel/distributions/input/20_distributions_100_sample_size_train-distributions-path.txt
I0505 23:34:21.527577 10645 hdf5_data_layer.cpp:93] Number of HDF5 files: 1
I0505 23:34:21.591703 10645 hdf5.cpp:35] Datatype class: H5T_INTEGER
I0505 23:34:21.593658 10645 net.cpp:144] Setting up parameters
I0505 23:34:21.593674 10645 net.cpp:151] Top shape: 20 1 10 10 (2000)
I0505 23:34:21.593679 10645 net.cpp:151] Top shape: 20 (20)
I0505 23:34:21.593683 10645 net.cpp:159] Memory required for data: 8080
I0505 23:34:21.593688 10645 layer_factory.hpp:77] Creating layer conv1
I0505 23:34:21.593704 10645 net.cpp:94] Creating Layer conv1
I0505 23:34:21.593708 10645 net.cpp:435] conv1 <- data
I0505 23:34:21.593714 10645 net.cpp:409] conv1 -> conv1
I0505 23:34:21.595393 10645 net.cpp:144] Setting up conv1
I0505 23:34:21.595407 10645 net.cpp:151] Top shape: 20 64 10 10 (128000)
I0505 23:34:21.595410 10645 net.cpp:159] Memory required for data: 520080
I0505 23:34:21.595419 10645 layer_factory.hpp:77] Creating layer relu1
I0505 23:34:21.595427 10645 net.cpp:94] Creating Layer relu1
I0505 23:34:21.595430 10645 net.cpp:435] relu1 <- conv1
I0505 23:34:21.595434 10645 net.cpp:396] relu1 -> conv1 (in-place)
I0505 23:34:21.595441 10645 net.cpp:144] Setting up relu1
I0505 23:34:21.595446 10645 net.cpp:151] Top shape: 20 64 10 10 (128000)
I0505 23:34:21.595448 10645 net.cpp:159] Memory required for data: 1032080
I0505 23:34:21.595451 10645 layer_factory.hpp:77] Creating layer pool1
I0505 23:34:21.595458 10645 net.cpp:94] Creating Layer pool1
I0505 23:34:21.595460 10645 net.cpp:435] pool1 <- conv1
I0505 23:34:21.595470 10645 net.cpp:409] pool1 -> pool1
I0505 23:34:21.595521 10645 net.cpp:144] Setting up pool1
I0505 23:34:21.595528 10645 net.cpp:151] Top shape: 20 64 5 5 (32000)
I0505 23:34:21.595531 10645 net.cpp:159] Memory required for data: 1160080
I0505 23:34:21.595535 10645 layer_factory.hpp:77] Creating layer conv2
I0505 23:34:21.595542 10645 net.cpp:94] Creating Layer conv2
I0505 23:34:21.595546 10645 net.cpp:435] conv2 <- pool1
I0505 23:34:21.595551 10645 net.cpp:409] conv2 -> conv2
I0505 23:34:21.603749 10645 net.cpp:144] Setting up conv2
I0505 23:34:21.603765 10645 net.cpp:151] Top shape: 20 128 5 5 (64000)
I0505 23:34:21.603768 10645 net.cpp:159] Memory required for data: 1416080
I0505 23:34:21.603776 10645 layer_factory.hpp:77] Creating layer relu2
I0505 23:34:21.603782 10645 net.cpp:94] Creating Layer relu2
I0505 23:34:21.603785 10645 net.cpp:435] relu2 <- conv2
I0505 23:34:21.603790 10645 net.cpp:396] relu2 -> conv2 (in-place)
I0505 23:34:21.603797 10645 net.cpp:144] Setting up relu2
I0505 23:34:21.603801 10645 net.cpp:151] Top shape: 20 128 5 5 (64000)
I0505 23:34:21.603803 10645 net.cpp:159] Memory required for data: 1672080
I0505 23:34:21.603806 10645 layer_factory.hpp:77] Creating layer conv3
I0505 23:34:21.603814 10645 net.cpp:94] Creating Layer conv3
I0505 23:34:21.603817 10645 net.cpp:435] conv3 <- conv2
I0505 23:34:21.603822 10645 net.cpp:409] conv3 -> conv3
I0505 23:34:21.618079 10645 net.cpp:144] Setting up conv3
I0505 23:34:21.618093 10645 net.cpp:151] Top shape: 20 128 5 5 (64000)
I0505 23:34:21.618098 10645 net.cpp:159] Memory required for data: 1928080
I0505 23:34:21.618105 10645 layer_factory.hpp:77] Creating layer relu3
I0505 23:34:21.618111 10645 net.cpp:94] Creating Layer relu3
I0505 23:34:21.618115 10645 net.cpp:435] relu3 <- conv3
I0505 23:34:21.618119 10645 net.cpp:396] relu3 -> conv3 (in-place)
I0505 23:34:21.618126 10645 net.cpp:144] Setting up relu3
I0505 23:34:21.618130 10645 net.cpp:151] Top shape: 20 128 5 5 (64000)
I0505 23:34:21.618134 10645 net.cpp:159] Memory required for data: 2184080
I0505 23:34:21.618135 10645 layer_factory.hpp:77] Creating layer pool3
I0505 23:34:21.618141 10645 net.cpp:94] Creating Layer pool3
I0505 23:34:21.618144 10645 net.cpp:435] pool3 <- conv3
I0505 23:34:21.618149 10645 net.cpp:409] pool3 -> pool3
I0505 23:34:21.618181 10645 net.cpp:144] Setting up pool3
I0505 23:34:21.618187 10645 net.cpp:151] Top shape: 20 128 2 2 (10240)
I0505 23:34:21.618191 10645 net.cpp:159] Memory required for data: 2225040
I0505 23:34:21.618193 10645 layer_factory.hpp:77] Creating layer ip1
I0505 23:34:21.618199 10645 net.cpp:94] Creating Layer ip1
I0505 23:34:21.618203 10645 net.cpp:435] ip1 <- pool3
I0505 23:34:21.618207 10645 net.cpp:409] ip1 -> ip1
I0505 23:34:21.625221 10645 net.cpp:144] Setting up ip1
I0505 23:34:21.625236 10645 net.cpp:151] Top shape: 20 512 (10240)
I0505 23:34:21.625239 10645 net.cpp:159] Memory required for data: 2266000
I0505 23:34:21.625246 10645 layer_factory.hpp:77] Creating layer ip2
I0505 23:34:21.625252 10645 net.cpp:94] Creating Layer ip2
I0505 23:34:21.625257 10645 net.cpp:435] ip2 <- ip1
I0505 23:34:21.625262 10645 net.cpp:409] ip2 -> ip2
I0505 23:34:21.628381 10645 net.cpp:144] Setting up ip2
I0505 23:34:21.628388 10645 net.cpp:151] Top shape: 20 256 (5120)
I0505 23:34:21.628391 10645 net.cpp:159] Memory required for data: 2286480
I0505 23:34:21.628397 10645 layer_factory.hpp:77] Creating layer ip3
I0505 23:34:21.628403 10645 net.cpp:94] Creating Layer ip3
I0505 23:34:21.628407 10645 net.cpp:435] ip3 <- ip2
I0505 23:34:21.628412 10645 net.cpp:409] ip3 -> ip3
I0505 23:34:21.629654 10645 net.cpp:144] Setting up ip3
I0505 23:34:21.629667 10645 net.cpp:151] Top shape: 20 50 (1000)
I0505 23:34:21.629672 10645 net.cpp:159] Memory required for data: 2290480
I0505 23:34:21.629676 10645 layer_factory.hpp:77] Creating layer loss
I0505 23:34:21.629683 10645 net.cpp:94] Creating Layer loss
I0505 23:34:21.629685 10645 net.cpp:435] loss <- ip3
I0505 23:34:21.629689 10645 net.cpp:435] loss <- label
I0505 23:34:21.629694 10645 net.cpp:409] loss -> loss
I0505 23:34:21.629706 10645 layer_factory.hpp:77] Creating layer loss
…
I0505 23:34:21.630133 10645 solver.cpp:181] Creating test net (#0) specified by net file: ./protocol/dis_20_100_dimension.protocol_distribution
I0505 23:34:21.630156 10645 net.cpp:323] The NetState phase (1) differed from the phase (0) specified by a rule in layer parameters
I0505 23:34:21.630234 10645 net.cpp:52] Initializing net from parameters: 
state {
  phase: TEST
}
layer {
  name: "intercept"
  type: "HDF5Data"
  top: "data"
  top: "label"
  include {
    phase: TEST
  }
  hdf5_data_param {
    source: "/home/purduethu/scratch/radon/d/deng106/CNNStatisticalModel/distributions/input/20_distributions_100_sample_size_test-distributions-path.txt"
    batch_size: 20
  }
}
layer {
  name: "conv1"
  type: "Convolution"
  bottom: "data"
  top: "conv1"
  param {
    lr_mult: 1
  }
  param {
    lr_mult: 2
  }
  convolution_param {
    num_output: 64
    pad: 2
    kernel_size: 5
    stride: 1
    weight_filler {
      type: "gaussian"
      std: 0.0001
    }
    bias_filler {
      type: "constant"
    }
  }
}
layer {
  name: "relu1"
  type: "ReLU"
  bottom: "conv1"
  top: "conv1"
}
layer {
  name: "pool1"
  type: "Pooling"
  bottom: "conv1"
  top: "pool1"
  pooling_param {
    pool: MAX
    kernel_size: 3
    stride: 2
  }
}
layer {
  name: "conv2"
  type: "Convolution"
  bottom: "pool1"
  top: "conv2"
  param {
    lr_mult: 1
  }
  param {
    lr_mult: 2
  }
  convolution_param {
    num_output: 128
    pad: 2
    kernel_size: 5
    stride: 1
    weight_filler {
      type: "gaussian"
      std: 0.01
    }
    bias_filler {
      type: "constant"
    }
  }
}
layer {
  name: "relu2"
  type: "ReLU"
  bottom: "conv2"
  top: "conv2"
}
layer {
  name: "conv3"
  type: "Convolution"
  bottom: "conv2"
  top: "conv3"
  param {
    lr_mult: 1
  }
  param {
    lr_mult: 2
  }
  convolution_param {
    num_output: 128
    pad: 2
    kernel_size: 5
    stride: 1
    weight_filler {
      type: "gaussian"
      std: 0.01
    }
    bias_filler {
      type: "constant"
    }
  }
}
layer {
  name: "relu3"
  type: "ReLU"
  bottom: "conv3"
  top: "conv3"
}
layer {
  name: "pool3"
  type: "Pooling"
  bottom: "conv3"
  top: "pool3"
  pooling_param {
    pool: AVE
    kernel_size: 3
    stride: 2
  }
}
layer {
  name: "ip1"
  type: "InnerProduct"
  bottom: "pool3"
  top: "ip1"
  param {
    lr_mult: 1
  }
  param {
    lr_mult: 2
  }
  inner_product_param {
    num_output: 512
    weight_filler {
      type: "gaussian"
      std: 0.1
    }
    bias_filler {
      type: "constant"
    }
  }
}
layer {
  name: "ip2"
  type: "InnerProduct"
  bottom: "ip1"
  top: "ip2"
  param {
    lr_mult: 1
  }
  param {
    lr_mult: 2
  }
  inner_product_param {
    num_output: 256
    weight_filler {
      type: "gaussian"
      std: 0.1
    }
    bias_filler {
      type: "constant"
    }
  }
}
layer {
  name: "ip3"
  type: "InnerProduct"
  bottom: "ip2"
  top: "ip3"
  param {
    lr_mult: 1
  }
  param {
    lr_mult: 2
  }
  inner_product_param {
    num_output: 50
    weight_filler {
      type: "gaussian"
      std: 0.1
    }
    bias_filler {
      type: "constant"
    }
  }
}
layer {
  name: "accuracy"
  type: "Accuracy"
  bottom: "ip3"
  bottom: "label"
  top: "accuracy"
  include {
    phase: TEST
  }
}
layer {
  name: "loss"
  type: "SoftmaxWithLoss"
  bottom: "ip3"
  bottom: "label"
  top: "loss"
}
I0505 23:34:21.630290 10645 layer_factory.hpp:77] Creating layer intercept
I0505 23:34:21.630297 10645 net.cpp:94] Creating Layer intercept
I0505 23:34:21.630300 10645 net.cpp:409] intercept -> data
I0505 23:34:21.630307 10645 net.cpp:409] intercept -> label
I0505 23:34:21.630312 10645 hdf5_data_layer.cpp:79] Loading list of HDF5 filenames from: /home/purduethu/scratch/radon/d/deng106/CNNStatisticalModel/distributions/input/20_distributions_100_sample_size_test-distributions-path.txt
I0505 23:34:21.630336 10645 hdf5_data_layer.cpp:93] Number of HDF5 files: 1
I0505 23:34:21.647490 10645 net.cpp:144] Setting up intercept
I0505 23:34:21.647524 10645 net.cpp:151] Top shape: 20 1 10 10 (2000)
I0505 23:34:21.647529 10645 net.cpp:151] Top shape: 20 (20)
I0505 23:34:21.647532 10645 net.cpp:159] Memory required for data: 8080
I0505 23:34:21.647538 10645 layer_factory.hpp:77] Creating layer label_intercept_1_split
I0505 23:34:21.647557 10645 net.cpp:94] Creating Layer label_intercept_1_split
I0505 23:34:21.647562 10645 net.cpp:435] label_intercept_1_split <- label
I0505 23:34:21.647567 10645 net.cpp:409] label_intercept_1_split -> label_intercept_1_split_0
I0505 23:34:21.647574 10645 net.cpp:409] label_intercept_1_split -> label_intercept_1_split_1
I0505 23:34:21.647614 10645 net.cpp:144] Setting up label_intercept_1_split
I0505 23:34:21.647619 10645 net.cpp:151] Top shape: 20 (20)
I0505 23:34:21.647622 10645 net.cpp:151] Top shape: 20 (20)
I0505 23:34:21.647625 10645 net.cpp:159] Memory required for data: 8240
I0505 23:34:21.647629 10645 layer_factory.hpp:77] Creating layer conv1
I0505 23:34:21.647639 10645 net.cpp:94] Creating Layer conv1
I0505 23:34:21.647642 10645 net.cpp:435] conv1 <- data
I0505 23:34:21.647647 10645 net.cpp:409] conv1 -> conv1
I0505 23:34:21.648413 10645 net.cpp:144] Setting up conv1
I0505 23:34:21.648427 10645 net.cpp:151] Top shape: 20 64 10 10 (128000)
I0505 23:34:21.648430 10645 net.cpp:159] Memory required for data: 520240
I0505 23:34:21.648439 10645 layer_factory.hpp:77] Creating layer relu1
I0505 23:34:21.648445 10645 net.cpp:94] Creating Layer relu1
I0505 23:34:21.648448 10645 net.cpp:435] relu1 <- conv1
I0505 23:34:21.648453 10645 net.cpp:396] relu1 -> conv1 (in-place)
I0505 23:34:21.648460 10645 net.cpp:144] Setting up relu1
I0505 23:34:21.648464 10645 net.cpp:151] Top shape: 20 64 10 10 (128000)
I0505 23:34:21.648466 10645 net.cpp:159] Memory required for data: 1032240
I0505 23:34:21.648469 10645 layer_factory.hpp:77] Creating layer pool1
I0505 23:34:21.648475 10645 net.cpp:94] Creating Layer pool1
I0505 23:34:21.648478 10645 net.cpp:435] pool1 <- conv1
I0505 23:34:21.648483 10645 net.cpp:409] pool1 -> pool1
I0505 23:34:21.648532 10645 net.cpp:144] Setting up pool1
I0505 23:34:21.648540 10645 net.cpp:151] Top shape: 20 64 5 5 (32000)
I0505 23:34:21.648542 10645 net.cpp:159] Memory required for data: 1160240
I0505 23:34:21.648545 10645 layer_factory.hpp:77] Creating layer conv2
I0505 23:34:21.648568 10645 net.cpp:94] Creating Layer conv2
I0505 23:34:21.648573 10645 net.cpp:435] conv2 <- pool1
I0505 23:34:21.648578 10645 net.cpp:409] conv2 -> conv2
I0505 23:34:21.656033 10645 net.cpp:144] Setting up conv2
I0505 23:34:21.656047 10645 net.cpp:151] Top shape: 20 128 5 5 (64000)
I0505 23:34:21.656051 10645 net.cpp:159] Memory required for data: 1416240
I0505 23:34:21.656059 10645 layer_factory.hpp:77] Creating layer relu2
I0505 23:34:21.656070 10645 net.cpp:94] Creating Layer relu2
I0505 23:34:21.656075 10645 net.cpp:435] relu2 <- conv2
I0505 23:34:21.656080 10645 net.cpp:396] relu2 -> conv2 (in-place)
I0505 23:34:21.656085 10645 net.cpp:144] Setting up relu2
I0505 23:34:21.656090 10645 net.cpp:151] Top shape: 20 128 5 5 (64000)
I0505 23:34:21.656092 10645 net.cpp:159] Memory required for data: 1672240
I0505 23:34:21.656095 10645 layer_factory.hpp:77] Creating layer conv3
I0505 23:34:21.656102 10645 net.cpp:94] Creating Layer conv3
I0505 23:34:21.656106 10645 net.cpp:435] conv3 <- conv2
I0505 23:34:21.656111 10645 net.cpp:409] conv3 -> conv3
I0505 23:34:21.668509 10645 net.cpp:144] Setting up conv3
I0505 23:34:21.668524 10645 net.cpp:151] Top shape: 20 128 5 5 (64000)
I0505 23:34:21.668529 10645 net.cpp:159] Memory required for data: 1928240
I0505 23:34:21.668536 10645 layer_factory.hpp:77] Creating layer relu3
I0505 23:34:21.668543 10645 net.cpp:94] Creating Layer relu3
I0505 23:34:21.668546 10645 net.cpp:435] relu3 <- conv3
I0505 23:34:21.668560 10645 net.cpp:396] relu3 -> conv3 (in-place)
I0505 23:34:21.668570 10645 net.cpp:144] Setting up relu3
I0505 23:34:21.668573 10645 net.cpp:151] Top shape: 20 128 5 5 (64000)
I0505 23:34:21.668576 10645 net.cpp:159] Memory required for data: 2184240
I0505 23:34:21.668579 10645 layer_factory.hpp:77] Creating layer pool3
I0505 23:34:21.668584 10645 net.cpp:94] Creating Layer pool3
I0505 23:34:21.668587 10645 net.cpp:435] pool3 <- conv3
I0505 23:34:21.668591 10645 net.cpp:409] pool3 -> pool3
I0505 23:34:21.668627 10645 net.cpp:144] Setting up pool3
I0505 23:34:21.668634 10645 net.cpp:151] Top shape: 20 128 2 2 (10240)
I0505 23:34:21.668637 10645 net.cpp:159] Memory required for data: 2225200
I0505 23:34:21.668639 10645 layer_factory.hpp:77] Creating layer ip1
I0505 23:34:21.668647 10645 net.cpp:94] Creating Layer ip1
I0505 23:34:21.668649 10645 net.cpp:435] ip1 <- pool3
I0505 23:34:21.668654 10645 net.cpp:409] ip1 -> ip1
I0505 23:34:21.674942 10645 net.cpp:144] Setting up ip1
I0505 23:34:21.674952 10645 net.cpp:151] Top shape: 20 512 (10240)
I0505 23:34:21.674955 10645 net.cpp:159] Memory required for data: 2266160
I0505 23:34:21.674960 10645 layer_factory.hpp:77] Creating layer ip2
I0505 23:34:21.674968 10645 net.cpp:94] Creating Layer ip2
I0505 23:34:21.674970 10645 net.cpp:435] ip2 <- ip1
I0505 23:34:21.674975 10645 net.cpp:409] ip2 -> ip2
I0505 23:34:21.678151 10645 net.cpp:144] Setting up ip2
I0505 23:34:21.678160 10645 net.cpp:151] Top shape: 20 256 (5120)
I0505 23:34:21.678164 10645 net.cpp:159] Memory required for data: 2286640
I0505 23:34:21.678170 10645 layer_factory.hpp:77] Creating layer ip3
I0505 23:34:21.678176 10645 net.cpp:94] Creating Layer ip3
I0505 23:34:21.678179 10645 net.cpp:435] ip3 <- ip2
I0505 23:34:21.678184 10645 net.cpp:409] ip3 -> ip3
I0505 23:34:21.678601 10645 net.cpp:144] Setting up ip3
I0505 23:34:21.678606 10645 net.cpp:151] Top shape: 20 50 (1000)
I0505 23:34:21.678609 10645 net.cpp:159] Memory required for data: 2290640
I0505 23:34:21.678614 10645 layer_factory.hpp:77] Creating layer ip3_ip3_0_split
I0505 23:34:21.678619 10645 net.cpp:94] Creating Layer ip3_ip3_0_split
I0505 23:34:21.678622 10645 net.cpp:435] ip3_ip3_0_split <- ip3
I0505 23:34:21.678625 10645 net.cpp:409] ip3_ip3_0_split -> ip3_ip3_0_split_0
I0505 23:34:21.678630 10645 net.cpp:409] ip3_ip3_0_split -> ip3_ip3_0_split_1
I0505 23:34:21.678668 10645 net.cpp:144] Setting up ip3_ip3_0_split
I0505 23:34:21.678673 10645 net.cpp:151] Top shape: 20 50 (1000)
I0505 23:34:21.678675 10645 net.cpp:151] Top shape: 20 50 (1000)
I0505 23:34:21.678678 10645 net.cpp:159] Memory required for data: 2298640
I0505 23:34:21.678681 10645 layer_factory.hpp:77] Creating layer accuracy
I0505 23:34:21.678686 10645 net.cpp:94] Creating Layer accuracy
I0505 23:34:21.678689 10645 net.cpp:435] accuracy <- ip3_ip3_0_split_0
I0505 23:34:21.678694 10645 net.cpp:435] accuracy <- label_intercept_1_split_0
I0505 23:34:21.678697 10645 net.cpp:409] accuracy -> accuracy
…
