…
I0501 01:04:33.622723 28977 net.cpp:323] The NetState phase (0) differed from the phase (1) specified by a rule in layer intercept
I0501 01:04:33.622740 28977 net.cpp:323] The NetState phase (0) differed from the phase (1) specified by a rule in layer loss
I0501 01:04:33.622830 28977 net.cpp:52] Initializing net from parameters: 
state {
  phase: TRAIN
}
layer {
  name: "parameters"
  type: "HDF5Data"
  top: "data"
  top: "label"
  include {
    phase: TRAIN
  }
  hdf5_data_param {
    source: "/home/purduethu/scratch/radon/d/deng106/CNNStatisticalModel/distributions/input/50_distributions_900_sample_size_train-parameters-path.txt"
    batch_size: 20
  }
}
layer {
  name: "conv1"
  type: "Convolution"
  bottom: "data"
  top: "conv1"
  param {
    lr_mult: 1
  }
  param {
    lr_mult: 2
  }
  convolution_param {
    num_output: 64
    pad: 2
    kernel_size: 5
    stride: 1
    weight_filler {
      type: "gaussian"
      std: 0.0001
    }
    bias_filler {
      type: "constant"
    }
  }
}
layer {
  name: "relu1"
  type: "ReLU"
  bottom: "conv1"
  top: "conv1"
}
layer {
  name: "conv2"
  type: "Convolution"
  bottom: "conv1"
  top: "conv2"
  param {
    lr_mult: 1
  }
  param {
    lr_mult: 2
  }
  convolution_param {
    num_output: 64
    pad: 2
    kernel_size: 5
    stride: 1
    weight_filler {
      type: "gaussian"
      std: 0.01
    }
    bias_filler {
      type: "constant"
    }
  }
}
layer {
  name: "relu2"
  type: "ReLU"
  bottom: "conv2"
  top: "conv2"
}
layer {
  name: "pool2"
  type: "Pooling"
  bottom: "conv2"
  top: "pool2"
  pooling_param {
    pool: MAX
    kernel_size: 3
    stride: 2
  }
}
layer {
  name: "conv3"
  type: "Convolution"
  bottom: "pool2"
  top: "conv3"
  param {
    lr_mult: 1
  }
  param {
    lr_mult: 2
  }
  convolution_param {
    num_output: 128
    pad: 2
    kernel_size: 5
    stride: 1
    weight_filler {
      type: "gaussian"
      std: 0.01
    }
    bias_filler {
      type: "constant"
    }
  }
}
layer {
  name: "relu3"
  type: "ReLU"
  bottom: "conv3"
  top: "conv3"
}
layer {
  name: "conv4"
  type: "Convolution"
  bottom: "conv3"
  top: "conv4"
  param {
    lr_mult: 1
  }
  param {
    lr_mult: 2
  }
  convolution_param {
    num_output: 128
    pad: 2
    kernel_size: 5
    stride: 1
    weight_filler {
      type: "gaussian"
      std: 0.01
    }
    bias_filler {
      type: "constant"
    }
  }
}
layer {
  name: "relu4"
  type: "ReLU"
  bottom: "conv4"
  top: "conv4"
}
layer {
  name: "conv5"
  type: "Convolution"
  bottom: "conv4"
  top: "conv5"
  param {
    lr_mult: 1
  }
  param {
    lr_mult: 2
  }
  convolution_param {
    num_output: 128
    pad: 2
    kernel_size: 5
    stride: 1
    weight_filler {
      type: "gaussian"
      std: 0.01
    }
    bias_filler {
      type: "constant"
    }
  }
}
layer {
  name: "relu5"
  type: "ReLU"
  bottom: "conv5"
  top: "conv5"
}
layer {
  name: "pool5"
  type: "Pooling"
  bottom: "conv5"
  top: "pool5"
  pooling_param {
    pool: AVE
    kernel_size: 3
    stride: 2
  }
}
layer {
  name: "ip1"
  type: "InnerProduct"
  bottom: "pool5"
  top: "ip1"
  param {
    lr_mult: 1
  }
  param {
    lr_mult: 2
  }
  inner_product_param {
    num_output: 1024
    weight_filler {
      type: "gaussian"
      std: 0.1
    }
    bias_filler {
      type: "constant"
    }
  }
}
layer {
  name: "ip2"
  type: "InnerProduct"
  bottom: "ip1"
  top: "ip2"
  param {
    lr_mult: 1
  }
  param {
    lr_mult: 2
  }
  inner_product_param {
    num_output: 512
    weight_filler {
      type: "gaussian"
      std: 0.1
    }
    bias_filler {
      type: "constant"
    }
  }
}
layer {
  name: "ip3"
  type: "InnerProduct"
  bottom: "ip2"
  top: "ip3"
  param {
    lr_mult: 1
  }
  param {
    lr_mult: 2
  }
  inner_product_param {
    num_output: 1
    weight_filler {
      type: "gaussian"
      std: 0.1
    }
    bias_filler {
      type: "constant"
    }
  }
}
layer {
  name: "loss"
  type: "HuberLoss"
  bottom: "ip3"
  bottom: "label"
  top: "loss"
  include {
    phase: TRAIN
  }
}
I0501 01:04:33.622903 28977 layer_factory.hpp:77] Creating layer parameters
I0501 01:04:33.622918 28977 net.cpp:94] Creating Layer parameters
I0501 01:04:33.622925 28977 net.cpp:409] parameters -> data
I0501 01:04:33.622943 28977 net.cpp:409] parameters -> label
I0501 01:04:33.622953 28977 hdf5_data_layer.cpp:79] Loading list of HDF5 filenames from: /home/purduethu/scratch/radon/d/deng106/CNNStatisticalModel/distributions/input/50_distributions_900_sample_size_train-parameters-path.txt
I0501 01:04:33.622975 28977 hdf5_data_layer.cpp:93] Number of HDF5 files: 1
I0501 01:04:33.623445 28977 hdf5.cpp:32] Datatype class: H5T_FLOAT
I0501 01:04:35.075145 28977 net.cpp:144] Setting up parameters
I0501 01:04:35.075181 28977 net.cpp:151] Top shape: 20 1 30 30 (18000)
I0501 01:04:35.075186 28977 net.cpp:151] Top shape: 20 (20)
I0501 01:04:35.075191 28977 net.cpp:159] Memory required for data: 72080
I0501 01:04:35.075198 28977 layer_factory.hpp:77] Creating layer conv1
I0501 01:04:35.075222 28977 net.cpp:94] Creating Layer conv1
I0501 01:04:35.075228 28977 net.cpp:435] conv1 <- data
I0501 01:04:35.075239 28977 net.cpp:409] conv1 -> conv1
I0501 01:04:35.081099 28977 net.cpp:144] Setting up conv1
I0501 01:04:35.081115 28977 net.cpp:151] Top shape: 20 64 30 30 (1152000)
I0501 01:04:35.081120 28977 net.cpp:159] Memory required for data: 4680080
I0501 01:04:35.081132 28977 layer_factory.hpp:77] Creating layer relu1
I0501 01:04:35.081140 28977 net.cpp:94] Creating Layer relu1
I0501 01:04:35.081145 28977 net.cpp:435] relu1 <- conv1
I0501 01:04:35.081149 28977 net.cpp:396] relu1 -> conv1 (in-place)
I0501 01:04:35.081166 28977 net.cpp:144] Setting up relu1
I0501 01:04:35.081171 28977 net.cpp:151] Top shape: 20 64 30 30 (1152000)
I0501 01:04:35.081176 28977 net.cpp:159] Memory required for data: 9288080
I0501 01:04:35.081178 28977 layer_factory.hpp:77] Creating layer conv2
I0501 01:04:35.081187 28977 net.cpp:94] Creating Layer conv2
I0501 01:04:35.081190 28977 net.cpp:435] conv2 <- conv1
I0501 01:04:35.081195 28977 net.cpp:409] conv2 -> conv2
I0501 01:04:35.096276 28977 net.cpp:144] Setting up conv2
I0501 01:04:35.096292 28977 net.cpp:151] Top shape: 20 64 30 30 (1152000)
I0501 01:04:35.096295 28977 net.cpp:159] Memory required for data: 13896080
I0501 01:04:35.096303 28977 layer_factory.hpp:77] Creating layer relu2
I0501 01:04:35.096310 28977 net.cpp:94] Creating Layer relu2
I0501 01:04:35.096314 28977 net.cpp:435] relu2 <- conv2
I0501 01:04:35.096319 28977 net.cpp:396] relu2 -> conv2 (in-place)
I0501 01:04:35.096326 28977 net.cpp:144] Setting up relu2
I0501 01:04:35.096331 28977 net.cpp:151] Top shape: 20 64 30 30 (1152000)
I0501 01:04:35.096334 28977 net.cpp:159] Memory required for data: 18504080
I0501 01:04:35.096338 28977 layer_factory.hpp:77] Creating layer pool2
I0501 01:04:35.096345 28977 net.cpp:94] Creating Layer pool2
I0501 01:04:35.096355 28977 net.cpp:435] pool2 <- conv2
I0501 01:04:35.096360 28977 net.cpp:409] pool2 -> pool2
I0501 01:04:35.096403 28977 net.cpp:144] Setting up pool2
I0501 01:04:35.096411 28977 net.cpp:151] Top shape: 20 64 15 15 (288000)
I0501 01:04:35.096415 28977 net.cpp:159] Memory required for data: 19656080
I0501 01:04:35.096418 28977 layer_factory.hpp:77] Creating layer conv3
I0501 01:04:35.096426 28977 net.cpp:94] Creating Layer conv3
I0501 01:04:35.096429 28977 net.cpp:435] conv3 <- pool2
I0501 01:04:35.096434 28977 net.cpp:409] conv3 -> conv3
I0501 01:04:35.108731 28977 net.cpp:144] Setting up conv3
I0501 01:04:35.108747 28977 net.cpp:151] Top shape: 20 128 15 15 (576000)
I0501 01:04:35.108752 28977 net.cpp:159] Memory required for data: 21960080
I0501 01:04:35.108759 28977 layer_factory.hpp:77] Creating layer relu3
I0501 01:04:35.108765 28977 net.cpp:94] Creating Layer relu3
I0501 01:04:35.108769 28977 net.cpp:435] relu3 <- conv3
I0501 01:04:35.108774 28977 net.cpp:396] relu3 -> conv3 (in-place)
I0501 01:04:35.108781 28977 net.cpp:144] Setting up relu3
I0501 01:04:35.108786 28977 net.cpp:151] Top shape: 20 128 15 15 (576000)
I0501 01:04:35.108789 28977 net.cpp:159] Memory required for data: 24264080
I0501 01:04:35.108793 28977 layer_factory.hpp:77] Creating layer conv4
I0501 01:04:35.108801 28977 net.cpp:94] Creating Layer conv4
I0501 01:04:35.108805 28977 net.cpp:435] conv4 <- conv3
I0501 01:04:35.108810 28977 net.cpp:409] conv4 -> conv4
I0501 01:04:35.130205 28977 net.cpp:144] Setting up conv4
I0501 01:04:35.130220 28977 net.cpp:151] Top shape: 20 128 15 15 (576000)
I0501 01:04:35.130225 28977 net.cpp:159] Memory required for data: 26568080
I0501 01:04:35.130231 28977 layer_factory.hpp:77] Creating layer relu4
I0501 01:04:35.130237 28977 net.cpp:94] Creating Layer relu4
I0501 01:04:35.130241 28977 net.cpp:435] relu4 <- conv4
I0501 01:04:35.130246 28977 net.cpp:396] relu4 -> conv4 (in-place)
I0501 01:04:35.130254 28977 net.cpp:144] Setting up relu4
I0501 01:04:35.130259 28977 net.cpp:151] Top shape: 20 128 15 15 (576000)
I0501 01:04:35.130261 28977 net.cpp:159] Memory required for data: 28872080
I0501 01:04:35.130264 28977 layer_factory.hpp:77] Creating layer conv5
I0501 01:04:35.130272 28977 net.cpp:94] Creating Layer conv5
I0501 01:04:35.130276 28977 net.cpp:435] conv5 <- conv4
I0501 01:04:35.130281 28977 net.cpp:409] conv5 -> conv5
I0501 01:04:35.151141 28977 net.cpp:144] Setting up conv5
I0501 01:04:35.151157 28977 net.cpp:151] Top shape: 20 128 15 15 (576000)
I0501 01:04:35.151161 28977 net.cpp:159] Memory required for data: 31176080
I0501 01:04:35.151170 28977 layer_factory.hpp:77] Creating layer relu5
I0501 01:04:35.151176 28977 net.cpp:94] Creating Layer relu5
I0501 01:04:35.151180 28977 net.cpp:435] relu5 <- conv5
I0501 01:04:35.151185 28977 net.cpp:396] relu5 -> conv5 (in-place)
I0501 01:04:35.151192 28977 net.cpp:144] Setting up relu5
I0501 01:04:35.151196 28977 net.cpp:151] Top shape: 20 128 15 15 (576000)
I0501 01:04:35.151201 28977 net.cpp:159] Memory required for data: 33480080
I0501 01:04:35.151203 28977 layer_factory.hpp:77] Creating layer pool5
I0501 01:04:35.151208 28977 net.cpp:94] Creating Layer pool5
I0501 01:04:35.151212 28977 net.cpp:435] pool5 <- conv5
I0501 01:04:35.151216 28977 net.cpp:409] pool5 -> pool5
I0501 01:04:35.151252 28977 net.cpp:144] Setting up pool5
I0501 01:04:35.151258 28977 net.cpp:151] Top shape: 20 128 7 7 (125440)
I0501 01:04:35.151262 28977 net.cpp:159] Memory required for data: 33981840
I0501 01:04:35.151265 28977 layer_factory.hpp:77] Creating layer ip1
I0501 01:04:35.151275 28977 net.cpp:94] Creating Layer ip1
I0501 01:04:35.151279 28977 net.cpp:435] ip1 <- pool5
I0501 01:04:35.151284 28977 net.cpp:409] ip1 -> ip1
I0501 01:04:35.307202 28977 net.cpp:144] Setting up ip1
I0501 01:04:35.307238 28977 net.cpp:151] Top shape: 20 1024 (20480)
I0501 01:04:35.307243 28977 net.cpp:159] Memory required for data: 34063760
I0501 01:04:35.307251 28977 layer_factory.hpp:77] Creating layer ip2
I0501 01:04:35.307262 28977 net.cpp:94] Creating Layer ip2
I0501 01:04:35.307276 28977 net.cpp:435] ip2 <- ip1
I0501 01:04:35.307283 28977 net.cpp:409] ip2 -> ip2
I0501 01:04:35.320226 28977 net.cpp:144] Setting up ip2
I0501 01:04:35.320248 28977 net.cpp:151] Top shape: 20 512 (10240)
I0501 01:04:35.320252 28977 net.cpp:159] Memory required for data: 34104720
I0501 01:04:35.320258 28977 layer_factory.hpp:77] Creating layer ip3
I0501 01:04:35.320267 28977 net.cpp:94] Creating Layer ip3
I0501 01:04:35.320271 28977 net.cpp:435] ip3 <- ip2
I0501 01:04:35.320278 28977 net.cpp:409] ip3 -> ip3
I0501 01:04:35.320356 28977 net.cpp:144] Setting up ip3
I0501 01:04:35.320372 28977 net.cpp:151] Top shape: 20 1 (20)
I0501 01:04:35.320376 28977 net.cpp:159] Memory required for data: 34104800
I0501 01:04:35.320381 28977 layer_factory.hpp:77] Creating layer loss
I0501 01:04:35.320390 28977 net.cpp:94] Creating Layer loss
I0501 01:04:35.320394 28977 net.cpp:435] loss <- ip3
I0501 01:04:35.320399 28977 net.cpp:435] loss <- label
I0501 01:04:35.320405 28977 net.cpp:409] loss -> loss
I0501 01:04:35.320439 28977 net.cpp:144] Setting up loss
…
