…
I0505 03:18:59.970937  2976 net.cpp:323] The NetState phase (0) differed from the phase (1) specified by a rule in layer intercept
I0505 03:18:59.970950  2976 net.cpp:323] The NetState phase (0) differed from the phase (1) specified by a rule in layer loss
I0505 03:18:59.971029  2976 net.cpp:52] Initializing net from parameters: 
state {
  phase: TRAIN
}
layer {
  name: "parameters"
  type: "HDF5Data"
  top: "data"
  top: "label"
  include {
    phase: TRAIN
  }
  hdf5_data_param {
    source: "/home/purduethu/scratch/radon/d/deng106/CNNStatisticalModel/distributions/input/20_distributions_900_sample_size_train-parameters-path.txt"
    batch_size: 20
  }
}
layer {
  name: "conv1"
  type: "Convolution"
  bottom: "data"
  top: "conv1"
  param {
    lr_mult: 1
  }
  param {
    lr_mult: 2
  }
  convolution_param {
    num_output: 64
    pad: 2
    kernel_size: 5
    stride: 1
    weight_filler {
      type: "gaussian"
      std: 0.0001
    }
    bias_filler {
      type: "constant"
    }
  }
}
layer {
  name: "relu1"
  type: "ReLU"
  bottom: "conv1"
  top: "conv1"
}
layer {
  name: "pool1"
  type: "Pooling"
  bottom: "conv1"
  top: "pool1"
  pooling_param {
    pool: MAX
    kernel_size: 3
    stride: 2
  }
}
layer {
  name: "conv2"
  type: "Convolution"
  bottom: "pool1"
  top: "conv2"
  param {
    lr_mult: 1
  }
  param {
    lr_mult: 2
  }
  convolution_param {
    num_output: 128
    pad: 2
    kernel_size: 5
    stride: 1
    weight_filler {
      type: "gaussian"
      std: 0.01
    }
    bias_filler {
      type: "constant"
    }
  }
}
layer {
  name: "relu2"
  type: "ReLU"
  bottom: "conv2"
  top: "conv2"
}
layer {
  name: "conv3"
  type: "Convolution"
  bottom: "conv2"
  top: "conv3"
  param {
    lr_mult: 1
  }
  param {
    lr_mult: 2
  }
  convolution_param {
    num_output: 128
    pad: 2
    kernel_size: 5
    stride: 1
    weight_filler {
      type: "gaussian"
      std: 0.01
    }
    bias_filler {
      type: "constant"
    }
  }
}
layer {
  name: "relu3"
  type: "ReLU"
  bottom: "conv3"
  top: "conv3"
}
layer {
  name: "pool3"
  type: "Pooling"
  bottom: "conv3"
  top: "pool3"
  pooling_param {
    pool: AVE
    kernel_size: 3
    stride: 2
  }
}
layer {
  name: "ip1"
  type: "InnerProduct"
  bottom: "pool3"
  top: "ip1"
  param {
    lr_mult: 1
  }
  param {
    lr_mult: 2
  }
  inner_product_param {
    num_output: 512
    weight_filler {
      type: "gaussian"
      std: 0.1
    }
    bias_filler {
      type: "constant"
    }
  }
}
layer {
  name: "ip2"
  type: "InnerProduct"
  bottom: "ip1"
  top: "ip2"
  param {
    lr_mult: 1
  }
  param {
    lr_mult: 2
  }
  inner_product_param {
    num_output: 256
    weight_filler {
      type: "gaussian"
      std: 0.1
    }
    bias_filler {
      type: "constant"
    }
  }
}
layer {
  name: "ip3"
  type: "InnerProduct"
  bottom: "ip2"
  top: "ip3"
  param {
    lr_mult: 1
  }
  param {
    lr_mult: 2
  }
  inner_product_param {
    num_output: 1
    weight_filler {
      type: "gaussian"
      std: 0.1
    }
    bias_filler {
      type: "constant"
    }
  }
}
layer {
  name: "loss"
  type: "HuberLoss"
  bottom: "ip3"
  bottom: "label"
  top: "loss"
  include {
    phase: TRAIN
  }
}
I0505 03:18:59.971096  2976 layer_factory.hpp:77] Creating layer parameters
I0505 03:18:59.971110  2976 net.cpp:94] Creating Layer parameters
I0505 03:18:59.971127  2976 net.cpp:409] parameters -> data
I0505 03:18:59.971148  2976 net.cpp:409] parameters -> label
I0505 03:18:59.971158  2976 hdf5_data_layer.cpp:79] Loading list of HDF5 filenames from: /home/purduethu/scratch/radon/d/deng106/CNNStatisticalModel/distributions/input/20_distributions_900_sample_size_train-parameters-path.txt
I0505 03:18:59.971180  2976 hdf5_data_layer.cpp:93] Number of HDF5 files: 1
I0505 03:18:59.971750  2976 hdf5.cpp:32] Datatype class: H5T_FLOAT
I0505 03:19:00.563590  2976 net.cpp:144] Setting up parameters
I0505 03:19:00.563624  2976 net.cpp:151] Top shape: 20 1 30 30 (18000)
I0505 03:19:00.563630  2976 net.cpp:151] Top shape: 20 (20)
I0505 03:19:00.563633  2976 net.cpp:159] Memory required for data: 72080
I0505 03:19:00.563640  2976 layer_factory.hpp:77] Creating layer conv1
I0505 03:19:00.563659  2976 net.cpp:94] Creating Layer conv1
I0505 03:19:00.563664  2976 net.cpp:435] conv1 <- data
I0505 03:19:00.563676  2976 net.cpp:409] conv1 -> conv1
I0505 03:19:00.569504  2976 net.cpp:144] Setting up conv1
I0505 03:19:00.569519  2976 net.cpp:151] Top shape: 20 64 30 30 (1152000)
I0505 03:19:00.569524  2976 net.cpp:159] Memory required for data: 4680080
I0505 03:19:00.569535  2976 layer_factory.hpp:77] Creating layer relu1
I0505 03:19:00.569543  2976 net.cpp:94] Creating Layer relu1
I0505 03:19:00.569547  2976 net.cpp:435] relu1 <- conv1
I0505 03:19:00.569551  2976 net.cpp:396] relu1 -> conv1 (in-place)
I0505 03:19:00.569566  2976 net.cpp:144] Setting up relu1
I0505 03:19:00.569572  2976 net.cpp:151] Top shape: 20 64 30 30 (1152000)
I0505 03:19:00.569576  2976 net.cpp:159] Memory required for data: 9288080
I0505 03:19:00.569578  2976 layer_factory.hpp:77] Creating layer pool1
I0505 03:19:00.569586  2976 net.cpp:94] Creating Layer pool1
I0505 03:19:00.569589  2976 net.cpp:435] pool1 <- conv1
I0505 03:19:00.569593  2976 net.cpp:409] pool1 -> pool1
I0505 03:19:00.569636  2976 net.cpp:144] Setting up pool1
I0505 03:19:00.569643  2976 net.cpp:151] Top shape: 20 64 15 15 (288000)
I0505 03:19:00.569646  2976 net.cpp:159] Memory required for data: 10440080
I0505 03:19:00.569649  2976 layer_factory.hpp:77] Creating layer conv2
I0505 03:19:00.569658  2976 net.cpp:94] Creating Layer conv2
I0505 03:19:00.569661  2976 net.cpp:435] conv2 <- pool1
I0505 03:19:00.569666  2976 net.cpp:409] conv2 -> conv2
I0505 03:19:00.582136  2976 net.cpp:144] Setting up conv2
I0505 03:19:00.582152  2976 net.cpp:151] Top shape: 20 128 15 15 (576000)
I0505 03:19:00.582156  2976 net.cpp:159] Memory required for data: 12744080
I0505 03:19:00.582165  2976 layer_factory.hpp:77] Creating layer relu2
I0505 03:19:00.582170  2976 net.cpp:94] Creating Layer relu2
I0505 03:19:00.582175  2976 net.cpp:435] relu2 <- conv2
I0505 03:19:00.582180  2976 net.cpp:396] relu2 -> conv2 (in-place)
I0505 03:19:00.582186  2976 net.cpp:144] Setting up relu2
I0505 03:19:00.582191  2976 net.cpp:151] Top shape: 20 128 15 15 (576000)
I0505 03:19:00.582195  2976 net.cpp:159] Memory required for data: 15048080
I0505 03:19:00.582197  2976 layer_factory.hpp:77] Creating layer conv3
I0505 03:19:00.582204  2976 net.cpp:94] Creating Layer conv3
I0505 03:19:00.582208  2976 net.cpp:435] conv3 <- conv2
I0505 03:19:00.582213  2976 net.cpp:409] conv3 -> conv3
I0505 03:19:00.603822  2976 net.cpp:144] Setting up conv3
I0505 03:19:00.603837  2976 net.cpp:151] Top shape: 20 128 15 15 (576000)
I0505 03:19:00.603842  2976 net.cpp:159] Memory required for data: 17352080
I0505 03:19:00.603850  2976 layer_factory.hpp:77] Creating layer relu3
I0505 03:19:00.603863  2976 net.cpp:94] Creating Layer relu3
I0505 03:19:00.603868  2976 net.cpp:435] relu3 <- conv3
I0505 03:19:00.603873  2976 net.cpp:396] relu3 -> conv3 (in-place)
I0505 03:19:00.603879  2976 net.cpp:144] Setting up relu3
I0505 03:19:00.603883  2976 net.cpp:151] Top shape: 20 128 15 15 (576000)
I0505 03:19:00.603888  2976 net.cpp:159] Memory required for data: 19656080
I0505 03:19:00.603890  2976 layer_factory.hpp:77] Creating layer pool3
I0505 03:19:00.603896  2976 net.cpp:94] Creating Layer pool3
I0505 03:19:00.603899  2976 net.cpp:435] pool3 <- conv3
I0505 03:19:00.603911  2976 net.cpp:409] pool3 -> pool3
I0505 03:19:00.603945  2976 net.cpp:144] Setting up pool3
I0505 03:19:00.603952  2976 net.cpp:151] Top shape: 20 128 7 7 (125440)
I0505 03:19:00.603955  2976 net.cpp:159] Memory required for data: 20157840
I0505 03:19:00.603958  2976 layer_factory.hpp:77] Creating layer ip1
I0505 03:19:00.603967  2976 net.cpp:94] Creating Layer ip1
I0505 03:19:00.603971  2976 net.cpp:435] ip1 <- pool3
I0505 03:19:00.603976  2976 net.cpp:409] ip1 -> ip1
I0505 03:19:00.681161  2976 net.cpp:144] Setting up ip1
I0505 03:19:00.681180  2976 net.cpp:151] Top shape: 20 512 (10240)
I0505 03:19:00.681185  2976 net.cpp:159] Memory required for data: 20198800
I0505 03:19:00.681191  2976 layer_factory.hpp:77] Creating layer ip2
I0505 03:19:00.681200  2976 net.cpp:94] Creating Layer ip2
I0505 03:19:00.681205  2976 net.cpp:435] ip2 <- ip1
I0505 03:19:00.681210  2976 net.cpp:409] ip2 -> ip2
I0505 03:19:00.684312  2976 net.cpp:144] Setting up ip2
I0505 03:19:00.684320  2976 net.cpp:151] Top shape: 20 256 (5120)
I0505 03:19:00.684324  2976 net.cpp:159] Memory required for data: 20219280
I0505 03:19:00.684331  2976 layer_factory.hpp:77] Creating layer ip3
I0505 03:19:00.684337  2976 net.cpp:94] Creating Layer ip3
I0505 03:19:00.684340  2976 net.cpp:435] ip3 <- ip2
I0505 03:19:00.684345  2976 net.cpp:409] ip3 -> ip3
I0505 03:19:00.684407  2976 net.cpp:144] Setting up ip3
I0505 03:19:00.684413  2976 net.cpp:151] Top shape: 20 1 (20)
I0505 03:19:00.684417  2976 net.cpp:159] Memory required for data: 20219360
I0505 03:19:00.684422  2976 layer_factory.hpp:77] Creating layer loss
I0505 03:19:00.684435  2976 net.cpp:94] Creating Layer loss
I0505 03:19:00.684438  2976 net.cpp:435] loss <- ip3
I0505 03:19:00.684442  2976 net.cpp:435] loss <- label
I0505 03:19:00.684448  2976 net.cpp:409] loss -> loss
I0505 03:19:00.684481  2976 net.cpp:144] Setting up loss
…
