…
I0503 19:25:16.922346 21999 net.cpp:323] The NetState phase (0) differed from the phase (1) specified by a rule in layer intercept
I0503 19:25:16.922363 21999 net.cpp:323] The NetState phase (0) differed from the phase (1) specified by a rule in layer accuracy
I0503 19:25:16.922453 21999 net.cpp:52] Initializing net from parameters: 
state {
  phase: TRAIN
}
layer {
  name: "parameters"
  type: "HDF5Data"
  top: "data"
  top: "label"
  include {
    phase: TRAIN
  }
  hdf5_data_param {
    source: "/home/purduethu/scratch/radon/d/deng106/CNNStatisticalModel/distributions/input/5_distributions_900_sample_size_train-distributions-path.txt"
    batch_size: 20
  }
}
layer {
  name: "conv1"
  type: "Convolution"
  bottom: "data"
  top: "conv1"
  param {
    lr_mult: 1
  }
  param {
    lr_mult: 2
  }
  convolution_param {
    num_output: 64
    pad: 2
    kernel_size: 5
    stride: 1
    weight_filler {
      type: "gaussian"
      std: 0.0001
    }
    bias_filler {
      type: "constant"
    }
  }
}
layer {
  name: "relu1"
  type: "ReLU"
  bottom: "conv1"
  top: "conv1"
}
layer {
  name: "conv2"
  type: "Convolution"
  bottom: "conv1"
  top: "conv2"
  param {
    lr_mult: 1
  }
  param {
    lr_mult: 2
  }
  convolution_param {
    num_output: 64
    pad: 2
    kernel_size: 5
    stride: 1
    weight_filler {
      type: "gaussian"
      std: 0.01
    }
    bias_filler {
      type: "constant"
    }
  }
}
layer {
  name: "relu2"
  type: "ReLU"
  bottom: "conv2"
  top: "conv2"
}
layer {
  name: "pool2"
  type: "Pooling"
  bottom: "conv2"
  top: "pool2"
  pooling_param {
    pool: MAX
    kernel_size: 3
    stride: 2
  }
}
layer {
  name: "conv3"
  type: "Convolution"
  bottom: "pool2"
  top: "conv3"
  param {
    lr_mult: 1
  }
  param {
    lr_mult: 2
  }
  convolution_param {
    num_output: 128
    pad: 2
    kernel_size: 5
    stride: 1
    weight_filler {
      type: "gaussian"
      std: 0.01
    }
    bias_filler {
      type: "constant"
    }
  }
}
layer {
  name: "relu3"
  type: "ReLU"
  bottom: "conv3"
  top: "conv3"
}
layer {
  name: "conv4"
  type: "Convolution"
  bottom: "conv3"
  top: "conv4"
  param {
    lr_mult: 1
  }
  param {
    lr_mult: 2
  }
  convolution_param {
    num_output: 128
    pad: 2
    kernel_size: 5
    stride: 1
    weight_filler {
      type: "gaussian"
      std: 0.01
    }
    bias_filler {
      type: "constant"
    }
  }
}
layer {
  name: "relu4"
  type: "ReLU"
  bottom: "conv4"
  top: "conv4"
}
layer {
  name: "conv5"
  type: "Convolution"
  bottom: "conv4"
  top: "conv5"
  param {
    lr_mult: 1
  }
  param {
    lr_mult: 2
  }
  convolution_param {
    num_output: 128
    pad: 2
    kernel_size: 5
    stride: 1
    weight_filler {
      type: "gaussian"
      std: 0.01
    }
    bias_filler {
      type: "constant"
    }
  }
}
layer {
  name: "relu5"
  type: "ReLU"
  bottom: "conv5"
  top: "conv5"
}
layer {
  name: "pool5"
  type: "Pooling"
  bottom: "conv5"
  top: "pool5"
  pooling_param {
    pool: AVE
    kernel_size: 3
    stride: 2
  }
}
layer {
  name: "ip1"
  type: "InnerProduct"
  bottom: "pool5"
  top: "ip1"
  param {
    lr_mult: 1
  }
  param {
    lr_mult: 2
  }
  inner_product_param {
    num_output: 1024
    weight_filler {
      type: "gaussian"
      std: 0.1
    }
    bias_filler {
      type: "constant"
    }
  }
}
layer {
  name: "ip2"
  type: "InnerProduct"
  bottom: "ip1"
  top: "ip2"
  param {
    lr_mult: 1
  }
  param {
    lr_mult: 2
  }
  inner_product_param {
    num_output: 512
    weight_filler {
      type: "gaussian"
      std: 0.1
    }
    bias_filler {
      type: "constant"
    }
  }
}
layer {
  name: "ip3"
  type: "InnerProduct"
  bottom: "ip2"
  top: "ip3"
  param {
    lr_mult: 1
  }
  param {
    lr_mult: 2
  }
  inner_product_param {
    num_output: 50
    weight_filler {
      type: "gaussian"
      std: 0.1
    }
    bias_filler {
      type: "constant"
    }
  }
}
layer {
  name: "loss"
  type: "SoftmaxWithLoss"
  bottom: "ip3"
  bottom: "label"
  top: "loss"
}
I0503 19:25:16.922529 21999 layer_factory.hpp:77] Creating layer parameters
I0503 19:25:16.922544 21999 net.cpp:94] Creating Layer parameters
I0503 19:25:16.922549 21999 net.cpp:409] parameters -> data
I0503 19:25:16.922569 21999 net.cpp:409] parameters -> label
I0503 19:25:16.922582 21999 hdf5_data_layer.cpp:79] Loading list of HDF5 filenames from: /home/purduethu/scratch/radon/d/deng106/CNNStatisticalModel/distributions/input/5_distributions_900_sample_size_train-distributions-path.txt
I0503 19:25:16.922608 21999 hdf5_data_layer.cpp:93] Number of HDF5 files: 1
I0503 19:25:16.923177 21999 hdf5.cpp:32] Datatype class: H5T_FLOAT
I0503 19:25:17.060531 21999 hdf5.cpp:35] Datatype class: H5T_INTEGER
I0503 19:25:17.061681 21999 net.cpp:144] Setting up parameters
I0503 19:25:17.061699 21999 net.cpp:151] Top shape: 20 1 30 30 (18000)
I0503 19:25:17.061704 21999 net.cpp:151] Top shape: 20 (20)
I0503 19:25:17.061708 21999 net.cpp:159] Memory required for data: 72080
I0503 19:25:17.061715 21999 layer_factory.hpp:77] Creating layer conv1
I0503 19:25:17.061741 21999 net.cpp:94] Creating Layer conv1
I0503 19:25:17.061748 21999 net.cpp:435] conv1 <- data
I0503 19:25:17.061758 21999 net.cpp:409] conv1 -> conv1
I0503 19:25:17.067617 21999 net.cpp:144] Setting up conv1
I0503 19:25:17.067633 21999 net.cpp:151] Top shape: 20 64 30 30 (1152000)
I0503 19:25:17.067637 21999 net.cpp:159] Memory required for data: 4680080
I0503 19:25:17.067649 21999 layer_factory.hpp:77] Creating layer relu1
I0503 19:25:17.067657 21999 net.cpp:94] Creating Layer relu1
I0503 19:25:17.067662 21999 net.cpp:435] relu1 <- conv1
I0503 19:25:17.067665 21999 net.cpp:396] relu1 -> conv1 (in-place)
I0503 19:25:17.067680 21999 net.cpp:144] Setting up relu1
I0503 19:25:17.067685 21999 net.cpp:151] Top shape: 20 64 30 30 (1152000)
I0503 19:25:17.067688 21999 net.cpp:159] Memory required for data: 9288080
I0503 19:25:17.067692 21999 layer_factory.hpp:77] Creating layer conv2
I0503 19:25:17.067700 21999 net.cpp:94] Creating Layer conv2
I0503 19:25:17.067703 21999 net.cpp:435] conv2 <- conv1
I0503 19:25:17.067708 21999 net.cpp:409] conv2 -> conv2
I0503 19:25:17.083295 21999 net.cpp:144] Setting up conv2
I0503 19:25:17.083312 21999 net.cpp:151] Top shape: 20 64 30 30 (1152000)
I0503 19:25:17.083317 21999 net.cpp:159] Memory required for data: 13896080
I0503 19:25:17.083324 21999 layer_factory.hpp:77] Creating layer relu2
I0503 19:25:17.083333 21999 net.cpp:94] Creating Layer relu2
I0503 19:25:17.083336 21999 net.cpp:435] relu2 <- conv2
I0503 19:25:17.083340 21999 net.cpp:396] relu2 -> conv2 (in-place)
I0503 19:25:17.083348 21999 net.cpp:144] Setting up relu2
I0503 19:25:17.083353 21999 net.cpp:151] Top shape: 20 64 30 30 (1152000)
I0503 19:25:17.083356 21999 net.cpp:159] Memory required for data: 18504080
I0503 19:25:17.083359 21999 layer_factory.hpp:77] Creating layer pool2
I0503 19:25:17.083374 21999 net.cpp:94] Creating Layer pool2
I0503 19:25:17.083377 21999 net.cpp:435] pool2 <- conv2
I0503 19:25:17.083382 21999 net.cpp:409] pool2 -> pool2
I0503 19:25:17.083428 21999 net.cpp:144] Setting up pool2
I0503 19:25:17.083436 21999 net.cpp:151] Top shape: 20 64 15 15 (288000)
I0503 19:25:17.083439 21999 net.cpp:159] Memory required for data: 19656080
I0503 19:25:17.083443 21999 layer_factory.hpp:77] Creating layer conv3
I0503 19:25:17.083451 21999 net.cpp:94] Creating Layer conv3
I0503 19:25:17.083456 21999 net.cpp:435] conv3 <- pool2
I0503 19:25:17.083468 21999 net.cpp:409] conv3 -> conv3
I0503 19:25:17.096215 21999 net.cpp:144] Setting up conv3
I0503 19:25:17.096232 21999 net.cpp:151] Top shape: 20 128 15 15 (576000)
I0503 19:25:17.096236 21999 net.cpp:159] Memory required for data: 21960080
I0503 19:25:17.096246 21999 layer_factory.hpp:77] Creating layer relu3
I0503 19:25:17.096251 21999 net.cpp:94] Creating Layer relu3
I0503 19:25:17.096256 21999 net.cpp:435] relu3 <- conv3
I0503 19:25:17.096261 21999 net.cpp:396] relu3 -> conv3 (in-place)
I0503 19:25:17.096267 21999 net.cpp:144] Setting up relu3
I0503 19:25:17.096272 21999 net.cpp:151] Top shape: 20 128 15 15 (576000)
I0503 19:25:17.096276 21999 net.cpp:159] Memory required for data: 24264080
I0503 19:25:17.096279 21999 layer_factory.hpp:77] Creating layer conv4
I0503 19:25:17.096288 21999 net.cpp:94] Creating Layer conv4
I0503 19:25:17.096292 21999 net.cpp:435] conv4 <- conv3
I0503 19:25:17.096297 21999 net.cpp:409] conv4 -> conv4
I0503 19:25:17.118438 21999 net.cpp:144] Setting up conv4
I0503 19:25:17.118454 21999 net.cpp:151] Top shape: 20 128 15 15 (576000)
I0503 19:25:17.118459 21999 net.cpp:159] Memory required for data: 26568080
I0503 19:25:17.118465 21999 layer_factory.hpp:77] Creating layer relu4
I0503 19:25:17.118471 21999 net.cpp:94] Creating Layer relu4
I0503 19:25:17.118475 21999 net.cpp:435] relu4 <- conv4
I0503 19:25:17.118480 21999 net.cpp:396] relu4 -> conv4 (in-place)
I0503 19:25:17.118487 21999 net.cpp:144] Setting up relu4
I0503 19:25:17.118491 21999 net.cpp:151] Top shape: 20 128 15 15 (576000)
I0503 19:25:17.118495 21999 net.cpp:159] Memory required for data: 28872080
I0503 19:25:17.118499 21999 layer_factory.hpp:77] Creating layer conv5
I0503 19:25:17.118505 21999 net.cpp:94] Creating Layer conv5
I0503 19:25:17.118510 21999 net.cpp:435] conv5 <- conv4
I0503 19:25:17.118515 21999 net.cpp:409] conv5 -> conv5
I0503 19:25:17.140162 21999 net.cpp:144] Setting up conv5
I0503 19:25:17.140178 21999 net.cpp:151] Top shape: 20 128 15 15 (576000)
I0503 19:25:17.140183 21999 net.cpp:159] Memory required for data: 31176080
I0503 19:25:17.140192 21999 layer_factory.hpp:77] Creating layer relu5
I0503 19:25:17.140198 21999 net.cpp:94] Creating Layer relu5
I0503 19:25:17.140202 21999 net.cpp:435] relu5 <- conv5
I0503 19:25:17.140206 21999 net.cpp:396] relu5 -> conv5 (in-place)
I0503 19:25:17.140213 21999 net.cpp:144] Setting up relu5
I0503 19:25:17.140218 21999 net.cpp:151] Top shape: 20 128 15 15 (576000)
I0503 19:25:17.140221 21999 net.cpp:159] Memory required for data: 33480080
I0503 19:25:17.140224 21999 layer_factory.hpp:77] Creating layer pool5
I0503 19:25:17.140229 21999 net.cpp:94] Creating Layer pool5
I0503 19:25:17.140233 21999 net.cpp:435] pool5 <- conv5
I0503 19:25:17.140238 21999 net.cpp:409] pool5 -> pool5
I0503 19:25:17.140272 21999 net.cpp:144] Setting up pool5
I0503 19:25:17.140280 21999 net.cpp:151] Top shape: 20 128 7 7 (125440)
I0503 19:25:17.140283 21999 net.cpp:159] Memory required for data: 33981840
I0503 19:25:17.140286 21999 layer_factory.hpp:77] Creating layer ip1
I0503 19:25:17.140296 21999 net.cpp:94] Creating Layer ip1
I0503 19:25:17.140300 21999 net.cpp:435] ip1 <- pool5
I0503 19:25:17.140305 21999 net.cpp:409] ip1 -> ip1
I0503 19:25:17.303125 21999 net.cpp:144] Setting up ip1
I0503 19:25:17.303159 21999 net.cpp:151] Top shape: 20 1024 (20480)
I0503 19:25:17.303164 21999 net.cpp:159] Memory required for data: 34063760
I0503 19:25:17.303174 21999 layer_factory.hpp:77] Creating layer ip2
I0503 19:25:17.303191 21999 net.cpp:94] Creating Layer ip2
I0503 19:25:17.303197 21999 net.cpp:435] ip2 <- ip1
I0503 19:25:17.303203 21999 net.cpp:409] ip2 -> ip2
I0503 19:25:17.316728 21999 net.cpp:144] Setting up ip2
I0503 19:25:17.316742 21999 net.cpp:151] Top shape: 20 512 (10240)
I0503 19:25:17.316746 21999 net.cpp:159] Memory required for data: 34104720
I0503 19:25:17.316752 21999 layer_factory.hpp:77] Creating layer ip3
I0503 19:25:17.316759 21999 net.cpp:94] Creating Layer ip3
I0503 19:25:17.316763 21999 net.cpp:435] ip3 <- ip2
I0503 19:25:17.316769 21999 net.cpp:409] ip3 -> ip3
I0503 19:25:17.317498 21999 net.cpp:144] Setting up ip3
I0503 19:25:17.317507 21999 net.cpp:151] Top shape: 20 50 (1000)
I0503 19:25:17.317512 21999 net.cpp:159] Memory required for data: 34108720
I0503 19:25:17.317517 21999 layer_factory.hpp:77] Creating layer loss
I0503 19:25:17.317525 21999 net.cpp:94] Creating Layer loss
I0503 19:25:17.317528 21999 net.cpp:435] loss <- ip3
I0503 19:25:17.317533 21999 net.cpp:435] loss <- label
I0503 19:25:17.317539 21999 net.cpp:409] loss -> loss
I0503 19:25:17.317551 21999 layer_factory.hpp:77] Creating layer loss
…
I0503 19:25:17.318068 21999 solver.cpp:181] Creating test net (#0) specified by net file: ./protocol/dis_5_900_dimension.protocol_distribution
I0503 19:25:17.318096 21999 net.cpp:323] The NetState phase (1) differed from the phase (0) specified by a rule in layer parameters
I0503 19:25:17.318194 21999 net.cpp:52] Initializing net from parameters: 
state {
  phase: TEST
}
layer {
  name: "intercept"
  type: "HDF5Data"
  top: "data"
  top: "label"
  include {
    phase: TEST
  }
  hdf5_data_param {
    source: "/home/purduethu/scratch/radon/d/deng106/CNNStatisticalModel/distributions/input/5_distributions_900_sample_size_test-distributions-path.txt"
    batch_size: 20
  }
}
layer {
  name: "conv1"
  type: "Convolution"
  bottom: "data"
  top: "conv1"
  param {
    lr_mult: 1
  }
  param {
    lr_mult: 2
  }
  convolution_param {
    num_output: 64
    pad: 2
    kernel_size: 5
    stride: 1
    weight_filler {
      type: "gaussian"
      std: 0.0001
    }
    bias_filler {
      type: "constant"
    }
  }
}
layer {
  name: "relu1"
  type: "ReLU"
  bottom: "conv1"
  top: "conv1"
}
layer {
  name: "conv2"
  type: "Convolution"
  bottom: "conv1"
  top: "conv2"
  param {
    lr_mult: 1
  }
  param {
    lr_mult: 2
  }
  convolution_param {
    num_output: 64
    pad: 2
    kernel_size: 5
    stride: 1
    weight_filler {
      type: "gaussian"
      std: 0.01
    }
    bias_filler {
      type: "constant"
    }
  }
}
layer {
  name: "relu2"
  type: "ReLU"
  bottom: "conv2"
  top: "conv2"
}
layer {
  name: "pool2"
  type: "Pooling"
  bottom: "conv2"
  top: "pool2"
  pooling_param {
    pool: MAX
    kernel_size: 3
    stride: 2
  }
}
layer {
  name: "conv3"
  type: "Convolution"
  bottom: "pool2"
  top: "conv3"
  param {
    lr_mult: 1
  }
  param {
    lr_mult: 2
  }
  convolution_param {
    num_output: 128
    pad: 2
    kernel_size: 5
    stride: 1
    weight_filler {
      type: "gaussian"
      std: 0.01
    }
    bias_filler {
      type: "constant"
    }
  }
}
layer {
  name: "relu3"
  type: "ReLU"
  bottom: "conv3"
  top: "conv3"
}
layer {
  name: "conv4"
  type: "Convolution"
  bottom: "conv3"
  top: "conv4"
  param {
    lr_mult: 1
  }
  param {
    lr_mult: 2
  }
  convolution_param {
    num_output: 128
    pad: 2
    kernel_size: 5
    stride: 1
    weight_filler {
      type: "gaussian"
      std: 0.01
    }
    bias_filler {
      type: "constant"
    }
  }
}
layer {
  name: "relu4"
  type: "ReLU"
  bottom: "conv4"
  top: "conv4"
}
layer {
  name: "conv5"
  type: "Convolution"
  bottom: "conv4"
  top: "conv5"
  param {
    lr_mult: 1
  }
  param {
    lr_mult: 2
  }
  convolution_param {
    num_output: 128
    pad: 2
    kernel_size: 5
    stride: 1
    weight_filler {
      type: "gaussian"
      std: 0.01
    }
    bias_filler {
      type: "constant"
    }
  }
}
layer {
  name: "relu5"
  type: "ReLU"
  bottom: "conv5"
  top: "conv5"
}
layer {
  name: "pool5"
  type: "Pooling"
  bottom: "conv5"
  top: "pool5"
  pooling_param {
    pool: AVE
    kernel_size: 3
    stride: 2
  }
}
layer {
  name: "ip1"
  type: "InnerProduct"
  bottom: "pool5"
  top: "ip1"
  param {
    lr_mult: 1
  }
  param {
    lr_mult: 2
  }
  inner_product_param {
    num_output: 1024
    weight_filler {
      type: "gaussian"
      std: 0.1
    }
    bias_filler {
      type: "constant"
    }
  }
}
layer {
  name: "ip2"
  type: "InnerProduct"
  bottom: "ip1"
  top: "ip2"
  param {
    lr_mult: 1
  }
  param {
    lr_mult: 2
  }
  inner_product_param {
    num_output: 512
    weight_filler {
      type: "gaussian"
      std: 0.1
    }
    bias_filler {
      type: "constant"
    }
  }
}
layer {
  name: "ip3"
  type: "InnerProduct"
  bottom: "ip2"
  top: "ip3"
  param {
    lr_mult: 1
  }
  param {
    lr_mult: 2
  }
  inner_product_param {
    num_output: 50
    weight_filler {
      type: "gaussian"
      std: 0.1
    }
    bias_filler {
      type: "constant"
    }
  }
}
layer {
  name: "accuracy"
  type: "Accuracy"
  bottom: "ip3"
  bottom: "label"
  top: "accuracy"
  include {
    phase: TEST
  }
}
layer {
  name: "loss"
  type: "SoftmaxWithLoss"
  bottom: "ip3"
  bottom: "label"
  top: "loss"
}
I0503 19:25:17.318269 21999 layer_factory.hpp:77] Creating layer intercept
I0503 19:25:17.318279 21999 net.cpp:94] Creating Layer intercept
I0503 19:25:17.318282 21999 net.cpp:409] intercept -> data
I0503 19:25:17.318289 21999 net.cpp:409] intercept -> label
I0503 19:25:17.318295 21999 hdf5_data_layer.cpp:79] Loading list of HDF5 filenames from: /home/purduethu/scratch/radon/d/deng106/CNNStatisticalModel/distributions/input/5_distributions_900_sample_size_test-distributions-path.txt
I0503 19:25:17.318315 21999 hdf5_data_layer.cpp:93] Number of HDF5 files: 1
I0503 19:25:17.357607 21999 net.cpp:144] Setting up intercept
I0503 19:25:17.357640 21999 net.cpp:151] Top shape: 20 1 30 30 (18000)
I0503 19:25:17.357645 21999 net.cpp:151] Top shape: 20 (20)
I0503 19:25:17.357648 21999 net.cpp:159] Memory required for data: 72080
I0503 19:25:17.357655 21999 layer_factory.hpp:77] Creating layer label_intercept_1_split
I0503 19:25:17.357671 21999 net.cpp:94] Creating Layer label_intercept_1_split
I0503 19:25:17.357676 21999 net.cpp:435] label_intercept_1_split <- label
I0503 19:25:17.357681 21999 net.cpp:409] label_intercept_1_split -> label_intercept_1_split_0
I0503 19:25:17.357691 21999 net.cpp:409] label_intercept_1_split -> label_intercept_1_split_1
I0503 19:25:17.357727 21999 net.cpp:144] Setting up label_intercept_1_split
I0503 19:25:17.357733 21999 net.cpp:151] Top shape: 20 (20)
I0503 19:25:17.357736 21999 net.cpp:151] Top shape: 20 (20)
I0503 19:25:17.357739 21999 net.cpp:159] Memory required for data: 72240
I0503 19:25:17.357743 21999 layer_factory.hpp:77] Creating layer conv1
I0503 19:25:17.357753 21999 net.cpp:94] Creating Layer conv1
I0503 19:25:17.357758 21999 net.cpp:435] conv1 <- data
I0503 19:25:17.357762 21999 net.cpp:409] conv1 -> conv1
I0503 19:25:17.359005 21999 net.cpp:144] Setting up conv1
I0503 19:25:17.359019 21999 net.cpp:151] Top shape: 20 64 30 30 (1152000)
I0503 19:25:17.359024 21999 net.cpp:159] Memory required for data: 4680240
I0503 19:25:17.359032 21999 layer_factory.hpp:77] Creating layer relu1
I0503 19:25:17.359040 21999 net.cpp:94] Creating Layer relu1
I0503 19:25:17.359043 21999 net.cpp:435] relu1 <- conv1
I0503 19:25:17.359047 21999 net.cpp:396] relu1 -> conv1 (in-place)
I0503 19:25:17.359055 21999 net.cpp:144] Setting up relu1
I0503 19:25:17.359060 21999 net.cpp:151] Top shape: 20 64 30 30 (1152000)
I0503 19:25:17.359062 21999 net.cpp:159] Memory required for data: 9288240
I0503 19:25:17.359066 21999 layer_factory.hpp:77] Creating layer conv2
I0503 19:25:17.359074 21999 net.cpp:94] Creating Layer conv2
I0503 19:25:17.359077 21999 net.cpp:435] conv2 <- conv1
I0503 19:25:17.359082 21999 net.cpp:409] conv2 -> conv2
I0503 19:25:17.365408 21999 net.cpp:144] Setting up conv2
I0503 19:25:17.365424 21999 net.cpp:151] Top shape: 20 64 30 30 (1152000)
I0503 19:25:17.365429 21999 net.cpp:159] Memory required for data: 13896240
I0503 19:25:17.365437 21999 layer_factory.hpp:77] Creating layer relu2
I0503 19:25:17.365443 21999 net.cpp:94] Creating Layer relu2
I0503 19:25:17.365447 21999 net.cpp:435] relu2 <- conv2
I0503 19:25:17.365452 21999 net.cpp:396] relu2 -> conv2 (in-place)
I0503 19:25:17.365458 21999 net.cpp:144] Setting up relu2
I0503 19:25:17.365463 21999 net.cpp:151] Top shape: 20 64 30 30 (1152000)
I0503 19:25:17.365466 21999 net.cpp:159] Memory required for data: 18504240
I0503 19:25:17.365469 21999 layer_factory.hpp:77] Creating layer pool2
I0503 19:25:17.365475 21999 net.cpp:94] Creating Layer pool2
I0503 19:25:17.365479 21999 net.cpp:435] pool2 <- conv2
I0503 19:25:17.365483 21999 net.cpp:409] pool2 -> pool2
I0503 19:25:17.365520 21999 net.cpp:144] Setting up pool2
I0503 19:25:17.365526 21999 net.cpp:151] Top shape: 20 64 15 15 (288000)
I0503 19:25:17.365530 21999 net.cpp:159] Memory required for data: 19656240
I0503 19:25:17.365532 21999 layer_factory.hpp:77] Creating layer conv3
I0503 19:25:17.365540 21999 net.cpp:94] Creating Layer conv3
I0503 19:25:17.365543 21999 net.cpp:435] conv3 <- pool2
I0503 19:25:17.365548 21999 net.cpp:409] conv3 -> conv3
I0503 19:25:17.373059 21999 net.cpp:144] Setting up conv3
I0503 19:25:17.373075 21999 net.cpp:151] Top shape: 20 128 15 15 (576000)
I0503 19:25:17.373080 21999 net.cpp:159] Memory required for data: 21960240
I0503 19:25:17.373088 21999 layer_factory.hpp:77] Creating layer relu3
I0503 19:25:17.373095 21999 net.cpp:94] Creating Layer relu3
I0503 19:25:17.373100 21999 net.cpp:435] relu3 <- conv3
I0503 19:25:17.373105 21999 net.cpp:396] relu3 -> conv3 (in-place)
I0503 19:25:17.373111 21999 net.cpp:144] Setting up relu3
I0503 19:25:17.373116 21999 net.cpp:151] Top shape: 20 128 15 15 (576000)
I0503 19:25:17.373119 21999 net.cpp:159] Memory required for data: 24264240
I0503 19:25:17.373122 21999 layer_factory.hpp:77] Creating layer conv4
I0503 19:25:17.373131 21999 net.cpp:94] Creating Layer conv4
I0503 19:25:17.373133 21999 net.cpp:435] conv4 <- conv3
I0503 19:25:17.373138 21999 net.cpp:409] conv4 -> conv4
I0503 19:25:17.388433 21999 net.cpp:144] Setting up conv4
I0503 19:25:17.388450 21999 net.cpp:151] Top shape: 20 128 15 15 (576000)
I0503 19:25:17.388454 21999 net.cpp:159] Memory required for data: 26568240
I0503 19:25:17.388461 21999 layer_factory.hpp:77] Creating layer relu4
I0503 19:25:17.388468 21999 net.cpp:94] Creating Layer relu4
I0503 19:25:17.388474 21999 net.cpp:435] relu4 <- conv4
I0503 19:25:17.388480 21999 net.cpp:396] relu4 -> conv4 (in-place)
I0503 19:25:17.388487 21999 net.cpp:144] Setting up relu4
I0503 19:25:17.388492 21999 net.cpp:151] Top shape: 20 128 15 15 (576000)
I0503 19:25:17.388495 21999 net.cpp:159] Memory required for data: 28872240
I0503 19:25:17.388499 21999 layer_factory.hpp:77] Creating layer conv5
I0503 19:25:17.388506 21999 net.cpp:94] Creating Layer conv5
I0503 19:25:17.388509 21999 net.cpp:435] conv5 <- conv4
I0503 19:25:17.388514 21999 net.cpp:409] conv5 -> conv5
I0503 19:25:17.403473 21999 net.cpp:144] Setting up conv5
I0503 19:25:17.403512 21999 net.cpp:151] Top shape: 20 128 15 15 (576000)
I0503 19:25:17.403524 21999 net.cpp:159] Memory required for data: 31176240
I0503 19:25:17.403548 21999 layer_factory.hpp:77] Creating layer relu5
I0503 19:25:17.403563 21999 net.cpp:94] Creating Layer relu5
I0503 19:25:17.403573 21999 net.cpp:435] relu5 <- conv5
I0503 19:25:17.403586 21999 net.cpp:396] relu5 -> conv5 (in-place)
I0503 19:25:17.403605 21999 net.cpp:144] Setting up relu5
I0503 19:25:17.403619 21999 net.cpp:151] Top shape: 20 128 15 15 (576000)
I0503 19:25:17.403627 21999 net.cpp:159] Memory required for data: 33480240
I0503 19:25:17.403636 21999 layer_factory.hpp:77] Creating layer pool5
I0503 19:25:17.403650 21999 net.cpp:94] Creating Layer pool5
I0503 19:25:17.403658 21999 net.cpp:435] pool5 <- conv5
I0503 19:25:17.403671 21999 net.cpp:409] pool5 -> pool5
I0503 19:25:17.403723 21999 net.cpp:144] Setting up pool5
I0503 19:25:17.403729 21999 net.cpp:151] Top shape: 20 128 7 7 (125440)
I0503 19:25:17.403733 21999 net.cpp:159] Memory required for data: 33982000
I0503 19:25:17.403735 21999 layer_factory.hpp:77] Creating layer ip1
I0503 19:25:17.403743 21999 net.cpp:94] Creating Layer ip1
I0503 19:25:17.403746 21999 net.cpp:435] ip1 <- pool5
I0503 19:25:17.403750 21999 net.cpp:409] ip1 -> ip1
I0503 19:25:17.566411 21999 net.cpp:144] Setting up ip1
I0503 19:25:17.566433 21999 net.cpp:151] Top shape: 20 1024 (20480)
I0503 19:25:17.566437 21999 net.cpp:159] Memory required for data: 34063920
I0503 19:25:17.566447 21999 layer_factory.hpp:77] Creating layer ip2
I0503 19:25:17.566457 21999 net.cpp:94] Creating Layer ip2
I0503 19:25:17.566462 21999 net.cpp:435] ip2 <- ip1
I0503 19:25:17.566468 21999 net.cpp:409] ip2 -> ip2
I0503 19:25:17.580045 21999 net.cpp:144] Setting up ip2
I0503 19:25:17.580060 21999 net.cpp:151] Top shape: 20 512 (10240)
I0503 19:25:17.580062 21999 net.cpp:159] Memory required for data: 34104880
I0503 19:25:17.580068 21999 layer_factory.hpp:77] Creating layer ip3
I0503 19:25:17.580078 21999 net.cpp:94] Creating Layer ip3
I0503 19:25:17.580081 21999 net.cpp:435] ip3 <- ip2
I0503 19:25:17.580087 21999 net.cpp:409] ip3 -> ip3
I0503 19:25:17.580803 21999 net.cpp:144] Setting up ip3
I0503 19:25:17.580812 21999 net.cpp:151] Top shape: 20 50 (1000)
I0503 19:25:17.580816 21999 net.cpp:159] Memory required for data: 34108880
I0503 19:25:17.580821 21999 layer_factory.hpp:77] Creating layer ip3_ip3_0_split
I0503 19:25:17.580826 21999 net.cpp:94] Creating Layer ip3_ip3_0_split
I0503 19:25:17.580829 21999 net.cpp:435] ip3_ip3_0_split <- ip3
I0503 19:25:17.580834 21999 net.cpp:409] ip3_ip3_0_split -> ip3_ip3_0_split_0
I0503 19:25:17.580839 21999 net.cpp:409] ip3_ip3_0_split -> ip3_ip3_0_split_1
I0503 19:25:17.580865 21999 net.cpp:144] Setting up ip3_ip3_0_split
I0503 19:25:17.580871 21999 net.cpp:151] Top shape: 20 50 (1000)
I0503 19:25:17.580875 21999 net.cpp:151] Top shape: 20 50 (1000)
I0503 19:25:17.580878 21999 net.cpp:159] Memory required for data: 34116880
I0503 19:25:17.580881 21999 layer_factory.hpp:77] Creating layer accuracy
I0503 19:25:17.580888 21999 net.cpp:94] Creating Layer accuracy
I0503 19:25:17.580890 21999 net.cpp:435] accuracy <- ip3_ip3_0_split_0
I0503 19:25:17.580894 21999 net.cpp:435] accuracy <- label_intercept_1_split_0
I0503 19:25:17.580899 21999 net.cpp:409] accuracy -> accuracy
…
