…
I0502 11:09:40.601227 26473 net.cpp:323] The NetState phase (0) differed from the phase (1) specified by a rule in layer intercept
I0502 11:09:40.601245 26473 net.cpp:323] The NetState phase (0) differed from the phase (1) specified by a rule in layer loss
I0502 11:09:40.601330 26473 net.cpp:52] Initializing net from parameters: 
state {
  phase: TRAIN
}
layer {
  name: "parameters"
  type: "HDF5Data"
  top: "data"
  top: "label"
  include {
    phase: TRAIN
  }
  hdf5_data_param {
    source: "/home/purduethu/scratch/radon/d/deng106/CNNStatisticalModel/distributions/input/20_distributions_400_sample_size_train-parameters-path.txt"
    batch_size: 20
  }
}
layer {
  name: "conv1"
  type: "Convolution"
  bottom: "data"
  top: "conv1"
  param {
    lr_mult: 1
  }
  param {
    lr_mult: 2
  }
  convolution_param {
    num_output: 64
    pad: 2
    kernel_size: 5
    stride: 1
    weight_filler {
      type: "gaussian"
      std: 0.0001
    }
    bias_filler {
      type: "constant"
    }
  }
}
layer {
  name: "relu1"
  type: "ReLU"
  bottom: "conv1"
  top: "conv1"
}
layer {
  name: "conv2"
  type: "Convolution"
  bottom: "conv1"
  top: "conv2"
  param {
    lr_mult: 1
  }
  param {
    lr_mult: 2
  }
  convolution_param {
    num_output: 64
    pad: 2
    kernel_size: 5
    stride: 1
    weight_filler {
      type: "gaussian"
      std: 0.01
    }
    bias_filler {
      type: "constant"
    }
  }
}
layer {
  name: "relu2"
  type: "ReLU"
  bottom: "conv2"
  top: "conv2"
}
layer {
  name: "pool2"
  type: "Pooling"
  bottom: "conv2"
  top: "pool2"
  pooling_param {
    pool: MAX
    kernel_size: 3
    stride: 2
  }
}
layer {
  name: "conv3"
  type: "Convolution"
  bottom: "pool2"
  top: "conv3"
  param {
    lr_mult: 1
  }
  param {
    lr_mult: 2
  }
  convolution_param {
    num_output: 64
    pad: 2
    kernel_size: 5
    stride: 1
    weight_filler {
      type: "gaussian"
      std: 0.01
    }
    bias_filler {
      type: "constant"
    }
  }
}
layer {
  name: "relu3"
  type: "ReLU"
  bottom: "conv3"
  top: "conv3"
}
layer {
  name: "conv4"
  type: "Convolution"
  bottom: "conv3"
  top: "conv4"
  param {
    lr_mult: 1
  }
  param {
    lr_mult: 2
  }
  convolution_param {
    num_output: 64
    pad: 2
    kernel_size: 5
    stride: 1
    weight_filler {
      type: "gaussian"
      std: 0.01
    }
    bias_filler {
      type: "constant"
    }
  }
}
layer {
  name: "relu4"
  type: "ReLU"
  bottom: "conv4"
  top: "conv4"
}
layer {
  name: "conv5"
  type: "Convolution"
  bottom: "conv4"
  top: "conv5"
  param {
    lr_mult: 1
  }
  param {
    lr_mult: 2
  }
  convolution_param {
    num_output: 64
    pad: 2
    kernel_size: 5
    stride: 1
    weight_filler {
      type: "gaussian"
      std: 0.01
    }
    bias_filler {
      type: "constant"
    }
  }
}
layer {
  name: "relu5"
  type: "ReLU"
  bottom: "conv5"
  top: "conv5"
}
layer {
  name: "pool5"
  type: "Pooling"
  bottom: "conv5"
  top: "pool5"
  pooling_param {
    pool: AVE
    kernel_size: 3
    stride: 2
  }
}
layer {
  name: "ip1"
  type: "InnerProduct"
  bottom: "pool5"
  top: "ip1"
  param {
    lr_mult: 1
  }
  param {
    lr_mult: 2
  }
  inner_product_param {
    num_output: 64
    weight_filler {
      type: "gaussian"
      std: 0.1
    }
    bias_filler {
      type: "constant"
    }
  }
}
layer {
  name: "ip2"
  type: "InnerProduct"
  bottom: "ip1"
  top: "ip2"
  param {
    lr_mult: 1
  }
  param {
    lr_mult: 2
  }
  inner_product_param {
    num_output: 64
    weight_filler {
      type: "gaussian"
      std: 0.1
    }
    bias_filler {
      type: "constant"
    }
  }
}
layer {
  name: "ip3"
  type: "InnerProduct"
  bottom: "ip2"
  top: "ip3"
  param {
    lr_mult: 1
  }
  param {
    lr_mult: 2
  }
  inner_product_param {
    num_output: 1
    weight_filler {
      type: "gaussian"
      std: 0.1
    }
    bias_filler {
      type: "constant"
    }
  }
}
layer {
  name: "loss"
  type: "HuberLoss"
  bottom: "ip3"
  bottom: "label"
  top: "loss"
  include {
    phase: TRAIN
  }
}
I0502 11:09:40.601384 26473 layer_factory.hpp:77] Creating layer parameters
I0502 11:09:40.601398 26473 net.cpp:94] Creating Layer parameters
I0502 11:09:40.601403 26473 net.cpp:409] parameters -> data
I0502 11:09:40.601413 26473 net.cpp:409] parameters -> label
I0502 11:09:40.601423 26473 hdf5_data_layer.cpp:79] Loading list of HDF5 filenames from: /home/purduethu/scratch/radon/d/deng106/CNNStatisticalModel/distributions/input/20_distributions_400_sample_size_train-parameters-path.txt
I0502 11:09:40.601438 26473 hdf5_data_layer.cpp:93] Number of HDF5 files: 1
I0502 11:09:40.601883 26473 hdf5.cpp:32] Datatype class: H5T_FLOAT
I0502 11:09:40.909896 26473 net.cpp:144] Setting up parameters
I0502 11:09:40.909927 26473 net.cpp:151] Top shape: 20 1 20 20 (8000)
I0502 11:09:40.909932 26473 net.cpp:151] Top shape: 20 (20)
I0502 11:09:40.909935 26473 net.cpp:159] Memory required for data: 32080
I0502 11:09:40.909941 26473 layer_factory.hpp:77] Creating layer conv1
I0502 11:09:40.909957 26473 net.cpp:94] Creating Layer conv1
I0502 11:09:40.909962 26473 net.cpp:435] conv1 <- data
I0502 11:09:40.909968 26473 net.cpp:409] conv1 -> conv1
I0502 11:09:40.915565 26473 net.cpp:144] Setting up conv1
I0502 11:09:40.915585 26473 net.cpp:151] Top shape: 20 64 20 20 (512000)
I0502 11:09:40.915590 26473 net.cpp:159] Memory required for data: 2080080
I0502 11:09:40.915599 26473 layer_factory.hpp:77] Creating layer relu1
I0502 11:09:40.915608 26473 net.cpp:94] Creating Layer relu1
I0502 11:09:40.915612 26473 net.cpp:435] relu1 <- conv1
I0502 11:09:40.915617 26473 net.cpp:396] relu1 -> conv1 (in-place)
I0502 11:09:40.915628 26473 net.cpp:144] Setting up relu1
I0502 11:09:40.915633 26473 net.cpp:151] Top shape: 20 64 20 20 (512000)
I0502 11:09:40.915637 26473 net.cpp:159] Memory required for data: 4128080
I0502 11:09:40.915639 26473 layer_factory.hpp:77] Creating layer conv2
I0502 11:09:40.915647 26473 net.cpp:94] Creating Layer conv2
I0502 11:09:40.915650 26473 net.cpp:435] conv2 <- conv1
I0502 11:09:40.915655 26473 net.cpp:409] conv2 -> conv2
I0502 11:09:40.926031 26473 net.cpp:144] Setting up conv2
I0502 11:09:40.926057 26473 net.cpp:151] Top shape: 20 64 20 20 (512000)
I0502 11:09:40.926064 26473 net.cpp:159] Memory required for data: 6176080
I0502 11:09:40.926080 26473 layer_factory.hpp:77] Creating layer relu2
I0502 11:09:40.926092 26473 net.cpp:94] Creating Layer relu2
I0502 11:09:40.926100 26473 net.cpp:435] relu2 <- conv2
I0502 11:09:40.926108 26473 net.cpp:396] relu2 -> conv2 (in-place)
I0502 11:09:40.926122 26473 net.cpp:144] Setting up relu2
I0502 11:09:40.926131 26473 net.cpp:151] Top shape: 20 64 20 20 (512000)
I0502 11:09:40.926136 26473 net.cpp:159] Memory required for data: 8224080
I0502 11:09:40.926142 26473 layer_factory.hpp:77] Creating layer pool2
I0502 11:09:40.926162 26473 net.cpp:94] Creating Layer pool2
I0502 11:09:40.926168 26473 net.cpp:435] pool2 <- conv2
I0502 11:09:40.926177 26473 net.cpp:409] pool2 -> pool2
I0502 11:09:40.926283 26473 net.cpp:144] Setting up pool2
I0502 11:09:40.926297 26473 net.cpp:151] Top shape: 20 64 10 10 (128000)
I0502 11:09:40.926303 26473 net.cpp:159] Memory required for data: 8736080
I0502 11:09:40.926311 26473 layer_factory.hpp:77] Creating layer conv3
I0502 11:09:40.926324 26473 net.cpp:94] Creating Layer conv3
I0502 11:09:40.926331 26473 net.cpp:435] conv3 <- pool2
I0502 11:09:40.926340 26473 net.cpp:409] conv3 -> conv3
I0502 11:09:40.931684 26473 net.cpp:144] Setting up conv3
I0502 11:09:40.931699 26473 net.cpp:151] Top shape: 20 64 10 10 (128000)
I0502 11:09:40.931702 26473 net.cpp:159] Memory required for data: 9248080
I0502 11:09:40.931710 26473 layer_factory.hpp:77] Creating layer relu3
I0502 11:09:40.931715 26473 net.cpp:94] Creating Layer relu3
I0502 11:09:40.931720 26473 net.cpp:435] relu3 <- conv3
I0502 11:09:40.931723 26473 net.cpp:396] relu3 -> conv3 (in-place)
I0502 11:09:40.931730 26473 net.cpp:144] Setting up relu3
I0502 11:09:40.931735 26473 net.cpp:151] Top shape: 20 64 10 10 (128000)
I0502 11:09:40.931737 26473 net.cpp:159] Memory required for data: 9760080
I0502 11:09:40.931740 26473 layer_factory.hpp:77] Creating layer conv4
I0502 11:09:40.931748 26473 net.cpp:94] Creating Layer conv4
I0502 11:09:40.931751 26473 net.cpp:435] conv4 <- conv3
I0502 11:09:40.931756 26473 net.cpp:409] conv4 -> conv4
I0502 11:09:40.937104 26473 net.cpp:144] Setting up conv4
I0502 11:09:40.937119 26473 net.cpp:151] Top shape: 20 64 10 10 (128000)
I0502 11:09:40.937121 26473 net.cpp:159] Memory required for data: 10272080
I0502 11:09:40.937127 26473 layer_factory.hpp:77] Creating layer relu4
I0502 11:09:40.937134 26473 net.cpp:94] Creating Layer relu4
I0502 11:09:40.937136 26473 net.cpp:435] relu4 <- conv4
I0502 11:09:40.937141 26473 net.cpp:396] relu4 -> conv4 (in-place)
I0502 11:09:40.937149 26473 net.cpp:144] Setting up relu4
I0502 11:09:40.937152 26473 net.cpp:151] Top shape: 20 64 10 10 (128000)
I0502 11:09:40.937155 26473 net.cpp:159] Memory required for data: 10784080
I0502 11:09:40.937158 26473 layer_factory.hpp:77] Creating layer conv5
I0502 11:09:40.937166 26473 net.cpp:94] Creating Layer conv5
I0502 11:09:40.937170 26473 net.cpp:435] conv5 <- conv4
I0502 11:09:40.937175 26473 net.cpp:409] conv5 -> conv5
I0502 11:09:40.943415 26473 net.cpp:144] Setting up conv5
I0502 11:09:40.943429 26473 net.cpp:151] Top shape: 20 64 10 10 (128000)
I0502 11:09:40.943434 26473 net.cpp:159] Memory required for data: 11296080
I0502 11:09:40.943442 26473 layer_factory.hpp:77] Creating layer relu5
I0502 11:09:40.943449 26473 net.cpp:94] Creating Layer relu5
I0502 11:09:40.943451 26473 net.cpp:435] relu5 <- conv5
I0502 11:09:40.943456 26473 net.cpp:396] relu5 -> conv5 (in-place)
I0502 11:09:40.943464 26473 net.cpp:144] Setting up relu5
I0502 11:09:40.943467 26473 net.cpp:151] Top shape: 20 64 10 10 (128000)
I0502 11:09:40.943470 26473 net.cpp:159] Memory required for data: 11808080
I0502 11:09:40.943473 26473 layer_factory.hpp:77] Creating layer pool5
I0502 11:09:40.943477 26473 net.cpp:94] Creating Layer pool5
I0502 11:09:40.943480 26473 net.cpp:435] pool5 <- conv5
I0502 11:09:40.943485 26473 net.cpp:409] pool5 -> pool5
I0502 11:09:40.943524 26473 net.cpp:144] Setting up pool5
I0502 11:09:40.943531 26473 net.cpp:151] Top shape: 20 64 5 5 (32000)
I0502 11:09:40.943534 26473 net.cpp:159] Memory required for data: 11936080
I0502 11:09:40.943537 26473 layer_factory.hpp:77] Creating layer ip1
I0502 11:09:40.943544 26473 net.cpp:94] Creating Layer ip1
I0502 11:09:40.943547 26473 net.cpp:435] ip1 <- pool5
I0502 11:09:40.943552 26473 net.cpp:409] ip1 -> ip1
I0502 11:09:40.946074 26473 net.cpp:144] Setting up ip1
I0502 11:09:40.946082 26473 net.cpp:151] Top shape: 20 64 (1280)
I0502 11:09:40.946086 26473 net.cpp:159] Memory required for data: 11941200
I0502 11:09:40.946091 26473 layer_factory.hpp:77] Creating layer ip2
I0502 11:09:40.946097 26473 net.cpp:94] Creating Layer ip2
I0502 11:09:40.946105 26473 net.cpp:435] ip2 <- ip1
I0502 11:09:40.946110 26473 net.cpp:409] ip2 -> ip2
I0502 11:09:40.946313 26473 net.cpp:144] Setting up ip2
I0502 11:09:40.946321 26473 net.cpp:151] Top shape: 20 64 (1280)
I0502 11:09:40.946323 26473 net.cpp:159] Memory required for data: 11946320
I0502 11:09:40.946327 26473 layer_factory.hpp:77] Creating layer ip3
I0502 11:09:40.946333 26473 net.cpp:94] Creating Layer ip3
I0502 11:09:40.946336 26473 net.cpp:435] ip3 <- ip2
I0502 11:09:40.946341 26473 net.cpp:409] ip3 -> ip3
I0502 11:09:40.946439 26473 net.cpp:144] Setting up ip3
I0502 11:09:40.946445 26473 net.cpp:151] Top shape: 20 1 (20)
I0502 11:09:40.946449 26473 net.cpp:159] Memory required for data: 11946400
I0502 11:09:40.946454 26473 layer_factory.hpp:77] Creating layer loss
I0502 11:09:40.946462 26473 net.cpp:94] Creating Layer loss
I0502 11:09:40.946465 26473 net.cpp:435] loss <- ip3
I0502 11:09:40.946470 26473 net.cpp:435] loss <- label
I0502 11:09:40.946473 26473 net.cpp:409] loss -> loss
I0502 11:09:40.946522 26473 net.cpp:144] Setting up loss
…
I0502 11:09:41.037706 26473 net.cpp:323] The NetState phase (0) differed from the phase (1) specified by a rule in layer intercept
I0502 11:09:41.037722 26473 net.cpp:323] The NetState phase (0) differed from the phase (1) specified by a rule in layer accuracy
I0502 11:09:41.037811 26473 net.cpp:52] Initializing net from parameters: 
state {
  phase: TRAIN
}
layer {
  name: "parameters"
  type: "HDF5Data"
  top: "data"
  top: "label"
  include {
    phase: TRAIN
  }
  hdf5_data_param {
    source: "/home/purduethu/scratch/radon/d/deng106/CNNStatisticalModel/distributions/input/20_distributions_400_sample_size_train-distributions-path.txt"
    batch_size: 20
  }
}
layer {
  name: "conv1"
  type: "Convolution"
  bottom: "data"
  top: "conv1"
  param {
    lr_mult: 1
  }
  param {
    lr_mult: 2
  }
  convolution_param {
    num_output: 64
    pad: 2
    kernel_size: 5
    stride: 1
    weight_filler {
      type: "gaussian"
      std: 0.0001
    }
    bias_filler {
      type: "constant"
    }
  }
}
layer {
  name: "relu1"
  type: "ReLU"
  bottom: "conv1"
  top: "conv1"
}
layer {
  name: "conv2"
  type: "Convolution"
  bottom: "conv1"
  top: "conv2"
  param {
    lr_mult: 1
  }
  param {
    lr_mult: 2
  }
  convolution_param {
    num_output: 64
    pad: 2
    kernel_size: 5
    stride: 1
    weight_filler {
      type: "gaussian"
      std: 0.01
    }
    bias_filler {
      type: "constant"
    }
  }
}
layer {
  name: "relu2"
  type: "ReLU"
  bottom: "conv2"
  top: "conv2"
}
layer {
  name: "pool2"
  type: "Pooling"
  bottom: "conv2"
  top: "pool2"
  pooling_param {
    pool: MAX
    kernel_size: 3
    stride: 2
  }
}
layer {
  name: "conv3"
  type: "Convolution"
  bottom: "pool2"
  top: "conv3"
  param {
    lr_mult: 1
  }
  param {
    lr_mult: 2
  }
  convolution_param {
    num_output: 64
    pad: 2
    kernel_size: 5
    stride: 1
    weight_filler {
      type: "gaussian"
      std: 0.01
    }
    bias_filler {
      type: "constant"
    }
  }
}
layer {
  name: "relu3"
  type: "ReLU"
  bottom: "conv3"
  top: "conv3"
}
layer {
  name: "conv4"
  type: "Convolution"
  bottom: "conv3"
  top: "conv4"
  param {
    lr_mult: 1
  }
  param {
    lr_mult: 2
  }
  convolution_param {
    num_output: 64
    pad: 2
    kernel_size: 5
    stride: 1
    weight_filler {
      type: "gaussian"
      std: 0.01
    }
    bias_filler {
      type: "constant"
    }
  }
}
layer {
  name: "relu4"
  type: "ReLU"
  bottom: "conv4"
  top: "conv4"
}
layer {
  name: "conv5"
  type: "Convolution"
  bottom: "conv4"
  top: "conv5"
  param {
    lr_mult: 1
  }
  param {
    lr_mult: 2
  }
  convolution_param {
    num_output: 64
    pad: 2
    kernel_size: 5
    stride: 1
    weight_filler {
      type: "gaussian"
      std: 0.01
    }
    bias_filler {
      type: "constant"
    }
  }
}
layer {
  name: "relu5"
  type: "ReLU"
  bottom: "conv5"
  top: "conv5"
}
layer {
  name: "pool5"
  type: "Pooling"
  bottom: "conv5"
  top: "pool5"
  pooling_param {
    pool: AVE
    kernel_size: 3
    stride: 2
  }
}
layer {
  name: "ip1"
  type: "InnerProduct"
  bottom: "pool5"
  top: "ip1"
  param {
    lr_mult: 1
  }
  param {
    lr_mult: 2
  }
  inner_product_param {
    num_output: 64
    weight_filler {
      type: "gaussian"
      std: 0.1
    }
    bias_filler {
      type: "constant"
    }
  }
}
layer {
  name: "ip2"
  type: "InnerProduct"
  bottom: "ip1"
  top: "ip2"
  param {
    lr_mult: 1
  }
  param {
    lr_mult: 2
  }
  inner_product_param {
    num_output: 64
    weight_filler {
      type: "gaussian"
      std: 0.1
    }
    bias_filler {
      type: "constant"
    }
  }
}
layer {
  name: "ip3"
  type: "InnerProduct"
  bottom: "ip2"
  top: "ip3"
  param {
    lr_mult: 1
  }
  param {
    lr_mult: 2
  }
  inner_product_param {
    num_output: 50
    weight_filler {
      type: "gaussian"
      std: 0.1
    }
    bias_filler {
      type: "constant"
    }
  }
}
layer {
  name: "loss"
  type: "SoftmaxWithLoss"
  bottom: "ip3"
  bottom: "label"
  top: "loss"
}
I0502 11:09:41.037864 26473 layer_factory.hpp:77] Creating layer parameters
I0502 11:09:41.037873 26473 net.cpp:94] Creating Layer parameters
I0502 11:09:41.037875 26473 net.cpp:409] parameters -> data
I0502 11:09:41.037883 26473 net.cpp:409] parameters -> label
I0502 11:09:41.037889 26473 hdf5_data_layer.cpp:79] Loading list of HDF5 filenames from: /home/purduethu/scratch/radon/d/deng106/CNNStatisticalModel/distributions/input/20_distributions_400_sample_size_train-distributions-path.txt
I0502 11:09:41.037904 26473 hdf5_data_layer.cpp:93] Number of HDF5 files: 1
I0502 11:09:41.298806 26473 hdf5.cpp:35] Datatype class: H5T_INTEGER
I0502 11:09:41.299860 26473 net.cpp:144] Setting up parameters
I0502 11:09:41.299875 26473 net.cpp:151] Top shape: 20 1 20 20 (8000)
I0502 11:09:41.299880 26473 net.cpp:151] Top shape: 20 (20)
I0502 11:09:41.299883 26473 net.cpp:159] Memory required for data: 32080
I0502 11:09:41.299888 26473 layer_factory.hpp:77] Creating layer conv1
I0502 11:09:41.299906 26473 net.cpp:94] Creating Layer conv1
I0502 11:09:41.299909 26473 net.cpp:435] conv1 <- data
I0502 11:09:41.299916 26473 net.cpp:409] conv1 -> conv1
I0502 11:09:41.302846 26473 net.cpp:144] Setting up conv1
I0502 11:09:41.302863 26473 net.cpp:151] Top shape: 20 64 20 20 (512000)
I0502 11:09:41.302866 26473 net.cpp:159] Memory required for data: 2080080
I0502 11:09:41.302877 26473 layer_factory.hpp:77] Creating layer relu1
I0502 11:09:41.302886 26473 net.cpp:94] Creating Layer relu1
I0502 11:09:41.302889 26473 net.cpp:435] relu1 <- conv1
I0502 11:09:41.302893 26473 net.cpp:396] relu1 -> conv1 (in-place)
I0502 11:09:41.302901 26473 net.cpp:144] Setting up relu1
I0502 11:09:41.302906 26473 net.cpp:151] Top shape: 20 64 20 20 (512000)
I0502 11:09:41.302908 26473 net.cpp:159] Memory required for data: 4128080
I0502 11:09:41.302911 26473 layer_factory.hpp:77] Creating layer conv2
I0502 11:09:41.302919 26473 net.cpp:94] Creating Layer conv2
I0502 11:09:41.302922 26473 net.cpp:435] conv2 <- conv1
I0502 11:09:41.302927 26473 net.cpp:409] conv2 -> conv2
I0502 11:09:41.313124 26473 net.cpp:144] Setting up conv2
I0502 11:09:41.313140 26473 net.cpp:151] Top shape: 20 64 20 20 (512000)
I0502 11:09:41.313143 26473 net.cpp:159] Memory required for data: 6176080
I0502 11:09:41.313153 26473 layer_factory.hpp:77] Creating layer relu2
I0502 11:09:41.313158 26473 net.cpp:94] Creating Layer relu2
I0502 11:09:41.313163 26473 net.cpp:435] relu2 <- conv2
I0502 11:09:41.313166 26473 net.cpp:396] relu2 -> conv2 (in-place)
I0502 11:09:41.313174 26473 net.cpp:144] Setting up relu2
I0502 11:09:41.313177 26473 net.cpp:151] Top shape: 20 64 20 20 (512000)
I0502 11:09:41.313180 26473 net.cpp:159] Memory required for data: 8224080
I0502 11:09:41.313184 26473 layer_factory.hpp:77] Creating layer pool2
I0502 11:09:41.313189 26473 net.cpp:94] Creating Layer pool2
I0502 11:09:41.313191 26473 net.cpp:435] pool2 <- conv2
I0502 11:09:41.313195 26473 net.cpp:409] pool2 -> pool2
I0502 11:09:41.313249 26473 net.cpp:144] Setting up pool2
I0502 11:09:41.313256 26473 net.cpp:151] Top shape: 20 64 10 10 (128000)
I0502 11:09:41.313259 26473 net.cpp:159] Memory required for data: 8736080
I0502 11:09:41.313262 26473 layer_factory.hpp:77] Creating layer conv3
I0502 11:09:41.313271 26473 net.cpp:94] Creating Layer conv3
I0502 11:09:41.313273 26473 net.cpp:435] conv3 <- pool2
I0502 11:09:41.313285 26473 net.cpp:409] conv3 -> conv3
I0502 11:09:41.319718 26473 net.cpp:144] Setting up conv3
I0502 11:09:41.319732 26473 net.cpp:151] Top shape: 20 64 10 10 (128000)
I0502 11:09:41.319736 26473 net.cpp:159] Memory required for data: 9248080
I0502 11:09:41.319743 26473 layer_factory.hpp:77] Creating layer relu3
I0502 11:09:41.319749 26473 net.cpp:94] Creating Layer relu3
I0502 11:09:41.319752 26473 net.cpp:435] relu3 <- conv3
I0502 11:09:41.319757 26473 net.cpp:396] relu3 -> conv3 (in-place)
I0502 11:09:41.319763 26473 net.cpp:144] Setting up relu3
I0502 11:09:41.319767 26473 net.cpp:151] Top shape: 20 64 10 10 (128000)
I0502 11:09:41.319771 26473 net.cpp:159] Memory required for data: 9760080
I0502 11:09:41.319773 26473 layer_factory.hpp:77] Creating layer conv4
I0502 11:09:41.319782 26473 net.cpp:94] Creating Layer conv4
I0502 11:09:41.319785 26473 net.cpp:435] conv4 <- conv3
I0502 11:09:41.319789 26473 net.cpp:409] conv4 -> conv4
I0502 11:09:41.325264 26473 net.cpp:144] Setting up conv4
I0502 11:09:41.325278 26473 net.cpp:151] Top shape: 20 64 10 10 (128000)
I0502 11:09:41.325283 26473 net.cpp:159] Memory required for data: 10272080
I0502 11:09:41.325289 26473 layer_factory.hpp:77] Creating layer relu4
I0502 11:09:41.325294 26473 net.cpp:94] Creating Layer relu4
I0502 11:09:41.325297 26473 net.cpp:435] relu4 <- conv4
I0502 11:09:41.325301 26473 net.cpp:396] relu4 -> conv4 (in-place)
I0502 11:09:41.325309 26473 net.cpp:144] Setting up relu4
I0502 11:09:41.325312 26473 net.cpp:151] Top shape: 20 64 10 10 (128000)
I0502 11:09:41.325315 26473 net.cpp:159] Memory required for data: 10784080
I0502 11:09:41.325318 26473 layer_factory.hpp:77] Creating layer conv5
I0502 11:09:41.325325 26473 net.cpp:94] Creating Layer conv5
I0502 11:09:41.325330 26473 net.cpp:435] conv5 <- conv4
I0502 11:09:41.325333 26473 net.cpp:409] conv5 -> conv5
I0502 11:09:41.330814 26473 net.cpp:144] Setting up conv5
I0502 11:09:41.330828 26473 net.cpp:151] Top shape: 20 64 10 10 (128000)
I0502 11:09:41.330832 26473 net.cpp:159] Memory required for data: 11296080
I0502 11:09:41.330839 26473 layer_factory.hpp:77] Creating layer relu5
I0502 11:09:41.330845 26473 net.cpp:94] Creating Layer relu5
I0502 11:09:41.330848 26473 net.cpp:435] relu5 <- conv5
I0502 11:09:41.330853 26473 net.cpp:396] relu5 -> conv5 (in-place)
I0502 11:09:41.330859 26473 net.cpp:144] Setting up relu5
I0502 11:09:41.330864 26473 net.cpp:151] Top shape: 20 64 10 10 (128000)
I0502 11:09:41.330868 26473 net.cpp:159] Memory required for data: 11808080
I0502 11:09:41.330870 26473 layer_factory.hpp:77] Creating layer pool5
I0502 11:09:41.330875 26473 net.cpp:94] Creating Layer pool5
I0502 11:09:41.330878 26473 net.cpp:435] pool5 <- conv5
I0502 11:09:41.330883 26473 net.cpp:409] pool5 -> pool5
I0502 11:09:41.330920 26473 net.cpp:144] Setting up pool5
I0502 11:09:41.330927 26473 net.cpp:151] Top shape: 20 64 5 5 (32000)
I0502 11:09:41.330930 26473 net.cpp:159] Memory required for data: 11936080
I0502 11:09:41.330934 26473 layer_factory.hpp:77] Creating layer ip1
I0502 11:09:41.330940 26473 net.cpp:94] Creating Layer ip1
I0502 11:09:41.330943 26473 net.cpp:435] ip1 <- pool5
I0502 11:09:41.330947 26473 net.cpp:409] ip1 -> ip1
I0502 11:09:41.333503 26473 net.cpp:144] Setting up ip1
I0502 11:09:41.333513 26473 net.cpp:151] Top shape: 20 64 (1280)
I0502 11:09:41.333516 26473 net.cpp:159] Memory required for data: 11941200
I0502 11:09:41.333521 26473 layer_factory.hpp:77] Creating layer ip2
I0502 11:09:41.333528 26473 net.cpp:94] Creating Layer ip2
I0502 11:09:41.333530 26473 net.cpp:435] ip2 <- ip1
I0502 11:09:41.333535 26473 net.cpp:409] ip2 -> ip2
I0502 11:09:41.333758 26473 net.cpp:144] Setting up ip2
I0502 11:09:41.333765 26473 net.cpp:151] Top shape: 20 64 (1280)
I0502 11:09:41.333768 26473 net.cpp:159] Memory required for data: 11946320
I0502 11:09:41.333773 26473 layer_factory.hpp:77] Creating layer ip3
I0502 11:09:41.333778 26473 net.cpp:94] Creating Layer ip3
I0502 11:09:41.333781 26473 net.cpp:435] ip3 <- ip2
I0502 11:09:41.333786 26473 net.cpp:409] ip3 -> ip3
I0502 11:09:41.333987 26473 net.cpp:144] Setting up ip3
I0502 11:09:41.333995 26473 net.cpp:151] Top shape: 20 50 (1000)
I0502 11:09:41.333998 26473 net.cpp:159] Memory required for data: 11950320
I0502 11:09:41.334003 26473 layer_factory.hpp:77] Creating layer loss
I0502 11:09:41.334009 26473 net.cpp:94] Creating Layer loss
I0502 11:09:41.334013 26473 net.cpp:435] loss <- ip3
I0502 11:09:41.334017 26473 net.cpp:435] loss <- label
I0502 11:09:41.334022 26473 net.cpp:409] loss -> loss
I0502 11:09:41.334028 26473 layer_factory.hpp:77] Creating layer loss
…
I0502 11:09:41.334556 26473 solver.cpp:181] Creating test net (#0) specified by net file: ./protocol/dis_20_400_dimension.protocol_distribution
I0502 11:09:41.334583 26473 net.cpp:323] The NetState phase (1) differed from the phase (0) specified by a rule in layer parameters
I0502 11:09:41.334679 26473 net.cpp:52] Initializing net from parameters: 
state {
  phase: TEST
}
layer {
  name: "intercept"
  type: "HDF5Data"
  top: "data"
  top: "label"
  include {
    phase: TEST
  }
  hdf5_data_param {
    source: "/home/purduethu/scratch/radon/d/deng106/CNNStatisticalModel/distributions/input/20_distributions_400_sample_size_test-distributions-path.txt"
    batch_size: 20
  }
}
layer {
  name: "conv1"
  type: "Convolution"
  bottom: "data"
  top: "conv1"
  param {
    lr_mult: 1
  }
  param {
    lr_mult: 2
  }
  convolution_param {
    num_output: 64
    pad: 2
    kernel_size: 5
    stride: 1
    weight_filler {
      type: "gaussian"
      std: 0.0001
    }
    bias_filler {
      type: "constant"
    }
  }
}
layer {
  name: "relu1"
  type: "ReLU"
  bottom: "conv1"
  top: "conv1"
}
layer {
  name: "conv2"
  type: "Convolution"
  bottom: "conv1"
  top: "conv2"
  param {
    lr_mult: 1
  }
  param {
    lr_mult: 2
  }
  convolution_param {
    num_output: 64
    pad: 2
    kernel_size: 5
    stride: 1
    weight_filler {
      type: "gaussian"
      std: 0.01
    }
    bias_filler {
      type: "constant"
    }
  }
}
layer {
  name: "relu2"
  type: "ReLU"
  bottom: "conv2"
  top: "conv2"
}
layer {
  name: "pool2"
  type: "Pooling"
  bottom: "conv2"
  top: "pool2"
  pooling_param {
    pool: MAX
    kernel_size: 3
    stride: 2
  }
}
layer {
  name: "conv3"
  type: "Convolution"
  bottom: "pool2"
  top: "conv3"
  param {
    lr_mult: 1
  }
  param {
    lr_mult: 2
  }
  convolution_param {
    num_output: 64
    pad: 2
    kernel_size: 5
    stride: 1
    weight_filler {
      type: "gaussian"
      std: 0.01
    }
    bias_filler {
      type: "constant"
    }
  }
}
layer {
  name: "relu3"
  type: "ReLU"
  bottom: "conv3"
  top: "conv3"
}
layer {
  name: "conv4"
  type: "Convolution"
  bottom: "conv3"
  top: "conv4"
  param {
    lr_mult: 1
  }
  param {
    lr_mult: 2
  }
  convolution_param {
    num_output: 64
    pad: 2
    kernel_size: 5
    stride: 1
    weight_filler {
      type: "gaussian"
      std: 0.01
    }
    bias_filler {
      type: "constant"
    }
  }
}
layer {
  name: "relu4"
  type: "ReLU"
  bottom: "conv4"
  top: "conv4"
}
layer {
  name: "conv5"
  type: "Convolution"
  bottom: "conv4"
  top: "conv5"
  param {
    lr_mult: 1
  }
  param {
    lr_mult: 2
  }
  convolution_param {
    num_output: 64
    pad: 2
    kernel_size: 5
    stride: 1
    weight_filler {
      type: "gaussian"
      std: 0.01
    }
    bias_filler {
      type: "constant"
    }
  }
}
layer {
  name: "relu5"
  type: "ReLU"
  bottom: "conv5"
  top: "conv5"
}
layer {
  name: "pool5"
  type: "Pooling"
  bottom: "conv5"
  top: "pool5"
  pooling_param {
    pool: AVE
    kernel_size: 3
    stride: 2
  }
}
layer {
  name: "ip1"
  type: "InnerProduct"
  bottom: "pool5"
  top: "ip1"
  param {
    lr_mult: 1
  }
  param {
    lr_mult: 2
  }
  inner_product_param {
    num_output: 64
    weight_filler {
      type: "gaussian"
      std: 0.1
    }
    bias_filler {
      type: "constant"
    }
  }
}
layer {
  name: "ip2"
  type: "InnerProduct"
  bottom: "ip1"
  top: "ip2"
  param {
    lr_mult: 1
  }
  param {
    lr_mult: 2
  }
  inner_product_param {
    num_output: 64
    weight_filler {
      type: "gaussian"
      std: 0.1
    }
    bias_filler {
      type: "constant"
    }
  }
}
layer {
  name: "ip3"
  type: "InnerProduct"
  bottom: "ip2"
  top: "ip3"
  param {
    lr_mult: 1
  }
  param {
    lr_mult: 2
  }
  inner_product_param {
    num_output: 50
    weight_filler {
      type: "gaussian"
      std: 0.1
    }
    bias_filler {
      type: "constant"
    }
  }
}
layer {
  name: "accuracy"
  type: "Accuracy"
  bottom: "ip3"
  bottom: "label"
  top: "accuracy"
  include {
    phase: TEST
  }
}
layer {
  name: "loss"
  type: "SoftmaxWithLoss"
  bottom: "ip3"
  bottom: "label"
  top: "loss"
}
I0502 11:09:41.334743 26473 layer_factory.hpp:77] Creating layer intercept
I0502 11:09:41.334750 26473 net.cpp:94] Creating Layer intercept
I0502 11:09:41.334754 26473 net.cpp:409] intercept -> data
I0502 11:09:41.334761 26473 net.cpp:409] intercept -> label
I0502 11:09:41.334767 26473 hdf5_data_layer.cpp:79] Loading list of HDF5 filenames from: /home/purduethu/scratch/radon/d/deng106/CNNStatisticalModel/distributions/input/20_distributions_400_sample_size_test-distributions-path.txt
I0502 11:09:41.334785 26473 hdf5_data_layer.cpp:93] Number of HDF5 files: 1
I0502 11:09:41.403470 26473 net.cpp:144] Setting up intercept
I0502 11:09:41.403504 26473 net.cpp:151] Top shape: 20 1 20 20 (8000)
I0502 11:09:41.403509 26473 net.cpp:151] Top shape: 20 (20)
I0502 11:09:41.403512 26473 net.cpp:159] Memory required for data: 32080
I0502 11:09:41.403518 26473 layer_factory.hpp:77] Creating layer label_intercept_1_split
I0502 11:09:41.403537 26473 net.cpp:94] Creating Layer label_intercept_1_split
I0502 11:09:41.403542 26473 net.cpp:435] label_intercept_1_split <- label
I0502 11:09:41.403548 26473 net.cpp:409] label_intercept_1_split -> label_intercept_1_split_0
I0502 11:09:41.403555 26473 net.cpp:409] label_intercept_1_split -> label_intercept_1_split_1
I0502 11:09:41.403597 26473 net.cpp:144] Setting up label_intercept_1_split
I0502 11:09:41.403604 26473 net.cpp:151] Top shape: 20 (20)
I0502 11:09:41.403606 26473 net.cpp:151] Top shape: 20 (20)
I0502 11:09:41.403609 26473 net.cpp:159] Memory required for data: 32240
I0502 11:09:41.403612 26473 layer_factory.hpp:77] Creating layer conv1
I0502 11:09:41.403623 26473 net.cpp:94] Creating Layer conv1
I0502 11:09:41.403626 26473 net.cpp:435] conv1 <- data
I0502 11:09:41.403631 26473 net.cpp:409] conv1 -> conv1
I0502 11:09:41.405020 26473 net.cpp:144] Setting up conv1
I0502 11:09:41.405040 26473 net.cpp:151] Top shape: 20 64 20 20 (512000)
I0502 11:09:41.405045 26473 net.cpp:159] Memory required for data: 2080240
I0502 11:09:41.405055 26473 layer_factory.hpp:77] Creating layer relu1
I0502 11:09:41.405061 26473 net.cpp:94] Creating Layer relu1
I0502 11:09:41.405066 26473 net.cpp:435] relu1 <- conv1
I0502 11:09:41.405069 26473 net.cpp:396] relu1 -> conv1 (in-place)
I0502 11:09:41.405076 26473 net.cpp:144] Setting up relu1
I0502 11:09:41.405081 26473 net.cpp:151] Top shape: 20 64 20 20 (512000)
I0502 11:09:41.405083 26473 net.cpp:159] Memory required for data: 4128240
I0502 11:09:41.405086 26473 layer_factory.hpp:77] Creating layer conv2
I0502 11:09:41.405094 26473 net.cpp:94] Creating Layer conv2
I0502 11:09:41.405097 26473 net.cpp:435] conv2 <- conv1
I0502 11:09:41.405102 26473 net.cpp:409] conv2 -> conv2
I0502 11:09:41.410166 26473 net.cpp:144] Setting up conv2
I0502 11:09:41.410178 26473 net.cpp:151] Top shape: 20 64 20 20 (512000)
I0502 11:09:41.410182 26473 net.cpp:159] Memory required for data: 6176240
I0502 11:09:41.410190 26473 layer_factory.hpp:77] Creating layer relu2
I0502 11:09:41.410197 26473 net.cpp:94] Creating Layer relu2
I0502 11:09:41.410199 26473 net.cpp:435] relu2 <- conv2
I0502 11:09:41.410203 26473 net.cpp:396] relu2 -> conv2 (in-place)
I0502 11:09:41.410210 26473 net.cpp:144] Setting up relu2
I0502 11:09:41.410214 26473 net.cpp:151] Top shape: 20 64 20 20 (512000)
I0502 11:09:41.410218 26473 net.cpp:159] Memory required for data: 8224240
I0502 11:09:41.410220 26473 layer_factory.hpp:77] Creating layer pool2
I0502 11:09:41.410226 26473 net.cpp:94] Creating Layer pool2
I0502 11:09:41.410229 26473 net.cpp:435] pool2 <- conv2
I0502 11:09:41.410233 26473 net.cpp:409] pool2 -> pool2
I0502 11:09:41.410287 26473 net.cpp:144] Setting up pool2
I0502 11:09:41.410293 26473 net.cpp:151] Top shape: 20 64 10 10 (128000)
I0502 11:09:41.410296 26473 net.cpp:159] Memory required for data: 8736240
I0502 11:09:41.410300 26473 layer_factory.hpp:77] Creating layer conv3
I0502 11:09:41.410307 26473 net.cpp:94] Creating Layer conv3
I0502 11:09:41.410310 26473 net.cpp:435] conv3 <- pool2
I0502 11:09:41.410315 26473 net.cpp:409] conv3 -> conv3
I0502 11:09:41.415218 26473 net.cpp:144] Setting up conv3
I0502 11:09:41.415232 26473 net.cpp:151] Top shape: 20 64 10 10 (128000)
I0502 11:09:41.415235 26473 net.cpp:159] Memory required for data: 9248240
I0502 11:09:41.415243 26473 layer_factory.hpp:77] Creating layer relu3
I0502 11:09:41.415251 26473 net.cpp:94] Creating Layer relu3
I0502 11:09:41.415253 26473 net.cpp:435] relu3 <- conv3
I0502 11:09:41.415258 26473 net.cpp:396] relu3 -> conv3 (in-place)
I0502 11:09:41.415264 26473 net.cpp:144] Setting up relu3
I0502 11:09:41.415269 26473 net.cpp:151] Top shape: 20 64 10 10 (128000)
I0502 11:09:41.415271 26473 net.cpp:159] Memory required for data: 9760240
I0502 11:09:41.415274 26473 layer_factory.hpp:77] Creating layer conv4
I0502 11:09:41.415282 26473 net.cpp:94] Creating Layer conv4
I0502 11:09:41.415285 26473 net.cpp:435] conv4 <- conv3
I0502 11:09:41.415289 26473 net.cpp:409] conv4 -> conv4
I0502 11:09:41.418853 26473 net.cpp:144] Setting up conv4
I0502 11:09:41.418865 26473 net.cpp:151] Top shape: 20 64 10 10 (128000)
I0502 11:09:41.418869 26473 net.cpp:159] Memory required for data: 10272240
I0502 11:09:41.418874 26473 layer_factory.hpp:77] Creating layer relu4
I0502 11:09:41.418880 26473 net.cpp:94] Creating Layer relu4
I0502 11:09:41.418884 26473 net.cpp:435] relu4 <- conv4
I0502 11:09:41.418889 26473 net.cpp:396] relu4 -> conv4 (in-place)
I0502 11:09:41.418895 26473 net.cpp:144] Setting up relu4
I0502 11:09:41.418900 26473 net.cpp:151] Top shape: 20 64 10 10 (128000)
I0502 11:09:41.418902 26473 net.cpp:159] Memory required for data: 10784240
I0502 11:09:41.418905 26473 layer_factory.hpp:77] Creating layer conv5
I0502 11:09:41.418912 26473 net.cpp:94] Creating Layer conv5
I0502 11:09:41.418915 26473 net.cpp:435] conv5 <- conv4
I0502 11:09:41.418920 26473 net.cpp:409] conv5 -> conv5
I0502 11:09:41.422925 26473 net.cpp:144] Setting up conv5
I0502 11:09:41.422943 26473 net.cpp:151] Top shape: 20 64 10 10 (128000)
I0502 11:09:41.422947 26473 net.cpp:159] Memory required for data: 11296240
I0502 11:09:41.422955 26473 layer_factory.hpp:77] Creating layer relu5
I0502 11:09:41.422960 26473 net.cpp:94] Creating Layer relu5
I0502 11:09:41.422965 26473 net.cpp:435] relu5 <- conv5
I0502 11:09:41.422968 26473 net.cpp:396] relu5 -> conv5 (in-place)
I0502 11:09:41.422976 26473 net.cpp:144] Setting up relu5
I0502 11:09:41.422979 26473 net.cpp:151] Top shape: 20 64 10 10 (128000)
I0502 11:09:41.422982 26473 net.cpp:159] Memory required for data: 11808240
I0502 11:09:41.422986 26473 layer_factory.hpp:77] Creating layer pool5
I0502 11:09:41.422991 26473 net.cpp:94] Creating Layer pool5
I0502 11:09:41.422993 26473 net.cpp:435] pool5 <- conv5
I0502 11:09:41.422997 26473 net.cpp:409] pool5 -> pool5
I0502 11:09:41.423034 26473 net.cpp:144] Setting up pool5
I0502 11:09:41.423041 26473 net.cpp:151] Top shape: 20 64 5 5 (32000)
I0502 11:09:41.423043 26473 net.cpp:159] Memory required for data: 11936240
I0502 11:09:41.423048 26473 layer_factory.hpp:77] Creating layer ip1
I0502 11:09:41.423053 26473 net.cpp:94] Creating Layer ip1
I0502 11:09:41.423056 26473 net.cpp:435] ip1 <- pool5
I0502 11:09:41.423061 26473 net.cpp:409] ip1 -> ip1
I0502 11:09:41.425622 26473 net.cpp:144] Setting up ip1
I0502 11:09:41.425631 26473 net.cpp:151] Top shape: 20 64 (1280)
I0502 11:09:41.425635 26473 net.cpp:159] Memory required for data: 11941360
I0502 11:09:41.425640 26473 layer_factory.hpp:77] Creating layer ip2
I0502 11:09:41.425647 26473 net.cpp:94] Creating Layer ip2
I0502 11:09:41.425649 26473 net.cpp:435] ip2 <- ip1
I0502 11:09:41.425654 26473 net.cpp:409] ip2 -> ip2
I0502 11:09:41.425886 26473 net.cpp:144] Setting up ip2
I0502 11:09:41.425894 26473 net.cpp:151] Top shape: 20 64 (1280)
I0502 11:09:41.425896 26473 net.cpp:159] Memory required for data: 11946480
I0502 11:09:41.425901 26473 layer_factory.hpp:77] Creating layer ip3
I0502 11:09:41.425909 26473 net.cpp:94] Creating Layer ip3
I0502 11:09:41.425912 26473 net.cpp:435] ip3 <- ip2
I0502 11:09:41.425917 26473 net.cpp:409] ip3 -> ip3
I0502 11:09:41.426128 26473 net.cpp:144] Setting up ip3
I0502 11:09:41.426136 26473 net.cpp:151] Top shape: 20 50 (1000)
I0502 11:09:41.426138 26473 net.cpp:159] Memory required for data: 11950480
I0502 11:09:41.426142 26473 layer_factory.hpp:77] Creating layer ip3_ip3_0_split
I0502 11:09:41.426149 26473 net.cpp:94] Creating Layer ip3_ip3_0_split
I0502 11:09:41.426152 26473 net.cpp:435] ip3_ip3_0_split <- ip3
I0502 11:09:41.426156 26473 net.cpp:409] ip3_ip3_0_split -> ip3_ip3_0_split_0
I0502 11:09:41.426162 26473 net.cpp:409] ip3_ip3_0_split -> ip3_ip3_0_split_1
I0502 11:09:41.426203 26473 net.cpp:144] Setting up ip3_ip3_0_split
I0502 11:09:41.426208 26473 net.cpp:151] Top shape: 20 50 (1000)
I0502 11:09:41.426211 26473 net.cpp:151] Top shape: 20 50 (1000)
I0502 11:09:41.426214 26473 net.cpp:159] Memory required for data: 11958480
I0502 11:09:41.426218 26473 layer_factory.hpp:77] Creating layer accuracy
I0502 11:09:41.426223 26473 net.cpp:94] Creating Layer accuracy
I0502 11:09:41.426228 26473 net.cpp:435] accuracy <- ip3_ip3_0_split_0
I0502 11:09:41.426230 26473 net.cpp:435] accuracy <- label_intercept_1_split_0
I0502 11:09:41.426235 26473 net.cpp:409] accuracy -> accuracy
…
