…
I0504 13:55:44.677294 26984 net.cpp:323] The NetState phase (0) differed from the phase (1) specified by a rule in layer intercept
I0504 13:55:44.677311 26984 net.cpp:323] The NetState phase (0) differed from the phase (1) specified by a rule in layer loss
I0504 13:55:44.677407 26984 net.cpp:52] Initializing net from parameters: 
state {
  phase: TRAIN
}
layer {
  name: "parameters"
  type: "HDF5Data"
  top: "data"
  top: "label"
  include {
    phase: TRAIN
  }
  hdf5_data_param {
    source: "/home/purduethu/scratch/radon/d/deng106/CNNStatisticalModel/distributions/input/5_distributions_100_sample_size_train-parameters-path.txt"
    batch_size: 20
  }
}
layer {
  name: "conv1"
  type: "Convolution"
  bottom: "data"
  top: "conv1"
  param {
    lr_mult: 1
  }
  param {
    lr_mult: 2
  }
  convolution_param {
    num_output: 64
    pad: 2
    kernel_size: 5
    stride: 1
    weight_filler {
      type: "gaussian"
      std: 0.0001
    }
    bias_filler {
      type: "constant"
    }
  }
}
layer {
  name: "relu1"
  type: "ReLU"
  bottom: "conv1"
  top: "conv1"
}
layer {
  name: "conv2"
  type: "Convolution"
  bottom: "conv1"
  top: "conv2"
  param {
    lr_mult: 1
  }
  param {
    lr_mult: 2
  }
  convolution_param {
    num_output: 64
    pad: 2
    kernel_size: 5
    stride: 1
    weight_filler {
      type: "gaussian"
      std: 0.01
    }
    bias_filler {
      type: "constant"
    }
  }
}
layer {
  name: "relu2"
  type: "ReLU"
  bottom: "conv2"
  top: "conv2"
}
layer {
  name: "pool2"
  type: "Pooling"
  bottom: "conv2"
  top: "pool2"
  pooling_param {
    pool: MAX
    kernel_size: 3
    stride: 2
  }
}
layer {
  name: "conv3"
  type: "Convolution"
  bottom: "pool2"
  top: "conv3"
  param {
    lr_mult: 1
  }
  param {
    lr_mult: 2
  }
  convolution_param {
    num_output: 128
    pad: 2
    kernel_size: 5
    stride: 1
    weight_filler {
      type: "gaussian"
      std: 0.01
    }
    bias_filler {
      type: "constant"
    }
  }
}
layer {
  name: "relu3"
  type: "ReLU"
  bottom: "conv3"
  top: "conv3"
}
layer {
  name: "conv4"
  type: "Convolution"
  bottom: "conv3"
  top: "conv4"
  param {
    lr_mult: 1
  }
  param {
    lr_mult: 2
  }
  convolution_param {
    num_output: 128
    pad: 2
    kernel_size: 5
    stride: 1
    weight_filler {
      type: "gaussian"
      std: 0.01
    }
    bias_filler {
      type: "constant"
    }
  }
}
layer {
  name: "relu4"
  type: "ReLU"
  bottom: "conv4"
  top: "conv4"
}
layer {
  name: "conv5"
  type: "Convolution"
  bottom: "conv4"
  top: "conv5"
  param {
    lr_mult: 1
  }
  param {
    lr_mult: 2
  }
  convolution_param {
    num_output: 128
    pad: 2
    kernel_size: 5
    stride: 1
    weight_filler {
      type: "gaussian"
      std: 0.01
    }
    bias_filler {
      type: "constant"
    }
  }
}
layer {
  name: "relu5"
  type: "ReLU"
  bottom: "conv5"
  top: "conv5"
}
layer {
  name: "pool5"
  type: "Pooling"
  bottom: "conv5"
  top: "pool5"
  pooling_param {
    pool: AVE
    kernel_size: 3
    stride: 2
  }
}
layer {
  name: "ip1"
  type: "InnerProduct"
  bottom: "pool5"
  top: "ip1"
  param {
    lr_mult: 1
  }
  param {
    lr_mult: 2
  }
  inner_product_param {
    num_output: 1024
    weight_filler {
      type: "gaussian"
      std: 0.1
    }
    bias_filler {
      type: "constant"
    }
  }
}
layer {
  name: "ip2"
  type: "InnerProduct"
  bottom: "ip1"
  top: "ip2"
  param {
    lr_mult: 1
  }
  param {
    lr_mult: 2
  }
  inner_product_param {
    num_output: 512
    weight_filler {
      type: "gaussian"
      std: 0.1
    }
    bias_filler {
      type: "constant"
    }
  }
}
layer {
  name: "ip3"
  type: "InnerProduct"
  bottom: "ip2"
  top: "ip3"
  param {
    lr_mult: 1
  }
  param {
    lr_mult: 2
  }
  inner_product_param {
    num_output: 1
    weight_filler {
      type: "gaussian"
      std: 0.1
    }
    bias_filler {
      type: "constant"
    }
  }
}
layer {
  name: "loss"
  type: "HuberLoss"
  bottom: "ip3"
  bottom: "label"
  top: "loss"
  include {
    phase: TRAIN
  }
}
I0504 13:55:44.677487 26984 layer_factory.hpp:77] Creating layer parameters
I0504 13:55:44.677501 26984 net.cpp:94] Creating Layer parameters
I0504 13:55:44.677507 26984 net.cpp:409] parameters -> data
I0504 13:55:44.677526 26984 net.cpp:409] parameters -> label
I0504 13:55:44.677537 26984 hdf5_data_layer.cpp:79] Loading list of HDF5 filenames from: /home/purduethu/scratch/radon/d/deng106/CNNStatisticalModel/distributions/input/5_distributions_100_sample_size_train-parameters-path.txt
I0504 13:55:44.677561 26984 hdf5_data_layer.cpp:93] Number of HDF5 files: 1
I0504 13:55:44.678164 26984 hdf5.cpp:32] Datatype class: H5T_FLOAT
I0504 13:55:44.695047 26984 net.cpp:144] Setting up parameters
I0504 13:55:44.695078 26984 net.cpp:151] Top shape: 20 1 10 10 (2000)
I0504 13:55:44.695085 26984 net.cpp:151] Top shape: 20 (20)
I0504 13:55:44.695087 26984 net.cpp:159] Memory required for data: 8080
I0504 13:55:44.695096 26984 layer_factory.hpp:77] Creating layer conv1
I0504 13:55:44.695118 26984 net.cpp:94] Creating Layer conv1
I0504 13:55:44.695124 26984 net.cpp:435] conv1 <- data
I0504 13:55:44.695135 26984 net.cpp:409] conv1 -> conv1
I0504 13:55:44.698932 26984 net.cpp:144] Setting up conv1
I0504 13:55:44.698946 26984 net.cpp:151] Top shape: 20 64 10 10 (128000)
I0504 13:55:44.698951 26984 net.cpp:159] Memory required for data: 520080
I0504 13:55:44.698962 26984 layer_factory.hpp:77] Creating layer relu1
I0504 13:55:44.698971 26984 net.cpp:94] Creating Layer relu1
I0504 13:55:44.698974 26984 net.cpp:435] relu1 <- conv1
I0504 13:55:44.698979 26984 net.cpp:396] relu1 -> conv1 (in-place)
I0504 13:55:44.698997 26984 net.cpp:144] Setting up relu1
I0504 13:55:44.699002 26984 net.cpp:151] Top shape: 20 64 10 10 (128000)
I0504 13:55:44.699005 26984 net.cpp:159] Memory required for data: 1032080
I0504 13:55:44.699008 26984 layer_factory.hpp:77] Creating layer conv2
I0504 13:55:44.699017 26984 net.cpp:94] Creating Layer conv2
I0504 13:55:44.699020 26984 net.cpp:435] conv2 <- conv1
I0504 13:55:44.699024 26984 net.cpp:409] conv2 -> conv2
I0504 13:55:44.704874 26984 net.cpp:144] Setting up conv2
I0504 13:55:44.704887 26984 net.cpp:151] Top shape: 20 64 10 10 (128000)
I0504 13:55:44.704891 26984 net.cpp:159] Memory required for data: 1544080
I0504 13:55:44.704900 26984 layer_factory.hpp:77] Creating layer relu2
I0504 13:55:44.704906 26984 net.cpp:94] Creating Layer relu2
I0504 13:55:44.704910 26984 net.cpp:435] relu2 <- conv2
I0504 13:55:44.704916 26984 net.cpp:396] relu2 -> conv2 (in-place)
I0504 13:55:44.704922 26984 net.cpp:144] Setting up relu2
I0504 13:55:44.704927 26984 net.cpp:151] Top shape: 20 64 10 10 (128000)
I0504 13:55:44.704931 26984 net.cpp:159] Memory required for data: 2056080
I0504 13:55:44.704933 26984 layer_factory.hpp:77] Creating layer pool2
I0504 13:55:44.704941 26984 net.cpp:94] Creating Layer pool2
I0504 13:55:44.704951 26984 net.cpp:435] pool2 <- conv2
I0504 13:55:44.704955 26984 net.cpp:409] pool2 -> pool2
I0504 13:55:44.704996 26984 net.cpp:144] Setting up pool2
I0504 13:55:44.705004 26984 net.cpp:151] Top shape: 20 64 5 5 (32000)
I0504 13:55:44.705008 26984 net.cpp:159] Memory required for data: 2184080
I0504 13:55:44.705011 26984 layer_factory.hpp:77] Creating layer conv3
I0504 13:55:44.705019 26984 net.cpp:94] Creating Layer conv3
I0504 13:55:44.705023 26984 net.cpp:435] conv3 <- pool2
I0504 13:55:44.705027 26984 net.cpp:409] conv3 -> conv3
I0504 13:55:44.713030 26984 net.cpp:144] Setting up conv3
I0504 13:55:44.713044 26984 net.cpp:151] Top shape: 20 128 5 5 (64000)
I0504 13:55:44.713048 26984 net.cpp:159] Memory required for data: 2440080
I0504 13:55:44.713057 26984 layer_factory.hpp:77] Creating layer relu3
I0504 13:55:44.713063 26984 net.cpp:94] Creating Layer relu3
I0504 13:55:44.713066 26984 net.cpp:435] relu3 <- conv3
I0504 13:55:44.713071 26984 net.cpp:396] relu3 -> conv3 (in-place)
I0504 13:55:44.713078 26984 net.cpp:144] Setting up relu3
I0504 13:55:44.713083 26984 net.cpp:151] Top shape: 20 128 5 5 (64000)
I0504 13:55:44.713088 26984 net.cpp:159] Memory required for data: 2696080
I0504 13:55:44.713090 26984 layer_factory.hpp:77] Creating layer conv4
I0504 13:55:44.713099 26984 net.cpp:94] Creating Layer conv4
I0504 13:55:44.713102 26984 net.cpp:435] conv4 <- conv3
I0504 13:55:44.713106 26984 net.cpp:409] conv4 -> conv4
I0504 13:55:44.727790 26984 net.cpp:144] Setting up conv4
I0504 13:55:44.727804 26984 net.cpp:151] Top shape: 20 128 5 5 (64000)
I0504 13:55:44.727809 26984 net.cpp:159] Memory required for data: 2952080
I0504 13:55:44.727815 26984 layer_factory.hpp:77] Creating layer relu4
I0504 13:55:44.727821 26984 net.cpp:94] Creating Layer relu4
I0504 13:55:44.727825 26984 net.cpp:435] relu4 <- conv4
I0504 13:55:44.727830 26984 net.cpp:396] relu4 -> conv4 (in-place)
I0504 13:55:44.727838 26984 net.cpp:144] Setting up relu4
I0504 13:55:44.727843 26984 net.cpp:151] Top shape: 20 128 5 5 (64000)
I0504 13:55:44.727845 26984 net.cpp:159] Memory required for data: 3208080
I0504 13:55:44.727849 26984 layer_factory.hpp:77] Creating layer conv5
I0504 13:55:44.727856 26984 net.cpp:94] Creating Layer conv5
I0504 13:55:44.727860 26984 net.cpp:435] conv5 <- conv4
I0504 13:55:44.727865 26984 net.cpp:409] conv5 -> conv5
I0504 13:55:44.742368 26984 net.cpp:144] Setting up conv5
I0504 13:55:44.742383 26984 net.cpp:151] Top shape: 20 128 5 5 (64000)
I0504 13:55:44.742388 26984 net.cpp:159] Memory required for data: 3464080
I0504 13:55:44.742396 26984 layer_factory.hpp:77] Creating layer relu5
I0504 13:55:44.742403 26984 net.cpp:94] Creating Layer relu5
I0504 13:55:44.742406 26984 net.cpp:435] relu5 <- conv5
I0504 13:55:44.742411 26984 net.cpp:396] relu5 -> conv5 (in-place)
I0504 13:55:44.742419 26984 net.cpp:144] Setting up relu5
I0504 13:55:44.742424 26984 net.cpp:151] Top shape: 20 128 5 5 (64000)
I0504 13:55:44.742427 26984 net.cpp:159] Memory required for data: 3720080
I0504 13:55:44.742430 26984 layer_factory.hpp:77] Creating layer pool5
I0504 13:55:44.742436 26984 net.cpp:94] Creating Layer pool5
I0504 13:55:44.742439 26984 net.cpp:435] pool5 <- conv5
I0504 13:55:44.742444 26984 net.cpp:409] pool5 -> pool5
I0504 13:55:44.742480 26984 net.cpp:144] Setting up pool5
I0504 13:55:44.742487 26984 net.cpp:151] Top shape: 20 128 2 2 (10240)
I0504 13:55:44.742491 26984 net.cpp:159] Memory required for data: 3761040
I0504 13:55:44.742494 26984 layer_factory.hpp:77] Creating layer ip1
I0504 13:55:44.742503 26984 net.cpp:94] Creating Layer ip1
I0504 13:55:44.742507 26984 net.cpp:435] ip1 <- pool5
I0504 13:55:44.742512 26984 net.cpp:409] ip1 -> ip1
I0504 13:55:44.756352 26984 net.cpp:144] Setting up ip1
I0504 13:55:44.756367 26984 net.cpp:151] Top shape: 20 1024 (20480)
I0504 13:55:44.756371 26984 net.cpp:159] Memory required for data: 3842960
I0504 13:55:44.756377 26984 layer_factory.hpp:77] Creating layer ip2
I0504 13:55:44.756384 26984 net.cpp:94] Creating Layer ip2
I0504 13:55:44.756388 26984 net.cpp:435] ip2 <- ip1
I0504 13:55:44.756398 26984 net.cpp:409] ip2 -> ip2
I0504 13:55:44.769593 26984 net.cpp:144] Setting up ip2
I0504 13:55:44.769606 26984 net.cpp:151] Top shape: 20 512 (10240)
I0504 13:55:44.769611 26984 net.cpp:159] Memory required for data: 3883920
I0504 13:55:44.769618 26984 layer_factory.hpp:77] Creating layer ip3
I0504 13:55:44.769623 26984 net.cpp:94] Creating Layer ip3
I0504 13:55:44.769628 26984 net.cpp:435] ip3 <- ip2
I0504 13:55:44.769632 26984 net.cpp:409] ip3 -> ip3
I0504 13:55:44.769707 26984 net.cpp:144] Setting up ip3
I0504 13:55:44.769714 26984 net.cpp:151] Top shape: 20 1 (20)
I0504 13:55:44.769726 26984 net.cpp:159] Memory required for data: 3884000
I0504 13:55:44.769731 26984 layer_factory.hpp:77] Creating layer loss
I0504 13:55:44.769739 26984 net.cpp:94] Creating Layer loss
I0504 13:55:44.769742 26984 net.cpp:435] loss <- ip3
I0504 13:55:44.769747 26984 net.cpp:435] loss <- label
I0504 13:55:44.769752 26984 net.cpp:409] loss -> loss
I0504 13:55:44.769788 26984 net.cpp:144] Setting up loss
…
