…
I0505 04:11:45.766970  3215 net.cpp:323] The NetState phase (0) differed from the phase (1) specified by a rule in layer intercept
I0505 04:11:45.766986  3215 net.cpp:323] The NetState phase (0) differed from the phase (1) specified by a rule in layer loss
I0505 04:11:45.767062  3215 net.cpp:52] Initializing net from parameters: 
state {
  phase: TRAIN
}
layer {
  name: "parameters"
  type: "HDF5Data"
  top: "data"
  top: "label"
  include {
    phase: TRAIN
  }
  hdf5_data_param {
    source: "/home/purduethu/scratch/radon/d/deng106/CNNStatisticalModel/distributions/input/5_distributions_400_sample_size_train-parameters-path.txt"
    batch_size: 20
  }
}
layer {
  name: "conv1"
  type: "Convolution"
  bottom: "data"
  top: "conv1"
  param {
    lr_mult: 1
  }
  param {
    lr_mult: 2
  }
  convolution_param {
    num_output: 64
    pad: 2
    kernel_size: 5
    stride: 1
    weight_filler {
      type: "gaussian"
      std: 0.0001
    }
    bias_filler {
      type: "constant"
    }
  }
}
layer {
  name: "relu1"
  type: "ReLU"
  bottom: "conv1"
  top: "conv1"
}
layer {
  name: "pool1"
  type: "Pooling"
  bottom: "conv1"
  top: "pool1"
  pooling_param {
    pool: MAX
    kernel_size: 3
    stride: 2
  }
}
layer {
  name: "conv2"
  type: "Convolution"
  bottom: "pool1"
  top: "conv2"
  param {
    lr_mult: 1
  }
  param {
    lr_mult: 2
  }
  convolution_param {
    num_output: 128
    pad: 2
    kernel_size: 5
    stride: 1
    weight_filler {
      type: "gaussian"
      std: 0.01
    }
    bias_filler {
      type: "constant"
    }
  }
}
layer {
  name: "relu2"
  type: "ReLU"
  bottom: "conv2"
  top: "conv2"
}
layer {
  name: "conv3"
  type: "Convolution"
  bottom: "conv2"
  top: "conv3"
  param {
    lr_mult: 1
  }
  param {
    lr_mult: 2
  }
  convolution_param {
    num_output: 128
    pad: 2
    kernel_size: 5
    stride: 1
    weight_filler {
      type: "gaussian"
      std: 0.01
    }
    bias_filler {
      type: "constant"
    }
  }
}
layer {
  name: "relu3"
  type: "ReLU"
  bottom: "conv3"
  top: "conv3"
}
layer {
  name: "pool3"
  type: "Pooling"
  bottom: "conv3"
  top: "pool3"
  pooling_param {
    pool: AVE
    kernel_size: 3
    stride: 2
  }
}
layer {
  name: "ip1"
  type: "InnerProduct"
  bottom: "pool3"
  top: "ip1"
  param {
    lr_mult: 1
  }
  param {
    lr_mult: 2
  }
  inner_product_param {
    num_output: 512
    weight_filler {
      type: "gaussian"
      std: 0.1
    }
    bias_filler {
      type: "constant"
    }
  }
}
layer {
  name: "ip2"
  type: "InnerProduct"
  bottom: "ip1"
  top: "ip2"
  param {
    lr_mult: 1
  }
  param {
    lr_mult: 2
  }
  inner_product_param {
    num_output: 256
    weight_filler {
      type: "gaussian"
      std: 0.1
    }
    bias_filler {
      type: "constant"
    }
  }
}
layer {
  name: "ip3"
  type: "InnerProduct"
  bottom: "ip2"
  top: "ip3"
  param {
    lr_mult: 1
  }
  param {
    lr_mult: 2
  }
  inner_product_param {
    num_output: 1
    weight_filler {
      type: "gaussian"
      std: 0.1
    }
    bias_filler {
      type: "constant"
    }
  }
}
layer {
  name: "loss"
  type: "HuberLoss"
  bottom: "ip3"
  bottom: "label"
  top: "loss"
  include {
    phase: TRAIN
  }
}
I0505 04:11:45.767123  3215 layer_factory.hpp:77] Creating layer parameters
I0505 04:11:45.767138  3215 net.cpp:94] Creating Layer parameters
I0505 04:11:45.767150  3215 net.cpp:409] parameters -> data
I0505 04:11:45.767171  3215 net.cpp:409] parameters -> label
I0505 04:11:45.767182  3215 hdf5_data_layer.cpp:79] Loading list of HDF5 filenames from: /home/purduethu/scratch/radon/d/deng106/CNNStatisticalModel/distributions/input/5_distributions_400_sample_size_train-parameters-path.txt
I0505 04:11:45.767204  3215 hdf5_data_layer.cpp:93] Number of HDF5 files: 1
I0505 04:11:45.767668  3215 hdf5.cpp:32] Datatype class: H5T_FLOAT
I0505 04:11:45.830437  3215 net.cpp:144] Setting up parameters
I0505 04:11:45.830469  3215 net.cpp:151] Top shape: 20 1 20 20 (8000)
I0505 04:11:45.830476  3215 net.cpp:151] Top shape: 20 (20)
I0505 04:11:45.830479  3215 net.cpp:159] Memory required for data: 32080
I0505 04:11:45.830487  3215 layer_factory.hpp:77] Creating layer conv1
I0505 04:11:45.830510  3215 net.cpp:94] Creating Layer conv1
I0505 04:11:45.830515  3215 net.cpp:435] conv1 <- data
I0505 04:11:45.830526  3215 net.cpp:409] conv1 -> conv1
I0505 04:11:45.835232  3215 net.cpp:144] Setting up conv1
I0505 04:11:45.835247  3215 net.cpp:151] Top shape: 20 64 20 20 (512000)
I0505 04:11:45.835252  3215 net.cpp:159] Memory required for data: 2080080
I0505 04:11:45.835263  3215 layer_factory.hpp:77] Creating layer relu1
I0505 04:11:45.835271  3215 net.cpp:94] Creating Layer relu1
I0505 04:11:45.835276  3215 net.cpp:435] relu1 <- conv1
I0505 04:11:45.835280  3215 net.cpp:396] relu1 -> conv1 (in-place)
I0505 04:11:45.835299  3215 net.cpp:144] Setting up relu1
I0505 04:11:45.835304  3215 net.cpp:151] Top shape: 20 64 20 20 (512000)
I0505 04:11:45.835309  3215 net.cpp:159] Memory required for data: 4128080
I0505 04:11:45.835311  3215 layer_factory.hpp:77] Creating layer pool1
I0505 04:11:45.835319  3215 net.cpp:94] Creating Layer pool1
I0505 04:11:45.835322  3215 net.cpp:435] pool1 <- conv1
I0505 04:11:45.835327  3215 net.cpp:409] pool1 -> pool1
I0505 04:11:45.835366  3215 net.cpp:144] Setting up pool1
I0505 04:11:45.835373  3215 net.cpp:151] Top shape: 20 64 10 10 (128000)
I0505 04:11:45.835377  3215 net.cpp:159] Memory required for data: 4640080
I0505 04:11:45.835381  3215 layer_factory.hpp:77] Creating layer conv2
I0505 04:11:45.835389  3215 net.cpp:94] Creating Layer conv2
I0505 04:11:45.835393  3215 net.cpp:435] conv2 <- pool1
I0505 04:11:45.835398  3215 net.cpp:409] conv2 -> conv2
I0505 04:11:45.849884  3215 net.cpp:144] Setting up conv2
I0505 04:11:45.849900  3215 net.cpp:151] Top shape: 20 128 10 10 (256000)
I0505 04:11:45.849905  3215 net.cpp:159] Memory required for data: 5664080
I0505 04:11:45.849913  3215 layer_factory.hpp:77] Creating layer relu2
I0505 04:11:45.849920  3215 net.cpp:94] Creating Layer relu2
I0505 04:11:45.849923  3215 net.cpp:435] relu2 <- conv2
I0505 04:11:45.849928  3215 net.cpp:396] relu2 -> conv2 (in-place)
I0505 04:11:45.849936  3215 net.cpp:144] Setting up relu2
I0505 04:11:45.849941  3215 net.cpp:151] Top shape: 20 128 10 10 (256000)
I0505 04:11:45.849943  3215 net.cpp:159] Memory required for data: 6688080
I0505 04:11:45.849946  3215 layer_factory.hpp:77] Creating layer conv3
I0505 04:11:45.849954  3215 net.cpp:94] Creating Layer conv3
I0505 04:11:45.849958  3215 net.cpp:435] conv3 <- conv2
I0505 04:11:45.849963  3215 net.cpp:409] conv3 -> conv3
I0505 04:11:45.867226  3215 net.cpp:144] Setting up conv3
I0505 04:11:45.867243  3215 net.cpp:151] Top shape: 20 128 10 10 (256000)
I0505 04:11:45.867246  3215 net.cpp:159] Memory required for data: 7712080
I0505 04:11:45.867255  3215 layer_factory.hpp:77] Creating layer relu3
I0505 04:11:45.867261  3215 net.cpp:94] Creating Layer relu3
I0505 04:11:45.867272  3215 net.cpp:435] relu3 <- conv3
I0505 04:11:45.867277  3215 net.cpp:396] relu3 -> conv3 (in-place)
I0505 04:11:45.867285  3215 net.cpp:144] Setting up relu3
I0505 04:11:45.867290  3215 net.cpp:151] Top shape: 20 128 10 10 (256000)
I0505 04:11:45.867293  3215 net.cpp:159] Memory required for data: 8736080
I0505 04:11:45.867296  3215 layer_factory.hpp:77] Creating layer pool3
I0505 04:11:45.867303  3215 net.cpp:94] Creating Layer pool3
I0505 04:11:45.867306  3215 net.cpp:435] pool3 <- conv3
I0505 04:11:45.867318  3215 net.cpp:409] pool3 -> pool3
I0505 04:11:45.867353  3215 net.cpp:144] Setting up pool3
I0505 04:11:45.867362  3215 net.cpp:151] Top shape: 20 128 5 5 (64000)
I0505 04:11:45.867364  3215 net.cpp:159] Memory required for data: 8992080
I0505 04:11:45.867368  3215 layer_factory.hpp:77] Creating layer ip1
I0505 04:11:45.867378  3215 net.cpp:94] Creating Layer ip1
I0505 04:11:45.867382  3215 net.cpp:435] ip1 <- pool3
I0505 04:11:45.867386  3215 net.cpp:409] ip1 -> ip1
I0505 04:11:45.906816  3215 net.cpp:144] Setting up ip1
I0505 04:11:45.906832  3215 net.cpp:151] Top shape: 20 512 (10240)
I0505 04:11:45.906836  3215 net.cpp:159] Memory required for data: 9033040
I0505 04:11:45.906843  3215 layer_factory.hpp:77] Creating layer ip2
I0505 04:11:45.906850  3215 net.cpp:94] Creating Layer ip2
I0505 04:11:45.906854  3215 net.cpp:435] ip2 <- ip1
I0505 04:11:45.906860  3215 net.cpp:409] ip2 -> ip2
I0505 04:11:45.909950  3215 net.cpp:144] Setting up ip2
I0505 04:11:45.909958  3215 net.cpp:151] Top shape: 20 256 (5120)
I0505 04:11:45.909962  3215 net.cpp:159] Memory required for data: 9053520
I0505 04:11:45.909970  3215 layer_factory.hpp:77] Creating layer ip3
I0505 04:11:45.909976  3215 net.cpp:94] Creating Layer ip3
I0505 04:11:45.909979  3215 net.cpp:435] ip3 <- ip2
I0505 04:11:45.909984  3215 net.cpp:409] ip3 -> ip3
I0505 04:11:45.910048  3215 net.cpp:144] Setting up ip3
I0505 04:11:45.910053  3215 net.cpp:151] Top shape: 20 1 (20)
I0505 04:11:45.910056  3215 net.cpp:159] Memory required for data: 9053600
I0505 04:11:45.910061  3215 layer_factory.hpp:77] Creating layer loss
I0505 04:11:45.910068  3215 net.cpp:94] Creating Layer loss
I0505 04:11:45.910071  3215 net.cpp:435] loss <- ip3
I0505 04:11:45.910075  3215 net.cpp:435] loss <- label
I0505 04:11:45.910081  3215 net.cpp:409] loss -> loss
I0505 04:11:45.910115  3215 net.cpp:144] Setting up loss
…
