…
I0502 10:20:01.139703 23453 net.cpp:323] The NetState phase (0) differed from the phase (1) specified by a rule in layer intercept
I0502 10:20:01.139719 23453 net.cpp:323] The NetState phase (0) differed from the phase (1) specified by a rule in layer loss
I0502 10:20:01.139798 23453 net.cpp:52] Initializing net from parameters: 
state {
  phase: TRAIN
}
layer {
  name: "parameters"
  type: "HDF5Data"
  top: "data"
  top: "label"
  include {
    phase: TRAIN
  }
  hdf5_data_param {
    source: "/home/purduethu/scratch/radon/d/deng106/CNNStatisticalModel/distributions/input/20_distributions_900_sample_size_train-parameters-path.txt"
    batch_size: 20
  }
}
layer {
  name: "conv1"
  type: "Convolution"
  bottom: "data"
  top: "conv1"
  param {
    lr_mult: 1
  }
  param {
    lr_mult: 2
  }
  convolution_param {
    num_output: 64
    pad: 2
    kernel_size: 5
    stride: 1
    weight_filler {
      type: "gaussian"
      std: 0.0001
    }
    bias_filler {
      type: "constant"
    }
  }
}
layer {
  name: "relu1"
  type: "ReLU"
  bottom: "conv1"
  top: "conv1"
}
layer {
  name: "conv2"
  type: "Convolution"
  bottom: "conv1"
  top: "conv2"
  param {
    lr_mult: 1
  }
  param {
    lr_mult: 2
  }
  convolution_param {
    num_output: 64
    pad: 2
    kernel_size: 5
    stride: 1
    weight_filler {
      type: "gaussian"
      std: 0.01
    }
    bias_filler {
      type: "constant"
    }
  }
}
layer {
  name: "relu2"
  type: "ReLU"
  bottom: "conv2"
  top: "conv2"
}
layer {
  name: "pool2"
  type: "Pooling"
  bottom: "conv2"
  top: "pool2"
  pooling_param {
    pool: MAX
    kernel_size: 3
    stride: 2
  }
}
layer {
  name: "conv3"
  type: "Convolution"
  bottom: "pool2"
  top: "conv3"
  param {
    lr_mult: 1
  }
  param {
    lr_mult: 2
  }
  convolution_param {
    num_output: 64
    pad: 2
    kernel_size: 5
    stride: 1
    weight_filler {
      type: "gaussian"
      std: 0.01
    }
    bias_filler {
      type: "constant"
    }
  }
}
layer {
  name: "relu3"
  type: "ReLU"
  bottom: "conv3"
  top: "conv3"
}
layer {
  name: "conv4"
  type: "Convolution"
  bottom: "conv3"
  top: "conv4"
  param {
    lr_mult: 1
  }
  param {
    lr_mult: 2
  }
  convolution_param {
    num_output: 64
    pad: 2
    kernel_size: 5
    stride: 1
    weight_filler {
      type: "gaussian"
      std: 0.01
    }
    bias_filler {
      type: "constant"
    }
  }
}
layer {
  name: "relu4"
  type: "ReLU"
  bottom: "conv4"
  top: "conv4"
}
layer {
  name: "conv5"
  type: "Convolution"
  bottom: "conv4"
  top: "conv5"
  param {
    lr_mult: 1
  }
  param {
    lr_mult: 2
  }
  convolution_param {
    num_output: 64
    pad: 2
    kernel_size: 5
    stride: 1
    weight_filler {
      type: "gaussian"
      std: 0.01
    }
    bias_filler {
      type: "constant"
    }
  }
}
layer {
  name: "relu5"
  type: "ReLU"
  bottom: "conv5"
  top: "conv5"
}
layer {
  name: "pool5"
  type: "Pooling"
  bottom: "conv5"
  top: "pool5"
  pooling_param {
    pool: AVE
    kernel_size: 3
    stride: 2
  }
}
layer {
  name: "ip1"
  type: "InnerProduct"
  bottom: "pool5"
  top: "ip1"
  param {
    lr_mult: 1
  }
  param {
    lr_mult: 2
  }
  inner_product_param {
    num_output: 64
    weight_filler {
      type: "gaussian"
      std: 0.1
    }
    bias_filler {
      type: "constant"
    }
  }
}
layer {
  name: "ip2"
  type: "InnerProduct"
  bottom: "ip1"
  top: "ip2"
  param {
    lr_mult: 1
  }
  param {
    lr_mult: 2
  }
  inner_product_param {
    num_output: 64
    weight_filler {
      type: "gaussian"
      std: 0.1
    }
    bias_filler {
      type: "constant"
    }
  }
}
layer {
  name: "ip3"
  type: "InnerProduct"
  bottom: "ip2"
  top: "ip3"
  param {
    lr_mult: 1
  }
  param {
    lr_mult: 2
  }
  inner_product_param {
    num_output: 1
    weight_filler {
      type: "gaussian"
      std: 0.1
    }
    bias_filler {
      type: "constant"
    }
  }
}
layer {
  name: "loss"
  type: "HuberLoss"
  bottom: "ip3"
  bottom: "label"
  top: "loss"
  include {
    phase: TRAIN
  }
}
I0502 10:20:01.139850 23453 layer_factory.hpp:77] Creating layer parameters
I0502 10:20:01.139863 23453 net.cpp:94] Creating Layer parameters
I0502 10:20:01.139868 23453 net.cpp:409] parameters -> data
I0502 10:20:01.139875 23453 net.cpp:409] parameters -> label
I0502 10:20:01.139885 23453 hdf5_data_layer.cpp:79] Loading list of HDF5 filenames from: /home/purduethu/scratch/radon/d/deng106/CNNStatisticalModel/distributions/input/20_distributions_900_sample_size_train-parameters-path.txt
I0502 10:20:01.139900 23453 hdf5_data_layer.cpp:93] Number of HDF5 files: 1
I0502 10:20:01.140344 23453 hdf5.cpp:32] Datatype class: H5T_FLOAT
I0502 10:20:01.732455 23453 net.cpp:144] Setting up parameters
I0502 10:20:01.732486 23453 net.cpp:151] Top shape: 20 1 30 30 (18000)
I0502 10:20:01.732491 23453 net.cpp:151] Top shape: 20 (20)
I0502 10:20:01.732493 23453 net.cpp:159] Memory required for data: 72080
I0502 10:20:01.732499 23453 layer_factory.hpp:77] Creating layer conv1
I0502 10:20:01.732519 23453 net.cpp:94] Creating Layer conv1
I0502 10:20:01.732524 23453 net.cpp:435] conv1 <- data
I0502 10:20:01.732530 23453 net.cpp:409] conv1 -> conv1
I0502 10:20:01.739101 23453 net.cpp:144] Setting up conv1
I0502 10:20:01.739120 23453 net.cpp:151] Top shape: 20 64 30 30 (1152000)
I0502 10:20:01.739123 23453 net.cpp:159] Memory required for data: 4680080
I0502 10:20:01.739133 23453 layer_factory.hpp:77] Creating layer relu1
I0502 10:20:01.739141 23453 net.cpp:94] Creating Layer relu1
I0502 10:20:01.739145 23453 net.cpp:435] relu1 <- conv1
I0502 10:20:01.739150 23453 net.cpp:396] relu1 -> conv1 (in-place)
I0502 10:20:01.739161 23453 net.cpp:144] Setting up relu1
I0502 10:20:01.739166 23453 net.cpp:151] Top shape: 20 64 30 30 (1152000)
I0502 10:20:01.739168 23453 net.cpp:159] Memory required for data: 9288080
I0502 10:20:01.739171 23453 layer_factory.hpp:77] Creating layer conv2
I0502 10:20:01.739179 23453 net.cpp:94] Creating Layer conv2
I0502 10:20:01.739182 23453 net.cpp:435] conv2 <- conv1
I0502 10:20:01.739187 23453 net.cpp:409] conv2 -> conv2
I0502 10:20:01.753656 23453 net.cpp:144] Setting up conv2
I0502 10:20:01.753671 23453 net.cpp:151] Top shape: 20 64 30 30 (1152000)
I0502 10:20:01.753675 23453 net.cpp:159] Memory required for data: 13896080
I0502 10:20:01.753684 23453 layer_factory.hpp:77] Creating layer relu2
I0502 10:20:01.753690 23453 net.cpp:94] Creating Layer relu2
I0502 10:20:01.753693 23453 net.cpp:435] relu2 <- conv2
I0502 10:20:01.753698 23453 net.cpp:396] relu2 -> conv2 (in-place)
I0502 10:20:01.753705 23453 net.cpp:144] Setting up relu2
I0502 10:20:01.753710 23453 net.cpp:151] Top shape: 20 64 30 30 (1152000)
I0502 10:20:01.753712 23453 net.cpp:159] Memory required for data: 18504080
I0502 10:20:01.753715 23453 layer_factory.hpp:77] Creating layer pool2
I0502 10:20:01.753727 23453 net.cpp:94] Creating Layer pool2
I0502 10:20:01.753731 23453 net.cpp:435] pool2 <- conv2
I0502 10:20:01.753736 23453 net.cpp:409] pool2 -> pool2
I0502 10:20:01.753793 23453 net.cpp:144] Setting up pool2
I0502 10:20:01.753799 23453 net.cpp:151] Top shape: 20 64 15 15 (288000)
I0502 10:20:01.753803 23453 net.cpp:159] Memory required for data: 19656080
I0502 10:20:01.753805 23453 layer_factory.hpp:77] Creating layer conv3
I0502 10:20:01.753813 23453 net.cpp:94] Creating Layer conv3
I0502 10:20:01.753816 23453 net.cpp:435] conv3 <- pool2
I0502 10:20:01.753821 23453 net.cpp:409] conv3 -> conv3
I0502 10:20:01.765625 23453 net.cpp:144] Setting up conv3
I0502 10:20:01.765640 23453 net.cpp:151] Top shape: 20 64 15 15 (288000)
I0502 10:20:01.765643 23453 net.cpp:159] Memory required for data: 20808080
I0502 10:20:01.765651 23453 layer_factory.hpp:77] Creating layer relu3
I0502 10:20:01.765657 23453 net.cpp:94] Creating Layer relu3
I0502 10:20:01.765661 23453 net.cpp:435] relu3 <- conv3
I0502 10:20:01.765666 23453 net.cpp:396] relu3 -> conv3 (in-place)
I0502 10:20:01.765672 23453 net.cpp:144] Setting up relu3
I0502 10:20:01.765677 23453 net.cpp:151] Top shape: 20 64 15 15 (288000)
I0502 10:20:01.765679 23453 net.cpp:159] Memory required for data: 21960080
I0502 10:20:01.765682 23453 layer_factory.hpp:77] Creating layer conv4
I0502 10:20:01.765691 23453 net.cpp:94] Creating Layer conv4
I0502 10:20:01.765694 23453 net.cpp:435] conv4 <- conv3
I0502 10:20:01.765699 23453 net.cpp:409] conv4 -> conv4
I0502 10:20:01.773406 23453 net.cpp:144] Setting up conv4
I0502 10:20:01.773422 23453 net.cpp:151] Top shape: 20 64 15 15 (288000)
I0502 10:20:01.773425 23453 net.cpp:159] Memory required for data: 23112080
I0502 10:20:01.773432 23453 layer_factory.hpp:77] Creating layer relu4
I0502 10:20:01.773438 23453 net.cpp:94] Creating Layer relu4
I0502 10:20:01.773442 23453 net.cpp:435] relu4 <- conv4
I0502 10:20:01.773447 23453 net.cpp:396] relu4 -> conv4 (in-place)
I0502 10:20:01.773453 23453 net.cpp:144] Setting up relu4
I0502 10:20:01.773458 23453 net.cpp:151] Top shape: 20 64 15 15 (288000)
I0502 10:20:01.773460 23453 net.cpp:159] Memory required for data: 24264080
I0502 10:20:01.773463 23453 layer_factory.hpp:77] Creating layer conv5
I0502 10:20:01.773470 23453 net.cpp:94] Creating Layer conv5
I0502 10:20:01.773474 23453 net.cpp:435] conv5 <- conv4
I0502 10:20:01.773478 23453 net.cpp:409] conv5 -> conv5
I0502 10:20:01.782044 23453 net.cpp:144] Setting up conv5
I0502 10:20:01.782059 23453 net.cpp:151] Top shape: 20 64 15 15 (288000)
I0502 10:20:01.782063 23453 net.cpp:159] Memory required for data: 25416080
I0502 10:20:01.782073 23453 layer_factory.hpp:77] Creating layer relu5
I0502 10:20:01.782079 23453 net.cpp:94] Creating Layer relu5
I0502 10:20:01.782083 23453 net.cpp:435] relu5 <- conv5
I0502 10:20:01.782088 23453 net.cpp:396] relu5 -> conv5 (in-place)
I0502 10:20:01.782094 23453 net.cpp:144] Setting up relu5
I0502 10:20:01.782099 23453 net.cpp:151] Top shape: 20 64 15 15 (288000)
I0502 10:20:01.782101 23453 net.cpp:159] Memory required for data: 26568080
I0502 10:20:01.782104 23453 layer_factory.hpp:77] Creating layer pool5
I0502 10:20:01.782109 23453 net.cpp:94] Creating Layer pool5
I0502 10:20:01.782112 23453 net.cpp:435] pool5 <- conv5
I0502 10:20:01.782116 23453 net.cpp:409] pool5 -> pool5
I0502 10:20:01.782160 23453 net.cpp:144] Setting up pool5
I0502 10:20:01.782167 23453 net.cpp:151] Top shape: 20 64 7 7 (62720)
I0502 10:20:01.782171 23453 net.cpp:159] Memory required for data: 26818960
I0502 10:20:01.782173 23453 layer_factory.hpp:77] Creating layer ip1
I0502 10:20:01.782183 23453 net.cpp:94] Creating Layer ip1
I0502 10:20:01.782186 23453 net.cpp:435] ip1 <- pool5
I0502 10:20:01.782191 23453 net.cpp:409] ip1 -> ip1
I0502 10:20:01.787055 23453 net.cpp:144] Setting up ip1
I0502 10:20:01.787065 23453 net.cpp:151] Top shape: 20 64 (1280)
I0502 10:20:01.787067 23453 net.cpp:159] Memory required for data: 26824080
I0502 10:20:01.787073 23453 layer_factory.hpp:77] Creating layer ip2
I0502 10:20:01.787080 23453 net.cpp:94] Creating Layer ip2
I0502 10:20:01.787086 23453 net.cpp:435] ip2 <- ip1
I0502 10:20:01.787092 23453 net.cpp:409] ip2 -> ip2
I0502 10:20:01.787314 23453 net.cpp:144] Setting up ip2
I0502 10:20:01.787322 23453 net.cpp:151] Top shape: 20 64 (1280)
I0502 10:20:01.787324 23453 net.cpp:159] Memory required for data: 26829200
I0502 10:20:01.787330 23453 layer_factory.hpp:77] Creating layer ip3
I0502 10:20:01.787335 23453 net.cpp:94] Creating Layer ip3
I0502 10:20:01.787339 23453 net.cpp:435] ip3 <- ip2
I0502 10:20:01.787344 23453 net.cpp:409] ip3 -> ip3
I0502 10:20:01.787454 23453 net.cpp:144] Setting up ip3
I0502 10:20:01.787461 23453 net.cpp:151] Top shape: 20 1 (20)
I0502 10:20:01.787464 23453 net.cpp:159] Memory required for data: 26829280
I0502 10:20:01.787469 23453 layer_factory.hpp:77] Creating layer loss
I0502 10:20:01.787477 23453 net.cpp:94] Creating Layer loss
I0502 10:20:01.787479 23453 net.cpp:435] loss <- ip3
I0502 10:20:01.787483 23453 net.cpp:435] loss <- label
I0502 10:20:01.787487 23453 net.cpp:409] loss -> loss
I0502 10:20:01.787540 23453 net.cpp:144] Setting up loss
…
I0502 10:20:01.968264 23453 net.cpp:323] The NetState phase (0) differed from the phase (1) specified by a rule in layer intercept
I0502 10:20:01.968279 23453 net.cpp:323] The NetState phase (0) differed from the phase (1) specified by a rule in layer accuracy
I0502 10:20:01.968361 23453 net.cpp:52] Initializing net from parameters: 
state {
  phase: TRAIN
}
layer {
  name: "parameters"
  type: "HDF5Data"
  top: "data"
  top: "label"
  include {
    phase: TRAIN
  }
  hdf5_data_param {
    source: "/home/purduethu/scratch/radon/d/deng106/CNNStatisticalModel/distributions/input/20_distributions_900_sample_size_train-distributions-path.txt"
    batch_size: 20
  }
}
layer {
  name: "conv1"
  type: "Convolution"
  bottom: "data"
  top: "conv1"
  param {
    lr_mult: 1
  }
  param {
    lr_mult: 2
  }
  convolution_param {
    num_output: 64
    pad: 2
    kernel_size: 5
    stride: 1
    weight_filler {
      type: "gaussian"
      std: 0.0001
    }
    bias_filler {
      type: "constant"
    }
  }
}
layer {
  name: "relu1"
  type: "ReLU"
  bottom: "conv1"
  top: "conv1"
}
layer {
  name: "conv2"
  type: "Convolution"
  bottom: "conv1"
  top: "conv2"
  param {
    lr_mult: 1
  }
  param {
    lr_mult: 2
  }
  convolution_param {
    num_output: 64
    pad: 2
    kernel_size: 5
    stride: 1
    weight_filler {
      type: "gaussian"
      std: 0.01
    }
    bias_filler {
      type: "constant"
    }
  }
}
layer {
  name: "relu2"
  type: "ReLU"
  bottom: "conv2"
  top: "conv2"
}
layer {
  name: "pool2"
  type: "Pooling"
  bottom: "conv2"
  top: "pool2"
  pooling_param {
    pool: MAX
    kernel_size: 3
    stride: 2
  }
}
layer {
  name: "conv3"
  type: "Convolution"
  bottom: "pool2"
  top: "conv3"
  param {
    lr_mult: 1
  }
  param {
    lr_mult: 2
  }
  convolution_param {
    num_output: 64
    pad: 2
    kernel_size: 5
    stride: 1
    weight_filler {
      type: "gaussian"
      std: 0.01
    }
    bias_filler {
      type: "constant"
    }
  }
}
layer {
  name: "relu3"
  type: "ReLU"
  bottom: "conv3"
  top: "conv3"
}
layer {
  name: "conv4"
  type: "Convolution"
  bottom: "conv3"
  top: "conv4"
  param {
    lr_mult: 1
  }
  param {
    lr_mult: 2
  }
  convolution_param {
    num_output: 64
    pad: 2
    kernel_size: 5
    stride: 1
    weight_filler {
      type: "gaussian"
      std: 0.01
    }
    bias_filler {
      type: "constant"
    }
  }
}
layer {
  name: "relu4"
  type: "ReLU"
  bottom: "conv4"
  top: "conv4"
}
layer {
  name: "conv5"
  type: "Convolution"
  bottom: "conv4"
  top: "conv5"
  param {
    lr_mult: 1
  }
  param {
    lr_mult: 2
  }
  convolution_param {
    num_output: 64
    pad: 2
    kernel_size: 5
    stride: 1
    weight_filler {
      type: "gaussian"
      std: 0.01
    }
    bias_filler {
      type: "constant"
    }
  }
}
layer {
  name: "relu5"
  type: "ReLU"
  bottom: "conv5"
  top: "conv5"
}
layer {
  name: "pool5"
  type: "Pooling"
  bottom: "conv5"
  top: "pool5"
  pooling_param {
    pool: AVE
    kernel_size: 3
    stride: 2
  }
}
layer {
  name: "ip1"
  type: "InnerProduct"
  bottom: "pool5"
  top: "ip1"
  param {
    lr_mult: 1
  }
  param {
    lr_mult: 2
  }
  inner_product_param {
    num_output: 64
    weight_filler {
      type: "gaussian"
      std: 0.1
    }
    bias_filler {
      type: "constant"
    }
  }
}
layer {
  name: "ip2"
  type: "InnerProduct"
  bottom: "ip1"
  top: "ip2"
  param {
    lr_mult: 1
  }
  param {
    lr_mult: 2
  }
  inner_product_param {
    num_output: 64
    weight_filler {
      type: "gaussian"
      std: 0.1
    }
    bias_filler {
      type: "constant"
    }
  }
}
layer {
  name: "ip3"
  type: "InnerProduct"
  bottom: "ip2"
  top: "ip3"
  param {
    lr_mult: 1
  }
  param {
    lr_mult: 2
  }
  inner_product_param {
    num_output: 50
    weight_filler {
      type: "gaussian"
      std: 0.1
    }
    bias_filler {
      type: "constant"
    }
  }
}
layer {
  name: "loss"
  type: "SoftmaxWithLoss"
  bottom: "ip3"
  bottom: "label"
  top: "loss"
}
I0502 10:20:01.968410 23453 layer_factory.hpp:77] Creating layer parameters
I0502 10:20:01.968417 23453 net.cpp:94] Creating Layer parameters
I0502 10:20:01.968420 23453 net.cpp:409] parameters -> data
I0502 10:20:01.968427 23453 net.cpp:409] parameters -> label
I0502 10:20:01.968433 23453 hdf5_data_layer.cpp:79] Loading list of HDF5 filenames from: /home/purduethu/scratch/radon/d/deng106/CNNStatisticalModel/distributions/input/20_distributions_900_sample_size_train-distributions-path.txt
I0502 10:20:01.968448 23453 hdf5_data_layer.cpp:93] Number of HDF5 files: 1
I0502 10:20:02.543332 23453 hdf5.cpp:35] Datatype class: H5T_INTEGER
I0502 10:20:02.545300 23453 net.cpp:144] Setting up parameters
I0502 10:20:02.545323 23453 net.cpp:151] Top shape: 20 1 30 30 (18000)
I0502 10:20:02.545328 23453 net.cpp:151] Top shape: 20 (20)
I0502 10:20:02.545331 23453 net.cpp:159] Memory required for data: 72080
I0502 10:20:02.545338 23453 layer_factory.hpp:77] Creating layer conv1
I0502 10:20:02.545354 23453 net.cpp:94] Creating Layer conv1
I0502 10:20:02.545358 23453 net.cpp:435] conv1 <- data
I0502 10:20:02.545366 23453 net.cpp:409] conv1 -> conv1
I0502 10:20:02.548810 23453 net.cpp:144] Setting up conv1
I0502 10:20:02.548825 23453 net.cpp:151] Top shape: 20 64 30 30 (1152000)
I0502 10:20:02.548830 23453 net.cpp:159] Memory required for data: 4680080
I0502 10:20:02.548840 23453 layer_factory.hpp:77] Creating layer relu1
I0502 10:20:02.548847 23453 net.cpp:94] Creating Layer relu1
I0502 10:20:02.548851 23453 net.cpp:435] relu1 <- conv1
I0502 10:20:02.548856 23453 net.cpp:396] relu1 -> conv1 (in-place)
I0502 10:20:02.548864 23453 net.cpp:144] Setting up relu1
I0502 10:20:02.548868 23453 net.cpp:151] Top shape: 20 64 30 30 (1152000)
I0502 10:20:02.548871 23453 net.cpp:159] Memory required for data: 9288080
I0502 10:20:02.548874 23453 layer_factory.hpp:77] Creating layer conv2
I0502 10:20:02.548882 23453 net.cpp:94] Creating Layer conv2
I0502 10:20:02.548885 23453 net.cpp:435] conv2 <- conv1
I0502 10:20:02.548890 23453 net.cpp:409] conv2 -> conv2
I0502 10:20:02.564530 23453 net.cpp:144] Setting up conv2
I0502 10:20:02.564545 23453 net.cpp:151] Top shape: 20 64 30 30 (1152000)
I0502 10:20:02.564558 23453 net.cpp:159] Memory required for data: 13896080
I0502 10:20:02.564568 23453 layer_factory.hpp:77] Creating layer relu2
I0502 10:20:02.564574 23453 net.cpp:94] Creating Layer relu2
I0502 10:20:02.564579 23453 net.cpp:435] relu2 <- conv2
I0502 10:20:02.564584 23453 net.cpp:396] relu2 -> conv2 (in-place)
I0502 10:20:02.564590 23453 net.cpp:144] Setting up relu2
I0502 10:20:02.564594 23453 net.cpp:151] Top shape: 20 64 30 30 (1152000)
I0502 10:20:02.564597 23453 net.cpp:159] Memory required for data: 18504080
I0502 10:20:02.564600 23453 layer_factory.hpp:77] Creating layer pool2
I0502 10:20:02.564606 23453 net.cpp:94] Creating Layer pool2
I0502 10:20:02.564610 23453 net.cpp:435] pool2 <- conv2
I0502 10:20:02.564613 23453 net.cpp:409] pool2 -> pool2
I0502 10:20:02.564668 23453 net.cpp:144] Setting up pool2
I0502 10:20:02.564676 23453 net.cpp:151] Top shape: 20 64 15 15 (288000)
I0502 10:20:02.564678 23453 net.cpp:159] Memory required for data: 19656080
I0502 10:20:02.564682 23453 layer_factory.hpp:77] Creating layer conv3
I0502 10:20:02.564689 23453 net.cpp:94] Creating Layer conv3
I0502 10:20:02.564693 23453 net.cpp:435] conv3 <- pool2
I0502 10:20:02.564705 23453 net.cpp:409] conv3 -> conv3
I0502 10:20:02.573508 23453 net.cpp:144] Setting up conv3
I0502 10:20:02.573523 23453 net.cpp:151] Top shape: 20 64 15 15 (288000)
I0502 10:20:02.573526 23453 net.cpp:159] Memory required for data: 20808080
I0502 10:20:02.573534 23453 layer_factory.hpp:77] Creating layer relu3
I0502 10:20:02.573540 23453 net.cpp:94] Creating Layer relu3
I0502 10:20:02.573544 23453 net.cpp:435] relu3 <- conv3
I0502 10:20:02.573549 23453 net.cpp:396] relu3 -> conv3 (in-place)
I0502 10:20:02.573555 23453 net.cpp:144] Setting up relu3
I0502 10:20:02.573559 23453 net.cpp:151] Top shape: 20 64 15 15 (288000)
I0502 10:20:02.573562 23453 net.cpp:159] Memory required for data: 21960080
I0502 10:20:02.573565 23453 layer_factory.hpp:77] Creating layer conv4
I0502 10:20:02.573573 23453 net.cpp:94] Creating Layer conv4
I0502 10:20:02.573576 23453 net.cpp:435] conv4 <- conv3
I0502 10:20:02.573581 23453 net.cpp:409] conv4 -> conv4
I0502 10:20:02.581388 23453 net.cpp:144] Setting up conv4
I0502 10:20:02.581403 23453 net.cpp:151] Top shape: 20 64 15 15 (288000)
I0502 10:20:02.581408 23453 net.cpp:159] Memory required for data: 23112080
I0502 10:20:02.581413 23453 layer_factory.hpp:77] Creating layer relu4
I0502 10:20:02.581419 23453 net.cpp:94] Creating Layer relu4
I0502 10:20:02.581423 23453 net.cpp:435] relu4 <- conv4
I0502 10:20:02.581428 23453 net.cpp:396] relu4 -> conv4 (in-place)
I0502 10:20:02.581434 23453 net.cpp:144] Setting up relu4
I0502 10:20:02.581439 23453 net.cpp:151] Top shape: 20 64 15 15 (288000)
I0502 10:20:02.581440 23453 net.cpp:159] Memory required for data: 24264080
I0502 10:20:02.581444 23453 layer_factory.hpp:77] Creating layer conv5
I0502 10:20:02.581451 23453 net.cpp:94] Creating Layer conv5
I0502 10:20:02.581454 23453 net.cpp:435] conv5 <- conv4
I0502 10:20:02.581459 23453 net.cpp:409] conv5 -> conv5
I0502 10:20:02.589244 23453 net.cpp:144] Setting up conv5
I0502 10:20:02.589259 23453 net.cpp:151] Top shape: 20 64 15 15 (288000)
I0502 10:20:02.589263 23453 net.cpp:159] Memory required for data: 25416080
I0502 10:20:02.589272 23453 layer_factory.hpp:77] Creating layer relu5
I0502 10:20:02.589277 23453 net.cpp:94] Creating Layer relu5
I0502 10:20:02.589280 23453 net.cpp:435] relu5 <- conv5
I0502 10:20:02.589285 23453 net.cpp:396] relu5 -> conv5 (in-place)
I0502 10:20:02.589293 23453 net.cpp:144] Setting up relu5
I0502 10:20:02.589296 23453 net.cpp:151] Top shape: 20 64 15 15 (288000)
I0502 10:20:02.589299 23453 net.cpp:159] Memory required for data: 26568080
I0502 10:20:02.589303 23453 layer_factory.hpp:77] Creating layer pool5
I0502 10:20:02.589308 23453 net.cpp:94] Creating Layer pool5
I0502 10:20:02.589310 23453 net.cpp:435] pool5 <- conv5
I0502 10:20:02.589314 23453 net.cpp:409] pool5 -> pool5
I0502 10:20:02.589354 23453 net.cpp:144] Setting up pool5
I0502 10:20:02.589359 23453 net.cpp:151] Top shape: 20 64 7 7 (62720)
I0502 10:20:02.589362 23453 net.cpp:159] Memory required for data: 26818960
I0502 10:20:02.589366 23453 layer_factory.hpp:77] Creating layer ip1
I0502 10:20:02.589372 23453 net.cpp:94] Creating Layer ip1
I0502 10:20:02.589375 23453 net.cpp:435] ip1 <- pool5
I0502 10:20:02.589380 23453 net.cpp:409] ip1 -> ip1
I0502 10:20:02.595126 23453 net.cpp:144] Setting up ip1
I0502 10:20:02.595141 23453 net.cpp:151] Top shape: 20 64 (1280)
I0502 10:20:02.595145 23453 net.cpp:159] Memory required for data: 26824080
I0502 10:20:02.595151 23453 layer_factory.hpp:77] Creating layer ip2
I0502 10:20:02.595157 23453 net.cpp:94] Creating Layer ip2
I0502 10:20:02.595161 23453 net.cpp:435] ip2 <- ip1
I0502 10:20:02.595166 23453 net.cpp:409] ip2 -> ip2
I0502 10:20:02.595394 23453 net.cpp:144] Setting up ip2
I0502 10:20:02.595402 23453 net.cpp:151] Top shape: 20 64 (1280)
I0502 10:20:02.595405 23453 net.cpp:159] Memory required for data: 26829200
I0502 10:20:02.595410 23453 layer_factory.hpp:77] Creating layer ip3
I0502 10:20:02.595415 23453 net.cpp:94] Creating Layer ip3
I0502 10:20:02.595419 23453 net.cpp:435] ip3 <- ip2
I0502 10:20:02.595423 23453 net.cpp:409] ip3 -> ip3
I0502 10:20:02.595626 23453 net.cpp:144] Setting up ip3
I0502 10:20:02.595634 23453 net.cpp:151] Top shape: 20 50 (1000)
I0502 10:20:02.595638 23453 net.cpp:159] Memory required for data: 26833200
I0502 10:20:02.595643 23453 layer_factory.hpp:77] Creating layer loss
I0502 10:20:02.595649 23453 net.cpp:94] Creating Layer loss
I0502 10:20:02.595652 23453 net.cpp:435] loss <- ip3
I0502 10:20:02.595656 23453 net.cpp:435] loss <- label
I0502 10:20:02.595660 23453 net.cpp:409] loss -> loss
I0502 10:20:02.595667 23453 layer_factory.hpp:77] Creating layer loss
…
I0502 10:20:02.596197 23453 solver.cpp:181] Creating test net (#0) specified by net file: ./protocol/dis_20_900_dimension.protocol_distribution
I0502 10:20:02.596225 23453 net.cpp:323] The NetState phase (1) differed from the phase (0) specified by a rule in layer parameters
I0502 10:20:02.596323 23453 net.cpp:52] Initializing net from parameters: 
state {
  phase: TEST
}
layer {
  name: "intercept"
  type: "HDF5Data"
  top: "data"
  top: "label"
  include {
    phase: TEST
  }
  hdf5_data_param {
    source: "/home/purduethu/scratch/radon/d/deng106/CNNStatisticalModel/distributions/input/20_distributions_900_sample_size_test-distributions-path.txt"
    batch_size: 20
  }
}
layer {
  name: "conv1"
  type: "Convolution"
  bottom: "data"
  top: "conv1"
  param {
    lr_mult: 1
  }
  param {
    lr_mult: 2
  }
  convolution_param {
    num_output: 64
    pad: 2
    kernel_size: 5
    stride: 1
    weight_filler {
      type: "gaussian"
      std: 0.0001
    }
    bias_filler {
      type: "constant"
    }
  }
}
layer {
  name: "relu1"
  type: "ReLU"
  bottom: "conv1"
  top: "conv1"
}
layer {
  name: "conv2"
  type: "Convolution"
  bottom: "conv1"
  top: "conv2"
  param {
    lr_mult: 1
  }
  param {
    lr_mult: 2
  }
  convolution_param {
    num_output: 64
    pad: 2
    kernel_size: 5
    stride: 1
    weight_filler {
      type: "gaussian"
      std: 0.01
    }
    bias_filler {
      type: "constant"
    }
  }
}
layer {
  name: "relu2"
  type: "ReLU"
  bottom: "conv2"
  top: "conv2"
}
layer {
  name: "pool2"
  type: "Pooling"
  bottom: "conv2"
  top: "pool2"
  pooling_param {
    pool: MAX
    kernel_size: 3
    stride: 2
  }
}
layer {
  name: "conv3"
  type: "Convolution"
  bottom: "pool2"
  top: "conv3"
  param {
    lr_mult: 1
  }
  param {
    lr_mult: 2
  }
  convolution_param {
    num_output: 64
    pad: 2
    kernel_size: 5
    stride: 1
    weight_filler {
      type: "gaussian"
      std: 0.01
    }
    bias_filler {
      type: "constant"
    }
  }
}
layer {
  name: "relu3"
  type: "ReLU"
  bottom: "conv3"
  top: "conv3"
}
layer {
  name: "conv4"
  type: "Convolution"
  bottom: "conv3"
  top: "conv4"
  param {
    lr_mult: 1
  }
  param {
    lr_mult: 2
  }
  convolution_param {
    num_output: 64
    pad: 2
    kernel_size: 5
    stride: 1
    weight_filler {
      type: "gaussian"
      std: 0.01
    }
    bias_filler {
      type: "constant"
    }
  }
}
layer {
  name: "relu4"
  type: "ReLU"
  bottom: "conv4"
  top: "conv4"
}
layer {
  name: "conv5"
  type: "Convolution"
  bottom: "conv4"
  top: "conv5"
  param {
    lr_mult: 1
  }
  param {
    lr_mult: 2
  }
  convolution_param {
    num_output: 64
    pad: 2
    kernel_size: 5
    stride: 1
    weight_filler {
      type: "gaussian"
      std: 0.01
    }
    bias_filler {
      type: "constant"
    }
  }
}
layer {
  name: "relu5"
  type: "ReLU"
  bottom: "conv5"
  top: "conv5"
}
layer {
  name: "pool5"
  type: "Pooling"
  bottom: "conv5"
  top: "pool5"
  pooling_param {
    pool: AVE
    kernel_size: 3
    stride: 2
  }
}
layer {
  name: "ip1"
  type: "InnerProduct"
  bottom: "pool5"
  top: "ip1"
  param {
    lr_mult: 1
  }
  param {
    lr_mult: 2
  }
  inner_product_param {
    num_output: 64
    weight_filler {
      type: "gaussian"
      std: 0.1
    }
    bias_filler {
      type: "constant"
    }
  }
}
layer {
  name: "ip2"
  type: "InnerProduct"
  bottom: "ip1"
  top: "ip2"
  param {
    lr_mult: 1
  }
  param {
    lr_mult: 2
  }
  inner_product_param {
    num_output: 64
    weight_filler {
      type: "gaussian"
      std: 0.1
    }
    bias_filler {
      type: "constant"
    }
  }
}
layer {
  name: "ip3"
  type: "InnerProduct"
  bottom: "ip2"
  top: "ip3"
  param {
    lr_mult: 1
  }
  param {
    lr_mult: 2
  }
  inner_product_param {
    num_output: 50
    weight_filler {
      type: "gaussian"
      std: 0.1
    }
    bias_filler {
      type: "constant"
    }
  }
}
layer {
  name: "accuracy"
  type: "Accuracy"
  bottom: "ip3"
  bottom: "label"
  top: "accuracy"
  include {
    phase: TEST
  }
}
layer {
  name: "loss"
  type: "SoftmaxWithLoss"
  bottom: "ip3"
  bottom: "label"
  top: "loss"
}
I0502 10:20:02.596386 23453 layer_factory.hpp:77] Creating layer intercept
I0502 10:20:02.596395 23453 net.cpp:94] Creating Layer intercept
I0502 10:20:02.596398 23453 net.cpp:409] intercept -> data
I0502 10:20:02.596405 23453 net.cpp:409] intercept -> label
I0502 10:20:02.596411 23453 hdf5_data_layer.cpp:79] Loading list of HDF5 filenames from: /home/purduethu/scratch/radon/d/deng106/CNNStatisticalModel/distributions/input/20_distributions_900_sample_size_test-distributions-path.txt
I0502 10:20:02.596429 23453 hdf5_data_layer.cpp:93] Number of HDF5 files: 1
I0502 10:20:02.744840 23453 net.cpp:144] Setting up intercept
I0502 10:20:02.744873 23453 net.cpp:151] Top shape: 20 1 30 30 (18000)
I0502 10:20:02.744877 23453 net.cpp:151] Top shape: 20 (20)
I0502 10:20:02.744880 23453 net.cpp:159] Memory required for data: 72080
I0502 10:20:02.744886 23453 layer_factory.hpp:77] Creating layer label_intercept_1_split
I0502 10:20:02.744906 23453 net.cpp:94] Creating Layer label_intercept_1_split
I0502 10:20:02.744911 23453 net.cpp:435] label_intercept_1_split <- label
I0502 10:20:02.744916 23453 net.cpp:409] label_intercept_1_split -> label_intercept_1_split_0
I0502 10:20:02.744925 23453 net.cpp:409] label_intercept_1_split -> label_intercept_1_split_1
I0502 10:20:02.744966 23453 net.cpp:144] Setting up label_intercept_1_split
I0502 10:20:02.744972 23453 net.cpp:151] Top shape: 20 (20)
I0502 10:20:02.744976 23453 net.cpp:151] Top shape: 20 (20)
I0502 10:20:02.744978 23453 net.cpp:159] Memory required for data: 72240
I0502 10:20:02.744982 23453 layer_factory.hpp:77] Creating layer conv1
I0502 10:20:02.744992 23453 net.cpp:94] Creating Layer conv1
I0502 10:20:02.744995 23453 net.cpp:435] conv1 <- data
I0502 10:20:02.745000 23453 net.cpp:409] conv1 -> conv1
I0502 10:20:02.746516 23453 net.cpp:144] Setting up conv1
I0502 10:20:02.746531 23453 net.cpp:151] Top shape: 20 64 30 30 (1152000)
I0502 10:20:02.746534 23453 net.cpp:159] Memory required for data: 4680240
I0502 10:20:02.746544 23453 layer_factory.hpp:77] Creating layer relu1
I0502 10:20:02.746551 23453 net.cpp:94] Creating Layer relu1
I0502 10:20:02.746554 23453 net.cpp:435] relu1 <- conv1
I0502 10:20:02.746559 23453 net.cpp:396] relu1 -> conv1 (in-place)
I0502 10:20:02.746567 23453 net.cpp:144] Setting up relu1
I0502 10:20:02.746570 23453 net.cpp:151] Top shape: 20 64 30 30 (1152000)
I0502 10:20:02.746573 23453 net.cpp:159] Memory required for data: 9288240
I0502 10:20:02.746577 23453 layer_factory.hpp:77] Creating layer conv2
I0502 10:20:02.746584 23453 net.cpp:94] Creating Layer conv2
I0502 10:20:02.746587 23453 net.cpp:435] conv2 <- conv1
I0502 10:20:02.746592 23453 net.cpp:409] conv2 -> conv2
I0502 10:20:02.753281 23453 net.cpp:144] Setting up conv2
I0502 10:20:02.753296 23453 net.cpp:151] Top shape: 20 64 30 30 (1152000)
I0502 10:20:02.753300 23453 net.cpp:159] Memory required for data: 13896240
I0502 10:20:02.753309 23453 layer_factory.hpp:77] Creating layer relu2
I0502 10:20:02.753314 23453 net.cpp:94] Creating Layer relu2
I0502 10:20:02.753319 23453 net.cpp:435] relu2 <- conv2
I0502 10:20:02.753322 23453 net.cpp:396] relu2 -> conv2 (in-place)
I0502 10:20:02.753329 23453 net.cpp:144] Setting up relu2
I0502 10:20:02.753334 23453 net.cpp:151] Top shape: 20 64 30 30 (1152000)
I0502 10:20:02.753336 23453 net.cpp:159] Memory required for data: 18504240
I0502 10:20:02.753340 23453 layer_factory.hpp:77] Creating layer pool2
I0502 10:20:02.753345 23453 net.cpp:94] Creating Layer pool2
I0502 10:20:02.753347 23453 net.cpp:435] pool2 <- conv2
I0502 10:20:02.753352 23453 net.cpp:409] pool2 -> pool2
I0502 10:20:02.753407 23453 net.cpp:144] Setting up pool2
I0502 10:20:02.753414 23453 net.cpp:151] Top shape: 20 64 15 15 (288000)
I0502 10:20:02.753417 23453 net.cpp:159] Memory required for data: 19656240
I0502 10:20:02.753420 23453 layer_factory.hpp:77] Creating layer conv3
I0502 10:20:02.753428 23453 net.cpp:94] Creating Layer conv3
I0502 10:20:02.753432 23453 net.cpp:435] conv3 <- pool2
I0502 10:20:02.753437 23453 net.cpp:409] conv3 -> conv3
I0502 10:20:02.758618 23453 net.cpp:144] Setting up conv3
I0502 10:20:02.758633 23453 net.cpp:151] Top shape: 20 64 15 15 (288000)
I0502 10:20:02.758637 23453 net.cpp:159] Memory required for data: 20808240
I0502 10:20:02.758646 23453 layer_factory.hpp:77] Creating layer relu3
I0502 10:20:02.758652 23453 net.cpp:94] Creating Layer relu3
I0502 10:20:02.758656 23453 net.cpp:435] relu3 <- conv3
I0502 10:20:02.758661 23453 net.cpp:396] relu3 -> conv3 (in-place)
I0502 10:20:02.758667 23453 net.cpp:144] Setting up relu3
I0502 10:20:02.758672 23453 net.cpp:151] Top shape: 20 64 15 15 (288000)
I0502 10:20:02.758675 23453 net.cpp:159] Memory required for data: 21960240
I0502 10:20:02.758678 23453 layer_factory.hpp:77] Creating layer conv4
I0502 10:20:02.758685 23453 net.cpp:94] Creating Layer conv4
I0502 10:20:02.758689 23453 net.cpp:435] conv4 <- conv3
I0502 10:20:02.758694 23453 net.cpp:409] conv4 -> conv4
I0502 10:20:02.763389 23453 net.cpp:144] Setting up conv4
I0502 10:20:02.763404 23453 net.cpp:151] Top shape: 20 64 15 15 (288000)
I0502 10:20:02.763408 23453 net.cpp:159] Memory required for data: 23112240
I0502 10:20:02.763414 23453 layer_factory.hpp:77] Creating layer relu4
I0502 10:20:02.763420 23453 net.cpp:94] Creating Layer relu4
I0502 10:20:02.763424 23453 net.cpp:435] relu4 <- conv4
I0502 10:20:02.763429 23453 net.cpp:396] relu4 -> conv4 (in-place)
I0502 10:20:02.763435 23453 net.cpp:144] Setting up relu4
I0502 10:20:02.763440 23453 net.cpp:151] Top shape: 20 64 15 15 (288000)
I0502 10:20:02.763443 23453 net.cpp:159] Memory required for data: 24264240
I0502 10:20:02.763447 23453 layer_factory.hpp:77] Creating layer conv5
I0502 10:20:02.763454 23453 net.cpp:94] Creating Layer conv5
I0502 10:20:02.763458 23453 net.cpp:435] conv5 <- conv4
I0502 10:20:02.763463 23453 net.cpp:409] conv5 -> conv5
I0502 10:20:02.769013 23453 net.cpp:144] Setting up conv5
I0502 10:20:02.769029 23453 net.cpp:151] Top shape: 20 64 15 15 (288000)
I0502 10:20:02.769033 23453 net.cpp:159] Memory required for data: 25416240
I0502 10:20:02.769042 23453 layer_factory.hpp:77] Creating layer relu5
I0502 10:20:02.769048 23453 net.cpp:94] Creating Layer relu5
I0502 10:20:02.769052 23453 net.cpp:435] relu5 <- conv5
I0502 10:20:02.769057 23453 net.cpp:396] relu5 -> conv5 (in-place)
I0502 10:20:02.769063 23453 net.cpp:144] Setting up relu5
I0502 10:20:02.769068 23453 net.cpp:151] Top shape: 20 64 15 15 (288000)
I0502 10:20:02.769070 23453 net.cpp:159] Memory required for data: 26568240
I0502 10:20:02.769073 23453 layer_factory.hpp:77] Creating layer pool5
I0502 10:20:02.769078 23453 net.cpp:94] Creating Layer pool5
I0502 10:20:02.769081 23453 net.cpp:435] pool5 <- conv5
I0502 10:20:02.769086 23453 net.cpp:409] pool5 -> pool5
I0502 10:20:02.769125 23453 net.cpp:144] Setting up pool5
I0502 10:20:02.769132 23453 net.cpp:151] Top shape: 20 64 7 7 (62720)
I0502 10:20:02.769135 23453 net.cpp:159] Memory required for data: 26819120
I0502 10:20:02.769139 23453 layer_factory.hpp:77] Creating layer ip1
I0502 10:20:02.769145 23453 net.cpp:94] Creating Layer ip1
I0502 10:20:02.769148 23453 net.cpp:435] ip1 <- pool5
I0502 10:20:02.769153 23453 net.cpp:409] ip1 -> ip1
I0502 10:20:02.774030 23453 net.cpp:144] Setting up ip1
I0502 10:20:02.774040 23453 net.cpp:151] Top shape: 20 64 (1280)
I0502 10:20:02.774044 23453 net.cpp:159] Memory required for data: 26824240
I0502 10:20:02.774049 23453 layer_factory.hpp:77] Creating layer ip2
I0502 10:20:02.774055 23453 net.cpp:94] Creating Layer ip2
I0502 10:20:02.774060 23453 net.cpp:435] ip2 <- ip1
I0502 10:20:02.774065 23453 net.cpp:409] ip2 -> ip2
I0502 10:20:02.774297 23453 net.cpp:144] Setting up ip2
I0502 10:20:02.774304 23453 net.cpp:151] Top shape: 20 64 (1280)
I0502 10:20:02.774307 23453 net.cpp:159] Memory required for data: 26829360
I0502 10:20:02.774312 23453 layer_factory.hpp:77] Creating layer ip3
I0502 10:20:02.774319 23453 net.cpp:94] Creating Layer ip3
I0502 10:20:02.774322 23453 net.cpp:435] ip3 <- ip2
I0502 10:20:02.774327 23453 net.cpp:409] ip3 -> ip3
I0502 10:20:02.774525 23453 net.cpp:144] Setting up ip3
I0502 10:20:02.774533 23453 net.cpp:151] Top shape: 20 50 (1000)
I0502 10:20:02.774535 23453 net.cpp:159] Memory required for data: 26833360
I0502 10:20:02.774540 23453 layer_factory.hpp:77] Creating layer ip3_ip3_0_split
I0502 10:20:02.774545 23453 net.cpp:94] Creating Layer ip3_ip3_0_split
I0502 10:20:02.774549 23453 net.cpp:435] ip3_ip3_0_split <- ip3
I0502 10:20:02.774552 23453 net.cpp:409] ip3_ip3_0_split -> ip3_ip3_0_split_0
I0502 10:20:02.774559 23453 net.cpp:409] ip3_ip3_0_split -> ip3_ip3_0_split_1
I0502 10:20:02.774597 23453 net.cpp:144] Setting up ip3_ip3_0_split
I0502 10:20:02.774603 23453 net.cpp:151] Top shape: 20 50 (1000)
I0502 10:20:02.774607 23453 net.cpp:151] Top shape: 20 50 (1000)
I0502 10:20:02.774610 23453 net.cpp:159] Memory required for data: 26841360
I0502 10:20:02.774612 23453 layer_factory.hpp:77] Creating layer accuracy
I0502 10:20:02.774618 23453 net.cpp:94] Creating Layer accuracy
I0502 10:20:02.774621 23453 net.cpp:435] accuracy <- ip3_ip3_0_split_0
I0502 10:20:02.774626 23453 net.cpp:435] accuracy <- label_intercept_1_split_0
I0502 10:20:02.774629 23453 net.cpp:409] accuracy -> accuracy
…
