…
I0503 06:30:24.789533 18671 net.cpp:323] The NetState phase (0) differed from the phase (1) specified by a rule in layer intercept
I0503 06:30:24.789549 18671 net.cpp:323] The NetState phase (0) differed from the phase (1) specified by a rule in layer loss
I0503 06:30:24.789641 18671 net.cpp:52] Initializing net from parameters: 
state {
  phase: TRAIN
}
layer {
  name: "parameters"
  type: "HDF5Data"
  top: "data"
  top: "label"
  include {
    phase: TRAIN
  }
  hdf5_data_param {
    source: "/home/purduethu/scratch/radon/d/deng106/CNNStatisticalModel/distributions/input/50_distributions_900_sample_size_train-parameters-path.txt"
    batch_size: 20
  }
}
layer {
  name: "conv1"
  type: "Convolution"
  bottom: "data"
  top: "conv1"
  param {
    lr_mult: 1
  }
  param {
    lr_mult: 2
  }
  convolution_param {
    num_output: 64
    pad: 2
    kernel_size: 5
    stride: 1
    weight_filler {
      type: "gaussian"
      std: 0.0001
    }
    bias_filler {
      type: "constant"
    }
  }
}
layer {
  name: "relu1"
  type: "ReLU"
  bottom: "conv1"
  top: "conv1"
}
layer {
  name: "conv2"
  type: "Convolution"
  bottom: "conv1"
  top: "conv2"
  param {
    lr_mult: 1
  }
  param {
    lr_mult: 2
  }
  convolution_param {
    num_output: 64
    pad: 2
    kernel_size: 5
    stride: 1
    weight_filler {
      type: "gaussian"
      std: 0.01
    }
    bias_filler {
      type: "constant"
    }
  }
}
layer {
  name: "relu2"
  type: "ReLU"
  bottom: "conv2"
  top: "conv2"
}
layer {
  name: "pool2"
  type: "Pooling"
  bottom: "conv2"
  top: "pool2"
  pooling_param {
    pool: MAX
    kernel_size: 3
    stride: 2
  }
}
layer {
  name: "conv3"
  type: "Convolution"
  bottom: "pool2"
  top: "conv3"
  param {
    lr_mult: 1
  }
  param {
    lr_mult: 2
  }
  convolution_param {
    num_output: 128
    pad: 2
    kernel_size: 5
    stride: 1
    weight_filler {
      type: "gaussian"
      std: 0.01
    }
    bias_filler {
      type: "constant"
    }
  }
}
layer {
  name: "relu3"
  type: "ReLU"
  bottom: "conv3"
  top: "conv3"
}
layer {
  name: "conv4"
  type: "Convolution"
  bottom: "conv3"
  top: "conv4"
  param {
    lr_mult: 1
  }
  param {
    lr_mult: 2
  }
  convolution_param {
    num_output: 128
    pad: 2
    kernel_size: 5
    stride: 1
    weight_filler {
      type: "gaussian"
      std: 0.01
    }
    bias_filler {
      type: "constant"
    }
  }
}
layer {
  name: "relu4"
  type: "ReLU"
  bottom: "conv4"
  top: "conv4"
}
layer {
  name: "conv5"
  type: "Convolution"
  bottom: "conv4"
  top: "conv5"
  param {
    lr_mult: 1
  }
  param {
    lr_mult: 2
  }
  convolution_param {
    num_output: 128
    pad: 2
    kernel_size: 5
    stride: 1
    weight_filler {
      type: "gaussian"
      std: 0.01
    }
    bias_filler {
      type: "constant"
    }
  }
}
layer {
  name: "relu5"
  type: "ReLU"
  bottom: "conv5"
  top: "conv5"
}
layer {
  name: "pool5"
  type: "Pooling"
  bottom: "conv5"
  top: "pool5"
  pooling_param {
    pool: AVE
    kernel_size: 3
    stride: 2
  }
}
layer {
  name: "ip1"
  type: "InnerProduct"
  bottom: "pool5"
  top: "ip1"
  param {
    lr_mult: 1
  }
  param {
    lr_mult: 2
  }
  inner_product_param {
    num_output: 1024
    weight_filler {
      type: "gaussian"
      std: 0.1
    }
    bias_filler {
      type: "constant"
    }
  }
}
layer {
  name: "ip2"
  type: "InnerProduct"
  bottom: "ip1"
  top: "ip2"
  param {
    lr_mult: 1
  }
  param {
    lr_mult: 2
  }
  inner_product_param {
    num_output: 512
    weight_filler {
      type: "gaussian"
      std: 0.1
    }
    bias_filler {
      type: "constant"
    }
  }
}
layer {
  name: "ip3"
  type: "InnerProduct"
  bottom: "ip2"
  top: "ip3"
  param {
    lr_mult: 1
  }
  param {
    lr_mult: 2
  }
  inner_product_param {
    num_output: 1
    weight_filler {
      type: "gaussian"
      std: 0.1
    }
    bias_filler {
      type: "constant"
    }
  }
}
layer {
  name: "loss"
  type: "HuberLoss"
  bottom: "ip3"
  bottom: "label"
  top: "loss"
  include {
    phase: TRAIN
  }
}
I0503 06:30:24.789718 18671 layer_factory.hpp:77] Creating layer parameters
I0503 06:30:24.789733 18671 net.cpp:94] Creating Layer parameters
I0503 06:30:24.789738 18671 net.cpp:409] parameters -> data
I0503 06:30:24.789757 18671 net.cpp:409] parameters -> label
I0503 06:30:24.789767 18671 hdf5_data_layer.cpp:79] Loading list of HDF5 filenames from: /home/purduethu/scratch/radon/d/deng106/CNNStatisticalModel/distributions/input/50_distributions_900_sample_size_train-parameters-path.txt
I0503 06:30:24.789790 18671 hdf5_data_layer.cpp:93] Number of HDF5 files: 1
I0503 06:30:24.790371 18671 hdf5.cpp:32] Datatype class: H5T_FLOAT
I0503 06:30:26.266227 18671 net.cpp:144] Setting up parameters
I0503 06:30:26.266263 18671 net.cpp:151] Top shape: 20 1 30 30 (18000)
I0503 06:30:26.266268 18671 net.cpp:151] Top shape: 20 (20)
I0503 06:30:26.266273 18671 net.cpp:159] Memory required for data: 72080
I0503 06:30:26.266280 18671 layer_factory.hpp:77] Creating layer conv1
I0503 06:30:26.266305 18671 net.cpp:94] Creating Layer conv1
I0503 06:30:26.266310 18671 net.cpp:435] conv1 <- data
I0503 06:30:26.266322 18671 net.cpp:409] conv1 -> conv1
I0503 06:30:26.272336 18671 net.cpp:144] Setting up conv1
I0503 06:30:26.272356 18671 net.cpp:151] Top shape: 20 64 30 30 (1152000)
I0503 06:30:26.272359 18671 net.cpp:159] Memory required for data: 4680080
I0503 06:30:26.272372 18671 layer_factory.hpp:77] Creating layer relu1
I0503 06:30:26.272380 18671 net.cpp:94] Creating Layer relu1
I0503 06:30:26.272384 18671 net.cpp:435] relu1 <- conv1
I0503 06:30:26.272389 18671 net.cpp:396] relu1 -> conv1 (in-place)
I0503 06:30:26.272405 18671 net.cpp:144] Setting up relu1
I0503 06:30:26.272410 18671 net.cpp:151] Top shape: 20 64 30 30 (1152000)
I0503 06:30:26.272413 18671 net.cpp:159] Memory required for data: 9288080
I0503 06:30:26.272418 18671 layer_factory.hpp:77] Creating layer conv2
I0503 06:30:26.272425 18671 net.cpp:94] Creating Layer conv2
I0503 06:30:26.272429 18671 net.cpp:435] conv2 <- conv1
I0503 06:30:26.272434 18671 net.cpp:409] conv2 -> conv2
I0503 06:30:26.287513 18671 net.cpp:144] Setting up conv2
I0503 06:30:26.287530 18671 net.cpp:151] Top shape: 20 64 30 30 (1152000)
I0503 06:30:26.287535 18671 net.cpp:159] Memory required for data: 13896080
I0503 06:30:26.287544 18671 layer_factory.hpp:77] Creating layer relu2
I0503 06:30:26.287551 18671 net.cpp:94] Creating Layer relu2
I0503 06:30:26.287555 18671 net.cpp:435] relu2 <- conv2
I0503 06:30:26.287560 18671 net.cpp:396] relu2 -> conv2 (in-place)
I0503 06:30:26.287569 18671 net.cpp:144] Setting up relu2
I0503 06:30:26.287573 18671 net.cpp:151] Top shape: 20 64 30 30 (1152000)
I0503 06:30:26.287576 18671 net.cpp:159] Memory required for data: 18504080
I0503 06:30:26.287580 18671 layer_factory.hpp:77] Creating layer pool2
I0503 06:30:26.287587 18671 net.cpp:94] Creating Layer pool2
I0503 06:30:26.287597 18671 net.cpp:435] pool2 <- conv2
I0503 06:30:26.287603 18671 net.cpp:409] pool2 -> pool2
I0503 06:30:26.287649 18671 net.cpp:144] Setting up pool2
I0503 06:30:26.287657 18671 net.cpp:151] Top shape: 20 64 15 15 (288000)
I0503 06:30:26.287660 18671 net.cpp:159] Memory required for data: 19656080
I0503 06:30:26.287663 18671 layer_factory.hpp:77] Creating layer conv3
I0503 06:30:26.287672 18671 net.cpp:94] Creating Layer conv3
I0503 06:30:26.287677 18671 net.cpp:435] conv3 <- pool2
I0503 06:30:26.287681 18671 net.cpp:409] conv3 -> conv3
I0503 06:30:26.299932 18671 net.cpp:144] Setting up conv3
I0503 06:30:26.299947 18671 net.cpp:151] Top shape: 20 128 15 15 (576000)
I0503 06:30:26.299952 18671 net.cpp:159] Memory required for data: 21960080
I0503 06:30:26.299960 18671 layer_factory.hpp:77] Creating layer relu3
I0503 06:30:26.299968 18671 net.cpp:94] Creating Layer relu3
I0503 06:30:26.299971 18671 net.cpp:435] relu3 <- conv3
I0503 06:30:26.299975 18671 net.cpp:396] relu3 -> conv3 (in-place)
I0503 06:30:26.299983 18671 net.cpp:144] Setting up relu3
I0503 06:30:26.299988 18671 net.cpp:151] Top shape: 20 128 15 15 (576000)
I0503 06:30:26.299991 18671 net.cpp:159] Memory required for data: 24264080
I0503 06:30:26.299994 18671 layer_factory.hpp:77] Creating layer conv4
I0503 06:30:26.300004 18671 net.cpp:94] Creating Layer conv4
I0503 06:30:26.300007 18671 net.cpp:435] conv4 <- conv3
I0503 06:30:26.300012 18671 net.cpp:409] conv4 -> conv4
I0503 06:30:26.328127 18671 net.cpp:144] Setting up conv4
I0503 06:30:26.328172 18671 net.cpp:151] Top shape: 20 128 15 15 (576000)
I0503 06:30:26.328186 18671 net.cpp:159] Memory required for data: 26568080
I0503 06:30:26.328203 18671 layer_factory.hpp:77] Creating layer relu4
I0503 06:30:26.328220 18671 net.cpp:94] Creating Layer relu4
I0503 06:30:26.328233 18671 net.cpp:435] relu4 <- conv4
I0503 06:30:26.328246 18671 net.cpp:396] relu4 -> conv4 (in-place)
I0503 06:30:26.328266 18671 net.cpp:144] Setting up relu4
I0503 06:30:26.328279 18671 net.cpp:151] Top shape: 20 128 15 15 (576000)
I0503 06:30:26.328289 18671 net.cpp:159] Memory required for data: 28872080
I0503 06:30:26.328297 18671 layer_factory.hpp:77] Creating layer conv5
I0503 06:30:26.328317 18671 net.cpp:94] Creating Layer conv5
I0503 06:30:26.328327 18671 net.cpp:435] conv5 <- conv4
I0503 06:30:26.328341 18671 net.cpp:409] conv5 -> conv5
I0503 06:30:26.370158 18671 net.cpp:144] Setting up conv5
I0503 06:30:26.370194 18671 net.cpp:151] Top shape: 20 128 15 15 (576000)
I0503 06:30:26.370203 18671 net.cpp:159] Memory required for data: 31176080
I0503 06:30:26.370224 18671 layer_factory.hpp:77] Creating layer relu5
I0503 06:30:26.370239 18671 net.cpp:94] Creating Layer relu5
I0503 06:30:26.370249 18671 net.cpp:435] relu5 <- conv5
I0503 06:30:26.370260 18671 net.cpp:396] relu5 -> conv5 (in-place)
I0503 06:30:26.370275 18671 net.cpp:144] Setting up relu5
I0503 06:30:26.370286 18671 net.cpp:151] Top shape: 20 128 15 15 (576000)
I0503 06:30:26.370293 18671 net.cpp:159] Memory required for data: 33480080
I0503 06:30:26.370301 18671 layer_factory.hpp:77] Creating layer pool5
I0503 06:30:26.370312 18671 net.cpp:94] Creating Layer pool5
I0503 06:30:26.370319 18671 net.cpp:435] pool5 <- conv5
I0503 06:30:26.370331 18671 net.cpp:409] pool5 -> pool5
I0503 06:30:26.370410 18671 net.cpp:144] Setting up pool5
I0503 06:30:26.370426 18671 net.cpp:151] Top shape: 20 128 7 7 (125440)
I0503 06:30:26.370434 18671 net.cpp:159] Memory required for data: 33981840
I0503 06:30:26.370441 18671 layer_factory.hpp:77] Creating layer ip1
I0503 06:30:26.370460 18671 net.cpp:94] Creating Layer ip1
I0503 06:30:26.370468 18671 net.cpp:435] ip1 <- pool5
I0503 06:30:26.370479 18671 net.cpp:409] ip1 -> ip1
I0503 06:30:26.602306 18671 net.cpp:144] Setting up ip1
I0503 06:30:26.602341 18671 net.cpp:151] Top shape: 20 1024 (20480)
I0503 06:30:26.602346 18671 net.cpp:159] Memory required for data: 34063760
I0503 06:30:26.602355 18671 layer_factory.hpp:77] Creating layer ip2
I0503 06:30:26.602366 18671 net.cpp:94] Creating Layer ip2
I0503 06:30:26.602381 18671 net.cpp:435] ip2 <- ip1
I0503 06:30:26.602388 18671 net.cpp:409] ip2 -> ip2
I0503 06:30:26.616153 18671 net.cpp:144] Setting up ip2
I0503 06:30:26.616170 18671 net.cpp:151] Top shape: 20 512 (10240)
I0503 06:30:26.616175 18671 net.cpp:159] Memory required for data: 34104720
I0503 06:30:26.616181 18671 layer_factory.hpp:77] Creating layer ip3
I0503 06:30:26.616189 18671 net.cpp:94] Creating Layer ip3
I0503 06:30:26.616194 18671 net.cpp:435] ip3 <- ip2
I0503 06:30:26.616199 18671 net.cpp:409] ip3 -> ip3
I0503 06:30:26.616282 18671 net.cpp:144] Setting up ip3
I0503 06:30:26.616300 18671 net.cpp:151] Top shape: 20 1 (20)
I0503 06:30:26.616304 18671 net.cpp:159] Memory required for data: 34104800
I0503 06:30:26.616309 18671 layer_factory.hpp:77] Creating layer loss
I0503 06:30:26.616318 18671 net.cpp:94] Creating Layer loss
I0503 06:30:26.616322 18671 net.cpp:435] loss <- ip3
I0503 06:30:26.616327 18671 net.cpp:435] loss <- label
I0503 06:30:26.616333 18671 net.cpp:409] loss -> loss
I0503 06:30:26.616377 18671 net.cpp:144] Setting up loss
…
