…
I0502 00:06:12.243968 16681 net.cpp:323] The NetState phase (0) differed from the phase (1) specified by a rule in layer intercept
I0502 00:06:12.243984 16681 net.cpp:323] The NetState phase (0) differed from the phase (1) specified by a rule in layer loss
I0502 00:06:12.244061 16681 net.cpp:52] Initializing net from parameters: 
state {
  phase: TRAIN
}
layer {
  name: "parameters"
  type: "HDF5Data"
  top: "data"
  top: "label"
  include {
    phase: TRAIN
  }
  hdf5_data_param {
    source: "/home/purduethu/scratch/radon/d/deng106/CNNStatisticalModel/distributions/input/20_distributions_900_sample_size_train-parameters-path.txt"
    batch_size: 20
  }
}
layer {
  name: "conv1"
  type: "Convolution"
  bottom: "data"
  top: "conv1"
  param {
    lr_mult: 1
  }
  param {
    lr_mult: 2
  }
  convolution_param {
    num_output: 64
    pad: 2
    kernel_size: 5
    stride: 1
    weight_filler {
      type: "gaussian"
      std: 0.0001
    }
    bias_filler {
      type: "constant"
    }
  }
}
layer {
  name: "relu1"
  type: "ReLU"
  bottom: "conv1"
  top: "conv1"
}
layer {
  name: "conv2"
  type: "Convolution"
  bottom: "conv1"
  top: "conv2"
  param {
    lr_mult: 1
  }
  param {
    lr_mult: 2
  }
  convolution_param {
    num_output: 64
    pad: 2
    kernel_size: 5
    stride: 1
    weight_filler {
      type: "gaussian"
      std: 0.01
    }
    bias_filler {
      type: "constant"
    }
  }
}
layer {
  name: "relu2"
  type: "ReLU"
  bottom: "conv2"
  top: "conv2"
}
layer {
  name: "pool2"
  type: "Pooling"
  bottom: "conv2"
  top: "pool2"
  pooling_param {
    pool: MAX
    kernel_size: 3
    stride: 2
  }
}
layer {
  name: "conv3"
  type: "Convolution"
  bottom: "pool2"
  top: "conv3"
  param {
    lr_mult: 1
  }
  param {
    lr_mult: 2
  }
  convolution_param {
    num_output: 64
    pad: 2
    kernel_size: 5
    stride: 1
    weight_filler {
      type: "gaussian"
      std: 0.01
    }
    bias_filler {
      type: "constant"
    }
  }
}
layer {
  name: "relu3"
  type: "ReLU"
  bottom: "conv3"
  top: "conv3"
}
layer {
  name: "conv4"
  type: "Convolution"
  bottom: "conv3"
  top: "conv4"
  param {
    lr_mult: 1
  }
  param {
    lr_mult: 2
  }
  convolution_param {
    num_output: 64
    pad: 2
    kernel_size: 5
    stride: 1
    weight_filler {
      type: "gaussian"
      std: 0.01
    }
    bias_filler {
      type: "constant"
    }
  }
}
layer {
  name: "relu4"
  type: "ReLU"
  bottom: "conv4"
  top: "conv4"
}
layer {
  name: "conv5"
  type: "Convolution"
  bottom: "conv4"
  top: "conv5"
  param {
    lr_mult: 1
  }
  param {
    lr_mult: 2
  }
  convolution_param {
    num_output: 64
    pad: 2
    kernel_size: 5
    stride: 1
    weight_filler {
      type: "gaussian"
      std: 0.01
    }
    bias_filler {
      type: "constant"
    }
  }
}
layer {
  name: "relu5"
  type: "ReLU"
  bottom: "conv5"
  top: "conv5"
}
layer {
  name: "pool5"
  type: "Pooling"
  bottom: "conv5"
  top: "pool5"
  pooling_param {
    pool: AVE
    kernel_size: 3
    stride: 2
  }
}
layer {
  name: "ip1"
  type: "InnerProduct"
  bottom: "pool5"
  top: "ip1"
  param {
    lr_mult: 1
  }
  param {
    lr_mult: 2
  }
  inner_product_param {
    num_output: 64
    weight_filler {
      type: "gaussian"
      std: 0.1
    }
    bias_filler {
      type: "constant"
    }
  }
}
layer {
  name: "ip2"
  type: "InnerProduct"
  bottom: "ip1"
  top: "ip2"
  param {
    lr_mult: 1
  }
  param {
    lr_mult: 2
  }
  inner_product_param {
    num_output: 64
    weight_filler {
      type: "gaussian"
      std: 0.1
    }
    bias_filler {
      type: "constant"
    }
  }
}
layer {
  name: "ip3"
  type: "InnerProduct"
  bottom: "ip2"
  top: "ip3"
  param {
    lr_mult: 1
  }
  param {
    lr_mult: 2
  }
  inner_product_param {
    num_output: 1
    weight_filler {
      type: "gaussian"
      std: 0.1
    }
    bias_filler {
      type: "constant"
    }
  }
}
layer {
  name: "loss"
  type: "HuberLoss"
  bottom: "ip3"
  bottom: "label"
  top: "loss"
  include {
    phase: TRAIN
  }
}
I0502 00:06:12.244114 16681 layer_factory.hpp:77] Creating layer parameters
I0502 00:06:12.244127 16681 net.cpp:94] Creating Layer parameters
I0502 00:06:12.244132 16681 net.cpp:409] parameters -> data
I0502 00:06:12.244140 16681 net.cpp:409] parameters -> label
I0502 00:06:12.244148 16681 hdf5_data_layer.cpp:79] Loading list of HDF5 filenames from: /home/purduethu/scratch/radon/d/deng106/CNNStatisticalModel/distributions/input/20_distributions_900_sample_size_train-parameters-path.txt
I0502 00:06:12.244163 16681 hdf5_data_layer.cpp:93] Number of HDF5 files: 1
I0502 00:06:12.244689 16681 hdf5.cpp:32] Datatype class: H5T_FLOAT
I0502 00:06:12.827380 16681 net.cpp:144] Setting up parameters
I0502 00:06:12.827410 16681 net.cpp:151] Top shape: 20 1 30 30 (18000)
I0502 00:06:12.827415 16681 net.cpp:151] Top shape: 20 (20)
I0502 00:06:12.827419 16681 net.cpp:159] Memory required for data: 72080
I0502 00:06:12.827425 16681 layer_factory.hpp:77] Creating layer conv1
I0502 00:06:12.827445 16681 net.cpp:94] Creating Layer conv1
I0502 00:06:12.827450 16681 net.cpp:435] conv1 <- data
I0502 00:06:12.827457 16681 net.cpp:409] conv1 -> conv1
I0502 00:06:12.833977 16681 net.cpp:144] Setting up conv1
I0502 00:06:12.833994 16681 net.cpp:151] Top shape: 20 64 30 30 (1152000)
I0502 00:06:12.833998 16681 net.cpp:159] Memory required for data: 4680080
I0502 00:06:12.834008 16681 layer_factory.hpp:77] Creating layer relu1
I0502 00:06:12.834017 16681 net.cpp:94] Creating Layer relu1
I0502 00:06:12.834020 16681 net.cpp:435] relu1 <- conv1
I0502 00:06:12.834024 16681 net.cpp:396] relu1 -> conv1 (in-place)
I0502 00:06:12.834038 16681 net.cpp:144] Setting up relu1
I0502 00:06:12.834043 16681 net.cpp:151] Top shape: 20 64 30 30 (1152000)
I0502 00:06:12.834048 16681 net.cpp:159] Memory required for data: 9288080
I0502 00:06:12.834050 16681 layer_factory.hpp:77] Creating layer conv2
I0502 00:06:12.834059 16681 net.cpp:94] Creating Layer conv2
I0502 00:06:12.834062 16681 net.cpp:435] conv2 <- conv1
I0502 00:06:12.834066 16681 net.cpp:409] conv2 -> conv2
I0502 00:06:12.848693 16681 net.cpp:144] Setting up conv2
I0502 00:06:12.848708 16681 net.cpp:151] Top shape: 20 64 30 30 (1152000)
I0502 00:06:12.848712 16681 net.cpp:159] Memory required for data: 13896080
I0502 00:06:12.848721 16681 layer_factory.hpp:77] Creating layer relu2
I0502 00:06:12.848727 16681 net.cpp:94] Creating Layer relu2
I0502 00:06:12.848731 16681 net.cpp:435] relu2 <- conv2
I0502 00:06:12.848737 16681 net.cpp:396] relu2 -> conv2 (in-place)
I0502 00:06:12.848743 16681 net.cpp:144] Setting up relu2
I0502 00:06:12.848748 16681 net.cpp:151] Top shape: 20 64 30 30 (1152000)
I0502 00:06:12.848752 16681 net.cpp:159] Memory required for data: 18504080
I0502 00:06:12.848754 16681 layer_factory.hpp:77] Creating layer pool2
I0502 00:06:12.848767 16681 net.cpp:94] Creating Layer pool2
I0502 00:06:12.848769 16681 net.cpp:435] pool2 <- conv2
I0502 00:06:12.848774 16681 net.cpp:409] pool2 -> pool2
I0502 00:06:12.848825 16681 net.cpp:144] Setting up pool2
I0502 00:06:12.848834 16681 net.cpp:151] Top shape: 20 64 15 15 (288000)
I0502 00:06:12.848836 16681 net.cpp:159] Memory required for data: 19656080
I0502 00:06:12.848840 16681 layer_factory.hpp:77] Creating layer conv3
I0502 00:06:12.848848 16681 net.cpp:94] Creating Layer conv3
I0502 00:06:12.848852 16681 net.cpp:435] conv3 <- pool2
I0502 00:06:12.848857 16681 net.cpp:409] conv3 -> conv3
I0502 00:06:12.858606 16681 net.cpp:144] Setting up conv3
I0502 00:06:12.858621 16681 net.cpp:151] Top shape: 20 64 15 15 (288000)
I0502 00:06:12.858625 16681 net.cpp:159] Memory required for data: 20808080
I0502 00:06:12.858634 16681 layer_factory.hpp:77] Creating layer relu3
I0502 00:06:12.858640 16681 net.cpp:94] Creating Layer relu3
I0502 00:06:12.858644 16681 net.cpp:435] relu3 <- conv3
I0502 00:06:12.858649 16681 net.cpp:396] relu3 -> conv3 (in-place)
I0502 00:06:12.858656 16681 net.cpp:144] Setting up relu3
I0502 00:06:12.858661 16681 net.cpp:151] Top shape: 20 64 15 15 (288000)
I0502 00:06:12.858664 16681 net.cpp:159] Memory required for data: 21960080
I0502 00:06:12.858667 16681 layer_factory.hpp:77] Creating layer conv4
I0502 00:06:12.858675 16681 net.cpp:94] Creating Layer conv4
I0502 00:06:12.858680 16681 net.cpp:435] conv4 <- conv3
I0502 00:06:12.858685 16681 net.cpp:409] conv4 -> conv4
I0502 00:06:12.866096 16681 net.cpp:144] Setting up conv4
I0502 00:06:12.866111 16681 net.cpp:151] Top shape: 20 64 15 15 (288000)
I0502 00:06:12.866114 16681 net.cpp:159] Memory required for data: 23112080
I0502 00:06:12.866120 16681 layer_factory.hpp:77] Creating layer relu4
I0502 00:06:12.866127 16681 net.cpp:94] Creating Layer relu4
I0502 00:06:12.866130 16681 net.cpp:435] relu4 <- conv4
I0502 00:06:12.866134 16681 net.cpp:396] relu4 -> conv4 (in-place)
I0502 00:06:12.866142 16681 net.cpp:144] Setting up relu4
I0502 00:06:12.866147 16681 net.cpp:151] Top shape: 20 64 15 15 (288000)
I0502 00:06:12.866149 16681 net.cpp:159] Memory required for data: 24264080
I0502 00:06:12.866153 16681 layer_factory.hpp:77] Creating layer conv5
I0502 00:06:12.866160 16681 net.cpp:94] Creating Layer conv5
I0502 00:06:12.866164 16681 net.cpp:435] conv5 <- conv4
I0502 00:06:12.866169 16681 net.cpp:409] conv5 -> conv5
I0502 00:06:12.874279 16681 net.cpp:144] Setting up conv5
I0502 00:06:12.874294 16681 net.cpp:151] Top shape: 20 64 15 15 (288000)
I0502 00:06:12.874299 16681 net.cpp:159] Memory required for data: 25416080
I0502 00:06:12.874307 16681 layer_factory.hpp:77] Creating layer relu5
I0502 00:06:12.874313 16681 net.cpp:94] Creating Layer relu5
I0502 00:06:12.874317 16681 net.cpp:435] relu5 <- conv5
I0502 00:06:12.874322 16681 net.cpp:396] relu5 -> conv5 (in-place)
I0502 00:06:12.874330 16681 net.cpp:144] Setting up relu5
I0502 00:06:12.874333 16681 net.cpp:151] Top shape: 20 64 15 15 (288000)
I0502 00:06:12.874337 16681 net.cpp:159] Memory required for data: 26568080
I0502 00:06:12.874341 16681 layer_factory.hpp:77] Creating layer pool5
I0502 00:06:12.874346 16681 net.cpp:94] Creating Layer pool5
I0502 00:06:12.874348 16681 net.cpp:435] pool5 <- conv5
I0502 00:06:12.874352 16681 net.cpp:409] pool5 -> pool5
I0502 00:06:12.874393 16681 net.cpp:144] Setting up pool5
I0502 00:06:12.874402 16681 net.cpp:151] Top shape: 20 64 7 7 (62720)
I0502 00:06:12.874404 16681 net.cpp:159] Memory required for data: 26818960
I0502 00:06:12.874408 16681 layer_factory.hpp:77] Creating layer ip1
I0502 00:06:12.874418 16681 net.cpp:94] Creating Layer ip1
I0502 00:06:12.874420 16681 net.cpp:435] ip1 <- pool5
I0502 00:06:12.874425 16681 net.cpp:409] ip1 -> ip1
I0502 00:06:12.879284 16681 net.cpp:144] Setting up ip1
I0502 00:06:12.879295 16681 net.cpp:151] Top shape: 20 64 (1280)
I0502 00:06:12.879299 16681 net.cpp:159] Memory required for data: 26824080
I0502 00:06:12.879305 16681 layer_factory.hpp:77] Creating layer ip2
I0502 00:06:12.879312 16681 net.cpp:94] Creating Layer ip2
I0502 00:06:12.879319 16681 net.cpp:435] ip2 <- ip1
I0502 00:06:12.879325 16681 net.cpp:409] ip2 -> ip2
I0502 00:06:12.879534 16681 net.cpp:144] Setting up ip2
I0502 00:06:12.879541 16681 net.cpp:151] Top shape: 20 64 (1280)
I0502 00:06:12.879544 16681 net.cpp:159] Memory required for data: 26829200
I0502 00:06:12.879550 16681 layer_factory.hpp:77] Creating layer ip3
I0502 00:06:12.879556 16681 net.cpp:94] Creating Layer ip3
I0502 00:06:12.879559 16681 net.cpp:435] ip3 <- ip2
I0502 00:06:12.879565 16681 net.cpp:409] ip3 -> ip3
I0502 00:06:12.879665 16681 net.cpp:144] Setting up ip3
I0502 00:06:12.879672 16681 net.cpp:151] Top shape: 20 1 (20)
I0502 00:06:12.879674 16681 net.cpp:159] Memory required for data: 26829280
I0502 00:06:12.879679 16681 layer_factory.hpp:77] Creating layer loss
I0502 00:06:12.879688 16681 net.cpp:94] Creating Layer loss
I0502 00:06:12.879690 16681 net.cpp:435] loss <- ip3
I0502 00:06:12.879694 16681 net.cpp:435] loss <- label
I0502 00:06:12.879698 16681 net.cpp:409] loss -> loss
I0502 00:06:12.879747 16681 net.cpp:144] Setting up loss
…
I0502 00:06:13.057343 16681 net.cpp:323] The NetState phase (0) differed from the phase (1) specified by a rule in layer intercept
I0502 00:06:13.057358 16681 net.cpp:323] The NetState phase (0) differed from the phase (1) specified by a rule in layer accuracy
I0502 00:06:13.057445 16681 net.cpp:52] Initializing net from parameters: 
state {
  phase: TRAIN
}
layer {
  name: "parameters"
  type: "HDF5Data"
  top: "data"
  top: "label"
  include {
    phase: TRAIN
  }
  hdf5_data_param {
    source: "/home/purduethu/scratch/radon/d/deng106/CNNStatisticalModel/distributions/input/20_distributions_900_sample_size_train-distributions-path.txt"
    batch_size: 20
  }
}
layer {
  name: "conv1"
  type: "Convolution"
  bottom: "data"
  top: "conv1"
  param {
    lr_mult: 1
  }
  param {
    lr_mult: 2
  }
  convolution_param {
    num_output: 64
    pad: 2
    kernel_size: 5
    stride: 1
    weight_filler {
      type: "gaussian"
      std: 0.0001
    }
    bias_filler {
      type: "constant"
    }
  }
}
layer {
  name: "relu1"
  type: "ReLU"
  bottom: "conv1"
  top: "conv1"
}
layer {
  name: "conv2"
  type: "Convolution"
  bottom: "conv1"
  top: "conv2"
  param {
    lr_mult: 1
  }
  param {
    lr_mult: 2
  }
  convolution_param {
    num_output: 64
    pad: 2
    kernel_size: 5
    stride: 1
    weight_filler {
      type: "gaussian"
      std: 0.01
    }
    bias_filler {
      type: "constant"
    }
  }
}
layer {
  name: "relu2"
  type: "ReLU"
  bottom: "conv2"
  top: "conv2"
}
layer {
  name: "pool2"
  type: "Pooling"
  bottom: "conv2"
  top: "pool2"
  pooling_param {
    pool: MAX
    kernel_size: 3
    stride: 2
  }
}
layer {
  name: "conv3"
  type: "Convolution"
  bottom: "pool2"
  top: "conv3"
  param {
    lr_mult: 1
  }
  param {
    lr_mult: 2
  }
  convolution_param {
    num_output: 64
    pad: 2
    kernel_size: 5
    stride: 1
    weight_filler {
      type: "gaussian"
      std: 0.01
    }
    bias_filler {
      type: "constant"
    }
  }
}
layer {
  name: "relu3"
  type: "ReLU"
  bottom: "conv3"
  top: "conv3"
}
layer {
  name: "conv4"
  type: "Convolution"
  bottom: "conv3"
  top: "conv4"
  param {
    lr_mult: 1
  }
  param {
    lr_mult: 2
  }
  convolution_param {
    num_output: 64
    pad: 2
    kernel_size: 5
    stride: 1
    weight_filler {
      type: "gaussian"
      std: 0.01
    }
    bias_filler {
      type: "constant"
    }
  }
}
layer {
  name: "relu4"
  type: "ReLU"
  bottom: "conv4"
  top: "conv4"
}
layer {
  name: "conv5"
  type: "Convolution"
  bottom: "conv4"
  top: "conv5"
  param {
    lr_mult: 1
  }
  param {
    lr_mult: 2
  }
  convolution_param {
    num_output: 64
    pad: 2
    kernel_size: 5
    stride: 1
    weight_filler {
      type: "gaussian"
      std: 0.01
    }
    bias_filler {
      type: "constant"
    }
  }
}
layer {
  name: "relu5"
  type: "ReLU"
  bottom: "conv5"
  top: "conv5"
}
layer {
  name: "pool5"
  type: "Pooling"
  bottom: "conv5"
  top: "pool5"
  pooling_param {
    pool: AVE
    kernel_size: 3
    stride: 2
  }
}
layer {
  name: "ip1"
  type: "InnerProduct"
  bottom: "pool5"
  top: "ip1"
  param {
    lr_mult: 1
  }
  param {
    lr_mult: 2
  }
  inner_product_param {
    num_output: 64
    weight_filler {
      type: "gaussian"
      std: 0.1
    }
    bias_filler {
      type: "constant"
    }
  }
}
layer {
  name: "ip2"
  type: "InnerProduct"
  bottom: "ip1"
  top: "ip2"
  param {
    lr_mult: 1
  }
  param {
    lr_mult: 2
  }
  inner_product_param {
    num_output: 64
    weight_filler {
      type: "gaussian"
      std: 0.1
    }
    bias_filler {
      type: "constant"
    }
  }
}
layer {
  name: "ip3"
  type: "InnerProduct"
  bottom: "ip2"
  top: "ip3"
  param {
    lr_mult: 1
  }
  param {
    lr_mult: 2
  }
  inner_product_param {
    num_output: 50
    weight_filler {
      type: "gaussian"
      std: 0.1
    }
    bias_filler {
      type: "constant"
    }
  }
}
layer {
  name: "loss"
  type: "SoftmaxWithLoss"
  bottom: "ip3"
  bottom: "label"
  top: "loss"
}
I0502 00:06:13.057494 16681 layer_factory.hpp:77] Creating layer parameters
I0502 00:06:13.057502 16681 net.cpp:94] Creating Layer parameters
I0502 00:06:13.057507 16681 net.cpp:409] parameters -> data
I0502 00:06:13.057513 16681 net.cpp:409] parameters -> label
I0502 00:06:13.057519 16681 hdf5_data_layer.cpp:79] Loading list of HDF5 filenames from: /home/purduethu/scratch/radon/d/deng106/CNNStatisticalModel/distributions/input/20_distributions_900_sample_size_train-distributions-path.txt
I0502 00:06:13.057535 16681 hdf5_data_layer.cpp:93] Number of HDF5 files: 1
I0502 00:06:13.632361 16681 hdf5.cpp:35] Datatype class: H5T_INTEGER
I0502 00:06:13.634313 16681 net.cpp:144] Setting up parameters
I0502 00:06:13.634338 16681 net.cpp:151] Top shape: 20 1 30 30 (18000)
I0502 00:06:13.634343 16681 net.cpp:151] Top shape: 20 (20)
I0502 00:06:13.634347 16681 net.cpp:159] Memory required for data: 72080
I0502 00:06:13.634353 16681 layer_factory.hpp:77] Creating layer conv1
I0502 00:06:13.634371 16681 net.cpp:94] Creating Layer conv1
I0502 00:06:13.634374 16681 net.cpp:435] conv1 <- data
I0502 00:06:13.634380 16681 net.cpp:409] conv1 -> conv1
I0502 00:06:13.637998 16681 net.cpp:144] Setting up conv1
I0502 00:06:13.638013 16681 net.cpp:151] Top shape: 20 64 30 30 (1152000)
I0502 00:06:13.638017 16681 net.cpp:159] Memory required for data: 4680080
I0502 00:06:13.638028 16681 layer_factory.hpp:77] Creating layer relu1
I0502 00:06:13.638036 16681 net.cpp:94] Creating Layer relu1
I0502 00:06:13.638039 16681 net.cpp:435] relu1 <- conv1
I0502 00:06:13.638044 16681 net.cpp:396] relu1 -> conv1 (in-place)
I0502 00:06:13.638051 16681 net.cpp:144] Setting up relu1
I0502 00:06:13.638056 16681 net.cpp:151] Top shape: 20 64 30 30 (1152000)
I0502 00:06:13.638059 16681 net.cpp:159] Memory required for data: 9288080
I0502 00:06:13.638062 16681 layer_factory.hpp:77] Creating layer conv2
I0502 00:06:13.638069 16681 net.cpp:94] Creating Layer conv2
I0502 00:06:13.638073 16681 net.cpp:435] conv2 <- conv1
I0502 00:06:13.638078 16681 net.cpp:409] conv2 -> conv2
I0502 00:06:13.654038 16681 net.cpp:144] Setting up conv2
I0502 00:06:13.654053 16681 net.cpp:151] Top shape: 20 64 30 30 (1152000)
I0502 00:06:13.654057 16681 net.cpp:159] Memory required for data: 13896080
I0502 00:06:13.654065 16681 layer_factory.hpp:77] Creating layer relu2
I0502 00:06:13.654072 16681 net.cpp:94] Creating Layer relu2
I0502 00:06:13.654076 16681 net.cpp:435] relu2 <- conv2
I0502 00:06:13.654080 16681 net.cpp:396] relu2 -> conv2 (in-place)
I0502 00:06:13.654088 16681 net.cpp:144] Setting up relu2
I0502 00:06:13.654093 16681 net.cpp:151] Top shape: 20 64 30 30 (1152000)
I0502 00:06:13.654095 16681 net.cpp:159] Memory required for data: 18504080
I0502 00:06:13.654098 16681 layer_factory.hpp:77] Creating layer pool2
I0502 00:06:13.654104 16681 net.cpp:94] Creating Layer pool2
I0502 00:06:13.654108 16681 net.cpp:435] pool2 <- conv2
I0502 00:06:13.654111 16681 net.cpp:409] pool2 -> pool2
I0502 00:06:13.654163 16681 net.cpp:144] Setting up pool2
I0502 00:06:13.654170 16681 net.cpp:151] Top shape: 20 64 15 15 (288000)
I0502 00:06:13.654175 16681 net.cpp:159] Memory required for data: 19656080
I0502 00:06:13.654177 16681 layer_factory.hpp:77] Creating layer conv3
I0502 00:06:13.654186 16681 net.cpp:94] Creating Layer conv3
I0502 00:06:13.654189 16681 net.cpp:435] conv3 <- pool2
I0502 00:06:13.654201 16681 net.cpp:409] conv3 -> conv3
I0502 00:06:13.662883 16681 net.cpp:144] Setting up conv3
I0502 00:06:13.662897 16681 net.cpp:151] Top shape: 20 64 15 15 (288000)
I0502 00:06:13.662902 16681 net.cpp:159] Memory required for data: 20808080
I0502 00:06:13.662910 16681 layer_factory.hpp:77] Creating layer relu3
I0502 00:06:13.662916 16681 net.cpp:94] Creating Layer relu3
I0502 00:06:13.662920 16681 net.cpp:435] relu3 <- conv3
I0502 00:06:13.662925 16681 net.cpp:396] relu3 -> conv3 (in-place)
I0502 00:06:13.662932 16681 net.cpp:144] Setting up relu3
I0502 00:06:13.662937 16681 net.cpp:151] Top shape: 20 64 15 15 (288000)
I0502 00:06:13.662940 16681 net.cpp:159] Memory required for data: 21960080
I0502 00:06:13.662943 16681 layer_factory.hpp:77] Creating layer conv4
I0502 00:06:13.662952 16681 net.cpp:94] Creating Layer conv4
I0502 00:06:13.662956 16681 net.cpp:435] conv4 <- conv3
I0502 00:06:13.662961 16681 net.cpp:409] conv4 -> conv4
I0502 00:06:13.670734 16681 net.cpp:144] Setting up conv4
I0502 00:06:13.670749 16681 net.cpp:151] Top shape: 20 64 15 15 (288000)
I0502 00:06:13.670753 16681 net.cpp:159] Memory required for data: 23112080
I0502 00:06:13.670760 16681 layer_factory.hpp:77] Creating layer relu4
I0502 00:06:13.670766 16681 net.cpp:94] Creating Layer relu4
I0502 00:06:13.670769 16681 net.cpp:435] relu4 <- conv4
I0502 00:06:13.670774 16681 net.cpp:396] relu4 -> conv4 (in-place)
I0502 00:06:13.670781 16681 net.cpp:144] Setting up relu4
I0502 00:06:13.670786 16681 net.cpp:151] Top shape: 20 64 15 15 (288000)
I0502 00:06:13.670789 16681 net.cpp:159] Memory required for data: 24264080
I0502 00:06:13.670792 16681 layer_factory.hpp:77] Creating layer conv5
I0502 00:06:13.670800 16681 net.cpp:94] Creating Layer conv5
I0502 00:06:13.670804 16681 net.cpp:435] conv5 <- conv4
I0502 00:06:13.670809 16681 net.cpp:409] conv5 -> conv5
I0502 00:06:13.678478 16681 net.cpp:144] Setting up conv5
I0502 00:06:13.678493 16681 net.cpp:151] Top shape: 20 64 15 15 (288000)
I0502 00:06:13.678496 16681 net.cpp:159] Memory required for data: 25416080
I0502 00:06:13.678505 16681 layer_factory.hpp:77] Creating layer relu5
I0502 00:06:13.678511 16681 net.cpp:94] Creating Layer relu5
I0502 00:06:13.678514 16681 net.cpp:435] relu5 <- conv5
I0502 00:06:13.678519 16681 net.cpp:396] relu5 -> conv5 (in-place)
I0502 00:06:13.678526 16681 net.cpp:144] Setting up relu5
I0502 00:06:13.678531 16681 net.cpp:151] Top shape: 20 64 15 15 (288000)
I0502 00:06:13.678534 16681 net.cpp:159] Memory required for data: 26568080
I0502 00:06:13.678537 16681 layer_factory.hpp:77] Creating layer pool5
I0502 00:06:13.678542 16681 net.cpp:94] Creating Layer pool5
I0502 00:06:13.678545 16681 net.cpp:435] pool5 <- conv5
I0502 00:06:13.678550 16681 net.cpp:409] pool5 -> pool5
I0502 00:06:13.678586 16681 net.cpp:144] Setting up pool5
I0502 00:06:13.678593 16681 net.cpp:151] Top shape: 20 64 7 7 (62720)
I0502 00:06:13.678597 16681 net.cpp:159] Memory required for data: 26818960
I0502 00:06:13.678601 16681 layer_factory.hpp:77] Creating layer ip1
I0502 00:06:13.678607 16681 net.cpp:94] Creating Layer ip1
I0502 00:06:13.678611 16681 net.cpp:435] ip1 <- pool5
I0502 00:06:13.678616 16681 net.cpp:409] ip1 -> ip1
I0502 00:06:13.684207 16681 net.cpp:144] Setting up ip1
I0502 00:06:13.684221 16681 net.cpp:151] Top shape: 20 64 (1280)
I0502 00:06:13.684226 16681 net.cpp:159] Memory required for data: 26824080
I0502 00:06:13.684231 16681 layer_factory.hpp:77] Creating layer ip2
I0502 00:06:13.684238 16681 net.cpp:94] Creating Layer ip2
I0502 00:06:13.684242 16681 net.cpp:435] ip2 <- ip1
I0502 00:06:13.684247 16681 net.cpp:409] ip2 -> ip2
I0502 00:06:13.684474 16681 net.cpp:144] Setting up ip2
I0502 00:06:13.684481 16681 net.cpp:151] Top shape: 20 64 (1280)
I0502 00:06:13.684485 16681 net.cpp:159] Memory required for data: 26829200
I0502 00:06:13.684490 16681 layer_factory.hpp:77] Creating layer ip3
I0502 00:06:13.684496 16681 net.cpp:94] Creating Layer ip3
I0502 00:06:13.684499 16681 net.cpp:435] ip3 <- ip2
I0502 00:06:13.684504 16681 net.cpp:409] ip3 -> ip3
I0502 00:06:13.684707 16681 net.cpp:144] Setting up ip3
I0502 00:06:13.684716 16681 net.cpp:151] Top shape: 20 50 (1000)
I0502 00:06:13.684720 16681 net.cpp:159] Memory required for data: 26833200
I0502 00:06:13.684725 16681 layer_factory.hpp:77] Creating layer loss
I0502 00:06:13.684732 16681 net.cpp:94] Creating Layer loss
I0502 00:06:13.684736 16681 net.cpp:435] loss <- ip3
I0502 00:06:13.684741 16681 net.cpp:435] loss <- label
I0502 00:06:13.684744 16681 net.cpp:409] loss -> loss
I0502 00:06:13.684751 16681 layer_factory.hpp:77] Creating layer loss
…
I0502 00:06:13.685272 16681 solver.cpp:181] Creating test net (#0) specified by net file: ./protocol/dis_20_900_dimension.protocol_distribution
I0502 00:06:13.685298 16681 net.cpp:323] The NetState phase (1) differed from the phase (0) specified by a rule in layer parameters
I0502 00:06:13.685389 16681 net.cpp:52] Initializing net from parameters: 
state {
  phase: TEST
}
layer {
  name: "intercept"
  type: "HDF5Data"
  top: "data"
  top: "label"
  include {
    phase: TEST
  }
  hdf5_data_param {
    source: "/home/purduethu/scratch/radon/d/deng106/CNNStatisticalModel/distributions/input/20_distributions_900_sample_size_test-distributions-path.txt"
    batch_size: 20
  }
}
layer {
  name: "conv1"
  type: "Convolution"
  bottom: "data"
  top: "conv1"
  param {
    lr_mult: 1
  }
  param {
    lr_mult: 2
  }
  convolution_param {
    num_output: 64
    pad: 2
    kernel_size: 5
    stride: 1
    weight_filler {
      type: "gaussian"
      std: 0.0001
    }
    bias_filler {
      type: "constant"
    }
  }
}
layer {
  name: "relu1"
  type: "ReLU"
  bottom: "conv1"
  top: "conv1"
}
layer {
  name: "conv2"
  type: "Convolution"
  bottom: "conv1"
  top: "conv2"
  param {
    lr_mult: 1
  }
  param {
    lr_mult: 2
  }
  convolution_param {
    num_output: 64
    pad: 2
    kernel_size: 5
    stride: 1
    weight_filler {
      type: "gaussian"
      std: 0.01
    }
    bias_filler {
      type: "constant"
    }
  }
}
layer {
  name: "relu2"
  type: "ReLU"
  bottom: "conv2"
  top: "conv2"
}
layer {
  name: "pool2"
  type: "Pooling"
  bottom: "conv2"
  top: "pool2"
  pooling_param {
    pool: MAX
    kernel_size: 3
    stride: 2
  }
}
layer {
  name: "conv3"
  type: "Convolution"
  bottom: "pool2"
  top: "conv3"
  param {
    lr_mult: 1
  }
  param {
    lr_mult: 2
  }
  convolution_param {
    num_output: 64
    pad: 2
    kernel_size: 5
    stride: 1
    weight_filler {
      type: "gaussian"
      std: 0.01
    }
    bias_filler {
      type: "constant"
    }
  }
}
layer {
  name: "relu3"
  type: "ReLU"
  bottom: "conv3"
  top: "conv3"
}
layer {
  name: "conv4"
  type: "Convolution"
  bottom: "conv3"
  top: "conv4"
  param {
    lr_mult: 1
  }
  param {
    lr_mult: 2
  }
  convolution_param {
    num_output: 64
    pad: 2
    kernel_size: 5
    stride: 1
    weight_filler {
      type: "gaussian"
      std: 0.01
    }
    bias_filler {
      type: "constant"
    }
  }
}
layer {
  name: "relu4"
  type: "ReLU"
  bottom: "conv4"
  top: "conv4"
}
layer {
  name: "conv5"
  type: "Convolution"
  bottom: "conv4"
  top: "conv5"
  param {
    lr_mult: 1
  }
  param {
    lr_mult: 2
  }
  convolution_param {
    num_output: 64
    pad: 2
    kernel_size: 5
    stride: 1
    weight_filler {
      type: "gaussian"
      std: 0.01
    }
    bias_filler {
      type: "constant"
    }
  }
}
layer {
  name: "relu5"
  type: "ReLU"
  bottom: "conv5"
  top: "conv5"
}
layer {
  name: "pool5"
  type: "Pooling"
  bottom: "conv5"
  top: "pool5"
  pooling_param {
    pool: AVE
    kernel_size: 3
    stride: 2
  }
}
layer {
  name: "ip1"
  type: "InnerProduct"
  bottom: "pool5"
  top: "ip1"
  param {
    lr_mult: 1
  }
  param {
    lr_mult: 2
  }
  inner_product_param {
    num_output: 64
    weight_filler {
      type: "gaussian"
      std: 0.1
    }
    bias_filler {
      type: "constant"
    }
  }
}
layer {
  name: "ip2"
  type: "InnerProduct"
  bottom: "ip1"
  top: "ip2"
  param {
    lr_mult: 1
  }
  param {
    lr_mult: 2
  }
  inner_product_param {
    num_output: 64
    weight_filler {
      type: "gaussian"
      std: 0.1
    }
    bias_filler {
      type: "constant"
    }
  }
}
layer {
  name: "ip3"
  type: "InnerProduct"
  bottom: "ip2"
  top: "ip3"
  param {
    lr_mult: 1
  }
  param {
    lr_mult: 2
  }
  inner_product_param {
    num_output: 50
    weight_filler {
      type: "gaussian"
      std: 0.1
    }
    bias_filler {
      type: "constant"
    }
  }
}
layer {
  name: "accuracy"
  type: "Accuracy"
  bottom: "ip3"
  bottom: "label"
  top: "accuracy"
  include {
    phase: TEST
  }
}
layer {
  name: "loss"
  type: "SoftmaxWithLoss"
  bottom: "ip3"
  bottom: "label"
  top: "loss"
}
I0502 00:06:13.685453 16681 layer_factory.hpp:77] Creating layer intercept
I0502 00:06:13.685461 16681 net.cpp:94] Creating Layer intercept
I0502 00:06:13.685466 16681 net.cpp:409] intercept -> data
I0502 00:06:13.685472 16681 net.cpp:409] intercept -> label
I0502 00:06:13.685478 16681 hdf5_data_layer.cpp:79] Loading list of HDF5 filenames from: /home/purduethu/scratch/radon/d/deng106/CNNStatisticalModel/distributions/input/20_distributions_900_sample_size_test-distributions-path.txt
I0502 00:06:13.685497 16681 hdf5_data_layer.cpp:93] Number of HDF5 files: 1
I0502 00:06:13.831141 16681 net.cpp:144] Setting up intercept
I0502 00:06:13.831176 16681 net.cpp:151] Top shape: 20 1 30 30 (18000)
I0502 00:06:13.831182 16681 net.cpp:151] Top shape: 20 (20)
I0502 00:06:13.831184 16681 net.cpp:159] Memory required for data: 72080
I0502 00:06:13.831190 16681 layer_factory.hpp:77] Creating layer label_intercept_1_split
I0502 00:06:13.831208 16681 net.cpp:94] Creating Layer label_intercept_1_split
I0502 00:06:13.831212 16681 net.cpp:435] label_intercept_1_split <- label
I0502 00:06:13.831218 16681 net.cpp:409] label_intercept_1_split -> label_intercept_1_split_0
I0502 00:06:13.831228 16681 net.cpp:409] label_intercept_1_split -> label_intercept_1_split_1
I0502 00:06:13.831267 16681 net.cpp:144] Setting up label_intercept_1_split
I0502 00:06:13.831274 16681 net.cpp:151] Top shape: 20 (20)
I0502 00:06:13.831279 16681 net.cpp:151] Top shape: 20 (20)
I0502 00:06:13.831281 16681 net.cpp:159] Memory required for data: 72240
I0502 00:06:13.831284 16681 layer_factory.hpp:77] Creating layer conv1
I0502 00:06:13.831295 16681 net.cpp:94] Creating Layer conv1
I0502 00:06:13.831300 16681 net.cpp:435] conv1 <- data
I0502 00:06:13.831305 16681 net.cpp:409] conv1 -> conv1
I0502 00:06:13.832876 16681 net.cpp:144] Setting up conv1
I0502 00:06:13.832891 16681 net.cpp:151] Top shape: 20 64 30 30 (1152000)
I0502 00:06:13.832896 16681 net.cpp:159] Memory required for data: 4680240
I0502 00:06:13.832906 16681 layer_factory.hpp:77] Creating layer relu1
I0502 00:06:13.832912 16681 net.cpp:94] Creating Layer relu1
I0502 00:06:13.832916 16681 net.cpp:435] relu1 <- conv1
I0502 00:06:13.832921 16681 net.cpp:396] relu1 -> conv1 (in-place)
I0502 00:06:13.832929 16681 net.cpp:144] Setting up relu1
I0502 00:06:13.832934 16681 net.cpp:151] Top shape: 20 64 30 30 (1152000)
I0502 00:06:13.832937 16681 net.cpp:159] Memory required for data: 9288240
I0502 00:06:13.832940 16681 layer_factory.hpp:77] Creating layer conv2
I0502 00:06:13.832949 16681 net.cpp:94] Creating Layer conv2
I0502 00:06:13.832953 16681 net.cpp:435] conv2 <- conv1
I0502 00:06:13.832958 16681 net.cpp:409] conv2 -> conv2
I0502 00:06:13.839691 16681 net.cpp:144] Setting up conv2
I0502 00:06:13.839706 16681 net.cpp:151] Top shape: 20 64 30 30 (1152000)
I0502 00:06:13.839710 16681 net.cpp:159] Memory required for data: 13896240
I0502 00:06:13.839718 16681 layer_factory.hpp:77] Creating layer relu2
I0502 00:06:13.839725 16681 net.cpp:94] Creating Layer relu2
I0502 00:06:13.839728 16681 net.cpp:435] relu2 <- conv2
I0502 00:06:13.839732 16681 net.cpp:396] relu2 -> conv2 (in-place)
I0502 00:06:13.839740 16681 net.cpp:144] Setting up relu2
I0502 00:06:13.839745 16681 net.cpp:151] Top shape: 20 64 30 30 (1152000)
I0502 00:06:13.839748 16681 net.cpp:159] Memory required for data: 18504240
I0502 00:06:13.839751 16681 layer_factory.hpp:77] Creating layer pool2
I0502 00:06:13.839756 16681 net.cpp:94] Creating Layer pool2
I0502 00:06:13.839759 16681 net.cpp:435] pool2 <- conv2
I0502 00:06:13.839764 16681 net.cpp:409] pool2 -> pool2
I0502 00:06:13.839815 16681 net.cpp:144] Setting up pool2
I0502 00:06:13.839823 16681 net.cpp:151] Top shape: 20 64 15 15 (288000)
I0502 00:06:13.839825 16681 net.cpp:159] Memory required for data: 19656240
I0502 00:06:13.839829 16681 layer_factory.hpp:77] Creating layer conv3
I0502 00:06:13.839838 16681 net.cpp:94] Creating Layer conv3
I0502 00:06:13.839840 16681 net.cpp:435] conv3 <- pool2
I0502 00:06:13.839845 16681 net.cpp:409] conv3 -> conv3
I0502 00:06:13.845052 16681 net.cpp:144] Setting up conv3
I0502 00:06:13.845065 16681 net.cpp:151] Top shape: 20 64 15 15 (288000)
I0502 00:06:13.845069 16681 net.cpp:159] Memory required for data: 20808240
I0502 00:06:13.845077 16681 layer_factory.hpp:77] Creating layer relu3
I0502 00:06:13.845084 16681 net.cpp:94] Creating Layer relu3
I0502 00:06:13.845088 16681 net.cpp:435] relu3 <- conv3
I0502 00:06:13.845093 16681 net.cpp:396] relu3 -> conv3 (in-place)
I0502 00:06:13.845100 16681 net.cpp:144] Setting up relu3
I0502 00:06:13.845104 16681 net.cpp:151] Top shape: 20 64 15 15 (288000)
I0502 00:06:13.845108 16681 net.cpp:159] Memory required for data: 21960240
I0502 00:06:13.845110 16681 layer_factory.hpp:77] Creating layer conv4
I0502 00:06:13.845118 16681 net.cpp:94] Creating Layer conv4
I0502 00:06:13.845122 16681 net.cpp:435] conv4 <- conv3
I0502 00:06:13.845126 16681 net.cpp:409] conv4 -> conv4
I0502 00:06:13.849735 16681 net.cpp:144] Setting up conv4
I0502 00:06:13.849750 16681 net.cpp:151] Top shape: 20 64 15 15 (288000)
I0502 00:06:13.849753 16681 net.cpp:159] Memory required for data: 23112240
I0502 00:06:13.849759 16681 layer_factory.hpp:77] Creating layer relu4
I0502 00:06:13.849766 16681 net.cpp:94] Creating Layer relu4
I0502 00:06:13.849769 16681 net.cpp:435] relu4 <- conv4
I0502 00:06:13.849773 16681 net.cpp:396] relu4 -> conv4 (in-place)
I0502 00:06:13.849781 16681 net.cpp:144] Setting up relu4
I0502 00:06:13.849786 16681 net.cpp:151] Top shape: 20 64 15 15 (288000)
I0502 00:06:13.849788 16681 net.cpp:159] Memory required for data: 24264240
I0502 00:06:13.849792 16681 layer_factory.hpp:77] Creating layer conv5
I0502 00:06:13.849799 16681 net.cpp:94] Creating Layer conv5
I0502 00:06:13.849803 16681 net.cpp:435] conv5 <- conv4
I0502 00:06:13.849808 16681 net.cpp:409] conv5 -> conv5
I0502 00:06:13.855258 16681 net.cpp:144] Setting up conv5
I0502 00:06:13.855273 16681 net.cpp:151] Top shape: 20 64 15 15 (288000)
I0502 00:06:13.855278 16681 net.cpp:159] Memory required for data: 25416240
I0502 00:06:13.855285 16681 layer_factory.hpp:77] Creating layer relu5
I0502 00:06:13.855293 16681 net.cpp:94] Creating Layer relu5
I0502 00:06:13.855296 16681 net.cpp:435] relu5 <- conv5
I0502 00:06:13.855300 16681 net.cpp:396] relu5 -> conv5 (in-place)
I0502 00:06:13.855307 16681 net.cpp:144] Setting up relu5
I0502 00:06:13.855312 16681 net.cpp:151] Top shape: 20 64 15 15 (288000)
I0502 00:06:13.855315 16681 net.cpp:159] Memory required for data: 26568240
I0502 00:06:13.855319 16681 layer_factory.hpp:77] Creating layer pool5
I0502 00:06:13.855324 16681 net.cpp:94] Creating Layer pool5
I0502 00:06:13.855326 16681 net.cpp:435] pool5 <- conv5
I0502 00:06:13.855334 16681 net.cpp:409] pool5 -> pool5
I0502 00:06:13.855370 16681 net.cpp:144] Setting up pool5
I0502 00:06:13.855377 16681 net.cpp:151] Top shape: 20 64 7 7 (62720)
I0502 00:06:13.855381 16681 net.cpp:159] Memory required for data: 26819120
I0502 00:06:13.855383 16681 layer_factory.hpp:77] Creating layer ip1
I0502 00:06:13.855391 16681 net.cpp:94] Creating Layer ip1
I0502 00:06:13.855394 16681 net.cpp:435] ip1 <- pool5
I0502 00:06:13.855398 16681 net.cpp:409] ip1 -> ip1
I0502 00:06:13.860286 16681 net.cpp:144] Setting up ip1
I0502 00:06:13.860298 16681 net.cpp:151] Top shape: 20 64 (1280)
I0502 00:06:13.860301 16681 net.cpp:159] Memory required for data: 26824240
I0502 00:06:13.860307 16681 layer_factory.hpp:77] Creating layer ip2
I0502 00:06:13.860314 16681 net.cpp:94] Creating Layer ip2
I0502 00:06:13.860318 16681 net.cpp:435] ip2 <- ip1
I0502 00:06:13.860324 16681 net.cpp:409] ip2 -> ip2
I0502 00:06:13.860565 16681 net.cpp:144] Setting up ip2
I0502 00:06:13.860574 16681 net.cpp:151] Top shape: 20 64 (1280)
I0502 00:06:13.860577 16681 net.cpp:159] Memory required for data: 26829360
I0502 00:06:13.860584 16681 layer_factory.hpp:77] Creating layer ip3
I0502 00:06:13.860591 16681 net.cpp:94] Creating Layer ip3
I0502 00:06:13.860596 16681 net.cpp:435] ip3 <- ip2
I0502 00:06:13.860601 16681 net.cpp:409] ip3 -> ip3
I0502 00:06:13.860803 16681 net.cpp:144] Setting up ip3
I0502 00:06:13.860810 16681 net.cpp:151] Top shape: 20 50 (1000)
I0502 00:06:13.860815 16681 net.cpp:159] Memory required for data: 26833360
I0502 00:06:13.860819 16681 layer_factory.hpp:77] Creating layer ip3_ip3_0_split
I0502 00:06:13.860824 16681 net.cpp:94] Creating Layer ip3_ip3_0_split
I0502 00:06:13.860827 16681 net.cpp:435] ip3_ip3_0_split <- ip3
I0502 00:06:13.860832 16681 net.cpp:409] ip3_ip3_0_split -> ip3_ip3_0_split_0
I0502 00:06:13.860837 16681 net.cpp:409] ip3_ip3_0_split -> ip3_ip3_0_split_1
I0502 00:06:13.860879 16681 net.cpp:144] Setting up ip3_ip3_0_split
I0502 00:06:13.860885 16681 net.cpp:151] Top shape: 20 50 (1000)
I0502 00:06:13.860889 16681 net.cpp:151] Top shape: 20 50 (1000)
I0502 00:06:13.860893 16681 net.cpp:159] Memory required for data: 26841360
I0502 00:06:13.860896 16681 layer_factory.hpp:77] Creating layer accuracy
I0502 00:06:13.860901 16681 net.cpp:94] Creating Layer accuracy
I0502 00:06:13.860904 16681 net.cpp:435] accuracy <- ip3_ip3_0_split_0
I0502 00:06:13.860908 16681 net.cpp:435] accuracy <- label_intercept_1_split_0
I0502 00:06:13.860913 16681 net.cpp:409] accuracy -> accuracy
…
