…
I0501 17:31:47.108120 13727 net.cpp:323] The NetState phase (0) differed from the phase (1) specified by a rule in layer intercept
I0501 17:31:47.108137 13727 net.cpp:323] The NetState phase (0) differed from the phase (1) specified by a rule in layer loss
I0501 17:31:47.108217 13727 net.cpp:52] Initializing net from parameters: 
state {
  phase: TRAIN
}
layer {
  name: "parameters"
  type: "HDF5Data"
  top: "data"
  top: "label"
  include {
    phase: TRAIN
  }
  hdf5_data_param {
    source: "/home/purduethu/scratch/radon/d/deng106/CNNStatisticalModel/distributions/input/5_distributions_400_sample_size_train-parameters-path.txt"
    batch_size: 20
  }
}
layer {
  name: "conv1"
  type: "Convolution"
  bottom: "data"
  top: "conv1"
  param {
    lr_mult: 1
  }
  param {
    lr_mult: 2
  }
  convolution_param {
    num_output: 64
    pad: 2
    kernel_size: 5
    stride: 1
    weight_filler {
      type: "gaussian"
      std: 0.0001
    }
    bias_filler {
      type: "constant"
    }
  }
}
layer {
  name: "relu1"
  type: "ReLU"
  bottom: "conv1"
  top: "conv1"
}
layer {
  name: "conv2"
  type: "Convolution"
  bottom: "conv1"
  top: "conv2"
  param {
    lr_mult: 1
  }
  param {
    lr_mult: 2
  }
  convolution_param {
    num_output: 64
    pad: 2
    kernel_size: 5
    stride: 1
    weight_filler {
      type: "gaussian"
      std: 0.01
    }
    bias_filler {
      type: "constant"
    }
  }
}
layer {
  name: "relu2"
  type: "ReLU"
  bottom: "conv2"
  top: "conv2"
}
layer {
  name: "pool2"
  type: "Pooling"
  bottom: "conv2"
  top: "pool2"
  pooling_param {
    pool: MAX
    kernel_size: 3
    stride: 2
  }
}
layer {
  name: "conv3"
  type: "Convolution"
  bottom: "pool2"
  top: "conv3"
  param {
    lr_mult: 1
  }
  param {
    lr_mult: 2
  }
  convolution_param {
    num_output: 64
    pad: 2
    kernel_size: 5
    stride: 1
    weight_filler {
      type: "gaussian"
      std: 0.01
    }
    bias_filler {
      type: "constant"
    }
  }
}
layer {
  name: "relu3"
  type: "ReLU"
  bottom: "conv3"
  top: "conv3"
}
layer {
  name: "conv4"
  type: "Convolution"
  bottom: "conv3"
  top: "conv4"
  param {
    lr_mult: 1
  }
  param {
    lr_mult: 2
  }
  convolution_param {
    num_output: 64
    pad: 2
    kernel_size: 5
    stride: 1
    weight_filler {
      type: "gaussian"
      std: 0.01
    }
    bias_filler {
      type: "constant"
    }
  }
}
layer {
  name: "relu4"
  type: "ReLU"
  bottom: "conv4"
  top: "conv4"
}
layer {
  name: "conv5"
  type: "Convolution"
  bottom: "conv4"
  top: "conv5"
  param {
    lr_mult: 1
  }
  param {
    lr_mult: 2
  }
  convolution_param {
    num_output: 64
    pad: 2
    kernel_size: 5
    stride: 1
    weight_filler {
      type: "gaussian"
      std: 0.01
    }
    bias_filler {
      type: "constant"
    }
  }
}
layer {
  name: "relu5"
  type: "ReLU"
  bottom: "conv5"
  top: "conv5"
}
layer {
  name: "pool5"
  type: "Pooling"
  bottom: "conv5"
  top: "pool5"
  pooling_param {
    pool: AVE
    kernel_size: 3
    stride: 2
  }
}
layer {
  name: "ip1"
  type: "InnerProduct"
  bottom: "pool5"
  top: "ip1"
  param {
    lr_mult: 1
  }
  param {
    lr_mult: 2
  }
  inner_product_param {
    num_output: 64
    weight_filler {
      type: "gaussian"
      std: 0.1
    }
    bias_filler {
      type: "constant"
    }
  }
}
layer {
  name: "ip2"
  type: "InnerProduct"
  bottom: "ip1"
  top: "ip2"
  param {
    lr_mult: 1
  }
  param {
    lr_mult: 2
  }
  inner_product_param {
    num_output: 64
    weight_filler {
      type: "gaussian"
      std: 0.1
    }
    bias_filler {
      type: "constant"
    }
  }
}
layer {
  name: "ip3"
  type: "InnerProduct"
  bottom: "ip2"
  top: "ip3"
  param {
    lr_mult: 1
  }
  param {
    lr_mult: 2
  }
  inner_product_param {
    num_output: 1
    weight_filler {
      type: "gaussian"
      std: 0.1
    }
    bias_filler {
      type: "constant"
    }
  }
}
layer {
  name: "loss"
  type: "HuberLoss"
  bottom: "ip3"
  bottom: "label"
  top: "loss"
  include {
    phase: TRAIN
  }
}
I0501 17:31:47.108273 13727 layer_factory.hpp:77] Creating layer parameters
I0501 17:31:47.108286 13727 net.cpp:94] Creating Layer parameters
I0501 17:31:47.108291 13727 net.cpp:409] parameters -> data
I0501 17:31:47.108300 13727 net.cpp:409] parameters -> label
I0501 17:31:47.108311 13727 hdf5_data_layer.cpp:79] Loading list of HDF5 filenames from: /home/purduethu/scratch/radon/d/deng106/CNNStatisticalModel/distributions/input/5_distributions_400_sample_size_train-parameters-path.txt
I0501 17:31:47.108326 13727 hdf5_data_layer.cpp:93] Number of HDF5 files: 1
I0501 17:31:47.108887 13727 hdf5.cpp:32] Datatype class: H5T_FLOAT
I0501 17:31:47.172683 13727 net.cpp:144] Setting up parameters
I0501 17:31:47.172713 13727 net.cpp:151] Top shape: 20 1 20 20 (8000)
I0501 17:31:47.172718 13727 net.cpp:151] Top shape: 20 (20)
I0501 17:31:47.172721 13727 net.cpp:159] Memory required for data: 32080
I0501 17:31:47.172727 13727 layer_factory.hpp:77] Creating layer conv1
I0501 17:31:47.172744 13727 net.cpp:94] Creating Layer conv1
I0501 17:31:47.172749 13727 net.cpp:435] conv1 <- data
I0501 17:31:47.172756 13727 net.cpp:409] conv1 -> conv1
I0501 17:31:47.178078 13727 net.cpp:144] Setting up conv1
I0501 17:31:47.178099 13727 net.cpp:151] Top shape: 20 64 20 20 (512000)
I0501 17:31:47.178104 13727 net.cpp:159] Memory required for data: 2080080
I0501 17:31:47.178114 13727 layer_factory.hpp:77] Creating layer relu1
I0501 17:31:47.178124 13727 net.cpp:94] Creating Layer relu1
I0501 17:31:47.178128 13727 net.cpp:435] relu1 <- conv1
I0501 17:31:47.178133 13727 net.cpp:396] relu1 -> conv1 (in-place)
I0501 17:31:47.178146 13727 net.cpp:144] Setting up relu1
I0501 17:31:47.178151 13727 net.cpp:151] Top shape: 20 64 20 20 (512000)
I0501 17:31:47.178154 13727 net.cpp:159] Memory required for data: 4128080
I0501 17:31:47.178158 13727 layer_factory.hpp:77] Creating layer conv2
I0501 17:31:47.178165 13727 net.cpp:94] Creating Layer conv2
I0501 17:31:47.178169 13727 net.cpp:435] conv2 <- conv1
I0501 17:31:47.178174 13727 net.cpp:409] conv2 -> conv2
I0501 17:31:47.189775 13727 net.cpp:144] Setting up conv2
I0501 17:31:47.189791 13727 net.cpp:151] Top shape: 20 64 20 20 (512000)
I0501 17:31:47.189795 13727 net.cpp:159] Memory required for data: 6176080
I0501 17:31:47.189803 13727 layer_factory.hpp:77] Creating layer relu2
I0501 17:31:47.189811 13727 net.cpp:94] Creating Layer relu2
I0501 17:31:47.189815 13727 net.cpp:435] relu2 <- conv2
I0501 17:31:47.189820 13727 net.cpp:396] relu2 -> conv2 (in-place)
I0501 17:31:47.189826 13727 net.cpp:144] Setting up relu2
I0501 17:31:47.189831 13727 net.cpp:151] Top shape: 20 64 20 20 (512000)
I0501 17:31:47.189834 13727 net.cpp:159] Memory required for data: 8224080
I0501 17:31:47.189837 13727 layer_factory.hpp:77] Creating layer pool2
I0501 17:31:47.189849 13727 net.cpp:94] Creating Layer pool2
I0501 17:31:47.189853 13727 net.cpp:435] pool2 <- conv2
I0501 17:31:47.189858 13727 net.cpp:409] pool2 -> pool2
I0501 17:31:47.189911 13727 net.cpp:144] Setting up pool2
I0501 17:31:47.189918 13727 net.cpp:151] Top shape: 20 64 10 10 (128000)
I0501 17:31:47.189923 13727 net.cpp:159] Memory required for data: 8736080
I0501 17:31:47.189925 13727 layer_factory.hpp:77] Creating layer conv3
I0501 17:31:47.189934 13727 net.cpp:94] Creating Layer conv3
I0501 17:31:47.189937 13727 net.cpp:435] conv3 <- pool2
I0501 17:31:47.189942 13727 net.cpp:409] conv3 -> conv3
I0501 17:31:47.195133 13727 net.cpp:144] Setting up conv3
I0501 17:31:47.195147 13727 net.cpp:151] Top shape: 20 64 10 10 (128000)
I0501 17:31:47.195150 13727 net.cpp:159] Memory required for data: 9248080
I0501 17:31:47.195158 13727 layer_factory.hpp:77] Creating layer relu3
I0501 17:31:47.195164 13727 net.cpp:94] Creating Layer relu3
I0501 17:31:47.195168 13727 net.cpp:435] relu3 <- conv3
I0501 17:31:47.195173 13727 net.cpp:396] relu3 -> conv3 (in-place)
I0501 17:31:47.195179 13727 net.cpp:144] Setting up relu3
I0501 17:31:47.195184 13727 net.cpp:151] Top shape: 20 64 10 10 (128000)
I0501 17:31:47.195188 13727 net.cpp:159] Memory required for data: 9760080
I0501 17:31:47.195190 13727 layer_factory.hpp:77] Creating layer conv4
I0501 17:31:47.195199 13727 net.cpp:94] Creating Layer conv4
I0501 17:31:47.195202 13727 net.cpp:435] conv4 <- conv3
I0501 17:31:47.195207 13727 net.cpp:409] conv4 -> conv4
I0501 17:31:47.200362 13727 net.cpp:144] Setting up conv4
I0501 17:31:47.200376 13727 net.cpp:151] Top shape: 20 64 10 10 (128000)
I0501 17:31:47.200381 13727 net.cpp:159] Memory required for data: 10272080
I0501 17:31:47.200387 13727 layer_factory.hpp:77] Creating layer relu4
I0501 17:31:47.200392 13727 net.cpp:94] Creating Layer relu4
I0501 17:31:47.200397 13727 net.cpp:435] relu4 <- conv4
I0501 17:31:47.200400 13727 net.cpp:396] relu4 -> conv4 (in-place)
I0501 17:31:47.200407 13727 net.cpp:144] Setting up relu4
I0501 17:31:47.200412 13727 net.cpp:151] Top shape: 20 64 10 10 (128000)
I0501 17:31:47.200414 13727 net.cpp:159] Memory required for data: 10784080
I0501 17:31:47.200418 13727 layer_factory.hpp:77] Creating layer conv5
I0501 17:31:47.200425 13727 net.cpp:94] Creating Layer conv5
I0501 17:31:47.200429 13727 net.cpp:435] conv5 <- conv4
I0501 17:31:47.200434 13727 net.cpp:409] conv5 -> conv5
I0501 17:31:47.205597 13727 net.cpp:144] Setting up conv5
I0501 17:31:47.205611 13727 net.cpp:151] Top shape: 20 64 10 10 (128000)
I0501 17:31:47.205615 13727 net.cpp:159] Memory required for data: 11296080
I0501 17:31:47.205623 13727 layer_factory.hpp:77] Creating layer relu5
I0501 17:31:47.205628 13727 net.cpp:94] Creating Layer relu5
I0501 17:31:47.205632 13727 net.cpp:435] relu5 <- conv5
I0501 17:31:47.205638 13727 net.cpp:396] relu5 -> conv5 (in-place)
I0501 17:31:47.205646 13727 net.cpp:144] Setting up relu5
I0501 17:31:47.205649 13727 net.cpp:151] Top shape: 20 64 10 10 (128000)
I0501 17:31:47.205652 13727 net.cpp:159] Memory required for data: 11808080
I0501 17:31:47.205655 13727 layer_factory.hpp:77] Creating layer pool5
I0501 17:31:47.205660 13727 net.cpp:94] Creating Layer pool5
I0501 17:31:47.205663 13727 net.cpp:435] pool5 <- conv5
I0501 17:31:47.205669 13727 net.cpp:409] pool5 -> pool5
I0501 17:31:47.205706 13727 net.cpp:144] Setting up pool5
I0501 17:31:47.205714 13727 net.cpp:151] Top shape: 20 64 5 5 (32000)
I0501 17:31:47.205718 13727 net.cpp:159] Memory required for data: 11936080
I0501 17:31:47.205720 13727 layer_factory.hpp:77] Creating layer ip1
I0501 17:31:47.205729 13727 net.cpp:94] Creating Layer ip1
I0501 17:31:47.205731 13727 net.cpp:435] ip1 <- pool5
I0501 17:31:47.205736 13727 net.cpp:409] ip1 -> ip1
I0501 17:31:47.208217 13727 net.cpp:144] Setting up ip1
I0501 17:31:47.208225 13727 net.cpp:151] Top shape: 20 64 (1280)
I0501 17:31:47.208228 13727 net.cpp:159] Memory required for data: 11941200
I0501 17:31:47.208235 13727 layer_factory.hpp:77] Creating layer ip2
I0501 17:31:47.208241 13727 net.cpp:94] Creating Layer ip2
I0501 17:31:47.208248 13727 net.cpp:435] ip2 <- ip1
I0501 17:31:47.208253 13727 net.cpp:409] ip2 -> ip2
I0501 17:31:47.208461 13727 net.cpp:144] Setting up ip2
I0501 17:31:47.208467 13727 net.cpp:151] Top shape: 20 64 (1280)
I0501 17:31:47.208470 13727 net.cpp:159] Memory required for data: 11946320
I0501 17:31:47.208475 13727 layer_factory.hpp:77] Creating layer ip3
I0501 17:31:47.208482 13727 net.cpp:94] Creating Layer ip3
I0501 17:31:47.208484 13727 net.cpp:435] ip3 <- ip2
I0501 17:31:47.208490 13727 net.cpp:409] ip3 -> ip3
I0501 17:31:47.208612 13727 net.cpp:144] Setting up ip3
I0501 17:31:47.208621 13727 net.cpp:151] Top shape: 20 1 (20)
I0501 17:31:47.208624 13727 net.cpp:159] Memory required for data: 11946400
I0501 17:31:47.208629 13727 layer_factory.hpp:77] Creating layer loss
I0501 17:31:47.208640 13727 net.cpp:94] Creating Layer loss
I0501 17:31:47.208644 13727 net.cpp:435] loss <- ip3
I0501 17:31:47.208648 13727 net.cpp:435] loss <- label
I0501 17:31:47.208653 13727 net.cpp:409] loss -> loss
I0501 17:31:47.208706 13727 net.cpp:144] Setting up loss
…
I0501 17:31:47.248996 13727 net.cpp:323] The NetState phase (0) differed from the phase (1) specified by a rule in layer intercept
I0501 17:31:47.249013 13727 net.cpp:323] The NetState phase (0) differed from the phase (1) specified by a rule in layer accuracy
I0501 17:31:47.249099 13727 net.cpp:52] Initializing net from parameters: 
state {
  phase: TRAIN
}
layer {
  name: "parameters"
  type: "HDF5Data"
  top: "data"
  top: "label"
  include {
    phase: TRAIN
  }
  hdf5_data_param {
    source: "/home/purduethu/scratch/radon/d/deng106/CNNStatisticalModel/distributions/input/5_distributions_400_sample_size_train-distributions-path.txt"
    batch_size: 20
  }
}
layer {
  name: "conv1"
  type: "Convolution"
  bottom: "data"
  top: "conv1"
  param {
    lr_mult: 1
  }
  param {
    lr_mult: 2
  }
  convolution_param {
    num_output: 64
    pad: 2
    kernel_size: 5
    stride: 1
    weight_filler {
      type: "gaussian"
      std: 0.0001
    }
    bias_filler {
      type: "constant"
    }
  }
}
layer {
  name: "relu1"
  type: "ReLU"
  bottom: "conv1"
  top: "conv1"
}
layer {
  name: "conv2"
  type: "Convolution"
  bottom: "conv1"
  top: "conv2"
  param {
    lr_mult: 1
  }
  param {
    lr_mult: 2
  }
  convolution_param {
    num_output: 64
    pad: 2
    kernel_size: 5
    stride: 1
    weight_filler {
      type: "gaussian"
      std: 0.01
    }
    bias_filler {
      type: "constant"
    }
  }
}
layer {
  name: "relu2"
  type: "ReLU"
  bottom: "conv2"
  top: "conv2"
}
layer {
  name: "pool2"
  type: "Pooling"
  bottom: "conv2"
  top: "pool2"
  pooling_param {
    pool: MAX
    kernel_size: 3
    stride: 2
  }
}
layer {
  name: "conv3"
  type: "Convolution"
  bottom: "pool2"
  top: "conv3"
  param {
    lr_mult: 1
  }
  param {
    lr_mult: 2
  }
  convolution_param {
    num_output: 64
    pad: 2
    kernel_size: 5
    stride: 1
    weight_filler {
      type: "gaussian"
      std: 0.01
    }
    bias_filler {
      type: "constant"
    }
  }
}
layer {
  name: "relu3"
  type: "ReLU"
  bottom: "conv3"
  top: "conv3"
}
layer {
  name: "conv4"
  type: "Convolution"
  bottom: "conv3"
  top: "conv4"
  param {
    lr_mult: 1
  }
  param {
    lr_mult: 2
  }
  convolution_param {
    num_output: 64
    pad: 2
    kernel_size: 5
    stride: 1
    weight_filler {
      type: "gaussian"
      std: 0.01
    }
    bias_filler {
      type: "constant"
    }
  }
}
layer {
  name: "relu4"
  type: "ReLU"
  bottom: "conv4"
  top: "conv4"
}
layer {
  name: "conv5"
  type: "Convolution"
  bottom: "conv4"
  top: "conv5"
  param {
    lr_mult: 1
  }
  param {
    lr_mult: 2
  }
  convolution_param {
    num_output: 64
    pad: 2
    kernel_size: 5
    stride: 1
    weight_filler {
      type: "gaussian"
      std: 0.01
    }
    bias_filler {
      type: "constant"
    }
  }
}
layer {
  name: "relu5"
  type: "ReLU"
  bottom: "conv5"
  top: "conv5"
}
layer {
  name: "pool5"
  type: "Pooling"
  bottom: "conv5"
  top: "pool5"
  pooling_param {
    pool: AVE
    kernel_size: 3
    stride: 2
  }
}
layer {
  name: "ip1"
  type: "InnerProduct"
  bottom: "pool5"
  top: "ip1"
  param {
    lr_mult: 1
  }
  param {
    lr_mult: 2
  }
  inner_product_param {
    num_output: 64
    weight_filler {
      type: "gaussian"
      std: 0.1
    }
    bias_filler {
      type: "constant"
    }
  }
}
layer {
  name: "ip2"
  type: "InnerProduct"
  bottom: "ip1"
  top: "ip2"
  param {
    lr_mult: 1
  }
  param {
    lr_mult: 2
  }
  inner_product_param {
    num_output: 64
    weight_filler {
      type: "gaussian"
      std: 0.1
    }
    bias_filler {
      type: "constant"
    }
  }
}
layer {
  name: "ip3"
  type: "InnerProduct"
  bottom: "ip2"
  top: "ip3"
  param {
    lr_mult: 1
  }
  param {
    lr_mult: 2
  }
  inner_product_param {
    num_output: 50
    weight_filler {
      type: "gaussian"
      std: 0.1
    }
    bias_filler {
      type: "constant"
    }
  }
}
layer {
  name: "loss"
  type: "SoftmaxWithLoss"
  bottom: "ip3"
  bottom: "label"
  top: "loss"
}
I0501 17:31:47.249151 13727 layer_factory.hpp:77] Creating layer parameters
I0501 17:31:47.249160 13727 net.cpp:94] Creating Layer parameters
I0501 17:31:47.249163 13727 net.cpp:409] parameters -> data
I0501 17:31:47.249171 13727 net.cpp:409] parameters -> label
I0501 17:31:47.249176 13727 hdf5_data_layer.cpp:79] Loading list of HDF5 filenames from: /home/purduethu/scratch/radon/d/deng106/CNNStatisticalModel/distributions/input/5_distributions_400_sample_size_train-distributions-path.txt
I0501 17:31:47.249191 13727 hdf5_data_layer.cpp:93] Number of HDF5 files: 1
I0501 17:31:47.310984 13727 hdf5.cpp:35] Datatype class: H5T_INTEGER
I0501 17:31:47.311411 13727 net.cpp:144] Setting up parameters
I0501 17:31:47.311425 13727 net.cpp:151] Top shape: 20 1 20 20 (8000)
I0501 17:31:47.311430 13727 net.cpp:151] Top shape: 20 (20)
I0501 17:31:47.311434 13727 net.cpp:159] Memory required for data: 32080
I0501 17:31:47.311439 13727 layer_factory.hpp:77] Creating layer conv1
I0501 17:31:47.311456 13727 net.cpp:94] Creating Layer conv1
I0501 17:31:47.311460 13727 net.cpp:435] conv1 <- data
I0501 17:31:47.311467 13727 net.cpp:409] conv1 -> conv1
I0501 17:31:47.314191 13727 net.cpp:144] Setting up conv1
I0501 17:31:47.314206 13727 net.cpp:151] Top shape: 20 64 20 20 (512000)
I0501 17:31:47.314210 13727 net.cpp:159] Memory required for data: 2080080
I0501 17:31:47.314220 13727 layer_factory.hpp:77] Creating layer relu1
I0501 17:31:47.314229 13727 net.cpp:94] Creating Layer relu1
I0501 17:31:47.314232 13727 net.cpp:435] relu1 <- conv1
I0501 17:31:47.314236 13727 net.cpp:396] relu1 -> conv1 (in-place)
I0501 17:31:47.314244 13727 net.cpp:144] Setting up relu1
I0501 17:31:47.314249 13727 net.cpp:151] Top shape: 20 64 20 20 (512000)
I0501 17:31:47.314252 13727 net.cpp:159] Memory required for data: 4128080
I0501 17:31:47.314255 13727 layer_factory.hpp:77] Creating layer conv2
I0501 17:31:47.314262 13727 net.cpp:94] Creating Layer conv2
I0501 17:31:47.314266 13727 net.cpp:435] conv2 <- conv1
I0501 17:31:47.314271 13727 net.cpp:409] conv2 -> conv2
I0501 17:31:47.324411 13727 net.cpp:144] Setting up conv2
I0501 17:31:47.324426 13727 net.cpp:151] Top shape: 20 64 20 20 (512000)
I0501 17:31:47.324430 13727 net.cpp:159] Memory required for data: 6176080
I0501 17:31:47.324440 13727 layer_factory.hpp:77] Creating layer relu2
I0501 17:31:47.324446 13727 net.cpp:94] Creating Layer relu2
I0501 17:31:47.324450 13727 net.cpp:435] relu2 <- conv2
I0501 17:31:47.324455 13727 net.cpp:396] relu2 -> conv2 (in-place)
I0501 17:31:47.324462 13727 net.cpp:144] Setting up relu2
I0501 17:31:47.324466 13727 net.cpp:151] Top shape: 20 64 20 20 (512000)
I0501 17:31:47.324470 13727 net.cpp:159] Memory required for data: 8224080
I0501 17:31:47.324472 13727 layer_factory.hpp:77] Creating layer pool2
I0501 17:31:47.324478 13727 net.cpp:94] Creating Layer pool2
I0501 17:31:47.324481 13727 net.cpp:435] pool2 <- conv2
I0501 17:31:47.324486 13727 net.cpp:409] pool2 -> pool2
I0501 17:31:47.324537 13727 net.cpp:144] Setting up pool2
I0501 17:31:47.324544 13727 net.cpp:151] Top shape: 20 64 10 10 (128000)
I0501 17:31:47.324548 13727 net.cpp:159] Memory required for data: 8736080
I0501 17:31:47.324558 13727 layer_factory.hpp:77] Creating layer conv3
I0501 17:31:47.324568 13727 net.cpp:94] Creating Layer conv3
I0501 17:31:47.324571 13727 net.cpp:435] conv3 <- pool2
I0501 17:31:47.324576 13727 net.cpp:409] conv3 -> conv3
I0501 17:31:47.329771 13727 net.cpp:144] Setting up conv3
I0501 17:31:47.329784 13727 net.cpp:151] Top shape: 20 64 10 10 (128000)
I0501 17:31:47.329788 13727 net.cpp:159] Memory required for data: 9248080
I0501 17:31:47.329797 13727 layer_factory.hpp:77] Creating layer relu3
I0501 17:31:47.329802 13727 net.cpp:94] Creating Layer relu3
I0501 17:31:47.329805 13727 net.cpp:435] relu3 <- conv3
I0501 17:31:47.329810 13727 net.cpp:396] relu3 -> conv3 (in-place)
I0501 17:31:47.329818 13727 net.cpp:144] Setting up relu3
I0501 17:31:47.329821 13727 net.cpp:151] Top shape: 20 64 10 10 (128000)
I0501 17:31:47.329824 13727 net.cpp:159] Memory required for data: 9760080
I0501 17:31:47.329828 13727 layer_factory.hpp:77] Creating layer conv4
I0501 17:31:47.329836 13727 net.cpp:94] Creating Layer conv4
I0501 17:31:47.329839 13727 net.cpp:435] conv4 <- conv3
I0501 17:31:47.329844 13727 net.cpp:409] conv4 -> conv4
I0501 17:31:47.335049 13727 net.cpp:144] Setting up conv4
I0501 17:31:47.335063 13727 net.cpp:151] Top shape: 20 64 10 10 (128000)
I0501 17:31:47.335067 13727 net.cpp:159] Memory required for data: 10272080
I0501 17:31:47.335073 13727 layer_factory.hpp:77] Creating layer relu4
I0501 17:31:47.335079 13727 net.cpp:94] Creating Layer relu4
I0501 17:31:47.335083 13727 net.cpp:435] relu4 <- conv4
I0501 17:31:47.335088 13727 net.cpp:396] relu4 -> conv4 (in-place)
I0501 17:31:47.335094 13727 net.cpp:144] Setting up relu4
I0501 17:31:47.335098 13727 net.cpp:151] Top shape: 20 64 10 10 (128000)
I0501 17:31:47.335101 13727 net.cpp:159] Memory required for data: 10784080
I0501 17:31:47.335104 13727 layer_factory.hpp:77] Creating layer conv5
I0501 17:31:47.335113 13727 net.cpp:94] Creating Layer conv5
I0501 17:31:47.335115 13727 net.cpp:435] conv5 <- conv4
I0501 17:31:47.335120 13727 net.cpp:409] conv5 -> conv5
I0501 17:31:47.340353 13727 net.cpp:144] Setting up conv5
I0501 17:31:47.340366 13727 net.cpp:151] Top shape: 20 64 10 10 (128000)
I0501 17:31:47.340370 13727 net.cpp:159] Memory required for data: 11296080
I0501 17:31:47.340378 13727 layer_factory.hpp:77] Creating layer relu5
I0501 17:31:47.340384 13727 net.cpp:94] Creating Layer relu5
I0501 17:31:47.340389 13727 net.cpp:435] relu5 <- conv5
I0501 17:31:47.340392 13727 net.cpp:396] relu5 -> conv5 (in-place)
I0501 17:31:47.340399 13727 net.cpp:144] Setting up relu5
I0501 17:31:47.340404 13727 net.cpp:151] Top shape: 20 64 10 10 (128000)
I0501 17:31:47.340407 13727 net.cpp:159] Memory required for data: 11808080
I0501 17:31:47.340410 13727 layer_factory.hpp:77] Creating layer pool5
I0501 17:31:47.340415 13727 net.cpp:94] Creating Layer pool5
I0501 17:31:47.340418 13727 net.cpp:435] pool5 <- conv5
I0501 17:31:47.340422 13727 net.cpp:409] pool5 -> pool5
I0501 17:31:47.340457 13727 net.cpp:144] Setting up pool5
I0501 17:31:47.340464 13727 net.cpp:151] Top shape: 20 64 5 5 (32000)
I0501 17:31:47.340467 13727 net.cpp:159] Memory required for data: 11936080
I0501 17:31:47.340471 13727 layer_factory.hpp:77] Creating layer ip1
I0501 17:31:47.340477 13727 net.cpp:94] Creating Layer ip1
I0501 17:31:47.340481 13727 net.cpp:435] ip1 <- pool5
I0501 17:31:47.340486 13727 net.cpp:409] ip1 -> ip1
I0501 17:31:47.343031 13727 net.cpp:144] Setting up ip1
I0501 17:31:47.343041 13727 net.cpp:151] Top shape: 20 64 (1280)
I0501 17:31:47.343044 13727 net.cpp:159] Memory required for data: 11941200
I0501 17:31:47.343050 13727 layer_factory.hpp:77] Creating layer ip2
I0501 17:31:47.343055 13727 net.cpp:94] Creating Layer ip2
I0501 17:31:47.343060 13727 net.cpp:435] ip2 <- ip1
I0501 17:31:47.343065 13727 net.cpp:409] ip2 -> ip2
I0501 17:31:47.343286 13727 net.cpp:144] Setting up ip2
I0501 17:31:47.343293 13727 net.cpp:151] Top shape: 20 64 (1280)
I0501 17:31:47.343297 13727 net.cpp:159] Memory required for data: 11946320
I0501 17:31:47.343302 13727 layer_factory.hpp:77] Creating layer ip3
I0501 17:31:47.343308 13727 net.cpp:94] Creating Layer ip3
I0501 17:31:47.343312 13727 net.cpp:435] ip3 <- ip2
I0501 17:31:47.343317 13727 net.cpp:409] ip3 -> ip3
I0501 17:31:47.343510 13727 net.cpp:144] Setting up ip3
I0501 17:31:47.343521 13727 net.cpp:151] Top shape: 20 50 (1000)
I0501 17:31:47.343525 13727 net.cpp:159] Memory required for data: 11950320
I0501 17:31:47.343530 13727 layer_factory.hpp:77] Creating layer loss
I0501 17:31:47.343538 13727 net.cpp:94] Creating Layer loss
I0501 17:31:47.343542 13727 net.cpp:435] loss <- ip3
I0501 17:31:47.343546 13727 net.cpp:435] loss <- label
I0501 17:31:47.343551 13727 net.cpp:409] loss -> loss
I0501 17:31:47.343557 13727 layer_factory.hpp:77] Creating layer loss
…
I0501 17:31:47.344075 13727 solver.cpp:181] Creating test net (#0) specified by net file: ./protocol/dis_5_400_dimension.protocol_distribution
I0501 17:31:47.344102 13727 net.cpp:323] The NetState phase (1) differed from the phase (0) specified by a rule in layer parameters
I0501 17:31:47.344199 13727 net.cpp:52] Initializing net from parameters: 
state {
  phase: TEST
}
layer {
  name: "intercept"
  type: "HDF5Data"
  top: "data"
  top: "label"
  include {
    phase: TEST
  }
  hdf5_data_param {
    source: "/home/purduethu/scratch/radon/d/deng106/CNNStatisticalModel/distributions/input/5_distributions_400_sample_size_test-distributions-path.txt"
    batch_size: 20
  }
}
layer {
  name: "conv1"
  type: "Convolution"
  bottom: "data"
  top: "conv1"
  param {
    lr_mult: 1
  }
  param {
    lr_mult: 2
  }
  convolution_param {
    num_output: 64
    pad: 2
    kernel_size: 5
    stride: 1
    weight_filler {
      type: "gaussian"
      std: 0.0001
    }
    bias_filler {
      type: "constant"
    }
  }
}
layer {
  name: "relu1"
  type: "ReLU"
  bottom: "conv1"
  top: "conv1"
}
layer {
  name: "conv2"
  type: "Convolution"
  bottom: "conv1"
  top: "conv2"
  param {
    lr_mult: 1
  }
  param {
    lr_mult: 2
  }
  convolution_param {
    num_output: 64
    pad: 2
    kernel_size: 5
    stride: 1
    weight_filler {
      type: "gaussian"
      std: 0.01
    }
    bias_filler {
      type: "constant"
    }
  }
}
layer {
  name: "relu2"
  type: "ReLU"
  bottom: "conv2"
  top: "conv2"
}
layer {
  name: "pool2"
  type: "Pooling"
  bottom: "conv2"
  top: "pool2"
  pooling_param {
    pool: MAX
    kernel_size: 3
    stride: 2
  }
}
layer {
  name: "conv3"
  type: "Convolution"
  bottom: "pool2"
  top: "conv3"
  param {
    lr_mult: 1
  }
  param {
    lr_mult: 2
  }
  convolution_param {
    num_output: 64
    pad: 2
    kernel_size: 5
    stride: 1
    weight_filler {
      type: "gaussian"
      std: 0.01
    }
    bias_filler {
      type: "constant"
    }
  }
}
layer {
  name: "relu3"
  type: "ReLU"
  bottom: "conv3"
  top: "conv3"
}
layer {
  name: "conv4"
  type: "Convolution"
  bottom: "conv3"
  top: "conv4"
  param {
    lr_mult: 1
  }
  param {
    lr_mult: 2
  }
  convolution_param {
    num_output: 64
    pad: 2
    kernel_size: 5
    stride: 1
    weight_filler {
      type: "gaussian"
      std: 0.01
    }
    bias_filler {
      type: "constant"
    }
  }
}
layer {
  name: "relu4"
  type: "ReLU"
  bottom: "conv4"
  top: "conv4"
}
layer {
  name: "conv5"
  type: "Convolution"
  bottom: "conv4"
  top: "conv5"
  param {
    lr_mult: 1
  }
  param {
    lr_mult: 2
  }
  convolution_param {
    num_output: 64
    pad: 2
    kernel_size: 5
    stride: 1
    weight_filler {
      type: "gaussian"
      std: 0.01
    }
    bias_filler {
      type: "constant"
    }
  }
}
layer {
  name: "relu5"
  type: "ReLU"
  bottom: "conv5"
  top: "conv5"
}
layer {
  name: "pool5"
  type: "Pooling"
  bottom: "conv5"
  top: "pool5"
  pooling_param {
    pool: AVE
    kernel_size: 3
    stride: 2
  }
}
layer {
  name: "ip1"
  type: "InnerProduct"
  bottom: "pool5"
  top: "ip1"
  param {
    lr_mult: 1
  }
  param {
    lr_mult: 2
  }
  inner_product_param {
    num_output: 64
    weight_filler {
      type: "gaussian"
      std: 0.1
    }
    bias_filler {
      type: "constant"
    }
  }
}
layer {
  name: "ip2"
  type: "InnerProduct"
  bottom: "ip1"
  top: "ip2"
  param {
    lr_mult: 1
  }
  param {
    lr_mult: 2
  }
  inner_product_param {
    num_output: 64
    weight_filler {
      type: "gaussian"
      std: 0.1
    }
    bias_filler {
      type: "constant"
    }
  }
}
layer {
  name: "ip3"
  type: "InnerProduct"
  bottom: "ip2"
  top: "ip3"
  param {
    lr_mult: 1
  }
  param {
    lr_mult: 2
  }
  inner_product_param {
    num_output: 50
    weight_filler {
      type: "gaussian"
      std: 0.1
    }
    bias_filler {
      type: "constant"
    }
  }
}
layer {
  name: "accuracy"
  type: "Accuracy"
  bottom: "ip3"
  bottom: "label"
  top: "accuracy"
  include {
    phase: TEST
  }
}
layer {
  name: "loss"
  type: "SoftmaxWithLoss"
  bottom: "ip3"
  bottom: "label"
  top: "loss"
}
I0501 17:31:47.344270 13727 layer_factory.hpp:77] Creating layer intercept
I0501 17:31:47.344280 13727 net.cpp:94] Creating Layer intercept
I0501 17:31:47.344283 13727 net.cpp:409] intercept -> data
I0501 17:31:47.344290 13727 net.cpp:409] intercept -> label
I0501 17:31:47.344295 13727 hdf5_data_layer.cpp:79] Loading list of HDF5 filenames from: /home/purduethu/scratch/radon/d/deng106/CNNStatisticalModel/distributions/input/5_distributions_400_sample_size_test-distributions-path.txt
I0501 17:31:47.344316 13727 hdf5_data_layer.cpp:93] Number of HDF5 files: 1
I0501 17:31:47.360713 13727 net.cpp:144] Setting up intercept
I0501 17:31:47.360746 13727 net.cpp:151] Top shape: 20 1 20 20 (8000)
I0501 17:31:47.360752 13727 net.cpp:151] Top shape: 20 (20)
I0501 17:31:47.360755 13727 net.cpp:159] Memory required for data: 32080
I0501 17:31:47.360761 13727 layer_factory.hpp:77] Creating layer label_intercept_1_split
I0501 17:31:47.360772 13727 net.cpp:94] Creating Layer label_intercept_1_split
I0501 17:31:47.360776 13727 net.cpp:435] label_intercept_1_split <- label
I0501 17:31:47.360782 13727 net.cpp:409] label_intercept_1_split -> label_intercept_1_split_0
I0501 17:31:47.360791 13727 net.cpp:409] label_intercept_1_split -> label_intercept_1_split_1
I0501 17:31:47.360837 13727 net.cpp:144] Setting up label_intercept_1_split
I0501 17:31:47.360843 13727 net.cpp:151] Top shape: 20 (20)
I0501 17:31:47.360847 13727 net.cpp:151] Top shape: 20 (20)
I0501 17:31:47.360851 13727 net.cpp:159] Memory required for data: 32240
I0501 17:31:47.360853 13727 layer_factory.hpp:77] Creating layer conv1
I0501 17:31:47.360864 13727 net.cpp:94] Creating Layer conv1
I0501 17:31:47.360868 13727 net.cpp:435] conv1 <- data
I0501 17:31:47.360873 13727 net.cpp:409] conv1 -> conv1
I0501 17:31:47.362203 13727 net.cpp:144] Setting up conv1
I0501 17:31:47.362223 13727 net.cpp:151] Top shape: 20 64 20 20 (512000)
I0501 17:31:47.362227 13727 net.cpp:159] Memory required for data: 2080240
I0501 17:31:47.362237 13727 layer_factory.hpp:77] Creating layer relu1
I0501 17:31:47.362246 13727 net.cpp:94] Creating Layer relu1
I0501 17:31:47.362248 13727 net.cpp:435] relu1 <- conv1
I0501 17:31:47.362253 13727 net.cpp:396] relu1 -> conv1 (in-place)
I0501 17:31:47.362260 13727 net.cpp:144] Setting up relu1
I0501 17:31:47.362264 13727 net.cpp:151] Top shape: 20 64 20 20 (512000)
I0501 17:31:47.362267 13727 net.cpp:159] Memory required for data: 4128240
I0501 17:31:47.362270 13727 layer_factory.hpp:77] Creating layer conv2
I0501 17:31:47.362278 13727 net.cpp:94] Creating Layer conv2
I0501 17:31:47.362282 13727 net.cpp:435] conv2 <- conv1
I0501 17:31:47.362287 13727 net.cpp:409] conv2 -> conv2
I0501 17:31:47.367947 13727 net.cpp:144] Setting up conv2
I0501 17:31:47.367961 13727 net.cpp:151] Top shape: 20 64 20 20 (512000)
I0501 17:31:47.367965 13727 net.cpp:159] Memory required for data: 6176240
I0501 17:31:47.367974 13727 layer_factory.hpp:77] Creating layer relu2
I0501 17:31:47.367980 13727 net.cpp:94] Creating Layer relu2
I0501 17:31:47.367983 13727 net.cpp:435] relu2 <- conv2
I0501 17:31:47.367988 13727 net.cpp:396] relu2 -> conv2 (in-place)
I0501 17:31:47.367995 13727 net.cpp:144] Setting up relu2
I0501 17:31:47.368000 13727 net.cpp:151] Top shape: 20 64 20 20 (512000)
I0501 17:31:47.368002 13727 net.cpp:159] Memory required for data: 8224240
I0501 17:31:47.368005 13727 layer_factory.hpp:77] Creating layer pool2
I0501 17:31:47.368010 13727 net.cpp:94] Creating Layer pool2
I0501 17:31:47.368015 13727 net.cpp:435] pool2 <- conv2
I0501 17:31:47.368018 13727 net.cpp:409] pool2 -> pool2
I0501 17:31:47.368068 13727 net.cpp:144] Setting up pool2
I0501 17:31:47.368075 13727 net.cpp:151] Top shape: 20 64 10 10 (128000)
I0501 17:31:47.368078 13727 net.cpp:159] Memory required for data: 8736240
I0501 17:31:47.368083 13727 layer_factory.hpp:77] Creating layer conv3
I0501 17:31:47.368089 13727 net.cpp:94] Creating Layer conv3
I0501 17:31:47.368093 13727 net.cpp:435] conv3 <- pool2
I0501 17:31:47.368098 13727 net.cpp:409] conv3 -> conv3
I0501 17:31:47.371978 13727 net.cpp:144] Setting up conv3
I0501 17:31:47.371989 13727 net.cpp:151] Top shape: 20 64 10 10 (128000)
I0501 17:31:47.371994 13727 net.cpp:159] Memory required for data: 9248240
I0501 17:31:47.372001 13727 layer_factory.hpp:77] Creating layer relu3
I0501 17:31:47.372009 13727 net.cpp:94] Creating Layer relu3
I0501 17:31:47.372012 13727 net.cpp:435] relu3 <- conv3
I0501 17:31:47.372016 13727 net.cpp:396] relu3 -> conv3 (in-place)
I0501 17:31:47.372023 13727 net.cpp:144] Setting up relu3
I0501 17:31:47.372027 13727 net.cpp:151] Top shape: 20 64 10 10 (128000)
I0501 17:31:47.372030 13727 net.cpp:159] Memory required for data: 9760240
I0501 17:31:47.372035 13727 layer_factory.hpp:77] Creating layer conv4
I0501 17:31:47.372041 13727 net.cpp:94] Creating Layer conv4
I0501 17:31:47.372045 13727 net.cpp:435] conv4 <- conv3
I0501 17:31:47.372050 13727 net.cpp:409] conv4 -> conv4
I0501 17:31:47.375529 13727 net.cpp:144] Setting up conv4
I0501 17:31:47.375541 13727 net.cpp:151] Top shape: 20 64 10 10 (128000)
I0501 17:31:47.375545 13727 net.cpp:159] Memory required for data: 10272240
I0501 17:31:47.375551 13727 layer_factory.hpp:77] Creating layer relu4
I0501 17:31:47.375557 13727 net.cpp:94] Creating Layer relu4
I0501 17:31:47.375560 13727 net.cpp:435] relu4 <- conv4
I0501 17:31:47.375566 13727 net.cpp:396] relu4 -> conv4 (in-place)
I0501 17:31:47.375572 13727 net.cpp:144] Setting up relu4
I0501 17:31:47.375576 13727 net.cpp:151] Top shape: 20 64 10 10 (128000)
I0501 17:31:47.375579 13727 net.cpp:159] Memory required for data: 10784240
I0501 17:31:47.375582 13727 layer_factory.hpp:77] Creating layer conv5
I0501 17:31:47.375591 13727 net.cpp:94] Creating Layer conv5
I0501 17:31:47.375593 13727 net.cpp:435] conv5 <- conv4
I0501 17:31:47.375598 13727 net.cpp:409] conv5 -> conv5
I0501 17:31:47.379497 13727 net.cpp:144] Setting up conv5
I0501 17:31:47.379514 13727 net.cpp:151] Top shape: 20 64 10 10 (128000)
I0501 17:31:47.379518 13727 net.cpp:159] Memory required for data: 11296240
I0501 17:31:47.379528 13727 layer_factory.hpp:77] Creating layer relu5
I0501 17:31:47.379534 13727 net.cpp:94] Creating Layer relu5
I0501 17:31:47.379536 13727 net.cpp:435] relu5 <- conv5
I0501 17:31:47.379541 13727 net.cpp:396] relu5 -> conv5 (in-place)
I0501 17:31:47.379547 13727 net.cpp:144] Setting up relu5
I0501 17:31:47.379552 13727 net.cpp:151] Top shape: 20 64 10 10 (128000)
I0501 17:31:47.379555 13727 net.cpp:159] Memory required for data: 11808240
I0501 17:31:47.379559 13727 layer_factory.hpp:77] Creating layer pool5
I0501 17:31:47.379564 13727 net.cpp:94] Creating Layer pool5
I0501 17:31:47.379566 13727 net.cpp:435] pool5 <- conv5
I0501 17:31:47.379570 13727 net.cpp:409] pool5 -> pool5
I0501 17:31:47.379606 13727 net.cpp:144] Setting up pool5
I0501 17:31:47.379611 13727 net.cpp:151] Top shape: 20 64 5 5 (32000)
I0501 17:31:47.379614 13727 net.cpp:159] Memory required for data: 11936240
I0501 17:31:47.379618 13727 layer_factory.hpp:77] Creating layer ip1
I0501 17:31:47.379624 13727 net.cpp:94] Creating Layer ip1
I0501 17:31:47.379628 13727 net.cpp:435] ip1 <- pool5
I0501 17:31:47.379633 13727 net.cpp:409] ip1 -> ip1
I0501 17:31:47.382185 13727 net.cpp:144] Setting up ip1
I0501 17:31:47.382194 13727 net.cpp:151] Top shape: 20 64 (1280)
I0501 17:31:47.382197 13727 net.cpp:159] Memory required for data: 11941360
I0501 17:31:47.382202 13727 layer_factory.hpp:77] Creating layer ip2
I0501 17:31:47.382208 13727 net.cpp:94] Creating Layer ip2
I0501 17:31:47.382212 13727 net.cpp:435] ip2 <- ip1
I0501 17:31:47.382217 13727 net.cpp:409] ip2 -> ip2
I0501 17:31:47.382431 13727 net.cpp:144] Setting up ip2
I0501 17:31:47.382438 13727 net.cpp:151] Top shape: 20 64 (1280)
I0501 17:31:47.382442 13727 net.cpp:159] Memory required for data: 11946480
I0501 17:31:47.382447 13727 layer_factory.hpp:77] Creating layer ip3
I0501 17:31:47.382454 13727 net.cpp:94] Creating Layer ip3
I0501 17:31:47.382457 13727 net.cpp:435] ip3 <- ip2
I0501 17:31:47.382462 13727 net.cpp:409] ip3 -> ip3
I0501 17:31:47.382647 13727 net.cpp:144] Setting up ip3
I0501 17:31:47.382654 13727 net.cpp:151] Top shape: 20 50 (1000)
I0501 17:31:47.382658 13727 net.cpp:159] Memory required for data: 11950480
I0501 17:31:47.382663 13727 layer_factory.hpp:77] Creating layer ip3_ip3_0_split
I0501 17:31:47.382668 13727 net.cpp:94] Creating Layer ip3_ip3_0_split
I0501 17:31:47.382670 13727 net.cpp:435] ip3_ip3_0_split <- ip3
I0501 17:31:47.382675 13727 net.cpp:409] ip3_ip3_0_split -> ip3_ip3_0_split_0
I0501 17:31:47.382680 13727 net.cpp:409] ip3_ip3_0_split -> ip3_ip3_0_split_1
I0501 17:31:47.382719 13727 net.cpp:144] Setting up ip3_ip3_0_split
I0501 17:31:47.382725 13727 net.cpp:151] Top shape: 20 50 (1000)
I0501 17:31:47.382728 13727 net.cpp:151] Top shape: 20 50 (1000)
I0501 17:31:47.382730 13727 net.cpp:159] Memory required for data: 11958480
I0501 17:31:47.382735 13727 layer_factory.hpp:77] Creating layer accuracy
I0501 17:31:47.382740 13727 net.cpp:94] Creating Layer accuracy
I0501 17:31:47.382742 13727 net.cpp:435] accuracy <- ip3_ip3_0_split_0
I0501 17:31:47.382746 13727 net.cpp:435] accuracy <- label_intercept_1_split_0
I0501 17:31:47.382751 13727 net.cpp:409] accuracy -> accuracy
…
