…
I0503 10:16:20.678781 19890 net.cpp:323] The NetState phase (0) differed from the phase (1) specified by a rule in layer intercept
I0503 10:16:20.678797 19890 net.cpp:323] The NetState phase (0) differed from the phase (1) specified by a rule in layer accuracy
I0503 10:16:20.678891 19890 net.cpp:52] Initializing net from parameters: 
state {
  phase: TRAIN
}
layer {
  name: "parameters"
  type: "HDF5Data"
  top: "data"
  top: "label"
  include {
    phase: TRAIN
  }
  hdf5_data_param {
    source: "/home/purduethu/scratch/radon/d/deng106/CNNStatisticalModel/distributions/input/50_distributions_900_sample_size_train-distributions-path.txt"
    batch_size: 20
  }
}
layer {
  name: "conv1"
  type: "Convolution"
  bottom: "data"
  top: "conv1"
  param {
    lr_mult: 1
  }
  param {
    lr_mult: 2
  }
  convolution_param {
    num_output: 64
    pad: 2
    kernel_size: 5
    stride: 1
    weight_filler {
      type: "gaussian"
      std: 0.0001
    }
    bias_filler {
      type: "constant"
    }
  }
}
layer {
  name: "relu1"
  type: "ReLU"
  bottom: "conv1"
  top: "conv1"
}
layer {
  name: "conv2"
  type: "Convolution"
  bottom: "conv1"
  top: "conv2"
  param {
    lr_mult: 1
  }
  param {
    lr_mult: 2
  }
  convolution_param {
    num_output: 64
    pad: 2
    kernel_size: 5
    stride: 1
    weight_filler {
      type: "gaussian"
      std: 0.01
    }
    bias_filler {
      type: "constant"
    }
  }
}
layer {
  name: "relu2"
  type: "ReLU"
  bottom: "conv2"
  top: "conv2"
}
layer {
  name: "pool2"
  type: "Pooling"
  bottom: "conv2"
  top: "pool2"
  pooling_param {
    pool: MAX
    kernel_size: 3
    stride: 2
  }
}
layer {
  name: "conv3"
  type: "Convolution"
  bottom: "pool2"
  top: "conv3"
  param {
    lr_mult: 1
  }
  param {
    lr_mult: 2
  }
  convolution_param {
    num_output: 128
    pad: 2
    kernel_size: 5
    stride: 1
    weight_filler {
      type: "gaussian"
      std: 0.01
    }
    bias_filler {
      type: "constant"
    }
  }
}
layer {
  name: "relu3"
  type: "ReLU"
  bottom: "conv3"
  top: "conv3"
}
layer {
  name: "conv4"
  type: "Convolution"
  bottom: "conv3"
  top: "conv4"
  param {
    lr_mult: 1
  }
  param {
    lr_mult: 2
  }
  convolution_param {
    num_output: 128
    pad: 2
    kernel_size: 5
    stride: 1
    weight_filler {
      type: "gaussian"
      std: 0.01
    }
    bias_filler {
      type: "constant"
    }
  }
}
layer {
  name: "relu4"
  type: "ReLU"
  bottom: "conv4"
  top: "conv4"
}
layer {
  name: "conv5"
  type: "Convolution"
  bottom: "conv4"
  top: "conv5"
  param {
    lr_mult: 1
  }
  param {
    lr_mult: 2
  }
  convolution_param {
    num_output: 128
    pad: 2
    kernel_size: 5
    stride: 1
    weight_filler {
      type: "gaussian"
      std: 0.01
    }
    bias_filler {
      type: "constant"
    }
  }
}
layer {
  name: "relu5"
  type: "ReLU"
  bottom: "conv5"
  top: "conv5"
}
layer {
  name: "pool5"
  type: "Pooling"
  bottom: "conv5"
  top: "pool5"
  pooling_param {
    pool: AVE
    kernel_size: 3
    stride: 2
  }
}
layer {
  name: "ip1"
  type: "InnerProduct"
  bottom: "pool5"
  top: "ip1"
  param {
    lr_mult: 1
  }
  param {
    lr_mult: 2
  }
  inner_product_param {
    num_output: 1024
    weight_filler {
      type: "gaussian"
      std: 0.1
    }
    bias_filler {
      type: "constant"
    }
  }
}
layer {
  name: "ip2"
  type: "InnerProduct"
  bottom: "ip1"
  top: "ip2"
  param {
    lr_mult: 1
  }
  param {
    lr_mult: 2
  }
  inner_product_param {
    num_output: 512
    weight_filler {
      type: "gaussian"
      std: 0.1
    }
    bias_filler {
      type: "constant"
    }
  }
}
layer {
  name: "ip3"
  type: "InnerProduct"
  bottom: "ip2"
  top: "ip3"
  param {
    lr_mult: 1
  }
  param {
    lr_mult: 2
  }
  inner_product_param {
    num_output: 50
    weight_filler {
      type: "gaussian"
      std: 0.1
    }
    bias_filler {
      type: "constant"
    }
  }
}
layer {
  name: "loss"
  type: "SoftmaxWithLoss"
  bottom: "ip3"
  bottom: "label"
  top: "loss"
}
I0503 10:16:20.678967 19890 layer_factory.hpp:77] Creating layer parameters
I0503 10:16:20.678982 19890 net.cpp:94] Creating Layer parameters
I0503 10:16:20.678988 19890 net.cpp:409] parameters -> data
I0503 10:16:20.679008 19890 net.cpp:409] parameters -> label
I0503 10:16:20.679018 19890 hdf5_data_layer.cpp:79] Loading list of HDF5 filenames from: /home/purduethu/scratch/radon/d/deng106/CNNStatisticalModel/distributions/input/50_distributions_900_sample_size_train-distributions-path.txt
I0503 10:16:20.679041 19890 hdf5_data_layer.cpp:93] Number of HDF5 files: 1
I0503 10:16:20.679509 19890 hdf5.cpp:32] Datatype class: H5T_FLOAT
I0503 10:16:22.120385 19890 hdf5.cpp:35] Datatype class: H5T_INTEGER
I0503 10:16:22.123134 19890 net.cpp:144] Setting up parameters
I0503 10:16:22.123157 19890 net.cpp:151] Top shape: 20 1 30 30 (18000)
I0503 10:16:22.123163 19890 net.cpp:151] Top shape: 20 (20)
I0503 10:16:22.123167 19890 net.cpp:159] Memory required for data: 72080
I0503 10:16:22.123174 19890 layer_factory.hpp:77] Creating layer conv1
I0503 10:16:22.123198 19890 net.cpp:94] Creating Layer conv1
I0503 10:16:22.123204 19890 net.cpp:435] conv1 <- data
I0503 10:16:22.123215 19890 net.cpp:409] conv1 -> conv1
I0503 10:16:22.129076 19890 net.cpp:144] Setting up conv1
I0503 10:16:22.129093 19890 net.cpp:151] Top shape: 20 64 30 30 (1152000)
I0503 10:16:22.129097 19890 net.cpp:159] Memory required for data: 4680080
I0503 10:16:22.129109 19890 layer_factory.hpp:77] Creating layer relu1
I0503 10:16:22.129118 19890 net.cpp:94] Creating Layer relu1
I0503 10:16:22.129122 19890 net.cpp:435] relu1 <- conv1
I0503 10:16:22.129127 19890 net.cpp:396] relu1 -> conv1 (in-place)
I0503 10:16:22.129144 19890 net.cpp:144] Setting up relu1
I0503 10:16:22.129149 19890 net.cpp:151] Top shape: 20 64 30 30 (1152000)
I0503 10:16:22.129153 19890 net.cpp:159] Memory required for data: 9288080
I0503 10:16:22.129156 19890 layer_factory.hpp:77] Creating layer conv2
I0503 10:16:22.129164 19890 net.cpp:94] Creating Layer conv2
I0503 10:16:22.129168 19890 net.cpp:435] conv2 <- conv1
I0503 10:16:22.129173 19890 net.cpp:409] conv2 -> conv2
I0503 10:16:22.144965 19890 net.cpp:144] Setting up conv2
I0503 10:16:22.144981 19890 net.cpp:151] Top shape: 20 64 30 30 (1152000)
I0503 10:16:22.144985 19890 net.cpp:159] Memory required for data: 13896080
I0503 10:16:22.144994 19890 layer_factory.hpp:77] Creating layer relu2
I0503 10:16:22.145001 19890 net.cpp:94] Creating Layer relu2
I0503 10:16:22.145004 19890 net.cpp:435] relu2 <- conv2
I0503 10:16:22.145009 19890 net.cpp:396] relu2 -> conv2 (in-place)
I0503 10:16:22.145016 19890 net.cpp:144] Setting up relu2
I0503 10:16:22.145021 19890 net.cpp:151] Top shape: 20 64 30 30 (1152000)
I0503 10:16:22.145025 19890 net.cpp:159] Memory required for data: 18504080
I0503 10:16:22.145027 19890 layer_factory.hpp:77] Creating layer pool2
I0503 10:16:22.145041 19890 net.cpp:94] Creating Layer pool2
I0503 10:16:22.145046 19890 net.cpp:435] pool2 <- conv2
I0503 10:16:22.145051 19890 net.cpp:409] pool2 -> pool2
I0503 10:16:22.145095 19890 net.cpp:144] Setting up pool2
I0503 10:16:22.145102 19890 net.cpp:151] Top shape: 20 64 15 15 (288000)
I0503 10:16:22.145105 19890 net.cpp:159] Memory required for data: 19656080
I0503 10:16:22.145109 19890 layer_factory.hpp:77] Creating layer conv3
I0503 10:16:22.145117 19890 net.cpp:94] Creating Layer conv3
I0503 10:16:22.145120 19890 net.cpp:435] conv3 <- pool2
I0503 10:16:22.145133 19890 net.cpp:409] conv3 -> conv3
I0503 10:16:22.158079 19890 net.cpp:144] Setting up conv3
I0503 10:16:22.158095 19890 net.cpp:151] Top shape: 20 128 15 15 (576000)
I0503 10:16:22.158099 19890 net.cpp:159] Memory required for data: 21960080
I0503 10:16:22.158107 19890 layer_factory.hpp:77] Creating layer relu3
I0503 10:16:22.158114 19890 net.cpp:94] Creating Layer relu3
I0503 10:16:22.158118 19890 net.cpp:435] relu3 <- conv3
I0503 10:16:22.158123 19890 net.cpp:396] relu3 -> conv3 (in-place)
I0503 10:16:22.158130 19890 net.cpp:144] Setting up relu3
I0503 10:16:22.158135 19890 net.cpp:151] Top shape: 20 128 15 15 (576000)
I0503 10:16:22.158138 19890 net.cpp:159] Memory required for data: 24264080
I0503 10:16:22.158141 19890 layer_factory.hpp:77] Creating layer conv4
I0503 10:16:22.158150 19890 net.cpp:94] Creating Layer conv4
I0503 10:16:22.158154 19890 net.cpp:435] conv4 <- conv3
I0503 10:16:22.158159 19890 net.cpp:409] conv4 -> conv4
I0503 10:16:22.179996 19890 net.cpp:144] Setting up conv4
I0503 10:16:22.180011 19890 net.cpp:151] Top shape: 20 128 15 15 (576000)
I0503 10:16:22.180016 19890 net.cpp:159] Memory required for data: 26568080
I0503 10:16:22.180022 19890 layer_factory.hpp:77] Creating layer relu4
I0503 10:16:22.180028 19890 net.cpp:94] Creating Layer relu4
I0503 10:16:22.180032 19890 net.cpp:435] relu4 <- conv4
I0503 10:16:22.180037 19890 net.cpp:396] relu4 -> conv4 (in-place)
I0503 10:16:22.180044 19890 net.cpp:144] Setting up relu4
I0503 10:16:22.180048 19890 net.cpp:151] Top shape: 20 128 15 15 (576000)
I0503 10:16:22.180052 19890 net.cpp:159] Memory required for data: 28872080
I0503 10:16:22.180054 19890 layer_factory.hpp:77] Creating layer conv5
I0503 10:16:22.180063 19890 net.cpp:94] Creating Layer conv5
I0503 10:16:22.180066 19890 net.cpp:435] conv5 <- conv4
I0503 10:16:22.180071 19890 net.cpp:409] conv5 -> conv5
I0503 10:16:22.201453 19890 net.cpp:144] Setting up conv5
I0503 10:16:22.201469 19890 net.cpp:151] Top shape: 20 128 15 15 (576000)
I0503 10:16:22.201473 19890 net.cpp:159] Memory required for data: 31176080
I0503 10:16:22.201483 19890 layer_factory.hpp:77] Creating layer relu5
I0503 10:16:22.201488 19890 net.cpp:94] Creating Layer relu5
I0503 10:16:22.201493 19890 net.cpp:435] relu5 <- conv5
I0503 10:16:22.201498 19890 net.cpp:396] relu5 -> conv5 (in-place)
I0503 10:16:22.201504 19890 net.cpp:144] Setting up relu5
I0503 10:16:22.201509 19890 net.cpp:151] Top shape: 20 128 15 15 (576000)
I0503 10:16:22.201512 19890 net.cpp:159] Memory required for data: 33480080
I0503 10:16:22.201515 19890 layer_factory.hpp:77] Creating layer pool5
I0503 10:16:22.201520 19890 net.cpp:94] Creating Layer pool5
I0503 10:16:22.201524 19890 net.cpp:435] pool5 <- conv5
I0503 10:16:22.201529 19890 net.cpp:409] pool5 -> pool5
I0503 10:16:22.201563 19890 net.cpp:144] Setting up pool5
I0503 10:16:22.201571 19890 net.cpp:151] Top shape: 20 128 7 7 (125440)
I0503 10:16:22.201575 19890 net.cpp:159] Memory required for data: 33981840
I0503 10:16:22.201577 19890 layer_factory.hpp:77] Creating layer ip1
I0503 10:16:22.201587 19890 net.cpp:94] Creating Layer ip1
I0503 10:16:22.201591 19890 net.cpp:435] ip1 <- pool5
I0503 10:16:22.201596 19890 net.cpp:409] ip1 -> ip1
I0503 10:16:22.356626 19890 net.cpp:144] Setting up ip1
I0503 10:16:22.356647 19890 net.cpp:151] Top shape: 20 1024 (20480)
I0503 10:16:22.356652 19890 net.cpp:159] Memory required for data: 34063760
I0503 10:16:22.356660 19890 layer_factory.hpp:77] Creating layer ip2
I0503 10:16:22.356680 19890 net.cpp:94] Creating Layer ip2
I0503 10:16:22.356685 19890 net.cpp:435] ip2 <- ip1
I0503 10:16:22.356693 19890 net.cpp:409] ip2 -> ip2
I0503 10:16:22.369635 19890 net.cpp:144] Setting up ip2
I0503 10:16:22.369649 19890 net.cpp:151] Top shape: 20 512 (10240)
I0503 10:16:22.369653 19890 net.cpp:159] Memory required for data: 34104720
I0503 10:16:22.369659 19890 layer_factory.hpp:77] Creating layer ip3
I0503 10:16:22.369666 19890 net.cpp:94] Creating Layer ip3
I0503 10:16:22.369670 19890 net.cpp:435] ip3 <- ip2
I0503 10:16:22.369675 19890 net.cpp:409] ip3 -> ip3
I0503 10:16:22.370985 19890 net.cpp:144] Setting up ip3
I0503 10:16:22.370996 19890 net.cpp:151] Top shape: 20 50 (1000)
I0503 10:16:22.371001 19890 net.cpp:159] Memory required for data: 34108720
I0503 10:16:22.371006 19890 layer_factory.hpp:77] Creating layer loss
I0503 10:16:22.371014 19890 net.cpp:94] Creating Layer loss
I0503 10:16:22.371018 19890 net.cpp:435] loss <- ip3
I0503 10:16:22.371022 19890 net.cpp:435] loss <- label
I0503 10:16:22.371028 19890 net.cpp:409] loss -> loss
I0503 10:16:22.371039 19890 layer_factory.hpp:77] Creating layer loss
…
I0503 10:16:22.371533 19890 solver.cpp:181] Creating test net (#0) specified by net file: ./protocol/dis_50_900_dimension.protocol_distribution
I0503 10:16:22.371562 19890 net.cpp:323] The NetState phase (1) differed from the phase (0) specified by a rule in layer parameters
I0503 10:16:22.371657 19890 net.cpp:52] Initializing net from parameters: 
state {
  phase: TEST
}
layer {
  name: "intercept"
  type: "HDF5Data"
  top: "data"
  top: "label"
  include {
    phase: TEST
  }
  hdf5_data_param {
    source: "/home/purduethu/scratch/radon/d/deng106/CNNStatisticalModel/distributions/input/50_distributions_900_sample_size_test-distributions-path.txt"
    batch_size: 20
  }
}
layer {
  name: "conv1"
  type: "Convolution"
  bottom: "data"
  top: "conv1"
  param {
    lr_mult: 1
  }
  param {
    lr_mult: 2
  }
  convolution_param {
    num_output: 64
    pad: 2
    kernel_size: 5
    stride: 1
    weight_filler {
      type: "gaussian"
      std: 0.0001
    }
    bias_filler {
      type: "constant"
    }
  }
}
layer {
  name: "relu1"
  type: "ReLU"
  bottom: "conv1"
  top: "conv1"
}
layer {
  name: "conv2"
  type: "Convolution"
  bottom: "conv1"
  top: "conv2"
  param {
    lr_mult: 1
  }
  param {
    lr_mult: 2
  }
  convolution_param {
    num_output: 64
    pad: 2
    kernel_size: 5
    stride: 1
    weight_filler {
      type: "gaussian"
      std: 0.01
    }
    bias_filler {
      type: "constant"
    }
  }
}
layer {
  name: "relu2"
  type: "ReLU"
  bottom: "conv2"
  top: "conv2"
}
layer {
  name: "pool2"
  type: "Pooling"
  bottom: "conv2"
  top: "pool2"
  pooling_param {
    pool: MAX
    kernel_size: 3
    stride: 2
  }
}
layer {
  name: "conv3"
  type: "Convolution"
  bottom: "pool2"
  top: "conv3"
  param {
    lr_mult: 1
  }
  param {
    lr_mult: 2
  }
  convolution_param {
    num_output: 128
    pad: 2
    kernel_size: 5
    stride: 1
    weight_filler {
      type: "gaussian"
      std: 0.01
    }
    bias_filler {
      type: "constant"
    }
  }
}
layer {
  name: "relu3"
  type: "ReLU"
  bottom: "conv3"
  top: "conv3"
}
layer {
  name: "conv4"
  type: "Convolution"
  bottom: "conv3"
  top: "conv4"
  param {
    lr_mult: 1
  }
  param {
    lr_mult: 2
  }
  convolution_param {
    num_output: 128
    pad: 2
    kernel_size: 5
    stride: 1
    weight_filler {
      type: "gaussian"
      std: 0.01
    }
    bias_filler {
      type: "constant"
    }
  }
}
layer {
  name: "relu4"
  type: "ReLU"
  bottom: "conv4"
  top: "conv4"
}
layer {
  name: "conv5"
  type: "Convolution"
  bottom: "conv4"
  top: "conv5"
  param {
    lr_mult: 1
  }
  param {
    lr_mult: 2
  }
  convolution_param {
    num_output: 128
    pad: 2
    kernel_size: 5
    stride: 1
    weight_filler {
      type: "gaussian"
      std: 0.01
    }
    bias_filler {
      type: "constant"
    }
  }
}
layer {
  name: "relu5"
  type: "ReLU"
  bottom: "conv5"
  top: "conv5"
}
layer {
  name: "pool5"
  type: "Pooling"
  bottom: "conv5"
  top: "pool5"
  pooling_param {
    pool: AVE
    kernel_size: 3
    stride: 2
  }
}
layer {
  name: "ip1"
  type: "InnerProduct"
  bottom: "pool5"
  top: "ip1"
  param {
    lr_mult: 1
  }
  param {
    lr_mult: 2
  }
  inner_product_param {
    num_output: 1024
    weight_filler {
      type: "gaussian"
      std: 0.1
    }
    bias_filler {
      type: "constant"
    }
  }
}
layer {
  name: "ip2"
  type: "InnerProduct"
  bottom: "ip1"
  top: "ip2"
  param {
    lr_mult: 1
  }
  param {
    lr_mult: 2
  }
  inner_product_param {
    num_output: 512
    weight_filler {
      type: "gaussian"
      std: 0.1
    }
    bias_filler {
      type: "constant"
    }
  }
}
layer {
  name: "ip3"
  type: "InnerProduct"
  bottom: "ip2"
  top: "ip3"
  param {
    lr_mult: 1
  }
  param {
    lr_mult: 2
  }
  inner_product_param {
    num_output: 50
    weight_filler {
      type: "gaussian"
      std: 0.1
    }
    bias_filler {
      type: "constant"
    }
  }
}
layer {
  name: "accuracy"
  type: "Accuracy"
  bottom: "ip3"
  bottom: "label"
  top: "accuracy"
  include {
    phase: TEST
  }
}
layer {
  name: "loss"
  type: "SoftmaxWithLoss"
  bottom: "ip3"
  bottom: "label"
  top: "loss"
}
I0503 10:16:22.371728 19890 layer_factory.hpp:77] Creating layer intercept
I0503 10:16:22.371737 19890 net.cpp:94] Creating Layer intercept
I0503 10:16:22.371742 19890 net.cpp:409] intercept -> data
I0503 10:16:22.371748 19890 net.cpp:409] intercept -> label
I0503 10:16:22.371753 19890 hdf5_data_layer.cpp:79] Loading list of HDF5 filenames from: /home/purduethu/scratch/radon/d/deng106/CNNStatisticalModel/distributions/input/50_distributions_900_sample_size_test-distributions-path.txt
I0503 10:16:22.371773 19890 hdf5_data_layer.cpp:93] Number of HDF5 files: 1
I0503 10:16:22.724189 19890 net.cpp:144] Setting up intercept
I0503 10:16:22.724222 19890 net.cpp:151] Top shape: 20 1 30 30 (18000)
I0503 10:16:22.724227 19890 net.cpp:151] Top shape: 20 (20)
I0503 10:16:22.724231 19890 net.cpp:159] Memory required for data: 72080
I0503 10:16:22.724236 19890 layer_factory.hpp:77] Creating layer label_intercept_1_split
I0503 10:16:22.724256 19890 net.cpp:94] Creating Layer label_intercept_1_split
I0503 10:16:22.724261 19890 net.cpp:435] label_intercept_1_split <- label
I0503 10:16:22.724267 19890 net.cpp:409] label_intercept_1_split -> label_intercept_1_split_0
I0503 10:16:22.724283 19890 net.cpp:409] label_intercept_1_split -> label_intercept_1_split_1
I0503 10:16:22.724310 19890 net.cpp:144] Setting up label_intercept_1_split
I0503 10:16:22.724318 19890 net.cpp:151] Top shape: 20 (20)
I0503 10:16:22.724320 19890 net.cpp:151] Top shape: 20 (20)
I0503 10:16:22.724323 19890 net.cpp:159] Memory required for data: 72240
I0503 10:16:22.724328 19890 layer_factory.hpp:77] Creating layer conv1
I0503 10:16:22.724337 19890 net.cpp:94] Creating Layer conv1
I0503 10:16:22.724340 19890 net.cpp:435] conv1 <- data
I0503 10:16:22.724346 19890 net.cpp:409] conv1 -> conv1
I0503 10:16:22.725674 19890 net.cpp:144] Setting up conv1
I0503 10:16:22.725689 19890 net.cpp:151] Top shape: 20 64 30 30 (1152000)
I0503 10:16:22.725693 19890 net.cpp:159] Memory required for data: 4680240
I0503 10:16:22.725703 19890 layer_factory.hpp:77] Creating layer relu1
I0503 10:16:22.725709 19890 net.cpp:94] Creating Layer relu1
I0503 10:16:22.725713 19890 net.cpp:435] relu1 <- conv1
I0503 10:16:22.725718 19890 net.cpp:396] relu1 -> conv1 (in-place)
I0503 10:16:22.725725 19890 net.cpp:144] Setting up relu1
I0503 10:16:22.725730 19890 net.cpp:151] Top shape: 20 64 30 30 (1152000)
I0503 10:16:22.725733 19890 net.cpp:159] Memory required for data: 9288240
I0503 10:16:22.725736 19890 layer_factory.hpp:77] Creating layer conv2
I0503 10:16:22.725745 19890 net.cpp:94] Creating Layer conv2
I0503 10:16:22.725749 19890 net.cpp:435] conv2 <- conv1
I0503 10:16:22.725754 19890 net.cpp:409] conv2 -> conv2
I0503 10:16:22.732480 19890 net.cpp:144] Setting up conv2
I0503 10:16:22.732496 19890 net.cpp:151] Top shape: 20 64 30 30 (1152000)
I0503 10:16:22.732499 19890 net.cpp:159] Memory required for data: 13896240
I0503 10:16:22.732507 19890 layer_factory.hpp:77] Creating layer relu2
I0503 10:16:22.732513 19890 net.cpp:94] Creating Layer relu2
I0503 10:16:22.732517 19890 net.cpp:435] relu2 <- conv2
I0503 10:16:22.732522 19890 net.cpp:396] relu2 -> conv2 (in-place)
I0503 10:16:22.732529 19890 net.cpp:144] Setting up relu2
I0503 10:16:22.732534 19890 net.cpp:151] Top shape: 20 64 30 30 (1152000)
I0503 10:16:22.732537 19890 net.cpp:159] Memory required for data: 18504240
I0503 10:16:22.732540 19890 layer_factory.hpp:77] Creating layer pool2
I0503 10:16:22.732547 19890 net.cpp:94] Creating Layer pool2
I0503 10:16:22.732559 19890 net.cpp:435] pool2 <- conv2
I0503 10:16:22.732565 19890 net.cpp:409] pool2 -> pool2
I0503 10:16:22.732601 19890 net.cpp:144] Setting up pool2
I0503 10:16:22.732609 19890 net.cpp:151] Top shape: 20 64 15 15 (288000)
I0503 10:16:22.732611 19890 net.cpp:159] Memory required for data: 19656240
I0503 10:16:22.732614 19890 layer_factory.hpp:77] Creating layer conv3
I0503 10:16:22.732622 19890 net.cpp:94] Creating Layer conv3
I0503 10:16:22.732626 19890 net.cpp:435] conv3 <- pool2
I0503 10:16:22.732631 19890 net.cpp:409] conv3 -> conv3
I0503 10:16:22.740238 19890 net.cpp:144] Setting up conv3
I0503 10:16:22.740254 19890 net.cpp:151] Top shape: 20 128 15 15 (576000)
I0503 10:16:22.740258 19890 net.cpp:159] Memory required for data: 21960240
I0503 10:16:22.740267 19890 layer_factory.hpp:77] Creating layer relu3
I0503 10:16:22.740274 19890 net.cpp:94] Creating Layer relu3
I0503 10:16:22.740278 19890 net.cpp:435] relu3 <- conv3
I0503 10:16:22.740283 19890 net.cpp:396] relu3 -> conv3 (in-place)
I0503 10:16:22.740290 19890 net.cpp:144] Setting up relu3
I0503 10:16:22.740295 19890 net.cpp:151] Top shape: 20 128 15 15 (576000)
I0503 10:16:22.740298 19890 net.cpp:159] Memory required for data: 24264240
I0503 10:16:22.740301 19890 layer_factory.hpp:77] Creating layer conv4
I0503 10:16:22.740309 19890 net.cpp:94] Creating Layer conv4
I0503 10:16:22.740312 19890 net.cpp:435] conv4 <- conv3
I0503 10:16:22.740317 19890 net.cpp:409] conv4 -> conv4
I0503 10:16:22.755491 19890 net.cpp:144] Setting up conv4
I0503 10:16:22.755506 19890 net.cpp:151] Top shape: 20 128 15 15 (576000)
I0503 10:16:22.755511 19890 net.cpp:159] Memory required for data: 26568240
I0503 10:16:22.755517 19890 layer_factory.hpp:77] Creating layer relu4
I0503 10:16:22.755522 19890 net.cpp:94] Creating Layer relu4
I0503 10:16:22.755530 19890 net.cpp:435] relu4 <- conv4
I0503 10:16:22.755537 19890 net.cpp:396] relu4 -> conv4 (in-place)
I0503 10:16:22.755543 19890 net.cpp:144] Setting up relu4
I0503 10:16:22.755548 19890 net.cpp:151] Top shape: 20 128 15 15 (576000)
I0503 10:16:22.755551 19890 net.cpp:159] Memory required for data: 28872240
I0503 10:16:22.755554 19890 layer_factory.hpp:77] Creating layer conv5
I0503 10:16:22.755563 19890 net.cpp:94] Creating Layer conv5
I0503 10:16:22.755566 19890 net.cpp:435] conv5 <- conv4
I0503 10:16:22.755571 19890 net.cpp:409] conv5 -> conv5
I0503 10:16:22.770413 19890 net.cpp:144] Setting up conv5
I0503 10:16:22.770429 19890 net.cpp:151] Top shape: 20 128 15 15 (576000)
I0503 10:16:22.770433 19890 net.cpp:159] Memory required for data: 31176240
I0503 10:16:22.770442 19890 layer_factory.hpp:77] Creating layer relu5
I0503 10:16:22.770449 19890 net.cpp:94] Creating Layer relu5
I0503 10:16:22.770453 19890 net.cpp:435] relu5 <- conv5
I0503 10:16:22.770457 19890 net.cpp:396] relu5 -> conv5 (in-place)
I0503 10:16:22.770465 19890 net.cpp:144] Setting up relu5
I0503 10:16:22.770469 19890 net.cpp:151] Top shape: 20 128 15 15 (576000)
I0503 10:16:22.770473 19890 net.cpp:159] Memory required for data: 33480240
I0503 10:16:22.770476 19890 layer_factory.hpp:77] Creating layer pool5
I0503 10:16:22.770481 19890 net.cpp:94] Creating Layer pool5
I0503 10:16:22.770484 19890 net.cpp:435] pool5 <- conv5
I0503 10:16:22.770489 19890 net.cpp:409] pool5 -> pool5
I0503 10:16:22.770515 19890 net.cpp:144] Setting up pool5
I0503 10:16:22.770522 19890 net.cpp:151] Top shape: 20 128 7 7 (125440)
I0503 10:16:22.770525 19890 net.cpp:159] Memory required for data: 33982000
I0503 10:16:22.770529 19890 layer_factory.hpp:77] Creating layer ip1
I0503 10:16:22.770535 19890 net.cpp:94] Creating Layer ip1
I0503 10:16:22.770539 19890 net.cpp:435] ip1 <- pool5
I0503 10:16:22.770543 19890 net.cpp:409] ip1 -> ip1
I0503 10:16:22.935210 19890 net.cpp:144] Setting up ip1
I0503 10:16:22.935247 19890 net.cpp:151] Top shape: 20 1024 (20480)
I0503 10:16:22.935251 19890 net.cpp:159] Memory required for data: 34063920
I0503 10:16:22.935261 19890 layer_factory.hpp:77] Creating layer ip2
I0503 10:16:22.935271 19890 net.cpp:94] Creating Layer ip2
I0503 10:16:22.935276 19890 net.cpp:435] ip2 <- ip1
I0503 10:16:22.935282 19890 net.cpp:409] ip2 -> ip2
I0503 10:16:22.948284 19890 net.cpp:144] Setting up ip2
I0503 10:16:22.948298 19890 net.cpp:151] Top shape: 20 512 (10240)
I0503 10:16:22.948302 19890 net.cpp:159] Memory required for data: 34104880
I0503 10:16:22.948308 19890 layer_factory.hpp:77] Creating layer ip3
I0503 10:16:22.948318 19890 net.cpp:94] Creating Layer ip3
I0503 10:16:22.948321 19890 net.cpp:435] ip3 <- ip2
I0503 10:16:22.948328 19890 net.cpp:409] ip3 -> ip3
I0503 10:16:22.949034 19890 net.cpp:144] Setting up ip3
I0503 10:16:22.949043 19890 net.cpp:151] Top shape: 20 50 (1000)
I0503 10:16:22.949046 19890 net.cpp:159] Memory required for data: 34108880
I0503 10:16:22.949051 19890 layer_factory.hpp:77] Creating layer ip3_ip3_0_split
I0503 10:16:22.949057 19890 net.cpp:94] Creating Layer ip3_ip3_0_split
I0503 10:16:22.949061 19890 net.cpp:435] ip3_ip3_0_split <- ip3
I0503 10:16:22.949065 19890 net.cpp:409] ip3_ip3_0_split -> ip3_ip3_0_split_0
I0503 10:16:22.949071 19890 net.cpp:409] ip3_ip3_0_split -> ip3_ip3_0_split_1
I0503 10:16:22.949097 19890 net.cpp:144] Setting up ip3_ip3_0_split
I0503 10:16:22.949103 19890 net.cpp:151] Top shape: 20 50 (1000)
I0503 10:16:22.949106 19890 net.cpp:151] Top shape: 20 50 (1000)
I0503 10:16:22.949110 19890 net.cpp:159] Memory required for data: 34116880
I0503 10:16:22.949112 19890 layer_factory.hpp:77] Creating layer accuracy
I0503 10:16:22.949118 19890 net.cpp:94] Creating Layer accuracy
I0503 10:16:22.949122 19890 net.cpp:435] accuracy <- ip3_ip3_0_split_0
I0503 10:16:22.949126 19890 net.cpp:435] accuracy <- label_intercept_1_split_0
I0503 10:16:22.949131 19890 net.cpp:409] accuracy -> accuracy
…
