…
I0504 05:49:17.824142 24341 net.cpp:323] The NetState phase (0) differed from the phase (1) specified by a rule in layer intercept
I0504 05:49:17.824160 24341 net.cpp:323] The NetState phase (0) differed from the phase (1) specified by a rule in layer loss
I0504 05:49:17.824250 24341 net.cpp:52] Initializing net from parameters: 
state {
  phase: TRAIN
}
layer {
  name: "parameters"
  type: "HDF5Data"
  top: "data"
  top: "label"
  include {
    phase: TRAIN
  }
  hdf5_data_param {
    source: "/home/purduethu/scratch/radon/d/deng106/CNNStatisticalModel/distributions/input/5_distributions_100_sample_size_train-parameters-path.txt"
    batch_size: 20
  }
}
layer {
  name: "conv1"
  type: "Convolution"
  bottom: "data"
  top: "conv1"
  param {
    lr_mult: 1
  }
  param {
    lr_mult: 2
  }
  convolution_param {
    num_output: 64
    pad: 2
    kernel_size: 5
    stride: 1
    weight_filler {
      type: "gaussian"
      std: 0.0001
    }
    bias_filler {
      type: "constant"
    }
  }
}
layer {
  name: "relu1"
  type: "ReLU"
  bottom: "conv1"
  top: "conv1"
}
layer {
  name: "conv2"
  type: "Convolution"
  bottom: "conv1"
  top: "conv2"
  param {
    lr_mult: 1
  }
  param {
    lr_mult: 2
  }
  convolution_param {
    num_output: 64
    pad: 2
    kernel_size: 5
    stride: 1
    weight_filler {
      type: "gaussian"
      std: 0.01
    }
    bias_filler {
      type: "constant"
    }
  }
}
layer {
  name: "relu2"
  type: "ReLU"
  bottom: "conv2"
  top: "conv2"
}
layer {
  name: "pool2"
  type: "Pooling"
  bottom: "conv2"
  top: "pool2"
  pooling_param {
    pool: MAX
    kernel_size: 3
    stride: 2
  }
}
layer {
  name: "conv3"
  type: "Convolution"
  bottom: "pool2"
  top: "conv3"
  param {
    lr_mult: 1
  }
  param {
    lr_mult: 2
  }
  convolution_param {
    num_output: 128
    pad: 2
    kernel_size: 5
    stride: 1
    weight_filler {
      type: "gaussian"
      std: 0.01
    }
    bias_filler {
      type: "constant"
    }
  }
}
layer {
  name: "relu3"
  type: "ReLU"
  bottom: "conv3"
  top: "conv3"
}
layer {
  name: "conv4"
  type: "Convolution"
  bottom: "conv3"
  top: "conv4"
  param {
    lr_mult: 1
  }
  param {
    lr_mult: 2
  }
  convolution_param {
    num_output: 128
    pad: 2
    kernel_size: 5
    stride: 1
    weight_filler {
      type: "gaussian"
      std: 0.01
    }
    bias_filler {
      type: "constant"
    }
  }
}
layer {
  name: "relu4"
  type: "ReLU"
  bottom: "conv4"
  top: "conv4"
}
layer {
  name: "conv5"
  type: "Convolution"
  bottom: "conv4"
  top: "conv5"
  param {
    lr_mult: 1
  }
  param {
    lr_mult: 2
  }
  convolution_param {
    num_output: 128
    pad: 2
    kernel_size: 5
    stride: 1
    weight_filler {
      type: "gaussian"
      std: 0.01
    }
    bias_filler {
      type: "constant"
    }
  }
}
layer {
  name: "relu5"
  type: "ReLU"
  bottom: "conv5"
  top: "conv5"
}
layer {
  name: "pool5"
  type: "Pooling"
  bottom: "conv5"
  top: "pool5"
  pooling_param {
    pool: AVE
    kernel_size: 3
    stride: 2
  }
}
layer {
  name: "ip1"
  type: "InnerProduct"
  bottom: "pool5"
  top: "ip1"
  param {
    lr_mult: 1
  }
  param {
    lr_mult: 2
  }
  inner_product_param {
    num_output: 1024
    weight_filler {
      type: "gaussian"
      std: 0.1
    }
    bias_filler {
      type: "constant"
    }
  }
}
layer {
  name: "ip2"
  type: "InnerProduct"
  bottom: "ip1"
  top: "ip2"
  param {
    lr_mult: 1
  }
  param {
    lr_mult: 2
  }
  inner_product_param {
    num_output: 512
    weight_filler {
      type: "gaussian"
      std: 0.1
    }
    bias_filler {
      type: "constant"
    }
  }
}
layer {
  name: "ip3"
  type: "InnerProduct"
  bottom: "ip2"
  top: "ip3"
  param {
    lr_mult: 1
  }
  param {
    lr_mult: 2
  }
  inner_product_param {
    num_output: 1
    weight_filler {
      type: "gaussian"
      std: 0.1
    }
    bias_filler {
      type: "constant"
    }
  }
}
layer {
  name: "loss"
  type: "HuberLoss"
  bottom: "ip3"
  bottom: "label"
  top: "loss"
  include {
    phase: TRAIN
  }
}
I0504 05:49:17.824326 24341 layer_factory.hpp:77] Creating layer parameters
I0504 05:49:17.824342 24341 net.cpp:94] Creating Layer parameters
I0504 05:49:17.824347 24341 net.cpp:409] parameters -> data
I0504 05:49:17.824368 24341 net.cpp:409] parameters -> label
I0504 05:49:17.824378 24341 hdf5_data_layer.cpp:79] Loading list of HDF5 filenames from: /home/purduethu/scratch/radon/d/deng106/CNNStatisticalModel/distributions/input/5_distributions_100_sample_size_train-parameters-path.txt
I0504 05:49:17.824400 24341 hdf5_data_layer.cpp:93] Number of HDF5 files: 1
I0504 05:49:17.824903 24341 hdf5.cpp:32] Datatype class: H5T_FLOAT
I0504 05:49:17.842056 24341 net.cpp:144] Setting up parameters
I0504 05:49:17.842089 24341 net.cpp:151] Top shape: 20 1 10 10 (2000)
I0504 05:49:17.842097 24341 net.cpp:151] Top shape: 20 (20)
I0504 05:49:17.842100 24341 net.cpp:159] Memory required for data: 8080
I0504 05:49:17.842108 24341 layer_factory.hpp:77] Creating layer conv1
I0504 05:49:17.842128 24341 net.cpp:94] Creating Layer conv1
I0504 05:49:17.842133 24341 net.cpp:435] conv1 <- data
I0504 05:49:17.842144 24341 net.cpp:409] conv1 -> conv1
I0504 05:49:17.845984 24341 net.cpp:144] Setting up conv1
I0504 05:49:17.845999 24341 net.cpp:151] Top shape: 20 64 10 10 (128000)
I0504 05:49:17.846004 24341 net.cpp:159] Memory required for data: 520080
I0504 05:49:17.846016 24341 layer_factory.hpp:77] Creating layer relu1
I0504 05:49:17.846024 24341 net.cpp:94] Creating Layer relu1
I0504 05:49:17.846029 24341 net.cpp:435] relu1 <- conv1
I0504 05:49:17.846032 24341 net.cpp:396] relu1 -> conv1 (in-place)
I0504 05:49:17.846048 24341 net.cpp:144] Setting up relu1
I0504 05:49:17.846055 24341 net.cpp:151] Top shape: 20 64 10 10 (128000)
I0504 05:49:17.846057 24341 net.cpp:159] Memory required for data: 1032080
I0504 05:49:17.846060 24341 layer_factory.hpp:77] Creating layer conv2
I0504 05:49:17.846070 24341 net.cpp:94] Creating Layer conv2
I0504 05:49:17.846073 24341 net.cpp:435] conv2 <- conv1
I0504 05:49:17.846078 24341 net.cpp:409] conv2 -> conv2
I0504 05:49:17.851997 24341 net.cpp:144] Setting up conv2
I0504 05:49:17.852012 24341 net.cpp:151] Top shape: 20 64 10 10 (128000)
I0504 05:49:17.852016 24341 net.cpp:159] Memory required for data: 1544080
I0504 05:49:17.852025 24341 layer_factory.hpp:77] Creating layer relu2
I0504 05:49:17.852031 24341 net.cpp:94] Creating Layer relu2
I0504 05:49:17.852035 24341 net.cpp:435] relu2 <- conv2
I0504 05:49:17.852041 24341 net.cpp:396] relu2 -> conv2 (in-place)
I0504 05:49:17.852048 24341 net.cpp:144] Setting up relu2
I0504 05:49:17.852053 24341 net.cpp:151] Top shape: 20 64 10 10 (128000)
I0504 05:49:17.852056 24341 net.cpp:159] Memory required for data: 2056080
I0504 05:49:17.852061 24341 layer_factory.hpp:77] Creating layer pool2
I0504 05:49:17.852068 24341 net.cpp:94] Creating Layer pool2
I0504 05:49:17.852077 24341 net.cpp:435] pool2 <- conv2
I0504 05:49:17.852083 24341 net.cpp:409] pool2 -> pool2
I0504 05:49:17.852125 24341 net.cpp:144] Setting up pool2
I0504 05:49:17.852134 24341 net.cpp:151] Top shape: 20 64 5 5 (32000)
I0504 05:49:17.852138 24341 net.cpp:159] Memory required for data: 2184080
I0504 05:49:17.852141 24341 layer_factory.hpp:77] Creating layer conv3
I0504 05:49:17.852149 24341 net.cpp:94] Creating Layer conv3
I0504 05:49:17.852154 24341 net.cpp:435] conv3 <- pool2
I0504 05:49:17.852159 24341 net.cpp:409] conv3 -> conv3
I0504 05:49:17.860376 24341 net.cpp:144] Setting up conv3
I0504 05:49:17.860390 24341 net.cpp:151] Top shape: 20 128 5 5 (64000)
I0504 05:49:17.860394 24341 net.cpp:159] Memory required for data: 2440080
I0504 05:49:17.860404 24341 layer_factory.hpp:77] Creating layer relu3
I0504 05:49:17.860409 24341 net.cpp:94] Creating Layer relu3
I0504 05:49:17.860414 24341 net.cpp:435] relu3 <- conv3
I0504 05:49:17.860419 24341 net.cpp:396] relu3 -> conv3 (in-place)
I0504 05:49:17.860425 24341 net.cpp:144] Setting up relu3
I0504 05:49:17.860430 24341 net.cpp:151] Top shape: 20 128 5 5 (64000)
I0504 05:49:17.860435 24341 net.cpp:159] Memory required for data: 2696080
I0504 05:49:17.860437 24341 layer_factory.hpp:77] Creating layer conv4
I0504 05:49:17.860446 24341 net.cpp:94] Creating Layer conv4
I0504 05:49:17.860450 24341 net.cpp:435] conv4 <- conv3
I0504 05:49:17.860455 24341 net.cpp:409] conv4 -> conv4
I0504 05:49:17.875562 24341 net.cpp:144] Setting up conv4
I0504 05:49:17.875577 24341 net.cpp:151] Top shape: 20 128 5 5 (64000)
I0504 05:49:17.875582 24341 net.cpp:159] Memory required for data: 2952080
I0504 05:49:17.875588 24341 layer_factory.hpp:77] Creating layer relu4
I0504 05:49:17.875594 24341 net.cpp:94] Creating Layer relu4
I0504 05:49:17.875598 24341 net.cpp:435] relu4 <- conv4
I0504 05:49:17.875603 24341 net.cpp:396] relu4 -> conv4 (in-place)
I0504 05:49:17.875612 24341 net.cpp:144] Setting up relu4
I0504 05:49:17.875617 24341 net.cpp:151] Top shape: 20 128 5 5 (64000)
I0504 05:49:17.875620 24341 net.cpp:159] Memory required for data: 3208080
I0504 05:49:17.875623 24341 layer_factory.hpp:77] Creating layer conv5
I0504 05:49:17.875632 24341 net.cpp:94] Creating Layer conv5
I0504 05:49:17.875635 24341 net.cpp:435] conv5 <- conv4
I0504 05:49:17.875640 24341 net.cpp:409] conv5 -> conv5
I0504 05:49:17.890341 24341 net.cpp:144] Setting up conv5
I0504 05:49:17.890380 24341 net.cpp:151] Top shape: 20 128 5 5 (64000)
I0504 05:49:17.890393 24341 net.cpp:159] Memory required for data: 3464080
I0504 05:49:17.890417 24341 layer_factory.hpp:77] Creating layer relu5
I0504 05:49:17.890434 24341 net.cpp:94] Creating Layer relu5
I0504 05:49:17.890445 24341 net.cpp:435] relu5 <- conv5
I0504 05:49:17.890460 24341 net.cpp:396] relu5 -> conv5 (in-place)
I0504 05:49:17.890480 24341 net.cpp:144] Setting up relu5
I0504 05:49:17.890496 24341 net.cpp:151] Top shape: 20 128 5 5 (64000)
I0504 05:49:17.890506 24341 net.cpp:159] Memory required for data: 3720080
I0504 05:49:17.890514 24341 layer_factory.hpp:77] Creating layer pool5
I0504 05:49:17.890528 24341 net.cpp:94] Creating Layer pool5
I0504 05:49:17.890538 24341 net.cpp:435] pool5 <- conv5
I0504 05:49:17.890552 24341 net.cpp:409] pool5 -> pool5
I0504 05:49:17.890635 24341 net.cpp:144] Setting up pool5
I0504 05:49:17.890655 24341 net.cpp:151] Top shape: 20 128 2 2 (10240)
I0504 05:49:17.890666 24341 net.cpp:159] Memory required for data: 3761040
I0504 05:49:17.890674 24341 layer_factory.hpp:77] Creating layer ip1
I0504 05:49:17.890708 24341 net.cpp:94] Creating Layer ip1
I0504 05:49:17.890712 24341 net.cpp:435] ip1 <- pool5
I0504 05:49:17.890717 24341 net.cpp:409] ip1 -> ip1
I0504 05:49:17.904806 24341 net.cpp:144] Setting up ip1
I0504 05:49:17.904821 24341 net.cpp:151] Top shape: 20 1024 (20480)
I0504 05:49:17.904825 24341 net.cpp:159] Memory required for data: 3842960
I0504 05:49:17.904832 24341 layer_factory.hpp:77] Creating layer ip2
I0504 05:49:17.904839 24341 net.cpp:94] Creating Layer ip2
I0504 05:49:17.904844 24341 net.cpp:435] ip2 <- ip1
I0504 05:49:17.904853 24341 net.cpp:409] ip2 -> ip2
I0504 05:49:17.918279 24341 net.cpp:144] Setting up ip2
I0504 05:49:17.918293 24341 net.cpp:151] Top shape: 20 512 (10240)
I0504 05:49:17.918298 24341 net.cpp:159] Memory required for data: 3883920
I0504 05:49:17.918304 24341 layer_factory.hpp:77] Creating layer ip3
I0504 05:49:17.918310 24341 net.cpp:94] Creating Layer ip3
I0504 05:49:17.918314 24341 net.cpp:435] ip3 <- ip2
I0504 05:49:17.918320 24341 net.cpp:409] ip3 -> ip3
I0504 05:49:17.918395 24341 net.cpp:144] Setting up ip3
I0504 05:49:17.918402 24341 net.cpp:151] Top shape: 20 1 (20)
I0504 05:49:17.918414 24341 net.cpp:159] Memory required for data: 3884000
I0504 05:49:17.918421 24341 layer_factory.hpp:77] Creating layer loss
I0504 05:49:17.918432 24341 net.cpp:94] Creating Layer loss
I0504 05:49:17.918437 24341 net.cpp:435] loss <- ip3
I0504 05:49:17.918440 24341 net.cpp:435] loss <- label
I0504 05:49:17.918447 24341 net.cpp:409] loss -> loss
I0504 05:49:17.918483 24341 net.cpp:144] Setting up loss
…
