…
I0502 09:23:42.458659 21183 net.cpp:323] The NetState phase (0) differed from the phase (1) specified by a rule in layer intercept
I0502 09:23:42.458675 21183 net.cpp:323] The NetState phase (0) differed from the phase (1) specified by a rule in layer loss
I0502 09:23:42.458758 21183 net.cpp:52] Initializing net from parameters: 
state {
  phase: TRAIN
}
layer {
  name: "parameters"
  type: "HDF5Data"
  top: "data"
  top: "label"
  include {
    phase: TRAIN
  }
  hdf5_data_param {
    source: "/home/purduethu/scratch/radon/d/deng106/CNNStatisticalModel/distributions/input/50_distributions_400_sample_size_train-parameters-path.txt"
    batch_size: 20
  }
}
layer {
  name: "conv1"
  type: "Convolution"
  bottom: "data"
  top: "conv1"
  param {
    lr_mult: 1
  }
  param {
    lr_mult: 2
  }
  convolution_param {
    num_output: 64
    pad: 2
    kernel_size: 5
    stride: 1
    weight_filler {
      type: "gaussian"
      std: 0.0001
    }
    bias_filler {
      type: "constant"
    }
  }
}
layer {
  name: "relu1"
  type: "ReLU"
  bottom: "conv1"
  top: "conv1"
}
layer {
  name: "conv2"
  type: "Convolution"
  bottom: "conv1"
  top: "conv2"
  param {
    lr_mult: 1
  }
  param {
    lr_mult: 2
  }
  convolution_param {
    num_output: 64
    pad: 2
    kernel_size: 5
    stride: 1
    weight_filler {
      type: "gaussian"
      std: 0.01
    }
    bias_filler {
      type: "constant"
    }
  }
}
layer {
  name: "relu2"
  type: "ReLU"
  bottom: "conv2"
  top: "conv2"
}
layer {
  name: "pool2"
  type: "Pooling"
  bottom: "conv2"
  top: "pool2"
  pooling_param {
    pool: MAX
    kernel_size: 3
    stride: 2
  }
}
layer {
  name: "conv3"
  type: "Convolution"
  bottom: "pool2"
  top: "conv3"
  param {
    lr_mult: 1
  }
  param {
    lr_mult: 2
  }
  convolution_param {
    num_output: 64
    pad: 2
    kernel_size: 5
    stride: 1
    weight_filler {
      type: "gaussian"
      std: 0.01
    }
    bias_filler {
      type: "constant"
    }
  }
}
layer {
  name: "relu3"
  type: "ReLU"
  bottom: "conv3"
  top: "conv3"
}
layer {
  name: "conv4"
  type: "Convolution"
  bottom: "conv3"
  top: "conv4"
  param {
    lr_mult: 1
  }
  param {
    lr_mult: 2
  }
  convolution_param {
    num_output: 64
    pad: 2
    kernel_size: 5
    stride: 1
    weight_filler {
      type: "gaussian"
      std: 0.01
    }
    bias_filler {
      type: "constant"
    }
  }
}
layer {
  name: "relu4"
  type: "ReLU"
  bottom: "conv4"
  top: "conv4"
}
layer {
  name: "conv5"
  type: "Convolution"
  bottom: "conv4"
  top: "conv5"
  param {
    lr_mult: 1
  }
  param {
    lr_mult: 2
  }
  convolution_param {
    num_output: 64
    pad: 2
    kernel_size: 5
    stride: 1
    weight_filler {
      type: "gaussian"
      std: 0.01
    }
    bias_filler {
      type: "constant"
    }
  }
}
layer {
  name: "relu5"
  type: "ReLU"
  bottom: "conv5"
  top: "conv5"
}
layer {
  name: "pool5"
  type: "Pooling"
  bottom: "conv5"
  top: "pool5"
  pooling_param {
    pool: AVE
    kernel_size: 3
    stride: 2
  }
}
layer {
  name: "ip1"
  type: "InnerProduct"
  bottom: "pool5"
  top: "ip1"
  param {
    lr_mult: 1
  }
  param {
    lr_mult: 2
  }
  inner_product_param {
    num_output: 64
    weight_filler {
      type: "gaussian"
      std: 0.1
    }
    bias_filler {
      type: "constant"
    }
  }
}
layer {
  name: "ip2"
  type: "InnerProduct"
  bottom: "ip1"
  top: "ip2"
  param {
    lr_mult: 1
  }
  param {
    lr_mult: 2
  }
  inner_product_param {
    num_output: 64
    weight_filler {
      type: "gaussian"
      std: 0.1
    }
    bias_filler {
      type: "constant"
    }
  }
}
layer {
  name: "ip3"
  type: "InnerProduct"
  bottom: "ip2"
  top: "ip3"
  param {
    lr_mult: 1
  }
  param {
    lr_mult: 2
  }
  inner_product_param {
    num_output: 1
    weight_filler {
      type: "gaussian"
      std: 0.1
    }
    bias_filler {
      type: "constant"
    }
  }
}
layer {
  name: "loss"
  type: "HuberLoss"
  bottom: "ip3"
  bottom: "label"
  top: "loss"
  include {
    phase: TRAIN
  }
}
I0502 09:23:42.458823 21183 layer_factory.hpp:77] Creating layer parameters
I0502 09:23:42.458837 21183 net.cpp:94] Creating Layer parameters
I0502 09:23:42.458842 21183 net.cpp:409] parameters -> data
I0502 09:23:42.458850 21183 net.cpp:409] parameters -> label
I0502 09:23:42.458860 21183 hdf5_data_layer.cpp:79] Loading list of HDF5 filenames from: /home/purduethu/scratch/radon/d/deng106/CNNStatisticalModel/distributions/input/50_distributions_400_sample_size_train-parameters-path.txt
I0502 09:23:42.458874 21183 hdf5_data_layer.cpp:93] Number of HDF5 files: 1
I0502 09:23:42.459420 21183 hdf5.cpp:32] Datatype class: H5T_FLOAT
I0502 09:23:43.102952 21183 net.cpp:144] Setting up parameters
I0502 09:23:43.102984 21183 net.cpp:151] Top shape: 20 1 20 20 (8000)
I0502 09:23:43.102989 21183 net.cpp:151] Top shape: 20 (20)
I0502 09:23:43.102993 21183 net.cpp:159] Memory required for data: 32080
I0502 09:23:43.102998 21183 layer_factory.hpp:77] Creating layer conv1
I0502 09:23:43.103019 21183 net.cpp:94] Creating Layer conv1
I0502 09:23:43.103024 21183 net.cpp:435] conv1 <- data
I0502 09:23:43.103031 21183 net.cpp:409] conv1 -> conv1
I0502 09:23:43.108501 21183 net.cpp:144] Setting up conv1
I0502 09:23:43.108518 21183 net.cpp:151] Top shape: 20 64 20 20 (512000)
I0502 09:23:43.108522 21183 net.cpp:159] Memory required for data: 2080080
I0502 09:23:43.108531 21183 layer_factory.hpp:77] Creating layer relu1
I0502 09:23:43.108539 21183 net.cpp:94] Creating Layer relu1
I0502 09:23:43.108543 21183 net.cpp:435] relu1 <- conv1
I0502 09:23:43.108547 21183 net.cpp:396] relu1 -> conv1 (in-place)
I0502 09:23:43.108577 21183 net.cpp:144] Setting up relu1
I0502 09:23:43.108583 21183 net.cpp:151] Top shape: 20 64 20 20 (512000)
I0502 09:23:43.108587 21183 net.cpp:159] Memory required for data: 4128080
I0502 09:23:43.108589 21183 layer_factory.hpp:77] Creating layer conv2
I0502 09:23:43.108597 21183 net.cpp:94] Creating Layer conv2
I0502 09:23:43.108600 21183 net.cpp:435] conv2 <- conv1
I0502 09:23:43.108605 21183 net.cpp:409] conv2 -> conv2
I0502 09:23:43.121541 21183 net.cpp:144] Setting up conv2
I0502 09:23:43.121556 21183 net.cpp:151] Top shape: 20 64 20 20 (512000)
I0502 09:23:43.121559 21183 net.cpp:159] Memory required for data: 6176080
I0502 09:23:43.121567 21183 layer_factory.hpp:77] Creating layer relu2
I0502 09:23:43.121573 21183 net.cpp:94] Creating Layer relu2
I0502 09:23:43.121577 21183 net.cpp:435] relu2 <- conv2
I0502 09:23:43.121582 21183 net.cpp:396] relu2 -> conv2 (in-place)
I0502 09:23:43.121588 21183 net.cpp:144] Setting up relu2
I0502 09:23:43.121592 21183 net.cpp:151] Top shape: 20 64 20 20 (512000)
I0502 09:23:43.121595 21183 net.cpp:159] Memory required for data: 8224080
I0502 09:23:43.121598 21183 layer_factory.hpp:77] Creating layer pool2
I0502 09:23:43.121610 21183 net.cpp:94] Creating Layer pool2
I0502 09:23:43.121613 21183 net.cpp:435] pool2 <- conv2
I0502 09:23:43.121618 21183 net.cpp:409] pool2 -> pool2
I0502 09:23:43.121670 21183 net.cpp:144] Setting up pool2
I0502 09:23:43.121675 21183 net.cpp:151] Top shape: 20 64 10 10 (128000)
I0502 09:23:43.121678 21183 net.cpp:159] Memory required for data: 8736080
I0502 09:23:43.121682 21183 layer_factory.hpp:77] Creating layer conv3
I0502 09:23:43.121690 21183 net.cpp:94] Creating Layer conv3
I0502 09:23:43.121692 21183 net.cpp:435] conv3 <- pool2
I0502 09:23:43.121697 21183 net.cpp:409] conv3 -> conv3
I0502 09:23:43.127199 21183 net.cpp:144] Setting up conv3
I0502 09:23:43.127213 21183 net.cpp:151] Top shape: 20 64 10 10 (128000)
I0502 09:23:43.127216 21183 net.cpp:159] Memory required for data: 9248080
I0502 09:23:43.127224 21183 layer_factory.hpp:77] Creating layer relu3
I0502 09:23:43.127230 21183 net.cpp:94] Creating Layer relu3
I0502 09:23:43.127234 21183 net.cpp:435] relu3 <- conv3
I0502 09:23:43.127238 21183 net.cpp:396] relu3 -> conv3 (in-place)
I0502 09:23:43.127245 21183 net.cpp:144] Setting up relu3
I0502 09:23:43.127249 21183 net.cpp:151] Top shape: 20 64 10 10 (128000)
I0502 09:23:43.127252 21183 net.cpp:159] Memory required for data: 9760080
I0502 09:23:43.127255 21183 layer_factory.hpp:77] Creating layer conv4
I0502 09:23:43.127264 21183 net.cpp:94] Creating Layer conv4
I0502 09:23:43.127266 21183 net.cpp:435] conv4 <- conv3
I0502 09:23:43.127271 21183 net.cpp:409] conv4 -> conv4
I0502 09:23:43.132891 21183 net.cpp:144] Setting up conv4
I0502 09:23:43.132905 21183 net.cpp:151] Top shape: 20 64 10 10 (128000)
I0502 09:23:43.132908 21183 net.cpp:159] Memory required for data: 10272080
I0502 09:23:43.132915 21183 layer_factory.hpp:77] Creating layer relu4
I0502 09:23:43.132920 21183 net.cpp:94] Creating Layer relu4
I0502 09:23:43.132923 21183 net.cpp:435] relu4 <- conv4
I0502 09:23:43.132927 21183 net.cpp:396] relu4 -> conv4 (in-place)
I0502 09:23:43.132935 21183 net.cpp:144] Setting up relu4
I0502 09:23:43.132938 21183 net.cpp:151] Top shape: 20 64 10 10 (128000)
I0502 09:23:43.132941 21183 net.cpp:159] Memory required for data: 10784080
I0502 09:23:43.132944 21183 layer_factory.hpp:77] Creating layer conv5
I0502 09:23:43.132952 21183 net.cpp:94] Creating Layer conv5
I0502 09:23:43.132956 21183 net.cpp:435] conv5 <- conv4
I0502 09:23:43.132961 21183 net.cpp:409] conv5 -> conv5
I0502 09:23:43.138440 21183 net.cpp:144] Setting up conv5
I0502 09:23:43.138454 21183 net.cpp:151] Top shape: 20 64 10 10 (128000)
I0502 09:23:43.138458 21183 net.cpp:159] Memory required for data: 11296080
I0502 09:23:43.138465 21183 layer_factory.hpp:77] Creating layer relu5
I0502 09:23:43.138471 21183 net.cpp:94] Creating Layer relu5
I0502 09:23:43.138475 21183 net.cpp:435] relu5 <- conv5
I0502 09:23:43.138479 21183 net.cpp:396] relu5 -> conv5 (in-place)
I0502 09:23:43.138486 21183 net.cpp:144] Setting up relu5
I0502 09:23:43.138491 21183 net.cpp:151] Top shape: 20 64 10 10 (128000)
I0502 09:23:43.138494 21183 net.cpp:159] Memory required for data: 11808080
I0502 09:23:43.138496 21183 layer_factory.hpp:77] Creating layer pool5
I0502 09:23:43.138501 21183 net.cpp:94] Creating Layer pool5
I0502 09:23:43.138504 21183 net.cpp:435] pool5 <- conv5
I0502 09:23:43.138509 21183 net.cpp:409] pool5 -> pool5
I0502 09:23:43.138545 21183 net.cpp:144] Setting up pool5
I0502 09:23:43.138552 21183 net.cpp:151] Top shape: 20 64 5 5 (32000)
I0502 09:23:43.138556 21183 net.cpp:159] Memory required for data: 11936080
I0502 09:23:43.138558 21183 layer_factory.hpp:77] Creating layer ip1
I0502 09:23:43.138567 21183 net.cpp:94] Creating Layer ip1
I0502 09:23:43.138571 21183 net.cpp:435] ip1 <- pool5
I0502 09:23:43.138576 21183 net.cpp:409] ip1 -> ip1
I0502 09:23:43.141113 21183 net.cpp:144] Setting up ip1
I0502 09:23:43.141122 21183 net.cpp:151] Top shape: 20 64 (1280)
I0502 09:23:43.141125 21183 net.cpp:159] Memory required for data: 11941200
I0502 09:23:43.141130 21183 layer_factory.hpp:77] Creating layer ip2
I0502 09:23:43.141136 21183 net.cpp:94] Creating Layer ip2
I0502 09:23:43.141144 21183 net.cpp:435] ip2 <- ip1
I0502 09:23:43.141149 21183 net.cpp:409] ip2 -> ip2
I0502 09:23:43.141355 21183 net.cpp:144] Setting up ip2
I0502 09:23:43.141362 21183 net.cpp:151] Top shape: 20 64 (1280)
I0502 09:23:43.141366 21183 net.cpp:159] Memory required for data: 11946320
I0502 09:23:43.141371 21183 layer_factory.hpp:77] Creating layer ip3
I0502 09:23:43.141376 21183 net.cpp:94] Creating Layer ip3
I0502 09:23:43.141378 21183 net.cpp:435] ip3 <- ip2
I0502 09:23:43.141383 21183 net.cpp:409] ip3 -> ip3
I0502 09:23:43.141480 21183 net.cpp:144] Setting up ip3
I0502 09:23:43.141486 21183 net.cpp:151] Top shape: 20 1 (20)
I0502 09:23:43.141489 21183 net.cpp:159] Memory required for data: 11946400
I0502 09:23:43.141494 21183 layer_factory.hpp:77] Creating layer loss
I0502 09:23:43.141501 21183 net.cpp:94] Creating Layer loss
I0502 09:23:43.141505 21183 net.cpp:435] loss <- ip3
I0502 09:23:43.141507 21183 net.cpp:435] loss <- label
I0502 09:23:43.141512 21183 net.cpp:409] loss -> loss
I0502 09:23:43.141561 21183 net.cpp:144] Setting up loss
…
I0502 09:23:43.327138 21183 net.cpp:323] The NetState phase (0) differed from the phase (1) specified by a rule in layer intercept
I0502 09:23:43.327153 21183 net.cpp:323] The NetState phase (0) differed from the phase (1) specified by a rule in layer accuracy
I0502 09:23:43.327253 21183 net.cpp:52] Initializing net from parameters: 
state {
  phase: TRAIN
}
layer {
  name: "parameters"
  type: "HDF5Data"
  top: "data"
  top: "label"
  include {
    phase: TRAIN
  }
  hdf5_data_param {
    source: "/home/purduethu/scratch/radon/d/deng106/CNNStatisticalModel/distributions/input/50_distributions_400_sample_size_train-distributions-path.txt"
    batch_size: 20
  }
}
layer {
  name: "conv1"
  type: "Convolution"
  bottom: "data"
  top: "conv1"
  param {
    lr_mult: 1
  }
  param {
    lr_mult: 2
  }
  convolution_param {
    num_output: 64
    pad: 2
    kernel_size: 5
    stride: 1
    weight_filler {
      type: "gaussian"
      std: 0.0001
    }
    bias_filler {
      type: "constant"
    }
  }
}
layer {
  name: "relu1"
  type: "ReLU"
  bottom: "conv1"
  top: "conv1"
}
layer {
  name: "conv2"
  type: "Convolution"
  bottom: "conv1"
  top: "conv2"
  param {
    lr_mult: 1
  }
  param {
    lr_mult: 2
  }
  convolution_param {
    num_output: 64
    pad: 2
    kernel_size: 5
    stride: 1
    weight_filler {
      type: "gaussian"
      std: 0.01
    }
    bias_filler {
      type: "constant"
    }
  }
}
layer {
  name: "relu2"
  type: "ReLU"
  bottom: "conv2"
  top: "conv2"
}
layer {
  name: "pool2"
  type: "Pooling"
  bottom: "conv2"
  top: "pool2"
  pooling_param {
    pool: MAX
    kernel_size: 3
    stride: 2
  }
}
layer {
  name: "conv3"
  type: "Convolution"
  bottom: "pool2"
  top: "conv3"
  param {
    lr_mult: 1
  }
  param {
    lr_mult: 2
  }
  convolution_param {
    num_output: 64
    pad: 2
    kernel_size: 5
    stride: 1
    weight_filler {
      type: "gaussian"
      std: 0.01
    }
    bias_filler {
      type: "constant"
    }
  }
}
layer {
  name: "relu3"
  type: "ReLU"
  bottom: "conv3"
  top: "conv3"
}
layer {
  name: "conv4"
  type: "Convolution"
  bottom: "conv3"
  top: "conv4"
  param {
    lr_mult: 1
  }
  param {
    lr_mult: 2
  }
  convolution_param {
    num_output: 64
    pad: 2
    kernel_size: 5
    stride: 1
    weight_filler {
      type: "gaussian"
      std: 0.01
    }
    bias_filler {
      type: "constant"
    }
  }
}
layer {
  name: "relu4"
  type: "ReLU"
  bottom: "conv4"
  top: "conv4"
}
layer {
  name: "conv5"
  type: "Convolution"
  bottom: "conv4"
  top: "conv5"
  param {
    lr_mult: 1
  }
  param {
    lr_mult: 2
  }
  convolution_param {
    num_output: 64
    pad: 2
    kernel_size: 5
    stride: 1
    weight_filler {
      type: "gaussian"
      std: 0.01
    }
    bias_filler {
      type: "constant"
    }
  }
}
layer {
  name: "relu5"
  type: "ReLU"
  bottom: "conv5"
  top: "conv5"
}
layer {
  name: "pool5"
  type: "Pooling"
  bottom: "conv5"
  top: "pool5"
  pooling_param {
    pool: AVE
    kernel_size: 3
    stride: 2
  }
}
layer {
  name: "ip1"
  type: "InnerProduct"
  bottom: "pool5"
  top: "ip1"
  param {
    lr_mult: 1
  }
  param {
    lr_mult: 2
  }
  inner_product_param {
    num_output: 64
    weight_filler {
      type: "gaussian"
      std: 0.1
    }
    bias_filler {
      type: "constant"
    }
  }
}
layer {
  name: "ip2"
  type: "InnerProduct"
  bottom: "ip1"
  top: "ip2"
  param {
    lr_mult: 1
  }
  param {
    lr_mult: 2
  }
  inner_product_param {
    num_output: 64
    weight_filler {
      type: "gaussian"
      std: 0.1
    }
    bias_filler {
      type: "constant"
    }
  }
}
layer {
  name: "ip3"
  type: "InnerProduct"
  bottom: "ip2"
  top: "ip3"
  param {
    lr_mult: 1
  }
  param {
    lr_mult: 2
  }
  inner_product_param {
    num_output: 50
    weight_filler {
      type: "gaussian"
      std: 0.1
    }
    bias_filler {
      type: "constant"
    }
  }
}
layer {
  name: "loss"
  type: "SoftmaxWithLoss"
  bottom: "ip3"
  bottom: "label"
  top: "loss"
}
I0502 09:23:43.327306 21183 layer_factory.hpp:77] Creating layer parameters
I0502 09:23:43.327313 21183 net.cpp:94] Creating Layer parameters
I0502 09:23:43.327317 21183 net.cpp:409] parameters -> data
I0502 09:23:43.327324 21183 net.cpp:409] parameters -> label
I0502 09:23:43.327329 21183 hdf5_data_layer.cpp:79] Loading list of HDF5 filenames from: /home/purduethu/scratch/radon/d/deng106/CNNStatisticalModel/distributions/input/50_distributions_400_sample_size_train-distributions-path.txt
I0502 09:23:43.327345 21183 hdf5_data_layer.cpp:93] Number of HDF5 files: 1
I0502 09:23:43.971412 21183 hdf5.cpp:35] Datatype class: H5T_INTEGER
I0502 09:23:43.974589 21183 net.cpp:144] Setting up parameters
I0502 09:23:43.974607 21183 net.cpp:151] Top shape: 20 1 20 20 (8000)
I0502 09:23:43.974612 21183 net.cpp:151] Top shape: 20 (20)
I0502 09:23:43.974616 21183 net.cpp:159] Memory required for data: 32080
I0502 09:23:43.974622 21183 layer_factory.hpp:77] Creating layer conv1
I0502 09:23:43.974637 21183 net.cpp:94] Creating Layer conv1
I0502 09:23:43.974642 21183 net.cpp:435] conv1 <- data
I0502 09:23:43.974647 21183 net.cpp:409] conv1 -> conv1
I0502 09:23:43.977349 21183 net.cpp:144] Setting up conv1
I0502 09:23:43.977362 21183 net.cpp:151] Top shape: 20 64 20 20 (512000)
I0502 09:23:43.977366 21183 net.cpp:159] Memory required for data: 2080080
I0502 09:23:43.977376 21183 layer_factory.hpp:77] Creating layer relu1
I0502 09:23:43.977383 21183 net.cpp:94] Creating Layer relu1
I0502 09:23:43.977387 21183 net.cpp:435] relu1 <- conv1
I0502 09:23:43.977391 21183 net.cpp:396] relu1 -> conv1 (in-place)
I0502 09:23:43.977399 21183 net.cpp:144] Setting up relu1
I0502 09:23:43.977403 21183 net.cpp:151] Top shape: 20 64 20 20 (512000)
I0502 09:23:43.977406 21183 net.cpp:159] Memory required for data: 4128080
I0502 09:23:43.977408 21183 layer_factory.hpp:77] Creating layer conv2
I0502 09:23:43.977416 21183 net.cpp:94] Creating Layer conv2
I0502 09:23:43.977419 21183 net.cpp:435] conv2 <- conv1
I0502 09:23:43.977424 21183 net.cpp:409] conv2 -> conv2
I0502 09:23:43.987563 21183 net.cpp:144] Setting up conv2
I0502 09:23:43.987578 21183 net.cpp:151] Top shape: 20 64 20 20 (512000)
I0502 09:23:43.987582 21183 net.cpp:159] Memory required for data: 6176080
I0502 09:23:43.987591 21183 layer_factory.hpp:77] Creating layer relu2
I0502 09:23:43.987597 21183 net.cpp:94] Creating Layer relu2
I0502 09:23:43.987601 21183 net.cpp:435] relu2 <- conv2
I0502 09:23:43.987606 21183 net.cpp:396] relu2 -> conv2 (in-place)
I0502 09:23:43.987612 21183 net.cpp:144] Setting up relu2
I0502 09:23:43.987617 21183 net.cpp:151] Top shape: 20 64 20 20 (512000)
I0502 09:23:43.987619 21183 net.cpp:159] Memory required for data: 8224080
I0502 09:23:43.987622 21183 layer_factory.hpp:77] Creating layer pool2
I0502 09:23:43.987628 21183 net.cpp:94] Creating Layer pool2
I0502 09:23:43.987632 21183 net.cpp:435] pool2 <- conv2
I0502 09:23:43.987635 21183 net.cpp:409] pool2 -> pool2
I0502 09:23:43.987685 21183 net.cpp:144] Setting up pool2
I0502 09:23:43.987694 21183 net.cpp:151] Top shape: 20 64 10 10 (128000)
I0502 09:23:43.987696 21183 net.cpp:159] Memory required for data: 8736080
I0502 09:23:43.987699 21183 layer_factory.hpp:77] Creating layer conv3
I0502 09:23:43.987706 21183 net.cpp:94] Creating Layer conv3
I0502 09:23:43.987710 21183 net.cpp:435] conv3 <- pool2
I0502 09:23:43.987721 21183 net.cpp:409] conv3 -> conv3
I0502 09:23:43.993201 21183 net.cpp:144] Setting up conv3
I0502 09:23:43.993214 21183 net.cpp:151] Top shape: 20 64 10 10 (128000)
I0502 09:23:43.993218 21183 net.cpp:159] Memory required for data: 9248080
I0502 09:23:43.993227 21183 layer_factory.hpp:77] Creating layer relu3
I0502 09:23:43.993232 21183 net.cpp:94] Creating Layer relu3
I0502 09:23:43.993235 21183 net.cpp:435] relu3 <- conv3
I0502 09:23:43.993240 21183 net.cpp:396] relu3 -> conv3 (in-place)
I0502 09:23:43.993247 21183 net.cpp:144] Setting up relu3
I0502 09:23:43.993250 21183 net.cpp:151] Top shape: 20 64 10 10 (128000)
I0502 09:23:43.993253 21183 net.cpp:159] Memory required for data: 9760080
I0502 09:23:43.993257 21183 layer_factory.hpp:77] Creating layer conv4
I0502 09:23:43.993264 21183 net.cpp:94] Creating Layer conv4
I0502 09:23:43.993268 21183 net.cpp:435] conv4 <- conv3
I0502 09:23:43.993273 21183 net.cpp:409] conv4 -> conv4
I0502 09:23:43.998757 21183 net.cpp:144] Setting up conv4
I0502 09:23:43.998771 21183 net.cpp:151] Top shape: 20 64 10 10 (128000)
I0502 09:23:43.998775 21183 net.cpp:159] Memory required for data: 10272080
I0502 09:23:43.998781 21183 layer_factory.hpp:77] Creating layer relu4
I0502 09:23:43.998786 21183 net.cpp:94] Creating Layer relu4
I0502 09:23:43.998790 21183 net.cpp:435] relu4 <- conv4
I0502 09:23:43.998795 21183 net.cpp:396] relu4 -> conv4 (in-place)
I0502 09:23:43.998800 21183 net.cpp:144] Setting up relu4
I0502 09:23:43.998805 21183 net.cpp:151] Top shape: 20 64 10 10 (128000)
I0502 09:23:43.998808 21183 net.cpp:159] Memory required for data: 10784080
I0502 09:23:43.998811 21183 layer_factory.hpp:77] Creating layer conv5
I0502 09:23:43.998818 21183 net.cpp:94] Creating Layer conv5
I0502 09:23:43.998821 21183 net.cpp:435] conv5 <- conv4
I0502 09:23:43.998826 21183 net.cpp:409] conv5 -> conv5
I0502 09:23:44.004323 21183 net.cpp:144] Setting up conv5
I0502 09:23:44.004335 21183 net.cpp:151] Top shape: 20 64 10 10 (128000)
I0502 09:23:44.004339 21183 net.cpp:159] Memory required for data: 11296080
I0502 09:23:44.004348 21183 layer_factory.hpp:77] Creating layer relu5
I0502 09:23:44.004354 21183 net.cpp:94] Creating Layer relu5
I0502 09:23:44.004357 21183 net.cpp:435] relu5 <- conv5
I0502 09:23:44.004361 21183 net.cpp:396] relu5 -> conv5 (in-place)
I0502 09:23:44.004369 21183 net.cpp:144] Setting up relu5
I0502 09:23:44.004372 21183 net.cpp:151] Top shape: 20 64 10 10 (128000)
I0502 09:23:44.004375 21183 net.cpp:159] Memory required for data: 11808080
I0502 09:23:44.004379 21183 layer_factory.hpp:77] Creating layer pool5
I0502 09:23:44.004382 21183 net.cpp:94] Creating Layer pool5
I0502 09:23:44.004386 21183 net.cpp:435] pool5 <- conv5
I0502 09:23:44.004390 21183 net.cpp:409] pool5 -> pool5
I0502 09:23:44.004425 21183 net.cpp:144] Setting up pool5
I0502 09:23:44.004431 21183 net.cpp:151] Top shape: 20 64 5 5 (32000)
I0502 09:23:44.004434 21183 net.cpp:159] Memory required for data: 11936080
I0502 09:23:44.004437 21183 layer_factory.hpp:77] Creating layer ip1
I0502 09:23:44.004444 21183 net.cpp:94] Creating Layer ip1
I0502 09:23:44.004447 21183 net.cpp:435] ip1 <- pool5
I0502 09:23:44.004451 21183 net.cpp:409] ip1 -> ip1
I0502 09:23:44.007854 21183 net.cpp:144] Setting up ip1
I0502 09:23:44.007868 21183 net.cpp:151] Top shape: 20 64 (1280)
I0502 09:23:44.007871 21183 net.cpp:159] Memory required for data: 11941200
I0502 09:23:44.007877 21183 layer_factory.hpp:77] Creating layer ip2
I0502 09:23:44.007884 21183 net.cpp:94] Creating Layer ip2
I0502 09:23:44.007887 21183 net.cpp:435] ip2 <- ip1
I0502 09:23:44.007892 21183 net.cpp:409] ip2 -> ip2
I0502 09:23:44.008111 21183 net.cpp:144] Setting up ip2
I0502 09:23:44.008117 21183 net.cpp:151] Top shape: 20 64 (1280)
I0502 09:23:44.008121 21183 net.cpp:159] Memory required for data: 11946320
I0502 09:23:44.008126 21183 layer_factory.hpp:77] Creating layer ip3
I0502 09:23:44.008131 21183 net.cpp:94] Creating Layer ip3
I0502 09:23:44.008134 21183 net.cpp:435] ip3 <- ip2
I0502 09:23:44.008139 21183 net.cpp:409] ip3 -> ip3
I0502 09:23:44.008332 21183 net.cpp:144] Setting up ip3
I0502 09:23:44.008339 21183 net.cpp:151] Top shape: 20 50 (1000)
I0502 09:23:44.008342 21183 net.cpp:159] Memory required for data: 11950320
I0502 09:23:44.008347 21183 layer_factory.hpp:77] Creating layer loss
I0502 09:23:44.008354 21183 net.cpp:94] Creating Layer loss
I0502 09:23:44.008358 21183 net.cpp:435] loss <- ip3
I0502 09:23:44.008360 21183 net.cpp:435] loss <- label
I0502 09:23:44.008364 21183 net.cpp:409] loss -> loss
I0502 09:23:44.008371 21183 layer_factory.hpp:77] Creating layer loss
…
I0502 09:23:44.008893 21183 solver.cpp:181] Creating test net (#0) specified by net file: ./protocol/dis_50_400_dimension.protocol_distribution
I0502 09:23:44.008919 21183 net.cpp:323] The NetState phase (1) differed from the phase (0) specified by a rule in layer parameters
I0502 09:23:44.009017 21183 net.cpp:52] Initializing net from parameters: 
state {
  phase: TEST
}
layer {
  name: "intercept"
  type: "HDF5Data"
  top: "data"
  top: "label"
  include {
    phase: TEST
  }
  hdf5_data_param {
    source: "/home/purduethu/scratch/radon/d/deng106/CNNStatisticalModel/distributions/input/50_distributions_400_sample_size_test-distributions-path.txt"
    batch_size: 20
  }
}
layer {
  name: "conv1"
  type: "Convolution"
  bottom: "data"
  top: "conv1"
  param {
    lr_mult: 1
  }
  param {
    lr_mult: 2
  }
  convolution_param {
    num_output: 64
    pad: 2
    kernel_size: 5
    stride: 1
    weight_filler {
      type: "gaussian"
      std: 0.0001
    }
    bias_filler {
      type: "constant"
    }
  }
}
layer {
  name: "relu1"
  type: "ReLU"
  bottom: "conv1"
  top: "conv1"
}
layer {
  name: "conv2"
  type: "Convolution"
  bottom: "conv1"
  top: "conv2"
  param {
    lr_mult: 1
  }
  param {
    lr_mult: 2
  }
  convolution_param {
    num_output: 64
    pad: 2
    kernel_size: 5
    stride: 1
    weight_filler {
      type: "gaussian"
      std: 0.01
    }
    bias_filler {
      type: "constant"
    }
  }
}
layer {
  name: "relu2"
  type: "ReLU"
  bottom: "conv2"
  top: "conv2"
}
layer {
  name: "pool2"
  type: "Pooling"
  bottom: "conv2"
  top: "pool2"
  pooling_param {
    pool: MAX
    kernel_size: 3
    stride: 2
  }
}
layer {
  name: "conv3"
  type: "Convolution"
  bottom: "pool2"
  top: "conv3"
  param {
    lr_mult: 1
  }
  param {
    lr_mult: 2
  }
  convolution_param {
    num_output: 64
    pad: 2
    kernel_size: 5
    stride: 1
    weight_filler {
      type: "gaussian"
      std: 0.01
    }
    bias_filler {
      type: "constant"
    }
  }
}
layer {
  name: "relu3"
  type: "ReLU"
  bottom: "conv3"
  top: "conv3"
}
layer {
  name: "conv4"
  type: "Convolution"
  bottom: "conv3"
  top: "conv4"
  param {
    lr_mult: 1
  }
  param {
    lr_mult: 2
  }
  convolution_param {
    num_output: 64
    pad: 2
    kernel_size: 5
    stride: 1
    weight_filler {
      type: "gaussian"
      std: 0.01
    }
    bias_filler {
      type: "constant"
    }
  }
}
layer {
  name: "relu4"
  type: "ReLU"
  bottom: "conv4"
  top: "conv4"
}
layer {
  name: "conv5"
  type: "Convolution"
  bottom: "conv4"
  top: "conv5"
  param {
    lr_mult: 1
  }
  param {
    lr_mult: 2
  }
  convolution_param {
    num_output: 64
    pad: 2
    kernel_size: 5
    stride: 1
    weight_filler {
      type: "gaussian"
      std: 0.01
    }
    bias_filler {
      type: "constant"
    }
  }
}
layer {
  name: "relu5"
  type: "ReLU"
  bottom: "conv5"
  top: "conv5"
}
layer {
  name: "pool5"
  type: "Pooling"
  bottom: "conv5"
  top: "pool5"
  pooling_param {
    pool: AVE
    kernel_size: 3
    stride: 2
  }
}
layer {
  name: "ip1"
  type: "InnerProduct"
  bottom: "pool5"
  top: "ip1"
  param {
    lr_mult: 1
  }
  param {
    lr_mult: 2
  }
  inner_product_param {
    num_output: 64
    weight_filler {
      type: "gaussian"
      std: 0.1
    }
    bias_filler {
      type: "constant"
    }
  }
}
layer {
  name: "ip2"
  type: "InnerProduct"
  bottom: "ip1"
  top: "ip2"
  param {
    lr_mult: 1
  }
  param {
    lr_mult: 2
  }
  inner_product_param {
    num_output: 64
    weight_filler {
      type: "gaussian"
      std: 0.1
    }
    bias_filler {
      type: "constant"
    }
  }
}
layer {
  name: "ip3"
  type: "InnerProduct"
  bottom: "ip2"
  top: "ip3"
  param {
    lr_mult: 1
  }
  param {
    lr_mult: 2
  }
  inner_product_param {
    num_output: 50
    weight_filler {
      type: "gaussian"
      std: 0.1
    }
    bias_filler {
      type: "constant"
    }
  }
}
layer {
  name: "accuracy"
  type: "Accuracy"
  bottom: "ip3"
  bottom: "label"
  top: "accuracy"
  include {
    phase: TEST
  }
}
layer {
  name: "loss"
  type: "SoftmaxWithLoss"
  bottom: "ip3"
  bottom: "label"
  top: "loss"
}
I0502 09:23:44.009083 21183 layer_factory.hpp:77] Creating layer intercept
I0502 09:23:44.009090 21183 net.cpp:94] Creating Layer intercept
I0502 09:23:44.009094 21183 net.cpp:409] intercept -> data
I0502 09:23:44.009101 21183 net.cpp:409] intercept -> label
I0502 09:23:44.009107 21183 hdf5_data_layer.cpp:79] Loading list of HDF5 filenames from: /home/purduethu/scratch/radon/d/deng106/CNNStatisticalModel/distributions/input/50_distributions_400_sample_size_test-distributions-path.txt
I0502 09:23:44.009126 21183 hdf5_data_layer.cpp:93] Number of HDF5 files: 1
I0502 09:23:44.173972 21183 net.cpp:144] Setting up intercept
I0502 09:23:44.174005 21183 net.cpp:151] Top shape: 20 1 20 20 (8000)
I0502 09:23:44.174010 21183 net.cpp:151] Top shape: 20 (20)
I0502 09:23:44.174013 21183 net.cpp:159] Memory required for data: 32080
I0502 09:23:44.174019 21183 layer_factory.hpp:77] Creating layer label_intercept_1_split
I0502 09:23:44.174038 21183 net.cpp:94] Creating Layer label_intercept_1_split
I0502 09:23:44.174043 21183 net.cpp:435] label_intercept_1_split <- label
I0502 09:23:44.174051 21183 net.cpp:409] label_intercept_1_split -> label_intercept_1_split_0
I0502 09:23:44.174058 21183 net.cpp:409] label_intercept_1_split -> label_intercept_1_split_1
I0502 09:23:44.174099 21183 net.cpp:144] Setting up label_intercept_1_split
I0502 09:23:44.174105 21183 net.cpp:151] Top shape: 20 (20)
I0502 09:23:44.174109 21183 net.cpp:151] Top shape: 20 (20)
I0502 09:23:44.174111 21183 net.cpp:159] Memory required for data: 32240
I0502 09:23:44.174115 21183 layer_factory.hpp:77] Creating layer conv1
I0502 09:23:44.174125 21183 net.cpp:94] Creating Layer conv1
I0502 09:23:44.174129 21183 net.cpp:435] conv1 <- data
I0502 09:23:44.174134 21183 net.cpp:409] conv1 -> conv1
I0502 09:23:44.175457 21183 net.cpp:144] Setting up conv1
I0502 09:23:44.175475 21183 net.cpp:151] Top shape: 20 64 20 20 (512000)
I0502 09:23:44.175479 21183 net.cpp:159] Memory required for data: 2080240
I0502 09:23:44.175489 21183 layer_factory.hpp:77] Creating layer relu1
I0502 09:23:44.175496 21183 net.cpp:94] Creating Layer relu1
I0502 09:23:44.175499 21183 net.cpp:435] relu1 <- conv1
I0502 09:23:44.175503 21183 net.cpp:396] relu1 -> conv1 (in-place)
I0502 09:23:44.175510 21183 net.cpp:144] Setting up relu1
I0502 09:23:44.175514 21183 net.cpp:151] Top shape: 20 64 20 20 (512000)
I0502 09:23:44.175516 21183 net.cpp:159] Memory required for data: 4128240
I0502 09:23:44.175519 21183 layer_factory.hpp:77] Creating layer conv2
I0502 09:23:44.175528 21183 net.cpp:94] Creating Layer conv2
I0502 09:23:44.175530 21183 net.cpp:435] conv2 <- conv1
I0502 09:23:44.175535 21183 net.cpp:409] conv2 -> conv2
I0502 09:23:44.180604 21183 net.cpp:144] Setting up conv2
I0502 09:23:44.180619 21183 net.cpp:151] Top shape: 20 64 20 20 (512000)
I0502 09:23:44.180621 21183 net.cpp:159] Memory required for data: 6176240
I0502 09:23:44.180629 21183 layer_factory.hpp:77] Creating layer relu2
I0502 09:23:44.180635 21183 net.cpp:94] Creating Layer relu2
I0502 09:23:44.180639 21183 net.cpp:435] relu2 <- conv2
I0502 09:23:44.180644 21183 net.cpp:396] relu2 -> conv2 (in-place)
I0502 09:23:44.180649 21183 net.cpp:144] Setting up relu2
I0502 09:23:44.180654 21183 net.cpp:151] Top shape: 20 64 20 20 (512000)
I0502 09:23:44.180656 21183 net.cpp:159] Memory required for data: 8224240
I0502 09:23:44.180660 21183 layer_factory.hpp:77] Creating layer pool2
I0502 09:23:44.180665 21183 net.cpp:94] Creating Layer pool2
I0502 09:23:44.180667 21183 net.cpp:435] pool2 <- conv2
I0502 09:23:44.180673 21183 net.cpp:409] pool2 -> pool2
I0502 09:23:44.180726 21183 net.cpp:144] Setting up pool2
I0502 09:23:44.180732 21183 net.cpp:151] Top shape: 20 64 10 10 (128000)
I0502 09:23:44.180735 21183 net.cpp:159] Memory required for data: 8736240
I0502 09:23:44.180738 21183 layer_factory.hpp:77] Creating layer conv3
I0502 09:23:44.180748 21183 net.cpp:94] Creating Layer conv3
I0502 09:23:44.180752 21183 net.cpp:435] conv3 <- pool2
I0502 09:23:44.180757 21183 net.cpp:409] conv3 -> conv3
I0502 09:23:44.184722 21183 net.cpp:144] Setting up conv3
I0502 09:23:44.184736 21183 net.cpp:151] Top shape: 20 64 10 10 (128000)
I0502 09:23:44.184739 21183 net.cpp:159] Memory required for data: 9248240
I0502 09:23:44.184747 21183 layer_factory.hpp:77] Creating layer relu3
I0502 09:23:44.184754 21183 net.cpp:94] Creating Layer relu3
I0502 09:23:44.184758 21183 net.cpp:435] relu3 <- conv3
I0502 09:23:44.184762 21183 net.cpp:396] relu3 -> conv3 (in-place)
I0502 09:23:44.184769 21183 net.cpp:144] Setting up relu3
I0502 09:23:44.184774 21183 net.cpp:151] Top shape: 20 64 10 10 (128000)
I0502 09:23:44.184777 21183 net.cpp:159] Memory required for data: 9760240
I0502 09:23:44.184780 21183 layer_factory.hpp:77] Creating layer conv4
I0502 09:23:44.184787 21183 net.cpp:94] Creating Layer conv4
I0502 09:23:44.184792 21183 net.cpp:435] conv4 <- conv3
I0502 09:23:44.184797 21183 net.cpp:409] conv4 -> conv4
I0502 09:23:44.188375 21183 net.cpp:144] Setting up conv4
I0502 09:23:44.188387 21183 net.cpp:151] Top shape: 20 64 10 10 (128000)
I0502 09:23:44.188391 21183 net.cpp:159] Memory required for data: 10272240
I0502 09:23:44.188396 21183 layer_factory.hpp:77] Creating layer relu4
I0502 09:23:44.188403 21183 net.cpp:94] Creating Layer relu4
I0502 09:23:44.188407 21183 net.cpp:435] relu4 <- conv4
I0502 09:23:44.188411 21183 net.cpp:396] relu4 -> conv4 (in-place)
I0502 09:23:44.188418 21183 net.cpp:144] Setting up relu4
I0502 09:23:44.188422 21183 net.cpp:151] Top shape: 20 64 10 10 (128000)
I0502 09:23:44.188426 21183 net.cpp:159] Memory required for data: 10784240
I0502 09:23:44.188428 21183 layer_factory.hpp:77] Creating layer conv5
I0502 09:23:44.188436 21183 net.cpp:94] Creating Layer conv5
I0502 09:23:44.188438 21183 net.cpp:435] conv5 <- conv4
I0502 09:23:44.188443 21183 net.cpp:409] conv5 -> conv5
I0502 09:23:44.193364 21183 net.cpp:144] Setting up conv5
I0502 09:23:44.193383 21183 net.cpp:151] Top shape: 20 64 10 10 (128000)
I0502 09:23:44.193387 21183 net.cpp:159] Memory required for data: 11296240
I0502 09:23:44.193397 21183 layer_factory.hpp:77] Creating layer relu5
I0502 09:23:44.193401 21183 net.cpp:94] Creating Layer relu5
I0502 09:23:44.193404 21183 net.cpp:435] relu5 <- conv5
I0502 09:23:44.193410 21183 net.cpp:396] relu5 -> conv5 (in-place)
I0502 09:23:44.193416 21183 net.cpp:144] Setting up relu5
I0502 09:23:44.193421 21183 net.cpp:151] Top shape: 20 64 10 10 (128000)
I0502 09:23:44.193423 21183 net.cpp:159] Memory required for data: 11808240
I0502 09:23:44.193428 21183 layer_factory.hpp:77] Creating layer pool5
I0502 09:23:44.193431 21183 net.cpp:94] Creating Layer pool5
I0502 09:23:44.193434 21183 net.cpp:435] pool5 <- conv5
I0502 09:23:44.193441 21183 net.cpp:409] pool5 -> pool5
I0502 09:23:44.193477 21183 net.cpp:144] Setting up pool5
I0502 09:23:44.193485 21183 net.cpp:151] Top shape: 20 64 5 5 (32000)
I0502 09:23:44.193487 21183 net.cpp:159] Memory required for data: 11936240
I0502 09:23:44.193490 21183 layer_factory.hpp:77] Creating layer ip1
I0502 09:23:44.193496 21183 net.cpp:94] Creating Layer ip1
I0502 09:23:44.193500 21183 net.cpp:435] ip1 <- pool5
I0502 09:23:44.193505 21183 net.cpp:409] ip1 -> ip1
I0502 09:23:44.196195 21183 net.cpp:144] Setting up ip1
I0502 09:23:44.196203 21183 net.cpp:151] Top shape: 20 64 (1280)
I0502 09:23:44.196207 21183 net.cpp:159] Memory required for data: 11941360
I0502 09:23:44.196211 21183 layer_factory.hpp:77] Creating layer ip2
I0502 09:23:44.196218 21183 net.cpp:94] Creating Layer ip2
I0502 09:23:44.196221 21183 net.cpp:435] ip2 <- ip1
I0502 09:23:44.196226 21183 net.cpp:409] ip2 -> ip2
I0502 09:23:44.196460 21183 net.cpp:144] Setting up ip2
I0502 09:23:44.196467 21183 net.cpp:151] Top shape: 20 64 (1280)
I0502 09:23:44.196470 21183 net.cpp:159] Memory required for data: 11946480
I0502 09:23:44.196475 21183 layer_factory.hpp:77] Creating layer ip3
I0502 09:23:44.196482 21183 net.cpp:94] Creating Layer ip3
I0502 09:23:44.196485 21183 net.cpp:435] ip3 <- ip2
I0502 09:23:44.196491 21183 net.cpp:409] ip3 -> ip3
I0502 09:23:44.196703 21183 net.cpp:144] Setting up ip3
I0502 09:23:44.196712 21183 net.cpp:151] Top shape: 20 50 (1000)
I0502 09:23:44.196714 21183 net.cpp:159] Memory required for data: 11950480
I0502 09:23:44.196719 21183 layer_factory.hpp:77] Creating layer ip3_ip3_0_split
I0502 09:23:44.196724 21183 net.cpp:94] Creating Layer ip3_ip3_0_split
I0502 09:23:44.196727 21183 net.cpp:435] ip3_ip3_0_split <- ip3
I0502 09:23:44.196732 21183 net.cpp:409] ip3_ip3_0_split -> ip3_ip3_0_split_0
I0502 09:23:44.196738 21183 net.cpp:409] ip3_ip3_0_split -> ip3_ip3_0_split_1
I0502 09:23:44.196777 21183 net.cpp:144] Setting up ip3_ip3_0_split
I0502 09:23:44.196784 21183 net.cpp:151] Top shape: 20 50 (1000)
I0502 09:23:44.196787 21183 net.cpp:151] Top shape: 20 50 (1000)
I0502 09:23:44.196789 21183 net.cpp:159] Memory required for data: 11958480
I0502 09:23:44.196792 21183 layer_factory.hpp:77] Creating layer accuracy
I0502 09:23:44.196799 21183 net.cpp:94] Creating Layer accuracy
I0502 09:23:44.196801 21183 net.cpp:435] accuracy <- ip3_ip3_0_split_0
I0502 09:23:44.196805 21183 net.cpp:435] accuracy <- label_intercept_1_split_0
I0502 09:23:44.196810 21183 net.cpp:409] accuracy -> accuracy
…
