…
I0505 02:03:29.719638  2047 net.cpp:323] The NetState phase (0) differed from the phase (1) specified by a rule in layer intercept
I0505 02:03:29.719652  2047 net.cpp:323] The NetState phase (0) differed from the phase (1) specified by a rule in layer accuracy
I0505 02:03:29.719733  2047 net.cpp:52] Initializing net from parameters: 
state {
  phase: TRAIN
}
layer {
  name: "parameters"
  type: "HDF5Data"
  top: "data"
  top: "label"
  include {
    phase: TRAIN
  }
  hdf5_data_param {
    source: "/home/purduethu/scratch/radon/d/deng106/CNNStatisticalModel/distributions/input/20_distributions_100_sample_size_train-distributions-path.txt"
    batch_size: 20
  }
}
layer {
  name: "conv1"
  type: "Convolution"
  bottom: "data"
  top: "conv1"
  param {
    lr_mult: 1
  }
  param {
    lr_mult: 2
  }
  convolution_param {
    num_output: 64
    pad: 2
    kernel_size: 5
    stride: 1
    weight_filler {
      type: "gaussian"
      std: 0.0001
    }
    bias_filler {
      type: "constant"
    }
  }
}
layer {
  name: "relu1"
  type: "ReLU"
  bottom: "conv1"
  top: "conv1"
}
layer {
  name: "pool1"
  type: "Pooling"
  bottom: "conv1"
  top: "pool1"
  pooling_param {
    pool: MAX
    kernel_size: 3
    stride: 2
  }
}
layer {
  name: "conv2"
  type: "Convolution"
  bottom: "pool1"
  top: "conv2"
  param {
    lr_mult: 1
  }
  param {
    lr_mult: 2
  }
  convolution_param {
    num_output: 128
    pad: 2
    kernel_size: 5
    stride: 1
    weight_filler {
      type: "gaussian"
      std: 0.01
    }
    bias_filler {
      type: "constant"
    }
  }
}
layer {
  name: "relu2"
  type: "ReLU"
  bottom: "conv2"
  top: "conv2"
}
layer {
  name: "conv3"
  type: "Convolution"
  bottom: "conv2"
  top: "conv3"
  param {
    lr_mult: 1
  }
  param {
    lr_mult: 2
  }
  convolution_param {
    num_output: 128
    pad: 2
    kernel_size: 5
    stride: 1
    weight_filler {
      type: "gaussian"
      std: 0.01
    }
    bias_filler {
      type: "constant"
    }
  }
}
layer {
  name: "relu3"
  type: "ReLU"
  bottom: "conv3"
  top: "conv3"
}
layer {
  name: "pool3"
  type: "Pooling"
  bottom: "conv3"
  top: "pool3"
  pooling_param {
    pool: AVE
    kernel_size: 3
    stride: 2
  }
}
layer {
  name: "ip1"
  type: "InnerProduct"
  bottom: "pool3"
  top: "ip1"
  param {
    lr_mult: 1
  }
  param {
    lr_mult: 2
  }
  inner_product_param {
    num_output: 512
    weight_filler {
      type: "gaussian"
      std: 0.1
    }
    bias_filler {
      type: "constant"
    }
  }
}
layer {
  name: "ip2"
  type: "InnerProduct"
  bottom: "ip1"
  top: "ip2"
  param {
    lr_mult: 1
  }
  param {
    lr_mult: 2
  }
  inner_product_param {
    num_output: 256
    weight_filler {
      type: "gaussian"
      std: 0.1
    }
    bias_filler {
      type: "constant"
    }
  }
}
layer {
  name: "ip3"
  type: "InnerProduct"
  bottom: "ip2"
  top: "ip3"
  param {
    lr_mult: 1
  }
  param {
    lr_mult: 2
  }
  inner_product_param {
    num_output: 50
    weight_filler {
      type: "gaussian"
      std: 0.1
    }
    bias_filler {
      type: "constant"
    }
  }
}
layer {
  name: "loss"
  type: "SoftmaxWithLoss"
  bottom: "ip3"
  bottom: "label"
  top: "loss"
}
I0505 02:03:29.719796  2047 layer_factory.hpp:77] Creating layer parameters
I0505 02:03:29.719810  2047 net.cpp:94] Creating Layer parameters
I0505 02:03:29.719825  2047 net.cpp:409] parameters -> data
I0505 02:03:29.719844  2047 net.cpp:409] parameters -> label
I0505 02:03:29.719854  2047 hdf5_data_layer.cpp:79] Loading list of HDF5 filenames from: /home/purduethu/scratch/radon/d/deng106/CNNStatisticalModel/distributions/input/20_distributions_100_sample_size_train-distributions-path.txt
I0505 02:03:29.719877  2047 hdf5_data_layer.cpp:93] Number of HDF5 files: 1
I0505 02:03:29.720446  2047 hdf5.cpp:32] Datatype class: H5T_FLOAT
I0505 02:03:29.785353  2047 hdf5.cpp:35] Datatype class: H5T_INTEGER
I0505 02:03:29.787070  2047 net.cpp:144] Setting up parameters
I0505 02:03:29.787089  2047 net.cpp:151] Top shape: 20 1 10 10 (2000)
I0505 02:03:29.787096  2047 net.cpp:151] Top shape: 20 (20)
I0505 02:03:29.787099  2047 net.cpp:159] Memory required for data: 8080
I0505 02:03:29.787106  2047 layer_factory.hpp:77] Creating layer conv1
I0505 02:03:29.787130  2047 net.cpp:94] Creating Layer conv1
I0505 02:03:29.787137  2047 net.cpp:435] conv1 <- data
I0505 02:03:29.787147  2047 net.cpp:409] conv1 -> conv1
I0505 02:03:29.791059  2047 net.cpp:144] Setting up conv1
I0505 02:03:29.791074  2047 net.cpp:151] Top shape: 20 64 10 10 (128000)
I0505 02:03:29.791079  2047 net.cpp:159] Memory required for data: 520080
I0505 02:03:29.791090  2047 layer_factory.hpp:77] Creating layer relu1
I0505 02:03:29.791098  2047 net.cpp:94] Creating Layer relu1
I0505 02:03:29.791102  2047 net.cpp:435] relu1 <- conv1
I0505 02:03:29.791107  2047 net.cpp:396] relu1 -> conv1 (in-place)
I0505 02:03:29.791123  2047 net.cpp:144] Setting up relu1
I0505 02:03:29.791128  2047 net.cpp:151] Top shape: 20 64 10 10 (128000)
I0505 02:03:29.791132  2047 net.cpp:159] Memory required for data: 1032080
I0505 02:03:29.791136  2047 layer_factory.hpp:77] Creating layer pool1
I0505 02:03:29.791142  2047 net.cpp:94] Creating Layer pool1
I0505 02:03:29.791146  2047 net.cpp:435] pool1 <- conv1
I0505 02:03:29.791151  2047 net.cpp:409] pool1 -> pool1
I0505 02:03:29.791195  2047 net.cpp:144] Setting up pool1
I0505 02:03:29.791203  2047 net.cpp:151] Top shape: 20 64 5 5 (32000)
I0505 02:03:29.791206  2047 net.cpp:159] Memory required for data: 1160080
I0505 02:03:29.791209  2047 layer_factory.hpp:77] Creating layer conv2
I0505 02:03:29.791218  2047 net.cpp:94] Creating Layer conv2
I0505 02:03:29.791223  2047 net.cpp:435] conv2 <- pool1
I0505 02:03:29.791227  2047 net.cpp:409] conv2 -> conv2
I0505 02:03:29.799383  2047 net.cpp:144] Setting up conv2
I0505 02:03:29.799398  2047 net.cpp:151] Top shape: 20 128 5 5 (64000)
I0505 02:03:29.799402  2047 net.cpp:159] Memory required for data: 1416080
I0505 02:03:29.799410  2047 layer_factory.hpp:77] Creating layer relu2
I0505 02:03:29.799417  2047 net.cpp:94] Creating Layer relu2
I0505 02:03:29.799420  2047 net.cpp:435] relu2 <- conv2
I0505 02:03:29.799425  2047 net.cpp:396] relu2 -> conv2 (in-place)
I0505 02:03:29.799432  2047 net.cpp:144] Setting up relu2
I0505 02:03:29.799437  2047 net.cpp:151] Top shape: 20 128 5 5 (64000)
I0505 02:03:29.799441  2047 net.cpp:159] Memory required for data: 1672080
I0505 02:03:29.799444  2047 layer_factory.hpp:77] Creating layer conv3
I0505 02:03:29.799453  2047 net.cpp:94] Creating Layer conv3
I0505 02:03:29.799455  2047 net.cpp:435] conv3 <- conv2
I0505 02:03:29.799460  2047 net.cpp:409] conv3 -> conv3
I0505 02:03:29.814256  2047 net.cpp:144] Setting up conv3
I0505 02:03:29.814272  2047 net.cpp:151] Top shape: 20 128 5 5 (64000)
I0505 02:03:29.814276  2047 net.cpp:159] Memory required for data: 1928080
I0505 02:03:29.814285  2047 layer_factory.hpp:77] Creating layer relu3
I0505 02:03:29.814298  2047 net.cpp:94] Creating Layer relu3
I0505 02:03:29.814303  2047 net.cpp:435] relu3 <- conv3
I0505 02:03:29.814308  2047 net.cpp:396] relu3 -> conv3 (in-place)
I0505 02:03:29.814316  2047 net.cpp:144] Setting up relu3
I0505 02:03:29.814321  2047 net.cpp:151] Top shape: 20 128 5 5 (64000)
I0505 02:03:29.814324  2047 net.cpp:159] Memory required for data: 2184080
I0505 02:03:29.814327  2047 layer_factory.hpp:77] Creating layer pool3
I0505 02:03:29.814333  2047 net.cpp:94] Creating Layer pool3
I0505 02:03:29.814344  2047 net.cpp:435] pool3 <- conv3
I0505 02:03:29.814349  2047 net.cpp:409] pool3 -> pool3
I0505 02:03:29.814383  2047 net.cpp:144] Setting up pool3
I0505 02:03:29.814391  2047 net.cpp:151] Top shape: 20 128 2 2 (10240)
I0505 02:03:29.814394  2047 net.cpp:159] Memory required for data: 2225040
I0505 02:03:29.814398  2047 layer_factory.hpp:77] Creating layer ip1
I0505 02:03:29.814407  2047 net.cpp:94] Creating Layer ip1
I0505 02:03:29.814411  2047 net.cpp:435] ip1 <- pool3
I0505 02:03:29.814416  2047 net.cpp:409] ip1 -> ip1
I0505 02:03:29.822139  2047 net.cpp:144] Setting up ip1
I0505 02:03:29.822154  2047 net.cpp:151] Top shape: 20 512 (10240)
I0505 02:03:29.822158  2047 net.cpp:159] Memory required for data: 2266000
I0505 02:03:29.822165  2047 layer_factory.hpp:77] Creating layer ip2
I0505 02:03:29.822172  2047 net.cpp:94] Creating Layer ip2
I0505 02:03:29.822176  2047 net.cpp:435] ip2 <- ip1
I0505 02:03:29.822181  2047 net.cpp:409] ip2 -> ip2
I0505 02:03:29.825435  2047 net.cpp:144] Setting up ip2
I0505 02:03:29.825445  2047 net.cpp:151] Top shape: 20 256 (5120)
I0505 02:03:29.825449  2047 net.cpp:159] Memory required for data: 2286480
I0505 02:03:29.825456  2047 layer_factory.hpp:77] Creating layer ip3
I0505 02:03:29.825464  2047 net.cpp:94] Creating Layer ip3
I0505 02:03:29.825466  2047 net.cpp:435] ip3 <- ip2
I0505 02:03:29.825472  2047 net.cpp:409] ip3 -> ip3
I0505 02:03:29.826503  2047 net.cpp:144] Setting up ip3
I0505 02:03:29.826515  2047 net.cpp:151] Top shape: 20 50 (1000)
I0505 02:03:29.826520  2047 net.cpp:159] Memory required for data: 2290480
I0505 02:03:29.826526  2047 layer_factory.hpp:77] Creating layer loss
I0505 02:03:29.826532  2047 net.cpp:94] Creating Layer loss
I0505 02:03:29.826536  2047 net.cpp:435] loss <- ip3
I0505 02:03:29.826540  2047 net.cpp:435] loss <- label
I0505 02:03:29.826547  2047 net.cpp:409] loss -> loss
I0505 02:03:29.826557  2047 layer_factory.hpp:77] Creating layer loss
…
I0505 02:03:29.826987  2047 solver.cpp:181] Creating test net (#0) specified by net file: ./protocol/dis_20_100_dimension.protocol_distribution
I0505 02:03:29.827010  2047 net.cpp:323] The NetState phase (1) differed from the phase (0) specified by a rule in layer parameters
I0505 02:03:29.827101  2047 net.cpp:52] Initializing net from parameters: 
state {
  phase: TEST
}
layer {
  name: "intercept"
  type: "HDF5Data"
  top: "data"
  top: "label"
  include {
    phase: TEST
  }
  hdf5_data_param {
    source: "/home/purduethu/scratch/radon/d/deng106/CNNStatisticalModel/distributions/input/20_distributions_100_sample_size_test-distributions-path.txt"
    batch_size: 20
  }
}
layer {
  name: "conv1"
  type: "Convolution"
  bottom: "data"
  top: "conv1"
  param {
    lr_mult: 1
  }
  param {
    lr_mult: 2
  }
  convolution_param {
    num_output: 64
    pad: 2
    kernel_size: 5
    stride: 1
    weight_filler {
      type: "gaussian"
      std: 0.0001
    }
    bias_filler {
      type: "constant"
    }
  }
}
layer {
  name: "relu1"
  type: "ReLU"
  bottom: "conv1"
  top: "conv1"
}
layer {
  name: "pool1"
  type: "Pooling"
  bottom: "conv1"
  top: "pool1"
  pooling_param {
    pool: MAX
    kernel_size: 3
    stride: 2
  }
}
layer {
  name: "conv2"
  type: "Convolution"
  bottom: "pool1"
  top: "conv2"
  param {
    lr_mult: 1
  }
  param {
    lr_mult: 2
  }
  convolution_param {
    num_output: 128
    pad: 2
    kernel_size: 5
    stride: 1
    weight_filler {
      type: "gaussian"
      std: 0.01
    }
    bias_filler {
      type: "constant"
    }
  }
}
layer {
  name: "relu2"
  type: "ReLU"
  bottom: "conv2"
  top: "conv2"
}
layer {
  name: "conv3"
  type: "Convolution"
  bottom: "conv2"
  top: "conv3"
  param {
    lr_mult: 1
  }
  param {
    lr_mult: 2
  }
  convolution_param {
    num_output: 128
    pad: 2
    kernel_size: 5
    stride: 1
    weight_filler {
      type: "gaussian"
      std: 0.01
    }
    bias_filler {
      type: "constant"
    }
  }
}
layer {
  name: "relu3"
  type: "ReLU"
  bottom: "conv3"
  top: "conv3"
}
layer {
  name: "pool3"
  type: "Pooling"
  bottom: "conv3"
  top: "pool3"
  pooling_param {
    pool: AVE
    kernel_size: 3
    stride: 2
  }
}
layer {
  name: "ip1"
  type: "InnerProduct"
  bottom: "pool3"
  top: "ip1"
  param {
    lr_mult: 1
  }
  param {
    lr_mult: 2
  }
  inner_product_param {
    num_output: 512
    weight_filler {
      type: "gaussian"
      std: 0.1
    }
    bias_filler {
      type: "constant"
    }
  }
}
layer {
  name: "ip2"
  type: "InnerProduct"
  bottom: "ip1"
  top: "ip2"
  param {
    lr_mult: 1
  }
  param {
    lr_mult: 2
  }
  inner_product_param {
    num_output: 256
    weight_filler {
      type: "gaussian"
      std: 0.1
    }
    bias_filler {
      type: "constant"
    }
  }
}
layer {
  name: "ip3"
  type: "InnerProduct"
  bottom: "ip2"
  top: "ip3"
  param {
    lr_mult: 1
  }
  param {
    lr_mult: 2
  }
  inner_product_param {
    num_output: 50
    weight_filler {
      type: "gaussian"
      std: 0.1
    }
    bias_filler {
      type: "constant"
    }
  }
}
layer {
  name: "accuracy"
  type: "Accuracy"
  bottom: "ip3"
  bottom: "label"
  top: "accuracy"
  include {
    phase: TEST
  }
}
layer {
  name: "loss"
  type: "SoftmaxWithLoss"
  bottom: "ip3"
  bottom: "label"
  top: "loss"
}
I0505 02:03:29.827165  2047 layer_factory.hpp:77] Creating layer intercept
I0505 02:03:29.827174  2047 net.cpp:94] Creating Layer intercept
I0505 02:03:29.827179  2047 net.cpp:409] intercept -> data
I0505 02:03:29.827186  2047 net.cpp:409] intercept -> label
I0505 02:03:29.827193  2047 hdf5_data_layer.cpp:79] Loading list of HDF5 filenames from: /home/purduethu/scratch/radon/d/deng106/CNNStatisticalModel/distributions/input/20_distributions_100_sample_size_test-distributions-path.txt
I0505 02:03:29.827213  2047 hdf5_data_layer.cpp:93] Number of HDF5 files: 1
I0505 02:03:29.844857  2047 net.cpp:144] Setting up intercept
I0505 02:03:29.844887  2047 net.cpp:151] Top shape: 20 1 10 10 (2000)
I0505 02:03:29.844893  2047 net.cpp:151] Top shape: 20 (20)
I0505 02:03:29.844897  2047 net.cpp:159] Memory required for data: 8080
I0505 02:03:29.844902  2047 layer_factory.hpp:77] Creating layer label_intercept_1_split
I0505 02:03:29.844919  2047 net.cpp:94] Creating Layer label_intercept_1_split
I0505 02:03:29.844930  2047 net.cpp:435] label_intercept_1_split <- label
I0505 02:03:29.844938  2047 net.cpp:409] label_intercept_1_split -> label_intercept_1_split_0
I0505 02:03:29.844946  2047 net.cpp:409] label_intercept_1_split -> label_intercept_1_split_1
I0505 02:03:29.844974  2047 net.cpp:144] Setting up label_intercept_1_split
I0505 02:03:29.844981  2047 net.cpp:151] Top shape: 20 (20)
I0505 02:03:29.844985  2047 net.cpp:151] Top shape: 20 (20)
I0505 02:03:29.844988  2047 net.cpp:159] Memory required for data: 8240
I0505 02:03:29.845000  2047 layer_factory.hpp:77] Creating layer conv1
I0505 02:03:29.845012  2047 net.cpp:94] Creating Layer conv1
I0505 02:03:29.845016  2047 net.cpp:435] conv1 <- data
I0505 02:03:29.845021  2047 net.cpp:409] conv1 -> conv1
I0505 02:03:29.845773  2047 net.cpp:144] Setting up conv1
I0505 02:03:29.845788  2047 net.cpp:151] Top shape: 20 64 10 10 (128000)
I0505 02:03:29.845791  2047 net.cpp:159] Memory required for data: 520240
I0505 02:03:29.845801  2047 layer_factory.hpp:77] Creating layer relu1
I0505 02:03:29.845808  2047 net.cpp:94] Creating Layer relu1
I0505 02:03:29.845813  2047 net.cpp:435] relu1 <- conv1
I0505 02:03:29.845818  2047 net.cpp:396] relu1 -> conv1 (in-place)
I0505 02:03:29.845825  2047 net.cpp:144] Setting up relu1
I0505 02:03:29.845829  2047 net.cpp:151] Top shape: 20 64 10 10 (128000)
I0505 02:03:29.845834  2047 net.cpp:159] Memory required for data: 1032240
I0505 02:03:29.845836  2047 layer_factory.hpp:77] Creating layer pool1
I0505 02:03:29.845844  2047 net.cpp:94] Creating Layer pool1
I0505 02:03:29.845847  2047 net.cpp:435] pool1 <- conv1
I0505 02:03:29.845851  2047 net.cpp:409] pool1 -> pool1
I0505 02:03:29.845890  2047 net.cpp:144] Setting up pool1
I0505 02:03:29.845896  2047 net.cpp:151] Top shape: 20 64 5 5 (32000)
I0505 02:03:29.845901  2047 net.cpp:159] Memory required for data: 1160240
I0505 02:03:29.845903  2047 layer_factory.hpp:77] Creating layer conv2
I0505 02:03:29.845911  2047 net.cpp:94] Creating Layer conv2
I0505 02:03:29.845916  2047 net.cpp:435] conv2 <- pool1
I0505 02:03:29.845921  2047 net.cpp:409] conv2 -> conv2
I0505 02:03:29.853049  2047 net.cpp:144] Setting up conv2
I0505 02:03:29.853065  2047 net.cpp:151] Top shape: 20 128 5 5 (64000)
I0505 02:03:29.853068  2047 net.cpp:159] Memory required for data: 1416240
I0505 02:03:29.853077  2047 layer_factory.hpp:77] Creating layer relu2
I0505 02:03:29.853083  2047 net.cpp:94] Creating Layer relu2
I0505 02:03:29.853087  2047 net.cpp:435] relu2 <- conv2
I0505 02:03:29.853092  2047 net.cpp:396] relu2 -> conv2 (in-place)
I0505 02:03:29.853099  2047 net.cpp:144] Setting up relu2
I0505 02:03:29.853104  2047 net.cpp:151] Top shape: 20 128 5 5 (64000)
I0505 02:03:29.853107  2047 net.cpp:159] Memory required for data: 1672240
I0505 02:03:29.853111  2047 layer_factory.hpp:77] Creating layer conv3
I0505 02:03:29.853118  2047 net.cpp:94] Creating Layer conv3
I0505 02:03:29.853122  2047 net.cpp:435] conv3 <- conv2
I0505 02:03:29.853127  2047 net.cpp:409] conv3 -> conv3
I0505 02:03:29.865633  2047 net.cpp:144] Setting up conv3
I0505 02:03:29.865648  2047 net.cpp:151] Top shape: 20 128 5 5 (64000)
I0505 02:03:29.865653  2047 net.cpp:159] Memory required for data: 1928240
I0505 02:03:29.865661  2047 layer_factory.hpp:77] Creating layer relu3
I0505 02:03:29.865669  2047 net.cpp:94] Creating Layer relu3
I0505 02:03:29.865672  2047 net.cpp:435] relu3 <- conv3
I0505 02:03:29.865677  2047 net.cpp:396] relu3 -> conv3 (in-place)
I0505 02:03:29.865684  2047 net.cpp:144] Setting up relu3
I0505 02:03:29.865689  2047 net.cpp:151] Top shape: 20 128 5 5 (64000)
I0505 02:03:29.865692  2047 net.cpp:159] Memory required for data: 2184240
I0505 02:03:29.865695  2047 layer_factory.hpp:77] Creating layer pool3
I0505 02:03:29.865700  2047 net.cpp:94] Creating Layer pool3
I0505 02:03:29.865705  2047 net.cpp:435] pool3 <- conv3
I0505 02:03:29.865708  2047 net.cpp:409] pool3 -> pool3
I0505 02:03:29.865733  2047 net.cpp:144] Setting up pool3
I0505 02:03:29.865741  2047 net.cpp:151] Top shape: 20 128 2 2 (10240)
I0505 02:03:29.865747  2047 net.cpp:159] Memory required for data: 2225200
I0505 02:03:29.865751  2047 layer_factory.hpp:77] Creating layer ip1
I0505 02:03:29.865758  2047 net.cpp:94] Creating Layer ip1
I0505 02:03:29.865761  2047 net.cpp:435] ip1 <- pool3
I0505 02:03:29.865767  2047 net.cpp:409] ip1 -> ip1
I0505 02:03:29.872218  2047 net.cpp:144] Setting up ip1
I0505 02:03:29.872227  2047 net.cpp:151] Top shape: 20 512 (10240)
I0505 02:03:29.872231  2047 net.cpp:159] Memory required for data: 2266160
I0505 02:03:29.872242  2047 layer_factory.hpp:77] Creating layer ip2
I0505 02:03:29.872249  2047 net.cpp:94] Creating Layer ip2
I0505 02:03:29.872253  2047 net.cpp:435] ip2 <- ip1
I0505 02:03:29.872258  2047 net.cpp:409] ip2 -> ip2
I0505 02:03:29.875538  2047 net.cpp:144] Setting up ip2
I0505 02:03:29.875546  2047 net.cpp:151] Top shape: 20 256 (5120)
I0505 02:03:29.875550  2047 net.cpp:159] Memory required for data: 2286640
I0505 02:03:29.875557  2047 layer_factory.hpp:77] Creating layer ip3
I0505 02:03:29.875563  2047 net.cpp:94] Creating Layer ip3
I0505 02:03:29.875567  2047 net.cpp:435] ip3 <- ip2
I0505 02:03:29.875571  2047 net.cpp:409] ip3 -> ip3
I0505 02:03:29.875957  2047 net.cpp:144] Setting up ip3
I0505 02:03:29.875963  2047 net.cpp:151] Top shape: 20 50 (1000)
I0505 02:03:29.875967  2047 net.cpp:159] Memory required for data: 2290640
I0505 02:03:29.875972  2047 layer_factory.hpp:77] Creating layer ip3_ip3_0_split
I0505 02:03:29.875977  2047 net.cpp:94] Creating Layer ip3_ip3_0_split
I0505 02:03:29.875980  2047 net.cpp:435] ip3_ip3_0_split <- ip3
I0505 02:03:29.875984  2047 net.cpp:409] ip3_ip3_0_split -> ip3_ip3_0_split_0
I0505 02:03:29.875990  2047 net.cpp:409] ip3_ip3_0_split -> ip3_ip3_0_split_1
I0505 02:03:29.876014  2047 net.cpp:144] Setting up ip3_ip3_0_split
I0505 02:03:29.876020  2047 net.cpp:151] Top shape: 20 50 (1000)
I0505 02:03:29.876024  2047 net.cpp:151] Top shape: 20 50 (1000)
I0505 02:03:29.876027  2047 net.cpp:159] Memory required for data: 2298640
I0505 02:03:29.876030  2047 layer_factory.hpp:77] Creating layer accuracy
I0505 02:03:29.876036  2047 net.cpp:94] Creating Layer accuracy
I0505 02:03:29.876039  2047 net.cpp:435] accuracy <- ip3_ip3_0_split_0
I0505 02:03:29.876044  2047 net.cpp:435] accuracy <- label_intercept_1_split_0
I0505 02:03:29.876049  2047 net.cpp:409] accuracy -> accuracy
…
