…
I0501 21:27:32.178807 14845 net.cpp:323] The NetState phase (0) differed from the phase (1) specified by a rule in layer intercept
I0501 21:27:32.178822 14845 net.cpp:323] The NetState phase (0) differed from the phase (1) specified by a rule in layer accuracy
I0501 21:27:32.178918 14845 net.cpp:52] Initializing net from parameters: 
state {
  phase: TRAIN
}
layer {
  name: "parameters"
  type: "HDF5Data"
  top: "data"
  top: "label"
  include {
    phase: TRAIN
  }
  hdf5_data_param {
    source: "/home/purduethu/scratch/radon/d/deng106/CNNStatisticalModel/distributions/input/20_distributions_100_sample_size_train-distributions-path.txt"
    batch_size: 20
  }
}
layer {
  name: "conv1"
  type: "Convolution"
  bottom: "data"
  top: "conv1"
  param {
    lr_mult: 1
  }
  param {
    lr_mult: 2
  }
  convolution_param {
    num_output: 64
    pad: 2
    kernel_size: 5
    stride: 1
    weight_filler {
      type: "gaussian"
      std: 0.0001
    }
    bias_filler {
      type: "constant"
    }
  }
}
layer {
  name: "relu1"
  type: "ReLU"
  bottom: "conv1"
  top: "conv1"
}
layer {
  name: "conv2"
  type: "Convolution"
  bottom: "conv1"
  top: "conv2"
  param {
    lr_mult: 1
  }
  param {
    lr_mult: 2
  }
  convolution_param {
    num_output: 64
    pad: 2
    kernel_size: 5
    stride: 1
    weight_filler {
      type: "gaussian"
      std: 0.01
    }
    bias_filler {
      type: "constant"
    }
  }
}
layer {
  name: "relu2"
  type: "ReLU"
  bottom: "conv2"
  top: "conv2"
}
layer {
  name: "pool2"
  type: "Pooling"
  bottom: "conv2"
  top: "pool2"
  pooling_param {
    pool: MAX
    kernel_size: 3
    stride: 2
  }
}
layer {
  name: "conv3"
  type: "Convolution"
  bottom: "pool2"
  top: "conv3"
  param {
    lr_mult: 1
  }
  param {
    lr_mult: 2
  }
  convolution_param {
    num_output: 64
    pad: 2
    kernel_size: 5
    stride: 1
    weight_filler {
      type: "gaussian"
      std: 0.01
    }
    bias_filler {
      type: "constant"
    }
  }
}
layer {
  name: "relu3"
  type: "ReLU"
  bottom: "conv3"
  top: "conv3"
}
layer {
  name: "conv4"
  type: "Convolution"
  bottom: "conv3"
  top: "conv4"
  param {
    lr_mult: 1
  }
  param {
    lr_mult: 2
  }
  convolution_param {
    num_output: 64
    pad: 2
    kernel_size: 5
    stride: 1
    weight_filler {
      type: "gaussian"
      std: 0.01
    }
    bias_filler {
      type: "constant"
    }
  }
}
layer {
  name: "relu4"
  type: "ReLU"
  bottom: "conv4"
  top: "conv4"
}
layer {
  name: "conv5"
  type: "Convolution"
  bottom: "conv4"
  top: "conv5"
  param {
    lr_mult: 1
  }
  param {
    lr_mult: 2
  }
  convolution_param {
    num_output: 64
    pad: 2
    kernel_size: 5
    stride: 1
    weight_filler {
      type: "gaussian"
      std: 0.01
    }
    bias_filler {
      type: "constant"
    }
  }
}
layer {
  name: "relu5"
  type: "ReLU"
  bottom: "conv5"
  top: "conv5"
}
layer {
  name: "pool5"
  type: "Pooling"
  bottom: "conv5"
  top: "pool5"
  pooling_param {
    pool: AVE
    kernel_size: 3
    stride: 2
  }
}
layer {
  name: "ip1"
  type: "InnerProduct"
  bottom: "pool5"
  top: "ip1"
  param {
    lr_mult: 1
  }
  param {
    lr_mult: 2
  }
  inner_product_param {
    num_output: 64
    weight_filler {
      type: "gaussian"
      std: 0.1
    }
    bias_filler {
      type: "constant"
    }
  }
}
layer {
  name: "ip2"
  type: "InnerProduct"
  bottom: "ip1"
  top: "ip2"
  param {
    lr_mult: 1
  }
  param {
    lr_mult: 2
  }
  inner_product_param {
    num_output: 64
    weight_filler {
      type: "gaussian"
      std: 0.1
    }
    bias_filler {
      type: "constant"
    }
  }
}
layer {
  name: "ip3"
  type: "InnerProduct"
  bottom: "ip2"
  top: "ip3"
  param {
    lr_mult: 1
  }
  param {
    lr_mult: 2
  }
  inner_product_param {
    num_output: 50
    weight_filler {
      type: "gaussian"
      std: 0.1
    }
    bias_filler {
      type: "constant"
    }
  }
}
layer {
  name: "loss"
  type: "SoftmaxWithLoss"
  bottom: "ip3"
  bottom: "label"
  top: "loss"
}
I0501 21:27:32.178993 14845 layer_factory.hpp:77] Creating layer parameters
I0501 21:27:32.179008 14845 net.cpp:94] Creating Layer parameters
I0501 21:27:32.179013 14845 net.cpp:409] parameters -> data
I0501 21:27:32.179033 14845 net.cpp:409] parameters -> label
I0501 21:27:32.179044 14845 hdf5_data_layer.cpp:79] Loading list of HDF5 filenames from: /home/purduethu/scratch/radon/d/deng106/CNNStatisticalModel/distributions/input/20_distributions_100_sample_size_train-distributions-path.txt
I0501 21:27:32.179066 14845 hdf5_data_layer.cpp:93] Number of HDF5 files: 1
I0501 21:27:32.179532 14845 hdf5.cpp:32] Datatype class: H5T_FLOAT
I0501 21:27:32.245368 14845 hdf5.cpp:35] Datatype class: H5T_INTEGER
I0501 21:27:32.247134 14845 net.cpp:144] Setting up parameters
I0501 21:27:32.247155 14845 net.cpp:151] Top shape: 20 1 10 10 (2000)
I0501 21:27:32.247161 14845 net.cpp:151] Top shape: 20 (20)
I0501 21:27:32.247165 14845 net.cpp:159] Memory required for data: 8080
I0501 21:27:32.247172 14845 layer_factory.hpp:77] Creating layer conv1
I0501 21:27:32.247197 14845 net.cpp:94] Creating Layer conv1
I0501 21:27:32.247203 14845 net.cpp:435] conv1 <- data
I0501 21:27:32.247215 14845 net.cpp:409] conv1 -> conv1
I0501 21:27:32.251062 14845 net.cpp:144] Setting up conv1
I0501 21:27:32.251076 14845 net.cpp:151] Top shape: 20 64 10 10 (128000)
I0501 21:27:32.251081 14845 net.cpp:159] Memory required for data: 520080
I0501 21:27:32.251093 14845 layer_factory.hpp:77] Creating layer relu1
I0501 21:27:32.251101 14845 net.cpp:94] Creating Layer relu1
I0501 21:27:32.251106 14845 net.cpp:435] relu1 <- conv1
I0501 21:27:32.251109 14845 net.cpp:396] relu1 -> conv1 (in-place)
I0501 21:27:32.251127 14845 net.cpp:144] Setting up relu1
I0501 21:27:32.251133 14845 net.cpp:151] Top shape: 20 64 10 10 (128000)
I0501 21:27:32.251137 14845 net.cpp:159] Memory required for data: 1032080
I0501 21:27:32.251140 14845 layer_factory.hpp:77] Creating layer conv2
I0501 21:27:32.251148 14845 net.cpp:94] Creating Layer conv2
I0501 21:27:32.251152 14845 net.cpp:435] conv2 <- conv1
I0501 21:27:32.251157 14845 net.cpp:409] conv2 -> conv2
I0501 21:27:32.256388 14845 net.cpp:144] Setting up conv2
I0501 21:27:32.256402 14845 net.cpp:151] Top shape: 20 64 10 10 (128000)
I0501 21:27:32.256407 14845 net.cpp:159] Memory required for data: 1544080
I0501 21:27:32.256415 14845 layer_factory.hpp:77] Creating layer relu2
I0501 21:27:32.256422 14845 net.cpp:94] Creating Layer relu2
I0501 21:27:32.256427 14845 net.cpp:435] relu2 <- conv2
I0501 21:27:32.256431 14845 net.cpp:396] relu2 -> conv2 (in-place)
I0501 21:27:32.256438 14845 net.cpp:144] Setting up relu2
I0501 21:27:32.256443 14845 net.cpp:151] Top shape: 20 64 10 10 (128000)
I0501 21:27:32.256446 14845 net.cpp:159] Memory required for data: 2056080
I0501 21:27:32.256449 14845 layer_factory.hpp:77] Creating layer pool2
I0501 21:27:32.256464 14845 net.cpp:94] Creating Layer pool2
I0501 21:27:32.256467 14845 net.cpp:435] pool2 <- conv2
I0501 21:27:32.256472 14845 net.cpp:409] pool2 -> pool2
I0501 21:27:32.256515 14845 net.cpp:144] Setting up pool2
I0501 21:27:32.256523 14845 net.cpp:151] Top shape: 20 64 5 5 (32000)
I0501 21:27:32.256527 14845 net.cpp:159] Memory required for data: 2184080
I0501 21:27:32.256531 14845 layer_factory.hpp:77] Creating layer conv3
I0501 21:27:32.256539 14845 net.cpp:94] Creating Layer conv3
I0501 21:27:32.256542 14845 net.cpp:435] conv3 <- pool2
I0501 21:27:32.256566 14845 net.cpp:409] conv3 -> conv3
I0501 21:27:32.261418 14845 net.cpp:144] Setting up conv3
I0501 21:27:32.261432 14845 net.cpp:151] Top shape: 20 64 5 5 (32000)
I0501 21:27:32.261436 14845 net.cpp:159] Memory required for data: 2312080
I0501 21:27:32.261445 14845 layer_factory.hpp:77] Creating layer relu3
I0501 21:27:32.261451 14845 net.cpp:94] Creating Layer relu3
I0501 21:27:32.261454 14845 net.cpp:435] relu3 <- conv3
I0501 21:27:32.261459 14845 net.cpp:396] relu3 -> conv3 (in-place)
I0501 21:27:32.261466 14845 net.cpp:144] Setting up relu3
I0501 21:27:32.261471 14845 net.cpp:151] Top shape: 20 64 5 5 (32000)
I0501 21:27:32.261474 14845 net.cpp:159] Memory required for data: 2440080
I0501 21:27:32.261477 14845 layer_factory.hpp:77] Creating layer conv4
I0501 21:27:32.261487 14845 net.cpp:94] Creating Layer conv4
I0501 21:27:32.261490 14845 net.cpp:435] conv4 <- conv3
I0501 21:27:32.261495 14845 net.cpp:409] conv4 -> conv4
I0501 21:27:32.265907 14845 net.cpp:144] Setting up conv4
I0501 21:27:32.265919 14845 net.cpp:151] Top shape: 20 64 5 5 (32000)
I0501 21:27:32.265923 14845 net.cpp:159] Memory required for data: 2568080
I0501 21:27:32.265929 14845 layer_factory.hpp:77] Creating layer relu4
I0501 21:27:32.265935 14845 net.cpp:94] Creating Layer relu4
I0501 21:27:32.265939 14845 net.cpp:435] relu4 <- conv4
I0501 21:27:32.265944 14845 net.cpp:396] relu4 -> conv4 (in-place)
I0501 21:27:32.265951 14845 net.cpp:144] Setting up relu4
I0501 21:27:32.265956 14845 net.cpp:151] Top shape: 20 64 5 5 (32000)
I0501 21:27:32.265959 14845 net.cpp:159] Memory required for data: 2696080
I0501 21:27:32.265962 14845 layer_factory.hpp:77] Creating layer conv5
I0501 21:27:32.265970 14845 net.cpp:94] Creating Layer conv5
I0501 21:27:32.265974 14845 net.cpp:435] conv5 <- conv4
I0501 21:27:32.265980 14845 net.cpp:409] conv5 -> conv5
I0501 21:27:32.271430 14845 net.cpp:144] Setting up conv5
I0501 21:27:32.271445 14845 net.cpp:151] Top shape: 20 64 5 5 (32000)
I0501 21:27:32.271450 14845 net.cpp:159] Memory required for data: 2824080
I0501 21:27:32.271457 14845 layer_factory.hpp:77] Creating layer relu5
I0501 21:27:32.271463 14845 net.cpp:94] Creating Layer relu5
I0501 21:27:32.271468 14845 net.cpp:435] relu5 <- conv5
I0501 21:27:32.271472 14845 net.cpp:396] relu5 -> conv5 (in-place)
I0501 21:27:32.271481 14845 net.cpp:144] Setting up relu5
I0501 21:27:32.271486 14845 net.cpp:151] Top shape: 20 64 5 5 (32000)
I0501 21:27:32.271488 14845 net.cpp:159] Memory required for data: 2952080
I0501 21:27:32.271492 14845 layer_factory.hpp:77] Creating layer pool5
I0501 21:27:32.271497 14845 net.cpp:94] Creating Layer pool5
I0501 21:27:32.271500 14845 net.cpp:435] pool5 <- conv5
I0501 21:27:32.271505 14845 net.cpp:409] pool5 -> pool5
I0501 21:27:32.271538 14845 net.cpp:144] Setting up pool5
I0501 21:27:32.271545 14845 net.cpp:151] Top shape: 20 64 2 2 (5120)
I0501 21:27:32.271548 14845 net.cpp:159] Memory required for data: 2972560
I0501 21:27:32.271551 14845 layer_factory.hpp:77] Creating layer ip1
I0501 21:27:32.271561 14845 net.cpp:94] Creating Layer ip1
I0501 21:27:32.271565 14845 net.cpp:435] ip1 <- pool5
I0501 21:27:32.271570 14845 net.cpp:409] ip1 -> ip1
I0501 21:27:32.272717 14845 net.cpp:144] Setting up ip1
I0501 21:27:32.272730 14845 net.cpp:151] Top shape: 20 64 (1280)
I0501 21:27:32.272734 14845 net.cpp:159] Memory required for data: 2977680
I0501 21:27:32.272740 14845 layer_factory.hpp:77] Creating layer ip2
I0501 21:27:32.272747 14845 net.cpp:94] Creating Layer ip2
I0501 21:27:32.272755 14845 net.cpp:435] ip2 <- ip1
I0501 21:27:32.272761 14845 net.cpp:409] ip2 -> ip2
I0501 21:27:32.272933 14845 net.cpp:144] Setting up ip2
I0501 21:27:32.272940 14845 net.cpp:151] Top shape: 20 64 (1280)
I0501 21:27:32.272943 14845 net.cpp:159] Memory required for data: 2982800
I0501 21:27:32.272948 14845 layer_factory.hpp:77] Creating layer ip3
I0501 21:27:32.272954 14845 net.cpp:94] Creating Layer ip3
I0501 21:27:32.272958 14845 net.cpp:435] ip3 <- ip2
I0501 21:27:32.272964 14845 net.cpp:409] ip3 -> ip3
I0501 21:27:32.273108 14845 net.cpp:144] Setting up ip3
I0501 21:27:32.273120 14845 net.cpp:151] Top shape: 20 50 (1000)
I0501 21:27:32.273124 14845 net.cpp:159] Memory required for data: 2986800
I0501 21:27:32.273129 14845 layer_factory.hpp:77] Creating layer loss
I0501 21:27:32.273136 14845 net.cpp:94] Creating Layer loss
I0501 21:27:32.273139 14845 net.cpp:435] loss <- ip3
I0501 21:27:32.273144 14845 net.cpp:435] loss <- label
I0501 21:27:32.273149 14845 net.cpp:409] loss -> loss
I0501 21:27:32.273162 14845 layer_factory.hpp:77] Creating layer loss
…
I0501 21:27:32.274333 14845 solver.cpp:181] Creating test net (#0) specified by net file: ./protocol/dis_20_100_dimension.protocol_distribution
I0501 21:27:32.274360 14845 net.cpp:323] The NetState phase (1) differed from the phase (0) specified by a rule in layer parameters
I0501 21:27:32.274463 14845 net.cpp:52] Initializing net from parameters: 
state {
  phase: TEST
}
layer {
  name: "intercept"
  type: "HDF5Data"
  top: "data"
  top: "label"
  include {
    phase: TEST
  }
  hdf5_data_param {
    source: "/home/purduethu/scratch/radon/d/deng106/CNNStatisticalModel/distributions/input/20_distributions_100_sample_size_test-distributions-path.txt"
    batch_size: 20
  }
}
layer {
  name: "conv1"
  type: "Convolution"
  bottom: "data"
  top: "conv1"
  param {
    lr_mult: 1
  }
  param {
    lr_mult: 2
  }
  convolution_param {
    num_output: 64
    pad: 2
    kernel_size: 5
    stride: 1
    weight_filler {
      type: "gaussian"
      std: 0.0001
    }
    bias_filler {
      type: "constant"
    }
  }
}
layer {
  name: "relu1"
  type: "ReLU"
  bottom: "conv1"
  top: "conv1"
}
layer {
  name: "conv2"
  type: "Convolution"
  bottom: "conv1"
  top: "conv2"
  param {
    lr_mult: 1
  }
  param {
    lr_mult: 2
  }
  convolution_param {
    num_output: 64
    pad: 2
    kernel_size: 5
    stride: 1
    weight_filler {
      type: "gaussian"
      std: 0.01
    }
    bias_filler {
      type: "constant"
    }
  }
}
layer {
  name: "relu2"
  type: "ReLU"
  bottom: "conv2"
  top: "conv2"
}
layer {
  name: "pool2"
  type: "Pooling"
  bottom: "conv2"
  top: "pool2"
  pooling_param {
    pool: MAX
    kernel_size: 3
    stride: 2
  }
}
layer {
  name: "conv3"
  type: "Convolution"
  bottom: "pool2"
  top: "conv3"
  param {
    lr_mult: 1
  }
  param {
    lr_mult: 2
  }
  convolution_param {
    num_output: 64
    pad: 2
    kernel_size: 5
    stride: 1
    weight_filler {
      type: "gaussian"
      std: 0.01
    }
    bias_filler {
      type: "constant"
    }
  }
}
layer {
  name: "relu3"
  type: "ReLU"
  bottom: "conv3"
  top: "conv3"
}
layer {
  name: "conv4"
  type: "Convolution"
  bottom: "conv3"
  top: "conv4"
  param {
    lr_mult: 1
  }
  param {
    lr_mult: 2
  }
  convolution_param {
    num_output: 64
    pad: 2
    kernel_size: 5
    stride: 1
    weight_filler {
      type: "gaussian"
      std: 0.01
    }
    bias_filler {
      type: "constant"
    }
  }
}
layer {
  name: "relu4"
  type: "ReLU"
  bottom: "conv4"
  top: "conv4"
}
layer {
  name: "conv5"
  type: "Convolution"
  bottom: "conv4"
  top: "conv5"
  param {
    lr_mult: 1
  }
  param {
    lr_mult: 2
  }
  convolution_param {
    num_output: 64
    pad: 2
    kernel_size: 5
    stride: 1
    weight_filler {
      type: "gaussian"
      std: 0.01
    }
    bias_filler {
      type: "constant"
    }
  }
}
layer {
  name: "relu5"
  type: "ReLU"
  bottom: "conv5"
  top: "conv5"
}
layer {
  name: "pool5"
  type: "Pooling"
  bottom: "conv5"
  top: "pool5"
  pooling_param {
    pool: AVE
    kernel_size: 3
    stride: 2
  }
}
layer {
  name: "ip1"
  type: "InnerProduct"
  bottom: "pool5"
  top: "ip1"
  param {
    lr_mult: 1
  }
  param {
    lr_mult: 2
  }
  inner_product_param {
    num_output: 64
    weight_filler {
      type: "gaussian"
      std: 0.1
    }
    bias_filler {
      type: "constant"
    }
  }
}
layer {
  name: "ip2"
  type: "InnerProduct"
  bottom: "ip1"
  top: "ip2"
  param {
    lr_mult: 1
  }
  param {
    lr_mult: 2
  }
  inner_product_param {
    num_output: 64
    weight_filler {
      type: "gaussian"
      std: 0.1
    }
    bias_filler {
      type: "constant"
    }
  }
}
layer {
  name: "ip3"
  type: "InnerProduct"
  bottom: "ip2"
  top: "ip3"
  param {
    lr_mult: 1
  }
  param {
    lr_mult: 2
  }
  inner_product_param {
    num_output: 50
    weight_filler {
      type: "gaussian"
      std: 0.1
    }
    bias_filler {
      type: "constant"
    }
  }
}
layer {
  name: "accuracy"
  type: "Accuracy"
  bottom: "ip3"
  bottom: "label"
  top: "accuracy"
  include {
    phase: TEST
  }
}
layer {
  name: "loss"
  type: "SoftmaxWithLoss"
  bottom: "ip3"
  bottom: "label"
  top: "loss"
}
I0501 21:27:32.274535 14845 layer_factory.hpp:77] Creating layer intercept
I0501 21:27:32.274544 14845 net.cpp:94] Creating Layer intercept
I0501 21:27:32.274549 14845 net.cpp:409] intercept -> data
I0501 21:27:32.274556 14845 net.cpp:409] intercept -> label
I0501 21:27:32.274562 14845 hdf5_data_layer.cpp:79] Loading list of HDF5 filenames from: /home/purduethu/scratch/radon/d/deng106/CNNStatisticalModel/distributions/input/20_distributions_100_sample_size_test-distributions-path.txt
I0501 21:27:32.274582 14845 hdf5_data_layer.cpp:93] Number of HDF5 files: 1
I0501 21:27:32.292192 14845 net.cpp:144] Setting up intercept
I0501 21:27:32.292222 14845 net.cpp:151] Top shape: 20 1 10 10 (2000)
I0501 21:27:32.292228 14845 net.cpp:151] Top shape: 20 (20)
I0501 21:27:32.292232 14845 net.cpp:159] Memory required for data: 8080
I0501 21:27:32.292238 14845 layer_factory.hpp:77] Creating layer label_intercept_1_split
I0501 21:27:32.292255 14845 net.cpp:94] Creating Layer label_intercept_1_split
I0501 21:27:32.292260 14845 net.cpp:435] label_intercept_1_split <- label
I0501 21:27:32.292266 14845 net.cpp:409] label_intercept_1_split -> label_intercept_1_split_0
I0501 21:27:32.292274 14845 net.cpp:409] label_intercept_1_split -> label_intercept_1_split_1
I0501 21:27:32.292310 14845 net.cpp:144] Setting up label_intercept_1_split
I0501 21:27:32.292316 14845 net.cpp:151] Top shape: 20 (20)
I0501 21:27:32.292320 14845 net.cpp:151] Top shape: 20 (20)
I0501 21:27:32.292325 14845 net.cpp:159] Memory required for data: 8240
I0501 21:27:32.292327 14845 layer_factory.hpp:77] Creating layer conv1
I0501 21:27:32.292338 14845 net.cpp:94] Creating Layer conv1
I0501 21:27:32.292342 14845 net.cpp:435] conv1 <- data
I0501 21:27:32.292347 14845 net.cpp:409] conv1 -> conv1
I0501 21:27:32.293030 14845 net.cpp:144] Setting up conv1
I0501 21:27:32.293052 14845 net.cpp:151] Top shape: 20 64 10 10 (128000)
I0501 21:27:32.293056 14845 net.cpp:159] Memory required for data: 520240
I0501 21:27:32.293066 14845 layer_factory.hpp:77] Creating layer relu1
I0501 21:27:32.293074 14845 net.cpp:94] Creating Layer relu1
I0501 21:27:32.293078 14845 net.cpp:435] relu1 <- conv1
I0501 21:27:32.293082 14845 net.cpp:396] relu1 -> conv1 (in-place)
I0501 21:27:32.293090 14845 net.cpp:144] Setting up relu1
I0501 21:27:32.293095 14845 net.cpp:151] Top shape: 20 64 10 10 (128000)
I0501 21:27:32.293098 14845 net.cpp:159] Memory required for data: 1032240
I0501 21:27:32.293102 14845 layer_factory.hpp:77] Creating layer conv2
I0501 21:27:32.293110 14845 net.cpp:94] Creating Layer conv2
I0501 21:27:32.293114 14845 net.cpp:435] conv2 <- conv1
I0501 21:27:32.293120 14845 net.cpp:409] conv2 -> conv2
I0501 21:27:32.296566 14845 net.cpp:144] Setting up conv2
I0501 21:27:32.296579 14845 net.cpp:151] Top shape: 20 64 10 10 (128000)
I0501 21:27:32.296583 14845 net.cpp:159] Memory required for data: 1544240
I0501 21:27:32.296591 14845 layer_factory.hpp:77] Creating layer relu2
I0501 21:27:32.296597 14845 net.cpp:94] Creating Layer relu2
I0501 21:27:32.296602 14845 net.cpp:435] relu2 <- conv2
I0501 21:27:32.296607 14845 net.cpp:396] relu2 -> conv2 (in-place)
I0501 21:27:32.296613 14845 net.cpp:144] Setting up relu2
I0501 21:27:32.296618 14845 net.cpp:151] Top shape: 20 64 10 10 (128000)
I0501 21:27:32.296622 14845 net.cpp:159] Memory required for data: 2056240
I0501 21:27:32.296624 14845 layer_factory.hpp:77] Creating layer pool2
I0501 21:27:32.296632 14845 net.cpp:94] Creating Layer pool2
I0501 21:27:32.296634 14845 net.cpp:435] pool2 <- conv2
I0501 21:27:32.296639 14845 net.cpp:409] pool2 -> pool2
I0501 21:27:32.296671 14845 net.cpp:144] Setting up pool2
I0501 21:27:32.296679 14845 net.cpp:151] Top shape: 20 64 5 5 (32000)
I0501 21:27:32.296681 14845 net.cpp:159] Memory required for data: 2184240
I0501 21:27:32.296685 14845 layer_factory.hpp:77] Creating layer conv3
I0501 21:27:32.296694 14845 net.cpp:94] Creating Layer conv3
I0501 21:27:32.296697 14845 net.cpp:435] conv3 <- pool2
I0501 21:27:32.296702 14845 net.cpp:409] conv3 -> conv3
I0501 21:27:32.300631 14845 net.cpp:144] Setting up conv3
I0501 21:27:32.300644 14845 net.cpp:151] Top shape: 20 64 5 5 (32000)
I0501 21:27:32.300648 14845 net.cpp:159] Memory required for data: 2312240
I0501 21:27:32.300657 14845 layer_factory.hpp:77] Creating layer relu3
I0501 21:27:32.300663 14845 net.cpp:94] Creating Layer relu3
I0501 21:27:32.300668 14845 net.cpp:435] relu3 <- conv3
I0501 21:27:32.300673 14845 net.cpp:396] relu3 -> conv3 (in-place)
I0501 21:27:32.300679 14845 net.cpp:144] Setting up relu3
I0501 21:27:32.300684 14845 net.cpp:151] Top shape: 20 64 5 5 (32000)
I0501 21:27:32.300688 14845 net.cpp:159] Memory required for data: 2440240
I0501 21:27:32.300691 14845 layer_factory.hpp:77] Creating layer conv4
I0501 21:27:32.300699 14845 net.cpp:94] Creating Layer conv4
I0501 21:27:32.300704 14845 net.cpp:435] conv4 <- conv3
I0501 21:27:32.300709 14845 net.cpp:409] conv4 -> conv4
I0501 21:27:32.304195 14845 net.cpp:144] Setting up conv4
I0501 21:27:32.304208 14845 net.cpp:151] Top shape: 20 64 5 5 (32000)
I0501 21:27:32.304213 14845 net.cpp:159] Memory required for data: 2568240
I0501 21:27:32.304219 14845 layer_factory.hpp:77] Creating layer relu4
I0501 21:27:32.304224 14845 net.cpp:94] Creating Layer relu4
I0501 21:27:32.304227 14845 net.cpp:435] relu4 <- conv4
I0501 21:27:32.304235 14845 net.cpp:396] relu4 -> conv4 (in-place)
I0501 21:27:32.304244 14845 net.cpp:144] Setting up relu4
I0501 21:27:32.304249 14845 net.cpp:151] Top shape: 20 64 5 5 (32000)
I0501 21:27:32.304251 14845 net.cpp:159] Memory required for data: 2696240
I0501 21:27:32.304255 14845 layer_factory.hpp:77] Creating layer conv5
I0501 21:27:32.304262 14845 net.cpp:94] Creating Layer conv5
I0501 21:27:32.304265 14845 net.cpp:435] conv5 <- conv4
I0501 21:27:32.304270 14845 net.cpp:409] conv5 -> conv5
I0501 21:27:32.307754 14845 net.cpp:144] Setting up conv5
I0501 21:27:32.307773 14845 net.cpp:151] Top shape: 20 64 5 5 (32000)
I0501 21:27:32.307777 14845 net.cpp:159] Memory required for data: 2824240
I0501 21:27:32.307785 14845 layer_factory.hpp:77] Creating layer relu5
I0501 21:27:32.307791 14845 net.cpp:94] Creating Layer relu5
I0501 21:27:32.307796 14845 net.cpp:435] relu5 <- conv5
I0501 21:27:32.307799 14845 net.cpp:396] relu5 -> conv5 (in-place)
I0501 21:27:32.307806 14845 net.cpp:144] Setting up relu5
I0501 21:27:32.307811 14845 net.cpp:151] Top shape: 20 64 5 5 (32000)
I0501 21:27:32.307814 14845 net.cpp:159] Memory required for data: 2952240
I0501 21:27:32.307817 14845 layer_factory.hpp:77] Creating layer pool5
I0501 21:27:32.307822 14845 net.cpp:94] Creating Layer pool5
I0501 21:27:32.307826 14845 net.cpp:435] pool5 <- conv5
I0501 21:27:32.307831 14845 net.cpp:409] pool5 -> pool5
I0501 21:27:32.307854 14845 net.cpp:144] Setting up pool5
I0501 21:27:32.307860 14845 net.cpp:151] Top shape: 20 64 2 2 (5120)
I0501 21:27:32.307864 14845 net.cpp:159] Memory required for data: 2972720
I0501 21:27:32.307868 14845 layer_factory.hpp:77] Creating layer ip1
I0501 21:27:32.307874 14845 net.cpp:94] Creating Layer ip1
I0501 21:27:32.307878 14845 net.cpp:435] ip1 <- pool5
I0501 21:27:32.307883 14845 net.cpp:409] ip1 -> ip1
I0501 21:27:32.308357 14845 net.cpp:144] Setting up ip1
I0501 21:27:32.308365 14845 net.cpp:151] Top shape: 20 64 (1280)
I0501 21:27:32.308368 14845 net.cpp:159] Memory required for data: 2977840
I0501 21:27:32.308373 14845 layer_factory.hpp:77] Creating layer ip2
I0501 21:27:32.308379 14845 net.cpp:94] Creating Layer ip2
I0501 21:27:32.308383 14845 net.cpp:435] ip2 <- ip1
I0501 21:27:32.308388 14845 net.cpp:409] ip2 -> ip2
I0501 21:27:32.308568 14845 net.cpp:144] Setting up ip2
I0501 21:27:32.308575 14845 net.cpp:151] Top shape: 20 64 (1280)
I0501 21:27:32.308578 14845 net.cpp:159] Memory required for data: 2982960
I0501 21:27:32.308583 14845 layer_factory.hpp:77] Creating layer ip3
I0501 21:27:32.308590 14845 net.cpp:94] Creating Layer ip3
I0501 21:27:32.308594 14845 net.cpp:435] ip3 <- ip2
I0501 21:27:32.308599 14845 net.cpp:409] ip3 -> ip3
I0501 21:27:32.308750 14845 net.cpp:144] Setting up ip3
I0501 21:27:32.308756 14845 net.cpp:151] Top shape: 20 50 (1000)
I0501 21:27:32.308759 14845 net.cpp:159] Memory required for data: 2986960
I0501 21:27:32.308764 14845 layer_factory.hpp:77] Creating layer ip3_ip3_0_split
I0501 21:27:32.308769 14845 net.cpp:94] Creating Layer ip3_ip3_0_split
I0501 21:27:32.308773 14845 net.cpp:435] ip3_ip3_0_split <- ip3
I0501 21:27:32.308776 14845 net.cpp:409] ip3_ip3_0_split -> ip3_ip3_0_split_0
I0501 21:27:32.308782 14845 net.cpp:409] ip3_ip3_0_split -> ip3_ip3_0_split_1
I0501 21:27:32.308806 14845 net.cpp:144] Setting up ip3_ip3_0_split
I0501 21:27:32.308811 14845 net.cpp:151] Top shape: 20 50 (1000)
I0501 21:27:32.308815 14845 net.cpp:151] Top shape: 20 50 (1000)
I0501 21:27:32.308818 14845 net.cpp:159] Memory required for data: 2994960
I0501 21:27:32.308821 14845 layer_factory.hpp:77] Creating layer accuracy
I0501 21:27:32.308827 14845 net.cpp:94] Creating Layer accuracy
I0501 21:27:32.308831 14845 net.cpp:435] accuracy <- ip3_ip3_0_split_0
I0501 21:27:32.308835 14845 net.cpp:435] accuracy <- label_intercept_1_split_0
I0501 21:27:32.308840 14845 net.cpp:409] accuracy -> accuracy
…
