…
I0505 21:24:10.106698  9373 net.cpp:323] The NetState phase (0) differed from the phase (1) specified by a rule in layer intercept
I0505 21:24:10.106712  9373 net.cpp:323] The NetState phase (0) differed from the phase (1) specified by a rule in layer loss
I0505 21:24:10.106778  9373 net.cpp:52] Initializing net from parameters: 
state {
  phase: TRAIN
}
layer {
  name: "parameters"
  type: "HDF5Data"
  top: "data"
  top: "label"
  include {
    phase: TRAIN
  }
  hdf5_data_param {
    source: "/home/purduethu/scratch/radon/d/deng106/CNNStatisticalModel/distributions/input/20_distributions_900_sample_size_train-parameters-path.txt"
    batch_size: 20
  }
}
layer {
  name: "conv1"
  type: "Convolution"
  bottom: "data"
  top: "conv1"
  param {
    lr_mult: 1
  }
  param {
    lr_mult: 2
  }
  convolution_param {
    num_output: 64
    pad: 2
    kernel_size: 5
    stride: 1
    weight_filler {
      type: "gaussian"
      std: 0.0001
    }
    bias_filler {
      type: "constant"
    }
  }
}
layer {
  name: "relu1"
  type: "ReLU"
  bottom: "conv1"
  top: "conv1"
}
layer {
  name: "pool1"
  type: "Pooling"
  bottom: "conv1"
  top: "pool1"
  pooling_param {
    pool: MAX
    kernel_size: 3
    stride: 2
  }
}
layer {
  name: "conv2"
  type: "Convolution"
  bottom: "pool1"
  top: "conv2"
  param {
    lr_mult: 1
  }
  param {
    lr_mult: 2
  }
  convolution_param {
    num_output: 128
    pad: 2
    kernel_size: 5
    stride: 1
    weight_filler {
      type: "gaussian"
      std: 0.01
    }
    bias_filler {
      type: "constant"
    }
  }
}
layer {
  name: "relu2"
  type: "ReLU"
  bottom: "conv2"
  top: "conv2"
}
layer {
  name: "conv3"
  type: "Convolution"
  bottom: "conv2"
  top: "conv3"
  param {
    lr_mult: 1
  }
  param {
    lr_mult: 2
  }
  convolution_param {
    num_output: 128
    pad: 2
    kernel_size: 5
    stride: 1
    weight_filler {
      type: "gaussian"
      std: 0.01
    }
    bias_filler {
      type: "constant"
    }
  }
}
layer {
  name: "relu3"
  type: "ReLU"
  bottom: "conv3"
  top: "conv3"
}
layer {
  name: "pool3"
  type: "Pooling"
  bottom: "conv3"
  top: "pool3"
  pooling_param {
    pool: AVE
    kernel_size: 3
    stride: 2
  }
}
layer {
  name: "ip1"
  type: "InnerProduct"
  bottom: "pool3"
  top: "ip1"
  param {
    lr_mult: 1
  }
  param {
    lr_mult: 2
  }
  inner_product_param {
    num_output: 512
    weight_filler {
      type: "gaussian"
      std: 0.1
    }
    bias_filler {
      type: "constant"
    }
  }
}
layer {
  name: "ip2"
  type: "InnerProduct"
  bottom: "ip1"
  top: "ip2"
  param {
    lr_mult: 1
  }
  param {
    lr_mult: 2
  }
  inner_product_param {
    num_output: 256
    weight_filler {
      type: "gaussian"
      std: 0.1
    }
    bias_filler {
      type: "constant"
    }
  }
}
layer {
  name: "ip3"
  type: "InnerProduct"
  bottom: "ip2"
  top: "ip3"
  param {
    lr_mult: 1
  }
  param {
    lr_mult: 2
  }
  inner_product_param {
    num_output: 1
    weight_filler {
      type: "gaussian"
      std: 0.1
    }
    bias_filler {
      type: "constant"
    }
  }
}
layer {
  name: "loss"
  type: "HuberLoss"
  bottom: "ip3"
  bottom: "label"
  top: "loss"
  include {
    phase: TRAIN
  }
}
I0505 21:24:10.106824  9373 layer_factory.hpp:77] Creating layer parameters
I0505 21:24:10.106839  9373 net.cpp:94] Creating Layer parameters
I0505 21:24:10.106844  9373 net.cpp:409] parameters -> data
I0505 21:24:10.106853  9373 net.cpp:409] parameters -> label
I0505 21:24:10.106859  9373 hdf5_data_layer.cpp:79] Loading list of HDF5 filenames from: /home/purduethu/scratch/radon/d/deng106/CNNStatisticalModel/distributions/input/20_distributions_900_sample_size_train-parameters-path.txt
I0505 21:24:10.106874  9373 hdf5_data_layer.cpp:93] Number of HDF5 files: 1
I0505 21:24:10.107305  9373 hdf5.cpp:32] Datatype class: H5T_FLOAT
I0505 21:24:10.679639  9373 net.cpp:144] Setting up parameters
I0505 21:24:10.679671  9373 net.cpp:151] Top shape: 20 1 30 30 (18000)
I0505 21:24:10.679675  9373 net.cpp:151] Top shape: 20 (20)
I0505 21:24:10.679679  9373 net.cpp:159] Memory required for data: 72080
I0505 21:24:10.679684  9373 layer_factory.hpp:77] Creating layer conv1
I0505 21:24:10.679700  9373 net.cpp:94] Creating Layer conv1
I0505 21:24:10.679704  9373 net.cpp:435] conv1 <- data
I0505 21:24:10.679711  9373 net.cpp:409] conv1 -> conv1
I0505 21:24:10.686322  9373 net.cpp:144] Setting up conv1
I0505 21:24:10.686339  9373 net.cpp:151] Top shape: 20 64 30 30 (1152000)
I0505 21:24:10.686343  9373 net.cpp:159] Memory required for data: 4680080
I0505 21:24:10.686353  9373 layer_factory.hpp:77] Creating layer relu1
I0505 21:24:10.686362  9373 net.cpp:94] Creating Layer relu1
I0505 21:24:10.686364  9373 net.cpp:435] relu1 <- conv1
I0505 21:24:10.686369  9373 net.cpp:396] relu1 -> conv1 (in-place)
I0505 21:24:10.686377  9373 net.cpp:144] Setting up relu1
I0505 21:24:10.686381  9373 net.cpp:151] Top shape: 20 64 30 30 (1152000)
I0505 21:24:10.686384  9373 net.cpp:159] Memory required for data: 9288080
I0505 21:24:10.686388  9373 layer_factory.hpp:77] Creating layer pool1
I0505 21:24:10.686393  9373 net.cpp:94] Creating Layer pool1
I0505 21:24:10.686396  9373 net.cpp:435] pool1 <- conv1
I0505 21:24:10.686400  9373 net.cpp:409] pool1 -> pool1
I0505 21:24:10.686456  9373 net.cpp:144] Setting up pool1
I0505 21:24:10.686465  9373 net.cpp:151] Top shape: 20 64 15 15 (288000)
I0505 21:24:10.686467  9373 net.cpp:159] Memory required for data: 10440080
I0505 21:24:10.686470  9373 layer_factory.hpp:77] Creating layer conv2
I0505 21:24:10.686480  9373 net.cpp:94] Creating Layer conv2
I0505 21:24:10.686482  9373 net.cpp:435] conv2 <- pool1
I0505 21:24:10.686486  9373 net.cpp:409] conv2 -> conv2
I0505 21:24:10.699075  9373 net.cpp:144] Setting up conv2
I0505 21:24:10.699103  9373 net.cpp:151] Top shape: 20 128 15 15 (576000)
I0505 21:24:10.699111  9373 net.cpp:159] Memory required for data: 12744080
I0505 21:24:10.699127  9373 layer_factory.hpp:77] Creating layer relu2
I0505 21:24:10.699138  9373 net.cpp:94] Creating Layer relu2
I0505 21:24:10.699146  9373 net.cpp:435] relu2 <- conv2
I0505 21:24:10.699154  9373 net.cpp:396] relu2 -> conv2 (in-place)
I0505 21:24:10.699167  9373 net.cpp:144] Setting up relu2
I0505 21:24:10.699177  9373 net.cpp:151] Top shape: 20 128 15 15 (576000)
I0505 21:24:10.699182  9373 net.cpp:159] Memory required for data: 15048080
I0505 21:24:10.699188  9373 layer_factory.hpp:77] Creating layer conv3
I0505 21:24:10.699203  9373 net.cpp:94] Creating Layer conv3
I0505 21:24:10.699209  9373 net.cpp:435] conv3 <- conv2
I0505 21:24:10.699218  9373 net.cpp:409] conv3 -> conv3
I0505 21:24:10.721310  9373 net.cpp:144] Setting up conv3
I0505 21:24:10.721326  9373 net.cpp:151] Top shape: 20 128 15 15 (576000)
I0505 21:24:10.721330  9373 net.cpp:159] Memory required for data: 17352080
I0505 21:24:10.721338  9373 layer_factory.hpp:77] Creating layer relu3
I0505 21:24:10.721351  9373 net.cpp:94] Creating Layer relu3
I0505 21:24:10.721355  9373 net.cpp:435] relu3 <- conv3
I0505 21:24:10.721359  9373 net.cpp:396] relu3 -> conv3 (in-place)
I0505 21:24:10.721366  9373 net.cpp:144] Setting up relu3
I0505 21:24:10.721370  9373 net.cpp:151] Top shape: 20 128 15 15 (576000)
I0505 21:24:10.721374  9373 net.cpp:159] Memory required for data: 19656080
I0505 21:24:10.721376  9373 layer_factory.hpp:77] Creating layer pool3
I0505 21:24:10.721382  9373 net.cpp:94] Creating Layer pool3
I0505 21:24:10.721385  9373 net.cpp:435] pool3 <- conv3
I0505 21:24:10.721390  9373 net.cpp:409] pool3 -> pool3
I0505 21:24:10.721432  9373 net.cpp:144] Setting up pool3
I0505 21:24:10.721439  9373 net.cpp:151] Top shape: 20 128 7 7 (125440)
I0505 21:24:10.721442  9373 net.cpp:159] Memory required for data: 20157840
I0505 21:24:10.721446  9373 layer_factory.hpp:77] Creating layer ip1
I0505 21:24:10.721454  9373 net.cpp:94] Creating Layer ip1
I0505 21:24:10.721458  9373 net.cpp:435] ip1 <- pool3
I0505 21:24:10.721463  9373 net.cpp:409] ip1 -> ip1
I0505 21:24:10.799609  9373 net.cpp:144] Setting up ip1
I0505 21:24:10.799644  9373 net.cpp:151] Top shape: 20 512 (10240)
I0505 21:24:10.799649  9373 net.cpp:159] Memory required for data: 20198800
I0505 21:24:10.799657  9373 layer_factory.hpp:77] Creating layer ip2
I0505 21:24:10.799667  9373 net.cpp:94] Creating Layer ip2
I0505 21:24:10.799672  9373 net.cpp:435] ip2 <- ip1
I0505 21:24:10.799679  9373 net.cpp:409] ip2 -> ip2
I0505 21:24:10.802881  9373 net.cpp:144] Setting up ip2
I0505 21:24:10.802896  9373 net.cpp:151] Top shape: 20 256 (5120)
I0505 21:24:10.802899  9373 net.cpp:159] Memory required for data: 20219280
I0505 21:24:10.802908  9373 layer_factory.hpp:77] Creating layer ip3
I0505 21:24:10.802914  9373 net.cpp:94] Creating Layer ip3
I0505 21:24:10.802918  9373 net.cpp:435] ip3 <- ip2
I0505 21:24:10.802922  9373 net.cpp:409] ip3 -> ip3
I0505 21:24:10.803030  9373 net.cpp:144] Setting up ip3
I0505 21:24:10.803037  9373 net.cpp:151] Top shape: 20 1 (20)
I0505 21:24:10.803040  9373 net.cpp:159] Memory required for data: 20219360
I0505 21:24:10.803045  9373 layer_factory.hpp:77] Creating layer loss
I0505 21:24:10.803059  9373 net.cpp:94] Creating Layer loss
I0505 21:24:10.803063  9373 net.cpp:435] loss <- ip3
I0505 21:24:10.803067  9373 net.cpp:435] loss <- label
I0505 21:24:10.803071  9373 net.cpp:409] loss -> loss
I0505 21:24:10.803122  9373 net.cpp:144] Setting up loss
…
I0505 21:24:11.059677  9373 net.cpp:323] The NetState phase (0) differed from the phase (1) specified by a rule in layer intercept
I0505 21:24:11.059689  9373 net.cpp:323] The NetState phase (0) differed from the phase (1) specified by a rule in layer accuracy
I0505 21:24:11.059761  9373 net.cpp:52] Initializing net from parameters: 
state {
  phase: TRAIN
}
layer {
  name: "parameters"
  type: "HDF5Data"
  top: "data"
  top: "label"
  include {
    phase: TRAIN
  }
  hdf5_data_param {
    source: "/home/purduethu/scratch/radon/d/deng106/CNNStatisticalModel/distributions/input/20_distributions_900_sample_size_train-distributions-path.txt"
    batch_size: 20
  }
}
layer {
  name: "conv1"
  type: "Convolution"
  bottom: "data"
  top: "conv1"
  param {
    lr_mult: 1
  }
  param {
    lr_mult: 2
  }
  convolution_param {
    num_output: 64
    pad: 2
    kernel_size: 5
    stride: 1
    weight_filler {
      type: "gaussian"
      std: 0.0001
    }
    bias_filler {
      type: "constant"
    }
  }
}
layer {
  name: "relu1"
  type: "ReLU"
  bottom: "conv1"
  top: "conv1"
}
layer {
  name: "pool1"
  type: "Pooling"
  bottom: "conv1"
  top: "pool1"
  pooling_param {
    pool: MAX
    kernel_size: 3
    stride: 2
  }
}
layer {
  name: "conv2"
  type: "Convolution"
  bottom: "pool1"
  top: "conv2"
  param {
    lr_mult: 1
  }
  param {
    lr_mult: 2
  }
  convolution_param {
    num_output: 128
    pad: 2
    kernel_size: 5
    stride: 1
    weight_filler {
      type: "gaussian"
      std: 0.01
    }
    bias_filler {
      type: "constant"
    }
  }
}
layer {
  name: "relu2"
  type: "ReLU"
  bottom: "conv2"
  top: "conv2"
}
layer {
  name: "conv3"
  type: "Convolution"
  bottom: "conv2"
  top: "conv3"
  param {
    lr_mult: 1
  }
  param {
    lr_mult: 2
  }
  convolution_param {
    num_output: 128
    pad: 2
    kernel_size: 5
    stride: 1
    weight_filler {
      type: "gaussian"
      std: 0.01
    }
    bias_filler {
      type: "constant"
    }
  }
}
layer {
  name: "relu3"
  type: "ReLU"
  bottom: "conv3"
  top: "conv3"
}
layer {
  name: "pool3"
  type: "Pooling"
  bottom: "conv3"
  top: "pool3"
  pooling_param {
    pool: AVE
    kernel_size: 3
    stride: 2
  }
}
layer {
  name: "ip1"
  type: "InnerProduct"
  bottom: "pool3"
  top: "ip1"
  param {
    lr_mult: 1
  }
  param {
    lr_mult: 2
  }
  inner_product_param {
    num_output: 512
    weight_filler {
      type: "gaussian"
      std: 0.1
    }
    bias_filler {
      type: "constant"
    }
  }
}
layer {
  name: "ip2"
  type: "InnerProduct"
  bottom: "ip1"
  top: "ip2"
  param {
    lr_mult: 1
  }
  param {
    lr_mult: 2
  }
  inner_product_param {
    num_output: 256
    weight_filler {
      type: "gaussian"
      std: 0.1
    }
    bias_filler {
      type: "constant"
    }
  }
}
layer {
  name: "ip3"
  type: "InnerProduct"
  bottom: "ip2"
  top: "ip3"
  param {
    lr_mult: 1
  }
  param {
    lr_mult: 2
  }
  inner_product_param {
    num_output: 50
    weight_filler {
      type: "gaussian"
      std: 0.1
    }
    bias_filler {
      type: "constant"
    }
  }
}
layer {
  name: "loss"
  type: "SoftmaxWithLoss"
  bottom: "ip3"
  bottom: "label"
  top: "loss"
}
I0505 21:24:11.059803  9373 layer_factory.hpp:77] Creating layer parameters
I0505 21:24:11.059811  9373 net.cpp:94] Creating Layer parameters
I0505 21:24:11.059815  9373 net.cpp:409] parameters -> data
I0505 21:24:11.059821  9373 net.cpp:409] parameters -> label
I0505 21:24:11.059828  9373 hdf5_data_layer.cpp:79] Loading list of HDF5 filenames from: /home/purduethu/scratch/radon/d/deng106/CNNStatisticalModel/distributions/input/20_distributions_900_sample_size_train-distributions-path.txt
I0505 21:24:11.059842  9373 hdf5_data_layer.cpp:93] Number of HDF5 files: 1
I0505 21:24:11.626081  9373 hdf5.cpp:35] Datatype class: H5T_INTEGER
I0505 21:24:11.626968  9373 net.cpp:144] Setting up parameters
I0505 21:24:11.626982  9373 net.cpp:151] Top shape: 20 1 30 30 (18000)
I0505 21:24:11.626987  9373 net.cpp:151] Top shape: 20 (20)
I0505 21:24:11.626991  9373 net.cpp:159] Memory required for data: 72080
I0505 21:24:11.626996  9373 layer_factory.hpp:77] Creating layer conv1
I0505 21:24:11.627012  9373 net.cpp:94] Creating Layer conv1
I0505 21:24:11.627017  9373 net.cpp:435] conv1 <- data
I0505 21:24:11.627022  9373 net.cpp:409] conv1 -> conv1
I0505 21:24:11.630717  9373 net.cpp:144] Setting up conv1
I0505 21:24:11.630733  9373 net.cpp:151] Top shape: 20 64 30 30 (1152000)
I0505 21:24:11.630738  9373 net.cpp:159] Memory required for data: 4680080
I0505 21:24:11.630748  9373 layer_factory.hpp:77] Creating layer relu1
I0505 21:24:11.630755  9373 net.cpp:94] Creating Layer relu1
I0505 21:24:11.630759  9373 net.cpp:435] relu1 <- conv1
I0505 21:24:11.630764  9373 net.cpp:396] relu1 -> conv1 (in-place)
I0505 21:24:11.630770  9373 net.cpp:144] Setting up relu1
I0505 21:24:11.630774  9373 net.cpp:151] Top shape: 20 64 30 30 (1152000)
I0505 21:24:11.630777  9373 net.cpp:159] Memory required for data: 9288080
I0505 21:24:11.630780  9373 layer_factory.hpp:77] Creating layer pool1
I0505 21:24:11.630786  9373 net.cpp:94] Creating Layer pool1
I0505 21:24:11.630795  9373 net.cpp:435] pool1 <- conv1
I0505 21:24:11.630800  9373 net.cpp:409] pool1 -> pool1
I0505 21:24:11.630856  9373 net.cpp:144] Setting up pool1
I0505 21:24:11.630863  9373 net.cpp:151] Top shape: 20 64 15 15 (288000)
I0505 21:24:11.630867  9373 net.cpp:159] Memory required for data: 10440080
I0505 21:24:11.630870  9373 layer_factory.hpp:77] Creating layer conv2
I0505 21:24:11.630878  9373 net.cpp:94] Creating Layer conv2
I0505 21:24:11.630882  9373 net.cpp:435] conv2 <- pool1
I0505 21:24:11.630887  9373 net.cpp:409] conv2 -> conv2
I0505 21:24:11.644520  9373 net.cpp:144] Setting up conv2
I0505 21:24:11.644549  9373 net.cpp:151] Top shape: 20 128 15 15 (576000)
I0505 21:24:11.644572  9373 net.cpp:159] Memory required for data: 12744080
I0505 21:24:11.644588  9373 layer_factory.hpp:77] Creating layer relu2
I0505 21:24:11.644599  9373 net.cpp:94] Creating Layer relu2
I0505 21:24:11.644606  9373 net.cpp:435] relu2 <- conv2
I0505 21:24:11.644615  9373 net.cpp:396] relu2 -> conv2 (in-place)
I0505 21:24:11.644629  9373 net.cpp:144] Setting up relu2
I0505 21:24:11.644639  9373 net.cpp:151] Top shape: 20 128 15 15 (576000)
I0505 21:24:11.644644  9373 net.cpp:159] Memory required for data: 15048080
I0505 21:24:11.644649  9373 layer_factory.hpp:77] Creating layer conv3
I0505 21:24:11.644664  9373 net.cpp:94] Creating Layer conv3
I0505 21:24:11.644670  9373 net.cpp:435] conv3 <- conv2
I0505 21:24:11.644680  9373 net.cpp:409] conv3 -> conv3
I0505 21:24:11.667594  9373 net.cpp:144] Setting up conv3
I0505 21:24:11.667610  9373 net.cpp:151] Top shape: 20 128 15 15 (576000)
I0505 21:24:11.667614  9373 net.cpp:159] Memory required for data: 17352080
I0505 21:24:11.667623  9373 layer_factory.hpp:77] Creating layer relu3
I0505 21:24:11.667629  9373 net.cpp:94] Creating Layer relu3
I0505 21:24:11.667631  9373 net.cpp:435] relu3 <- conv3
I0505 21:24:11.667636  9373 net.cpp:396] relu3 -> conv3 (in-place)
I0505 21:24:11.667644  9373 net.cpp:144] Setting up relu3
I0505 21:24:11.667647  9373 net.cpp:151] Top shape: 20 128 15 15 (576000)
I0505 21:24:11.667650  9373 net.cpp:159] Memory required for data: 19656080
I0505 21:24:11.667654  9373 layer_factory.hpp:77] Creating layer pool3
I0505 21:24:11.667659  9373 net.cpp:94] Creating Layer pool3
I0505 21:24:11.667662  9373 net.cpp:435] pool3 <- conv3
I0505 21:24:11.667666  9373 net.cpp:409] pool3 -> pool3
I0505 21:24:11.667707  9373 net.cpp:144] Setting up pool3
I0505 21:24:11.667714  9373 net.cpp:151] Top shape: 20 128 7 7 (125440)
I0505 21:24:11.667717  9373 net.cpp:159] Memory required for data: 20157840
I0505 21:24:11.667721  9373 layer_factory.hpp:77] Creating layer ip1
I0505 21:24:11.667727  9373 net.cpp:94] Creating Layer ip1
I0505 21:24:11.667731  9373 net.cpp:435] ip1 <- pool3
I0505 21:24:11.667735  9373 net.cpp:409] ip1 -> ip1
I0505 21:24:11.745290  9373 net.cpp:144] Setting up ip1
I0505 21:24:11.745322  9373 net.cpp:151] Top shape: 20 512 (10240)
I0505 21:24:11.745326  9373 net.cpp:159] Memory required for data: 20198800
I0505 21:24:11.745334  9373 layer_factory.hpp:77] Creating layer ip2
I0505 21:24:11.745344  9373 net.cpp:94] Creating Layer ip2
I0505 21:24:11.745349  9373 net.cpp:435] ip2 <- ip1
I0505 21:24:11.745355  9373 net.cpp:409] ip2 -> ip2
I0505 21:24:11.748535  9373 net.cpp:144] Setting up ip2
I0505 21:24:11.748548  9373 net.cpp:151] Top shape: 20 256 (5120)
I0505 21:24:11.748556  9373 net.cpp:159] Memory required for data: 20219280
I0505 21:24:11.748564  9373 layer_factory.hpp:77] Creating layer ip3
I0505 21:24:11.748570  9373 net.cpp:94] Creating Layer ip3
I0505 21:24:11.748574  9373 net.cpp:435] ip3 <- ip2
I0505 21:24:11.748579  9373 net.cpp:409] ip3 -> ip3
I0505 21:24:11.749990  9373 net.cpp:144] Setting up ip3
I0505 21:24:11.750003  9373 net.cpp:151] Top shape: 20 50 (1000)
I0505 21:24:11.750007  9373 net.cpp:159] Memory required for data: 20223280
I0505 21:24:11.750013  9373 layer_factory.hpp:77] Creating layer loss
I0505 21:24:11.750020  9373 net.cpp:94] Creating Layer loss
I0505 21:24:11.750025  9373 net.cpp:435] loss <- ip3
I0505 21:24:11.750027  9373 net.cpp:435] loss <- label
I0505 21:24:11.750038  9373 net.cpp:409] loss -> loss
I0505 21:24:11.750047  9373 layer_factory.hpp:77] Creating layer loss
…
I0505 21:24:11.750496  9373 solver.cpp:181] Creating test net (#0) specified by net file: ./protocol/dis_20_900_dimension.protocol_distribution
I0505 21:24:11.750520  9373 net.cpp:323] The NetState phase (1) differed from the phase (0) specified by a rule in layer parameters
I0505 21:24:11.750600  9373 net.cpp:52] Initializing net from parameters: 
state {
  phase: TEST
}
layer {
  name: "intercept"
  type: "HDF5Data"
  top: "data"
  top: "label"
  include {
    phase: TEST
  }
  hdf5_data_param {
    source: "/home/purduethu/scratch/radon/d/deng106/CNNStatisticalModel/distributions/input/20_distributions_900_sample_size_test-distributions-path.txt"
    batch_size: 20
  }
}
layer {
  name: "conv1"
  type: "Convolution"
  bottom: "data"
  top: "conv1"
  param {
    lr_mult: 1
  }
  param {
    lr_mult: 2
  }
  convolution_param {
    num_output: 64
    pad: 2
    kernel_size: 5
    stride: 1
    weight_filler {
      type: "gaussian"
      std: 0.0001
    }
    bias_filler {
      type: "constant"
    }
  }
}
layer {
  name: "relu1"
  type: "ReLU"
  bottom: "conv1"
  top: "conv1"
}
layer {
  name: "pool1"
  type: "Pooling"
  bottom: "conv1"
  top: "pool1"
  pooling_param {
    pool: MAX
    kernel_size: 3
    stride: 2
  }
}
layer {
  name: "conv2"
  type: "Convolution"
  bottom: "pool1"
  top: "conv2"
  param {
    lr_mult: 1
  }
  param {
    lr_mult: 2
  }
  convolution_param {
    num_output: 128
    pad: 2
    kernel_size: 5
    stride: 1
    weight_filler {
      type: "gaussian"
      std: 0.01
    }
    bias_filler {
      type: "constant"
    }
  }
}
layer {
  name: "relu2"
  type: "ReLU"
  bottom: "conv2"
  top: "conv2"
}
layer {
  name: "conv3"
  type: "Convolution"
  bottom: "conv2"
  top: "conv3"
  param {
    lr_mult: 1
  }
  param {
    lr_mult: 2
  }
  convolution_param {
    num_output: 128
    pad: 2
    kernel_size: 5
    stride: 1
    weight_filler {
      type: "gaussian"
      std: 0.01
    }
    bias_filler {
      type: "constant"
    }
  }
}
layer {
  name: "relu3"
  type: "ReLU"
  bottom: "conv3"
  top: "conv3"
}
layer {
  name: "pool3"
  type: "Pooling"
  bottom: "conv3"
  top: "pool3"
  pooling_param {
    pool: AVE
    kernel_size: 3
    stride: 2
  }
}
layer {
  name: "ip1"
  type: "InnerProduct"
  bottom: "pool3"
  top: "ip1"
  param {
    lr_mult: 1
  }
  param {
    lr_mult: 2
  }
  inner_product_param {
    num_output: 512
    weight_filler {
      type: "gaussian"
      std: 0.1
    }
    bias_filler {
      type: "constant"
    }
  }
}
layer {
  name: "ip2"
  type: "InnerProduct"
  bottom: "ip1"
  top: "ip2"
  param {
    lr_mult: 1
  }
  param {
    lr_mult: 2
  }
  inner_product_param {
    num_output: 256
    weight_filler {
      type: "gaussian"
      std: 0.1
    }
    bias_filler {
      type: "constant"
    }
  }
}
layer {
  name: "ip3"
  type: "InnerProduct"
  bottom: "ip2"
  top: "ip3"
  param {
    lr_mult: 1
  }
  param {
    lr_mult: 2
  }
  inner_product_param {
    num_output: 50
    weight_filler {
      type: "gaussian"
      std: 0.1
    }
    bias_filler {
      type: "constant"
    }
  }
}
layer {
  name: "accuracy"
  type: "Accuracy"
  bottom: "ip3"
  bottom: "label"
  top: "accuracy"
  include {
    phase: TEST
  }
}
layer {
  name: "loss"
  type: "SoftmaxWithLoss"
  bottom: "ip3"
  bottom: "label"
  top: "loss"
}
I0505 21:24:11.750655  9373 layer_factory.hpp:77] Creating layer intercept
I0505 21:24:11.750663  9373 net.cpp:94] Creating Layer intercept
I0505 21:24:11.750668  9373 net.cpp:409] intercept -> data
I0505 21:24:11.750674  9373 net.cpp:409] intercept -> label
I0505 21:24:11.750679  9373 hdf5_data_layer.cpp:79] Loading list of HDF5 filenames from: /home/purduethu/scratch/radon/d/deng106/CNNStatisticalModel/distributions/input/20_distributions_900_sample_size_test-distributions-path.txt
I0505 21:24:11.750699  9373 hdf5_data_layer.cpp:93] Number of HDF5 files: 1
I0505 21:24:11.892334  9373 net.cpp:144] Setting up intercept
I0505 21:24:11.892369  9373 net.cpp:151] Top shape: 20 1 30 30 (18000)
I0505 21:24:11.892374  9373 net.cpp:151] Top shape: 20 (20)
I0505 21:24:11.892377  9373 net.cpp:159] Memory required for data: 72080
I0505 21:24:11.892382  9373 layer_factory.hpp:77] Creating layer label_intercept_1_split
I0505 21:24:11.892402  9373 net.cpp:94] Creating Layer label_intercept_1_split
I0505 21:24:11.892406  9373 net.cpp:435] label_intercept_1_split <- label
I0505 21:24:11.892412  9373 net.cpp:409] label_intercept_1_split -> label_intercept_1_split_0
I0505 21:24:11.892421  9373 net.cpp:409] label_intercept_1_split -> label_intercept_1_split_1
I0505 21:24:11.892462  9373 net.cpp:144] Setting up label_intercept_1_split
I0505 21:24:11.892468  9373 net.cpp:151] Top shape: 20 (20)
I0505 21:24:11.892472  9373 net.cpp:151] Top shape: 20 (20)
I0505 21:24:11.892475  9373 net.cpp:159] Memory required for data: 72240
I0505 21:24:11.892478  9373 layer_factory.hpp:77] Creating layer conv1
I0505 21:24:11.892488  9373 net.cpp:94] Creating Layer conv1
I0505 21:24:11.892493  9373 net.cpp:435] conv1 <- data
I0505 21:24:11.892496  9373 net.cpp:409] conv1 -> conv1
I0505 21:24:11.894086  9373 net.cpp:144] Setting up conv1
I0505 21:24:11.894101  9373 net.cpp:151] Top shape: 20 64 30 30 (1152000)
I0505 21:24:11.894105  9373 net.cpp:159] Memory required for data: 4680240
I0505 21:24:11.894114  9373 layer_factory.hpp:77] Creating layer relu1
I0505 21:24:11.894121  9373 net.cpp:94] Creating Layer relu1
I0505 21:24:11.894124  9373 net.cpp:435] relu1 <- conv1
I0505 21:24:11.894129  9373 net.cpp:396] relu1 -> conv1 (in-place)
I0505 21:24:11.894136  9373 net.cpp:144] Setting up relu1
I0505 21:24:11.894140  9373 net.cpp:151] Top shape: 20 64 30 30 (1152000)
I0505 21:24:11.894143  9373 net.cpp:159] Memory required for data: 9288240
I0505 21:24:11.894146  9373 layer_factory.hpp:77] Creating layer pool1
I0505 21:24:11.894153  9373 net.cpp:94] Creating Layer pool1
I0505 21:24:11.894156  9373 net.cpp:435] pool1 <- conv1
I0505 21:24:11.894160  9373 net.cpp:409] pool1 -> pool1
I0505 21:24:11.894215  9373 net.cpp:144] Setting up pool1
I0505 21:24:11.894222  9373 net.cpp:151] Top shape: 20 64 15 15 (288000)
I0505 21:24:11.894227  9373 net.cpp:159] Memory required for data: 10440240
I0505 21:24:11.894229  9373 layer_factory.hpp:77] Creating layer conv2
I0505 21:24:11.894237  9373 net.cpp:94] Creating Layer conv2
I0505 21:24:11.894240  9373 net.cpp:435] conv2 <- pool1
I0505 21:24:11.894245  9373 net.cpp:409] conv2 -> conv2
I0505 21:24:11.902699  9373 net.cpp:144] Setting up conv2
I0505 21:24:11.902714  9373 net.cpp:151] Top shape: 20 128 15 15 (576000)
I0505 21:24:11.902719  9373 net.cpp:159] Memory required for data: 12744240
I0505 21:24:11.902732  9373 layer_factory.hpp:77] Creating layer relu2
I0505 21:24:11.902740  9373 net.cpp:94] Creating Layer relu2
I0505 21:24:11.902743  9373 net.cpp:435] relu2 <- conv2
I0505 21:24:11.902747  9373 net.cpp:396] relu2 -> conv2 (in-place)
I0505 21:24:11.902755  9373 net.cpp:144] Setting up relu2
I0505 21:24:11.902758  9373 net.cpp:151] Top shape: 20 128 15 15 (576000)
I0505 21:24:11.902761  9373 net.cpp:159] Memory required for data: 15048240
I0505 21:24:11.902765  9373 layer_factory.hpp:77] Creating layer conv3
I0505 21:24:11.902771  9373 net.cpp:94] Creating Layer conv3
I0505 21:24:11.902775  9373 net.cpp:435] conv3 <- conv2
I0505 21:24:11.902779  9373 net.cpp:409] conv3 -> conv3
I0505 21:24:11.918295  9373 net.cpp:144] Setting up conv3
I0505 21:24:11.918311  9373 net.cpp:151] Top shape: 20 128 15 15 (576000)
I0505 21:24:11.918315  9373 net.cpp:159] Memory required for data: 17352240
I0505 21:24:11.918323  9373 layer_factory.hpp:77] Creating layer relu3
I0505 21:24:11.918330  9373 net.cpp:94] Creating Layer relu3
I0505 21:24:11.918334  9373 net.cpp:435] relu3 <- conv3
I0505 21:24:11.918339  9373 net.cpp:396] relu3 -> conv3 (in-place)
I0505 21:24:11.918345  9373 net.cpp:144] Setting up relu3
I0505 21:24:11.918349  9373 net.cpp:151] Top shape: 20 128 15 15 (576000)
I0505 21:24:11.918352  9373 net.cpp:159] Memory required for data: 19656240
I0505 21:24:11.918355  9373 layer_factory.hpp:77] Creating layer pool3
I0505 21:24:11.918360  9373 net.cpp:94] Creating Layer pool3
I0505 21:24:11.918362  9373 net.cpp:435] pool3 <- conv3
I0505 21:24:11.918367  9373 net.cpp:409] pool3 -> pool3
I0505 21:24:11.918411  9373 net.cpp:144] Setting up pool3
I0505 21:24:11.918417  9373 net.cpp:151] Top shape: 20 128 7 7 (125440)
I0505 21:24:11.918421  9373 net.cpp:159] Memory required for data: 20158000
I0505 21:24:11.918423  9373 layer_factory.hpp:77] Creating layer ip1
I0505 21:24:11.918431  9373 net.cpp:94] Creating Layer ip1
I0505 21:24:11.918433  9373 net.cpp:435] ip1 <- pool3
I0505 21:24:11.918437  9373 net.cpp:409] ip1 -> ip1
I0505 21:24:11.995956  9373 net.cpp:144] Setting up ip1
I0505 21:24:11.995992  9373 net.cpp:151] Top shape: 20 512 (10240)
I0505 21:24:11.995996  9373 net.cpp:159] Memory required for data: 20198960
I0505 21:24:11.996004  9373 layer_factory.hpp:77] Creating layer ip2
I0505 21:24:11.996016  9373 net.cpp:94] Creating Layer ip2
I0505 21:24:11.996019  9373 net.cpp:435] ip2 <- ip1
I0505 21:24:11.996026  9373 net.cpp:409] ip2 -> ip2
I0505 21:24:11.999218  9373 net.cpp:144] Setting up ip2
I0505 21:24:11.999233  9373 net.cpp:151] Top shape: 20 256 (5120)
I0505 21:24:11.999236  9373 net.cpp:159] Memory required for data: 20219440
I0505 21:24:11.999246  9373 layer_factory.hpp:77] Creating layer ip3
I0505 21:24:11.999253  9373 net.cpp:94] Creating Layer ip3
I0505 21:24:11.999256  9373 net.cpp:435] ip3 <- ip2
I0505 21:24:11.999260  9373 net.cpp:409] ip3 -> ip3
I0505 21:24:11.999692  9373 net.cpp:144] Setting up ip3
I0505 21:24:11.999701  9373 net.cpp:151] Top shape: 20 50 (1000)
I0505 21:24:11.999703  9373 net.cpp:159] Memory required for data: 20223440
I0505 21:24:11.999707  9373 layer_factory.hpp:77] Creating layer ip3_ip3_0_split
I0505 21:24:11.999713  9373 net.cpp:94] Creating Layer ip3_ip3_0_split
I0505 21:24:11.999716  9373 net.cpp:435] ip3_ip3_0_split <- ip3
I0505 21:24:11.999721  9373 net.cpp:409] ip3_ip3_0_split -> ip3_ip3_0_split_0
I0505 21:24:11.999725  9373 net.cpp:409] ip3_ip3_0_split -> ip3_ip3_0_split_1
I0505 21:24:11.999765  9373 net.cpp:144] Setting up ip3_ip3_0_split
I0505 21:24:11.999771  9373 net.cpp:151] Top shape: 20 50 (1000)
I0505 21:24:11.999774  9373 net.cpp:151] Top shape: 20 50 (1000)
I0505 21:24:11.999778  9373 net.cpp:159] Memory required for data: 20231440
I0505 21:24:11.999780  9373 layer_factory.hpp:77] Creating layer accuracy
I0505 21:24:11.999786  9373 net.cpp:94] Creating Layer accuracy
I0505 21:24:11.999789  9373 net.cpp:435] accuracy <- ip3_ip3_0_split_0
I0505 21:24:11.999794  9373 net.cpp:435] accuracy <- label_intercept_1_split_0
I0505 21:24:11.999797  9373 net.cpp:409] accuracy -> accuracy
…
