…
I0501 14:24:17.828763 13196 net.cpp:323] The NetState phase (0) differed from the phase (1) specified by a rule in layer intercept
I0501 14:24:17.828781 13196 net.cpp:323] The NetState phase (0) differed from the phase (1) specified by a rule in layer loss
I0501 14:24:17.828865 13196 net.cpp:52] Initializing net from parameters: 
state {
  phase: TRAIN
}
layer {
  name: "parameters"
  type: "HDF5Data"
  top: "data"
  top: "label"
  include {
    phase: TRAIN
  }
  hdf5_data_param {
    source: "/home/purduethu/scratch/radon/d/deng106/CNNStatisticalModel/distributions/input/50_distributions_100_sample_size_train-parameters-path.txt"
    batch_size: 20
  }
}
layer {
  name: "conv1"
  type: "Convolution"
  bottom: "data"
  top: "conv1"
  param {
    lr_mult: 1
  }
  param {
    lr_mult: 2
  }
  convolution_param {
    num_output: 64
    pad: 2
    kernel_size: 5
    stride: 1
    weight_filler {
      type: "gaussian"
      std: 0.0001
    }
    bias_filler {
      type: "constant"
    }
  }
}
layer {
  name: "relu1"
  type: "ReLU"
  bottom: "conv1"
  top: "conv1"
}
layer {
  name: "conv2"
  type: "Convolution"
  bottom: "conv1"
  top: "conv2"
  param {
    lr_mult: 1
  }
  param {
    lr_mult: 2
  }
  convolution_param {
    num_output: 64
    pad: 2
    kernel_size: 5
    stride: 1
    weight_filler {
      type: "gaussian"
      std: 0.01
    }
    bias_filler {
      type: "constant"
    }
  }
}
layer {
  name: "relu2"
  type: "ReLU"
  bottom: "conv2"
  top: "conv2"
}
layer {
  name: "pool2"
  type: "Pooling"
  bottom: "conv2"
  top: "pool2"
  pooling_param {
    pool: MAX
    kernel_size: 3
    stride: 2
  }
}
layer {
  name: "conv3"
  type: "Convolution"
  bottom: "pool2"
  top: "conv3"
  param {
    lr_mult: 1
  }
  param {
    lr_mult: 2
  }
  convolution_param {
    num_output: 64
    pad: 2
    kernel_size: 5
    stride: 1
    weight_filler {
      type: "gaussian"
      std: 0.01
    }
    bias_filler {
      type: "constant"
    }
  }
}
layer {
  name: "relu3"
  type: "ReLU"
  bottom: "conv3"
  top: "conv3"
}
layer {
  name: "conv4"
  type: "Convolution"
  bottom: "conv3"
  top: "conv4"
  param {
    lr_mult: 1
  }
  param {
    lr_mult: 2
  }
  convolution_param {
    num_output: 64
    pad: 2
    kernel_size: 5
    stride: 1
    weight_filler {
      type: "gaussian"
      std: 0.01
    }
    bias_filler {
      type: "constant"
    }
  }
}
layer {
  name: "relu4"
  type: "ReLU"
  bottom: "conv4"
  top: "conv4"
}
layer {
  name: "conv5"
  type: "Convolution"
  bottom: "conv4"
  top: "conv5"
  param {
    lr_mult: 1
  }
  param {
    lr_mult: 2
  }
  convolution_param {
    num_output: 64
    pad: 2
    kernel_size: 5
    stride: 1
    weight_filler {
      type: "gaussian"
      std: 0.01
    }
    bias_filler {
      type: "constant"
    }
  }
}
layer {
  name: "relu5"
  type: "ReLU"
  bottom: "conv5"
  top: "conv5"
}
layer {
  name: "pool5"
  type: "Pooling"
  bottom: "conv5"
  top: "pool5"
  pooling_param {
    pool: AVE
    kernel_size: 3
    stride: 2
  }
}
layer {
  name: "ip1"
  type: "InnerProduct"
  bottom: "pool5"
  top: "ip1"
  param {
    lr_mult: 1
  }
  param {
    lr_mult: 2
  }
  inner_product_param {
    num_output: 64
    weight_filler {
      type: "gaussian"
      std: 0.1
    }
    bias_filler {
      type: "constant"
    }
  }
}
layer {
  name: "ip2"
  type: "InnerProduct"
  bottom: "ip1"
  top: "ip2"
  param {
    lr_mult: 1
  }
  param {
    lr_mult: 2
  }
  inner_product_param {
    num_output: 64
    weight_filler {
      type: "gaussian"
      std: 0.1
    }
    bias_filler {
      type: "constant"
    }
  }
}
layer {
  name: "ip3"
  type: "InnerProduct"
  bottom: "ip2"
  top: "ip3"
  param {
    lr_mult: 1
  }
  param {
    lr_mult: 2
  }
  inner_product_param {
    num_output: 1
    weight_filler {
      type: "gaussian"
      std: 0.1
    }
    bias_filler {
      type: "constant"
    }
  }
}
layer {
  name: "loss"
  type: "HuberLoss"
  bottom: "ip3"
  bottom: "label"
  top: "loss"
  include {
    phase: TRAIN
  }
}
I0501 14:24:17.828919 13196 layer_factory.hpp:77] Creating layer parameters
I0501 14:24:17.828933 13196 net.cpp:94] Creating Layer parameters
I0501 14:24:17.828938 13196 net.cpp:409] parameters -> data
I0501 14:24:17.828946 13196 net.cpp:409] parameters -> label
I0501 14:24:17.828953 13196 hdf5_data_layer.cpp:79] Loading list of HDF5 filenames from: /home/purduethu/scratch/radon/d/deng106/CNNStatisticalModel/distributions/input/50_distributions_100_sample_size_train-parameters-path.txt
I0501 14:24:17.828969 13196 hdf5_data_layer.cpp:93] Number of HDF5 files: 1
I0501 14:24:17.829524 13196 hdf5.cpp:32] Datatype class: H5T_FLOAT
I0501 14:24:17.994499 13196 net.cpp:144] Setting up parameters
I0501 14:24:17.994529 13196 net.cpp:151] Top shape: 20 1 10 10 (2000)
I0501 14:24:17.994535 13196 net.cpp:151] Top shape: 20 (20)
I0501 14:24:17.994539 13196 net.cpp:159] Memory required for data: 8080
I0501 14:24:17.994545 13196 layer_factory.hpp:77] Creating layer conv1
I0501 14:24:17.994567 13196 net.cpp:94] Creating Layer conv1
I0501 14:24:17.994572 13196 net.cpp:435] conv1 <- data
I0501 14:24:17.994580 13196 net.cpp:409] conv1 -> conv1
I0501 14:24:17.998735 13196 net.cpp:144] Setting up conv1
I0501 14:24:17.998752 13196 net.cpp:151] Top shape: 20 64 10 10 (128000)
I0501 14:24:17.998756 13196 net.cpp:159] Memory required for data: 520080
I0501 14:24:17.998766 13196 layer_factory.hpp:77] Creating layer relu1
I0501 14:24:17.998775 13196 net.cpp:94] Creating Layer relu1
I0501 14:24:17.998778 13196 net.cpp:435] relu1 <- conv1
I0501 14:24:17.998783 13196 net.cpp:396] relu1 -> conv1 (in-place)
I0501 14:24:17.998797 13196 net.cpp:144] Setting up relu1
I0501 14:24:17.998802 13196 net.cpp:151] Top shape: 20 64 10 10 (128000)
I0501 14:24:17.998805 13196 net.cpp:159] Memory required for data: 1032080
I0501 14:24:17.998808 13196 layer_factory.hpp:77] Creating layer conv2
I0501 14:24:17.998816 13196 net.cpp:94] Creating Layer conv2
I0501 14:24:17.998821 13196 net.cpp:435] conv2 <- conv1
I0501 14:24:17.998824 13196 net.cpp:409] conv2 -> conv2
I0501 14:24:18.004885 13196 net.cpp:144] Setting up conv2
I0501 14:24:18.004899 13196 net.cpp:151] Top shape: 20 64 10 10 (128000)
I0501 14:24:18.004904 13196 net.cpp:159] Memory required for data: 1544080
I0501 14:24:18.004911 13196 layer_factory.hpp:77] Creating layer relu2
I0501 14:24:18.004918 13196 net.cpp:94] Creating Layer relu2
I0501 14:24:18.004922 13196 net.cpp:435] relu2 <- conv2
I0501 14:24:18.004927 13196 net.cpp:396] relu2 -> conv2 (in-place)
I0501 14:24:18.004935 13196 net.cpp:144] Setting up relu2
I0501 14:24:18.004940 13196 net.cpp:151] Top shape: 20 64 10 10 (128000)
I0501 14:24:18.004942 13196 net.cpp:159] Memory required for data: 2056080
I0501 14:24:18.004945 13196 layer_factory.hpp:77] Creating layer pool2
I0501 14:24:18.004957 13196 net.cpp:94] Creating Layer pool2
I0501 14:24:18.004961 13196 net.cpp:435] pool2 <- conv2
I0501 14:24:18.004966 13196 net.cpp:409] pool2 -> pool2
I0501 14:24:18.005017 13196 net.cpp:144] Setting up pool2
I0501 14:24:18.005024 13196 net.cpp:151] Top shape: 20 64 5 5 (32000)
I0501 14:24:18.005028 13196 net.cpp:159] Memory required for data: 2184080
I0501 14:24:18.005031 13196 layer_factory.hpp:77] Creating layer conv3
I0501 14:24:18.005039 13196 net.cpp:94] Creating Layer conv3
I0501 14:24:18.005043 13196 net.cpp:435] conv3 <- pool2
I0501 14:24:18.005048 13196 net.cpp:409] conv3 -> conv3
I0501 14:24:18.009871 13196 net.cpp:144] Setting up conv3
I0501 14:24:18.009883 13196 net.cpp:151] Top shape: 20 64 5 5 (32000)
I0501 14:24:18.009887 13196 net.cpp:159] Memory required for data: 2312080
I0501 14:24:18.009896 13196 layer_factory.hpp:77] Creating layer relu3
I0501 14:24:18.009902 13196 net.cpp:94] Creating Layer relu3
I0501 14:24:18.009905 13196 net.cpp:435] relu3 <- conv3
I0501 14:24:18.009910 13196 net.cpp:396] relu3 -> conv3 (in-place)
I0501 14:24:18.009917 13196 net.cpp:144] Setting up relu3
I0501 14:24:18.009922 13196 net.cpp:151] Top shape: 20 64 5 5 (32000)
I0501 14:24:18.009924 13196 net.cpp:159] Memory required for data: 2440080
I0501 14:24:18.009928 13196 layer_factory.hpp:77] Creating layer conv4
I0501 14:24:18.009937 13196 net.cpp:94] Creating Layer conv4
I0501 14:24:18.009940 13196 net.cpp:435] conv4 <- conv3
I0501 14:24:18.009945 13196 net.cpp:409] conv4 -> conv4
I0501 14:24:18.014302 13196 net.cpp:144] Setting up conv4
I0501 14:24:18.014315 13196 net.cpp:151] Top shape: 20 64 5 5 (32000)
I0501 14:24:18.014319 13196 net.cpp:159] Memory required for data: 2568080
I0501 14:24:18.014325 13196 layer_factory.hpp:77] Creating layer relu4
I0501 14:24:18.014331 13196 net.cpp:94] Creating Layer relu4
I0501 14:24:18.014335 13196 net.cpp:435] relu4 <- conv4
I0501 14:24:18.014339 13196 net.cpp:396] relu4 -> conv4 (in-place)
I0501 14:24:18.014346 13196 net.cpp:144] Setting up relu4
I0501 14:24:18.014351 13196 net.cpp:151] Top shape: 20 64 5 5 (32000)
I0501 14:24:18.014354 13196 net.cpp:159] Memory required for data: 2696080
I0501 14:24:18.014358 13196 layer_factory.hpp:77] Creating layer conv5
I0501 14:24:18.014364 13196 net.cpp:94] Creating Layer conv5
I0501 14:24:18.014369 13196 net.cpp:435] conv5 <- conv4
I0501 14:24:18.014374 13196 net.cpp:409] conv5 -> conv5
I0501 14:24:18.019174 13196 net.cpp:144] Setting up conv5
I0501 14:24:18.019187 13196 net.cpp:151] Top shape: 20 64 5 5 (32000)
I0501 14:24:18.019191 13196 net.cpp:159] Memory required for data: 2824080
I0501 14:24:18.019201 13196 layer_factory.hpp:77] Creating layer relu5
I0501 14:24:18.019207 13196 net.cpp:94] Creating Layer relu5
I0501 14:24:18.019210 13196 net.cpp:435] relu5 <- conv5
I0501 14:24:18.019214 13196 net.cpp:396] relu5 -> conv5 (in-place)
I0501 14:24:18.019222 13196 net.cpp:144] Setting up relu5
I0501 14:24:18.019227 13196 net.cpp:151] Top shape: 20 64 5 5 (32000)
I0501 14:24:18.019229 13196 net.cpp:159] Memory required for data: 2952080
I0501 14:24:18.019232 13196 layer_factory.hpp:77] Creating layer pool5
I0501 14:24:18.019237 13196 net.cpp:94] Creating Layer pool5
I0501 14:24:18.019240 13196 net.cpp:435] pool5 <- conv5
I0501 14:24:18.019245 13196 net.cpp:409] pool5 -> pool5
I0501 14:24:18.019281 13196 net.cpp:144] Setting up pool5
I0501 14:24:18.019289 13196 net.cpp:151] Top shape: 20 64 2 2 (5120)
I0501 14:24:18.019292 13196 net.cpp:159] Memory required for data: 2972560
I0501 14:24:18.019295 13196 layer_factory.hpp:77] Creating layer ip1
I0501 14:24:18.019306 13196 net.cpp:94] Creating Layer ip1
I0501 14:24:18.019309 13196 net.cpp:435] ip1 <- pool5
I0501 14:24:18.019315 13196 net.cpp:409] ip1 -> ip1
I0501 14:24:18.020650 13196 net.cpp:144] Setting up ip1
I0501 14:24:18.020664 13196 net.cpp:151] Top shape: 20 64 (1280)
I0501 14:24:18.020668 13196 net.cpp:159] Memory required for data: 2977680
I0501 14:24:18.020674 13196 layer_factory.hpp:77] Creating layer ip2
I0501 14:24:18.020681 13196 net.cpp:94] Creating Layer ip2
I0501 14:24:18.020690 13196 net.cpp:435] ip2 <- ip1
I0501 14:24:18.020696 13196 net.cpp:409] ip2 -> ip2
I0501 14:24:18.020900 13196 net.cpp:144] Setting up ip2
I0501 14:24:18.020908 13196 net.cpp:151] Top shape: 20 64 (1280)
I0501 14:24:18.020911 13196 net.cpp:159] Memory required for data: 2982800
I0501 14:24:18.020916 13196 layer_factory.hpp:77] Creating layer ip3
I0501 14:24:18.020922 13196 net.cpp:94] Creating Layer ip3
I0501 14:24:18.020926 13196 net.cpp:435] ip3 <- ip2
I0501 14:24:18.020931 13196 net.cpp:409] ip3 -> ip3
I0501 14:24:18.021030 13196 net.cpp:144] Setting up ip3
I0501 14:24:18.021037 13196 net.cpp:151] Top shape: 20 1 (20)
I0501 14:24:18.021040 13196 net.cpp:159] Memory required for data: 2982880
I0501 14:24:18.021046 13196 layer_factory.hpp:77] Creating layer loss
I0501 14:24:18.021054 13196 net.cpp:94] Creating Layer loss
I0501 14:24:18.021056 13196 net.cpp:435] loss <- ip3
I0501 14:24:18.021060 13196 net.cpp:435] loss <- label
I0501 14:24:18.021065 13196 net.cpp:409] loss -> loss
I0501 14:24:18.021112 13196 net.cpp:144] Setting up loss
…
I0501 14:24:18.082556 13196 net.cpp:323] The NetState phase (0) differed from the phase (1) specified by a rule in layer intercept
I0501 14:24:18.082574 13196 net.cpp:323] The NetState phase (0) differed from the phase (1) specified by a rule in layer accuracy
I0501 14:24:18.082664 13196 net.cpp:52] Initializing net from parameters: 
state {
  phase: TRAIN
}
layer {
  name: "parameters"
  type: "HDF5Data"
  top: "data"
  top: "label"
  include {
    phase: TRAIN
  }
  hdf5_data_param {
    source: "/home/purduethu/scratch/radon/d/deng106/CNNStatisticalModel/distributions/input/50_distributions_100_sample_size_train-distributions-path.txt"
    batch_size: 20
  }
}
layer {
  name: "conv1"
  type: "Convolution"
  bottom: "data"
  top: "conv1"
  param {
    lr_mult: 1
  }
  param {
    lr_mult: 2
  }
  convolution_param {
    num_output: 64
    pad: 2
    kernel_size: 5
    stride: 1
    weight_filler {
      type: "gaussian"
      std: 0.0001
    }
    bias_filler {
      type: "constant"
    }
  }
}
layer {
  name: "relu1"
  type: "ReLU"
  bottom: "conv1"
  top: "conv1"
}
layer {
  name: "conv2"
  type: "Convolution"
  bottom: "conv1"
  top: "conv2"
  param {
    lr_mult: 1
  }
  param {
    lr_mult: 2
  }
  convolution_param {
    num_output: 64
    pad: 2
    kernel_size: 5
    stride: 1
    weight_filler {
      type: "gaussian"
      std: 0.01
    }
    bias_filler {
      type: "constant"
    }
  }
}
layer {
  name: "relu2"
  type: "ReLU"
  bottom: "conv2"
  top: "conv2"
}
layer {
  name: "pool2"
  type: "Pooling"
  bottom: "conv2"
  top: "pool2"
  pooling_param {
    pool: MAX
    kernel_size: 3
    stride: 2
  }
}
layer {
  name: "conv3"
  type: "Convolution"
  bottom: "pool2"
  top: "conv3"
  param {
    lr_mult: 1
  }
  param {
    lr_mult: 2
  }
  convolution_param {
    num_output: 64
    pad: 2
    kernel_size: 5
    stride: 1
    weight_filler {
      type: "gaussian"
      std: 0.01
    }
    bias_filler {
      type: "constant"
    }
  }
}
layer {
  name: "relu3"
  type: "ReLU"
  bottom: "conv3"
  top: "conv3"
}
layer {
  name: "conv4"
  type: "Convolution"
  bottom: "conv3"
  top: "conv4"
  param {
    lr_mult: 1
  }
  param {
    lr_mult: 2
  }
  convolution_param {
    num_output: 64
    pad: 2
    kernel_size: 5
    stride: 1
    weight_filler {
      type: "gaussian"
      std: 0.01
    }
    bias_filler {
      type: "constant"
    }
  }
}
layer {
  name: "relu4"
  type: "ReLU"
  bottom: "conv4"
  top: "conv4"
}
layer {
  name: "conv5"
  type: "Convolution"
  bottom: "conv4"
  top: "conv5"
  param {
    lr_mult: 1
  }
  param {
    lr_mult: 2
  }
  convolution_param {
    num_output: 64
    pad: 2
    kernel_size: 5
    stride: 1
    weight_filler {
      type: "gaussian"
      std: 0.01
    }
    bias_filler {
      type: "constant"
    }
  }
}
layer {
  name: "relu5"
  type: "ReLU"
  bottom: "conv5"
  top: "conv5"
}
layer {
  name: "pool5"
  type: "Pooling"
  bottom: "conv5"
  top: "pool5"
  pooling_param {
    pool: AVE
    kernel_size: 3
    stride: 2
  }
}
layer {
  name: "ip1"
  type: "InnerProduct"
  bottom: "pool5"
  top: "ip1"
  param {
    lr_mult: 1
  }
  param {
    lr_mult: 2
  }
  inner_product_param {
    num_output: 64
    weight_filler {
      type: "gaussian"
      std: 0.1
    }
    bias_filler {
      type: "constant"
    }
  }
}
layer {
  name: "ip2"
  type: "InnerProduct"
  bottom: "ip1"
  top: "ip2"
  param {
    lr_mult: 1
  }
  param {
    lr_mult: 2
  }
  inner_product_param {
    num_output: 64
    weight_filler {
      type: "gaussian"
      std: 0.1
    }
    bias_filler {
      type: "constant"
    }
  }
}
layer {
  name: "ip3"
  type: "InnerProduct"
  bottom: "ip2"
  top: "ip3"
  param {
    lr_mult: 1
  }
  param {
    lr_mult: 2
  }
  inner_product_param {
    num_output: 50
    weight_filler {
      type: "gaussian"
      std: 0.1
    }
    bias_filler {
      type: "constant"
    }
  }
}
layer {
  name: "loss"
  type: "SoftmaxWithLoss"
  bottom: "ip3"
  bottom: "label"
  top: "loss"
}
I0501 14:24:18.082717 13196 layer_factory.hpp:77] Creating layer parameters
I0501 14:24:18.082726 13196 net.cpp:94] Creating Layer parameters
I0501 14:24:18.082731 13196 net.cpp:409] parameters -> data
I0501 14:24:18.082738 13196 net.cpp:409] parameters -> label
I0501 14:24:18.082744 13196 hdf5_data_layer.cpp:79] Loading list of HDF5 filenames from: /home/purduethu/scratch/radon/d/deng106/CNNStatisticalModel/distributions/input/50_distributions_100_sample_size_train-distributions-path.txt
I0501 14:24:18.082761 13196 hdf5_data_layer.cpp:93] Number of HDF5 files: 1
I0501 14:24:18.242434 13196 hdf5.cpp:35] Datatype class: H5T_INTEGER
I0501 14:24:18.245538 13196 net.cpp:144] Setting up parameters
I0501 14:24:18.245563 13196 net.cpp:151] Top shape: 20 1 10 10 (2000)
I0501 14:24:18.245568 13196 net.cpp:151] Top shape: 20 (20)
I0501 14:24:18.245571 13196 net.cpp:159] Memory required for data: 8080
I0501 14:24:18.245578 13196 layer_factory.hpp:77] Creating layer conv1
I0501 14:24:18.245594 13196 net.cpp:94] Creating Layer conv1
I0501 14:24:18.245599 13196 net.cpp:435] conv1 <- data
I0501 14:24:18.245605 13196 net.cpp:409] conv1 -> conv1
I0501 14:24:18.247318 13196 net.cpp:144] Setting up conv1
I0501 14:24:18.247333 13196 net.cpp:151] Top shape: 20 64 10 10 (128000)
I0501 14:24:18.247336 13196 net.cpp:159] Memory required for data: 520080
I0501 14:24:18.247346 13196 layer_factory.hpp:77] Creating layer relu1
I0501 14:24:18.247354 13196 net.cpp:94] Creating Layer relu1
I0501 14:24:18.247357 13196 net.cpp:435] relu1 <- conv1
I0501 14:24:18.247362 13196 net.cpp:396] relu1 -> conv1 (in-place)
I0501 14:24:18.247370 13196 net.cpp:144] Setting up relu1
I0501 14:24:18.247375 13196 net.cpp:151] Top shape: 20 64 10 10 (128000)
I0501 14:24:18.247377 13196 net.cpp:159] Memory required for data: 1032080
I0501 14:24:18.247380 13196 layer_factory.hpp:77] Creating layer conv2
I0501 14:24:18.247387 13196 net.cpp:94] Creating Layer conv2
I0501 14:24:18.247391 13196 net.cpp:435] conv2 <- conv1
I0501 14:24:18.247396 13196 net.cpp:409] conv2 -> conv2
I0501 14:24:18.252713 13196 net.cpp:144] Setting up conv2
I0501 14:24:18.252727 13196 net.cpp:151] Top shape: 20 64 10 10 (128000)
I0501 14:24:18.252732 13196 net.cpp:159] Memory required for data: 1544080
I0501 14:24:18.252740 13196 layer_factory.hpp:77] Creating layer relu2
I0501 14:24:18.252746 13196 net.cpp:94] Creating Layer relu2
I0501 14:24:18.252750 13196 net.cpp:435] relu2 <- conv2
I0501 14:24:18.252755 13196 net.cpp:396] relu2 -> conv2 (in-place)
I0501 14:24:18.252763 13196 net.cpp:144] Setting up relu2
I0501 14:24:18.252766 13196 net.cpp:151] Top shape: 20 64 10 10 (128000)
I0501 14:24:18.252769 13196 net.cpp:159] Memory required for data: 2056080
I0501 14:24:18.252773 13196 layer_factory.hpp:77] Creating layer pool2
I0501 14:24:18.252779 13196 net.cpp:94] Creating Layer pool2
I0501 14:24:18.252782 13196 net.cpp:435] pool2 <- conv2
I0501 14:24:18.252786 13196 net.cpp:409] pool2 -> pool2
I0501 14:24:18.252836 13196 net.cpp:144] Setting up pool2
I0501 14:24:18.252843 13196 net.cpp:151] Top shape: 20 64 5 5 (32000)
I0501 14:24:18.252847 13196 net.cpp:159] Memory required for data: 2184080
I0501 14:24:18.252851 13196 layer_factory.hpp:77] Creating layer conv3
I0501 14:24:18.252858 13196 net.cpp:94] Creating Layer conv3
I0501 14:24:18.252861 13196 net.cpp:435] conv3 <- pool2
I0501 14:24:18.252866 13196 net.cpp:409] conv3 -> conv3
I0501 14:24:18.258604 13196 net.cpp:144] Setting up conv3
I0501 14:24:18.258617 13196 net.cpp:151] Top shape: 20 64 5 5 (32000)
I0501 14:24:18.258621 13196 net.cpp:159] Memory required for data: 2312080
I0501 14:24:18.258630 13196 layer_factory.hpp:77] Creating layer relu3
I0501 14:24:18.258636 13196 net.cpp:94] Creating Layer relu3
I0501 14:24:18.258641 13196 net.cpp:435] relu3 <- conv3
I0501 14:24:18.258644 13196 net.cpp:396] relu3 -> conv3 (in-place)
I0501 14:24:18.258651 13196 net.cpp:144] Setting up relu3
I0501 14:24:18.258656 13196 net.cpp:151] Top shape: 20 64 5 5 (32000)
I0501 14:24:18.258659 13196 net.cpp:159] Memory required for data: 2440080
I0501 14:24:18.258662 13196 layer_factory.hpp:77] Creating layer conv4
I0501 14:24:18.258671 13196 net.cpp:94] Creating Layer conv4
I0501 14:24:18.258674 13196 net.cpp:435] conv4 <- conv3
I0501 14:24:18.258679 13196 net.cpp:409] conv4 -> conv4
I0501 14:24:18.263535 13196 net.cpp:144] Setting up conv4
I0501 14:24:18.263550 13196 net.cpp:151] Top shape: 20 64 5 5 (32000)
I0501 14:24:18.263553 13196 net.cpp:159] Memory required for data: 2568080
I0501 14:24:18.263561 13196 layer_factory.hpp:77] Creating layer relu4
I0501 14:24:18.263566 13196 net.cpp:94] Creating Layer relu4
I0501 14:24:18.263569 13196 net.cpp:435] relu4 <- conv4
I0501 14:24:18.263574 13196 net.cpp:396] relu4 -> conv4 (in-place)
I0501 14:24:18.263581 13196 net.cpp:144] Setting up relu4
I0501 14:24:18.263586 13196 net.cpp:151] Top shape: 20 64 5 5 (32000)
I0501 14:24:18.263588 13196 net.cpp:159] Memory required for data: 2696080
I0501 14:24:18.263592 13196 layer_factory.hpp:77] Creating layer conv5
I0501 14:24:18.263599 13196 net.cpp:94] Creating Layer conv5
I0501 14:24:18.263602 13196 net.cpp:435] conv5 <- conv4
I0501 14:24:18.263607 13196 net.cpp:409] conv5 -> conv5
I0501 14:24:18.267987 13196 net.cpp:144] Setting up conv5
I0501 14:24:18.268000 13196 net.cpp:151] Top shape: 20 64 5 5 (32000)
I0501 14:24:18.268004 13196 net.cpp:159] Memory required for data: 2824080
I0501 14:24:18.268013 13196 layer_factory.hpp:77] Creating layer relu5
I0501 14:24:18.268019 13196 net.cpp:94] Creating Layer relu5
I0501 14:24:18.268023 13196 net.cpp:435] relu5 <- conv5
I0501 14:24:18.268028 13196 net.cpp:396] relu5 -> conv5 (in-place)
I0501 14:24:18.268034 13196 net.cpp:144] Setting up relu5
I0501 14:24:18.268038 13196 net.cpp:151] Top shape: 20 64 5 5 (32000)
I0501 14:24:18.268041 13196 net.cpp:159] Memory required for data: 2952080
I0501 14:24:18.268044 13196 layer_factory.hpp:77] Creating layer pool5
I0501 14:24:18.268050 13196 net.cpp:94] Creating Layer pool5
I0501 14:24:18.268054 13196 net.cpp:435] pool5 <- conv5
I0501 14:24:18.268059 13196 net.cpp:409] pool5 -> pool5
I0501 14:24:18.268091 13196 net.cpp:144] Setting up pool5
I0501 14:24:18.268098 13196 net.cpp:151] Top shape: 20 64 2 2 (5120)
I0501 14:24:18.268101 13196 net.cpp:159] Memory required for data: 2972560
I0501 14:24:18.268105 13196 layer_factory.hpp:77] Creating layer ip1
I0501 14:24:18.268111 13196 net.cpp:94] Creating Layer ip1
I0501 14:24:18.268115 13196 net.cpp:435] ip1 <- pool5
I0501 14:24:18.268121 13196 net.cpp:409] ip1 -> ip1
I0501 14:24:18.268640 13196 net.cpp:144] Setting up ip1
I0501 14:24:18.268648 13196 net.cpp:151] Top shape: 20 64 (1280)
I0501 14:24:18.268652 13196 net.cpp:159] Memory required for data: 2977680
I0501 14:24:18.268657 13196 layer_factory.hpp:77] Creating layer ip2
I0501 14:24:18.268663 13196 net.cpp:94] Creating Layer ip2
I0501 14:24:18.268667 13196 net.cpp:435] ip2 <- ip1
I0501 14:24:18.268672 13196 net.cpp:409] ip2 -> ip2
I0501 14:24:18.268887 13196 net.cpp:144] Setting up ip2
I0501 14:24:18.268894 13196 net.cpp:151] Top shape: 20 64 (1280)
I0501 14:24:18.268898 13196 net.cpp:159] Memory required for data: 2982800
I0501 14:24:18.268903 13196 layer_factory.hpp:77] Creating layer ip3
I0501 14:24:18.268908 13196 net.cpp:94] Creating Layer ip3
I0501 14:24:18.268913 13196 net.cpp:435] ip3 <- ip2
I0501 14:24:18.268918 13196 net.cpp:409] ip3 -> ip3
I0501 14:24:18.269103 13196 net.cpp:144] Setting up ip3
I0501 14:24:18.269109 13196 net.cpp:151] Top shape: 20 50 (1000)
I0501 14:24:18.269119 13196 net.cpp:159] Memory required for data: 2986800
I0501 14:24:18.269124 13196 layer_factory.hpp:77] Creating layer loss
I0501 14:24:18.269130 13196 net.cpp:94] Creating Layer loss
I0501 14:24:18.269134 13196 net.cpp:435] loss <- ip3
I0501 14:24:18.269139 13196 net.cpp:435] loss <- label
I0501 14:24:18.269142 13196 net.cpp:409] loss -> loss
I0501 14:24:18.269150 13196 layer_factory.hpp:77] Creating layer loss
…
I0501 14:24:18.270524 13196 solver.cpp:181] Creating test net (#0) specified by net file: ./protocol/dis_50_100_dimension.protocol_distribution
I0501 14:24:18.270550 13196 net.cpp:323] The NetState phase (1) differed from the phase (0) specified by a rule in layer parameters
I0501 14:24:18.270647 13196 net.cpp:52] Initializing net from parameters: 
state {
  phase: TEST
}
layer {
  name: "intercept"
  type: "HDF5Data"
  top: "data"
  top: "label"
  include {
    phase: TEST
  }
  hdf5_data_param {
    source: "/home/purduethu/scratch/radon/d/deng106/CNNStatisticalModel/distributions/input/50_distributions_100_sample_size_test-distributions-path.txt"
    batch_size: 20
  }
}
layer {
  name: "conv1"
  type: "Convolution"
  bottom: "data"
  top: "conv1"
  param {
    lr_mult: 1
  }
  param {
    lr_mult: 2
  }
  convolution_param {
    num_output: 64
    pad: 2
    kernel_size: 5
    stride: 1
    weight_filler {
      type: "gaussian"
      std: 0.0001
    }
    bias_filler {
      type: "constant"
    }
  }
}
layer {
  name: "relu1"
  type: "ReLU"
  bottom: "conv1"
  top: "conv1"
}
layer {
  name: "conv2"
  type: "Convolution"
  bottom: "conv1"
  top: "conv2"
  param {
    lr_mult: 1
  }
  param {
    lr_mult: 2
  }
  convolution_param {
    num_output: 64
    pad: 2
    kernel_size: 5
    stride: 1
    weight_filler {
      type: "gaussian"
      std: 0.01
    }
    bias_filler {
      type: "constant"
    }
  }
}
layer {
  name: "relu2"
  type: "ReLU"
  bottom: "conv2"
  top: "conv2"
}
layer {
  name: "pool2"
  type: "Pooling"
  bottom: "conv2"
  top: "pool2"
  pooling_param {
    pool: MAX
    kernel_size: 3
    stride: 2
  }
}
layer {
  name: "conv3"
  type: "Convolution"
  bottom: "pool2"
  top: "conv3"
  param {
    lr_mult: 1
  }
  param {
    lr_mult: 2
  }
  convolution_param {
    num_output: 64
    pad: 2
    kernel_size: 5
    stride: 1
    weight_filler {
      type: "gaussian"
      std: 0.01
    }
    bias_filler {
      type: "constant"
    }
  }
}
layer {
  name: "relu3"
  type: "ReLU"
  bottom: "conv3"
  top: "conv3"
}
layer {
  name: "conv4"
  type: "Convolution"
  bottom: "conv3"
  top: "conv4"
  param {
    lr_mult: 1
  }
  param {
    lr_mult: 2
  }
  convolution_param {
    num_output: 64
    pad: 2
    kernel_size: 5
    stride: 1
    weight_filler {
      type: "gaussian"
      std: 0.01
    }
    bias_filler {
      type: "constant"
    }
  }
}
layer {
  name: "relu4"
  type: "ReLU"
  bottom: "conv4"
  top: "conv4"
}
layer {
  name: "conv5"
  type: "Convolution"
  bottom: "conv4"
  top: "conv5"
  param {
    lr_mult: 1
  }
  param {
    lr_mult: 2
  }
  convolution_param {
    num_output: 64
    pad: 2
    kernel_size: 5
    stride: 1
    weight_filler {
      type: "gaussian"
      std: 0.01
    }
    bias_filler {
      type: "constant"
    }
  }
}
layer {
  name: "relu5"
  type: "ReLU"
  bottom: "conv5"
  top: "conv5"
}
layer {
  name: "pool5"
  type: "Pooling"
  bottom: "conv5"
  top: "pool5"
  pooling_param {
    pool: AVE
    kernel_size: 3
    stride: 2
  }
}
layer {
  name: "ip1"
  type: "InnerProduct"
  bottom: "pool5"
  top: "ip1"
  param {
    lr_mult: 1
  }
  param {
    lr_mult: 2
  }
  inner_product_param {
    num_output: 64
    weight_filler {
      type: "gaussian"
      std: 0.1
    }
    bias_filler {
      type: "constant"
    }
  }
}
layer {
  name: "ip2"
  type: "InnerProduct"
  bottom: "ip1"
  top: "ip2"
  param {
    lr_mult: 1
  }
  param {
    lr_mult: 2
  }
  inner_product_param {
    num_output: 64
    weight_filler {
      type: "gaussian"
      std: 0.1
    }
    bias_filler {
      type: "constant"
    }
  }
}
layer {
  name: "ip3"
  type: "InnerProduct"
  bottom: "ip2"
  top: "ip3"
  param {
    lr_mult: 1
  }
  param {
    lr_mult: 2
  }
  inner_product_param {
    num_output: 50
    weight_filler {
      type: "gaussian"
      std: 0.1
    }
    bias_filler {
      type: "constant"
    }
  }
}
layer {
  name: "accuracy"
  type: "Accuracy"
  bottom: "ip3"
  bottom: "label"
  top: "accuracy"
  include {
    phase: TEST
  }
}
layer {
  name: "loss"
  type: "SoftmaxWithLoss"
  bottom: "ip3"
  bottom: "label"
  top: "loss"
}
I0501 14:24:18.270714 13196 layer_factory.hpp:77] Creating layer intercept
I0501 14:24:18.270723 13196 net.cpp:94] Creating Layer intercept
I0501 14:24:18.270728 13196 net.cpp:409] intercept -> data
I0501 14:24:18.270735 13196 net.cpp:409] intercept -> label
I0501 14:24:18.270741 13196 hdf5_data_layer.cpp:79] Loading list of HDF5 filenames from: /home/purduethu/scratch/radon/d/deng106/CNNStatisticalModel/distributions/input/50_distributions_100_sample_size_test-distributions-path.txt
I0501 14:24:18.270761 13196 hdf5_data_layer.cpp:93] Number of HDF5 files: 1
I0501 14:24:18.312758 13196 net.cpp:144] Setting up intercept
I0501 14:24:18.312791 13196 net.cpp:151] Top shape: 20 1 10 10 (2000)
I0501 14:24:18.312798 13196 net.cpp:151] Top shape: 20 (20)
I0501 14:24:18.312800 13196 net.cpp:159] Memory required for data: 8080
I0501 14:24:18.312808 13196 layer_factory.hpp:77] Creating layer label_intercept_1_split
I0501 14:24:18.312827 13196 net.cpp:94] Creating Layer label_intercept_1_split
I0501 14:24:18.312832 13196 net.cpp:435] label_intercept_1_split <- label
I0501 14:24:18.312839 13196 net.cpp:409] label_intercept_1_split -> label_intercept_1_split_0
I0501 14:24:18.312847 13196 net.cpp:409] label_intercept_1_split -> label_intercept_1_split_1
I0501 14:24:18.312886 13196 net.cpp:144] Setting up label_intercept_1_split
I0501 14:24:18.312893 13196 net.cpp:151] Top shape: 20 (20)
I0501 14:24:18.312896 13196 net.cpp:151] Top shape: 20 (20)
I0501 14:24:18.312901 13196 net.cpp:159] Memory required for data: 8240
I0501 14:24:18.312903 13196 layer_factory.hpp:77] Creating layer conv1
I0501 14:24:18.312914 13196 net.cpp:94] Creating Layer conv1
I0501 14:24:18.312918 13196 net.cpp:435] conv1 <- data
I0501 14:24:18.312923 13196 net.cpp:409] conv1 -> conv1
I0501 14:24:18.313709 13196 net.cpp:144] Setting up conv1
I0501 14:24:18.313724 13196 net.cpp:151] Top shape: 20 64 10 10 (128000)
I0501 14:24:18.313735 13196 net.cpp:159] Memory required for data: 520240
I0501 14:24:18.313745 13196 layer_factory.hpp:77] Creating layer relu1
I0501 14:24:18.313751 13196 net.cpp:94] Creating Layer relu1
I0501 14:24:18.313755 13196 net.cpp:435] relu1 <- conv1
I0501 14:24:18.313760 13196 net.cpp:396] relu1 -> conv1 (in-place)
I0501 14:24:18.313767 13196 net.cpp:144] Setting up relu1
I0501 14:24:18.313771 13196 net.cpp:151] Top shape: 20 64 10 10 (128000)
I0501 14:24:18.313774 13196 net.cpp:159] Memory required for data: 1032240
I0501 14:24:18.313777 13196 layer_factory.hpp:77] Creating layer conv2
I0501 14:24:18.313786 13196 net.cpp:94] Creating Layer conv2
I0501 14:24:18.313789 13196 net.cpp:435] conv2 <- conv1
I0501 14:24:18.313793 13196 net.cpp:409] conv2 -> conv2
I0501 14:24:18.317847 13196 net.cpp:144] Setting up conv2
I0501 14:24:18.317862 13196 net.cpp:151] Top shape: 20 64 10 10 (128000)
I0501 14:24:18.317865 13196 net.cpp:159] Memory required for data: 1544240
I0501 14:24:18.317873 13196 layer_factory.hpp:77] Creating layer relu2
I0501 14:24:18.317879 13196 net.cpp:94] Creating Layer relu2
I0501 14:24:18.317883 13196 net.cpp:435] relu2 <- conv2
I0501 14:24:18.317888 13196 net.cpp:396] relu2 -> conv2 (in-place)
I0501 14:24:18.317894 13196 net.cpp:144] Setting up relu2
I0501 14:24:18.317898 13196 net.cpp:151] Top shape: 20 64 10 10 (128000)
I0501 14:24:18.317903 13196 net.cpp:159] Memory required for data: 2056240
I0501 14:24:18.317905 13196 layer_factory.hpp:77] Creating layer pool2
I0501 14:24:18.317912 13196 net.cpp:94] Creating Layer pool2
I0501 14:24:18.317916 13196 net.cpp:435] pool2 <- conv2
I0501 14:24:18.317920 13196 net.cpp:409] pool2 -> pool2
I0501 14:24:18.317975 13196 net.cpp:144] Setting up pool2
I0501 14:24:18.317981 13196 net.cpp:151] Top shape: 20 64 5 5 (32000)
I0501 14:24:18.317983 13196 net.cpp:159] Memory required for data: 2184240
I0501 14:24:18.317987 13196 layer_factory.hpp:77] Creating layer conv3
I0501 14:24:18.317996 13196 net.cpp:94] Creating Layer conv3
I0501 14:24:18.318001 13196 net.cpp:435] conv3 <- pool2
I0501 14:24:18.318006 13196 net.cpp:409] conv3 -> conv3
I0501 14:24:18.322389 13196 net.cpp:144] Setting up conv3
I0501 14:24:18.322402 13196 net.cpp:151] Top shape: 20 64 5 5 (32000)
I0501 14:24:18.322407 13196 net.cpp:159] Memory required for data: 2312240
I0501 14:24:18.322414 13196 layer_factory.hpp:77] Creating layer relu3
I0501 14:24:18.322422 13196 net.cpp:94] Creating Layer relu3
I0501 14:24:18.322427 13196 net.cpp:435] relu3 <- conv3
I0501 14:24:18.322432 13196 net.cpp:396] relu3 -> conv3 (in-place)
I0501 14:24:18.322439 13196 net.cpp:144] Setting up relu3
I0501 14:24:18.322443 13196 net.cpp:151] Top shape: 20 64 5 5 (32000)
I0501 14:24:18.322446 13196 net.cpp:159] Memory required for data: 2440240
I0501 14:24:18.322450 13196 layer_factory.hpp:77] Creating layer conv4
I0501 14:24:18.322458 13196 net.cpp:94] Creating Layer conv4
I0501 14:24:18.322463 13196 net.cpp:435] conv4 <- conv3
I0501 14:24:18.322468 13196 net.cpp:409] conv4 -> conv4
I0501 14:24:18.325983 13196 net.cpp:144] Setting up conv4
I0501 14:24:18.325995 13196 net.cpp:151] Top shape: 20 64 5 5 (32000)
I0501 14:24:18.325999 13196 net.cpp:159] Memory required for data: 2568240
I0501 14:24:18.326005 13196 layer_factory.hpp:77] Creating layer relu4
I0501 14:24:18.326012 13196 net.cpp:94] Creating Layer relu4
I0501 14:24:18.326016 13196 net.cpp:435] relu4 <- conv4
I0501 14:24:18.326020 13196 net.cpp:396] relu4 -> conv4 (in-place)
I0501 14:24:18.326027 13196 net.cpp:144] Setting up relu4
I0501 14:24:18.326031 13196 net.cpp:151] Top shape: 20 64 5 5 (32000)
I0501 14:24:18.326035 13196 net.cpp:159] Memory required for data: 2696240
I0501 14:24:18.326037 13196 layer_factory.hpp:77] Creating layer conv5
I0501 14:24:18.326046 13196 net.cpp:94] Creating Layer conv5
I0501 14:24:18.326050 13196 net.cpp:435] conv5 <- conv4
I0501 14:24:18.326056 13196 net.cpp:409] conv5 -> conv5
I0501 14:24:18.330013 13196 net.cpp:144] Setting up conv5
I0501 14:24:18.330026 13196 net.cpp:151] Top shape: 20 64 5 5 (32000)
I0501 14:24:18.330030 13196 net.cpp:159] Memory required for data: 2824240
I0501 14:24:18.330044 13196 layer_factory.hpp:77] Creating layer relu5
I0501 14:24:18.330050 13196 net.cpp:94] Creating Layer relu5
I0501 14:24:18.330054 13196 net.cpp:435] relu5 <- conv5
I0501 14:24:18.330060 13196 net.cpp:396] relu5 -> conv5 (in-place)
I0501 14:24:18.330067 13196 net.cpp:144] Setting up relu5
I0501 14:24:18.330071 13196 net.cpp:151] Top shape: 20 64 5 5 (32000)
I0501 14:24:18.330075 13196 net.cpp:159] Memory required for data: 2952240
I0501 14:24:18.330077 13196 layer_factory.hpp:77] Creating layer pool5
I0501 14:24:18.330083 13196 net.cpp:94] Creating Layer pool5
I0501 14:24:18.330086 13196 net.cpp:435] pool5 <- conv5
I0501 14:24:18.330092 13196 net.cpp:409] pool5 -> pool5
I0501 14:24:18.330129 13196 net.cpp:144] Setting up pool5
I0501 14:24:18.330135 13196 net.cpp:151] Top shape: 20 64 2 2 (5120)
I0501 14:24:18.330138 13196 net.cpp:159] Memory required for data: 2972720
I0501 14:24:18.330142 13196 layer_factory.hpp:77] Creating layer ip1
I0501 14:24:18.330150 13196 net.cpp:94] Creating Layer ip1
I0501 14:24:18.330154 13196 net.cpp:435] ip1 <- pool5
I0501 14:24:18.330158 13196 net.cpp:409] ip1 -> ip1
I0501 14:24:18.330678 13196 net.cpp:144] Setting up ip1
I0501 14:24:18.330685 13196 net.cpp:151] Top shape: 20 64 (1280)
I0501 14:24:18.330689 13196 net.cpp:159] Memory required for data: 2977840
I0501 14:24:18.330694 13196 layer_factory.hpp:77] Creating layer ip2
I0501 14:24:18.330701 13196 net.cpp:94] Creating Layer ip2
I0501 14:24:18.330705 13196 net.cpp:435] ip2 <- ip1
I0501 14:24:18.330709 13196 net.cpp:409] ip2 -> ip2
I0501 14:24:18.330929 13196 net.cpp:144] Setting up ip2
I0501 14:24:18.330936 13196 net.cpp:151] Top shape: 20 64 (1280)
I0501 14:24:18.330940 13196 net.cpp:159] Memory required for data: 2982960
I0501 14:24:18.330945 13196 layer_factory.hpp:77] Creating layer ip3
I0501 14:24:18.330951 13196 net.cpp:94] Creating Layer ip3
I0501 14:24:18.330955 13196 net.cpp:435] ip3 <- ip2
I0501 14:24:18.330960 13196 net.cpp:409] ip3 -> ip3
I0501 14:24:18.331152 13196 net.cpp:144] Setting up ip3
I0501 14:24:18.331159 13196 net.cpp:151] Top shape: 20 50 (1000)
I0501 14:24:18.331162 13196 net.cpp:159] Memory required for data: 2986960
I0501 14:24:18.331167 13196 layer_factory.hpp:77] Creating layer ip3_ip3_0_split
I0501 14:24:18.331173 13196 net.cpp:94] Creating Layer ip3_ip3_0_split
I0501 14:24:18.331176 13196 net.cpp:435] ip3_ip3_0_split <- ip3
I0501 14:24:18.331182 13196 net.cpp:409] ip3_ip3_0_split -> ip3_ip3_0_split_0
I0501 14:24:18.331187 13196 net.cpp:409] ip3_ip3_0_split -> ip3_ip3_0_split_1
I0501 14:24:18.331225 13196 net.cpp:144] Setting up ip3_ip3_0_split
I0501 14:24:18.331231 13196 net.cpp:151] Top shape: 20 50 (1000)
I0501 14:24:18.331235 13196 net.cpp:151] Top shape: 20 50 (1000)
I0501 14:24:18.331238 13196 net.cpp:159] Memory required for data: 2994960
I0501 14:24:18.331241 13196 layer_factory.hpp:77] Creating layer accuracy
I0501 14:24:18.331248 13196 net.cpp:94] Creating Layer accuracy
I0501 14:24:18.331251 13196 net.cpp:435] accuracy <- ip3_ip3_0_split_0
I0501 14:24:18.331254 13196 net.cpp:435] accuracy <- label_intercept_1_split_0
I0501 14:24:18.331259 13196 net.cpp:409] accuracy -> accuracy
…
