…
I0506 13:06:59.956149 21558 net.cpp:323] The NetState phase (0) differed from the phase (1) specified by a rule in layer intercept
I0506 13:06:59.956166 21558 net.cpp:323] The NetState phase (0) differed from the phase (1) specified by a rule in layer loss
I0506 13:06:59.956243 21558 net.cpp:52] Initializing net from parameters: 
state {
  phase: TRAIN
}
layer {
  name: "parameters"
  type: "HDF5Data"
  top: "data"
  top: "label"
  include {
    phase: TRAIN
  }
  hdf5_data_param {
    source: "/home/purduethu/scratch/radon/d/deng106/CNNStatisticalModel/distributions/input/50_distributions_100_sample_size_train-parameters-path.txt"
    batch_size: 20
  }
}
layer {
  name: "conv1"
  type: "Convolution"
  bottom: "data"
  top: "conv1"
  param {
    lr_mult: 1
  }
  param {
    lr_mult: 2
  }
  convolution_param {
    num_output: 64
    pad: 2
    kernel_size: 5
    stride: 1
    weight_filler {
      type: "gaussian"
      std: 0.0001
    }
    bias_filler {
      type: "constant"
    }
  }
}
layer {
  name: "relu1"
  type: "ReLU"
  bottom: "conv1"
  top: "conv1"
}
layer {
  name: "conv2"
  type: "Convolution"
  bottom: "conv1"
  top: "conv2"
  param {
    lr_mult: 1
  }
  param {
    lr_mult: 2
  }
  convolution_param {
    num_output: 64
    pad: 2
    kernel_size: 5
    stride: 1
    weight_filler {
      type: "gaussian"
      std: 0.01
    }
    bias_filler {
      type: "constant"
    }
  }
}
layer {
  name: "relu2"
  type: "ReLU"
  bottom: "conv2"
  top: "conv2"
}
layer {
  name: "pool2"
  type: "Pooling"
  bottom: "conv2"
  top: "pool2"
  pooling_param {
    pool: MAX
    kernel_size: 3
    stride: 2
  }
}
layer {
  name: "conv3"
  type: "Convolution"
  bottom: "pool2"
  top: "conv3"
  param {
    lr_mult: 1
  }
  param {
    lr_mult: 2
  }
  convolution_param {
    num_output: 128
    pad: 2
    kernel_size: 5
    stride: 1
    weight_filler {
      type: "gaussian"
      std: 0.01
    }
    bias_filler {
      type: "constant"
    }
  }
}
layer {
  name: "relu3"
  type: "ReLU"
  bottom: "conv3"
  top: "conv3"
}
layer {
  name: "conv4"
  type: "Convolution"
  bottom: "conv3"
  top: "conv4"
  param {
    lr_mult: 1
  }
  param {
    lr_mult: 2
  }
  convolution_param {
    num_output: 128
    pad: 2
    kernel_size: 5
    stride: 1
    weight_filler {
      type: "gaussian"
      std: 0.01
    }
    bias_filler {
      type: "constant"
    }
  }
}
layer {
  name: "relu4"
  type: "ReLU"
  bottom: "conv4"
  top: "conv4"
}
layer {
  name: "conv5"
  type: "Convolution"
  bottom: "conv4"
  top: "conv5"
  param {
    lr_mult: 1
  }
  param {
    lr_mult: 2
  }
  convolution_param {
    num_output: 128
    pad: 2
    kernel_size: 5
    stride: 1
    weight_filler {
      type: "gaussian"
      std: 0.01
    }
    bias_filler {
      type: "constant"
    }
  }
}
layer {
  name: "relu5"
  type: "ReLU"
  bottom: "conv5"
  top: "conv5"
}
layer {
  name: "pool5"
  type: "Pooling"
  bottom: "conv5"
  top: "pool5"
  pooling_param {
    pool: AVE
    kernel_size: 3
    stride: 2
  }
}
layer {
  name: "ip1"
  type: "InnerProduct"
  bottom: "pool5"
  top: "ip1"
  param {
    lr_mult: 1
  }
  param {
    lr_mult: 2
  }
  inner_product_param {
    num_output: 1024
    weight_filler {
      type: "gaussian"
      std: 0.1
    }
    bias_filler {
      type: "constant"
    }
  }
}
layer {
  name: "ip2"
  type: "InnerProduct"
  bottom: "ip1"
  top: "ip2"
  param {
    lr_mult: 1
  }
  param {
    lr_mult: 2
  }
  inner_product_param {
    num_output: 512
    weight_filler {
      type: "gaussian"
      std: 0.1
    }
    bias_filler {
      type: "constant"
    }
  }
}
layer {
  name: "ip3"
  type: "InnerProduct"
  bottom: "ip2"
  top: "ip3"
  param {
    lr_mult: 1
  }
  param {
    lr_mult: 2
  }
  inner_product_param {
    num_output: 1
    weight_filler {
      type: "gaussian"
      std: 0.1
    }
    bias_filler {
      type: "constant"
    }
  }
}
layer {
  name: "loss"
  type: "HuberLoss"
  bottom: "ip3"
  bottom: "label"
  top: "loss"
  include {
    phase: TRAIN
  }
}
I0506 13:06:59.956297 21558 layer_factory.hpp:77] Creating layer parameters
I0506 13:06:59.956313 21558 net.cpp:94] Creating Layer parameters
I0506 13:06:59.956318 21558 net.cpp:409] parameters -> data
I0506 13:06:59.956326 21558 net.cpp:409] parameters -> label
I0506 13:06:59.956333 21558 hdf5_data_layer.cpp:79] Loading list of HDF5 filenames from: /home/purduethu/scratch/radon/d/deng106/CNNStatisticalModel/distributions/input/50_distributions_100_sample_size_train-parameters-path.txt
I0506 13:06:59.956347 21558 hdf5_data_layer.cpp:93] Number of HDF5 files: 1
I0506 13:06:59.956917 21558 hdf5.cpp:32] Datatype class: H5T_FLOAT
I0506 13:07:00.117664 21558 net.cpp:144] Setting up parameters
I0506 13:07:00.117712 21558 net.cpp:151] Top shape: 20 1 10 10 (2000)
I0506 13:07:00.117717 21558 net.cpp:151] Top shape: 20 (20)
I0506 13:07:00.117720 21558 net.cpp:159] Memory required for data: 8080
I0506 13:07:00.117733 21558 layer_factory.hpp:77] Creating layer conv1
I0506 13:07:00.117748 21558 net.cpp:94] Creating Layer conv1
I0506 13:07:00.117753 21558 net.cpp:435] conv1 <- data
I0506 13:07:00.117760 21558 net.cpp:409] conv1 -> conv1
I0506 13:07:00.122015 21558 net.cpp:144] Setting up conv1
I0506 13:07:00.122032 21558 net.cpp:151] Top shape: 20 64 10 10 (128000)
I0506 13:07:00.122036 21558 net.cpp:159] Memory required for data: 520080
I0506 13:07:00.122046 21558 layer_factory.hpp:77] Creating layer relu1
I0506 13:07:00.122056 21558 net.cpp:94] Creating Layer relu1
I0506 13:07:00.122059 21558 net.cpp:435] relu1 <- conv1
I0506 13:07:00.122063 21558 net.cpp:396] relu1 -> conv1 (in-place)
I0506 13:07:00.122071 21558 net.cpp:144] Setting up relu1
I0506 13:07:00.122076 21558 net.cpp:151] Top shape: 20 64 10 10 (128000)
I0506 13:07:00.122078 21558 net.cpp:159] Memory required for data: 1032080
I0506 13:07:00.122081 21558 layer_factory.hpp:77] Creating layer conv2
I0506 13:07:00.122089 21558 net.cpp:94] Creating Layer conv2
I0506 13:07:00.122092 21558 net.cpp:435] conv2 <- conv1
I0506 13:07:00.122097 21558 net.cpp:409] conv2 -> conv2
I0506 13:07:00.128157 21558 net.cpp:144] Setting up conv2
I0506 13:07:00.128172 21558 net.cpp:151] Top shape: 20 64 10 10 (128000)
I0506 13:07:00.128175 21558 net.cpp:159] Memory required for data: 1544080
I0506 13:07:00.128185 21558 layer_factory.hpp:77] Creating layer relu2
I0506 13:07:00.128190 21558 net.cpp:94] Creating Layer relu2
I0506 13:07:00.128195 21558 net.cpp:435] relu2 <- conv2
I0506 13:07:00.128198 21558 net.cpp:396] relu2 -> conv2 (in-place)
I0506 13:07:00.128206 21558 net.cpp:144] Setting up relu2
I0506 13:07:00.128209 21558 net.cpp:151] Top shape: 20 64 10 10 (128000)
I0506 13:07:00.128212 21558 net.cpp:159] Memory required for data: 2056080
I0506 13:07:00.128216 21558 layer_factory.hpp:77] Creating layer pool2
I0506 13:07:00.128221 21558 net.cpp:94] Creating Layer pool2
I0506 13:07:00.128224 21558 net.cpp:435] pool2 <- conv2
I0506 13:07:00.128229 21558 net.cpp:409] pool2 -> pool2
I0506 13:07:00.128288 21558 net.cpp:144] Setting up pool2
I0506 13:07:00.128295 21558 net.cpp:151] Top shape: 20 64 5 5 (32000)
I0506 13:07:00.128298 21558 net.cpp:159] Memory required for data: 2184080
I0506 13:07:00.128303 21558 layer_factory.hpp:77] Creating layer conv3
I0506 13:07:00.128309 21558 net.cpp:94] Creating Layer conv3
I0506 13:07:00.128319 21558 net.cpp:435] conv3 <- pool2
I0506 13:07:00.128324 21558 net.cpp:409] conv3 -> conv3
I0506 13:07:00.136510 21558 net.cpp:144] Setting up conv3
I0506 13:07:00.136523 21558 net.cpp:151] Top shape: 20 128 5 5 (64000)
I0506 13:07:00.136528 21558 net.cpp:159] Memory required for data: 2440080
I0506 13:07:00.136535 21558 layer_factory.hpp:77] Creating layer relu3
I0506 13:07:00.136541 21558 net.cpp:94] Creating Layer relu3
I0506 13:07:00.136545 21558 net.cpp:435] relu3 <- conv3
I0506 13:07:00.136559 21558 net.cpp:396] relu3 -> conv3 (in-place)
I0506 13:07:00.136566 21558 net.cpp:144] Setting up relu3
I0506 13:07:00.136570 21558 net.cpp:151] Top shape: 20 128 5 5 (64000)
I0506 13:07:00.136574 21558 net.cpp:159] Memory required for data: 2696080
I0506 13:07:00.136576 21558 layer_factory.hpp:77] Creating layer conv4
I0506 13:07:00.136585 21558 net.cpp:94] Creating Layer conv4
I0506 13:07:00.136590 21558 net.cpp:435] conv4 <- conv3
I0506 13:07:00.136593 21558 net.cpp:409] conv4 -> conv4
I0506 13:07:00.151291 21558 net.cpp:144] Setting up conv4
I0506 13:07:00.151306 21558 net.cpp:151] Top shape: 20 128 5 5 (64000)
I0506 13:07:00.151310 21558 net.cpp:159] Memory required for data: 2952080
I0506 13:07:00.151317 21558 layer_factory.hpp:77] Creating layer relu4
I0506 13:07:00.151324 21558 net.cpp:94] Creating Layer relu4
I0506 13:07:00.151327 21558 net.cpp:435] relu4 <- conv4
I0506 13:07:00.151331 21558 net.cpp:396] relu4 -> conv4 (in-place)
I0506 13:07:00.151338 21558 net.cpp:144] Setting up relu4
I0506 13:07:00.151342 21558 net.cpp:151] Top shape: 20 128 5 5 (64000)
I0506 13:07:00.151345 21558 net.cpp:159] Memory required for data: 3208080
I0506 13:07:00.151348 21558 layer_factory.hpp:77] Creating layer conv5
I0506 13:07:00.151356 21558 net.cpp:94] Creating Layer conv5
I0506 13:07:00.151360 21558 net.cpp:435] conv5 <- conv4
I0506 13:07:00.151365 21558 net.cpp:409] conv5 -> conv5
I0506 13:07:00.165833 21558 net.cpp:144] Setting up conv5
I0506 13:07:00.165870 21558 net.cpp:151] Top shape: 20 128 5 5 (64000)
I0506 13:07:00.165881 21558 net.cpp:159] Memory required for data: 3464080
I0506 13:07:00.165905 21558 layer_factory.hpp:77] Creating layer relu5
I0506 13:07:00.165921 21558 net.cpp:94] Creating Layer relu5
I0506 13:07:00.165931 21558 net.cpp:435] relu5 <- conv5
I0506 13:07:00.165944 21558 net.cpp:396] relu5 -> conv5 (in-place)
I0506 13:07:00.165963 21558 net.cpp:144] Setting up relu5
I0506 13:07:00.165976 21558 net.cpp:151] Top shape: 20 128 5 5 (64000)
I0506 13:07:00.165984 21558 net.cpp:159] Memory required for data: 3720080
I0506 13:07:00.165992 21558 layer_factory.hpp:77] Creating layer pool5
I0506 13:07:00.166005 21558 net.cpp:94] Creating Layer pool5
I0506 13:07:00.166013 21558 net.cpp:435] pool5 <- conv5
I0506 13:07:00.166025 21558 net.cpp:409] pool5 -> pool5
I0506 13:07:00.166131 21558 net.cpp:144] Setting up pool5
I0506 13:07:00.166151 21558 net.cpp:151] Top shape: 20 128 2 2 (10240)
I0506 13:07:00.166159 21558 net.cpp:159] Memory required for data: 3761040
I0506 13:07:00.166168 21558 layer_factory.hpp:77] Creating layer ip1
I0506 13:07:00.166190 21558 net.cpp:94] Creating Layer ip1
I0506 13:07:00.166199 21558 net.cpp:435] ip1 <- pool5
I0506 13:07:00.166213 21558 net.cpp:409] ip1 -> ip1
I0506 13:07:00.180461 21558 net.cpp:144] Setting up ip1
I0506 13:07:00.180476 21558 net.cpp:151] Top shape: 20 1024 (20480)
I0506 13:07:00.180480 21558 net.cpp:159] Memory required for data: 3842960
I0506 13:07:00.180486 21558 layer_factory.hpp:77] Creating layer ip2
I0506 13:07:00.180495 21558 net.cpp:94] Creating Layer ip2
I0506 13:07:00.180497 21558 net.cpp:435] ip2 <- ip1
I0506 13:07:00.180503 21558 net.cpp:409] ip2 -> ip2
I0506 13:07:00.193970 21558 net.cpp:144] Setting up ip2
I0506 13:07:00.193986 21558 net.cpp:151] Top shape: 20 512 (10240)
I0506 13:07:00.193990 21558 net.cpp:159] Memory required for data: 3883920
I0506 13:07:00.193996 21558 layer_factory.hpp:77] Creating layer ip3
I0506 13:07:00.194003 21558 net.cpp:94] Creating Layer ip3
I0506 13:07:00.194007 21558 net.cpp:435] ip3 <- ip2
I0506 13:07:00.194018 21558 net.cpp:409] ip3 -> ip3
I0506 13:07:00.194141 21558 net.cpp:144] Setting up ip3
I0506 13:07:00.194149 21558 net.cpp:151] Top shape: 20 1 (20)
I0506 13:07:00.194152 21558 net.cpp:159] Memory required for data: 3884000
I0506 13:07:00.194157 21558 layer_factory.hpp:77] Creating layer loss
I0506 13:07:00.194169 21558 net.cpp:94] Creating Layer loss
I0506 13:07:00.194174 21558 net.cpp:435] loss <- ip3
I0506 13:07:00.194176 21558 net.cpp:435] loss <- label
I0506 13:07:00.194181 21558 net.cpp:409] loss -> loss
I0506 13:07:00.194236 21558 net.cpp:144] Setting up loss
…
I0506 13:07:00.317111 21558 net.cpp:323] The NetState phase (0) differed from the phase (1) specified by a rule in layer intercept
I0506 13:07:00.317127 21558 net.cpp:323] The NetState phase (0) differed from the phase (1) specified by a rule in layer accuracy
I0506 13:07:00.317214 21558 net.cpp:52] Initializing net from parameters: 
state {
  phase: TRAIN
}
layer {
  name: "parameters"
  type: "HDF5Data"
  top: "data"
  top: "label"
  include {
    phase: TRAIN
  }
  hdf5_data_param {
    source: "/home/purduethu/scratch/radon/d/deng106/CNNStatisticalModel/distributions/input/50_distributions_100_sample_size_train-distributions-path.txt"
    batch_size: 20
  }
}
layer {
  name: "conv1"
  type: "Convolution"
  bottom: "data"
  top: "conv1"
  param {
    lr_mult: 1
  }
  param {
    lr_mult: 2
  }
  convolution_param {
    num_output: 64
    pad: 2
    kernel_size: 5
    stride: 1
    weight_filler {
      type: "gaussian"
      std: 0.0001
    }
    bias_filler {
      type: "constant"
    }
  }
}
layer {
  name: "relu1"
  type: "ReLU"
  bottom: "conv1"
  top: "conv1"
}
layer {
  name: "conv2"
  type: "Convolution"
  bottom: "conv1"
  top: "conv2"
  param {
    lr_mult: 1
  }
  param {
    lr_mult: 2
  }
  convolution_param {
    num_output: 64
    pad: 2
    kernel_size: 5
    stride: 1
    weight_filler {
      type: "gaussian"
      std: 0.01
    }
    bias_filler {
      type: "constant"
    }
  }
}
layer {
  name: "relu2"
  type: "ReLU"
  bottom: "conv2"
  top: "conv2"
}
layer {
  name: "pool2"
  type: "Pooling"
  bottom: "conv2"
  top: "pool2"
  pooling_param {
    pool: MAX
    kernel_size: 3
    stride: 2
  }
}
layer {
  name: "conv3"
  type: "Convolution"
  bottom: "pool2"
  top: "conv3"
  param {
    lr_mult: 1
  }
  param {
    lr_mult: 2
  }
  convolution_param {
    num_output: 128
    pad: 2
    kernel_size: 5
    stride: 1
    weight_filler {
      type: "gaussian"
      std: 0.01
    }
    bias_filler {
      type: "constant"
    }
  }
}
layer {
  name: "relu3"
  type: "ReLU"
  bottom: "conv3"
  top: "conv3"
}
layer {
  name: "conv4"
  type: "Convolution"
  bottom: "conv3"
  top: "conv4"
  param {
    lr_mult: 1
  }
  param {
    lr_mult: 2
  }
  convolution_param {
    num_output: 128
    pad: 2
    kernel_size: 5
    stride: 1
    weight_filler {
      type: "gaussian"
      std: 0.01
    }
    bias_filler {
      type: "constant"
    }
  }
}
layer {
  name: "relu4"
  type: "ReLU"
  bottom: "conv4"
  top: "conv4"
}
layer {
  name: "conv5"
  type: "Convolution"
  bottom: "conv4"
  top: "conv5"
  param {
    lr_mult: 1
  }
  param {
    lr_mult: 2
  }
  convolution_param {
    num_output: 128
    pad: 2
    kernel_size: 5
    stride: 1
    weight_filler {
      type: "gaussian"
      std: 0.01
    }
    bias_filler {
      type: "constant"
    }
  }
}
layer {
  name: "relu5"
  type: "ReLU"
  bottom: "conv5"
  top: "conv5"
}
layer {
  name: "pool5"
  type: "Pooling"
  bottom: "conv5"
  top: "pool5"
  pooling_param {
    pool: AVE
    kernel_size: 3
    stride: 2
  }
}
layer {
  name: "ip1"
  type: "InnerProduct"
  bottom: "pool5"
  top: "ip1"
  param {
    lr_mult: 1
  }
  param {
    lr_mult: 2
  }
  inner_product_param {
    num_output: 1024
    weight_filler {
      type: "gaussian"
      std: 0.1
    }
    bias_filler {
      type: "constant"
    }
  }
}
layer {
  name: "ip2"
  type: "InnerProduct"
  bottom: "ip1"
  top: "ip2"
  param {
    lr_mult: 1
  }
  param {
    lr_mult: 2
  }
  inner_product_param {
    num_output: 512
    weight_filler {
      type: "gaussian"
      std: 0.1
    }
    bias_filler {
      type: "constant"
    }
  }
}
layer {
  name: "ip3"
  type: "InnerProduct"
  bottom: "ip2"
  top: "ip3"
  param {
    lr_mult: 1
  }
  param {
    lr_mult: 2
  }
  inner_product_param {
    num_output: 50
    weight_filler {
      type: "gaussian"
      std: 0.1
    }
    bias_filler {
      type: "constant"
    }
  }
}
layer {
  name: "loss"
  type: "SoftmaxWithLoss"
  bottom: "ip3"
  bottom: "label"
  top: "loss"
}
I0506 13:07:00.317265 21558 layer_factory.hpp:77] Creating layer parameters
I0506 13:07:00.317273 21558 net.cpp:94] Creating Layer parameters
I0506 13:07:00.317277 21558 net.cpp:409] parameters -> data
I0506 13:07:00.317283 21558 net.cpp:409] parameters -> label
I0506 13:07:00.317289 21558 hdf5_data_layer.cpp:79] Loading list of HDF5 filenames from: /home/purduethu/scratch/radon/d/deng106/CNNStatisticalModel/distributions/input/50_distributions_100_sample_size_train-distributions-path.txt
I0506 13:07:00.317306 21558 hdf5_data_layer.cpp:93] Number of HDF5 files: 1
I0506 13:07:00.472738 21558 hdf5.cpp:35] Datatype class: H5T_INTEGER
I0506 13:07:00.475729 21558 net.cpp:144] Setting up parameters
I0506 13:07:00.475751 21558 net.cpp:151] Top shape: 20 1 10 10 (2000)
I0506 13:07:00.475756 21558 net.cpp:151] Top shape: 20 (20)
I0506 13:07:00.475759 21558 net.cpp:159] Memory required for data: 8080
I0506 13:07:00.475765 21558 layer_factory.hpp:77] Creating layer conv1
I0506 13:07:00.475780 21558 net.cpp:94] Creating Layer conv1
I0506 13:07:00.475785 21558 net.cpp:435] conv1 <- data
I0506 13:07:00.475791 21558 net.cpp:409] conv1 -> conv1
I0506 13:07:00.477708 21558 net.cpp:144] Setting up conv1
I0506 13:07:00.477723 21558 net.cpp:151] Top shape: 20 64 10 10 (128000)
I0506 13:07:00.477727 21558 net.cpp:159] Memory required for data: 520080
I0506 13:07:00.477737 21558 layer_factory.hpp:77] Creating layer relu1
I0506 13:07:00.477744 21558 net.cpp:94] Creating Layer relu1
I0506 13:07:00.477748 21558 net.cpp:435] relu1 <- conv1
I0506 13:07:00.477752 21558 net.cpp:396] relu1 -> conv1 (in-place)
I0506 13:07:00.477759 21558 net.cpp:144] Setting up relu1
I0506 13:07:00.477763 21558 net.cpp:151] Top shape: 20 64 10 10 (128000)
I0506 13:07:00.477766 21558 net.cpp:159] Memory required for data: 1032080
I0506 13:07:00.477769 21558 layer_factory.hpp:77] Creating layer conv2
I0506 13:07:00.477777 21558 net.cpp:94] Creating Layer conv2
I0506 13:07:00.477780 21558 net.cpp:435] conv2 <- conv1
I0506 13:07:00.477784 21558 net.cpp:409] conv2 -> conv2
I0506 13:07:00.483175 21558 net.cpp:144] Setting up conv2
I0506 13:07:00.483189 21558 net.cpp:151] Top shape: 20 64 10 10 (128000)
I0506 13:07:00.483192 21558 net.cpp:159] Memory required for data: 1544080
I0506 13:07:00.483201 21558 layer_factory.hpp:77] Creating layer relu2
I0506 13:07:00.483206 21558 net.cpp:94] Creating Layer relu2
I0506 13:07:00.483211 21558 net.cpp:435] relu2 <- conv2
I0506 13:07:00.483214 21558 net.cpp:396] relu2 -> conv2 (in-place)
I0506 13:07:00.483222 21558 net.cpp:144] Setting up relu2
I0506 13:07:00.483225 21558 net.cpp:151] Top shape: 20 64 10 10 (128000)
I0506 13:07:00.483228 21558 net.cpp:159] Memory required for data: 2056080
I0506 13:07:00.483232 21558 layer_factory.hpp:77] Creating layer pool2
I0506 13:07:00.483237 21558 net.cpp:94] Creating Layer pool2
I0506 13:07:00.483240 21558 net.cpp:435] pool2 <- conv2
I0506 13:07:00.483244 21558 net.cpp:409] pool2 -> pool2
I0506 13:07:00.483302 21558 net.cpp:144] Setting up pool2
I0506 13:07:00.483310 21558 net.cpp:151] Top shape: 20 64 5 5 (32000)
I0506 13:07:00.483314 21558 net.cpp:159] Memory required for data: 2184080
I0506 13:07:00.483316 21558 layer_factory.hpp:77] Creating layer conv3
I0506 13:07:00.483325 21558 net.cpp:94] Creating Layer conv3
I0506 13:07:00.483327 21558 net.cpp:435] conv3 <- pool2
I0506 13:07:00.483332 21558 net.cpp:409] conv3 -> conv3
I0506 13:07:00.492019 21558 net.cpp:144] Setting up conv3
I0506 13:07:00.492033 21558 net.cpp:151] Top shape: 20 128 5 5 (64000)
I0506 13:07:00.492038 21558 net.cpp:159] Memory required for data: 2440080
I0506 13:07:00.492045 21558 layer_factory.hpp:77] Creating layer relu3
I0506 13:07:00.492051 21558 net.cpp:94] Creating Layer relu3
I0506 13:07:00.492054 21558 net.cpp:435] relu3 <- conv3
I0506 13:07:00.492059 21558 net.cpp:396] relu3 -> conv3 (in-place)
I0506 13:07:00.492071 21558 net.cpp:144] Setting up relu3
I0506 13:07:00.492076 21558 net.cpp:151] Top shape: 20 128 5 5 (64000)
I0506 13:07:00.492079 21558 net.cpp:159] Memory required for data: 2696080
I0506 13:07:00.492082 21558 layer_factory.hpp:77] Creating layer conv4
I0506 13:07:00.492090 21558 net.cpp:94] Creating Layer conv4
I0506 13:07:00.492094 21558 net.cpp:435] conv4 <- conv3
I0506 13:07:00.492100 21558 net.cpp:409] conv4 -> conv4
I0506 13:07:00.506711 21558 net.cpp:144] Setting up conv4
I0506 13:07:00.506726 21558 net.cpp:151] Top shape: 20 128 5 5 (64000)
I0506 13:07:00.506729 21558 net.cpp:159] Memory required for data: 2952080
I0506 13:07:00.506736 21558 layer_factory.hpp:77] Creating layer relu4
I0506 13:07:00.506742 21558 net.cpp:94] Creating Layer relu4
I0506 13:07:00.506745 21558 net.cpp:435] relu4 <- conv4
I0506 13:07:00.506749 21558 net.cpp:396] relu4 -> conv4 (in-place)
I0506 13:07:00.506757 21558 net.cpp:144] Setting up relu4
I0506 13:07:00.506760 21558 net.cpp:151] Top shape: 20 128 5 5 (64000)
I0506 13:07:00.506763 21558 net.cpp:159] Memory required for data: 3208080
I0506 13:07:00.506767 21558 layer_factory.hpp:77] Creating layer conv5
I0506 13:07:00.506774 21558 net.cpp:94] Creating Layer conv5
I0506 13:07:00.506778 21558 net.cpp:435] conv5 <- conv4
I0506 13:07:00.506781 21558 net.cpp:409] conv5 -> conv5
I0506 13:07:00.521744 21558 net.cpp:144] Setting up conv5
I0506 13:07:00.521759 21558 net.cpp:151] Top shape: 20 128 5 5 (64000)
I0506 13:07:00.521762 21558 net.cpp:159] Memory required for data: 3464080
I0506 13:07:00.521771 21558 layer_factory.hpp:77] Creating layer relu5
I0506 13:07:00.521777 21558 net.cpp:94] Creating Layer relu5
I0506 13:07:00.521781 21558 net.cpp:435] relu5 <- conv5
I0506 13:07:00.521785 21558 net.cpp:396] relu5 -> conv5 (in-place)
I0506 13:07:00.521792 21558 net.cpp:144] Setting up relu5
I0506 13:07:00.521797 21558 net.cpp:151] Top shape: 20 128 5 5 (64000)
I0506 13:07:00.521800 21558 net.cpp:159] Memory required for data: 3720080
I0506 13:07:00.521802 21558 layer_factory.hpp:77] Creating layer pool5
I0506 13:07:00.521808 21558 net.cpp:94] Creating Layer pool5
I0506 13:07:00.521811 21558 net.cpp:435] pool5 <- conv5
I0506 13:07:00.521816 21558 net.cpp:409] pool5 -> pool5
I0506 13:07:00.521857 21558 net.cpp:144] Setting up pool5
I0506 13:07:00.521864 21558 net.cpp:151] Top shape: 20 128 2 2 (10240)
I0506 13:07:00.521867 21558 net.cpp:159] Memory required for data: 3761040
I0506 13:07:00.521870 21558 layer_factory.hpp:77] Creating layer ip1
I0506 13:07:00.521878 21558 net.cpp:94] Creating Layer ip1
I0506 13:07:00.521880 21558 net.cpp:435] ip1 <- pool5
I0506 13:07:00.521885 21558 net.cpp:409] ip1 -> ip1
I0506 13:07:00.535475 21558 net.cpp:144] Setting up ip1
I0506 13:07:00.535491 21558 net.cpp:151] Top shape: 20 1024 (20480)
I0506 13:07:00.535495 21558 net.cpp:159] Memory required for data: 3842960
I0506 13:07:00.535502 21558 layer_factory.hpp:77] Creating layer ip2
I0506 13:07:00.535511 21558 net.cpp:94] Creating Layer ip2
I0506 13:07:00.535514 21558 net.cpp:435] ip2 <- ip1
I0506 13:07:00.535521 21558 net.cpp:409] ip2 -> ip2
I0506 13:07:00.549093 21558 net.cpp:144] Setting up ip2
I0506 13:07:00.549108 21558 net.cpp:151] Top shape: 20 512 (10240)
I0506 13:07:00.549111 21558 net.cpp:159] Memory required for data: 3883920
I0506 13:07:00.549118 21558 layer_factory.hpp:77] Creating layer ip3
I0506 13:07:00.549124 21558 net.cpp:94] Creating Layer ip3
I0506 13:07:00.549129 21558 net.cpp:435] ip3 <- ip2
I0506 13:07:00.549134 21558 net.cpp:409] ip3 -> ip3
I0506 13:07:00.550729 21558 net.cpp:144] Setting up ip3
I0506 13:07:00.550741 21558 net.cpp:151] Top shape: 20 50 (1000)
I0506 13:07:00.550745 21558 net.cpp:159] Memory required for data: 3887920
I0506 13:07:00.550752 21558 layer_factory.hpp:77] Creating layer loss
I0506 13:07:00.550760 21558 net.cpp:94] Creating Layer loss
I0506 13:07:00.550765 21558 net.cpp:435] loss <- ip3
I0506 13:07:00.550768 21558 net.cpp:435] loss <- label
I0506 13:07:00.550773 21558 net.cpp:409] loss -> loss
I0506 13:07:00.550781 21558 layer_factory.hpp:77] Creating layer loss
…
I0506 13:07:00.551316 21558 solver.cpp:181] Creating test net (#0) specified by net file: ./protocol/dis_50_100_dimension.protocol_distribution
I0506 13:07:00.551344 21558 net.cpp:323] The NetState phase (1) differed from the phase (0) specified by a rule in layer parameters
I0506 13:07:00.551439 21558 net.cpp:52] Initializing net from parameters: 
state {
  phase: TEST
}
layer {
  name: "intercept"
  type: "HDF5Data"
  top: "data"
  top: "label"
  include {
    phase: TEST
  }
  hdf5_data_param {
    source: "/home/purduethu/scratch/radon/d/deng106/CNNStatisticalModel/distributions/input/50_distributions_100_sample_size_test-distributions-path.txt"
    batch_size: 20
  }
}
layer {
  name: "conv1"
  type: "Convolution"
  bottom: "data"
  top: "conv1"
  param {
    lr_mult: 1
  }
  param {
    lr_mult: 2
  }
  convolution_param {
    num_output: 64
    pad: 2
    kernel_size: 5
    stride: 1
    weight_filler {
      type: "gaussian"
      std: 0.0001
    }
    bias_filler {
      type: "constant"
    }
  }
}
layer {
  name: "relu1"
  type: "ReLU"
  bottom: "conv1"
  top: "conv1"
}
layer {
  name: "conv2"
  type: "Convolution"
  bottom: "conv1"
  top: "conv2"
  param {
    lr_mult: 1
  }
  param {
    lr_mult: 2
  }
  convolution_param {
    num_output: 64
    pad: 2
    kernel_size: 5
    stride: 1
    weight_filler {
      type: "gaussian"
      std: 0.01
    }
    bias_filler {
      type: "constant"
    }
  }
}
layer {
  name: "relu2"
  type: "ReLU"
  bottom: "conv2"
  top: "conv2"
}
layer {
  name: "pool2"
  type: "Pooling"
  bottom: "conv2"
  top: "pool2"
  pooling_param {
    pool: MAX
    kernel_size: 3
    stride: 2
  }
}
layer {
  name: "conv3"
  type: "Convolution"
  bottom: "pool2"
  top: "conv3"
  param {
    lr_mult: 1
  }
  param {
    lr_mult: 2
  }
  convolution_param {
    num_output: 128
    pad: 2
    kernel_size: 5
    stride: 1
    weight_filler {
      type: "gaussian"
      std: 0.01
    }
    bias_filler {
      type: "constant"
    }
  }
}
layer {
  name: "relu3"
  type: "ReLU"
  bottom: "conv3"
  top: "conv3"
}
layer {
  name: "conv4"
  type: "Convolution"
  bottom: "conv3"
  top: "conv4"
  param {
    lr_mult: 1
  }
  param {
    lr_mult: 2
  }
  convolution_param {
    num_output: 128
    pad: 2
    kernel_size: 5
    stride: 1
    weight_filler {
      type: "gaussian"
      std: 0.01
    }
    bias_filler {
      type: "constant"
    }
  }
}
layer {
  name: "relu4"
  type: "ReLU"
  bottom: "conv4"
  top: "conv4"
}
layer {
  name: "conv5"
  type: "Convolution"
  bottom: "conv4"
  top: "conv5"
  param {
    lr_mult: 1
  }
  param {
    lr_mult: 2
  }
  convolution_param {
    num_output: 128
    pad: 2
    kernel_size: 5
    stride: 1
    weight_filler {
      type: "gaussian"
      std: 0.01
    }
    bias_filler {
      type: "constant"
    }
  }
}
layer {
  name: "relu5"
  type: "ReLU"
  bottom: "conv5"
  top: "conv5"
}
layer {
  name: "pool5"
  type: "Pooling"
  bottom: "conv5"
  top: "pool5"
  pooling_param {
    pool: AVE
    kernel_size: 3
    stride: 2
  }
}
layer {
  name: "ip1"
  type: "InnerProduct"
  bottom: "pool5"
  top: "ip1"
  param {
    lr_mult: 1
  }
  param {
    lr_mult: 2
  }
  inner_product_param {
    num_output: 1024
    weight_filler {
      type: "gaussian"
      std: 0.1
    }
    bias_filler {
      type: "constant"
    }
  }
}
layer {
  name: "ip2"
  type: "InnerProduct"
  bottom: "ip1"
  top: "ip2"
  param {
    lr_mult: 1
  }
  param {
    lr_mult: 2
  }
  inner_product_param {
    num_output: 512
    weight_filler {
      type: "gaussian"
      std: 0.1
    }
    bias_filler {
      type: "constant"
    }
  }
}
layer {
  name: "ip3"
  type: "InnerProduct"
  bottom: "ip2"
  top: "ip3"
  param {
    lr_mult: 1
  }
  param {
    lr_mult: 2
  }
  inner_product_param {
    num_output: 50
    weight_filler {
      type: "gaussian"
      std: 0.1
    }
    bias_filler {
      type: "constant"
    }
  }
}
layer {
  name: "accuracy"
  type: "Accuracy"
  bottom: "ip3"
  bottom: "label"
  top: "accuracy"
  include {
    phase: TEST
  }
}
layer {
  name: "loss"
  type: "SoftmaxWithLoss"
  bottom: "ip3"
  bottom: "label"
  top: "loss"
}
I0506 13:07:00.551504 21558 layer_factory.hpp:77] Creating layer intercept
I0506 13:07:00.551512 21558 net.cpp:94] Creating Layer intercept
I0506 13:07:00.551517 21558 net.cpp:409] intercept -> data
I0506 13:07:00.551523 21558 net.cpp:409] intercept -> label
I0506 13:07:00.551528 21558 hdf5_data_layer.cpp:79] Loading list of HDF5 filenames from: /home/purduethu/scratch/radon/d/deng106/CNNStatisticalModel/distributions/input/50_distributions_100_sample_size_test-distributions-path.txt
I0506 13:07:00.551548 21558 hdf5_data_layer.cpp:93] Number of HDF5 files: 1
I0506 13:07:00.592135 21558 net.cpp:144] Setting up intercept
I0506 13:07:00.592170 21558 net.cpp:151] Top shape: 20 1 10 10 (2000)
I0506 13:07:00.592175 21558 net.cpp:151] Top shape: 20 (20)
I0506 13:07:00.592177 21558 net.cpp:159] Memory required for data: 8080
I0506 13:07:00.592183 21558 layer_factory.hpp:77] Creating layer label_intercept_1_split
I0506 13:07:00.592202 21558 net.cpp:94] Creating Layer label_intercept_1_split
I0506 13:07:00.592206 21558 net.cpp:435] label_intercept_1_split <- label
I0506 13:07:00.592212 21558 net.cpp:409] label_intercept_1_split -> label_intercept_1_split_0
I0506 13:07:00.592221 21558 net.cpp:409] label_intercept_1_split -> label_intercept_1_split_1
I0506 13:07:00.592264 21558 net.cpp:144] Setting up label_intercept_1_split
I0506 13:07:00.592272 21558 net.cpp:151] Top shape: 20 (20)
I0506 13:07:00.592275 21558 net.cpp:151] Top shape: 20 (20)
I0506 13:07:00.592278 21558 net.cpp:159] Memory required for data: 8240
I0506 13:07:00.592281 21558 layer_factory.hpp:77] Creating layer conv1
I0506 13:07:00.592293 21558 net.cpp:94] Creating Layer conv1
I0506 13:07:00.592295 21558 net.cpp:435] conv1 <- data
I0506 13:07:00.592299 21558 net.cpp:409] conv1 -> conv1
I0506 13:07:00.593192 21558 net.cpp:144] Setting up conv1
I0506 13:07:00.593206 21558 net.cpp:151] Top shape: 20 64 10 10 (128000)
I0506 13:07:00.593209 21558 net.cpp:159] Memory required for data: 520240
I0506 13:07:00.593219 21558 layer_factory.hpp:77] Creating layer relu1
I0506 13:07:00.593225 21558 net.cpp:94] Creating Layer relu1
I0506 13:07:00.593228 21558 net.cpp:435] relu1 <- conv1
I0506 13:07:00.593233 21558 net.cpp:396] relu1 -> conv1 (in-place)
I0506 13:07:00.593240 21558 net.cpp:144] Setting up relu1
I0506 13:07:00.593245 21558 net.cpp:151] Top shape: 20 64 10 10 (128000)
I0506 13:07:00.593255 21558 net.cpp:159] Memory required for data: 1032240
I0506 13:07:00.593258 21558 layer_factory.hpp:77] Creating layer conv2
I0506 13:07:00.593266 21558 net.cpp:94] Creating Layer conv2
I0506 13:07:00.593269 21558 net.cpp:435] conv2 <- conv1
I0506 13:07:00.593274 21558 net.cpp:409] conv2 -> conv2
I0506 13:07:00.597384 21558 net.cpp:144] Setting up conv2
I0506 13:07:00.597398 21558 net.cpp:151] Top shape: 20 64 10 10 (128000)
I0506 13:07:00.597401 21558 net.cpp:159] Memory required for data: 1544240
I0506 13:07:00.597409 21558 layer_factory.hpp:77] Creating layer relu2
I0506 13:07:00.597416 21558 net.cpp:94] Creating Layer relu2
I0506 13:07:00.597420 21558 net.cpp:435] relu2 <- conv2
I0506 13:07:00.597424 21558 net.cpp:396] relu2 -> conv2 (in-place)
I0506 13:07:00.597430 21558 net.cpp:144] Setting up relu2
I0506 13:07:00.597435 21558 net.cpp:151] Top shape: 20 64 10 10 (128000)
I0506 13:07:00.597437 21558 net.cpp:159] Memory required for data: 2056240
I0506 13:07:00.597440 21558 layer_factory.hpp:77] Creating layer pool2
I0506 13:07:00.597447 21558 net.cpp:94] Creating Layer pool2
I0506 13:07:00.597450 21558 net.cpp:435] pool2 <- conv2
I0506 13:07:00.597455 21558 net.cpp:409] pool2 -> pool2
I0506 13:07:00.597517 21558 net.cpp:144] Setting up pool2
I0506 13:07:00.597523 21558 net.cpp:151] Top shape: 20 64 5 5 (32000)
I0506 13:07:00.597527 21558 net.cpp:159] Memory required for data: 2184240
I0506 13:07:00.597529 21558 layer_factory.hpp:77] Creating layer conv3
I0506 13:07:00.597538 21558 net.cpp:94] Creating Layer conv3
I0506 13:07:00.597542 21558 net.cpp:435] conv3 <- pool2
I0506 13:07:00.597548 21558 net.cpp:409] conv3 -> conv3
I0506 13:07:00.603564 21558 net.cpp:144] Setting up conv3
I0506 13:07:00.603577 21558 net.cpp:151] Top shape: 20 128 5 5 (64000)
I0506 13:07:00.603581 21558 net.cpp:159] Memory required for data: 2440240
I0506 13:07:00.603590 21558 layer_factory.hpp:77] Creating layer relu3
I0506 13:07:00.603596 21558 net.cpp:94] Creating Layer relu3
I0506 13:07:00.603600 21558 net.cpp:435] relu3 <- conv3
I0506 13:07:00.603605 21558 net.cpp:396] relu3 -> conv3 (in-place)
I0506 13:07:00.603612 21558 net.cpp:144] Setting up relu3
I0506 13:07:00.603616 21558 net.cpp:151] Top shape: 20 128 5 5 (64000)
I0506 13:07:00.603619 21558 net.cpp:159] Memory required for data: 2696240
I0506 13:07:00.603622 21558 layer_factory.hpp:77] Creating layer conv4
I0506 13:07:00.603629 21558 net.cpp:94] Creating Layer conv4
I0506 13:07:00.603633 21558 net.cpp:435] conv4 <- conv3
I0506 13:07:00.603637 21558 net.cpp:409] conv4 -> conv4
I0506 13:07:00.616132 21558 net.cpp:144] Setting up conv4
I0506 13:07:00.616145 21558 net.cpp:151] Top shape: 20 128 5 5 (64000)
I0506 13:07:00.616149 21558 net.cpp:159] Memory required for data: 2952240
I0506 13:07:00.616155 21558 layer_factory.hpp:77] Creating layer relu4
I0506 13:07:00.616161 21558 net.cpp:94] Creating Layer relu4
I0506 13:07:00.616165 21558 net.cpp:435] relu4 <- conv4
I0506 13:07:00.616169 21558 net.cpp:396] relu4 -> conv4 (in-place)
I0506 13:07:00.616176 21558 net.cpp:144] Setting up relu4
I0506 13:07:00.616180 21558 net.cpp:151] Top shape: 20 128 5 5 (64000)
I0506 13:07:00.616183 21558 net.cpp:159] Memory required for data: 3208240
I0506 13:07:00.616185 21558 layer_factory.hpp:77] Creating layer conv5
I0506 13:07:00.616195 21558 net.cpp:94] Creating Layer conv5
I0506 13:07:00.616199 21558 net.cpp:435] conv5 <- conv4
I0506 13:07:00.616204 21558 net.cpp:409] conv5 -> conv5
I0506 13:07:00.628736 21558 net.cpp:144] Setting up conv5
I0506 13:07:00.628751 21558 net.cpp:151] Top shape: 20 128 5 5 (64000)
I0506 13:07:00.628754 21558 net.cpp:159] Memory required for data: 3464240
I0506 13:07:00.628764 21558 layer_factory.hpp:77] Creating layer relu5
I0506 13:07:00.628770 21558 net.cpp:94] Creating Layer relu5
I0506 13:07:00.628774 21558 net.cpp:435] relu5 <- conv5
I0506 13:07:00.628779 21558 net.cpp:396] relu5 -> conv5 (in-place)
I0506 13:07:00.628787 21558 net.cpp:144] Setting up relu5
I0506 13:07:00.628790 21558 net.cpp:151] Top shape: 20 128 5 5 (64000)
I0506 13:07:00.628798 21558 net.cpp:159] Memory required for data: 3720240
I0506 13:07:00.628801 21558 layer_factory.hpp:77] Creating layer pool5
I0506 13:07:00.628808 21558 net.cpp:94] Creating Layer pool5
I0506 13:07:00.628810 21558 net.cpp:435] pool5 <- conv5
I0506 13:07:00.628814 21558 net.cpp:409] pool5 -> pool5
I0506 13:07:00.628857 21558 net.cpp:144] Setting up pool5
I0506 13:07:00.628865 21558 net.cpp:151] Top shape: 20 128 2 2 (10240)
I0506 13:07:00.628867 21558 net.cpp:159] Memory required for data: 3761200
I0506 13:07:00.628870 21558 layer_factory.hpp:77] Creating layer ip1
I0506 13:07:00.628878 21558 net.cpp:94] Creating Layer ip1
I0506 13:07:00.628881 21558 net.cpp:435] ip1 <- pool5
I0506 13:07:00.628886 21558 net.cpp:409] ip1 -> ip1
I0506 13:07:00.642045 21558 net.cpp:144] Setting up ip1
I0506 13:07:00.642060 21558 net.cpp:151] Top shape: 20 1024 (20480)
I0506 13:07:00.642063 21558 net.cpp:159] Memory required for data: 3843120
I0506 13:07:00.642068 21558 layer_factory.hpp:77] Creating layer ip2
I0506 13:07:00.642076 21558 net.cpp:94] Creating Layer ip2
I0506 13:07:00.642079 21558 net.cpp:435] ip2 <- ip1
I0506 13:07:00.642084 21558 net.cpp:409] ip2 -> ip2
I0506 13:07:00.655175 21558 net.cpp:144] Setting up ip2
I0506 13:07:00.655189 21558 net.cpp:151] Top shape: 20 512 (10240)
I0506 13:07:00.655192 21558 net.cpp:159] Memory required for data: 3884080
I0506 13:07:00.655199 21558 layer_factory.hpp:77] Creating layer ip3
I0506 13:07:00.655208 21558 net.cpp:94] Creating Layer ip3
I0506 13:07:00.655211 21558 net.cpp:435] ip3 <- ip2
I0506 13:07:00.655216 21558 net.cpp:409] ip3 -> ip3
I0506 13:07:00.655963 21558 net.cpp:144] Setting up ip3
I0506 13:07:00.655972 21558 net.cpp:151] Top shape: 20 50 (1000)
I0506 13:07:00.655974 21558 net.cpp:159] Memory required for data: 3888080
I0506 13:07:00.655979 21558 layer_factory.hpp:77] Creating layer ip3_ip3_0_split
I0506 13:07:00.655987 21558 net.cpp:94] Creating Layer ip3_ip3_0_split
I0506 13:07:00.655989 21558 net.cpp:435] ip3_ip3_0_split <- ip3
I0506 13:07:00.655994 21558 net.cpp:409] ip3_ip3_0_split -> ip3_ip3_0_split_0
I0506 13:07:00.655999 21558 net.cpp:409] ip3_ip3_0_split -> ip3_ip3_0_split_1
I0506 13:07:00.656045 21558 net.cpp:144] Setting up ip3_ip3_0_split
I0506 13:07:00.656052 21558 net.cpp:151] Top shape: 20 50 (1000)
I0506 13:07:00.656056 21558 net.cpp:151] Top shape: 20 50 (1000)
I0506 13:07:00.656059 21558 net.cpp:159] Memory required for data: 3896080
I0506 13:07:00.656061 21558 layer_factory.hpp:77] Creating layer accuracy
I0506 13:07:00.656067 21558 net.cpp:94] Creating Layer accuracy
I0506 13:07:00.656070 21558 net.cpp:435] accuracy <- ip3_ip3_0_split_0
I0506 13:07:00.656075 21558 net.cpp:435] accuracy <- label_intercept_1_split_0
I0506 13:07:00.656080 21558 net.cpp:409] accuracy -> accuracy
…
