…
I0502 18:29:11.083550 12103 net.cpp:323] The NetState phase (0) differed from the phase (1) specified by a rule in layer intercept
I0502 18:29:11.083575 12103 net.cpp:323] The NetState phase (0) differed from the phase (1) specified by a rule in layer accuracy
I0502 18:29:11.083720 12103 net.cpp:52] Initializing net from parameters: 
state {
  phase: TRAIN
}
layer {
  name: "parameters"
  type: "HDF5Data"
  top: "data"
  top: "label"
  include {
    phase: TRAIN
  }
  hdf5_data_param {
    source: "/home/purduethu/scratch/radon/d/deng106/CNNStatisticalModel/distributions/input/20_distributions_100_sample_size_train-distributions-path.txt"
    batch_size: 20
  }
}
layer {
  name: "conv1"
  type: "Convolution"
  bottom: "data"
  top: "conv1"
  param {
    lr_mult: 1
  }
  param {
    lr_mult: 2
  }
  convolution_param {
    num_output: 64
    pad: 2
    kernel_size: 5
    stride: 1
    weight_filler {
      type: "gaussian"
      std: 0.0001
    }
    bias_filler {
      type: "constant"
    }
  }
}
layer {
  name: "relu1"
  type: "ReLU"
  bottom: "conv1"
  top: "conv1"
}
layer {
  name: "conv2"
  type: "Convolution"
  bottom: "conv1"
  top: "conv2"
  param {
    lr_mult: 1
  }
  param {
    lr_mult: 2
  }
  convolution_param {
    num_output: 64
    pad: 2
    kernel_size: 5
    stride: 1
    weight_filler {
      type: "gaussian"
      std: 0.01
    }
    bias_filler {
      type: "constant"
    }
  }
}
layer {
  name: "relu2"
  type: "ReLU"
  bottom: "conv2"
  top: "conv2"
}
layer {
  name: "pool2"
  type: "Pooling"
  bottom: "conv2"
  top: "pool2"
  pooling_param {
    pool: MAX
    kernel_size: 3
    stride: 2
  }
}
layer {
  name: "conv3"
  type: "Convolution"
  bottom: "pool2"
  top: "conv3"
  param {
    lr_mult: 1
  }
  param {
    lr_mult: 2
  }
  convolution_param {
    num_output: 64
    pad: 2
    kernel_size: 5
    stride: 1
    weight_filler {
      type: "gaussian"
      std: 0.01
    }
    bias_filler {
      type: "constant"
    }
  }
}
layer {
  name: "relu3"
  type: "ReLU"
  bottom: "conv3"
  top: "conv3"
}
layer {
  name: "conv4"
  type: "Convolution"
  bottom: "conv3"
  top: "conv4"
  param {
    lr_mult: 1
  }
  param {
    lr_mult: 2
  }
  convolution_param {
    num_output: 64
    pad: 2
    kernel_size: 5
    stride: 1
    weight_filler {
      type: "gaussian"
      std: 0.01
    }
    bias_filler {
      type: "constant"
    }
  }
}
layer {
  name: "relu4"
  type: "ReLU"
  bottom: "conv4"
  top: "conv4"
}
layer {
  name: "conv5"
  type: "Convolution"
  bottom: "conv4"
  top: "conv5"
  param {
    lr_mult: 1
  }
  param {
    lr_mult: 2
  }
  convolution_param {
    num_output: 64
    pad: 2
    kernel_size: 5
    stride: 1
    weight_filler {
      type: "gaussian"
      std: 0.01
    }
    bias_filler {
      type: "constant"
    }
  }
}
layer {
  name: "relu5"
  type: "ReLU"
  bottom: "conv5"
  top: "conv5"
}
layer {
  name: "pool5"
  type: "Pooling"
  bottom: "conv5"
  top: "pool5"
  pooling_param {
    pool: AVE
    kernel_size: 3
    stride: 2
  }
}
layer {
  name: "ip1"
  type: "InnerProduct"
  bottom: "pool5"
  top: "ip1"
  param {
    lr_mult: 1
  }
  param {
    lr_mult: 2
  }
  inner_product_param {
    num_output: 64
    weight_filler {
      type: "gaussian"
      std: 0.1
    }
    bias_filler {
      type: "constant"
    }
  }
}
layer {
  name: "ip2"
  type: "InnerProduct"
  bottom: "ip1"
  top: "ip2"
  param {
    lr_mult: 1
  }
  param {
    lr_mult: 2
  }
  inner_product_param {
    num_output: 64
    weight_filler {
      type: "gaussian"
      std: 0.1
    }
    bias_filler {
      type: "constant"
    }
  }
}
layer {
  name: "ip3"
  type: "InnerProduct"
  bottom: "ip2"
  top: "ip3"
  param {
    lr_mult: 1
  }
  param {
    lr_mult: 2
  }
  inner_product_param {
    num_output: 50
    weight_filler {
      type: "gaussian"
      std: 0.1
    }
    bias_filler {
      type: "constant"
    }
  }
}
layer {
  name: "loss"
  type: "SoftmaxWithLoss"
  bottom: "ip3"
  bottom: "label"
  top: "loss"
}
I0502 18:29:11.083830 12103 layer_factory.hpp:77] Creating layer parameters
I0502 18:29:11.083850 12103 net.cpp:94] Creating Layer parameters
I0502 18:29:11.083860 12103 net.cpp:409] parameters -> data
I0502 18:29:11.083887 12103 net.cpp:409] parameters -> label
I0502 18:29:11.083906 12103 hdf5_data_layer.cpp:79] Loading list of HDF5 filenames from: /home/purduethu/scratch/radon/d/deng106/CNNStatisticalModel/distributions/input/20_distributions_100_sample_size_train-distributions-path.txt
I0502 18:29:11.083936 12103 hdf5_data_layer.cpp:93] Number of HDF5 files: 1
I0502 18:29:11.084754 12103 hdf5.cpp:32] Datatype class: H5T_FLOAT
I0502 18:29:11.174841 12103 hdf5.cpp:35] Datatype class: H5T_INTEGER
I0502 18:29:11.177373 12103 net.cpp:144] Setting up parameters
I0502 18:29:11.177398 12103 net.cpp:151] Top shape: 20 1 10 10 (2000)
I0502 18:29:11.177408 12103 net.cpp:151] Top shape: 20 (20)
I0502 18:29:11.177414 12103 net.cpp:159] Memory required for data: 8080
I0502 18:29:11.177425 12103 layer_factory.hpp:77] Creating layer conv1
I0502 18:29:11.177456 12103 net.cpp:94] Creating Layer conv1
I0502 18:29:11.177465 12103 net.cpp:435] conv1 <- data
I0502 18:29:11.177481 12103 net.cpp:409] conv1 -> conv1
I0502 18:29:11.184106 12103 net.cpp:144] Setting up conv1
I0502 18:29:11.184125 12103 net.cpp:151] Top shape: 20 64 10 10 (128000)
I0502 18:29:11.184132 12103 net.cpp:159] Memory required for data: 520080
I0502 18:29:11.184149 12103 layer_factory.hpp:77] Creating layer relu1
I0502 18:29:11.184164 12103 net.cpp:94] Creating Layer relu1
I0502 18:29:11.184170 12103 net.cpp:435] relu1 <- conv1
I0502 18:29:11.184178 12103 net.cpp:396] relu1 -> conv1 (in-place)
I0502 18:29:11.184198 12103 net.cpp:144] Setting up relu1
I0502 18:29:11.184207 12103 net.cpp:151] Top shape: 20 64 10 10 (128000)
I0502 18:29:11.184213 12103 net.cpp:159] Memory required for data: 1032080
I0502 18:29:11.184219 12103 layer_factory.hpp:77] Creating layer conv2
I0502 18:29:11.184232 12103 net.cpp:94] Creating Layer conv2
I0502 18:29:11.184239 12103 net.cpp:435] conv2 <- conv1
I0502 18:29:11.184248 12103 net.cpp:409] conv2 -> conv2
I0502 18:29:11.191804 12103 net.cpp:144] Setting up conv2
I0502 18:29:11.191823 12103 net.cpp:151] Top shape: 20 64 10 10 (128000)
I0502 18:29:11.191830 12103 net.cpp:159] Memory required for data: 1544080
I0502 18:29:11.191843 12103 layer_factory.hpp:77] Creating layer relu2
I0502 18:29:11.191854 12103 net.cpp:94] Creating Layer relu2
I0502 18:29:11.191861 12103 net.cpp:435] relu2 <- conv2
I0502 18:29:11.191870 12103 net.cpp:396] relu2 -> conv2 (in-place)
I0502 18:29:11.191884 12103 net.cpp:144] Setting up relu2
I0502 18:29:11.191893 12103 net.cpp:151] Top shape: 20 64 10 10 (128000)
I0502 18:29:11.191900 12103 net.cpp:159] Memory required for data: 2056080
I0502 18:29:11.191907 12103 layer_factory.hpp:77] Creating layer pool2
I0502 18:29:11.191928 12103 net.cpp:94] Creating Layer pool2
I0502 18:29:11.191937 12103 net.cpp:435] pool2 <- conv2
I0502 18:29:11.191946 12103 net.cpp:409] pool2 -> pool2
I0502 18:29:11.192005 12103 net.cpp:144] Setting up pool2
I0502 18:29:11.192016 12103 net.cpp:151] Top shape: 20 64 5 5 (32000)
I0502 18:29:11.192023 12103 net.cpp:159] Memory required for data: 2184080
I0502 18:29:11.192029 12103 layer_factory.hpp:77] Creating layer conv3
I0502 18:29:11.192041 12103 net.cpp:94] Creating Layer conv3
I0502 18:29:11.192047 12103 net.cpp:435] conv3 <- pool2
I0502 18:29:11.192067 12103 net.cpp:409] conv3 -> conv3
I0502 18:29:11.201390 12103 net.cpp:144] Setting up conv3
I0502 18:29:11.201407 12103 net.cpp:151] Top shape: 20 64 5 5 (32000)
I0502 18:29:11.201414 12103 net.cpp:159] Memory required for data: 2312080
I0502 18:29:11.201427 12103 layer_factory.hpp:77] Creating layer relu3
I0502 18:29:11.201437 12103 net.cpp:94] Creating Layer relu3
I0502 18:29:11.201443 12103 net.cpp:435] relu3 <- conv3
I0502 18:29:11.201452 12103 net.cpp:396] relu3 -> conv3 (in-place)
I0502 18:29:11.201462 12103 net.cpp:144] Setting up relu3
I0502 18:29:11.201470 12103 net.cpp:151] Top shape: 20 64 5 5 (32000)
I0502 18:29:11.201477 12103 net.cpp:159] Memory required for data: 2440080
I0502 18:29:11.201483 12103 layer_factory.hpp:77] Creating layer conv4
I0502 18:29:11.201495 12103 net.cpp:94] Creating Layer conv4
I0502 18:29:11.201501 12103 net.cpp:435] conv4 <- conv3
I0502 18:29:11.201509 12103 net.cpp:409] conv4 -> conv4
I0502 18:29:11.209064 12103 net.cpp:144] Setting up conv4
I0502 18:29:11.209084 12103 net.cpp:151] Top shape: 20 64 5 5 (32000)
I0502 18:29:11.209090 12103 net.cpp:159] Memory required for data: 2568080
I0502 18:29:11.209100 12103 layer_factory.hpp:77] Creating layer relu4
I0502 18:29:11.209110 12103 net.cpp:94] Creating Layer relu4
I0502 18:29:11.209116 12103 net.cpp:435] relu4 <- conv4
I0502 18:29:11.209123 12103 net.cpp:396] relu4 -> conv4 (in-place)
I0502 18:29:11.209136 12103 net.cpp:144] Setting up relu4
I0502 18:29:11.209146 12103 net.cpp:151] Top shape: 20 64 5 5 (32000)
I0502 18:29:11.209154 12103 net.cpp:159] Memory required for data: 2696080
I0502 18:29:11.209161 12103 layer_factory.hpp:77] Creating layer conv5
I0502 18:29:11.209175 12103 net.cpp:94] Creating Layer conv5
I0502 18:29:11.209184 12103 net.cpp:435] conv5 <- conv4
I0502 18:29:11.209195 12103 net.cpp:409] conv5 -> conv5
I0502 18:29:11.218900 12103 net.cpp:144] Setting up conv5
I0502 18:29:11.218919 12103 net.cpp:151] Top shape: 20 64 5 5 (32000)
I0502 18:29:11.218926 12103 net.cpp:159] Memory required for data: 2824080
I0502 18:29:11.218940 12103 layer_factory.hpp:77] Creating layer relu5
I0502 18:29:11.218950 12103 net.cpp:94] Creating Layer relu5
I0502 18:29:11.218956 12103 net.cpp:435] relu5 <- conv5
I0502 18:29:11.218966 12103 net.cpp:396] relu5 -> conv5 (in-place)
I0502 18:29:11.218976 12103 net.cpp:144] Setting up relu5
I0502 18:29:11.218984 12103 net.cpp:151] Top shape: 20 64 5 5 (32000)
I0502 18:29:11.218991 12103 net.cpp:159] Memory required for data: 2952080
I0502 18:29:11.218997 12103 layer_factory.hpp:77] Creating layer pool5
I0502 18:29:11.219004 12103 net.cpp:94] Creating Layer pool5
I0502 18:29:11.219010 12103 net.cpp:435] pool5 <- conv5
I0502 18:29:11.219017 12103 net.cpp:409] pool5 -> pool5
I0502 18:29:11.219063 12103 net.cpp:144] Setting up pool5
I0502 18:29:11.219074 12103 net.cpp:151] Top shape: 20 64 2 2 (5120)
I0502 18:29:11.219080 12103 net.cpp:159] Memory required for data: 2972560
I0502 18:29:11.219086 12103 layer_factory.hpp:77] Creating layer ip1
I0502 18:29:11.219100 12103 net.cpp:94] Creating Layer ip1
I0502 18:29:11.219107 12103 net.cpp:435] ip1 <- pool5
I0502 18:29:11.219115 12103 net.cpp:409] ip1 -> ip1
I0502 18:29:11.220717 12103 net.cpp:144] Setting up ip1
I0502 18:29:11.220736 12103 net.cpp:151] Top shape: 20 64 (1280)
I0502 18:29:11.220742 12103 net.cpp:159] Memory required for data: 2977680
I0502 18:29:11.220752 12103 layer_factory.hpp:77] Creating layer ip2
I0502 18:29:11.220763 12103 net.cpp:94] Creating Layer ip2
I0502 18:29:11.220775 12103 net.cpp:435] ip2 <- ip1
I0502 18:29:11.220784 12103 net.cpp:409] ip2 -> ip2
I0502 18:29:11.221025 12103 net.cpp:144] Setting up ip2
I0502 18:29:11.221038 12103 net.cpp:151] Top shape: 20 64 (1280)
I0502 18:29:11.221045 12103 net.cpp:159] Memory required for data: 2982800
I0502 18:29:11.221055 12103 layer_factory.hpp:77] Creating layer ip3
I0502 18:29:11.221063 12103 net.cpp:94] Creating Layer ip3
I0502 18:29:11.221070 12103 net.cpp:435] ip3 <- ip2
I0502 18:29:11.221077 12103 net.cpp:409] ip3 -> ip3
I0502 18:29:11.221287 12103 net.cpp:144] Setting up ip3
I0502 18:29:11.221305 12103 net.cpp:151] Top shape: 20 50 (1000)
I0502 18:29:11.221312 12103 net.cpp:159] Memory required for data: 2986800
I0502 18:29:11.221323 12103 layer_factory.hpp:77] Creating layer loss
I0502 18:29:11.221333 12103 net.cpp:94] Creating Layer loss
I0502 18:29:11.221339 12103 net.cpp:435] loss <- ip3
I0502 18:29:11.221346 12103 net.cpp:435] loss <- label
I0502 18:29:11.221354 12103 net.cpp:409] loss -> loss
I0502 18:29:11.221369 12103 layer_factory.hpp:77] Creating layer loss
…
I0502 18:29:11.223117 12103 solver.cpp:181] Creating test net (#0) specified by net file: ./protocol/dis_20_100_dimension.protocol_distribution
I0502 18:29:11.223163 12103 net.cpp:323] The NetState phase (1) differed from the phase (0) specified by a rule in layer parameters
I0502 18:29:11.223327 12103 net.cpp:52] Initializing net from parameters: 
state {
  phase: TEST
}
layer {
  name: "intercept"
  type: "HDF5Data"
  top: "data"
  top: "label"
  include {
    phase: TEST
  }
  hdf5_data_param {
    source: "/home/purduethu/scratch/radon/d/deng106/CNNStatisticalModel/distributions/input/20_distributions_100_sample_size_test-distributions-path.txt"
    batch_size: 20
  }
}
layer {
  name: "conv1"
  type: "Convolution"
  bottom: "data"
  top: "conv1"
  param {
    lr_mult: 1
  }
  param {
    lr_mult: 2
  }
  convolution_param {
    num_output: 64
    pad: 2
    kernel_size: 5
    stride: 1
    weight_filler {
      type: "gaussian"
      std: 0.0001
    }
    bias_filler {
      type: "constant"
    }
  }
}
layer {
  name: "relu1"
  type: "ReLU"
  bottom: "conv1"
  top: "conv1"
}
layer {
  name: "conv2"
  type: "Convolution"
  bottom: "conv1"
  top: "conv2"
  param {
    lr_mult: 1
  }
  param {
    lr_mult: 2
  }
  convolution_param {
    num_output: 64
    pad: 2
    kernel_size: 5
    stride: 1
    weight_filler {
      type: "gaussian"
      std: 0.01
    }
    bias_filler {
      type: "constant"
    }
  }
}
layer {
  name: "relu2"
  type: "ReLU"
  bottom: "conv2"
  top: "conv2"
}
layer {
  name: "pool2"
  type: "Pooling"
  bottom: "conv2"
  top: "pool2"
  pooling_param {
    pool: MAX
    kernel_size: 3
    stride: 2
  }
}
layer {
  name: "conv3"
  type: "Convolution"
  bottom: "pool2"
  top: "conv3"
  param {
    lr_mult: 1
  }
  param {
    lr_mult: 2
  }
  convolution_param {
    num_output: 64
    pad: 2
    kernel_size: 5
    stride: 1
    weight_filler {
      type: "gaussian"
      std: 0.01
    }
    bias_filler {
      type: "constant"
    }
  }
}
layer {
  name: "relu3"
  type: "ReLU"
  bottom: "conv3"
  top: "conv3"
}
layer {
  name: "conv4"
  type: "Convolution"
  bottom: "conv3"
  top: "conv4"
  param {
    lr_mult: 1
  }
  param {
    lr_mult: 2
  }
  convolution_param {
    num_output: 64
    pad: 2
    kernel_size: 5
    stride: 1
    weight_filler {
      type: "gaussian"
      std: 0.01
    }
    bias_filler {
      type: "constant"
    }
  }
}
layer {
  name: "relu4"
  type: "ReLU"
  bottom: "conv4"
  top: "conv4"
}
layer {
  name: "conv5"
  type: "Convolution"
  bottom: "conv4"
  top: "conv5"
  param {
    lr_mult: 1
  }
  param {
    lr_mult: 2
  }
  convolution_param {
    num_output: 64
    pad: 2
    kernel_size: 5
    stride: 1
    weight_filler {
      type: "gaussian"
      std: 0.01
    }
    bias_filler {
      type: "constant"
    }
  }
}
layer {
  name: "relu5"
  type: "ReLU"
  bottom: "conv5"
  top: "conv5"
}
layer {
  name: "pool5"
  type: "Pooling"
  bottom: "conv5"
  top: "pool5"
  pooling_param {
    pool: AVE
    kernel_size: 3
    stride: 2
  }
}
layer {
  name: "ip1"
  type: "InnerProduct"
  bottom: "pool5"
  top: "ip1"
  param {
    lr_mult: 1
  }
  param {
    lr_mult: 2
  }
  inner_product_param {
    num_output: 64
    weight_filler {
      type: "gaussian"
      std: 0.1
    }
    bias_filler {
      type: "constant"
    }
  }
}
layer {
  name: "ip2"
  type: "InnerProduct"
  bottom: "ip1"
  top: "ip2"
  param {
    lr_mult: 1
  }
  param {
    lr_mult: 2
  }
  inner_product_param {
    num_output: 64
    weight_filler {
      type: "gaussian"
      std: 0.1
    }
    bias_filler {
      type: "constant"
    }
  }
}
layer {
  name: "ip3"
  type: "InnerProduct"
  bottom: "ip2"
  top: "ip3"
  param {
    lr_mult: 1
  }
  param {
    lr_mult: 2
  }
  inner_product_param {
    num_output: 50
    weight_filler {
      type: "gaussian"
      std: 0.1
    }
    bias_filler {
      type: "constant"
    }
  }
}
layer {
  name: "accuracy"
  type: "Accuracy"
  bottom: "ip3"
  bottom: "label"
  top: "accuracy"
  include {
    phase: TEST
  }
}
layer {
  name: "loss"
  type: "SoftmaxWithLoss"
  bottom: "ip3"
  bottom: "label"
  top: "loss"
}
I0502 18:29:11.223444 12103 layer_factory.hpp:77] Creating layer intercept
I0502 18:29:11.223459 12103 net.cpp:94] Creating Layer intercept
I0502 18:29:11.223466 12103 net.cpp:409] intercept -> data
I0502 18:29:11.223477 12103 net.cpp:409] intercept -> label
I0502 18:29:11.223489 12103 hdf5_data_layer.cpp:79] Loading list of HDF5 filenames from: /home/purduethu/scratch/radon/d/deng106/CNNStatisticalModel/distributions/input/20_distributions_100_sample_size_test-distributions-path.txt
I0502 18:29:11.223515 12103 hdf5_data_layer.cpp:93] Number of HDF5 files: 1
I0502 18:29:11.247736 12103 net.cpp:144] Setting up intercept
I0502 18:29:11.247778 12103 net.cpp:151] Top shape: 20 1 10 10 (2000)
I0502 18:29:11.247788 12103 net.cpp:151] Top shape: 20 (20)
I0502 18:29:11.247795 12103 net.cpp:159] Memory required for data: 8080
I0502 18:29:11.247804 12103 layer_factory.hpp:77] Creating layer label_intercept_1_split
I0502 18:29:11.247825 12103 net.cpp:94] Creating Layer label_intercept_1_split
I0502 18:29:11.247833 12103 net.cpp:435] label_intercept_1_split <- label
I0502 18:29:11.247843 12103 net.cpp:409] label_intercept_1_split -> label_intercept_1_split_0
I0502 18:29:11.247855 12103 net.cpp:409] label_intercept_1_split -> label_intercept_1_split_1
I0502 18:29:11.247905 12103 net.cpp:144] Setting up label_intercept_1_split
I0502 18:29:11.247915 12103 net.cpp:151] Top shape: 20 (20)
I0502 18:29:11.247922 12103 net.cpp:151] Top shape: 20 (20)
I0502 18:29:11.247927 12103 net.cpp:159] Memory required for data: 8240
I0502 18:29:11.247933 12103 layer_factory.hpp:77] Creating layer conv1
I0502 18:29:11.247949 12103 net.cpp:94] Creating Layer conv1
I0502 18:29:11.247956 12103 net.cpp:435] conv1 <- data
I0502 18:29:11.247966 12103 net.cpp:409] conv1 -> conv1
I0502 18:29:11.248899 12103 net.cpp:144] Setting up conv1
I0502 18:29:11.248929 12103 net.cpp:151] Top shape: 20 64 10 10 (128000)
I0502 18:29:11.248937 12103 net.cpp:159] Memory required for data: 520240
I0502 18:29:11.248952 12103 layer_factory.hpp:77] Creating layer relu1
I0502 18:29:11.248962 12103 net.cpp:94] Creating Layer relu1
I0502 18:29:11.248970 12103 net.cpp:435] relu1 <- conv1
I0502 18:29:11.248977 12103 net.cpp:396] relu1 -> conv1 (in-place)
I0502 18:29:11.248989 12103 net.cpp:144] Setting up relu1
I0502 18:29:11.248998 12103 net.cpp:151] Top shape: 20 64 10 10 (128000)
I0502 18:29:11.249004 12103 net.cpp:159] Memory required for data: 1032240
I0502 18:29:11.249009 12103 layer_factory.hpp:77] Creating layer conv2
I0502 18:29:11.249022 12103 net.cpp:94] Creating Layer conv2
I0502 18:29:11.249029 12103 net.cpp:435] conv2 <- conv1
I0502 18:29:11.249037 12103 net.cpp:409] conv2 -> conv2
I0502 18:29:11.253962 12103 net.cpp:144] Setting up conv2
I0502 18:29:11.253979 12103 net.cpp:151] Top shape: 20 64 10 10 (128000)
I0502 18:29:11.253986 12103 net.cpp:159] Memory required for data: 1544240
I0502 18:29:11.253999 12103 layer_factory.hpp:77] Creating layer relu2
I0502 18:29:11.254010 12103 net.cpp:94] Creating Layer relu2
I0502 18:29:11.254019 12103 net.cpp:435] relu2 <- conv2
I0502 18:29:11.254026 12103 net.cpp:396] relu2 -> conv2 (in-place)
I0502 18:29:11.254036 12103 net.cpp:144] Setting up relu2
I0502 18:29:11.254045 12103 net.cpp:151] Top shape: 20 64 10 10 (128000)
I0502 18:29:11.254050 12103 net.cpp:159] Memory required for data: 2056240
I0502 18:29:11.254055 12103 layer_factory.hpp:77] Creating layer pool2
I0502 18:29:11.254065 12103 net.cpp:94] Creating Layer pool2
I0502 18:29:11.254073 12103 net.cpp:435] pool2 <- conv2
I0502 18:29:11.254082 12103 net.cpp:409] pool2 -> pool2
I0502 18:29:11.254132 12103 net.cpp:144] Setting up pool2
I0502 18:29:11.254145 12103 net.cpp:151] Top shape: 20 64 5 5 (32000)
I0502 18:29:11.254153 12103 net.cpp:159] Memory required for data: 2184240
I0502 18:29:11.254159 12103 layer_factory.hpp:77] Creating layer conv3
I0502 18:29:11.254173 12103 net.cpp:94] Creating Layer conv3
I0502 18:29:11.254179 12103 net.cpp:435] conv3 <- pool2
I0502 18:29:11.254187 12103 net.cpp:409] conv3 -> conv3
I0502 18:29:11.260259 12103 net.cpp:144] Setting up conv3
I0502 18:29:11.260278 12103 net.cpp:151] Top shape: 20 64 5 5 (32000)
I0502 18:29:11.260284 12103 net.cpp:159] Memory required for data: 2312240
I0502 18:29:11.260298 12103 layer_factory.hpp:77] Creating layer relu3
I0502 18:29:11.260308 12103 net.cpp:94] Creating Layer relu3
I0502 18:29:11.260314 12103 net.cpp:435] relu3 <- conv3
I0502 18:29:11.260323 12103 net.cpp:396] relu3 -> conv3 (in-place)
I0502 18:29:11.260332 12103 net.cpp:144] Setting up relu3
I0502 18:29:11.260340 12103 net.cpp:151] Top shape: 20 64 5 5 (32000)
I0502 18:29:11.260346 12103 net.cpp:159] Memory required for data: 2440240
I0502 18:29:11.260351 12103 layer_factory.hpp:77] Creating layer conv4
I0502 18:29:11.260363 12103 net.cpp:94] Creating Layer conv4
I0502 18:29:11.260370 12103 net.cpp:435] conv4 <- conv3
I0502 18:29:11.260377 12103 net.cpp:409] conv4 -> conv4
I0502 18:29:11.265854 12103 net.cpp:144] Setting up conv4
I0502 18:29:11.265873 12103 net.cpp:151] Top shape: 20 64 5 5 (32000)
I0502 18:29:11.265880 12103 net.cpp:159] Memory required for data: 2568240
I0502 18:29:11.265890 12103 layer_factory.hpp:77] Creating layer relu4
I0502 18:29:11.265899 12103 net.cpp:94] Creating Layer relu4
I0502 18:29:11.265905 12103 net.cpp:435] relu4 <- conv4
I0502 18:29:11.265918 12103 net.cpp:396] relu4 -> conv4 (in-place)
I0502 18:29:11.265929 12103 net.cpp:144] Setting up relu4
I0502 18:29:11.265938 12103 net.cpp:151] Top shape: 20 64 5 5 (32000)
I0502 18:29:11.265943 12103 net.cpp:159] Memory required for data: 2696240
I0502 18:29:11.265949 12103 layer_factory.hpp:77] Creating layer conv5
I0502 18:29:11.265959 12103 net.cpp:94] Creating Layer conv5
I0502 18:29:11.265966 12103 net.cpp:435] conv5 <- conv4
I0502 18:29:11.265974 12103 net.cpp:409] conv5 -> conv5
I0502 18:29:11.272167 12103 net.cpp:144] Setting up conv5
I0502 18:29:11.272193 12103 net.cpp:151] Top shape: 20 64 5 5 (32000)
I0502 18:29:11.272199 12103 net.cpp:159] Memory required for data: 2824240
I0502 18:29:11.272212 12103 layer_factory.hpp:77] Creating layer relu5
I0502 18:29:11.272222 12103 net.cpp:94] Creating Layer relu5
I0502 18:29:11.272228 12103 net.cpp:435] relu5 <- conv5
I0502 18:29:11.272235 12103 net.cpp:396] relu5 -> conv5 (in-place)
I0502 18:29:11.272246 12103 net.cpp:144] Setting up relu5
I0502 18:29:11.272254 12103 net.cpp:151] Top shape: 20 64 5 5 (32000)
I0502 18:29:11.272259 12103 net.cpp:159] Memory required for data: 2952240
I0502 18:29:11.272265 12103 layer_factory.hpp:77] Creating layer pool5
I0502 18:29:11.272274 12103 net.cpp:94] Creating Layer pool5
I0502 18:29:11.272279 12103 net.cpp:435] pool5 <- conv5
I0502 18:29:11.272287 12103 net.cpp:409] pool5 -> pool5
I0502 18:29:11.272320 12103 net.cpp:144] Setting up pool5
I0502 18:29:11.272330 12103 net.cpp:151] Top shape: 20 64 2 2 (5120)
I0502 18:29:11.272336 12103 net.cpp:159] Memory required for data: 2972720
I0502 18:29:11.272341 12103 layer_factory.hpp:77] Creating layer ip1
I0502 18:29:11.272352 12103 net.cpp:94] Creating Layer ip1
I0502 18:29:11.272358 12103 net.cpp:435] ip1 <- pool5
I0502 18:29:11.272367 12103 net.cpp:409] ip1 -> ip1
I0502 18:29:11.273042 12103 net.cpp:144] Setting up ip1
I0502 18:29:11.273056 12103 net.cpp:151] Top shape: 20 64 (1280)
I0502 18:29:11.273062 12103 net.cpp:159] Memory required for data: 2977840
I0502 18:29:11.273072 12103 layer_factory.hpp:77] Creating layer ip2
I0502 18:29:11.273082 12103 net.cpp:94] Creating Layer ip2
I0502 18:29:11.273088 12103 net.cpp:435] ip2 <- ip1
I0502 18:29:11.273097 12103 net.cpp:409] ip2 -> ip2
I0502 18:29:11.273340 12103 net.cpp:144] Setting up ip2
I0502 18:29:11.273352 12103 net.cpp:151] Top shape: 20 64 (1280)
I0502 18:29:11.273358 12103 net.cpp:159] Memory required for data: 2982960
I0502 18:29:11.273367 12103 layer_factory.hpp:77] Creating layer ip3
I0502 18:29:11.273378 12103 net.cpp:94] Creating Layer ip3
I0502 18:29:11.273386 12103 net.cpp:435] ip3 <- ip2
I0502 18:29:11.273394 12103 net.cpp:409] ip3 -> ip3
I0502 18:29:11.273607 12103 net.cpp:144] Setting up ip3
I0502 18:29:11.273619 12103 net.cpp:151] Top shape: 20 50 (1000)
I0502 18:29:11.273625 12103 net.cpp:159] Memory required for data: 2986960
I0502 18:29:11.273634 12103 layer_factory.hpp:77] Creating layer ip3_ip3_0_split
I0502 18:29:11.273643 12103 net.cpp:94] Creating Layer ip3_ip3_0_split
I0502 18:29:11.273649 12103 net.cpp:435] ip3_ip3_0_split <- ip3
I0502 18:29:11.273656 12103 net.cpp:409] ip3_ip3_0_split -> ip3_ip3_0_split_0
I0502 18:29:11.273665 12103 net.cpp:409] ip3_ip3_0_split -> ip3_ip3_0_split_1
I0502 18:29:11.273701 12103 net.cpp:144] Setting up ip3_ip3_0_split
I0502 18:29:11.273712 12103 net.cpp:151] Top shape: 20 50 (1000)
I0502 18:29:11.273720 12103 net.cpp:151] Top shape: 20 50 (1000)
I0502 18:29:11.273725 12103 net.cpp:159] Memory required for data: 2994960
I0502 18:29:11.273730 12103 layer_factory.hpp:77] Creating layer accuracy
I0502 18:29:11.273739 12103 net.cpp:94] Creating Layer accuracy
I0502 18:29:11.273746 12103 net.cpp:435] accuracy <- ip3_ip3_0_split_0
I0502 18:29:11.273752 12103 net.cpp:435] accuracy <- label_intercept_1_split_0
I0502 18:29:11.273759 12103 net.cpp:409] accuracy -> accuracy
…
