…
I0505 10:13:08.085801  6264 net.cpp:323] The NetState phase (0) differed from the phase (1) specified by a rule in layer intercept
I0505 10:13:08.085815  6264 net.cpp:323] The NetState phase (0) differed from the phase (1) specified by a rule in layer loss
I0505 10:13:08.085883  6264 net.cpp:52] Initializing net from parameters: 
state {
  phase: TRAIN
}
layer {
  name: "parameters"
  type: "HDF5Data"
  top: "data"
  top: "label"
  include {
    phase: TRAIN
  }
  hdf5_data_param {
    source: "/home/purduethu/scratch/radon/d/deng106/CNNStatisticalModel/distributions/input/50_distributions_900_sample_size_train-parameters-path.txt"
    batch_size: 20
  }
}
layer {
  name: "conv1"
  type: "Convolution"
  bottom: "data"
  top: "conv1"
  param {
    lr_mult: 1
  }
  param {
    lr_mult: 2
  }
  convolution_param {
    num_output: 64
    pad: 2
    kernel_size: 5
    stride: 1
    weight_filler {
      type: "gaussian"
      std: 0.0001
    }
    bias_filler {
      type: "constant"
    }
  }
}
layer {
  name: "relu1"
  type: "ReLU"
  bottom: "conv1"
  top: "conv1"
}
layer {
  name: "pool1"
  type: "Pooling"
  bottom: "conv1"
  top: "pool1"
  pooling_param {
    pool: MAX
    kernel_size: 3
    stride: 2
  }
}
layer {
  name: "conv2"
  type: "Convolution"
  bottom: "pool1"
  top: "conv2"
  param {
    lr_mult: 1
  }
  param {
    lr_mult: 2
  }
  convolution_param {
    num_output: 128
    pad: 2
    kernel_size: 5
    stride: 1
    weight_filler {
      type: "gaussian"
      std: 0.01
    }
    bias_filler {
      type: "constant"
    }
  }
}
layer {
  name: "relu2"
  type: "ReLU"
  bottom: "conv2"
  top: "conv2"
}
layer {
  name: "conv3"
  type: "Convolution"
  bottom: "conv2"
  top: "conv3"
  param {
    lr_mult: 1
  }
  param {
    lr_mult: 2
  }
  convolution_param {
    num_output: 128
    pad: 2
    kernel_size: 5
    stride: 1
    weight_filler {
      type: "gaussian"
      std: 0.01
    }
    bias_filler {
      type: "constant"
    }
  }
}
layer {
  name: "relu3"
  type: "ReLU"
  bottom: "conv3"
  top: "conv3"
}
layer {
  name: "pool3"
  type: "Pooling"
  bottom: "conv3"
  top: "pool3"
  pooling_param {
    pool: AVE
    kernel_size: 3
    stride: 2
  }
}
layer {
  name: "ip1"
  type: "InnerProduct"
  bottom: "pool3"
  top: "ip1"
  param {
    lr_mult: 1
  }
  param {
    lr_mult: 2
  }
  inner_product_param {
    num_output: 512
    weight_filler {
      type: "gaussian"
      std: 0.1
    }
    bias_filler {
      type: "constant"
    }
  }
}
layer {
  name: "ip2"
  type: "InnerProduct"
  bottom: "ip1"
  top: "ip2"
  param {
    lr_mult: 1
  }
  param {
    lr_mult: 2
  }
  inner_product_param {
    num_output: 256
    weight_filler {
      type: "gaussian"
      std: 0.1
    }
    bias_filler {
      type: "constant"
    }
  }
}
layer {
  name: "ip3"
  type: "InnerProduct"
  bottom: "ip2"
  top: "ip3"
  param {
    lr_mult: 1
  }
  param {
    lr_mult: 2
  }
  inner_product_param {
    num_output: 1
    weight_filler {
      type: "gaussian"
      std: 0.1
    }
    bias_filler {
      type: "constant"
    }
  }
}
layer {
  name: "loss"
  type: "HuberLoss"
  bottom: "ip3"
  bottom: "label"
  top: "loss"
  include {
    phase: TRAIN
  }
}
I0505 10:13:08.085930  6264 layer_factory.hpp:77] Creating layer parameters
I0505 10:13:08.085947  6264 net.cpp:94] Creating Layer parameters
I0505 10:13:08.085952  6264 net.cpp:409] parameters -> data
I0505 10:13:08.085960  6264 net.cpp:409] parameters -> label
I0505 10:13:08.085968  6264 hdf5_data_layer.cpp:79] Loading list of HDF5 filenames from: /home/purduethu/scratch/radon/d/deng106/CNNStatisticalModel/distributions/input/50_distributions_900_sample_size_train-parameters-path.txt
I0505 10:13:08.085983  6264 hdf5_data_layer.cpp:93] Number of HDF5 files: 1
I0505 10:13:08.086519  6264 hdf5.cpp:32] Datatype class: H5T_FLOAT
I0505 10:13:09.572263  6264 net.cpp:144] Setting up parameters
I0505 10:13:09.572296  6264 net.cpp:151] Top shape: 20 1 30 30 (18000)
I0505 10:13:09.572302  6264 net.cpp:151] Top shape: 20 (20)
I0505 10:13:09.572306  6264 net.cpp:159] Memory required for data: 72080
I0505 10:13:09.572312  6264 layer_factory.hpp:77] Creating layer conv1
I0505 10:13:09.572329  6264 net.cpp:94] Creating Layer conv1
I0505 10:13:09.572334  6264 net.cpp:435] conv1 <- data
I0505 10:13:09.572340  6264 net.cpp:409] conv1 -> conv1
I0505 10:13:09.579068  6264 net.cpp:144] Setting up conv1
I0505 10:13:09.579095  6264 net.cpp:151] Top shape: 20 64 30 30 (1152000)
I0505 10:13:09.579100  6264 net.cpp:159] Memory required for data: 4680080
I0505 10:13:09.579113  6264 layer_factory.hpp:77] Creating layer relu1
I0505 10:13:09.579123  6264 net.cpp:94] Creating Layer relu1
I0505 10:13:09.579128  6264 net.cpp:435] relu1 <- conv1
I0505 10:13:09.579131  6264 net.cpp:396] relu1 -> conv1 (in-place)
I0505 10:13:09.579141  6264 net.cpp:144] Setting up relu1
I0505 10:13:09.579145  6264 net.cpp:151] Top shape: 20 64 30 30 (1152000)
I0505 10:13:09.579149  6264 net.cpp:159] Memory required for data: 9288080
I0505 10:13:09.579151  6264 layer_factory.hpp:77] Creating layer pool1
I0505 10:13:09.579159  6264 net.cpp:94] Creating Layer pool1
I0505 10:13:09.579161  6264 net.cpp:435] pool1 <- conv1
I0505 10:13:09.579165  6264 net.cpp:409] pool1 -> pool1
I0505 10:13:09.579224  6264 net.cpp:144] Setting up pool1
I0505 10:13:09.579232  6264 net.cpp:151] Top shape: 20 64 15 15 (288000)
I0505 10:13:09.579236  6264 net.cpp:159] Memory required for data: 10440080
I0505 10:13:09.579238  6264 layer_factory.hpp:77] Creating layer conv2
I0505 10:13:09.579249  6264 net.cpp:94] Creating Layer conv2
I0505 10:13:09.579253  6264 net.cpp:435] conv2 <- pool1
I0505 10:13:09.579258  6264 net.cpp:409] conv2 -> conv2
I0505 10:13:09.593457  6264 net.cpp:144] Setting up conv2
I0505 10:13:09.593490  6264 net.cpp:151] Top shape: 20 128 15 15 (576000)
I0505 10:13:09.593494  6264 net.cpp:159] Memory required for data: 12744080
I0505 10:13:09.593509  6264 layer_factory.hpp:77] Creating layer relu2
I0505 10:13:09.593521  6264 net.cpp:94] Creating Layer relu2
I0505 10:13:09.593525  6264 net.cpp:435] relu2 <- conv2
I0505 10:13:09.593531  6264 net.cpp:396] relu2 -> conv2 (in-place)
I0505 10:13:09.593541  6264 net.cpp:144] Setting up relu2
I0505 10:13:09.593546  6264 net.cpp:151] Top shape: 20 128 15 15 (576000)
I0505 10:13:09.593549  6264 net.cpp:159] Memory required for data: 15048080
I0505 10:13:09.593552  6264 layer_factory.hpp:77] Creating layer conv3
I0505 10:13:09.593562  6264 net.cpp:94] Creating Layer conv3
I0505 10:13:09.593566  6264 net.cpp:435] conv3 <- conv2
I0505 10:13:09.593571  6264 net.cpp:409] conv3 -> conv3
I0505 10:13:09.616679  6264 net.cpp:144] Setting up conv3
I0505 10:13:09.616714  6264 net.cpp:151] Top shape: 20 128 15 15 (576000)
I0505 10:13:09.616717  6264 net.cpp:159] Memory required for data: 17352080
I0505 10:13:09.616734  6264 layer_factory.hpp:77] Creating layer relu3
I0505 10:13:09.616751  6264 net.cpp:94] Creating Layer relu3
I0505 10:13:09.616756  6264 net.cpp:435] relu3 <- conv3
I0505 10:13:09.616761  6264 net.cpp:396] relu3 -> conv3 (in-place)
I0505 10:13:09.616773  6264 net.cpp:144] Setting up relu3
I0505 10:13:09.616777  6264 net.cpp:151] Top shape: 20 128 15 15 (576000)
I0505 10:13:09.616780  6264 net.cpp:159] Memory required for data: 19656080
I0505 10:13:09.616785  6264 layer_factory.hpp:77] Creating layer pool3
I0505 10:13:09.616791  6264 net.cpp:94] Creating Layer pool3
I0505 10:13:09.616794  6264 net.cpp:435] pool3 <- conv3
I0505 10:13:09.616799  6264 net.cpp:409] pool3 -> pool3
I0505 10:13:09.616883  6264 net.cpp:144] Setting up pool3
I0505 10:13:09.616900  6264 net.cpp:151] Top shape: 20 128 7 7 (125440)
I0505 10:13:09.616904  6264 net.cpp:159] Memory required for data: 20157840
I0505 10:13:09.616906  6264 layer_factory.hpp:77] Creating layer ip1
I0505 10:13:09.616917  6264 net.cpp:94] Creating Layer ip1
I0505 10:13:09.616920  6264 net.cpp:435] ip1 <- pool3
I0505 10:13:09.616925  6264 net.cpp:409] ip1 -> ip1
I0505 10:13:09.695772  6264 net.cpp:144] Setting up ip1
I0505 10:13:09.695806  6264 net.cpp:151] Top shape: 20 512 (10240)
I0505 10:13:09.695809  6264 net.cpp:159] Memory required for data: 20198800
I0505 10:13:09.695819  6264 layer_factory.hpp:77] Creating layer ip2
I0505 10:13:09.695829  6264 net.cpp:94] Creating Layer ip2
I0505 10:13:09.695834  6264 net.cpp:435] ip2 <- ip1
I0505 10:13:09.695840  6264 net.cpp:409] ip2 -> ip2
I0505 10:13:09.699095  6264 net.cpp:144] Setting up ip2
I0505 10:13:09.699106  6264 net.cpp:151] Top shape: 20 256 (5120)
I0505 10:13:09.699110  6264 net.cpp:159] Memory required for data: 20219280
I0505 10:13:09.699120  6264 layer_factory.hpp:77] Creating layer ip3
I0505 10:13:09.699126  6264 net.cpp:94] Creating Layer ip3
I0505 10:13:09.699129  6264 net.cpp:435] ip3 <- ip2
I0505 10:13:09.699134  6264 net.cpp:409] ip3 -> ip3
I0505 10:13:09.699242  6264 net.cpp:144] Setting up ip3
I0505 10:13:09.699249  6264 net.cpp:151] Top shape: 20 1 (20)
I0505 10:13:09.699254  6264 net.cpp:159] Memory required for data: 20219360
I0505 10:13:09.699259  6264 layer_factory.hpp:77] Creating layer loss
I0505 10:13:09.699270  6264 net.cpp:94] Creating Layer loss
I0505 10:13:09.699275  6264 net.cpp:435] loss <- ip3
I0505 10:13:09.699278  6264 net.cpp:435] loss <- label
I0505 10:13:09.699282  6264 net.cpp:409] loss -> loss
I0505 10:13:09.699337  6264 net.cpp:144] Setting up loss
…
I0505 10:13:10.227423  6264 net.cpp:323] The NetState phase (0) differed from the phase (1) specified by a rule in layer intercept
I0505 10:13:10.227438  6264 net.cpp:323] The NetState phase (0) differed from the phase (1) specified by a rule in layer accuracy
I0505 10:13:10.227511  6264 net.cpp:52] Initializing net from parameters: 
state {
  phase: TRAIN
}
layer {
  name: "parameters"
  type: "HDF5Data"
  top: "data"
  top: "label"
  include {
    phase: TRAIN
  }
  hdf5_data_param {
    source: "/home/purduethu/scratch/radon/d/deng106/CNNStatisticalModel/distributions/input/50_distributions_900_sample_size_train-distributions-path.txt"
    batch_size: 20
  }
}
layer {
  name: "conv1"
  type: "Convolution"
  bottom: "data"
  top: "conv1"
  param {
    lr_mult: 1
  }
  param {
    lr_mult: 2
  }
  convolution_param {
    num_output: 64
    pad: 2
    kernel_size: 5
    stride: 1
    weight_filler {
      type: "gaussian"
      std: 0.0001
    }
    bias_filler {
      type: "constant"
    }
  }
}
layer {
  name: "relu1"
  type: "ReLU"
  bottom: "conv1"
  top: "conv1"
}
layer {
  name: "pool1"
  type: "Pooling"
  bottom: "conv1"
  top: "pool1"
  pooling_param {
    pool: MAX
    kernel_size: 3
    stride: 2
  }
}
layer {
  name: "conv2"
  type: "Convolution"
  bottom: "pool1"
  top: "conv2"
  param {
    lr_mult: 1
  }
  param {
    lr_mult: 2
  }
  convolution_param {
    num_output: 128
    pad: 2
    kernel_size: 5
    stride: 1
    weight_filler {
      type: "gaussian"
      std: 0.01
    }
    bias_filler {
      type: "constant"
    }
  }
}
layer {
  name: "relu2"
  type: "ReLU"
  bottom: "conv2"
  top: "conv2"
}
layer {
  name: "conv3"
  type: "Convolution"
  bottom: "conv2"
  top: "conv3"
  param {
    lr_mult: 1
  }
  param {
    lr_mult: 2
  }
  convolution_param {
    num_output: 128
    pad: 2
    kernel_size: 5
    stride: 1
    weight_filler {
      type: "gaussian"
      std: 0.01
    }
    bias_filler {
      type: "constant"
    }
  }
}
layer {
  name: "relu3"
  type: "ReLU"
  bottom: "conv3"
  top: "conv3"
}
layer {
  name: "pool3"
  type: "Pooling"
  bottom: "conv3"
  top: "pool3"
  pooling_param {
    pool: AVE
    kernel_size: 3
    stride: 2
  }
}
layer {
  name: "ip1"
  type: "InnerProduct"
  bottom: "pool3"
  top: "ip1"
  param {
    lr_mult: 1
  }
  param {
    lr_mult: 2
  }
  inner_product_param {
    num_output: 512
    weight_filler {
      type: "gaussian"
      std: 0.1
    }
    bias_filler {
      type: "constant"
    }
  }
}
layer {
  name: "ip2"
  type: "InnerProduct"
  bottom: "ip1"
  top: "ip2"
  param {
    lr_mult: 1
  }
  param {
    lr_mult: 2
  }
  inner_product_param {
    num_output: 256
    weight_filler {
      type: "gaussian"
      std: 0.1
    }
    bias_filler {
      type: "constant"
    }
  }
}
layer {
  name: "ip3"
  type: "InnerProduct"
  bottom: "ip2"
  top: "ip3"
  param {
    lr_mult: 1
  }
  param {
    lr_mult: 2
  }
  inner_product_param {
    num_output: 50
    weight_filler {
      type: "gaussian"
      std: 0.1
    }
    bias_filler {
      type: "constant"
    }
  }
}
layer {
  name: "loss"
  type: "SoftmaxWithLoss"
  bottom: "ip3"
  bottom: "label"
  top: "loss"
}
I0505 10:13:10.227560  6264 layer_factory.hpp:77] Creating layer parameters
I0505 10:13:10.227567  6264 net.cpp:94] Creating Layer parameters
I0505 10:13:10.227571  6264 net.cpp:409] parameters -> data
I0505 10:13:10.227578  6264 net.cpp:409] parameters -> label
I0505 10:13:10.227584  6264 hdf5_data_layer.cpp:79] Loading list of HDF5 filenames from: /home/purduethu/scratch/radon/d/deng106/CNNStatisticalModel/distributions/input/50_distributions_900_sample_size_train-distributions-path.txt
I0505 10:13:10.227601  6264 hdf5_data_layer.cpp:93] Number of HDF5 files: 1
I0505 10:13:11.751068  6264 hdf5.cpp:35] Datatype class: H5T_INTEGER
I0505 10:13:11.754233  6264 net.cpp:144] Setting up parameters
I0505 10:13:11.754251  6264 net.cpp:151] Top shape: 20 1 30 30 (18000)
I0505 10:13:11.754256  6264 net.cpp:151] Top shape: 20 (20)
I0505 10:13:11.754259  6264 net.cpp:159] Memory required for data: 72080
I0505 10:13:11.754266  6264 layer_factory.hpp:77] Creating layer conv1
I0505 10:13:11.754282  6264 net.cpp:94] Creating Layer conv1
I0505 10:13:11.754287  6264 net.cpp:435] conv1 <- data
I0505 10:13:11.754293  6264 net.cpp:409] conv1 -> conv1
I0505 10:13:11.757824  6264 net.cpp:144] Setting up conv1
I0505 10:13:11.757839  6264 net.cpp:151] Top shape: 20 64 30 30 (1152000)
I0505 10:13:11.757843  6264 net.cpp:159] Memory required for data: 4680080
I0505 10:13:11.757853  6264 layer_factory.hpp:77] Creating layer relu1
I0505 10:13:11.757861  6264 net.cpp:94] Creating Layer relu1
I0505 10:13:11.757864  6264 net.cpp:435] relu1 <- conv1
I0505 10:13:11.757869  6264 net.cpp:396] relu1 -> conv1 (in-place)
I0505 10:13:11.757876  6264 net.cpp:144] Setting up relu1
I0505 10:13:11.757881  6264 net.cpp:151] Top shape: 20 64 30 30 (1152000)
I0505 10:13:11.757884  6264 net.cpp:159] Memory required for data: 9288080
I0505 10:13:11.757887  6264 layer_factory.hpp:77] Creating layer pool1
I0505 10:13:11.757894  6264 net.cpp:94] Creating Layer pool1
I0505 10:13:11.757902  6264 net.cpp:435] pool1 <- conv1
I0505 10:13:11.757907  6264 net.cpp:409] pool1 -> pool1
I0505 10:13:11.757964  6264 net.cpp:144] Setting up pool1
I0505 10:13:11.757972  6264 net.cpp:151] Top shape: 20 64 15 15 (288000)
I0505 10:13:11.757975  6264 net.cpp:159] Memory required for data: 10440080
I0505 10:13:11.757978  6264 layer_factory.hpp:77] Creating layer conv2
I0505 10:13:11.757987  6264 net.cpp:94] Creating Layer conv2
I0505 10:13:11.757990  6264 net.cpp:435] conv2 <- pool1
I0505 10:13:11.757995  6264 net.cpp:409] conv2 -> conv2
I0505 10:13:11.771879  6264 net.cpp:144] Setting up conv2
I0505 10:13:11.771914  6264 net.cpp:151] Top shape: 20 128 15 15 (576000)
I0505 10:13:11.771919  6264 net.cpp:159] Memory required for data: 12744080
I0505 10:13:11.771931  6264 layer_factory.hpp:77] Creating layer relu2
I0505 10:13:11.771944  6264 net.cpp:94] Creating Layer relu2
I0505 10:13:11.771947  6264 net.cpp:435] relu2 <- conv2
I0505 10:13:11.771953  6264 net.cpp:396] relu2 -> conv2 (in-place)
I0505 10:13:11.771965  6264 net.cpp:144] Setting up relu2
I0505 10:13:11.771970  6264 net.cpp:151] Top shape: 20 128 15 15 (576000)
I0505 10:13:11.771972  6264 net.cpp:159] Memory required for data: 15048080
I0505 10:13:11.771975  6264 layer_factory.hpp:77] Creating layer conv3
I0505 10:13:11.771986  6264 net.cpp:94] Creating Layer conv3
I0505 10:13:11.771989  6264 net.cpp:435] conv3 <- conv2
I0505 10:13:11.771994  6264 net.cpp:409] conv3 -> conv3
I0505 10:13:11.795799  6264 net.cpp:144] Setting up conv3
I0505 10:13:11.795836  6264 net.cpp:151] Top shape: 20 128 15 15 (576000)
I0505 10:13:11.795841  6264 net.cpp:159] Memory required for data: 17352080
I0505 10:13:11.795855  6264 layer_factory.hpp:77] Creating layer relu3
I0505 10:13:11.795867  6264 net.cpp:94] Creating Layer relu3
I0505 10:13:11.795871  6264 net.cpp:435] relu3 <- conv3
I0505 10:13:11.795877  6264 net.cpp:396] relu3 -> conv3 (in-place)
I0505 10:13:11.795887  6264 net.cpp:144] Setting up relu3
I0505 10:13:11.795892  6264 net.cpp:151] Top shape: 20 128 15 15 (576000)
I0505 10:13:11.795895  6264 net.cpp:159] Memory required for data: 19656080
I0505 10:13:11.795898  6264 layer_factory.hpp:77] Creating layer pool3
I0505 10:13:11.795905  6264 net.cpp:94] Creating Layer pool3
I0505 10:13:11.795908  6264 net.cpp:435] pool3 <- conv3
I0505 10:13:11.795913  6264 net.cpp:409] pool3 -> pool3
I0505 10:13:11.796005  6264 net.cpp:144] Setting up pool3
I0505 10:13:11.796012  6264 net.cpp:151] Top shape: 20 128 7 7 (125440)
I0505 10:13:11.796015  6264 net.cpp:159] Memory required for data: 20157840
I0505 10:13:11.796018  6264 layer_factory.hpp:77] Creating layer ip1
I0505 10:13:11.796026  6264 net.cpp:94] Creating Layer ip1
I0505 10:13:11.796030  6264 net.cpp:435] ip1 <- pool3
I0505 10:13:11.796035  6264 net.cpp:409] ip1 -> ip1
I0505 10:13:11.876938  6264 net.cpp:144] Setting up ip1
I0505 10:13:11.876981  6264 net.cpp:151] Top shape: 20 512 (10240)
I0505 10:13:11.876984  6264 net.cpp:159] Memory required for data: 20198800
I0505 10:13:11.876996  6264 layer_factory.hpp:77] Creating layer ip2
I0505 10:13:11.877007  6264 net.cpp:94] Creating Layer ip2
I0505 10:13:11.877012  6264 net.cpp:435] ip2 <- ip1
I0505 10:13:11.877018  6264 net.cpp:409] ip2 -> ip2
I0505 10:13:11.880370  6264 net.cpp:144] Setting up ip2
I0505 10:13:11.880401  6264 net.cpp:151] Top shape: 20 256 (5120)
I0505 10:13:11.880404  6264 net.cpp:159] Memory required for data: 20219280
I0505 10:13:11.880416  6264 layer_factory.hpp:77] Creating layer ip3
I0505 10:13:11.880426  6264 net.cpp:94] Creating Layer ip3
I0505 10:13:11.880430  6264 net.cpp:435] ip3 <- ip2
I0505 10:13:11.880437  6264 net.cpp:409] ip3 -> ip3
I0505 10:13:11.882046  6264 net.cpp:144] Setting up ip3
I0505 10:13:11.882082  6264 net.cpp:151] Top shape: 20 50 (1000)
I0505 10:13:11.882086  6264 net.cpp:159] Memory required for data: 20223280
I0505 10:13:11.882095  6264 layer_factory.hpp:77] Creating layer loss
I0505 10:13:11.882105  6264 net.cpp:94] Creating Layer loss
I0505 10:13:11.882110  6264 net.cpp:435] loss <- ip3
I0505 10:13:11.882115  6264 net.cpp:435] loss <- label
I0505 10:13:11.882129  6264 net.cpp:409] loss -> loss
I0505 10:13:11.882140  6264 layer_factory.hpp:77] Creating layer loss
…
I0505 10:13:11.882628  6264 solver.cpp:181] Creating test net (#0) specified by net file: ./protocol/dis_50_900_dimension.protocol_distribution
I0505 10:13:11.882654  6264 net.cpp:323] The NetState phase (1) differed from the phase (0) specified by a rule in layer parameters
I0505 10:13:11.882738  6264 net.cpp:52] Initializing net from parameters: 
state {
  phase: TEST
}
layer {
  name: "intercept"
  type: "HDF5Data"
  top: "data"
  top: "label"
  include {
    phase: TEST
  }
  hdf5_data_param {
    source: "/home/purduethu/scratch/radon/d/deng106/CNNStatisticalModel/distributions/input/50_distributions_900_sample_size_test-distributions-path.txt"
    batch_size: 20
  }
}
layer {
  name: "conv1"
  type: "Convolution"
  bottom: "data"
  top: "conv1"
  param {
    lr_mult: 1
  }
  param {
    lr_mult: 2
  }
  convolution_param {
    num_output: 64
    pad: 2
    kernel_size: 5
    stride: 1
    weight_filler {
      type: "gaussian"
      std: 0.0001
    }
    bias_filler {
      type: "constant"
    }
  }
}
layer {
  name: "relu1"
  type: "ReLU"
  bottom: "conv1"
  top: "conv1"
}
layer {
  name: "pool1"
  type: "Pooling"
  bottom: "conv1"
  top: "pool1"
  pooling_param {
    pool: MAX
    kernel_size: 3
    stride: 2
  }
}
layer {
  name: "conv2"
  type: "Convolution"
  bottom: "pool1"
  top: "conv2"
  param {
    lr_mult: 1
  }
  param {
    lr_mult: 2
  }
  convolution_param {
    num_output: 128
    pad: 2
    kernel_size: 5
    stride: 1
    weight_filler {
      type: "gaussian"
      std: 0.01
    }
    bias_filler {
      type: "constant"
    }
  }
}
layer {
  name: "relu2"
  type: "ReLU"
  bottom: "conv2"
  top: "conv2"
}
layer {
  name: "conv3"
  type: "Convolution"
  bottom: "conv2"
  top: "conv3"
  param {
    lr_mult: 1
  }
  param {
    lr_mult: 2
  }
  convolution_param {
    num_output: 128
    pad: 2
    kernel_size: 5
    stride: 1
    weight_filler {
      type: "gaussian"
      std: 0.01
    }
    bias_filler {
      type: "constant"
    }
  }
}
layer {
  name: "relu3"
  type: "ReLU"
  bottom: "conv3"
  top: "conv3"
}
layer {
  name: "pool3"
  type: "Pooling"
  bottom: "conv3"
  top: "pool3"
  pooling_param {
    pool: AVE
    kernel_size: 3
    stride: 2
  }
}
layer {
  name: "ip1"
  type: "InnerProduct"
  bottom: "pool3"
  top: "ip1"
  param {
    lr_mult: 1
  }
  param {
    lr_mult: 2
  }
  inner_product_param {
    num_output: 512
    weight_filler {
      type: "gaussian"
      std: 0.1
    }
    bias_filler {
      type: "constant"
    }
  }
}
layer {
  name: "ip2"
  type: "InnerProduct"
  bottom: "ip1"
  top: "ip2"
  param {
    lr_mult: 1
  }
  param {
    lr_mult: 2
  }
  inner_product_param {
    num_output: 256
    weight_filler {
      type: "gaussian"
      std: 0.1
    }
    bias_filler {
      type: "constant"
    }
  }
}
layer {
  name: "ip3"
  type: "InnerProduct"
  bottom: "ip2"
  top: "ip3"
  param {
    lr_mult: 1
  }
  param {
    lr_mult: 2
  }
  inner_product_param {
    num_output: 50
    weight_filler {
      type: "gaussian"
      std: 0.1
    }
    bias_filler {
      type: "constant"
    }
  }
}
layer {
  name: "accuracy"
  type: "Accuracy"
  bottom: "ip3"
  bottom: "label"
  top: "accuracy"
  include {
    phase: TEST
  }
}
layer {
  name: "loss"
  type: "SoftmaxWithLoss"
  bottom: "ip3"
  bottom: "label"
  top: "loss"
}
I0505 10:13:11.882803  6264 layer_factory.hpp:77] Creating layer intercept
I0505 10:13:11.882813  6264 net.cpp:94] Creating Layer intercept
I0505 10:13:11.882817  6264 net.cpp:409] intercept -> data
I0505 10:13:11.882824  6264 net.cpp:409] intercept -> label
I0505 10:13:11.882832  6264 hdf5_data_layer.cpp:79] Loading list of HDF5 filenames from: /home/purduethu/scratch/radon/d/deng106/CNNStatisticalModel/distributions/input/50_distributions_900_sample_size_test-distributions-path.txt
I0505 10:13:11.882856  6264 hdf5_data_layer.cpp:93] Number of HDF5 files: 1
I0505 10:13:12.252436  6264 net.cpp:144] Setting up intercept
I0505 10:13:12.252471  6264 net.cpp:151] Top shape: 20 1 30 30 (18000)
I0505 10:13:12.252477  6264 net.cpp:151] Top shape: 20 (20)
I0505 10:13:12.252480  6264 net.cpp:159] Memory required for data: 72080
I0505 10:13:12.252486  6264 layer_factory.hpp:77] Creating layer label_intercept_1_split
I0505 10:13:12.252507  6264 net.cpp:94] Creating Layer label_intercept_1_split
I0505 10:13:12.252512  6264 net.cpp:435] label_intercept_1_split <- label
I0505 10:13:12.252518  6264 net.cpp:409] label_intercept_1_split -> label_intercept_1_split_0
I0505 10:13:12.252526  6264 net.cpp:409] label_intercept_1_split -> label_intercept_1_split_1
I0505 10:13:12.252590  6264 net.cpp:144] Setting up label_intercept_1_split
I0505 10:13:12.252600  6264 net.cpp:151] Top shape: 20 (20)
I0505 10:13:12.252604  6264 net.cpp:151] Top shape: 20 (20)
I0505 10:13:12.252607  6264 net.cpp:159] Memory required for data: 72240
I0505 10:13:12.252610  6264 layer_factory.hpp:77] Creating layer conv1
I0505 10:13:12.252622  6264 net.cpp:94] Creating Layer conv1
I0505 10:13:12.252626  6264 net.cpp:435] conv1 <- data
I0505 10:13:12.252631  6264 net.cpp:409] conv1 -> conv1
I0505 10:13:12.254174  6264 net.cpp:144] Setting up conv1
I0505 10:13:12.254189  6264 net.cpp:151] Top shape: 20 64 30 30 (1152000)
I0505 10:13:12.254192  6264 net.cpp:159] Memory required for data: 4680240
I0505 10:13:12.254202  6264 layer_factory.hpp:77] Creating layer relu1
I0505 10:13:12.254209  6264 net.cpp:94] Creating Layer relu1
I0505 10:13:12.254212  6264 net.cpp:435] relu1 <- conv1
I0505 10:13:12.254217  6264 net.cpp:396] relu1 -> conv1 (in-place)
I0505 10:13:12.254225  6264 net.cpp:144] Setting up relu1
I0505 10:13:12.254230  6264 net.cpp:151] Top shape: 20 64 30 30 (1152000)
I0505 10:13:12.254232  6264 net.cpp:159] Memory required for data: 9288240
I0505 10:13:12.254235  6264 layer_factory.hpp:77] Creating layer pool1
I0505 10:13:12.254241  6264 net.cpp:94] Creating Layer pool1
I0505 10:13:12.254245  6264 net.cpp:435] pool1 <- conv1
I0505 10:13:12.254250  6264 net.cpp:409] pool1 -> pool1
I0505 10:13:12.254307  6264 net.cpp:144] Setting up pool1
I0505 10:13:12.254313  6264 net.cpp:151] Top shape: 20 64 15 15 (288000)
I0505 10:13:12.254317  6264 net.cpp:159] Memory required for data: 10440240
I0505 10:13:12.254320  6264 layer_factory.hpp:77] Creating layer conv2
I0505 10:13:12.254328  6264 net.cpp:94] Creating Layer conv2
I0505 10:13:12.254333  6264 net.cpp:435] conv2 <- pool1
I0505 10:13:12.254338  6264 net.cpp:409] conv2 -> conv2
I0505 10:13:12.262972  6264 net.cpp:144] Setting up conv2
I0505 10:13:12.262989  6264 net.cpp:151] Top shape: 20 128 15 15 (576000)
I0505 10:13:12.262992  6264 net.cpp:159] Memory required for data: 12744240
I0505 10:13:12.263006  6264 layer_factory.hpp:77] Creating layer relu2
I0505 10:13:12.263013  6264 net.cpp:94] Creating Layer relu2
I0505 10:13:12.263016  6264 net.cpp:435] relu2 <- conv2
I0505 10:13:12.263021  6264 net.cpp:396] relu2 -> conv2 (in-place)
I0505 10:13:12.263028  6264 net.cpp:144] Setting up relu2
I0505 10:13:12.263033  6264 net.cpp:151] Top shape: 20 128 15 15 (576000)
I0505 10:13:12.263036  6264 net.cpp:159] Memory required for data: 15048240
I0505 10:13:12.263039  6264 layer_factory.hpp:77] Creating layer conv3
I0505 10:13:12.263047  6264 net.cpp:94] Creating Layer conv3
I0505 10:13:12.263051  6264 net.cpp:435] conv3 <- conv2
I0505 10:13:12.263056  6264 net.cpp:409] conv3 -> conv3
I0505 10:13:12.279016  6264 net.cpp:144] Setting up conv3
I0505 10:13:12.279052  6264 net.cpp:151] Top shape: 20 128 15 15 (576000)
I0505 10:13:12.279057  6264 net.cpp:159] Memory required for data: 17352240
I0505 10:13:12.279070  6264 layer_factory.hpp:77] Creating layer relu3
I0505 10:13:12.279083  6264 net.cpp:94] Creating Layer relu3
I0505 10:13:12.279086  6264 net.cpp:435] relu3 <- conv3
I0505 10:13:12.279093  6264 net.cpp:396] relu3 -> conv3 (in-place)
I0505 10:13:12.279103  6264 net.cpp:144] Setting up relu3
I0505 10:13:12.279108  6264 net.cpp:151] Top shape: 20 128 15 15 (576000)
I0505 10:13:12.279110  6264 net.cpp:159] Memory required for data: 19656240
I0505 10:13:12.279114  6264 layer_factory.hpp:77] Creating layer pool3
I0505 10:13:12.279119  6264 net.cpp:94] Creating Layer pool3
I0505 10:13:12.279122  6264 net.cpp:435] pool3 <- conv3
I0505 10:13:12.279127  6264 net.cpp:409] pool3 -> pool3
I0505 10:13:12.279222  6264 net.cpp:144] Setting up pool3
I0505 10:13:12.279230  6264 net.cpp:151] Top shape: 20 128 7 7 (125440)
I0505 10:13:12.279233  6264 net.cpp:159] Memory required for data: 20158000
I0505 10:13:12.279237  6264 layer_factory.hpp:77] Creating layer ip1
I0505 10:13:12.279245  6264 net.cpp:94] Creating Layer ip1
I0505 10:13:12.279249  6264 net.cpp:435] ip1 <- pool3
I0505 10:13:12.279254  6264 net.cpp:409] ip1 -> ip1
I0505 10:13:12.360415  6264 net.cpp:144] Setting up ip1
I0505 10:13:12.360455  6264 net.cpp:151] Top shape: 20 512 (10240)
I0505 10:13:12.360460  6264 net.cpp:159] Memory required for data: 20198960
I0505 10:13:12.360469  6264 layer_factory.hpp:77] Creating layer ip2
I0505 10:13:12.360481  6264 net.cpp:94] Creating Layer ip2
I0505 10:13:12.360486  6264 net.cpp:435] ip2 <- ip1
I0505 10:13:12.360492  6264 net.cpp:409] ip2 -> ip2
I0505 10:13:12.363817  6264 net.cpp:144] Setting up ip2
I0505 10:13:12.363848  6264 net.cpp:151] Top shape: 20 256 (5120)
I0505 10:13:12.363852  6264 net.cpp:159] Memory required for data: 20219440
I0505 10:13:12.363864  6264 layer_factory.hpp:77] Creating layer ip3
I0505 10:13:12.363874  6264 net.cpp:94] Creating Layer ip3
I0505 10:13:12.363878  6264 net.cpp:435] ip3 <- ip2
I0505 10:13:12.363885  6264 net.cpp:409] ip3 -> ip3
I0505 10:13:12.364353  6264 net.cpp:144] Setting up ip3
I0505 10:13:12.364362  6264 net.cpp:151] Top shape: 20 50 (1000)
I0505 10:13:12.364365  6264 net.cpp:159] Memory required for data: 20223440
I0505 10:13:12.364370  6264 layer_factory.hpp:77] Creating layer ip3_ip3_0_split
I0505 10:13:12.364375  6264 net.cpp:94] Creating Layer ip3_ip3_0_split
I0505 10:13:12.364379  6264 net.cpp:435] ip3_ip3_0_split <- ip3
I0505 10:13:12.364384  6264 net.cpp:409] ip3_ip3_0_split -> ip3_ip3_0_split_0
I0505 10:13:12.364390  6264 net.cpp:409] ip3_ip3_0_split -> ip3_ip3_0_split_1
I0505 10:13:12.364436  6264 net.cpp:144] Setting up ip3_ip3_0_split
I0505 10:13:12.364444  6264 net.cpp:151] Top shape: 20 50 (1000)
I0505 10:13:12.364447  6264 net.cpp:151] Top shape: 20 50 (1000)
I0505 10:13:12.364450  6264 net.cpp:159] Memory required for data: 20231440
I0505 10:13:12.364454  6264 layer_factory.hpp:77] Creating layer accuracy
I0505 10:13:12.364460  6264 net.cpp:94] Creating Layer accuracy
I0505 10:13:12.364464  6264 net.cpp:435] accuracy <- ip3_ip3_0_split_0
I0505 10:13:12.364467  6264 net.cpp:435] accuracy <- label_intercept_1_split_0
I0505 10:13:12.364471  6264 net.cpp:409] accuracy -> accuracy
…
