…
I0505 03:05:13.422955  2870 net.cpp:323] The NetState phase (0) differed from the phase (1) specified by a rule in layer intercept
I0505 03:05:13.422969  2870 net.cpp:323] The NetState phase (0) differed from the phase (1) specified by a rule in layer loss
I0505 03:05:13.423050  2870 net.cpp:52] Initializing net from parameters: 
state {
  phase: TRAIN
}
layer {
  name: "parameters"
  type: "HDF5Data"
  top: "data"
  top: "label"
  include {
    phase: TRAIN
  }
  hdf5_data_param {
    source: "/home/purduethu/scratch/radon/d/deng106/CNNStatisticalModel/distributions/input/50_distributions_400_sample_size_train-parameters-path.txt"
    batch_size: 20
  }
}
layer {
  name: "conv1"
  type: "Convolution"
  bottom: "data"
  top: "conv1"
  param {
    lr_mult: 1
  }
  param {
    lr_mult: 2
  }
  convolution_param {
    num_output: 64
    pad: 2
    kernel_size: 5
    stride: 1
    weight_filler {
      type: "gaussian"
      std: 0.0001
    }
    bias_filler {
      type: "constant"
    }
  }
}
layer {
  name: "relu1"
  type: "ReLU"
  bottom: "conv1"
  top: "conv1"
}
layer {
  name: "pool1"
  type: "Pooling"
  bottom: "conv1"
  top: "pool1"
  pooling_param {
    pool: MAX
    kernel_size: 3
    stride: 2
  }
}
layer {
  name: "conv2"
  type: "Convolution"
  bottom: "pool1"
  top: "conv2"
  param {
    lr_mult: 1
  }
  param {
    lr_mult: 2
  }
  convolution_param {
    num_output: 128
    pad: 2
    kernel_size: 5
    stride: 1
    weight_filler {
      type: "gaussian"
      std: 0.01
    }
    bias_filler {
      type: "constant"
    }
  }
}
layer {
  name: "relu2"
  type: "ReLU"
  bottom: "conv2"
  top: "conv2"
}
layer {
  name: "conv3"
  type: "Convolution"
  bottom: "conv2"
  top: "conv3"
  param {
    lr_mult: 1
  }
  param {
    lr_mult: 2
  }
  convolution_param {
    num_output: 128
    pad: 2
    kernel_size: 5
    stride: 1
    weight_filler {
      type: "gaussian"
      std: 0.01
    }
    bias_filler {
      type: "constant"
    }
  }
}
layer {
  name: "relu3"
  type: "ReLU"
  bottom: "conv3"
  top: "conv3"
}
layer {
  name: "pool3"
  type: "Pooling"
  bottom: "conv3"
  top: "pool3"
  pooling_param {
    pool: AVE
    kernel_size: 3
    stride: 2
  }
}
layer {
  name: "ip1"
  type: "InnerProduct"
  bottom: "pool3"
  top: "ip1"
  param {
    lr_mult: 1
  }
  param {
    lr_mult: 2
  }
  inner_product_param {
    num_output: 512
    weight_filler {
      type: "gaussian"
      std: 0.1
    }
    bias_filler {
      type: "constant"
    }
  }
}
layer {
  name: "ip2"
  type: "InnerProduct"
  bottom: "ip1"
  top: "ip2"
  param {
    lr_mult: 1
  }
  param {
    lr_mult: 2
  }
  inner_product_param {
    num_output: 256
    weight_filler {
      type: "gaussian"
      std: 0.1
    }
    bias_filler {
      type: "constant"
    }
  }
}
layer {
  name: "ip3"
  type: "InnerProduct"
  bottom: "ip2"
  top: "ip3"
  param {
    lr_mult: 1
  }
  param {
    lr_mult: 2
  }
  inner_product_param {
    num_output: 1
    weight_filler {
      type: "gaussian"
      std: 0.1
    }
    bias_filler {
      type: "constant"
    }
  }
}
layer {
  name: "loss"
  type: "HuberLoss"
  bottom: "ip3"
  bottom: "label"
  top: "loss"
  include {
    phase: TRAIN
  }
}
I0505 03:05:13.423112  2870 layer_factory.hpp:77] Creating layer parameters
I0505 03:05:13.423127  2870 net.cpp:94] Creating Layer parameters
I0505 03:05:13.423141  2870 net.cpp:409] parameters -> data
I0505 03:05:13.423161  2870 net.cpp:409] parameters -> label
I0505 03:05:13.423172  2870 hdf5_data_layer.cpp:79] Loading list of HDF5 filenames from: /home/purduethu/scratch/radon/d/deng106/CNNStatisticalModel/distributions/input/50_distributions_400_sample_size_train-parameters-path.txt
I0505 03:05:13.423193  2870 hdf5_data_layer.cpp:93] Number of HDF5 files: 1
I0505 03:05:13.423686  2870 hdf5.cpp:32] Datatype class: H5T_FLOAT
I0505 03:05:14.057166  2870 net.cpp:144] Setting up parameters
I0505 03:05:14.057199  2870 net.cpp:151] Top shape: 20 1 20 20 (8000)
I0505 03:05:14.057205  2870 net.cpp:151] Top shape: 20 (20)
I0505 03:05:14.057209  2870 net.cpp:159] Memory required for data: 32080
I0505 03:05:14.057216  2870 layer_factory.hpp:77] Creating layer conv1
I0505 03:05:14.057235  2870 net.cpp:94] Creating Layer conv1
I0505 03:05:14.057240  2870 net.cpp:435] conv1 <- data
I0505 03:05:14.057251  2870 net.cpp:409] conv1 -> conv1
I0505 03:05:14.061906  2870 net.cpp:144] Setting up conv1
I0505 03:05:14.061923  2870 net.cpp:151] Top shape: 20 64 20 20 (512000)
I0505 03:05:14.061926  2870 net.cpp:159] Memory required for data: 2080080
I0505 03:05:14.061939  2870 layer_factory.hpp:77] Creating layer relu1
I0505 03:05:14.061946  2870 net.cpp:94] Creating Layer relu1
I0505 03:05:14.061950  2870 net.cpp:435] relu1 <- conv1
I0505 03:05:14.061954  2870 net.cpp:396] relu1 -> conv1 (in-place)
I0505 03:05:14.061972  2870 net.cpp:144] Setting up relu1
I0505 03:05:14.061977  2870 net.cpp:151] Top shape: 20 64 20 20 (512000)
I0505 03:05:14.061981  2870 net.cpp:159] Memory required for data: 4128080
I0505 03:05:14.061985  2870 layer_factory.hpp:77] Creating layer pool1
I0505 03:05:14.061991  2870 net.cpp:94] Creating Layer pool1
I0505 03:05:14.061995  2870 net.cpp:435] pool1 <- conv1
I0505 03:05:14.062000  2870 net.cpp:409] pool1 -> pool1
I0505 03:05:14.062039  2870 net.cpp:144] Setting up pool1
I0505 03:05:14.062047  2870 net.cpp:151] Top shape: 20 64 10 10 (128000)
I0505 03:05:14.062049  2870 net.cpp:159] Memory required for data: 4640080
I0505 03:05:14.062053  2870 layer_factory.hpp:77] Creating layer conv2
I0505 03:05:14.062062  2870 net.cpp:94] Creating Layer conv2
I0505 03:05:14.062065  2870 net.cpp:435] conv2 <- pool1
I0505 03:05:14.062070  2870 net.cpp:409] conv2 -> conv2
I0505 03:05:14.072108  2870 net.cpp:144] Setting up conv2
I0505 03:05:14.072123  2870 net.cpp:151] Top shape: 20 128 10 10 (256000)
I0505 03:05:14.072126  2870 net.cpp:159] Memory required for data: 5664080
I0505 03:05:14.072134  2870 layer_factory.hpp:77] Creating layer relu2
I0505 03:05:14.072140  2870 net.cpp:94] Creating Layer relu2
I0505 03:05:14.072144  2870 net.cpp:435] relu2 <- conv2
I0505 03:05:14.072149  2870 net.cpp:396] relu2 -> conv2 (in-place)
I0505 03:05:14.072156  2870 net.cpp:144] Setting up relu2
I0505 03:05:14.072160  2870 net.cpp:151] Top shape: 20 128 10 10 (256000)
I0505 03:05:14.072163  2870 net.cpp:159] Memory required for data: 6688080
I0505 03:05:14.072167  2870 layer_factory.hpp:77] Creating layer conv3
I0505 03:05:14.072175  2870 net.cpp:94] Creating Layer conv3
I0505 03:05:14.072178  2870 net.cpp:435] conv3 <- conv2
I0505 03:05:14.072183  2870 net.cpp:409] conv3 -> conv3
I0505 03:05:14.088958  2870 net.cpp:144] Setting up conv3
I0505 03:05:14.088973  2870 net.cpp:151] Top shape: 20 128 10 10 (256000)
I0505 03:05:14.088979  2870 net.cpp:159] Memory required for data: 7712080
I0505 03:05:14.088986  2870 layer_factory.hpp:77] Creating layer relu3
I0505 03:05:14.088992  2870 net.cpp:94] Creating Layer relu3
I0505 03:05:14.089001  2870 net.cpp:435] relu3 <- conv3
I0505 03:05:14.089007  2870 net.cpp:396] relu3 -> conv3 (in-place)
I0505 03:05:14.089015  2870 net.cpp:144] Setting up relu3
I0505 03:05:14.089020  2870 net.cpp:151] Top shape: 20 128 10 10 (256000)
I0505 03:05:14.089023  2870 net.cpp:159] Memory required for data: 8736080
I0505 03:05:14.089026  2870 layer_factory.hpp:77] Creating layer pool3
I0505 03:05:14.089032  2870 net.cpp:94] Creating Layer pool3
I0505 03:05:14.089035  2870 net.cpp:435] pool3 <- conv3
I0505 03:05:14.089047  2870 net.cpp:409] pool3 -> pool3
I0505 03:05:14.089082  2870 net.cpp:144] Setting up pool3
I0505 03:05:14.089089  2870 net.cpp:151] Top shape: 20 128 5 5 (64000)
I0505 03:05:14.089093  2870 net.cpp:159] Memory required for data: 8992080
I0505 03:05:14.089097  2870 layer_factory.hpp:77] Creating layer ip1
I0505 03:05:14.089103  2870 net.cpp:94] Creating Layer ip1
I0505 03:05:14.089107  2870 net.cpp:435] ip1 <- pool3
I0505 03:05:14.089112  2870 net.cpp:409] ip1 -> ip1
I0505 03:05:14.128456  2870 net.cpp:144] Setting up ip1
I0505 03:05:14.128474  2870 net.cpp:151] Top shape: 20 512 (10240)
I0505 03:05:14.128479  2870 net.cpp:159] Memory required for data: 9033040
I0505 03:05:14.128484  2870 layer_factory.hpp:77] Creating layer ip2
I0505 03:05:14.128491  2870 net.cpp:94] Creating Layer ip2
I0505 03:05:14.128495  2870 net.cpp:435] ip2 <- ip1
I0505 03:05:14.128501  2870 net.cpp:409] ip2 -> ip2
I0505 03:05:14.131589  2870 net.cpp:144] Setting up ip2
I0505 03:05:14.131598  2870 net.cpp:151] Top shape: 20 256 (5120)
I0505 03:05:14.131602  2870 net.cpp:159] Memory required for data: 9053520
I0505 03:05:14.131609  2870 layer_factory.hpp:77] Creating layer ip3
I0505 03:05:14.131614  2870 net.cpp:94] Creating Layer ip3
I0505 03:05:14.131618  2870 net.cpp:435] ip3 <- ip2
I0505 03:05:14.131623  2870 net.cpp:409] ip3 -> ip3
I0505 03:05:14.131687  2870 net.cpp:144] Setting up ip3
I0505 03:05:14.131693  2870 net.cpp:151] Top shape: 20 1 (20)
I0505 03:05:14.131696  2870 net.cpp:159] Memory required for data: 9053600
I0505 03:05:14.131701  2870 layer_factory.hpp:77] Creating layer loss
I0505 03:05:14.131711  2870 net.cpp:94] Creating Layer loss
I0505 03:05:14.131716  2870 net.cpp:435] loss <- ip3
I0505 03:05:14.131719  2870 net.cpp:435] loss <- label
I0505 03:05:14.131724  2870 net.cpp:409] loss -> loss
I0505 03:05:14.131758  2870 net.cpp:144] Setting up loss
…
