…
I0502 16:03:26.748488 11540 net.cpp:323] The NetState phase (0) differed from the phase (1) specified by a rule in layer intercept
I0502 16:03:26.748504 11540 net.cpp:323] The NetState phase (0) differed from the phase (1) specified by a rule in layer accuracy
I0502 16:03:26.748605 11540 net.cpp:52] Initializing net from parameters: 
state {
  phase: TRAIN
}
layer {
  name: "parameters"
  type: "HDF5Data"
  top: "data"
  top: "label"
  include {
    phase: TRAIN
  }
  hdf5_data_param {
    source: "/home/purduethu/scratch/radon/d/deng106/CNNStatisticalModel/distributions/input/50_distributions_900_sample_size_train-distributions-path.txt"
    batch_size: 20
  }
}
layer {
  name: "conv1"
  type: "Convolution"
  bottom: "data"
  top: "conv1"
  param {
    lr_mult: 1
  }
  param {
    lr_mult: 2
  }
  convolution_param {
    num_output: 64
    pad: 2
    kernel_size: 5
    stride: 1
    weight_filler {
      type: "gaussian"
      std: 0.0001
    }
    bias_filler {
      type: "constant"
    }
  }
}
layer {
  name: "relu1"
  type: "ReLU"
  bottom: "conv1"
  top: "conv1"
}
layer {
  name: "conv2"
  type: "Convolution"
  bottom: "conv1"
  top: "conv2"
  param {
    lr_mult: 1
  }
  param {
    lr_mult: 2
  }
  convolution_param {
    num_output: 64
    pad: 2
    kernel_size: 5
    stride: 1
    weight_filler {
      type: "gaussian"
      std: 0.01
    }
    bias_filler {
      type: "constant"
    }
  }
}
layer {
  name: "relu2"
  type: "ReLU"
  bottom: "conv2"
  top: "conv2"
}
layer {
  name: "pool2"
  type: "Pooling"
  bottom: "conv2"
  top: "pool2"
  pooling_param {
    pool: MAX
    kernel_size: 3
    stride: 2
  }
}
layer {
  name: "conv3"
  type: "Convolution"
  bottom: "pool2"
  top: "conv3"
  param {
    lr_mult: 1
  }
  param {
    lr_mult: 2
  }
  convolution_param {
    num_output: 64
    pad: 2
    kernel_size: 5
    stride: 1
    weight_filler {
      type: "gaussian"
      std: 0.01
    }
    bias_filler {
      type: "constant"
    }
  }
}
layer {
  name: "relu3"
  type: "ReLU"
  bottom: "conv3"
  top: "conv3"
}
layer {
  name: "conv4"
  type: "Convolution"
  bottom: "conv3"
  top: "conv4"
  param {
    lr_mult: 1
  }
  param {
    lr_mult: 2
  }
  convolution_param {
    num_output: 64
    pad: 2
    kernel_size: 5
    stride: 1
    weight_filler {
      type: "gaussian"
      std: 0.01
    }
    bias_filler {
      type: "constant"
    }
  }
}
layer {
  name: "relu4"
  type: "ReLU"
  bottom: "conv4"
  top: "conv4"
}
layer {
  name: "conv5"
  type: "Convolution"
  bottom: "conv4"
  top: "conv5"
  param {
    lr_mult: 1
  }
  param {
    lr_mult: 2
  }
  convolution_param {
    num_output: 64
    pad: 2
    kernel_size: 5
    stride: 1
    weight_filler {
      type: "gaussian"
      std: 0.01
    }
    bias_filler {
      type: "constant"
    }
  }
}
layer {
  name: "relu5"
  type: "ReLU"
  bottom: "conv5"
  top: "conv5"
}
layer {
  name: "pool5"
  type: "Pooling"
  bottom: "conv5"
  top: "pool5"
  pooling_param {
    pool: AVE
    kernel_size: 3
    stride: 2
  }
}
layer {
  name: "ip1"
  type: "InnerProduct"
  bottom: "pool5"
  top: "ip1"
  param {
    lr_mult: 1
  }
  param {
    lr_mult: 2
  }
  inner_product_param {
    num_output: 64
    weight_filler {
      type: "gaussian"
      std: 0.1
    }
    bias_filler {
      type: "constant"
    }
  }
}
layer {
  name: "ip2"
  type: "InnerProduct"
  bottom: "ip1"
  top: "ip2"
  param {
    lr_mult: 1
  }
  param {
    lr_mult: 2
  }
  inner_product_param {
    num_output: 64
    weight_filler {
      type: "gaussian"
      std: 0.1
    }
    bias_filler {
      type: "constant"
    }
  }
}
layer {
  name: "ip3"
  type: "InnerProduct"
  bottom: "ip2"
  top: "ip3"
  param {
    lr_mult: 1
  }
  param {
    lr_mult: 2
  }
  inner_product_param {
    num_output: 50
    weight_filler {
      type: "gaussian"
      std: 0.1
    }
    bias_filler {
      type: "constant"
    }
  }
}
layer {
  name: "loss"
  type: "SoftmaxWithLoss"
  bottom: "ip3"
  bottom: "label"
  top: "loss"
}
I0502 16:03:26.748685 11540 layer_factory.hpp:77] Creating layer parameters
I0502 16:03:26.748702 11540 net.cpp:94] Creating Layer parameters
I0502 16:03:26.748708 11540 net.cpp:409] parameters -> data
I0502 16:03:26.748726 11540 net.cpp:409] parameters -> label
I0502 16:03:26.748738 11540 hdf5_data_layer.cpp:79] Loading list of HDF5 filenames from: /home/purduethu/scratch/radon/d/deng106/CNNStatisticalModel/distributions/input/50_distributions_900_sample_size_train-distributions-path.txt
I0502 16:03:26.748759 11540 hdf5_data_layer.cpp:93] Number of HDF5 files: 1
I0502 16:03:26.749375 11540 hdf5.cpp:32] Datatype class: H5T_FLOAT
I0502 16:03:28.197429 11540 hdf5.cpp:35] Datatype class: H5T_INTEGER
I0502 16:03:28.200244 11540 net.cpp:144] Setting up parameters
I0502 16:03:28.200263 11540 net.cpp:151] Top shape: 20 1 30 30 (18000)
I0502 16:03:28.200268 11540 net.cpp:151] Top shape: 20 (20)
I0502 16:03:28.200273 11540 net.cpp:159] Memory required for data: 72080
I0502 16:03:28.200279 11540 layer_factory.hpp:77] Creating layer conv1
I0502 16:03:28.200304 11540 net.cpp:94] Creating Layer conv1
I0502 16:03:28.200309 11540 net.cpp:435] conv1 <- data
I0502 16:03:28.200320 11540 net.cpp:409] conv1 -> conv1
I0502 16:03:28.208684 11540 net.cpp:144] Setting up conv1
I0502 16:03:28.208714 11540 net.cpp:151] Top shape: 20 64 30 30 (1152000)
I0502 16:03:28.208724 11540 net.cpp:159] Memory required for data: 4680080
I0502 16:03:28.208744 11540 layer_factory.hpp:77] Creating layer relu1
I0502 16:03:28.208757 11540 net.cpp:94] Creating Layer relu1
I0502 16:03:28.208765 11540 net.cpp:435] relu1 <- conv1
I0502 16:03:28.208775 11540 net.cpp:396] relu1 -> conv1 (in-place)
I0502 16:03:28.208801 11540 net.cpp:144] Setting up relu1
I0502 16:03:28.208811 11540 net.cpp:151] Top shape: 20 64 30 30 (1152000)
I0502 16:03:28.208817 11540 net.cpp:159] Memory required for data: 9288080
I0502 16:03:28.208824 11540 layer_factory.hpp:77] Creating layer conv2
I0502 16:03:28.208838 11540 net.cpp:94] Creating Layer conv2
I0502 16:03:28.208847 11540 net.cpp:435] conv2 <- conv1
I0502 16:03:28.208856 11540 net.cpp:409] conv2 -> conv2
I0502 16:03:28.225158 11540 net.cpp:144] Setting up conv2
I0502 16:03:28.225175 11540 net.cpp:151] Top shape: 20 64 30 30 (1152000)
I0502 16:03:28.225180 11540 net.cpp:159] Memory required for data: 13896080
I0502 16:03:28.225188 11540 layer_factory.hpp:77] Creating layer relu2
I0502 16:03:28.225195 11540 net.cpp:94] Creating Layer relu2
I0502 16:03:28.225199 11540 net.cpp:435] relu2 <- conv2
I0502 16:03:28.225204 11540 net.cpp:396] relu2 -> conv2 (in-place)
I0502 16:03:28.225213 11540 net.cpp:144] Setting up relu2
I0502 16:03:28.225217 11540 net.cpp:151] Top shape: 20 64 30 30 (1152000)
I0502 16:03:28.225220 11540 net.cpp:159] Memory required for data: 18504080
I0502 16:03:28.225224 11540 layer_factory.hpp:77] Creating layer pool2
I0502 16:03:28.225237 11540 net.cpp:94] Creating Layer pool2
I0502 16:03:28.225242 11540 net.cpp:435] pool2 <- conv2
I0502 16:03:28.225246 11540 net.cpp:409] pool2 -> pool2
I0502 16:03:28.225293 11540 net.cpp:144] Setting up pool2
I0502 16:03:28.225301 11540 net.cpp:151] Top shape: 20 64 15 15 (288000)
I0502 16:03:28.225306 11540 net.cpp:159] Memory required for data: 19656080
I0502 16:03:28.225308 11540 layer_factory.hpp:77] Creating layer conv3
I0502 16:03:28.225317 11540 net.cpp:94] Creating Layer conv3
I0502 16:03:28.225322 11540 net.cpp:435] conv3 <- pool2
I0502 16:03:28.225334 11540 net.cpp:409] conv3 -> conv3
I0502 16:03:28.235996 11540 net.cpp:144] Setting up conv3
I0502 16:03:28.236024 11540 net.cpp:151] Top shape: 20 64 15 15 (288000)
I0502 16:03:28.236033 11540 net.cpp:159] Memory required for data: 20808080
I0502 16:03:28.236050 11540 layer_factory.hpp:77] Creating layer relu3
I0502 16:03:28.236062 11540 net.cpp:94] Creating Layer relu3
I0502 16:03:28.236069 11540 net.cpp:435] relu3 <- conv3
I0502 16:03:28.236078 11540 net.cpp:396] relu3 -> conv3 (in-place)
I0502 16:03:28.236093 11540 net.cpp:144] Setting up relu3
I0502 16:03:28.236102 11540 net.cpp:151] Top shape: 20 64 15 15 (288000)
I0502 16:03:28.236109 11540 net.cpp:159] Memory required for data: 21960080
I0502 16:03:28.236115 11540 layer_factory.hpp:77] Creating layer conv4
I0502 16:03:28.236131 11540 net.cpp:94] Creating Layer conv4
I0502 16:03:28.236138 11540 net.cpp:435] conv4 <- conv3
I0502 16:03:28.236148 11540 net.cpp:409] conv4 -> conv4
I0502 16:03:28.244689 11540 net.cpp:144] Setting up conv4
I0502 16:03:28.244717 11540 net.cpp:151] Top shape: 20 64 15 15 (288000)
I0502 16:03:28.244726 11540 net.cpp:159] Memory required for data: 23112080
I0502 16:03:28.244738 11540 layer_factory.hpp:77] Creating layer relu4
I0502 16:03:28.244750 11540 net.cpp:94] Creating Layer relu4
I0502 16:03:28.244757 11540 net.cpp:435] relu4 <- conv4
I0502 16:03:28.244767 11540 net.cpp:396] relu4 -> conv4 (in-place)
I0502 16:03:28.244781 11540 net.cpp:144] Setting up relu4
I0502 16:03:28.244791 11540 net.cpp:151] Top shape: 20 64 15 15 (288000)
I0502 16:03:28.244797 11540 net.cpp:159] Memory required for data: 24264080
I0502 16:03:28.244804 11540 layer_factory.hpp:77] Creating layer conv5
I0502 16:03:28.244818 11540 net.cpp:94] Creating Layer conv5
I0502 16:03:28.244827 11540 net.cpp:435] conv5 <- conv4
I0502 16:03:28.244837 11540 net.cpp:409] conv5 -> conv5
I0502 16:03:28.254199 11540 net.cpp:144] Setting up conv5
I0502 16:03:28.254215 11540 net.cpp:151] Top shape: 20 64 15 15 (288000)
I0502 16:03:28.254220 11540 net.cpp:159] Memory required for data: 25416080
I0502 16:03:28.254230 11540 layer_factory.hpp:77] Creating layer relu5
I0502 16:03:28.254236 11540 net.cpp:94] Creating Layer relu5
I0502 16:03:28.254240 11540 net.cpp:435] relu5 <- conv5
I0502 16:03:28.254245 11540 net.cpp:396] relu5 -> conv5 (in-place)
I0502 16:03:28.254253 11540 net.cpp:144] Setting up relu5
I0502 16:03:28.254258 11540 net.cpp:151] Top shape: 20 64 15 15 (288000)
I0502 16:03:28.254261 11540 net.cpp:159] Memory required for data: 26568080
I0502 16:03:28.254264 11540 layer_factory.hpp:77] Creating layer pool5
I0502 16:03:28.254271 11540 net.cpp:94] Creating Layer pool5
I0502 16:03:28.254273 11540 net.cpp:435] pool5 <- conv5
I0502 16:03:28.254278 11540 net.cpp:409] pool5 -> pool5
I0502 16:03:28.254313 11540 net.cpp:144] Setting up pool5
I0502 16:03:28.254321 11540 net.cpp:151] Top shape: 20 64 7 7 (62720)
I0502 16:03:28.254325 11540 net.cpp:159] Memory required for data: 26818960
I0502 16:03:28.254328 11540 layer_factory.hpp:77] Creating layer ip1
I0502 16:03:28.254338 11540 net.cpp:94] Creating Layer ip1
I0502 16:03:28.254343 11540 net.cpp:435] ip1 <- pool5
I0502 16:03:28.254348 11540 net.cpp:409] ip1 -> ip1
I0502 16:03:28.260290 11540 net.cpp:144] Setting up ip1
I0502 16:03:28.260305 11540 net.cpp:151] Top shape: 20 64 (1280)
I0502 16:03:28.260309 11540 net.cpp:159] Memory required for data: 26824080
I0502 16:03:28.260316 11540 layer_factory.hpp:77] Creating layer ip2
I0502 16:03:28.260327 11540 net.cpp:94] Creating Layer ip2
I0502 16:03:28.260332 11540 net.cpp:435] ip2 <- ip1
I0502 16:03:28.260337 11540 net.cpp:409] ip2 -> ip2
I0502 16:03:28.260524 11540 net.cpp:144] Setting up ip2
I0502 16:03:28.260530 11540 net.cpp:151] Top shape: 20 64 (1280)
I0502 16:03:28.260535 11540 net.cpp:159] Memory required for data: 26829200
I0502 16:03:28.260540 11540 layer_factory.hpp:77] Creating layer ip3
I0502 16:03:28.260546 11540 net.cpp:94] Creating Layer ip3
I0502 16:03:28.260555 11540 net.cpp:435] ip3 <- ip2
I0502 16:03:28.260560 11540 net.cpp:409] ip3 -> ip3
I0502 16:03:28.260723 11540 net.cpp:144] Setting up ip3
I0502 16:03:28.260730 11540 net.cpp:151] Top shape: 20 50 (1000)
I0502 16:03:28.260735 11540 net.cpp:159] Memory required for data: 26833200
I0502 16:03:28.260740 11540 layer_factory.hpp:77] Creating layer loss
I0502 16:03:28.260746 11540 net.cpp:94] Creating Layer loss
I0502 16:03:28.260751 11540 net.cpp:435] loss <- ip3
I0502 16:03:28.260754 11540 net.cpp:435] loss <- label
I0502 16:03:28.260761 11540 net.cpp:409] loss -> loss
I0502 16:03:28.260771 11540 layer_factory.hpp:77] Creating layer loss
…
I0502 16:03:28.261297 11540 solver.cpp:181] Creating test net (#0) specified by net file: ./protocol/dis_50_900_dimension.protocol_distribution
I0502 16:03:28.261325 11540 net.cpp:323] The NetState phase (1) differed from the phase (0) specified by a rule in layer parameters
I0502 16:03:28.261428 11540 net.cpp:52] Initializing net from parameters: 
state {
  phase: TEST
}
layer {
  name: "intercept"
  type: "HDF5Data"
  top: "data"
  top: "label"
  include {
    phase: TEST
  }
  hdf5_data_param {
    source: "/home/purduethu/scratch/radon/d/deng106/CNNStatisticalModel/distributions/input/50_distributions_900_sample_size_test-distributions-path.txt"
    batch_size: 20
  }
}
layer {
  name: "conv1"
  type: "Convolution"
  bottom: "data"
  top: "conv1"
  param {
    lr_mult: 1
  }
  param {
    lr_mult: 2
  }
  convolution_param {
    num_output: 64
    pad: 2
    kernel_size: 5
    stride: 1
    weight_filler {
      type: "gaussian"
      std: 0.0001
    }
    bias_filler {
      type: "constant"
    }
  }
}
layer {
  name: "relu1"
  type: "ReLU"
  bottom: "conv1"
  top: "conv1"
}
layer {
  name: "conv2"
  type: "Convolution"
  bottom: "conv1"
  top: "conv2"
  param {
    lr_mult: 1
  }
  param {
    lr_mult: 2
  }
  convolution_param {
    num_output: 64
    pad: 2
    kernel_size: 5
    stride: 1
    weight_filler {
      type: "gaussian"
      std: 0.01
    }
    bias_filler {
      type: "constant"
    }
  }
}
layer {
  name: "relu2"
  type: "ReLU"
  bottom: "conv2"
  top: "conv2"
}
layer {
  name: "pool2"
  type: "Pooling"
  bottom: "conv2"
  top: "pool2"
  pooling_param {
    pool: MAX
    kernel_size: 3
    stride: 2
  }
}
layer {
  name: "conv3"
  type: "Convolution"
  bottom: "pool2"
  top: "conv3"
  param {
    lr_mult: 1
  }
  param {
    lr_mult: 2
  }
  convolution_param {
    num_output: 64
    pad: 2
    kernel_size: 5
    stride: 1
    weight_filler {
      type: "gaussian"
      std: 0.01
    }
    bias_filler {
      type: "constant"
    }
  }
}
layer {
  name: "relu3"
  type: "ReLU"
  bottom: "conv3"
  top: "conv3"
}
layer {
  name: "conv4"
  type: "Convolution"
  bottom: "conv3"
  top: "conv4"
  param {
    lr_mult: 1
  }
  param {
    lr_mult: 2
  }
  convolution_param {
    num_output: 64
    pad: 2
    kernel_size: 5
    stride: 1
    weight_filler {
      type: "gaussian"
      std: 0.01
    }
    bias_filler {
      type: "constant"
    }
  }
}
layer {
  name: "relu4"
  type: "ReLU"
  bottom: "conv4"
  top: "conv4"
}
layer {
  name: "conv5"
  type: "Convolution"
  bottom: "conv4"
  top: "conv5"
  param {
    lr_mult: 1
  }
  param {
    lr_mult: 2
  }
  convolution_param {
    num_output: 64
    pad: 2
    kernel_size: 5
    stride: 1
    weight_filler {
      type: "gaussian"
      std: 0.01
    }
    bias_filler {
      type: "constant"
    }
  }
}
layer {
  name: "relu5"
  type: "ReLU"
  bottom: "conv5"
  top: "conv5"
}
layer {
  name: "pool5"
  type: "Pooling"
  bottom: "conv5"
  top: "pool5"
  pooling_param {
    pool: AVE
    kernel_size: 3
    stride: 2
  }
}
layer {
  name: "ip1"
  type: "InnerProduct"
  bottom: "pool5"
  top: "ip1"
  param {
    lr_mult: 1
  }
  param {
    lr_mult: 2
  }
  inner_product_param {
    num_output: 64
    weight_filler {
      type: "gaussian"
      std: 0.1
    }
    bias_filler {
      type: "constant"
    }
  }
}
layer {
  name: "ip2"
  type: "InnerProduct"
  bottom: "ip1"
  top: "ip2"
  param {
    lr_mult: 1
  }
  param {
    lr_mult: 2
  }
  inner_product_param {
    num_output: 64
    weight_filler {
      type: "gaussian"
      std: 0.1
    }
    bias_filler {
      type: "constant"
    }
  }
}
layer {
  name: "ip3"
  type: "InnerProduct"
  bottom: "ip2"
  top: "ip3"
  param {
    lr_mult: 1
  }
  param {
    lr_mult: 2
  }
  inner_product_param {
    num_output: 50
    weight_filler {
      type: "gaussian"
      std: 0.1
    }
    bias_filler {
      type: "constant"
    }
  }
}
layer {
  name: "accuracy"
  type: "Accuracy"
  bottom: "ip3"
  bottom: "label"
  top: "accuracy"
  include {
    phase: TEST
  }
}
layer {
  name: "loss"
  type: "SoftmaxWithLoss"
  bottom: "ip3"
  bottom: "label"
  top: "loss"
}
I0502 16:03:28.261505 11540 layer_factory.hpp:77] Creating layer intercept
I0502 16:03:28.261513 11540 net.cpp:94] Creating Layer intercept
I0502 16:03:28.261518 11540 net.cpp:409] intercept -> data
I0502 16:03:28.261525 11540 net.cpp:409] intercept -> label
I0502 16:03:28.261533 11540 hdf5_data_layer.cpp:79] Loading list of HDF5 filenames from: /home/purduethu/scratch/radon/d/deng106/CNNStatisticalModel/distributions/input/50_distributions_900_sample_size_test-distributions-path.txt
I0502 16:03:28.261551 11540 hdf5_data_layer.cpp:93] Number of HDF5 files: 1
I0502 16:03:28.633347 11540 net.cpp:144] Setting up intercept
I0502 16:03:28.633383 11540 net.cpp:151] Top shape: 20 1 30 30 (18000)
I0502 16:03:28.633389 11540 net.cpp:151] Top shape: 20 (20)
I0502 16:03:28.633394 11540 net.cpp:159] Memory required for data: 72080
I0502 16:03:28.633399 11540 layer_factory.hpp:77] Creating layer label_intercept_1_split
I0502 16:03:28.633419 11540 net.cpp:94] Creating Layer label_intercept_1_split
I0502 16:03:28.633424 11540 net.cpp:435] label_intercept_1_split <- label
I0502 16:03:28.633430 11540 net.cpp:409] label_intercept_1_split -> label_intercept_1_split_0
I0502 16:03:28.633437 11540 net.cpp:409] label_intercept_1_split -> label_intercept_1_split_1
I0502 16:03:28.633474 11540 net.cpp:144] Setting up label_intercept_1_split
I0502 16:03:28.633481 11540 net.cpp:151] Top shape: 20 (20)
I0502 16:03:28.633486 11540 net.cpp:151] Top shape: 20 (20)
I0502 16:03:28.633488 11540 net.cpp:159] Memory required for data: 72240
I0502 16:03:28.633491 11540 layer_factory.hpp:77] Creating layer conv1
I0502 16:03:28.633502 11540 net.cpp:94] Creating Layer conv1
I0502 16:03:28.633505 11540 net.cpp:435] conv1 <- data
I0502 16:03:28.633510 11540 net.cpp:409] conv1 -> conv1
I0502 16:03:28.635828 11540 net.cpp:144] Setting up conv1
I0502 16:03:28.635841 11540 net.cpp:151] Top shape: 20 64 30 30 (1152000)
I0502 16:03:28.635845 11540 net.cpp:159] Memory required for data: 4680240
I0502 16:03:28.635855 11540 layer_factory.hpp:77] Creating layer relu1
I0502 16:03:28.635862 11540 net.cpp:94] Creating Layer relu1
I0502 16:03:28.635866 11540 net.cpp:435] relu1 <- conv1
I0502 16:03:28.635871 11540 net.cpp:396] relu1 -> conv1 (in-place)
I0502 16:03:28.635879 11540 net.cpp:144] Setting up relu1
I0502 16:03:28.635884 11540 net.cpp:151] Top shape: 20 64 30 30 (1152000)
I0502 16:03:28.635886 11540 net.cpp:159] Memory required for data: 9288240
I0502 16:03:28.635890 11540 layer_factory.hpp:77] Creating layer conv2
I0502 16:03:28.635897 11540 net.cpp:94] Creating Layer conv2
I0502 16:03:28.635901 11540 net.cpp:435] conv2 <- conv1
I0502 16:03:28.635905 11540 net.cpp:409] conv2 -> conv2
I0502 16:03:28.642153 11540 net.cpp:144] Setting up conv2
I0502 16:03:28.642191 11540 net.cpp:151] Top shape: 20 64 30 30 (1152000)
I0502 16:03:28.642204 11540 net.cpp:159] Memory required for data: 13896240
I0502 16:03:28.642226 11540 layer_factory.hpp:77] Creating layer relu2
I0502 16:03:28.642242 11540 net.cpp:94] Creating Layer relu2
I0502 16:03:28.642252 11540 net.cpp:435] relu2 <- conv2
I0502 16:03:28.642266 11540 net.cpp:396] relu2 -> conv2 (in-place)
I0502 16:03:28.642287 11540 net.cpp:144] Setting up relu2
I0502 16:03:28.642299 11540 net.cpp:151] Top shape: 20 64 30 30 (1152000)
I0502 16:03:28.642307 11540 net.cpp:159] Memory required for data: 18504240
I0502 16:03:28.642318 11540 layer_factory.hpp:77] Creating layer pool2
I0502 16:03:28.642331 11540 net.cpp:94] Creating Layer pool2
I0502 16:03:28.642340 11540 net.cpp:435] pool2 <- conv2
I0502 16:03:28.642354 11540 net.cpp:409] pool2 -> pool2
I0502 16:03:28.642443 11540 net.cpp:144] Setting up pool2
I0502 16:03:28.642459 11540 net.cpp:151] Top shape: 20 64 15 15 (288000)
I0502 16:03:28.642468 11540 net.cpp:159] Memory required for data: 19656240
I0502 16:03:28.642477 11540 layer_factory.hpp:77] Creating layer conv3
I0502 16:03:28.642503 11540 net.cpp:94] Creating Layer conv3
I0502 16:03:28.642506 11540 net.cpp:435] conv3 <- pool2
I0502 16:03:28.642511 11540 net.cpp:409] conv3 -> conv3
I0502 16:03:28.647707 11540 net.cpp:144] Setting up conv3
I0502 16:03:28.647723 11540 net.cpp:151] Top shape: 20 64 15 15 (288000)
I0502 16:03:28.647727 11540 net.cpp:159] Memory required for data: 20808240
I0502 16:03:28.647735 11540 layer_factory.hpp:77] Creating layer relu3
I0502 16:03:28.647742 11540 net.cpp:94] Creating Layer relu3
I0502 16:03:28.647747 11540 net.cpp:435] relu3 <- conv3
I0502 16:03:28.647752 11540 net.cpp:396] relu3 -> conv3 (in-place)
I0502 16:03:28.647758 11540 net.cpp:144] Setting up relu3
I0502 16:03:28.647763 11540 net.cpp:151] Top shape: 20 64 15 15 (288000)
I0502 16:03:28.647766 11540 net.cpp:159] Memory required for data: 21960240
I0502 16:03:28.647769 11540 layer_factory.hpp:77] Creating layer conv4
I0502 16:03:28.647776 11540 net.cpp:94] Creating Layer conv4
I0502 16:03:28.647780 11540 net.cpp:435] conv4 <- conv3
I0502 16:03:28.647785 11540 net.cpp:409] conv4 -> conv4
I0502 16:03:28.652657 11540 net.cpp:144] Setting up conv4
I0502 16:03:28.652670 11540 net.cpp:151] Top shape: 20 64 15 15 (288000)
I0502 16:03:28.652674 11540 net.cpp:159] Memory required for data: 23112240
I0502 16:03:28.652680 11540 layer_factory.hpp:77] Creating layer relu4
I0502 16:03:28.652686 11540 net.cpp:94] Creating Layer relu4
I0502 16:03:28.652694 11540 net.cpp:435] relu4 <- conv4
I0502 16:03:28.652699 11540 net.cpp:396] relu4 -> conv4 (in-place)
I0502 16:03:28.652706 11540 net.cpp:144] Setting up relu4
I0502 16:03:28.652711 11540 net.cpp:151] Top shape: 20 64 15 15 (288000)
I0502 16:03:28.652714 11540 net.cpp:159] Memory required for data: 24264240
I0502 16:03:28.652717 11540 layer_factory.hpp:77] Creating layer conv5
I0502 16:03:28.652725 11540 net.cpp:94] Creating Layer conv5
I0502 16:03:28.652729 11540 net.cpp:435] conv5 <- conv4
I0502 16:03:28.652734 11540 net.cpp:409] conv5 -> conv5
I0502 16:03:28.658360 11540 net.cpp:144] Setting up conv5
I0502 16:03:28.658375 11540 net.cpp:151] Top shape: 20 64 15 15 (288000)
I0502 16:03:28.658380 11540 net.cpp:159] Memory required for data: 25416240
I0502 16:03:28.658387 11540 layer_factory.hpp:77] Creating layer relu5
I0502 16:03:28.658393 11540 net.cpp:94] Creating Layer relu5
I0502 16:03:28.658397 11540 net.cpp:435] relu5 <- conv5
I0502 16:03:28.658401 11540 net.cpp:396] relu5 -> conv5 (in-place)
I0502 16:03:28.658408 11540 net.cpp:144] Setting up relu5
I0502 16:03:28.658413 11540 net.cpp:151] Top shape: 20 64 15 15 (288000)
I0502 16:03:28.658416 11540 net.cpp:159] Memory required for data: 26568240
I0502 16:03:28.658419 11540 layer_factory.hpp:77] Creating layer pool5
I0502 16:03:28.658423 11540 net.cpp:94] Creating Layer pool5
I0502 16:03:28.658427 11540 net.cpp:435] pool5 <- conv5
I0502 16:03:28.658432 11540 net.cpp:409] pool5 -> pool5
I0502 16:03:28.658457 11540 net.cpp:144] Setting up pool5
I0502 16:03:28.658463 11540 net.cpp:151] Top shape: 20 64 7 7 (62720)
I0502 16:03:28.658466 11540 net.cpp:159] Memory required for data: 26819120
I0502 16:03:28.658469 11540 layer_factory.hpp:77] Creating layer ip1
I0502 16:03:28.658475 11540 net.cpp:94] Creating Layer ip1
I0502 16:03:28.658478 11540 net.cpp:435] ip1 <- pool5
I0502 16:03:28.658483 11540 net.cpp:409] ip1 -> ip1
I0502 16:03:28.663297 11540 net.cpp:144] Setting up ip1
I0502 16:03:28.663306 11540 net.cpp:151] Top shape: 20 64 (1280)
I0502 16:03:28.663311 11540 net.cpp:159] Memory required for data: 26824240
I0502 16:03:28.663316 11540 layer_factory.hpp:77] Creating layer ip2
I0502 16:03:28.663322 11540 net.cpp:94] Creating Layer ip2
I0502 16:03:28.663326 11540 net.cpp:435] ip2 <- ip1
I0502 16:03:28.663331 11540 net.cpp:409] ip2 -> ip2
I0502 16:03:28.663502 11540 net.cpp:144] Setting up ip2
I0502 16:03:28.663509 11540 net.cpp:151] Top shape: 20 64 (1280)
I0502 16:03:28.663512 11540 net.cpp:159] Memory required for data: 26829360
I0502 16:03:28.663517 11540 layer_factory.hpp:77] Creating layer ip3
I0502 16:03:28.663524 11540 net.cpp:94] Creating Layer ip3
I0502 16:03:28.663527 11540 net.cpp:435] ip3 <- ip2
I0502 16:03:28.663533 11540 net.cpp:409] ip3 -> ip3
I0502 16:03:28.663681 11540 net.cpp:144] Setting up ip3
I0502 16:03:28.663687 11540 net.cpp:151] Top shape: 20 50 (1000)
I0502 16:03:28.663691 11540 net.cpp:159] Memory required for data: 26833360
I0502 16:03:28.663696 11540 layer_factory.hpp:77] Creating layer ip3_ip3_0_split
I0502 16:03:28.663702 11540 net.cpp:94] Creating Layer ip3_ip3_0_split
I0502 16:03:28.663705 11540 net.cpp:435] ip3_ip3_0_split <- ip3
I0502 16:03:28.663709 11540 net.cpp:409] ip3_ip3_0_split -> ip3_ip3_0_split_0
I0502 16:03:28.663714 11540 net.cpp:409] ip3_ip3_0_split -> ip3_ip3_0_split_1
I0502 16:03:28.663739 11540 net.cpp:144] Setting up ip3_ip3_0_split
I0502 16:03:28.663745 11540 net.cpp:151] Top shape: 20 50 (1000)
I0502 16:03:28.663749 11540 net.cpp:151] Top shape: 20 50 (1000)
I0502 16:03:28.663751 11540 net.cpp:159] Memory required for data: 26841360
I0502 16:03:28.663755 11540 layer_factory.hpp:77] Creating layer accuracy
I0502 16:03:28.663760 11540 net.cpp:94] Creating Layer accuracy
I0502 16:03:28.663763 11540 net.cpp:435] accuracy <- ip3_ip3_0_split_0
I0502 16:03:28.663767 11540 net.cpp:435] accuracy <- label_intercept_1_split_0
I0502 16:03:28.663774 11540 net.cpp:409] accuracy -> accuracy
…
