…
I0501 20:55:29.490743 14650 net.cpp:323] The NetState phase (0) differed from the phase (1) specified by a rule in layer intercept
I0501 20:55:29.490759 14650 net.cpp:323] The NetState phase (0) differed from the phase (1) specified by a rule in layer accuracy
I0501 20:55:29.490850 14650 net.cpp:52] Initializing net from parameters: 
state {
  phase: TRAIN
}
layer {
  name: "parameters"
  type: "HDF5Data"
  top: "data"
  top: "label"
  include {
    phase: TRAIN
  }
  hdf5_data_param {
    source: "/home/purduethu/scratch/radon/d/deng106/CNNStatisticalModel/distributions/input/20_distributions_900_sample_size_train-distributions-path.txt"
    batch_size: 20
  }
}
layer {
  name: "conv1"
  type: "Convolution"
  bottom: "data"
  top: "conv1"
  param {
    lr_mult: 1
  }
  param {
    lr_mult: 2
  }
  convolution_param {
    num_output: 64
    pad: 2
    kernel_size: 5
    stride: 1
    weight_filler {
      type: "gaussian"
      std: 0.0001
    }
    bias_filler {
      type: "constant"
    }
  }
}
layer {
  name: "relu1"
  type: "ReLU"
  bottom: "conv1"
  top: "conv1"
}
layer {
  name: "conv2"
  type: "Convolution"
  bottom: "conv1"
  top: "conv2"
  param {
    lr_mult: 1
  }
  param {
    lr_mult: 2
  }
  convolution_param {
    num_output: 64
    pad: 2
    kernel_size: 5
    stride: 1
    weight_filler {
      type: "gaussian"
      std: 0.01
    }
    bias_filler {
      type: "constant"
    }
  }
}
layer {
  name: "relu2"
  type: "ReLU"
  bottom: "conv2"
  top: "conv2"
}
layer {
  name: "pool2"
  type: "Pooling"
  bottom: "conv2"
  top: "pool2"
  pooling_param {
    pool: MAX
    kernel_size: 3
    stride: 2
  }
}
layer {
  name: "conv3"
  type: "Convolution"
  bottom: "pool2"
  top: "conv3"
  param {
    lr_mult: 1
  }
  param {
    lr_mult: 2
  }
  convolution_param {
    num_output: 64
    pad: 2
    kernel_size: 5
    stride: 1
    weight_filler {
      type: "gaussian"
      std: 0.01
    }
    bias_filler {
      type: "constant"
    }
  }
}
layer {
  name: "relu3"
  type: "ReLU"
  bottom: "conv3"
  top: "conv3"
}
layer {
  name: "conv4"
  type: "Convolution"
  bottom: "conv3"
  top: "conv4"
  param {
    lr_mult: 1
  }
  param {
    lr_mult: 2
  }
  convolution_param {
    num_output: 64
    pad: 2
    kernel_size: 5
    stride: 1
    weight_filler {
      type: "gaussian"
      std: 0.01
    }
    bias_filler {
      type: "constant"
    }
  }
}
layer {
  name: "relu4"
  type: "ReLU"
  bottom: "conv4"
  top: "conv4"
}
layer {
  name: "conv5"
  type: "Convolution"
  bottom: "conv4"
  top: "conv5"
  param {
    lr_mult: 1
  }
  param {
    lr_mult: 2
  }
  convolution_param {
    num_output: 64
    pad: 2
    kernel_size: 5
    stride: 1
    weight_filler {
      type: "gaussian"
      std: 0.01
    }
    bias_filler {
      type: "constant"
    }
  }
}
layer {
  name: "relu5"
  type: "ReLU"
  bottom: "conv5"
  top: "conv5"
}
layer {
  name: "pool5"
  type: "Pooling"
  bottom: "conv5"
  top: "pool5"
  pooling_param {
    pool: AVE
    kernel_size: 3
    stride: 2
  }
}
layer {
  name: "ip1"
  type: "InnerProduct"
  bottom: "pool5"
  top: "ip1"
  param {
    lr_mult: 1
  }
  param {
    lr_mult: 2
  }
  inner_product_param {
    num_output: 64
    weight_filler {
      type: "gaussian"
      std: 0.1
    }
    bias_filler {
      type: "constant"
    }
  }
}
layer {
  name: "ip2"
  type: "InnerProduct"
  bottom: "ip1"
  top: "ip2"
  param {
    lr_mult: 1
  }
  param {
    lr_mult: 2
  }
  inner_product_param {
    num_output: 64
    weight_filler {
      type: "gaussian"
      std: 0.1
    }
    bias_filler {
      type: "constant"
    }
  }
}
layer {
  name: "ip3"
  type: "InnerProduct"
  bottom: "ip2"
  top: "ip3"
  param {
    lr_mult: 1
  }
  param {
    lr_mult: 2
  }
  inner_product_param {
    num_output: 50
    weight_filler {
      type: "gaussian"
      std: 0.1
    }
    bias_filler {
      type: "constant"
    }
  }
}
layer {
  name: "loss"
  type: "SoftmaxWithLoss"
  bottom: "ip3"
  bottom: "label"
  top: "loss"
}
I0501 20:55:29.490926 14650 layer_factory.hpp:77] Creating layer parameters
I0501 20:55:29.490941 14650 net.cpp:94] Creating Layer parameters
I0501 20:55:29.490947 14650 net.cpp:409] parameters -> data
I0501 20:55:29.490965 14650 net.cpp:409] parameters -> label
I0501 20:55:29.490977 14650 hdf5_data_layer.cpp:79] Loading list of HDF5 filenames from: /home/purduethu/scratch/radon/d/deng106/CNNStatisticalModel/distributions/input/20_distributions_900_sample_size_train-distributions-path.txt
I0501 20:55:29.490998 14650 hdf5_data_layer.cpp:93] Number of HDF5 files: 1
I0501 20:55:29.491567 14650 hdf5.cpp:32] Datatype class: H5T_FLOAT
I0501 20:55:30.055614 14650 hdf5.cpp:35] Datatype class: H5T_INTEGER
I0501 20:55:30.057314 14650 net.cpp:144] Setting up parameters
I0501 20:55:30.057332 14650 net.cpp:151] Top shape: 20 1 30 30 (18000)
I0501 20:55:30.057338 14650 net.cpp:151] Top shape: 20 (20)
I0501 20:55:30.057343 14650 net.cpp:159] Memory required for data: 72080
I0501 20:55:30.057349 14650 layer_factory.hpp:77] Creating layer conv1
I0501 20:55:30.057373 14650 net.cpp:94] Creating Layer conv1
I0501 20:55:30.057379 14650 net.cpp:435] conv1 <- data
I0501 20:55:30.057389 14650 net.cpp:409] conv1 -> conv1
I0501 20:55:30.063151 14650 net.cpp:144] Setting up conv1
I0501 20:55:30.063169 14650 net.cpp:151] Top shape: 20 64 30 30 (1152000)
I0501 20:55:30.063172 14650 net.cpp:159] Memory required for data: 4680080
I0501 20:55:30.063184 14650 layer_factory.hpp:77] Creating layer relu1
I0501 20:55:30.063192 14650 net.cpp:94] Creating Layer relu1
I0501 20:55:30.063196 14650 net.cpp:435] relu1 <- conv1
I0501 20:55:30.063200 14650 net.cpp:396] relu1 -> conv1 (in-place)
I0501 20:55:30.063220 14650 net.cpp:144] Setting up relu1
I0501 20:55:30.063225 14650 net.cpp:151] Top shape: 20 64 30 30 (1152000)
I0501 20:55:30.063228 14650 net.cpp:159] Memory required for data: 9288080
I0501 20:55:30.063231 14650 layer_factory.hpp:77] Creating layer conv2
I0501 20:55:30.063238 14650 net.cpp:94] Creating Layer conv2
I0501 20:55:30.063242 14650 net.cpp:435] conv2 <- conv1
I0501 20:55:30.063247 14650 net.cpp:409] conv2 -> conv2
I0501 20:55:30.077460 14650 net.cpp:144] Setting up conv2
I0501 20:55:30.077476 14650 net.cpp:151] Top shape: 20 64 30 30 (1152000)
I0501 20:55:30.077479 14650 net.cpp:159] Memory required for data: 13896080
I0501 20:55:30.077487 14650 layer_factory.hpp:77] Creating layer relu2
I0501 20:55:30.077494 14650 net.cpp:94] Creating Layer relu2
I0501 20:55:30.077498 14650 net.cpp:435] relu2 <- conv2
I0501 20:55:30.077502 14650 net.cpp:396] relu2 -> conv2 (in-place)
I0501 20:55:30.077510 14650 net.cpp:144] Setting up relu2
I0501 20:55:30.077514 14650 net.cpp:151] Top shape: 20 64 30 30 (1152000)
I0501 20:55:30.077517 14650 net.cpp:159] Memory required for data: 18504080
I0501 20:55:30.077522 14650 layer_factory.hpp:77] Creating layer pool2
I0501 20:55:30.077534 14650 net.cpp:94] Creating Layer pool2
I0501 20:55:30.077538 14650 net.cpp:435] pool2 <- conv2
I0501 20:55:30.077543 14650 net.cpp:409] pool2 -> pool2
I0501 20:55:30.077587 14650 net.cpp:144] Setting up pool2
I0501 20:55:30.077595 14650 net.cpp:151] Top shape: 20 64 15 15 (288000)
I0501 20:55:30.077599 14650 net.cpp:159] Memory required for data: 19656080
I0501 20:55:30.077601 14650 layer_factory.hpp:77] Creating layer conv3
I0501 20:55:30.077610 14650 net.cpp:94] Creating Layer conv3
I0501 20:55:30.077613 14650 net.cpp:435] conv3 <- pool2
I0501 20:55:30.077626 14650 net.cpp:409] conv3 -> conv3
I0501 20:55:30.085551 14650 net.cpp:144] Setting up conv3
I0501 20:55:30.085566 14650 net.cpp:151] Top shape: 20 64 15 15 (288000)
I0501 20:55:30.085569 14650 net.cpp:159] Memory required for data: 20808080
I0501 20:55:30.085577 14650 layer_factory.hpp:77] Creating layer relu3
I0501 20:55:30.085584 14650 net.cpp:94] Creating Layer relu3
I0501 20:55:30.085587 14650 net.cpp:435] relu3 <- conv3
I0501 20:55:30.085592 14650 net.cpp:396] relu3 -> conv3 (in-place)
I0501 20:55:30.085599 14650 net.cpp:144] Setting up relu3
I0501 20:55:30.085604 14650 net.cpp:151] Top shape: 20 64 15 15 (288000)
I0501 20:55:30.085608 14650 net.cpp:159] Memory required for data: 21960080
I0501 20:55:30.085610 14650 layer_factory.hpp:77] Creating layer conv4
I0501 20:55:30.085619 14650 net.cpp:94] Creating Layer conv4
I0501 20:55:30.085623 14650 net.cpp:435] conv4 <- conv3
I0501 20:55:30.085628 14650 net.cpp:409] conv4 -> conv4
I0501 20:55:30.092669 14650 net.cpp:144] Setting up conv4
I0501 20:55:30.092684 14650 net.cpp:151] Top shape: 20 64 15 15 (288000)
I0501 20:55:30.092689 14650 net.cpp:159] Memory required for data: 23112080
I0501 20:55:30.092694 14650 layer_factory.hpp:77] Creating layer relu4
I0501 20:55:30.092700 14650 net.cpp:94] Creating Layer relu4
I0501 20:55:30.092705 14650 net.cpp:435] relu4 <- conv4
I0501 20:55:30.092710 14650 net.cpp:396] relu4 -> conv4 (in-place)
I0501 20:55:30.092716 14650 net.cpp:144] Setting up relu4
I0501 20:55:30.092721 14650 net.cpp:151] Top shape: 20 64 15 15 (288000)
I0501 20:55:30.092725 14650 net.cpp:159] Memory required for data: 24264080
I0501 20:55:30.092727 14650 layer_factory.hpp:77] Creating layer conv5
I0501 20:55:30.092736 14650 net.cpp:94] Creating Layer conv5
I0501 20:55:30.092739 14650 net.cpp:435] conv5 <- conv4
I0501 20:55:30.092744 14650 net.cpp:409] conv5 -> conv5
I0501 20:55:30.100354 14650 net.cpp:144] Setting up conv5
I0501 20:55:30.100369 14650 net.cpp:151] Top shape: 20 64 15 15 (288000)
I0501 20:55:30.100373 14650 net.cpp:159] Memory required for data: 25416080
I0501 20:55:30.100383 14650 layer_factory.hpp:77] Creating layer relu5
I0501 20:55:30.100389 14650 net.cpp:94] Creating Layer relu5
I0501 20:55:30.100392 14650 net.cpp:435] relu5 <- conv5
I0501 20:55:30.100396 14650 net.cpp:396] relu5 -> conv5 (in-place)
I0501 20:55:30.100404 14650 net.cpp:144] Setting up relu5
I0501 20:55:30.100409 14650 net.cpp:151] Top shape: 20 64 15 15 (288000)
I0501 20:55:30.100411 14650 net.cpp:159] Memory required for data: 26568080
I0501 20:55:30.100414 14650 layer_factory.hpp:77] Creating layer pool5
I0501 20:55:30.100419 14650 net.cpp:94] Creating Layer pool5
I0501 20:55:30.100424 14650 net.cpp:435] pool5 <- conv5
I0501 20:55:30.100427 14650 net.cpp:409] pool5 -> pool5
I0501 20:55:30.100461 14650 net.cpp:144] Setting up pool5
I0501 20:55:30.100469 14650 net.cpp:151] Top shape: 20 64 7 7 (62720)
I0501 20:55:30.100472 14650 net.cpp:159] Memory required for data: 26818960
I0501 20:55:30.100476 14650 layer_factory.hpp:77] Creating layer ip1
I0501 20:55:30.100486 14650 net.cpp:94] Creating Layer ip1
I0501 20:55:30.100489 14650 net.cpp:435] ip1 <- pool5
I0501 20:55:30.100493 14650 net.cpp:409] ip1 -> ip1
I0501 20:55:30.105258 14650 net.cpp:144] Setting up ip1
I0501 20:55:30.105268 14650 net.cpp:151] Top shape: 20 64 (1280)
I0501 20:55:30.105270 14650 net.cpp:159] Memory required for data: 26824080
I0501 20:55:30.105275 14650 layer_factory.hpp:77] Creating layer ip2
I0501 20:55:30.105285 14650 net.cpp:94] Creating Layer ip2
I0501 20:55:30.105289 14650 net.cpp:435] ip2 <- ip1
I0501 20:55:30.105294 14650 net.cpp:409] ip2 -> ip2
I0501 20:55:30.105458 14650 net.cpp:144] Setting up ip2
I0501 20:55:30.105465 14650 net.cpp:151] Top shape: 20 64 (1280)
I0501 20:55:30.105468 14650 net.cpp:159] Memory required for data: 26829200
I0501 20:55:30.105473 14650 layer_factory.hpp:77] Creating layer ip3
I0501 20:55:30.105479 14650 net.cpp:94] Creating Layer ip3
I0501 20:55:30.105481 14650 net.cpp:435] ip3 <- ip2
I0501 20:55:30.105486 14650 net.cpp:409] ip3 -> ip3
I0501 20:55:30.105633 14650 net.cpp:144] Setting up ip3
I0501 20:55:30.105639 14650 net.cpp:151] Top shape: 20 50 (1000)
I0501 20:55:30.105643 14650 net.cpp:159] Memory required for data: 26833200
I0501 20:55:30.105648 14650 layer_factory.hpp:77] Creating layer loss
I0501 20:55:30.105654 14650 net.cpp:94] Creating Layer loss
I0501 20:55:30.105656 14650 net.cpp:435] loss <- ip3
I0501 20:55:30.105660 14650 net.cpp:435] loss <- label
I0501 20:55:30.105665 14650 net.cpp:409] loss -> loss
I0501 20:55:30.105674 14650 layer_factory.hpp:77] Creating layer loss
…
I0501 20:55:30.106156 14650 solver.cpp:181] Creating test net (#0) specified by net file: ./protocol/dis_20_900_dimension.protocol_distribution
I0501 20:55:30.106182 14650 net.cpp:323] The NetState phase (1) differed from the phase (0) specified by a rule in layer parameters
I0501 20:55:30.106277 14650 net.cpp:52] Initializing net from parameters: 
state {
  phase: TEST
}
layer {
  name: "intercept"
  type: "HDF5Data"
  top: "data"
  top: "label"
  include {
    phase: TEST
  }
  hdf5_data_param {
    source: "/home/purduethu/scratch/radon/d/deng106/CNNStatisticalModel/distributions/input/20_distributions_900_sample_size_test-distributions-path.txt"
    batch_size: 20
  }
}
layer {
  name: "conv1"
  type: "Convolution"
  bottom: "data"
  top: "conv1"
  param {
    lr_mult: 1
  }
  param {
    lr_mult: 2
  }
  convolution_param {
    num_output: 64
    pad: 2
    kernel_size: 5
    stride: 1
    weight_filler {
      type: "gaussian"
      std: 0.0001
    }
    bias_filler {
      type: "constant"
    }
  }
}
layer {
  name: "relu1"
  type: "ReLU"
  bottom: "conv1"
  top: "conv1"
}
layer {
  name: "conv2"
  type: "Convolution"
  bottom: "conv1"
  top: "conv2"
  param {
    lr_mult: 1
  }
  param {
    lr_mult: 2
  }
  convolution_param {
    num_output: 64
    pad: 2
    kernel_size: 5
    stride: 1
    weight_filler {
      type: "gaussian"
      std: 0.01
    }
    bias_filler {
      type: "constant"
    }
  }
}
layer {
  name: "relu2"
  type: "ReLU"
  bottom: "conv2"
  top: "conv2"
}
layer {
  name: "pool2"
  type: "Pooling"
  bottom: "conv2"
  top: "pool2"
  pooling_param {
    pool: MAX
    kernel_size: 3
    stride: 2
  }
}
layer {
  name: "conv3"
  type: "Convolution"
  bottom: "pool2"
  top: "conv3"
  param {
    lr_mult: 1
  }
  param {
    lr_mult: 2
  }
  convolution_param {
    num_output: 64
    pad: 2
    kernel_size: 5
    stride: 1
    weight_filler {
      type: "gaussian"
      std: 0.01
    }
    bias_filler {
      type: "constant"
    }
  }
}
layer {
  name: "relu3"
  type: "ReLU"
  bottom: "conv3"
  top: "conv3"
}
layer {
  name: "conv4"
  type: "Convolution"
  bottom: "conv3"
  top: "conv4"
  param {
    lr_mult: 1
  }
  param {
    lr_mult: 2
  }
  convolution_param {
    num_output: 64
    pad: 2
    kernel_size: 5
    stride: 1
    weight_filler {
      type: "gaussian"
      std: 0.01
    }
    bias_filler {
      type: "constant"
    }
  }
}
layer {
  name: "relu4"
  type: "ReLU"
  bottom: "conv4"
  top: "conv4"
}
layer {
  name: "conv5"
  type: "Convolution"
  bottom: "conv4"
  top: "conv5"
  param {
    lr_mult: 1
  }
  param {
    lr_mult: 2
  }
  convolution_param {
    num_output: 64
    pad: 2
    kernel_size: 5
    stride: 1
    weight_filler {
      type: "gaussian"
      std: 0.01
    }
    bias_filler {
      type: "constant"
    }
  }
}
layer {
  name: "relu5"
  type: "ReLU"
  bottom: "conv5"
  top: "conv5"
}
layer {
  name: "pool5"
  type: "Pooling"
  bottom: "conv5"
  top: "pool5"
  pooling_param {
    pool: AVE
    kernel_size: 3
    stride: 2
  }
}
layer {
  name: "ip1"
  type: "InnerProduct"
  bottom: "pool5"
  top: "ip1"
  param {
    lr_mult: 1
  }
  param {
    lr_mult: 2
  }
  inner_product_param {
    num_output: 64
    weight_filler {
      type: "gaussian"
      std: 0.1
    }
    bias_filler {
      type: "constant"
    }
  }
}
layer {
  name: "ip2"
  type: "InnerProduct"
  bottom: "ip1"
  top: "ip2"
  param {
    lr_mult: 1
  }
  param {
    lr_mult: 2
  }
  inner_product_param {
    num_output: 64
    weight_filler {
      type: "gaussian"
      std: 0.1
    }
    bias_filler {
      type: "constant"
    }
  }
}
layer {
  name: "ip3"
  type: "InnerProduct"
  bottom: "ip2"
  top: "ip3"
  param {
    lr_mult: 1
  }
  param {
    lr_mult: 2
  }
  inner_product_param {
    num_output: 50
    weight_filler {
      type: "gaussian"
      std: 0.1
    }
    bias_filler {
      type: "constant"
    }
  }
}
layer {
  name: "accuracy"
  type: "Accuracy"
  bottom: "ip3"
  bottom: "label"
  top: "accuracy"
  include {
    phase: TEST
  }
}
layer {
  name: "loss"
  type: "SoftmaxWithLoss"
  bottom: "ip3"
  bottom: "label"
  top: "loss"
}
I0501 20:55:30.106346 14650 layer_factory.hpp:77] Creating layer intercept
I0501 20:55:30.106354 14650 net.cpp:94] Creating Layer intercept
I0501 20:55:30.106359 14650 net.cpp:409] intercept -> data
I0501 20:55:30.106365 14650 net.cpp:409] intercept -> label
I0501 20:55:30.106371 14650 hdf5_data_layer.cpp:79] Loading list of HDF5 filenames from: /home/purduethu/scratch/radon/d/deng106/CNNStatisticalModel/distributions/input/20_distributions_900_sample_size_test-distributions-path.txt
I0501 20:55:30.106389 14650 hdf5_data_layer.cpp:93] Number of HDF5 files: 1
I0501 20:55:30.249531 14650 net.cpp:144] Setting up intercept
I0501 20:55:30.249562 14650 net.cpp:151] Top shape: 20 1 30 30 (18000)
I0501 20:55:30.249568 14650 net.cpp:151] Top shape: 20 (20)
I0501 20:55:30.249572 14650 net.cpp:159] Memory required for data: 72080
I0501 20:55:30.249577 14650 layer_factory.hpp:77] Creating layer label_intercept_1_split
I0501 20:55:30.249594 14650 net.cpp:94] Creating Layer label_intercept_1_split
I0501 20:55:30.249598 14650 net.cpp:435] label_intercept_1_split <- label
I0501 20:55:30.249604 14650 net.cpp:409] label_intercept_1_split -> label_intercept_1_split_0
I0501 20:55:30.249614 14650 net.cpp:409] label_intercept_1_split -> label_intercept_1_split_1
I0501 20:55:30.249645 14650 net.cpp:144] Setting up label_intercept_1_split
I0501 20:55:30.249652 14650 net.cpp:151] Top shape: 20 (20)
I0501 20:55:30.249656 14650 net.cpp:151] Top shape: 20 (20)
I0501 20:55:30.249660 14650 net.cpp:159] Memory required for data: 72240
I0501 20:55:30.249662 14650 layer_factory.hpp:77] Creating layer conv1
I0501 20:55:30.249675 14650 net.cpp:94] Creating Layer conv1
I0501 20:55:30.249677 14650 net.cpp:435] conv1 <- data
I0501 20:55:30.249683 14650 net.cpp:409] conv1 -> conv1
I0501 20:55:30.250875 14650 net.cpp:144] Setting up conv1
I0501 20:55:30.250890 14650 net.cpp:151] Top shape: 20 64 30 30 (1152000)
I0501 20:55:30.250893 14650 net.cpp:159] Memory required for data: 4680240
I0501 20:55:30.250902 14650 layer_factory.hpp:77] Creating layer relu1
I0501 20:55:30.250910 14650 net.cpp:94] Creating Layer relu1
I0501 20:55:30.250913 14650 net.cpp:435] relu1 <- conv1
I0501 20:55:30.250917 14650 net.cpp:396] relu1 -> conv1 (in-place)
I0501 20:55:30.250926 14650 net.cpp:144] Setting up relu1
I0501 20:55:30.250931 14650 net.cpp:151] Top shape: 20 64 30 30 (1152000)
I0501 20:55:30.250933 14650 net.cpp:159] Memory required for data: 9288240
I0501 20:55:30.250936 14650 layer_factory.hpp:77] Creating layer conv2
I0501 20:55:30.250944 14650 net.cpp:94] Creating Layer conv2
I0501 20:55:30.250948 14650 net.cpp:435] conv2 <- conv1
I0501 20:55:30.250952 14650 net.cpp:409] conv2 -> conv2
I0501 20:55:30.257117 14650 net.cpp:144] Setting up conv2
I0501 20:55:30.257133 14650 net.cpp:151] Top shape: 20 64 30 30 (1152000)
I0501 20:55:30.257136 14650 net.cpp:159] Memory required for data: 13896240
I0501 20:55:30.257144 14650 layer_factory.hpp:77] Creating layer relu2
I0501 20:55:30.257151 14650 net.cpp:94] Creating Layer relu2
I0501 20:55:30.257155 14650 net.cpp:435] relu2 <- conv2
I0501 20:55:30.257159 14650 net.cpp:396] relu2 -> conv2 (in-place)
I0501 20:55:30.257166 14650 net.cpp:144] Setting up relu2
I0501 20:55:30.257171 14650 net.cpp:151] Top shape: 20 64 30 30 (1152000)
I0501 20:55:30.257174 14650 net.cpp:159] Memory required for data: 18504240
I0501 20:55:30.257177 14650 layer_factory.hpp:77] Creating layer pool2
I0501 20:55:30.257184 14650 net.cpp:94] Creating Layer pool2
I0501 20:55:30.257186 14650 net.cpp:435] pool2 <- conv2
I0501 20:55:30.257191 14650 net.cpp:409] pool2 -> pool2
I0501 20:55:30.257225 14650 net.cpp:144] Setting up pool2
I0501 20:55:30.257231 14650 net.cpp:151] Top shape: 20 64 15 15 (288000)
I0501 20:55:30.257236 14650 net.cpp:159] Memory required for data: 19656240
I0501 20:55:30.257238 14650 layer_factory.hpp:77] Creating layer conv3
I0501 20:55:30.257246 14650 net.cpp:94] Creating Layer conv3
I0501 20:55:30.257251 14650 net.cpp:435] conv3 <- pool2
I0501 20:55:30.257254 14650 net.cpp:409] conv3 -> conv3
I0501 20:55:30.261948 14650 net.cpp:144] Setting up conv3
I0501 20:55:30.261963 14650 net.cpp:151] Top shape: 20 64 15 15 (288000)
I0501 20:55:30.261967 14650 net.cpp:159] Memory required for data: 20808240
I0501 20:55:30.261976 14650 layer_factory.hpp:77] Creating layer relu3
I0501 20:55:30.261982 14650 net.cpp:94] Creating Layer relu3
I0501 20:55:30.261986 14650 net.cpp:435] relu3 <- conv3
I0501 20:55:30.261991 14650 net.cpp:396] relu3 -> conv3 (in-place)
I0501 20:55:30.261999 14650 net.cpp:144] Setting up relu3
I0501 20:55:30.262003 14650 net.cpp:151] Top shape: 20 64 15 15 (288000)
I0501 20:55:30.262006 14650 net.cpp:159] Memory required for data: 21960240
I0501 20:55:30.262009 14650 layer_factory.hpp:77] Creating layer conv4
I0501 20:55:30.262017 14650 net.cpp:94] Creating Layer conv4
I0501 20:55:30.262022 14650 net.cpp:435] conv4 <- conv3
I0501 20:55:30.262027 14650 net.cpp:409] conv4 -> conv4
I0501 20:55:30.266960 14650 net.cpp:144] Setting up conv4
I0501 20:55:30.266975 14650 net.cpp:151] Top shape: 20 64 15 15 (288000)
I0501 20:55:30.266980 14650 net.cpp:159] Memory required for data: 23112240
I0501 20:55:30.266986 14650 layer_factory.hpp:77] Creating layer relu4
I0501 20:55:30.266993 14650 net.cpp:94] Creating Layer relu4
I0501 20:55:30.267000 14650 net.cpp:435] relu4 <- conv4
I0501 20:55:30.267005 14650 net.cpp:396] relu4 -> conv4 (in-place)
I0501 20:55:30.267012 14650 net.cpp:144] Setting up relu4
I0501 20:55:30.267017 14650 net.cpp:151] Top shape: 20 64 15 15 (288000)
I0501 20:55:30.267020 14650 net.cpp:159] Memory required for data: 24264240
I0501 20:55:30.267024 14650 layer_factory.hpp:77] Creating layer conv5
I0501 20:55:30.267031 14650 net.cpp:94] Creating Layer conv5
I0501 20:55:30.267035 14650 net.cpp:435] conv5 <- conv4
I0501 20:55:30.267040 14650 net.cpp:409] conv5 -> conv5
I0501 20:55:30.271333 14650 net.cpp:144] Setting up conv5
I0501 20:55:30.271347 14650 net.cpp:151] Top shape: 20 64 15 15 (288000)
I0501 20:55:30.271351 14650 net.cpp:159] Memory required for data: 25416240
I0501 20:55:30.271360 14650 layer_factory.hpp:77] Creating layer relu5
I0501 20:55:30.271366 14650 net.cpp:94] Creating Layer relu5
I0501 20:55:30.271369 14650 net.cpp:435] relu5 <- conv5
I0501 20:55:30.271374 14650 net.cpp:396] relu5 -> conv5 (in-place)
I0501 20:55:30.271381 14650 net.cpp:144] Setting up relu5
I0501 20:55:30.271386 14650 net.cpp:151] Top shape: 20 64 15 15 (288000)
I0501 20:55:30.271389 14650 net.cpp:159] Memory required for data: 26568240
I0501 20:55:30.271392 14650 layer_factory.hpp:77] Creating layer pool5
I0501 20:55:30.271397 14650 net.cpp:94] Creating Layer pool5
I0501 20:55:30.271401 14650 net.cpp:435] pool5 <- conv5
I0501 20:55:30.271405 14650 net.cpp:409] pool5 -> pool5
I0501 20:55:30.271430 14650 net.cpp:144] Setting up pool5
I0501 20:55:30.271436 14650 net.cpp:151] Top shape: 20 64 7 7 (62720)
I0501 20:55:30.271440 14650 net.cpp:159] Memory required for data: 26819120
I0501 20:55:30.271443 14650 layer_factory.hpp:77] Creating layer ip1
I0501 20:55:30.271450 14650 net.cpp:94] Creating Layer ip1
I0501 20:55:30.271453 14650 net.cpp:435] ip1 <- pool5
I0501 20:55:30.271457 14650 net.cpp:409] ip1 -> ip1
I0501 20:55:30.276180 14650 net.cpp:144] Setting up ip1
I0501 20:55:30.276188 14650 net.cpp:151] Top shape: 20 64 (1280)
I0501 20:55:30.276192 14650 net.cpp:159] Memory required for data: 26824240
I0501 20:55:30.276197 14650 layer_factory.hpp:77] Creating layer ip2
I0501 20:55:30.276203 14650 net.cpp:94] Creating Layer ip2
I0501 20:55:30.276206 14650 net.cpp:435] ip2 <- ip1
I0501 20:55:30.276211 14650 net.cpp:409] ip2 -> ip2
I0501 20:55:30.276376 14650 net.cpp:144] Setting up ip2
I0501 20:55:30.276383 14650 net.cpp:151] Top shape: 20 64 (1280)
I0501 20:55:30.276386 14650 net.cpp:159] Memory required for data: 26829360
I0501 20:55:30.276391 14650 layer_factory.hpp:77] Creating layer ip3
I0501 20:55:30.276397 14650 net.cpp:94] Creating Layer ip3
I0501 20:55:30.276401 14650 net.cpp:435] ip3 <- ip2
I0501 20:55:30.276406 14650 net.cpp:409] ip3 -> ip3
I0501 20:55:30.276553 14650 net.cpp:144] Setting up ip3
I0501 20:55:30.276571 14650 net.cpp:151] Top shape: 20 50 (1000)
I0501 20:55:30.276576 14650 net.cpp:159] Memory required for data: 26833360
I0501 20:55:30.276581 14650 layer_factory.hpp:77] Creating layer ip3_ip3_0_split
I0501 20:55:30.276584 14650 net.cpp:94] Creating Layer ip3_ip3_0_split
I0501 20:55:30.276588 14650 net.cpp:435] ip3_ip3_0_split <- ip3
I0501 20:55:30.276592 14650 net.cpp:409] ip3_ip3_0_split -> ip3_ip3_0_split_0
I0501 20:55:30.276598 14650 net.cpp:409] ip3_ip3_0_split -> ip3_ip3_0_split_1
I0501 20:55:30.276623 14650 net.cpp:144] Setting up ip3_ip3_0_split
I0501 20:55:30.276629 14650 net.cpp:151] Top shape: 20 50 (1000)
I0501 20:55:30.276633 14650 net.cpp:151] Top shape: 20 50 (1000)
I0501 20:55:30.276636 14650 net.cpp:159] Memory required for data: 26841360
I0501 20:55:30.276639 14650 layer_factory.hpp:77] Creating layer accuracy
I0501 20:55:30.276644 14650 net.cpp:94] Creating Layer accuracy
I0501 20:55:30.276648 14650 net.cpp:435] accuracy <- ip3_ip3_0_split_0
I0501 20:55:30.276653 14650 net.cpp:435] accuracy <- label_intercept_1_split_0
I0501 20:55:30.276656 14650 net.cpp:409] accuracy -> accuracy
…
