…
I0507 00:04:39.032471 29326 net.cpp:323] The NetState phase (0) differed from the phase (1) specified by a rule in layer intercept
I0507 00:04:39.032487 29326 net.cpp:323] The NetState phase (0) differed from the phase (1) specified by a rule in layer loss
I0507 00:04:39.032584 29326 net.cpp:52] Initializing net from parameters: 
state {
  phase: TRAIN
}
layer {
  name: "parameters"
  type: "HDF5Data"
  top: "data"
  top: "label"
  include {
    phase: TRAIN
  }
  hdf5_data_param {
    source: "/home/purduethu/scratch/radon/d/deng106/CNNStatisticalModel/distributions/input/50_distributions_100_sample_size_train-parameters-path.txt"
    batch_size: 20
  }
}
layer {
  name: "conv1"
  type: "Convolution"
  bottom: "data"
  top: "conv1"
  param {
    lr_mult: 1
  }
  param {
    lr_mult: 2
  }
  convolution_param {
    num_output: 64
    pad: 2
    kernel_size: 5
    stride: 1
    weight_filler {
      type: "gaussian"
      std: 0.0001
    }
    bias_filler {
      type: "constant"
    }
  }
}
layer {
  name: "relu1"
  type: "ReLU"
  bottom: "conv1"
  top: "conv1"
}
layer {
  name: "conv2"
  type: "Convolution"
  bottom: "conv1"
  top: "conv2"
  param {
    lr_mult: 1
  }
  param {
    lr_mult: 2
  }
  convolution_param {
    num_output: 64
    pad: 2
    kernel_size: 5
    stride: 1
    weight_filler {
      type: "gaussian"
      std: 0.01
    }
    bias_filler {
      type: "constant"
    }
  }
}
layer {
  name: "relu2"
  type: "ReLU"
  bottom: "conv2"
  top: "conv2"
}
layer {
  name: "pool2"
  type: "Pooling"
  bottom: "conv2"
  top: "pool2"
  pooling_param {
    pool: MAX
    kernel_size: 3
    stride: 2
  }
}
layer {
  name: "conv3"
  type: "Convolution"
  bottom: "pool2"
  top: "conv3"
  param {
    lr_mult: 1
  }
  param {
    lr_mult: 2
  }
  convolution_param {
    num_output: 64
    pad: 2
    kernel_size: 5
    stride: 1
    weight_filler {
      type: "gaussian"
      std: 0.01
    }
    bias_filler {
      type: "constant"
    }
  }
}
layer {
  name: "relu3"
  type: "ReLU"
  bottom: "conv3"
  top: "conv3"
}
layer {
  name: "conv4"
  type: "Convolution"
  bottom: "conv3"
  top: "conv4"
  param {
    lr_mult: 1
  }
  param {
    lr_mult: 2
  }
  convolution_param {
    num_output: 64
    pad: 2
    kernel_size: 5
    stride: 1
    weight_filler {
      type: "gaussian"
      std: 0.01
    }
    bias_filler {
      type: "constant"
    }
  }
}
layer {
  name: "relu4"
  type: "ReLU"
  bottom: "conv4"
  top: "conv4"
}
layer {
  name: "conv5"
  type: "Convolution"
  bottom: "conv4"
  top: "conv5"
  param {
    lr_mult: 1
  }
  param {
    lr_mult: 2
  }
  convolution_param {
    num_output: 64
    pad: 2
    kernel_size: 5
    stride: 1
    weight_filler {
      type: "gaussian"
      std: 0.01
    }
    bias_filler {
      type: "constant"
    }
  }
}
layer {
  name: "relu5"
  type: "ReLU"
  bottom: "conv5"
  top: "conv5"
}
layer {
  name: "pool5"
  type: "Pooling"
  bottom: "conv5"
  top: "pool5"
  pooling_param {
    pool: AVE
    kernel_size: 3
    stride: 2
  }
}
layer {
  name: "ip1"
  type: "InnerProduct"
  bottom: "pool5"
  top: "ip1"
  param {
    lr_mult: 1
  }
  param {
    lr_mult: 2
  }
  inner_product_param {
    num_output: 64
    weight_filler {
      type: "gaussian"
      std: 0.1
    }
    bias_filler {
      type: "constant"
    }
  }
}
layer {
  name: "ip2"
  type: "InnerProduct"
  bottom: "ip1"
  top: "ip2"
  param {
    lr_mult: 1
  }
  param {
    lr_mult: 2
  }
  inner_product_param {
    num_output: 64
    weight_filler {
      type: "gaussian"
      std: 0.1
    }
    bias_filler {
      type: "constant"
    }
  }
}
layer {
  name: "ip3"
  type: "InnerProduct"
  bottom: "ip2"
  top: "ip3"
  param {
    lr_mult: 1
  }
  param {
    lr_mult: 2
  }
  inner_product_param {
    num_output: 1
    weight_filler {
      type: "gaussian"
      std: 0.1
    }
    bias_filler {
      type: "constant"
    }
  }
}
layer {
  name: "loss"
  type: "HuberLoss"
  bottom: "ip3"
  bottom: "label"
  top: "loss"
  include {
    phase: TRAIN
  }
}
I0507 00:04:39.032640 29326 layer_factory.hpp:77] Creating layer parameters
I0507 00:04:39.032655 29326 net.cpp:94] Creating Layer parameters
I0507 00:04:39.032660 29326 net.cpp:409] parameters -> data
I0507 00:04:39.032668 29326 net.cpp:409] parameters -> label
I0507 00:04:39.032678 29326 hdf5_data_layer.cpp:79] Loading list of HDF5 filenames from: /home/purduethu/scratch/radon/d/deng106/CNNStatisticalModel/distributions/input/50_distributions_100_sample_size_train-parameters-path.txt
I0507 00:04:39.032694 29326 hdf5_data_layer.cpp:93] Number of HDF5 files: 1
I0507 00:04:39.033221 29326 hdf5.cpp:32] Datatype class: H5T_FLOAT
I0507 00:04:39.197865 29326 net.cpp:144] Setting up parameters
I0507 00:04:39.197893 29326 net.cpp:151] Top shape: 20 1 10 10 (2000)
I0507 00:04:39.197898 29326 net.cpp:151] Top shape: 20 (20)
I0507 00:04:39.197902 29326 net.cpp:159] Memory required for data: 8080
I0507 00:04:39.197907 29326 layer_factory.hpp:77] Creating layer conv1
I0507 00:04:39.197927 29326 net.cpp:94] Creating Layer conv1
I0507 00:04:39.197932 29326 net.cpp:435] conv1 <- data
I0507 00:04:39.197938 29326 net.cpp:409] conv1 -> conv1
I0507 00:04:39.202052 29326 net.cpp:144] Setting up conv1
I0507 00:04:39.202067 29326 net.cpp:151] Top shape: 20 64 10 10 (128000)
I0507 00:04:39.202071 29326 net.cpp:159] Memory required for data: 520080
I0507 00:04:39.202080 29326 layer_factory.hpp:77] Creating layer relu1
I0507 00:04:39.202088 29326 net.cpp:94] Creating Layer relu1
I0507 00:04:39.202092 29326 net.cpp:435] relu1 <- conv1
I0507 00:04:39.202096 29326 net.cpp:396] relu1 -> conv1 (in-place)
I0507 00:04:39.202107 29326 net.cpp:144] Setting up relu1
I0507 00:04:39.202112 29326 net.cpp:151] Top shape: 20 64 10 10 (128000)
I0507 00:04:39.202114 29326 net.cpp:159] Memory required for data: 1032080
I0507 00:04:39.202118 29326 layer_factory.hpp:77] Creating layer conv2
I0507 00:04:39.202126 29326 net.cpp:94] Creating Layer conv2
I0507 00:04:39.202129 29326 net.cpp:435] conv2 <- conv1
I0507 00:04:39.202134 29326 net.cpp:409] conv2 -> conv2
I0507 00:04:39.208149 29326 net.cpp:144] Setting up conv2
I0507 00:04:39.208163 29326 net.cpp:151] Top shape: 20 64 10 10 (128000)
I0507 00:04:39.208168 29326 net.cpp:159] Memory required for data: 1544080
I0507 00:04:39.208174 29326 layer_factory.hpp:77] Creating layer relu2
I0507 00:04:39.208181 29326 net.cpp:94] Creating Layer relu2
I0507 00:04:39.208184 29326 net.cpp:435] relu2 <- conv2
I0507 00:04:39.208189 29326 net.cpp:396] relu2 -> conv2 (in-place)
I0507 00:04:39.208196 29326 net.cpp:144] Setting up relu2
I0507 00:04:39.208200 29326 net.cpp:151] Top shape: 20 64 10 10 (128000)
I0507 00:04:39.208204 29326 net.cpp:159] Memory required for data: 2056080
I0507 00:04:39.208206 29326 layer_factory.hpp:77] Creating layer pool2
I0507 00:04:39.208212 29326 net.cpp:94] Creating Layer pool2
I0507 00:04:39.208215 29326 net.cpp:435] pool2 <- conv2
I0507 00:04:39.208220 29326 net.cpp:409] pool2 -> pool2
I0507 00:04:39.208276 29326 net.cpp:144] Setting up pool2
I0507 00:04:39.208282 29326 net.cpp:151] Top shape: 20 64 5 5 (32000)
I0507 00:04:39.208286 29326 net.cpp:159] Memory required for data: 2184080
I0507 00:04:39.208289 29326 layer_factory.hpp:77] Creating layer conv3
I0507 00:04:39.208297 29326 net.cpp:94] Creating Layer conv3
I0507 00:04:39.208300 29326 net.cpp:435] conv3 <- pool2
I0507 00:04:39.208312 29326 net.cpp:409] conv3 -> conv3
I0507 00:04:39.213158 29326 net.cpp:144] Setting up conv3
I0507 00:04:39.213172 29326 net.cpp:151] Top shape: 20 64 5 5 (32000)
I0507 00:04:39.213176 29326 net.cpp:159] Memory required for data: 2312080
I0507 00:04:39.213184 29326 layer_factory.hpp:77] Creating layer relu3
I0507 00:04:39.213191 29326 net.cpp:94] Creating Layer relu3
I0507 00:04:39.213193 29326 net.cpp:435] relu3 <- conv3
I0507 00:04:39.213197 29326 net.cpp:396] relu3 -> conv3 (in-place)
I0507 00:04:39.213204 29326 net.cpp:144] Setting up relu3
I0507 00:04:39.213208 29326 net.cpp:151] Top shape: 20 64 5 5 (32000)
I0507 00:04:39.213212 29326 net.cpp:159] Memory required for data: 2440080
I0507 00:04:39.213214 29326 layer_factory.hpp:77] Creating layer conv4
I0507 00:04:39.213223 29326 net.cpp:94] Creating Layer conv4
I0507 00:04:39.213227 29326 net.cpp:435] conv4 <- conv3
I0507 00:04:39.213232 29326 net.cpp:409] conv4 -> conv4
I0507 00:04:39.217631 29326 net.cpp:144] Setting up conv4
I0507 00:04:39.217644 29326 net.cpp:151] Top shape: 20 64 5 5 (32000)
I0507 00:04:39.217648 29326 net.cpp:159] Memory required for data: 2568080
I0507 00:04:39.217654 29326 layer_factory.hpp:77] Creating layer relu4
I0507 00:04:39.217660 29326 net.cpp:94] Creating Layer relu4
I0507 00:04:39.217664 29326 net.cpp:435] relu4 <- conv4
I0507 00:04:39.217669 29326 net.cpp:396] relu4 -> conv4 (in-place)
I0507 00:04:39.217675 29326 net.cpp:144] Setting up relu4
I0507 00:04:39.217679 29326 net.cpp:151] Top shape: 20 64 5 5 (32000)
I0507 00:04:39.217682 29326 net.cpp:159] Memory required for data: 2696080
I0507 00:04:39.217685 29326 layer_factory.hpp:77] Creating layer conv5
I0507 00:04:39.217692 29326 net.cpp:94] Creating Layer conv5
I0507 00:04:39.217695 29326 net.cpp:435] conv5 <- conv4
I0507 00:04:39.217700 29326 net.cpp:409] conv5 -> conv5
I0507 00:04:39.222569 29326 net.cpp:144] Setting up conv5
I0507 00:04:39.222584 29326 net.cpp:151] Top shape: 20 64 5 5 (32000)
I0507 00:04:39.222587 29326 net.cpp:159] Memory required for data: 2824080
I0507 00:04:39.222595 29326 layer_factory.hpp:77] Creating layer relu5
I0507 00:04:39.222601 29326 net.cpp:94] Creating Layer relu5
I0507 00:04:39.222604 29326 net.cpp:435] relu5 <- conv5
I0507 00:04:39.222609 29326 net.cpp:396] relu5 -> conv5 (in-place)
I0507 00:04:39.222615 29326 net.cpp:144] Setting up relu5
I0507 00:04:39.222620 29326 net.cpp:151] Top shape: 20 64 5 5 (32000)
I0507 00:04:39.222623 29326 net.cpp:159] Memory required for data: 2952080
I0507 00:04:39.222625 29326 layer_factory.hpp:77] Creating layer pool5
I0507 00:04:39.222630 29326 net.cpp:94] Creating Layer pool5
I0507 00:04:39.222633 29326 net.cpp:435] pool5 <- conv5
I0507 00:04:39.222637 29326 net.cpp:409] pool5 -> pool5
I0507 00:04:39.222677 29326 net.cpp:144] Setting up pool5
I0507 00:04:39.222685 29326 net.cpp:151] Top shape: 20 64 2 2 (5120)
I0507 00:04:39.222688 29326 net.cpp:159] Memory required for data: 2972560
I0507 00:04:39.222692 29326 layer_factory.hpp:77] Creating layer ip1
I0507 00:04:39.222700 29326 net.cpp:94] Creating Layer ip1
I0507 00:04:39.222704 29326 net.cpp:435] ip1 <- pool5
I0507 00:04:39.222708 29326 net.cpp:409] ip1 -> ip1
I0507 00:04:39.224035 29326 net.cpp:144] Setting up ip1
I0507 00:04:39.224048 29326 net.cpp:151] Top shape: 20 64 (1280)
I0507 00:04:39.224051 29326 net.cpp:159] Memory required for data: 2977680
I0507 00:04:39.224057 29326 layer_factory.hpp:77] Creating layer ip2
I0507 00:04:39.224064 29326 net.cpp:94] Creating Layer ip2
I0507 00:04:39.224068 29326 net.cpp:435] ip2 <- ip1
I0507 00:04:39.224073 29326 net.cpp:409] ip2 -> ip2
I0507 00:04:39.224287 29326 net.cpp:144] Setting up ip2
I0507 00:04:39.224293 29326 net.cpp:151] Top shape: 20 64 (1280)
I0507 00:04:39.224297 29326 net.cpp:159] Memory required for data: 2982800
I0507 00:04:39.224303 29326 layer_factory.hpp:77] Creating layer ip3
I0507 00:04:39.224308 29326 net.cpp:94] Creating Layer ip3
I0507 00:04:39.224311 29326 net.cpp:435] ip3 <- ip2
I0507 00:04:39.224315 29326 net.cpp:409] ip3 -> ip3
I0507 00:04:39.224427 29326 net.cpp:144] Setting up ip3
I0507 00:04:39.224434 29326 net.cpp:151] Top shape: 20 1 (20)
I0507 00:04:39.224437 29326 net.cpp:159] Memory required for data: 2982880
I0507 00:04:39.224442 29326 layer_factory.hpp:77] Creating layer loss
I0507 00:04:39.224449 29326 net.cpp:94] Creating Layer loss
I0507 00:04:39.224453 29326 net.cpp:435] loss <- ip3
I0507 00:04:39.224457 29326 net.cpp:435] loss <- label
I0507 00:04:39.224462 29326 net.cpp:409] loss -> loss
I0507 00:04:39.224512 29326 net.cpp:144] Setting up loss
…
I0507 00:04:39.286355 29326 net.cpp:323] The NetState phase (0) differed from the phase (1) specified by a rule in layer intercept
I0507 00:04:39.286370 29326 net.cpp:323] The NetState phase (0) differed from the phase (1) specified by a rule in layer accuracy
I0507 00:04:39.286458 29326 net.cpp:52] Initializing net from parameters: 
state {
  phase: TRAIN
}
layer {
  name: "parameters"
  type: "HDF5Data"
  top: "data"
  top: "label"
  include {
    phase: TRAIN
  }
  hdf5_data_param {
    source: "/home/purduethu/scratch/radon/d/deng106/CNNStatisticalModel/distributions/input/50_distributions_100_sample_size_train-distributions-path.txt"
    batch_size: 20
  }
}
layer {
  name: "conv1"
  type: "Convolution"
  bottom: "data"
  top: "conv1"
  param {
    lr_mult: 1
  }
  param {
    lr_mult: 2
  }
  convolution_param {
    num_output: 64
    pad: 2
    kernel_size: 5
    stride: 1
    weight_filler {
      type: "gaussian"
      std: 0.0001
    }
    bias_filler {
      type: "constant"
    }
  }
}
layer {
  name: "relu1"
  type: "ReLU"
  bottom: "conv1"
  top: "conv1"
}
layer {
  name: "conv2"
  type: "Convolution"
  bottom: "conv1"
  top: "conv2"
  param {
    lr_mult: 1
  }
  param {
    lr_mult: 2
  }
  convolution_param {
    num_output: 64
    pad: 2
    kernel_size: 5
    stride: 1
    weight_filler {
      type: "gaussian"
      std: 0.01
    }
    bias_filler {
      type: "constant"
    }
  }
}
layer {
  name: "relu2"
  type: "ReLU"
  bottom: "conv2"
  top: "conv2"
}
layer {
  name: "pool2"
  type: "Pooling"
  bottom: "conv2"
  top: "pool2"
  pooling_param {
    pool: MAX
    kernel_size: 3
    stride: 2
  }
}
layer {
  name: "conv3"
  type: "Convolution"
  bottom: "pool2"
  top: "conv3"
  param {
    lr_mult: 1
  }
  param {
    lr_mult: 2
  }
  convolution_param {
    num_output: 64
    pad: 2
    kernel_size: 5
    stride: 1
    weight_filler {
      type: "gaussian"
      std: 0.01
    }
    bias_filler {
      type: "constant"
    }
  }
}
layer {
  name: "relu3"
  type: "ReLU"
  bottom: "conv3"
  top: "conv3"
}
layer {
  name: "conv4"
  type: "Convolution"
  bottom: "conv3"
  top: "conv4"
  param {
    lr_mult: 1
  }
  param {
    lr_mult: 2
  }
  convolution_param {
    num_output: 64
    pad: 2
    kernel_size: 5
    stride: 1
    weight_filler {
      type: "gaussian"
      std: 0.01
    }
    bias_filler {
      type: "constant"
    }
  }
}
layer {
  name: "relu4"
  type: "ReLU"
  bottom: "conv4"
  top: "conv4"
}
layer {
  name: "conv5"
  type: "Convolution"
  bottom: "conv4"
  top: "conv5"
  param {
    lr_mult: 1
  }
  param {
    lr_mult: 2
  }
  convolution_param {
    num_output: 64
    pad: 2
    kernel_size: 5
    stride: 1
    weight_filler {
      type: "gaussian"
      std: 0.01
    }
    bias_filler {
      type: "constant"
    }
  }
}
layer {
  name: "relu5"
  type: "ReLU"
  bottom: "conv5"
  top: "conv5"
}
layer {
  name: "pool5"
  type: "Pooling"
  bottom: "conv5"
  top: "pool5"
  pooling_param {
    pool: AVE
    kernel_size: 3
    stride: 2
  }
}
layer {
  name: "ip1"
  type: "InnerProduct"
  bottom: "pool5"
  top: "ip1"
  param {
    lr_mult: 1
  }
  param {
    lr_mult: 2
  }
  inner_product_param {
    num_output: 64
    weight_filler {
      type: "gaussian"
      std: 0.1
    }
    bias_filler {
      type: "constant"
    }
  }
}
layer {
  name: "ip2"
  type: "InnerProduct"
  bottom: "ip1"
  top: "ip2"
  param {
    lr_mult: 1
  }
  param {
    lr_mult: 2
  }
  inner_product_param {
    num_output: 64
    weight_filler {
      type: "gaussian"
      std: 0.1
    }
    bias_filler {
      type: "constant"
    }
  }
}
layer {
  name: "ip3"
  type: "InnerProduct"
  bottom: "ip2"
  top: "ip3"
  param {
    lr_mult: 1
  }
  param {
    lr_mult: 2
  }
  inner_product_param {
    num_output: 50
    weight_filler {
      type: "gaussian"
      std: 0.1
    }
    bias_filler {
      type: "constant"
    }
  }
}
layer {
  name: "loss"
  type: "SoftmaxWithLoss"
  bottom: "ip3"
  bottom: "label"
  top: "loss"
}
I0507 00:04:39.286510 29326 layer_factory.hpp:77] Creating layer parameters
I0507 00:04:39.286519 29326 net.cpp:94] Creating Layer parameters
I0507 00:04:39.286522 29326 net.cpp:409] parameters -> data
I0507 00:04:39.286528 29326 net.cpp:409] parameters -> label
I0507 00:04:39.286535 29326 hdf5_data_layer.cpp:79] Loading list of HDF5 filenames from: /home/purduethu/scratch/radon/d/deng106/CNNStatisticalModel/distributions/input/50_distributions_100_sample_size_train-distributions-path.txt
I0507 00:04:39.286550 29326 hdf5_data_layer.cpp:93] Number of HDF5 files: 1
I0507 00:04:39.441774 29326 hdf5.cpp:35] Datatype class: H5T_INTEGER
I0507 00:04:39.444771 29326 net.cpp:144] Setting up parameters
I0507 00:04:39.444787 29326 net.cpp:151] Top shape: 20 1 10 10 (2000)
I0507 00:04:39.444792 29326 net.cpp:151] Top shape: 20 (20)
I0507 00:04:39.444797 29326 net.cpp:159] Memory required for data: 8080
I0507 00:04:39.444802 29326 layer_factory.hpp:77] Creating layer conv1
I0507 00:04:39.444818 29326 net.cpp:94] Creating Layer conv1
I0507 00:04:39.444823 29326 net.cpp:435] conv1 <- data
I0507 00:04:39.444829 29326 net.cpp:409] conv1 -> conv1
I0507 00:04:39.446638 29326 net.cpp:144] Setting up conv1
I0507 00:04:39.446652 29326 net.cpp:151] Top shape: 20 64 10 10 (128000)
I0507 00:04:39.446656 29326 net.cpp:159] Memory required for data: 520080
I0507 00:04:39.446666 29326 layer_factory.hpp:77] Creating layer relu1
I0507 00:04:39.446672 29326 net.cpp:94] Creating Layer relu1
I0507 00:04:39.446676 29326 net.cpp:435] relu1 <- conv1
I0507 00:04:39.446681 29326 net.cpp:396] relu1 -> conv1 (in-place)
I0507 00:04:39.446687 29326 net.cpp:144] Setting up relu1
I0507 00:04:39.446691 29326 net.cpp:151] Top shape: 20 64 10 10 (128000)
I0507 00:04:39.446694 29326 net.cpp:159] Memory required for data: 1032080
I0507 00:04:39.446697 29326 layer_factory.hpp:77] Creating layer conv2
I0507 00:04:39.446705 29326 net.cpp:94] Creating Layer conv2
I0507 00:04:39.446708 29326 net.cpp:435] conv2 <- conv1
I0507 00:04:39.446713 29326 net.cpp:409] conv2 -> conv2
I0507 00:04:39.452019 29326 net.cpp:144] Setting up conv2
I0507 00:04:39.452033 29326 net.cpp:151] Top shape: 20 64 10 10 (128000)
I0507 00:04:39.452036 29326 net.cpp:159] Memory required for data: 1544080
I0507 00:04:39.452044 29326 layer_factory.hpp:77] Creating layer relu2
I0507 00:04:39.452051 29326 net.cpp:94] Creating Layer relu2
I0507 00:04:39.452054 29326 net.cpp:435] relu2 <- conv2
I0507 00:04:39.452059 29326 net.cpp:396] relu2 -> conv2 (in-place)
I0507 00:04:39.452065 29326 net.cpp:144] Setting up relu2
I0507 00:04:39.452069 29326 net.cpp:151] Top shape: 20 64 10 10 (128000)
I0507 00:04:39.452072 29326 net.cpp:159] Memory required for data: 2056080
I0507 00:04:39.452075 29326 layer_factory.hpp:77] Creating layer pool2
I0507 00:04:39.452081 29326 net.cpp:94] Creating Layer pool2
I0507 00:04:39.452085 29326 net.cpp:435] pool2 <- conv2
I0507 00:04:39.452088 29326 net.cpp:409] pool2 -> pool2
I0507 00:04:39.452142 29326 net.cpp:144] Setting up pool2
I0507 00:04:39.452149 29326 net.cpp:151] Top shape: 20 64 5 5 (32000)
I0507 00:04:39.452153 29326 net.cpp:159] Memory required for data: 2184080
I0507 00:04:39.452157 29326 layer_factory.hpp:77] Creating layer conv3
I0507 00:04:39.452163 29326 net.cpp:94] Creating Layer conv3
I0507 00:04:39.452167 29326 net.cpp:435] conv3 <- pool2
I0507 00:04:39.452172 29326 net.cpp:409] conv3 -> conv3
I0507 00:04:39.457852 29326 net.cpp:144] Setting up conv3
I0507 00:04:39.457866 29326 net.cpp:151] Top shape: 20 64 5 5 (32000)
I0507 00:04:39.457870 29326 net.cpp:159] Memory required for data: 2312080
I0507 00:04:39.457878 29326 layer_factory.hpp:77] Creating layer relu3
I0507 00:04:39.457885 29326 net.cpp:94] Creating Layer relu3
I0507 00:04:39.457887 29326 net.cpp:435] relu3 <- conv3
I0507 00:04:39.457891 29326 net.cpp:396] relu3 -> conv3 (in-place)
I0507 00:04:39.457898 29326 net.cpp:144] Setting up relu3
I0507 00:04:39.457902 29326 net.cpp:151] Top shape: 20 64 5 5 (32000)
I0507 00:04:39.457911 29326 net.cpp:159] Memory required for data: 2440080
I0507 00:04:39.457916 29326 layer_factory.hpp:77] Creating layer conv4
I0507 00:04:39.457923 29326 net.cpp:94] Creating Layer conv4
I0507 00:04:39.457927 29326 net.cpp:435] conv4 <- conv3
I0507 00:04:39.457931 29326 net.cpp:409] conv4 -> conv4
I0507 00:04:39.462824 29326 net.cpp:144] Setting up conv4
I0507 00:04:39.462838 29326 net.cpp:151] Top shape: 20 64 5 5 (32000)
I0507 00:04:39.462842 29326 net.cpp:159] Memory required for data: 2568080
I0507 00:04:39.462848 29326 layer_factory.hpp:77] Creating layer relu4
I0507 00:04:39.462854 29326 net.cpp:94] Creating Layer relu4
I0507 00:04:39.462857 29326 net.cpp:435] relu4 <- conv4
I0507 00:04:39.462862 29326 net.cpp:396] relu4 -> conv4 (in-place)
I0507 00:04:39.462868 29326 net.cpp:144] Setting up relu4
I0507 00:04:39.462872 29326 net.cpp:151] Top shape: 20 64 5 5 (32000)
I0507 00:04:39.462875 29326 net.cpp:159] Memory required for data: 2696080
I0507 00:04:39.462878 29326 layer_factory.hpp:77] Creating layer conv5
I0507 00:04:39.462887 29326 net.cpp:94] Creating Layer conv5
I0507 00:04:39.462889 29326 net.cpp:435] conv5 <- conv4
I0507 00:04:39.462894 29326 net.cpp:409] conv5 -> conv5
I0507 00:04:39.467308 29326 net.cpp:144] Setting up conv5
I0507 00:04:39.467320 29326 net.cpp:151] Top shape: 20 64 5 5 (32000)
I0507 00:04:39.467324 29326 net.cpp:159] Memory required for data: 2824080
I0507 00:04:39.467332 29326 layer_factory.hpp:77] Creating layer relu5
I0507 00:04:39.467339 29326 net.cpp:94] Creating Layer relu5
I0507 00:04:39.467342 29326 net.cpp:435] relu5 <- conv5
I0507 00:04:39.467346 29326 net.cpp:396] relu5 -> conv5 (in-place)
I0507 00:04:39.467352 29326 net.cpp:144] Setting up relu5
I0507 00:04:39.467357 29326 net.cpp:151] Top shape: 20 64 5 5 (32000)
I0507 00:04:39.467360 29326 net.cpp:159] Memory required for data: 2952080
I0507 00:04:39.467363 29326 layer_factory.hpp:77] Creating layer pool5
I0507 00:04:39.467368 29326 net.cpp:94] Creating Layer pool5
I0507 00:04:39.467371 29326 net.cpp:435] pool5 <- conv5
I0507 00:04:39.467375 29326 net.cpp:409] pool5 -> pool5
I0507 00:04:39.467411 29326 net.cpp:144] Setting up pool5
I0507 00:04:39.467418 29326 net.cpp:151] Top shape: 20 64 2 2 (5120)
I0507 00:04:39.467422 29326 net.cpp:159] Memory required for data: 2972560
I0507 00:04:39.467425 29326 layer_factory.hpp:77] Creating layer ip1
I0507 00:04:39.467432 29326 net.cpp:94] Creating Layer ip1
I0507 00:04:39.467434 29326 net.cpp:435] ip1 <- pool5
I0507 00:04:39.467439 29326 net.cpp:409] ip1 -> ip1
I0507 00:04:39.467960 29326 net.cpp:144] Setting up ip1
I0507 00:04:39.467968 29326 net.cpp:151] Top shape: 20 64 (1280)
I0507 00:04:39.467972 29326 net.cpp:159] Memory required for data: 2977680
I0507 00:04:39.467977 29326 layer_factory.hpp:77] Creating layer ip2
I0507 00:04:39.467983 29326 net.cpp:94] Creating Layer ip2
I0507 00:04:39.467986 29326 net.cpp:435] ip2 <- ip1
I0507 00:04:39.467990 29326 net.cpp:409] ip2 -> ip2
I0507 00:04:39.468215 29326 net.cpp:144] Setting up ip2
I0507 00:04:39.468222 29326 net.cpp:151] Top shape: 20 64 (1280)
I0507 00:04:39.468225 29326 net.cpp:159] Memory required for data: 2982800
I0507 00:04:39.468230 29326 layer_factory.hpp:77] Creating layer ip3
I0507 00:04:39.468236 29326 net.cpp:94] Creating Layer ip3
I0507 00:04:39.468240 29326 net.cpp:435] ip3 <- ip2
I0507 00:04:39.468245 29326 net.cpp:409] ip3 -> ip3
I0507 00:04:39.468443 29326 net.cpp:144] Setting up ip3
I0507 00:04:39.468451 29326 net.cpp:151] Top shape: 20 50 (1000)
I0507 00:04:39.468453 29326 net.cpp:159] Memory required for data: 2986800
I0507 00:04:39.468458 29326 layer_factory.hpp:77] Creating layer loss
I0507 00:04:39.468464 29326 net.cpp:94] Creating Layer loss
I0507 00:04:39.468467 29326 net.cpp:435] loss <- ip3
I0507 00:04:39.468472 29326 net.cpp:435] loss <- label
I0507 00:04:39.468475 29326 net.cpp:409] loss -> loss
I0507 00:04:39.468482 29326 layer_factory.hpp:77] Creating layer loss
…
I0507 00:04:39.469836 29326 solver.cpp:181] Creating test net (#0) specified by net file: ./protocol/dis_50_100_dimension.protocol_distribution
I0507 00:04:39.469863 29326 net.cpp:323] The NetState phase (1) differed from the phase (0) specified by a rule in layer parameters
I0507 00:04:39.469959 29326 net.cpp:52] Initializing net from parameters: 
state {
  phase: TEST
}
layer {
  name: "intercept"
  type: "HDF5Data"
  top: "data"
  top: "label"
  include {
    phase: TEST
  }
  hdf5_data_param {
    source: "/home/purduethu/scratch/radon/d/deng106/CNNStatisticalModel/distributions/input/50_distributions_100_sample_size_test-distributions-path.txt"
    batch_size: 20
  }
}
layer {
  name: "conv1"
  type: "Convolution"
  bottom: "data"
  top: "conv1"
  param {
    lr_mult: 1
  }
  param {
    lr_mult: 2
  }
  convolution_param {
    num_output: 64
    pad: 2
    kernel_size: 5
    stride: 1
    weight_filler {
      type: "gaussian"
      std: 0.0001
    }
    bias_filler {
      type: "constant"
    }
  }
}
layer {
  name: "relu1"
  type: "ReLU"
  bottom: "conv1"
  top: "conv1"
}
layer {
  name: "conv2"
  type: "Convolution"
  bottom: "conv1"
  top: "conv2"
  param {
    lr_mult: 1
  }
  param {
    lr_mult: 2
  }
  convolution_param {
    num_output: 64
    pad: 2
    kernel_size: 5
    stride: 1
    weight_filler {
      type: "gaussian"
      std: 0.01
    }
    bias_filler {
      type: "constant"
    }
  }
}
layer {
  name: "relu2"
  type: "ReLU"
  bottom: "conv2"
  top: "conv2"
}
layer {
  name: "pool2"
  type: "Pooling"
  bottom: "conv2"
  top: "pool2"
  pooling_param {
    pool: MAX
    kernel_size: 3
    stride: 2
  }
}
layer {
  name: "conv3"
  type: "Convolution"
  bottom: "pool2"
  top: "conv3"
  param {
    lr_mult: 1
  }
  param {
    lr_mult: 2
  }
  convolution_param {
    num_output: 64
    pad: 2
    kernel_size: 5
    stride: 1
    weight_filler {
      type: "gaussian"
      std: 0.01
    }
    bias_filler {
      type: "constant"
    }
  }
}
layer {
  name: "relu3"
  type: "ReLU"
  bottom: "conv3"
  top: "conv3"
}
layer {
  name: "conv4"
  type: "Convolution"
  bottom: "conv3"
  top: "conv4"
  param {
    lr_mult: 1
  }
  param {
    lr_mult: 2
  }
  convolution_param {
    num_output: 64
    pad: 2
    kernel_size: 5
    stride: 1
    weight_filler {
      type: "gaussian"
      std: 0.01
    }
    bias_filler {
      type: "constant"
    }
  }
}
layer {
  name: "relu4"
  type: "ReLU"
  bottom: "conv4"
  top: "conv4"
}
layer {
  name: "conv5"
  type: "Convolution"
  bottom: "conv4"
  top: "conv5"
  param {
    lr_mult: 1
  }
  param {
    lr_mult: 2
  }
  convolution_param {
    num_output: 64
    pad: 2
    kernel_size: 5
    stride: 1
    weight_filler {
      type: "gaussian"
      std: 0.01
    }
    bias_filler {
      type: "constant"
    }
  }
}
layer {
  name: "relu5"
  type: "ReLU"
  bottom: "conv5"
  top: "conv5"
}
layer {
  name: "pool5"
  type: "Pooling"
  bottom: "conv5"
  top: "pool5"
  pooling_param {
    pool: AVE
    kernel_size: 3
    stride: 2
  }
}
layer {
  name: "ip1"
  type: "InnerProduct"
  bottom: "pool5"
  top: "ip1"
  param {
    lr_mult: 1
  }
  param {
    lr_mult: 2
  }
  inner_product_param {
    num_output: 64
    weight_filler {
      type: "gaussian"
      std: 0.1
    }
    bias_filler {
      type: "constant"
    }
  }
}
layer {
  name: "ip2"
  type: "InnerProduct"
  bottom: "ip1"
  top: "ip2"
  param {
    lr_mult: 1
  }
  param {
    lr_mult: 2
  }
  inner_product_param {
    num_output: 64
    weight_filler {
      type: "gaussian"
      std: 0.1
    }
    bias_filler {
      type: "constant"
    }
  }
}
layer {
  name: "ip3"
  type: "InnerProduct"
  bottom: "ip2"
  top: "ip3"
  param {
    lr_mult: 1
  }
  param {
    lr_mult: 2
  }
  inner_product_param {
    num_output: 50
    weight_filler {
      type: "gaussian"
      std: 0.1
    }
    bias_filler {
      type: "constant"
    }
  }
}
layer {
  name: "accuracy"
  type: "Accuracy"
  bottom: "ip3"
  bottom: "label"
  top: "accuracy"
  include {
    phase: TEST
  }
}
layer {
  name: "loss"
  type: "SoftmaxWithLoss"
  bottom: "ip3"
  bottom: "label"
  top: "loss"
}
I0507 00:04:39.470022 29326 layer_factory.hpp:77] Creating layer intercept
I0507 00:04:39.470031 29326 net.cpp:94] Creating Layer intercept
I0507 00:04:39.470036 29326 net.cpp:409] intercept -> data
I0507 00:04:39.470042 29326 net.cpp:409] intercept -> label
I0507 00:04:39.470047 29326 hdf5_data_layer.cpp:79] Loading list of HDF5 filenames from: /home/purduethu/scratch/radon/d/deng106/CNNStatisticalModel/distributions/input/50_distributions_100_sample_size_test-distributions-path.txt
I0507 00:04:39.470067 29326 hdf5_data_layer.cpp:93] Number of HDF5 files: 1
I0507 00:04:39.511159 29326 net.cpp:144] Setting up intercept
I0507 00:04:39.511193 29326 net.cpp:151] Top shape: 20 1 10 10 (2000)
I0507 00:04:39.511198 29326 net.cpp:151] Top shape: 20 (20)
I0507 00:04:39.511203 29326 net.cpp:159] Memory required for data: 8080
I0507 00:04:39.511209 29326 layer_factory.hpp:77] Creating layer label_intercept_1_split
I0507 00:04:39.511227 29326 net.cpp:94] Creating Layer label_intercept_1_split
I0507 00:04:39.511232 29326 net.cpp:435] label_intercept_1_split <- label
I0507 00:04:39.511237 29326 net.cpp:409] label_intercept_1_split -> label_intercept_1_split_0
I0507 00:04:39.511246 29326 net.cpp:409] label_intercept_1_split -> label_intercept_1_split_1
I0507 00:04:39.511291 29326 net.cpp:144] Setting up label_intercept_1_split
I0507 00:04:39.511296 29326 net.cpp:151] Top shape: 20 (20)
I0507 00:04:39.511301 29326 net.cpp:151] Top shape: 20 (20)
I0507 00:04:39.511303 29326 net.cpp:159] Memory required for data: 8240
I0507 00:04:39.511307 29326 layer_factory.hpp:77] Creating layer conv1
I0507 00:04:39.511317 29326 net.cpp:94] Creating Layer conv1
I0507 00:04:39.511320 29326 net.cpp:435] conv1 <- data
I0507 00:04:39.511325 29326 net.cpp:409] conv1 -> conv1
I0507 00:04:39.512154 29326 net.cpp:144] Setting up conv1
I0507 00:04:39.512167 29326 net.cpp:151] Top shape: 20 64 10 10 (128000)
I0507 00:04:39.512171 29326 net.cpp:159] Memory required for data: 520240
I0507 00:04:39.512181 29326 layer_factory.hpp:77] Creating layer relu1
I0507 00:04:39.512187 29326 net.cpp:94] Creating Layer relu1
I0507 00:04:39.512189 29326 net.cpp:435] relu1 <- conv1
I0507 00:04:39.512194 29326 net.cpp:396] relu1 -> conv1 (in-place)
I0507 00:04:39.512202 29326 net.cpp:144] Setting up relu1
I0507 00:04:39.512205 29326 net.cpp:151] Top shape: 20 64 10 10 (128000)
I0507 00:04:39.512208 29326 net.cpp:159] Memory required for data: 1032240
I0507 00:04:39.512218 29326 layer_factory.hpp:77] Creating layer conv2
I0507 00:04:39.512226 29326 net.cpp:94] Creating Layer conv2
I0507 00:04:39.512229 29326 net.cpp:435] conv2 <- conv1
I0507 00:04:39.512234 29326 net.cpp:409] conv2 -> conv2
I0507 00:04:39.516299 29326 net.cpp:144] Setting up conv2
I0507 00:04:39.516311 29326 net.cpp:151] Top shape: 20 64 10 10 (128000)
I0507 00:04:39.516315 29326 net.cpp:159] Memory required for data: 1544240
I0507 00:04:39.516324 29326 layer_factory.hpp:77] Creating layer relu2
I0507 00:04:39.516330 29326 net.cpp:94] Creating Layer relu2
I0507 00:04:39.516333 29326 net.cpp:435] relu2 <- conv2
I0507 00:04:39.516338 29326 net.cpp:396] relu2 -> conv2 (in-place)
I0507 00:04:39.516345 29326 net.cpp:144] Setting up relu2
I0507 00:04:39.516348 29326 net.cpp:151] Top shape: 20 64 10 10 (128000)
I0507 00:04:39.516351 29326 net.cpp:159] Memory required for data: 2056240
I0507 00:04:39.516355 29326 layer_factory.hpp:77] Creating layer pool2
I0507 00:04:39.516360 29326 net.cpp:94] Creating Layer pool2
I0507 00:04:39.516363 29326 net.cpp:435] pool2 <- conv2
I0507 00:04:39.516367 29326 net.cpp:409] pool2 -> pool2
I0507 00:04:39.516425 29326 net.cpp:144] Setting up pool2
I0507 00:04:39.516433 29326 net.cpp:151] Top shape: 20 64 5 5 (32000)
I0507 00:04:39.516435 29326 net.cpp:159] Memory required for data: 2184240
I0507 00:04:39.516438 29326 layer_factory.hpp:77] Creating layer conv3
I0507 00:04:39.516446 29326 net.cpp:94] Creating Layer conv3
I0507 00:04:39.516450 29326 net.cpp:435] conv3 <- pool2
I0507 00:04:39.516456 29326 net.cpp:409] conv3 -> conv3
I0507 00:04:39.520790 29326 net.cpp:144] Setting up conv3
I0507 00:04:39.520803 29326 net.cpp:151] Top shape: 20 64 5 5 (32000)
I0507 00:04:39.520807 29326 net.cpp:159] Memory required for data: 2312240
I0507 00:04:39.520815 29326 layer_factory.hpp:77] Creating layer relu3
I0507 00:04:39.520823 29326 net.cpp:94] Creating Layer relu3
I0507 00:04:39.520825 29326 net.cpp:435] relu3 <- conv3
I0507 00:04:39.520830 29326 net.cpp:396] relu3 -> conv3 (in-place)
I0507 00:04:39.520836 29326 net.cpp:144] Setting up relu3
I0507 00:04:39.520840 29326 net.cpp:151] Top shape: 20 64 5 5 (32000)
I0507 00:04:39.520843 29326 net.cpp:159] Memory required for data: 2440240
I0507 00:04:39.520846 29326 layer_factory.hpp:77] Creating layer conv4
I0507 00:04:39.520855 29326 net.cpp:94] Creating Layer conv4
I0507 00:04:39.520859 29326 net.cpp:435] conv4 <- conv3
I0507 00:04:39.520864 29326 net.cpp:409] conv4 -> conv4
I0507 00:04:39.524381 29326 net.cpp:144] Setting up conv4
I0507 00:04:39.524394 29326 net.cpp:151] Top shape: 20 64 5 5 (32000)
I0507 00:04:39.524397 29326 net.cpp:159] Memory required for data: 2568240
I0507 00:04:39.524404 29326 layer_factory.hpp:77] Creating layer relu4
I0507 00:04:39.524410 29326 net.cpp:94] Creating Layer relu4
I0507 00:04:39.524412 29326 net.cpp:435] relu4 <- conv4
I0507 00:04:39.524416 29326 net.cpp:396] relu4 -> conv4 (in-place)
I0507 00:04:39.524422 29326 net.cpp:144] Setting up relu4
I0507 00:04:39.524427 29326 net.cpp:151] Top shape: 20 64 5 5 (32000)
I0507 00:04:39.524430 29326 net.cpp:159] Memory required for data: 2696240
I0507 00:04:39.524432 29326 layer_factory.hpp:77] Creating layer conv5
I0507 00:04:39.524441 29326 net.cpp:94] Creating Layer conv5
I0507 00:04:39.524444 29326 net.cpp:435] conv5 <- conv4
I0507 00:04:39.524449 29326 net.cpp:409] conv5 -> conv5
I0507 00:04:39.528379 29326 net.cpp:144] Setting up conv5
I0507 00:04:39.528393 29326 net.cpp:151] Top shape: 20 64 5 5 (32000)
I0507 00:04:39.528396 29326 net.cpp:159] Memory required for data: 2824240
I0507 00:04:39.528405 29326 layer_factory.hpp:77] Creating layer relu5
I0507 00:04:39.528411 29326 net.cpp:94] Creating Layer relu5
I0507 00:04:39.528414 29326 net.cpp:435] relu5 <- conv5
I0507 00:04:39.528419 29326 net.cpp:396] relu5 -> conv5 (in-place)
I0507 00:04:39.528426 29326 net.cpp:144] Setting up relu5
I0507 00:04:39.528430 29326 net.cpp:151] Top shape: 20 64 5 5 (32000)
I0507 00:04:39.528434 29326 net.cpp:159] Memory required for data: 2952240
I0507 00:04:39.528439 29326 layer_factory.hpp:77] Creating layer pool5
I0507 00:04:39.528445 29326 net.cpp:94] Creating Layer pool5
I0507 00:04:39.528448 29326 net.cpp:435] pool5 <- conv5
I0507 00:04:39.528452 29326 net.cpp:409] pool5 -> pool5
I0507 00:04:39.528492 29326 net.cpp:144] Setting up pool5
I0507 00:04:39.528499 29326 net.cpp:151] Top shape: 20 64 2 2 (5120)
I0507 00:04:39.528502 29326 net.cpp:159] Memory required for data: 2972720
I0507 00:04:39.528506 29326 layer_factory.hpp:77] Creating layer ip1
I0507 00:04:39.528512 29326 net.cpp:94] Creating Layer ip1
I0507 00:04:39.528514 29326 net.cpp:435] ip1 <- pool5
I0507 00:04:39.528520 29326 net.cpp:409] ip1 -> ip1
I0507 00:04:39.529067 29326 net.cpp:144] Setting up ip1
I0507 00:04:39.529074 29326 net.cpp:151] Top shape: 20 64 (1280)
I0507 00:04:39.529078 29326 net.cpp:159] Memory required for data: 2977840
I0507 00:04:39.529083 29326 layer_factory.hpp:77] Creating layer ip2
I0507 00:04:39.529089 29326 net.cpp:94] Creating Layer ip2
I0507 00:04:39.529093 29326 net.cpp:435] ip2 <- ip1
I0507 00:04:39.529096 29326 net.cpp:409] ip2 -> ip2
I0507 00:04:39.529325 29326 net.cpp:144] Setting up ip2
I0507 00:04:39.529332 29326 net.cpp:151] Top shape: 20 64 (1280)
I0507 00:04:39.529335 29326 net.cpp:159] Memory required for data: 2982960
I0507 00:04:39.529340 29326 layer_factory.hpp:77] Creating layer ip3
I0507 00:04:39.529348 29326 net.cpp:94] Creating Layer ip3
I0507 00:04:39.529351 29326 net.cpp:435] ip3 <- ip2
I0507 00:04:39.529357 29326 net.cpp:409] ip3 -> ip3
I0507 00:04:39.529561 29326 net.cpp:144] Setting up ip3
I0507 00:04:39.529567 29326 net.cpp:151] Top shape: 20 50 (1000)
I0507 00:04:39.529570 29326 net.cpp:159] Memory required for data: 2986960
I0507 00:04:39.529575 29326 layer_factory.hpp:77] Creating layer ip3_ip3_0_split
I0507 00:04:39.529579 29326 net.cpp:94] Creating Layer ip3_ip3_0_split
I0507 00:04:39.529582 29326 net.cpp:435] ip3_ip3_0_split <- ip3
I0507 00:04:39.529587 29326 net.cpp:409] ip3_ip3_0_split -> ip3_ip3_0_split_0
I0507 00:04:39.529592 29326 net.cpp:409] ip3_ip3_0_split -> ip3_ip3_0_split_1
I0507 00:04:39.529633 29326 net.cpp:144] Setting up ip3_ip3_0_split
I0507 00:04:39.529639 29326 net.cpp:151] Top shape: 20 50 (1000)
I0507 00:04:39.529641 29326 net.cpp:151] Top shape: 20 50 (1000)
I0507 00:04:39.529644 29326 net.cpp:159] Memory required for data: 2994960
I0507 00:04:39.529647 29326 layer_factory.hpp:77] Creating layer accuracy
I0507 00:04:39.529652 29326 net.cpp:94] Creating Layer accuracy
I0507 00:04:39.529655 29326 net.cpp:435] accuracy <- ip3_ip3_0_split_0
I0507 00:04:39.529659 29326 net.cpp:435] accuracy <- label_intercept_1_split_0
I0507 00:04:39.529664 29326 net.cpp:409] accuracy -> accuracy
…
