…
I0503 10:05:11.387161 19858 net.cpp:323] The NetState phase (0) differed from the phase (1) specified by a rule in layer intercept
I0503 10:05:11.387177 19858 net.cpp:323] The NetState phase (0) differed from the phase (1) specified by a rule in layer loss
I0503 10:05:11.387274 19858 net.cpp:52] Initializing net from parameters: 
state {
  phase: TRAIN
}
layer {
  name: "parameters"
  type: "HDF5Data"
  top: "data"
  top: "label"
  include {
    phase: TRAIN
  }
  hdf5_data_param {
    source: "/home/purduethu/scratch/radon/d/deng106/CNNStatisticalModel/distributions/input/5_distributions_100_sample_size_train-parameters-path.txt"
    batch_size: 20
  }
}
layer {
  name: "conv1"
  type: "Convolution"
  bottom: "data"
  top: "conv1"
  param {
    lr_mult: 1
  }
  param {
    lr_mult: 2
  }
  convolution_param {
    num_output: 64
    pad: 2
    kernel_size: 5
    stride: 1
    weight_filler {
      type: "gaussian"
      std: 0.0001
    }
    bias_filler {
      type: "constant"
    }
  }
}
layer {
  name: "relu1"
  type: "ReLU"
  bottom: "conv1"
  top: "conv1"
}
layer {
  name: "conv2"
  type: "Convolution"
  bottom: "conv1"
  top: "conv2"
  param {
    lr_mult: 1
  }
  param {
    lr_mult: 2
  }
  convolution_param {
    num_output: 64
    pad: 2
    kernel_size: 5
    stride: 1
    weight_filler {
      type: "gaussian"
      std: 0.01
    }
    bias_filler {
      type: "constant"
    }
  }
}
layer {
  name: "relu2"
  type: "ReLU"
  bottom: "conv2"
  top: "conv2"
}
layer {
  name: "pool2"
  type: "Pooling"
  bottom: "conv2"
  top: "pool2"
  pooling_param {
    pool: MAX
    kernel_size: 3
    stride: 2
  }
}
layer {
  name: "conv3"
  type: "Convolution"
  bottom: "pool2"
  top: "conv3"
  param {
    lr_mult: 1
  }
  param {
    lr_mult: 2
  }
  convolution_param {
    num_output: 128
    pad: 2
    kernel_size: 5
    stride: 1
    weight_filler {
      type: "gaussian"
      std: 0.01
    }
    bias_filler {
      type: "constant"
    }
  }
}
layer {
  name: "relu3"
  type: "ReLU"
  bottom: "conv3"
  top: "conv3"
}
layer {
  name: "conv4"
  type: "Convolution"
  bottom: "conv3"
  top: "conv4"
  param {
    lr_mult: 1
  }
  param {
    lr_mult: 2
  }
  convolution_param {
    num_output: 128
    pad: 2
    kernel_size: 5
    stride: 1
    weight_filler {
      type: "gaussian"
      std: 0.01
    }
    bias_filler {
      type: "constant"
    }
  }
}
layer {
  name: "relu4"
  type: "ReLU"
  bottom: "conv4"
  top: "conv4"
}
layer {
  name: "conv5"
  type: "Convolution"
  bottom: "conv4"
  top: "conv5"
  param {
    lr_mult: 1
  }
  param {
    lr_mult: 2
  }
  convolution_param {
    num_output: 128
    pad: 2
    kernel_size: 5
    stride: 1
    weight_filler {
      type: "gaussian"
      std: 0.01
    }
    bias_filler {
      type: "constant"
    }
  }
}
layer {
  name: "relu5"
  type: "ReLU"
  bottom: "conv5"
  top: "conv5"
}
layer {
  name: "pool5"
  type: "Pooling"
  bottom: "conv5"
  top: "pool5"
  pooling_param {
    pool: AVE
    kernel_size: 3
    stride: 2
  }
}
layer {
  name: "ip1"
  type: "InnerProduct"
  bottom: "pool5"
  top: "ip1"
  param {
    lr_mult: 1
  }
  param {
    lr_mult: 2
  }
  inner_product_param {
    num_output: 1024
    weight_filler {
      type: "gaussian"
      std: 0.1
    }
    bias_filler {
      type: "constant"
    }
  }
}
layer {
  name: "ip2"
  type: "InnerProduct"
  bottom: "ip1"
  top: "ip2"
  param {
    lr_mult: 1
  }
  param {
    lr_mult: 2
  }
  inner_product_param {
    num_output: 512
    weight_filler {
      type: "gaussian"
      std: 0.1
    }
    bias_filler {
      type: "constant"
    }
  }
}
layer {
  name: "ip3"
  type: "InnerProduct"
  bottom: "ip2"
  top: "ip3"
  param {
    lr_mult: 1
  }
  param {
    lr_mult: 2
  }
  inner_product_param {
    num_output: 1
    weight_filler {
      type: "gaussian"
      std: 0.1
    }
    bias_filler {
      type: "constant"
    }
  }
}
layer {
  name: "loss"
  type: "HuberLoss"
  bottom: "ip3"
  bottom: "label"
  top: "loss"
  include {
    phase: TRAIN
  }
}
I0503 10:05:11.387353 19858 layer_factory.hpp:77] Creating layer parameters
I0503 10:05:11.387368 19858 net.cpp:94] Creating Layer parameters
I0503 10:05:11.387374 19858 net.cpp:409] parameters -> data
I0503 10:05:11.387392 19858 net.cpp:409] parameters -> label
I0503 10:05:11.387403 19858 hdf5_data_layer.cpp:79] Loading list of HDF5 filenames from: /home/purduethu/scratch/radon/d/deng106/CNNStatisticalModel/distributions/input/5_distributions_100_sample_size_train-parameters-path.txt
I0503 10:05:11.387426 19858 hdf5_data_layer.cpp:93] Number of HDF5 files: 1
I0503 10:05:11.388047 19858 hdf5.cpp:32] Datatype class: H5T_FLOAT
I0503 10:05:11.405454 19858 net.cpp:144] Setting up parameters
I0503 10:05:11.405486 19858 net.cpp:151] Top shape: 20 1 10 10 (2000)
I0503 10:05:11.405493 19858 net.cpp:151] Top shape: 20 (20)
I0503 10:05:11.405496 19858 net.cpp:159] Memory required for data: 8080
I0503 10:05:11.405504 19858 layer_factory.hpp:77] Creating layer conv1
I0503 10:05:11.405529 19858 net.cpp:94] Creating Layer conv1
I0503 10:05:11.405535 19858 net.cpp:435] conv1 <- data
I0503 10:05:11.405546 19858 net.cpp:409] conv1 -> conv1
I0503 10:05:11.409360 19858 net.cpp:144] Setting up conv1
I0503 10:05:11.409376 19858 net.cpp:151] Top shape: 20 64 10 10 (128000)
I0503 10:05:11.409380 19858 net.cpp:159] Memory required for data: 520080
I0503 10:05:11.409391 19858 layer_factory.hpp:77] Creating layer relu1
I0503 10:05:11.409400 19858 net.cpp:94] Creating Layer relu1
I0503 10:05:11.409404 19858 net.cpp:435] relu1 <- conv1
I0503 10:05:11.409409 19858 net.cpp:396] relu1 -> conv1 (in-place)
I0503 10:05:11.409426 19858 net.cpp:144] Setting up relu1
I0503 10:05:11.409432 19858 net.cpp:151] Top shape: 20 64 10 10 (128000)
I0503 10:05:11.409435 19858 net.cpp:159] Memory required for data: 1032080
I0503 10:05:11.409438 19858 layer_factory.hpp:77] Creating layer conv2
I0503 10:05:11.409447 19858 net.cpp:94] Creating Layer conv2
I0503 10:05:11.409451 19858 net.cpp:435] conv2 <- conv1
I0503 10:05:11.409456 19858 net.cpp:409] conv2 -> conv2
I0503 10:05:11.415241 19858 net.cpp:144] Setting up conv2
I0503 10:05:11.415254 19858 net.cpp:151] Top shape: 20 64 10 10 (128000)
I0503 10:05:11.415258 19858 net.cpp:159] Memory required for data: 1544080
I0503 10:05:11.415266 19858 layer_factory.hpp:77] Creating layer relu2
I0503 10:05:11.415273 19858 net.cpp:94] Creating Layer relu2
I0503 10:05:11.415277 19858 net.cpp:435] relu2 <- conv2
I0503 10:05:11.415282 19858 net.cpp:396] relu2 -> conv2 (in-place)
I0503 10:05:11.415289 19858 net.cpp:144] Setting up relu2
I0503 10:05:11.415293 19858 net.cpp:151] Top shape: 20 64 10 10 (128000)
I0503 10:05:11.415297 19858 net.cpp:159] Memory required for data: 2056080
I0503 10:05:11.415300 19858 layer_factory.hpp:77] Creating layer pool2
I0503 10:05:11.415307 19858 net.cpp:94] Creating Layer pool2
I0503 10:05:11.415315 19858 net.cpp:435] pool2 <- conv2
I0503 10:05:11.415320 19858 net.cpp:409] pool2 -> pool2
I0503 10:05:11.415362 19858 net.cpp:144] Setting up pool2
I0503 10:05:11.415370 19858 net.cpp:151] Top shape: 20 64 5 5 (32000)
I0503 10:05:11.415374 19858 net.cpp:159] Memory required for data: 2184080
I0503 10:05:11.415377 19858 layer_factory.hpp:77] Creating layer conv3
I0503 10:05:11.415385 19858 net.cpp:94] Creating Layer conv3
I0503 10:05:11.415390 19858 net.cpp:435] conv3 <- pool2
I0503 10:05:11.415393 19858 net.cpp:409] conv3 -> conv3
I0503 10:05:11.423519 19858 net.cpp:144] Setting up conv3
I0503 10:05:11.423533 19858 net.cpp:151] Top shape: 20 128 5 5 (64000)
I0503 10:05:11.423537 19858 net.cpp:159] Memory required for data: 2440080
I0503 10:05:11.423547 19858 layer_factory.hpp:77] Creating layer relu3
I0503 10:05:11.423552 19858 net.cpp:94] Creating Layer relu3
I0503 10:05:11.423557 19858 net.cpp:435] relu3 <- conv3
I0503 10:05:11.423560 19858 net.cpp:396] relu3 -> conv3 (in-place)
I0503 10:05:11.423568 19858 net.cpp:144] Setting up relu3
I0503 10:05:11.423573 19858 net.cpp:151] Top shape: 20 128 5 5 (64000)
I0503 10:05:11.423575 19858 net.cpp:159] Memory required for data: 2696080
I0503 10:05:11.423578 19858 layer_factory.hpp:77] Creating layer conv4
I0503 10:05:11.423588 19858 net.cpp:94] Creating Layer conv4
I0503 10:05:11.423590 19858 net.cpp:435] conv4 <- conv3
I0503 10:05:11.423595 19858 net.cpp:409] conv4 -> conv4
I0503 10:05:11.438449 19858 net.cpp:144] Setting up conv4
I0503 10:05:11.438464 19858 net.cpp:151] Top shape: 20 128 5 5 (64000)
I0503 10:05:11.438469 19858 net.cpp:159] Memory required for data: 2952080
I0503 10:05:11.438475 19858 layer_factory.hpp:77] Creating layer relu4
I0503 10:05:11.438482 19858 net.cpp:94] Creating Layer relu4
I0503 10:05:11.438485 19858 net.cpp:435] relu4 <- conv4
I0503 10:05:11.438490 19858 net.cpp:396] relu4 -> conv4 (in-place)
I0503 10:05:11.438498 19858 net.cpp:144] Setting up relu4
I0503 10:05:11.438503 19858 net.cpp:151] Top shape: 20 128 5 5 (64000)
I0503 10:05:11.438506 19858 net.cpp:159] Memory required for data: 3208080
I0503 10:05:11.438509 19858 layer_factory.hpp:77] Creating layer conv5
I0503 10:05:11.438518 19858 net.cpp:94] Creating Layer conv5
I0503 10:05:11.438521 19858 net.cpp:435] conv5 <- conv4
I0503 10:05:11.438526 19858 net.cpp:409] conv5 -> conv5
I0503 10:05:11.452992 19858 net.cpp:144] Setting up conv5
I0503 10:05:11.453006 19858 net.cpp:151] Top shape: 20 128 5 5 (64000)
I0503 10:05:11.453011 19858 net.cpp:159] Memory required for data: 3464080
I0503 10:05:11.453019 19858 layer_factory.hpp:77] Creating layer relu5
I0503 10:05:11.453025 19858 net.cpp:94] Creating Layer relu5
I0503 10:05:11.453029 19858 net.cpp:435] relu5 <- conv5
I0503 10:05:11.453034 19858 net.cpp:396] relu5 -> conv5 (in-place)
I0503 10:05:11.453042 19858 net.cpp:144] Setting up relu5
I0503 10:05:11.453047 19858 net.cpp:151] Top shape: 20 128 5 5 (64000)
I0503 10:05:11.453049 19858 net.cpp:159] Memory required for data: 3720080
I0503 10:05:11.453052 19858 layer_factory.hpp:77] Creating layer pool5
I0503 10:05:11.453058 19858 net.cpp:94] Creating Layer pool5
I0503 10:05:11.453061 19858 net.cpp:435] pool5 <- conv5
I0503 10:05:11.453066 19858 net.cpp:409] pool5 -> pool5
I0503 10:05:11.453099 19858 net.cpp:144] Setting up pool5
I0503 10:05:11.453106 19858 net.cpp:151] Top shape: 20 128 2 2 (10240)
I0503 10:05:11.453110 19858 net.cpp:159] Memory required for data: 3761040
I0503 10:05:11.453114 19858 layer_factory.hpp:77] Creating layer ip1
I0503 10:05:11.453124 19858 net.cpp:94] Creating Layer ip1
I0503 10:05:11.453127 19858 net.cpp:435] ip1 <- pool5
I0503 10:05:11.453132 19858 net.cpp:409] ip1 -> ip1
I0503 10:05:11.467218 19858 net.cpp:144] Setting up ip1
I0503 10:05:11.467236 19858 net.cpp:151] Top shape: 20 1024 (20480)
I0503 10:05:11.467241 19858 net.cpp:159] Memory required for data: 3842960
I0503 10:05:11.467247 19858 layer_factory.hpp:77] Creating layer ip2
I0503 10:05:11.467253 19858 net.cpp:94] Creating Layer ip2
I0503 10:05:11.467257 19858 net.cpp:435] ip2 <- ip1
I0503 10:05:11.467272 19858 net.cpp:409] ip2 -> ip2
I0503 10:05:11.480720 19858 net.cpp:144] Setting up ip2
I0503 10:05:11.480733 19858 net.cpp:151] Top shape: 20 512 (10240)
I0503 10:05:11.480737 19858 net.cpp:159] Memory required for data: 3883920
I0503 10:05:11.480743 19858 layer_factory.hpp:77] Creating layer ip3
I0503 10:05:11.480751 19858 net.cpp:94] Creating Layer ip3
I0503 10:05:11.480754 19858 net.cpp:435] ip3 <- ip2
I0503 10:05:11.480759 19858 net.cpp:409] ip3 -> ip3
I0503 10:05:11.480837 19858 net.cpp:144] Setting up ip3
I0503 10:05:11.480844 19858 net.cpp:151] Top shape: 20 1 (20)
I0503 10:05:11.480855 19858 net.cpp:159] Memory required for data: 3884000
I0503 10:05:11.480861 19858 layer_factory.hpp:77] Creating layer loss
I0503 10:05:11.480870 19858 net.cpp:94] Creating Layer loss
I0503 10:05:11.480872 19858 net.cpp:435] loss <- ip3
I0503 10:05:11.480876 19858 net.cpp:435] loss <- label
I0503 10:05:11.480882 19858 net.cpp:409] loss -> loss
I0503 10:05:11.480924 19858 net.cpp:144] Setting up loss
…
