…
I0506 08:57:06.173899 20909 net.cpp:323] The NetState phase (0) differed from the phase (1) specified by a rule in layer intercept
I0506 08:57:06.173915 20909 net.cpp:323] The NetState phase (0) differed from the phase (1) specified by a rule in layer loss
I0506 08:57:06.173997 20909 net.cpp:52] Initializing net from parameters: 
state {
  phase: TRAIN
}
layer {
  name: "parameters"
  type: "HDF5Data"
  top: "data"
  top: "label"
  include {
    phase: TRAIN
  }
  hdf5_data_param {
    source: "/home/purduethu/scratch/radon/d/deng106/CNNStatisticalModel/distributions/input/50_distributions_100_sample_size_train-parameters-path.txt"
    batch_size: 20
  }
}
layer {
  name: "conv1"
  type: "Convolution"
  bottom: "data"
  top: "conv1"
  param {
    lr_mult: 1
  }
  param {
    lr_mult: 2
  }
  convolution_param {
    num_output: 64
    pad: 2
    kernel_size: 5
    stride: 1
    weight_filler {
      type: "gaussian"
      std: 0.0001
    }
    bias_filler {
      type: "constant"
    }
  }
}
layer {
  name: "relu1"
  type: "ReLU"
  bottom: "conv1"
  top: "conv1"
}
layer {
  name: "conv2"
  type: "Convolution"
  bottom: "conv1"
  top: "conv2"
  param {
    lr_mult: 1
  }
  param {
    lr_mult: 2
  }
  convolution_param {
    num_output: 64
    pad: 2
    kernel_size: 5
    stride: 1
    weight_filler {
      type: "gaussian"
      std: 0.01
    }
    bias_filler {
      type: "constant"
    }
  }
}
layer {
  name: "relu2"
  type: "ReLU"
  bottom: "conv2"
  top: "conv2"
}
layer {
  name: "pool2"
  type: "Pooling"
  bottom: "conv2"
  top: "pool2"
  pooling_param {
    pool: MAX
    kernel_size: 3
    stride: 2
  }
}
layer {
  name: "conv3"
  type: "Convolution"
  bottom: "pool2"
  top: "conv3"
  param {
    lr_mult: 1
  }
  param {
    lr_mult: 2
  }
  convolution_param {
    num_output: 128
    pad: 2
    kernel_size: 5
    stride: 1
    weight_filler {
      type: "gaussian"
      std: 0.01
    }
    bias_filler {
      type: "constant"
    }
  }
}
layer {
  name: "relu3"
  type: "ReLU"
  bottom: "conv3"
  top: "conv3"
}
layer {
  name: "conv4"
  type: "Convolution"
  bottom: "conv3"
  top: "conv4"
  param {
    lr_mult: 1
  }
  param {
    lr_mult: 2
  }
  convolution_param {
    num_output: 128
    pad: 2
    kernel_size: 5
    stride: 1
    weight_filler {
      type: "gaussian"
      std: 0.01
    }
    bias_filler {
      type: "constant"
    }
  }
}
layer {
  name: "relu4"
  type: "ReLU"
  bottom: "conv4"
  top: "conv4"
}
layer {
  name: "conv5"
  type: "Convolution"
  bottom: "conv4"
  top: "conv5"
  param {
    lr_mult: 1
  }
  param {
    lr_mult: 2
  }
  convolution_param {
    num_output: 128
    pad: 2
    kernel_size: 5
    stride: 1
    weight_filler {
      type: "gaussian"
      std: 0.01
    }
    bias_filler {
      type: "constant"
    }
  }
}
layer {
  name: "relu5"
  type: "ReLU"
  bottom: "conv5"
  top: "conv5"
}
layer {
  name: "pool5"
  type: "Pooling"
  bottom: "conv5"
  top: "pool5"
  pooling_param {
    pool: AVE
    kernel_size: 3
    stride: 2
  }
}
layer {
  name: "ip1"
  type: "InnerProduct"
  bottom: "pool5"
  top: "ip1"
  param {
    lr_mult: 1
  }
  param {
    lr_mult: 2
  }
  inner_product_param {
    num_output: 1024
    weight_filler {
      type: "gaussian"
      std: 0.1
    }
    bias_filler {
      type: "constant"
    }
  }
}
layer {
  name: "ip2"
  type: "InnerProduct"
  bottom: "ip1"
  top: "ip2"
  param {
    lr_mult: 1
  }
  param {
    lr_mult: 2
  }
  inner_product_param {
    num_output: 512
    weight_filler {
      type: "gaussian"
      std: 0.1
    }
    bias_filler {
      type: "constant"
    }
  }
}
layer {
  name: "ip3"
  type: "InnerProduct"
  bottom: "ip2"
  top: "ip3"
  param {
    lr_mult: 1
  }
  param {
    lr_mult: 2
  }
  inner_product_param {
    num_output: 1
    weight_filler {
      type: "gaussian"
      std: 0.1
    }
    bias_filler {
      type: "constant"
    }
  }
}
layer {
  name: "loss"
  type: "HuberLoss"
  bottom: "ip3"
  bottom: "label"
  top: "loss"
  include {
    phase: TRAIN
  }
}
I0506 08:57:06.174053 20909 layer_factory.hpp:77] Creating layer parameters
I0506 08:57:06.174069 20909 net.cpp:94] Creating Layer parameters
I0506 08:57:06.174073 20909 net.cpp:409] parameters -> data
I0506 08:57:06.174083 20909 net.cpp:409] parameters -> label
I0506 08:57:06.174089 20909 hdf5_data_layer.cpp:79] Loading list of HDF5 filenames from: /home/purduethu/scratch/radon/d/deng106/CNNStatisticalModel/distributions/input/50_distributions_100_sample_size_train-parameters-path.txt
I0506 08:57:06.174104 20909 hdf5_data_layer.cpp:93] Number of HDF5 files: 1
I0506 08:57:06.174672 20909 hdf5.cpp:32] Datatype class: H5T_FLOAT
I0506 08:57:06.337306 20909 net.cpp:144] Setting up parameters
I0506 08:57:06.337337 20909 net.cpp:151] Top shape: 20 1 10 10 (2000)
I0506 08:57:06.337342 20909 net.cpp:151] Top shape: 20 (20)
I0506 08:57:06.337347 20909 net.cpp:159] Memory required for data: 8080
I0506 08:57:06.337352 20909 layer_factory.hpp:77] Creating layer conv1
I0506 08:57:06.337369 20909 net.cpp:94] Creating Layer conv1
I0506 08:57:06.337374 20909 net.cpp:435] conv1 <- data
I0506 08:57:06.337380 20909 net.cpp:409] conv1 -> conv1
I0506 08:57:06.341841 20909 net.cpp:144] Setting up conv1
I0506 08:57:06.341873 20909 net.cpp:151] Top shape: 20 64 10 10 (128000)
I0506 08:57:06.341881 20909 net.cpp:159] Memory required for data: 520080
I0506 08:57:06.341899 20909 layer_factory.hpp:77] Creating layer relu1
I0506 08:57:06.341912 20909 net.cpp:94] Creating Layer relu1
I0506 08:57:06.341918 20909 net.cpp:435] relu1 <- conv1
I0506 08:57:06.341928 20909 net.cpp:396] relu1 -> conv1 (in-place)
I0506 08:57:06.341941 20909 net.cpp:144] Setting up relu1
I0506 08:57:06.341949 20909 net.cpp:151] Top shape: 20 64 10 10 (128000)
I0506 08:57:06.341954 20909 net.cpp:159] Memory required for data: 1032080
I0506 08:57:06.341960 20909 layer_factory.hpp:77] Creating layer conv2
I0506 08:57:06.341975 20909 net.cpp:94] Creating Layer conv2
I0506 08:57:06.341981 20909 net.cpp:435] conv2 <- conv1
I0506 08:57:06.341990 20909 net.cpp:409] conv2 -> conv2
I0506 08:57:06.351840 20909 net.cpp:144] Setting up conv2
I0506 08:57:06.351866 20909 net.cpp:151] Top shape: 20 64 10 10 (128000)
I0506 08:57:06.351874 20909 net.cpp:159] Memory required for data: 1544080
I0506 08:57:06.351889 20909 layer_factory.hpp:77] Creating layer relu2
I0506 08:57:06.351900 20909 net.cpp:94] Creating Layer relu2
I0506 08:57:06.351907 20909 net.cpp:435] relu2 <- conv2
I0506 08:57:06.351917 20909 net.cpp:396] relu2 -> conv2 (in-place)
I0506 08:57:06.351928 20909 net.cpp:144] Setting up relu2
I0506 08:57:06.351938 20909 net.cpp:151] Top shape: 20 64 10 10 (128000)
I0506 08:57:06.351943 20909 net.cpp:159] Memory required for data: 2056080
I0506 08:57:06.351948 20909 layer_factory.hpp:77] Creating layer pool2
I0506 08:57:06.351958 20909 net.cpp:94] Creating Layer pool2
I0506 08:57:06.351963 20909 net.cpp:435] pool2 <- conv2
I0506 08:57:06.351971 20909 net.cpp:409] pool2 -> pool2
I0506 08:57:06.352064 20909 net.cpp:144] Setting up pool2
I0506 08:57:06.352077 20909 net.cpp:151] Top shape: 20 64 5 5 (32000)
I0506 08:57:06.352083 20909 net.cpp:159] Memory required for data: 2184080
I0506 08:57:06.352089 20909 layer_factory.hpp:77] Creating layer conv3
I0506 08:57:06.352102 20909 net.cpp:94] Creating Layer conv3
I0506 08:57:06.352118 20909 net.cpp:435] conv3 <- pool2
I0506 08:57:06.352128 20909 net.cpp:409] conv3 -> conv3
I0506 08:57:06.365936 20909 net.cpp:144] Setting up conv3
I0506 08:57:06.365959 20909 net.cpp:151] Top shape: 20 128 5 5 (64000)
I0506 08:57:06.365967 20909 net.cpp:159] Memory required for data: 2440080
I0506 08:57:06.365980 20909 layer_factory.hpp:77] Creating layer relu3
I0506 08:57:06.365990 20909 net.cpp:94] Creating Layer relu3
I0506 08:57:06.365996 20909 net.cpp:435] relu3 <- conv3
I0506 08:57:06.366003 20909 net.cpp:396] relu3 -> conv3 (in-place)
I0506 08:57:06.366015 20909 net.cpp:144] Setting up relu3
I0506 08:57:06.366024 20909 net.cpp:151] Top shape: 20 128 5 5 (64000)
I0506 08:57:06.366029 20909 net.cpp:159] Memory required for data: 2696080
I0506 08:57:06.366034 20909 layer_factory.hpp:77] Creating layer conv4
I0506 08:57:06.366046 20909 net.cpp:94] Creating Layer conv4
I0506 08:57:06.366052 20909 net.cpp:435] conv4 <- conv3
I0506 08:57:06.366060 20909 net.cpp:409] conv4 -> conv4
I0506 08:57:06.389673 20909 net.cpp:144] Setting up conv4
I0506 08:57:06.389696 20909 net.cpp:151] Top shape: 20 128 5 5 (64000)
I0506 08:57:06.389703 20909 net.cpp:159] Memory required for data: 2952080
I0506 08:57:06.389714 20909 layer_factory.hpp:77] Creating layer relu4
I0506 08:57:06.389722 20909 net.cpp:94] Creating Layer relu4
I0506 08:57:06.389729 20909 net.cpp:435] relu4 <- conv4
I0506 08:57:06.389736 20909 net.cpp:396] relu4 -> conv4 (in-place)
I0506 08:57:06.389747 20909 net.cpp:144] Setting up relu4
I0506 08:57:06.389755 20909 net.cpp:151] Top shape: 20 128 5 5 (64000)
I0506 08:57:06.389760 20909 net.cpp:159] Memory required for data: 3208080
I0506 08:57:06.389765 20909 layer_factory.hpp:77] Creating layer conv5
I0506 08:57:06.389776 20909 net.cpp:94] Creating Layer conv5
I0506 08:57:06.389781 20909 net.cpp:435] conv5 <- conv4
I0506 08:57:06.389789 20909 net.cpp:409] conv5 -> conv5
I0506 08:57:06.411985 20909 net.cpp:144] Setting up conv5
I0506 08:57:06.412015 20909 net.cpp:151] Top shape: 20 128 5 5 (64000)
I0506 08:57:06.412024 20909 net.cpp:159] Memory required for data: 3464080
I0506 08:57:06.412040 20909 layer_factory.hpp:77] Creating layer relu5
I0506 08:57:06.412052 20909 net.cpp:94] Creating Layer relu5
I0506 08:57:06.412060 20909 net.cpp:435] relu5 <- conv5
I0506 08:57:06.412068 20909 net.cpp:396] relu5 -> conv5 (in-place)
I0506 08:57:06.412082 20909 net.cpp:144] Setting up relu5
I0506 08:57:06.412091 20909 net.cpp:151] Top shape: 20 128 5 5 (64000)
I0506 08:57:06.412097 20909 net.cpp:159] Memory required for data: 3720080
I0506 08:57:06.412103 20909 layer_factory.hpp:77] Creating layer pool5
I0506 08:57:06.412112 20909 net.cpp:94] Creating Layer pool5
I0506 08:57:06.412119 20909 net.cpp:435] pool5 <- conv5
I0506 08:57:06.412127 20909 net.cpp:409] pool5 -> pool5
I0506 08:57:06.412200 20909 net.cpp:144] Setting up pool5
I0506 08:57:06.412214 20909 net.cpp:151] Top shape: 20 128 2 2 (10240)
I0506 08:57:06.412220 20909 net.cpp:159] Memory required for data: 3761040
I0506 08:57:06.412226 20909 layer_factory.hpp:77] Creating layer ip1
I0506 08:57:06.412242 20909 net.cpp:94] Creating Layer ip1
I0506 08:57:06.412250 20909 net.cpp:435] ip1 <- pool5
I0506 08:57:06.412258 20909 net.cpp:409] ip1 -> ip1
I0506 08:57:06.435153 20909 net.cpp:144] Setting up ip1
I0506 08:57:06.435175 20909 net.cpp:151] Top shape: 20 1024 (20480)
I0506 08:57:06.435181 20909 net.cpp:159] Memory required for data: 3842960
I0506 08:57:06.435190 20909 layer_factory.hpp:77] Creating layer ip2
I0506 08:57:06.435200 20909 net.cpp:94] Creating Layer ip2
I0506 08:57:06.435206 20909 net.cpp:435] ip2 <- ip1
I0506 08:57:06.435214 20909 net.cpp:409] ip2 -> ip2
I0506 08:57:06.455332 20909 net.cpp:144] Setting up ip2
I0506 08:57:06.455351 20909 net.cpp:151] Top shape: 20 512 (10240)
I0506 08:57:06.455358 20909 net.cpp:159] Memory required for data: 3883920
I0506 08:57:06.455365 20909 layer_factory.hpp:77] Creating layer ip3
I0506 08:57:06.455374 20909 net.cpp:94] Creating Layer ip3
I0506 08:57:06.455379 20909 net.cpp:435] ip3 <- ip2
I0506 08:57:06.455394 20909 net.cpp:409] ip3 -> ip3
I0506 08:57:06.455554 20909 net.cpp:144] Setting up ip3
I0506 08:57:06.455564 20909 net.cpp:151] Top shape: 20 1 (20)
I0506 08:57:06.455567 20909 net.cpp:159] Memory required for data: 3884000
I0506 08:57:06.455574 20909 layer_factory.hpp:77] Creating layer loss
I0506 08:57:06.455590 20909 net.cpp:94] Creating Layer loss
I0506 08:57:06.455595 20909 net.cpp:435] loss <- ip3
I0506 08:57:06.455600 20909 net.cpp:435] loss <- label
I0506 08:57:06.455606 20909 net.cpp:409] loss -> loss
I0506 08:57:06.455675 20909 net.cpp:144] Setting up loss
…
I0506 08:57:06.580236 20909 net.cpp:323] The NetState phase (0) differed from the phase (1) specified by a rule in layer intercept
I0506 08:57:06.580253 20909 net.cpp:323] The NetState phase (0) differed from the phase (1) specified by a rule in layer accuracy
I0506 08:57:06.580343 20909 net.cpp:52] Initializing net from parameters: 
state {
  phase: TRAIN
}
layer {
  name: "parameters"
  type: "HDF5Data"
  top: "data"
  top: "label"
  include {
    phase: TRAIN
  }
  hdf5_data_param {
    source: "/home/purduethu/scratch/radon/d/deng106/CNNStatisticalModel/distributions/input/50_distributions_100_sample_size_train-distributions-path.txt"
    batch_size: 20
  }
}
layer {
  name: "conv1"
  type: "Convolution"
  bottom: "data"
  top: "conv1"
  param {
    lr_mult: 1
  }
  param {
    lr_mult: 2
  }
  convolution_param {
    num_output: 64
    pad: 2
    kernel_size: 5
    stride: 1
    weight_filler {
      type: "gaussian"
      std: 0.0001
    }
    bias_filler {
      type: "constant"
    }
  }
}
layer {
  name: "relu1"
  type: "ReLU"
  bottom: "conv1"
  top: "conv1"
}
layer {
  name: "conv2"
  type: "Convolution"
  bottom: "conv1"
  top: "conv2"
  param {
    lr_mult: 1
  }
  param {
    lr_mult: 2
  }
  convolution_param {
    num_output: 64
    pad: 2
    kernel_size: 5
    stride: 1
    weight_filler {
      type: "gaussian"
      std: 0.01
    }
    bias_filler {
      type: "constant"
    }
  }
}
layer {
  name: "relu2"
  type: "ReLU"
  bottom: "conv2"
  top: "conv2"
}
layer {
  name: "pool2"
  type: "Pooling"
  bottom: "conv2"
  top: "pool2"
  pooling_param {
    pool: MAX
    kernel_size: 3
    stride: 2
  }
}
layer {
  name: "conv3"
  type: "Convolution"
  bottom: "pool2"
  top: "conv3"
  param {
    lr_mult: 1
  }
  param {
    lr_mult: 2
  }
  convolution_param {
    num_output: 128
    pad: 2
    kernel_size: 5
    stride: 1
    weight_filler {
      type: "gaussian"
      std: 0.01
    }
    bias_filler {
      type: "constant"
    }
  }
}
layer {
  name: "relu3"
  type: "ReLU"
  bottom: "conv3"
  top: "conv3"
}
layer {
  name: "conv4"
  type: "Convolution"
  bottom: "conv3"
  top: "conv4"
  param {
    lr_mult: 1
  }
  param {
    lr_mult: 2
  }
  convolution_param {
    num_output: 128
    pad: 2
    kernel_size: 5
    stride: 1
    weight_filler {
      type: "gaussian"
      std: 0.01
    }
    bias_filler {
      type: "constant"
    }
  }
}
layer {
  name: "relu4"
  type: "ReLU"
  bottom: "conv4"
  top: "conv4"
}
layer {
  name: "conv5"
  type: "Convolution"
  bottom: "conv4"
  top: "conv5"
  param {
    lr_mult: 1
  }
  param {
    lr_mult: 2
  }
  convolution_param {
    num_output: 128
    pad: 2
    kernel_size: 5
    stride: 1
    weight_filler {
      type: "gaussian"
      std: 0.01
    }
    bias_filler {
      type: "constant"
    }
  }
}
layer {
  name: "relu5"
  type: "ReLU"
  bottom: "conv5"
  top: "conv5"
}
layer {
  name: "pool5"
  type: "Pooling"
  bottom: "conv5"
  top: "pool5"
  pooling_param {
    pool: AVE
    kernel_size: 3
    stride: 2
  }
}
layer {
  name: "ip1"
  type: "InnerProduct"
  bottom: "pool5"
  top: "ip1"
  param {
    lr_mult: 1
  }
  param {
    lr_mult: 2
  }
  inner_product_param {
    num_output: 1024
    weight_filler {
      type: "gaussian"
      std: 0.1
    }
    bias_filler {
      type: "constant"
    }
  }
}
layer {
  name: "ip2"
  type: "InnerProduct"
  bottom: "ip1"
  top: "ip2"
  param {
    lr_mult: 1
  }
  param {
    lr_mult: 2
  }
  inner_product_param {
    num_output: 512
    weight_filler {
      type: "gaussian"
      std: 0.1
    }
    bias_filler {
      type: "constant"
    }
  }
}
layer {
  name: "ip3"
  type: "InnerProduct"
  bottom: "ip2"
  top: "ip3"
  param {
    lr_mult: 1
  }
  param {
    lr_mult: 2
  }
  inner_product_param {
    num_output: 50
    weight_filler {
      type: "gaussian"
      std: 0.1
    }
    bias_filler {
      type: "constant"
    }
  }
}
layer {
  name: "loss"
  type: "SoftmaxWithLoss"
  bottom: "ip3"
  bottom: "label"
  top: "loss"
}
I0506 08:57:06.580399 20909 layer_factory.hpp:77] Creating layer parameters
I0506 08:57:06.580409 20909 net.cpp:94] Creating Layer parameters
I0506 08:57:06.580412 20909 net.cpp:409] parameters -> data
I0506 08:57:06.580420 20909 net.cpp:409] parameters -> label
I0506 08:57:06.580425 20909 hdf5_data_layer.cpp:79] Loading list of HDF5 filenames from: /home/purduethu/scratch/radon/d/deng106/CNNStatisticalModel/distributions/input/50_distributions_100_sample_size_train-distributions-path.txt
I0506 08:57:06.580440 20909 hdf5_data_layer.cpp:93] Number of HDF5 files: 1
I0506 08:57:06.740260 20909 hdf5.cpp:35] Datatype class: H5T_INTEGER
I0506 08:57:06.743410 20909 net.cpp:144] Setting up parameters
I0506 08:57:06.743430 20909 net.cpp:151] Top shape: 20 1 10 10 (2000)
I0506 08:57:06.743435 20909 net.cpp:151] Top shape: 20 (20)
I0506 08:57:06.743438 20909 net.cpp:159] Memory required for data: 8080
I0506 08:57:06.743445 20909 layer_factory.hpp:77] Creating layer conv1
I0506 08:57:06.743461 20909 net.cpp:94] Creating Layer conv1
I0506 08:57:06.743466 20909 net.cpp:435] conv1 <- data
I0506 08:57:06.743472 20909 net.cpp:409] conv1 -> conv1
I0506 08:57:06.745291 20909 net.cpp:144] Setting up conv1
I0506 08:57:06.745306 20909 net.cpp:151] Top shape: 20 64 10 10 (128000)
I0506 08:57:06.745311 20909 net.cpp:159] Memory required for data: 520080
I0506 08:57:06.745321 20909 layer_factory.hpp:77] Creating layer relu1
I0506 08:57:06.745327 20909 net.cpp:94] Creating Layer relu1
I0506 08:57:06.745331 20909 net.cpp:435] relu1 <- conv1
I0506 08:57:06.745335 20909 net.cpp:396] relu1 -> conv1 (in-place)
I0506 08:57:06.745342 20909 net.cpp:144] Setting up relu1
I0506 08:57:06.745347 20909 net.cpp:151] Top shape: 20 64 10 10 (128000)
I0506 08:57:06.745349 20909 net.cpp:159] Memory required for data: 1032080
I0506 08:57:06.745352 20909 layer_factory.hpp:77] Creating layer conv2
I0506 08:57:06.745359 20909 net.cpp:94] Creating Layer conv2
I0506 08:57:06.745363 20909 net.cpp:435] conv2 <- conv1
I0506 08:57:06.745368 20909 net.cpp:409] conv2 -> conv2
I0506 08:57:06.750835 20909 net.cpp:144] Setting up conv2
I0506 08:57:06.750850 20909 net.cpp:151] Top shape: 20 64 10 10 (128000)
I0506 08:57:06.750854 20909 net.cpp:159] Memory required for data: 1544080
I0506 08:57:06.750862 20909 layer_factory.hpp:77] Creating layer relu2
I0506 08:57:06.750869 20909 net.cpp:94] Creating Layer relu2
I0506 08:57:06.750872 20909 net.cpp:435] relu2 <- conv2
I0506 08:57:06.750876 20909 net.cpp:396] relu2 -> conv2 (in-place)
I0506 08:57:06.750883 20909 net.cpp:144] Setting up relu2
I0506 08:57:06.750888 20909 net.cpp:151] Top shape: 20 64 10 10 (128000)
I0506 08:57:06.750891 20909 net.cpp:159] Memory required for data: 2056080
I0506 08:57:06.750893 20909 layer_factory.hpp:77] Creating layer pool2
I0506 08:57:06.750900 20909 net.cpp:94] Creating Layer pool2
I0506 08:57:06.750902 20909 net.cpp:435] pool2 <- conv2
I0506 08:57:06.750907 20909 net.cpp:409] pool2 -> pool2
I0506 08:57:06.750959 20909 net.cpp:144] Setting up pool2
I0506 08:57:06.750967 20909 net.cpp:151] Top shape: 20 64 5 5 (32000)
I0506 08:57:06.750970 20909 net.cpp:159] Memory required for data: 2184080
I0506 08:57:06.750973 20909 layer_factory.hpp:77] Creating layer conv3
I0506 08:57:06.750982 20909 net.cpp:94] Creating Layer conv3
I0506 08:57:06.750985 20909 net.cpp:435] conv3 <- pool2
I0506 08:57:06.750989 20909 net.cpp:409] conv3 -> conv3
I0506 08:57:06.759848 20909 net.cpp:144] Setting up conv3
I0506 08:57:06.759863 20909 net.cpp:151] Top shape: 20 128 5 5 (64000)
I0506 08:57:06.759867 20909 net.cpp:159] Memory required for data: 2440080
I0506 08:57:06.759876 20909 layer_factory.hpp:77] Creating layer relu3
I0506 08:57:06.759881 20909 net.cpp:94] Creating Layer relu3
I0506 08:57:06.759884 20909 net.cpp:435] relu3 <- conv3
I0506 08:57:06.759889 20909 net.cpp:396] relu3 -> conv3 (in-place)
I0506 08:57:06.759902 20909 net.cpp:144] Setting up relu3
I0506 08:57:06.759907 20909 net.cpp:151] Top shape: 20 128 5 5 (64000)
I0506 08:57:06.759909 20909 net.cpp:159] Memory required for data: 2696080
I0506 08:57:06.759912 20909 layer_factory.hpp:77] Creating layer conv4
I0506 08:57:06.759922 20909 net.cpp:94] Creating Layer conv4
I0506 08:57:06.759925 20909 net.cpp:435] conv4 <- conv3
I0506 08:57:06.759930 20909 net.cpp:409] conv4 -> conv4
I0506 08:57:06.774860 20909 net.cpp:144] Setting up conv4
I0506 08:57:06.774878 20909 net.cpp:151] Top shape: 20 128 5 5 (64000)
I0506 08:57:06.774881 20909 net.cpp:159] Memory required for data: 2952080
I0506 08:57:06.774888 20909 layer_factory.hpp:77] Creating layer relu4
I0506 08:57:06.774894 20909 net.cpp:94] Creating Layer relu4
I0506 08:57:06.774897 20909 net.cpp:435] relu4 <- conv4
I0506 08:57:06.774902 20909 net.cpp:396] relu4 -> conv4 (in-place)
I0506 08:57:06.774909 20909 net.cpp:144] Setting up relu4
I0506 08:57:06.774914 20909 net.cpp:151] Top shape: 20 128 5 5 (64000)
I0506 08:57:06.774916 20909 net.cpp:159] Memory required for data: 3208080
I0506 08:57:06.774919 20909 layer_factory.hpp:77] Creating layer conv5
I0506 08:57:06.774927 20909 net.cpp:94] Creating Layer conv5
I0506 08:57:06.774930 20909 net.cpp:435] conv5 <- conv4
I0506 08:57:06.774935 20909 net.cpp:409] conv5 -> conv5
I0506 08:57:06.790319 20909 net.cpp:144] Setting up conv5
I0506 08:57:06.790336 20909 net.cpp:151] Top shape: 20 128 5 5 (64000)
I0506 08:57:06.790340 20909 net.cpp:159] Memory required for data: 3464080
I0506 08:57:06.790349 20909 layer_factory.hpp:77] Creating layer relu5
I0506 08:57:06.790355 20909 net.cpp:94] Creating Layer relu5
I0506 08:57:06.790359 20909 net.cpp:435] relu5 <- conv5
I0506 08:57:06.790364 20909 net.cpp:396] relu5 -> conv5 (in-place)
I0506 08:57:06.790370 20909 net.cpp:144] Setting up relu5
I0506 08:57:06.790374 20909 net.cpp:151] Top shape: 20 128 5 5 (64000)
I0506 08:57:06.790377 20909 net.cpp:159] Memory required for data: 3720080
I0506 08:57:06.790380 20909 layer_factory.hpp:77] Creating layer pool5
I0506 08:57:06.790385 20909 net.cpp:94] Creating Layer pool5
I0506 08:57:06.790388 20909 net.cpp:435] pool5 <- conv5
I0506 08:57:06.790393 20909 net.cpp:409] pool5 -> pool5
I0506 08:57:06.790431 20909 net.cpp:144] Setting up pool5
I0506 08:57:06.790437 20909 net.cpp:151] Top shape: 20 128 2 2 (10240)
I0506 08:57:06.790441 20909 net.cpp:159] Memory required for data: 3761040
I0506 08:57:06.790443 20909 layer_factory.hpp:77] Creating layer ip1
I0506 08:57:06.790451 20909 net.cpp:94] Creating Layer ip1
I0506 08:57:06.790453 20909 net.cpp:435] ip1 <- pool5
I0506 08:57:06.790458 20909 net.cpp:409] ip1 -> ip1
I0506 08:57:06.804563 20909 net.cpp:144] Setting up ip1
I0506 08:57:06.804579 20909 net.cpp:151] Top shape: 20 1024 (20480)
I0506 08:57:06.804584 20909 net.cpp:159] Memory required for data: 3842960
I0506 08:57:06.804589 20909 layer_factory.hpp:77] Creating layer ip2
I0506 08:57:06.804596 20909 net.cpp:94] Creating Layer ip2
I0506 08:57:06.804600 20909 net.cpp:435] ip2 <- ip1
I0506 08:57:06.804605 20909 net.cpp:409] ip2 -> ip2
I0506 08:57:06.818706 20909 net.cpp:144] Setting up ip2
I0506 08:57:06.818722 20909 net.cpp:151] Top shape: 20 512 (10240)
I0506 08:57:06.818725 20909 net.cpp:159] Memory required for data: 3883920
I0506 08:57:06.818732 20909 layer_factory.hpp:77] Creating layer ip3
I0506 08:57:06.818738 20909 net.cpp:94] Creating Layer ip3
I0506 08:57:06.818742 20909 net.cpp:435] ip3 <- ip2
I0506 08:57:06.818747 20909 net.cpp:409] ip3 -> ip3
I0506 08:57:06.820346 20909 net.cpp:144] Setting up ip3
I0506 08:57:06.820359 20909 net.cpp:151] Top shape: 20 50 (1000)
I0506 08:57:06.820363 20909 net.cpp:159] Memory required for data: 3887920
I0506 08:57:06.820369 20909 layer_factory.hpp:77] Creating layer loss
I0506 08:57:06.820377 20909 net.cpp:94] Creating Layer loss
I0506 08:57:06.820381 20909 net.cpp:435] loss <- ip3
I0506 08:57:06.820385 20909 net.cpp:435] loss <- label
I0506 08:57:06.820390 20909 net.cpp:409] loss -> loss
I0506 08:57:06.820397 20909 layer_factory.hpp:77] Creating layer loss
…
I0506 08:57:06.820937 20909 solver.cpp:181] Creating test net (#0) specified by net file: ./protocol/dis_50_100_dimension.protocol_distribution
I0506 08:57:06.820964 20909 net.cpp:323] The NetState phase (1) differed from the phase (0) specified by a rule in layer parameters
I0506 08:57:06.821060 20909 net.cpp:52] Initializing net from parameters: 
state {
  phase: TEST
}
layer {
  name: "intercept"
  type: "HDF5Data"
  top: "data"
  top: "label"
  include {
    phase: TEST
  }
  hdf5_data_param {
    source: "/home/purduethu/scratch/radon/d/deng106/CNNStatisticalModel/distributions/input/50_distributions_100_sample_size_test-distributions-path.txt"
    batch_size: 20
  }
}
layer {
  name: "conv1"
  type: "Convolution"
  bottom: "data"
  top: "conv1"
  param {
    lr_mult: 1
  }
  param {
    lr_mult: 2
  }
  convolution_param {
    num_output: 64
    pad: 2
    kernel_size: 5
    stride: 1
    weight_filler {
      type: "gaussian"
      std: 0.0001
    }
    bias_filler {
      type: "constant"
    }
  }
}
layer {
  name: "relu1"
  type: "ReLU"
  bottom: "conv1"
  top: "conv1"
}
layer {
  name: "conv2"
  type: "Convolution"
  bottom: "conv1"
  top: "conv2"
  param {
    lr_mult: 1
  }
  param {
    lr_mult: 2
  }
  convolution_param {
    num_output: 64
    pad: 2
    kernel_size: 5
    stride: 1
    weight_filler {
      type: "gaussian"
      std: 0.01
    }
    bias_filler {
      type: "constant"
    }
  }
}
layer {
  name: "relu2"
  type: "ReLU"
  bottom: "conv2"
  top: "conv2"
}
layer {
  name: "pool2"
  type: "Pooling"
  bottom: "conv2"
  top: "pool2"
  pooling_param {
    pool: MAX
    kernel_size: 3
    stride: 2
  }
}
layer {
  name: "conv3"
  type: "Convolution"
  bottom: "pool2"
  top: "conv3"
  param {
    lr_mult: 1
  }
  param {
    lr_mult: 2
  }
  convolution_param {
    num_output: 128
    pad: 2
    kernel_size: 5
    stride: 1
    weight_filler {
      type: "gaussian"
      std: 0.01
    }
    bias_filler {
      type: "constant"
    }
  }
}
layer {
  name: "relu3"
  type: "ReLU"
  bottom: "conv3"
  top: "conv3"
}
layer {
  name: "conv4"
  type: "Convolution"
  bottom: "conv3"
  top: "conv4"
  param {
    lr_mult: 1
  }
  param {
    lr_mult: 2
  }
  convolution_param {
    num_output: 128
    pad: 2
    kernel_size: 5
    stride: 1
    weight_filler {
      type: "gaussian"
      std: 0.01
    }
    bias_filler {
      type: "constant"
    }
  }
}
layer {
  name: "relu4"
  type: "ReLU"
  bottom: "conv4"
  top: "conv4"
}
layer {
  name: "conv5"
  type: "Convolution"
  bottom: "conv4"
  top: "conv5"
  param {
    lr_mult: 1
  }
  param {
    lr_mult: 2
  }
  convolution_param {
    num_output: 128
    pad: 2
    kernel_size: 5
    stride: 1
    weight_filler {
      type: "gaussian"
      std: 0.01
    }
    bias_filler {
      type: "constant"
    }
  }
}
layer {
  name: "relu5"
  type: "ReLU"
  bottom: "conv5"
  top: "conv5"
}
layer {
  name: "pool5"
  type: "Pooling"
  bottom: "conv5"
  top: "pool5"
  pooling_param {
    pool: AVE
    kernel_size: 3
    stride: 2
  }
}
layer {
  name: "ip1"
  type: "InnerProduct"
  bottom: "pool5"
  top: "ip1"
  param {
    lr_mult: 1
  }
  param {
    lr_mult: 2
  }
  inner_product_param {
    num_output: 1024
    weight_filler {
      type: "gaussian"
      std: 0.1
    }
    bias_filler {
      type: "constant"
    }
  }
}
layer {
  name: "ip2"
  type: "InnerProduct"
  bottom: "ip1"
  top: "ip2"
  param {
    lr_mult: 1
  }
  param {
    lr_mult: 2
  }
  inner_product_param {
    num_output: 512
    weight_filler {
      type: "gaussian"
      std: 0.1
    }
    bias_filler {
      type: "constant"
    }
  }
}
layer {
  name: "ip3"
  type: "InnerProduct"
  bottom: "ip2"
  top: "ip3"
  param {
    lr_mult: 1
  }
  param {
    lr_mult: 2
  }
  inner_product_param {
    num_output: 50
    weight_filler {
      type: "gaussian"
      std: 0.1
    }
    bias_filler {
      type: "constant"
    }
  }
}
layer {
  name: "accuracy"
  type: "Accuracy"
  bottom: "ip3"
  bottom: "label"
  top: "accuracy"
  include {
    phase: TEST
  }
}
layer {
  name: "loss"
  type: "SoftmaxWithLoss"
  bottom: "ip3"
  bottom: "label"
  top: "loss"
}
I0506 08:57:06.821128 20909 layer_factory.hpp:77] Creating layer intercept
I0506 08:57:06.821137 20909 net.cpp:94] Creating Layer intercept
I0506 08:57:06.821141 20909 net.cpp:409] intercept -> data
I0506 08:57:06.821148 20909 net.cpp:409] intercept -> label
I0506 08:57:06.821154 20909 hdf5_data_layer.cpp:79] Loading list of HDF5 filenames from: /home/purduethu/scratch/radon/d/deng106/CNNStatisticalModel/distributions/input/50_distributions_100_sample_size_test-distributions-path.txt
I0506 08:57:06.821173 20909 hdf5_data_layer.cpp:93] Number of HDF5 files: 1
I0506 08:57:06.862903 20909 net.cpp:144] Setting up intercept
I0506 08:57:06.862941 20909 net.cpp:151] Top shape: 20 1 10 10 (2000)
I0506 08:57:06.862946 20909 net.cpp:151] Top shape: 20 (20)
I0506 08:57:06.862948 20909 net.cpp:159] Memory required for data: 8080
I0506 08:57:06.862954 20909 layer_factory.hpp:77] Creating layer label_intercept_1_split
I0506 08:57:06.862975 20909 net.cpp:94] Creating Layer label_intercept_1_split
I0506 08:57:06.862979 20909 net.cpp:435] label_intercept_1_split <- label
I0506 08:57:06.862985 20909 net.cpp:409] label_intercept_1_split -> label_intercept_1_split_0
I0506 08:57:06.862994 20909 net.cpp:409] label_intercept_1_split -> label_intercept_1_split_1
I0506 08:57:06.863037 20909 net.cpp:144] Setting up label_intercept_1_split
I0506 08:57:06.863044 20909 net.cpp:151] Top shape: 20 (20)
I0506 08:57:06.863047 20909 net.cpp:151] Top shape: 20 (20)
I0506 08:57:06.863050 20909 net.cpp:159] Memory required for data: 8240
I0506 08:57:06.863054 20909 layer_factory.hpp:77] Creating layer conv1
I0506 08:57:06.863065 20909 net.cpp:94] Creating Layer conv1
I0506 08:57:06.863067 20909 net.cpp:435] conv1 <- data
I0506 08:57:06.863072 20909 net.cpp:409] conv1 -> conv1
I0506 08:57:06.863915 20909 net.cpp:144] Setting up conv1
I0506 08:57:06.863929 20909 net.cpp:151] Top shape: 20 64 10 10 (128000)
I0506 08:57:06.863934 20909 net.cpp:159] Memory required for data: 520240
I0506 08:57:06.863943 20909 layer_factory.hpp:77] Creating layer relu1
I0506 08:57:06.863950 20909 net.cpp:94] Creating Layer relu1
I0506 08:57:06.863953 20909 net.cpp:435] relu1 <- conv1
I0506 08:57:06.863957 20909 net.cpp:396] relu1 -> conv1 (in-place)
I0506 08:57:06.863965 20909 net.cpp:144] Setting up relu1
I0506 08:57:06.863968 20909 net.cpp:151] Top shape: 20 64 10 10 (128000)
I0506 08:57:06.863979 20909 net.cpp:159] Memory required for data: 1032240
I0506 08:57:06.863982 20909 layer_factory.hpp:77] Creating layer conv2
I0506 08:57:06.863991 20909 net.cpp:94] Creating Layer conv2
I0506 08:57:06.863994 20909 net.cpp:435] conv2 <- conv1
I0506 08:57:06.863998 20909 net.cpp:409] conv2 -> conv2
I0506 08:57:06.868207 20909 net.cpp:144] Setting up conv2
I0506 08:57:06.868223 20909 net.cpp:151] Top shape: 20 64 10 10 (128000)
I0506 08:57:06.868227 20909 net.cpp:159] Memory required for data: 1544240
I0506 08:57:06.868235 20909 layer_factory.hpp:77] Creating layer relu2
I0506 08:57:06.868242 20909 net.cpp:94] Creating Layer relu2
I0506 08:57:06.868244 20909 net.cpp:435] relu2 <- conv2
I0506 08:57:06.868250 20909 net.cpp:396] relu2 -> conv2 (in-place)
I0506 08:57:06.868257 20909 net.cpp:144] Setting up relu2
I0506 08:57:06.868261 20909 net.cpp:151] Top shape: 20 64 10 10 (128000)
I0506 08:57:06.868264 20909 net.cpp:159] Memory required for data: 2056240
I0506 08:57:06.868268 20909 layer_factory.hpp:77] Creating layer pool2
I0506 08:57:06.868273 20909 net.cpp:94] Creating Layer pool2
I0506 08:57:06.868276 20909 net.cpp:435] pool2 <- conv2
I0506 08:57:06.868281 20909 net.cpp:409] pool2 -> pool2
I0506 08:57:06.868340 20909 net.cpp:144] Setting up pool2
I0506 08:57:06.868346 20909 net.cpp:151] Top shape: 20 64 5 5 (32000)
I0506 08:57:06.868348 20909 net.cpp:159] Memory required for data: 2184240
I0506 08:57:06.868352 20909 layer_factory.hpp:77] Creating layer conv3
I0506 08:57:06.868360 20909 net.cpp:94] Creating Layer conv3
I0506 08:57:06.868365 20909 net.cpp:435] conv3 <- pool2
I0506 08:57:06.868371 20909 net.cpp:409] conv3 -> conv3
I0506 08:57:06.874657 20909 net.cpp:144] Setting up conv3
I0506 08:57:06.874670 20909 net.cpp:151] Top shape: 20 128 5 5 (64000)
I0506 08:57:06.874675 20909 net.cpp:159] Memory required for data: 2440240
I0506 08:57:06.874682 20909 layer_factory.hpp:77] Creating layer relu3
I0506 08:57:06.874691 20909 net.cpp:94] Creating Layer relu3
I0506 08:57:06.874694 20909 net.cpp:435] relu3 <- conv3
I0506 08:57:06.874698 20909 net.cpp:396] relu3 -> conv3 (in-place)
I0506 08:57:06.874704 20909 net.cpp:144] Setting up relu3
I0506 08:57:06.874711 20909 net.cpp:151] Top shape: 20 128 5 5 (64000)
I0506 08:57:06.874713 20909 net.cpp:159] Memory required for data: 2696240
I0506 08:57:06.874716 20909 layer_factory.hpp:77] Creating layer conv4
I0506 08:57:06.874723 20909 net.cpp:94] Creating Layer conv4
I0506 08:57:06.874727 20909 net.cpp:435] conv4 <- conv3
I0506 08:57:06.874732 20909 net.cpp:409] conv4 -> conv4
I0506 08:57:06.887801 20909 net.cpp:144] Setting up conv4
I0506 08:57:06.887817 20909 net.cpp:151] Top shape: 20 128 5 5 (64000)
I0506 08:57:06.887821 20909 net.cpp:159] Memory required for data: 2952240
I0506 08:57:06.887828 20909 layer_factory.hpp:77] Creating layer relu4
I0506 08:57:06.887835 20909 net.cpp:94] Creating Layer relu4
I0506 08:57:06.887838 20909 net.cpp:435] relu4 <- conv4
I0506 08:57:06.887842 20909 net.cpp:396] relu4 -> conv4 (in-place)
I0506 08:57:06.887850 20909 net.cpp:144] Setting up relu4
I0506 08:57:06.887853 20909 net.cpp:151] Top shape: 20 128 5 5 (64000)
I0506 08:57:06.887856 20909 net.cpp:159] Memory required for data: 3208240
I0506 08:57:06.887859 20909 layer_factory.hpp:77] Creating layer conv5
I0506 08:57:06.887869 20909 net.cpp:94] Creating Layer conv5
I0506 08:57:06.887872 20909 net.cpp:435] conv5 <- conv4
I0506 08:57:06.887877 20909 net.cpp:409] conv5 -> conv5
I0506 08:57:06.900861 20909 net.cpp:144] Setting up conv5
I0506 08:57:06.900876 20909 net.cpp:151] Top shape: 20 128 5 5 (64000)
I0506 08:57:06.900880 20909 net.cpp:159] Memory required for data: 3464240
I0506 08:57:06.900890 20909 layer_factory.hpp:77] Creating layer relu5
I0506 08:57:06.900897 20909 net.cpp:94] Creating Layer relu5
I0506 08:57:06.900902 20909 net.cpp:435] relu5 <- conv5
I0506 08:57:06.900905 20909 net.cpp:396] relu5 -> conv5 (in-place)
I0506 08:57:06.900913 20909 net.cpp:144] Setting up relu5
I0506 08:57:06.900916 20909 net.cpp:151] Top shape: 20 128 5 5 (64000)
I0506 08:57:06.900923 20909 net.cpp:159] Memory required for data: 3720240
I0506 08:57:06.900926 20909 layer_factory.hpp:77] Creating layer pool5
I0506 08:57:06.900933 20909 net.cpp:94] Creating Layer pool5
I0506 08:57:06.900936 20909 net.cpp:435] pool5 <- conv5
I0506 08:57:06.900940 20909 net.cpp:409] pool5 -> pool5
I0506 08:57:06.900981 20909 net.cpp:144] Setting up pool5
I0506 08:57:06.900988 20909 net.cpp:151] Top shape: 20 128 2 2 (10240)
I0506 08:57:06.900990 20909 net.cpp:159] Memory required for data: 3761200
I0506 08:57:06.900995 20909 layer_factory.hpp:77] Creating layer ip1
I0506 08:57:06.901000 20909 net.cpp:94] Creating Layer ip1
I0506 08:57:06.901005 20909 net.cpp:435] ip1 <- pool5
I0506 08:57:06.901010 20909 net.cpp:409] ip1 -> ip1
I0506 08:57:06.914782 20909 net.cpp:144] Setting up ip1
I0506 08:57:06.914798 20909 net.cpp:151] Top shape: 20 1024 (20480)
I0506 08:57:06.914800 20909 net.cpp:159] Memory required for data: 3843120
I0506 08:57:06.914808 20909 layer_factory.hpp:77] Creating layer ip2
I0506 08:57:06.914814 20909 net.cpp:94] Creating Layer ip2
I0506 08:57:06.914819 20909 net.cpp:435] ip2 <- ip1
I0506 08:57:06.914824 20909 net.cpp:409] ip2 -> ip2
I0506 08:57:06.928566 20909 net.cpp:144] Setting up ip2
I0506 08:57:06.928581 20909 net.cpp:151] Top shape: 20 512 (10240)
I0506 08:57:06.928584 20909 net.cpp:159] Memory required for data: 3884080
I0506 08:57:06.928591 20909 layer_factory.hpp:77] Creating layer ip3
I0506 08:57:06.928599 20909 net.cpp:94] Creating Layer ip3
I0506 08:57:06.928602 20909 net.cpp:435] ip3 <- ip2
I0506 08:57:06.928608 20909 net.cpp:409] ip3 -> ip3
I0506 08:57:06.929381 20909 net.cpp:144] Setting up ip3
I0506 08:57:06.929389 20909 net.cpp:151] Top shape: 20 50 (1000)
I0506 08:57:06.929391 20909 net.cpp:159] Memory required for data: 3888080
I0506 08:57:06.929396 20909 layer_factory.hpp:77] Creating layer ip3_ip3_0_split
I0506 08:57:06.929402 20909 net.cpp:94] Creating Layer ip3_ip3_0_split
I0506 08:57:06.929406 20909 net.cpp:435] ip3_ip3_0_split <- ip3
I0506 08:57:06.929411 20909 net.cpp:409] ip3_ip3_0_split -> ip3_ip3_0_split_0
I0506 08:57:06.929417 20909 net.cpp:409] ip3_ip3_0_split -> ip3_ip3_0_split_1
I0506 08:57:06.929461 20909 net.cpp:144] Setting up ip3_ip3_0_split
I0506 08:57:06.929467 20909 net.cpp:151] Top shape: 20 50 (1000)
I0506 08:57:06.929471 20909 net.cpp:151] Top shape: 20 50 (1000)
I0506 08:57:06.929474 20909 net.cpp:159] Memory required for data: 3896080
I0506 08:57:06.929477 20909 layer_factory.hpp:77] Creating layer accuracy
I0506 08:57:06.929483 20909 net.cpp:94] Creating Layer accuracy
I0506 08:57:06.929486 20909 net.cpp:435] accuracy <- ip3_ip3_0_split_0
I0506 08:57:06.929491 20909 net.cpp:435] accuracy <- label_intercept_1_split_0
I0506 08:57:06.929496 20909 net.cpp:409] accuracy -> accuracy
…
