…
I0502 18:51:00.148084 12294 net.cpp:323] The NetState phase (0) differed from the phase (1) specified by a rule in layer intercept
I0502 18:51:00.148100 12294 net.cpp:323] The NetState phase (0) differed from the phase (1) specified by a rule in layer accuracy
I0502 18:51:00.148193 12294 net.cpp:52] Initializing net from parameters: 
state {
  phase: TRAIN
}
layer {
  name: "parameters"
  type: "HDF5Data"
  top: "data"
  top: "label"
  include {
    phase: TRAIN
  }
  hdf5_data_param {
    source: "/home/purduethu/scratch/radon/d/deng106/CNNStatisticalModel/distributions/input/20_distributions_100_sample_size_train-distributions-path.txt"
    batch_size: 20
  }
}
layer {
  name: "conv1"
  type: "Convolution"
  bottom: "data"
  top: "conv1"
  param {
    lr_mult: 1
  }
  param {
    lr_mult: 2
  }
  convolution_param {
    num_output: 64
    pad: 2
    kernel_size: 5
    stride: 1
    weight_filler {
      type: "gaussian"
      std: 0.0001
    }
    bias_filler {
      type: "constant"
    }
  }
}
layer {
  name: "relu1"
  type: "ReLU"
  bottom: "conv1"
  top: "conv1"
}
layer {
  name: "conv2"
  type: "Convolution"
  bottom: "conv1"
  top: "conv2"
  param {
    lr_mult: 1
  }
  param {
    lr_mult: 2
  }
  convolution_param {
    num_output: 64
    pad: 2
    kernel_size: 5
    stride: 1
    weight_filler {
      type: "gaussian"
      std: 0.01
    }
    bias_filler {
      type: "constant"
    }
  }
}
layer {
  name: "relu2"
  type: "ReLU"
  bottom: "conv2"
  top: "conv2"
}
layer {
  name: "pool2"
  type: "Pooling"
  bottom: "conv2"
  top: "pool2"
  pooling_param {
    pool: MAX
    kernel_size: 3
    stride: 2
  }
}
layer {
  name: "conv3"
  type: "Convolution"
  bottom: "pool2"
  top: "conv3"
  param {
    lr_mult: 1
  }
  param {
    lr_mult: 2
  }
  convolution_param {
    num_output: 64
    pad: 2
    kernel_size: 5
    stride: 1
    weight_filler {
      type: "gaussian"
      std: 0.01
    }
    bias_filler {
      type: "constant"
    }
  }
}
layer {
  name: "relu3"
  type: "ReLU"
  bottom: "conv3"
  top: "conv3"
}
layer {
  name: "conv4"
  type: "Convolution"
  bottom: "conv3"
  top: "conv4"
  param {
    lr_mult: 1
  }
  param {
    lr_mult: 2
  }
  convolution_param {
    num_output: 64
    pad: 2
    kernel_size: 5
    stride: 1
    weight_filler {
      type: "gaussian"
      std: 0.01
    }
    bias_filler {
      type: "constant"
    }
  }
}
layer {
  name: "relu4"
  type: "ReLU"
  bottom: "conv4"
  top: "conv4"
}
layer {
  name: "conv5"
  type: "Convolution"
  bottom: "conv4"
  top: "conv5"
  param {
    lr_mult: 1
  }
  param {
    lr_mult: 2
  }
  convolution_param {
    num_output: 64
    pad: 2
    kernel_size: 5
    stride: 1
    weight_filler {
      type: "gaussian"
      std: 0.01
    }
    bias_filler {
      type: "constant"
    }
  }
}
layer {
  name: "relu5"
  type: "ReLU"
  bottom: "conv5"
  top: "conv5"
}
layer {
  name: "pool5"
  type: "Pooling"
  bottom: "conv5"
  top: "pool5"
  pooling_param {
    pool: AVE
    kernel_size: 3
    stride: 2
  }
}
layer {
  name: "ip1"
  type: "InnerProduct"
  bottom: "pool5"
  top: "ip1"
  param {
    lr_mult: 1
  }
  param {
    lr_mult: 2
  }
  inner_product_param {
    num_output: 64
    weight_filler {
      type: "gaussian"
      std: 0.1
    }
    bias_filler {
      type: "constant"
    }
  }
}
layer {
  name: "ip2"
  type: "InnerProduct"
  bottom: "ip1"
  top: "ip2"
  param {
    lr_mult: 1
  }
  param {
    lr_mult: 2
  }
  inner_product_param {
    num_output: 64
    weight_filler {
      type: "gaussian"
      std: 0.1
    }
    bias_filler {
      type: "constant"
    }
  }
}
layer {
  name: "ip3"
  type: "InnerProduct"
  bottom: "ip2"
  top: "ip3"
  param {
    lr_mult: 1
  }
  param {
    lr_mult: 2
  }
  inner_product_param {
    num_output: 50
    weight_filler {
      type: "gaussian"
      std: 0.1
    }
    bias_filler {
      type: "constant"
    }
  }
}
layer {
  name: "loss"
  type: "SoftmaxWithLoss"
  bottom: "ip3"
  bottom: "label"
  top: "loss"
}
I0502 18:51:00.148270 12294 layer_factory.hpp:77] Creating layer parameters
I0502 18:51:00.148284 12294 net.cpp:94] Creating Layer parameters
I0502 18:51:00.148290 12294 net.cpp:409] parameters -> data
I0502 18:51:00.148311 12294 net.cpp:409] parameters -> label
I0502 18:51:00.148321 12294 hdf5_data_layer.cpp:79] Loading list of HDF5 filenames from: /home/purduethu/scratch/radon/d/deng106/CNNStatisticalModel/distributions/input/20_distributions_100_sample_size_train-distributions-path.txt
I0502 18:51:00.148342 12294 hdf5_data_layer.cpp:93] Number of HDF5 files: 1
I0502 18:51:00.148974 12294 hdf5.cpp:32] Datatype class: H5T_FLOAT
I0502 18:51:00.224002 12294 hdf5.cpp:35] Datatype class: H5T_INTEGER
I0502 18:51:00.226722 12294 net.cpp:144] Setting up parameters
I0502 18:51:00.226763 12294 net.cpp:151] Top shape: 20 1 10 10 (2000)
I0502 18:51:00.226771 12294 net.cpp:151] Top shape: 20 (20)
I0502 18:51:00.226778 12294 net.cpp:159] Memory required for data: 8080
I0502 18:51:00.226788 12294 layer_factory.hpp:77] Creating layer conv1
I0502 18:51:00.226819 12294 net.cpp:94] Creating Layer conv1
I0502 18:51:00.226827 12294 net.cpp:435] conv1 <- data
I0502 18:51:00.226845 12294 net.cpp:409] conv1 -> conv1
I0502 18:51:00.237299 12294 net.cpp:144] Setting up conv1
I0502 18:51:00.237334 12294 net.cpp:151] Top shape: 20 64 10 10 (128000)
I0502 18:51:00.237339 12294 net.cpp:159] Memory required for data: 520080
I0502 18:51:00.237352 12294 layer_factory.hpp:77] Creating layer relu1
I0502 18:51:00.237363 12294 net.cpp:94] Creating Layer relu1
I0502 18:51:00.237368 12294 net.cpp:435] relu1 <- conv1
I0502 18:51:00.237373 12294 net.cpp:396] relu1 -> conv1 (in-place)
I0502 18:51:00.237393 12294 net.cpp:144] Setting up relu1
I0502 18:51:00.237398 12294 net.cpp:151] Top shape: 20 64 10 10 (128000)
I0502 18:51:00.237402 12294 net.cpp:159] Memory required for data: 1032080
I0502 18:51:00.237406 12294 layer_factory.hpp:77] Creating layer conv2
I0502 18:51:00.237427 12294 net.cpp:94] Creating Layer conv2
I0502 18:51:00.237433 12294 net.cpp:435] conv2 <- conv1
I0502 18:51:00.237442 12294 net.cpp:409] conv2 -> conv2
I0502 18:51:00.243970 12294 net.cpp:144] Setting up conv2
I0502 18:51:00.243994 12294 net.cpp:151] Top shape: 20 64 10 10 (128000)
I0502 18:51:00.243999 12294 net.cpp:159] Memory required for data: 1544080
I0502 18:51:00.244009 12294 layer_factory.hpp:77] Creating layer relu2
I0502 18:51:00.244019 12294 net.cpp:94] Creating Layer relu2
I0502 18:51:00.244022 12294 net.cpp:435] relu2 <- conv2
I0502 18:51:00.244027 12294 net.cpp:396] relu2 -> conv2 (in-place)
I0502 18:51:00.244036 12294 net.cpp:144] Setting up relu2
I0502 18:51:00.244041 12294 net.cpp:151] Top shape: 20 64 10 10 (128000)
I0502 18:51:00.244045 12294 net.cpp:159] Memory required for data: 2056080
I0502 18:51:00.244048 12294 layer_factory.hpp:77] Creating layer pool2
I0502 18:51:00.244062 12294 net.cpp:94] Creating Layer pool2
I0502 18:51:00.244067 12294 net.cpp:435] pool2 <- conv2
I0502 18:51:00.244071 12294 net.cpp:409] pool2 -> pool2
I0502 18:51:00.244122 12294 net.cpp:144] Setting up pool2
I0502 18:51:00.244130 12294 net.cpp:151] Top shape: 20 64 5 5 (32000)
I0502 18:51:00.244134 12294 net.cpp:159] Memory required for data: 2184080
I0502 18:51:00.244138 12294 layer_factory.hpp:77] Creating layer conv3
I0502 18:51:00.244148 12294 net.cpp:94] Creating Layer conv3
I0502 18:51:00.244150 12294 net.cpp:435] conv3 <- pool2
I0502 18:51:00.244165 12294 net.cpp:409] conv3 -> conv3
I0502 18:51:00.251929 12294 net.cpp:144] Setting up conv3
I0502 18:51:00.251945 12294 net.cpp:151] Top shape: 20 64 5 5 (32000)
I0502 18:51:00.251950 12294 net.cpp:159] Memory required for data: 2312080
I0502 18:51:00.251958 12294 layer_factory.hpp:77] Creating layer relu3
I0502 18:51:00.251965 12294 net.cpp:94] Creating Layer relu3
I0502 18:51:00.251969 12294 net.cpp:435] relu3 <- conv3
I0502 18:51:00.251973 12294 net.cpp:396] relu3 -> conv3 (in-place)
I0502 18:51:00.251981 12294 net.cpp:144] Setting up relu3
I0502 18:51:00.251986 12294 net.cpp:151] Top shape: 20 64 5 5 (32000)
I0502 18:51:00.251989 12294 net.cpp:159] Memory required for data: 2440080
I0502 18:51:00.251993 12294 layer_factory.hpp:77] Creating layer conv4
I0502 18:51:00.252002 12294 net.cpp:94] Creating Layer conv4
I0502 18:51:00.252005 12294 net.cpp:435] conv4 <- conv3
I0502 18:51:00.252012 12294 net.cpp:409] conv4 -> conv4
I0502 18:51:00.257673 12294 net.cpp:144] Setting up conv4
I0502 18:51:00.257686 12294 net.cpp:151] Top shape: 20 64 5 5 (32000)
I0502 18:51:00.257691 12294 net.cpp:159] Memory required for data: 2568080
I0502 18:51:00.257697 12294 layer_factory.hpp:77] Creating layer relu4
I0502 18:51:00.257704 12294 net.cpp:94] Creating Layer relu4
I0502 18:51:00.257707 12294 net.cpp:435] relu4 <- conv4
I0502 18:51:00.257711 12294 net.cpp:396] relu4 -> conv4 (in-place)
I0502 18:51:00.257719 12294 net.cpp:144] Setting up relu4
I0502 18:51:00.257724 12294 net.cpp:151] Top shape: 20 64 5 5 (32000)
I0502 18:51:00.257726 12294 net.cpp:159] Memory required for data: 2696080
I0502 18:51:00.257730 12294 layer_factory.hpp:77] Creating layer conv5
I0502 18:51:00.257737 12294 net.cpp:94] Creating Layer conv5
I0502 18:51:00.257741 12294 net.cpp:435] conv5 <- conv4
I0502 18:51:00.257746 12294 net.cpp:409] conv5 -> conv5
I0502 18:51:00.263813 12294 net.cpp:144] Setting up conv5
I0502 18:51:00.263828 12294 net.cpp:151] Top shape: 20 64 5 5 (32000)
I0502 18:51:00.263831 12294 net.cpp:159] Memory required for data: 2824080
I0502 18:51:00.263840 12294 layer_factory.hpp:77] Creating layer relu5
I0502 18:51:00.263846 12294 net.cpp:94] Creating Layer relu5
I0502 18:51:00.263851 12294 net.cpp:435] relu5 <- conv5
I0502 18:51:00.263855 12294 net.cpp:396] relu5 -> conv5 (in-place)
I0502 18:51:00.263862 12294 net.cpp:144] Setting up relu5
I0502 18:51:00.263867 12294 net.cpp:151] Top shape: 20 64 5 5 (32000)
I0502 18:51:00.263871 12294 net.cpp:159] Memory required for data: 2952080
I0502 18:51:00.263875 12294 layer_factory.hpp:77] Creating layer pool5
I0502 18:51:00.263880 12294 net.cpp:94] Creating Layer pool5
I0502 18:51:00.263883 12294 net.cpp:435] pool5 <- conv5
I0502 18:51:00.263887 12294 net.cpp:409] pool5 -> pool5
I0502 18:51:00.263923 12294 net.cpp:144] Setting up pool5
I0502 18:51:00.263931 12294 net.cpp:151] Top shape: 20 64 2 2 (5120)
I0502 18:51:00.263934 12294 net.cpp:159] Memory required for data: 2972560
I0502 18:51:00.263937 12294 layer_factory.hpp:77] Creating layer ip1
I0502 18:51:00.263948 12294 net.cpp:94] Creating Layer ip1
I0502 18:51:00.263952 12294 net.cpp:435] ip1 <- pool5
I0502 18:51:00.263957 12294 net.cpp:409] ip1 -> ip1
I0502 18:51:00.265199 12294 net.cpp:144] Setting up ip1
I0502 18:51:00.265213 12294 net.cpp:151] Top shape: 20 64 (1280)
I0502 18:51:00.265218 12294 net.cpp:159] Memory required for data: 2977680
I0502 18:51:00.265224 12294 layer_factory.hpp:77] Creating layer ip2
I0502 18:51:00.265231 12294 net.cpp:94] Creating Layer ip2
I0502 18:51:00.265239 12294 net.cpp:435] ip2 <- ip1
I0502 18:51:00.265246 12294 net.cpp:409] ip2 -> ip2
I0502 18:51:00.265422 12294 net.cpp:144] Setting up ip2
I0502 18:51:00.265429 12294 net.cpp:151] Top shape: 20 64 (1280)
I0502 18:51:00.265432 12294 net.cpp:159] Memory required for data: 2982800
I0502 18:51:00.265439 12294 layer_factory.hpp:77] Creating layer ip3
I0502 18:51:00.265444 12294 net.cpp:94] Creating Layer ip3
I0502 18:51:00.265449 12294 net.cpp:435] ip3 <- ip2
I0502 18:51:00.265452 12294 net.cpp:409] ip3 -> ip3
I0502 18:51:00.265599 12294 net.cpp:144] Setting up ip3
I0502 18:51:00.265612 12294 net.cpp:151] Top shape: 20 50 (1000)
I0502 18:51:00.265616 12294 net.cpp:159] Memory required for data: 2986800
I0502 18:51:00.265621 12294 layer_factory.hpp:77] Creating layer loss
I0502 18:51:00.265628 12294 net.cpp:94] Creating Layer loss
I0502 18:51:00.265632 12294 net.cpp:435] loss <- ip3
I0502 18:51:00.265636 12294 net.cpp:435] loss <- label
I0502 18:51:00.265642 12294 net.cpp:409] loss -> loss
I0502 18:51:00.265652 12294 layer_factory.hpp:77] Creating layer loss
…
I0502 18:51:00.266908 12294 solver.cpp:181] Creating test net (#0) specified by net file: ./protocol/dis_20_100_dimension.protocol_distribution
I0502 18:51:00.266937 12294 net.cpp:323] The NetState phase (1) differed from the phase (0) specified by a rule in layer parameters
I0502 18:51:00.267036 12294 net.cpp:52] Initializing net from parameters: 
state {
  phase: TEST
}
layer {
  name: "intercept"
  type: "HDF5Data"
  top: "data"
  top: "label"
  include {
    phase: TEST
  }
  hdf5_data_param {
    source: "/home/purduethu/scratch/radon/d/deng106/CNNStatisticalModel/distributions/input/20_distributions_100_sample_size_test-distributions-path.txt"
    batch_size: 20
  }
}
layer {
  name: "conv1"
  type: "Convolution"
  bottom: "data"
  top: "conv1"
  param {
    lr_mult: 1
  }
  param {
    lr_mult: 2
  }
  convolution_param {
    num_output: 64
    pad: 2
    kernel_size: 5
    stride: 1
    weight_filler {
      type: "gaussian"
      std: 0.0001
    }
    bias_filler {
      type: "constant"
    }
  }
}
layer {
  name: "relu1"
  type: "ReLU"
  bottom: "conv1"
  top: "conv1"
}
layer {
  name: "conv2"
  type: "Convolution"
  bottom: "conv1"
  top: "conv2"
  param {
    lr_mult: 1
  }
  param {
    lr_mult: 2
  }
  convolution_param {
    num_output: 64
    pad: 2
    kernel_size: 5
    stride: 1
    weight_filler {
      type: "gaussian"
      std: 0.01
    }
    bias_filler {
      type: "constant"
    }
  }
}
layer {
  name: "relu2"
  type: "ReLU"
  bottom: "conv2"
  top: "conv2"
}
layer {
  name: "pool2"
  type: "Pooling"
  bottom: "conv2"
  top: "pool2"
  pooling_param {
    pool: MAX
    kernel_size: 3
    stride: 2
  }
}
layer {
  name: "conv3"
  type: "Convolution"
  bottom: "pool2"
  top: "conv3"
  param {
    lr_mult: 1
  }
  param {
    lr_mult: 2
  }
  convolution_param {
    num_output: 64
    pad: 2
    kernel_size: 5
    stride: 1
    weight_filler {
      type: "gaussian"
      std: 0.01
    }
    bias_filler {
      type: "constant"
    }
  }
}
layer {
  name: "relu3"
  type: "ReLU"
  bottom: "conv3"
  top: "conv3"
}
layer {
  name: "conv4"
  type: "Convolution"
  bottom: "conv3"
  top: "conv4"
  param {
    lr_mult: 1
  }
  param {
    lr_mult: 2
  }
  convolution_param {
    num_output: 64
    pad: 2
    kernel_size: 5
    stride: 1
    weight_filler {
      type: "gaussian"
      std: 0.01
    }
    bias_filler {
      type: "constant"
    }
  }
}
layer {
  name: "relu4"
  type: "ReLU"
  bottom: "conv4"
  top: "conv4"
}
layer {
  name: "conv5"
  type: "Convolution"
  bottom: "conv4"
  top: "conv5"
  param {
    lr_mult: 1
  }
  param {
    lr_mult: 2
  }
  convolution_param {
    num_output: 64
    pad: 2
    kernel_size: 5
    stride: 1
    weight_filler {
      type: "gaussian"
      std: 0.01
    }
    bias_filler {
      type: "constant"
    }
  }
}
layer {
  name: "relu5"
  type: "ReLU"
  bottom: "conv5"
  top: "conv5"
}
layer {
  name: "pool5"
  type: "Pooling"
  bottom: "conv5"
  top: "pool5"
  pooling_param {
    pool: AVE
    kernel_size: 3
    stride: 2
  }
}
layer {
  name: "ip1"
  type: "InnerProduct"
  bottom: "pool5"
  top: "ip1"
  param {
    lr_mult: 1
  }
  param {
    lr_mult: 2
  }
  inner_product_param {
    num_output: 64
    weight_filler {
      type: "gaussian"
      std: 0.1
    }
    bias_filler {
      type: "constant"
    }
  }
}
layer {
  name: "ip2"
  type: "InnerProduct"
  bottom: "ip1"
  top: "ip2"
  param {
    lr_mult: 1
  }
  param {
    lr_mult: 2
  }
  inner_product_param {
    num_output: 64
    weight_filler {
      type: "gaussian"
      std: 0.1
    }
    bias_filler {
      type: "constant"
    }
  }
}
layer {
  name: "ip3"
  type: "InnerProduct"
  bottom: "ip2"
  top: "ip3"
  param {
    lr_mult: 1
  }
  param {
    lr_mult: 2
  }
  inner_product_param {
    num_output: 50
    weight_filler {
      type: "gaussian"
      std: 0.1
    }
    bias_filler {
      type: "constant"
    }
  }
}
layer {
  name: "accuracy"
  type: "Accuracy"
  bottom: "ip3"
  bottom: "label"
  top: "accuracy"
  include {
    phase: TEST
  }
}
layer {
  name: "loss"
  type: "SoftmaxWithLoss"
  bottom: "ip3"
  bottom: "label"
  top: "loss"
}
I0502 18:51:00.267110 12294 layer_factory.hpp:77] Creating layer intercept
I0502 18:51:00.267119 12294 net.cpp:94] Creating Layer intercept
I0502 18:51:00.267123 12294 net.cpp:409] intercept -> data
I0502 18:51:00.267130 12294 net.cpp:409] intercept -> label
I0502 18:51:00.267137 12294 hdf5_data_layer.cpp:79] Loading list of HDF5 filenames from: /home/purduethu/scratch/radon/d/deng106/CNNStatisticalModel/distributions/input/20_distributions_100_sample_size_test-distributions-path.txt
I0502 18:51:00.267156 12294 hdf5_data_layer.cpp:93] Number of HDF5 files: 1
I0502 18:51:00.285655 12294 net.cpp:144] Setting up intercept
I0502 18:51:00.285684 12294 net.cpp:151] Top shape: 20 1 10 10 (2000)
I0502 18:51:00.285691 12294 net.cpp:151] Top shape: 20 (20)
I0502 18:51:00.285694 12294 net.cpp:159] Memory required for data: 8080
I0502 18:51:00.285701 12294 layer_factory.hpp:77] Creating layer label_intercept_1_split
I0502 18:51:00.285717 12294 net.cpp:94] Creating Layer label_intercept_1_split
I0502 18:51:00.285722 12294 net.cpp:435] label_intercept_1_split <- label
I0502 18:51:00.285728 12294 net.cpp:409] label_intercept_1_split -> label_intercept_1_split_0
I0502 18:51:00.285737 12294 net.cpp:409] label_intercept_1_split -> label_intercept_1_split_1
I0502 18:51:00.285771 12294 net.cpp:144] Setting up label_intercept_1_split
I0502 18:51:00.285778 12294 net.cpp:151] Top shape: 20 (20)
I0502 18:51:00.285782 12294 net.cpp:151] Top shape: 20 (20)
I0502 18:51:00.285786 12294 net.cpp:159] Memory required for data: 8240
I0502 18:51:00.285789 12294 layer_factory.hpp:77] Creating layer conv1
I0502 18:51:00.285801 12294 net.cpp:94] Creating Layer conv1
I0502 18:51:00.285804 12294 net.cpp:435] conv1 <- data
I0502 18:51:00.285810 12294 net.cpp:409] conv1 -> conv1
I0502 18:51:00.286749 12294 net.cpp:144] Setting up conv1
I0502 18:51:00.286772 12294 net.cpp:151] Top shape: 20 64 10 10 (128000)
I0502 18:51:00.286775 12294 net.cpp:159] Memory required for data: 520240
I0502 18:51:00.286785 12294 layer_factory.hpp:77] Creating layer relu1
I0502 18:51:00.286792 12294 net.cpp:94] Creating Layer relu1
I0502 18:51:00.286797 12294 net.cpp:435] relu1 <- conv1
I0502 18:51:00.286800 12294 net.cpp:396] relu1 -> conv1 (in-place)
I0502 18:51:00.286808 12294 net.cpp:144] Setting up relu1
I0502 18:51:00.286813 12294 net.cpp:151] Top shape: 20 64 10 10 (128000)
I0502 18:51:00.286816 12294 net.cpp:159] Memory required for data: 1032240
I0502 18:51:00.286819 12294 layer_factory.hpp:77] Creating layer conv2
I0502 18:51:00.286828 12294 net.cpp:94] Creating Layer conv2
I0502 18:51:00.286831 12294 net.cpp:435] conv2 <- conv1
I0502 18:51:00.286837 12294 net.cpp:409] conv2 -> conv2
I0502 18:51:00.290634 12294 net.cpp:144] Setting up conv2
I0502 18:51:00.290647 12294 net.cpp:151] Top shape: 20 64 10 10 (128000)
I0502 18:51:00.290652 12294 net.cpp:159] Memory required for data: 1544240
I0502 18:51:00.290659 12294 layer_factory.hpp:77] Creating layer relu2
I0502 18:51:00.290666 12294 net.cpp:94] Creating Layer relu2
I0502 18:51:00.290670 12294 net.cpp:435] relu2 <- conv2
I0502 18:51:00.290674 12294 net.cpp:396] relu2 -> conv2 (in-place)
I0502 18:51:00.290681 12294 net.cpp:144] Setting up relu2
I0502 18:51:00.290686 12294 net.cpp:151] Top shape: 20 64 10 10 (128000)
I0502 18:51:00.290689 12294 net.cpp:159] Memory required for data: 2056240
I0502 18:51:00.290693 12294 layer_factory.hpp:77] Creating layer pool2
I0502 18:51:00.290699 12294 net.cpp:94] Creating Layer pool2
I0502 18:51:00.290702 12294 net.cpp:435] pool2 <- conv2
I0502 18:51:00.290706 12294 net.cpp:409] pool2 -> pool2
I0502 18:51:00.290740 12294 net.cpp:144] Setting up pool2
I0502 18:51:00.290747 12294 net.cpp:151] Top shape: 20 64 5 5 (32000)
I0502 18:51:00.290750 12294 net.cpp:159] Memory required for data: 2184240
I0502 18:51:00.290755 12294 layer_factory.hpp:77] Creating layer conv3
I0502 18:51:00.290762 12294 net.cpp:94] Creating Layer conv3
I0502 18:51:00.290766 12294 net.cpp:435] conv3 <- pool2
I0502 18:51:00.290771 12294 net.cpp:409] conv3 -> conv3
I0502 18:51:00.295374 12294 net.cpp:144] Setting up conv3
I0502 18:51:00.295388 12294 net.cpp:151] Top shape: 20 64 5 5 (32000)
I0502 18:51:00.295392 12294 net.cpp:159] Memory required for data: 2312240
I0502 18:51:00.295400 12294 layer_factory.hpp:77] Creating layer relu3
I0502 18:51:00.295408 12294 net.cpp:94] Creating Layer relu3
I0502 18:51:00.295411 12294 net.cpp:435] relu3 <- conv3
I0502 18:51:00.295416 12294 net.cpp:396] relu3 -> conv3 (in-place)
I0502 18:51:00.295423 12294 net.cpp:144] Setting up relu3
I0502 18:51:00.295428 12294 net.cpp:151] Top shape: 20 64 5 5 (32000)
I0502 18:51:00.295431 12294 net.cpp:159] Memory required for data: 2440240
I0502 18:51:00.295434 12294 layer_factory.hpp:77] Creating layer conv4
I0502 18:51:00.295442 12294 net.cpp:94] Creating Layer conv4
I0502 18:51:00.295445 12294 net.cpp:435] conv4 <- conv3
I0502 18:51:00.295450 12294 net.cpp:409] conv4 -> conv4
I0502 18:51:00.299139 12294 net.cpp:144] Setting up conv4
I0502 18:51:00.299154 12294 net.cpp:151] Top shape: 20 64 5 5 (32000)
I0502 18:51:00.299157 12294 net.cpp:159] Memory required for data: 2568240
I0502 18:51:00.299163 12294 layer_factory.hpp:77] Creating layer relu4
I0502 18:51:00.299170 12294 net.cpp:94] Creating Layer relu4
I0502 18:51:00.299173 12294 net.cpp:435] relu4 <- conv4
I0502 18:51:00.299182 12294 net.cpp:396] relu4 -> conv4 (in-place)
I0502 18:51:00.299190 12294 net.cpp:144] Setting up relu4
I0502 18:51:00.299196 12294 net.cpp:151] Top shape: 20 64 5 5 (32000)
I0502 18:51:00.299198 12294 net.cpp:159] Memory required for data: 2696240
I0502 18:51:00.299201 12294 layer_factory.hpp:77] Creating layer conv5
I0502 18:51:00.299209 12294 net.cpp:94] Creating Layer conv5
I0502 18:51:00.299212 12294 net.cpp:435] conv5 <- conv4
I0502 18:51:00.299217 12294 net.cpp:409] conv5 -> conv5
I0502 18:51:00.302987 12294 net.cpp:144] Setting up conv5
I0502 18:51:00.303006 12294 net.cpp:151] Top shape: 20 64 5 5 (32000)
I0502 18:51:00.303011 12294 net.cpp:159] Memory required for data: 2824240
I0502 18:51:00.303020 12294 layer_factory.hpp:77] Creating layer relu5
I0502 18:51:00.303025 12294 net.cpp:94] Creating Layer relu5
I0502 18:51:00.303030 12294 net.cpp:435] relu5 <- conv5
I0502 18:51:00.303033 12294 net.cpp:396] relu5 -> conv5 (in-place)
I0502 18:51:00.303040 12294 net.cpp:144] Setting up relu5
I0502 18:51:00.303045 12294 net.cpp:151] Top shape: 20 64 5 5 (32000)
I0502 18:51:00.303048 12294 net.cpp:159] Memory required for data: 2952240
I0502 18:51:00.303051 12294 layer_factory.hpp:77] Creating layer pool5
I0502 18:51:00.303056 12294 net.cpp:94] Creating Layer pool5
I0502 18:51:00.303061 12294 net.cpp:435] pool5 <- conv5
I0502 18:51:00.303064 12294 net.cpp:409] pool5 -> pool5
I0502 18:51:00.303088 12294 net.cpp:144] Setting up pool5
I0502 18:51:00.303094 12294 net.cpp:151] Top shape: 20 64 2 2 (5120)
I0502 18:51:00.303097 12294 net.cpp:159] Memory required for data: 2972720
I0502 18:51:00.303102 12294 layer_factory.hpp:77] Creating layer ip1
I0502 18:51:00.303107 12294 net.cpp:94] Creating Layer ip1
I0502 18:51:00.303112 12294 net.cpp:435] ip1 <- pool5
I0502 18:51:00.303117 12294 net.cpp:409] ip1 -> ip1
I0502 18:51:00.303592 12294 net.cpp:144] Setting up ip1
I0502 18:51:00.303599 12294 net.cpp:151] Top shape: 20 64 (1280)
I0502 18:51:00.303603 12294 net.cpp:159] Memory required for data: 2977840
I0502 18:51:00.303608 12294 layer_factory.hpp:77] Creating layer ip2
I0502 18:51:00.303614 12294 net.cpp:94] Creating Layer ip2
I0502 18:51:00.303617 12294 net.cpp:435] ip2 <- ip1
I0502 18:51:00.303622 12294 net.cpp:409] ip2 -> ip2
I0502 18:51:00.303792 12294 net.cpp:144] Setting up ip2
I0502 18:51:00.303798 12294 net.cpp:151] Top shape: 20 64 (1280)
I0502 18:51:00.303802 12294 net.cpp:159] Memory required for data: 2982960
I0502 18:51:00.303807 12294 layer_factory.hpp:77] Creating layer ip3
I0502 18:51:00.303813 12294 net.cpp:94] Creating Layer ip3
I0502 18:51:00.303817 12294 net.cpp:435] ip3 <- ip2
I0502 18:51:00.303822 12294 net.cpp:409] ip3 -> ip3
I0502 18:51:00.303970 12294 net.cpp:144] Setting up ip3
I0502 18:51:00.303977 12294 net.cpp:151] Top shape: 20 50 (1000)
I0502 18:51:00.303979 12294 net.cpp:159] Memory required for data: 2986960
I0502 18:51:00.303984 12294 layer_factory.hpp:77] Creating layer ip3_ip3_0_split
I0502 18:51:00.303989 12294 net.cpp:94] Creating Layer ip3_ip3_0_split
I0502 18:51:00.303992 12294 net.cpp:435] ip3_ip3_0_split <- ip3
I0502 18:51:00.303997 12294 net.cpp:409] ip3_ip3_0_split -> ip3_ip3_0_split_0
I0502 18:51:00.304003 12294 net.cpp:409] ip3_ip3_0_split -> ip3_ip3_0_split_1
I0502 18:51:00.304025 12294 net.cpp:144] Setting up ip3_ip3_0_split
I0502 18:51:00.304031 12294 net.cpp:151] Top shape: 20 50 (1000)
I0502 18:51:00.304035 12294 net.cpp:151] Top shape: 20 50 (1000)
I0502 18:51:00.304039 12294 net.cpp:159] Memory required for data: 2994960
I0502 18:51:00.304041 12294 layer_factory.hpp:77] Creating layer accuracy
I0502 18:51:00.304051 12294 net.cpp:94] Creating Layer accuracy
I0502 18:51:00.304054 12294 net.cpp:435] accuracy <- ip3_ip3_0_split_0
I0502 18:51:00.304059 12294 net.cpp:435] accuracy <- label_intercept_1_split_0
I0502 18:51:00.304064 12294 net.cpp:409] accuracy -> accuracy
…
