…
I0505 09:55:34.880870  6138 net.cpp:323] The NetState phase (0) differed from the phase (1) specified by a rule in layer intercept
I0505 09:55:34.880884  6138 net.cpp:323] The NetState phase (0) differed from the phase (1) specified by a rule in layer accuracy
I0505 09:55:34.880964  6138 net.cpp:52] Initializing net from parameters: 
state {
  phase: TRAIN
}
layer {
  name: "parameters"
  type: "HDF5Data"
  top: "data"
  top: "label"
  include {
    phase: TRAIN
  }
  hdf5_data_param {
    source: "/home/purduethu/scratch/radon/d/deng106/CNNStatisticalModel/distributions/input/5_distributions_100_sample_size_train-distributions-path.txt"
    batch_size: 20
  }
}
layer {
  name: "conv1"
  type: "Convolution"
  bottom: "data"
  top: "conv1"
  param {
    lr_mult: 1
  }
  param {
    lr_mult: 2
  }
  convolution_param {
    num_output: 64
    pad: 2
    kernel_size: 5
    stride: 1
    weight_filler {
      type: "gaussian"
      std: 0.0001
    }
    bias_filler {
      type: "constant"
    }
  }
}
layer {
  name: "relu1"
  type: "ReLU"
  bottom: "conv1"
  top: "conv1"
}
layer {
  name: "pool1"
  type: "Pooling"
  bottom: "conv1"
  top: "pool1"
  pooling_param {
    pool: MAX
    kernel_size: 3
    stride: 2
  }
}
layer {
  name: "conv2"
  type: "Convolution"
  bottom: "pool1"
  top: "conv2"
  param {
    lr_mult: 1
  }
  param {
    lr_mult: 2
  }
  convolution_param {
    num_output: 128
    pad: 2
    kernel_size: 5
    stride: 1
    weight_filler {
      type: "gaussian"
      std: 0.01
    }
    bias_filler {
      type: "constant"
    }
  }
}
layer {
  name: "relu2"
  type: "ReLU"
  bottom: "conv2"
  top: "conv2"
}
layer {
  name: "conv3"
  type: "Convolution"
  bottom: "conv2"
  top: "conv3"
  param {
    lr_mult: 1
  }
  param {
    lr_mult: 2
  }
  convolution_param {
    num_output: 128
    pad: 2
    kernel_size: 5
    stride: 1
    weight_filler {
      type: "gaussian"
      std: 0.01
    }
    bias_filler {
      type: "constant"
    }
  }
}
layer {
  name: "relu3"
  type: "ReLU"
  bottom: "conv3"
  top: "conv3"
}
layer {
  name: "pool3"
  type: "Pooling"
  bottom: "conv3"
  top: "pool3"
  pooling_param {
    pool: AVE
    kernel_size: 3
    stride: 2
  }
}
layer {
  name: "ip1"
  type: "InnerProduct"
  bottom: "pool3"
  top: "ip1"
  param {
    lr_mult: 1
  }
  param {
    lr_mult: 2
  }
  inner_product_param {
    num_output: 512
    weight_filler {
      type: "gaussian"
      std: 0.1
    }
    bias_filler {
      type: "constant"
    }
  }
}
layer {
  name: "ip2"
  type: "InnerProduct"
  bottom: "ip1"
  top: "ip2"
  param {
    lr_mult: 1
  }
  param {
    lr_mult: 2
  }
  inner_product_param {
    num_output: 256
    weight_filler {
      type: "gaussian"
      std: 0.1
    }
    bias_filler {
      type: "constant"
    }
  }
}
layer {
  name: "ip3"
  type: "InnerProduct"
  bottom: "ip2"
  top: "ip3"
  param {
    lr_mult: 1
  }
  param {
    lr_mult: 2
  }
  inner_product_param {
    num_output: 50
    weight_filler {
      type: "gaussian"
      std: 0.1
    }
    bias_filler {
      type: "constant"
    }
  }
}
layer {
  name: "loss"
  type: "SoftmaxWithLoss"
  bottom: "ip3"
  bottom: "label"
  top: "loss"
}
I0505 09:55:34.881027  6138 layer_factory.hpp:77] Creating layer parameters
I0505 09:55:34.881042  6138 net.cpp:94] Creating Layer parameters
I0505 09:55:34.881048  6138 net.cpp:409] parameters -> data
I0505 09:55:34.881074  6138 net.cpp:409] parameters -> label
I0505 09:55:34.881086  6138 hdf5_data_layer.cpp:79] Loading list of HDF5 filenames from: /home/purduethu/scratch/radon/d/deng106/CNNStatisticalModel/distributions/input/5_distributions_100_sample_size_train-distributions-path.txt
I0505 09:55:34.881110  6138 hdf5_data_layer.cpp:93] Number of HDF5 files: 1
I0505 09:55:34.881583  6138 hdf5.cpp:32] Datatype class: H5T_FLOAT
I0505 09:55:34.898066  6138 hdf5.cpp:35] Datatype class: H5T_INTEGER
I0505 09:55:34.899235  6138 net.cpp:144] Setting up parameters
I0505 09:55:34.899257  6138 net.cpp:151] Top shape: 20 1 10 10 (2000)
I0505 09:55:34.899263  6138 net.cpp:151] Top shape: 20 (20)
I0505 09:55:34.899267  6138 net.cpp:159] Memory required for data: 8080
I0505 09:55:34.899276  6138 layer_factory.hpp:77] Creating layer conv1
I0505 09:55:34.899296  6138 net.cpp:94] Creating Layer conv1
I0505 09:55:34.899302  6138 net.cpp:435] conv1 <- data
I0505 09:55:34.899313  6138 net.cpp:409] conv1 -> conv1
I0505 09:55:34.903175  6138 net.cpp:144] Setting up conv1
I0505 09:55:34.903193  6138 net.cpp:151] Top shape: 20 64 10 10 (128000)
I0505 09:55:34.903198  6138 net.cpp:159] Memory required for data: 520080
I0505 09:55:34.903210  6138 layer_factory.hpp:77] Creating layer relu1
I0505 09:55:34.903219  6138 net.cpp:94] Creating Layer relu1
I0505 09:55:34.903223  6138 net.cpp:435] relu1 <- conv1
I0505 09:55:34.903228  6138 net.cpp:396] relu1 -> conv1 (in-place)
I0505 09:55:34.903245  6138 net.cpp:144] Setting up relu1
I0505 09:55:34.903251  6138 net.cpp:151] Top shape: 20 64 10 10 (128000)
I0505 09:55:34.903254  6138 net.cpp:159] Memory required for data: 1032080
I0505 09:55:34.903257  6138 layer_factory.hpp:77] Creating layer pool1
I0505 09:55:34.903265  6138 net.cpp:94] Creating Layer pool1
I0505 09:55:34.903268  6138 net.cpp:435] pool1 <- conv1
I0505 09:55:34.903273  6138 net.cpp:409] pool1 -> pool1
I0505 09:55:34.903321  6138 net.cpp:144] Setting up pool1
I0505 09:55:34.903328  6138 net.cpp:151] Top shape: 20 64 5 5 (32000)
I0505 09:55:34.903331  6138 net.cpp:159] Memory required for data: 1160080
I0505 09:55:34.903336  6138 layer_factory.hpp:77] Creating layer conv2
I0505 09:55:34.903344  6138 net.cpp:94] Creating Layer conv2
I0505 09:55:34.903347  6138 net.cpp:435] conv2 <- pool1
I0505 09:55:34.903353  6138 net.cpp:409] conv2 -> conv2
I0505 09:55:34.912154  6138 net.cpp:144] Setting up conv2
I0505 09:55:34.912175  6138 net.cpp:151] Top shape: 20 128 5 5 (64000)
I0505 09:55:34.912180  6138 net.cpp:159] Memory required for data: 1416080
I0505 09:55:34.912190  6138 layer_factory.hpp:77] Creating layer relu2
I0505 09:55:34.912197  6138 net.cpp:94] Creating Layer relu2
I0505 09:55:34.912201  6138 net.cpp:435] relu2 <- conv2
I0505 09:55:34.912206  6138 net.cpp:396] relu2 -> conv2 (in-place)
I0505 09:55:34.912214  6138 net.cpp:144] Setting up relu2
I0505 09:55:34.912220  6138 net.cpp:151] Top shape: 20 128 5 5 (64000)
I0505 09:55:34.912222  6138 net.cpp:159] Memory required for data: 1672080
I0505 09:55:34.912226  6138 layer_factory.hpp:77] Creating layer conv3
I0505 09:55:34.912235  6138 net.cpp:94] Creating Layer conv3
I0505 09:55:34.912238  6138 net.cpp:435] conv3 <- conv2
I0505 09:55:34.912243  6138 net.cpp:409] conv3 -> conv3
I0505 09:55:34.927441  6138 net.cpp:144] Setting up conv3
I0505 09:55:34.927472  6138 net.cpp:151] Top shape: 20 128 5 5 (64000)
I0505 09:55:34.927477  6138 net.cpp:159] Memory required for data: 1928080
I0505 09:55:34.927489  6138 layer_factory.hpp:77] Creating layer relu3
I0505 09:55:34.927505  6138 net.cpp:94] Creating Layer relu3
I0505 09:55:34.927510  6138 net.cpp:435] relu3 <- conv3
I0505 09:55:34.927515  6138 net.cpp:396] relu3 -> conv3 (in-place)
I0505 09:55:34.927525  6138 net.cpp:144] Setting up relu3
I0505 09:55:34.927531  6138 net.cpp:151] Top shape: 20 128 5 5 (64000)
I0505 09:55:34.927533  6138 net.cpp:159] Memory required for data: 2184080
I0505 09:55:34.927536  6138 layer_factory.hpp:77] Creating layer pool3
I0505 09:55:34.927543  6138 net.cpp:94] Creating Layer pool3
I0505 09:55:34.927554  6138 net.cpp:435] pool3 <- conv3
I0505 09:55:34.927561  6138 net.cpp:409] pool3 -> pool3
I0505 09:55:34.927603  6138 net.cpp:144] Setting up pool3
I0505 09:55:34.927609  6138 net.cpp:151] Top shape: 20 128 2 2 (10240)
I0505 09:55:34.927613  6138 net.cpp:159] Memory required for data: 2225040
I0505 09:55:34.927616  6138 layer_factory.hpp:77] Creating layer ip1
I0505 09:55:34.927628  6138 net.cpp:94] Creating Layer ip1
I0505 09:55:34.927630  6138 net.cpp:435] ip1 <- pool3
I0505 09:55:34.927635  6138 net.cpp:409] ip1 -> ip1
I0505 09:55:34.934893  6138 net.cpp:144] Setting up ip1
I0505 09:55:34.934913  6138 net.cpp:151] Top shape: 20 512 (10240)
I0505 09:55:34.934918  6138 net.cpp:159] Memory required for data: 2266000
I0505 09:55:34.934926  6138 layer_factory.hpp:77] Creating layer ip2
I0505 09:55:34.934934  6138 net.cpp:94] Creating Layer ip2
I0505 09:55:34.934938  6138 net.cpp:435] ip2 <- ip1
I0505 09:55:34.934944  6138 net.cpp:409] ip2 -> ip2
I0505 09:55:34.938861  6138 net.cpp:144] Setting up ip2
I0505 09:55:34.938877  6138 net.cpp:151] Top shape: 20 256 (5120)
I0505 09:55:34.938882  6138 net.cpp:159] Memory required for data: 2286480
I0505 09:55:34.938891  6138 layer_factory.hpp:77] Creating layer ip3
I0505 09:55:34.938899  6138 net.cpp:94] Creating Layer ip3
I0505 09:55:34.938904  6138 net.cpp:435] ip3 <- ip2
I0505 09:55:34.938908  6138 net.cpp:409] ip3 -> ip3
I0505 09:55:34.939963  6138 net.cpp:144] Setting up ip3
I0505 09:55:34.939976  6138 net.cpp:151] Top shape: 20 50 (1000)
I0505 09:55:34.939980  6138 net.cpp:159] Memory required for data: 2290480
I0505 09:55:34.939986  6138 layer_factory.hpp:77] Creating layer loss
I0505 09:55:34.939993  6138 net.cpp:94] Creating Layer loss
I0505 09:55:34.939997  6138 net.cpp:435] loss <- ip3
I0505 09:55:34.940001  6138 net.cpp:435] loss <- label
I0505 09:55:34.940008  6138 net.cpp:409] loss -> loss
I0505 09:55:34.940022  6138 layer_factory.hpp:77] Creating layer loss
…
I0505 09:55:34.940465  6138 solver.cpp:181] Creating test net (#0) specified by net file: ./protocol/dis_5_100_dimension.protocol_distribution
I0505 09:55:34.940490  6138 net.cpp:323] The NetState phase (1) differed from the phase (0) specified by a rule in layer parameters
I0505 09:55:34.940587  6138 net.cpp:52] Initializing net from parameters: 
state {
  phase: TEST
}
layer {
  name: "intercept"
  type: "HDF5Data"
  top: "data"
  top: "label"
  include {
    phase: TEST
  }
  hdf5_data_param {
    source: "/home/purduethu/scratch/radon/d/deng106/CNNStatisticalModel/distributions/input/5_distributions_100_sample_size_test-distributions-path.txt"
    batch_size: 20
  }
}
layer {
  name: "conv1"
  type: "Convolution"
  bottom: "data"
  top: "conv1"
  param {
    lr_mult: 1
  }
  param {
    lr_mult: 2
  }
  convolution_param {
    num_output: 64
    pad: 2
    kernel_size: 5
    stride: 1
    weight_filler {
      type: "gaussian"
      std: 0.0001
    }
    bias_filler {
      type: "constant"
    }
  }
}
layer {
  name: "relu1"
  type: "ReLU"
  bottom: "conv1"
  top: "conv1"
}
layer {
  name: "pool1"
  type: "Pooling"
  bottom: "conv1"
  top: "pool1"
  pooling_param {
    pool: MAX
    kernel_size: 3
    stride: 2
  }
}
layer {
  name: "conv2"
  type: "Convolution"
  bottom: "pool1"
  top: "conv2"
  param {
    lr_mult: 1
  }
  param {
    lr_mult: 2
  }
  convolution_param {
    num_output: 128
    pad: 2
    kernel_size: 5
    stride: 1
    weight_filler {
      type: "gaussian"
      std: 0.01
    }
    bias_filler {
      type: "constant"
    }
  }
}
layer {
  name: "relu2"
  type: "ReLU"
  bottom: "conv2"
  top: "conv2"
}
layer {
  name: "conv3"
  type: "Convolution"
  bottom: "conv2"
  top: "conv3"
  param {
    lr_mult: 1
  }
  param {
    lr_mult: 2
  }
  convolution_param {
    num_output: 128
    pad: 2
    kernel_size: 5
    stride: 1
    weight_filler {
      type: "gaussian"
      std: 0.01
    }
    bias_filler {
      type: "constant"
    }
  }
}
layer {
  name: "relu3"
  type: "ReLU"
  bottom: "conv3"
  top: "conv3"
}
layer {
  name: "pool3"
  type: "Pooling"
  bottom: "conv3"
  top: "pool3"
  pooling_param {
    pool: AVE
    kernel_size: 3
    stride: 2
  }
}
layer {
  name: "ip1"
  type: "InnerProduct"
  bottom: "pool3"
  top: "ip1"
  param {
    lr_mult: 1
  }
  param {
    lr_mult: 2
  }
  inner_product_param {
    num_output: 512
    weight_filler {
      type: "gaussian"
      std: 0.1
    }
    bias_filler {
      type: "constant"
    }
  }
}
layer {
  name: "ip2"
  type: "InnerProduct"
  bottom: "ip1"
  top: "ip2"
  param {
    lr_mult: 1
  }
  param {
    lr_mult: 2
  }
  inner_product_param {
    num_output: 256
    weight_filler {
      type: "gaussian"
      std: 0.1
    }
    bias_filler {
      type: "constant"
    }
  }
}
layer {
  name: "ip3"
  type: "InnerProduct"
  bottom: "ip2"
  top: "ip3"
  param {
    lr_mult: 1
  }
  param {
    lr_mult: 2
  }
  inner_product_param {
    num_output: 50
    weight_filler {
      type: "gaussian"
      std: 0.1
    }
    bias_filler {
      type: "constant"
    }
  }
}
layer {
  name: "accuracy"
  type: "Accuracy"
  bottom: "ip3"
  bottom: "label"
  top: "accuracy"
  include {
    phase: TEST
  }
}
layer {
  name: "loss"
  type: "SoftmaxWithLoss"
  bottom: "ip3"
  bottom: "label"
  top: "loss"
}
I0505 09:55:34.940654  6138 layer_factory.hpp:77] Creating layer intercept
I0505 09:55:34.940663  6138 net.cpp:94] Creating Layer intercept
I0505 09:55:34.940668  6138 net.cpp:409] intercept -> data
I0505 09:55:34.940675  6138 net.cpp:409] intercept -> label
I0505 09:55:34.940681  6138 hdf5_data_layer.cpp:79] Loading list of HDF5 filenames from: /home/purduethu/scratch/radon/d/deng106/CNNStatisticalModel/distributions/input/5_distributions_100_sample_size_test-distributions-path.txt
I0505 09:55:34.940701  6138 hdf5_data_layer.cpp:93] Number of HDF5 files: 1
I0505 09:55:34.944993  6138 net.cpp:144] Setting up intercept
I0505 09:55:34.945021  6138 net.cpp:151] Top shape: 20 1 10 10 (2000)
I0505 09:55:34.945027  6138 net.cpp:151] Top shape: 20 (20)
I0505 09:55:34.945031  6138 net.cpp:159] Memory required for data: 8080
I0505 09:55:34.945037  6138 layer_factory.hpp:77] Creating layer label_intercept_1_split
I0505 09:55:34.945056  6138 net.cpp:94] Creating Layer label_intercept_1_split
I0505 09:55:34.945067  6138 net.cpp:435] label_intercept_1_split <- label
I0505 09:55:34.945075  6138 net.cpp:409] label_intercept_1_split -> label_intercept_1_split_0
I0505 09:55:34.945083  6138 net.cpp:409] label_intercept_1_split -> label_intercept_1_split_1
I0505 09:55:34.945112  6138 net.cpp:144] Setting up label_intercept_1_split
I0505 09:55:34.945118  6138 net.cpp:151] Top shape: 20 (20)
I0505 09:55:34.945122  6138 net.cpp:151] Top shape: 20 (20)
I0505 09:55:34.945125  6138 net.cpp:159] Memory required for data: 8240
I0505 09:55:34.945137  6138 layer_factory.hpp:77] Creating layer conv1
I0505 09:55:34.945148  6138 net.cpp:94] Creating Layer conv1
I0505 09:55:34.945152  6138 net.cpp:435] conv1 <- data
I0505 09:55:34.945158  6138 net.cpp:409] conv1 -> conv1
I0505 09:55:34.945852  6138 net.cpp:144] Setting up conv1
I0505 09:55:34.945864  6138 net.cpp:151] Top shape: 20 64 10 10 (128000)
I0505 09:55:34.945868  6138 net.cpp:159] Memory required for data: 520240
I0505 09:55:34.945878  6138 layer_factory.hpp:77] Creating layer relu1
I0505 09:55:34.945884  6138 net.cpp:94] Creating Layer relu1
I0505 09:55:34.945888  6138 net.cpp:435] relu1 <- conv1
I0505 09:55:34.945894  6138 net.cpp:396] relu1 -> conv1 (in-place)
I0505 09:55:34.945900  6138 net.cpp:144] Setting up relu1
I0505 09:55:34.945905  6138 net.cpp:151] Top shape: 20 64 10 10 (128000)
I0505 09:55:34.945909  6138 net.cpp:159] Memory required for data: 1032240
I0505 09:55:34.945912  6138 layer_factory.hpp:77] Creating layer pool1
I0505 09:55:34.945919  6138 net.cpp:94] Creating Layer pool1
I0505 09:55:34.945922  6138 net.cpp:435] pool1 <- conv1
I0505 09:55:34.945927  6138 net.cpp:409] pool1 -> pool1
I0505 09:55:34.945964  6138 net.cpp:144] Setting up pool1
I0505 09:55:34.945971  6138 net.cpp:151] Top shape: 20 64 5 5 (32000)
I0505 09:55:34.945973  6138 net.cpp:159] Memory required for data: 1160240
I0505 09:55:34.945976  6138 layer_factory.hpp:77] Creating layer conv2
I0505 09:55:34.945984  6138 net.cpp:94] Creating Layer conv2
I0505 09:55:34.945988  6138 net.cpp:435] conv2 <- pool1
I0505 09:55:34.945993  6138 net.cpp:409] conv2 -> conv2
I0505 09:55:34.952702  6138 net.cpp:144] Setting up conv2
I0505 09:55:34.952718  6138 net.cpp:151] Top shape: 20 128 5 5 (64000)
I0505 09:55:34.952721  6138 net.cpp:159] Memory required for data: 1416240
I0505 09:55:34.952730  6138 layer_factory.hpp:77] Creating layer relu2
I0505 09:55:34.952739  6138 net.cpp:94] Creating Layer relu2
I0505 09:55:34.952741  6138 net.cpp:435] relu2 <- conv2
I0505 09:55:34.952746  6138 net.cpp:396] relu2 -> conv2 (in-place)
I0505 09:55:34.952754  6138 net.cpp:144] Setting up relu2
I0505 09:55:34.952759  6138 net.cpp:151] Top shape: 20 128 5 5 (64000)
I0505 09:55:34.952761  6138 net.cpp:159] Memory required for data: 1672240
I0505 09:55:34.952765  6138 layer_factory.hpp:77] Creating layer conv3
I0505 09:55:34.952774  6138 net.cpp:94] Creating Layer conv3
I0505 09:55:34.952776  6138 net.cpp:435] conv3 <- conv2
I0505 09:55:34.952781  6138 net.cpp:409] conv3 -> conv3
I0505 09:55:34.965678  6138 net.cpp:144] Setting up conv3
I0505 09:55:34.965728  6138 net.cpp:151] Top shape: 20 128 5 5 (64000)
I0505 09:55:34.965739  6138 net.cpp:159] Memory required for data: 1928240
I0505 09:55:34.965764  6138 layer_factory.hpp:77] Creating layer relu3
I0505 09:55:34.965785  6138 net.cpp:94] Creating Layer relu3
I0505 09:55:34.965795  6138 net.cpp:435] relu3 <- conv3
I0505 09:55:34.965809  6138 net.cpp:396] relu3 -> conv3 (in-place)
I0505 09:55:34.965831  6138 net.cpp:144] Setting up relu3
I0505 09:55:34.965844  6138 net.cpp:151] Top shape: 20 128 5 5 (64000)
I0505 09:55:34.965853  6138 net.cpp:159] Memory required for data: 2184240
I0505 09:55:34.965868  6138 layer_factory.hpp:77] Creating layer pool3
I0505 09:55:34.965874  6138 net.cpp:94] Creating Layer pool3
I0505 09:55:34.965878  6138 net.cpp:435] pool3 <- conv3
I0505 09:55:34.965883  6138 net.cpp:409] pool3 -> pool3
I0505 09:55:34.965915  6138 net.cpp:144] Setting up pool3
I0505 09:55:34.965922  6138 net.cpp:151] Top shape: 20 128 2 2 (10240)
I0505 09:55:34.965932  6138 net.cpp:159] Memory required for data: 2225200
I0505 09:55:34.965935  6138 layer_factory.hpp:77] Creating layer ip1
I0505 09:55:34.965943  6138 net.cpp:94] Creating Layer ip1
I0505 09:55:34.965946  6138 net.cpp:435] ip1 <- pool3
I0505 09:55:34.965951  6138 net.cpp:409] ip1 -> ip1
I0505 09:55:34.973090  6138 net.cpp:144] Setting up ip1
I0505 09:55:34.973107  6138 net.cpp:151] Top shape: 20 512 (10240)
I0505 09:55:34.973111  6138 net.cpp:159] Memory required for data: 2266160
I0505 09:55:34.973117  6138 layer_factory.hpp:77] Creating layer ip2
I0505 09:55:34.973135  6138 net.cpp:94] Creating Layer ip2
I0505 09:55:34.973140  6138 net.cpp:435] ip2 <- ip1
I0505 09:55:34.973145  6138 net.cpp:409] ip2 -> ip2
I0505 09:55:34.976394  6138 net.cpp:144] Setting up ip2
I0505 09:55:34.976402  6138 net.cpp:151] Top shape: 20 256 (5120)
I0505 09:55:34.976405  6138 net.cpp:159] Memory required for data: 2286640
I0505 09:55:34.976413  6138 layer_factory.hpp:77] Creating layer ip3
I0505 09:55:34.976419  6138 net.cpp:94] Creating Layer ip3
I0505 09:55:34.976423  6138 net.cpp:435] ip3 <- ip2
I0505 09:55:34.976428  6138 net.cpp:409] ip3 -> ip3
I0505 09:55:34.976827  6138 net.cpp:144] Setting up ip3
I0505 09:55:34.976835  6138 net.cpp:151] Top shape: 20 50 (1000)
I0505 09:55:34.976840  6138 net.cpp:159] Memory required for data: 2290640
I0505 09:55:34.976845  6138 layer_factory.hpp:77] Creating layer ip3_ip3_0_split
I0505 09:55:34.976850  6138 net.cpp:94] Creating Layer ip3_ip3_0_split
I0505 09:55:34.976853  6138 net.cpp:435] ip3_ip3_0_split <- ip3
I0505 09:55:34.976858  6138 net.cpp:409] ip3_ip3_0_split -> ip3_ip3_0_split_0
I0505 09:55:34.976863  6138 net.cpp:409] ip3_ip3_0_split -> ip3_ip3_0_split_1
I0505 09:55:34.976888  6138 net.cpp:144] Setting up ip3_ip3_0_split
I0505 09:55:34.976894  6138 net.cpp:151] Top shape: 20 50 (1000)
I0505 09:55:34.976898  6138 net.cpp:151] Top shape: 20 50 (1000)
I0505 09:55:34.976902  6138 net.cpp:159] Memory required for data: 2298640
I0505 09:55:34.976904  6138 layer_factory.hpp:77] Creating layer accuracy
I0505 09:55:34.976912  6138 net.cpp:94] Creating Layer accuracy
I0505 09:55:34.976914  6138 net.cpp:435] accuracy <- ip3_ip3_0_split_0
I0505 09:55:34.976919  6138 net.cpp:435] accuracy <- label_intercept_1_split_0
I0505 09:55:34.976923  6138 net.cpp:409] accuracy -> accuracy
…
