…
I0507 11:43:39.679381  1447 net.cpp:323] The NetState phase (0) differed from the phase (1) specified by a rule in layer intercept
I0507 11:43:39.679397  1447 net.cpp:323] The NetState phase (0) differed from the phase (1) specified by a rule in layer loss
I0507 11:43:39.679481  1447 net.cpp:52] Initializing net from parameters: 
state {
  phase: TRAIN
}
layer {
  name: "parameters"
  type: "HDF5Data"
  top: "data"
  top: "label"
  include {
    phase: TRAIN
  }
  hdf5_data_param {
    source: "/home/purduethu/scratch/radon/d/deng106/CNNStatisticalModel/distributions/input/20_distributions_900_sample_size_train-parameters-path.txt"
    batch_size: 20
  }
}
layer {
  name: "conv1"
  type: "Convolution"
  bottom: "data"
  top: "conv1"
  param {
    lr_mult: 1
  }
  param {
    lr_mult: 2
  }
  convolution_param {
    num_output: 64
    pad: 2
    kernel_size: 5
    stride: 1
    weight_filler {
      type: "gaussian"
      std: 0.0001
    }
    bias_filler {
      type: "constant"
    }
  }
}
layer {
  name: "relu1"
  type: "ReLU"
  bottom: "conv1"
  top: "conv1"
}
layer {
  name: "conv2"
  type: "Convolution"
  bottom: "conv1"
  top: "conv2"
  param {
    lr_mult: 1
  }
  param {
    lr_mult: 2
  }
  convolution_param {
    num_output: 64
    pad: 2
    kernel_size: 5
    stride: 1
    weight_filler {
      type: "gaussian"
      std: 0.01
    }
    bias_filler {
      type: "constant"
    }
  }
}
layer {
  name: "relu2"
  type: "ReLU"
  bottom: "conv2"
  top: "conv2"
}
layer {
  name: "pool2"
  type: "Pooling"
  bottom: "conv2"
  top: "pool2"
  pooling_param {
    pool: MAX
    kernel_size: 3
    stride: 2
  }
}
layer {
  name: "conv3"
  type: "Convolution"
  bottom: "pool2"
  top: "conv3"
  param {
    lr_mult: 1
  }
  param {
    lr_mult: 2
  }
  convolution_param {
    num_output: 64
    pad: 2
    kernel_size: 5
    stride: 1
    weight_filler {
      type: "gaussian"
      std: 0.01
    }
    bias_filler {
      type: "constant"
    }
  }
}
layer {
  name: "relu3"
  type: "ReLU"
  bottom: "conv3"
  top: "conv3"
}
layer {
  name: "conv4"
  type: "Convolution"
  bottom: "conv3"
  top: "conv4"
  param {
    lr_mult: 1
  }
  param {
    lr_mult: 2
  }
  convolution_param {
    num_output: 64
    pad: 2
    kernel_size: 5
    stride: 1
    weight_filler {
      type: "gaussian"
      std: 0.01
    }
    bias_filler {
      type: "constant"
    }
  }
}
layer {
  name: "relu4"
  type: "ReLU"
  bottom: "conv4"
  top: "conv4"
}
layer {
  name: "conv5"
  type: "Convolution"
  bottom: "conv4"
  top: "conv5"
  param {
    lr_mult: 1
  }
  param {
    lr_mult: 2
  }
  convolution_param {
    num_output: 64
    pad: 2
    kernel_size: 5
    stride: 1
    weight_filler {
      type: "gaussian"
      std: 0.01
    }
    bias_filler {
      type: "constant"
    }
  }
}
layer {
  name: "relu5"
  type: "ReLU"
  bottom: "conv5"
  top: "conv5"
}
layer {
  name: "pool5"
  type: "Pooling"
  bottom: "conv5"
  top: "pool5"
  pooling_param {
    pool: AVE
    kernel_size: 3
    stride: 2
  }
}
layer {
  name: "ip1"
  type: "InnerProduct"
  bottom: "pool5"
  top: "ip1"
  param {
    lr_mult: 1
  }
  param {
    lr_mult: 2
  }
  inner_product_param {
    num_output: 64
    weight_filler {
      type: "gaussian"
      std: 0.1
    }
    bias_filler {
      type: "constant"
    }
  }
}
layer {
  name: "ip2"
  type: "InnerProduct"
  bottom: "ip1"
  top: "ip2"
  param {
    lr_mult: 1
  }
  param {
    lr_mult: 2
  }
  inner_product_param {
    num_output: 64
    weight_filler {
      type: "gaussian"
      std: 0.1
    }
    bias_filler {
      type: "constant"
    }
  }
}
layer {
  name: "ip3"
  type: "InnerProduct"
  bottom: "ip2"
  top: "ip3"
  param {
    lr_mult: 1
  }
  param {
    lr_mult: 2
  }
  inner_product_param {
    num_output: 1
    weight_filler {
      type: "gaussian"
      std: 0.1
    }
    bias_filler {
      type: "constant"
    }
  }
}
layer {
  name: "loss"
  type: "HuberLoss"
  bottom: "ip3"
  bottom: "label"
  top: "loss"
  include {
    phase: TRAIN
  }
}
I0507 11:43:39.679535  1447 layer_factory.hpp:77] Creating layer parameters
I0507 11:43:39.679551  1447 net.cpp:94] Creating Layer parameters
I0507 11:43:39.679555  1447 net.cpp:409] parameters -> data
I0507 11:43:39.679564  1447 net.cpp:409] parameters -> label
I0507 11:43:39.679571  1447 hdf5_data_layer.cpp:79] Loading list of HDF5 filenames from: /home/purduethu/scratch/radon/d/deng106/CNNStatisticalModel/distributions/input/20_distributions_900_sample_size_train-parameters-path.txt
I0507 11:43:39.679584  1447 hdf5_data_layer.cpp:93] Number of HDF5 files: 1
I0507 11:43:39.680124  1447 hdf5.cpp:32] Datatype class: H5T_FLOAT
I0507 11:43:40.255002  1447 net.cpp:144] Setting up parameters
I0507 11:43:40.255030  1447 net.cpp:151] Top shape: 20 1 30 30 (18000)
I0507 11:43:40.255036  1447 net.cpp:151] Top shape: 20 (20)
I0507 11:43:40.255039  1447 net.cpp:159] Memory required for data: 72080
I0507 11:43:40.255045  1447 layer_factory.hpp:77] Creating layer conv1
I0507 11:43:40.255061  1447 net.cpp:94] Creating Layer conv1
I0507 11:43:40.255065  1447 net.cpp:435] conv1 <- data
I0507 11:43:40.255071  1447 net.cpp:409] conv1 -> conv1
I0507 11:43:40.261490  1447 net.cpp:144] Setting up conv1
I0507 11:43:40.261518  1447 net.cpp:151] Top shape: 20 64 30 30 (1152000)
I0507 11:43:40.261524  1447 net.cpp:159] Memory required for data: 4680080
I0507 11:43:40.261543  1447 layer_factory.hpp:77] Creating layer relu1
I0507 11:43:40.261556  1447 net.cpp:94] Creating Layer relu1
I0507 11:43:40.261562  1447 net.cpp:435] relu1 <- conv1
I0507 11:43:40.261571  1447 net.cpp:396] relu1 -> conv1 (in-place)
I0507 11:43:40.261584  1447 net.cpp:144] Setting up relu1
I0507 11:43:40.261592  1447 net.cpp:151] Top shape: 20 64 30 30 (1152000)
I0507 11:43:40.261598  1447 net.cpp:159] Memory required for data: 9288080
I0507 11:43:40.261603  1447 layer_factory.hpp:77] Creating layer conv2
I0507 11:43:40.261616  1447 net.cpp:94] Creating Layer conv2
I0507 11:43:40.261622  1447 net.cpp:435] conv2 <- conv1
I0507 11:43:40.261631  1447 net.cpp:409] conv2 -> conv2
I0507 11:43:40.276458  1447 net.cpp:144] Setting up conv2
I0507 11:43:40.276485  1447 net.cpp:151] Top shape: 20 64 30 30 (1152000)
I0507 11:43:40.276492  1447 net.cpp:159] Memory required for data: 13896080
I0507 11:43:40.276507  1447 layer_factory.hpp:77] Creating layer relu2
I0507 11:43:40.276520  1447 net.cpp:94] Creating Layer relu2
I0507 11:43:40.276526  1447 net.cpp:435] relu2 <- conv2
I0507 11:43:40.276535  1447 net.cpp:396] relu2 -> conv2 (in-place)
I0507 11:43:40.276547  1447 net.cpp:144] Setting up relu2
I0507 11:43:40.276572  1447 net.cpp:151] Top shape: 20 64 30 30 (1152000)
I0507 11:43:40.276578  1447 net.cpp:159] Memory required for data: 18504080
I0507 11:43:40.276584  1447 layer_factory.hpp:77] Creating layer pool2
I0507 11:43:40.276602  1447 net.cpp:94] Creating Layer pool2
I0507 11:43:40.276609  1447 net.cpp:435] pool2 <- conv2
I0507 11:43:40.276618  1447 net.cpp:409] pool2 -> pool2
I0507 11:43:40.276724  1447 net.cpp:144] Setting up pool2
I0507 11:43:40.276738  1447 net.cpp:151] Top shape: 20 64 15 15 (288000)
I0507 11:43:40.276744  1447 net.cpp:159] Memory required for data: 19656080
I0507 11:43:40.276751  1447 layer_factory.hpp:77] Creating layer conv3
I0507 11:43:40.276763  1447 net.cpp:94] Creating Layer conv3
I0507 11:43:40.276769  1447 net.cpp:435] conv3 <- pool2
I0507 11:43:40.276778  1447 net.cpp:409] conv3 -> conv3
I0507 11:43:40.285040  1447 net.cpp:144] Setting up conv3
I0507 11:43:40.285054  1447 net.cpp:151] Top shape: 20 64 15 15 (288000)
I0507 11:43:40.285058  1447 net.cpp:159] Memory required for data: 20808080
I0507 11:43:40.285068  1447 layer_factory.hpp:77] Creating layer relu3
I0507 11:43:40.285073  1447 net.cpp:94] Creating Layer relu3
I0507 11:43:40.285078  1447 net.cpp:435] relu3 <- conv3
I0507 11:43:40.285081  1447 net.cpp:396] relu3 -> conv3 (in-place)
I0507 11:43:40.285089  1447 net.cpp:144] Setting up relu3
I0507 11:43:40.285094  1447 net.cpp:151] Top shape: 20 64 15 15 (288000)
I0507 11:43:40.285096  1447 net.cpp:159] Memory required for data: 21960080
I0507 11:43:40.285099  1447 layer_factory.hpp:77] Creating layer conv4
I0507 11:43:40.285107  1447 net.cpp:94] Creating Layer conv4
I0507 11:43:40.285110  1447 net.cpp:435] conv4 <- conv3
I0507 11:43:40.285115  1447 net.cpp:409] conv4 -> conv4
I0507 11:43:40.292484  1447 net.cpp:144] Setting up conv4
I0507 11:43:40.292510  1447 net.cpp:151] Top shape: 20 64 15 15 (288000)
I0507 11:43:40.292517  1447 net.cpp:159] Memory required for data: 23112080
I0507 11:43:40.292529  1447 layer_factory.hpp:77] Creating layer relu4
I0507 11:43:40.292541  1447 net.cpp:94] Creating Layer relu4
I0507 11:43:40.292547  1447 net.cpp:435] relu4 <- conv4
I0507 11:43:40.292572  1447 net.cpp:396] relu4 -> conv4 (in-place)
I0507 11:43:40.292585  1447 net.cpp:144] Setting up relu4
I0507 11:43:40.292594  1447 net.cpp:151] Top shape: 20 64 15 15 (288000)
I0507 11:43:40.292600  1447 net.cpp:159] Memory required for data: 24264080
I0507 11:43:40.292606  1447 layer_factory.hpp:77] Creating layer conv5
I0507 11:43:40.292619  1447 net.cpp:94] Creating Layer conv5
I0507 11:43:40.292635  1447 net.cpp:435] conv5 <- conv4
I0507 11:43:40.292640  1447 net.cpp:409] conv5 -> conv5
I0507 11:43:40.300801  1447 net.cpp:144] Setting up conv5
I0507 11:43:40.300815  1447 net.cpp:151] Top shape: 20 64 15 15 (288000)
I0507 11:43:40.300819  1447 net.cpp:159] Memory required for data: 25416080
I0507 11:43:40.300827  1447 layer_factory.hpp:77] Creating layer relu5
I0507 11:43:40.300834  1447 net.cpp:94] Creating Layer relu5
I0507 11:43:40.300837  1447 net.cpp:435] relu5 <- conv5
I0507 11:43:40.300843  1447 net.cpp:396] relu5 -> conv5 (in-place)
I0507 11:43:40.300849  1447 net.cpp:144] Setting up relu5
I0507 11:43:40.300853  1447 net.cpp:151] Top shape: 20 64 15 15 (288000)
I0507 11:43:40.300856  1447 net.cpp:159] Memory required for data: 26568080
I0507 11:43:40.300859  1447 layer_factory.hpp:77] Creating layer pool5
I0507 11:43:40.300863  1447 net.cpp:94] Creating Layer pool5
I0507 11:43:40.300868  1447 net.cpp:435] pool5 <- conv5
I0507 11:43:40.300871  1447 net.cpp:409] pool5 -> pool5
I0507 11:43:40.300912  1447 net.cpp:144] Setting up pool5
I0507 11:43:40.300920  1447 net.cpp:151] Top shape: 20 64 7 7 (62720)
I0507 11:43:40.300923  1447 net.cpp:159] Memory required for data: 26818960
I0507 11:43:40.300926  1447 layer_factory.hpp:77] Creating layer ip1
I0507 11:43:40.300935  1447 net.cpp:94] Creating Layer ip1
I0507 11:43:40.300940  1447 net.cpp:435] ip1 <- pool5
I0507 11:43:40.300945  1447 net.cpp:409] ip1 -> ip1
I0507 11:43:40.305802  1447 net.cpp:144] Setting up ip1
I0507 11:43:40.305812  1447 net.cpp:151] Top shape: 20 64 (1280)
I0507 11:43:40.305815  1447 net.cpp:159] Memory required for data: 26824080
I0507 11:43:40.305821  1447 layer_factory.hpp:77] Creating layer ip2
I0507 11:43:40.305826  1447 net.cpp:94] Creating Layer ip2
I0507 11:43:40.305835  1447 net.cpp:435] ip2 <- ip1
I0507 11:43:40.305840  1447 net.cpp:409] ip2 -> ip2
I0507 11:43:40.306057  1447 net.cpp:144] Setting up ip2
I0507 11:43:40.306066  1447 net.cpp:151] Top shape: 20 64 (1280)
I0507 11:43:40.306068  1447 net.cpp:159] Memory required for data: 26829200
I0507 11:43:40.306073  1447 layer_factory.hpp:77] Creating layer ip3
I0507 11:43:40.306079  1447 net.cpp:94] Creating Layer ip3
I0507 11:43:40.306082  1447 net.cpp:435] ip3 <- ip2
I0507 11:43:40.306087  1447 net.cpp:409] ip3 -> ip3
I0507 11:43:40.306195  1447 net.cpp:144] Setting up ip3
I0507 11:43:40.306202  1447 net.cpp:151] Top shape: 20 1 (20)
I0507 11:43:40.306205  1447 net.cpp:159] Memory required for data: 26829280
I0507 11:43:40.306210  1447 layer_factory.hpp:77] Creating layer loss
I0507 11:43:40.306221  1447 net.cpp:94] Creating Layer loss
I0507 11:43:40.306223  1447 net.cpp:435] loss <- ip3
I0507 11:43:40.306227  1447 net.cpp:435] loss <- label
I0507 11:43:40.306231  1447 net.cpp:409] loss -> loss
I0507 11:43:40.306284  1447 net.cpp:144] Setting up loss
…
I0507 11:43:40.482558  1447 net.cpp:323] The NetState phase (0) differed from the phase (1) specified by a rule in layer intercept
I0507 11:43:40.482573  1447 net.cpp:323] The NetState phase (0) differed from the phase (1) specified by a rule in layer accuracy
I0507 11:43:40.482664  1447 net.cpp:52] Initializing net from parameters: 
state {
  phase: TRAIN
}
layer {
  name: "parameters"
  type: "HDF5Data"
  top: "data"
  top: "label"
  include {
    phase: TRAIN
  }
  hdf5_data_param {
    source: "/home/purduethu/scratch/radon/d/deng106/CNNStatisticalModel/distributions/input/20_distributions_900_sample_size_train-distributions-path.txt"
    batch_size: 20
  }
}
layer {
  name: "conv1"
  type: "Convolution"
  bottom: "data"
  top: "conv1"
  param {
    lr_mult: 1
  }
  param {
    lr_mult: 2
  }
  convolution_param {
    num_output: 64
    pad: 2
    kernel_size: 5
    stride: 1
    weight_filler {
      type: "gaussian"
      std: 0.0001
    }
    bias_filler {
      type: "constant"
    }
  }
}
layer {
  name: "relu1"
  type: "ReLU"
  bottom: "conv1"
  top: "conv1"
}
layer {
  name: "conv2"
  type: "Convolution"
  bottom: "conv1"
  top: "conv2"
  param {
    lr_mult: 1
  }
  param {
    lr_mult: 2
  }
  convolution_param {
    num_output: 64
    pad: 2
    kernel_size: 5
    stride: 1
    weight_filler {
      type: "gaussian"
      std: 0.01
    }
    bias_filler {
      type: "constant"
    }
  }
}
layer {
  name: "relu2"
  type: "ReLU"
  bottom: "conv2"
  top: "conv2"
}
layer {
  name: "pool2"
  type: "Pooling"
  bottom: "conv2"
  top: "pool2"
  pooling_param {
    pool: MAX
    kernel_size: 3
    stride: 2
  }
}
layer {
  name: "conv3"
  type: "Convolution"
  bottom: "pool2"
  top: "conv3"
  param {
    lr_mult: 1
  }
  param {
    lr_mult: 2
  }
  convolution_param {
    num_output: 64
    pad: 2
    kernel_size: 5
    stride: 1
    weight_filler {
      type: "gaussian"
      std: 0.01
    }
    bias_filler {
      type: "constant"
    }
  }
}
layer {
  name: "relu3"
  type: "ReLU"
  bottom: "conv3"
  top: "conv3"
}
layer {
  name: "conv4"
  type: "Convolution"
  bottom: "conv3"
  top: "conv4"
  param {
    lr_mult: 1
  }
  param {
    lr_mult: 2
  }
  convolution_param {
    num_output: 64
    pad: 2
    kernel_size: 5
    stride: 1
    weight_filler {
      type: "gaussian"
      std: 0.01
    }
    bias_filler {
      type: "constant"
    }
  }
}
layer {
  name: "relu4"
  type: "ReLU"
  bottom: "conv4"
  top: "conv4"
}
layer {
  name: "conv5"
  type: "Convolution"
  bottom: "conv4"
  top: "conv5"
  param {
    lr_mult: 1
  }
  param {
    lr_mult: 2
  }
  convolution_param {
    num_output: 64
    pad: 2
    kernel_size: 5
    stride: 1
    weight_filler {
      type: "gaussian"
      std: 0.01
    }
    bias_filler {
      type: "constant"
    }
  }
}
layer {
  name: "relu5"
  type: "ReLU"
  bottom: "conv5"
  top: "conv5"
}
layer {
  name: "pool5"
  type: "Pooling"
  bottom: "conv5"
  top: "pool5"
  pooling_param {
    pool: AVE
    kernel_size: 3
    stride: 2
  }
}
layer {
  name: "ip1"
  type: "InnerProduct"
  bottom: "pool5"
  top: "ip1"
  param {
    lr_mult: 1
  }
  param {
    lr_mult: 2
  }
  inner_product_param {
    num_output: 64
    weight_filler {
      type: "gaussian"
      std: 0.1
    }
    bias_filler {
      type: "constant"
    }
  }
}
layer {
  name: "ip2"
  type: "InnerProduct"
  bottom: "ip1"
  top: "ip2"
  param {
    lr_mult: 1
  }
  param {
    lr_mult: 2
  }
  inner_product_param {
    num_output: 64
    weight_filler {
      type: "gaussian"
      std: 0.1
    }
    bias_filler {
      type: "constant"
    }
  }
}
layer {
  name: "ip3"
  type: "InnerProduct"
  bottom: "ip2"
  top: "ip3"
  param {
    lr_mult: 1
  }
  param {
    lr_mult: 2
  }
  inner_product_param {
    num_output: 50
    weight_filler {
      type: "gaussian"
      std: 0.1
    }
    bias_filler {
      type: "constant"
    }
  }
}
layer {
  name: "loss"
  type: "SoftmaxWithLoss"
  bottom: "ip3"
  bottom: "label"
  top: "loss"
}
I0507 11:43:40.482715  1447 layer_factory.hpp:77] Creating layer parameters
I0507 11:43:40.482723  1447 net.cpp:94] Creating Layer parameters
I0507 11:43:40.482728  1447 net.cpp:409] parameters -> data
I0507 11:43:40.482733  1447 net.cpp:409] parameters -> label
I0507 11:43:40.482739  1447 hdf5_data_layer.cpp:79] Loading list of HDF5 filenames from: /home/purduethu/scratch/radon/d/deng106/CNNStatisticalModel/distributions/input/20_distributions_900_sample_size_train-distributions-path.txt
I0507 11:43:40.482755  1447 hdf5_data_layer.cpp:93] Number of HDF5 files: 1
I0507 11:43:41.047109  1447 hdf5.cpp:35] Datatype class: H5T_INTEGER
I0507 11:43:41.049130  1447 net.cpp:144] Setting up parameters
I0507 11:43:41.049149  1447 net.cpp:151] Top shape: 20 1 30 30 (18000)
I0507 11:43:41.049154  1447 net.cpp:151] Top shape: 20 (20)
I0507 11:43:41.049157  1447 net.cpp:159] Memory required for data: 72080
I0507 11:43:41.049162  1447 layer_factory.hpp:77] Creating layer conv1
I0507 11:43:41.049180  1447 net.cpp:94] Creating Layer conv1
I0507 11:43:41.049183  1447 net.cpp:435] conv1 <- data
I0507 11:43:41.049190  1447 net.cpp:409] conv1 -> conv1
I0507 11:43:41.052645  1447 net.cpp:144] Setting up conv1
I0507 11:43:41.052659  1447 net.cpp:151] Top shape: 20 64 30 30 (1152000)
I0507 11:43:41.052664  1447 net.cpp:159] Memory required for data: 4680080
I0507 11:43:41.052673  1447 layer_factory.hpp:77] Creating layer relu1
I0507 11:43:41.052681  1447 net.cpp:94] Creating Layer relu1
I0507 11:43:41.052685  1447 net.cpp:435] relu1 <- conv1
I0507 11:43:41.052690  1447 net.cpp:396] relu1 -> conv1 (in-place)
I0507 11:43:41.052696  1447 net.cpp:144] Setting up relu1
I0507 11:43:41.052700  1447 net.cpp:151] Top shape: 20 64 30 30 (1152000)
I0507 11:43:41.052703  1447 net.cpp:159] Memory required for data: 9288080
I0507 11:43:41.052706  1447 layer_factory.hpp:77] Creating layer conv2
I0507 11:43:41.052713  1447 net.cpp:94] Creating Layer conv2
I0507 11:43:41.052716  1447 net.cpp:435] conv2 <- conv1
I0507 11:43:41.052721  1447 net.cpp:409] conv2 -> conv2
I0507 11:43:41.068714  1447 net.cpp:144] Setting up conv2
I0507 11:43:41.068753  1447 net.cpp:151] Top shape: 20 64 30 30 (1152000)
I0507 11:43:41.068764  1447 net.cpp:159] Memory required for data: 13896080
I0507 11:43:41.068787  1447 layer_factory.hpp:77] Creating layer relu2
I0507 11:43:41.068805  1447 net.cpp:94] Creating Layer relu2
I0507 11:43:41.068815  1447 net.cpp:435] relu2 <- conv2
I0507 11:43:41.068828  1447 net.cpp:396] relu2 -> conv2 (in-place)
I0507 11:43:41.068847  1447 net.cpp:144] Setting up relu2
I0507 11:43:41.068861  1447 net.cpp:151] Top shape: 20 64 30 30 (1152000)
I0507 11:43:41.068868  1447 net.cpp:159] Memory required for data: 18504080
I0507 11:43:41.068877  1447 layer_factory.hpp:77] Creating layer pool2
I0507 11:43:41.068891  1447 net.cpp:94] Creating Layer pool2
I0507 11:43:41.068898  1447 net.cpp:435] pool2 <- conv2
I0507 11:43:41.068910  1447 net.cpp:409] pool2 -> pool2
I0507 11:43:41.069061  1447 net.cpp:144] Setting up pool2
I0507 11:43:41.069067  1447 net.cpp:151] Top shape: 20 64 15 15 (288000)
I0507 11:43:41.069070  1447 net.cpp:159] Memory required for data: 19656080
I0507 11:43:41.069074  1447 layer_factory.hpp:77] Creating layer conv3
I0507 11:43:41.069082  1447 net.cpp:94] Creating Layer conv3
I0507 11:43:41.069085  1447 net.cpp:435] conv3 <- pool2
I0507 11:43:41.069097  1447 net.cpp:409] conv3 -> conv3
I0507 11:43:41.077908  1447 net.cpp:144] Setting up conv3
I0507 11:43:41.077922  1447 net.cpp:151] Top shape: 20 64 15 15 (288000)
I0507 11:43:41.077926  1447 net.cpp:159] Memory required for data: 20808080
I0507 11:43:41.077934  1447 layer_factory.hpp:77] Creating layer relu3
I0507 11:43:41.077940  1447 net.cpp:94] Creating Layer relu3
I0507 11:43:41.077944  1447 net.cpp:435] relu3 <- conv3
I0507 11:43:41.077949  1447 net.cpp:396] relu3 -> conv3 (in-place)
I0507 11:43:41.077955  1447 net.cpp:144] Setting up relu3
I0507 11:43:41.077960  1447 net.cpp:151] Top shape: 20 64 15 15 (288000)
I0507 11:43:41.077961  1447 net.cpp:159] Memory required for data: 21960080
I0507 11:43:41.077965  1447 layer_factory.hpp:77] Creating layer conv4
I0507 11:43:41.077972  1447 net.cpp:94] Creating Layer conv4
I0507 11:43:41.077976  1447 net.cpp:435] conv4 <- conv3
I0507 11:43:41.077980  1447 net.cpp:409] conv4 -> conv4
I0507 11:43:41.085762  1447 net.cpp:144] Setting up conv4
I0507 11:43:41.085777  1447 net.cpp:151] Top shape: 20 64 15 15 (288000)
I0507 11:43:41.085782  1447 net.cpp:159] Memory required for data: 23112080
I0507 11:43:41.085788  1447 layer_factory.hpp:77] Creating layer relu4
I0507 11:43:41.085794  1447 net.cpp:94] Creating Layer relu4
I0507 11:43:41.085798  1447 net.cpp:435] relu4 <- conv4
I0507 11:43:41.085803  1447 net.cpp:396] relu4 -> conv4 (in-place)
I0507 11:43:41.085808  1447 net.cpp:144] Setting up relu4
I0507 11:43:41.085813  1447 net.cpp:151] Top shape: 20 64 15 15 (288000)
I0507 11:43:41.085815  1447 net.cpp:159] Memory required for data: 24264080
I0507 11:43:41.085819  1447 layer_factory.hpp:77] Creating layer conv5
I0507 11:43:41.085826  1447 net.cpp:94] Creating Layer conv5
I0507 11:43:41.085829  1447 net.cpp:435] conv5 <- conv4
I0507 11:43:41.085834  1447 net.cpp:409] conv5 -> conv5
I0507 11:43:41.093647  1447 net.cpp:144] Setting up conv5
I0507 11:43:41.093662  1447 net.cpp:151] Top shape: 20 64 15 15 (288000)
I0507 11:43:41.093667  1447 net.cpp:159] Memory required for data: 25416080
I0507 11:43:41.093674  1447 layer_factory.hpp:77] Creating layer relu5
I0507 11:43:41.093680  1447 net.cpp:94] Creating Layer relu5
I0507 11:43:41.093684  1447 net.cpp:435] relu5 <- conv5
I0507 11:43:41.093688  1447 net.cpp:396] relu5 -> conv5 (in-place)
I0507 11:43:41.093695  1447 net.cpp:144] Setting up relu5
I0507 11:43:41.093699  1447 net.cpp:151] Top shape: 20 64 15 15 (288000)
I0507 11:43:41.093703  1447 net.cpp:159] Memory required for data: 26568080
I0507 11:43:41.093706  1447 layer_factory.hpp:77] Creating layer pool5
I0507 11:43:41.093710  1447 net.cpp:94] Creating Layer pool5
I0507 11:43:41.093713  1447 net.cpp:435] pool5 <- conv5
I0507 11:43:41.093717  1447 net.cpp:409] pool5 -> pool5
I0507 11:43:41.093757  1447 net.cpp:144] Setting up pool5
I0507 11:43:41.093763  1447 net.cpp:151] Top shape: 20 64 7 7 (62720)
I0507 11:43:41.093767  1447 net.cpp:159] Memory required for data: 26818960
I0507 11:43:41.093770  1447 layer_factory.hpp:77] Creating layer ip1
I0507 11:43:41.093776  1447 net.cpp:94] Creating Layer ip1
I0507 11:43:41.093780  1447 net.cpp:435] ip1 <- pool5
I0507 11:43:41.093785  1447 net.cpp:409] ip1 -> ip1
I0507 11:43:41.099398  1447 net.cpp:144] Setting up ip1
I0507 11:43:41.099412  1447 net.cpp:151] Top shape: 20 64 (1280)
I0507 11:43:41.099416  1447 net.cpp:159] Memory required for data: 26824080
I0507 11:43:41.099421  1447 layer_factory.hpp:77] Creating layer ip2
I0507 11:43:41.099428  1447 net.cpp:94] Creating Layer ip2
I0507 11:43:41.099432  1447 net.cpp:435] ip2 <- ip1
I0507 11:43:41.099437  1447 net.cpp:409] ip2 -> ip2
I0507 11:43:41.099660  1447 net.cpp:144] Setting up ip2
I0507 11:43:41.099668  1447 net.cpp:151] Top shape: 20 64 (1280)
I0507 11:43:41.099671  1447 net.cpp:159] Memory required for data: 26829200
I0507 11:43:41.099676  1447 layer_factory.hpp:77] Creating layer ip3
I0507 11:43:41.099681  1447 net.cpp:94] Creating Layer ip3
I0507 11:43:41.099684  1447 net.cpp:435] ip3 <- ip2
I0507 11:43:41.099689  1447 net.cpp:409] ip3 -> ip3
I0507 11:43:41.099892  1447 net.cpp:144] Setting up ip3
I0507 11:43:41.099900  1447 net.cpp:151] Top shape: 20 50 (1000)
I0507 11:43:41.099903  1447 net.cpp:159] Memory required for data: 26833200
I0507 11:43:41.099908  1447 layer_factory.hpp:77] Creating layer loss
I0507 11:43:41.099915  1447 net.cpp:94] Creating Layer loss
I0507 11:43:41.099918  1447 net.cpp:435] loss <- ip3
I0507 11:43:41.099922  1447 net.cpp:435] loss <- label
I0507 11:43:41.099926  1447 net.cpp:409] loss -> loss
I0507 11:43:41.099933  1447 layer_factory.hpp:77] Creating layer loss
…
I0507 11:43:41.100442  1447 solver.cpp:181] Creating test net (#0) specified by net file: ./protocol/dis_20_900_dimension.protocol_distribution
I0507 11:43:41.100468  1447 net.cpp:323] The NetState phase (1) differed from the phase (0) specified by a rule in layer parameters
I0507 11:43:41.100581  1447 net.cpp:52] Initializing net from parameters: 
state {
  phase: TEST
}
layer {
  name: "intercept"
  type: "HDF5Data"
  top: "data"
  top: "label"
  include {
    phase: TEST
  }
  hdf5_data_param {
    source: "/home/purduethu/scratch/radon/d/deng106/CNNStatisticalModel/distributions/input/20_distributions_900_sample_size_test-distributions-path.txt"
    batch_size: 20
  }
}
layer {
  name: "conv1"
  type: "Convolution"
  bottom: "data"
  top: "conv1"
  param {
    lr_mult: 1
  }
  param {
    lr_mult: 2
  }
  convolution_param {
    num_output: 64
    pad: 2
    kernel_size: 5
    stride: 1
    weight_filler {
      type: "gaussian"
      std: 0.0001
    }
    bias_filler {
      type: "constant"
    }
  }
}
layer {
  name: "relu1"
  type: "ReLU"
  bottom: "conv1"
  top: "conv1"
}
layer {
  name: "conv2"
  type: "Convolution"
  bottom: "conv1"
  top: "conv2"
  param {
    lr_mult: 1
  }
  param {
    lr_mult: 2
  }
  convolution_param {
    num_output: 64
    pad: 2
    kernel_size: 5
    stride: 1
    weight_filler {
      type: "gaussian"
      std: 0.01
    }
    bias_filler {
      type: "constant"
    }
  }
}
layer {
  name: "relu2"
  type: "ReLU"
  bottom: "conv2"
  top: "conv2"
}
layer {
  name: "pool2"
  type: "Pooling"
  bottom: "conv2"
  top: "pool2"
  pooling_param {
    pool: MAX
    kernel_size: 3
    stride: 2
  }
}
layer {
  name: "conv3"
  type: "Convolution"
  bottom: "pool2"
  top: "conv3"
  param {
    lr_mult: 1
  }
  param {
    lr_mult: 2
  }
  convolution_param {
    num_output: 64
    pad: 2
    kernel_size: 5
    stride: 1
    weight_filler {
      type: "gaussian"
      std: 0.01
    }
    bias_filler {
      type: "constant"
    }
  }
}
layer {
  name: "relu3"
  type: "ReLU"
  bottom: "conv3"
  top: "conv3"
}
layer {
  name: "conv4"
  type: "Convolution"
  bottom: "conv3"
  top: "conv4"
  param {
    lr_mult: 1
  }
  param {
    lr_mult: 2
  }
  convolution_param {
    num_output: 64
    pad: 2
    kernel_size: 5
    stride: 1
    weight_filler {
      type: "gaussian"
      std: 0.01
    }
    bias_filler {
      type: "constant"
    }
  }
}
layer {
  name: "relu4"
  type: "ReLU"
  bottom: "conv4"
  top: "conv4"
}
layer {
  name: "conv5"
  type: "Convolution"
  bottom: "conv4"
  top: "conv5"
  param {
    lr_mult: 1
  }
  param {
    lr_mult: 2
  }
  convolution_param {
    num_output: 64
    pad: 2
    kernel_size: 5
    stride: 1
    weight_filler {
      type: "gaussian"
      std: 0.01
    }
    bias_filler {
      type: "constant"
    }
  }
}
layer {
  name: "relu5"
  type: "ReLU"
  bottom: "conv5"
  top: "conv5"
}
layer {
  name: "pool5"
  type: "Pooling"
  bottom: "conv5"
  top: "pool5"
  pooling_param {
    pool: AVE
    kernel_size: 3
    stride: 2
  }
}
layer {
  name: "ip1"
  type: "InnerProduct"
  bottom: "pool5"
  top: "ip1"
  param {
    lr_mult: 1
  }
  param {
    lr_mult: 2
  }
  inner_product_param {
    num_output: 64
    weight_filler {
      type: "gaussian"
      std: 0.1
    }
    bias_filler {
      type: "constant"
    }
  }
}
layer {
  name: "ip2"
  type: "InnerProduct"
  bottom: "ip1"
  top: "ip2"
  param {
    lr_mult: 1
  }
  param {
    lr_mult: 2
  }
  inner_product_param {
    num_output: 64
    weight_filler {
      type: "gaussian"
      std: 0.1
    }
    bias_filler {
      type: "constant"
    }
  }
}
layer {
  name: "ip3"
  type: "InnerProduct"
  bottom: "ip2"
  top: "ip3"
  param {
    lr_mult: 1
  }
  param {
    lr_mult: 2
  }
  inner_product_param {
    num_output: 50
    weight_filler {
      type: "gaussian"
      std: 0.1
    }
    bias_filler {
      type: "constant"
    }
  }
}
layer {
  name: "accuracy"
  type: "Accuracy"
  bottom: "ip3"
  bottom: "label"
  top: "accuracy"
  include {
    phase: TEST
  }
}
layer {
  name: "loss"
  type: "SoftmaxWithLoss"
  bottom: "ip3"
  bottom: "label"
  top: "loss"
}
I0507 11:43:41.100648  1447 layer_factory.hpp:77] Creating layer intercept
I0507 11:43:41.100656  1447 net.cpp:94] Creating Layer intercept
I0507 11:43:41.100659  1447 net.cpp:409] intercept -> data
I0507 11:43:41.100666  1447 net.cpp:409] intercept -> label
I0507 11:43:41.100672  1447 hdf5_data_layer.cpp:79] Loading list of HDF5 filenames from: /home/purduethu/scratch/radon/d/deng106/CNNStatisticalModel/distributions/input/20_distributions_900_sample_size_test-distributions-path.txt
I0507 11:43:41.100690  1447 hdf5_data_layer.cpp:93] Number of HDF5 files: 1
I0507 11:43:41.247385  1447 net.cpp:144] Setting up intercept
I0507 11:43:41.247419  1447 net.cpp:151] Top shape: 20 1 30 30 (18000)
I0507 11:43:41.247424  1447 net.cpp:151] Top shape: 20 (20)
I0507 11:43:41.247427  1447 net.cpp:159] Memory required for data: 72080
I0507 11:43:41.247433  1447 layer_factory.hpp:77] Creating layer label_intercept_1_split
I0507 11:43:41.247452  1447 net.cpp:94] Creating Layer label_intercept_1_split
I0507 11:43:41.247455  1447 net.cpp:435] label_intercept_1_split <- label
I0507 11:43:41.247462  1447 net.cpp:409] label_intercept_1_split -> label_intercept_1_split_0
I0507 11:43:41.247469  1447 net.cpp:409] label_intercept_1_split -> label_intercept_1_split_1
I0507 11:43:41.247512  1447 net.cpp:144] Setting up label_intercept_1_split
I0507 11:43:41.247519  1447 net.cpp:151] Top shape: 20 (20)
I0507 11:43:41.247522  1447 net.cpp:151] Top shape: 20 (20)
I0507 11:43:41.247524  1447 net.cpp:159] Memory required for data: 72240
I0507 11:43:41.247527  1447 layer_factory.hpp:77] Creating layer conv1
I0507 11:43:41.247537  1447 net.cpp:94] Creating Layer conv1
I0507 11:43:41.247541  1447 net.cpp:435] conv1 <- data
I0507 11:43:41.247545  1447 net.cpp:409] conv1 -> conv1
I0507 11:43:41.249056  1447 net.cpp:144] Setting up conv1
I0507 11:43:41.249070  1447 net.cpp:151] Top shape: 20 64 30 30 (1152000)
I0507 11:43:41.249074  1447 net.cpp:159] Memory required for data: 4680240
I0507 11:43:41.249084  1447 layer_factory.hpp:77] Creating layer relu1
I0507 11:43:41.249090  1447 net.cpp:94] Creating Layer relu1
I0507 11:43:41.249094  1447 net.cpp:435] relu1 <- conv1
I0507 11:43:41.249099  1447 net.cpp:396] relu1 -> conv1 (in-place)
I0507 11:43:41.249105  1447 net.cpp:144] Setting up relu1
I0507 11:43:41.249110  1447 net.cpp:151] Top shape: 20 64 30 30 (1152000)
I0507 11:43:41.249112  1447 net.cpp:159] Memory required for data: 9288240
I0507 11:43:41.249115  1447 layer_factory.hpp:77] Creating layer conv2
I0507 11:43:41.249125  1447 net.cpp:94] Creating Layer conv2
I0507 11:43:41.249127  1447 net.cpp:435] conv2 <- conv1
I0507 11:43:41.249131  1447 net.cpp:409] conv2 -> conv2
I0507 11:43:41.255841  1447 net.cpp:144] Setting up conv2
I0507 11:43:41.255875  1447 net.cpp:151] Top shape: 20 64 30 30 (1152000)
I0507 11:43:41.255887  1447 net.cpp:159] Memory required for data: 13896240
I0507 11:43:41.255909  1447 layer_factory.hpp:77] Creating layer relu2
I0507 11:43:41.255925  1447 net.cpp:94] Creating Layer relu2
I0507 11:43:41.255935  1447 net.cpp:435] relu2 <- conv2
I0507 11:43:41.255949  1447 net.cpp:396] relu2 -> conv2 (in-place)
I0507 11:43:41.255966  1447 net.cpp:144] Setting up relu2
I0507 11:43:41.255978  1447 net.cpp:151] Top shape: 20 64 30 30 (1152000)
I0507 11:43:41.255986  1447 net.cpp:159] Memory required for data: 18504240
I0507 11:43:41.255995  1447 layer_factory.hpp:77] Creating layer pool2
I0507 11:43:41.256008  1447 net.cpp:94] Creating Layer pool2
I0507 11:43:41.256017  1447 net.cpp:435] pool2 <- conv2
I0507 11:43:41.256036  1447 net.cpp:409] pool2 -> pool2
I0507 11:43:41.256090  1447 net.cpp:144] Setting up pool2
I0507 11:43:41.256098  1447 net.cpp:151] Top shape: 20 64 15 15 (288000)
I0507 11:43:41.256099  1447 net.cpp:159] Memory required for data: 19656240
I0507 11:43:41.256103  1447 layer_factory.hpp:77] Creating layer conv3
I0507 11:43:41.256110  1447 net.cpp:94] Creating Layer conv3
I0507 11:43:41.256114  1447 net.cpp:435] conv3 <- pool2
I0507 11:43:41.256119  1447 net.cpp:409] conv3 -> conv3
I0507 11:43:41.261359  1447 net.cpp:144] Setting up conv3
I0507 11:43:41.261374  1447 net.cpp:151] Top shape: 20 64 15 15 (288000)
I0507 11:43:41.261379  1447 net.cpp:159] Memory required for data: 20808240
I0507 11:43:41.261386  1447 layer_factory.hpp:77] Creating layer relu3
I0507 11:43:41.261394  1447 net.cpp:94] Creating Layer relu3
I0507 11:43:41.261397  1447 net.cpp:435] relu3 <- conv3
I0507 11:43:41.261401  1447 net.cpp:396] relu3 -> conv3 (in-place)
I0507 11:43:41.261409  1447 net.cpp:144] Setting up relu3
I0507 11:43:41.261412  1447 net.cpp:151] Top shape: 20 64 15 15 (288000)
I0507 11:43:41.261415  1447 net.cpp:159] Memory required for data: 21960240
I0507 11:43:41.261418  1447 layer_factory.hpp:77] Creating layer conv4
I0507 11:43:41.261425  1447 net.cpp:94] Creating Layer conv4
I0507 11:43:41.261428  1447 net.cpp:435] conv4 <- conv3
I0507 11:43:41.261433  1447 net.cpp:409] conv4 -> conv4
I0507 11:43:41.266134  1447 net.cpp:144] Setting up conv4
I0507 11:43:41.266150  1447 net.cpp:151] Top shape: 20 64 15 15 (288000)
I0507 11:43:41.266155  1447 net.cpp:159] Memory required for data: 23112240
I0507 11:43:41.266160  1447 layer_factory.hpp:77] Creating layer relu4
I0507 11:43:41.266166  1447 net.cpp:94] Creating Layer relu4
I0507 11:43:41.266170  1447 net.cpp:435] relu4 <- conv4
I0507 11:43:41.266175  1447 net.cpp:396] relu4 -> conv4 (in-place)
I0507 11:43:41.266181  1447 net.cpp:144] Setting up relu4
I0507 11:43:41.266186  1447 net.cpp:151] Top shape: 20 64 15 15 (288000)
I0507 11:43:41.266189  1447 net.cpp:159] Memory required for data: 24264240
I0507 11:43:41.266192  1447 layer_factory.hpp:77] Creating layer conv5
I0507 11:43:41.266199  1447 net.cpp:94] Creating Layer conv5
I0507 11:43:41.266202  1447 net.cpp:435] conv5 <- conv4
I0507 11:43:41.266207  1447 net.cpp:409] conv5 -> conv5
I0507 11:43:41.271875  1447 net.cpp:144] Setting up conv5
I0507 11:43:41.271905  1447 net.cpp:151] Top shape: 20 64 15 15 (288000)
I0507 11:43:41.271909  1447 net.cpp:159] Memory required for data: 25416240
I0507 11:43:41.271917  1447 layer_factory.hpp:77] Creating layer relu5
I0507 11:43:41.271924  1447 net.cpp:94] Creating Layer relu5
I0507 11:43:41.271927  1447 net.cpp:435] relu5 <- conv5
I0507 11:43:41.271932  1447 net.cpp:396] relu5 -> conv5 (in-place)
I0507 11:43:41.271939  1447 net.cpp:144] Setting up relu5
I0507 11:43:41.271944  1447 net.cpp:151] Top shape: 20 64 15 15 (288000)
I0507 11:43:41.271946  1447 net.cpp:159] Memory required for data: 26568240
I0507 11:43:41.271950  1447 layer_factory.hpp:77] Creating layer pool5
I0507 11:43:41.271955  1447 net.cpp:94] Creating Layer pool5
I0507 11:43:41.271957  1447 net.cpp:435] pool5 <- conv5
I0507 11:43:41.271965  1447 net.cpp:409] pool5 -> pool5
I0507 11:43:41.272003  1447 net.cpp:144] Setting up pool5
I0507 11:43:41.272011  1447 net.cpp:151] Top shape: 20 64 7 7 (62720)
I0507 11:43:41.272013  1447 net.cpp:159] Memory required for data: 26819120
I0507 11:43:41.272017  1447 layer_factory.hpp:77] Creating layer ip1
I0507 11:43:41.272023  1447 net.cpp:94] Creating Layer ip1
I0507 11:43:41.272027  1447 net.cpp:435] ip1 <- pool5
I0507 11:43:41.272032  1447 net.cpp:409] ip1 -> ip1
I0507 11:43:41.276911  1447 net.cpp:144] Setting up ip1
I0507 11:43:41.276921  1447 net.cpp:151] Top shape: 20 64 (1280)
I0507 11:43:41.276924  1447 net.cpp:159] Memory required for data: 26824240
I0507 11:43:41.276929  1447 layer_factory.hpp:77] Creating layer ip2
I0507 11:43:41.276935  1447 net.cpp:94] Creating Layer ip2
I0507 11:43:41.276938  1447 net.cpp:435] ip2 <- ip1
I0507 11:43:41.276944  1447 net.cpp:409] ip2 -> ip2
I0507 11:43:41.277194  1447 net.cpp:144] Setting up ip2
I0507 11:43:41.277202  1447 net.cpp:151] Top shape: 20 64 (1280)
I0507 11:43:41.277204  1447 net.cpp:159] Memory required for data: 26829360
I0507 11:43:41.277210  1447 layer_factory.hpp:77] Creating layer ip3
I0507 11:43:41.277220  1447 net.cpp:94] Creating Layer ip3
I0507 11:43:41.277223  1447 net.cpp:435] ip3 <- ip2
I0507 11:43:41.277228  1447 net.cpp:409] ip3 -> ip3
I0507 11:43:41.277441  1447 net.cpp:144] Setting up ip3
I0507 11:43:41.277447  1447 net.cpp:151] Top shape: 20 50 (1000)
I0507 11:43:41.277451  1447 net.cpp:159] Memory required for data: 26833360
I0507 11:43:41.277456  1447 layer_factory.hpp:77] Creating layer ip3_ip3_0_split
I0507 11:43:41.277462  1447 net.cpp:94] Creating Layer ip3_ip3_0_split
I0507 11:43:41.277464  1447 net.cpp:435] ip3_ip3_0_split <- ip3
I0507 11:43:41.277469  1447 net.cpp:409] ip3_ip3_0_split -> ip3_ip3_0_split_0
I0507 11:43:41.277474  1447 net.cpp:409] ip3_ip3_0_split -> ip3_ip3_0_split_1
I0507 11:43:41.277519  1447 net.cpp:144] Setting up ip3_ip3_0_split
I0507 11:43:41.277525  1447 net.cpp:151] Top shape: 20 50 (1000)
I0507 11:43:41.277529  1447 net.cpp:151] Top shape: 20 50 (1000)
I0507 11:43:41.277532  1447 net.cpp:159] Memory required for data: 26841360
I0507 11:43:41.277534  1447 layer_factory.hpp:77] Creating layer accuracy
I0507 11:43:41.277540  1447 net.cpp:94] Creating Layer accuracy
I0507 11:43:41.277544  1447 net.cpp:435] accuracy <- ip3_ip3_0_split_0
I0507 11:43:41.277546  1447 net.cpp:435] accuracy <- label_intercept_1_split_0
I0507 11:43:41.277550  1447 net.cpp:409] accuracy -> accuracy
…
