…
I0505 02:36:18.862960  2185 net.cpp:323] The NetState phase (0) differed from the phase (1) specified by a rule in layer intercept
I0505 02:36:18.862974  2185 net.cpp:323] The NetState phase (0) differed from the phase (1) specified by a rule in layer accuracy
I0505 02:36:18.863049  2185 net.cpp:52] Initializing net from parameters: 
state {
  phase: TRAIN
}
layer {
  name: "parameters"
  type: "HDF5Data"
  top: "data"
  top: "label"
  include {
    phase: TRAIN
  }
  hdf5_data_param {
    source: "/home/purduethu/scratch/radon/d/deng106/CNNStatisticalModel/distributions/input/5_distributions_100_sample_size_train-distributions-path.txt"
    batch_size: 20
  }
}
layer {
  name: "conv1"
  type: "Convolution"
  bottom: "data"
  top: "conv1"
  param {
    lr_mult: 1
  }
  param {
    lr_mult: 2
  }
  convolution_param {
    num_output: 64
    pad: 2
    kernel_size: 5
    stride: 1
    weight_filler {
      type: "gaussian"
      std: 0.0001
    }
    bias_filler {
      type: "constant"
    }
  }
}
layer {
  name: "relu1"
  type: "ReLU"
  bottom: "conv1"
  top: "conv1"
}
layer {
  name: "pool1"
  type: "Pooling"
  bottom: "conv1"
  top: "pool1"
  pooling_param {
    pool: MAX
    kernel_size: 3
    stride: 2
  }
}
layer {
  name: "conv2"
  type: "Convolution"
  bottom: "pool1"
  top: "conv2"
  param {
    lr_mult: 1
  }
  param {
    lr_mult: 2
  }
  convolution_param {
    num_output: 128
    pad: 2
    kernel_size: 5
    stride: 1
    weight_filler {
      type: "gaussian"
      std: 0.01
    }
    bias_filler {
      type: "constant"
    }
  }
}
layer {
  name: "relu2"
  type: "ReLU"
  bottom: "conv2"
  top: "conv2"
}
layer {
  name: "conv3"
  type: "Convolution"
  bottom: "conv2"
  top: "conv3"
  param {
    lr_mult: 1
  }
  param {
    lr_mult: 2
  }
  convolution_param {
    num_output: 128
    pad: 2
    kernel_size: 5
    stride: 1
    weight_filler {
      type: "gaussian"
      std: 0.01
    }
    bias_filler {
      type: "constant"
    }
  }
}
layer {
  name: "relu3"
  type: "ReLU"
  bottom: "conv3"
  top: "conv3"
}
layer {
  name: "pool3"
  type: "Pooling"
  bottom: "conv3"
  top: "pool3"
  pooling_param {
    pool: AVE
    kernel_size: 3
    stride: 2
  }
}
layer {
  name: "ip1"
  type: "InnerProduct"
  bottom: "pool3"
  top: "ip1"
  param {
    lr_mult: 1
  }
  param {
    lr_mult: 2
  }
  inner_product_param {
    num_output: 512
    weight_filler {
      type: "gaussian"
      std: 0.1
    }
    bias_filler {
      type: "constant"
    }
  }
}
layer {
  name: "ip2"
  type: "InnerProduct"
  bottom: "ip1"
  top: "ip2"
  param {
    lr_mult: 1
  }
  param {
    lr_mult: 2
  }
  inner_product_param {
    num_output: 256
    weight_filler {
      type: "gaussian"
      std: 0.1
    }
    bias_filler {
      type: "constant"
    }
  }
}
layer {
  name: "ip3"
  type: "InnerProduct"
  bottom: "ip2"
  top: "ip3"
  param {
    lr_mult: 1
  }
  param {
    lr_mult: 2
  }
  inner_product_param {
    num_output: 50
    weight_filler {
      type: "gaussian"
      std: 0.1
    }
    bias_filler {
      type: "constant"
    }
  }
}
layer {
  name: "loss"
  type: "SoftmaxWithLoss"
  bottom: "ip3"
  bottom: "label"
  top: "loss"
}
I0505 02:36:18.863109  2185 layer_factory.hpp:77] Creating layer parameters
I0505 02:36:18.863124  2185 net.cpp:94] Creating Layer parameters
I0505 02:36:18.863129  2185 net.cpp:409] parameters -> data
I0505 02:36:18.863157  2185 net.cpp:409] parameters -> label
I0505 02:36:18.863168  2185 hdf5_data_layer.cpp:79] Loading list of HDF5 filenames from: /home/purduethu/scratch/radon/d/deng106/CNNStatisticalModel/distributions/input/5_distributions_100_sample_size_train-distributions-path.txt
I0505 02:36:18.863190  2185 hdf5_data_layer.cpp:93] Number of HDF5 files: 1
I0505 02:36:18.863641  2185 hdf5.cpp:32] Datatype class: H5T_FLOAT
I0505 02:36:18.879590  2185 hdf5.cpp:35] Datatype class: H5T_INTEGER
I0505 02:36:18.880710  2185 net.cpp:144] Setting up parameters
I0505 02:36:18.880730  2185 net.cpp:151] Top shape: 20 1 10 10 (2000)
I0505 02:36:18.880735  2185 net.cpp:151] Top shape: 20 (20)
I0505 02:36:18.880739  2185 net.cpp:159] Memory required for data: 8080
I0505 02:36:18.880746  2185 layer_factory.hpp:77] Creating layer conv1
I0505 02:36:18.880769  2185 net.cpp:94] Creating Layer conv1
I0505 02:36:18.880776  2185 net.cpp:435] conv1 <- data
I0505 02:36:18.880787  2185 net.cpp:409] conv1 -> conv1
I0505 02:36:18.884603  2185 net.cpp:144] Setting up conv1
I0505 02:36:18.884618  2185 net.cpp:151] Top shape: 20 64 10 10 (128000)
I0505 02:36:18.884621  2185 net.cpp:159] Memory required for data: 520080
I0505 02:36:18.884632  2185 layer_factory.hpp:77] Creating layer relu1
I0505 02:36:18.884640  2185 net.cpp:94] Creating Layer relu1
I0505 02:36:18.884644  2185 net.cpp:435] relu1 <- conv1
I0505 02:36:18.884649  2185 net.cpp:396] relu1 -> conv1 (in-place)
I0505 02:36:18.884665  2185 net.cpp:144] Setting up relu1
I0505 02:36:18.884670  2185 net.cpp:151] Top shape: 20 64 10 10 (128000)
I0505 02:36:18.884673  2185 net.cpp:159] Memory required for data: 1032080
I0505 02:36:18.884676  2185 layer_factory.hpp:77] Creating layer pool1
I0505 02:36:18.884683  2185 net.cpp:94] Creating Layer pool1
I0505 02:36:18.884686  2185 net.cpp:435] pool1 <- conv1
I0505 02:36:18.884691  2185 net.cpp:409] pool1 -> pool1
I0505 02:36:18.884734  2185 net.cpp:144] Setting up pool1
I0505 02:36:18.884742  2185 net.cpp:151] Top shape: 20 64 5 5 (32000)
I0505 02:36:18.884745  2185 net.cpp:159] Memory required for data: 1160080
I0505 02:36:18.884748  2185 layer_factory.hpp:77] Creating layer conv2
I0505 02:36:18.884757  2185 net.cpp:94] Creating Layer conv2
I0505 02:36:18.884760  2185 net.cpp:435] conv2 <- pool1
I0505 02:36:18.884765  2185 net.cpp:409] conv2 -> conv2
I0505 02:36:18.893429  2185 net.cpp:144] Setting up conv2
I0505 02:36:18.893445  2185 net.cpp:151] Top shape: 20 128 5 5 (64000)
I0505 02:36:18.893448  2185 net.cpp:159] Memory required for data: 1416080
I0505 02:36:18.893456  2185 layer_factory.hpp:77] Creating layer relu2
I0505 02:36:18.893462  2185 net.cpp:94] Creating Layer relu2
I0505 02:36:18.893466  2185 net.cpp:435] relu2 <- conv2
I0505 02:36:18.893471  2185 net.cpp:396] relu2 -> conv2 (in-place)
I0505 02:36:18.893478  2185 net.cpp:144] Setting up relu2
I0505 02:36:18.893483  2185 net.cpp:151] Top shape: 20 128 5 5 (64000)
I0505 02:36:18.893486  2185 net.cpp:159] Memory required for data: 1672080
I0505 02:36:18.893489  2185 layer_factory.hpp:77] Creating layer conv3
I0505 02:36:18.893497  2185 net.cpp:94] Creating Layer conv3
I0505 02:36:18.893501  2185 net.cpp:435] conv3 <- conv2
I0505 02:36:18.893506  2185 net.cpp:409] conv3 -> conv3
I0505 02:36:18.908148  2185 net.cpp:144] Setting up conv3
I0505 02:36:18.908161  2185 net.cpp:151] Top shape: 20 128 5 5 (64000)
I0505 02:36:18.908165  2185 net.cpp:159] Memory required for data: 1928080
I0505 02:36:18.908174  2185 layer_factory.hpp:77] Creating layer relu3
I0505 02:36:18.908185  2185 net.cpp:94] Creating Layer relu3
I0505 02:36:18.908190  2185 net.cpp:435] relu3 <- conv3
I0505 02:36:18.908195  2185 net.cpp:396] relu3 -> conv3 (in-place)
I0505 02:36:18.908202  2185 net.cpp:144] Setting up relu3
I0505 02:36:18.908207  2185 net.cpp:151] Top shape: 20 128 5 5 (64000)
I0505 02:36:18.908210  2185 net.cpp:159] Memory required for data: 2184080
I0505 02:36:18.908213  2185 layer_factory.hpp:77] Creating layer pool3
I0505 02:36:18.908219  2185 net.cpp:94] Creating Layer pool3
I0505 02:36:18.908231  2185 net.cpp:435] pool3 <- conv3
I0505 02:36:18.908236  2185 net.cpp:409] pool3 -> pool3
I0505 02:36:18.908267  2185 net.cpp:144] Setting up pool3
I0505 02:36:18.908275  2185 net.cpp:151] Top shape: 20 128 2 2 (10240)
I0505 02:36:18.908278  2185 net.cpp:159] Memory required for data: 2225040
I0505 02:36:18.908282  2185 layer_factory.hpp:77] Creating layer ip1
I0505 02:36:18.908291  2185 net.cpp:94] Creating Layer ip1
I0505 02:36:18.908295  2185 net.cpp:435] ip1 <- pool3
I0505 02:36:18.908300  2185 net.cpp:409] ip1 -> ip1
I0505 02:36:18.915195  2185 net.cpp:144] Setting up ip1
I0505 02:36:18.915210  2185 net.cpp:151] Top shape: 20 512 (10240)
I0505 02:36:18.915213  2185 net.cpp:159] Memory required for data: 2266000
I0505 02:36:18.915218  2185 layer_factory.hpp:77] Creating layer ip2
I0505 02:36:18.915225  2185 net.cpp:94] Creating Layer ip2
I0505 02:36:18.915230  2185 net.cpp:435] ip2 <- ip1
I0505 02:36:18.915235  2185 net.cpp:409] ip2 -> ip2
I0505 02:36:18.918980  2185 net.cpp:144] Setting up ip2
I0505 02:36:18.918994  2185 net.cpp:151] Top shape: 20 256 (5120)
I0505 02:36:18.918998  2185 net.cpp:159] Memory required for data: 2286480
I0505 02:36:18.919006  2185 layer_factory.hpp:77] Creating layer ip3
I0505 02:36:18.919013  2185 net.cpp:94] Creating Layer ip3
I0505 02:36:18.919018  2185 net.cpp:435] ip3 <- ip2
I0505 02:36:18.919023  2185 net.cpp:409] ip3 -> ip3
I0505 02:36:18.920208  2185 net.cpp:144] Setting up ip3
I0505 02:36:18.920222  2185 net.cpp:151] Top shape: 20 50 (1000)
I0505 02:36:18.920225  2185 net.cpp:159] Memory required for data: 2290480
I0505 02:36:18.920230  2185 layer_factory.hpp:77] Creating layer loss
I0505 02:36:18.920238  2185 net.cpp:94] Creating Layer loss
I0505 02:36:18.920241  2185 net.cpp:435] loss <- ip3
I0505 02:36:18.920245  2185 net.cpp:435] loss <- label
I0505 02:36:18.920250  2185 net.cpp:409] loss -> loss
I0505 02:36:18.920264  2185 layer_factory.hpp:77] Creating layer loss
…
I0505 02:36:18.920702  2185 solver.cpp:181] Creating test net (#0) specified by net file: ./protocol/dis_5_100_dimension.protocol_distribution
I0505 02:36:18.920727  2185 net.cpp:323] The NetState phase (1) differed from the phase (0) specified by a rule in layer parameters
I0505 02:36:18.920812  2185 net.cpp:52] Initializing net from parameters: 
state {
  phase: TEST
}
layer {
  name: "intercept"
  type: "HDF5Data"
  top: "data"
  top: "label"
  include {
    phase: TEST
  }
  hdf5_data_param {
    source: "/home/purduethu/scratch/radon/d/deng106/CNNStatisticalModel/distributions/input/5_distributions_100_sample_size_test-distributions-path.txt"
    batch_size: 20
  }
}
layer {
  name: "conv1"
  type: "Convolution"
  bottom: "data"
  top: "conv1"
  param {
    lr_mult: 1
  }
  param {
    lr_mult: 2
  }
  convolution_param {
    num_output: 64
    pad: 2
    kernel_size: 5
    stride: 1
    weight_filler {
      type: "gaussian"
      std: 0.0001
    }
    bias_filler {
      type: "constant"
    }
  }
}
layer {
  name: "relu1"
  type: "ReLU"
  bottom: "conv1"
  top: "conv1"
}
layer {
  name: "pool1"
  type: "Pooling"
  bottom: "conv1"
  top: "pool1"
  pooling_param {
    pool: MAX
    kernel_size: 3
    stride: 2
  }
}
layer {
  name: "conv2"
  type: "Convolution"
  bottom: "pool1"
  top: "conv2"
  param {
    lr_mult: 1
  }
  param {
    lr_mult: 2
  }
  convolution_param {
    num_output: 128
    pad: 2
    kernel_size: 5
    stride: 1
    weight_filler {
      type: "gaussian"
      std: 0.01
    }
    bias_filler {
      type: "constant"
    }
  }
}
layer {
  name: "relu2"
  type: "ReLU"
  bottom: "conv2"
  top: "conv2"
}
layer {
  name: "conv3"
  type: "Convolution"
  bottom: "conv2"
  top: "conv3"
  param {
    lr_mult: 1
  }
  param {
    lr_mult: 2
  }
  convolution_param {
    num_output: 128
    pad: 2
    kernel_size: 5
    stride: 1
    weight_filler {
      type: "gaussian"
      std: 0.01
    }
    bias_filler {
      type: "constant"
    }
  }
}
layer {
  name: "relu3"
  type: "ReLU"
  bottom: "conv3"
  top: "conv3"
}
layer {
  name: "pool3"
  type: "Pooling"
  bottom: "conv3"
  top: "pool3"
  pooling_param {
    pool: AVE
    kernel_size: 3
    stride: 2
  }
}
layer {
  name: "ip1"
  type: "InnerProduct"
  bottom: "pool3"
  top: "ip1"
  param {
    lr_mult: 1
  }
  param {
    lr_mult: 2
  }
  inner_product_param {
    num_output: 512
    weight_filler {
      type: "gaussian"
      std: 0.1
    }
    bias_filler {
      type: "constant"
    }
  }
}
layer {
  name: "ip2"
  type: "InnerProduct"
  bottom: "ip1"
  top: "ip2"
  param {
    lr_mult: 1
  }
  param {
    lr_mult: 2
  }
  inner_product_param {
    num_output: 256
    weight_filler {
      type: "gaussian"
      std: 0.1
    }
    bias_filler {
      type: "constant"
    }
  }
}
layer {
  name: "ip3"
  type: "InnerProduct"
  bottom: "ip2"
  top: "ip3"
  param {
    lr_mult: 1
  }
  param {
    lr_mult: 2
  }
  inner_product_param {
    num_output: 50
    weight_filler {
      type: "gaussian"
      std: 0.1
    }
    bias_filler {
      type: "constant"
    }
  }
}
layer {
  name: "accuracy"
  type: "Accuracy"
  bottom: "ip3"
  bottom: "label"
  top: "accuracy"
  include {
    phase: TEST
  }
}
layer {
  name: "loss"
  type: "SoftmaxWithLoss"
  bottom: "ip3"
  bottom: "label"
  top: "loss"
}
I0505 02:36:18.920886  2185 layer_factory.hpp:77] Creating layer intercept
I0505 02:36:18.920893  2185 net.cpp:94] Creating Layer intercept
I0505 02:36:18.920897  2185 net.cpp:409] intercept -> data
I0505 02:36:18.920904  2185 net.cpp:409] intercept -> label
I0505 02:36:18.920912  2185 hdf5_data_layer.cpp:79] Loading list of HDF5 filenames from: /home/purduethu/scratch/radon/d/deng106/CNNStatisticalModel/distributions/input/5_distributions_100_sample_size_test-distributions-path.txt
I0505 02:36:18.920929  2185 hdf5_data_layer.cpp:93] Number of HDF5 files: 1
I0505 02:36:18.924932  2185 net.cpp:144] Setting up intercept
I0505 02:36:18.924957  2185 net.cpp:151] Top shape: 20 1 10 10 (2000)
I0505 02:36:18.924962  2185 net.cpp:151] Top shape: 20 (20)
I0505 02:36:18.924965  2185 net.cpp:159] Memory required for data: 8080
I0505 02:36:18.924970  2185 layer_factory.hpp:77] Creating layer label_intercept_1_split
I0505 02:36:18.924985  2185 net.cpp:94] Creating Layer label_intercept_1_split
I0505 02:36:18.924996  2185 net.cpp:435] label_intercept_1_split <- label
I0505 02:36:18.925002  2185 net.cpp:409] label_intercept_1_split -> label_intercept_1_split_0
I0505 02:36:18.925010  2185 net.cpp:409] label_intercept_1_split -> label_intercept_1_split_1
I0505 02:36:18.925037  2185 net.cpp:144] Setting up label_intercept_1_split
I0505 02:36:18.925045  2185 net.cpp:151] Top shape: 20 (20)
I0505 02:36:18.925047  2185 net.cpp:151] Top shape: 20 (20)
I0505 02:36:18.925050  2185 net.cpp:159] Memory required for data: 8240
I0505 02:36:18.925060  2185 layer_factory.hpp:77] Creating layer conv1
I0505 02:36:18.925071  2185 net.cpp:94] Creating Layer conv1
I0505 02:36:18.925074  2185 net.cpp:435] conv1 <- data
I0505 02:36:18.925079  2185 net.cpp:409] conv1 -> conv1
I0505 02:36:18.925773  2185 net.cpp:144] Setting up conv1
I0505 02:36:18.925787  2185 net.cpp:151] Top shape: 20 64 10 10 (128000)
I0505 02:36:18.925791  2185 net.cpp:159] Memory required for data: 520240
I0505 02:36:18.925801  2185 layer_factory.hpp:77] Creating layer relu1
I0505 02:36:18.925806  2185 net.cpp:94] Creating Layer relu1
I0505 02:36:18.925810  2185 net.cpp:435] relu1 <- conv1
I0505 02:36:18.925814  2185 net.cpp:396] relu1 -> conv1 (in-place)
I0505 02:36:18.925822  2185 net.cpp:144] Setting up relu1
I0505 02:36:18.925827  2185 net.cpp:151] Top shape: 20 64 10 10 (128000)
I0505 02:36:18.925830  2185 net.cpp:159] Memory required for data: 1032240
I0505 02:36:18.925833  2185 layer_factory.hpp:77] Creating layer pool1
I0505 02:36:18.925839  2185 net.cpp:94] Creating Layer pool1
I0505 02:36:18.925843  2185 net.cpp:435] pool1 <- conv1
I0505 02:36:18.925848  2185 net.cpp:409] pool1 -> pool1
I0505 02:36:18.925882  2185 net.cpp:144] Setting up pool1
I0505 02:36:18.925889  2185 net.cpp:151] Top shape: 20 64 5 5 (32000)
I0505 02:36:18.925892  2185 net.cpp:159] Memory required for data: 1160240
I0505 02:36:18.925895  2185 layer_factory.hpp:77] Creating layer conv2
I0505 02:36:18.925902  2185 net.cpp:94] Creating Layer conv2
I0505 02:36:18.925906  2185 net.cpp:435] conv2 <- pool1
I0505 02:36:18.925911  2185 net.cpp:409] conv2 -> conv2
I0505 02:36:18.932345  2185 net.cpp:144] Setting up conv2
I0505 02:36:18.932359  2185 net.cpp:151] Top shape: 20 128 5 5 (64000)
I0505 02:36:18.932363  2185 net.cpp:159] Memory required for data: 1416240
I0505 02:36:18.932371  2185 layer_factory.hpp:77] Creating layer relu2
I0505 02:36:18.932376  2185 net.cpp:94] Creating Layer relu2
I0505 02:36:18.932380  2185 net.cpp:435] relu2 <- conv2
I0505 02:36:18.932385  2185 net.cpp:396] relu2 -> conv2 (in-place)
I0505 02:36:18.932392  2185 net.cpp:144] Setting up relu2
I0505 02:36:18.932397  2185 net.cpp:151] Top shape: 20 128 5 5 (64000)
I0505 02:36:18.932400  2185 net.cpp:159] Memory required for data: 1672240
I0505 02:36:18.932404  2185 layer_factory.hpp:77] Creating layer conv3
I0505 02:36:18.932410  2185 net.cpp:94] Creating Layer conv3
I0505 02:36:18.932415  2185 net.cpp:435] conv3 <- conv2
I0505 02:36:18.932418  2185 net.cpp:409] conv3 -> conv3
I0505 02:36:18.944607  2185 net.cpp:144] Setting up conv3
I0505 02:36:18.944622  2185 net.cpp:151] Top shape: 20 128 5 5 (64000)
I0505 02:36:18.944625  2185 net.cpp:159] Memory required for data: 1928240
I0505 02:36:18.944634  2185 layer_factory.hpp:77] Creating layer relu3
I0505 02:36:18.944640  2185 net.cpp:94] Creating Layer relu3
I0505 02:36:18.944644  2185 net.cpp:435] relu3 <- conv3
I0505 02:36:18.944649  2185 net.cpp:396] relu3 -> conv3 (in-place)
I0505 02:36:18.944656  2185 net.cpp:144] Setting up relu3
I0505 02:36:18.944661  2185 net.cpp:151] Top shape: 20 128 5 5 (64000)
I0505 02:36:18.944664  2185 net.cpp:159] Memory required for data: 2184240
I0505 02:36:18.944667  2185 layer_factory.hpp:77] Creating layer pool3
I0505 02:36:18.944672  2185 net.cpp:94] Creating Layer pool3
I0505 02:36:18.944675  2185 net.cpp:435] pool3 <- conv3
I0505 02:36:18.944680  2185 net.cpp:409] pool3 -> pool3
I0505 02:36:18.944705  2185 net.cpp:144] Setting up pool3
I0505 02:36:18.944711  2185 net.cpp:151] Top shape: 20 128 2 2 (10240)
I0505 02:36:18.944720  2185 net.cpp:159] Memory required for data: 2225200
I0505 02:36:18.944723  2185 layer_factory.hpp:77] Creating layer ip1
I0505 02:36:18.944730  2185 net.cpp:94] Creating Layer ip1
I0505 02:36:18.944733  2185 net.cpp:435] ip1 <- pool3
I0505 02:36:18.944737  2185 net.cpp:409] ip1 -> ip1
I0505 02:36:18.951511  2185 net.cpp:144] Setting up ip1
I0505 02:36:18.951524  2185 net.cpp:151] Top shape: 20 512 (10240)
I0505 02:36:18.951529  2185 net.cpp:159] Memory required for data: 2266160
I0505 02:36:18.951534  2185 layer_factory.hpp:77] Creating layer ip2
I0505 02:36:18.951547  2185 net.cpp:94] Creating Layer ip2
I0505 02:36:18.951551  2185 net.cpp:435] ip2 <- ip1
I0505 02:36:18.951556  2185 net.cpp:409] ip2 -> ip2
I0505 02:36:18.954691  2185 net.cpp:144] Setting up ip2
I0505 02:36:18.954699  2185 net.cpp:151] Top shape: 20 256 (5120)
I0505 02:36:18.954704  2185 net.cpp:159] Memory required for data: 2286640
I0505 02:36:18.954710  2185 layer_factory.hpp:77] Creating layer ip3
I0505 02:36:18.954716  2185 net.cpp:94] Creating Layer ip3
I0505 02:36:18.954720  2185 net.cpp:435] ip3 <- ip2
I0505 02:36:18.954725  2185 net.cpp:409] ip3 -> ip3
I0505 02:36:18.955090  2185 net.cpp:144] Setting up ip3
I0505 02:36:18.955097  2185 net.cpp:151] Top shape: 20 50 (1000)
I0505 02:36:18.955101  2185 net.cpp:159] Memory required for data: 2290640
I0505 02:36:18.955106  2185 layer_factory.hpp:77] Creating layer ip3_ip3_0_split
I0505 02:36:18.955111  2185 net.cpp:94] Creating Layer ip3_ip3_0_split
I0505 02:36:18.955113  2185 net.cpp:435] ip3_ip3_0_split <- ip3
I0505 02:36:18.955117  2185 net.cpp:409] ip3_ip3_0_split -> ip3_ip3_0_split_0
I0505 02:36:18.955123  2185 net.cpp:409] ip3_ip3_0_split -> ip3_ip3_0_split_1
I0505 02:36:18.955147  2185 net.cpp:144] Setting up ip3_ip3_0_split
I0505 02:36:18.955152  2185 net.cpp:151] Top shape: 20 50 (1000)
I0505 02:36:18.955155  2185 net.cpp:151] Top shape: 20 50 (1000)
I0505 02:36:18.955158  2185 net.cpp:159] Memory required for data: 2298640
I0505 02:36:18.955162  2185 layer_factory.hpp:77] Creating layer accuracy
I0505 02:36:18.955168  2185 net.cpp:94] Creating Layer accuracy
I0505 02:36:18.955170  2185 net.cpp:435] accuracy <- ip3_ip3_0_split_0
I0505 02:36:18.955174  2185 net.cpp:435] accuracy <- label_intercept_1_split_0
I0505 02:36:18.955178  2185 net.cpp:409] accuracy -> accuracy
…
