…
I0502 16:58:00.171335 11706 net.cpp:323] The NetState phase (0) differed from the phase (1) specified by a rule in layer intercept
I0502 16:58:00.171351 11706 net.cpp:323] The NetState phase (0) differed from the phase (1) specified by a rule in layer accuracy
I0502 16:58:00.171442 11706 net.cpp:52] Initializing net from parameters: 
state {
  phase: TRAIN
}
layer {
  name: "parameters"
  type: "HDF5Data"
  top: "data"
  top: "label"
  include {
    phase: TRAIN
  }
  hdf5_data_param {
    source: "/home/purduethu/scratch/radon/d/deng106/CNNStatisticalModel/distributions/input/50_distributions_100_sample_size_train-distributions-path.txt"
    batch_size: 20
  }
}
layer {
  name: "conv1"
  type: "Convolution"
  bottom: "data"
  top: "conv1"
  param {
    lr_mult: 1
  }
  param {
    lr_mult: 2
  }
  convolution_param {
    num_output: 64
    pad: 2
    kernel_size: 5
    stride: 1
    weight_filler {
      type: "gaussian"
      std: 0.0001
    }
    bias_filler {
      type: "constant"
    }
  }
}
layer {
  name: "relu1"
  type: "ReLU"
  bottom: "conv1"
  top: "conv1"
}
layer {
  name: "conv2"
  type: "Convolution"
  bottom: "conv1"
  top: "conv2"
  param {
    lr_mult: 1
  }
  param {
    lr_mult: 2
  }
  convolution_param {
    num_output: 64
    pad: 2
    kernel_size: 5
    stride: 1
    weight_filler {
      type: "gaussian"
      std: 0.01
    }
    bias_filler {
      type: "constant"
    }
  }
}
layer {
  name: "relu2"
  type: "ReLU"
  bottom: "conv2"
  top: "conv2"
}
layer {
  name: "pool2"
  type: "Pooling"
  bottom: "conv2"
  top: "pool2"
  pooling_param {
    pool: MAX
    kernel_size: 3
    stride: 2
  }
}
layer {
  name: "conv3"
  type: "Convolution"
  bottom: "pool2"
  top: "conv3"
  param {
    lr_mult: 1
  }
  param {
    lr_mult: 2
  }
  convolution_param {
    num_output: 64
    pad: 2
    kernel_size: 5
    stride: 1
    weight_filler {
      type: "gaussian"
      std: 0.01
    }
    bias_filler {
      type: "constant"
    }
  }
}
layer {
  name: "relu3"
  type: "ReLU"
  bottom: "conv3"
  top: "conv3"
}
layer {
  name: "conv4"
  type: "Convolution"
  bottom: "conv3"
  top: "conv4"
  param {
    lr_mult: 1
  }
  param {
    lr_mult: 2
  }
  convolution_param {
    num_output: 64
    pad: 2
    kernel_size: 5
    stride: 1
    weight_filler {
      type: "gaussian"
      std: 0.01
    }
    bias_filler {
      type: "constant"
    }
  }
}
layer {
  name: "relu4"
  type: "ReLU"
  bottom: "conv4"
  top: "conv4"
}
layer {
  name: "conv5"
  type: "Convolution"
  bottom: "conv4"
  top: "conv5"
  param {
    lr_mult: 1
  }
  param {
    lr_mult: 2
  }
  convolution_param {
    num_output: 64
    pad: 2
    kernel_size: 5
    stride: 1
    weight_filler {
      type: "gaussian"
      std: 0.01
    }
    bias_filler {
      type: "constant"
    }
  }
}
layer {
  name: "relu5"
  type: "ReLU"
  bottom: "conv5"
  top: "conv5"
}
layer {
  name: "pool5"
  type: "Pooling"
  bottom: "conv5"
  top: "pool5"
  pooling_param {
    pool: AVE
    kernel_size: 3
    stride: 2
  }
}
layer {
  name: "ip1"
  type: "InnerProduct"
  bottom: "pool5"
  top: "ip1"
  param {
    lr_mult: 1
  }
  param {
    lr_mult: 2
  }
  inner_product_param {
    num_output: 64
    weight_filler {
      type: "gaussian"
      std: 0.1
    }
    bias_filler {
      type: "constant"
    }
  }
}
layer {
  name: "ip2"
  type: "InnerProduct"
  bottom: "ip1"
  top: "ip2"
  param {
    lr_mult: 1
  }
  param {
    lr_mult: 2
  }
  inner_product_param {
    num_output: 64
    weight_filler {
      type: "gaussian"
      std: 0.1
    }
    bias_filler {
      type: "constant"
    }
  }
}
layer {
  name: "ip3"
  type: "InnerProduct"
  bottom: "ip2"
  top: "ip3"
  param {
    lr_mult: 1
  }
  param {
    lr_mult: 2
  }
  inner_product_param {
    num_output: 50
    weight_filler {
      type: "gaussian"
      std: 0.1
    }
    bias_filler {
      type: "constant"
    }
  }
}
layer {
  name: "loss"
  type: "SoftmaxWithLoss"
  bottom: "ip3"
  bottom: "label"
  top: "loss"
}
I0502 16:58:00.171516 11706 layer_factory.hpp:77] Creating layer parameters
I0502 16:58:00.171530 11706 net.cpp:94] Creating Layer parameters
I0502 16:58:00.171535 11706 net.cpp:409] parameters -> data
I0502 16:58:00.171555 11706 net.cpp:409] parameters -> label
I0502 16:58:00.171563 11706 hdf5_data_layer.cpp:79] Loading list of HDF5 filenames from: /home/purduethu/scratch/radon/d/deng106/CNNStatisticalModel/distributions/input/50_distributions_100_sample_size_train-distributions-path.txt
I0502 16:58:00.171587 11706 hdf5_data_layer.cpp:93] Number of HDF5 files: 1
I0502 16:58:00.172220 11706 hdf5.cpp:32] Datatype class: H5T_FLOAT
I0502 16:58:00.345068 11706 hdf5.cpp:35] Datatype class: H5T_INTEGER
I0502 16:58:00.347980 11706 net.cpp:144] Setting up parameters
I0502 16:58:00.348002 11706 net.cpp:151] Top shape: 20 1 10 10 (2000)
I0502 16:58:00.348008 11706 net.cpp:151] Top shape: 20 (20)
I0502 16:58:00.348011 11706 net.cpp:159] Memory required for data: 8080
I0502 16:58:00.348018 11706 layer_factory.hpp:77] Creating layer conv1
I0502 16:58:00.348043 11706 net.cpp:94] Creating Layer conv1
I0502 16:58:00.348049 11706 net.cpp:435] conv1 <- data
I0502 16:58:00.348060 11706 net.cpp:409] conv1 -> conv1
I0502 16:58:00.352617 11706 net.cpp:144] Setting up conv1
I0502 16:58:00.352632 11706 net.cpp:151] Top shape: 20 64 10 10 (128000)
I0502 16:58:00.352638 11706 net.cpp:159] Memory required for data: 520080
I0502 16:58:00.352648 11706 layer_factory.hpp:77] Creating layer relu1
I0502 16:58:00.352656 11706 net.cpp:94] Creating Layer relu1
I0502 16:58:00.352660 11706 net.cpp:435] relu1 <- conv1
I0502 16:58:00.352664 11706 net.cpp:396] relu1 -> conv1 (in-place)
I0502 16:58:00.352680 11706 net.cpp:144] Setting up relu1
I0502 16:58:00.352685 11706 net.cpp:151] Top shape: 20 64 10 10 (128000)
I0502 16:58:00.352689 11706 net.cpp:159] Memory required for data: 1032080
I0502 16:58:00.352692 11706 layer_factory.hpp:77] Creating layer conv2
I0502 16:58:00.352699 11706 net.cpp:94] Creating Layer conv2
I0502 16:58:00.352704 11706 net.cpp:435] conv2 <- conv1
I0502 16:58:00.352708 11706 net.cpp:409] conv2 -> conv2
I0502 16:58:00.358867 11706 net.cpp:144] Setting up conv2
I0502 16:58:00.358881 11706 net.cpp:151] Top shape: 20 64 10 10 (128000)
I0502 16:58:00.358886 11706 net.cpp:159] Memory required for data: 1544080
I0502 16:58:00.358894 11706 layer_factory.hpp:77] Creating layer relu2
I0502 16:58:00.358901 11706 net.cpp:94] Creating Layer relu2
I0502 16:58:00.358904 11706 net.cpp:435] relu2 <- conv2
I0502 16:58:00.358909 11706 net.cpp:396] relu2 -> conv2 (in-place)
I0502 16:58:00.358916 11706 net.cpp:144] Setting up relu2
I0502 16:58:00.358922 11706 net.cpp:151] Top shape: 20 64 10 10 (128000)
I0502 16:58:00.358924 11706 net.cpp:159] Memory required for data: 2056080
I0502 16:58:00.358927 11706 layer_factory.hpp:77] Creating layer pool2
I0502 16:58:00.358942 11706 net.cpp:94] Creating Layer pool2
I0502 16:58:00.358945 11706 net.cpp:435] pool2 <- conv2
I0502 16:58:00.358949 11706 net.cpp:409] pool2 -> pool2
I0502 16:58:00.358992 11706 net.cpp:144] Setting up pool2
I0502 16:58:00.359000 11706 net.cpp:151] Top shape: 20 64 5 5 (32000)
I0502 16:58:00.359004 11706 net.cpp:159] Memory required for data: 2184080
I0502 16:58:00.359006 11706 layer_factory.hpp:77] Creating layer conv3
I0502 16:58:00.359014 11706 net.cpp:94] Creating Layer conv3
I0502 16:58:00.359019 11706 net.cpp:435] conv3 <- pool2
I0502 16:58:00.359031 11706 net.cpp:409] conv3 -> conv3
I0502 16:58:00.364876 11706 net.cpp:144] Setting up conv3
I0502 16:58:00.364889 11706 net.cpp:151] Top shape: 20 64 5 5 (32000)
I0502 16:58:00.364893 11706 net.cpp:159] Memory required for data: 2312080
I0502 16:58:00.364902 11706 layer_factory.hpp:77] Creating layer relu3
I0502 16:58:00.364907 11706 net.cpp:94] Creating Layer relu3
I0502 16:58:00.364912 11706 net.cpp:435] relu3 <- conv3
I0502 16:58:00.364917 11706 net.cpp:396] relu3 -> conv3 (in-place)
I0502 16:58:00.364923 11706 net.cpp:144] Setting up relu3
I0502 16:58:00.364928 11706 net.cpp:151] Top shape: 20 64 5 5 (32000)
I0502 16:58:00.364931 11706 net.cpp:159] Memory required for data: 2440080
I0502 16:58:00.364934 11706 layer_factory.hpp:77] Creating layer conv4
I0502 16:58:00.364943 11706 net.cpp:94] Creating Layer conv4
I0502 16:58:00.364945 11706 net.cpp:435] conv4 <- conv3
I0502 16:58:00.364950 11706 net.cpp:409] conv4 -> conv4
I0502 16:58:00.370602 11706 net.cpp:144] Setting up conv4
I0502 16:58:00.370615 11706 net.cpp:151] Top shape: 20 64 5 5 (32000)
I0502 16:58:00.370620 11706 net.cpp:159] Memory required for data: 2568080
I0502 16:58:00.370625 11706 layer_factory.hpp:77] Creating layer relu4
I0502 16:58:00.370631 11706 net.cpp:94] Creating Layer relu4
I0502 16:58:00.370635 11706 net.cpp:435] relu4 <- conv4
I0502 16:58:00.370640 11706 net.cpp:396] relu4 -> conv4 (in-place)
I0502 16:58:00.370646 11706 net.cpp:144] Setting up relu4
I0502 16:58:00.370651 11706 net.cpp:151] Top shape: 20 64 5 5 (32000)
I0502 16:58:00.370654 11706 net.cpp:159] Memory required for data: 2696080
I0502 16:58:00.370657 11706 layer_factory.hpp:77] Creating layer conv5
I0502 16:58:00.370666 11706 net.cpp:94] Creating Layer conv5
I0502 16:58:00.370668 11706 net.cpp:435] conv5 <- conv4
I0502 16:58:00.370673 11706 net.cpp:409] conv5 -> conv5
I0502 16:58:00.376452 11706 net.cpp:144] Setting up conv5
I0502 16:58:00.376466 11706 net.cpp:151] Top shape: 20 64 5 5 (32000)
I0502 16:58:00.376471 11706 net.cpp:159] Memory required for data: 2824080
I0502 16:58:00.376479 11706 layer_factory.hpp:77] Creating layer relu5
I0502 16:58:00.376485 11706 net.cpp:94] Creating Layer relu5
I0502 16:58:00.376488 11706 net.cpp:435] relu5 <- conv5
I0502 16:58:00.376493 11706 net.cpp:396] relu5 -> conv5 (in-place)
I0502 16:58:00.376500 11706 net.cpp:144] Setting up relu5
I0502 16:58:00.376505 11706 net.cpp:151] Top shape: 20 64 5 5 (32000)
I0502 16:58:00.376508 11706 net.cpp:159] Memory required for data: 2952080
I0502 16:58:00.376512 11706 layer_factory.hpp:77] Creating layer pool5
I0502 16:58:00.376516 11706 net.cpp:94] Creating Layer pool5
I0502 16:58:00.376519 11706 net.cpp:435] pool5 <- conv5
I0502 16:58:00.376524 11706 net.cpp:409] pool5 -> pool5
I0502 16:58:00.376564 11706 net.cpp:144] Setting up pool5
I0502 16:58:00.376574 11706 net.cpp:151] Top shape: 20 64 2 2 (5120)
I0502 16:58:00.376576 11706 net.cpp:159] Memory required for data: 2972560
I0502 16:58:00.376579 11706 layer_factory.hpp:77] Creating layer ip1
I0502 16:58:00.376590 11706 net.cpp:94] Creating Layer ip1
I0502 16:58:00.376593 11706 net.cpp:435] ip1 <- pool5
I0502 16:58:00.376597 11706 net.cpp:409] ip1 -> ip1
I0502 16:58:00.377763 11706 net.cpp:144] Setting up ip1
I0502 16:58:00.377776 11706 net.cpp:151] Top shape: 20 64 (1280)
I0502 16:58:00.377780 11706 net.cpp:159] Memory required for data: 2977680
I0502 16:58:00.377786 11706 layer_factory.hpp:77] Creating layer ip2
I0502 16:58:00.377794 11706 net.cpp:94] Creating Layer ip2
I0502 16:58:00.377801 11706 net.cpp:435] ip2 <- ip1
I0502 16:58:00.377807 11706 net.cpp:409] ip2 -> ip2
I0502 16:58:00.377971 11706 net.cpp:144] Setting up ip2
I0502 16:58:00.377979 11706 net.cpp:151] Top shape: 20 64 (1280)
I0502 16:58:00.377982 11706 net.cpp:159] Memory required for data: 2982800
I0502 16:58:00.377987 11706 layer_factory.hpp:77] Creating layer ip3
I0502 16:58:00.377993 11706 net.cpp:94] Creating Layer ip3
I0502 16:58:00.377996 11706 net.cpp:435] ip3 <- ip2
I0502 16:58:00.378001 11706 net.cpp:409] ip3 -> ip3
I0502 16:58:00.378140 11706 net.cpp:144] Setting up ip3
I0502 16:58:00.378152 11706 net.cpp:151] Top shape: 20 50 (1000)
I0502 16:58:00.378156 11706 net.cpp:159] Memory required for data: 2986800
I0502 16:58:00.378161 11706 layer_factory.hpp:77] Creating layer loss
I0502 16:58:00.378168 11706 net.cpp:94] Creating Layer loss
I0502 16:58:00.378171 11706 net.cpp:435] loss <- ip3
I0502 16:58:00.378175 11706 net.cpp:435] loss <- label
I0502 16:58:00.378181 11706 net.cpp:409] loss -> loss
I0502 16:58:00.378190 11706 layer_factory.hpp:77] Creating layer loss
…
I0502 16:58:00.379396 11706 solver.cpp:181] Creating test net (#0) specified by net file: ./protocol/dis_50_100_dimension.protocol_distribution
I0502 16:58:00.379423 11706 net.cpp:323] The NetState phase (1) differed from the phase (0) specified by a rule in layer parameters
I0502 16:58:00.379518 11706 net.cpp:52] Initializing net from parameters: 
state {
  phase: TEST
}
layer {
  name: "intercept"
  type: "HDF5Data"
  top: "data"
  top: "label"
  include {
    phase: TEST
  }
  hdf5_data_param {
    source: "/home/purduethu/scratch/radon/d/deng106/CNNStatisticalModel/distributions/input/50_distributions_100_sample_size_test-distributions-path.txt"
    batch_size: 20
  }
}
layer {
  name: "conv1"
  type: "Convolution"
  bottom: "data"
  top: "conv1"
  param {
    lr_mult: 1
  }
  param {
    lr_mult: 2
  }
  convolution_param {
    num_output: 64
    pad: 2
    kernel_size: 5
    stride: 1
    weight_filler {
      type: "gaussian"
      std: 0.0001
    }
    bias_filler {
      type: "constant"
    }
  }
}
layer {
  name: "relu1"
  type: "ReLU"
  bottom: "conv1"
  top: "conv1"
}
layer {
  name: "conv2"
  type: "Convolution"
  bottom: "conv1"
  top: "conv2"
  param {
    lr_mult: 1
  }
  param {
    lr_mult: 2
  }
  convolution_param {
    num_output: 64
    pad: 2
    kernel_size: 5
    stride: 1
    weight_filler {
      type: "gaussian"
      std: 0.01
    }
    bias_filler {
      type: "constant"
    }
  }
}
layer {
  name: "relu2"
  type: "ReLU"
  bottom: "conv2"
  top: "conv2"
}
layer {
  name: "pool2"
  type: "Pooling"
  bottom: "conv2"
  top: "pool2"
  pooling_param {
    pool: MAX
    kernel_size: 3
    stride: 2
  }
}
layer {
  name: "conv3"
  type: "Convolution"
  bottom: "pool2"
  top: "conv3"
  param {
    lr_mult: 1
  }
  param {
    lr_mult: 2
  }
  convolution_param {
    num_output: 64
    pad: 2
    kernel_size: 5
    stride: 1
    weight_filler {
      type: "gaussian"
      std: 0.01
    }
    bias_filler {
      type: "constant"
    }
  }
}
layer {
  name: "relu3"
  type: "ReLU"
  bottom: "conv3"
  top: "conv3"
}
layer {
  name: "conv4"
  type: "Convolution"
  bottom: "conv3"
  top: "conv4"
  param {
    lr_mult: 1
  }
  param {
    lr_mult: 2
  }
  convolution_param {
    num_output: 64
    pad: 2
    kernel_size: 5
    stride: 1
    weight_filler {
      type: "gaussian"
      std: 0.01
    }
    bias_filler {
      type: "constant"
    }
  }
}
layer {
  name: "relu4"
  type: "ReLU"
  bottom: "conv4"
  top: "conv4"
}
layer {
  name: "conv5"
  type: "Convolution"
  bottom: "conv4"
  top: "conv5"
  param {
    lr_mult: 1
  }
  param {
    lr_mult: 2
  }
  convolution_param {
    num_output: 64
    pad: 2
    kernel_size: 5
    stride: 1
    weight_filler {
      type: "gaussian"
      std: 0.01
    }
    bias_filler {
      type: "constant"
    }
  }
}
layer {
  name: "relu5"
  type: "ReLU"
  bottom: "conv5"
  top: "conv5"
}
layer {
  name: "pool5"
  type: "Pooling"
  bottom: "conv5"
  top: "pool5"
  pooling_param {
    pool: AVE
    kernel_size: 3
    stride: 2
  }
}
layer {
  name: "ip1"
  type: "InnerProduct"
  bottom: "pool5"
  top: "ip1"
  param {
    lr_mult: 1
  }
  param {
    lr_mult: 2
  }
  inner_product_param {
    num_output: 64
    weight_filler {
      type: "gaussian"
      std: 0.1
    }
    bias_filler {
      type: "constant"
    }
  }
}
layer {
  name: "ip2"
  type: "InnerProduct"
  bottom: "ip1"
  top: "ip2"
  param {
    lr_mult: 1
  }
  param {
    lr_mult: 2
  }
  inner_product_param {
    num_output: 64
    weight_filler {
      type: "gaussian"
      std: 0.1
    }
    bias_filler {
      type: "constant"
    }
  }
}
layer {
  name: "ip3"
  type: "InnerProduct"
  bottom: "ip2"
  top: "ip3"
  param {
    lr_mult: 1
  }
  param {
    lr_mult: 2
  }
  inner_product_param {
    num_output: 50
    weight_filler {
      type: "gaussian"
      std: 0.1
    }
    bias_filler {
      type: "constant"
    }
  }
}
layer {
  name: "accuracy"
  type: "Accuracy"
  bottom: "ip3"
  bottom: "label"
  top: "accuracy"
  include {
    phase: TEST
  }
}
layer {
  name: "loss"
  type: "SoftmaxWithLoss"
  bottom: "ip3"
  bottom: "label"
  top: "loss"
}
I0502 16:58:00.379590 11706 layer_factory.hpp:77] Creating layer intercept
I0502 16:58:00.379598 11706 net.cpp:94] Creating Layer intercept
I0502 16:58:00.379602 11706 net.cpp:409] intercept -> data
I0502 16:58:00.379608 11706 net.cpp:409] intercept -> label
I0502 16:58:00.379616 11706 hdf5_data_layer.cpp:79] Loading list of HDF5 filenames from: /home/purduethu/scratch/radon/d/deng106/CNNStatisticalModel/distributions/input/50_distributions_100_sample_size_test-distributions-path.txt
I0502 16:58:00.379634 11706 hdf5_data_layer.cpp:93] Number of HDF5 files: 1
I0502 16:58:00.421596 11706 net.cpp:144] Setting up intercept
I0502 16:58:00.421630 11706 net.cpp:151] Top shape: 20 1 10 10 (2000)
I0502 16:58:00.421635 11706 net.cpp:151] Top shape: 20 (20)
I0502 16:58:00.421638 11706 net.cpp:159] Memory required for data: 8080
I0502 16:58:00.421645 11706 layer_factory.hpp:77] Creating layer label_intercept_1_split
I0502 16:58:00.421665 11706 net.cpp:94] Creating Layer label_intercept_1_split
I0502 16:58:00.421670 11706 net.cpp:435] label_intercept_1_split <- label
I0502 16:58:00.421675 11706 net.cpp:409] label_intercept_1_split -> label_intercept_1_split_0
I0502 16:58:00.421684 11706 net.cpp:409] label_intercept_1_split -> label_intercept_1_split_1
I0502 16:58:00.421720 11706 net.cpp:144] Setting up label_intercept_1_split
I0502 16:58:00.421726 11706 net.cpp:151] Top shape: 20 (20)
I0502 16:58:00.421730 11706 net.cpp:151] Top shape: 20 (20)
I0502 16:58:00.421733 11706 net.cpp:159] Memory required for data: 8240
I0502 16:58:00.421736 11706 layer_factory.hpp:77] Creating layer conv1
I0502 16:58:00.421747 11706 net.cpp:94] Creating Layer conv1
I0502 16:58:00.421751 11706 net.cpp:435] conv1 <- data
I0502 16:58:00.421756 11706 net.cpp:409] conv1 -> conv1
I0502 16:58:00.423044 11706 net.cpp:144] Setting up conv1
I0502 16:58:00.423065 11706 net.cpp:151] Top shape: 20 64 10 10 (128000)
I0502 16:58:00.423070 11706 net.cpp:159] Memory required for data: 520240
I0502 16:58:00.423079 11706 layer_factory.hpp:77] Creating layer relu1
I0502 16:58:00.423086 11706 net.cpp:94] Creating Layer relu1
I0502 16:58:00.423090 11706 net.cpp:435] relu1 <- conv1
I0502 16:58:00.423094 11706 net.cpp:396] relu1 -> conv1 (in-place)
I0502 16:58:00.423102 11706 net.cpp:144] Setting up relu1
I0502 16:58:00.423106 11706 net.cpp:151] Top shape: 20 64 10 10 (128000)
I0502 16:58:00.423110 11706 net.cpp:159] Memory required for data: 1032240
I0502 16:58:00.423113 11706 layer_factory.hpp:77] Creating layer conv2
I0502 16:58:00.423121 11706 net.cpp:94] Creating Layer conv2
I0502 16:58:00.423125 11706 net.cpp:435] conv2 <- conv1
I0502 16:58:00.423130 11706 net.cpp:409] conv2 -> conv2
I0502 16:58:00.427726 11706 net.cpp:144] Setting up conv2
I0502 16:58:00.427739 11706 net.cpp:151] Top shape: 20 64 10 10 (128000)
I0502 16:58:00.427743 11706 net.cpp:159] Memory required for data: 1544240
I0502 16:58:00.427752 11706 layer_factory.hpp:77] Creating layer relu2
I0502 16:58:00.427757 11706 net.cpp:94] Creating Layer relu2
I0502 16:58:00.427762 11706 net.cpp:435] relu2 <- conv2
I0502 16:58:00.427765 11706 net.cpp:396] relu2 -> conv2 (in-place)
I0502 16:58:00.427772 11706 net.cpp:144] Setting up relu2
I0502 16:58:00.427778 11706 net.cpp:151] Top shape: 20 64 10 10 (128000)
I0502 16:58:00.427780 11706 net.cpp:159] Memory required for data: 2056240
I0502 16:58:00.427783 11706 layer_factory.hpp:77] Creating layer pool2
I0502 16:58:00.427789 11706 net.cpp:94] Creating Layer pool2
I0502 16:58:00.427793 11706 net.cpp:435] pool2 <- conv2
I0502 16:58:00.427798 11706 net.cpp:409] pool2 -> pool2
I0502 16:58:00.427830 11706 net.cpp:144] Setting up pool2
I0502 16:58:00.427836 11706 net.cpp:151] Top shape: 20 64 5 5 (32000)
I0502 16:58:00.427840 11706 net.cpp:159] Memory required for data: 2184240
I0502 16:58:00.427844 11706 layer_factory.hpp:77] Creating layer conv3
I0502 16:58:00.427851 11706 net.cpp:94] Creating Layer conv3
I0502 16:58:00.427855 11706 net.cpp:435] conv3 <- pool2
I0502 16:58:00.427860 11706 net.cpp:409] conv3 -> conv3
I0502 16:58:00.431800 11706 net.cpp:144] Setting up conv3
I0502 16:58:00.431814 11706 net.cpp:151] Top shape: 20 64 5 5 (32000)
I0502 16:58:00.431818 11706 net.cpp:159] Memory required for data: 2312240
I0502 16:58:00.431826 11706 layer_factory.hpp:77] Creating layer relu3
I0502 16:58:00.431833 11706 net.cpp:94] Creating Layer relu3
I0502 16:58:00.431836 11706 net.cpp:435] relu3 <- conv3
I0502 16:58:00.431841 11706 net.cpp:396] relu3 -> conv3 (in-place)
I0502 16:58:00.431849 11706 net.cpp:144] Setting up relu3
I0502 16:58:00.431854 11706 net.cpp:151] Top shape: 20 64 5 5 (32000)
I0502 16:58:00.431856 11706 net.cpp:159] Memory required for data: 2440240
I0502 16:58:00.431859 11706 layer_factory.hpp:77] Creating layer conv4
I0502 16:58:00.431866 11706 net.cpp:94] Creating Layer conv4
I0502 16:58:00.431870 11706 net.cpp:435] conv4 <- conv3
I0502 16:58:00.431875 11706 net.cpp:409] conv4 -> conv4
I0502 16:58:00.435549 11706 net.cpp:144] Setting up conv4
I0502 16:58:00.435562 11706 net.cpp:151] Top shape: 20 64 5 5 (32000)
I0502 16:58:00.435566 11706 net.cpp:159] Memory required for data: 2568240
I0502 16:58:00.435572 11706 layer_factory.hpp:77] Creating layer relu4
I0502 16:58:00.435578 11706 net.cpp:94] Creating Layer relu4
I0502 16:58:00.435581 11706 net.cpp:435] relu4 <- conv4
I0502 16:58:00.435590 11706 net.cpp:396] relu4 -> conv4 (in-place)
I0502 16:58:00.435597 11706 net.cpp:144] Setting up relu4
I0502 16:58:00.435602 11706 net.cpp:151] Top shape: 20 64 5 5 (32000)
I0502 16:58:00.435606 11706 net.cpp:159] Memory required for data: 2696240
I0502 16:58:00.435608 11706 layer_factory.hpp:77] Creating layer conv5
I0502 16:58:00.435616 11706 net.cpp:94] Creating Layer conv5
I0502 16:58:00.435619 11706 net.cpp:435] conv5 <- conv4
I0502 16:58:00.435624 11706 net.cpp:409] conv5 -> conv5
I0502 16:58:00.439440 11706 net.cpp:144] Setting up conv5
I0502 16:58:00.439460 11706 net.cpp:151] Top shape: 20 64 5 5 (32000)
I0502 16:58:00.439463 11706 net.cpp:159] Memory required for data: 2824240
I0502 16:58:00.439471 11706 layer_factory.hpp:77] Creating layer relu5
I0502 16:58:00.439477 11706 net.cpp:94] Creating Layer relu5
I0502 16:58:00.439481 11706 net.cpp:435] relu5 <- conv5
I0502 16:58:00.439486 11706 net.cpp:396] relu5 -> conv5 (in-place)
I0502 16:58:00.439491 11706 net.cpp:144] Setting up relu5
I0502 16:58:00.439496 11706 net.cpp:151] Top shape: 20 64 5 5 (32000)
I0502 16:58:00.439499 11706 net.cpp:159] Memory required for data: 2952240
I0502 16:58:00.439502 11706 layer_factory.hpp:77] Creating layer pool5
I0502 16:58:00.439507 11706 net.cpp:94] Creating Layer pool5
I0502 16:58:00.439509 11706 net.cpp:435] pool5 <- conv5
I0502 16:58:00.439513 11706 net.cpp:409] pool5 -> pool5
I0502 16:58:00.439538 11706 net.cpp:144] Setting up pool5
I0502 16:58:00.439543 11706 net.cpp:151] Top shape: 20 64 2 2 (5120)
I0502 16:58:00.439546 11706 net.cpp:159] Memory required for data: 2972720
I0502 16:58:00.439549 11706 layer_factory.hpp:77] Creating layer ip1
I0502 16:58:00.439556 11706 net.cpp:94] Creating Layer ip1
I0502 16:58:00.439559 11706 net.cpp:435] ip1 <- pool5
I0502 16:58:00.439563 11706 net.cpp:409] ip1 -> ip1
I0502 16:58:00.440026 11706 net.cpp:144] Setting up ip1
I0502 16:58:00.440033 11706 net.cpp:151] Top shape: 20 64 (1280)
I0502 16:58:00.440037 11706 net.cpp:159] Memory required for data: 2977840
I0502 16:58:00.440042 11706 layer_factory.hpp:77] Creating layer ip2
I0502 16:58:00.440047 11706 net.cpp:94] Creating Layer ip2
I0502 16:58:00.440050 11706 net.cpp:435] ip2 <- ip1
I0502 16:58:00.440055 11706 net.cpp:409] ip2 -> ip2
I0502 16:58:00.440220 11706 net.cpp:144] Setting up ip2
I0502 16:58:00.440227 11706 net.cpp:151] Top shape: 20 64 (1280)
I0502 16:58:00.440230 11706 net.cpp:159] Memory required for data: 2982960
I0502 16:58:00.440235 11706 layer_factory.hpp:77] Creating layer ip3
I0502 16:58:00.440241 11706 net.cpp:94] Creating Layer ip3
I0502 16:58:00.440245 11706 net.cpp:435] ip3 <- ip2
I0502 16:58:00.440249 11706 net.cpp:409] ip3 -> ip3
I0502 16:58:00.440395 11706 net.cpp:144] Setting up ip3
I0502 16:58:00.440402 11706 net.cpp:151] Top shape: 20 50 (1000)
I0502 16:58:00.440405 11706 net.cpp:159] Memory required for data: 2986960
I0502 16:58:00.440410 11706 layer_factory.hpp:77] Creating layer ip3_ip3_0_split
I0502 16:58:00.440415 11706 net.cpp:94] Creating Layer ip3_ip3_0_split
I0502 16:58:00.440418 11706 net.cpp:435] ip3_ip3_0_split <- ip3
I0502 16:58:00.440423 11706 net.cpp:409] ip3_ip3_0_split -> ip3_ip3_0_split_0
I0502 16:58:00.440428 11706 net.cpp:409] ip3_ip3_0_split -> ip3_ip3_0_split_1
I0502 16:58:00.440454 11706 net.cpp:144] Setting up ip3_ip3_0_split
I0502 16:58:00.440459 11706 net.cpp:151] Top shape: 20 50 (1000)
I0502 16:58:00.440462 11706 net.cpp:151] Top shape: 20 50 (1000)
I0502 16:58:00.440465 11706 net.cpp:159] Memory required for data: 2994960
I0502 16:58:00.440469 11706 layer_factory.hpp:77] Creating layer accuracy
I0502 16:58:00.440474 11706 net.cpp:94] Creating Layer accuracy
I0502 16:58:00.440476 11706 net.cpp:435] accuracy <- ip3_ip3_0_split_0
I0502 16:58:00.440480 11706 net.cpp:435] accuracy <- label_intercept_1_split_0
I0502 16:58:00.440485 11706 net.cpp:409] accuracy -> accuracy
…
