…
I0504 06:00:37.134680 24373 net.cpp:323] The NetState phase (0) differed from the phase (1) specified by a rule in layer intercept
I0504 06:00:37.134696 24373 net.cpp:323] The NetState phase (0) differed from the phase (1) specified by a rule in layer loss
I0504 06:00:37.134778 24373 net.cpp:52] Initializing net from parameters: 
state {
  phase: TRAIN
}
layer {
  name: "parameters"
  type: "HDF5Data"
  top: "data"
  top: "label"
  include {
    phase: TRAIN
  }
  hdf5_data_param {
    source: "/home/purduethu/scratch/radon/d/deng106/CNNStatisticalModel/distributions/input/20_distributions_900_sample_size_train-parameters-path.txt"
    batch_size: 20
  }
}
layer {
  name: "conv1"
  type: "Convolution"
  bottom: "data"
  top: "conv1"
  param {
    lr_mult: 1
  }
  param {
    lr_mult: 2
  }
  convolution_param {
    num_output: 64
    pad: 2
    kernel_size: 5
    stride: 1
    weight_filler {
      type: "gaussian"
      std: 0.0001
    }
    bias_filler {
      type: "constant"
    }
  }
}
layer {
  name: "relu1"
  type: "ReLU"
  bottom: "conv1"
  top: "conv1"
}
layer {
  name: "conv2"
  type: "Convolution"
  bottom: "conv1"
  top: "conv2"
  param {
    lr_mult: 1
  }
  param {
    lr_mult: 2
  }
  convolution_param {
    num_output: 64
    pad: 2
    kernel_size: 5
    stride: 1
    weight_filler {
      type: "gaussian"
      std: 0.01
    }
    bias_filler {
      type: "constant"
    }
  }
}
layer {
  name: "relu2"
  type: "ReLU"
  bottom: "conv2"
  top: "conv2"
}
layer {
  name: "pool2"
  type: "Pooling"
  bottom: "conv2"
  top: "pool2"
  pooling_param {
    pool: MAX
    kernel_size: 3
    stride: 2
  }
}
layer {
  name: "conv3"
  type: "Convolution"
  bottom: "pool2"
  top: "conv3"
  param {
    lr_mult: 1
  }
  param {
    lr_mult: 2
  }
  convolution_param {
    num_output: 128
    pad: 2
    kernel_size: 5
    stride: 1
    weight_filler {
      type: "gaussian"
      std: 0.01
    }
    bias_filler {
      type: "constant"
    }
  }
}
layer {
  name: "relu3"
  type: "ReLU"
  bottom: "conv3"
  top: "conv3"
}
layer {
  name: "conv4"
  type: "Convolution"
  bottom: "conv3"
  top: "conv4"
  param {
    lr_mult: 1
  }
  param {
    lr_mult: 2
  }
  convolution_param {
    num_output: 128
    pad: 2
    kernel_size: 5
    stride: 1
    weight_filler {
      type: "gaussian"
      std: 0.01
    }
    bias_filler {
      type: "constant"
    }
  }
}
layer {
  name: "relu4"
  type: "ReLU"
  bottom: "conv4"
  top: "conv4"
}
layer {
  name: "conv5"
  type: "Convolution"
  bottom: "conv4"
  top: "conv5"
  param {
    lr_mult: 1
  }
  param {
    lr_mult: 2
  }
  convolution_param {
    num_output: 128
    pad: 2
    kernel_size: 5
    stride: 1
    weight_filler {
      type: "gaussian"
      std: 0.01
    }
    bias_filler {
      type: "constant"
    }
  }
}
layer {
  name: "relu5"
  type: "ReLU"
  bottom: "conv5"
  top: "conv5"
}
layer {
  name: "pool5"
  type: "Pooling"
  bottom: "conv5"
  top: "pool5"
  pooling_param {
    pool: AVE
    kernel_size: 3
    stride: 2
  }
}
layer {
  name: "ip1"
  type: "InnerProduct"
  bottom: "pool5"
  top: "ip1"
  param {
    lr_mult: 1
  }
  param {
    lr_mult: 2
  }
  inner_product_param {
    num_output: 1024
    weight_filler {
      type: "gaussian"
      std: 0.1
    }
    bias_filler {
      type: "constant"
    }
  }
}
layer {
  name: "ip2"
  type: "InnerProduct"
  bottom: "ip1"
  top: "ip2"
  param {
    lr_mult: 1
  }
  param {
    lr_mult: 2
  }
  inner_product_param {
    num_output: 512
    weight_filler {
      type: "gaussian"
      std: 0.1
    }
    bias_filler {
      type: "constant"
    }
  }
}
layer {
  name: "ip3"
  type: "InnerProduct"
  bottom: "ip2"
  top: "ip3"
  param {
    lr_mult: 1
  }
  param {
    lr_mult: 2
  }
  inner_product_param {
    num_output: 1
    weight_filler {
      type: "gaussian"
      std: 0.1
    }
    bias_filler {
      type: "constant"
    }
  }
}
layer {
  name: "loss"
  type: "HuberLoss"
  bottom: "ip3"
  bottom: "label"
  top: "loss"
  include {
    phase: TRAIN
  }
}
I0504 06:00:37.134835 24373 layer_factory.hpp:77] Creating layer parameters
I0504 06:00:37.134847 24373 net.cpp:94] Creating Layer parameters
I0504 06:00:37.134852 24373 net.cpp:409] parameters -> data
I0504 06:00:37.134865 24373 net.cpp:409] parameters -> label
I0504 06:00:37.134871 24373 hdf5_data_layer.cpp:79] Loading list of HDF5 filenames from: /home/purduethu/scratch/radon/d/deng106/CNNStatisticalModel/distributions/input/20_distributions_900_sample_size_train-parameters-path.txt
I0504 06:00:37.134886 24373 hdf5_data_layer.cpp:93] Number of HDF5 files: 1
I0504 06:00:37.135421 24373 hdf5.cpp:32] Datatype class: H5T_FLOAT
I0504 06:00:37.706506 24373 net.cpp:144] Setting up parameters
I0504 06:00:37.706537 24373 net.cpp:151] Top shape: 20 1 30 30 (18000)
I0504 06:00:37.706542 24373 net.cpp:151] Top shape: 20 (20)
I0504 06:00:37.706544 24373 net.cpp:159] Memory required for data: 72080
I0504 06:00:37.706550 24373 layer_factory.hpp:77] Creating layer conv1
I0504 06:00:37.706567 24373 net.cpp:94] Creating Layer conv1
I0504 06:00:37.706570 24373 net.cpp:435] conv1 <- data
I0504 06:00:37.706578 24373 net.cpp:409] conv1 -> conv1
I0504 06:00:37.712966 24373 net.cpp:144] Setting up conv1
I0504 06:00:37.712981 24373 net.cpp:151] Top shape: 20 64 30 30 (1152000)
I0504 06:00:37.712985 24373 net.cpp:159] Memory required for data: 4680080
I0504 06:00:37.712996 24373 layer_factory.hpp:77] Creating layer relu1
I0504 06:00:37.713002 24373 net.cpp:94] Creating Layer relu1
I0504 06:00:37.713006 24373 net.cpp:435] relu1 <- conv1
I0504 06:00:37.713011 24373 net.cpp:396] relu1 -> conv1 (in-place)
I0504 06:00:37.713017 24373 net.cpp:144] Setting up relu1
I0504 06:00:37.713021 24373 net.cpp:151] Top shape: 20 64 30 30 (1152000)
I0504 06:00:37.713024 24373 net.cpp:159] Memory required for data: 9288080
I0504 06:00:37.713027 24373 layer_factory.hpp:77] Creating layer conv2
I0504 06:00:37.713034 24373 net.cpp:94] Creating Layer conv2
I0504 06:00:37.713038 24373 net.cpp:435] conv2 <- conv1
I0504 06:00:37.713042 24373 net.cpp:409] conv2 -> conv2
I0504 06:00:37.727803 24373 net.cpp:144] Setting up conv2
I0504 06:00:37.727841 24373 net.cpp:151] Top shape: 20 64 30 30 (1152000)
I0504 06:00:37.727851 24373 net.cpp:159] Memory required for data: 13896080
I0504 06:00:37.727872 24373 layer_factory.hpp:77] Creating layer relu2
I0504 06:00:37.727890 24373 net.cpp:94] Creating Layer relu2
I0504 06:00:37.727900 24373 net.cpp:435] relu2 <- conv2
I0504 06:00:37.727912 24373 net.cpp:396] relu2 -> conv2 (in-place)
I0504 06:00:37.727931 24373 net.cpp:144] Setting up relu2
I0504 06:00:37.727944 24373 net.cpp:151] Top shape: 20 64 30 30 (1152000)
I0504 06:00:37.727952 24373 net.cpp:159] Memory required for data: 18504080
I0504 06:00:37.727962 24373 layer_factory.hpp:77] Creating layer pool2
I0504 06:00:37.727987 24373 net.cpp:94] Creating Layer pool2
I0504 06:00:37.727996 24373 net.cpp:435] pool2 <- conv2
I0504 06:00:37.728009 24373 net.cpp:409] pool2 -> pool2
I0504 06:00:37.728090 24373 net.cpp:144] Setting up pool2
I0504 06:00:37.728096 24373 net.cpp:151] Top shape: 20 64 15 15 (288000)
I0504 06:00:37.728099 24373 net.cpp:159] Memory required for data: 19656080
I0504 06:00:37.728102 24373 layer_factory.hpp:77] Creating layer conv3
I0504 06:00:37.728111 24373 net.cpp:94] Creating Layer conv3
I0504 06:00:37.728113 24373 net.cpp:435] conv3 <- pool2
I0504 06:00:37.728118 24373 net.cpp:409] conv3 -> conv3
I0504 06:00:37.740890 24373 net.cpp:144] Setting up conv3
I0504 06:00:37.740906 24373 net.cpp:151] Top shape: 20 128 15 15 (576000)
I0504 06:00:37.740911 24373 net.cpp:159] Memory required for data: 21960080
I0504 06:00:37.740918 24373 layer_factory.hpp:77] Creating layer relu3
I0504 06:00:37.740924 24373 net.cpp:94] Creating Layer relu3
I0504 06:00:37.740928 24373 net.cpp:435] relu3 <- conv3
I0504 06:00:37.740932 24373 net.cpp:396] relu3 -> conv3 (in-place)
I0504 06:00:37.740939 24373 net.cpp:144] Setting up relu3
I0504 06:00:37.740943 24373 net.cpp:151] Top shape: 20 128 15 15 (576000)
I0504 06:00:37.740947 24373 net.cpp:159] Memory required for data: 24264080
I0504 06:00:37.740949 24373 layer_factory.hpp:77] Creating layer conv4
I0504 06:00:37.740958 24373 net.cpp:94] Creating Layer conv4
I0504 06:00:37.740962 24373 net.cpp:435] conv4 <- conv3
I0504 06:00:37.740967 24373 net.cpp:409] conv4 -> conv4
I0504 06:00:37.763608 24373 net.cpp:144] Setting up conv4
I0504 06:00:37.763623 24373 net.cpp:151] Top shape: 20 128 15 15 (576000)
I0504 06:00:37.763628 24373 net.cpp:159] Memory required for data: 26568080
I0504 06:00:37.763634 24373 layer_factory.hpp:77] Creating layer relu4
I0504 06:00:37.763639 24373 net.cpp:94] Creating Layer relu4
I0504 06:00:37.763643 24373 net.cpp:435] relu4 <- conv4
I0504 06:00:37.763648 24373 net.cpp:396] relu4 -> conv4 (in-place)
I0504 06:00:37.763654 24373 net.cpp:144] Setting up relu4
I0504 06:00:37.763659 24373 net.cpp:151] Top shape: 20 128 15 15 (576000)
I0504 06:00:37.763661 24373 net.cpp:159] Memory required for data: 28872080
I0504 06:00:37.763664 24373 layer_factory.hpp:77] Creating layer conv5
I0504 06:00:37.763672 24373 net.cpp:94] Creating Layer conv5
I0504 06:00:37.763675 24373 net.cpp:435] conv5 <- conv4
I0504 06:00:37.763680 24373 net.cpp:409] conv5 -> conv5
I0504 06:00:37.786056 24373 net.cpp:144] Setting up conv5
I0504 06:00:37.786072 24373 net.cpp:151] Top shape: 20 128 15 15 (576000)
I0504 06:00:37.786077 24373 net.cpp:159] Memory required for data: 31176080
I0504 06:00:37.786085 24373 layer_factory.hpp:77] Creating layer relu5
I0504 06:00:37.786092 24373 net.cpp:94] Creating Layer relu5
I0504 06:00:37.786095 24373 net.cpp:435] relu5 <- conv5
I0504 06:00:37.786100 24373 net.cpp:396] relu5 -> conv5 (in-place)
I0504 06:00:37.786108 24373 net.cpp:144] Setting up relu5
I0504 06:00:37.786113 24373 net.cpp:151] Top shape: 20 128 15 15 (576000)
I0504 06:00:37.786115 24373 net.cpp:159] Memory required for data: 33480080
I0504 06:00:37.786118 24373 layer_factory.hpp:77] Creating layer pool5
I0504 06:00:37.786123 24373 net.cpp:94] Creating Layer pool5
I0504 06:00:37.786126 24373 net.cpp:435] pool5 <- conv5
I0504 06:00:37.786130 24373 net.cpp:409] pool5 -> pool5
I0504 06:00:37.786175 24373 net.cpp:144] Setting up pool5
I0504 06:00:37.786182 24373 net.cpp:151] Top shape: 20 128 7 7 (125440)
I0504 06:00:37.786185 24373 net.cpp:159] Memory required for data: 33981840
I0504 06:00:37.786190 24373 layer_factory.hpp:77] Creating layer ip1
I0504 06:00:37.786200 24373 net.cpp:94] Creating Layer ip1
I0504 06:00:37.786203 24373 net.cpp:435] ip1 <- pool5
I0504 06:00:37.786207 24373 net.cpp:409] ip1 -> ip1
I0504 06:00:37.942996 24373 net.cpp:144] Setting up ip1
I0504 06:00:37.943032 24373 net.cpp:151] Top shape: 20 1024 (20480)
I0504 06:00:37.943035 24373 net.cpp:159] Memory required for data: 34063760
I0504 06:00:37.943044 24373 layer_factory.hpp:77] Creating layer ip2
I0504 06:00:37.943054 24373 net.cpp:94] Creating Layer ip2
I0504 06:00:37.943069 24373 net.cpp:435] ip2 <- ip1
I0504 06:00:37.943075 24373 net.cpp:409] ip2 -> ip2
I0504 06:00:37.956321 24373 net.cpp:144] Setting up ip2
I0504 06:00:37.956333 24373 net.cpp:151] Top shape: 20 512 (10240)
I0504 06:00:37.956337 24373 net.cpp:159] Memory required for data: 34104720
I0504 06:00:37.956343 24373 layer_factory.hpp:77] Creating layer ip3
I0504 06:00:37.956351 24373 net.cpp:94] Creating Layer ip3
I0504 06:00:37.956353 24373 net.cpp:435] ip3 <- ip2
I0504 06:00:37.956358 24373 net.cpp:409] ip3 -> ip3
I0504 06:00:37.956483 24373 net.cpp:144] Setting up ip3
I0504 06:00:37.956490 24373 net.cpp:151] Top shape: 20 1 (20)
I0504 06:00:37.956493 24373 net.cpp:159] Memory required for data: 34104800
I0504 06:00:37.956498 24373 layer_factory.hpp:77] Creating layer loss
I0504 06:00:37.956512 24373 net.cpp:94] Creating Layer loss
I0504 06:00:37.956516 24373 net.cpp:435] loss <- ip3
I0504 06:00:37.956519 24373 net.cpp:435] loss <- label
I0504 06:00:37.956524 24373 net.cpp:409] loss -> loss
I0504 06:00:37.956583 24373 net.cpp:144] Setting up loss
…
I0504 06:00:38.323704 24373 net.cpp:323] The NetState phase (0) differed from the phase (1) specified by a rule in layer intercept
I0504 06:00:38.323720 24373 net.cpp:323] The NetState phase (0) differed from the phase (1) specified by a rule in layer accuracy
I0504 06:00:38.323810 24373 net.cpp:52] Initializing net from parameters: 
state {
  phase: TRAIN
}
layer {
  name: "parameters"
  type: "HDF5Data"
  top: "data"
  top: "label"
  include {
    phase: TRAIN
  }
  hdf5_data_param {
    source: "/home/purduethu/scratch/radon/d/deng106/CNNStatisticalModel/distributions/input/20_distributions_900_sample_size_train-distributions-path.txt"
    batch_size: 20
  }
}
layer {
  name: "conv1"
  type: "Convolution"
  bottom: "data"
  top: "conv1"
  param {
    lr_mult: 1
  }
  param {
    lr_mult: 2
  }
  convolution_param {
    num_output: 64
    pad: 2
    kernel_size: 5
    stride: 1
    weight_filler {
      type: "gaussian"
      std: 0.0001
    }
    bias_filler {
      type: "constant"
    }
  }
}
layer {
  name: "relu1"
  type: "ReLU"
  bottom: "conv1"
  top: "conv1"
}
layer {
  name: "conv2"
  type: "Convolution"
  bottom: "conv1"
  top: "conv2"
  param {
    lr_mult: 1
  }
  param {
    lr_mult: 2
  }
  convolution_param {
    num_output: 64
    pad: 2
    kernel_size: 5
    stride: 1
    weight_filler {
      type: "gaussian"
      std: 0.01
    }
    bias_filler {
      type: "constant"
    }
  }
}
layer {
  name: "relu2"
  type: "ReLU"
  bottom: "conv2"
  top: "conv2"
}
layer {
  name: "pool2"
  type: "Pooling"
  bottom: "conv2"
  top: "pool2"
  pooling_param {
    pool: MAX
    kernel_size: 3
    stride: 2
  }
}
layer {
  name: "conv3"
  type: "Convolution"
  bottom: "pool2"
  top: "conv3"
  param {
    lr_mult: 1
  }
  param {
    lr_mult: 2
  }
  convolution_param {
    num_output: 128
    pad: 2
    kernel_size: 5
    stride: 1
    weight_filler {
      type: "gaussian"
      std: 0.01
    }
    bias_filler {
      type: "constant"
    }
  }
}
layer {
  name: "relu3"
  type: "ReLU"
  bottom: "conv3"
  top: "conv3"
}
layer {
  name: "conv4"
  type: "Convolution"
  bottom: "conv3"
  top: "conv4"
  param {
    lr_mult: 1
  }
  param {
    lr_mult: 2
  }
  convolution_param {
    num_output: 128
    pad: 2
    kernel_size: 5
    stride: 1
    weight_filler {
      type: "gaussian"
      std: 0.01
    }
    bias_filler {
      type: "constant"
    }
  }
}
layer {
  name: "relu4"
  type: "ReLU"
  bottom: "conv4"
  top: "conv4"
}
layer {
  name: "conv5"
  type: "Convolution"
  bottom: "conv4"
  top: "conv5"
  param {
    lr_mult: 1
  }
  param {
    lr_mult: 2
  }
  convolution_param {
    num_output: 128
    pad: 2
    kernel_size: 5
    stride: 1
    weight_filler {
      type: "gaussian"
      std: 0.01
    }
    bias_filler {
      type: "constant"
    }
  }
}
layer {
  name: "relu5"
  type: "ReLU"
  bottom: "conv5"
  top: "conv5"
}
layer {
  name: "pool5"
  type: "Pooling"
  bottom: "conv5"
  top: "pool5"
  pooling_param {
    pool: AVE
    kernel_size: 3
    stride: 2
  }
}
layer {
  name: "ip1"
  type: "InnerProduct"
  bottom: "pool5"
  top: "ip1"
  param {
    lr_mult: 1
  }
  param {
    lr_mult: 2
  }
  inner_product_param {
    num_output: 1024
    weight_filler {
      type: "gaussian"
      std: 0.1
    }
    bias_filler {
      type: "constant"
    }
  }
}
layer {
  name: "ip2"
  type: "InnerProduct"
  bottom: "ip1"
  top: "ip2"
  param {
    lr_mult: 1
  }
  param {
    lr_mult: 2
  }
  inner_product_param {
    num_output: 512
    weight_filler {
      type: "gaussian"
      std: 0.1
    }
    bias_filler {
      type: "constant"
    }
  }
}
layer {
  name: "ip3"
  type: "InnerProduct"
  bottom: "ip2"
  top: "ip3"
  param {
    lr_mult: 1
  }
  param {
    lr_mult: 2
  }
  inner_product_param {
    num_output: 50
    weight_filler {
      type: "gaussian"
      std: 0.1
    }
    bias_filler {
      type: "constant"
    }
  }
}
layer {
  name: "loss"
  type: "SoftmaxWithLoss"
  bottom: "ip3"
  bottom: "label"
  top: "loss"
}
I0504 06:00:38.323863 24373 layer_factory.hpp:77] Creating layer parameters
I0504 06:00:38.323870 24373 net.cpp:94] Creating Layer parameters
I0504 06:00:38.323874 24373 net.cpp:409] parameters -> data
I0504 06:00:38.323880 24373 net.cpp:409] parameters -> label
I0504 06:00:38.323886 24373 hdf5_data_layer.cpp:79] Loading list of HDF5 filenames from: /home/purduethu/scratch/radon/d/deng106/CNNStatisticalModel/distributions/input/20_distributions_900_sample_size_train-distributions-path.txt
I0504 06:00:38.323901 24373 hdf5_data_layer.cpp:93] Number of HDF5 files: 1
I0504 06:00:38.904642 24373 hdf5.cpp:35] Datatype class: H5T_INTEGER
I0504 06:00:38.905704 24373 net.cpp:144] Setting up parameters
I0504 06:00:38.905719 24373 net.cpp:151] Top shape: 20 1 30 30 (18000)
I0504 06:00:38.905722 24373 net.cpp:151] Top shape: 20 (20)
I0504 06:00:38.905726 24373 net.cpp:159] Memory required for data: 72080
I0504 06:00:38.905731 24373 layer_factory.hpp:77] Creating layer conv1
I0504 06:00:38.905747 24373 net.cpp:94] Creating Layer conv1
I0504 06:00:38.905751 24373 net.cpp:435] conv1 <- data
I0504 06:00:38.905757 24373 net.cpp:409] conv1 -> conv1
I0504 06:00:38.909385 24373 net.cpp:144] Setting up conv1
I0504 06:00:38.909400 24373 net.cpp:151] Top shape: 20 64 30 30 (1152000)
I0504 06:00:38.909404 24373 net.cpp:159] Memory required for data: 4680080
I0504 06:00:38.909415 24373 layer_factory.hpp:77] Creating layer relu1
I0504 06:00:38.909422 24373 net.cpp:94] Creating Layer relu1
I0504 06:00:38.909426 24373 net.cpp:435] relu1 <- conv1
I0504 06:00:38.909430 24373 net.cpp:396] relu1 -> conv1 (in-place)
I0504 06:00:38.909437 24373 net.cpp:144] Setting up relu1
I0504 06:00:38.909441 24373 net.cpp:151] Top shape: 20 64 30 30 (1152000)
I0504 06:00:38.909445 24373 net.cpp:159] Memory required for data: 9288080
I0504 06:00:38.909447 24373 layer_factory.hpp:77] Creating layer conv2
I0504 06:00:38.909454 24373 net.cpp:94] Creating Layer conv2
I0504 06:00:38.909458 24373 net.cpp:435] conv2 <- conv1
I0504 06:00:38.909462 24373 net.cpp:409] conv2 -> conv2
I0504 06:00:38.925264 24373 net.cpp:144] Setting up conv2
I0504 06:00:38.925302 24373 net.cpp:151] Top shape: 20 64 30 30 (1152000)
I0504 06:00:38.925313 24373 net.cpp:159] Memory required for data: 13896080
I0504 06:00:38.925335 24373 layer_factory.hpp:77] Creating layer relu2
I0504 06:00:38.925353 24373 net.cpp:94] Creating Layer relu2
I0504 06:00:38.925362 24373 net.cpp:435] relu2 <- conv2
I0504 06:00:38.925375 24373 net.cpp:396] relu2 -> conv2 (in-place)
I0504 06:00:38.925398 24373 net.cpp:144] Setting up relu2
I0504 06:00:38.925402 24373 net.cpp:151] Top shape: 20 64 30 30 (1152000)
I0504 06:00:38.925405 24373 net.cpp:159] Memory required for data: 18504080
I0504 06:00:38.925408 24373 layer_factory.hpp:77] Creating layer pool2
I0504 06:00:38.925413 24373 net.cpp:94] Creating Layer pool2
I0504 06:00:38.925416 24373 net.cpp:435] pool2 <- conv2
I0504 06:00:38.925421 24373 net.cpp:409] pool2 -> pool2
I0504 06:00:38.925479 24373 net.cpp:144] Setting up pool2
I0504 06:00:38.925487 24373 net.cpp:151] Top shape: 20 64 15 15 (288000)
I0504 06:00:38.925489 24373 net.cpp:159] Memory required for data: 19656080
I0504 06:00:38.925493 24373 layer_factory.hpp:77] Creating layer conv3
I0504 06:00:38.925500 24373 net.cpp:94] Creating Layer conv3
I0504 06:00:38.925510 24373 net.cpp:435] conv3 <- pool2
I0504 06:00:38.925515 24373 net.cpp:409] conv3 -> conv3
I0504 06:00:38.939160 24373 net.cpp:144] Setting up conv3
I0504 06:00:38.939177 24373 net.cpp:151] Top shape: 20 128 15 15 (576000)
I0504 06:00:38.939180 24373 net.cpp:159] Memory required for data: 21960080
I0504 06:00:38.939188 24373 layer_factory.hpp:77] Creating layer relu3
I0504 06:00:38.939193 24373 net.cpp:94] Creating Layer relu3
I0504 06:00:38.939198 24373 net.cpp:435] relu3 <- conv3
I0504 06:00:38.939201 24373 net.cpp:396] relu3 -> conv3 (in-place)
I0504 06:00:38.939208 24373 net.cpp:144] Setting up relu3
I0504 06:00:38.939213 24373 net.cpp:151] Top shape: 20 128 15 15 (576000)
I0504 06:00:38.939215 24373 net.cpp:159] Memory required for data: 24264080
I0504 06:00:38.939218 24373 layer_factory.hpp:77] Creating layer conv4
I0504 06:00:38.939227 24373 net.cpp:94] Creating Layer conv4
I0504 06:00:38.939230 24373 net.cpp:435] conv4 <- conv3
I0504 06:00:38.939235 24373 net.cpp:409] conv4 -> conv4
I0504 06:00:38.962178 24373 net.cpp:144] Setting up conv4
I0504 06:00:38.962193 24373 net.cpp:151] Top shape: 20 128 15 15 (576000)
I0504 06:00:38.962198 24373 net.cpp:159] Memory required for data: 26568080
I0504 06:00:38.962203 24373 layer_factory.hpp:77] Creating layer relu4
I0504 06:00:38.962209 24373 net.cpp:94] Creating Layer relu4
I0504 06:00:38.962213 24373 net.cpp:435] relu4 <- conv4
I0504 06:00:38.962218 24373 net.cpp:396] relu4 -> conv4 (in-place)
I0504 06:00:38.962224 24373 net.cpp:144] Setting up relu4
I0504 06:00:38.962229 24373 net.cpp:151] Top shape: 20 128 15 15 (576000)
I0504 06:00:38.962231 24373 net.cpp:159] Memory required for data: 28872080
I0504 06:00:38.962234 24373 layer_factory.hpp:77] Creating layer conv5
I0504 06:00:38.962241 24373 net.cpp:94] Creating Layer conv5
I0504 06:00:38.962244 24373 net.cpp:435] conv5 <- conv4
I0504 06:00:38.962249 24373 net.cpp:409] conv5 -> conv5
I0504 06:00:38.984835 24373 net.cpp:144] Setting up conv5
I0504 06:00:38.984874 24373 net.cpp:151] Top shape: 20 128 15 15 (576000)
I0504 06:00:38.984884 24373 net.cpp:159] Memory required for data: 31176080
I0504 06:00:38.984907 24373 layer_factory.hpp:77] Creating layer relu5
I0504 06:00:38.984922 24373 net.cpp:94] Creating Layer relu5
I0504 06:00:38.984932 24373 net.cpp:435] relu5 <- conv5
I0504 06:00:38.984946 24373 net.cpp:396] relu5 -> conv5 (in-place)
I0504 06:00:38.984963 24373 net.cpp:144] Setting up relu5
I0504 06:00:38.984977 24373 net.cpp:151] Top shape: 20 128 15 15 (576000)
I0504 06:00:38.984984 24373 net.cpp:159] Memory required for data: 33480080
I0504 06:00:38.984993 24373 layer_factory.hpp:77] Creating layer pool5
I0504 06:00:38.985005 24373 net.cpp:94] Creating Layer pool5
I0504 06:00:38.985014 24373 net.cpp:435] pool5 <- conv5
I0504 06:00:38.985025 24373 net.cpp:409] pool5 -> pool5
I0504 06:00:38.985107 24373 net.cpp:144] Setting up pool5
I0504 06:00:38.985115 24373 net.cpp:151] Top shape: 20 128 7 7 (125440)
I0504 06:00:38.985117 24373 net.cpp:159] Memory required for data: 33981840
I0504 06:00:38.985121 24373 layer_factory.hpp:77] Creating layer ip1
I0504 06:00:38.985127 24373 net.cpp:94] Creating Layer ip1
I0504 06:00:38.985131 24373 net.cpp:435] ip1 <- pool5
I0504 06:00:38.985136 24373 net.cpp:409] ip1 -> ip1
I0504 06:00:39.140362 24373 net.cpp:144] Setting up ip1
I0504 06:00:39.140394 24373 net.cpp:151] Top shape: 20 1024 (20480)
I0504 06:00:39.140398 24373 net.cpp:159] Memory required for data: 34063760
I0504 06:00:39.140406 24373 layer_factory.hpp:77] Creating layer ip2
I0504 06:00:39.140416 24373 net.cpp:94] Creating Layer ip2
I0504 06:00:39.140421 24373 net.cpp:435] ip2 <- ip1
I0504 06:00:39.140429 24373 net.cpp:409] ip2 -> ip2
I0504 06:00:39.153667 24373 net.cpp:144] Setting up ip2
I0504 06:00:39.153681 24373 net.cpp:151] Top shape: 20 512 (10240)
I0504 06:00:39.153686 24373 net.cpp:159] Memory required for data: 34104720
I0504 06:00:39.153690 24373 layer_factory.hpp:77] Creating layer ip3
I0504 06:00:39.153697 24373 net.cpp:94] Creating Layer ip3
I0504 06:00:39.153700 24373 net.cpp:435] ip3 <- ip2
I0504 06:00:39.153712 24373 net.cpp:409] ip3 -> ip3
I0504 06:00:39.154469 24373 net.cpp:144] Setting up ip3
I0504 06:00:39.154475 24373 net.cpp:151] Top shape: 20 50 (1000)
I0504 06:00:39.154479 24373 net.cpp:159] Memory required for data: 34108720
I0504 06:00:39.154484 24373 layer_factory.hpp:77] Creating layer loss
I0504 06:00:39.154491 24373 net.cpp:94] Creating Layer loss
I0504 06:00:39.154495 24373 net.cpp:435] loss <- ip3
I0504 06:00:39.154498 24373 net.cpp:435] loss <- label
I0504 06:00:39.154502 24373 net.cpp:409] loss -> loss
I0504 06:00:39.154510 24373 layer_factory.hpp:77] Creating layer loss
…
I0504 06:00:39.155033 24373 solver.cpp:181] Creating test net (#0) specified by net file: ./protocol/dis_20_900_dimension.protocol_distribution
I0504 06:00:39.155061 24373 net.cpp:323] The NetState phase (1) differed from the phase (0) specified by a rule in layer parameters
I0504 06:00:39.155158 24373 net.cpp:52] Initializing net from parameters: 
state {
  phase: TEST
}
layer {
  name: "intercept"
  type: "HDF5Data"
  top: "data"
  top: "label"
  include {
    phase: TEST
  }
  hdf5_data_param {
    source: "/home/purduethu/scratch/radon/d/deng106/CNNStatisticalModel/distributions/input/20_distributions_900_sample_size_test-distributions-path.txt"
    batch_size: 20
  }
}
layer {
  name: "conv1"
  type: "Convolution"
  bottom: "data"
  top: "conv1"
  param {
    lr_mult: 1
  }
  param {
    lr_mult: 2
  }
  convolution_param {
    num_output: 64
    pad: 2
    kernel_size: 5
    stride: 1
    weight_filler {
      type: "gaussian"
      std: 0.0001
    }
    bias_filler {
      type: "constant"
    }
  }
}
layer {
  name: "relu1"
  type: "ReLU"
  bottom: "conv1"
  top: "conv1"
}
layer {
  name: "conv2"
  type: "Convolution"
  bottom: "conv1"
  top: "conv2"
  param {
    lr_mult: 1
  }
  param {
    lr_mult: 2
  }
  convolution_param {
    num_output: 64
    pad: 2
    kernel_size: 5
    stride: 1
    weight_filler {
      type: "gaussian"
      std: 0.01
    }
    bias_filler {
      type: "constant"
    }
  }
}
layer {
  name: "relu2"
  type: "ReLU"
  bottom: "conv2"
  top: "conv2"
}
layer {
  name: "pool2"
  type: "Pooling"
  bottom: "conv2"
  top: "pool2"
  pooling_param {
    pool: MAX
    kernel_size: 3
    stride: 2
  }
}
layer {
  name: "conv3"
  type: "Convolution"
  bottom: "pool2"
  top: "conv3"
  param {
    lr_mult: 1
  }
  param {
    lr_mult: 2
  }
  convolution_param {
    num_output: 128
    pad: 2
    kernel_size: 5
    stride: 1
    weight_filler {
      type: "gaussian"
      std: 0.01
    }
    bias_filler {
      type: "constant"
    }
  }
}
layer {
  name: "relu3"
  type: "ReLU"
  bottom: "conv3"
  top: "conv3"
}
layer {
  name: "conv4"
  type: "Convolution"
  bottom: "conv3"
  top: "conv4"
  param {
    lr_mult: 1
  }
  param {
    lr_mult: 2
  }
  convolution_param {
    num_output: 128
    pad: 2
    kernel_size: 5
    stride: 1
    weight_filler {
      type: "gaussian"
      std: 0.01
    }
    bias_filler {
      type: "constant"
    }
  }
}
layer {
  name: "relu4"
  type: "ReLU"
  bottom: "conv4"
  top: "conv4"
}
layer {
  name: "conv5"
  type: "Convolution"
  bottom: "conv4"
  top: "conv5"
  param {
    lr_mult: 1
  }
  param {
    lr_mult: 2
  }
  convolution_param {
    num_output: 128
    pad: 2
    kernel_size: 5
    stride: 1
    weight_filler {
      type: "gaussian"
      std: 0.01
    }
    bias_filler {
      type: "constant"
    }
  }
}
layer {
  name: "relu5"
  type: "ReLU"
  bottom: "conv5"
  top: "conv5"
}
layer {
  name: "pool5"
  type: "Pooling"
  bottom: "conv5"
  top: "pool5"
  pooling_param {
    pool: AVE
    kernel_size: 3
    stride: 2
  }
}
layer {
  name: "ip1"
  type: "InnerProduct"
  bottom: "pool5"
  top: "ip1"
  param {
    lr_mult: 1
  }
  param {
    lr_mult: 2
  }
  inner_product_param {
    num_output: 1024
    weight_filler {
      type: "gaussian"
      std: 0.1
    }
    bias_filler {
      type: "constant"
    }
  }
}
layer {
  name: "ip2"
  type: "InnerProduct"
  bottom: "ip1"
  top: "ip2"
  param {
    lr_mult: 1
  }
  param {
    lr_mult: 2
  }
  inner_product_param {
    num_output: 512
    weight_filler {
      type: "gaussian"
      std: 0.1
    }
    bias_filler {
      type: "constant"
    }
  }
}
layer {
  name: "ip3"
  type: "InnerProduct"
  bottom: "ip2"
  top: "ip3"
  param {
    lr_mult: 1
  }
  param {
    lr_mult: 2
  }
  inner_product_param {
    num_output: 50
    weight_filler {
      type: "gaussian"
      std: 0.1
    }
    bias_filler {
      type: "constant"
    }
  }
}
layer {
  name: "accuracy"
  type: "Accuracy"
  bottom: "ip3"
  bottom: "label"
  top: "accuracy"
  include {
    phase: TEST
  }
}
layer {
  name: "loss"
  type: "SoftmaxWithLoss"
  bottom: "ip3"
  bottom: "label"
  top: "loss"
}
I0504 06:00:39.155225 24373 layer_factory.hpp:77] Creating layer intercept
I0504 06:00:39.155233 24373 net.cpp:94] Creating Layer intercept
I0504 06:00:39.155237 24373 net.cpp:409] intercept -> data
I0504 06:00:39.155244 24373 net.cpp:409] intercept -> label
I0504 06:00:39.155249 24373 hdf5_data_layer.cpp:79] Loading list of HDF5 filenames from: /home/purduethu/scratch/radon/d/deng106/CNNStatisticalModel/distributions/input/20_distributions_900_sample_size_test-distributions-path.txt
I0504 06:00:39.155269 24373 hdf5_data_layer.cpp:93] Number of HDF5 files: 1
I0504 06:00:39.296370 24373 net.cpp:144] Setting up intercept
I0504 06:00:39.296402 24373 net.cpp:151] Top shape: 20 1 30 30 (18000)
I0504 06:00:39.296407 24373 net.cpp:151] Top shape: 20 (20)
I0504 06:00:39.296411 24373 net.cpp:159] Memory required for data: 72080
I0504 06:00:39.296416 24373 layer_factory.hpp:77] Creating layer label_intercept_1_split
I0504 06:00:39.296433 24373 net.cpp:94] Creating Layer label_intercept_1_split
I0504 06:00:39.296438 24373 net.cpp:435] label_intercept_1_split <- label
I0504 06:00:39.296444 24373 net.cpp:409] label_intercept_1_split -> label_intercept_1_split_0
I0504 06:00:39.296452 24373 net.cpp:409] label_intercept_1_split -> label_intercept_1_split_1
I0504 06:00:39.296499 24373 net.cpp:144] Setting up label_intercept_1_split
I0504 06:00:39.296504 24373 net.cpp:151] Top shape: 20 (20)
I0504 06:00:39.296509 24373 net.cpp:151] Top shape: 20 (20)
I0504 06:00:39.296510 24373 net.cpp:159] Memory required for data: 72240
I0504 06:00:39.296514 24373 layer_factory.hpp:77] Creating layer conv1
I0504 06:00:39.296525 24373 net.cpp:94] Creating Layer conv1
I0504 06:00:39.296527 24373 net.cpp:435] conv1 <- data
I0504 06:00:39.296532 24373 net.cpp:409] conv1 -> conv1
I0504 06:00:39.298137 24373 net.cpp:144] Setting up conv1
I0504 06:00:39.298151 24373 net.cpp:151] Top shape: 20 64 30 30 (1152000)
I0504 06:00:39.298156 24373 net.cpp:159] Memory required for data: 4680240
I0504 06:00:39.298166 24373 layer_factory.hpp:77] Creating layer relu1
I0504 06:00:39.298172 24373 net.cpp:94] Creating Layer relu1
I0504 06:00:39.298177 24373 net.cpp:435] relu1 <- conv1
I0504 06:00:39.298180 24373 net.cpp:396] relu1 -> conv1 (in-place)
I0504 06:00:39.298187 24373 net.cpp:144] Setting up relu1
I0504 06:00:39.298192 24373 net.cpp:151] Top shape: 20 64 30 30 (1152000)
I0504 06:00:39.298194 24373 net.cpp:159] Memory required for data: 9288240
I0504 06:00:39.298197 24373 layer_factory.hpp:77] Creating layer conv2
I0504 06:00:39.298205 24373 net.cpp:94] Creating Layer conv2
I0504 06:00:39.298208 24373 net.cpp:435] conv2 <- conv1
I0504 06:00:39.298213 24373 net.cpp:409] conv2 -> conv2
I0504 06:00:39.304985 24373 net.cpp:144] Setting up conv2
I0504 06:00:39.304999 24373 net.cpp:151] Top shape: 20 64 30 30 (1152000)
I0504 06:00:39.305003 24373 net.cpp:159] Memory required for data: 13896240
I0504 06:00:39.305011 24373 layer_factory.hpp:77] Creating layer relu2
I0504 06:00:39.305017 24373 net.cpp:94] Creating Layer relu2
I0504 06:00:39.305021 24373 net.cpp:435] relu2 <- conv2
I0504 06:00:39.305025 24373 net.cpp:396] relu2 -> conv2 (in-place)
I0504 06:00:39.305032 24373 net.cpp:144] Setting up relu2
I0504 06:00:39.305037 24373 net.cpp:151] Top shape: 20 64 30 30 (1152000)
I0504 06:00:39.305038 24373 net.cpp:159] Memory required for data: 18504240
I0504 06:00:39.305042 24373 layer_factory.hpp:77] Creating layer pool2
I0504 06:00:39.305047 24373 net.cpp:94] Creating Layer pool2
I0504 06:00:39.305050 24373 net.cpp:435] pool2 <- conv2
I0504 06:00:39.305054 24373 net.cpp:409] pool2 -> pool2
I0504 06:00:39.305112 24373 net.cpp:144] Setting up pool2
I0504 06:00:39.305119 24373 net.cpp:151] Top shape: 20 64 15 15 (288000)
I0504 06:00:39.305122 24373 net.cpp:159] Memory required for data: 19656240
I0504 06:00:39.305125 24373 layer_factory.hpp:77] Creating layer conv3
I0504 06:00:39.305133 24373 net.cpp:94] Creating Layer conv3
I0504 06:00:39.305137 24373 net.cpp:435] conv3 <- pool2
I0504 06:00:39.305141 24373 net.cpp:409] conv3 -> conv3
I0504 06:00:39.312808 24373 net.cpp:144] Setting up conv3
I0504 06:00:39.312824 24373 net.cpp:151] Top shape: 20 128 15 15 (576000)
I0504 06:00:39.312827 24373 net.cpp:159] Memory required for data: 21960240
I0504 06:00:39.312835 24373 layer_factory.hpp:77] Creating layer relu3
I0504 06:00:39.312842 24373 net.cpp:94] Creating Layer relu3
I0504 06:00:39.312845 24373 net.cpp:435] relu3 <- conv3
I0504 06:00:39.312850 24373 net.cpp:396] relu3 -> conv3 (in-place)
I0504 06:00:39.312856 24373 net.cpp:144] Setting up relu3
I0504 06:00:39.312861 24373 net.cpp:151] Top shape: 20 128 15 15 (576000)
I0504 06:00:39.312865 24373 net.cpp:159] Memory required for data: 24264240
I0504 06:00:39.312867 24373 layer_factory.hpp:77] Creating layer conv4
I0504 06:00:39.312875 24373 net.cpp:94] Creating Layer conv4
I0504 06:00:39.312877 24373 net.cpp:435] conv4 <- conv3
I0504 06:00:39.312882 24373 net.cpp:409] conv4 -> conv4
I0504 06:00:39.328522 24373 net.cpp:144] Setting up conv4
I0504 06:00:39.328537 24373 net.cpp:151] Top shape: 20 128 15 15 (576000)
I0504 06:00:39.328541 24373 net.cpp:159] Memory required for data: 26568240
I0504 06:00:39.328548 24373 layer_factory.hpp:77] Creating layer relu4
I0504 06:00:39.328572 24373 net.cpp:94] Creating Layer relu4
I0504 06:00:39.328577 24373 net.cpp:435] relu4 <- conv4
I0504 06:00:39.328582 24373 net.cpp:396] relu4 -> conv4 (in-place)
I0504 06:00:39.328588 24373 net.cpp:144] Setting up relu4
I0504 06:00:39.328593 24373 net.cpp:151] Top shape: 20 128 15 15 (576000)
I0504 06:00:39.328595 24373 net.cpp:159] Memory required for data: 28872240
I0504 06:00:39.328598 24373 layer_factory.hpp:77] Creating layer conv5
I0504 06:00:39.328606 24373 net.cpp:94] Creating Layer conv5
I0504 06:00:39.328609 24373 net.cpp:435] conv5 <- conv4
I0504 06:00:39.328619 24373 net.cpp:409] conv5 -> conv5
I0504 06:00:39.343696 24373 net.cpp:144] Setting up conv5
I0504 06:00:39.343734 24373 net.cpp:151] Top shape: 20 128 15 15 (576000)
I0504 06:00:39.343745 24373 net.cpp:159] Memory required for data: 31176240
I0504 06:00:39.343768 24373 layer_factory.hpp:77] Creating layer relu5
I0504 06:00:39.343783 24373 net.cpp:94] Creating Layer relu5
I0504 06:00:39.343793 24373 net.cpp:435] relu5 <- conv5
I0504 06:00:39.343806 24373 net.cpp:396] relu5 -> conv5 (in-place)
I0504 06:00:39.343823 24373 net.cpp:144] Setting up relu5
I0504 06:00:39.343837 24373 net.cpp:151] Top shape: 20 128 15 15 (576000)
I0504 06:00:39.343844 24373 net.cpp:159] Memory required for data: 33480240
I0504 06:00:39.343852 24373 layer_factory.hpp:77] Creating layer pool5
I0504 06:00:39.343865 24373 net.cpp:94] Creating Layer pool5
I0504 06:00:39.343874 24373 net.cpp:435] pool5 <- conv5
I0504 06:00:39.343885 24373 net.cpp:409] pool5 -> pool5
I0504 06:00:39.343989 24373 net.cpp:144] Setting up pool5
I0504 06:00:39.344007 24373 net.cpp:151] Top shape: 20 128 7 7 (125440)
I0504 06:00:39.344014 24373 net.cpp:159] Memory required for data: 33982000
I0504 06:00:39.344023 24373 layer_factory.hpp:77] Creating layer ip1
I0504 06:00:39.344039 24373 net.cpp:94] Creating Layer ip1
I0504 06:00:39.344048 24373 net.cpp:435] ip1 <- pool5
I0504 06:00:39.344061 24373 net.cpp:409] ip1 -> ip1
I0504 06:00:39.499536 24373 net.cpp:144] Setting up ip1
I0504 06:00:39.499570 24373 net.cpp:151] Top shape: 20 1024 (20480)
I0504 06:00:39.499574 24373 net.cpp:159] Memory required for data: 34063920
I0504 06:00:39.499583 24373 layer_factory.hpp:77] Creating layer ip2
I0504 06:00:39.499595 24373 net.cpp:94] Creating Layer ip2
I0504 06:00:39.499599 24373 net.cpp:435] ip2 <- ip1
I0504 06:00:39.499605 24373 net.cpp:409] ip2 -> ip2
I0504 06:00:39.512897 24373 net.cpp:144] Setting up ip2
I0504 06:00:39.512910 24373 net.cpp:151] Top shape: 20 512 (10240)
I0504 06:00:39.512913 24373 net.cpp:159] Memory required for data: 34104880
I0504 06:00:39.512919 24373 layer_factory.hpp:77] Creating layer ip3
I0504 06:00:39.512928 24373 net.cpp:94] Creating Layer ip3
I0504 06:00:39.512933 24373 net.cpp:435] ip3 <- ip2
I0504 06:00:39.512938 24373 net.cpp:409] ip3 -> ip3
I0504 06:00:39.513710 24373 net.cpp:144] Setting up ip3
I0504 06:00:39.513717 24373 net.cpp:151] Top shape: 20 50 (1000)
I0504 06:00:39.513720 24373 net.cpp:159] Memory required for data: 34108880
I0504 06:00:39.513725 24373 layer_factory.hpp:77] Creating layer ip3_ip3_0_split
I0504 06:00:39.513731 24373 net.cpp:94] Creating Layer ip3_ip3_0_split
I0504 06:00:39.513734 24373 net.cpp:435] ip3_ip3_0_split <- ip3
I0504 06:00:39.513739 24373 net.cpp:409] ip3_ip3_0_split -> ip3_ip3_0_split_0
I0504 06:00:39.513744 24373 net.cpp:409] ip3_ip3_0_split -> ip3_ip3_0_split_1
I0504 06:00:39.513790 24373 net.cpp:144] Setting up ip3_ip3_0_split
I0504 06:00:39.513797 24373 net.cpp:151] Top shape: 20 50 (1000)
I0504 06:00:39.513799 24373 net.cpp:151] Top shape: 20 50 (1000)
I0504 06:00:39.513803 24373 net.cpp:159] Memory required for data: 34116880
I0504 06:00:39.513805 24373 layer_factory.hpp:77] Creating layer accuracy
I0504 06:00:39.513811 24373 net.cpp:94] Creating Layer accuracy
I0504 06:00:39.513814 24373 net.cpp:435] accuracy <- ip3_ip3_0_split_0
I0504 06:00:39.513818 24373 net.cpp:435] accuracy <- label_intercept_1_split_0
I0504 06:00:39.513823 24373 net.cpp:409] accuracy -> accuracy
…
