…
I0507 05:33:22.362429 31535 net.cpp:323] The NetState phase (0) differed from the phase (1) specified by a rule in layer intercept
I0507 05:33:22.362444 31535 net.cpp:323] The NetState phase (0) differed from the phase (1) specified by a rule in layer loss
I0507 05:33:22.362522 31535 net.cpp:52] Initializing net from parameters: 
state {
  phase: TRAIN
}
layer {
  name: "parameters"
  type: "HDF5Data"
  top: "data"
  top: "label"
  include {
    phase: TRAIN
  }
  hdf5_data_param {
    source: "/home/purduethu/scratch/radon/d/deng106/CNNStatisticalModel/distributions/input/50_distributions_100_sample_size_train-parameters-path.txt"
    batch_size: 20
  }
}
layer {
  name: "conv1"
  type: "Convolution"
  bottom: "data"
  top: "conv1"
  param {
    lr_mult: 1
  }
  param {
    lr_mult: 2
  }
  convolution_param {
    num_output: 64
    pad: 2
    kernel_size: 5
    stride: 1
    weight_filler {
      type: "gaussian"
      std: 0.0001
    }
    bias_filler {
      type: "constant"
    }
  }
}
layer {
  name: "relu1"
  type: "ReLU"
  bottom: "conv1"
  top: "conv1"
}
layer {
  name: "conv2"
  type: "Convolution"
  bottom: "conv1"
  top: "conv2"
  param {
    lr_mult: 1
  }
  param {
    lr_mult: 2
  }
  convolution_param {
    num_output: 64
    pad: 2
    kernel_size: 5
    stride: 1
    weight_filler {
      type: "gaussian"
      std: 0.01
    }
    bias_filler {
      type: "constant"
    }
  }
}
layer {
  name: "relu2"
  type: "ReLU"
  bottom: "conv2"
  top: "conv2"
}
layer {
  name: "pool2"
  type: "Pooling"
  bottom: "conv2"
  top: "pool2"
  pooling_param {
    pool: MAX
    kernel_size: 3
    stride: 2
  }
}
layer {
  name: "conv3"
  type: "Convolution"
  bottom: "pool2"
  top: "conv3"
  param {
    lr_mult: 1
  }
  param {
    lr_mult: 2
  }
  convolution_param {
    num_output: 64
    pad: 2
    kernel_size: 5
    stride: 1
    weight_filler {
      type: "gaussian"
      std: 0.01
    }
    bias_filler {
      type: "constant"
    }
  }
}
layer {
  name: "relu3"
  type: "ReLU"
  bottom: "conv3"
  top: "conv3"
}
layer {
  name: "conv4"
  type: "Convolution"
  bottom: "conv3"
  top: "conv4"
  param {
    lr_mult: 1
  }
  param {
    lr_mult: 2
  }
  convolution_param {
    num_output: 64
    pad: 2
    kernel_size: 5
    stride: 1
    weight_filler {
      type: "gaussian"
      std: 0.01
    }
    bias_filler {
      type: "constant"
    }
  }
}
layer {
  name: "relu4"
  type: "ReLU"
  bottom: "conv4"
  top: "conv4"
}
layer {
  name: "conv5"
  type: "Convolution"
  bottom: "conv4"
  top: "conv5"
  param {
    lr_mult: 1
  }
  param {
    lr_mult: 2
  }
  convolution_param {
    num_output: 64
    pad: 2
    kernel_size: 5
    stride: 1
    weight_filler {
      type: "gaussian"
      std: 0.01
    }
    bias_filler {
      type: "constant"
    }
  }
}
layer {
  name: "relu5"
  type: "ReLU"
  bottom: "conv5"
  top: "conv5"
}
layer {
  name: "pool5"
  type: "Pooling"
  bottom: "conv5"
  top: "pool5"
  pooling_param {
    pool: AVE
    kernel_size: 3
    stride: 2
  }
}
layer {
  name: "ip1"
  type: "InnerProduct"
  bottom: "pool5"
  top: "ip1"
  param {
    lr_mult: 1
  }
  param {
    lr_mult: 2
  }
  inner_product_param {
    num_output: 64
    weight_filler {
      type: "gaussian"
      std: 0.1
    }
    bias_filler {
      type: "constant"
    }
  }
}
layer {
  name: "ip2"
  type: "InnerProduct"
  bottom: "ip1"
  top: "ip2"
  param {
    lr_mult: 1
  }
  param {
    lr_mult: 2
  }
  inner_product_param {
    num_output: 64
    weight_filler {
      type: "gaussian"
      std: 0.1
    }
    bias_filler {
      type: "constant"
    }
  }
}
layer {
  name: "ip3"
  type: "InnerProduct"
  bottom: "ip2"
  top: "ip3"
  param {
    lr_mult: 1
  }
  param {
    lr_mult: 2
  }
  inner_product_param {
    num_output: 1
    weight_filler {
      type: "gaussian"
      std: 0.1
    }
    bias_filler {
      type: "constant"
    }
  }
}
layer {
  name: "loss"
  type: "HuberLoss"
  bottom: "ip3"
  bottom: "label"
  top: "loss"
  include {
    phase: TRAIN
  }
}
I0507 05:33:22.362574 31535 layer_factory.hpp:77] Creating layer parameters
I0507 05:33:22.362587 31535 net.cpp:94] Creating Layer parameters
I0507 05:33:22.362592 31535 net.cpp:409] parameters -> data
I0507 05:33:22.362601 31535 net.cpp:409] parameters -> label
I0507 05:33:22.362607 31535 hdf5_data_layer.cpp:79] Loading list of HDF5 filenames from: /home/purduethu/scratch/radon/d/deng106/CNNStatisticalModel/distributions/input/50_distributions_100_sample_size_train-parameters-path.txt
I0507 05:33:22.362622 31535 hdf5_data_layer.cpp:93] Number of HDF5 files: 1
I0507 05:33:22.363032 31535 hdf5.cpp:32] Datatype class: H5T_FLOAT
I0507 05:33:22.524287 31535 net.cpp:144] Setting up parameters
I0507 05:33:22.524320 31535 net.cpp:151] Top shape: 20 1 10 10 (2000)
I0507 05:33:22.524325 31535 net.cpp:151] Top shape: 20 (20)
I0507 05:33:22.524328 31535 net.cpp:159] Memory required for data: 8080
I0507 05:33:22.524335 31535 layer_factory.hpp:77] Creating layer conv1
I0507 05:33:22.524358 31535 net.cpp:94] Creating Layer conv1
I0507 05:33:22.524363 31535 net.cpp:435] conv1 <- data
I0507 05:33:22.524369 31535 net.cpp:409] conv1 -> conv1
I0507 05:33:22.528596 31535 net.cpp:144] Setting up conv1
I0507 05:33:22.528614 31535 net.cpp:151] Top shape: 20 64 10 10 (128000)
I0507 05:33:22.528617 31535 net.cpp:159] Memory required for data: 520080
I0507 05:33:22.528632 31535 layer_factory.hpp:77] Creating layer relu1
I0507 05:33:22.528641 31535 net.cpp:94] Creating Layer relu1
I0507 05:33:22.528645 31535 net.cpp:435] relu1 <- conv1
I0507 05:33:22.528650 31535 net.cpp:396] relu1 -> conv1 (in-place)
I0507 05:33:22.528664 31535 net.cpp:144] Setting up relu1
I0507 05:33:22.528669 31535 net.cpp:151] Top shape: 20 64 10 10 (128000)
I0507 05:33:22.528672 31535 net.cpp:159] Memory required for data: 1032080
I0507 05:33:22.528676 31535 layer_factory.hpp:77] Creating layer conv2
I0507 05:33:22.528684 31535 net.cpp:94] Creating Layer conv2
I0507 05:33:22.528687 31535 net.cpp:435] conv2 <- conv1
I0507 05:33:22.528692 31535 net.cpp:409] conv2 -> conv2
I0507 05:33:22.534687 31535 net.cpp:144] Setting up conv2
I0507 05:33:22.534700 31535 net.cpp:151] Top shape: 20 64 10 10 (128000)
I0507 05:33:22.534704 31535 net.cpp:159] Memory required for data: 1544080
I0507 05:33:22.534713 31535 layer_factory.hpp:77] Creating layer relu2
I0507 05:33:22.534719 31535 net.cpp:94] Creating Layer relu2
I0507 05:33:22.534723 31535 net.cpp:435] relu2 <- conv2
I0507 05:33:22.534728 31535 net.cpp:396] relu2 -> conv2 (in-place)
I0507 05:33:22.534734 31535 net.cpp:144] Setting up relu2
I0507 05:33:22.534739 31535 net.cpp:151] Top shape: 20 64 10 10 (128000)
I0507 05:33:22.534741 31535 net.cpp:159] Memory required for data: 2056080
I0507 05:33:22.534744 31535 layer_factory.hpp:77] Creating layer pool2
I0507 05:33:22.534750 31535 net.cpp:94] Creating Layer pool2
I0507 05:33:22.534754 31535 net.cpp:435] pool2 <- conv2
I0507 05:33:22.534757 31535 net.cpp:409] pool2 -> pool2
I0507 05:33:22.534813 31535 net.cpp:144] Setting up pool2
I0507 05:33:22.534821 31535 net.cpp:151] Top shape: 20 64 5 5 (32000)
I0507 05:33:22.534824 31535 net.cpp:159] Memory required for data: 2184080
I0507 05:33:22.534827 31535 layer_factory.hpp:77] Creating layer conv3
I0507 05:33:22.534835 31535 net.cpp:94] Creating Layer conv3
I0507 05:33:22.534838 31535 net.cpp:435] conv3 <- pool2
I0507 05:33:22.534849 31535 net.cpp:409] conv3 -> conv3
I0507 05:33:22.539661 31535 net.cpp:144] Setting up conv3
I0507 05:33:22.539675 31535 net.cpp:151] Top shape: 20 64 5 5 (32000)
I0507 05:33:22.539680 31535 net.cpp:159] Memory required for data: 2312080
I0507 05:33:22.539686 31535 layer_factory.hpp:77] Creating layer relu3
I0507 05:33:22.539693 31535 net.cpp:94] Creating Layer relu3
I0507 05:33:22.539696 31535 net.cpp:435] relu3 <- conv3
I0507 05:33:22.539701 31535 net.cpp:396] relu3 -> conv3 (in-place)
I0507 05:33:22.539707 31535 net.cpp:144] Setting up relu3
I0507 05:33:22.539712 31535 net.cpp:151] Top shape: 20 64 5 5 (32000)
I0507 05:33:22.539714 31535 net.cpp:159] Memory required for data: 2440080
I0507 05:33:22.539717 31535 layer_factory.hpp:77] Creating layer conv4
I0507 05:33:22.539726 31535 net.cpp:94] Creating Layer conv4
I0507 05:33:22.539729 31535 net.cpp:435] conv4 <- conv3
I0507 05:33:22.539734 31535 net.cpp:409] conv4 -> conv4
I0507 05:33:22.544075 31535 net.cpp:144] Setting up conv4
I0507 05:33:22.544088 31535 net.cpp:151] Top shape: 20 64 5 5 (32000)
I0507 05:33:22.544092 31535 net.cpp:159] Memory required for data: 2568080
I0507 05:33:22.544098 31535 layer_factory.hpp:77] Creating layer relu4
I0507 05:33:22.544104 31535 net.cpp:94] Creating Layer relu4
I0507 05:33:22.544107 31535 net.cpp:435] relu4 <- conv4
I0507 05:33:22.544112 31535 net.cpp:396] relu4 -> conv4 (in-place)
I0507 05:33:22.544119 31535 net.cpp:144] Setting up relu4
I0507 05:33:22.544123 31535 net.cpp:151] Top shape: 20 64 5 5 (32000)
I0507 05:33:22.544126 31535 net.cpp:159] Memory required for data: 2696080
I0507 05:33:22.544129 31535 layer_factory.hpp:77] Creating layer conv5
I0507 05:33:22.544137 31535 net.cpp:94] Creating Layer conv5
I0507 05:33:22.544140 31535 net.cpp:435] conv5 <- conv4
I0507 05:33:22.544144 31535 net.cpp:409] conv5 -> conv5
I0507 05:33:22.548957 31535 net.cpp:144] Setting up conv5
I0507 05:33:22.548971 31535 net.cpp:151] Top shape: 20 64 5 5 (32000)
I0507 05:33:22.548974 31535 net.cpp:159] Memory required for data: 2824080
I0507 05:33:22.548984 31535 layer_factory.hpp:77] Creating layer relu5
I0507 05:33:22.548990 31535 net.cpp:94] Creating Layer relu5
I0507 05:33:22.548993 31535 net.cpp:435] relu5 <- conv5
I0507 05:33:22.548997 31535 net.cpp:396] relu5 -> conv5 (in-place)
I0507 05:33:22.549003 31535 net.cpp:144] Setting up relu5
I0507 05:33:22.549008 31535 net.cpp:151] Top shape: 20 64 5 5 (32000)
I0507 05:33:22.549011 31535 net.cpp:159] Memory required for data: 2952080
I0507 05:33:22.549015 31535 layer_factory.hpp:77] Creating layer pool5
I0507 05:33:22.549019 31535 net.cpp:94] Creating Layer pool5
I0507 05:33:22.549022 31535 net.cpp:435] pool5 <- conv5
I0507 05:33:22.549026 31535 net.cpp:409] pool5 -> pool5
I0507 05:33:22.549067 31535 net.cpp:144] Setting up pool5
I0507 05:33:22.549075 31535 net.cpp:151] Top shape: 20 64 2 2 (5120)
I0507 05:33:22.549078 31535 net.cpp:159] Memory required for data: 2972560
I0507 05:33:22.549082 31535 layer_factory.hpp:77] Creating layer ip1
I0507 05:33:22.549090 31535 net.cpp:94] Creating Layer ip1
I0507 05:33:22.549094 31535 net.cpp:435] ip1 <- pool5
I0507 05:33:22.549099 31535 net.cpp:409] ip1 -> ip1
I0507 05:33:22.550432 31535 net.cpp:144] Setting up ip1
I0507 05:33:22.550446 31535 net.cpp:151] Top shape: 20 64 (1280)
I0507 05:33:22.550449 31535 net.cpp:159] Memory required for data: 2977680
I0507 05:33:22.550456 31535 layer_factory.hpp:77] Creating layer ip2
I0507 05:33:22.550462 31535 net.cpp:94] Creating Layer ip2
I0507 05:33:22.550467 31535 net.cpp:435] ip2 <- ip1
I0507 05:33:22.550472 31535 net.cpp:409] ip2 -> ip2
I0507 05:33:22.550688 31535 net.cpp:144] Setting up ip2
I0507 05:33:22.550695 31535 net.cpp:151] Top shape: 20 64 (1280)
I0507 05:33:22.550698 31535 net.cpp:159] Memory required for data: 2982800
I0507 05:33:22.550704 31535 layer_factory.hpp:77] Creating layer ip3
I0507 05:33:22.550709 31535 net.cpp:94] Creating Layer ip3
I0507 05:33:22.550712 31535 net.cpp:435] ip3 <- ip2
I0507 05:33:22.550716 31535 net.cpp:409] ip3 -> ip3
I0507 05:33:22.550832 31535 net.cpp:144] Setting up ip3
I0507 05:33:22.550839 31535 net.cpp:151] Top shape: 20 1 (20)
I0507 05:33:22.550843 31535 net.cpp:159] Memory required for data: 2982880
I0507 05:33:22.550848 31535 layer_factory.hpp:77] Creating layer loss
I0507 05:33:22.550855 31535 net.cpp:94] Creating Layer loss
I0507 05:33:22.550858 31535 net.cpp:435] loss <- ip3
I0507 05:33:22.550863 31535 net.cpp:435] loss <- label
I0507 05:33:22.550868 31535 net.cpp:409] loss -> loss
I0507 05:33:22.550920 31535 net.cpp:144] Setting up loss
…
I0507 05:33:22.611771 31535 net.cpp:323] The NetState phase (0) differed from the phase (1) specified by a rule in layer intercept
I0507 05:33:22.611788 31535 net.cpp:323] The NetState phase (0) differed from the phase (1) specified by a rule in layer accuracy
I0507 05:33:22.611872 31535 net.cpp:52] Initializing net from parameters: 
state {
  phase: TRAIN
}
layer {
  name: "parameters"
  type: "HDF5Data"
  top: "data"
  top: "label"
  include {
    phase: TRAIN
  }
  hdf5_data_param {
    source: "/home/purduethu/scratch/radon/d/deng106/CNNStatisticalModel/distributions/input/50_distributions_100_sample_size_train-distributions-path.txt"
    batch_size: 20
  }
}
layer {
  name: "conv1"
  type: "Convolution"
  bottom: "data"
  top: "conv1"
  param {
    lr_mult: 1
  }
  param {
    lr_mult: 2
  }
  convolution_param {
    num_output: 64
    pad: 2
    kernel_size: 5
    stride: 1
    weight_filler {
      type: "gaussian"
      std: 0.0001
    }
    bias_filler {
      type: "constant"
    }
  }
}
layer {
  name: "relu1"
  type: "ReLU"
  bottom: "conv1"
  top: "conv1"
}
layer {
  name: "conv2"
  type: "Convolution"
  bottom: "conv1"
  top: "conv2"
  param {
    lr_mult: 1
  }
  param {
    lr_mult: 2
  }
  convolution_param {
    num_output: 64
    pad: 2
    kernel_size: 5
    stride: 1
    weight_filler {
      type: "gaussian"
      std: 0.01
    }
    bias_filler {
      type: "constant"
    }
  }
}
layer {
  name: "relu2"
  type: "ReLU"
  bottom: "conv2"
  top: "conv2"
}
layer {
  name: "pool2"
  type: "Pooling"
  bottom: "conv2"
  top: "pool2"
  pooling_param {
    pool: MAX
    kernel_size: 3
    stride: 2
  }
}
layer {
  name: "conv3"
  type: "Convolution"
  bottom: "pool2"
  top: "conv3"
  param {
    lr_mult: 1
  }
  param {
    lr_mult: 2
  }
  convolution_param {
    num_output: 64
    pad: 2
    kernel_size: 5
    stride: 1
    weight_filler {
      type: "gaussian"
      std: 0.01
    }
    bias_filler {
      type: "constant"
    }
  }
}
layer {
  name: "relu3"
  type: "ReLU"
  bottom: "conv3"
  top: "conv3"
}
layer {
  name: "conv4"
  type: "Convolution"
  bottom: "conv3"
  top: "conv4"
  param {
    lr_mult: 1
  }
  param {
    lr_mult: 2
  }
  convolution_param {
    num_output: 64
    pad: 2
    kernel_size: 5
    stride: 1
    weight_filler {
      type: "gaussian"
      std: 0.01
    }
    bias_filler {
      type: "constant"
    }
  }
}
layer {
  name: "relu4"
  type: "ReLU"
  bottom: "conv4"
  top: "conv4"
}
layer {
  name: "conv5"
  type: "Convolution"
  bottom: "conv4"
  top: "conv5"
  param {
    lr_mult: 1
  }
  param {
    lr_mult: 2
  }
  convolution_param {
    num_output: 64
    pad: 2
    kernel_size: 5
    stride: 1
    weight_filler {
      type: "gaussian"
      std: 0.01
    }
    bias_filler {
      type: "constant"
    }
  }
}
layer {
  name: "relu5"
  type: "ReLU"
  bottom: "conv5"
  top: "conv5"
}
layer {
  name: "pool5"
  type: "Pooling"
  bottom: "conv5"
  top: "pool5"
  pooling_param {
    pool: AVE
    kernel_size: 3
    stride: 2
  }
}
layer {
  name: "ip1"
  type: "InnerProduct"
  bottom: "pool5"
  top: "ip1"
  param {
    lr_mult: 1
  }
  param {
    lr_mult: 2
  }
  inner_product_param {
    num_output: 64
    weight_filler {
      type: "gaussian"
      std: 0.1
    }
    bias_filler {
      type: "constant"
    }
  }
}
layer {
  name: "ip2"
  type: "InnerProduct"
  bottom: "ip1"
  top: "ip2"
  param {
    lr_mult: 1
  }
  param {
    lr_mult: 2
  }
  inner_product_param {
    num_output: 64
    weight_filler {
      type: "gaussian"
      std: 0.1
    }
    bias_filler {
      type: "constant"
    }
  }
}
layer {
  name: "ip3"
  type: "InnerProduct"
  bottom: "ip2"
  top: "ip3"
  param {
    lr_mult: 1
  }
  param {
    lr_mult: 2
  }
  inner_product_param {
    num_output: 50
    weight_filler {
      type: "gaussian"
      std: 0.1
    }
    bias_filler {
      type: "constant"
    }
  }
}
layer {
  name: "loss"
  type: "SoftmaxWithLoss"
  bottom: "ip3"
  bottom: "label"
  top: "loss"
}
I0507 05:33:22.611925 31535 layer_factory.hpp:77] Creating layer parameters
I0507 05:33:22.611933 31535 net.cpp:94] Creating Layer parameters
I0507 05:33:22.611937 31535 net.cpp:409] parameters -> data
I0507 05:33:22.611943 31535 net.cpp:409] parameters -> label
I0507 05:33:22.611949 31535 hdf5_data_layer.cpp:79] Loading list of HDF5 filenames from: /home/purduethu/scratch/radon/d/deng106/CNNStatisticalModel/distributions/input/50_distributions_100_sample_size_train-distributions-path.txt
I0507 05:33:22.611965 31535 hdf5_data_layer.cpp:93] Number of HDF5 files: 1
I0507 05:33:22.768172 31535 hdf5.cpp:35] Datatype class: H5T_INTEGER
I0507 05:33:22.771234 31535 net.cpp:144] Setting up parameters
I0507 05:33:22.771258 31535 net.cpp:151] Top shape: 20 1 10 10 (2000)
I0507 05:33:22.771263 31535 net.cpp:151] Top shape: 20 (20)
I0507 05:33:22.771266 31535 net.cpp:159] Memory required for data: 8080
I0507 05:33:22.771272 31535 layer_factory.hpp:77] Creating layer conv1
I0507 05:33:22.771288 31535 net.cpp:94] Creating Layer conv1
I0507 05:33:22.771292 31535 net.cpp:435] conv1 <- data
I0507 05:33:22.771299 31535 net.cpp:409] conv1 -> conv1
I0507 05:33:22.773078 31535 net.cpp:144] Setting up conv1
I0507 05:33:22.773093 31535 net.cpp:151] Top shape: 20 64 10 10 (128000)
I0507 05:33:22.773097 31535 net.cpp:159] Memory required for data: 520080
I0507 05:33:22.773106 31535 layer_factory.hpp:77] Creating layer relu1
I0507 05:33:22.773114 31535 net.cpp:94] Creating Layer relu1
I0507 05:33:22.773118 31535 net.cpp:435] relu1 <- conv1
I0507 05:33:22.773123 31535 net.cpp:396] relu1 -> conv1 (in-place)
I0507 05:33:22.773130 31535 net.cpp:144] Setting up relu1
I0507 05:33:22.773134 31535 net.cpp:151] Top shape: 20 64 10 10 (128000)
I0507 05:33:22.773138 31535 net.cpp:159] Memory required for data: 1032080
I0507 05:33:22.773140 31535 layer_factory.hpp:77] Creating layer conv2
I0507 05:33:22.773149 31535 net.cpp:94] Creating Layer conv2
I0507 05:33:22.773151 31535 net.cpp:435] conv2 <- conv1
I0507 05:33:22.773155 31535 net.cpp:409] conv2 -> conv2
I0507 05:33:22.778440 31535 net.cpp:144] Setting up conv2
I0507 05:33:22.778455 31535 net.cpp:151] Top shape: 20 64 10 10 (128000)
I0507 05:33:22.778458 31535 net.cpp:159] Memory required for data: 1544080
I0507 05:33:22.778466 31535 layer_factory.hpp:77] Creating layer relu2
I0507 05:33:22.778472 31535 net.cpp:94] Creating Layer relu2
I0507 05:33:22.778476 31535 net.cpp:435] relu2 <- conv2
I0507 05:33:22.778481 31535 net.cpp:396] relu2 -> conv2 (in-place)
I0507 05:33:22.778487 31535 net.cpp:144] Setting up relu2
I0507 05:33:22.778491 31535 net.cpp:151] Top shape: 20 64 10 10 (128000)
I0507 05:33:22.778494 31535 net.cpp:159] Memory required for data: 2056080
I0507 05:33:22.778497 31535 layer_factory.hpp:77] Creating layer pool2
I0507 05:33:22.778503 31535 net.cpp:94] Creating Layer pool2
I0507 05:33:22.778506 31535 net.cpp:435] pool2 <- conv2
I0507 05:33:22.778512 31535 net.cpp:409] pool2 -> pool2
I0507 05:33:22.778566 31535 net.cpp:144] Setting up pool2
I0507 05:33:22.778573 31535 net.cpp:151] Top shape: 20 64 5 5 (32000)
I0507 05:33:22.778578 31535 net.cpp:159] Memory required for data: 2184080
I0507 05:33:22.778580 31535 layer_factory.hpp:77] Creating layer conv3
I0507 05:33:22.778589 31535 net.cpp:94] Creating Layer conv3
I0507 05:33:22.778591 31535 net.cpp:435] conv3 <- pool2
I0507 05:33:22.778595 31535 net.cpp:409] conv3 -> conv3
I0507 05:33:22.784262 31535 net.cpp:144] Setting up conv3
I0507 05:33:22.784276 31535 net.cpp:151] Top shape: 20 64 5 5 (32000)
I0507 05:33:22.784279 31535 net.cpp:159] Memory required for data: 2312080
I0507 05:33:22.784287 31535 layer_factory.hpp:77] Creating layer relu3
I0507 05:33:22.784293 31535 net.cpp:94] Creating Layer relu3
I0507 05:33:22.784297 31535 net.cpp:435] relu3 <- conv3
I0507 05:33:22.784301 31535 net.cpp:396] relu3 -> conv3 (in-place)
I0507 05:33:22.784307 31535 net.cpp:144] Setting up relu3
I0507 05:33:22.784312 31535 net.cpp:151] Top shape: 20 64 5 5 (32000)
I0507 05:33:22.784322 31535 net.cpp:159] Memory required for data: 2440080
I0507 05:33:22.784324 31535 layer_factory.hpp:77] Creating layer conv4
I0507 05:33:22.784332 31535 net.cpp:94] Creating Layer conv4
I0507 05:33:22.784337 31535 net.cpp:435] conv4 <- conv3
I0507 05:33:22.784342 31535 net.cpp:409] conv4 -> conv4
I0507 05:33:22.789189 31535 net.cpp:144] Setting up conv4
I0507 05:33:22.789202 31535 net.cpp:151] Top shape: 20 64 5 5 (32000)
I0507 05:33:22.789206 31535 net.cpp:159] Memory required for data: 2568080
I0507 05:33:22.789212 31535 layer_factory.hpp:77] Creating layer relu4
I0507 05:33:22.789218 31535 net.cpp:94] Creating Layer relu4
I0507 05:33:22.789222 31535 net.cpp:435] relu4 <- conv4
I0507 05:33:22.789227 31535 net.cpp:396] relu4 -> conv4 (in-place)
I0507 05:33:22.789233 31535 net.cpp:144] Setting up relu4
I0507 05:33:22.789237 31535 net.cpp:151] Top shape: 20 64 5 5 (32000)
I0507 05:33:22.789240 31535 net.cpp:159] Memory required for data: 2696080
I0507 05:33:22.789243 31535 layer_factory.hpp:77] Creating layer conv5
I0507 05:33:22.789252 31535 net.cpp:94] Creating Layer conv5
I0507 05:33:22.789254 31535 net.cpp:435] conv5 <- conv4
I0507 05:33:22.789259 31535 net.cpp:409] conv5 -> conv5
I0507 05:33:22.793643 31535 net.cpp:144] Setting up conv5
I0507 05:33:22.793656 31535 net.cpp:151] Top shape: 20 64 5 5 (32000)
I0507 05:33:22.793660 31535 net.cpp:159] Memory required for data: 2824080
I0507 05:33:22.793668 31535 layer_factory.hpp:77] Creating layer relu5
I0507 05:33:22.793674 31535 net.cpp:94] Creating Layer relu5
I0507 05:33:22.793678 31535 net.cpp:435] relu5 <- conv5
I0507 05:33:22.793682 31535 net.cpp:396] relu5 -> conv5 (in-place)
I0507 05:33:22.793689 31535 net.cpp:144] Setting up relu5
I0507 05:33:22.793694 31535 net.cpp:151] Top shape: 20 64 5 5 (32000)
I0507 05:33:22.793696 31535 net.cpp:159] Memory required for data: 2952080
I0507 05:33:22.793699 31535 layer_factory.hpp:77] Creating layer pool5
I0507 05:33:22.793704 31535 net.cpp:94] Creating Layer pool5
I0507 05:33:22.793707 31535 net.cpp:435] pool5 <- conv5
I0507 05:33:22.793711 31535 net.cpp:409] pool5 -> pool5
I0507 05:33:22.793747 31535 net.cpp:144] Setting up pool5
I0507 05:33:22.793754 31535 net.cpp:151] Top shape: 20 64 2 2 (5120)
I0507 05:33:22.793757 31535 net.cpp:159] Memory required for data: 2972560
I0507 05:33:22.793761 31535 layer_factory.hpp:77] Creating layer ip1
I0507 05:33:22.793768 31535 net.cpp:94] Creating Layer ip1
I0507 05:33:22.793771 31535 net.cpp:435] ip1 <- pool5
I0507 05:33:22.793776 31535 net.cpp:409] ip1 -> ip1
I0507 05:33:22.794296 31535 net.cpp:144] Setting up ip1
I0507 05:33:22.794303 31535 net.cpp:151] Top shape: 20 64 (1280)
I0507 05:33:22.794307 31535 net.cpp:159] Memory required for data: 2977680
I0507 05:33:22.794312 31535 layer_factory.hpp:77] Creating layer ip2
I0507 05:33:22.794318 31535 net.cpp:94] Creating Layer ip2
I0507 05:33:22.794322 31535 net.cpp:435] ip2 <- ip1
I0507 05:33:22.794327 31535 net.cpp:409] ip2 -> ip2
I0507 05:33:22.794553 31535 net.cpp:144] Setting up ip2
I0507 05:33:22.794560 31535 net.cpp:151] Top shape: 20 64 (1280)
I0507 05:33:22.794564 31535 net.cpp:159] Memory required for data: 2982800
I0507 05:33:22.794569 31535 layer_factory.hpp:77] Creating layer ip3
I0507 05:33:22.794574 31535 net.cpp:94] Creating Layer ip3
I0507 05:33:22.794577 31535 net.cpp:435] ip3 <- ip2
I0507 05:33:22.794582 31535 net.cpp:409] ip3 -> ip3
I0507 05:33:22.794782 31535 net.cpp:144] Setting up ip3
I0507 05:33:22.794790 31535 net.cpp:151] Top shape: 20 50 (1000)
I0507 05:33:22.794792 31535 net.cpp:159] Memory required for data: 2986800
I0507 05:33:22.794797 31535 layer_factory.hpp:77] Creating layer loss
I0507 05:33:22.794805 31535 net.cpp:94] Creating Layer loss
I0507 05:33:22.794807 31535 net.cpp:435] loss <- ip3
I0507 05:33:22.794811 31535 net.cpp:435] loss <- label
I0507 05:33:22.794816 31535 net.cpp:409] loss -> loss
I0507 05:33:22.794822 31535 layer_factory.hpp:77] Creating layer loss
…
I0507 05:33:22.796262 31535 solver.cpp:181] Creating test net (#0) specified by net file: ./protocol/dis_50_100_dimension.protocol_distribution
I0507 05:33:22.796288 31535 net.cpp:323] The NetState phase (1) differed from the phase (0) specified by a rule in layer parameters
I0507 05:33:22.796381 31535 net.cpp:52] Initializing net from parameters: 
state {
  phase: TEST
}
layer {
  name: "intercept"
  type: "HDF5Data"
  top: "data"
  top: "label"
  include {
    phase: TEST
  }
  hdf5_data_param {
    source: "/home/purduethu/scratch/radon/d/deng106/CNNStatisticalModel/distributions/input/50_distributions_100_sample_size_test-distributions-path.txt"
    batch_size: 20
  }
}
layer {
  name: "conv1"
  type: "Convolution"
  bottom: "data"
  top: "conv1"
  param {
    lr_mult: 1
  }
  param {
    lr_mult: 2
  }
  convolution_param {
    num_output: 64
    pad: 2
    kernel_size: 5
    stride: 1
    weight_filler {
      type: "gaussian"
      std: 0.0001
    }
    bias_filler {
      type: "constant"
    }
  }
}
layer {
  name: "relu1"
  type: "ReLU"
  bottom: "conv1"
  top: "conv1"
}
layer {
  name: "conv2"
  type: "Convolution"
  bottom: "conv1"
  top: "conv2"
  param {
    lr_mult: 1
  }
  param {
    lr_mult: 2
  }
  convolution_param {
    num_output: 64
    pad: 2
    kernel_size: 5
    stride: 1
    weight_filler {
      type: "gaussian"
      std: 0.01
    }
    bias_filler {
      type: "constant"
    }
  }
}
layer {
  name: "relu2"
  type: "ReLU"
  bottom: "conv2"
  top: "conv2"
}
layer {
  name: "pool2"
  type: "Pooling"
  bottom: "conv2"
  top: "pool2"
  pooling_param {
    pool: MAX
    kernel_size: 3
    stride: 2
  }
}
layer {
  name: "conv3"
  type: "Convolution"
  bottom: "pool2"
  top: "conv3"
  param {
    lr_mult: 1
  }
  param {
    lr_mult: 2
  }
  convolution_param {
    num_output: 64
    pad: 2
    kernel_size: 5
    stride: 1
    weight_filler {
      type: "gaussian"
      std: 0.01
    }
    bias_filler {
      type: "constant"
    }
  }
}
layer {
  name: "relu3"
  type: "ReLU"
  bottom: "conv3"
  top: "conv3"
}
layer {
  name: "conv4"
  type: "Convolution"
  bottom: "conv3"
  top: "conv4"
  param {
    lr_mult: 1
  }
  param {
    lr_mult: 2
  }
  convolution_param {
    num_output: 64
    pad: 2
    kernel_size: 5
    stride: 1
    weight_filler {
      type: "gaussian"
      std: 0.01
    }
    bias_filler {
      type: "constant"
    }
  }
}
layer {
  name: "relu4"
  type: "ReLU"
  bottom: "conv4"
  top: "conv4"
}
layer {
  name: "conv5"
  type: "Convolution"
  bottom: "conv4"
  top: "conv5"
  param {
    lr_mult: 1
  }
  param {
    lr_mult: 2
  }
  convolution_param {
    num_output: 64
    pad: 2
    kernel_size: 5
    stride: 1
    weight_filler {
      type: "gaussian"
      std: 0.01
    }
    bias_filler {
      type: "constant"
    }
  }
}
layer {
  name: "relu5"
  type: "ReLU"
  bottom: "conv5"
  top: "conv5"
}
layer {
  name: "pool5"
  type: "Pooling"
  bottom: "conv5"
  top: "pool5"
  pooling_param {
    pool: AVE
    kernel_size: 3
    stride: 2
  }
}
layer {
  name: "ip1"
  type: "InnerProduct"
  bottom: "pool5"
  top: "ip1"
  param {
    lr_mult: 1
  }
  param {
    lr_mult: 2
  }
  inner_product_param {
    num_output: 64
    weight_filler {
      type: "gaussian"
      std: 0.1
    }
    bias_filler {
      type: "constant"
    }
  }
}
layer {
  name: "ip2"
  type: "InnerProduct"
  bottom: "ip1"
  top: "ip2"
  param {
    lr_mult: 1
  }
  param {
    lr_mult: 2
  }
  inner_product_param {
    num_output: 64
    weight_filler {
      type: "gaussian"
      std: 0.1
    }
    bias_filler {
      type: "constant"
    }
  }
}
layer {
  name: "ip3"
  type: "InnerProduct"
  bottom: "ip2"
  top: "ip3"
  param {
    lr_mult: 1
  }
  param {
    lr_mult: 2
  }
  inner_product_param {
    num_output: 50
    weight_filler {
      type: "gaussian"
      std: 0.1
    }
    bias_filler {
      type: "constant"
    }
  }
}
layer {
  name: "accuracy"
  type: "Accuracy"
  bottom: "ip3"
  bottom: "label"
  top: "accuracy"
  include {
    phase: TEST
  }
}
layer {
  name: "loss"
  type: "SoftmaxWithLoss"
  bottom: "ip3"
  bottom: "label"
  top: "loss"
}
I0507 05:33:22.796445 31535 layer_factory.hpp:77] Creating layer intercept
I0507 05:33:22.796454 31535 net.cpp:94] Creating Layer intercept
I0507 05:33:22.796458 31535 net.cpp:409] intercept -> data
I0507 05:33:22.796465 31535 net.cpp:409] intercept -> label
I0507 05:33:22.796470 31535 hdf5_data_layer.cpp:79] Loading list of HDF5 filenames from: /home/purduethu/scratch/radon/d/deng106/CNNStatisticalModel/distributions/input/50_distributions_100_sample_size_test-distributions-path.txt
I0507 05:33:22.796490 31535 hdf5_data_layer.cpp:93] Number of HDF5 files: 1
I0507 05:33:22.837908 31535 net.cpp:144] Setting up intercept
I0507 05:33:22.837942 31535 net.cpp:151] Top shape: 20 1 10 10 (2000)
I0507 05:33:22.837947 31535 net.cpp:151] Top shape: 20 (20)
I0507 05:33:22.837950 31535 net.cpp:159] Memory required for data: 8080
I0507 05:33:22.837956 31535 layer_factory.hpp:77] Creating layer label_intercept_1_split
I0507 05:33:22.837975 31535 net.cpp:94] Creating Layer label_intercept_1_split
I0507 05:33:22.837980 31535 net.cpp:435] label_intercept_1_split <- label
I0507 05:33:22.837985 31535 net.cpp:409] label_intercept_1_split -> label_intercept_1_split_0
I0507 05:33:22.837993 31535 net.cpp:409] label_intercept_1_split -> label_intercept_1_split_1
I0507 05:33:22.838038 31535 net.cpp:144] Setting up label_intercept_1_split
I0507 05:33:22.838044 31535 net.cpp:151] Top shape: 20 (20)
I0507 05:33:22.838048 31535 net.cpp:151] Top shape: 20 (20)
I0507 05:33:22.838052 31535 net.cpp:159] Memory required for data: 8240
I0507 05:33:22.838054 31535 layer_factory.hpp:77] Creating layer conv1
I0507 05:33:22.838065 31535 net.cpp:94] Creating Layer conv1
I0507 05:33:22.838069 31535 net.cpp:435] conv1 <- data
I0507 05:33:22.838073 31535 net.cpp:409] conv1 -> conv1
I0507 05:33:22.838877 31535 net.cpp:144] Setting up conv1
I0507 05:33:22.838891 31535 net.cpp:151] Top shape: 20 64 10 10 (128000)
I0507 05:33:22.838894 31535 net.cpp:159] Memory required for data: 520240
I0507 05:33:22.838903 31535 layer_factory.hpp:77] Creating layer relu1
I0507 05:33:22.838910 31535 net.cpp:94] Creating Layer relu1
I0507 05:33:22.838913 31535 net.cpp:435] relu1 <- conv1
I0507 05:33:22.838917 31535 net.cpp:396] relu1 -> conv1 (in-place)
I0507 05:33:22.838924 31535 net.cpp:144] Setting up relu1
I0507 05:33:22.838928 31535 net.cpp:151] Top shape: 20 64 10 10 (128000)
I0507 05:33:22.838932 31535 net.cpp:159] Memory required for data: 1032240
I0507 05:33:22.838943 31535 layer_factory.hpp:77] Creating layer conv2
I0507 05:33:22.838950 31535 net.cpp:94] Creating Layer conv2
I0507 05:33:22.838954 31535 net.cpp:435] conv2 <- conv1
I0507 05:33:22.838959 31535 net.cpp:409] conv2 -> conv2
I0507 05:33:22.843024 31535 net.cpp:144] Setting up conv2
I0507 05:33:22.843037 31535 net.cpp:151] Top shape: 20 64 10 10 (128000)
I0507 05:33:22.843040 31535 net.cpp:159] Memory required for data: 1544240
I0507 05:33:22.843049 31535 layer_factory.hpp:77] Creating layer relu2
I0507 05:33:22.843055 31535 net.cpp:94] Creating Layer relu2
I0507 05:33:22.843058 31535 net.cpp:435] relu2 <- conv2
I0507 05:33:22.843062 31535 net.cpp:396] relu2 -> conv2 (in-place)
I0507 05:33:22.843068 31535 net.cpp:144] Setting up relu2
I0507 05:33:22.843073 31535 net.cpp:151] Top shape: 20 64 10 10 (128000)
I0507 05:33:22.843076 31535 net.cpp:159] Memory required for data: 2056240
I0507 05:33:22.843080 31535 layer_factory.hpp:77] Creating layer pool2
I0507 05:33:22.843086 31535 net.cpp:94] Creating Layer pool2
I0507 05:33:22.843088 31535 net.cpp:435] pool2 <- conv2
I0507 05:33:22.843093 31535 net.cpp:409] pool2 -> pool2
I0507 05:33:22.843152 31535 net.cpp:144] Setting up pool2
I0507 05:33:22.843159 31535 net.cpp:151] Top shape: 20 64 5 5 (32000)
I0507 05:33:22.843161 31535 net.cpp:159] Memory required for data: 2184240
I0507 05:33:22.843165 31535 layer_factory.hpp:77] Creating layer conv3
I0507 05:33:22.843173 31535 net.cpp:94] Creating Layer conv3
I0507 05:33:22.843178 31535 net.cpp:435] conv3 <- pool2
I0507 05:33:22.843183 31535 net.cpp:409] conv3 -> conv3
I0507 05:33:22.847543 31535 net.cpp:144] Setting up conv3
I0507 05:33:22.847556 31535 net.cpp:151] Top shape: 20 64 5 5 (32000)
I0507 05:33:22.847560 31535 net.cpp:159] Memory required for data: 2312240
I0507 05:33:22.847568 31535 layer_factory.hpp:77] Creating layer relu3
I0507 05:33:22.847576 31535 net.cpp:94] Creating Layer relu3
I0507 05:33:22.847579 31535 net.cpp:435] relu3 <- conv3
I0507 05:33:22.847584 31535 net.cpp:396] relu3 -> conv3 (in-place)
I0507 05:33:22.847590 31535 net.cpp:144] Setting up relu3
I0507 05:33:22.847595 31535 net.cpp:151] Top shape: 20 64 5 5 (32000)
I0507 05:33:22.847599 31535 net.cpp:159] Memory required for data: 2440240
I0507 05:33:22.847601 31535 layer_factory.hpp:77] Creating layer conv4
I0507 05:33:22.847609 31535 net.cpp:94] Creating Layer conv4
I0507 05:33:22.847612 31535 net.cpp:435] conv4 <- conv3
I0507 05:33:22.847618 31535 net.cpp:409] conv4 -> conv4
I0507 05:33:22.851142 31535 net.cpp:144] Setting up conv4
I0507 05:33:22.851155 31535 net.cpp:151] Top shape: 20 64 5 5 (32000)
I0507 05:33:22.851158 31535 net.cpp:159] Memory required for data: 2568240
I0507 05:33:22.851164 31535 layer_factory.hpp:77] Creating layer relu4
I0507 05:33:22.851171 31535 net.cpp:94] Creating Layer relu4
I0507 05:33:22.851174 31535 net.cpp:435] relu4 <- conv4
I0507 05:33:22.851178 31535 net.cpp:396] relu4 -> conv4 (in-place)
I0507 05:33:22.851186 31535 net.cpp:144] Setting up relu4
I0507 05:33:22.851189 31535 net.cpp:151] Top shape: 20 64 5 5 (32000)
I0507 05:33:22.851192 31535 net.cpp:159] Memory required for data: 2696240
I0507 05:33:22.851196 31535 layer_factory.hpp:77] Creating layer conv5
I0507 05:33:22.851203 31535 net.cpp:94] Creating Layer conv5
I0507 05:33:22.851207 31535 net.cpp:435] conv5 <- conv4
I0507 05:33:22.851212 31535 net.cpp:409] conv5 -> conv5
I0507 05:33:22.855192 31535 net.cpp:144] Setting up conv5
I0507 05:33:22.855206 31535 net.cpp:151] Top shape: 20 64 5 5 (32000)
I0507 05:33:22.855209 31535 net.cpp:159] Memory required for data: 2824240
I0507 05:33:22.855217 31535 layer_factory.hpp:77] Creating layer relu5
I0507 05:33:22.855223 31535 net.cpp:94] Creating Layer relu5
I0507 05:33:22.855226 31535 net.cpp:435] relu5 <- conv5
I0507 05:33:22.855232 31535 net.cpp:396] relu5 -> conv5 (in-place)
I0507 05:33:22.855237 31535 net.cpp:144] Setting up relu5
I0507 05:33:22.855242 31535 net.cpp:151] Top shape: 20 64 5 5 (32000)
I0507 05:33:22.855244 31535 net.cpp:159] Memory required for data: 2952240
I0507 05:33:22.855252 31535 layer_factory.hpp:77] Creating layer pool5
I0507 05:33:22.855258 31535 net.cpp:94] Creating Layer pool5
I0507 05:33:22.855262 31535 net.cpp:435] pool5 <- conv5
I0507 05:33:22.855267 31535 net.cpp:409] pool5 -> pool5
I0507 05:33:22.855306 31535 net.cpp:144] Setting up pool5
I0507 05:33:22.855314 31535 net.cpp:151] Top shape: 20 64 2 2 (5120)
I0507 05:33:22.855316 31535 net.cpp:159] Memory required for data: 2972720
I0507 05:33:22.855319 31535 layer_factory.hpp:77] Creating layer ip1
I0507 05:33:22.855326 31535 net.cpp:94] Creating Layer ip1
I0507 05:33:22.855329 31535 net.cpp:435] ip1 <- pool5
I0507 05:33:22.855334 31535 net.cpp:409] ip1 -> ip1
I0507 05:33:22.855866 31535 net.cpp:144] Setting up ip1
I0507 05:33:22.855875 31535 net.cpp:151] Top shape: 20 64 (1280)
I0507 05:33:22.855877 31535 net.cpp:159] Memory required for data: 2977840
I0507 05:33:22.855882 31535 layer_factory.hpp:77] Creating layer ip2
I0507 05:33:22.855888 31535 net.cpp:94] Creating Layer ip2
I0507 05:33:22.855891 31535 net.cpp:435] ip2 <- ip1
I0507 05:33:22.855896 31535 net.cpp:409] ip2 -> ip2
I0507 05:33:22.856125 31535 net.cpp:144] Setting up ip2
I0507 05:33:22.856133 31535 net.cpp:151] Top shape: 20 64 (1280)
I0507 05:33:22.856137 31535 net.cpp:159] Memory required for data: 2982960
I0507 05:33:22.856142 31535 layer_factory.hpp:77] Creating layer ip3
I0507 05:33:22.856148 31535 net.cpp:94] Creating Layer ip3
I0507 05:33:22.856151 31535 net.cpp:435] ip3 <- ip2
I0507 05:33:22.856158 31535 net.cpp:409] ip3 -> ip3
I0507 05:33:22.856361 31535 net.cpp:144] Setting up ip3
I0507 05:33:22.856369 31535 net.cpp:151] Top shape: 20 50 (1000)
I0507 05:33:22.856372 31535 net.cpp:159] Memory required for data: 2986960
I0507 05:33:22.856377 31535 layer_factory.hpp:77] Creating layer ip3_ip3_0_split
I0507 05:33:22.856384 31535 net.cpp:94] Creating Layer ip3_ip3_0_split
I0507 05:33:22.856386 31535 net.cpp:435] ip3_ip3_0_split <- ip3
I0507 05:33:22.856390 31535 net.cpp:409] ip3_ip3_0_split -> ip3_ip3_0_split_0
I0507 05:33:22.856396 31535 net.cpp:409] ip3_ip3_0_split -> ip3_ip3_0_split_1
I0507 05:33:22.856439 31535 net.cpp:144] Setting up ip3_ip3_0_split
I0507 05:33:22.856446 31535 net.cpp:151] Top shape: 20 50 (1000)
I0507 05:33:22.856449 31535 net.cpp:151] Top shape: 20 50 (1000)
I0507 05:33:22.856452 31535 net.cpp:159] Memory required for data: 2994960
I0507 05:33:22.856456 31535 layer_factory.hpp:77] Creating layer accuracy
I0507 05:33:22.856462 31535 net.cpp:94] Creating Layer accuracy
I0507 05:33:22.856464 31535 net.cpp:435] accuracy <- ip3_ip3_0_split_0
I0507 05:33:22.856468 31535 net.cpp:435] accuracy <- label_intercept_1_split_0
I0507 05:33:22.856472 31535 net.cpp:409] accuracy -> accuracy
…
