…
I0505 17:20:44.102659  8324 net.cpp:323] The NetState phase (0) differed from the phase (1) specified by a rule in layer intercept
I0505 17:20:44.102674  8324 net.cpp:323] The NetState phase (0) differed from the phase (1) specified by a rule in layer loss
I0505 17:20:44.102738  8324 net.cpp:52] Initializing net from parameters: 
state {
  phase: TRAIN
}
layer {
  name: "parameters"
  type: "HDF5Data"
  top: "data"
  top: "label"
  include {
    phase: TRAIN
  }
  hdf5_data_param {
    source: "/home/purduethu/scratch/radon/d/deng106/CNNStatisticalModel/distributions/input/20_distributions_400_sample_size_train-parameters-path.txt"
    batch_size: 20
  }
}
layer {
  name: "conv1"
  type: "Convolution"
  bottom: "data"
  top: "conv1"
  param {
    lr_mult: 1
  }
  param {
    lr_mult: 2
  }
  convolution_param {
    num_output: 64
    pad: 2
    kernel_size: 5
    stride: 1
    weight_filler {
      type: "gaussian"
      std: 0.0001
    }
    bias_filler {
      type: "constant"
    }
  }
}
layer {
  name: "relu1"
  type: "ReLU"
  bottom: "conv1"
  top: "conv1"
}
layer {
  name: "pool1"
  type: "Pooling"
  bottom: "conv1"
  top: "pool1"
  pooling_param {
    pool: MAX
    kernel_size: 3
    stride: 2
  }
}
layer {
  name: "conv2"
  type: "Convolution"
  bottom: "pool1"
  top: "conv2"
  param {
    lr_mult: 1
  }
  param {
    lr_mult: 2
  }
  convolution_param {
    num_output: 128
    pad: 2
    kernel_size: 5
    stride: 1
    weight_filler {
      type: "gaussian"
      std: 0.01
    }
    bias_filler {
      type: "constant"
    }
  }
}
layer {
  name: "relu2"
  type: "ReLU"
  bottom: "conv2"
  top: "conv2"
}
layer {
  name: "conv3"
  type: "Convolution"
  bottom: "conv2"
  top: "conv3"
  param {
    lr_mult: 1
  }
  param {
    lr_mult: 2
  }
  convolution_param {
    num_output: 128
    pad: 2
    kernel_size: 5
    stride: 1
    weight_filler {
      type: "gaussian"
      std: 0.01
    }
    bias_filler {
      type: "constant"
    }
  }
}
layer {
  name: "relu3"
  type: "ReLU"
  bottom: "conv3"
  top: "conv3"
}
layer {
  name: "pool3"
  type: "Pooling"
  bottom: "conv3"
  top: "pool3"
  pooling_param {
    pool: AVE
    kernel_size: 3
    stride: 2
  }
}
layer {
  name: "ip1"
  type: "InnerProduct"
  bottom: "pool3"
  top: "ip1"
  param {
    lr_mult: 1
  }
  param {
    lr_mult: 2
  }
  inner_product_param {
    num_output: 512
    weight_filler {
      type: "gaussian"
      std: 0.1
    }
    bias_filler {
      type: "constant"
    }
  }
}
layer {
  name: "ip2"
  type: "InnerProduct"
  bottom: "ip1"
  top: "ip2"
  param {
    lr_mult: 1
  }
  param {
    lr_mult: 2
  }
  inner_product_param {
    num_output: 256
    weight_filler {
      type: "gaussian"
      std: 0.1
    }
    bias_filler {
      type: "constant"
    }
  }
}
layer {
  name: "ip3"
  type: "InnerProduct"
  bottom: "ip2"
  top: "ip3"
  param {
    lr_mult: 1
  }
  param {
    lr_mult: 2
  }
  inner_product_param {
    num_output: 1
    weight_filler {
      type: "gaussian"
      std: 0.1
    }
    bias_filler {
      type: "constant"
    }
  }
}
layer {
  name: "loss"
  type: "HuberLoss"
  bottom: "ip3"
  bottom: "label"
  top: "loss"
  include {
    phase: TRAIN
  }
}
I0505 17:20:44.102784  8324 layer_factory.hpp:77] Creating layer parameters
I0505 17:20:44.102799  8324 net.cpp:94] Creating Layer parameters
I0505 17:20:44.102804  8324 net.cpp:409] parameters -> data
I0505 17:20:44.102818  8324 net.cpp:409] parameters -> label
I0505 17:20:44.102824  8324 hdf5_data_layer.cpp:79] Loading list of HDF5 filenames from: /home/purduethu/scratch/radon/d/deng106/CNNStatisticalModel/distributions/input/20_distributions_400_sample_size_train-parameters-path.txt
I0505 17:20:44.102838  8324 hdf5_data_layer.cpp:93] Number of HDF5 files: 1
I0505 17:20:44.103274  8324 hdf5.cpp:32] Datatype class: H5T_FLOAT
I0505 17:20:44.363895  8324 net.cpp:144] Setting up parameters
I0505 17:20:44.363927  8324 net.cpp:151] Top shape: 20 1 20 20 (8000)
I0505 17:20:44.363934  8324 net.cpp:151] Top shape: 20 (20)
I0505 17:20:44.363936  8324 net.cpp:159] Memory required for data: 32080
I0505 17:20:44.363942  8324 layer_factory.hpp:77] Creating layer conv1
I0505 17:20:44.363960  8324 net.cpp:94] Creating Layer conv1
I0505 17:20:44.363963  8324 net.cpp:435] conv1 <- data
I0505 17:20:44.363970  8324 net.cpp:409] conv1 -> conv1
I0505 17:20:44.369369  8324 net.cpp:144] Setting up conv1
I0505 17:20:44.369390  8324 net.cpp:151] Top shape: 20 64 20 20 (512000)
I0505 17:20:44.369393  8324 net.cpp:159] Memory required for data: 2080080
I0505 17:20:44.369405  8324 layer_factory.hpp:77] Creating layer relu1
I0505 17:20:44.369413  8324 net.cpp:94] Creating Layer relu1
I0505 17:20:44.369417  8324 net.cpp:435] relu1 <- conv1
I0505 17:20:44.369422  8324 net.cpp:396] relu1 -> conv1 (in-place)
I0505 17:20:44.369431  8324 net.cpp:144] Setting up relu1
I0505 17:20:44.369436  8324 net.cpp:151] Top shape: 20 64 20 20 (512000)
I0505 17:20:44.369438  8324 net.cpp:159] Memory required for data: 4128080
I0505 17:20:44.369441  8324 layer_factory.hpp:77] Creating layer pool1
I0505 17:20:44.369447  8324 net.cpp:94] Creating Layer pool1
I0505 17:20:44.369451  8324 net.cpp:435] pool1 <- conv1
I0505 17:20:44.369454  8324 net.cpp:409] pool1 -> pool1
I0505 17:20:44.369509  8324 net.cpp:144] Setting up pool1
I0505 17:20:44.369516  8324 net.cpp:151] Top shape: 20 64 10 10 (128000)
I0505 17:20:44.369520  8324 net.cpp:159] Memory required for data: 4640080
I0505 17:20:44.369524  8324 layer_factory.hpp:77] Creating layer conv2
I0505 17:20:44.369532  8324 net.cpp:94] Creating Layer conv2
I0505 17:20:44.369536  8324 net.cpp:435] conv2 <- pool1
I0505 17:20:44.369540  8324 net.cpp:409] conv2 -> conv2
I0505 17:20:44.379300  8324 net.cpp:144] Setting up conv2
I0505 17:20:44.379315  8324 net.cpp:151] Top shape: 20 128 10 10 (256000)
I0505 17:20:44.379319  8324 net.cpp:159] Memory required for data: 5664080
I0505 17:20:44.379328  8324 layer_factory.hpp:77] Creating layer relu2
I0505 17:20:44.379334  8324 net.cpp:94] Creating Layer relu2
I0505 17:20:44.379338  8324 net.cpp:435] relu2 <- conv2
I0505 17:20:44.379343  8324 net.cpp:396] relu2 -> conv2 (in-place)
I0505 17:20:44.379350  8324 net.cpp:144] Setting up relu2
I0505 17:20:44.379354  8324 net.cpp:151] Top shape: 20 128 10 10 (256000)
I0505 17:20:44.379357  8324 net.cpp:159] Memory required for data: 6688080
I0505 17:20:44.379360  8324 layer_factory.hpp:77] Creating layer conv3
I0505 17:20:44.379367  8324 net.cpp:94] Creating Layer conv3
I0505 17:20:44.379371  8324 net.cpp:435] conv3 <- conv2
I0505 17:20:44.379375  8324 net.cpp:409] conv3 -> conv3
I0505 17:20:44.396734  8324 net.cpp:144] Setting up conv3
I0505 17:20:44.396750  8324 net.cpp:151] Top shape: 20 128 10 10 (256000)
I0505 17:20:44.396755  8324 net.cpp:159] Memory required for data: 7712080
I0505 17:20:44.396764  8324 layer_factory.hpp:77] Creating layer relu3
I0505 17:20:44.396777  8324 net.cpp:94] Creating Layer relu3
I0505 17:20:44.396781  8324 net.cpp:435] relu3 <- conv3
I0505 17:20:44.396785  8324 net.cpp:396] relu3 -> conv3 (in-place)
I0505 17:20:44.396793  8324 net.cpp:144] Setting up relu3
I0505 17:20:44.396797  8324 net.cpp:151] Top shape: 20 128 10 10 (256000)
I0505 17:20:44.396800  8324 net.cpp:159] Memory required for data: 8736080
I0505 17:20:44.396803  8324 layer_factory.hpp:77] Creating layer pool3
I0505 17:20:44.396809  8324 net.cpp:94] Creating Layer pool3
I0505 17:20:44.396812  8324 net.cpp:435] pool3 <- conv3
I0505 17:20:44.396817  8324 net.cpp:409] pool3 -> pool3
I0505 17:20:44.396862  8324 net.cpp:144] Setting up pool3
I0505 17:20:44.396868  8324 net.cpp:151] Top shape: 20 128 5 5 (64000)
I0505 17:20:44.396872  8324 net.cpp:159] Memory required for data: 8992080
I0505 17:20:44.396874  8324 layer_factory.hpp:77] Creating layer ip1
I0505 17:20:44.396884  8324 net.cpp:94] Creating Layer ip1
I0505 17:20:44.396888  8324 net.cpp:435] ip1 <- pool3
I0505 17:20:44.396893  8324 net.cpp:409] ip1 -> ip1
I0505 17:20:44.437669  8324 net.cpp:144] Setting up ip1
I0505 17:20:44.437695  8324 net.cpp:151] Top shape: 20 512 (10240)
I0505 17:20:44.437698  8324 net.cpp:159] Memory required for data: 9033040
I0505 17:20:44.437706  8324 layer_factory.hpp:77] Creating layer ip2
I0505 17:20:44.437716  8324 net.cpp:94] Creating Layer ip2
I0505 17:20:44.437719  8324 net.cpp:435] ip2 <- ip1
I0505 17:20:44.437726  8324 net.cpp:409] ip2 -> ip2
I0505 17:20:44.440871  8324 net.cpp:144] Setting up ip2
I0505 17:20:44.440879  8324 net.cpp:151] Top shape: 20 256 (5120)
I0505 17:20:44.440882  8324 net.cpp:159] Memory required for data: 9053520
I0505 17:20:44.440891  8324 layer_factory.hpp:77] Creating layer ip3
I0505 17:20:44.440896  8324 net.cpp:94] Creating Layer ip3
I0505 17:20:44.440899  8324 net.cpp:435] ip3 <- ip2
I0505 17:20:44.440904  8324 net.cpp:409] ip3 -> ip3
I0505 17:20:44.441009  8324 net.cpp:144] Setting up ip3
I0505 17:20:44.441015  8324 net.cpp:151] Top shape: 20 1 (20)
I0505 17:20:44.441017  8324 net.cpp:159] Memory required for data: 9053600
I0505 17:20:44.441022  8324 layer_factory.hpp:77] Creating layer loss
I0505 17:20:44.441035  8324 net.cpp:94] Creating Layer loss
I0505 17:20:44.441040  8324 net.cpp:435] loss <- ip3
I0505 17:20:44.441043  8324 net.cpp:435] loss <- label
I0505 17:20:44.441047  8324 net.cpp:409] loss -> loss
I0505 17:20:44.441097  8324 net.cpp:144] Setting up loss
…
I0505 17:20:44.660943  8324 net.cpp:323] The NetState phase (0) differed from the phase (1) specified by a rule in layer intercept
I0505 17:20:44.660982  8324 net.cpp:323] The NetState phase (0) differed from the phase (1) specified by a rule in layer accuracy
I0505 17:20:44.661185  8324 net.cpp:52] Initializing net from parameters: 
state {
  phase: TRAIN
}
layer {
  name: "parameters"
  type: "HDF5Data"
  top: "data"
  top: "label"
  include {
    phase: TRAIN
  }
  hdf5_data_param {
    source: "/home/purduethu/scratch/radon/d/deng106/CNNStatisticalModel/distributions/input/20_distributions_400_sample_size_train-distributions-path.txt"
    batch_size: 20
  }
}
layer {
  name: "conv1"
  type: "Convolution"
  bottom: "data"
  top: "conv1"
  param {
    lr_mult: 1
  }
  param {
    lr_mult: 2
  }
  convolution_param {
    num_output: 64
    pad: 2
    kernel_size: 5
    stride: 1
    weight_filler {
      type: "gaussian"
      std: 0.0001
    }
    bias_filler {
      type: "constant"
    }
  }
}
layer {
  name: "relu1"
  type: "ReLU"
  bottom: "conv1"
  top: "conv1"
}
layer {
  name: "pool1"
  type: "Pooling"
  bottom: "conv1"
  top: "pool1"
  pooling_param {
    pool: MAX
    kernel_size: 3
    stride: 2
  }
}
layer {
  name: "conv2"
  type: "Convolution"
  bottom: "pool1"
  top: "conv2"
  param {
    lr_mult: 1
  }
  param {
    lr_mult: 2
  }
  convolution_param {
    num_output: 128
    pad: 2
    kernel_size: 5
    stride: 1
    weight_filler {
      type: "gaussian"
      std: 0.01
    }
    bias_filler {
      type: "constant"
    }
  }
}
layer {
  name: "relu2"
  type: "ReLU"
  bottom: "conv2"
  top: "conv2"
}
layer {
  name: "conv3"
  type: "Convolution"
  bottom: "conv2"
  top: "conv3"
  param {
    lr_mult: 1
  }
  param {
    lr_mult: 2
  }
  convolution_param {
    num_output: 128
    pad: 2
    kernel_size: 5
    stride: 1
    weight_filler {
      type: "gaussian"
      std: 0.01
    }
    bias_filler {
      type: "constant"
    }
  }
}
layer {
  name: "relu3"
  type: "ReLU"
  bottom: "conv3"
  top: "conv3"
}
layer {
  name: "pool3"
  type: "Pooling"
  bottom: "conv3"
  top: "pool3"
  pooling_param {
    pool: AVE
    kernel_size: 3
    stride: 2
  }
}
layer {
  name: "ip1"
  type: "InnerProduct"
  bottom: "pool3"
  top: "ip1"
  param {
    lr_mult: 1
  }
  param {
    lr_mult: 2
  }
  inner_product_param {
    num_output: 512
    weight_filler {
      type: "gaussian"
      std: 0.1
    }
    bias_filler {
      type: "constant"
    }
  }
}
layer {
  name: "ip2"
  type: "InnerProduct"
  bottom: "ip1"
  top: "ip2"
  param {
    lr_mult: 1
  }
  param {
    lr_mult: 2
  }
  inner_product_param {
    num_output: 256
    weight_filler {
      type: "gaussian"
      std: 0.1
    }
    bias_filler {
      type: "constant"
    }
  }
}
layer {
  name: "ip3"
  type: "InnerProduct"
  bottom: "ip2"
  top: "ip3"
  param {
    lr_mult: 1
  }
  param {
    lr_mult: 2
  }
  inner_product_param {
    num_output: 50
    weight_filler {
      type: "gaussian"
      std: 0.1
    }
    bias_filler {
      type: "constant"
    }
  }
}
layer {
  name: "loss"
  type: "SoftmaxWithLoss"
  bottom: "ip3"
  bottom: "label"
  top: "loss"
}
I0505 17:20:44.661298  8324 layer_factory.hpp:77] Creating layer parameters
I0505 17:20:44.661316  8324 net.cpp:94] Creating Layer parameters
I0505 17:20:44.661329  8324 net.cpp:409] parameters -> data
I0505 17:20:44.661348  8324 net.cpp:409] parameters -> label
I0505 17:20:44.661365  8324 hdf5_data_layer.cpp:79] Loading list of HDF5 filenames from: /home/purduethu/scratch/radon/d/deng106/CNNStatisticalModel/distributions/input/20_distributions_400_sample_size_train-distributions-path.txt
I0505 17:20:44.661401  8324 hdf5_data_layer.cpp:93] Number of HDF5 files: 1
I0505 17:20:44.984611  8324 hdf5.cpp:35] Datatype class: H5T_INTEGER
I0505 17:20:44.985535  8324 net.cpp:144] Setting up parameters
I0505 17:20:44.985550  8324 net.cpp:151] Top shape: 20 1 20 20 (8000)
I0505 17:20:44.985556  8324 net.cpp:151] Top shape: 20 (20)
I0505 17:20:44.985559  8324 net.cpp:159] Memory required for data: 32080
I0505 17:20:44.985565  8324 layer_factory.hpp:77] Creating layer conv1
I0505 17:20:44.985582  8324 net.cpp:94] Creating Layer conv1
I0505 17:20:44.985586  8324 net.cpp:435] conv1 <- data
I0505 17:20:44.985594  8324 net.cpp:409] conv1 -> conv1
I0505 17:20:44.987953  8324 net.cpp:144] Setting up conv1
I0505 17:20:44.987968  8324 net.cpp:151] Top shape: 20 64 20 20 (512000)
I0505 17:20:44.987972  8324 net.cpp:159] Memory required for data: 2080080
I0505 17:20:44.987982  8324 layer_factory.hpp:77] Creating layer relu1
I0505 17:20:44.987990  8324 net.cpp:94] Creating Layer relu1
I0505 17:20:44.987994  8324 net.cpp:435] relu1 <- conv1
I0505 17:20:44.987998  8324 net.cpp:396] relu1 -> conv1 (in-place)
I0505 17:20:44.988005  8324 net.cpp:144] Setting up relu1
I0505 17:20:44.988010  8324 net.cpp:151] Top shape: 20 64 20 20 (512000)
I0505 17:20:44.988013  8324 net.cpp:159] Memory required for data: 4128080
I0505 17:20:44.988016  8324 layer_factory.hpp:77] Creating layer pool1
I0505 17:20:44.988023  8324 net.cpp:94] Creating Layer pool1
I0505 17:20:44.988025  8324 net.cpp:435] pool1 <- conv1
I0505 17:20:44.988036  8324 net.cpp:409] pool1 -> pool1
I0505 17:20:44.988091  8324 net.cpp:144] Setting up pool1
I0505 17:20:44.988098  8324 net.cpp:151] Top shape: 20 64 10 10 (128000)
I0505 17:20:44.988101  8324 net.cpp:159] Memory required for data: 4640080
I0505 17:20:44.988106  8324 layer_factory.hpp:77] Creating layer conv2
I0505 17:20:44.988113  8324 net.cpp:94] Creating Layer conv2
I0505 17:20:44.988116  8324 net.cpp:435] conv2 <- pool1
I0505 17:20:44.988121  8324 net.cpp:409] conv2 -> conv2
I0505 17:20:44.999356  8324 net.cpp:144] Setting up conv2
I0505 17:20:44.999373  8324 net.cpp:151] Top shape: 20 128 10 10 (256000)
I0505 17:20:44.999377  8324 net.cpp:159] Memory required for data: 5664080
I0505 17:20:44.999387  8324 layer_factory.hpp:77] Creating layer relu2
I0505 17:20:44.999393  8324 net.cpp:94] Creating Layer relu2
I0505 17:20:44.999397  8324 net.cpp:435] relu2 <- conv2
I0505 17:20:44.999402  8324 net.cpp:396] relu2 -> conv2 (in-place)
I0505 17:20:44.999409  8324 net.cpp:144] Setting up relu2
I0505 17:20:44.999414  8324 net.cpp:151] Top shape: 20 128 10 10 (256000)
I0505 17:20:44.999418  8324 net.cpp:159] Memory required for data: 6688080
I0505 17:20:44.999420  8324 layer_factory.hpp:77] Creating layer conv3
I0505 17:20:44.999428  8324 net.cpp:94] Creating Layer conv3
I0505 17:20:44.999431  8324 net.cpp:435] conv3 <- conv2
I0505 17:20:44.999436  8324 net.cpp:409] conv3 -> conv3
I0505 17:20:45.018131  8324 net.cpp:144] Setting up conv3
I0505 17:20:45.018147  8324 net.cpp:151] Top shape: 20 128 10 10 (256000)
I0505 17:20:45.018152  8324 net.cpp:159] Memory required for data: 7712080
I0505 17:20:45.018162  8324 layer_factory.hpp:77] Creating layer relu3
I0505 17:20:45.018167  8324 net.cpp:94] Creating Layer relu3
I0505 17:20:45.018172  8324 net.cpp:435] relu3 <- conv3
I0505 17:20:45.018177  8324 net.cpp:396] relu3 -> conv3 (in-place)
I0505 17:20:45.018184  8324 net.cpp:144] Setting up relu3
I0505 17:20:45.018188  8324 net.cpp:151] Top shape: 20 128 10 10 (256000)
I0505 17:20:45.018191  8324 net.cpp:159] Memory required for data: 8736080
I0505 17:20:45.018194  8324 layer_factory.hpp:77] Creating layer pool3
I0505 17:20:45.018201  8324 net.cpp:94] Creating Layer pool3
I0505 17:20:45.018204  8324 net.cpp:435] pool3 <- conv3
I0505 17:20:45.018208  8324 net.cpp:409] pool3 -> pool3
I0505 17:20:45.018249  8324 net.cpp:144] Setting up pool3
I0505 17:20:45.018256  8324 net.cpp:151] Top shape: 20 128 5 5 (64000)
I0505 17:20:45.018260  8324 net.cpp:159] Memory required for data: 8992080
I0505 17:20:45.018263  8324 layer_factory.hpp:77] Creating layer ip1
I0505 17:20:45.018270  8324 net.cpp:94] Creating Layer ip1
I0505 17:20:45.018273  8324 net.cpp:435] ip1 <- pool3
I0505 17:20:45.018277  8324 net.cpp:409] ip1 -> ip1
I0505 17:20:45.060072  8324 net.cpp:144] Setting up ip1
I0505 17:20:45.060098  8324 net.cpp:151] Top shape: 20 512 (10240)
I0505 17:20:45.060103  8324 net.cpp:159] Memory required for data: 9033040
I0505 17:20:45.060111  8324 layer_factory.hpp:77] Creating layer ip2
I0505 17:20:45.060120  8324 net.cpp:94] Creating Layer ip2
I0505 17:20:45.060125  8324 net.cpp:435] ip2 <- ip1
I0505 17:20:45.060132  8324 net.cpp:409] ip2 -> ip2
I0505 17:20:45.063467  8324 net.cpp:144] Setting up ip2
I0505 17:20:45.063478  8324 net.cpp:151] Top shape: 20 256 (5120)
I0505 17:20:45.063482  8324 net.cpp:159] Memory required for data: 9053520
I0505 17:20:45.063490  8324 layer_factory.hpp:77] Creating layer ip3
I0505 17:20:45.063496  8324 net.cpp:94] Creating Layer ip3
I0505 17:20:45.063500  8324 net.cpp:435] ip3 <- ip2
I0505 17:20:45.063505  8324 net.cpp:409] ip3 -> ip3
I0505 17:20:45.065116  8324 net.cpp:144] Setting up ip3
I0505 17:20:45.065130  8324 net.cpp:151] Top shape: 20 50 (1000)
I0505 17:20:45.065135  8324 net.cpp:159] Memory required for data: 9057520
I0505 17:20:45.065141  8324 layer_factory.hpp:77] Creating layer loss
I0505 17:20:45.065147  8324 net.cpp:94] Creating Layer loss
I0505 17:20:45.065151  8324 net.cpp:435] loss <- ip3
I0505 17:20:45.065155  8324 net.cpp:435] loss <- label
I0505 17:20:45.065167  8324 net.cpp:409] loss -> loss
I0505 17:20:45.065176  8324 layer_factory.hpp:77] Creating layer loss
…
I0505 17:20:45.065641  8324 solver.cpp:181] Creating test net (#0) specified by net file: ./protocol/dis_20_400_dimension.protocol_distribution
I0505 17:20:45.065665  8324 net.cpp:323] The NetState phase (1) differed from the phase (0) specified by a rule in layer parameters
I0505 17:20:45.065747  8324 net.cpp:52] Initializing net from parameters: 
state {
  phase: TEST
}
layer {
  name: "intercept"
  type: "HDF5Data"
  top: "data"
  top: "label"
  include {
    phase: TEST
  }
  hdf5_data_param {
    source: "/home/purduethu/scratch/radon/d/deng106/CNNStatisticalModel/distributions/input/20_distributions_400_sample_size_test-distributions-path.txt"
    batch_size: 20
  }
}
layer {
  name: "conv1"
  type: "Convolution"
  bottom: "data"
  top: "conv1"
  param {
    lr_mult: 1
  }
  param {
    lr_mult: 2
  }
  convolution_param {
    num_output: 64
    pad: 2
    kernel_size: 5
    stride: 1
    weight_filler {
      type: "gaussian"
      std: 0.0001
    }
    bias_filler {
      type: "constant"
    }
  }
}
layer {
  name: "relu1"
  type: "ReLU"
  bottom: "conv1"
  top: "conv1"
}
layer {
  name: "pool1"
  type: "Pooling"
  bottom: "conv1"
  top: "pool1"
  pooling_param {
    pool: MAX
    kernel_size: 3
    stride: 2
  }
}
layer {
  name: "conv2"
  type: "Convolution"
  bottom: "pool1"
  top: "conv2"
  param {
    lr_mult: 1
  }
  param {
    lr_mult: 2
  }
  convolution_param {
    num_output: 128
    pad: 2
    kernel_size: 5
    stride: 1
    weight_filler {
      type: "gaussian"
      std: 0.01
    }
    bias_filler {
      type: "constant"
    }
  }
}
layer {
  name: "relu2"
  type: "ReLU"
  bottom: "conv2"
  top: "conv2"
}
layer {
  name: "conv3"
  type: "Convolution"
  bottom: "conv2"
  top: "conv3"
  param {
    lr_mult: 1
  }
  param {
    lr_mult: 2
  }
  convolution_param {
    num_output: 128
    pad: 2
    kernel_size: 5
    stride: 1
    weight_filler {
      type: "gaussian"
      std: 0.01
    }
    bias_filler {
      type: "constant"
    }
  }
}
layer {
  name: "relu3"
  type: "ReLU"
  bottom: "conv3"
  top: "conv3"
}
layer {
  name: "pool3"
  type: "Pooling"
  bottom: "conv3"
  top: "pool3"
  pooling_param {
    pool: AVE
    kernel_size: 3
    stride: 2
  }
}
layer {
  name: "ip1"
  type: "InnerProduct"
  bottom: "pool3"
  top: "ip1"
  param {
    lr_mult: 1
  }
  param {
    lr_mult: 2
  }
  inner_product_param {
    num_output: 512
    weight_filler {
      type: "gaussian"
      std: 0.1
    }
    bias_filler {
      type: "constant"
    }
  }
}
layer {
  name: "ip2"
  type: "InnerProduct"
  bottom: "ip1"
  top: "ip2"
  param {
    lr_mult: 1
  }
  param {
    lr_mult: 2
  }
  inner_product_param {
    num_output: 256
    weight_filler {
      type: "gaussian"
      std: 0.1
    }
    bias_filler {
      type: "constant"
    }
  }
}
layer {
  name: "ip3"
  type: "InnerProduct"
  bottom: "ip2"
  top: "ip3"
  param {
    lr_mult: 1
  }
  param {
    lr_mult: 2
  }
  inner_product_param {
    num_output: 50
    weight_filler {
      type: "gaussian"
      std: 0.1
    }
    bias_filler {
      type: "constant"
    }
  }
}
layer {
  name: "accuracy"
  type: "Accuracy"
  bottom: "ip3"
  bottom: "label"
  top: "accuracy"
  include {
    phase: TEST
  }
}
layer {
  name: "loss"
  type: "SoftmaxWithLoss"
  bottom: "ip3"
  bottom: "label"
  top: "loss"
}
I0505 17:20:45.065805  8324 layer_factory.hpp:77] Creating layer intercept
I0505 17:20:45.065814  8324 net.cpp:94] Creating Layer intercept
I0505 17:20:45.065819  8324 net.cpp:409] intercept -> data
I0505 17:20:45.065825  8324 net.cpp:409] intercept -> label
I0505 17:20:45.065831  8324 hdf5_data_layer.cpp:79] Loading list of HDF5 filenames from: /home/purduethu/scratch/radon/d/deng106/CNNStatisticalModel/distributions/input/20_distributions_400_sample_size_test-distributions-path.txt
I0505 17:20:45.065850  8324 hdf5_data_layer.cpp:93] Number of HDF5 files: 1
I0505 17:20:45.132587  8324 net.cpp:144] Setting up intercept
I0505 17:20:45.132622  8324 net.cpp:151] Top shape: 20 1 20 20 (8000)
I0505 17:20:45.132627  8324 net.cpp:151] Top shape: 20 (20)
I0505 17:20:45.132630  8324 net.cpp:159] Memory required for data: 32080
I0505 17:20:45.132637  8324 layer_factory.hpp:77] Creating layer label_intercept_1_split
I0505 17:20:45.132658  8324 net.cpp:94] Creating Layer label_intercept_1_split
I0505 17:20:45.132663  8324 net.cpp:435] label_intercept_1_split <- label
I0505 17:20:45.132668  8324 net.cpp:409] label_intercept_1_split -> label_intercept_1_split_0
I0505 17:20:45.132676  8324 net.cpp:409] label_intercept_1_split -> label_intercept_1_split_1
I0505 17:20:45.132719  8324 net.cpp:144] Setting up label_intercept_1_split
I0505 17:20:45.132726  8324 net.cpp:151] Top shape: 20 (20)
I0505 17:20:45.132730  8324 net.cpp:151] Top shape: 20 (20)
I0505 17:20:45.132733  8324 net.cpp:159] Memory required for data: 32240
I0505 17:20:45.132736  8324 layer_factory.hpp:77] Creating layer conv1
I0505 17:20:45.132747  8324 net.cpp:94] Creating Layer conv1
I0505 17:20:45.132750  8324 net.cpp:435] conv1 <- data
I0505 17:20:45.132755  8324 net.cpp:409] conv1 -> conv1
I0505 17:20:45.133565  8324 net.cpp:144] Setting up conv1
I0505 17:20:45.133579  8324 net.cpp:151] Top shape: 20 64 20 20 (512000)
I0505 17:20:45.133582  8324 net.cpp:159] Memory required for data: 2080240
I0505 17:20:45.133594  8324 layer_factory.hpp:77] Creating layer relu1
I0505 17:20:45.133600  8324 net.cpp:94] Creating Layer relu1
I0505 17:20:45.133604  8324 net.cpp:435] relu1 <- conv1
I0505 17:20:45.133608  8324 net.cpp:396] relu1 -> conv1 (in-place)
I0505 17:20:45.133615  8324 net.cpp:144] Setting up relu1
I0505 17:20:45.133620  8324 net.cpp:151] Top shape: 20 64 20 20 (512000)
I0505 17:20:45.133622  8324 net.cpp:159] Memory required for data: 4128240
I0505 17:20:45.133626  8324 layer_factory.hpp:77] Creating layer pool1
I0505 17:20:45.133632  8324 net.cpp:94] Creating Layer pool1
I0505 17:20:45.133636  8324 net.cpp:435] pool1 <- conv1
I0505 17:20:45.133641  8324 net.cpp:409] pool1 -> pool1
I0505 17:20:45.133692  8324 net.cpp:144] Setting up pool1
I0505 17:20:45.133699  8324 net.cpp:151] Top shape: 20 64 10 10 (128000)
I0505 17:20:45.133702  8324 net.cpp:159] Memory required for data: 4640240
I0505 17:20:45.133705  8324 layer_factory.hpp:77] Creating layer conv2
I0505 17:20:45.133713  8324 net.cpp:94] Creating Layer conv2
I0505 17:20:45.133718  8324 net.cpp:435] conv2 <- pool1
I0505 17:20:45.133723  8324 net.cpp:409] conv2 -> conv2
I0505 17:20:45.141639  8324 net.cpp:144] Setting up conv2
I0505 17:20:45.141656  8324 net.cpp:151] Top shape: 20 128 10 10 (256000)
I0505 17:20:45.141660  8324 net.cpp:159] Memory required for data: 5664240
I0505 17:20:45.141669  8324 layer_factory.hpp:77] Creating layer relu2
I0505 17:20:45.141683  8324 net.cpp:94] Creating Layer relu2
I0505 17:20:45.141687  8324 net.cpp:435] relu2 <- conv2
I0505 17:20:45.141692  8324 net.cpp:396] relu2 -> conv2 (in-place)
I0505 17:20:45.141700  8324 net.cpp:144] Setting up relu2
I0505 17:20:45.141705  8324 net.cpp:151] Top shape: 20 128 10 10 (256000)
I0505 17:20:45.141707  8324 net.cpp:159] Memory required for data: 6688240
I0505 17:20:45.141710  8324 layer_factory.hpp:77] Creating layer conv3
I0505 17:20:45.141718  8324 net.cpp:94] Creating Layer conv3
I0505 17:20:45.141721  8324 net.cpp:435] conv3 <- conv2
I0505 17:20:45.141726  8324 net.cpp:409] conv3 -> conv3
I0505 17:20:45.155921  8324 net.cpp:144] Setting up conv3
I0505 17:20:45.155937  8324 net.cpp:151] Top shape: 20 128 10 10 (256000)
I0505 17:20:45.155941  8324 net.cpp:159] Memory required for data: 7712240
I0505 17:20:45.155951  8324 layer_factory.hpp:77] Creating layer relu3
I0505 17:20:45.155958  8324 net.cpp:94] Creating Layer relu3
I0505 17:20:45.155961  8324 net.cpp:435] relu3 <- conv3
I0505 17:20:45.155966  8324 net.cpp:396] relu3 -> conv3 (in-place)
I0505 17:20:45.155974  8324 net.cpp:144] Setting up relu3
I0505 17:20:45.155978  8324 net.cpp:151] Top shape: 20 128 10 10 (256000)
I0505 17:20:45.155982  8324 net.cpp:159] Memory required for data: 8736240
I0505 17:20:45.155984  8324 layer_factory.hpp:77] Creating layer pool3
I0505 17:20:45.155990  8324 net.cpp:94] Creating Layer pool3
I0505 17:20:45.155993  8324 net.cpp:435] pool3 <- conv3
I0505 17:20:45.155998  8324 net.cpp:409] pool3 -> pool3
I0505 17:20:45.156038  8324 net.cpp:144] Setting up pool3
I0505 17:20:45.156045  8324 net.cpp:151] Top shape: 20 128 5 5 (64000)
I0505 17:20:45.156049  8324 net.cpp:159] Memory required for data: 8992240
I0505 17:20:45.156051  8324 layer_factory.hpp:77] Creating layer ip1
I0505 17:20:45.156059  8324 net.cpp:94] Creating Layer ip1
I0505 17:20:45.156062  8324 net.cpp:435] ip1 <- pool3
I0505 17:20:45.156066  8324 net.cpp:409] ip1 -> ip1
I0505 17:20:45.197974  8324 net.cpp:144] Setting up ip1
I0505 17:20:45.197999  8324 net.cpp:151] Top shape: 20 512 (10240)
I0505 17:20:45.198004  8324 net.cpp:159] Memory required for data: 9033200
I0505 17:20:45.198011  8324 layer_factory.hpp:77] Creating layer ip2
I0505 17:20:45.198020  8324 net.cpp:94] Creating Layer ip2
I0505 17:20:45.198024  8324 net.cpp:435] ip2 <- ip1
I0505 17:20:45.198031  8324 net.cpp:409] ip2 -> ip2
I0505 17:20:45.201361  8324 net.cpp:144] Setting up ip2
I0505 17:20:45.201370  8324 net.cpp:151] Top shape: 20 256 (5120)
I0505 17:20:45.201375  8324 net.cpp:159] Memory required for data: 9053680
I0505 17:20:45.201382  8324 layer_factory.hpp:77] Creating layer ip3
I0505 17:20:45.201388  8324 net.cpp:94] Creating Layer ip3
I0505 17:20:45.201392  8324 net.cpp:435] ip3 <- ip2
I0505 17:20:45.201397  8324 net.cpp:409] ip3 -> ip3
I0505 17:20:45.201848  8324 net.cpp:144] Setting up ip3
I0505 17:20:45.201855  8324 net.cpp:151] Top shape: 20 50 (1000)
I0505 17:20:45.201859  8324 net.cpp:159] Memory required for data: 9057680
I0505 17:20:45.201864  8324 layer_factory.hpp:77] Creating layer ip3_ip3_0_split
I0505 17:20:45.201870  8324 net.cpp:94] Creating Layer ip3_ip3_0_split
I0505 17:20:45.201874  8324 net.cpp:435] ip3_ip3_0_split <- ip3
I0505 17:20:45.201879  8324 net.cpp:409] ip3_ip3_0_split -> ip3_ip3_0_split_0
I0505 17:20:45.201884  8324 net.cpp:409] ip3_ip3_0_split -> ip3_ip3_0_split_1
I0505 17:20:45.201925  8324 net.cpp:144] Setting up ip3_ip3_0_split
I0505 17:20:45.201931  8324 net.cpp:151] Top shape: 20 50 (1000)
I0505 17:20:45.201936  8324 net.cpp:151] Top shape: 20 50 (1000)
I0505 17:20:45.201938  8324 net.cpp:159] Memory required for data: 9065680
I0505 17:20:45.201941  8324 layer_factory.hpp:77] Creating layer accuracy
I0505 17:20:45.201947  8324 net.cpp:94] Creating Layer accuracy
I0505 17:20:45.201951  8324 net.cpp:435] accuracy <- ip3_ip3_0_split_0
I0505 17:20:45.201954  8324 net.cpp:435] accuracy <- label_intercept_1_split_0
I0505 17:20:45.201959  8324 net.cpp:409] accuracy -> accuracy
…
