…
I0501 21:37:26.909886 14908 net.cpp:323] The NetState phase (0) differed from the phase (1) specified by a rule in layer intercept
I0501 21:37:26.909903 14908 net.cpp:323] The NetState phase (0) differed from the phase (1) specified by a rule in layer accuracy
I0501 21:37:26.909996 14908 net.cpp:52] Initializing net from parameters: 
state {
  phase: TRAIN
}
layer {
  name: "parameters"
  type: "HDF5Data"
  top: "data"
  top: "label"
  include {
    phase: TRAIN
  }
  hdf5_data_param {
    source: "/home/purduethu/scratch/radon/d/deng106/CNNStatisticalModel/distributions/input/5_distributions_900_sample_size_train-distributions-path.txt"
    batch_size: 20
  }
}
layer {
  name: "conv1"
  type: "Convolution"
  bottom: "data"
  top: "conv1"
  param {
    lr_mult: 1
  }
  param {
    lr_mult: 2
  }
  convolution_param {
    num_output: 64
    pad: 2
    kernel_size: 5
    stride: 1
    weight_filler {
      type: "gaussian"
      std: 0.0001
    }
    bias_filler {
      type: "constant"
    }
  }
}
layer {
  name: "relu1"
  type: "ReLU"
  bottom: "conv1"
  top: "conv1"
}
layer {
  name: "conv2"
  type: "Convolution"
  bottom: "conv1"
  top: "conv2"
  param {
    lr_mult: 1
  }
  param {
    lr_mult: 2
  }
  convolution_param {
    num_output: 64
    pad: 2
    kernel_size: 5
    stride: 1
    weight_filler {
      type: "gaussian"
      std: 0.01
    }
    bias_filler {
      type: "constant"
    }
  }
}
layer {
  name: "relu2"
  type: "ReLU"
  bottom: "conv2"
  top: "conv2"
}
layer {
  name: "pool2"
  type: "Pooling"
  bottom: "conv2"
  top: "pool2"
  pooling_param {
    pool: MAX
    kernel_size: 3
    stride: 2
  }
}
layer {
  name: "conv3"
  type: "Convolution"
  bottom: "pool2"
  top: "conv3"
  param {
    lr_mult: 1
  }
  param {
    lr_mult: 2
  }
  convolution_param {
    num_output: 64
    pad: 2
    kernel_size: 5
    stride: 1
    weight_filler {
      type: "gaussian"
      std: 0.01
    }
    bias_filler {
      type: "constant"
    }
  }
}
layer {
  name: "relu3"
  type: "ReLU"
  bottom: "conv3"
  top: "conv3"
}
layer {
  name: "conv4"
  type: "Convolution"
  bottom: "conv3"
  top: "conv4"
  param {
    lr_mult: 1
  }
  param {
    lr_mult: 2
  }
  convolution_param {
    num_output: 64
    pad: 2
    kernel_size: 5
    stride: 1
    weight_filler {
      type: "gaussian"
      std: 0.01
    }
    bias_filler {
      type: "constant"
    }
  }
}
layer {
  name: "relu4"
  type: "ReLU"
  bottom: "conv4"
  top: "conv4"
}
layer {
  name: "conv5"
  type: "Convolution"
  bottom: "conv4"
  top: "conv5"
  param {
    lr_mult: 1
  }
  param {
    lr_mult: 2
  }
  convolution_param {
    num_output: 64
    pad: 2
    kernel_size: 5
    stride: 1
    weight_filler {
      type: "gaussian"
      std: 0.01
    }
    bias_filler {
      type: "constant"
    }
  }
}
layer {
  name: "relu5"
  type: "ReLU"
  bottom: "conv5"
  top: "conv5"
}
layer {
  name: "pool5"
  type: "Pooling"
  bottom: "conv5"
  top: "pool5"
  pooling_param {
    pool: AVE
    kernel_size: 3
    stride: 2
  }
}
layer {
  name: "ip1"
  type: "InnerProduct"
  bottom: "pool5"
  top: "ip1"
  param {
    lr_mult: 1
  }
  param {
    lr_mult: 2
  }
  inner_product_param {
    num_output: 64
    weight_filler {
      type: "gaussian"
      std: 0.1
    }
    bias_filler {
      type: "constant"
    }
  }
}
layer {
  name: "ip2"
  type: "InnerProduct"
  bottom: "ip1"
  top: "ip2"
  param {
    lr_mult: 1
  }
  param {
    lr_mult: 2
  }
  inner_product_param {
    num_output: 64
    weight_filler {
      type: "gaussian"
      std: 0.1
    }
    bias_filler {
      type: "constant"
    }
  }
}
layer {
  name: "ip3"
  type: "InnerProduct"
  bottom: "ip2"
  top: "ip3"
  param {
    lr_mult: 1
  }
  param {
    lr_mult: 2
  }
  inner_product_param {
    num_output: 50
    weight_filler {
      type: "gaussian"
      std: 0.1
    }
    bias_filler {
      type: "constant"
    }
  }
}
layer {
  name: "loss"
  type: "SoftmaxWithLoss"
  bottom: "ip3"
  bottom: "label"
  top: "loss"
}
I0501 21:37:26.910074 14908 layer_factory.hpp:77] Creating layer parameters
I0501 21:37:26.910089 14908 net.cpp:94] Creating Layer parameters
I0501 21:37:26.910094 14908 net.cpp:409] parameters -> data
I0501 21:37:26.910115 14908 net.cpp:409] parameters -> label
I0501 21:37:26.910125 14908 hdf5_data_layer.cpp:79] Loading list of HDF5 filenames from: /home/purduethu/scratch/radon/d/deng106/CNNStatisticalModel/distributions/input/5_distributions_900_sample_size_train-distributions-path.txt
I0501 21:37:26.910147 14908 hdf5_data_layer.cpp:93] Number of HDF5 files: 1
I0501 21:37:26.910715 14908 hdf5.cpp:32] Datatype class: H5T_FLOAT
I0501 21:37:27.045737 14908 hdf5.cpp:35] Datatype class: H5T_INTEGER
I0501 21:37:27.046862 14908 net.cpp:144] Setting up parameters
I0501 21:37:27.046880 14908 net.cpp:151] Top shape: 20 1 30 30 (18000)
I0501 21:37:27.046887 14908 net.cpp:151] Top shape: 20 (20)
I0501 21:37:27.046891 14908 net.cpp:159] Memory required for data: 72080
I0501 21:37:27.046898 14908 layer_factory.hpp:77] Creating layer conv1
I0501 21:37:27.046918 14908 net.cpp:94] Creating Layer conv1
I0501 21:37:27.046923 14908 net.cpp:435] conv1 <- data
I0501 21:37:27.046936 14908 net.cpp:409] conv1 -> conv1
I0501 21:37:27.052829 14908 net.cpp:144] Setting up conv1
I0501 21:37:27.052846 14908 net.cpp:151] Top shape: 20 64 30 30 (1152000)
I0501 21:37:27.052850 14908 net.cpp:159] Memory required for data: 4680080
I0501 21:37:27.052862 14908 layer_factory.hpp:77] Creating layer relu1
I0501 21:37:27.052870 14908 net.cpp:94] Creating Layer relu1
I0501 21:37:27.052875 14908 net.cpp:435] relu1 <- conv1
I0501 21:37:27.052881 14908 net.cpp:396] relu1 -> conv1 (in-place)
I0501 21:37:27.052896 14908 net.cpp:144] Setting up relu1
I0501 21:37:27.052901 14908 net.cpp:151] Top shape: 20 64 30 30 (1152000)
I0501 21:37:27.052904 14908 net.cpp:159] Memory required for data: 9288080
I0501 21:37:27.052908 14908 layer_factory.hpp:77] Creating layer conv2
I0501 21:37:27.052917 14908 net.cpp:94] Creating Layer conv2
I0501 21:37:27.052920 14908 net.cpp:435] conv2 <- conv1
I0501 21:37:27.052925 14908 net.cpp:409] conv2 -> conv2
I0501 21:37:27.068439 14908 net.cpp:144] Setting up conv2
I0501 21:37:27.068455 14908 net.cpp:151] Top shape: 20 64 30 30 (1152000)
I0501 21:37:27.068459 14908 net.cpp:159] Memory required for data: 13896080
I0501 21:37:27.068469 14908 layer_factory.hpp:77] Creating layer relu2
I0501 21:37:27.068475 14908 net.cpp:94] Creating Layer relu2
I0501 21:37:27.068480 14908 net.cpp:435] relu2 <- conv2
I0501 21:37:27.068485 14908 net.cpp:396] relu2 -> conv2 (in-place)
I0501 21:37:27.068491 14908 net.cpp:144] Setting up relu2
I0501 21:37:27.068496 14908 net.cpp:151] Top shape: 20 64 30 30 (1152000)
I0501 21:37:27.068500 14908 net.cpp:159] Memory required for data: 18504080
I0501 21:37:27.068503 14908 layer_factory.hpp:77] Creating layer pool2
I0501 21:37:27.068517 14908 net.cpp:94] Creating Layer pool2
I0501 21:37:27.068521 14908 net.cpp:435] pool2 <- conv2
I0501 21:37:27.068526 14908 net.cpp:409] pool2 -> pool2
I0501 21:37:27.068584 14908 net.cpp:144] Setting up pool2
I0501 21:37:27.068595 14908 net.cpp:151] Top shape: 20 64 15 15 (288000)
I0501 21:37:27.068599 14908 net.cpp:159] Memory required for data: 19656080
I0501 21:37:27.068603 14908 layer_factory.hpp:77] Creating layer conv3
I0501 21:37:27.068610 14908 net.cpp:94] Creating Layer conv3
I0501 21:37:27.068614 14908 net.cpp:435] conv3 <- pool2
I0501 21:37:27.068629 14908 net.cpp:409] conv3 -> conv3
I0501 21:37:27.076905 14908 net.cpp:144] Setting up conv3
I0501 21:37:27.076920 14908 net.cpp:151] Top shape: 20 64 15 15 (288000)
I0501 21:37:27.076925 14908 net.cpp:159] Memory required for data: 20808080
I0501 21:37:27.076933 14908 layer_factory.hpp:77] Creating layer relu3
I0501 21:37:27.076939 14908 net.cpp:94] Creating Layer relu3
I0501 21:37:27.076943 14908 net.cpp:435] relu3 <- conv3
I0501 21:37:27.076948 14908 net.cpp:396] relu3 -> conv3 (in-place)
I0501 21:37:27.076956 14908 net.cpp:144] Setting up relu3
I0501 21:37:27.076961 14908 net.cpp:151] Top shape: 20 64 15 15 (288000)
I0501 21:37:27.076963 14908 net.cpp:159] Memory required for data: 21960080
I0501 21:37:27.076967 14908 layer_factory.hpp:77] Creating layer conv4
I0501 21:37:27.076977 14908 net.cpp:94] Creating Layer conv4
I0501 21:37:27.076979 14908 net.cpp:435] conv4 <- conv3
I0501 21:37:27.076985 14908 net.cpp:409] conv4 -> conv4
I0501 21:37:27.084743 14908 net.cpp:144] Setting up conv4
I0501 21:37:27.084760 14908 net.cpp:151] Top shape: 20 64 15 15 (288000)
I0501 21:37:27.084774 14908 net.cpp:159] Memory required for data: 23112080
I0501 21:37:27.084781 14908 layer_factory.hpp:77] Creating layer relu4
I0501 21:37:27.084787 14908 net.cpp:94] Creating Layer relu4
I0501 21:37:27.084791 14908 net.cpp:435] relu4 <- conv4
I0501 21:37:27.084796 14908 net.cpp:396] relu4 -> conv4 (in-place)
I0501 21:37:27.084803 14908 net.cpp:144] Setting up relu4
I0501 21:37:27.084808 14908 net.cpp:151] Top shape: 20 64 15 15 (288000)
I0501 21:37:27.084812 14908 net.cpp:159] Memory required for data: 24264080
I0501 21:37:27.084815 14908 layer_factory.hpp:77] Creating layer conv5
I0501 21:37:27.084823 14908 net.cpp:94] Creating Layer conv5
I0501 21:37:27.084827 14908 net.cpp:435] conv5 <- conv4
I0501 21:37:27.084832 14908 net.cpp:409] conv5 -> conv5
I0501 21:37:27.092229 14908 net.cpp:144] Setting up conv5
I0501 21:37:27.092245 14908 net.cpp:151] Top shape: 20 64 15 15 (288000)
I0501 21:37:27.092250 14908 net.cpp:159] Memory required for data: 25416080
I0501 21:37:27.092259 14908 layer_factory.hpp:77] Creating layer relu5
I0501 21:37:27.092265 14908 net.cpp:94] Creating Layer relu5
I0501 21:37:27.092269 14908 net.cpp:435] relu5 <- conv5
I0501 21:37:27.092274 14908 net.cpp:396] relu5 -> conv5 (in-place)
I0501 21:37:27.092281 14908 net.cpp:144] Setting up relu5
I0501 21:37:27.092286 14908 net.cpp:151] Top shape: 20 64 15 15 (288000)
I0501 21:37:27.092289 14908 net.cpp:159] Memory required for data: 26568080
I0501 21:37:27.092293 14908 layer_factory.hpp:77] Creating layer pool5
I0501 21:37:27.092298 14908 net.cpp:94] Creating Layer pool5
I0501 21:37:27.092303 14908 net.cpp:435] pool5 <- conv5
I0501 21:37:27.092306 14908 net.cpp:409] pool5 -> pool5
I0501 21:37:27.092340 14908 net.cpp:144] Setting up pool5
I0501 21:37:27.092348 14908 net.cpp:151] Top shape: 20 64 7 7 (62720)
I0501 21:37:27.092351 14908 net.cpp:159] Memory required for data: 26818960
I0501 21:37:27.092355 14908 layer_factory.hpp:77] Creating layer ip1
I0501 21:37:27.092365 14908 net.cpp:94] Creating Layer ip1
I0501 21:37:27.092368 14908 net.cpp:435] ip1 <- pool5
I0501 21:37:27.092373 14908 net.cpp:409] ip1 -> ip1
I0501 21:37:27.097998 14908 net.cpp:144] Setting up ip1
I0501 21:37:27.098012 14908 net.cpp:151] Top shape: 20 64 (1280)
I0501 21:37:27.098017 14908 net.cpp:159] Memory required for data: 26824080
I0501 21:37:27.098023 14908 layer_factory.hpp:77] Creating layer ip2
I0501 21:37:27.098034 14908 net.cpp:94] Creating Layer ip2
I0501 21:37:27.098039 14908 net.cpp:435] ip2 <- ip1
I0501 21:37:27.098044 14908 net.cpp:409] ip2 -> ip2
I0501 21:37:27.098218 14908 net.cpp:144] Setting up ip2
I0501 21:37:27.098227 14908 net.cpp:151] Top shape: 20 64 (1280)
I0501 21:37:27.098230 14908 net.cpp:159] Memory required for data: 26829200
I0501 21:37:27.098235 14908 layer_factory.hpp:77] Creating layer ip3
I0501 21:37:27.098242 14908 net.cpp:94] Creating Layer ip3
I0501 21:37:27.098245 14908 net.cpp:435] ip3 <- ip2
I0501 21:37:27.098250 14908 net.cpp:409] ip3 -> ip3
I0501 21:37:27.098402 14908 net.cpp:144] Setting up ip3
I0501 21:37:27.098409 14908 net.cpp:151] Top shape: 20 50 (1000)
I0501 21:37:27.098413 14908 net.cpp:159] Memory required for data: 26833200
I0501 21:37:27.098418 14908 layer_factory.hpp:77] Creating layer loss
I0501 21:37:27.098425 14908 net.cpp:94] Creating Layer loss
I0501 21:37:27.098429 14908 net.cpp:435] loss <- ip3
I0501 21:37:27.098433 14908 net.cpp:435] loss <- label
I0501 21:37:27.098438 14908 net.cpp:409] loss -> loss
I0501 21:37:27.098448 14908 layer_factory.hpp:77] Creating layer loss
…
I0501 21:37:27.098955 14908 solver.cpp:181] Creating test net (#0) specified by net file: ./protocol/dis_5_900_dimension.protocol_distribution
I0501 21:37:27.098983 14908 net.cpp:323] The NetState phase (1) differed from the phase (0) specified by a rule in layer parameters
I0501 21:37:27.099084 14908 net.cpp:52] Initializing net from parameters: 
state {
  phase: TEST
}
layer {
  name: "intercept"
  type: "HDF5Data"
  top: "data"
  top: "label"
  include {
    phase: TEST
  }
  hdf5_data_param {
    source: "/home/purduethu/scratch/radon/d/deng106/CNNStatisticalModel/distributions/input/5_distributions_900_sample_size_test-distributions-path.txt"
    batch_size: 20
  }
}
layer {
  name: "conv1"
  type: "Convolution"
  bottom: "data"
  top: "conv1"
  param {
    lr_mult: 1
  }
  param {
    lr_mult: 2
  }
  convolution_param {
    num_output: 64
    pad: 2
    kernel_size: 5
    stride: 1
    weight_filler {
      type: "gaussian"
      std: 0.0001
    }
    bias_filler {
      type: "constant"
    }
  }
}
layer {
  name: "relu1"
  type: "ReLU"
  bottom: "conv1"
  top: "conv1"
}
layer {
  name: "conv2"
  type: "Convolution"
  bottom: "conv1"
  top: "conv2"
  param {
    lr_mult: 1
  }
  param {
    lr_mult: 2
  }
  convolution_param {
    num_output: 64
    pad: 2
    kernel_size: 5
    stride: 1
    weight_filler {
      type: "gaussian"
      std: 0.01
    }
    bias_filler {
      type: "constant"
    }
  }
}
layer {
  name: "relu2"
  type: "ReLU"
  bottom: "conv2"
  top: "conv2"
}
layer {
  name: "pool2"
  type: "Pooling"
  bottom: "conv2"
  top: "pool2"
  pooling_param {
    pool: MAX
    kernel_size: 3
    stride: 2
  }
}
layer {
  name: "conv3"
  type: "Convolution"
  bottom: "pool2"
  top: "conv3"
  param {
    lr_mult: 1
  }
  param {
    lr_mult: 2
  }
  convolution_param {
    num_output: 64
    pad: 2
    kernel_size: 5
    stride: 1
    weight_filler {
      type: "gaussian"
      std: 0.01
    }
    bias_filler {
      type: "constant"
    }
  }
}
layer {
  name: "relu3"
  type: "ReLU"
  bottom: "conv3"
  top: "conv3"
}
layer {
  name: "conv4"
  type: "Convolution"
  bottom: "conv3"
  top: "conv4"
  param {
    lr_mult: 1
  }
  param {
    lr_mult: 2
  }
  convolution_param {
    num_output: 64
    pad: 2
    kernel_size: 5
    stride: 1
    weight_filler {
      type: "gaussian"
      std: 0.01
    }
    bias_filler {
      type: "constant"
    }
  }
}
layer {
  name: "relu4"
  type: "ReLU"
  bottom: "conv4"
  top: "conv4"
}
layer {
  name: "conv5"
  type: "Convolution"
  bottom: "conv4"
  top: "conv5"
  param {
    lr_mult: 1
  }
  param {
    lr_mult: 2
  }
  convolution_param {
    num_output: 64
    pad: 2
    kernel_size: 5
    stride: 1
    weight_filler {
      type: "gaussian"
      std: 0.01
    }
    bias_filler {
      type: "constant"
    }
  }
}
layer {
  name: "relu5"
  type: "ReLU"
  bottom: "conv5"
  top: "conv5"
}
layer {
  name: "pool5"
  type: "Pooling"
  bottom: "conv5"
  top: "pool5"
  pooling_param {
    pool: AVE
    kernel_size: 3
    stride: 2
  }
}
layer {
  name: "ip1"
  type: "InnerProduct"
  bottom: "pool5"
  top: "ip1"
  param {
    lr_mult: 1
  }
  param {
    lr_mult: 2
  }
  inner_product_param {
    num_output: 64
    weight_filler {
      type: "gaussian"
      std: 0.1
    }
    bias_filler {
      type: "constant"
    }
  }
}
layer {
  name: "ip2"
  type: "InnerProduct"
  bottom: "ip1"
  top: "ip2"
  param {
    lr_mult: 1
  }
  param {
    lr_mult: 2
  }
  inner_product_param {
    num_output: 64
    weight_filler {
      type: "gaussian"
      std: 0.1
    }
    bias_filler {
      type: "constant"
    }
  }
}
layer {
  name: "ip3"
  type: "InnerProduct"
  bottom: "ip2"
  top: "ip3"
  param {
    lr_mult: 1
  }
  param {
    lr_mult: 2
  }
  inner_product_param {
    num_output: 50
    weight_filler {
      type: "gaussian"
      std: 0.1
    }
    bias_filler {
      type: "constant"
    }
  }
}
layer {
  name: "accuracy"
  type: "Accuracy"
  bottom: "ip3"
  bottom: "label"
  top: "accuracy"
  include {
    phase: TEST
  }
}
layer {
  name: "loss"
  type: "SoftmaxWithLoss"
  bottom: "ip3"
  bottom: "label"
  top: "loss"
}
I0501 21:37:27.099156 14908 layer_factory.hpp:77] Creating layer intercept
I0501 21:37:27.099165 14908 net.cpp:94] Creating Layer intercept
I0501 21:37:27.099170 14908 net.cpp:409] intercept -> data
I0501 21:37:27.099177 14908 net.cpp:409] intercept -> label
I0501 21:37:27.099184 14908 hdf5_data_layer.cpp:79] Loading list of HDF5 filenames from: /home/purduethu/scratch/radon/d/deng106/CNNStatisticalModel/distributions/input/5_distributions_900_sample_size_test-distributions-path.txt
I0501 21:37:27.099202 14908 hdf5_data_layer.cpp:93] Number of HDF5 files: 1
I0501 21:37:27.134395 14908 net.cpp:144] Setting up intercept
I0501 21:37:27.134425 14908 net.cpp:151] Top shape: 20 1 30 30 (18000)
I0501 21:37:27.134431 14908 net.cpp:151] Top shape: 20 (20)
I0501 21:37:27.134434 14908 net.cpp:159] Memory required for data: 72080
I0501 21:37:27.134441 14908 layer_factory.hpp:77] Creating layer label_intercept_1_split
I0501 21:37:27.134457 14908 net.cpp:94] Creating Layer label_intercept_1_split
I0501 21:37:27.134462 14908 net.cpp:435] label_intercept_1_split <- label
I0501 21:37:27.134469 14908 net.cpp:409] label_intercept_1_split -> label_intercept_1_split_0
I0501 21:37:27.134477 14908 net.cpp:409] label_intercept_1_split -> label_intercept_1_split_1
I0501 21:37:27.134511 14908 net.cpp:144] Setting up label_intercept_1_split
I0501 21:37:27.134519 14908 net.cpp:151] Top shape: 20 (20)
I0501 21:37:27.134523 14908 net.cpp:151] Top shape: 20 (20)
I0501 21:37:27.134526 14908 net.cpp:159] Memory required for data: 72240
I0501 21:37:27.134531 14908 layer_factory.hpp:77] Creating layer conv1
I0501 21:37:27.134542 14908 net.cpp:94] Creating Layer conv1
I0501 21:37:27.134546 14908 net.cpp:435] conv1 <- data
I0501 21:37:27.134552 14908 net.cpp:409] conv1 -> conv1
I0501 21:37:27.135743 14908 net.cpp:144] Setting up conv1
I0501 21:37:27.135766 14908 net.cpp:151] Top shape: 20 64 30 30 (1152000)
I0501 21:37:27.135771 14908 net.cpp:159] Memory required for data: 4680240
I0501 21:37:27.135779 14908 layer_factory.hpp:77] Creating layer relu1
I0501 21:37:27.135787 14908 net.cpp:94] Creating Layer relu1
I0501 21:37:27.135790 14908 net.cpp:435] relu1 <- conv1
I0501 21:37:27.135794 14908 net.cpp:396] relu1 -> conv1 (in-place)
I0501 21:37:27.135802 14908 net.cpp:144] Setting up relu1
I0501 21:37:27.135807 14908 net.cpp:151] Top shape: 20 64 30 30 (1152000)
I0501 21:37:27.135810 14908 net.cpp:159] Memory required for data: 9288240
I0501 21:37:27.135814 14908 layer_factory.hpp:77] Creating layer conv2
I0501 21:37:27.135823 14908 net.cpp:94] Creating Layer conv2
I0501 21:37:27.135826 14908 net.cpp:435] conv2 <- conv1
I0501 21:37:27.135831 14908 net.cpp:409] conv2 -> conv2
I0501 21:37:27.142201 14908 net.cpp:144] Setting up conv2
I0501 21:37:27.142217 14908 net.cpp:151] Top shape: 20 64 30 30 (1152000)
I0501 21:37:27.142221 14908 net.cpp:159] Memory required for data: 13896240
I0501 21:37:27.142230 14908 layer_factory.hpp:77] Creating layer relu2
I0501 21:37:27.142236 14908 net.cpp:94] Creating Layer relu2
I0501 21:37:27.142241 14908 net.cpp:435] relu2 <- conv2
I0501 21:37:27.142244 14908 net.cpp:396] relu2 -> conv2 (in-place)
I0501 21:37:27.142252 14908 net.cpp:144] Setting up relu2
I0501 21:37:27.142257 14908 net.cpp:151] Top shape: 20 64 30 30 (1152000)
I0501 21:37:27.142261 14908 net.cpp:159] Memory required for data: 18504240
I0501 21:37:27.142263 14908 layer_factory.hpp:77] Creating layer pool2
I0501 21:37:27.142269 14908 net.cpp:94] Creating Layer pool2
I0501 21:37:27.142273 14908 net.cpp:435] pool2 <- conv2
I0501 21:37:27.142277 14908 net.cpp:409] pool2 -> pool2
I0501 21:37:27.142313 14908 net.cpp:144] Setting up pool2
I0501 21:37:27.142319 14908 net.cpp:151] Top shape: 20 64 15 15 (288000)
I0501 21:37:27.142323 14908 net.cpp:159] Memory required for data: 19656240
I0501 21:37:27.142326 14908 layer_factory.hpp:77] Creating layer conv3
I0501 21:37:27.142334 14908 net.cpp:94] Creating Layer conv3
I0501 21:37:27.142338 14908 net.cpp:435] conv3 <- pool2
I0501 21:37:27.142343 14908 net.cpp:409] conv3 -> conv3
I0501 21:37:27.147326 14908 net.cpp:144] Setting up conv3
I0501 21:37:27.147342 14908 net.cpp:151] Top shape: 20 64 15 15 (288000)
I0501 21:37:27.147346 14908 net.cpp:159] Memory required for data: 20808240
I0501 21:37:27.147356 14908 layer_factory.hpp:77] Creating layer relu3
I0501 21:37:27.147362 14908 net.cpp:94] Creating Layer relu3
I0501 21:37:27.147367 14908 net.cpp:435] relu3 <- conv3
I0501 21:37:27.147372 14908 net.cpp:396] relu3 -> conv3 (in-place)
I0501 21:37:27.147378 14908 net.cpp:144] Setting up relu3
I0501 21:37:27.147383 14908 net.cpp:151] Top shape: 20 64 15 15 (288000)
I0501 21:37:27.147387 14908 net.cpp:159] Memory required for data: 21960240
I0501 21:37:27.147390 14908 layer_factory.hpp:77] Creating layer conv4
I0501 21:37:27.147398 14908 net.cpp:94] Creating Layer conv4
I0501 21:37:27.147402 14908 net.cpp:435] conv4 <- conv3
I0501 21:37:27.147406 14908 net.cpp:409] conv4 -> conv4
I0501 21:37:27.151952 14908 net.cpp:144] Setting up conv4
I0501 21:37:27.151968 14908 net.cpp:151] Top shape: 20 64 15 15 (288000)
I0501 21:37:27.151971 14908 net.cpp:159] Memory required for data: 23112240
I0501 21:37:27.151978 14908 layer_factory.hpp:77] Creating layer relu4
I0501 21:37:27.151983 14908 net.cpp:94] Creating Layer relu4
I0501 21:37:27.151991 14908 net.cpp:435] relu4 <- conv4
I0501 21:37:27.151996 14908 net.cpp:396] relu4 -> conv4 (in-place)
I0501 21:37:27.152004 14908 net.cpp:144] Setting up relu4
I0501 21:37:27.152009 14908 net.cpp:151] Top shape: 20 64 15 15 (288000)
I0501 21:37:27.152012 14908 net.cpp:159] Memory required for data: 24264240
I0501 21:37:27.152015 14908 layer_factory.hpp:77] Creating layer conv5
I0501 21:37:27.152024 14908 net.cpp:94] Creating Layer conv5
I0501 21:37:27.152026 14908 net.cpp:435] conv5 <- conv4
I0501 21:37:27.152031 14908 net.cpp:409] conv5 -> conv5
I0501 21:37:27.156599 14908 net.cpp:144] Setting up conv5
I0501 21:37:27.156615 14908 net.cpp:151] Top shape: 20 64 15 15 (288000)
I0501 21:37:27.156620 14908 net.cpp:159] Memory required for data: 25416240
I0501 21:37:27.156627 14908 layer_factory.hpp:77] Creating layer relu5
I0501 21:37:27.156633 14908 net.cpp:94] Creating Layer relu5
I0501 21:37:27.156637 14908 net.cpp:435] relu5 <- conv5
I0501 21:37:27.156642 14908 net.cpp:396] relu5 -> conv5 (in-place)
I0501 21:37:27.156649 14908 net.cpp:144] Setting up relu5
I0501 21:37:27.156654 14908 net.cpp:151] Top shape: 20 64 15 15 (288000)
I0501 21:37:27.156657 14908 net.cpp:159] Memory required for data: 26568240
I0501 21:37:27.156661 14908 layer_factory.hpp:77] Creating layer pool5
I0501 21:37:27.156666 14908 net.cpp:94] Creating Layer pool5
I0501 21:37:27.156669 14908 net.cpp:435] pool5 <- conv5
I0501 21:37:27.156673 14908 net.cpp:409] pool5 -> pool5
I0501 21:37:27.156699 14908 net.cpp:144] Setting up pool5
I0501 21:37:27.156707 14908 net.cpp:151] Top shape: 20 64 7 7 (62720)
I0501 21:37:27.156709 14908 net.cpp:159] Memory required for data: 26819120
I0501 21:37:27.156713 14908 layer_factory.hpp:77] Creating layer ip1
I0501 21:37:27.156719 14908 net.cpp:94] Creating Layer ip1
I0501 21:37:27.156723 14908 net.cpp:435] ip1 <- pool5
I0501 21:37:27.156728 14908 net.cpp:409] ip1 -> ip1
I0501 21:37:27.162343 14908 net.cpp:144] Setting up ip1
I0501 21:37:27.162358 14908 net.cpp:151] Top shape: 20 64 (1280)
I0501 21:37:27.162361 14908 net.cpp:159] Memory required for data: 26824240
I0501 21:37:27.162367 14908 layer_factory.hpp:77] Creating layer ip2
I0501 21:37:27.162374 14908 net.cpp:94] Creating Layer ip2
I0501 21:37:27.162379 14908 net.cpp:435] ip2 <- ip1
I0501 21:37:27.162384 14908 net.cpp:409] ip2 -> ip2
I0501 21:37:27.162559 14908 net.cpp:144] Setting up ip2
I0501 21:37:27.162565 14908 net.cpp:151] Top shape: 20 64 (1280)
I0501 21:37:27.162569 14908 net.cpp:159] Memory required for data: 26829360
I0501 21:37:27.162575 14908 layer_factory.hpp:77] Creating layer ip3
I0501 21:37:27.162581 14908 net.cpp:94] Creating Layer ip3
I0501 21:37:27.162585 14908 net.cpp:435] ip3 <- ip2
I0501 21:37:27.162590 14908 net.cpp:409] ip3 -> ip3
I0501 21:37:27.162739 14908 net.cpp:144] Setting up ip3
I0501 21:37:27.162745 14908 net.cpp:151] Top shape: 20 50 (1000)
I0501 21:37:27.162748 14908 net.cpp:159] Memory required for data: 26833360
I0501 21:37:27.162753 14908 layer_factory.hpp:77] Creating layer ip3_ip3_0_split
I0501 21:37:27.162758 14908 net.cpp:94] Creating Layer ip3_ip3_0_split
I0501 21:37:27.162762 14908 net.cpp:435] ip3_ip3_0_split <- ip3
I0501 21:37:27.162766 14908 net.cpp:409] ip3_ip3_0_split -> ip3_ip3_0_split_0
I0501 21:37:27.162771 14908 net.cpp:409] ip3_ip3_0_split -> ip3_ip3_0_split_1
I0501 21:37:27.162796 14908 net.cpp:144] Setting up ip3_ip3_0_split
I0501 21:37:27.162802 14908 net.cpp:151] Top shape: 20 50 (1000)
I0501 21:37:27.162806 14908 net.cpp:151] Top shape: 20 50 (1000)
I0501 21:37:27.162809 14908 net.cpp:159] Memory required for data: 26841360
I0501 21:37:27.162813 14908 layer_factory.hpp:77] Creating layer accuracy
I0501 21:37:27.162822 14908 net.cpp:94] Creating Layer accuracy
I0501 21:37:27.162827 14908 net.cpp:435] accuracy <- ip3_ip3_0_split_0
I0501 21:37:27.162830 14908 net.cpp:435] accuracy <- label_intercept_1_split_0
I0501 21:37:27.162835 14908 net.cpp:409] accuracy -> accuracy
…
