…
I0505 04:47:24.869374  3387 net.cpp:323] The NetState phase (0) differed from the phase (1) specified by a rule in layer intercept
I0505 04:47:24.869388  3387 net.cpp:323] The NetState phase (0) differed from the phase (1) specified by a rule in layer accuracy
I0505 04:47:24.869467  3387 net.cpp:52] Initializing net from parameters: 
state {
  phase: TRAIN
}
layer {
  name: "parameters"
  type: "HDF5Data"
  top: "data"
  top: "label"
  include {
    phase: TRAIN
  }
  hdf5_data_param {
    source: "/home/purduethu/scratch/radon/d/deng106/CNNStatisticalModel/distributions/input/50_distributions_400_sample_size_train-distributions-path.txt"
    batch_size: 20
  }
}
layer {
  name: "conv1"
  type: "Convolution"
  bottom: "data"
  top: "conv1"
  param {
    lr_mult: 1
  }
  param {
    lr_mult: 2
  }
  convolution_param {
    num_output: 64
    pad: 2
    kernel_size: 5
    stride: 1
    weight_filler {
      type: "gaussian"
      std: 0.0001
    }
    bias_filler {
      type: "constant"
    }
  }
}
layer {
  name: "relu1"
  type: "ReLU"
  bottom: "conv1"
  top: "conv1"
}
layer {
  name: "pool1"
  type: "Pooling"
  bottom: "conv1"
  top: "pool1"
  pooling_param {
    pool: MAX
    kernel_size: 3
    stride: 2
  }
}
layer {
  name: "conv2"
  type: "Convolution"
  bottom: "pool1"
  top: "conv2"
  param {
    lr_mult: 1
  }
  param {
    lr_mult: 2
  }
  convolution_param {
    num_output: 128
    pad: 2
    kernel_size: 5
    stride: 1
    weight_filler {
      type: "gaussian"
      std: 0.01
    }
    bias_filler {
      type: "constant"
    }
  }
}
layer {
  name: "relu2"
  type: "ReLU"
  bottom: "conv2"
  top: "conv2"
}
layer {
  name: "conv3"
  type: "Convolution"
  bottom: "conv2"
  top: "conv3"
  param {
    lr_mult: 1
  }
  param {
    lr_mult: 2
  }
  convolution_param {
    num_output: 128
    pad: 2
    kernel_size: 5
    stride: 1
    weight_filler {
      type: "gaussian"
      std: 0.01
    }
    bias_filler {
      type: "constant"
    }
  }
}
layer {
  name: "relu3"
  type: "ReLU"
  bottom: "conv3"
  top: "conv3"
}
layer {
  name: "pool3"
  type: "Pooling"
  bottom: "conv3"
  top: "pool3"
  pooling_param {
    pool: AVE
    kernel_size: 3
    stride: 2
  }
}
layer {
  name: "ip1"
  type: "InnerProduct"
  bottom: "pool3"
  top: "ip1"
  param {
    lr_mult: 1
  }
  param {
    lr_mult: 2
  }
  inner_product_param {
    num_output: 512
    weight_filler {
      type: "gaussian"
      std: 0.1
    }
    bias_filler {
      type: "constant"
    }
  }
}
layer {
  name: "ip2"
  type: "InnerProduct"
  bottom: "ip1"
  top: "ip2"
  param {
    lr_mult: 1
  }
  param {
    lr_mult: 2
  }
  inner_product_param {
    num_output: 256
    weight_filler {
      type: "gaussian"
      std: 0.1
    }
    bias_filler {
      type: "constant"
    }
  }
}
layer {
  name: "ip3"
  type: "InnerProduct"
  bottom: "ip2"
  top: "ip3"
  param {
    lr_mult: 1
  }
  param {
    lr_mult: 2
  }
  inner_product_param {
    num_output: 50
    weight_filler {
      type: "gaussian"
      std: 0.1
    }
    bias_filler {
      type: "constant"
    }
  }
}
layer {
  name: "loss"
  type: "SoftmaxWithLoss"
  bottom: "ip3"
  bottom: "label"
  top: "loss"
}
I0505 04:47:24.869529  3387 layer_factory.hpp:77] Creating layer parameters
I0505 04:47:24.869544  3387 net.cpp:94] Creating Layer parameters
I0505 04:47:24.869555  3387 net.cpp:409] parameters -> data
I0505 04:47:24.869576  3387 net.cpp:409] parameters -> label
I0505 04:47:24.869586  3387 hdf5_data_layer.cpp:79] Loading list of HDF5 filenames from: /home/purduethu/scratch/radon/d/deng106/CNNStatisticalModel/distributions/input/50_distributions_400_sample_size_train-distributions-path.txt
I0505 04:47:24.869609  3387 hdf5_data_layer.cpp:93] Number of HDF5 files: 1
I0505 04:47:24.870085  3387 hdf5.cpp:32] Datatype class: H5T_FLOAT
I0505 04:47:25.513890  3387 hdf5.cpp:35] Datatype class: H5T_INTEGER
I0505 04:47:25.516300  3387 net.cpp:144] Setting up parameters
I0505 04:47:25.516319  3387 net.cpp:151] Top shape: 20 1 20 20 (8000)
I0505 04:47:25.516325  3387 net.cpp:151] Top shape: 20 (20)
I0505 04:47:25.516329  3387 net.cpp:159] Memory required for data: 32080
I0505 04:47:25.516335  3387 layer_factory.hpp:77] Creating layer conv1
I0505 04:47:25.516358  3387 net.cpp:94] Creating Layer conv1
I0505 04:47:25.516365  3387 net.cpp:435] conv1 <- data
I0505 04:47:25.516376  3387 net.cpp:409] conv1 -> conv1
I0505 04:47:25.521211  3387 net.cpp:144] Setting up conv1
I0505 04:47:25.521226  3387 net.cpp:151] Top shape: 20 64 20 20 (512000)
I0505 04:47:25.521231  3387 net.cpp:159] Memory required for data: 2080080
I0505 04:47:25.521242  3387 layer_factory.hpp:77] Creating layer relu1
I0505 04:47:25.521251  3387 net.cpp:94] Creating Layer relu1
I0505 04:47:25.521255  3387 net.cpp:435] relu1 <- conv1
I0505 04:47:25.521260  3387 net.cpp:396] relu1 -> conv1 (in-place)
I0505 04:47:25.521277  3387 net.cpp:144] Setting up relu1
I0505 04:47:25.521282  3387 net.cpp:151] Top shape: 20 64 20 20 (512000)
I0505 04:47:25.521286  3387 net.cpp:159] Memory required for data: 4128080
I0505 04:47:25.521289  3387 layer_factory.hpp:77] Creating layer pool1
I0505 04:47:25.521296  3387 net.cpp:94] Creating Layer pool1
I0505 04:47:25.521301  3387 net.cpp:435] pool1 <- conv1
I0505 04:47:25.521306  3387 net.cpp:409] pool1 -> pool1
I0505 04:47:25.521347  3387 net.cpp:144] Setting up pool1
I0505 04:47:25.521353  3387 net.cpp:151] Top shape: 20 64 10 10 (128000)
I0505 04:47:25.521356  3387 net.cpp:159] Memory required for data: 4640080
I0505 04:47:25.521360  3387 layer_factory.hpp:77] Creating layer conv2
I0505 04:47:25.521368  3387 net.cpp:94] Creating Layer conv2
I0505 04:47:25.521373  3387 net.cpp:435] conv2 <- pool1
I0505 04:47:25.521378  3387 net.cpp:409] conv2 -> conv2
I0505 04:47:25.531383  3387 net.cpp:144] Setting up conv2
I0505 04:47:25.531399  3387 net.cpp:151] Top shape: 20 128 10 10 (256000)
I0505 04:47:25.531402  3387 net.cpp:159] Memory required for data: 5664080
I0505 04:47:25.531410  3387 layer_factory.hpp:77] Creating layer relu2
I0505 04:47:25.531416  3387 net.cpp:94] Creating Layer relu2
I0505 04:47:25.531421  3387 net.cpp:435] relu2 <- conv2
I0505 04:47:25.531426  3387 net.cpp:396] relu2 -> conv2 (in-place)
I0505 04:47:25.531433  3387 net.cpp:144] Setting up relu2
I0505 04:47:25.531438  3387 net.cpp:151] Top shape: 20 128 10 10 (256000)
I0505 04:47:25.531441  3387 net.cpp:159] Memory required for data: 6688080
I0505 04:47:25.531445  3387 layer_factory.hpp:77] Creating layer conv3
I0505 04:47:25.531452  3387 net.cpp:94] Creating Layer conv3
I0505 04:47:25.531456  3387 net.cpp:435] conv3 <- conv2
I0505 04:47:25.531461  3387 net.cpp:409] conv3 -> conv3
I0505 04:47:25.548434  3387 net.cpp:144] Setting up conv3
I0505 04:47:25.548450  3387 net.cpp:151] Top shape: 20 128 10 10 (256000)
I0505 04:47:25.548455  3387 net.cpp:159] Memory required for data: 7712080
I0505 04:47:25.548470  3387 layer_factory.hpp:77] Creating layer relu3
I0505 04:47:25.548477  3387 net.cpp:94] Creating Layer relu3
I0505 04:47:25.548481  3387 net.cpp:435] relu3 <- conv3
I0505 04:47:25.548486  3387 net.cpp:396] relu3 -> conv3 (in-place)
I0505 04:47:25.548493  3387 net.cpp:144] Setting up relu3
I0505 04:47:25.548498  3387 net.cpp:151] Top shape: 20 128 10 10 (256000)
I0505 04:47:25.548501  3387 net.cpp:159] Memory required for data: 8736080
I0505 04:47:25.548504  3387 layer_factory.hpp:77] Creating layer pool3
I0505 04:47:25.548511  3387 net.cpp:94] Creating Layer pool3
I0505 04:47:25.548521  3387 net.cpp:435] pool3 <- conv3
I0505 04:47:25.548526  3387 net.cpp:409] pool3 -> pool3
I0505 04:47:25.548568  3387 net.cpp:144] Setting up pool3
I0505 04:47:25.548576  3387 net.cpp:151] Top shape: 20 128 5 5 (64000)
I0505 04:47:25.548579  3387 net.cpp:159] Memory required for data: 8992080
I0505 04:47:25.548583  3387 layer_factory.hpp:77] Creating layer ip1
I0505 04:47:25.548593  3387 net.cpp:94] Creating Layer ip1
I0505 04:47:25.548596  3387 net.cpp:435] ip1 <- pool3
I0505 04:47:25.548601  3387 net.cpp:409] ip1 -> ip1
I0505 04:47:25.588083  3387 net.cpp:144] Setting up ip1
I0505 04:47:25.588099  3387 net.cpp:151] Top shape: 20 512 (10240)
I0505 04:47:25.588104  3387 net.cpp:159] Memory required for data: 9033040
I0505 04:47:25.588110  3387 layer_factory.hpp:77] Creating layer ip2
I0505 04:47:25.588117  3387 net.cpp:94] Creating Layer ip2
I0505 04:47:25.588121  3387 net.cpp:435] ip2 <- ip1
I0505 04:47:25.588126  3387 net.cpp:409] ip2 -> ip2
I0505 04:47:25.591212  3387 net.cpp:144] Setting up ip2
I0505 04:47:25.591222  3387 net.cpp:151] Top shape: 20 256 (5120)
I0505 04:47:25.591225  3387 net.cpp:159] Memory required for data: 9053520
I0505 04:47:25.591233  3387 layer_factory.hpp:77] Creating layer ip3
I0505 04:47:25.591238  3387 net.cpp:94] Creating Layer ip3
I0505 04:47:25.591241  3387 net.cpp:435] ip3 <- ip2
I0505 04:47:25.591245  3387 net.cpp:409] ip3 -> ip3
I0505 04:47:25.592233  3387 net.cpp:144] Setting up ip3
I0505 04:47:25.592245  3387 net.cpp:151] Top shape: 20 50 (1000)
I0505 04:47:25.592249  3387 net.cpp:159] Memory required for data: 9057520
I0505 04:47:25.592255  3387 layer_factory.hpp:77] Creating layer loss
I0505 04:47:25.592260  3387 net.cpp:94] Creating Layer loss
I0505 04:47:25.592264  3387 net.cpp:435] loss <- ip3
I0505 04:47:25.592268  3387 net.cpp:435] loss <- label
I0505 04:47:25.592274  3387 net.cpp:409] loss -> loss
I0505 04:47:25.592288  3387 layer_factory.hpp:77] Creating layer loss
…
I0505 04:47:25.592722  3387 solver.cpp:181] Creating test net (#0) specified by net file: ./protocol/dis_50_400_dimension.protocol_distribution
I0505 04:47:25.592747  3387 net.cpp:323] The NetState phase (1) differed from the phase (0) specified by a rule in layer parameters
I0505 04:47:25.592835  3387 net.cpp:52] Initializing net from parameters: 
state {
  phase: TEST
}
layer {
  name: "intercept"
  type: "HDF5Data"
  top: "data"
  top: "label"
  include {
    phase: TEST
  }
  hdf5_data_param {
    source: "/home/purduethu/scratch/radon/d/deng106/CNNStatisticalModel/distributions/input/50_distributions_400_sample_size_test-distributions-path.txt"
    batch_size: 20
  }
}
layer {
  name: "conv1"
  type: "Convolution"
  bottom: "data"
  top: "conv1"
  param {
    lr_mult: 1
  }
  param {
    lr_mult: 2
  }
  convolution_param {
    num_output: 64
    pad: 2
    kernel_size: 5
    stride: 1
    weight_filler {
      type: "gaussian"
      std: 0.0001
    }
    bias_filler {
      type: "constant"
    }
  }
}
layer {
  name: "relu1"
  type: "ReLU"
  bottom: "conv1"
  top: "conv1"
}
layer {
  name: "pool1"
  type: "Pooling"
  bottom: "conv1"
  top: "pool1"
  pooling_param {
    pool: MAX
    kernel_size: 3
    stride: 2
  }
}
layer {
  name: "conv2"
  type: "Convolution"
  bottom: "pool1"
  top: "conv2"
  param {
    lr_mult: 1
  }
  param {
    lr_mult: 2
  }
  convolution_param {
    num_output: 128
    pad: 2
    kernel_size: 5
    stride: 1
    weight_filler {
      type: "gaussian"
      std: 0.01
    }
    bias_filler {
      type: "constant"
    }
  }
}
layer {
  name: "relu2"
  type: "ReLU"
  bottom: "conv2"
  top: "conv2"
}
layer {
  name: "conv3"
  type: "Convolution"
  bottom: "conv2"
  top: "conv3"
  param {
    lr_mult: 1
  }
  param {
    lr_mult: 2
  }
  convolution_param {
    num_output: 128
    pad: 2
    kernel_size: 5
    stride: 1
    weight_filler {
      type: "gaussian"
      std: 0.01
    }
    bias_filler {
      type: "constant"
    }
  }
}
layer {
  name: "relu3"
  type: "ReLU"
  bottom: "conv3"
  top: "conv3"
}
layer {
  name: "pool3"
  type: "Pooling"
  bottom: "conv3"
  top: "pool3"
  pooling_param {
    pool: AVE
    kernel_size: 3
    stride: 2
  }
}
layer {
  name: "ip1"
  type: "InnerProduct"
  bottom: "pool3"
  top: "ip1"
  param {
    lr_mult: 1
  }
  param {
    lr_mult: 2
  }
  inner_product_param {
    num_output: 512
    weight_filler {
      type: "gaussian"
      std: 0.1
    }
    bias_filler {
      type: "constant"
    }
  }
}
layer {
  name: "ip2"
  type: "InnerProduct"
  bottom: "ip1"
  top: "ip2"
  param {
    lr_mult: 1
  }
  param {
    lr_mult: 2
  }
  inner_product_param {
    num_output: 256
    weight_filler {
      type: "gaussian"
      std: 0.1
    }
    bias_filler {
      type: "constant"
    }
  }
}
layer {
  name: "ip3"
  type: "InnerProduct"
  bottom: "ip2"
  top: "ip3"
  param {
    lr_mult: 1
  }
  param {
    lr_mult: 2
  }
  inner_product_param {
    num_output: 50
    weight_filler {
      type: "gaussian"
      std: 0.1
    }
    bias_filler {
      type: "constant"
    }
  }
}
layer {
  name: "accuracy"
  type: "Accuracy"
  bottom: "ip3"
  bottom: "label"
  top: "accuracy"
  include {
    phase: TEST
  }
}
layer {
  name: "loss"
  type: "SoftmaxWithLoss"
  bottom: "ip3"
  bottom: "label"
  top: "loss"
}
I0505 04:47:25.592907  3387 layer_factory.hpp:77] Creating layer intercept
I0505 04:47:25.592916  3387 net.cpp:94] Creating Layer intercept
I0505 04:47:25.592919  3387 net.cpp:409] intercept -> data
I0505 04:47:25.592926  3387 net.cpp:409] intercept -> label
I0505 04:47:25.592931  3387 hdf5_data_layer.cpp:79] Loading list of HDF5 filenames from: /home/purduethu/scratch/radon/d/deng106/CNNStatisticalModel/distributions/input/50_distributions_400_sample_size_test-distributions-path.txt
I0505 04:47:25.592950  3387 hdf5_data_layer.cpp:93] Number of HDF5 files: 1
I0505 04:47:25.751947  3387 net.cpp:144] Setting up intercept
I0505 04:47:25.751981  3387 net.cpp:151] Top shape: 20 1 20 20 (8000)
I0505 04:47:25.751986  3387 net.cpp:151] Top shape: 20 (20)
I0505 04:47:25.751989  3387 net.cpp:159] Memory required for data: 32080
I0505 04:47:25.751996  3387 layer_factory.hpp:77] Creating layer label_intercept_1_split
I0505 04:47:25.752024  3387 net.cpp:94] Creating Layer label_intercept_1_split
I0505 04:47:25.752029  3387 net.cpp:435] label_intercept_1_split <- label
I0505 04:47:25.752035  3387 net.cpp:409] label_intercept_1_split -> label_intercept_1_split_0
I0505 04:47:25.752043  3387 net.cpp:409] label_intercept_1_split -> label_intercept_1_split_1
I0505 04:47:25.752069  3387 net.cpp:144] Setting up label_intercept_1_split
I0505 04:47:25.752075  3387 net.cpp:151] Top shape: 20 (20)
I0505 04:47:25.752079  3387 net.cpp:151] Top shape: 20 (20)
I0505 04:47:25.752082  3387 net.cpp:159] Memory required for data: 32240
I0505 04:47:25.752092  3387 layer_factory.hpp:77] Creating layer conv1
I0505 04:47:25.752104  3387 net.cpp:94] Creating Layer conv1
I0505 04:47:25.752107  3387 net.cpp:435] conv1 <- data
I0505 04:47:25.752112  3387 net.cpp:409] conv1 -> conv1
I0505 04:47:25.752818  3387 net.cpp:144] Setting up conv1
I0505 04:47:25.752832  3387 net.cpp:151] Top shape: 20 64 20 20 (512000)
I0505 04:47:25.752836  3387 net.cpp:159] Memory required for data: 2080240
I0505 04:47:25.752846  3387 layer_factory.hpp:77] Creating layer relu1
I0505 04:47:25.752852  3387 net.cpp:94] Creating Layer relu1
I0505 04:47:25.752856  3387 net.cpp:435] relu1 <- conv1
I0505 04:47:25.752861  3387 net.cpp:396] relu1 -> conv1 (in-place)
I0505 04:47:25.752868  3387 net.cpp:144] Setting up relu1
I0505 04:47:25.752873  3387 net.cpp:151] Top shape: 20 64 20 20 (512000)
I0505 04:47:25.752876  3387 net.cpp:159] Memory required for data: 4128240
I0505 04:47:25.752879  3387 layer_factory.hpp:77] Creating layer pool1
I0505 04:47:25.752887  3387 net.cpp:94] Creating Layer pool1
I0505 04:47:25.752889  3387 net.cpp:435] pool1 <- conv1
I0505 04:47:25.752893  3387 net.cpp:409] pool1 -> pool1
I0505 04:47:25.752926  3387 net.cpp:144] Setting up pool1
I0505 04:47:25.752933  3387 net.cpp:151] Top shape: 20 64 10 10 (128000)
I0505 04:47:25.752935  3387 net.cpp:159] Memory required for data: 4640240
I0505 04:47:25.752939  3387 layer_factory.hpp:77] Creating layer conv2
I0505 04:47:25.752948  3387 net.cpp:94] Creating Layer conv2
I0505 04:47:25.752950  3387 net.cpp:435] conv2 <- pool1
I0505 04:47:25.752955  3387 net.cpp:409] conv2 -> conv2
I0505 04:47:25.760058  3387 net.cpp:144] Setting up conv2
I0505 04:47:25.760072  3387 net.cpp:151] Top shape: 20 128 10 10 (256000)
I0505 04:47:25.760076  3387 net.cpp:159] Memory required for data: 5664240
I0505 04:47:25.760084  3387 layer_factory.hpp:77] Creating layer relu2
I0505 04:47:25.760090  3387 net.cpp:94] Creating Layer relu2
I0505 04:47:25.760094  3387 net.cpp:435] relu2 <- conv2
I0505 04:47:25.760099  3387 net.cpp:396] relu2 -> conv2 (in-place)
I0505 04:47:25.760107  3387 net.cpp:144] Setting up relu2
I0505 04:47:25.760110  3387 net.cpp:151] Top shape: 20 128 10 10 (256000)
I0505 04:47:25.760113  3387 net.cpp:159] Memory required for data: 6688240
I0505 04:47:25.760116  3387 layer_factory.hpp:77] Creating layer conv3
I0505 04:47:25.760124  3387 net.cpp:94] Creating Layer conv3
I0505 04:47:25.760128  3387 net.cpp:435] conv3 <- conv2
I0505 04:47:25.760133  3387 net.cpp:409] conv3 -> conv3
I0505 04:47:25.773311  3387 net.cpp:144] Setting up conv3
I0505 04:47:25.773327  3387 net.cpp:151] Top shape: 20 128 10 10 (256000)
I0505 04:47:25.773331  3387 net.cpp:159] Memory required for data: 7712240
I0505 04:47:25.773339  3387 layer_factory.hpp:77] Creating layer relu3
I0505 04:47:25.773346  3387 net.cpp:94] Creating Layer relu3
I0505 04:47:25.773350  3387 net.cpp:435] relu3 <- conv3
I0505 04:47:25.773355  3387 net.cpp:396] relu3 -> conv3 (in-place)
I0505 04:47:25.773362  3387 net.cpp:144] Setting up relu3
I0505 04:47:25.773366  3387 net.cpp:151] Top shape: 20 128 10 10 (256000)
I0505 04:47:25.773370  3387 net.cpp:159] Memory required for data: 8736240
I0505 04:47:25.773373  3387 layer_factory.hpp:77] Creating layer pool3
I0505 04:47:25.773377  3387 net.cpp:94] Creating Layer pool3
I0505 04:47:25.773381  3387 net.cpp:435] pool3 <- conv3
I0505 04:47:25.773386  3387 net.cpp:409] pool3 -> pool3
I0505 04:47:25.773412  3387 net.cpp:144] Setting up pool3
I0505 04:47:25.773423  3387 net.cpp:151] Top shape: 20 128 5 5 (64000)
I0505 04:47:25.773427  3387 net.cpp:159] Memory required for data: 8992240
I0505 04:47:25.773430  3387 layer_factory.hpp:77] Creating layer ip1
I0505 04:47:25.773437  3387 net.cpp:94] Creating Layer ip1
I0505 04:47:25.773442  3387 net.cpp:435] ip1 <- pool3
I0505 04:47:25.773447  3387 net.cpp:409] ip1 -> ip1
I0505 04:47:25.812800  3387 net.cpp:144] Setting up ip1
I0505 04:47:25.812816  3387 net.cpp:151] Top shape: 20 512 (10240)
I0505 04:47:25.812820  3387 net.cpp:159] Memory required for data: 9033200
I0505 04:47:25.812834  3387 layer_factory.hpp:77] Creating layer ip2
I0505 04:47:25.812840  3387 net.cpp:94] Creating Layer ip2
I0505 04:47:25.812844  3387 net.cpp:435] ip2 <- ip1
I0505 04:47:25.812850  3387 net.cpp:409] ip2 -> ip2
I0505 04:47:25.815944  3387 net.cpp:144] Setting up ip2
I0505 04:47:25.815951  3387 net.cpp:151] Top shape: 20 256 (5120)
I0505 04:47:25.815954  3387 net.cpp:159] Memory required for data: 9053680
I0505 04:47:25.815963  3387 layer_factory.hpp:77] Creating layer ip3
I0505 04:47:25.815968  3387 net.cpp:94] Creating Layer ip3
I0505 04:47:25.815971  3387 net.cpp:435] ip3 <- ip2
I0505 04:47:25.815976  3387 net.cpp:409] ip3 -> ip3
I0505 04:47:25.816342  3387 net.cpp:144] Setting up ip3
I0505 04:47:25.816349  3387 net.cpp:151] Top shape: 20 50 (1000)
I0505 04:47:25.816352  3387 net.cpp:159] Memory required for data: 9057680
I0505 04:47:25.816357  3387 layer_factory.hpp:77] Creating layer ip3_ip3_0_split
I0505 04:47:25.816362  3387 net.cpp:94] Creating Layer ip3_ip3_0_split
I0505 04:47:25.816366  3387 net.cpp:435] ip3_ip3_0_split <- ip3
I0505 04:47:25.816370  3387 net.cpp:409] ip3_ip3_0_split -> ip3_ip3_0_split_0
I0505 04:47:25.816375  3387 net.cpp:409] ip3_ip3_0_split -> ip3_ip3_0_split_1
I0505 04:47:25.816400  3387 net.cpp:144] Setting up ip3_ip3_0_split
I0505 04:47:25.816404  3387 net.cpp:151] Top shape: 20 50 (1000)
I0505 04:47:25.816408  3387 net.cpp:151] Top shape: 20 50 (1000)
I0505 04:47:25.816411  3387 net.cpp:159] Memory required for data: 9065680
I0505 04:47:25.816414  3387 layer_factory.hpp:77] Creating layer accuracy
I0505 04:47:25.816419  3387 net.cpp:94] Creating Layer accuracy
I0505 04:47:25.816423  3387 net.cpp:435] accuracy <- ip3_ip3_0_split_0
I0505 04:47:25.816427  3387 net.cpp:435] accuracy <- label_intercept_1_split_0
I0505 04:47:25.816431  3387 net.cpp:409] accuracy -> accuracy
…
