…
I0505 00:19:48.442204  1190 net.cpp:323] The NetState phase (0) differed from the phase (1) specified by a rule in layer intercept
I0505 00:19:48.442219  1190 net.cpp:323] The NetState phase (0) differed from the phase (1) specified by a rule in layer loss
I0505 00:19:48.442299  1190 net.cpp:52] Initializing net from parameters: 
state {
  phase: TRAIN
}
layer {
  name: "parameters"
  type: "HDF5Data"
  top: "data"
  top: "label"
  include {
    phase: TRAIN
  }
  hdf5_data_param {
    source: "/home/purduethu/scratch/radon/d/deng106/CNNStatisticalModel/distributions/input/5_distributions_900_sample_size_train-parameters-path.txt"
    batch_size: 20
  }
}
layer {
  name: "conv1"
  type: "Convolution"
  bottom: "data"
  top: "conv1"
  param {
    lr_mult: 1
  }
  param {
    lr_mult: 2
  }
  convolution_param {
    num_output: 64
    pad: 2
    kernel_size: 5
    stride: 1
    weight_filler {
      type: "gaussian"
      std: 0.0001
    }
    bias_filler {
      type: "constant"
    }
  }
}
layer {
  name: "relu1"
  type: "ReLU"
  bottom: "conv1"
  top: "conv1"
}
layer {
  name: "pool1"
  type: "Pooling"
  bottom: "conv1"
  top: "pool1"
  pooling_param {
    pool: MAX
    kernel_size: 3
    stride: 2
  }
}
layer {
  name: "conv2"
  type: "Convolution"
  bottom: "pool1"
  top: "conv2"
  param {
    lr_mult: 1
  }
  param {
    lr_mult: 2
  }
  convolution_param {
    num_output: 128
    pad: 2
    kernel_size: 5
    stride: 1
    weight_filler {
      type: "gaussian"
      std: 0.01
    }
    bias_filler {
      type: "constant"
    }
  }
}
layer {
  name: "relu2"
  type: "ReLU"
  bottom: "conv2"
  top: "conv2"
}
layer {
  name: "conv3"
  type: "Convolution"
  bottom: "conv2"
  top: "conv3"
  param {
    lr_mult: 1
  }
  param {
    lr_mult: 2
  }
  convolution_param {
    num_output: 128
    pad: 2
    kernel_size: 5
    stride: 1
    weight_filler {
      type: "gaussian"
      std: 0.01
    }
    bias_filler {
      type: "constant"
    }
  }
}
layer {
  name: "relu3"
  type: "ReLU"
  bottom: "conv3"
  top: "conv3"
}
layer {
  name: "pool3"
  type: "Pooling"
  bottom: "conv3"
  top: "pool3"
  pooling_param {
    pool: AVE
    kernel_size: 3
    stride: 2
  }
}
layer {
  name: "ip1"
  type: "InnerProduct"
  bottom: "pool3"
  top: "ip1"
  param {
    lr_mult: 1
  }
  param {
    lr_mult: 2
  }
  inner_product_param {
    num_output: 512
    weight_filler {
      type: "gaussian"
      std: 0.1
    }
    bias_filler {
      type: "constant"
    }
  }
}
layer {
  name: "ip2"
  type: "InnerProduct"
  bottom: "ip1"
  top: "ip2"
  param {
    lr_mult: 1
  }
  param {
    lr_mult: 2
  }
  inner_product_param {
    num_output: 256
    weight_filler {
      type: "gaussian"
      std: 0.1
    }
    bias_filler {
      type: "constant"
    }
  }
}
layer {
  name: "ip3"
  type: "InnerProduct"
  bottom: "ip2"
  top: "ip3"
  param {
    lr_mult: 1
  }
  param {
    lr_mult: 2
  }
  inner_product_param {
    num_output: 1
    weight_filler {
      type: "gaussian"
      std: 0.1
    }
    bias_filler {
      type: "constant"
    }
  }
}
layer {
  name: "loss"
  type: "HuberLoss"
  bottom: "ip3"
  bottom: "label"
  top: "loss"
  include {
    phase: TRAIN
  }
}
I0505 00:19:48.442363  1190 layer_factory.hpp:77] Creating layer parameters
I0505 00:19:48.442378  1190 net.cpp:94] Creating Layer parameters
I0505 00:19:48.442391  1190 net.cpp:409] parameters -> data
I0505 00:19:48.442411  1190 net.cpp:409] parameters -> label
I0505 00:19:48.442421  1190 hdf5_data_layer.cpp:79] Loading list of HDF5 filenames from: /home/purduethu/scratch/radon/d/deng106/CNNStatisticalModel/distributions/input/5_distributions_900_sample_size_train-parameters-path.txt
I0505 00:19:48.442445  1190 hdf5_data_layer.cpp:93] Number of HDF5 files: 1
I0505 00:19:48.443015  1190 hdf5.cpp:32] Datatype class: H5T_FLOAT
I0505 00:19:48.595731  1190 net.cpp:144] Setting up parameters
I0505 00:19:48.595767  1190 net.cpp:151] Top shape: 20 1 30 30 (18000)
I0505 00:19:48.595773  1190 net.cpp:151] Top shape: 20 (20)
I0505 00:19:48.595777  1190 net.cpp:159] Memory required for data: 72080
I0505 00:19:48.595785  1190 layer_factory.hpp:77] Creating layer conv1
I0505 00:19:48.595804  1190 net.cpp:94] Creating Layer conv1
I0505 00:19:48.595810  1190 net.cpp:435] conv1 <- data
I0505 00:19:48.595823  1190 net.cpp:409] conv1 -> conv1
I0505 00:19:48.604503  1190 net.cpp:144] Setting up conv1
I0505 00:19:48.604532  1190 net.cpp:151] Top shape: 20 64 30 30 (1152000)
I0505 00:19:48.604537  1190 net.cpp:159] Memory required for data: 4680080
I0505 00:19:48.604564  1190 layer_factory.hpp:77] Creating layer relu1
I0505 00:19:48.604578  1190 net.cpp:94] Creating Layer relu1
I0505 00:19:48.604583  1190 net.cpp:435] relu1 <- conv1
I0505 00:19:48.604588  1190 net.cpp:396] relu1 -> conv1 (in-place)
I0505 00:19:48.604605  1190 net.cpp:144] Setting up relu1
I0505 00:19:48.604611  1190 net.cpp:151] Top shape: 20 64 30 30 (1152000)
I0505 00:19:48.604614  1190 net.cpp:159] Memory required for data: 9288080
I0505 00:19:48.604619  1190 layer_factory.hpp:77] Creating layer pool1
I0505 00:19:48.604626  1190 net.cpp:94] Creating Layer pool1
I0505 00:19:48.604629  1190 net.cpp:435] pool1 <- conv1
I0505 00:19:48.604635  1190 net.cpp:409] pool1 -> pool1
I0505 00:19:48.604677  1190 net.cpp:144] Setting up pool1
I0505 00:19:48.604686  1190 net.cpp:151] Top shape: 20 64 15 15 (288000)
I0505 00:19:48.604688  1190 net.cpp:159] Memory required for data: 10440080
I0505 00:19:48.604692  1190 layer_factory.hpp:77] Creating layer conv2
I0505 00:19:48.604702  1190 net.cpp:94] Creating Layer conv2
I0505 00:19:48.604707  1190 net.cpp:435] conv2 <- pool1
I0505 00:19:48.604712  1190 net.cpp:409] conv2 -> conv2
I0505 00:19:48.620383  1190 net.cpp:144] Setting up conv2
I0505 00:19:48.620414  1190 net.cpp:151] Top shape: 20 128 15 15 (576000)
I0505 00:19:48.620419  1190 net.cpp:159] Memory required for data: 12744080
I0505 00:19:48.620431  1190 layer_factory.hpp:77] Creating layer relu2
I0505 00:19:48.620441  1190 net.cpp:94] Creating Layer relu2
I0505 00:19:48.620446  1190 net.cpp:435] relu2 <- conv2
I0505 00:19:48.620451  1190 net.cpp:396] relu2 -> conv2 (in-place)
I0505 00:19:48.620460  1190 net.cpp:144] Setting up relu2
I0505 00:19:48.620465  1190 net.cpp:151] Top shape: 20 128 15 15 (576000)
I0505 00:19:48.620468  1190 net.cpp:159] Memory required for data: 15048080
I0505 00:19:48.620472  1190 layer_factory.hpp:77] Creating layer conv3
I0505 00:19:48.620481  1190 net.cpp:94] Creating Layer conv3
I0505 00:19:48.620486  1190 net.cpp:435] conv3 <- conv2
I0505 00:19:48.620491  1190 net.cpp:409] conv3 -> conv3
I0505 00:19:48.644433  1190 net.cpp:144] Setting up conv3
I0505 00:19:48.644465  1190 net.cpp:151] Top shape: 20 128 15 15 (576000)
I0505 00:19:48.644470  1190 net.cpp:159] Memory required for data: 17352080
I0505 00:19:48.644484  1190 layer_factory.hpp:77] Creating layer relu3
I0505 00:19:48.644493  1190 net.cpp:94] Creating Layer relu3
I0505 00:19:48.644505  1190 net.cpp:435] relu3 <- conv3
I0505 00:19:48.644511  1190 net.cpp:396] relu3 -> conv3 (in-place)
I0505 00:19:48.644521  1190 net.cpp:144] Setting up relu3
I0505 00:19:48.644526  1190 net.cpp:151] Top shape: 20 128 15 15 (576000)
I0505 00:19:48.644529  1190 net.cpp:159] Memory required for data: 19656080
I0505 00:19:48.644533  1190 layer_factory.hpp:77] Creating layer pool3
I0505 00:19:48.644541  1190 net.cpp:94] Creating Layer pool3
I0505 00:19:48.644544  1190 net.cpp:435] pool3 <- conv3
I0505 00:19:48.644570  1190 net.cpp:409] pool3 -> pool3
I0505 00:19:48.644626  1190 net.cpp:144] Setting up pool3
I0505 00:19:48.644634  1190 net.cpp:151] Top shape: 20 128 7 7 (125440)
I0505 00:19:48.644637  1190 net.cpp:159] Memory required for data: 20157840
I0505 00:19:48.644641  1190 layer_factory.hpp:77] Creating layer ip1
I0505 00:19:48.644652  1190 net.cpp:94] Creating Layer ip1
I0505 00:19:48.644656  1190 net.cpp:435] ip1 <- pool3
I0505 00:19:48.644661  1190 net.cpp:409] ip1 -> ip1
I0505 00:19:48.723826  1190 net.cpp:144] Setting up ip1
I0505 00:19:48.723861  1190 net.cpp:151] Top shape: 20 512 (10240)
I0505 00:19:48.723866  1190 net.cpp:159] Memory required for data: 20198800
I0505 00:19:48.723875  1190 layer_factory.hpp:77] Creating layer ip2
I0505 00:19:48.723886  1190 net.cpp:94] Creating Layer ip2
I0505 00:19:48.723891  1190 net.cpp:435] ip2 <- ip1
I0505 00:19:48.723897  1190 net.cpp:409] ip2 -> ip2
I0505 00:19:48.727105  1190 net.cpp:144] Setting up ip2
I0505 00:19:48.727116  1190 net.cpp:151] Top shape: 20 256 (5120)
I0505 00:19:48.727120  1190 net.cpp:159] Memory required for data: 20219280
I0505 00:19:48.727128  1190 layer_factory.hpp:77] Creating layer ip3
I0505 00:19:48.727135  1190 net.cpp:94] Creating Layer ip3
I0505 00:19:48.727139  1190 net.cpp:435] ip3 <- ip2
I0505 00:19:48.727145  1190 net.cpp:409] ip3 -> ip3
I0505 00:19:48.727211  1190 net.cpp:144] Setting up ip3
I0505 00:19:48.727217  1190 net.cpp:151] Top shape: 20 1 (20)
I0505 00:19:48.727221  1190 net.cpp:159] Memory required for data: 20219360
I0505 00:19:48.727226  1190 layer_factory.hpp:77] Creating layer loss
I0505 00:19:48.727241  1190 net.cpp:94] Creating Layer loss
I0505 00:19:48.727246  1190 net.cpp:435] loss <- ip3
I0505 00:19:48.727249  1190 net.cpp:435] loss <- label
I0505 00:19:48.727257  1190 net.cpp:409] loss -> loss
I0505 00:19:48.727290  1190 net.cpp:144] Setting up loss
…
