…
I0502 17:55:10.978715 11912 net.cpp:323] The NetState phase (0) differed from the phase (1) specified by a rule in layer intercept
I0502 17:55:10.978732 11912 net.cpp:323] The NetState phase (0) differed from the phase (1) specified by a rule in layer accuracy
I0502 17:55:10.978823 11912 net.cpp:52] Initializing net from parameters: 
state {
  phase: TRAIN
}
layer {
  name: "parameters"
  type: "HDF5Data"
  top: "data"
  top: "label"
  include {
    phase: TRAIN
  }
  hdf5_data_param {
    source: "/home/purduethu/scratch/radon/d/deng106/CNNStatisticalModel/distributions/input/20_distributions_900_sample_size_train-distributions-path.txt"
    batch_size: 20
  }
}
layer {
  name: "conv1"
  type: "Convolution"
  bottom: "data"
  top: "conv1"
  param {
    lr_mult: 1
  }
  param {
    lr_mult: 2
  }
  convolution_param {
    num_output: 64
    pad: 2
    kernel_size: 5
    stride: 1
    weight_filler {
      type: "gaussian"
      std: 0.0001
    }
    bias_filler {
      type: "constant"
    }
  }
}
layer {
  name: "relu1"
  type: "ReLU"
  bottom: "conv1"
  top: "conv1"
}
layer {
  name: "conv2"
  type: "Convolution"
  bottom: "conv1"
  top: "conv2"
  param {
    lr_mult: 1
  }
  param {
    lr_mult: 2
  }
  convolution_param {
    num_output: 64
    pad: 2
    kernel_size: 5
    stride: 1
    weight_filler {
      type: "gaussian"
      std: 0.01
    }
    bias_filler {
      type: "constant"
    }
  }
}
layer {
  name: "relu2"
  type: "ReLU"
  bottom: "conv2"
  top: "conv2"
}
layer {
  name: "pool2"
  type: "Pooling"
  bottom: "conv2"
  top: "pool2"
  pooling_param {
    pool: MAX
    kernel_size: 3
    stride: 2
  }
}
layer {
  name: "conv3"
  type: "Convolution"
  bottom: "pool2"
  top: "conv3"
  param {
    lr_mult: 1
  }
  param {
    lr_mult: 2
  }
  convolution_param {
    num_output: 64
    pad: 2
    kernel_size: 5
    stride: 1
    weight_filler {
      type: "gaussian"
      std: 0.01
    }
    bias_filler {
      type: "constant"
    }
  }
}
layer {
  name: "relu3"
  type: "ReLU"
  bottom: "conv3"
  top: "conv3"
}
layer {
  name: "conv4"
  type: "Convolution"
  bottom: "conv3"
  top: "conv4"
  param {
    lr_mult: 1
  }
  param {
    lr_mult: 2
  }
  convolution_param {
    num_output: 64
    pad: 2
    kernel_size: 5
    stride: 1
    weight_filler {
      type: "gaussian"
      std: 0.01
    }
    bias_filler {
      type: "constant"
    }
  }
}
layer {
  name: "relu4"
  type: "ReLU"
  bottom: "conv4"
  top: "conv4"
}
layer {
  name: "conv5"
  type: "Convolution"
  bottom: "conv4"
  top: "conv5"
  param {
    lr_mult: 1
  }
  param {
    lr_mult: 2
  }
  convolution_param {
    num_output: 64
    pad: 2
    kernel_size: 5
    stride: 1
    weight_filler {
      type: "gaussian"
      std: 0.01
    }
    bias_filler {
      type: "constant"
    }
  }
}
layer {
  name: "relu5"
  type: "ReLU"
  bottom: "conv5"
  top: "conv5"
}
layer {
  name: "pool5"
  type: "Pooling"
  bottom: "conv5"
  top: "pool5"
  pooling_param {
    pool: AVE
    kernel_size: 3
    stride: 2
  }
}
layer {
  name: "ip1"
  type: "InnerProduct"
  bottom: "pool5"
  top: "ip1"
  param {
    lr_mult: 1
  }
  param {
    lr_mult: 2
  }
  inner_product_param {
    num_output: 64
    weight_filler {
      type: "gaussian"
      std: 0.1
    }
    bias_filler {
      type: "constant"
    }
  }
}
layer {
  name: "ip2"
  type: "InnerProduct"
  bottom: "ip1"
  top: "ip2"
  param {
    lr_mult: 1
  }
  param {
    lr_mult: 2
  }
  inner_product_param {
    num_output: 64
    weight_filler {
      type: "gaussian"
      std: 0.1
    }
    bias_filler {
      type: "constant"
    }
  }
}
layer {
  name: "ip3"
  type: "InnerProduct"
  bottom: "ip2"
  top: "ip3"
  param {
    lr_mult: 1
  }
  param {
    lr_mult: 2
  }
  inner_product_param {
    num_output: 50
    weight_filler {
      type: "gaussian"
      std: 0.1
    }
    bias_filler {
      type: "constant"
    }
  }
}
layer {
  name: "loss"
  type: "SoftmaxWithLoss"
  bottom: "ip3"
  bottom: "label"
  top: "loss"
}
I0502 17:55:10.978899 11912 layer_factory.hpp:77] Creating layer parameters
I0502 17:55:10.978914 11912 net.cpp:94] Creating Layer parameters
I0502 17:55:10.978920 11912 net.cpp:409] parameters -> data
I0502 17:55:10.978940 11912 net.cpp:409] parameters -> label
I0502 17:55:10.978950 11912 hdf5_data_layer.cpp:79] Loading list of HDF5 filenames from: /home/purduethu/scratch/radon/d/deng106/CNNStatisticalModel/distributions/input/20_distributions_900_sample_size_train-distributions-path.txt
I0502 17:55:10.978973 11912 hdf5_data_layer.cpp:93] Number of HDF5 files: 1
I0502 17:55:10.979442 11912 hdf5.cpp:32] Datatype class: H5T_FLOAT
I0502 17:55:11.561867 11912 hdf5.cpp:35] Datatype class: H5T_INTEGER
I0502 17:55:11.564851 11912 net.cpp:144] Setting up parameters
I0502 17:55:11.564872 11912 net.cpp:151] Top shape: 20 1 30 30 (18000)
I0502 17:55:11.564878 11912 net.cpp:151] Top shape: 20 (20)
I0502 17:55:11.564882 11912 net.cpp:159] Memory required for data: 72080
I0502 17:55:11.564889 11912 layer_factory.hpp:77] Creating layer conv1
I0502 17:55:11.564908 11912 net.cpp:94] Creating Layer conv1
I0502 17:55:11.564913 11912 net.cpp:435] conv1 <- data
I0502 17:55:11.564925 11912 net.cpp:409] conv1 -> conv1
I0502 17:55:11.572588 11912 net.cpp:144] Setting up conv1
I0502 17:55:11.572607 11912 net.cpp:151] Top shape: 20 64 30 30 (1152000)
I0502 17:55:11.572610 11912 net.cpp:159] Memory required for data: 4680080
I0502 17:55:11.572623 11912 layer_factory.hpp:77] Creating layer relu1
I0502 17:55:11.572631 11912 net.cpp:94] Creating Layer relu1
I0502 17:55:11.572635 11912 net.cpp:435] relu1 <- conv1
I0502 17:55:11.572640 11912 net.cpp:396] relu1 -> conv1 (in-place)
I0502 17:55:11.572654 11912 net.cpp:144] Setting up relu1
I0502 17:55:11.572659 11912 net.cpp:151] Top shape: 20 64 30 30 (1152000)
I0502 17:55:11.572661 11912 net.cpp:159] Memory required for data: 9288080
I0502 17:55:11.572665 11912 layer_factory.hpp:77] Creating layer conv2
I0502 17:55:11.572674 11912 net.cpp:94] Creating Layer conv2
I0502 17:55:11.572677 11912 net.cpp:435] conv2 <- conv1
I0502 17:55:11.572682 11912 net.cpp:409] conv2 -> conv2
I0502 17:55:11.587680 11912 net.cpp:144] Setting up conv2
I0502 17:55:11.587697 11912 net.cpp:151] Top shape: 20 64 30 30 (1152000)
I0502 17:55:11.587700 11912 net.cpp:159] Memory required for data: 13896080
I0502 17:55:11.587708 11912 layer_factory.hpp:77] Creating layer relu2
I0502 17:55:11.587715 11912 net.cpp:94] Creating Layer relu2
I0502 17:55:11.587719 11912 net.cpp:435] relu2 <- conv2
I0502 17:55:11.587723 11912 net.cpp:396] relu2 -> conv2 (in-place)
I0502 17:55:11.587731 11912 net.cpp:144] Setting up relu2
I0502 17:55:11.587736 11912 net.cpp:151] Top shape: 20 64 30 30 (1152000)
I0502 17:55:11.587739 11912 net.cpp:159] Memory required for data: 18504080
I0502 17:55:11.587743 11912 layer_factory.hpp:77] Creating layer pool2
I0502 17:55:11.587756 11912 net.cpp:94] Creating Layer pool2
I0502 17:55:11.587761 11912 net.cpp:435] pool2 <- conv2
I0502 17:55:11.587765 11912 net.cpp:409] pool2 -> pool2
I0502 17:55:11.587810 11912 net.cpp:144] Setting up pool2
I0502 17:55:11.587816 11912 net.cpp:151] Top shape: 20 64 15 15 (288000)
I0502 17:55:11.587821 11912 net.cpp:159] Memory required for data: 19656080
I0502 17:55:11.587823 11912 layer_factory.hpp:77] Creating layer conv3
I0502 17:55:11.587832 11912 net.cpp:94] Creating Layer conv3
I0502 17:55:11.587836 11912 net.cpp:435] conv3 <- pool2
I0502 17:55:11.587849 11912 net.cpp:409] conv3 -> conv3
I0502 17:55:11.596952 11912 net.cpp:144] Setting up conv3
I0502 17:55:11.597002 11912 net.cpp:151] Top shape: 20 64 15 15 (288000)
I0502 17:55:11.597007 11912 net.cpp:159] Memory required for data: 20808080
I0502 17:55:11.597014 11912 layer_factory.hpp:77] Creating layer relu3
I0502 17:55:11.597020 11912 net.cpp:94] Creating Layer relu3
I0502 17:55:11.597024 11912 net.cpp:435] relu3 <- conv3
I0502 17:55:11.597029 11912 net.cpp:396] relu3 -> conv3 (in-place)
I0502 17:55:11.597038 11912 net.cpp:144] Setting up relu3
I0502 17:55:11.597043 11912 net.cpp:151] Top shape: 20 64 15 15 (288000)
I0502 17:55:11.597045 11912 net.cpp:159] Memory required for data: 21960080
I0502 17:55:11.597048 11912 layer_factory.hpp:77] Creating layer conv4
I0502 17:55:11.597057 11912 net.cpp:94] Creating Layer conv4
I0502 17:55:11.597061 11912 net.cpp:435] conv4 <- conv3
I0502 17:55:11.597066 11912 net.cpp:409] conv4 -> conv4
I0502 17:55:11.605865 11912 net.cpp:144] Setting up conv4
I0502 17:55:11.605880 11912 net.cpp:151] Top shape: 20 64 15 15 (288000)
I0502 17:55:11.605885 11912 net.cpp:159] Memory required for data: 23112080
I0502 17:55:11.605890 11912 layer_factory.hpp:77] Creating layer relu4
I0502 17:55:11.605896 11912 net.cpp:94] Creating Layer relu4
I0502 17:55:11.605901 11912 net.cpp:435] relu4 <- conv4
I0502 17:55:11.605906 11912 net.cpp:396] relu4 -> conv4 (in-place)
I0502 17:55:11.605912 11912 net.cpp:144] Setting up relu4
I0502 17:55:11.605917 11912 net.cpp:151] Top shape: 20 64 15 15 (288000)
I0502 17:55:11.605921 11912 net.cpp:159] Memory required for data: 24264080
I0502 17:55:11.605924 11912 layer_factory.hpp:77] Creating layer conv5
I0502 17:55:11.605932 11912 net.cpp:94] Creating Layer conv5
I0502 17:55:11.605937 11912 net.cpp:435] conv5 <- conv4
I0502 17:55:11.605942 11912 net.cpp:409] conv5 -> conv5
I0502 17:55:11.614820 11912 net.cpp:144] Setting up conv5
I0502 17:55:11.614857 11912 net.cpp:151] Top shape: 20 64 15 15 (288000)
I0502 17:55:11.614871 11912 net.cpp:159] Memory required for data: 25416080
I0502 17:55:11.614895 11912 layer_factory.hpp:77] Creating layer relu5
I0502 17:55:11.614912 11912 net.cpp:94] Creating Layer relu5
I0502 17:55:11.614923 11912 net.cpp:435] relu5 <- conv5
I0502 17:55:11.614938 11912 net.cpp:396] relu5 -> conv5 (in-place)
I0502 17:55:11.614959 11912 net.cpp:144] Setting up relu5
I0502 17:55:11.614972 11912 net.cpp:151] Top shape: 20 64 15 15 (288000)
I0502 17:55:11.614982 11912 net.cpp:159] Memory required for data: 26568080
I0502 17:55:11.614992 11912 layer_factory.hpp:77] Creating layer pool5
I0502 17:55:11.615005 11912 net.cpp:94] Creating Layer pool5
I0502 17:55:11.615015 11912 net.cpp:435] pool5 <- conv5
I0502 17:55:11.615030 11912 net.cpp:409] pool5 -> pool5
I0502 17:55:11.615115 11912 net.cpp:144] Setting up pool5
I0502 17:55:11.615134 11912 net.cpp:151] Top shape: 20 64 7 7 (62720)
I0502 17:55:11.615144 11912 net.cpp:159] Memory required for data: 26818960
I0502 17:55:11.615154 11912 layer_factory.hpp:77] Creating layer ip1
I0502 17:55:11.615177 11912 net.cpp:94] Creating Layer ip1
I0502 17:55:11.615188 11912 net.cpp:435] ip1 <- pool5
I0502 17:55:11.615202 11912 net.cpp:409] ip1 -> ip1
I0502 17:55:11.620069 11912 net.cpp:144] Setting up ip1
I0502 17:55:11.620079 11912 net.cpp:151] Top shape: 20 64 (1280)
I0502 17:55:11.620081 11912 net.cpp:159] Memory required for data: 26824080
I0502 17:55:11.620087 11912 layer_factory.hpp:77] Creating layer ip2
I0502 17:55:11.620098 11912 net.cpp:94] Creating Layer ip2
I0502 17:55:11.620102 11912 net.cpp:435] ip2 <- ip1
I0502 17:55:11.620108 11912 net.cpp:409] ip2 -> ip2
I0502 17:55:11.620276 11912 net.cpp:144] Setting up ip2
I0502 17:55:11.620283 11912 net.cpp:151] Top shape: 20 64 (1280)
I0502 17:55:11.620286 11912 net.cpp:159] Memory required for data: 26829200
I0502 17:55:11.620292 11912 layer_factory.hpp:77] Creating layer ip3
I0502 17:55:11.620297 11912 net.cpp:94] Creating Layer ip3
I0502 17:55:11.620301 11912 net.cpp:435] ip3 <- ip2
I0502 17:55:11.620306 11912 net.cpp:409] ip3 -> ip3
I0502 17:55:11.620457 11912 net.cpp:144] Setting up ip3
I0502 17:55:11.620465 11912 net.cpp:151] Top shape: 20 50 (1000)
I0502 17:55:11.620467 11912 net.cpp:159] Memory required for data: 26833200
I0502 17:55:11.620472 11912 layer_factory.hpp:77] Creating layer loss
I0502 17:55:11.620479 11912 net.cpp:94] Creating Layer loss
I0502 17:55:11.620483 11912 net.cpp:435] loss <- ip3
I0502 17:55:11.620487 11912 net.cpp:435] loss <- label
I0502 17:55:11.620492 11912 net.cpp:409] loss -> loss
I0502 17:55:11.620502 11912 layer_factory.hpp:77] Creating layer loss
…
I0502 17:55:11.621022 11912 solver.cpp:181] Creating test net (#0) specified by net file: ./protocol/dis_20_900_dimension.protocol_distribution
I0502 17:55:11.621050 11912 net.cpp:323] The NetState phase (1) differed from the phase (0) specified by a rule in layer parameters
I0502 17:55:11.621150 11912 net.cpp:52] Initializing net from parameters: 
state {
  phase: TEST
}
layer {
  name: "intercept"
  type: "HDF5Data"
  top: "data"
  top: "label"
  include {
    phase: TEST
  }
  hdf5_data_param {
    source: "/home/purduethu/scratch/radon/d/deng106/CNNStatisticalModel/distributions/input/20_distributions_900_sample_size_test-distributions-path.txt"
    batch_size: 20
  }
}
layer {
  name: "conv1"
  type: "Convolution"
  bottom: "data"
  top: "conv1"
  param {
    lr_mult: 1
  }
  param {
    lr_mult: 2
  }
  convolution_param {
    num_output: 64
    pad: 2
    kernel_size: 5
    stride: 1
    weight_filler {
      type: "gaussian"
      std: 0.0001
    }
    bias_filler {
      type: "constant"
    }
  }
}
layer {
  name: "relu1"
  type: "ReLU"
  bottom: "conv1"
  top: "conv1"
}
layer {
  name: "conv2"
  type: "Convolution"
  bottom: "conv1"
  top: "conv2"
  param {
    lr_mult: 1
  }
  param {
    lr_mult: 2
  }
  convolution_param {
    num_output: 64
    pad: 2
    kernel_size: 5
    stride: 1
    weight_filler {
      type: "gaussian"
      std: 0.01
    }
    bias_filler {
      type: "constant"
    }
  }
}
layer {
  name: "relu2"
  type: "ReLU"
  bottom: "conv2"
  top: "conv2"
}
layer {
  name: "pool2"
  type: "Pooling"
  bottom: "conv2"
  top: "pool2"
  pooling_param {
    pool: MAX
    kernel_size: 3
    stride: 2
  }
}
layer {
  name: "conv3"
  type: "Convolution"
  bottom: "pool2"
  top: "conv3"
  param {
    lr_mult: 1
  }
  param {
    lr_mult: 2
  }
  convolution_param {
    num_output: 64
    pad: 2
    kernel_size: 5
    stride: 1
    weight_filler {
      type: "gaussian"
      std: 0.01
    }
    bias_filler {
      type: "constant"
    }
  }
}
layer {
  name: "relu3"
  type: "ReLU"
  bottom: "conv3"
  top: "conv3"
}
layer {
  name: "conv4"
  type: "Convolution"
  bottom: "conv3"
  top: "conv4"
  param {
    lr_mult: 1
  }
  param {
    lr_mult: 2
  }
  convolution_param {
    num_output: 64
    pad: 2
    kernel_size: 5
    stride: 1
    weight_filler {
      type: "gaussian"
      std: 0.01
    }
    bias_filler {
      type: "constant"
    }
  }
}
layer {
  name: "relu4"
  type: "ReLU"
  bottom: "conv4"
  top: "conv4"
}
layer {
  name: "conv5"
  type: "Convolution"
  bottom: "conv4"
  top: "conv5"
  param {
    lr_mult: 1
  }
  param {
    lr_mult: 2
  }
  convolution_param {
    num_output: 64
    pad: 2
    kernel_size: 5
    stride: 1
    weight_filler {
      type: "gaussian"
      std: 0.01
    }
    bias_filler {
      type: "constant"
    }
  }
}
layer {
  name: "relu5"
  type: "ReLU"
  bottom: "conv5"
  top: "conv5"
}
layer {
  name: "pool5"
  type: "Pooling"
  bottom: "conv5"
  top: "pool5"
  pooling_param {
    pool: AVE
    kernel_size: 3
    stride: 2
  }
}
layer {
  name: "ip1"
  type: "InnerProduct"
  bottom: "pool5"
  top: "ip1"
  param {
    lr_mult: 1
  }
  param {
    lr_mult: 2
  }
  inner_product_param {
    num_output: 64
    weight_filler {
      type: "gaussian"
      std: 0.1
    }
    bias_filler {
      type: "constant"
    }
  }
}
layer {
  name: "ip2"
  type: "InnerProduct"
  bottom: "ip1"
  top: "ip2"
  param {
    lr_mult: 1
  }
  param {
    lr_mult: 2
  }
  inner_product_param {
    num_output: 64
    weight_filler {
      type: "gaussian"
      std: 0.1
    }
    bias_filler {
      type: "constant"
    }
  }
}
layer {
  name: "ip3"
  type: "InnerProduct"
  bottom: "ip2"
  top: "ip3"
  param {
    lr_mult: 1
  }
  param {
    lr_mult: 2
  }
  inner_product_param {
    num_output: 50
    weight_filler {
      type: "gaussian"
      std: 0.1
    }
    bias_filler {
      type: "constant"
    }
  }
}
layer {
  name: "accuracy"
  type: "Accuracy"
  bottom: "ip3"
  bottom: "label"
  top: "accuracy"
  include {
    phase: TEST
  }
}
layer {
  name: "loss"
  type: "SoftmaxWithLoss"
  bottom: "ip3"
  bottom: "label"
  top: "loss"
}
I0502 17:55:11.621225 11912 layer_factory.hpp:77] Creating layer intercept
I0502 17:55:11.621234 11912 net.cpp:94] Creating Layer intercept
I0502 17:55:11.621238 11912 net.cpp:409] intercept -> data
I0502 17:55:11.621246 11912 net.cpp:409] intercept -> label
I0502 17:55:11.621253 11912 hdf5_data_layer.cpp:79] Loading list of HDF5 filenames from: /home/purduethu/scratch/radon/d/deng106/CNNStatisticalModel/distributions/input/20_distributions_900_sample_size_test-distributions-path.txt
I0502 17:55:11.621273 11912 hdf5_data_layer.cpp:93] Number of HDF5 files: 1
I0502 17:55:11.765244 11912 net.cpp:144] Setting up intercept
I0502 17:55:11.765274 11912 net.cpp:151] Top shape: 20 1 30 30 (18000)
I0502 17:55:11.765278 11912 net.cpp:151] Top shape: 20 (20)
I0502 17:55:11.765282 11912 net.cpp:159] Memory required for data: 72080
I0502 17:55:11.765288 11912 layer_factory.hpp:77] Creating layer label_intercept_1_split
I0502 17:55:11.765305 11912 net.cpp:94] Creating Layer label_intercept_1_split
I0502 17:55:11.765311 11912 net.cpp:435] label_intercept_1_split <- label
I0502 17:55:11.765316 11912 net.cpp:409] label_intercept_1_split -> label_intercept_1_split_0
I0502 17:55:11.765326 11912 net.cpp:409] label_intercept_1_split -> label_intercept_1_split_1
I0502 17:55:11.765360 11912 net.cpp:144] Setting up label_intercept_1_split
I0502 17:55:11.765367 11912 net.cpp:151] Top shape: 20 (20)
I0502 17:55:11.765372 11912 net.cpp:151] Top shape: 20 (20)
I0502 17:55:11.765374 11912 net.cpp:159] Memory required for data: 72240
I0502 17:55:11.765377 11912 layer_factory.hpp:77] Creating layer conv1
I0502 17:55:11.765389 11912 net.cpp:94] Creating Layer conv1
I0502 17:55:11.765393 11912 net.cpp:435] conv1 <- data
I0502 17:55:11.765398 11912 net.cpp:409] conv1 -> conv1
I0502 17:55:11.767933 11912 net.cpp:144] Setting up conv1
I0502 17:55:11.767968 11912 net.cpp:151] Top shape: 20 64 30 30 (1152000)
I0502 17:55:11.767980 11912 net.cpp:159] Memory required for data: 4680240
I0502 17:55:11.768005 11912 layer_factory.hpp:77] Creating layer relu1
I0502 17:55:11.768023 11912 net.cpp:94] Creating Layer relu1
I0502 17:55:11.768034 11912 net.cpp:435] relu1 <- conv1
I0502 17:55:11.768049 11912 net.cpp:396] relu1 -> conv1 (in-place)
I0502 17:55:11.768069 11912 net.cpp:144] Setting up relu1
I0502 17:55:11.768081 11912 net.cpp:151] Top shape: 20 64 30 30 (1152000)
I0502 17:55:11.768091 11912 net.cpp:159] Memory required for data: 9288240
I0502 17:55:11.768101 11912 layer_factory.hpp:77] Creating layer conv2
I0502 17:55:11.768123 11912 net.cpp:94] Creating Layer conv2
I0502 17:55:11.768134 11912 net.cpp:435] conv2 <- conv1
I0502 17:55:11.768149 11912 net.cpp:409] conv2 -> conv2
I0502 17:55:11.774647 11912 net.cpp:144] Setting up conv2
I0502 17:55:11.774686 11912 net.cpp:151] Top shape: 20 64 30 30 (1152000)
I0502 17:55:11.774698 11912 net.cpp:159] Memory required for data: 13896240
I0502 17:55:11.774721 11912 layer_factory.hpp:77] Creating layer relu2
I0502 17:55:11.774737 11912 net.cpp:94] Creating Layer relu2
I0502 17:55:11.774749 11912 net.cpp:435] relu2 <- conv2
I0502 17:55:11.774762 11912 net.cpp:396] relu2 -> conv2 (in-place)
I0502 17:55:11.774783 11912 net.cpp:144] Setting up relu2
I0502 17:55:11.774796 11912 net.cpp:151] Top shape: 20 64 30 30 (1152000)
I0502 17:55:11.774806 11912 net.cpp:159] Memory required for data: 18504240
I0502 17:55:11.774816 11912 layer_factory.hpp:77] Creating layer pool2
I0502 17:55:11.774830 11912 net.cpp:94] Creating Layer pool2
I0502 17:55:11.774840 11912 net.cpp:435] pool2 <- conv2
I0502 17:55:11.774854 11912 net.cpp:409] pool2 -> pool2
I0502 17:55:11.774921 11912 net.cpp:144] Setting up pool2
I0502 17:55:11.774927 11912 net.cpp:151] Top shape: 20 64 15 15 (288000)
I0502 17:55:11.774931 11912 net.cpp:159] Memory required for data: 19656240
I0502 17:55:11.774935 11912 layer_factory.hpp:77] Creating layer conv3
I0502 17:55:11.774942 11912 net.cpp:94] Creating Layer conv3
I0502 17:55:11.774946 11912 net.cpp:435] conv3 <- pool2
I0502 17:55:11.774951 11912 net.cpp:409] conv3 -> conv3
I0502 17:55:11.780117 11912 net.cpp:144] Setting up conv3
I0502 17:55:11.780133 11912 net.cpp:151] Top shape: 20 64 15 15 (288000)
I0502 17:55:11.780138 11912 net.cpp:159] Memory required for data: 20808240
I0502 17:55:11.780146 11912 layer_factory.hpp:77] Creating layer relu3
I0502 17:55:11.780153 11912 net.cpp:94] Creating Layer relu3
I0502 17:55:11.780158 11912 net.cpp:435] relu3 <- conv3
I0502 17:55:11.780164 11912 net.cpp:396] relu3 -> conv3 (in-place)
I0502 17:55:11.780171 11912 net.cpp:144] Setting up relu3
I0502 17:55:11.780176 11912 net.cpp:151] Top shape: 20 64 15 15 (288000)
I0502 17:55:11.780179 11912 net.cpp:159] Memory required for data: 21960240
I0502 17:55:11.780182 11912 layer_factory.hpp:77] Creating layer conv4
I0502 17:55:11.780191 11912 net.cpp:94] Creating Layer conv4
I0502 17:55:11.780194 11912 net.cpp:435] conv4 <- conv3
I0502 17:55:11.780200 11912 net.cpp:409] conv4 -> conv4
I0502 17:55:11.787453 11912 net.cpp:144] Setting up conv4
I0502 17:55:11.787469 11912 net.cpp:151] Top shape: 20 64 15 15 (288000)
I0502 17:55:11.787473 11912 net.cpp:159] Memory required for data: 23112240
I0502 17:55:11.787480 11912 layer_factory.hpp:77] Creating layer relu4
I0502 17:55:11.787487 11912 net.cpp:94] Creating Layer relu4
I0502 17:55:11.787494 11912 net.cpp:435] relu4 <- conv4
I0502 17:55:11.787500 11912 net.cpp:396] relu4 -> conv4 (in-place)
I0502 17:55:11.787508 11912 net.cpp:144] Setting up relu4
I0502 17:55:11.787513 11912 net.cpp:151] Top shape: 20 64 15 15 (288000)
I0502 17:55:11.787518 11912 net.cpp:159] Memory required for data: 24264240
I0502 17:55:11.787520 11912 layer_factory.hpp:77] Creating layer conv5
I0502 17:55:11.787528 11912 net.cpp:94] Creating Layer conv5
I0502 17:55:11.787533 11912 net.cpp:435] conv5 <- conv4
I0502 17:55:11.787538 11912 net.cpp:409] conv5 -> conv5
I0502 17:55:11.792102 11912 net.cpp:144] Setting up conv5
I0502 17:55:11.792119 11912 net.cpp:151] Top shape: 20 64 15 15 (288000)
I0502 17:55:11.792124 11912 net.cpp:159] Memory required for data: 25416240
I0502 17:55:11.792131 11912 layer_factory.hpp:77] Creating layer relu5
I0502 17:55:11.792138 11912 net.cpp:94] Creating Layer relu5
I0502 17:55:11.792142 11912 net.cpp:435] relu5 <- conv5
I0502 17:55:11.792147 11912 net.cpp:396] relu5 -> conv5 (in-place)
I0502 17:55:11.792155 11912 net.cpp:144] Setting up relu5
I0502 17:55:11.792160 11912 net.cpp:151] Top shape: 20 64 15 15 (288000)
I0502 17:55:11.792163 11912 net.cpp:159] Memory required for data: 26568240
I0502 17:55:11.792166 11912 layer_factory.hpp:77] Creating layer pool5
I0502 17:55:11.792172 11912 net.cpp:94] Creating Layer pool5
I0502 17:55:11.792176 11912 net.cpp:435] pool5 <- conv5
I0502 17:55:11.792181 11912 net.cpp:409] pool5 -> pool5
I0502 17:55:11.792207 11912 net.cpp:144] Setting up pool5
I0502 17:55:11.792214 11912 net.cpp:151] Top shape: 20 64 7 7 (62720)
I0502 17:55:11.792217 11912 net.cpp:159] Memory required for data: 26819120
I0502 17:55:11.792222 11912 layer_factory.hpp:77] Creating layer ip1
I0502 17:55:11.792228 11912 net.cpp:94] Creating Layer ip1
I0502 17:55:11.792232 11912 net.cpp:435] ip1 <- pool5
I0502 17:55:11.792237 11912 net.cpp:409] ip1 -> ip1
I0502 17:55:11.797190 11912 net.cpp:144] Setting up ip1
I0502 17:55:11.797199 11912 net.cpp:151] Top shape: 20 64 (1280)
I0502 17:55:11.797202 11912 net.cpp:159] Memory required for data: 26824240
I0502 17:55:11.797209 11912 layer_factory.hpp:77] Creating layer ip2
I0502 17:55:11.797215 11912 net.cpp:94] Creating Layer ip2
I0502 17:55:11.797219 11912 net.cpp:435] ip2 <- ip1
I0502 17:55:11.797224 11912 net.cpp:409] ip2 -> ip2
I0502 17:55:11.797399 11912 net.cpp:144] Setting up ip2
I0502 17:55:11.797405 11912 net.cpp:151] Top shape: 20 64 (1280)
I0502 17:55:11.797408 11912 net.cpp:159] Memory required for data: 26829360
I0502 17:55:11.797413 11912 layer_factory.hpp:77] Creating layer ip3
I0502 17:55:11.797420 11912 net.cpp:94] Creating Layer ip3
I0502 17:55:11.797425 11912 net.cpp:435] ip3 <- ip2
I0502 17:55:11.797430 11912 net.cpp:409] ip3 -> ip3
I0502 17:55:11.797580 11912 net.cpp:144] Setting up ip3
I0502 17:55:11.797586 11912 net.cpp:151] Top shape: 20 50 (1000)
I0502 17:55:11.797590 11912 net.cpp:159] Memory required for data: 26833360
I0502 17:55:11.797595 11912 layer_factory.hpp:77] Creating layer ip3_ip3_0_split
I0502 17:55:11.797601 11912 net.cpp:94] Creating Layer ip3_ip3_0_split
I0502 17:55:11.797605 11912 net.cpp:435] ip3_ip3_0_split <- ip3
I0502 17:55:11.797610 11912 net.cpp:409] ip3_ip3_0_split -> ip3_ip3_0_split_0
I0502 17:55:11.797616 11912 net.cpp:409] ip3_ip3_0_split -> ip3_ip3_0_split_1
I0502 17:55:11.797641 11912 net.cpp:144] Setting up ip3_ip3_0_split
I0502 17:55:11.797646 11912 net.cpp:151] Top shape: 20 50 (1000)
I0502 17:55:11.797650 11912 net.cpp:151] Top shape: 20 50 (1000)
I0502 17:55:11.797653 11912 net.cpp:159] Memory required for data: 26841360
I0502 17:55:11.797657 11912 layer_factory.hpp:77] Creating layer accuracy
I0502 17:55:11.797663 11912 net.cpp:94] Creating Layer accuracy
I0502 17:55:11.797667 11912 net.cpp:435] accuracy <- ip3_ip3_0_split_0
I0502 17:55:11.797672 11912 net.cpp:435] accuracy <- label_intercept_1_split_0
I0502 17:55:11.797675 11912 net.cpp:409] accuracy -> accuracy
…
