…
I0501 17:22:54.098645 13686 net.cpp:323] The NetState phase (0) differed from the phase (1) specified by a rule in layer intercept
I0501 17:22:54.098661 13686 net.cpp:323] The NetState phase (0) differed from the phase (1) specified by a rule in layer loss
I0501 17:22:54.098739 13686 net.cpp:52] Initializing net from parameters: 
state {
  phase: TRAIN
}
layer {
  name: "parameters"
  type: "HDF5Data"
  top: "data"
  top: "label"
  include {
    phase: TRAIN
  }
  hdf5_data_param {
    source: "/home/purduethu/scratch/radon/d/deng106/CNNStatisticalModel/distributions/input/5_distributions_400_sample_size_train-parameters-path.txt"
    batch_size: 20
  }
}
layer {
  name: "conv1"
  type: "Convolution"
  bottom: "data"
  top: "conv1"
  param {
    lr_mult: 1
  }
  param {
    lr_mult: 2
  }
  convolution_param {
    num_output: 64
    pad: 2
    kernel_size: 5
    stride: 1
    weight_filler {
      type: "gaussian"
      std: 0.0001
    }
    bias_filler {
      type: "constant"
    }
  }
}
layer {
  name: "relu1"
  type: "ReLU"
  bottom: "conv1"
  top: "conv1"
}
layer {
  name: "conv2"
  type: "Convolution"
  bottom: "conv1"
  top: "conv2"
  param {
    lr_mult: 1
  }
  param {
    lr_mult: 2
  }
  convolution_param {
    num_output: 64
    pad: 2
    kernel_size: 5
    stride: 1
    weight_filler {
      type: "gaussian"
      std: 0.01
    }
    bias_filler {
      type: "constant"
    }
  }
}
layer {
  name: "relu2"
  type: "ReLU"
  bottom: "conv2"
  top: "conv2"
}
layer {
  name: "pool2"
  type: "Pooling"
  bottom: "conv2"
  top: "pool2"
  pooling_param {
    pool: MAX
    kernel_size: 3
    stride: 2
  }
}
layer {
  name: "conv3"
  type: "Convolution"
  bottom: "pool2"
  top: "conv3"
  param {
    lr_mult: 1
  }
  param {
    lr_mult: 2
  }
  convolution_param {
    num_output: 64
    pad: 2
    kernel_size: 5
    stride: 1
    weight_filler {
      type: "gaussian"
      std: 0.01
    }
    bias_filler {
      type: "constant"
    }
  }
}
layer {
  name: "relu3"
  type: "ReLU"
  bottom: "conv3"
  top: "conv3"
}
layer {
  name: "conv4"
  type: "Convolution"
  bottom: "conv3"
  top: "conv4"
  param {
    lr_mult: 1
  }
  param {
    lr_mult: 2
  }
  convolution_param {
    num_output: 64
    pad: 2
    kernel_size: 5
    stride: 1
    weight_filler {
      type: "gaussian"
      std: 0.01
    }
    bias_filler {
      type: "constant"
    }
  }
}
layer {
  name: "relu4"
  type: "ReLU"
  bottom: "conv4"
  top: "conv4"
}
layer {
  name: "conv5"
  type: "Convolution"
  bottom: "conv4"
  top: "conv5"
  param {
    lr_mult: 1
  }
  param {
    lr_mult: 2
  }
  convolution_param {
    num_output: 64
    pad: 2
    kernel_size: 5
    stride: 1
    weight_filler {
      type: "gaussian"
      std: 0.01
    }
    bias_filler {
      type: "constant"
    }
  }
}
layer {
  name: "relu5"
  type: "ReLU"
  bottom: "conv5"
  top: "conv5"
}
layer {
  name: "pool5"
  type: "Pooling"
  bottom: "conv5"
  top: "pool5"
  pooling_param {
    pool: AVE
    kernel_size: 3
    stride: 2
  }
}
layer {
  name: "ip1"
  type: "InnerProduct"
  bottom: "pool5"
  top: "ip1"
  param {
    lr_mult: 1
  }
  param {
    lr_mult: 2
  }
  inner_product_param {
    num_output: 64
    weight_filler {
      type: "gaussian"
      std: 0.1
    }
    bias_filler {
      type: "constant"
    }
  }
}
layer {
  name: "ip2"
  type: "InnerProduct"
  bottom: "ip1"
  top: "ip2"
  param {
    lr_mult: 1
  }
  param {
    lr_mult: 2
  }
  inner_product_param {
    num_output: 64
    weight_filler {
      type: "gaussian"
      std: 0.1
    }
    bias_filler {
      type: "constant"
    }
  }
}
layer {
  name: "ip3"
  type: "InnerProduct"
  bottom: "ip2"
  top: "ip3"
  param {
    lr_mult: 1
  }
  param {
    lr_mult: 2
  }
  inner_product_param {
    num_output: 1
    weight_filler {
      type: "gaussian"
      std: 0.1
    }
    bias_filler {
      type: "constant"
    }
  }
}
layer {
  name: "loss"
  type: "HuberLoss"
  bottom: "ip3"
  bottom: "label"
  top: "loss"
  include {
    phase: TRAIN
  }
}
I0501 17:22:54.098790 13686 layer_factory.hpp:77] Creating layer parameters
I0501 17:22:54.098803 13686 net.cpp:94] Creating Layer parameters
I0501 17:22:54.098809 13686 net.cpp:409] parameters -> data
I0501 17:22:54.098817 13686 net.cpp:409] parameters -> label
I0501 17:22:54.098824 13686 hdf5_data_layer.cpp:79] Loading list of HDF5 filenames from: /home/purduethu/scratch/radon/d/deng106/CNNStatisticalModel/distributions/input/5_distributions_400_sample_size_train-parameters-path.txt
I0501 17:22:54.098971 13686 hdf5_data_layer.cpp:93] Number of HDF5 files: 1
I0501 17:22:54.099614 13686 hdf5.cpp:32] Datatype class: H5T_FLOAT
I0501 17:22:54.197005 13686 net.cpp:144] Setting up parameters
I0501 17:22:54.197036 13686 net.cpp:151] Top shape: 20 1 20 20 (8000)
I0501 17:22:54.197041 13686 net.cpp:151] Top shape: 20 (20)
I0501 17:22:54.197044 13686 net.cpp:159] Memory required for data: 32080
I0501 17:22:54.197051 13686 layer_factory.hpp:77] Creating layer conv1
I0501 17:22:54.197072 13686 net.cpp:94] Creating Layer conv1
I0501 17:22:54.197077 13686 net.cpp:435] conv1 <- data
I0501 17:22:54.197083 13686 net.cpp:409] conv1 -> conv1
I0501 17:22:54.202229 13686 net.cpp:144] Setting up conv1
I0501 17:22:54.202244 13686 net.cpp:151] Top shape: 20 64 20 20 (512000)
I0501 17:22:54.202249 13686 net.cpp:159] Memory required for data: 2080080
I0501 17:22:54.202260 13686 layer_factory.hpp:77] Creating layer relu1
I0501 17:22:54.202267 13686 net.cpp:94] Creating Layer relu1
I0501 17:22:54.202271 13686 net.cpp:435] relu1 <- conv1
I0501 17:22:54.202275 13686 net.cpp:396] relu1 -> conv1 (in-place)
I0501 17:22:54.202289 13686 net.cpp:144] Setting up relu1
I0501 17:22:54.202294 13686 net.cpp:151] Top shape: 20 64 20 20 (512000)
I0501 17:22:54.202297 13686 net.cpp:159] Memory required for data: 4128080
I0501 17:22:54.202301 13686 layer_factory.hpp:77] Creating layer conv2
I0501 17:22:54.202308 13686 net.cpp:94] Creating Layer conv2
I0501 17:22:54.202311 13686 net.cpp:435] conv2 <- conv1
I0501 17:22:54.202316 13686 net.cpp:409] conv2 -> conv2
I0501 17:22:54.213289 13686 net.cpp:144] Setting up conv2
I0501 17:22:54.213304 13686 net.cpp:151] Top shape: 20 64 20 20 (512000)
I0501 17:22:54.213309 13686 net.cpp:159] Memory required for data: 6176080
I0501 17:22:54.213316 13686 layer_factory.hpp:77] Creating layer relu2
I0501 17:22:54.213323 13686 net.cpp:94] Creating Layer relu2
I0501 17:22:54.213327 13686 net.cpp:435] relu2 <- conv2
I0501 17:22:54.213332 13686 net.cpp:396] relu2 -> conv2 (in-place)
I0501 17:22:54.213338 13686 net.cpp:144] Setting up relu2
I0501 17:22:54.213343 13686 net.cpp:151] Top shape: 20 64 20 20 (512000)
I0501 17:22:54.213346 13686 net.cpp:159] Memory required for data: 8224080
I0501 17:22:54.213349 13686 layer_factory.hpp:77] Creating layer pool2
I0501 17:22:54.213361 13686 net.cpp:94] Creating Layer pool2
I0501 17:22:54.213366 13686 net.cpp:435] pool2 <- conv2
I0501 17:22:54.213371 13686 net.cpp:409] pool2 -> pool2
I0501 17:22:54.213428 13686 net.cpp:144] Setting up pool2
I0501 17:22:54.213438 13686 net.cpp:151] Top shape: 20 64 10 10 (128000)
I0501 17:22:54.213440 13686 net.cpp:159] Memory required for data: 8736080
I0501 17:22:54.213443 13686 layer_factory.hpp:77] Creating layer conv3
I0501 17:22:54.213451 13686 net.cpp:94] Creating Layer conv3
I0501 17:22:54.213455 13686 net.cpp:435] conv3 <- pool2
I0501 17:22:54.213460 13686 net.cpp:409] conv3 -> conv3
I0501 17:22:54.218601 13686 net.cpp:144] Setting up conv3
I0501 17:22:54.218616 13686 net.cpp:151] Top shape: 20 64 10 10 (128000)
I0501 17:22:54.218619 13686 net.cpp:159] Memory required for data: 9248080
I0501 17:22:54.218627 13686 layer_factory.hpp:77] Creating layer relu3
I0501 17:22:54.218633 13686 net.cpp:94] Creating Layer relu3
I0501 17:22:54.218637 13686 net.cpp:435] relu3 <- conv3
I0501 17:22:54.218641 13686 net.cpp:396] relu3 -> conv3 (in-place)
I0501 17:22:54.218649 13686 net.cpp:144] Setting up relu3
I0501 17:22:54.218653 13686 net.cpp:151] Top shape: 20 64 10 10 (128000)
I0501 17:22:54.218657 13686 net.cpp:159] Memory required for data: 9760080
I0501 17:22:54.218659 13686 layer_factory.hpp:77] Creating layer conv4
I0501 17:22:54.218667 13686 net.cpp:94] Creating Layer conv4
I0501 17:22:54.218672 13686 net.cpp:435] conv4 <- conv3
I0501 17:22:54.218677 13686 net.cpp:409] conv4 -> conv4
I0501 17:22:54.223883 13686 net.cpp:144] Setting up conv4
I0501 17:22:54.223897 13686 net.cpp:151] Top shape: 20 64 10 10 (128000)
I0501 17:22:54.223901 13686 net.cpp:159] Memory required for data: 10272080
I0501 17:22:54.223907 13686 layer_factory.hpp:77] Creating layer relu4
I0501 17:22:54.223913 13686 net.cpp:94] Creating Layer relu4
I0501 17:22:54.223917 13686 net.cpp:435] relu4 <- conv4
I0501 17:22:54.223922 13686 net.cpp:396] relu4 -> conv4 (in-place)
I0501 17:22:54.223928 13686 net.cpp:144] Setting up relu4
I0501 17:22:54.223933 13686 net.cpp:151] Top shape: 20 64 10 10 (128000)
I0501 17:22:54.223937 13686 net.cpp:159] Memory required for data: 10784080
I0501 17:22:54.223939 13686 layer_factory.hpp:77] Creating layer conv5
I0501 17:22:54.223948 13686 net.cpp:94] Creating Layer conv5
I0501 17:22:54.223950 13686 net.cpp:435] conv5 <- conv4
I0501 17:22:54.223955 13686 net.cpp:409] conv5 -> conv5
I0501 17:22:54.229152 13686 net.cpp:144] Setting up conv5
I0501 17:22:54.229166 13686 net.cpp:151] Top shape: 20 64 10 10 (128000)
I0501 17:22:54.229171 13686 net.cpp:159] Memory required for data: 11296080
I0501 17:22:54.229178 13686 layer_factory.hpp:77] Creating layer relu5
I0501 17:22:54.229184 13686 net.cpp:94] Creating Layer relu5
I0501 17:22:54.229188 13686 net.cpp:435] relu5 <- conv5
I0501 17:22:54.229193 13686 net.cpp:396] relu5 -> conv5 (in-place)
I0501 17:22:54.229200 13686 net.cpp:144] Setting up relu5
I0501 17:22:54.229205 13686 net.cpp:151] Top shape: 20 64 10 10 (128000)
I0501 17:22:54.229208 13686 net.cpp:159] Memory required for data: 11808080
I0501 17:22:54.229212 13686 layer_factory.hpp:77] Creating layer pool5
I0501 17:22:54.229218 13686 net.cpp:94] Creating Layer pool5
I0501 17:22:54.229220 13686 net.cpp:435] pool5 <- conv5
I0501 17:22:54.229225 13686 net.cpp:409] pool5 -> pool5
I0501 17:22:54.229269 13686 net.cpp:144] Setting up pool5
I0501 17:22:54.229276 13686 net.cpp:151] Top shape: 20 64 5 5 (32000)
I0501 17:22:54.229279 13686 net.cpp:159] Memory required for data: 11936080
I0501 17:22:54.229284 13686 layer_factory.hpp:77] Creating layer ip1
I0501 17:22:54.229293 13686 net.cpp:94] Creating Layer ip1
I0501 17:22:54.229296 13686 net.cpp:435] ip1 <- pool5
I0501 17:22:54.229302 13686 net.cpp:409] ip1 -> ip1
I0501 17:22:54.231853 13686 net.cpp:144] Setting up ip1
I0501 17:22:54.231863 13686 net.cpp:151] Top shape: 20 64 (1280)
I0501 17:22:54.231865 13686 net.cpp:159] Memory required for data: 11941200
I0501 17:22:54.231870 13686 layer_factory.hpp:77] Creating layer ip2
I0501 17:22:54.231878 13686 net.cpp:94] Creating Layer ip2
I0501 17:22:54.231884 13686 net.cpp:435] ip2 <- ip1
I0501 17:22:54.231890 13686 net.cpp:409] ip2 -> ip2
I0501 17:22:54.232115 13686 net.cpp:144] Setting up ip2
I0501 17:22:54.232123 13686 net.cpp:151] Top shape: 20 64 (1280)
I0501 17:22:54.232126 13686 net.cpp:159] Memory required for data: 11946320
I0501 17:22:54.232132 13686 layer_factory.hpp:77] Creating layer ip3
I0501 17:22:54.232139 13686 net.cpp:94] Creating Layer ip3
I0501 17:22:54.232143 13686 net.cpp:435] ip3 <- ip2
I0501 17:22:54.232148 13686 net.cpp:409] ip3 -> ip3
I0501 17:22:54.232264 13686 net.cpp:144] Setting up ip3
I0501 17:22:54.232271 13686 net.cpp:151] Top shape: 20 1 (20)
I0501 17:22:54.232275 13686 net.cpp:159] Memory required for data: 11946400
I0501 17:22:54.232280 13686 layer_factory.hpp:77] Creating layer loss
I0501 17:22:54.232286 13686 net.cpp:94] Creating Layer loss
I0501 17:22:54.232290 13686 net.cpp:435] loss <- ip3
I0501 17:22:54.232293 13686 net.cpp:435] loss <- label
I0501 17:22:54.232300 13686 net.cpp:409] loss -> loss
I0501 17:22:54.232357 13686 net.cpp:144] Setting up loss
…
I0501 17:22:54.286564 13686 net.cpp:323] The NetState phase (0) differed from the phase (1) specified by a rule in layer intercept
I0501 17:22:54.286584 13686 net.cpp:323] The NetState phase (0) differed from the phase (1) specified by a rule in layer accuracy
I0501 17:22:54.286674 13686 net.cpp:52] Initializing net from parameters: 
state {
  phase: TRAIN
}
layer {
  name: "parameters"
  type: "HDF5Data"
  top: "data"
  top: "label"
  include {
    phase: TRAIN
  }
  hdf5_data_param {
    source: "/home/purduethu/scratch/radon/d/deng106/CNNStatisticalModel/distributions/input/5_distributions_400_sample_size_train-distributions-path.txt"
    batch_size: 20
  }
}
layer {
  name: "conv1"
  type: "Convolution"
  bottom: "data"
  top: "conv1"
  param {
    lr_mult: 1
  }
  param {
    lr_mult: 2
  }
  convolution_param {
    num_output: 64
    pad: 2
    kernel_size: 5
    stride: 1
    weight_filler {
      type: "gaussian"
      std: 0.0001
    }
    bias_filler {
      type: "constant"
    }
  }
}
layer {
  name: "relu1"
  type: "ReLU"
  bottom: "conv1"
  top: "conv1"
}
layer {
  name: "conv2"
  type: "Convolution"
  bottom: "conv1"
  top: "conv2"
  param {
    lr_mult: 1
  }
  param {
    lr_mult: 2
  }
  convolution_param {
    num_output: 64
    pad: 2
    kernel_size: 5
    stride: 1
    weight_filler {
      type: "gaussian"
      std: 0.01
    }
    bias_filler {
      type: "constant"
    }
  }
}
layer {
  name: "relu2"
  type: "ReLU"
  bottom: "conv2"
  top: "conv2"
}
layer {
  name: "pool2"
  type: "Pooling"
  bottom: "conv2"
  top: "pool2"
  pooling_param {
    pool: MAX
    kernel_size: 3
    stride: 2
  }
}
layer {
  name: "conv3"
  type: "Convolution"
  bottom: "pool2"
  top: "conv3"
  param {
    lr_mult: 1
  }
  param {
    lr_mult: 2
  }
  convolution_param {
    num_output: 64
    pad: 2
    kernel_size: 5
    stride: 1
    weight_filler {
      type: "gaussian"
      std: 0.01
    }
    bias_filler {
      type: "constant"
    }
  }
}
layer {
  name: "relu3"
  type: "ReLU"
  bottom: "conv3"
  top: "conv3"
}
layer {
  name: "conv4"
  type: "Convolution"
  bottom: "conv3"
  top: "conv4"
  param {
    lr_mult: 1
  }
  param {
    lr_mult: 2
  }
  convolution_param {
    num_output: 64
    pad: 2
    kernel_size: 5
    stride: 1
    weight_filler {
      type: "gaussian"
      std: 0.01
    }
    bias_filler {
      type: "constant"
    }
  }
}
layer {
  name: "relu4"
  type: "ReLU"
  bottom: "conv4"
  top: "conv4"
}
layer {
  name: "conv5"
  type: "Convolution"
  bottom: "conv4"
  top: "conv5"
  param {
    lr_mult: 1
  }
  param {
    lr_mult: 2
  }
  convolution_param {
    num_output: 64
    pad: 2
    kernel_size: 5
    stride: 1
    weight_filler {
      type: "gaussian"
      std: 0.01
    }
    bias_filler {
      type: "constant"
    }
  }
}
layer {
  name: "relu5"
  type: "ReLU"
  bottom: "conv5"
  top: "conv5"
}
layer {
  name: "pool5"
  type: "Pooling"
  bottom: "conv5"
  top: "pool5"
  pooling_param {
    pool: AVE
    kernel_size: 3
    stride: 2
  }
}
layer {
  name: "ip1"
  type: "InnerProduct"
  bottom: "pool5"
  top: "ip1"
  param {
    lr_mult: 1
  }
  param {
    lr_mult: 2
  }
  inner_product_param {
    num_output: 64
    weight_filler {
      type: "gaussian"
      std: 0.1
    }
    bias_filler {
      type: "constant"
    }
  }
}
layer {
  name: "ip2"
  type: "InnerProduct"
  bottom: "ip1"
  top: "ip2"
  param {
    lr_mult: 1
  }
  param {
    lr_mult: 2
  }
  inner_product_param {
    num_output: 64
    weight_filler {
      type: "gaussian"
      std: 0.1
    }
    bias_filler {
      type: "constant"
    }
  }
}
layer {
  name: "ip3"
  type: "InnerProduct"
  bottom: "ip2"
  top: "ip3"
  param {
    lr_mult: 1
  }
  param {
    lr_mult: 2
  }
  inner_product_param {
    num_output: 50
    weight_filler {
      type: "gaussian"
      std: 0.1
    }
    bias_filler {
      type: "constant"
    }
  }
}
layer {
  name: "loss"
  type: "SoftmaxWithLoss"
  bottom: "ip3"
  bottom: "label"
  top: "loss"
}
I0501 17:22:54.286725 13686 layer_factory.hpp:77] Creating layer parameters
I0501 17:22:54.286733 13686 net.cpp:94] Creating Layer parameters
I0501 17:22:54.286737 13686 net.cpp:409] parameters -> data
I0501 17:22:54.286744 13686 net.cpp:409] parameters -> label
I0501 17:22:54.286751 13686 hdf5_data_layer.cpp:79] Loading list of HDF5 filenames from: /home/purduethu/scratch/radon/d/deng106/CNNStatisticalModel/distributions/input/5_distributions_400_sample_size_train-distributions-path.txt
I0501 17:22:54.286864 13686 hdf5_data_layer.cpp:93] Number of HDF5 files: 1
I0501 17:22:54.381332 13686 hdf5.cpp:35] Datatype class: H5T_INTEGER
I0501 17:22:54.381772 13686 net.cpp:144] Setting up parameters
I0501 17:22:54.381786 13686 net.cpp:151] Top shape: 20 1 20 20 (8000)
I0501 17:22:54.381790 13686 net.cpp:151] Top shape: 20 (20)
I0501 17:22:54.381794 13686 net.cpp:159] Memory required for data: 32080
I0501 17:22:54.381800 13686 layer_factory.hpp:77] Creating layer conv1
I0501 17:22:54.381815 13686 net.cpp:94] Creating Layer conv1
I0501 17:22:54.381820 13686 net.cpp:435] conv1 <- data
I0501 17:22:54.381827 13686 net.cpp:409] conv1 -> conv1
I0501 17:22:54.384563 13686 net.cpp:144] Setting up conv1
I0501 17:22:54.384577 13686 net.cpp:151] Top shape: 20 64 20 20 (512000)
I0501 17:22:54.384582 13686 net.cpp:159] Memory required for data: 2080080
I0501 17:22:54.384593 13686 layer_factory.hpp:77] Creating layer relu1
I0501 17:22:54.384599 13686 net.cpp:94] Creating Layer relu1
I0501 17:22:54.384603 13686 net.cpp:435] relu1 <- conv1
I0501 17:22:54.384608 13686 net.cpp:396] relu1 -> conv1 (in-place)
I0501 17:22:54.384615 13686 net.cpp:144] Setting up relu1
I0501 17:22:54.384620 13686 net.cpp:151] Top shape: 20 64 20 20 (512000)
I0501 17:22:54.384624 13686 net.cpp:159] Memory required for data: 4128080
I0501 17:22:54.384626 13686 layer_factory.hpp:77] Creating layer conv2
I0501 17:22:54.384634 13686 net.cpp:94] Creating Layer conv2
I0501 17:22:54.384637 13686 net.cpp:435] conv2 <- conv1
I0501 17:22:54.384642 13686 net.cpp:409] conv2 -> conv2
I0501 17:22:54.394992 13686 net.cpp:144] Setting up conv2
I0501 17:22:54.395011 13686 net.cpp:151] Top shape: 20 64 20 20 (512000)
I0501 17:22:54.395015 13686 net.cpp:159] Memory required for data: 6176080
I0501 17:22:54.395027 13686 layer_factory.hpp:77] Creating layer relu2
I0501 17:22:54.395035 13686 net.cpp:94] Creating Layer relu2
I0501 17:22:54.395040 13686 net.cpp:435] relu2 <- conv2
I0501 17:22:54.395045 13686 net.cpp:396] relu2 -> conv2 (in-place)
I0501 17:22:54.395053 13686 net.cpp:144] Setting up relu2
I0501 17:22:54.395058 13686 net.cpp:151] Top shape: 20 64 20 20 (512000)
I0501 17:22:54.395062 13686 net.cpp:159] Memory required for data: 8224080
I0501 17:22:54.395066 13686 layer_factory.hpp:77] Creating layer pool2
I0501 17:22:54.395071 13686 net.cpp:94] Creating Layer pool2
I0501 17:22:54.395076 13686 net.cpp:435] pool2 <- conv2
I0501 17:22:54.395081 13686 net.cpp:409] pool2 -> pool2
I0501 17:22:54.395177 13686 net.cpp:144] Setting up pool2
I0501 17:22:54.395186 13686 net.cpp:151] Top shape: 20 64 10 10 (128000)
I0501 17:22:54.395190 13686 net.cpp:159] Memory required for data: 8736080
I0501 17:22:54.395193 13686 layer_factory.hpp:77] Creating layer conv3
I0501 17:22:54.395202 13686 net.cpp:94] Creating Layer conv3
I0501 17:22:54.395206 13686 net.cpp:435] conv3 <- pool2
I0501 17:22:54.395212 13686 net.cpp:409] conv3 -> conv3
I0501 17:22:54.400624 13686 net.cpp:144] Setting up conv3
I0501 17:22:54.400637 13686 net.cpp:151] Top shape: 20 64 10 10 (128000)
I0501 17:22:54.400641 13686 net.cpp:159] Memory required for data: 9248080
I0501 17:22:54.400650 13686 layer_factory.hpp:77] Creating layer relu3
I0501 17:22:54.400656 13686 net.cpp:94] Creating Layer relu3
I0501 17:22:54.400660 13686 net.cpp:435] relu3 <- conv3
I0501 17:22:54.400665 13686 net.cpp:396] relu3 -> conv3 (in-place)
I0501 17:22:54.400672 13686 net.cpp:144] Setting up relu3
I0501 17:22:54.400677 13686 net.cpp:151] Top shape: 20 64 10 10 (128000)
I0501 17:22:54.400681 13686 net.cpp:159] Memory required for data: 9760080
I0501 17:22:54.400683 13686 layer_factory.hpp:77] Creating layer conv4
I0501 17:22:54.400692 13686 net.cpp:94] Creating Layer conv4
I0501 17:22:54.400696 13686 net.cpp:435] conv4 <- conv3
I0501 17:22:54.400701 13686 net.cpp:409] conv4 -> conv4
I0501 17:22:54.406091 13686 net.cpp:144] Setting up conv4
I0501 17:22:54.406105 13686 net.cpp:151] Top shape: 20 64 10 10 (128000)
I0501 17:22:54.406110 13686 net.cpp:159] Memory required for data: 10272080
I0501 17:22:54.406116 13686 layer_factory.hpp:77] Creating layer relu4
I0501 17:22:54.406122 13686 net.cpp:94] Creating Layer relu4
I0501 17:22:54.406126 13686 net.cpp:435] relu4 <- conv4
I0501 17:22:54.406131 13686 net.cpp:396] relu4 -> conv4 (in-place)
I0501 17:22:54.406138 13686 net.cpp:144] Setting up relu4
I0501 17:22:54.406143 13686 net.cpp:151] Top shape: 20 64 10 10 (128000)
I0501 17:22:54.406147 13686 net.cpp:159] Memory required for data: 10784080
I0501 17:22:54.406149 13686 layer_factory.hpp:77] Creating layer conv5
I0501 17:22:54.406157 13686 net.cpp:94] Creating Layer conv5
I0501 17:22:54.406160 13686 net.cpp:435] conv5 <- conv4
I0501 17:22:54.406165 13686 net.cpp:409] conv5 -> conv5
I0501 17:22:54.411558 13686 net.cpp:144] Setting up conv5
I0501 17:22:54.411572 13686 net.cpp:151] Top shape: 20 64 10 10 (128000)
I0501 17:22:54.411576 13686 net.cpp:159] Memory required for data: 11296080
I0501 17:22:54.411586 13686 layer_factory.hpp:77] Creating layer relu5
I0501 17:22:54.411592 13686 net.cpp:94] Creating Layer relu5
I0501 17:22:54.411595 13686 net.cpp:435] relu5 <- conv5
I0501 17:22:54.411600 13686 net.cpp:396] relu5 -> conv5 (in-place)
I0501 17:22:54.411607 13686 net.cpp:144] Setting up relu5
I0501 17:22:54.411612 13686 net.cpp:151] Top shape: 20 64 10 10 (128000)
I0501 17:22:54.411614 13686 net.cpp:159] Memory required for data: 11808080
I0501 17:22:54.411618 13686 layer_factory.hpp:77] Creating layer pool5
I0501 17:22:54.411623 13686 net.cpp:94] Creating Layer pool5
I0501 17:22:54.411626 13686 net.cpp:435] pool5 <- conv5
I0501 17:22:54.411631 13686 net.cpp:409] pool5 -> pool5
I0501 17:22:54.411671 13686 net.cpp:144] Setting up pool5
I0501 17:22:54.411679 13686 net.cpp:151] Top shape: 20 64 5 5 (32000)
I0501 17:22:54.411682 13686 net.cpp:159] Memory required for data: 11936080
I0501 17:22:54.411685 13686 layer_factory.hpp:77] Creating layer ip1
I0501 17:22:54.411692 13686 net.cpp:94] Creating Layer ip1
I0501 17:22:54.411695 13686 net.cpp:435] ip1 <- pool5
I0501 17:22:54.411700 13686 net.cpp:409] ip1 -> ip1
I0501 17:22:54.414345 13686 net.cpp:144] Setting up ip1
I0501 17:22:54.414355 13686 net.cpp:151] Top shape: 20 64 (1280)
I0501 17:22:54.414357 13686 net.cpp:159] Memory required for data: 11941200
I0501 17:22:54.414363 13686 layer_factory.hpp:77] Creating layer ip2
I0501 17:22:54.414371 13686 net.cpp:94] Creating Layer ip2
I0501 17:22:54.414374 13686 net.cpp:435] ip2 <- ip1
I0501 17:22:54.414381 13686 net.cpp:409] ip2 -> ip2
I0501 17:22:54.414621 13686 net.cpp:144] Setting up ip2
I0501 17:22:54.414629 13686 net.cpp:151] Top shape: 20 64 (1280)
I0501 17:22:54.414633 13686 net.cpp:159] Memory required for data: 11946320
I0501 17:22:54.414638 13686 layer_factory.hpp:77] Creating layer ip3
I0501 17:22:54.414644 13686 net.cpp:94] Creating Layer ip3
I0501 17:22:54.414647 13686 net.cpp:435] ip3 <- ip2
I0501 17:22:54.414654 13686 net.cpp:409] ip3 -> ip3
I0501 17:22:54.414871 13686 net.cpp:144] Setting up ip3
I0501 17:22:54.414882 13686 net.cpp:151] Top shape: 20 50 (1000)
I0501 17:22:54.414886 13686 net.cpp:159] Memory required for data: 11950320
I0501 17:22:54.414892 13686 layer_factory.hpp:77] Creating layer loss
I0501 17:22:54.414901 13686 net.cpp:94] Creating Layer loss
I0501 17:22:54.414904 13686 net.cpp:435] loss <- ip3
I0501 17:22:54.414908 13686 net.cpp:435] loss <- label
I0501 17:22:54.414914 13686 net.cpp:409] loss -> loss
I0501 17:22:54.414921 13686 layer_factory.hpp:77] Creating layer loss
…
I0501 17:22:54.415460 13686 solver.cpp:181] Creating test net (#0) specified by net file: ./protocol/dis_5_400_dimension.protocol_distribution
I0501 17:22:54.415488 13686 net.cpp:323] The NetState phase (1) differed from the phase (0) specified by a rule in layer parameters
I0501 17:22:54.415586 13686 net.cpp:52] Initializing net from parameters: 
state {
  phase: TEST
}
layer {
  name: "intercept"
  type: "HDF5Data"
  top: "data"
  top: "label"
  include {
    phase: TEST
  }
  hdf5_data_param {
    source: "/home/purduethu/scratch/radon/d/deng106/CNNStatisticalModel/distributions/input/5_distributions_400_sample_size_test-distributions-path.txt"
    batch_size: 20
  }
}
layer {
  name: "conv1"
  type: "Convolution"
  bottom: "data"
  top: "conv1"
  param {
    lr_mult: 1
  }
  param {
    lr_mult: 2
  }
  convolution_param {
    num_output: 64
    pad: 2
    kernel_size: 5
    stride: 1
    weight_filler {
      type: "gaussian"
      std: 0.0001
    }
    bias_filler {
      type: "constant"
    }
  }
}
layer {
  name: "relu1"
  type: "ReLU"
  bottom: "conv1"
  top: "conv1"
}
layer {
  name: "conv2"
  type: "Convolution"
  bottom: "conv1"
  top: "conv2"
  param {
    lr_mult: 1
  }
  param {
    lr_mult: 2
  }
  convolution_param {
    num_output: 64
    pad: 2
    kernel_size: 5
    stride: 1
    weight_filler {
      type: "gaussian"
      std: 0.01
    }
    bias_filler {
      type: "constant"
    }
  }
}
layer {
  name: "relu2"
  type: "ReLU"
  bottom: "conv2"
  top: "conv2"
}
layer {
  name: "pool2"
  type: "Pooling"
  bottom: "conv2"
  top: "pool2"
  pooling_param {
    pool: MAX
    kernel_size: 3
    stride: 2
  }
}
layer {
  name: "conv3"
  type: "Convolution"
  bottom: "pool2"
  top: "conv3"
  param {
    lr_mult: 1
  }
  param {
    lr_mult: 2
  }
  convolution_param {
    num_output: 64
    pad: 2
    kernel_size: 5
    stride: 1
    weight_filler {
      type: "gaussian"
      std: 0.01
    }
    bias_filler {
      type: "constant"
    }
  }
}
layer {
  name: "relu3"
  type: "ReLU"
  bottom: "conv3"
  top: "conv3"
}
layer {
  name: "conv4"
  type: "Convolution"
  bottom: "conv3"
  top: "conv4"
  param {
    lr_mult: 1
  }
  param {
    lr_mult: 2
  }
  convolution_param {
    num_output: 64
    pad: 2
    kernel_size: 5
    stride: 1
    weight_filler {
      type: "gaussian"
      std: 0.01
    }
    bias_filler {
      type: "constant"
    }
  }
}
layer {
  name: "relu4"
  type: "ReLU"
  bottom: "conv4"
  top: "conv4"
}
layer {
  name: "conv5"
  type: "Convolution"
  bottom: "conv4"
  top: "conv5"
  param {
    lr_mult: 1
  }
  param {
    lr_mult: 2
  }
  convolution_param {
    num_output: 64
    pad: 2
    kernel_size: 5
    stride: 1
    weight_filler {
      type: "gaussian"
      std: 0.01
    }
    bias_filler {
      type: "constant"
    }
  }
}
layer {
  name: "relu5"
  type: "ReLU"
  bottom: "conv5"
  top: "conv5"
}
layer {
  name: "pool5"
  type: "Pooling"
  bottom: "conv5"
  top: "pool5"
  pooling_param {
    pool: AVE
    kernel_size: 3
    stride: 2
  }
}
layer {
  name: "ip1"
  type: "InnerProduct"
  bottom: "pool5"
  top: "ip1"
  param {
    lr_mult: 1
  }
  param {
    lr_mult: 2
  }
  inner_product_param {
    num_output: 64
    weight_filler {
      type: "gaussian"
      std: 0.1
    }
    bias_filler {
      type: "constant"
    }
  }
}
layer {
  name: "ip2"
  type: "InnerProduct"
  bottom: "ip1"
  top: "ip2"
  param {
    lr_mult: 1
  }
  param {
    lr_mult: 2
  }
  inner_product_param {
    num_output: 64
    weight_filler {
      type: "gaussian"
      std: 0.1
    }
    bias_filler {
      type: "constant"
    }
  }
}
layer {
  name: "ip3"
  type: "InnerProduct"
  bottom: "ip2"
  top: "ip3"
  param {
    lr_mult: 1
  }
  param {
    lr_mult: 2
  }
  inner_product_param {
    num_output: 50
    weight_filler {
      type: "gaussian"
      std: 0.1
    }
    bias_filler {
      type: "constant"
    }
  }
}
layer {
  name: "accuracy"
  type: "Accuracy"
  bottom: "ip3"
  bottom: "label"
  top: "accuracy"
  include {
    phase: TEST
  }
}
layer {
  name: "loss"
  type: "SoftmaxWithLoss"
  bottom: "ip3"
  bottom: "label"
  top: "loss"
}
I0501 17:22:54.415658 13686 layer_factory.hpp:77] Creating layer intercept
I0501 17:22:54.415668 13686 net.cpp:94] Creating Layer intercept
I0501 17:22:54.415673 13686 net.cpp:409] intercept -> data
I0501 17:22:54.415679 13686 net.cpp:409] intercept -> label
I0501 17:22:54.415685 13686 hdf5_data_layer.cpp:79] Loading list of HDF5 filenames from: /home/purduethu/scratch/radon/d/deng106/CNNStatisticalModel/distributions/input/5_distributions_400_sample_size_test-distributions-path.txt
I0501 17:22:54.415802 13686 hdf5_data_layer.cpp:93] Number of HDF5 files: 1
I0501 17:22:54.448915 13686 net.cpp:144] Setting up intercept
I0501 17:22:54.448963 13686 net.cpp:151] Top shape: 20 1 20 20 (8000)
I0501 17:22:54.448976 13686 net.cpp:151] Top shape: 20 (20)
I0501 17:22:54.448983 13686 net.cpp:159] Memory required for data: 32080
I0501 17:22:54.448994 13686 layer_factory.hpp:77] Creating layer label_intercept_1_split
I0501 17:22:54.449023 13686 net.cpp:94] Creating Layer label_intercept_1_split
I0501 17:22:54.449033 13686 net.cpp:435] label_intercept_1_split <- label
I0501 17:22:54.449045 13686 net.cpp:409] label_intercept_1_split -> label_intercept_1_split_0
I0501 17:22:54.449064 13686 net.cpp:409] label_intercept_1_split -> label_intercept_1_split_1
I0501 17:22:54.449164 13686 net.cpp:144] Setting up label_intercept_1_split
I0501 17:22:54.449178 13686 net.cpp:151] Top shape: 20 (20)
I0501 17:22:54.449188 13686 net.cpp:151] Top shape: 20 (20)
I0501 17:22:54.449195 13686 net.cpp:159] Memory required for data: 32240
I0501 17:22:54.449203 13686 layer_factory.hpp:77] Creating layer conv1
I0501 17:22:54.449223 13686 net.cpp:94] Creating Layer conv1
I0501 17:22:54.449231 13686 net.cpp:435] conv1 <- data
I0501 17:22:54.449244 13686 net.cpp:409] conv1 -> conv1
I0501 17:22:54.451779 13686 net.cpp:144] Setting up conv1
I0501 17:22:54.451802 13686 net.cpp:151] Top shape: 20 64 20 20 (512000)
I0501 17:22:54.451807 13686 net.cpp:159] Memory required for data: 2080240
I0501 17:22:54.451818 13686 layer_factory.hpp:77] Creating layer relu1
I0501 17:22:54.451827 13686 net.cpp:94] Creating Layer relu1
I0501 17:22:54.451830 13686 net.cpp:435] relu1 <- conv1
I0501 17:22:54.451834 13686 net.cpp:396] relu1 -> conv1 (in-place)
I0501 17:22:54.451843 13686 net.cpp:144] Setting up relu1
I0501 17:22:54.451848 13686 net.cpp:151] Top shape: 20 64 20 20 (512000)
I0501 17:22:54.451850 13686 net.cpp:159] Memory required for data: 4128240
I0501 17:22:54.451853 13686 layer_factory.hpp:77] Creating layer conv2
I0501 17:22:54.451863 13686 net.cpp:94] Creating Layer conv2
I0501 17:22:54.451866 13686 net.cpp:435] conv2 <- conv1
I0501 17:22:54.451871 13686 net.cpp:409] conv2 -> conv2
I0501 17:22:54.459988 13686 net.cpp:144] Setting up conv2
I0501 17:22:54.460009 13686 net.cpp:151] Top shape: 20 64 20 20 (512000)
I0501 17:22:54.460016 13686 net.cpp:159] Memory required for data: 6176240
I0501 17:22:54.460029 13686 layer_factory.hpp:77] Creating layer relu2
I0501 17:22:54.460039 13686 net.cpp:94] Creating Layer relu2
I0501 17:22:54.460045 13686 net.cpp:435] relu2 <- conv2
I0501 17:22:54.460053 13686 net.cpp:396] relu2 -> conv2 (in-place)
I0501 17:22:54.460064 13686 net.cpp:144] Setting up relu2
I0501 17:22:54.460072 13686 net.cpp:151] Top shape: 20 64 20 20 (512000)
I0501 17:22:54.460078 13686 net.cpp:159] Memory required for data: 8224240
I0501 17:22:54.460083 13686 layer_factory.hpp:77] Creating layer pool2
I0501 17:22:54.460090 13686 net.cpp:94] Creating Layer pool2
I0501 17:22:54.460096 13686 net.cpp:435] pool2 <- conv2
I0501 17:22:54.460103 13686 net.cpp:409] pool2 -> pool2
I0501 17:22:54.460192 13686 net.cpp:144] Setting up pool2
I0501 17:22:54.460203 13686 net.cpp:151] Top shape: 20 64 10 10 (128000)
I0501 17:22:54.460209 13686 net.cpp:159] Memory required for data: 8736240
I0501 17:22:54.460214 13686 layer_factory.hpp:77] Creating layer conv3
I0501 17:22:54.460227 13686 net.cpp:94] Creating Layer conv3
I0501 17:22:54.460233 13686 net.cpp:435] conv3 <- pool2
I0501 17:22:54.460242 13686 net.cpp:409] conv3 -> conv3
I0501 17:22:54.466401 13686 net.cpp:144] Setting up conv3
I0501 17:22:54.466421 13686 net.cpp:151] Top shape: 20 64 10 10 (128000)
I0501 17:22:54.466428 13686 net.cpp:159] Memory required for data: 9248240
I0501 17:22:54.466440 13686 layer_factory.hpp:77] Creating layer relu3
I0501 17:22:54.466450 13686 net.cpp:94] Creating Layer relu3
I0501 17:22:54.466456 13686 net.cpp:435] relu3 <- conv3
I0501 17:22:54.466464 13686 net.cpp:396] relu3 -> conv3 (in-place)
I0501 17:22:54.466475 13686 net.cpp:144] Setting up relu3
I0501 17:22:54.466482 13686 net.cpp:151] Top shape: 20 64 10 10 (128000)
I0501 17:22:54.466487 13686 net.cpp:159] Memory required for data: 9760240
I0501 17:22:54.466491 13686 layer_factory.hpp:77] Creating layer conv4
I0501 17:22:54.466503 13686 net.cpp:94] Creating Layer conv4
I0501 17:22:54.466509 13686 net.cpp:435] conv4 <- conv3
I0501 17:22:54.466517 13686 net.cpp:409] conv4 -> conv4
I0501 17:22:54.471772 13686 net.cpp:144] Setting up conv4
I0501 17:22:54.471791 13686 net.cpp:151] Top shape: 20 64 10 10 (128000)
I0501 17:22:54.471797 13686 net.cpp:159] Memory required for data: 10272240
I0501 17:22:54.471807 13686 layer_factory.hpp:77] Creating layer relu4
I0501 17:22:54.471815 13686 net.cpp:94] Creating Layer relu4
I0501 17:22:54.471822 13686 net.cpp:435] relu4 <- conv4
I0501 17:22:54.471829 13686 net.cpp:396] relu4 -> conv4 (in-place)
I0501 17:22:54.471839 13686 net.cpp:144] Setting up relu4
I0501 17:22:54.471846 13686 net.cpp:151] Top shape: 20 64 10 10 (128000)
I0501 17:22:54.471851 13686 net.cpp:159] Memory required for data: 10784240
I0501 17:22:54.471856 13686 layer_factory.hpp:77] Creating layer conv5
I0501 17:22:54.471868 13686 net.cpp:94] Creating Layer conv5
I0501 17:22:54.471873 13686 net.cpp:435] conv5 <- conv4
I0501 17:22:54.471881 13686 net.cpp:409] conv5 -> conv5
I0501 17:22:54.477814 13686 net.cpp:144] Setting up conv5
I0501 17:22:54.477838 13686 net.cpp:151] Top shape: 20 64 10 10 (128000)
I0501 17:22:54.477845 13686 net.cpp:159] Memory required for data: 11296240
I0501 17:22:54.477857 13686 layer_factory.hpp:77] Creating layer relu5
I0501 17:22:54.477866 13686 net.cpp:94] Creating Layer relu5
I0501 17:22:54.477872 13686 net.cpp:435] relu5 <- conv5
I0501 17:22:54.477880 13686 net.cpp:396] relu5 -> conv5 (in-place)
I0501 17:22:54.477890 13686 net.cpp:144] Setting up relu5
I0501 17:22:54.477897 13686 net.cpp:151] Top shape: 20 64 10 10 (128000)
I0501 17:22:54.477901 13686 net.cpp:159] Memory required for data: 11808240
I0501 17:22:54.477906 13686 layer_factory.hpp:77] Creating layer pool5
I0501 17:22:54.477913 13686 net.cpp:94] Creating Layer pool5
I0501 17:22:54.477918 13686 net.cpp:435] pool5 <- conv5
I0501 17:22:54.477924 13686 net.cpp:409] pool5 -> pool5
I0501 17:22:54.477982 13686 net.cpp:144] Setting up pool5
I0501 17:22:54.477991 13686 net.cpp:151] Top shape: 20 64 5 5 (32000)
I0501 17:22:54.477996 13686 net.cpp:159] Memory required for data: 11936240
I0501 17:22:54.478001 13686 layer_factory.hpp:77] Creating layer ip1
I0501 17:22:54.478011 13686 net.cpp:94] Creating Layer ip1
I0501 17:22:54.478018 13686 net.cpp:435] ip1 <- pool5
I0501 17:22:54.478024 13686 net.cpp:409] ip1 -> ip1
I0501 17:22:54.482019 13686 net.cpp:144] Setting up ip1
I0501 17:22:54.482033 13686 net.cpp:151] Top shape: 20 64 (1280)
I0501 17:22:54.482039 13686 net.cpp:159] Memory required for data: 11941360
I0501 17:22:54.482048 13686 layer_factory.hpp:77] Creating layer ip2
I0501 17:22:54.482056 13686 net.cpp:94] Creating Layer ip2
I0501 17:22:54.482062 13686 net.cpp:435] ip2 <- ip1
I0501 17:22:54.482070 13686 net.cpp:409] ip2 -> ip2
I0501 17:22:54.482429 13686 net.cpp:144] Setting up ip2
I0501 17:22:54.482440 13686 net.cpp:151] Top shape: 20 64 (1280)
I0501 17:22:54.482445 13686 net.cpp:159] Memory required for data: 11946480
I0501 17:22:54.482453 13686 layer_factory.hpp:77] Creating layer ip3
I0501 17:22:54.482463 13686 net.cpp:94] Creating Layer ip3
I0501 17:22:54.482470 13686 net.cpp:435] ip3 <- ip2
I0501 17:22:54.482476 13686 net.cpp:409] ip3 -> ip3
I0501 17:22:54.482789 13686 net.cpp:144] Setting up ip3
I0501 17:22:54.482800 13686 net.cpp:151] Top shape: 20 50 (1000)
I0501 17:22:54.482805 13686 net.cpp:159] Memory required for data: 11950480
I0501 17:22:54.482812 13686 layer_factory.hpp:77] Creating layer ip3_ip3_0_split
I0501 17:22:54.482820 13686 net.cpp:94] Creating Layer ip3_ip3_0_split
I0501 17:22:54.482825 13686 net.cpp:435] ip3_ip3_0_split <- ip3
I0501 17:22:54.482832 13686 net.cpp:409] ip3_ip3_0_split -> ip3_ip3_0_split_0
I0501 17:22:54.482841 13686 net.cpp:409] ip3_ip3_0_split -> ip3_ip3_0_split_1
I0501 17:22:54.482903 13686 net.cpp:144] Setting up ip3_ip3_0_split
I0501 17:22:54.482913 13686 net.cpp:151] Top shape: 20 50 (1000)
I0501 17:22:54.482918 13686 net.cpp:151] Top shape: 20 50 (1000)
I0501 17:22:54.482923 13686 net.cpp:159] Memory required for data: 11958480
I0501 17:22:54.482928 13686 layer_factory.hpp:77] Creating layer accuracy
I0501 17:22:54.482935 13686 net.cpp:94] Creating Layer accuracy
I0501 17:22:54.482941 13686 net.cpp:435] accuracy <- ip3_ip3_0_split_0
I0501 17:22:54.482947 13686 net.cpp:435] accuracy <- label_intercept_1_split_0
I0501 17:22:54.482954 13686 net.cpp:409] accuracy -> accuracy
…
