…
I0502 00:56:15.800782 16798 net.cpp:323] The NetState phase (0) differed from the phase (1) specified by a rule in layer intercept
I0502 00:56:15.800799 16798 net.cpp:323] The NetState phase (0) differed from the phase (1) specified by a rule in layer loss
I0502 00:56:15.800882 16798 net.cpp:52] Initializing net from parameters: 
state {
  phase: TRAIN
}
layer {
  name: "parameters"
  type: "HDF5Data"
  top: "data"
  top: "label"
  include {
    phase: TRAIN
  }
  hdf5_data_param {
    source: "/home/purduethu/scratch/radon/d/deng106/CNNStatisticalModel/distributions/input/20_distributions_400_sample_size_train-parameters-path.txt"
    batch_size: 20
  }
}
layer {
  name: "conv1"
  type: "Convolution"
  bottom: "data"
  top: "conv1"
  param {
    lr_mult: 1
  }
  param {
    lr_mult: 2
  }
  convolution_param {
    num_output: 64
    pad: 2
    kernel_size: 5
    stride: 1
    weight_filler {
      type: "gaussian"
      std: 0.0001
    }
    bias_filler {
      type: "constant"
    }
  }
}
layer {
  name: "relu1"
  type: "ReLU"
  bottom: "conv1"
  top: "conv1"
}
layer {
  name: "conv2"
  type: "Convolution"
  bottom: "conv1"
  top: "conv2"
  param {
    lr_mult: 1
  }
  param {
    lr_mult: 2
  }
  convolution_param {
    num_output: 64
    pad: 2
    kernel_size: 5
    stride: 1
    weight_filler {
      type: "gaussian"
      std: 0.01
    }
    bias_filler {
      type: "constant"
    }
  }
}
layer {
  name: "relu2"
  type: "ReLU"
  bottom: "conv2"
  top: "conv2"
}
layer {
  name: "pool2"
  type: "Pooling"
  bottom: "conv2"
  top: "pool2"
  pooling_param {
    pool: MAX
    kernel_size: 3
    stride: 2
  }
}
layer {
  name: "conv3"
  type: "Convolution"
  bottom: "pool2"
  top: "conv3"
  param {
    lr_mult: 1
  }
  param {
    lr_mult: 2
  }
  convolution_param {
    num_output: 64
    pad: 2
    kernel_size: 5
    stride: 1
    weight_filler {
      type: "gaussian"
      std: 0.01
    }
    bias_filler {
      type: "constant"
    }
  }
}
layer {
  name: "relu3"
  type: "ReLU"
  bottom: "conv3"
  top: "conv3"
}
layer {
  name: "conv4"
  type: "Convolution"
  bottom: "conv3"
  top: "conv4"
  param {
    lr_mult: 1
  }
  param {
    lr_mult: 2
  }
  convolution_param {
    num_output: 64
    pad: 2
    kernel_size: 5
    stride: 1
    weight_filler {
      type: "gaussian"
      std: 0.01
    }
    bias_filler {
      type: "constant"
    }
  }
}
layer {
  name: "relu4"
  type: "ReLU"
  bottom: "conv4"
  top: "conv4"
}
layer {
  name: "conv5"
  type: "Convolution"
  bottom: "conv4"
  top: "conv5"
  param {
    lr_mult: 1
  }
  param {
    lr_mult: 2
  }
  convolution_param {
    num_output: 64
    pad: 2
    kernel_size: 5
    stride: 1
    weight_filler {
      type: "gaussian"
      std: 0.01
    }
    bias_filler {
      type: "constant"
    }
  }
}
layer {
  name: "relu5"
  type: "ReLU"
  bottom: "conv5"
  top: "conv5"
}
layer {
  name: "pool5"
  type: "Pooling"
  bottom: "conv5"
  top: "pool5"
  pooling_param {
    pool: AVE
    kernel_size: 3
    stride: 2
  }
}
layer {
  name: "ip1"
  type: "InnerProduct"
  bottom: "pool5"
  top: "ip1"
  param {
    lr_mult: 1
  }
  param {
    lr_mult: 2
  }
  inner_product_param {
    num_output: 64
    weight_filler {
      type: "gaussian"
      std: 0.1
    }
    bias_filler {
      type: "constant"
    }
  }
}
layer {
  name: "ip2"
  type: "InnerProduct"
  bottom: "ip1"
  top: "ip2"
  param {
    lr_mult: 1
  }
  param {
    lr_mult: 2
  }
  inner_product_param {
    num_output: 64
    weight_filler {
      type: "gaussian"
      std: 0.1
    }
    bias_filler {
      type: "constant"
    }
  }
}
layer {
  name: "ip3"
  type: "InnerProduct"
  bottom: "ip2"
  top: "ip3"
  param {
    lr_mult: 1
  }
  param {
    lr_mult: 2
  }
  inner_product_param {
    num_output: 1
    weight_filler {
      type: "gaussian"
      std: 0.1
    }
    bias_filler {
      type: "constant"
    }
  }
}
layer {
  name: "loss"
  type: "HuberLoss"
  bottom: "ip3"
  bottom: "label"
  top: "loss"
  include {
    phase: TRAIN
  }
}
I0502 00:56:15.800942 16798 layer_factory.hpp:77] Creating layer parameters
I0502 00:56:15.800956 16798 net.cpp:94] Creating Layer parameters
I0502 00:56:15.800961 16798 net.cpp:409] parameters -> data
I0502 00:56:15.800969 16798 net.cpp:409] parameters -> label
I0502 00:56:15.800979 16798 hdf5_data_layer.cpp:79] Loading list of HDF5 filenames from: /home/purduethu/scratch/radon/d/deng106/CNNStatisticalModel/distributions/input/20_distributions_400_sample_size_train-parameters-path.txt
I0502 00:56:15.800995 16798 hdf5_data_layer.cpp:93] Number of HDF5 files: 1
I0502 00:56:15.801563 16798 hdf5.cpp:32] Datatype class: H5T_FLOAT
I0502 00:56:16.066915 16798 net.cpp:144] Setting up parameters
I0502 00:56:16.066946 16798 net.cpp:151] Top shape: 20 1 20 20 (8000)
I0502 00:56:16.066952 16798 net.cpp:151] Top shape: 20 (20)
I0502 00:56:16.066956 16798 net.cpp:159] Memory required for data: 32080
I0502 00:56:16.066962 16798 layer_factory.hpp:77] Creating layer conv1
I0502 00:56:16.066978 16798 net.cpp:94] Creating Layer conv1
I0502 00:56:16.066982 16798 net.cpp:435] conv1 <- data
I0502 00:56:16.066990 16798 net.cpp:409] conv1 -> conv1
I0502 00:56:16.076745 16798 net.cpp:144] Setting up conv1
I0502 00:56:16.076766 16798 net.cpp:151] Top shape: 20 64 20 20 (512000)
I0502 00:56:16.076769 16798 net.cpp:159] Memory required for data: 2080080
I0502 00:56:16.076781 16798 layer_factory.hpp:77] Creating layer relu1
I0502 00:56:16.076788 16798 net.cpp:94] Creating Layer relu1
I0502 00:56:16.076792 16798 net.cpp:435] relu1 <- conv1
I0502 00:56:16.076797 16798 net.cpp:396] relu1 -> conv1 (in-place)
I0502 00:56:16.076809 16798 net.cpp:144] Setting up relu1
I0502 00:56:16.076814 16798 net.cpp:151] Top shape: 20 64 20 20 (512000)
I0502 00:56:16.076817 16798 net.cpp:159] Memory required for data: 4128080
I0502 00:56:16.076819 16798 layer_factory.hpp:77] Creating layer conv2
I0502 00:56:16.076828 16798 net.cpp:94] Creating Layer conv2
I0502 00:56:16.076831 16798 net.cpp:435] conv2 <- conv1
I0502 00:56:16.076836 16798 net.cpp:409] conv2 -> conv2
I0502 00:56:16.086702 16798 net.cpp:144] Setting up conv2
I0502 00:56:16.086719 16798 net.cpp:151] Top shape: 20 64 20 20 (512000)
I0502 00:56:16.086722 16798 net.cpp:159] Memory required for data: 6176080
I0502 00:56:16.086730 16798 layer_factory.hpp:77] Creating layer relu2
I0502 00:56:16.086736 16798 net.cpp:94] Creating Layer relu2
I0502 00:56:16.086740 16798 net.cpp:435] relu2 <- conv2
I0502 00:56:16.086745 16798 net.cpp:396] relu2 -> conv2 (in-place)
I0502 00:56:16.086752 16798 net.cpp:144] Setting up relu2
I0502 00:56:16.086756 16798 net.cpp:151] Top shape: 20 64 20 20 (512000)
I0502 00:56:16.086760 16798 net.cpp:159] Memory required for data: 8224080
I0502 00:56:16.086762 16798 layer_factory.hpp:77] Creating layer pool2
I0502 00:56:16.086776 16798 net.cpp:94] Creating Layer pool2
I0502 00:56:16.086778 16798 net.cpp:435] pool2 <- conv2
I0502 00:56:16.086783 16798 net.cpp:409] pool2 -> pool2
I0502 00:56:16.086834 16798 net.cpp:144] Setting up pool2
I0502 00:56:16.086843 16798 net.cpp:151] Top shape: 20 64 10 10 (128000)
I0502 00:56:16.086845 16798 net.cpp:159] Memory required for data: 8736080
I0502 00:56:16.086848 16798 layer_factory.hpp:77] Creating layer conv3
I0502 00:56:16.086856 16798 net.cpp:94] Creating Layer conv3
I0502 00:56:16.086860 16798 net.cpp:435] conv3 <- pool2
I0502 00:56:16.086865 16798 net.cpp:409] conv3 -> conv3
I0502 00:56:16.095415 16798 net.cpp:144] Setting up conv3
I0502 00:56:16.095429 16798 net.cpp:151] Top shape: 20 64 10 10 (128000)
I0502 00:56:16.095433 16798 net.cpp:159] Memory required for data: 9248080
I0502 00:56:16.095441 16798 layer_factory.hpp:77] Creating layer relu3
I0502 00:56:16.095446 16798 net.cpp:94] Creating Layer relu3
I0502 00:56:16.095450 16798 net.cpp:435] relu3 <- conv3
I0502 00:56:16.095455 16798 net.cpp:396] relu3 -> conv3 (in-place)
I0502 00:56:16.095463 16798 net.cpp:144] Setting up relu3
I0502 00:56:16.095466 16798 net.cpp:151] Top shape: 20 64 10 10 (128000)
I0502 00:56:16.095469 16798 net.cpp:159] Memory required for data: 9760080
I0502 00:56:16.095473 16798 layer_factory.hpp:77] Creating layer conv4
I0502 00:56:16.095480 16798 net.cpp:94] Creating Layer conv4
I0502 00:56:16.095484 16798 net.cpp:435] conv4 <- conv3
I0502 00:56:16.095489 16798 net.cpp:409] conv4 -> conv4
I0502 00:56:16.100641 16798 net.cpp:144] Setting up conv4
I0502 00:56:16.100656 16798 net.cpp:151] Top shape: 20 64 10 10 (128000)
I0502 00:56:16.100658 16798 net.cpp:159] Memory required for data: 10272080
I0502 00:56:16.100666 16798 layer_factory.hpp:77] Creating layer relu4
I0502 00:56:16.100672 16798 net.cpp:94] Creating Layer relu4
I0502 00:56:16.100674 16798 net.cpp:435] relu4 <- conv4
I0502 00:56:16.100679 16798 net.cpp:396] relu4 -> conv4 (in-place)
I0502 00:56:16.100687 16798 net.cpp:144] Setting up relu4
I0502 00:56:16.100690 16798 net.cpp:151] Top shape: 20 64 10 10 (128000)
I0502 00:56:16.100693 16798 net.cpp:159] Memory required for data: 10784080
I0502 00:56:16.100697 16798 layer_factory.hpp:77] Creating layer conv5
I0502 00:56:16.100704 16798 net.cpp:94] Creating Layer conv5
I0502 00:56:16.100708 16798 net.cpp:435] conv5 <- conv4
I0502 00:56:16.100713 16798 net.cpp:409] conv5 -> conv5
I0502 00:56:16.106705 16798 net.cpp:144] Setting up conv5
I0502 00:56:16.106720 16798 net.cpp:151] Top shape: 20 64 10 10 (128000)
I0502 00:56:16.106724 16798 net.cpp:159] Memory required for data: 11296080
I0502 00:56:16.106732 16798 layer_factory.hpp:77] Creating layer relu5
I0502 00:56:16.106739 16798 net.cpp:94] Creating Layer relu5
I0502 00:56:16.106741 16798 net.cpp:435] relu5 <- conv5
I0502 00:56:16.106746 16798 net.cpp:396] relu5 -> conv5 (in-place)
I0502 00:56:16.106753 16798 net.cpp:144] Setting up relu5
I0502 00:56:16.106757 16798 net.cpp:151] Top shape: 20 64 10 10 (128000)
I0502 00:56:16.106760 16798 net.cpp:159] Memory required for data: 11808080
I0502 00:56:16.106763 16798 layer_factory.hpp:77] Creating layer pool5
I0502 00:56:16.106768 16798 net.cpp:94] Creating Layer pool5
I0502 00:56:16.106771 16798 net.cpp:435] pool5 <- conv5
I0502 00:56:16.106775 16798 net.cpp:409] pool5 -> pool5
I0502 00:56:16.106812 16798 net.cpp:144] Setting up pool5
I0502 00:56:16.106819 16798 net.cpp:151] Top shape: 20 64 5 5 (32000)
I0502 00:56:16.106822 16798 net.cpp:159] Memory required for data: 11936080
I0502 00:56:16.106825 16798 layer_factory.hpp:77] Creating layer ip1
I0502 00:56:16.106832 16798 net.cpp:94] Creating Layer ip1
I0502 00:56:16.106837 16798 net.cpp:435] ip1 <- pool5
I0502 00:56:16.106842 16798 net.cpp:409] ip1 -> ip1
I0502 00:56:16.109370 16798 net.cpp:144] Setting up ip1
I0502 00:56:16.109380 16798 net.cpp:151] Top shape: 20 64 (1280)
I0502 00:56:16.109383 16798 net.cpp:159] Memory required for data: 11941200
I0502 00:56:16.109390 16798 layer_factory.hpp:77] Creating layer ip2
I0502 00:56:16.109395 16798 net.cpp:94] Creating Layer ip2
I0502 00:56:16.109402 16798 net.cpp:435] ip2 <- ip1
I0502 00:56:16.109408 16798 net.cpp:409] ip2 -> ip2
I0502 00:56:16.109611 16798 net.cpp:144] Setting up ip2
I0502 00:56:16.109619 16798 net.cpp:151] Top shape: 20 64 (1280)
I0502 00:56:16.109622 16798 net.cpp:159] Memory required for data: 11946320
I0502 00:56:16.109627 16798 layer_factory.hpp:77] Creating layer ip3
I0502 00:56:16.109632 16798 net.cpp:94] Creating Layer ip3
I0502 00:56:16.109637 16798 net.cpp:435] ip3 <- ip2
I0502 00:56:16.109642 16798 net.cpp:409] ip3 -> ip3
I0502 00:56:16.109740 16798 net.cpp:144] Setting up ip3
I0502 00:56:16.109746 16798 net.cpp:151] Top shape: 20 1 (20)
I0502 00:56:16.109750 16798 net.cpp:159] Memory required for data: 11946400
I0502 00:56:16.109755 16798 layer_factory.hpp:77] Creating layer loss
I0502 00:56:16.109764 16798 net.cpp:94] Creating Layer loss
I0502 00:56:16.109768 16798 net.cpp:435] loss <- ip3
I0502 00:56:16.109772 16798 net.cpp:435] loss <- label
I0502 00:56:16.109776 16798 net.cpp:409] loss -> loss
I0502 00:56:16.109824 16798 net.cpp:144] Setting up loss
…
I0502 00:56:16.198662 16798 net.cpp:323] The NetState phase (0) differed from the phase (1) specified by a rule in layer intercept
I0502 00:56:16.198676 16798 net.cpp:323] The NetState phase (0) differed from the phase (1) specified by a rule in layer accuracy
I0502 00:56:16.198760 16798 net.cpp:52] Initializing net from parameters: 
state {
  phase: TRAIN
}
layer {
  name: "parameters"
  type: "HDF5Data"
  top: "data"
  top: "label"
  include {
    phase: TRAIN
  }
  hdf5_data_param {
    source: "/home/purduethu/scratch/radon/d/deng106/CNNStatisticalModel/distributions/input/20_distributions_400_sample_size_train-distributions-path.txt"
    batch_size: 20
  }
}
layer {
  name: "conv1"
  type: "Convolution"
  bottom: "data"
  top: "conv1"
  param {
    lr_mult: 1
  }
  param {
    lr_mult: 2
  }
  convolution_param {
    num_output: 64
    pad: 2
    kernel_size: 5
    stride: 1
    weight_filler {
      type: "gaussian"
      std: 0.0001
    }
    bias_filler {
      type: "constant"
    }
  }
}
layer {
  name: "relu1"
  type: "ReLU"
  bottom: "conv1"
  top: "conv1"
}
layer {
  name: "conv2"
  type: "Convolution"
  bottom: "conv1"
  top: "conv2"
  param {
    lr_mult: 1
  }
  param {
    lr_mult: 2
  }
  convolution_param {
    num_output: 64
    pad: 2
    kernel_size: 5
    stride: 1
    weight_filler {
      type: "gaussian"
      std: 0.01
    }
    bias_filler {
      type: "constant"
    }
  }
}
layer {
  name: "relu2"
  type: "ReLU"
  bottom: "conv2"
  top: "conv2"
}
layer {
  name: "pool2"
  type: "Pooling"
  bottom: "conv2"
  top: "pool2"
  pooling_param {
    pool: MAX
    kernel_size: 3
    stride: 2
  }
}
layer {
  name: "conv3"
  type: "Convolution"
  bottom: "pool2"
  top: "conv3"
  param {
    lr_mult: 1
  }
  param {
    lr_mult: 2
  }
  convolution_param {
    num_output: 64
    pad: 2
    kernel_size: 5
    stride: 1
    weight_filler {
      type: "gaussian"
      std: 0.01
    }
    bias_filler {
      type: "constant"
    }
  }
}
layer {
  name: "relu3"
  type: "ReLU"
  bottom: "conv3"
  top: "conv3"
}
layer {
  name: "conv4"
  type: "Convolution"
  bottom: "conv3"
  top: "conv4"
  param {
    lr_mult: 1
  }
  param {
    lr_mult: 2
  }
  convolution_param {
    num_output: 64
    pad: 2
    kernel_size: 5
    stride: 1
    weight_filler {
      type: "gaussian"
      std: 0.01
    }
    bias_filler {
      type: "constant"
    }
  }
}
layer {
  name: "relu4"
  type: "ReLU"
  bottom: "conv4"
  top: "conv4"
}
layer {
  name: "conv5"
  type: "Convolution"
  bottom: "conv4"
  top: "conv5"
  param {
    lr_mult: 1
  }
  param {
    lr_mult: 2
  }
  convolution_param {
    num_output: 64
    pad: 2
    kernel_size: 5
    stride: 1
    weight_filler {
      type: "gaussian"
      std: 0.01
    }
    bias_filler {
      type: "constant"
    }
  }
}
layer {
  name: "relu5"
  type: "ReLU"
  bottom: "conv5"
  top: "conv5"
}
layer {
  name: "pool5"
  type: "Pooling"
  bottom: "conv5"
  top: "pool5"
  pooling_param {
    pool: AVE
    kernel_size: 3
    stride: 2
  }
}
layer {
  name: "ip1"
  type: "InnerProduct"
  bottom: "pool5"
  top: "ip1"
  param {
    lr_mult: 1
  }
  param {
    lr_mult: 2
  }
  inner_product_param {
    num_output: 64
    weight_filler {
      type: "gaussian"
      std: 0.1
    }
    bias_filler {
      type: "constant"
    }
  }
}
layer {
  name: "ip2"
  type: "InnerProduct"
  bottom: "ip1"
  top: "ip2"
  param {
    lr_mult: 1
  }
  param {
    lr_mult: 2
  }
  inner_product_param {
    num_output: 64
    weight_filler {
      type: "gaussian"
      std: 0.1
    }
    bias_filler {
      type: "constant"
    }
  }
}
layer {
  name: "ip3"
  type: "InnerProduct"
  bottom: "ip2"
  top: "ip3"
  param {
    lr_mult: 1
  }
  param {
    lr_mult: 2
  }
  inner_product_param {
    num_output: 50
    weight_filler {
      type: "gaussian"
      std: 0.1
    }
    bias_filler {
      type: "constant"
    }
  }
}
layer {
  name: "loss"
  type: "SoftmaxWithLoss"
  bottom: "ip3"
  bottom: "label"
  top: "loss"
}
I0502 00:56:16.198810 16798 layer_factory.hpp:77] Creating layer parameters
I0502 00:56:16.198819 16798 net.cpp:94] Creating Layer parameters
I0502 00:56:16.198823 16798 net.cpp:409] parameters -> data
I0502 00:56:16.198829 16798 net.cpp:409] parameters -> label
I0502 00:56:16.198835 16798 hdf5_data_layer.cpp:79] Loading list of HDF5 filenames from: /home/purduethu/scratch/radon/d/deng106/CNNStatisticalModel/distributions/input/20_distributions_400_sample_size_train-distributions-path.txt
I0502 00:56:16.198851 16798 hdf5_data_layer.cpp:93] Number of HDF5 files: 1
I0502 00:56:16.452473 16798 hdf5.cpp:35] Datatype class: H5T_INTEGER
I0502 00:56:16.453507 16798 net.cpp:144] Setting up parameters
I0502 00:56:16.453523 16798 net.cpp:151] Top shape: 20 1 20 20 (8000)
I0502 00:56:16.453527 16798 net.cpp:151] Top shape: 20 (20)
I0502 00:56:16.453531 16798 net.cpp:159] Memory required for data: 32080
I0502 00:56:16.453537 16798 layer_factory.hpp:77] Creating layer conv1
I0502 00:56:16.453552 16798 net.cpp:94] Creating Layer conv1
I0502 00:56:16.453557 16798 net.cpp:435] conv1 <- data
I0502 00:56:16.453562 16798 net.cpp:409] conv1 -> conv1
I0502 00:56:16.456285 16798 net.cpp:144] Setting up conv1
I0502 00:56:16.456300 16798 net.cpp:151] Top shape: 20 64 20 20 (512000)
I0502 00:56:16.456303 16798 net.cpp:159] Memory required for data: 2080080
I0502 00:56:16.456313 16798 layer_factory.hpp:77] Creating layer relu1
I0502 00:56:16.456321 16798 net.cpp:94] Creating Layer relu1
I0502 00:56:16.456324 16798 net.cpp:435] relu1 <- conv1
I0502 00:56:16.456329 16798 net.cpp:396] relu1 -> conv1 (in-place)
I0502 00:56:16.456337 16798 net.cpp:144] Setting up relu1
I0502 00:56:16.456341 16798 net.cpp:151] Top shape: 20 64 20 20 (512000)
I0502 00:56:16.456344 16798 net.cpp:159] Memory required for data: 4128080
I0502 00:56:16.456347 16798 layer_factory.hpp:77] Creating layer conv2
I0502 00:56:16.456356 16798 net.cpp:94] Creating Layer conv2
I0502 00:56:16.456358 16798 net.cpp:435] conv2 <- conv1
I0502 00:56:16.456363 16798 net.cpp:409] conv2 -> conv2
I0502 00:56:16.465898 16798 net.cpp:144] Setting up conv2
I0502 00:56:16.465936 16798 net.cpp:151] Top shape: 20 64 20 20 (512000)
I0502 00:56:16.465947 16798 net.cpp:159] Memory required for data: 6176080
I0502 00:56:16.465970 16798 layer_factory.hpp:77] Creating layer relu2
I0502 00:56:16.465986 16798 net.cpp:94] Creating Layer relu2
I0502 00:56:16.465997 16798 net.cpp:435] relu2 <- conv2
I0502 00:56:16.466009 16798 net.cpp:396] relu2 -> conv2 (in-place)
I0502 00:56:16.466029 16798 net.cpp:144] Setting up relu2
I0502 00:56:16.466042 16798 net.cpp:151] Top shape: 20 64 20 20 (512000)
I0502 00:56:16.466050 16798 net.cpp:159] Memory required for data: 8224080
I0502 00:56:16.466059 16798 layer_factory.hpp:77] Creating layer pool2
I0502 00:56:16.466073 16798 net.cpp:94] Creating Layer pool2
I0502 00:56:16.466081 16798 net.cpp:435] pool2 <- conv2
I0502 00:56:16.466094 16798 net.cpp:409] pool2 -> pool2
I0502 00:56:16.466230 16798 net.cpp:144] Setting up pool2
I0502 00:56:16.466248 16798 net.cpp:151] Top shape: 20 64 10 10 (128000)
I0502 00:56:16.466258 16798 net.cpp:159] Memory required for data: 8736080
I0502 00:56:16.466266 16798 layer_factory.hpp:77] Creating layer conv3
I0502 00:56:16.466285 16798 net.cpp:94] Creating Layer conv3
I0502 00:56:16.466295 16798 net.cpp:435] conv3 <- pool2
I0502 00:56:16.466321 16798 net.cpp:409] conv3 -> conv3
I0502 00:56:16.477639 16798 net.cpp:144] Setting up conv3
I0502 00:56:16.477655 16798 net.cpp:151] Top shape: 20 64 10 10 (128000)
I0502 00:56:16.477659 16798 net.cpp:159] Memory required for data: 9248080
I0502 00:56:16.477668 16798 layer_factory.hpp:77] Creating layer relu3
I0502 00:56:16.477674 16798 net.cpp:94] Creating Layer relu3
I0502 00:56:16.477676 16798 net.cpp:435] relu3 <- conv3
I0502 00:56:16.477681 16798 net.cpp:396] relu3 -> conv3 (in-place)
I0502 00:56:16.477689 16798 net.cpp:144] Setting up relu3
I0502 00:56:16.477694 16798 net.cpp:151] Top shape: 20 64 10 10 (128000)
I0502 00:56:16.477696 16798 net.cpp:159] Memory required for data: 9760080
I0502 00:56:16.477699 16798 layer_factory.hpp:77] Creating layer conv4
I0502 00:56:16.477707 16798 net.cpp:94] Creating Layer conv4
I0502 00:56:16.477711 16798 net.cpp:435] conv4 <- conv3
I0502 00:56:16.477716 16798 net.cpp:409] conv4 -> conv4
I0502 00:56:16.483007 16798 net.cpp:144] Setting up conv4
I0502 00:56:16.483021 16798 net.cpp:151] Top shape: 20 64 10 10 (128000)
I0502 00:56:16.483026 16798 net.cpp:159] Memory required for data: 10272080
I0502 00:56:16.483031 16798 layer_factory.hpp:77] Creating layer relu4
I0502 00:56:16.483037 16798 net.cpp:94] Creating Layer relu4
I0502 00:56:16.483042 16798 net.cpp:435] relu4 <- conv4
I0502 00:56:16.483047 16798 net.cpp:396] relu4 -> conv4 (in-place)
I0502 00:56:16.483053 16798 net.cpp:144] Setting up relu4
I0502 00:56:16.483057 16798 net.cpp:151] Top shape: 20 64 10 10 (128000)
I0502 00:56:16.483060 16798 net.cpp:159] Memory required for data: 10784080
I0502 00:56:16.483063 16798 layer_factory.hpp:77] Creating layer conv5
I0502 00:56:16.483070 16798 net.cpp:94] Creating Layer conv5
I0502 00:56:16.483074 16798 net.cpp:435] conv5 <- conv4
I0502 00:56:16.483079 16798 net.cpp:409] conv5 -> conv5
I0502 00:56:16.488384 16798 net.cpp:144] Setting up conv5
I0502 00:56:16.488399 16798 net.cpp:151] Top shape: 20 64 10 10 (128000)
I0502 00:56:16.488402 16798 net.cpp:159] Memory required for data: 11296080
I0502 00:56:16.488410 16798 layer_factory.hpp:77] Creating layer relu5
I0502 00:56:16.488416 16798 net.cpp:94] Creating Layer relu5
I0502 00:56:16.488420 16798 net.cpp:435] relu5 <- conv5
I0502 00:56:16.488425 16798 net.cpp:396] relu5 -> conv5 (in-place)
I0502 00:56:16.488431 16798 net.cpp:144] Setting up relu5
I0502 00:56:16.488435 16798 net.cpp:151] Top shape: 20 64 10 10 (128000)
I0502 00:56:16.488438 16798 net.cpp:159] Memory required for data: 11808080
I0502 00:56:16.488441 16798 layer_factory.hpp:77] Creating layer pool5
I0502 00:56:16.488446 16798 net.cpp:94] Creating Layer pool5
I0502 00:56:16.488451 16798 net.cpp:435] pool5 <- conv5
I0502 00:56:16.488454 16798 net.cpp:409] pool5 -> pool5
I0502 00:56:16.488488 16798 net.cpp:144] Setting up pool5
I0502 00:56:16.488495 16798 net.cpp:151] Top shape: 20 64 5 5 (32000)
I0502 00:56:16.488498 16798 net.cpp:159] Memory required for data: 11936080
I0502 00:56:16.488502 16798 layer_factory.hpp:77] Creating layer ip1
I0502 00:56:16.488508 16798 net.cpp:94] Creating Layer ip1
I0502 00:56:16.488512 16798 net.cpp:435] ip1 <- pool5
I0502 00:56:16.488517 16798 net.cpp:409] ip1 -> ip1
I0502 00:56:16.491060 16798 net.cpp:144] Setting up ip1
I0502 00:56:16.491068 16798 net.cpp:151] Top shape: 20 64 (1280)
I0502 00:56:16.491071 16798 net.cpp:159] Memory required for data: 11941200
I0502 00:56:16.491077 16798 layer_factory.hpp:77] Creating layer ip2
I0502 00:56:16.491083 16798 net.cpp:94] Creating Layer ip2
I0502 00:56:16.491086 16798 net.cpp:435] ip2 <- ip1
I0502 00:56:16.491091 16798 net.cpp:409] ip2 -> ip2
I0502 00:56:16.491304 16798 net.cpp:144] Setting up ip2
I0502 00:56:16.491312 16798 net.cpp:151] Top shape: 20 64 (1280)
I0502 00:56:16.491314 16798 net.cpp:159] Memory required for data: 11946320
I0502 00:56:16.491319 16798 layer_factory.hpp:77] Creating layer ip3
I0502 00:56:16.491324 16798 net.cpp:94] Creating Layer ip3
I0502 00:56:16.491328 16798 net.cpp:435] ip3 <- ip2
I0502 00:56:16.491333 16798 net.cpp:409] ip3 -> ip3
I0502 00:56:16.491525 16798 net.cpp:144] Setting up ip3
I0502 00:56:16.491533 16798 net.cpp:151] Top shape: 20 50 (1000)
I0502 00:56:16.491536 16798 net.cpp:159] Memory required for data: 11950320
I0502 00:56:16.491541 16798 layer_factory.hpp:77] Creating layer loss
I0502 00:56:16.491549 16798 net.cpp:94] Creating Layer loss
I0502 00:56:16.491551 16798 net.cpp:435] loss <- ip3
I0502 00:56:16.491555 16798 net.cpp:435] loss <- label
I0502 00:56:16.491559 16798 net.cpp:409] loss -> loss
I0502 00:56:16.491566 16798 layer_factory.hpp:77] Creating layer loss
…
I0502 00:56:16.492077 16798 solver.cpp:181] Creating test net (#0) specified by net file: ./protocol/dis_20_400_dimension.protocol_distribution
I0502 00:56:16.492105 16798 net.cpp:323] The NetState phase (1) differed from the phase (0) specified by a rule in layer parameters
I0502 00:56:16.492197 16798 net.cpp:52] Initializing net from parameters: 
state {
  phase: TEST
}
layer {
  name: "intercept"
  type: "HDF5Data"
  top: "data"
  top: "label"
  include {
    phase: TEST
  }
  hdf5_data_param {
    source: "/home/purduethu/scratch/radon/d/deng106/CNNStatisticalModel/distributions/input/20_distributions_400_sample_size_test-distributions-path.txt"
    batch_size: 20
  }
}
layer {
  name: "conv1"
  type: "Convolution"
  bottom: "data"
  top: "conv1"
  param {
    lr_mult: 1
  }
  param {
    lr_mult: 2
  }
  convolution_param {
    num_output: 64
    pad: 2
    kernel_size: 5
    stride: 1
    weight_filler {
      type: "gaussian"
      std: 0.0001
    }
    bias_filler {
      type: "constant"
    }
  }
}
layer {
  name: "relu1"
  type: "ReLU"
  bottom: "conv1"
  top: "conv1"
}
layer {
  name: "conv2"
  type: "Convolution"
  bottom: "conv1"
  top: "conv2"
  param {
    lr_mult: 1
  }
  param {
    lr_mult: 2
  }
  convolution_param {
    num_output: 64
    pad: 2
    kernel_size: 5
    stride: 1
    weight_filler {
      type: "gaussian"
      std: 0.01
    }
    bias_filler {
      type: "constant"
    }
  }
}
layer {
  name: "relu2"
  type: "ReLU"
  bottom: "conv2"
  top: "conv2"
}
layer {
  name: "pool2"
  type: "Pooling"
  bottom: "conv2"
  top: "pool2"
  pooling_param {
    pool: MAX
    kernel_size: 3
    stride: 2
  }
}
layer {
  name: "conv3"
  type: "Convolution"
  bottom: "pool2"
  top: "conv3"
  param {
    lr_mult: 1
  }
  param {
    lr_mult: 2
  }
  convolution_param {
    num_output: 64
    pad: 2
    kernel_size: 5
    stride: 1
    weight_filler {
      type: "gaussian"
      std: 0.01
    }
    bias_filler {
      type: "constant"
    }
  }
}
layer {
  name: "relu3"
  type: "ReLU"
  bottom: "conv3"
  top: "conv3"
}
layer {
  name: "conv4"
  type: "Convolution"
  bottom: "conv3"
  top: "conv4"
  param {
    lr_mult: 1
  }
  param {
    lr_mult: 2
  }
  convolution_param {
    num_output: 64
    pad: 2
    kernel_size: 5
    stride: 1
    weight_filler {
      type: "gaussian"
      std: 0.01
    }
    bias_filler {
      type: "constant"
    }
  }
}
layer {
  name: "relu4"
  type: "ReLU"
  bottom: "conv4"
  top: "conv4"
}
layer {
  name: "conv5"
  type: "Convolution"
  bottom: "conv4"
  top: "conv5"
  param {
    lr_mult: 1
  }
  param {
    lr_mult: 2
  }
  convolution_param {
    num_output: 64
    pad: 2
    kernel_size: 5
    stride: 1
    weight_filler {
      type: "gaussian"
      std: 0.01
    }
    bias_filler {
      type: "constant"
    }
  }
}
layer {
  name: "relu5"
  type: "ReLU"
  bottom: "conv5"
  top: "conv5"
}
layer {
  name: "pool5"
  type: "Pooling"
  bottom: "conv5"
  top: "pool5"
  pooling_param {
    pool: AVE
    kernel_size: 3
    stride: 2
  }
}
layer {
  name: "ip1"
  type: "InnerProduct"
  bottom: "pool5"
  top: "ip1"
  param {
    lr_mult: 1
  }
  param {
    lr_mult: 2
  }
  inner_product_param {
    num_output: 64
    weight_filler {
      type: "gaussian"
      std: 0.1
    }
    bias_filler {
      type: "constant"
    }
  }
}
layer {
  name: "ip2"
  type: "InnerProduct"
  bottom: "ip1"
  top: "ip2"
  param {
    lr_mult: 1
  }
  param {
    lr_mult: 2
  }
  inner_product_param {
    num_output: 64
    weight_filler {
      type: "gaussian"
      std: 0.1
    }
    bias_filler {
      type: "constant"
    }
  }
}
layer {
  name: "ip3"
  type: "InnerProduct"
  bottom: "ip2"
  top: "ip3"
  param {
    lr_mult: 1
  }
  param {
    lr_mult: 2
  }
  inner_product_param {
    num_output: 50
    weight_filler {
      type: "gaussian"
      std: 0.1
    }
    bias_filler {
      type: "constant"
    }
  }
}
layer {
  name: "accuracy"
  type: "Accuracy"
  bottom: "ip3"
  bottom: "label"
  top: "accuracy"
  include {
    phase: TEST
  }
}
layer {
  name: "loss"
  type: "SoftmaxWithLoss"
  bottom: "ip3"
  bottom: "label"
  top: "loss"
}
I0502 00:56:16.492260 16798 layer_factory.hpp:77] Creating layer intercept
I0502 00:56:16.492269 16798 net.cpp:94] Creating Layer intercept
I0502 00:56:16.492274 16798 net.cpp:409] intercept -> data
I0502 00:56:16.492280 16798 net.cpp:409] intercept -> label
I0502 00:56:16.492285 16798 hdf5_data_layer.cpp:79] Loading list of HDF5 filenames from: /home/purduethu/scratch/radon/d/deng106/CNNStatisticalModel/distributions/input/20_distributions_400_sample_size_test-distributions-path.txt
I0502 00:56:16.492305 16798 hdf5_data_layer.cpp:93] Number of HDF5 files: 1
I0502 00:56:16.557646 16798 net.cpp:144] Setting up intercept
I0502 00:56:16.557679 16798 net.cpp:151] Top shape: 20 1 20 20 (8000)
I0502 00:56:16.557684 16798 net.cpp:151] Top shape: 20 (20)
I0502 00:56:16.557687 16798 net.cpp:159] Memory required for data: 32080
I0502 00:56:16.557693 16798 layer_factory.hpp:77] Creating layer label_intercept_1_split
I0502 00:56:16.557705 16798 net.cpp:94] Creating Layer label_intercept_1_split
I0502 00:56:16.557709 16798 net.cpp:435] label_intercept_1_split <- label
I0502 00:56:16.557715 16798 net.cpp:409] label_intercept_1_split -> label_intercept_1_split_0
I0502 00:56:16.557723 16798 net.cpp:409] label_intercept_1_split -> label_intercept_1_split_1
I0502 00:56:16.557770 16798 net.cpp:144] Setting up label_intercept_1_split
I0502 00:56:16.557777 16798 net.cpp:151] Top shape: 20 (20)
I0502 00:56:16.557780 16798 net.cpp:151] Top shape: 20 (20)
I0502 00:56:16.557783 16798 net.cpp:159] Memory required for data: 32240
I0502 00:56:16.557787 16798 layer_factory.hpp:77] Creating layer conv1
I0502 00:56:16.557798 16798 net.cpp:94] Creating Layer conv1
I0502 00:56:16.557801 16798 net.cpp:435] conv1 <- data
I0502 00:56:16.557806 16798 net.cpp:409] conv1 -> conv1
I0502 00:56:16.559150 16798 net.cpp:144] Setting up conv1
I0502 00:56:16.559171 16798 net.cpp:151] Top shape: 20 64 20 20 (512000)
I0502 00:56:16.559176 16798 net.cpp:159] Memory required for data: 2080240
I0502 00:56:16.559185 16798 layer_factory.hpp:77] Creating layer relu1
I0502 00:56:16.559193 16798 net.cpp:94] Creating Layer relu1
I0502 00:56:16.559196 16798 net.cpp:435] relu1 <- conv1
I0502 00:56:16.559201 16798 net.cpp:396] relu1 -> conv1 (in-place)
I0502 00:56:16.559208 16798 net.cpp:144] Setting up relu1
I0502 00:56:16.559212 16798 net.cpp:151] Top shape: 20 64 20 20 (512000)
I0502 00:56:16.559216 16798 net.cpp:159] Memory required for data: 4128240
I0502 00:56:16.559218 16798 layer_factory.hpp:77] Creating layer conv2
I0502 00:56:16.559227 16798 net.cpp:94] Creating Layer conv2
I0502 00:56:16.559231 16798 net.cpp:435] conv2 <- conv1
I0502 00:56:16.559236 16798 net.cpp:409] conv2 -> conv2
I0502 00:56:16.564106 16798 net.cpp:144] Setting up conv2
I0502 00:56:16.564121 16798 net.cpp:151] Top shape: 20 64 20 20 (512000)
I0502 00:56:16.564126 16798 net.cpp:159] Memory required for data: 6176240
I0502 00:56:16.564133 16798 layer_factory.hpp:77] Creating layer relu2
I0502 00:56:16.564139 16798 net.cpp:94] Creating Layer relu2
I0502 00:56:16.564142 16798 net.cpp:435] relu2 <- conv2
I0502 00:56:16.564147 16798 net.cpp:396] relu2 -> conv2 (in-place)
I0502 00:56:16.564154 16798 net.cpp:144] Setting up relu2
I0502 00:56:16.564158 16798 net.cpp:151] Top shape: 20 64 20 20 (512000)
I0502 00:56:16.564162 16798 net.cpp:159] Memory required for data: 8224240
I0502 00:56:16.564164 16798 layer_factory.hpp:77] Creating layer pool2
I0502 00:56:16.564169 16798 net.cpp:94] Creating Layer pool2
I0502 00:56:16.564172 16798 net.cpp:435] pool2 <- conv2
I0502 00:56:16.564177 16798 net.cpp:409] pool2 -> pool2
I0502 00:56:16.564227 16798 net.cpp:144] Setting up pool2
I0502 00:56:16.564234 16798 net.cpp:151] Top shape: 20 64 10 10 (128000)
I0502 00:56:16.564237 16798 net.cpp:159] Memory required for data: 8736240
I0502 00:56:16.564240 16798 layer_factory.hpp:77] Creating layer conv3
I0502 00:56:16.564249 16798 net.cpp:94] Creating Layer conv3
I0502 00:56:16.564251 16798 net.cpp:435] conv3 <- pool2
I0502 00:56:16.564256 16798 net.cpp:409] conv3 -> conv3
I0502 00:56:16.569049 16798 net.cpp:144] Setting up conv3
I0502 00:56:16.569063 16798 net.cpp:151] Top shape: 20 64 10 10 (128000)
I0502 00:56:16.569067 16798 net.cpp:159] Memory required for data: 9248240
I0502 00:56:16.569075 16798 layer_factory.hpp:77] Creating layer relu3
I0502 00:56:16.569082 16798 net.cpp:94] Creating Layer relu3
I0502 00:56:16.569087 16798 net.cpp:435] relu3 <- conv3
I0502 00:56:16.569090 16798 net.cpp:396] relu3 -> conv3 (in-place)
I0502 00:56:16.569097 16798 net.cpp:144] Setting up relu3
I0502 00:56:16.569102 16798 net.cpp:151] Top shape: 20 64 10 10 (128000)
I0502 00:56:16.569104 16798 net.cpp:159] Memory required for data: 9760240
I0502 00:56:16.569108 16798 layer_factory.hpp:77] Creating layer conv4
I0502 00:56:16.569115 16798 net.cpp:94] Creating Layer conv4
I0502 00:56:16.569119 16798 net.cpp:435] conv4 <- conv3
I0502 00:56:16.569123 16798 net.cpp:409] conv4 -> conv4
I0502 00:56:16.572613 16798 net.cpp:144] Setting up conv4
I0502 00:56:16.572626 16798 net.cpp:151] Top shape: 20 64 10 10 (128000)
I0502 00:56:16.572630 16798 net.cpp:159] Memory required for data: 10272240
I0502 00:56:16.572636 16798 layer_factory.hpp:77] Creating layer relu4
I0502 00:56:16.572643 16798 net.cpp:94] Creating Layer relu4
I0502 00:56:16.572645 16798 net.cpp:435] relu4 <- conv4
I0502 00:56:16.572650 16798 net.cpp:396] relu4 -> conv4 (in-place)
I0502 00:56:16.572657 16798 net.cpp:144] Setting up relu4
I0502 00:56:16.572661 16798 net.cpp:151] Top shape: 20 64 10 10 (128000)
I0502 00:56:16.572664 16798 net.cpp:159] Memory required for data: 10784240
I0502 00:56:16.572667 16798 layer_factory.hpp:77] Creating layer conv5
I0502 00:56:16.572674 16798 net.cpp:94] Creating Layer conv5
I0502 00:56:16.572679 16798 net.cpp:435] conv5 <- conv4
I0502 00:56:16.572682 16798 net.cpp:409] conv5 -> conv5
I0502 00:56:16.576637 16798 net.cpp:144] Setting up conv5
I0502 00:56:16.576655 16798 net.cpp:151] Top shape: 20 64 10 10 (128000)
I0502 00:56:16.576660 16798 net.cpp:159] Memory required for data: 11296240
I0502 00:56:16.576668 16798 layer_factory.hpp:77] Creating layer relu5
I0502 00:56:16.576674 16798 net.cpp:94] Creating Layer relu5
I0502 00:56:16.576678 16798 net.cpp:435] relu5 <- conv5
I0502 00:56:16.576683 16798 net.cpp:396] relu5 -> conv5 (in-place)
I0502 00:56:16.576689 16798 net.cpp:144] Setting up relu5
I0502 00:56:16.576694 16798 net.cpp:151] Top shape: 20 64 10 10 (128000)
I0502 00:56:16.576696 16798 net.cpp:159] Memory required for data: 11808240
I0502 00:56:16.576699 16798 layer_factory.hpp:77] Creating layer pool5
I0502 00:56:16.576704 16798 net.cpp:94] Creating Layer pool5
I0502 00:56:16.576707 16798 net.cpp:435] pool5 <- conv5
I0502 00:56:16.576711 16798 net.cpp:409] pool5 -> pool5
I0502 00:56:16.576746 16798 net.cpp:144] Setting up pool5
I0502 00:56:16.576752 16798 net.cpp:151] Top shape: 20 64 5 5 (32000)
I0502 00:56:16.576756 16798 net.cpp:159] Memory required for data: 11936240
I0502 00:56:16.576758 16798 layer_factory.hpp:77] Creating layer ip1
I0502 00:56:16.576766 16798 net.cpp:94] Creating Layer ip1
I0502 00:56:16.576768 16798 net.cpp:435] ip1 <- pool5
I0502 00:56:16.576773 16798 net.cpp:409] ip1 -> ip1
I0502 00:56:16.579313 16798 net.cpp:144] Setting up ip1
I0502 00:56:16.579320 16798 net.cpp:151] Top shape: 20 64 (1280)
I0502 00:56:16.579324 16798 net.cpp:159] Memory required for data: 11941360
I0502 00:56:16.579329 16798 layer_factory.hpp:77] Creating layer ip2
I0502 00:56:16.579335 16798 net.cpp:94] Creating Layer ip2
I0502 00:56:16.579339 16798 net.cpp:435] ip2 <- ip1
I0502 00:56:16.579344 16798 net.cpp:409] ip2 -> ip2
I0502 00:56:16.579571 16798 net.cpp:144] Setting up ip2
I0502 00:56:16.579577 16798 net.cpp:151] Top shape: 20 64 (1280)
I0502 00:56:16.579581 16798 net.cpp:159] Memory required for data: 11946480
I0502 00:56:16.579586 16798 layer_factory.hpp:77] Creating layer ip3
I0502 00:56:16.579593 16798 net.cpp:94] Creating Layer ip3
I0502 00:56:16.579597 16798 net.cpp:435] ip3 <- ip2
I0502 00:56:16.579602 16798 net.cpp:409] ip3 -> ip3
I0502 00:56:16.579802 16798 net.cpp:144] Setting up ip3
I0502 00:56:16.579809 16798 net.cpp:151] Top shape: 20 50 (1000)
I0502 00:56:16.579813 16798 net.cpp:159] Memory required for data: 11950480
I0502 00:56:16.579818 16798 layer_factory.hpp:77] Creating layer ip3_ip3_0_split
I0502 00:56:16.579823 16798 net.cpp:94] Creating Layer ip3_ip3_0_split
I0502 00:56:16.579825 16798 net.cpp:435] ip3_ip3_0_split <- ip3
I0502 00:56:16.579829 16798 net.cpp:409] ip3_ip3_0_split -> ip3_ip3_0_split_0
I0502 00:56:16.579836 16798 net.cpp:409] ip3_ip3_0_split -> ip3_ip3_0_split_1
I0502 00:56:16.579875 16798 net.cpp:144] Setting up ip3_ip3_0_split
I0502 00:56:16.579881 16798 net.cpp:151] Top shape: 20 50 (1000)
I0502 00:56:16.579885 16798 net.cpp:151] Top shape: 20 50 (1000)
I0502 00:56:16.579888 16798 net.cpp:159] Memory required for data: 11958480
I0502 00:56:16.579891 16798 layer_factory.hpp:77] Creating layer accuracy
I0502 00:56:16.579897 16798 net.cpp:94] Creating Layer accuracy
I0502 00:56:16.579900 16798 net.cpp:435] accuracy <- ip3_ip3_0_split_0
I0502 00:56:16.579905 16798 net.cpp:435] accuracy <- label_intercept_1_split_0
I0502 00:56:16.579910 16798 net.cpp:409] accuracy -> accuracy
…
