…
I0504 23:26:43.367825   664 net.cpp:323] The NetState phase (0) differed from the phase (1) specified by a rule in layer intercept
I0504 23:26:43.367839   664 net.cpp:323] The NetState phase (0) differed from the phase (1) specified by a rule in layer loss
I0504 23:26:43.367916   664 net.cpp:52] Initializing net from parameters: 
state {
  phase: TRAIN
}
layer {
  name: "parameters"
  type: "HDF5Data"
  top: "data"
  top: "label"
  include {
    phase: TRAIN
  }
  hdf5_data_param {
    source: "/home/purduethu/scratch/radon/d/deng106/CNNStatisticalModel/distributions/input/50_distributions_400_sample_size_train-parameters-path.txt"
    batch_size: 20
  }
}
layer {
  name: "conv1"
  type: "Convolution"
  bottom: "data"
  top: "conv1"
  param {
    lr_mult: 1
  }
  param {
    lr_mult: 2
  }
  convolution_param {
    num_output: 64
    pad: 2
    kernel_size: 5
    stride: 1
    weight_filler {
      type: "gaussian"
      std: 0.0001
    }
    bias_filler {
      type: "constant"
    }
  }
}
layer {
  name: "relu1"
  type: "ReLU"
  bottom: "conv1"
  top: "conv1"
}
layer {
  name: "pool1"
  type: "Pooling"
  bottom: "conv1"
  top: "pool1"
  pooling_param {
    pool: MAX
    kernel_size: 3
    stride: 2
  }
}
layer {
  name: "conv2"
  type: "Convolution"
  bottom: "pool1"
  top: "conv2"
  param {
    lr_mult: 1
  }
  param {
    lr_mult: 2
  }
  convolution_param {
    num_output: 128
    pad: 2
    kernel_size: 5
    stride: 1
    weight_filler {
      type: "gaussian"
      std: 0.01
    }
    bias_filler {
      type: "constant"
    }
  }
}
layer {
  name: "relu2"
  type: "ReLU"
  bottom: "conv2"
  top: "conv2"
}
layer {
  name: "conv3"
  type: "Convolution"
  bottom: "conv2"
  top: "conv3"
  param {
    lr_mult: 1
  }
  param {
    lr_mult: 2
  }
  convolution_param {
    num_output: 128
    pad: 2
    kernel_size: 5
    stride: 1
    weight_filler {
      type: "gaussian"
      std: 0.01
    }
    bias_filler {
      type: "constant"
    }
  }
}
layer {
  name: "relu3"
  type: "ReLU"
  bottom: "conv3"
  top: "conv3"
}
layer {
  name: "pool3"
  type: "Pooling"
  bottom: "conv3"
  top: "pool3"
  pooling_param {
    pool: AVE
    kernel_size: 3
    stride: 2
  }
}
layer {
  name: "ip1"
  type: "InnerProduct"
  bottom: "pool3"
  top: "ip1"
  param {
    lr_mult: 1
  }
  param {
    lr_mult: 2
  }
  inner_product_param {
    num_output: 512
    weight_filler {
      type: "gaussian"
      std: 0.1
    }
    bias_filler {
      type: "constant"
    }
  }
}
layer {
  name: "ip2"
  type: "InnerProduct"
  bottom: "ip1"
  top: "ip2"
  param {
    lr_mult: 1
  }
  param {
    lr_mult: 2
  }
  inner_product_param {
    num_output: 256
    weight_filler {
      type: "gaussian"
      std: 0.1
    }
    bias_filler {
      type: "constant"
    }
  }
}
layer {
  name: "ip3"
  type: "InnerProduct"
  bottom: "ip2"
  top: "ip3"
  param {
    lr_mult: 1
  }
  param {
    lr_mult: 2
  }
  inner_product_param {
    num_output: 1
    weight_filler {
      type: "gaussian"
      std: 0.1
    }
    bias_filler {
      type: "constant"
    }
  }
}
layer {
  name: "loss"
  type: "HuberLoss"
  bottom: "ip3"
  bottom: "label"
  top: "loss"
  include {
    phase: TRAIN
  }
}
I0504 23:26:43.367977   664 layer_factory.hpp:77] Creating layer parameters
I0504 23:26:43.367991   664 net.cpp:94] Creating Layer parameters
I0504 23:26:43.368005   664 net.cpp:409] parameters -> data
I0504 23:26:43.368023   664 net.cpp:409] parameters -> label
I0504 23:26:43.368033   664 hdf5_data_layer.cpp:79] Loading list of HDF5 filenames from: /home/purduethu/scratch/radon/d/deng106/CNNStatisticalModel/distributions/input/50_distributions_400_sample_size_train-parameters-path.txt
I0504 23:26:43.368055   664 hdf5_data_layer.cpp:93] Number of HDF5 files: 1
I0504 23:26:43.368523   664 hdf5.cpp:32] Datatype class: H5T_FLOAT
I0504 23:26:44.010241   664 net.cpp:144] Setting up parameters
I0504 23:26:44.010275   664 net.cpp:151] Top shape: 20 1 20 20 (8000)
I0504 23:26:44.010282   664 net.cpp:151] Top shape: 20 (20)
I0504 23:26:44.010284   664 net.cpp:159] Memory required for data: 32080
I0504 23:26:44.010293   664 layer_factory.hpp:77] Creating layer conv1
I0504 23:26:44.010316   664 net.cpp:94] Creating Layer conv1
I0504 23:26:44.010323   664 net.cpp:435] conv1 <- data
I0504 23:26:44.010334   664 net.cpp:409] conv1 -> conv1
I0504 23:26:44.015142   664 net.cpp:144] Setting up conv1
I0504 23:26:44.015162   664 net.cpp:151] Top shape: 20 64 20 20 (512000)
I0504 23:26:44.015167   664 net.cpp:159] Memory required for data: 2080080
I0504 23:26:44.015178   664 layer_factory.hpp:77] Creating layer relu1
I0504 23:26:44.015187   664 net.cpp:94] Creating Layer relu1
I0504 23:26:44.015190   664 net.cpp:435] relu1 <- conv1
I0504 23:26:44.015195   664 net.cpp:396] relu1 -> conv1 (in-place)
I0504 23:26:44.015214   664 net.cpp:144] Setting up relu1
I0504 23:26:44.015219   664 net.cpp:151] Top shape: 20 64 20 20 (512000)
I0504 23:26:44.015223   664 net.cpp:159] Memory required for data: 4128080
I0504 23:26:44.015225   664 layer_factory.hpp:77] Creating layer pool1
I0504 23:26:44.015233   664 net.cpp:94] Creating Layer pool1
I0504 23:26:44.015236   664 net.cpp:435] pool1 <- conv1
I0504 23:26:44.015240   664 net.cpp:409] pool1 -> pool1
I0504 23:26:44.015281   664 net.cpp:144] Setting up pool1
I0504 23:26:44.015287   664 net.cpp:151] Top shape: 20 64 10 10 (128000)
I0504 23:26:44.015291   664 net.cpp:159] Memory required for data: 4640080
I0504 23:26:44.015295   664 layer_factory.hpp:77] Creating layer conv2
I0504 23:26:44.015303   664 net.cpp:94] Creating Layer conv2
I0504 23:26:44.015306   664 net.cpp:435] conv2 <- pool1
I0504 23:26:44.015311   664 net.cpp:409] conv2 -> conv2
I0504 23:26:44.025379   664 net.cpp:144] Setting up conv2
I0504 23:26:44.025405   664 net.cpp:151] Top shape: 20 128 10 10 (256000)
I0504 23:26:44.025409   664 net.cpp:159] Memory required for data: 5664080
I0504 23:26:44.025419   664 layer_factory.hpp:77] Creating layer relu2
I0504 23:26:44.025426   664 net.cpp:94] Creating Layer relu2
I0504 23:26:44.025431   664 net.cpp:435] relu2 <- conv2
I0504 23:26:44.025436   664 net.cpp:396] relu2 -> conv2 (in-place)
I0504 23:26:44.025444   664 net.cpp:144] Setting up relu2
I0504 23:26:44.025449   664 net.cpp:151] Top shape: 20 128 10 10 (256000)
I0504 23:26:44.025451   664 net.cpp:159] Memory required for data: 6688080
I0504 23:26:44.025454   664 layer_factory.hpp:77] Creating layer conv3
I0504 23:26:44.025463   664 net.cpp:94] Creating Layer conv3
I0504 23:26:44.025467   664 net.cpp:435] conv3 <- conv2
I0504 23:26:44.025472   664 net.cpp:409] conv3 -> conv3
I0504 23:26:44.042644   664 net.cpp:144] Setting up conv3
I0504 23:26:44.042675   664 net.cpp:151] Top shape: 20 128 10 10 (256000)
I0504 23:26:44.042680   664 net.cpp:159] Memory required for data: 7712080
I0504 23:26:44.042691   664 layer_factory.hpp:77] Creating layer relu3
I0504 23:26:44.042701   664 net.cpp:94] Creating Layer relu3
I0504 23:26:44.042711   664 net.cpp:435] relu3 <- conv3
I0504 23:26:44.042717   664 net.cpp:396] relu3 -> conv3 (in-place)
I0504 23:26:44.042727   664 net.cpp:144] Setting up relu3
I0504 23:26:44.042732   664 net.cpp:151] Top shape: 20 128 10 10 (256000)
I0504 23:26:44.042734   664 net.cpp:159] Memory required for data: 8736080
I0504 23:26:44.042737   664 layer_factory.hpp:77] Creating layer pool3
I0504 23:26:44.042744   664 net.cpp:94] Creating Layer pool3
I0504 23:26:44.042747   664 net.cpp:435] pool3 <- conv3
I0504 23:26:44.042759   664 net.cpp:409] pool3 -> pool3
I0504 23:26:44.042804   664 net.cpp:144] Setting up pool3
I0504 23:26:44.042810   664 net.cpp:151] Top shape: 20 128 5 5 (64000)
I0504 23:26:44.042814   664 net.cpp:159] Memory required for data: 8992080
I0504 23:26:44.042817   664 layer_factory.hpp:77] Creating layer ip1
I0504 23:26:44.042827   664 net.cpp:94] Creating Layer ip1
I0504 23:26:44.042830   664 net.cpp:435] ip1 <- pool3
I0504 23:26:44.042835   664 net.cpp:409] ip1 -> ip1
I0504 23:26:44.083155   664 net.cpp:144] Setting up ip1
I0504 23:26:44.083190   664 net.cpp:151] Top shape: 20 512 (10240)
I0504 23:26:44.083194   664 net.cpp:159] Memory required for data: 9033040
I0504 23:26:44.083204   664 layer_factory.hpp:77] Creating layer ip2
I0504 23:26:44.083214   664 net.cpp:94] Creating Layer ip2
I0504 23:26:44.083219   664 net.cpp:435] ip2 <- ip1
I0504 23:26:44.083225   664 net.cpp:409] ip2 -> ip2
I0504 23:26:44.086423   664 net.cpp:144] Setting up ip2
I0504 23:26:44.086434   664 net.cpp:151] Top shape: 20 256 (5120)
I0504 23:26:44.086437   664 net.cpp:159] Memory required for data: 9053520
I0504 23:26:44.086446   664 layer_factory.hpp:77] Creating layer ip3
I0504 23:26:44.086452   664 net.cpp:94] Creating Layer ip3
I0504 23:26:44.086455   664 net.cpp:435] ip3 <- ip2
I0504 23:26:44.086460   664 net.cpp:409] ip3 -> ip3
I0504 23:26:44.086525   664 net.cpp:144] Setting up ip3
I0504 23:26:44.086531   664 net.cpp:151] Top shape: 20 1 (20)
I0504 23:26:44.086534   664 net.cpp:159] Memory required for data: 9053600
I0504 23:26:44.086539   664 layer_factory.hpp:77] Creating layer loss
I0504 23:26:44.086545   664 net.cpp:94] Creating Layer loss
I0504 23:26:44.086549   664 net.cpp:435] loss <- ip3
I0504 23:26:44.086552   664 net.cpp:435] loss <- label
I0504 23:26:44.086558   664 net.cpp:409] loss -> loss
I0504 23:26:44.086591   664 net.cpp:144] Setting up loss
…
