…
I0505 06:53:18.993258  4499 net.cpp:323] The NetState phase (0) differed from the phase (1) specified by a rule in layer intercept
I0505 06:53:18.993274  4499 net.cpp:323] The NetState phase (0) differed from the phase (1) specified by a rule in layer loss
I0505 06:53:18.993355  4499 net.cpp:52] Initializing net from parameters: 
state {
  phase: TRAIN
}
layer {
  name: "parameters"
  type: "HDF5Data"
  top: "data"
  top: "label"
  include {
    phase: TRAIN
  }
  hdf5_data_param {
    source: "/home/purduethu/scratch/radon/d/deng106/CNNStatisticalModel/distributions/input/20_distributions_900_sample_size_train-parameters-path.txt"
    batch_size: 20
  }
}
layer {
  name: "conv1"
  type: "Convolution"
  bottom: "data"
  top: "conv1"
  param {
    lr_mult: 1
  }
  param {
    lr_mult: 2
  }
  convolution_param {
    num_output: 64
    pad: 2
    kernel_size: 5
    stride: 1
    weight_filler {
      type: "gaussian"
      std: 0.0001
    }
    bias_filler {
      type: "constant"
    }
  }
}
layer {
  name: "relu1"
  type: "ReLU"
  bottom: "conv1"
  top: "conv1"
}
layer {
  name: "pool1"
  type: "Pooling"
  bottom: "conv1"
  top: "pool1"
  pooling_param {
    pool: MAX
    kernel_size: 3
    stride: 2
  }
}
layer {
  name: "conv2"
  type: "Convolution"
  bottom: "pool1"
  top: "conv2"
  param {
    lr_mult: 1
  }
  param {
    lr_mult: 2
  }
  convolution_param {
    num_output: 128
    pad: 2
    kernel_size: 5
    stride: 1
    weight_filler {
      type: "gaussian"
      std: 0.01
    }
    bias_filler {
      type: "constant"
    }
  }
}
layer {
  name: "relu2"
  type: "ReLU"
  bottom: "conv2"
  top: "conv2"
}
layer {
  name: "conv3"
  type: "Convolution"
  bottom: "conv2"
  top: "conv3"
  param {
    lr_mult: 1
  }
  param {
    lr_mult: 2
  }
  convolution_param {
    num_output: 128
    pad: 2
    kernel_size: 5
    stride: 1
    weight_filler {
      type: "gaussian"
      std: 0.01
    }
    bias_filler {
      type: "constant"
    }
  }
}
layer {
  name: "relu3"
  type: "ReLU"
  bottom: "conv3"
  top: "conv3"
}
layer {
  name: "pool3"
  type: "Pooling"
  bottom: "conv3"
  top: "pool3"
  pooling_param {
    pool: AVE
    kernel_size: 3
    stride: 2
  }
}
layer {
  name: "ip1"
  type: "InnerProduct"
  bottom: "pool3"
  top: "ip1"
  param {
    lr_mult: 1
  }
  param {
    lr_mult: 2
  }
  inner_product_param {
    num_output: 512
    weight_filler {
      type: "gaussian"
      std: 0.1
    }
    bias_filler {
      type: "constant"
    }
  }
}
layer {
  name: "ip2"
  type: "InnerProduct"
  bottom: "ip1"
  top: "ip2"
  param {
    lr_mult: 1
  }
  param {
    lr_mult: 2
  }
  inner_product_param {
    num_output: 256
    weight_filler {
      type: "gaussian"
      std: 0.1
    }
    bias_filler {
      type: "constant"
    }
  }
}
layer {
  name: "ip3"
  type: "InnerProduct"
  bottom: "ip2"
  top: "ip3"
  param {
    lr_mult: 1
  }
  param {
    lr_mult: 2
  }
  inner_product_param {
    num_output: 1
    weight_filler {
      type: "gaussian"
      std: 0.1
    }
    bias_filler {
      type: "constant"
    }
  }
}
layer {
  name: "loss"
  type: "HuberLoss"
  bottom: "ip3"
  bottom: "label"
  top: "loss"
  include {
    phase: TRAIN
  }
}
I0505 06:53:18.993418  4499 layer_factory.hpp:77] Creating layer parameters
I0505 06:53:18.993434  4499 net.cpp:94] Creating Layer parameters
I0505 06:53:18.993448  4499 net.cpp:409] parameters -> data
I0505 06:53:18.993468  4499 net.cpp:409] parameters -> label
I0505 06:53:18.993479  4499 hdf5_data_layer.cpp:79] Loading list of HDF5 filenames from: /home/purduethu/scratch/radon/d/deng106/CNNStatisticalModel/distributions/input/20_distributions_900_sample_size_train-parameters-path.txt
I0505 06:53:18.993500  4499 hdf5_data_layer.cpp:93] Number of HDF5 files: 1
I0505 06:53:18.994083  4499 hdf5.cpp:32] Datatype class: H5T_FLOAT
I0505 06:53:19.577688  4499 net.cpp:144] Setting up parameters
I0505 06:53:19.577723  4499 net.cpp:151] Top shape: 20 1 30 30 (18000)
I0505 06:53:19.577728  4499 net.cpp:151] Top shape: 20 (20)
I0505 06:53:19.577733  4499 net.cpp:159] Memory required for data: 72080
I0505 06:53:19.577739  4499 layer_factory.hpp:77] Creating layer conv1
I0505 06:53:19.577759  4499 net.cpp:94] Creating Layer conv1
I0505 06:53:19.577764  4499 net.cpp:435] conv1 <- data
I0505 06:53:19.577775  4499 net.cpp:409] conv1 -> conv1
I0505 06:53:19.585556  4499 net.cpp:144] Setting up conv1
I0505 06:53:19.585572  4499 net.cpp:151] Top shape: 20 64 30 30 (1152000)
I0505 06:53:19.585575  4499 net.cpp:159] Memory required for data: 4680080
I0505 06:53:19.585587  4499 layer_factory.hpp:77] Creating layer relu1
I0505 06:53:19.585594  4499 net.cpp:94] Creating Layer relu1
I0505 06:53:19.585598  4499 net.cpp:435] relu1 <- conv1
I0505 06:53:19.585603  4499 net.cpp:396] relu1 -> conv1 (in-place)
I0505 06:53:19.585619  4499 net.cpp:144] Setting up relu1
I0505 06:53:19.585624  4499 net.cpp:151] Top shape: 20 64 30 30 (1152000)
I0505 06:53:19.585628  4499 net.cpp:159] Memory required for data: 9288080
I0505 06:53:19.585630  4499 layer_factory.hpp:77] Creating layer pool1
I0505 06:53:19.585638  4499 net.cpp:94] Creating Layer pool1
I0505 06:53:19.585641  4499 net.cpp:435] pool1 <- conv1
I0505 06:53:19.585646  4499 net.cpp:409] pool1 -> pool1
I0505 06:53:19.585686  4499 net.cpp:144] Setting up pool1
I0505 06:53:19.585693  4499 net.cpp:151] Top shape: 20 64 15 15 (288000)
I0505 06:53:19.585697  4499 net.cpp:159] Memory required for data: 10440080
I0505 06:53:19.585700  4499 layer_factory.hpp:77] Creating layer conv2
I0505 06:53:19.585710  4499 net.cpp:94] Creating Layer conv2
I0505 06:53:19.585712  4499 net.cpp:435] conv2 <- pool1
I0505 06:53:19.585717  4499 net.cpp:409] conv2 -> conv2
I0505 06:53:19.597832  4499 net.cpp:144] Setting up conv2
I0505 06:53:19.597848  4499 net.cpp:151] Top shape: 20 128 15 15 (576000)
I0505 06:53:19.597852  4499 net.cpp:159] Memory required for data: 12744080
I0505 06:53:19.597861  4499 layer_factory.hpp:77] Creating layer relu2
I0505 06:53:19.597867  4499 net.cpp:94] Creating Layer relu2
I0505 06:53:19.597870  4499 net.cpp:435] relu2 <- conv2
I0505 06:53:19.597874  4499 net.cpp:396] relu2 -> conv2 (in-place)
I0505 06:53:19.597882  4499 net.cpp:144] Setting up relu2
I0505 06:53:19.597887  4499 net.cpp:151] Top shape: 20 128 15 15 (576000)
I0505 06:53:19.597889  4499 net.cpp:159] Memory required for data: 15048080
I0505 06:53:19.597892  4499 layer_factory.hpp:77] Creating layer conv3
I0505 06:53:19.597900  4499 net.cpp:94] Creating Layer conv3
I0505 06:53:19.597904  4499 net.cpp:435] conv3 <- conv2
I0505 06:53:19.597908  4499 net.cpp:409] conv3 -> conv3
I0505 06:53:19.620928  4499 net.cpp:144] Setting up conv3
I0505 06:53:19.620944  4499 net.cpp:151] Top shape: 20 128 15 15 (576000)
I0505 06:53:19.620947  4499 net.cpp:159] Memory required for data: 17352080
I0505 06:53:19.620955  4499 layer_factory.hpp:77] Creating layer relu3
I0505 06:53:19.620967  4499 net.cpp:94] Creating Layer relu3
I0505 06:53:19.620971  4499 net.cpp:435] relu3 <- conv3
I0505 06:53:19.620976  4499 net.cpp:396] relu3 -> conv3 (in-place)
I0505 06:53:19.620985  4499 net.cpp:144] Setting up relu3
I0505 06:53:19.620988  4499 net.cpp:151] Top shape: 20 128 15 15 (576000)
I0505 06:53:19.620992  4499 net.cpp:159] Memory required for data: 19656080
I0505 06:53:19.620995  4499 layer_factory.hpp:77] Creating layer pool3
I0505 06:53:19.621001  4499 net.cpp:94] Creating Layer pool3
I0505 06:53:19.621004  4499 net.cpp:435] pool3 <- conv3
I0505 06:53:19.621016  4499 net.cpp:409] pool3 -> pool3
I0505 06:53:19.621050  4499 net.cpp:144] Setting up pool3
I0505 06:53:19.621057  4499 net.cpp:151] Top shape: 20 128 7 7 (125440)
I0505 06:53:19.621062  4499 net.cpp:159] Memory required for data: 20157840
I0505 06:53:19.621064  4499 layer_factory.hpp:77] Creating layer ip1
I0505 06:53:19.621074  4499 net.cpp:94] Creating Layer ip1
I0505 06:53:19.621078  4499 net.cpp:435] ip1 <- pool3
I0505 06:53:19.621083  4499 net.cpp:409] ip1 -> ip1
I0505 06:53:19.698535  4499 net.cpp:144] Setting up ip1
I0505 06:53:19.698554  4499 net.cpp:151] Top shape: 20 512 (10240)
I0505 06:53:19.698559  4499 net.cpp:159] Memory required for data: 20198800
I0505 06:53:19.698566  4499 layer_factory.hpp:77] Creating layer ip2
I0505 06:53:19.698575  4499 net.cpp:94] Creating Layer ip2
I0505 06:53:19.698580  4499 net.cpp:435] ip2 <- ip1
I0505 06:53:19.698585  4499 net.cpp:409] ip2 -> ip2
I0505 06:53:19.701694  4499 net.cpp:144] Setting up ip2
I0505 06:53:19.701702  4499 net.cpp:151] Top shape: 20 256 (5120)
I0505 06:53:19.701706  4499 net.cpp:159] Memory required for data: 20219280
I0505 06:53:19.701714  4499 layer_factory.hpp:77] Creating layer ip3
I0505 06:53:19.701719  4499 net.cpp:94] Creating Layer ip3
I0505 06:53:19.701723  4499 net.cpp:435] ip3 <- ip2
I0505 06:53:19.701727  4499 net.cpp:409] ip3 -> ip3
I0505 06:53:19.701791  4499 net.cpp:144] Setting up ip3
I0505 06:53:19.701797  4499 net.cpp:151] Top shape: 20 1 (20)
I0505 06:53:19.701799  4499 net.cpp:159] Memory required for data: 20219360
I0505 06:53:19.701804  4499 layer_factory.hpp:77] Creating layer loss
I0505 06:53:19.701817  4499 net.cpp:94] Creating Layer loss
I0505 06:53:19.701822  4499 net.cpp:435] loss <- ip3
I0505 06:53:19.701825  4499 net.cpp:435] loss <- label
I0505 06:53:19.701830  4499 net.cpp:409] loss -> loss
I0505 06:53:19.701864  4499 net.cpp:144] Setting up loss
…
