…
I0505 01:51:38.866613  1994 net.cpp:323] The NetState phase (0) differed from the phase (1) specified by a rule in layer intercept
I0505 01:51:38.866629  1994 net.cpp:323] The NetState phase (0) differed from the phase (1) specified by a rule in layer accuracy
I0505 01:51:38.866714  1994 net.cpp:52] Initializing net from parameters: 
state {
  phase: TRAIN
}
layer {
  name: "parameters"
  type: "HDF5Data"
  top: "data"
  top: "label"
  include {
    phase: TRAIN
  }
  hdf5_data_param {
    source: "/home/purduethu/scratch/radon/d/deng106/CNNStatisticalModel/distributions/input/20_distributions_400_sample_size_train-distributions-path.txt"
    batch_size: 20
  }
}
layer {
  name: "conv1"
  type: "Convolution"
  bottom: "data"
  top: "conv1"
  param {
    lr_mult: 1
  }
  param {
    lr_mult: 2
  }
  convolution_param {
    num_output: 64
    pad: 2
    kernel_size: 5
    stride: 1
    weight_filler {
      type: "gaussian"
      std: 0.0001
    }
    bias_filler {
      type: "constant"
    }
  }
}
layer {
  name: "relu1"
  type: "ReLU"
  bottom: "conv1"
  top: "conv1"
}
layer {
  name: "pool1"
  type: "Pooling"
  bottom: "conv1"
  top: "pool1"
  pooling_param {
    pool: MAX
    kernel_size: 3
    stride: 2
  }
}
layer {
  name: "conv2"
  type: "Convolution"
  bottom: "pool1"
  top: "conv2"
  param {
    lr_mult: 1
  }
  param {
    lr_mult: 2
  }
  convolution_param {
    num_output: 128
    pad: 2
    kernel_size: 5
    stride: 1
    weight_filler {
      type: "gaussian"
      std: 0.01
    }
    bias_filler {
      type: "constant"
    }
  }
}
layer {
  name: "relu2"
  type: "ReLU"
  bottom: "conv2"
  top: "conv2"
}
layer {
  name: "conv3"
  type: "Convolution"
  bottom: "conv2"
  top: "conv3"
  param {
    lr_mult: 1
  }
  param {
    lr_mult: 2
  }
  convolution_param {
    num_output: 128
    pad: 2
    kernel_size: 5
    stride: 1
    weight_filler {
      type: "gaussian"
      std: 0.01
    }
    bias_filler {
      type: "constant"
    }
  }
}
layer {
  name: "relu3"
  type: "ReLU"
  bottom: "conv3"
  top: "conv3"
}
layer {
  name: "pool3"
  type: "Pooling"
  bottom: "conv3"
  top: "pool3"
  pooling_param {
    pool: AVE
    kernel_size: 3
    stride: 2
  }
}
layer {
  name: "ip1"
  type: "InnerProduct"
  bottom: "pool3"
  top: "ip1"
  param {
    lr_mult: 1
  }
  param {
    lr_mult: 2
  }
  inner_product_param {
    num_output: 512
    weight_filler {
      type: "gaussian"
      std: 0.1
    }
    bias_filler {
      type: "constant"
    }
  }
}
layer {
  name: "ip2"
  type: "InnerProduct"
  bottom: "ip1"
  top: "ip2"
  param {
    lr_mult: 1
  }
  param {
    lr_mult: 2
  }
  inner_product_param {
    num_output: 256
    weight_filler {
      type: "gaussian"
      std: 0.1
    }
    bias_filler {
      type: "constant"
    }
  }
}
layer {
  name: "ip3"
  type: "InnerProduct"
  bottom: "ip2"
  top: "ip3"
  param {
    lr_mult: 1
  }
  param {
    lr_mult: 2
  }
  inner_product_param {
    num_output: 50
    weight_filler {
      type: "gaussian"
      std: 0.1
    }
    bias_filler {
      type: "constant"
    }
  }
}
layer {
  name: "loss"
  type: "SoftmaxWithLoss"
  bottom: "ip3"
  bottom: "label"
  top: "loss"
}
I0505 01:51:38.866783  1994 layer_factory.hpp:77] Creating layer parameters
I0505 01:51:38.866801  1994 net.cpp:94] Creating Layer parameters
I0505 01:51:38.866813  1994 net.cpp:409] parameters -> data
I0505 01:51:38.866833  1994 net.cpp:409] parameters -> label
I0505 01:51:38.866844  1994 hdf5_data_layer.cpp:79] Loading list of HDF5 filenames from: /home/purduethu/scratch/radon/d/deng106/CNNStatisticalModel/distributions/input/20_distributions_400_sample_size_train-distributions-path.txt
I0505 01:51:38.866868  1994 hdf5_data_layer.cpp:93] Number of HDF5 files: 1
I0505 01:51:38.867486  1994 hdf5.cpp:32] Datatype class: H5T_FLOAT
I0505 01:51:39.125378  1994 hdf5.cpp:35] Datatype class: H5T_INTEGER
I0505 01:51:39.127065  1994 net.cpp:144] Setting up parameters
I0505 01:51:39.127084  1994 net.cpp:151] Top shape: 20 1 20 20 (8000)
I0505 01:51:39.127090  1994 net.cpp:151] Top shape: 20 (20)
I0505 01:51:39.127094  1994 net.cpp:159] Memory required for data: 32080
I0505 01:51:39.127101  1994 layer_factory.hpp:77] Creating layer conv1
I0505 01:51:39.127120  1994 net.cpp:94] Creating Layer conv1
I0505 01:51:39.127125  1994 net.cpp:435] conv1 <- data
I0505 01:51:39.127136  1994 net.cpp:409] conv1 -> conv1
I0505 01:51:39.131924  1994 net.cpp:144] Setting up conv1
I0505 01:51:39.131945  1994 net.cpp:151] Top shape: 20 64 20 20 (512000)
I0505 01:51:39.131950  1994 net.cpp:159] Memory required for data: 2080080
I0505 01:51:39.131963  1994 layer_factory.hpp:77] Creating layer relu1
I0505 01:51:39.131971  1994 net.cpp:94] Creating Layer relu1
I0505 01:51:39.131975  1994 net.cpp:435] relu1 <- conv1
I0505 01:51:39.131980  1994 net.cpp:396] relu1 -> conv1 (in-place)
I0505 01:51:39.131996  1994 net.cpp:144] Setting up relu1
I0505 01:51:39.132001  1994 net.cpp:151] Top shape: 20 64 20 20 (512000)
I0505 01:51:39.132004  1994 net.cpp:159] Memory required for data: 4128080
I0505 01:51:39.132007  1994 layer_factory.hpp:77] Creating layer pool1
I0505 01:51:39.132015  1994 net.cpp:94] Creating Layer pool1
I0505 01:51:39.132019  1994 net.cpp:435] pool1 <- conv1
I0505 01:51:39.132024  1994 net.cpp:409] pool1 -> pool1
I0505 01:51:39.132064  1994 net.cpp:144] Setting up pool1
I0505 01:51:39.132071  1994 net.cpp:151] Top shape: 20 64 10 10 (128000)
I0505 01:51:39.132074  1994 net.cpp:159] Memory required for data: 4640080
I0505 01:51:39.132078  1994 layer_factory.hpp:77] Creating layer conv2
I0505 01:51:39.132087  1994 net.cpp:94] Creating Layer conv2
I0505 01:51:39.132091  1994 net.cpp:435] conv2 <- pool1
I0505 01:51:39.132097  1994 net.cpp:409] conv2 -> conv2
I0505 01:51:39.141623  1994 net.cpp:144] Setting up conv2
I0505 01:51:39.141644  1994 net.cpp:151] Top shape: 20 128 10 10 (256000)
I0505 01:51:39.141649  1994 net.cpp:159] Memory required for data: 5664080
I0505 01:51:39.141657  1994 layer_factory.hpp:77] Creating layer relu2
I0505 01:51:39.141664  1994 net.cpp:94] Creating Layer relu2
I0505 01:51:39.141669  1994 net.cpp:435] relu2 <- conv2
I0505 01:51:39.141674  1994 net.cpp:396] relu2 -> conv2 (in-place)
I0505 01:51:39.141681  1994 net.cpp:144] Setting up relu2
I0505 01:51:39.141685  1994 net.cpp:151] Top shape: 20 128 10 10 (256000)
I0505 01:51:39.141688  1994 net.cpp:159] Memory required for data: 6688080
I0505 01:51:39.141691  1994 layer_factory.hpp:77] Creating layer conv3
I0505 01:51:39.141700  1994 net.cpp:94] Creating Layer conv3
I0505 01:51:39.141703  1994 net.cpp:435] conv3 <- conv2
I0505 01:51:39.141708  1994 net.cpp:409] conv3 -> conv3
I0505 01:51:39.159463  1994 net.cpp:144] Setting up conv3
I0505 01:51:39.159494  1994 net.cpp:151] Top shape: 20 128 10 10 (256000)
I0505 01:51:39.159499  1994 net.cpp:159] Memory required for data: 7712080
I0505 01:51:39.159517  1994 layer_factory.hpp:77] Creating layer relu3
I0505 01:51:39.159528  1994 net.cpp:94] Creating Layer relu3
I0505 01:51:39.159533  1994 net.cpp:435] relu3 <- conv3
I0505 01:51:39.159538  1994 net.cpp:396] relu3 -> conv3 (in-place)
I0505 01:51:39.159546  1994 net.cpp:144] Setting up relu3
I0505 01:51:39.159551  1994 net.cpp:151] Top shape: 20 128 10 10 (256000)
I0505 01:51:39.159554  1994 net.cpp:159] Memory required for data: 8736080
I0505 01:51:39.159557  1994 layer_factory.hpp:77] Creating layer pool3
I0505 01:51:39.159565  1994 net.cpp:94] Creating Layer pool3
I0505 01:51:39.159575  1994 net.cpp:435] pool3 <- conv3
I0505 01:51:39.159580  1994 net.cpp:409] pool3 -> pool3
I0505 01:51:39.159624  1994 net.cpp:144] Setting up pool3
I0505 01:51:39.159631  1994 net.cpp:151] Top shape: 20 128 5 5 (64000)
I0505 01:51:39.159636  1994 net.cpp:159] Memory required for data: 8992080
I0505 01:51:39.159638  1994 layer_factory.hpp:77] Creating layer ip1
I0505 01:51:39.159649  1994 net.cpp:94] Creating Layer ip1
I0505 01:51:39.159652  1994 net.cpp:435] ip1 <- pool3
I0505 01:51:39.159657  1994 net.cpp:409] ip1 -> ip1
I0505 01:51:39.199976  1994 net.cpp:144] Setting up ip1
I0505 01:51:39.200013  1994 net.cpp:151] Top shape: 20 512 (10240)
I0505 01:51:39.200018  1994 net.cpp:159] Memory required for data: 9033040
I0505 01:51:39.200026  1994 layer_factory.hpp:77] Creating layer ip2
I0505 01:51:39.200037  1994 net.cpp:94] Creating Layer ip2
I0505 01:51:39.200042  1994 net.cpp:435] ip2 <- ip1
I0505 01:51:39.200048  1994 net.cpp:409] ip2 -> ip2
I0505 01:51:39.203246  1994 net.cpp:144] Setting up ip2
I0505 01:51:39.203258  1994 net.cpp:151] Top shape: 20 256 (5120)
I0505 01:51:39.203261  1994 net.cpp:159] Memory required for data: 9053520
I0505 01:51:39.203269  1994 layer_factory.hpp:77] Creating layer ip3
I0505 01:51:39.203276  1994 net.cpp:94] Creating Layer ip3
I0505 01:51:39.203280  1994 net.cpp:435] ip3 <- ip2
I0505 01:51:39.203286  1994 net.cpp:409] ip3 -> ip3
I0505 01:51:39.204432  1994 net.cpp:144] Setting up ip3
I0505 01:51:39.204447  1994 net.cpp:151] Top shape: 20 50 (1000)
I0505 01:51:39.204450  1994 net.cpp:159] Memory required for data: 9057520
I0505 01:51:39.204457  1994 layer_factory.hpp:77] Creating layer loss
I0505 01:51:39.204463  1994 net.cpp:94] Creating Layer loss
I0505 01:51:39.204466  1994 net.cpp:435] loss <- ip3
I0505 01:51:39.204470  1994 net.cpp:435] loss <- label
I0505 01:51:39.204475  1994 net.cpp:409] loss -> loss
I0505 01:51:39.204488  1994 layer_factory.hpp:77] Creating layer loss
…
I0505 01:51:39.204941  1994 solver.cpp:181] Creating test net (#0) specified by net file: ./protocol/dis_20_400_dimension.protocol_distribution
I0505 01:51:39.204965  1994 net.cpp:323] The NetState phase (1) differed from the phase (0) specified by a rule in layer parameters
I0505 01:51:39.205065  1994 net.cpp:52] Initializing net from parameters: 
state {
  phase: TEST
}
layer {
  name: "intercept"
  type: "HDF5Data"
  top: "data"
  top: "label"
  include {
    phase: TEST
  }
  hdf5_data_param {
    source: "/home/purduethu/scratch/radon/d/deng106/CNNStatisticalModel/distributions/input/20_distributions_400_sample_size_test-distributions-path.txt"
    batch_size: 20
  }
}
layer {
  name: "conv1"
  type: "Convolution"
  bottom: "data"
  top: "conv1"
  param {
    lr_mult: 1
  }
  param {
    lr_mult: 2
  }
  convolution_param {
    num_output: 64
    pad: 2
    kernel_size: 5
    stride: 1
    weight_filler {
      type: "gaussian"
      std: 0.0001
    }
    bias_filler {
      type: "constant"
    }
  }
}
layer {
  name: "relu1"
  type: "ReLU"
  bottom: "conv1"
  top: "conv1"
}
layer {
  name: "pool1"
  type: "Pooling"
  bottom: "conv1"
  top: "pool1"
  pooling_param {
    pool: MAX
    kernel_size: 3
    stride: 2
  }
}
layer {
  name: "conv2"
  type: "Convolution"
  bottom: "pool1"
  top: "conv2"
  param {
    lr_mult: 1
  }
  param {
    lr_mult: 2
  }
  convolution_param {
    num_output: 128
    pad: 2
    kernel_size: 5
    stride: 1
    weight_filler {
      type: "gaussian"
      std: 0.01
    }
    bias_filler {
      type: "constant"
    }
  }
}
layer {
  name: "relu2"
  type: "ReLU"
  bottom: "conv2"
  top: "conv2"
}
layer {
  name: "conv3"
  type: "Convolution"
  bottom: "conv2"
  top: "conv3"
  param {
    lr_mult: 1
  }
  param {
    lr_mult: 2
  }
  convolution_param {
    num_output: 128
    pad: 2
    kernel_size: 5
    stride: 1
    weight_filler {
      type: "gaussian"
      std: 0.01
    }
    bias_filler {
      type: "constant"
    }
  }
}
layer {
  name: "relu3"
  type: "ReLU"
  bottom: "conv3"
  top: "conv3"
}
layer {
  name: "pool3"
  type: "Pooling"
  bottom: "conv3"
  top: "pool3"
  pooling_param {
    pool: AVE
    kernel_size: 3
    stride: 2
  }
}
layer {
  name: "ip1"
  type: "InnerProduct"
  bottom: "pool3"
  top: "ip1"
  param {
    lr_mult: 1
  }
  param {
    lr_mult: 2
  }
  inner_product_param {
    num_output: 512
    weight_filler {
      type: "gaussian"
      std: 0.1
    }
    bias_filler {
      type: "constant"
    }
  }
}
layer {
  name: "ip2"
  type: "InnerProduct"
  bottom: "ip1"
  top: "ip2"
  param {
    lr_mult: 1
  }
  param {
    lr_mult: 2
  }
  inner_product_param {
    num_output: 256
    weight_filler {
      type: "gaussian"
      std: 0.1
    }
    bias_filler {
      type: "constant"
    }
  }
}
layer {
  name: "ip3"
  type: "InnerProduct"
  bottom: "ip2"
  top: "ip3"
  param {
    lr_mult: 1
  }
  param {
    lr_mult: 2
  }
  inner_product_param {
    num_output: 50
    weight_filler {
      type: "gaussian"
      std: 0.1
    }
    bias_filler {
      type: "constant"
    }
  }
}
layer {
  name: "accuracy"
  type: "Accuracy"
  bottom: "ip3"
  bottom: "label"
  top: "accuracy"
  include {
    phase: TEST
  }
}
layer {
  name: "loss"
  type: "SoftmaxWithLoss"
  bottom: "ip3"
  bottom: "label"
  top: "loss"
}
I0505 01:51:39.205132  1994 layer_factory.hpp:77] Creating layer intercept
I0505 01:51:39.205140  1994 net.cpp:94] Creating Layer intercept
I0505 01:51:39.205144  1994 net.cpp:409] intercept -> data
I0505 01:51:39.205152  1994 net.cpp:409] intercept -> label
I0505 01:51:39.205158  1994 hdf5_data_layer.cpp:79] Loading list of HDF5 filenames from: /home/purduethu/scratch/radon/d/deng106/CNNStatisticalModel/distributions/input/20_distributions_400_sample_size_test-distributions-path.txt
I0505 01:51:39.205178  1994 hdf5_data_layer.cpp:93] Number of HDF5 files: 1
I0505 01:51:39.270553  1994 net.cpp:144] Setting up intercept
I0505 01:51:39.270584  1994 net.cpp:151] Top shape: 20 1 20 20 (8000)
I0505 01:51:39.270591  1994 net.cpp:151] Top shape: 20 (20)
I0505 01:51:39.270593  1994 net.cpp:159] Memory required for data: 32080
I0505 01:51:39.270599  1994 layer_factory.hpp:77] Creating layer label_intercept_1_split
I0505 01:51:39.270623  1994 net.cpp:94] Creating Layer label_intercept_1_split
I0505 01:51:39.270628  1994 net.cpp:435] label_intercept_1_split <- label
I0505 01:51:39.270634  1994 net.cpp:409] label_intercept_1_split -> label_intercept_1_split_0
I0505 01:51:39.270643  1994 net.cpp:409] label_intercept_1_split -> label_intercept_1_split_1
I0505 01:51:39.270670  1994 net.cpp:144] Setting up label_intercept_1_split
I0505 01:51:39.270676  1994 net.cpp:151] Top shape: 20 (20)
I0505 01:51:39.270680  1994 net.cpp:151] Top shape: 20 (20)
I0505 01:51:39.270684  1994 net.cpp:159] Memory required for data: 32240
I0505 01:51:39.270694  1994 layer_factory.hpp:77] Creating layer conv1
I0505 01:51:39.270706  1994 net.cpp:94] Creating Layer conv1
I0505 01:51:39.270710  1994 net.cpp:435] conv1 <- data
I0505 01:51:39.270715  1994 net.cpp:409] conv1 -> conv1
I0505 01:51:39.271380  1994 net.cpp:144] Setting up conv1
I0505 01:51:39.271394  1994 net.cpp:151] Top shape: 20 64 20 20 (512000)
I0505 01:51:39.271397  1994 net.cpp:159] Memory required for data: 2080240
I0505 01:51:39.271407  1994 layer_factory.hpp:77] Creating layer relu1
I0505 01:51:39.271414  1994 net.cpp:94] Creating Layer relu1
I0505 01:51:39.271417  1994 net.cpp:435] relu1 <- conv1
I0505 01:51:39.271421  1994 net.cpp:396] relu1 -> conv1 (in-place)
I0505 01:51:39.271428  1994 net.cpp:144] Setting up relu1
I0505 01:51:39.271432  1994 net.cpp:151] Top shape: 20 64 20 20 (512000)
I0505 01:51:39.271435  1994 net.cpp:159] Memory required for data: 4128240
I0505 01:51:39.271438  1994 layer_factory.hpp:77] Creating layer pool1
I0505 01:51:39.271445  1994 net.cpp:94] Creating Layer pool1
I0505 01:51:39.271448  1994 net.cpp:435] pool1 <- conv1
I0505 01:51:39.271452  1994 net.cpp:409] pool1 -> pool1
I0505 01:51:39.271484  1994 net.cpp:144] Setting up pool1
I0505 01:51:39.271491  1994 net.cpp:151] Top shape: 20 64 10 10 (128000)
I0505 01:51:39.271493  1994 net.cpp:159] Memory required for data: 4640240
I0505 01:51:39.271497  1994 layer_factory.hpp:77] Creating layer conv2
I0505 01:51:39.271504  1994 net.cpp:94] Creating Layer conv2
I0505 01:51:39.271507  1994 net.cpp:435] conv2 <- pool1
I0505 01:51:39.271512  1994 net.cpp:409] conv2 -> conv2
I0505 01:51:39.278707  1994 net.cpp:144] Setting up conv2
I0505 01:51:39.278728  1994 net.cpp:151] Top shape: 20 128 10 10 (256000)
I0505 01:51:39.278733  1994 net.cpp:159] Memory required for data: 5664240
I0505 01:51:39.278743  1994 layer_factory.hpp:77] Creating layer relu2
I0505 01:51:39.278750  1994 net.cpp:94] Creating Layer relu2
I0505 01:51:39.278754  1994 net.cpp:435] relu2 <- conv2
I0505 01:51:39.278759  1994 net.cpp:396] relu2 -> conv2 (in-place)
I0505 01:51:39.278766  1994 net.cpp:144] Setting up relu2
I0505 01:51:39.278770  1994 net.cpp:151] Top shape: 20 128 10 10 (256000)
I0505 01:51:39.278774  1994 net.cpp:159] Memory required for data: 6688240
I0505 01:51:39.278776  1994 layer_factory.hpp:77] Creating layer conv3
I0505 01:51:39.278784  1994 net.cpp:94] Creating Layer conv3
I0505 01:51:39.278787  1994 net.cpp:435] conv3 <- conv2
I0505 01:51:39.278792  1994 net.cpp:409] conv3 -> conv3
I0505 01:51:39.292305  1994 net.cpp:144] Setting up conv3
I0505 01:51:39.292353  1994 net.cpp:151] Top shape: 20 128 10 10 (256000)
I0505 01:51:39.292364  1994 net.cpp:159] Memory required for data: 7712240
I0505 01:51:39.292387  1994 layer_factory.hpp:77] Creating layer relu3
I0505 01:51:39.292407  1994 net.cpp:94] Creating Layer relu3
I0505 01:51:39.292417  1994 net.cpp:435] relu3 <- conv3
I0505 01:51:39.292428  1994 net.cpp:396] relu3 -> conv3 (in-place)
I0505 01:51:39.292446  1994 net.cpp:144] Setting up relu3
I0505 01:51:39.292457  1994 net.cpp:151] Top shape: 20 128 10 10 (256000)
I0505 01:51:39.292465  1994 net.cpp:159] Memory required for data: 8736240
I0505 01:51:39.292472  1994 layer_factory.hpp:77] Creating layer pool3
I0505 01:51:39.292484  1994 net.cpp:94] Creating Layer pool3
I0505 01:51:39.292492  1994 net.cpp:435] pool3 <- conv3
I0505 01:51:39.292503  1994 net.cpp:409] pool3 -> pool3
I0505 01:51:39.292593  1994 net.cpp:144] Setting up pool3
I0505 01:51:39.292624  1994 net.cpp:151] Top shape: 20 128 5 5 (64000)
I0505 01:51:39.292634  1994 net.cpp:159] Memory required for data: 8992240
I0505 01:51:39.292641  1994 layer_factory.hpp:77] Creating layer ip1
I0505 01:51:39.292656  1994 net.cpp:94] Creating Layer ip1
I0505 01:51:39.292665  1994 net.cpp:435] ip1 <- pool3
I0505 01:51:39.292676  1994 net.cpp:409] ip1 -> ip1
I0505 01:51:39.333012  1994 net.cpp:144] Setting up ip1
I0505 01:51:39.333050  1994 net.cpp:151] Top shape: 20 512 (10240)
I0505 01:51:39.333053  1994 net.cpp:159] Memory required for data: 9033200
I0505 01:51:39.333076  1994 layer_factory.hpp:77] Creating layer ip2
I0505 01:51:39.333086  1994 net.cpp:94] Creating Layer ip2
I0505 01:51:39.333091  1994 net.cpp:435] ip2 <- ip1
I0505 01:51:39.333097  1994 net.cpp:409] ip2 -> ip2
I0505 01:51:39.336292  1994 net.cpp:144] Setting up ip2
I0505 01:51:39.336300  1994 net.cpp:151] Top shape: 20 256 (5120)
I0505 01:51:39.336303  1994 net.cpp:159] Memory required for data: 9053680
I0505 01:51:39.336313  1994 layer_factory.hpp:77] Creating layer ip3
I0505 01:51:39.336319  1994 net.cpp:94] Creating Layer ip3
I0505 01:51:39.336323  1994 net.cpp:435] ip3 <- ip2
I0505 01:51:39.336328  1994 net.cpp:409] ip3 -> ip3
I0505 01:51:39.336712  1994 net.cpp:144] Setting up ip3
I0505 01:51:39.336720  1994 net.cpp:151] Top shape: 20 50 (1000)
I0505 01:51:39.336724  1994 net.cpp:159] Memory required for data: 9057680
I0505 01:51:39.336729  1994 layer_factory.hpp:77] Creating layer ip3_ip3_0_split
I0505 01:51:39.336733  1994 net.cpp:94] Creating Layer ip3_ip3_0_split
I0505 01:51:39.336737  1994 net.cpp:435] ip3_ip3_0_split <- ip3
I0505 01:51:39.336741  1994 net.cpp:409] ip3_ip3_0_split -> ip3_ip3_0_split_0
I0505 01:51:39.336746  1994 net.cpp:409] ip3_ip3_0_split -> ip3_ip3_0_split_1
I0505 01:51:39.336771  1994 net.cpp:144] Setting up ip3_ip3_0_split
I0505 01:51:39.336777  1994 net.cpp:151] Top shape: 20 50 (1000)
I0505 01:51:39.336781  1994 net.cpp:151] Top shape: 20 50 (1000)
I0505 01:51:39.336783  1994 net.cpp:159] Memory required for data: 9065680
I0505 01:51:39.336786  1994 layer_factory.hpp:77] Creating layer accuracy
I0505 01:51:39.336800  1994 net.cpp:94] Creating Layer accuracy
I0505 01:51:39.336804  1994 net.cpp:435] accuracy <- ip3_ip3_0_split_0
I0505 01:51:39.336808  1994 net.cpp:435] accuracy <- label_intercept_1_split_0
I0505 01:51:39.336812  1994 net.cpp:409] accuracy -> accuracy
…
