…
I0507 14:37:35.083570  3483 net.cpp:323] The NetState phase (0) differed from the phase (1) specified by a rule in layer intercept
I0507 14:37:35.083586  3483 net.cpp:323] The NetState phase (0) differed from the phase (1) specified by a rule in layer loss
I0507 14:37:35.083667  3483 net.cpp:52] Initializing net from parameters: 
state {
  phase: TRAIN
}
layer {
  name: "parameters"
  type: "HDF5Data"
  top: "data"
  top: "label"
  include {
    phase: TRAIN
  }
  hdf5_data_param {
    source: "/home/purduethu/scratch/radon/d/deng106/CNNStatisticalModel/distributions/input/50_distributions_900_sample_size_train-parameters-path.txt"
    batch_size: 20
  }
}
layer {
  name: "conv1"
  type: "Convolution"
  bottom: "data"
  top: "conv1"
  param {
    lr_mult: 1
  }
  param {
    lr_mult: 2
  }
  convolution_param {
    num_output: 64
    pad: 2
    kernel_size: 5
    stride: 1
    weight_filler {
      type: "gaussian"
      std: 0.0001
    }
    bias_filler {
      type: "constant"
    }
  }
}
layer {
  name: "relu1"
  type: "ReLU"
  bottom: "conv1"
  top: "conv1"
}
layer {
  name: "conv2"
  type: "Convolution"
  bottom: "conv1"
  top: "conv2"
  param {
    lr_mult: 1
  }
  param {
    lr_mult: 2
  }
  convolution_param {
    num_output: 64
    pad: 2
    kernel_size: 5
    stride: 1
    weight_filler {
      type: "gaussian"
      std: 0.01
    }
    bias_filler {
      type: "constant"
    }
  }
}
layer {
  name: "relu2"
  type: "ReLU"
  bottom: "conv2"
  top: "conv2"
}
layer {
  name: "pool2"
  type: "Pooling"
  bottom: "conv2"
  top: "pool2"
  pooling_param {
    pool: MAX
    kernel_size: 3
    stride: 2
  }
}
layer {
  name: "conv3"
  type: "Convolution"
  bottom: "pool2"
  top: "conv3"
  param {
    lr_mult: 1
  }
  param {
    lr_mult: 2
  }
  convolution_param {
    num_output: 64
    pad: 2
    kernel_size: 5
    stride: 1
    weight_filler {
      type: "gaussian"
      std: 0.01
    }
    bias_filler {
      type: "constant"
    }
  }
}
layer {
  name: "relu3"
  type: "ReLU"
  bottom: "conv3"
  top: "conv3"
}
layer {
  name: "conv4"
  type: "Convolution"
  bottom: "conv3"
  top: "conv4"
  param {
    lr_mult: 1
  }
  param {
    lr_mult: 2
  }
  convolution_param {
    num_output: 64
    pad: 2
    kernel_size: 5
    stride: 1
    weight_filler {
      type: "gaussian"
      std: 0.01
    }
    bias_filler {
      type: "constant"
    }
  }
}
layer {
  name: "relu4"
  type: "ReLU"
  bottom: "conv4"
  top: "conv4"
}
layer {
  name: "conv5"
  type: "Convolution"
  bottom: "conv4"
  top: "conv5"
  param {
    lr_mult: 1
  }
  param {
    lr_mult: 2
  }
  convolution_param {
    num_output: 64
    pad: 2
    kernel_size: 5
    stride: 1
    weight_filler {
      type: "gaussian"
      std: 0.01
    }
    bias_filler {
      type: "constant"
    }
  }
}
layer {
  name: "relu5"
  type: "ReLU"
  bottom: "conv5"
  top: "conv5"
}
layer {
  name: "pool5"
  type: "Pooling"
  bottom: "conv5"
  top: "pool5"
  pooling_param {
    pool: AVE
    kernel_size: 3
    stride: 2
  }
}
layer {
  name: "ip1"
  type: "InnerProduct"
  bottom: "pool5"
  top: "ip1"
  param {
    lr_mult: 1
  }
  param {
    lr_mult: 2
  }
  inner_product_param {
    num_output: 64
    weight_filler {
      type: "gaussian"
      std: 0.1
    }
    bias_filler {
      type: "constant"
    }
  }
}
layer {
  name: "ip2"
  type: "InnerProduct"
  bottom: "ip1"
  top: "ip2"
  param {
    lr_mult: 1
  }
  param {
    lr_mult: 2
  }
  inner_product_param {
    num_output: 64
    weight_filler {
      type: "gaussian"
      std: 0.1
    }
    bias_filler {
      type: "constant"
    }
  }
}
layer {
  name: "ip3"
  type: "InnerProduct"
  bottom: "ip2"
  top: "ip3"
  param {
    lr_mult: 1
  }
  param {
    lr_mult: 2
  }
  inner_product_param {
    num_output: 1
    weight_filler {
      type: "gaussian"
      std: 0.1
    }
    bias_filler {
      type: "constant"
    }
  }
}
layer {
  name: "loss"
  type: "HuberLoss"
  bottom: "ip3"
  bottom: "label"
  top: "loss"
  include {
    phase: TRAIN
  }
}
I0507 14:37:35.083721  3483 layer_factory.hpp:77] Creating layer parameters
I0507 14:37:35.083737  3483 net.cpp:94] Creating Layer parameters
I0507 14:37:35.083742  3483 net.cpp:409] parameters -> data
I0507 14:37:35.083755  3483 net.cpp:409] parameters -> label
I0507 14:37:35.083762  3483 hdf5_data_layer.cpp:79] Loading list of HDF5 filenames from: /home/purduethu/scratch/radon/d/deng106/CNNStatisticalModel/distributions/input/50_distributions_900_sample_size_train-parameters-path.txt
I0507 14:37:35.083778  3483 hdf5_data_layer.cpp:93] Number of HDF5 files: 1
I0507 14:37:35.084331  3483 hdf5.cpp:32] Datatype class: H5T_FLOAT
I0507 14:37:36.535953  3483 net.cpp:144] Setting up parameters
I0507 14:37:36.535984  3483 net.cpp:151] Top shape: 20 1 30 30 (18000)
I0507 14:37:36.535989  3483 net.cpp:151] Top shape: 20 (20)
I0507 14:37:36.535992  3483 net.cpp:159] Memory required for data: 72080
I0507 14:37:36.535998  3483 layer_factory.hpp:77] Creating layer conv1
I0507 14:37:36.536015  3483 net.cpp:94] Creating Layer conv1
I0507 14:37:36.536018  3483 net.cpp:435] conv1 <- data
I0507 14:37:36.536026  3483 net.cpp:409] conv1 -> conv1
I0507 14:37:36.542589  3483 net.cpp:144] Setting up conv1
I0507 14:37:36.542608  3483 net.cpp:151] Top shape: 20 64 30 30 (1152000)
I0507 14:37:36.542611  3483 net.cpp:159] Memory required for data: 4680080
I0507 14:37:36.542623  3483 layer_factory.hpp:77] Creating layer relu1
I0507 14:37:36.542631  3483 net.cpp:94] Creating Layer relu1
I0507 14:37:36.542635  3483 net.cpp:435] relu1 <- conv1
I0507 14:37:36.542640  3483 net.cpp:396] relu1 -> conv1 (in-place)
I0507 14:37:36.542649  3483 net.cpp:144] Setting up relu1
I0507 14:37:36.542652  3483 net.cpp:151] Top shape: 20 64 30 30 (1152000)
I0507 14:37:36.542655  3483 net.cpp:159] Memory required for data: 9288080
I0507 14:37:36.542659  3483 layer_factory.hpp:77] Creating layer conv2
I0507 14:37:36.542666  3483 net.cpp:94] Creating Layer conv2
I0507 14:37:36.542670  3483 net.cpp:435] conv2 <- conv1
I0507 14:37:36.542675  3483 net.cpp:409] conv2 -> conv2
I0507 14:37:36.559433  3483 net.cpp:144] Setting up conv2
I0507 14:37:36.559449  3483 net.cpp:151] Top shape: 20 64 30 30 (1152000)
I0507 14:37:36.559453  3483 net.cpp:159] Memory required for data: 13896080
I0507 14:37:36.559461  3483 layer_factory.hpp:77] Creating layer relu2
I0507 14:37:36.559468  3483 net.cpp:94] Creating Layer relu2
I0507 14:37:36.559471  3483 net.cpp:435] relu2 <- conv2
I0507 14:37:36.559476  3483 net.cpp:396] relu2 -> conv2 (in-place)
I0507 14:37:36.559484  3483 net.cpp:144] Setting up relu2
I0507 14:37:36.559487  3483 net.cpp:151] Top shape: 20 64 30 30 (1152000)
I0507 14:37:36.559490  3483 net.cpp:159] Memory required for data: 18504080
I0507 14:37:36.559494  3483 layer_factory.hpp:77] Creating layer pool2
I0507 14:37:36.559504  3483 net.cpp:94] Creating Layer pool2
I0507 14:37:36.559509  3483 net.cpp:435] pool2 <- conv2
I0507 14:37:36.559512  3483 net.cpp:409] pool2 -> pool2
I0507 14:37:36.559564  3483 net.cpp:144] Setting up pool2
I0507 14:37:36.559571  3483 net.cpp:151] Top shape: 20 64 15 15 (288000)
I0507 14:37:36.559576  3483 net.cpp:159] Memory required for data: 19656080
I0507 14:37:36.559578  3483 layer_factory.hpp:77] Creating layer conv3
I0507 14:37:36.559587  3483 net.cpp:94] Creating Layer conv3
I0507 14:37:36.559589  3483 net.cpp:435] conv3 <- pool2
I0507 14:37:36.559594  3483 net.cpp:409] conv3 -> conv3
I0507 14:37:36.568372  3483 net.cpp:144] Setting up conv3
I0507 14:37:36.568406  3483 net.cpp:151] Top shape: 20 64 15 15 (288000)
I0507 14:37:36.568410  3483 net.cpp:159] Memory required for data: 20808080
I0507 14:37:36.568418  3483 layer_factory.hpp:77] Creating layer relu3
I0507 14:37:36.568425  3483 net.cpp:94] Creating Layer relu3
I0507 14:37:36.568428  3483 net.cpp:435] relu3 <- conv3
I0507 14:37:36.568434  3483 net.cpp:396] relu3 -> conv3 (in-place)
I0507 14:37:36.568440  3483 net.cpp:144] Setting up relu3
I0507 14:37:36.568444  3483 net.cpp:151] Top shape: 20 64 15 15 (288000)
I0507 14:37:36.568447  3483 net.cpp:159] Memory required for data: 21960080
I0507 14:37:36.568450  3483 layer_factory.hpp:77] Creating layer conv4
I0507 14:37:36.568459  3483 net.cpp:94] Creating Layer conv4
I0507 14:37:36.568462  3483 net.cpp:435] conv4 <- conv3
I0507 14:37:36.568466  3483 net.cpp:409] conv4 -> conv4
I0507 14:37:36.576274  3483 net.cpp:144] Setting up conv4
I0507 14:37:36.576289  3483 net.cpp:151] Top shape: 20 64 15 15 (288000)
I0507 14:37:36.576293  3483 net.cpp:159] Memory required for data: 23112080
I0507 14:37:36.576300  3483 layer_factory.hpp:77] Creating layer relu4
I0507 14:37:36.576306  3483 net.cpp:94] Creating Layer relu4
I0507 14:37:36.576309  3483 net.cpp:435] relu4 <- conv4
I0507 14:37:36.576314  3483 net.cpp:396] relu4 -> conv4 (in-place)
I0507 14:37:36.576321  3483 net.cpp:144] Setting up relu4
I0507 14:37:36.576325  3483 net.cpp:151] Top shape: 20 64 15 15 (288000)
I0507 14:37:36.576328  3483 net.cpp:159] Memory required for data: 24264080
I0507 14:37:36.576331  3483 layer_factory.hpp:77] Creating layer conv5
I0507 14:37:36.576339  3483 net.cpp:94] Creating Layer conv5
I0507 14:37:36.576342  3483 net.cpp:435] conv5 <- conv4
I0507 14:37:36.576347  3483 net.cpp:409] conv5 -> conv5
I0507 14:37:36.584190  3483 net.cpp:144] Setting up conv5
I0507 14:37:36.584205  3483 net.cpp:151] Top shape: 20 64 15 15 (288000)
I0507 14:37:36.584209  3483 net.cpp:159] Memory required for data: 25416080
I0507 14:37:36.584218  3483 layer_factory.hpp:77] Creating layer relu5
I0507 14:37:36.584224  3483 net.cpp:94] Creating Layer relu5
I0507 14:37:36.584228  3483 net.cpp:435] relu5 <- conv5
I0507 14:37:36.584233  3483 net.cpp:396] relu5 -> conv5 (in-place)
I0507 14:37:36.584239  3483 net.cpp:144] Setting up relu5
I0507 14:37:36.584244  3483 net.cpp:151] Top shape: 20 64 15 15 (288000)
I0507 14:37:36.584246  3483 net.cpp:159] Memory required for data: 26568080
I0507 14:37:36.584249  3483 layer_factory.hpp:77] Creating layer pool5
I0507 14:37:36.584254  3483 net.cpp:94] Creating Layer pool5
I0507 14:37:36.584257  3483 net.cpp:435] pool5 <- conv5
I0507 14:37:36.584261  3483 net.cpp:409] pool5 -> pool5
I0507 14:37:36.584300  3483 net.cpp:144] Setting up pool5
I0507 14:37:36.584307  3483 net.cpp:151] Top shape: 20 64 7 7 (62720)
I0507 14:37:36.584311  3483 net.cpp:159] Memory required for data: 26818960
I0507 14:37:36.584313  3483 layer_factory.hpp:77] Creating layer ip1
I0507 14:37:36.584323  3483 net.cpp:94] Creating Layer ip1
I0507 14:37:36.584326  3483 net.cpp:435] ip1 <- pool5
I0507 14:37:36.584331  3483 net.cpp:409] ip1 -> ip1
I0507 14:37:36.589942  3483 net.cpp:144] Setting up ip1
I0507 14:37:36.589956  3483 net.cpp:151] Top shape: 20 64 (1280)
I0507 14:37:36.589960  3483 net.cpp:159] Memory required for data: 26824080
I0507 14:37:36.589965  3483 layer_factory.hpp:77] Creating layer ip2
I0507 14:37:36.589972  3483 net.cpp:94] Creating Layer ip2
I0507 14:37:36.589980  3483 net.cpp:435] ip2 <- ip1
I0507 14:37:36.589985  3483 net.cpp:409] ip2 -> ip2
I0507 14:37:36.590190  3483 net.cpp:144] Setting up ip2
I0507 14:37:36.590198  3483 net.cpp:151] Top shape: 20 64 (1280)
I0507 14:37:36.590201  3483 net.cpp:159] Memory required for data: 26829200
I0507 14:37:36.590206  3483 layer_factory.hpp:77] Creating layer ip3
I0507 14:37:36.590212  3483 net.cpp:94] Creating Layer ip3
I0507 14:37:36.590215  3483 net.cpp:435] ip3 <- ip2
I0507 14:37:36.590219  3483 net.cpp:409] ip3 -> ip3
I0507 14:37:36.590317  3483 net.cpp:144] Setting up ip3
I0507 14:37:36.590323  3483 net.cpp:151] Top shape: 20 1 (20)
I0507 14:37:36.590327  3483 net.cpp:159] Memory required for data: 26829280
I0507 14:37:36.590332  3483 layer_factory.hpp:77] Creating layer loss
I0507 14:37:36.590342  3483 net.cpp:94] Creating Layer loss
I0507 14:37:36.590346  3483 net.cpp:435] loss <- ip3
I0507 14:37:36.590350  3483 net.cpp:435] loss <- label
I0507 14:37:36.590354  3483 net.cpp:409] loss -> loss
I0507 14:37:36.590402  3483 net.cpp:144] Setting up loss
…
I0507 14:37:36.985435  3483 net.cpp:323] The NetState phase (0) differed from the phase (1) specified by a rule in layer intercept
I0507 14:37:36.985452  3483 net.cpp:323] The NetState phase (0) differed from the phase (1) specified by a rule in layer accuracy
I0507 14:37:36.985539  3483 net.cpp:52] Initializing net from parameters: 
state {
  phase: TRAIN
}
layer {
  name: "parameters"
  type: "HDF5Data"
  top: "data"
  top: "label"
  include {
    phase: TRAIN
  }
  hdf5_data_param {
    source: "/home/purduethu/scratch/radon/d/deng106/CNNStatisticalModel/distributions/input/50_distributions_900_sample_size_train-distributions-path.txt"
    batch_size: 20
  }
}
layer {
  name: "conv1"
  type: "Convolution"
  bottom: "data"
  top: "conv1"
  param {
    lr_mult: 1
  }
  param {
    lr_mult: 2
  }
  convolution_param {
    num_output: 64
    pad: 2
    kernel_size: 5
    stride: 1
    weight_filler {
      type: "gaussian"
      std: 0.0001
    }
    bias_filler {
      type: "constant"
    }
  }
}
layer {
  name: "relu1"
  type: "ReLU"
  bottom: "conv1"
  top: "conv1"
}
layer {
  name: "conv2"
  type: "Convolution"
  bottom: "conv1"
  top: "conv2"
  param {
    lr_mult: 1
  }
  param {
    lr_mult: 2
  }
  convolution_param {
    num_output: 64
    pad: 2
    kernel_size: 5
    stride: 1
    weight_filler {
      type: "gaussian"
      std: 0.01
    }
    bias_filler {
      type: "constant"
    }
  }
}
layer {
  name: "relu2"
  type: "ReLU"
  bottom: "conv2"
  top: "conv2"
}
layer {
  name: "pool2"
  type: "Pooling"
  bottom: "conv2"
  top: "pool2"
  pooling_param {
    pool: MAX
    kernel_size: 3
    stride: 2
  }
}
layer {
  name: "conv3"
  type: "Convolution"
  bottom: "pool2"
  top: "conv3"
  param {
    lr_mult: 1
  }
  param {
    lr_mult: 2
  }
  convolution_param {
    num_output: 64
    pad: 2
    kernel_size: 5
    stride: 1
    weight_filler {
      type: "gaussian"
      std: 0.01
    }
    bias_filler {
      type: "constant"
    }
  }
}
layer {
  name: "relu3"
  type: "ReLU"
  bottom: "conv3"
  top: "conv3"
}
layer {
  name: "conv4"
  type: "Convolution"
  bottom: "conv3"
  top: "conv4"
  param {
    lr_mult: 1
  }
  param {
    lr_mult: 2
  }
  convolution_param {
    num_output: 64
    pad: 2
    kernel_size: 5
    stride: 1
    weight_filler {
      type: "gaussian"
      std: 0.01
    }
    bias_filler {
      type: "constant"
    }
  }
}
layer {
  name: "relu4"
  type: "ReLU"
  bottom: "conv4"
  top: "conv4"
}
layer {
  name: "conv5"
  type: "Convolution"
  bottom: "conv4"
  top: "conv5"
  param {
    lr_mult: 1
  }
  param {
    lr_mult: 2
  }
  convolution_param {
    num_output: 64
    pad: 2
    kernel_size: 5
    stride: 1
    weight_filler {
      type: "gaussian"
      std: 0.01
    }
    bias_filler {
      type: "constant"
    }
  }
}
layer {
  name: "relu5"
  type: "ReLU"
  bottom: "conv5"
  top: "conv5"
}
layer {
  name: "pool5"
  type: "Pooling"
  bottom: "conv5"
  top: "pool5"
  pooling_param {
    pool: AVE
    kernel_size: 3
    stride: 2
  }
}
layer {
  name: "ip1"
  type: "InnerProduct"
  bottom: "pool5"
  top: "ip1"
  param {
    lr_mult: 1
  }
  param {
    lr_mult: 2
  }
  inner_product_param {
    num_output: 64
    weight_filler {
      type: "gaussian"
      std: 0.1
    }
    bias_filler {
      type: "constant"
    }
  }
}
layer {
  name: "ip2"
  type: "InnerProduct"
  bottom: "ip1"
  top: "ip2"
  param {
    lr_mult: 1
  }
  param {
    lr_mult: 2
  }
  inner_product_param {
    num_output: 64
    weight_filler {
      type: "gaussian"
      std: 0.1
    }
    bias_filler {
      type: "constant"
    }
  }
}
layer {
  name: "ip3"
  type: "InnerProduct"
  bottom: "ip2"
  top: "ip3"
  param {
    lr_mult: 1
  }
  param {
    lr_mult: 2
  }
  inner_product_param {
    num_output: 50
    weight_filler {
      type: "gaussian"
      std: 0.1
    }
    bias_filler {
      type: "constant"
    }
  }
}
layer {
  name: "loss"
  type: "SoftmaxWithLoss"
  bottom: "ip3"
  bottom: "label"
  top: "loss"
}
I0507 14:37:36.985590  3483 layer_factory.hpp:77] Creating layer parameters
I0507 14:37:36.985599  3483 net.cpp:94] Creating Layer parameters
I0507 14:37:36.985602  3483 net.cpp:409] parameters -> data
I0507 14:37:36.985610  3483 net.cpp:409] parameters -> label
I0507 14:37:36.985615  3483 hdf5_data_layer.cpp:79] Loading list of HDF5 filenames from: /home/purduethu/scratch/radon/d/deng106/CNNStatisticalModel/distributions/input/50_distributions_900_sample_size_train-distributions-path.txt
I0507 14:37:36.985631  3483 hdf5_data_layer.cpp:93] Number of HDF5 files: 1
I0507 14:37:38.420732  3483 hdf5.cpp:35] Datatype class: H5T_INTEGER
I0507 14:37:38.423719  3483 net.cpp:144] Setting up parameters
I0507 14:37:38.423741  3483 net.cpp:151] Top shape: 20 1 30 30 (18000)
I0507 14:37:38.423746  3483 net.cpp:151] Top shape: 20 (20)
I0507 14:37:38.423749  3483 net.cpp:159] Memory required for data: 72080
I0507 14:37:38.423755  3483 layer_factory.hpp:77] Creating layer conv1
I0507 14:37:38.423771  3483 net.cpp:94] Creating Layer conv1
I0507 14:37:38.423775  3483 net.cpp:435] conv1 <- data
I0507 14:37:38.423782  3483 net.cpp:409] conv1 -> conv1
I0507 14:37:38.427290  3483 net.cpp:144] Setting up conv1
I0507 14:37:38.427305  3483 net.cpp:151] Top shape: 20 64 30 30 (1152000)
I0507 14:37:38.427309  3483 net.cpp:159] Memory required for data: 4680080
I0507 14:37:38.427319  3483 layer_factory.hpp:77] Creating layer relu1
I0507 14:37:38.427326  3483 net.cpp:94] Creating Layer relu1
I0507 14:37:38.427330  3483 net.cpp:435] relu1 <- conv1
I0507 14:37:38.427335  3483 net.cpp:396] relu1 -> conv1 (in-place)
I0507 14:37:38.427341  3483 net.cpp:144] Setting up relu1
I0507 14:37:38.427345  3483 net.cpp:151] Top shape: 20 64 30 30 (1152000)
I0507 14:37:38.427348  3483 net.cpp:159] Memory required for data: 9288080
I0507 14:37:38.427351  3483 layer_factory.hpp:77] Creating layer conv2
I0507 14:37:38.427359  3483 net.cpp:94] Creating Layer conv2
I0507 14:37:38.427362  3483 net.cpp:435] conv2 <- conv1
I0507 14:37:38.427367  3483 net.cpp:409] conv2 -> conv2
I0507 14:37:38.443209  3483 net.cpp:144] Setting up conv2
I0507 14:37:38.443224  3483 net.cpp:151] Top shape: 20 64 30 30 (1152000)
I0507 14:37:38.443228  3483 net.cpp:159] Memory required for data: 13896080
I0507 14:37:38.443238  3483 layer_factory.hpp:77] Creating layer relu2
I0507 14:37:38.443243  3483 net.cpp:94] Creating Layer relu2
I0507 14:37:38.443248  3483 net.cpp:435] relu2 <- conv2
I0507 14:37:38.443251  3483 net.cpp:396] relu2 -> conv2 (in-place)
I0507 14:37:38.443259  3483 net.cpp:144] Setting up relu2
I0507 14:37:38.443264  3483 net.cpp:151] Top shape: 20 64 30 30 (1152000)
I0507 14:37:38.443265  3483 net.cpp:159] Memory required for data: 18504080
I0507 14:37:38.443269  3483 layer_factory.hpp:77] Creating layer pool2
I0507 14:37:38.443274  3483 net.cpp:94] Creating Layer pool2
I0507 14:37:38.443277  3483 net.cpp:435] pool2 <- conv2
I0507 14:37:38.443281  3483 net.cpp:409] pool2 -> pool2
I0507 14:37:38.443333  3483 net.cpp:144] Setting up pool2
I0507 14:37:38.443341  3483 net.cpp:151] Top shape: 20 64 15 15 (288000)
I0507 14:37:38.443343  3483 net.cpp:159] Memory required for data: 19656080
I0507 14:37:38.443346  3483 layer_factory.hpp:77] Creating layer conv3
I0507 14:37:38.443353  3483 net.cpp:94] Creating Layer conv3
I0507 14:37:38.443357  3483 net.cpp:435] conv3 <- pool2
I0507 14:37:38.443368  3483 net.cpp:409] conv3 -> conv3
I0507 14:37:38.452236  3483 net.cpp:144] Setting up conv3
I0507 14:37:38.452252  3483 net.cpp:151] Top shape: 20 64 15 15 (288000)
I0507 14:37:38.452256  3483 net.cpp:159] Memory required for data: 20808080
I0507 14:37:38.452265  3483 layer_factory.hpp:77] Creating layer relu3
I0507 14:37:38.452270  3483 net.cpp:94] Creating Layer relu3
I0507 14:37:38.452275  3483 net.cpp:435] relu3 <- conv3
I0507 14:37:38.452278  3483 net.cpp:396] relu3 -> conv3 (in-place)
I0507 14:37:38.452286  3483 net.cpp:144] Setting up relu3
I0507 14:37:38.452291  3483 net.cpp:151] Top shape: 20 64 15 15 (288000)
I0507 14:37:38.452293  3483 net.cpp:159] Memory required for data: 21960080
I0507 14:37:38.452296  3483 layer_factory.hpp:77] Creating layer conv4
I0507 14:37:38.452304  3483 net.cpp:94] Creating Layer conv4
I0507 14:37:38.452307  3483 net.cpp:435] conv4 <- conv3
I0507 14:37:38.452312  3483 net.cpp:409] conv4 -> conv4
I0507 14:37:38.460923  3483 net.cpp:144] Setting up conv4
I0507 14:37:38.460938  3483 net.cpp:151] Top shape: 20 64 15 15 (288000)
I0507 14:37:38.460942  3483 net.cpp:159] Memory required for data: 23112080
I0507 14:37:38.460948  3483 layer_factory.hpp:77] Creating layer relu4
I0507 14:37:38.460954  3483 net.cpp:94] Creating Layer relu4
I0507 14:37:38.460958  3483 net.cpp:435] relu4 <- conv4
I0507 14:37:38.460963  3483 net.cpp:396] relu4 -> conv4 (in-place)
I0507 14:37:38.460969  3483 net.cpp:144] Setting up relu4
I0507 14:37:38.460974  3483 net.cpp:151] Top shape: 20 64 15 15 (288000)
I0507 14:37:38.460976  3483 net.cpp:159] Memory required for data: 24264080
I0507 14:37:38.460979  3483 layer_factory.hpp:77] Creating layer conv5
I0507 14:37:38.460988  3483 net.cpp:94] Creating Layer conv5
I0507 14:37:38.460990  3483 net.cpp:435] conv5 <- conv4
I0507 14:37:38.460995  3483 net.cpp:409] conv5 -> conv5
I0507 14:37:38.468683  3483 net.cpp:144] Setting up conv5
I0507 14:37:38.468698  3483 net.cpp:151] Top shape: 20 64 15 15 (288000)
I0507 14:37:38.468703  3483 net.cpp:159] Memory required for data: 25416080
I0507 14:37:38.468711  3483 layer_factory.hpp:77] Creating layer relu5
I0507 14:37:38.468717  3483 net.cpp:94] Creating Layer relu5
I0507 14:37:38.468721  3483 net.cpp:435] relu5 <- conv5
I0507 14:37:38.468725  3483 net.cpp:396] relu5 -> conv5 (in-place)
I0507 14:37:38.468732  3483 net.cpp:144] Setting up relu5
I0507 14:37:38.468737  3483 net.cpp:151] Top shape: 20 64 15 15 (288000)
I0507 14:37:38.468740  3483 net.cpp:159] Memory required for data: 26568080
I0507 14:37:38.468744  3483 layer_factory.hpp:77] Creating layer pool5
I0507 14:37:38.468749  3483 net.cpp:94] Creating Layer pool5
I0507 14:37:38.468751  3483 net.cpp:435] pool5 <- conv5
I0507 14:37:38.468755  3483 net.cpp:409] pool5 -> pool5
I0507 14:37:38.468792  3483 net.cpp:144] Setting up pool5
I0507 14:37:38.468801  3483 net.cpp:151] Top shape: 20 64 7 7 (62720)
I0507 14:37:38.468803  3483 net.cpp:159] Memory required for data: 26818960
I0507 14:37:38.468806  3483 layer_factory.hpp:77] Creating layer ip1
I0507 14:37:38.468813  3483 net.cpp:94] Creating Layer ip1
I0507 14:37:38.468816  3483 net.cpp:435] ip1 <- pool5
I0507 14:37:38.468822  3483 net.cpp:409] ip1 -> ip1
I0507 14:37:38.473590  3483 net.cpp:144] Setting up ip1
I0507 14:37:38.473599  3483 net.cpp:151] Top shape: 20 64 (1280)
I0507 14:37:38.473603  3483 net.cpp:159] Memory required for data: 26824080
I0507 14:37:38.473608  3483 layer_factory.hpp:77] Creating layer ip2
I0507 14:37:38.473613  3483 net.cpp:94] Creating Layer ip2
I0507 14:37:38.473618  3483 net.cpp:435] ip2 <- ip1
I0507 14:37:38.473621  3483 net.cpp:409] ip2 -> ip2
I0507 14:37:38.473835  3483 net.cpp:144] Setting up ip2
I0507 14:37:38.473842  3483 net.cpp:151] Top shape: 20 64 (1280)
I0507 14:37:38.473845  3483 net.cpp:159] Memory required for data: 26829200
I0507 14:37:38.473850  3483 layer_factory.hpp:77] Creating layer ip3
I0507 14:37:38.473856  3483 net.cpp:94] Creating Layer ip3
I0507 14:37:38.473860  3483 net.cpp:435] ip3 <- ip2
I0507 14:37:38.473863  3483 net.cpp:409] ip3 -> ip3
I0507 14:37:38.474054  3483 net.cpp:144] Setting up ip3
I0507 14:37:38.474062  3483 net.cpp:151] Top shape: 20 50 (1000)
I0507 14:37:38.474066  3483 net.cpp:159] Memory required for data: 26833200
I0507 14:37:38.474071  3483 layer_factory.hpp:77] Creating layer loss
I0507 14:37:38.474076  3483 net.cpp:94] Creating Layer loss
I0507 14:37:38.474079  3483 net.cpp:435] loss <- ip3
I0507 14:37:38.474083  3483 net.cpp:435] loss <- label
I0507 14:37:38.474087  3483 net.cpp:409] loss -> loss
I0507 14:37:38.474094  3483 layer_factory.hpp:77] Creating layer loss
…
I0507 14:37:38.474596  3483 solver.cpp:181] Creating test net (#0) specified by net file: ./protocol/dis_50_900_dimension.protocol_distribution
I0507 14:37:38.474622  3483 net.cpp:323] The NetState phase (1) differed from the phase (0) specified by a rule in layer parameters
I0507 14:37:38.474714  3483 net.cpp:52] Initializing net from parameters: 
state {
  phase: TEST
}
layer {
  name: "intercept"
  type: "HDF5Data"
  top: "data"
  top: "label"
  include {
    phase: TEST
  }
  hdf5_data_param {
    source: "/home/purduethu/scratch/radon/d/deng106/CNNStatisticalModel/distributions/input/50_distributions_900_sample_size_test-distributions-path.txt"
    batch_size: 20
  }
}
layer {
  name: "conv1"
  type: "Convolution"
  bottom: "data"
  top: "conv1"
  param {
    lr_mult: 1
  }
  param {
    lr_mult: 2
  }
  convolution_param {
    num_output: 64
    pad: 2
    kernel_size: 5
    stride: 1
    weight_filler {
      type: "gaussian"
      std: 0.0001
    }
    bias_filler {
      type: "constant"
    }
  }
}
layer {
  name: "relu1"
  type: "ReLU"
  bottom: "conv1"
  top: "conv1"
}
layer {
  name: "conv2"
  type: "Convolution"
  bottom: "conv1"
  top: "conv2"
  param {
    lr_mult: 1
  }
  param {
    lr_mult: 2
  }
  convolution_param {
    num_output: 64
    pad: 2
    kernel_size: 5
    stride: 1
    weight_filler {
      type: "gaussian"
      std: 0.01
    }
    bias_filler {
      type: "constant"
    }
  }
}
layer {
  name: "relu2"
  type: "ReLU"
  bottom: "conv2"
  top: "conv2"
}
layer {
  name: "pool2"
  type: "Pooling"
  bottom: "conv2"
  top: "pool2"
  pooling_param {
    pool: MAX
    kernel_size: 3
    stride: 2
  }
}
layer {
  name: "conv3"
  type: "Convolution"
  bottom: "pool2"
  top: "conv3"
  param {
    lr_mult: 1
  }
  param {
    lr_mult: 2
  }
  convolution_param {
    num_output: 64
    pad: 2
    kernel_size: 5
    stride: 1
    weight_filler {
      type: "gaussian"
      std: 0.01
    }
    bias_filler {
      type: "constant"
    }
  }
}
layer {
  name: "relu3"
  type: "ReLU"
  bottom: "conv3"
  top: "conv3"
}
layer {
  name: "conv4"
  type: "Convolution"
  bottom: "conv3"
  top: "conv4"
  param {
    lr_mult: 1
  }
  param {
    lr_mult: 2
  }
  convolution_param {
    num_output: 64
    pad: 2
    kernel_size: 5
    stride: 1
    weight_filler {
      type: "gaussian"
      std: 0.01
    }
    bias_filler {
      type: "constant"
    }
  }
}
layer {
  name: "relu4"
  type: "ReLU"
  bottom: "conv4"
  top: "conv4"
}
layer {
  name: "conv5"
  type: "Convolution"
  bottom: "conv4"
  top: "conv5"
  param {
    lr_mult: 1
  }
  param {
    lr_mult: 2
  }
  convolution_param {
    num_output: 64
    pad: 2
    kernel_size: 5
    stride: 1
    weight_filler {
      type: "gaussian"
      std: 0.01
    }
    bias_filler {
      type: "constant"
    }
  }
}
layer {
  name: "relu5"
  type: "ReLU"
  bottom: "conv5"
  top: "conv5"
}
layer {
  name: "pool5"
  type: "Pooling"
  bottom: "conv5"
  top: "pool5"
  pooling_param {
    pool: AVE
    kernel_size: 3
    stride: 2
  }
}
layer {
  name: "ip1"
  type: "InnerProduct"
  bottom: "pool5"
  top: "ip1"
  param {
    lr_mult: 1
  }
  param {
    lr_mult: 2
  }
  inner_product_param {
    num_output: 64
    weight_filler {
      type: "gaussian"
      std: 0.1
    }
    bias_filler {
      type: "constant"
    }
  }
}
layer {
  name: "ip2"
  type: "InnerProduct"
  bottom: "ip1"
  top: "ip2"
  param {
    lr_mult: 1
  }
  param {
    lr_mult: 2
  }
  inner_product_param {
    num_output: 64
    weight_filler {
      type: "gaussian"
      std: 0.1
    }
    bias_filler {
      type: "constant"
    }
  }
}
layer {
  name: "ip3"
  type: "InnerProduct"
  bottom: "ip2"
  top: "ip3"
  param {
    lr_mult: 1
  }
  param {
    lr_mult: 2
  }
  inner_product_param {
    num_output: 50
    weight_filler {
      type: "gaussian"
      std: 0.1
    }
    bias_filler {
      type: "constant"
    }
  }
}
layer {
  name: "accuracy"
  type: "Accuracy"
  bottom: "ip3"
  bottom: "label"
  top: "accuracy"
  include {
    phase: TEST
  }
}
layer {
  name: "loss"
  type: "SoftmaxWithLoss"
  bottom: "ip3"
  bottom: "label"
  top: "loss"
}
I0507 14:37:38.474778  3483 layer_factory.hpp:77] Creating layer intercept
I0507 14:37:38.474786  3483 net.cpp:94] Creating Layer intercept
I0507 14:37:38.474791  3483 net.cpp:409] intercept -> data
I0507 14:37:38.474797  3483 net.cpp:409] intercept -> label
I0507 14:37:38.474803  3483 hdf5_data_layer.cpp:79] Loading list of HDF5 filenames from: /home/purduethu/scratch/radon/d/deng106/CNNStatisticalModel/distributions/input/50_distributions_900_sample_size_test-distributions-path.txt
I0507 14:37:38.474822  3483 hdf5_data_layer.cpp:93] Number of HDF5 files: 1
I0507 14:37:38.840711  3483 net.cpp:144] Setting up intercept
I0507 14:37:38.840744  3483 net.cpp:151] Top shape: 20 1 30 30 (18000)
I0507 14:37:38.840749  3483 net.cpp:151] Top shape: 20 (20)
I0507 14:37:38.840752  3483 net.cpp:159] Memory required for data: 72080
I0507 14:37:38.840759  3483 layer_factory.hpp:77] Creating layer label_intercept_1_split
I0507 14:37:38.840780  3483 net.cpp:94] Creating Layer label_intercept_1_split
I0507 14:37:38.840785  3483 net.cpp:435] label_intercept_1_split <- label
I0507 14:37:38.840790  3483 net.cpp:409] label_intercept_1_split -> label_intercept_1_split_0
I0507 14:37:38.840798  3483 net.cpp:409] label_intercept_1_split -> label_intercept_1_split_1
I0507 14:37:38.840840  3483 net.cpp:144] Setting up label_intercept_1_split
I0507 14:37:38.840847  3483 net.cpp:151] Top shape: 20 (20)
I0507 14:37:38.840850  3483 net.cpp:151] Top shape: 20 (20)
I0507 14:37:38.840853  3483 net.cpp:159] Memory required for data: 72240
I0507 14:37:38.840857  3483 layer_factory.hpp:77] Creating layer conv1
I0507 14:37:38.840867  3483 net.cpp:94] Creating Layer conv1
I0507 14:37:38.840870  3483 net.cpp:435] conv1 <- data
I0507 14:37:38.840875  3483 net.cpp:409] conv1 -> conv1
I0507 14:37:38.842355  3483 net.cpp:144] Setting up conv1
I0507 14:37:38.842368  3483 net.cpp:151] Top shape: 20 64 30 30 (1152000)
I0507 14:37:38.842372  3483 net.cpp:159] Memory required for data: 4680240
I0507 14:37:38.842381  3483 layer_factory.hpp:77] Creating layer relu1
I0507 14:37:38.842388  3483 net.cpp:94] Creating Layer relu1
I0507 14:37:38.842391  3483 net.cpp:435] relu1 <- conv1
I0507 14:37:38.842396  3483 net.cpp:396] relu1 -> conv1 (in-place)
I0507 14:37:38.842403  3483 net.cpp:144] Setting up relu1
I0507 14:37:38.842407  3483 net.cpp:151] Top shape: 20 64 30 30 (1152000)
I0507 14:37:38.842411  3483 net.cpp:159] Memory required for data: 9288240
I0507 14:37:38.842413  3483 layer_factory.hpp:77] Creating layer conv2
I0507 14:37:38.842422  3483 net.cpp:94] Creating Layer conv2
I0507 14:37:38.842424  3483 net.cpp:435] conv2 <- conv1
I0507 14:37:38.842429  3483 net.cpp:409] conv2 -> conv2
I0507 14:37:38.849998  3483 net.cpp:144] Setting up conv2
I0507 14:37:38.850013  3483 net.cpp:151] Top shape: 20 64 30 30 (1152000)
I0507 14:37:38.850018  3483 net.cpp:159] Memory required for data: 13896240
I0507 14:37:38.850025  3483 layer_factory.hpp:77] Creating layer relu2
I0507 14:37:38.850031  3483 net.cpp:94] Creating Layer relu2
I0507 14:37:38.850035  3483 net.cpp:435] relu2 <- conv2
I0507 14:37:38.850042  3483 net.cpp:396] relu2 -> conv2 (in-place)
I0507 14:37:38.850050  3483 net.cpp:144] Setting up relu2
I0507 14:37:38.850054  3483 net.cpp:151] Top shape: 20 64 30 30 (1152000)
I0507 14:37:38.850057  3483 net.cpp:159] Memory required for data: 18504240
I0507 14:37:38.850060  3483 layer_factory.hpp:77] Creating layer pool2
I0507 14:37:38.850066  3483 net.cpp:94] Creating Layer pool2
I0507 14:37:38.850070  3483 net.cpp:435] pool2 <- conv2
I0507 14:37:38.850075  3483 net.cpp:409] pool2 -> pool2
I0507 14:37:38.850131  3483 net.cpp:144] Setting up pool2
I0507 14:37:38.850138  3483 net.cpp:151] Top shape: 20 64 15 15 (288000)
I0507 14:37:38.850142  3483 net.cpp:159] Memory required for data: 19656240
I0507 14:37:38.850144  3483 layer_factory.hpp:77] Creating layer conv3
I0507 14:37:38.850152  3483 net.cpp:94] Creating Layer conv3
I0507 14:37:38.850157  3483 net.cpp:435] conv3 <- pool2
I0507 14:37:38.850162  3483 net.cpp:409] conv3 -> conv3
I0507 14:37:38.855341  3483 net.cpp:144] Setting up conv3
I0507 14:37:38.855370  3483 net.cpp:151] Top shape: 20 64 15 15 (288000)
I0507 14:37:38.855373  3483 net.cpp:159] Memory required for data: 20808240
I0507 14:37:38.855381  3483 layer_factory.hpp:77] Creating layer relu3
I0507 14:37:38.855389  3483 net.cpp:94] Creating Layer relu3
I0507 14:37:38.855393  3483 net.cpp:435] relu3 <- conv3
I0507 14:37:38.855397  3483 net.cpp:396] relu3 -> conv3 (in-place)
I0507 14:37:38.855404  3483 net.cpp:144] Setting up relu3
I0507 14:37:38.855409  3483 net.cpp:151] Top shape: 20 64 15 15 (288000)
I0507 14:37:38.855412  3483 net.cpp:159] Memory required for data: 21960240
I0507 14:37:38.855415  3483 layer_factory.hpp:77] Creating layer conv4
I0507 14:37:38.855423  3483 net.cpp:94] Creating Layer conv4
I0507 14:37:38.855427  3483 net.cpp:435] conv4 <- conv3
I0507 14:37:38.855432  3483 net.cpp:409] conv4 -> conv4
I0507 14:37:38.860180  3483 net.cpp:144] Setting up conv4
I0507 14:37:38.860208  3483 net.cpp:151] Top shape: 20 64 15 15 (288000)
I0507 14:37:38.860211  3483 net.cpp:159] Memory required for data: 23112240
I0507 14:37:38.860218  3483 layer_factory.hpp:77] Creating layer relu4
I0507 14:37:38.860224  3483 net.cpp:94] Creating Layer relu4
I0507 14:37:38.860227  3483 net.cpp:435] relu4 <- conv4
I0507 14:37:38.860234  3483 net.cpp:396] relu4 -> conv4 (in-place)
I0507 14:37:38.860240  3483 net.cpp:144] Setting up relu4
I0507 14:37:38.860244  3483 net.cpp:151] Top shape: 20 64 15 15 (288000)
I0507 14:37:38.860247  3483 net.cpp:159] Memory required for data: 24264240
I0507 14:37:38.860250  3483 layer_factory.hpp:77] Creating layer conv5
I0507 14:37:38.860258  3483 net.cpp:94] Creating Layer conv5
I0507 14:37:38.860262  3483 net.cpp:435] conv5 <- conv4
I0507 14:37:38.860267  3483 net.cpp:409] conv5 -> conv5
I0507 14:37:38.865007  3483 net.cpp:144] Setting up conv5
I0507 14:37:38.865042  3483 net.cpp:151] Top shape: 20 64 15 15 (288000)
I0507 14:37:38.865053  3483 net.cpp:159] Memory required for data: 25416240
I0507 14:37:38.865087  3483 layer_factory.hpp:77] Creating layer relu5
I0507 14:37:38.865092  3483 net.cpp:94] Creating Layer relu5
I0507 14:37:38.865095  3483 net.cpp:435] relu5 <- conv5
I0507 14:37:38.865099  3483 net.cpp:396] relu5 -> conv5 (in-place)
I0507 14:37:38.865106  3483 net.cpp:144] Setting up relu5
I0507 14:37:38.865110  3483 net.cpp:151] Top shape: 20 64 15 15 (288000)
I0507 14:37:38.865113  3483 net.cpp:159] Memory required for data: 26568240
I0507 14:37:38.865116  3483 layer_factory.hpp:77] Creating layer pool5
I0507 14:37:38.865121  3483 net.cpp:94] Creating Layer pool5
I0507 14:37:38.865124  3483 net.cpp:435] pool5 <- conv5
I0507 14:37:38.865129  3483 net.cpp:409] pool5 -> pool5
I0507 14:37:38.865166  3483 net.cpp:144] Setting up pool5
I0507 14:37:38.865173  3483 net.cpp:151] Top shape: 20 64 7 7 (62720)
I0507 14:37:38.865176  3483 net.cpp:159] Memory required for data: 26819120
I0507 14:37:38.865180  3483 layer_factory.hpp:77] Creating layer ip1
I0507 14:37:38.865187  3483 net.cpp:94] Creating Layer ip1
I0507 14:37:38.865190  3483 net.cpp:435] ip1 <- pool5
I0507 14:37:38.865196  3483 net.cpp:409] ip1 -> ip1
I0507 14:37:38.870810  3483 net.cpp:144] Setting up ip1
I0507 14:37:38.870823  3483 net.cpp:151] Top shape: 20 64 (1280)
I0507 14:37:38.870827  3483 net.cpp:159] Memory required for data: 26824240
I0507 14:37:38.870833  3483 layer_factory.hpp:77] Creating layer ip2
I0507 14:37:38.870839  3483 net.cpp:94] Creating Layer ip2
I0507 14:37:38.870843  3483 net.cpp:435] ip2 <- ip1
I0507 14:37:38.870849  3483 net.cpp:409] ip2 -> ip2
I0507 14:37:38.871078  3483 net.cpp:144] Setting up ip2
I0507 14:37:38.871086  3483 net.cpp:151] Top shape: 20 64 (1280)
I0507 14:37:38.871089  3483 net.cpp:159] Memory required for data: 26829360
I0507 14:37:38.871094  3483 layer_factory.hpp:77] Creating layer ip3
I0507 14:37:38.871103  3483 net.cpp:94] Creating Layer ip3
I0507 14:37:38.871106  3483 net.cpp:435] ip3 <- ip2
I0507 14:37:38.871110  3483 net.cpp:409] ip3 -> ip3
I0507 14:37:38.871305  3483 net.cpp:144] Setting up ip3
I0507 14:37:38.871314  3483 net.cpp:151] Top shape: 20 50 (1000)
I0507 14:37:38.871315  3483 net.cpp:159] Memory required for data: 26833360
I0507 14:37:38.871320  3483 layer_factory.hpp:77] Creating layer ip3_ip3_0_split
I0507 14:37:38.871326  3483 net.cpp:94] Creating Layer ip3_ip3_0_split
I0507 14:37:38.871330  3483 net.cpp:435] ip3_ip3_0_split <- ip3
I0507 14:37:38.871335  3483 net.cpp:409] ip3_ip3_0_split -> ip3_ip3_0_split_0
I0507 14:37:38.871340  3483 net.cpp:409] ip3_ip3_0_split -> ip3_ip3_0_split_1
I0507 14:37:38.871381  3483 net.cpp:144] Setting up ip3_ip3_0_split
I0507 14:37:38.871387  3483 net.cpp:151] Top shape: 20 50 (1000)
I0507 14:37:38.871390  3483 net.cpp:151] Top shape: 20 50 (1000)
I0507 14:37:38.871392  3483 net.cpp:159] Memory required for data: 26841360
I0507 14:37:38.871395  3483 layer_factory.hpp:77] Creating layer accuracy
I0507 14:37:38.871400  3483 net.cpp:94] Creating Layer accuracy
I0507 14:37:38.871403  3483 net.cpp:435] accuracy <- ip3_ip3_0_split_0
I0507 14:37:38.871408  3483 net.cpp:435] accuracy <- label_intercept_1_split_0
I0507 14:37:38.871413  3483 net.cpp:409] accuracy -> accuracy
…
