…
I0504 07:42:47.541574 25434 net.cpp:323] The NetState phase (0) differed from the phase (1) specified by a rule in layer intercept
I0504 07:42:47.541590 25434 net.cpp:323] The NetState phase (0) differed from the phase (1) specified by a rule in layer loss
I0504 07:42:47.541671 25434 net.cpp:52] Initializing net from parameters: 
state {
  phase: TRAIN
}
layer {
  name: "parameters"
  type: "HDF5Data"
  top: "data"
  top: "label"
  include {
    phase: TRAIN
  }
  hdf5_data_param {
    source: "/home/purduethu/scratch/radon/d/deng106/CNNStatisticalModel/distributions/input/20_distributions_400_sample_size_train-parameters-path.txt"
    batch_size: 20
  }
}
layer {
  name: "conv1"
  type: "Convolution"
  bottom: "data"
  top: "conv1"
  param {
    lr_mult: 1
  }
  param {
    lr_mult: 2
  }
  convolution_param {
    num_output: 64
    pad: 2
    kernel_size: 5
    stride: 1
    weight_filler {
      type: "gaussian"
      std: 0.0001
    }
    bias_filler {
      type: "constant"
    }
  }
}
layer {
  name: "relu1"
  type: "ReLU"
  bottom: "conv1"
  top: "conv1"
}
layer {
  name: "conv2"
  type: "Convolution"
  bottom: "conv1"
  top: "conv2"
  param {
    lr_mult: 1
  }
  param {
    lr_mult: 2
  }
  convolution_param {
    num_output: 64
    pad: 2
    kernel_size: 5
    stride: 1
    weight_filler {
      type: "gaussian"
      std: 0.01
    }
    bias_filler {
      type: "constant"
    }
  }
}
layer {
  name: "relu2"
  type: "ReLU"
  bottom: "conv2"
  top: "conv2"
}
layer {
  name: "pool2"
  type: "Pooling"
  bottom: "conv2"
  top: "pool2"
  pooling_param {
    pool: MAX
    kernel_size: 3
    stride: 2
  }
}
layer {
  name: "conv3"
  type: "Convolution"
  bottom: "pool2"
  top: "conv3"
  param {
    lr_mult: 1
  }
  param {
    lr_mult: 2
  }
  convolution_param {
    num_output: 128
    pad: 2
    kernel_size: 5
    stride: 1
    weight_filler {
      type: "gaussian"
      std: 0.01
    }
    bias_filler {
      type: "constant"
    }
  }
}
layer {
  name: "relu3"
  type: "ReLU"
  bottom: "conv3"
  top: "conv3"
}
layer {
  name: "conv4"
  type: "Convolution"
  bottom: "conv3"
  top: "conv4"
  param {
    lr_mult: 1
  }
  param {
    lr_mult: 2
  }
  convolution_param {
    num_output: 128
    pad: 2
    kernel_size: 5
    stride: 1
    weight_filler {
      type: "gaussian"
      std: 0.01
    }
    bias_filler {
      type: "constant"
    }
  }
}
layer {
  name: "relu4"
  type: "ReLU"
  bottom: "conv4"
  top: "conv4"
}
layer {
  name: "conv5"
  type: "Convolution"
  bottom: "conv4"
  top: "conv5"
  param {
    lr_mult: 1
  }
  param {
    lr_mult: 2
  }
  convolution_param {
    num_output: 128
    pad: 2
    kernel_size: 5
    stride: 1
    weight_filler {
      type: "gaussian"
      std: 0.01
    }
    bias_filler {
      type: "constant"
    }
  }
}
layer {
  name: "relu5"
  type: "ReLU"
  bottom: "conv5"
  top: "conv5"
}
layer {
  name: "pool5"
  type: "Pooling"
  bottom: "conv5"
  top: "pool5"
  pooling_param {
    pool: AVE
    kernel_size: 3
    stride: 2
  }
}
layer {
  name: "ip1"
  type: "InnerProduct"
  bottom: "pool5"
  top: "ip1"
  param {
    lr_mult: 1
  }
  param {
    lr_mult: 2
  }
  inner_product_param {
    num_output: 1024
    weight_filler {
      type: "gaussian"
      std: 0.1
    }
    bias_filler {
      type: "constant"
    }
  }
}
layer {
  name: "ip2"
  type: "InnerProduct"
  bottom: "ip1"
  top: "ip2"
  param {
    lr_mult: 1
  }
  param {
    lr_mult: 2
  }
  inner_product_param {
    num_output: 512
    weight_filler {
      type: "gaussian"
      std: 0.1
    }
    bias_filler {
      type: "constant"
    }
  }
}
layer {
  name: "ip3"
  type: "InnerProduct"
  bottom: "ip2"
  top: "ip3"
  param {
    lr_mult: 1
  }
  param {
    lr_mult: 2
  }
  inner_product_param {
    num_output: 1
    weight_filler {
      type: "gaussian"
      std: 0.1
    }
    bias_filler {
      type: "constant"
    }
  }
}
layer {
  name: "loss"
  type: "HuberLoss"
  bottom: "ip3"
  bottom: "label"
  top: "loss"
  include {
    phase: TRAIN
  }
}
I0504 07:42:47.541725 25434 layer_factory.hpp:77] Creating layer parameters
I0504 07:42:47.541738 25434 net.cpp:94] Creating Layer parameters
I0504 07:42:47.541743 25434 net.cpp:409] parameters -> data
I0504 07:42:47.541755 25434 net.cpp:409] parameters -> label
I0504 07:42:47.541762 25434 hdf5_data_layer.cpp:79] Loading list of HDF5 filenames from: /home/purduethu/scratch/radon/d/deng106/CNNStatisticalModel/distributions/input/20_distributions_400_sample_size_train-parameters-path.txt
I0504 07:42:47.541776 25434 hdf5_data_layer.cpp:93] Number of HDF5 files: 1
I0504 07:42:47.542325 25434 hdf5.cpp:32] Datatype class: H5T_FLOAT
I0504 07:42:47.808168 25434 net.cpp:144] Setting up parameters
I0504 07:42:47.808213 25434 net.cpp:151] Top shape: 20 1 20 20 (8000)
I0504 07:42:47.808225 25434 net.cpp:151] Top shape: 20 (20)
I0504 07:42:47.808228 25434 net.cpp:159] Memory required for data: 32080
I0504 07:42:47.808235 25434 layer_factory.hpp:77] Creating layer conv1
I0504 07:42:47.808251 25434 net.cpp:94] Creating Layer conv1
I0504 07:42:47.808255 25434 net.cpp:435] conv1 <- data
I0504 07:42:47.808262 25434 net.cpp:409] conv1 -> conv1
I0504 07:42:47.814863 25434 net.cpp:144] Setting up conv1
I0504 07:42:47.814911 25434 net.cpp:151] Top shape: 20 64 20 20 (512000)
I0504 07:42:47.814923 25434 net.cpp:159] Memory required for data: 2080080
I0504 07:42:47.814949 25434 layer_factory.hpp:77] Creating layer relu1
I0504 07:42:47.814970 25434 net.cpp:94] Creating Layer relu1
I0504 07:42:47.814980 25434 net.cpp:435] relu1 <- conv1
I0504 07:42:47.814993 25434 net.cpp:396] relu1 -> conv1 (in-place)
I0504 07:42:47.815014 25434 net.cpp:144] Setting up relu1
I0504 07:42:47.815026 25434 net.cpp:151] Top shape: 20 64 20 20 (512000)
I0504 07:42:47.815035 25434 net.cpp:159] Memory required for data: 4128080
I0504 07:42:47.815043 25434 layer_factory.hpp:77] Creating layer conv2
I0504 07:42:47.815064 25434 net.cpp:94] Creating Layer conv2
I0504 07:42:47.815074 25434 net.cpp:435] conv2 <- conv1
I0504 07:42:47.815088 25434 net.cpp:409] conv2 -> conv2
I0504 07:42:47.834925 25434 net.cpp:144] Setting up conv2
I0504 07:42:47.834961 25434 net.cpp:151] Top shape: 20 64 20 20 (512000)
I0504 07:42:47.834972 25434 net.cpp:159] Memory required for data: 6176080
I0504 07:42:47.834992 25434 layer_factory.hpp:77] Creating layer relu2
I0504 07:42:47.835008 25434 net.cpp:94] Creating Layer relu2
I0504 07:42:47.835017 25434 net.cpp:435] relu2 <- conv2
I0504 07:42:47.835031 25434 net.cpp:396] relu2 -> conv2 (in-place)
I0504 07:42:47.835048 25434 net.cpp:144] Setting up relu2
I0504 07:42:47.835059 25434 net.cpp:151] Top shape: 20 64 20 20 (512000)
I0504 07:42:47.835067 25434 net.cpp:159] Memory required for data: 8224080
I0504 07:42:47.835074 25434 layer_factory.hpp:77] Creating layer pool2
I0504 07:42:47.835088 25434 net.cpp:94] Creating Layer pool2
I0504 07:42:47.835105 25434 net.cpp:435] pool2 <- conv2
I0504 07:42:47.835117 25434 net.cpp:409] pool2 -> pool2
I0504 07:42:47.835245 25434 net.cpp:144] Setting up pool2
I0504 07:42:47.835263 25434 net.cpp:151] Top shape: 20 64 10 10 (128000)
I0504 07:42:47.835270 25434 net.cpp:159] Memory required for data: 8736080
I0504 07:42:47.835278 25434 layer_factory.hpp:77] Creating layer conv3
I0504 07:42:47.835296 25434 net.cpp:94] Creating Layer conv3
I0504 07:42:47.835305 25434 net.cpp:435] conv3 <- pool2
I0504 07:42:47.835319 25434 net.cpp:409] conv3 -> conv3
I0504 07:42:47.856822 25434 net.cpp:144] Setting up conv3
I0504 07:42:47.856855 25434 net.cpp:151] Top shape: 20 128 10 10 (256000)
I0504 07:42:47.856864 25434 net.cpp:159] Memory required for data: 9760080
I0504 07:42:47.856884 25434 layer_factory.hpp:77] Creating layer relu3
I0504 07:42:47.856897 25434 net.cpp:94] Creating Layer relu3
I0504 07:42:47.856906 25434 net.cpp:435] relu3 <- conv3
I0504 07:42:47.856917 25434 net.cpp:396] relu3 -> conv3 (in-place)
I0504 07:42:47.856935 25434 net.cpp:144] Setting up relu3
I0504 07:42:47.856945 25434 net.cpp:151] Top shape: 20 128 10 10 (256000)
I0504 07:42:47.856952 25434 net.cpp:159] Memory required for data: 10784080
I0504 07:42:47.856959 25434 layer_factory.hpp:77] Creating layer conv4
I0504 07:42:47.856978 25434 net.cpp:94] Creating Layer conv4
I0504 07:42:47.856986 25434 net.cpp:435] conv4 <- conv3
I0504 07:42:47.856997 25434 net.cpp:409] conv4 -> conv4
I0504 07:42:47.895982 25434 net.cpp:144] Setting up conv4
I0504 07:42:47.896028 25434 net.cpp:151] Top shape: 20 128 10 10 (256000)
I0504 07:42:47.896039 25434 net.cpp:159] Memory required for data: 11808080
I0504 07:42:47.896057 25434 layer_factory.hpp:77] Creating layer relu4
I0504 07:42:47.896073 25434 net.cpp:94] Creating Layer relu4
I0504 07:42:47.896085 25434 net.cpp:435] relu4 <- conv4
I0504 07:42:47.896097 25434 net.cpp:396] relu4 -> conv4 (in-place)
I0504 07:42:47.896117 25434 net.cpp:144] Setting up relu4
I0504 07:42:47.896129 25434 net.cpp:151] Top shape: 20 128 10 10 (256000)
I0504 07:42:47.896137 25434 net.cpp:159] Memory required for data: 12832080
I0504 07:42:47.896145 25434 layer_factory.hpp:77] Creating layer conv5
I0504 07:42:47.896167 25434 net.cpp:94] Creating Layer conv5
I0504 07:42:47.896176 25434 net.cpp:435] conv5 <- conv4
I0504 07:42:47.896189 25434 net.cpp:409] conv5 -> conv5
I0504 07:42:47.928642 25434 net.cpp:144] Setting up conv5
I0504 07:42:47.928671 25434 net.cpp:151] Top shape: 20 128 10 10 (256000)
I0504 07:42:47.928678 25434 net.cpp:159] Memory required for data: 13856080
I0504 07:42:47.928694 25434 layer_factory.hpp:77] Creating layer relu5
I0504 07:42:47.928706 25434 net.cpp:94] Creating Layer relu5
I0504 07:42:47.928714 25434 net.cpp:435] relu5 <- conv5
I0504 07:42:47.928721 25434 net.cpp:396] relu5 -> conv5 (in-place)
I0504 07:42:47.928735 25434 net.cpp:144] Setting up relu5
I0504 07:42:47.928742 25434 net.cpp:151] Top shape: 20 128 10 10 (256000)
I0504 07:42:47.928748 25434 net.cpp:159] Memory required for data: 14880080
I0504 07:42:47.928753 25434 layer_factory.hpp:77] Creating layer pool5
I0504 07:42:47.928762 25434 net.cpp:94] Creating Layer pool5
I0504 07:42:47.928767 25434 net.cpp:435] pool5 <- conv5
I0504 07:42:47.928776 25434 net.cpp:409] pool5 -> pool5
I0504 07:42:47.928844 25434 net.cpp:144] Setting up pool5
I0504 07:42:47.928856 25434 net.cpp:151] Top shape: 20 128 5 5 (64000)
I0504 07:42:47.928863 25434 net.cpp:159] Memory required for data: 15136080
I0504 07:42:47.928867 25434 layer_factory.hpp:77] Creating layer ip1
I0504 07:42:47.928882 25434 net.cpp:94] Creating Layer ip1
I0504 07:42:47.928889 25434 net.cpp:435] ip1 <- pool5
I0504 07:42:47.928897 25434 net.cpp:409] ip1 -> ip1
I0504 07:42:48.056530 25434 net.cpp:144] Setting up ip1
I0504 07:42:48.056571 25434 net.cpp:151] Top shape: 20 1024 (20480)
I0504 07:42:48.056576 25434 net.cpp:159] Memory required for data: 15218000
I0504 07:42:48.056587 25434 layer_factory.hpp:77] Creating layer ip2
I0504 07:42:48.056598 25434 net.cpp:94] Creating Layer ip2
I0504 07:42:48.056612 25434 net.cpp:435] ip2 <- ip1
I0504 07:42:48.056620 25434 net.cpp:409] ip2 -> ip2
I0504 07:42:48.074040 25434 net.cpp:144] Setting up ip2
I0504 07:42:48.074061 25434 net.cpp:151] Top shape: 20 512 (10240)
I0504 07:42:48.074065 25434 net.cpp:159] Memory required for data: 15258960
I0504 07:42:48.074074 25434 layer_factory.hpp:77] Creating layer ip3
I0504 07:42:48.074084 25434 net.cpp:94] Creating Layer ip3
I0504 07:42:48.074089 25434 net.cpp:435] ip3 <- ip2
I0504 07:42:48.074095 25434 net.cpp:409] ip3 -> ip3
I0504 07:42:48.074231 25434 net.cpp:144] Setting up ip3
I0504 07:42:48.074239 25434 net.cpp:151] Top shape: 20 1 (20)
I0504 07:42:48.074242 25434 net.cpp:159] Memory required for data: 15259040
I0504 07:42:48.074249 25434 layer_factory.hpp:77] Creating layer loss
I0504 07:42:48.074265 25434 net.cpp:94] Creating Layer loss
I0504 07:42:48.074270 25434 net.cpp:435] loss <- ip3
I0504 07:42:48.074275 25434 net.cpp:435] loss <- label
I0504 07:42:48.074280 25434 net.cpp:409] loss -> loss
I0504 07:42:48.074338 25434 net.cpp:144] Setting up loss
…
I0504 07:42:48.293437 25434 net.cpp:323] The NetState phase (0) differed from the phase (1) specified by a rule in layer intercept
I0504 07:42:48.293454 25434 net.cpp:323] The NetState phase (0) differed from the phase (1) specified by a rule in layer accuracy
I0504 07:42:48.293545 25434 net.cpp:52] Initializing net from parameters: 
state {
  phase: TRAIN
}
layer {
  name: "parameters"
  type: "HDF5Data"
  top: "data"
  top: "label"
  include {
    phase: TRAIN
  }
  hdf5_data_param {
    source: "/home/purduethu/scratch/radon/d/deng106/CNNStatisticalModel/distributions/input/20_distributions_400_sample_size_train-distributions-path.txt"
    batch_size: 20
  }
}
layer {
  name: "conv1"
  type: "Convolution"
  bottom: "data"
  top: "conv1"
  param {
    lr_mult: 1
  }
  param {
    lr_mult: 2
  }
  convolution_param {
    num_output: 64
    pad: 2
    kernel_size: 5
    stride: 1
    weight_filler {
      type: "gaussian"
      std: 0.0001
    }
    bias_filler {
      type: "constant"
    }
  }
}
layer {
  name: "relu1"
  type: "ReLU"
  bottom: "conv1"
  top: "conv1"
}
layer {
  name: "conv2"
  type: "Convolution"
  bottom: "conv1"
  top: "conv2"
  param {
    lr_mult: 1
  }
  param {
    lr_mult: 2
  }
  convolution_param {
    num_output: 64
    pad: 2
    kernel_size: 5
    stride: 1
    weight_filler {
      type: "gaussian"
      std: 0.01
    }
    bias_filler {
      type: "constant"
    }
  }
}
layer {
  name: "relu2"
  type: "ReLU"
  bottom: "conv2"
  top: "conv2"
}
layer {
  name: "pool2"
  type: "Pooling"
  bottom: "conv2"
  top: "pool2"
  pooling_param {
    pool: MAX
    kernel_size: 3
    stride: 2
  }
}
layer {
  name: "conv3"
  type: "Convolution"
  bottom: "pool2"
  top: "conv3"
  param {
    lr_mult: 1
  }
  param {
    lr_mult: 2
  }
  convolution_param {
    num_output: 128
    pad: 2
    kernel_size: 5
    stride: 1
    weight_filler {
      type: "gaussian"
      std: 0.01
    }
    bias_filler {
      type: "constant"
    }
  }
}
layer {
  name: "relu3"
  type: "ReLU"
  bottom: "conv3"
  top: "conv3"
}
layer {
  name: "conv4"
  type: "Convolution"
  bottom: "conv3"
  top: "conv4"
  param {
    lr_mult: 1
  }
  param {
    lr_mult: 2
  }
  convolution_param {
    num_output: 128
    pad: 2
    kernel_size: 5
    stride: 1
    weight_filler {
      type: "gaussian"
      std: 0.01
    }
    bias_filler {
      type: "constant"
    }
  }
}
layer {
  name: "relu4"
  type: "ReLU"
  bottom: "conv4"
  top: "conv4"
}
layer {
  name: "conv5"
  type: "Convolution"
  bottom: "conv4"
  top: "conv5"
  param {
    lr_mult: 1
  }
  param {
    lr_mult: 2
  }
  convolution_param {
    num_output: 128
    pad: 2
    kernel_size: 5
    stride: 1
    weight_filler {
      type: "gaussian"
      std: 0.01
    }
    bias_filler {
      type: "constant"
    }
  }
}
layer {
  name: "relu5"
  type: "ReLU"
  bottom: "conv5"
  top: "conv5"
}
layer {
  name: "pool5"
  type: "Pooling"
  bottom: "conv5"
  top: "pool5"
  pooling_param {
    pool: AVE
    kernel_size: 3
    stride: 2
  }
}
layer {
  name: "ip1"
  type: "InnerProduct"
  bottom: "pool5"
  top: "ip1"
  param {
    lr_mult: 1
  }
  param {
    lr_mult: 2
  }
  inner_product_param {
    num_output: 1024
    weight_filler {
      type: "gaussian"
      std: 0.1
    }
    bias_filler {
      type: "constant"
    }
  }
}
layer {
  name: "ip2"
  type: "InnerProduct"
  bottom: "ip1"
  top: "ip2"
  param {
    lr_mult: 1
  }
  param {
    lr_mult: 2
  }
  inner_product_param {
    num_output: 512
    weight_filler {
      type: "gaussian"
      std: 0.1
    }
    bias_filler {
      type: "constant"
    }
  }
}
layer {
  name: "ip3"
  type: "InnerProduct"
  bottom: "ip2"
  top: "ip3"
  param {
    lr_mult: 1
  }
  param {
    lr_mult: 2
  }
  inner_product_param {
    num_output: 50
    weight_filler {
      type: "gaussian"
      std: 0.1
    }
    bias_filler {
      type: "constant"
    }
  }
}
layer {
  name: "loss"
  type: "SoftmaxWithLoss"
  bottom: "ip3"
  bottom: "label"
  top: "loss"
}
I0504 07:42:48.293603 25434 layer_factory.hpp:77] Creating layer parameters
I0504 07:42:48.293612 25434 net.cpp:94] Creating Layer parameters
I0504 07:42:48.293617 25434 net.cpp:409] parameters -> data
I0504 07:42:48.293624 25434 net.cpp:409] parameters -> label
I0504 07:42:48.293630 25434 hdf5_data_layer.cpp:79] Loading list of HDF5 filenames from: /home/purduethu/scratch/radon/d/deng106/CNNStatisticalModel/distributions/input/20_distributions_400_sample_size_train-distributions-path.txt
I0504 07:42:48.293648 25434 hdf5_data_layer.cpp:93] Number of HDF5 files: 1
I0504 07:42:48.561975 25434 hdf5.cpp:35] Datatype class: H5T_INTEGER
I0504 07:42:48.563103 25434 net.cpp:144] Setting up parameters
I0504 07:42:48.563120 25434 net.cpp:151] Top shape: 20 1 20 20 (8000)
I0504 07:42:48.563125 25434 net.cpp:151] Top shape: 20 (20)
I0504 07:42:48.563128 25434 net.cpp:159] Memory required for data: 32080
I0504 07:42:48.563134 25434 layer_factory.hpp:77] Creating layer conv1
I0504 07:42:48.563151 25434 net.cpp:94] Creating Layer conv1
I0504 07:42:48.563155 25434 net.cpp:435] conv1 <- data
I0504 07:42:48.563161 25434 net.cpp:409] conv1 -> conv1
I0504 07:42:48.565649 25434 net.cpp:144] Setting up conv1
I0504 07:42:48.565663 25434 net.cpp:151] Top shape: 20 64 20 20 (512000)
I0504 07:42:48.565667 25434 net.cpp:159] Memory required for data: 2080080
I0504 07:42:48.565677 25434 layer_factory.hpp:77] Creating layer relu1
I0504 07:42:48.565685 25434 net.cpp:94] Creating Layer relu1
I0504 07:42:48.565688 25434 net.cpp:435] relu1 <- conv1
I0504 07:42:48.565692 25434 net.cpp:396] relu1 -> conv1 (in-place)
I0504 07:42:48.565701 25434 net.cpp:144] Setting up relu1
I0504 07:42:48.565704 25434 net.cpp:151] Top shape: 20 64 20 20 (512000)
I0504 07:42:48.565707 25434 net.cpp:159] Memory required for data: 4128080
I0504 07:42:48.565711 25434 layer_factory.hpp:77] Creating layer conv2
I0504 07:42:48.565717 25434 net.cpp:94] Creating Layer conv2
I0504 07:42:48.565721 25434 net.cpp:435] conv2 <- conv1
I0504 07:42:48.565726 25434 net.cpp:409] conv2 -> conv2
I0504 07:42:48.576740 25434 net.cpp:144] Setting up conv2
I0504 07:42:48.576756 25434 net.cpp:151] Top shape: 20 64 20 20 (512000)
I0504 07:42:48.576761 25434 net.cpp:159] Memory required for data: 6176080
I0504 07:42:48.576769 25434 layer_factory.hpp:77] Creating layer relu2
I0504 07:42:48.576776 25434 net.cpp:94] Creating Layer relu2
I0504 07:42:48.576781 25434 net.cpp:435] relu2 <- conv2
I0504 07:42:48.576784 25434 net.cpp:396] relu2 -> conv2 (in-place)
I0504 07:42:48.576792 25434 net.cpp:144] Setting up relu2
I0504 07:42:48.576797 25434 net.cpp:151] Top shape: 20 64 20 20 (512000)
I0504 07:42:48.576799 25434 net.cpp:159] Memory required for data: 8224080
I0504 07:42:48.576802 25434 layer_factory.hpp:77] Creating layer pool2
I0504 07:42:48.576808 25434 net.cpp:94] Creating Layer pool2
I0504 07:42:48.576812 25434 net.cpp:435] pool2 <- conv2
I0504 07:42:48.576815 25434 net.cpp:409] pool2 -> pool2
I0504 07:42:48.576871 25434 net.cpp:144] Setting up pool2
I0504 07:42:48.576879 25434 net.cpp:151] Top shape: 20 64 10 10 (128000)
I0504 07:42:48.576881 25434 net.cpp:159] Memory required for data: 8736080
I0504 07:42:48.576884 25434 layer_factory.hpp:77] Creating layer conv3
I0504 07:42:48.576892 25434 net.cpp:94] Creating Layer conv3
I0504 07:42:48.576896 25434 net.cpp:435] conv3 <- pool2
I0504 07:42:48.576907 25434 net.cpp:409] conv3 -> conv3
I0504 07:42:48.588307 25434 net.cpp:144] Setting up conv3
I0504 07:42:48.588326 25434 net.cpp:151] Top shape: 20 128 10 10 (256000)
I0504 07:42:48.588330 25434 net.cpp:159] Memory required for data: 9760080
I0504 07:42:48.588340 25434 layer_factory.hpp:77] Creating layer relu3
I0504 07:42:48.588346 25434 net.cpp:94] Creating Layer relu3
I0504 07:42:48.588349 25434 net.cpp:435] relu3 <- conv3
I0504 07:42:48.588354 25434 net.cpp:396] relu3 -> conv3 (in-place)
I0504 07:42:48.588361 25434 net.cpp:144] Setting up relu3
I0504 07:42:48.588366 25434 net.cpp:151] Top shape: 20 128 10 10 (256000)
I0504 07:42:48.588368 25434 net.cpp:159] Memory required for data: 10784080
I0504 07:42:48.588371 25434 layer_factory.hpp:77] Creating layer conv4
I0504 07:42:48.588380 25434 net.cpp:94] Creating Layer conv4
I0504 07:42:48.588384 25434 net.cpp:435] conv4 <- conv3
I0504 07:42:48.588388 25434 net.cpp:409] conv4 -> conv4
I0504 07:42:48.610342 25434 net.cpp:144] Setting up conv4
I0504 07:42:48.610363 25434 net.cpp:151] Top shape: 20 128 10 10 (256000)
I0504 07:42:48.610366 25434 net.cpp:159] Memory required for data: 11808080
I0504 07:42:48.610373 25434 layer_factory.hpp:77] Creating layer relu4
I0504 07:42:48.610380 25434 net.cpp:94] Creating Layer relu4
I0504 07:42:48.610384 25434 net.cpp:435] relu4 <- conv4
I0504 07:42:48.610389 25434 net.cpp:396] relu4 -> conv4 (in-place)
I0504 07:42:48.610396 25434 net.cpp:144] Setting up relu4
I0504 07:42:48.610400 25434 net.cpp:151] Top shape: 20 128 10 10 (256000)
I0504 07:42:48.610404 25434 net.cpp:159] Memory required for data: 12832080
I0504 07:42:48.610406 25434 layer_factory.hpp:77] Creating layer conv5
I0504 07:42:48.610414 25434 net.cpp:94] Creating Layer conv5
I0504 07:42:48.610419 25434 net.cpp:435] conv5 <- conv4
I0504 07:42:48.610424 25434 net.cpp:409] conv5 -> conv5
I0504 07:42:48.629591 25434 net.cpp:144] Setting up conv5
I0504 07:42:48.629611 25434 net.cpp:151] Top shape: 20 128 10 10 (256000)
I0504 07:42:48.629616 25434 net.cpp:159] Memory required for data: 13856080
I0504 07:42:48.629626 25434 layer_factory.hpp:77] Creating layer relu5
I0504 07:42:48.629633 25434 net.cpp:94] Creating Layer relu5
I0504 07:42:48.629637 25434 net.cpp:435] relu5 <- conv5
I0504 07:42:48.629642 25434 net.cpp:396] relu5 -> conv5 (in-place)
I0504 07:42:48.629649 25434 net.cpp:144] Setting up relu5
I0504 07:42:48.629653 25434 net.cpp:151] Top shape: 20 128 10 10 (256000)
I0504 07:42:48.629657 25434 net.cpp:159] Memory required for data: 14880080
I0504 07:42:48.629659 25434 layer_factory.hpp:77] Creating layer pool5
I0504 07:42:48.629664 25434 net.cpp:94] Creating Layer pool5
I0504 07:42:48.629667 25434 net.cpp:435] pool5 <- conv5
I0504 07:42:48.629673 25434 net.cpp:409] pool5 -> pool5
I0504 07:42:48.629714 25434 net.cpp:144] Setting up pool5
I0504 07:42:48.629720 25434 net.cpp:151] Top shape: 20 128 5 5 (64000)
I0504 07:42:48.629724 25434 net.cpp:159] Memory required for data: 15136080
I0504 07:42:48.629727 25434 layer_factory.hpp:77] Creating layer ip1
I0504 07:42:48.629734 25434 net.cpp:94] Creating Layer ip1
I0504 07:42:48.629736 25434 net.cpp:435] ip1 <- pool5
I0504 07:42:48.629741 25434 net.cpp:409] ip1 -> ip1
I0504 07:42:48.716930 25434 net.cpp:144] Setting up ip1
I0504 07:42:48.716965 25434 net.cpp:151] Top shape: 20 1024 (20480)
I0504 07:42:48.716969 25434 net.cpp:159] Memory required for data: 15218000
I0504 07:42:48.716979 25434 layer_factory.hpp:77] Creating layer ip2
I0504 07:42:48.716989 25434 net.cpp:94] Creating Layer ip2
I0504 07:42:48.716995 25434 net.cpp:435] ip2 <- ip1
I0504 07:42:48.717000 25434 net.cpp:409] ip2 -> ip2
I0504 07:42:48.731266 25434 net.cpp:144] Setting up ip2
I0504 07:42:48.731289 25434 net.cpp:151] Top shape: 20 512 (10240)
I0504 07:42:48.731293 25434 net.cpp:159] Memory required for data: 15258960
I0504 07:42:48.731302 25434 layer_factory.hpp:77] Creating layer ip3
I0504 07:42:48.731309 25434 net.cpp:94] Creating Layer ip3
I0504 07:42:48.731313 25434 net.cpp:435] ip3 <- ip2
I0504 07:42:48.731319 25434 net.cpp:409] ip3 -> ip3
I0504 07:42:48.732106 25434 net.cpp:144] Setting up ip3
I0504 07:42:48.732115 25434 net.cpp:151] Top shape: 20 50 (1000)
I0504 07:42:48.732118 25434 net.cpp:159] Memory required for data: 15262960
I0504 07:42:48.732125 25434 layer_factory.hpp:77] Creating layer loss
I0504 07:42:48.732132 25434 net.cpp:94] Creating Layer loss
I0504 07:42:48.732136 25434 net.cpp:435] loss <- ip3
I0504 07:42:48.732141 25434 net.cpp:435] loss <- label
I0504 07:42:48.732144 25434 net.cpp:409] loss -> loss
I0504 07:42:48.732152 25434 layer_factory.hpp:77] Creating layer loss
…
I0504 07:42:48.732694 25434 solver.cpp:181] Creating test net (#0) specified by net file: ./protocol/dis_20_400_dimension.protocol_distribution
I0504 07:42:48.732723 25434 net.cpp:323] The NetState phase (1) differed from the phase (0) specified by a rule in layer parameters
I0504 07:42:48.732821 25434 net.cpp:52] Initializing net from parameters: 
state {
  phase: TEST
}
layer {
  name: "intercept"
  type: "HDF5Data"
  top: "data"
  top: "label"
  include {
    phase: TEST
  }
  hdf5_data_param {
    source: "/home/purduethu/scratch/radon/d/deng106/CNNStatisticalModel/distributions/input/20_distributions_400_sample_size_test-distributions-path.txt"
    batch_size: 20
  }
}
layer {
  name: "conv1"
  type: "Convolution"
  bottom: "data"
  top: "conv1"
  param {
    lr_mult: 1
  }
  param {
    lr_mult: 2
  }
  convolution_param {
    num_output: 64
    pad: 2
    kernel_size: 5
    stride: 1
    weight_filler {
      type: "gaussian"
      std: 0.0001
    }
    bias_filler {
      type: "constant"
    }
  }
}
layer {
  name: "relu1"
  type: "ReLU"
  bottom: "conv1"
  top: "conv1"
}
layer {
  name: "conv2"
  type: "Convolution"
  bottom: "conv1"
  top: "conv2"
  param {
    lr_mult: 1
  }
  param {
    lr_mult: 2
  }
  convolution_param {
    num_output: 64
    pad: 2
    kernel_size: 5
    stride: 1
    weight_filler {
      type: "gaussian"
      std: 0.01
    }
    bias_filler {
      type: "constant"
    }
  }
}
layer {
  name: "relu2"
  type: "ReLU"
  bottom: "conv2"
  top: "conv2"
}
layer {
  name: "pool2"
  type: "Pooling"
  bottom: "conv2"
  top: "pool2"
  pooling_param {
    pool: MAX
    kernel_size: 3
    stride: 2
  }
}
layer {
  name: "conv3"
  type: "Convolution"
  bottom: "pool2"
  top: "conv3"
  param {
    lr_mult: 1
  }
  param {
    lr_mult: 2
  }
  convolution_param {
    num_output: 128
    pad: 2
    kernel_size: 5
    stride: 1
    weight_filler {
      type: "gaussian"
      std: 0.01
    }
    bias_filler {
      type: "constant"
    }
  }
}
layer {
  name: "relu3"
  type: "ReLU"
  bottom: "conv3"
  top: "conv3"
}
layer {
  name: "conv4"
  type: "Convolution"
  bottom: "conv3"
  top: "conv4"
  param {
    lr_mult: 1
  }
  param {
    lr_mult: 2
  }
  convolution_param {
    num_output: 128
    pad: 2
    kernel_size: 5
    stride: 1
    weight_filler {
      type: "gaussian"
      std: 0.01
    }
    bias_filler {
      type: "constant"
    }
  }
}
layer {
  name: "relu4"
  type: "ReLU"
  bottom: "conv4"
  top: "conv4"
}
layer {
  name: "conv5"
  type: "Convolution"
  bottom: "conv4"
  top: "conv5"
  param {
    lr_mult: 1
  }
  param {
    lr_mult: 2
  }
  convolution_param {
    num_output: 128
    pad: 2
    kernel_size: 5
    stride: 1
    weight_filler {
      type: "gaussian"
      std: 0.01
    }
    bias_filler {
      type: "constant"
    }
  }
}
layer {
  name: "relu5"
  type: "ReLU"
  bottom: "conv5"
  top: "conv5"
}
layer {
  name: "pool5"
  type: "Pooling"
  bottom: "conv5"
  top: "pool5"
  pooling_param {
    pool: AVE
    kernel_size: 3
    stride: 2
  }
}
layer {
  name: "ip1"
  type: "InnerProduct"
  bottom: "pool5"
  top: "ip1"
  param {
    lr_mult: 1
  }
  param {
    lr_mult: 2
  }
  inner_product_param {
    num_output: 1024
    weight_filler {
      type: "gaussian"
      std: 0.1
    }
    bias_filler {
      type: "constant"
    }
  }
}
layer {
  name: "ip2"
  type: "InnerProduct"
  bottom: "ip1"
  top: "ip2"
  param {
    lr_mult: 1
  }
  param {
    lr_mult: 2
  }
  inner_product_param {
    num_output: 512
    weight_filler {
      type: "gaussian"
      std: 0.1
    }
    bias_filler {
      type: "constant"
    }
  }
}
layer {
  name: "ip3"
  type: "InnerProduct"
  bottom: "ip2"
  top: "ip3"
  param {
    lr_mult: 1
  }
  param {
    lr_mult: 2
  }
  inner_product_param {
    num_output: 50
    weight_filler {
      type: "gaussian"
      std: 0.1
    }
    bias_filler {
      type: "constant"
    }
  }
}
layer {
  name: "accuracy"
  type: "Accuracy"
  bottom: "ip3"
  bottom: "label"
  top: "accuracy"
  include {
    phase: TEST
  }
}
layer {
  name: "loss"
  type: "SoftmaxWithLoss"
  bottom: "ip3"
  bottom: "label"
  top: "loss"
}
I0504 07:42:48.732897 25434 layer_factory.hpp:77] Creating layer intercept
I0504 07:42:48.732906 25434 net.cpp:94] Creating Layer intercept
I0504 07:42:48.732910 25434 net.cpp:409] intercept -> data
I0504 07:42:48.732918 25434 net.cpp:409] intercept -> label
I0504 07:42:48.732923 25434 hdf5_data_layer.cpp:79] Loading list of HDF5 filenames from: /home/purduethu/scratch/radon/d/deng106/CNNStatisticalModel/distributions/input/20_distributions_400_sample_size_test-distributions-path.txt
I0504 07:42:48.732944 25434 hdf5_data_layer.cpp:93] Number of HDF5 files: 1
I0504 07:42:48.801375 25434 net.cpp:144] Setting up intercept
I0504 07:42:48.801419 25434 net.cpp:151] Top shape: 20 1 20 20 (8000)
I0504 07:42:48.801427 25434 net.cpp:151] Top shape: 20 (20)
I0504 07:42:48.801434 25434 net.cpp:159] Memory required for data: 32080
I0504 07:42:48.801441 25434 layer_factory.hpp:77] Creating layer label_intercept_1_split
I0504 07:42:48.801461 25434 net.cpp:94] Creating Layer label_intercept_1_split
I0504 07:42:48.801466 25434 net.cpp:435] label_intercept_1_split <- label
I0504 07:42:48.801472 25434 net.cpp:409] label_intercept_1_split -> label_intercept_1_split_0
I0504 07:42:48.801481 25434 net.cpp:409] label_intercept_1_split -> label_intercept_1_split_1
I0504 07:42:48.801525 25434 net.cpp:144] Setting up label_intercept_1_split
I0504 07:42:48.801532 25434 net.cpp:151] Top shape: 20 (20)
I0504 07:42:48.801535 25434 net.cpp:151] Top shape: 20 (20)
I0504 07:42:48.801538 25434 net.cpp:159] Memory required for data: 32240
I0504 07:42:48.801542 25434 layer_factory.hpp:77] Creating layer conv1
I0504 07:42:48.801553 25434 net.cpp:94] Creating Layer conv1
I0504 07:42:48.801558 25434 net.cpp:435] conv1 <- data
I0504 07:42:48.801561 25434 net.cpp:409] conv1 -> conv1
I0504 07:42:48.802414 25434 net.cpp:144] Setting up conv1
I0504 07:42:48.802428 25434 net.cpp:151] Top shape: 20 64 20 20 (512000)
I0504 07:42:48.802433 25434 net.cpp:159] Memory required for data: 2080240
I0504 07:42:48.802441 25434 layer_factory.hpp:77] Creating layer relu1
I0504 07:42:48.802448 25434 net.cpp:94] Creating Layer relu1
I0504 07:42:48.802453 25434 net.cpp:435] relu1 <- conv1
I0504 07:42:48.802456 25434 net.cpp:396] relu1 -> conv1 (in-place)
I0504 07:42:48.802464 25434 net.cpp:144] Setting up relu1
I0504 07:42:48.802469 25434 net.cpp:151] Top shape: 20 64 20 20 (512000)
I0504 07:42:48.802471 25434 net.cpp:159] Memory required for data: 4128240
I0504 07:42:48.802474 25434 layer_factory.hpp:77] Creating layer conv2
I0504 07:42:48.802481 25434 net.cpp:94] Creating Layer conv2
I0504 07:42:48.802485 25434 net.cpp:435] conv2 <- conv1
I0504 07:42:48.802489 25434 net.cpp:409] conv2 -> conv2
I0504 07:42:48.807900 25434 net.cpp:144] Setting up conv2
I0504 07:42:48.807914 25434 net.cpp:151] Top shape: 20 64 20 20 (512000)
I0504 07:42:48.807919 25434 net.cpp:159] Memory required for data: 6176240
I0504 07:42:48.807925 25434 layer_factory.hpp:77] Creating layer relu2
I0504 07:42:48.807931 25434 net.cpp:94] Creating Layer relu2
I0504 07:42:48.807935 25434 net.cpp:435] relu2 <- conv2
I0504 07:42:48.807940 25434 net.cpp:396] relu2 -> conv2 (in-place)
I0504 07:42:48.807946 25434 net.cpp:144] Setting up relu2
I0504 07:42:48.807950 25434 net.cpp:151] Top shape: 20 64 20 20 (512000)
I0504 07:42:48.807953 25434 net.cpp:159] Memory required for data: 8224240
I0504 07:42:48.807956 25434 layer_factory.hpp:77] Creating layer pool2
I0504 07:42:48.807962 25434 net.cpp:94] Creating Layer pool2
I0504 07:42:48.807965 25434 net.cpp:435] pool2 <- conv2
I0504 07:42:48.807970 25434 net.cpp:409] pool2 -> pool2
I0504 07:42:48.808022 25434 net.cpp:144] Setting up pool2
I0504 07:42:48.808028 25434 net.cpp:151] Top shape: 20 64 10 10 (128000)
I0504 07:42:48.808032 25434 net.cpp:159] Memory required for data: 8736240
I0504 07:42:48.808035 25434 layer_factory.hpp:77] Creating layer conv3
I0504 07:42:48.808043 25434 net.cpp:94] Creating Layer conv3
I0504 07:42:48.808046 25434 net.cpp:435] conv3 <- pool2
I0504 07:42:48.808051 25434 net.cpp:409] conv3 -> conv3
I0504 07:42:48.815678 25434 net.cpp:144] Setting up conv3
I0504 07:42:48.815692 25434 net.cpp:151] Top shape: 20 128 10 10 (256000)
I0504 07:42:48.815696 25434 net.cpp:159] Memory required for data: 9760240
I0504 07:42:48.815704 25434 layer_factory.hpp:77] Creating layer relu3
I0504 07:42:48.815711 25434 net.cpp:94] Creating Layer relu3
I0504 07:42:48.815714 25434 net.cpp:435] relu3 <- conv3
I0504 07:42:48.815718 25434 net.cpp:396] relu3 -> conv3 (in-place)
I0504 07:42:48.815726 25434 net.cpp:144] Setting up relu3
I0504 07:42:48.815729 25434 net.cpp:151] Top shape: 20 128 10 10 (256000)
I0504 07:42:48.815732 25434 net.cpp:159] Memory required for data: 10784240
I0504 07:42:48.815735 25434 layer_factory.hpp:77] Creating layer conv4
I0504 07:42:48.815743 25434 net.cpp:94] Creating Layer conv4
I0504 07:42:48.815747 25434 net.cpp:435] conv4 <- conv3
I0504 07:42:48.815752 25434 net.cpp:409] conv4 -> conv4
I0504 07:42:48.830548 25434 net.cpp:144] Setting up conv4
I0504 07:42:48.830566 25434 net.cpp:151] Top shape: 20 128 10 10 (256000)
I0504 07:42:48.830570 25434 net.cpp:159] Memory required for data: 11808240
I0504 07:42:48.830577 25434 layer_factory.hpp:77] Creating layer relu4
I0504 07:42:48.830584 25434 net.cpp:94] Creating Layer relu4
I0504 07:42:48.830587 25434 net.cpp:435] relu4 <- conv4
I0504 07:42:48.830592 25434 net.cpp:396] relu4 -> conv4 (in-place)
I0504 07:42:48.830600 25434 net.cpp:144] Setting up relu4
I0504 07:42:48.830605 25434 net.cpp:151] Top shape: 20 128 10 10 (256000)
I0504 07:42:48.830607 25434 net.cpp:159] Memory required for data: 12832240
I0504 07:42:48.830610 25434 layer_factory.hpp:77] Creating layer conv5
I0504 07:42:48.830618 25434 net.cpp:94] Creating Layer conv5
I0504 07:42:48.830622 25434 net.cpp:435] conv5 <- conv4
I0504 07:42:48.830627 25434 net.cpp:409] conv5 -> conv5
I0504 07:42:48.845131 25434 net.cpp:144] Setting up conv5
I0504 07:42:48.845150 25434 net.cpp:151] Top shape: 20 128 10 10 (256000)
I0504 07:42:48.845155 25434 net.cpp:159] Memory required for data: 13856240
I0504 07:42:48.845165 25434 layer_factory.hpp:77] Creating layer relu5
I0504 07:42:48.845171 25434 net.cpp:94] Creating Layer relu5
I0504 07:42:48.845175 25434 net.cpp:435] relu5 <- conv5
I0504 07:42:48.845180 25434 net.cpp:396] relu5 -> conv5 (in-place)
I0504 07:42:48.845186 25434 net.cpp:144] Setting up relu5
I0504 07:42:48.845191 25434 net.cpp:151] Top shape: 20 128 10 10 (256000)
I0504 07:42:48.845194 25434 net.cpp:159] Memory required for data: 14880240
I0504 07:42:48.845197 25434 layer_factory.hpp:77] Creating layer pool5
I0504 07:42:48.845202 25434 net.cpp:94] Creating Layer pool5
I0504 07:42:48.845206 25434 net.cpp:435] pool5 <- conv5
I0504 07:42:48.845209 25434 net.cpp:409] pool5 -> pool5
I0504 07:42:48.845252 25434 net.cpp:144] Setting up pool5
I0504 07:42:48.845257 25434 net.cpp:151] Top shape: 20 128 5 5 (64000)
I0504 07:42:48.845260 25434 net.cpp:159] Memory required for data: 15136240
I0504 07:42:48.845263 25434 layer_factory.hpp:77] Creating layer ip1
I0504 07:42:48.845270 25434 net.cpp:94] Creating Layer ip1
I0504 07:42:48.845274 25434 net.cpp:435] ip1 <- pool5
I0504 07:42:48.845278 25434 net.cpp:409] ip1 -> ip1
I0504 07:42:48.998112 25434 net.cpp:144] Setting up ip1
I0504 07:42:48.998155 25434 net.cpp:151] Top shape: 20 1024 (20480)
I0504 07:42:48.998162 25434 net.cpp:159] Memory required for data: 15218160
I0504 07:42:48.998172 25434 layer_factory.hpp:77] Creating layer ip2
I0504 07:42:48.998188 25434 net.cpp:94] Creating Layer ip2
I0504 07:42:48.998194 25434 net.cpp:435] ip2 <- ip1
I0504 07:42:48.998203 25434 net.cpp:409] ip2 -> ip2
I0504 07:42:49.018090 25434 net.cpp:144] Setting up ip2
I0504 07:42:49.018117 25434 net.cpp:151] Top shape: 20 512 (10240)
I0504 07:42:49.018122 25434 net.cpp:159] Memory required for data: 15259120
I0504 07:42:49.018131 25434 layer_factory.hpp:77] Creating layer ip3
I0504 07:42:49.018146 25434 net.cpp:94] Creating Layer ip3
I0504 07:42:49.018151 25434 net.cpp:435] ip3 <- ip2
I0504 07:42:49.018160 25434 net.cpp:409] ip3 -> ip3
I0504 07:42:49.019244 25434 net.cpp:144] Setting up ip3
I0504 07:42:49.019255 25434 net.cpp:151] Top shape: 20 50 (1000)
I0504 07:42:49.019259 25434 net.cpp:159] Memory required for data: 15263120
I0504 07:42:49.019266 25434 layer_factory.hpp:77] Creating layer ip3_ip3_0_split
I0504 07:42:49.019274 25434 net.cpp:94] Creating Layer ip3_ip3_0_split
I0504 07:42:49.019279 25434 net.cpp:435] ip3_ip3_0_split <- ip3
I0504 07:42:49.019289 25434 net.cpp:409] ip3_ip3_0_split -> ip3_ip3_0_split_0
I0504 07:42:49.019295 25434 net.cpp:409] ip3_ip3_0_split -> ip3_ip3_0_split_1
I0504 07:42:49.019357 25434 net.cpp:144] Setting up ip3_ip3_0_split
I0504 07:42:49.019366 25434 net.cpp:151] Top shape: 20 50 (1000)
I0504 07:42:49.019371 25434 net.cpp:151] Top shape: 20 50 (1000)
I0504 07:42:49.019376 25434 net.cpp:159] Memory required for data: 15271120
I0504 07:42:49.019379 25434 layer_factory.hpp:77] Creating layer accuracy
I0504 07:42:49.019387 25434 net.cpp:94] Creating Layer accuracy
I0504 07:42:49.019392 25434 net.cpp:435] accuracy <- ip3_ip3_0_split_0
I0504 07:42:49.019397 25434 net.cpp:435] accuracy <- label_intercept_1_split_0
I0504 07:42:49.019403 25434 net.cpp:409] accuracy -> accuracy
…
