…
I0507 15:46:36.756621  4356 net.cpp:323] The NetState phase (0) differed from the phase (1) specified by a rule in layer intercept
I0507 15:46:36.756639  4356 net.cpp:323] The NetState phase (0) differed from the phase (1) specified by a rule in layer loss
I0507 15:46:36.756721  4356 net.cpp:52] Initializing net from parameters: 
state {
  phase: TRAIN
}
layer {
  name: "parameters"
  type: "HDF5Data"
  top: "data"
  top: "label"
  include {
    phase: TRAIN
  }
  hdf5_data_param {
    source: "/home/purduethu/scratch/radon/d/deng106/CNNStatisticalModel/distributions/input/50_distributions_100_sample_size_train-parameters-path.txt"
    batch_size: 20
  }
}
layer {
  name: "conv1"
  type: "Convolution"
  bottom: "data"
  top: "conv1"
  param {
    lr_mult: 1
  }
  param {
    lr_mult: 2
  }
  convolution_param {
    num_output: 64
    pad: 2
    kernel_size: 5
    stride: 1
    weight_filler {
      type: "gaussian"
      std: 0.0001
    }
    bias_filler {
      type: "constant"
    }
  }
}
layer {
  name: "relu1"
  type: "ReLU"
  bottom: "conv1"
  top: "conv1"
}
layer {
  name: "conv2"
  type: "Convolution"
  bottom: "conv1"
  top: "conv2"
  param {
    lr_mult: 1
  }
  param {
    lr_mult: 2
  }
  convolution_param {
    num_output: 64
    pad: 2
    kernel_size: 5
    stride: 1
    weight_filler {
      type: "gaussian"
      std: 0.01
    }
    bias_filler {
      type: "constant"
    }
  }
}
layer {
  name: "relu2"
  type: "ReLU"
  bottom: "conv2"
  top: "conv2"
}
layer {
  name: "pool2"
  type: "Pooling"
  bottom: "conv2"
  top: "pool2"
  pooling_param {
    pool: MAX
    kernel_size: 3
    stride: 2
  }
}
layer {
  name: "conv3"
  type: "Convolution"
  bottom: "pool2"
  top: "conv3"
  param {
    lr_mult: 1
  }
  param {
    lr_mult: 2
  }
  convolution_param {
    num_output: 64
    pad: 2
    kernel_size: 5
    stride: 1
    weight_filler {
      type: "gaussian"
      std: 0.01
    }
    bias_filler {
      type: "constant"
    }
  }
}
layer {
  name: "relu3"
  type: "ReLU"
  bottom: "conv3"
  top: "conv3"
}
layer {
  name: "conv4"
  type: "Convolution"
  bottom: "conv3"
  top: "conv4"
  param {
    lr_mult: 1
  }
  param {
    lr_mult: 2
  }
  convolution_param {
    num_output: 64
    pad: 2
    kernel_size: 5
    stride: 1
    weight_filler {
      type: "gaussian"
      std: 0.01
    }
    bias_filler {
      type: "constant"
    }
  }
}
layer {
  name: "relu4"
  type: "ReLU"
  bottom: "conv4"
  top: "conv4"
}
layer {
  name: "conv5"
  type: "Convolution"
  bottom: "conv4"
  top: "conv5"
  param {
    lr_mult: 1
  }
  param {
    lr_mult: 2
  }
  convolution_param {
    num_output: 64
    pad: 2
    kernel_size: 5
    stride: 1
    weight_filler {
      type: "gaussian"
      std: 0.01
    }
    bias_filler {
      type: "constant"
    }
  }
}
layer {
  name: "relu5"
  type: "ReLU"
  bottom: "conv5"
  top: "conv5"
}
layer {
  name: "pool5"
  type: "Pooling"
  bottom: "conv5"
  top: "pool5"
  pooling_param {
    pool: AVE
    kernel_size: 3
    stride: 2
  }
}
layer {
  name: "ip1"
  type: "InnerProduct"
  bottom: "pool5"
  top: "ip1"
  param {
    lr_mult: 1
  }
  param {
    lr_mult: 2
  }
  inner_product_param {
    num_output: 64
    weight_filler {
      type: "gaussian"
      std: 0.1
    }
    bias_filler {
      type: "constant"
    }
  }
}
layer {
  name: "ip2"
  type: "InnerProduct"
  bottom: "ip1"
  top: "ip2"
  param {
    lr_mult: 1
  }
  param {
    lr_mult: 2
  }
  inner_product_param {
    num_output: 64
    weight_filler {
      type: "gaussian"
      std: 0.1
    }
    bias_filler {
      type: "constant"
    }
  }
}
layer {
  name: "ip3"
  type: "InnerProduct"
  bottom: "ip2"
  top: "ip3"
  param {
    lr_mult: 1
  }
  param {
    lr_mult: 2
  }
  inner_product_param {
    num_output: 1
    weight_filler {
      type: "gaussian"
      std: 0.1
    }
    bias_filler {
      type: "constant"
    }
  }
}
layer {
  name: "loss"
  type: "HuberLoss"
  bottom: "ip3"
  bottom: "label"
  top: "loss"
  include {
    phase: TRAIN
  }
}
I0507 15:46:36.756774  4356 layer_factory.hpp:77] Creating layer parameters
I0507 15:46:36.756788  4356 net.cpp:94] Creating Layer parameters
I0507 15:46:36.756793  4356 net.cpp:409] parameters -> data
I0507 15:46:36.756803  4356 net.cpp:409] parameters -> label
I0507 15:46:36.756809  4356 hdf5_data_layer.cpp:79] Loading list of HDF5 filenames from: /home/purduethu/scratch/radon/d/deng106/CNNStatisticalModel/distributions/input/50_distributions_100_sample_size_train-parameters-path.txt
I0507 15:46:36.756825  4356 hdf5_data_layer.cpp:93] Number of HDF5 files: 1
I0507 15:46:36.757341  4356 hdf5.cpp:32] Datatype class: H5T_FLOAT
I0507 15:46:36.926249  4356 net.cpp:144] Setting up parameters
I0507 15:46:36.926280  4356 net.cpp:151] Top shape: 20 1 10 10 (2000)
I0507 15:46:36.926286  4356 net.cpp:151] Top shape: 20 (20)
I0507 15:46:36.926290  4356 net.cpp:159] Memory required for data: 8080
I0507 15:46:36.926295  4356 layer_factory.hpp:77] Creating layer conv1
I0507 15:46:36.926318  4356 net.cpp:94] Creating Layer conv1
I0507 15:46:36.926322  4356 net.cpp:435] conv1 <- data
I0507 15:46:36.926329  4356 net.cpp:409] conv1 -> conv1
I0507 15:46:36.930732  4356 net.cpp:144] Setting up conv1
I0507 15:46:36.930774  4356 net.cpp:151] Top shape: 20 64 10 10 (128000)
I0507 15:46:36.930788  4356 net.cpp:159] Memory required for data: 520080
I0507 15:46:36.930811  4356 layer_factory.hpp:77] Creating layer relu1
I0507 15:46:36.930830  4356 net.cpp:94] Creating Layer relu1
I0507 15:46:36.930840  4356 net.cpp:435] relu1 <- conv1
I0507 15:46:36.930851  4356 net.cpp:396] relu1 -> conv1 (in-place)
I0507 15:46:36.930879  4356 net.cpp:144] Setting up relu1
I0507 15:46:36.930892  4356 net.cpp:151] Top shape: 20 64 10 10 (128000)
I0507 15:46:36.930901  4356 net.cpp:159] Memory required for data: 1032080
I0507 15:46:36.930909  4356 layer_factory.hpp:77] Creating layer conv2
I0507 15:46:36.930929  4356 net.cpp:94] Creating Layer conv2
I0507 15:46:36.930938  4356 net.cpp:435] conv2 <- conv1
I0507 15:46:36.930951  4356 net.cpp:409] conv2 -> conv2
I0507 15:46:36.944238  4356 net.cpp:144] Setting up conv2
I0507 15:46:36.944273  4356 net.cpp:151] Top shape: 20 64 10 10 (128000)
I0507 15:46:36.944285  4356 net.cpp:159] Memory required for data: 1544080
I0507 15:46:36.944308  4356 layer_factory.hpp:77] Creating layer relu2
I0507 15:46:36.944326  4356 net.cpp:94] Creating Layer relu2
I0507 15:46:36.944337  4356 net.cpp:435] relu2 <- conv2
I0507 15:46:36.944350  4356 net.cpp:396] relu2 -> conv2 (in-place)
I0507 15:46:36.944370  4356 net.cpp:144] Setting up relu2
I0507 15:46:36.944383  4356 net.cpp:151] Top shape: 20 64 10 10 (128000)
I0507 15:46:36.944393  4356 net.cpp:159] Memory required for data: 2056080
I0507 15:46:36.944402  4356 layer_factory.hpp:77] Creating layer pool2
I0507 15:46:36.944428  4356 net.cpp:94] Creating Layer pool2
I0507 15:46:36.944439  4356 net.cpp:435] pool2 <- conv2
I0507 15:46:36.944453  4356 net.cpp:409] pool2 -> pool2
I0507 15:46:36.944608  4356 net.cpp:144] Setting up pool2
I0507 15:46:36.944630  4356 net.cpp:151] Top shape: 20 64 5 5 (32000)
I0507 15:46:36.944640  4356 net.cpp:159] Memory required for data: 2184080
I0507 15:46:36.944650  4356 layer_factory.hpp:77] Creating layer conv3
I0507 15:46:36.944671  4356 net.cpp:94] Creating Layer conv3
I0507 15:46:36.944682  4356 net.cpp:435] conv3 <- pool2
I0507 15:46:36.944696  4356 net.cpp:409] conv3 -> conv3
I0507 15:46:36.955195  4356 net.cpp:144] Setting up conv3
I0507 15:46:36.955229  4356 net.cpp:151] Top shape: 20 64 5 5 (32000)
I0507 15:46:36.955240  4356 net.cpp:159] Memory required for data: 2312080
I0507 15:46:36.955260  4356 layer_factory.hpp:77] Creating layer relu3
I0507 15:46:36.955274  4356 net.cpp:94] Creating Layer relu3
I0507 15:46:36.955286  4356 net.cpp:435] relu3 <- conv3
I0507 15:46:36.955297  4356 net.cpp:396] relu3 -> conv3 (in-place)
I0507 15:46:36.955315  4356 net.cpp:144] Setting up relu3
I0507 15:46:36.955327  4356 net.cpp:151] Top shape: 20 64 5 5 (32000)
I0507 15:46:36.955337  4356 net.cpp:159] Memory required for data: 2440080
I0507 15:46:36.955344  4356 layer_factory.hpp:77] Creating layer conv4
I0507 15:46:36.955365  4356 net.cpp:94] Creating Layer conv4
I0507 15:46:36.955374  4356 net.cpp:435] conv4 <- conv3
I0507 15:46:36.955387  4356 net.cpp:409] conv4 -> conv4
I0507 15:46:36.964298  4356 net.cpp:144] Setting up conv4
I0507 15:46:36.964326  4356 net.cpp:151] Top shape: 20 64 5 5 (32000)
I0507 15:46:36.964336  4356 net.cpp:159] Memory required for data: 2568080
I0507 15:46:36.964352  4356 layer_factory.hpp:77] Creating layer relu4
I0507 15:46:36.964365  4356 net.cpp:94] Creating Layer relu4
I0507 15:46:36.964375  4356 net.cpp:435] relu4 <- conv4
I0507 15:46:36.964386  4356 net.cpp:396] relu4 -> conv4 (in-place)
I0507 15:46:36.964403  4356 net.cpp:144] Setting up relu4
I0507 15:46:36.964414  4356 net.cpp:151] Top shape: 20 64 5 5 (32000)
I0507 15:46:36.964421  4356 net.cpp:159] Memory required for data: 2696080
I0507 15:46:36.964429  4356 layer_factory.hpp:77] Creating layer conv5
I0507 15:46:36.964447  4356 net.cpp:94] Creating Layer conv5
I0507 15:46:36.964455  4356 net.cpp:435] conv5 <- conv4
I0507 15:46:36.964468  4356 net.cpp:409] conv5 -> conv5
I0507 15:46:36.973994  4356 net.cpp:144] Setting up conv5
I0507 15:46:36.974022  4356 net.cpp:151] Top shape: 20 64 5 5 (32000)
I0507 15:46:36.974031  4356 net.cpp:159] Memory required for data: 2824080
I0507 15:46:36.974050  4356 layer_factory.hpp:77] Creating layer relu5
I0507 15:46:36.974062  4356 net.cpp:94] Creating Layer relu5
I0507 15:46:36.974071  4356 net.cpp:435] relu5 <- conv5
I0507 15:46:36.974081  4356 net.cpp:396] relu5 -> conv5 (in-place)
I0507 15:46:36.974097  4356 net.cpp:144] Setting up relu5
I0507 15:46:36.974107  4356 net.cpp:151] Top shape: 20 64 5 5 (32000)
I0507 15:46:36.974114  4356 net.cpp:159] Memory required for data: 2952080
I0507 15:46:36.974122  4356 layer_factory.hpp:77] Creating layer pool5
I0507 15:46:36.974133  4356 net.cpp:94] Creating Layer pool5
I0507 15:46:36.974139  4356 net.cpp:435] pool5 <- conv5
I0507 15:46:36.974149  4356 net.cpp:409] pool5 -> pool5
I0507 15:46:36.974225  4356 net.cpp:144] Setting up pool5
I0507 15:46:36.974239  4356 net.cpp:151] Top shape: 20 64 2 2 (5120)
I0507 15:46:36.974247  4356 net.cpp:159] Memory required for data: 2972560
I0507 15:46:36.974256  4356 layer_factory.hpp:77] Creating layer ip1
I0507 15:46:36.974273  4356 net.cpp:94] Creating Layer ip1
I0507 15:46:36.974282  4356 net.cpp:435] ip1 <- pool5
I0507 15:46:36.974292  4356 net.cpp:409] ip1 -> ip1
I0507 15:46:36.976969  4356 net.cpp:144] Setting up ip1
I0507 15:46:36.976997  4356 net.cpp:151] Top shape: 20 64 (1280)
I0507 15:46:36.977006  4356 net.cpp:159] Memory required for data: 2977680
I0507 15:46:36.977020  4356 layer_factory.hpp:77] Creating layer ip2
I0507 15:46:36.977035  4356 net.cpp:94] Creating Layer ip2
I0507 15:46:36.977051  4356 net.cpp:435] ip2 <- ip1
I0507 15:46:36.977066  4356 net.cpp:409] ip2 -> ip2
I0507 15:46:36.977540  4356 net.cpp:144] Setting up ip2
I0507 15:46:36.977555  4356 net.cpp:151] Top shape: 20 64 (1280)
I0507 15:46:36.977562  4356 net.cpp:159] Memory required for data: 2982800
I0507 15:46:36.977576  4356 layer_factory.hpp:77] Creating layer ip3
I0507 15:46:36.977587  4356 net.cpp:94] Creating Layer ip3
I0507 15:46:36.977596  4356 net.cpp:435] ip3 <- ip2
I0507 15:46:36.977607  4356 net.cpp:409] ip3 -> ip3
I0507 15:46:36.977833  4356 net.cpp:144] Setting up ip3
I0507 15:46:36.977846  4356 net.cpp:151] Top shape: 20 1 (20)
I0507 15:46:36.977854  4356 net.cpp:159] Memory required for data: 2982880
I0507 15:46:36.977866  4356 layer_factory.hpp:77] Creating layer loss
I0507 15:46:36.977880  4356 net.cpp:94] Creating Layer loss
I0507 15:46:36.977888  4356 net.cpp:435] loss <- ip3
I0507 15:46:36.977898  4356 net.cpp:435] loss <- label
I0507 15:46:36.977908  4356 net.cpp:409] loss -> loss
I0507 15:46:36.978020  4356 net.cpp:144] Setting up loss
…
I0507 15:46:37.076974  4356 net.cpp:323] The NetState phase (0) differed from the phase (1) specified by a rule in layer intercept
I0507 15:46:37.076997  4356 net.cpp:323] The NetState phase (0) differed from the phase (1) specified by a rule in layer accuracy
I0507 15:46:37.077123  4356 net.cpp:52] Initializing net from parameters: 
state {
  phase: TRAIN
}
layer {
  name: "parameters"
  type: "HDF5Data"
  top: "data"
  top: "label"
  include {
    phase: TRAIN
  }
  hdf5_data_param {
    source: "/home/purduethu/scratch/radon/d/deng106/CNNStatisticalModel/distributions/input/50_distributions_100_sample_size_train-distributions-path.txt"
    batch_size: 20
  }
}
layer {
  name: "conv1"
  type: "Convolution"
  bottom: "data"
  top: "conv1"
  param {
    lr_mult: 1
  }
  param {
    lr_mult: 2
  }
  convolution_param {
    num_output: 64
    pad: 2
    kernel_size: 5
    stride: 1
    weight_filler {
      type: "gaussian"
      std: 0.0001
    }
    bias_filler {
      type: "constant"
    }
  }
}
layer {
  name: "relu1"
  type: "ReLU"
  bottom: "conv1"
  top: "conv1"
}
layer {
  name: "conv2"
  type: "Convolution"
  bottom: "conv1"
  top: "conv2"
  param {
    lr_mult: 1
  }
  param {
    lr_mult: 2
  }
  convolution_param {
    num_output: 64
    pad: 2
    kernel_size: 5
    stride: 1
    weight_filler {
      type: "gaussian"
      std: 0.01
    }
    bias_filler {
      type: "constant"
    }
  }
}
layer {
  name: "relu2"
  type: "ReLU"
  bottom: "conv2"
  top: "conv2"
}
layer {
  name: "pool2"
  type: "Pooling"
  bottom: "conv2"
  top: "pool2"
  pooling_param {
    pool: MAX
    kernel_size: 3
    stride: 2
  }
}
layer {
  name: "conv3"
  type: "Convolution"
  bottom: "pool2"
  top: "conv3"
  param {
    lr_mult: 1
  }
  param {
    lr_mult: 2
  }
  convolution_param {
    num_output: 64
    pad: 2
    kernel_size: 5
    stride: 1
    weight_filler {
      type: "gaussian"
      std: 0.01
    }
    bias_filler {
      type: "constant"
    }
  }
}
layer {
  name: "relu3"
  type: "ReLU"
  bottom: "conv3"
  top: "conv3"
}
layer {
  name: "conv4"
  type: "Convolution"
  bottom: "conv3"
  top: "conv4"
  param {
    lr_mult: 1
  }
  param {
    lr_mult: 2
  }
  convolution_param {
    num_output: 64
    pad: 2
    kernel_size: 5
    stride: 1
    weight_filler {
      type: "gaussian"
      std: 0.01
    }
    bias_filler {
      type: "constant"
    }
  }
}
layer {
  name: "relu4"
  type: "ReLU"
  bottom: "conv4"
  top: "conv4"
}
layer {
  name: "conv5"
  type: "Convolution"
  bottom: "conv4"
  top: "conv5"
  param {
    lr_mult: 1
  }
  param {
    lr_mult: 2
  }
  convolution_param {
    num_output: 64
    pad: 2
    kernel_size: 5
    stride: 1
    weight_filler {
      type: "gaussian"
      std: 0.01
    }
    bias_filler {
      type: "constant"
    }
  }
}
layer {
  name: "relu5"
  type: "ReLU"
  bottom: "conv5"
  top: "conv5"
}
layer {
  name: "pool5"
  type: "Pooling"
  bottom: "conv5"
  top: "pool5"
  pooling_param {
    pool: AVE
    kernel_size: 3
    stride: 2
  }
}
layer {
  name: "ip1"
  type: "InnerProduct"
  bottom: "pool5"
  top: "ip1"
  param {
    lr_mult: 1
  }
  param {
    lr_mult: 2
  }
  inner_product_param {
    num_output: 64
    weight_filler {
      type: "gaussian"
      std: 0.1
    }
    bias_filler {
      type: "constant"
    }
  }
}
layer {
  name: "ip2"
  type: "InnerProduct"
  bottom: "ip1"
  top: "ip2"
  param {
    lr_mult: 1
  }
  param {
    lr_mult: 2
  }
  inner_product_param {
    num_output: 64
    weight_filler {
      type: "gaussian"
      std: 0.1
    }
    bias_filler {
      type: "constant"
    }
  }
}
layer {
  name: "ip3"
  type: "InnerProduct"
  bottom: "ip2"
  top: "ip3"
  param {
    lr_mult: 1
  }
  param {
    lr_mult: 2
  }
  inner_product_param {
    num_output: 50
    weight_filler {
      type: "gaussian"
      std: 0.1
    }
    bias_filler {
      type: "constant"
    }
  }
}
layer {
  name: "loss"
  type: "SoftmaxWithLoss"
  bottom: "ip3"
  bottom: "label"
  top: "loss"
}
I0507 15:46:37.077194  4356 layer_factory.hpp:77] Creating layer parameters
I0507 15:46:37.077206  4356 net.cpp:94] Creating Layer parameters
I0507 15:46:37.077213  4356 net.cpp:409] parameters -> data
I0507 15:46:37.077222  4356 net.cpp:409] parameters -> label
I0507 15:46:37.077231  4356 hdf5_data_layer.cpp:79] Loading list of HDF5 filenames from: /home/purduethu/scratch/radon/d/deng106/CNNStatisticalModel/distributions/input/50_distributions_100_sample_size_train-distributions-path.txt
I0507 15:46:37.077253  4356 hdf5_data_layer.cpp:93] Number of HDF5 files: 1
I0507 15:46:37.258451  4356 hdf5.cpp:35] Datatype class: H5T_INTEGER
I0507 15:46:37.261618  4356 net.cpp:144] Setting up parameters
I0507 15:46:37.261641  4356 net.cpp:151] Top shape: 20 1 10 10 (2000)
I0507 15:46:37.261646  4356 net.cpp:151] Top shape: 20 (20)
I0507 15:46:37.261651  4356 net.cpp:159] Memory required for data: 8080
I0507 15:46:37.261656  4356 layer_factory.hpp:77] Creating layer conv1
I0507 15:46:37.261672  4356 net.cpp:94] Creating Layer conv1
I0507 15:46:37.261677  4356 net.cpp:435] conv1 <- data
I0507 15:46:37.261683  4356 net.cpp:409] conv1 -> conv1
I0507 15:46:37.263380  4356 net.cpp:144] Setting up conv1
I0507 15:46:37.263393  4356 net.cpp:151] Top shape: 20 64 10 10 (128000)
I0507 15:46:37.263397  4356 net.cpp:159] Memory required for data: 520080
I0507 15:46:37.263407  4356 layer_factory.hpp:77] Creating layer relu1
I0507 15:46:37.263415  4356 net.cpp:94] Creating Layer relu1
I0507 15:46:37.263419  4356 net.cpp:435] relu1 <- conv1
I0507 15:46:37.263424  4356 net.cpp:396] relu1 -> conv1 (in-place)
I0507 15:46:37.263432  4356 net.cpp:144] Setting up relu1
I0507 15:46:37.263437  4356 net.cpp:151] Top shape: 20 64 10 10 (128000)
I0507 15:46:37.263439  4356 net.cpp:159] Memory required for data: 1032080
I0507 15:46:37.263442  4356 layer_factory.hpp:77] Creating layer conv2
I0507 15:46:37.263450  4356 net.cpp:94] Creating Layer conv2
I0507 15:46:37.263454  4356 net.cpp:435] conv2 <- conv1
I0507 15:46:37.263459  4356 net.cpp:409] conv2 -> conv2
I0507 15:46:37.268815  4356 net.cpp:144] Setting up conv2
I0507 15:46:37.268828  4356 net.cpp:151] Top shape: 20 64 10 10 (128000)
I0507 15:46:37.268832  4356 net.cpp:159] Memory required for data: 1544080
I0507 15:46:37.268841  4356 layer_factory.hpp:77] Creating layer relu2
I0507 15:46:37.268847  4356 net.cpp:94] Creating Layer relu2
I0507 15:46:37.268851  4356 net.cpp:435] relu2 <- conv2
I0507 15:46:37.268857  4356 net.cpp:396] relu2 -> conv2 (in-place)
I0507 15:46:37.268863  4356 net.cpp:144] Setting up relu2
I0507 15:46:37.268867  4356 net.cpp:151] Top shape: 20 64 10 10 (128000)
I0507 15:46:37.268872  4356 net.cpp:159] Memory required for data: 2056080
I0507 15:46:37.268874  4356 layer_factory.hpp:77] Creating layer pool2
I0507 15:46:37.268880  4356 net.cpp:94] Creating Layer pool2
I0507 15:46:37.268883  4356 net.cpp:435] pool2 <- conv2
I0507 15:46:37.268888  4356 net.cpp:409] pool2 -> pool2
I0507 15:46:37.268939  4356 net.cpp:144] Setting up pool2
I0507 15:46:37.268945  4356 net.cpp:151] Top shape: 20 64 5 5 (32000)
I0507 15:46:37.268949  4356 net.cpp:159] Memory required for data: 2184080
I0507 15:46:37.268952  4356 layer_factory.hpp:77] Creating layer conv3
I0507 15:46:37.268960  4356 net.cpp:94] Creating Layer conv3
I0507 15:46:37.268965  4356 net.cpp:435] conv3 <- pool2
I0507 15:46:37.268970  4356 net.cpp:409] conv3 -> conv3
I0507 15:46:37.274734  4356 net.cpp:144] Setting up conv3
I0507 15:46:37.274747  4356 net.cpp:151] Top shape: 20 64 5 5 (32000)
I0507 15:46:37.274751  4356 net.cpp:159] Memory required for data: 2312080
I0507 15:46:37.274760  4356 layer_factory.hpp:77] Creating layer relu3
I0507 15:46:37.274766  4356 net.cpp:94] Creating Layer relu3
I0507 15:46:37.274770  4356 net.cpp:435] relu3 <- conv3
I0507 15:46:37.274775  4356 net.cpp:396] relu3 -> conv3 (in-place)
I0507 15:46:37.274782  4356 net.cpp:144] Setting up relu3
I0507 15:46:37.274786  4356 net.cpp:151] Top shape: 20 64 5 5 (32000)
I0507 15:46:37.274790  4356 net.cpp:159] Memory required for data: 2440080
I0507 15:46:37.274792  4356 layer_factory.hpp:77] Creating layer conv4
I0507 15:46:37.274801  4356 net.cpp:94] Creating Layer conv4
I0507 15:46:37.274806  4356 net.cpp:435] conv4 <- conv3
I0507 15:46:37.274811  4356 net.cpp:409] conv4 -> conv4
I0507 15:46:37.279661  4356 net.cpp:144] Setting up conv4
I0507 15:46:37.279675  4356 net.cpp:151] Top shape: 20 64 5 5 (32000)
I0507 15:46:37.279680  4356 net.cpp:159] Memory required for data: 2568080
I0507 15:46:37.279686  4356 layer_factory.hpp:77] Creating layer relu4
I0507 15:46:37.279692  4356 net.cpp:94] Creating Layer relu4
I0507 15:46:37.279696  4356 net.cpp:435] relu4 <- conv4
I0507 15:46:37.279701  4356 net.cpp:396] relu4 -> conv4 (in-place)
I0507 15:46:37.279708  4356 net.cpp:144] Setting up relu4
I0507 15:46:37.279712  4356 net.cpp:151] Top shape: 20 64 5 5 (32000)
I0507 15:46:37.279716  4356 net.cpp:159] Memory required for data: 2696080
I0507 15:46:37.279719  4356 layer_factory.hpp:77] Creating layer conv5
I0507 15:46:37.279727  4356 net.cpp:94] Creating Layer conv5
I0507 15:46:37.279731  4356 net.cpp:435] conv5 <- conv4
I0507 15:46:37.279736  4356 net.cpp:409] conv5 -> conv5
I0507 15:46:37.284145  4356 net.cpp:144] Setting up conv5
I0507 15:46:37.284158  4356 net.cpp:151] Top shape: 20 64 5 5 (32000)
I0507 15:46:37.284162  4356 net.cpp:159] Memory required for data: 2824080
I0507 15:46:37.284171  4356 layer_factory.hpp:77] Creating layer relu5
I0507 15:46:37.284178  4356 net.cpp:94] Creating Layer relu5
I0507 15:46:37.284180  4356 net.cpp:435] relu5 <- conv5
I0507 15:46:37.284185  4356 net.cpp:396] relu5 -> conv5 (in-place)
I0507 15:46:37.284193  4356 net.cpp:144] Setting up relu5
I0507 15:46:37.284198  4356 net.cpp:151] Top shape: 20 64 5 5 (32000)
I0507 15:46:37.284200  4356 net.cpp:159] Memory required for data: 2952080
I0507 15:46:37.284204  4356 layer_factory.hpp:77] Creating layer pool5
I0507 15:46:37.284209  4356 net.cpp:94] Creating Layer pool5
I0507 15:46:37.284212  4356 net.cpp:435] pool5 <- conv5
I0507 15:46:37.284216  4356 net.cpp:409] pool5 -> pool5
I0507 15:46:37.284250  4356 net.cpp:144] Setting up pool5
I0507 15:46:37.284257  4356 net.cpp:151] Top shape: 20 64 2 2 (5120)
I0507 15:46:37.284260  4356 net.cpp:159] Memory required for data: 2972560
I0507 15:46:37.284263  4356 layer_factory.hpp:77] Creating layer ip1
I0507 15:46:37.284271  4356 net.cpp:94] Creating Layer ip1
I0507 15:46:37.284274  4356 net.cpp:435] ip1 <- pool5
I0507 15:46:37.284278  4356 net.cpp:409] ip1 -> ip1
I0507 15:46:37.284811  4356 net.cpp:144] Setting up ip1
I0507 15:46:37.284819  4356 net.cpp:151] Top shape: 20 64 (1280)
I0507 15:46:37.284823  4356 net.cpp:159] Memory required for data: 2977680
I0507 15:46:37.284829  4356 layer_factory.hpp:77] Creating layer ip2
I0507 15:46:37.284835  4356 net.cpp:94] Creating Layer ip2
I0507 15:46:37.284839  4356 net.cpp:435] ip2 <- ip1
I0507 15:46:37.284844  4356 net.cpp:409] ip2 -> ip2
I0507 15:46:37.285060  4356 net.cpp:144] Setting up ip2
I0507 15:46:37.285068  4356 net.cpp:151] Top shape: 20 64 (1280)
I0507 15:46:37.285071  4356 net.cpp:159] Memory required for data: 2982800
I0507 15:46:37.285076  4356 layer_factory.hpp:77] Creating layer ip3
I0507 15:46:37.285082  4356 net.cpp:94] Creating Layer ip3
I0507 15:46:37.285086  4356 net.cpp:435] ip3 <- ip2
I0507 15:46:37.285091  4356 net.cpp:409] ip3 -> ip3
I0507 15:46:37.285281  4356 net.cpp:144] Setting up ip3
I0507 15:46:37.285289  4356 net.cpp:151] Top shape: 20 50 (1000)
I0507 15:46:37.285296  4356 net.cpp:159] Memory required for data: 2986800
I0507 15:46:37.285302  4356 layer_factory.hpp:77] Creating layer loss
I0507 15:46:37.285310  4356 net.cpp:94] Creating Layer loss
I0507 15:46:37.285313  4356 net.cpp:435] loss <- ip3
I0507 15:46:37.285317  4356 net.cpp:435] loss <- label
I0507 15:46:37.285321  4356 net.cpp:409] loss -> loss
I0507 15:46:37.285328  4356 layer_factory.hpp:77] Creating layer loss
…
I0507 15:46:37.286707  4356 solver.cpp:181] Creating test net (#0) specified by net file: ./protocol/dis_50_100_dimension.protocol_distribution
I0507 15:46:37.286734  4356 net.cpp:323] The NetState phase (1) differed from the phase (0) specified by a rule in layer parameters
I0507 15:46:37.286833  4356 net.cpp:52] Initializing net from parameters: 
state {
  phase: TEST
}
layer {
  name: "intercept"
  type: "HDF5Data"
  top: "data"
  top: "label"
  include {
    phase: TEST
  }
  hdf5_data_param {
    source: "/home/purduethu/scratch/radon/d/deng106/CNNStatisticalModel/distributions/input/50_distributions_100_sample_size_test-distributions-path.txt"
    batch_size: 20
  }
}
layer {
  name: "conv1"
  type: "Convolution"
  bottom: "data"
  top: "conv1"
  param {
    lr_mult: 1
  }
  param {
    lr_mult: 2
  }
  convolution_param {
    num_output: 64
    pad: 2
    kernel_size: 5
    stride: 1
    weight_filler {
      type: "gaussian"
      std: 0.0001
    }
    bias_filler {
      type: "constant"
    }
  }
}
layer {
  name: "relu1"
  type: "ReLU"
  bottom: "conv1"
  top: "conv1"
}
layer {
  name: "conv2"
  type: "Convolution"
  bottom: "conv1"
  top: "conv2"
  param {
    lr_mult: 1
  }
  param {
    lr_mult: 2
  }
  convolution_param {
    num_output: 64
    pad: 2
    kernel_size: 5
    stride: 1
    weight_filler {
      type: "gaussian"
      std: 0.01
    }
    bias_filler {
      type: "constant"
    }
  }
}
layer {
  name: "relu2"
  type: "ReLU"
  bottom: "conv2"
  top: "conv2"
}
layer {
  name: "pool2"
  type: "Pooling"
  bottom: "conv2"
  top: "pool2"
  pooling_param {
    pool: MAX
    kernel_size: 3
    stride: 2
  }
}
layer {
  name: "conv3"
  type: "Convolution"
  bottom: "pool2"
  top: "conv3"
  param {
    lr_mult: 1
  }
  param {
    lr_mult: 2
  }
  convolution_param {
    num_output: 64
    pad: 2
    kernel_size: 5
    stride: 1
    weight_filler {
      type: "gaussian"
      std: 0.01
    }
    bias_filler {
      type: "constant"
    }
  }
}
layer {
  name: "relu3"
  type: "ReLU"
  bottom: "conv3"
  top: "conv3"
}
layer {
  name: "conv4"
  type: "Convolution"
  bottom: "conv3"
  top: "conv4"
  param {
    lr_mult: 1
  }
  param {
    lr_mult: 2
  }
  convolution_param {
    num_output: 64
    pad: 2
    kernel_size: 5
    stride: 1
    weight_filler {
      type: "gaussian"
      std: 0.01
    }
    bias_filler {
      type: "constant"
    }
  }
}
layer {
  name: "relu4"
  type: "ReLU"
  bottom: "conv4"
  top: "conv4"
}
layer {
  name: "conv5"
  type: "Convolution"
  bottom: "conv4"
  top: "conv5"
  param {
    lr_mult: 1
  }
  param {
    lr_mult: 2
  }
  convolution_param {
    num_output: 64
    pad: 2
    kernel_size: 5
    stride: 1
    weight_filler {
      type: "gaussian"
      std: 0.01
    }
    bias_filler {
      type: "constant"
    }
  }
}
layer {
  name: "relu5"
  type: "ReLU"
  bottom: "conv5"
  top: "conv5"
}
layer {
  name: "pool5"
  type: "Pooling"
  bottom: "conv5"
  top: "pool5"
  pooling_param {
    pool: AVE
    kernel_size: 3
    stride: 2
  }
}
layer {
  name: "ip1"
  type: "InnerProduct"
  bottom: "pool5"
  top: "ip1"
  param {
    lr_mult: 1
  }
  param {
    lr_mult: 2
  }
  inner_product_param {
    num_output: 64
    weight_filler {
      type: "gaussian"
      std: 0.1
    }
    bias_filler {
      type: "constant"
    }
  }
}
layer {
  name: "ip2"
  type: "InnerProduct"
  bottom: "ip1"
  top: "ip2"
  param {
    lr_mult: 1
  }
  param {
    lr_mult: 2
  }
  inner_product_param {
    num_output: 64
    weight_filler {
      type: "gaussian"
      std: 0.1
    }
    bias_filler {
      type: "constant"
    }
  }
}
layer {
  name: "ip3"
  type: "InnerProduct"
  bottom: "ip2"
  top: "ip3"
  param {
    lr_mult: 1
  }
  param {
    lr_mult: 2
  }
  inner_product_param {
    num_output: 50
    weight_filler {
      type: "gaussian"
      std: 0.1
    }
    bias_filler {
      type: "constant"
    }
  }
}
layer {
  name: "accuracy"
  type: "Accuracy"
  bottom: "ip3"
  bottom: "label"
  top: "accuracy"
  include {
    phase: TEST
  }
}
layer {
  name: "loss"
  type: "SoftmaxWithLoss"
  bottom: "ip3"
  bottom: "label"
  top: "loss"
}
I0507 15:46:37.286898  4356 layer_factory.hpp:77] Creating layer intercept
I0507 15:46:37.286907  4356 net.cpp:94] Creating Layer intercept
I0507 15:46:37.286912  4356 net.cpp:409] intercept -> data
I0507 15:46:37.286919  4356 net.cpp:409] intercept -> label
I0507 15:46:37.286926  4356 hdf5_data_layer.cpp:79] Loading list of HDF5 filenames from: /home/purduethu/scratch/radon/d/deng106/CNNStatisticalModel/distributions/input/50_distributions_100_sample_size_test-distributions-path.txt
I0507 15:46:37.286945  4356 hdf5_data_layer.cpp:93] Number of HDF5 files: 1
I0507 15:46:37.329393  4356 net.cpp:144] Setting up intercept
I0507 15:46:37.329427  4356 net.cpp:151] Top shape: 20 1 10 10 (2000)
I0507 15:46:37.329432  4356 net.cpp:151] Top shape: 20 (20)
I0507 15:46:37.329437  4356 net.cpp:159] Memory required for data: 8080
I0507 15:46:37.329442  4356 layer_factory.hpp:77] Creating layer label_intercept_1_split
I0507 15:46:37.329460  4356 net.cpp:94] Creating Layer label_intercept_1_split
I0507 15:46:37.329465  4356 net.cpp:435] label_intercept_1_split <- label
I0507 15:46:37.329471  4356 net.cpp:409] label_intercept_1_split -> label_intercept_1_split_0
I0507 15:46:37.329480  4356 net.cpp:409] label_intercept_1_split -> label_intercept_1_split_1
I0507 15:46:37.329520  4356 net.cpp:144] Setting up label_intercept_1_split
I0507 15:46:37.329527  4356 net.cpp:151] Top shape: 20 (20)
I0507 15:46:37.329531  4356 net.cpp:151] Top shape: 20 (20)
I0507 15:46:37.329535  4356 net.cpp:159] Memory required for data: 8240
I0507 15:46:37.329537  4356 layer_factory.hpp:77] Creating layer conv1
I0507 15:46:37.329550  4356 net.cpp:94] Creating Layer conv1
I0507 15:46:37.329553  4356 net.cpp:435] conv1 <- data
I0507 15:46:37.329558  4356 net.cpp:409] conv1 -> conv1
I0507 15:46:37.330320  4356 net.cpp:144] Setting up conv1
I0507 15:46:37.330334  4356 net.cpp:151] Top shape: 20 64 10 10 (128000)
I0507 15:46:37.330345  4356 net.cpp:159] Memory required for data: 520240
I0507 15:46:37.330356  4356 layer_factory.hpp:77] Creating layer relu1
I0507 15:46:37.330364  4356 net.cpp:94] Creating Layer relu1
I0507 15:46:37.330368  4356 net.cpp:435] relu1 <- conv1
I0507 15:46:37.330373  4356 net.cpp:396] relu1 -> conv1 (in-place)
I0507 15:46:37.330380  4356 net.cpp:144] Setting up relu1
I0507 15:46:37.330384  4356 net.cpp:151] Top shape: 20 64 10 10 (128000)
I0507 15:46:37.330387  4356 net.cpp:159] Memory required for data: 1032240
I0507 15:46:37.330390  4356 layer_factory.hpp:77] Creating layer conv2
I0507 15:46:37.330399  4356 net.cpp:94] Creating Layer conv2
I0507 15:46:37.330402  4356 net.cpp:435] conv2 <- conv1
I0507 15:46:37.330407  4356 net.cpp:409] conv2 -> conv2
I0507 15:46:37.334532  4356 net.cpp:144] Setting up conv2
I0507 15:46:37.334545  4356 net.cpp:151] Top shape: 20 64 10 10 (128000)
I0507 15:46:37.334549  4356 net.cpp:159] Memory required for data: 1544240
I0507 15:46:37.334558  4356 layer_factory.hpp:77] Creating layer relu2
I0507 15:46:37.334565  4356 net.cpp:94] Creating Layer relu2
I0507 15:46:37.334569  4356 net.cpp:435] relu2 <- conv2
I0507 15:46:37.334573  4356 net.cpp:396] relu2 -> conv2 (in-place)
I0507 15:46:37.334580  4356 net.cpp:144] Setting up relu2
I0507 15:46:37.334584  4356 net.cpp:151] Top shape: 20 64 10 10 (128000)
I0507 15:46:37.334589  4356 net.cpp:159] Memory required for data: 2056240
I0507 15:46:37.334591  4356 layer_factory.hpp:77] Creating layer pool2
I0507 15:46:37.334597  4356 net.cpp:94] Creating Layer pool2
I0507 15:46:37.334600  4356 net.cpp:435] pool2 <- conv2
I0507 15:46:37.334605  4356 net.cpp:409] pool2 -> pool2
I0507 15:46:37.334657  4356 net.cpp:144] Setting up pool2
I0507 15:46:37.334664  4356 net.cpp:151] Top shape: 20 64 5 5 (32000)
I0507 15:46:37.334667  4356 net.cpp:159] Memory required for data: 2184240
I0507 15:46:37.334671  4356 layer_factory.hpp:77] Creating layer conv3
I0507 15:46:37.334679  4356 net.cpp:94] Creating Layer conv3
I0507 15:46:37.334683  4356 net.cpp:435] conv3 <- pool2
I0507 15:46:37.334689  4356 net.cpp:409] conv3 -> conv3
I0507 15:46:37.339148  4356 net.cpp:144] Setting up conv3
I0507 15:46:37.339162  4356 net.cpp:151] Top shape: 20 64 5 5 (32000)
I0507 15:46:37.339166  4356 net.cpp:159] Memory required for data: 2312240
I0507 15:46:37.339174  4356 layer_factory.hpp:77] Creating layer relu3
I0507 15:46:37.339181  4356 net.cpp:94] Creating Layer relu3
I0507 15:46:37.339185  4356 net.cpp:435] relu3 <- conv3
I0507 15:46:37.339190  4356 net.cpp:396] relu3 -> conv3 (in-place)
I0507 15:46:37.339196  4356 net.cpp:144] Setting up relu3
I0507 15:46:37.339201  4356 net.cpp:151] Top shape: 20 64 5 5 (32000)
I0507 15:46:37.339205  4356 net.cpp:159] Memory required for data: 2440240
I0507 15:46:37.339207  4356 layer_factory.hpp:77] Creating layer conv4
I0507 15:46:37.339217  4356 net.cpp:94] Creating Layer conv4
I0507 15:46:37.339221  4356 net.cpp:435] conv4 <- conv3
I0507 15:46:37.339226  4356 net.cpp:409] conv4 -> conv4
I0507 15:46:37.342823  4356 net.cpp:144] Setting up conv4
I0507 15:46:37.342835  4356 net.cpp:151] Top shape: 20 64 5 5 (32000)
I0507 15:46:37.342839  4356 net.cpp:159] Memory required for data: 2568240
I0507 15:46:37.342845  4356 layer_factory.hpp:77] Creating layer relu4
I0507 15:46:37.342851  4356 net.cpp:94] Creating Layer relu4
I0507 15:46:37.342855  4356 net.cpp:435] relu4 <- conv4
I0507 15:46:37.342860  4356 net.cpp:396] relu4 -> conv4 (in-place)
I0507 15:46:37.342866  4356 net.cpp:144] Setting up relu4
I0507 15:46:37.342871  4356 net.cpp:151] Top shape: 20 64 5 5 (32000)
I0507 15:46:37.342875  4356 net.cpp:159] Memory required for data: 2696240
I0507 15:46:37.342877  4356 layer_factory.hpp:77] Creating layer conv5
I0507 15:46:37.342888  4356 net.cpp:94] Creating Layer conv5
I0507 15:46:37.342892  4356 net.cpp:435] conv5 <- conv4
I0507 15:46:37.342897  4356 net.cpp:409] conv5 -> conv5
I0507 15:46:37.346947  4356 net.cpp:144] Setting up conv5
I0507 15:46:37.346961  4356 net.cpp:151] Top shape: 20 64 5 5 (32000)
I0507 15:46:37.346966  4356 net.cpp:159] Memory required for data: 2824240
I0507 15:46:37.346979  4356 layer_factory.hpp:77] Creating layer relu5
I0507 15:46:37.346987  4356 net.cpp:94] Creating Layer relu5
I0507 15:46:37.346989  4356 net.cpp:435] relu5 <- conv5
I0507 15:46:37.346995  4356 net.cpp:396] relu5 -> conv5 (in-place)
I0507 15:46:37.347002  4356 net.cpp:144] Setting up relu5
I0507 15:46:37.347007  4356 net.cpp:151] Top shape: 20 64 5 5 (32000)
I0507 15:46:37.347010  4356 net.cpp:159] Memory required for data: 2952240
I0507 15:46:37.347013  4356 layer_factory.hpp:77] Creating layer pool5
I0507 15:46:37.347018  4356 net.cpp:94] Creating Layer pool5
I0507 15:46:37.347021  4356 net.cpp:435] pool5 <- conv5
I0507 15:46:37.347026  4356 net.cpp:409] pool5 -> pool5
I0507 15:46:37.347064  4356 net.cpp:144] Setting up pool5
I0507 15:46:37.347069  4356 net.cpp:151] Top shape: 20 64 2 2 (5120)
I0507 15:46:37.347072  4356 net.cpp:159] Memory required for data: 2972720
I0507 15:46:37.347076  4356 layer_factory.hpp:77] Creating layer ip1
I0507 15:46:37.347084  4356 net.cpp:94] Creating Layer ip1
I0507 15:46:37.347087  4356 net.cpp:435] ip1 <- pool5
I0507 15:46:37.347093  4356 net.cpp:409] ip1 -> ip1
I0507 15:46:37.347625  4356 net.cpp:144] Setting up ip1
I0507 15:46:37.347632  4356 net.cpp:151] Top shape: 20 64 (1280)
I0507 15:46:37.347635  4356 net.cpp:159] Memory required for data: 2977840
I0507 15:46:37.347641  4356 layer_factory.hpp:77] Creating layer ip2
I0507 15:46:37.347647  4356 net.cpp:94] Creating Layer ip2
I0507 15:46:37.347651  4356 net.cpp:435] ip2 <- ip1
I0507 15:46:37.347656  4356 net.cpp:409] ip2 -> ip2
I0507 15:46:37.347884  4356 net.cpp:144] Setting up ip2
I0507 15:46:37.347892  4356 net.cpp:151] Top shape: 20 64 (1280)
I0507 15:46:37.347895  4356 net.cpp:159] Memory required for data: 2982960
I0507 15:46:37.347900  4356 layer_factory.hpp:77] Creating layer ip3
I0507 15:46:37.347910  4356 net.cpp:94] Creating Layer ip3
I0507 15:46:37.347914  4356 net.cpp:435] ip3 <- ip2
I0507 15:46:37.347918  4356 net.cpp:409] ip3 -> ip3
I0507 15:46:37.348120  4356 net.cpp:144] Setting up ip3
I0507 15:46:37.348127  4356 net.cpp:151] Top shape: 20 50 (1000)
I0507 15:46:37.348131  4356 net.cpp:159] Memory required for data: 2986960
I0507 15:46:37.348136  4356 layer_factory.hpp:77] Creating layer ip3_ip3_0_split
I0507 15:46:37.348141  4356 net.cpp:94] Creating Layer ip3_ip3_0_split
I0507 15:46:37.348145  4356 net.cpp:435] ip3_ip3_0_split <- ip3
I0507 15:46:37.348150  4356 net.cpp:409] ip3_ip3_0_split -> ip3_ip3_0_split_0
I0507 15:46:37.348156  4356 net.cpp:409] ip3_ip3_0_split -> ip3_ip3_0_split_1
I0507 15:46:37.348196  4356 net.cpp:144] Setting up ip3_ip3_0_split
I0507 15:46:37.348202  4356 net.cpp:151] Top shape: 20 50 (1000)
I0507 15:46:37.348206  4356 net.cpp:151] Top shape: 20 50 (1000)
I0507 15:46:37.348209  4356 net.cpp:159] Memory required for data: 2994960
I0507 15:46:37.348212  4356 layer_factory.hpp:77] Creating layer accuracy
I0507 15:46:37.348218  4356 net.cpp:94] Creating Layer accuracy
I0507 15:46:37.348222  4356 net.cpp:435] accuracy <- ip3_ip3_0_split_0
I0507 15:46:37.348225  4356 net.cpp:435] accuracy <- label_intercept_1_split_0
I0507 15:46:37.348232  4356 net.cpp:409] accuracy -> accuracy
…
