…
I0502 04:33:08.235618 18508 net.cpp:323] The NetState phase (0) differed from the phase (1) specified by a rule in layer intercept
I0502 04:33:08.235635 18508 net.cpp:323] The NetState phase (0) differed from the phase (1) specified by a rule in layer loss
I0502 04:33:08.235726 18508 net.cpp:52] Initializing net from parameters: 
state {
  phase: TRAIN
}
layer {
  name: "parameters"
  type: "HDF5Data"
  top: "data"
  top: "label"
  include {
    phase: TRAIN
  }
  hdf5_data_param {
    source: "/home/purduethu/scratch/radon/d/deng106/CNNStatisticalModel/distributions/input/20_distributions_400_sample_size_train-parameters-path.txt"
    batch_size: 20
  }
}
layer {
  name: "conv1"
  type: "Convolution"
  bottom: "data"
  top: "conv1"
  param {
    lr_mult: 1
  }
  param {
    lr_mult: 2
  }
  convolution_param {
    num_output: 64
    pad: 2
    kernel_size: 5
    stride: 1
    weight_filler {
      type: "gaussian"
      std: 0.0001
    }
    bias_filler {
      type: "constant"
    }
  }
}
layer {
  name: "relu1"
  type: "ReLU"
  bottom: "conv1"
  top: "conv1"
}
layer {
  name: "conv2"
  type: "Convolution"
  bottom: "conv1"
  top: "conv2"
  param {
    lr_mult: 1
  }
  param {
    lr_mult: 2
  }
  convolution_param {
    num_output: 64
    pad: 2
    kernel_size: 5
    stride: 1
    weight_filler {
      type: "gaussian"
      std: 0.01
    }
    bias_filler {
      type: "constant"
    }
  }
}
layer {
  name: "relu2"
  type: "ReLU"
  bottom: "conv2"
  top: "conv2"
}
layer {
  name: "pool2"
  type: "Pooling"
  bottom: "conv2"
  top: "pool2"
  pooling_param {
    pool: MAX
    kernel_size: 3
    stride: 2
  }
}
layer {
  name: "conv3"
  type: "Convolution"
  bottom: "pool2"
  top: "conv3"
  param {
    lr_mult: 1
  }
  param {
    lr_mult: 2
  }
  convolution_param {
    num_output: 64
    pad: 2
    kernel_size: 5
    stride: 1
    weight_filler {
      type: "gaussian"
      std: 0.01
    }
    bias_filler {
      type: "constant"
    }
  }
}
layer {
  name: "relu3"
  type: "ReLU"
  bottom: "conv3"
  top: "conv3"
}
layer {
  name: "conv4"
  type: "Convolution"
  bottom: "conv3"
  top: "conv4"
  param {
    lr_mult: 1
  }
  param {
    lr_mult: 2
  }
  convolution_param {
    num_output: 64
    pad: 2
    kernel_size: 5
    stride: 1
    weight_filler {
      type: "gaussian"
      std: 0.01
    }
    bias_filler {
      type: "constant"
    }
  }
}
layer {
  name: "relu4"
  type: "ReLU"
  bottom: "conv4"
  top: "conv4"
}
layer {
  name: "conv5"
  type: "Convolution"
  bottom: "conv4"
  top: "conv5"
  param {
    lr_mult: 1
  }
  param {
    lr_mult: 2
  }
  convolution_param {
    num_output: 64
    pad: 2
    kernel_size: 5
    stride: 1
    weight_filler {
      type: "gaussian"
      std: 0.01
    }
    bias_filler {
      type: "constant"
    }
  }
}
layer {
  name: "relu5"
  type: "ReLU"
  bottom: "conv5"
  top: "conv5"
}
layer {
  name: "pool5"
  type: "Pooling"
  bottom: "conv5"
  top: "pool5"
  pooling_param {
    pool: AVE
    kernel_size: 3
    stride: 2
  }
}
layer {
  name: "ip1"
  type: "InnerProduct"
  bottom: "pool5"
  top: "ip1"
  param {
    lr_mult: 1
  }
  param {
    lr_mult: 2
  }
  inner_product_param {
    num_output: 64
    weight_filler {
      type: "gaussian"
      std: 0.1
    }
    bias_filler {
      type: "constant"
    }
  }
}
layer {
  name: "ip2"
  type: "InnerProduct"
  bottom: "ip1"
  top: "ip2"
  param {
    lr_mult: 1
  }
  param {
    lr_mult: 2
  }
  inner_product_param {
    num_output: 64
    weight_filler {
      type: "gaussian"
      std: 0.1
    }
    bias_filler {
      type: "constant"
    }
  }
}
layer {
  name: "ip3"
  type: "InnerProduct"
  bottom: "ip2"
  top: "ip3"
  param {
    lr_mult: 1
  }
  param {
    lr_mult: 2
  }
  inner_product_param {
    num_output: 1
    weight_filler {
      type: "gaussian"
      std: 0.1
    }
    bias_filler {
      type: "constant"
    }
  }
}
layer {
  name: "loss"
  type: "HuberLoss"
  bottom: "ip3"
  bottom: "label"
  top: "loss"
  include {
    phase: TRAIN
  }
}
I0502 04:33:08.235803 18508 layer_factory.hpp:77] Creating layer parameters
I0502 04:33:08.235818 18508 net.cpp:94] Creating Layer parameters
I0502 04:33:08.235824 18508 net.cpp:409] parameters -> data
I0502 04:33:08.235843 18508 net.cpp:409] parameters -> label
I0502 04:33:08.235854 18508 hdf5_data_layer.cpp:79] Loading list of HDF5 filenames from: /home/purduethu/scratch/radon/d/deng106/CNNStatisticalModel/distributions/input/20_distributions_400_sample_size_train-parameters-path.txt
I0502 04:33:08.235877 18508 hdf5_data_layer.cpp:93] Number of HDF5 files: 1
I0502 04:33:08.236362 18508 hdf5.cpp:32] Datatype class: H5T_FLOAT
I0502 04:33:08.498208 18508 net.cpp:144] Setting up parameters
I0502 04:33:08.498239 18508 net.cpp:151] Top shape: 20 1 20 20 (8000)
I0502 04:33:08.498245 18508 net.cpp:151] Top shape: 20 (20)
I0502 04:33:08.498248 18508 net.cpp:159] Memory required for data: 32080
I0502 04:33:08.498256 18508 layer_factory.hpp:77] Creating layer conv1
I0502 04:33:08.498276 18508 net.cpp:94] Creating Layer conv1
I0502 04:33:08.498282 18508 net.cpp:435] conv1 <- data
I0502 04:33:08.498296 18508 net.cpp:409] conv1 -> conv1
I0502 04:33:08.503242 18508 net.cpp:144] Setting up conv1
I0502 04:33:08.503258 18508 net.cpp:151] Top shape: 20 64 20 20 (512000)
I0502 04:33:08.503263 18508 net.cpp:159] Memory required for data: 2080080
I0502 04:33:08.503275 18508 layer_factory.hpp:77] Creating layer relu1
I0502 04:33:08.503285 18508 net.cpp:94] Creating Layer relu1
I0502 04:33:08.503289 18508 net.cpp:435] relu1 <- conv1
I0502 04:33:08.503294 18508 net.cpp:396] relu1 -> conv1 (in-place)
I0502 04:33:08.503310 18508 net.cpp:144] Setting up relu1
I0502 04:33:08.503315 18508 net.cpp:151] Top shape: 20 64 20 20 (512000)
I0502 04:33:08.503319 18508 net.cpp:159] Memory required for data: 4128080
I0502 04:33:08.503322 18508 layer_factory.hpp:77] Creating layer conv2
I0502 04:33:08.503331 18508 net.cpp:94] Creating Layer conv2
I0502 04:33:08.503335 18508 net.cpp:435] conv2 <- conv1
I0502 04:33:08.503342 18508 net.cpp:409] conv2 -> conv2
I0502 04:33:08.513485 18508 net.cpp:144] Setting up conv2
I0502 04:33:08.513500 18508 net.cpp:151] Top shape: 20 64 20 20 (512000)
I0502 04:33:08.513505 18508 net.cpp:159] Memory required for data: 6176080
I0502 04:33:08.513514 18508 layer_factory.hpp:77] Creating layer relu2
I0502 04:33:08.513522 18508 net.cpp:94] Creating Layer relu2
I0502 04:33:08.513526 18508 net.cpp:435] relu2 <- conv2
I0502 04:33:08.513532 18508 net.cpp:396] relu2 -> conv2 (in-place)
I0502 04:33:08.513540 18508 net.cpp:144] Setting up relu2
I0502 04:33:08.513545 18508 net.cpp:151] Top shape: 20 64 20 20 (512000)
I0502 04:33:08.513548 18508 net.cpp:159] Memory required for data: 8224080
I0502 04:33:08.513551 18508 layer_factory.hpp:77] Creating layer pool2
I0502 04:33:08.513559 18508 net.cpp:94] Creating Layer pool2
I0502 04:33:08.513569 18508 net.cpp:435] pool2 <- conv2
I0502 04:33:08.513576 18508 net.cpp:409] pool2 -> pool2
I0502 04:33:08.513622 18508 net.cpp:144] Setting up pool2
I0502 04:33:08.513630 18508 net.cpp:151] Top shape: 20 64 10 10 (128000)
I0502 04:33:08.513633 18508 net.cpp:159] Memory required for data: 8736080
I0502 04:33:08.513638 18508 layer_factory.hpp:77] Creating layer conv3
I0502 04:33:08.513648 18508 net.cpp:94] Creating Layer conv3
I0502 04:33:08.513653 18508 net.cpp:435] conv3 <- pool2
I0502 04:33:08.513659 18508 net.cpp:409] conv3 -> conv3
I0502 04:33:08.519006 18508 net.cpp:144] Setting up conv3
I0502 04:33:08.519021 18508 net.cpp:151] Top shape: 20 64 10 10 (128000)
I0502 04:33:08.519024 18508 net.cpp:159] Memory required for data: 9248080
I0502 04:33:08.519033 18508 layer_factory.hpp:77] Creating layer relu3
I0502 04:33:08.519039 18508 net.cpp:94] Creating Layer relu3
I0502 04:33:08.519043 18508 net.cpp:435] relu3 <- conv3
I0502 04:33:08.519048 18508 net.cpp:396] relu3 -> conv3 (in-place)
I0502 04:33:08.519057 18508 net.cpp:144] Setting up relu3
I0502 04:33:08.519060 18508 net.cpp:151] Top shape: 20 64 10 10 (128000)
I0502 04:33:08.519064 18508 net.cpp:159] Memory required for data: 9760080
I0502 04:33:08.519068 18508 layer_factory.hpp:77] Creating layer conv4
I0502 04:33:08.519078 18508 net.cpp:94] Creating Layer conv4
I0502 04:33:08.519081 18508 net.cpp:435] conv4 <- conv3
I0502 04:33:08.519088 18508 net.cpp:409] conv4 -> conv4
I0502 04:33:08.524410 18508 net.cpp:144] Setting up conv4
I0502 04:33:08.524425 18508 net.cpp:151] Top shape: 20 64 10 10 (128000)
I0502 04:33:08.524428 18508 net.cpp:159] Memory required for data: 10272080
I0502 04:33:08.524435 18508 layer_factory.hpp:77] Creating layer relu4
I0502 04:33:08.524441 18508 net.cpp:94] Creating Layer relu4
I0502 04:33:08.524446 18508 net.cpp:435] relu4 <- conv4
I0502 04:33:08.524451 18508 net.cpp:396] relu4 -> conv4 (in-place)
I0502 04:33:08.524459 18508 net.cpp:144] Setting up relu4
I0502 04:33:08.524464 18508 net.cpp:151] Top shape: 20 64 10 10 (128000)
I0502 04:33:08.524467 18508 net.cpp:159] Memory required for data: 10784080
I0502 04:33:08.524471 18508 layer_factory.hpp:77] Creating layer conv5
I0502 04:33:08.524479 18508 net.cpp:94] Creating Layer conv5
I0502 04:33:08.524483 18508 net.cpp:435] conv5 <- conv4
I0502 04:33:08.524489 18508 net.cpp:409] conv5 -> conv5
I0502 04:33:08.530472 18508 net.cpp:144] Setting up conv5
I0502 04:33:08.530485 18508 net.cpp:151] Top shape: 20 64 10 10 (128000)
I0502 04:33:08.530489 18508 net.cpp:159] Memory required for data: 11296080
I0502 04:33:08.530499 18508 layer_factory.hpp:77] Creating layer relu5
I0502 04:33:08.530505 18508 net.cpp:94] Creating Layer relu5
I0502 04:33:08.530509 18508 net.cpp:435] relu5 <- conv5
I0502 04:33:08.530515 18508 net.cpp:396] relu5 -> conv5 (in-place)
I0502 04:33:08.530524 18508 net.cpp:144] Setting up relu5
I0502 04:33:08.530529 18508 net.cpp:151] Top shape: 20 64 10 10 (128000)
I0502 04:33:08.530531 18508 net.cpp:159] Memory required for data: 11808080
I0502 04:33:08.530534 18508 layer_factory.hpp:77] Creating layer pool5
I0502 04:33:08.530540 18508 net.cpp:94] Creating Layer pool5
I0502 04:33:08.530544 18508 net.cpp:435] pool5 <- conv5
I0502 04:33:08.530550 18508 net.cpp:409] pool5 -> pool5
I0502 04:33:08.530585 18508 net.cpp:144] Setting up pool5
I0502 04:33:08.530592 18508 net.cpp:151] Top shape: 20 64 5 5 (32000)
I0502 04:33:08.530596 18508 net.cpp:159] Memory required for data: 11936080
I0502 04:33:08.530599 18508 layer_factory.hpp:77] Creating layer ip1
I0502 04:33:08.530611 18508 net.cpp:94] Creating Layer ip1
I0502 04:33:08.530616 18508 net.cpp:435] ip1 <- pool5
I0502 04:33:08.530622 18508 net.cpp:409] ip1 -> ip1
I0502 04:33:08.533195 18508 net.cpp:144] Setting up ip1
I0502 04:33:08.533205 18508 net.cpp:151] Top shape: 20 64 (1280)
I0502 04:33:08.533208 18508 net.cpp:159] Memory required for data: 11941200
I0502 04:33:08.533215 18508 layer_factory.hpp:77] Creating layer ip2
I0502 04:33:08.533221 18508 net.cpp:94] Creating Layer ip2
I0502 04:33:08.533228 18508 net.cpp:435] ip2 <- ip1
I0502 04:33:08.533234 18508 net.cpp:409] ip2 -> ip2
I0502 04:33:08.533407 18508 net.cpp:144] Setting up ip2
I0502 04:33:08.533416 18508 net.cpp:151] Top shape: 20 64 (1280)
I0502 04:33:08.533418 18508 net.cpp:159] Memory required for data: 11946320
I0502 04:33:08.533424 18508 layer_factory.hpp:77] Creating layer ip3
I0502 04:33:08.533432 18508 net.cpp:94] Creating Layer ip3
I0502 04:33:08.533437 18508 net.cpp:435] ip3 <- ip2
I0502 04:33:08.533442 18508 net.cpp:409] ip3 -> ip3
I0502 04:33:08.533512 18508 net.cpp:144] Setting up ip3
I0502 04:33:08.533524 18508 net.cpp:151] Top shape: 20 1 (20)
I0502 04:33:08.533529 18508 net.cpp:159] Memory required for data: 11946400
I0502 04:33:08.533534 18508 layer_factory.hpp:77] Creating layer loss
I0502 04:33:08.533545 18508 net.cpp:94] Creating Layer loss
I0502 04:33:08.533548 18508 net.cpp:435] loss <- ip3
I0502 04:33:08.533552 18508 net.cpp:435] loss <- label
I0502 04:33:08.533558 18508 net.cpp:409] loss -> loss
I0502 04:33:08.533594 18508 net.cpp:144] Setting up loss
…
