…
I0505 09:25:52.089797  5922 net.cpp:323] The NetState phase (0) differed from the phase (1) specified by a rule in layer intercept
I0505 09:25:52.089810  5922 net.cpp:323] The NetState phase (0) differed from the phase (1) specified by a rule in layer accuracy
I0505 09:25:52.089889  5922 net.cpp:52] Initializing net from parameters: 
state {
  phase: TRAIN
}
layer {
  name: "parameters"
  type: "HDF5Data"
  top: "data"
  top: "label"
  include {
    phase: TRAIN
  }
  hdf5_data_param {
    source: "/home/purduethu/scratch/radon/d/deng106/CNNStatisticalModel/distributions/input/5_distributions_900_sample_size_train-distributions-path.txt"
    batch_size: 20
  }
}
layer {
  name: "conv1"
  type: "Convolution"
  bottom: "data"
  top: "conv1"
  param {
    lr_mult: 1
  }
  param {
    lr_mult: 2
  }
  convolution_param {
    num_output: 64
    pad: 2
    kernel_size: 5
    stride: 1
    weight_filler {
      type: "gaussian"
      std: 0.0001
    }
    bias_filler {
      type: "constant"
    }
  }
}
layer {
  name: "relu1"
  type: "ReLU"
  bottom: "conv1"
  top: "conv1"
}
layer {
  name: "pool1"
  type: "Pooling"
  bottom: "conv1"
  top: "pool1"
  pooling_param {
    pool: MAX
    kernel_size: 3
    stride: 2
  }
}
layer {
  name: "conv2"
  type: "Convolution"
  bottom: "pool1"
  top: "conv2"
  param {
    lr_mult: 1
  }
  param {
    lr_mult: 2
  }
  convolution_param {
    num_output: 128
    pad: 2
    kernel_size: 5
    stride: 1
    weight_filler {
      type: "gaussian"
      std: 0.01
    }
    bias_filler {
      type: "constant"
    }
  }
}
layer {
  name: "relu2"
  type: "ReLU"
  bottom: "conv2"
  top: "conv2"
}
layer {
  name: "conv3"
  type: "Convolution"
  bottom: "conv2"
  top: "conv3"
  param {
    lr_mult: 1
  }
  param {
    lr_mult: 2
  }
  convolution_param {
    num_output: 128
    pad: 2
    kernel_size: 5
    stride: 1
    weight_filler {
      type: "gaussian"
      std: 0.01
    }
    bias_filler {
      type: "constant"
    }
  }
}
layer {
  name: "relu3"
  type: "ReLU"
  bottom: "conv3"
  top: "conv3"
}
layer {
  name: "pool3"
  type: "Pooling"
  bottom: "conv3"
  top: "pool3"
  pooling_param {
    pool: AVE
    kernel_size: 3
    stride: 2
  }
}
layer {
  name: "ip1"
  type: "InnerProduct"
  bottom: "pool3"
  top: "ip1"
  param {
    lr_mult: 1
  }
  param {
    lr_mult: 2
  }
  inner_product_param {
    num_output: 512
    weight_filler {
      type: "gaussian"
      std: 0.1
    }
    bias_filler {
      type: "constant"
    }
  }
}
layer {
  name: "ip2"
  type: "InnerProduct"
  bottom: "ip1"
  top: "ip2"
  param {
    lr_mult: 1
  }
  param {
    lr_mult: 2
  }
  inner_product_param {
    num_output: 256
    weight_filler {
      type: "gaussian"
      std: 0.1
    }
    bias_filler {
      type: "constant"
    }
  }
}
layer {
  name: "ip3"
  type: "InnerProduct"
  bottom: "ip2"
  top: "ip3"
  param {
    lr_mult: 1
  }
  param {
    lr_mult: 2
  }
  inner_product_param {
    num_output: 50
    weight_filler {
      type: "gaussian"
      std: 0.1
    }
    bias_filler {
      type: "constant"
    }
  }
}
layer {
  name: "loss"
  type: "SoftmaxWithLoss"
  bottom: "ip3"
  bottom: "label"
  top: "loss"
}
I0505 09:25:52.089952  5922 layer_factory.hpp:77] Creating layer parameters
I0505 09:25:52.089968  5922 net.cpp:94] Creating Layer parameters
I0505 09:25:52.089973  5922 net.cpp:409] parameters -> data
I0505 09:25:52.090000  5922 net.cpp:409] parameters -> label
I0505 09:25:52.090013  5922 hdf5_data_layer.cpp:79] Loading list of HDF5 filenames from: /home/purduethu/scratch/radon/d/deng106/CNNStatisticalModel/distributions/input/5_distributions_900_sample_size_train-distributions-path.txt
I0505 09:25:52.090035  5922 hdf5_data_layer.cpp:93] Number of HDF5 files: 1
I0505 09:25:52.090524  5922 hdf5.cpp:32] Datatype class: H5T_FLOAT
I0505 09:25:52.225869  5922 hdf5.cpp:35] Datatype class: H5T_INTEGER
I0505 09:25:52.226999  5922 net.cpp:144] Setting up parameters
I0505 09:25:52.227018  5922 net.cpp:151] Top shape: 20 1 30 30 (18000)
I0505 09:25:52.227025  5922 net.cpp:151] Top shape: 20 (20)
I0505 09:25:52.227030  5922 net.cpp:159] Memory required for data: 72080
I0505 09:25:52.227036  5922 layer_factory.hpp:77] Creating layer conv1
I0505 09:25:52.227061  5922 net.cpp:94] Creating Layer conv1
I0505 09:25:52.227067  5922 net.cpp:435] conv1 <- data
I0505 09:25:52.227078  5922 net.cpp:409] conv1 -> conv1
I0505 09:25:52.232967  5922 net.cpp:144] Setting up conv1
I0505 09:25:52.232985  5922 net.cpp:151] Top shape: 20 64 30 30 (1152000)
I0505 09:25:52.232990  5922 net.cpp:159] Memory required for data: 4680080
I0505 09:25:52.233001  5922 layer_factory.hpp:77] Creating layer relu1
I0505 09:25:52.233009  5922 net.cpp:94] Creating Layer relu1
I0505 09:25:52.233013  5922 net.cpp:435] relu1 <- conv1
I0505 09:25:52.233018  5922 net.cpp:396] relu1 -> conv1 (in-place)
I0505 09:25:52.233034  5922 net.cpp:144] Setting up relu1
I0505 09:25:52.233041  5922 net.cpp:151] Top shape: 20 64 30 30 (1152000)
I0505 09:25:52.233043  5922 net.cpp:159] Memory required for data: 9288080
I0505 09:25:52.233047  5922 layer_factory.hpp:77] Creating layer pool1
I0505 09:25:52.233055  5922 net.cpp:94] Creating Layer pool1
I0505 09:25:52.233058  5922 net.cpp:435] pool1 <- conv1
I0505 09:25:52.233063  5922 net.cpp:409] pool1 -> pool1
I0505 09:25:52.233105  5922 net.cpp:144] Setting up pool1
I0505 09:25:52.233113  5922 net.cpp:151] Top shape: 20 64 15 15 (288000)
I0505 09:25:52.233116  5922 net.cpp:159] Memory required for data: 10440080
I0505 09:25:52.233119  5922 layer_factory.hpp:77] Creating layer conv2
I0505 09:25:52.233129  5922 net.cpp:94] Creating Layer conv2
I0505 09:25:52.233132  5922 net.cpp:435] conv2 <- pool1
I0505 09:25:52.233137  5922 net.cpp:409] conv2 -> conv2
I0505 09:25:52.246145  5922 net.cpp:144] Setting up conv2
I0505 09:25:52.246161  5922 net.cpp:151] Top shape: 20 128 15 15 (576000)
I0505 09:25:52.246165  5922 net.cpp:159] Memory required for data: 12744080
I0505 09:25:52.246173  5922 layer_factory.hpp:77] Creating layer relu2
I0505 09:25:52.246181  5922 net.cpp:94] Creating Layer relu2
I0505 09:25:52.246184  5922 net.cpp:435] relu2 <- conv2
I0505 09:25:52.246189  5922 net.cpp:396] relu2 -> conv2 (in-place)
I0505 09:25:52.246197  5922 net.cpp:144] Setting up relu2
I0505 09:25:52.246202  5922 net.cpp:151] Top shape: 20 128 15 15 (576000)
I0505 09:25:52.246206  5922 net.cpp:159] Memory required for data: 15048080
I0505 09:25:52.246209  5922 layer_factory.hpp:77] Creating layer conv3
I0505 09:25:52.246217  5922 net.cpp:94] Creating Layer conv3
I0505 09:25:52.246222  5922 net.cpp:435] conv3 <- conv2
I0505 09:25:52.246227  5922 net.cpp:409] conv3 -> conv3
I0505 09:25:52.267935  5922 net.cpp:144] Setting up conv3
I0505 09:25:52.267949  5922 net.cpp:151] Top shape: 20 128 15 15 (576000)
I0505 09:25:52.267954  5922 net.cpp:159] Memory required for data: 17352080
I0505 09:25:52.267971  5922 layer_factory.hpp:77] Creating layer relu3
I0505 09:25:52.267977  5922 net.cpp:94] Creating Layer relu3
I0505 09:25:52.267982  5922 net.cpp:435] relu3 <- conv3
I0505 09:25:52.267987  5922 net.cpp:396] relu3 -> conv3 (in-place)
I0505 09:25:52.267995  5922 net.cpp:144] Setting up relu3
I0505 09:25:52.268000  5922 net.cpp:151] Top shape: 20 128 15 15 (576000)
I0505 09:25:52.268003  5922 net.cpp:159] Memory required for data: 19656080
I0505 09:25:52.268007  5922 layer_factory.hpp:77] Creating layer pool3
I0505 09:25:52.268013  5922 net.cpp:94] Creating Layer pool3
I0505 09:25:52.268024  5922 net.cpp:435] pool3 <- conv3
I0505 09:25:52.268029  5922 net.cpp:409] pool3 -> pool3
I0505 09:25:52.268064  5922 net.cpp:144] Setting up pool3
I0505 09:25:52.268071  5922 net.cpp:151] Top shape: 20 128 7 7 (125440)
I0505 09:25:52.268075  5922 net.cpp:159] Memory required for data: 20157840
I0505 09:25:52.268079  5922 layer_factory.hpp:77] Creating layer ip1
I0505 09:25:52.268090  5922 net.cpp:94] Creating Layer ip1
I0505 09:25:52.268093  5922 net.cpp:435] ip1 <- pool3
I0505 09:25:52.268098  5922 net.cpp:409] ip1 -> ip1
I0505 09:25:52.349256  5922 net.cpp:144] Setting up ip1
I0505 09:25:52.349287  5922 net.cpp:151] Top shape: 20 512 (10240)
I0505 09:25:52.349292  5922 net.cpp:159] Memory required for data: 20198800
I0505 09:25:52.349299  5922 layer_factory.hpp:77] Creating layer ip2
I0505 09:25:52.349309  5922 net.cpp:94] Creating Layer ip2
I0505 09:25:52.349314  5922 net.cpp:435] ip2 <- ip1
I0505 09:25:52.349321  5922 net.cpp:409] ip2 -> ip2
I0505 09:25:52.352603  5922 net.cpp:144] Setting up ip2
I0505 09:25:52.352613  5922 net.cpp:151] Top shape: 20 256 (5120)
I0505 09:25:52.352617  5922 net.cpp:159] Memory required for data: 20219280
I0505 09:25:52.352624  5922 layer_factory.hpp:77] Creating layer ip3
I0505 09:25:52.352632  5922 net.cpp:94] Creating Layer ip3
I0505 09:25:52.352635  5922 net.cpp:435] ip3 <- ip2
I0505 09:25:52.352640  5922 net.cpp:409] ip3 -> ip3
I0505 09:25:52.353754  5922 net.cpp:144] Setting up ip3
I0505 09:25:52.353767  5922 net.cpp:151] Top shape: 20 50 (1000)
I0505 09:25:52.353771  5922 net.cpp:159] Memory required for data: 20223280
I0505 09:25:52.353777  5922 layer_factory.hpp:77] Creating layer loss
I0505 09:25:52.353785  5922 net.cpp:94] Creating Layer loss
I0505 09:25:52.353788  5922 net.cpp:435] loss <- ip3
I0505 09:25:52.353793  5922 net.cpp:435] loss <- label
I0505 09:25:52.353799  5922 net.cpp:409] loss -> loss
I0505 09:25:52.353816  5922 layer_factory.hpp:77] Creating layer loss
…
I0505 09:25:52.354256  5922 solver.cpp:181] Creating test net (#0) specified by net file: ./protocol/dis_5_900_dimension.protocol_distribution
I0505 09:25:52.354281  5922 net.cpp:323] The NetState phase (1) differed from the phase (0) specified by a rule in layer parameters
I0505 09:25:52.354373  5922 net.cpp:52] Initializing net from parameters: 
state {
  phase: TEST
}
layer {
  name: "intercept"
  type: "HDF5Data"
  top: "data"
  top: "label"
  include {
    phase: TEST
  }
  hdf5_data_param {
    source: "/home/purduethu/scratch/radon/d/deng106/CNNStatisticalModel/distributions/input/5_distributions_900_sample_size_test-distributions-path.txt"
    batch_size: 20
  }
}
layer {
  name: "conv1"
  type: "Convolution"
  bottom: "data"
  top: "conv1"
  param {
    lr_mult: 1
  }
  param {
    lr_mult: 2
  }
  convolution_param {
    num_output: 64
    pad: 2
    kernel_size: 5
    stride: 1
    weight_filler {
      type: "gaussian"
      std: 0.0001
    }
    bias_filler {
      type: "constant"
    }
  }
}
layer {
  name: "relu1"
  type: "ReLU"
  bottom: "conv1"
  top: "conv1"
}
layer {
  name: "pool1"
  type: "Pooling"
  bottom: "conv1"
  top: "pool1"
  pooling_param {
    pool: MAX
    kernel_size: 3
    stride: 2
  }
}
layer {
  name: "conv2"
  type: "Convolution"
  bottom: "pool1"
  top: "conv2"
  param {
    lr_mult: 1
  }
  param {
    lr_mult: 2
  }
  convolution_param {
    num_output: 128
    pad: 2
    kernel_size: 5
    stride: 1
    weight_filler {
      type: "gaussian"
      std: 0.01
    }
    bias_filler {
      type: "constant"
    }
  }
}
layer {
  name: "relu2"
  type: "ReLU"
  bottom: "conv2"
  top: "conv2"
}
layer {
  name: "conv3"
  type: "Convolution"
  bottom: "conv2"
  top: "conv3"
  param {
    lr_mult: 1
  }
  param {
    lr_mult: 2
  }
  convolution_param {
    num_output: 128
    pad: 2
    kernel_size: 5
    stride: 1
    weight_filler {
      type: "gaussian"
      std: 0.01
    }
    bias_filler {
      type: "constant"
    }
  }
}
layer {
  name: "relu3"
  type: "ReLU"
  bottom: "conv3"
  top: "conv3"
}
layer {
  name: "pool3"
  type: "Pooling"
  bottom: "conv3"
  top: "pool3"
  pooling_param {
    pool: AVE
    kernel_size: 3
    stride: 2
  }
}
layer {
  name: "ip1"
  type: "InnerProduct"
  bottom: "pool3"
  top: "ip1"
  param {
    lr_mult: 1
  }
  param {
    lr_mult: 2
  }
  inner_product_param {
    num_output: 512
    weight_filler {
      type: "gaussian"
      std: 0.1
    }
    bias_filler {
      type: "constant"
    }
  }
}
layer {
  name: "ip2"
  type: "InnerProduct"
  bottom: "ip1"
  top: "ip2"
  param {
    lr_mult: 1
  }
  param {
    lr_mult: 2
  }
  inner_product_param {
    num_output: 256
    weight_filler {
      type: "gaussian"
      std: 0.1
    }
    bias_filler {
      type: "constant"
    }
  }
}
layer {
  name: "ip3"
  type: "InnerProduct"
  bottom: "ip2"
  top: "ip3"
  param {
    lr_mult: 1
  }
  param {
    lr_mult: 2
  }
  inner_product_param {
    num_output: 50
    weight_filler {
      type: "gaussian"
      std: 0.1
    }
    bias_filler {
      type: "constant"
    }
  }
}
layer {
  name: "accuracy"
  type: "Accuracy"
  bottom: "ip3"
  bottom: "label"
  top: "accuracy"
  include {
    phase: TEST
  }
}
layer {
  name: "loss"
  type: "SoftmaxWithLoss"
  bottom: "ip3"
  bottom: "label"
  top: "loss"
}
I0505 09:25:52.354439  5922 layer_factory.hpp:77] Creating layer intercept
I0505 09:25:52.354447  5922 net.cpp:94] Creating Layer intercept
I0505 09:25:52.354452  5922 net.cpp:409] intercept -> data
I0505 09:25:52.354460  5922 net.cpp:409] intercept -> label
I0505 09:25:52.354466  5922 hdf5_data_layer.cpp:79] Loading list of HDF5 filenames from: /home/purduethu/scratch/radon/d/deng106/CNNStatisticalModel/distributions/input/5_distributions_900_sample_size_test-distributions-path.txt
I0505 09:25:52.354486  5922 hdf5_data_layer.cpp:93] Number of HDF5 files: 1
I0505 09:25:52.389137  5922 net.cpp:144] Setting up intercept
I0505 09:25:52.389170  5922 net.cpp:151] Top shape: 20 1 30 30 (18000)
I0505 09:25:52.389176  5922 net.cpp:151] Top shape: 20 (20)
I0505 09:25:52.389180  5922 net.cpp:159] Memory required for data: 72080
I0505 09:25:52.389186  5922 layer_factory.hpp:77] Creating layer label_intercept_1_split
I0505 09:25:52.389214  5922 net.cpp:94] Creating Layer label_intercept_1_split
I0505 09:25:52.389219  5922 net.cpp:435] label_intercept_1_split <- label
I0505 09:25:52.389225  5922 net.cpp:409] label_intercept_1_split -> label_intercept_1_split_0
I0505 09:25:52.389235  5922 net.cpp:409] label_intercept_1_split -> label_intercept_1_split_1
I0505 09:25:52.389261  5922 net.cpp:144] Setting up label_intercept_1_split
I0505 09:25:52.389268  5922 net.cpp:151] Top shape: 20 (20)
I0505 09:25:52.389272  5922 net.cpp:151] Top shape: 20 (20)
I0505 09:25:52.389284  5922 net.cpp:159] Memory required for data: 72240
I0505 09:25:52.389288  5922 layer_factory.hpp:77] Creating layer conv1
I0505 09:25:52.389300  5922 net.cpp:94] Creating Layer conv1
I0505 09:25:52.389305  5922 net.cpp:435] conv1 <- data
I0505 09:25:52.389310  5922 net.cpp:409] conv1 -> conv1
I0505 09:25:52.390604  5922 net.cpp:144] Setting up conv1
I0505 09:25:52.390617  5922 net.cpp:151] Top shape: 20 64 30 30 (1152000)
I0505 09:25:52.390621  5922 net.cpp:159] Memory required for data: 4680240
I0505 09:25:52.390631  5922 layer_factory.hpp:77] Creating layer relu1
I0505 09:25:52.390640  5922 net.cpp:94] Creating Layer relu1
I0505 09:25:52.390643  5922 net.cpp:435] relu1 <- conv1
I0505 09:25:52.390647  5922 net.cpp:396] relu1 -> conv1 (in-place)
I0505 09:25:52.390655  5922 net.cpp:144] Setting up relu1
I0505 09:25:52.390661  5922 net.cpp:151] Top shape: 20 64 30 30 (1152000)
I0505 09:25:52.390664  5922 net.cpp:159] Memory required for data: 9288240
I0505 09:25:52.390667  5922 layer_factory.hpp:77] Creating layer pool1
I0505 09:25:52.390674  5922 net.cpp:94] Creating Layer pool1
I0505 09:25:52.390678  5922 net.cpp:435] pool1 <- conv1
I0505 09:25:52.390683  5922 net.cpp:409] pool1 -> pool1
I0505 09:25:52.390715  5922 net.cpp:144] Setting up pool1
I0505 09:25:52.390722  5922 net.cpp:151] Top shape: 20 64 15 15 (288000)
I0505 09:25:52.390727  5922 net.cpp:159] Memory required for data: 10440240
I0505 09:25:52.390729  5922 layer_factory.hpp:77] Creating layer conv2
I0505 09:25:52.390738  5922 net.cpp:94] Creating Layer conv2
I0505 09:25:52.390743  5922 net.cpp:435] conv2 <- pool1
I0505 09:25:52.390748  5922 net.cpp:409] conv2 -> conv2
I0505 09:25:52.398608  5922 net.cpp:144] Setting up conv2
I0505 09:25:52.398624  5922 net.cpp:151] Top shape: 20 128 15 15 (576000)
I0505 09:25:52.398629  5922 net.cpp:159] Memory required for data: 12744240
I0505 09:25:52.398638  5922 layer_factory.hpp:77] Creating layer relu2
I0505 09:25:52.398644  5922 net.cpp:94] Creating Layer relu2
I0505 09:25:52.398648  5922 net.cpp:435] relu2 <- conv2
I0505 09:25:52.398653  5922 net.cpp:396] relu2 -> conv2 (in-place)
I0505 09:25:52.398661  5922 net.cpp:144] Setting up relu2
I0505 09:25:52.398666  5922 net.cpp:151] Top shape: 20 128 15 15 (576000)
I0505 09:25:52.398670  5922 net.cpp:159] Memory required for data: 15048240
I0505 09:25:52.398674  5922 layer_factory.hpp:77] Creating layer conv3
I0505 09:25:52.398681  5922 net.cpp:94] Creating Layer conv3
I0505 09:25:52.398686  5922 net.cpp:435] conv3 <- conv2
I0505 09:25:52.398691  5922 net.cpp:409] conv3 -> conv3
I0505 09:25:52.413864  5922 net.cpp:144] Setting up conv3
I0505 09:25:52.413904  5922 net.cpp:151] Top shape: 20 128 15 15 (576000)
I0505 09:25:52.413918  5922 net.cpp:159] Memory required for data: 17352240
I0505 09:25:52.413940  5922 layer_factory.hpp:77] Creating layer relu3
I0505 09:25:52.413960  5922 net.cpp:94] Creating Layer relu3
I0505 09:25:52.413971  5922 net.cpp:435] relu3 <- conv3
I0505 09:25:52.413986  5922 net.cpp:396] relu3 -> conv3 (in-place)
I0505 09:25:52.414007  5922 net.cpp:144] Setting up relu3
I0505 09:25:52.414022  5922 net.cpp:151] Top shape: 20 128 15 15 (576000)
I0505 09:25:52.414032  5922 net.cpp:159] Memory required for data: 19656240
I0505 09:25:52.414042  5922 layer_factory.hpp:77] Creating layer pool3
I0505 09:25:52.414057  5922 net.cpp:94] Creating Layer pool3
I0505 09:25:52.414067  5922 net.cpp:435] pool3 <- conv3
I0505 09:25:52.414085  5922 net.cpp:409] pool3 -> pool3
I0505 09:25:52.414155  5922 net.cpp:144] Setting up pool3
I0505 09:25:52.414182  5922 net.cpp:151] Top shape: 20 128 7 7 (125440)
I0505 09:25:52.414193  5922 net.cpp:159] Memory required for data: 20158000
I0505 09:25:52.414203  5922 layer_factory.hpp:77] Creating layer ip1
I0505 09:25:52.414222  5922 net.cpp:94] Creating Layer ip1
I0505 09:25:52.414232  5922 net.cpp:435] ip1 <- pool3
I0505 09:25:52.414245  5922 net.cpp:409] ip1 -> ip1
I0505 09:25:52.495383  5922 net.cpp:144] Setting up ip1
I0505 09:25:52.495415  5922 net.cpp:151] Top shape: 20 512 (10240)
I0505 09:25:52.495420  5922 net.cpp:159] Memory required for data: 20198960
I0505 09:25:52.495440  5922 layer_factory.hpp:77] Creating layer ip2
I0505 09:25:52.495451  5922 net.cpp:94] Creating Layer ip2
I0505 09:25:52.495456  5922 net.cpp:435] ip2 <- ip1
I0505 09:25:52.495463  5922 net.cpp:409] ip2 -> ip2
I0505 09:25:52.498745  5922 net.cpp:144] Setting up ip2
I0505 09:25:52.498754  5922 net.cpp:151] Top shape: 20 256 (5120)
I0505 09:25:52.498757  5922 net.cpp:159] Memory required for data: 20219440
I0505 09:25:52.498766  5922 layer_factory.hpp:77] Creating layer ip3
I0505 09:25:52.498773  5922 net.cpp:94] Creating Layer ip3
I0505 09:25:52.498776  5922 net.cpp:435] ip3 <- ip2
I0505 09:25:52.498782  5922 net.cpp:409] ip3 -> ip3
I0505 09:25:52.499172  5922 net.cpp:144] Setting up ip3
I0505 09:25:52.499179  5922 net.cpp:151] Top shape: 20 50 (1000)
I0505 09:25:52.499183  5922 net.cpp:159] Memory required for data: 20223440
I0505 09:25:52.499188  5922 layer_factory.hpp:77] Creating layer ip3_ip3_0_split
I0505 09:25:52.499194  5922 net.cpp:94] Creating Layer ip3_ip3_0_split
I0505 09:25:52.499198  5922 net.cpp:435] ip3_ip3_0_split <- ip3
I0505 09:25:52.499202  5922 net.cpp:409] ip3_ip3_0_split -> ip3_ip3_0_split_0
I0505 09:25:52.499209  5922 net.cpp:409] ip3_ip3_0_split -> ip3_ip3_0_split_1
I0505 09:25:52.499234  5922 net.cpp:144] Setting up ip3_ip3_0_split
I0505 09:25:52.499240  5922 net.cpp:151] Top shape: 20 50 (1000)
I0505 09:25:52.499244  5922 net.cpp:151] Top shape: 20 50 (1000)
I0505 09:25:52.499248  5922 net.cpp:159] Memory required for data: 20231440
I0505 09:25:52.499251  5922 layer_factory.hpp:77] Creating layer accuracy
I0505 09:25:52.499256  5922 net.cpp:94] Creating Layer accuracy
I0505 09:25:52.499260  5922 net.cpp:435] accuracy <- ip3_ip3_0_split_0
I0505 09:25:52.499265  5922 net.cpp:435] accuracy <- label_intercept_1_split_0
I0505 09:25:52.499270  5922 net.cpp:409] accuracy -> accuracy
…
