…
I0503 02:54:52.525164 17595 net.cpp:323] The NetState phase (0) differed from the phase (1) specified by a rule in layer intercept
I0503 02:54:52.525180 17595 net.cpp:323] The NetState phase (0) differed from the phase (1) specified by a rule in layer loss
I0503 02:54:52.525259 17595 net.cpp:52] Initializing net from parameters: 
state {
  phase: TRAIN
}
layer {
  name: "parameters"
  type: "HDF5Data"
  top: "data"
  top: "label"
  include {
    phase: TRAIN
  }
  hdf5_data_param {
    source: "/home/purduethu/scratch/radon/d/deng106/CNNStatisticalModel/distributions/input/20_distributions_100_sample_size_train-parameters-path.txt"
    batch_size: 20
  }
}
layer {
  name: "conv1"
  type: "Convolution"
  bottom: "data"
  top: "conv1"
  param {
    lr_mult: 1
  }
  param {
    lr_mult: 2
  }
  convolution_param {
    num_output: 64
    pad: 2
    kernel_size: 5
    stride: 1
    weight_filler {
      type: "gaussian"
      std: 0.0001
    }
    bias_filler {
      type: "constant"
    }
  }
}
layer {
  name: "relu1"
  type: "ReLU"
  bottom: "conv1"
  top: "conv1"
}
layer {
  name: "conv2"
  type: "Convolution"
  bottom: "conv1"
  top: "conv2"
  param {
    lr_mult: 1
  }
  param {
    lr_mult: 2
  }
  convolution_param {
    num_output: 64
    pad: 2
    kernel_size: 5
    stride: 1
    weight_filler {
      type: "gaussian"
      std: 0.01
    }
    bias_filler {
      type: "constant"
    }
  }
}
layer {
  name: "relu2"
  type: "ReLU"
  bottom: "conv2"
  top: "conv2"
}
layer {
  name: "pool2"
  type: "Pooling"
  bottom: "conv2"
  top: "pool2"
  pooling_param {
    pool: MAX
    kernel_size: 3
    stride: 2
  }
}
layer {
  name: "conv3"
  type: "Convolution"
  bottom: "pool2"
  top: "conv3"
  param {
    lr_mult: 1
  }
  param {
    lr_mult: 2
  }
  convolution_param {
    num_output: 128
    pad: 2
    kernel_size: 5
    stride: 1
    weight_filler {
      type: "gaussian"
      std: 0.01
    }
    bias_filler {
      type: "constant"
    }
  }
}
layer {
  name: "relu3"
  type: "ReLU"
  bottom: "conv3"
  top: "conv3"
}
layer {
  name: "conv4"
  type: "Convolution"
  bottom: "conv3"
  top: "conv4"
  param {
    lr_mult: 1
  }
  param {
    lr_mult: 2
  }
  convolution_param {
    num_output: 128
    pad: 2
    kernel_size: 5
    stride: 1
    weight_filler {
      type: "gaussian"
      std: 0.01
    }
    bias_filler {
      type: "constant"
    }
  }
}
layer {
  name: "relu4"
  type: "ReLU"
  bottom: "conv4"
  top: "conv4"
}
layer {
  name: "conv5"
  type: "Convolution"
  bottom: "conv4"
  top: "conv5"
  param {
    lr_mult: 1
  }
  param {
    lr_mult: 2
  }
  convolution_param {
    num_output: 128
    pad: 2
    kernel_size: 5
    stride: 1
    weight_filler {
      type: "gaussian"
      std: 0.01
    }
    bias_filler {
      type: "constant"
    }
  }
}
layer {
  name: "relu5"
  type: "ReLU"
  bottom: "conv5"
  top: "conv5"
}
layer {
  name: "pool5"
  type: "Pooling"
  bottom: "conv5"
  top: "pool5"
  pooling_param {
    pool: AVE
    kernel_size: 3
    stride: 2
  }
}
layer {
  name: "ip1"
  type: "InnerProduct"
  bottom: "pool5"
  top: "ip1"
  param {
    lr_mult: 1
  }
  param {
    lr_mult: 2
  }
  inner_product_param {
    num_output: 1024
    weight_filler {
      type: "gaussian"
      std: 0.1
    }
    bias_filler {
      type: "constant"
    }
  }
}
layer {
  name: "ip2"
  type: "InnerProduct"
  bottom: "ip1"
  top: "ip2"
  param {
    lr_mult: 1
  }
  param {
    lr_mult: 2
  }
  inner_product_param {
    num_output: 512
    weight_filler {
      type: "gaussian"
      std: 0.1
    }
    bias_filler {
      type: "constant"
    }
  }
}
layer {
  name: "ip3"
  type: "InnerProduct"
  bottom: "ip2"
  top: "ip3"
  param {
    lr_mult: 1
  }
  param {
    lr_mult: 2
  }
  inner_product_param {
    num_output: 1
    weight_filler {
      type: "gaussian"
      std: 0.1
    }
    bias_filler {
      type: "constant"
    }
  }
}
layer {
  name: "loss"
  type: "HuberLoss"
  bottom: "ip3"
  bottom: "label"
  top: "loss"
  include {
    phase: TRAIN
  }
}
I0503 02:54:52.525312 17595 layer_factory.hpp:77] Creating layer parameters
I0503 02:54:52.525329 17595 net.cpp:94] Creating Layer parameters
I0503 02:54:52.525334 17595 net.cpp:409] parameters -> data
I0503 02:54:52.525343 17595 net.cpp:409] parameters -> label
I0503 02:54:52.525351 17595 hdf5_data_layer.cpp:79] Loading list of HDF5 filenames from: /home/purduethu/scratch/radon/d/deng106/CNNStatisticalModel/distributions/input/20_distributions_100_sample_size_train-parameters-path.txt
I0503 02:54:52.525368 17595 hdf5_data_layer.cpp:93] Number of HDF5 files: 1
I0503 02:54:52.525919 17595 hdf5.cpp:32] Datatype class: H5T_FLOAT
I0503 02:54:52.593789 17595 net.cpp:144] Setting up parameters
I0503 02:54:52.593822 17595 net.cpp:151] Top shape: 20 1 10 10 (2000)
I0503 02:54:52.593827 17595 net.cpp:151] Top shape: 20 (20)
I0503 02:54:52.593830 17595 net.cpp:159] Memory required for data: 8080
I0503 02:54:52.593837 17595 layer_factory.hpp:77] Creating layer conv1
I0503 02:54:52.593859 17595 net.cpp:94] Creating Layer conv1
I0503 02:54:52.593864 17595 net.cpp:435] conv1 <- data
I0503 02:54:52.593871 17595 net.cpp:409] conv1 -> conv1
I0503 02:54:52.598084 17595 net.cpp:144] Setting up conv1
I0503 02:54:52.598100 17595 net.cpp:151] Top shape: 20 64 10 10 (128000)
I0503 02:54:52.598105 17595 net.cpp:159] Memory required for data: 520080
I0503 02:54:52.598115 17595 layer_factory.hpp:77] Creating layer relu1
I0503 02:54:52.598124 17595 net.cpp:94] Creating Layer relu1
I0503 02:54:52.598129 17595 net.cpp:435] relu1 <- conv1
I0503 02:54:52.598132 17595 net.cpp:396] relu1 -> conv1 (in-place)
I0503 02:54:52.598145 17595 net.cpp:144] Setting up relu1
I0503 02:54:52.598150 17595 net.cpp:151] Top shape: 20 64 10 10 (128000)
I0503 02:54:52.598153 17595 net.cpp:159] Memory required for data: 1032080
I0503 02:54:52.598156 17595 layer_factory.hpp:77] Creating layer conv2
I0503 02:54:52.598165 17595 net.cpp:94] Creating Layer conv2
I0503 02:54:52.598167 17595 net.cpp:435] conv2 <- conv1
I0503 02:54:52.598172 17595 net.cpp:409] conv2 -> conv2
I0503 02:54:52.603438 17595 net.cpp:144] Setting up conv2
I0503 02:54:52.603454 17595 net.cpp:151] Top shape: 20 64 10 10 (128000)
I0503 02:54:52.603458 17595 net.cpp:159] Memory required for data: 1544080
I0503 02:54:52.603467 17595 layer_factory.hpp:77] Creating layer relu2
I0503 02:54:52.603474 17595 net.cpp:94] Creating Layer relu2
I0503 02:54:52.603478 17595 net.cpp:435] relu2 <- conv2
I0503 02:54:52.603482 17595 net.cpp:396] relu2 -> conv2 (in-place)
I0503 02:54:52.603489 17595 net.cpp:144] Setting up relu2
I0503 02:54:52.603494 17595 net.cpp:151] Top shape: 20 64 10 10 (128000)
I0503 02:54:52.603497 17595 net.cpp:159] Memory required for data: 2056080
I0503 02:54:52.603500 17595 layer_factory.hpp:77] Creating layer pool2
I0503 02:54:52.603507 17595 net.cpp:94] Creating Layer pool2
I0503 02:54:52.603515 17595 net.cpp:435] pool2 <- conv2
I0503 02:54:52.603520 17595 net.cpp:409] pool2 -> pool2
I0503 02:54:52.603579 17595 net.cpp:144] Setting up pool2
I0503 02:54:52.603586 17595 net.cpp:151] Top shape: 20 64 5 5 (32000)
I0503 02:54:52.603590 17595 net.cpp:159] Memory required for data: 2184080
I0503 02:54:52.603593 17595 layer_factory.hpp:77] Creating layer conv3
I0503 02:54:52.603601 17595 net.cpp:94] Creating Layer conv3
I0503 02:54:52.603605 17595 net.cpp:435] conv3 <- pool2
I0503 02:54:52.603610 17595 net.cpp:409] conv3 -> conv3
I0503 02:54:52.611825 17595 net.cpp:144] Setting up conv3
I0503 02:54:52.611840 17595 net.cpp:151] Top shape: 20 128 5 5 (64000)
I0503 02:54:52.611843 17595 net.cpp:159] Memory required for data: 2440080
I0503 02:54:52.611851 17595 layer_factory.hpp:77] Creating layer relu3
I0503 02:54:52.611857 17595 net.cpp:94] Creating Layer relu3
I0503 02:54:52.611861 17595 net.cpp:435] relu3 <- conv3
I0503 02:54:52.611865 17595 net.cpp:396] relu3 -> conv3 (in-place)
I0503 02:54:52.611872 17595 net.cpp:144] Setting up relu3
I0503 02:54:52.611877 17595 net.cpp:151] Top shape: 20 128 5 5 (64000)
I0503 02:54:52.611881 17595 net.cpp:159] Memory required for data: 2696080
I0503 02:54:52.611883 17595 layer_factory.hpp:77] Creating layer conv4
I0503 02:54:52.611891 17595 net.cpp:94] Creating Layer conv4
I0503 02:54:52.611896 17595 net.cpp:435] conv4 <- conv3
I0503 02:54:52.611901 17595 net.cpp:409] conv4 -> conv4
I0503 02:54:52.627255 17595 net.cpp:144] Setting up conv4
I0503 02:54:52.627272 17595 net.cpp:151] Top shape: 20 128 5 5 (64000)
I0503 02:54:52.627276 17595 net.cpp:159] Memory required for data: 2952080
I0503 02:54:52.627284 17595 layer_factory.hpp:77] Creating layer relu4
I0503 02:54:52.627290 17595 net.cpp:94] Creating Layer relu4
I0503 02:54:52.627293 17595 net.cpp:435] relu4 <- conv4
I0503 02:54:52.627298 17595 net.cpp:396] relu4 -> conv4 (in-place)
I0503 02:54:52.627305 17595 net.cpp:144] Setting up relu4
I0503 02:54:52.627310 17595 net.cpp:151] Top shape: 20 128 5 5 (64000)
I0503 02:54:52.627312 17595 net.cpp:159] Memory required for data: 3208080
I0503 02:54:52.627316 17595 layer_factory.hpp:77] Creating layer conv5
I0503 02:54:52.627323 17595 net.cpp:94] Creating Layer conv5
I0503 02:54:52.627327 17595 net.cpp:435] conv5 <- conv4
I0503 02:54:52.627332 17595 net.cpp:409] conv5 -> conv5
I0503 02:54:52.641800 17595 net.cpp:144] Setting up conv5
I0503 02:54:52.641819 17595 net.cpp:151] Top shape: 20 128 5 5 (64000)
I0503 02:54:52.641824 17595 net.cpp:159] Memory required for data: 3464080
I0503 02:54:52.641834 17595 layer_factory.hpp:77] Creating layer relu5
I0503 02:54:52.641840 17595 net.cpp:94] Creating Layer relu5
I0503 02:54:52.641844 17595 net.cpp:435] relu5 <- conv5
I0503 02:54:52.641849 17595 net.cpp:396] relu5 -> conv5 (in-place)
I0503 02:54:52.641857 17595 net.cpp:144] Setting up relu5
I0503 02:54:52.641861 17595 net.cpp:151] Top shape: 20 128 5 5 (64000)
I0503 02:54:52.641865 17595 net.cpp:159] Memory required for data: 3720080
I0503 02:54:52.641868 17595 layer_factory.hpp:77] Creating layer pool5
I0503 02:54:52.641873 17595 net.cpp:94] Creating Layer pool5
I0503 02:54:52.641876 17595 net.cpp:435] pool5 <- conv5
I0503 02:54:52.641881 17595 net.cpp:409] pool5 -> pool5
I0503 02:54:52.641924 17595 net.cpp:144] Setting up pool5
I0503 02:54:52.641932 17595 net.cpp:151] Top shape: 20 128 2 2 (10240)
I0503 02:54:52.641935 17595 net.cpp:159] Memory required for data: 3761040
I0503 02:54:52.641938 17595 layer_factory.hpp:77] Creating layer ip1
I0503 02:54:52.641949 17595 net.cpp:94] Creating Layer ip1
I0503 02:54:52.641952 17595 net.cpp:435] ip1 <- pool5
I0503 02:54:52.641957 17595 net.cpp:409] ip1 -> ip1
I0503 02:54:52.655804 17595 net.cpp:144] Setting up ip1
I0503 02:54:52.655824 17595 net.cpp:151] Top shape: 20 1024 (20480)
I0503 02:54:52.655828 17595 net.cpp:159] Memory required for data: 3842960
I0503 02:54:52.655835 17595 layer_factory.hpp:77] Creating layer ip2
I0503 02:54:52.655843 17595 net.cpp:94] Creating Layer ip2
I0503 02:54:52.655853 17595 net.cpp:435] ip2 <- ip1
I0503 02:54:52.655859 17595 net.cpp:409] ip2 -> ip2
I0503 02:54:52.668869 17595 net.cpp:144] Setting up ip2
I0503 02:54:52.668885 17595 net.cpp:151] Top shape: 20 512 (10240)
I0503 02:54:52.668889 17595 net.cpp:159] Memory required for data: 3883920
I0503 02:54:52.668896 17595 layer_factory.hpp:77] Creating layer ip3
I0503 02:54:52.668903 17595 net.cpp:94] Creating Layer ip3
I0503 02:54:52.668907 17595 net.cpp:435] ip3 <- ip2
I0503 02:54:52.668912 17595 net.cpp:409] ip3 -> ip3
I0503 02:54:52.669031 17595 net.cpp:144] Setting up ip3
I0503 02:54:52.669039 17595 net.cpp:151] Top shape: 20 1 (20)
I0503 02:54:52.669042 17595 net.cpp:159] Memory required for data: 3884000
I0503 02:54:52.669047 17595 layer_factory.hpp:77] Creating layer loss
I0503 02:54:52.669056 17595 net.cpp:94] Creating Layer loss
I0503 02:54:52.669059 17595 net.cpp:435] loss <- ip3
I0503 02:54:52.669064 17595 net.cpp:435] loss <- label
I0503 02:54:52.669068 17595 net.cpp:409] loss -> loss
I0503 02:54:52.669121 17595 net.cpp:144] Setting up loss
…
I0503 02:54:52.755213 17595 net.cpp:323] The NetState phase (0) differed from the phase (1) specified by a rule in layer intercept
I0503 02:54:52.755228 17595 net.cpp:323] The NetState phase (0) differed from the phase (1) specified by a rule in layer accuracy
I0503 02:54:52.755313 17595 net.cpp:52] Initializing net from parameters: 
state {
  phase: TRAIN
}
layer {
  name: "parameters"
  type: "HDF5Data"
  top: "data"
  top: "label"
  include {
    phase: TRAIN
  }
  hdf5_data_param {
    source: "/home/purduethu/scratch/radon/d/deng106/CNNStatisticalModel/distributions/input/20_distributions_100_sample_size_train-distributions-path.txt"
    batch_size: 20
  }
}
layer {
  name: "conv1"
  type: "Convolution"
  bottom: "data"
  top: "conv1"
  param {
    lr_mult: 1
  }
  param {
    lr_mult: 2
  }
  convolution_param {
    num_output: 64
    pad: 2
    kernel_size: 5
    stride: 1
    weight_filler {
      type: "gaussian"
      std: 0.0001
    }
    bias_filler {
      type: "constant"
    }
  }
}
layer {
  name: "relu1"
  type: "ReLU"
  bottom: "conv1"
  top: "conv1"
}
layer {
  name: "conv2"
  type: "Convolution"
  bottom: "conv1"
  top: "conv2"
  param {
    lr_mult: 1
  }
  param {
    lr_mult: 2
  }
  convolution_param {
    num_output: 64
    pad: 2
    kernel_size: 5
    stride: 1
    weight_filler {
      type: "gaussian"
      std: 0.01
    }
    bias_filler {
      type: "constant"
    }
  }
}
layer {
  name: "relu2"
  type: "ReLU"
  bottom: "conv2"
  top: "conv2"
}
layer {
  name: "pool2"
  type: "Pooling"
  bottom: "conv2"
  top: "pool2"
  pooling_param {
    pool: MAX
    kernel_size: 3
    stride: 2
  }
}
layer {
  name: "conv3"
  type: "Convolution"
  bottom: "pool2"
  top: "conv3"
  param {
    lr_mult: 1
  }
  param {
    lr_mult: 2
  }
  convolution_param {
    num_output: 128
    pad: 2
    kernel_size: 5
    stride: 1
    weight_filler {
      type: "gaussian"
      std: 0.01
    }
    bias_filler {
      type: "constant"
    }
  }
}
layer {
  name: "relu3"
  type: "ReLU"
  bottom: "conv3"
  top: "conv3"
}
layer {
  name: "conv4"
  type: "Convolution"
  bottom: "conv3"
  top: "conv4"
  param {
    lr_mult: 1
  }
  param {
    lr_mult: 2
  }
  convolution_param {
    num_output: 128
    pad: 2
    kernel_size: 5
    stride: 1
    weight_filler {
      type: "gaussian"
      std: 0.01
    }
    bias_filler {
      type: "constant"
    }
  }
}
layer {
  name: "relu4"
  type: "ReLU"
  bottom: "conv4"
  top: "conv4"
}
layer {
  name: "conv5"
  type: "Convolution"
  bottom: "conv4"
  top: "conv5"
  param {
    lr_mult: 1
  }
  param {
    lr_mult: 2
  }
  convolution_param {
    num_output: 128
    pad: 2
    kernel_size: 5
    stride: 1
    weight_filler {
      type: "gaussian"
      std: 0.01
    }
    bias_filler {
      type: "constant"
    }
  }
}
layer {
  name: "relu5"
  type: "ReLU"
  bottom: "conv5"
  top: "conv5"
}
layer {
  name: "pool5"
  type: "Pooling"
  bottom: "conv5"
  top: "pool5"
  pooling_param {
    pool: AVE
    kernel_size: 3
    stride: 2
  }
}
layer {
  name: "ip1"
  type: "InnerProduct"
  bottom: "pool5"
  top: "ip1"
  param {
    lr_mult: 1
  }
  param {
    lr_mult: 2
  }
  inner_product_param {
    num_output: 1024
    weight_filler {
      type: "gaussian"
      std: 0.1
    }
    bias_filler {
      type: "constant"
    }
  }
}
layer {
  name: "ip2"
  type: "InnerProduct"
  bottom: "ip1"
  top: "ip2"
  param {
    lr_mult: 1
  }
  param {
    lr_mult: 2
  }
  inner_product_param {
    num_output: 512
    weight_filler {
      type: "gaussian"
      std: 0.1
    }
    bias_filler {
      type: "constant"
    }
  }
}
layer {
  name: "ip3"
  type: "InnerProduct"
  bottom: "ip2"
  top: "ip3"
  param {
    lr_mult: 1
  }
  param {
    lr_mult: 2
  }
  inner_product_param {
    num_output: 50
    weight_filler {
      type: "gaussian"
      std: 0.1
    }
    bias_filler {
      type: "constant"
    }
  }
}
layer {
  name: "loss"
  type: "SoftmaxWithLoss"
  bottom: "ip3"
  bottom: "label"
  top: "loss"
}
I0503 02:54:52.755365 17595 layer_factory.hpp:77] Creating layer parameters
I0503 02:54:52.755373 17595 net.cpp:94] Creating Layer parameters
I0503 02:54:52.755378 17595 net.cpp:409] parameters -> data
I0503 02:54:52.755384 17595 net.cpp:409] parameters -> label
I0503 02:54:52.755389 17595 hdf5_data_layer.cpp:79] Loading list of HDF5 filenames from: /home/purduethu/scratch/radon/d/deng106/CNNStatisticalModel/distributions/input/20_distributions_100_sample_size_train-distributions-path.txt
I0503 02:54:52.755405 17595 hdf5_data_layer.cpp:93] Number of HDF5 files: 1
I0503 02:54:52.820039 17595 hdf5.cpp:35] Datatype class: H5T_INTEGER
I0503 02:54:52.821113 17595 net.cpp:144] Setting up parameters
I0503 02:54:52.821131 17595 net.cpp:151] Top shape: 20 1 10 10 (2000)
I0503 02:54:52.821136 17595 net.cpp:151] Top shape: 20 (20)
I0503 02:54:52.821141 17595 net.cpp:159] Memory required for data: 8080
I0503 02:54:52.821146 17595 layer_factory.hpp:77] Creating layer conv1
I0503 02:54:52.821163 17595 net.cpp:94] Creating Layer conv1
I0503 02:54:52.821167 17595 net.cpp:435] conv1 <- data
I0503 02:54:52.821173 17595 net.cpp:409] conv1 -> conv1
I0503 02:54:52.823014 17595 net.cpp:144] Setting up conv1
I0503 02:54:52.823027 17595 net.cpp:151] Top shape: 20 64 10 10 (128000)
I0503 02:54:52.823031 17595 net.cpp:159] Memory required for data: 520080
I0503 02:54:52.823042 17595 layer_factory.hpp:77] Creating layer relu1
I0503 02:54:52.823050 17595 net.cpp:94] Creating Layer relu1
I0503 02:54:52.823053 17595 net.cpp:435] relu1 <- conv1
I0503 02:54:52.823057 17595 net.cpp:396] relu1 -> conv1 (in-place)
I0503 02:54:52.823065 17595 net.cpp:144] Setting up relu1
I0503 02:54:52.823071 17595 net.cpp:151] Top shape: 20 64 10 10 (128000)
I0503 02:54:52.823073 17595 net.cpp:159] Memory required for data: 1032080
I0503 02:54:52.823076 17595 layer_factory.hpp:77] Creating layer conv2
I0503 02:54:52.823083 17595 net.cpp:94] Creating Layer conv2
I0503 02:54:52.823087 17595 net.cpp:435] conv2 <- conv1
I0503 02:54:52.823091 17595 net.cpp:409] conv2 -> conv2
I0503 02:54:52.828543 17595 net.cpp:144] Setting up conv2
I0503 02:54:52.828568 17595 net.cpp:151] Top shape: 20 64 10 10 (128000)
I0503 02:54:52.828573 17595 net.cpp:159] Memory required for data: 1544080
I0503 02:54:52.828582 17595 layer_factory.hpp:77] Creating layer relu2
I0503 02:54:52.828588 17595 net.cpp:94] Creating Layer relu2
I0503 02:54:52.828591 17595 net.cpp:435] relu2 <- conv2
I0503 02:54:52.828596 17595 net.cpp:396] relu2 -> conv2 (in-place)
I0503 02:54:52.828603 17595 net.cpp:144] Setting up relu2
I0503 02:54:52.828608 17595 net.cpp:151] Top shape: 20 64 10 10 (128000)
I0503 02:54:52.828610 17595 net.cpp:159] Memory required for data: 2056080
I0503 02:54:52.828613 17595 layer_factory.hpp:77] Creating layer pool2
I0503 02:54:52.828619 17595 net.cpp:94] Creating Layer pool2
I0503 02:54:52.828622 17595 net.cpp:435] pool2 <- conv2
I0503 02:54:52.828627 17595 net.cpp:409] pool2 -> pool2
I0503 02:54:52.828683 17595 net.cpp:144] Setting up pool2
I0503 02:54:52.828691 17595 net.cpp:151] Top shape: 20 64 5 5 (32000)
I0503 02:54:52.828694 17595 net.cpp:159] Memory required for data: 2184080
I0503 02:54:52.828697 17595 layer_factory.hpp:77] Creating layer conv3
I0503 02:54:52.828706 17595 net.cpp:94] Creating Layer conv3
I0503 02:54:52.828709 17595 net.cpp:435] conv3 <- pool2
I0503 02:54:52.828713 17595 net.cpp:409] conv3 -> conv3
I0503 02:54:52.837358 17595 net.cpp:144] Setting up conv3
I0503 02:54:52.837374 17595 net.cpp:151] Top shape: 20 128 5 5 (64000)
I0503 02:54:52.837378 17595 net.cpp:159] Memory required for data: 2440080
I0503 02:54:52.837386 17595 layer_factory.hpp:77] Creating layer relu3
I0503 02:54:52.837393 17595 net.cpp:94] Creating Layer relu3
I0503 02:54:52.837396 17595 net.cpp:435] relu3 <- conv3
I0503 02:54:52.837401 17595 net.cpp:396] relu3 -> conv3 (in-place)
I0503 02:54:52.837409 17595 net.cpp:144] Setting up relu3
I0503 02:54:52.837412 17595 net.cpp:151] Top shape: 20 128 5 5 (64000)
I0503 02:54:52.837415 17595 net.cpp:159] Memory required for data: 2696080
I0503 02:54:52.837419 17595 layer_factory.hpp:77] Creating layer conv4
I0503 02:54:52.837427 17595 net.cpp:94] Creating Layer conv4
I0503 02:54:52.837430 17595 net.cpp:435] conv4 <- conv3
I0503 02:54:52.837435 17595 net.cpp:409] conv4 -> conv4
I0503 02:54:52.852113 17595 net.cpp:144] Setting up conv4
I0503 02:54:52.852131 17595 net.cpp:151] Top shape: 20 128 5 5 (64000)
I0503 02:54:52.852135 17595 net.cpp:159] Memory required for data: 2952080
I0503 02:54:52.852143 17595 layer_factory.hpp:77] Creating layer relu4
I0503 02:54:52.852149 17595 net.cpp:94] Creating Layer relu4
I0503 02:54:52.852154 17595 net.cpp:435] relu4 <- conv4
I0503 02:54:52.852157 17595 net.cpp:396] relu4 -> conv4 (in-place)
I0503 02:54:52.852165 17595 net.cpp:144] Setting up relu4
I0503 02:54:52.852169 17595 net.cpp:151] Top shape: 20 128 5 5 (64000)
I0503 02:54:52.852172 17595 net.cpp:159] Memory required for data: 3208080
I0503 02:54:52.852175 17595 layer_factory.hpp:77] Creating layer conv5
I0503 02:54:52.852183 17595 net.cpp:94] Creating Layer conv5
I0503 02:54:52.852186 17595 net.cpp:435] conv5 <- conv4
I0503 02:54:52.852191 17595 net.cpp:409] conv5 -> conv5
I0503 02:54:52.867180 17595 net.cpp:144] Setting up conv5
I0503 02:54:52.867199 17595 net.cpp:151] Top shape: 20 128 5 5 (64000)
I0503 02:54:52.867203 17595 net.cpp:159] Memory required for data: 3464080
I0503 02:54:52.867213 17595 layer_factory.hpp:77] Creating layer relu5
I0503 02:54:52.867219 17595 net.cpp:94] Creating Layer relu5
I0503 02:54:52.867223 17595 net.cpp:435] relu5 <- conv5
I0503 02:54:52.867228 17595 net.cpp:396] relu5 -> conv5 (in-place)
I0503 02:54:52.867235 17595 net.cpp:144] Setting up relu5
I0503 02:54:52.867240 17595 net.cpp:151] Top shape: 20 128 5 5 (64000)
I0503 02:54:52.867244 17595 net.cpp:159] Memory required for data: 3720080
I0503 02:54:52.867246 17595 layer_factory.hpp:77] Creating layer pool5
I0503 02:54:52.867252 17595 net.cpp:94] Creating Layer pool5
I0503 02:54:52.867255 17595 net.cpp:435] pool5 <- conv5
I0503 02:54:52.867259 17595 net.cpp:409] pool5 -> pool5
I0503 02:54:52.867303 17595 net.cpp:144] Setting up pool5
I0503 02:54:52.867311 17595 net.cpp:151] Top shape: 20 128 2 2 (10240)
I0503 02:54:52.867313 17595 net.cpp:159] Memory required for data: 3761040
I0503 02:54:52.867317 17595 layer_factory.hpp:77] Creating layer ip1
I0503 02:54:52.867324 17595 net.cpp:94] Creating Layer ip1
I0503 02:54:52.867327 17595 net.cpp:435] ip1 <- pool5
I0503 02:54:52.867332 17595 net.cpp:409] ip1 -> ip1
I0503 02:54:52.880460 17595 net.cpp:144] Setting up ip1
I0503 02:54:52.880476 17595 net.cpp:151] Top shape: 20 1024 (20480)
I0503 02:54:52.880481 17595 net.cpp:159] Memory required for data: 3842960
I0503 02:54:52.880486 17595 layer_factory.hpp:77] Creating layer ip2
I0503 02:54:52.880494 17595 net.cpp:94] Creating Layer ip2
I0503 02:54:52.880497 17595 net.cpp:435] ip2 <- ip1
I0503 02:54:52.880503 17595 net.cpp:409] ip2 -> ip2
I0503 02:54:52.893548 17595 net.cpp:144] Setting up ip2
I0503 02:54:52.893566 17595 net.cpp:151] Top shape: 20 512 (10240)
I0503 02:54:52.893570 17595 net.cpp:159] Memory required for data: 3883920
I0503 02:54:52.893576 17595 layer_factory.hpp:77] Creating layer ip3
I0503 02:54:52.893584 17595 net.cpp:94] Creating Layer ip3
I0503 02:54:52.893587 17595 net.cpp:435] ip3 <- ip2
I0503 02:54:52.893592 17595 net.cpp:409] ip3 -> ip3
I0503 02:54:52.894340 17595 net.cpp:144] Setting up ip3
I0503 02:54:52.894347 17595 net.cpp:151] Top shape: 20 50 (1000)
I0503 02:54:52.894357 17595 net.cpp:159] Memory required for data: 3887920
I0503 02:54:52.894364 17595 layer_factory.hpp:77] Creating layer loss
I0503 02:54:52.894372 17595 net.cpp:94] Creating Layer loss
I0503 02:54:52.894376 17595 net.cpp:435] loss <- ip3
I0503 02:54:52.894379 17595 net.cpp:435] loss <- label
I0503 02:54:52.894383 17595 net.cpp:409] loss -> loss
I0503 02:54:52.894390 17595 layer_factory.hpp:77] Creating layer loss
…
I0503 02:54:52.894908 17595 solver.cpp:181] Creating test net (#0) specified by net file: ./protocol/dis_20_100_dimension.protocol_distribution
I0503 02:54:52.894935 17595 net.cpp:323] The NetState phase (1) differed from the phase (0) specified by a rule in layer parameters
I0503 02:54:52.895026 17595 net.cpp:52] Initializing net from parameters: 
state {
  phase: TEST
}
layer {
  name: "intercept"
  type: "HDF5Data"
  top: "data"
  top: "label"
  include {
    phase: TEST
  }
  hdf5_data_param {
    source: "/home/purduethu/scratch/radon/d/deng106/CNNStatisticalModel/distributions/input/20_distributions_100_sample_size_test-distributions-path.txt"
    batch_size: 20
  }
}
layer {
  name: "conv1"
  type: "Convolution"
  bottom: "data"
  top: "conv1"
  param {
    lr_mult: 1
  }
  param {
    lr_mult: 2
  }
  convolution_param {
    num_output: 64
    pad: 2
    kernel_size: 5
    stride: 1
    weight_filler {
      type: "gaussian"
      std: 0.0001
    }
    bias_filler {
      type: "constant"
    }
  }
}
layer {
  name: "relu1"
  type: "ReLU"
  bottom: "conv1"
  top: "conv1"
}
layer {
  name: "conv2"
  type: "Convolution"
  bottom: "conv1"
  top: "conv2"
  param {
    lr_mult: 1
  }
  param {
    lr_mult: 2
  }
  convolution_param {
    num_output: 64
    pad: 2
    kernel_size: 5
    stride: 1
    weight_filler {
      type: "gaussian"
      std: 0.01
    }
    bias_filler {
      type: "constant"
    }
  }
}
layer {
  name: "relu2"
  type: "ReLU"
  bottom: "conv2"
  top: "conv2"
}
layer {
  name: "pool2"
  type: "Pooling"
  bottom: "conv2"
  top: "pool2"
  pooling_param {
    pool: MAX
    kernel_size: 3
    stride: 2
  }
}
layer {
  name: "conv3"
  type: "Convolution"
  bottom: "pool2"
  top: "conv3"
  param {
    lr_mult: 1
  }
  param {
    lr_mult: 2
  }
  convolution_param {
    num_output: 128
    pad: 2
    kernel_size: 5
    stride: 1
    weight_filler {
      type: "gaussian"
      std: 0.01
    }
    bias_filler {
      type: "constant"
    }
  }
}
layer {
  name: "relu3"
  type: "ReLU"
  bottom: "conv3"
  top: "conv3"
}
layer {
  name: "conv4"
  type: "Convolution"
  bottom: "conv3"
  top: "conv4"
  param {
    lr_mult: 1
  }
  param {
    lr_mult: 2
  }
  convolution_param {
    num_output: 128
    pad: 2
    kernel_size: 5
    stride: 1
    weight_filler {
      type: "gaussian"
      std: 0.01
    }
    bias_filler {
      type: "constant"
    }
  }
}
layer {
  name: "relu4"
  type: "ReLU"
  bottom: "conv4"
  top: "conv4"
}
layer {
  name: "conv5"
  type: "Convolution"
  bottom: "conv4"
  top: "conv5"
  param {
    lr_mult: 1
  }
  param {
    lr_mult: 2
  }
  convolution_param {
    num_output: 128
    pad: 2
    kernel_size: 5
    stride: 1
    weight_filler {
      type: "gaussian"
      std: 0.01
    }
    bias_filler {
      type: "constant"
    }
  }
}
layer {
  name: "relu5"
  type: "ReLU"
  bottom: "conv5"
  top: "conv5"
}
layer {
  name: "pool5"
  type: "Pooling"
  bottom: "conv5"
  top: "pool5"
  pooling_param {
    pool: AVE
    kernel_size: 3
    stride: 2
  }
}
layer {
  name: "ip1"
  type: "InnerProduct"
  bottom: "pool5"
  top: "ip1"
  param {
    lr_mult: 1
  }
  param {
    lr_mult: 2
  }
  inner_product_param {
    num_output: 1024
    weight_filler {
      type: "gaussian"
      std: 0.1
    }
    bias_filler {
      type: "constant"
    }
  }
}
layer {
  name: "ip2"
  type: "InnerProduct"
  bottom: "ip1"
  top: "ip2"
  param {
    lr_mult: 1
  }
  param {
    lr_mult: 2
  }
  inner_product_param {
    num_output: 512
    weight_filler {
      type: "gaussian"
      std: 0.1
    }
    bias_filler {
      type: "constant"
    }
  }
}
layer {
  name: "ip3"
  type: "InnerProduct"
  bottom: "ip2"
  top: "ip3"
  param {
    lr_mult: 1
  }
  param {
    lr_mult: 2
  }
  inner_product_param {
    num_output: 50
    weight_filler {
      type: "gaussian"
      std: 0.1
    }
    bias_filler {
      type: "constant"
    }
  }
}
layer {
  name: "accuracy"
  type: "Accuracy"
  bottom: "ip3"
  bottom: "label"
  top: "accuracy"
  include {
    phase: TEST
  }
}
layer {
  name: "loss"
  type: "SoftmaxWithLoss"
  bottom: "ip3"
  bottom: "label"
  top: "loss"
}
I0503 02:54:52.895090 17595 layer_factory.hpp:77] Creating layer intercept
I0503 02:54:52.895099 17595 net.cpp:94] Creating Layer intercept
I0503 02:54:52.895103 17595 net.cpp:409] intercept -> data
I0503 02:54:52.895109 17595 net.cpp:409] intercept -> label
I0503 02:54:52.895115 17595 hdf5_data_layer.cpp:79] Loading list of HDF5 filenames from: /home/purduethu/scratch/radon/d/deng106/CNNStatisticalModel/distributions/input/20_distributions_100_sample_size_test-distributions-path.txt
I0503 02:54:52.895135 17595 hdf5_data_layer.cpp:93] Number of HDF5 files: 1
I0503 02:54:52.912576 17595 net.cpp:144] Setting up intercept
I0503 02:54:52.912613 17595 net.cpp:151] Top shape: 20 1 10 10 (2000)
I0503 02:54:52.912618 17595 net.cpp:151] Top shape: 20 (20)
I0503 02:54:52.912622 17595 net.cpp:159] Memory required for data: 8080
I0503 02:54:52.912628 17595 layer_factory.hpp:77] Creating layer label_intercept_1_split
I0503 02:54:52.912645 17595 net.cpp:94] Creating Layer label_intercept_1_split
I0503 02:54:52.912649 17595 net.cpp:435] label_intercept_1_split <- label
I0503 02:54:52.912655 17595 net.cpp:409] label_intercept_1_split -> label_intercept_1_split_0
I0503 02:54:52.912663 17595 net.cpp:409] label_intercept_1_split -> label_intercept_1_split_1
I0503 02:54:52.912709 17595 net.cpp:144] Setting up label_intercept_1_split
I0503 02:54:52.912715 17595 net.cpp:151] Top shape: 20 (20)
I0503 02:54:52.912719 17595 net.cpp:151] Top shape: 20 (20)
I0503 02:54:52.912722 17595 net.cpp:159] Memory required for data: 8240
I0503 02:54:52.912725 17595 layer_factory.hpp:77] Creating layer conv1
I0503 02:54:52.912736 17595 net.cpp:94] Creating Layer conv1
I0503 02:54:52.912739 17595 net.cpp:435] conv1 <- data
I0503 02:54:52.912744 17595 net.cpp:409] conv1 -> conv1
I0503 02:54:52.913594 17595 net.cpp:144] Setting up conv1
I0503 02:54:52.913606 17595 net.cpp:151] Top shape: 20 64 10 10 (128000)
I0503 02:54:52.913617 17595 net.cpp:159] Memory required for data: 520240
I0503 02:54:52.913627 17595 layer_factory.hpp:77] Creating layer relu1
I0503 02:54:52.913635 17595 net.cpp:94] Creating Layer relu1
I0503 02:54:52.913638 17595 net.cpp:435] relu1 <- conv1
I0503 02:54:52.913642 17595 net.cpp:396] relu1 -> conv1 (in-place)
I0503 02:54:52.913650 17595 net.cpp:144] Setting up relu1
I0503 02:54:52.913655 17595 net.cpp:151] Top shape: 20 64 10 10 (128000)
I0503 02:54:52.913657 17595 net.cpp:159] Memory required for data: 1032240
I0503 02:54:52.913661 17595 layer_factory.hpp:77] Creating layer conv2
I0503 02:54:52.913668 17595 net.cpp:94] Creating Layer conv2
I0503 02:54:52.913672 17595 net.cpp:435] conv2 <- conv1
I0503 02:54:52.913676 17595 net.cpp:409] conv2 -> conv2
I0503 02:54:52.917927 17595 net.cpp:144] Setting up conv2
I0503 02:54:52.917943 17595 net.cpp:151] Top shape: 20 64 10 10 (128000)
I0503 02:54:52.917946 17595 net.cpp:159] Memory required for data: 1544240
I0503 02:54:52.917955 17595 layer_factory.hpp:77] Creating layer relu2
I0503 02:54:52.917961 17595 net.cpp:94] Creating Layer relu2
I0503 02:54:52.917965 17595 net.cpp:435] relu2 <- conv2
I0503 02:54:52.917970 17595 net.cpp:396] relu2 -> conv2 (in-place)
I0503 02:54:52.917978 17595 net.cpp:144] Setting up relu2
I0503 02:54:52.917981 17595 net.cpp:151] Top shape: 20 64 10 10 (128000)
I0503 02:54:52.917984 17595 net.cpp:159] Memory required for data: 2056240
I0503 02:54:52.917987 17595 layer_factory.hpp:77] Creating layer pool2
I0503 02:54:52.917994 17595 net.cpp:94] Creating Layer pool2
I0503 02:54:52.917996 17595 net.cpp:435] pool2 <- conv2
I0503 02:54:52.918000 17595 net.cpp:409] pool2 -> pool2
I0503 02:54:52.918063 17595 net.cpp:144] Setting up pool2
I0503 02:54:52.918071 17595 net.cpp:151] Top shape: 20 64 5 5 (32000)
I0503 02:54:52.918074 17595 net.cpp:159] Memory required for data: 2184240
I0503 02:54:52.918077 17595 layer_factory.hpp:77] Creating layer conv3
I0503 02:54:52.918085 17595 net.cpp:94] Creating Layer conv3
I0503 02:54:52.918088 17595 net.cpp:435] conv3 <- pool2
I0503 02:54:52.918093 17595 net.cpp:409] conv3 -> conv3
I0503 02:54:52.924374 17595 net.cpp:144] Setting up conv3
I0503 02:54:52.924387 17595 net.cpp:151] Top shape: 20 128 5 5 (64000)
I0503 02:54:52.924391 17595 net.cpp:159] Memory required for data: 2440240
I0503 02:54:52.924399 17595 layer_factory.hpp:77] Creating layer relu3
I0503 02:54:52.924405 17595 net.cpp:94] Creating Layer relu3
I0503 02:54:52.924409 17595 net.cpp:435] relu3 <- conv3
I0503 02:54:52.924413 17595 net.cpp:396] relu3 -> conv3 (in-place)
I0503 02:54:52.924420 17595 net.cpp:144] Setting up relu3
I0503 02:54:52.924425 17595 net.cpp:151] Top shape: 20 128 5 5 (64000)
I0503 02:54:52.924428 17595 net.cpp:159] Memory required for data: 2696240
I0503 02:54:52.924430 17595 layer_factory.hpp:77] Creating layer conv4
I0503 02:54:52.924438 17595 net.cpp:94] Creating Layer conv4
I0503 02:54:52.924441 17595 net.cpp:435] conv4 <- conv3
I0503 02:54:52.924446 17595 net.cpp:409] conv4 -> conv4
I0503 02:54:52.937453 17595 net.cpp:144] Setting up conv4
I0503 02:54:52.937472 17595 net.cpp:151] Top shape: 20 128 5 5 (64000)
I0503 02:54:52.937476 17595 net.cpp:159] Memory required for data: 2952240
I0503 02:54:52.937484 17595 layer_factory.hpp:77] Creating layer relu4
I0503 02:54:52.937490 17595 net.cpp:94] Creating Layer relu4
I0503 02:54:52.937494 17595 net.cpp:435] relu4 <- conv4
I0503 02:54:52.937500 17595 net.cpp:396] relu4 -> conv4 (in-place)
I0503 02:54:52.937506 17595 net.cpp:144] Setting up relu4
I0503 02:54:52.937510 17595 net.cpp:151] Top shape: 20 128 5 5 (64000)
I0503 02:54:52.937513 17595 net.cpp:159] Memory required for data: 3208240
I0503 02:54:52.937516 17595 layer_factory.hpp:77] Creating layer conv5
I0503 02:54:52.937525 17595 net.cpp:94] Creating Layer conv5
I0503 02:54:52.937528 17595 net.cpp:435] conv5 <- conv4
I0503 02:54:52.937533 17595 net.cpp:409] conv5 -> conv5
I0503 02:54:52.950494 17595 net.cpp:144] Setting up conv5
I0503 02:54:52.950510 17595 net.cpp:151] Top shape: 20 128 5 5 (64000)
I0503 02:54:52.950520 17595 net.cpp:159] Memory required for data: 3464240
I0503 02:54:52.950531 17595 layer_factory.hpp:77] Creating layer relu5
I0503 02:54:52.950537 17595 net.cpp:94] Creating Layer relu5
I0503 02:54:52.950541 17595 net.cpp:435] relu5 <- conv5
I0503 02:54:52.950546 17595 net.cpp:396] relu5 -> conv5 (in-place)
I0503 02:54:52.950553 17595 net.cpp:144] Setting up relu5
I0503 02:54:52.950558 17595 net.cpp:151] Top shape: 20 128 5 5 (64000)
I0503 02:54:52.950562 17595 net.cpp:159] Memory required for data: 3720240
I0503 02:54:52.950564 17595 layer_factory.hpp:77] Creating layer pool5
I0503 02:54:52.950569 17595 net.cpp:94] Creating Layer pool5
I0503 02:54:52.950572 17595 net.cpp:435] pool5 <- conv5
I0503 02:54:52.950577 17595 net.cpp:409] pool5 -> pool5
I0503 02:54:52.950618 17595 net.cpp:144] Setting up pool5
I0503 02:54:52.950624 17595 net.cpp:151] Top shape: 20 128 2 2 (10240)
I0503 02:54:52.950628 17595 net.cpp:159] Memory required for data: 3761200
I0503 02:54:52.950631 17595 layer_factory.hpp:77] Creating layer ip1
I0503 02:54:52.950637 17595 net.cpp:94] Creating Layer ip1
I0503 02:54:52.950641 17595 net.cpp:435] ip1 <- pool5
I0503 02:54:52.950646 17595 net.cpp:409] ip1 -> ip1
I0503 02:54:52.963753 17595 net.cpp:144] Setting up ip1
I0503 02:54:52.963770 17595 net.cpp:151] Top shape: 20 1024 (20480)
I0503 02:54:52.963774 17595 net.cpp:159] Memory required for data: 3843120
I0503 02:54:52.963780 17595 layer_factory.hpp:77] Creating layer ip2
I0503 02:54:52.963788 17595 net.cpp:94] Creating Layer ip2
I0503 02:54:52.963793 17595 net.cpp:435] ip2 <- ip1
I0503 02:54:52.963798 17595 net.cpp:409] ip2 -> ip2
I0503 02:54:52.976855 17595 net.cpp:144] Setting up ip2
I0503 02:54:52.976871 17595 net.cpp:151] Top shape: 20 512 (10240)
I0503 02:54:52.976874 17595 net.cpp:159] Memory required for data: 3884080
I0503 02:54:52.976881 17595 layer_factory.hpp:77] Creating layer ip3
I0503 02:54:52.976892 17595 net.cpp:94] Creating Layer ip3
I0503 02:54:52.976896 17595 net.cpp:435] ip3 <- ip2
I0503 02:54:52.976902 17595 net.cpp:409] ip3 -> ip3
I0503 02:54:52.977656 17595 net.cpp:144] Setting up ip3
I0503 02:54:52.977664 17595 net.cpp:151] Top shape: 20 50 (1000)
I0503 02:54:52.977668 17595 net.cpp:159] Memory required for data: 3888080
I0503 02:54:52.977672 17595 layer_factory.hpp:77] Creating layer ip3_ip3_0_split
I0503 02:54:52.977679 17595 net.cpp:94] Creating Layer ip3_ip3_0_split
I0503 02:54:52.977681 17595 net.cpp:435] ip3_ip3_0_split <- ip3
I0503 02:54:52.977687 17595 net.cpp:409] ip3_ip3_0_split -> ip3_ip3_0_split_0
I0503 02:54:52.977692 17595 net.cpp:409] ip3_ip3_0_split -> ip3_ip3_0_split_1
I0503 02:54:52.977737 17595 net.cpp:144] Setting up ip3_ip3_0_split
I0503 02:54:52.977743 17595 net.cpp:151] Top shape: 20 50 (1000)
I0503 02:54:52.977747 17595 net.cpp:151] Top shape: 20 50 (1000)
I0503 02:54:52.977751 17595 net.cpp:159] Memory required for data: 3896080
I0503 02:54:52.977753 17595 layer_factory.hpp:77] Creating layer accuracy
I0503 02:54:52.977761 17595 net.cpp:94] Creating Layer accuracy
I0503 02:54:52.977763 17595 net.cpp:435] accuracy <- ip3_ip3_0_split_0
I0503 02:54:52.977767 17595 net.cpp:435] accuracy <- label_intercept_1_split_0
I0503 02:54:52.977773 17595 net.cpp:409] accuracy -> accuracy
…
