…
I0501 13:49:29.250382 13098 net.cpp:323] The NetState phase (0) differed from the phase (1) specified by a rule in layer intercept
I0501 13:49:29.250398 13098 net.cpp:323] The NetState phase (0) differed from the phase (1) specified by a rule in layer loss
I0501 13:49:29.250484 13098 net.cpp:52] Initializing net from parameters: 
state {
  phase: TRAIN
}
layer {
  name: "parameters"
  type: "HDF5Data"
  top: "data"
  top: "label"
  include {
    phase: TRAIN
  }
  hdf5_data_param {
    source: "/home/purduethu/scratch/radon/d/deng106/CNNStatisticalModel/distributions/input/50_distributions_400_sample_size_train-parameters-path.txt"
    batch_size: 20
  }
}
layer {
  name: "conv1"
  type: "Convolution"
  bottom: "data"
  top: "conv1"
  param {
    lr_mult: 1
  }
  param {
    lr_mult: 2
  }
  convolution_param {
    num_output: 64
    pad: 2
    kernel_size: 5
    stride: 1
    weight_filler {
      type: "gaussian"
      std: 0.0001
    }
    bias_filler {
      type: "constant"
    }
  }
}
layer {
  name: "relu1"
  type: "ReLU"
  bottom: "conv1"
  top: "conv1"
}
layer {
  name: "conv2"
  type: "Convolution"
  bottom: "conv1"
  top: "conv2"
  param {
    lr_mult: 1
  }
  param {
    lr_mult: 2
  }
  convolution_param {
    num_output: 64
    pad: 2
    kernel_size: 5
    stride: 1
    weight_filler {
      type: "gaussian"
      std: 0.01
    }
    bias_filler {
      type: "constant"
    }
  }
}
layer {
  name: "relu2"
  type: "ReLU"
  bottom: "conv2"
  top: "conv2"
}
layer {
  name: "pool2"
  type: "Pooling"
  bottom: "conv2"
  top: "pool2"
  pooling_param {
    pool: MAX
    kernel_size: 3
    stride: 2
  }
}
layer {
  name: "conv3"
  type: "Convolution"
  bottom: "pool2"
  top: "conv3"
  param {
    lr_mult: 1
  }
  param {
    lr_mult: 2
  }
  convolution_param {
    num_output: 64
    pad: 2
    kernel_size: 5
    stride: 1
    weight_filler {
      type: "gaussian"
      std: 0.01
    }
    bias_filler {
      type: "constant"
    }
  }
}
layer {
  name: "relu3"
  type: "ReLU"
  bottom: "conv3"
  top: "conv3"
}
layer {
  name: "conv4"
  type: "Convolution"
  bottom: "conv3"
  top: "conv4"
  param {
    lr_mult: 1
  }
  param {
    lr_mult: 2
  }
  convolution_param {
    num_output: 64
    pad: 2
    kernel_size: 5
    stride: 1
    weight_filler {
      type: "gaussian"
      std: 0.01
    }
    bias_filler {
      type: "constant"
    }
  }
}
layer {
  name: "relu4"
  type: "ReLU"
  bottom: "conv4"
  top: "conv4"
}
layer {
  name: "conv5"
  type: "Convolution"
  bottom: "conv4"
  top: "conv5"
  param {
    lr_mult: 1
  }
  param {
    lr_mult: 2
  }
  convolution_param {
    num_output: 64
    pad: 2
    kernel_size: 5
    stride: 1
    weight_filler {
      type: "gaussian"
      std: 0.01
    }
    bias_filler {
      type: "constant"
    }
  }
}
layer {
  name: "relu5"
  type: "ReLU"
  bottom: "conv5"
  top: "conv5"
}
layer {
  name: "pool5"
  type: "Pooling"
  bottom: "conv5"
  top: "pool5"
  pooling_param {
    pool: AVE
    kernel_size: 3
    stride: 2
  }
}
layer {
  name: "ip1"
  type: "InnerProduct"
  bottom: "pool5"
  top: "ip1"
  param {
    lr_mult: 1
  }
  param {
    lr_mult: 2
  }
  inner_product_param {
    num_output: 64
    weight_filler {
      type: "gaussian"
      std: 0.1
    }
    bias_filler {
      type: "constant"
    }
  }
}
layer {
  name: "ip2"
  type: "InnerProduct"
  bottom: "ip1"
  top: "ip2"
  param {
    lr_mult: 1
  }
  param {
    lr_mult: 2
  }
  inner_product_param {
    num_output: 64
    weight_filler {
      type: "gaussian"
      std: 0.1
    }
    bias_filler {
      type: "constant"
    }
  }
}
layer {
  name: "ip3"
  type: "InnerProduct"
  bottom: "ip2"
  top: "ip3"
  param {
    lr_mult: 1
  }
  param {
    lr_mult: 2
  }
  inner_product_param {
    num_output: 1
    weight_filler {
      type: "gaussian"
      std: 0.1
    }
    bias_filler {
      type: "constant"
    }
  }
}
layer {
  name: "loss"
  type: "HuberLoss"
  bottom: "ip3"
  bottom: "label"
  top: "loss"
  include {
    phase: TRAIN
  }
}
I0501 13:49:29.250537 13098 layer_factory.hpp:77] Creating layer parameters
I0501 13:49:29.250555 13098 net.cpp:94] Creating Layer parameters
I0501 13:49:29.250560 13098 net.cpp:409] parameters -> data
I0501 13:49:29.250568 13098 net.cpp:409] parameters -> label
I0501 13:49:29.250576 13098 hdf5_data_layer.cpp:79] Loading list of HDF5 filenames from: /home/purduethu/scratch/radon/d/deng106/CNNStatisticalModel/distributions/input/50_distributions_400_sample_size_train-parameters-path.txt
I0501 13:49:29.250591 13098 hdf5_data_layer.cpp:93] Number of HDF5 files: 1
I0501 13:49:29.251114 13098 hdf5.cpp:32] Datatype class: H5T_FLOAT
I0501 13:49:29.897101 13098 net.cpp:144] Setting up parameters
I0501 13:49:29.897135 13098 net.cpp:151] Top shape: 20 1 20 20 (8000)
I0501 13:49:29.897140 13098 net.cpp:151] Top shape: 20 (20)
I0501 13:49:29.897142 13098 net.cpp:159] Memory required for data: 32080
I0501 13:49:29.897150 13098 layer_factory.hpp:77] Creating layer conv1
I0501 13:49:29.897166 13098 net.cpp:94] Creating Layer conv1
I0501 13:49:29.897169 13098 net.cpp:435] conv1 <- data
I0501 13:49:29.897176 13098 net.cpp:409] conv1 -> conv1
I0501 13:49:29.902719 13098 net.cpp:144] Setting up conv1
I0501 13:49:29.902740 13098 net.cpp:151] Top shape: 20 64 20 20 (512000)
I0501 13:49:29.902745 13098 net.cpp:159] Memory required for data: 2080080
I0501 13:49:29.902755 13098 layer_factory.hpp:77] Creating layer relu1
I0501 13:49:29.902765 13098 net.cpp:94] Creating Layer relu1
I0501 13:49:29.902767 13098 net.cpp:435] relu1 <- conv1
I0501 13:49:29.902772 13098 net.cpp:396] relu1 -> conv1 (in-place)
I0501 13:49:29.902781 13098 net.cpp:144] Setting up relu1
I0501 13:49:29.902786 13098 net.cpp:151] Top shape: 20 64 20 20 (512000)
I0501 13:49:29.902788 13098 net.cpp:159] Memory required for data: 4128080
I0501 13:49:29.902791 13098 layer_factory.hpp:77] Creating layer conv2
I0501 13:49:29.902801 13098 net.cpp:94] Creating Layer conv2
I0501 13:49:29.902803 13098 net.cpp:435] conv2 <- conv1
I0501 13:49:29.902808 13098 net.cpp:409] conv2 -> conv2
I0501 13:49:29.915006 13098 net.cpp:144] Setting up conv2
I0501 13:49:29.915022 13098 net.cpp:151] Top shape: 20 64 20 20 (512000)
I0501 13:49:29.915026 13098 net.cpp:159] Memory required for data: 6176080
I0501 13:49:29.915035 13098 layer_factory.hpp:77] Creating layer relu2
I0501 13:49:29.915041 13098 net.cpp:94] Creating Layer relu2
I0501 13:49:29.915045 13098 net.cpp:435] relu2 <- conv2
I0501 13:49:29.915050 13098 net.cpp:396] relu2 -> conv2 (in-place)
I0501 13:49:29.915057 13098 net.cpp:144] Setting up relu2
I0501 13:49:29.915061 13098 net.cpp:151] Top shape: 20 64 20 20 (512000)
I0501 13:49:29.915065 13098 net.cpp:159] Memory required for data: 8224080
I0501 13:49:29.915067 13098 layer_factory.hpp:77] Creating layer pool2
I0501 13:49:29.915081 13098 net.cpp:94] Creating Layer pool2
I0501 13:49:29.915084 13098 net.cpp:435] pool2 <- conv2
I0501 13:49:29.915088 13098 net.cpp:409] pool2 -> pool2
I0501 13:49:29.915143 13098 net.cpp:144] Setting up pool2
I0501 13:49:29.915149 13098 net.cpp:151] Top shape: 20 64 10 10 (128000)
I0501 13:49:29.915153 13098 net.cpp:159] Memory required for data: 8736080
I0501 13:49:29.915156 13098 layer_factory.hpp:77] Creating layer conv3
I0501 13:49:29.915163 13098 net.cpp:94] Creating Layer conv3
I0501 13:49:29.915168 13098 net.cpp:435] conv3 <- pool2
I0501 13:49:29.915172 13098 net.cpp:409] conv3 -> conv3
I0501 13:49:29.920639 13098 net.cpp:144] Setting up conv3
I0501 13:49:29.920653 13098 net.cpp:151] Top shape: 20 64 10 10 (128000)
I0501 13:49:29.920657 13098 net.cpp:159] Memory required for data: 9248080
I0501 13:49:29.920665 13098 layer_factory.hpp:77] Creating layer relu3
I0501 13:49:29.920670 13098 net.cpp:94] Creating Layer relu3
I0501 13:49:29.920675 13098 net.cpp:435] relu3 <- conv3
I0501 13:49:29.920678 13098 net.cpp:396] relu3 -> conv3 (in-place)
I0501 13:49:29.920686 13098 net.cpp:144] Setting up relu3
I0501 13:49:29.920691 13098 net.cpp:151] Top shape: 20 64 10 10 (128000)
I0501 13:49:29.920693 13098 net.cpp:159] Memory required for data: 9760080
I0501 13:49:29.920696 13098 layer_factory.hpp:77] Creating layer conv4
I0501 13:49:29.920704 13098 net.cpp:94] Creating Layer conv4
I0501 13:49:29.920707 13098 net.cpp:435] conv4 <- conv3
I0501 13:49:29.920712 13098 net.cpp:409] conv4 -> conv4
I0501 13:49:29.926149 13098 net.cpp:144] Setting up conv4
I0501 13:49:29.926163 13098 net.cpp:151] Top shape: 20 64 10 10 (128000)
I0501 13:49:29.926167 13098 net.cpp:159] Memory required for data: 10272080
I0501 13:49:29.926173 13098 layer_factory.hpp:77] Creating layer relu4
I0501 13:49:29.926179 13098 net.cpp:94] Creating Layer relu4
I0501 13:49:29.926183 13098 net.cpp:435] relu4 <- conv4
I0501 13:49:29.926187 13098 net.cpp:396] relu4 -> conv4 (in-place)
I0501 13:49:29.926194 13098 net.cpp:144] Setting up relu4
I0501 13:49:29.926198 13098 net.cpp:151] Top shape: 20 64 10 10 (128000)
I0501 13:49:29.926201 13098 net.cpp:159] Memory required for data: 10784080
I0501 13:49:29.926204 13098 layer_factory.hpp:77] Creating layer conv5
I0501 13:49:29.926213 13098 net.cpp:94] Creating Layer conv5
I0501 13:49:29.926215 13098 net.cpp:435] conv5 <- conv4
I0501 13:49:29.926220 13098 net.cpp:409] conv5 -> conv5
I0501 13:49:29.931671 13098 net.cpp:144] Setting up conv5
I0501 13:49:29.931684 13098 net.cpp:151] Top shape: 20 64 10 10 (128000)
I0501 13:49:29.931689 13098 net.cpp:159] Memory required for data: 11296080
I0501 13:49:29.931696 13098 layer_factory.hpp:77] Creating layer relu5
I0501 13:49:29.931702 13098 net.cpp:94] Creating Layer relu5
I0501 13:49:29.931705 13098 net.cpp:435] relu5 <- conv5
I0501 13:49:29.931710 13098 net.cpp:396] relu5 -> conv5 (in-place)
I0501 13:49:29.931717 13098 net.cpp:144] Setting up relu5
I0501 13:49:29.931721 13098 net.cpp:151] Top shape: 20 64 10 10 (128000)
I0501 13:49:29.931725 13098 net.cpp:159] Memory required for data: 11808080
I0501 13:49:29.931727 13098 layer_factory.hpp:77] Creating layer pool5
I0501 13:49:29.931732 13098 net.cpp:94] Creating Layer pool5
I0501 13:49:29.931735 13098 net.cpp:435] pool5 <- conv5
I0501 13:49:29.931740 13098 net.cpp:409] pool5 -> pool5
I0501 13:49:29.931777 13098 net.cpp:144] Setting up pool5
I0501 13:49:29.931783 13098 net.cpp:151] Top shape: 20 64 5 5 (32000)
I0501 13:49:29.931787 13098 net.cpp:159] Memory required for data: 11936080
I0501 13:49:29.931789 13098 layer_factory.hpp:77] Creating layer ip1
I0501 13:49:29.931799 13098 net.cpp:94] Creating Layer ip1
I0501 13:49:29.931803 13098 net.cpp:435] ip1 <- pool5
I0501 13:49:29.931807 13098 net.cpp:409] ip1 -> ip1
I0501 13:49:29.934327 13098 net.cpp:144] Setting up ip1
I0501 13:49:29.934335 13098 net.cpp:151] Top shape: 20 64 (1280)
I0501 13:49:29.934340 13098 net.cpp:159] Memory required for data: 11941200
I0501 13:49:29.934345 13098 layer_factory.hpp:77] Creating layer ip2
I0501 13:49:29.934350 13098 net.cpp:94] Creating Layer ip2
I0501 13:49:29.934358 13098 net.cpp:435] ip2 <- ip1
I0501 13:49:29.934363 13098 net.cpp:409] ip2 -> ip2
I0501 13:49:29.934564 13098 net.cpp:144] Setting up ip2
I0501 13:49:29.934571 13098 net.cpp:151] Top shape: 20 64 (1280)
I0501 13:49:29.934574 13098 net.cpp:159] Memory required for data: 11946320
I0501 13:49:29.934579 13098 layer_factory.hpp:77] Creating layer ip3
I0501 13:49:29.934584 13098 net.cpp:94] Creating Layer ip3
I0501 13:49:29.934587 13098 net.cpp:435] ip3 <- ip2
I0501 13:49:29.934592 13098 net.cpp:409] ip3 -> ip3
I0501 13:49:29.934687 13098 net.cpp:144] Setting up ip3
I0501 13:49:29.934693 13098 net.cpp:151] Top shape: 20 1 (20)
I0501 13:49:29.934696 13098 net.cpp:159] Memory required for data: 11946400
I0501 13:49:29.934701 13098 layer_factory.hpp:77] Creating layer loss
I0501 13:49:29.934710 13098 net.cpp:94] Creating Layer loss
I0501 13:49:29.934715 13098 net.cpp:435] loss <- ip3
I0501 13:49:29.934717 13098 net.cpp:435] loss <- label
I0501 13:49:29.934722 13098 net.cpp:409] loss -> loss
I0501 13:49:29.934770 13098 net.cpp:144] Setting up loss
…
I0501 13:49:30.119498 13098 net.cpp:323] The NetState phase (0) differed from the phase (1) specified by a rule in layer intercept
I0501 13:49:30.119513 13098 net.cpp:323] The NetState phase (0) differed from the phase (1) specified by a rule in layer accuracy
I0501 13:49:30.119602 13098 net.cpp:52] Initializing net from parameters: 
state {
  phase: TRAIN
}
layer {
  name: "parameters"
  type: "HDF5Data"
  top: "data"
  top: "label"
  include {
    phase: TRAIN
  }
  hdf5_data_param {
    source: "/home/purduethu/scratch/radon/d/deng106/CNNStatisticalModel/distributions/input/50_distributions_400_sample_size_train-distributions-path.txt"
    batch_size: 20
  }
}
layer {
  name: "conv1"
  type: "Convolution"
  bottom: "data"
  top: "conv1"
  param {
    lr_mult: 1
  }
  param {
    lr_mult: 2
  }
  convolution_param {
    num_output: 64
    pad: 2
    kernel_size: 5
    stride: 1
    weight_filler {
      type: "gaussian"
      std: 0.0001
    }
    bias_filler {
      type: "constant"
    }
  }
}
layer {
  name: "relu1"
  type: "ReLU"
  bottom: "conv1"
  top: "conv1"
}
layer {
  name: "conv2"
  type: "Convolution"
  bottom: "conv1"
  top: "conv2"
  param {
    lr_mult: 1
  }
  param {
    lr_mult: 2
  }
  convolution_param {
    num_output: 64
    pad: 2
    kernel_size: 5
    stride: 1
    weight_filler {
      type: "gaussian"
      std: 0.01
    }
    bias_filler {
      type: "constant"
    }
  }
}
layer {
  name: "relu2"
  type: "ReLU"
  bottom: "conv2"
  top: "conv2"
}
layer {
  name: "pool2"
  type: "Pooling"
  bottom: "conv2"
  top: "pool2"
  pooling_param {
    pool: MAX
    kernel_size: 3
    stride: 2
  }
}
layer {
  name: "conv3"
  type: "Convolution"
  bottom: "pool2"
  top: "conv3"
  param {
    lr_mult: 1
  }
  param {
    lr_mult: 2
  }
  convolution_param {
    num_output: 64
    pad: 2
    kernel_size: 5
    stride: 1
    weight_filler {
      type: "gaussian"
      std: 0.01
    }
    bias_filler {
      type: "constant"
    }
  }
}
layer {
  name: "relu3"
  type: "ReLU"
  bottom: "conv3"
  top: "conv3"
}
layer {
  name: "conv4"
  type: "Convolution"
  bottom: "conv3"
  top: "conv4"
  param {
    lr_mult: 1
  }
  param {
    lr_mult: 2
  }
  convolution_param {
    num_output: 64
    pad: 2
    kernel_size: 5
    stride: 1
    weight_filler {
      type: "gaussian"
      std: 0.01
    }
    bias_filler {
      type: "constant"
    }
  }
}
layer {
  name: "relu4"
  type: "ReLU"
  bottom: "conv4"
  top: "conv4"
}
layer {
  name: "conv5"
  type: "Convolution"
  bottom: "conv4"
  top: "conv5"
  param {
    lr_mult: 1
  }
  param {
    lr_mult: 2
  }
  convolution_param {
    num_output: 64
    pad: 2
    kernel_size: 5
    stride: 1
    weight_filler {
      type: "gaussian"
      std: 0.01
    }
    bias_filler {
      type: "constant"
    }
  }
}
layer {
  name: "relu5"
  type: "ReLU"
  bottom: "conv5"
  top: "conv5"
}
layer {
  name: "pool5"
  type: "Pooling"
  bottom: "conv5"
  top: "pool5"
  pooling_param {
    pool: AVE
    kernel_size: 3
    stride: 2
  }
}
layer {
  name: "ip1"
  type: "InnerProduct"
  bottom: "pool5"
  top: "ip1"
  param {
    lr_mult: 1
  }
  param {
    lr_mult: 2
  }
  inner_product_param {
    num_output: 64
    weight_filler {
      type: "gaussian"
      std: 0.1
    }
    bias_filler {
      type: "constant"
    }
  }
}
layer {
  name: "ip2"
  type: "InnerProduct"
  bottom: "ip1"
  top: "ip2"
  param {
    lr_mult: 1
  }
  param {
    lr_mult: 2
  }
  inner_product_param {
    num_output: 64
    weight_filler {
      type: "gaussian"
      std: 0.1
    }
    bias_filler {
      type: "constant"
    }
  }
}
layer {
  name: "ip3"
  type: "InnerProduct"
  bottom: "ip2"
  top: "ip3"
  param {
    lr_mult: 1
  }
  param {
    lr_mult: 2
  }
  inner_product_param {
    num_output: 50
    weight_filler {
      type: "gaussian"
      std: 0.1
    }
    bias_filler {
      type: "constant"
    }
  }
}
layer {
  name: "loss"
  type: "SoftmaxWithLoss"
  bottom: "ip3"
  bottom: "label"
  top: "loss"
}
I0501 13:49:30.119654 13098 layer_factory.hpp:77] Creating layer parameters
I0501 13:49:30.119663 13098 net.cpp:94] Creating Layer parameters
I0501 13:49:30.119666 13098 net.cpp:409] parameters -> data
I0501 13:49:30.119673 13098 net.cpp:409] parameters -> label
I0501 13:49:30.119679 13098 hdf5_data_layer.cpp:79] Loading list of HDF5 filenames from: /home/purduethu/scratch/radon/d/deng106/CNNStatisticalModel/distributions/input/50_distributions_400_sample_size_train-distributions-path.txt
I0501 13:49:30.119694 13098 hdf5_data_layer.cpp:93] Number of HDF5 files: 1
I0501 13:49:30.762156 13098 hdf5.cpp:35] Datatype class: H5T_INTEGER
I0501 13:49:30.765206 13098 net.cpp:144] Setting up parameters
I0501 13:49:30.765224 13098 net.cpp:151] Top shape: 20 1 20 20 (8000)
I0501 13:49:30.765229 13098 net.cpp:151] Top shape: 20 (20)
I0501 13:49:30.765233 13098 net.cpp:159] Memory required for data: 32080
I0501 13:49:30.765239 13098 layer_factory.hpp:77] Creating layer conv1
I0501 13:49:30.765254 13098 net.cpp:94] Creating Layer conv1
I0501 13:49:30.765259 13098 net.cpp:435] conv1 <- data
I0501 13:49:30.765265 13098 net.cpp:409] conv1 -> conv1
I0501 13:49:30.767987 13098 net.cpp:144] Setting up conv1
I0501 13:49:30.767999 13098 net.cpp:151] Top shape: 20 64 20 20 (512000)
I0501 13:49:30.768003 13098 net.cpp:159] Memory required for data: 2080080
I0501 13:49:30.768013 13098 layer_factory.hpp:77] Creating layer relu1
I0501 13:49:30.768021 13098 net.cpp:94] Creating Layer relu1
I0501 13:49:30.768024 13098 net.cpp:435] relu1 <- conv1
I0501 13:49:30.768029 13098 net.cpp:396] relu1 -> conv1 (in-place)
I0501 13:49:30.768036 13098 net.cpp:144] Setting up relu1
I0501 13:49:30.768041 13098 net.cpp:151] Top shape: 20 64 20 20 (512000)
I0501 13:49:30.768043 13098 net.cpp:159] Memory required for data: 4128080
I0501 13:49:30.768048 13098 layer_factory.hpp:77] Creating layer conv2
I0501 13:49:30.768054 13098 net.cpp:94] Creating Layer conv2
I0501 13:49:30.768057 13098 net.cpp:435] conv2 <- conv1
I0501 13:49:30.768062 13098 net.cpp:409] conv2 -> conv2
I0501 13:49:30.778210 13098 net.cpp:144] Setting up conv2
I0501 13:49:30.778225 13098 net.cpp:151] Top shape: 20 64 20 20 (512000)
I0501 13:49:30.778229 13098 net.cpp:159] Memory required for data: 6176080
I0501 13:49:30.778237 13098 layer_factory.hpp:77] Creating layer relu2
I0501 13:49:30.778244 13098 net.cpp:94] Creating Layer relu2
I0501 13:49:30.778247 13098 net.cpp:435] relu2 <- conv2
I0501 13:49:30.778251 13098 net.cpp:396] relu2 -> conv2 (in-place)
I0501 13:49:30.778259 13098 net.cpp:144] Setting up relu2
I0501 13:49:30.778262 13098 net.cpp:151] Top shape: 20 64 20 20 (512000)
I0501 13:49:30.778265 13098 net.cpp:159] Memory required for data: 8224080
I0501 13:49:30.778268 13098 layer_factory.hpp:77] Creating layer pool2
I0501 13:49:30.778275 13098 net.cpp:94] Creating Layer pool2
I0501 13:49:30.778277 13098 net.cpp:435] pool2 <- conv2
I0501 13:49:30.778281 13098 net.cpp:409] pool2 -> pool2
I0501 13:49:30.778332 13098 net.cpp:144] Setting up pool2
I0501 13:49:30.778339 13098 net.cpp:151] Top shape: 20 64 10 10 (128000)
I0501 13:49:30.778342 13098 net.cpp:159] Memory required for data: 8736080
I0501 13:49:30.778345 13098 layer_factory.hpp:77] Creating layer conv3
I0501 13:49:30.778352 13098 net.cpp:94] Creating Layer conv3
I0501 13:49:30.778357 13098 net.cpp:435] conv3 <- pool2
I0501 13:49:30.778367 13098 net.cpp:409] conv3 -> conv3
I0501 13:49:30.783849 13098 net.cpp:144] Setting up conv3
I0501 13:49:30.783862 13098 net.cpp:151] Top shape: 20 64 10 10 (128000)
I0501 13:49:30.783866 13098 net.cpp:159] Memory required for data: 9248080
I0501 13:49:30.783874 13098 layer_factory.hpp:77] Creating layer relu3
I0501 13:49:30.783879 13098 net.cpp:94] Creating Layer relu3
I0501 13:49:30.783884 13098 net.cpp:435] relu3 <- conv3
I0501 13:49:30.783887 13098 net.cpp:396] relu3 -> conv3 (in-place)
I0501 13:49:30.783895 13098 net.cpp:144] Setting up relu3
I0501 13:49:30.783900 13098 net.cpp:151] Top shape: 20 64 10 10 (128000)
I0501 13:49:30.783901 13098 net.cpp:159] Memory required for data: 9760080
I0501 13:49:30.783905 13098 layer_factory.hpp:77] Creating layer conv4
I0501 13:49:30.783912 13098 net.cpp:94] Creating Layer conv4
I0501 13:49:30.783916 13098 net.cpp:435] conv4 <- conv3
I0501 13:49:30.783921 13098 net.cpp:409] conv4 -> conv4
I0501 13:49:30.789403 13098 net.cpp:144] Setting up conv4
I0501 13:49:30.789417 13098 net.cpp:151] Top shape: 20 64 10 10 (128000)
I0501 13:49:30.789420 13098 net.cpp:159] Memory required for data: 10272080
I0501 13:49:30.789427 13098 layer_factory.hpp:77] Creating layer relu4
I0501 13:49:30.789433 13098 net.cpp:94] Creating Layer relu4
I0501 13:49:30.789436 13098 net.cpp:435] relu4 <- conv4
I0501 13:49:30.789440 13098 net.cpp:396] relu4 -> conv4 (in-place)
I0501 13:49:30.789448 13098 net.cpp:144] Setting up relu4
I0501 13:49:30.789451 13098 net.cpp:151] Top shape: 20 64 10 10 (128000)
I0501 13:49:30.789454 13098 net.cpp:159] Memory required for data: 10784080
I0501 13:49:30.789458 13098 layer_factory.hpp:77] Creating layer conv5
I0501 13:49:30.789465 13098 net.cpp:94] Creating Layer conv5
I0501 13:49:30.789469 13098 net.cpp:435] conv5 <- conv4
I0501 13:49:30.789474 13098 net.cpp:409] conv5 -> conv5
I0501 13:49:30.794948 13098 net.cpp:144] Setting up conv5
I0501 13:49:30.794962 13098 net.cpp:151] Top shape: 20 64 10 10 (128000)
I0501 13:49:30.794965 13098 net.cpp:159] Memory required for data: 11296080
I0501 13:49:30.794975 13098 layer_factory.hpp:77] Creating layer relu5
I0501 13:49:30.794980 13098 net.cpp:94] Creating Layer relu5
I0501 13:49:30.794983 13098 net.cpp:435] relu5 <- conv5
I0501 13:49:30.794987 13098 net.cpp:396] relu5 -> conv5 (in-place)
I0501 13:49:30.794994 13098 net.cpp:144] Setting up relu5
I0501 13:49:30.794999 13098 net.cpp:151] Top shape: 20 64 10 10 (128000)
I0501 13:49:30.795001 13098 net.cpp:159] Memory required for data: 11808080
I0501 13:49:30.795004 13098 layer_factory.hpp:77] Creating layer pool5
I0501 13:49:30.795009 13098 net.cpp:94] Creating Layer pool5
I0501 13:49:30.795012 13098 net.cpp:435] pool5 <- conv5
I0501 13:49:30.795017 13098 net.cpp:409] pool5 -> pool5
I0501 13:49:30.795052 13098 net.cpp:144] Setting up pool5
I0501 13:49:30.795058 13098 net.cpp:151] Top shape: 20 64 5 5 (32000)
I0501 13:49:30.795061 13098 net.cpp:159] Memory required for data: 11936080
I0501 13:49:30.795064 13098 layer_factory.hpp:77] Creating layer ip1
I0501 13:49:30.795071 13098 net.cpp:94] Creating Layer ip1
I0501 13:49:30.795074 13098 net.cpp:435] ip1 <- pool5
I0501 13:49:30.795079 13098 net.cpp:409] ip1 -> ip1
I0501 13:49:30.798461 13098 net.cpp:144] Setting up ip1
I0501 13:49:30.798475 13098 net.cpp:151] Top shape: 20 64 (1280)
I0501 13:49:30.798478 13098 net.cpp:159] Memory required for data: 11941200
I0501 13:49:30.798485 13098 layer_factory.hpp:77] Creating layer ip2
I0501 13:49:30.798491 13098 net.cpp:94] Creating Layer ip2
I0501 13:49:30.798496 13098 net.cpp:435] ip2 <- ip1
I0501 13:49:30.798501 13098 net.cpp:409] ip2 -> ip2
I0501 13:49:30.798718 13098 net.cpp:144] Setting up ip2
I0501 13:49:30.798725 13098 net.cpp:151] Top shape: 20 64 (1280)
I0501 13:49:30.798728 13098 net.cpp:159] Memory required for data: 11946320
I0501 13:49:30.798733 13098 layer_factory.hpp:77] Creating layer ip3
I0501 13:49:30.798739 13098 net.cpp:94] Creating Layer ip3
I0501 13:49:30.798743 13098 net.cpp:435] ip3 <- ip2
I0501 13:49:30.798748 13098 net.cpp:409] ip3 -> ip3
I0501 13:49:30.798941 13098 net.cpp:144] Setting up ip3
I0501 13:49:30.798949 13098 net.cpp:151] Top shape: 20 50 (1000)
I0501 13:49:30.798951 13098 net.cpp:159] Memory required for data: 11950320
I0501 13:49:30.798956 13098 layer_factory.hpp:77] Creating layer loss
I0501 13:49:30.798964 13098 net.cpp:94] Creating Layer loss
I0501 13:49:30.798966 13098 net.cpp:435] loss <- ip3
I0501 13:49:30.798970 13098 net.cpp:435] loss <- label
I0501 13:49:30.798974 13098 net.cpp:409] loss -> loss
I0501 13:49:30.798981 13098 layer_factory.hpp:77] Creating layer loss
…
I0501 13:49:30.799489 13098 solver.cpp:181] Creating test net (#0) specified by net file: ./protocol/dis_50_400_dimension.protocol_distribution
I0501 13:49:30.799516 13098 net.cpp:323] The NetState phase (1) differed from the phase (0) specified by a rule in layer parameters
I0501 13:49:30.799614 13098 net.cpp:52] Initializing net from parameters: 
state {
  phase: TEST
}
layer {
  name: "intercept"
  type: "HDF5Data"
  top: "data"
  top: "label"
  include {
    phase: TEST
  }
  hdf5_data_param {
    source: "/home/purduethu/scratch/radon/d/deng106/CNNStatisticalModel/distributions/input/50_distributions_400_sample_size_test-distributions-path.txt"
    batch_size: 20
  }
}
layer {
  name: "conv1"
  type: "Convolution"
  bottom: "data"
  top: "conv1"
  param {
    lr_mult: 1
  }
  param {
    lr_mult: 2
  }
  convolution_param {
    num_output: 64
    pad: 2
    kernel_size: 5
    stride: 1
    weight_filler {
      type: "gaussian"
      std: 0.0001
    }
    bias_filler {
      type: "constant"
    }
  }
}
layer {
  name: "relu1"
  type: "ReLU"
  bottom: "conv1"
  top: "conv1"
}
layer {
  name: "conv2"
  type: "Convolution"
  bottom: "conv1"
  top: "conv2"
  param {
    lr_mult: 1
  }
  param {
    lr_mult: 2
  }
  convolution_param {
    num_output: 64
    pad: 2
    kernel_size: 5
    stride: 1
    weight_filler {
      type: "gaussian"
      std: 0.01
    }
    bias_filler {
      type: "constant"
    }
  }
}
layer {
  name: "relu2"
  type: "ReLU"
  bottom: "conv2"
  top: "conv2"
}
layer {
  name: "pool2"
  type: "Pooling"
  bottom: "conv2"
  top: "pool2"
  pooling_param {
    pool: MAX
    kernel_size: 3
    stride: 2
  }
}
layer {
  name: "conv3"
  type: "Convolution"
  bottom: "pool2"
  top: "conv3"
  param {
    lr_mult: 1
  }
  param {
    lr_mult: 2
  }
  convolution_param {
    num_output: 64
    pad: 2
    kernel_size: 5
    stride: 1
    weight_filler {
      type: "gaussian"
      std: 0.01
    }
    bias_filler {
      type: "constant"
    }
  }
}
layer {
  name: "relu3"
  type: "ReLU"
  bottom: "conv3"
  top: "conv3"
}
layer {
  name: "conv4"
  type: "Convolution"
  bottom: "conv3"
  top: "conv4"
  param {
    lr_mult: 1
  }
  param {
    lr_mult: 2
  }
  convolution_param {
    num_output: 64
    pad: 2
    kernel_size: 5
    stride: 1
    weight_filler {
      type: "gaussian"
      std: 0.01
    }
    bias_filler {
      type: "constant"
    }
  }
}
layer {
  name: "relu4"
  type: "ReLU"
  bottom: "conv4"
  top: "conv4"
}
layer {
  name: "conv5"
  type: "Convolution"
  bottom: "conv4"
  top: "conv5"
  param {
    lr_mult: 1
  }
  param {
    lr_mult: 2
  }
  convolution_param {
    num_output: 64
    pad: 2
    kernel_size: 5
    stride: 1
    weight_filler {
      type: "gaussian"
      std: 0.01
    }
    bias_filler {
      type: "constant"
    }
  }
}
layer {
  name: "relu5"
  type: "ReLU"
  bottom: "conv5"
  top: "conv5"
}
layer {
  name: "pool5"
  type: "Pooling"
  bottom: "conv5"
  top: "pool5"
  pooling_param {
    pool: AVE
    kernel_size: 3
    stride: 2
  }
}
layer {
  name: "ip1"
  type: "InnerProduct"
  bottom: "pool5"
  top: "ip1"
  param {
    lr_mult: 1
  }
  param {
    lr_mult: 2
  }
  inner_product_param {
    num_output: 64
    weight_filler {
      type: "gaussian"
      std: 0.1
    }
    bias_filler {
      type: "constant"
    }
  }
}
layer {
  name: "ip2"
  type: "InnerProduct"
  bottom: "ip1"
  top: "ip2"
  param {
    lr_mult: 1
  }
  param {
    lr_mult: 2
  }
  inner_product_param {
    num_output: 64
    weight_filler {
      type: "gaussian"
      std: 0.1
    }
    bias_filler {
      type: "constant"
    }
  }
}
layer {
  name: "ip3"
  type: "InnerProduct"
  bottom: "ip2"
  top: "ip3"
  param {
    lr_mult: 1
  }
  param {
    lr_mult: 2
  }
  inner_product_param {
    num_output: 50
    weight_filler {
      type: "gaussian"
      std: 0.1
    }
    bias_filler {
      type: "constant"
    }
  }
}
layer {
  name: "accuracy"
  type: "Accuracy"
  bottom: "ip3"
  bottom: "label"
  top: "accuracy"
  include {
    phase: TEST
  }
}
layer {
  name: "loss"
  type: "SoftmaxWithLoss"
  bottom: "ip3"
  bottom: "label"
  top: "loss"
}
I0501 13:49:30.799679 13098 layer_factory.hpp:77] Creating layer intercept
I0501 13:49:30.799687 13098 net.cpp:94] Creating Layer intercept
I0501 13:49:30.799691 13098 net.cpp:409] intercept -> data
I0501 13:49:30.799698 13098 net.cpp:409] intercept -> label
I0501 13:49:30.799703 13098 hdf5_data_layer.cpp:79] Loading list of HDF5 filenames from: /home/purduethu/scratch/radon/d/deng106/CNNStatisticalModel/distributions/input/50_distributions_400_sample_size_test-distributions-path.txt
I0501 13:49:30.799722 13098 hdf5_data_layer.cpp:93] Number of HDF5 files: 1
I0501 13:49:30.963775 13098 net.cpp:144] Setting up intercept
I0501 13:49:30.963809 13098 net.cpp:151] Top shape: 20 1 20 20 (8000)
I0501 13:49:30.963814 13098 net.cpp:151] Top shape: 20 (20)
I0501 13:49:30.963817 13098 net.cpp:159] Memory required for data: 32080
I0501 13:49:30.963824 13098 layer_factory.hpp:77] Creating layer label_intercept_1_split
I0501 13:49:30.963845 13098 net.cpp:94] Creating Layer label_intercept_1_split
I0501 13:49:30.963848 13098 net.cpp:435] label_intercept_1_split <- label
I0501 13:49:30.963855 13098 net.cpp:409] label_intercept_1_split -> label_intercept_1_split_0
I0501 13:49:30.963863 13098 net.cpp:409] label_intercept_1_split -> label_intercept_1_split_1
I0501 13:49:30.963903 13098 net.cpp:144] Setting up label_intercept_1_split
I0501 13:49:30.963909 13098 net.cpp:151] Top shape: 20 (20)
I0501 13:49:30.963913 13098 net.cpp:151] Top shape: 20 (20)
I0501 13:49:30.963917 13098 net.cpp:159] Memory required for data: 32240
I0501 13:49:30.963919 13098 layer_factory.hpp:77] Creating layer conv1
I0501 13:49:30.963930 13098 net.cpp:94] Creating Layer conv1
I0501 13:49:30.963933 13098 net.cpp:435] conv1 <- data
I0501 13:49:30.963937 13098 net.cpp:409] conv1 -> conv1
I0501 13:49:30.965355 13098 net.cpp:144] Setting up conv1
I0501 13:49:30.965376 13098 net.cpp:151] Top shape: 20 64 20 20 (512000)
I0501 13:49:30.965381 13098 net.cpp:159] Memory required for data: 2080240
I0501 13:49:30.965391 13098 layer_factory.hpp:77] Creating layer relu1
I0501 13:49:30.965399 13098 net.cpp:94] Creating Layer relu1
I0501 13:49:30.965402 13098 net.cpp:435] relu1 <- conv1
I0501 13:49:30.965406 13098 net.cpp:396] relu1 -> conv1 (in-place)
I0501 13:49:30.965414 13098 net.cpp:144] Setting up relu1
I0501 13:49:30.965418 13098 net.cpp:151] Top shape: 20 64 20 20 (512000)
I0501 13:49:30.965420 13098 net.cpp:159] Memory required for data: 4128240
I0501 13:49:30.965425 13098 layer_factory.hpp:77] Creating layer conv2
I0501 13:49:30.965431 13098 net.cpp:94] Creating Layer conv2
I0501 13:49:30.965435 13098 net.cpp:435] conv2 <- conv1
I0501 13:49:30.965440 13098 net.cpp:409] conv2 -> conv2
I0501 13:49:30.970546 13098 net.cpp:144] Setting up conv2
I0501 13:49:30.970561 13098 net.cpp:151] Top shape: 20 64 20 20 (512000)
I0501 13:49:30.970563 13098 net.cpp:159] Memory required for data: 6176240
I0501 13:49:30.970571 13098 layer_factory.hpp:77] Creating layer relu2
I0501 13:49:30.970577 13098 net.cpp:94] Creating Layer relu2
I0501 13:49:30.970580 13098 net.cpp:435] relu2 <- conv2
I0501 13:49:30.970585 13098 net.cpp:396] relu2 -> conv2 (in-place)
I0501 13:49:30.970592 13098 net.cpp:144] Setting up relu2
I0501 13:49:30.970597 13098 net.cpp:151] Top shape: 20 64 20 20 (512000)
I0501 13:49:30.970599 13098 net.cpp:159] Memory required for data: 8224240
I0501 13:49:30.970602 13098 layer_factory.hpp:77] Creating layer pool2
I0501 13:49:30.970608 13098 net.cpp:94] Creating Layer pool2
I0501 13:49:30.970612 13098 net.cpp:435] pool2 <- conv2
I0501 13:49:30.970616 13098 net.cpp:409] pool2 -> pool2
I0501 13:49:30.970669 13098 net.cpp:144] Setting up pool2
I0501 13:49:30.970675 13098 net.cpp:151] Top shape: 20 64 10 10 (128000)
I0501 13:49:30.970679 13098 net.cpp:159] Memory required for data: 8736240
I0501 13:49:30.970681 13098 layer_factory.hpp:77] Creating layer conv3
I0501 13:49:30.970690 13098 net.cpp:94] Creating Layer conv3
I0501 13:49:30.970693 13098 net.cpp:435] conv3 <- pool2
I0501 13:49:30.970698 13098 net.cpp:409] conv3 -> conv3
I0501 13:49:30.974723 13098 net.cpp:144] Setting up conv3
I0501 13:49:30.974736 13098 net.cpp:151] Top shape: 20 64 10 10 (128000)
I0501 13:49:30.974740 13098 net.cpp:159] Memory required for data: 9248240
I0501 13:49:30.974747 13098 layer_factory.hpp:77] Creating layer relu3
I0501 13:49:30.974753 13098 net.cpp:94] Creating Layer relu3
I0501 13:49:30.974756 13098 net.cpp:435] relu3 <- conv3
I0501 13:49:30.974761 13098 net.cpp:396] relu3 -> conv3 (in-place)
I0501 13:49:30.974767 13098 net.cpp:144] Setting up relu3
I0501 13:49:30.974771 13098 net.cpp:151] Top shape: 20 64 10 10 (128000)
I0501 13:49:30.974774 13098 net.cpp:159] Memory required for data: 9760240
I0501 13:49:30.974777 13098 layer_factory.hpp:77] Creating layer conv4
I0501 13:49:30.974787 13098 net.cpp:94] Creating Layer conv4
I0501 13:49:30.974791 13098 net.cpp:435] conv4 <- conv3
I0501 13:49:30.974795 13098 net.cpp:409] conv4 -> conv4
I0501 13:49:30.978379 13098 net.cpp:144] Setting up conv4
I0501 13:49:30.978391 13098 net.cpp:151] Top shape: 20 64 10 10 (128000)
I0501 13:49:30.978394 13098 net.cpp:159] Memory required for data: 10272240
I0501 13:49:30.978400 13098 layer_factory.hpp:77] Creating layer relu4
I0501 13:49:30.978406 13098 net.cpp:94] Creating Layer relu4
I0501 13:49:30.978410 13098 net.cpp:435] relu4 <- conv4
I0501 13:49:30.978413 13098 net.cpp:396] relu4 -> conv4 (in-place)
I0501 13:49:30.978420 13098 net.cpp:144] Setting up relu4
I0501 13:49:30.978425 13098 net.cpp:151] Top shape: 20 64 10 10 (128000)
I0501 13:49:30.978427 13098 net.cpp:159] Memory required for data: 10784240
I0501 13:49:30.978430 13098 layer_factory.hpp:77] Creating layer conv5
I0501 13:49:30.978438 13098 net.cpp:94] Creating Layer conv5
I0501 13:49:30.978442 13098 net.cpp:435] conv5 <- conv4
I0501 13:49:30.978446 13098 net.cpp:409] conv5 -> conv5
I0501 13:49:30.983299 13098 net.cpp:144] Setting up conv5
I0501 13:49:30.983316 13098 net.cpp:151] Top shape: 20 64 10 10 (128000)
I0501 13:49:30.983320 13098 net.cpp:159] Memory required for data: 11296240
I0501 13:49:30.983328 13098 layer_factory.hpp:77] Creating layer relu5
I0501 13:49:30.983335 13098 net.cpp:94] Creating Layer relu5
I0501 13:49:30.983337 13098 net.cpp:435] relu5 <- conv5
I0501 13:49:30.983341 13098 net.cpp:396] relu5 -> conv5 (in-place)
I0501 13:49:30.983348 13098 net.cpp:144] Setting up relu5
I0501 13:49:30.983352 13098 net.cpp:151] Top shape: 20 64 10 10 (128000)
I0501 13:49:30.983355 13098 net.cpp:159] Memory required for data: 11808240
I0501 13:49:30.983358 13098 layer_factory.hpp:77] Creating layer pool5
I0501 13:49:30.983362 13098 net.cpp:94] Creating Layer pool5
I0501 13:49:30.983366 13098 net.cpp:435] pool5 <- conv5
I0501 13:49:30.983371 13098 net.cpp:409] pool5 -> pool5
I0501 13:49:30.983407 13098 net.cpp:144] Setting up pool5
I0501 13:49:30.983414 13098 net.cpp:151] Top shape: 20 64 5 5 (32000)
I0501 13:49:30.983417 13098 net.cpp:159] Memory required for data: 11936240
I0501 13:49:30.983420 13098 layer_factory.hpp:77] Creating layer ip1
I0501 13:49:30.983428 13098 net.cpp:94] Creating Layer ip1
I0501 13:49:30.983431 13098 net.cpp:435] ip1 <- pool5
I0501 13:49:30.983436 13098 net.cpp:409] ip1 -> ip1
I0501 13:49:30.985986 13098 net.cpp:144] Setting up ip1
I0501 13:49:30.985996 13098 net.cpp:151] Top shape: 20 64 (1280)
I0501 13:49:30.985998 13098 net.cpp:159] Memory required for data: 11941360
I0501 13:49:30.986003 13098 layer_factory.hpp:77] Creating layer ip2
I0501 13:49:30.986009 13098 net.cpp:94] Creating Layer ip2
I0501 13:49:30.986012 13098 net.cpp:435] ip2 <- ip1
I0501 13:49:30.986018 13098 net.cpp:409] ip2 -> ip2
I0501 13:49:30.986250 13098 net.cpp:144] Setting up ip2
I0501 13:49:30.986258 13098 net.cpp:151] Top shape: 20 64 (1280)
I0501 13:49:30.986260 13098 net.cpp:159] Memory required for data: 11946480
I0501 13:49:30.986265 13098 layer_factory.hpp:77] Creating layer ip3
I0501 13:49:30.986274 13098 net.cpp:94] Creating Layer ip3
I0501 13:49:30.986276 13098 net.cpp:435] ip3 <- ip2
I0501 13:49:30.986281 13098 net.cpp:409] ip3 -> ip3
I0501 13:49:30.986479 13098 net.cpp:144] Setting up ip3
I0501 13:49:30.986485 13098 net.cpp:151] Top shape: 20 50 (1000)
I0501 13:49:30.986488 13098 net.cpp:159] Memory required for data: 11950480
I0501 13:49:30.986493 13098 layer_factory.hpp:77] Creating layer ip3_ip3_0_split
I0501 13:49:30.986498 13098 net.cpp:94] Creating Layer ip3_ip3_0_split
I0501 13:49:30.986501 13098 net.cpp:435] ip3_ip3_0_split <- ip3
I0501 13:49:30.986506 13098 net.cpp:409] ip3_ip3_0_split -> ip3_ip3_0_split_0
I0501 13:49:30.986511 13098 net.cpp:409] ip3_ip3_0_split -> ip3_ip3_0_split_1
I0501 13:49:30.986552 13098 net.cpp:144] Setting up ip3_ip3_0_split
I0501 13:49:30.986558 13098 net.cpp:151] Top shape: 20 50 (1000)
I0501 13:49:30.986562 13098 net.cpp:151] Top shape: 20 50 (1000)
I0501 13:49:30.986564 13098 net.cpp:159] Memory required for data: 11958480
I0501 13:49:30.986567 13098 layer_factory.hpp:77] Creating layer accuracy
I0501 13:49:30.986572 13098 net.cpp:94] Creating Layer accuracy
I0501 13:49:30.986575 13098 net.cpp:435] accuracy <- ip3_ip3_0_split_0
I0501 13:49:30.986579 13098 net.cpp:435] accuracy <- label_intercept_1_split_0
I0501 13:49:30.986584 13098 net.cpp:409] accuracy -> accuracy
…
