…
I0503 07:03:26.823525 18816 net.cpp:323] The NetState phase (0) differed from the phase (1) specified by a rule in layer intercept
I0503 07:03:26.823541 18816 net.cpp:323] The NetState phase (0) differed from the phase (1) specified by a rule in layer loss
I0503 07:03:26.823629 18816 net.cpp:52] Initializing net from parameters: 
state {
  phase: TRAIN
}
layer {
  name: "parameters"
  type: "HDF5Data"
  top: "data"
  top: "label"
  include {
    phase: TRAIN
  }
  hdf5_data_param {
    source: "/home/purduethu/scratch/radon/d/deng106/CNNStatisticalModel/distributions/input/50_distributions_900_sample_size_train-parameters-path.txt"
    batch_size: 20
  }
}
layer {
  name: "conv1"
  type: "Convolution"
  bottom: "data"
  top: "conv1"
  param {
    lr_mult: 1
  }
  param {
    lr_mult: 2
  }
  convolution_param {
    num_output: 64
    pad: 2
    kernel_size: 5
    stride: 1
    weight_filler {
      type: "gaussian"
      std: 0.0001
    }
    bias_filler {
      type: "constant"
    }
  }
}
layer {
  name: "relu1"
  type: "ReLU"
  bottom: "conv1"
  top: "conv1"
}
layer {
  name: "conv2"
  type: "Convolution"
  bottom: "conv1"
  top: "conv2"
  param {
    lr_mult: 1
  }
  param {
    lr_mult: 2
  }
  convolution_param {
    num_output: 64
    pad: 2
    kernel_size: 5
    stride: 1
    weight_filler {
      type: "gaussian"
      std: 0.01
    }
    bias_filler {
      type: "constant"
    }
  }
}
layer {
  name: "relu2"
  type: "ReLU"
  bottom: "conv2"
  top: "conv2"
}
layer {
  name: "pool2"
  type: "Pooling"
  bottom: "conv2"
  top: "pool2"
  pooling_param {
    pool: MAX
    kernel_size: 3
    stride: 2
  }
}
layer {
  name: "conv3"
  type: "Convolution"
  bottom: "pool2"
  top: "conv3"
  param {
    lr_mult: 1
  }
  param {
    lr_mult: 2
  }
  convolution_param {
    num_output: 128
    pad: 2
    kernel_size: 5
    stride: 1
    weight_filler {
      type: "gaussian"
      std: 0.01
    }
    bias_filler {
      type: "constant"
    }
  }
}
layer {
  name: "relu3"
  type: "ReLU"
  bottom: "conv3"
  top: "conv3"
}
layer {
  name: "conv4"
  type: "Convolution"
  bottom: "conv3"
  top: "conv4"
  param {
    lr_mult: 1
  }
  param {
    lr_mult: 2
  }
  convolution_param {
    num_output: 128
    pad: 2
    kernel_size: 5
    stride: 1
    weight_filler {
      type: "gaussian"
      std: 0.01
    }
    bias_filler {
      type: "constant"
    }
  }
}
layer {
  name: "relu4"
  type: "ReLU"
  bottom: "conv4"
  top: "conv4"
}
layer {
  name: "conv5"
  type: "Convolution"
  bottom: "conv4"
  top: "conv5"
  param {
    lr_mult: 1
  }
  param {
    lr_mult: 2
  }
  convolution_param {
    num_output: 128
    pad: 2
    kernel_size: 5
    stride: 1
    weight_filler {
      type: "gaussian"
      std: 0.01
    }
    bias_filler {
      type: "constant"
    }
  }
}
layer {
  name: "relu5"
  type: "ReLU"
  bottom: "conv5"
  top: "conv5"
}
layer {
  name: "pool5"
  type: "Pooling"
  bottom: "conv5"
  top: "pool5"
  pooling_param {
    pool: AVE
    kernel_size: 3
    stride: 2
  }
}
layer {
  name: "ip1"
  type: "InnerProduct"
  bottom: "pool5"
  top: "ip1"
  param {
    lr_mult: 1
  }
  param {
    lr_mult: 2
  }
  inner_product_param {
    num_output: 1024
    weight_filler {
      type: "gaussian"
      std: 0.1
    }
    bias_filler {
      type: "constant"
    }
  }
}
layer {
  name: "ip2"
  type: "InnerProduct"
  bottom: "ip1"
  top: "ip2"
  param {
    lr_mult: 1
  }
  param {
    lr_mult: 2
  }
  inner_product_param {
    num_output: 512
    weight_filler {
      type: "gaussian"
      std: 0.1
    }
    bias_filler {
      type: "constant"
    }
  }
}
layer {
  name: "ip3"
  type: "InnerProduct"
  bottom: "ip2"
  top: "ip3"
  param {
    lr_mult: 1
  }
  param {
    lr_mult: 2
  }
  inner_product_param {
    num_output: 1
    weight_filler {
      type: "gaussian"
      std: 0.1
    }
    bias_filler {
      type: "constant"
    }
  }
}
layer {
  name: "loss"
  type: "HuberLoss"
  bottom: "ip3"
  bottom: "label"
  top: "loss"
  include {
    phase: TRAIN
  }
}
I0503 07:03:26.823703 18816 layer_factory.hpp:77] Creating layer parameters
I0503 07:03:26.823716 18816 net.cpp:94] Creating Layer parameters
I0503 07:03:26.823721 18816 net.cpp:409] parameters -> data
I0503 07:03:26.823740 18816 net.cpp:409] parameters -> label
I0503 07:03:26.823750 18816 hdf5_data_layer.cpp:79] Loading list of HDF5 filenames from: /home/purduethu/scratch/radon/d/deng106/CNNStatisticalModel/distributions/input/50_distributions_900_sample_size_train-parameters-path.txt
I0503 07:03:26.823771 18816 hdf5_data_layer.cpp:93] Number of HDF5 files: 1
I0503 07:03:26.824223 18816 hdf5.cpp:32] Datatype class: H5T_FLOAT
I0503 07:03:28.261862 18816 net.cpp:144] Setting up parameters
I0503 07:03:28.261898 18816 net.cpp:151] Top shape: 20 1 30 30 (18000)
I0503 07:03:28.261904 18816 net.cpp:151] Top shape: 20 (20)
I0503 07:03:28.261906 18816 net.cpp:159] Memory required for data: 72080
I0503 07:03:28.261914 18816 layer_factory.hpp:77] Creating layer conv1
I0503 07:03:28.261939 18816 net.cpp:94] Creating Layer conv1
I0503 07:03:28.261945 18816 net.cpp:435] conv1 <- data
I0503 07:03:28.261955 18816 net.cpp:409] conv1 -> conv1
I0503 07:03:28.269044 18816 net.cpp:144] Setting up conv1
I0503 07:03:28.269073 18816 net.cpp:151] Top shape: 20 64 30 30 (1152000)
I0503 07:03:28.269080 18816 net.cpp:159] Memory required for data: 4680080
I0503 07:03:28.269100 18816 layer_factory.hpp:77] Creating layer relu1
I0503 07:03:28.269114 18816 net.cpp:94] Creating Layer relu1
I0503 07:03:28.269121 18816 net.cpp:435] relu1 <- conv1
I0503 07:03:28.269130 18816 net.cpp:396] relu1 -> conv1 (in-place)
I0503 07:03:28.269156 18816 net.cpp:144] Setting up relu1
I0503 07:03:28.269165 18816 net.cpp:151] Top shape: 20 64 30 30 (1152000)
I0503 07:03:28.269171 18816 net.cpp:159] Memory required for data: 9288080
I0503 07:03:28.269177 18816 layer_factory.hpp:77] Creating layer conv2
I0503 07:03:28.269191 18816 net.cpp:94] Creating Layer conv2
I0503 07:03:28.269197 18816 net.cpp:435] conv2 <- conv1
I0503 07:03:28.269207 18816 net.cpp:409] conv2 -> conv2
I0503 07:03:28.284342 18816 net.cpp:144] Setting up conv2
I0503 07:03:28.284358 18816 net.cpp:151] Top shape: 20 64 30 30 (1152000)
I0503 07:03:28.284361 18816 net.cpp:159] Memory required for data: 13896080
I0503 07:03:28.284369 18816 layer_factory.hpp:77] Creating layer relu2
I0503 07:03:28.284376 18816 net.cpp:94] Creating Layer relu2
I0503 07:03:28.284380 18816 net.cpp:435] relu2 <- conv2
I0503 07:03:28.284384 18816 net.cpp:396] relu2 -> conv2 (in-place)
I0503 07:03:28.284391 18816 net.cpp:144] Setting up relu2
I0503 07:03:28.284396 18816 net.cpp:151] Top shape: 20 64 30 30 (1152000)
I0503 07:03:28.284399 18816 net.cpp:159] Memory required for data: 18504080
I0503 07:03:28.284402 18816 layer_factory.hpp:77] Creating layer pool2
I0503 07:03:28.284410 18816 net.cpp:94] Creating Layer pool2
I0503 07:03:28.284420 18816 net.cpp:435] pool2 <- conv2
I0503 07:03:28.284425 18816 net.cpp:409] pool2 -> pool2
I0503 07:03:28.284468 18816 net.cpp:144] Setting up pool2
I0503 07:03:28.284476 18816 net.cpp:151] Top shape: 20 64 15 15 (288000)
I0503 07:03:28.284479 18816 net.cpp:159] Memory required for data: 19656080
I0503 07:03:28.284482 18816 layer_factory.hpp:77] Creating layer conv3
I0503 07:03:28.284490 18816 net.cpp:94] Creating Layer conv3
I0503 07:03:28.284493 18816 net.cpp:435] conv3 <- pool2
I0503 07:03:28.284498 18816 net.cpp:409] conv3 -> conv3
I0503 07:03:28.296648 18816 net.cpp:144] Setting up conv3
I0503 07:03:28.296664 18816 net.cpp:151] Top shape: 20 128 15 15 (576000)
I0503 07:03:28.296669 18816 net.cpp:159] Memory required for data: 21960080
I0503 07:03:28.296677 18816 layer_factory.hpp:77] Creating layer relu3
I0503 07:03:28.296684 18816 net.cpp:94] Creating Layer relu3
I0503 07:03:28.296686 18816 net.cpp:435] relu3 <- conv3
I0503 07:03:28.296691 18816 net.cpp:396] relu3 -> conv3 (in-place)
I0503 07:03:28.296699 18816 net.cpp:144] Setting up relu3
I0503 07:03:28.296703 18816 net.cpp:151] Top shape: 20 128 15 15 (576000)
I0503 07:03:28.296706 18816 net.cpp:159] Memory required for data: 24264080
I0503 07:03:28.296710 18816 layer_factory.hpp:77] Creating layer conv4
I0503 07:03:28.296718 18816 net.cpp:94] Creating Layer conv4
I0503 07:03:28.296721 18816 net.cpp:435] conv4 <- conv3
I0503 07:03:28.296726 18816 net.cpp:409] conv4 -> conv4
I0503 07:03:28.319155 18816 net.cpp:144] Setting up conv4
I0503 07:03:28.319170 18816 net.cpp:151] Top shape: 20 128 15 15 (576000)
I0503 07:03:28.319175 18816 net.cpp:159] Memory required for data: 26568080
I0503 07:03:28.319181 18816 layer_factory.hpp:77] Creating layer relu4
I0503 07:03:28.319187 18816 net.cpp:94] Creating Layer relu4
I0503 07:03:28.319191 18816 net.cpp:435] relu4 <- conv4
I0503 07:03:28.319196 18816 net.cpp:396] relu4 -> conv4 (in-place)
I0503 07:03:28.319203 18816 net.cpp:144] Setting up relu4
I0503 07:03:28.319208 18816 net.cpp:151] Top shape: 20 128 15 15 (576000)
I0503 07:03:28.319211 18816 net.cpp:159] Memory required for data: 28872080
I0503 07:03:28.319214 18816 layer_factory.hpp:77] Creating layer conv5
I0503 07:03:28.319221 18816 net.cpp:94] Creating Layer conv5
I0503 07:03:28.319226 18816 net.cpp:435] conv5 <- conv4
I0503 07:03:28.319231 18816 net.cpp:409] conv5 -> conv5
I0503 07:03:28.341119 18816 net.cpp:144] Setting up conv5
I0503 07:03:28.341135 18816 net.cpp:151] Top shape: 20 128 15 15 (576000)
I0503 07:03:28.341138 18816 net.cpp:159] Memory required for data: 31176080
I0503 07:03:28.341147 18816 layer_factory.hpp:77] Creating layer relu5
I0503 07:03:28.341153 18816 net.cpp:94] Creating Layer relu5
I0503 07:03:28.341156 18816 net.cpp:435] relu5 <- conv5
I0503 07:03:28.341161 18816 net.cpp:396] relu5 -> conv5 (in-place)
I0503 07:03:28.341168 18816 net.cpp:144] Setting up relu5
I0503 07:03:28.341173 18816 net.cpp:151] Top shape: 20 128 15 15 (576000)
I0503 07:03:28.341176 18816 net.cpp:159] Memory required for data: 33480080
I0503 07:03:28.341179 18816 layer_factory.hpp:77] Creating layer pool5
I0503 07:03:28.341184 18816 net.cpp:94] Creating Layer pool5
I0503 07:03:28.341187 18816 net.cpp:435] pool5 <- conv5
I0503 07:03:28.341192 18816 net.cpp:409] pool5 -> pool5
I0503 07:03:28.341226 18816 net.cpp:144] Setting up pool5
I0503 07:03:28.341233 18816 net.cpp:151] Top shape: 20 128 7 7 (125440)
I0503 07:03:28.341236 18816 net.cpp:159] Memory required for data: 33981840
I0503 07:03:28.341239 18816 layer_factory.hpp:77] Creating layer ip1
I0503 07:03:28.341249 18816 net.cpp:94] Creating Layer ip1
I0503 07:03:28.341253 18816 net.cpp:435] ip1 <- pool5
I0503 07:03:28.341258 18816 net.cpp:409] ip1 -> ip1
I0503 07:03:28.496170 18816 net.cpp:144] Setting up ip1
I0503 07:03:28.496206 18816 net.cpp:151] Top shape: 20 1024 (20480)
I0503 07:03:28.496209 18816 net.cpp:159] Memory required for data: 34063760
I0503 07:03:28.496217 18816 layer_factory.hpp:77] Creating layer ip2
I0503 07:03:28.496228 18816 net.cpp:94] Creating Layer ip2
I0503 07:03:28.496244 18816 net.cpp:435] ip2 <- ip1
I0503 07:03:28.496253 18816 net.cpp:409] ip2 -> ip2
I0503 07:03:28.509285 18816 net.cpp:144] Setting up ip2
I0503 07:03:28.509299 18816 net.cpp:151] Top shape: 20 512 (10240)
I0503 07:03:28.509304 18816 net.cpp:159] Memory required for data: 34104720
I0503 07:03:28.509310 18816 layer_factory.hpp:77] Creating layer ip3
I0503 07:03:28.509316 18816 net.cpp:94] Creating Layer ip3
I0503 07:03:28.509320 18816 net.cpp:435] ip3 <- ip2
I0503 07:03:28.509325 18816 net.cpp:409] ip3 -> ip3
I0503 07:03:28.509400 18816 net.cpp:144] Setting up ip3
I0503 07:03:28.509415 18816 net.cpp:151] Top shape: 20 1 (20)
I0503 07:03:28.509419 18816 net.cpp:159] Memory required for data: 34104800
I0503 07:03:28.509424 18816 layer_factory.hpp:77] Creating layer loss
I0503 07:03:28.509433 18816 net.cpp:94] Creating Layer loss
I0503 07:03:28.509436 18816 net.cpp:435] loss <- ip3
I0503 07:03:28.509440 18816 net.cpp:435] loss <- label
I0503 07:03:28.509445 18816 net.cpp:409] loss -> loss
I0503 07:03:28.509481 18816 net.cpp:144] Setting up loss
…
