…
I0504 23:37:53.168661   705 net.cpp:323] The NetState phase (0) differed from the phase (1) specified by a rule in layer intercept
I0504 23:37:53.168678   705 net.cpp:323] The NetState phase (0) differed from the phase (1) specified by a rule in layer loss
I0504 23:37:53.168766   705 net.cpp:52] Initializing net from parameters: 
state {
  phase: TRAIN
}
layer {
  name: "parameters"
  type: "HDF5Data"
  top: "data"
  top: "label"
  include {
    phase: TRAIN
  }
  hdf5_data_param {
    source: "/home/purduethu/scratch/radon/d/deng106/CNNStatisticalModel/distributions/input/50_distributions_100_sample_size_train-parameters-path.txt"
    batch_size: 20
  }
}
layer {
  name: "conv1"
  type: "Convolution"
  bottom: "data"
  top: "conv1"
  param {
    lr_mult: 1
  }
  param {
    lr_mult: 2
  }
  convolution_param {
    num_output: 64
    pad: 2
    kernel_size: 5
    stride: 1
    weight_filler {
      type: "gaussian"
      std: 0.0001
    }
    bias_filler {
      type: "constant"
    }
  }
}
layer {
  name: "relu1"
  type: "ReLU"
  bottom: "conv1"
  top: "conv1"
}
layer {
  name: "pool1"
  type: "Pooling"
  bottom: "conv1"
  top: "pool1"
  pooling_param {
    pool: MAX
    kernel_size: 3
    stride: 2
  }
}
layer {
  name: "conv2"
  type: "Convolution"
  bottom: "pool1"
  top: "conv2"
  param {
    lr_mult: 1
  }
  param {
    lr_mult: 2
  }
  convolution_param {
    num_output: 128
    pad: 2
    kernel_size: 5
    stride: 1
    weight_filler {
      type: "gaussian"
      std: 0.01
    }
    bias_filler {
      type: "constant"
    }
  }
}
layer {
  name: "relu2"
  type: "ReLU"
  bottom: "conv2"
  top: "conv2"
}
layer {
  name: "conv3"
  type: "Convolution"
  bottom: "conv2"
  top: "conv3"
  param {
    lr_mult: 1
  }
  param {
    lr_mult: 2
  }
  convolution_param {
    num_output: 128
    pad: 2
    kernel_size: 5
    stride: 1
    weight_filler {
      type: "gaussian"
      std: 0.01
    }
    bias_filler {
      type: "constant"
    }
  }
}
layer {
  name: "relu3"
  type: "ReLU"
  bottom: "conv3"
  top: "conv3"
}
layer {
  name: "pool3"
  type: "Pooling"
  bottom: "conv3"
  top: "pool3"
  pooling_param {
    pool: AVE
    kernel_size: 3
    stride: 2
  }
}
layer {
  name: "ip1"
  type: "InnerProduct"
  bottom: "pool3"
  top: "ip1"
  param {
    lr_mult: 1
  }
  param {
    lr_mult: 2
  }
  inner_product_param {
    num_output: 512
    weight_filler {
      type: "gaussian"
      std: 0.1
    }
    bias_filler {
      type: "constant"
    }
  }
}
layer {
  name: "ip2"
  type: "InnerProduct"
  bottom: "ip1"
  top: "ip2"
  param {
    lr_mult: 1
  }
  param {
    lr_mult: 2
  }
  inner_product_param {
    num_output: 256
    weight_filler {
      type: "gaussian"
      std: 0.1
    }
    bias_filler {
      type: "constant"
    }
  }
}
layer {
  name: "ip3"
  type: "InnerProduct"
  bottom: "ip2"
  top: "ip3"
  param {
    lr_mult: 1
  }
  param {
    lr_mult: 2
  }
  inner_product_param {
    num_output: 1
    weight_filler {
      type: "gaussian"
      std: 0.1
    }
    bias_filler {
      type: "constant"
    }
  }
}
layer {
  name: "loss"
  type: "HuberLoss"
  bottom: "ip3"
  bottom: "label"
  top: "loss"
  include {
    phase: TRAIN
  }
}
I0504 23:37:53.168836   705 layer_factory.hpp:77] Creating layer parameters
I0504 23:37:53.168851   705 net.cpp:94] Creating Layer parameters
I0504 23:37:53.168864   705 net.cpp:409] parameters -> data
I0504 23:37:53.168885   705 net.cpp:409] parameters -> label
I0504 23:37:53.168898   705 hdf5_data_layer.cpp:79] Loading list of HDF5 filenames from: /home/purduethu/scratch/radon/d/deng106/CNNStatisticalModel/distributions/input/50_distributions_100_sample_size_train-parameters-path.txt
I0504 23:37:53.168921   705 hdf5_data_layer.cpp:93] Number of HDF5 files: 1
I0504 23:37:53.169554   705 hdf5.cpp:32] Datatype class: H5T_FLOAT
I0504 23:37:53.334173   705 net.cpp:144] Setting up parameters
I0504 23:37:53.334208   705 net.cpp:151] Top shape: 20 1 10 10 (2000)
I0504 23:37:53.334214   705 net.cpp:151] Top shape: 20 (20)
I0504 23:37:53.334218   705 net.cpp:159] Memory required for data: 8080
I0504 23:37:53.334225   705 layer_factory.hpp:77] Creating layer conv1
I0504 23:37:53.334249   705 net.cpp:94] Creating Layer conv1
I0504 23:37:53.334255   705 net.cpp:435] conv1 <- data
I0504 23:37:53.334266   705 net.cpp:409] conv1 -> conv1
I0504 23:37:53.338096   705 net.cpp:144] Setting up conv1
I0504 23:37:53.338112   705 net.cpp:151] Top shape: 20 64 10 10 (128000)
I0504 23:37:53.338117   705 net.cpp:159] Memory required for data: 520080
I0504 23:37:53.338129   705 layer_factory.hpp:77] Creating layer relu1
I0504 23:37:53.338137   705 net.cpp:94] Creating Layer relu1
I0504 23:37:53.338141   705 net.cpp:435] relu1 <- conv1
I0504 23:37:53.338145   705 net.cpp:396] relu1 -> conv1 (in-place)
I0504 23:37:53.338161   705 net.cpp:144] Setting up relu1
I0504 23:37:53.338166   705 net.cpp:151] Top shape: 20 64 10 10 (128000)
I0504 23:37:53.338171   705 net.cpp:159] Memory required for data: 1032080
I0504 23:37:53.338173   705 layer_factory.hpp:77] Creating layer pool1
I0504 23:37:53.338181   705 net.cpp:94] Creating Layer pool1
I0504 23:37:53.338183   705 net.cpp:435] pool1 <- conv1
I0504 23:37:53.338188   705 net.cpp:409] pool1 -> pool1
I0504 23:37:53.338233   705 net.cpp:144] Setting up pool1
I0504 23:37:53.338240   705 net.cpp:151] Top shape: 20 64 5 5 (32000)
I0504 23:37:53.338243   705 net.cpp:159] Memory required for data: 1160080
I0504 23:37:53.338248   705 layer_factory.hpp:77] Creating layer conv2
I0504 23:37:53.338256   705 net.cpp:94] Creating Layer conv2
I0504 23:37:53.338260   705 net.cpp:435] conv2 <- pool1
I0504 23:37:53.338265   705 net.cpp:409] conv2 -> conv2
I0504 23:37:53.347053   705 net.cpp:144] Setting up conv2
I0504 23:37:53.347074   705 net.cpp:151] Top shape: 20 128 5 5 (64000)
I0504 23:37:53.347079   705 net.cpp:159] Memory required for data: 1416080
I0504 23:37:53.347088   705 layer_factory.hpp:77] Creating layer relu2
I0504 23:37:53.347095   705 net.cpp:94] Creating Layer relu2
I0504 23:37:53.347098   705 net.cpp:435] relu2 <- conv2
I0504 23:37:53.347105   705 net.cpp:396] relu2 -> conv2 (in-place)
I0504 23:37:53.347111   705 net.cpp:144] Setting up relu2
I0504 23:37:53.347115   705 net.cpp:151] Top shape: 20 128 5 5 (64000)
I0504 23:37:53.347120   705 net.cpp:159] Memory required for data: 1672080
I0504 23:37:53.347122   705 layer_factory.hpp:77] Creating layer conv3
I0504 23:37:53.347131   705 net.cpp:94] Creating Layer conv3
I0504 23:37:53.347134   705 net.cpp:435] conv3 <- conv2
I0504 23:37:53.347139   705 net.cpp:409] conv3 -> conv3
I0504 23:37:53.362215   705 net.cpp:144] Setting up conv3
I0504 23:37:53.362246   705 net.cpp:151] Top shape: 20 128 5 5 (64000)
I0504 23:37:53.362251   705 net.cpp:159] Memory required for data: 1928080
I0504 23:37:53.362262   705 layer_factory.hpp:77] Creating layer relu3
I0504 23:37:53.362272   705 net.cpp:94] Creating Layer relu3
I0504 23:37:53.362282   705 net.cpp:435] relu3 <- conv3
I0504 23:37:53.362287   705 net.cpp:396] relu3 -> conv3 (in-place)
I0504 23:37:53.362298   705 net.cpp:144] Setting up relu3
I0504 23:37:53.362303   705 net.cpp:151] Top shape: 20 128 5 5 (64000)
I0504 23:37:53.362305   705 net.cpp:159] Memory required for data: 2184080
I0504 23:37:53.362308   705 layer_factory.hpp:77] Creating layer pool3
I0504 23:37:53.362315   705 net.cpp:94] Creating Layer pool3
I0504 23:37:53.362318   705 net.cpp:435] pool3 <- conv3
I0504 23:37:53.362330   705 net.cpp:409] pool3 -> pool3
I0504 23:37:53.362371   705 net.cpp:144] Setting up pool3
I0504 23:37:53.362380   705 net.cpp:151] Top shape: 20 128 2 2 (10240)
I0504 23:37:53.362382   705 net.cpp:159] Memory required for data: 2225040
I0504 23:37:53.362385   705 layer_factory.hpp:77] Creating layer ip1
I0504 23:37:53.362396   705 net.cpp:94] Creating Layer ip1
I0504 23:37:53.362399   705 net.cpp:435] ip1 <- pool3
I0504 23:37:53.362404   705 net.cpp:409] ip1 -> ip1
I0504 23:37:53.369613   705 net.cpp:144] Setting up ip1
I0504 23:37:53.369633   705 net.cpp:151] Top shape: 20 512 (10240)
I0504 23:37:53.369637   705 net.cpp:159] Memory required for data: 2266000
I0504 23:37:53.369644   705 layer_factory.hpp:77] Creating layer ip2
I0504 23:37:53.369652   705 net.cpp:94] Creating Layer ip2
I0504 23:37:53.369657   705 net.cpp:435] ip2 <- ip1
I0504 23:37:53.369662   705 net.cpp:409] ip2 -> ip2
I0504 23:37:53.373556   705 net.cpp:144] Setting up ip2
I0504 23:37:53.373571   705 net.cpp:151] Top shape: 20 256 (5120)
I0504 23:37:53.373575   705 net.cpp:159] Memory required for data: 2286480
I0504 23:37:53.373584   705 layer_factory.hpp:77] Creating layer ip3
I0504 23:37:53.373590   705 net.cpp:94] Creating Layer ip3
I0504 23:37:53.373594   705 net.cpp:435] ip3 <- ip2
I0504 23:37:53.373600   705 net.cpp:409] ip3 -> ip3
I0504 23:37:53.373668   705 net.cpp:144] Setting up ip3
I0504 23:37:53.373675   705 net.cpp:151] Top shape: 20 1 (20)
I0504 23:37:53.373678   705 net.cpp:159] Memory required for data: 2286560
I0504 23:37:53.373683   705 layer_factory.hpp:77] Creating layer loss
I0504 23:37:53.373689   705 net.cpp:94] Creating Layer loss
I0504 23:37:53.373693   705 net.cpp:435] loss <- ip3
I0504 23:37:53.373697   705 net.cpp:435] loss <- label
I0504 23:37:53.373703   705 net.cpp:409] loss -> loss
I0504 23:37:53.373739   705 net.cpp:144] Setting up loss
…
