…
I0503 15:05:09.160188 21077 net.cpp:323] The NetState phase (0) differed from the phase (1) specified by a rule in layer intercept
I0503 15:05:09.160210 21077 net.cpp:323] The NetState phase (0) differed from the phase (1) specified by a rule in layer accuracy
I0503 15:05:09.160338 21077 net.cpp:52] Initializing net from parameters: 
state {
  phase: TRAIN
}
layer {
  name: "parameters"
  type: "HDF5Data"
  top: "data"
  top: "label"
  include {
    phase: TRAIN
  }
  hdf5_data_param {
    source: "/home/purduethu/scratch/radon/d/deng106/CNNStatisticalModel/distributions/input/20_distributions_900_sample_size_train-distributions-path.txt"
    batch_size: 20
  }
}
layer {
  name: "conv1"
  type: "Convolution"
  bottom: "data"
  top: "conv1"
  param {
    lr_mult: 1
  }
  param {
    lr_mult: 2
  }
  convolution_param {
    num_output: 64
    pad: 2
    kernel_size: 5
    stride: 1
    weight_filler {
      type: "gaussian"
      std: 0.0001
    }
    bias_filler {
      type: "constant"
    }
  }
}
layer {
  name: "relu1"
  type: "ReLU"
  bottom: "conv1"
  top: "conv1"
}
layer {
  name: "conv2"
  type: "Convolution"
  bottom: "conv1"
  top: "conv2"
  param {
    lr_mult: 1
  }
  param {
    lr_mult: 2
  }
  convolution_param {
    num_output: 64
    pad: 2
    kernel_size: 5
    stride: 1
    weight_filler {
      type: "gaussian"
      std: 0.01
    }
    bias_filler {
      type: "constant"
    }
  }
}
layer {
  name: "relu2"
  type: "ReLU"
  bottom: "conv2"
  top: "conv2"
}
layer {
  name: "pool2"
  type: "Pooling"
  bottom: "conv2"
  top: "pool2"
  pooling_param {
    pool: MAX
    kernel_size: 3
    stride: 2
  }
}
layer {
  name: "conv3"
  type: "Convolution"
  bottom: "pool2"
  top: "conv3"
  param {
    lr_mult: 1
  }
  param {
    lr_mult: 2
  }
  convolution_param {
    num_output: 128
    pad: 2
    kernel_size: 5
    stride: 1
    weight_filler {
      type: "gaussian"
      std: 0.01
    }
    bias_filler {
      type: "constant"
    }
  }
}
layer {
  name: "relu3"
  type: "ReLU"
  bottom: "conv3"
  top: "conv3"
}
layer {
  name: "conv4"
  type: "Convolution"
  bottom: "conv3"
  top: "conv4"
  param {
    lr_mult: 1
  }
  param {
    lr_mult: 2
  }
  convolution_param {
    num_output: 128
    pad: 2
    kernel_size: 5
    stride: 1
    weight_filler {
      type: "gaussian"
      std: 0.01
    }
    bias_filler {
      type: "constant"
    }
  }
}
layer {
  name: "relu4"
  type: "ReLU"
  bottom: "conv4"
  top: "conv4"
}
layer {
  name: "conv5"
  type: "Convolution"
  bottom: "conv4"
  top: "conv5"
  param {
    lr_mult: 1
  }
  param {
    lr_mult: 2
  }
  convolution_param {
    num_output: 128
    pad: 2
    kernel_size: 5
    stride: 1
    weight_filler {
      type: "gaussian"
      std: 0.01
    }
    bias_filler {
      type: "constant"
    }
  }
}
layer {
  name: "relu5"
  type: "ReLU"
  bottom: "conv5"
  top: "conv5"
}
layer {
  name: "pool5"
  type: "Pooling"
  bottom: "conv5"
  top: "pool5"
  pooling_param {
    pool: AVE
    kernel_size: 3
    stride: 2
  }
}
layer {
  name: "ip1"
  type: "InnerProduct"
  bottom: "pool5"
  top: "ip1"
  param {
    lr_mult: 1
  }
  param {
    lr_mult: 2
  }
  inner_product_param {
    num_output: 1024
    weight_filler {
      type: "gaussian"
      std: 0.1
    }
    bias_filler {
      type: "constant"
    }
  }
}
layer {
  name: "ip2"
  type: "InnerProduct"
  bottom: "ip1"
  top: "ip2"
  param {
    lr_mult: 1
  }
  param {
    lr_mult: 2
  }
  inner_product_param {
    num_output: 512
    weight_filler {
      type: "gaussian"
      std: 0.1
    }
    bias_filler {
      type: "constant"
    }
  }
}
layer {
  name: "ip3"
  type: "InnerProduct"
  bottom: "ip2"
  top: "ip3"
  param {
    lr_mult: 1
  }
  param {
    lr_mult: 2
  }
  inner_product_param {
    num_output: 50
    weight_filler {
      type: "gaussian"
      std: 0.1
    }
    bias_filler {
      type: "constant"
    }
  }
}
layer {
  name: "loss"
  type: "SoftmaxWithLoss"
  bottom: "ip3"
  bottom: "label"
  top: "loss"
}
I0503 15:05:09.160436 21077 layer_factory.hpp:77] Creating layer parameters
I0503 15:05:09.160454 21077 net.cpp:94] Creating Layer parameters
I0503 15:05:09.160462 21077 net.cpp:409] parameters -> data
I0503 15:05:09.160485 21077 net.cpp:409] parameters -> label
I0503 15:05:09.160497 21077 hdf5_data_layer.cpp:79] Loading list of HDF5 filenames from: /home/purduethu/scratch/radon/d/deng106/CNNStatisticalModel/distributions/input/20_distributions_900_sample_size_train-distributions-path.txt
I0503 15:05:09.160523 21077 hdf5_data_layer.cpp:93] Number of HDF5 files: 1
I0503 15:05:09.161144 21077 hdf5.cpp:32] Datatype class: H5T_FLOAT
I0503 15:05:09.764492 21077 hdf5.cpp:35] Datatype class: H5T_INTEGER
I0503 15:05:09.766026 21077 net.cpp:144] Setting up parameters
I0503 15:05:09.766044 21077 net.cpp:151] Top shape: 20 1 30 30 (18000)
I0503 15:05:09.766050 21077 net.cpp:151] Top shape: 20 (20)
I0503 15:05:09.766053 21077 net.cpp:159] Memory required for data: 72080
I0503 15:05:09.766062 21077 layer_factory.hpp:77] Creating layer conv1
I0503 15:05:09.766085 21077 net.cpp:94] Creating Layer conv1
I0503 15:05:09.766091 21077 net.cpp:435] conv1 <- data
I0503 15:05:09.766103 21077 net.cpp:409] conv1 -> conv1
I0503 15:05:09.772023 21077 net.cpp:144] Setting up conv1
I0503 15:05:09.772038 21077 net.cpp:151] Top shape: 20 64 30 30 (1152000)
I0503 15:05:09.772042 21077 net.cpp:159] Memory required for data: 4680080
I0503 15:05:09.772053 21077 layer_factory.hpp:77] Creating layer relu1
I0503 15:05:09.772061 21077 net.cpp:94] Creating Layer relu1
I0503 15:05:09.772065 21077 net.cpp:435] relu1 <- conv1
I0503 15:05:09.772070 21077 net.cpp:396] relu1 -> conv1 (in-place)
I0503 15:05:09.772088 21077 net.cpp:144] Setting up relu1
I0503 15:05:09.772094 21077 net.cpp:151] Top shape: 20 64 30 30 (1152000)
I0503 15:05:09.772096 21077 net.cpp:159] Memory required for data: 9288080
I0503 15:05:09.772099 21077 layer_factory.hpp:77] Creating layer conv2
I0503 15:05:09.772107 21077 net.cpp:94] Creating Layer conv2
I0503 15:05:09.772110 21077 net.cpp:435] conv2 <- conv1
I0503 15:05:09.772115 21077 net.cpp:409] conv2 -> conv2
I0503 15:05:09.786563 21077 net.cpp:144] Setting up conv2
I0503 15:05:09.786578 21077 net.cpp:151] Top shape: 20 64 30 30 (1152000)
I0503 15:05:09.786583 21077 net.cpp:159] Memory required for data: 13896080
I0503 15:05:09.786592 21077 layer_factory.hpp:77] Creating layer relu2
I0503 15:05:09.786597 21077 net.cpp:94] Creating Layer relu2
I0503 15:05:09.786602 21077 net.cpp:435] relu2 <- conv2
I0503 15:05:09.786607 21077 net.cpp:396] relu2 -> conv2 (in-place)
I0503 15:05:09.786613 21077 net.cpp:144] Setting up relu2
I0503 15:05:09.786618 21077 net.cpp:151] Top shape: 20 64 30 30 (1152000)
I0503 15:05:09.786622 21077 net.cpp:159] Memory required for data: 18504080
I0503 15:05:09.786624 21077 layer_factory.hpp:77] Creating layer pool2
I0503 15:05:09.786638 21077 net.cpp:94] Creating Layer pool2
I0503 15:05:09.786641 21077 net.cpp:435] pool2 <- conv2
I0503 15:05:09.786646 21077 net.cpp:409] pool2 -> pool2
I0503 15:05:09.786690 21077 net.cpp:144] Setting up pool2
I0503 15:05:09.786697 21077 net.cpp:151] Top shape: 20 64 15 15 (288000)
I0503 15:05:09.786700 21077 net.cpp:159] Memory required for data: 19656080
I0503 15:05:09.786705 21077 layer_factory.hpp:77] Creating layer conv3
I0503 15:05:09.786711 21077 net.cpp:94] Creating Layer conv3
I0503 15:05:09.786715 21077 net.cpp:435] conv3 <- pool2
I0503 15:05:09.786727 21077 net.cpp:409] conv3 -> conv3
I0503 15:05:09.798902 21077 net.cpp:144] Setting up conv3
I0503 15:05:09.798943 21077 net.cpp:151] Top shape: 20 128 15 15 (576000)
I0503 15:05:09.798954 21077 net.cpp:159] Memory required for data: 21960080
I0503 15:05:09.798977 21077 layer_factory.hpp:77] Creating layer relu3
I0503 15:05:09.798995 21077 net.cpp:94] Creating Layer relu3
I0503 15:05:09.799005 21077 net.cpp:435] relu3 <- conv3
I0503 15:05:09.799018 21077 net.cpp:396] relu3 -> conv3 (in-place)
I0503 15:05:09.799038 21077 net.cpp:144] Setting up relu3
I0503 15:05:09.799052 21077 net.cpp:151] Top shape: 20 128 15 15 (576000)
I0503 15:05:09.799060 21077 net.cpp:159] Memory required for data: 24264080
I0503 15:05:09.799070 21077 layer_factory.hpp:77] Creating layer conv4
I0503 15:05:09.799093 21077 net.cpp:94] Creating Layer conv4
I0503 15:05:09.799103 21077 net.cpp:435] conv4 <- conv3
I0503 15:05:09.799118 21077 net.cpp:409] conv4 -> conv4
I0503 15:05:09.820644 21077 net.cpp:144] Setting up conv4
I0503 15:05:09.820659 21077 net.cpp:151] Top shape: 20 128 15 15 (576000)
I0503 15:05:09.820664 21077 net.cpp:159] Memory required for data: 26568080
I0503 15:05:09.820670 21077 layer_factory.hpp:77] Creating layer relu4
I0503 15:05:09.820677 21077 net.cpp:94] Creating Layer relu4
I0503 15:05:09.820680 21077 net.cpp:435] relu4 <- conv4
I0503 15:05:09.820684 21077 net.cpp:396] relu4 -> conv4 (in-place)
I0503 15:05:09.820691 21077 net.cpp:144] Setting up relu4
I0503 15:05:09.820696 21077 net.cpp:151] Top shape: 20 128 15 15 (576000)
I0503 15:05:09.820699 21077 net.cpp:159] Memory required for data: 28872080
I0503 15:05:09.820703 21077 layer_factory.hpp:77] Creating layer conv5
I0503 15:05:09.820710 21077 net.cpp:94] Creating Layer conv5
I0503 15:05:09.820714 21077 net.cpp:435] conv5 <- conv4
I0503 15:05:09.820719 21077 net.cpp:409] conv5 -> conv5
I0503 15:05:09.841962 21077 net.cpp:144] Setting up conv5
I0503 15:05:09.841979 21077 net.cpp:151] Top shape: 20 128 15 15 (576000)
I0503 15:05:09.841982 21077 net.cpp:159] Memory required for data: 31176080
I0503 15:05:09.841991 21077 layer_factory.hpp:77] Creating layer relu5
I0503 15:05:09.841998 21077 net.cpp:94] Creating Layer relu5
I0503 15:05:09.842002 21077 net.cpp:435] relu5 <- conv5
I0503 15:05:09.842006 21077 net.cpp:396] relu5 -> conv5 (in-place)
I0503 15:05:09.842015 21077 net.cpp:144] Setting up relu5
I0503 15:05:09.842018 21077 net.cpp:151] Top shape: 20 128 15 15 (576000)
I0503 15:05:09.842022 21077 net.cpp:159] Memory required for data: 33480080
I0503 15:05:09.842025 21077 layer_factory.hpp:77] Creating layer pool5
I0503 15:05:09.842031 21077 net.cpp:94] Creating Layer pool5
I0503 15:05:09.842033 21077 net.cpp:435] pool5 <- conv5
I0503 15:05:09.842037 21077 net.cpp:409] pool5 -> pool5
I0503 15:05:09.842075 21077 net.cpp:144] Setting up pool5
I0503 15:05:09.842083 21077 net.cpp:151] Top shape: 20 128 7 7 (125440)
I0503 15:05:09.842087 21077 net.cpp:159] Memory required for data: 33981840
I0503 15:05:09.842090 21077 layer_factory.hpp:77] Creating layer ip1
I0503 15:05:09.842100 21077 net.cpp:94] Creating Layer ip1
I0503 15:05:09.842104 21077 net.cpp:435] ip1 <- pool5
I0503 15:05:09.842109 21077 net.cpp:409] ip1 -> ip1
I0503 15:05:09.997809 21077 net.cpp:144] Setting up ip1
I0503 15:05:09.997844 21077 net.cpp:151] Top shape: 20 1024 (20480)
I0503 15:05:09.997849 21077 net.cpp:159] Memory required for data: 34063760
I0503 15:05:09.997858 21077 layer_factory.hpp:77] Creating layer ip2
I0503 15:05:09.997876 21077 net.cpp:94] Creating Layer ip2
I0503 15:05:09.997882 21077 net.cpp:435] ip2 <- ip1
I0503 15:05:09.997889 21077 net.cpp:409] ip2 -> ip2
I0503 15:05:10.011610 21077 net.cpp:144] Setting up ip2
I0503 15:05:10.011622 21077 net.cpp:151] Top shape: 20 512 (10240)
I0503 15:05:10.011626 21077 net.cpp:159] Memory required for data: 34104720
I0503 15:05:10.011632 21077 layer_factory.hpp:77] Creating layer ip3
I0503 15:05:10.011638 21077 net.cpp:94] Creating Layer ip3
I0503 15:05:10.011642 21077 net.cpp:435] ip3 <- ip2
I0503 15:05:10.011647 21077 net.cpp:409] ip3 -> ip3
I0503 15:05:10.013006 21077 net.cpp:144] Setting up ip3
I0503 15:05:10.013020 21077 net.cpp:151] Top shape: 20 50 (1000)
I0503 15:05:10.013022 21077 net.cpp:159] Memory required for data: 34108720
I0503 15:05:10.013028 21077 layer_factory.hpp:77] Creating layer loss
I0503 15:05:10.013036 21077 net.cpp:94] Creating Layer loss
I0503 15:05:10.013041 21077 net.cpp:435] loss <- ip3
I0503 15:05:10.013044 21077 net.cpp:435] loss <- label
I0503 15:05:10.013051 21077 net.cpp:409] loss -> loss
I0503 15:05:10.013062 21077 layer_factory.hpp:77] Creating layer loss
…
I0503 15:05:10.013557 21077 solver.cpp:181] Creating test net (#0) specified by net file: ./protocol/dis_20_900_dimension.protocol_distribution
I0503 15:05:10.013584 21077 net.cpp:323] The NetState phase (1) differed from the phase (0) specified by a rule in layer parameters
I0503 15:05:10.013680 21077 net.cpp:52] Initializing net from parameters: 
state {
  phase: TEST
}
layer {
  name: "intercept"
  type: "HDF5Data"
  top: "data"
  top: "label"
  include {
    phase: TEST
  }
  hdf5_data_param {
    source: "/home/purduethu/scratch/radon/d/deng106/CNNStatisticalModel/distributions/input/20_distributions_900_sample_size_test-distributions-path.txt"
    batch_size: 20
  }
}
layer {
  name: "conv1"
  type: "Convolution"
  bottom: "data"
  top: "conv1"
  param {
    lr_mult: 1
  }
  param {
    lr_mult: 2
  }
  convolution_param {
    num_output: 64
    pad: 2
    kernel_size: 5
    stride: 1
    weight_filler {
      type: "gaussian"
      std: 0.0001
    }
    bias_filler {
      type: "constant"
    }
  }
}
layer {
  name: "relu1"
  type: "ReLU"
  bottom: "conv1"
  top: "conv1"
}
layer {
  name: "conv2"
  type: "Convolution"
  bottom: "conv1"
  top: "conv2"
  param {
    lr_mult: 1
  }
  param {
    lr_mult: 2
  }
  convolution_param {
    num_output: 64
    pad: 2
    kernel_size: 5
    stride: 1
    weight_filler {
      type: "gaussian"
      std: 0.01
    }
    bias_filler {
      type: "constant"
    }
  }
}
layer {
  name: "relu2"
  type: "ReLU"
  bottom: "conv2"
  top: "conv2"
}
layer {
  name: "pool2"
  type: "Pooling"
  bottom: "conv2"
  top: "pool2"
  pooling_param {
    pool: MAX
    kernel_size: 3
    stride: 2
  }
}
layer {
  name: "conv3"
  type: "Convolution"
  bottom: "pool2"
  top: "conv3"
  param {
    lr_mult: 1
  }
  param {
    lr_mult: 2
  }
  convolution_param {
    num_output: 128
    pad: 2
    kernel_size: 5
    stride: 1
    weight_filler {
      type: "gaussian"
      std: 0.01
    }
    bias_filler {
      type: "constant"
    }
  }
}
layer {
  name: "relu3"
  type: "ReLU"
  bottom: "conv3"
  top: "conv3"
}
layer {
  name: "conv4"
  type: "Convolution"
  bottom: "conv3"
  top: "conv4"
  param {
    lr_mult: 1
  }
  param {
    lr_mult: 2
  }
  convolution_param {
    num_output: 128
    pad: 2
    kernel_size: 5
    stride: 1
    weight_filler {
      type: "gaussian"
      std: 0.01
    }
    bias_filler {
      type: "constant"
    }
  }
}
layer {
  name: "relu4"
  type: "ReLU"
  bottom: "conv4"
  top: "conv4"
}
layer {
  name: "conv5"
  type: "Convolution"
  bottom: "conv4"
  top: "conv5"
  param {
    lr_mult: 1
  }
  param {
    lr_mult: 2
  }
  convolution_param {
    num_output: 128
    pad: 2
    kernel_size: 5
    stride: 1
    weight_filler {
      type: "gaussian"
      std: 0.01
    }
    bias_filler {
      type: "constant"
    }
  }
}
layer {
  name: "relu5"
  type: "ReLU"
  bottom: "conv5"
  top: "conv5"
}
layer {
  name: "pool5"
  type: "Pooling"
  bottom: "conv5"
  top: "pool5"
  pooling_param {
    pool: AVE
    kernel_size: 3
    stride: 2
  }
}
layer {
  name: "ip1"
  type: "InnerProduct"
  bottom: "pool5"
  top: "ip1"
  param {
    lr_mult: 1
  }
  param {
    lr_mult: 2
  }
  inner_product_param {
    num_output: 1024
    weight_filler {
      type: "gaussian"
      std: 0.1
    }
    bias_filler {
      type: "constant"
    }
  }
}
layer {
  name: "ip2"
  type: "InnerProduct"
  bottom: "ip1"
  top: "ip2"
  param {
    lr_mult: 1
  }
  param {
    lr_mult: 2
  }
  inner_product_param {
    num_output: 512
    weight_filler {
      type: "gaussian"
      std: 0.1
    }
    bias_filler {
      type: "constant"
    }
  }
}
layer {
  name: "ip3"
  type: "InnerProduct"
  bottom: "ip2"
  top: "ip3"
  param {
    lr_mult: 1
  }
  param {
    lr_mult: 2
  }
  inner_product_param {
    num_output: 50
    weight_filler {
      type: "gaussian"
      std: 0.1
    }
    bias_filler {
      type: "constant"
    }
  }
}
layer {
  name: "accuracy"
  type: "Accuracy"
  bottom: "ip3"
  bottom: "label"
  top: "accuracy"
  include {
    phase: TEST
  }
}
layer {
  name: "loss"
  type: "SoftmaxWithLoss"
  bottom: "ip3"
  bottom: "label"
  top: "loss"
}
I0503 15:05:10.013751 21077 layer_factory.hpp:77] Creating layer intercept
I0503 15:05:10.013759 21077 net.cpp:94] Creating Layer intercept
I0503 15:05:10.013763 21077 net.cpp:409] intercept -> data
I0503 15:05:10.013770 21077 net.cpp:409] intercept -> label
I0503 15:05:10.013777 21077 hdf5_data_layer.cpp:79] Loading list of HDF5 filenames from: /home/purduethu/scratch/radon/d/deng106/CNNStatisticalModel/distributions/input/20_distributions_900_sample_size_test-distributions-path.txt
I0503 15:05:10.013794 21077 hdf5_data_layer.cpp:93] Number of HDF5 files: 1
I0503 15:05:10.153744 21077 net.cpp:144] Setting up intercept
I0503 15:05:10.153779 21077 net.cpp:151] Top shape: 20 1 30 30 (18000)
I0503 15:05:10.153784 21077 net.cpp:151] Top shape: 20 (20)
I0503 15:05:10.153786 21077 net.cpp:159] Memory required for data: 72080
I0503 15:05:10.153792 21077 layer_factory.hpp:77] Creating layer label_intercept_1_split
I0503 15:05:10.153813 21077 net.cpp:94] Creating Layer label_intercept_1_split
I0503 15:05:10.153818 21077 net.cpp:435] label_intercept_1_split <- label
I0503 15:05:10.153825 21077 net.cpp:409] label_intercept_1_split -> label_intercept_1_split_0
I0503 15:05:10.153841 21077 net.cpp:409] label_intercept_1_split -> label_intercept_1_split_1
I0503 15:05:10.153867 21077 net.cpp:144] Setting up label_intercept_1_split
I0503 15:05:10.153873 21077 net.cpp:151] Top shape: 20 (20)
I0503 15:05:10.153877 21077 net.cpp:151] Top shape: 20 (20)
I0503 15:05:10.153880 21077 net.cpp:159] Memory required for data: 72240
I0503 15:05:10.153883 21077 layer_factory.hpp:77] Creating layer conv1
I0503 15:05:10.153893 21077 net.cpp:94] Creating Layer conv1
I0503 15:05:10.153898 21077 net.cpp:435] conv1 <- data
I0503 15:05:10.153903 21077 net.cpp:409] conv1 -> conv1
I0503 15:05:10.155238 21077 net.cpp:144] Setting up conv1
I0503 15:05:10.155252 21077 net.cpp:151] Top shape: 20 64 30 30 (1152000)
I0503 15:05:10.155256 21077 net.cpp:159] Memory required for data: 4680240
I0503 15:05:10.155266 21077 layer_factory.hpp:77] Creating layer relu1
I0503 15:05:10.155272 21077 net.cpp:94] Creating Layer relu1
I0503 15:05:10.155277 21077 net.cpp:435] relu1 <- conv1
I0503 15:05:10.155280 21077 net.cpp:396] relu1 -> conv1 (in-place)
I0503 15:05:10.155287 21077 net.cpp:144] Setting up relu1
I0503 15:05:10.155292 21077 net.cpp:151] Top shape: 20 64 30 30 (1152000)
I0503 15:05:10.155295 21077 net.cpp:159] Memory required for data: 9288240
I0503 15:05:10.155298 21077 layer_factory.hpp:77] Creating layer conv2
I0503 15:05:10.155306 21077 net.cpp:94] Creating Layer conv2
I0503 15:05:10.155310 21077 net.cpp:435] conv2 <- conv1
I0503 15:05:10.155315 21077 net.cpp:409] conv2 -> conv2
I0503 15:05:10.162374 21077 net.cpp:144] Setting up conv2
I0503 15:05:10.162415 21077 net.cpp:151] Top shape: 20 64 30 30 (1152000)
I0503 15:05:10.162426 21077 net.cpp:159] Memory required for data: 13896240
I0503 15:05:10.162449 21077 layer_factory.hpp:77] Creating layer relu2
I0503 15:05:10.162466 21077 net.cpp:94] Creating Layer relu2
I0503 15:05:10.162477 21077 net.cpp:435] relu2 <- conv2
I0503 15:05:10.162489 21077 net.cpp:396] relu2 -> conv2 (in-place)
I0503 15:05:10.162509 21077 net.cpp:144] Setting up relu2
I0503 15:05:10.162523 21077 net.cpp:151] Top shape: 20 64 30 30 (1152000)
I0503 15:05:10.162531 21077 net.cpp:159] Memory required for data: 18504240
I0503 15:05:10.162540 21077 layer_factory.hpp:77] Creating layer pool2
I0503 15:05:10.162555 21077 net.cpp:94] Creating Layer pool2
I0503 15:05:10.162564 21077 net.cpp:435] pool2 <- conv2
I0503 15:05:10.162577 21077 net.cpp:409] pool2 -> pool2
I0503 15:05:10.162662 21077 net.cpp:144] Setting up pool2
I0503 15:05:10.162669 21077 net.cpp:151] Top shape: 20 64 15 15 (288000)
I0503 15:05:10.162672 21077 net.cpp:159] Memory required for data: 19656240
I0503 15:05:10.162675 21077 layer_factory.hpp:77] Creating layer conv3
I0503 15:05:10.162683 21077 net.cpp:94] Creating Layer conv3
I0503 15:05:10.162686 21077 net.cpp:435] conv3 <- pool2
I0503 15:05:10.162691 21077 net.cpp:409] conv3 -> conv3
I0503 15:05:10.170558 21077 net.cpp:144] Setting up conv3
I0503 15:05:10.170573 21077 net.cpp:151] Top shape: 20 128 15 15 (576000)
I0503 15:05:10.170578 21077 net.cpp:159] Memory required for data: 21960240
I0503 15:05:10.170586 21077 layer_factory.hpp:77] Creating layer relu3
I0503 15:05:10.170593 21077 net.cpp:94] Creating Layer relu3
I0503 15:05:10.170598 21077 net.cpp:435] relu3 <- conv3
I0503 15:05:10.170603 21077 net.cpp:396] relu3 -> conv3 (in-place)
I0503 15:05:10.170609 21077 net.cpp:144] Setting up relu3
I0503 15:05:10.170614 21077 net.cpp:151] Top shape: 20 128 15 15 (576000)
I0503 15:05:10.170617 21077 net.cpp:159] Memory required for data: 24264240
I0503 15:05:10.170620 21077 layer_factory.hpp:77] Creating layer conv4
I0503 15:05:10.170627 21077 net.cpp:94] Creating Layer conv4
I0503 15:05:10.170631 21077 net.cpp:435] conv4 <- conv3
I0503 15:05:10.170636 21077 net.cpp:409] conv4 -> conv4
I0503 15:05:10.185447 21077 net.cpp:144] Setting up conv4
I0503 15:05:10.185463 21077 net.cpp:151] Top shape: 20 128 15 15 (576000)
I0503 15:05:10.185467 21077 net.cpp:159] Memory required for data: 26568240
I0503 15:05:10.185474 21077 layer_factory.hpp:77] Creating layer relu4
I0503 15:05:10.185479 21077 net.cpp:94] Creating Layer relu4
I0503 15:05:10.185487 21077 net.cpp:435] relu4 <- conv4
I0503 15:05:10.185492 21077 net.cpp:396] relu4 -> conv4 (in-place)
I0503 15:05:10.185500 21077 net.cpp:144] Setting up relu4
I0503 15:05:10.185505 21077 net.cpp:151] Top shape: 20 128 15 15 (576000)
I0503 15:05:10.185508 21077 net.cpp:159] Memory required for data: 28872240
I0503 15:05:10.185511 21077 layer_factory.hpp:77] Creating layer conv5
I0503 15:05:10.185518 21077 net.cpp:94] Creating Layer conv5
I0503 15:05:10.185523 21077 net.cpp:435] conv5 <- conv4
I0503 15:05:10.185528 21077 net.cpp:409] conv5 -> conv5
I0503 15:05:10.199937 21077 net.cpp:144] Setting up conv5
I0503 15:05:10.199952 21077 net.cpp:151] Top shape: 20 128 15 15 (576000)
I0503 15:05:10.199956 21077 net.cpp:159] Memory required for data: 31176240
I0503 15:05:10.199965 21077 layer_factory.hpp:77] Creating layer relu5
I0503 15:05:10.199971 21077 net.cpp:94] Creating Layer relu5
I0503 15:05:10.199975 21077 net.cpp:435] relu5 <- conv5
I0503 15:05:10.199980 21077 net.cpp:396] relu5 -> conv5 (in-place)
I0503 15:05:10.199986 21077 net.cpp:144] Setting up relu5
I0503 15:05:10.199991 21077 net.cpp:151] Top shape: 20 128 15 15 (576000)
I0503 15:05:10.199995 21077 net.cpp:159] Memory required for data: 33480240
I0503 15:05:10.199997 21077 layer_factory.hpp:77] Creating layer pool5
I0503 15:05:10.200002 21077 net.cpp:94] Creating Layer pool5
I0503 15:05:10.200006 21077 net.cpp:435] pool5 <- conv5
I0503 15:05:10.200009 21077 net.cpp:409] pool5 -> pool5
I0503 15:05:10.200036 21077 net.cpp:144] Setting up pool5
I0503 15:05:10.200042 21077 net.cpp:151] Top shape: 20 128 7 7 (125440)
I0503 15:05:10.200045 21077 net.cpp:159] Memory required for data: 33982000
I0503 15:05:10.200048 21077 layer_factory.hpp:77] Creating layer ip1
I0503 15:05:10.200055 21077 net.cpp:94] Creating Layer ip1
I0503 15:05:10.200059 21077 net.cpp:435] ip1 <- pool5
I0503 15:05:10.200064 21077 net.cpp:409] ip1 -> ip1
I0503 15:05:10.355159 21077 net.cpp:144] Setting up ip1
I0503 15:05:10.355195 21077 net.cpp:151] Top shape: 20 1024 (20480)
I0503 15:05:10.355198 21077 net.cpp:159] Memory required for data: 34063920
I0503 15:05:10.355206 21077 layer_factory.hpp:77] Creating layer ip2
I0503 15:05:10.355216 21077 net.cpp:94] Creating Layer ip2
I0503 15:05:10.355221 21077 net.cpp:435] ip2 <- ip1
I0503 15:05:10.355228 21077 net.cpp:409] ip2 -> ip2
I0503 15:05:10.368263 21077 net.cpp:144] Setting up ip2
I0503 15:05:10.368275 21077 net.cpp:151] Top shape: 20 512 (10240)
I0503 15:05:10.368279 21077 net.cpp:159] Memory required for data: 34104880
I0503 15:05:10.368285 21077 layer_factory.hpp:77] Creating layer ip3
I0503 15:05:10.368294 21077 net.cpp:94] Creating Layer ip3
I0503 15:05:10.368297 21077 net.cpp:435] ip3 <- ip2
I0503 15:05:10.368304 21077 net.cpp:409] ip3 -> ip3
I0503 15:05:10.369019 21077 net.cpp:144] Setting up ip3
I0503 15:05:10.369026 21077 net.cpp:151] Top shape: 20 50 (1000)
I0503 15:05:10.369029 21077 net.cpp:159] Memory required for data: 34108880
I0503 15:05:10.369035 21077 layer_factory.hpp:77] Creating layer ip3_ip3_0_split
I0503 15:05:10.369040 21077 net.cpp:94] Creating Layer ip3_ip3_0_split
I0503 15:05:10.369043 21077 net.cpp:435] ip3_ip3_0_split <- ip3
I0503 15:05:10.369048 21077 net.cpp:409] ip3_ip3_0_split -> ip3_ip3_0_split_0
I0503 15:05:10.369053 21077 net.cpp:409] ip3_ip3_0_split -> ip3_ip3_0_split_1
I0503 15:05:10.369078 21077 net.cpp:144] Setting up ip3_ip3_0_split
I0503 15:05:10.369084 21077 net.cpp:151] Top shape: 20 50 (1000)
I0503 15:05:10.369087 21077 net.cpp:151] Top shape: 20 50 (1000)
I0503 15:05:10.369091 21077 net.cpp:159] Memory required for data: 34116880
I0503 15:05:10.369093 21077 layer_factory.hpp:77] Creating layer accuracy
I0503 15:05:10.369099 21077 net.cpp:94] Creating Layer accuracy
I0503 15:05:10.369102 21077 net.cpp:435] accuracy <- ip3_ip3_0_split_0
I0503 15:05:10.369107 21077 net.cpp:435] accuracy <- label_intercept_1_split_0
I0503 15:05:10.369112 21077 net.cpp:409] accuracy -> accuracy
…
