…
I0505 18:49:16.086175  8609 net.cpp:323] The NetState phase (0) differed from the phase (1) specified by a rule in layer intercept
I0505 18:49:16.086189  8609 net.cpp:323] The NetState phase (0) differed from the phase (1) specified by a rule in layer loss
I0505 18:49:16.086261  8609 net.cpp:52] Initializing net from parameters: 
state {
  phase: TRAIN
}
layer {
  name: "parameters"
  type: "HDF5Data"
  top: "data"
  top: "label"
  include {
    phase: TRAIN
  }
  hdf5_data_param {
    source: "/home/purduethu/scratch/radon/d/deng106/CNNStatisticalModel/distributions/input/5_distributions_900_sample_size_train-parameters-path.txt"
    batch_size: 20
  }
}
layer {
  name: "conv1"
  type: "Convolution"
  bottom: "data"
  top: "conv1"
  param {
    lr_mult: 1
  }
  param {
    lr_mult: 2
  }
  convolution_param {
    num_output: 64
    pad: 2
    kernel_size: 5
    stride: 1
    weight_filler {
      type: "gaussian"
      std: 0.0001
    }
    bias_filler {
      type: "constant"
    }
  }
}
layer {
  name: "relu1"
  type: "ReLU"
  bottom: "conv1"
  top: "conv1"
}
layer {
  name: "pool1"
  type: "Pooling"
  bottom: "conv1"
  top: "pool1"
  pooling_param {
    pool: MAX
    kernel_size: 3
    stride: 2
  }
}
layer {
  name: "conv2"
  type: "Convolution"
  bottom: "pool1"
  top: "conv2"
  param {
    lr_mult: 1
  }
  param {
    lr_mult: 2
  }
  convolution_param {
    num_output: 128
    pad: 2
    kernel_size: 5
    stride: 1
    weight_filler {
      type: "gaussian"
      std: 0.01
    }
    bias_filler {
      type: "constant"
    }
  }
}
layer {
  name: "relu2"
  type: "ReLU"
  bottom: "conv2"
  top: "conv2"
}
layer {
  name: "conv3"
  type: "Convolution"
  bottom: "conv2"
  top: "conv3"
  param {
    lr_mult: 1
  }
  param {
    lr_mult: 2
  }
  convolution_param {
    num_output: 128
    pad: 2
    kernel_size: 5
    stride: 1
    weight_filler {
      type: "gaussian"
      std: 0.01
    }
    bias_filler {
      type: "constant"
    }
  }
}
layer {
  name: "relu3"
  type: "ReLU"
  bottom: "conv3"
  top: "conv3"
}
layer {
  name: "pool3"
  type: "Pooling"
  bottom: "conv3"
  top: "pool3"
  pooling_param {
    pool: AVE
    kernel_size: 3
    stride: 2
  }
}
layer {
  name: "ip1"
  type: "InnerProduct"
  bottom: "pool3"
  top: "ip1"
  param {
    lr_mult: 1
  }
  param {
    lr_mult: 2
  }
  inner_product_param {
    num_output: 512
    weight_filler {
      type: "gaussian"
      std: 0.1
    }
    bias_filler {
      type: "constant"
    }
  }
}
layer {
  name: "ip2"
  type: "InnerProduct"
  bottom: "ip1"
  top: "ip2"
  param {
    lr_mult: 1
  }
  param {
    lr_mult: 2
  }
  inner_product_param {
    num_output: 256
    weight_filler {
      type: "gaussian"
      std: 0.1
    }
    bias_filler {
      type: "constant"
    }
  }
}
layer {
  name: "ip3"
  type: "InnerProduct"
  bottom: "ip2"
  top: "ip3"
  param {
    lr_mult: 1
  }
  param {
    lr_mult: 2
  }
  inner_product_param {
    num_output: 1
    weight_filler {
      type: "gaussian"
      std: 0.1
    }
    bias_filler {
      type: "constant"
    }
  }
}
layer {
  name: "loss"
  type: "HuberLoss"
  bottom: "ip3"
  bottom: "label"
  top: "loss"
  include {
    phase: TRAIN
  }
}
I0505 18:49:16.086308  8609 layer_factory.hpp:77] Creating layer parameters
I0505 18:49:16.086321  8609 net.cpp:94] Creating Layer parameters
I0505 18:49:16.086325  8609 net.cpp:409] parameters -> data
I0505 18:49:16.086334  8609 net.cpp:409] parameters -> label
I0505 18:49:16.086345  8609 hdf5_data_layer.cpp:79] Loading list of HDF5 filenames from: /home/purduethu/scratch/radon/d/deng106/CNNStatisticalModel/distributions/input/5_distributions_900_sample_size_train-parameters-path.txt
I0505 18:49:16.086359  8609 hdf5_data_layer.cpp:93] Number of HDF5 files: 1
I0505 18:49:16.086921  8609 hdf5.cpp:32] Datatype class: H5T_FLOAT
I0505 18:49:16.227085  8609 net.cpp:144] Setting up parameters
I0505 18:49:16.227115  8609 net.cpp:151] Top shape: 20 1 30 30 (18000)
I0505 18:49:16.227120  8609 net.cpp:151] Top shape: 20 (20)
I0505 18:49:16.227123  8609 net.cpp:159] Memory required for data: 72080
I0505 18:49:16.227130  8609 layer_factory.hpp:77] Creating layer conv1
I0505 18:49:16.227145  8609 net.cpp:94] Creating Layer conv1
I0505 18:49:16.227150  8609 net.cpp:435] conv1 <- data
I0505 18:49:16.227156  8609 net.cpp:409] conv1 -> conv1
I0505 18:49:16.233551  8609 net.cpp:144] Setting up conv1
I0505 18:49:16.233569  8609 net.cpp:151] Top shape: 20 64 30 30 (1152000)
I0505 18:49:16.233572  8609 net.cpp:159] Memory required for data: 4680080
I0505 18:49:16.233583  8609 layer_factory.hpp:77] Creating layer relu1
I0505 18:49:16.233592  8609 net.cpp:94] Creating Layer relu1
I0505 18:49:16.233595  8609 net.cpp:435] relu1 <- conv1
I0505 18:49:16.233599  8609 net.cpp:396] relu1 -> conv1 (in-place)
I0505 18:49:16.233611  8609 net.cpp:144] Setting up relu1
I0505 18:49:16.233615  8609 net.cpp:151] Top shape: 20 64 30 30 (1152000)
I0505 18:49:16.233618  8609 net.cpp:159] Memory required for data: 9288080
I0505 18:49:16.233621  8609 layer_factory.hpp:77] Creating layer pool1
I0505 18:49:16.233628  8609 net.cpp:94] Creating Layer pool1
I0505 18:49:16.233630  8609 net.cpp:435] pool1 <- conv1
I0505 18:49:16.233634  8609 net.cpp:409] pool1 -> pool1
I0505 18:49:16.233683  8609 net.cpp:144] Setting up pool1
I0505 18:49:16.233690  8609 net.cpp:151] Top shape: 20 64 15 15 (288000)
I0505 18:49:16.233693  8609 net.cpp:159] Memory required for data: 10440080
I0505 18:49:16.233696  8609 layer_factory.hpp:77] Creating layer conv2
I0505 18:49:16.233705  8609 net.cpp:94] Creating Layer conv2
I0505 18:49:16.233708  8609 net.cpp:435] conv2 <- pool1
I0505 18:49:16.233713  8609 net.cpp:409] conv2 -> conv2
I0505 18:49:16.246984  8609 net.cpp:144] Setting up conv2
I0505 18:49:16.246999  8609 net.cpp:151] Top shape: 20 128 15 15 (576000)
I0505 18:49:16.247004  8609 net.cpp:159] Memory required for data: 12744080
I0505 18:49:16.247011  8609 layer_factory.hpp:77] Creating layer relu2
I0505 18:49:16.247018  8609 net.cpp:94] Creating Layer relu2
I0505 18:49:16.247021  8609 net.cpp:435] relu2 <- conv2
I0505 18:49:16.247026  8609 net.cpp:396] relu2 -> conv2 (in-place)
I0505 18:49:16.247033  8609 net.cpp:144] Setting up relu2
I0505 18:49:16.247037  8609 net.cpp:151] Top shape: 20 128 15 15 (576000)
I0505 18:49:16.247040  8609 net.cpp:159] Memory required for data: 15048080
I0505 18:49:16.247043  8609 layer_factory.hpp:77] Creating layer conv3
I0505 18:49:16.247051  8609 net.cpp:94] Creating Layer conv3
I0505 18:49:16.247054  8609 net.cpp:435] conv3 <- conv2
I0505 18:49:16.247059  8609 net.cpp:409] conv3 -> conv3
I0505 18:49:16.269068  8609 net.cpp:144] Setting up conv3
I0505 18:49:16.269085  8609 net.cpp:151] Top shape: 20 128 15 15 (576000)
I0505 18:49:16.269088  8609 net.cpp:159] Memory required for data: 17352080
I0505 18:49:16.269098  8609 layer_factory.hpp:77] Creating layer relu3
I0505 18:49:16.269109  8609 net.cpp:94] Creating Layer relu3
I0505 18:49:16.269114  8609 net.cpp:435] relu3 <- conv3
I0505 18:49:16.269119  8609 net.cpp:396] relu3 -> conv3 (in-place)
I0505 18:49:16.269125  8609 net.cpp:144] Setting up relu3
I0505 18:49:16.269129  8609 net.cpp:151] Top shape: 20 128 15 15 (576000)
I0505 18:49:16.269132  8609 net.cpp:159] Memory required for data: 19656080
I0505 18:49:16.269135  8609 layer_factory.hpp:77] Creating layer pool3
I0505 18:49:16.269141  8609 net.cpp:94] Creating Layer pool3
I0505 18:49:16.269145  8609 net.cpp:435] pool3 <- conv3
I0505 18:49:16.269148  8609 net.cpp:409] pool3 -> pool3
I0505 18:49:16.269188  8609 net.cpp:144] Setting up pool3
I0505 18:49:16.269194  8609 net.cpp:151] Top shape: 20 128 7 7 (125440)
I0505 18:49:16.269197  8609 net.cpp:159] Memory required for data: 20157840
I0505 18:49:16.269201  8609 layer_factory.hpp:77] Creating layer ip1
I0505 18:49:16.269207  8609 net.cpp:94] Creating Layer ip1
I0505 18:49:16.269212  8609 net.cpp:435] ip1 <- pool3
I0505 18:49:16.269217  8609 net.cpp:409] ip1 -> ip1
I0505 18:49:16.347234  8609 net.cpp:144] Setting up ip1
I0505 18:49:16.347268  8609 net.cpp:151] Top shape: 20 512 (10240)
I0505 18:49:16.347272  8609 net.cpp:159] Memory required for data: 20198800
I0505 18:49:16.347281  8609 layer_factory.hpp:77] Creating layer ip2
I0505 18:49:16.347291  8609 net.cpp:94] Creating Layer ip2
I0505 18:49:16.347295  8609 net.cpp:435] ip2 <- ip1
I0505 18:49:16.347301  8609 net.cpp:409] ip2 -> ip2
I0505 18:49:16.350447  8609 net.cpp:144] Setting up ip2
I0505 18:49:16.350456  8609 net.cpp:151] Top shape: 20 256 (5120)
I0505 18:49:16.350459  8609 net.cpp:159] Memory required for data: 20219280
I0505 18:49:16.350467  8609 layer_factory.hpp:77] Creating layer ip3
I0505 18:49:16.350472  8609 net.cpp:94] Creating Layer ip3
I0505 18:49:16.350476  8609 net.cpp:435] ip3 <- ip2
I0505 18:49:16.350481  8609 net.cpp:409] ip3 -> ip3
I0505 18:49:16.350587  8609 net.cpp:144] Setting up ip3
I0505 18:49:16.350594  8609 net.cpp:151] Top shape: 20 1 (20)
I0505 18:49:16.350597  8609 net.cpp:159] Memory required for data: 20219360
I0505 18:49:16.350602  8609 layer_factory.hpp:77] Creating layer loss
I0505 18:49:16.350615  8609 net.cpp:94] Creating Layer loss
I0505 18:49:16.350618  8609 net.cpp:435] loss <- ip3
I0505 18:49:16.350622  8609 net.cpp:435] loss <- label
I0505 18:49:16.350626  8609 net.cpp:409] loss -> loss
I0505 18:49:16.350673  8609 net.cpp:144] Setting up loss
…
I0505 18:49:16.495952  8609 net.cpp:323] The NetState phase (0) differed from the phase (1) specified by a rule in layer intercept
I0505 18:49:16.495965  8609 net.cpp:323] The NetState phase (0) differed from the phase (1) specified by a rule in layer accuracy
I0505 18:49:16.496037  8609 net.cpp:52] Initializing net from parameters: 
state {
  phase: TRAIN
}
layer {
  name: "parameters"
  type: "HDF5Data"
  top: "data"
  top: "label"
  include {
    phase: TRAIN
  }
  hdf5_data_param {
    source: "/home/purduethu/scratch/radon/d/deng106/CNNStatisticalModel/distributions/input/5_distributions_900_sample_size_train-distributions-path.txt"
    batch_size: 20
  }
}
layer {
  name: "conv1"
  type: "Convolution"
  bottom: "data"
  top: "conv1"
  param {
    lr_mult: 1
  }
  param {
    lr_mult: 2
  }
  convolution_param {
    num_output: 64
    pad: 2
    kernel_size: 5
    stride: 1
    weight_filler {
      type: "gaussian"
      std: 0.0001
    }
    bias_filler {
      type: "constant"
    }
  }
}
layer {
  name: "relu1"
  type: "ReLU"
  bottom: "conv1"
  top: "conv1"
}
layer {
  name: "pool1"
  type: "Pooling"
  bottom: "conv1"
  top: "pool1"
  pooling_param {
    pool: MAX
    kernel_size: 3
    stride: 2
  }
}
layer {
  name: "conv2"
  type: "Convolution"
  bottom: "pool1"
  top: "conv2"
  param {
    lr_mult: 1
  }
  param {
    lr_mult: 2
  }
  convolution_param {
    num_output: 128
    pad: 2
    kernel_size: 5
    stride: 1
    weight_filler {
      type: "gaussian"
      std: 0.01
    }
    bias_filler {
      type: "constant"
    }
  }
}
layer {
  name: "relu2"
  type: "ReLU"
  bottom: "conv2"
  top: "conv2"
}
layer {
  name: "conv3"
  type: "Convolution"
  bottom: "conv2"
  top: "conv3"
  param {
    lr_mult: 1
  }
  param {
    lr_mult: 2
  }
  convolution_param {
    num_output: 128
    pad: 2
    kernel_size: 5
    stride: 1
    weight_filler {
      type: "gaussian"
      std: 0.01
    }
    bias_filler {
      type: "constant"
    }
  }
}
layer {
  name: "relu3"
  type: "ReLU"
  bottom: "conv3"
  top: "conv3"
}
layer {
  name: "pool3"
  type: "Pooling"
  bottom: "conv3"
  top: "pool3"
  pooling_param {
    pool: AVE
    kernel_size: 3
    stride: 2
  }
}
layer {
  name: "ip1"
  type: "InnerProduct"
  bottom: "pool3"
  top: "ip1"
  param {
    lr_mult: 1
  }
  param {
    lr_mult: 2
  }
  inner_product_param {
    num_output: 512
    weight_filler {
      type: "gaussian"
      std: 0.1
    }
    bias_filler {
      type: "constant"
    }
  }
}
layer {
  name: "ip2"
  type: "InnerProduct"
  bottom: "ip1"
  top: "ip2"
  param {
    lr_mult: 1
  }
  param {
    lr_mult: 2
  }
  inner_product_param {
    num_output: 256
    weight_filler {
      type: "gaussian"
      std: 0.1
    }
    bias_filler {
      type: "constant"
    }
  }
}
layer {
  name: "ip3"
  type: "InnerProduct"
  bottom: "ip2"
  top: "ip3"
  param {
    lr_mult: 1
  }
  param {
    lr_mult: 2
  }
  inner_product_param {
    num_output: 50
    weight_filler {
      type: "gaussian"
      std: 0.1
    }
    bias_filler {
      type: "constant"
    }
  }
}
layer {
  name: "loss"
  type: "SoftmaxWithLoss"
  bottom: "ip3"
  bottom: "label"
  top: "loss"
}
I0505 18:49:16.496079  8609 layer_factory.hpp:77] Creating layer parameters
I0505 18:49:16.496088  8609 net.cpp:94] Creating Layer parameters
I0505 18:49:16.496091  8609 net.cpp:409] parameters -> data
I0505 18:49:16.496098  8609 net.cpp:409] parameters -> label
I0505 18:49:16.496104  8609 hdf5_data_layer.cpp:79] Loading list of HDF5 filenames from: /home/purduethu/scratch/radon/d/deng106/CNNStatisticalModel/distributions/input/5_distributions_900_sample_size_train-distributions-path.txt
I0505 18:49:16.496119  8609 hdf5_data_layer.cpp:93] Number of HDF5 files: 1
I0505 18:49:16.635674  8609 hdf5.cpp:35] Datatype class: H5T_INTEGER
I0505 18:49:16.636121  8609 net.cpp:144] Setting up parameters
I0505 18:49:16.636134  8609 net.cpp:151] Top shape: 20 1 30 30 (18000)
I0505 18:49:16.636138  8609 net.cpp:151] Top shape: 20 (20)
I0505 18:49:16.636142  8609 net.cpp:159] Memory required for data: 72080
I0505 18:49:16.636147  8609 layer_factory.hpp:77] Creating layer conv1
I0505 18:49:16.636163  8609 net.cpp:94] Creating Layer conv1
I0505 18:49:16.636168  8609 net.cpp:435] conv1 <- data
I0505 18:49:16.636173  8609 net.cpp:409] conv1 -> conv1
I0505 18:49:16.639667  8609 net.cpp:144] Setting up conv1
I0505 18:49:16.639680  8609 net.cpp:151] Top shape: 20 64 30 30 (1152000)
I0505 18:49:16.639684  8609 net.cpp:159] Memory required for data: 4680080
I0505 18:49:16.639694  8609 layer_factory.hpp:77] Creating layer relu1
I0505 18:49:16.639701  8609 net.cpp:94] Creating Layer relu1
I0505 18:49:16.639705  8609 net.cpp:435] relu1 <- conv1
I0505 18:49:16.639709  8609 net.cpp:396] relu1 -> conv1 (in-place)
I0505 18:49:16.639716  8609 net.cpp:144] Setting up relu1
I0505 18:49:16.639721  8609 net.cpp:151] Top shape: 20 64 30 30 (1152000)
I0505 18:49:16.639724  8609 net.cpp:159] Memory required for data: 9288080
I0505 18:49:16.639726  8609 layer_factory.hpp:77] Creating layer pool1
I0505 18:49:16.639732  8609 net.cpp:94] Creating Layer pool1
I0505 18:49:16.639735  8609 net.cpp:435] pool1 <- conv1
I0505 18:49:16.639746  8609 net.cpp:409] pool1 -> pool1
I0505 18:49:16.639796  8609 net.cpp:144] Setting up pool1
I0505 18:49:16.639802  8609 net.cpp:151] Top shape: 20 64 15 15 (288000)
I0505 18:49:16.639806  8609 net.cpp:159] Memory required for data: 10440080
I0505 18:49:16.639808  8609 layer_factory.hpp:77] Creating layer conv2
I0505 18:49:16.639817  8609 net.cpp:94] Creating Layer conv2
I0505 18:49:16.639822  8609 net.cpp:435] conv2 <- pool1
I0505 18:49:16.639825  8609 net.cpp:409] conv2 -> conv2
I0505 18:49:16.653723  8609 net.cpp:144] Setting up conv2
I0505 18:49:16.653765  8609 net.cpp:151] Top shape: 20 128 15 15 (576000)
I0505 18:49:16.653775  8609 net.cpp:159] Memory required for data: 12744080
I0505 18:49:16.653797  8609 layer_factory.hpp:77] Creating layer relu2
I0505 18:49:16.653813  8609 net.cpp:94] Creating Layer relu2
I0505 18:49:16.653823  8609 net.cpp:435] relu2 <- conv2
I0505 18:49:16.653836  8609 net.cpp:396] relu2 -> conv2 (in-place)
I0505 18:49:16.653856  8609 net.cpp:144] Setting up relu2
I0505 18:49:16.653867  8609 net.cpp:151] Top shape: 20 128 15 15 (576000)
I0505 18:49:16.653875  8609 net.cpp:159] Memory required for data: 15048080
I0505 18:49:16.653883  8609 layer_factory.hpp:77] Creating layer conv3
I0505 18:49:16.653903  8609 net.cpp:94] Creating Layer conv3
I0505 18:49:16.653911  8609 net.cpp:435] conv3 <- conv2
I0505 18:49:16.653925  8609 net.cpp:409] conv3 -> conv3
I0505 18:49:16.676234  8609 net.cpp:144] Setting up conv3
I0505 18:49:16.676251  8609 net.cpp:151] Top shape: 20 128 15 15 (576000)
I0505 18:49:16.676255  8609 net.cpp:159] Memory required for data: 17352080
I0505 18:49:16.676264  8609 layer_factory.hpp:77] Creating layer relu3
I0505 18:49:16.676270  8609 net.cpp:94] Creating Layer relu3
I0505 18:49:16.676273  8609 net.cpp:435] relu3 <- conv3
I0505 18:49:16.676277  8609 net.cpp:396] relu3 -> conv3 (in-place)
I0505 18:49:16.676285  8609 net.cpp:144] Setting up relu3
I0505 18:49:16.676288  8609 net.cpp:151] Top shape: 20 128 15 15 (576000)
I0505 18:49:16.676291  8609 net.cpp:159] Memory required for data: 19656080
I0505 18:49:16.676295  8609 layer_factory.hpp:77] Creating layer pool3
I0505 18:49:16.676301  8609 net.cpp:94] Creating Layer pool3
I0505 18:49:16.676303  8609 net.cpp:435] pool3 <- conv3
I0505 18:49:16.676307  8609 net.cpp:409] pool3 -> pool3
I0505 18:49:16.676344  8609 net.cpp:144] Setting up pool3
I0505 18:49:16.676352  8609 net.cpp:151] Top shape: 20 128 7 7 (125440)
I0505 18:49:16.676354  8609 net.cpp:159] Memory required for data: 20157840
I0505 18:49:16.676357  8609 layer_factory.hpp:77] Creating layer ip1
I0505 18:49:16.676364  8609 net.cpp:94] Creating Layer ip1
I0505 18:49:16.676367  8609 net.cpp:435] ip1 <- pool3
I0505 18:49:16.676373  8609 net.cpp:409] ip1 -> ip1
I0505 18:49:16.754719  8609 net.cpp:144] Setting up ip1
I0505 18:49:16.754755  8609 net.cpp:151] Top shape: 20 512 (10240)
I0505 18:49:16.754758  8609 net.cpp:159] Memory required for data: 20198800
I0505 18:49:16.754766  8609 layer_factory.hpp:77] Creating layer ip2
I0505 18:49:16.754776  8609 net.cpp:94] Creating Layer ip2
I0505 18:49:16.754781  8609 net.cpp:435] ip2 <- ip1
I0505 18:49:16.754786  8609 net.cpp:409] ip2 -> ip2
I0505 18:49:16.757963  8609 net.cpp:144] Setting up ip2
I0505 18:49:16.757974  8609 net.cpp:151] Top shape: 20 256 (5120)
I0505 18:49:16.757978  8609 net.cpp:159] Memory required for data: 20219280
I0505 18:49:16.757985  8609 layer_factory.hpp:77] Creating layer ip3
I0505 18:49:16.757992  8609 net.cpp:94] Creating Layer ip3
I0505 18:49:16.757995  8609 net.cpp:435] ip3 <- ip2
I0505 18:49:16.758000  8609 net.cpp:409] ip3 -> ip3
I0505 18:49:16.758422  8609 net.cpp:144] Setting up ip3
I0505 18:49:16.758430  8609 net.cpp:151] Top shape: 20 50 (1000)
I0505 18:49:16.758432  8609 net.cpp:159] Memory required for data: 20223280
I0505 18:49:16.758437  8609 layer_factory.hpp:77] Creating layer loss
I0505 18:49:16.758442  8609 net.cpp:94] Creating Layer loss
I0505 18:49:16.758445  8609 net.cpp:435] loss <- ip3
I0505 18:49:16.758448  8609 net.cpp:435] loss <- label
I0505 18:49:16.758463  8609 net.cpp:409] loss -> loss
I0505 18:49:16.758471  8609 layer_factory.hpp:77] Creating layer loss
…
I0505 18:49:16.758914  8609 solver.cpp:181] Creating test net (#0) specified by net file: ./protocol/dis_5_900_dimension.protocol_distribution
I0505 18:49:16.758937  8609 net.cpp:323] The NetState phase (1) differed from the phase (0) specified by a rule in layer parameters
I0505 18:49:16.759019  8609 net.cpp:52] Initializing net from parameters: 
state {
  phase: TEST
}
layer {
  name: "intercept"
  type: "HDF5Data"
  top: "data"
  top: "label"
  include {
    phase: TEST
  }
  hdf5_data_param {
    source: "/home/purduethu/scratch/radon/d/deng106/CNNStatisticalModel/distributions/input/5_distributions_900_sample_size_test-distributions-path.txt"
    batch_size: 20
  }
}
layer {
  name: "conv1"
  type: "Convolution"
  bottom: "data"
  top: "conv1"
  param {
    lr_mult: 1
  }
  param {
    lr_mult: 2
  }
  convolution_param {
    num_output: 64
    pad: 2
    kernel_size: 5
    stride: 1
    weight_filler {
      type: "gaussian"
      std: 0.0001
    }
    bias_filler {
      type: "constant"
    }
  }
}
layer {
  name: "relu1"
  type: "ReLU"
  bottom: "conv1"
  top: "conv1"
}
layer {
  name: "pool1"
  type: "Pooling"
  bottom: "conv1"
  top: "pool1"
  pooling_param {
    pool: MAX
    kernel_size: 3
    stride: 2
  }
}
layer {
  name: "conv2"
  type: "Convolution"
  bottom: "pool1"
  top: "conv2"
  param {
    lr_mult: 1
  }
  param {
    lr_mult: 2
  }
  convolution_param {
    num_output: 128
    pad: 2
    kernel_size: 5
    stride: 1
    weight_filler {
      type: "gaussian"
      std: 0.01
    }
    bias_filler {
      type: "constant"
    }
  }
}
layer {
  name: "relu2"
  type: "ReLU"
  bottom: "conv2"
  top: "conv2"
}
layer {
  name: "conv3"
  type: "Convolution"
  bottom: "conv2"
  top: "conv3"
  param {
    lr_mult: 1
  }
  param {
    lr_mult: 2
  }
  convolution_param {
    num_output: 128
    pad: 2
    kernel_size: 5
    stride: 1
    weight_filler {
      type: "gaussian"
      std: 0.01
    }
    bias_filler {
      type: "constant"
    }
  }
}
layer {
  name: "relu3"
  type: "ReLU"
  bottom: "conv3"
  top: "conv3"
}
layer {
  name: "pool3"
  type: "Pooling"
  bottom: "conv3"
  top: "pool3"
  pooling_param {
    pool: AVE
    kernel_size: 3
    stride: 2
  }
}
layer {
  name: "ip1"
  type: "InnerProduct"
  bottom: "pool3"
  top: "ip1"
  param {
    lr_mult: 1
  }
  param {
    lr_mult: 2
  }
  inner_product_param {
    num_output: 512
    weight_filler {
      type: "gaussian"
      std: 0.1
    }
    bias_filler {
      type: "constant"
    }
  }
}
layer {
  name: "ip2"
  type: "InnerProduct"
  bottom: "ip1"
  top: "ip2"
  param {
    lr_mult: 1
  }
  param {
    lr_mult: 2
  }
  inner_product_param {
    num_output: 256
    weight_filler {
      type: "gaussian"
      std: 0.1
    }
    bias_filler {
      type: "constant"
    }
  }
}
layer {
  name: "ip3"
  type: "InnerProduct"
  bottom: "ip2"
  top: "ip3"
  param {
    lr_mult: 1
  }
  param {
    lr_mult: 2
  }
  inner_product_param {
    num_output: 50
    weight_filler {
      type: "gaussian"
      std: 0.1
    }
    bias_filler {
      type: "constant"
    }
  }
}
layer {
  name: "accuracy"
  type: "Accuracy"
  bottom: "ip3"
  bottom: "label"
  top: "accuracy"
  include {
    phase: TEST
  }
}
layer {
  name: "loss"
  type: "SoftmaxWithLoss"
  bottom: "ip3"
  bottom: "label"
  top: "loss"
}
I0505 18:49:16.759076  8609 layer_factory.hpp:77] Creating layer intercept
I0505 18:49:16.759085  8609 net.cpp:94] Creating Layer intercept
I0505 18:49:16.759088  8609 net.cpp:409] intercept -> data
I0505 18:49:16.759095  8609 net.cpp:409] intercept -> label
I0505 18:49:16.759100  8609 hdf5_data_layer.cpp:79] Loading list of HDF5 filenames from: /home/purduethu/scratch/radon/d/deng106/CNNStatisticalModel/distributions/input/5_distributions_900_sample_size_test-distributions-path.txt
I0505 18:49:16.759121  8609 hdf5_data_layer.cpp:93] Number of HDF5 files: 1
I0505 18:49:16.794366  8609 net.cpp:144] Setting up intercept
I0505 18:49:16.794402  8609 net.cpp:151] Top shape: 20 1 30 30 (18000)
I0505 18:49:16.794407  8609 net.cpp:151] Top shape: 20 (20)
I0505 18:49:16.794410  8609 net.cpp:159] Memory required for data: 72080
I0505 18:49:16.794415  8609 layer_factory.hpp:77] Creating layer label_intercept_1_split
I0505 18:49:16.794426  8609 net.cpp:94] Creating Layer label_intercept_1_split
I0505 18:49:16.794430  8609 net.cpp:435] label_intercept_1_split <- label
I0505 18:49:16.794436  8609 net.cpp:409] label_intercept_1_split -> label_intercept_1_split_0
I0505 18:49:16.794445  8609 net.cpp:409] label_intercept_1_split -> label_intercept_1_split_1
I0505 18:49:16.794492  8609 net.cpp:144] Setting up label_intercept_1_split
I0505 18:49:16.794497  8609 net.cpp:151] Top shape: 20 (20)
I0505 18:49:16.794500  8609 net.cpp:151] Top shape: 20 (20)
I0505 18:49:16.794503  8609 net.cpp:159] Memory required for data: 72240
I0505 18:49:16.794507  8609 layer_factory.hpp:77] Creating layer conv1
I0505 18:49:16.794517  8609 net.cpp:94] Creating Layer conv1
I0505 18:49:16.794520  8609 net.cpp:435] conv1 <- data
I0505 18:49:16.794525  8609 net.cpp:409] conv1 -> conv1
I0505 18:49:16.796020  8609 net.cpp:144] Setting up conv1
I0505 18:49:16.796036  8609 net.cpp:151] Top shape: 20 64 30 30 (1152000)
I0505 18:49:16.796039  8609 net.cpp:159] Memory required for data: 4680240
I0505 18:49:16.796048  8609 layer_factory.hpp:77] Creating layer relu1
I0505 18:49:16.796056  8609 net.cpp:94] Creating Layer relu1
I0505 18:49:16.796059  8609 net.cpp:435] relu1 <- conv1
I0505 18:49:16.796063  8609 net.cpp:396] relu1 -> conv1 (in-place)
I0505 18:49:16.796070  8609 net.cpp:144] Setting up relu1
I0505 18:49:16.796074  8609 net.cpp:151] Top shape: 20 64 30 30 (1152000)
I0505 18:49:16.796077  8609 net.cpp:159] Memory required for data: 9288240
I0505 18:49:16.796080  8609 layer_factory.hpp:77] Creating layer pool1
I0505 18:49:16.796087  8609 net.cpp:94] Creating Layer pool1
I0505 18:49:16.796089  8609 net.cpp:435] pool1 <- conv1
I0505 18:49:16.796093  8609 net.cpp:409] pool1 -> pool1
I0505 18:49:16.796144  8609 net.cpp:144] Setting up pool1
I0505 18:49:16.796149  8609 net.cpp:151] Top shape: 20 64 15 15 (288000)
I0505 18:49:16.796152  8609 net.cpp:159] Memory required for data: 10440240
I0505 18:49:16.796155  8609 layer_factory.hpp:77] Creating layer conv2
I0505 18:49:16.796164  8609 net.cpp:94] Creating Layer conv2
I0505 18:49:16.796166  8609 net.cpp:435] conv2 <- pool1
I0505 18:49:16.796171  8609 net.cpp:409] conv2 -> conv2
I0505 18:49:16.804476  8609 net.cpp:144] Setting up conv2
I0505 18:49:16.804491  8609 net.cpp:151] Top shape: 20 128 15 15 (576000)
I0505 18:49:16.804494  8609 net.cpp:159] Memory required for data: 12744240
I0505 18:49:16.804509  8609 layer_factory.hpp:77] Creating layer relu2
I0505 18:49:16.804517  8609 net.cpp:94] Creating Layer relu2
I0505 18:49:16.804520  8609 net.cpp:435] relu2 <- conv2
I0505 18:49:16.804524  8609 net.cpp:396] relu2 -> conv2 (in-place)
I0505 18:49:16.804532  8609 net.cpp:144] Setting up relu2
I0505 18:49:16.804535  8609 net.cpp:151] Top shape: 20 128 15 15 (576000)
I0505 18:49:16.804538  8609 net.cpp:159] Memory required for data: 15048240
I0505 18:49:16.804541  8609 layer_factory.hpp:77] Creating layer conv3
I0505 18:49:16.804548  8609 net.cpp:94] Creating Layer conv3
I0505 18:49:16.804563  8609 net.cpp:435] conv3 <- conv2
I0505 18:49:16.804567  8609 net.cpp:409] conv3 -> conv3
I0505 18:49:16.819846  8609 net.cpp:144] Setting up conv3
I0505 18:49:16.819862  8609 net.cpp:151] Top shape: 20 128 15 15 (576000)
I0505 18:49:16.819866  8609 net.cpp:159] Memory required for data: 17352240
I0505 18:49:16.819875  8609 layer_factory.hpp:77] Creating layer relu3
I0505 18:49:16.819882  8609 net.cpp:94] Creating Layer relu3
I0505 18:49:16.819885  8609 net.cpp:435] relu3 <- conv3
I0505 18:49:16.819890  8609 net.cpp:396] relu3 -> conv3 (in-place)
I0505 18:49:16.819897  8609 net.cpp:144] Setting up relu3
I0505 18:49:16.819901  8609 net.cpp:151] Top shape: 20 128 15 15 (576000)
I0505 18:49:16.819905  8609 net.cpp:159] Memory required for data: 19656240
I0505 18:49:16.819907  8609 layer_factory.hpp:77] Creating layer pool3
I0505 18:49:16.819912  8609 net.cpp:94] Creating Layer pool3
I0505 18:49:16.819916  8609 net.cpp:435] pool3 <- conv3
I0505 18:49:16.819919  8609 net.cpp:409] pool3 -> pool3
I0505 18:49:16.819957  8609 net.cpp:144] Setting up pool3
I0505 18:49:16.819963  8609 net.cpp:151] Top shape: 20 128 7 7 (125440)
I0505 18:49:16.819967  8609 net.cpp:159] Memory required for data: 20158000
I0505 18:49:16.819969  8609 layer_factory.hpp:77] Creating layer ip1
I0505 18:49:16.819977  8609 net.cpp:94] Creating Layer ip1
I0505 18:49:16.819979  8609 net.cpp:435] ip1 <- pool3
I0505 18:49:16.819984  8609 net.cpp:409] ip1 -> ip1
I0505 18:49:16.897816  8609 net.cpp:144] Setting up ip1
I0505 18:49:16.897850  8609 net.cpp:151] Top shape: 20 512 (10240)
I0505 18:49:16.897855  8609 net.cpp:159] Memory required for data: 20198960
I0505 18:49:16.897862  8609 layer_factory.hpp:77] Creating layer ip2
I0505 18:49:16.897871  8609 net.cpp:94] Creating Layer ip2
I0505 18:49:16.897876  8609 net.cpp:435] ip2 <- ip1
I0505 18:49:16.897882  8609 net.cpp:409] ip2 -> ip2
I0505 18:49:16.901084  8609 net.cpp:144] Setting up ip2
I0505 18:49:16.901096  8609 net.cpp:151] Top shape: 20 256 (5120)
I0505 18:49:16.901098  8609 net.cpp:159] Memory required for data: 20219440
I0505 18:49:16.901108  8609 layer_factory.hpp:77] Creating layer ip3
I0505 18:49:16.901113  8609 net.cpp:94] Creating Layer ip3
I0505 18:49:16.901116  8609 net.cpp:435] ip3 <- ip2
I0505 18:49:16.901121  8609 net.cpp:409] ip3 -> ip3
I0505 18:49:16.901551  8609 net.cpp:144] Setting up ip3
I0505 18:49:16.901558  8609 net.cpp:151] Top shape: 20 50 (1000)
I0505 18:49:16.901561  8609 net.cpp:159] Memory required for data: 20223440
I0505 18:49:16.901566  8609 layer_factory.hpp:77] Creating layer ip3_ip3_0_split
I0505 18:49:16.901572  8609 net.cpp:94] Creating Layer ip3_ip3_0_split
I0505 18:49:16.901576  8609 net.cpp:435] ip3_ip3_0_split <- ip3
I0505 18:49:16.901579  8609 net.cpp:409] ip3_ip3_0_split -> ip3_ip3_0_split_0
I0505 18:49:16.901584  8609 net.cpp:409] ip3_ip3_0_split -> ip3_ip3_0_split_1
I0505 18:49:16.901623  8609 net.cpp:144] Setting up ip3_ip3_0_split
I0505 18:49:16.901628  8609 net.cpp:151] Top shape: 20 50 (1000)
I0505 18:49:16.901631  8609 net.cpp:151] Top shape: 20 50 (1000)
I0505 18:49:16.901633  8609 net.cpp:159] Memory required for data: 20231440
I0505 18:49:16.901636  8609 layer_factory.hpp:77] Creating layer accuracy
I0505 18:49:16.901643  8609 net.cpp:94] Creating Layer accuracy
I0505 18:49:16.901645  8609 net.cpp:435] accuracy <- ip3_ip3_0_split_0
I0505 18:49:16.901649  8609 net.cpp:435] accuracy <- label_intercept_1_split_0
I0505 18:49:16.901654  8609 net.cpp:409] accuracy -> accuracy
…
