…
I0502 14:43:23.425318  7919 net.cpp:323] The NetState phase (0) differed from the phase (1) specified by a rule in layer intercept
I0502 14:43:23.425335  7919 net.cpp:323] The NetState phase (0) differed from the phase (1) specified by a rule in layer loss
I0502 14:43:23.425426  7919 net.cpp:52] Initializing net from parameters: 
state {
  phase: TRAIN
}
layer {
  name: "parameters"
  type: "HDF5Data"
  top: "data"
  top: "label"
  include {
    phase: TRAIN
  }
  hdf5_data_param {
    source: "/home/purduethu/scratch/radon/d/deng106/CNNStatisticalModel/distributions/input/20_distributions_900_sample_size_train-parameters-path.txt"
    batch_size: 20
  }
}
layer {
  name: "conv1"
  type: "Convolution"
  bottom: "data"
  top: "conv1"
  param {
    lr_mult: 1
  }
  param {
    lr_mult: 2
  }
  convolution_param {
    num_output: 64
    pad: 2
    kernel_size: 5
    stride: 1
    weight_filler {
      type: "gaussian"
      std: 0.0001
    }
    bias_filler {
      type: "constant"
    }
  }
}
layer {
  name: "relu1"
  type: "ReLU"
  bottom: "conv1"
  top: "conv1"
}
layer {
  name: "conv2"
  type: "Convolution"
  bottom: "conv1"
  top: "conv2"
  param {
    lr_mult: 1
  }
  param {
    lr_mult: 2
  }
  convolution_param {
    num_output: 64
    pad: 2
    kernel_size: 5
    stride: 1
    weight_filler {
      type: "gaussian"
      std: 0.01
    }
    bias_filler {
      type: "constant"
    }
  }
}
layer {
  name: "relu2"
  type: "ReLU"
  bottom: "conv2"
  top: "conv2"
}
layer {
  name: "pool2"
  type: "Pooling"
  bottom: "conv2"
  top: "pool2"
  pooling_param {
    pool: MAX
    kernel_size: 3
    stride: 2
  }
}
layer {
  name: "conv3"
  type: "Convolution"
  bottom: "pool2"
  top: "conv3"
  param {
    lr_mult: 1
  }
  param {
    lr_mult: 2
  }
  convolution_param {
    num_output: 64
    pad: 2
    kernel_size: 5
    stride: 1
    weight_filler {
      type: "gaussian"
      std: 0.01
    }
    bias_filler {
      type: "constant"
    }
  }
}
layer {
  name: "relu3"
  type: "ReLU"
  bottom: "conv3"
  top: "conv3"
}
layer {
  name: "conv4"
  type: "Convolution"
  bottom: "conv3"
  top: "conv4"
  param {
    lr_mult: 1
  }
  param {
    lr_mult: 2
  }
  convolution_param {
    num_output: 64
    pad: 2
    kernel_size: 5
    stride: 1
    weight_filler {
      type: "gaussian"
      std: 0.01
    }
    bias_filler {
      type: "constant"
    }
  }
}
layer {
  name: "relu4"
  type: "ReLU"
  bottom: "conv4"
  top: "conv4"
}
layer {
  name: "conv5"
  type: "Convolution"
  bottom: "conv4"
  top: "conv5"
  param {
    lr_mult: 1
  }
  param {
    lr_mult: 2
  }
  convolution_param {
    num_output: 64
    pad: 2
    kernel_size: 5
    stride: 1
    weight_filler {
      type: "gaussian"
      std: 0.01
    }
    bias_filler {
      type: "constant"
    }
  }
}
layer {
  name: "relu5"
  type: "ReLU"
  bottom: "conv5"
  top: "conv5"
}
layer {
  name: "pool5"
  type: "Pooling"
  bottom: "conv5"
  top: "pool5"
  pooling_param {
    pool: AVE
    kernel_size: 3
    stride: 2
  }
}
layer {
  name: "ip1"
  type: "InnerProduct"
  bottom: "pool5"
  top: "ip1"
  param {
    lr_mult: 1
  }
  param {
    lr_mult: 2
  }
  inner_product_param {
    num_output: 64
    weight_filler {
      type: "gaussian"
      std: 0.1
    }
    bias_filler {
      type: "constant"
    }
  }
}
layer {
  name: "ip2"
  type: "InnerProduct"
  bottom: "ip1"
  top: "ip2"
  param {
    lr_mult: 1
  }
  param {
    lr_mult: 2
  }
  inner_product_param {
    num_output: 64
    weight_filler {
      type: "gaussian"
      std: 0.1
    }
    bias_filler {
      type: "constant"
    }
  }
}
layer {
  name: "ip3"
  type: "InnerProduct"
  bottom: "ip2"
  top: "ip3"
  param {
    lr_mult: 1
  }
  param {
    lr_mult: 2
  }
  inner_product_param {
    num_output: 1
    weight_filler {
      type: "gaussian"
      std: 0.1
    }
    bias_filler {
      type: "constant"
    }
  }
}
layer {
  name: "loss"
  type: "HuberLoss"
  bottom: "ip3"
  bottom: "label"
  top: "loss"
  include {
    phase: TRAIN
  }
}
I0502 14:43:23.425501  7919 layer_factory.hpp:77] Creating layer parameters
I0502 14:43:23.425516  7919 net.cpp:94] Creating Layer parameters
I0502 14:43:23.425523  7919 net.cpp:409] parameters -> data
I0502 14:43:23.425541  7919 net.cpp:409] parameters -> label
I0502 14:43:23.425551  7919 hdf5_data_layer.cpp:79] Loading list of HDF5 filenames from: /home/purduethu/scratch/radon/d/deng106/CNNStatisticalModel/distributions/input/20_distributions_900_sample_size_train-parameters-path.txt
I0502 14:43:23.425575  7919 hdf5_data_layer.cpp:93] Number of HDF5 files: 1
I0502 14:43:23.426168  7919 hdf5.cpp:32] Datatype class: H5T_FLOAT
I0502 14:43:24.062522  7919 net.cpp:144] Setting up parameters
I0502 14:43:24.062557  7919 net.cpp:151] Top shape: 20 1 30 30 (18000)
I0502 14:43:24.062563  7919 net.cpp:151] Top shape: 20 (20)
I0502 14:43:24.062567  7919 net.cpp:159] Memory required for data: 72080
I0502 14:43:24.062574  7919 layer_factory.hpp:77] Creating layer conv1
I0502 14:43:24.062599  7919 net.cpp:94] Creating Layer conv1
I0502 14:43:24.062604  7919 net.cpp:435] conv1 <- data
I0502 14:43:24.062615  7919 net.cpp:409] conv1 -> conv1
I0502 14:43:24.068467  7919 net.cpp:144] Setting up conv1
I0502 14:43:24.068483  7919 net.cpp:151] Top shape: 20 64 30 30 (1152000)
I0502 14:43:24.068487  7919 net.cpp:159] Memory required for data: 4680080
I0502 14:43:24.068498  7919 layer_factory.hpp:77] Creating layer relu1
I0502 14:43:24.068506  7919 net.cpp:94] Creating Layer relu1
I0502 14:43:24.068511  7919 net.cpp:435] relu1 <- conv1
I0502 14:43:24.068516  7919 net.cpp:396] relu1 -> conv1 (in-place)
I0502 14:43:24.068529  7919 net.cpp:144] Setting up relu1
I0502 14:43:24.068534  7919 net.cpp:151] Top shape: 20 64 30 30 (1152000)
I0502 14:43:24.068537  7919 net.cpp:159] Memory required for data: 9288080
I0502 14:43:24.068542  7919 layer_factory.hpp:77] Creating layer conv2
I0502 14:43:24.068548  7919 net.cpp:94] Creating Layer conv2
I0502 14:43:24.068570  7919 net.cpp:435] conv2 <- conv1
I0502 14:43:24.068577  7919 net.cpp:409] conv2 -> conv2
I0502 14:43:24.083518  7919 net.cpp:144] Setting up conv2
I0502 14:43:24.083533  7919 net.cpp:151] Top shape: 20 64 30 30 (1152000)
I0502 14:43:24.083537  7919 net.cpp:159] Memory required for data: 13896080
I0502 14:43:24.083545  7919 layer_factory.hpp:77] Creating layer relu2
I0502 14:43:24.083551  7919 net.cpp:94] Creating Layer relu2
I0502 14:43:24.083555  7919 net.cpp:435] relu2 <- conv2
I0502 14:43:24.083560  7919 net.cpp:396] relu2 -> conv2 (in-place)
I0502 14:43:24.083567  7919 net.cpp:144] Setting up relu2
I0502 14:43:24.083571  7919 net.cpp:151] Top shape: 20 64 30 30 (1152000)
I0502 14:43:24.083575  7919 net.cpp:159] Memory required for data: 18504080
I0502 14:43:24.083577  7919 layer_factory.hpp:77] Creating layer pool2
I0502 14:43:24.083585  7919 net.cpp:94] Creating Layer pool2
I0502 14:43:24.083595  7919 net.cpp:435] pool2 <- conv2
I0502 14:43:24.083600  7919 net.cpp:409] pool2 -> pool2
I0502 14:43:24.083643  7919 net.cpp:144] Setting up pool2
I0502 14:43:24.083650  7919 net.cpp:151] Top shape: 20 64 15 15 (288000)
I0502 14:43:24.083654  7919 net.cpp:159] Memory required for data: 19656080
I0502 14:43:24.083657  7919 layer_factory.hpp:77] Creating layer conv3
I0502 14:43:24.083665  7919 net.cpp:94] Creating Layer conv3
I0502 14:43:24.083669  7919 net.cpp:435] conv3 <- pool2
I0502 14:43:24.083673  7919 net.cpp:409] conv3 -> conv3
I0502 14:43:24.092195  7919 net.cpp:144] Setting up conv3
I0502 14:43:24.092211  7919 net.cpp:151] Top shape: 20 64 15 15 (288000)
I0502 14:43:24.092214  7919 net.cpp:159] Memory required for data: 20808080
I0502 14:43:24.092222  7919 layer_factory.hpp:77] Creating layer relu3
I0502 14:43:24.092229  7919 net.cpp:94] Creating Layer relu3
I0502 14:43:24.092233  7919 net.cpp:435] relu3 <- conv3
I0502 14:43:24.092237  7919 net.cpp:396] relu3 -> conv3 (in-place)
I0502 14:43:24.092245  7919 net.cpp:144] Setting up relu3
I0502 14:43:24.092249  7919 net.cpp:151] Top shape: 20 64 15 15 (288000)
I0502 14:43:24.092252  7919 net.cpp:159] Memory required for data: 21960080
I0502 14:43:24.092255  7919 layer_factory.hpp:77] Creating layer conv4
I0502 14:43:24.092265  7919 net.cpp:94] Creating Layer conv4
I0502 14:43:24.092268  7919 net.cpp:435] conv4 <- conv3
I0502 14:43:24.092273  7919 net.cpp:409] conv4 -> conv4
I0502 14:43:24.100000  7919 net.cpp:144] Setting up conv4
I0502 14:43:24.100015  7919 net.cpp:151] Top shape: 20 64 15 15 (288000)
I0502 14:43:24.100020  7919 net.cpp:159] Memory required for data: 23112080
I0502 14:43:24.100026  7919 layer_factory.hpp:77] Creating layer relu4
I0502 14:43:24.100033  7919 net.cpp:94] Creating Layer relu4
I0502 14:43:24.100036  7919 net.cpp:435] relu4 <- conv4
I0502 14:43:24.100041  7919 net.cpp:396] relu4 -> conv4 (in-place)
I0502 14:43:24.100049  7919 net.cpp:144] Setting up relu4
I0502 14:43:24.100052  7919 net.cpp:151] Top shape: 20 64 15 15 (288000)
I0502 14:43:24.100055  7919 net.cpp:159] Memory required for data: 24264080
I0502 14:43:24.100059  7919 layer_factory.hpp:77] Creating layer conv5
I0502 14:43:24.100067  7919 net.cpp:94] Creating Layer conv5
I0502 14:43:24.100070  7919 net.cpp:435] conv5 <- conv4
I0502 14:43:24.100075  7919 net.cpp:409] conv5 -> conv5
I0502 14:43:24.108470  7919 net.cpp:144] Setting up conv5
I0502 14:43:24.108497  7919 net.cpp:151] Top shape: 20 64 15 15 (288000)
I0502 14:43:24.108506  7919 net.cpp:159] Memory required for data: 25416080
I0502 14:43:24.108522  7919 layer_factory.hpp:77] Creating layer relu5
I0502 14:43:24.108533  7919 net.cpp:94] Creating Layer relu5
I0502 14:43:24.108541  7919 net.cpp:435] relu5 <- conv5
I0502 14:43:24.108563  7919 net.cpp:396] relu5 -> conv5 (in-place)
I0502 14:43:24.108580  7919 net.cpp:144] Setting up relu5
I0502 14:43:24.108589  7919 net.cpp:151] Top shape: 20 64 15 15 (288000)
I0502 14:43:24.108595  7919 net.cpp:159] Memory required for data: 26568080
I0502 14:43:24.108602  7919 layer_factory.hpp:77] Creating layer pool5
I0502 14:43:24.108611  7919 net.cpp:94] Creating Layer pool5
I0502 14:43:24.108618  7919 net.cpp:435] pool5 <- conv5
I0502 14:43:24.108626  7919 net.cpp:409] pool5 -> pool5
I0502 14:43:24.108687  7919 net.cpp:144] Setting up pool5
I0502 14:43:24.108695  7919 net.cpp:151] Top shape: 20 64 7 7 (62720)
I0502 14:43:24.108698  7919 net.cpp:159] Memory required for data: 26818960
I0502 14:43:24.108701  7919 layer_factory.hpp:77] Creating layer ip1
I0502 14:43:24.108711  7919 net.cpp:94] Creating Layer ip1
I0502 14:43:24.108714  7919 net.cpp:435] ip1 <- pool5
I0502 14:43:24.108718  7919 net.cpp:409] ip1 -> ip1
I0502 14:43:24.113440  7919 net.cpp:144] Setting up ip1
I0502 14:43:24.113450  7919 net.cpp:151] Top shape: 20 64 (1280)
I0502 14:43:24.113452  7919 net.cpp:159] Memory required for data: 26824080
I0502 14:43:24.113457  7919 layer_factory.hpp:77] Creating layer ip2
I0502 14:43:24.113463  7919 net.cpp:94] Creating Layer ip2
I0502 14:43:24.113471  7919 net.cpp:435] ip2 <- ip1
I0502 14:43:24.113476  7919 net.cpp:409] ip2 -> ip2
I0502 14:43:24.113639  7919 net.cpp:144] Setting up ip2
I0502 14:43:24.113646  7919 net.cpp:151] Top shape: 20 64 (1280)
I0502 14:43:24.113648  7919 net.cpp:159] Memory required for data: 26829200
I0502 14:43:24.113653  7919 layer_factory.hpp:77] Creating layer ip3
I0502 14:43:24.113659  7919 net.cpp:94] Creating Layer ip3
I0502 14:43:24.113662  7919 net.cpp:435] ip3 <- ip2
I0502 14:43:24.113667  7919 net.cpp:409] ip3 -> ip3
I0502 14:43:24.113729  7919 net.cpp:144] Setting up ip3
I0502 14:43:24.113740  7919 net.cpp:151] Top shape: 20 1 (20)
I0502 14:43:24.113744  7919 net.cpp:159] Memory required for data: 26829280
I0502 14:43:24.113749  7919 layer_factory.hpp:77] Creating layer loss
I0502 14:43:24.113755  7919 net.cpp:94] Creating Layer loss
I0502 14:43:24.113759  7919 net.cpp:435] loss <- ip3
I0502 14:43:24.113762  7919 net.cpp:435] loss <- label
I0502 14:43:24.113767  7919 net.cpp:409] loss -> loss
I0502 14:43:24.113801  7919 net.cpp:144] Setting up loss
…
