…
I0507 13:56:23.253829  2321 net.cpp:323] The NetState phase (0) differed from the phase (1) specified by a rule in layer intercept
I0507 13:56:23.253844  2321 net.cpp:323] The NetState phase (0) differed from the phase (1) specified by a rule in layer loss
I0507 13:56:23.253921  2321 net.cpp:52] Initializing net from parameters: 
state {
  phase: TRAIN
}
layer {
  name: "parameters"
  type: "HDF5Data"
  top: "data"
  top: "label"
  include {
    phase: TRAIN
  }
  hdf5_data_param {
    source: "/home/purduethu/scratch/radon/d/deng106/CNNStatisticalModel/distributions/input/5_distributions_400_sample_size_train-parameters-path.txt"
    batch_size: 20
  }
}
layer {
  name: "conv1"
  type: "Convolution"
  bottom: "data"
  top: "conv1"
  param {
    lr_mult: 1
  }
  param {
    lr_mult: 2
  }
  convolution_param {
    num_output: 64
    pad: 2
    kernel_size: 5
    stride: 1
    weight_filler {
      type: "gaussian"
      std: 0.0001
    }
    bias_filler {
      type: "constant"
    }
  }
}
layer {
  name: "relu1"
  type: "ReLU"
  bottom: "conv1"
  top: "conv1"
}
layer {
  name: "conv2"
  type: "Convolution"
  bottom: "conv1"
  top: "conv2"
  param {
    lr_mult: 1
  }
  param {
    lr_mult: 2
  }
  convolution_param {
    num_output: 64
    pad: 2
    kernel_size: 5
    stride: 1
    weight_filler {
      type: "gaussian"
      std: 0.01
    }
    bias_filler {
      type: "constant"
    }
  }
}
layer {
  name: "relu2"
  type: "ReLU"
  bottom: "conv2"
  top: "conv2"
}
layer {
  name: "pool2"
  type: "Pooling"
  bottom: "conv2"
  top: "pool2"
  pooling_param {
    pool: MAX
    kernel_size: 3
    stride: 2
  }
}
layer {
  name: "conv3"
  type: "Convolution"
  bottom: "pool2"
  top: "conv3"
  param {
    lr_mult: 1
  }
  param {
    lr_mult: 2
  }
  convolution_param {
    num_output: 64
    pad: 2
    kernel_size: 5
    stride: 1
    weight_filler {
      type: "gaussian"
      std: 0.01
    }
    bias_filler {
      type: "constant"
    }
  }
}
layer {
  name: "relu3"
  type: "ReLU"
  bottom: "conv3"
  top: "conv3"
}
layer {
  name: "conv4"
  type: "Convolution"
  bottom: "conv3"
  top: "conv4"
  param {
    lr_mult: 1
  }
  param {
    lr_mult: 2
  }
  convolution_param {
    num_output: 64
    pad: 2
    kernel_size: 5
    stride: 1
    weight_filler {
      type: "gaussian"
      std: 0.01
    }
    bias_filler {
      type: "constant"
    }
  }
}
layer {
  name: "relu4"
  type: "ReLU"
  bottom: "conv4"
  top: "conv4"
}
layer {
  name: "conv5"
  type: "Convolution"
  bottom: "conv4"
  top: "conv5"
  param {
    lr_mult: 1
  }
  param {
    lr_mult: 2
  }
  convolution_param {
    num_output: 64
    pad: 2
    kernel_size: 5
    stride: 1
    weight_filler {
      type: "gaussian"
      std: 0.01
    }
    bias_filler {
      type: "constant"
    }
  }
}
layer {
  name: "relu5"
  type: "ReLU"
  bottom: "conv5"
  top: "conv5"
}
layer {
  name: "pool5"
  type: "Pooling"
  bottom: "conv5"
  top: "pool5"
  pooling_param {
    pool: AVE
    kernel_size: 3
    stride: 2
  }
}
layer {
  name: "ip1"
  type: "InnerProduct"
  bottom: "pool5"
  top: "ip1"
  param {
    lr_mult: 1
  }
  param {
    lr_mult: 2
  }
  inner_product_param {
    num_output: 64
    weight_filler {
      type: "gaussian"
      std: 0.1
    }
    bias_filler {
      type: "constant"
    }
  }
}
layer {
  name: "ip2"
  type: "InnerProduct"
  bottom: "ip1"
  top: "ip2"
  param {
    lr_mult: 1
  }
  param {
    lr_mult: 2
  }
  inner_product_param {
    num_output: 64
    weight_filler {
      type: "gaussian"
      std: 0.1
    }
    bias_filler {
      type: "constant"
    }
  }
}
layer {
  name: "ip3"
  type: "InnerProduct"
  bottom: "ip2"
  top: "ip3"
  param {
    lr_mult: 1
  }
  param {
    lr_mult: 2
  }
  inner_product_param {
    num_output: 1
    weight_filler {
      type: "gaussian"
      std: 0.1
    }
    bias_filler {
      type: "constant"
    }
  }
}
layer {
  name: "loss"
  type: "HuberLoss"
  bottom: "ip3"
  bottom: "label"
  top: "loss"
  include {
    phase: TRAIN
  }
}
I0507 13:56:23.253976  2321 layer_factory.hpp:77] Creating layer parameters
I0507 13:56:23.253993  2321 net.cpp:94] Creating Layer parameters
I0507 13:56:23.253998  2321 net.cpp:409] parameters -> data
I0507 13:56:23.254005  2321 net.cpp:409] parameters -> label
I0507 13:56:23.254012  2321 hdf5_data_layer.cpp:79] Loading list of HDF5 filenames from: /home/purduethu/scratch/radon/d/deng106/CNNStatisticalModel/distributions/input/5_distributions_400_sample_size_train-parameters-path.txt
I0507 13:56:23.254026  2321 hdf5_data_layer.cpp:93] Number of HDF5 files: 1
I0507 13:56:23.254565  2321 hdf5.cpp:32] Datatype class: H5T_FLOAT
I0507 13:56:23.317138  2321 net.cpp:144] Setting up parameters
I0507 13:56:23.317167  2321 net.cpp:151] Top shape: 20 1 20 20 (8000)
I0507 13:56:23.317173  2321 net.cpp:151] Top shape: 20 (20)
I0507 13:56:23.317176  2321 net.cpp:159] Memory required for data: 32080
I0507 13:56:23.317183  2321 layer_factory.hpp:77] Creating layer conv1
I0507 13:56:23.317198  2321 net.cpp:94] Creating Layer conv1
I0507 13:56:23.317203  2321 net.cpp:435] conv1 <- data
I0507 13:56:23.317209  2321 net.cpp:409] conv1 -> conv1
I0507 13:56:23.322568  2321 net.cpp:144] Setting up conv1
I0507 13:56:23.322585  2321 net.cpp:151] Top shape: 20 64 20 20 (512000)
I0507 13:56:23.322589  2321 net.cpp:159] Memory required for data: 2080080
I0507 13:56:23.322599  2321 layer_factory.hpp:77] Creating layer relu1
I0507 13:56:23.322607  2321 net.cpp:94] Creating Layer relu1
I0507 13:56:23.322612  2321 net.cpp:435] relu1 <- conv1
I0507 13:56:23.322615  2321 net.cpp:396] relu1 -> conv1 (in-place)
I0507 13:56:23.322623  2321 net.cpp:144] Setting up relu1
I0507 13:56:23.322628  2321 net.cpp:151] Top shape: 20 64 20 20 (512000)
I0507 13:56:23.322630  2321 net.cpp:159] Memory required for data: 4128080
I0507 13:56:23.322633  2321 layer_factory.hpp:77] Creating layer conv2
I0507 13:56:23.322641  2321 net.cpp:94] Creating Layer conv2
I0507 13:56:23.322644  2321 net.cpp:435] conv2 <- conv1
I0507 13:56:23.322649  2321 net.cpp:409] conv2 -> conv2
I0507 13:56:23.333529  2321 net.cpp:144] Setting up conv2
I0507 13:56:23.333544  2321 net.cpp:151] Top shape: 20 64 20 20 (512000)
I0507 13:56:23.333549  2321 net.cpp:159] Memory required for data: 6176080
I0507 13:56:23.333556  2321 layer_factory.hpp:77] Creating layer relu2
I0507 13:56:23.333564  2321 net.cpp:94] Creating Layer relu2
I0507 13:56:23.333567  2321 net.cpp:435] relu2 <- conv2
I0507 13:56:23.333571  2321 net.cpp:396] relu2 -> conv2 (in-place)
I0507 13:56:23.333578  2321 net.cpp:144] Setting up relu2
I0507 13:56:23.333582  2321 net.cpp:151] Top shape: 20 64 20 20 (512000)
I0507 13:56:23.333585  2321 net.cpp:159] Memory required for data: 8224080
I0507 13:56:23.333588  2321 layer_factory.hpp:77] Creating layer pool2
I0507 13:56:23.333601  2321 net.cpp:94] Creating Layer pool2
I0507 13:56:23.333606  2321 net.cpp:435] pool2 <- conv2
I0507 13:56:23.333609  2321 net.cpp:409] pool2 -> pool2
I0507 13:56:23.333667  2321 net.cpp:144] Setting up pool2
I0507 13:56:23.333674  2321 net.cpp:151] Top shape: 20 64 10 10 (128000)
I0507 13:56:23.333678  2321 net.cpp:159] Memory required for data: 8736080
I0507 13:56:23.333680  2321 layer_factory.hpp:77] Creating layer conv3
I0507 13:56:23.333688  2321 net.cpp:94] Creating Layer conv3
I0507 13:56:23.333693  2321 net.cpp:435] conv3 <- pool2
I0507 13:56:23.333698  2321 net.cpp:409] conv3 -> conv3
I0507 13:56:23.339061  2321 net.cpp:144] Setting up conv3
I0507 13:56:23.339074  2321 net.cpp:151] Top shape: 20 64 10 10 (128000)
I0507 13:56:23.339078  2321 net.cpp:159] Memory required for data: 9248080
I0507 13:56:23.339085  2321 layer_factory.hpp:77] Creating layer relu3
I0507 13:56:23.339092  2321 net.cpp:94] Creating Layer relu3
I0507 13:56:23.339095  2321 net.cpp:435] relu3 <- conv3
I0507 13:56:23.339099  2321 net.cpp:396] relu3 -> conv3 (in-place)
I0507 13:56:23.339107  2321 net.cpp:144] Setting up relu3
I0507 13:56:23.339110  2321 net.cpp:151] Top shape: 20 64 10 10 (128000)
I0507 13:56:23.339113  2321 net.cpp:159] Memory required for data: 9760080
I0507 13:56:23.339117  2321 layer_factory.hpp:77] Creating layer conv4
I0507 13:56:23.339124  2321 net.cpp:94] Creating Layer conv4
I0507 13:56:23.339128  2321 net.cpp:435] conv4 <- conv3
I0507 13:56:23.339133  2321 net.cpp:409] conv4 -> conv4
I0507 13:56:23.344521  2321 net.cpp:144] Setting up conv4
I0507 13:56:23.344534  2321 net.cpp:151] Top shape: 20 64 10 10 (128000)
I0507 13:56:23.344538  2321 net.cpp:159] Memory required for data: 10272080
I0507 13:56:23.344544  2321 layer_factory.hpp:77] Creating layer relu4
I0507 13:56:23.344558  2321 net.cpp:94] Creating Layer relu4
I0507 13:56:23.344563  2321 net.cpp:435] relu4 <- conv4
I0507 13:56:23.344568  2321 net.cpp:396] relu4 -> conv4 (in-place)
I0507 13:56:23.344574  2321 net.cpp:144] Setting up relu4
I0507 13:56:23.344579  2321 net.cpp:151] Top shape: 20 64 10 10 (128000)
I0507 13:56:23.344583  2321 net.cpp:159] Memory required for data: 10784080
I0507 13:56:23.344585  2321 layer_factory.hpp:77] Creating layer conv5
I0507 13:56:23.344594  2321 net.cpp:94] Creating Layer conv5
I0507 13:56:23.344596  2321 net.cpp:435] conv5 <- conv4
I0507 13:56:23.344601  2321 net.cpp:409] conv5 -> conv5
I0507 13:56:23.349943  2321 net.cpp:144] Setting up conv5
I0507 13:56:23.349957  2321 net.cpp:151] Top shape: 20 64 10 10 (128000)
I0507 13:56:23.349961  2321 net.cpp:159] Memory required for data: 11296080
I0507 13:56:23.349970  2321 layer_factory.hpp:77] Creating layer relu5
I0507 13:56:23.349977  2321 net.cpp:94] Creating Layer relu5
I0507 13:56:23.349979  2321 net.cpp:435] relu5 <- conv5
I0507 13:56:23.349985  2321 net.cpp:396] relu5 -> conv5 (in-place)
I0507 13:56:23.349992  2321 net.cpp:144] Setting up relu5
I0507 13:56:23.349995  2321 net.cpp:151] Top shape: 20 64 10 10 (128000)
I0507 13:56:23.349998  2321 net.cpp:159] Memory required for data: 11808080
I0507 13:56:23.350002  2321 layer_factory.hpp:77] Creating layer pool5
I0507 13:56:23.350006  2321 net.cpp:94] Creating Layer pool5
I0507 13:56:23.350009  2321 net.cpp:435] pool5 <- conv5
I0507 13:56:23.350014  2321 net.cpp:409] pool5 -> pool5
I0507 13:56:23.350056  2321 net.cpp:144] Setting up pool5
I0507 13:56:23.350064  2321 net.cpp:151] Top shape: 20 64 5 5 (32000)
I0507 13:56:23.350066  2321 net.cpp:159] Memory required for data: 11936080
I0507 13:56:23.350069  2321 layer_factory.hpp:77] Creating layer ip1
I0507 13:56:23.350080  2321 net.cpp:94] Creating Layer ip1
I0507 13:56:23.350083  2321 net.cpp:435] ip1 <- pool5
I0507 13:56:23.350090  2321 net.cpp:409] ip1 -> ip1
I0507 13:56:23.352641  2321 net.cpp:144] Setting up ip1
I0507 13:56:23.352650  2321 net.cpp:151] Top shape: 20 64 (1280)
I0507 13:56:23.352654  2321 net.cpp:159] Memory required for data: 11941200
I0507 13:56:23.352659  2321 layer_factory.hpp:77] Creating layer ip2
I0507 13:56:23.352665  2321 net.cpp:94] Creating Layer ip2
I0507 13:56:23.352672  2321 net.cpp:435] ip2 <- ip1
I0507 13:56:23.352679  2321 net.cpp:409] ip2 -> ip2
I0507 13:56:23.352905  2321 net.cpp:144] Setting up ip2
I0507 13:56:23.352912  2321 net.cpp:151] Top shape: 20 64 (1280)
I0507 13:56:23.352916  2321 net.cpp:159] Memory required for data: 11946320
I0507 13:56:23.352921  2321 layer_factory.hpp:77] Creating layer ip3
I0507 13:56:23.352926  2321 net.cpp:94] Creating Layer ip3
I0507 13:56:23.352929  2321 net.cpp:435] ip3 <- ip2
I0507 13:56:23.352936  2321 net.cpp:409] ip3 -> ip3
I0507 13:56:23.353055  2321 net.cpp:144] Setting up ip3
I0507 13:56:23.353060  2321 net.cpp:151] Top shape: 20 1 (20)
I0507 13:56:23.353063  2321 net.cpp:159] Memory required for data: 11946400
I0507 13:56:23.353068  2321 layer_factory.hpp:77] Creating layer loss
I0507 13:56:23.353080  2321 net.cpp:94] Creating Layer loss
I0507 13:56:23.353082  2321 net.cpp:435] loss <- ip3
I0507 13:56:23.353086  2321 net.cpp:435] loss <- label
I0507 13:56:23.353091  2321 net.cpp:409] loss -> loss
I0507 13:56:23.353149  2321 net.cpp:144] Setting up loss
…
I0507 13:56:23.396610  2321 net.cpp:323] The NetState phase (0) differed from the phase (1) specified by a rule in layer intercept
I0507 13:56:23.396627  2321 net.cpp:323] The NetState phase (0) differed from the phase (1) specified by a rule in layer accuracy
I0507 13:56:23.396716  2321 net.cpp:52] Initializing net from parameters: 
state {
  phase: TRAIN
}
layer {
  name: "parameters"
  type: "HDF5Data"
  top: "data"
  top: "label"
  include {
    phase: TRAIN
  }
  hdf5_data_param {
    source: "/home/purduethu/scratch/radon/d/deng106/CNNStatisticalModel/distributions/input/5_distributions_400_sample_size_train-distributions-path.txt"
    batch_size: 20
  }
}
layer {
  name: "conv1"
  type: "Convolution"
  bottom: "data"
  top: "conv1"
  param {
    lr_mult: 1
  }
  param {
    lr_mult: 2
  }
  convolution_param {
    num_output: 64
    pad: 2
    kernel_size: 5
    stride: 1
    weight_filler {
      type: "gaussian"
      std: 0.0001
    }
    bias_filler {
      type: "constant"
    }
  }
}
layer {
  name: "relu1"
  type: "ReLU"
  bottom: "conv1"
  top: "conv1"
}
layer {
  name: "conv2"
  type: "Convolution"
  bottom: "conv1"
  top: "conv2"
  param {
    lr_mult: 1
  }
  param {
    lr_mult: 2
  }
  convolution_param {
    num_output: 64
    pad: 2
    kernel_size: 5
    stride: 1
    weight_filler {
      type: "gaussian"
      std: 0.01
    }
    bias_filler {
      type: "constant"
    }
  }
}
layer {
  name: "relu2"
  type: "ReLU"
  bottom: "conv2"
  top: "conv2"
}
layer {
  name: "pool2"
  type: "Pooling"
  bottom: "conv2"
  top: "pool2"
  pooling_param {
    pool: MAX
    kernel_size: 3
    stride: 2
  }
}
layer {
  name: "conv3"
  type: "Convolution"
  bottom: "pool2"
  top: "conv3"
  param {
    lr_mult: 1
  }
  param {
    lr_mult: 2
  }
  convolution_param {
    num_output: 64
    pad: 2
    kernel_size: 5
    stride: 1
    weight_filler {
      type: "gaussian"
      std: 0.01
    }
    bias_filler {
      type: "constant"
    }
  }
}
layer {
  name: "relu3"
  type: "ReLU"
  bottom: "conv3"
  top: "conv3"
}
layer {
  name: "conv4"
  type: "Convolution"
  bottom: "conv3"
  top: "conv4"
  param {
    lr_mult: 1
  }
  param {
    lr_mult: 2
  }
  convolution_param {
    num_output: 64
    pad: 2
    kernel_size: 5
    stride: 1
    weight_filler {
      type: "gaussian"
      std: 0.01
    }
    bias_filler {
      type: "constant"
    }
  }
}
layer {
  name: "relu4"
  type: "ReLU"
  bottom: "conv4"
  top: "conv4"
}
layer {
  name: "conv5"
  type: "Convolution"
  bottom: "conv4"
  top: "conv5"
  param {
    lr_mult: 1
  }
  param {
    lr_mult: 2
  }
  convolution_param {
    num_output: 64
    pad: 2
    kernel_size: 5
    stride: 1
    weight_filler {
      type: "gaussian"
      std: 0.01
    }
    bias_filler {
      type: "constant"
    }
  }
}
layer {
  name: "relu5"
  type: "ReLU"
  bottom: "conv5"
  top: "conv5"
}
layer {
  name: "pool5"
  type: "Pooling"
  bottom: "conv5"
  top: "pool5"
  pooling_param {
    pool: AVE
    kernel_size: 3
    stride: 2
  }
}
layer {
  name: "ip1"
  type: "InnerProduct"
  bottom: "pool5"
  top: "ip1"
  param {
    lr_mult: 1
  }
  param {
    lr_mult: 2
  }
  inner_product_param {
    num_output: 64
    weight_filler {
      type: "gaussian"
      std: 0.1
    }
    bias_filler {
      type: "constant"
    }
  }
}
layer {
  name: "ip2"
  type: "InnerProduct"
  bottom: "ip1"
  top: "ip2"
  param {
    lr_mult: 1
  }
  param {
    lr_mult: 2
  }
  inner_product_param {
    num_output: 64
    weight_filler {
      type: "gaussian"
      std: 0.1
    }
    bias_filler {
      type: "constant"
    }
  }
}
layer {
  name: "ip3"
  type: "InnerProduct"
  bottom: "ip2"
  top: "ip3"
  param {
    lr_mult: 1
  }
  param {
    lr_mult: 2
  }
  inner_product_param {
    num_output: 50
    weight_filler {
      type: "gaussian"
      std: 0.1
    }
    bias_filler {
      type: "constant"
    }
  }
}
layer {
  name: "loss"
  type: "SoftmaxWithLoss"
  bottom: "ip3"
  bottom: "label"
  top: "loss"
}
I0507 13:56:23.396770  2321 layer_factory.hpp:77] Creating layer parameters
I0507 13:56:23.396777  2321 net.cpp:94] Creating Layer parameters
I0507 13:56:23.396781  2321 net.cpp:409] parameters -> data
I0507 13:56:23.396787  2321 net.cpp:409] parameters -> label
I0507 13:56:23.396793  2321 hdf5_data_layer.cpp:79] Loading list of HDF5 filenames from: /home/purduethu/scratch/radon/d/deng106/CNNStatisticalModel/distributions/input/5_distributions_400_sample_size_train-distributions-path.txt
I0507 13:56:23.396809  2321 hdf5_data_layer.cpp:93] Number of HDF5 files: 1
I0507 13:56:23.457592  2321 hdf5.cpp:35] Datatype class: H5T_INTEGER
I0507 13:56:23.458030  2321 net.cpp:144] Setting up parameters
I0507 13:56:23.458045  2321 net.cpp:151] Top shape: 20 1 20 20 (8000)
I0507 13:56:23.458050  2321 net.cpp:151] Top shape: 20 (20)
I0507 13:56:23.458052  2321 net.cpp:159] Memory required for data: 32080
I0507 13:56:23.458058  2321 layer_factory.hpp:77] Creating layer conv1
I0507 13:56:23.458075  2321 net.cpp:94] Creating Layer conv1
I0507 13:56:23.458078  2321 net.cpp:435] conv1 <- data
I0507 13:56:23.458084  2321 net.cpp:409] conv1 -> conv1
I0507 13:56:23.460893  2321 net.cpp:144] Setting up conv1
I0507 13:56:23.460908  2321 net.cpp:151] Top shape: 20 64 20 20 (512000)
I0507 13:56:23.460912  2321 net.cpp:159] Memory required for data: 2080080
I0507 13:56:23.460922  2321 layer_factory.hpp:77] Creating layer relu1
I0507 13:56:23.460929  2321 net.cpp:94] Creating Layer relu1
I0507 13:56:23.460933  2321 net.cpp:435] relu1 <- conv1
I0507 13:56:23.460937  2321 net.cpp:396] relu1 -> conv1 (in-place)
I0507 13:56:23.460944  2321 net.cpp:144] Setting up relu1
I0507 13:56:23.460948  2321 net.cpp:151] Top shape: 20 64 20 20 (512000)
I0507 13:56:23.460952  2321 net.cpp:159] Memory required for data: 4128080
I0507 13:56:23.460954  2321 layer_factory.hpp:77] Creating layer conv2
I0507 13:56:23.460961  2321 net.cpp:94] Creating Layer conv2
I0507 13:56:23.460965  2321 net.cpp:435] conv2 <- conv1
I0507 13:56:23.460969  2321 net.cpp:409] conv2 -> conv2
I0507 13:56:23.471802  2321 net.cpp:144] Setting up conv2
I0507 13:56:23.471842  2321 net.cpp:151] Top shape: 20 64 20 20 (512000)
I0507 13:56:23.471853  2321 net.cpp:159] Memory required for data: 6176080
I0507 13:56:23.471874  2321 layer_factory.hpp:77] Creating layer relu2
I0507 13:56:23.471891  2321 net.cpp:94] Creating Layer relu2
I0507 13:56:23.471901  2321 net.cpp:435] relu2 <- conv2
I0507 13:56:23.471915  2321 net.cpp:396] relu2 -> conv2 (in-place)
I0507 13:56:23.471933  2321 net.cpp:144] Setting up relu2
I0507 13:56:23.471946  2321 net.cpp:151] Top shape: 20 64 20 20 (512000)
I0507 13:56:23.471954  2321 net.cpp:159] Memory required for data: 8224080
I0507 13:56:23.471962  2321 layer_factory.hpp:77] Creating layer pool2
I0507 13:56:23.471976  2321 net.cpp:94] Creating Layer pool2
I0507 13:56:23.471985  2321 net.cpp:435] pool2 <- conv2
I0507 13:56:23.471997  2321 net.cpp:409] pool2 -> pool2
I0507 13:56:23.472147  2321 net.cpp:144] Setting up pool2
I0507 13:56:23.472165  2321 net.cpp:151] Top shape: 20 64 10 10 (128000)
I0507 13:56:23.472174  2321 net.cpp:159] Memory required for data: 8736080
I0507 13:56:23.472183  2321 layer_factory.hpp:77] Creating layer conv3
I0507 13:56:23.472203  2321 net.cpp:94] Creating Layer conv3
I0507 13:56:23.472213  2321 net.cpp:435] conv3 <- pool2
I0507 13:56:23.472225  2321 net.cpp:409] conv3 -> conv3
I0507 13:56:23.477651  2321 net.cpp:144] Setting up conv3
I0507 13:56:23.477665  2321 net.cpp:151] Top shape: 20 64 10 10 (128000)
I0507 13:56:23.477669  2321 net.cpp:159] Memory required for data: 9248080
I0507 13:56:23.477677  2321 layer_factory.hpp:77] Creating layer relu3
I0507 13:56:23.477684  2321 net.cpp:94] Creating Layer relu3
I0507 13:56:23.477686  2321 net.cpp:435] relu3 <- conv3
I0507 13:56:23.477691  2321 net.cpp:396] relu3 -> conv3 (in-place)
I0507 13:56:23.477699  2321 net.cpp:144] Setting up relu3
I0507 13:56:23.477702  2321 net.cpp:151] Top shape: 20 64 10 10 (128000)
I0507 13:56:23.477705  2321 net.cpp:159] Memory required for data: 9760080
I0507 13:56:23.477708  2321 layer_factory.hpp:77] Creating layer conv4
I0507 13:56:23.477716  2321 net.cpp:94] Creating Layer conv4
I0507 13:56:23.477720  2321 net.cpp:435] conv4 <- conv3
I0507 13:56:23.477725  2321 net.cpp:409] conv4 -> conv4
I0507 13:56:23.483139  2321 net.cpp:144] Setting up conv4
I0507 13:56:23.483153  2321 net.cpp:151] Top shape: 20 64 10 10 (128000)
I0507 13:56:23.483157  2321 net.cpp:159] Memory required for data: 10272080
I0507 13:56:23.483163  2321 layer_factory.hpp:77] Creating layer relu4
I0507 13:56:23.483170  2321 net.cpp:94] Creating Layer relu4
I0507 13:56:23.483172  2321 net.cpp:435] relu4 <- conv4
I0507 13:56:23.483177  2321 net.cpp:396] relu4 -> conv4 (in-place)
I0507 13:56:23.483183  2321 net.cpp:144] Setting up relu4
I0507 13:56:23.483188  2321 net.cpp:151] Top shape: 20 64 10 10 (128000)
I0507 13:56:23.483191  2321 net.cpp:159] Memory required for data: 10784080
I0507 13:56:23.483194  2321 layer_factory.hpp:77] Creating layer conv5
I0507 13:56:23.483201  2321 net.cpp:94] Creating Layer conv5
I0507 13:56:23.483206  2321 net.cpp:435] conv5 <- conv4
I0507 13:56:23.483209  2321 net.cpp:409] conv5 -> conv5
I0507 13:56:23.488605  2321 net.cpp:144] Setting up conv5
I0507 13:56:23.488617  2321 net.cpp:151] Top shape: 20 64 10 10 (128000)
I0507 13:56:23.488621  2321 net.cpp:159] Memory required for data: 11296080
I0507 13:56:23.488629  2321 layer_factory.hpp:77] Creating layer relu5
I0507 13:56:23.488636  2321 net.cpp:94] Creating Layer relu5
I0507 13:56:23.488639  2321 net.cpp:435] relu5 <- conv5
I0507 13:56:23.488643  2321 net.cpp:396] relu5 -> conv5 (in-place)
I0507 13:56:23.488649  2321 net.cpp:144] Setting up relu5
I0507 13:56:23.488654  2321 net.cpp:151] Top shape: 20 64 10 10 (128000)
I0507 13:56:23.488656  2321 net.cpp:159] Memory required for data: 11808080
I0507 13:56:23.488659  2321 layer_factory.hpp:77] Creating layer pool5
I0507 13:56:23.488664  2321 net.cpp:94] Creating Layer pool5
I0507 13:56:23.488667  2321 net.cpp:435] pool5 <- conv5
I0507 13:56:23.488672  2321 net.cpp:409] pool5 -> pool5
I0507 13:56:23.488709  2321 net.cpp:144] Setting up pool5
I0507 13:56:23.488716  2321 net.cpp:151] Top shape: 20 64 5 5 (32000)
I0507 13:56:23.488720  2321 net.cpp:159] Memory required for data: 11936080
I0507 13:56:23.488723  2321 layer_factory.hpp:77] Creating layer ip1
I0507 13:56:23.488729  2321 net.cpp:94] Creating Layer ip1
I0507 13:56:23.488732  2321 net.cpp:435] ip1 <- pool5
I0507 13:56:23.488736  2321 net.cpp:409] ip1 -> ip1
I0507 13:56:23.491291  2321 net.cpp:144] Setting up ip1
I0507 13:56:23.491299  2321 net.cpp:151] Top shape: 20 64 (1280)
I0507 13:56:23.491302  2321 net.cpp:159] Memory required for data: 11941200
I0507 13:56:23.491308  2321 layer_factory.hpp:77] Creating layer ip2
I0507 13:56:23.491315  2321 net.cpp:94] Creating Layer ip2
I0507 13:56:23.491318  2321 net.cpp:435] ip2 <- ip1
I0507 13:56:23.491323  2321 net.cpp:409] ip2 -> ip2
I0507 13:56:23.491556  2321 net.cpp:144] Setting up ip2
I0507 13:56:23.491562  2321 net.cpp:151] Top shape: 20 64 (1280)
I0507 13:56:23.491565  2321 net.cpp:159] Memory required for data: 11946320
I0507 13:56:23.491570  2321 layer_factory.hpp:77] Creating layer ip3
I0507 13:56:23.491577  2321 net.cpp:94] Creating Layer ip3
I0507 13:56:23.491580  2321 net.cpp:435] ip3 <- ip2
I0507 13:56:23.491586  2321 net.cpp:409] ip3 -> ip3
I0507 13:56:23.491797  2321 net.cpp:144] Setting up ip3
I0507 13:56:23.491809  2321 net.cpp:151] Top shape: 20 50 (1000)
I0507 13:56:23.491812  2321 net.cpp:159] Memory required for data: 11950320
I0507 13:56:23.491818  2321 layer_factory.hpp:77] Creating layer loss
I0507 13:56:23.491824  2321 net.cpp:94] Creating Layer loss
I0507 13:56:23.491828  2321 net.cpp:435] loss <- ip3
I0507 13:56:23.491832  2321 net.cpp:435] loss <- label
I0507 13:56:23.491837  2321 net.cpp:409] loss -> loss
I0507 13:56:23.491842  2321 layer_factory.hpp:77] Creating layer loss
…
I0507 13:56:23.492362  2321 solver.cpp:181] Creating test net (#0) specified by net file: ./protocol/dis_5_400_dimension.protocol_distribution
I0507 13:56:23.492388  2321 net.cpp:323] The NetState phase (1) differed from the phase (0) specified by a rule in layer parameters
I0507 13:56:23.492486  2321 net.cpp:52] Initializing net from parameters: 
state {
  phase: TEST
}
layer {
  name: "intercept"
  type: "HDF5Data"
  top: "data"
  top: "label"
  include {
    phase: TEST
  }
  hdf5_data_param {
    source: "/home/purduethu/scratch/radon/d/deng106/CNNStatisticalModel/distributions/input/5_distributions_400_sample_size_test-distributions-path.txt"
    batch_size: 20
  }
}
layer {
  name: "conv1"
  type: "Convolution"
  bottom: "data"
  top: "conv1"
  param {
    lr_mult: 1
  }
  param {
    lr_mult: 2
  }
  convolution_param {
    num_output: 64
    pad: 2
    kernel_size: 5
    stride: 1
    weight_filler {
      type: "gaussian"
      std: 0.0001
    }
    bias_filler {
      type: "constant"
    }
  }
}
layer {
  name: "relu1"
  type: "ReLU"
  bottom: "conv1"
  top: "conv1"
}
layer {
  name: "conv2"
  type: "Convolution"
  bottom: "conv1"
  top: "conv2"
  param {
    lr_mult: 1
  }
  param {
    lr_mult: 2
  }
  convolution_param {
    num_output: 64
    pad: 2
    kernel_size: 5
    stride: 1
    weight_filler {
      type: "gaussian"
      std: 0.01
    }
    bias_filler {
      type: "constant"
    }
  }
}
layer {
  name: "relu2"
  type: "ReLU"
  bottom: "conv2"
  top: "conv2"
}
layer {
  name: "pool2"
  type: "Pooling"
  bottom: "conv2"
  top: "pool2"
  pooling_param {
    pool: MAX
    kernel_size: 3
    stride: 2
  }
}
layer {
  name: "conv3"
  type: "Convolution"
  bottom: "pool2"
  top: "conv3"
  param {
    lr_mult: 1
  }
  param {
    lr_mult: 2
  }
  convolution_param {
    num_output: 64
    pad: 2
    kernel_size: 5
    stride: 1
    weight_filler {
      type: "gaussian"
      std: 0.01
    }
    bias_filler {
      type: "constant"
    }
  }
}
layer {
  name: "relu3"
  type: "ReLU"
  bottom: "conv3"
  top: "conv3"
}
layer {
  name: "conv4"
  type: "Convolution"
  bottom: "conv3"
  top: "conv4"
  param {
    lr_mult: 1
  }
  param {
    lr_mult: 2
  }
  convolution_param {
    num_output: 64
    pad: 2
    kernel_size: 5
    stride: 1
    weight_filler {
      type: "gaussian"
      std: 0.01
    }
    bias_filler {
      type: "constant"
    }
  }
}
layer {
  name: "relu4"
  type: "ReLU"
  bottom: "conv4"
  top: "conv4"
}
layer {
  name: "conv5"
  type: "Convolution"
  bottom: "conv4"
  top: "conv5"
  param {
    lr_mult: 1
  }
  param {
    lr_mult: 2
  }
  convolution_param {
    num_output: 64
    pad: 2
    kernel_size: 5
    stride: 1
    weight_filler {
      type: "gaussian"
      std: 0.01
    }
    bias_filler {
      type: "constant"
    }
  }
}
layer {
  name: "relu5"
  type: "ReLU"
  bottom: "conv5"
  top: "conv5"
}
layer {
  name: "pool5"
  type: "Pooling"
  bottom: "conv5"
  top: "pool5"
  pooling_param {
    pool: AVE
    kernel_size: 3
    stride: 2
  }
}
layer {
  name: "ip1"
  type: "InnerProduct"
  bottom: "pool5"
  top: "ip1"
  param {
    lr_mult: 1
  }
  param {
    lr_mult: 2
  }
  inner_product_param {
    num_output: 64
    weight_filler {
      type: "gaussian"
      std: 0.1
    }
    bias_filler {
      type: "constant"
    }
  }
}
layer {
  name: "ip2"
  type: "InnerProduct"
  bottom: "ip1"
  top: "ip2"
  param {
    lr_mult: 1
  }
  param {
    lr_mult: 2
  }
  inner_product_param {
    num_output: 64
    weight_filler {
      type: "gaussian"
      std: 0.1
    }
    bias_filler {
      type: "constant"
    }
  }
}
layer {
  name: "ip3"
  type: "InnerProduct"
  bottom: "ip2"
  top: "ip3"
  param {
    lr_mult: 1
  }
  param {
    lr_mult: 2
  }
  inner_product_param {
    num_output: 50
    weight_filler {
      type: "gaussian"
      std: 0.1
    }
    bias_filler {
      type: "constant"
    }
  }
}
layer {
  name: "accuracy"
  type: "Accuracy"
  bottom: "ip3"
  bottom: "label"
  top: "accuracy"
  include {
    phase: TEST
  }
}
layer {
  name: "loss"
  type: "SoftmaxWithLoss"
  bottom: "ip3"
  bottom: "label"
  top: "loss"
}
I0507 13:56:23.492564  2321 layer_factory.hpp:77] Creating layer intercept
I0507 13:56:23.492575  2321 net.cpp:94] Creating Layer intercept
I0507 13:56:23.492579  2321 net.cpp:409] intercept -> data
I0507 13:56:23.492585  2321 net.cpp:409] intercept -> label
I0507 13:56:23.492591  2321 hdf5_data_layer.cpp:79] Loading list of HDF5 filenames from: /home/purduethu/scratch/radon/d/deng106/CNNStatisticalModel/distributions/input/5_distributions_400_sample_size_test-distributions-path.txt
I0507 13:56:23.492610  2321 hdf5_data_layer.cpp:93] Number of HDF5 files: 1
I0507 13:56:23.508836  2321 net.cpp:144] Setting up intercept
I0507 13:56:23.508867  2321 net.cpp:151] Top shape: 20 1 20 20 (8000)
I0507 13:56:23.508872  2321 net.cpp:151] Top shape: 20 (20)
I0507 13:56:23.508875  2321 net.cpp:159] Memory required for data: 32080
I0507 13:56:23.508882  2321 layer_factory.hpp:77] Creating layer label_intercept_1_split
I0507 13:56:23.508899  2321 net.cpp:94] Creating Layer label_intercept_1_split
I0507 13:56:23.508903  2321 net.cpp:435] label_intercept_1_split <- label
I0507 13:56:23.508909  2321 net.cpp:409] label_intercept_1_split -> label_intercept_1_split_0
I0507 13:56:23.508918  2321 net.cpp:409] label_intercept_1_split -> label_intercept_1_split_1
I0507 13:56:23.508962  2321 net.cpp:144] Setting up label_intercept_1_split
I0507 13:56:23.508968  2321 net.cpp:151] Top shape: 20 (20)
I0507 13:56:23.508972  2321 net.cpp:151] Top shape: 20 (20)
I0507 13:56:23.508975  2321 net.cpp:159] Memory required for data: 32240
I0507 13:56:23.508978  2321 layer_factory.hpp:77] Creating layer conv1
I0507 13:56:23.508990  2321 net.cpp:94] Creating Layer conv1
I0507 13:56:23.508992  2321 net.cpp:435] conv1 <- data
I0507 13:56:23.508997  2321 net.cpp:409] conv1 -> conv1
I0507 13:56:23.510388  2321 net.cpp:144] Setting up conv1
I0507 13:56:23.510408  2321 net.cpp:151] Top shape: 20 64 20 20 (512000)
I0507 13:56:23.510413  2321 net.cpp:159] Memory required for data: 2080240
I0507 13:56:23.510423  2321 layer_factory.hpp:77] Creating layer relu1
I0507 13:56:23.510431  2321 net.cpp:94] Creating Layer relu1
I0507 13:56:23.510433  2321 net.cpp:435] relu1 <- conv1
I0507 13:56:23.510437  2321 net.cpp:396] relu1 -> conv1 (in-place)
I0507 13:56:23.510445  2321 net.cpp:144] Setting up relu1
I0507 13:56:23.510449  2321 net.cpp:151] Top shape: 20 64 20 20 (512000)
I0507 13:56:23.510452  2321 net.cpp:159] Memory required for data: 4128240
I0507 13:56:23.510454  2321 layer_factory.hpp:77] Creating layer conv2
I0507 13:56:23.510463  2321 net.cpp:94] Creating Layer conv2
I0507 13:56:23.510466  2321 net.cpp:435] conv2 <- conv1
I0507 13:56:23.510470  2321 net.cpp:409] conv2 -> conv2
I0507 13:56:23.516999  2321 net.cpp:144] Setting up conv2
I0507 13:56:23.517012  2321 net.cpp:151] Top shape: 20 64 20 20 (512000)
I0507 13:56:23.517016  2321 net.cpp:159] Memory required for data: 6176240
I0507 13:56:23.517024  2321 layer_factory.hpp:77] Creating layer relu2
I0507 13:56:23.517031  2321 net.cpp:94] Creating Layer relu2
I0507 13:56:23.517035  2321 net.cpp:435] relu2 <- conv2
I0507 13:56:23.517040  2321 net.cpp:396] relu2 -> conv2 (in-place)
I0507 13:56:23.517045  2321 net.cpp:144] Setting up relu2
I0507 13:56:23.517050  2321 net.cpp:151] Top shape: 20 64 20 20 (512000)
I0507 13:56:23.517052  2321 net.cpp:159] Memory required for data: 8224240
I0507 13:56:23.517055  2321 layer_factory.hpp:77] Creating layer pool2
I0507 13:56:23.517061  2321 net.cpp:94] Creating Layer pool2
I0507 13:56:23.517065  2321 net.cpp:435] pool2 <- conv2
I0507 13:56:23.517068  2321 net.cpp:409] pool2 -> pool2
I0507 13:56:23.517124  2321 net.cpp:144] Setting up pool2
I0507 13:56:23.517130  2321 net.cpp:151] Top shape: 20 64 10 10 (128000)
I0507 13:56:23.517133  2321 net.cpp:159] Memory required for data: 8736240
I0507 13:56:23.517137  2321 layer_factory.hpp:77] Creating layer conv3
I0507 13:56:23.517144  2321 net.cpp:94] Creating Layer conv3
I0507 13:56:23.517148  2321 net.cpp:435] conv3 <- pool2
I0507 13:56:23.517153  2321 net.cpp:409] conv3 -> conv3
I0507 13:56:23.521739  2321 net.cpp:144] Setting up conv3
I0507 13:56:23.521754  2321 net.cpp:151] Top shape: 20 64 10 10 (128000)
I0507 13:56:23.521756  2321 net.cpp:159] Memory required for data: 9248240
I0507 13:56:23.521764  2321 layer_factory.hpp:77] Creating layer relu3
I0507 13:56:23.521771  2321 net.cpp:94] Creating Layer relu3
I0507 13:56:23.521775  2321 net.cpp:435] relu3 <- conv3
I0507 13:56:23.521780  2321 net.cpp:396] relu3 -> conv3 (in-place)
I0507 13:56:23.521785  2321 net.cpp:144] Setting up relu3
I0507 13:56:23.521790  2321 net.cpp:151] Top shape: 20 64 10 10 (128000)
I0507 13:56:23.521793  2321 net.cpp:159] Memory required for data: 9760240
I0507 13:56:23.521795  2321 layer_factory.hpp:77] Creating layer conv4
I0507 13:56:23.521803  2321 net.cpp:94] Creating Layer conv4
I0507 13:56:23.521806  2321 net.cpp:435] conv4 <- conv3
I0507 13:56:23.521811  2321 net.cpp:409] conv4 -> conv4
I0507 13:56:23.525982  2321 net.cpp:144] Setting up conv4
I0507 13:56:23.525995  2321 net.cpp:151] Top shape: 20 64 10 10 (128000)
I0507 13:56:23.526000  2321 net.cpp:159] Memory required for data: 10272240
I0507 13:56:23.526005  2321 layer_factory.hpp:77] Creating layer relu4
I0507 13:56:23.526011  2321 net.cpp:94] Creating Layer relu4
I0507 13:56:23.526015  2321 net.cpp:435] relu4 <- conv4
I0507 13:56:23.526020  2321 net.cpp:396] relu4 -> conv4 (in-place)
I0507 13:56:23.526026  2321 net.cpp:144] Setting up relu4
I0507 13:56:23.526029  2321 net.cpp:151] Top shape: 20 64 10 10 (128000)
I0507 13:56:23.526032  2321 net.cpp:159] Memory required for data: 10784240
I0507 13:56:23.526036  2321 layer_factory.hpp:77] Creating layer conv5
I0507 13:56:23.526043  2321 net.cpp:94] Creating Layer conv5
I0507 13:56:23.526046  2321 net.cpp:435] conv5 <- conv4
I0507 13:56:23.526051  2321 net.cpp:409] conv5 -> conv5
I0507 13:56:23.530669  2321 net.cpp:144] Setting up conv5
I0507 13:56:23.530688  2321 net.cpp:151] Top shape: 20 64 10 10 (128000)
I0507 13:56:23.530691  2321 net.cpp:159] Memory required for data: 11296240
I0507 13:56:23.530700  2321 layer_factory.hpp:77] Creating layer relu5
I0507 13:56:23.530706  2321 net.cpp:94] Creating Layer relu5
I0507 13:56:23.530709  2321 net.cpp:435] relu5 <- conv5
I0507 13:56:23.530714  2321 net.cpp:396] relu5 -> conv5 (in-place)
I0507 13:56:23.530720  2321 net.cpp:144] Setting up relu5
I0507 13:56:23.530725  2321 net.cpp:151] Top shape: 20 64 10 10 (128000)
I0507 13:56:23.530727  2321 net.cpp:159] Memory required for data: 11808240
I0507 13:56:23.530730  2321 layer_factory.hpp:77] Creating layer pool5
I0507 13:56:23.530735  2321 net.cpp:94] Creating Layer pool5
I0507 13:56:23.530738  2321 net.cpp:435] pool5 <- conv5
I0507 13:56:23.530742  2321 net.cpp:409] pool5 -> pool5
I0507 13:56:23.530781  2321 net.cpp:144] Setting up pool5
I0507 13:56:23.530786  2321 net.cpp:151] Top shape: 20 64 5 5 (32000)
I0507 13:56:23.530789  2321 net.cpp:159] Memory required for data: 11936240
I0507 13:56:23.530793  2321 layer_factory.hpp:77] Creating layer ip1
I0507 13:56:23.530799  2321 net.cpp:94] Creating Layer ip1
I0507 13:56:23.530802  2321 net.cpp:435] ip1 <- pool5
I0507 13:56:23.530807  2321 net.cpp:409] ip1 -> ip1
I0507 13:56:23.533365  2321 net.cpp:144] Setting up ip1
I0507 13:56:23.533375  2321 net.cpp:151] Top shape: 20 64 (1280)
I0507 13:56:23.533378  2321 net.cpp:159] Memory required for data: 11941360
I0507 13:56:23.533383  2321 layer_factory.hpp:77] Creating layer ip2
I0507 13:56:23.533390  2321 net.cpp:94] Creating Layer ip2
I0507 13:56:23.533393  2321 net.cpp:435] ip2 <- ip1
I0507 13:56:23.533397  2321 net.cpp:409] ip2 -> ip2
I0507 13:56:23.533632  2321 net.cpp:144] Setting up ip2
I0507 13:56:23.533639  2321 net.cpp:151] Top shape: 20 64 (1280)
I0507 13:56:23.533643  2321 net.cpp:159] Memory required for data: 11946480
I0507 13:56:23.533648  2321 layer_factory.hpp:77] Creating layer ip3
I0507 13:56:23.533654  2321 net.cpp:94] Creating Layer ip3
I0507 13:56:23.533658  2321 net.cpp:435] ip3 <- ip2
I0507 13:56:23.533663  2321 net.cpp:409] ip3 -> ip3
I0507 13:56:23.533867  2321 net.cpp:144] Setting up ip3
I0507 13:56:23.533874  2321 net.cpp:151] Top shape: 20 50 (1000)
I0507 13:56:23.533877  2321 net.cpp:159] Memory required for data: 11950480
I0507 13:56:23.533882  2321 layer_factory.hpp:77] Creating layer ip3_ip3_0_split
I0507 13:56:23.533887  2321 net.cpp:94] Creating Layer ip3_ip3_0_split
I0507 13:56:23.533891  2321 net.cpp:435] ip3_ip3_0_split <- ip3
I0507 13:56:23.533895  2321 net.cpp:409] ip3_ip3_0_split -> ip3_ip3_0_split_0
I0507 13:56:23.533900  2321 net.cpp:409] ip3_ip3_0_split -> ip3_ip3_0_split_1
I0507 13:56:23.533942  2321 net.cpp:144] Setting up ip3_ip3_0_split
I0507 13:56:23.533948  2321 net.cpp:151] Top shape: 20 50 (1000)
I0507 13:56:23.533952  2321 net.cpp:151] Top shape: 20 50 (1000)
I0507 13:56:23.533956  2321 net.cpp:159] Memory required for data: 11958480
I0507 13:56:23.533958  2321 layer_factory.hpp:77] Creating layer accuracy
I0507 13:56:23.533963  2321 net.cpp:94] Creating Layer accuracy
I0507 13:56:23.533967  2321 net.cpp:435] accuracy <- ip3_ip3_0_split_0
I0507 13:56:23.533972  2321 net.cpp:435] accuracy <- label_intercept_1_split_0
I0507 13:56:23.533975  2321 net.cpp:409] accuracy -> accuracy
…
