…
I0503 00:47:00.904935 16387 net.cpp:323] The NetState phase (0) differed from the phase (1) specified by a rule in layer intercept
I0503 00:47:00.904952 16387 net.cpp:323] The NetState phase (0) differed from the phase (1) specified by a rule in layer loss
I0503 00:47:00.905033 16387 net.cpp:52] Initializing net from parameters: 
state {
  phase: TRAIN
}
layer {
  name: "parameters"
  type: "HDF5Data"
  top: "data"
  top: "label"
  include {
    phase: TRAIN
  }
  hdf5_data_param {
    source: "/home/purduethu/scratch/radon/d/deng106/CNNStatisticalModel/distributions/input/20_distributions_900_sample_size_train-parameters-path.txt"
    batch_size: 20
  }
}
layer {
  name: "conv1"
  type: "Convolution"
  bottom: "data"
  top: "conv1"
  param {
    lr_mult: 1
  }
  param {
    lr_mult: 2
  }
  convolution_param {
    num_output: 64
    pad: 2
    kernel_size: 5
    stride: 1
    weight_filler {
      type: "gaussian"
      std: 0.0001
    }
    bias_filler {
      type: "constant"
    }
  }
}
layer {
  name: "relu1"
  type: "ReLU"
  bottom: "conv1"
  top: "conv1"
}
layer {
  name: "conv2"
  type: "Convolution"
  bottom: "conv1"
  top: "conv2"
  param {
    lr_mult: 1
  }
  param {
    lr_mult: 2
  }
  convolution_param {
    num_output: 64
    pad: 2
    kernel_size: 5
    stride: 1
    weight_filler {
      type: "gaussian"
      std: 0.01
    }
    bias_filler {
      type: "constant"
    }
  }
}
layer {
  name: "relu2"
  type: "ReLU"
  bottom: "conv2"
  top: "conv2"
}
layer {
  name: "pool2"
  type: "Pooling"
  bottom: "conv2"
  top: "pool2"
  pooling_param {
    pool: MAX
    kernel_size: 3
    stride: 2
  }
}
layer {
  name: "conv3"
  type: "Convolution"
  bottom: "pool2"
  top: "conv3"
  param {
    lr_mult: 1
  }
  param {
    lr_mult: 2
  }
  convolution_param {
    num_output: 128
    pad: 2
    kernel_size: 5
    stride: 1
    weight_filler {
      type: "gaussian"
      std: 0.01
    }
    bias_filler {
      type: "constant"
    }
  }
}
layer {
  name: "relu3"
  type: "ReLU"
  bottom: "conv3"
  top: "conv3"
}
layer {
  name: "conv4"
  type: "Convolution"
  bottom: "conv3"
  top: "conv4"
  param {
    lr_mult: 1
  }
  param {
    lr_mult: 2
  }
  convolution_param {
    num_output: 128
    pad: 2
    kernel_size: 5
    stride: 1
    weight_filler {
      type: "gaussian"
      std: 0.01
    }
    bias_filler {
      type: "constant"
    }
  }
}
layer {
  name: "relu4"
  type: "ReLU"
  bottom: "conv4"
  top: "conv4"
}
layer {
  name: "conv5"
  type: "Convolution"
  bottom: "conv4"
  top: "conv5"
  param {
    lr_mult: 1
  }
  param {
    lr_mult: 2
  }
  convolution_param {
    num_output: 128
    pad: 2
    kernel_size: 5
    stride: 1
    weight_filler {
      type: "gaussian"
      std: 0.01
    }
    bias_filler {
      type: "constant"
    }
  }
}
layer {
  name: "relu5"
  type: "ReLU"
  bottom: "conv5"
  top: "conv5"
}
layer {
  name: "pool5"
  type: "Pooling"
  bottom: "conv5"
  top: "pool5"
  pooling_param {
    pool: AVE
    kernel_size: 3
    stride: 2
  }
}
layer {
  name: "ip1"
  type: "InnerProduct"
  bottom: "pool5"
  top: "ip1"
  param {
    lr_mult: 1
  }
  param {
    lr_mult: 2
  }
  inner_product_param {
    num_output: 1024
    weight_filler {
      type: "gaussian"
      std: 0.1
    }
    bias_filler {
      type: "constant"
    }
  }
}
layer {
  name: "ip2"
  type: "InnerProduct"
  bottom: "ip1"
  top: "ip2"
  param {
    lr_mult: 1
  }
  param {
    lr_mult: 2
  }
  inner_product_param {
    num_output: 512
    weight_filler {
      type: "gaussian"
      std: 0.1
    }
    bias_filler {
      type: "constant"
    }
  }
}
layer {
  name: "ip3"
  type: "InnerProduct"
  bottom: "ip2"
  top: "ip3"
  param {
    lr_mult: 1
  }
  param {
    lr_mult: 2
  }
  inner_product_param {
    num_output: 1
    weight_filler {
      type: "gaussian"
      std: 0.1
    }
    bias_filler {
      type: "constant"
    }
  }
}
layer {
  name: "loss"
  type: "HuberLoss"
  bottom: "ip3"
  bottom: "label"
  top: "loss"
  include {
    phase: TRAIN
  }
}
I0503 00:47:00.905089 16387 layer_factory.hpp:77] Creating layer parameters
I0503 00:47:00.905102 16387 net.cpp:94] Creating Layer parameters
I0503 00:47:00.905107 16387 net.cpp:409] parameters -> data
I0503 00:47:00.905117 16387 net.cpp:409] parameters -> label
I0503 00:47:00.905123 16387 hdf5_data_layer.cpp:79] Loading list of HDF5 filenames from: /home/purduethu/scratch/radon/d/deng106/CNNStatisticalModel/distributions/input/20_distributions_900_sample_size_train-parameters-path.txt
I0503 00:47:00.905138 16387 hdf5_data_layer.cpp:93] Number of HDF5 files: 1
I0503 00:47:00.905704 16387 hdf5.cpp:32] Datatype class: H5T_FLOAT
I0503 00:47:01.578696 16387 net.cpp:144] Setting up parameters
I0503 00:47:01.578728 16387 net.cpp:151] Top shape: 20 1 30 30 (18000)
I0503 00:47:01.578734 16387 net.cpp:151] Top shape: 20 (20)
I0503 00:47:01.578737 16387 net.cpp:159] Memory required for data: 72080
I0503 00:47:01.578743 16387 layer_factory.hpp:77] Creating layer conv1
I0503 00:47:01.578766 16387 net.cpp:94] Creating Layer conv1
I0503 00:47:01.578770 16387 net.cpp:435] conv1 <- data
I0503 00:47:01.578778 16387 net.cpp:409] conv1 -> conv1
I0503 00:47:01.585484 16387 net.cpp:144] Setting up conv1
I0503 00:47:01.585505 16387 net.cpp:151] Top shape: 20 64 30 30 (1152000)
I0503 00:47:01.585508 16387 net.cpp:159] Memory required for data: 4680080
I0503 00:47:01.585520 16387 layer_factory.hpp:77] Creating layer relu1
I0503 00:47:01.585528 16387 net.cpp:94] Creating Layer relu1
I0503 00:47:01.585532 16387 net.cpp:435] relu1 <- conv1
I0503 00:47:01.585536 16387 net.cpp:396] relu1 -> conv1 (in-place)
I0503 00:47:01.585551 16387 net.cpp:144] Setting up relu1
I0503 00:47:01.585556 16387 net.cpp:151] Top shape: 20 64 30 30 (1152000)
I0503 00:47:01.585559 16387 net.cpp:159] Memory required for data: 9288080
I0503 00:47:01.585562 16387 layer_factory.hpp:77] Creating layer conv2
I0503 00:47:01.585572 16387 net.cpp:94] Creating Layer conv2
I0503 00:47:01.585574 16387 net.cpp:435] conv2 <- conv1
I0503 00:47:01.585579 16387 net.cpp:409] conv2 -> conv2
I0503 00:47:01.600607 16387 net.cpp:144] Setting up conv2
I0503 00:47:01.600646 16387 net.cpp:151] Top shape: 20 64 30 30 (1152000)
I0503 00:47:01.600657 16387 net.cpp:159] Memory required for data: 13896080
I0503 00:47:01.600679 16387 layer_factory.hpp:77] Creating layer relu2
I0503 00:47:01.600697 16387 net.cpp:94] Creating Layer relu2
I0503 00:47:01.600706 16387 net.cpp:435] relu2 <- conv2
I0503 00:47:01.600720 16387 net.cpp:396] relu2 -> conv2 (in-place)
I0503 00:47:01.600739 16387 net.cpp:144] Setting up relu2
I0503 00:47:01.600752 16387 net.cpp:151] Top shape: 20 64 30 30 (1152000)
I0503 00:47:01.600760 16387 net.cpp:159] Memory required for data: 18504080
I0503 00:47:01.600769 16387 layer_factory.hpp:77] Creating layer pool2
I0503 00:47:01.600797 16387 net.cpp:94] Creating Layer pool2
I0503 00:47:01.600801 16387 net.cpp:435] pool2 <- conv2
I0503 00:47:01.600805 16387 net.cpp:409] pool2 -> pool2
I0503 00:47:01.600863 16387 net.cpp:144] Setting up pool2
I0503 00:47:01.600872 16387 net.cpp:151] Top shape: 20 64 15 15 (288000)
I0503 00:47:01.600875 16387 net.cpp:159] Memory required for data: 19656080
I0503 00:47:01.600878 16387 layer_factory.hpp:77] Creating layer conv3
I0503 00:47:01.600886 16387 net.cpp:94] Creating Layer conv3
I0503 00:47:01.600890 16387 net.cpp:435] conv3 <- pool2
I0503 00:47:01.600895 16387 net.cpp:409] conv3 -> conv3
I0503 00:47:01.613832 16387 net.cpp:144] Setting up conv3
I0503 00:47:01.613848 16387 net.cpp:151] Top shape: 20 128 15 15 (576000)
I0503 00:47:01.613853 16387 net.cpp:159] Memory required for data: 21960080
I0503 00:47:01.613862 16387 layer_factory.hpp:77] Creating layer relu3
I0503 00:47:01.613867 16387 net.cpp:94] Creating Layer relu3
I0503 00:47:01.613872 16387 net.cpp:435] relu3 <- conv3
I0503 00:47:01.613876 16387 net.cpp:396] relu3 -> conv3 (in-place)
I0503 00:47:01.613883 16387 net.cpp:144] Setting up relu3
I0503 00:47:01.613888 16387 net.cpp:151] Top shape: 20 128 15 15 (576000)
I0503 00:47:01.613891 16387 net.cpp:159] Memory required for data: 24264080
I0503 00:47:01.613894 16387 layer_factory.hpp:77] Creating layer conv4
I0503 00:47:01.613903 16387 net.cpp:94] Creating Layer conv4
I0503 00:47:01.613906 16387 net.cpp:435] conv4 <- conv3
I0503 00:47:01.613911 16387 net.cpp:409] conv4 -> conv4
I0503 00:47:01.636795 16387 net.cpp:144] Setting up conv4
I0503 00:47:01.636837 16387 net.cpp:151] Top shape: 20 128 15 15 (576000)
I0503 00:47:01.636847 16387 net.cpp:159] Memory required for data: 26568080
I0503 00:47:01.636865 16387 layer_factory.hpp:77] Creating layer relu4
I0503 00:47:01.636881 16387 net.cpp:94] Creating Layer relu4
I0503 00:47:01.636891 16387 net.cpp:435] relu4 <- conv4
I0503 00:47:01.636904 16387 net.cpp:396] relu4 -> conv4 (in-place)
I0503 00:47:01.636924 16387 net.cpp:144] Setting up relu4
I0503 00:47:01.636936 16387 net.cpp:151] Top shape: 20 128 15 15 (576000)
I0503 00:47:01.636945 16387 net.cpp:159] Memory required for data: 28872080
I0503 00:47:01.636953 16387 layer_factory.hpp:77] Creating layer conv5
I0503 00:47:01.636973 16387 net.cpp:94] Creating Layer conv5
I0503 00:47:01.636982 16387 net.cpp:435] conv5 <- conv4
I0503 00:47:01.636996 16387 net.cpp:409] conv5 -> conv5
I0503 00:47:01.659935 16387 net.cpp:144] Setting up conv5
I0503 00:47:01.659955 16387 net.cpp:151] Top shape: 20 128 15 15 (576000)
I0503 00:47:01.659960 16387 net.cpp:159] Memory required for data: 31176080
I0503 00:47:01.659970 16387 layer_factory.hpp:77] Creating layer relu5
I0503 00:47:01.659976 16387 net.cpp:94] Creating Layer relu5
I0503 00:47:01.659981 16387 net.cpp:435] relu5 <- conv5
I0503 00:47:01.659986 16387 net.cpp:396] relu5 -> conv5 (in-place)
I0503 00:47:01.659993 16387 net.cpp:144] Setting up relu5
I0503 00:47:01.659998 16387 net.cpp:151] Top shape: 20 128 15 15 (576000)
I0503 00:47:01.660001 16387 net.cpp:159] Memory required for data: 33480080
I0503 00:47:01.660004 16387 layer_factory.hpp:77] Creating layer pool5
I0503 00:47:01.660010 16387 net.cpp:94] Creating Layer pool5
I0503 00:47:01.660013 16387 net.cpp:435] pool5 <- conv5
I0503 00:47:01.660018 16387 net.cpp:409] pool5 -> pool5
I0503 00:47:01.660064 16387 net.cpp:144] Setting up pool5
I0503 00:47:01.660073 16387 net.cpp:151] Top shape: 20 128 7 7 (125440)
I0503 00:47:01.660076 16387 net.cpp:159] Memory required for data: 33981840
I0503 00:47:01.660079 16387 layer_factory.hpp:77] Creating layer ip1
I0503 00:47:01.660090 16387 net.cpp:94] Creating Layer ip1
I0503 00:47:01.660094 16387 net.cpp:435] ip1 <- pool5
I0503 00:47:01.660099 16387 net.cpp:409] ip1 -> ip1
I0503 00:47:01.824690 16387 net.cpp:144] Setting up ip1
I0503 00:47:01.824724 16387 net.cpp:151] Top shape: 20 1024 (20480)
I0503 00:47:01.824728 16387 net.cpp:159] Memory required for data: 34063760
I0503 00:47:01.824738 16387 layer_factory.hpp:77] Creating layer ip2
I0503 00:47:01.824748 16387 net.cpp:94] Creating Layer ip2
I0503 00:47:01.824764 16387 net.cpp:435] ip2 <- ip1
I0503 00:47:01.824770 16387 net.cpp:409] ip2 -> ip2
I0503 00:47:01.838603 16387 net.cpp:144] Setting up ip2
I0503 00:47:01.838624 16387 net.cpp:151] Top shape: 20 512 (10240)
I0503 00:47:01.838627 16387 net.cpp:159] Memory required for data: 34104720
I0503 00:47:01.838634 16387 layer_factory.hpp:77] Creating layer ip3
I0503 00:47:01.838641 16387 net.cpp:94] Creating Layer ip3
I0503 00:47:01.838645 16387 net.cpp:435] ip3 <- ip2
I0503 00:47:01.838651 16387 net.cpp:409] ip3 -> ip3
I0503 00:47:01.838769 16387 net.cpp:144] Setting up ip3
I0503 00:47:01.838778 16387 net.cpp:151] Top shape: 20 1 (20)
I0503 00:47:01.838780 16387 net.cpp:159] Memory required for data: 34104800
I0503 00:47:01.838785 16387 layer_factory.hpp:77] Creating layer loss
I0503 00:47:01.838794 16387 net.cpp:94] Creating Layer loss
I0503 00:47:01.838798 16387 net.cpp:435] loss <- ip3
I0503 00:47:01.838801 16387 net.cpp:435] loss <- label
I0503 00:47:01.838805 16387 net.cpp:409] loss -> loss
I0503 00:47:01.838856 16387 net.cpp:144] Setting up loss
…
I0503 00:47:02.219625 16387 net.cpp:323] The NetState phase (0) differed from the phase (1) specified by a rule in layer intercept
I0503 00:47:02.219641 16387 net.cpp:323] The NetState phase (0) differed from the phase (1) specified by a rule in layer accuracy
I0503 00:47:02.219733 16387 net.cpp:52] Initializing net from parameters: 
state {
  phase: TRAIN
}
layer {
  name: "parameters"
  type: "HDF5Data"
  top: "data"
  top: "label"
  include {
    phase: TRAIN
  }
  hdf5_data_param {
    source: "/home/purduethu/scratch/radon/d/deng106/CNNStatisticalModel/distributions/input/20_distributions_900_sample_size_train-distributions-path.txt"
    batch_size: 20
  }
}
layer {
  name: "conv1"
  type: "Convolution"
  bottom: "data"
  top: "conv1"
  param {
    lr_mult: 1
  }
  param {
    lr_mult: 2
  }
  convolution_param {
    num_output: 64
    pad: 2
    kernel_size: 5
    stride: 1
    weight_filler {
      type: "gaussian"
      std: 0.0001
    }
    bias_filler {
      type: "constant"
    }
  }
}
layer {
  name: "relu1"
  type: "ReLU"
  bottom: "conv1"
  top: "conv1"
}
layer {
  name: "conv2"
  type: "Convolution"
  bottom: "conv1"
  top: "conv2"
  param {
    lr_mult: 1
  }
  param {
    lr_mult: 2
  }
  convolution_param {
    num_output: 64
    pad: 2
    kernel_size: 5
    stride: 1
    weight_filler {
      type: "gaussian"
      std: 0.01
    }
    bias_filler {
      type: "constant"
    }
  }
}
layer {
  name: "relu2"
  type: "ReLU"
  bottom: "conv2"
  top: "conv2"
}
layer {
  name: "pool2"
  type: "Pooling"
  bottom: "conv2"
  top: "pool2"
  pooling_param {
    pool: MAX
    kernel_size: 3
    stride: 2
  }
}
layer {
  name: "conv3"
  type: "Convolution"
  bottom: "pool2"
  top: "conv3"
  param {
    lr_mult: 1
  }
  param {
    lr_mult: 2
  }
  convolution_param {
    num_output: 128
    pad: 2
    kernel_size: 5
    stride: 1
    weight_filler {
      type: "gaussian"
      std: 0.01
    }
    bias_filler {
      type: "constant"
    }
  }
}
layer {
  name: "relu3"
  type: "ReLU"
  bottom: "conv3"
  top: "conv3"
}
layer {
  name: "conv4"
  type: "Convolution"
  bottom: "conv3"
  top: "conv4"
  param {
    lr_mult: 1
  }
  param {
    lr_mult: 2
  }
  convolution_param {
    num_output: 128
    pad: 2
    kernel_size: 5
    stride: 1
    weight_filler {
      type: "gaussian"
      std: 0.01
    }
    bias_filler {
      type: "constant"
    }
  }
}
layer {
  name: "relu4"
  type: "ReLU"
  bottom: "conv4"
  top: "conv4"
}
layer {
  name: "conv5"
  type: "Convolution"
  bottom: "conv4"
  top: "conv5"
  param {
    lr_mult: 1
  }
  param {
    lr_mult: 2
  }
  convolution_param {
    num_output: 128
    pad: 2
    kernel_size: 5
    stride: 1
    weight_filler {
      type: "gaussian"
      std: 0.01
    }
    bias_filler {
      type: "constant"
    }
  }
}
layer {
  name: "relu5"
  type: "ReLU"
  bottom: "conv5"
  top: "conv5"
}
layer {
  name: "pool5"
  type: "Pooling"
  bottom: "conv5"
  top: "pool5"
  pooling_param {
    pool: AVE
    kernel_size: 3
    stride: 2
  }
}
layer {
  name: "ip1"
  type: "InnerProduct"
  bottom: "pool5"
  top: "ip1"
  param {
    lr_mult: 1
  }
  param {
    lr_mult: 2
  }
  inner_product_param {
    num_output: 1024
    weight_filler {
      type: "gaussian"
      std: 0.1
    }
    bias_filler {
      type: "constant"
    }
  }
}
layer {
  name: "ip2"
  type: "InnerProduct"
  bottom: "ip1"
  top: "ip2"
  param {
    lr_mult: 1
  }
  param {
    lr_mult: 2
  }
  inner_product_param {
    num_output: 512
    weight_filler {
      type: "gaussian"
      std: 0.1
    }
    bias_filler {
      type: "constant"
    }
  }
}
layer {
  name: "ip3"
  type: "InnerProduct"
  bottom: "ip2"
  top: "ip3"
  param {
    lr_mult: 1
  }
  param {
    lr_mult: 2
  }
  inner_product_param {
    num_output: 50
    weight_filler {
      type: "gaussian"
      std: 0.1
    }
    bias_filler {
      type: "constant"
    }
  }
}
layer {
  name: "loss"
  type: "SoftmaxWithLoss"
  bottom: "ip3"
  bottom: "label"
  top: "loss"
}
I0503 00:47:02.219786 16387 layer_factory.hpp:77] Creating layer parameters
I0503 00:47:02.219795 16387 net.cpp:94] Creating Layer parameters
I0503 00:47:02.219799 16387 net.cpp:409] parameters -> data
I0503 00:47:02.219805 16387 net.cpp:409] parameters -> label
I0503 00:47:02.219812 16387 hdf5_data_layer.cpp:79] Loading list of HDF5 filenames from: /home/purduethu/scratch/radon/d/deng106/CNNStatisticalModel/distributions/input/20_distributions_900_sample_size_train-distributions-path.txt
I0503 00:47:02.219828 16387 hdf5_data_layer.cpp:93] Number of HDF5 files: 1
I0503 00:47:02.809806 16387 hdf5.cpp:35] Datatype class: H5T_INTEGER
I0503 00:47:02.810839 16387 net.cpp:144] Setting up parameters
I0503 00:47:02.810856 16387 net.cpp:151] Top shape: 20 1 30 30 (18000)
I0503 00:47:02.810861 16387 net.cpp:151] Top shape: 20 (20)
I0503 00:47:02.810864 16387 net.cpp:159] Memory required for data: 72080
I0503 00:47:02.810895 16387 layer_factory.hpp:77] Creating layer conv1
I0503 00:47:02.810925 16387 net.cpp:94] Creating Layer conv1
I0503 00:47:02.810928 16387 net.cpp:435] conv1 <- data
I0503 00:47:02.810935 16387 net.cpp:409] conv1 -> conv1
I0503 00:47:02.815721 16387 net.cpp:144] Setting up conv1
I0503 00:47:02.815740 16387 net.cpp:151] Top shape: 20 64 30 30 (1152000)
I0503 00:47:02.815744 16387 net.cpp:159] Memory required for data: 4680080
I0503 00:47:02.815755 16387 layer_factory.hpp:77] Creating layer relu1
I0503 00:47:02.815764 16387 net.cpp:94] Creating Layer relu1
I0503 00:47:02.815768 16387 net.cpp:435] relu1 <- conv1
I0503 00:47:02.815773 16387 net.cpp:396] relu1 -> conv1 (in-place)
I0503 00:47:02.815780 16387 net.cpp:144] Setting up relu1
I0503 00:47:02.815785 16387 net.cpp:151] Top shape: 20 64 30 30 (1152000)
I0503 00:47:02.815788 16387 net.cpp:159] Memory required for data: 9288080
I0503 00:47:02.815790 16387 layer_factory.hpp:77] Creating layer conv2
I0503 00:47:02.815799 16387 net.cpp:94] Creating Layer conv2
I0503 00:47:02.815803 16387 net.cpp:435] conv2 <- conv1
I0503 00:47:02.815807 16387 net.cpp:409] conv2 -> conv2
I0503 00:47:02.831961 16387 net.cpp:144] Setting up conv2
I0503 00:47:02.831977 16387 net.cpp:151] Top shape: 20 64 30 30 (1152000)
I0503 00:47:02.831981 16387 net.cpp:159] Memory required for data: 13896080
I0503 00:47:02.831990 16387 layer_factory.hpp:77] Creating layer relu2
I0503 00:47:02.831997 16387 net.cpp:94] Creating Layer relu2
I0503 00:47:02.832000 16387 net.cpp:435] relu2 <- conv2
I0503 00:47:02.832005 16387 net.cpp:396] relu2 -> conv2 (in-place)
I0503 00:47:02.832012 16387 net.cpp:144] Setting up relu2
I0503 00:47:02.832017 16387 net.cpp:151] Top shape: 20 64 30 30 (1152000)
I0503 00:47:02.832020 16387 net.cpp:159] Memory required for data: 18504080
I0503 00:47:02.832022 16387 layer_factory.hpp:77] Creating layer pool2
I0503 00:47:02.832028 16387 net.cpp:94] Creating Layer pool2
I0503 00:47:02.832031 16387 net.cpp:435] pool2 <- conv2
I0503 00:47:02.832036 16387 net.cpp:409] pool2 -> pool2
I0503 00:47:02.832088 16387 net.cpp:144] Setting up pool2
I0503 00:47:02.832096 16387 net.cpp:151] Top shape: 20 64 15 15 (288000)
I0503 00:47:02.832099 16387 net.cpp:159] Memory required for data: 19656080
I0503 00:47:02.832103 16387 layer_factory.hpp:77] Creating layer conv3
I0503 00:47:02.832110 16387 net.cpp:94] Creating Layer conv3
I0503 00:47:02.832120 16387 net.cpp:435] conv3 <- pool2
I0503 00:47:02.832125 16387 net.cpp:409] conv3 -> conv3
I0503 00:47:02.845803 16387 net.cpp:144] Setting up conv3
I0503 00:47:02.845819 16387 net.cpp:151] Top shape: 20 128 15 15 (576000)
I0503 00:47:02.845824 16387 net.cpp:159] Memory required for data: 21960080
I0503 00:47:02.845832 16387 layer_factory.hpp:77] Creating layer relu3
I0503 00:47:02.845839 16387 net.cpp:94] Creating Layer relu3
I0503 00:47:02.845841 16387 net.cpp:435] relu3 <- conv3
I0503 00:47:02.845846 16387 net.cpp:396] relu3 -> conv3 (in-place)
I0503 00:47:02.845854 16387 net.cpp:144] Setting up relu3
I0503 00:47:02.845859 16387 net.cpp:151] Top shape: 20 128 15 15 (576000)
I0503 00:47:02.845861 16387 net.cpp:159] Memory required for data: 24264080
I0503 00:47:02.845865 16387 layer_factory.hpp:77] Creating layer conv4
I0503 00:47:02.845872 16387 net.cpp:94] Creating Layer conv4
I0503 00:47:02.845875 16387 net.cpp:435] conv4 <- conv3
I0503 00:47:02.845880 16387 net.cpp:409] conv4 -> conv4
I0503 00:47:02.869371 16387 net.cpp:144] Setting up conv4
I0503 00:47:02.869415 16387 net.cpp:151] Top shape: 20 128 15 15 (576000)
I0503 00:47:02.869424 16387 net.cpp:159] Memory required for data: 26568080
I0503 00:47:02.869443 16387 layer_factory.hpp:77] Creating layer relu4
I0503 00:47:02.869459 16387 net.cpp:94] Creating Layer relu4
I0503 00:47:02.869470 16387 net.cpp:435] relu4 <- conv4
I0503 00:47:02.869483 16387 net.cpp:396] relu4 -> conv4 (in-place)
I0503 00:47:02.869503 16387 net.cpp:144] Setting up relu4
I0503 00:47:02.869516 16387 net.cpp:151] Top shape: 20 128 15 15 (576000)
I0503 00:47:02.869524 16387 net.cpp:159] Memory required for data: 28872080
I0503 00:47:02.869532 16387 layer_factory.hpp:77] Creating layer conv5
I0503 00:47:02.869563 16387 net.cpp:94] Creating Layer conv5
I0503 00:47:02.869566 16387 net.cpp:435] conv5 <- conv4
I0503 00:47:02.869571 16387 net.cpp:409] conv5 -> conv5
I0503 00:47:02.892374 16387 net.cpp:144] Setting up conv5
I0503 00:47:02.892417 16387 net.cpp:151] Top shape: 20 128 15 15 (576000)
I0503 00:47:02.892428 16387 net.cpp:159] Memory required for data: 31176080
I0503 00:47:02.892453 16387 layer_factory.hpp:77] Creating layer relu5
I0503 00:47:02.892470 16387 net.cpp:94] Creating Layer relu5
I0503 00:47:02.892480 16387 net.cpp:435] relu5 <- conv5
I0503 00:47:02.892493 16387 net.cpp:396] relu5 -> conv5 (in-place)
I0503 00:47:02.892513 16387 net.cpp:144] Setting up relu5
I0503 00:47:02.892525 16387 net.cpp:151] Top shape: 20 128 15 15 (576000)
I0503 00:47:02.892534 16387 net.cpp:159] Memory required for data: 33480080
I0503 00:47:02.892541 16387 layer_factory.hpp:77] Creating layer pool5
I0503 00:47:02.892573 16387 net.cpp:94] Creating Layer pool5
I0503 00:47:02.892578 16387 net.cpp:435] pool5 <- conv5
I0503 00:47:02.892582 16387 net.cpp:409] pool5 -> pool5
I0503 00:47:02.892624 16387 net.cpp:144] Setting up pool5
I0503 00:47:02.892632 16387 net.cpp:151] Top shape: 20 128 7 7 (125440)
I0503 00:47:02.892635 16387 net.cpp:159] Memory required for data: 33981840
I0503 00:47:02.892638 16387 layer_factory.hpp:77] Creating layer ip1
I0503 00:47:02.892645 16387 net.cpp:94] Creating Layer ip1
I0503 00:47:02.892648 16387 net.cpp:435] ip1 <- pool5
I0503 00:47:02.892653 16387 net.cpp:409] ip1 -> ip1
I0503 00:47:03.049494 16387 net.cpp:144] Setting up ip1
I0503 00:47:03.049528 16387 net.cpp:151] Top shape: 20 1024 (20480)
I0503 00:47:03.049532 16387 net.cpp:159] Memory required for data: 34063760
I0503 00:47:03.049541 16387 layer_factory.hpp:77] Creating layer ip2
I0503 00:47:03.049552 16387 net.cpp:94] Creating Layer ip2
I0503 00:47:03.049556 16387 net.cpp:435] ip2 <- ip1
I0503 00:47:03.049562 16387 net.cpp:409] ip2 -> ip2
I0503 00:47:03.062923 16387 net.cpp:144] Setting up ip2
I0503 00:47:03.062943 16387 net.cpp:151] Top shape: 20 512 (10240)
I0503 00:47:03.062947 16387 net.cpp:159] Memory required for data: 34104720
I0503 00:47:03.062954 16387 layer_factory.hpp:77] Creating layer ip3
I0503 00:47:03.062963 16387 net.cpp:94] Creating Layer ip3
I0503 00:47:03.062968 16387 net.cpp:435] ip3 <- ip2
I0503 00:47:03.062980 16387 net.cpp:409] ip3 -> ip3
I0503 00:47:03.063727 16387 net.cpp:144] Setting up ip3
I0503 00:47:03.063736 16387 net.cpp:151] Top shape: 20 50 (1000)
I0503 00:47:03.063740 16387 net.cpp:159] Memory required for data: 34108720
I0503 00:47:03.063745 16387 layer_factory.hpp:77] Creating layer loss
I0503 00:47:03.063753 16387 net.cpp:94] Creating Layer loss
I0503 00:47:03.063756 16387 net.cpp:435] loss <- ip3
I0503 00:47:03.063760 16387 net.cpp:435] loss <- label
I0503 00:47:03.063766 16387 net.cpp:409] loss -> loss
I0503 00:47:03.063772 16387 layer_factory.hpp:77] Creating layer loss
…
I0503 00:47:03.064291 16387 solver.cpp:181] Creating test net (#0) specified by net file: ./protocol/dis_20_900_dimension.protocol_distribution
I0503 00:47:03.064318 16387 net.cpp:323] The NetState phase (1) differed from the phase (0) specified by a rule in layer parameters
I0503 00:47:03.064411 16387 net.cpp:52] Initializing net from parameters: 
state {
  phase: TEST
}
layer {
  name: "intercept"
  type: "HDF5Data"
  top: "data"
  top: "label"
  include {
    phase: TEST
  }
  hdf5_data_param {
    source: "/home/purduethu/scratch/radon/d/deng106/CNNStatisticalModel/distributions/input/20_distributions_900_sample_size_test-distributions-path.txt"
    batch_size: 20
  }
}
layer {
  name: "conv1"
  type: "Convolution"
  bottom: "data"
  top: "conv1"
  param {
    lr_mult: 1
  }
  param {
    lr_mult: 2
  }
  convolution_param {
    num_output: 64
    pad: 2
    kernel_size: 5
    stride: 1
    weight_filler {
      type: "gaussian"
      std: 0.0001
    }
    bias_filler {
      type: "constant"
    }
  }
}
layer {
  name: "relu1"
  type: "ReLU"
  bottom: "conv1"
  top: "conv1"
}
layer {
  name: "conv2"
  type: "Convolution"
  bottom: "conv1"
  top: "conv2"
  param {
    lr_mult: 1
  }
  param {
    lr_mult: 2
  }
  convolution_param {
    num_output: 64
    pad: 2
    kernel_size: 5
    stride: 1
    weight_filler {
      type: "gaussian"
      std: 0.01
    }
    bias_filler {
      type: "constant"
    }
  }
}
layer {
  name: "relu2"
  type: "ReLU"
  bottom: "conv2"
  top: "conv2"
}
layer {
  name: "pool2"
  type: "Pooling"
  bottom: "conv2"
  top: "pool2"
  pooling_param {
    pool: MAX
    kernel_size: 3
    stride: 2
  }
}
layer {
  name: "conv3"
  type: "Convolution"
  bottom: "pool2"
  top: "conv3"
  param {
    lr_mult: 1
  }
  param {
    lr_mult: 2
  }
  convolution_param {
    num_output: 128
    pad: 2
    kernel_size: 5
    stride: 1
    weight_filler {
      type: "gaussian"
      std: 0.01
    }
    bias_filler {
      type: "constant"
    }
  }
}
layer {
  name: "relu3"
  type: "ReLU"
  bottom: "conv3"
  top: "conv3"
}
layer {
  name: "conv4"
  type: "Convolution"
  bottom: "conv3"
  top: "conv4"
  param {
    lr_mult: 1
  }
  param {
    lr_mult: 2
  }
  convolution_param {
    num_output: 128
    pad: 2
    kernel_size: 5
    stride: 1
    weight_filler {
      type: "gaussian"
      std: 0.01
    }
    bias_filler {
      type: "constant"
    }
  }
}
layer {
  name: "relu4"
  type: "ReLU"
  bottom: "conv4"
  top: "conv4"
}
layer {
  name: "conv5"
  type: "Convolution"
  bottom: "conv4"
  top: "conv5"
  param {
    lr_mult: 1
  }
  param {
    lr_mult: 2
  }
  convolution_param {
    num_output: 128
    pad: 2
    kernel_size: 5
    stride: 1
    weight_filler {
      type: "gaussian"
      std: 0.01
    }
    bias_filler {
      type: "constant"
    }
  }
}
layer {
  name: "relu5"
  type: "ReLU"
  bottom: "conv5"
  top: "conv5"
}
layer {
  name: "pool5"
  type: "Pooling"
  bottom: "conv5"
  top: "pool5"
  pooling_param {
    pool: AVE
    kernel_size: 3
    stride: 2
  }
}
layer {
  name: "ip1"
  type: "InnerProduct"
  bottom: "pool5"
  top: "ip1"
  param {
    lr_mult: 1
  }
  param {
    lr_mult: 2
  }
  inner_product_param {
    num_output: 1024
    weight_filler {
      type: "gaussian"
      std: 0.1
    }
    bias_filler {
      type: "constant"
    }
  }
}
layer {
  name: "ip2"
  type: "InnerProduct"
  bottom: "ip1"
  top: "ip2"
  param {
    lr_mult: 1
  }
  param {
    lr_mult: 2
  }
  inner_product_param {
    num_output: 512
    weight_filler {
      type: "gaussian"
      std: 0.1
    }
    bias_filler {
      type: "constant"
    }
  }
}
layer {
  name: "ip3"
  type: "InnerProduct"
  bottom: "ip2"
  top: "ip3"
  param {
    lr_mult: 1
  }
  param {
    lr_mult: 2
  }
  inner_product_param {
    num_output: 50
    weight_filler {
      type: "gaussian"
      std: 0.1
    }
    bias_filler {
      type: "constant"
    }
  }
}
layer {
  name: "accuracy"
  type: "Accuracy"
  bottom: "ip3"
  bottom: "label"
  top: "accuracy"
  include {
    phase: TEST
  }
}
layer {
  name: "loss"
  type: "SoftmaxWithLoss"
  bottom: "ip3"
  bottom: "label"
  top: "loss"
}
I0503 00:47:03.064497 16387 layer_factory.hpp:77] Creating layer intercept
I0503 00:47:03.064507 16387 net.cpp:94] Creating Layer intercept
I0503 00:47:03.064510 16387 net.cpp:409] intercept -> data
I0503 00:47:03.064517 16387 net.cpp:409] intercept -> label
I0503 00:47:03.064523 16387 hdf5_data_layer.cpp:79] Loading list of HDF5 filenames from: /home/purduethu/scratch/radon/d/deng106/CNNStatisticalModel/distributions/input/20_distributions_900_sample_size_test-distributions-path.txt
I0503 00:47:03.064544 16387 hdf5_data_layer.cpp:93] Number of HDF5 files: 1
I0503 00:47:03.212138 16387 net.cpp:144] Setting up intercept
I0503 00:47:03.212172 16387 net.cpp:151] Top shape: 20 1 30 30 (18000)
I0503 00:47:03.212177 16387 net.cpp:151] Top shape: 20 (20)
I0503 00:47:03.212180 16387 net.cpp:159] Memory required for data: 72080
I0503 00:47:03.212186 16387 layer_factory.hpp:77] Creating layer label_intercept_1_split
I0503 00:47:03.212204 16387 net.cpp:94] Creating Layer label_intercept_1_split
I0503 00:47:03.212208 16387 net.cpp:435] label_intercept_1_split <- label
I0503 00:47:03.212214 16387 net.cpp:409] label_intercept_1_split -> label_intercept_1_split_0
I0503 00:47:03.212224 16387 net.cpp:409] label_intercept_1_split -> label_intercept_1_split_1
I0503 00:47:03.212265 16387 net.cpp:144] Setting up label_intercept_1_split
I0503 00:47:03.212271 16387 net.cpp:151] Top shape: 20 (20)
I0503 00:47:03.212275 16387 net.cpp:151] Top shape: 20 (20)
I0503 00:47:03.212278 16387 net.cpp:159] Memory required for data: 72240
I0503 00:47:03.212281 16387 layer_factory.hpp:77] Creating layer conv1
I0503 00:47:03.212291 16387 net.cpp:94] Creating Layer conv1
I0503 00:47:03.212294 16387 net.cpp:435] conv1 <- data
I0503 00:47:03.212299 16387 net.cpp:409] conv1 -> conv1
I0503 00:47:03.213887 16387 net.cpp:144] Setting up conv1
I0503 00:47:03.213901 16387 net.cpp:151] Top shape: 20 64 30 30 (1152000)
I0503 00:47:03.213906 16387 net.cpp:159] Memory required for data: 4680240
I0503 00:47:03.213915 16387 layer_factory.hpp:77] Creating layer relu1
I0503 00:47:03.213922 16387 net.cpp:94] Creating Layer relu1
I0503 00:47:03.213925 16387 net.cpp:435] relu1 <- conv1
I0503 00:47:03.213930 16387 net.cpp:396] relu1 -> conv1 (in-place)
I0503 00:47:03.213937 16387 net.cpp:144] Setting up relu1
I0503 00:47:03.213943 16387 net.cpp:151] Top shape: 20 64 30 30 (1152000)
I0503 00:47:03.213945 16387 net.cpp:159] Memory required for data: 9288240
I0503 00:47:03.213948 16387 layer_factory.hpp:77] Creating layer conv2
I0503 00:47:03.213955 16387 net.cpp:94] Creating Layer conv2
I0503 00:47:03.213959 16387 net.cpp:435] conv2 <- conv1
I0503 00:47:03.213963 16387 net.cpp:409] conv2 -> conv2
I0503 00:47:03.220799 16387 net.cpp:144] Setting up conv2
I0503 00:47:03.220837 16387 net.cpp:151] Top shape: 20 64 30 30 (1152000)
I0503 00:47:03.220849 16387 net.cpp:159] Memory required for data: 13896240
I0503 00:47:03.220870 16387 layer_factory.hpp:77] Creating layer relu2
I0503 00:47:03.220885 16387 net.cpp:94] Creating Layer relu2
I0503 00:47:03.220896 16387 net.cpp:435] relu2 <- conv2
I0503 00:47:03.220908 16387 net.cpp:396] relu2 -> conv2 (in-place)
I0503 00:47:03.220927 16387 net.cpp:144] Setting up relu2
I0503 00:47:03.220940 16387 net.cpp:151] Top shape: 20 64 30 30 (1152000)
I0503 00:47:03.220948 16387 net.cpp:159] Memory required for data: 18504240
I0503 00:47:03.220957 16387 layer_factory.hpp:77] Creating layer pool2
I0503 00:47:03.220970 16387 net.cpp:94] Creating Layer pool2
I0503 00:47:03.220979 16387 net.cpp:435] pool2 <- conv2
I0503 00:47:03.220991 16387 net.cpp:409] pool2 -> pool2
I0503 00:47:03.221107 16387 net.cpp:144] Setting up pool2
I0503 00:47:03.221114 16387 net.cpp:151] Top shape: 20 64 15 15 (288000)
I0503 00:47:03.221117 16387 net.cpp:159] Memory required for data: 19656240
I0503 00:47:03.221122 16387 layer_factory.hpp:77] Creating layer conv3
I0503 00:47:03.221128 16387 net.cpp:94] Creating Layer conv3
I0503 00:47:03.221132 16387 net.cpp:435] conv3 <- pool2
I0503 00:47:03.221137 16387 net.cpp:409] conv3 -> conv3
I0503 00:47:03.228922 16387 net.cpp:144] Setting up conv3
I0503 00:47:03.228935 16387 net.cpp:151] Top shape: 20 128 15 15 (576000)
I0503 00:47:03.228940 16387 net.cpp:159] Memory required for data: 21960240
I0503 00:47:03.228947 16387 layer_factory.hpp:77] Creating layer relu3
I0503 00:47:03.228955 16387 net.cpp:94] Creating Layer relu3
I0503 00:47:03.228957 16387 net.cpp:435] relu3 <- conv3
I0503 00:47:03.228962 16387 net.cpp:396] relu3 -> conv3 (in-place)
I0503 00:47:03.228968 16387 net.cpp:144] Setting up relu3
I0503 00:47:03.228973 16387 net.cpp:151] Top shape: 20 128 15 15 (576000)
I0503 00:47:03.228976 16387 net.cpp:159] Memory required for data: 24264240
I0503 00:47:03.228979 16387 layer_factory.hpp:77] Creating layer conv4
I0503 00:47:03.228986 16387 net.cpp:94] Creating Layer conv4
I0503 00:47:03.228989 16387 net.cpp:435] conv4 <- conv3
I0503 00:47:03.228994 16387 net.cpp:409] conv4 -> conv4
I0503 00:47:03.245026 16387 net.cpp:144] Setting up conv4
I0503 00:47:03.245045 16387 net.cpp:151] Top shape: 20 128 15 15 (576000)
I0503 00:47:03.245049 16387 net.cpp:159] Memory required for data: 26568240
I0503 00:47:03.245056 16387 layer_factory.hpp:77] Creating layer relu4
I0503 00:47:03.245064 16387 net.cpp:94] Creating Layer relu4
I0503 00:47:03.245066 16387 net.cpp:435] relu4 <- conv4
I0503 00:47:03.245071 16387 net.cpp:396] relu4 -> conv4 (in-place)
I0503 00:47:03.245079 16387 net.cpp:144] Setting up relu4
I0503 00:47:03.245084 16387 net.cpp:151] Top shape: 20 128 15 15 (576000)
I0503 00:47:03.245085 16387 net.cpp:159] Memory required for data: 28872240
I0503 00:47:03.245090 16387 layer_factory.hpp:77] Creating layer conv5
I0503 00:47:03.245097 16387 net.cpp:94] Creating Layer conv5
I0503 00:47:03.245100 16387 net.cpp:435] conv5 <- conv4
I0503 00:47:03.245111 16387 net.cpp:409] conv5 -> conv5
I0503 00:47:03.260926 16387 net.cpp:144] Setting up conv5
I0503 00:47:03.260943 16387 net.cpp:151] Top shape: 20 128 15 15 (576000)
I0503 00:47:03.260947 16387 net.cpp:159] Memory required for data: 31176240
I0503 00:47:03.260957 16387 layer_factory.hpp:77] Creating layer relu5
I0503 00:47:03.260963 16387 net.cpp:94] Creating Layer relu5
I0503 00:47:03.260967 16387 net.cpp:435] relu5 <- conv5
I0503 00:47:03.260972 16387 net.cpp:396] relu5 -> conv5 (in-place)
I0503 00:47:03.260978 16387 net.cpp:144] Setting up relu5
I0503 00:47:03.260982 16387 net.cpp:151] Top shape: 20 128 15 15 (576000)
I0503 00:47:03.260985 16387 net.cpp:159] Memory required for data: 33480240
I0503 00:47:03.260988 16387 layer_factory.hpp:77] Creating layer pool5
I0503 00:47:03.260994 16387 net.cpp:94] Creating Layer pool5
I0503 00:47:03.260998 16387 net.cpp:435] pool5 <- conv5
I0503 00:47:03.261001 16387 net.cpp:409] pool5 -> pool5
I0503 00:47:03.261041 16387 net.cpp:144] Setting up pool5
I0503 00:47:03.261049 16387 net.cpp:151] Top shape: 20 128 7 7 (125440)
I0503 00:47:03.261052 16387 net.cpp:159] Memory required for data: 33982000
I0503 00:47:03.261055 16387 layer_factory.hpp:77] Creating layer ip1
I0503 00:47:03.261062 16387 net.cpp:94] Creating Layer ip1
I0503 00:47:03.261065 16387 net.cpp:435] ip1 <- pool5
I0503 00:47:03.261070 16387 net.cpp:409] ip1 -> ip1
I0503 00:47:03.417364 16387 net.cpp:144] Setting up ip1
I0503 00:47:03.417397 16387 net.cpp:151] Top shape: 20 1024 (20480)
I0503 00:47:03.417402 16387 net.cpp:159] Memory required for data: 34063920
I0503 00:47:03.417410 16387 layer_factory.hpp:77] Creating layer ip2
I0503 00:47:03.417421 16387 net.cpp:94] Creating Layer ip2
I0503 00:47:03.417426 16387 net.cpp:435] ip2 <- ip1
I0503 00:47:03.417433 16387 net.cpp:409] ip2 -> ip2
I0503 00:47:03.430718 16387 net.cpp:144] Setting up ip2
I0503 00:47:03.430737 16387 net.cpp:151] Top shape: 20 512 (10240)
I0503 00:47:03.430740 16387 net.cpp:159] Memory required for data: 34104880
I0503 00:47:03.430747 16387 layer_factory.hpp:77] Creating layer ip3
I0503 00:47:03.430755 16387 net.cpp:94] Creating Layer ip3
I0503 00:47:03.430759 16387 net.cpp:435] ip3 <- ip2
I0503 00:47:03.430765 16387 net.cpp:409] ip3 -> ip3
I0503 00:47:03.431519 16387 net.cpp:144] Setting up ip3
I0503 00:47:03.431526 16387 net.cpp:151] Top shape: 20 50 (1000)
I0503 00:47:03.431529 16387 net.cpp:159] Memory required for data: 34108880
I0503 00:47:03.431535 16387 layer_factory.hpp:77] Creating layer ip3_ip3_0_split
I0503 00:47:03.431541 16387 net.cpp:94] Creating Layer ip3_ip3_0_split
I0503 00:47:03.431545 16387 net.cpp:435] ip3_ip3_0_split <- ip3
I0503 00:47:03.431550 16387 net.cpp:409] ip3_ip3_0_split -> ip3_ip3_0_split_0
I0503 00:47:03.431555 16387 net.cpp:409] ip3_ip3_0_split -> ip3_ip3_0_split_1
I0503 00:47:03.431597 16387 net.cpp:144] Setting up ip3_ip3_0_split
I0503 00:47:03.431604 16387 net.cpp:151] Top shape: 20 50 (1000)
I0503 00:47:03.431607 16387 net.cpp:151] Top shape: 20 50 (1000)
I0503 00:47:03.431610 16387 net.cpp:159] Memory required for data: 34116880
I0503 00:47:03.431613 16387 layer_factory.hpp:77] Creating layer accuracy
I0503 00:47:03.431620 16387 net.cpp:94] Creating Layer accuracy
I0503 00:47:03.431623 16387 net.cpp:435] accuracy <- ip3_ip3_0_split_0
I0503 00:47:03.431627 16387 net.cpp:435] accuracy <- label_intercept_1_split_0
I0503 00:47:03.431632 16387 net.cpp:409] accuracy -> accuracy
…
