…
I0507 16:46:47.847244  4903 net.cpp:323] The NetState phase (0) differed from the phase (1) specified by a rule in layer intercept
I0507 16:46:47.847259  4903 net.cpp:323] The NetState phase (0) differed from the phase (1) specified by a rule in layer loss
I0507 16:46:47.847337  4903 net.cpp:52] Initializing net from parameters: 
state {
  phase: TRAIN
}
layer {
  name: "parameters"
  type: "HDF5Data"
  top: "data"
  top: "label"
  include {
    phase: TRAIN
  }
  hdf5_data_param {
    source: "/home/purduethu/scratch/radon/d/deng106/CNNStatisticalModel/distributions/input/20_distributions_400_sample_size_train-parameters-path.txt"
    batch_size: 20
  }
}
layer {
  name: "conv1"
  type: "Convolution"
  bottom: "data"
  top: "conv1"
  param {
    lr_mult: 1
  }
  param {
    lr_mult: 2
  }
  convolution_param {
    num_output: 64
    pad: 2
    kernel_size: 5
    stride: 1
    weight_filler {
      type: "gaussian"
      std: 0.0001
    }
    bias_filler {
      type: "constant"
    }
  }
}
layer {
  name: "relu1"
  type: "ReLU"
  bottom: "conv1"
  top: "conv1"
}
layer {
  name: "conv2"
  type: "Convolution"
  bottom: "conv1"
  top: "conv2"
  param {
    lr_mult: 1
  }
  param {
    lr_mult: 2
  }
  convolution_param {
    num_output: 64
    pad: 2
    kernel_size: 5
    stride: 1
    weight_filler {
      type: "gaussian"
      std: 0.01
    }
    bias_filler {
      type: "constant"
    }
  }
}
layer {
  name: "relu2"
  type: "ReLU"
  bottom: "conv2"
  top: "conv2"
}
layer {
  name: "pool2"
  type: "Pooling"
  bottom: "conv2"
  top: "pool2"
  pooling_param {
    pool: MAX
    kernel_size: 3
    stride: 2
  }
}
layer {
  name: "conv3"
  type: "Convolution"
  bottom: "pool2"
  top: "conv3"
  param {
    lr_mult: 1
  }
  param {
    lr_mult: 2
  }
  convolution_param {
    num_output: 64
    pad: 2
    kernel_size: 5
    stride: 1
    weight_filler {
      type: "gaussian"
      std: 0.01
    }
    bias_filler {
      type: "constant"
    }
  }
}
layer {
  name: "relu3"
  type: "ReLU"
  bottom: "conv3"
  top: "conv3"
}
layer {
  name: "conv4"
  type: "Convolution"
  bottom: "conv3"
  top: "conv4"
  param {
    lr_mult: 1
  }
  param {
    lr_mult: 2
  }
  convolution_param {
    num_output: 64
    pad: 2
    kernel_size: 5
    stride: 1
    weight_filler {
      type: "gaussian"
      std: 0.01
    }
    bias_filler {
      type: "constant"
    }
  }
}
layer {
  name: "relu4"
  type: "ReLU"
  bottom: "conv4"
  top: "conv4"
}
layer {
  name: "conv5"
  type: "Convolution"
  bottom: "conv4"
  top: "conv5"
  param {
    lr_mult: 1
  }
  param {
    lr_mult: 2
  }
  convolution_param {
    num_output: 64
    pad: 2
    kernel_size: 5
    stride: 1
    weight_filler {
      type: "gaussian"
      std: 0.01
    }
    bias_filler {
      type: "constant"
    }
  }
}
layer {
  name: "relu5"
  type: "ReLU"
  bottom: "conv5"
  top: "conv5"
}
layer {
  name: "pool5"
  type: "Pooling"
  bottom: "conv5"
  top: "pool5"
  pooling_param {
    pool: AVE
    kernel_size: 3
    stride: 2
  }
}
layer {
  name: "ip1"
  type: "InnerProduct"
  bottom: "pool5"
  top: "ip1"
  param {
    lr_mult: 1
  }
  param {
    lr_mult: 2
  }
  inner_product_param {
    num_output: 64
    weight_filler {
      type: "gaussian"
      std: 0.1
    }
    bias_filler {
      type: "constant"
    }
  }
}
layer {
  name: "ip2"
  type: "InnerProduct"
  bottom: "ip1"
  top: "ip2"
  param {
    lr_mult: 1
  }
  param {
    lr_mult: 2
  }
  inner_product_param {
    num_output: 64
    weight_filler {
      type: "gaussian"
      std: 0.1
    }
    bias_filler {
      type: "constant"
    }
  }
}
layer {
  name: "ip3"
  type: "InnerProduct"
  bottom: "ip2"
  top: "ip3"
  param {
    lr_mult: 1
  }
  param {
    lr_mult: 2
  }
  inner_product_param {
    num_output: 1
    weight_filler {
      type: "gaussian"
      std: 0.1
    }
    bias_filler {
      type: "constant"
    }
  }
}
layer {
  name: "loss"
  type: "HuberLoss"
  bottom: "ip3"
  bottom: "label"
  top: "loss"
  include {
    phase: TRAIN
  }
}
I0507 16:46:47.847390  4903 layer_factory.hpp:77] Creating layer parameters
I0507 16:46:47.847404  4903 net.cpp:94] Creating Layer parameters
I0507 16:46:47.847407  4903 net.cpp:409] parameters -> data
I0507 16:46:47.847420  4903 net.cpp:409] parameters -> label
I0507 16:46:47.847427  4903 hdf5_data_layer.cpp:79] Loading list of HDF5 filenames from: /home/purduethu/scratch/radon/d/deng106/CNNStatisticalModel/distributions/input/20_distributions_400_sample_size_train-parameters-path.txt
I0507 16:46:47.847441  4903 hdf5_data_layer.cpp:93] Number of HDF5 files: 1
I0507 16:46:47.847980  4903 hdf5.cpp:32] Datatype class: H5T_FLOAT
I0507 16:46:48.104609  4903 net.cpp:144] Setting up parameters
I0507 16:46:48.104640  4903 net.cpp:151] Top shape: 20 1 20 20 (8000)
I0507 16:46:48.104645  4903 net.cpp:151] Top shape: 20 (20)
I0507 16:46:48.104648  4903 net.cpp:159] Memory required for data: 32080
I0507 16:46:48.104655  4903 layer_factory.hpp:77] Creating layer conv1
I0507 16:46:48.104671  4903 net.cpp:94] Creating Layer conv1
I0507 16:46:48.104674  4903 net.cpp:435] conv1 <- data
I0507 16:46:48.104681  4903 net.cpp:409] conv1 -> conv1
I0507 16:46:48.109887  4903 net.cpp:144] Setting up conv1
I0507 16:46:48.109905  4903 net.cpp:151] Top shape: 20 64 20 20 (512000)
I0507 16:46:48.109910  4903 net.cpp:159] Memory required for data: 2080080
I0507 16:46:48.109920  4903 layer_factory.hpp:77] Creating layer relu1
I0507 16:46:48.109930  4903 net.cpp:94] Creating Layer relu1
I0507 16:46:48.109933  4903 net.cpp:435] relu1 <- conv1
I0507 16:46:48.109937  4903 net.cpp:396] relu1 -> conv1 (in-place)
I0507 16:46:48.109946  4903 net.cpp:144] Setting up relu1
I0507 16:46:48.109951  4903 net.cpp:151] Top shape: 20 64 20 20 (512000)
I0507 16:46:48.109954  4903 net.cpp:159] Memory required for data: 4128080
I0507 16:46:48.109957  4903 layer_factory.hpp:77] Creating layer conv2
I0507 16:46:48.109966  4903 net.cpp:94] Creating Layer conv2
I0507 16:46:48.109968  4903 net.cpp:435] conv2 <- conv1
I0507 16:46:48.109973  4903 net.cpp:409] conv2 -> conv2
I0507 16:46:48.119669  4903 net.cpp:144] Setting up conv2
I0507 16:46:48.119705  4903 net.cpp:151] Top shape: 20 64 20 20 (512000)
I0507 16:46:48.119709  4903 net.cpp:159] Memory required for data: 6176080
I0507 16:46:48.119717  4903 layer_factory.hpp:77] Creating layer relu2
I0507 16:46:48.119724  4903 net.cpp:94] Creating Layer relu2
I0507 16:46:48.119727  4903 net.cpp:435] relu2 <- conv2
I0507 16:46:48.119732  4903 net.cpp:396] relu2 -> conv2 (in-place)
I0507 16:46:48.119738  4903 net.cpp:144] Setting up relu2
I0507 16:46:48.119743  4903 net.cpp:151] Top shape: 20 64 20 20 (512000)
I0507 16:46:48.119746  4903 net.cpp:159] Memory required for data: 8224080
I0507 16:46:48.119750  4903 layer_factory.hpp:77] Creating layer pool2
I0507 16:46:48.119761  4903 net.cpp:94] Creating Layer pool2
I0507 16:46:48.119765  4903 net.cpp:435] pool2 <- conv2
I0507 16:46:48.119771  4903 net.cpp:409] pool2 -> pool2
I0507 16:46:48.119822  4903 net.cpp:144] Setting up pool2
I0507 16:46:48.119828  4903 net.cpp:151] Top shape: 20 64 10 10 (128000)
I0507 16:46:48.119832  4903 net.cpp:159] Memory required for data: 8736080
I0507 16:46:48.119834  4903 layer_factory.hpp:77] Creating layer conv3
I0507 16:46:48.119843  4903 net.cpp:94] Creating Layer conv3
I0507 16:46:48.119846  4903 net.cpp:435] conv3 <- pool2
I0507 16:46:48.119851  4903 net.cpp:409] conv3 -> conv3
I0507 16:46:48.124989  4903 net.cpp:144] Setting up conv3
I0507 16:46:48.125002  4903 net.cpp:151] Top shape: 20 64 10 10 (128000)
I0507 16:46:48.125006  4903 net.cpp:159] Memory required for data: 9248080
I0507 16:46:48.125013  4903 layer_factory.hpp:77] Creating layer relu3
I0507 16:46:48.125020  4903 net.cpp:94] Creating Layer relu3
I0507 16:46:48.125023  4903 net.cpp:435] relu3 <- conv3
I0507 16:46:48.125028  4903 net.cpp:396] relu3 -> conv3 (in-place)
I0507 16:46:48.125036  4903 net.cpp:144] Setting up relu3
I0507 16:46:48.125039  4903 net.cpp:151] Top shape: 20 64 10 10 (128000)
I0507 16:46:48.125042  4903 net.cpp:159] Memory required for data: 9760080
I0507 16:46:48.125046  4903 layer_factory.hpp:77] Creating layer conv4
I0507 16:46:48.125054  4903 net.cpp:94] Creating Layer conv4
I0507 16:46:48.125057  4903 net.cpp:435] conv4 <- conv3
I0507 16:46:48.125062  4903 net.cpp:409] conv4 -> conv4
I0507 16:46:48.130225  4903 net.cpp:144] Setting up conv4
I0507 16:46:48.130239  4903 net.cpp:151] Top shape: 20 64 10 10 (128000)
I0507 16:46:48.130242  4903 net.cpp:159] Memory required for data: 10272080
I0507 16:46:48.130249  4903 layer_factory.hpp:77] Creating layer relu4
I0507 16:46:48.130255  4903 net.cpp:94] Creating Layer relu4
I0507 16:46:48.130259  4903 net.cpp:435] relu4 <- conv4
I0507 16:46:48.130264  4903 net.cpp:396] relu4 -> conv4 (in-place)
I0507 16:46:48.130270  4903 net.cpp:144] Setting up relu4
I0507 16:46:48.130275  4903 net.cpp:151] Top shape: 20 64 10 10 (128000)
I0507 16:46:48.130278  4903 net.cpp:159] Memory required for data: 10784080
I0507 16:46:48.130281  4903 layer_factory.hpp:77] Creating layer conv5
I0507 16:46:48.130290  4903 net.cpp:94] Creating Layer conv5
I0507 16:46:48.130292  4903 net.cpp:435] conv5 <- conv4
I0507 16:46:48.130297  4903 net.cpp:409] conv5 -> conv5
I0507 16:46:48.136277  4903 net.cpp:144] Setting up conv5
I0507 16:46:48.136291  4903 net.cpp:151] Top shape: 20 64 10 10 (128000)
I0507 16:46:48.136294  4903 net.cpp:159] Memory required for data: 11296080
I0507 16:46:48.136303  4903 layer_factory.hpp:77] Creating layer relu5
I0507 16:46:48.136309  4903 net.cpp:94] Creating Layer relu5
I0507 16:46:48.136313  4903 net.cpp:435] relu5 <- conv5
I0507 16:46:48.136317  4903 net.cpp:396] relu5 -> conv5 (in-place)
I0507 16:46:48.136324  4903 net.cpp:144] Setting up relu5
I0507 16:46:48.136329  4903 net.cpp:151] Top shape: 20 64 10 10 (128000)
I0507 16:46:48.136332  4903 net.cpp:159] Memory required for data: 11808080
I0507 16:46:48.136335  4903 layer_factory.hpp:77] Creating layer pool5
I0507 16:46:48.136340  4903 net.cpp:94] Creating Layer pool5
I0507 16:46:48.136343  4903 net.cpp:435] pool5 <- conv5
I0507 16:46:48.136348  4903 net.cpp:409] pool5 -> pool5
I0507 16:46:48.136384  4903 net.cpp:144] Setting up pool5
I0507 16:46:48.136391  4903 net.cpp:151] Top shape: 20 64 5 5 (32000)
I0507 16:46:48.136394  4903 net.cpp:159] Memory required for data: 11936080
I0507 16:46:48.136397  4903 layer_factory.hpp:77] Creating layer ip1
I0507 16:46:48.136407  4903 net.cpp:94] Creating Layer ip1
I0507 16:46:48.136411  4903 net.cpp:435] ip1 <- pool5
I0507 16:46:48.136415  4903 net.cpp:409] ip1 -> ip1
I0507 16:46:48.138953  4903 net.cpp:144] Setting up ip1
I0507 16:46:48.138962  4903 net.cpp:151] Top shape: 20 64 (1280)
I0507 16:46:48.138967  4903 net.cpp:159] Memory required for data: 11941200
I0507 16:46:48.138972  4903 layer_factory.hpp:77] Creating layer ip2
I0507 16:46:48.138978  4903 net.cpp:94] Creating Layer ip2
I0507 16:46:48.138985  4903 net.cpp:435] ip2 <- ip1
I0507 16:46:48.138990  4903 net.cpp:409] ip2 -> ip2
I0507 16:46:48.139197  4903 net.cpp:144] Setting up ip2
I0507 16:46:48.139204  4903 net.cpp:151] Top shape: 20 64 (1280)
I0507 16:46:48.139207  4903 net.cpp:159] Memory required for data: 11946320
I0507 16:46:48.139212  4903 layer_factory.hpp:77] Creating layer ip3
I0507 16:46:48.139219  4903 net.cpp:94] Creating Layer ip3
I0507 16:46:48.139222  4903 net.cpp:435] ip3 <- ip2
I0507 16:46:48.139227  4903 net.cpp:409] ip3 -> ip3
I0507 16:46:48.139324  4903 net.cpp:144] Setting up ip3
I0507 16:46:48.139331  4903 net.cpp:151] Top shape: 20 1 (20)
I0507 16:46:48.139334  4903 net.cpp:159] Memory required for data: 11946400
I0507 16:46:48.139339  4903 layer_factory.hpp:77] Creating layer loss
I0507 16:46:48.139349  4903 net.cpp:94] Creating Layer loss
I0507 16:46:48.139353  4903 net.cpp:435] loss <- ip3
I0507 16:46:48.139358  4903 net.cpp:435] loss <- label
I0507 16:46:48.139363  4903 net.cpp:409] loss -> loss
I0507 16:46:48.139411  4903 net.cpp:144] Setting up loss
…
I0507 16:46:48.228266  4903 net.cpp:323] The NetState phase (0) differed from the phase (1) specified by a rule in layer intercept
I0507 16:46:48.228281  4903 net.cpp:323] The NetState phase (0) differed from the phase (1) specified by a rule in layer accuracy
I0507 16:46:48.228368  4903 net.cpp:52] Initializing net from parameters: 
state {
  phase: TRAIN
}
layer {
  name: "parameters"
  type: "HDF5Data"
  top: "data"
  top: "label"
  include {
    phase: TRAIN
  }
  hdf5_data_param {
    source: "/home/purduethu/scratch/radon/d/deng106/CNNStatisticalModel/distributions/input/20_distributions_400_sample_size_train-distributions-path.txt"
    batch_size: 20
  }
}
layer {
  name: "conv1"
  type: "Convolution"
  bottom: "data"
  top: "conv1"
  param {
    lr_mult: 1
  }
  param {
    lr_mult: 2
  }
  convolution_param {
    num_output: 64
    pad: 2
    kernel_size: 5
    stride: 1
    weight_filler {
      type: "gaussian"
      std: 0.0001
    }
    bias_filler {
      type: "constant"
    }
  }
}
layer {
  name: "relu1"
  type: "ReLU"
  bottom: "conv1"
  top: "conv1"
}
layer {
  name: "conv2"
  type: "Convolution"
  bottom: "conv1"
  top: "conv2"
  param {
    lr_mult: 1
  }
  param {
    lr_mult: 2
  }
  convolution_param {
    num_output: 64
    pad: 2
    kernel_size: 5
    stride: 1
    weight_filler {
      type: "gaussian"
      std: 0.01
    }
    bias_filler {
      type: "constant"
    }
  }
}
layer {
  name: "relu2"
  type: "ReLU"
  bottom: "conv2"
  top: "conv2"
}
layer {
  name: "pool2"
  type: "Pooling"
  bottom: "conv2"
  top: "pool2"
  pooling_param {
    pool: MAX
    kernel_size: 3
    stride: 2
  }
}
layer {
  name: "conv3"
  type: "Convolution"
  bottom: "pool2"
  top: "conv3"
  param {
    lr_mult: 1
  }
  param {
    lr_mult: 2
  }
  convolution_param {
    num_output: 64
    pad: 2
    kernel_size: 5
    stride: 1
    weight_filler {
      type: "gaussian"
      std: 0.01
    }
    bias_filler {
      type: "constant"
    }
  }
}
layer {
  name: "relu3"
  type: "ReLU"
  bottom: "conv3"
  top: "conv3"
}
layer {
  name: "conv4"
  type: "Convolution"
  bottom: "conv3"
  top: "conv4"
  param {
    lr_mult: 1
  }
  param {
    lr_mult: 2
  }
  convolution_param {
    num_output: 64
    pad: 2
    kernel_size: 5
    stride: 1
    weight_filler {
      type: "gaussian"
      std: 0.01
    }
    bias_filler {
      type: "constant"
    }
  }
}
layer {
  name: "relu4"
  type: "ReLU"
  bottom: "conv4"
  top: "conv4"
}
layer {
  name: "conv5"
  type: "Convolution"
  bottom: "conv4"
  top: "conv5"
  param {
    lr_mult: 1
  }
  param {
    lr_mult: 2
  }
  convolution_param {
    num_output: 64
    pad: 2
    kernel_size: 5
    stride: 1
    weight_filler {
      type: "gaussian"
      std: 0.01
    }
    bias_filler {
      type: "constant"
    }
  }
}
layer {
  name: "relu5"
  type: "ReLU"
  bottom: "conv5"
  top: "conv5"
}
layer {
  name: "pool5"
  type: "Pooling"
  bottom: "conv5"
  top: "pool5"
  pooling_param {
    pool: AVE
    kernel_size: 3
    stride: 2
  }
}
layer {
  name: "ip1"
  type: "InnerProduct"
  bottom: "pool5"
  top: "ip1"
  param {
    lr_mult: 1
  }
  param {
    lr_mult: 2
  }
  inner_product_param {
    num_output: 64
    weight_filler {
      type: "gaussian"
      std: 0.1
    }
    bias_filler {
      type: "constant"
    }
  }
}
layer {
  name: "ip2"
  type: "InnerProduct"
  bottom: "ip1"
  top: "ip2"
  param {
    lr_mult: 1
  }
  param {
    lr_mult: 2
  }
  inner_product_param {
    num_output: 64
    weight_filler {
      type: "gaussian"
      std: 0.1
    }
    bias_filler {
      type: "constant"
    }
  }
}
layer {
  name: "ip3"
  type: "InnerProduct"
  bottom: "ip2"
  top: "ip3"
  param {
    lr_mult: 1
  }
  param {
    lr_mult: 2
  }
  inner_product_param {
    num_output: 50
    weight_filler {
      type: "gaussian"
      std: 0.1
    }
    bias_filler {
      type: "constant"
    }
  }
}
layer {
  name: "loss"
  type: "SoftmaxWithLoss"
  bottom: "ip3"
  bottom: "label"
  top: "loss"
}
I0507 16:46:48.228420  4903 layer_factory.hpp:77] Creating layer parameters
I0507 16:46:48.228427  4903 net.cpp:94] Creating Layer parameters
I0507 16:46:48.228431  4903 net.cpp:409] parameters -> data
I0507 16:46:48.228438  4903 net.cpp:409] parameters -> label
I0507 16:46:48.228444  4903 hdf5_data_layer.cpp:79] Loading list of HDF5 filenames from: /home/purduethu/scratch/radon/d/deng106/CNNStatisticalModel/distributions/input/20_distributions_400_sample_size_train-distributions-path.txt
I0507 16:46:48.228461  4903 hdf5_data_layer.cpp:93] Number of HDF5 files: 1
I0507 16:46:48.482972  4903 hdf5.cpp:35] Datatype class: H5T_INTEGER
I0507 16:46:48.484014  4903 net.cpp:144] Setting up parameters
I0507 16:46:48.484027  4903 net.cpp:151] Top shape: 20 1 20 20 (8000)
I0507 16:46:48.484033  4903 net.cpp:151] Top shape: 20 (20)
I0507 16:46:48.484036  4903 net.cpp:159] Memory required for data: 32080
I0507 16:46:48.484043  4903 layer_factory.hpp:77] Creating layer conv1
I0507 16:46:48.484058  4903 net.cpp:94] Creating Layer conv1
I0507 16:46:48.484063  4903 net.cpp:435] conv1 <- data
I0507 16:46:48.484069  4903 net.cpp:409] conv1 -> conv1
I0507 16:46:48.486775  4903 net.cpp:144] Setting up conv1
I0507 16:46:48.486789  4903 net.cpp:151] Top shape: 20 64 20 20 (512000)
I0507 16:46:48.486793  4903 net.cpp:159] Memory required for data: 2080080
I0507 16:46:48.486804  4903 layer_factory.hpp:77] Creating layer relu1
I0507 16:46:48.486810  4903 net.cpp:94] Creating Layer relu1
I0507 16:46:48.486814  4903 net.cpp:435] relu1 <- conv1
I0507 16:46:48.486819  4903 net.cpp:396] relu1 -> conv1 (in-place)
I0507 16:46:48.486825  4903 net.cpp:144] Setting up relu1
I0507 16:46:48.486830  4903 net.cpp:151] Top shape: 20 64 20 20 (512000)
I0507 16:46:48.486834  4903 net.cpp:159] Memory required for data: 4128080
I0507 16:46:48.486836  4903 layer_factory.hpp:77] Creating layer conv2
I0507 16:46:48.486843  4903 net.cpp:94] Creating Layer conv2
I0507 16:46:48.486846  4903 net.cpp:435] conv2 <- conv1
I0507 16:46:48.486851  4903 net.cpp:409] conv2 -> conv2
I0507 16:46:48.496343  4903 net.cpp:144] Setting up conv2
I0507 16:46:48.496358  4903 net.cpp:151] Top shape: 20 64 20 20 (512000)
I0507 16:46:48.496362  4903 net.cpp:159] Memory required for data: 6176080
I0507 16:46:48.496371  4903 layer_factory.hpp:77] Creating layer relu2
I0507 16:46:48.496377  4903 net.cpp:94] Creating Layer relu2
I0507 16:46:48.496381  4903 net.cpp:435] relu2 <- conv2
I0507 16:46:48.496386  4903 net.cpp:396] relu2 -> conv2 (in-place)
I0507 16:46:48.496392  4903 net.cpp:144] Setting up relu2
I0507 16:46:48.496397  4903 net.cpp:151] Top shape: 20 64 20 20 (512000)
I0507 16:46:48.496400  4903 net.cpp:159] Memory required for data: 8224080
I0507 16:46:48.496402  4903 layer_factory.hpp:77] Creating layer pool2
I0507 16:46:48.496408  4903 net.cpp:94] Creating Layer pool2
I0507 16:46:48.496412  4903 net.cpp:435] pool2 <- conv2
I0507 16:46:48.496417  4903 net.cpp:409] pool2 -> pool2
I0507 16:46:48.496467  4903 net.cpp:144] Setting up pool2
I0507 16:46:48.496474  4903 net.cpp:151] Top shape: 20 64 10 10 (128000)
I0507 16:46:48.496479  4903 net.cpp:159] Memory required for data: 8736080
I0507 16:46:48.496481  4903 layer_factory.hpp:77] Creating layer conv3
I0507 16:46:48.496490  4903 net.cpp:94] Creating Layer conv3
I0507 16:46:48.496492  4903 net.cpp:435] conv3 <- pool2
I0507 16:46:48.496505  4903 net.cpp:409] conv3 -> conv3
I0507 16:46:48.502538  4903 net.cpp:144] Setting up conv3
I0507 16:46:48.502552  4903 net.cpp:151] Top shape: 20 64 10 10 (128000)
I0507 16:46:48.502557  4903 net.cpp:159] Memory required for data: 9248080
I0507 16:46:48.502564  4903 layer_factory.hpp:77] Creating layer relu3
I0507 16:46:48.502570  4903 net.cpp:94] Creating Layer relu3
I0507 16:46:48.502573  4903 net.cpp:435] relu3 <- conv3
I0507 16:46:48.502578  4903 net.cpp:396] relu3 -> conv3 (in-place)
I0507 16:46:48.502584  4903 net.cpp:144] Setting up relu3
I0507 16:46:48.502589  4903 net.cpp:151] Top shape: 20 64 10 10 (128000)
I0507 16:46:48.502593  4903 net.cpp:159] Memory required for data: 9760080
I0507 16:46:48.502595  4903 layer_factory.hpp:77] Creating layer conv4
I0507 16:46:48.502604  4903 net.cpp:94] Creating Layer conv4
I0507 16:46:48.502607  4903 net.cpp:435] conv4 <- conv3
I0507 16:46:48.502611  4903 net.cpp:409] conv4 -> conv4
I0507 16:46:48.507866  4903 net.cpp:144] Setting up conv4
I0507 16:46:48.507879  4903 net.cpp:151] Top shape: 20 64 10 10 (128000)
I0507 16:46:48.507884  4903 net.cpp:159] Memory required for data: 10272080
I0507 16:46:48.507889  4903 layer_factory.hpp:77] Creating layer relu4
I0507 16:46:48.507895  4903 net.cpp:94] Creating Layer relu4
I0507 16:46:48.507899  4903 net.cpp:435] relu4 <- conv4
I0507 16:46:48.507903  4903 net.cpp:396] relu4 -> conv4 (in-place)
I0507 16:46:48.507910  4903 net.cpp:144] Setting up relu4
I0507 16:46:48.507915  4903 net.cpp:151] Top shape: 20 64 10 10 (128000)
I0507 16:46:48.507918  4903 net.cpp:159] Memory required for data: 10784080
I0507 16:46:48.507920  4903 layer_factory.hpp:77] Creating layer conv5
I0507 16:46:48.507928  4903 net.cpp:94] Creating Layer conv5
I0507 16:46:48.507932  4903 net.cpp:435] conv5 <- conv4
I0507 16:46:48.507936  4903 net.cpp:409] conv5 -> conv5
I0507 16:46:48.513208  4903 net.cpp:144] Setting up conv5
I0507 16:46:48.513222  4903 net.cpp:151] Top shape: 20 64 10 10 (128000)
I0507 16:46:48.513226  4903 net.cpp:159] Memory required for data: 11296080
I0507 16:46:48.513234  4903 layer_factory.hpp:77] Creating layer relu5
I0507 16:46:48.513240  4903 net.cpp:94] Creating Layer relu5
I0507 16:46:48.513244  4903 net.cpp:435] relu5 <- conv5
I0507 16:46:48.513248  4903 net.cpp:396] relu5 -> conv5 (in-place)
I0507 16:46:48.513255  4903 net.cpp:144] Setting up relu5
I0507 16:46:48.513260  4903 net.cpp:151] Top shape: 20 64 10 10 (128000)
I0507 16:46:48.513263  4903 net.cpp:159] Memory required for data: 11808080
I0507 16:46:48.513267  4903 layer_factory.hpp:77] Creating layer pool5
I0507 16:46:48.513270  4903 net.cpp:94] Creating Layer pool5
I0507 16:46:48.513274  4903 net.cpp:435] pool5 <- conv5
I0507 16:46:48.513278  4903 net.cpp:409] pool5 -> pool5
I0507 16:46:48.513312  4903 net.cpp:144] Setting up pool5
I0507 16:46:48.513319  4903 net.cpp:151] Top shape: 20 64 5 5 (32000)
I0507 16:46:48.513322  4903 net.cpp:159] Memory required for data: 11936080
I0507 16:46:48.513326  4903 layer_factory.hpp:77] Creating layer ip1
I0507 16:46:48.513334  4903 net.cpp:94] Creating Layer ip1
I0507 16:46:48.513336  4903 net.cpp:435] ip1 <- pool5
I0507 16:46:48.513341  4903 net.cpp:409] ip1 -> ip1
I0507 16:46:48.515816  4903 net.cpp:144] Setting up ip1
I0507 16:46:48.515825  4903 net.cpp:151] Top shape: 20 64 (1280)
I0507 16:46:48.515827  4903 net.cpp:159] Memory required for data: 11941200
I0507 16:46:48.515833  4903 layer_factory.hpp:77] Creating layer ip2
I0507 16:46:48.515838  4903 net.cpp:94] Creating Layer ip2
I0507 16:46:48.515842  4903 net.cpp:435] ip2 <- ip1
I0507 16:46:48.515847  4903 net.cpp:409] ip2 -> ip2
I0507 16:46:48.516050  4903 net.cpp:144] Setting up ip2
I0507 16:46:48.516057  4903 net.cpp:151] Top shape: 20 64 (1280)
I0507 16:46:48.516062  4903 net.cpp:159] Memory required for data: 11946320
I0507 16:46:48.516067  4903 layer_factory.hpp:77] Creating layer ip3
I0507 16:46:48.516072  4903 net.cpp:94] Creating Layer ip3
I0507 16:46:48.516074  4903 net.cpp:435] ip3 <- ip2
I0507 16:46:48.516079  4903 net.cpp:409] ip3 -> ip3
I0507 16:46:48.516263  4903 net.cpp:144] Setting up ip3
I0507 16:46:48.516271  4903 net.cpp:151] Top shape: 20 50 (1000)
I0507 16:46:48.516274  4903 net.cpp:159] Memory required for data: 11950320
I0507 16:46:48.516279  4903 layer_factory.hpp:77] Creating layer loss
I0507 16:46:48.516286  4903 net.cpp:94] Creating Layer loss
I0507 16:46:48.516289  4903 net.cpp:435] loss <- ip3
I0507 16:46:48.516294  4903 net.cpp:435] loss <- label
I0507 16:46:48.516297  4903 net.cpp:409] loss -> loss
I0507 16:46:48.516304  4903 layer_factory.hpp:77] Creating layer loss
…
I0507 16:46:48.516822  4903 solver.cpp:181] Creating test net (#0) specified by net file: ./protocol/dis_20_400_dimension.protocol_distribution
I0507 16:46:48.516849  4903 net.cpp:323] The NetState phase (1) differed from the phase (0) specified by a rule in layer parameters
I0507 16:46:48.516952  4903 net.cpp:52] Initializing net from parameters: 
state {
  phase: TEST
}
layer {
  name: "intercept"
  type: "HDF5Data"
  top: "data"
  top: "label"
  include {
    phase: TEST
  }
  hdf5_data_param {
    source: "/home/purduethu/scratch/radon/d/deng106/CNNStatisticalModel/distributions/input/20_distributions_400_sample_size_test-distributions-path.txt"
    batch_size: 20
  }
}
layer {
  name: "conv1"
  type: "Convolution"
  bottom: "data"
  top: "conv1"
  param {
    lr_mult: 1
  }
  param {
    lr_mult: 2
  }
  convolution_param {
    num_output: 64
    pad: 2
    kernel_size: 5
    stride: 1
    weight_filler {
      type: "gaussian"
      std: 0.0001
    }
    bias_filler {
      type: "constant"
    }
  }
}
layer {
  name: "relu1"
  type: "ReLU"
  bottom: "conv1"
  top: "conv1"
}
layer {
  name: "conv2"
  type: "Convolution"
  bottom: "conv1"
  top: "conv2"
  param {
    lr_mult: 1
  }
  param {
    lr_mult: 2
  }
  convolution_param {
    num_output: 64
    pad: 2
    kernel_size: 5
    stride: 1
    weight_filler {
      type: "gaussian"
      std: 0.01
    }
    bias_filler {
      type: "constant"
    }
  }
}
layer {
  name: "relu2"
  type: "ReLU"
  bottom: "conv2"
  top: "conv2"
}
layer {
  name: "pool2"
  type: "Pooling"
  bottom: "conv2"
  top: "pool2"
  pooling_param {
    pool: MAX
    kernel_size: 3
    stride: 2
  }
}
layer {
  name: "conv3"
  type: "Convolution"
  bottom: "pool2"
  top: "conv3"
  param {
    lr_mult: 1
  }
  param {
    lr_mult: 2
  }
  convolution_param {
    num_output: 64
    pad: 2
    kernel_size: 5
    stride: 1
    weight_filler {
      type: "gaussian"
      std: 0.01
    }
    bias_filler {
      type: "constant"
    }
  }
}
layer {
  name: "relu3"
  type: "ReLU"
  bottom: "conv3"
  top: "conv3"
}
layer {
  name: "conv4"
  type: "Convolution"
  bottom: "conv3"
  top: "conv4"
  param {
    lr_mult: 1
  }
  param {
    lr_mult: 2
  }
  convolution_param {
    num_output: 64
    pad: 2
    kernel_size: 5
    stride: 1
    weight_filler {
      type: "gaussian"
      std: 0.01
    }
    bias_filler {
      type: "constant"
    }
  }
}
layer {
  name: "relu4"
  type: "ReLU"
  bottom: "conv4"
  top: "conv4"
}
layer {
  name: "conv5"
  type: "Convolution"
  bottom: "conv4"
  top: "conv5"
  param {
    lr_mult: 1
  }
  param {
    lr_mult: 2
  }
  convolution_param {
    num_output: 64
    pad: 2
    kernel_size: 5
    stride: 1
    weight_filler {
      type: "gaussian"
      std: 0.01
    }
    bias_filler {
      type: "constant"
    }
  }
}
layer {
  name: "relu5"
  type: "ReLU"
  bottom: "conv5"
  top: "conv5"
}
layer {
  name: "pool5"
  type: "Pooling"
  bottom: "conv5"
  top: "pool5"
  pooling_param {
    pool: AVE
    kernel_size: 3
    stride: 2
  }
}
layer {
  name: "ip1"
  type: "InnerProduct"
  bottom: "pool5"
  top: "ip1"
  param {
    lr_mult: 1
  }
  param {
    lr_mult: 2
  }
  inner_product_param {
    num_output: 64
    weight_filler {
      type: "gaussian"
      std: 0.1
    }
    bias_filler {
      type: "constant"
    }
  }
}
layer {
  name: "ip2"
  type: "InnerProduct"
  bottom: "ip1"
  top: "ip2"
  param {
    lr_mult: 1
  }
  param {
    lr_mult: 2
  }
  inner_product_param {
    num_output: 64
    weight_filler {
      type: "gaussian"
      std: 0.1
    }
    bias_filler {
      type: "constant"
    }
  }
}
layer {
  name: "ip3"
  type: "InnerProduct"
  bottom: "ip2"
  top: "ip3"
  param {
    lr_mult: 1
  }
  param {
    lr_mult: 2
  }
  inner_product_param {
    num_output: 50
    weight_filler {
      type: "gaussian"
      std: 0.1
    }
    bias_filler {
      type: "constant"
    }
  }
}
layer {
  name: "accuracy"
  type: "Accuracy"
  bottom: "ip3"
  bottom: "label"
  top: "accuracy"
  include {
    phase: TEST
  }
}
layer {
  name: "loss"
  type: "SoftmaxWithLoss"
  bottom: "ip3"
  bottom: "label"
  top: "loss"
}
I0507 16:46:48.517012  4903 layer_factory.hpp:77] Creating layer intercept
I0507 16:46:48.517020  4903 net.cpp:94] Creating Layer intercept
I0507 16:46:48.517024  4903 net.cpp:409] intercept -> data
I0507 16:46:48.517031  4903 net.cpp:409] intercept -> label
I0507 16:46:48.517037  4903 hdf5_data_layer.cpp:79] Loading list of HDF5 filenames from: /home/purduethu/scratch/radon/d/deng106/CNNStatisticalModel/distributions/input/20_distributions_400_sample_size_test-distributions-path.txt
I0507 16:46:48.517055  4903 hdf5_data_layer.cpp:93] Number of HDF5 files: 1
I0507 16:46:48.580893  4903 net.cpp:144] Setting up intercept
I0507 16:46:48.580926  4903 net.cpp:151] Top shape: 20 1 20 20 (8000)
I0507 16:46:48.580931  4903 net.cpp:151] Top shape: 20 (20)
I0507 16:46:48.580935  4903 net.cpp:159] Memory required for data: 32080
I0507 16:46:48.580941  4903 layer_factory.hpp:77] Creating layer label_intercept_1_split
I0507 16:46:48.580958  4903 net.cpp:94] Creating Layer label_intercept_1_split
I0507 16:46:48.580962  4903 net.cpp:435] label_intercept_1_split <- label
I0507 16:46:48.580968  4903 net.cpp:409] label_intercept_1_split -> label_intercept_1_split_0
I0507 16:46:48.580976  4903 net.cpp:409] label_intercept_1_split -> label_intercept_1_split_1
I0507 16:46:48.581017  4903 net.cpp:144] Setting up label_intercept_1_split
I0507 16:46:48.581022  4903 net.cpp:151] Top shape: 20 (20)
I0507 16:46:48.581027  4903 net.cpp:151] Top shape: 20 (20)
I0507 16:46:48.581029  4903 net.cpp:159] Memory required for data: 32240
I0507 16:46:48.581032  4903 layer_factory.hpp:77] Creating layer conv1
I0507 16:46:48.581043  4903 net.cpp:94] Creating Layer conv1
I0507 16:46:48.581046  4903 net.cpp:435] conv1 <- data
I0507 16:46:48.581051  4903 net.cpp:409] conv1 -> conv1
I0507 16:46:48.582329  4903 net.cpp:144] Setting up conv1
I0507 16:46:48.582348  4903 net.cpp:151] Top shape: 20 64 20 20 (512000)
I0507 16:46:48.582353  4903 net.cpp:159] Memory required for data: 2080240
I0507 16:46:48.582363  4903 layer_factory.hpp:77] Creating layer relu1
I0507 16:46:48.582370  4903 net.cpp:94] Creating Layer relu1
I0507 16:46:48.582375  4903 net.cpp:435] relu1 <- conv1
I0507 16:46:48.582378  4903 net.cpp:396] relu1 -> conv1 (in-place)
I0507 16:46:48.582386  4903 net.cpp:144] Setting up relu1
I0507 16:46:48.582391  4903 net.cpp:151] Top shape: 20 64 20 20 (512000)
I0507 16:46:48.582393  4903 net.cpp:159] Memory required for data: 4128240
I0507 16:46:48.582396  4903 layer_factory.hpp:77] Creating layer conv2
I0507 16:46:48.582404  4903 net.cpp:94] Creating Layer conv2
I0507 16:46:48.582408  4903 net.cpp:435] conv2 <- conv1
I0507 16:46:48.582413  4903 net.cpp:409] conv2 -> conv2
I0507 16:46:48.587355  4903 net.cpp:144] Setting up conv2
I0507 16:46:48.587384  4903 net.cpp:151] Top shape: 20 64 20 20 (512000)
I0507 16:46:48.587388  4903 net.cpp:159] Memory required for data: 6176240
I0507 16:46:48.587396  4903 layer_factory.hpp:77] Creating layer relu2
I0507 16:46:48.587402  4903 net.cpp:94] Creating Layer relu2
I0507 16:46:48.587405  4903 net.cpp:435] relu2 <- conv2
I0507 16:46:48.587410  4903 net.cpp:396] relu2 -> conv2 (in-place)
I0507 16:46:48.587417  4903 net.cpp:144] Setting up relu2
I0507 16:46:48.587421  4903 net.cpp:151] Top shape: 20 64 20 20 (512000)
I0507 16:46:48.587424  4903 net.cpp:159] Memory required for data: 8224240
I0507 16:46:48.587427  4903 layer_factory.hpp:77] Creating layer pool2
I0507 16:46:48.587433  4903 net.cpp:94] Creating Layer pool2
I0507 16:46:48.587436  4903 net.cpp:435] pool2 <- conv2
I0507 16:46:48.587440  4903 net.cpp:409] pool2 -> pool2
I0507 16:46:48.587491  4903 net.cpp:144] Setting up pool2
I0507 16:46:48.587497  4903 net.cpp:151] Top shape: 20 64 10 10 (128000)
I0507 16:46:48.587501  4903 net.cpp:159] Memory required for data: 8736240
I0507 16:46:48.587503  4903 layer_factory.hpp:77] Creating layer conv3
I0507 16:46:48.587512  4903 net.cpp:94] Creating Layer conv3
I0507 16:46:48.587515  4903 net.cpp:435] conv3 <- pool2
I0507 16:46:48.587519  4903 net.cpp:409] conv3 -> conv3
I0507 16:46:48.592247  4903 net.cpp:144] Setting up conv3
I0507 16:46:48.592259  4903 net.cpp:151] Top shape: 20 64 10 10 (128000)
I0507 16:46:48.592263  4903 net.cpp:159] Memory required for data: 9248240
I0507 16:46:48.592272  4903 layer_factory.hpp:77] Creating layer relu3
I0507 16:46:48.592278  4903 net.cpp:94] Creating Layer relu3
I0507 16:46:48.592283  4903 net.cpp:435] relu3 <- conv3
I0507 16:46:48.592286  4903 net.cpp:396] relu3 -> conv3 (in-place)
I0507 16:46:48.592293  4903 net.cpp:144] Setting up relu3
I0507 16:46:48.592298  4903 net.cpp:151] Top shape: 20 64 10 10 (128000)
I0507 16:46:48.592301  4903 net.cpp:159] Memory required for data: 9760240
I0507 16:46:48.592304  4903 layer_factory.hpp:77] Creating layer conv4
I0507 16:46:48.592311  4903 net.cpp:94] Creating Layer conv4
I0507 16:46:48.592315  4903 net.cpp:435] conv4 <- conv3
I0507 16:46:48.592320  4903 net.cpp:409] conv4 -> conv4
I0507 16:46:48.595821  4903 net.cpp:144] Setting up conv4
I0507 16:46:48.595834  4903 net.cpp:151] Top shape: 20 64 10 10 (128000)
I0507 16:46:48.595837  4903 net.cpp:159] Memory required for data: 10272240
I0507 16:46:48.595844  4903 layer_factory.hpp:77] Creating layer relu4
I0507 16:46:48.595849  4903 net.cpp:94] Creating Layer relu4
I0507 16:46:48.595854  4903 net.cpp:435] relu4 <- conv4
I0507 16:46:48.595857  4903 net.cpp:396] relu4 -> conv4 (in-place)
I0507 16:46:48.595865  4903 net.cpp:144] Setting up relu4
I0507 16:46:48.595868  4903 net.cpp:151] Top shape: 20 64 10 10 (128000)
I0507 16:46:48.595871  4903 net.cpp:159] Memory required for data: 10784240
I0507 16:46:48.595875  4903 layer_factory.hpp:77] Creating layer conv5
I0507 16:46:48.595882  4903 net.cpp:94] Creating Layer conv5
I0507 16:46:48.595885  4903 net.cpp:435] conv5 <- conv4
I0507 16:46:48.595890  4903 net.cpp:409] conv5 -> conv5
I0507 16:46:48.599766  4903 net.cpp:144] Setting up conv5
I0507 16:46:48.599783  4903 net.cpp:151] Top shape: 20 64 10 10 (128000)
I0507 16:46:48.599787  4903 net.cpp:159] Memory required for data: 11296240
I0507 16:46:48.599795  4903 layer_factory.hpp:77] Creating layer relu5
I0507 16:46:48.599802  4903 net.cpp:94] Creating Layer relu5
I0507 16:46:48.599805  4903 net.cpp:435] relu5 <- conv5
I0507 16:46:48.599809  4903 net.cpp:396] relu5 -> conv5 (in-place)
I0507 16:46:48.599817  4903 net.cpp:144] Setting up relu5
I0507 16:46:48.599820  4903 net.cpp:151] Top shape: 20 64 10 10 (128000)
I0507 16:46:48.599824  4903 net.cpp:159] Memory required for data: 11808240
I0507 16:46:48.599828  4903 layer_factory.hpp:77] Creating layer pool5
I0507 16:46:48.599831  4903 net.cpp:94] Creating Layer pool5
I0507 16:46:48.599834  4903 net.cpp:435] pool5 <- conv5
I0507 16:46:48.599839  4903 net.cpp:409] pool5 -> pool5
I0507 16:46:48.599872  4903 net.cpp:144] Setting up pool5
I0507 16:46:48.599879  4903 net.cpp:151] Top shape: 20 64 5 5 (32000)
I0507 16:46:48.599882  4903 net.cpp:159] Memory required for data: 11936240
I0507 16:46:48.599886  4903 layer_factory.hpp:77] Creating layer ip1
I0507 16:46:48.599894  4903 net.cpp:94] Creating Layer ip1
I0507 16:46:48.599896  4903 net.cpp:435] ip1 <- pool5
I0507 16:46:48.599901  4903 net.cpp:409] ip1 -> ip1
I0507 16:46:48.602423  4903 net.cpp:144] Setting up ip1
I0507 16:46:48.602433  4903 net.cpp:151] Top shape: 20 64 (1280)
I0507 16:46:48.602437  4903 net.cpp:159] Memory required for data: 11941360
I0507 16:46:48.602442  4903 layer_factory.hpp:77] Creating layer ip2
I0507 16:46:48.602447  4903 net.cpp:94] Creating Layer ip2
I0507 16:46:48.602452  4903 net.cpp:435] ip2 <- ip1
I0507 16:46:48.602457  4903 net.cpp:409] ip2 -> ip2
I0507 16:46:48.602675  4903 net.cpp:144] Setting up ip2
I0507 16:46:48.602684  4903 net.cpp:151] Top shape: 20 64 (1280)
I0507 16:46:48.602686  4903 net.cpp:159] Memory required for data: 11946480
I0507 16:46:48.602691  4903 layer_factory.hpp:77] Creating layer ip3
I0507 16:46:48.602699  4903 net.cpp:94] Creating Layer ip3
I0507 16:46:48.602701  4903 net.cpp:435] ip3 <- ip2
I0507 16:46:48.602707  4903 net.cpp:409] ip3 -> ip3
I0507 16:46:48.602901  4903 net.cpp:144] Setting up ip3
I0507 16:46:48.602908  4903 net.cpp:151] Top shape: 20 50 (1000)
I0507 16:46:48.602911  4903 net.cpp:159] Memory required for data: 11950480
I0507 16:46:48.602916  4903 layer_factory.hpp:77] Creating layer ip3_ip3_0_split
I0507 16:46:48.602921  4903 net.cpp:94] Creating Layer ip3_ip3_0_split
I0507 16:46:48.602924  4903 net.cpp:435] ip3_ip3_0_split <- ip3
I0507 16:46:48.602928  4903 net.cpp:409] ip3_ip3_0_split -> ip3_ip3_0_split_0
I0507 16:46:48.602933  4903 net.cpp:409] ip3_ip3_0_split -> ip3_ip3_0_split_1
I0507 16:46:48.602972  4903 net.cpp:144] Setting up ip3_ip3_0_split
I0507 16:46:48.602977  4903 net.cpp:151] Top shape: 20 50 (1000)
I0507 16:46:48.602982  4903 net.cpp:151] Top shape: 20 50 (1000)
I0507 16:46:48.602984  4903 net.cpp:159] Memory required for data: 11958480
I0507 16:46:48.602988  4903 layer_factory.hpp:77] Creating layer accuracy
I0507 16:46:48.602993  4903 net.cpp:94] Creating Layer accuracy
I0507 16:46:48.602996  4903 net.cpp:435] accuracy <- ip3_ip3_0_split_0
I0507 16:46:48.603000  4903 net.cpp:435] accuracy <- label_intercept_1_split_0
I0507 16:46:48.603004  4903 net.cpp:409] accuracy -> accuracy
…
