…
I0501 18:59:26.774956 14154 net.cpp:323] The NetState phase (0) differed from the phase (1) specified by a rule in layer intercept
I0501 18:59:26.774973 14154 net.cpp:323] The NetState phase (0) differed from the phase (1) specified by a rule in layer loss
I0501 18:59:26.775064 14154 net.cpp:52] Initializing net from parameters: 
state {
  phase: TRAIN
}
layer {
  name: "parameters"
  type: "HDF5Data"
  top: "data"
  top: "label"
  include {
    phase: TRAIN
  }
  hdf5_data_param {
    source: "/home/purduethu/scratch/radon/d/deng106/CNNStatisticalModel/distributions/input/20_distributions_900_sample_size_train-parameters-path.txt"
    batch_size: 20
  }
}
layer {
  name: "conv1"
  type: "Convolution"
  bottom: "data"
  top: "conv1"
  param {
    lr_mult: 1
  }
  param {
    lr_mult: 2
  }
  convolution_param {
    num_output: 64
    pad: 2
    kernel_size: 5
    stride: 1
    weight_filler {
      type: "gaussian"
      std: 0.0001
    }
    bias_filler {
      type: "constant"
    }
  }
}
layer {
  name: "relu1"
  type: "ReLU"
  bottom: "conv1"
  top: "conv1"
}
layer {
  name: "conv2"
  type: "Convolution"
  bottom: "conv1"
  top: "conv2"
  param {
    lr_mult: 1
  }
  param {
    lr_mult: 2
  }
  convolution_param {
    num_output: 64
    pad: 2
    kernel_size: 5
    stride: 1
    weight_filler {
      type: "gaussian"
      std: 0.01
    }
    bias_filler {
      type: "constant"
    }
  }
}
layer {
  name: "relu2"
  type: "ReLU"
  bottom: "conv2"
  top: "conv2"
}
layer {
  name: "pool2"
  type: "Pooling"
  bottom: "conv2"
  top: "pool2"
  pooling_param {
    pool: MAX
    kernel_size: 3
    stride: 2
  }
}
layer {
  name: "conv3"
  type: "Convolution"
  bottom: "pool2"
  top: "conv3"
  param {
    lr_mult: 1
  }
  param {
    lr_mult: 2
  }
  convolution_param {
    num_output: 64
    pad: 2
    kernel_size: 5
    stride: 1
    weight_filler {
      type: "gaussian"
      std: 0.01
    }
    bias_filler {
      type: "constant"
    }
  }
}
layer {
  name: "relu3"
  type: "ReLU"
  bottom: "conv3"
  top: "conv3"
}
layer {
  name: "conv4"
  type: "Convolution"
  bottom: "conv3"
  top: "conv4"
  param {
    lr_mult: 1
  }
  param {
    lr_mult: 2
  }
  convolution_param {
    num_output: 64
    pad: 2
    kernel_size: 5
    stride: 1
    weight_filler {
      type: "gaussian"
      std: 0.01
    }
    bias_filler {
      type: "constant"
    }
  }
}
layer {
  name: "relu4"
  type: "ReLU"
  bottom: "conv4"
  top: "conv4"
}
layer {
  name: "conv5"
  type: "Convolution"
  bottom: "conv4"
  top: "conv5"
  param {
    lr_mult: 1
  }
  param {
    lr_mult: 2
  }
  convolution_param {
    num_output: 64
    pad: 2
    kernel_size: 5
    stride: 1
    weight_filler {
      type: "gaussian"
      std: 0.01
    }
    bias_filler {
      type: "constant"
    }
  }
}
layer {
  name: "relu5"
  type: "ReLU"
  bottom: "conv5"
  top: "conv5"
}
layer {
  name: "pool5"
  type: "Pooling"
  bottom: "conv5"
  top: "pool5"
  pooling_param {
    pool: AVE
    kernel_size: 3
    stride: 2
  }
}
layer {
  name: "ip1"
  type: "InnerProduct"
  bottom: "pool5"
  top: "ip1"
  param {
    lr_mult: 1
  }
  param {
    lr_mult: 2
  }
  inner_product_param {
    num_output: 64
    weight_filler {
      type: "gaussian"
      std: 0.1
    }
    bias_filler {
      type: "constant"
    }
  }
}
layer {
  name: "ip2"
  type: "InnerProduct"
  bottom: "ip1"
  top: "ip2"
  param {
    lr_mult: 1
  }
  param {
    lr_mult: 2
  }
  inner_product_param {
    num_output: 64
    weight_filler {
      type: "gaussian"
      std: 0.1
    }
    bias_filler {
      type: "constant"
    }
  }
}
layer {
  name: "ip3"
  type: "InnerProduct"
  bottom: "ip2"
  top: "ip3"
  param {
    lr_mult: 1
  }
  param {
    lr_mult: 2
  }
  inner_product_param {
    num_output: 1
    weight_filler {
      type: "gaussian"
      std: 0.1
    }
    bias_filler {
      type: "constant"
    }
  }
}
layer {
  name: "loss"
  type: "HuberLoss"
  bottom: "ip3"
  bottom: "label"
  top: "loss"
  include {
    phase: TRAIN
  }
}
I0501 18:59:26.775138 14154 layer_factory.hpp:77] Creating layer parameters
I0501 18:59:26.775152 14154 net.cpp:94] Creating Layer parameters
I0501 18:59:26.775159 14154 net.cpp:409] parameters -> data
I0501 18:59:26.775177 14154 net.cpp:409] parameters -> label
I0501 18:59:26.775188 14154 hdf5_data_layer.cpp:79] Loading list of HDF5 filenames from: /home/purduethu/scratch/radon/d/deng106/CNNStatisticalModel/distributions/input/20_distributions_900_sample_size_train-parameters-path.txt
I0501 18:59:26.775210 14154 hdf5_data_layer.cpp:93] Number of HDF5 files: 1
I0501 18:59:26.775822 14154 hdf5.cpp:32] Datatype class: H5T_FLOAT
I0501 18:59:27.348659 14154 net.cpp:144] Setting up parameters
I0501 18:59:27.348693 14154 net.cpp:151] Top shape: 20 1 30 30 (18000)
I0501 18:59:27.348700 14154 net.cpp:151] Top shape: 20 (20)
I0501 18:59:27.348702 14154 net.cpp:159] Memory required for data: 72080
I0501 18:59:27.348711 14154 layer_factory.hpp:77] Creating layer conv1
I0501 18:59:27.348734 14154 net.cpp:94] Creating Layer conv1
I0501 18:59:27.348740 14154 net.cpp:435] conv1 <- data
I0501 18:59:27.348750 14154 net.cpp:409] conv1 -> conv1
I0501 18:59:27.354493 14154 net.cpp:144] Setting up conv1
I0501 18:59:27.354508 14154 net.cpp:151] Top shape: 20 64 30 30 (1152000)
I0501 18:59:27.354513 14154 net.cpp:159] Memory required for data: 4680080
I0501 18:59:27.354524 14154 layer_factory.hpp:77] Creating layer relu1
I0501 18:59:27.354532 14154 net.cpp:94] Creating Layer relu1
I0501 18:59:27.354537 14154 net.cpp:435] relu1 <- conv1
I0501 18:59:27.354542 14154 net.cpp:396] relu1 -> conv1 (in-place)
I0501 18:59:27.354557 14154 net.cpp:144] Setting up relu1
I0501 18:59:27.354562 14154 net.cpp:151] Top shape: 20 64 30 30 (1152000)
I0501 18:59:27.354565 14154 net.cpp:159] Memory required for data: 9288080
I0501 18:59:27.354568 14154 layer_factory.hpp:77] Creating layer conv2
I0501 18:59:27.354576 14154 net.cpp:94] Creating Layer conv2
I0501 18:59:27.354580 14154 net.cpp:435] conv2 <- conv1
I0501 18:59:27.354585 14154 net.cpp:409] conv2 -> conv2
I0501 18:59:27.368962 14154 net.cpp:144] Setting up conv2
I0501 18:59:27.368978 14154 net.cpp:151] Top shape: 20 64 30 30 (1152000)
I0501 18:59:27.368981 14154 net.cpp:159] Memory required for data: 13896080
I0501 18:59:27.368989 14154 layer_factory.hpp:77] Creating layer relu2
I0501 18:59:27.368996 14154 net.cpp:94] Creating Layer relu2
I0501 18:59:27.369000 14154 net.cpp:435] relu2 <- conv2
I0501 18:59:27.369004 14154 net.cpp:396] relu2 -> conv2 (in-place)
I0501 18:59:27.369012 14154 net.cpp:144] Setting up relu2
I0501 18:59:27.369016 14154 net.cpp:151] Top shape: 20 64 30 30 (1152000)
I0501 18:59:27.369020 14154 net.cpp:159] Memory required for data: 18504080
I0501 18:59:27.369024 14154 layer_factory.hpp:77] Creating layer pool2
I0501 18:59:27.369030 14154 net.cpp:94] Creating Layer pool2
I0501 18:59:27.369040 14154 net.cpp:435] pool2 <- conv2
I0501 18:59:27.369045 14154 net.cpp:409] pool2 -> pool2
I0501 18:59:27.369088 14154 net.cpp:144] Setting up pool2
I0501 18:59:27.369096 14154 net.cpp:151] Top shape: 20 64 15 15 (288000)
I0501 18:59:27.369099 14154 net.cpp:159] Memory required for data: 19656080
I0501 18:59:27.369102 14154 layer_factory.hpp:77] Creating layer conv3
I0501 18:59:27.369110 14154 net.cpp:94] Creating Layer conv3
I0501 18:59:27.369113 14154 net.cpp:435] conv3 <- pool2
I0501 18:59:27.369118 14154 net.cpp:409] conv3 -> conv3
I0501 18:59:27.376936 14154 net.cpp:144] Setting up conv3
I0501 18:59:27.376951 14154 net.cpp:151] Top shape: 20 64 15 15 (288000)
I0501 18:59:27.376956 14154 net.cpp:159] Memory required for data: 20808080
I0501 18:59:27.376965 14154 layer_factory.hpp:77] Creating layer relu3
I0501 18:59:27.376971 14154 net.cpp:94] Creating Layer relu3
I0501 18:59:27.376974 14154 net.cpp:435] relu3 <- conv3
I0501 18:59:27.376979 14154 net.cpp:396] relu3 -> conv3 (in-place)
I0501 18:59:27.376986 14154 net.cpp:144] Setting up relu3
I0501 18:59:27.376991 14154 net.cpp:151] Top shape: 20 64 15 15 (288000)
I0501 18:59:27.376994 14154 net.cpp:159] Memory required for data: 21960080
I0501 18:59:27.376998 14154 layer_factory.hpp:77] Creating layer conv4
I0501 18:59:27.377007 14154 net.cpp:94] Creating Layer conv4
I0501 18:59:27.377010 14154 net.cpp:435] conv4 <- conv3
I0501 18:59:27.377014 14154 net.cpp:409] conv4 -> conv4
I0501 18:59:27.383967 14154 net.cpp:144] Setting up conv4
I0501 18:59:27.383982 14154 net.cpp:151] Top shape: 20 64 15 15 (288000)
I0501 18:59:27.383986 14154 net.cpp:159] Memory required for data: 23112080
I0501 18:59:27.383993 14154 layer_factory.hpp:77] Creating layer relu4
I0501 18:59:27.383999 14154 net.cpp:94] Creating Layer relu4
I0501 18:59:27.384003 14154 net.cpp:435] relu4 <- conv4
I0501 18:59:27.384008 14154 net.cpp:396] relu4 -> conv4 (in-place)
I0501 18:59:27.384016 14154 net.cpp:144] Setting up relu4
I0501 18:59:27.384021 14154 net.cpp:151] Top shape: 20 64 15 15 (288000)
I0501 18:59:27.384023 14154 net.cpp:159] Memory required for data: 24264080
I0501 18:59:27.384027 14154 layer_factory.hpp:77] Creating layer conv5
I0501 18:59:27.384034 14154 net.cpp:94] Creating Layer conv5
I0501 18:59:27.384038 14154 net.cpp:435] conv5 <- conv4
I0501 18:59:27.384043 14154 net.cpp:409] conv5 -> conv5
I0501 18:59:27.391759 14154 net.cpp:144] Setting up conv5
I0501 18:59:27.391774 14154 net.cpp:151] Top shape: 20 64 15 15 (288000)
I0501 18:59:27.391779 14154 net.cpp:159] Memory required for data: 25416080
I0501 18:59:27.391788 14154 layer_factory.hpp:77] Creating layer relu5
I0501 18:59:27.391794 14154 net.cpp:94] Creating Layer relu5
I0501 18:59:27.391798 14154 net.cpp:435] relu5 <- conv5
I0501 18:59:27.391803 14154 net.cpp:396] relu5 -> conv5 (in-place)
I0501 18:59:27.391810 14154 net.cpp:144] Setting up relu5
I0501 18:59:27.391814 14154 net.cpp:151] Top shape: 20 64 15 15 (288000)
I0501 18:59:27.391819 14154 net.cpp:159] Memory required for data: 26568080
I0501 18:59:27.391821 14154 layer_factory.hpp:77] Creating layer pool5
I0501 18:59:27.391826 14154 net.cpp:94] Creating Layer pool5
I0501 18:59:27.391829 14154 net.cpp:435] pool5 <- conv5
I0501 18:59:27.391834 14154 net.cpp:409] pool5 -> pool5
I0501 18:59:27.391867 14154 net.cpp:144] Setting up pool5
I0501 18:59:27.391875 14154 net.cpp:151] Top shape: 20 64 7 7 (62720)
I0501 18:59:27.391878 14154 net.cpp:159] Memory required for data: 26818960
I0501 18:59:27.391881 14154 layer_factory.hpp:77] Creating layer ip1
I0501 18:59:27.391891 14154 net.cpp:94] Creating Layer ip1
I0501 18:59:27.391896 14154 net.cpp:435] ip1 <- pool5
I0501 18:59:27.391899 14154 net.cpp:409] ip1 -> ip1
I0501 18:59:27.396710 14154 net.cpp:144] Setting up ip1
I0501 18:59:27.396719 14154 net.cpp:151] Top shape: 20 64 (1280)
I0501 18:59:27.396723 14154 net.cpp:159] Memory required for data: 26824080
I0501 18:59:27.396728 14154 layer_factory.hpp:77] Creating layer ip2
I0501 18:59:27.396735 14154 net.cpp:94] Creating Layer ip2
I0501 18:59:27.396742 14154 net.cpp:435] ip2 <- ip1
I0501 18:59:27.396747 14154 net.cpp:409] ip2 -> ip2
I0501 18:59:27.396914 14154 net.cpp:144] Setting up ip2
I0501 18:59:27.396921 14154 net.cpp:151] Top shape: 20 64 (1280)
I0501 18:59:27.396924 14154 net.cpp:159] Memory required for data: 26829200
I0501 18:59:27.396929 14154 layer_factory.hpp:77] Creating layer ip3
I0501 18:59:27.396935 14154 net.cpp:94] Creating Layer ip3
I0501 18:59:27.396939 14154 net.cpp:435] ip3 <- ip2
I0501 18:59:27.396944 14154 net.cpp:409] ip3 -> ip3
I0501 18:59:27.397006 14154 net.cpp:144] Setting up ip3
I0501 18:59:27.397018 14154 net.cpp:151] Top shape: 20 1 (20)
I0501 18:59:27.397022 14154 net.cpp:159] Memory required for data: 26829280
I0501 18:59:27.397027 14154 layer_factory.hpp:77] Creating layer loss
I0501 18:59:27.397037 14154 net.cpp:94] Creating Layer loss
I0501 18:59:27.397040 14154 net.cpp:435] loss <- ip3
I0501 18:59:27.397044 14154 net.cpp:435] loss <- label
I0501 18:59:27.397049 14154 net.cpp:409] loss -> loss
I0501 18:59:27.397085 14154 net.cpp:144] Setting up loss
…
