…
I0507 22:48:14.369114  8548 net.cpp:323] The NetState phase (0) differed from the phase (1) specified by a rule in layer intercept
I0507 22:48:14.369132  8548 net.cpp:323] The NetState phase (0) differed from the phase (1) specified by a rule in layer loss
I0507 22:48:14.369211  8548 net.cpp:52] Initializing net from parameters: 
state {
  phase: TRAIN
}
layer {
  name: "parameters"
  type: "HDF5Data"
  top: "data"
  top: "label"
  include {
    phase: TRAIN
  }
  hdf5_data_param {
    source: "/home/purduethu/scratch/radon/d/deng106/CNNStatisticalModel/distributions/input/5_distributions_400_sample_size_train-parameters-path.txt"
    batch_size: 20
  }
}
layer {
  name: "conv1"
  type: "Convolution"
  bottom: "data"
  top: "conv1"
  param {
    lr_mult: 1
  }
  param {
    lr_mult: 2
  }
  convolution_param {
    num_output: 64
    pad: 2
    kernel_size: 5
    stride: 1
    weight_filler {
      type: "gaussian"
      std: 0.0001
    }
    bias_filler {
      type: "constant"
    }
  }
}
layer {
  name: "relu1"
  type: "ReLU"
  bottom: "conv1"
  top: "conv1"
}
layer {
  name: "conv2"
  type: "Convolution"
  bottom: "conv1"
  top: "conv2"
  param {
    lr_mult: 1
  }
  param {
    lr_mult: 2
  }
  convolution_param {
    num_output: 64
    pad: 2
    kernel_size: 5
    stride: 1
    weight_filler {
      type: "gaussian"
      std: 0.01
    }
    bias_filler {
      type: "constant"
    }
  }
}
layer {
  name: "relu2"
  type: "ReLU"
  bottom: "conv2"
  top: "conv2"
}
layer {
  name: "pool2"
  type: "Pooling"
  bottom: "conv2"
  top: "pool2"
  pooling_param {
    pool: MAX
    kernel_size: 3
    stride: 2
  }
}
layer {
  name: "conv3"
  type: "Convolution"
  bottom: "pool2"
  top: "conv3"
  param {
    lr_mult: 1
  }
  param {
    lr_mult: 2
  }
  convolution_param {
    num_output: 64
    pad: 2
    kernel_size: 5
    stride: 1
    weight_filler {
      type: "gaussian"
      std: 0.01
    }
    bias_filler {
      type: "constant"
    }
  }
}
layer {
  name: "relu3"
  type: "ReLU"
  bottom: "conv3"
  top: "conv3"
}
layer {
  name: "conv4"
  type: "Convolution"
  bottom: "conv3"
  top: "conv4"
  param {
    lr_mult: 1
  }
  param {
    lr_mult: 2
  }
  convolution_param {
    num_output: 64
    pad: 2
    kernel_size: 5
    stride: 1
    weight_filler {
      type: "gaussian"
      std: 0.01
    }
    bias_filler {
      type: "constant"
    }
  }
}
layer {
  name: "relu4"
  type: "ReLU"
  bottom: "conv4"
  top: "conv4"
}
layer {
  name: "conv5"
  type: "Convolution"
  bottom: "conv4"
  top: "conv5"
  param {
    lr_mult: 1
  }
  param {
    lr_mult: 2
  }
  convolution_param {
    num_output: 64
    pad: 2
    kernel_size: 5
    stride: 1
    weight_filler {
      type: "gaussian"
      std: 0.01
    }
    bias_filler {
      type: "constant"
    }
  }
}
layer {
  name: "relu5"
  type: "ReLU"
  bottom: "conv5"
  top: "conv5"
}
layer {
  name: "pool5"
  type: "Pooling"
  bottom: "conv5"
  top: "pool5"
  pooling_param {
    pool: AVE
    kernel_size: 3
    stride: 2
  }
}
layer {
  name: "ip1"
  type: "InnerProduct"
  bottom: "pool5"
  top: "ip1"
  param {
    lr_mult: 1
  }
  param {
    lr_mult: 2
  }
  inner_product_param {
    num_output: 64
    weight_filler {
      type: "gaussian"
      std: 0.1
    }
    bias_filler {
      type: "constant"
    }
  }
}
layer {
  name: "ip2"
  type: "InnerProduct"
  bottom: "ip1"
  top: "ip2"
  param {
    lr_mult: 1
  }
  param {
    lr_mult: 2
  }
  inner_product_param {
    num_output: 64
    weight_filler {
      type: "gaussian"
      std: 0.1
    }
    bias_filler {
      type: "constant"
    }
  }
}
layer {
  name: "ip3"
  type: "InnerProduct"
  bottom: "ip2"
  top: "ip3"
  param {
    lr_mult: 1
  }
  param {
    lr_mult: 2
  }
  inner_product_param {
    num_output: 1
    weight_filler {
      type: "gaussian"
      std: 0.1
    }
    bias_filler {
      type: "constant"
    }
  }
}
layer {
  name: "loss"
  type: "HuberLoss"
  bottom: "ip3"
  bottom: "label"
  top: "loss"
  include {
    phase: TRAIN
  }
}
I0507 22:48:14.369267  8548 layer_factory.hpp:77] Creating layer parameters
I0507 22:48:14.369282  8548 net.cpp:94] Creating Layer parameters
I0507 22:48:14.369287  8548 net.cpp:409] parameters -> data
I0507 22:48:14.369295  8548 net.cpp:409] parameters -> label
I0507 22:48:14.369302  8548 hdf5_data_layer.cpp:79] Loading list of HDF5 filenames from: /home/purduethu/scratch/radon/d/deng106/CNNStatisticalModel/distributions/input/5_distributions_400_sample_size_train-parameters-path.txt
I0507 22:48:14.369316  8548 hdf5_data_layer.cpp:93] Number of HDF5 files: 1
I0507 22:48:14.369868  8548 hdf5.cpp:32] Datatype class: H5T_FLOAT
I0507 22:48:14.432626  8548 net.cpp:144] Setting up parameters
I0507 22:48:14.432657  8548 net.cpp:151] Top shape: 20 1 20 20 (8000)
I0507 22:48:14.432662  8548 net.cpp:151] Top shape: 20 (20)
I0507 22:48:14.432665  8548 net.cpp:159] Memory required for data: 32080
I0507 22:48:14.432672  8548 layer_factory.hpp:77] Creating layer conv1
I0507 22:48:14.432693  8548 net.cpp:94] Creating Layer conv1
I0507 22:48:14.432696  8548 net.cpp:435] conv1 <- data
I0507 22:48:14.432703  8548 net.cpp:409] conv1 -> conv1
I0507 22:48:14.438078  8548 net.cpp:144] Setting up conv1
I0507 22:48:14.438097  8548 net.cpp:151] Top shape: 20 64 20 20 (512000)
I0507 22:48:14.438099  8548 net.cpp:159] Memory required for data: 2080080
I0507 22:48:14.438112  8548 layer_factory.hpp:77] Creating layer relu1
I0507 22:48:14.438119  8548 net.cpp:94] Creating Layer relu1
I0507 22:48:14.438123  8548 net.cpp:435] relu1 <- conv1
I0507 22:48:14.438128  8548 net.cpp:396] relu1 -> conv1 (in-place)
I0507 22:48:14.438143  8548 net.cpp:144] Setting up relu1
I0507 22:48:14.438148  8548 net.cpp:151] Top shape: 20 64 20 20 (512000)
I0507 22:48:14.438150  8548 net.cpp:159] Memory required for data: 4128080
I0507 22:48:14.438153  8548 layer_factory.hpp:77] Creating layer conv2
I0507 22:48:14.438161  8548 net.cpp:94] Creating Layer conv2
I0507 22:48:14.438164  8548 net.cpp:435] conv2 <- conv1
I0507 22:48:14.438169  8548 net.cpp:409] conv2 -> conv2
I0507 22:48:14.449795  8548 net.cpp:144] Setting up conv2
I0507 22:48:14.449810  8548 net.cpp:151] Top shape: 20 64 20 20 (512000)
I0507 22:48:14.449813  8548 net.cpp:159] Memory required for data: 6176080
I0507 22:48:14.449821  8548 layer_factory.hpp:77] Creating layer relu2
I0507 22:48:14.449828  8548 net.cpp:94] Creating Layer relu2
I0507 22:48:14.449831  8548 net.cpp:435] relu2 <- conv2
I0507 22:48:14.449836  8548 net.cpp:396] relu2 -> conv2 (in-place)
I0507 22:48:14.449842  8548 net.cpp:144] Setting up relu2
I0507 22:48:14.449847  8548 net.cpp:151] Top shape: 20 64 20 20 (512000)
I0507 22:48:14.449851  8548 net.cpp:159] Memory required for data: 8224080
I0507 22:48:14.449853  8548 layer_factory.hpp:77] Creating layer pool2
I0507 22:48:14.449865  8548 net.cpp:94] Creating Layer pool2
I0507 22:48:14.449869  8548 net.cpp:435] pool2 <- conv2
I0507 22:48:14.449873  8548 net.cpp:409] pool2 -> pool2
I0507 22:48:14.449931  8548 net.cpp:144] Setting up pool2
I0507 22:48:14.449939  8548 net.cpp:151] Top shape: 20 64 10 10 (128000)
I0507 22:48:14.449941  8548 net.cpp:159] Memory required for data: 8736080
I0507 22:48:14.449945  8548 layer_factory.hpp:77] Creating layer conv3
I0507 22:48:14.449952  8548 net.cpp:94] Creating Layer conv3
I0507 22:48:14.449956  8548 net.cpp:435] conv3 <- pool2
I0507 22:48:14.449960  8548 net.cpp:409] conv3 -> conv3
I0507 22:48:14.455425  8548 net.cpp:144] Setting up conv3
I0507 22:48:14.455438  8548 net.cpp:151] Top shape: 20 64 10 10 (128000)
I0507 22:48:14.455442  8548 net.cpp:159] Memory required for data: 9248080
I0507 22:48:14.455451  8548 layer_factory.hpp:77] Creating layer relu3
I0507 22:48:14.455456  8548 net.cpp:94] Creating Layer relu3
I0507 22:48:14.455459  8548 net.cpp:435] relu3 <- conv3
I0507 22:48:14.455463  8548 net.cpp:396] relu3 -> conv3 (in-place)
I0507 22:48:14.455471  8548 net.cpp:144] Setting up relu3
I0507 22:48:14.455474  8548 net.cpp:151] Top shape: 20 64 10 10 (128000)
I0507 22:48:14.455477  8548 net.cpp:159] Memory required for data: 9760080
I0507 22:48:14.455480  8548 layer_factory.hpp:77] Creating layer conv4
I0507 22:48:14.455488  8548 net.cpp:94] Creating Layer conv4
I0507 22:48:14.455492  8548 net.cpp:435] conv4 <- conv3
I0507 22:48:14.455497  8548 net.cpp:409] conv4 -> conv4
I0507 22:48:14.460995  8548 net.cpp:144] Setting up conv4
I0507 22:48:14.461009  8548 net.cpp:151] Top shape: 20 64 10 10 (128000)
I0507 22:48:14.461012  8548 net.cpp:159] Memory required for data: 10272080
I0507 22:48:14.461019  8548 layer_factory.hpp:77] Creating layer relu4
I0507 22:48:14.461024  8548 net.cpp:94] Creating Layer relu4
I0507 22:48:14.461027  8548 net.cpp:435] relu4 <- conv4
I0507 22:48:14.461032  8548 net.cpp:396] relu4 -> conv4 (in-place)
I0507 22:48:14.461038  8548 net.cpp:144] Setting up relu4
I0507 22:48:14.461043  8548 net.cpp:151] Top shape: 20 64 10 10 (128000)
I0507 22:48:14.461045  8548 net.cpp:159] Memory required for data: 10784080
I0507 22:48:14.461048  8548 layer_factory.hpp:77] Creating layer conv5
I0507 22:48:14.461056  8548 net.cpp:94] Creating Layer conv5
I0507 22:48:14.461060  8548 net.cpp:435] conv5 <- conv4
I0507 22:48:14.461063  8548 net.cpp:409] conv5 -> conv5
I0507 22:48:14.466557  8548 net.cpp:144] Setting up conv5
I0507 22:48:14.466569  8548 net.cpp:151] Top shape: 20 64 10 10 (128000)
I0507 22:48:14.466573  8548 net.cpp:159] Memory required for data: 11296080
I0507 22:48:14.466581  8548 layer_factory.hpp:77] Creating layer relu5
I0507 22:48:14.466588  8548 net.cpp:94] Creating Layer relu5
I0507 22:48:14.466590  8548 net.cpp:435] relu5 <- conv5
I0507 22:48:14.466594  8548 net.cpp:396] relu5 -> conv5 (in-place)
I0507 22:48:14.466601  8548 net.cpp:144] Setting up relu5
I0507 22:48:14.466605  8548 net.cpp:151] Top shape: 20 64 10 10 (128000)
I0507 22:48:14.466609  8548 net.cpp:159] Memory required for data: 11808080
I0507 22:48:14.466611  8548 layer_factory.hpp:77] Creating layer pool5
I0507 22:48:14.466616  8548 net.cpp:94] Creating Layer pool5
I0507 22:48:14.466619  8548 net.cpp:435] pool5 <- conv5
I0507 22:48:14.466624  8548 net.cpp:409] pool5 -> pool5
I0507 22:48:14.466666  8548 net.cpp:144] Setting up pool5
I0507 22:48:14.466673  8548 net.cpp:151] Top shape: 20 64 5 5 (32000)
I0507 22:48:14.466676  8548 net.cpp:159] Memory required for data: 11936080
I0507 22:48:14.466680  8548 layer_factory.hpp:77] Creating layer ip1
I0507 22:48:14.466691  8548 net.cpp:94] Creating Layer ip1
I0507 22:48:14.466694  8548 net.cpp:435] ip1 <- pool5
I0507 22:48:14.466699  8548 net.cpp:409] ip1 -> ip1
I0507 22:48:14.469256  8548 net.cpp:144] Setting up ip1
I0507 22:48:14.469265  8548 net.cpp:151] Top shape: 20 64 (1280)
I0507 22:48:14.469269  8548 net.cpp:159] Memory required for data: 11941200
I0507 22:48:14.469274  8548 layer_factory.hpp:77] Creating layer ip2
I0507 22:48:14.469280  8548 net.cpp:94] Creating Layer ip2
I0507 22:48:14.469287  8548 net.cpp:435] ip2 <- ip1
I0507 22:48:14.469293  8548 net.cpp:409] ip2 -> ip2
I0507 22:48:14.469517  8548 net.cpp:144] Setting up ip2
I0507 22:48:14.469527  8548 net.cpp:151] Top shape: 20 64 (1280)
I0507 22:48:14.469529  8548 net.cpp:159] Memory required for data: 11946320
I0507 22:48:14.469534  8548 layer_factory.hpp:77] Creating layer ip3
I0507 22:48:14.469540  8548 net.cpp:94] Creating Layer ip3
I0507 22:48:14.469543  8548 net.cpp:435] ip3 <- ip2
I0507 22:48:14.469547  8548 net.cpp:409] ip3 -> ip3
I0507 22:48:14.469662  8548 net.cpp:144] Setting up ip3
I0507 22:48:14.469669  8548 net.cpp:151] Top shape: 20 1 (20)
I0507 22:48:14.469672  8548 net.cpp:159] Memory required for data: 11946400
I0507 22:48:14.469677  8548 layer_factory.hpp:77] Creating layer loss
I0507 22:48:14.469686  8548 net.cpp:94] Creating Layer loss
I0507 22:48:14.469688  8548 net.cpp:435] loss <- ip3
I0507 22:48:14.469692  8548 net.cpp:435] loss <- label
I0507 22:48:14.469696  8548 net.cpp:409] loss -> loss
I0507 22:48:14.469758  8548 net.cpp:144] Setting up loss
…
I0507 22:48:14.511273  8548 net.cpp:323] The NetState phase (0) differed from the phase (1) specified by a rule in layer intercept
I0507 22:48:14.511291  8548 net.cpp:323] The NetState phase (0) differed from the phase (1) specified by a rule in layer accuracy
I0507 22:48:14.511381  8548 net.cpp:52] Initializing net from parameters: 
state {
  phase: TRAIN
}
layer {
  name: "parameters"
  type: "HDF5Data"
  top: "data"
  top: "label"
  include {
    phase: TRAIN
  }
  hdf5_data_param {
    source: "/home/purduethu/scratch/radon/d/deng106/CNNStatisticalModel/distributions/input/5_distributions_400_sample_size_train-distributions-path.txt"
    batch_size: 20
  }
}
layer {
  name: "conv1"
  type: "Convolution"
  bottom: "data"
  top: "conv1"
  param {
    lr_mult: 1
  }
  param {
    lr_mult: 2
  }
  convolution_param {
    num_output: 64
    pad: 2
    kernel_size: 5
    stride: 1
    weight_filler {
      type: "gaussian"
      std: 0.0001
    }
    bias_filler {
      type: "constant"
    }
  }
}
layer {
  name: "relu1"
  type: "ReLU"
  bottom: "conv1"
  top: "conv1"
}
layer {
  name: "conv2"
  type: "Convolution"
  bottom: "conv1"
  top: "conv2"
  param {
    lr_mult: 1
  }
  param {
    lr_mult: 2
  }
  convolution_param {
    num_output: 64
    pad: 2
    kernel_size: 5
    stride: 1
    weight_filler {
      type: "gaussian"
      std: 0.01
    }
    bias_filler {
      type: "constant"
    }
  }
}
layer {
  name: "relu2"
  type: "ReLU"
  bottom: "conv2"
  top: "conv2"
}
layer {
  name: "pool2"
  type: "Pooling"
  bottom: "conv2"
  top: "pool2"
  pooling_param {
    pool: MAX
    kernel_size: 3
    stride: 2
  }
}
layer {
  name: "conv3"
  type: "Convolution"
  bottom: "pool2"
  top: "conv3"
  param {
    lr_mult: 1
  }
  param {
    lr_mult: 2
  }
  convolution_param {
    num_output: 64
    pad: 2
    kernel_size: 5
    stride: 1
    weight_filler {
      type: "gaussian"
      std: 0.01
    }
    bias_filler {
      type: "constant"
    }
  }
}
layer {
  name: "relu3"
  type: "ReLU"
  bottom: "conv3"
  top: "conv3"
}
layer {
  name: "conv4"
  type: "Convolution"
  bottom: "conv3"
  top: "conv4"
  param {
    lr_mult: 1
  }
  param {
    lr_mult: 2
  }
  convolution_param {
    num_output: 64
    pad: 2
    kernel_size: 5
    stride: 1
    weight_filler {
      type: "gaussian"
      std: 0.01
    }
    bias_filler {
      type: "constant"
    }
  }
}
layer {
  name: "relu4"
  type: "ReLU"
  bottom: "conv4"
  top: "conv4"
}
layer {
  name: "conv5"
  type: "Convolution"
  bottom: "conv4"
  top: "conv5"
  param {
    lr_mult: 1
  }
  param {
    lr_mult: 2
  }
  convolution_param {
    num_output: 64
    pad: 2
    kernel_size: 5
    stride: 1
    weight_filler {
      type: "gaussian"
      std: 0.01
    }
    bias_filler {
      type: "constant"
    }
  }
}
layer {
  name: "relu5"
  type: "ReLU"
  bottom: "conv5"
  top: "conv5"
}
layer {
  name: "pool5"
  type: "Pooling"
  bottom: "conv5"
  top: "pool5"
  pooling_param {
    pool: AVE
    kernel_size: 3
    stride: 2
  }
}
layer {
  name: "ip1"
  type: "InnerProduct"
  bottom: "pool5"
  top: "ip1"
  param {
    lr_mult: 1
  }
  param {
    lr_mult: 2
  }
  inner_product_param {
    num_output: 64
    weight_filler {
      type: "gaussian"
      std: 0.1
    }
    bias_filler {
      type: "constant"
    }
  }
}
layer {
  name: "ip2"
  type: "InnerProduct"
  bottom: "ip1"
  top: "ip2"
  param {
    lr_mult: 1
  }
  param {
    lr_mult: 2
  }
  inner_product_param {
    num_output: 64
    weight_filler {
      type: "gaussian"
      std: 0.1
    }
    bias_filler {
      type: "constant"
    }
  }
}
layer {
  name: "ip3"
  type: "InnerProduct"
  bottom: "ip2"
  top: "ip3"
  param {
    lr_mult: 1
  }
  param {
    lr_mult: 2
  }
  inner_product_param {
    num_output: 50
    weight_filler {
      type: "gaussian"
      std: 0.1
    }
    bias_filler {
      type: "constant"
    }
  }
}
layer {
  name: "loss"
  type: "SoftmaxWithLoss"
  bottom: "ip3"
  bottom: "label"
  top: "loss"
}
I0507 22:48:14.511435  8548 layer_factory.hpp:77] Creating layer parameters
I0507 22:48:14.511442  8548 net.cpp:94] Creating Layer parameters
I0507 22:48:14.511446  8548 net.cpp:409] parameters -> data
I0507 22:48:14.511453  8548 net.cpp:409] parameters -> label
I0507 22:48:14.511458  8548 hdf5_data_layer.cpp:79] Loading list of HDF5 filenames from: /home/purduethu/scratch/radon/d/deng106/CNNStatisticalModel/distributions/input/5_distributions_400_sample_size_train-distributions-path.txt
I0507 22:48:14.511476  8548 hdf5_data_layer.cpp:93] Number of HDF5 files: 1
I0507 22:48:14.572960  8548 hdf5.cpp:35] Datatype class: H5T_INTEGER
I0507 22:48:14.573416  8548 net.cpp:144] Setting up parameters
I0507 22:48:14.573429  8548 net.cpp:151] Top shape: 20 1 20 20 (8000)
I0507 22:48:14.573434  8548 net.cpp:151] Top shape: 20 (20)
I0507 22:48:14.573437  8548 net.cpp:159] Memory required for data: 32080
I0507 22:48:14.573444  8548 layer_factory.hpp:77] Creating layer conv1
I0507 22:48:14.573458  8548 net.cpp:94] Creating Layer conv1
I0507 22:48:14.573463  8548 net.cpp:435] conv1 <- data
I0507 22:48:14.573469  8548 net.cpp:409] conv1 -> conv1
I0507 22:48:14.576282  8548 net.cpp:144] Setting up conv1
I0507 22:48:14.576294  8548 net.cpp:151] Top shape: 20 64 20 20 (512000)
I0507 22:48:14.576298  8548 net.cpp:159] Memory required for data: 2080080
I0507 22:48:14.576308  8548 layer_factory.hpp:77] Creating layer relu1
I0507 22:48:14.576315  8548 net.cpp:94] Creating Layer relu1
I0507 22:48:14.576319  8548 net.cpp:435] relu1 <- conv1
I0507 22:48:14.576323  8548 net.cpp:396] relu1 -> conv1 (in-place)
I0507 22:48:14.576330  8548 net.cpp:144] Setting up relu1
I0507 22:48:14.576335  8548 net.cpp:151] Top shape: 20 64 20 20 (512000)
I0507 22:48:14.576337  8548 net.cpp:159] Memory required for data: 4128080
I0507 22:48:14.576340  8548 layer_factory.hpp:77] Creating layer conv2
I0507 22:48:14.576349  8548 net.cpp:94] Creating Layer conv2
I0507 22:48:14.576351  8548 net.cpp:435] conv2 <- conv1
I0507 22:48:14.576355  8548 net.cpp:409] conv2 -> conv2
I0507 22:48:14.587705  8548 net.cpp:144] Setting up conv2
I0507 22:48:14.587743  8548 net.cpp:151] Top shape: 20 64 20 20 (512000)
I0507 22:48:14.587754  8548 net.cpp:159] Memory required for data: 6176080
I0507 22:48:14.587776  8548 layer_factory.hpp:77] Creating layer relu2
I0507 22:48:14.587793  8548 net.cpp:94] Creating Layer relu2
I0507 22:48:14.587803  8548 net.cpp:435] relu2 <- conv2
I0507 22:48:14.587815  8548 net.cpp:396] relu2 -> conv2 (in-place)
I0507 22:48:14.587834  8548 net.cpp:144] Setting up relu2
I0507 22:48:14.587847  8548 net.cpp:151] Top shape: 20 64 20 20 (512000)
I0507 22:48:14.587855  8548 net.cpp:159] Memory required for data: 8224080
I0507 22:48:14.587863  8548 layer_factory.hpp:77] Creating layer pool2
I0507 22:48:14.587877  8548 net.cpp:94] Creating Layer pool2
I0507 22:48:14.587885  8548 net.cpp:435] pool2 <- conv2
I0507 22:48:14.587898  8548 net.cpp:409] pool2 -> pool2
I0507 22:48:14.588045  8548 net.cpp:144] Setting up pool2
I0507 22:48:14.588064  8548 net.cpp:151] Top shape: 20 64 10 10 (128000)
I0507 22:48:14.588073  8548 net.cpp:159] Memory required for data: 8736080
I0507 22:48:14.588083  8548 layer_factory.hpp:77] Creating layer conv3
I0507 22:48:14.588104  8548 net.cpp:94] Creating Layer conv3
I0507 22:48:14.588107  8548 net.cpp:435] conv3 <- pool2
I0507 22:48:14.588111  8548 net.cpp:409] conv3 -> conv3
I0507 22:48:14.593662  8548 net.cpp:144] Setting up conv3
I0507 22:48:14.593677  8548 net.cpp:151] Top shape: 20 64 10 10 (128000)
I0507 22:48:14.593679  8548 net.cpp:159] Memory required for data: 9248080
I0507 22:48:14.593688  8548 layer_factory.hpp:77] Creating layer relu3
I0507 22:48:14.593693  8548 net.cpp:94] Creating Layer relu3
I0507 22:48:14.593698  8548 net.cpp:435] relu3 <- conv3
I0507 22:48:14.593701  8548 net.cpp:396] relu3 -> conv3 (in-place)
I0507 22:48:14.593708  8548 net.cpp:144] Setting up relu3
I0507 22:48:14.593713  8548 net.cpp:151] Top shape: 20 64 10 10 (128000)
I0507 22:48:14.593715  8548 net.cpp:159] Memory required for data: 9760080
I0507 22:48:14.593719  8548 layer_factory.hpp:77] Creating layer conv4
I0507 22:48:14.593726  8548 net.cpp:94] Creating Layer conv4
I0507 22:48:14.593729  8548 net.cpp:435] conv4 <- conv3
I0507 22:48:14.593734  8548 net.cpp:409] conv4 -> conv4
I0507 22:48:14.599258  8548 net.cpp:144] Setting up conv4
I0507 22:48:14.599272  8548 net.cpp:151] Top shape: 20 64 10 10 (128000)
I0507 22:48:14.599275  8548 net.cpp:159] Memory required for data: 10272080
I0507 22:48:14.599282  8548 layer_factory.hpp:77] Creating layer relu4
I0507 22:48:14.599287  8548 net.cpp:94] Creating Layer relu4
I0507 22:48:14.599290  8548 net.cpp:435] relu4 <- conv4
I0507 22:48:14.599295  8548 net.cpp:396] relu4 -> conv4 (in-place)
I0507 22:48:14.599303  8548 net.cpp:144] Setting up relu4
I0507 22:48:14.599306  8548 net.cpp:151] Top shape: 20 64 10 10 (128000)
I0507 22:48:14.599309  8548 net.cpp:159] Memory required for data: 10784080
I0507 22:48:14.599313  8548 layer_factory.hpp:77] Creating layer conv5
I0507 22:48:14.599319  8548 net.cpp:94] Creating Layer conv5
I0507 22:48:14.599323  8548 net.cpp:435] conv5 <- conv4
I0507 22:48:14.599328  8548 net.cpp:409] conv5 -> conv5
I0507 22:48:14.604861  8548 net.cpp:144] Setting up conv5
I0507 22:48:14.604874  8548 net.cpp:151] Top shape: 20 64 10 10 (128000)
I0507 22:48:14.604878  8548 net.cpp:159] Memory required for data: 11296080
I0507 22:48:14.604887  8548 layer_factory.hpp:77] Creating layer relu5
I0507 22:48:14.604892  8548 net.cpp:94] Creating Layer relu5
I0507 22:48:14.604895  8548 net.cpp:435] relu5 <- conv5
I0507 22:48:14.604899  8548 net.cpp:396] relu5 -> conv5 (in-place)
I0507 22:48:14.604907  8548 net.cpp:144] Setting up relu5
I0507 22:48:14.604910  8548 net.cpp:151] Top shape: 20 64 10 10 (128000)
I0507 22:48:14.604913  8548 net.cpp:159] Memory required for data: 11808080
I0507 22:48:14.604917  8548 layer_factory.hpp:77] Creating layer pool5
I0507 22:48:14.604920  8548 net.cpp:94] Creating Layer pool5
I0507 22:48:14.604923  8548 net.cpp:435] pool5 <- conv5
I0507 22:48:14.604928  8548 net.cpp:409] pool5 -> pool5
I0507 22:48:14.604966  8548 net.cpp:144] Setting up pool5
I0507 22:48:14.604974  8548 net.cpp:151] Top shape: 20 64 5 5 (32000)
I0507 22:48:14.604976  8548 net.cpp:159] Memory required for data: 11936080
I0507 22:48:14.604979  8548 layer_factory.hpp:77] Creating layer ip1
I0507 22:48:14.604985  8548 net.cpp:94] Creating Layer ip1
I0507 22:48:14.604988  8548 net.cpp:435] ip1 <- pool5
I0507 22:48:14.604993  8548 net.cpp:409] ip1 -> ip1
I0507 22:48:14.607548  8548 net.cpp:144] Setting up ip1
I0507 22:48:14.607558  8548 net.cpp:151] Top shape: 20 64 (1280)
I0507 22:48:14.607560  8548 net.cpp:159] Memory required for data: 11941200
I0507 22:48:14.607565  8548 layer_factory.hpp:77] Creating layer ip2
I0507 22:48:14.607571  8548 net.cpp:94] Creating Layer ip2
I0507 22:48:14.607574  8548 net.cpp:435] ip2 <- ip1
I0507 22:48:14.607580  8548 net.cpp:409] ip2 -> ip2
I0507 22:48:14.607812  8548 net.cpp:144] Setting up ip2
I0507 22:48:14.607820  8548 net.cpp:151] Top shape: 20 64 (1280)
I0507 22:48:14.607822  8548 net.cpp:159] Memory required for data: 11946320
I0507 22:48:14.607827  8548 layer_factory.hpp:77] Creating layer ip3
I0507 22:48:14.607833  8548 net.cpp:94] Creating Layer ip3
I0507 22:48:14.607836  8548 net.cpp:435] ip3 <- ip2
I0507 22:48:14.607841  8548 net.cpp:409] ip3 -> ip3
I0507 22:48:14.608050  8548 net.cpp:144] Setting up ip3
I0507 22:48:14.608062  8548 net.cpp:151] Top shape: 20 50 (1000)
I0507 22:48:14.608065  8548 net.cpp:159] Memory required for data: 11950320
I0507 22:48:14.608070  8548 layer_factory.hpp:77] Creating layer loss
I0507 22:48:14.608078  8548 net.cpp:94] Creating Layer loss
I0507 22:48:14.608080  8548 net.cpp:435] loss <- ip3
I0507 22:48:14.608083  8548 net.cpp:435] loss <- label
I0507 22:48:14.608091  8548 net.cpp:409] loss -> loss
I0507 22:48:14.608098  8548 layer_factory.hpp:77] Creating layer loss
…
I0507 22:48:14.608626  8548 solver.cpp:181] Creating test net (#0) specified by net file: ./protocol/dis_5_400_dimension.protocol_distribution
I0507 22:48:14.608654  8548 net.cpp:323] The NetState phase (1) differed from the phase (0) specified by a rule in layer parameters
I0507 22:48:14.608750  8548 net.cpp:52] Initializing net from parameters: 
state {
  phase: TEST
}
layer {
  name: "intercept"
  type: "HDF5Data"
  top: "data"
  top: "label"
  include {
    phase: TEST
  }
  hdf5_data_param {
    source: "/home/purduethu/scratch/radon/d/deng106/CNNStatisticalModel/distributions/input/5_distributions_400_sample_size_test-distributions-path.txt"
    batch_size: 20
  }
}
layer {
  name: "conv1"
  type: "Convolution"
  bottom: "data"
  top: "conv1"
  param {
    lr_mult: 1
  }
  param {
    lr_mult: 2
  }
  convolution_param {
    num_output: 64
    pad: 2
    kernel_size: 5
    stride: 1
    weight_filler {
      type: "gaussian"
      std: 0.0001
    }
    bias_filler {
      type: "constant"
    }
  }
}
layer {
  name: "relu1"
  type: "ReLU"
  bottom: "conv1"
  top: "conv1"
}
layer {
  name: "conv2"
  type: "Convolution"
  bottom: "conv1"
  top: "conv2"
  param {
    lr_mult: 1
  }
  param {
    lr_mult: 2
  }
  convolution_param {
    num_output: 64
    pad: 2
    kernel_size: 5
    stride: 1
    weight_filler {
      type: "gaussian"
      std: 0.01
    }
    bias_filler {
      type: "constant"
    }
  }
}
layer {
  name: "relu2"
  type: "ReLU"
  bottom: "conv2"
  top: "conv2"
}
layer {
  name: "pool2"
  type: "Pooling"
  bottom: "conv2"
  top: "pool2"
  pooling_param {
    pool: MAX
    kernel_size: 3
    stride: 2
  }
}
layer {
  name: "conv3"
  type: "Convolution"
  bottom: "pool2"
  top: "conv3"
  param {
    lr_mult: 1
  }
  param {
    lr_mult: 2
  }
  convolution_param {
    num_output: 64
    pad: 2
    kernel_size: 5
    stride: 1
    weight_filler {
      type: "gaussian"
      std: 0.01
    }
    bias_filler {
      type: "constant"
    }
  }
}
layer {
  name: "relu3"
  type: "ReLU"
  bottom: "conv3"
  top: "conv3"
}
layer {
  name: "conv4"
  type: "Convolution"
  bottom: "conv3"
  top: "conv4"
  param {
    lr_mult: 1
  }
  param {
    lr_mult: 2
  }
  convolution_param {
    num_output: 64
    pad: 2
    kernel_size: 5
    stride: 1
    weight_filler {
      type: "gaussian"
      std: 0.01
    }
    bias_filler {
      type: "constant"
    }
  }
}
layer {
  name: "relu4"
  type: "ReLU"
  bottom: "conv4"
  top: "conv4"
}
layer {
  name: "conv5"
  type: "Convolution"
  bottom: "conv4"
  top: "conv5"
  param {
    lr_mult: 1
  }
  param {
    lr_mult: 2
  }
  convolution_param {
    num_output: 64
    pad: 2
    kernel_size: 5
    stride: 1
    weight_filler {
      type: "gaussian"
      std: 0.01
    }
    bias_filler {
      type: "constant"
    }
  }
}
layer {
  name: "relu5"
  type: "ReLU"
  bottom: "conv5"
  top: "conv5"
}
layer {
  name: "pool5"
  type: "Pooling"
  bottom: "conv5"
  top: "pool5"
  pooling_param {
    pool: AVE
    kernel_size: 3
    stride: 2
  }
}
layer {
  name: "ip1"
  type: "InnerProduct"
  bottom: "pool5"
  top: "ip1"
  param {
    lr_mult: 1
  }
  param {
    lr_mult: 2
  }
  inner_product_param {
    num_output: 64
    weight_filler {
      type: "gaussian"
      std: 0.1
    }
    bias_filler {
      type: "constant"
    }
  }
}
layer {
  name: "ip2"
  type: "InnerProduct"
  bottom: "ip1"
  top: "ip2"
  param {
    lr_mult: 1
  }
  param {
    lr_mult: 2
  }
  inner_product_param {
    num_output: 64
    weight_filler {
      type: "gaussian"
      std: 0.1
    }
    bias_filler {
      type: "constant"
    }
  }
}
layer {
  name: "ip3"
  type: "InnerProduct"
  bottom: "ip2"
  top: "ip3"
  param {
    lr_mult: 1
  }
  param {
    lr_mult: 2
  }
  inner_product_param {
    num_output: 50
    weight_filler {
      type: "gaussian"
      std: 0.1
    }
    bias_filler {
      type: "constant"
    }
  }
}
layer {
  name: "accuracy"
  type: "Accuracy"
  bottom: "ip3"
  bottom: "label"
  top: "accuracy"
  include {
    phase: TEST
  }
}
layer {
  name: "loss"
  type: "SoftmaxWithLoss"
  bottom: "ip3"
  bottom: "label"
  top: "loss"
}
I0507 22:48:14.608822  8548 layer_factory.hpp:77] Creating layer intercept
I0507 22:48:14.608831  8548 net.cpp:94] Creating Layer intercept
I0507 22:48:14.608835  8548 net.cpp:409] intercept -> data
I0507 22:48:14.608841  8548 net.cpp:409] intercept -> label
I0507 22:48:14.608847  8548 hdf5_data_layer.cpp:79] Loading list of HDF5 filenames from: /home/purduethu/scratch/radon/d/deng106/CNNStatisticalModel/distributions/input/5_distributions_400_sample_size_test-distributions-path.txt
I0507 22:48:14.608866  8548 hdf5_data_layer.cpp:93] Number of HDF5 files: 1
I0507 22:48:14.625125  8548 net.cpp:144] Setting up intercept
I0507 22:48:14.625157  8548 net.cpp:151] Top shape: 20 1 20 20 (8000)
I0507 22:48:14.625162  8548 net.cpp:151] Top shape: 20 (20)
I0507 22:48:14.625166  8548 net.cpp:159] Memory required for data: 32080
I0507 22:48:14.625172  8548 layer_factory.hpp:77] Creating layer label_intercept_1_split
I0507 22:48:14.625188  8548 net.cpp:94] Creating Layer label_intercept_1_split
I0507 22:48:14.625193  8548 net.cpp:435] label_intercept_1_split <- label
I0507 22:48:14.625198  8548 net.cpp:409] label_intercept_1_split -> label_intercept_1_split_0
I0507 22:48:14.625207  8548 net.cpp:409] label_intercept_1_split -> label_intercept_1_split_1
I0507 22:48:14.625252  8548 net.cpp:144] Setting up label_intercept_1_split
I0507 22:48:14.625257  8548 net.cpp:151] Top shape: 20 (20)
I0507 22:48:14.625262  8548 net.cpp:151] Top shape: 20 (20)
I0507 22:48:14.625264  8548 net.cpp:159] Memory required for data: 32240
I0507 22:48:14.625267  8548 layer_factory.hpp:77] Creating layer conv1
I0507 22:48:14.625277  8548 net.cpp:94] Creating Layer conv1
I0507 22:48:14.625280  8548 net.cpp:435] conv1 <- data
I0507 22:48:14.625285  8548 net.cpp:409] conv1 -> conv1
I0507 22:48:14.626652  8548 net.cpp:144] Setting up conv1
I0507 22:48:14.626672  8548 net.cpp:151] Top shape: 20 64 20 20 (512000)
I0507 22:48:14.626677  8548 net.cpp:159] Memory required for data: 2080240
I0507 22:48:14.626687  8548 layer_factory.hpp:77] Creating layer relu1
I0507 22:48:14.626693  8548 net.cpp:94] Creating Layer relu1
I0507 22:48:14.626696  8548 net.cpp:435] relu1 <- conv1
I0507 22:48:14.626700  8548 net.cpp:396] relu1 -> conv1 (in-place)
I0507 22:48:14.626708  8548 net.cpp:144] Setting up relu1
I0507 22:48:14.626713  8548 net.cpp:151] Top shape: 20 64 20 20 (512000)
I0507 22:48:14.626714  8548 net.cpp:159] Memory required for data: 4128240
I0507 22:48:14.626718  8548 layer_factory.hpp:77] Creating layer conv2
I0507 22:48:14.626725  8548 net.cpp:94] Creating Layer conv2
I0507 22:48:14.626729  8548 net.cpp:435] conv2 <- conv1
I0507 22:48:14.626734  8548 net.cpp:409] conv2 -> conv2
I0507 22:48:14.632612  8548 net.cpp:144] Setting up conv2
I0507 22:48:14.632627  8548 net.cpp:151] Top shape: 20 64 20 20 (512000)
I0507 22:48:14.632630  8548 net.cpp:159] Memory required for data: 6176240
I0507 22:48:14.632638  8548 layer_factory.hpp:77] Creating layer relu2
I0507 22:48:14.632644  8548 net.cpp:94] Creating Layer relu2
I0507 22:48:14.632648  8548 net.cpp:435] relu2 <- conv2
I0507 22:48:14.632652  8548 net.cpp:396] relu2 -> conv2 (in-place)
I0507 22:48:14.632659  8548 net.cpp:144] Setting up relu2
I0507 22:48:14.632663  8548 net.cpp:151] Top shape: 20 64 20 20 (512000)
I0507 22:48:14.632666  8548 net.cpp:159] Memory required for data: 8224240
I0507 22:48:14.632669  8548 layer_factory.hpp:77] Creating layer pool2
I0507 22:48:14.632674  8548 net.cpp:94] Creating Layer pool2
I0507 22:48:14.632678  8548 net.cpp:435] pool2 <- conv2
I0507 22:48:14.632681  8548 net.cpp:409] pool2 -> pool2
I0507 22:48:14.632736  8548 net.cpp:144] Setting up pool2
I0507 22:48:14.632742  8548 net.cpp:151] Top shape: 20 64 10 10 (128000)
I0507 22:48:14.632745  8548 net.cpp:159] Memory required for data: 8736240
I0507 22:48:14.632748  8548 layer_factory.hpp:77] Creating layer conv3
I0507 22:48:14.632756  8548 net.cpp:94] Creating Layer conv3
I0507 22:48:14.632760  8548 net.cpp:435] conv3 <- pool2
I0507 22:48:14.632764  8548 net.cpp:409] conv3 -> conv3
I0507 22:48:14.636677  8548 net.cpp:144] Setting up conv3
I0507 22:48:14.636690  8548 net.cpp:151] Top shape: 20 64 10 10 (128000)
I0507 22:48:14.636694  8548 net.cpp:159] Memory required for data: 9248240
I0507 22:48:14.636703  8548 layer_factory.hpp:77] Creating layer relu3
I0507 22:48:14.636709  8548 net.cpp:94] Creating Layer relu3
I0507 22:48:14.636713  8548 net.cpp:435] relu3 <- conv3
I0507 22:48:14.636718  8548 net.cpp:396] relu3 -> conv3 (in-place)
I0507 22:48:14.636723  8548 net.cpp:144] Setting up relu3
I0507 22:48:14.636729  8548 net.cpp:151] Top shape: 20 64 10 10 (128000)
I0507 22:48:14.636730  8548 net.cpp:159] Memory required for data: 9760240
I0507 22:48:14.636734  8548 layer_factory.hpp:77] Creating layer conv4
I0507 22:48:14.636741  8548 net.cpp:94] Creating Layer conv4
I0507 22:48:14.636744  8548 net.cpp:435] conv4 <- conv3
I0507 22:48:14.636749  8548 net.cpp:409] conv4 -> conv4
I0507 22:48:14.640275  8548 net.cpp:144] Setting up conv4
I0507 22:48:14.640287  8548 net.cpp:151] Top shape: 20 64 10 10 (128000)
I0507 22:48:14.640290  8548 net.cpp:159] Memory required for data: 10272240
I0507 22:48:14.640296  8548 layer_factory.hpp:77] Creating layer relu4
I0507 22:48:14.640302  8548 net.cpp:94] Creating Layer relu4
I0507 22:48:14.640305  8548 net.cpp:435] relu4 <- conv4
I0507 22:48:14.640310  8548 net.cpp:396] relu4 -> conv4 (in-place)
I0507 22:48:14.640316  8548 net.cpp:144] Setting up relu4
I0507 22:48:14.640321  8548 net.cpp:151] Top shape: 20 64 10 10 (128000)
I0507 22:48:14.640323  8548 net.cpp:159] Memory required for data: 10784240
I0507 22:48:14.640326  8548 layer_factory.hpp:77] Creating layer conv5
I0507 22:48:14.640333  8548 net.cpp:94] Creating Layer conv5
I0507 22:48:14.640336  8548 net.cpp:435] conv5 <- conv4
I0507 22:48:14.640341  8548 net.cpp:409] conv5 -> conv5
I0507 22:48:14.644273  8548 net.cpp:144] Setting up conv5
I0507 22:48:14.644289  8548 net.cpp:151] Top shape: 20 64 10 10 (128000)
I0507 22:48:14.644294  8548 net.cpp:159] Memory required for data: 11296240
I0507 22:48:14.644302  8548 layer_factory.hpp:77] Creating layer relu5
I0507 22:48:14.644307  8548 net.cpp:94] Creating Layer relu5
I0507 22:48:14.644311  8548 net.cpp:435] relu5 <- conv5
I0507 22:48:14.644315  8548 net.cpp:396] relu5 -> conv5 (in-place)
I0507 22:48:14.644322  8548 net.cpp:144] Setting up relu5
I0507 22:48:14.644326  8548 net.cpp:151] Top shape: 20 64 10 10 (128000)
I0507 22:48:14.644330  8548 net.cpp:159] Memory required for data: 11808240
I0507 22:48:14.644332  8548 layer_factory.hpp:77] Creating layer pool5
I0507 22:48:14.644337  8548 net.cpp:94] Creating Layer pool5
I0507 22:48:14.644340  8548 net.cpp:435] pool5 <- conv5
I0507 22:48:14.644345  8548 net.cpp:409] pool5 -> pool5
I0507 22:48:14.644381  8548 net.cpp:144] Setting up pool5
I0507 22:48:14.644389  8548 net.cpp:151] Top shape: 20 64 5 5 (32000)
I0507 22:48:14.644392  8548 net.cpp:159] Memory required for data: 11936240
I0507 22:48:14.644395  8548 layer_factory.hpp:77] Creating layer ip1
I0507 22:48:14.644402  8548 net.cpp:94] Creating Layer ip1
I0507 22:48:14.644404  8548 net.cpp:435] ip1 <- pool5
I0507 22:48:14.644409  8548 net.cpp:409] ip1 -> ip1
I0507 22:48:14.646967  8548 net.cpp:144] Setting up ip1
I0507 22:48:14.646976  8548 net.cpp:151] Top shape: 20 64 (1280)
I0507 22:48:14.646980  8548 net.cpp:159] Memory required for data: 11941360
I0507 22:48:14.646986  8548 layer_factory.hpp:77] Creating layer ip2
I0507 22:48:14.646991  8548 net.cpp:94] Creating Layer ip2
I0507 22:48:14.646994  8548 net.cpp:435] ip2 <- ip1
I0507 22:48:14.646999  8548 net.cpp:409] ip2 -> ip2
I0507 22:48:14.647231  8548 net.cpp:144] Setting up ip2
I0507 22:48:14.647239  8548 net.cpp:151] Top shape: 20 64 (1280)
I0507 22:48:14.647243  8548 net.cpp:159] Memory required for data: 11946480
I0507 22:48:14.647248  8548 layer_factory.hpp:77] Creating layer ip3
I0507 22:48:14.647254  8548 net.cpp:94] Creating Layer ip3
I0507 22:48:14.647258  8548 net.cpp:435] ip3 <- ip2
I0507 22:48:14.647261  8548 net.cpp:409] ip3 -> ip3
I0507 22:48:14.647465  8548 net.cpp:144] Setting up ip3
I0507 22:48:14.647472  8548 net.cpp:151] Top shape: 20 50 (1000)
I0507 22:48:14.647475  8548 net.cpp:159] Memory required for data: 11950480
I0507 22:48:14.647480  8548 layer_factory.hpp:77] Creating layer ip3_ip3_0_split
I0507 22:48:14.647485  8548 net.cpp:94] Creating Layer ip3_ip3_0_split
I0507 22:48:14.647490  8548 net.cpp:435] ip3_ip3_0_split <- ip3
I0507 22:48:14.647493  8548 net.cpp:409] ip3_ip3_0_split -> ip3_ip3_0_split_0
I0507 22:48:14.647498  8548 net.cpp:409] ip3_ip3_0_split -> ip3_ip3_0_split_1
I0507 22:48:14.647539  8548 net.cpp:144] Setting up ip3_ip3_0_split
I0507 22:48:14.647545  8548 net.cpp:151] Top shape: 20 50 (1000)
I0507 22:48:14.647549  8548 net.cpp:151] Top shape: 20 50 (1000)
I0507 22:48:14.647552  8548 net.cpp:159] Memory required for data: 11958480
I0507 22:48:14.647554  8548 layer_factory.hpp:77] Creating layer accuracy
I0507 22:48:14.647560  8548 net.cpp:94] Creating Layer accuracy
I0507 22:48:14.647563  8548 net.cpp:435] accuracy <- ip3_ip3_0_split_0
I0507 22:48:14.647567  8548 net.cpp:435] accuracy <- label_intercept_1_split_0
I0507 22:48:14.647572  8548 net.cpp:409] accuracy -> accuracy
…
