…
I0501 02:25:43.368449 29751 net.cpp:323] The NetState phase (0) differed from the phase (1) specified by a rule in layer intercept
I0501 02:25:43.368466 29751 net.cpp:323] The NetState phase (0) differed from the phase (1) specified by a rule in layer loss
I0501 02:25:43.368572 29751 net.cpp:52] Initializing net from parameters: 
state {
  phase: TRAIN
}
layer {
  name: "parameters"
  type: "HDF5Data"
  top: "data"
  top: "label"
  include {
    phase: TRAIN
  }
  hdf5_data_param {
    source: "/home/purduethu/scratch/radon/d/deng106/CNNStatisticalModel/distributions/input/50_distributions_900_sample_size_train-parameters-path.txt"
    batch_size: 20
  }
}
layer {
  name: "conv1"
  type: "Convolution"
  bottom: "data"
  top: "conv1"
  param {
    lr_mult: 1
  }
  param {
    lr_mult: 2
  }
  convolution_param {
    num_output: 64
    pad: 2
    kernel_size: 5
    stride: 1
    weight_filler {
      type: "gaussian"
      std: 0.0001
    }
    bias_filler {
      type: "constant"
    }
  }
}
layer {
  name: "relu1"
  type: "ReLU"
  bottom: "conv1"
  top: "conv1"
}
layer {
  name: "conv2"
  type: "Convolution"
  bottom: "conv1"
  top: "conv2"
  param {
    lr_mult: 1
  }
  param {
    lr_mult: 2
  }
  convolution_param {
    num_output: 64
    pad: 2
    kernel_size: 5
    stride: 1
    weight_filler {
      type: "gaussian"
      std: 0.01
    }
    bias_filler {
      type: "constant"
    }
  }
}
layer {
  name: "relu2"
  type: "ReLU"
  bottom: "conv2"
  top: "conv2"
}
layer {
  name: "pool2"
  type: "Pooling"
  bottom: "conv2"
  top: "pool2"
  pooling_param {
    pool: MAX
    kernel_size: 3
    stride: 2
  }
}
layer {
  name: "conv3"
  type: "Convolution"
  bottom: "pool2"
  top: "conv3"
  param {
    lr_mult: 1
  }
  param {
    lr_mult: 2
  }
  convolution_param {
    num_output: 128
    pad: 2
    kernel_size: 5
    stride: 1
    weight_filler {
      type: "gaussian"
      std: 0.01
    }
    bias_filler {
      type: "constant"
    }
  }
}
layer {
  name: "relu3"
  type: "ReLU"
  bottom: "conv3"
  top: "conv3"
}
layer {
  name: "conv4"
  type: "Convolution"
  bottom: "conv3"
  top: "conv4"
  param {
    lr_mult: 1
  }
  param {
    lr_mult: 2
  }
  convolution_param {
    num_output: 128
    pad: 2
    kernel_size: 5
    stride: 1
    weight_filler {
      type: "gaussian"
      std: 0.01
    }
    bias_filler {
      type: "constant"
    }
  }
}
layer {
  name: "relu4"
  type: "ReLU"
  bottom: "conv4"
  top: "conv4"
}
layer {
  name: "conv5"
  type: "Convolution"
  bottom: "conv4"
  top: "conv5"
  param {
    lr_mult: 1
  }
  param {
    lr_mult: 2
  }
  convolution_param {
    num_output: 128
    pad: 2
    kernel_size: 5
    stride: 1
    weight_filler {
      type: "gaussian"
      std: 0.01
    }
    bias_filler {
      type: "constant"
    }
  }
}
layer {
  name: "relu5"
  type: "ReLU"
  bottom: "conv5"
  top: "conv5"
}
layer {
  name: "pool5"
  type: "Pooling"
  bottom: "conv5"
  top: "pool5"
  pooling_param {
    pool: AVE
    kernel_size: 3
    stride: 2
  }
}
layer {
  name: "ip1"
  type: "InnerProduct"
  bottom: "pool5"
  top: "ip1"
  param {
    lr_mult: 1
  }
  param {
    lr_mult: 2
  }
  inner_product_param {
    num_output: 1024
    weight_filler {
      type: "gaussian"
      std: 0.1
    }
    bias_filler {
      type: "constant"
    }
  }
}
layer {
  name: "ip2"
  type: "InnerProduct"
  bottom: "ip1"
  top: "ip2"
  param {
    lr_mult: 1
  }
  param {
    lr_mult: 2
  }
  inner_product_param {
    num_output: 512
    weight_filler {
      type: "gaussian"
      std: 0.1
    }
    bias_filler {
      type: "constant"
    }
  }
}
layer {
  name: "ip3"
  type: "InnerProduct"
  bottom: "ip2"
  top: "ip3"
  param {
    lr_mult: 1
  }
  param {
    lr_mult: 2
  }
  inner_product_param {
    num_output: 1
    weight_filler {
      type: "gaussian"
      std: 0.1
    }
    bias_filler {
      type: "constant"
    }
  }
}
layer {
  name: "loss"
  type: "HuberLoss"
  bottom: "ip3"
  bottom: "label"
  top: "loss"
  include {
    phase: TRAIN
  }
}
I0501 02:25:43.368651 29751 layer_factory.hpp:77] Creating layer parameters
I0501 02:25:43.368665 29751 net.cpp:94] Creating Layer parameters
I0501 02:25:43.368669 29751 net.cpp:409] parameters -> data
I0501 02:25:43.368680 29751 net.cpp:409] parameters -> label
I0501 02:25:43.368690 29751 hdf5_data_layer.cpp:79] Loading list of HDF5 filenames from: /home/purduethu/scratch/radon/d/deng106/CNNStatisticalModel/distributions/input/50_distributions_900_sample_size_train-parameters-path.txt
I0501 02:25:43.368707 29751 hdf5_data_layer.cpp:93] Number of HDF5 files: 1
I0501 02:25:43.369271 29751 hdf5.cpp:32] Datatype class: H5T_FLOAT
I0501 02:25:44.887063 29751 net.cpp:144] Setting up parameters
I0501 02:25:44.887096 29751 net.cpp:151] Top shape: 20 1 30 30 (18000)
I0501 02:25:44.887102 29751 net.cpp:151] Top shape: 20 (20)
I0501 02:25:44.887105 29751 net.cpp:159] Memory required for data: 72080
I0501 02:25:44.887111 29751 layer_factory.hpp:77] Creating layer conv1
I0501 02:25:44.887133 29751 net.cpp:94] Creating Layer conv1
I0501 02:25:44.887138 29751 net.cpp:435] conv1 <- data
I0501 02:25:44.887145 29751 net.cpp:409] conv1 -> conv1
I0501 02:25:44.893798 29751 net.cpp:144] Setting up conv1
I0501 02:25:44.893822 29751 net.cpp:151] Top shape: 20 64 30 30 (1152000)
I0501 02:25:44.893826 29751 net.cpp:159] Memory required for data: 4680080
I0501 02:25:44.893838 29751 layer_factory.hpp:77] Creating layer relu1
I0501 02:25:44.893848 29751 net.cpp:94] Creating Layer relu1
I0501 02:25:44.893852 29751 net.cpp:435] relu1 <- conv1
I0501 02:25:44.893857 29751 net.cpp:396] relu1 -> conv1 (in-place)
I0501 02:25:44.893872 29751 net.cpp:144] Setting up relu1
I0501 02:25:44.893877 29751 net.cpp:151] Top shape: 20 64 30 30 (1152000)
I0501 02:25:44.893878 29751 net.cpp:159] Memory required for data: 9288080
I0501 02:25:44.893882 29751 layer_factory.hpp:77] Creating layer conv2
I0501 02:25:44.893892 29751 net.cpp:94] Creating Layer conv2
I0501 02:25:44.893894 29751 net.cpp:435] conv2 <- conv1
I0501 02:25:44.893899 29751 net.cpp:409] conv2 -> conv2
I0501 02:25:44.912443 29751 net.cpp:144] Setting up conv2
I0501 02:25:44.912461 29751 net.cpp:151] Top shape: 20 64 30 30 (1152000)
I0501 02:25:44.912466 29751 net.cpp:159] Memory required for data: 13896080
I0501 02:25:44.912474 29751 layer_factory.hpp:77] Creating layer relu2
I0501 02:25:44.912482 29751 net.cpp:94] Creating Layer relu2
I0501 02:25:44.912487 29751 net.cpp:435] relu2 <- conv2
I0501 02:25:44.912492 29751 net.cpp:396] relu2 -> conv2 (in-place)
I0501 02:25:44.912499 29751 net.cpp:144] Setting up relu2
I0501 02:25:44.912503 29751 net.cpp:151] Top shape: 20 64 30 30 (1152000)
I0501 02:25:44.912506 29751 net.cpp:159] Memory required for data: 18504080
I0501 02:25:44.912509 29751 layer_factory.hpp:77] Creating layer pool2
I0501 02:25:44.912523 29751 net.cpp:94] Creating Layer pool2
I0501 02:25:44.912526 29751 net.cpp:435] pool2 <- conv2
I0501 02:25:44.912530 29751 net.cpp:409] pool2 -> pool2
I0501 02:25:44.912591 29751 net.cpp:144] Setting up pool2
I0501 02:25:44.912600 29751 net.cpp:151] Top shape: 20 64 15 15 (288000)
I0501 02:25:44.912603 29751 net.cpp:159] Memory required for data: 19656080
I0501 02:25:44.912606 29751 layer_factory.hpp:77] Creating layer conv3
I0501 02:25:44.912616 29751 net.cpp:94] Creating Layer conv3
I0501 02:25:44.912619 29751 net.cpp:435] conv3 <- pool2
I0501 02:25:44.912624 29751 net.cpp:409] conv3 -> conv3
I0501 02:25:44.926092 29751 net.cpp:144] Setting up conv3
I0501 02:25:44.926107 29751 net.cpp:151] Top shape: 20 128 15 15 (576000)
I0501 02:25:44.926111 29751 net.cpp:159] Memory required for data: 21960080
I0501 02:25:44.926120 29751 layer_factory.hpp:77] Creating layer relu3
I0501 02:25:44.926126 29751 net.cpp:94] Creating Layer relu3
I0501 02:25:44.926129 29751 net.cpp:435] relu3 <- conv3
I0501 02:25:44.926134 29751 net.cpp:396] relu3 -> conv3 (in-place)
I0501 02:25:44.926141 29751 net.cpp:144] Setting up relu3
I0501 02:25:44.926146 29751 net.cpp:151] Top shape: 20 128 15 15 (576000)
I0501 02:25:44.926148 29751 net.cpp:159] Memory required for data: 24264080
I0501 02:25:44.926151 29751 layer_factory.hpp:77] Creating layer conv4
I0501 02:25:44.926161 29751 net.cpp:94] Creating Layer conv4
I0501 02:25:44.926163 29751 net.cpp:435] conv4 <- conv3
I0501 02:25:44.926168 29751 net.cpp:409] conv4 -> conv4
I0501 02:25:44.954370 29751 net.cpp:144] Setting up conv4
I0501 02:25:44.954390 29751 net.cpp:151] Top shape: 20 128 15 15 (576000)
I0501 02:25:44.954393 29751 net.cpp:159] Memory required for data: 26568080
I0501 02:25:44.954401 29751 layer_factory.hpp:77] Creating layer relu4
I0501 02:25:44.954408 29751 net.cpp:94] Creating Layer relu4
I0501 02:25:44.954412 29751 net.cpp:435] relu4 <- conv4
I0501 02:25:44.954417 29751 net.cpp:396] relu4 -> conv4 (in-place)
I0501 02:25:44.954426 29751 net.cpp:144] Setting up relu4
I0501 02:25:44.954429 29751 net.cpp:151] Top shape: 20 128 15 15 (576000)
I0501 02:25:44.954432 29751 net.cpp:159] Memory required for data: 28872080
I0501 02:25:44.954435 29751 layer_factory.hpp:77] Creating layer conv5
I0501 02:25:44.954443 29751 net.cpp:94] Creating Layer conv5
I0501 02:25:44.954447 29751 net.cpp:435] conv5 <- conv4
I0501 02:25:44.954452 29751 net.cpp:409] conv5 -> conv5
I0501 02:25:44.977200 29751 net.cpp:144] Setting up conv5
I0501 02:25:44.977217 29751 net.cpp:151] Top shape: 20 128 15 15 (576000)
I0501 02:25:44.977221 29751 net.cpp:159] Memory required for data: 31176080
I0501 02:25:44.977231 29751 layer_factory.hpp:77] Creating layer relu5
I0501 02:25:44.977239 29751 net.cpp:94] Creating Layer relu5
I0501 02:25:44.977242 29751 net.cpp:435] relu5 <- conv5
I0501 02:25:44.977247 29751 net.cpp:396] relu5 -> conv5 (in-place)
I0501 02:25:44.977255 29751 net.cpp:144] Setting up relu5
I0501 02:25:44.977259 29751 net.cpp:151] Top shape: 20 128 15 15 (576000)
I0501 02:25:44.977262 29751 net.cpp:159] Memory required for data: 33480080
I0501 02:25:44.977265 29751 layer_factory.hpp:77] Creating layer pool5
I0501 02:25:44.977270 29751 net.cpp:94] Creating Layer pool5
I0501 02:25:44.977273 29751 net.cpp:435] pool5 <- conv5
I0501 02:25:44.977278 29751 net.cpp:409] pool5 -> pool5
I0501 02:25:44.977320 29751 net.cpp:144] Setting up pool5
I0501 02:25:44.977329 29751 net.cpp:151] Top shape: 20 128 7 7 (125440)
I0501 02:25:44.977331 29751 net.cpp:159] Memory required for data: 33981840
I0501 02:25:44.977334 29751 layer_factory.hpp:77] Creating layer ip1
I0501 02:25:44.977344 29751 net.cpp:94] Creating Layer ip1
I0501 02:25:44.977349 29751 net.cpp:435] ip1 <- pool5
I0501 02:25:44.977352 29751 net.cpp:409] ip1 -> ip1
I0501 02:25:45.135134 29751 net.cpp:144] Setting up ip1
I0501 02:25:45.135169 29751 net.cpp:151] Top shape: 20 1024 (20480)
I0501 02:25:45.135174 29751 net.cpp:159] Memory required for data: 34063760
I0501 02:25:45.135182 29751 layer_factory.hpp:77] Creating layer ip2
I0501 02:25:45.135193 29751 net.cpp:94] Creating Layer ip2
I0501 02:25:45.135208 29751 net.cpp:435] ip2 <- ip1
I0501 02:25:45.135215 29751 net.cpp:409] ip2 -> ip2
I0501 02:25:45.148594 29751 net.cpp:144] Setting up ip2
I0501 02:25:45.148613 29751 net.cpp:151] Top shape: 20 512 (10240)
I0501 02:25:45.148617 29751 net.cpp:159] Memory required for data: 34104720
I0501 02:25:45.148625 29751 layer_factory.hpp:77] Creating layer ip3
I0501 02:25:45.148633 29751 net.cpp:94] Creating Layer ip3
I0501 02:25:45.148638 29751 net.cpp:435] ip3 <- ip2
I0501 02:25:45.148643 29751 net.cpp:409] ip3 -> ip3
I0501 02:25:45.148761 29751 net.cpp:144] Setting up ip3
I0501 02:25:45.148768 29751 net.cpp:151] Top shape: 20 1 (20)
I0501 02:25:45.148772 29751 net.cpp:159] Memory required for data: 34104800
I0501 02:25:45.148777 29751 layer_factory.hpp:77] Creating layer loss
I0501 02:25:45.148792 29751 net.cpp:94] Creating Layer loss
I0501 02:25:45.148797 29751 net.cpp:435] loss <- ip3
I0501 02:25:45.148800 29751 net.cpp:435] loss <- label
I0501 02:25:45.148804 29751 net.cpp:409] loss -> loss
I0501 02:25:45.148856 29751 net.cpp:144] Setting up loss
…
I0501 02:25:45.747939 29751 net.cpp:323] The NetState phase (0) differed from the phase (1) specified by a rule in layer intercept
I0501 02:25:45.747954 29751 net.cpp:323] The NetState phase (0) differed from the phase (1) specified by a rule in layer accuracy
I0501 02:25:45.748041 29751 net.cpp:52] Initializing net from parameters: 
state {
  phase: TRAIN
}
layer {
  name: "parameters"
  type: "HDF5Data"
  top: "data"
  top: "label"
  include {
    phase: TRAIN
  }
  hdf5_data_param {
    source: "/home/purduethu/scratch/radon/d/deng106/CNNStatisticalModel/distributions/input/50_distributions_900_sample_size_train-distributions-path.txt"
    batch_size: 20
  }
}
layer {
  name: "conv1"
  type: "Convolution"
  bottom: "data"
  top: "conv1"
  param {
    lr_mult: 1
  }
  param {
    lr_mult: 2
  }
  convolution_param {
    num_output: 64
    pad: 2
    kernel_size: 5
    stride: 1
    weight_filler {
      type: "gaussian"
      std: 0.0001
    }
    bias_filler {
      type: "constant"
    }
  }
}
layer {
  name: "relu1"
  type: "ReLU"
  bottom: "conv1"
  top: "conv1"
}
layer {
  name: "conv2"
  type: "Convolution"
  bottom: "conv1"
  top: "conv2"
  param {
    lr_mult: 1
  }
  param {
    lr_mult: 2
  }
  convolution_param {
    num_output: 64
    pad: 2
    kernel_size: 5
    stride: 1
    weight_filler {
      type: "gaussian"
      std: 0.01
    }
    bias_filler {
      type: "constant"
    }
  }
}
layer {
  name: "relu2"
  type: "ReLU"
  bottom: "conv2"
  top: "conv2"
}
layer {
  name: "pool2"
  type: "Pooling"
  bottom: "conv2"
  top: "pool2"
  pooling_param {
    pool: MAX
    kernel_size: 3
    stride: 2
  }
}
layer {
  name: "conv3"
  type: "Convolution"
  bottom: "pool2"
  top: "conv3"
  param {
    lr_mult: 1
  }
  param {
    lr_mult: 2
  }
  convolution_param {
    num_output: 128
    pad: 2
    kernel_size: 5
    stride: 1
    weight_filler {
      type: "gaussian"
      std: 0.01
    }
    bias_filler {
      type: "constant"
    }
  }
}
layer {
  name: "relu3"
  type: "ReLU"
  bottom: "conv3"
  top: "conv3"
}
layer {
  name: "conv4"
  type: "Convolution"
  bottom: "conv3"
  top: "conv4"
  param {
    lr_mult: 1
  }
  param {
    lr_mult: 2
  }
  convolution_param {
    num_output: 128
    pad: 2
    kernel_size: 5
    stride: 1
    weight_filler {
      type: "gaussian"
      std: 0.01
    }
    bias_filler {
      type: "constant"
    }
  }
}
layer {
  name: "relu4"
  type: "ReLU"
  bottom: "conv4"
  top: "conv4"
}
layer {
  name: "conv5"
  type: "Convolution"
  bottom: "conv4"
  top: "conv5"
  param {
    lr_mult: 1
  }
  param {
    lr_mult: 2
  }
  convolution_param {
    num_output: 128
    pad: 2
    kernel_size: 5
    stride: 1
    weight_filler {
      type: "gaussian"
      std: 0.01
    }
    bias_filler {
      type: "constant"
    }
  }
}
layer {
  name: "relu5"
  type: "ReLU"
  bottom: "conv5"
  top: "conv5"
}
layer {
  name: "pool5"
  type: "Pooling"
  bottom: "conv5"
  top: "pool5"
  pooling_param {
    pool: AVE
    kernel_size: 3
    stride: 2
  }
}
layer {
  name: "ip1"
  type: "InnerProduct"
  bottom: "pool5"
  top: "ip1"
  param {
    lr_mult: 1
  }
  param {
    lr_mult: 2
  }
  inner_product_param {
    num_output: 1024
    weight_filler {
      type: "gaussian"
      std: 0.1
    }
    bias_filler {
      type: "constant"
    }
  }
}
layer {
  name: "ip2"
  type: "InnerProduct"
  bottom: "ip1"
  top: "ip2"
  param {
    lr_mult: 1
  }
  param {
    lr_mult: 2
  }
  inner_product_param {
    num_output: 512
    weight_filler {
      type: "gaussian"
      std: 0.1
    }
    bias_filler {
      type: "constant"
    }
  }
}
layer {
  name: "ip3"
  type: "InnerProduct"
  bottom: "ip2"
  top: "ip3"
  param {
    lr_mult: 1
  }
  param {
    lr_mult: 2
  }
  inner_product_param {
    num_output: 50
    weight_filler {
      type: "gaussian"
      std: 0.1
    }
    bias_filler {
      type: "constant"
    }
  }
}
layer {
  name: "loss"
  type: "SoftmaxWithLoss"
  bottom: "ip3"
  bottom: "label"
  top: "loss"
}
I0501 02:25:45.748095 29751 layer_factory.hpp:77] Creating layer parameters
I0501 02:25:45.748102 29751 net.cpp:94] Creating Layer parameters
I0501 02:25:45.748106 29751 net.cpp:409] parameters -> data
I0501 02:25:45.748113 29751 net.cpp:409] parameters -> label
I0501 02:25:45.748119 29751 hdf5_data_layer.cpp:79] Loading list of HDF5 filenames from: /home/purduethu/scratch/radon/d/deng106/CNNStatisticalModel/distributions/input/50_distributions_900_sample_size_train-distributions-path.txt
I0501 02:25:45.748136 29751 hdf5_data_layer.cpp:93] Number of HDF5 files: 1
I0501 02:25:47.244246 29751 hdf5.cpp:35] Datatype class: H5T_INTEGER
I0501 02:25:47.247364 29751 net.cpp:144] Setting up parameters
I0501 02:25:47.247386 29751 net.cpp:151] Top shape: 20 1 30 30 (18000)
I0501 02:25:47.247392 29751 net.cpp:151] Top shape: 20 (20)
I0501 02:25:47.247395 29751 net.cpp:159] Memory required for data: 72080
I0501 02:25:47.247401 29751 layer_factory.hpp:77] Creating layer conv1
I0501 02:25:47.247419 29751 net.cpp:94] Creating Layer conv1
I0501 02:25:47.247424 29751 net.cpp:435] conv1 <- data
I0501 02:25:47.247431 29751 net.cpp:409] conv1 -> conv1
I0501 02:25:47.251713 29751 net.cpp:144] Setting up conv1
I0501 02:25:47.251732 29751 net.cpp:151] Top shape: 20 64 30 30 (1152000)
I0501 02:25:47.251737 29751 net.cpp:159] Memory required for data: 4680080
I0501 02:25:47.251749 29751 layer_factory.hpp:77] Creating layer relu1
I0501 02:25:47.251757 29751 net.cpp:94] Creating Layer relu1
I0501 02:25:47.251761 29751 net.cpp:435] relu1 <- conv1
I0501 02:25:47.251765 29751 net.cpp:396] relu1 -> conv1 (in-place)
I0501 02:25:47.251773 29751 net.cpp:144] Setting up relu1
I0501 02:25:47.251778 29751 net.cpp:151] Top shape: 20 64 30 30 (1152000)
I0501 02:25:47.251781 29751 net.cpp:159] Memory required for data: 9288080
I0501 02:25:47.251785 29751 layer_factory.hpp:77] Creating layer conv2
I0501 02:25:47.251793 29751 net.cpp:94] Creating Layer conv2
I0501 02:25:47.251797 29751 net.cpp:435] conv2 <- conv1
I0501 02:25:47.251802 29751 net.cpp:409] conv2 -> conv2
I0501 02:25:47.267894 29751 net.cpp:144] Setting up conv2
I0501 02:25:47.267910 29751 net.cpp:151] Top shape: 20 64 30 30 (1152000)
I0501 02:25:47.267915 29751 net.cpp:159] Memory required for data: 13896080
I0501 02:25:47.267923 29751 layer_factory.hpp:77] Creating layer relu2
I0501 02:25:47.267930 29751 net.cpp:94] Creating Layer relu2
I0501 02:25:47.267935 29751 net.cpp:435] relu2 <- conv2
I0501 02:25:47.267940 29751 net.cpp:396] relu2 -> conv2 (in-place)
I0501 02:25:47.267946 29751 net.cpp:144] Setting up relu2
I0501 02:25:47.267951 29751 net.cpp:151] Top shape: 20 64 30 30 (1152000)
I0501 02:25:47.267954 29751 net.cpp:159] Memory required for data: 18504080
I0501 02:25:47.267957 29751 layer_factory.hpp:77] Creating layer pool2
I0501 02:25:47.267963 29751 net.cpp:94] Creating Layer pool2
I0501 02:25:47.267966 29751 net.cpp:435] pool2 <- conv2
I0501 02:25:47.267971 29751 net.cpp:409] pool2 -> pool2
I0501 02:25:47.268029 29751 net.cpp:144] Setting up pool2
I0501 02:25:47.268038 29751 net.cpp:151] Top shape: 20 64 15 15 (288000)
I0501 02:25:47.268040 29751 net.cpp:159] Memory required for data: 19656080
I0501 02:25:47.268043 29751 layer_factory.hpp:77] Creating layer conv3
I0501 02:25:47.268052 29751 net.cpp:94] Creating Layer conv3
I0501 02:25:47.268062 29751 net.cpp:435] conv3 <- pool2
I0501 02:25:47.268069 29751 net.cpp:409] conv3 -> conv3
I0501 02:25:47.281888 29751 net.cpp:144] Setting up conv3
I0501 02:25:47.281905 29751 net.cpp:151] Top shape: 20 128 15 15 (576000)
I0501 02:25:47.281909 29751 net.cpp:159] Memory required for data: 21960080
I0501 02:25:47.281918 29751 layer_factory.hpp:77] Creating layer relu3
I0501 02:25:47.281924 29751 net.cpp:94] Creating Layer relu3
I0501 02:25:47.281929 29751 net.cpp:435] relu3 <- conv3
I0501 02:25:47.281932 29751 net.cpp:396] relu3 -> conv3 (in-place)
I0501 02:25:47.281940 29751 net.cpp:144] Setting up relu3
I0501 02:25:47.281945 29751 net.cpp:151] Top shape: 20 128 15 15 (576000)
I0501 02:25:47.281947 29751 net.cpp:159] Memory required for data: 24264080
I0501 02:25:47.281950 29751 layer_factory.hpp:77] Creating layer conv4
I0501 02:25:47.281960 29751 net.cpp:94] Creating Layer conv4
I0501 02:25:47.281963 29751 net.cpp:435] conv4 <- conv3
I0501 02:25:47.281968 29751 net.cpp:409] conv4 -> conv4
I0501 02:25:47.305269 29751 net.cpp:144] Setting up conv4
I0501 02:25:47.305312 29751 net.cpp:151] Top shape: 20 128 15 15 (576000)
I0501 02:25:47.305323 29751 net.cpp:159] Memory required for data: 26568080
I0501 02:25:47.305341 29751 layer_factory.hpp:77] Creating layer relu4
I0501 02:25:47.305358 29751 net.cpp:94] Creating Layer relu4
I0501 02:25:47.305369 29751 net.cpp:435] relu4 <- conv4
I0501 02:25:47.305382 29751 net.cpp:396] relu4 -> conv4 (in-place)
I0501 02:25:47.305402 29751 net.cpp:144] Setting up relu4
I0501 02:25:47.305414 29751 net.cpp:151] Top shape: 20 128 15 15 (576000)
I0501 02:25:47.305423 29751 net.cpp:159] Memory required for data: 28872080
I0501 02:25:47.305431 29751 layer_factory.hpp:77] Creating layer conv5
I0501 02:25:47.305451 29751 net.cpp:94] Creating Layer conv5
I0501 02:25:47.305461 29751 net.cpp:435] conv5 <- conv4
I0501 02:25:47.305474 29751 net.cpp:409] conv5 -> conv5
I0501 02:25:47.328325 29751 net.cpp:144] Setting up conv5
I0501 02:25:47.328344 29751 net.cpp:151] Top shape: 20 128 15 15 (576000)
I0501 02:25:47.328348 29751 net.cpp:159] Memory required for data: 31176080
I0501 02:25:47.328358 29751 layer_factory.hpp:77] Creating layer relu5
I0501 02:25:47.328366 29751 net.cpp:94] Creating Layer relu5
I0501 02:25:47.328369 29751 net.cpp:435] relu5 <- conv5
I0501 02:25:47.328374 29751 net.cpp:396] relu5 -> conv5 (in-place)
I0501 02:25:47.328382 29751 net.cpp:144] Setting up relu5
I0501 02:25:47.328387 29751 net.cpp:151] Top shape: 20 128 15 15 (576000)
I0501 02:25:47.328389 29751 net.cpp:159] Memory required for data: 33480080
I0501 02:25:47.328392 29751 layer_factory.hpp:77] Creating layer pool5
I0501 02:25:47.328397 29751 net.cpp:94] Creating Layer pool5
I0501 02:25:47.328400 29751 net.cpp:435] pool5 <- conv5
I0501 02:25:47.328405 29751 net.cpp:409] pool5 -> pool5
I0501 02:25:47.328446 29751 net.cpp:144] Setting up pool5
I0501 02:25:47.328454 29751 net.cpp:151] Top shape: 20 128 7 7 (125440)
I0501 02:25:47.328456 29751 net.cpp:159] Memory required for data: 33981840
I0501 02:25:47.328459 29751 layer_factory.hpp:77] Creating layer ip1
I0501 02:25:47.328467 29751 net.cpp:94] Creating Layer ip1
I0501 02:25:47.328470 29751 net.cpp:435] ip1 <- pool5
I0501 02:25:47.328474 29751 net.cpp:409] ip1 -> ip1
I0501 02:25:47.484575 29751 net.cpp:144] Setting up ip1
I0501 02:25:47.484611 29751 net.cpp:151] Top shape: 20 1024 (20480)
I0501 02:25:47.484614 29751 net.cpp:159] Memory required for data: 34063760
I0501 02:25:47.484623 29751 layer_factory.hpp:77] Creating layer ip2
I0501 02:25:47.484634 29751 net.cpp:94] Creating Layer ip2
I0501 02:25:47.484639 29751 net.cpp:435] ip2 <- ip1
I0501 02:25:47.484645 29751 net.cpp:409] ip2 -> ip2
I0501 02:25:47.497990 29751 net.cpp:144] Setting up ip2
I0501 02:25:47.498008 29751 net.cpp:151] Top shape: 20 512 (10240)
I0501 02:25:47.498013 29751 net.cpp:159] Memory required for data: 34104720
I0501 02:25:47.498019 29751 layer_factory.hpp:77] Creating layer ip3
I0501 02:25:47.498028 29751 net.cpp:94] Creating Layer ip3
I0501 02:25:47.498033 29751 net.cpp:435] ip3 <- ip2
I0501 02:25:47.498044 29751 net.cpp:409] ip3 -> ip3
I0501 02:25:47.499979 29751 net.cpp:144] Setting up ip3
I0501 02:25:47.499997 29751 net.cpp:151] Top shape: 20 50 (1000)
I0501 02:25:47.500003 29751 net.cpp:159] Memory required for data: 34108720
I0501 02:25:47.500013 29751 layer_factory.hpp:77] Creating layer loss
I0501 02:25:47.500026 29751 net.cpp:94] Creating Layer loss
I0501 02:25:47.500031 29751 net.cpp:435] loss <- ip3
I0501 02:25:47.500038 29751 net.cpp:435] loss <- label
I0501 02:25:47.500046 29751 net.cpp:409] loss -> loss
I0501 02:25:47.500056 29751 layer_factory.hpp:77] Creating layer loss
…
I0501 02:25:47.500854 29751 solver.cpp:181] Creating test net (#0) specified by net file: ./protocol/dis_50_900_dimension.protocol_distribution
I0501 02:25:47.500908 29751 net.cpp:323] The NetState phase (1) differed from the phase (0) specified by a rule in layer parameters
I0501 02:25:47.501060 29751 net.cpp:52] Initializing net from parameters: 
state {
  phase: TEST
}
layer {
  name: "intercept"
  type: "HDF5Data"
  top: "data"
  top: "label"
  include {
    phase: TEST
  }
  hdf5_data_param {
    source: "/home/purduethu/scratch/radon/d/deng106/CNNStatisticalModel/distributions/input/50_distributions_900_sample_size_test-distributions-path.txt"
    batch_size: 20
  }
}
layer {
  name: "conv1"
  type: "Convolution"
  bottom: "data"
  top: "conv1"
  param {
    lr_mult: 1
  }
  param {
    lr_mult: 2
  }
  convolution_param {
    num_output: 64
    pad: 2
    kernel_size: 5
    stride: 1
    weight_filler {
      type: "gaussian"
      std: 0.0001
    }
    bias_filler {
      type: "constant"
    }
  }
}
layer {
  name: "relu1"
  type: "ReLU"
  bottom: "conv1"
  top: "conv1"
}
layer {
  name: "conv2"
  type: "Convolution"
  bottom: "conv1"
  top: "conv2"
  param {
    lr_mult: 1
  }
  param {
    lr_mult: 2
  }
  convolution_param {
    num_output: 64
    pad: 2
    kernel_size: 5
    stride: 1
    weight_filler {
      type: "gaussian"
      std: 0.01
    }
    bias_filler {
      type: "constant"
    }
  }
}
layer {
  name: "relu2"
  type: "ReLU"
  bottom: "conv2"
  top: "conv2"
}
layer {
  name: "pool2"
  type: "Pooling"
  bottom: "conv2"
  top: "pool2"
  pooling_param {
    pool: MAX
    kernel_size: 3
    stride: 2
  }
}
layer {
  name: "conv3"
  type: "Convolution"
  bottom: "pool2"
  top: "conv3"
  param {
    lr_mult: 1
  }
  param {
    lr_mult: 2
  }
  convolution_param {
    num_output: 128
    pad: 2
    kernel_size: 5
    stride: 1
    weight_filler {
      type: "gaussian"
      std: 0.01
    }
    bias_filler {
      type: "constant"
    }
  }
}
layer {
  name: "relu3"
  type: "ReLU"
  bottom: "conv3"
  top: "conv3"
}
layer {
  name: "conv4"
  type: "Convolution"
  bottom: "conv3"
  top: "conv4"
  param {
    lr_mult: 1
  }
  param {
    lr_mult: 2
  }
  convolution_param {
    num_output: 128
    pad: 2
    kernel_size: 5
    stride: 1
    weight_filler {
      type: "gaussian"
      std: 0.01
    }
    bias_filler {
      type: "constant"
    }
  }
}
layer {
  name: "relu4"
  type: "ReLU"
  bottom: "conv4"
  top: "conv4"
}
layer {
  name: "conv5"
  type: "Convolution"
  bottom: "conv4"
  top: "conv5"
  param {
    lr_mult: 1
  }
  param {
    lr_mult: 2
  }
  convolution_param {
    num_output: 128
    pad: 2
    kernel_size: 5
    stride: 1
    weight_filler {
      type: "gaussian"
      std: 0.01
    }
    bias_filler {
      type: "constant"
    }
  }
}
layer {
  name: "relu5"
  type: "ReLU"
  bottom: "conv5"
  top: "conv5"
}
layer {
  name: "pool5"
  type: "Pooling"
  bottom: "conv5"
  top: "pool5"
  pooling_param {
    pool: AVE
    kernel_size: 3
    stride: 2
  }
}
layer {
  name: "ip1"
  type: "InnerProduct"
  bottom: "pool5"
  top: "ip1"
  param {
    lr_mult: 1
  }
  param {
    lr_mult: 2
  }
  inner_product_param {
    num_output: 1024
    weight_filler {
      type: "gaussian"
      std: 0.1
    }
    bias_filler {
      type: "constant"
    }
  }
}
layer {
  name: "ip2"
  type: "InnerProduct"
  bottom: "ip1"
  top: "ip2"
  param {
    lr_mult: 1
  }
  param {
    lr_mult: 2
  }
  inner_product_param {
    num_output: 512
    weight_filler {
      type: "gaussian"
      std: 0.1
    }
    bias_filler {
      type: "constant"
    }
  }
}
layer {
  name: "ip3"
  type: "InnerProduct"
  bottom: "ip2"
  top: "ip3"
  param {
    lr_mult: 1
  }
  param {
    lr_mult: 2
  }
  inner_product_param {
    num_output: 50
    weight_filler {
      type: "gaussian"
      std: 0.1
    }
    bias_filler {
      type: "constant"
    }
  }
}
layer {
  name: "accuracy"
  type: "Accuracy"
  bottom: "ip3"
  bottom: "label"
  top: "accuracy"
  include {
    phase: TEST
  }
}
layer {
  name: "loss"
  type: "SoftmaxWithLoss"
  bottom: "ip3"
  bottom: "label"
  top: "loss"
}
I0501 02:25:47.501160 29751 layer_factory.hpp:77] Creating layer intercept
I0501 02:25:47.501173 29751 net.cpp:94] Creating Layer intercept
I0501 02:25:47.501179 29751 net.cpp:409] intercept -> data
I0501 02:25:47.501189 29751 net.cpp:409] intercept -> label
I0501 02:25:47.501197 29751 hdf5_data_layer.cpp:79] Loading list of HDF5 filenames from: /home/purduethu/scratch/radon/d/deng106/CNNStatisticalModel/distributions/input/50_distributions_900_sample_size_test-distributions-path.txt
I0501 02:25:47.501224 29751 hdf5_data_layer.cpp:93] Number of HDF5 files: 1
I0501 02:25:47.873256 29751 net.cpp:144] Setting up intercept
I0501 02:25:47.873291 29751 net.cpp:151] Top shape: 20 1 30 30 (18000)
I0501 02:25:47.873296 29751 net.cpp:151] Top shape: 20 (20)
I0501 02:25:47.873298 29751 net.cpp:159] Memory required for data: 72080
I0501 02:25:47.873304 29751 layer_factory.hpp:77] Creating layer label_intercept_1_split
I0501 02:25:47.873323 29751 net.cpp:94] Creating Layer label_intercept_1_split
I0501 02:25:47.873328 29751 net.cpp:435] label_intercept_1_split <- label
I0501 02:25:47.873334 29751 net.cpp:409] label_intercept_1_split -> label_intercept_1_split_0
I0501 02:25:47.873343 29751 net.cpp:409] label_intercept_1_split -> label_intercept_1_split_1
I0501 02:25:47.873386 29751 net.cpp:144] Setting up label_intercept_1_split
I0501 02:25:47.873392 29751 net.cpp:151] Top shape: 20 (20)
I0501 02:25:47.873396 29751 net.cpp:151] Top shape: 20 (20)
I0501 02:25:47.873399 29751 net.cpp:159] Memory required for data: 72240
I0501 02:25:47.873401 29751 layer_factory.hpp:77] Creating layer conv1
I0501 02:25:47.873412 29751 net.cpp:94] Creating Layer conv1
I0501 02:25:47.873415 29751 net.cpp:435] conv1 <- data
I0501 02:25:47.873420 29751 net.cpp:409] conv1 -> conv1
I0501 02:25:47.879631 29751 net.cpp:144] Setting up conv1
I0501 02:25:47.879645 29751 net.cpp:151] Top shape: 20 64 30 30 (1152000)
I0501 02:25:47.879648 29751 net.cpp:159] Memory required for data: 4680240
I0501 02:25:47.879658 29751 layer_factory.hpp:77] Creating layer relu1
I0501 02:25:47.879667 29751 net.cpp:94] Creating Layer relu1
I0501 02:25:47.879669 29751 net.cpp:435] relu1 <- conv1
I0501 02:25:47.879673 29751 net.cpp:396] relu1 -> conv1 (in-place)
I0501 02:25:47.879681 29751 net.cpp:144] Setting up relu1
I0501 02:25:47.879685 29751 net.cpp:151] Top shape: 20 64 30 30 (1152000)
I0501 02:25:47.879688 29751 net.cpp:159] Memory required for data: 9288240
I0501 02:25:47.879691 29751 layer_factory.hpp:77] Creating layer conv2
I0501 02:25:47.879699 29751 net.cpp:94] Creating Layer conv2
I0501 02:25:47.879703 29751 net.cpp:435] conv2 <- conv1
I0501 02:25:47.879710 29751 net.cpp:409] conv2 -> conv2
I0501 02:25:47.886616 29751 net.cpp:144] Setting up conv2
I0501 02:25:47.886632 29751 net.cpp:151] Top shape: 20 64 30 30 (1152000)
I0501 02:25:47.886636 29751 net.cpp:159] Memory required for data: 13896240
I0501 02:25:47.886646 29751 layer_factory.hpp:77] Creating layer relu2
I0501 02:25:47.886651 29751 net.cpp:94] Creating Layer relu2
I0501 02:25:47.886654 29751 net.cpp:435] relu2 <- conv2
I0501 02:25:47.886659 29751 net.cpp:396] relu2 -> conv2 (in-place)
I0501 02:25:47.886667 29751 net.cpp:144] Setting up relu2
I0501 02:25:47.886670 29751 net.cpp:151] Top shape: 20 64 30 30 (1152000)
I0501 02:25:47.886673 29751 net.cpp:159] Memory required for data: 18504240
I0501 02:25:47.886677 29751 layer_factory.hpp:77] Creating layer pool2
I0501 02:25:47.886683 29751 net.cpp:94] Creating Layer pool2
I0501 02:25:47.886687 29751 net.cpp:435] pool2 <- conv2
I0501 02:25:47.886690 29751 net.cpp:409] pool2 -> pool2
I0501 02:25:47.886751 29751 net.cpp:144] Setting up pool2
I0501 02:25:47.886757 29751 net.cpp:151] Top shape: 20 64 15 15 (288000)
I0501 02:25:47.886760 29751 net.cpp:159] Memory required for data: 19656240
I0501 02:25:47.886764 29751 layer_factory.hpp:77] Creating layer conv3
I0501 02:25:47.886772 29751 net.cpp:94] Creating Layer conv3
I0501 02:25:47.886776 29751 net.cpp:435] conv3 <- pool2
I0501 02:25:47.886782 29751 net.cpp:409] conv3 -> conv3
I0501 02:25:47.894618 29751 net.cpp:144] Setting up conv3
I0501 02:25:47.894632 29751 net.cpp:151] Top shape: 20 128 15 15 (576000)
I0501 02:25:47.894636 29751 net.cpp:159] Memory required for data: 21960240
I0501 02:25:47.894644 29751 layer_factory.hpp:77] Creating layer relu3
I0501 02:25:47.894656 29751 net.cpp:94] Creating Layer relu3
I0501 02:25:47.894660 29751 net.cpp:435] relu3 <- conv3
I0501 02:25:47.894665 29751 net.cpp:396] relu3 -> conv3 (in-place)
I0501 02:25:47.894672 29751 net.cpp:144] Setting up relu3
I0501 02:25:47.894676 29751 net.cpp:151] Top shape: 20 128 15 15 (576000)
I0501 02:25:47.894680 29751 net.cpp:159] Memory required for data: 24264240
I0501 02:25:47.894682 29751 layer_factory.hpp:77] Creating layer conv4
I0501 02:25:47.894691 29751 net.cpp:94] Creating Layer conv4
I0501 02:25:47.894695 29751 net.cpp:435] conv4 <- conv3
I0501 02:25:47.894701 29751 net.cpp:409] conv4 -> conv4
I0501 02:25:47.910601 29751 net.cpp:144] Setting up conv4
I0501 02:25:47.910619 29751 net.cpp:151] Top shape: 20 128 15 15 (576000)
I0501 02:25:47.910624 29751 net.cpp:159] Memory required for data: 26568240
I0501 02:25:47.910630 29751 layer_factory.hpp:77] Creating layer relu4
I0501 02:25:47.910637 29751 net.cpp:94] Creating Layer relu4
I0501 02:25:47.910641 29751 net.cpp:435] relu4 <- conv4
I0501 02:25:47.910646 29751 net.cpp:396] relu4 -> conv4 (in-place)
I0501 02:25:47.910653 29751 net.cpp:144] Setting up relu4
I0501 02:25:47.910658 29751 net.cpp:151] Top shape: 20 128 15 15 (576000)
I0501 02:25:47.910661 29751 net.cpp:159] Memory required for data: 28872240
I0501 02:25:47.910665 29751 layer_factory.hpp:77] Creating layer conv5
I0501 02:25:47.910675 29751 net.cpp:94] Creating Layer conv5
I0501 02:25:47.910678 29751 net.cpp:435] conv5 <- conv4
I0501 02:25:47.910688 29751 net.cpp:409] conv5 -> conv5
I0501 02:25:47.928710 29751 net.cpp:144] Setting up conv5
I0501 02:25:47.928727 29751 net.cpp:151] Top shape: 20 128 15 15 (576000)
I0501 02:25:47.928731 29751 net.cpp:159] Memory required for data: 31176240
I0501 02:25:47.928741 29751 layer_factory.hpp:77] Creating layer relu5
I0501 02:25:47.928748 29751 net.cpp:94] Creating Layer relu5
I0501 02:25:47.928751 29751 net.cpp:435] relu5 <- conv5
I0501 02:25:47.928756 29751 net.cpp:396] relu5 -> conv5 (in-place)
I0501 02:25:47.928763 29751 net.cpp:144] Setting up relu5
I0501 02:25:47.928767 29751 net.cpp:151] Top shape: 20 128 15 15 (576000)
I0501 02:25:47.928771 29751 net.cpp:159] Memory required for data: 33480240
I0501 02:25:47.928773 29751 layer_factory.hpp:77] Creating layer pool5
I0501 02:25:47.928781 29751 net.cpp:94] Creating Layer pool5
I0501 02:25:47.928783 29751 net.cpp:435] pool5 <- conv5
I0501 02:25:47.928788 29751 net.cpp:409] pool5 -> pool5
I0501 02:25:47.928830 29751 net.cpp:144] Setting up pool5
I0501 02:25:47.928838 29751 net.cpp:151] Top shape: 20 128 7 7 (125440)
I0501 02:25:47.928840 29751 net.cpp:159] Memory required for data: 33982000
I0501 02:25:47.928843 29751 layer_factory.hpp:77] Creating layer ip1
I0501 02:25:47.928851 29751 net.cpp:94] Creating Layer ip1
I0501 02:25:47.928854 29751 net.cpp:435] ip1 <- pool5
I0501 02:25:47.928859 29751 net.cpp:409] ip1 -> ip1
I0501 02:25:48.085001 29751 net.cpp:144] Setting up ip1
I0501 02:25:48.085036 29751 net.cpp:151] Top shape: 20 1024 (20480)
I0501 02:25:48.085041 29751 net.cpp:159] Memory required for data: 34063920
I0501 02:25:48.085049 29751 layer_factory.hpp:77] Creating layer ip2
I0501 02:25:48.085060 29751 net.cpp:94] Creating Layer ip2
I0501 02:25:48.085064 29751 net.cpp:435] ip2 <- ip1
I0501 02:25:48.085072 29751 net.cpp:409] ip2 -> ip2
I0501 02:25:48.099233 29751 net.cpp:144] Setting up ip2
I0501 02:25:48.099253 29751 net.cpp:151] Top shape: 20 512 (10240)
I0501 02:25:48.099257 29751 net.cpp:159] Memory required for data: 34104880
I0501 02:25:48.099263 29751 layer_factory.hpp:77] Creating layer ip3
I0501 02:25:48.099277 29751 net.cpp:94] Creating Layer ip3
I0501 02:25:48.099280 29751 net.cpp:435] ip3 <- ip2
I0501 02:25:48.099287 29751 net.cpp:409] ip3 -> ip3
I0501 02:25:48.100033 29751 net.cpp:144] Setting up ip3
I0501 02:25:48.100041 29751 net.cpp:151] Top shape: 20 50 (1000)
I0501 02:25:48.100044 29751 net.cpp:159] Memory required for data: 34108880
I0501 02:25:48.100049 29751 layer_factory.hpp:77] Creating layer ip3_ip3_0_split
I0501 02:25:48.100055 29751 net.cpp:94] Creating Layer ip3_ip3_0_split
I0501 02:25:48.100059 29751 net.cpp:435] ip3_ip3_0_split <- ip3
I0501 02:25:48.100064 29751 net.cpp:409] ip3_ip3_0_split -> ip3_ip3_0_split_0
I0501 02:25:48.100069 29751 net.cpp:409] ip3_ip3_0_split -> ip3_ip3_0_split_1
I0501 02:25:48.100111 29751 net.cpp:144] Setting up ip3_ip3_0_split
I0501 02:25:48.100117 29751 net.cpp:151] Top shape: 20 50 (1000)
I0501 02:25:48.100121 29751 net.cpp:151] Top shape: 20 50 (1000)
I0501 02:25:48.100123 29751 net.cpp:159] Memory required for data: 34116880
I0501 02:25:48.100126 29751 layer_factory.hpp:77] Creating layer accuracy
I0501 02:25:48.100132 29751 net.cpp:94] Creating Layer accuracy
I0501 02:25:48.100136 29751 net.cpp:435] accuracy <- ip3_ip3_0_split_0
I0501 02:25:48.100139 29751 net.cpp:435] accuracy <- label_intercept_1_split_0
I0501 02:25:48.100144 29751 net.cpp:409] accuracy -> accuracy
…
