…
I0504 23:44:55.104576   781 net.cpp:323] The NetState phase (0) differed from the phase (1) specified by a rule in layer intercept
I0504 23:44:55.104593   781 net.cpp:323] The NetState phase (0) differed from the phase (1) specified by a rule in layer loss
I0504 23:44:55.104676   781 net.cpp:52] Initializing net from parameters: 
state {
  phase: TRAIN
}
layer {
  name: "parameters"
  type: "HDF5Data"
  top: "data"
  top: "label"
  include {
    phase: TRAIN
  }
  hdf5_data_param {
    source: "/home/purduethu/scratch/radon/d/deng106/CNNStatisticalModel/distributions/input/20_distributions_900_sample_size_train-parameters-path.txt"
    batch_size: 20
  }
}
layer {
  name: "conv1"
  type: "Convolution"
  bottom: "data"
  top: "conv1"
  param {
    lr_mult: 1
  }
  param {
    lr_mult: 2
  }
  convolution_param {
    num_output: 64
    pad: 2
    kernel_size: 5
    stride: 1
    weight_filler {
      type: "gaussian"
      std: 0.0001
    }
    bias_filler {
      type: "constant"
    }
  }
}
layer {
  name: "relu1"
  type: "ReLU"
  bottom: "conv1"
  top: "conv1"
}
layer {
  name: "pool1"
  type: "Pooling"
  bottom: "conv1"
  top: "pool1"
  pooling_param {
    pool: MAX
    kernel_size: 3
    stride: 2
  }
}
layer {
  name: "conv2"
  type: "Convolution"
  bottom: "pool1"
  top: "conv2"
  param {
    lr_mult: 1
  }
  param {
    lr_mult: 2
  }
  convolution_param {
    num_output: 128
    pad: 2
    kernel_size: 5
    stride: 1
    weight_filler {
      type: "gaussian"
      std: 0.01
    }
    bias_filler {
      type: "constant"
    }
  }
}
layer {
  name: "relu2"
  type: "ReLU"
  bottom: "conv2"
  top: "conv2"
}
layer {
  name: "conv3"
  type: "Convolution"
  bottom: "conv2"
  top: "conv3"
  param {
    lr_mult: 1
  }
  param {
    lr_mult: 2
  }
  convolution_param {
    num_output: 128
    pad: 2
    kernel_size: 5
    stride: 1
    weight_filler {
      type: "gaussian"
      std: 0.01
    }
    bias_filler {
      type: "constant"
    }
  }
}
layer {
  name: "relu3"
  type: "ReLU"
  bottom: "conv3"
  top: "conv3"
}
layer {
  name: "pool3"
  type: "Pooling"
  bottom: "conv3"
  top: "pool3"
  pooling_param {
    pool: AVE
    kernel_size: 3
    stride: 2
  }
}
layer {
  name: "ip1"
  type: "InnerProduct"
  bottom: "pool3"
  top: "ip1"
  param {
    lr_mult: 1
  }
  param {
    lr_mult: 2
  }
  inner_product_param {
    num_output: 512
    weight_filler {
      type: "gaussian"
      std: 0.1
    }
    bias_filler {
      type: "constant"
    }
  }
}
layer {
  name: "ip2"
  type: "InnerProduct"
  bottom: "ip1"
  top: "ip2"
  param {
    lr_mult: 1
  }
  param {
    lr_mult: 2
  }
  inner_product_param {
    num_output: 256
    weight_filler {
      type: "gaussian"
      std: 0.1
    }
    bias_filler {
      type: "constant"
    }
  }
}
layer {
  name: "ip3"
  type: "InnerProduct"
  bottom: "ip2"
  top: "ip3"
  param {
    lr_mult: 1
  }
  param {
    lr_mult: 2
  }
  inner_product_param {
    num_output: 1
    weight_filler {
      type: "gaussian"
      std: 0.1
    }
    bias_filler {
      type: "constant"
    }
  }
}
layer {
  name: "loss"
  type: "HuberLoss"
  bottom: "ip3"
  bottom: "label"
  top: "loss"
  include {
    phase: TRAIN
  }
}
I0504 23:44:55.104738   781 layer_factory.hpp:77] Creating layer parameters
I0504 23:44:55.104753   781 net.cpp:94] Creating Layer parameters
I0504 23:44:55.104768   781 net.cpp:409] parameters -> data
I0504 23:44:55.104787   781 net.cpp:409] parameters -> label
I0504 23:44:55.104799   781 hdf5_data_layer.cpp:79] Loading list of HDF5 filenames from: /home/purduethu/scratch/radon/d/deng106/CNNStatisticalModel/distributions/input/20_distributions_900_sample_size_train-parameters-path.txt
I0504 23:44:55.104820   781 hdf5_data_layer.cpp:93] Number of HDF5 files: 1
I0504 23:44:55.105307   781 hdf5.cpp:32] Datatype class: H5T_FLOAT
I0504 23:44:55.681824   781 net.cpp:144] Setting up parameters
I0504 23:44:55.681860   781 net.cpp:151] Top shape: 20 1 30 30 (18000)
I0504 23:44:55.681865   781 net.cpp:151] Top shape: 20 (20)
I0504 23:44:55.681869   781 net.cpp:159] Memory required for data: 72080
I0504 23:44:55.681877   781 layer_factory.hpp:77] Creating layer conv1
I0504 23:44:55.681906   781 net.cpp:94] Creating Layer conv1
I0504 23:44:55.681912   781 net.cpp:435] conv1 <- data
I0504 23:44:55.681924   781 net.cpp:409] conv1 -> conv1
I0504 23:44:55.687779   781 net.cpp:144] Setting up conv1
I0504 23:44:55.687801   781 net.cpp:151] Top shape: 20 64 30 30 (1152000)
I0504 23:44:55.687805   781 net.cpp:159] Memory required for data: 4680080
I0504 23:44:55.687819   781 layer_factory.hpp:77] Creating layer relu1
I0504 23:44:55.687827   781 net.cpp:94] Creating Layer relu1
I0504 23:44:55.687831   781 net.cpp:435] relu1 <- conv1
I0504 23:44:55.687837   781 net.cpp:396] relu1 -> conv1 (in-place)
I0504 23:44:55.687852   781 net.cpp:144] Setting up relu1
I0504 23:44:55.687857   781 net.cpp:151] Top shape: 20 64 30 30 (1152000)
I0504 23:44:55.687861   781 net.cpp:159] Memory required for data: 9288080
I0504 23:44:55.687865   781 layer_factory.hpp:77] Creating layer pool1
I0504 23:44:55.687872   781 net.cpp:94] Creating Layer pool1
I0504 23:44:55.687875   781 net.cpp:435] pool1 <- conv1
I0504 23:44:55.687880   781 net.cpp:409] pool1 -> pool1
I0504 23:44:55.687924   781 net.cpp:144] Setting up pool1
I0504 23:44:55.687930   781 net.cpp:151] Top shape: 20 64 15 15 (288000)
I0504 23:44:55.687934   781 net.cpp:159] Memory required for data: 10440080
I0504 23:44:55.687937   781 layer_factory.hpp:77] Creating layer conv2
I0504 23:44:55.687947   781 net.cpp:94] Creating Layer conv2
I0504 23:44:55.687952   781 net.cpp:435] conv2 <- pool1
I0504 23:44:55.687958   781 net.cpp:409] conv2 -> conv2
I0504 23:44:55.700371   781 net.cpp:144] Setting up conv2
I0504 23:44:55.700399   781 net.cpp:151] Top shape: 20 128 15 15 (576000)
I0504 23:44:55.700403   781 net.cpp:159] Memory required for data: 12744080
I0504 23:44:55.700413   781 layer_factory.hpp:77] Creating layer relu2
I0504 23:44:55.700423   781 net.cpp:94] Creating Layer relu2
I0504 23:44:55.700426   781 net.cpp:435] relu2 <- conv2
I0504 23:44:55.700431   781 net.cpp:396] relu2 -> conv2 (in-place)
I0504 23:44:55.700440   781 net.cpp:144] Setting up relu2
I0504 23:44:55.700445   781 net.cpp:151] Top shape: 20 128 15 15 (576000)
I0504 23:44:55.700448   781 net.cpp:159] Memory required for data: 15048080
I0504 23:44:55.700451   781 layer_factory.hpp:77] Creating layer conv3
I0504 23:44:55.700464   781 net.cpp:94] Creating Layer conv3
I0504 23:44:55.700467   781 net.cpp:435] conv3 <- conv2
I0504 23:44:55.700472   781 net.cpp:409] conv3 -> conv3
I0504 23:44:55.722420   781 net.cpp:144] Setting up conv3
I0504 23:44:55.722453   781 net.cpp:151] Top shape: 20 128 15 15 (576000)
I0504 23:44:55.722458   781 net.cpp:159] Memory required for data: 17352080
I0504 23:44:55.722470   781 layer_factory.hpp:77] Creating layer relu3
I0504 23:44:55.722487   781 net.cpp:94] Creating Layer relu3
I0504 23:44:55.722492   781 net.cpp:435] relu3 <- conv3
I0504 23:44:55.722498   781 net.cpp:396] relu3 -> conv3 (in-place)
I0504 23:44:55.722508   781 net.cpp:144] Setting up relu3
I0504 23:44:55.722512   781 net.cpp:151] Top shape: 20 128 15 15 (576000)
I0504 23:44:55.722517   781 net.cpp:159] Memory required for data: 19656080
I0504 23:44:55.722519   781 layer_factory.hpp:77] Creating layer pool3
I0504 23:44:55.722527   781 net.cpp:94] Creating Layer pool3
I0504 23:44:55.722530   781 net.cpp:435] pool3 <- conv3
I0504 23:44:55.722543   781 net.cpp:409] pool3 -> pool3
I0504 23:44:55.722595   781 net.cpp:144] Setting up pool3
I0504 23:44:55.722602   781 net.cpp:151] Top shape: 20 128 7 7 (125440)
I0504 23:44:55.722605   781 net.cpp:159] Memory required for data: 20157840
I0504 23:44:55.722609   781 layer_factory.hpp:77] Creating layer ip1
I0504 23:44:55.722620   781 net.cpp:94] Creating Layer ip1
I0504 23:44:55.722622   781 net.cpp:435] ip1 <- pool3
I0504 23:44:55.722627   781 net.cpp:409] ip1 -> ip1
I0504 23:44:55.801697   781 net.cpp:144] Setting up ip1
I0504 23:44:55.801734   781 net.cpp:151] Top shape: 20 512 (10240)
I0504 23:44:55.801739   781 net.cpp:159] Memory required for data: 20198800
I0504 23:44:55.801748   781 layer_factory.hpp:77] Creating layer ip2
I0504 23:44:55.801759   781 net.cpp:94] Creating Layer ip2
I0504 23:44:55.801762   781 net.cpp:435] ip2 <- ip1
I0504 23:44:55.801769   781 net.cpp:409] ip2 -> ip2
I0504 23:44:55.804960   781 net.cpp:144] Setting up ip2
I0504 23:44:55.804970   781 net.cpp:151] Top shape: 20 256 (5120)
I0504 23:44:55.804973   781 net.cpp:159] Memory required for data: 20219280
I0504 23:44:55.804981   781 layer_factory.hpp:77] Creating layer ip3
I0504 23:44:55.804987   781 net.cpp:94] Creating Layer ip3
I0504 23:44:55.804991   781 net.cpp:435] ip3 <- ip2
I0504 23:44:55.804996   781 net.cpp:409] ip3 -> ip3
I0504 23:44:55.805061   781 net.cpp:144] Setting up ip3
I0504 23:44:55.805068   781 net.cpp:151] Top shape: 20 1 (20)
I0504 23:44:55.805070   781 net.cpp:159] Memory required for data: 20219360
I0504 23:44:55.805074   781 layer_factory.hpp:77] Creating layer loss
I0504 23:44:55.805080   781 net.cpp:94] Creating Layer loss
I0504 23:44:55.805084   781 net.cpp:435] loss <- ip3
I0504 23:44:55.805088   781 net.cpp:435] loss <- label
I0504 23:44:55.805094   781 net.cpp:409] loss -> loss
I0504 23:44:55.805137   781 net.cpp:144] Setting up loss
…
