…
I0502 13:05:47.457998  1344 net.cpp:323] The NetState phase (0) differed from the phase (1) specified by a rule in layer intercept
I0502 13:05:47.458015  1344 net.cpp:323] The NetState phase (0) differed from the phase (1) specified by a rule in layer loss
I0502 13:05:47.458101  1344 net.cpp:52] Initializing net from parameters: 
state {
  phase: TRAIN
}
layer {
  name: "parameters"
  type: "HDF5Data"
  top: "data"
  top: "label"
  include {
    phase: TRAIN
  }
  hdf5_data_param {
    source: "/home/purduethu/scratch/radon/d/deng106/CNNStatisticalModel/distributions/input/5_distributions_400_sample_size_train-parameters-path.txt"
    batch_size: 20
  }
}
layer {
  name: "conv1"
  type: "Convolution"
  bottom: "data"
  top: "conv1"
  param {
    lr_mult: 1
  }
  param {
    lr_mult: 2
  }
  convolution_param {
    num_output: 64
    pad: 2
    kernel_size: 5
    stride: 1
    weight_filler {
      type: "gaussian"
      std: 0.0001
    }
    bias_filler {
      type: "constant"
    }
  }
}
layer {
  name: "relu1"
  type: "ReLU"
  bottom: "conv1"
  top: "conv1"
}
layer {
  name: "conv2"
  type: "Convolution"
  bottom: "conv1"
  top: "conv2"
  param {
    lr_mult: 1
  }
  param {
    lr_mult: 2
  }
  convolution_param {
    num_output: 64
    pad: 2
    kernel_size: 5
    stride: 1
    weight_filler {
      type: "gaussian"
      std: 0.01
    }
    bias_filler {
      type: "constant"
    }
  }
}
layer {
  name: "relu2"
  type: "ReLU"
  bottom: "conv2"
  top: "conv2"
}
layer {
  name: "pool2"
  type: "Pooling"
  bottom: "conv2"
  top: "pool2"
  pooling_param {
    pool: MAX
    kernel_size: 3
    stride: 2
  }
}
layer {
  name: "conv3"
  type: "Convolution"
  bottom: "pool2"
  top: "conv3"
  param {
    lr_mult: 1
  }
  param {
    lr_mult: 2
  }
  convolution_param {
    num_output: 64
    pad: 2
    kernel_size: 5
    stride: 1
    weight_filler {
      type: "gaussian"
      std: 0.01
    }
    bias_filler {
      type: "constant"
    }
  }
}
layer {
  name: "relu3"
  type: "ReLU"
  bottom: "conv3"
  top: "conv3"
}
layer {
  name: "conv4"
  type: "Convolution"
  bottom: "conv3"
  top: "conv4"
  param {
    lr_mult: 1
  }
  param {
    lr_mult: 2
  }
  convolution_param {
    num_output: 64
    pad: 2
    kernel_size: 5
    stride: 1
    weight_filler {
      type: "gaussian"
      std: 0.01
    }
    bias_filler {
      type: "constant"
    }
  }
}
layer {
  name: "relu4"
  type: "ReLU"
  bottom: "conv4"
  top: "conv4"
}
layer {
  name: "conv5"
  type: "Convolution"
  bottom: "conv4"
  top: "conv5"
  param {
    lr_mult: 1
  }
  param {
    lr_mult: 2
  }
  convolution_param {
    num_output: 64
    pad: 2
    kernel_size: 5
    stride: 1
    weight_filler {
      type: "gaussian"
      std: 0.01
    }
    bias_filler {
      type: "constant"
    }
  }
}
layer {
  name: "relu5"
  type: "ReLU"
  bottom: "conv5"
  top: "conv5"
}
layer {
  name: "pool5"
  type: "Pooling"
  bottom: "conv5"
  top: "pool5"
  pooling_param {
    pool: AVE
    kernel_size: 3
    stride: 2
  }
}
layer {
  name: "ip1"
  type: "InnerProduct"
  bottom: "pool5"
  top: "ip1"
  param {
    lr_mult: 1
  }
  param {
    lr_mult: 2
  }
  inner_product_param {
    num_output: 64
    weight_filler {
      type: "gaussian"
      std: 0.1
    }
    bias_filler {
      type: "constant"
    }
  }
}
layer {
  name: "ip2"
  type: "InnerProduct"
  bottom: "ip1"
  top: "ip2"
  param {
    lr_mult: 1
  }
  param {
    lr_mult: 2
  }
  inner_product_param {
    num_output: 64
    weight_filler {
      type: "gaussian"
      std: 0.1
    }
    bias_filler {
      type: "constant"
    }
  }
}
layer {
  name: "ip3"
  type: "InnerProduct"
  bottom: "ip2"
  top: "ip3"
  param {
    lr_mult: 1
  }
  param {
    lr_mult: 2
  }
  inner_product_param {
    num_output: 1
    weight_filler {
      type: "gaussian"
      std: 0.1
    }
    bias_filler {
      type: "constant"
    }
  }
}
layer {
  name: "loss"
  type: "HuberLoss"
  bottom: "ip3"
  bottom: "label"
  top: "loss"
  include {
    phase: TRAIN
  }
}
I0502 13:05:47.458153  1344 layer_factory.hpp:77] Creating layer parameters
I0502 13:05:47.458165  1344 net.cpp:94] Creating Layer parameters
I0502 13:05:47.458170  1344 net.cpp:409] parameters -> data
I0502 13:05:47.458179  1344 net.cpp:409] parameters -> label
I0502 13:05:47.458190  1344 hdf5_data_layer.cpp:79] Loading list of HDF5 filenames from: /home/purduethu/scratch/radon/d/deng106/CNNStatisticalModel/distributions/input/5_distributions_400_sample_size_train-parameters-path.txt
I0502 13:05:47.458205  1344 hdf5_data_layer.cpp:93] Number of HDF5 files: 1
I0502 13:05:47.458734  1344 hdf5.cpp:32] Datatype class: H5T_FLOAT
I0502 13:05:47.523461  1344 net.cpp:144] Setting up parameters
I0502 13:05:47.523494  1344 net.cpp:151] Top shape: 20 1 20 20 (8000)
I0502 13:05:47.523499  1344 net.cpp:151] Top shape: 20 (20)
I0502 13:05:47.523502  1344 net.cpp:159] Memory required for data: 32080
I0502 13:05:47.523509  1344 layer_factory.hpp:77] Creating layer conv1
I0502 13:05:47.523525  1344 net.cpp:94] Creating Layer conv1
I0502 13:05:47.523530  1344 net.cpp:435] conv1 <- data
I0502 13:05:47.523536  1344 net.cpp:409] conv1 -> conv1
I0502 13:05:47.529028  1344 net.cpp:144] Setting up conv1
I0502 13:05:47.529047  1344 net.cpp:151] Top shape: 20 64 20 20 (512000)
I0502 13:05:47.529052  1344 net.cpp:159] Memory required for data: 2080080
I0502 13:05:47.529062  1344 layer_factory.hpp:77] Creating layer relu1
I0502 13:05:47.529072  1344 net.cpp:94] Creating Layer relu1
I0502 13:05:47.529075  1344 net.cpp:435] relu1 <- conv1
I0502 13:05:47.529080  1344 net.cpp:396] relu1 -> conv1 (in-place)
I0502 13:05:47.529093  1344 net.cpp:144] Setting up relu1
I0502 13:05:47.529098  1344 net.cpp:151] Top shape: 20 64 20 20 (512000)
I0502 13:05:47.529100  1344 net.cpp:159] Memory required for data: 4128080
I0502 13:05:47.529103  1344 layer_factory.hpp:77] Creating layer conv2
I0502 13:05:47.529111  1344 net.cpp:94] Creating Layer conv2
I0502 13:05:47.529114  1344 net.cpp:435] conv2 <- conv1
I0502 13:05:47.529120  1344 net.cpp:409] conv2 -> conv2
I0502 13:05:47.540243  1344 net.cpp:144] Setting up conv2
I0502 13:05:47.540271  1344 net.cpp:151] Top shape: 20 64 20 20 (512000)
I0502 13:05:47.540278  1344 net.cpp:159] Memory required for data: 6176080
I0502 13:05:47.540293  1344 layer_factory.hpp:77] Creating layer relu2
I0502 13:05:47.540305  1344 net.cpp:94] Creating Layer relu2
I0502 13:05:47.540313  1344 net.cpp:435] relu2 <- conv2
I0502 13:05:47.540321  1344 net.cpp:396] relu2 -> conv2 (in-place)
I0502 13:05:47.540335  1344 net.cpp:144] Setting up relu2
I0502 13:05:47.540343  1344 net.cpp:151] Top shape: 20 64 20 20 (512000)
I0502 13:05:47.540349  1344 net.cpp:159] Memory required for data: 8224080
I0502 13:05:47.540355  1344 layer_factory.hpp:77] Creating layer pool2
I0502 13:05:47.540375  1344 net.cpp:94] Creating Layer pool2
I0502 13:05:47.540382  1344 net.cpp:435] pool2 <- conv2
I0502 13:05:47.540391  1344 net.cpp:409] pool2 -> pool2
I0502 13:05:47.540484  1344 net.cpp:144] Setting up pool2
I0502 13:05:47.540498  1344 net.cpp:151] Top shape: 20 64 10 10 (128000)
I0502 13:05:47.540504  1344 net.cpp:159] Memory required for data: 8736080
I0502 13:05:47.540510  1344 layer_factory.hpp:77] Creating layer conv3
I0502 13:05:47.540524  1344 net.cpp:94] Creating Layer conv3
I0502 13:05:47.540531  1344 net.cpp:435] conv3 <- pool2
I0502 13:05:47.540540  1344 net.cpp:409] conv3 -> conv3
I0502 13:05:47.545812  1344 net.cpp:144] Setting up conv3
I0502 13:05:47.545827  1344 net.cpp:151] Top shape: 20 64 10 10 (128000)
I0502 13:05:47.545831  1344 net.cpp:159] Memory required for data: 9248080
I0502 13:05:47.545840  1344 layer_factory.hpp:77] Creating layer relu3
I0502 13:05:47.545845  1344 net.cpp:94] Creating Layer relu3
I0502 13:05:47.545848  1344 net.cpp:435] relu3 <- conv3
I0502 13:05:47.545853  1344 net.cpp:396] relu3 -> conv3 (in-place)
I0502 13:05:47.545861  1344 net.cpp:144] Setting up relu3
I0502 13:05:47.545866  1344 net.cpp:151] Top shape: 20 64 10 10 (128000)
I0502 13:05:47.545868  1344 net.cpp:159] Memory required for data: 9760080
I0502 13:05:47.545871  1344 layer_factory.hpp:77] Creating layer conv4
I0502 13:05:47.545881  1344 net.cpp:94] Creating Layer conv4
I0502 13:05:47.545883  1344 net.cpp:435] conv4 <- conv3
I0502 13:05:47.545888  1344 net.cpp:409] conv4 -> conv4
I0502 13:05:47.551232  1344 net.cpp:144] Setting up conv4
I0502 13:05:47.551246  1344 net.cpp:151] Top shape: 20 64 10 10 (128000)
I0502 13:05:47.551250  1344 net.cpp:159] Memory required for data: 10272080
I0502 13:05:47.551256  1344 layer_factory.hpp:77] Creating layer relu4
I0502 13:05:47.551262  1344 net.cpp:94] Creating Layer relu4
I0502 13:05:47.551266  1344 net.cpp:435] relu4 <- conv4
I0502 13:05:47.551271  1344 net.cpp:396] relu4 -> conv4 (in-place)
I0502 13:05:47.551278  1344 net.cpp:144] Setting up relu4
I0502 13:05:47.551282  1344 net.cpp:151] Top shape: 20 64 10 10 (128000)
I0502 13:05:47.551285  1344 net.cpp:159] Memory required for data: 10784080
I0502 13:05:47.551288  1344 layer_factory.hpp:77] Creating layer conv5
I0502 13:05:47.551296  1344 net.cpp:94] Creating Layer conv5
I0502 13:05:47.551301  1344 net.cpp:435] conv5 <- conv4
I0502 13:05:47.551304  1344 net.cpp:409] conv5 -> conv5
I0502 13:05:47.556632  1344 net.cpp:144] Setting up conv5
I0502 13:05:47.556646  1344 net.cpp:151] Top shape: 20 64 10 10 (128000)
I0502 13:05:47.556650  1344 net.cpp:159] Memory required for data: 11296080
I0502 13:05:47.556659  1344 layer_factory.hpp:77] Creating layer relu5
I0502 13:05:47.556665  1344 net.cpp:94] Creating Layer relu5
I0502 13:05:47.556679  1344 net.cpp:435] relu5 <- conv5
I0502 13:05:47.556684  1344 net.cpp:396] relu5 -> conv5 (in-place)
I0502 13:05:47.556689  1344 net.cpp:144] Setting up relu5
I0502 13:05:47.556694  1344 net.cpp:151] Top shape: 20 64 10 10 (128000)
I0502 13:05:47.556697  1344 net.cpp:159] Memory required for data: 11808080
I0502 13:05:47.556700  1344 layer_factory.hpp:77] Creating layer pool5
I0502 13:05:47.556704  1344 net.cpp:94] Creating Layer pool5
I0502 13:05:47.556709  1344 net.cpp:435] pool5 <- conv5
I0502 13:05:47.556712  1344 net.cpp:409] pool5 -> pool5
I0502 13:05:47.556748  1344 net.cpp:144] Setting up pool5
I0502 13:05:47.556756  1344 net.cpp:151] Top shape: 20 64 5 5 (32000)
I0502 13:05:47.556759  1344 net.cpp:159] Memory required for data: 11936080
I0502 13:05:47.556762  1344 layer_factory.hpp:77] Creating layer ip1
I0502 13:05:47.556768  1344 net.cpp:94] Creating Layer ip1
I0502 13:05:47.556771  1344 net.cpp:435] ip1 <- pool5
I0502 13:05:47.556777  1344 net.cpp:409] ip1 -> ip1
I0502 13:05:47.559303  1344 net.cpp:144] Setting up ip1
I0502 13:05:47.559311  1344 net.cpp:151] Top shape: 20 64 (1280)
I0502 13:05:47.559315  1344 net.cpp:159] Memory required for data: 11941200
I0502 13:05:47.559320  1344 layer_factory.hpp:77] Creating layer ip2
I0502 13:05:47.559326  1344 net.cpp:94] Creating Layer ip2
I0502 13:05:47.559334  1344 net.cpp:435] ip2 <- ip1
I0502 13:05:47.559340  1344 net.cpp:409] ip2 -> ip2
I0502 13:05:47.559542  1344 net.cpp:144] Setting up ip2
I0502 13:05:47.559550  1344 net.cpp:151] Top shape: 20 64 (1280)
I0502 13:05:47.559552  1344 net.cpp:159] Memory required for data: 11946320
I0502 13:05:47.559557  1344 layer_factory.hpp:77] Creating layer ip3
I0502 13:05:47.559562  1344 net.cpp:94] Creating Layer ip3
I0502 13:05:47.559566  1344 net.cpp:435] ip3 <- ip2
I0502 13:05:47.559571  1344 net.cpp:409] ip3 -> ip3
I0502 13:05:47.559667  1344 net.cpp:144] Setting up ip3
I0502 13:05:47.559674  1344 net.cpp:151] Top shape: 20 1 (20)
I0502 13:05:47.559676  1344 net.cpp:159] Memory required for data: 11946400
I0502 13:05:47.559682  1344 layer_factory.hpp:77] Creating layer loss
I0502 13:05:47.559691  1344 net.cpp:94] Creating Layer loss
I0502 13:05:47.559695  1344 net.cpp:435] loss <- ip3
I0502 13:05:47.559698  1344 net.cpp:435] loss <- label
I0502 13:05:47.559703  1344 net.cpp:409] loss -> loss
I0502 13:05:47.559751  1344 net.cpp:144] Setting up loss
…
I0502 13:05:47.600818  1344 net.cpp:323] The NetState phase (0) differed from the phase (1) specified by a rule in layer intercept
I0502 13:05:47.600834  1344 net.cpp:323] The NetState phase (0) differed from the phase (1) specified by a rule in layer accuracy
I0502 13:05:47.600922  1344 net.cpp:52] Initializing net from parameters: 
state {
  phase: TRAIN
}
layer {
  name: "parameters"
  type: "HDF5Data"
  top: "data"
  top: "label"
  include {
    phase: TRAIN
  }
  hdf5_data_param {
    source: "/home/purduethu/scratch/radon/d/deng106/CNNStatisticalModel/distributions/input/5_distributions_400_sample_size_train-distributions-path.txt"
    batch_size: 20
  }
}
layer {
  name: "conv1"
  type: "Convolution"
  bottom: "data"
  top: "conv1"
  param {
    lr_mult: 1
  }
  param {
    lr_mult: 2
  }
  convolution_param {
    num_output: 64
    pad: 2
    kernel_size: 5
    stride: 1
    weight_filler {
      type: "gaussian"
      std: 0.0001
    }
    bias_filler {
      type: "constant"
    }
  }
}
layer {
  name: "relu1"
  type: "ReLU"
  bottom: "conv1"
  top: "conv1"
}
layer {
  name: "conv2"
  type: "Convolution"
  bottom: "conv1"
  top: "conv2"
  param {
    lr_mult: 1
  }
  param {
    lr_mult: 2
  }
  convolution_param {
    num_output: 64
    pad: 2
    kernel_size: 5
    stride: 1
    weight_filler {
      type: "gaussian"
      std: 0.01
    }
    bias_filler {
      type: "constant"
    }
  }
}
layer {
  name: "relu2"
  type: "ReLU"
  bottom: "conv2"
  top: "conv2"
}
layer {
  name: "pool2"
  type: "Pooling"
  bottom: "conv2"
  top: "pool2"
  pooling_param {
    pool: MAX
    kernel_size: 3
    stride: 2
  }
}
layer {
  name: "conv3"
  type: "Convolution"
  bottom: "pool2"
  top: "conv3"
  param {
    lr_mult: 1
  }
  param {
    lr_mult: 2
  }
  convolution_param {
    num_output: 64
    pad: 2
    kernel_size: 5
    stride: 1
    weight_filler {
      type: "gaussian"
      std: 0.01
    }
    bias_filler {
      type: "constant"
    }
  }
}
layer {
  name: "relu3"
  type: "ReLU"
  bottom: "conv3"
  top: "conv3"
}
layer {
  name: "conv4"
  type: "Convolution"
  bottom: "conv3"
  top: "conv4"
  param {
    lr_mult: 1
  }
  param {
    lr_mult: 2
  }
  convolution_param {
    num_output: 64
    pad: 2
    kernel_size: 5
    stride: 1
    weight_filler {
      type: "gaussian"
      std: 0.01
    }
    bias_filler {
      type: "constant"
    }
  }
}
layer {
  name: "relu4"
  type: "ReLU"
  bottom: "conv4"
  top: "conv4"
}
layer {
  name: "conv5"
  type: "Convolution"
  bottom: "conv4"
  top: "conv5"
  param {
    lr_mult: 1
  }
  param {
    lr_mult: 2
  }
  convolution_param {
    num_output: 64
    pad: 2
    kernel_size: 5
    stride: 1
    weight_filler {
      type: "gaussian"
      std: 0.01
    }
    bias_filler {
      type: "constant"
    }
  }
}
layer {
  name: "relu5"
  type: "ReLU"
  bottom: "conv5"
  top: "conv5"
}
layer {
  name: "pool5"
  type: "Pooling"
  bottom: "conv5"
  top: "pool5"
  pooling_param {
    pool: AVE
    kernel_size: 3
    stride: 2
  }
}
layer {
  name: "ip1"
  type: "InnerProduct"
  bottom: "pool5"
  top: "ip1"
  param {
    lr_mult: 1
  }
  param {
    lr_mult: 2
  }
  inner_product_param {
    num_output: 64
    weight_filler {
      type: "gaussian"
      std: 0.1
    }
    bias_filler {
      type: "constant"
    }
  }
}
layer {
  name: "ip2"
  type: "InnerProduct"
  bottom: "ip1"
  top: "ip2"
  param {
    lr_mult: 1
  }
  param {
    lr_mult: 2
  }
  inner_product_param {
    num_output: 64
    weight_filler {
      type: "gaussian"
      std: 0.1
    }
    bias_filler {
      type: "constant"
    }
  }
}
layer {
  name: "ip3"
  type: "InnerProduct"
  bottom: "ip2"
  top: "ip3"
  param {
    lr_mult: 1
  }
  param {
    lr_mult: 2
  }
  inner_product_param {
    num_output: 50
    weight_filler {
      type: "gaussian"
      std: 0.1
    }
    bias_filler {
      type: "constant"
    }
  }
}
layer {
  name: "loss"
  type: "SoftmaxWithLoss"
  bottom: "ip3"
  bottom: "label"
  top: "loss"
}
I0502 13:05:47.600971  1344 layer_factory.hpp:77] Creating layer parameters
I0502 13:05:47.600980  1344 net.cpp:94] Creating Layer parameters
I0502 13:05:47.600983  1344 net.cpp:409] parameters -> data
I0502 13:05:47.600991  1344 net.cpp:409] parameters -> label
I0502 13:05:47.600996  1344 hdf5_data_layer.cpp:79] Loading list of HDF5 filenames from: /home/purduethu/scratch/radon/d/deng106/CNNStatisticalModel/distributions/input/5_distributions_400_sample_size_train-distributions-path.txt
I0502 13:05:47.601011  1344 hdf5_data_layer.cpp:93] Number of HDF5 files: 1
I0502 13:05:47.663698  1344 hdf5.cpp:35] Datatype class: H5T_INTEGER
I0502 13:05:47.664127  1344 net.cpp:144] Setting up parameters
I0502 13:05:47.664142  1344 net.cpp:151] Top shape: 20 1 20 20 (8000)
I0502 13:05:47.664146  1344 net.cpp:151] Top shape: 20 (20)
I0502 13:05:47.664150  1344 net.cpp:159] Memory required for data: 32080
I0502 13:05:47.664156  1344 layer_factory.hpp:77] Creating layer conv1
I0502 13:05:47.664170  1344 net.cpp:94] Creating Layer conv1
I0502 13:05:47.664175  1344 net.cpp:435] conv1 <- data
I0502 13:05:47.664181  1344 net.cpp:409] conv1 -> conv1
I0502 13:05:47.666990  1344 net.cpp:144] Setting up conv1
I0502 13:05:47.667006  1344 net.cpp:151] Top shape: 20 64 20 20 (512000)
I0502 13:05:47.667011  1344 net.cpp:159] Memory required for data: 2080080
I0502 13:05:47.667021  1344 layer_factory.hpp:77] Creating layer relu1
I0502 13:05:47.667029  1344 net.cpp:94] Creating Layer relu1
I0502 13:05:47.667032  1344 net.cpp:435] relu1 <- conv1
I0502 13:05:47.667037  1344 net.cpp:396] relu1 -> conv1 (in-place)
I0502 13:05:47.667044  1344 net.cpp:144] Setting up relu1
I0502 13:05:47.667049  1344 net.cpp:151] Top shape: 20 64 20 20 (512000)
I0502 13:05:47.667052  1344 net.cpp:159] Memory required for data: 4128080
I0502 13:05:47.667055  1344 layer_factory.hpp:77] Creating layer conv2
I0502 13:05:47.667063  1344 net.cpp:94] Creating Layer conv2
I0502 13:05:47.667067  1344 net.cpp:435] conv2 <- conv1
I0502 13:05:47.667071  1344 net.cpp:409] conv2 -> conv2
I0502 13:05:47.678009  1344 net.cpp:144] Setting up conv2
I0502 13:05:47.678025  1344 net.cpp:151] Top shape: 20 64 20 20 (512000)
I0502 13:05:47.678030  1344 net.cpp:159] Memory required for data: 6176080
I0502 13:05:47.678037  1344 layer_factory.hpp:77] Creating layer relu2
I0502 13:05:47.678045  1344 net.cpp:94] Creating Layer relu2
I0502 13:05:47.678048  1344 net.cpp:435] relu2 <- conv2
I0502 13:05:47.678053  1344 net.cpp:396] relu2 -> conv2 (in-place)
I0502 13:05:47.678061  1344 net.cpp:144] Setting up relu2
I0502 13:05:47.678066  1344 net.cpp:151] Top shape: 20 64 20 20 (512000)
I0502 13:05:47.678068  1344 net.cpp:159] Memory required for data: 8224080
I0502 13:05:47.678071  1344 layer_factory.hpp:77] Creating layer pool2
I0502 13:05:47.678077  1344 net.cpp:94] Creating Layer pool2
I0502 13:05:47.678081  1344 net.cpp:435] pool2 <- conv2
I0502 13:05:47.678084  1344 net.cpp:409] pool2 -> pool2
I0502 13:05:47.678135  1344 net.cpp:144] Setting up pool2
I0502 13:05:47.678143  1344 net.cpp:151] Top shape: 20 64 10 10 (128000)
I0502 13:05:47.678146  1344 net.cpp:159] Memory required for data: 8736080
I0502 13:05:47.678149  1344 layer_factory.hpp:77] Creating layer conv3
I0502 13:05:47.678158  1344 net.cpp:94] Creating Layer conv3
I0502 13:05:47.678160  1344 net.cpp:435] conv3 <- pool2
I0502 13:05:47.678165  1344 net.cpp:409] conv3 -> conv3
I0502 13:05:47.683413  1344 net.cpp:144] Setting up conv3
I0502 13:05:47.683426  1344 net.cpp:151] Top shape: 20 64 10 10 (128000)
I0502 13:05:47.683430  1344 net.cpp:159] Memory required for data: 9248080
I0502 13:05:47.683439  1344 layer_factory.hpp:77] Creating layer relu3
I0502 13:05:47.683444  1344 net.cpp:94] Creating Layer relu3
I0502 13:05:47.683447  1344 net.cpp:435] relu3 <- conv3
I0502 13:05:47.683452  1344 net.cpp:396] relu3 -> conv3 (in-place)
I0502 13:05:47.683459  1344 net.cpp:144] Setting up relu3
I0502 13:05:47.683464  1344 net.cpp:151] Top shape: 20 64 10 10 (128000)
I0502 13:05:47.683466  1344 net.cpp:159] Memory required for data: 9760080
I0502 13:05:47.683470  1344 layer_factory.hpp:77] Creating layer conv4
I0502 13:05:47.683478  1344 net.cpp:94] Creating Layer conv4
I0502 13:05:47.683481  1344 net.cpp:435] conv4 <- conv3
I0502 13:05:47.683486  1344 net.cpp:409] conv4 -> conv4
I0502 13:05:47.688730  1344 net.cpp:144] Setting up conv4
I0502 13:05:47.688745  1344 net.cpp:151] Top shape: 20 64 10 10 (128000)
I0502 13:05:47.688750  1344 net.cpp:159] Memory required for data: 10272080
I0502 13:05:47.688755  1344 layer_factory.hpp:77] Creating layer relu4
I0502 13:05:47.688761  1344 net.cpp:94] Creating Layer relu4
I0502 13:05:47.688765  1344 net.cpp:435] relu4 <- conv4
I0502 13:05:47.688769  1344 net.cpp:396] relu4 -> conv4 (in-place)
I0502 13:05:47.688776  1344 net.cpp:144] Setting up relu4
I0502 13:05:47.688781  1344 net.cpp:151] Top shape: 20 64 10 10 (128000)
I0502 13:05:47.688783  1344 net.cpp:159] Memory required for data: 10784080
I0502 13:05:47.688786  1344 layer_factory.hpp:77] Creating layer conv5
I0502 13:05:47.688794  1344 net.cpp:94] Creating Layer conv5
I0502 13:05:47.688797  1344 net.cpp:435] conv5 <- conv4
I0502 13:05:47.688802  1344 net.cpp:409] conv5 -> conv5
I0502 13:05:47.694092  1344 net.cpp:144] Setting up conv5
I0502 13:05:47.694106  1344 net.cpp:151] Top shape: 20 64 10 10 (128000)
I0502 13:05:47.694110  1344 net.cpp:159] Memory required for data: 11296080
I0502 13:05:47.694118  1344 layer_factory.hpp:77] Creating layer relu5
I0502 13:05:47.694124  1344 net.cpp:94] Creating Layer relu5
I0502 13:05:47.694128  1344 net.cpp:435] relu5 <- conv5
I0502 13:05:47.694133  1344 net.cpp:396] relu5 -> conv5 (in-place)
I0502 13:05:47.694139  1344 net.cpp:144] Setting up relu5
I0502 13:05:47.694144  1344 net.cpp:151] Top shape: 20 64 10 10 (128000)
I0502 13:05:47.694147  1344 net.cpp:159] Memory required for data: 11808080
I0502 13:05:47.694150  1344 layer_factory.hpp:77] Creating layer pool5
I0502 13:05:47.694154  1344 net.cpp:94] Creating Layer pool5
I0502 13:05:47.694159  1344 net.cpp:435] pool5 <- conv5
I0502 13:05:47.694162  1344 net.cpp:409] pool5 -> pool5
I0502 13:05:47.694196  1344 net.cpp:144] Setting up pool5
I0502 13:05:47.694203  1344 net.cpp:151] Top shape: 20 64 5 5 (32000)
I0502 13:05:47.694206  1344 net.cpp:159] Memory required for data: 11936080
I0502 13:05:47.694209  1344 layer_factory.hpp:77] Creating layer ip1
I0502 13:05:47.694216  1344 net.cpp:94] Creating Layer ip1
I0502 13:05:47.694219  1344 net.cpp:435] ip1 <- pool5
I0502 13:05:47.694224  1344 net.cpp:409] ip1 -> ip1
I0502 13:05:47.696775  1344 net.cpp:144] Setting up ip1
I0502 13:05:47.696784  1344 net.cpp:151] Top shape: 20 64 (1280)
I0502 13:05:47.696789  1344 net.cpp:159] Memory required for data: 11941200
I0502 13:05:47.696794  1344 layer_factory.hpp:77] Creating layer ip2
I0502 13:05:47.696800  1344 net.cpp:94] Creating Layer ip2
I0502 13:05:47.696804  1344 net.cpp:435] ip2 <- ip1
I0502 13:05:47.696810  1344 net.cpp:409] ip2 -> ip2
I0502 13:05:47.697028  1344 net.cpp:144] Setting up ip2
I0502 13:05:47.697036  1344 net.cpp:151] Top shape: 20 64 (1280)
I0502 13:05:47.697039  1344 net.cpp:159] Memory required for data: 11946320
I0502 13:05:47.697044  1344 layer_factory.hpp:77] Creating layer ip3
I0502 13:05:47.697051  1344 net.cpp:94] Creating Layer ip3
I0502 13:05:47.697054  1344 net.cpp:435] ip3 <- ip2
I0502 13:05:47.697058  1344 net.cpp:409] ip3 -> ip3
I0502 13:05:47.697252  1344 net.cpp:144] Setting up ip3
I0502 13:05:47.697263  1344 net.cpp:151] Top shape: 20 50 (1000)
I0502 13:05:47.697265  1344 net.cpp:159] Memory required for data: 11950320
I0502 13:05:47.697270  1344 layer_factory.hpp:77] Creating layer loss
I0502 13:05:47.697278  1344 net.cpp:94] Creating Layer loss
I0502 13:05:47.697281  1344 net.cpp:435] loss <- ip3
I0502 13:05:47.697285  1344 net.cpp:435] loss <- label
I0502 13:05:47.697289  1344 net.cpp:409] loss -> loss
I0502 13:05:47.697296  1344 layer_factory.hpp:77] Creating layer loss
…
I0502 13:05:47.697803  1344 solver.cpp:181] Creating test net (#0) specified by net file: ./protocol/dis_5_400_dimension.protocol_distribution
I0502 13:05:47.697830  1344 net.cpp:323] The NetState phase (1) differed from the phase (0) specified by a rule in layer parameters
I0502 13:05:47.697932  1344 net.cpp:52] Initializing net from parameters: 
state {
  phase: TEST
}
layer {
  name: "intercept"
  type: "HDF5Data"
  top: "data"
  top: "label"
  include {
    phase: TEST
  }
  hdf5_data_param {
    source: "/home/purduethu/scratch/radon/d/deng106/CNNStatisticalModel/distributions/input/5_distributions_400_sample_size_test-distributions-path.txt"
    batch_size: 20
  }
}
layer {
  name: "conv1"
  type: "Convolution"
  bottom: "data"
  top: "conv1"
  param {
    lr_mult: 1
  }
  param {
    lr_mult: 2
  }
  convolution_param {
    num_output: 64
    pad: 2
    kernel_size: 5
    stride: 1
    weight_filler {
      type: "gaussian"
      std: 0.0001
    }
    bias_filler {
      type: "constant"
    }
  }
}
layer {
  name: "relu1"
  type: "ReLU"
  bottom: "conv1"
  top: "conv1"
}
layer {
  name: "conv2"
  type: "Convolution"
  bottom: "conv1"
  top: "conv2"
  param {
    lr_mult: 1
  }
  param {
    lr_mult: 2
  }
  convolution_param {
    num_output: 64
    pad: 2
    kernel_size: 5
    stride: 1
    weight_filler {
      type: "gaussian"
      std: 0.01
    }
    bias_filler {
      type: "constant"
    }
  }
}
layer {
  name: "relu2"
  type: "ReLU"
  bottom: "conv2"
  top: "conv2"
}
layer {
  name: "pool2"
  type: "Pooling"
  bottom: "conv2"
  top: "pool2"
  pooling_param {
    pool: MAX
    kernel_size: 3
    stride: 2
  }
}
layer {
  name: "conv3"
  type: "Convolution"
  bottom: "pool2"
  top: "conv3"
  param {
    lr_mult: 1
  }
  param {
    lr_mult: 2
  }
  convolution_param {
    num_output: 64
    pad: 2
    kernel_size: 5
    stride: 1
    weight_filler {
      type: "gaussian"
      std: 0.01
    }
    bias_filler {
      type: "constant"
    }
  }
}
layer {
  name: "relu3"
  type: "ReLU"
  bottom: "conv3"
  top: "conv3"
}
layer {
  name: "conv4"
  type: "Convolution"
  bottom: "conv3"
  top: "conv4"
  param {
    lr_mult: 1
  }
  param {
    lr_mult: 2
  }
  convolution_param {
    num_output: 64
    pad: 2
    kernel_size: 5
    stride: 1
    weight_filler {
      type: "gaussian"
      std: 0.01
    }
    bias_filler {
      type: "constant"
    }
  }
}
layer {
  name: "relu4"
  type: "ReLU"
  bottom: "conv4"
  top: "conv4"
}
layer {
  name: "conv5"
  type: "Convolution"
  bottom: "conv4"
  top: "conv5"
  param {
    lr_mult: 1
  }
  param {
    lr_mult: 2
  }
  convolution_param {
    num_output: 64
    pad: 2
    kernel_size: 5
    stride: 1
    weight_filler {
      type: "gaussian"
      std: 0.01
    }
    bias_filler {
      type: "constant"
    }
  }
}
layer {
  name: "relu5"
  type: "ReLU"
  bottom: "conv5"
  top: "conv5"
}
layer {
  name: "pool5"
  type: "Pooling"
  bottom: "conv5"
  top: "pool5"
  pooling_param {
    pool: AVE
    kernel_size: 3
    stride: 2
  }
}
layer {
  name: "ip1"
  type: "InnerProduct"
  bottom: "pool5"
  top: "ip1"
  param {
    lr_mult: 1
  }
  param {
    lr_mult: 2
  }
  inner_product_param {
    num_output: 64
    weight_filler {
      type: "gaussian"
      std: 0.1
    }
    bias_filler {
      type: "constant"
    }
  }
}
layer {
  name: "ip2"
  type: "InnerProduct"
  bottom: "ip1"
  top: "ip2"
  param {
    lr_mult: 1
  }
  param {
    lr_mult: 2
  }
  inner_product_param {
    num_output: 64
    weight_filler {
      type: "gaussian"
      std: 0.1
    }
    bias_filler {
      type: "constant"
    }
  }
}
layer {
  name: "ip3"
  type: "InnerProduct"
  bottom: "ip2"
  top: "ip3"
  param {
    lr_mult: 1
  }
  param {
    lr_mult: 2
  }
  inner_product_param {
    num_output: 50
    weight_filler {
      type: "gaussian"
      std: 0.1
    }
    bias_filler {
      type: "constant"
    }
  }
}
layer {
  name: "accuracy"
  type: "Accuracy"
  bottom: "ip3"
  bottom: "label"
  top: "accuracy"
  include {
    phase: TEST
  }
}
layer {
  name: "loss"
  type: "SoftmaxWithLoss"
  bottom: "ip3"
  bottom: "label"
  top: "loss"
}
I0502 13:05:47.698002  1344 layer_factory.hpp:77] Creating layer intercept
I0502 13:05:47.698010  1344 net.cpp:94] Creating Layer intercept
I0502 13:05:47.698014  1344 net.cpp:409] intercept -> data
I0502 13:05:47.698021  1344 net.cpp:409] intercept -> label
I0502 13:05:47.698026  1344 hdf5_data_layer.cpp:79] Loading list of HDF5 filenames from: /home/purduethu/scratch/radon/d/deng106/CNNStatisticalModel/distributions/input/5_distributions_400_sample_size_test-distributions-path.txt
I0502 13:05:47.698045  1344 hdf5_data_layer.cpp:93] Number of HDF5 files: 1
I0502 13:05:47.714754  1344 net.cpp:144] Setting up intercept
I0502 13:05:47.714787  1344 net.cpp:151] Top shape: 20 1 20 20 (8000)
I0502 13:05:47.714792  1344 net.cpp:151] Top shape: 20 (20)
I0502 13:05:47.714795  1344 net.cpp:159] Memory required for data: 32080
I0502 13:05:47.714802  1344 layer_factory.hpp:77] Creating layer label_intercept_1_split
I0502 13:05:47.714813  1344 net.cpp:94] Creating Layer label_intercept_1_split
I0502 13:05:47.714818  1344 net.cpp:435] label_intercept_1_split <- label
I0502 13:05:47.714823  1344 net.cpp:409] label_intercept_1_split -> label_intercept_1_split_0
I0502 13:05:47.714833  1344 net.cpp:409] label_intercept_1_split -> label_intercept_1_split_1
I0502 13:05:47.714880  1344 net.cpp:144] Setting up label_intercept_1_split
I0502 13:05:47.714887  1344 net.cpp:151] Top shape: 20 (20)
I0502 13:05:47.714891  1344 net.cpp:151] Top shape: 20 (20)
I0502 13:05:47.714895  1344 net.cpp:159] Memory required for data: 32240
I0502 13:05:47.714897  1344 layer_factory.hpp:77] Creating layer conv1
I0502 13:05:47.714908  1344 net.cpp:94] Creating Layer conv1
I0502 13:05:47.714912  1344 net.cpp:435] conv1 <- data
I0502 13:05:47.714916  1344 net.cpp:409] conv1 -> conv1
I0502 13:05:47.716279  1344 net.cpp:144] Setting up conv1
I0502 13:05:47.716298  1344 net.cpp:151] Top shape: 20 64 20 20 (512000)
I0502 13:05:47.716302  1344 net.cpp:159] Memory required for data: 2080240
I0502 13:05:47.716312  1344 layer_factory.hpp:77] Creating layer relu1
I0502 13:05:47.716320  1344 net.cpp:94] Creating Layer relu1
I0502 13:05:47.716322  1344 net.cpp:435] relu1 <- conv1
I0502 13:05:47.716326  1344 net.cpp:396] relu1 -> conv1 (in-place)
I0502 13:05:47.716334  1344 net.cpp:144] Setting up relu1
I0502 13:05:47.716338  1344 net.cpp:151] Top shape: 20 64 20 20 (512000)
I0502 13:05:47.716341  1344 net.cpp:159] Memory required for data: 4128240
I0502 13:05:47.716344  1344 layer_factory.hpp:77] Creating layer conv2
I0502 13:05:47.716352  1344 net.cpp:94] Creating Layer conv2
I0502 13:05:47.716356  1344 net.cpp:435] conv2 <- conv1
I0502 13:05:47.716361  1344 net.cpp:409] conv2 -> conv2
I0502 13:05:47.722143  1344 net.cpp:144] Setting up conv2
I0502 13:05:47.722158  1344 net.cpp:151] Top shape: 20 64 20 20 (512000)
I0502 13:05:47.722162  1344 net.cpp:159] Memory required for data: 6176240
I0502 13:05:47.722170  1344 layer_factory.hpp:77] Creating layer relu2
I0502 13:05:47.722177  1344 net.cpp:94] Creating Layer relu2
I0502 13:05:47.722179  1344 net.cpp:435] relu2 <- conv2
I0502 13:05:47.722184  1344 net.cpp:396] relu2 -> conv2 (in-place)
I0502 13:05:47.722192  1344 net.cpp:144] Setting up relu2
I0502 13:05:47.722195  1344 net.cpp:151] Top shape: 20 64 20 20 (512000)
I0502 13:05:47.722198  1344 net.cpp:159] Memory required for data: 8224240
I0502 13:05:47.722201  1344 layer_factory.hpp:77] Creating layer pool2
I0502 13:05:47.722206  1344 net.cpp:94] Creating Layer pool2
I0502 13:05:47.722209  1344 net.cpp:435] pool2 <- conv2
I0502 13:05:47.722214  1344 net.cpp:409] pool2 -> pool2
I0502 13:05:47.722265  1344 net.cpp:144] Setting up pool2
I0502 13:05:47.722271  1344 net.cpp:151] Top shape: 20 64 10 10 (128000)
I0502 13:05:47.722275  1344 net.cpp:159] Memory required for data: 8736240
I0502 13:05:47.722278  1344 layer_factory.hpp:77] Creating layer conv3
I0502 13:05:47.722285  1344 net.cpp:94] Creating Layer conv3
I0502 13:05:47.722290  1344 net.cpp:435] conv3 <- pool2
I0502 13:05:47.722295  1344 net.cpp:409] conv3 -> conv3
I0502 13:05:47.726200  1344 net.cpp:144] Setting up conv3
I0502 13:05:47.726214  1344 net.cpp:151] Top shape: 20 64 10 10 (128000)
I0502 13:05:47.726218  1344 net.cpp:159] Memory required for data: 9248240
I0502 13:05:47.726227  1344 layer_factory.hpp:77] Creating layer relu3
I0502 13:05:47.726233  1344 net.cpp:94] Creating Layer relu3
I0502 13:05:47.726236  1344 net.cpp:435] relu3 <- conv3
I0502 13:05:47.726240  1344 net.cpp:396] relu3 -> conv3 (in-place)
I0502 13:05:47.726248  1344 net.cpp:144] Setting up relu3
I0502 13:05:47.726251  1344 net.cpp:151] Top shape: 20 64 10 10 (128000)
I0502 13:05:47.726254  1344 net.cpp:159] Memory required for data: 9760240
I0502 13:05:47.726258  1344 layer_factory.hpp:77] Creating layer conv4
I0502 13:05:47.726264  1344 net.cpp:94] Creating Layer conv4
I0502 13:05:47.726269  1344 net.cpp:435] conv4 <- conv3
I0502 13:05:47.726272  1344 net.cpp:409] conv4 -> conv4
I0502 13:05:47.729738  1344 net.cpp:144] Setting up conv4
I0502 13:05:47.729753  1344 net.cpp:151] Top shape: 20 64 10 10 (128000)
I0502 13:05:47.729755  1344 net.cpp:159] Memory required for data: 10272240
I0502 13:05:47.729763  1344 layer_factory.hpp:77] Creating layer relu4
I0502 13:05:47.729768  1344 net.cpp:94] Creating Layer relu4
I0502 13:05:47.729771  1344 net.cpp:435] relu4 <- conv4
I0502 13:05:47.729776  1344 net.cpp:396] relu4 -> conv4 (in-place)
I0502 13:05:47.729782  1344 net.cpp:144] Setting up relu4
I0502 13:05:47.729786  1344 net.cpp:151] Top shape: 20 64 10 10 (128000)
I0502 13:05:47.729789  1344 net.cpp:159] Memory required for data: 10784240
I0502 13:05:47.729792  1344 layer_factory.hpp:77] Creating layer conv5
I0502 13:05:47.729800  1344 net.cpp:94] Creating Layer conv5
I0502 13:05:47.729804  1344 net.cpp:435] conv5 <- conv4
I0502 13:05:47.729809  1344 net.cpp:409] conv5 -> conv5
I0502 13:05:47.733712  1344 net.cpp:144] Setting up conv5
I0502 13:05:47.733729  1344 net.cpp:151] Top shape: 20 64 10 10 (128000)
I0502 13:05:47.733733  1344 net.cpp:159] Memory required for data: 11296240
I0502 13:05:47.733742  1344 layer_factory.hpp:77] Creating layer relu5
I0502 13:05:47.733748  1344 net.cpp:94] Creating Layer relu5
I0502 13:05:47.733752  1344 net.cpp:435] relu5 <- conv5
I0502 13:05:47.733757  1344 net.cpp:396] relu5 -> conv5 (in-place)
I0502 13:05:47.733762  1344 net.cpp:144] Setting up relu5
I0502 13:05:47.733767  1344 net.cpp:151] Top shape: 20 64 10 10 (128000)
I0502 13:05:47.733770  1344 net.cpp:159] Memory required for data: 11808240
I0502 13:05:47.733773  1344 layer_factory.hpp:77] Creating layer pool5
I0502 13:05:47.733778  1344 net.cpp:94] Creating Layer pool5
I0502 13:05:47.733781  1344 net.cpp:435] pool5 <- conv5
I0502 13:05:47.733785  1344 net.cpp:409] pool5 -> pool5
I0502 13:05:47.733819  1344 net.cpp:144] Setting up pool5
I0502 13:05:47.733826  1344 net.cpp:151] Top shape: 20 64 5 5 (32000)
I0502 13:05:47.733829  1344 net.cpp:159] Memory required for data: 11936240
I0502 13:05:47.733832  1344 layer_factory.hpp:77] Creating layer ip1
I0502 13:05:47.733839  1344 net.cpp:94] Creating Layer ip1
I0502 13:05:47.733842  1344 net.cpp:435] ip1 <- pool5
I0502 13:05:47.733847  1344 net.cpp:409] ip1 -> ip1
I0502 13:05:47.736382  1344 net.cpp:144] Setting up ip1
I0502 13:05:47.736390  1344 net.cpp:151] Top shape: 20 64 (1280)
I0502 13:05:47.736393  1344 net.cpp:159] Memory required for data: 11941360
I0502 13:05:47.736398  1344 layer_factory.hpp:77] Creating layer ip2
I0502 13:05:47.736404  1344 net.cpp:94] Creating Layer ip2
I0502 13:05:47.736408  1344 net.cpp:435] ip2 <- ip1
I0502 13:05:47.736413  1344 net.cpp:409] ip2 -> ip2
I0502 13:05:47.736646  1344 net.cpp:144] Setting up ip2
I0502 13:05:47.736655  1344 net.cpp:151] Top shape: 20 64 (1280)
I0502 13:05:47.736659  1344 net.cpp:159] Memory required for data: 11946480
I0502 13:05:47.736665  1344 layer_factory.hpp:77] Creating layer ip3
I0502 13:05:47.736671  1344 net.cpp:94] Creating Layer ip3
I0502 13:05:47.736675  1344 net.cpp:435] ip3 <- ip2
I0502 13:05:47.736680  1344 net.cpp:409] ip3 -> ip3
I0502 13:05:47.736871  1344 net.cpp:144] Setting up ip3
I0502 13:05:47.736876  1344 net.cpp:151] Top shape: 20 50 (1000)
I0502 13:05:47.736881  1344 net.cpp:159] Memory required for data: 11950480
I0502 13:05:47.736886  1344 layer_factory.hpp:77] Creating layer ip3_ip3_0_split
I0502 13:05:47.736891  1344 net.cpp:94] Creating Layer ip3_ip3_0_split
I0502 13:05:47.736893  1344 net.cpp:435] ip3_ip3_0_split <- ip3
I0502 13:05:47.736898  1344 net.cpp:409] ip3_ip3_0_split -> ip3_ip3_0_split_0
I0502 13:05:47.736903  1344 net.cpp:409] ip3_ip3_0_split -> ip3_ip3_0_split_1
I0502 13:05:47.736941  1344 net.cpp:144] Setting up ip3_ip3_0_split
I0502 13:05:47.736948  1344 net.cpp:151] Top shape: 20 50 (1000)
I0502 13:05:47.736950  1344 net.cpp:151] Top shape: 20 50 (1000)
I0502 13:05:47.736953  1344 net.cpp:159] Memory required for data: 11958480
I0502 13:05:47.736956  1344 layer_factory.hpp:77] Creating layer accuracy
I0502 13:05:47.736963  1344 net.cpp:94] Creating Layer accuracy
I0502 13:05:47.736965  1344 net.cpp:435] accuracy <- ip3_ip3_0_split_0
I0502 13:05:47.736969  1344 net.cpp:435] accuracy <- label_intercept_1_split_0
I0502 13:05:47.736974  1344 net.cpp:409] accuracy -> accuracy
…
