…
I0502 02:37:40.725796 17173 net.cpp:323] The NetState phase (0) differed from the phase (1) specified by a rule in layer intercept
I0502 02:37:40.725811 17173 net.cpp:323] The NetState phase (0) differed from the phase (1) specified by a rule in layer loss
I0502 02:37:40.725891 17173 net.cpp:52] Initializing net from parameters: 
state {
  phase: TRAIN
}
layer {
  name: "parameters"
  type: "HDF5Data"
  top: "data"
  top: "label"
  include {
    phase: TRAIN
  }
  hdf5_data_param {
    source: "/home/purduethu/scratch/radon/d/deng106/CNNStatisticalModel/distributions/input/5_distributions_400_sample_size_train-parameters-path.txt"
    batch_size: 20
  }
}
layer {
  name: "conv1"
  type: "Convolution"
  bottom: "data"
  top: "conv1"
  param {
    lr_mult: 1
  }
  param {
    lr_mult: 2
  }
  convolution_param {
    num_output: 64
    pad: 2
    kernel_size: 5
    stride: 1
    weight_filler {
      type: "gaussian"
      std: 0.0001
    }
    bias_filler {
      type: "constant"
    }
  }
}
layer {
  name: "relu1"
  type: "ReLU"
  bottom: "conv1"
  top: "conv1"
}
layer {
  name: "conv2"
  type: "Convolution"
  bottom: "conv1"
  top: "conv2"
  param {
    lr_mult: 1
  }
  param {
    lr_mult: 2
  }
  convolution_param {
    num_output: 64
    pad: 2
    kernel_size: 5
    stride: 1
    weight_filler {
      type: "gaussian"
      std: 0.01
    }
    bias_filler {
      type: "constant"
    }
  }
}
layer {
  name: "relu2"
  type: "ReLU"
  bottom: "conv2"
  top: "conv2"
}
layer {
  name: "pool2"
  type: "Pooling"
  bottom: "conv2"
  top: "pool2"
  pooling_param {
    pool: MAX
    kernel_size: 3
    stride: 2
  }
}
layer {
  name: "conv3"
  type: "Convolution"
  bottom: "pool2"
  top: "conv3"
  param {
    lr_mult: 1
  }
  param {
    lr_mult: 2
  }
  convolution_param {
    num_output: 64
    pad: 2
    kernel_size: 5
    stride: 1
    weight_filler {
      type: "gaussian"
      std: 0.01
    }
    bias_filler {
      type: "constant"
    }
  }
}
layer {
  name: "relu3"
  type: "ReLU"
  bottom: "conv3"
  top: "conv3"
}
layer {
  name: "conv4"
  type: "Convolution"
  bottom: "conv3"
  top: "conv4"
  param {
    lr_mult: 1
  }
  param {
    lr_mult: 2
  }
  convolution_param {
    num_output: 64
    pad: 2
    kernel_size: 5
    stride: 1
    weight_filler {
      type: "gaussian"
      std: 0.01
    }
    bias_filler {
      type: "constant"
    }
  }
}
layer {
  name: "relu4"
  type: "ReLU"
  bottom: "conv4"
  top: "conv4"
}
layer {
  name: "conv5"
  type: "Convolution"
  bottom: "conv4"
  top: "conv5"
  param {
    lr_mult: 1
  }
  param {
    lr_mult: 2
  }
  convolution_param {
    num_output: 64
    pad: 2
    kernel_size: 5
    stride: 1
    weight_filler {
      type: "gaussian"
      std: 0.01
    }
    bias_filler {
      type: "constant"
    }
  }
}
layer {
  name: "relu5"
  type: "ReLU"
  bottom: "conv5"
  top: "conv5"
}
layer {
  name: "pool5"
  type: "Pooling"
  bottom: "conv5"
  top: "pool5"
  pooling_param {
    pool: AVE
    kernel_size: 3
    stride: 2
  }
}
layer {
  name: "ip1"
  type: "InnerProduct"
  bottom: "pool5"
  top: "ip1"
  param {
    lr_mult: 1
  }
  param {
    lr_mult: 2
  }
  inner_product_param {
    num_output: 64
    weight_filler {
      type: "gaussian"
      std: 0.1
    }
    bias_filler {
      type: "constant"
    }
  }
}
layer {
  name: "ip2"
  type: "InnerProduct"
  bottom: "ip1"
  top: "ip2"
  param {
    lr_mult: 1
  }
  param {
    lr_mult: 2
  }
  inner_product_param {
    num_output: 64
    weight_filler {
      type: "gaussian"
      std: 0.1
    }
    bias_filler {
      type: "constant"
    }
  }
}
layer {
  name: "ip3"
  type: "InnerProduct"
  bottom: "ip2"
  top: "ip3"
  param {
    lr_mult: 1
  }
  param {
    lr_mult: 2
  }
  inner_product_param {
    num_output: 1
    weight_filler {
      type: "gaussian"
      std: 0.1
    }
    bias_filler {
      type: "constant"
    }
  }
}
layer {
  name: "loss"
  type: "HuberLoss"
  bottom: "ip3"
  bottom: "label"
  top: "loss"
  include {
    phase: TRAIN
  }
}
I0502 02:37:40.725942 17173 layer_factory.hpp:77] Creating layer parameters
I0502 02:37:40.725955 17173 net.cpp:94] Creating Layer parameters
I0502 02:37:40.725960 17173 net.cpp:409] parameters -> data
I0502 02:37:40.725972 17173 net.cpp:409] parameters -> label
I0502 02:37:40.725980 17173 hdf5_data_layer.cpp:79] Loading list of HDF5 filenames from: /home/purduethu/scratch/radon/d/deng106/CNNStatisticalModel/distributions/input/5_distributions_400_sample_size_train-parameters-path.txt
I0502 02:37:40.725994 17173 hdf5_data_layer.cpp:93] Number of HDF5 files: 1
I0502 02:37:40.726539 17173 hdf5.cpp:32] Datatype class: H5T_FLOAT
I0502 02:37:40.789474 17173 net.cpp:144] Setting up parameters
I0502 02:37:40.789505 17173 net.cpp:151] Top shape: 20 1 20 20 (8000)
I0502 02:37:40.789510 17173 net.cpp:151] Top shape: 20 (20)
I0502 02:37:40.789513 17173 net.cpp:159] Memory required for data: 32080
I0502 02:37:40.789520 17173 layer_factory.hpp:77] Creating layer conv1
I0502 02:37:40.789535 17173 net.cpp:94] Creating Layer conv1
I0502 02:37:40.789539 17173 net.cpp:435] conv1 <- data
I0502 02:37:40.789546 17173 net.cpp:409] conv1 -> conv1
I0502 02:37:40.794992 17173 net.cpp:144] Setting up conv1
I0502 02:37:40.795011 17173 net.cpp:151] Top shape: 20 64 20 20 (512000)
I0502 02:37:40.795014 17173 net.cpp:159] Memory required for data: 2080080
I0502 02:37:40.795024 17173 layer_factory.hpp:77] Creating layer relu1
I0502 02:37:40.795033 17173 net.cpp:94] Creating Layer relu1
I0502 02:37:40.795037 17173 net.cpp:435] relu1 <- conv1
I0502 02:37:40.795042 17173 net.cpp:396] relu1 -> conv1 (in-place)
I0502 02:37:40.795049 17173 net.cpp:144] Setting up relu1
I0502 02:37:40.795054 17173 net.cpp:151] Top shape: 20 64 20 20 (512000)
I0502 02:37:40.795058 17173 net.cpp:159] Memory required for data: 4128080
I0502 02:37:40.795060 17173 layer_factory.hpp:77] Creating layer conv2
I0502 02:37:40.795068 17173 net.cpp:94] Creating Layer conv2
I0502 02:37:40.795073 17173 net.cpp:435] conv2 <- conv1
I0502 02:37:40.795078 17173 net.cpp:409] conv2 -> conv2
I0502 02:37:40.805901 17173 net.cpp:144] Setting up conv2
I0502 02:37:40.805917 17173 net.cpp:151] Top shape: 20 64 20 20 (512000)
I0502 02:37:40.805920 17173 net.cpp:159] Memory required for data: 6176080
I0502 02:37:40.805928 17173 layer_factory.hpp:77] Creating layer relu2
I0502 02:37:40.805935 17173 net.cpp:94] Creating Layer relu2
I0502 02:37:40.805939 17173 net.cpp:435] relu2 <- conv2
I0502 02:37:40.805943 17173 net.cpp:396] relu2 -> conv2 (in-place)
I0502 02:37:40.805951 17173 net.cpp:144] Setting up relu2
I0502 02:37:40.805956 17173 net.cpp:151] Top shape: 20 64 20 20 (512000)
I0502 02:37:40.805959 17173 net.cpp:159] Memory required for data: 8224080
I0502 02:37:40.805963 17173 layer_factory.hpp:77] Creating layer pool2
I0502 02:37:40.805974 17173 net.cpp:94] Creating Layer pool2
I0502 02:37:40.805977 17173 net.cpp:435] pool2 <- conv2
I0502 02:37:40.805981 17173 net.cpp:409] pool2 -> pool2
I0502 02:37:40.806037 17173 net.cpp:144] Setting up pool2
I0502 02:37:40.806046 17173 net.cpp:151] Top shape: 20 64 10 10 (128000)
I0502 02:37:40.806049 17173 net.cpp:159] Memory required for data: 8736080
I0502 02:37:40.806052 17173 layer_factory.hpp:77] Creating layer conv3
I0502 02:37:40.806061 17173 net.cpp:94] Creating Layer conv3
I0502 02:37:40.806063 17173 net.cpp:435] conv3 <- pool2
I0502 02:37:40.806068 17173 net.cpp:409] conv3 -> conv3
I0502 02:37:40.811327 17173 net.cpp:144] Setting up conv3
I0502 02:37:40.811342 17173 net.cpp:151] Top shape: 20 64 10 10 (128000)
I0502 02:37:40.811345 17173 net.cpp:159] Memory required for data: 9248080
I0502 02:37:40.811352 17173 layer_factory.hpp:77] Creating layer relu3
I0502 02:37:40.811359 17173 net.cpp:94] Creating Layer relu3
I0502 02:37:40.811362 17173 net.cpp:435] relu3 <- conv3
I0502 02:37:40.811367 17173 net.cpp:396] relu3 -> conv3 (in-place)
I0502 02:37:40.811373 17173 net.cpp:144] Setting up relu3
I0502 02:37:40.811378 17173 net.cpp:151] Top shape: 20 64 10 10 (128000)
I0502 02:37:40.811381 17173 net.cpp:159] Memory required for data: 9760080
I0502 02:37:40.811384 17173 layer_factory.hpp:77] Creating layer conv4
I0502 02:37:40.811393 17173 net.cpp:94] Creating Layer conv4
I0502 02:37:40.811396 17173 net.cpp:435] conv4 <- conv3
I0502 02:37:40.811401 17173 net.cpp:409] conv4 -> conv4
I0502 02:37:40.816676 17173 net.cpp:144] Setting up conv4
I0502 02:37:40.816690 17173 net.cpp:151] Top shape: 20 64 10 10 (128000)
I0502 02:37:40.816694 17173 net.cpp:159] Memory required for data: 10272080
I0502 02:37:40.816700 17173 layer_factory.hpp:77] Creating layer relu4
I0502 02:37:40.816706 17173 net.cpp:94] Creating Layer relu4
I0502 02:37:40.816709 17173 net.cpp:435] relu4 <- conv4
I0502 02:37:40.816715 17173 net.cpp:396] relu4 -> conv4 (in-place)
I0502 02:37:40.816721 17173 net.cpp:144] Setting up relu4
I0502 02:37:40.816726 17173 net.cpp:151] Top shape: 20 64 10 10 (128000)
I0502 02:37:40.816730 17173 net.cpp:159] Memory required for data: 10784080
I0502 02:37:40.816732 17173 layer_factory.hpp:77] Creating layer conv5
I0502 02:37:40.816740 17173 net.cpp:94] Creating Layer conv5
I0502 02:37:40.816743 17173 net.cpp:435] conv5 <- conv4
I0502 02:37:40.816747 17173 net.cpp:409] conv5 -> conv5
I0502 02:37:40.822054 17173 net.cpp:144] Setting up conv5
I0502 02:37:40.822068 17173 net.cpp:151] Top shape: 20 64 10 10 (128000)
I0502 02:37:40.822072 17173 net.cpp:159] Memory required for data: 11296080
I0502 02:37:40.822080 17173 layer_factory.hpp:77] Creating layer relu5
I0502 02:37:40.822088 17173 net.cpp:94] Creating Layer relu5
I0502 02:37:40.822090 17173 net.cpp:435] relu5 <- conv5
I0502 02:37:40.822095 17173 net.cpp:396] relu5 -> conv5 (in-place)
I0502 02:37:40.822101 17173 net.cpp:144] Setting up relu5
I0502 02:37:40.822106 17173 net.cpp:151] Top shape: 20 64 10 10 (128000)
I0502 02:37:40.822109 17173 net.cpp:159] Memory required for data: 11808080
I0502 02:37:40.822113 17173 layer_factory.hpp:77] Creating layer pool5
I0502 02:37:40.822118 17173 net.cpp:94] Creating Layer pool5
I0502 02:37:40.822121 17173 net.cpp:435] pool5 <- conv5
I0502 02:37:40.822125 17173 net.cpp:409] pool5 -> pool5
I0502 02:37:40.822167 17173 net.cpp:144] Setting up pool5
I0502 02:37:40.822175 17173 net.cpp:151] Top shape: 20 64 5 5 (32000)
I0502 02:37:40.822178 17173 net.cpp:159] Memory required for data: 11936080
I0502 02:37:40.822181 17173 layer_factory.hpp:77] Creating layer ip1
I0502 02:37:40.822191 17173 net.cpp:94] Creating Layer ip1
I0502 02:37:40.822194 17173 net.cpp:435] ip1 <- pool5
I0502 02:37:40.822199 17173 net.cpp:409] ip1 -> ip1
I0502 02:37:40.824749 17173 net.cpp:144] Setting up ip1
I0502 02:37:40.824759 17173 net.cpp:151] Top shape: 20 64 (1280)
I0502 02:37:40.824761 17173 net.cpp:159] Memory required for data: 11941200
I0502 02:37:40.824767 17173 layer_factory.hpp:77] Creating layer ip2
I0502 02:37:40.824774 17173 net.cpp:94] Creating Layer ip2
I0502 02:37:40.824780 17173 net.cpp:435] ip2 <- ip1
I0502 02:37:40.824785 17173 net.cpp:409] ip2 -> ip2
I0502 02:37:40.825006 17173 net.cpp:144] Setting up ip2
I0502 02:37:40.825012 17173 net.cpp:151] Top shape: 20 64 (1280)
I0502 02:37:40.825016 17173 net.cpp:159] Memory required for data: 11946320
I0502 02:37:40.825021 17173 layer_factory.hpp:77] Creating layer ip3
I0502 02:37:40.825029 17173 net.cpp:94] Creating Layer ip3
I0502 02:37:40.825032 17173 net.cpp:435] ip3 <- ip2
I0502 02:37:40.825037 17173 net.cpp:409] ip3 -> ip3
I0502 02:37:40.825147 17173 net.cpp:144] Setting up ip3
I0502 02:37:40.825155 17173 net.cpp:151] Top shape: 20 1 (20)
I0502 02:37:40.825156 17173 net.cpp:159] Memory required for data: 11946400
I0502 02:37:40.825161 17173 layer_factory.hpp:77] Creating layer loss
I0502 02:37:40.825172 17173 net.cpp:94] Creating Layer loss
I0502 02:37:40.825176 17173 net.cpp:435] loss <- ip3
I0502 02:37:40.825178 17173 net.cpp:435] loss <- label
I0502 02:37:40.825184 17173 net.cpp:409] loss -> loss
I0502 02:37:40.825238 17173 net.cpp:144] Setting up loss
…
I0502 02:37:40.866083 17173 net.cpp:323] The NetState phase (0) differed from the phase (1) specified by a rule in layer intercept
I0502 02:37:40.866102 17173 net.cpp:323] The NetState phase (0) differed from the phase (1) specified by a rule in layer accuracy
I0502 02:37:40.866192 17173 net.cpp:52] Initializing net from parameters: 
state {
  phase: TRAIN
}
layer {
  name: "parameters"
  type: "HDF5Data"
  top: "data"
  top: "label"
  include {
    phase: TRAIN
  }
  hdf5_data_param {
    source: "/home/purduethu/scratch/radon/d/deng106/CNNStatisticalModel/distributions/input/5_distributions_400_sample_size_train-distributions-path.txt"
    batch_size: 20
  }
}
layer {
  name: "conv1"
  type: "Convolution"
  bottom: "data"
  top: "conv1"
  param {
    lr_mult: 1
  }
  param {
    lr_mult: 2
  }
  convolution_param {
    num_output: 64
    pad: 2
    kernel_size: 5
    stride: 1
    weight_filler {
      type: "gaussian"
      std: 0.0001
    }
    bias_filler {
      type: "constant"
    }
  }
}
layer {
  name: "relu1"
  type: "ReLU"
  bottom: "conv1"
  top: "conv1"
}
layer {
  name: "conv2"
  type: "Convolution"
  bottom: "conv1"
  top: "conv2"
  param {
    lr_mult: 1
  }
  param {
    lr_mult: 2
  }
  convolution_param {
    num_output: 64
    pad: 2
    kernel_size: 5
    stride: 1
    weight_filler {
      type: "gaussian"
      std: 0.01
    }
    bias_filler {
      type: "constant"
    }
  }
}
layer {
  name: "relu2"
  type: "ReLU"
  bottom: "conv2"
  top: "conv2"
}
layer {
  name: "pool2"
  type: "Pooling"
  bottom: "conv2"
  top: "pool2"
  pooling_param {
    pool: MAX
    kernel_size: 3
    stride: 2
  }
}
layer {
  name: "conv3"
  type: "Convolution"
  bottom: "pool2"
  top: "conv3"
  param {
    lr_mult: 1
  }
  param {
    lr_mult: 2
  }
  convolution_param {
    num_output: 64
    pad: 2
    kernel_size: 5
    stride: 1
    weight_filler {
      type: "gaussian"
      std: 0.01
    }
    bias_filler {
      type: "constant"
    }
  }
}
layer {
  name: "relu3"
  type: "ReLU"
  bottom: "conv3"
  top: "conv3"
}
layer {
  name: "conv4"
  type: "Convolution"
  bottom: "conv3"
  top: "conv4"
  param {
    lr_mult: 1
  }
  param {
    lr_mult: 2
  }
  convolution_param {
    num_output: 64
    pad: 2
    kernel_size: 5
    stride: 1
    weight_filler {
      type: "gaussian"
      std: 0.01
    }
    bias_filler {
      type: "constant"
    }
  }
}
layer {
  name: "relu4"
  type: "ReLU"
  bottom: "conv4"
  top: "conv4"
}
layer {
  name: "conv5"
  type: "Convolution"
  bottom: "conv4"
  top: "conv5"
  param {
    lr_mult: 1
  }
  param {
    lr_mult: 2
  }
  convolution_param {
    num_output: 64
    pad: 2
    kernel_size: 5
    stride: 1
    weight_filler {
      type: "gaussian"
      std: 0.01
    }
    bias_filler {
      type: "constant"
    }
  }
}
layer {
  name: "relu5"
  type: "ReLU"
  bottom: "conv5"
  top: "conv5"
}
layer {
  name: "pool5"
  type: "Pooling"
  bottom: "conv5"
  top: "pool5"
  pooling_param {
    pool: AVE
    kernel_size: 3
    stride: 2
  }
}
layer {
  name: "ip1"
  type: "InnerProduct"
  bottom: "pool5"
  top: "ip1"
  param {
    lr_mult: 1
  }
  param {
    lr_mult: 2
  }
  inner_product_param {
    num_output: 64
    weight_filler {
      type: "gaussian"
      std: 0.1
    }
    bias_filler {
      type: "constant"
    }
  }
}
layer {
  name: "ip2"
  type: "InnerProduct"
  bottom: "ip1"
  top: "ip2"
  param {
    lr_mult: 1
  }
  param {
    lr_mult: 2
  }
  inner_product_param {
    num_output: 64
    weight_filler {
      type: "gaussian"
      std: 0.1
    }
    bias_filler {
      type: "constant"
    }
  }
}
layer {
  name: "ip3"
  type: "InnerProduct"
  bottom: "ip2"
  top: "ip3"
  param {
    lr_mult: 1
  }
  param {
    lr_mult: 2
  }
  inner_product_param {
    num_output: 50
    weight_filler {
      type: "gaussian"
      std: 0.1
    }
    bias_filler {
      type: "constant"
    }
  }
}
layer {
  name: "loss"
  type: "SoftmaxWithLoss"
  bottom: "ip3"
  bottom: "label"
  top: "loss"
}
I0502 02:37:40.866243 17173 layer_factory.hpp:77] Creating layer parameters
I0502 02:37:40.866251 17173 net.cpp:94] Creating Layer parameters
I0502 02:37:40.866255 17173 net.cpp:409] parameters -> data
I0502 02:37:40.866261 17173 net.cpp:409] parameters -> label
I0502 02:37:40.866268 17173 hdf5_data_layer.cpp:79] Loading list of HDF5 filenames from: /home/purduethu/scratch/radon/d/deng106/CNNStatisticalModel/distributions/input/5_distributions_400_sample_size_train-distributions-path.txt
I0502 02:37:40.866284 17173 hdf5_data_layer.cpp:93] Number of HDF5 files: 1
I0502 02:37:40.927812 17173 hdf5.cpp:35] Datatype class: H5T_INTEGER
I0502 02:37:40.928253 17173 net.cpp:144] Setting up parameters
I0502 02:37:40.928267 17173 net.cpp:151] Top shape: 20 1 20 20 (8000)
I0502 02:37:40.928272 17173 net.cpp:151] Top shape: 20 (20)
I0502 02:37:40.928275 17173 net.cpp:159] Memory required for data: 32080
I0502 02:37:40.928282 17173 layer_factory.hpp:77] Creating layer conv1
I0502 02:37:40.928297 17173 net.cpp:94] Creating Layer conv1
I0502 02:37:40.928303 17173 net.cpp:435] conv1 <- data
I0502 02:37:40.928308 17173 net.cpp:409] conv1 -> conv1
I0502 02:37:40.931116 17173 net.cpp:144] Setting up conv1
I0502 02:37:40.931130 17173 net.cpp:151] Top shape: 20 64 20 20 (512000)
I0502 02:37:40.931133 17173 net.cpp:159] Memory required for data: 2080080
I0502 02:37:40.931143 17173 layer_factory.hpp:77] Creating layer relu1
I0502 02:37:40.931151 17173 net.cpp:94] Creating Layer relu1
I0502 02:37:40.931154 17173 net.cpp:435] relu1 <- conv1
I0502 02:37:40.931159 17173 net.cpp:396] relu1 -> conv1 (in-place)
I0502 02:37:40.931166 17173 net.cpp:144] Setting up relu1
I0502 02:37:40.931171 17173 net.cpp:151] Top shape: 20 64 20 20 (512000)
I0502 02:37:40.931174 17173 net.cpp:159] Memory required for data: 4128080
I0502 02:37:40.931177 17173 layer_factory.hpp:77] Creating layer conv2
I0502 02:37:40.931185 17173 net.cpp:94] Creating Layer conv2
I0502 02:37:40.931188 17173 net.cpp:435] conv2 <- conv1
I0502 02:37:40.931192 17173 net.cpp:409] conv2 -> conv2
I0502 02:37:40.941843 17173 net.cpp:144] Setting up conv2
I0502 02:37:40.941857 17173 net.cpp:151] Top shape: 20 64 20 20 (512000)
I0502 02:37:40.941861 17173 net.cpp:159] Memory required for data: 6176080
I0502 02:37:40.941870 17173 layer_factory.hpp:77] Creating layer relu2
I0502 02:37:40.941877 17173 net.cpp:94] Creating Layer relu2
I0502 02:37:40.941880 17173 net.cpp:435] relu2 <- conv2
I0502 02:37:40.941885 17173 net.cpp:396] relu2 -> conv2 (in-place)
I0502 02:37:40.941892 17173 net.cpp:144] Setting up relu2
I0502 02:37:40.941896 17173 net.cpp:151] Top shape: 20 64 20 20 (512000)
I0502 02:37:40.941900 17173 net.cpp:159] Memory required for data: 8224080
I0502 02:37:40.941902 17173 layer_factory.hpp:77] Creating layer pool2
I0502 02:37:40.941908 17173 net.cpp:94] Creating Layer pool2
I0502 02:37:40.941911 17173 net.cpp:435] pool2 <- conv2
I0502 02:37:40.941915 17173 net.cpp:409] pool2 -> pool2
I0502 02:37:40.941970 17173 net.cpp:144] Setting up pool2
I0502 02:37:40.941977 17173 net.cpp:151] Top shape: 20 64 10 10 (128000)
I0502 02:37:40.941980 17173 net.cpp:159] Memory required for data: 8736080
I0502 02:37:40.941983 17173 layer_factory.hpp:77] Creating layer conv3
I0502 02:37:40.941992 17173 net.cpp:94] Creating Layer conv3
I0502 02:37:40.941994 17173 net.cpp:435] conv3 <- pool2
I0502 02:37:40.941999 17173 net.cpp:409] conv3 -> conv3
I0502 02:37:40.947312 17173 net.cpp:144] Setting up conv3
I0502 02:37:40.947326 17173 net.cpp:151] Top shape: 20 64 10 10 (128000)
I0502 02:37:40.947329 17173 net.cpp:159] Memory required for data: 9248080
I0502 02:37:40.947337 17173 layer_factory.hpp:77] Creating layer relu3
I0502 02:37:40.947343 17173 net.cpp:94] Creating Layer relu3
I0502 02:37:40.947347 17173 net.cpp:435] relu3 <- conv3
I0502 02:37:40.947351 17173 net.cpp:396] relu3 -> conv3 (in-place)
I0502 02:37:40.947358 17173 net.cpp:144] Setting up relu3
I0502 02:37:40.947363 17173 net.cpp:151] Top shape: 20 64 10 10 (128000)
I0502 02:37:40.947366 17173 net.cpp:159] Memory required for data: 9760080
I0502 02:37:40.947369 17173 layer_factory.hpp:77] Creating layer conv4
I0502 02:37:40.947377 17173 net.cpp:94] Creating Layer conv4
I0502 02:37:40.947381 17173 net.cpp:435] conv4 <- conv3
I0502 02:37:40.947386 17173 net.cpp:409] conv4 -> conv4
I0502 02:37:40.952667 17173 net.cpp:144] Setting up conv4
I0502 02:37:40.952682 17173 net.cpp:151] Top shape: 20 64 10 10 (128000)
I0502 02:37:40.952685 17173 net.cpp:159] Memory required for data: 10272080
I0502 02:37:40.952692 17173 layer_factory.hpp:77] Creating layer relu4
I0502 02:37:40.952697 17173 net.cpp:94] Creating Layer relu4
I0502 02:37:40.952702 17173 net.cpp:435] relu4 <- conv4
I0502 02:37:40.952705 17173 net.cpp:396] relu4 -> conv4 (in-place)
I0502 02:37:40.952713 17173 net.cpp:144] Setting up relu4
I0502 02:37:40.952716 17173 net.cpp:151] Top shape: 20 64 10 10 (128000)
I0502 02:37:40.952719 17173 net.cpp:159] Memory required for data: 10784080
I0502 02:37:40.952723 17173 layer_factory.hpp:77] Creating layer conv5
I0502 02:37:40.952730 17173 net.cpp:94] Creating Layer conv5
I0502 02:37:40.952733 17173 net.cpp:435] conv5 <- conv4
I0502 02:37:40.952739 17173 net.cpp:409] conv5 -> conv5
I0502 02:37:40.958005 17173 net.cpp:144] Setting up conv5
I0502 02:37:40.958019 17173 net.cpp:151] Top shape: 20 64 10 10 (128000)
I0502 02:37:40.958022 17173 net.cpp:159] Memory required for data: 11296080
I0502 02:37:40.958030 17173 layer_factory.hpp:77] Creating layer relu5
I0502 02:37:40.958036 17173 net.cpp:94] Creating Layer relu5
I0502 02:37:40.958039 17173 net.cpp:435] relu5 <- conv5
I0502 02:37:40.958045 17173 net.cpp:396] relu5 -> conv5 (in-place)
I0502 02:37:40.958050 17173 net.cpp:144] Setting up relu5
I0502 02:37:40.958055 17173 net.cpp:151] Top shape: 20 64 10 10 (128000)
I0502 02:37:40.958058 17173 net.cpp:159] Memory required for data: 11808080
I0502 02:37:40.958061 17173 layer_factory.hpp:77] Creating layer pool5
I0502 02:37:40.958066 17173 net.cpp:94] Creating Layer pool5
I0502 02:37:40.958070 17173 net.cpp:435] pool5 <- conv5
I0502 02:37:40.958073 17173 net.cpp:409] pool5 -> pool5
I0502 02:37:40.958112 17173 net.cpp:144] Setting up pool5
I0502 02:37:40.958118 17173 net.cpp:151] Top shape: 20 64 5 5 (32000)
I0502 02:37:40.958122 17173 net.cpp:159] Memory required for data: 11936080
I0502 02:37:40.958125 17173 layer_factory.hpp:77] Creating layer ip1
I0502 02:37:40.958132 17173 net.cpp:94] Creating Layer ip1
I0502 02:37:40.958134 17173 net.cpp:435] ip1 <- pool5
I0502 02:37:40.958138 17173 net.cpp:409] ip1 -> ip1
I0502 02:37:40.960657 17173 net.cpp:144] Setting up ip1
I0502 02:37:40.960666 17173 net.cpp:151] Top shape: 20 64 (1280)
I0502 02:37:40.960669 17173 net.cpp:159] Memory required for data: 11941200
I0502 02:37:40.960675 17173 layer_factory.hpp:77] Creating layer ip2
I0502 02:37:40.960682 17173 net.cpp:94] Creating Layer ip2
I0502 02:37:40.960686 17173 net.cpp:435] ip2 <- ip1
I0502 02:37:40.960691 17173 net.cpp:409] ip2 -> ip2
I0502 02:37:40.960929 17173 net.cpp:144] Setting up ip2
I0502 02:37:40.960937 17173 net.cpp:151] Top shape: 20 64 (1280)
I0502 02:37:40.960939 17173 net.cpp:159] Memory required for data: 11946320
I0502 02:37:40.960944 17173 layer_factory.hpp:77] Creating layer ip3
I0502 02:37:40.960950 17173 net.cpp:94] Creating Layer ip3
I0502 02:37:40.960953 17173 net.cpp:435] ip3 <- ip2
I0502 02:37:40.960958 17173 net.cpp:409] ip3 -> ip3
I0502 02:37:40.961163 17173 net.cpp:144] Setting up ip3
I0502 02:37:40.961174 17173 net.cpp:151] Top shape: 20 50 (1000)
I0502 02:37:40.961176 17173 net.cpp:159] Memory required for data: 11950320
I0502 02:37:40.961181 17173 layer_factory.hpp:77] Creating layer loss
I0502 02:37:40.961189 17173 net.cpp:94] Creating Layer loss
I0502 02:37:40.961192 17173 net.cpp:435] loss <- ip3
I0502 02:37:40.961195 17173 net.cpp:435] loss <- label
I0502 02:37:40.961200 17173 net.cpp:409] loss -> loss
I0502 02:37:40.961207 17173 layer_factory.hpp:77] Creating layer loss
…
I0502 02:37:40.961716 17173 solver.cpp:181] Creating test net (#0) specified by net file: ./protocol/dis_5_400_dimension.protocol_distribution
I0502 02:37:40.961740 17173 net.cpp:323] The NetState phase (1) differed from the phase (0) specified by a rule in layer parameters
I0502 02:37:40.961836 17173 net.cpp:52] Initializing net from parameters: 
state {
  phase: TEST
}
layer {
  name: "intercept"
  type: "HDF5Data"
  top: "data"
  top: "label"
  include {
    phase: TEST
  }
  hdf5_data_param {
    source: "/home/purduethu/scratch/radon/d/deng106/CNNStatisticalModel/distributions/input/5_distributions_400_sample_size_test-distributions-path.txt"
    batch_size: 20
  }
}
layer {
  name: "conv1"
  type: "Convolution"
  bottom: "data"
  top: "conv1"
  param {
    lr_mult: 1
  }
  param {
    lr_mult: 2
  }
  convolution_param {
    num_output: 64
    pad: 2
    kernel_size: 5
    stride: 1
    weight_filler {
      type: "gaussian"
      std: 0.0001
    }
    bias_filler {
      type: "constant"
    }
  }
}
layer {
  name: "relu1"
  type: "ReLU"
  bottom: "conv1"
  top: "conv1"
}
layer {
  name: "conv2"
  type: "Convolution"
  bottom: "conv1"
  top: "conv2"
  param {
    lr_mult: 1
  }
  param {
    lr_mult: 2
  }
  convolution_param {
    num_output: 64
    pad: 2
    kernel_size: 5
    stride: 1
    weight_filler {
      type: "gaussian"
      std: 0.01
    }
    bias_filler {
      type: "constant"
    }
  }
}
layer {
  name: "relu2"
  type: "ReLU"
  bottom: "conv2"
  top: "conv2"
}
layer {
  name: "pool2"
  type: "Pooling"
  bottom: "conv2"
  top: "pool2"
  pooling_param {
    pool: MAX
    kernel_size: 3
    stride: 2
  }
}
layer {
  name: "conv3"
  type: "Convolution"
  bottom: "pool2"
  top: "conv3"
  param {
    lr_mult: 1
  }
  param {
    lr_mult: 2
  }
  convolution_param {
    num_output: 64
    pad: 2
    kernel_size: 5
    stride: 1
    weight_filler {
      type: "gaussian"
      std: 0.01
    }
    bias_filler {
      type: "constant"
    }
  }
}
layer {
  name: "relu3"
  type: "ReLU"
  bottom: "conv3"
  top: "conv3"
}
layer {
  name: "conv4"
  type: "Convolution"
  bottom: "conv3"
  top: "conv4"
  param {
    lr_mult: 1
  }
  param {
    lr_mult: 2
  }
  convolution_param {
    num_output: 64
    pad: 2
    kernel_size: 5
    stride: 1
    weight_filler {
      type: "gaussian"
      std: 0.01
    }
    bias_filler {
      type: "constant"
    }
  }
}
layer {
  name: "relu4"
  type: "ReLU"
  bottom: "conv4"
  top: "conv4"
}
layer {
  name: "conv5"
  type: "Convolution"
  bottom: "conv4"
  top: "conv5"
  param {
    lr_mult: 1
  }
  param {
    lr_mult: 2
  }
  convolution_param {
    num_output: 64
    pad: 2
    kernel_size: 5
    stride: 1
    weight_filler {
      type: "gaussian"
      std: 0.01
    }
    bias_filler {
      type: "constant"
    }
  }
}
layer {
  name: "relu5"
  type: "ReLU"
  bottom: "conv5"
  top: "conv5"
}
layer {
  name: "pool5"
  type: "Pooling"
  bottom: "conv5"
  top: "pool5"
  pooling_param {
    pool: AVE
    kernel_size: 3
    stride: 2
  }
}
layer {
  name: "ip1"
  type: "InnerProduct"
  bottom: "pool5"
  top: "ip1"
  param {
    lr_mult: 1
  }
  param {
    lr_mult: 2
  }
  inner_product_param {
    num_output: 64
    weight_filler {
      type: "gaussian"
      std: 0.1
    }
    bias_filler {
      type: "constant"
    }
  }
}
layer {
  name: "ip2"
  type: "InnerProduct"
  bottom: "ip1"
  top: "ip2"
  param {
    lr_mult: 1
  }
  param {
    lr_mult: 2
  }
  inner_product_param {
    num_output: 64
    weight_filler {
      type: "gaussian"
      std: 0.1
    }
    bias_filler {
      type: "constant"
    }
  }
}
layer {
  name: "ip3"
  type: "InnerProduct"
  bottom: "ip2"
  top: "ip3"
  param {
    lr_mult: 1
  }
  param {
    lr_mult: 2
  }
  inner_product_param {
    num_output: 50
    weight_filler {
      type: "gaussian"
      std: 0.1
    }
    bias_filler {
      type: "constant"
    }
  }
}
layer {
  name: "accuracy"
  type: "Accuracy"
  bottom: "ip3"
  bottom: "label"
  top: "accuracy"
  include {
    phase: TEST
  }
}
layer {
  name: "loss"
  type: "SoftmaxWithLoss"
  bottom: "ip3"
  bottom: "label"
  top: "loss"
}
I0502 02:37:40.961906 17173 layer_factory.hpp:77] Creating layer intercept
I0502 02:37:40.961915 17173 net.cpp:94] Creating Layer intercept
I0502 02:37:40.961918 17173 net.cpp:409] intercept -> data
I0502 02:37:40.961925 17173 net.cpp:409] intercept -> label
I0502 02:37:40.961931 17173 hdf5_data_layer.cpp:79] Loading list of HDF5 filenames from: /home/purduethu/scratch/radon/d/deng106/CNNStatisticalModel/distributions/input/5_distributions_400_sample_size_test-distributions-path.txt
I0502 02:37:40.961949 17173 hdf5_data_layer.cpp:93] Number of HDF5 files: 1
I0502 02:37:40.978014 17173 net.cpp:144] Setting up intercept
I0502 02:37:40.978046 17173 net.cpp:151] Top shape: 20 1 20 20 (8000)
I0502 02:37:40.978051 17173 net.cpp:151] Top shape: 20 (20)
I0502 02:37:40.978055 17173 net.cpp:159] Memory required for data: 32080
I0502 02:37:40.978060 17173 layer_factory.hpp:77] Creating layer label_intercept_1_split
I0502 02:37:40.978077 17173 net.cpp:94] Creating Layer label_intercept_1_split
I0502 02:37:40.978081 17173 net.cpp:435] label_intercept_1_split <- label
I0502 02:37:40.978087 17173 net.cpp:409] label_intercept_1_split -> label_intercept_1_split_0
I0502 02:37:40.978096 17173 net.cpp:409] label_intercept_1_split -> label_intercept_1_split_1
I0502 02:37:40.978137 17173 net.cpp:144] Setting up label_intercept_1_split
I0502 02:37:40.978143 17173 net.cpp:151] Top shape: 20 (20)
I0502 02:37:40.978147 17173 net.cpp:151] Top shape: 20 (20)
I0502 02:37:40.978149 17173 net.cpp:159] Memory required for data: 32240
I0502 02:37:40.978152 17173 layer_factory.hpp:77] Creating layer conv1
I0502 02:37:40.978163 17173 net.cpp:94] Creating Layer conv1
I0502 02:37:40.978166 17173 net.cpp:435] conv1 <- data
I0502 02:37:40.978170 17173 net.cpp:409] conv1 -> conv1
I0502 02:37:40.979534 17173 net.cpp:144] Setting up conv1
I0502 02:37:40.979554 17173 net.cpp:151] Top shape: 20 64 20 20 (512000)
I0502 02:37:40.979558 17173 net.cpp:159] Memory required for data: 2080240
I0502 02:37:40.979568 17173 layer_factory.hpp:77] Creating layer relu1
I0502 02:37:40.979575 17173 net.cpp:94] Creating Layer relu1
I0502 02:37:40.979579 17173 net.cpp:435] relu1 <- conv1
I0502 02:37:40.979583 17173 net.cpp:396] relu1 -> conv1 (in-place)
I0502 02:37:40.979590 17173 net.cpp:144] Setting up relu1
I0502 02:37:40.979595 17173 net.cpp:151] Top shape: 20 64 20 20 (512000)
I0502 02:37:40.979598 17173 net.cpp:159] Memory required for data: 4128240
I0502 02:37:40.979601 17173 layer_factory.hpp:77] Creating layer conv2
I0502 02:37:40.979609 17173 net.cpp:94] Creating Layer conv2
I0502 02:37:40.979612 17173 net.cpp:435] conv2 <- conv1
I0502 02:37:40.979617 17173 net.cpp:409] conv2 -> conv2
I0502 02:37:40.985322 17173 net.cpp:144] Setting up conv2
I0502 02:37:40.985337 17173 net.cpp:151] Top shape: 20 64 20 20 (512000)
I0502 02:37:40.985339 17173 net.cpp:159] Memory required for data: 6176240
I0502 02:37:40.985348 17173 layer_factory.hpp:77] Creating layer relu2
I0502 02:37:40.985354 17173 net.cpp:94] Creating Layer relu2
I0502 02:37:40.985357 17173 net.cpp:435] relu2 <- conv2
I0502 02:37:40.985363 17173 net.cpp:396] relu2 -> conv2 (in-place)
I0502 02:37:40.985368 17173 net.cpp:144] Setting up relu2
I0502 02:37:40.985373 17173 net.cpp:151] Top shape: 20 64 20 20 (512000)
I0502 02:37:40.985376 17173 net.cpp:159] Memory required for data: 8224240
I0502 02:37:40.985379 17173 layer_factory.hpp:77] Creating layer pool2
I0502 02:37:40.985384 17173 net.cpp:94] Creating Layer pool2
I0502 02:37:40.985388 17173 net.cpp:435] pool2 <- conv2
I0502 02:37:40.985391 17173 net.cpp:409] pool2 -> pool2
I0502 02:37:40.985446 17173 net.cpp:144] Setting up pool2
I0502 02:37:40.985453 17173 net.cpp:151] Top shape: 20 64 10 10 (128000)
I0502 02:37:40.985456 17173 net.cpp:159] Memory required for data: 8736240
I0502 02:37:40.985460 17173 layer_factory.hpp:77] Creating layer conv3
I0502 02:37:40.985467 17173 net.cpp:94] Creating Layer conv3
I0502 02:37:40.985471 17173 net.cpp:435] conv3 <- pool2
I0502 02:37:40.985474 17173 net.cpp:409] conv3 -> conv3
I0502 02:37:40.989394 17173 net.cpp:144] Setting up conv3
I0502 02:37:40.989408 17173 net.cpp:151] Top shape: 20 64 10 10 (128000)
I0502 02:37:40.989411 17173 net.cpp:159] Memory required for data: 9248240
I0502 02:37:40.989418 17173 layer_factory.hpp:77] Creating layer relu3
I0502 02:37:40.989425 17173 net.cpp:94] Creating Layer relu3
I0502 02:37:40.989429 17173 net.cpp:435] relu3 <- conv3
I0502 02:37:40.989434 17173 net.cpp:396] relu3 -> conv3 (in-place)
I0502 02:37:40.989440 17173 net.cpp:144] Setting up relu3
I0502 02:37:40.989445 17173 net.cpp:151] Top shape: 20 64 10 10 (128000)
I0502 02:37:40.989449 17173 net.cpp:159] Memory required for data: 9760240
I0502 02:37:40.989451 17173 layer_factory.hpp:77] Creating layer conv4
I0502 02:37:40.989459 17173 net.cpp:94] Creating Layer conv4
I0502 02:37:40.989461 17173 net.cpp:435] conv4 <- conv3
I0502 02:37:40.989466 17173 net.cpp:409] conv4 -> conv4
I0502 02:37:40.992966 17173 net.cpp:144] Setting up conv4
I0502 02:37:40.992980 17173 net.cpp:151] Top shape: 20 64 10 10 (128000)
I0502 02:37:40.992983 17173 net.cpp:159] Memory required for data: 10272240
I0502 02:37:40.992990 17173 layer_factory.hpp:77] Creating layer relu4
I0502 02:37:40.992995 17173 net.cpp:94] Creating Layer relu4
I0502 02:37:40.993000 17173 net.cpp:435] relu4 <- conv4
I0502 02:37:40.993003 17173 net.cpp:396] relu4 -> conv4 (in-place)
I0502 02:37:40.993010 17173 net.cpp:144] Setting up relu4
I0502 02:37:40.993016 17173 net.cpp:151] Top shape: 20 64 10 10 (128000)
I0502 02:37:40.993018 17173 net.cpp:159] Memory required for data: 10784240
I0502 02:37:40.993021 17173 layer_factory.hpp:77] Creating layer conv5
I0502 02:37:40.993028 17173 net.cpp:94] Creating Layer conv5
I0502 02:37:40.993031 17173 net.cpp:435] conv5 <- conv4
I0502 02:37:40.993036 17173 net.cpp:409] conv5 -> conv5
I0502 02:37:40.996912 17173 net.cpp:144] Setting up conv5
I0502 02:37:40.996929 17173 net.cpp:151] Top shape: 20 64 10 10 (128000)
I0502 02:37:40.996933 17173 net.cpp:159] Memory required for data: 11296240
I0502 02:37:40.996942 17173 layer_factory.hpp:77] Creating layer relu5
I0502 02:37:40.996948 17173 net.cpp:94] Creating Layer relu5
I0502 02:37:40.996951 17173 net.cpp:435] relu5 <- conv5
I0502 02:37:40.996955 17173 net.cpp:396] relu5 -> conv5 (in-place)
I0502 02:37:40.996963 17173 net.cpp:144] Setting up relu5
I0502 02:37:40.996966 17173 net.cpp:151] Top shape: 20 64 10 10 (128000)
I0502 02:37:40.996969 17173 net.cpp:159] Memory required for data: 11808240
I0502 02:37:40.996973 17173 layer_factory.hpp:77] Creating layer pool5
I0502 02:37:40.996978 17173 net.cpp:94] Creating Layer pool5
I0502 02:37:40.996980 17173 net.cpp:435] pool5 <- conv5
I0502 02:37:40.996984 17173 net.cpp:409] pool5 -> pool5
I0502 02:37:40.997023 17173 net.cpp:144] Setting up pool5
I0502 02:37:40.997030 17173 net.cpp:151] Top shape: 20 64 5 5 (32000)
I0502 02:37:40.997033 17173 net.cpp:159] Memory required for data: 11936240
I0502 02:37:40.997036 17173 layer_factory.hpp:77] Creating layer ip1
I0502 02:37:40.997043 17173 net.cpp:94] Creating Layer ip1
I0502 02:37:40.997046 17173 net.cpp:435] ip1 <- pool5
I0502 02:37:40.997051 17173 net.cpp:409] ip1 -> ip1
I0502 02:37:40.999604 17173 net.cpp:144] Setting up ip1
I0502 02:37:40.999613 17173 net.cpp:151] Top shape: 20 64 (1280)
I0502 02:37:40.999616 17173 net.cpp:159] Memory required for data: 11941360
I0502 02:37:40.999621 17173 layer_factory.hpp:77] Creating layer ip2
I0502 02:37:40.999627 17173 net.cpp:94] Creating Layer ip2
I0502 02:37:40.999630 17173 net.cpp:435] ip2 <- ip1
I0502 02:37:40.999635 17173 net.cpp:409] ip2 -> ip2
I0502 02:37:40.999866 17173 net.cpp:144] Setting up ip2
I0502 02:37:40.999872 17173 net.cpp:151] Top shape: 20 64 (1280)
I0502 02:37:40.999876 17173 net.cpp:159] Memory required for data: 11946480
I0502 02:37:40.999881 17173 layer_factory.hpp:77] Creating layer ip3
I0502 02:37:40.999887 17173 net.cpp:94] Creating Layer ip3
I0502 02:37:40.999891 17173 net.cpp:435] ip3 <- ip2
I0502 02:37:40.999896 17173 net.cpp:409] ip3 -> ip3
I0502 02:37:41.000097 17173 net.cpp:144] Setting up ip3
I0502 02:37:41.000103 17173 net.cpp:151] Top shape: 20 50 (1000)
I0502 02:37:41.000108 17173 net.cpp:159] Memory required for data: 11950480
I0502 02:37:41.000113 17173 layer_factory.hpp:77] Creating layer ip3_ip3_0_split
I0502 02:37:41.000118 17173 net.cpp:94] Creating Layer ip3_ip3_0_split
I0502 02:37:41.000120 17173 net.cpp:435] ip3_ip3_0_split <- ip3
I0502 02:37:41.000124 17173 net.cpp:409] ip3_ip3_0_split -> ip3_ip3_0_split_0
I0502 02:37:41.000130 17173 net.cpp:409] ip3_ip3_0_split -> ip3_ip3_0_split_1
I0502 02:37:41.000171 17173 net.cpp:144] Setting up ip3_ip3_0_split
I0502 02:37:41.000176 17173 net.cpp:151] Top shape: 20 50 (1000)
I0502 02:37:41.000180 17173 net.cpp:151] Top shape: 20 50 (1000)
I0502 02:37:41.000183 17173 net.cpp:159] Memory required for data: 11958480
I0502 02:37:41.000186 17173 layer_factory.hpp:77] Creating layer accuracy
I0502 02:37:41.000191 17173 net.cpp:94] Creating Layer accuracy
I0502 02:37:41.000195 17173 net.cpp:435] accuracy <- ip3_ip3_0_split_0
I0502 02:37:41.000198 17173 net.cpp:435] accuracy <- label_intercept_1_split_0
I0502 02:37:41.000202 17173 net.cpp:409] accuracy -> accuracy
…
