…
I0501 14:50:18.664796 13279 net.cpp:323] The NetState phase (0) differed from the phase (1) specified by a rule in layer intercept
I0501 14:50:18.664814 13279 net.cpp:323] The NetState phase (0) differed from the phase (1) specified by a rule in layer loss
I0501 14:50:18.664903 13279 net.cpp:52] Initializing net from parameters: 
state {
  phase: TRAIN
}
layer {
  name: "parameters"
  type: "HDF5Data"
  top: "data"
  top: "label"
  include {
    phase: TRAIN
  }
  hdf5_data_param {
    source: "/home/purduethu/scratch/radon/d/deng106/CNNStatisticalModel/distributions/input/20_distributions_900_sample_size_train-parameters-path.txt"
    batch_size: 20
  }
}
layer {
  name: "conv1"
  type: "Convolution"
  bottom: "data"
  top: "conv1"
  param {
    lr_mult: 1
  }
  param {
    lr_mult: 2
  }
  convolution_param {
    num_output: 64
    pad: 2
    kernel_size: 5
    stride: 1
    weight_filler {
      type: "gaussian"
      std: 0.0001
    }
    bias_filler {
      type: "constant"
    }
  }
}
layer {
  name: "relu1"
  type: "ReLU"
  bottom: "conv1"
  top: "conv1"
}
layer {
  name: "conv2"
  type: "Convolution"
  bottom: "conv1"
  top: "conv2"
  param {
    lr_mult: 1
  }
  param {
    lr_mult: 2
  }
  convolution_param {
    num_output: 64
    pad: 2
    kernel_size: 5
    stride: 1
    weight_filler {
      type: "gaussian"
      std: 0.01
    }
    bias_filler {
      type: "constant"
    }
  }
}
layer {
  name: "relu2"
  type: "ReLU"
  bottom: "conv2"
  top: "conv2"
}
layer {
  name: "pool2"
  type: "Pooling"
  bottom: "conv2"
  top: "pool2"
  pooling_param {
    pool: MAX
    kernel_size: 3
    stride: 2
  }
}
layer {
  name: "conv3"
  type: "Convolution"
  bottom: "pool2"
  top: "conv3"
  param {
    lr_mult: 1
  }
  param {
    lr_mult: 2
  }
  convolution_param {
    num_output: 64
    pad: 2
    kernel_size: 5
    stride: 1
    weight_filler {
      type: "gaussian"
      std: 0.01
    }
    bias_filler {
      type: "constant"
    }
  }
}
layer {
  name: "relu3"
  type: "ReLU"
  bottom: "conv3"
  top: "conv3"
}
layer {
  name: "conv4"
  type: "Convolution"
  bottom: "conv3"
  top: "conv4"
  param {
    lr_mult: 1
  }
  param {
    lr_mult: 2
  }
  convolution_param {
    num_output: 64
    pad: 2
    kernel_size: 5
    stride: 1
    weight_filler {
      type: "gaussian"
      std: 0.01
    }
    bias_filler {
      type: "constant"
    }
  }
}
layer {
  name: "relu4"
  type: "ReLU"
  bottom: "conv4"
  top: "conv4"
}
layer {
  name: "conv5"
  type: "Convolution"
  bottom: "conv4"
  top: "conv5"
  param {
    lr_mult: 1
  }
  param {
    lr_mult: 2
  }
  convolution_param {
    num_output: 64
    pad: 2
    kernel_size: 5
    stride: 1
    weight_filler {
      type: "gaussian"
      std: 0.01
    }
    bias_filler {
      type: "constant"
    }
  }
}
layer {
  name: "relu5"
  type: "ReLU"
  bottom: "conv5"
  top: "conv5"
}
layer {
  name: "pool5"
  type: "Pooling"
  bottom: "conv5"
  top: "pool5"
  pooling_param {
    pool: AVE
    kernel_size: 3
    stride: 2
  }
}
layer {
  name: "ip1"
  type: "InnerProduct"
  bottom: "pool5"
  top: "ip1"
  param {
    lr_mult: 1
  }
  param {
    lr_mult: 2
  }
  inner_product_param {
    num_output: 64
    weight_filler {
      type: "gaussian"
      std: 0.1
    }
    bias_filler {
      type: "constant"
    }
  }
}
layer {
  name: "ip2"
  type: "InnerProduct"
  bottom: "ip1"
  top: "ip2"
  param {
    lr_mult: 1
  }
  param {
    lr_mult: 2
  }
  inner_product_param {
    num_output: 64
    weight_filler {
      type: "gaussian"
      std: 0.1
    }
    bias_filler {
      type: "constant"
    }
  }
}
layer {
  name: "ip3"
  type: "InnerProduct"
  bottom: "ip2"
  top: "ip3"
  param {
    lr_mult: 1
  }
  param {
    lr_mult: 2
  }
  inner_product_param {
    num_output: 1
    weight_filler {
      type: "gaussian"
      std: 0.1
    }
    bias_filler {
      type: "constant"
    }
  }
}
layer {
  name: "loss"
  type: "HuberLoss"
  bottom: "ip3"
  bottom: "label"
  top: "loss"
  include {
    phase: TRAIN
  }
}
I0501 14:50:18.664961 13279 layer_factory.hpp:77] Creating layer parameters
I0501 14:50:18.664974 13279 net.cpp:94] Creating Layer parameters
I0501 14:50:18.664979 13279 net.cpp:409] parameters -> data
I0501 14:50:18.664988 13279 net.cpp:409] parameters -> label
I0501 14:50:18.665000 13279 hdf5_data_layer.cpp:79] Loading list of HDF5 filenames from: /home/purduethu/scratch/radon/d/deng106/CNNStatisticalModel/distributions/input/20_distributions_900_sample_size_train-parameters-path.txt
I0501 14:50:18.665015 13279 hdf5_data_layer.cpp:93] Number of HDF5 files: 1
I0501 14:50:18.665592 13279 hdf5.cpp:32] Datatype class: H5T_FLOAT
I0501 14:50:19.270586 13279 net.cpp:144] Setting up parameters
I0501 14:50:19.270615 13279 net.cpp:151] Top shape: 20 1 30 30 (18000)
I0501 14:50:19.270620 13279 net.cpp:151] Top shape: 20 (20)
I0501 14:50:19.270623 13279 net.cpp:159] Memory required for data: 72080
I0501 14:50:19.270630 13279 layer_factory.hpp:77] Creating layer conv1
I0501 14:50:19.270651 13279 net.cpp:94] Creating Layer conv1
I0501 14:50:19.270656 13279 net.cpp:435] conv1 <- data
I0501 14:50:19.270663 13279 net.cpp:409] conv1 -> conv1
I0501 14:50:19.277199 13279 net.cpp:144] Setting up conv1
I0501 14:50:19.277240 13279 net.cpp:151] Top shape: 20 64 30 30 (1152000)
I0501 14:50:19.277251 13279 net.cpp:159] Memory required for data: 4680080
I0501 14:50:19.277274 13279 layer_factory.hpp:77] Creating layer relu1
I0501 14:50:19.277293 13279 net.cpp:94] Creating Layer relu1
I0501 14:50:19.277303 13279 net.cpp:435] relu1 <- conv1
I0501 14:50:19.277315 13279 net.cpp:396] relu1 -> conv1 (in-place)
I0501 14:50:19.277343 13279 net.cpp:144] Setting up relu1
I0501 14:50:19.277356 13279 net.cpp:151] Top shape: 20 64 30 30 (1152000)
I0501 14:50:19.277365 13279 net.cpp:159] Memory required for data: 9288080
I0501 14:50:19.277374 13279 layer_factory.hpp:77] Creating layer conv2
I0501 14:50:19.277395 13279 net.cpp:94] Creating Layer conv2
I0501 14:50:19.277403 13279 net.cpp:435] conv2 <- conv1
I0501 14:50:19.277417 13279 net.cpp:409] conv2 -> conv2
I0501 14:50:19.292224 13279 net.cpp:144] Setting up conv2
I0501 14:50:19.292240 13279 net.cpp:151] Top shape: 20 64 30 30 (1152000)
I0501 14:50:19.292244 13279 net.cpp:159] Memory required for data: 13896080
I0501 14:50:19.292253 13279 layer_factory.hpp:77] Creating layer relu2
I0501 14:50:19.292259 13279 net.cpp:94] Creating Layer relu2
I0501 14:50:19.292263 13279 net.cpp:435] relu2 <- conv2
I0501 14:50:19.292268 13279 net.cpp:396] relu2 -> conv2 (in-place)
I0501 14:50:19.292274 13279 net.cpp:144] Setting up relu2
I0501 14:50:19.292279 13279 net.cpp:151] Top shape: 20 64 30 30 (1152000)
I0501 14:50:19.292281 13279 net.cpp:159] Memory required for data: 18504080
I0501 14:50:19.292284 13279 layer_factory.hpp:77] Creating layer pool2
I0501 14:50:19.292297 13279 net.cpp:94] Creating Layer pool2
I0501 14:50:19.292300 13279 net.cpp:435] pool2 <- conv2
I0501 14:50:19.292305 13279 net.cpp:409] pool2 -> pool2
I0501 14:50:19.292357 13279 net.cpp:144] Setting up pool2
I0501 14:50:19.292364 13279 net.cpp:151] Top shape: 20 64 15 15 (288000)
I0501 14:50:19.292367 13279 net.cpp:159] Memory required for data: 19656080
I0501 14:50:19.292371 13279 layer_factory.hpp:77] Creating layer conv3
I0501 14:50:19.292379 13279 net.cpp:94] Creating Layer conv3
I0501 14:50:19.292382 13279 net.cpp:435] conv3 <- pool2
I0501 14:50:19.292387 13279 net.cpp:409] conv3 -> conv3
I0501 14:50:19.300694 13279 net.cpp:144] Setting up conv3
I0501 14:50:19.300710 13279 net.cpp:151] Top shape: 20 64 15 15 (288000)
I0501 14:50:19.300714 13279 net.cpp:159] Memory required for data: 20808080
I0501 14:50:19.300724 13279 layer_factory.hpp:77] Creating layer relu3
I0501 14:50:19.300729 13279 net.cpp:94] Creating Layer relu3
I0501 14:50:19.300732 13279 net.cpp:435] relu3 <- conv3
I0501 14:50:19.300737 13279 net.cpp:396] relu3 -> conv3 (in-place)
I0501 14:50:19.300745 13279 net.cpp:144] Setting up relu3
I0501 14:50:19.300750 13279 net.cpp:151] Top shape: 20 64 15 15 (288000)
I0501 14:50:19.300752 13279 net.cpp:159] Memory required for data: 21960080
I0501 14:50:19.300755 13279 layer_factory.hpp:77] Creating layer conv4
I0501 14:50:19.300765 13279 net.cpp:94] Creating Layer conv4
I0501 14:50:19.300767 13279 net.cpp:435] conv4 <- conv3
I0501 14:50:19.300772 13279 net.cpp:409] conv4 -> conv4
I0501 14:50:19.309985 13279 net.cpp:144] Setting up conv4
I0501 14:50:19.310000 13279 net.cpp:151] Top shape: 20 64 15 15 (288000)
I0501 14:50:19.310004 13279 net.cpp:159] Memory required for data: 23112080
I0501 14:50:19.310011 13279 layer_factory.hpp:77] Creating layer relu4
I0501 14:50:19.310017 13279 net.cpp:94] Creating Layer relu4
I0501 14:50:19.310020 13279 net.cpp:435] relu4 <- conv4
I0501 14:50:19.310025 13279 net.cpp:396] relu4 -> conv4 (in-place)
I0501 14:50:19.310032 13279 net.cpp:144] Setting up relu4
I0501 14:50:19.310037 13279 net.cpp:151] Top shape: 20 64 15 15 (288000)
I0501 14:50:19.310040 13279 net.cpp:159] Memory required for data: 24264080
I0501 14:50:19.310044 13279 layer_factory.hpp:77] Creating layer conv5
I0501 14:50:19.310051 13279 net.cpp:94] Creating Layer conv5
I0501 14:50:19.310055 13279 net.cpp:435] conv5 <- conv4
I0501 14:50:19.310060 13279 net.cpp:409] conv5 -> conv5
I0501 14:50:19.318220 13279 net.cpp:144] Setting up conv5
I0501 14:50:19.318236 13279 net.cpp:151] Top shape: 20 64 15 15 (288000)
I0501 14:50:19.318239 13279 net.cpp:159] Memory required for data: 25416080
I0501 14:50:19.318248 13279 layer_factory.hpp:77] Creating layer relu5
I0501 14:50:19.318254 13279 net.cpp:94] Creating Layer relu5
I0501 14:50:19.318259 13279 net.cpp:435] relu5 <- conv5
I0501 14:50:19.318264 13279 net.cpp:396] relu5 -> conv5 (in-place)
I0501 14:50:19.318270 13279 net.cpp:144] Setting up relu5
I0501 14:50:19.318274 13279 net.cpp:151] Top shape: 20 64 15 15 (288000)
I0501 14:50:19.318277 13279 net.cpp:159] Memory required for data: 26568080
I0501 14:50:19.318280 13279 layer_factory.hpp:77] Creating layer pool5
I0501 14:50:19.318285 13279 net.cpp:94] Creating Layer pool5
I0501 14:50:19.318289 13279 net.cpp:435] pool5 <- conv5
I0501 14:50:19.318294 13279 net.cpp:409] pool5 -> pool5
I0501 14:50:19.318332 13279 net.cpp:144] Setting up pool5
I0501 14:50:19.318339 13279 net.cpp:151] Top shape: 20 64 7 7 (62720)
I0501 14:50:19.318342 13279 net.cpp:159] Memory required for data: 26818960
I0501 14:50:19.318346 13279 layer_factory.hpp:77] Creating layer ip1
I0501 14:50:19.318356 13279 net.cpp:94] Creating Layer ip1
I0501 14:50:19.318359 13279 net.cpp:435] ip1 <- pool5
I0501 14:50:19.318364 13279 net.cpp:409] ip1 -> ip1
I0501 14:50:19.323359 13279 net.cpp:144] Setting up ip1
I0501 14:50:19.323367 13279 net.cpp:151] Top shape: 20 64 (1280)
I0501 14:50:19.323370 13279 net.cpp:159] Memory required for data: 26824080
I0501 14:50:19.323376 13279 layer_factory.hpp:77] Creating layer ip2
I0501 14:50:19.323382 13279 net.cpp:94] Creating Layer ip2
I0501 14:50:19.323390 13279 net.cpp:435] ip2 <- ip1
I0501 14:50:19.323395 13279 net.cpp:409] ip2 -> ip2
I0501 14:50:19.323609 13279 net.cpp:144] Setting up ip2
I0501 14:50:19.323617 13279 net.cpp:151] Top shape: 20 64 (1280)
I0501 14:50:19.323621 13279 net.cpp:159] Memory required for data: 26829200
I0501 14:50:19.323626 13279 layer_factory.hpp:77] Creating layer ip3
I0501 14:50:19.323632 13279 net.cpp:94] Creating Layer ip3
I0501 14:50:19.323634 13279 net.cpp:435] ip3 <- ip2
I0501 14:50:19.323639 13279 net.cpp:409] ip3 -> ip3
I0501 14:50:19.323738 13279 net.cpp:144] Setting up ip3
I0501 14:50:19.323745 13279 net.cpp:151] Top shape: 20 1 (20)
I0501 14:50:19.323748 13279 net.cpp:159] Memory required for data: 26829280
I0501 14:50:19.323753 13279 layer_factory.hpp:77] Creating layer loss
I0501 14:50:19.323765 13279 net.cpp:94] Creating Layer loss
I0501 14:50:19.323767 13279 net.cpp:435] loss <- ip3
I0501 14:50:19.323771 13279 net.cpp:435] loss <- label
I0501 14:50:19.323776 13279 net.cpp:409] loss -> loss
I0501 14:50:19.323827 13279 net.cpp:144] Setting up loss
…
I0501 14:50:19.510246 13279 net.cpp:323] The NetState phase (0) differed from the phase (1) specified by a rule in layer intercept
I0501 14:50:19.510260 13279 net.cpp:323] The NetState phase (0) differed from the phase (1) specified by a rule in layer accuracy
I0501 14:50:19.510352 13279 net.cpp:52] Initializing net from parameters: 
state {
  phase: TRAIN
}
layer {
  name: "parameters"
  type: "HDF5Data"
  top: "data"
  top: "label"
  include {
    phase: TRAIN
  }
  hdf5_data_param {
    source: "/home/purduethu/scratch/radon/d/deng106/CNNStatisticalModel/distributions/input/20_distributions_900_sample_size_train-distributions-path.txt"
    batch_size: 20
  }
}
layer {
  name: "conv1"
  type: "Convolution"
  bottom: "data"
  top: "conv1"
  param {
    lr_mult: 1
  }
  param {
    lr_mult: 2
  }
  convolution_param {
    num_output: 64
    pad: 2
    kernel_size: 5
    stride: 1
    weight_filler {
      type: "gaussian"
      std: 0.0001
    }
    bias_filler {
      type: "constant"
    }
  }
}
layer {
  name: "relu1"
  type: "ReLU"
  bottom: "conv1"
  top: "conv1"
}
layer {
  name: "conv2"
  type: "Convolution"
  bottom: "conv1"
  top: "conv2"
  param {
    lr_mult: 1
  }
  param {
    lr_mult: 2
  }
  convolution_param {
    num_output: 64
    pad: 2
    kernel_size: 5
    stride: 1
    weight_filler {
      type: "gaussian"
      std: 0.01
    }
    bias_filler {
      type: "constant"
    }
  }
}
layer {
  name: "relu2"
  type: "ReLU"
  bottom: "conv2"
  top: "conv2"
}
layer {
  name: "pool2"
  type: "Pooling"
  bottom: "conv2"
  top: "pool2"
  pooling_param {
    pool: MAX
    kernel_size: 3
    stride: 2
  }
}
layer {
  name: "conv3"
  type: "Convolution"
  bottom: "pool2"
  top: "conv3"
  param {
    lr_mult: 1
  }
  param {
    lr_mult: 2
  }
  convolution_param {
    num_output: 64
    pad: 2
    kernel_size: 5
    stride: 1
    weight_filler {
      type: "gaussian"
      std: 0.01
    }
    bias_filler {
      type: "constant"
    }
  }
}
layer {
  name: "relu3"
  type: "ReLU"
  bottom: "conv3"
  top: "conv3"
}
layer {
  name: "conv4"
  type: "Convolution"
  bottom: "conv3"
  top: "conv4"
  param {
    lr_mult: 1
  }
  param {
    lr_mult: 2
  }
  convolution_param {
    num_output: 64
    pad: 2
    kernel_size: 5
    stride: 1
    weight_filler {
      type: "gaussian"
      std: 0.01
    }
    bias_filler {
      type: "constant"
    }
  }
}
layer {
  name: "relu4"
  type: "ReLU"
  bottom: "conv4"
  top: "conv4"
}
layer {
  name: "conv5"
  type: "Convolution"
  bottom: "conv4"
  top: "conv5"
  param {
    lr_mult: 1
  }
  param {
    lr_mult: 2
  }
  convolution_param {
    num_output: 64
    pad: 2
    kernel_size: 5
    stride: 1
    weight_filler {
      type: "gaussian"
      std: 0.01
    }
    bias_filler {
      type: "constant"
    }
  }
}
layer {
  name: "relu5"
  type: "ReLU"
  bottom: "conv5"
  top: "conv5"
}
layer {
  name: "pool5"
  type: "Pooling"
  bottom: "conv5"
  top: "pool5"
  pooling_param {
    pool: AVE
    kernel_size: 3
    stride: 2
  }
}
layer {
  name: "ip1"
  type: "InnerProduct"
  bottom: "pool5"
  top: "ip1"
  param {
    lr_mult: 1
  }
  param {
    lr_mult: 2
  }
  inner_product_param {
    num_output: 64
    weight_filler {
      type: "gaussian"
      std: 0.1
    }
    bias_filler {
      type: "constant"
    }
  }
}
layer {
  name: "ip2"
  type: "InnerProduct"
  bottom: "ip1"
  top: "ip2"
  param {
    lr_mult: 1
  }
  param {
    lr_mult: 2
  }
  inner_product_param {
    num_output: 64
    weight_filler {
      type: "gaussian"
      std: 0.1
    }
    bias_filler {
      type: "constant"
    }
  }
}
layer {
  name: "ip3"
  type: "InnerProduct"
  bottom: "ip2"
  top: "ip3"
  param {
    lr_mult: 1
  }
  param {
    lr_mult: 2
  }
  inner_product_param {
    num_output: 50
    weight_filler {
      type: "gaussian"
      std: 0.1
    }
    bias_filler {
      type: "constant"
    }
  }
}
layer {
  name: "loss"
  type: "SoftmaxWithLoss"
  bottom: "ip3"
  bottom: "label"
  top: "loss"
}
I0501 14:50:19.510406 13279 layer_factory.hpp:77] Creating layer parameters
I0501 14:50:19.510414 13279 net.cpp:94] Creating Layer parameters
I0501 14:50:19.510418 13279 net.cpp:409] parameters -> data
I0501 14:50:19.510426 13279 net.cpp:409] parameters -> label
I0501 14:50:19.510432 13279 hdf5_data_layer.cpp:79] Loading list of HDF5 filenames from: /home/purduethu/scratch/radon/d/deng106/CNNStatisticalModel/distributions/input/20_distributions_900_sample_size_train-distributions-path.txt
I0501 14:50:19.510447 13279 hdf5_data_layer.cpp:93] Number of HDF5 files: 1
I0501 14:50:20.088923 13279 hdf5.cpp:35] Datatype class: H5T_INTEGER
I0501 14:50:20.090899 13279 net.cpp:144] Setting up parameters
I0501 14:50:20.090917 13279 net.cpp:151] Top shape: 20 1 30 30 (18000)
I0501 14:50:20.090922 13279 net.cpp:151] Top shape: 20 (20)
I0501 14:50:20.090925 13279 net.cpp:159] Memory required for data: 72080
I0501 14:50:20.090931 13279 layer_factory.hpp:77] Creating layer conv1
I0501 14:50:20.090948 13279 net.cpp:94] Creating Layer conv1
I0501 14:50:20.090952 13279 net.cpp:435] conv1 <- data
I0501 14:50:20.090958 13279 net.cpp:409] conv1 -> conv1
I0501 14:50:20.094452 13279 net.cpp:144] Setting up conv1
I0501 14:50:20.094467 13279 net.cpp:151] Top shape: 20 64 30 30 (1152000)
I0501 14:50:20.094471 13279 net.cpp:159] Memory required for data: 4680080
I0501 14:50:20.094481 13279 layer_factory.hpp:77] Creating layer relu1
I0501 14:50:20.094490 13279 net.cpp:94] Creating Layer relu1
I0501 14:50:20.094492 13279 net.cpp:435] relu1 <- conv1
I0501 14:50:20.094497 13279 net.cpp:396] relu1 -> conv1 (in-place)
I0501 14:50:20.094504 13279 net.cpp:144] Setting up relu1
I0501 14:50:20.094508 13279 net.cpp:151] Top shape: 20 64 30 30 (1152000)
I0501 14:50:20.094511 13279 net.cpp:159] Memory required for data: 9288080
I0501 14:50:20.094514 13279 layer_factory.hpp:77] Creating layer conv2
I0501 14:50:20.094522 13279 net.cpp:94] Creating Layer conv2
I0501 14:50:20.094525 13279 net.cpp:435] conv2 <- conv1
I0501 14:50:20.094530 13279 net.cpp:409] conv2 -> conv2
I0501 14:50:20.110560 13279 net.cpp:144] Setting up conv2
I0501 14:50:20.110575 13279 net.cpp:151] Top shape: 20 64 30 30 (1152000)
I0501 14:50:20.110579 13279 net.cpp:159] Memory required for data: 13896080
I0501 14:50:20.110587 13279 layer_factory.hpp:77] Creating layer relu2
I0501 14:50:20.110594 13279 net.cpp:94] Creating Layer relu2
I0501 14:50:20.110597 13279 net.cpp:435] relu2 <- conv2
I0501 14:50:20.110601 13279 net.cpp:396] relu2 -> conv2 (in-place)
I0501 14:50:20.110608 13279 net.cpp:144] Setting up relu2
I0501 14:50:20.110612 13279 net.cpp:151] Top shape: 20 64 30 30 (1152000)
I0501 14:50:20.110615 13279 net.cpp:159] Memory required for data: 18504080
I0501 14:50:20.110618 13279 layer_factory.hpp:77] Creating layer pool2
I0501 14:50:20.110625 13279 net.cpp:94] Creating Layer pool2
I0501 14:50:20.110627 13279 net.cpp:435] pool2 <- conv2
I0501 14:50:20.110631 13279 net.cpp:409] pool2 -> pool2
I0501 14:50:20.110682 13279 net.cpp:144] Setting up pool2
I0501 14:50:20.110689 13279 net.cpp:151] Top shape: 20 64 15 15 (288000)
I0501 14:50:20.110692 13279 net.cpp:159] Memory required for data: 19656080
I0501 14:50:20.110695 13279 layer_factory.hpp:77] Creating layer conv3
I0501 14:50:20.110702 13279 net.cpp:94] Creating Layer conv3
I0501 14:50:20.110707 13279 net.cpp:435] conv3 <- pool2
I0501 14:50:20.110718 13279 net.cpp:409] conv3 -> conv3
I0501 14:50:20.119508 13279 net.cpp:144] Setting up conv3
I0501 14:50:20.119524 13279 net.cpp:151] Top shape: 20 64 15 15 (288000)
I0501 14:50:20.119527 13279 net.cpp:159] Memory required for data: 20808080
I0501 14:50:20.119535 13279 layer_factory.hpp:77] Creating layer relu3
I0501 14:50:20.119540 13279 net.cpp:94] Creating Layer relu3
I0501 14:50:20.119544 13279 net.cpp:435] relu3 <- conv3
I0501 14:50:20.119549 13279 net.cpp:396] relu3 -> conv3 (in-place)
I0501 14:50:20.119555 13279 net.cpp:144] Setting up relu3
I0501 14:50:20.119560 13279 net.cpp:151] Top shape: 20 64 15 15 (288000)
I0501 14:50:20.119563 13279 net.cpp:159] Memory required for data: 21960080
I0501 14:50:20.119566 13279 layer_factory.hpp:77] Creating layer conv4
I0501 14:50:20.119575 13279 net.cpp:94] Creating Layer conv4
I0501 14:50:20.119577 13279 net.cpp:435] conv4 <- conv3
I0501 14:50:20.119582 13279 net.cpp:409] conv4 -> conv4
I0501 14:50:20.129170 13279 net.cpp:144] Setting up conv4
I0501 14:50:20.129185 13279 net.cpp:151] Top shape: 20 64 15 15 (288000)
I0501 14:50:20.129189 13279 net.cpp:159] Memory required for data: 23112080
I0501 14:50:20.129196 13279 layer_factory.hpp:77] Creating layer relu4
I0501 14:50:20.129201 13279 net.cpp:94] Creating Layer relu4
I0501 14:50:20.129205 13279 net.cpp:435] relu4 <- conv4
I0501 14:50:20.129210 13279 net.cpp:396] relu4 -> conv4 (in-place)
I0501 14:50:20.129217 13279 net.cpp:144] Setting up relu4
I0501 14:50:20.129221 13279 net.cpp:151] Top shape: 20 64 15 15 (288000)
I0501 14:50:20.129225 13279 net.cpp:159] Memory required for data: 24264080
I0501 14:50:20.129227 13279 layer_factory.hpp:77] Creating layer conv5
I0501 14:50:20.129235 13279 net.cpp:94] Creating Layer conv5
I0501 14:50:20.129237 13279 net.cpp:435] conv5 <- conv4
I0501 14:50:20.129242 13279 net.cpp:409] conv5 -> conv5
I0501 14:50:20.136966 13279 net.cpp:144] Setting up conv5
I0501 14:50:20.136981 13279 net.cpp:151] Top shape: 20 64 15 15 (288000)
I0501 14:50:20.136984 13279 net.cpp:159] Memory required for data: 25416080
I0501 14:50:20.136993 13279 layer_factory.hpp:77] Creating layer relu5
I0501 14:50:20.136999 13279 net.cpp:94] Creating Layer relu5
I0501 14:50:20.137002 13279 net.cpp:435] relu5 <- conv5
I0501 14:50:20.137007 13279 net.cpp:396] relu5 -> conv5 (in-place)
I0501 14:50:20.137014 13279 net.cpp:144] Setting up relu5
I0501 14:50:20.137018 13279 net.cpp:151] Top shape: 20 64 15 15 (288000)
I0501 14:50:20.137022 13279 net.cpp:159] Memory required for data: 26568080
I0501 14:50:20.137024 13279 layer_factory.hpp:77] Creating layer pool5
I0501 14:50:20.137030 13279 net.cpp:94] Creating Layer pool5
I0501 14:50:20.137033 13279 net.cpp:435] pool5 <- conv5
I0501 14:50:20.137037 13279 net.cpp:409] pool5 -> pool5
I0501 14:50:20.137074 13279 net.cpp:144] Setting up pool5
I0501 14:50:20.137081 13279 net.cpp:151] Top shape: 20 64 7 7 (62720)
I0501 14:50:20.137084 13279 net.cpp:159] Memory required for data: 26818960
I0501 14:50:20.137087 13279 layer_factory.hpp:77] Creating layer ip1
I0501 14:50:20.137094 13279 net.cpp:94] Creating Layer ip1
I0501 14:50:20.137097 13279 net.cpp:435] ip1 <- pool5
I0501 14:50:20.137102 13279 net.cpp:409] ip1 -> ip1
I0501 14:50:20.142670 13279 net.cpp:144] Setting up ip1
I0501 14:50:20.142684 13279 net.cpp:151] Top shape: 20 64 (1280)
I0501 14:50:20.142688 13279 net.cpp:159] Memory required for data: 26824080
I0501 14:50:20.142694 13279 layer_factory.hpp:77] Creating layer ip2
I0501 14:50:20.142700 13279 net.cpp:94] Creating Layer ip2
I0501 14:50:20.142704 13279 net.cpp:435] ip2 <- ip1
I0501 14:50:20.142709 13279 net.cpp:409] ip2 -> ip2
I0501 14:50:20.142923 13279 net.cpp:144] Setting up ip2
I0501 14:50:20.142930 13279 net.cpp:151] Top shape: 20 64 (1280)
I0501 14:50:20.142933 13279 net.cpp:159] Memory required for data: 26829200
I0501 14:50:20.142938 13279 layer_factory.hpp:77] Creating layer ip3
I0501 14:50:20.142945 13279 net.cpp:94] Creating Layer ip3
I0501 14:50:20.142947 13279 net.cpp:435] ip3 <- ip2
I0501 14:50:20.142952 13279 net.cpp:409] ip3 -> ip3
I0501 14:50:20.143142 13279 net.cpp:144] Setting up ip3
I0501 14:50:20.143149 13279 net.cpp:151] Top shape: 20 50 (1000)
I0501 14:50:20.143152 13279 net.cpp:159] Memory required for data: 26833200
I0501 14:50:20.143157 13279 layer_factory.hpp:77] Creating layer loss
I0501 14:50:20.143164 13279 net.cpp:94] Creating Layer loss
I0501 14:50:20.143167 13279 net.cpp:435] loss <- ip3
I0501 14:50:20.143172 13279 net.cpp:435] loss <- label
I0501 14:50:20.143175 13279 net.cpp:409] loss -> loss
I0501 14:50:20.143182 13279 layer_factory.hpp:77] Creating layer loss
…
I0501 14:50:20.143690 13279 solver.cpp:181] Creating test net (#0) specified by net file: ./protocol/dis_20_900_dimension.protocol_distribution
I0501 14:50:20.143717 13279 net.cpp:323] The NetState phase (1) differed from the phase (0) specified by a rule in layer parameters
I0501 14:50:20.143812 13279 net.cpp:52] Initializing net from parameters: 
state {
  phase: TEST
}
layer {
  name: "intercept"
  type: "HDF5Data"
  top: "data"
  top: "label"
  include {
    phase: TEST
  }
  hdf5_data_param {
    source: "/home/purduethu/scratch/radon/d/deng106/CNNStatisticalModel/distributions/input/20_distributions_900_sample_size_test-distributions-path.txt"
    batch_size: 20
  }
}
layer {
  name: "conv1"
  type: "Convolution"
  bottom: "data"
  top: "conv1"
  param {
    lr_mult: 1
  }
  param {
    lr_mult: 2
  }
  convolution_param {
    num_output: 64
    pad: 2
    kernel_size: 5
    stride: 1
    weight_filler {
      type: "gaussian"
      std: 0.0001
    }
    bias_filler {
      type: "constant"
    }
  }
}
layer {
  name: "relu1"
  type: "ReLU"
  bottom: "conv1"
  top: "conv1"
}
layer {
  name: "conv2"
  type: "Convolution"
  bottom: "conv1"
  top: "conv2"
  param {
    lr_mult: 1
  }
  param {
    lr_mult: 2
  }
  convolution_param {
    num_output: 64
    pad: 2
    kernel_size: 5
    stride: 1
    weight_filler {
      type: "gaussian"
      std: 0.01
    }
    bias_filler {
      type: "constant"
    }
  }
}
layer {
  name: "relu2"
  type: "ReLU"
  bottom: "conv2"
  top: "conv2"
}
layer {
  name: "pool2"
  type: "Pooling"
  bottom: "conv2"
  top: "pool2"
  pooling_param {
    pool: MAX
    kernel_size: 3
    stride: 2
  }
}
layer {
  name: "conv3"
  type: "Convolution"
  bottom: "pool2"
  top: "conv3"
  param {
    lr_mult: 1
  }
  param {
    lr_mult: 2
  }
  convolution_param {
    num_output: 64
    pad: 2
    kernel_size: 5
    stride: 1
    weight_filler {
      type: "gaussian"
      std: 0.01
    }
    bias_filler {
      type: "constant"
    }
  }
}
layer {
  name: "relu3"
  type: "ReLU"
  bottom: "conv3"
  top: "conv3"
}
layer {
  name: "conv4"
  type: "Convolution"
  bottom: "conv3"
  top: "conv4"
  param {
    lr_mult: 1
  }
  param {
    lr_mult: 2
  }
  convolution_param {
    num_output: 64
    pad: 2
    kernel_size: 5
    stride: 1
    weight_filler {
      type: "gaussian"
      std: 0.01
    }
    bias_filler {
      type: "constant"
    }
  }
}
layer {
  name: "relu4"
  type: "ReLU"
  bottom: "conv4"
  top: "conv4"
}
layer {
  name: "conv5"
  type: "Convolution"
  bottom: "conv4"
  top: "conv5"
  param {
    lr_mult: 1
  }
  param {
    lr_mult: 2
  }
  convolution_param {
    num_output: 64
    pad: 2
    kernel_size: 5
    stride: 1
    weight_filler {
      type: "gaussian"
      std: 0.01
    }
    bias_filler {
      type: "constant"
    }
  }
}
layer {
  name: "relu5"
  type: "ReLU"
  bottom: "conv5"
  top: "conv5"
}
layer {
  name: "pool5"
  type: "Pooling"
  bottom: "conv5"
  top: "pool5"
  pooling_param {
    pool: AVE
    kernel_size: 3
    stride: 2
  }
}
layer {
  name: "ip1"
  type: "InnerProduct"
  bottom: "pool5"
  top: "ip1"
  param {
    lr_mult: 1
  }
  param {
    lr_mult: 2
  }
  inner_product_param {
    num_output: 64
    weight_filler {
      type: "gaussian"
      std: 0.1
    }
    bias_filler {
      type: "constant"
    }
  }
}
layer {
  name: "ip2"
  type: "InnerProduct"
  bottom: "ip1"
  top: "ip2"
  param {
    lr_mult: 1
  }
  param {
    lr_mult: 2
  }
  inner_product_param {
    num_output: 64
    weight_filler {
      type: "gaussian"
      std: 0.1
    }
    bias_filler {
      type: "constant"
    }
  }
}
layer {
  name: "ip3"
  type: "InnerProduct"
  bottom: "ip2"
  top: "ip3"
  param {
    lr_mult: 1
  }
  param {
    lr_mult: 2
  }
  inner_product_param {
    num_output: 50
    weight_filler {
      type: "gaussian"
      std: 0.1
    }
    bias_filler {
      type: "constant"
    }
  }
}
layer {
  name: "accuracy"
  type: "Accuracy"
  bottom: "ip3"
  bottom: "label"
  top: "accuracy"
  include {
    phase: TEST
  }
}
layer {
  name: "loss"
  type: "SoftmaxWithLoss"
  bottom: "ip3"
  bottom: "label"
  top: "loss"
}
I0501 14:50:20.143875 13279 layer_factory.hpp:77] Creating layer intercept
I0501 14:50:20.143882 13279 net.cpp:94] Creating Layer intercept
I0501 14:50:20.143887 13279 net.cpp:409] intercept -> data
I0501 14:50:20.143893 13279 net.cpp:409] intercept -> label
I0501 14:50:20.143899 13279 hdf5_data_layer.cpp:79] Loading list of HDF5 filenames from: /home/purduethu/scratch/radon/d/deng106/CNNStatisticalModel/distributions/input/20_distributions_900_sample_size_test-distributions-path.txt
I0501 14:50:20.143918 13279 hdf5_data_layer.cpp:93] Number of HDF5 files: 1
I0501 14:50:20.288127 13279 net.cpp:144] Setting up intercept
I0501 14:50:20.288162 13279 net.cpp:151] Top shape: 20 1 30 30 (18000)
I0501 14:50:20.288167 13279 net.cpp:151] Top shape: 20 (20)
I0501 14:50:20.288170 13279 net.cpp:159] Memory required for data: 72080
I0501 14:50:20.288177 13279 layer_factory.hpp:77] Creating layer label_intercept_1_split
I0501 14:50:20.288192 13279 net.cpp:94] Creating Layer label_intercept_1_split
I0501 14:50:20.288197 13279 net.cpp:435] label_intercept_1_split <- label
I0501 14:50:20.288203 13279 net.cpp:409] label_intercept_1_split -> label_intercept_1_split_0
I0501 14:50:20.288211 13279 net.cpp:409] label_intercept_1_split -> label_intercept_1_split_1
I0501 14:50:20.288252 13279 net.cpp:144] Setting up label_intercept_1_split
I0501 14:50:20.288259 13279 net.cpp:151] Top shape: 20 (20)
I0501 14:50:20.288262 13279 net.cpp:151] Top shape: 20 (20)
I0501 14:50:20.288265 13279 net.cpp:159] Memory required for data: 72240
I0501 14:50:20.288269 13279 layer_factory.hpp:77] Creating layer conv1
I0501 14:50:20.288280 13279 net.cpp:94] Creating Layer conv1
I0501 14:50:20.288283 13279 net.cpp:435] conv1 <- data
I0501 14:50:20.288287 13279 net.cpp:409] conv1 -> conv1
I0501 14:50:20.289789 13279 net.cpp:144] Setting up conv1
I0501 14:50:20.289804 13279 net.cpp:151] Top shape: 20 64 30 30 (1152000)
I0501 14:50:20.289808 13279 net.cpp:159] Memory required for data: 4680240
I0501 14:50:20.289818 13279 layer_factory.hpp:77] Creating layer relu1
I0501 14:50:20.289824 13279 net.cpp:94] Creating Layer relu1
I0501 14:50:20.289829 13279 net.cpp:435] relu1 <- conv1
I0501 14:50:20.289832 13279 net.cpp:396] relu1 -> conv1 (in-place)
I0501 14:50:20.289839 13279 net.cpp:144] Setting up relu1
I0501 14:50:20.289844 13279 net.cpp:151] Top shape: 20 64 30 30 (1152000)
I0501 14:50:20.289846 13279 net.cpp:159] Memory required for data: 9288240
I0501 14:50:20.289849 13279 layer_factory.hpp:77] Creating layer conv2
I0501 14:50:20.289857 13279 net.cpp:94] Creating Layer conv2
I0501 14:50:20.289860 13279 net.cpp:435] conv2 <- conv1
I0501 14:50:20.289865 13279 net.cpp:409] conv2 -> conv2
I0501 14:50:20.296670 13279 net.cpp:144] Setting up conv2
I0501 14:50:20.296684 13279 net.cpp:151] Top shape: 20 64 30 30 (1152000)
I0501 14:50:20.296689 13279 net.cpp:159] Memory required for data: 13896240
I0501 14:50:20.296695 13279 layer_factory.hpp:77] Creating layer relu2
I0501 14:50:20.296701 13279 net.cpp:94] Creating Layer relu2
I0501 14:50:20.296705 13279 net.cpp:435] relu2 <- conv2
I0501 14:50:20.296710 13279 net.cpp:396] relu2 -> conv2 (in-place)
I0501 14:50:20.296716 13279 net.cpp:144] Setting up relu2
I0501 14:50:20.296720 13279 net.cpp:151] Top shape: 20 64 30 30 (1152000)
I0501 14:50:20.296723 13279 net.cpp:159] Memory required for data: 18504240
I0501 14:50:20.296726 13279 layer_factory.hpp:77] Creating layer pool2
I0501 14:50:20.296732 13279 net.cpp:94] Creating Layer pool2
I0501 14:50:20.296736 13279 net.cpp:435] pool2 <- conv2
I0501 14:50:20.296739 13279 net.cpp:409] pool2 -> pool2
I0501 14:50:20.296792 13279 net.cpp:144] Setting up pool2
I0501 14:50:20.296798 13279 net.cpp:151] Top shape: 20 64 15 15 (288000)
I0501 14:50:20.296800 13279 net.cpp:159] Memory required for data: 19656240
I0501 14:50:20.296804 13279 layer_factory.hpp:77] Creating layer conv3
I0501 14:50:20.296811 13279 net.cpp:94] Creating Layer conv3
I0501 14:50:20.296815 13279 net.cpp:435] conv3 <- pool2
I0501 14:50:20.296819 13279 net.cpp:409] conv3 -> conv3
I0501 14:50:20.301888 13279 net.cpp:144] Setting up conv3
I0501 14:50:20.301926 13279 net.cpp:151] Top shape: 20 64 15 15 (288000)
I0501 14:50:20.301937 13279 net.cpp:159] Memory required for data: 20808240
I0501 14:50:20.301959 13279 layer_factory.hpp:77] Creating layer relu3
I0501 14:50:20.301976 13279 net.cpp:94] Creating Layer relu3
I0501 14:50:20.301986 13279 net.cpp:435] relu3 <- conv3
I0501 14:50:20.302000 13279 net.cpp:396] relu3 -> conv3 (in-place)
I0501 14:50:20.302019 13279 net.cpp:144] Setting up relu3
I0501 14:50:20.302031 13279 net.cpp:151] Top shape: 20 64 15 15 (288000)
I0501 14:50:20.302039 13279 net.cpp:159] Memory required for data: 21960240
I0501 14:50:20.302047 13279 layer_factory.hpp:77] Creating layer conv4
I0501 14:50:20.302067 13279 net.cpp:94] Creating Layer conv4
I0501 14:50:20.302076 13279 net.cpp:435] conv4 <- conv3
I0501 14:50:20.302089 13279 net.cpp:409] conv4 -> conv4
I0501 14:50:20.306948 13279 net.cpp:144] Setting up conv4
I0501 14:50:20.306963 13279 net.cpp:151] Top shape: 20 64 15 15 (288000)
I0501 14:50:20.306967 13279 net.cpp:159] Memory required for data: 23112240
I0501 14:50:20.306973 13279 layer_factory.hpp:77] Creating layer relu4
I0501 14:50:20.306979 13279 net.cpp:94] Creating Layer relu4
I0501 14:50:20.306983 13279 net.cpp:435] relu4 <- conv4
I0501 14:50:20.306988 13279 net.cpp:396] relu4 -> conv4 (in-place)
I0501 14:50:20.306994 13279 net.cpp:144] Setting up relu4
I0501 14:50:20.306998 13279 net.cpp:151] Top shape: 20 64 15 15 (288000)
I0501 14:50:20.307001 13279 net.cpp:159] Memory required for data: 24264240
I0501 14:50:20.307004 13279 layer_factory.hpp:77] Creating layer conv5
I0501 14:50:20.307013 13279 net.cpp:94] Creating Layer conv5
I0501 14:50:20.307015 13279 net.cpp:435] conv5 <- conv4
I0501 14:50:20.307020 13279 net.cpp:409] conv5 -> conv5
I0501 14:50:20.312549 13279 net.cpp:144] Setting up conv5
I0501 14:50:20.312572 13279 net.cpp:151] Top shape: 20 64 15 15 (288000)
I0501 14:50:20.312577 13279 net.cpp:159] Memory required for data: 25416240
I0501 14:50:20.312584 13279 layer_factory.hpp:77] Creating layer relu5
I0501 14:50:20.312592 13279 net.cpp:94] Creating Layer relu5
I0501 14:50:20.312594 13279 net.cpp:435] relu5 <- conv5
I0501 14:50:20.312599 13279 net.cpp:396] relu5 -> conv5 (in-place)
I0501 14:50:20.312607 13279 net.cpp:144] Setting up relu5
I0501 14:50:20.312610 13279 net.cpp:151] Top shape: 20 64 15 15 (288000)
I0501 14:50:20.312613 13279 net.cpp:159] Memory required for data: 26568240
I0501 14:50:20.312616 13279 layer_factory.hpp:77] Creating layer pool5
I0501 14:50:20.312621 13279 net.cpp:94] Creating Layer pool5
I0501 14:50:20.312624 13279 net.cpp:435] pool5 <- conv5
I0501 14:50:20.312631 13279 net.cpp:409] pool5 -> pool5
I0501 14:50:20.312669 13279 net.cpp:144] Setting up pool5
I0501 14:50:20.312676 13279 net.cpp:151] Top shape: 20 64 7 7 (62720)
I0501 14:50:20.312678 13279 net.cpp:159] Memory required for data: 26819120
I0501 14:50:20.312682 13279 layer_factory.hpp:77] Creating layer ip1
I0501 14:50:20.312688 13279 net.cpp:94] Creating Layer ip1
I0501 14:50:20.312691 13279 net.cpp:435] ip1 <- pool5
I0501 14:50:20.312696 13279 net.cpp:409] ip1 -> ip1
I0501 14:50:20.317468 13279 net.cpp:144] Setting up ip1
I0501 14:50:20.317477 13279 net.cpp:151] Top shape: 20 64 (1280)
I0501 14:50:20.317481 13279 net.cpp:159] Memory required for data: 26824240
I0501 14:50:20.317487 13279 layer_factory.hpp:77] Creating layer ip2
I0501 14:50:20.317492 13279 net.cpp:94] Creating Layer ip2
I0501 14:50:20.317495 13279 net.cpp:435] ip2 <- ip1
I0501 14:50:20.317502 13279 net.cpp:409] ip2 -> ip2
I0501 14:50:20.317731 13279 net.cpp:144] Setting up ip2
I0501 14:50:20.317739 13279 net.cpp:151] Top shape: 20 64 (1280)
I0501 14:50:20.317741 13279 net.cpp:159] Memory required for data: 26829360
I0501 14:50:20.317745 13279 layer_factory.hpp:77] Creating layer ip3
I0501 14:50:20.317754 13279 net.cpp:94] Creating Layer ip3
I0501 14:50:20.317757 13279 net.cpp:435] ip3 <- ip2
I0501 14:50:20.317762 13279 net.cpp:409] ip3 -> ip3
I0501 14:50:20.317957 13279 net.cpp:144] Setting up ip3
I0501 14:50:20.317963 13279 net.cpp:151] Top shape: 20 50 (1000)
I0501 14:50:20.317966 13279 net.cpp:159] Memory required for data: 26833360
I0501 14:50:20.317971 13279 layer_factory.hpp:77] Creating layer ip3_ip3_0_split
I0501 14:50:20.317976 13279 net.cpp:94] Creating Layer ip3_ip3_0_split
I0501 14:50:20.317980 13279 net.cpp:435] ip3_ip3_0_split <- ip3
I0501 14:50:20.317984 13279 net.cpp:409] ip3_ip3_0_split -> ip3_ip3_0_split_0
I0501 14:50:20.317989 13279 net.cpp:409] ip3_ip3_0_split -> ip3_ip3_0_split_1
I0501 14:50:20.318032 13279 net.cpp:144] Setting up ip3_ip3_0_split
I0501 14:50:20.318037 13279 net.cpp:151] Top shape: 20 50 (1000)
I0501 14:50:20.318040 13279 net.cpp:151] Top shape: 20 50 (1000)
I0501 14:50:20.318043 13279 net.cpp:159] Memory required for data: 26841360
I0501 14:50:20.318047 13279 layer_factory.hpp:77] Creating layer accuracy
I0501 14:50:20.318053 13279 net.cpp:94] Creating Layer accuracy
I0501 14:50:20.318055 13279 net.cpp:435] accuracy <- ip3_ip3_0_split_0
I0501 14:50:20.318058 13279 net.cpp:435] accuracy <- label_intercept_1_split_0
I0501 14:50:20.318063 13279 net.cpp:409] accuracy -> accuracy
…
