…
I0505 11:33:16.056948  6589 net.cpp:323] The NetState phase (0) differed from the phase (1) specified by a rule in layer intercept
I0505 11:33:16.056962  6589 net.cpp:323] The NetState phase (0) differed from the phase (1) specified by a rule in layer loss
I0505 11:33:16.057030  6589 net.cpp:52] Initializing net from parameters: 
state {
  phase: TRAIN
}
layer {
  name: "parameters"
  type: "HDF5Data"
  top: "data"
  top: "label"
  include {
    phase: TRAIN
  }
  hdf5_data_param {
    source: "/home/purduethu/scratch/radon/d/deng106/CNNStatisticalModel/distributions/input/50_distributions_100_sample_size_train-parameters-path.txt"
    batch_size: 20
  }
}
layer {
  name: "conv1"
  type: "Convolution"
  bottom: "data"
  top: "conv1"
  param {
    lr_mult: 1
  }
  param {
    lr_mult: 2
  }
  convolution_param {
    num_output: 64
    pad: 2
    kernel_size: 5
    stride: 1
    weight_filler {
      type: "gaussian"
      std: 0.0001
    }
    bias_filler {
      type: "constant"
    }
  }
}
layer {
  name: "relu1"
  type: "ReLU"
  bottom: "conv1"
  top: "conv1"
}
layer {
  name: "pool1"
  type: "Pooling"
  bottom: "conv1"
  top: "pool1"
  pooling_param {
    pool: MAX
    kernel_size: 3
    stride: 2
  }
}
layer {
  name: "conv2"
  type: "Convolution"
  bottom: "pool1"
  top: "conv2"
  param {
    lr_mult: 1
  }
  param {
    lr_mult: 2
  }
  convolution_param {
    num_output: 128
    pad: 2
    kernel_size: 5
    stride: 1
    weight_filler {
      type: "gaussian"
      std: 0.01
    }
    bias_filler {
      type: "constant"
    }
  }
}
layer {
  name: "relu2"
  type: "ReLU"
  bottom: "conv2"
  top: "conv2"
}
layer {
  name: "conv3"
  type: "Convolution"
  bottom: "conv2"
  top: "conv3"
  param {
    lr_mult: 1
  }
  param {
    lr_mult: 2
  }
  convolution_param {
    num_output: 128
    pad: 2
    kernel_size: 5
    stride: 1
    weight_filler {
      type: "gaussian"
      std: 0.01
    }
    bias_filler {
      type: "constant"
    }
  }
}
layer {
  name: "relu3"
  type: "ReLU"
  bottom: "conv3"
  top: "conv3"
}
layer {
  name: "pool3"
  type: "Pooling"
  bottom: "conv3"
  top: "pool3"
  pooling_param {
    pool: AVE
    kernel_size: 3
    stride: 2
  }
}
layer {
  name: "ip1"
  type: "InnerProduct"
  bottom: "pool3"
  top: "ip1"
  param {
    lr_mult: 1
  }
  param {
    lr_mult: 2
  }
  inner_product_param {
    num_output: 512
    weight_filler {
      type: "gaussian"
      std: 0.1
    }
    bias_filler {
      type: "constant"
    }
  }
}
layer {
  name: "ip2"
  type: "InnerProduct"
  bottom: "ip1"
  top: "ip2"
  param {
    lr_mult: 1
  }
  param {
    lr_mult: 2
  }
  inner_product_param {
    num_output: 256
    weight_filler {
      type: "gaussian"
      std: 0.1
    }
    bias_filler {
      type: "constant"
    }
  }
}
layer {
  name: "ip3"
  type: "InnerProduct"
  bottom: "ip2"
  top: "ip3"
  param {
    lr_mult: 1
  }
  param {
    lr_mult: 2
  }
  inner_product_param {
    num_output: 1
    weight_filler {
      type: "gaussian"
      std: 0.1
    }
    bias_filler {
      type: "constant"
    }
  }
}
layer {
  name: "loss"
  type: "HuberLoss"
  bottom: "ip3"
  bottom: "label"
  top: "loss"
  include {
    phase: TRAIN
  }
}
I0505 11:33:16.057081  6589 layer_factory.hpp:77] Creating layer parameters
I0505 11:33:16.057098  6589 net.cpp:94] Creating Layer parameters
I0505 11:33:16.057102  6589 net.cpp:409] parameters -> data
I0505 11:33:16.057112  6589 net.cpp:409] parameters -> label
I0505 11:33:16.057119  6589 hdf5_data_layer.cpp:79] Loading list of HDF5 filenames from: /home/purduethu/scratch/radon/d/deng106/CNNStatisticalModel/distributions/input/50_distributions_100_sample_size_train-parameters-path.txt
I0505 11:33:16.057134  6589 hdf5_data_layer.cpp:93] Number of HDF5 files: 1
I0505 11:33:16.057701  6589 hdf5.cpp:32] Datatype class: H5T_FLOAT
I0505 11:33:16.227313  6589 net.cpp:144] Setting up parameters
I0505 11:33:16.227345  6589 net.cpp:151] Top shape: 20 1 10 10 (2000)
I0505 11:33:16.227350  6589 net.cpp:151] Top shape: 20 (20)
I0505 11:33:16.227354  6589 net.cpp:159] Memory required for data: 8080
I0505 11:33:16.227360  6589 layer_factory.hpp:77] Creating layer conv1
I0505 11:33:16.227376  6589 net.cpp:94] Creating Layer conv1
I0505 11:33:16.227381  6589 net.cpp:435] conv1 <- data
I0505 11:33:16.227387  6589 net.cpp:409] conv1 -> conv1
I0505 11:33:16.231657  6589 net.cpp:144] Setting up conv1
I0505 11:33:16.231675  6589 net.cpp:151] Top shape: 20 64 10 10 (128000)
I0505 11:33:16.231679  6589 net.cpp:159] Memory required for data: 520080
I0505 11:33:16.231689  6589 layer_factory.hpp:77] Creating layer relu1
I0505 11:33:16.231698  6589 net.cpp:94] Creating Layer relu1
I0505 11:33:16.231703  6589 net.cpp:435] relu1 <- conv1
I0505 11:33:16.231706  6589 net.cpp:396] relu1 -> conv1 (in-place)
I0505 11:33:16.231714  6589 net.cpp:144] Setting up relu1
I0505 11:33:16.231719  6589 net.cpp:151] Top shape: 20 64 10 10 (128000)
I0505 11:33:16.231721  6589 net.cpp:159] Memory required for data: 1032080
I0505 11:33:16.231724  6589 layer_factory.hpp:77] Creating layer pool1
I0505 11:33:16.231731  6589 net.cpp:94] Creating Layer pool1
I0505 11:33:16.231734  6589 net.cpp:435] pool1 <- conv1
I0505 11:33:16.231739  6589 net.cpp:409] pool1 -> pool1
I0505 11:33:16.231791  6589 net.cpp:144] Setting up pool1
I0505 11:33:16.231798  6589 net.cpp:151] Top shape: 20 64 5 5 (32000)
I0505 11:33:16.231801  6589 net.cpp:159] Memory required for data: 1160080
I0505 11:33:16.231804  6589 layer_factory.hpp:77] Creating layer conv2
I0505 11:33:16.231812  6589 net.cpp:94] Creating Layer conv2
I0505 11:33:16.231817  6589 net.cpp:435] conv2 <- pool1
I0505 11:33:16.231820  6589 net.cpp:409] conv2 -> conv2
I0505 11:33:16.240931  6589 net.cpp:144] Setting up conv2
I0505 11:33:16.240945  6589 net.cpp:151] Top shape: 20 128 5 5 (64000)
I0505 11:33:16.240950  6589 net.cpp:159] Memory required for data: 1416080
I0505 11:33:16.240958  6589 layer_factory.hpp:77] Creating layer relu2
I0505 11:33:16.240965  6589 net.cpp:94] Creating Layer relu2
I0505 11:33:16.240969  6589 net.cpp:435] relu2 <- conv2
I0505 11:33:16.240973  6589 net.cpp:396] relu2 -> conv2 (in-place)
I0505 11:33:16.240980  6589 net.cpp:144] Setting up relu2
I0505 11:33:16.240984  6589 net.cpp:151] Top shape: 20 128 5 5 (64000)
I0505 11:33:16.240988  6589 net.cpp:159] Memory required for data: 1672080
I0505 11:33:16.240990  6589 layer_factory.hpp:77] Creating layer conv3
I0505 11:33:16.240998  6589 net.cpp:94] Creating Layer conv3
I0505 11:33:16.241001  6589 net.cpp:435] conv3 <- conv2
I0505 11:33:16.241006  6589 net.cpp:409] conv3 -> conv3
I0505 11:33:16.255816  6589 net.cpp:144] Setting up conv3
I0505 11:33:16.255831  6589 net.cpp:151] Top shape: 20 128 5 5 (64000)
I0505 11:33:16.255836  6589 net.cpp:159] Memory required for data: 1928080
I0505 11:33:16.255844  6589 layer_factory.hpp:77] Creating layer relu3
I0505 11:33:16.255856  6589 net.cpp:94] Creating Layer relu3
I0505 11:33:16.255861  6589 net.cpp:435] relu3 <- conv3
I0505 11:33:16.255866  6589 net.cpp:396] relu3 -> conv3 (in-place)
I0505 11:33:16.255872  6589 net.cpp:144] Setting up relu3
I0505 11:33:16.255877  6589 net.cpp:151] Top shape: 20 128 5 5 (64000)
I0505 11:33:16.255879  6589 net.cpp:159] Memory required for data: 2184080
I0505 11:33:16.255882  6589 layer_factory.hpp:77] Creating layer pool3
I0505 11:33:16.255888  6589 net.cpp:94] Creating Layer pool3
I0505 11:33:16.255892  6589 net.cpp:435] pool3 <- conv3
I0505 11:33:16.255897  6589 net.cpp:409] pool3 -> pool3
I0505 11:33:16.255934  6589 net.cpp:144] Setting up pool3
I0505 11:33:16.255940  6589 net.cpp:151] Top shape: 20 128 2 2 (10240)
I0505 11:33:16.255944  6589 net.cpp:159] Memory required for data: 2225040
I0505 11:33:16.255946  6589 layer_factory.hpp:77] Creating layer ip1
I0505 11:33:16.255955  6589 net.cpp:94] Creating Layer ip1
I0505 11:33:16.255959  6589 net.cpp:435] ip1 <- pool3
I0505 11:33:16.255964  6589 net.cpp:409] ip1 -> ip1
I0505 11:33:16.263166  6589 net.cpp:144] Setting up ip1
I0505 11:33:16.263181  6589 net.cpp:151] Top shape: 20 512 (10240)
I0505 11:33:16.263185  6589 net.cpp:159] Memory required for data: 2266000
I0505 11:33:16.263191  6589 layer_factory.hpp:77] Creating layer ip2
I0505 11:33:16.263198  6589 net.cpp:94] Creating Layer ip2
I0505 11:33:16.263202  6589 net.cpp:435] ip2 <- ip1
I0505 11:33:16.263207  6589 net.cpp:409] ip2 -> ip2
I0505 11:33:16.267271  6589 net.cpp:144] Setting up ip2
I0505 11:33:16.267285  6589 net.cpp:151] Top shape: 20 256 (5120)
I0505 11:33:16.267289  6589 net.cpp:159] Memory required for data: 2286480
I0505 11:33:16.267298  6589 layer_factory.hpp:77] Creating layer ip3
I0505 11:33:16.267305  6589 net.cpp:94] Creating Layer ip3
I0505 11:33:16.267309  6589 net.cpp:435] ip3 <- ip2
I0505 11:33:16.267314  6589 net.cpp:409] ip3 -> ip3
I0505 11:33:16.267416  6589 net.cpp:144] Setting up ip3
I0505 11:33:16.267422  6589 net.cpp:151] Top shape: 20 1 (20)
I0505 11:33:16.267426  6589 net.cpp:159] Memory required for data: 2286560
I0505 11:33:16.267431  6589 layer_factory.hpp:77] Creating layer loss
I0505 11:33:16.267441  6589 net.cpp:94] Creating Layer loss
I0505 11:33:16.267444  6589 net.cpp:435] loss <- ip3
I0505 11:33:16.267447  6589 net.cpp:435] loss <- label
I0505 11:33:16.267452  6589 net.cpp:409] loss -> loss
I0505 11:33:16.267499  6589 net.cpp:144] Setting up loss
…
I0505 11:33:16.343521  6589 net.cpp:323] The NetState phase (0) differed from the phase (1) specified by a rule in layer intercept
I0505 11:33:16.343533  6589 net.cpp:323] The NetState phase (0) differed from the phase (1) specified by a rule in layer accuracy
I0505 11:33:16.343610  6589 net.cpp:52] Initializing net from parameters: 
state {
  phase: TRAIN
}
layer {
  name: "parameters"
  type: "HDF5Data"
  top: "data"
  top: "label"
  include {
    phase: TRAIN
  }
  hdf5_data_param {
    source: "/home/purduethu/scratch/radon/d/deng106/CNNStatisticalModel/distributions/input/50_distributions_100_sample_size_train-distributions-path.txt"
    batch_size: 20
  }
}
layer {
  name: "conv1"
  type: "Convolution"
  bottom: "data"
  top: "conv1"
  param {
    lr_mult: 1
  }
  param {
    lr_mult: 2
  }
  convolution_param {
    num_output: 64
    pad: 2
    kernel_size: 5
    stride: 1
    weight_filler {
      type: "gaussian"
      std: 0.0001
    }
    bias_filler {
      type: "constant"
    }
  }
}
layer {
  name: "relu1"
  type: "ReLU"
  bottom: "conv1"
  top: "conv1"
}
layer {
  name: "pool1"
  type: "Pooling"
  bottom: "conv1"
  top: "pool1"
  pooling_param {
    pool: MAX
    kernel_size: 3
    stride: 2
  }
}
layer {
  name: "conv2"
  type: "Convolution"
  bottom: "pool1"
  top: "conv2"
  param {
    lr_mult: 1
  }
  param {
    lr_mult: 2
  }
  convolution_param {
    num_output: 128
    pad: 2
    kernel_size: 5
    stride: 1
    weight_filler {
      type: "gaussian"
      std: 0.01
    }
    bias_filler {
      type: "constant"
    }
  }
}
layer {
  name: "relu2"
  type: "ReLU"
  bottom: "conv2"
  top: "conv2"
}
layer {
  name: "conv3"
  type: "Convolution"
  bottom: "conv2"
  top: "conv3"
  param {
    lr_mult: 1
  }
  param {
    lr_mult: 2
  }
  convolution_param {
    num_output: 128
    pad: 2
    kernel_size: 5
    stride: 1
    weight_filler {
      type: "gaussian"
      std: 0.01
    }
    bias_filler {
      type: "constant"
    }
  }
}
layer {
  name: "relu3"
  type: "ReLU"
  bottom: "conv3"
  top: "conv3"
}
layer {
  name: "pool3"
  type: "Pooling"
  bottom: "conv3"
  top: "pool3"
  pooling_param {
    pool: AVE
    kernel_size: 3
    stride: 2
  }
}
layer {
  name: "ip1"
  type: "InnerProduct"
  bottom: "pool3"
  top: "ip1"
  param {
    lr_mult: 1
  }
  param {
    lr_mult: 2
  }
  inner_product_param {
    num_output: 512
    weight_filler {
      type: "gaussian"
      std: 0.1
    }
    bias_filler {
      type: "constant"
    }
  }
}
layer {
  name: "ip2"
  type: "InnerProduct"
  bottom: "ip1"
  top: "ip2"
  param {
    lr_mult: 1
  }
  param {
    lr_mult: 2
  }
  inner_product_param {
    num_output: 256
    weight_filler {
      type: "gaussian"
      std: 0.1
    }
    bias_filler {
      type: "constant"
    }
  }
}
layer {
  name: "ip3"
  type: "InnerProduct"
  bottom: "ip2"
  top: "ip3"
  param {
    lr_mult: 1
  }
  param {
    lr_mult: 2
  }
  inner_product_param {
    num_output: 50
    weight_filler {
      type: "gaussian"
      std: 0.1
    }
    bias_filler {
      type: "constant"
    }
  }
}
layer {
  name: "loss"
  type: "SoftmaxWithLoss"
  bottom: "ip3"
  bottom: "label"
  top: "loss"
}
I0505 11:33:16.343654  6589 layer_factory.hpp:77] Creating layer parameters
I0505 11:33:16.343662  6589 net.cpp:94] Creating Layer parameters
I0505 11:33:16.343665  6589 net.cpp:409] parameters -> data
I0505 11:33:16.343672  6589 net.cpp:409] parameters -> label
I0505 11:33:16.343678  6589 hdf5_data_layer.cpp:79] Loading list of HDF5 filenames from: /home/purduethu/scratch/radon/d/deng106/CNNStatisticalModel/distributions/input/50_distributions_100_sample_size_train-distributions-path.txt
I0505 11:33:16.343693  6589 hdf5_data_layer.cpp:93] Number of HDF5 files: 1
I0505 11:33:16.505131  6589 hdf5.cpp:35] Datatype class: H5T_INTEGER
I0505 11:33:16.508184  6589 net.cpp:144] Setting up parameters
I0505 11:33:16.508208  6589 net.cpp:151] Top shape: 20 1 10 10 (2000)
I0505 11:33:16.508213  6589 net.cpp:151] Top shape: 20 (20)
I0505 11:33:16.508216  6589 net.cpp:159] Memory required for data: 8080
I0505 11:33:16.508222  6589 layer_factory.hpp:77] Creating layer conv1
I0505 11:33:16.508237  6589 net.cpp:94] Creating Layer conv1
I0505 11:33:16.508241  6589 net.cpp:435] conv1 <- data
I0505 11:33:16.508247  6589 net.cpp:409] conv1 -> conv1
I0505 11:33:16.510148  6589 net.cpp:144] Setting up conv1
I0505 11:33:16.510162  6589 net.cpp:151] Top shape: 20 64 10 10 (128000)
I0505 11:33:16.510166  6589 net.cpp:159] Memory required for data: 520080
I0505 11:33:16.510175  6589 layer_factory.hpp:77] Creating layer relu1
I0505 11:33:16.510184  6589 net.cpp:94] Creating Layer relu1
I0505 11:33:16.510186  6589 net.cpp:435] relu1 <- conv1
I0505 11:33:16.510190  6589 net.cpp:396] relu1 -> conv1 (in-place)
I0505 11:33:16.510198  6589 net.cpp:144] Setting up relu1
I0505 11:33:16.510202  6589 net.cpp:151] Top shape: 20 64 10 10 (128000)
I0505 11:33:16.510205  6589 net.cpp:159] Memory required for data: 1032080
I0505 11:33:16.510208  6589 layer_factory.hpp:77] Creating layer pool1
I0505 11:33:16.510215  6589 net.cpp:94] Creating Layer pool1
I0505 11:33:16.510217  6589 net.cpp:435] pool1 <- conv1
I0505 11:33:16.510228  6589 net.cpp:409] pool1 -> pool1
I0505 11:33:16.510282  6589 net.cpp:144] Setting up pool1
I0505 11:33:16.510288  6589 net.cpp:151] Top shape: 20 64 5 5 (32000)
I0505 11:33:16.510293  6589 net.cpp:159] Memory required for data: 1160080
I0505 11:33:16.510295  6589 layer_factory.hpp:77] Creating layer conv2
I0505 11:33:16.510303  6589 net.cpp:94] Creating Layer conv2
I0505 11:33:16.510308  6589 net.cpp:435] conv2 <- pool1
I0505 11:33:16.510311  6589 net.cpp:409] conv2 -> conv2
I0505 11:33:16.519534  6589 net.cpp:144] Setting up conv2
I0505 11:33:16.519549  6589 net.cpp:151] Top shape: 20 128 5 5 (64000)
I0505 11:33:16.519553  6589 net.cpp:159] Memory required for data: 1416080
I0505 11:33:16.519562  6589 layer_factory.hpp:77] Creating layer relu2
I0505 11:33:16.519568  6589 net.cpp:94] Creating Layer relu2
I0505 11:33:16.519572  6589 net.cpp:435] relu2 <- conv2
I0505 11:33:16.519577  6589 net.cpp:396] relu2 -> conv2 (in-place)
I0505 11:33:16.519582  6589 net.cpp:144] Setting up relu2
I0505 11:33:16.519587  6589 net.cpp:151] Top shape: 20 128 5 5 (64000)
I0505 11:33:16.519590  6589 net.cpp:159] Memory required for data: 1672080
I0505 11:33:16.519593  6589 layer_factory.hpp:77] Creating layer conv3
I0505 11:33:16.519600  6589 net.cpp:94] Creating Layer conv3
I0505 11:33:16.519603  6589 net.cpp:435] conv3 <- conv2
I0505 11:33:16.519608  6589 net.cpp:409] conv3 -> conv3
I0505 11:33:16.533973  6589 net.cpp:144] Setting up conv3
I0505 11:33:16.533988  6589 net.cpp:151] Top shape: 20 128 5 5 (64000)
I0505 11:33:16.533993  6589 net.cpp:159] Memory required for data: 1928080
I0505 11:33:16.534000  6589 layer_factory.hpp:77] Creating layer relu3
I0505 11:33:16.534006  6589 net.cpp:94] Creating Layer relu3
I0505 11:33:16.534010  6589 net.cpp:435] relu3 <- conv3
I0505 11:33:16.534014  6589 net.cpp:396] relu3 -> conv3 (in-place)
I0505 11:33:16.534021  6589 net.cpp:144] Setting up relu3
I0505 11:33:16.534026  6589 net.cpp:151] Top shape: 20 128 5 5 (64000)
I0505 11:33:16.534029  6589 net.cpp:159] Memory required for data: 2184080
I0505 11:33:16.534031  6589 layer_factory.hpp:77] Creating layer pool3
I0505 11:33:16.534037  6589 net.cpp:94] Creating Layer pool3
I0505 11:33:16.534040  6589 net.cpp:435] pool3 <- conv3
I0505 11:33:16.534044  6589 net.cpp:409] pool3 -> pool3
I0505 11:33:16.534080  6589 net.cpp:144] Setting up pool3
I0505 11:33:16.534087  6589 net.cpp:151] Top shape: 20 128 2 2 (10240)
I0505 11:33:16.534090  6589 net.cpp:159] Memory required for data: 2225040
I0505 11:33:16.534093  6589 layer_factory.hpp:77] Creating layer ip1
I0505 11:33:16.534101  6589 net.cpp:94] Creating Layer ip1
I0505 11:33:16.534103  6589 net.cpp:435] ip1 <- pool3
I0505 11:33:16.534107  6589 net.cpp:409] ip1 -> ip1
I0505 11:33:16.540299  6589 net.cpp:144] Setting up ip1
I0505 11:33:16.540308  6589 net.cpp:151] Top shape: 20 512 (10240)
I0505 11:33:16.540311  6589 net.cpp:159] Memory required for data: 2266000
I0505 11:33:16.540318  6589 layer_factory.hpp:77] Creating layer ip2
I0505 11:33:16.540323  6589 net.cpp:94] Creating Layer ip2
I0505 11:33:16.540326  6589 net.cpp:435] ip2 <- ip1
I0505 11:33:16.540331  6589 net.cpp:409] ip2 -> ip2
I0505 11:33:16.543500  6589 net.cpp:144] Setting up ip2
I0505 11:33:16.543509  6589 net.cpp:151] Top shape: 20 256 (5120)
I0505 11:33:16.543511  6589 net.cpp:159] Memory required for data: 2286480
I0505 11:33:16.543519  6589 layer_factory.hpp:77] Creating layer ip3
I0505 11:33:16.543524  6589 net.cpp:94] Creating Layer ip3
I0505 11:33:16.543527  6589 net.cpp:435] ip3 <- ip2
I0505 11:33:16.543532  6589 net.cpp:409] ip3 -> ip3
I0505 11:33:16.544795  6589 net.cpp:144] Setting up ip3
I0505 11:33:16.544809  6589 net.cpp:151] Top shape: 20 50 (1000)
I0505 11:33:16.544813  6589 net.cpp:159] Memory required for data: 2290480
I0505 11:33:16.544819  6589 layer_factory.hpp:77] Creating layer loss
I0505 11:33:16.544826  6589 net.cpp:94] Creating Layer loss
I0505 11:33:16.544828  6589 net.cpp:435] loss <- ip3
I0505 11:33:16.544832  6589 net.cpp:435] loss <- label
I0505 11:33:16.544837  6589 net.cpp:409] loss -> loss
I0505 11:33:16.544860  6589 layer_factory.hpp:77] Creating layer loss
…
I0505 11:33:16.545284  6589 solver.cpp:181] Creating test net (#0) specified by net file: ./protocol/dis_50_100_dimension.protocol_distribution
I0505 11:33:16.545306  6589 net.cpp:323] The NetState phase (1) differed from the phase (0) specified by a rule in layer parameters
I0505 11:33:16.545387  6589 net.cpp:52] Initializing net from parameters: 
state {
  phase: TEST
}
layer {
  name: "intercept"
  type: "HDF5Data"
  top: "data"
  top: "label"
  include {
    phase: TEST
  }
  hdf5_data_param {
    source: "/home/purduethu/scratch/radon/d/deng106/CNNStatisticalModel/distributions/input/50_distributions_100_sample_size_test-distributions-path.txt"
    batch_size: 20
  }
}
layer {
  name: "conv1"
  type: "Convolution"
  bottom: "data"
  top: "conv1"
  param {
    lr_mult: 1
  }
  param {
    lr_mult: 2
  }
  convolution_param {
    num_output: 64
    pad: 2
    kernel_size: 5
    stride: 1
    weight_filler {
      type: "gaussian"
      std: 0.0001
    }
    bias_filler {
      type: "constant"
    }
  }
}
layer {
  name: "relu1"
  type: "ReLU"
  bottom: "conv1"
  top: "conv1"
}
layer {
  name: "pool1"
  type: "Pooling"
  bottom: "conv1"
  top: "pool1"
  pooling_param {
    pool: MAX
    kernel_size: 3
    stride: 2
  }
}
layer {
  name: "conv2"
  type: "Convolution"
  bottom: "pool1"
  top: "conv2"
  param {
    lr_mult: 1
  }
  param {
    lr_mult: 2
  }
  convolution_param {
    num_output: 128
    pad: 2
    kernel_size: 5
    stride: 1
    weight_filler {
      type: "gaussian"
      std: 0.01
    }
    bias_filler {
      type: "constant"
    }
  }
}
layer {
  name: "relu2"
  type: "ReLU"
  bottom: "conv2"
  top: "conv2"
}
layer {
  name: "conv3"
  type: "Convolution"
  bottom: "conv2"
  top: "conv3"
  param {
    lr_mult: 1
  }
  param {
    lr_mult: 2
  }
  convolution_param {
    num_output: 128
    pad: 2
    kernel_size: 5
    stride: 1
    weight_filler {
      type: "gaussian"
      std: 0.01
    }
    bias_filler {
      type: "constant"
    }
  }
}
layer {
  name: "relu3"
  type: "ReLU"
  bottom: "conv3"
  top: "conv3"
}
layer {
  name: "pool3"
  type: "Pooling"
  bottom: "conv3"
  top: "pool3"
  pooling_param {
    pool: AVE
    kernel_size: 3
    stride: 2
  }
}
layer {
  name: "ip1"
  type: "InnerProduct"
  bottom: "pool3"
  top: "ip1"
  param {
    lr_mult: 1
  }
  param {
    lr_mult: 2
  }
  inner_product_param {
    num_output: 512
    weight_filler {
      type: "gaussian"
      std: 0.1
    }
    bias_filler {
      type: "constant"
    }
  }
}
layer {
  name: "ip2"
  type: "InnerProduct"
  bottom: "ip1"
  top: "ip2"
  param {
    lr_mult: 1
  }
  param {
    lr_mult: 2
  }
  inner_product_param {
    num_output: 256
    weight_filler {
      type: "gaussian"
      std: 0.1
    }
    bias_filler {
      type: "constant"
    }
  }
}
layer {
  name: "ip3"
  type: "InnerProduct"
  bottom: "ip2"
  top: "ip3"
  param {
    lr_mult: 1
  }
  param {
    lr_mult: 2
  }
  inner_product_param {
    num_output: 50
    weight_filler {
      type: "gaussian"
      std: 0.1
    }
    bias_filler {
      type: "constant"
    }
  }
}
layer {
  name: "accuracy"
  type: "Accuracy"
  bottom: "ip3"
  bottom: "label"
  top: "accuracy"
  include {
    phase: TEST
  }
}
layer {
  name: "loss"
  type: "SoftmaxWithLoss"
  bottom: "ip3"
  bottom: "label"
  top: "loss"
}
I0505 11:33:16.545442  6589 layer_factory.hpp:77] Creating layer intercept
I0505 11:33:16.545450  6589 net.cpp:94] Creating Layer intercept
I0505 11:33:16.545454  6589 net.cpp:409] intercept -> data
I0505 11:33:16.545461  6589 net.cpp:409] intercept -> label
I0505 11:33:16.545466  6589 hdf5_data_layer.cpp:79] Loading list of HDF5 filenames from: /home/purduethu/scratch/radon/d/deng106/CNNStatisticalModel/distributions/input/50_distributions_100_sample_size_test-distributions-path.txt
I0505 11:33:16.545485  6589 hdf5_data_layer.cpp:93] Number of HDF5 files: 1
I0505 11:33:16.587213  6589 net.cpp:144] Setting up intercept
I0505 11:33:16.587245  6589 net.cpp:151] Top shape: 20 1 10 10 (2000)
I0505 11:33:16.587250  6589 net.cpp:151] Top shape: 20 (20)
I0505 11:33:16.587254  6589 net.cpp:159] Memory required for data: 8080
I0505 11:33:16.587260  6589 layer_factory.hpp:77] Creating layer label_intercept_1_split
I0505 11:33:16.587278  6589 net.cpp:94] Creating Layer label_intercept_1_split
I0505 11:33:16.587283  6589 net.cpp:435] label_intercept_1_split <- label
I0505 11:33:16.587290  6589 net.cpp:409] label_intercept_1_split -> label_intercept_1_split_0
I0505 11:33:16.587297  6589 net.cpp:409] label_intercept_1_split -> label_intercept_1_split_1
I0505 11:33:16.587337  6589 net.cpp:144] Setting up label_intercept_1_split
I0505 11:33:16.587342  6589 net.cpp:151] Top shape: 20 (20)
I0505 11:33:16.587345  6589 net.cpp:151] Top shape: 20 (20)
I0505 11:33:16.587348  6589 net.cpp:159] Memory required for data: 8240
I0505 11:33:16.587352  6589 layer_factory.hpp:77] Creating layer conv1
I0505 11:33:16.587362  6589 net.cpp:94] Creating Layer conv1
I0505 11:33:16.587365  6589 net.cpp:435] conv1 <- data
I0505 11:33:16.587369  6589 net.cpp:409] conv1 -> conv1
I0505 11:33:16.588245  6589 net.cpp:144] Setting up conv1
I0505 11:33:16.588258  6589 net.cpp:151] Top shape: 20 64 10 10 (128000)
I0505 11:33:16.588263  6589 net.cpp:159] Memory required for data: 520240
I0505 11:33:16.588273  6589 layer_factory.hpp:77] Creating layer relu1
I0505 11:33:16.588279  6589 net.cpp:94] Creating Layer relu1
I0505 11:33:16.588282  6589 net.cpp:435] relu1 <- conv1
I0505 11:33:16.588286  6589 net.cpp:396] relu1 -> conv1 (in-place)
I0505 11:33:16.588294  6589 net.cpp:144] Setting up relu1
I0505 11:33:16.588297  6589 net.cpp:151] Top shape: 20 64 10 10 (128000)
I0505 11:33:16.588300  6589 net.cpp:159] Memory required for data: 1032240
I0505 11:33:16.588304  6589 layer_factory.hpp:77] Creating layer pool1
I0505 11:33:16.588310  6589 net.cpp:94] Creating Layer pool1
I0505 11:33:16.588312  6589 net.cpp:435] pool1 <- conv1
I0505 11:33:16.588316  6589 net.cpp:409] pool1 -> pool1
I0505 11:33:16.588371  6589 net.cpp:144] Setting up pool1
I0505 11:33:16.588377  6589 net.cpp:151] Top shape: 20 64 5 5 (32000)
I0505 11:33:16.588380  6589 net.cpp:159] Memory required for data: 1160240
I0505 11:33:16.588383  6589 layer_factory.hpp:77] Creating layer conv2
I0505 11:33:16.588392  6589 net.cpp:94] Creating Layer conv2
I0505 11:33:16.588395  6589 net.cpp:435] conv2 <- pool1
I0505 11:33:16.588400  6589 net.cpp:409] conv2 -> conv2
I0505 11:33:16.595976  6589 net.cpp:144] Setting up conv2
I0505 11:33:16.595993  6589 net.cpp:151] Top shape: 20 128 5 5 (64000)
I0505 11:33:16.595996  6589 net.cpp:159] Memory required for data: 1416240
I0505 11:33:16.596004  6589 layer_factory.hpp:77] Creating layer relu2
I0505 11:33:16.596017  6589 net.cpp:94] Creating Layer relu2
I0505 11:33:16.596021  6589 net.cpp:435] relu2 <- conv2
I0505 11:33:16.596025  6589 net.cpp:396] relu2 -> conv2 (in-place)
I0505 11:33:16.596032  6589 net.cpp:144] Setting up relu2
I0505 11:33:16.596036  6589 net.cpp:151] Top shape: 20 128 5 5 (64000)
I0505 11:33:16.596040  6589 net.cpp:159] Memory required for data: 1672240
I0505 11:33:16.596042  6589 layer_factory.hpp:77] Creating layer conv3
I0505 11:33:16.596050  6589 net.cpp:94] Creating Layer conv3
I0505 11:33:16.596053  6589 net.cpp:435] conv3 <- conv2
I0505 11:33:16.596058  6589 net.cpp:409] conv3 -> conv3
I0505 11:33:16.608595  6589 net.cpp:144] Setting up conv3
I0505 11:33:16.608611  6589 net.cpp:151] Top shape: 20 128 5 5 (64000)
I0505 11:33:16.608614  6589 net.cpp:159] Memory required for data: 1928240
I0505 11:33:16.608623  6589 layer_factory.hpp:77] Creating layer relu3
I0505 11:33:16.608630  6589 net.cpp:94] Creating Layer relu3
I0505 11:33:16.608634  6589 net.cpp:435] relu3 <- conv3
I0505 11:33:16.608639  6589 net.cpp:396] relu3 -> conv3 (in-place)
I0505 11:33:16.608645  6589 net.cpp:144] Setting up relu3
I0505 11:33:16.608649  6589 net.cpp:151] Top shape: 20 128 5 5 (64000)
I0505 11:33:16.608652  6589 net.cpp:159] Memory required for data: 2184240
I0505 11:33:16.608655  6589 layer_factory.hpp:77] Creating layer pool3
I0505 11:33:16.608660  6589 net.cpp:94] Creating Layer pool3
I0505 11:33:16.608664  6589 net.cpp:435] pool3 <- conv3
I0505 11:33:16.608667  6589 net.cpp:409] pool3 -> pool3
I0505 11:33:16.608705  6589 net.cpp:144] Setting up pool3
I0505 11:33:16.608712  6589 net.cpp:151] Top shape: 20 128 2 2 (10240)
I0505 11:33:16.608716  6589 net.cpp:159] Memory required for data: 2225200
I0505 11:33:16.608718  6589 layer_factory.hpp:77] Creating layer ip1
I0505 11:33:16.608726  6589 net.cpp:94] Creating Layer ip1
I0505 11:33:16.608728  6589 net.cpp:435] ip1 <- pool3
I0505 11:33:16.608733  6589 net.cpp:409] ip1 -> ip1
I0505 11:33:16.615023  6589 net.cpp:144] Setting up ip1
I0505 11:33:16.615033  6589 net.cpp:151] Top shape: 20 512 (10240)
I0505 11:33:16.615036  6589 net.cpp:159] Memory required for data: 2266160
I0505 11:33:16.615041  6589 layer_factory.hpp:77] Creating layer ip2
I0505 11:33:16.615048  6589 net.cpp:94] Creating Layer ip2
I0505 11:33:16.615051  6589 net.cpp:435] ip2 <- ip1
I0505 11:33:16.615056  6589 net.cpp:409] ip2 -> ip2
I0505 11:33:16.619082  6589 net.cpp:144] Setting up ip2
I0505 11:33:16.619096  6589 net.cpp:151] Top shape: 20 256 (5120)
I0505 11:33:16.619101  6589 net.cpp:159] Memory required for data: 2286640
I0505 11:33:16.619108  6589 layer_factory.hpp:77] Creating layer ip3
I0505 11:33:16.619114  6589 net.cpp:94] Creating Layer ip3
I0505 11:33:16.619118  6589 net.cpp:435] ip3 <- ip2
I0505 11:33:16.619124  6589 net.cpp:409] ip3 -> ip3
I0505 11:33:16.619556  6589 net.cpp:144] Setting up ip3
I0505 11:33:16.619565  6589 net.cpp:151] Top shape: 20 50 (1000)
I0505 11:33:16.619566  6589 net.cpp:159] Memory required for data: 2290640
I0505 11:33:16.619571  6589 layer_factory.hpp:77] Creating layer ip3_ip3_0_split
I0505 11:33:16.619577  6589 net.cpp:94] Creating Layer ip3_ip3_0_split
I0505 11:33:16.619580  6589 net.cpp:435] ip3_ip3_0_split <- ip3
I0505 11:33:16.619585  6589 net.cpp:409] ip3_ip3_0_split -> ip3_ip3_0_split_0
I0505 11:33:16.619590  6589 net.cpp:409] ip3_ip3_0_split -> ip3_ip3_0_split_1
I0505 11:33:16.619630  6589 net.cpp:144] Setting up ip3_ip3_0_split
I0505 11:33:16.619637  6589 net.cpp:151] Top shape: 20 50 (1000)
I0505 11:33:16.619640  6589 net.cpp:151] Top shape: 20 50 (1000)
I0505 11:33:16.619643  6589 net.cpp:159] Memory required for data: 2298640
I0505 11:33:16.619647  6589 layer_factory.hpp:77] Creating layer accuracy
I0505 11:33:16.619652  6589 net.cpp:94] Creating Layer accuracy
I0505 11:33:16.619655  6589 net.cpp:435] accuracy <- ip3_ip3_0_split_0
I0505 11:33:16.619659  6589 net.cpp:435] accuracy <- label_intercept_1_split_0
I0505 11:33:16.619663  6589 net.cpp:409] accuracy -> accuracy
…
