…
I0506 15:30:13.476053 22282 net.cpp:323] The NetState phase (0) differed from the phase (1) specified by a rule in layer intercept
I0506 15:30:13.476068 22282 net.cpp:323] The NetState phase (0) differed from the phase (1) specified by a rule in layer loss
I0506 15:30:13.476146 22282 net.cpp:52] Initializing net from parameters: 
state {
  phase: TRAIN
}
layer {
  name: "parameters"
  type: "HDF5Data"
  top: "data"
  top: "label"
  include {
    phase: TRAIN
  }
  hdf5_data_param {
    source: "/home/purduethu/scratch/radon/d/deng106/CNNStatisticalModel/distributions/input/50_distributions_100_sample_size_train-parameters-path.txt"
    batch_size: 20
  }
}
layer {
  name: "conv1"
  type: "Convolution"
  bottom: "data"
  top: "conv1"
  param {
    lr_mult: 1
  }
  param {
    lr_mult: 2
  }
  convolution_param {
    num_output: 64
    pad: 2
    kernel_size: 5
    stride: 1
    weight_filler {
      type: "gaussian"
      std: 0.0001
    }
    bias_filler {
      type: "constant"
    }
  }
}
layer {
  name: "relu1"
  type: "ReLU"
  bottom: "conv1"
  top: "conv1"
}
layer {
  name: "conv2"
  type: "Convolution"
  bottom: "conv1"
  top: "conv2"
  param {
    lr_mult: 1
  }
  param {
    lr_mult: 2
  }
  convolution_param {
    num_output: 64
    pad: 2
    kernel_size: 5
    stride: 1
    weight_filler {
      type: "gaussian"
      std: 0.01
    }
    bias_filler {
      type: "constant"
    }
  }
}
layer {
  name: "relu2"
  type: "ReLU"
  bottom: "conv2"
  top: "conv2"
}
layer {
  name: "pool2"
  type: "Pooling"
  bottom: "conv2"
  top: "pool2"
  pooling_param {
    pool: MAX
    kernel_size: 3
    stride: 2
  }
}
layer {
  name: "conv3"
  type: "Convolution"
  bottom: "pool2"
  top: "conv3"
  param {
    lr_mult: 1
  }
  param {
    lr_mult: 2
  }
  convolution_param {
    num_output: 128
    pad: 2
    kernel_size: 5
    stride: 1
    weight_filler {
      type: "gaussian"
      std: 0.01
    }
    bias_filler {
      type: "constant"
    }
  }
}
layer {
  name: "relu3"
  type: "ReLU"
  bottom: "conv3"
  top: "conv3"
}
layer {
  name: "conv4"
  type: "Convolution"
  bottom: "conv3"
  top: "conv4"
  param {
    lr_mult: 1
  }
  param {
    lr_mult: 2
  }
  convolution_param {
    num_output: 128
    pad: 2
    kernel_size: 5
    stride: 1
    weight_filler {
      type: "gaussian"
      std: 0.01
    }
    bias_filler {
      type: "constant"
    }
  }
}
layer {
  name: "relu4"
  type: "ReLU"
  bottom: "conv4"
  top: "conv4"
}
layer {
  name: "conv5"
  type: "Convolution"
  bottom: "conv4"
  top: "conv5"
  param {
    lr_mult: 1
  }
  param {
    lr_mult: 2
  }
  convolution_param {
    num_output: 128
    pad: 2
    kernel_size: 5
    stride: 1
    weight_filler {
      type: "gaussian"
      std: 0.01
    }
    bias_filler {
      type: "constant"
    }
  }
}
layer {
  name: "relu5"
  type: "ReLU"
  bottom: "conv5"
  top: "conv5"
}
layer {
  name: "pool5"
  type: "Pooling"
  bottom: "conv5"
  top: "pool5"
  pooling_param {
    pool: AVE
    kernel_size: 3
    stride: 2
  }
}
layer {
  name: "ip1"
  type: "InnerProduct"
  bottom: "pool5"
  top: "ip1"
  param {
    lr_mult: 1
  }
  param {
    lr_mult: 2
  }
  inner_product_param {
    num_output: 1024
    weight_filler {
      type: "gaussian"
      std: 0.1
    }
    bias_filler {
      type: "constant"
    }
  }
}
layer {
  name: "ip2"
  type: "InnerProduct"
  bottom: "ip1"
  top: "ip2"
  param {
    lr_mult: 1
  }
  param {
    lr_mult: 2
  }
  inner_product_param {
    num_output: 512
    weight_filler {
      type: "gaussian"
      std: 0.1
    }
    bias_filler {
      type: "constant"
    }
  }
}
layer {
  name: "ip3"
  type: "InnerProduct"
  bottom: "ip2"
  top: "ip3"
  param {
    lr_mult: 1
  }
  param {
    lr_mult: 2
  }
  inner_product_param {
    num_output: 1
    weight_filler {
      type: "gaussian"
      std: 0.1
    }
    bias_filler {
      type: "constant"
    }
  }
}
layer {
  name: "loss"
  type: "HuberLoss"
  bottom: "ip3"
  bottom: "label"
  top: "loss"
  include {
    phase: TRAIN
  }
}
I0506 15:30:13.476199 22282 layer_factory.hpp:77] Creating layer parameters
I0506 15:30:13.476217 22282 net.cpp:94] Creating Layer parameters
I0506 15:30:13.476220 22282 net.cpp:409] parameters -> data
I0506 15:30:13.476230 22282 net.cpp:409] parameters -> label
I0506 15:30:13.476236 22282 hdf5_data_layer.cpp:79] Loading list of HDF5 filenames from: /home/purduethu/scratch/radon/d/deng106/CNNStatisticalModel/distributions/input/50_distributions_100_sample_size_train-parameters-path.txt
I0506 15:30:13.476251 22282 hdf5_data_layer.cpp:93] Number of HDF5 files: 1
I0506 15:30:13.476804 22282 hdf5.cpp:32] Datatype class: H5T_FLOAT
I0506 15:30:13.635707 22282 net.cpp:144] Setting up parameters
I0506 15:30:13.635740 22282 net.cpp:151] Top shape: 20 1 10 10 (2000)
I0506 15:30:13.635746 22282 net.cpp:151] Top shape: 20 (20)
I0506 15:30:13.635748 22282 net.cpp:159] Memory required for data: 8080
I0506 15:30:13.635754 22282 layer_factory.hpp:77] Creating layer conv1
I0506 15:30:13.635771 22282 net.cpp:94] Creating Layer conv1
I0506 15:30:13.635776 22282 net.cpp:435] conv1 <- data
I0506 15:30:13.635782 22282 net.cpp:409] conv1 -> conv1
I0506 15:30:13.640043 22282 net.cpp:144] Setting up conv1
I0506 15:30:13.640058 22282 net.cpp:151] Top shape: 20 64 10 10 (128000)
I0506 15:30:13.640063 22282 net.cpp:159] Memory required for data: 520080
I0506 15:30:13.640072 22282 layer_factory.hpp:77] Creating layer relu1
I0506 15:30:13.640079 22282 net.cpp:94] Creating Layer relu1
I0506 15:30:13.640082 22282 net.cpp:435] relu1 <- conv1
I0506 15:30:13.640086 22282 net.cpp:396] relu1 -> conv1 (in-place)
I0506 15:30:13.640094 22282 net.cpp:144] Setting up relu1
I0506 15:30:13.640100 22282 net.cpp:151] Top shape: 20 64 10 10 (128000)
I0506 15:30:13.640102 22282 net.cpp:159] Memory required for data: 1032080
I0506 15:30:13.640105 22282 layer_factory.hpp:77] Creating layer conv2
I0506 15:30:13.640112 22282 net.cpp:94] Creating Layer conv2
I0506 15:30:13.640115 22282 net.cpp:435] conv2 <- conv1
I0506 15:30:13.640120 22282 net.cpp:409] conv2 -> conv2
I0506 15:30:13.646402 22282 net.cpp:144] Setting up conv2
I0506 15:30:13.646437 22282 net.cpp:151] Top shape: 20 64 10 10 (128000)
I0506 15:30:13.646448 22282 net.cpp:159] Memory required for data: 1544080
I0506 15:30:13.646469 22282 layer_factory.hpp:77] Creating layer relu2
I0506 15:30:13.646486 22282 net.cpp:94] Creating Layer relu2
I0506 15:30:13.646497 22282 net.cpp:435] relu2 <- conv2
I0506 15:30:13.646509 22282 net.cpp:396] relu2 -> conv2 (in-place)
I0506 15:30:13.646528 22282 net.cpp:144] Setting up relu2
I0506 15:30:13.646543 22282 net.cpp:151] Top shape: 20 64 10 10 (128000)
I0506 15:30:13.646550 22282 net.cpp:159] Memory required for data: 2056080
I0506 15:30:13.646559 22282 layer_factory.hpp:77] Creating layer pool2
I0506 15:30:13.646572 22282 net.cpp:94] Creating Layer pool2
I0506 15:30:13.646581 22282 net.cpp:435] pool2 <- conv2
I0506 15:30:13.646594 22282 net.cpp:409] pool2 -> pool2
I0506 15:30:13.646731 22282 net.cpp:144] Setting up pool2
I0506 15:30:13.646749 22282 net.cpp:151] Top shape: 20 64 5 5 (32000)
I0506 15:30:13.646759 22282 net.cpp:159] Memory required for data: 2184080
I0506 15:30:13.646769 22282 layer_factory.hpp:77] Creating layer conv3
I0506 15:30:13.646788 22282 net.cpp:94] Creating Layer conv3
I0506 15:30:13.646811 22282 net.cpp:435] conv3 <- pool2
I0506 15:30:13.646816 22282 net.cpp:409] conv3 -> conv3
I0506 15:30:13.655014 22282 net.cpp:144] Setting up conv3
I0506 15:30:13.655026 22282 net.cpp:151] Top shape: 20 128 5 5 (64000)
I0506 15:30:13.655030 22282 net.cpp:159] Memory required for data: 2440080
I0506 15:30:13.655038 22282 layer_factory.hpp:77] Creating layer relu3
I0506 15:30:13.655043 22282 net.cpp:94] Creating Layer relu3
I0506 15:30:13.655047 22282 net.cpp:435] relu3 <- conv3
I0506 15:30:13.655051 22282 net.cpp:396] relu3 -> conv3 (in-place)
I0506 15:30:13.655058 22282 net.cpp:144] Setting up relu3
I0506 15:30:13.655062 22282 net.cpp:151] Top shape: 20 128 5 5 (64000)
I0506 15:30:13.655066 22282 net.cpp:159] Memory required for data: 2696080
I0506 15:30:13.655068 22282 layer_factory.hpp:77] Creating layer conv4
I0506 15:30:13.655076 22282 net.cpp:94] Creating Layer conv4
I0506 15:30:13.655079 22282 net.cpp:435] conv4 <- conv3
I0506 15:30:13.655084 22282 net.cpp:409] conv4 -> conv4
I0506 15:30:13.670035 22282 net.cpp:144] Setting up conv4
I0506 15:30:13.670071 22282 net.cpp:151] Top shape: 20 128 5 5 (64000)
I0506 15:30:13.670094 22282 net.cpp:159] Memory required for data: 2952080
I0506 15:30:13.670099 22282 layer_factory.hpp:77] Creating layer relu4
I0506 15:30:13.670104 22282 net.cpp:94] Creating Layer relu4
I0506 15:30:13.670109 22282 net.cpp:435] relu4 <- conv4
I0506 15:30:13.670112 22282 net.cpp:396] relu4 -> conv4 (in-place)
I0506 15:30:13.670120 22282 net.cpp:144] Setting up relu4
I0506 15:30:13.670125 22282 net.cpp:151] Top shape: 20 128 5 5 (64000)
I0506 15:30:13.670127 22282 net.cpp:159] Memory required for data: 3208080
I0506 15:30:13.670130 22282 layer_factory.hpp:77] Creating layer conv5
I0506 15:30:13.670138 22282 net.cpp:94] Creating Layer conv5
I0506 15:30:13.670142 22282 net.cpp:435] conv5 <- conv4
I0506 15:30:13.670146 22282 net.cpp:409] conv5 -> conv5
I0506 15:30:13.684831 22282 net.cpp:144] Setting up conv5
I0506 15:30:13.684845 22282 net.cpp:151] Top shape: 20 128 5 5 (64000)
I0506 15:30:13.684849 22282 net.cpp:159] Memory required for data: 3464080
I0506 15:30:13.684859 22282 layer_factory.hpp:77] Creating layer relu5
I0506 15:30:13.684864 22282 net.cpp:94] Creating Layer relu5
I0506 15:30:13.684867 22282 net.cpp:435] relu5 <- conv5
I0506 15:30:13.684872 22282 net.cpp:396] relu5 -> conv5 (in-place)
I0506 15:30:13.684880 22282 net.cpp:144] Setting up relu5
I0506 15:30:13.684885 22282 net.cpp:151] Top shape: 20 128 5 5 (64000)
I0506 15:30:13.684887 22282 net.cpp:159] Memory required for data: 3720080
I0506 15:30:13.684890 22282 layer_factory.hpp:77] Creating layer pool5
I0506 15:30:13.684895 22282 net.cpp:94] Creating Layer pool5
I0506 15:30:13.684898 22282 net.cpp:435] pool5 <- conv5
I0506 15:30:13.684902 22282 net.cpp:409] pool5 -> pool5
I0506 15:30:13.684939 22282 net.cpp:144] Setting up pool5
I0506 15:30:13.684947 22282 net.cpp:151] Top shape: 20 128 2 2 (10240)
I0506 15:30:13.684949 22282 net.cpp:159] Memory required for data: 3761040
I0506 15:30:13.684953 22282 layer_factory.hpp:77] Creating layer ip1
I0506 15:30:13.684962 22282 net.cpp:94] Creating Layer ip1
I0506 15:30:13.684965 22282 net.cpp:435] ip1 <- pool5
I0506 15:30:13.684970 22282 net.cpp:409] ip1 -> ip1
I0506 15:30:13.699007 22282 net.cpp:144] Setting up ip1
I0506 15:30:13.699020 22282 net.cpp:151] Top shape: 20 1024 (20480)
I0506 15:30:13.699024 22282 net.cpp:159] Memory required for data: 3842960
I0506 15:30:13.699030 22282 layer_factory.hpp:77] Creating layer ip2
I0506 15:30:13.699038 22282 net.cpp:94] Creating Layer ip2
I0506 15:30:13.699041 22282 net.cpp:435] ip2 <- ip1
I0506 15:30:13.699046 22282 net.cpp:409] ip2 -> ip2
I0506 15:30:13.712111 22282 net.cpp:144] Setting up ip2
I0506 15:30:13.712124 22282 net.cpp:151] Top shape: 20 512 (10240)
I0506 15:30:13.712127 22282 net.cpp:159] Memory required for data: 3883920
I0506 15:30:13.712133 22282 layer_factory.hpp:77] Creating layer ip3
I0506 15:30:13.712141 22282 net.cpp:94] Creating Layer ip3
I0506 15:30:13.712143 22282 net.cpp:435] ip3 <- ip2
I0506 15:30:13.712154 22282 net.cpp:409] ip3 -> ip3
I0506 15:30:13.712265 22282 net.cpp:144] Setting up ip3
I0506 15:30:13.712271 22282 net.cpp:151] Top shape: 20 1 (20)
I0506 15:30:13.712275 22282 net.cpp:159] Memory required for data: 3884000
I0506 15:30:13.712280 22282 layer_factory.hpp:77] Creating layer loss
I0506 15:30:13.712291 22282 net.cpp:94] Creating Layer loss
I0506 15:30:13.712294 22282 net.cpp:435] loss <- ip3
I0506 15:30:13.712297 22282 net.cpp:435] loss <- label
I0506 15:30:13.712302 22282 net.cpp:409] loss -> loss
I0506 15:30:13.712350 22282 net.cpp:144] Setting up loss
…
I0506 15:30:13.818229 22282 net.cpp:323] The NetState phase (0) differed from the phase (1) specified by a rule in layer intercept
I0506 15:30:13.818244 22282 net.cpp:323] The NetState phase (0) differed from the phase (1) specified by a rule in layer accuracy
I0506 15:30:13.818328 22282 net.cpp:52] Initializing net from parameters: 
state {
  phase: TRAIN
}
layer {
  name: "parameters"
  type: "HDF5Data"
  top: "data"
  top: "label"
  include {
    phase: TRAIN
  }
  hdf5_data_param {
    source: "/home/purduethu/scratch/radon/d/deng106/CNNStatisticalModel/distributions/input/50_distributions_100_sample_size_train-distributions-path.txt"
    batch_size: 20
  }
}
layer {
  name: "conv1"
  type: "Convolution"
  bottom: "data"
  top: "conv1"
  param {
    lr_mult: 1
  }
  param {
    lr_mult: 2
  }
  convolution_param {
    num_output: 64
    pad: 2
    kernel_size: 5
    stride: 1
    weight_filler {
      type: "gaussian"
      std: 0.0001
    }
    bias_filler {
      type: "constant"
    }
  }
}
layer {
  name: "relu1"
  type: "ReLU"
  bottom: "conv1"
  top: "conv1"
}
layer {
  name: "conv2"
  type: "Convolution"
  bottom: "conv1"
  top: "conv2"
  param {
    lr_mult: 1
  }
  param {
    lr_mult: 2
  }
  convolution_param {
    num_output: 64
    pad: 2
    kernel_size: 5
    stride: 1
    weight_filler {
      type: "gaussian"
      std: 0.01
    }
    bias_filler {
      type: "constant"
    }
  }
}
layer {
  name: "relu2"
  type: "ReLU"
  bottom: "conv2"
  top: "conv2"
}
layer {
  name: "pool2"
  type: "Pooling"
  bottom: "conv2"
  top: "pool2"
  pooling_param {
    pool: MAX
    kernel_size: 3
    stride: 2
  }
}
layer {
  name: "conv3"
  type: "Convolution"
  bottom: "pool2"
  top: "conv3"
  param {
    lr_mult: 1
  }
  param {
    lr_mult: 2
  }
  convolution_param {
    num_output: 128
    pad: 2
    kernel_size: 5
    stride: 1
    weight_filler {
      type: "gaussian"
      std: 0.01
    }
    bias_filler {
      type: "constant"
    }
  }
}
layer {
  name: "relu3"
  type: "ReLU"
  bottom: "conv3"
  top: "conv3"
}
layer {
  name: "conv4"
  type: "Convolution"
  bottom: "conv3"
  top: "conv4"
  param {
    lr_mult: 1
  }
  param {
    lr_mult: 2
  }
  convolution_param {
    num_output: 128
    pad: 2
    kernel_size: 5
    stride: 1
    weight_filler {
      type: "gaussian"
      std: 0.01
    }
    bias_filler {
      type: "constant"
    }
  }
}
layer {
  name: "relu4"
  type: "ReLU"
  bottom: "conv4"
  top: "conv4"
}
layer {
  name: "conv5"
  type: "Convolution"
  bottom: "conv4"
  top: "conv5"
  param {
    lr_mult: 1
  }
  param {
    lr_mult: 2
  }
  convolution_param {
    num_output: 128
    pad: 2
    kernel_size: 5
    stride: 1
    weight_filler {
      type: "gaussian"
      std: 0.01
    }
    bias_filler {
      type: "constant"
    }
  }
}
layer {
  name: "relu5"
  type: "ReLU"
  bottom: "conv5"
  top: "conv5"
}
layer {
  name: "pool5"
  type: "Pooling"
  bottom: "conv5"
  top: "pool5"
  pooling_param {
    pool: AVE
    kernel_size: 3
    stride: 2
  }
}
layer {
  name: "ip1"
  type: "InnerProduct"
  bottom: "pool5"
  top: "ip1"
  param {
    lr_mult: 1
  }
  param {
    lr_mult: 2
  }
  inner_product_param {
    num_output: 1024
    weight_filler {
      type: "gaussian"
      std: 0.1
    }
    bias_filler {
      type: "constant"
    }
  }
}
layer {
  name: "ip2"
  type: "InnerProduct"
  bottom: "ip1"
  top: "ip2"
  param {
    lr_mult: 1
  }
  param {
    lr_mult: 2
  }
  inner_product_param {
    num_output: 512
    weight_filler {
      type: "gaussian"
      std: 0.1
    }
    bias_filler {
      type: "constant"
    }
  }
}
layer {
  name: "ip3"
  type: "InnerProduct"
  bottom: "ip2"
  top: "ip3"
  param {
    lr_mult: 1
  }
  param {
    lr_mult: 2
  }
  inner_product_param {
    num_output: 50
    weight_filler {
      type: "gaussian"
      std: 0.1
    }
    bias_filler {
      type: "constant"
    }
  }
}
layer {
  name: "loss"
  type: "SoftmaxWithLoss"
  bottom: "ip3"
  bottom: "label"
  top: "loss"
}
I0506 15:30:13.818378 22282 layer_factory.hpp:77] Creating layer parameters
I0506 15:30:13.818387 22282 net.cpp:94] Creating Layer parameters
I0506 15:30:13.818390 22282 net.cpp:409] parameters -> data
I0506 15:30:13.818397 22282 net.cpp:409] parameters -> label
I0506 15:30:13.818403 22282 hdf5_data_layer.cpp:79] Loading list of HDF5 filenames from: /home/purduethu/scratch/radon/d/deng106/CNNStatisticalModel/distributions/input/50_distributions_100_sample_size_train-distributions-path.txt
I0506 15:30:13.818419 22282 hdf5_data_layer.cpp:93] Number of HDF5 files: 1
I0506 15:30:13.971189 22282 hdf5.cpp:35] Datatype class: H5T_INTEGER
I0506 15:30:13.974274 22282 net.cpp:144] Setting up parameters
I0506 15:30:13.974295 22282 net.cpp:151] Top shape: 20 1 10 10 (2000)
I0506 15:30:13.974300 22282 net.cpp:151] Top shape: 20 (20)
I0506 15:30:13.974303 22282 net.cpp:159] Memory required for data: 8080
I0506 15:30:13.974309 22282 layer_factory.hpp:77] Creating layer conv1
I0506 15:30:13.974325 22282 net.cpp:94] Creating Layer conv1
I0506 15:30:13.974329 22282 net.cpp:435] conv1 <- data
I0506 15:30:13.974335 22282 net.cpp:409] conv1 -> conv1
I0506 15:30:13.976263 22282 net.cpp:144] Setting up conv1
I0506 15:30:13.976275 22282 net.cpp:151] Top shape: 20 64 10 10 (128000)
I0506 15:30:13.976279 22282 net.cpp:159] Memory required for data: 520080
I0506 15:30:13.976289 22282 layer_factory.hpp:77] Creating layer relu1
I0506 15:30:13.976296 22282 net.cpp:94] Creating Layer relu1
I0506 15:30:13.976300 22282 net.cpp:435] relu1 <- conv1
I0506 15:30:13.976305 22282 net.cpp:396] relu1 -> conv1 (in-place)
I0506 15:30:13.976312 22282 net.cpp:144] Setting up relu1
I0506 15:30:13.976317 22282 net.cpp:151] Top shape: 20 64 10 10 (128000)
I0506 15:30:13.976320 22282 net.cpp:159] Memory required for data: 1032080
I0506 15:30:13.976322 22282 layer_factory.hpp:77] Creating layer conv2
I0506 15:30:13.976330 22282 net.cpp:94] Creating Layer conv2
I0506 15:30:13.976333 22282 net.cpp:435] conv2 <- conv1
I0506 15:30:13.976337 22282 net.cpp:409] conv2 -> conv2
I0506 15:30:13.981957 22282 net.cpp:144] Setting up conv2
I0506 15:30:13.981971 22282 net.cpp:151] Top shape: 20 64 10 10 (128000)
I0506 15:30:13.981976 22282 net.cpp:159] Memory required for data: 1544080
I0506 15:30:13.981982 22282 layer_factory.hpp:77] Creating layer relu2
I0506 15:30:13.981988 22282 net.cpp:94] Creating Layer relu2
I0506 15:30:13.981992 22282 net.cpp:435] relu2 <- conv2
I0506 15:30:13.981997 22282 net.cpp:396] relu2 -> conv2 (in-place)
I0506 15:30:13.982003 22282 net.cpp:144] Setting up relu2
I0506 15:30:13.982008 22282 net.cpp:151] Top shape: 20 64 10 10 (128000)
I0506 15:30:13.982012 22282 net.cpp:159] Memory required for data: 2056080
I0506 15:30:13.982014 22282 layer_factory.hpp:77] Creating layer pool2
I0506 15:30:13.982020 22282 net.cpp:94] Creating Layer pool2
I0506 15:30:13.982023 22282 net.cpp:435] pool2 <- conv2
I0506 15:30:13.982028 22282 net.cpp:409] pool2 -> pool2
I0506 15:30:13.982077 22282 net.cpp:144] Setting up pool2
I0506 15:30:13.982084 22282 net.cpp:151] Top shape: 20 64 5 5 (32000)
I0506 15:30:13.982087 22282 net.cpp:159] Memory required for data: 2184080
I0506 15:30:13.982091 22282 layer_factory.hpp:77] Creating layer conv3
I0506 15:30:13.982098 22282 net.cpp:94] Creating Layer conv3
I0506 15:30:13.982102 22282 net.cpp:435] conv3 <- pool2
I0506 15:30:13.982106 22282 net.cpp:409] conv3 -> conv3
I0506 15:30:13.990694 22282 net.cpp:144] Setting up conv3
I0506 15:30:13.990708 22282 net.cpp:151] Top shape: 20 128 5 5 (64000)
I0506 15:30:13.990712 22282 net.cpp:159] Memory required for data: 2440080
I0506 15:30:13.990720 22282 layer_factory.hpp:77] Creating layer relu3
I0506 15:30:13.990725 22282 net.cpp:94] Creating Layer relu3
I0506 15:30:13.990730 22282 net.cpp:435] relu3 <- conv3
I0506 15:30:13.990733 22282 net.cpp:396] relu3 -> conv3 (in-place)
I0506 15:30:13.990746 22282 net.cpp:144] Setting up relu3
I0506 15:30:13.990751 22282 net.cpp:151] Top shape: 20 128 5 5 (64000)
I0506 15:30:13.990754 22282 net.cpp:159] Memory required for data: 2696080
I0506 15:30:13.990757 22282 layer_factory.hpp:77] Creating layer conv4
I0506 15:30:13.990766 22282 net.cpp:94] Creating Layer conv4
I0506 15:30:13.990769 22282 net.cpp:435] conv4 <- conv3
I0506 15:30:13.990773 22282 net.cpp:409] conv4 -> conv4
I0506 15:30:14.005472 22282 net.cpp:144] Setting up conv4
I0506 15:30:14.005513 22282 net.cpp:151] Top shape: 20 128 5 5 (64000)
I0506 15:30:14.005517 22282 net.cpp:159] Memory required for data: 2952080
I0506 15:30:14.005523 22282 layer_factory.hpp:77] Creating layer relu4
I0506 15:30:14.005529 22282 net.cpp:94] Creating Layer relu4
I0506 15:30:14.005532 22282 net.cpp:435] relu4 <- conv4
I0506 15:30:14.005537 22282 net.cpp:396] relu4 -> conv4 (in-place)
I0506 15:30:14.005544 22282 net.cpp:144] Setting up relu4
I0506 15:30:14.005549 22282 net.cpp:151] Top shape: 20 128 5 5 (64000)
I0506 15:30:14.005553 22282 net.cpp:159] Memory required for data: 3208080
I0506 15:30:14.005555 22282 layer_factory.hpp:77] Creating layer conv5
I0506 15:30:14.005563 22282 net.cpp:94] Creating Layer conv5
I0506 15:30:14.005566 22282 net.cpp:435] conv5 <- conv4
I0506 15:30:14.005570 22282 net.cpp:409] conv5 -> conv5
I0506 15:30:14.020699 22282 net.cpp:144] Setting up conv5
I0506 15:30:14.020735 22282 net.cpp:151] Top shape: 20 128 5 5 (64000)
I0506 15:30:14.020745 22282 net.cpp:159] Memory required for data: 3464080
I0506 15:30:14.020768 22282 layer_factory.hpp:77] Creating layer relu5
I0506 15:30:14.020783 22282 net.cpp:94] Creating Layer relu5
I0506 15:30:14.020793 22282 net.cpp:435] relu5 <- conv5
I0506 15:30:14.020805 22282 net.cpp:396] relu5 -> conv5 (in-place)
I0506 15:30:14.020824 22282 net.cpp:144] Setting up relu5
I0506 15:30:14.020838 22282 net.cpp:151] Top shape: 20 128 5 5 (64000)
I0506 15:30:14.020846 22282 net.cpp:159] Memory required for data: 3720080
I0506 15:30:14.020854 22282 layer_factory.hpp:77] Creating layer pool5
I0506 15:30:14.020867 22282 net.cpp:94] Creating Layer pool5
I0506 15:30:14.020877 22282 net.cpp:435] pool5 <- conv5
I0506 15:30:14.020889 22282 net.cpp:409] pool5 -> pool5
I0506 15:30:14.020982 22282 net.cpp:144] Setting up pool5
I0506 15:30:14.021000 22282 net.cpp:151] Top shape: 20 128 2 2 (10240)
I0506 15:30:14.021009 22282 net.cpp:159] Memory required for data: 3761040
I0506 15:30:14.021018 22282 layer_factory.hpp:77] Creating layer ip1
I0506 15:30:14.021034 22282 net.cpp:94] Creating Layer ip1
I0506 15:30:14.021044 22282 net.cpp:435] ip1 <- pool5
I0506 15:30:14.021060 22282 net.cpp:409] ip1 -> ip1
I0506 15:30:14.034160 22282 net.cpp:144] Setting up ip1
I0506 15:30:14.034174 22282 net.cpp:151] Top shape: 20 1024 (20480)
I0506 15:30:14.034178 22282 net.cpp:159] Memory required for data: 3842960
I0506 15:30:14.034184 22282 layer_factory.hpp:77] Creating layer ip2
I0506 15:30:14.034190 22282 net.cpp:94] Creating Layer ip2
I0506 15:30:14.034194 22282 net.cpp:435] ip2 <- ip1
I0506 15:30:14.034199 22282 net.cpp:409] ip2 -> ip2
I0506 15:30:14.047283 22282 net.cpp:144] Setting up ip2
I0506 15:30:14.047297 22282 net.cpp:151] Top shape: 20 512 (10240)
I0506 15:30:14.047299 22282 net.cpp:159] Memory required for data: 3883920
I0506 15:30:14.047305 22282 layer_factory.hpp:77] Creating layer ip3
I0506 15:30:14.047312 22282 net.cpp:94] Creating Layer ip3
I0506 15:30:14.047315 22282 net.cpp:435] ip3 <- ip2
I0506 15:30:14.047320 22282 net.cpp:409] ip3 -> ip3
I0506 15:30:14.048822 22282 net.cpp:144] Setting up ip3
I0506 15:30:14.048835 22282 net.cpp:151] Top shape: 20 50 (1000)
I0506 15:30:14.048838 22282 net.cpp:159] Memory required for data: 3887920
I0506 15:30:14.048844 22282 layer_factory.hpp:77] Creating layer loss
I0506 15:30:14.048851 22282 net.cpp:94] Creating Layer loss
I0506 15:30:14.048856 22282 net.cpp:435] loss <- ip3
I0506 15:30:14.048859 22282 net.cpp:435] loss <- label
I0506 15:30:14.048863 22282 net.cpp:409] loss -> loss
I0506 15:30:14.048871 22282 layer_factory.hpp:77] Creating layer loss
…
I0506 15:30:14.049376 22282 solver.cpp:181] Creating test net (#0) specified by net file: ./protocol/dis_50_100_dimension.protocol_distribution
I0506 15:30:14.049401 22282 net.cpp:323] The NetState phase (1) differed from the phase (0) specified by a rule in layer parameters
I0506 15:30:14.049494 22282 net.cpp:52] Initializing net from parameters: 
state {
  phase: TEST
}
layer {
  name: "intercept"
  type: "HDF5Data"
  top: "data"
  top: "label"
  include {
    phase: TEST
  }
  hdf5_data_param {
    source: "/home/purduethu/scratch/radon/d/deng106/CNNStatisticalModel/distributions/input/50_distributions_100_sample_size_test-distributions-path.txt"
    batch_size: 20
  }
}
layer {
  name: "conv1"
  type: "Convolution"
  bottom: "data"
  top: "conv1"
  param {
    lr_mult: 1
  }
  param {
    lr_mult: 2
  }
  convolution_param {
    num_output: 64
    pad: 2
    kernel_size: 5
    stride: 1
    weight_filler {
      type: "gaussian"
      std: 0.0001
    }
    bias_filler {
      type: "constant"
    }
  }
}
layer {
  name: "relu1"
  type: "ReLU"
  bottom: "conv1"
  top: "conv1"
}
layer {
  name: "conv2"
  type: "Convolution"
  bottom: "conv1"
  top: "conv2"
  param {
    lr_mult: 1
  }
  param {
    lr_mult: 2
  }
  convolution_param {
    num_output: 64
    pad: 2
    kernel_size: 5
    stride: 1
    weight_filler {
      type: "gaussian"
      std: 0.01
    }
    bias_filler {
      type: "constant"
    }
  }
}
layer {
  name: "relu2"
  type: "ReLU"
  bottom: "conv2"
  top: "conv2"
}
layer {
  name: "pool2"
  type: "Pooling"
  bottom: "conv2"
  top: "pool2"
  pooling_param {
    pool: MAX
    kernel_size: 3
    stride: 2
  }
}
layer {
  name: "conv3"
  type: "Convolution"
  bottom: "pool2"
  top: "conv3"
  param {
    lr_mult: 1
  }
  param {
    lr_mult: 2
  }
  convolution_param {
    num_output: 128
    pad: 2
    kernel_size: 5
    stride: 1
    weight_filler {
      type: "gaussian"
      std: 0.01
    }
    bias_filler {
      type: "constant"
    }
  }
}
layer {
  name: "relu3"
  type: "ReLU"
  bottom: "conv3"
  top: "conv3"
}
layer {
  name: "conv4"
  type: "Convolution"
  bottom: "conv3"
  top: "conv4"
  param {
    lr_mult: 1
  }
  param {
    lr_mult: 2
  }
  convolution_param {
    num_output: 128
    pad: 2
    kernel_size: 5
    stride: 1
    weight_filler {
      type: "gaussian"
      std: 0.01
    }
    bias_filler {
      type: "constant"
    }
  }
}
layer {
  name: "relu4"
  type: "ReLU"
  bottom: "conv4"
  top: "conv4"
}
layer {
  name: "conv5"
  type: "Convolution"
  bottom: "conv4"
  top: "conv5"
  param {
    lr_mult: 1
  }
  param {
    lr_mult: 2
  }
  convolution_param {
    num_output: 128
    pad: 2
    kernel_size: 5
    stride: 1
    weight_filler {
      type: "gaussian"
      std: 0.01
    }
    bias_filler {
      type: "constant"
    }
  }
}
layer {
  name: "relu5"
  type: "ReLU"
  bottom: "conv5"
  top: "conv5"
}
layer {
  name: "pool5"
  type: "Pooling"
  bottom: "conv5"
  top: "pool5"
  pooling_param {
    pool: AVE
    kernel_size: 3
    stride: 2
  }
}
layer {
  name: "ip1"
  type: "InnerProduct"
  bottom: "pool5"
  top: "ip1"
  param {
    lr_mult: 1
  }
  param {
    lr_mult: 2
  }
  inner_product_param {
    num_output: 1024
    weight_filler {
      type: "gaussian"
      std: 0.1
    }
    bias_filler {
      type: "constant"
    }
  }
}
layer {
  name: "ip2"
  type: "InnerProduct"
  bottom: "ip1"
  top: "ip2"
  param {
    lr_mult: 1
  }
  param {
    lr_mult: 2
  }
  inner_product_param {
    num_output: 512
    weight_filler {
      type: "gaussian"
      std: 0.1
    }
    bias_filler {
      type: "constant"
    }
  }
}
layer {
  name: "ip3"
  type: "InnerProduct"
  bottom: "ip2"
  top: "ip3"
  param {
    lr_mult: 1
  }
  param {
    lr_mult: 2
  }
  inner_product_param {
    num_output: 50
    weight_filler {
      type: "gaussian"
      std: 0.1
    }
    bias_filler {
      type: "constant"
    }
  }
}
layer {
  name: "accuracy"
  type: "Accuracy"
  bottom: "ip3"
  bottom: "label"
  top: "accuracy"
  include {
    phase: TEST
  }
}
layer {
  name: "loss"
  type: "SoftmaxWithLoss"
  bottom: "ip3"
  bottom: "label"
  top: "loss"
}
I0506 15:30:14.049557 22282 layer_factory.hpp:77] Creating layer intercept
I0506 15:30:14.049566 22282 net.cpp:94] Creating Layer intercept
I0506 15:30:14.049569 22282 net.cpp:409] intercept -> data
I0506 15:30:14.049576 22282 net.cpp:409] intercept -> label
I0506 15:30:14.049582 22282 hdf5_data_layer.cpp:79] Loading list of HDF5 filenames from: /home/purduethu/scratch/radon/d/deng106/CNNStatisticalModel/distributions/input/50_distributions_100_sample_size_test-distributions-path.txt
I0506 15:30:14.049602 22282 hdf5_data_layer.cpp:93] Number of HDF5 files: 1
I0506 15:30:14.089561 22282 net.cpp:144] Setting up intercept
I0506 15:30:14.089596 22282 net.cpp:151] Top shape: 20 1 10 10 (2000)
I0506 15:30:14.089601 22282 net.cpp:151] Top shape: 20 (20)
I0506 15:30:14.089604 22282 net.cpp:159] Memory required for data: 8080
I0506 15:30:14.089610 22282 layer_factory.hpp:77] Creating layer label_intercept_1_split
I0506 15:30:14.089630 22282 net.cpp:94] Creating Layer label_intercept_1_split
I0506 15:30:14.089634 22282 net.cpp:435] label_intercept_1_split <- label
I0506 15:30:14.089640 22282 net.cpp:409] label_intercept_1_split -> label_intercept_1_split_0
I0506 15:30:14.089648 22282 net.cpp:409] label_intercept_1_split -> label_intercept_1_split_1
I0506 15:30:14.089690 22282 net.cpp:144] Setting up label_intercept_1_split
I0506 15:30:14.089697 22282 net.cpp:151] Top shape: 20 (20)
I0506 15:30:14.089700 22282 net.cpp:151] Top shape: 20 (20)
I0506 15:30:14.089704 22282 net.cpp:159] Memory required for data: 8240
I0506 15:30:14.089706 22282 layer_factory.hpp:77] Creating layer conv1
I0506 15:30:14.089717 22282 net.cpp:94] Creating Layer conv1
I0506 15:30:14.089721 22282 net.cpp:435] conv1 <- data
I0506 15:30:14.089725 22282 net.cpp:409] conv1 -> conv1
I0506 15:30:14.090626 22282 net.cpp:144] Setting up conv1
I0506 15:30:14.090639 22282 net.cpp:151] Top shape: 20 64 10 10 (128000)
I0506 15:30:14.090642 22282 net.cpp:159] Memory required for data: 520240
I0506 15:30:14.090652 22282 layer_factory.hpp:77] Creating layer relu1
I0506 15:30:14.090658 22282 net.cpp:94] Creating Layer relu1
I0506 15:30:14.090662 22282 net.cpp:435] relu1 <- conv1
I0506 15:30:14.090667 22282 net.cpp:396] relu1 -> conv1 (in-place)
I0506 15:30:14.090673 22282 net.cpp:144] Setting up relu1
I0506 15:30:14.090677 22282 net.cpp:151] Top shape: 20 64 10 10 (128000)
I0506 15:30:14.090687 22282 net.cpp:159] Memory required for data: 1032240
I0506 15:30:14.090692 22282 layer_factory.hpp:77] Creating layer conv2
I0506 15:30:14.090698 22282 net.cpp:94] Creating Layer conv2
I0506 15:30:14.090703 22282 net.cpp:435] conv2 <- conv1
I0506 15:30:14.090706 22282 net.cpp:409] conv2 -> conv2
I0506 15:30:14.094818 22282 net.cpp:144] Setting up conv2
I0506 15:30:14.094831 22282 net.cpp:151] Top shape: 20 64 10 10 (128000)
I0506 15:30:14.094835 22282 net.cpp:159] Memory required for data: 1544240
I0506 15:30:14.094842 22282 layer_factory.hpp:77] Creating layer relu2
I0506 15:30:14.094848 22282 net.cpp:94] Creating Layer relu2
I0506 15:30:14.094851 22282 net.cpp:435] relu2 <- conv2
I0506 15:30:14.094857 22282 net.cpp:396] relu2 -> conv2 (in-place)
I0506 15:30:14.094864 22282 net.cpp:144] Setting up relu2
I0506 15:30:14.094868 22282 net.cpp:151] Top shape: 20 64 10 10 (128000)
I0506 15:30:14.094871 22282 net.cpp:159] Memory required for data: 2056240
I0506 15:30:14.094874 22282 layer_factory.hpp:77] Creating layer pool2
I0506 15:30:14.094880 22282 net.cpp:94] Creating Layer pool2
I0506 15:30:14.094882 22282 net.cpp:435] pool2 <- conv2
I0506 15:30:14.094887 22282 net.cpp:409] pool2 -> pool2
I0506 15:30:14.094943 22282 net.cpp:144] Setting up pool2
I0506 15:30:14.094949 22282 net.cpp:151] Top shape: 20 64 5 5 (32000)
I0506 15:30:14.094952 22282 net.cpp:159] Memory required for data: 2184240
I0506 15:30:14.094955 22282 layer_factory.hpp:77] Creating layer conv3
I0506 15:30:14.094965 22282 net.cpp:94] Creating Layer conv3
I0506 15:30:14.094969 22282 net.cpp:435] conv3 <- pool2
I0506 15:30:14.094974 22282 net.cpp:409] conv3 -> conv3
I0506 15:30:14.101009 22282 net.cpp:144] Setting up conv3
I0506 15:30:14.101022 22282 net.cpp:151] Top shape: 20 128 5 5 (64000)
I0506 15:30:14.101025 22282 net.cpp:159] Memory required for data: 2440240
I0506 15:30:14.101033 22282 layer_factory.hpp:77] Creating layer relu3
I0506 15:30:14.101040 22282 net.cpp:94] Creating Layer relu3
I0506 15:30:14.101044 22282 net.cpp:435] relu3 <- conv3
I0506 15:30:14.101049 22282 net.cpp:396] relu3 -> conv3 (in-place)
I0506 15:30:14.101055 22282 net.cpp:144] Setting up relu3
I0506 15:30:14.101059 22282 net.cpp:151] Top shape: 20 128 5 5 (64000)
I0506 15:30:14.101063 22282 net.cpp:159] Memory required for data: 2696240
I0506 15:30:14.101065 22282 layer_factory.hpp:77] Creating layer conv4
I0506 15:30:14.101073 22282 net.cpp:94] Creating Layer conv4
I0506 15:30:14.101078 22282 net.cpp:435] conv4 <- conv3
I0506 15:30:14.101083 22282 net.cpp:409] conv4 -> conv4
I0506 15:30:14.113530 22282 net.cpp:144] Setting up conv4
I0506 15:30:14.113544 22282 net.cpp:151] Top shape: 20 128 5 5 (64000)
I0506 15:30:14.113548 22282 net.cpp:159] Memory required for data: 2952240
I0506 15:30:14.113554 22282 layer_factory.hpp:77] Creating layer relu4
I0506 15:30:14.113559 22282 net.cpp:94] Creating Layer relu4
I0506 15:30:14.113564 22282 net.cpp:435] relu4 <- conv4
I0506 15:30:14.113567 22282 net.cpp:396] relu4 -> conv4 (in-place)
I0506 15:30:14.113574 22282 net.cpp:144] Setting up relu4
I0506 15:30:14.113579 22282 net.cpp:151] Top shape: 20 128 5 5 (64000)
I0506 15:30:14.113581 22282 net.cpp:159] Memory required for data: 3208240
I0506 15:30:14.113584 22282 layer_factory.hpp:77] Creating layer conv5
I0506 15:30:14.113592 22282 net.cpp:94] Creating Layer conv5
I0506 15:30:14.113595 22282 net.cpp:435] conv5 <- conv4
I0506 15:30:14.113601 22282 net.cpp:409] conv5 -> conv5
I0506 15:30:14.126175 22282 net.cpp:144] Setting up conv5
I0506 15:30:14.126189 22282 net.cpp:151] Top shape: 20 128 5 5 (64000)
I0506 15:30:14.126194 22282 net.cpp:159] Memory required for data: 3464240
I0506 15:30:14.126201 22282 layer_factory.hpp:77] Creating layer relu5
I0506 15:30:14.126209 22282 net.cpp:94] Creating Layer relu5
I0506 15:30:14.126211 22282 net.cpp:435] relu5 <- conv5
I0506 15:30:14.126215 22282 net.cpp:396] relu5 -> conv5 (in-place)
I0506 15:30:14.126222 22282 net.cpp:144] Setting up relu5
I0506 15:30:14.126226 22282 net.cpp:151] Top shape: 20 128 5 5 (64000)
I0506 15:30:14.126235 22282 net.cpp:159] Memory required for data: 3720240
I0506 15:30:14.126237 22282 layer_factory.hpp:77] Creating layer pool5
I0506 15:30:14.126243 22282 net.cpp:94] Creating Layer pool5
I0506 15:30:14.126246 22282 net.cpp:435] pool5 <- conv5
I0506 15:30:14.126250 22282 net.cpp:409] pool5 -> pool5
I0506 15:30:14.126288 22282 net.cpp:144] Setting up pool5
I0506 15:30:14.126296 22282 net.cpp:151] Top shape: 20 128 2 2 (10240)
I0506 15:30:14.126298 22282 net.cpp:159] Memory required for data: 3761200
I0506 15:30:14.126302 22282 layer_factory.hpp:77] Creating layer ip1
I0506 15:30:14.126308 22282 net.cpp:94] Creating Layer ip1
I0506 15:30:14.126312 22282 net.cpp:435] ip1 <- pool5
I0506 15:30:14.126317 22282 net.cpp:409] ip1 -> ip1
I0506 15:30:14.139304 22282 net.cpp:144] Setting up ip1
I0506 15:30:14.139317 22282 net.cpp:151] Top shape: 20 1024 (20480)
I0506 15:30:14.139320 22282 net.cpp:159] Memory required for data: 3843120
I0506 15:30:14.139327 22282 layer_factory.hpp:77] Creating layer ip2
I0506 15:30:14.139334 22282 net.cpp:94] Creating Layer ip2
I0506 15:30:14.139338 22282 net.cpp:435] ip2 <- ip1
I0506 15:30:14.139343 22282 net.cpp:409] ip2 -> ip2
I0506 15:30:14.152277 22282 net.cpp:144] Setting up ip2
I0506 15:30:14.152290 22282 net.cpp:151] Top shape: 20 512 (10240)
I0506 15:30:14.152294 22282 net.cpp:159] Memory required for data: 3884080
I0506 15:30:14.152299 22282 layer_factory.hpp:77] Creating layer ip3
I0506 15:30:14.152307 22282 net.cpp:94] Creating Layer ip3
I0506 15:30:14.152312 22282 net.cpp:435] ip3 <- ip2
I0506 15:30:14.152317 22282 net.cpp:409] ip3 -> ip3
I0506 15:30:14.153046 22282 net.cpp:144] Setting up ip3
I0506 15:30:14.153055 22282 net.cpp:151] Top shape: 20 50 (1000)
I0506 15:30:14.153059 22282 net.cpp:159] Memory required for data: 3888080
I0506 15:30:14.153064 22282 layer_factory.hpp:77] Creating layer ip3_ip3_0_split
I0506 15:30:14.153069 22282 net.cpp:94] Creating Layer ip3_ip3_0_split
I0506 15:30:14.153071 22282 net.cpp:435] ip3_ip3_0_split <- ip3
I0506 15:30:14.153077 22282 net.cpp:409] ip3_ip3_0_split -> ip3_ip3_0_split_0
I0506 15:30:14.153082 22282 net.cpp:409] ip3_ip3_0_split -> ip3_ip3_0_split_1
I0506 15:30:14.153123 22282 net.cpp:144] Setting up ip3_ip3_0_split
I0506 15:30:14.153131 22282 net.cpp:151] Top shape: 20 50 (1000)
I0506 15:30:14.153133 22282 net.cpp:151] Top shape: 20 50 (1000)
I0506 15:30:14.153136 22282 net.cpp:159] Memory required for data: 3896080
I0506 15:30:14.153139 22282 layer_factory.hpp:77] Creating layer accuracy
I0506 15:30:14.153144 22282 net.cpp:94] Creating Layer accuracy
I0506 15:30:14.153147 22282 net.cpp:435] accuracy <- ip3_ip3_0_split_0
I0506 15:30:14.153151 22282 net.cpp:435] accuracy <- label_intercept_1_split_0
I0506 15:30:14.153156 22282 net.cpp:409] accuracy -> accuracy
…
