…
I0505 14:59:55.711542  7491 net.cpp:323] The NetState phase (0) differed from the phase (1) specified by a rule in layer intercept
I0505 14:59:55.711557  7491 net.cpp:323] The NetState phase (0) differed from the phase (1) specified by a rule in layer loss
I0505 14:59:55.711625  7491 net.cpp:52] Initializing net from parameters: 
state {
  phase: TRAIN
}
layer {
  name: "parameters"
  type: "HDF5Data"
  top: "data"
  top: "label"
  include {
    phase: TRAIN
  }
  hdf5_data_param {
    source: "/home/purduethu/scratch/radon/d/deng106/CNNStatisticalModel/distributions/input/50_distributions_900_sample_size_train-parameters-path.txt"
    batch_size: 20
  }
}
layer {
  name: "conv1"
  type: "Convolution"
  bottom: "data"
  top: "conv1"
  param {
    lr_mult: 1
  }
  param {
    lr_mult: 2
  }
  convolution_param {
    num_output: 64
    pad: 2
    kernel_size: 5
    stride: 1
    weight_filler {
      type: "gaussian"
      std: 0.0001
    }
    bias_filler {
      type: "constant"
    }
  }
}
layer {
  name: "relu1"
  type: "ReLU"
  bottom: "conv1"
  top: "conv1"
}
layer {
  name: "pool1"
  type: "Pooling"
  bottom: "conv1"
  top: "pool1"
  pooling_param {
    pool: MAX
    kernel_size: 3
    stride: 2
  }
}
layer {
  name: "conv2"
  type: "Convolution"
  bottom: "pool1"
  top: "conv2"
  param {
    lr_mult: 1
  }
  param {
    lr_mult: 2
  }
  convolution_param {
    num_output: 128
    pad: 2
    kernel_size: 5
    stride: 1
    weight_filler {
      type: "gaussian"
      std: 0.01
    }
    bias_filler {
      type: "constant"
    }
  }
}
layer {
  name: "relu2"
  type: "ReLU"
  bottom: "conv2"
  top: "conv2"
}
layer {
  name: "conv3"
  type: "Convolution"
  bottom: "conv2"
  top: "conv3"
  param {
    lr_mult: 1
  }
  param {
    lr_mult: 2
  }
  convolution_param {
    num_output: 128
    pad: 2
    kernel_size: 5
    stride: 1
    weight_filler {
      type: "gaussian"
      std: 0.01
    }
    bias_filler {
      type: "constant"
    }
  }
}
layer {
  name: "relu3"
  type: "ReLU"
  bottom: "conv3"
  top: "conv3"
}
layer {
  name: "pool3"
  type: "Pooling"
  bottom: "conv3"
  top: "pool3"
  pooling_param {
    pool: AVE
    kernel_size: 3
    stride: 2
  }
}
layer {
  name: "ip1"
  type: "InnerProduct"
  bottom: "pool3"
  top: "ip1"
  param {
    lr_mult: 1
  }
  param {
    lr_mult: 2
  }
  inner_product_param {
    num_output: 512
    weight_filler {
      type: "gaussian"
      std: 0.1
    }
    bias_filler {
      type: "constant"
    }
  }
}
layer {
  name: "ip2"
  type: "InnerProduct"
  bottom: "ip1"
  top: "ip2"
  param {
    lr_mult: 1
  }
  param {
    lr_mult: 2
  }
  inner_product_param {
    num_output: 256
    weight_filler {
      type: "gaussian"
      std: 0.1
    }
    bias_filler {
      type: "constant"
    }
  }
}
layer {
  name: "ip3"
  type: "InnerProduct"
  bottom: "ip2"
  top: "ip3"
  param {
    lr_mult: 1
  }
  param {
    lr_mult: 2
  }
  inner_product_param {
    num_output: 1
    weight_filler {
      type: "gaussian"
      std: 0.1
    }
    bias_filler {
      type: "constant"
    }
  }
}
layer {
  name: "loss"
  type: "HuberLoss"
  bottom: "ip3"
  bottom: "label"
  top: "loss"
  include {
    phase: TRAIN
  }
}
I0505 14:59:55.711673  7491 layer_factory.hpp:77] Creating layer parameters
I0505 14:59:55.711684  7491 net.cpp:94] Creating Layer parameters
I0505 14:59:55.711689  7491 net.cpp:409] parameters -> data
I0505 14:59:55.711702  7491 net.cpp:409] parameters -> label
I0505 14:59:55.711709  7491 hdf5_data_layer.cpp:79] Loading list of HDF5 filenames from: /home/purduethu/scratch/radon/d/deng106/CNNStatisticalModel/distributions/input/50_distributions_900_sample_size_train-parameters-path.txt
I0505 14:59:55.711724  7491 hdf5_data_layer.cpp:93] Number of HDF5 files: 1
I0505 14:59:55.712275  7491 hdf5.cpp:32] Datatype class: H5T_FLOAT
I0505 14:59:57.181543  7491 net.cpp:144] Setting up parameters
I0505 14:59:57.181577  7491 net.cpp:151] Top shape: 20 1 30 30 (18000)
I0505 14:59:57.181582  7491 net.cpp:151] Top shape: 20 (20)
I0505 14:59:57.181586  7491 net.cpp:159] Memory required for data: 72080
I0505 14:59:57.181592  7491 layer_factory.hpp:77] Creating layer conv1
I0505 14:59:57.181608  7491 net.cpp:94] Creating Layer conv1
I0505 14:59:57.181613  7491 net.cpp:435] conv1 <- data
I0505 14:59:57.181620  7491 net.cpp:409] conv1 -> conv1
I0505 14:59:57.188495  7491 net.cpp:144] Setting up conv1
I0505 14:59:57.188516  7491 net.cpp:151] Top shape: 20 64 30 30 (1152000)
I0505 14:59:57.188520  7491 net.cpp:159] Memory required for data: 4680080
I0505 14:59:57.188531  7491 layer_factory.hpp:77] Creating layer relu1
I0505 14:59:57.188540  7491 net.cpp:94] Creating Layer relu1
I0505 14:59:57.188544  7491 net.cpp:435] relu1 <- conv1
I0505 14:59:57.188561  7491 net.cpp:396] relu1 -> conv1 (in-place)
I0505 14:59:57.188571  7491 net.cpp:144] Setting up relu1
I0505 14:59:57.188576  7491 net.cpp:151] Top shape: 20 64 30 30 (1152000)
I0505 14:59:57.188580  7491 net.cpp:159] Memory required for data: 9288080
I0505 14:59:57.188582  7491 layer_factory.hpp:77] Creating layer pool1
I0505 14:59:57.188590  7491 net.cpp:94] Creating Layer pool1
I0505 14:59:57.188592  7491 net.cpp:435] pool1 <- conv1
I0505 14:59:57.188597  7491 net.cpp:409] pool1 -> pool1
I0505 14:59:57.188653  7491 net.cpp:144] Setting up pool1
I0505 14:59:57.188660  7491 net.cpp:151] Top shape: 20 64 15 15 (288000)
I0505 14:59:57.188664  7491 net.cpp:159] Memory required for data: 10440080
I0505 14:59:57.188668  7491 layer_factory.hpp:77] Creating layer conv2
I0505 14:59:57.188678  7491 net.cpp:94] Creating Layer conv2
I0505 14:59:57.188681  7491 net.cpp:435] conv2 <- pool1
I0505 14:59:57.188686  7491 net.cpp:409] conv2 -> conv2
I0505 14:59:57.203054  7491 net.cpp:144] Setting up conv2
I0505 14:59:57.203094  7491 net.cpp:151] Top shape: 20 128 15 15 (576000)
I0505 14:59:57.203105  7491 net.cpp:159] Memory required for data: 12744080
I0505 14:59:57.203128  7491 layer_factory.hpp:77] Creating layer relu2
I0505 14:59:57.203145  7491 net.cpp:94] Creating Layer relu2
I0505 14:59:57.203156  7491 net.cpp:435] relu2 <- conv2
I0505 14:59:57.203169  7491 net.cpp:396] relu2 -> conv2 (in-place)
I0505 14:59:57.203189  7491 net.cpp:144] Setting up relu2
I0505 14:59:57.203202  7491 net.cpp:151] Top shape: 20 128 15 15 (576000)
I0505 14:59:57.203212  7491 net.cpp:159] Memory required for data: 15048080
I0505 14:59:57.203220  7491 layer_factory.hpp:77] Creating layer conv3
I0505 14:59:57.203241  7491 net.cpp:94] Creating Layer conv3
I0505 14:59:57.203253  7491 net.cpp:435] conv3 <- conv2
I0505 14:59:57.203266  7491 net.cpp:409] conv3 -> conv3
I0505 14:59:57.226697  7491 net.cpp:144] Setting up conv3
I0505 14:59:57.226738  7491 net.cpp:151] Top shape: 20 128 15 15 (576000)
I0505 14:59:57.226749  7491 net.cpp:159] Memory required for data: 17352080
I0505 14:59:57.226773  7491 layer_factory.hpp:77] Creating layer relu3
I0505 14:59:57.226802  7491 net.cpp:94] Creating Layer relu3
I0505 14:59:57.226814  7491 net.cpp:435] relu3 <- conv3
I0505 14:59:57.226838  7491 net.cpp:396] relu3 -> conv3 (in-place)
I0505 14:59:57.226845  7491 net.cpp:144] Setting up relu3
I0505 14:59:57.226850  7491 net.cpp:151] Top shape: 20 128 15 15 (576000)
I0505 14:59:57.226853  7491 net.cpp:159] Memory required for data: 19656080
I0505 14:59:57.226856  7491 layer_factory.hpp:77] Creating layer pool3
I0505 14:59:57.226862  7491 net.cpp:94] Creating Layer pool3
I0505 14:59:57.226866  7491 net.cpp:435] pool3 <- conv3
I0505 14:59:57.226871  7491 net.cpp:409] pool3 -> pool3
I0505 14:59:57.226914  7491 net.cpp:144] Setting up pool3
I0505 14:59:57.226922  7491 net.cpp:151] Top shape: 20 128 7 7 (125440)
I0505 14:59:57.226924  7491 net.cpp:159] Memory required for data: 20157840
I0505 14:59:57.226928  7491 layer_factory.hpp:77] Creating layer ip1
I0505 14:59:57.226944  7491 net.cpp:94] Creating Layer ip1
I0505 14:59:57.226948  7491 net.cpp:435] ip1 <- pool3
I0505 14:59:57.226953  7491 net.cpp:409] ip1 -> ip1
I0505 14:59:57.305584  7491 net.cpp:144] Setting up ip1
I0505 14:59:57.305618  7491 net.cpp:151] Top shape: 20 512 (10240)
I0505 14:59:57.305621  7491 net.cpp:159] Memory required for data: 20198800
I0505 14:59:57.305630  7491 layer_factory.hpp:77] Creating layer ip2
I0505 14:59:57.305641  7491 net.cpp:94] Creating Layer ip2
I0505 14:59:57.305645  7491 net.cpp:435] ip2 <- ip1
I0505 14:59:57.305651  7491 net.cpp:409] ip2 -> ip2
I0505 14:59:57.308820  7491 net.cpp:144] Setting up ip2
I0505 14:59:57.308832  7491 net.cpp:151] Top shape: 20 256 (5120)
I0505 14:59:57.308835  7491 net.cpp:159] Memory required for data: 20219280
I0505 14:59:57.308843  7491 layer_factory.hpp:77] Creating layer ip3
I0505 14:59:57.308850  7491 net.cpp:94] Creating Layer ip3
I0505 14:59:57.308853  7491 net.cpp:435] ip3 <- ip2
I0505 14:59:57.308858  7491 net.cpp:409] ip3 -> ip3
I0505 14:59:57.308962  7491 net.cpp:144] Setting up ip3
I0505 14:59:57.308969  7491 net.cpp:151] Top shape: 20 1 (20)
I0505 14:59:57.308972  7491 net.cpp:159] Memory required for data: 20219360
I0505 14:59:57.308977  7491 layer_factory.hpp:77] Creating layer loss
I0505 14:59:57.308991  7491 net.cpp:94] Creating Layer loss
I0505 14:59:57.308995  7491 net.cpp:435] loss <- ip3
I0505 14:59:57.308998  7491 net.cpp:435] loss <- label
I0505 14:59:57.309003  7491 net.cpp:409] loss -> loss
I0505 14:59:57.309053  7491 net.cpp:144] Setting up loss
…
I0505 14:59:57.792415  7491 net.cpp:323] The NetState phase (0) differed from the phase (1) specified by a rule in layer intercept
I0505 14:59:57.792428  7491 net.cpp:323] The NetState phase (0) differed from the phase (1) specified by a rule in layer accuracy
I0505 14:59:57.792505  7491 net.cpp:52] Initializing net from parameters: 
state {
  phase: TRAIN
}
layer {
  name: "parameters"
  type: "HDF5Data"
  top: "data"
  top: "label"
  include {
    phase: TRAIN
  }
  hdf5_data_param {
    source: "/home/purduethu/scratch/radon/d/deng106/CNNStatisticalModel/distributions/input/50_distributions_900_sample_size_train-distributions-path.txt"
    batch_size: 20
  }
}
layer {
  name: "conv1"
  type: "Convolution"
  bottom: "data"
  top: "conv1"
  param {
    lr_mult: 1
  }
  param {
    lr_mult: 2
  }
  convolution_param {
    num_output: 64
    pad: 2
    kernel_size: 5
    stride: 1
    weight_filler {
      type: "gaussian"
      std: 0.0001
    }
    bias_filler {
      type: "constant"
    }
  }
}
layer {
  name: "relu1"
  type: "ReLU"
  bottom: "conv1"
  top: "conv1"
}
layer {
  name: "pool1"
  type: "Pooling"
  bottom: "conv1"
  top: "pool1"
  pooling_param {
    pool: MAX
    kernel_size: 3
    stride: 2
  }
}
layer {
  name: "conv2"
  type: "Convolution"
  bottom: "pool1"
  top: "conv2"
  param {
    lr_mult: 1
  }
  param {
    lr_mult: 2
  }
  convolution_param {
    num_output: 128
    pad: 2
    kernel_size: 5
    stride: 1
    weight_filler {
      type: "gaussian"
      std: 0.01
    }
    bias_filler {
      type: "constant"
    }
  }
}
layer {
  name: "relu2"
  type: "ReLU"
  bottom: "conv2"
  top: "conv2"
}
layer {
  name: "conv3"
  type: "Convolution"
  bottom: "conv2"
  top: "conv3"
  param {
    lr_mult: 1
  }
  param {
    lr_mult: 2
  }
  convolution_param {
    num_output: 128
    pad: 2
    kernel_size: 5
    stride: 1
    weight_filler {
      type: "gaussian"
      std: 0.01
    }
    bias_filler {
      type: "constant"
    }
  }
}
layer {
  name: "relu3"
  type: "ReLU"
  bottom: "conv3"
  top: "conv3"
}
layer {
  name: "pool3"
  type: "Pooling"
  bottom: "conv3"
  top: "pool3"
  pooling_param {
    pool: AVE
    kernel_size: 3
    stride: 2
  }
}
layer {
  name: "ip1"
  type: "InnerProduct"
  bottom: "pool3"
  top: "ip1"
  param {
    lr_mult: 1
  }
  param {
    lr_mult: 2
  }
  inner_product_param {
    num_output: 512
    weight_filler {
      type: "gaussian"
      std: 0.1
    }
    bias_filler {
      type: "constant"
    }
  }
}
layer {
  name: "ip2"
  type: "InnerProduct"
  bottom: "ip1"
  top: "ip2"
  param {
    lr_mult: 1
  }
  param {
    lr_mult: 2
  }
  inner_product_param {
    num_output: 256
    weight_filler {
      type: "gaussian"
      std: 0.1
    }
    bias_filler {
      type: "constant"
    }
  }
}
layer {
  name: "ip3"
  type: "InnerProduct"
  bottom: "ip2"
  top: "ip3"
  param {
    lr_mult: 1
  }
  param {
    lr_mult: 2
  }
  inner_product_param {
    num_output: 50
    weight_filler {
      type: "gaussian"
      std: 0.1
    }
    bias_filler {
      type: "constant"
    }
  }
}
layer {
  name: "loss"
  type: "SoftmaxWithLoss"
  bottom: "ip3"
  bottom: "label"
  top: "loss"
}
I0505 14:59:57.792548  7491 layer_factory.hpp:77] Creating layer parameters
I0505 14:59:57.792575  7491 net.cpp:94] Creating Layer parameters
I0505 14:59:57.792579  7491 net.cpp:409] parameters -> data
I0505 14:59:57.792587  7491 net.cpp:409] parameters -> label
I0505 14:59:57.792593  7491 hdf5_data_layer.cpp:79] Loading list of HDF5 filenames from: /home/purduethu/scratch/radon/d/deng106/CNNStatisticalModel/distributions/input/50_distributions_900_sample_size_train-distributions-path.txt
I0505 14:59:57.792608  7491 hdf5_data_layer.cpp:93] Number of HDF5 files: 1
I0505 14:59:59.220301  7491 hdf5.cpp:35] Datatype class: H5T_INTEGER
I0505 14:59:59.223348  7491 net.cpp:144] Setting up parameters
I0505 14:59:59.223366  7491 net.cpp:151] Top shape: 20 1 30 30 (18000)
I0505 14:59:59.223371  7491 net.cpp:151] Top shape: 20 (20)
I0505 14:59:59.223373  7491 net.cpp:159] Memory required for data: 72080
I0505 14:59:59.223379  7491 layer_factory.hpp:77] Creating layer conv1
I0505 14:59:59.223395  7491 net.cpp:94] Creating Layer conv1
I0505 14:59:59.223400  7491 net.cpp:435] conv1 <- data
I0505 14:59:59.223407  7491 net.cpp:409] conv1 -> conv1
I0505 14:59:59.227025  7491 net.cpp:144] Setting up conv1
I0505 14:59:59.227041  7491 net.cpp:151] Top shape: 20 64 30 30 (1152000)
I0505 14:59:59.227044  7491 net.cpp:159] Memory required for data: 4680080
I0505 14:59:59.227054  7491 layer_factory.hpp:77] Creating layer relu1
I0505 14:59:59.227062  7491 net.cpp:94] Creating Layer relu1
I0505 14:59:59.227066  7491 net.cpp:435] relu1 <- conv1
I0505 14:59:59.227071  7491 net.cpp:396] relu1 -> conv1 (in-place)
I0505 14:59:59.227078  7491 net.cpp:144] Setting up relu1
I0505 14:59:59.227082  7491 net.cpp:151] Top shape: 20 64 30 30 (1152000)
I0505 14:59:59.227085  7491 net.cpp:159] Memory required for data: 9288080
I0505 14:59:59.227088  7491 layer_factory.hpp:77] Creating layer pool1
I0505 14:59:59.227094  7491 net.cpp:94] Creating Layer pool1
I0505 14:59:59.227103  7491 net.cpp:435] pool1 <- conv1
I0505 14:59:59.227108  7491 net.cpp:409] pool1 -> pool1
I0505 14:59:59.227165  7491 net.cpp:144] Setting up pool1
I0505 14:59:59.227172  7491 net.cpp:151] Top shape: 20 64 15 15 (288000)
I0505 14:59:59.227175  7491 net.cpp:159] Memory required for data: 10440080
I0505 14:59:59.227179  7491 layer_factory.hpp:77] Creating layer conv2
I0505 14:59:59.227187  7491 net.cpp:94] Creating Layer conv2
I0505 14:59:59.227191  7491 net.cpp:435] conv2 <- pool1
I0505 14:59:59.227196  7491 net.cpp:409] conv2 -> conv2
I0505 14:59:59.240989  7491 net.cpp:144] Setting up conv2
I0505 14:59:59.241004  7491 net.cpp:151] Top shape: 20 128 15 15 (576000)
I0505 14:59:59.241008  7491 net.cpp:159] Memory required for data: 12744080
I0505 14:59:59.241016  7491 layer_factory.hpp:77] Creating layer relu2
I0505 14:59:59.241022  7491 net.cpp:94] Creating Layer relu2
I0505 14:59:59.241026  7491 net.cpp:435] relu2 <- conv2
I0505 14:59:59.241031  7491 net.cpp:396] relu2 -> conv2 (in-place)
I0505 14:59:59.241039  7491 net.cpp:144] Setting up relu2
I0505 14:59:59.241042  7491 net.cpp:151] Top shape: 20 128 15 15 (576000)
I0505 14:59:59.241045  7491 net.cpp:159] Memory required for data: 15048080
I0505 14:59:59.241050  7491 layer_factory.hpp:77] Creating layer conv3
I0505 14:59:59.241056  7491 net.cpp:94] Creating Layer conv3
I0505 14:59:59.241060  7491 net.cpp:435] conv3 <- conv2
I0505 14:59:59.241065  7491 net.cpp:409] conv3 -> conv3
I0505 14:59:59.264216  7491 net.cpp:144] Setting up conv3
I0505 14:59:59.264233  7491 net.cpp:151] Top shape: 20 128 15 15 (576000)
I0505 14:59:59.264237  7491 net.cpp:159] Memory required for data: 17352080
I0505 14:59:59.264245  7491 layer_factory.hpp:77] Creating layer relu3
I0505 14:59:59.264252  7491 net.cpp:94] Creating Layer relu3
I0505 14:59:59.264256  7491 net.cpp:435] relu3 <- conv3
I0505 14:59:59.264261  7491 net.cpp:396] relu3 -> conv3 (in-place)
I0505 14:59:59.264267  7491 net.cpp:144] Setting up relu3
I0505 14:59:59.264272  7491 net.cpp:151] Top shape: 20 128 15 15 (576000)
I0505 14:59:59.264276  7491 net.cpp:159] Memory required for data: 19656080
I0505 14:59:59.264278  7491 layer_factory.hpp:77] Creating layer pool3
I0505 14:59:59.264284  7491 net.cpp:94] Creating Layer pool3
I0505 14:59:59.264287  7491 net.cpp:435] pool3 <- conv3
I0505 14:59:59.264292  7491 net.cpp:409] pool3 -> pool3
I0505 14:59:59.264335  7491 net.cpp:144] Setting up pool3
I0505 14:59:59.264343  7491 net.cpp:151] Top shape: 20 128 7 7 (125440)
I0505 14:59:59.264346  7491 net.cpp:159] Memory required for data: 20157840
I0505 14:59:59.264349  7491 layer_factory.hpp:77] Creating layer ip1
I0505 14:59:59.264356  7491 net.cpp:94] Creating Layer ip1
I0505 14:59:59.264359  7491 net.cpp:435] ip1 <- pool3
I0505 14:59:59.264364  7491 net.cpp:409] ip1 -> ip1
I0505 14:59:59.342121  7491 net.cpp:144] Setting up ip1
I0505 14:59:59.342152  7491 net.cpp:151] Top shape: 20 512 (10240)
I0505 14:59:59.342156  7491 net.cpp:159] Memory required for data: 20198800
I0505 14:59:59.342164  7491 layer_factory.hpp:77] Creating layer ip2
I0505 14:59:59.342175  7491 net.cpp:94] Creating Layer ip2
I0505 14:59:59.342180  7491 net.cpp:435] ip2 <- ip1
I0505 14:59:59.342186  7491 net.cpp:409] ip2 -> ip2
I0505 14:59:59.345360  7491 net.cpp:144] Setting up ip2
I0505 14:59:59.345368  7491 net.cpp:151] Top shape: 20 256 (5120)
I0505 14:59:59.345371  7491 net.cpp:159] Memory required for data: 20219280
I0505 14:59:59.345379  7491 layer_factory.hpp:77] Creating layer ip3
I0505 14:59:59.345386  7491 net.cpp:94] Creating Layer ip3
I0505 14:59:59.345388  7491 net.cpp:435] ip3 <- ip2
I0505 14:59:59.345393  7491 net.cpp:409] ip3 -> ip3
I0505 14:59:59.346746  7491 net.cpp:144] Setting up ip3
I0505 14:59:59.346760  7491 net.cpp:151] Top shape: 20 50 (1000)
I0505 14:59:59.346762  7491 net.cpp:159] Memory required for data: 20223280
I0505 14:59:59.346770  7491 layer_factory.hpp:77] Creating layer loss
I0505 14:59:59.346776  7491 net.cpp:94] Creating Layer loss
I0505 14:59:59.346778  7491 net.cpp:435] loss <- ip3
I0505 14:59:59.346783  7491 net.cpp:435] loss <- label
I0505 14:59:59.346793  7491 net.cpp:409] loss -> loss
I0505 14:59:59.346802  7491 layer_factory.hpp:77] Creating layer loss
…
I0505 14:59:59.347251  7491 solver.cpp:181] Creating test net (#0) specified by net file: ./protocol/dis_50_900_dimension.protocol_distribution
I0505 14:59:59.347275  7491 net.cpp:323] The NetState phase (1) differed from the phase (0) specified by a rule in layer parameters
I0505 14:59:59.347360  7491 net.cpp:52] Initializing net from parameters: 
state {
  phase: TEST
}
layer {
  name: "intercept"
  type: "HDF5Data"
  top: "data"
  top: "label"
  include {
    phase: TEST
  }
  hdf5_data_param {
    source: "/home/purduethu/scratch/radon/d/deng106/CNNStatisticalModel/distributions/input/50_distributions_900_sample_size_test-distributions-path.txt"
    batch_size: 20
  }
}
layer {
  name: "conv1"
  type: "Convolution"
  bottom: "data"
  top: "conv1"
  param {
    lr_mult: 1
  }
  param {
    lr_mult: 2
  }
  convolution_param {
    num_output: 64
    pad: 2
    kernel_size: 5
    stride: 1
    weight_filler {
      type: "gaussian"
      std: 0.0001
    }
    bias_filler {
      type: "constant"
    }
  }
}
layer {
  name: "relu1"
  type: "ReLU"
  bottom: "conv1"
  top: "conv1"
}
layer {
  name: "pool1"
  type: "Pooling"
  bottom: "conv1"
  top: "pool1"
  pooling_param {
    pool: MAX
    kernel_size: 3
    stride: 2
  }
}
layer {
  name: "conv2"
  type: "Convolution"
  bottom: "pool1"
  top: "conv2"
  param {
    lr_mult: 1
  }
  param {
    lr_mult: 2
  }
  convolution_param {
    num_output: 128
    pad: 2
    kernel_size: 5
    stride: 1
    weight_filler {
      type: "gaussian"
      std: 0.01
    }
    bias_filler {
      type: "constant"
    }
  }
}
layer {
  name: "relu2"
  type: "ReLU"
  bottom: "conv2"
  top: "conv2"
}
layer {
  name: "conv3"
  type: "Convolution"
  bottom: "conv2"
  top: "conv3"
  param {
    lr_mult: 1
  }
  param {
    lr_mult: 2
  }
  convolution_param {
    num_output: 128
    pad: 2
    kernel_size: 5
    stride: 1
    weight_filler {
      type: "gaussian"
      std: 0.01
    }
    bias_filler {
      type: "constant"
    }
  }
}
layer {
  name: "relu3"
  type: "ReLU"
  bottom: "conv3"
  top: "conv3"
}
layer {
  name: "pool3"
  type: "Pooling"
  bottom: "conv3"
  top: "pool3"
  pooling_param {
    pool: AVE
    kernel_size: 3
    stride: 2
  }
}
layer {
  name: "ip1"
  type: "InnerProduct"
  bottom: "pool3"
  top: "ip1"
  param {
    lr_mult: 1
  }
  param {
    lr_mult: 2
  }
  inner_product_param {
    num_output: 512
    weight_filler {
      type: "gaussian"
      std: 0.1
    }
    bias_filler {
      type: "constant"
    }
  }
}
layer {
  name: "ip2"
  type: "InnerProduct"
  bottom: "ip1"
  top: "ip2"
  param {
    lr_mult: 1
  }
  param {
    lr_mult: 2
  }
  inner_product_param {
    num_output: 256
    weight_filler {
      type: "gaussian"
      std: 0.1
    }
    bias_filler {
      type: "constant"
    }
  }
}
layer {
  name: "ip3"
  type: "InnerProduct"
  bottom: "ip2"
  top: "ip3"
  param {
    lr_mult: 1
  }
  param {
    lr_mult: 2
  }
  inner_product_param {
    num_output: 50
    weight_filler {
      type: "gaussian"
      std: 0.1
    }
    bias_filler {
      type: "constant"
    }
  }
}
layer {
  name: "accuracy"
  type: "Accuracy"
  bottom: "ip3"
  bottom: "label"
  top: "accuracy"
  include {
    phase: TEST
  }
}
layer {
  name: "loss"
  type: "SoftmaxWithLoss"
  bottom: "ip3"
  bottom: "label"
  top: "loss"
}
I0505 14:59:59.347419  7491 layer_factory.hpp:77] Creating layer intercept
I0505 14:59:59.347426  7491 net.cpp:94] Creating Layer intercept
I0505 14:59:59.347430  7491 net.cpp:409] intercept -> data
I0505 14:59:59.347437  7491 net.cpp:409] intercept -> label
I0505 14:59:59.347443  7491 hdf5_data_layer.cpp:79] Loading list of HDF5 filenames from: /home/purduethu/scratch/radon/d/deng106/CNNStatisticalModel/distributions/input/50_distributions_900_sample_size_test-distributions-path.txt
I0505 14:59:59.347463  7491 hdf5_data_layer.cpp:93] Number of HDF5 files: 1
I0505 14:59:59.699656  7491 net.cpp:144] Setting up intercept
I0505 14:59:59.699692  7491 net.cpp:151] Top shape: 20 1 30 30 (18000)
I0505 14:59:59.699697  7491 net.cpp:151] Top shape: 20 (20)
I0505 14:59:59.699700  7491 net.cpp:159] Memory required for data: 72080
I0505 14:59:59.699707  7491 layer_factory.hpp:77] Creating layer label_intercept_1_split
I0505 14:59:59.699726  7491 net.cpp:94] Creating Layer label_intercept_1_split
I0505 14:59:59.699731  7491 net.cpp:435] label_intercept_1_split <- label
I0505 14:59:59.699738  7491 net.cpp:409] label_intercept_1_split -> label_intercept_1_split_0
I0505 14:59:59.699745  7491 net.cpp:409] label_intercept_1_split -> label_intercept_1_split_1
I0505 14:59:59.699790  7491 net.cpp:144] Setting up label_intercept_1_split
I0505 14:59:59.699795  7491 net.cpp:151] Top shape: 20 (20)
I0505 14:59:59.699800  7491 net.cpp:151] Top shape: 20 (20)
I0505 14:59:59.699802  7491 net.cpp:159] Memory required for data: 72240
I0505 14:59:59.699805  7491 layer_factory.hpp:77] Creating layer conv1
I0505 14:59:59.699815  7491 net.cpp:94] Creating Layer conv1
I0505 14:59:59.699820  7491 net.cpp:435] conv1 <- data
I0505 14:59:59.699825  7491 net.cpp:409] conv1 -> conv1
I0505 14:59:59.701452  7491 net.cpp:144] Setting up conv1
I0505 14:59:59.701467  7491 net.cpp:151] Top shape: 20 64 30 30 (1152000)
I0505 14:59:59.701470  7491 net.cpp:159] Memory required for data: 4680240
I0505 14:59:59.701479  7491 layer_factory.hpp:77] Creating layer relu1
I0505 14:59:59.701486  7491 net.cpp:94] Creating Layer relu1
I0505 14:59:59.701490  7491 net.cpp:435] relu1 <- conv1
I0505 14:59:59.701494  7491 net.cpp:396] relu1 -> conv1 (in-place)
I0505 14:59:59.701501  7491 net.cpp:144] Setting up relu1
I0505 14:59:59.701506  7491 net.cpp:151] Top shape: 20 64 30 30 (1152000)
I0505 14:59:59.701509  7491 net.cpp:159] Memory required for data: 9288240
I0505 14:59:59.701512  7491 layer_factory.hpp:77] Creating layer pool1
I0505 14:59:59.701519  7491 net.cpp:94] Creating Layer pool1
I0505 14:59:59.701522  7491 net.cpp:435] pool1 <- conv1
I0505 14:59:59.701526  7491 net.cpp:409] pool1 -> pool1
I0505 14:59:59.701582  7491 net.cpp:144] Setting up pool1
I0505 14:59:59.701589  7491 net.cpp:151] Top shape: 20 64 15 15 (288000)
I0505 14:59:59.701592  7491 net.cpp:159] Memory required for data: 10440240
I0505 14:59:59.701596  7491 layer_factory.hpp:77] Creating layer conv2
I0505 14:59:59.701604  7491 net.cpp:94] Creating Layer conv2
I0505 14:59:59.701608  7491 net.cpp:435] conv2 <- pool1
I0505 14:59:59.701613  7491 net.cpp:409] conv2 -> conv2
I0505 14:59:59.710049  7491 net.cpp:144] Setting up conv2
I0505 14:59:59.710065  7491 net.cpp:151] Top shape: 20 128 15 15 (576000)
I0505 14:59:59.710069  7491 net.cpp:159] Memory required for data: 12744240
I0505 14:59:59.710084  7491 layer_factory.hpp:77] Creating layer relu2
I0505 14:59:59.710091  7491 net.cpp:94] Creating Layer relu2
I0505 14:59:59.710095  7491 net.cpp:435] relu2 <- conv2
I0505 14:59:59.710099  7491 net.cpp:396] relu2 -> conv2 (in-place)
I0505 14:59:59.710106  7491 net.cpp:144] Setting up relu2
I0505 14:59:59.710111  7491 net.cpp:151] Top shape: 20 128 15 15 (576000)
I0505 14:59:59.710114  7491 net.cpp:159] Memory required for data: 15048240
I0505 14:59:59.710117  7491 layer_factory.hpp:77] Creating layer conv3
I0505 14:59:59.710125  7491 net.cpp:94] Creating Layer conv3
I0505 14:59:59.710129  7491 net.cpp:435] conv3 <- conv2
I0505 14:59:59.710134  7491 net.cpp:409] conv3 -> conv3
I0505 14:59:59.725781  7491 net.cpp:144] Setting up conv3
I0505 14:59:59.725821  7491 net.cpp:151] Top shape: 20 128 15 15 (576000)
I0505 14:59:59.725831  7491 net.cpp:159] Memory required for data: 17352240
I0505 14:59:59.725853  7491 layer_factory.hpp:77] Creating layer relu3
I0505 14:59:59.725872  7491 net.cpp:94] Creating Layer relu3
I0505 14:59:59.725883  7491 net.cpp:435] relu3 <- conv3
I0505 14:59:59.725895  7491 net.cpp:396] relu3 -> conv3 (in-place)
I0505 14:59:59.725914  7491 net.cpp:144] Setting up relu3
I0505 14:59:59.725926  7491 net.cpp:151] Top shape: 20 128 15 15 (576000)
I0505 14:59:59.725935  7491 net.cpp:159] Memory required for data: 19656240
I0505 14:59:59.725944  7491 layer_factory.hpp:77] Creating layer pool3
I0505 14:59:59.725965  7491 net.cpp:94] Creating Layer pool3
I0505 14:59:59.725975  7491 net.cpp:435] pool3 <- conv3
I0505 14:59:59.725986  7491 net.cpp:409] pool3 -> pool3
I0505 14:59:59.726063  7491 net.cpp:144] Setting up pool3
I0505 14:59:59.726069  7491 net.cpp:151] Top shape: 20 128 7 7 (125440)
I0505 14:59:59.726073  7491 net.cpp:159] Memory required for data: 20158000
I0505 14:59:59.726075  7491 layer_factory.hpp:77] Creating layer ip1
I0505 14:59:59.726083  7491 net.cpp:94] Creating Layer ip1
I0505 14:59:59.726085  7491 net.cpp:435] ip1 <- pool3
I0505 14:59:59.726090  7491 net.cpp:409] ip1 -> ip1
I0505 14:59:59.803809  7491 net.cpp:144] Setting up ip1
I0505 14:59:59.803855  7491 net.cpp:151] Top shape: 20 512 (10240)
I0505 14:59:59.803859  7491 net.cpp:159] Memory required for data: 20198960
I0505 14:59:59.803867  7491 layer_factory.hpp:77] Creating layer ip2
I0505 14:59:59.803879  7491 net.cpp:94] Creating Layer ip2
I0505 14:59:59.803884  7491 net.cpp:435] ip2 <- ip1
I0505 14:59:59.803891  7491 net.cpp:409] ip2 -> ip2
I0505 14:59:59.807106  7491 net.cpp:144] Setting up ip2
I0505 14:59:59.807118  7491 net.cpp:151] Top shape: 20 256 (5120)
I0505 14:59:59.807121  7491 net.cpp:159] Memory required for data: 20219440
I0505 14:59:59.807130  7491 layer_factory.hpp:77] Creating layer ip3
I0505 14:59:59.807138  7491 net.cpp:94] Creating Layer ip3
I0505 14:59:59.807142  7491 net.cpp:435] ip3 <- ip2
I0505 14:59:59.807147  7491 net.cpp:409] ip3 -> ip3
I0505 14:59:59.807596  7491 net.cpp:144] Setting up ip3
I0505 14:59:59.807605  7491 net.cpp:151] Top shape: 20 50 (1000)
I0505 14:59:59.807607  7491 net.cpp:159] Memory required for data: 20223440
I0505 14:59:59.807612  7491 layer_factory.hpp:77] Creating layer ip3_ip3_0_split
I0505 14:59:59.807618  7491 net.cpp:94] Creating Layer ip3_ip3_0_split
I0505 14:59:59.807621  7491 net.cpp:435] ip3_ip3_0_split <- ip3
I0505 14:59:59.807626  7491 net.cpp:409] ip3_ip3_0_split -> ip3_ip3_0_split_0
I0505 14:59:59.807631  7491 net.cpp:409] ip3_ip3_0_split -> ip3_ip3_0_split_1
I0505 14:59:59.807677  7491 net.cpp:144] Setting up ip3_ip3_0_split
I0505 14:59:59.807682  7491 net.cpp:151] Top shape: 20 50 (1000)
I0505 14:59:59.807685  7491 net.cpp:151] Top shape: 20 50 (1000)
I0505 14:59:59.807688  7491 net.cpp:159] Memory required for data: 20231440
I0505 14:59:59.807692  7491 layer_factory.hpp:77] Creating layer accuracy
I0505 14:59:59.807696  7491 net.cpp:94] Creating Layer accuracy
I0505 14:59:59.807700  7491 net.cpp:435] accuracy <- ip3_ip3_0_split_0
I0505 14:59:59.807703  7491 net.cpp:435] accuracy <- label_intercept_1_split_0
I0505 14:59:59.807708  7491 net.cpp:409] accuracy -> accuracy
…
