…
I0505 08:39:50.808037  5342 net.cpp:323] The NetState phase (0) differed from the phase (1) specified by a rule in layer intercept
I0505 08:39:50.808051  5342 net.cpp:323] The NetState phase (0) differed from the phase (1) specified by a rule in layer accuracy
I0505 08:39:50.808135  5342 net.cpp:52] Initializing net from parameters: 
state {
  phase: TRAIN
}
layer {
  name: "parameters"
  type: "HDF5Data"
  top: "data"
  top: "label"
  include {
    phase: TRAIN
  }
  hdf5_data_param {
    source: "/home/purduethu/scratch/radon/d/deng106/CNNStatisticalModel/distributions/input/20_distributions_900_sample_size_train-distributions-path.txt"
    batch_size: 20
  }
}
layer {
  name: "conv1"
  type: "Convolution"
  bottom: "data"
  top: "conv1"
  param {
    lr_mult: 1
  }
  param {
    lr_mult: 2
  }
  convolution_param {
    num_output: 64
    pad: 2
    kernel_size: 5
    stride: 1
    weight_filler {
      type: "gaussian"
      std: 0.0001
    }
    bias_filler {
      type: "constant"
    }
  }
}
layer {
  name: "relu1"
  type: "ReLU"
  bottom: "conv1"
  top: "conv1"
}
layer {
  name: "pool1"
  type: "Pooling"
  bottom: "conv1"
  top: "pool1"
  pooling_param {
    pool: MAX
    kernel_size: 3
    stride: 2
  }
}
layer {
  name: "conv2"
  type: "Convolution"
  bottom: "pool1"
  top: "conv2"
  param {
    lr_mult: 1
  }
  param {
    lr_mult: 2
  }
  convolution_param {
    num_output: 128
    pad: 2
    kernel_size: 5
    stride: 1
    weight_filler {
      type: "gaussian"
      std: 0.01
    }
    bias_filler {
      type: "constant"
    }
  }
}
layer {
  name: "relu2"
  type: "ReLU"
  bottom: "conv2"
  top: "conv2"
}
layer {
  name: "conv3"
  type: "Convolution"
  bottom: "conv2"
  top: "conv3"
  param {
    lr_mult: 1
  }
  param {
    lr_mult: 2
  }
  convolution_param {
    num_output: 128
    pad: 2
    kernel_size: 5
    stride: 1
    weight_filler {
      type: "gaussian"
      std: 0.01
    }
    bias_filler {
      type: "constant"
    }
  }
}
layer {
  name: "relu3"
  type: "ReLU"
  bottom: "conv3"
  top: "conv3"
}
layer {
  name: "pool3"
  type: "Pooling"
  bottom: "conv3"
  top: "pool3"
  pooling_param {
    pool: AVE
    kernel_size: 3
    stride: 2
  }
}
layer {
  name: "ip1"
  type: "InnerProduct"
  bottom: "pool3"
  top: "ip1"
  param {
    lr_mult: 1
  }
  param {
    lr_mult: 2
  }
  inner_product_param {
    num_output: 512
    weight_filler {
      type: "gaussian"
      std: 0.1
    }
    bias_filler {
      type: "constant"
    }
  }
}
layer {
  name: "ip2"
  type: "InnerProduct"
  bottom: "ip1"
  top: "ip2"
  param {
    lr_mult: 1
  }
  param {
    lr_mult: 2
  }
  inner_product_param {
    num_output: 256
    weight_filler {
      type: "gaussian"
      std: 0.1
    }
    bias_filler {
      type: "constant"
    }
  }
}
layer {
  name: "ip3"
  type: "InnerProduct"
  bottom: "ip2"
  top: "ip3"
  param {
    lr_mult: 1
  }
  param {
    lr_mult: 2
  }
  inner_product_param {
    num_output: 50
    weight_filler {
      type: "gaussian"
      std: 0.1
    }
    bias_filler {
      type: "constant"
    }
  }
}
layer {
  name: "loss"
  type: "SoftmaxWithLoss"
  bottom: "ip3"
  bottom: "label"
  top: "loss"
}
I0505 08:39:50.808209  5342 layer_factory.hpp:77] Creating layer parameters
I0505 08:39:50.808224  5342 net.cpp:94] Creating Layer parameters
I0505 08:39:50.808238  5342 net.cpp:409] parameters -> data
I0505 08:39:50.808256  5342 net.cpp:409] parameters -> label
I0505 08:39:50.808267  5342 hdf5_data_layer.cpp:79] Loading list of HDF5 filenames from: /home/purduethu/scratch/radon/d/deng106/CNNStatisticalModel/distributions/input/20_distributions_900_sample_size_train-distributions-path.txt
I0505 08:39:50.808290  5342 hdf5_data_layer.cpp:93] Number of HDF5 files: 1
I0505 08:39:50.808779  5342 hdf5.cpp:32] Datatype class: H5T_FLOAT
I0505 08:39:51.389464  5342 hdf5.cpp:35] Datatype class: H5T_INTEGER
I0505 08:39:51.392819  5342 net.cpp:144] Setting up parameters
I0505 08:39:51.392841  5342 net.cpp:151] Top shape: 20 1 30 30 (18000)
I0505 08:39:51.392846  5342 net.cpp:151] Top shape: 20 (20)
I0505 08:39:51.392850  5342 net.cpp:159] Memory required for data: 72080
I0505 08:39:51.392858  5342 layer_factory.hpp:77] Creating layer conv1
I0505 08:39:51.392887  5342 net.cpp:94] Creating Layer conv1
I0505 08:39:51.392894  5342 net.cpp:435] conv1 <- data
I0505 08:39:51.392904  5342 net.cpp:409] conv1 -> conv1
I0505 08:39:51.398771  5342 net.cpp:144] Setting up conv1
I0505 08:39:51.398809  5342 net.cpp:151] Top shape: 20 64 30 30 (1152000)
I0505 08:39:51.398821  5342 net.cpp:159] Memory required for data: 4680080
I0505 08:39:51.398850  5342 layer_factory.hpp:77] Creating layer relu1
I0505 08:39:51.398870  5342 net.cpp:94] Creating Layer relu1
I0505 08:39:51.398882  5342 net.cpp:435] relu1 <- conv1
I0505 08:39:51.398895  5342 net.cpp:396] relu1 -> conv1 (in-place)
I0505 08:39:51.398931  5342 net.cpp:144] Setting up relu1
I0505 08:39:51.398946  5342 net.cpp:151] Top shape: 20 64 30 30 (1152000)
I0505 08:39:51.398955  5342 net.cpp:159] Memory required for data: 9288080
I0505 08:39:51.398964  5342 layer_factory.hpp:77] Creating layer pool1
I0505 08:39:51.398983  5342 net.cpp:94] Creating Layer pool1
I0505 08:39:51.398993  5342 net.cpp:435] pool1 <- conv1
I0505 08:39:51.399005  5342 net.cpp:409] pool1 -> pool1
I0505 08:39:51.399108  5342 net.cpp:144] Setting up pool1
I0505 08:39:51.399125  5342 net.cpp:151] Top shape: 20 64 15 15 (288000)
I0505 08:39:51.399134  5342 net.cpp:159] Memory required for data: 10440080
I0505 08:39:51.399144  5342 layer_factory.hpp:77] Creating layer conv2
I0505 08:39:51.399166  5342 net.cpp:94] Creating Layer conv2
I0505 08:39:51.399178  5342 net.cpp:435] conv2 <- pool1
I0505 08:39:51.399191  5342 net.cpp:409] conv2 -> conv2
I0505 08:39:51.412817  5342 net.cpp:144] Setting up conv2
I0505 08:39:51.412832  5342 net.cpp:151] Top shape: 20 128 15 15 (576000)
I0505 08:39:51.412837  5342 net.cpp:159] Memory required for data: 12744080
I0505 08:39:51.412845  5342 layer_factory.hpp:77] Creating layer relu2
I0505 08:39:51.412852  5342 net.cpp:94] Creating Layer relu2
I0505 08:39:51.412855  5342 net.cpp:435] relu2 <- conv2
I0505 08:39:51.412859  5342 net.cpp:396] relu2 -> conv2 (in-place)
I0505 08:39:51.412866  5342 net.cpp:144] Setting up relu2
I0505 08:39:51.412871  5342 net.cpp:151] Top shape: 20 128 15 15 (576000)
I0505 08:39:51.412874  5342 net.cpp:159] Memory required for data: 15048080
I0505 08:39:51.412878  5342 layer_factory.hpp:77] Creating layer conv3
I0505 08:39:51.412885  5342 net.cpp:94] Creating Layer conv3
I0505 08:39:51.412889  5342 net.cpp:435] conv3 <- conv2
I0505 08:39:51.412894  5342 net.cpp:409] conv3 -> conv3
I0505 08:39:51.434389  5342 net.cpp:144] Setting up conv3
I0505 08:39:51.434404  5342 net.cpp:151] Top shape: 20 128 15 15 (576000)
I0505 08:39:51.434408  5342 net.cpp:159] Memory required for data: 17352080
I0505 08:39:51.434423  5342 layer_factory.hpp:77] Creating layer relu3
I0505 08:39:51.434430  5342 net.cpp:94] Creating Layer relu3
I0505 08:39:51.434434  5342 net.cpp:435] relu3 <- conv3
I0505 08:39:51.434438  5342 net.cpp:396] relu3 -> conv3 (in-place)
I0505 08:39:51.434445  5342 net.cpp:144] Setting up relu3
I0505 08:39:51.434450  5342 net.cpp:151] Top shape: 20 128 15 15 (576000)
I0505 08:39:51.434453  5342 net.cpp:159] Memory required for data: 19656080
I0505 08:39:51.434456  5342 layer_factory.hpp:77] Creating layer pool3
I0505 08:39:51.434469  5342 net.cpp:94] Creating Layer pool3
I0505 08:39:51.434473  5342 net.cpp:435] pool3 <- conv3
I0505 08:39:51.434478  5342 net.cpp:409] pool3 -> pool3
I0505 08:39:51.434512  5342 net.cpp:144] Setting up pool3
I0505 08:39:51.434520  5342 net.cpp:151] Top shape: 20 128 7 7 (125440)
I0505 08:39:51.434523  5342 net.cpp:159] Memory required for data: 20157840
I0505 08:39:51.434526  5342 layer_factory.hpp:77] Creating layer ip1
I0505 08:39:51.434536  5342 net.cpp:94] Creating Layer ip1
I0505 08:39:51.434540  5342 net.cpp:435] ip1 <- pool3
I0505 08:39:51.434545  5342 net.cpp:409] ip1 -> ip1
I0505 08:39:51.511982  5342 net.cpp:144] Setting up ip1
I0505 08:39:51.512014  5342 net.cpp:151] Top shape: 20 512 (10240)
I0505 08:39:51.512018  5342 net.cpp:159] Memory required for data: 20198800
I0505 08:39:51.512027  5342 layer_factory.hpp:77] Creating layer ip2
I0505 08:39:51.512035  5342 net.cpp:94] Creating Layer ip2
I0505 08:39:51.512040  5342 net.cpp:435] ip2 <- ip1
I0505 08:39:51.512046  5342 net.cpp:409] ip2 -> ip2
I0505 08:39:51.515156  5342 net.cpp:144] Setting up ip2
I0505 08:39:51.515166  5342 net.cpp:151] Top shape: 20 256 (5120)
I0505 08:39:51.515169  5342 net.cpp:159] Memory required for data: 20219280
I0505 08:39:51.515177  5342 layer_factory.hpp:77] Creating layer ip3
I0505 08:39:51.515182  5342 net.cpp:94] Creating Layer ip3
I0505 08:39:51.515187  5342 net.cpp:435] ip3 <- ip2
I0505 08:39:51.515190  5342 net.cpp:409] ip3 -> ip3
I0505 08:39:51.516263  5342 net.cpp:144] Setting up ip3
I0505 08:39:51.516275  5342 net.cpp:151] Top shape: 20 50 (1000)
I0505 08:39:51.516278  5342 net.cpp:159] Memory required for data: 20223280
I0505 08:39:51.516284  5342 layer_factory.hpp:77] Creating layer loss
I0505 08:39:51.516290  5342 net.cpp:94] Creating Layer loss
I0505 08:39:51.516294  5342 net.cpp:435] loss <- ip3
I0505 08:39:51.516299  5342 net.cpp:435] loss <- label
I0505 08:39:51.516304  5342 net.cpp:409] loss -> loss
I0505 08:39:51.516315  5342 layer_factory.hpp:77] Creating layer loss
…
I0505 08:39:51.516759  5342 solver.cpp:181] Creating test net (#0) specified by net file: ./protocol/dis_20_900_dimension.protocol_distribution
I0505 08:39:51.516793  5342 net.cpp:323] The NetState phase (1) differed from the phase (0) specified by a rule in layer parameters
I0505 08:39:51.516886  5342 net.cpp:52] Initializing net from parameters: 
state {
  phase: TEST
}
layer {
  name: "intercept"
  type: "HDF5Data"
  top: "data"
  top: "label"
  include {
    phase: TEST
  }
  hdf5_data_param {
    source: "/home/purduethu/scratch/radon/d/deng106/CNNStatisticalModel/distributions/input/20_distributions_900_sample_size_test-distributions-path.txt"
    batch_size: 20
  }
}
layer {
  name: "conv1"
  type: "Convolution"
  bottom: "data"
  top: "conv1"
  param {
    lr_mult: 1
  }
  param {
    lr_mult: 2
  }
  convolution_param {
    num_output: 64
    pad: 2
    kernel_size: 5
    stride: 1
    weight_filler {
      type: "gaussian"
      std: 0.0001
    }
    bias_filler {
      type: "constant"
    }
  }
}
layer {
  name: "relu1"
  type: "ReLU"
  bottom: "conv1"
  top: "conv1"
}
layer {
  name: "pool1"
  type: "Pooling"
  bottom: "conv1"
  top: "pool1"
  pooling_param {
    pool: MAX
    kernel_size: 3
    stride: 2
  }
}
layer {
  name: "conv2"
  type: "Convolution"
  bottom: "pool1"
  top: "conv2"
  param {
    lr_mult: 1
  }
  param {
    lr_mult: 2
  }
  convolution_param {
    num_output: 128
    pad: 2
    kernel_size: 5
    stride: 1
    weight_filler {
      type: "gaussian"
      std: 0.01
    }
    bias_filler {
      type: "constant"
    }
  }
}
layer {
  name: "relu2"
  type: "ReLU"
  bottom: "conv2"
  top: "conv2"
}
layer {
  name: "conv3"
  type: "Convolution"
  bottom: "conv2"
  top: "conv3"
  param {
    lr_mult: 1
  }
  param {
    lr_mult: 2
  }
  convolution_param {
    num_output: 128
    pad: 2
    kernel_size: 5
    stride: 1
    weight_filler {
      type: "gaussian"
      std: 0.01
    }
    bias_filler {
      type: "constant"
    }
  }
}
layer {
  name: "relu3"
  type: "ReLU"
  bottom: "conv3"
  top: "conv3"
}
layer {
  name: "pool3"
  type: "Pooling"
  bottom: "conv3"
  top: "pool3"
  pooling_param {
    pool: AVE
    kernel_size: 3
    stride: 2
  }
}
layer {
  name: "ip1"
  type: "InnerProduct"
  bottom: "pool3"
  top: "ip1"
  param {
    lr_mult: 1
  }
  param {
    lr_mult: 2
  }
  inner_product_param {
    num_output: 512
    weight_filler {
      type: "gaussian"
      std: 0.1
    }
    bias_filler {
      type: "constant"
    }
  }
}
layer {
  name: "ip2"
  type: "InnerProduct"
  bottom: "ip1"
  top: "ip2"
  param {
    lr_mult: 1
  }
  param {
    lr_mult: 2
  }
  inner_product_param {
    num_output: 256
    weight_filler {
      type: "gaussian"
      std: 0.1
    }
    bias_filler {
      type: "constant"
    }
  }
}
layer {
  name: "ip3"
  type: "InnerProduct"
  bottom: "ip2"
  top: "ip3"
  param {
    lr_mult: 1
  }
  param {
    lr_mult: 2
  }
  inner_product_param {
    num_output: 50
    weight_filler {
      type: "gaussian"
      std: 0.1
    }
    bias_filler {
      type: "constant"
    }
  }
}
layer {
  name: "accuracy"
  type: "Accuracy"
  bottom: "ip3"
  bottom: "label"
  top: "accuracy"
  include {
    phase: TEST
  }
}
layer {
  name: "loss"
  type: "SoftmaxWithLoss"
  bottom: "ip3"
  bottom: "label"
  top: "loss"
}
I0505 08:39:51.516949  5342 layer_factory.hpp:77] Creating layer intercept
I0505 08:39:51.516957  5342 net.cpp:94] Creating Layer intercept
I0505 08:39:51.516962  5342 net.cpp:409] intercept -> data
I0505 08:39:51.516968  5342 net.cpp:409] intercept -> label
I0505 08:39:51.516974  5342 hdf5_data_layer.cpp:79] Loading list of HDF5 filenames from: /home/purduethu/scratch/radon/d/deng106/CNNStatisticalModel/distributions/input/20_distributions_900_sample_size_test-distributions-path.txt
I0505 08:39:51.516993  5342 hdf5_data_layer.cpp:93] Number of HDF5 files: 1
I0505 08:39:51.657435  5342 net.cpp:144] Setting up intercept
I0505 08:39:51.657464  5342 net.cpp:151] Top shape: 20 1 30 30 (18000)
I0505 08:39:51.657470  5342 net.cpp:151] Top shape: 20 (20)
I0505 08:39:51.657474  5342 net.cpp:159] Memory required for data: 72080
I0505 08:39:51.657480  5342 layer_factory.hpp:77] Creating layer label_intercept_1_split
I0505 08:39:51.657501  5342 net.cpp:94] Creating Layer label_intercept_1_split
I0505 08:39:51.657505  5342 net.cpp:435] label_intercept_1_split <- label
I0505 08:39:51.657511  5342 net.cpp:409] label_intercept_1_split -> label_intercept_1_split_0
I0505 08:39:51.657519  5342 net.cpp:409] label_intercept_1_split -> label_intercept_1_split_1
I0505 08:39:51.657546  5342 net.cpp:144] Setting up label_intercept_1_split
I0505 08:39:51.657552  5342 net.cpp:151] Top shape: 20 (20)
I0505 08:39:51.657555  5342 net.cpp:151] Top shape: 20 (20)
I0505 08:39:51.657565  5342 net.cpp:159] Memory required for data: 72240
I0505 08:39:51.657568  5342 layer_factory.hpp:77] Creating layer conv1
I0505 08:39:51.657580  5342 net.cpp:94] Creating Layer conv1
I0505 08:39:51.657583  5342 net.cpp:435] conv1 <- data
I0505 08:39:51.657588  5342 net.cpp:409] conv1 -> conv1
I0505 08:39:51.658784  5342 net.cpp:144] Setting up conv1
I0505 08:39:51.658797  5342 net.cpp:151] Top shape: 20 64 30 30 (1152000)
I0505 08:39:51.658802  5342 net.cpp:159] Memory required for data: 4680240
I0505 08:39:51.658812  5342 layer_factory.hpp:77] Creating layer relu1
I0505 08:39:51.658818  5342 net.cpp:94] Creating Layer relu1
I0505 08:39:51.658823  5342 net.cpp:435] relu1 <- conv1
I0505 08:39:51.658828  5342 net.cpp:396] relu1 -> conv1 (in-place)
I0505 08:39:51.658834  5342 net.cpp:144] Setting up relu1
I0505 08:39:51.658839  5342 net.cpp:151] Top shape: 20 64 30 30 (1152000)
I0505 08:39:51.658843  5342 net.cpp:159] Memory required for data: 9288240
I0505 08:39:51.658845  5342 layer_factory.hpp:77] Creating layer pool1
I0505 08:39:51.658852  5342 net.cpp:94] Creating Layer pool1
I0505 08:39:51.658855  5342 net.cpp:435] pool1 <- conv1
I0505 08:39:51.658860  5342 net.cpp:409] pool1 -> pool1
I0505 08:39:51.658893  5342 net.cpp:144] Setting up pool1
I0505 08:39:51.658900  5342 net.cpp:151] Top shape: 20 64 15 15 (288000)
I0505 08:39:51.658903  5342 net.cpp:159] Memory required for data: 10440240
I0505 08:39:51.658906  5342 layer_factory.hpp:77] Creating layer conv2
I0505 08:39:51.658915  5342 net.cpp:94] Creating Layer conv2
I0505 08:39:51.658917  5342 net.cpp:435] conv2 <- pool1
I0505 08:39:51.658923  5342 net.cpp:409] conv2 -> conv2
I0505 08:39:51.666676  5342 net.cpp:144] Setting up conv2
I0505 08:39:51.666690  5342 net.cpp:151] Top shape: 20 128 15 15 (576000)
I0505 08:39:51.666694  5342 net.cpp:159] Memory required for data: 12744240
I0505 08:39:51.666703  5342 layer_factory.hpp:77] Creating layer relu2
I0505 08:39:51.666709  5342 net.cpp:94] Creating Layer relu2
I0505 08:39:51.666713  5342 net.cpp:435] relu2 <- conv2
I0505 08:39:51.666718  5342 net.cpp:396] relu2 -> conv2 (in-place)
I0505 08:39:51.666725  5342 net.cpp:144] Setting up relu2
I0505 08:39:51.666729  5342 net.cpp:151] Top shape: 20 128 15 15 (576000)
I0505 08:39:51.666733  5342 net.cpp:159] Memory required for data: 15048240
I0505 08:39:51.666735  5342 layer_factory.hpp:77] Creating layer conv3
I0505 08:39:51.666743  5342 net.cpp:94] Creating Layer conv3
I0505 08:39:51.666748  5342 net.cpp:435] conv3 <- conv2
I0505 08:39:51.666752  5342 net.cpp:409] conv3 -> conv3
I0505 08:39:51.691715  5342 net.cpp:144] Setting up conv3
I0505 08:39:51.691730  5342 net.cpp:151] Top shape: 20 128 15 15 (576000)
I0505 08:39:51.691733  5342 net.cpp:159] Memory required for data: 17352240
I0505 08:39:51.691742  5342 layer_factory.hpp:77] Creating layer relu3
I0505 08:39:51.691750  5342 net.cpp:94] Creating Layer relu3
I0505 08:39:51.691753  5342 net.cpp:435] relu3 <- conv3
I0505 08:39:51.691757  5342 net.cpp:396] relu3 -> conv3 (in-place)
I0505 08:39:51.691766  5342 net.cpp:144] Setting up relu3
I0505 08:39:51.691771  5342 net.cpp:151] Top shape: 20 128 15 15 (576000)
I0505 08:39:51.691773  5342 net.cpp:159] Memory required for data: 19656240
I0505 08:39:51.691776  5342 layer_factory.hpp:77] Creating layer pool3
I0505 08:39:51.691782  5342 net.cpp:94] Creating Layer pool3
I0505 08:39:51.691786  5342 net.cpp:435] pool3 <- conv3
I0505 08:39:51.691789  5342 net.cpp:409] pool3 -> pool3
I0505 08:39:51.691817  5342 net.cpp:144] Setting up pool3
I0505 08:39:51.691828  5342 net.cpp:151] Top shape: 20 128 7 7 (125440)
I0505 08:39:51.691831  5342 net.cpp:159] Memory required for data: 20158000
I0505 08:39:51.691834  5342 layer_factory.hpp:77] Creating layer ip1
I0505 08:39:51.691841  5342 net.cpp:94] Creating Layer ip1
I0505 08:39:51.691845  5342 net.cpp:435] ip1 <- pool3
I0505 08:39:51.691850  5342 net.cpp:409] ip1 -> ip1
I0505 08:39:51.769129  5342 net.cpp:144] Setting up ip1
I0505 08:39:51.769162  5342 net.cpp:151] Top shape: 20 512 (10240)
I0505 08:39:51.769167  5342 net.cpp:159] Memory required for data: 20198960
I0505 08:39:51.769188  5342 layer_factory.hpp:77] Creating layer ip2
I0505 08:39:51.769199  5342 net.cpp:94] Creating Layer ip2
I0505 08:39:51.769204  5342 net.cpp:435] ip2 <- ip1
I0505 08:39:51.769209  5342 net.cpp:409] ip2 -> ip2
I0505 08:39:51.772402  5342 net.cpp:144] Setting up ip2
I0505 08:39:51.772409  5342 net.cpp:151] Top shape: 20 256 (5120)
I0505 08:39:51.772413  5342 net.cpp:159] Memory required for data: 20219440
I0505 08:39:51.772423  5342 layer_factory.hpp:77] Creating layer ip3
I0505 08:39:51.772428  5342 net.cpp:94] Creating Layer ip3
I0505 08:39:51.772433  5342 net.cpp:435] ip3 <- ip2
I0505 08:39:51.772438  5342 net.cpp:409] ip3 -> ip3
I0505 08:39:51.772819  5342 net.cpp:144] Setting up ip3
I0505 08:39:51.772826  5342 net.cpp:151] Top shape: 20 50 (1000)
I0505 08:39:51.772830  5342 net.cpp:159] Memory required for data: 20223440
I0505 08:39:51.772835  5342 layer_factory.hpp:77] Creating layer ip3_ip3_0_split
I0505 08:39:51.772841  5342 net.cpp:94] Creating Layer ip3_ip3_0_split
I0505 08:39:51.772845  5342 net.cpp:435] ip3_ip3_0_split <- ip3
I0505 08:39:51.772860  5342 net.cpp:409] ip3_ip3_0_split -> ip3_ip3_0_split_0
I0505 08:39:51.772866  5342 net.cpp:409] ip3_ip3_0_split -> ip3_ip3_0_split_1
I0505 08:39:51.772888  5342 net.cpp:144] Setting up ip3_ip3_0_split
I0505 08:39:51.772894  5342 net.cpp:151] Top shape: 20 50 (1000)
I0505 08:39:51.772897  5342 net.cpp:151] Top shape: 20 50 (1000)
I0505 08:39:51.772900  5342 net.cpp:159] Memory required for data: 20231440
I0505 08:39:51.772903  5342 layer_factory.hpp:77] Creating layer accuracy
I0505 08:39:51.772917  5342 net.cpp:94] Creating Layer accuracy
I0505 08:39:51.772922  5342 net.cpp:435] accuracy <- ip3_ip3_0_split_0
I0505 08:39:51.772925  5342 net.cpp:435] accuracy <- label_intercept_1_split_0
I0505 08:39:51.772929  5342 net.cpp:409] accuracy -> accuracy
…
