…
I0503 20:14:26.669567 22118 net.cpp:323] The NetState phase (0) differed from the phase (1) specified by a rule in layer intercept
I0503 20:14:26.669585 22118 net.cpp:323] The NetState phase (0) differed from the phase (1) specified by a rule in layer accuracy
I0503 20:14:26.669677 22118 net.cpp:52] Initializing net from parameters: 
state {
  phase: TRAIN
}
layer {
  name: "parameters"
  type: "HDF5Data"
  top: "data"
  top: "label"
  include {
    phase: TRAIN
  }
  hdf5_data_param {
    source: "/home/purduethu/scratch/radon/d/deng106/CNNStatisticalModel/distributions/input/5_distributions_400_sample_size_train-distributions-path.txt"
    batch_size: 20
  }
}
layer {
  name: "conv1"
  type: "Convolution"
  bottom: "data"
  top: "conv1"
  param {
    lr_mult: 1
  }
  param {
    lr_mult: 2
  }
  convolution_param {
    num_output: 64
    pad: 2
    kernel_size: 5
    stride: 1
    weight_filler {
      type: "gaussian"
      std: 0.0001
    }
    bias_filler {
      type: "constant"
    }
  }
}
layer {
  name: "relu1"
  type: "ReLU"
  bottom: "conv1"
  top: "conv1"
}
layer {
  name: "conv2"
  type: "Convolution"
  bottom: "conv1"
  top: "conv2"
  param {
    lr_mult: 1
  }
  param {
    lr_mult: 2
  }
  convolution_param {
    num_output: 64
    pad: 2
    kernel_size: 5
    stride: 1
    weight_filler {
      type: "gaussian"
      std: 0.01
    }
    bias_filler {
      type: "constant"
    }
  }
}
layer {
  name: "relu2"
  type: "ReLU"
  bottom: "conv2"
  top: "conv2"
}
layer {
  name: "pool2"
  type: "Pooling"
  bottom: "conv2"
  top: "pool2"
  pooling_param {
    pool: MAX
    kernel_size: 3
    stride: 2
  }
}
layer {
  name: "conv3"
  type: "Convolution"
  bottom: "pool2"
  top: "conv3"
  param {
    lr_mult: 1
  }
  param {
    lr_mult: 2
  }
  convolution_param {
    num_output: 128
    pad: 2
    kernel_size: 5
    stride: 1
    weight_filler {
      type: "gaussian"
      std: 0.01
    }
    bias_filler {
      type: "constant"
    }
  }
}
layer {
  name: "relu3"
  type: "ReLU"
  bottom: "conv3"
  top: "conv3"
}
layer {
  name: "conv4"
  type: "Convolution"
  bottom: "conv3"
  top: "conv4"
  param {
    lr_mult: 1
  }
  param {
    lr_mult: 2
  }
  convolution_param {
    num_output: 128
    pad: 2
    kernel_size: 5
    stride: 1
    weight_filler {
      type: "gaussian"
      std: 0.01
    }
    bias_filler {
      type: "constant"
    }
  }
}
layer {
  name: "relu4"
  type: "ReLU"
  bottom: "conv4"
  top: "conv4"
}
layer {
  name: "conv5"
  type: "Convolution"
  bottom: "conv4"
  top: "conv5"
  param {
    lr_mult: 1
  }
  param {
    lr_mult: 2
  }
  convolution_param {
    num_output: 128
    pad: 2
    kernel_size: 5
    stride: 1
    weight_filler {
      type: "gaussian"
      std: 0.01
    }
    bias_filler {
      type: "constant"
    }
  }
}
layer {
  name: "relu5"
  type: "ReLU"
  bottom: "conv5"
  top: "conv5"
}
layer {
  name: "pool5"
  type: "Pooling"
  bottom: "conv5"
  top: "pool5"
  pooling_param {
    pool: AVE
    kernel_size: 3
    stride: 2
  }
}
layer {
  name: "ip1"
  type: "InnerProduct"
  bottom: "pool5"
  top: "ip1"
  param {
    lr_mult: 1
  }
  param {
    lr_mult: 2
  }
  inner_product_param {
    num_output: 1024
    weight_filler {
      type: "gaussian"
      std: 0.1
    }
    bias_filler {
      type: "constant"
    }
  }
}
layer {
  name: "ip2"
  type: "InnerProduct"
  bottom: "ip1"
  top: "ip2"
  param {
    lr_mult: 1
  }
  param {
    lr_mult: 2
  }
  inner_product_param {
    num_output: 512
    weight_filler {
      type: "gaussian"
      std: 0.1
    }
    bias_filler {
      type: "constant"
    }
  }
}
layer {
  name: "ip3"
  type: "InnerProduct"
  bottom: "ip2"
  top: "ip3"
  param {
    lr_mult: 1
  }
  param {
    lr_mult: 2
  }
  inner_product_param {
    num_output: 50
    weight_filler {
      type: "gaussian"
      std: 0.1
    }
    bias_filler {
      type: "constant"
    }
  }
}
layer {
  name: "loss"
  type: "SoftmaxWithLoss"
  bottom: "ip3"
  bottom: "label"
  top: "loss"
}
I0503 20:14:26.669751 22118 layer_factory.hpp:77] Creating layer parameters
I0503 20:14:26.669766 22118 net.cpp:94] Creating Layer parameters
I0503 20:14:26.669771 22118 net.cpp:409] parameters -> data
I0503 20:14:26.669790 22118 net.cpp:409] parameters -> label
I0503 20:14:26.669801 22118 hdf5_data_layer.cpp:79] Loading list of HDF5 filenames from: /home/purduethu/scratch/radon/d/deng106/CNNStatisticalModel/distributions/input/5_distributions_400_sample_size_train-distributions-path.txt
I0503 20:14:26.669824 22118 hdf5_data_layer.cpp:93] Number of HDF5 files: 1
I0503 20:14:26.670392 22118 hdf5.cpp:32] Datatype class: H5T_FLOAT
I0503 20:14:26.732620 22118 hdf5.cpp:35] Datatype class: H5T_INTEGER
I0503 20:14:26.733772 22118 net.cpp:144] Setting up parameters
I0503 20:14:26.733789 22118 net.cpp:151] Top shape: 20 1 20 20 (8000)
I0503 20:14:26.733795 22118 net.cpp:151] Top shape: 20 (20)
I0503 20:14:26.733799 22118 net.cpp:159] Memory required for data: 32080
I0503 20:14:26.733808 22118 layer_factory.hpp:77] Creating layer conv1
I0503 20:14:26.733827 22118 net.cpp:94] Creating Layer conv1
I0503 20:14:26.733832 22118 net.cpp:435] conv1 <- data
I0503 20:14:26.733844 22118 net.cpp:409] conv1 -> conv1
I0503 20:14:26.738842 22118 net.cpp:144] Setting up conv1
I0503 20:14:26.738857 22118 net.cpp:151] Top shape: 20 64 20 20 (512000)
I0503 20:14:26.738862 22118 net.cpp:159] Memory required for data: 2080080
I0503 20:14:26.738873 22118 layer_factory.hpp:77] Creating layer relu1
I0503 20:14:26.738881 22118 net.cpp:94] Creating Layer relu1
I0503 20:14:26.738885 22118 net.cpp:435] relu1 <- conv1
I0503 20:14:26.738890 22118 net.cpp:396] relu1 -> conv1 (in-place)
I0503 20:14:26.738903 22118 net.cpp:144] Setting up relu1
I0503 20:14:26.738907 22118 net.cpp:151] Top shape: 20 64 20 20 (512000)
I0503 20:14:26.738911 22118 net.cpp:159] Memory required for data: 4128080
I0503 20:14:26.738914 22118 layer_factory.hpp:77] Creating layer conv2
I0503 20:14:26.738922 22118 net.cpp:94] Creating Layer conv2
I0503 20:14:26.738925 22118 net.cpp:435] conv2 <- conv1
I0503 20:14:26.738930 22118 net.cpp:409] conv2 -> conv2
I0503 20:14:26.750424 22118 net.cpp:144] Setting up conv2
I0503 20:14:26.750440 22118 net.cpp:151] Top shape: 20 64 20 20 (512000)
I0503 20:14:26.750444 22118 net.cpp:159] Memory required for data: 6176080
I0503 20:14:26.750453 22118 layer_factory.hpp:77] Creating layer relu2
I0503 20:14:26.750460 22118 net.cpp:94] Creating Layer relu2
I0503 20:14:26.750464 22118 net.cpp:435] relu2 <- conv2
I0503 20:14:26.750469 22118 net.cpp:396] relu2 -> conv2 (in-place)
I0503 20:14:26.750478 22118 net.cpp:144] Setting up relu2
I0503 20:14:26.750481 22118 net.cpp:151] Top shape: 20 64 20 20 (512000)
I0503 20:14:26.750485 22118 net.cpp:159] Memory required for data: 8224080
I0503 20:14:26.750488 22118 layer_factory.hpp:77] Creating layer pool2
I0503 20:14:26.750502 22118 net.cpp:94] Creating Layer pool2
I0503 20:14:26.750506 22118 net.cpp:435] pool2 <- conv2
I0503 20:14:26.750511 22118 net.cpp:409] pool2 -> pool2
I0503 20:14:26.750556 22118 net.cpp:144] Setting up pool2
I0503 20:14:26.750564 22118 net.cpp:151] Top shape: 20 64 10 10 (128000)
I0503 20:14:26.750568 22118 net.cpp:159] Memory required for data: 8736080
I0503 20:14:26.750571 22118 layer_factory.hpp:77] Creating layer conv3
I0503 20:14:26.750579 22118 net.cpp:94] Creating Layer conv3
I0503 20:14:26.750582 22118 net.cpp:435] conv3 <- pool2
I0503 20:14:26.750596 22118 net.cpp:409] conv3 -> conv3
I0503 20:14:26.761592 22118 net.cpp:144] Setting up conv3
I0503 20:14:26.761608 22118 net.cpp:151] Top shape: 20 128 10 10 (256000)
I0503 20:14:26.761613 22118 net.cpp:159] Memory required for data: 9760080
I0503 20:14:26.761621 22118 layer_factory.hpp:77] Creating layer relu3
I0503 20:14:26.761628 22118 net.cpp:94] Creating Layer relu3
I0503 20:14:26.761632 22118 net.cpp:435] relu3 <- conv3
I0503 20:14:26.761637 22118 net.cpp:396] relu3 -> conv3 (in-place)
I0503 20:14:26.761646 22118 net.cpp:144] Setting up relu3
I0503 20:14:26.761651 22118 net.cpp:151] Top shape: 20 128 10 10 (256000)
I0503 20:14:26.761653 22118 net.cpp:159] Memory required for data: 10784080
I0503 20:14:26.761656 22118 layer_factory.hpp:77] Creating layer conv4
I0503 20:14:26.761665 22118 net.cpp:94] Creating Layer conv4
I0503 20:14:26.761669 22118 net.cpp:435] conv4 <- conv3
I0503 20:14:26.761674 22118 net.cpp:409] conv4 -> conv4
I0503 20:14:26.786516 22118 net.cpp:144] Setting up conv4
I0503 20:14:26.786532 22118 net.cpp:151] Top shape: 20 128 10 10 (256000)
I0503 20:14:26.786536 22118 net.cpp:159] Memory required for data: 11808080
I0503 20:14:26.786543 22118 layer_factory.hpp:77] Creating layer relu4
I0503 20:14:26.786550 22118 net.cpp:94] Creating Layer relu4
I0503 20:14:26.786553 22118 net.cpp:435] relu4 <- conv4
I0503 20:14:26.786558 22118 net.cpp:396] relu4 -> conv4 (in-place)
I0503 20:14:26.786566 22118 net.cpp:144] Setting up relu4
I0503 20:14:26.786571 22118 net.cpp:151] Top shape: 20 128 10 10 (256000)
I0503 20:14:26.786574 22118 net.cpp:159] Memory required for data: 12832080
I0503 20:14:26.786577 22118 layer_factory.hpp:77] Creating layer conv5
I0503 20:14:26.786586 22118 net.cpp:94] Creating Layer conv5
I0503 20:14:26.786589 22118 net.cpp:435] conv5 <- conv4
I0503 20:14:26.786594 22118 net.cpp:409] conv5 -> conv5
I0503 20:14:26.808672 22118 net.cpp:144] Setting up conv5
I0503 20:14:26.808687 22118 net.cpp:151] Top shape: 20 128 10 10 (256000)
I0503 20:14:26.808692 22118 net.cpp:159] Memory required for data: 13856080
I0503 20:14:26.808701 22118 layer_factory.hpp:77] Creating layer relu5
I0503 20:14:26.808708 22118 net.cpp:94] Creating Layer relu5
I0503 20:14:26.808712 22118 net.cpp:435] relu5 <- conv5
I0503 20:14:26.808717 22118 net.cpp:396] relu5 -> conv5 (in-place)
I0503 20:14:26.808724 22118 net.cpp:144] Setting up relu5
I0503 20:14:26.808729 22118 net.cpp:151] Top shape: 20 128 10 10 (256000)
I0503 20:14:26.808732 22118 net.cpp:159] Memory required for data: 14880080
I0503 20:14:26.808735 22118 layer_factory.hpp:77] Creating layer pool5
I0503 20:14:26.808742 22118 net.cpp:94] Creating Layer pool5
I0503 20:14:26.808744 22118 net.cpp:435] pool5 <- conv5
I0503 20:14:26.808749 22118 net.cpp:409] pool5 -> pool5
I0503 20:14:26.808784 22118 net.cpp:144] Setting up pool5
I0503 20:14:26.808792 22118 net.cpp:151] Top shape: 20 128 5 5 (64000)
I0503 20:14:26.808795 22118 net.cpp:159] Memory required for data: 15136080
I0503 20:14:26.808799 22118 layer_factory.hpp:77] Creating layer ip1
I0503 20:14:26.808809 22118 net.cpp:94] Creating Layer ip1
I0503 20:14:26.808812 22118 net.cpp:435] ip1 <- pool5
I0503 20:14:26.808817 22118 net.cpp:409] ip1 -> ip1
I0503 20:14:26.891784 22118 net.cpp:144] Setting up ip1
I0503 20:14:26.891816 22118 net.cpp:151] Top shape: 20 1024 (20480)
I0503 20:14:26.891821 22118 net.cpp:159] Memory required for data: 15218000
I0503 20:14:26.891829 22118 layer_factory.hpp:77] Creating layer ip2
I0503 20:14:26.891845 22118 net.cpp:94] Creating Layer ip2
I0503 20:14:26.891850 22118 net.cpp:435] ip2 <- ip1
I0503 20:14:26.891857 22118 net.cpp:409] ip2 -> ip2
I0503 20:14:26.905407 22118 net.cpp:144] Setting up ip2
I0503 20:14:26.905422 22118 net.cpp:151] Top shape: 20 512 (10240)
I0503 20:14:26.905426 22118 net.cpp:159] Memory required for data: 15258960
I0503 20:14:26.905433 22118 layer_factory.hpp:77] Creating layer ip3
I0503 20:14:26.905441 22118 net.cpp:94] Creating Layer ip3
I0503 20:14:26.905445 22118 net.cpp:435] ip3 <- ip2
I0503 20:14:26.905452 22118 net.cpp:409] ip3 -> ip3
I0503 20:14:26.906170 22118 net.cpp:144] Setting up ip3
I0503 20:14:26.906178 22118 net.cpp:151] Top shape: 20 50 (1000)
I0503 20:14:26.906182 22118 net.cpp:159] Memory required for data: 15262960
I0503 20:14:26.906188 22118 layer_factory.hpp:77] Creating layer loss
I0503 20:14:26.906195 22118 net.cpp:94] Creating Layer loss
I0503 20:14:26.906199 22118 net.cpp:435] loss <- ip3
I0503 20:14:26.906203 22118 net.cpp:435] loss <- label
I0503 20:14:26.906209 22118 net.cpp:409] loss -> loss
I0503 20:14:26.906221 22118 layer_factory.hpp:77] Creating layer loss
…
I0503 20:14:26.906738 22118 solver.cpp:181] Creating test net (#0) specified by net file: ./protocol/dis_5_400_dimension.protocol_distribution
I0503 20:14:26.906766 22118 net.cpp:323] The NetState phase (1) differed from the phase (0) specified by a rule in layer parameters
I0503 20:14:26.906868 22118 net.cpp:52] Initializing net from parameters: 
state {
  phase: TEST
}
layer {
  name: "intercept"
  type: "HDF5Data"
  top: "data"
  top: "label"
  include {
    phase: TEST
  }
  hdf5_data_param {
    source: "/home/purduethu/scratch/radon/d/deng106/CNNStatisticalModel/distributions/input/5_distributions_400_sample_size_test-distributions-path.txt"
    batch_size: 20
  }
}
layer {
  name: "conv1"
  type: "Convolution"
  bottom: "data"
  top: "conv1"
  param {
    lr_mult: 1
  }
  param {
    lr_mult: 2
  }
  convolution_param {
    num_output: 64
    pad: 2
    kernel_size: 5
    stride: 1
    weight_filler {
      type: "gaussian"
      std: 0.0001
    }
    bias_filler {
      type: "constant"
    }
  }
}
layer {
  name: "relu1"
  type: "ReLU"
  bottom: "conv1"
  top: "conv1"
}
layer {
  name: "conv2"
  type: "Convolution"
  bottom: "conv1"
  top: "conv2"
  param {
    lr_mult: 1
  }
  param {
    lr_mult: 2
  }
  convolution_param {
    num_output: 64
    pad: 2
    kernel_size: 5
    stride: 1
    weight_filler {
      type: "gaussian"
      std: 0.01
    }
    bias_filler {
      type: "constant"
    }
  }
}
layer {
  name: "relu2"
  type: "ReLU"
  bottom: "conv2"
  top: "conv2"
}
layer {
  name: "pool2"
  type: "Pooling"
  bottom: "conv2"
  top: "pool2"
  pooling_param {
    pool: MAX
    kernel_size: 3
    stride: 2
  }
}
layer {
  name: "conv3"
  type: "Convolution"
  bottom: "pool2"
  top: "conv3"
  param {
    lr_mult: 1
  }
  param {
    lr_mult: 2
  }
  convolution_param {
    num_output: 128
    pad: 2
    kernel_size: 5
    stride: 1
    weight_filler {
      type: "gaussian"
      std: 0.01
    }
    bias_filler {
      type: "constant"
    }
  }
}
layer {
  name: "relu3"
  type: "ReLU"
  bottom: "conv3"
  top: "conv3"
}
layer {
  name: "conv4"
  type: "Convolution"
  bottom: "conv3"
  top: "conv4"
  param {
    lr_mult: 1
  }
  param {
    lr_mult: 2
  }
  convolution_param {
    num_output: 128
    pad: 2
    kernel_size: 5
    stride: 1
    weight_filler {
      type: "gaussian"
      std: 0.01
    }
    bias_filler {
      type: "constant"
    }
  }
}
layer {
  name: "relu4"
  type: "ReLU"
  bottom: "conv4"
  top: "conv4"
}
layer {
  name: "conv5"
  type: "Convolution"
  bottom: "conv4"
  top: "conv5"
  param {
    lr_mult: 1
  }
  param {
    lr_mult: 2
  }
  convolution_param {
    num_output: 128
    pad: 2
    kernel_size: 5
    stride: 1
    weight_filler {
      type: "gaussian"
      std: 0.01
    }
    bias_filler {
      type: "constant"
    }
  }
}
layer {
  name: "relu5"
  type: "ReLU"
  bottom: "conv5"
  top: "conv5"
}
layer {
  name: "pool5"
  type: "Pooling"
  bottom: "conv5"
  top: "pool5"
  pooling_param {
    pool: AVE
    kernel_size: 3
    stride: 2
  }
}
layer {
  name: "ip1"
  type: "InnerProduct"
  bottom: "pool5"
  top: "ip1"
  param {
    lr_mult: 1
  }
  param {
    lr_mult: 2
  }
  inner_product_param {
    num_output: 1024
    weight_filler {
      type: "gaussian"
      std: 0.1
    }
    bias_filler {
      type: "constant"
    }
  }
}
layer {
  name: "ip2"
  type: "InnerProduct"
  bottom: "ip1"
  top: "ip2"
  param {
    lr_mult: 1
  }
  param {
    lr_mult: 2
  }
  inner_product_param {
    num_output: 512
    weight_filler {
      type: "gaussian"
      std: 0.1
    }
    bias_filler {
      type: "constant"
    }
  }
}
layer {
  name: "ip3"
  type: "InnerProduct"
  bottom: "ip2"
  top: "ip3"
  param {
    lr_mult: 1
  }
  param {
    lr_mult: 2
  }
  inner_product_param {
    num_output: 50
    weight_filler {
      type: "gaussian"
      std: 0.1
    }
    bias_filler {
      type: "constant"
    }
  }
}
layer {
  name: "accuracy"
  type: "Accuracy"
  bottom: "ip3"
  bottom: "label"
  top: "accuracy"
  include {
    phase: TEST
  }
}
layer {
  name: "loss"
  type: "SoftmaxWithLoss"
  bottom: "ip3"
  bottom: "label"
  top: "loss"
}
I0503 20:14:26.906942 22118 layer_factory.hpp:77] Creating layer intercept
I0503 20:14:26.906951 22118 net.cpp:94] Creating Layer intercept
I0503 20:14:26.906955 22118 net.cpp:409] intercept -> data
I0503 20:14:26.906962 22118 net.cpp:409] intercept -> label
I0503 20:14:26.906970 22118 hdf5_data_layer.cpp:79] Loading list of HDF5 filenames from: /home/purduethu/scratch/radon/d/deng106/CNNStatisticalModel/distributions/input/5_distributions_400_sample_size_test-distributions-path.txt
I0503 20:14:26.906990 22118 hdf5_data_layer.cpp:93] Number of HDF5 files: 1
I0503 20:14:26.923727 22118 net.cpp:144] Setting up intercept
I0503 20:14:26.923758 22118 net.cpp:151] Top shape: 20 1 20 20 (8000)
I0503 20:14:26.923763 22118 net.cpp:151] Top shape: 20 (20)
I0503 20:14:26.923766 22118 net.cpp:159] Memory required for data: 32080
I0503 20:14:26.923773 22118 layer_factory.hpp:77] Creating layer label_intercept_1_split
I0503 20:14:26.923789 22118 net.cpp:94] Creating Layer label_intercept_1_split
I0503 20:14:26.923794 22118 net.cpp:435] label_intercept_1_split <- label
I0503 20:14:26.923799 22118 net.cpp:409] label_intercept_1_split -> label_intercept_1_split_0
I0503 20:14:26.923809 22118 net.cpp:409] label_intercept_1_split -> label_intercept_1_split_1
I0503 20:14:26.923844 22118 net.cpp:144] Setting up label_intercept_1_split
I0503 20:14:26.923851 22118 net.cpp:151] Top shape: 20 (20)
I0503 20:14:26.923856 22118 net.cpp:151] Top shape: 20 (20)
I0503 20:14:26.923858 22118 net.cpp:159] Memory required for data: 32240
I0503 20:14:26.923861 22118 layer_factory.hpp:77] Creating layer conv1
I0503 20:14:26.923873 22118 net.cpp:94] Creating Layer conv1
I0503 20:14:26.923877 22118 net.cpp:435] conv1 <- data
I0503 20:14:26.923882 22118 net.cpp:409] conv1 -> conv1
I0503 20:14:26.924598 22118 net.cpp:144] Setting up conv1
I0503 20:14:26.924613 22118 net.cpp:151] Top shape: 20 64 20 20 (512000)
I0503 20:14:26.924618 22118 net.cpp:159] Memory required for data: 2080240
I0503 20:14:26.924633 22118 layer_factory.hpp:77] Creating layer relu1
I0503 20:14:26.924639 22118 net.cpp:94] Creating Layer relu1
I0503 20:14:26.924643 22118 net.cpp:435] relu1 <- conv1
I0503 20:14:26.924649 22118 net.cpp:396] relu1 -> conv1 (in-place)
I0503 20:14:26.924655 22118 net.cpp:144] Setting up relu1
I0503 20:14:26.924660 22118 net.cpp:151] Top shape: 20 64 20 20 (512000)
I0503 20:14:26.924664 22118 net.cpp:159] Memory required for data: 4128240
I0503 20:14:26.924666 22118 layer_factory.hpp:77] Creating layer conv2
I0503 20:14:26.924674 22118 net.cpp:94] Creating Layer conv2
I0503 20:14:26.924679 22118 net.cpp:435] conv2 <- conv1
I0503 20:14:26.924684 22118 net.cpp:409] conv2 -> conv2
I0503 20:14:26.929590 22118 net.cpp:144] Setting up conv2
I0503 20:14:26.929605 22118 net.cpp:151] Top shape: 20 64 20 20 (512000)
I0503 20:14:26.929610 22118 net.cpp:159] Memory required for data: 6176240
I0503 20:14:26.929617 22118 layer_factory.hpp:77] Creating layer relu2
I0503 20:14:26.929623 22118 net.cpp:94] Creating Layer relu2
I0503 20:14:26.929627 22118 net.cpp:435] relu2 <- conv2
I0503 20:14:26.929632 22118 net.cpp:396] relu2 -> conv2 (in-place)
I0503 20:14:26.929639 22118 net.cpp:144] Setting up relu2
I0503 20:14:26.929644 22118 net.cpp:151] Top shape: 20 64 20 20 (512000)
I0503 20:14:26.929647 22118 net.cpp:159] Memory required for data: 8224240
I0503 20:14:26.929651 22118 layer_factory.hpp:77] Creating layer pool2
I0503 20:14:26.929656 22118 net.cpp:94] Creating Layer pool2
I0503 20:14:26.929659 22118 net.cpp:435] pool2 <- conv2
I0503 20:14:26.929663 22118 net.cpp:409] pool2 -> pool2
I0503 20:14:26.929698 22118 net.cpp:144] Setting up pool2
I0503 20:14:26.929704 22118 net.cpp:151] Top shape: 20 64 10 10 (128000)
I0503 20:14:26.929708 22118 net.cpp:159] Memory required for data: 8736240
I0503 20:14:26.929710 22118 layer_factory.hpp:77] Creating layer conv3
I0503 20:14:26.929718 22118 net.cpp:94] Creating Layer conv3
I0503 20:14:26.929723 22118 net.cpp:435] conv3 <- pool2
I0503 20:14:26.929728 22118 net.cpp:409] conv3 -> conv3
I0503 20:14:26.936940 22118 net.cpp:144] Setting up conv3
I0503 20:14:26.936954 22118 net.cpp:151] Top shape: 20 128 10 10 (256000)
I0503 20:14:26.936959 22118 net.cpp:159] Memory required for data: 9760240
I0503 20:14:26.936967 22118 layer_factory.hpp:77] Creating layer relu3
I0503 20:14:26.936975 22118 net.cpp:94] Creating Layer relu3
I0503 20:14:26.936978 22118 net.cpp:435] relu3 <- conv3
I0503 20:14:26.936983 22118 net.cpp:396] relu3 -> conv3 (in-place)
I0503 20:14:26.936990 22118 net.cpp:144] Setting up relu3
I0503 20:14:26.936995 22118 net.cpp:151] Top shape: 20 128 10 10 (256000)
I0503 20:14:26.936998 22118 net.cpp:159] Memory required for data: 10784240
I0503 20:14:26.937001 22118 layer_factory.hpp:77] Creating layer conv4
I0503 20:14:26.937010 22118 net.cpp:94] Creating Layer conv4
I0503 20:14:26.937012 22118 net.cpp:435] conv4 <- conv3
I0503 20:14:26.937017 22118 net.cpp:409] conv4 -> conv4
I0503 20:14:26.950809 22118 net.cpp:144] Setting up conv4
I0503 20:14:26.950825 22118 net.cpp:151] Top shape: 20 128 10 10 (256000)
I0503 20:14:26.950829 22118 net.cpp:159] Memory required for data: 11808240
I0503 20:14:26.950835 22118 layer_factory.hpp:77] Creating layer relu4
I0503 20:14:26.950842 22118 net.cpp:94] Creating Layer relu4
I0503 20:14:26.950850 22118 net.cpp:435] relu4 <- conv4
I0503 20:14:26.950855 22118 net.cpp:396] relu4 -> conv4 (in-place)
I0503 20:14:26.950863 22118 net.cpp:144] Setting up relu4
I0503 20:14:26.950868 22118 net.cpp:151] Top shape: 20 128 10 10 (256000)
I0503 20:14:26.950871 22118 net.cpp:159] Memory required for data: 12832240
I0503 20:14:26.950875 22118 layer_factory.hpp:77] Creating layer conv5
I0503 20:14:26.950882 22118 net.cpp:94] Creating Layer conv5
I0503 20:14:26.950886 22118 net.cpp:435] conv5 <- conv4
I0503 20:14:26.950891 22118 net.cpp:409] conv5 -> conv5
I0503 20:14:26.964323 22118 net.cpp:144] Setting up conv5
I0503 20:14:26.964337 22118 net.cpp:151] Top shape: 20 128 10 10 (256000)
I0503 20:14:26.964341 22118 net.cpp:159] Memory required for data: 13856240
I0503 20:14:26.964350 22118 layer_factory.hpp:77] Creating layer relu5
I0503 20:14:26.964356 22118 net.cpp:94] Creating Layer relu5
I0503 20:14:26.964360 22118 net.cpp:435] relu5 <- conv5
I0503 20:14:26.964365 22118 net.cpp:396] relu5 -> conv5 (in-place)
I0503 20:14:26.964372 22118 net.cpp:144] Setting up relu5
I0503 20:14:26.964376 22118 net.cpp:151] Top shape: 20 128 10 10 (256000)
I0503 20:14:26.964380 22118 net.cpp:159] Memory required for data: 14880240
I0503 20:14:26.964383 22118 layer_factory.hpp:77] Creating layer pool5
I0503 20:14:26.964388 22118 net.cpp:94] Creating Layer pool5
I0503 20:14:26.964391 22118 net.cpp:435] pool5 <- conv5
I0503 20:14:26.964396 22118 net.cpp:409] pool5 -> pool5
I0503 20:14:26.964422 22118 net.cpp:144] Setting up pool5
I0503 20:14:26.964429 22118 net.cpp:151] Top shape: 20 128 5 5 (64000)
I0503 20:14:26.964432 22118 net.cpp:159] Memory required for data: 15136240
I0503 20:14:26.964435 22118 layer_factory.hpp:77] Creating layer ip1
I0503 20:14:26.964442 22118 net.cpp:94] Creating Layer ip1
I0503 20:14:26.964447 22118 net.cpp:435] ip1 <- pool5
I0503 20:14:26.964450 22118 net.cpp:409] ip1 -> ip1
I0503 20:14:27.047299 22118 net.cpp:144] Setting up ip1
I0503 20:14:27.047330 22118 net.cpp:151] Top shape: 20 1024 (20480)
I0503 20:14:27.047334 22118 net.cpp:159] Memory required for data: 15218160
I0503 20:14:27.047343 22118 layer_factory.hpp:77] Creating layer ip2
I0503 20:14:27.047353 22118 net.cpp:94] Creating Layer ip2
I0503 20:14:27.047356 22118 net.cpp:435] ip2 <- ip1
I0503 20:14:27.047363 22118 net.cpp:409] ip2 -> ip2
I0503 20:14:27.060906 22118 net.cpp:144] Setting up ip2
I0503 20:14:27.060920 22118 net.cpp:151] Top shape: 20 512 (10240)
I0503 20:14:27.060923 22118 net.cpp:159] Memory required for data: 15259120
I0503 20:14:27.060930 22118 layer_factory.hpp:77] Creating layer ip3
I0503 20:14:27.060940 22118 net.cpp:94] Creating Layer ip3
I0503 20:14:27.060943 22118 net.cpp:435] ip3 <- ip2
I0503 20:14:27.060948 22118 net.cpp:409] ip3 -> ip3
I0503 20:14:27.061661 22118 net.cpp:144] Setting up ip3
I0503 20:14:27.061668 22118 net.cpp:151] Top shape: 20 50 (1000)
I0503 20:14:27.061671 22118 net.cpp:159] Memory required for data: 15263120
I0503 20:14:27.061676 22118 layer_factory.hpp:77] Creating layer ip3_ip3_0_split
I0503 20:14:27.061682 22118 net.cpp:94] Creating Layer ip3_ip3_0_split
I0503 20:14:27.061686 22118 net.cpp:435] ip3_ip3_0_split <- ip3
I0503 20:14:27.061691 22118 net.cpp:409] ip3_ip3_0_split -> ip3_ip3_0_split_0
I0503 20:14:27.061697 22118 net.cpp:409] ip3_ip3_0_split -> ip3_ip3_0_split_1
I0503 20:14:27.061723 22118 net.cpp:144] Setting up ip3_ip3_0_split
I0503 20:14:27.061729 22118 net.cpp:151] Top shape: 20 50 (1000)
I0503 20:14:27.061733 22118 net.cpp:151] Top shape: 20 50 (1000)
I0503 20:14:27.061736 22118 net.cpp:159] Memory required for data: 15271120
I0503 20:14:27.061740 22118 layer_factory.hpp:77] Creating layer accuracy
I0503 20:14:27.061746 22118 net.cpp:94] Creating Layer accuracy
I0503 20:14:27.061750 22118 net.cpp:435] accuracy <- ip3_ip3_0_split_0
I0503 20:14:27.061754 22118 net.cpp:435] accuracy <- label_intercept_1_split_0
I0503 20:14:27.061759 22118 net.cpp:409] accuracy -> accuracy
…
