…
I0505 05:29:53.183632  3565 net.cpp:323] The NetState phase (0) differed from the phase (1) specified by a rule in layer intercept
I0505 05:29:53.183648  3565 net.cpp:323] The NetState phase (0) differed from the phase (1) specified by a rule in layer accuracy
I0505 05:29:53.183727  3565 net.cpp:52] Initializing net from parameters: 
state {
  phase: TRAIN
}
layer {
  name: "parameters"
  type: "HDF5Data"
  top: "data"
  top: "label"
  include {
    phase: TRAIN
  }
  hdf5_data_param {
    source: "/home/purduethu/scratch/radon/d/deng106/CNNStatisticalModel/distributions/input/20_distributions_400_sample_size_train-distributions-path.txt"
    batch_size: 20
  }
}
layer {
  name: "conv1"
  type: "Convolution"
  bottom: "data"
  top: "conv1"
  param {
    lr_mult: 1
  }
  param {
    lr_mult: 2
  }
  convolution_param {
    num_output: 64
    pad: 2
    kernel_size: 5
    stride: 1
    weight_filler {
      type: "gaussian"
      std: 0.0001
    }
    bias_filler {
      type: "constant"
    }
  }
}
layer {
  name: "relu1"
  type: "ReLU"
  bottom: "conv1"
  top: "conv1"
}
layer {
  name: "pool1"
  type: "Pooling"
  bottom: "conv1"
  top: "pool1"
  pooling_param {
    pool: MAX
    kernel_size: 3
    stride: 2
  }
}
layer {
  name: "conv2"
  type: "Convolution"
  bottom: "pool1"
  top: "conv2"
  param {
    lr_mult: 1
  }
  param {
    lr_mult: 2
  }
  convolution_param {
    num_output: 128
    pad: 2
    kernel_size: 5
    stride: 1
    weight_filler {
      type: "gaussian"
      std: 0.01
    }
    bias_filler {
      type: "constant"
    }
  }
}
layer {
  name: "relu2"
  type: "ReLU"
  bottom: "conv2"
  top: "conv2"
}
layer {
  name: "conv3"
  type: "Convolution"
  bottom: "conv2"
  top: "conv3"
  param {
    lr_mult: 1
  }
  param {
    lr_mult: 2
  }
  convolution_param {
    num_output: 128
    pad: 2
    kernel_size: 5
    stride: 1
    weight_filler {
      type: "gaussian"
      std: 0.01
    }
    bias_filler {
      type: "constant"
    }
  }
}
layer {
  name: "relu3"
  type: "ReLU"
  bottom: "conv3"
  top: "conv3"
}
layer {
  name: "pool3"
  type: "Pooling"
  bottom: "conv3"
  top: "pool3"
  pooling_param {
    pool: AVE
    kernel_size: 3
    stride: 2
  }
}
layer {
  name: "ip1"
  type: "InnerProduct"
  bottom: "pool3"
  top: "ip1"
  param {
    lr_mult: 1
  }
  param {
    lr_mult: 2
  }
  inner_product_param {
    num_output: 512
    weight_filler {
      type: "gaussian"
      std: 0.1
    }
    bias_filler {
      type: "constant"
    }
  }
}
layer {
  name: "ip2"
  type: "InnerProduct"
  bottom: "ip1"
  top: "ip2"
  param {
    lr_mult: 1
  }
  param {
    lr_mult: 2
  }
  inner_product_param {
    num_output: 256
    weight_filler {
      type: "gaussian"
      std: 0.1
    }
    bias_filler {
      type: "constant"
    }
  }
}
layer {
  name: "ip3"
  type: "InnerProduct"
  bottom: "ip2"
  top: "ip3"
  param {
    lr_mult: 1
  }
  param {
    lr_mult: 2
  }
  inner_product_param {
    num_output: 50
    weight_filler {
      type: "gaussian"
      std: 0.1
    }
    bias_filler {
      type: "constant"
    }
  }
}
layer {
  name: "loss"
  type: "SoftmaxWithLoss"
  bottom: "ip3"
  bottom: "label"
  top: "loss"
}
I0505 05:29:53.183791  3565 layer_factory.hpp:77] Creating layer parameters
I0505 05:29:53.183805  3565 net.cpp:94] Creating Layer parameters
I0505 05:29:53.183817  3565 net.cpp:409] parameters -> data
I0505 05:29:53.183836  3565 net.cpp:409] parameters -> label
I0505 05:29:53.183846  3565 hdf5_data_layer.cpp:79] Loading list of HDF5 filenames from: /home/purduethu/scratch/radon/d/deng106/CNNStatisticalModel/distributions/input/20_distributions_400_sample_size_train-distributions-path.txt
I0505 05:29:53.183868  3565 hdf5_data_layer.cpp:93] Number of HDF5 files: 1
I0505 05:29:53.184337  3565 hdf5.cpp:32] Datatype class: H5T_FLOAT
I0505 05:29:53.433589  3565 hdf5.cpp:35] Datatype class: H5T_INTEGER
I0505 05:29:53.435106  3565 net.cpp:144] Setting up parameters
I0505 05:29:53.435123  3565 net.cpp:151] Top shape: 20 1 20 20 (8000)
I0505 05:29:53.435129  3565 net.cpp:151] Top shape: 20 (20)
I0505 05:29:53.435132  3565 net.cpp:159] Memory required for data: 32080
I0505 05:29:53.435140  3565 layer_factory.hpp:77] Creating layer conv1
I0505 05:29:53.435163  3565 net.cpp:94] Creating Layer conv1
I0505 05:29:53.435169  3565 net.cpp:435] conv1 <- data
I0505 05:29:53.435180  3565 net.cpp:409] conv1 -> conv1
I0505 05:29:53.439852  3565 net.cpp:144] Setting up conv1
I0505 05:29:53.439867  3565 net.cpp:151] Top shape: 20 64 20 20 (512000)
I0505 05:29:53.439872  3565 net.cpp:159] Memory required for data: 2080080
I0505 05:29:53.439883  3565 layer_factory.hpp:77] Creating layer relu1
I0505 05:29:53.439891  3565 net.cpp:94] Creating Layer relu1
I0505 05:29:53.439895  3565 net.cpp:435] relu1 <- conv1
I0505 05:29:53.439900  3565 net.cpp:396] relu1 -> conv1 (in-place)
I0505 05:29:53.439918  3565 net.cpp:144] Setting up relu1
I0505 05:29:53.439924  3565 net.cpp:151] Top shape: 20 64 20 20 (512000)
I0505 05:29:53.439926  3565 net.cpp:159] Memory required for data: 4128080
I0505 05:29:53.439929  3565 layer_factory.hpp:77] Creating layer pool1
I0505 05:29:53.439936  3565 net.cpp:94] Creating Layer pool1
I0505 05:29:53.439940  3565 net.cpp:435] pool1 <- conv1
I0505 05:29:53.439944  3565 net.cpp:409] pool1 -> pool1
I0505 05:29:53.439985  3565 net.cpp:144] Setting up pool1
I0505 05:29:53.439992  3565 net.cpp:151] Top shape: 20 64 10 10 (128000)
I0505 05:29:53.439996  3565 net.cpp:159] Memory required for data: 4640080
I0505 05:29:53.439999  3565 layer_factory.hpp:77] Creating layer conv2
I0505 05:29:53.440007  3565 net.cpp:94] Creating Layer conv2
I0505 05:29:53.440011  3565 net.cpp:435] conv2 <- pool1
I0505 05:29:53.440016  3565 net.cpp:409] conv2 -> conv2
I0505 05:29:53.449920  3565 net.cpp:144] Setting up conv2
I0505 05:29:53.449941  3565 net.cpp:151] Top shape: 20 128 10 10 (256000)
I0505 05:29:53.449946  3565 net.cpp:159] Memory required for data: 5664080
I0505 05:29:53.449954  3565 layer_factory.hpp:77] Creating layer relu2
I0505 05:29:53.449960  3565 net.cpp:94] Creating Layer relu2
I0505 05:29:53.449965  3565 net.cpp:435] relu2 <- conv2
I0505 05:29:53.449968  3565 net.cpp:396] relu2 -> conv2 (in-place)
I0505 05:29:53.449976  3565 net.cpp:144] Setting up relu2
I0505 05:29:53.449980  3565 net.cpp:151] Top shape: 20 128 10 10 (256000)
I0505 05:29:53.449985  3565 net.cpp:159] Memory required for data: 6688080
I0505 05:29:53.449987  3565 layer_factory.hpp:77] Creating layer conv3
I0505 05:29:53.449995  3565 net.cpp:94] Creating Layer conv3
I0505 05:29:53.449998  3565 net.cpp:435] conv3 <- conv2
I0505 05:29:53.450003  3565 net.cpp:409] conv3 -> conv3
I0505 05:29:53.467504  3565 net.cpp:144] Setting up conv3
I0505 05:29:53.467519  3565 net.cpp:151] Top shape: 20 128 10 10 (256000)
I0505 05:29:53.467525  3565 net.cpp:159] Memory required for data: 7712080
I0505 05:29:53.467537  3565 layer_factory.hpp:77] Creating layer relu3
I0505 05:29:53.467545  3565 net.cpp:94] Creating Layer relu3
I0505 05:29:53.467548  3565 net.cpp:435] relu3 <- conv3
I0505 05:29:53.467553  3565 net.cpp:396] relu3 -> conv3 (in-place)
I0505 05:29:53.467561  3565 net.cpp:144] Setting up relu3
I0505 05:29:53.467566  3565 net.cpp:151] Top shape: 20 128 10 10 (256000)
I0505 05:29:53.467568  3565 net.cpp:159] Memory required for data: 8736080
I0505 05:29:53.467571  3565 layer_factory.hpp:77] Creating layer pool3
I0505 05:29:53.467578  3565 net.cpp:94] Creating Layer pool3
I0505 05:29:53.467588  3565 net.cpp:435] pool3 <- conv3
I0505 05:29:53.467593  3565 net.cpp:409] pool3 -> pool3
I0505 05:29:53.467629  3565 net.cpp:144] Setting up pool3
I0505 05:29:53.467636  3565 net.cpp:151] Top shape: 20 128 5 5 (64000)
I0505 05:29:53.467640  3565 net.cpp:159] Memory required for data: 8992080
I0505 05:29:53.467643  3565 layer_factory.hpp:77] Creating layer ip1
I0505 05:29:53.467653  3565 net.cpp:94] Creating Layer ip1
I0505 05:29:53.467656  3565 net.cpp:435] ip1 <- pool3
I0505 05:29:53.467661  3565 net.cpp:409] ip1 -> ip1
I0505 05:29:53.508163  3565 net.cpp:144] Setting up ip1
I0505 05:29:53.508178  3565 net.cpp:151] Top shape: 20 512 (10240)
I0505 05:29:53.508183  3565 net.cpp:159] Memory required for data: 9033040
I0505 05:29:53.508188  3565 layer_factory.hpp:77] Creating layer ip2
I0505 05:29:53.508195  3565 net.cpp:94] Creating Layer ip2
I0505 05:29:53.508199  3565 net.cpp:435] ip2 <- ip1
I0505 05:29:53.508204  3565 net.cpp:409] ip2 -> ip2
I0505 05:29:53.511400  3565 net.cpp:144] Setting up ip2
I0505 05:29:53.511409  3565 net.cpp:151] Top shape: 20 256 (5120)
I0505 05:29:53.511414  3565 net.cpp:159] Memory required for data: 9053520
I0505 05:29:53.511420  3565 layer_factory.hpp:77] Creating layer ip3
I0505 05:29:53.511426  3565 net.cpp:94] Creating Layer ip3
I0505 05:29:53.511430  3565 net.cpp:435] ip3 <- ip2
I0505 05:29:53.511435  3565 net.cpp:409] ip3 -> ip3
I0505 05:29:53.512428  3565 net.cpp:144] Setting up ip3
I0505 05:29:53.512440  3565 net.cpp:151] Top shape: 20 50 (1000)
I0505 05:29:53.512444  3565 net.cpp:159] Memory required for data: 9057520
I0505 05:29:53.512449  3565 layer_factory.hpp:77] Creating layer loss
I0505 05:29:53.512455  3565 net.cpp:94] Creating Layer loss
I0505 05:29:53.512459  3565 net.cpp:435] loss <- ip3
I0505 05:29:53.512464  3565 net.cpp:435] loss <- label
I0505 05:29:53.512470  3565 net.cpp:409] loss -> loss
I0505 05:29:53.512480  3565 layer_factory.hpp:77] Creating layer loss
…
I0505 05:29:53.512929  3565 solver.cpp:181] Creating test net (#0) specified by net file: ./protocol/dis_20_400_dimension.protocol_distribution
I0505 05:29:53.512953  3565 net.cpp:323] The NetState phase (1) differed from the phase (0) specified by a rule in layer parameters
I0505 05:29:53.513038  3565 net.cpp:52] Initializing net from parameters: 
state {
  phase: TEST
}
layer {
  name: "intercept"
  type: "HDF5Data"
  top: "data"
  top: "label"
  include {
    phase: TEST
  }
  hdf5_data_param {
    source: "/home/purduethu/scratch/radon/d/deng106/CNNStatisticalModel/distributions/input/20_distributions_400_sample_size_test-distributions-path.txt"
    batch_size: 20
  }
}
layer {
  name: "conv1"
  type: "Convolution"
  bottom: "data"
  top: "conv1"
  param {
    lr_mult: 1
  }
  param {
    lr_mult: 2
  }
  convolution_param {
    num_output: 64
    pad: 2
    kernel_size: 5
    stride: 1
    weight_filler {
      type: "gaussian"
      std: 0.0001
    }
    bias_filler {
      type: "constant"
    }
  }
}
layer {
  name: "relu1"
  type: "ReLU"
  bottom: "conv1"
  top: "conv1"
}
layer {
  name: "pool1"
  type: "Pooling"
  bottom: "conv1"
  top: "pool1"
  pooling_param {
    pool: MAX
    kernel_size: 3
    stride: 2
  }
}
layer {
  name: "conv2"
  type: "Convolution"
  bottom: "pool1"
  top: "conv2"
  param {
    lr_mult: 1
  }
  param {
    lr_mult: 2
  }
  convolution_param {
    num_output: 128
    pad: 2
    kernel_size: 5
    stride: 1
    weight_filler {
      type: "gaussian"
      std: 0.01
    }
    bias_filler {
      type: "constant"
    }
  }
}
layer {
  name: "relu2"
  type: "ReLU"
  bottom: "conv2"
  top: "conv2"
}
layer {
  name: "conv3"
  type: "Convolution"
  bottom: "conv2"
  top: "conv3"
  param {
    lr_mult: 1
  }
  param {
    lr_mult: 2
  }
  convolution_param {
    num_output: 128
    pad: 2
    kernel_size: 5
    stride: 1
    weight_filler {
      type: "gaussian"
      std: 0.01
    }
    bias_filler {
      type: "constant"
    }
  }
}
layer {
  name: "relu3"
  type: "ReLU"
  bottom: "conv3"
  top: "conv3"
}
layer {
  name: "pool3"
  type: "Pooling"
  bottom: "conv3"
  top: "pool3"
  pooling_param {
    pool: AVE
    kernel_size: 3
    stride: 2
  }
}
layer {
  name: "ip1"
  type: "InnerProduct"
  bottom: "pool3"
  top: "ip1"
  param {
    lr_mult: 1
  }
  param {
    lr_mult: 2
  }
  inner_product_param {
    num_output: 512
    weight_filler {
      type: "gaussian"
      std: 0.1
    }
    bias_filler {
      type: "constant"
    }
  }
}
layer {
  name: "ip2"
  type: "InnerProduct"
  bottom: "ip1"
  top: "ip2"
  param {
    lr_mult: 1
  }
  param {
    lr_mult: 2
  }
  inner_product_param {
    num_output: 256
    weight_filler {
      type: "gaussian"
      std: 0.1
    }
    bias_filler {
      type: "constant"
    }
  }
}
layer {
  name: "ip3"
  type: "InnerProduct"
  bottom: "ip2"
  top: "ip3"
  param {
    lr_mult: 1
  }
  param {
    lr_mult: 2
  }
  inner_product_param {
    num_output: 50
    weight_filler {
      type: "gaussian"
      std: 0.1
    }
    bias_filler {
      type: "constant"
    }
  }
}
layer {
  name: "accuracy"
  type: "Accuracy"
  bottom: "ip3"
  bottom: "label"
  top: "accuracy"
  include {
    phase: TEST
  }
}
layer {
  name: "loss"
  type: "SoftmaxWithLoss"
  bottom: "ip3"
  bottom: "label"
  top: "loss"
}
I0505 05:29:53.513101  3565 layer_factory.hpp:77] Creating layer intercept
I0505 05:29:53.513109  3565 net.cpp:94] Creating Layer intercept
I0505 05:29:53.513113  3565 net.cpp:409] intercept -> data
I0505 05:29:53.513120  3565 net.cpp:409] intercept -> label
I0505 05:29:53.513128  3565 hdf5_data_layer.cpp:79] Loading list of HDF5 filenames from: /home/purduethu/scratch/radon/d/deng106/CNNStatisticalModel/distributions/input/20_distributions_400_sample_size_test-distributions-path.txt
I0505 05:29:53.513146  3565 hdf5_data_layer.cpp:93] Number of HDF5 files: 1
I0505 05:29:53.576186  3565 net.cpp:144] Setting up intercept
I0505 05:29:53.576217  3565 net.cpp:151] Top shape: 20 1 20 20 (8000)
I0505 05:29:53.576222  3565 net.cpp:151] Top shape: 20 (20)
I0505 05:29:53.576226  3565 net.cpp:159] Memory required for data: 32080
I0505 05:29:53.576232  3565 layer_factory.hpp:77] Creating layer label_intercept_1_split
I0505 05:29:53.576253  3565 net.cpp:94] Creating Layer label_intercept_1_split
I0505 05:29:53.576259  3565 net.cpp:435] label_intercept_1_split <- label
I0505 05:29:53.576266  3565 net.cpp:409] label_intercept_1_split -> label_intercept_1_split_0
I0505 05:29:53.576274  3565 net.cpp:409] label_intercept_1_split -> label_intercept_1_split_1
I0505 05:29:53.576300  3565 net.cpp:144] Setting up label_intercept_1_split
I0505 05:29:53.576308  3565 net.cpp:151] Top shape: 20 (20)
I0505 05:29:53.576310  3565 net.cpp:151] Top shape: 20 (20)
I0505 05:29:53.576314  3565 net.cpp:159] Memory required for data: 32240
I0505 05:29:53.576324  3565 layer_factory.hpp:77] Creating layer conv1
I0505 05:29:53.576335  3565 net.cpp:94] Creating Layer conv1
I0505 05:29:53.576339  3565 net.cpp:435] conv1 <- data
I0505 05:29:53.576344  3565 net.cpp:409] conv1 -> conv1
I0505 05:29:53.577036  3565 net.cpp:144] Setting up conv1
I0505 05:29:53.577049  3565 net.cpp:151] Top shape: 20 64 20 20 (512000)
I0505 05:29:53.577054  3565 net.cpp:159] Memory required for data: 2080240
I0505 05:29:53.577064  3565 layer_factory.hpp:77] Creating layer relu1
I0505 05:29:53.577070  3565 net.cpp:94] Creating Layer relu1
I0505 05:29:53.577075  3565 net.cpp:435] relu1 <- conv1
I0505 05:29:53.577078  3565 net.cpp:396] relu1 -> conv1 (in-place)
I0505 05:29:53.577085  3565 net.cpp:144] Setting up relu1
I0505 05:29:53.577090  3565 net.cpp:151] Top shape: 20 64 20 20 (512000)
I0505 05:29:53.577093  3565 net.cpp:159] Memory required for data: 4128240
I0505 05:29:53.577096  3565 layer_factory.hpp:77] Creating layer pool1
I0505 05:29:53.577103  3565 net.cpp:94] Creating Layer pool1
I0505 05:29:53.577107  3565 net.cpp:435] pool1 <- conv1
I0505 05:29:53.577111  3565 net.cpp:409] pool1 -> pool1
I0505 05:29:53.577143  3565 net.cpp:144] Setting up pool1
I0505 05:29:53.577150  3565 net.cpp:151] Top shape: 20 64 10 10 (128000)
I0505 05:29:53.577153  3565 net.cpp:159] Memory required for data: 4640240
I0505 05:29:53.577157  3565 layer_factory.hpp:77] Creating layer conv2
I0505 05:29:53.577164  3565 net.cpp:94] Creating Layer conv2
I0505 05:29:53.577167  3565 net.cpp:435] conv2 <- pool1
I0505 05:29:53.577172  3565 net.cpp:409] conv2 -> conv2
I0505 05:29:53.584326  3565 net.cpp:144] Setting up conv2
I0505 05:29:53.584341  3565 net.cpp:151] Top shape: 20 128 10 10 (256000)
I0505 05:29:53.584344  3565 net.cpp:159] Memory required for data: 5664240
I0505 05:29:53.584353  3565 layer_factory.hpp:77] Creating layer relu2
I0505 05:29:53.584359  3565 net.cpp:94] Creating Layer relu2
I0505 05:29:53.584363  3565 net.cpp:435] relu2 <- conv2
I0505 05:29:53.584368  3565 net.cpp:396] relu2 -> conv2 (in-place)
I0505 05:29:53.584375  3565 net.cpp:144] Setting up relu2
I0505 05:29:53.584379  3565 net.cpp:151] Top shape: 20 128 10 10 (256000)
I0505 05:29:53.584383  3565 net.cpp:159] Memory required for data: 6688240
I0505 05:29:53.584385  3565 layer_factory.hpp:77] Creating layer conv3
I0505 05:29:53.584393  3565 net.cpp:94] Creating Layer conv3
I0505 05:29:53.584398  3565 net.cpp:435] conv3 <- conv2
I0505 05:29:53.584401  3565 net.cpp:409] conv3 -> conv3
I0505 05:29:53.597620  3565 net.cpp:144] Setting up conv3
I0505 05:29:53.597635  3565 net.cpp:151] Top shape: 20 128 10 10 (256000)
I0505 05:29:53.597638  3565 net.cpp:159] Memory required for data: 7712240
I0505 05:29:53.597647  3565 layer_factory.hpp:77] Creating layer relu3
I0505 05:29:53.597654  3565 net.cpp:94] Creating Layer relu3
I0505 05:29:53.597658  3565 net.cpp:435] relu3 <- conv3
I0505 05:29:53.597662  3565 net.cpp:396] relu3 -> conv3 (in-place)
I0505 05:29:53.597671  3565 net.cpp:144] Setting up relu3
I0505 05:29:53.597674  3565 net.cpp:151] Top shape: 20 128 10 10 (256000)
I0505 05:29:53.597677  3565 net.cpp:159] Memory required for data: 8736240
I0505 05:29:53.597681  3565 layer_factory.hpp:77] Creating layer pool3
I0505 05:29:53.597687  3565 net.cpp:94] Creating Layer pool3
I0505 05:29:53.597689  3565 net.cpp:435] pool3 <- conv3
I0505 05:29:53.597694  3565 net.cpp:409] pool3 -> pool3
I0505 05:29:53.597720  3565 net.cpp:144] Setting up pool3
I0505 05:29:53.597731  3565 net.cpp:151] Top shape: 20 128 5 5 (64000)
I0505 05:29:53.597735  3565 net.cpp:159] Memory required for data: 8992240
I0505 05:29:53.597738  3565 layer_factory.hpp:77] Creating layer ip1
I0505 05:29:53.597745  3565 net.cpp:94] Creating Layer ip1
I0505 05:29:53.597748  3565 net.cpp:435] ip1 <- pool3
I0505 05:29:53.597754  3565 net.cpp:409] ip1 -> ip1
I0505 05:29:53.637660  3565 net.cpp:144] Setting up ip1
I0505 05:29:53.637676  3565 net.cpp:151] Top shape: 20 512 (10240)
I0505 05:29:53.637681  3565 net.cpp:159] Memory required for data: 9033200
I0505 05:29:53.637693  3565 layer_factory.hpp:77] Creating layer ip2
I0505 05:29:53.637701  3565 net.cpp:94] Creating Layer ip2
I0505 05:29:53.637704  3565 net.cpp:435] ip2 <- ip1
I0505 05:29:53.637711  3565 net.cpp:409] ip2 -> ip2
I0505 05:29:53.640846  3565 net.cpp:144] Setting up ip2
I0505 05:29:53.640854  3565 net.cpp:151] Top shape: 20 256 (5120)
I0505 05:29:53.640857  3565 net.cpp:159] Memory required for data: 9053680
I0505 05:29:53.640864  3565 layer_factory.hpp:77] Creating layer ip3
I0505 05:29:53.640871  3565 net.cpp:94] Creating Layer ip3
I0505 05:29:53.640874  3565 net.cpp:435] ip3 <- ip2
I0505 05:29:53.640879  3565 net.cpp:409] ip3 -> ip3
I0505 05:29:53.641252  3565 net.cpp:144] Setting up ip3
I0505 05:29:53.641258  3565 net.cpp:151] Top shape: 20 50 (1000)
I0505 05:29:53.641261  3565 net.cpp:159] Memory required for data: 9057680
I0505 05:29:53.641266  3565 layer_factory.hpp:77] Creating layer ip3_ip3_0_split
I0505 05:29:53.641271  3565 net.cpp:94] Creating Layer ip3_ip3_0_split
I0505 05:29:53.641275  3565 net.cpp:435] ip3_ip3_0_split <- ip3
I0505 05:29:53.641279  3565 net.cpp:409] ip3_ip3_0_split -> ip3_ip3_0_split_0
I0505 05:29:53.641285  3565 net.cpp:409] ip3_ip3_0_split -> ip3_ip3_0_split_1
I0505 05:29:53.641309  3565 net.cpp:144] Setting up ip3_ip3_0_split
I0505 05:29:53.641314  3565 net.cpp:151] Top shape: 20 50 (1000)
I0505 05:29:53.641317  3565 net.cpp:151] Top shape: 20 50 (1000)
I0505 05:29:53.641320  3565 net.cpp:159] Memory required for data: 9065680
I0505 05:29:53.641324  3565 layer_factory.hpp:77] Creating layer accuracy
I0505 05:29:53.641330  3565 net.cpp:94] Creating Layer accuracy
I0505 05:29:53.641332  3565 net.cpp:435] accuracy <- ip3_ip3_0_split_0
I0505 05:29:53.641336  3565 net.cpp:435] accuracy <- label_intercept_1_split_0
I0505 05:29:53.641341  3565 net.cpp:409] accuracy -> accuracy
…
