…
I0505 01:15:00.453752  1639 net.cpp:323] The NetState phase (0) differed from the phase (1) specified by a rule in layer intercept
I0505 01:15:00.453766  1639 net.cpp:323] The NetState phase (0) differed from the phase (1) specified by a rule in layer accuracy
I0505 01:15:00.453843  1639 net.cpp:52] Initializing net from parameters: 
state {
  phase: TRAIN
}
layer {
  name: "parameters"
  type: "HDF5Data"
  top: "data"
  top: "label"
  include {
    phase: TRAIN
  }
  hdf5_data_param {
    source: "/home/purduethu/scratch/radon/d/deng106/CNNStatisticalModel/distributions/input/50_distributions_400_sample_size_train-distributions-path.txt"
    batch_size: 20
  }
}
layer {
  name: "conv1"
  type: "Convolution"
  bottom: "data"
  top: "conv1"
  param {
    lr_mult: 1
  }
  param {
    lr_mult: 2
  }
  convolution_param {
    num_output: 64
    pad: 2
    kernel_size: 5
    stride: 1
    weight_filler {
      type: "gaussian"
      std: 0.0001
    }
    bias_filler {
      type: "constant"
    }
  }
}
layer {
  name: "relu1"
  type: "ReLU"
  bottom: "conv1"
  top: "conv1"
}
layer {
  name: "pool1"
  type: "Pooling"
  bottom: "conv1"
  top: "pool1"
  pooling_param {
    pool: MAX
    kernel_size: 3
    stride: 2
  }
}
layer {
  name: "conv2"
  type: "Convolution"
  bottom: "pool1"
  top: "conv2"
  param {
    lr_mult: 1
  }
  param {
    lr_mult: 2
  }
  convolution_param {
    num_output: 128
    pad: 2
    kernel_size: 5
    stride: 1
    weight_filler {
      type: "gaussian"
      std: 0.01
    }
    bias_filler {
      type: "constant"
    }
  }
}
layer {
  name: "relu2"
  type: "ReLU"
  bottom: "conv2"
  top: "conv2"
}
layer {
  name: "conv3"
  type: "Convolution"
  bottom: "conv2"
  top: "conv3"
  param {
    lr_mult: 1
  }
  param {
    lr_mult: 2
  }
  convolution_param {
    num_output: 128
    pad: 2
    kernel_size: 5
    stride: 1
    weight_filler {
      type: "gaussian"
      std: 0.01
    }
    bias_filler {
      type: "constant"
    }
  }
}
layer {
  name: "relu3"
  type: "ReLU"
  bottom: "conv3"
  top: "conv3"
}
layer {
  name: "pool3"
  type: "Pooling"
  bottom: "conv3"
  top: "pool3"
  pooling_param {
    pool: AVE
    kernel_size: 3
    stride: 2
  }
}
layer {
  name: "ip1"
  type: "InnerProduct"
  bottom: "pool3"
  top: "ip1"
  param {
    lr_mult: 1
  }
  param {
    lr_mult: 2
  }
  inner_product_param {
    num_output: 512
    weight_filler {
      type: "gaussian"
      std: 0.1
    }
    bias_filler {
      type: "constant"
    }
  }
}
layer {
  name: "ip2"
  type: "InnerProduct"
  bottom: "ip1"
  top: "ip2"
  param {
    lr_mult: 1
  }
  param {
    lr_mult: 2
  }
  inner_product_param {
    num_output: 256
    weight_filler {
      type: "gaussian"
      std: 0.1
    }
    bias_filler {
      type: "constant"
    }
  }
}
layer {
  name: "ip3"
  type: "InnerProduct"
  bottom: "ip2"
  top: "ip3"
  param {
    lr_mult: 1
  }
  param {
    lr_mult: 2
  }
  inner_product_param {
    num_output: 50
    weight_filler {
      type: "gaussian"
      std: 0.1
    }
    bias_filler {
      type: "constant"
    }
  }
}
layer {
  name: "loss"
  type: "SoftmaxWithLoss"
  bottom: "ip3"
  bottom: "label"
  top: "loss"
}
I0505 01:15:00.453905  1639 layer_factory.hpp:77] Creating layer parameters
I0505 01:15:00.453920  1639 net.cpp:94] Creating Layer parameters
I0505 01:15:00.453933  1639 net.cpp:409] parameters -> data
I0505 01:15:00.453953  1639 net.cpp:409] parameters -> label
I0505 01:15:00.453963  1639 hdf5_data_layer.cpp:79] Loading list of HDF5 filenames from: /home/purduethu/scratch/radon/d/deng106/CNNStatisticalModel/distributions/input/50_distributions_400_sample_size_train-distributions-path.txt
I0505 01:15:00.453985  1639 hdf5_data_layer.cpp:93] Number of HDF5 files: 1
I0505 01:15:00.454550  1639 hdf5.cpp:32] Datatype class: H5T_FLOAT
I0505 01:15:01.100558  1639 hdf5.cpp:35] Datatype class: H5T_INTEGER
I0505 01:15:01.103332  1639 net.cpp:144] Setting up parameters
I0505 01:15:01.103353  1639 net.cpp:151] Top shape: 20 1 20 20 (8000)
I0505 01:15:01.103358  1639 net.cpp:151] Top shape: 20 (20)
I0505 01:15:01.103363  1639 net.cpp:159] Memory required for data: 32080
I0505 01:15:01.103369  1639 layer_factory.hpp:77] Creating layer conv1
I0505 01:15:01.103394  1639 net.cpp:94] Creating Layer conv1
I0505 01:15:01.103400  1639 net.cpp:435] conv1 <- data
I0505 01:15:01.103411  1639 net.cpp:409] conv1 -> conv1
I0505 01:15:01.108050  1639 net.cpp:144] Setting up conv1
I0505 01:15:01.108072  1639 net.cpp:151] Top shape: 20 64 20 20 (512000)
I0505 01:15:01.108077  1639 net.cpp:159] Memory required for data: 2080080
I0505 01:15:01.108089  1639 layer_factory.hpp:77] Creating layer relu1
I0505 01:15:01.108098  1639 net.cpp:94] Creating Layer relu1
I0505 01:15:01.108101  1639 net.cpp:435] relu1 <- conv1
I0505 01:15:01.108106  1639 net.cpp:396] relu1 -> conv1 (in-place)
I0505 01:15:01.108122  1639 net.cpp:144] Setting up relu1
I0505 01:15:01.108129  1639 net.cpp:151] Top shape: 20 64 20 20 (512000)
I0505 01:15:01.108131  1639 net.cpp:159] Memory required for data: 4128080
I0505 01:15:01.108134  1639 layer_factory.hpp:77] Creating layer pool1
I0505 01:15:01.108141  1639 net.cpp:94] Creating Layer pool1
I0505 01:15:01.108144  1639 net.cpp:435] pool1 <- conv1
I0505 01:15:01.108150  1639 net.cpp:409] pool1 -> pool1
I0505 01:15:01.108189  1639 net.cpp:144] Setting up pool1
I0505 01:15:01.108196  1639 net.cpp:151] Top shape: 20 64 10 10 (128000)
I0505 01:15:01.108199  1639 net.cpp:159] Memory required for data: 4640080
I0505 01:15:01.108202  1639 layer_factory.hpp:77] Creating layer conv2
I0505 01:15:01.108211  1639 net.cpp:94] Creating Layer conv2
I0505 01:15:01.108216  1639 net.cpp:435] conv2 <- pool1
I0505 01:15:01.108222  1639 net.cpp:409] conv2 -> conv2
I0505 01:15:01.118227  1639 net.cpp:144] Setting up conv2
I0505 01:15:01.118252  1639 net.cpp:151] Top shape: 20 128 10 10 (256000)
I0505 01:15:01.118257  1639 net.cpp:159] Memory required for data: 5664080
I0505 01:15:01.118265  1639 layer_factory.hpp:77] Creating layer relu2
I0505 01:15:01.118273  1639 net.cpp:94] Creating Layer relu2
I0505 01:15:01.118278  1639 net.cpp:435] relu2 <- conv2
I0505 01:15:01.118283  1639 net.cpp:396] relu2 -> conv2 (in-place)
I0505 01:15:01.118290  1639 net.cpp:144] Setting up relu2
I0505 01:15:01.118295  1639 net.cpp:151] Top shape: 20 128 10 10 (256000)
I0505 01:15:01.118299  1639 net.cpp:159] Memory required for data: 6688080
I0505 01:15:01.118301  1639 layer_factory.hpp:77] Creating layer conv3
I0505 01:15:01.118310  1639 net.cpp:94] Creating Layer conv3
I0505 01:15:01.118314  1639 net.cpp:435] conv3 <- conv2
I0505 01:15:01.118319  1639 net.cpp:409] conv3 -> conv3
I0505 01:15:01.136020  1639 net.cpp:144] Setting up conv3
I0505 01:15:01.136051  1639 net.cpp:151] Top shape: 20 128 10 10 (256000)
I0505 01:15:01.136056  1639 net.cpp:159] Memory required for data: 7712080
I0505 01:15:01.136075  1639 layer_factory.hpp:77] Creating layer relu3
I0505 01:15:01.136085  1639 net.cpp:94] Creating Layer relu3
I0505 01:15:01.136090  1639 net.cpp:435] relu3 <- conv3
I0505 01:15:01.136096  1639 net.cpp:396] relu3 -> conv3 (in-place)
I0505 01:15:01.136106  1639 net.cpp:144] Setting up relu3
I0505 01:15:01.136111  1639 net.cpp:151] Top shape: 20 128 10 10 (256000)
I0505 01:15:01.136113  1639 net.cpp:159] Memory required for data: 8736080
I0505 01:15:01.136116  1639 layer_factory.hpp:77] Creating layer pool3
I0505 01:15:01.136123  1639 net.cpp:94] Creating Layer pool3
I0505 01:15:01.136137  1639 net.cpp:435] pool3 <- conv3
I0505 01:15:01.136142  1639 net.cpp:409] pool3 -> pool3
I0505 01:15:01.136189  1639 net.cpp:144] Setting up pool3
I0505 01:15:01.136196  1639 net.cpp:151] Top shape: 20 128 5 5 (64000)
I0505 01:15:01.136200  1639 net.cpp:159] Memory required for data: 8992080
I0505 01:15:01.136204  1639 layer_factory.hpp:77] Creating layer ip1
I0505 01:15:01.136214  1639 net.cpp:94] Creating Layer ip1
I0505 01:15:01.136217  1639 net.cpp:435] ip1 <- pool3
I0505 01:15:01.136222  1639 net.cpp:409] ip1 -> ip1
I0505 01:15:01.176892  1639 net.cpp:144] Setting up ip1
I0505 01:15:01.176928  1639 net.cpp:151] Top shape: 20 512 (10240)
I0505 01:15:01.176934  1639 net.cpp:159] Memory required for data: 9033040
I0505 01:15:01.176941  1639 layer_factory.hpp:77] Creating layer ip2
I0505 01:15:01.176951  1639 net.cpp:94] Creating Layer ip2
I0505 01:15:01.176956  1639 net.cpp:435] ip2 <- ip1
I0505 01:15:01.176964  1639 net.cpp:409] ip2 -> ip2
I0505 01:15:01.180153  1639 net.cpp:144] Setting up ip2
I0505 01:15:01.180161  1639 net.cpp:151] Top shape: 20 256 (5120)
I0505 01:15:01.180164  1639 net.cpp:159] Memory required for data: 9053520
I0505 01:15:01.180172  1639 layer_factory.hpp:77] Creating layer ip3
I0505 01:15:01.180178  1639 net.cpp:94] Creating Layer ip3
I0505 01:15:01.180182  1639 net.cpp:435] ip3 <- ip2
I0505 01:15:01.180187  1639 net.cpp:409] ip3 -> ip3
I0505 01:15:01.181330  1639 net.cpp:144] Setting up ip3
I0505 01:15:01.181344  1639 net.cpp:151] Top shape: 20 50 (1000)
I0505 01:15:01.181349  1639 net.cpp:159] Memory required for data: 9057520
I0505 01:15:01.181354  1639 layer_factory.hpp:77] Creating layer loss
I0505 01:15:01.181360  1639 net.cpp:94] Creating Layer loss
I0505 01:15:01.181365  1639 net.cpp:435] loss <- ip3
I0505 01:15:01.181368  1639 net.cpp:435] loss <- label
I0505 01:15:01.181375  1639 net.cpp:409] loss -> loss
I0505 01:15:01.181392  1639 layer_factory.hpp:77] Creating layer loss
…
I0505 01:15:01.181829  1639 solver.cpp:181] Creating test net (#0) specified by net file: ./protocol/dis_50_400_dimension.protocol_distribution
I0505 01:15:01.181854  1639 net.cpp:323] The NetState phase (1) differed from the phase (0) specified by a rule in layer parameters
I0505 01:15:01.181943  1639 net.cpp:52] Initializing net from parameters: 
state {
  phase: TEST
}
layer {
  name: "intercept"
  type: "HDF5Data"
  top: "data"
  top: "label"
  include {
    phase: TEST
  }
  hdf5_data_param {
    source: "/home/purduethu/scratch/radon/d/deng106/CNNStatisticalModel/distributions/input/50_distributions_400_sample_size_test-distributions-path.txt"
    batch_size: 20
  }
}
layer {
  name: "conv1"
  type: "Convolution"
  bottom: "data"
  top: "conv1"
  param {
    lr_mult: 1
  }
  param {
    lr_mult: 2
  }
  convolution_param {
    num_output: 64
    pad: 2
    kernel_size: 5
    stride: 1
    weight_filler {
      type: "gaussian"
      std: 0.0001
    }
    bias_filler {
      type: "constant"
    }
  }
}
layer {
  name: "relu1"
  type: "ReLU"
  bottom: "conv1"
  top: "conv1"
}
layer {
  name: "pool1"
  type: "Pooling"
  bottom: "conv1"
  top: "pool1"
  pooling_param {
    pool: MAX
    kernel_size: 3
    stride: 2
  }
}
layer {
  name: "conv2"
  type: "Convolution"
  bottom: "pool1"
  top: "conv2"
  param {
    lr_mult: 1
  }
  param {
    lr_mult: 2
  }
  convolution_param {
    num_output: 128
    pad: 2
    kernel_size: 5
    stride: 1
    weight_filler {
      type: "gaussian"
      std: 0.01
    }
    bias_filler {
      type: "constant"
    }
  }
}
layer {
  name: "relu2"
  type: "ReLU"
  bottom: "conv2"
  top: "conv2"
}
layer {
  name: "conv3"
  type: "Convolution"
  bottom: "conv2"
  top: "conv3"
  param {
    lr_mult: 1
  }
  param {
    lr_mult: 2
  }
  convolution_param {
    num_output: 128
    pad: 2
    kernel_size: 5
    stride: 1
    weight_filler {
      type: "gaussian"
      std: 0.01
    }
    bias_filler {
      type: "constant"
    }
  }
}
layer {
  name: "relu3"
  type: "ReLU"
  bottom: "conv3"
  top: "conv3"
}
layer {
  name: "pool3"
  type: "Pooling"
  bottom: "conv3"
  top: "pool3"
  pooling_param {
    pool: AVE
    kernel_size: 3
    stride: 2
  }
}
layer {
  name: "ip1"
  type: "InnerProduct"
  bottom: "pool3"
  top: "ip1"
  param {
    lr_mult: 1
  }
  param {
    lr_mult: 2
  }
  inner_product_param {
    num_output: 512
    weight_filler {
      type: "gaussian"
      std: 0.1
    }
    bias_filler {
      type: "constant"
    }
  }
}
layer {
  name: "ip2"
  type: "InnerProduct"
  bottom: "ip1"
  top: "ip2"
  param {
    lr_mult: 1
  }
  param {
    lr_mult: 2
  }
  inner_product_param {
    num_output: 256
    weight_filler {
      type: "gaussian"
      std: 0.1
    }
    bias_filler {
      type: "constant"
    }
  }
}
layer {
  name: "ip3"
  type: "InnerProduct"
  bottom: "ip2"
  top: "ip3"
  param {
    lr_mult: 1
  }
  param {
    lr_mult: 2
  }
  inner_product_param {
    num_output: 50
    weight_filler {
      type: "gaussian"
      std: 0.1
    }
    bias_filler {
      type: "constant"
    }
  }
}
layer {
  name: "accuracy"
  type: "Accuracy"
  bottom: "ip3"
  bottom: "label"
  top: "accuracy"
  include {
    phase: TEST
  }
}
layer {
  name: "loss"
  type: "SoftmaxWithLoss"
  bottom: "ip3"
  bottom: "label"
  top: "loss"
}
I0505 01:15:01.182008  1639 layer_factory.hpp:77] Creating layer intercept
I0505 01:15:01.182016  1639 net.cpp:94] Creating Layer intercept
I0505 01:15:01.182020  1639 net.cpp:409] intercept -> data
I0505 01:15:01.182027  1639 net.cpp:409] intercept -> label
I0505 01:15:01.182034  1639 hdf5_data_layer.cpp:79] Loading list of HDF5 filenames from: /home/purduethu/scratch/radon/d/deng106/CNNStatisticalModel/distributions/input/50_distributions_400_sample_size_test-distributions-path.txt
I0505 01:15:01.182054  1639 hdf5_data_layer.cpp:93] Number of HDF5 files: 1
I0505 01:15:01.348289  1639 net.cpp:144] Setting up intercept
I0505 01:15:01.348323  1639 net.cpp:151] Top shape: 20 1 20 20 (8000)
I0505 01:15:01.348330  1639 net.cpp:151] Top shape: 20 (20)
I0505 01:15:01.348333  1639 net.cpp:159] Memory required for data: 32080
I0505 01:15:01.348338  1639 layer_factory.hpp:77] Creating layer label_intercept_1_split
I0505 01:15:01.348367  1639 net.cpp:94] Creating Layer label_intercept_1_split
I0505 01:15:01.348373  1639 net.cpp:435] label_intercept_1_split <- label
I0505 01:15:01.348379  1639 net.cpp:409] label_intercept_1_split -> label_intercept_1_split_0
I0505 01:15:01.348388  1639 net.cpp:409] label_intercept_1_split -> label_intercept_1_split_1
I0505 01:15:01.348415  1639 net.cpp:144] Setting up label_intercept_1_split
I0505 01:15:01.348422  1639 net.cpp:151] Top shape: 20 (20)
I0505 01:15:01.348425  1639 net.cpp:151] Top shape: 20 (20)
I0505 01:15:01.348428  1639 net.cpp:159] Memory required for data: 32240
I0505 01:15:01.348439  1639 layer_factory.hpp:77] Creating layer conv1
I0505 01:15:01.348450  1639 net.cpp:94] Creating Layer conv1
I0505 01:15:01.348453  1639 net.cpp:435] conv1 <- data
I0505 01:15:01.348459  1639 net.cpp:409] conv1 -> conv1
I0505 01:15:01.349123  1639 net.cpp:144] Setting up conv1
I0505 01:15:01.349135  1639 net.cpp:151] Top shape: 20 64 20 20 (512000)
I0505 01:15:01.349139  1639 net.cpp:159] Memory required for data: 2080240
I0505 01:15:01.349148  1639 layer_factory.hpp:77] Creating layer relu1
I0505 01:15:01.349155  1639 net.cpp:94] Creating Layer relu1
I0505 01:15:01.349159  1639 net.cpp:435] relu1 <- conv1
I0505 01:15:01.349164  1639 net.cpp:396] relu1 -> conv1 (in-place)
I0505 01:15:01.349170  1639 net.cpp:144] Setting up relu1
I0505 01:15:01.349175  1639 net.cpp:151] Top shape: 20 64 20 20 (512000)
I0505 01:15:01.349179  1639 net.cpp:159] Memory required for data: 4128240
I0505 01:15:01.349181  1639 layer_factory.hpp:77] Creating layer pool1
I0505 01:15:01.349187  1639 net.cpp:94] Creating Layer pool1
I0505 01:15:01.349191  1639 net.cpp:435] pool1 <- conv1
I0505 01:15:01.349195  1639 net.cpp:409] pool1 -> pool1
I0505 01:15:01.349227  1639 net.cpp:144] Setting up pool1
I0505 01:15:01.349233  1639 net.cpp:151] Top shape: 20 64 10 10 (128000)
I0505 01:15:01.349236  1639 net.cpp:159] Memory required for data: 4640240
I0505 01:15:01.349239  1639 layer_factory.hpp:77] Creating layer conv2
I0505 01:15:01.349247  1639 net.cpp:94] Creating Layer conv2
I0505 01:15:01.349251  1639 net.cpp:435] conv2 <- pool1
I0505 01:15:01.349256  1639 net.cpp:409] conv2 -> conv2
I0505 01:15:01.356602  1639 net.cpp:144] Setting up conv2
I0505 01:15:01.356623  1639 net.cpp:151] Top shape: 20 128 10 10 (256000)
I0505 01:15:01.356627  1639 net.cpp:159] Memory required for data: 5664240
I0505 01:15:01.356637  1639 layer_factory.hpp:77] Creating layer relu2
I0505 01:15:01.356644  1639 net.cpp:94] Creating Layer relu2
I0505 01:15:01.356648  1639 net.cpp:435] relu2 <- conv2
I0505 01:15:01.356653  1639 net.cpp:396] relu2 -> conv2 (in-place)
I0505 01:15:01.356662  1639 net.cpp:144] Setting up relu2
I0505 01:15:01.356665  1639 net.cpp:151] Top shape: 20 128 10 10 (256000)
I0505 01:15:01.356668  1639 net.cpp:159] Memory required for data: 6688240
I0505 01:15:01.356673  1639 layer_factory.hpp:77] Creating layer conv3
I0505 01:15:01.356680  1639 net.cpp:94] Creating Layer conv3
I0505 01:15:01.356684  1639 net.cpp:435] conv3 <- conv2
I0505 01:15:01.356689  1639 net.cpp:409] conv3 -> conv3
I0505 01:15:01.370144  1639 net.cpp:144] Setting up conv3
I0505 01:15:01.370172  1639 net.cpp:151] Top shape: 20 128 10 10 (256000)
I0505 01:15:01.370177  1639 net.cpp:159] Memory required for data: 7712240
I0505 01:15:01.370187  1639 layer_factory.hpp:77] Creating layer relu3
I0505 01:15:01.370198  1639 net.cpp:94] Creating Layer relu3
I0505 01:15:01.370203  1639 net.cpp:435] relu3 <- conv3
I0505 01:15:01.370208  1639 net.cpp:396] relu3 -> conv3 (in-place)
I0505 01:15:01.370216  1639 net.cpp:144] Setting up relu3
I0505 01:15:01.370221  1639 net.cpp:151] Top shape: 20 128 10 10 (256000)
I0505 01:15:01.370224  1639 net.cpp:159] Memory required for data: 8736240
I0505 01:15:01.370227  1639 layer_factory.hpp:77] Creating layer pool3
I0505 01:15:01.370234  1639 net.cpp:94] Creating Layer pool3
I0505 01:15:01.370237  1639 net.cpp:435] pool3 <- conv3
I0505 01:15:01.370241  1639 net.cpp:409] pool3 -> pool3
I0505 01:15:01.370272  1639 net.cpp:144] Setting up pool3
I0505 01:15:01.370285  1639 net.cpp:151] Top shape: 20 128 5 5 (64000)
I0505 01:15:01.370290  1639 net.cpp:159] Memory required for data: 8992240
I0505 01:15:01.370292  1639 layer_factory.hpp:77] Creating layer ip1
I0505 01:15:01.370299  1639 net.cpp:94] Creating Layer ip1
I0505 01:15:01.370303  1639 net.cpp:435] ip1 <- pool3
I0505 01:15:01.370308  1639 net.cpp:409] ip1 -> ip1
I0505 01:15:01.410593  1639 net.cpp:144] Setting up ip1
I0505 01:15:01.410629  1639 net.cpp:151] Top shape: 20 512 (10240)
I0505 01:15:01.410634  1639 net.cpp:159] Memory required for data: 9033200
I0505 01:15:01.410656  1639 layer_factory.hpp:77] Creating layer ip2
I0505 01:15:01.410668  1639 net.cpp:94] Creating Layer ip2
I0505 01:15:01.410673  1639 net.cpp:435] ip2 <- ip1
I0505 01:15:01.410681  1639 net.cpp:409] ip2 -> ip2
I0505 01:15:01.413897  1639 net.cpp:144] Setting up ip2
I0505 01:15:01.413908  1639 net.cpp:151] Top shape: 20 256 (5120)
I0505 01:15:01.413910  1639 net.cpp:159] Memory required for data: 9053680
I0505 01:15:01.413919  1639 layer_factory.hpp:77] Creating layer ip3
I0505 01:15:01.413925  1639 net.cpp:94] Creating Layer ip3
I0505 01:15:01.413929  1639 net.cpp:435] ip3 <- ip2
I0505 01:15:01.413934  1639 net.cpp:409] ip3 -> ip3
I0505 01:15:01.414314  1639 net.cpp:144] Setting up ip3
I0505 01:15:01.414319  1639 net.cpp:151] Top shape: 20 50 (1000)
I0505 01:15:01.414324  1639 net.cpp:159] Memory required for data: 9057680
I0505 01:15:01.414328  1639 layer_factory.hpp:77] Creating layer ip3_ip3_0_split
I0505 01:15:01.414333  1639 net.cpp:94] Creating Layer ip3_ip3_0_split
I0505 01:15:01.414337  1639 net.cpp:435] ip3_ip3_0_split <- ip3
I0505 01:15:01.414341  1639 net.cpp:409] ip3_ip3_0_split -> ip3_ip3_0_split_0
I0505 01:15:01.414347  1639 net.cpp:409] ip3_ip3_0_split -> ip3_ip3_0_split_1
I0505 01:15:01.414371  1639 net.cpp:144] Setting up ip3_ip3_0_split
I0505 01:15:01.414377  1639 net.cpp:151] Top shape: 20 50 (1000)
I0505 01:15:01.414381  1639 net.cpp:151] Top shape: 20 50 (1000)
I0505 01:15:01.414384  1639 net.cpp:159] Memory required for data: 9065680
I0505 01:15:01.414387  1639 layer_factory.hpp:77] Creating layer accuracy
I0505 01:15:01.414393  1639 net.cpp:94] Creating Layer accuracy
I0505 01:15:01.414397  1639 net.cpp:435] accuracy <- ip3_ip3_0_split_0
I0505 01:15:01.414402  1639 net.cpp:435] accuracy <- label_intercept_1_split_0
I0505 01:15:01.414407  1639 net.cpp:409] accuracy -> accuracy
…
