…
I0503 21:52:09.702059 22621 net.cpp:323] The NetState phase (0) differed from the phase (1) specified by a rule in layer intercept
I0503 21:52:09.702076 22621 net.cpp:323] The NetState phase (0) differed from the phase (1) specified by a rule in layer loss
I0503 21:52:09.702157 22621 net.cpp:52] Initializing net from parameters: 
state {
  phase: TRAIN
}
layer {
  name: "parameters"
  type: "HDF5Data"
  top: "data"
  top: "label"
  include {
    phase: TRAIN
  }
  hdf5_data_param {
    source: "/home/purduethu/scratch/radon/d/deng106/CNNStatisticalModel/distributions/input/20_distributions_900_sample_size_train-parameters-path.txt"
    batch_size: 20
  }
}
layer {
  name: "conv1"
  type: "Convolution"
  bottom: "data"
  top: "conv1"
  param {
    lr_mult: 1
  }
  param {
    lr_mult: 2
  }
  convolution_param {
    num_output: 64
    pad: 2
    kernel_size: 5
    stride: 1
    weight_filler {
      type: "gaussian"
      std: 0.0001
    }
    bias_filler {
      type: "constant"
    }
  }
}
layer {
  name: "relu1"
  type: "ReLU"
  bottom: "conv1"
  top: "conv1"
}
layer {
  name: "conv2"
  type: "Convolution"
  bottom: "conv1"
  top: "conv2"
  param {
    lr_mult: 1
  }
  param {
    lr_mult: 2
  }
  convolution_param {
    num_output: 64
    pad: 2
    kernel_size: 5
    stride: 1
    weight_filler {
      type: "gaussian"
      std: 0.01
    }
    bias_filler {
      type: "constant"
    }
  }
}
layer {
  name: "relu2"
  type: "ReLU"
  bottom: "conv2"
  top: "conv2"
}
layer {
  name: "pool2"
  type: "Pooling"
  bottom: "conv2"
  top: "pool2"
  pooling_param {
    pool: MAX
    kernel_size: 3
    stride: 2
  }
}
layer {
  name: "conv3"
  type: "Convolution"
  bottom: "pool2"
  top: "conv3"
  param {
    lr_mult: 1
  }
  param {
    lr_mult: 2
  }
  convolution_param {
    num_output: 128
    pad: 2
    kernel_size: 5
    stride: 1
    weight_filler {
      type: "gaussian"
      std: 0.01
    }
    bias_filler {
      type: "constant"
    }
  }
}
layer {
  name: "relu3"
  type: "ReLU"
  bottom: "conv3"
  top: "conv3"
}
layer {
  name: "conv4"
  type: "Convolution"
  bottom: "conv3"
  top: "conv4"
  param {
    lr_mult: 1
  }
  param {
    lr_mult: 2
  }
  convolution_param {
    num_output: 128
    pad: 2
    kernel_size: 5
    stride: 1
    weight_filler {
      type: "gaussian"
      std: 0.01
    }
    bias_filler {
      type: "constant"
    }
  }
}
layer {
  name: "relu4"
  type: "ReLU"
  bottom: "conv4"
  top: "conv4"
}
layer {
  name: "conv5"
  type: "Convolution"
  bottom: "conv4"
  top: "conv5"
  param {
    lr_mult: 1
  }
  param {
    lr_mult: 2
  }
  convolution_param {
    num_output: 128
    pad: 2
    kernel_size: 5
    stride: 1
    weight_filler {
      type: "gaussian"
      std: 0.01
    }
    bias_filler {
      type: "constant"
    }
  }
}
layer {
  name: "relu5"
  type: "ReLU"
  bottom: "conv5"
  top: "conv5"
}
layer {
  name: "pool5"
  type: "Pooling"
  bottom: "conv5"
  top: "pool5"
  pooling_param {
    pool: AVE
    kernel_size: 3
    stride: 2
  }
}
layer {
  name: "ip1"
  type: "InnerProduct"
  bottom: "pool5"
  top: "ip1"
  param {
    lr_mult: 1
  }
  param {
    lr_mult: 2
  }
  inner_product_param {
    num_output: 1024
    weight_filler {
      type: "gaussian"
      std: 0.1
    }
    bias_filler {
      type: "constant"
    }
  }
}
layer {
  name: "ip2"
  type: "InnerProduct"
  bottom: "ip1"
  top: "ip2"
  param {
    lr_mult: 1
  }
  param {
    lr_mult: 2
  }
  inner_product_param {
    num_output: 512
    weight_filler {
      type: "gaussian"
      std: 0.1
    }
    bias_filler {
      type: "constant"
    }
  }
}
layer {
  name: "ip3"
  type: "InnerProduct"
  bottom: "ip2"
  top: "ip3"
  param {
    lr_mult: 1
  }
  param {
    lr_mult: 2
  }
  inner_product_param {
    num_output: 1
    weight_filler {
      type: "gaussian"
      std: 0.1
    }
    bias_filler {
      type: "constant"
    }
  }
}
layer {
  name: "loss"
  type: "HuberLoss"
  bottom: "ip3"
  bottom: "label"
  top: "loss"
  include {
    phase: TRAIN
  }
}
I0503 21:52:09.702209 22621 layer_factory.hpp:77] Creating layer parameters
I0503 21:52:09.702237 22621 net.cpp:94] Creating Layer parameters
I0503 21:52:09.702242 22621 net.cpp:409] parameters -> data
I0503 21:52:09.702251 22621 net.cpp:409] parameters -> label
I0503 21:52:09.702260 22621 hdf5_data_layer.cpp:79] Loading list of HDF5 filenames from: /home/purduethu/scratch/radon/d/deng106/CNNStatisticalModel/distributions/input/20_distributions_900_sample_size_train-parameters-path.txt
I0503 21:52:09.702273 22621 hdf5_data_layer.cpp:93] Number of HDF5 files: 1
I0503 21:52:09.702816 22621 hdf5.cpp:32] Datatype class: H5T_FLOAT
I0503 21:52:10.269834 22621 net.cpp:144] Setting up parameters
I0503 21:52:10.269865 22621 net.cpp:151] Top shape: 20 1 30 30 (18000)
I0503 21:52:10.269871 22621 net.cpp:151] Top shape: 20 (20)
I0503 21:52:10.269875 22621 net.cpp:159] Memory required for data: 72080
I0503 21:52:10.269881 22621 layer_factory.hpp:77] Creating layer conv1
I0503 21:52:10.269899 22621 net.cpp:94] Creating Layer conv1
I0503 21:52:10.269903 22621 net.cpp:435] conv1 <- data
I0503 21:52:10.269911 22621 net.cpp:409] conv1 -> conv1
I0503 21:52:10.276597 22621 net.cpp:144] Setting up conv1
I0503 21:52:10.276635 22621 net.cpp:151] Top shape: 20 64 30 30 (1152000)
I0503 21:52:10.276648 22621 net.cpp:159] Memory required for data: 4680080
I0503 21:52:10.276674 22621 layer_factory.hpp:77] Creating layer relu1
I0503 21:52:10.276691 22621 net.cpp:94] Creating Layer relu1
I0503 21:52:10.276702 22621 net.cpp:435] relu1 <- conv1
I0503 21:52:10.276715 22621 net.cpp:396] relu1 -> conv1 (in-place)
I0503 21:52:10.276736 22621 net.cpp:144] Setting up relu1
I0503 21:52:10.276748 22621 net.cpp:151] Top shape: 20 64 30 30 (1152000)
I0503 21:52:10.276757 22621 net.cpp:159] Memory required for data: 9288080
I0503 21:52:10.276777 22621 layer_factory.hpp:77] Creating layer conv2
I0503 21:52:10.276784 22621 net.cpp:94] Creating Layer conv2
I0503 21:52:10.276787 22621 net.cpp:435] conv2 <- conv1
I0503 21:52:10.276793 22621 net.cpp:409] conv2 -> conv2
I0503 21:52:10.293138 22621 net.cpp:144] Setting up conv2
I0503 21:52:10.293155 22621 net.cpp:151] Top shape: 20 64 30 30 (1152000)
I0503 21:52:10.293160 22621 net.cpp:159] Memory required for data: 13896080
I0503 21:52:10.293169 22621 layer_factory.hpp:77] Creating layer relu2
I0503 21:52:10.293177 22621 net.cpp:94] Creating Layer relu2
I0503 21:52:10.293181 22621 net.cpp:435] relu2 <- conv2
I0503 21:52:10.293187 22621 net.cpp:396] relu2 -> conv2 (in-place)
I0503 21:52:10.293195 22621 net.cpp:144] Setting up relu2
I0503 21:52:10.293200 22621 net.cpp:151] Top shape: 20 64 30 30 (1152000)
I0503 21:52:10.293203 22621 net.cpp:159] Memory required for data: 18504080
I0503 21:52:10.293207 22621 layer_factory.hpp:77] Creating layer pool2
I0503 21:52:10.293221 22621 net.cpp:94] Creating Layer pool2
I0503 21:52:10.293226 22621 net.cpp:435] pool2 <- conv2
I0503 21:52:10.293231 22621 net.cpp:409] pool2 -> pool2
I0503 21:52:10.293295 22621 net.cpp:144] Setting up pool2
I0503 21:52:10.293304 22621 net.cpp:151] Top shape: 20 64 15 15 (288000)
I0503 21:52:10.293308 22621 net.cpp:159] Memory required for data: 19656080
I0503 21:52:10.293313 22621 layer_factory.hpp:77] Creating layer conv3
I0503 21:52:10.293321 22621 net.cpp:94] Creating Layer conv3
I0503 21:52:10.293325 22621 net.cpp:435] conv3 <- pool2
I0503 21:52:10.293330 22621 net.cpp:409] conv3 -> conv3
I0503 21:52:10.308482 22621 net.cpp:144] Setting up conv3
I0503 21:52:10.308521 22621 net.cpp:151] Top shape: 20 128 15 15 (576000)
I0503 21:52:10.308533 22621 net.cpp:159] Memory required for data: 21960080
I0503 21:52:10.308576 22621 layer_factory.hpp:77] Creating layer relu3
I0503 21:52:10.308598 22621 net.cpp:94] Creating Layer relu3
I0503 21:52:10.308609 22621 net.cpp:435] relu3 <- conv3
I0503 21:52:10.308621 22621 net.cpp:396] relu3 -> conv3 (in-place)
I0503 21:52:10.308641 22621 net.cpp:144] Setting up relu3
I0503 21:52:10.308655 22621 net.cpp:151] Top shape: 20 128 15 15 (576000)
I0503 21:52:10.308665 22621 net.cpp:159] Memory required for data: 24264080
I0503 21:52:10.308673 22621 layer_factory.hpp:77] Creating layer conv4
I0503 21:52:10.308696 22621 net.cpp:94] Creating Layer conv4
I0503 21:52:10.308706 22621 net.cpp:435] conv4 <- conv3
I0503 21:52:10.308719 22621 net.cpp:409] conv4 -> conv4
I0503 21:52:10.335273 22621 net.cpp:144] Setting up conv4
I0503 21:52:10.335291 22621 net.cpp:151] Top shape: 20 128 15 15 (576000)
I0503 21:52:10.335296 22621 net.cpp:159] Memory required for data: 26568080
I0503 21:52:10.335304 22621 layer_factory.hpp:77] Creating layer relu4
I0503 21:52:10.335312 22621 net.cpp:94] Creating Layer relu4
I0503 21:52:10.335316 22621 net.cpp:435] relu4 <- conv4
I0503 21:52:10.335322 22621 net.cpp:396] relu4 -> conv4 (in-place)
I0503 21:52:10.335331 22621 net.cpp:144] Setting up relu4
I0503 21:52:10.335336 22621 net.cpp:151] Top shape: 20 128 15 15 (576000)
I0503 21:52:10.335340 22621 net.cpp:159] Memory required for data: 28872080
I0503 21:52:10.335345 22621 layer_factory.hpp:77] Creating layer conv5
I0503 21:52:10.335353 22621 net.cpp:94] Creating Layer conv5
I0503 21:52:10.335357 22621 net.cpp:435] conv5 <- conv4
I0503 21:52:10.335363 22621 net.cpp:409] conv5 -> conv5
I0503 21:52:10.361991 22621 net.cpp:144] Setting up conv5
I0503 21:52:10.362027 22621 net.cpp:151] Top shape: 20 128 15 15 (576000)
I0503 21:52:10.362032 22621 net.cpp:159] Memory required for data: 31176080
I0503 21:52:10.362043 22621 layer_factory.hpp:77] Creating layer relu5
I0503 21:52:10.362051 22621 net.cpp:94] Creating Layer relu5
I0503 21:52:10.362056 22621 net.cpp:435] relu5 <- conv5
I0503 21:52:10.362062 22621 net.cpp:396] relu5 -> conv5 (in-place)
I0503 21:52:10.362071 22621 net.cpp:144] Setting up relu5
I0503 21:52:10.362077 22621 net.cpp:151] Top shape: 20 128 15 15 (576000)
I0503 21:52:10.362081 22621 net.cpp:159] Memory required for data: 33480080
I0503 21:52:10.362084 22621 layer_factory.hpp:77] Creating layer pool5
I0503 21:52:10.362092 22621 net.cpp:94] Creating Layer pool5
I0503 21:52:10.362095 22621 net.cpp:435] pool5 <- conv5
I0503 21:52:10.362100 22621 net.cpp:409] pool5 -> pool5
I0503 21:52:10.362155 22621 net.cpp:144] Setting up pool5
I0503 21:52:10.362164 22621 net.cpp:151] Top shape: 20 128 7 7 (125440)
I0503 21:52:10.362169 22621 net.cpp:159] Memory required for data: 33981840
I0503 21:52:10.362174 22621 layer_factory.hpp:77] Creating layer ip1
I0503 21:52:10.362185 22621 net.cpp:94] Creating Layer ip1
I0503 21:52:10.362190 22621 net.cpp:435] ip1 <- pool5
I0503 21:52:10.362195 22621 net.cpp:409] ip1 -> ip1
I0503 21:52:10.538905 22621 net.cpp:144] Setting up ip1
I0503 21:52:10.538931 22621 net.cpp:151] Top shape: 20 1024 (20480)
I0503 21:52:10.538936 22621 net.cpp:159] Memory required for data: 34063760
I0503 21:52:10.538946 22621 layer_factory.hpp:77] Creating layer ip2
I0503 21:52:10.538956 22621 net.cpp:94] Creating Layer ip2
I0503 21:52:10.538967 22621 net.cpp:435] ip2 <- ip1
I0503 21:52:10.538975 22621 net.cpp:409] ip2 -> ip2
I0503 21:52:10.552248 22621 net.cpp:144] Setting up ip2
I0503 21:52:10.552264 22621 net.cpp:151] Top shape: 20 512 (10240)
I0503 21:52:10.552268 22621 net.cpp:159] Memory required for data: 34104720
I0503 21:52:10.552275 22621 layer_factory.hpp:77] Creating layer ip3
I0503 21:52:10.552283 22621 net.cpp:94] Creating Layer ip3
I0503 21:52:10.552286 22621 net.cpp:435] ip3 <- ip2
I0503 21:52:10.552292 22621 net.cpp:409] ip3 -> ip3
I0503 21:52:10.552414 22621 net.cpp:144] Setting up ip3
I0503 21:52:10.552423 22621 net.cpp:151] Top shape: 20 1 (20)
I0503 21:52:10.552425 22621 net.cpp:159] Memory required for data: 34104800
I0503 21:52:10.552430 22621 layer_factory.hpp:77] Creating layer loss
I0503 21:52:10.552444 22621 net.cpp:94] Creating Layer loss
I0503 21:52:10.552448 22621 net.cpp:435] loss <- ip3
I0503 21:52:10.552453 22621 net.cpp:435] loss <- label
I0503 21:52:10.552456 22621 net.cpp:409] loss -> loss
I0503 21:52:10.552510 22621 net.cpp:144] Setting up loss
…
I0503 21:52:10.922181 22621 net.cpp:323] The NetState phase (0) differed from the phase (1) specified by a rule in layer intercept
I0503 21:52:10.922197 22621 net.cpp:323] The NetState phase (0) differed from the phase (1) specified by a rule in layer accuracy
I0503 21:52:10.922283 22621 net.cpp:52] Initializing net from parameters: 
state {
  phase: TRAIN
}
layer {
  name: "parameters"
  type: "HDF5Data"
  top: "data"
  top: "label"
  include {
    phase: TRAIN
  }
  hdf5_data_param {
    source: "/home/purduethu/scratch/radon/d/deng106/CNNStatisticalModel/distributions/input/20_distributions_900_sample_size_train-distributions-path.txt"
    batch_size: 20
  }
}
layer {
  name: "conv1"
  type: "Convolution"
  bottom: "data"
  top: "conv1"
  param {
    lr_mult: 1
  }
  param {
    lr_mult: 2
  }
  convolution_param {
    num_output: 64
    pad: 2
    kernel_size: 5
    stride: 1
    weight_filler {
      type: "gaussian"
      std: 0.0001
    }
    bias_filler {
      type: "constant"
    }
  }
}
layer {
  name: "relu1"
  type: "ReLU"
  bottom: "conv1"
  top: "conv1"
}
layer {
  name: "conv2"
  type: "Convolution"
  bottom: "conv1"
  top: "conv2"
  param {
    lr_mult: 1
  }
  param {
    lr_mult: 2
  }
  convolution_param {
    num_output: 64
    pad: 2
    kernel_size: 5
    stride: 1
    weight_filler {
      type: "gaussian"
      std: 0.01
    }
    bias_filler {
      type: "constant"
    }
  }
}
layer {
  name: "relu2"
  type: "ReLU"
  bottom: "conv2"
  top: "conv2"
}
layer {
  name: "pool2"
  type: "Pooling"
  bottom: "conv2"
  top: "pool2"
  pooling_param {
    pool: MAX
    kernel_size: 3
    stride: 2
  }
}
layer {
  name: "conv3"
  type: "Convolution"
  bottom: "pool2"
  top: "conv3"
  param {
    lr_mult: 1
  }
  param {
    lr_mult: 2
  }
  convolution_param {
    num_output: 128
    pad: 2
    kernel_size: 5
    stride: 1
    weight_filler {
      type: "gaussian"
      std: 0.01
    }
    bias_filler {
      type: "constant"
    }
  }
}
layer {
  name: "relu3"
  type: "ReLU"
  bottom: "conv3"
  top: "conv3"
}
layer {
  name: "conv4"
  type: "Convolution"
  bottom: "conv3"
  top: "conv4"
  param {
    lr_mult: 1
  }
  param {
    lr_mult: 2
  }
  convolution_param {
    num_output: 128
    pad: 2
    kernel_size: 5
    stride: 1
    weight_filler {
      type: "gaussian"
      std: 0.01
    }
    bias_filler {
      type: "constant"
    }
  }
}
layer {
  name: "relu4"
  type: "ReLU"
  bottom: "conv4"
  top: "conv4"
}
layer {
  name: "conv5"
  type: "Convolution"
  bottom: "conv4"
  top: "conv5"
  param {
    lr_mult: 1
  }
  param {
    lr_mult: 2
  }
  convolution_param {
    num_output: 128
    pad: 2
    kernel_size: 5
    stride: 1
    weight_filler {
      type: "gaussian"
      std: 0.01
    }
    bias_filler {
      type: "constant"
    }
  }
}
layer {
  name: "relu5"
  type: "ReLU"
  bottom: "conv5"
  top: "conv5"
}
layer {
  name: "pool5"
  type: "Pooling"
  bottom: "conv5"
  top: "pool5"
  pooling_param {
    pool: AVE
    kernel_size: 3
    stride: 2
  }
}
layer {
  name: "ip1"
  type: "InnerProduct"
  bottom: "pool5"
  top: "ip1"
  param {
    lr_mult: 1
  }
  param {
    lr_mult: 2
  }
  inner_product_param {
    num_output: 1024
    weight_filler {
      type: "gaussian"
      std: 0.1
    }
    bias_filler {
      type: "constant"
    }
  }
}
layer {
  name: "ip2"
  type: "InnerProduct"
  bottom: "ip1"
  top: "ip2"
  param {
    lr_mult: 1
  }
  param {
    lr_mult: 2
  }
  inner_product_param {
    num_output: 512
    weight_filler {
      type: "gaussian"
      std: 0.1
    }
    bias_filler {
      type: "constant"
    }
  }
}
layer {
  name: "ip3"
  type: "InnerProduct"
  bottom: "ip2"
  top: "ip3"
  param {
    lr_mult: 1
  }
  param {
    lr_mult: 2
  }
  inner_product_param {
    num_output: 50
    weight_filler {
      type: "gaussian"
      std: 0.1
    }
    bias_filler {
      type: "constant"
    }
  }
}
layer {
  name: "loss"
  type: "SoftmaxWithLoss"
  bottom: "ip3"
  bottom: "label"
  top: "loss"
}
I0503 21:52:10.922333 22621 layer_factory.hpp:77] Creating layer parameters
I0503 21:52:10.922341 22621 net.cpp:94] Creating Layer parameters
I0503 21:52:10.922345 22621 net.cpp:409] parameters -> data
I0503 21:52:10.922353 22621 net.cpp:409] parameters -> label
I0503 21:52:10.922358 22621 hdf5_data_layer.cpp:79] Loading list of HDF5 filenames from: /home/purduethu/scratch/radon/d/deng106/CNNStatisticalModel/distributions/input/20_distributions_900_sample_size_train-distributions-path.txt
I0503 21:52:10.922374 22621 hdf5_data_layer.cpp:93] Number of HDF5 files: 1
I0503 21:52:11.537698 22621 hdf5.cpp:35] Datatype class: H5T_INTEGER
I0503 21:52:11.538740 22621 net.cpp:144] Setting up parameters
I0503 21:52:11.538758 22621 net.cpp:151] Top shape: 20 1 30 30 (18000)
I0503 21:52:11.538763 22621 net.cpp:151] Top shape: 20 (20)
I0503 21:52:11.538766 22621 net.cpp:159] Memory required for data: 72080
I0503 21:52:11.538772 22621 layer_factory.hpp:77] Creating layer conv1
I0503 21:52:11.538790 22621 net.cpp:94] Creating Layer conv1
I0503 21:52:11.538795 22621 net.cpp:435] conv1 <- data
I0503 21:52:11.538801 22621 net.cpp:409] conv1 -> conv1
I0503 21:52:11.542743 22621 net.cpp:144] Setting up conv1
I0503 21:52:11.542762 22621 net.cpp:151] Top shape: 20 64 30 30 (1152000)
I0503 21:52:11.542765 22621 net.cpp:159] Memory required for data: 4680080
I0503 21:52:11.542778 22621 layer_factory.hpp:77] Creating layer relu1
I0503 21:52:11.542786 22621 net.cpp:94] Creating Layer relu1
I0503 21:52:11.542790 22621 net.cpp:435] relu1 <- conv1
I0503 21:52:11.542794 22621 net.cpp:396] relu1 -> conv1 (in-place)
I0503 21:52:11.542804 22621 net.cpp:144] Setting up relu1
I0503 21:52:11.542809 22621 net.cpp:151] Top shape: 20 64 30 30 (1152000)
I0503 21:52:11.542810 22621 net.cpp:159] Memory required for data: 9288080
I0503 21:52:11.542814 22621 layer_factory.hpp:77] Creating layer conv2
I0503 21:52:11.542824 22621 net.cpp:94] Creating Layer conv2
I0503 21:52:11.542826 22621 net.cpp:435] conv2 <- conv1
I0503 21:52:11.542831 22621 net.cpp:409] conv2 -> conv2
I0503 21:52:11.558625 22621 net.cpp:144] Setting up conv2
I0503 21:52:11.558655 22621 net.cpp:151] Top shape: 20 64 30 30 (1152000)
I0503 21:52:11.558660 22621 net.cpp:159] Memory required for data: 13896080
I0503 21:52:11.558673 22621 layer_factory.hpp:77] Creating layer relu2
I0503 21:52:11.558686 22621 net.cpp:94] Creating Layer relu2
I0503 21:52:11.558691 22621 net.cpp:435] relu2 <- conv2
I0503 21:52:11.558696 22621 net.cpp:396] relu2 -> conv2 (in-place)
I0503 21:52:11.558706 22621 net.cpp:144] Setting up relu2
I0503 21:52:11.558710 22621 net.cpp:151] Top shape: 20 64 30 30 (1152000)
I0503 21:52:11.558713 22621 net.cpp:159] Memory required for data: 18504080
I0503 21:52:11.558717 22621 layer_factory.hpp:77] Creating layer pool2
I0503 21:52:11.558722 22621 net.cpp:94] Creating Layer pool2
I0503 21:52:11.558725 22621 net.cpp:435] pool2 <- conv2
I0503 21:52:11.558729 22621 net.cpp:409] pool2 -> pool2
I0503 21:52:11.558843 22621 net.cpp:144] Setting up pool2
I0503 21:52:11.558851 22621 net.cpp:151] Top shape: 20 64 15 15 (288000)
I0503 21:52:11.558853 22621 net.cpp:159] Memory required for data: 19656080
I0503 21:52:11.558857 22621 layer_factory.hpp:77] Creating layer conv3
I0503 21:52:11.558867 22621 net.cpp:94] Creating Layer conv3
I0503 21:52:11.558877 22621 net.cpp:435] conv3 <- pool2
I0503 21:52:11.558882 22621 net.cpp:409] conv3 -> conv3
I0503 21:52:11.585495 22621 net.cpp:144] Setting up conv3
I0503 21:52:11.585531 22621 net.cpp:151] Top shape: 20 128 15 15 (576000)
I0503 21:52:11.585536 22621 net.cpp:159] Memory required for data: 21960080
I0503 21:52:11.585551 22621 layer_factory.hpp:77] Creating layer relu3
I0503 21:52:11.585561 22621 net.cpp:94] Creating Layer relu3
I0503 21:52:11.585566 22621 net.cpp:435] relu3 <- conv3
I0503 21:52:11.585572 22621 net.cpp:396] relu3 -> conv3 (in-place)
I0503 21:52:11.585583 22621 net.cpp:144] Setting up relu3
I0503 21:52:11.585588 22621 net.cpp:151] Top shape: 20 128 15 15 (576000)
I0503 21:52:11.585592 22621 net.cpp:159] Memory required for data: 24264080
I0503 21:52:11.585594 22621 layer_factory.hpp:77] Creating layer conv4
I0503 21:52:11.585606 22621 net.cpp:94] Creating Layer conv4
I0503 21:52:11.585610 22621 net.cpp:435] conv4 <- conv3
I0503 21:52:11.585615 22621 net.cpp:409] conv4 -> conv4
I0503 21:52:11.675412 22621 net.cpp:144] Setting up conv4
I0503 21:52:11.675456 22621 net.cpp:151] Top shape: 20 128 15 15 (576000)
I0503 21:52:11.675460 22621 net.cpp:159] Memory required for data: 26568080
I0503 21:52:11.675472 22621 layer_factory.hpp:77] Creating layer relu4
I0503 21:52:11.675484 22621 net.cpp:94] Creating Layer relu4
I0503 21:52:11.675489 22621 net.cpp:435] relu4 <- conv4
I0503 21:52:11.675495 22621 net.cpp:396] relu4 -> conv4 (in-place)
I0503 21:52:11.675508 22621 net.cpp:144] Setting up relu4
I0503 21:52:11.675513 22621 net.cpp:151] Top shape: 20 128 15 15 (576000)
I0503 21:52:11.675516 22621 net.cpp:159] Memory required for data: 28872080
I0503 21:52:11.675519 22621 layer_factory.hpp:77] Creating layer conv5
I0503 21:52:11.675530 22621 net.cpp:94] Creating Layer conv5
I0503 21:52:11.675534 22621 net.cpp:435] conv5 <- conv4
I0503 21:52:11.675540 22621 net.cpp:409] conv5 -> conv5
I0503 21:52:11.753162 22621 net.cpp:144] Setting up conv5
I0503 21:52:11.753198 22621 net.cpp:151] Top shape: 20 128 15 15 (576000)
I0503 21:52:11.753203 22621 net.cpp:159] Memory required for data: 31176080
I0503 21:52:11.753218 22621 layer_factory.hpp:77] Creating layer relu5
I0503 21:52:11.753229 22621 net.cpp:94] Creating Layer relu5
I0503 21:52:11.753234 22621 net.cpp:435] relu5 <- conv5
I0503 21:52:11.753239 22621 net.cpp:396] relu5 -> conv5 (in-place)
I0503 21:52:11.753250 22621 net.cpp:144] Setting up relu5
I0503 21:52:11.753255 22621 net.cpp:151] Top shape: 20 128 15 15 (576000)
I0503 21:52:11.753258 22621 net.cpp:159] Memory required for data: 33480080
I0503 21:52:11.753262 22621 layer_factory.hpp:77] Creating layer pool5
I0503 21:52:11.753268 22621 net.cpp:94] Creating Layer pool5
I0503 21:52:11.753270 22621 net.cpp:435] pool5 <- conv5
I0503 21:52:11.753275 22621 net.cpp:409] pool5 -> pool5
I0503 21:52:11.753371 22621 net.cpp:144] Setting up pool5
I0503 21:52:11.753378 22621 net.cpp:151] Top shape: 20 128 7 7 (125440)
I0503 21:52:11.753382 22621 net.cpp:159] Memory required for data: 33981840
I0503 21:52:11.753386 22621 layer_factory.hpp:77] Creating layer ip1
I0503 21:52:11.753393 22621 net.cpp:94] Creating Layer ip1
I0503 21:52:11.753397 22621 net.cpp:435] ip1 <- pool5
I0503 21:52:11.753402 22621 net.cpp:409] ip1 -> ip1
I0503 21:52:11.922906 22621 net.cpp:144] Setting up ip1
I0503 21:52:11.922946 22621 net.cpp:151] Top shape: 20 1024 (20480)
I0503 21:52:11.922951 22621 net.cpp:159] Memory required for data: 34063760
I0503 21:52:11.922961 22621 layer_factory.hpp:77] Creating layer ip2
I0503 21:52:11.922972 22621 net.cpp:94] Creating Layer ip2
I0503 21:52:11.922977 22621 net.cpp:435] ip2 <- ip1
I0503 21:52:11.922984 22621 net.cpp:409] ip2 -> ip2
I0503 21:52:11.936691 22621 net.cpp:144] Setting up ip2
I0503 21:52:11.936730 22621 net.cpp:151] Top shape: 20 512 (10240)
I0503 21:52:11.936734 22621 net.cpp:159] Memory required for data: 34104720
I0503 21:52:11.936744 22621 layer_factory.hpp:77] Creating layer ip3
I0503 21:52:11.936755 22621 net.cpp:94] Creating Layer ip3
I0503 21:52:11.936760 22621 net.cpp:435] ip3 <- ip2
I0503 21:52:11.936775 22621 net.cpp:409] ip3 -> ip3
I0503 21:52:11.937562 22621 net.cpp:144] Setting up ip3
I0503 21:52:11.937572 22621 net.cpp:151] Top shape: 20 50 (1000)
I0503 21:52:11.937574 22621 net.cpp:159] Memory required for data: 34108720
I0503 21:52:11.937580 22621 layer_factory.hpp:77] Creating layer loss
I0503 21:52:11.937588 22621 net.cpp:94] Creating Layer loss
I0503 21:52:11.937592 22621 net.cpp:435] loss <- ip3
I0503 21:52:11.937597 22621 net.cpp:435] loss <- label
I0503 21:52:11.937600 22621 net.cpp:409] loss -> loss
I0503 21:52:11.937608 22621 layer_factory.hpp:77] Creating layer loss
…
I0503 21:52:11.938155 22621 solver.cpp:181] Creating test net (#0) specified by net file: ./protocol/dis_20_900_dimension.protocol_distribution
I0503 21:52:11.938184 22621 net.cpp:323] The NetState phase (1) differed from the phase (0) specified by a rule in layer parameters
I0503 21:52:11.938277 22621 net.cpp:52] Initializing net from parameters: 
state {
  phase: TEST
}
layer {
  name: "intercept"
  type: "HDF5Data"
  top: "data"
  top: "label"
  include {
    phase: TEST
  }
  hdf5_data_param {
    source: "/home/purduethu/scratch/radon/d/deng106/CNNStatisticalModel/distributions/input/20_distributions_900_sample_size_test-distributions-path.txt"
    batch_size: 20
  }
}
layer {
  name: "conv1"
  type: "Convolution"
  bottom: "data"
  top: "conv1"
  param {
    lr_mult: 1
  }
  param {
    lr_mult: 2
  }
  convolution_param {
    num_output: 64
    pad: 2
    kernel_size: 5
    stride: 1
    weight_filler {
      type: "gaussian"
      std: 0.0001
    }
    bias_filler {
      type: "constant"
    }
  }
}
layer {
  name: "relu1"
  type: "ReLU"
  bottom: "conv1"
  top: "conv1"
}
layer {
  name: "conv2"
  type: "Convolution"
  bottom: "conv1"
  top: "conv2"
  param {
    lr_mult: 1
  }
  param {
    lr_mult: 2
  }
  convolution_param {
    num_output: 64
    pad: 2
    kernel_size: 5
    stride: 1
    weight_filler {
      type: "gaussian"
      std: 0.01
    }
    bias_filler {
      type: "constant"
    }
  }
}
layer {
  name: "relu2"
  type: "ReLU"
  bottom: "conv2"
  top: "conv2"
}
layer {
  name: "pool2"
  type: "Pooling"
  bottom: "conv2"
  top: "pool2"
  pooling_param {
    pool: MAX
    kernel_size: 3
    stride: 2
  }
}
layer {
  name: "conv3"
  type: "Convolution"
  bottom: "pool2"
  top: "conv3"
  param {
    lr_mult: 1
  }
  param {
    lr_mult: 2
  }
  convolution_param {
    num_output: 128
    pad: 2
    kernel_size: 5
    stride: 1
    weight_filler {
      type: "gaussian"
      std: 0.01
    }
    bias_filler {
      type: "constant"
    }
  }
}
layer {
  name: "relu3"
  type: "ReLU"
  bottom: "conv3"
  top: "conv3"
}
layer {
  name: "conv4"
  type: "Convolution"
  bottom: "conv3"
  top: "conv4"
  param {
    lr_mult: 1
  }
  param {
    lr_mult: 2
  }
  convolution_param {
    num_output: 128
    pad: 2
    kernel_size: 5
    stride: 1
    weight_filler {
      type: "gaussian"
      std: 0.01
    }
    bias_filler {
      type: "constant"
    }
  }
}
layer {
  name: "relu4"
  type: "ReLU"
  bottom: "conv4"
  top: "conv4"
}
layer {
  name: "conv5"
  type: "Convolution"
  bottom: "conv4"
  top: "conv5"
  param {
    lr_mult: 1
  }
  param {
    lr_mult: 2
  }
  convolution_param {
    num_output: 128
    pad: 2
    kernel_size: 5
    stride: 1
    weight_filler {
      type: "gaussian"
      std: 0.01
    }
    bias_filler {
      type: "constant"
    }
  }
}
layer {
  name: "relu5"
  type: "ReLU"
  bottom: "conv5"
  top: "conv5"
}
layer {
  name: "pool5"
  type: "Pooling"
  bottom: "conv5"
  top: "pool5"
  pooling_param {
    pool: AVE
    kernel_size: 3
    stride: 2
  }
}
layer {
  name: "ip1"
  type: "InnerProduct"
  bottom: "pool5"
  top: "ip1"
  param {
    lr_mult: 1
  }
  param {
    lr_mult: 2
  }
  inner_product_param {
    num_output: 1024
    weight_filler {
      type: "gaussian"
      std: 0.1
    }
    bias_filler {
      type: "constant"
    }
  }
}
layer {
  name: "ip2"
  type: "InnerProduct"
  bottom: "ip1"
  top: "ip2"
  param {
    lr_mult: 1
  }
  param {
    lr_mult: 2
  }
  inner_product_param {
    num_output: 512
    weight_filler {
      type: "gaussian"
      std: 0.1
    }
    bias_filler {
      type: "constant"
    }
  }
}
layer {
  name: "ip3"
  type: "InnerProduct"
  bottom: "ip2"
  top: "ip3"
  param {
    lr_mult: 1
  }
  param {
    lr_mult: 2
  }
  inner_product_param {
    num_output: 50
    weight_filler {
      type: "gaussian"
      std: 0.1
    }
    bias_filler {
      type: "constant"
    }
  }
}
layer {
  name: "accuracy"
  type: "Accuracy"
  bottom: "ip3"
  bottom: "label"
  top: "accuracy"
  include {
    phase: TEST
  }
}
layer {
  name: "loss"
  type: "SoftmaxWithLoss"
  bottom: "ip3"
  bottom: "label"
  top: "loss"
}
I0503 21:52:11.938349 22621 layer_factory.hpp:77] Creating layer intercept
I0503 21:52:11.938357 22621 net.cpp:94] Creating Layer intercept
I0503 21:52:11.938362 22621 net.cpp:409] intercept -> data
I0503 21:52:11.938369 22621 net.cpp:409] intercept -> label
I0503 21:52:11.938374 22621 hdf5_data_layer.cpp:79] Loading list of HDF5 filenames from: /home/purduethu/scratch/radon/d/deng106/CNNStatisticalModel/distributions/input/20_distributions_900_sample_size_test-distributions-path.txt
I0503 21:52:11.938395 22621 hdf5_data_layer.cpp:93] Number of HDF5 files: 1
I0503 21:52:12.086930 22621 net.cpp:144] Setting up intercept
I0503 21:52:12.086967 22621 net.cpp:151] Top shape: 20 1 30 30 (18000)
I0503 21:52:12.086972 22621 net.cpp:151] Top shape: 20 (20)
I0503 21:52:12.086977 22621 net.cpp:159] Memory required for data: 72080
I0503 21:52:12.086983 22621 layer_factory.hpp:77] Creating layer label_intercept_1_split
I0503 21:52:12.087002 22621 net.cpp:94] Creating Layer label_intercept_1_split
I0503 21:52:12.087007 22621 net.cpp:435] label_intercept_1_split <- label
I0503 21:52:12.087013 22621 net.cpp:409] label_intercept_1_split -> label_intercept_1_split_0
I0503 21:52:12.087023 22621 net.cpp:409] label_intercept_1_split -> label_intercept_1_split_1
I0503 21:52:12.087070 22621 net.cpp:144] Setting up label_intercept_1_split
I0503 21:52:12.087077 22621 net.cpp:151] Top shape: 20 (20)
I0503 21:52:12.087081 22621 net.cpp:151] Top shape: 20 (20)
I0503 21:52:12.087085 22621 net.cpp:159] Memory required for data: 72240
I0503 21:52:12.087087 22621 layer_factory.hpp:77] Creating layer conv1
I0503 21:52:12.087100 22621 net.cpp:94] Creating Layer conv1
I0503 21:52:12.087102 22621 net.cpp:435] conv1 <- data
I0503 21:52:12.087107 22621 net.cpp:409] conv1 -> conv1
I0503 21:52:12.088760 22621 net.cpp:144] Setting up conv1
I0503 21:52:12.088778 22621 net.cpp:151] Top shape: 20 64 30 30 (1152000)
I0503 21:52:12.088781 22621 net.cpp:159] Memory required for data: 4680240
I0503 21:52:12.088791 22621 layer_factory.hpp:77] Creating layer relu1
I0503 21:52:12.088799 22621 net.cpp:94] Creating Layer relu1
I0503 21:52:12.088804 22621 net.cpp:435] relu1 <- conv1
I0503 21:52:12.088807 22621 net.cpp:396] relu1 -> conv1 (in-place)
I0503 21:52:12.088814 22621 net.cpp:144] Setting up relu1
I0503 21:52:12.088819 22621 net.cpp:151] Top shape: 20 64 30 30 (1152000)
I0503 21:52:12.088822 22621 net.cpp:159] Memory required for data: 9288240
I0503 21:52:12.088825 22621 layer_factory.hpp:77] Creating layer conv2
I0503 21:52:12.088834 22621 net.cpp:94] Creating Layer conv2
I0503 21:52:12.088837 22621 net.cpp:435] conv2 <- conv1
I0503 21:52:12.088842 22621 net.cpp:409] conv2 -> conv2
I0503 21:52:12.095846 22621 net.cpp:144] Setting up conv2
I0503 21:52:12.095913 22621 net.cpp:151] Top shape: 20 64 30 30 (1152000)
I0503 21:52:12.095917 22621 net.cpp:159] Memory required for data: 13896240
I0503 21:52:12.095930 22621 layer_factory.hpp:77] Creating layer relu2
I0503 21:52:12.095940 22621 net.cpp:94] Creating Layer relu2
I0503 21:52:12.095945 22621 net.cpp:435] relu2 <- conv2
I0503 21:52:12.095950 22621 net.cpp:396] relu2 -> conv2 (in-place)
I0503 21:52:12.095960 22621 net.cpp:144] Setting up relu2
I0503 21:52:12.095964 22621 net.cpp:151] Top shape: 20 64 30 30 (1152000)
I0503 21:52:12.095968 22621 net.cpp:159] Memory required for data: 18504240
I0503 21:52:12.095970 22621 layer_factory.hpp:77] Creating layer pool2
I0503 21:52:12.095976 22621 net.cpp:94] Creating Layer pool2
I0503 21:52:12.095979 22621 net.cpp:435] pool2 <- conv2
I0503 21:52:12.095983 22621 net.cpp:409] pool2 -> pool2
I0503 21:52:12.096103 22621 net.cpp:144] Setting up pool2
I0503 21:52:12.096110 22621 net.cpp:151] Top shape: 20 64 15 15 (288000)
I0503 21:52:12.096113 22621 net.cpp:159] Memory required for data: 19656240
I0503 21:52:12.096117 22621 layer_factory.hpp:77] Creating layer conv3
I0503 21:52:12.096127 22621 net.cpp:94] Creating Layer conv3
I0503 21:52:12.096130 22621 net.cpp:435] conv3 <- pool2
I0503 21:52:12.096135 22621 net.cpp:409] conv3 -> conv3
I0503 21:52:12.104152 22621 net.cpp:144] Setting up conv3
I0503 21:52:12.104184 22621 net.cpp:151] Top shape: 20 128 15 15 (576000)
I0503 21:52:12.104189 22621 net.cpp:159] Memory required for data: 21960240
I0503 21:52:12.104202 22621 layer_factory.hpp:77] Creating layer relu3
I0503 21:52:12.104214 22621 net.cpp:94] Creating Layer relu3
I0503 21:52:12.104219 22621 net.cpp:435] relu3 <- conv3
I0503 21:52:12.104225 22621 net.cpp:396] relu3 -> conv3 (in-place)
I0503 21:52:12.104235 22621 net.cpp:144] Setting up relu3
I0503 21:52:12.104239 22621 net.cpp:151] Top shape: 20 128 15 15 (576000)
I0503 21:52:12.104243 22621 net.cpp:159] Memory required for data: 24264240
I0503 21:52:12.104246 22621 layer_factory.hpp:77] Creating layer conv4
I0503 21:52:12.104256 22621 net.cpp:94] Creating Layer conv4
I0503 21:52:12.104259 22621 net.cpp:435] conv4 <- conv3
I0503 21:52:12.104264 22621 net.cpp:409] conv4 -> conv4
I0503 21:52:12.120311 22621 net.cpp:144] Setting up conv4
I0503 21:52:12.120349 22621 net.cpp:151] Top shape: 20 128 15 15 (576000)
I0503 21:52:12.120354 22621 net.cpp:159] Memory required for data: 26568240
I0503 21:52:12.120368 22621 layer_factory.hpp:77] Creating layer relu4
I0503 21:52:12.120378 22621 net.cpp:94] Creating Layer relu4
I0503 21:52:12.120383 22621 net.cpp:435] relu4 <- conv4
I0503 21:52:12.120389 22621 net.cpp:396] relu4 -> conv4 (in-place)
I0503 21:52:12.120403 22621 net.cpp:144] Setting up relu4
I0503 21:52:12.120406 22621 net.cpp:151] Top shape: 20 128 15 15 (576000)
I0503 21:52:12.120409 22621 net.cpp:159] Memory required for data: 28872240
I0503 21:52:12.120412 22621 layer_factory.hpp:77] Creating layer conv5
I0503 21:52:12.120424 22621 net.cpp:94] Creating Layer conv5
I0503 21:52:12.120427 22621 net.cpp:435] conv5 <- conv4
I0503 21:52:12.120440 22621 net.cpp:409] conv5 -> conv5
I0503 21:52:12.136121 22621 net.cpp:144] Setting up conv5
I0503 21:52:12.136178 22621 net.cpp:151] Top shape: 20 128 15 15 (576000)
I0503 21:52:12.136188 22621 net.cpp:159] Memory required for data: 31176240
I0503 21:52:12.136219 22621 layer_factory.hpp:77] Creating layer relu5
I0503 21:52:12.136240 22621 net.cpp:94] Creating Layer relu5
I0503 21:52:12.136257 22621 net.cpp:435] relu5 <- conv5
I0503 21:52:12.136263 22621 net.cpp:396] relu5 -> conv5 (in-place)
I0503 21:52:12.136274 22621 net.cpp:144] Setting up relu5
I0503 21:52:12.136278 22621 net.cpp:151] Top shape: 20 128 15 15 (576000)
I0503 21:52:12.136281 22621 net.cpp:159] Memory required for data: 33480240
I0503 21:52:12.136284 22621 layer_factory.hpp:77] Creating layer pool5
I0503 21:52:12.136291 22621 net.cpp:94] Creating Layer pool5
I0503 21:52:12.136293 22621 net.cpp:435] pool5 <- conv5
I0503 21:52:12.136308 22621 net.cpp:409] pool5 -> pool5
I0503 21:52:12.136399 22621 net.cpp:144] Setting up pool5
I0503 21:52:12.136406 22621 net.cpp:151] Top shape: 20 128 7 7 (125440)
I0503 21:52:12.136410 22621 net.cpp:159] Memory required for data: 33982000
I0503 21:52:12.136414 22621 layer_factory.hpp:77] Creating layer ip1
I0503 21:52:12.136420 22621 net.cpp:94] Creating Layer ip1
I0503 21:52:12.136425 22621 net.cpp:435] ip1 <- pool5
I0503 21:52:12.136428 22621 net.cpp:409] ip1 -> ip1
I0503 21:52:12.299991 22621 net.cpp:144] Setting up ip1
I0503 21:52:12.300029 22621 net.cpp:151] Top shape: 20 1024 (20480)
I0503 21:52:12.300034 22621 net.cpp:159] Memory required for data: 34063920
I0503 21:52:12.300045 22621 layer_factory.hpp:77] Creating layer ip2
I0503 21:52:12.300060 22621 net.cpp:94] Creating Layer ip2
I0503 21:52:12.300065 22621 net.cpp:435] ip2 <- ip1
I0503 21:52:12.300072 22621 net.cpp:409] ip2 -> ip2
I0503 21:52:12.314232 22621 net.cpp:144] Setting up ip2
I0503 21:52:12.314271 22621 net.cpp:151] Top shape: 20 512 (10240)
I0503 21:52:12.314275 22621 net.cpp:159] Memory required for data: 34104880
I0503 21:52:12.314286 22621 layer_factory.hpp:77] Creating layer ip3
I0503 21:52:12.314301 22621 net.cpp:94] Creating Layer ip3
I0503 21:52:12.314306 22621 net.cpp:435] ip3 <- ip2
I0503 21:52:12.314312 22621 net.cpp:409] ip3 -> ip3
I0503 21:52:12.315145 22621 net.cpp:144] Setting up ip3
I0503 21:52:12.315153 22621 net.cpp:151] Top shape: 20 50 (1000)
I0503 21:52:12.315156 22621 net.cpp:159] Memory required for data: 34108880
I0503 21:52:12.315161 22621 layer_factory.hpp:77] Creating layer ip3_ip3_0_split
I0503 21:52:12.315167 22621 net.cpp:94] Creating Layer ip3_ip3_0_split
I0503 21:52:12.315171 22621 net.cpp:435] ip3_ip3_0_split <- ip3
I0503 21:52:12.315176 22621 net.cpp:409] ip3_ip3_0_split -> ip3_ip3_0_split_0
I0503 21:52:12.315182 22621 net.cpp:409] ip3_ip3_0_split -> ip3_ip3_0_split_1
I0503 21:52:12.315233 22621 net.cpp:144] Setting up ip3_ip3_0_split
I0503 21:52:12.315240 22621 net.cpp:151] Top shape: 20 50 (1000)
I0503 21:52:12.315243 22621 net.cpp:151] Top shape: 20 50 (1000)
I0503 21:52:12.315246 22621 net.cpp:159] Memory required for data: 34116880
I0503 21:52:12.315250 22621 layer_factory.hpp:77] Creating layer accuracy
I0503 21:52:12.315255 22621 net.cpp:94] Creating Layer accuracy
I0503 21:52:12.315259 22621 net.cpp:435] accuracy <- ip3_ip3_0_split_0
I0503 21:52:12.315263 22621 net.cpp:435] accuracy <- label_intercept_1_split_0
I0503 21:52:12.315268 22621 net.cpp:409] accuracy -> accuracy
…
