…
I0507 12:54:11.942401  1663 net.cpp:323] The NetState phase (0) differed from the phase (1) specified by a rule in layer intercept
I0507 12:54:11.942417  1663 net.cpp:323] The NetState phase (0) differed from the phase (1) specified by a rule in layer loss
I0507 12:54:11.942497  1663 net.cpp:52] Initializing net from parameters: 
state {
  phase: TRAIN
}
layer {
  name: "parameters"
  type: "HDF5Data"
  top: "data"
  top: "label"
  include {
    phase: TRAIN
  }
  hdf5_data_param {
    source: "/home/purduethu/scratch/radon/d/deng106/CNNStatisticalModel/distributions/input/20_distributions_100_sample_size_train-parameters-path.txt"
    batch_size: 20
  }
}
layer {
  name: "conv1"
  type: "Convolution"
  bottom: "data"
  top: "conv1"
  param {
    lr_mult: 1
  }
  param {
    lr_mult: 2
  }
  convolution_param {
    num_output: 64
    pad: 2
    kernel_size: 5
    stride: 1
    weight_filler {
      type: "gaussian"
      std: 0.0001
    }
    bias_filler {
      type: "constant"
    }
  }
}
layer {
  name: "relu1"
  type: "ReLU"
  bottom: "conv1"
  top: "conv1"
}
layer {
  name: "conv2"
  type: "Convolution"
  bottom: "conv1"
  top: "conv2"
  param {
    lr_mult: 1
  }
  param {
    lr_mult: 2
  }
  convolution_param {
    num_output: 64
    pad: 2
    kernel_size: 5
    stride: 1
    weight_filler {
      type: "gaussian"
      std: 0.01
    }
    bias_filler {
      type: "constant"
    }
  }
}
layer {
  name: "relu2"
  type: "ReLU"
  bottom: "conv2"
  top: "conv2"
}
layer {
  name: "pool2"
  type: "Pooling"
  bottom: "conv2"
  top: "pool2"
  pooling_param {
    pool: MAX
    kernel_size: 3
    stride: 2
  }
}
layer {
  name: "conv3"
  type: "Convolution"
  bottom: "pool2"
  top: "conv3"
  param {
    lr_mult: 1
  }
  param {
    lr_mult: 2
  }
  convolution_param {
    num_output: 64
    pad: 2
    kernel_size: 5
    stride: 1
    weight_filler {
      type: "gaussian"
      std: 0.01
    }
    bias_filler {
      type: "constant"
    }
  }
}
layer {
  name: "relu3"
  type: "ReLU"
  bottom: "conv3"
  top: "conv3"
}
layer {
  name: "conv4"
  type: "Convolution"
  bottom: "conv3"
  top: "conv4"
  param {
    lr_mult: 1
  }
  param {
    lr_mult: 2
  }
  convolution_param {
    num_output: 64
    pad: 2
    kernel_size: 5
    stride: 1
    weight_filler {
      type: "gaussian"
      std: 0.01
    }
    bias_filler {
      type: "constant"
    }
  }
}
layer {
  name: "relu4"
  type: "ReLU"
  bottom: "conv4"
  top: "conv4"
}
layer {
  name: "conv5"
  type: "Convolution"
  bottom: "conv4"
  top: "conv5"
  param {
    lr_mult: 1
  }
  param {
    lr_mult: 2
  }
  convolution_param {
    num_output: 64
    pad: 2
    kernel_size: 5
    stride: 1
    weight_filler {
      type: "gaussian"
      std: 0.01
    }
    bias_filler {
      type: "constant"
    }
  }
}
layer {
  name: "relu5"
  type: "ReLU"
  bottom: "conv5"
  top: "conv5"
}
layer {
  name: "pool5"
  type: "Pooling"
  bottom: "conv5"
  top: "pool5"
  pooling_param {
    pool: AVE
    kernel_size: 3
    stride: 2
  }
}
layer {
  name: "ip1"
  type: "InnerProduct"
  bottom: "pool5"
  top: "ip1"
  param {
    lr_mult: 1
  }
  param {
    lr_mult: 2
  }
  inner_product_param {
    num_output: 64
    weight_filler {
      type: "gaussian"
      std: 0.1
    }
    bias_filler {
      type: "constant"
    }
  }
}
layer {
  name: "ip2"
  type: "InnerProduct"
  bottom: "ip1"
  top: "ip2"
  param {
    lr_mult: 1
  }
  param {
    lr_mult: 2
  }
  inner_product_param {
    num_output: 64
    weight_filler {
      type: "gaussian"
      std: 0.1
    }
    bias_filler {
      type: "constant"
    }
  }
}
layer {
  name: "ip3"
  type: "InnerProduct"
  bottom: "ip2"
  top: "ip3"
  param {
    lr_mult: 1
  }
  param {
    lr_mult: 2
  }
  inner_product_param {
    num_output: 1
    weight_filler {
      type: "gaussian"
      std: 0.1
    }
    bias_filler {
      type: "constant"
    }
  }
}
layer {
  name: "loss"
  type: "HuberLoss"
  bottom: "ip3"
  bottom: "label"
  top: "loss"
  include {
    phase: TRAIN
  }
}
I0507 12:54:11.942551  1663 layer_factory.hpp:77] Creating layer parameters
I0507 12:54:11.942564  1663 net.cpp:94] Creating Layer parameters
I0507 12:54:11.942569  1663 net.cpp:409] parameters -> data
I0507 12:54:11.942579  1663 net.cpp:409] parameters -> label
I0507 12:54:11.942589  1663 hdf5_data_layer.cpp:79] Loading list of HDF5 filenames from: /home/purduethu/scratch/radon/d/deng106/CNNStatisticalModel/distributions/input/20_distributions_100_sample_size_train-parameters-path.txt
I0507 12:54:11.942605  1663 hdf5_data_layer.cpp:93] Number of HDF5 files: 1
I0507 12:54:11.943125  1663 hdf5.cpp:32] Datatype class: H5T_FLOAT
I0507 12:54:12.010112  1663 net.cpp:144] Setting up parameters
I0507 12:54:12.010143  1663 net.cpp:151] Top shape: 20 1 10 10 (2000)
I0507 12:54:12.010149  1663 net.cpp:151] Top shape: 20 (20)
I0507 12:54:12.010151  1663 net.cpp:159] Memory required for data: 8080
I0507 12:54:12.010157  1663 layer_factory.hpp:77] Creating layer conv1
I0507 12:54:12.010177  1663 net.cpp:94] Creating Layer conv1
I0507 12:54:12.010182  1663 net.cpp:435] conv1 <- data
I0507 12:54:12.010188  1663 net.cpp:409] conv1 -> conv1
I0507 12:54:12.014428  1663 net.cpp:144] Setting up conv1
I0507 12:54:12.014444  1663 net.cpp:151] Top shape: 20 64 10 10 (128000)
I0507 12:54:12.014448  1663 net.cpp:159] Memory required for data: 520080
I0507 12:54:12.014457  1663 layer_factory.hpp:77] Creating layer relu1
I0507 12:54:12.014466  1663 net.cpp:94] Creating Layer relu1
I0507 12:54:12.014469  1663 net.cpp:435] relu1 <- conv1
I0507 12:54:12.014474  1663 net.cpp:396] relu1 -> conv1 (in-place)
I0507 12:54:12.014485  1663 net.cpp:144] Setting up relu1
I0507 12:54:12.014490  1663 net.cpp:151] Top shape: 20 64 10 10 (128000)
I0507 12:54:12.014493  1663 net.cpp:159] Memory required for data: 1032080
I0507 12:54:12.014497  1663 layer_factory.hpp:77] Creating layer conv2
I0507 12:54:12.014504  1663 net.cpp:94] Creating Layer conv2
I0507 12:54:12.014508  1663 net.cpp:435] conv2 <- conv1
I0507 12:54:12.014513  1663 net.cpp:409] conv2 -> conv2
I0507 12:54:12.019846  1663 net.cpp:144] Setting up conv2
I0507 12:54:12.019860  1663 net.cpp:151] Top shape: 20 64 10 10 (128000)
I0507 12:54:12.019865  1663 net.cpp:159] Memory required for data: 1544080
I0507 12:54:12.019872  1663 layer_factory.hpp:77] Creating layer relu2
I0507 12:54:12.019878  1663 net.cpp:94] Creating Layer relu2
I0507 12:54:12.019882  1663 net.cpp:435] relu2 <- conv2
I0507 12:54:12.019887  1663 net.cpp:396] relu2 -> conv2 (in-place)
I0507 12:54:12.019894  1663 net.cpp:144] Setting up relu2
I0507 12:54:12.019898  1663 net.cpp:151] Top shape: 20 64 10 10 (128000)
I0507 12:54:12.019901  1663 net.cpp:159] Memory required for data: 2056080
I0507 12:54:12.019904  1663 layer_factory.hpp:77] Creating layer pool2
I0507 12:54:12.019915  1663 net.cpp:94] Creating Layer pool2
I0507 12:54:12.019919  1663 net.cpp:435] pool2 <- conv2
I0507 12:54:12.019923  1663 net.cpp:409] pool2 -> pool2
I0507 12:54:12.019979  1663 net.cpp:144] Setting up pool2
I0507 12:54:12.019987  1663 net.cpp:151] Top shape: 20 64 5 5 (32000)
I0507 12:54:12.019990  1663 net.cpp:159] Memory required for data: 2184080
I0507 12:54:12.019994  1663 layer_factory.hpp:77] Creating layer conv3
I0507 12:54:12.020001  1663 net.cpp:94] Creating Layer conv3
I0507 12:54:12.020005  1663 net.cpp:435] conv3 <- pool2
I0507 12:54:12.020009  1663 net.cpp:409] conv3 -> conv3
I0507 12:54:12.024972  1663 net.cpp:144] Setting up conv3
I0507 12:54:12.024986  1663 net.cpp:151] Top shape: 20 64 5 5 (32000)
I0507 12:54:12.024989  1663 net.cpp:159] Memory required for data: 2312080
I0507 12:54:12.024997  1663 layer_factory.hpp:77] Creating layer relu3
I0507 12:54:12.025002  1663 net.cpp:94] Creating Layer relu3
I0507 12:54:12.025007  1663 net.cpp:435] relu3 <- conv3
I0507 12:54:12.025012  1663 net.cpp:396] relu3 -> conv3 (in-place)
I0507 12:54:12.025018  1663 net.cpp:144] Setting up relu3
I0507 12:54:12.025022  1663 net.cpp:151] Top shape: 20 64 5 5 (32000)
I0507 12:54:12.025025  1663 net.cpp:159] Memory required for data: 2440080
I0507 12:54:12.025028  1663 layer_factory.hpp:77] Creating layer conv4
I0507 12:54:12.025037  1663 net.cpp:94] Creating Layer conv4
I0507 12:54:12.025039  1663 net.cpp:435] conv4 <- conv3
I0507 12:54:12.025044  1663 net.cpp:409] conv4 -> conv4
I0507 12:54:12.029531  1663 net.cpp:144] Setting up conv4
I0507 12:54:12.029543  1663 net.cpp:151] Top shape: 20 64 5 5 (32000)
I0507 12:54:12.029546  1663 net.cpp:159] Memory required for data: 2568080
I0507 12:54:12.029553  1663 layer_factory.hpp:77] Creating layer relu4
I0507 12:54:12.029558  1663 net.cpp:94] Creating Layer relu4
I0507 12:54:12.029562  1663 net.cpp:435] relu4 <- conv4
I0507 12:54:12.029567  1663 net.cpp:396] relu4 -> conv4 (in-place)
I0507 12:54:12.029573  1663 net.cpp:144] Setting up relu4
I0507 12:54:12.029578  1663 net.cpp:151] Top shape: 20 64 5 5 (32000)
I0507 12:54:12.029582  1663 net.cpp:159] Memory required for data: 2696080
I0507 12:54:12.029584  1663 layer_factory.hpp:77] Creating layer conv5
I0507 12:54:12.029592  1663 net.cpp:94] Creating Layer conv5
I0507 12:54:12.029595  1663 net.cpp:435] conv5 <- conv4
I0507 12:54:12.029600  1663 net.cpp:409] conv5 -> conv5
I0507 12:54:12.035346  1663 net.cpp:144] Setting up conv5
I0507 12:54:12.035359  1663 net.cpp:151] Top shape: 20 64 5 5 (32000)
I0507 12:54:12.035362  1663 net.cpp:159] Memory required for data: 2824080
I0507 12:54:12.035372  1663 layer_factory.hpp:77] Creating layer relu5
I0507 12:54:12.035377  1663 net.cpp:94] Creating Layer relu5
I0507 12:54:12.035380  1663 net.cpp:435] relu5 <- conv5
I0507 12:54:12.035384  1663 net.cpp:396] relu5 -> conv5 (in-place)
I0507 12:54:12.035392  1663 net.cpp:144] Setting up relu5
I0507 12:54:12.035396  1663 net.cpp:151] Top shape: 20 64 5 5 (32000)
I0507 12:54:12.035399  1663 net.cpp:159] Memory required for data: 2952080
I0507 12:54:12.035403  1663 layer_factory.hpp:77] Creating layer pool5
I0507 12:54:12.035408  1663 net.cpp:94] Creating Layer pool5
I0507 12:54:12.035410  1663 net.cpp:435] pool5 <- conv5
I0507 12:54:12.035414  1663 net.cpp:409] pool5 -> pool5
I0507 12:54:12.035454  1663 net.cpp:144] Setting up pool5
I0507 12:54:12.035462  1663 net.cpp:151] Top shape: 20 64 2 2 (5120)
I0507 12:54:12.035465  1663 net.cpp:159] Memory required for data: 2972560
I0507 12:54:12.035468  1663 layer_factory.hpp:77] Creating layer ip1
I0507 12:54:12.035478  1663 net.cpp:94] Creating Layer ip1
I0507 12:54:12.035482  1663 net.cpp:435] ip1 <- pool5
I0507 12:54:12.035487  1663 net.cpp:409] ip1 -> ip1
I0507 12:54:12.036811  1663 net.cpp:144] Setting up ip1
I0507 12:54:12.036825  1663 net.cpp:151] Top shape: 20 64 (1280)
I0507 12:54:12.036829  1663 net.cpp:159] Memory required for data: 2977680
I0507 12:54:12.036835  1663 layer_factory.hpp:77] Creating layer ip2
I0507 12:54:12.036842  1663 net.cpp:94] Creating Layer ip2
I0507 12:54:12.036854  1663 net.cpp:435] ip2 <- ip1
I0507 12:54:12.036859  1663 net.cpp:409] ip2 -> ip2
I0507 12:54:12.037078  1663 net.cpp:144] Setting up ip2
I0507 12:54:12.037086  1663 net.cpp:151] Top shape: 20 64 (1280)
I0507 12:54:12.037089  1663 net.cpp:159] Memory required for data: 2982800
I0507 12:54:12.037094  1663 layer_factory.hpp:77] Creating layer ip3
I0507 12:54:12.037101  1663 net.cpp:94] Creating Layer ip3
I0507 12:54:12.037104  1663 net.cpp:435] ip3 <- ip2
I0507 12:54:12.037109  1663 net.cpp:409] ip3 -> ip3
I0507 12:54:12.037220  1663 net.cpp:144] Setting up ip3
I0507 12:54:12.037226  1663 net.cpp:151] Top shape: 20 1 (20)
I0507 12:54:12.037230  1663 net.cpp:159] Memory required for data: 2982880
I0507 12:54:12.037235  1663 layer_factory.hpp:77] Creating layer loss
I0507 12:54:12.037245  1663 net.cpp:94] Creating Layer loss
I0507 12:54:12.037248  1663 net.cpp:435] loss <- ip3
I0507 12:54:12.037252  1663 net.cpp:435] loss <- label
I0507 12:54:12.037256  1663 net.cpp:409] loss -> loss
I0507 12:54:12.037309  1663 net.cpp:144] Setting up loss
…
I0507 12:54:12.074228  1663 net.cpp:323] The NetState phase (0) differed from the phase (1) specified by a rule in layer intercept
I0507 12:54:12.074242  1663 net.cpp:323] The NetState phase (0) differed from the phase (1) specified by a rule in layer accuracy
I0507 12:54:12.074329  1663 net.cpp:52] Initializing net from parameters: 
state {
  phase: TRAIN
}
layer {
  name: "parameters"
  type: "HDF5Data"
  top: "data"
  top: "label"
  include {
    phase: TRAIN
  }
  hdf5_data_param {
    source: "/home/purduethu/scratch/radon/d/deng106/CNNStatisticalModel/distributions/input/20_distributions_100_sample_size_train-distributions-path.txt"
    batch_size: 20
  }
}
layer {
  name: "conv1"
  type: "Convolution"
  bottom: "data"
  top: "conv1"
  param {
    lr_mult: 1
  }
  param {
    lr_mult: 2
  }
  convolution_param {
    num_output: 64
    pad: 2
    kernel_size: 5
    stride: 1
    weight_filler {
      type: "gaussian"
      std: 0.0001
    }
    bias_filler {
      type: "constant"
    }
  }
}
layer {
  name: "relu1"
  type: "ReLU"
  bottom: "conv1"
  top: "conv1"
}
layer {
  name: "conv2"
  type: "Convolution"
  bottom: "conv1"
  top: "conv2"
  param {
    lr_mult: 1
  }
  param {
    lr_mult: 2
  }
  convolution_param {
    num_output: 64
    pad: 2
    kernel_size: 5
    stride: 1
    weight_filler {
      type: "gaussian"
      std: 0.01
    }
    bias_filler {
      type: "constant"
    }
  }
}
layer {
  name: "relu2"
  type: "ReLU"
  bottom: "conv2"
  top: "conv2"
}
layer {
  name: "pool2"
  type: "Pooling"
  bottom: "conv2"
  top: "pool2"
  pooling_param {
    pool: MAX
    kernel_size: 3
    stride: 2
  }
}
layer {
  name: "conv3"
  type: "Convolution"
  bottom: "pool2"
  top: "conv3"
  param {
    lr_mult: 1
  }
  param {
    lr_mult: 2
  }
  convolution_param {
    num_output: 64
    pad: 2
    kernel_size: 5
    stride: 1
    weight_filler {
      type: "gaussian"
      std: 0.01
    }
    bias_filler {
      type: "constant"
    }
  }
}
layer {
  name: "relu3"
  type: "ReLU"
  bottom: "conv3"
  top: "conv3"
}
layer {
  name: "conv4"
  type: "Convolution"
  bottom: "conv3"
  top: "conv4"
  param {
    lr_mult: 1
  }
  param {
    lr_mult: 2
  }
  convolution_param {
    num_output: 64
    pad: 2
    kernel_size: 5
    stride: 1
    weight_filler {
      type: "gaussian"
      std: 0.01
    }
    bias_filler {
      type: "constant"
    }
  }
}
layer {
  name: "relu4"
  type: "ReLU"
  bottom: "conv4"
  top: "conv4"
}
layer {
  name: "conv5"
  type: "Convolution"
  bottom: "conv4"
  top: "conv5"
  param {
    lr_mult: 1
  }
  param {
    lr_mult: 2
  }
  convolution_param {
    num_output: 64
    pad: 2
    kernel_size: 5
    stride: 1
    weight_filler {
      type: "gaussian"
      std: 0.01
    }
    bias_filler {
      type: "constant"
    }
  }
}
layer {
  name: "relu5"
  type: "ReLU"
  bottom: "conv5"
  top: "conv5"
}
layer {
  name: "pool5"
  type: "Pooling"
  bottom: "conv5"
  top: "pool5"
  pooling_param {
    pool: AVE
    kernel_size: 3
    stride: 2
  }
}
layer {
  name: "ip1"
  type: "InnerProduct"
  bottom: "pool5"
  top: "ip1"
  param {
    lr_mult: 1
  }
  param {
    lr_mult: 2
  }
  inner_product_param {
    num_output: 64
    weight_filler {
      type: "gaussian"
      std: 0.1
    }
    bias_filler {
      type: "constant"
    }
  }
}
layer {
  name: "ip2"
  type: "InnerProduct"
  bottom: "ip1"
  top: "ip2"
  param {
    lr_mult: 1
  }
  param {
    lr_mult: 2
  }
  inner_product_param {
    num_output: 64
    weight_filler {
      type: "gaussian"
      std: 0.1
    }
    bias_filler {
      type: "constant"
    }
  }
}
layer {
  name: "ip3"
  type: "InnerProduct"
  bottom: "ip2"
  top: "ip3"
  param {
    lr_mult: 1
  }
  param {
    lr_mult: 2
  }
  inner_product_param {
    num_output: 50
    weight_filler {
      type: "gaussian"
      std: 0.1
    }
    bias_filler {
      type: "constant"
    }
  }
}
layer {
  name: "loss"
  type: "SoftmaxWithLoss"
  bottom: "ip3"
  bottom: "label"
  top: "loss"
}
I0507 12:54:12.074380  1663 layer_factory.hpp:77] Creating layer parameters
I0507 12:54:12.074389  1663 net.cpp:94] Creating Layer parameters
I0507 12:54:12.074394  1663 net.cpp:409] parameters -> data
I0507 12:54:12.074400  1663 net.cpp:409] parameters -> label
I0507 12:54:12.074406  1663 hdf5_data_layer.cpp:79] Loading list of HDF5 filenames from: /home/purduethu/scratch/radon/d/deng106/CNNStatisticalModel/distributions/input/20_distributions_100_sample_size_train-distributions-path.txt
I0507 12:54:12.074422  1663 hdf5_data_layer.cpp:93] Number of HDF5 files: 1
I0507 12:54:12.138389  1663 hdf5.cpp:35] Datatype class: H5T_INTEGER
I0507 12:54:12.140377  1663 net.cpp:144] Setting up parameters
I0507 12:54:12.140391  1663 net.cpp:151] Top shape: 20 1 10 10 (2000)
I0507 12:54:12.140396  1663 net.cpp:151] Top shape: 20 (20)
I0507 12:54:12.140399  1663 net.cpp:159] Memory required for data: 8080
I0507 12:54:12.140405  1663 layer_factory.hpp:77] Creating layer conv1
I0507 12:54:12.140421  1663 net.cpp:94] Creating Layer conv1
I0507 12:54:12.140425  1663 net.cpp:435] conv1 <- data
I0507 12:54:12.140431  1663 net.cpp:409] conv1 -> conv1
I0507 12:54:12.142312  1663 net.cpp:144] Setting up conv1
I0507 12:54:12.142325  1663 net.cpp:151] Top shape: 20 64 10 10 (128000)
I0507 12:54:12.142329  1663 net.cpp:159] Memory required for data: 520080
I0507 12:54:12.142338  1663 layer_factory.hpp:77] Creating layer relu1
I0507 12:54:12.142346  1663 net.cpp:94] Creating Layer relu1
I0507 12:54:12.142349  1663 net.cpp:435] relu1 <- conv1
I0507 12:54:12.142354  1663 net.cpp:396] relu1 -> conv1 (in-place)
I0507 12:54:12.142361  1663 net.cpp:144] Setting up relu1
I0507 12:54:12.142365  1663 net.cpp:151] Top shape: 20 64 10 10 (128000)
I0507 12:54:12.142369  1663 net.cpp:159] Memory required for data: 1032080
I0507 12:54:12.142371  1663 layer_factory.hpp:77] Creating layer conv2
I0507 12:54:12.142379  1663 net.cpp:94] Creating Layer conv2
I0507 12:54:12.142382  1663 net.cpp:435] conv2 <- conv1
I0507 12:54:12.142386  1663 net.cpp:409] conv2 -> conv2
I0507 12:54:12.147737  1663 net.cpp:144] Setting up conv2
I0507 12:54:12.147749  1663 net.cpp:151] Top shape: 20 64 10 10 (128000)
I0507 12:54:12.147753  1663 net.cpp:159] Memory required for data: 1544080
I0507 12:54:12.147761  1663 layer_factory.hpp:77] Creating layer relu2
I0507 12:54:12.147768  1663 net.cpp:94] Creating Layer relu2
I0507 12:54:12.147771  1663 net.cpp:435] relu2 <- conv2
I0507 12:54:12.147775  1663 net.cpp:396] relu2 -> conv2 (in-place)
I0507 12:54:12.147783  1663 net.cpp:144] Setting up relu2
I0507 12:54:12.147786  1663 net.cpp:151] Top shape: 20 64 10 10 (128000)
I0507 12:54:12.147789  1663 net.cpp:159] Memory required for data: 2056080
I0507 12:54:12.147792  1663 layer_factory.hpp:77] Creating layer pool2
I0507 12:54:12.147799  1663 net.cpp:94] Creating Layer pool2
I0507 12:54:12.147801  1663 net.cpp:435] pool2 <- conv2
I0507 12:54:12.147805  1663 net.cpp:409] pool2 -> pool2
I0507 12:54:12.147860  1663 net.cpp:144] Setting up pool2
I0507 12:54:12.147867  1663 net.cpp:151] Top shape: 20 64 5 5 (32000)
I0507 12:54:12.147871  1663 net.cpp:159] Memory required for data: 2184080
I0507 12:54:12.147873  1663 layer_factory.hpp:77] Creating layer conv3
I0507 12:54:12.147881  1663 net.cpp:94] Creating Layer conv3
I0507 12:54:12.147884  1663 net.cpp:435] conv3 <- pool2
I0507 12:54:12.147889  1663 net.cpp:409] conv3 -> conv3
I0507 12:54:12.152845  1663 net.cpp:144] Setting up conv3
I0507 12:54:12.152859  1663 net.cpp:151] Top shape: 20 64 5 5 (32000)
I0507 12:54:12.152863  1663 net.cpp:159] Memory required for data: 2312080
I0507 12:54:12.152871  1663 layer_factory.hpp:77] Creating layer relu3
I0507 12:54:12.152876  1663 net.cpp:94] Creating Layer relu3
I0507 12:54:12.152880  1663 net.cpp:435] relu3 <- conv3
I0507 12:54:12.152884  1663 net.cpp:396] relu3 -> conv3 (in-place)
I0507 12:54:12.152891  1663 net.cpp:144] Setting up relu3
I0507 12:54:12.152895  1663 net.cpp:151] Top shape: 20 64 5 5 (32000)
I0507 12:54:12.152899  1663 net.cpp:159] Memory required for data: 2440080
I0507 12:54:12.152901  1663 layer_factory.hpp:77] Creating layer conv4
I0507 12:54:12.152909  1663 net.cpp:94] Creating Layer conv4
I0507 12:54:12.152914  1663 net.cpp:435] conv4 <- conv3
I0507 12:54:12.152917  1663 net.cpp:409] conv4 -> conv4
I0507 12:54:12.157876  1663 net.cpp:144] Setting up conv4
I0507 12:54:12.157889  1663 net.cpp:151] Top shape: 20 64 5 5 (32000)
I0507 12:54:12.157893  1663 net.cpp:159] Memory required for data: 2568080
I0507 12:54:12.157899  1663 layer_factory.hpp:77] Creating layer relu4
I0507 12:54:12.157905  1663 net.cpp:94] Creating Layer relu4
I0507 12:54:12.157909  1663 net.cpp:435] relu4 <- conv4
I0507 12:54:12.157913  1663 net.cpp:396] relu4 -> conv4 (in-place)
I0507 12:54:12.157920  1663 net.cpp:144] Setting up relu4
I0507 12:54:12.157924  1663 net.cpp:151] Top shape: 20 64 5 5 (32000)
I0507 12:54:12.157927  1663 net.cpp:159] Memory required for data: 2696080
I0507 12:54:12.157930  1663 layer_factory.hpp:77] Creating layer conv5
I0507 12:54:12.157938  1663 net.cpp:94] Creating Layer conv5
I0507 12:54:12.157941  1663 net.cpp:435] conv5 <- conv4
I0507 12:54:12.157945  1663 net.cpp:409] conv5 -> conv5
I0507 12:54:12.163285  1663 net.cpp:144] Setting up conv5
I0507 12:54:12.163298  1663 net.cpp:151] Top shape: 20 64 5 5 (32000)
I0507 12:54:12.163301  1663 net.cpp:159] Memory required for data: 2824080
I0507 12:54:12.163311  1663 layer_factory.hpp:77] Creating layer relu5
I0507 12:54:12.163316  1663 net.cpp:94] Creating Layer relu5
I0507 12:54:12.163319  1663 net.cpp:435] relu5 <- conv5
I0507 12:54:12.163324  1663 net.cpp:396] relu5 -> conv5 (in-place)
I0507 12:54:12.163331  1663 net.cpp:144] Setting up relu5
I0507 12:54:12.163336  1663 net.cpp:151] Top shape: 20 64 5 5 (32000)
I0507 12:54:12.163338  1663 net.cpp:159] Memory required for data: 2952080
I0507 12:54:12.163341  1663 layer_factory.hpp:77] Creating layer pool5
I0507 12:54:12.163347  1663 net.cpp:94] Creating Layer pool5
I0507 12:54:12.163349  1663 net.cpp:435] pool5 <- conv5
I0507 12:54:12.163353  1663 net.cpp:409] pool5 -> pool5
I0507 12:54:12.163389  1663 net.cpp:144] Setting up pool5
I0507 12:54:12.163398  1663 net.cpp:151] Top shape: 20 64 2 2 (5120)
I0507 12:54:12.163400  1663 net.cpp:159] Memory required for data: 2972560
I0507 12:54:12.163403  1663 layer_factory.hpp:77] Creating layer ip1
I0507 12:54:12.163409  1663 net.cpp:94] Creating Layer ip1
I0507 12:54:12.163413  1663 net.cpp:435] ip1 <- pool5
I0507 12:54:12.163417  1663 net.cpp:409] ip1 -> ip1
I0507 12:54:12.163938  1663 net.cpp:144] Setting up ip1
I0507 12:54:12.163946  1663 net.cpp:151] Top shape: 20 64 (1280)
I0507 12:54:12.163950  1663 net.cpp:159] Memory required for data: 2977680
I0507 12:54:12.163955  1663 layer_factory.hpp:77] Creating layer ip2
I0507 12:54:12.163961  1663 net.cpp:94] Creating Layer ip2
I0507 12:54:12.163964  1663 net.cpp:435] ip2 <- ip1
I0507 12:54:12.163969  1663 net.cpp:409] ip2 -> ip2
I0507 12:54:12.164193  1663 net.cpp:144] Setting up ip2
I0507 12:54:12.164201  1663 net.cpp:151] Top shape: 20 64 (1280)
I0507 12:54:12.164203  1663 net.cpp:159] Memory required for data: 2982800
I0507 12:54:12.164208  1663 layer_factory.hpp:77] Creating layer ip3
I0507 12:54:12.164214  1663 net.cpp:94] Creating Layer ip3
I0507 12:54:12.164217  1663 net.cpp:435] ip3 <- ip2
I0507 12:54:12.164222  1663 net.cpp:409] ip3 -> ip3
I0507 12:54:12.164420  1663 net.cpp:144] Setting up ip3
I0507 12:54:12.164427  1663 net.cpp:151] Top shape: 20 50 (1000)
I0507 12:54:12.164434  1663 net.cpp:159] Memory required for data: 2986800
I0507 12:54:12.164440  1663 layer_factory.hpp:77] Creating layer loss
I0507 12:54:12.164448  1663 net.cpp:94] Creating Layer loss
I0507 12:54:12.164450  1663 net.cpp:435] loss <- ip3
I0507 12:54:12.164454  1663 net.cpp:435] loss <- label
I0507 12:54:12.164458  1663 net.cpp:409] loss -> loss
I0507 12:54:12.164465  1663 layer_factory.hpp:77] Creating layer loss
…
I0507 12:54:12.165817  1663 solver.cpp:181] Creating test net (#0) specified by net file: ./protocol/dis_20_100_dimension.protocol_distribution
I0507 12:54:12.165843  1663 net.cpp:323] The NetState phase (1) differed from the phase (0) specified by a rule in layer parameters
I0507 12:54:12.165937  1663 net.cpp:52] Initializing net from parameters: 
state {
  phase: TEST
}
layer {
  name: "intercept"
  type: "HDF5Data"
  top: "data"
  top: "label"
  include {
    phase: TEST
  }
  hdf5_data_param {
    source: "/home/purduethu/scratch/radon/d/deng106/CNNStatisticalModel/distributions/input/20_distributions_100_sample_size_test-distributions-path.txt"
    batch_size: 20
  }
}
layer {
  name: "conv1"
  type: "Convolution"
  bottom: "data"
  top: "conv1"
  param {
    lr_mult: 1
  }
  param {
    lr_mult: 2
  }
  convolution_param {
    num_output: 64
    pad: 2
    kernel_size: 5
    stride: 1
    weight_filler {
      type: "gaussian"
      std: 0.0001
    }
    bias_filler {
      type: "constant"
    }
  }
}
layer {
  name: "relu1"
  type: "ReLU"
  bottom: "conv1"
  top: "conv1"
}
layer {
  name: "conv2"
  type: "Convolution"
  bottom: "conv1"
  top: "conv2"
  param {
    lr_mult: 1
  }
  param {
    lr_mult: 2
  }
  convolution_param {
    num_output: 64
    pad: 2
    kernel_size: 5
    stride: 1
    weight_filler {
      type: "gaussian"
      std: 0.01
    }
    bias_filler {
      type: "constant"
    }
  }
}
layer {
  name: "relu2"
  type: "ReLU"
  bottom: "conv2"
  top: "conv2"
}
layer {
  name: "pool2"
  type: "Pooling"
  bottom: "conv2"
  top: "pool2"
  pooling_param {
    pool: MAX
    kernel_size: 3
    stride: 2
  }
}
layer {
  name: "conv3"
  type: "Convolution"
  bottom: "pool2"
  top: "conv3"
  param {
    lr_mult: 1
  }
  param {
    lr_mult: 2
  }
  convolution_param {
    num_output: 64
    pad: 2
    kernel_size: 5
    stride: 1
    weight_filler {
      type: "gaussian"
      std: 0.01
    }
    bias_filler {
      type: "constant"
    }
  }
}
layer {
  name: "relu3"
  type: "ReLU"
  bottom: "conv3"
  top: "conv3"
}
layer {
  name: "conv4"
  type: "Convolution"
  bottom: "conv3"
  top: "conv4"
  param {
    lr_mult: 1
  }
  param {
    lr_mult: 2
  }
  convolution_param {
    num_output: 64
    pad: 2
    kernel_size: 5
    stride: 1
    weight_filler {
      type: "gaussian"
      std: 0.01
    }
    bias_filler {
      type: "constant"
    }
  }
}
layer {
  name: "relu4"
  type: "ReLU"
  bottom: "conv4"
  top: "conv4"
}
layer {
  name: "conv5"
  type: "Convolution"
  bottom: "conv4"
  top: "conv5"
  param {
    lr_mult: 1
  }
  param {
    lr_mult: 2
  }
  convolution_param {
    num_output: 64
    pad: 2
    kernel_size: 5
    stride: 1
    weight_filler {
      type: "gaussian"
      std: 0.01
    }
    bias_filler {
      type: "constant"
    }
  }
}
layer {
  name: "relu5"
  type: "ReLU"
  bottom: "conv5"
  top: "conv5"
}
layer {
  name: "pool5"
  type: "Pooling"
  bottom: "conv5"
  top: "pool5"
  pooling_param {
    pool: AVE
    kernel_size: 3
    stride: 2
  }
}
layer {
  name: "ip1"
  type: "InnerProduct"
  bottom: "pool5"
  top: "ip1"
  param {
    lr_mult: 1
  }
  param {
    lr_mult: 2
  }
  inner_product_param {
    num_output: 64
    weight_filler {
      type: "gaussian"
      std: 0.1
    }
    bias_filler {
      type: "constant"
    }
  }
}
layer {
  name: "ip2"
  type: "InnerProduct"
  bottom: "ip1"
  top: "ip2"
  param {
    lr_mult: 1
  }
  param {
    lr_mult: 2
  }
  inner_product_param {
    num_output: 64
    weight_filler {
      type: "gaussian"
      std: 0.1
    }
    bias_filler {
      type: "constant"
    }
  }
}
layer {
  name: "ip3"
  type: "InnerProduct"
  bottom: "ip2"
  top: "ip3"
  param {
    lr_mult: 1
  }
  param {
    lr_mult: 2
  }
  inner_product_param {
    num_output: 50
    weight_filler {
      type: "gaussian"
      std: 0.1
    }
    bias_filler {
      type: "constant"
    }
  }
}
layer {
  name: "accuracy"
  type: "Accuracy"
  bottom: "ip3"
  bottom: "label"
  top: "accuracy"
  include {
    phase: TEST
  }
}
layer {
  name: "loss"
  type: "SoftmaxWithLoss"
  bottom: "ip3"
  bottom: "label"
  top: "loss"
}
I0507 12:54:12.166003  1663 layer_factory.hpp:77] Creating layer intercept
I0507 12:54:12.166013  1663 net.cpp:94] Creating Layer intercept
I0507 12:54:12.166018  1663 net.cpp:409] intercept -> data
I0507 12:54:12.166023  1663 net.cpp:409] intercept -> label
I0507 12:54:12.166030  1663 hdf5_data_layer.cpp:79] Loading list of HDF5 filenames from: /home/purduethu/scratch/radon/d/deng106/CNNStatisticalModel/distributions/input/20_distributions_100_sample_size_test-distributions-path.txt
I0507 12:54:12.166049  1663 hdf5_data_layer.cpp:93] Number of HDF5 files: 1
I0507 12:54:12.183257  1663 net.cpp:144] Setting up intercept
I0507 12:54:12.183290  1663 net.cpp:151] Top shape: 20 1 10 10 (2000)
I0507 12:54:12.183295  1663 net.cpp:151] Top shape: 20 (20)
I0507 12:54:12.183298  1663 net.cpp:159] Memory required for data: 8080
I0507 12:54:12.183305  1663 layer_factory.hpp:77] Creating layer label_intercept_1_split
I0507 12:54:12.183323  1663 net.cpp:94] Creating Layer label_intercept_1_split
I0507 12:54:12.183327  1663 net.cpp:435] label_intercept_1_split <- label
I0507 12:54:12.183334  1663 net.cpp:409] label_intercept_1_split -> label_intercept_1_split_0
I0507 12:54:12.183342  1663 net.cpp:409] label_intercept_1_split -> label_intercept_1_split_1
I0507 12:54:12.183385  1663 net.cpp:144] Setting up label_intercept_1_split
I0507 12:54:12.183392  1663 net.cpp:151] Top shape: 20 (20)
I0507 12:54:12.183395  1663 net.cpp:151] Top shape: 20 (20)
I0507 12:54:12.183398  1663 net.cpp:159] Memory required for data: 8240
I0507 12:54:12.183401  1663 layer_factory.hpp:77] Creating layer conv1
I0507 12:54:12.183411  1663 net.cpp:94] Creating Layer conv1
I0507 12:54:12.183415  1663 net.cpp:435] conv1 <- data
I0507 12:54:12.183419  1663 net.cpp:409] conv1 -> conv1
I0507 12:54:12.184234  1663 net.cpp:144] Setting up conv1
I0507 12:54:12.184247  1663 net.cpp:151] Top shape: 20 64 10 10 (128000)
I0507 12:54:12.184258  1663 net.cpp:159] Memory required for data: 520240
I0507 12:54:12.184268  1663 layer_factory.hpp:77] Creating layer relu1
I0507 12:54:12.184275  1663 net.cpp:94] Creating Layer relu1
I0507 12:54:12.184279  1663 net.cpp:435] relu1 <- conv1
I0507 12:54:12.184283  1663 net.cpp:396] relu1 -> conv1 (in-place)
I0507 12:54:12.184290  1663 net.cpp:144] Setting up relu1
I0507 12:54:12.184294  1663 net.cpp:151] Top shape: 20 64 10 10 (128000)
I0507 12:54:12.184298  1663 net.cpp:159] Memory required for data: 1032240
I0507 12:54:12.184300  1663 layer_factory.hpp:77] Creating layer conv2
I0507 12:54:12.184309  1663 net.cpp:94] Creating Layer conv2
I0507 12:54:12.184312  1663 net.cpp:435] conv2 <- conv1
I0507 12:54:12.184316  1663 net.cpp:409] conv2 -> conv2
I0507 12:54:12.188395  1663 net.cpp:144] Setting up conv2
I0507 12:54:12.188408  1663 net.cpp:151] Top shape: 20 64 10 10 (128000)
I0507 12:54:12.188412  1663 net.cpp:159] Memory required for data: 1544240
I0507 12:54:12.188419  1663 layer_factory.hpp:77] Creating layer relu2
I0507 12:54:12.188426  1663 net.cpp:94] Creating Layer relu2
I0507 12:54:12.188429  1663 net.cpp:435] relu2 <- conv2
I0507 12:54:12.188433  1663 net.cpp:396] relu2 -> conv2 (in-place)
I0507 12:54:12.188441  1663 net.cpp:144] Setting up relu2
I0507 12:54:12.188444  1663 net.cpp:151] Top shape: 20 64 10 10 (128000)
I0507 12:54:12.188447  1663 net.cpp:159] Memory required for data: 2056240
I0507 12:54:12.188450  1663 layer_factory.hpp:77] Creating layer pool2
I0507 12:54:12.188455  1663 net.cpp:94] Creating Layer pool2
I0507 12:54:12.188458  1663 net.cpp:435] pool2 <- conv2
I0507 12:54:12.188462  1663 net.cpp:409] pool2 -> pool2
I0507 12:54:12.188519  1663 net.cpp:144] Setting up pool2
I0507 12:54:12.188525  1663 net.cpp:151] Top shape: 20 64 5 5 (32000)
I0507 12:54:12.188529  1663 net.cpp:159] Memory required for data: 2184240
I0507 12:54:12.188531  1663 layer_factory.hpp:77] Creating layer conv3
I0507 12:54:12.188539  1663 net.cpp:94] Creating Layer conv3
I0507 12:54:12.188542  1663 net.cpp:435] conv3 <- pool2
I0507 12:54:12.188546  1663 net.cpp:409] conv3 -> conv3
I0507 12:54:12.192106  1663 net.cpp:144] Setting up conv3
I0507 12:54:12.192117  1663 net.cpp:151] Top shape: 20 64 5 5 (32000)
I0507 12:54:12.192121  1663 net.cpp:159] Memory required for data: 2312240
I0507 12:54:12.192129  1663 layer_factory.hpp:77] Creating layer relu3
I0507 12:54:12.192136  1663 net.cpp:94] Creating Layer relu3
I0507 12:54:12.192138  1663 net.cpp:435] relu3 <- conv3
I0507 12:54:12.192143  1663 net.cpp:396] relu3 -> conv3 (in-place)
I0507 12:54:12.192149  1663 net.cpp:144] Setting up relu3
I0507 12:54:12.192154  1663 net.cpp:151] Top shape: 20 64 5 5 (32000)
I0507 12:54:12.192157  1663 net.cpp:159] Memory required for data: 2440240
I0507 12:54:12.192159  1663 layer_factory.hpp:77] Creating layer conv4
I0507 12:54:12.192167  1663 net.cpp:94] Creating Layer conv4
I0507 12:54:12.192170  1663 net.cpp:435] conv4 <- conv3
I0507 12:54:12.192175  1663 net.cpp:409] conv4 -> conv4
I0507 12:54:12.195713  1663 net.cpp:144] Setting up conv4
I0507 12:54:12.195725  1663 net.cpp:151] Top shape: 20 64 5 5 (32000)
I0507 12:54:12.195729  1663 net.cpp:159] Memory required for data: 2568240
I0507 12:54:12.195734  1663 layer_factory.hpp:77] Creating layer relu4
I0507 12:54:12.195740  1663 net.cpp:94] Creating Layer relu4
I0507 12:54:12.195744  1663 net.cpp:435] relu4 <- conv4
I0507 12:54:12.195749  1663 net.cpp:396] relu4 -> conv4 (in-place)
I0507 12:54:12.195755  1663 net.cpp:144] Setting up relu4
I0507 12:54:12.195758  1663 net.cpp:151] Top shape: 20 64 5 5 (32000)
I0507 12:54:12.195761  1663 net.cpp:159] Memory required for data: 2696240
I0507 12:54:12.195765  1663 layer_factory.hpp:77] Creating layer conv5
I0507 12:54:12.195772  1663 net.cpp:94] Creating Layer conv5
I0507 12:54:12.195775  1663 net.cpp:435] conv5 <- conv4
I0507 12:54:12.195780  1663 net.cpp:409] conv5 -> conv5
I0507 12:54:12.199759  1663 net.cpp:144] Setting up conv5
I0507 12:54:12.199772  1663 net.cpp:151] Top shape: 20 64 5 5 (32000)
I0507 12:54:12.199775  1663 net.cpp:159] Memory required for data: 2824240
I0507 12:54:12.199787  1663 layer_factory.hpp:77] Creating layer relu5
I0507 12:54:12.199793  1663 net.cpp:94] Creating Layer relu5
I0507 12:54:12.199797  1663 net.cpp:435] relu5 <- conv5
I0507 12:54:12.199801  1663 net.cpp:396] relu5 -> conv5 (in-place)
I0507 12:54:12.199807  1663 net.cpp:144] Setting up relu5
I0507 12:54:12.199812  1663 net.cpp:151] Top shape: 20 64 5 5 (32000)
I0507 12:54:12.199815  1663 net.cpp:159] Memory required for data: 2952240
I0507 12:54:12.199818  1663 layer_factory.hpp:77] Creating layer pool5
I0507 12:54:12.199822  1663 net.cpp:94] Creating Layer pool5
I0507 12:54:12.199826  1663 net.cpp:435] pool5 <- conv5
I0507 12:54:12.199831  1663 net.cpp:409] pool5 -> pool5
I0507 12:54:12.199868  1663 net.cpp:144] Setting up pool5
I0507 12:54:12.199875  1663 net.cpp:151] Top shape: 20 64 2 2 (5120)
I0507 12:54:12.199878  1663 net.cpp:159] Memory required for data: 2972720
I0507 12:54:12.199882  1663 layer_factory.hpp:77] Creating layer ip1
I0507 12:54:12.199889  1663 net.cpp:94] Creating Layer ip1
I0507 12:54:12.199893  1663 net.cpp:435] ip1 <- pool5
I0507 12:54:12.199898  1663 net.cpp:409] ip1 -> ip1
I0507 12:54:12.200426  1663 net.cpp:144] Setting up ip1
I0507 12:54:12.200434  1663 net.cpp:151] Top shape: 20 64 (1280)
I0507 12:54:12.200438  1663 net.cpp:159] Memory required for data: 2977840
I0507 12:54:12.200443  1663 layer_factory.hpp:77] Creating layer ip2
I0507 12:54:12.200448  1663 net.cpp:94] Creating Layer ip2
I0507 12:54:12.200451  1663 net.cpp:435] ip2 <- ip1
I0507 12:54:12.200456  1663 net.cpp:409] ip2 -> ip2
I0507 12:54:12.200713  1663 net.cpp:144] Setting up ip2
I0507 12:54:12.200722  1663 net.cpp:151] Top shape: 20 64 (1280)
I0507 12:54:12.200726  1663 net.cpp:159] Memory required for data: 2982960
I0507 12:54:12.200731  1663 layer_factory.hpp:77] Creating layer ip3
I0507 12:54:12.200738  1663 net.cpp:94] Creating Layer ip3
I0507 12:54:12.200742  1663 net.cpp:435] ip3 <- ip2
I0507 12:54:12.200747  1663 net.cpp:409] ip3 -> ip3
I0507 12:54:12.200964  1663 net.cpp:144] Setting up ip3
I0507 12:54:12.200971  1663 net.cpp:151] Top shape: 20 50 (1000)
I0507 12:54:12.200974  1663 net.cpp:159] Memory required for data: 2986960
I0507 12:54:12.200979  1663 layer_factory.hpp:77] Creating layer ip3_ip3_0_split
I0507 12:54:12.200984  1663 net.cpp:94] Creating Layer ip3_ip3_0_split
I0507 12:54:12.200987  1663 net.cpp:435] ip3_ip3_0_split <- ip3
I0507 12:54:12.200994  1663 net.cpp:409] ip3_ip3_0_split -> ip3_ip3_0_split_0
I0507 12:54:12.201000  1663 net.cpp:409] ip3_ip3_0_split -> ip3_ip3_0_split_1
I0507 12:54:12.201043  1663 net.cpp:144] Setting up ip3_ip3_0_split
I0507 12:54:12.201050  1663 net.cpp:151] Top shape: 20 50 (1000)
I0507 12:54:12.201052  1663 net.cpp:151] Top shape: 20 50 (1000)
I0507 12:54:12.201056  1663 net.cpp:159] Memory required for data: 2994960
I0507 12:54:12.201058  1663 layer_factory.hpp:77] Creating layer accuracy
I0507 12:54:12.201063  1663 net.cpp:94] Creating Layer accuracy
I0507 12:54:12.201066  1663 net.cpp:435] accuracy <- ip3_ip3_0_split_0
I0507 12:54:12.201071  1663 net.cpp:435] accuracy <- label_intercept_1_split_0
I0507 12:54:12.201076  1663 net.cpp:409] accuracy -> accuracy
…
