…
I0507 01:57:01.309907 30793 net.cpp:323] The NetState phase (0) differed from the phase (1) specified by a rule in layer intercept
I0507 01:57:01.309934 30793 net.cpp:323] The NetState phase (0) differed from the phase (1) specified by a rule in layer loss
I0507 01:57:01.310070 30793 net.cpp:52] Initializing net from parameters: 
state {
  phase: TRAIN
}
layer {
  name: "parameters"
  type: "HDF5Data"
  top: "data"
  top: "label"
  include {
    phase: TRAIN
  }
  hdf5_data_param {
    source: "/home/purduethu/scratch/radon/d/deng106/CNNStatisticalModel/distributions/input/50_distributions_100_sample_size_train-parameters-path.txt"
    batch_size: 20
  }
}
layer {
  name: "conv1"
  type: "Convolution"
  bottom: "data"
  top: "conv1"
  param {
    lr_mult: 1
  }
  param {
    lr_mult: 2
  }
  convolution_param {
    num_output: 64
    pad: 2
    kernel_size: 5
    stride: 1
    weight_filler {
      type: "gaussian"
      std: 0.0001
    }
    bias_filler {
      type: "constant"
    }
  }
}
layer {
  name: "relu1"
  type: "ReLU"
  bottom: "conv1"
  top: "conv1"
}
layer {
  name: "conv2"
  type: "Convolution"
  bottom: "conv1"
  top: "conv2"
  param {
    lr_mult: 1
  }
  param {
    lr_mult: 2
  }
  convolution_param {
    num_output: 64
    pad: 2
    kernel_size: 5
    stride: 1
    weight_filler {
      type: "gaussian"
      std: 0.01
    }
    bias_filler {
      type: "constant"
    }
  }
}
layer {
  name: "relu2"
  type: "ReLU"
  bottom: "conv2"
  top: "conv2"
}
layer {
  name: "pool2"
  type: "Pooling"
  bottom: "conv2"
  top: "pool2"
  pooling_param {
    pool: MAX
    kernel_size: 3
    stride: 2
  }
}
layer {
  name: "conv3"
  type: "Convolution"
  bottom: "pool2"
  top: "conv3"
  param {
    lr_mult: 1
  }
  param {
    lr_mult: 2
  }
  convolution_param {
    num_output: 64
    pad: 2
    kernel_size: 5
    stride: 1
    weight_filler {
      type: "gaussian"
      std: 0.01
    }
    bias_filler {
      type: "constant"
    }
  }
}
layer {
  name: "relu3"
  type: "ReLU"
  bottom: "conv3"
  top: "conv3"
}
layer {
  name: "conv4"
  type: "Convolution"
  bottom: "conv3"
  top: "conv4"
  param {
    lr_mult: 1
  }
  param {
    lr_mult: 2
  }
  convolution_param {
    num_output: 64
    pad: 2
    kernel_size: 5
    stride: 1
    weight_filler {
      type: "gaussian"
      std: 0.01
    }
    bias_filler {
      type: "constant"
    }
  }
}
layer {
  name: "relu4"
  type: "ReLU"
  bottom: "conv4"
  top: "conv4"
}
layer {
  name: "conv5"
  type: "Convolution"
  bottom: "conv4"
  top: "conv5"
  param {
    lr_mult: 1
  }
  param {
    lr_mult: 2
  }
  convolution_param {
    num_output: 64
    pad: 2
    kernel_size: 5
    stride: 1
    weight_filler {
      type: "gaussian"
      std: 0.01
    }
    bias_filler {
      type: "constant"
    }
  }
}
layer {
  name: "relu5"
  type: "ReLU"
  bottom: "conv5"
  top: "conv5"
}
layer {
  name: "pool5"
  type: "Pooling"
  bottom: "conv5"
  top: "pool5"
  pooling_param {
    pool: AVE
    kernel_size: 3
    stride: 2
  }
}
layer {
  name: "ip1"
  type: "InnerProduct"
  bottom: "pool5"
  top: "ip1"
  param {
    lr_mult: 1
  }
  param {
    lr_mult: 2
  }
  inner_product_param {
    num_output: 64
    weight_filler {
      type: "gaussian"
      std: 0.1
    }
    bias_filler {
      type: "constant"
    }
  }
}
layer {
  name: "ip2"
  type: "InnerProduct"
  bottom: "ip1"
  top: "ip2"
  param {
    lr_mult: 1
  }
  param {
    lr_mult: 2
  }
  inner_product_param {
    num_output: 64
    weight_filler {
      type: "gaussian"
      std: 0.1
    }
    bias_filler {
      type: "constant"
    }
  }
}
layer {
  name: "ip3"
  type: "InnerProduct"
  bottom: "ip2"
  top: "ip3"
  param {
    lr_mult: 1
  }
  param {
    lr_mult: 2
  }
  inner_product_param {
    num_output: 1
    weight_filler {
      type: "gaussian"
      std: 0.1
    }
    bias_filler {
      type: "constant"
    }
  }
}
layer {
  name: "loss"
  type: "HuberLoss"
  bottom: "ip3"
  bottom: "label"
  top: "loss"
  include {
    phase: TRAIN
  }
}
I0507 01:57:01.310153 30793 layer_factory.hpp:77] Creating layer parameters
I0507 01:57:01.310175 30793 net.cpp:94] Creating Layer parameters
I0507 01:57:01.310185 30793 net.cpp:409] parameters -> data
I0507 01:57:01.310205 30793 net.cpp:409] parameters -> label
I0507 01:57:01.310215 30793 hdf5_data_layer.cpp:79] Loading list of HDF5 filenames from: /home/purduethu/scratch/radon/d/deng106/CNNStatisticalModel/distributions/input/50_distributions_100_sample_size_train-parameters-path.txt
I0507 01:57:01.310235 30793 hdf5_data_layer.cpp:93] Number of HDF5 files: 1
I0507 01:57:01.311027 30793 hdf5.cpp:32] Datatype class: H5T_FLOAT
I0507 01:57:01.529019 30793 net.cpp:144] Setting up parameters
I0507 01:57:01.529062 30793 net.cpp:151] Top shape: 20 1 10 10 (2000)
I0507 01:57:01.529073 30793 net.cpp:151] Top shape: 20 (20)
I0507 01:57:01.529079 30793 net.cpp:159] Memory required for data: 8080
I0507 01:57:01.529090 30793 layer_factory.hpp:77] Creating layer conv1
I0507 01:57:01.529111 30793 net.cpp:94] Creating Layer conv1
I0507 01:57:01.529119 30793 net.cpp:435] conv1 <- data
I0507 01:57:01.529129 30793 net.cpp:409] conv1 -> conv1
I0507 01:57:01.534708 30793 net.cpp:144] Setting up conv1
I0507 01:57:01.534729 30793 net.cpp:151] Top shape: 20 64 10 10 (128000)
I0507 01:57:01.534736 30793 net.cpp:159] Memory required for data: 520080
I0507 01:57:01.534754 30793 layer_factory.hpp:77] Creating layer relu1
I0507 01:57:01.534766 30793 net.cpp:94] Creating Layer relu1
I0507 01:57:01.534775 30793 net.cpp:435] relu1 <- conv1
I0507 01:57:01.534781 30793 net.cpp:396] relu1 -> conv1 (in-place)
I0507 01:57:01.534792 30793 net.cpp:144] Setting up relu1
I0507 01:57:01.534801 30793 net.cpp:151] Top shape: 20 64 10 10 (128000)
I0507 01:57:01.534806 30793 net.cpp:159] Memory required for data: 1032080
I0507 01:57:01.534811 30793 layer_factory.hpp:77] Creating layer conv2
I0507 01:57:01.534823 30793 net.cpp:94] Creating Layer conv2
I0507 01:57:01.534829 30793 net.cpp:435] conv2 <- conv1
I0507 01:57:01.534838 30793 net.cpp:409] conv2 -> conv2
I0507 01:57:01.542711 30793 net.cpp:144] Setting up conv2
I0507 01:57:01.542729 30793 net.cpp:151] Top shape: 20 64 10 10 (128000)
I0507 01:57:01.542737 30793 net.cpp:159] Memory required for data: 1544080
I0507 01:57:01.542749 30793 layer_factory.hpp:77] Creating layer relu2
I0507 01:57:01.542760 30793 net.cpp:94] Creating Layer relu2
I0507 01:57:01.542768 30793 net.cpp:435] relu2 <- conv2
I0507 01:57:01.542775 30793 net.cpp:396] relu2 -> conv2 (in-place)
I0507 01:57:01.542788 30793 net.cpp:144] Setting up relu2
I0507 01:57:01.542796 30793 net.cpp:151] Top shape: 20 64 10 10 (128000)
I0507 01:57:01.542803 30793 net.cpp:159] Memory required for data: 2056080
I0507 01:57:01.542809 30793 layer_factory.hpp:77] Creating layer pool2
I0507 01:57:01.542819 30793 net.cpp:94] Creating Layer pool2
I0507 01:57:01.542826 30793 net.cpp:435] pool2 <- conv2
I0507 01:57:01.542834 30793 net.cpp:409] pool2 -> pool2
I0507 01:57:01.542917 30793 net.cpp:144] Setting up pool2
I0507 01:57:01.542930 30793 net.cpp:151] Top shape: 20 64 5 5 (32000)
I0507 01:57:01.542937 30793 net.cpp:159] Memory required for data: 2184080
I0507 01:57:01.542943 30793 layer_factory.hpp:77] Creating layer conv3
I0507 01:57:01.542956 30793 net.cpp:94] Creating Layer conv3
I0507 01:57:01.542973 30793 net.cpp:435] conv3 <- pool2
I0507 01:57:01.542989 30793 net.cpp:409] conv3 -> conv3
I0507 01:57:01.549299 30793 net.cpp:144] Setting up conv3
I0507 01:57:01.549319 30793 net.cpp:151] Top shape: 20 64 5 5 (32000)
I0507 01:57:01.549326 30793 net.cpp:159] Memory required for data: 2312080
I0507 01:57:01.549340 30793 layer_factory.hpp:77] Creating layer relu3
I0507 01:57:01.549351 30793 net.cpp:94] Creating Layer relu3
I0507 01:57:01.549360 30793 net.cpp:435] relu3 <- conv3
I0507 01:57:01.549368 30793 net.cpp:396] relu3 -> conv3 (in-place)
I0507 01:57:01.549381 30793 net.cpp:144] Setting up relu3
I0507 01:57:01.549388 30793 net.cpp:151] Top shape: 20 64 5 5 (32000)
I0507 01:57:01.549393 30793 net.cpp:159] Memory required for data: 2440080
I0507 01:57:01.549398 30793 layer_factory.hpp:77] Creating layer conv4
I0507 01:57:01.549412 30793 net.cpp:94] Creating Layer conv4
I0507 01:57:01.549417 30793 net.cpp:435] conv4 <- conv3
I0507 01:57:01.549425 30793 net.cpp:409] conv4 -> conv4
I0507 01:57:01.555124 30793 net.cpp:144] Setting up conv4
I0507 01:57:01.555145 30793 net.cpp:151] Top shape: 20 64 5 5 (32000)
I0507 01:57:01.555152 30793 net.cpp:159] Memory required for data: 2568080
I0507 01:57:01.555163 30793 layer_factory.hpp:77] Creating layer relu4
I0507 01:57:01.555172 30793 net.cpp:94] Creating Layer relu4
I0507 01:57:01.555178 30793 net.cpp:435] relu4 <- conv4
I0507 01:57:01.555186 30793 net.cpp:396] relu4 -> conv4 (in-place)
I0507 01:57:01.555196 30793 net.cpp:144] Setting up relu4
I0507 01:57:01.555203 30793 net.cpp:151] Top shape: 20 64 5 5 (32000)
I0507 01:57:01.555209 30793 net.cpp:159] Memory required for data: 2696080
I0507 01:57:01.555214 30793 layer_factory.hpp:77] Creating layer conv5
I0507 01:57:01.555227 30793 net.cpp:94] Creating Layer conv5
I0507 01:57:01.555233 30793 net.cpp:435] conv5 <- conv4
I0507 01:57:01.555241 30793 net.cpp:409] conv5 -> conv5
I0507 01:57:01.561600 30793 net.cpp:144] Setting up conv5
I0507 01:57:01.561619 30793 net.cpp:151] Top shape: 20 64 5 5 (32000)
I0507 01:57:01.561627 30793 net.cpp:159] Memory required for data: 2824080
I0507 01:57:01.561641 30793 layer_factory.hpp:77] Creating layer relu5
I0507 01:57:01.561652 30793 net.cpp:94] Creating Layer relu5
I0507 01:57:01.561660 30793 net.cpp:435] relu5 <- conv5
I0507 01:57:01.561668 30793 net.cpp:396] relu5 -> conv5 (in-place)
I0507 01:57:01.561679 30793 net.cpp:144] Setting up relu5
I0507 01:57:01.561688 30793 net.cpp:151] Top shape: 20 64 5 5 (32000)
I0507 01:57:01.561693 30793 net.cpp:159] Memory required for data: 2952080
I0507 01:57:01.561699 30793 layer_factory.hpp:77] Creating layer pool5
I0507 01:57:01.561708 30793 net.cpp:94] Creating Layer pool5
I0507 01:57:01.561715 30793 net.cpp:435] pool5 <- conv5
I0507 01:57:01.561724 30793 net.cpp:409] pool5 -> pool5
I0507 01:57:01.561782 30793 net.cpp:144] Setting up pool5
I0507 01:57:01.561796 30793 net.cpp:151] Top shape: 20 64 2 2 (5120)
I0507 01:57:01.561803 30793 net.cpp:159] Memory required for data: 2972560
I0507 01:57:01.561810 30793 layer_factory.hpp:77] Creating layer ip1
I0507 01:57:01.561825 30793 net.cpp:94] Creating Layer ip1
I0507 01:57:01.561833 30793 net.cpp:435] ip1 <- pool5
I0507 01:57:01.561843 30793 net.cpp:409] ip1 -> ip1
I0507 01:57:01.563750 30793 net.cpp:144] Setting up ip1
I0507 01:57:01.563768 30793 net.cpp:151] Top shape: 20 64 (1280)
I0507 01:57:01.563776 30793 net.cpp:159] Memory required for data: 2977680
I0507 01:57:01.563787 30793 layer_factory.hpp:77] Creating layer ip2
I0507 01:57:01.563799 30793 net.cpp:94] Creating Layer ip2
I0507 01:57:01.563807 30793 net.cpp:435] ip2 <- ip1
I0507 01:57:01.563817 30793 net.cpp:409] ip2 -> ip2
I0507 01:57:01.564148 30793 net.cpp:144] Setting up ip2
I0507 01:57:01.564162 30793 net.cpp:151] Top shape: 20 64 (1280)
I0507 01:57:01.564168 30793 net.cpp:159] Memory required for data: 2982800
I0507 01:57:01.564177 30793 layer_factory.hpp:77] Creating layer ip3
I0507 01:57:01.564187 30793 net.cpp:94] Creating Layer ip3
I0507 01:57:01.564193 30793 net.cpp:435] ip3 <- ip2
I0507 01:57:01.564203 30793 net.cpp:409] ip3 -> ip3
I0507 01:57:01.564399 30793 net.cpp:144] Setting up ip3
I0507 01:57:01.564415 30793 net.cpp:151] Top shape: 20 1 (20)
I0507 01:57:01.564422 30793 net.cpp:159] Memory required for data: 2982880
I0507 01:57:01.564434 30793 layer_factory.hpp:77] Creating layer loss
I0507 01:57:01.564451 30793 net.cpp:94] Creating Layer loss
I0507 01:57:01.564460 30793 net.cpp:435] loss <- ip3
I0507 01:57:01.564467 30793 net.cpp:435] loss <- label
I0507 01:57:01.564476 30793 net.cpp:409] loss -> loss
I0507 01:57:01.564577 30793 net.cpp:144] Setting up loss
…
I0507 01:57:01.648267 30793 net.cpp:323] The NetState phase (0) differed from the phase (1) specified by a rule in layer intercept
I0507 01:57:01.648293 30793 net.cpp:323] The NetState phase (0) differed from the phase (1) specified by a rule in layer accuracy
I0507 01:57:01.648437 30793 net.cpp:52] Initializing net from parameters: 
state {
  phase: TRAIN
}
layer {
  name: "parameters"
  type: "HDF5Data"
  top: "data"
  top: "label"
  include {
    phase: TRAIN
  }
  hdf5_data_param {
    source: "/home/purduethu/scratch/radon/d/deng106/CNNStatisticalModel/distributions/input/50_distributions_100_sample_size_train-distributions-path.txt"
    batch_size: 20
  }
}
layer {
  name: "conv1"
  type: "Convolution"
  bottom: "data"
  top: "conv1"
  param {
    lr_mult: 1
  }
  param {
    lr_mult: 2
  }
  convolution_param {
    num_output: 64
    pad: 2
    kernel_size: 5
    stride: 1
    weight_filler {
      type: "gaussian"
      std: 0.0001
    }
    bias_filler {
      type: "constant"
    }
  }
}
layer {
  name: "relu1"
  type: "ReLU"
  bottom: "conv1"
  top: "conv1"
}
layer {
  name: "conv2"
  type: "Convolution"
  bottom: "conv1"
  top: "conv2"
  param {
    lr_mult: 1
  }
  param {
    lr_mult: 2
  }
  convolution_param {
    num_output: 64
    pad: 2
    kernel_size: 5
    stride: 1
    weight_filler {
      type: "gaussian"
      std: 0.01
    }
    bias_filler {
      type: "constant"
    }
  }
}
layer {
  name: "relu2"
  type: "ReLU"
  bottom: "conv2"
  top: "conv2"
}
layer {
  name: "pool2"
  type: "Pooling"
  bottom: "conv2"
  top: "pool2"
  pooling_param {
    pool: MAX
    kernel_size: 3
    stride: 2
  }
}
layer {
  name: "conv3"
  type: "Convolution"
  bottom: "pool2"
  top: "conv3"
  param {
    lr_mult: 1
  }
  param {
    lr_mult: 2
  }
  convolution_param {
    num_output: 64
    pad: 2
    kernel_size: 5
    stride: 1
    weight_filler {
      type: "gaussian"
      std: 0.01
    }
    bias_filler {
      type: "constant"
    }
  }
}
layer {
  name: "relu3"
  type: "ReLU"
  bottom: "conv3"
  top: "conv3"
}
layer {
  name: "conv4"
  type: "Convolution"
  bottom: "conv3"
  top: "conv4"
  param {
    lr_mult: 1
  }
  param {
    lr_mult: 2
  }
  convolution_param {
    num_output: 64
    pad: 2
    kernel_size: 5
    stride: 1
    weight_filler {
      type: "gaussian"
      std: 0.01
    }
    bias_filler {
      type: "constant"
    }
  }
}
layer {
  name: "relu4"
  type: "ReLU"
  bottom: "conv4"
  top: "conv4"
}
layer {
  name: "conv5"
  type: "Convolution"
  bottom: "conv4"
  top: "conv5"
  param {
    lr_mult: 1
  }
  param {
    lr_mult: 2
  }
  convolution_param {
    num_output: 64
    pad: 2
    kernel_size: 5
    stride: 1
    weight_filler {
      type: "gaussian"
      std: 0.01
    }
    bias_filler {
      type: "constant"
    }
  }
}
layer {
  name: "relu5"
  type: "ReLU"
  bottom: "conv5"
  top: "conv5"
}
layer {
  name: "pool5"
  type: "Pooling"
  bottom: "conv5"
  top: "pool5"
  pooling_param {
    pool: AVE
    kernel_size: 3
    stride: 2
  }
}
layer {
  name: "ip1"
  type: "InnerProduct"
  bottom: "pool5"
  top: "ip1"
  param {
    lr_mult: 1
  }
  param {
    lr_mult: 2
  }
  inner_product_param {
    num_output: 64
    weight_filler {
      type: "gaussian"
      std: 0.1
    }
    bias_filler {
      type: "constant"
    }
  }
}
layer {
  name: "ip2"
  type: "InnerProduct"
  bottom: "ip1"
  top: "ip2"
  param {
    lr_mult: 1
  }
  param {
    lr_mult: 2
  }
  inner_product_param {
    num_output: 64
    weight_filler {
      type: "gaussian"
      std: 0.1
    }
    bias_filler {
      type: "constant"
    }
  }
}
layer {
  name: "ip3"
  type: "InnerProduct"
  bottom: "ip2"
  top: "ip3"
  param {
    lr_mult: 1
  }
  param {
    lr_mult: 2
  }
  inner_product_param {
    num_output: 50
    weight_filler {
      type: "gaussian"
      std: 0.1
    }
    bias_filler {
      type: "constant"
    }
  }
}
layer {
  name: "loss"
  type: "SoftmaxWithLoss"
  bottom: "ip3"
  bottom: "label"
  top: "loss"
}
I0507 01:57:01.648517 30793 layer_factory.hpp:77] Creating layer parameters
I0507 01:57:01.648532 30793 net.cpp:94] Creating Layer parameters
I0507 01:57:01.648541 30793 net.cpp:409] parameters -> data
I0507 01:57:01.648558 30793 net.cpp:409] parameters -> label
I0507 01:57:01.648571 30793 hdf5_data_layer.cpp:79] Loading list of HDF5 filenames from: /home/purduethu/scratch/radon/d/deng106/CNNStatisticalModel/distributions/input/50_distributions_100_sample_size_train-distributions-path.txt
I0507 01:57:01.648593 30793 hdf5_data_layer.cpp:93] Number of HDF5 files: 1
I0507 01:57:01.858971 30793 hdf5.cpp:35] Datatype class: H5T_INTEGER
I0507 01:57:01.863351 30793 net.cpp:144] Setting up parameters
I0507 01:57:01.863374 30793 net.cpp:151] Top shape: 20 1 10 10 (2000)
I0507 01:57:01.863384 30793 net.cpp:151] Top shape: 20 (20)
I0507 01:57:01.863391 30793 net.cpp:159] Memory required for data: 8080
I0507 01:57:01.863401 30793 layer_factory.hpp:77] Creating layer conv1
I0507 01:57:01.863422 30793 net.cpp:94] Creating Layer conv1
I0507 01:57:01.863430 30793 net.cpp:435] conv1 <- data
I0507 01:57:01.863441 30793 net.cpp:409] conv1 -> conv1
I0507 01:57:01.865587 30793 net.cpp:144] Setting up conv1
I0507 01:57:01.865605 30793 net.cpp:151] Top shape: 20 64 10 10 (128000)
I0507 01:57:01.865612 30793 net.cpp:159] Memory required for data: 520080
I0507 01:57:01.865625 30793 layer_factory.hpp:77] Creating layer relu1
I0507 01:57:01.865636 30793 net.cpp:94] Creating Layer relu1
I0507 01:57:01.865643 30793 net.cpp:435] relu1 <- conv1
I0507 01:57:01.865650 30793 net.cpp:396] relu1 -> conv1 (in-place)
I0507 01:57:01.865661 30793 net.cpp:144] Setting up relu1
I0507 01:57:01.865669 30793 net.cpp:151] Top shape: 20 64 10 10 (128000)
I0507 01:57:01.865674 30793 net.cpp:159] Memory required for data: 1032080
I0507 01:57:01.865680 30793 layer_factory.hpp:77] Creating layer conv2
I0507 01:57:01.865691 30793 net.cpp:94] Creating Layer conv2
I0507 01:57:01.865697 30793 net.cpp:435] conv2 <- conv1
I0507 01:57:01.865705 30793 net.cpp:409] conv2 -> conv2
I0507 01:57:01.872545 30793 net.cpp:144] Setting up conv2
I0507 01:57:01.872571 30793 net.cpp:151] Top shape: 20 64 10 10 (128000)
I0507 01:57:01.872578 30793 net.cpp:159] Memory required for data: 1544080
I0507 01:57:01.872591 30793 layer_factory.hpp:77] Creating layer relu2
I0507 01:57:01.872599 30793 net.cpp:94] Creating Layer relu2
I0507 01:57:01.872606 30793 net.cpp:435] relu2 <- conv2
I0507 01:57:01.872615 30793 net.cpp:396] relu2 -> conv2 (in-place)
I0507 01:57:01.872627 30793 net.cpp:144] Setting up relu2
I0507 01:57:01.872637 30793 net.cpp:151] Top shape: 20 64 10 10 (128000)
I0507 01:57:01.872642 30793 net.cpp:159] Memory required for data: 2056080
I0507 01:57:01.872648 30793 layer_factory.hpp:77] Creating layer pool2
I0507 01:57:01.872658 30793 net.cpp:94] Creating Layer pool2
I0507 01:57:01.872665 30793 net.cpp:435] pool2 <- conv2
I0507 01:57:01.872674 30793 net.cpp:409] pool2 -> pool2
I0507 01:57:01.872755 30793 net.cpp:144] Setting up pool2
I0507 01:57:01.872767 30793 net.cpp:151] Top shape: 20 64 5 5 (32000)
I0507 01:57:01.872772 30793 net.cpp:159] Memory required for data: 2184080
I0507 01:57:01.872778 30793 layer_factory.hpp:77] Creating layer conv3
I0507 01:57:01.872789 30793 net.cpp:94] Creating Layer conv3
I0507 01:57:01.872794 30793 net.cpp:435] conv3 <- pool2
I0507 01:57:01.872812 30793 net.cpp:409] conv3 -> conv3
I0507 01:57:01.880319 30793 net.cpp:144] Setting up conv3
I0507 01:57:01.880338 30793 net.cpp:151] Top shape: 20 64 5 5 (32000)
I0507 01:57:01.880344 30793 net.cpp:159] Memory required for data: 2312080
I0507 01:57:01.880357 30793 layer_factory.hpp:77] Creating layer relu3
I0507 01:57:01.880365 30793 net.cpp:94] Creating Layer relu3
I0507 01:57:01.880370 30793 net.cpp:435] relu3 <- conv3
I0507 01:57:01.880378 30793 net.cpp:396] relu3 -> conv3 (in-place)
I0507 01:57:01.880388 30793 net.cpp:144] Setting up relu3
I0507 01:57:01.880395 30793 net.cpp:151] Top shape: 20 64 5 5 (32000)
I0507 01:57:01.880409 30793 net.cpp:159] Memory required for data: 2440080
I0507 01:57:01.880414 30793 layer_factory.hpp:77] Creating layer conv4
I0507 01:57:01.880426 30793 net.cpp:94] Creating Layer conv4
I0507 01:57:01.880432 30793 net.cpp:435] conv4 <- conv3
I0507 01:57:01.880439 30793 net.cpp:409] conv4 -> conv4
I0507 01:57:01.886885 30793 net.cpp:144] Setting up conv4
I0507 01:57:01.886905 30793 net.cpp:151] Top shape: 20 64 5 5 (32000)
I0507 01:57:01.886911 30793 net.cpp:159] Memory required for data: 2568080
I0507 01:57:01.886921 30793 layer_factory.hpp:77] Creating layer relu4
I0507 01:57:01.886929 30793 net.cpp:94] Creating Layer relu4
I0507 01:57:01.886935 30793 net.cpp:435] relu4 <- conv4
I0507 01:57:01.886942 30793 net.cpp:396] relu4 -> conv4 (in-place)
I0507 01:57:01.886952 30793 net.cpp:144] Setting up relu4
I0507 01:57:01.886960 30793 net.cpp:151] Top shape: 20 64 5 5 (32000)
I0507 01:57:01.886965 30793 net.cpp:159] Memory required for data: 2696080
I0507 01:57:01.886970 30793 layer_factory.hpp:77] Creating layer conv5
I0507 01:57:01.886981 30793 net.cpp:94] Creating Layer conv5
I0507 01:57:01.886986 30793 net.cpp:435] conv5 <- conv4
I0507 01:57:01.886996 30793 net.cpp:409] conv5 -> conv5
I0507 01:57:01.892751 30793 net.cpp:144] Setting up conv5
I0507 01:57:01.892771 30793 net.cpp:151] Top shape: 20 64 5 5 (32000)
I0507 01:57:01.892781 30793 net.cpp:159] Memory required for data: 2824080
I0507 01:57:01.892794 30793 layer_factory.hpp:77] Creating layer relu5
I0507 01:57:01.892805 30793 net.cpp:94] Creating Layer relu5
I0507 01:57:01.892810 30793 net.cpp:435] relu5 <- conv5
I0507 01:57:01.892817 30793 net.cpp:396] relu5 -> conv5 (in-place)
I0507 01:57:01.892828 30793 net.cpp:144] Setting up relu5
I0507 01:57:01.892835 30793 net.cpp:151] Top shape: 20 64 5 5 (32000)
I0507 01:57:01.892840 30793 net.cpp:159] Memory required for data: 2952080
I0507 01:57:01.892846 30793 layer_factory.hpp:77] Creating layer pool5
I0507 01:57:01.892853 30793 net.cpp:94] Creating Layer pool5
I0507 01:57:01.892860 30793 net.cpp:435] pool5 <- conv5
I0507 01:57:01.892868 30793 net.cpp:409] pool5 -> pool5
I0507 01:57:01.892921 30793 net.cpp:144] Setting up pool5
I0507 01:57:01.892935 30793 net.cpp:151] Top shape: 20 64 2 2 (5120)
I0507 01:57:01.892942 30793 net.cpp:159] Memory required for data: 2972560
I0507 01:57:01.892949 30793 layer_factory.hpp:77] Creating layer ip1
I0507 01:57:01.892961 30793 net.cpp:94] Creating Layer ip1
I0507 01:57:01.892966 30793 net.cpp:435] ip1 <- pool5
I0507 01:57:01.892973 30793 net.cpp:409] ip1 -> ip1
I0507 01:57:01.893738 30793 net.cpp:144] Setting up ip1
I0507 01:57:01.893756 30793 net.cpp:151] Top shape: 20 64 (1280)
I0507 01:57:01.893765 30793 net.cpp:159] Memory required for data: 2977680
I0507 01:57:01.893775 30793 layer_factory.hpp:77] Creating layer ip2
I0507 01:57:01.893786 30793 net.cpp:94] Creating Layer ip2
I0507 01:57:01.893792 30793 net.cpp:435] ip2 <- ip1
I0507 01:57:01.893800 30793 net.cpp:409] ip2 -> ip2
I0507 01:57:01.894155 30793 net.cpp:144] Setting up ip2
I0507 01:57:01.894171 30793 net.cpp:151] Top shape: 20 64 (1280)
I0507 01:57:01.894178 30793 net.cpp:159] Memory required for data: 2982800
I0507 01:57:01.894188 30793 layer_factory.hpp:77] Creating layer ip3
I0507 01:57:01.894199 30793 net.cpp:94] Creating Layer ip3
I0507 01:57:01.894206 30793 net.cpp:435] ip3 <- ip2
I0507 01:57:01.894215 30793 net.cpp:409] ip3 -> ip3
I0507 01:57:01.894523 30793 net.cpp:144] Setting up ip3
I0507 01:57:01.894541 30793 net.cpp:151] Top shape: 20 50 (1000)
I0507 01:57:01.894547 30793 net.cpp:159] Memory required for data: 2986800
I0507 01:57:01.894556 30793 layer_factory.hpp:77] Creating layer loss
I0507 01:57:01.894567 30793 net.cpp:94] Creating Layer loss
I0507 01:57:01.894572 30793 net.cpp:435] loss <- ip3
I0507 01:57:01.894579 30793 net.cpp:435] loss <- label
I0507 01:57:01.894585 30793 net.cpp:409] loss -> loss
I0507 01:57:01.894596 30793 layer_factory.hpp:77] Creating layer loss
…
I0507 01:57:01.896648 30793 solver.cpp:181] Creating test net (#0) specified by net file: ./protocol/dis_50_100_dimension.protocol_distribution
I0507 01:57:01.896697 30793 net.cpp:323] The NetState phase (1) differed from the phase (0) specified by a rule in layer parameters
I0507 01:57:01.896867 30793 net.cpp:52] Initializing net from parameters: 
state {
  phase: TEST
}
layer {
  name: "intercept"
  type: "HDF5Data"
  top: "data"
  top: "label"
  include {
    phase: TEST
  }
  hdf5_data_param {
    source: "/home/purduethu/scratch/radon/d/deng106/CNNStatisticalModel/distributions/input/50_distributions_100_sample_size_test-distributions-path.txt"
    batch_size: 20
  }
}
layer {
  name: "conv1"
  type: "Convolution"
  bottom: "data"
  top: "conv1"
  param {
    lr_mult: 1
  }
  param {
    lr_mult: 2
  }
  convolution_param {
    num_output: 64
    pad: 2
    kernel_size: 5
    stride: 1
    weight_filler {
      type: "gaussian"
      std: 0.0001
    }
    bias_filler {
      type: "constant"
    }
  }
}
layer {
  name: "relu1"
  type: "ReLU"
  bottom: "conv1"
  top: "conv1"
}
layer {
  name: "conv2"
  type: "Convolution"
  bottom: "conv1"
  top: "conv2"
  param {
    lr_mult: 1
  }
  param {
    lr_mult: 2
  }
  convolution_param {
    num_output: 64
    pad: 2
    kernel_size: 5
    stride: 1
    weight_filler {
      type: "gaussian"
      std: 0.01
    }
    bias_filler {
      type: "constant"
    }
  }
}
layer {
  name: "relu2"
  type: "ReLU"
  bottom: "conv2"
  top: "conv2"
}
layer {
  name: "pool2"
  type: "Pooling"
  bottom: "conv2"
  top: "pool2"
  pooling_param {
    pool: MAX
    kernel_size: 3
    stride: 2
  }
}
layer {
  name: "conv3"
  type: "Convolution"
  bottom: "pool2"
  top: "conv3"
  param {
    lr_mult: 1
  }
  param {
    lr_mult: 2
  }
  convolution_param {
    num_output: 64
    pad: 2
    kernel_size: 5
    stride: 1
    weight_filler {
      type: "gaussian"
      std: 0.01
    }
    bias_filler {
      type: "constant"
    }
  }
}
layer {
  name: "relu3"
  type: "ReLU"
  bottom: "conv3"
  top: "conv3"
}
layer {
  name: "conv4"
  type: "Convolution"
  bottom: "conv3"
  top: "conv4"
  param {
    lr_mult: 1
  }
  param {
    lr_mult: 2
  }
  convolution_param {
    num_output: 64
    pad: 2
    kernel_size: 5
    stride: 1
    weight_filler {
      type: "gaussian"
      std: 0.01
    }
    bias_filler {
      type: "constant"
    }
  }
}
layer {
  name: "relu4"
  type: "ReLU"
  bottom: "conv4"
  top: "conv4"
}
layer {
  name: "conv5"
  type: "Convolution"
  bottom: "conv4"
  top: "conv5"
  param {
    lr_mult: 1
  }
  param {
    lr_mult: 2
  }
  convolution_param {
    num_output: 64
    pad: 2
    kernel_size: 5
    stride: 1
    weight_filler {
      type: "gaussian"
      std: 0.01
    }
    bias_filler {
      type: "constant"
    }
  }
}
layer {
  name: "relu5"
  type: "ReLU"
  bottom: "conv5"
  top: "conv5"
}
layer {
  name: "pool5"
  type: "Pooling"
  bottom: "conv5"
  top: "pool5"
  pooling_param {
    pool: AVE
    kernel_size: 3
    stride: 2
  }
}
layer {
  name: "ip1"
  type: "InnerProduct"
  bottom: "pool5"
  top: "ip1"
  param {
    lr_mult: 1
  }
  param {
    lr_mult: 2
  }
  inner_product_param {
    num_output: 64
    weight_filler {
      type: "gaussian"
      std: 0.1
    }
    bias_filler {
      type: "constant"
    }
  }
}
layer {
  name: "ip2"
  type: "InnerProduct"
  bottom: "ip1"
  top: "ip2"
  param {
    lr_mult: 1
  }
  param {
    lr_mult: 2
  }
  inner_product_param {
    num_output: 64
    weight_filler {
      type: "gaussian"
      std: 0.1
    }
    bias_filler {
      type: "constant"
    }
  }
}
layer {
  name: "ip3"
  type: "InnerProduct"
  bottom: "ip2"
  top: "ip3"
  param {
    lr_mult: 1
  }
  param {
    lr_mult: 2
  }
  inner_product_param {
    num_output: 50
    weight_filler {
      type: "gaussian"
      std: 0.1
    }
    bias_filler {
      type: "constant"
    }
  }
}
layer {
  name: "accuracy"
  type: "Accuracy"
  bottom: "ip3"
  bottom: "label"
  top: "accuracy"
  include {
    phase: TEST
  }
}
layer {
  name: "loss"
  type: "SoftmaxWithLoss"
  bottom: "ip3"
  bottom: "label"
  top: "loss"
}
I0507 01:57:01.896970 30793 layer_factory.hpp:77] Creating layer intercept
I0507 01:57:01.896983 30793 net.cpp:94] Creating Layer intercept
I0507 01:57:01.896992 30793 net.cpp:409] intercept -> data
I0507 01:57:01.897004 30793 net.cpp:409] intercept -> label
I0507 01:57:01.897016 30793 hdf5_data_layer.cpp:79] Loading list of HDF5 filenames from: /home/purduethu/scratch/radon/d/deng106/CNNStatisticalModel/distributions/input/50_distributions_100_sample_size_test-distributions-path.txt
I0507 01:57:01.897042 30793 hdf5_data_layer.cpp:93] Number of HDF5 files: 1
I0507 01:57:01.953006 30793 net.cpp:144] Setting up intercept
I0507 01:57:01.953050 30793 net.cpp:151] Top shape: 20 1 10 10 (2000)
I0507 01:57:01.953060 30793 net.cpp:151] Top shape: 20 (20)
I0507 01:57:01.953068 30793 net.cpp:159] Memory required for data: 8080
I0507 01:57:01.953076 30793 layer_factory.hpp:77] Creating layer label_intercept_1_split
I0507 01:57:01.953100 30793 net.cpp:94] Creating Layer label_intercept_1_split
I0507 01:57:01.953109 30793 net.cpp:435] label_intercept_1_split <- label
I0507 01:57:01.953119 30793 net.cpp:409] label_intercept_1_split -> label_intercept_1_split_0
I0507 01:57:01.953132 30793 net.cpp:409] label_intercept_1_split -> label_intercept_1_split_1
I0507 01:57:01.953203 30793 net.cpp:144] Setting up label_intercept_1_split
I0507 01:57:01.953215 30793 net.cpp:151] Top shape: 20 (20)
I0507 01:57:01.953223 30793 net.cpp:151] Top shape: 20 (20)
I0507 01:57:01.953228 30793 net.cpp:159] Memory required for data: 8240
I0507 01:57:01.953234 30793 layer_factory.hpp:77] Creating layer conv1
I0507 01:57:01.953253 30793 net.cpp:94] Creating Layer conv1
I0507 01:57:01.953260 30793 net.cpp:435] conv1 <- data
I0507 01:57:01.953269 30793 net.cpp:409] conv1 -> conv1
I0507 01:57:01.954282 30793 net.cpp:144] Setting up conv1
I0507 01:57:01.954300 30793 net.cpp:151] Top shape: 20 64 10 10 (128000)
I0507 01:57:01.954308 30793 net.cpp:159] Memory required for data: 520240
I0507 01:57:01.954324 30793 layer_factory.hpp:77] Creating layer relu1
I0507 01:57:01.954335 30793 net.cpp:94] Creating Layer relu1
I0507 01:57:01.954342 30793 net.cpp:435] relu1 <- conv1
I0507 01:57:01.954350 30793 net.cpp:396] relu1 -> conv1 (in-place)
I0507 01:57:01.954362 30793 net.cpp:144] Setting up relu1
I0507 01:57:01.954372 30793 net.cpp:151] Top shape: 20 64 10 10 (128000)
I0507 01:57:01.954378 30793 net.cpp:159] Memory required for data: 1032240
I0507 01:57:01.954393 30793 layer_factory.hpp:77] Creating layer conv2
I0507 01:57:01.954406 30793 net.cpp:94] Creating Layer conv2
I0507 01:57:01.954412 30793 net.cpp:435] conv2 <- conv1
I0507 01:57:01.954421 30793 net.cpp:409] conv2 -> conv2
I0507 01:57:01.959854 30793 net.cpp:144] Setting up conv2
I0507 01:57:01.959872 30793 net.cpp:151] Top shape: 20 64 10 10 (128000)
I0507 01:57:01.959878 30793 net.cpp:159] Memory required for data: 1544240
I0507 01:57:01.959890 30793 layer_factory.hpp:77] Creating layer relu2
I0507 01:57:01.959899 30793 net.cpp:94] Creating Layer relu2
I0507 01:57:01.959905 30793 net.cpp:435] relu2 <- conv2
I0507 01:57:01.959913 30793 net.cpp:396] relu2 -> conv2 (in-place)
I0507 01:57:01.959921 30793 net.cpp:144] Setting up relu2
I0507 01:57:01.959928 30793 net.cpp:151] Top shape: 20 64 10 10 (128000)
I0507 01:57:01.959933 30793 net.cpp:159] Memory required for data: 2056240
I0507 01:57:01.959939 30793 layer_factory.hpp:77] Creating layer pool2
I0507 01:57:01.959951 30793 net.cpp:94] Creating Layer pool2
I0507 01:57:01.959959 30793 net.cpp:435] pool2 <- conv2
I0507 01:57:01.959967 30793 net.cpp:409] pool2 -> pool2
I0507 01:57:01.960055 30793 net.cpp:144] Setting up pool2
I0507 01:57:01.960069 30793 net.cpp:151] Top shape: 20 64 5 5 (32000)
I0507 01:57:01.960077 30793 net.cpp:159] Memory required for data: 2184240
I0507 01:57:01.960083 30793 layer_factory.hpp:77] Creating layer conv3
I0507 01:57:01.960098 30793 net.cpp:94] Creating Layer conv3
I0507 01:57:01.960116 30793 net.cpp:435] conv3 <- pool2
I0507 01:57:01.960127 30793 net.cpp:409] conv3 -> conv3
I0507 01:57:01.966034 30793 net.cpp:144] Setting up conv3
I0507 01:57:01.966053 30793 net.cpp:151] Top shape: 20 64 5 5 (32000)
I0507 01:57:01.966061 30793 net.cpp:159] Memory required for data: 2312240
I0507 01:57:01.966076 30793 layer_factory.hpp:77] Creating layer relu3
I0507 01:57:01.966089 30793 net.cpp:94] Creating Layer relu3
I0507 01:57:01.966095 30793 net.cpp:435] relu3 <- conv3
I0507 01:57:01.966105 30793 net.cpp:396] relu3 -> conv3 (in-place)
I0507 01:57:01.966119 30793 net.cpp:144] Setting up relu3
I0507 01:57:01.966128 30793 net.cpp:151] Top shape: 20 64 5 5 (32000)
I0507 01:57:01.966133 30793 net.cpp:159] Memory required for data: 2440240
I0507 01:57:01.966140 30793 layer_factory.hpp:77] Creating layer conv4
I0507 01:57:01.966152 30793 net.cpp:94] Creating Layer conv4
I0507 01:57:01.966161 30793 net.cpp:435] conv4 <- conv3
I0507 01:57:01.966171 30793 net.cpp:409] conv4 -> conv4
I0507 01:57:01.970894 30793 net.cpp:144] Setting up conv4
I0507 01:57:01.970913 30793 net.cpp:151] Top shape: 20 64 5 5 (32000)
I0507 01:57:01.970921 30793 net.cpp:159] Memory required for data: 2568240
I0507 01:57:01.970932 30793 layer_factory.hpp:77] Creating layer relu4
I0507 01:57:01.970940 30793 net.cpp:94] Creating Layer relu4
I0507 01:57:01.970947 30793 net.cpp:435] relu4 <- conv4
I0507 01:57:01.970957 30793 net.cpp:396] relu4 -> conv4 (in-place)
I0507 01:57:01.970968 30793 net.cpp:144] Setting up relu4
I0507 01:57:01.970978 30793 net.cpp:151] Top shape: 20 64 5 5 (32000)
I0507 01:57:01.970983 30793 net.cpp:159] Memory required for data: 2696240
I0507 01:57:01.970989 30793 layer_factory.hpp:77] Creating layer conv5
I0507 01:57:01.971002 30793 net.cpp:94] Creating Layer conv5
I0507 01:57:01.971009 30793 net.cpp:435] conv5 <- conv4
I0507 01:57:01.971019 30793 net.cpp:409] conv5 -> conv5
I0507 01:57:01.976408 30793 net.cpp:144] Setting up conv5
I0507 01:57:01.976428 30793 net.cpp:151] Top shape: 20 64 5 5 (32000)
I0507 01:57:01.976435 30793 net.cpp:159] Memory required for data: 2824240
I0507 01:57:01.976447 30793 layer_factory.hpp:77] Creating layer relu5
I0507 01:57:01.976456 30793 net.cpp:94] Creating Layer relu5
I0507 01:57:01.976461 30793 net.cpp:435] relu5 <- conv5
I0507 01:57:01.976470 30793 net.cpp:396] relu5 -> conv5 (in-place)
I0507 01:57:01.976480 30793 net.cpp:144] Setting up relu5
I0507 01:57:01.976487 30793 net.cpp:151] Top shape: 20 64 5 5 (32000)
I0507 01:57:01.976492 30793 net.cpp:159] Memory required for data: 2952240
I0507 01:57:01.976502 30793 layer_factory.hpp:77] Creating layer pool5
I0507 01:57:01.976511 30793 net.cpp:94] Creating Layer pool5
I0507 01:57:01.976519 30793 net.cpp:435] pool5 <- conv5
I0507 01:57:01.976528 30793 net.cpp:409] pool5 -> pool5
I0507 01:57:01.976593 30793 net.cpp:144] Setting up pool5
I0507 01:57:01.976609 30793 net.cpp:151] Top shape: 20 64 2 2 (5120)
I0507 01:57:01.976614 30793 net.cpp:159] Memory required for data: 2972720
I0507 01:57:01.976619 30793 layer_factory.hpp:77] Creating layer ip1
I0507 01:57:01.976629 30793 net.cpp:94] Creating Layer ip1
I0507 01:57:01.976635 30793 net.cpp:435] ip1 <- pool5
I0507 01:57:01.976644 30793 net.cpp:409] ip1 -> ip1
I0507 01:57:01.977419 30793 net.cpp:144] Setting up ip1
I0507 01:57:01.977435 30793 net.cpp:151] Top shape: 20 64 (1280)
I0507 01:57:01.977442 30793 net.cpp:159] Memory required for data: 2977840
I0507 01:57:01.977452 30793 layer_factory.hpp:77] Creating layer ip2
I0507 01:57:01.977466 30793 net.cpp:94] Creating Layer ip2
I0507 01:57:01.977474 30793 net.cpp:435] ip2 <- ip1
I0507 01:57:01.977483 30793 net.cpp:409] ip2 -> ip2
I0507 01:57:01.977840 30793 net.cpp:144] Setting up ip2
I0507 01:57:01.977855 30793 net.cpp:151] Top shape: 20 64 (1280)
I0507 01:57:01.977862 30793 net.cpp:159] Memory required for data: 2982960
I0507 01:57:01.977872 30793 layer_factory.hpp:77] Creating layer ip3
I0507 01:57:01.977886 30793 net.cpp:94] Creating Layer ip3
I0507 01:57:01.977895 30793 net.cpp:435] ip3 <- ip2
I0507 01:57:01.977903 30793 net.cpp:409] ip3 -> ip3
I0507 01:57:01.978233 30793 net.cpp:144] Setting up ip3
I0507 01:57:01.978250 30793 net.cpp:151] Top shape: 20 50 (1000)
I0507 01:57:01.978256 30793 net.cpp:159] Memory required for data: 2986960
I0507 01:57:01.978266 30793 layer_factory.hpp:77] Creating layer ip3_ip3_0_split
I0507 01:57:01.978274 30793 net.cpp:94] Creating Layer ip3_ip3_0_split
I0507 01:57:01.978291 30793 net.cpp:435] ip3_ip3_0_split <- ip3
I0507 01:57:01.978297 30793 net.cpp:409] ip3_ip3_0_split -> ip3_ip3_0_split_0
I0507 01:57:01.978307 30793 net.cpp:409] ip3_ip3_0_split -> ip3_ip3_0_split_1
I0507 01:57:01.978374 30793 net.cpp:144] Setting up ip3_ip3_0_split
I0507 01:57:01.978385 30793 net.cpp:151] Top shape: 20 50 (1000)
I0507 01:57:01.978392 30793 net.cpp:151] Top shape: 20 50 (1000)
I0507 01:57:01.978397 30793 net.cpp:159] Memory required for data: 2994960
I0507 01:57:01.978402 30793 layer_factory.hpp:77] Creating layer accuracy
I0507 01:57:01.978411 30793 net.cpp:94] Creating Layer accuracy
I0507 01:57:01.978417 30793 net.cpp:435] accuracy <- ip3_ip3_0_split_0
I0507 01:57:01.978425 30793 net.cpp:435] accuracy <- label_intercept_1_split_0
I0507 01:57:01.978431 30793 net.cpp:409] accuracy -> accuracy
…
