…
I0502 16:25:41.059819 11588 net.cpp:323] The NetState phase (0) differed from the phase (1) specified by a rule in layer intercept
I0502 16:25:41.059835 11588 net.cpp:323] The NetState phase (0) differed from the phase (1) specified by a rule in layer accuracy
I0502 16:25:41.059924 11588 net.cpp:52] Initializing net from parameters: 
state {
  phase: TRAIN
}
layer {
  name: "parameters"
  type: "HDF5Data"
  top: "data"
  top: "label"
  include {
    phase: TRAIN
  }
  hdf5_data_param {
    source: "/home/purduethu/scratch/radon/d/deng106/CNNStatisticalModel/distributions/input/50_distributions_400_sample_size_train-distributions-path.txt"
    batch_size: 20
  }
}
layer {
  name: "conv1"
  type: "Convolution"
  bottom: "data"
  top: "conv1"
  param {
    lr_mult: 1
  }
  param {
    lr_mult: 2
  }
  convolution_param {
    num_output: 64
    pad: 2
    kernel_size: 5
    stride: 1
    weight_filler {
      type: "gaussian"
      std: 0.0001
    }
    bias_filler {
      type: "constant"
    }
  }
}
layer {
  name: "relu1"
  type: "ReLU"
  bottom: "conv1"
  top: "conv1"
}
layer {
  name: "conv2"
  type: "Convolution"
  bottom: "conv1"
  top: "conv2"
  param {
    lr_mult: 1
  }
  param {
    lr_mult: 2
  }
  convolution_param {
    num_output: 64
    pad: 2
    kernel_size: 5
    stride: 1
    weight_filler {
      type: "gaussian"
      std: 0.01
    }
    bias_filler {
      type: "constant"
    }
  }
}
layer {
  name: "relu2"
  type: "ReLU"
  bottom: "conv2"
  top: "conv2"
}
layer {
  name: "pool2"
  type: "Pooling"
  bottom: "conv2"
  top: "pool2"
  pooling_param {
    pool: MAX
    kernel_size: 3
    stride: 2
  }
}
layer {
  name: "conv3"
  type: "Convolution"
  bottom: "pool2"
  top: "conv3"
  param {
    lr_mult: 1
  }
  param {
    lr_mult: 2
  }
  convolution_param {
    num_output: 64
    pad: 2
    kernel_size: 5
    stride: 1
    weight_filler {
      type: "gaussian"
      std: 0.01
    }
    bias_filler {
      type: "constant"
    }
  }
}
layer {
  name: "relu3"
  type: "ReLU"
  bottom: "conv3"
  top: "conv3"
}
layer {
  name: "conv4"
  type: "Convolution"
  bottom: "conv3"
  top: "conv4"
  param {
    lr_mult: 1
  }
  param {
    lr_mult: 2
  }
  convolution_param {
    num_output: 64
    pad: 2
    kernel_size: 5
    stride: 1
    weight_filler {
      type: "gaussian"
      std: 0.01
    }
    bias_filler {
      type: "constant"
    }
  }
}
layer {
  name: "relu4"
  type: "ReLU"
  bottom: "conv4"
  top: "conv4"
}
layer {
  name: "conv5"
  type: "Convolution"
  bottom: "conv4"
  top: "conv5"
  param {
    lr_mult: 1
  }
  param {
    lr_mult: 2
  }
  convolution_param {
    num_output: 64
    pad: 2
    kernel_size: 5
    stride: 1
    weight_filler {
      type: "gaussian"
      std: 0.01
    }
    bias_filler {
      type: "constant"
    }
  }
}
layer {
  name: "relu5"
  type: "ReLU"
  bottom: "conv5"
  top: "conv5"
}
layer {
  name: "pool5"
  type: "Pooling"
  bottom: "conv5"
  top: "pool5"
  pooling_param {
    pool: AVE
    kernel_size: 3
    stride: 2
  }
}
layer {
  name: "ip1"
  type: "InnerProduct"
  bottom: "pool5"
  top: "ip1"
  param {
    lr_mult: 1
  }
  param {
    lr_mult: 2
  }
  inner_product_param {
    num_output: 64
    weight_filler {
      type: "gaussian"
      std: 0.1
    }
    bias_filler {
      type: "constant"
    }
  }
}
layer {
  name: "ip2"
  type: "InnerProduct"
  bottom: "ip1"
  top: "ip2"
  param {
    lr_mult: 1
  }
  param {
    lr_mult: 2
  }
  inner_product_param {
    num_output: 64
    weight_filler {
      type: "gaussian"
      std: 0.1
    }
    bias_filler {
      type: "constant"
    }
  }
}
layer {
  name: "ip3"
  type: "InnerProduct"
  bottom: "ip2"
  top: "ip3"
  param {
    lr_mult: 1
  }
  param {
    lr_mult: 2
  }
  inner_product_param {
    num_output: 50
    weight_filler {
      type: "gaussian"
      std: 0.1
    }
    bias_filler {
      type: "constant"
    }
  }
}
layer {
  name: "loss"
  type: "SoftmaxWithLoss"
  bottom: "ip3"
  bottom: "label"
  top: "loss"
}
I0502 16:25:41.060001 11588 layer_factory.hpp:77] Creating layer parameters
I0502 16:25:41.060015 11588 net.cpp:94] Creating Layer parameters
I0502 16:25:41.060022 11588 net.cpp:409] parameters -> data
I0502 16:25:41.060041 11588 net.cpp:409] parameters -> label
I0502 16:25:41.060052 11588 hdf5_data_layer.cpp:79] Loading list of HDF5 filenames from: /home/purduethu/scratch/radon/d/deng106/CNNStatisticalModel/distributions/input/50_distributions_400_sample_size_train-distributions-path.txt
I0502 16:25:41.060075 11588 hdf5_data_layer.cpp:93] Number of HDF5 files: 1
I0502 16:25:41.060715 11588 hdf5.cpp:32] Datatype class: H5T_FLOAT
I0502 16:25:41.725723 11588 hdf5.cpp:35] Datatype class: H5T_INTEGER
I0502 16:25:41.728674 11588 net.cpp:144] Setting up parameters
I0502 16:25:41.728699 11588 net.cpp:151] Top shape: 20 1 20 20 (8000)
I0502 16:25:41.728705 11588 net.cpp:151] Top shape: 20 (20)
I0502 16:25:41.728708 11588 net.cpp:159] Memory required for data: 32080
I0502 16:25:41.728716 11588 layer_factory.hpp:77] Creating layer conv1
I0502 16:25:41.728735 11588 net.cpp:94] Creating Layer conv1
I0502 16:25:41.728741 11588 net.cpp:435] conv1 <- data
I0502 16:25:41.728752 11588 net.cpp:409] conv1 -> conv1
I0502 16:25:41.735769 11588 net.cpp:144] Setting up conv1
I0502 16:25:41.735785 11588 net.cpp:151] Top shape: 20 64 20 20 (512000)
I0502 16:25:41.735790 11588 net.cpp:159] Memory required for data: 2080080
I0502 16:25:41.735802 11588 layer_factory.hpp:77] Creating layer relu1
I0502 16:25:41.735811 11588 net.cpp:94] Creating Layer relu1
I0502 16:25:41.735816 11588 net.cpp:435] relu1 <- conv1
I0502 16:25:41.735821 11588 net.cpp:396] relu1 -> conv1 (in-place)
I0502 16:25:41.735836 11588 net.cpp:144] Setting up relu1
I0502 16:25:41.735842 11588 net.cpp:151] Top shape: 20 64 20 20 (512000)
I0502 16:25:41.735846 11588 net.cpp:159] Memory required for data: 4128080
I0502 16:25:41.735848 11588 layer_factory.hpp:77] Creating layer conv2
I0502 16:25:41.735857 11588 net.cpp:94] Creating Layer conv2
I0502 16:25:41.735860 11588 net.cpp:435] conv2 <- conv1
I0502 16:25:41.735865 11588 net.cpp:409] conv2 -> conv2
I0502 16:25:41.749173 11588 net.cpp:144] Setting up conv2
I0502 16:25:41.749189 11588 net.cpp:151] Top shape: 20 64 20 20 (512000)
I0502 16:25:41.749193 11588 net.cpp:159] Memory required for data: 6176080
I0502 16:25:41.749202 11588 layer_factory.hpp:77] Creating layer relu2
I0502 16:25:41.749208 11588 net.cpp:94] Creating Layer relu2
I0502 16:25:41.749212 11588 net.cpp:435] relu2 <- conv2
I0502 16:25:41.749217 11588 net.cpp:396] relu2 -> conv2 (in-place)
I0502 16:25:41.749224 11588 net.cpp:144] Setting up relu2
I0502 16:25:41.749229 11588 net.cpp:151] Top shape: 20 64 20 20 (512000)
I0502 16:25:41.749233 11588 net.cpp:159] Memory required for data: 8224080
I0502 16:25:41.749235 11588 layer_factory.hpp:77] Creating layer pool2
I0502 16:25:41.749249 11588 net.cpp:94] Creating Layer pool2
I0502 16:25:41.749253 11588 net.cpp:435] pool2 <- conv2
I0502 16:25:41.749258 11588 net.cpp:409] pool2 -> pool2
I0502 16:25:41.749303 11588 net.cpp:144] Setting up pool2
I0502 16:25:41.749310 11588 net.cpp:151] Top shape: 20 64 10 10 (128000)
I0502 16:25:41.749313 11588 net.cpp:159] Memory required for data: 8736080
I0502 16:25:41.749317 11588 layer_factory.hpp:77] Creating layer conv3
I0502 16:25:41.749325 11588 net.cpp:94] Creating Layer conv3
I0502 16:25:41.749328 11588 net.cpp:435] conv3 <- pool2
I0502 16:25:41.749341 11588 net.cpp:409] conv3 -> conv3
I0502 16:25:41.755477 11588 net.cpp:144] Setting up conv3
I0502 16:25:41.755492 11588 net.cpp:151] Top shape: 20 64 10 10 (128000)
I0502 16:25:41.755496 11588 net.cpp:159] Memory required for data: 9248080
I0502 16:25:41.755504 11588 layer_factory.hpp:77] Creating layer relu3
I0502 16:25:41.755511 11588 net.cpp:94] Creating Layer relu3
I0502 16:25:41.755514 11588 net.cpp:435] relu3 <- conv3
I0502 16:25:41.755519 11588 net.cpp:396] relu3 -> conv3 (in-place)
I0502 16:25:41.755527 11588 net.cpp:144] Setting up relu3
I0502 16:25:41.755530 11588 net.cpp:151] Top shape: 20 64 10 10 (128000)
I0502 16:25:41.755534 11588 net.cpp:159] Memory required for data: 9760080
I0502 16:25:41.755537 11588 layer_factory.hpp:77] Creating layer conv4
I0502 16:25:41.755545 11588 net.cpp:94] Creating Layer conv4
I0502 16:25:41.755549 11588 net.cpp:435] conv4 <- conv3
I0502 16:25:41.755554 11588 net.cpp:409] conv4 -> conv4
I0502 16:25:41.761183 11588 net.cpp:144] Setting up conv4
I0502 16:25:41.761198 11588 net.cpp:151] Top shape: 20 64 10 10 (128000)
I0502 16:25:41.761201 11588 net.cpp:159] Memory required for data: 10272080
I0502 16:25:41.761209 11588 layer_factory.hpp:77] Creating layer relu4
I0502 16:25:41.761214 11588 net.cpp:94] Creating Layer relu4
I0502 16:25:41.761217 11588 net.cpp:435] relu4 <- conv4
I0502 16:25:41.761222 11588 net.cpp:396] relu4 -> conv4 (in-place)
I0502 16:25:41.761229 11588 net.cpp:144] Setting up relu4
I0502 16:25:41.761234 11588 net.cpp:151] Top shape: 20 64 10 10 (128000)
I0502 16:25:41.761237 11588 net.cpp:159] Memory required for data: 10784080
I0502 16:25:41.761240 11588 layer_factory.hpp:77] Creating layer conv5
I0502 16:25:41.761248 11588 net.cpp:94] Creating Layer conv5
I0502 16:25:41.761251 11588 net.cpp:435] conv5 <- conv4
I0502 16:25:41.761256 11588 net.cpp:409] conv5 -> conv5
I0502 16:25:41.769717 11588 net.cpp:144] Setting up conv5
I0502 16:25:41.769733 11588 net.cpp:151] Top shape: 20 64 10 10 (128000)
I0502 16:25:41.769737 11588 net.cpp:159] Memory required for data: 11296080
I0502 16:25:41.769747 11588 layer_factory.hpp:77] Creating layer relu5
I0502 16:25:41.769752 11588 net.cpp:94] Creating Layer relu5
I0502 16:25:41.769757 11588 net.cpp:435] relu5 <- conv5
I0502 16:25:41.769762 11588 net.cpp:396] relu5 -> conv5 (in-place)
I0502 16:25:41.769768 11588 net.cpp:144] Setting up relu5
I0502 16:25:41.769773 11588 net.cpp:151] Top shape: 20 64 10 10 (128000)
I0502 16:25:41.769776 11588 net.cpp:159] Memory required for data: 11808080
I0502 16:25:41.769779 11588 layer_factory.hpp:77] Creating layer pool5
I0502 16:25:41.769784 11588 net.cpp:94] Creating Layer pool5
I0502 16:25:41.769788 11588 net.cpp:435] pool5 <- conv5
I0502 16:25:41.769793 11588 net.cpp:409] pool5 -> pool5
I0502 16:25:41.769825 11588 net.cpp:144] Setting up pool5
I0502 16:25:41.769834 11588 net.cpp:151] Top shape: 20 64 5 5 (32000)
I0502 16:25:41.769836 11588 net.cpp:159] Memory required for data: 11936080
I0502 16:25:41.769840 11588 layer_factory.hpp:77] Creating layer ip1
I0502 16:25:41.769850 11588 net.cpp:94] Creating Layer ip1
I0502 16:25:41.769853 11588 net.cpp:435] ip1 <- pool5
I0502 16:25:41.769858 11588 net.cpp:409] ip1 -> ip1
I0502 16:25:41.772347 11588 net.cpp:144] Setting up ip1
I0502 16:25:41.772356 11588 net.cpp:151] Top shape: 20 64 (1280)
I0502 16:25:41.772358 11588 net.cpp:159] Memory required for data: 11941200
I0502 16:25:41.772363 11588 layer_factory.hpp:77] Creating layer ip2
I0502 16:25:41.772373 11588 net.cpp:94] Creating Layer ip2
I0502 16:25:41.772377 11588 net.cpp:435] ip2 <- ip1
I0502 16:25:41.772382 11588 net.cpp:409] ip2 -> ip2
I0502 16:25:41.772547 11588 net.cpp:144] Setting up ip2
I0502 16:25:41.772562 11588 net.cpp:151] Top shape: 20 64 (1280)
I0502 16:25:41.772567 11588 net.cpp:159] Memory required for data: 11946320
I0502 16:25:41.772572 11588 layer_factory.hpp:77] Creating layer ip3
I0502 16:25:41.772578 11588 net.cpp:94] Creating Layer ip3
I0502 16:25:41.772580 11588 net.cpp:435] ip3 <- ip2
I0502 16:25:41.772585 11588 net.cpp:409] ip3 -> ip3
I0502 16:25:41.772734 11588 net.cpp:144] Setting up ip3
I0502 16:25:41.772740 11588 net.cpp:151] Top shape: 20 50 (1000)
I0502 16:25:41.772743 11588 net.cpp:159] Memory required for data: 11950320
I0502 16:25:41.772748 11588 layer_factory.hpp:77] Creating layer loss
I0502 16:25:41.772755 11588 net.cpp:94] Creating Layer loss
I0502 16:25:41.772759 11588 net.cpp:435] loss <- ip3
I0502 16:25:41.772763 11588 net.cpp:435] loss <- label
I0502 16:25:41.772768 11588 net.cpp:409] loss -> loss
I0502 16:25:41.772778 11588 layer_factory.hpp:77] Creating layer loss
…
I0502 16:25:41.773268 11588 solver.cpp:181] Creating test net (#0) specified by net file: ./protocol/dis_50_400_dimension.protocol_distribution
I0502 16:25:41.773294 11588 net.cpp:323] The NetState phase (1) differed from the phase (0) specified by a rule in layer parameters
I0502 16:25:41.773391 11588 net.cpp:52] Initializing net from parameters: 
state {
  phase: TEST
}
layer {
  name: "intercept"
  type: "HDF5Data"
  top: "data"
  top: "label"
  include {
    phase: TEST
  }
  hdf5_data_param {
    source: "/home/purduethu/scratch/radon/d/deng106/CNNStatisticalModel/distributions/input/50_distributions_400_sample_size_test-distributions-path.txt"
    batch_size: 20
  }
}
layer {
  name: "conv1"
  type: "Convolution"
  bottom: "data"
  top: "conv1"
  param {
    lr_mult: 1
  }
  param {
    lr_mult: 2
  }
  convolution_param {
    num_output: 64
    pad: 2
    kernel_size: 5
    stride: 1
    weight_filler {
      type: "gaussian"
      std: 0.0001
    }
    bias_filler {
      type: "constant"
    }
  }
}
layer {
  name: "relu1"
  type: "ReLU"
  bottom: "conv1"
  top: "conv1"
}
layer {
  name: "conv2"
  type: "Convolution"
  bottom: "conv1"
  top: "conv2"
  param {
    lr_mult: 1
  }
  param {
    lr_mult: 2
  }
  convolution_param {
    num_output: 64
    pad: 2
    kernel_size: 5
    stride: 1
    weight_filler {
      type: "gaussian"
      std: 0.01
    }
    bias_filler {
      type: "constant"
    }
  }
}
layer {
  name: "relu2"
  type: "ReLU"
  bottom: "conv2"
  top: "conv2"
}
layer {
  name: "pool2"
  type: "Pooling"
  bottom: "conv2"
  top: "pool2"
  pooling_param {
    pool: MAX
    kernel_size: 3
    stride: 2
  }
}
layer {
  name: "conv3"
  type: "Convolution"
  bottom: "pool2"
  top: "conv3"
  param {
    lr_mult: 1
  }
  param {
    lr_mult: 2
  }
  convolution_param {
    num_output: 64
    pad: 2
    kernel_size: 5
    stride: 1
    weight_filler {
      type: "gaussian"
      std: 0.01
    }
    bias_filler {
      type: "constant"
    }
  }
}
layer {
  name: "relu3"
  type: "ReLU"
  bottom: "conv3"
  top: "conv3"
}
layer {
  name: "conv4"
  type: "Convolution"
  bottom: "conv3"
  top: "conv4"
  param {
    lr_mult: 1
  }
  param {
    lr_mult: 2
  }
  convolution_param {
    num_output: 64
    pad: 2
    kernel_size: 5
    stride: 1
    weight_filler {
      type: "gaussian"
      std: 0.01
    }
    bias_filler {
      type: "constant"
    }
  }
}
layer {
  name: "relu4"
  type: "ReLU"
  bottom: "conv4"
  top: "conv4"
}
layer {
  name: "conv5"
  type: "Convolution"
  bottom: "conv4"
  top: "conv5"
  param {
    lr_mult: 1
  }
  param {
    lr_mult: 2
  }
  convolution_param {
    num_output: 64
    pad: 2
    kernel_size: 5
    stride: 1
    weight_filler {
      type: "gaussian"
      std: 0.01
    }
    bias_filler {
      type: "constant"
    }
  }
}
layer {
  name: "relu5"
  type: "ReLU"
  bottom: "conv5"
  top: "conv5"
}
layer {
  name: "pool5"
  type: "Pooling"
  bottom: "conv5"
  top: "pool5"
  pooling_param {
    pool: AVE
    kernel_size: 3
    stride: 2
  }
}
layer {
  name: "ip1"
  type: "InnerProduct"
  bottom: "pool5"
  top: "ip1"
  param {
    lr_mult: 1
  }
  param {
    lr_mult: 2
  }
  inner_product_param {
    num_output: 64
    weight_filler {
      type: "gaussian"
      std: 0.1
    }
    bias_filler {
      type: "constant"
    }
  }
}
layer {
  name: "ip2"
  type: "InnerProduct"
  bottom: "ip1"
  top: "ip2"
  param {
    lr_mult: 1
  }
  param {
    lr_mult: 2
  }
  inner_product_param {
    num_output: 64
    weight_filler {
      type: "gaussian"
      std: 0.1
    }
    bias_filler {
      type: "constant"
    }
  }
}
layer {
  name: "ip3"
  type: "InnerProduct"
  bottom: "ip2"
  top: "ip3"
  param {
    lr_mult: 1
  }
  param {
    lr_mult: 2
  }
  inner_product_param {
    num_output: 50
    weight_filler {
      type: "gaussian"
      std: 0.1
    }
    bias_filler {
      type: "constant"
    }
  }
}
layer {
  name: "accuracy"
  type: "Accuracy"
  bottom: "ip3"
  bottom: "label"
  top: "accuracy"
  include {
    phase: TEST
  }
}
layer {
  name: "loss"
  type: "SoftmaxWithLoss"
  bottom: "ip3"
  bottom: "label"
  top: "loss"
}
I0502 16:25:41.773463 11588 layer_factory.hpp:77] Creating layer intercept
I0502 16:25:41.773470 11588 net.cpp:94] Creating Layer intercept
I0502 16:25:41.773474 11588 net.cpp:409] intercept -> data
I0502 16:25:41.773481 11588 net.cpp:409] intercept -> label
I0502 16:25:41.773488 11588 hdf5_data_layer.cpp:79] Loading list of HDF5 filenames from: /home/purduethu/scratch/radon/d/deng106/CNNStatisticalModel/distributions/input/50_distributions_400_sample_size_test-distributions-path.txt
I0502 16:25:41.773506 11588 hdf5_data_layer.cpp:93] Number of HDF5 files: 1
I0502 16:25:41.939895 11588 net.cpp:144] Setting up intercept
I0502 16:25:41.939927 11588 net.cpp:151] Top shape: 20 1 20 20 (8000)
I0502 16:25:41.939934 11588 net.cpp:151] Top shape: 20 (20)
I0502 16:25:41.939937 11588 net.cpp:159] Memory required for data: 32080
I0502 16:25:41.939944 11588 layer_factory.hpp:77] Creating layer label_intercept_1_split
I0502 16:25:41.939960 11588 net.cpp:94] Creating Layer label_intercept_1_split
I0502 16:25:41.939965 11588 net.cpp:435] label_intercept_1_split <- label
I0502 16:25:41.939970 11588 net.cpp:409] label_intercept_1_split -> label_intercept_1_split_0
I0502 16:25:41.939980 11588 net.cpp:409] label_intercept_1_split -> label_intercept_1_split_1
I0502 16:25:41.940013 11588 net.cpp:144] Setting up label_intercept_1_split
I0502 16:25:41.940021 11588 net.cpp:151] Top shape: 20 (20)
I0502 16:25:41.940024 11588 net.cpp:151] Top shape: 20 (20)
I0502 16:25:41.940027 11588 net.cpp:159] Memory required for data: 32240
I0502 16:25:41.940030 11588 layer_factory.hpp:77] Creating layer conv1
I0502 16:25:41.940042 11588 net.cpp:94] Creating Layer conv1
I0502 16:25:41.940047 11588 net.cpp:435] conv1 <- data
I0502 16:25:41.940052 11588 net.cpp:409] conv1 -> conv1
I0502 16:25:41.942602 11588 net.cpp:144] Setting up conv1
I0502 16:25:41.942626 11588 net.cpp:151] Top shape: 20 64 20 20 (512000)
I0502 16:25:41.942631 11588 net.cpp:159] Memory required for data: 2080240
I0502 16:25:41.942641 11588 layer_factory.hpp:77] Creating layer relu1
I0502 16:25:41.942647 11588 net.cpp:94] Creating Layer relu1
I0502 16:25:41.942651 11588 net.cpp:435] relu1 <- conv1
I0502 16:25:41.942656 11588 net.cpp:396] relu1 -> conv1 (in-place)
I0502 16:25:41.942663 11588 net.cpp:144] Setting up relu1
I0502 16:25:41.942668 11588 net.cpp:151] Top shape: 20 64 20 20 (512000)
I0502 16:25:41.942672 11588 net.cpp:159] Memory required for data: 4128240
I0502 16:25:41.942674 11588 layer_factory.hpp:77] Creating layer conv2
I0502 16:25:41.942683 11588 net.cpp:94] Creating Layer conv2
I0502 16:25:41.942687 11588 net.cpp:435] conv2 <- conv1
I0502 16:25:41.942692 11588 net.cpp:409] conv2 -> conv2
I0502 16:25:41.947726 11588 net.cpp:144] Setting up conv2
I0502 16:25:41.947741 11588 net.cpp:151] Top shape: 20 64 20 20 (512000)
I0502 16:25:41.947744 11588 net.cpp:159] Memory required for data: 6176240
I0502 16:25:41.947752 11588 layer_factory.hpp:77] Creating layer relu2
I0502 16:25:41.947758 11588 net.cpp:94] Creating Layer relu2
I0502 16:25:41.947762 11588 net.cpp:435] relu2 <- conv2
I0502 16:25:41.947767 11588 net.cpp:396] relu2 -> conv2 (in-place)
I0502 16:25:41.947773 11588 net.cpp:144] Setting up relu2
I0502 16:25:41.947778 11588 net.cpp:151] Top shape: 20 64 20 20 (512000)
I0502 16:25:41.947782 11588 net.cpp:159] Memory required for data: 8224240
I0502 16:25:41.947784 11588 layer_factory.hpp:77] Creating layer pool2
I0502 16:25:41.947790 11588 net.cpp:94] Creating Layer pool2
I0502 16:25:41.947794 11588 net.cpp:435] pool2 <- conv2
I0502 16:25:41.947798 11588 net.cpp:409] pool2 -> pool2
I0502 16:25:41.947831 11588 net.cpp:144] Setting up pool2
I0502 16:25:41.947839 11588 net.cpp:151] Top shape: 20 64 10 10 (128000)
I0502 16:25:41.947841 11588 net.cpp:159] Memory required for data: 8736240
I0502 16:25:41.947844 11588 layer_factory.hpp:77] Creating layer conv3
I0502 16:25:41.947852 11588 net.cpp:94] Creating Layer conv3
I0502 16:25:41.947856 11588 net.cpp:435] conv3 <- pool2
I0502 16:25:41.947861 11588 net.cpp:409] conv3 -> conv3
I0502 16:25:41.951844 11588 net.cpp:144] Setting up conv3
I0502 16:25:41.951858 11588 net.cpp:151] Top shape: 20 64 10 10 (128000)
I0502 16:25:41.951863 11588 net.cpp:159] Memory required for data: 9248240
I0502 16:25:41.951870 11588 layer_factory.hpp:77] Creating layer relu3
I0502 16:25:41.951877 11588 net.cpp:94] Creating Layer relu3
I0502 16:25:41.951881 11588 net.cpp:435] relu3 <- conv3
I0502 16:25:41.951886 11588 net.cpp:396] relu3 -> conv3 (in-place)
I0502 16:25:41.951894 11588 net.cpp:144] Setting up relu3
I0502 16:25:41.951897 11588 net.cpp:151] Top shape: 20 64 10 10 (128000)
I0502 16:25:41.951900 11588 net.cpp:159] Memory required for data: 9760240
I0502 16:25:41.951905 11588 layer_factory.hpp:77] Creating layer conv4
I0502 16:25:41.951911 11588 net.cpp:94] Creating Layer conv4
I0502 16:25:41.951915 11588 net.cpp:435] conv4 <- conv3
I0502 16:25:41.951920 11588 net.cpp:409] conv4 -> conv4
I0502 16:25:41.956007 11588 net.cpp:144] Setting up conv4
I0502 16:25:41.956020 11588 net.cpp:151] Top shape: 20 64 10 10 (128000)
I0502 16:25:41.956024 11588 net.cpp:159] Memory required for data: 10272240
I0502 16:25:41.956030 11588 layer_factory.hpp:77] Creating layer relu4
I0502 16:25:41.956037 11588 net.cpp:94] Creating Layer relu4
I0502 16:25:41.956043 11588 net.cpp:435] relu4 <- conv4
I0502 16:25:41.956048 11588 net.cpp:396] relu4 -> conv4 (in-place)
I0502 16:25:41.956055 11588 net.cpp:144] Setting up relu4
I0502 16:25:41.956060 11588 net.cpp:151] Top shape: 20 64 10 10 (128000)
I0502 16:25:41.956063 11588 net.cpp:159] Memory required for data: 10784240
I0502 16:25:41.956066 11588 layer_factory.hpp:77] Creating layer conv5
I0502 16:25:41.956073 11588 net.cpp:94] Creating Layer conv5
I0502 16:25:41.956076 11588 net.cpp:435] conv5 <- conv4
I0502 16:25:41.956081 11588 net.cpp:409] conv5 -> conv5
I0502 16:25:41.960192 11588 net.cpp:144] Setting up conv5
I0502 16:25:41.960212 11588 net.cpp:151] Top shape: 20 64 10 10 (128000)
I0502 16:25:41.960216 11588 net.cpp:159] Memory required for data: 11296240
I0502 16:25:41.960224 11588 layer_factory.hpp:77] Creating layer relu5
I0502 16:25:41.960230 11588 net.cpp:94] Creating Layer relu5
I0502 16:25:41.960234 11588 net.cpp:435] relu5 <- conv5
I0502 16:25:41.960238 11588 net.cpp:396] relu5 -> conv5 (in-place)
I0502 16:25:41.960245 11588 net.cpp:144] Setting up relu5
I0502 16:25:41.960250 11588 net.cpp:151] Top shape: 20 64 10 10 (128000)
I0502 16:25:41.960253 11588 net.cpp:159] Memory required for data: 11808240
I0502 16:25:41.960255 11588 layer_factory.hpp:77] Creating layer pool5
I0502 16:25:41.960260 11588 net.cpp:94] Creating Layer pool5
I0502 16:25:41.960264 11588 net.cpp:435] pool5 <- conv5
I0502 16:25:41.960268 11588 net.cpp:409] pool5 -> pool5
I0502 16:25:41.960292 11588 net.cpp:144] Setting up pool5
I0502 16:25:41.960299 11588 net.cpp:151] Top shape: 20 64 5 5 (32000)
I0502 16:25:41.960301 11588 net.cpp:159] Memory required for data: 11936240
I0502 16:25:41.960304 11588 layer_factory.hpp:77] Creating layer ip1
I0502 16:25:41.960311 11588 net.cpp:94] Creating Layer ip1
I0502 16:25:41.960314 11588 net.cpp:435] ip1 <- pool5
I0502 16:25:41.960319 11588 net.cpp:409] ip1 -> ip1
I0502 16:25:41.963495 11588 net.cpp:144] Setting up ip1
I0502 16:25:41.963510 11588 net.cpp:151] Top shape: 20 64 (1280)
I0502 16:25:41.963513 11588 net.cpp:159] Memory required for data: 11941360
I0502 16:25:41.963518 11588 layer_factory.hpp:77] Creating layer ip2
I0502 16:25:41.963526 11588 net.cpp:94] Creating Layer ip2
I0502 16:25:41.963529 11588 net.cpp:435] ip2 <- ip1
I0502 16:25:41.963534 11588 net.cpp:409] ip2 -> ip2
I0502 16:25:41.963706 11588 net.cpp:144] Setting up ip2
I0502 16:25:41.963713 11588 net.cpp:151] Top shape: 20 64 (1280)
I0502 16:25:41.963716 11588 net.cpp:159] Memory required for data: 11946480
I0502 16:25:41.963721 11588 layer_factory.hpp:77] Creating layer ip3
I0502 16:25:41.963728 11588 net.cpp:94] Creating Layer ip3
I0502 16:25:41.963732 11588 net.cpp:435] ip3 <- ip2
I0502 16:25:41.963738 11588 net.cpp:409] ip3 -> ip3
I0502 16:25:41.963883 11588 net.cpp:144] Setting up ip3
I0502 16:25:41.963889 11588 net.cpp:151] Top shape: 20 50 (1000)
I0502 16:25:41.963892 11588 net.cpp:159] Memory required for data: 11950480
I0502 16:25:41.963897 11588 layer_factory.hpp:77] Creating layer ip3_ip3_0_split
I0502 16:25:41.963903 11588 net.cpp:94] Creating Layer ip3_ip3_0_split
I0502 16:25:41.963907 11588 net.cpp:435] ip3_ip3_0_split <- ip3
I0502 16:25:41.963912 11588 net.cpp:409] ip3_ip3_0_split -> ip3_ip3_0_split_0
I0502 16:25:41.963917 11588 net.cpp:409] ip3_ip3_0_split -> ip3_ip3_0_split_1
I0502 16:25:41.963942 11588 net.cpp:144] Setting up ip3_ip3_0_split
I0502 16:25:41.963948 11588 net.cpp:151] Top shape: 20 50 (1000)
I0502 16:25:41.963951 11588 net.cpp:151] Top shape: 20 50 (1000)
I0502 16:25:41.963954 11588 net.cpp:159] Memory required for data: 11958480
I0502 16:25:41.963958 11588 layer_factory.hpp:77] Creating layer accuracy
I0502 16:25:41.963963 11588 net.cpp:94] Creating Layer accuracy
I0502 16:25:41.963965 11588 net.cpp:435] accuracy <- ip3_ip3_0_split_0
I0502 16:25:41.963969 11588 net.cpp:435] accuracy <- label_intercept_1_split_0
I0502 16:25:41.963974 11588 net.cpp:409] accuracy -> accuracy
…
