…
I0506 08:31:57.439816 20875 net.cpp:323] The NetState phase (0) differed from the phase (1) specified by a rule in layer intercept
I0506 08:31:57.439832 20875 net.cpp:323] The NetState phase (0) differed from the phase (1) specified by a rule in layer loss
I0506 08:31:57.439910 20875 net.cpp:52] Initializing net from parameters: 
state {
  phase: TRAIN
}
layer {
  name: "parameters"
  type: "HDF5Data"
  top: "data"
  top: "label"
  include {
    phase: TRAIN
  }
  hdf5_data_param {
    source: "/home/purduethu/scratch/radon/d/deng106/CNNStatisticalModel/distributions/input/50_distributions_100_sample_size_train-parameters-path.txt"
    batch_size: 20
  }
}
layer {
  name: "conv1"
  type: "Convolution"
  bottom: "data"
  top: "conv1"
  param {
    lr_mult: 1
  }
  param {
    lr_mult: 2
  }
  convolution_param {
    num_output: 64
    pad: 2
    kernel_size: 5
    stride: 1
    weight_filler {
      type: "gaussian"
      std: 0.0001
    }
    bias_filler {
      type: "constant"
    }
  }
}
layer {
  name: "relu1"
  type: "ReLU"
  bottom: "conv1"
  top: "conv1"
}
layer {
  name: "conv2"
  type: "Convolution"
  bottom: "conv1"
  top: "conv2"
  param {
    lr_mult: 1
  }
  param {
    lr_mult: 2
  }
  convolution_param {
    num_output: 64
    pad: 2
    kernel_size: 5
    stride: 1
    weight_filler {
      type: "gaussian"
      std: 0.01
    }
    bias_filler {
      type: "constant"
    }
  }
}
layer {
  name: "relu2"
  type: "ReLU"
  bottom: "conv2"
  top: "conv2"
}
layer {
  name: "pool2"
  type: "Pooling"
  bottom: "conv2"
  top: "pool2"
  pooling_param {
    pool: MAX
    kernel_size: 3
    stride: 2
  }
}
layer {
  name: "conv3"
  type: "Convolution"
  bottom: "pool2"
  top: "conv3"
  param {
    lr_mult: 1
  }
  param {
    lr_mult: 2
  }
  convolution_param {
    num_output: 128
    pad: 2
    kernel_size: 5
    stride: 1
    weight_filler {
      type: "gaussian"
      std: 0.01
    }
    bias_filler {
      type: "constant"
    }
  }
}
layer {
  name: "relu3"
  type: "ReLU"
  bottom: "conv3"
  top: "conv3"
}
layer {
  name: "conv4"
  type: "Convolution"
  bottom: "conv3"
  top: "conv4"
  param {
    lr_mult: 1
  }
  param {
    lr_mult: 2
  }
  convolution_param {
    num_output: 128
    pad: 2
    kernel_size: 5
    stride: 1
    weight_filler {
      type: "gaussian"
      std: 0.01
    }
    bias_filler {
      type: "constant"
    }
  }
}
layer {
  name: "relu4"
  type: "ReLU"
  bottom: "conv4"
  top: "conv4"
}
layer {
  name: "conv5"
  type: "Convolution"
  bottom: "conv4"
  top: "conv5"
  param {
    lr_mult: 1
  }
  param {
    lr_mult: 2
  }
  convolution_param {
    num_output: 128
    pad: 2
    kernel_size: 5
    stride: 1
    weight_filler {
      type: "gaussian"
      std: 0.01
    }
    bias_filler {
      type: "constant"
    }
  }
}
layer {
  name: "relu5"
  type: "ReLU"
  bottom: "conv5"
  top: "conv5"
}
layer {
  name: "pool5"
  type: "Pooling"
  bottom: "conv5"
  top: "pool5"
  pooling_param {
    pool: AVE
    kernel_size: 3
    stride: 2
  }
}
layer {
  name: "ip1"
  type: "InnerProduct"
  bottom: "pool5"
  top: "ip1"
  param {
    lr_mult: 1
  }
  param {
    lr_mult: 2
  }
  inner_product_param {
    num_output: 1024
    weight_filler {
      type: "gaussian"
      std: 0.1
    }
    bias_filler {
      type: "constant"
    }
  }
}
layer {
  name: "ip2"
  type: "InnerProduct"
  bottom: "ip1"
  top: "ip2"
  param {
    lr_mult: 1
  }
  param {
    lr_mult: 2
  }
  inner_product_param {
    num_output: 512
    weight_filler {
      type: "gaussian"
      std: 0.1
    }
    bias_filler {
      type: "constant"
    }
  }
}
layer {
  name: "ip3"
  type: "InnerProduct"
  bottom: "ip2"
  top: "ip3"
  param {
    lr_mult: 1
  }
  param {
    lr_mult: 2
  }
  inner_product_param {
    num_output: 1
    weight_filler {
      type: "gaussian"
      std: 0.1
    }
    bias_filler {
      type: "constant"
    }
  }
}
layer {
  name: "loss"
  type: "HuberLoss"
  bottom: "ip3"
  bottom: "label"
  top: "loss"
  include {
    phase: TRAIN
  }
}
I0506 08:31:57.439961 20875 layer_factory.hpp:77] Creating layer parameters
I0506 08:31:57.439977 20875 net.cpp:94] Creating Layer parameters
I0506 08:31:57.439982 20875 net.cpp:409] parameters -> data
I0506 08:31:57.439991 20875 net.cpp:409] parameters -> label
I0506 08:31:57.439998 20875 hdf5_data_layer.cpp:79] Loading list of HDF5 filenames from: /home/purduethu/scratch/radon/d/deng106/CNNStatisticalModel/distributions/input/50_distributions_100_sample_size_train-parameters-path.txt
I0506 08:31:57.440013 20875 hdf5_data_layer.cpp:93] Number of HDF5 files: 1
I0506 08:31:57.440524 20875 hdf5.cpp:32] Datatype class: H5T_FLOAT
I0506 08:31:57.602677 20875 net.cpp:144] Setting up parameters
I0506 08:31:57.602710 20875 net.cpp:151] Top shape: 20 1 10 10 (2000)
I0506 08:31:57.602715 20875 net.cpp:151] Top shape: 20 (20)
I0506 08:31:57.602718 20875 net.cpp:159] Memory required for data: 8080
I0506 08:31:57.602725 20875 layer_factory.hpp:77] Creating layer conv1
I0506 08:31:57.602741 20875 net.cpp:94] Creating Layer conv1
I0506 08:31:57.602746 20875 net.cpp:435] conv1 <- data
I0506 08:31:57.602751 20875 net.cpp:409] conv1 -> conv1
I0506 08:31:57.607004 20875 net.cpp:144] Setting up conv1
I0506 08:31:57.607020 20875 net.cpp:151] Top shape: 20 64 10 10 (128000)
I0506 08:31:57.607024 20875 net.cpp:159] Memory required for data: 520080
I0506 08:31:57.607034 20875 layer_factory.hpp:77] Creating layer relu1
I0506 08:31:57.607043 20875 net.cpp:94] Creating Layer relu1
I0506 08:31:57.607046 20875 net.cpp:435] relu1 <- conv1
I0506 08:31:57.607050 20875 net.cpp:396] relu1 -> conv1 (in-place)
I0506 08:31:57.607059 20875 net.cpp:144] Setting up relu1
I0506 08:31:57.607062 20875 net.cpp:151] Top shape: 20 64 10 10 (128000)
I0506 08:31:57.607065 20875 net.cpp:159] Memory required for data: 1032080
I0506 08:31:57.607069 20875 layer_factory.hpp:77] Creating layer conv2
I0506 08:31:57.607077 20875 net.cpp:94] Creating Layer conv2
I0506 08:31:57.607080 20875 net.cpp:435] conv2 <- conv1
I0506 08:31:57.607085 20875 net.cpp:409] conv2 -> conv2
I0506 08:31:57.613143 20875 net.cpp:144] Setting up conv2
I0506 08:31:57.613157 20875 net.cpp:151] Top shape: 20 64 10 10 (128000)
I0506 08:31:57.613162 20875 net.cpp:159] Memory required for data: 1544080
I0506 08:31:57.613169 20875 layer_factory.hpp:77] Creating layer relu2
I0506 08:31:57.613176 20875 net.cpp:94] Creating Layer relu2
I0506 08:31:57.613179 20875 net.cpp:435] relu2 <- conv2
I0506 08:31:57.613184 20875 net.cpp:396] relu2 -> conv2 (in-place)
I0506 08:31:57.613191 20875 net.cpp:144] Setting up relu2
I0506 08:31:57.613195 20875 net.cpp:151] Top shape: 20 64 10 10 (128000)
I0506 08:31:57.613198 20875 net.cpp:159] Memory required for data: 2056080
I0506 08:31:57.613201 20875 layer_factory.hpp:77] Creating layer pool2
I0506 08:31:57.613207 20875 net.cpp:94] Creating Layer pool2
I0506 08:31:57.613210 20875 net.cpp:435] pool2 <- conv2
I0506 08:31:57.613214 20875 net.cpp:409] pool2 -> pool2
I0506 08:31:57.613272 20875 net.cpp:144] Setting up pool2
I0506 08:31:57.613281 20875 net.cpp:151] Top shape: 20 64 5 5 (32000)
I0506 08:31:57.613283 20875 net.cpp:159] Memory required for data: 2184080
I0506 08:31:57.613286 20875 layer_factory.hpp:77] Creating layer conv3
I0506 08:31:57.613294 20875 net.cpp:94] Creating Layer conv3
I0506 08:31:57.613303 20875 net.cpp:435] conv3 <- pool2
I0506 08:31:57.613308 20875 net.cpp:409] conv3 -> conv3
I0506 08:31:57.621479 20875 net.cpp:144] Setting up conv3
I0506 08:31:57.621492 20875 net.cpp:151] Top shape: 20 128 5 5 (64000)
I0506 08:31:57.621496 20875 net.cpp:159] Memory required for data: 2440080
I0506 08:31:57.621505 20875 layer_factory.hpp:77] Creating layer relu3
I0506 08:31:57.621510 20875 net.cpp:94] Creating Layer relu3
I0506 08:31:57.621513 20875 net.cpp:435] relu3 <- conv3
I0506 08:31:57.621518 20875 net.cpp:396] relu3 -> conv3 (in-place)
I0506 08:31:57.621526 20875 net.cpp:144] Setting up relu3
I0506 08:31:57.621529 20875 net.cpp:151] Top shape: 20 128 5 5 (64000)
I0506 08:31:57.621532 20875 net.cpp:159] Memory required for data: 2696080
I0506 08:31:57.621536 20875 layer_factory.hpp:77] Creating layer conv4
I0506 08:31:57.621543 20875 net.cpp:94] Creating Layer conv4
I0506 08:31:57.621547 20875 net.cpp:435] conv4 <- conv3
I0506 08:31:57.621551 20875 net.cpp:409] conv4 -> conv4
I0506 08:31:57.636718 20875 net.cpp:144] Setting up conv4
I0506 08:31:57.636732 20875 net.cpp:151] Top shape: 20 128 5 5 (64000)
I0506 08:31:57.636736 20875 net.cpp:159] Memory required for data: 2952080
I0506 08:31:57.636742 20875 layer_factory.hpp:77] Creating layer relu4
I0506 08:31:57.636749 20875 net.cpp:94] Creating Layer relu4
I0506 08:31:57.636752 20875 net.cpp:435] relu4 <- conv4
I0506 08:31:57.636757 20875 net.cpp:396] relu4 -> conv4 (in-place)
I0506 08:31:57.636764 20875 net.cpp:144] Setting up relu4
I0506 08:31:57.636768 20875 net.cpp:151] Top shape: 20 128 5 5 (64000)
I0506 08:31:57.636771 20875 net.cpp:159] Memory required for data: 3208080
I0506 08:31:57.636775 20875 layer_factory.hpp:77] Creating layer conv5
I0506 08:31:57.636781 20875 net.cpp:94] Creating Layer conv5
I0506 08:31:57.636785 20875 net.cpp:435] conv5 <- conv4
I0506 08:31:57.636790 20875 net.cpp:409] conv5 -> conv5
I0506 08:31:57.651185 20875 net.cpp:144] Setting up conv5
I0506 08:31:57.651201 20875 net.cpp:151] Top shape: 20 128 5 5 (64000)
I0506 08:31:57.651204 20875 net.cpp:159] Memory required for data: 3464080
I0506 08:31:57.651212 20875 layer_factory.hpp:77] Creating layer relu5
I0506 08:31:57.651219 20875 net.cpp:94] Creating Layer relu5
I0506 08:31:57.651222 20875 net.cpp:435] relu5 <- conv5
I0506 08:31:57.651227 20875 net.cpp:396] relu5 -> conv5 (in-place)
I0506 08:31:57.651234 20875 net.cpp:144] Setting up relu5
I0506 08:31:57.651238 20875 net.cpp:151] Top shape: 20 128 5 5 (64000)
I0506 08:31:57.651242 20875 net.cpp:159] Memory required for data: 3720080
I0506 08:31:57.651245 20875 layer_factory.hpp:77] Creating layer pool5
I0506 08:31:57.651250 20875 net.cpp:94] Creating Layer pool5
I0506 08:31:57.651253 20875 net.cpp:435] pool5 <- conv5
I0506 08:31:57.651257 20875 net.cpp:409] pool5 -> pool5
I0506 08:31:57.651299 20875 net.cpp:144] Setting up pool5
I0506 08:31:57.651306 20875 net.cpp:151] Top shape: 20 128 2 2 (10240)
I0506 08:31:57.651309 20875 net.cpp:159] Memory required for data: 3761040
I0506 08:31:57.651314 20875 layer_factory.hpp:77] Creating layer ip1
I0506 08:31:57.651322 20875 net.cpp:94] Creating Layer ip1
I0506 08:31:57.651326 20875 net.cpp:435] ip1 <- pool5
I0506 08:31:57.651330 20875 net.cpp:409] ip1 -> ip1
I0506 08:31:57.665218 20875 net.cpp:144] Setting up ip1
I0506 08:31:57.665233 20875 net.cpp:151] Top shape: 20 1024 (20480)
I0506 08:31:57.665237 20875 net.cpp:159] Memory required for data: 3842960
I0506 08:31:57.665243 20875 layer_factory.hpp:77] Creating layer ip2
I0506 08:31:57.665251 20875 net.cpp:94] Creating Layer ip2
I0506 08:31:57.665254 20875 net.cpp:435] ip2 <- ip1
I0506 08:31:57.665259 20875 net.cpp:409] ip2 -> ip2
I0506 08:31:57.678292 20875 net.cpp:144] Setting up ip2
I0506 08:31:57.678304 20875 net.cpp:151] Top shape: 20 512 (10240)
I0506 08:31:57.678308 20875 net.cpp:159] Memory required for data: 3883920
I0506 08:31:57.678314 20875 layer_factory.hpp:77] Creating layer ip3
I0506 08:31:57.678323 20875 net.cpp:94] Creating Layer ip3
I0506 08:31:57.678325 20875 net.cpp:435] ip3 <- ip2
I0506 08:31:57.678338 20875 net.cpp:409] ip3 -> ip3
I0506 08:31:57.678459 20875 net.cpp:144] Setting up ip3
I0506 08:31:57.678467 20875 net.cpp:151] Top shape: 20 1 (20)
I0506 08:31:57.678469 20875 net.cpp:159] Memory required for data: 3884000
I0506 08:31:57.678475 20875 layer_factory.hpp:77] Creating layer loss
I0506 08:31:57.678488 20875 net.cpp:94] Creating Layer loss
I0506 08:31:57.678490 20875 net.cpp:435] loss <- ip3
I0506 08:31:57.678494 20875 net.cpp:435] loss <- label
I0506 08:31:57.678499 20875 net.cpp:409] loss -> loss
I0506 08:31:57.678551 20875 net.cpp:144] Setting up loss
…
I0506 08:31:57.784518 20875 net.cpp:323] The NetState phase (0) differed from the phase (1) specified by a rule in layer intercept
I0506 08:31:57.784533 20875 net.cpp:323] The NetState phase (0) differed from the phase (1) specified by a rule in layer accuracy
I0506 08:31:57.784637 20875 net.cpp:52] Initializing net from parameters: 
state {
  phase: TRAIN
}
layer {
  name: "parameters"
  type: "HDF5Data"
  top: "data"
  top: "label"
  include {
    phase: TRAIN
  }
  hdf5_data_param {
    source: "/home/purduethu/scratch/radon/d/deng106/CNNStatisticalModel/distributions/input/50_distributions_100_sample_size_train-distributions-path.txt"
    batch_size: 20
  }
}
layer {
  name: "conv1"
  type: "Convolution"
  bottom: "data"
  top: "conv1"
  param {
    lr_mult: 1
  }
  param {
    lr_mult: 2
  }
  convolution_param {
    num_output: 64
    pad: 2
    kernel_size: 5
    stride: 1
    weight_filler {
      type: "gaussian"
      std: 0.0001
    }
    bias_filler {
      type: "constant"
    }
  }
}
layer {
  name: "relu1"
  type: "ReLU"
  bottom: "conv1"
  top: "conv1"
}
layer {
  name: "conv2"
  type: "Convolution"
  bottom: "conv1"
  top: "conv2"
  param {
    lr_mult: 1
  }
  param {
    lr_mult: 2
  }
  convolution_param {
    num_output: 64
    pad: 2
    kernel_size: 5
    stride: 1
    weight_filler {
      type: "gaussian"
      std: 0.01
    }
    bias_filler {
      type: "constant"
    }
  }
}
layer {
  name: "relu2"
  type: "ReLU"
  bottom: "conv2"
  top: "conv2"
}
layer {
  name: "pool2"
  type: "Pooling"
  bottom: "conv2"
  top: "pool2"
  pooling_param {
    pool: MAX
    kernel_size: 3
    stride: 2
  }
}
layer {
  name: "conv3"
  type: "Convolution"
  bottom: "pool2"
  top: "conv3"
  param {
    lr_mult: 1
  }
  param {
    lr_mult: 2
  }
  convolution_param {
    num_output: 128
    pad: 2
    kernel_size: 5
    stride: 1
    weight_filler {
      type: "gaussian"
      std: 0.01
    }
    bias_filler {
      type: "constant"
    }
  }
}
layer {
  name: "relu3"
  type: "ReLU"
  bottom: "conv3"
  top: "conv3"
}
layer {
  name: "conv4"
  type: "Convolution"
  bottom: "conv3"
  top: "conv4"
  param {
    lr_mult: 1
  }
  param {
    lr_mult: 2
  }
  convolution_param {
    num_output: 128
    pad: 2
    kernel_size: 5
    stride: 1
    weight_filler {
      type: "gaussian"
      std: 0.01
    }
    bias_filler {
      type: "constant"
    }
  }
}
layer {
  name: "relu4"
  type: "ReLU"
  bottom: "conv4"
  top: "conv4"
}
layer {
  name: "conv5"
  type: "Convolution"
  bottom: "conv4"
  top: "conv5"
  param {
    lr_mult: 1
  }
  param {
    lr_mult: 2
  }
  convolution_param {
    num_output: 128
    pad: 2
    kernel_size: 5
    stride: 1
    weight_filler {
      type: "gaussian"
      std: 0.01
    }
    bias_filler {
      type: "constant"
    }
  }
}
layer {
  name: "relu5"
  type: "ReLU"
  bottom: "conv5"
  top: "conv5"
}
layer {
  name: "pool5"
  type: "Pooling"
  bottom: "conv5"
  top: "pool5"
  pooling_param {
    pool: AVE
    kernel_size: 3
    stride: 2
  }
}
layer {
  name: "ip1"
  type: "InnerProduct"
  bottom: "pool5"
  top: "ip1"
  param {
    lr_mult: 1
  }
  param {
    lr_mult: 2
  }
  inner_product_param {
    num_output: 1024
    weight_filler {
      type: "gaussian"
      std: 0.1
    }
    bias_filler {
      type: "constant"
    }
  }
}
layer {
  name: "ip2"
  type: "InnerProduct"
  bottom: "ip1"
  top: "ip2"
  param {
    lr_mult: 1
  }
  param {
    lr_mult: 2
  }
  inner_product_param {
    num_output: 512
    weight_filler {
      type: "gaussian"
      std: 0.1
    }
    bias_filler {
      type: "constant"
    }
  }
}
layer {
  name: "ip3"
  type: "InnerProduct"
  bottom: "ip2"
  top: "ip3"
  param {
    lr_mult: 1
  }
  param {
    lr_mult: 2
  }
  inner_product_param {
    num_output: 50
    weight_filler {
      type: "gaussian"
      std: 0.1
    }
    bias_filler {
      type: "constant"
    }
  }
}
layer {
  name: "loss"
  type: "SoftmaxWithLoss"
  bottom: "ip3"
  bottom: "label"
  top: "loss"
}
I0506 08:31:57.784689 20875 layer_factory.hpp:77] Creating layer parameters
I0506 08:31:57.784698 20875 net.cpp:94] Creating Layer parameters
I0506 08:31:57.784701 20875 net.cpp:409] parameters -> data
I0506 08:31:57.784708 20875 net.cpp:409] parameters -> label
I0506 08:31:57.784713 20875 hdf5_data_layer.cpp:79] Loading list of HDF5 filenames from: /home/purduethu/scratch/radon/d/deng106/CNNStatisticalModel/distributions/input/50_distributions_100_sample_size_train-distributions-path.txt
I0506 08:31:57.784730 20875 hdf5_data_layer.cpp:93] Number of HDF5 files: 1
I0506 08:31:57.940114 20875 hdf5.cpp:35] Datatype class: H5T_INTEGER
I0506 08:31:57.943203 20875 net.cpp:144] Setting up parameters
I0506 08:31:57.943228 20875 net.cpp:151] Top shape: 20 1 10 10 (2000)
I0506 08:31:57.943233 20875 net.cpp:151] Top shape: 20 (20)
I0506 08:31:57.943235 20875 net.cpp:159] Memory required for data: 8080
I0506 08:31:57.943241 20875 layer_factory.hpp:77] Creating layer conv1
I0506 08:31:57.943259 20875 net.cpp:94] Creating Layer conv1
I0506 08:31:57.943262 20875 net.cpp:435] conv1 <- data
I0506 08:31:57.943269 20875 net.cpp:409] conv1 -> conv1
I0506 08:31:57.945016 20875 net.cpp:144] Setting up conv1
I0506 08:31:57.945030 20875 net.cpp:151] Top shape: 20 64 10 10 (128000)
I0506 08:31:57.945034 20875 net.cpp:159] Memory required for data: 520080
I0506 08:31:57.945044 20875 layer_factory.hpp:77] Creating layer relu1
I0506 08:31:57.945051 20875 net.cpp:94] Creating Layer relu1
I0506 08:31:57.945055 20875 net.cpp:435] relu1 <- conv1
I0506 08:31:57.945060 20875 net.cpp:396] relu1 -> conv1 (in-place)
I0506 08:31:57.945066 20875 net.cpp:144] Setting up relu1
I0506 08:31:57.945070 20875 net.cpp:151] Top shape: 20 64 10 10 (128000)
I0506 08:31:57.945073 20875 net.cpp:159] Memory required for data: 1032080
I0506 08:31:57.945076 20875 layer_factory.hpp:77] Creating layer conv2
I0506 08:31:57.945083 20875 net.cpp:94] Creating Layer conv2
I0506 08:31:57.945087 20875 net.cpp:435] conv2 <- conv1
I0506 08:31:57.945091 20875 net.cpp:409] conv2 -> conv2
I0506 08:31:57.950418 20875 net.cpp:144] Setting up conv2
I0506 08:31:57.950433 20875 net.cpp:151] Top shape: 20 64 10 10 (128000)
I0506 08:31:57.950436 20875 net.cpp:159] Memory required for data: 1544080
I0506 08:31:57.950443 20875 layer_factory.hpp:77] Creating layer relu2
I0506 08:31:57.950450 20875 net.cpp:94] Creating Layer relu2
I0506 08:31:57.950454 20875 net.cpp:435] relu2 <- conv2
I0506 08:31:57.950459 20875 net.cpp:396] relu2 -> conv2 (in-place)
I0506 08:31:57.950465 20875 net.cpp:144] Setting up relu2
I0506 08:31:57.950469 20875 net.cpp:151] Top shape: 20 64 10 10 (128000)
I0506 08:31:57.950472 20875 net.cpp:159] Memory required for data: 2056080
I0506 08:31:57.950475 20875 layer_factory.hpp:77] Creating layer pool2
I0506 08:31:57.950481 20875 net.cpp:94] Creating Layer pool2
I0506 08:31:57.950484 20875 net.cpp:435] pool2 <- conv2
I0506 08:31:57.950489 20875 net.cpp:409] pool2 -> pool2
I0506 08:31:57.950544 20875 net.cpp:144] Setting up pool2
I0506 08:31:57.950552 20875 net.cpp:151] Top shape: 20 64 5 5 (32000)
I0506 08:31:57.950556 20875 net.cpp:159] Memory required for data: 2184080
I0506 08:31:57.950558 20875 layer_factory.hpp:77] Creating layer conv3
I0506 08:31:57.950567 20875 net.cpp:94] Creating Layer conv3
I0506 08:31:57.950570 20875 net.cpp:435] conv3 <- pool2
I0506 08:31:57.950574 20875 net.cpp:409] conv3 -> conv3
I0506 08:31:57.959117 20875 net.cpp:144] Setting up conv3
I0506 08:31:57.959131 20875 net.cpp:151] Top shape: 20 128 5 5 (64000)
I0506 08:31:57.959136 20875 net.cpp:159] Memory required for data: 2440080
I0506 08:31:57.959143 20875 layer_factory.hpp:77] Creating layer relu3
I0506 08:31:57.959149 20875 net.cpp:94] Creating Layer relu3
I0506 08:31:57.959152 20875 net.cpp:435] relu3 <- conv3
I0506 08:31:57.959156 20875 net.cpp:396] relu3 -> conv3 (in-place)
I0506 08:31:57.959169 20875 net.cpp:144] Setting up relu3
I0506 08:31:57.959174 20875 net.cpp:151] Top shape: 20 128 5 5 (64000)
I0506 08:31:57.959177 20875 net.cpp:159] Memory required for data: 2696080
I0506 08:31:57.959180 20875 layer_factory.hpp:77] Creating layer conv4
I0506 08:31:57.959188 20875 net.cpp:94] Creating Layer conv4
I0506 08:31:57.959192 20875 net.cpp:435] conv4 <- conv3
I0506 08:31:57.959197 20875 net.cpp:409] conv4 -> conv4
I0506 08:31:57.973881 20875 net.cpp:144] Setting up conv4
I0506 08:31:57.973894 20875 net.cpp:151] Top shape: 20 128 5 5 (64000)
I0506 08:31:57.973898 20875 net.cpp:159] Memory required for data: 2952080
I0506 08:31:57.973906 20875 layer_factory.hpp:77] Creating layer relu4
I0506 08:31:57.973911 20875 net.cpp:94] Creating Layer relu4
I0506 08:31:57.973914 20875 net.cpp:435] relu4 <- conv4
I0506 08:31:57.973918 20875 net.cpp:396] relu4 -> conv4 (in-place)
I0506 08:31:57.973925 20875 net.cpp:144] Setting up relu4
I0506 08:31:57.973930 20875 net.cpp:151] Top shape: 20 128 5 5 (64000)
I0506 08:31:57.973933 20875 net.cpp:159] Memory required for data: 3208080
I0506 08:31:57.973937 20875 layer_factory.hpp:77] Creating layer conv5
I0506 08:31:57.973943 20875 net.cpp:94] Creating Layer conv5
I0506 08:31:57.973947 20875 net.cpp:435] conv5 <- conv4
I0506 08:31:57.973951 20875 net.cpp:409] conv5 -> conv5
I0506 08:31:57.989068 20875 net.cpp:144] Setting up conv5
I0506 08:31:57.989084 20875 net.cpp:151] Top shape: 20 128 5 5 (64000)
I0506 08:31:57.989087 20875 net.cpp:159] Memory required for data: 3464080
I0506 08:31:57.989096 20875 layer_factory.hpp:77] Creating layer relu5
I0506 08:31:57.989102 20875 net.cpp:94] Creating Layer relu5
I0506 08:31:57.989106 20875 net.cpp:435] relu5 <- conv5
I0506 08:31:57.989110 20875 net.cpp:396] relu5 -> conv5 (in-place)
I0506 08:31:57.989117 20875 net.cpp:144] Setting up relu5
I0506 08:31:57.989121 20875 net.cpp:151] Top shape: 20 128 5 5 (64000)
I0506 08:31:57.989125 20875 net.cpp:159] Memory required for data: 3720080
I0506 08:31:57.989127 20875 layer_factory.hpp:77] Creating layer pool5
I0506 08:31:57.989132 20875 net.cpp:94] Creating Layer pool5
I0506 08:31:57.989135 20875 net.cpp:435] pool5 <- conv5
I0506 08:31:57.989140 20875 net.cpp:409] pool5 -> pool5
I0506 08:31:57.989181 20875 net.cpp:144] Setting up pool5
I0506 08:31:57.989188 20875 net.cpp:151] Top shape: 20 128 2 2 (10240)
I0506 08:31:57.989192 20875 net.cpp:159] Memory required for data: 3761040
I0506 08:31:57.989194 20875 layer_factory.hpp:77] Creating layer ip1
I0506 08:31:57.989202 20875 net.cpp:94] Creating Layer ip1
I0506 08:31:57.989205 20875 net.cpp:435] ip1 <- pool5
I0506 08:31:57.989209 20875 net.cpp:409] ip1 -> ip1
I0506 08:31:58.002307 20875 net.cpp:144] Setting up ip1
I0506 08:31:58.002321 20875 net.cpp:151] Top shape: 20 1024 (20480)
I0506 08:31:58.002324 20875 net.cpp:159] Memory required for data: 3842960
I0506 08:31:58.002331 20875 layer_factory.hpp:77] Creating layer ip2
I0506 08:31:58.002337 20875 net.cpp:94] Creating Layer ip2
I0506 08:31:58.002341 20875 net.cpp:435] ip2 <- ip1
I0506 08:31:58.002346 20875 net.cpp:409] ip2 -> ip2
I0506 08:31:58.015440 20875 net.cpp:144] Setting up ip2
I0506 08:31:58.015455 20875 net.cpp:151] Top shape: 20 512 (10240)
I0506 08:31:58.015458 20875 net.cpp:159] Memory required for data: 3883920
I0506 08:31:58.015465 20875 layer_factory.hpp:77] Creating layer ip3
I0506 08:31:58.015470 20875 net.cpp:94] Creating Layer ip3
I0506 08:31:58.015475 20875 net.cpp:435] ip3 <- ip2
I0506 08:31:58.015480 20875 net.cpp:409] ip3 -> ip3
I0506 08:31:58.017120 20875 net.cpp:144] Setting up ip3
I0506 08:31:58.017133 20875 net.cpp:151] Top shape: 20 50 (1000)
I0506 08:31:58.017138 20875 net.cpp:159] Memory required for data: 3887920
I0506 08:31:58.017143 20875 layer_factory.hpp:77] Creating layer loss
I0506 08:31:58.017150 20875 net.cpp:94] Creating Layer loss
I0506 08:31:58.017154 20875 net.cpp:435] loss <- ip3
I0506 08:31:58.017158 20875 net.cpp:435] loss <- label
I0506 08:31:58.017163 20875 net.cpp:409] loss -> loss
I0506 08:31:58.017170 20875 layer_factory.hpp:77] Creating layer loss
…
I0506 08:31:58.017693 20875 solver.cpp:181] Creating test net (#0) specified by net file: ./protocol/dis_50_100_dimension.protocol_distribution
I0506 08:31:58.017719 20875 net.cpp:323] The NetState phase (1) differed from the phase (0) specified by a rule in layer parameters
I0506 08:31:58.017810 20875 net.cpp:52] Initializing net from parameters: 
state {
  phase: TEST
}
layer {
  name: "intercept"
  type: "HDF5Data"
  top: "data"
  top: "label"
  include {
    phase: TEST
  }
  hdf5_data_param {
    source: "/home/purduethu/scratch/radon/d/deng106/CNNStatisticalModel/distributions/input/50_distributions_100_sample_size_test-distributions-path.txt"
    batch_size: 20
  }
}
layer {
  name: "conv1"
  type: "Convolution"
  bottom: "data"
  top: "conv1"
  param {
    lr_mult: 1
  }
  param {
    lr_mult: 2
  }
  convolution_param {
    num_output: 64
    pad: 2
    kernel_size: 5
    stride: 1
    weight_filler {
      type: "gaussian"
      std: 0.0001
    }
    bias_filler {
      type: "constant"
    }
  }
}
layer {
  name: "relu1"
  type: "ReLU"
  bottom: "conv1"
  top: "conv1"
}
layer {
  name: "conv2"
  type: "Convolution"
  bottom: "conv1"
  top: "conv2"
  param {
    lr_mult: 1
  }
  param {
    lr_mult: 2
  }
  convolution_param {
    num_output: 64
    pad: 2
    kernel_size: 5
    stride: 1
    weight_filler {
      type: "gaussian"
      std: 0.01
    }
    bias_filler {
      type: "constant"
    }
  }
}
layer {
  name: "relu2"
  type: "ReLU"
  bottom: "conv2"
  top: "conv2"
}
layer {
  name: "pool2"
  type: "Pooling"
  bottom: "conv2"
  top: "pool2"
  pooling_param {
    pool: MAX
    kernel_size: 3
    stride: 2
  }
}
layer {
  name: "conv3"
  type: "Convolution"
  bottom: "pool2"
  top: "conv3"
  param {
    lr_mult: 1
  }
  param {
    lr_mult: 2
  }
  convolution_param {
    num_output: 128
    pad: 2
    kernel_size: 5
    stride: 1
    weight_filler {
      type: "gaussian"
      std: 0.01
    }
    bias_filler {
      type: "constant"
    }
  }
}
layer {
  name: "relu3"
  type: "ReLU"
  bottom: "conv3"
  top: "conv3"
}
layer {
  name: "conv4"
  type: "Convolution"
  bottom: "conv3"
  top: "conv4"
  param {
    lr_mult: 1
  }
  param {
    lr_mult: 2
  }
  convolution_param {
    num_output: 128
    pad: 2
    kernel_size: 5
    stride: 1
    weight_filler {
      type: "gaussian"
      std: 0.01
    }
    bias_filler {
      type: "constant"
    }
  }
}
layer {
  name: "relu4"
  type: "ReLU"
  bottom: "conv4"
  top: "conv4"
}
layer {
  name: "conv5"
  type: "Convolution"
  bottom: "conv4"
  top: "conv5"
  param {
    lr_mult: 1
  }
  param {
    lr_mult: 2
  }
  convolution_param {
    num_output: 128
    pad: 2
    kernel_size: 5
    stride: 1
    weight_filler {
      type: "gaussian"
      std: 0.01
    }
    bias_filler {
      type: "constant"
    }
  }
}
layer {
  name: "relu5"
  type: "ReLU"
  bottom: "conv5"
  top: "conv5"
}
layer {
  name: "pool5"
  type: "Pooling"
  bottom: "conv5"
  top: "pool5"
  pooling_param {
    pool: AVE
    kernel_size: 3
    stride: 2
  }
}
layer {
  name: "ip1"
  type: "InnerProduct"
  bottom: "pool5"
  top: "ip1"
  param {
    lr_mult: 1
  }
  param {
    lr_mult: 2
  }
  inner_product_param {
    num_output: 1024
    weight_filler {
      type: "gaussian"
      std: 0.1
    }
    bias_filler {
      type: "constant"
    }
  }
}
layer {
  name: "ip2"
  type: "InnerProduct"
  bottom: "ip1"
  top: "ip2"
  param {
    lr_mult: 1
  }
  param {
    lr_mult: 2
  }
  inner_product_param {
    num_output: 512
    weight_filler {
      type: "gaussian"
      std: 0.1
    }
    bias_filler {
      type: "constant"
    }
  }
}
layer {
  name: "ip3"
  type: "InnerProduct"
  bottom: "ip2"
  top: "ip3"
  param {
    lr_mult: 1
  }
  param {
    lr_mult: 2
  }
  inner_product_param {
    num_output: 50
    weight_filler {
      type: "gaussian"
      std: 0.1
    }
    bias_filler {
      type: "constant"
    }
  }
}
layer {
  name: "accuracy"
  type: "Accuracy"
  bottom: "ip3"
  bottom: "label"
  top: "accuracy"
  include {
    phase: TEST
  }
}
layer {
  name: "loss"
  type: "SoftmaxWithLoss"
  bottom: "ip3"
  bottom: "label"
  top: "loss"
}
I0506 08:31:58.017873 20875 layer_factory.hpp:77] Creating layer intercept
I0506 08:31:58.017880 20875 net.cpp:94] Creating Layer intercept
I0506 08:31:58.017884 20875 net.cpp:409] intercept -> data
I0506 08:31:58.017890 20875 net.cpp:409] intercept -> label
I0506 08:31:58.017896 20875 hdf5_data_layer.cpp:79] Loading list of HDF5 filenames from: /home/purduethu/scratch/radon/d/deng106/CNNStatisticalModel/distributions/input/50_distributions_100_sample_size_test-distributions-path.txt
I0506 08:31:58.017915 20875 hdf5_data_layer.cpp:93] Number of HDF5 files: 1
I0506 08:31:58.059139 20875 net.cpp:144] Setting up intercept
I0506 08:31:58.059171 20875 net.cpp:151] Top shape: 20 1 10 10 (2000)
I0506 08:31:58.059176 20875 net.cpp:151] Top shape: 20 (20)
I0506 08:31:58.059180 20875 net.cpp:159] Memory required for data: 8080
I0506 08:31:58.059185 20875 layer_factory.hpp:77] Creating layer label_intercept_1_split
I0506 08:31:58.059204 20875 net.cpp:94] Creating Layer label_intercept_1_split
I0506 08:31:58.059209 20875 net.cpp:435] label_intercept_1_split <- label
I0506 08:31:58.059216 20875 net.cpp:409] label_intercept_1_split -> label_intercept_1_split_0
I0506 08:31:58.059223 20875 net.cpp:409] label_intercept_1_split -> label_intercept_1_split_1
I0506 08:31:58.059268 20875 net.cpp:144] Setting up label_intercept_1_split
I0506 08:31:58.059274 20875 net.cpp:151] Top shape: 20 (20)
I0506 08:31:58.059278 20875 net.cpp:151] Top shape: 20 (20)
I0506 08:31:58.059280 20875 net.cpp:159] Memory required for data: 8240
I0506 08:31:58.059284 20875 layer_factory.hpp:77] Creating layer conv1
I0506 08:31:58.059294 20875 net.cpp:94] Creating Layer conv1
I0506 08:31:58.059298 20875 net.cpp:435] conv1 <- data
I0506 08:31:58.059303 20875 net.cpp:409] conv1 -> conv1
I0506 08:31:58.060169 20875 net.cpp:144] Setting up conv1
I0506 08:31:58.060184 20875 net.cpp:151] Top shape: 20 64 10 10 (128000)
I0506 08:31:58.060187 20875 net.cpp:159] Memory required for data: 520240
I0506 08:31:58.060197 20875 layer_factory.hpp:77] Creating layer relu1
I0506 08:31:58.060204 20875 net.cpp:94] Creating Layer relu1
I0506 08:31:58.060207 20875 net.cpp:435] relu1 <- conv1
I0506 08:31:58.060211 20875 net.cpp:396] relu1 -> conv1 (in-place)
I0506 08:31:58.060219 20875 net.cpp:144] Setting up relu1
I0506 08:31:58.060222 20875 net.cpp:151] Top shape: 20 64 10 10 (128000)
I0506 08:31:58.060233 20875 net.cpp:159] Memory required for data: 1032240
I0506 08:31:58.060236 20875 layer_factory.hpp:77] Creating layer conv2
I0506 08:31:58.060245 20875 net.cpp:94] Creating Layer conv2
I0506 08:31:58.060248 20875 net.cpp:435] conv2 <- conv1
I0506 08:31:58.060252 20875 net.cpp:409] conv2 -> conv2
I0506 08:31:58.064422 20875 net.cpp:144] Setting up conv2
I0506 08:31:58.064435 20875 net.cpp:151] Top shape: 20 64 10 10 (128000)
I0506 08:31:58.064440 20875 net.cpp:159] Memory required for data: 1544240
I0506 08:31:58.064447 20875 layer_factory.hpp:77] Creating layer relu2
I0506 08:31:58.064453 20875 net.cpp:94] Creating Layer relu2
I0506 08:31:58.064456 20875 net.cpp:435] relu2 <- conv2
I0506 08:31:58.064460 20875 net.cpp:396] relu2 -> conv2 (in-place)
I0506 08:31:58.064467 20875 net.cpp:144] Setting up relu2
I0506 08:31:58.064471 20875 net.cpp:151] Top shape: 20 64 10 10 (128000)
I0506 08:31:58.064474 20875 net.cpp:159] Memory required for data: 2056240
I0506 08:31:58.064477 20875 layer_factory.hpp:77] Creating layer pool2
I0506 08:31:58.064483 20875 net.cpp:94] Creating Layer pool2
I0506 08:31:58.064486 20875 net.cpp:435] pool2 <- conv2
I0506 08:31:58.064491 20875 net.cpp:409] pool2 -> pool2
I0506 08:31:58.064563 20875 net.cpp:144] Setting up pool2
I0506 08:31:58.064570 20875 net.cpp:151] Top shape: 20 64 5 5 (32000)
I0506 08:31:58.064574 20875 net.cpp:159] Memory required for data: 2184240
I0506 08:31:58.064576 20875 layer_factory.hpp:77] Creating layer conv3
I0506 08:31:58.064585 20875 net.cpp:94] Creating Layer conv3
I0506 08:31:58.064589 20875 net.cpp:435] conv3 <- pool2
I0506 08:31:58.064594 20875 net.cpp:409] conv3 -> conv3
I0506 08:31:58.070672 20875 net.cpp:144] Setting up conv3
I0506 08:31:58.070685 20875 net.cpp:151] Top shape: 20 128 5 5 (64000)
I0506 08:31:58.070688 20875 net.cpp:159] Memory required for data: 2440240
I0506 08:31:58.070696 20875 layer_factory.hpp:77] Creating layer relu3
I0506 08:31:58.070703 20875 net.cpp:94] Creating Layer relu3
I0506 08:31:58.070706 20875 net.cpp:435] relu3 <- conv3
I0506 08:31:58.070710 20875 net.cpp:396] relu3 -> conv3 (in-place)
I0506 08:31:58.070718 20875 net.cpp:144] Setting up relu3
I0506 08:31:58.070721 20875 net.cpp:151] Top shape: 20 128 5 5 (64000)
I0506 08:31:58.070724 20875 net.cpp:159] Memory required for data: 2696240
I0506 08:31:58.070727 20875 layer_factory.hpp:77] Creating layer conv4
I0506 08:31:58.070735 20875 net.cpp:94] Creating Layer conv4
I0506 08:31:58.070739 20875 net.cpp:435] conv4 <- conv3
I0506 08:31:58.070744 20875 net.cpp:409] conv4 -> conv4
I0506 08:31:58.083443 20875 net.cpp:144] Setting up conv4
I0506 08:31:58.083457 20875 net.cpp:151] Top shape: 20 128 5 5 (64000)
I0506 08:31:58.083461 20875 net.cpp:159] Memory required for data: 2952240
I0506 08:31:58.083467 20875 layer_factory.hpp:77] Creating layer relu4
I0506 08:31:58.083473 20875 net.cpp:94] Creating Layer relu4
I0506 08:31:58.083477 20875 net.cpp:435] relu4 <- conv4
I0506 08:31:58.083482 20875 net.cpp:396] relu4 -> conv4 (in-place)
I0506 08:31:58.083488 20875 net.cpp:144] Setting up relu4
I0506 08:31:58.083493 20875 net.cpp:151] Top shape: 20 128 5 5 (64000)
I0506 08:31:58.083498 20875 net.cpp:159] Memory required for data: 3208240
I0506 08:31:58.083499 20875 layer_factory.hpp:77] Creating layer conv5
I0506 08:31:58.083508 20875 net.cpp:94] Creating Layer conv5
I0506 08:31:58.083510 20875 net.cpp:435] conv5 <- conv4
I0506 08:31:58.083515 20875 net.cpp:409] conv5 -> conv5
I0506 08:31:58.096159 20875 net.cpp:144] Setting up conv5
I0506 08:31:58.096179 20875 net.cpp:151] Top shape: 20 128 5 5 (64000)
I0506 08:31:58.096182 20875 net.cpp:159] Memory required for data: 3464240
I0506 08:31:58.096190 20875 layer_factory.hpp:77] Creating layer relu5
I0506 08:31:58.096196 20875 net.cpp:94] Creating Layer relu5
I0506 08:31:58.096199 20875 net.cpp:435] relu5 <- conv5
I0506 08:31:58.096204 20875 net.cpp:396] relu5 -> conv5 (in-place)
I0506 08:31:58.096210 20875 net.cpp:144] Setting up relu5
I0506 08:31:58.096215 20875 net.cpp:151] Top shape: 20 128 5 5 (64000)
I0506 08:31:58.096223 20875 net.cpp:159] Memory required for data: 3720240
I0506 08:31:58.096226 20875 layer_factory.hpp:77] Creating layer pool5
I0506 08:31:58.096233 20875 net.cpp:94] Creating Layer pool5
I0506 08:31:58.096236 20875 net.cpp:435] pool5 <- conv5
I0506 08:31:58.096240 20875 net.cpp:409] pool5 -> pool5
I0506 08:31:58.096284 20875 net.cpp:144] Setting up pool5
I0506 08:31:58.096292 20875 net.cpp:151] Top shape: 20 128 2 2 (10240)
I0506 08:31:58.096294 20875 net.cpp:159] Memory required for data: 3761200
I0506 08:31:58.096297 20875 layer_factory.hpp:77] Creating layer ip1
I0506 08:31:58.096304 20875 net.cpp:94] Creating Layer ip1
I0506 08:31:58.096307 20875 net.cpp:435] ip1 <- pool5
I0506 08:31:58.096312 20875 net.cpp:409] ip1 -> ip1
I0506 08:31:58.109447 20875 net.cpp:144] Setting up ip1
I0506 08:31:58.109460 20875 net.cpp:151] Top shape: 20 1024 (20480)
I0506 08:31:58.109464 20875 net.cpp:159] Memory required for data: 3843120
I0506 08:31:58.109470 20875 layer_factory.hpp:77] Creating layer ip2
I0506 08:31:58.109477 20875 net.cpp:94] Creating Layer ip2
I0506 08:31:58.109480 20875 net.cpp:435] ip2 <- ip1
I0506 08:31:58.109486 20875 net.cpp:409] ip2 -> ip2
I0506 08:31:58.122568 20875 net.cpp:144] Setting up ip2
I0506 08:31:58.122581 20875 net.cpp:151] Top shape: 20 512 (10240)
I0506 08:31:58.122586 20875 net.cpp:159] Memory required for data: 3884080
I0506 08:31:58.122591 20875 layer_factory.hpp:77] Creating layer ip3
I0506 08:31:58.122601 20875 net.cpp:94] Creating Layer ip3
I0506 08:31:58.122604 20875 net.cpp:435] ip3 <- ip2
I0506 08:31:58.122609 20875 net.cpp:409] ip3 -> ip3
I0506 08:31:58.123353 20875 net.cpp:144] Setting up ip3
I0506 08:31:58.123361 20875 net.cpp:151] Top shape: 20 50 (1000)
I0506 08:31:58.123364 20875 net.cpp:159] Memory required for data: 3888080
I0506 08:31:58.123369 20875 layer_factory.hpp:77] Creating layer ip3_ip3_0_split
I0506 08:31:58.123374 20875 net.cpp:94] Creating Layer ip3_ip3_0_split
I0506 08:31:58.123378 20875 net.cpp:435] ip3_ip3_0_split <- ip3
I0506 08:31:58.123383 20875 net.cpp:409] ip3_ip3_0_split -> ip3_ip3_0_split_0
I0506 08:31:58.123389 20875 net.cpp:409] ip3_ip3_0_split -> ip3_ip3_0_split_1
I0506 08:31:58.123435 20875 net.cpp:144] Setting up ip3_ip3_0_split
I0506 08:31:58.123440 20875 net.cpp:151] Top shape: 20 50 (1000)
I0506 08:31:58.123445 20875 net.cpp:151] Top shape: 20 50 (1000)
I0506 08:31:58.123446 20875 net.cpp:159] Memory required for data: 3896080
I0506 08:31:58.123450 20875 layer_factory.hpp:77] Creating layer accuracy
I0506 08:31:58.123456 20875 net.cpp:94] Creating Layer accuracy
I0506 08:31:58.123458 20875 net.cpp:435] accuracy <- ip3_ip3_0_split_0
I0506 08:31:58.123461 20875 net.cpp:435] accuracy <- label_intercept_1_split_0
I0506 08:31:58.123466 20875 net.cpp:409] accuracy -> accuracy
…
