…
I0504 23:38:20.255225   732 net.cpp:323] The NetState phase (0) differed from the phase (1) specified by a rule in layer intercept
I0504 23:38:20.255241   732 net.cpp:323] The NetState phase (0) differed from the phase (1) specified by a rule in layer loss
I0504 23:38:20.255321   732 net.cpp:52] Initializing net from parameters: 
state {
  phase: TRAIN
}
layer {
  name: "parameters"
  type: "HDF5Data"
  top: "data"
  top: "label"
  include {
    phase: TRAIN
  }
  hdf5_data_param {
    source: "/home/purduethu/scratch/radon/d/deng106/CNNStatisticalModel/distributions/input/50_distributions_100_sample_size_train-parameters-path.txt"
    batch_size: 20
  }
}
layer {
  name: "conv1"
  type: "Convolution"
  bottom: "data"
  top: "conv1"
  param {
    lr_mult: 1
  }
  param {
    lr_mult: 2
  }
  convolution_param {
    num_output: 64
    pad: 2
    kernel_size: 5
    stride: 1
    weight_filler {
      type: "gaussian"
      std: 0.0001
    }
    bias_filler {
      type: "constant"
    }
  }
}
layer {
  name: "relu1"
  type: "ReLU"
  bottom: "conv1"
  top: "conv1"
}
layer {
  name: "pool1"
  type: "Pooling"
  bottom: "conv1"
  top: "pool1"
  pooling_param {
    pool: MAX
    kernel_size: 3
    stride: 2
  }
}
layer {
  name: "conv2"
  type: "Convolution"
  bottom: "pool1"
  top: "conv2"
  param {
    lr_mult: 1
  }
  param {
    lr_mult: 2
  }
  convolution_param {
    num_output: 128
    pad: 2
    kernel_size: 5
    stride: 1
    weight_filler {
      type: "gaussian"
      std: 0.01
    }
    bias_filler {
      type: "constant"
    }
  }
}
layer {
  name: "relu2"
  type: "ReLU"
  bottom: "conv2"
  top: "conv2"
}
layer {
  name: "conv3"
  type: "Convolution"
  bottom: "conv2"
  top: "conv3"
  param {
    lr_mult: 1
  }
  param {
    lr_mult: 2
  }
  convolution_param {
    num_output: 128
    pad: 2
    kernel_size: 5
    stride: 1
    weight_filler {
      type: "gaussian"
      std: 0.01
    }
    bias_filler {
      type: "constant"
    }
  }
}
layer {
  name: "relu3"
  type: "ReLU"
  bottom: "conv3"
  top: "conv3"
}
layer {
  name: "pool3"
  type: "Pooling"
  bottom: "conv3"
  top: "pool3"
  pooling_param {
    pool: AVE
    kernel_size: 3
    stride: 2
  }
}
layer {
  name: "ip1"
  type: "InnerProduct"
  bottom: "pool3"
  top: "ip1"
  param {
    lr_mult: 1
  }
  param {
    lr_mult: 2
  }
  inner_product_param {
    num_output: 512
    weight_filler {
      type: "gaussian"
      std: 0.1
    }
    bias_filler {
      type: "constant"
    }
  }
}
layer {
  name: "ip2"
  type: "InnerProduct"
  bottom: "ip1"
  top: "ip2"
  param {
    lr_mult: 1
  }
  param {
    lr_mult: 2
  }
  inner_product_param {
    num_output: 256
    weight_filler {
      type: "gaussian"
      std: 0.1
    }
    bias_filler {
      type: "constant"
    }
  }
}
layer {
  name: "ip3"
  type: "InnerProduct"
  bottom: "ip2"
  top: "ip3"
  param {
    lr_mult: 1
  }
  param {
    lr_mult: 2
  }
  inner_product_param {
    num_output: 1
    weight_filler {
      type: "gaussian"
      std: 0.1
    }
    bias_filler {
      type: "constant"
    }
  }
}
layer {
  name: "loss"
  type: "HuberLoss"
  bottom: "ip3"
  bottom: "label"
  top: "loss"
  include {
    phase: TRAIN
  }
}
I0504 23:38:20.255390   732 layer_factory.hpp:77] Creating layer parameters
I0504 23:38:20.255404   732 net.cpp:94] Creating Layer parameters
I0504 23:38:20.255419   732 net.cpp:409] parameters -> data
I0504 23:38:20.255439   732 net.cpp:409] parameters -> label
I0504 23:38:20.255450   732 hdf5_data_layer.cpp:79] Loading list of HDF5 filenames from: /home/purduethu/scratch/radon/d/deng106/CNNStatisticalModel/distributions/input/50_distributions_100_sample_size_train-parameters-path.txt
I0504 23:38:20.255473   732 hdf5_data_layer.cpp:93] Number of HDF5 files: 1
I0504 23:38:20.256090   732 hdf5.cpp:32] Datatype class: H5T_FLOAT
I0504 23:38:20.420104   732 net.cpp:144] Setting up parameters
I0504 23:38:20.420136   732 net.cpp:151] Top shape: 20 1 10 10 (2000)
I0504 23:38:20.420143   732 net.cpp:151] Top shape: 20 (20)
I0504 23:38:20.420146   732 net.cpp:159] Memory required for data: 8080
I0504 23:38:20.420155   732 layer_factory.hpp:77] Creating layer conv1
I0504 23:38:20.420178   732 net.cpp:94] Creating Layer conv1
I0504 23:38:20.420184   732 net.cpp:435] conv1 <- data
I0504 23:38:20.420195   732 net.cpp:409] conv1 -> conv1
I0504 23:38:20.423951   732 net.cpp:144] Setting up conv1
I0504 23:38:20.423967   732 net.cpp:151] Top shape: 20 64 10 10 (128000)
I0504 23:38:20.423971   732 net.cpp:159] Memory required for data: 520080
I0504 23:38:20.423984   732 layer_factory.hpp:77] Creating layer relu1
I0504 23:38:20.423991   732 net.cpp:94] Creating Layer relu1
I0504 23:38:20.423995   732 net.cpp:435] relu1 <- conv1
I0504 23:38:20.424000   732 net.cpp:396] relu1 -> conv1 (in-place)
I0504 23:38:20.424018   732 net.cpp:144] Setting up relu1
I0504 23:38:20.424024   732 net.cpp:151] Top shape: 20 64 10 10 (128000)
I0504 23:38:20.424027   732 net.cpp:159] Memory required for data: 1032080
I0504 23:38:20.424031   732 layer_factory.hpp:77] Creating layer pool1
I0504 23:38:20.424037   732 net.cpp:94] Creating Layer pool1
I0504 23:38:20.424041   732 net.cpp:435] pool1 <- conv1
I0504 23:38:20.424046   732 net.cpp:409] pool1 -> pool1
I0504 23:38:20.424090   732 net.cpp:144] Setting up pool1
I0504 23:38:20.424096   732 net.cpp:151] Top shape: 20 64 5 5 (32000)
I0504 23:38:20.424100   732 net.cpp:159] Memory required for data: 1160080
I0504 23:38:20.424103   732 layer_factory.hpp:77] Creating layer conv2
I0504 23:38:20.424113   732 net.cpp:94] Creating Layer conv2
I0504 23:38:20.424116   732 net.cpp:435] conv2 <- pool1
I0504 23:38:20.424123   732 net.cpp:409] conv2 -> conv2
I0504 23:38:20.432862   732 net.cpp:144] Setting up conv2
I0504 23:38:20.432885   732 net.cpp:151] Top shape: 20 128 5 5 (64000)
I0504 23:38:20.432889   732 net.cpp:159] Memory required for data: 1416080
I0504 23:38:20.432898   732 layer_factory.hpp:77] Creating layer relu2
I0504 23:38:20.432907   732 net.cpp:94] Creating Layer relu2
I0504 23:38:20.432911   732 net.cpp:435] relu2 <- conv2
I0504 23:38:20.432916   732 net.cpp:396] relu2 -> conv2 (in-place)
I0504 23:38:20.432925   732 net.cpp:144] Setting up relu2
I0504 23:38:20.432929   732 net.cpp:151] Top shape: 20 128 5 5 (64000)
I0504 23:38:20.432934   732 net.cpp:159] Memory required for data: 1672080
I0504 23:38:20.432936   732 layer_factory.hpp:77] Creating layer conv3
I0504 23:38:20.432945   732 net.cpp:94] Creating Layer conv3
I0504 23:38:20.432948   732 net.cpp:435] conv3 <- conv2
I0504 23:38:20.432955   732 net.cpp:409] conv3 -> conv3
I0504 23:38:20.447970   732 net.cpp:144] Setting up conv3
I0504 23:38:20.447999   732 net.cpp:151] Top shape: 20 128 5 5 (64000)
I0504 23:38:20.448004   732 net.cpp:159] Memory required for data: 1928080
I0504 23:38:20.448016   732 layer_factory.hpp:77] Creating layer relu3
I0504 23:38:20.448026   732 net.cpp:94] Creating Layer relu3
I0504 23:38:20.448038   732 net.cpp:435] relu3 <- conv3
I0504 23:38:20.448045   732 net.cpp:396] relu3 -> conv3 (in-place)
I0504 23:38:20.448055   732 net.cpp:144] Setting up relu3
I0504 23:38:20.448060   732 net.cpp:151] Top shape: 20 128 5 5 (64000)
I0504 23:38:20.448062   732 net.cpp:159] Memory required for data: 2184080
I0504 23:38:20.448066   732 layer_factory.hpp:77] Creating layer pool3
I0504 23:38:20.448073   732 net.cpp:94] Creating Layer pool3
I0504 23:38:20.448076   732 net.cpp:435] pool3 <- conv3
I0504 23:38:20.448088   732 net.cpp:409] pool3 -> pool3
I0504 23:38:20.448132   732 net.cpp:144] Setting up pool3
I0504 23:38:20.448139   732 net.cpp:151] Top shape: 20 128 2 2 (10240)
I0504 23:38:20.448143   732 net.cpp:159] Memory required for data: 2225040
I0504 23:38:20.448145   732 layer_factory.hpp:77] Creating layer ip1
I0504 23:38:20.448156   732 net.cpp:94] Creating Layer ip1
I0504 23:38:20.448160   732 net.cpp:435] ip1 <- pool3
I0504 23:38:20.448165   732 net.cpp:409] ip1 -> ip1
I0504 23:38:20.455377   732 net.cpp:144] Setting up ip1
I0504 23:38:20.455397   732 net.cpp:151] Top shape: 20 512 (10240)
I0504 23:38:20.455402   732 net.cpp:159] Memory required for data: 2266000
I0504 23:38:20.455410   732 layer_factory.hpp:77] Creating layer ip2
I0504 23:38:20.455417   732 net.cpp:94] Creating Layer ip2
I0504 23:38:20.455422   732 net.cpp:435] ip2 <- ip1
I0504 23:38:20.455428   732 net.cpp:409] ip2 -> ip2
I0504 23:38:20.459336   732 net.cpp:144] Setting up ip2
I0504 23:38:20.459352   732 net.cpp:151] Top shape: 20 256 (5120)
I0504 23:38:20.459355   732 net.cpp:159] Memory required for data: 2286480
I0504 23:38:20.459367   732 layer_factory.hpp:77] Creating layer ip3
I0504 23:38:20.459374   732 net.cpp:94] Creating Layer ip3
I0504 23:38:20.459378   732 net.cpp:435] ip3 <- ip2
I0504 23:38:20.459384   732 net.cpp:409] ip3 -> ip3
I0504 23:38:20.459456   732 net.cpp:144] Setting up ip3
I0504 23:38:20.459463   732 net.cpp:151] Top shape: 20 1 (20)
I0504 23:38:20.459466   732 net.cpp:159] Memory required for data: 2286560
I0504 23:38:20.459471   732 layer_factory.hpp:77] Creating layer loss
I0504 23:38:20.459477   732 net.cpp:94] Creating Layer loss
I0504 23:38:20.459481   732 net.cpp:435] loss <- ip3
I0504 23:38:20.459486   732 net.cpp:435] loss <- label
I0504 23:38:20.459491   732 net.cpp:409] loss -> loss
I0504 23:38:20.459528   732 net.cpp:144] Setting up loss
…
