…
I0506 11:05:08.147265 21305 net.cpp:323] The NetState phase (0) differed from the phase (1) specified by a rule in layer intercept
I0506 11:05:08.147281 21305 net.cpp:323] The NetState phase (0) differed from the phase (1) specified by a rule in layer loss
I0506 11:05:08.147359 21305 net.cpp:52] Initializing net from parameters: 
state {
  phase: TRAIN
}
layer {
  name: "parameters"
  type: "HDF5Data"
  top: "data"
  top: "label"
  include {
    phase: TRAIN
  }
  hdf5_data_param {
    source: "/home/purduethu/scratch/radon/d/deng106/CNNStatisticalModel/distributions/input/50_distributions_100_sample_size_train-parameters-path.txt"
    batch_size: 20
  }
}
layer {
  name: "conv1"
  type: "Convolution"
  bottom: "data"
  top: "conv1"
  param {
    lr_mult: 1
  }
  param {
    lr_mult: 2
  }
  convolution_param {
    num_output: 64
    pad: 2
    kernel_size: 5
    stride: 1
    weight_filler {
      type: "gaussian"
      std: 0.0001
    }
    bias_filler {
      type: "constant"
    }
  }
}
layer {
  name: "relu1"
  type: "ReLU"
  bottom: "conv1"
  top: "conv1"
}
layer {
  name: "conv2"
  type: "Convolution"
  bottom: "conv1"
  top: "conv2"
  param {
    lr_mult: 1
  }
  param {
    lr_mult: 2
  }
  convolution_param {
    num_output: 64
    pad: 2
    kernel_size: 5
    stride: 1
    weight_filler {
      type: "gaussian"
      std: 0.01
    }
    bias_filler {
      type: "constant"
    }
  }
}
layer {
  name: "relu2"
  type: "ReLU"
  bottom: "conv2"
  top: "conv2"
}
layer {
  name: "pool2"
  type: "Pooling"
  bottom: "conv2"
  top: "pool2"
  pooling_param {
    pool: MAX
    kernel_size: 3
    stride: 2
  }
}
layer {
  name: "conv3"
  type: "Convolution"
  bottom: "pool2"
  top: "conv3"
  param {
    lr_mult: 1
  }
  param {
    lr_mult: 2
  }
  convolution_param {
    num_output: 128
    pad: 2
    kernel_size: 5
    stride: 1
    weight_filler {
      type: "gaussian"
      std: 0.01
    }
    bias_filler {
      type: "constant"
    }
  }
}
layer {
  name: "relu3"
  type: "ReLU"
  bottom: "conv3"
  top: "conv3"
}
layer {
  name: "conv4"
  type: "Convolution"
  bottom: "conv3"
  top: "conv4"
  param {
    lr_mult: 1
  }
  param {
    lr_mult: 2
  }
  convolution_param {
    num_output: 128
    pad: 2
    kernel_size: 5
    stride: 1
    weight_filler {
      type: "gaussian"
      std: 0.01
    }
    bias_filler {
      type: "constant"
    }
  }
}
layer {
  name: "relu4"
  type: "ReLU"
  bottom: "conv4"
  top: "conv4"
}
layer {
  name: "conv5"
  type: "Convolution"
  bottom: "conv4"
  top: "conv5"
  param {
    lr_mult: 1
  }
  param {
    lr_mult: 2
  }
  convolution_param {
    num_output: 128
    pad: 2
    kernel_size: 5
    stride: 1
    weight_filler {
      type: "gaussian"
      std: 0.01
    }
    bias_filler {
      type: "constant"
    }
  }
}
layer {
  name: "relu5"
  type: "ReLU"
  bottom: "conv5"
  top: "conv5"
}
layer {
  name: "pool5"
  type: "Pooling"
  bottom: "conv5"
  top: "pool5"
  pooling_param {
    pool: AVE
    kernel_size: 3
    stride: 2
  }
}
layer {
  name: "ip1"
  type: "InnerProduct"
  bottom: "pool5"
  top: "ip1"
  param {
    lr_mult: 1
  }
  param {
    lr_mult: 2
  }
  inner_product_param {
    num_output: 1024
    weight_filler {
      type: "gaussian"
      std: 0.1
    }
    bias_filler {
      type: "constant"
    }
  }
}
layer {
  name: "ip2"
  type: "InnerProduct"
  bottom: "ip1"
  top: "ip2"
  param {
    lr_mult: 1
  }
  param {
    lr_mult: 2
  }
  inner_product_param {
    num_output: 512
    weight_filler {
      type: "gaussian"
      std: 0.1
    }
    bias_filler {
      type: "constant"
    }
  }
}
layer {
  name: "ip3"
  type: "InnerProduct"
  bottom: "ip2"
  top: "ip3"
  param {
    lr_mult: 1
  }
  param {
    lr_mult: 2
  }
  inner_product_param {
    num_output: 1
    weight_filler {
      type: "gaussian"
      std: 0.1
    }
    bias_filler {
      type: "constant"
    }
  }
}
layer {
  name: "loss"
  type: "HuberLoss"
  bottom: "ip3"
  bottom: "label"
  top: "loss"
  include {
    phase: TRAIN
  }
}
I0506 11:05:08.147413 21305 layer_factory.hpp:77] Creating layer parameters
I0506 11:05:08.147426 21305 net.cpp:94] Creating Layer parameters
I0506 11:05:08.147430 21305 net.cpp:409] parameters -> data
I0506 11:05:08.147439 21305 net.cpp:409] parameters -> label
I0506 11:05:08.147446 21305 hdf5_data_layer.cpp:79] Loading list of HDF5 filenames from: /home/purduethu/scratch/radon/d/deng106/CNNStatisticalModel/distributions/input/50_distributions_100_sample_size_train-parameters-path.txt
I0506 11:05:08.147462 21305 hdf5_data_layer.cpp:93] Number of HDF5 files: 1
I0506 11:05:08.147997 21305 hdf5.cpp:32] Datatype class: H5T_FLOAT
I0506 11:05:08.309216 21305 net.cpp:144] Setting up parameters
I0506 11:05:08.309249 21305 net.cpp:151] Top shape: 20 1 10 10 (2000)
I0506 11:05:08.309254 21305 net.cpp:151] Top shape: 20 (20)
I0506 11:05:08.309258 21305 net.cpp:159] Memory required for data: 8080
I0506 11:05:08.309264 21305 layer_factory.hpp:77] Creating layer conv1
I0506 11:05:08.309286 21305 net.cpp:94] Creating Layer conv1
I0506 11:05:08.309291 21305 net.cpp:435] conv1 <- data
I0506 11:05:08.309298 21305 net.cpp:409] conv1 -> conv1
I0506 11:05:08.313423 21305 net.cpp:144] Setting up conv1
I0506 11:05:08.313438 21305 net.cpp:151] Top shape: 20 64 10 10 (128000)
I0506 11:05:08.313442 21305 net.cpp:159] Memory required for data: 520080
I0506 11:05:08.313453 21305 layer_factory.hpp:77] Creating layer relu1
I0506 11:05:08.313462 21305 net.cpp:94] Creating Layer relu1
I0506 11:05:08.313464 21305 net.cpp:435] relu1 <- conv1
I0506 11:05:08.313469 21305 net.cpp:396] relu1 -> conv1 (in-place)
I0506 11:05:08.313483 21305 net.cpp:144] Setting up relu1
I0506 11:05:08.313488 21305 net.cpp:151] Top shape: 20 64 10 10 (128000)
I0506 11:05:08.313491 21305 net.cpp:159] Memory required for data: 1032080
I0506 11:05:08.313494 21305 layer_factory.hpp:77] Creating layer conv2
I0506 11:05:08.313503 21305 net.cpp:94] Creating Layer conv2
I0506 11:05:08.313505 21305 net.cpp:435] conv2 <- conv1
I0506 11:05:08.313510 21305 net.cpp:409] conv2 -> conv2
I0506 11:05:08.319511 21305 net.cpp:144] Setting up conv2
I0506 11:05:08.319527 21305 net.cpp:151] Top shape: 20 64 10 10 (128000)
I0506 11:05:08.319530 21305 net.cpp:159] Memory required for data: 1544080
I0506 11:05:08.319540 21305 layer_factory.hpp:77] Creating layer relu2
I0506 11:05:08.319546 21305 net.cpp:94] Creating Layer relu2
I0506 11:05:08.319550 21305 net.cpp:435] relu2 <- conv2
I0506 11:05:08.319555 21305 net.cpp:396] relu2 -> conv2 (in-place)
I0506 11:05:08.319561 21305 net.cpp:144] Setting up relu2
I0506 11:05:08.319566 21305 net.cpp:151] Top shape: 20 64 10 10 (128000)
I0506 11:05:08.319568 21305 net.cpp:159] Memory required for data: 2056080
I0506 11:05:08.319571 21305 layer_factory.hpp:77] Creating layer pool2
I0506 11:05:08.319577 21305 net.cpp:94] Creating Layer pool2
I0506 11:05:08.319581 21305 net.cpp:435] pool2 <- conv2
I0506 11:05:08.319586 21305 net.cpp:409] pool2 -> pool2
I0506 11:05:08.319636 21305 net.cpp:144] Setting up pool2
I0506 11:05:08.319644 21305 net.cpp:151] Top shape: 20 64 5 5 (32000)
I0506 11:05:08.319648 21305 net.cpp:159] Memory required for data: 2184080
I0506 11:05:08.319650 21305 layer_factory.hpp:77] Creating layer conv3
I0506 11:05:08.319658 21305 net.cpp:94] Creating Layer conv3
I0506 11:05:08.319667 21305 net.cpp:435] conv3 <- pool2
I0506 11:05:08.319674 21305 net.cpp:409] conv3 -> conv3
I0506 11:05:08.327728 21305 net.cpp:144] Setting up conv3
I0506 11:05:08.327744 21305 net.cpp:151] Top shape: 20 128 5 5 (64000)
I0506 11:05:08.327747 21305 net.cpp:159] Memory required for data: 2440080
I0506 11:05:08.327756 21305 layer_factory.hpp:77] Creating layer relu3
I0506 11:05:08.327762 21305 net.cpp:94] Creating Layer relu3
I0506 11:05:08.327766 21305 net.cpp:435] relu3 <- conv3
I0506 11:05:08.327771 21305 net.cpp:396] relu3 -> conv3 (in-place)
I0506 11:05:08.327778 21305 net.cpp:144] Setting up relu3
I0506 11:05:08.327782 21305 net.cpp:151] Top shape: 20 128 5 5 (64000)
I0506 11:05:08.327785 21305 net.cpp:159] Memory required for data: 2696080
I0506 11:05:08.327788 21305 layer_factory.hpp:77] Creating layer conv4
I0506 11:05:08.327796 21305 net.cpp:94] Creating Layer conv4
I0506 11:05:08.327800 21305 net.cpp:435] conv4 <- conv3
I0506 11:05:08.327805 21305 net.cpp:409] conv4 -> conv4
I0506 11:05:08.342952 21305 net.cpp:144] Setting up conv4
I0506 11:05:08.342977 21305 net.cpp:151] Top shape: 20 128 5 5 (64000)
I0506 11:05:08.342980 21305 net.cpp:159] Memory required for data: 2952080
I0506 11:05:08.342988 21305 layer_factory.hpp:77] Creating layer relu4
I0506 11:05:08.342995 21305 net.cpp:94] Creating Layer relu4
I0506 11:05:08.342999 21305 net.cpp:435] relu4 <- conv4
I0506 11:05:08.343004 21305 net.cpp:396] relu4 -> conv4 (in-place)
I0506 11:05:08.343013 21305 net.cpp:144] Setting up relu4
I0506 11:05:08.343017 21305 net.cpp:151] Top shape: 20 128 5 5 (64000)
I0506 11:05:08.343020 21305 net.cpp:159] Memory required for data: 3208080
I0506 11:05:08.343024 21305 layer_factory.hpp:77] Creating layer conv5
I0506 11:05:08.343032 21305 net.cpp:94] Creating Layer conv5
I0506 11:05:08.343035 21305 net.cpp:435] conv5 <- conv4
I0506 11:05:08.343040 21305 net.cpp:409] conv5 -> conv5
I0506 11:05:08.357689 21305 net.cpp:144] Setting up conv5
I0506 11:05:08.357715 21305 net.cpp:151] Top shape: 20 128 5 5 (64000)
I0506 11:05:08.357719 21305 net.cpp:159] Memory required for data: 3464080
I0506 11:05:08.357730 21305 layer_factory.hpp:77] Creating layer relu5
I0506 11:05:08.357738 21305 net.cpp:94] Creating Layer relu5
I0506 11:05:08.357743 21305 net.cpp:435] relu5 <- conv5
I0506 11:05:08.357748 21305 net.cpp:396] relu5 -> conv5 (in-place)
I0506 11:05:08.357755 21305 net.cpp:144] Setting up relu5
I0506 11:05:08.357759 21305 net.cpp:151] Top shape: 20 128 5 5 (64000)
I0506 11:05:08.357762 21305 net.cpp:159] Memory required for data: 3720080
I0506 11:05:08.357765 21305 layer_factory.hpp:77] Creating layer pool5
I0506 11:05:08.357771 21305 net.cpp:94] Creating Layer pool5
I0506 11:05:08.357774 21305 net.cpp:435] pool5 <- conv5
I0506 11:05:08.357779 21305 net.cpp:409] pool5 -> pool5
I0506 11:05:08.357821 21305 net.cpp:144] Setting up pool5
I0506 11:05:08.357830 21305 net.cpp:151] Top shape: 20 128 2 2 (10240)
I0506 11:05:08.357832 21305 net.cpp:159] Memory required for data: 3761040
I0506 11:05:08.357836 21305 layer_factory.hpp:77] Creating layer ip1
I0506 11:05:08.357846 21305 net.cpp:94] Creating Layer ip1
I0506 11:05:08.357848 21305 net.cpp:435] ip1 <- pool5
I0506 11:05:08.357853 21305 net.cpp:409] ip1 -> ip1
I0506 11:05:08.372570 21305 net.cpp:144] Setting up ip1
I0506 11:05:08.372596 21305 net.cpp:151] Top shape: 20 1024 (20480)
I0506 11:05:08.372601 21305 net.cpp:159] Memory required for data: 3842960
I0506 11:05:08.372609 21305 layer_factory.hpp:77] Creating layer ip2
I0506 11:05:08.372619 21305 net.cpp:94] Creating Layer ip2
I0506 11:05:08.372623 21305 net.cpp:435] ip2 <- ip1
I0506 11:05:08.372629 21305 net.cpp:409] ip2 -> ip2
I0506 11:05:08.386436 21305 net.cpp:144] Setting up ip2
I0506 11:05:08.386461 21305 net.cpp:151] Top shape: 20 512 (10240)
I0506 11:05:08.386464 21305 net.cpp:159] Memory required for data: 3883920
I0506 11:05:08.386471 21305 layer_factory.hpp:77] Creating layer ip3
I0506 11:05:08.386481 21305 net.cpp:94] Creating Layer ip3
I0506 11:05:08.386484 21305 net.cpp:435] ip3 <- ip2
I0506 11:05:08.386497 21305 net.cpp:409] ip3 -> ip3
I0506 11:05:08.386615 21305 net.cpp:144] Setting up ip3
I0506 11:05:08.386621 21305 net.cpp:151] Top shape: 20 1 (20)
I0506 11:05:08.386625 21305 net.cpp:159] Memory required for data: 3884000
I0506 11:05:08.386631 21305 layer_factory.hpp:77] Creating layer loss
I0506 11:05:08.386638 21305 net.cpp:94] Creating Layer loss
I0506 11:05:08.386641 21305 net.cpp:435] loss <- ip3
I0506 11:05:08.386646 21305 net.cpp:435] loss <- label
I0506 11:05:08.386651 21305 net.cpp:409] loss -> loss
I0506 11:05:08.386706 21305 net.cpp:144] Setting up loss
…
I0506 11:05:08.493957 21305 net.cpp:323] The NetState phase (0) differed from the phase (1) specified by a rule in layer intercept
I0506 11:05:08.493973 21305 net.cpp:323] The NetState phase (0) differed from the phase (1) specified by a rule in layer accuracy
I0506 11:05:08.494060 21305 net.cpp:52] Initializing net from parameters: 
state {
  phase: TRAIN
}
layer {
  name: "parameters"
  type: "HDF5Data"
  top: "data"
  top: "label"
  include {
    phase: TRAIN
  }
  hdf5_data_param {
    source: "/home/purduethu/scratch/radon/d/deng106/CNNStatisticalModel/distributions/input/50_distributions_100_sample_size_train-distributions-path.txt"
    batch_size: 20
  }
}
layer {
  name: "conv1"
  type: "Convolution"
  bottom: "data"
  top: "conv1"
  param {
    lr_mult: 1
  }
  param {
    lr_mult: 2
  }
  convolution_param {
    num_output: 64
    pad: 2
    kernel_size: 5
    stride: 1
    weight_filler {
      type: "gaussian"
      std: 0.0001
    }
    bias_filler {
      type: "constant"
    }
  }
}
layer {
  name: "relu1"
  type: "ReLU"
  bottom: "conv1"
  top: "conv1"
}
layer {
  name: "conv2"
  type: "Convolution"
  bottom: "conv1"
  top: "conv2"
  param {
    lr_mult: 1
  }
  param {
    lr_mult: 2
  }
  convolution_param {
    num_output: 64
    pad: 2
    kernel_size: 5
    stride: 1
    weight_filler {
      type: "gaussian"
      std: 0.01
    }
    bias_filler {
      type: "constant"
    }
  }
}
layer {
  name: "relu2"
  type: "ReLU"
  bottom: "conv2"
  top: "conv2"
}
layer {
  name: "pool2"
  type: "Pooling"
  bottom: "conv2"
  top: "pool2"
  pooling_param {
    pool: MAX
    kernel_size: 3
    stride: 2
  }
}
layer {
  name: "conv3"
  type: "Convolution"
  bottom: "pool2"
  top: "conv3"
  param {
    lr_mult: 1
  }
  param {
    lr_mult: 2
  }
  convolution_param {
    num_output: 128
    pad: 2
    kernel_size: 5
    stride: 1
    weight_filler {
      type: "gaussian"
      std: 0.01
    }
    bias_filler {
      type: "constant"
    }
  }
}
layer {
  name: "relu3"
  type: "ReLU"
  bottom: "conv3"
  top: "conv3"
}
layer {
  name: "conv4"
  type: "Convolution"
  bottom: "conv3"
  top: "conv4"
  param {
    lr_mult: 1
  }
  param {
    lr_mult: 2
  }
  convolution_param {
    num_output: 128
    pad: 2
    kernel_size: 5
    stride: 1
    weight_filler {
      type: "gaussian"
      std: 0.01
    }
    bias_filler {
      type: "constant"
    }
  }
}
layer {
  name: "relu4"
  type: "ReLU"
  bottom: "conv4"
  top: "conv4"
}
layer {
  name: "conv5"
  type: "Convolution"
  bottom: "conv4"
  top: "conv5"
  param {
    lr_mult: 1
  }
  param {
    lr_mult: 2
  }
  convolution_param {
    num_output: 128
    pad: 2
    kernel_size: 5
    stride: 1
    weight_filler {
      type: "gaussian"
      std: 0.01
    }
    bias_filler {
      type: "constant"
    }
  }
}
layer {
  name: "relu5"
  type: "ReLU"
  bottom: "conv5"
  top: "conv5"
}
layer {
  name: "pool5"
  type: "Pooling"
  bottom: "conv5"
  top: "pool5"
  pooling_param {
    pool: AVE
    kernel_size: 3
    stride: 2
  }
}
layer {
  name: "ip1"
  type: "InnerProduct"
  bottom: "pool5"
  top: "ip1"
  param {
    lr_mult: 1
  }
  param {
    lr_mult: 2
  }
  inner_product_param {
    num_output: 1024
    weight_filler {
      type: "gaussian"
      std: 0.1
    }
    bias_filler {
      type: "constant"
    }
  }
}
layer {
  name: "ip2"
  type: "InnerProduct"
  bottom: "ip1"
  top: "ip2"
  param {
    lr_mult: 1
  }
  param {
    lr_mult: 2
  }
  inner_product_param {
    num_output: 512
    weight_filler {
      type: "gaussian"
      std: 0.1
    }
    bias_filler {
      type: "constant"
    }
  }
}
layer {
  name: "ip3"
  type: "InnerProduct"
  bottom: "ip2"
  top: "ip3"
  param {
    lr_mult: 1
  }
  param {
    lr_mult: 2
  }
  inner_product_param {
    num_output: 50
    weight_filler {
      type: "gaussian"
      std: 0.1
    }
    bias_filler {
      type: "constant"
    }
  }
}
layer {
  name: "loss"
  type: "SoftmaxWithLoss"
  bottom: "ip3"
  bottom: "label"
  top: "loss"
}
I0506 11:05:08.494110 21305 layer_factory.hpp:77] Creating layer parameters
I0506 11:05:08.494118 21305 net.cpp:94] Creating Layer parameters
I0506 11:05:08.494122 21305 net.cpp:409] parameters -> data
I0506 11:05:08.494128 21305 net.cpp:409] parameters -> label
I0506 11:05:08.494134 21305 hdf5_data_layer.cpp:79] Loading list of HDF5 filenames from: /home/purduethu/scratch/radon/d/deng106/CNNStatisticalModel/distributions/input/50_distributions_100_sample_size_train-distributions-path.txt
I0506 11:05:08.494150 21305 hdf5_data_layer.cpp:93] Number of HDF5 files: 1
I0506 11:05:08.649870 21305 hdf5.cpp:35] Datatype class: H5T_INTEGER
I0506 11:05:08.653285 21305 net.cpp:144] Setting up parameters
I0506 11:05:08.653306 21305 net.cpp:151] Top shape: 20 1 10 10 (2000)
I0506 11:05:08.653311 21305 net.cpp:151] Top shape: 20 (20)
I0506 11:05:08.653313 21305 net.cpp:159] Memory required for data: 8080
I0506 11:05:08.653319 21305 layer_factory.hpp:77] Creating layer conv1
I0506 11:05:08.653337 21305 net.cpp:94] Creating Layer conv1
I0506 11:05:08.653340 21305 net.cpp:435] conv1 <- data
I0506 11:05:08.653347 21305 net.cpp:409] conv1 -> conv1
I0506 11:05:08.655108 21305 net.cpp:144] Setting up conv1
I0506 11:05:08.655122 21305 net.cpp:151] Top shape: 20 64 10 10 (128000)
I0506 11:05:08.655125 21305 net.cpp:159] Memory required for data: 520080
I0506 11:05:08.655135 21305 layer_factory.hpp:77] Creating layer relu1
I0506 11:05:08.655143 21305 net.cpp:94] Creating Layer relu1
I0506 11:05:08.655145 21305 net.cpp:435] relu1 <- conv1
I0506 11:05:08.655150 21305 net.cpp:396] relu1 -> conv1 (in-place)
I0506 11:05:08.655158 21305 net.cpp:144] Setting up relu1
I0506 11:05:08.655161 21305 net.cpp:151] Top shape: 20 64 10 10 (128000)
I0506 11:05:08.655164 21305 net.cpp:159] Memory required for data: 1032080
I0506 11:05:08.655167 21305 layer_factory.hpp:77] Creating layer conv2
I0506 11:05:08.655175 21305 net.cpp:94] Creating Layer conv2
I0506 11:05:08.655179 21305 net.cpp:435] conv2 <- conv1
I0506 11:05:08.655184 21305 net.cpp:409] conv2 -> conv2
I0506 11:05:08.660545 21305 net.cpp:144] Setting up conv2
I0506 11:05:08.660574 21305 net.cpp:151] Top shape: 20 64 10 10 (128000)
I0506 11:05:08.660578 21305 net.cpp:159] Memory required for data: 1544080
I0506 11:05:08.660588 21305 layer_factory.hpp:77] Creating layer relu2
I0506 11:05:08.660593 21305 net.cpp:94] Creating Layer relu2
I0506 11:05:08.660598 21305 net.cpp:435] relu2 <- conv2
I0506 11:05:08.660601 21305 net.cpp:396] relu2 -> conv2 (in-place)
I0506 11:05:08.660609 21305 net.cpp:144] Setting up relu2
I0506 11:05:08.660612 21305 net.cpp:151] Top shape: 20 64 10 10 (128000)
I0506 11:05:08.660615 21305 net.cpp:159] Memory required for data: 2056080
I0506 11:05:08.660619 21305 layer_factory.hpp:77] Creating layer pool2
I0506 11:05:08.660624 21305 net.cpp:94] Creating Layer pool2
I0506 11:05:08.660627 21305 net.cpp:435] pool2 <- conv2
I0506 11:05:08.660631 21305 net.cpp:409] pool2 -> pool2
I0506 11:05:08.660686 21305 net.cpp:144] Setting up pool2
I0506 11:05:08.660692 21305 net.cpp:151] Top shape: 20 64 5 5 (32000)
I0506 11:05:08.660696 21305 net.cpp:159] Memory required for data: 2184080
I0506 11:05:08.660699 21305 layer_factory.hpp:77] Creating layer conv3
I0506 11:05:08.660706 21305 net.cpp:94] Creating Layer conv3
I0506 11:05:08.660711 21305 net.cpp:435] conv3 <- pool2
I0506 11:05:08.660714 21305 net.cpp:409] conv3 -> conv3
I0506 11:05:08.669438 21305 net.cpp:144] Setting up conv3
I0506 11:05:08.669457 21305 net.cpp:151] Top shape: 20 128 5 5 (64000)
I0506 11:05:08.669461 21305 net.cpp:159] Memory required for data: 2440080
I0506 11:05:08.669471 21305 layer_factory.hpp:77] Creating layer relu3
I0506 11:05:08.669477 21305 net.cpp:94] Creating Layer relu3
I0506 11:05:08.669481 21305 net.cpp:435] relu3 <- conv3
I0506 11:05:08.669486 21305 net.cpp:396] relu3 -> conv3 (in-place)
I0506 11:05:08.669499 21305 net.cpp:144] Setting up relu3
I0506 11:05:08.669504 21305 net.cpp:151] Top shape: 20 128 5 5 (64000)
I0506 11:05:08.669507 21305 net.cpp:159] Memory required for data: 2696080
I0506 11:05:08.669510 21305 layer_factory.hpp:77] Creating layer conv4
I0506 11:05:08.669519 21305 net.cpp:94] Creating Layer conv4
I0506 11:05:08.669523 21305 net.cpp:435] conv4 <- conv3
I0506 11:05:08.669528 21305 net.cpp:409] conv4 -> conv4
I0506 11:05:08.684362 21305 net.cpp:144] Setting up conv4
I0506 11:05:08.684386 21305 net.cpp:151] Top shape: 20 128 5 5 (64000)
I0506 11:05:08.684391 21305 net.cpp:159] Memory required for data: 2952080
I0506 11:05:08.684397 21305 layer_factory.hpp:77] Creating layer relu4
I0506 11:05:08.684406 21305 net.cpp:94] Creating Layer relu4
I0506 11:05:08.684409 21305 net.cpp:435] relu4 <- conv4
I0506 11:05:08.684414 21305 net.cpp:396] relu4 -> conv4 (in-place)
I0506 11:05:08.684422 21305 net.cpp:144] Setting up relu4
I0506 11:05:08.684427 21305 net.cpp:151] Top shape: 20 128 5 5 (64000)
I0506 11:05:08.684430 21305 net.cpp:159] Memory required for data: 3208080
I0506 11:05:08.684433 21305 layer_factory.hpp:77] Creating layer conv5
I0506 11:05:08.684442 21305 net.cpp:94] Creating Layer conv5
I0506 11:05:08.684445 21305 net.cpp:435] conv5 <- conv4
I0506 11:05:08.684450 21305 net.cpp:409] conv5 -> conv5
I0506 11:05:08.699535 21305 net.cpp:144] Setting up conv5
I0506 11:05:08.699561 21305 net.cpp:151] Top shape: 20 128 5 5 (64000)
I0506 11:05:08.699565 21305 net.cpp:159] Memory required for data: 3464080
I0506 11:05:08.699579 21305 layer_factory.hpp:77] Creating layer relu5
I0506 11:05:08.699586 21305 net.cpp:94] Creating Layer relu5
I0506 11:05:08.699589 21305 net.cpp:435] relu5 <- conv5
I0506 11:05:08.699594 21305 net.cpp:396] relu5 -> conv5 (in-place)
I0506 11:05:08.699602 21305 net.cpp:144] Setting up relu5
I0506 11:05:08.699607 21305 net.cpp:151] Top shape: 20 128 5 5 (64000)
I0506 11:05:08.699610 21305 net.cpp:159] Memory required for data: 3720080
I0506 11:05:08.699614 21305 layer_factory.hpp:77] Creating layer pool5
I0506 11:05:08.699618 21305 net.cpp:94] Creating Layer pool5
I0506 11:05:08.699622 21305 net.cpp:435] pool5 <- conv5
I0506 11:05:08.699626 21305 net.cpp:409] pool5 -> pool5
I0506 11:05:08.699668 21305 net.cpp:144] Setting up pool5
I0506 11:05:08.699676 21305 net.cpp:151] Top shape: 20 128 2 2 (10240)
I0506 11:05:08.699679 21305 net.cpp:159] Memory required for data: 3761040
I0506 11:05:08.699682 21305 layer_factory.hpp:77] Creating layer ip1
I0506 11:05:08.699689 21305 net.cpp:94] Creating Layer ip1
I0506 11:05:08.699692 21305 net.cpp:435] ip1 <- pool5
I0506 11:05:08.699697 21305 net.cpp:409] ip1 -> ip1
I0506 11:05:08.717799 21305 net.cpp:144] Setting up ip1
I0506 11:05:08.717835 21305 net.cpp:151] Top shape: 20 1024 (20480)
I0506 11:05:08.717845 21305 net.cpp:159] Memory required for data: 3842960
I0506 11:05:08.717857 21305 layer_factory.hpp:77] Creating layer ip2
I0506 11:05:08.717870 21305 net.cpp:94] Creating Layer ip2
I0506 11:05:08.717876 21305 net.cpp:435] ip2 <- ip1
I0506 11:05:08.717885 21305 net.cpp:409] ip2 -> ip2
I0506 11:05:08.736246 21305 net.cpp:144] Setting up ip2
I0506 11:05:08.736280 21305 net.cpp:151] Top shape: 20 512 (10240)
I0506 11:05:08.736290 21305 net.cpp:159] Memory required for data: 3883920
I0506 11:05:08.736304 21305 layer_factory.hpp:77] Creating layer ip3
I0506 11:05:08.736318 21305 net.cpp:94] Creating Layer ip3
I0506 11:05:08.736326 21305 net.cpp:435] ip3 <- ip2
I0506 11:05:08.736335 21305 net.cpp:409] ip3 -> ip3
I0506 11:05:08.738639 21305 net.cpp:144] Setting up ip3
I0506 11:05:08.738662 21305 net.cpp:151] Top shape: 20 50 (1000)
I0506 11:05:08.738669 21305 net.cpp:159] Memory required for data: 3887920
I0506 11:05:08.738682 21305 layer_factory.hpp:77] Creating layer loss
I0506 11:05:08.738695 21305 net.cpp:94] Creating Layer loss
I0506 11:05:08.738701 21305 net.cpp:435] loss <- ip3
I0506 11:05:08.738708 21305 net.cpp:435] loss <- label
I0506 11:05:08.738716 21305 net.cpp:409] loss -> loss
I0506 11:05:08.738729 21305 layer_factory.hpp:77] Creating layer loss
…
I0506 11:05:08.739578 21305 solver.cpp:181] Creating test net (#0) specified by net file: ./protocol/dis_50_100_dimension.protocol_distribution
I0506 11:05:08.739624 21305 net.cpp:323] The NetState phase (1) differed from the phase (0) specified by a rule in layer parameters
I0506 11:05:08.739781 21305 net.cpp:52] Initializing net from parameters: 
state {
  phase: TEST
}
layer {
  name: "intercept"
  type: "HDF5Data"
  top: "data"
  top: "label"
  include {
    phase: TEST
  }
  hdf5_data_param {
    source: "/home/purduethu/scratch/radon/d/deng106/CNNStatisticalModel/distributions/input/50_distributions_100_sample_size_test-distributions-path.txt"
    batch_size: 20
  }
}
layer {
  name: "conv1"
  type: "Convolution"
  bottom: "data"
  top: "conv1"
  param {
    lr_mult: 1
  }
  param {
    lr_mult: 2
  }
  convolution_param {
    num_output: 64
    pad: 2
    kernel_size: 5
    stride: 1
    weight_filler {
      type: "gaussian"
      std: 0.0001
    }
    bias_filler {
      type: "constant"
    }
  }
}
layer {
  name: "relu1"
  type: "ReLU"
  bottom: "conv1"
  top: "conv1"
}
layer {
  name: "conv2"
  type: "Convolution"
  bottom: "conv1"
  top: "conv2"
  param {
    lr_mult: 1
  }
  param {
    lr_mult: 2
  }
  convolution_param {
    num_output: 64
    pad: 2
    kernel_size: 5
    stride: 1
    weight_filler {
      type: "gaussian"
      std: 0.01
    }
    bias_filler {
      type: "constant"
    }
  }
}
layer {
  name: "relu2"
  type: "ReLU"
  bottom: "conv2"
  top: "conv2"
}
layer {
  name: "pool2"
  type: "Pooling"
  bottom: "conv2"
  top: "pool2"
  pooling_param {
    pool: MAX
    kernel_size: 3
    stride: 2
  }
}
layer {
  name: "conv3"
  type: "Convolution"
  bottom: "pool2"
  top: "conv3"
  param {
    lr_mult: 1
  }
  param {
    lr_mult: 2
  }
  convolution_param {
    num_output: 128
    pad: 2
    kernel_size: 5
    stride: 1
    weight_filler {
      type: "gaussian"
      std: 0.01
    }
    bias_filler {
      type: "constant"
    }
  }
}
layer {
  name: "relu3"
  type: "ReLU"
  bottom: "conv3"
  top: "conv3"
}
layer {
  name: "conv4"
  type: "Convolution"
  bottom: "conv3"
  top: "conv4"
  param {
    lr_mult: 1
  }
  param {
    lr_mult: 2
  }
  convolution_param {
    num_output: 128
    pad: 2
    kernel_size: 5
    stride: 1
    weight_filler {
      type: "gaussian"
      std: 0.01
    }
    bias_filler {
      type: "constant"
    }
  }
}
layer {
  name: "relu4"
  type: "ReLU"
  bottom: "conv4"
  top: "conv4"
}
layer {
  name: "conv5"
  type: "Convolution"
  bottom: "conv4"
  top: "conv5"
  param {
    lr_mult: 1
  }
  param {
    lr_mult: 2
  }
  convolution_param {
    num_output: 128
    pad: 2
    kernel_size: 5
    stride: 1
    weight_filler {
      type: "gaussian"
      std: 0.01
    }
    bias_filler {
      type: "constant"
    }
  }
}
layer {
  name: "relu5"
  type: "ReLU"
  bottom: "conv5"
  top: "conv5"
}
layer {
  name: "pool5"
  type: "Pooling"
  bottom: "conv5"
  top: "pool5"
  pooling_param {
    pool: AVE
    kernel_size: 3
    stride: 2
  }
}
layer {
  name: "ip1"
  type: "InnerProduct"
  bottom: "pool5"
  top: "ip1"
  param {
    lr_mult: 1
  }
  param {
    lr_mult: 2
  }
  inner_product_param {
    num_output: 1024
    weight_filler {
      type: "gaussian"
      std: 0.1
    }
    bias_filler {
      type: "constant"
    }
  }
}
layer {
  name: "ip2"
  type: "InnerProduct"
  bottom: "ip1"
  top: "ip2"
  param {
    lr_mult: 1
  }
  param {
    lr_mult: 2
  }
  inner_product_param {
    num_output: 512
    weight_filler {
      type: "gaussian"
      std: 0.1
    }
    bias_filler {
      type: "constant"
    }
  }
}
layer {
  name: "ip3"
  type: "InnerProduct"
  bottom: "ip2"
  top: "ip3"
  param {
    lr_mult: 1
  }
  param {
    lr_mult: 2
  }
  inner_product_param {
    num_output: 50
    weight_filler {
      type: "gaussian"
      std: 0.1
    }
    bias_filler {
      type: "constant"
    }
  }
}
layer {
  name: "accuracy"
  type: "Accuracy"
  bottom: "ip3"
  bottom: "label"
  top: "accuracy"
  include {
    phase: TEST
  }
}
layer {
  name: "loss"
  type: "SoftmaxWithLoss"
  bottom: "ip3"
  bottom: "label"
  top: "loss"
}
I0506 11:05:08.739884 21305 layer_factory.hpp:77] Creating layer intercept
I0506 11:05:08.739902 21305 net.cpp:94] Creating Layer intercept
I0506 11:05:08.739910 21305 net.cpp:409] intercept -> data
I0506 11:05:08.739924 21305 net.cpp:409] intercept -> label
I0506 11:05:08.739935 21305 hdf5_data_layer.cpp:79] Loading list of HDF5 filenames from: /home/purduethu/scratch/radon/d/deng106/CNNStatisticalModel/distributions/input/50_distributions_100_sample_size_test-distributions-path.txt
I0506 11:05:08.739967 21305 hdf5_data_layer.cpp:93] Number of HDF5 files: 1
I0506 11:05:08.800034 21305 net.cpp:144] Setting up intercept
I0506 11:05:08.800079 21305 net.cpp:151] Top shape: 20 1 10 10 (2000)
I0506 11:05:08.800087 21305 net.cpp:151] Top shape: 20 (20)
I0506 11:05:08.800093 21305 net.cpp:159] Memory required for data: 8080
I0506 11:05:08.800103 21305 layer_factory.hpp:77] Creating layer label_intercept_1_split
I0506 11:05:08.800127 21305 net.cpp:94] Creating Layer label_intercept_1_split
I0506 11:05:08.800134 21305 net.cpp:435] label_intercept_1_split <- label
I0506 11:05:08.800144 21305 net.cpp:409] label_intercept_1_split -> label_intercept_1_split_0
I0506 11:05:08.800160 21305 net.cpp:409] label_intercept_1_split -> label_intercept_1_split_1
I0506 11:05:08.800227 21305 net.cpp:144] Setting up label_intercept_1_split
I0506 11:05:08.800240 21305 net.cpp:151] Top shape: 20 (20)
I0506 11:05:08.800247 21305 net.cpp:151] Top shape: 20 (20)
I0506 11:05:08.800252 21305 net.cpp:159] Memory required for data: 8240
I0506 11:05:08.800258 21305 layer_factory.hpp:77] Creating layer conv1
I0506 11:05:08.800273 21305 net.cpp:94] Creating Layer conv1
I0506 11:05:08.800279 21305 net.cpp:435] conv1 <- data
I0506 11:05:08.800287 21305 net.cpp:409] conv1 -> conv1
I0506 11:05:08.801556 21305 net.cpp:144] Setting up conv1
I0506 11:05:08.801597 21305 net.cpp:151] Top shape: 20 64 10 10 (128000)
I0506 11:05:08.801609 21305 net.cpp:159] Memory required for data: 520240
I0506 11:05:08.801635 21305 layer_factory.hpp:77] Creating layer relu1
I0506 11:05:08.801651 21305 net.cpp:94] Creating Layer relu1
I0506 11:05:08.801661 21305 net.cpp:435] relu1 <- conv1
I0506 11:05:08.801673 21305 net.cpp:396] relu1 -> conv1 (in-place)
I0506 11:05:08.801693 21305 net.cpp:144] Setting up relu1
I0506 11:05:08.801705 21305 net.cpp:151] Top shape: 20 64 10 10 (128000)
I0506 11:05:08.801728 21305 net.cpp:159] Memory required for data: 1032240
I0506 11:05:08.801736 21305 layer_factory.hpp:77] Creating layer conv2
I0506 11:05:08.801759 21305 net.cpp:94] Creating Layer conv2
I0506 11:05:08.801767 21305 net.cpp:435] conv2 <- conv1
I0506 11:05:08.801781 21305 net.cpp:409] conv2 -> conv2
I0506 11:05:08.812197 21305 net.cpp:144] Setting up conv2
I0506 11:05:08.812235 21305 net.cpp:151] Top shape: 20 64 10 10 (128000)
I0506 11:05:08.812245 21305 net.cpp:159] Memory required for data: 1544240
I0506 11:05:08.812269 21305 layer_factory.hpp:77] Creating layer relu2
I0506 11:05:08.812285 21305 net.cpp:94] Creating Layer relu2
I0506 11:05:08.812294 21305 net.cpp:435] relu2 <- conv2
I0506 11:05:08.812310 21305 net.cpp:396] relu2 -> conv2 (in-place)
I0506 11:05:08.812330 21305 net.cpp:144] Setting up relu2
I0506 11:05:08.812342 21305 net.cpp:151] Top shape: 20 64 10 10 (128000)
I0506 11:05:08.812350 21305 net.cpp:159] Memory required for data: 2056240
I0506 11:05:08.812360 21305 layer_factory.hpp:77] Creating layer pool2
I0506 11:05:08.812373 21305 net.cpp:94] Creating Layer pool2
I0506 11:05:08.812381 21305 net.cpp:435] pool2 <- conv2
I0506 11:05:08.812397 21305 net.cpp:409] pool2 -> pool2
I0506 11:05:08.812546 21305 net.cpp:144] Setting up pool2
I0506 11:05:08.812585 21305 net.cpp:151] Top shape: 20 64 5 5 (32000)
I0506 11:05:08.812594 21305 net.cpp:159] Memory required for data: 2184240
I0506 11:05:08.812603 21305 layer_factory.hpp:77] Creating layer conv3
I0506 11:05:08.812628 21305 net.cpp:94] Creating Layer conv3
I0506 11:05:08.812638 21305 net.cpp:435] conv3 <- pool2
I0506 11:05:08.812654 21305 net.cpp:409] conv3 -> conv3
I0506 11:05:08.828279 21305 net.cpp:144] Setting up conv3
I0506 11:05:08.828313 21305 net.cpp:151] Top shape: 20 128 5 5 (64000)
I0506 11:05:08.828322 21305 net.cpp:159] Memory required for data: 2440240
I0506 11:05:08.828343 21305 layer_factory.hpp:77] Creating layer relu3
I0506 11:05:08.828361 21305 net.cpp:94] Creating Layer relu3
I0506 11:05:08.828369 21305 net.cpp:435] relu3 <- conv3
I0506 11:05:08.828384 21305 net.cpp:396] relu3 -> conv3 (in-place)
I0506 11:05:08.828402 21305 net.cpp:144] Setting up relu3
I0506 11:05:08.828413 21305 net.cpp:151] Top shape: 20 128 5 5 (64000)
I0506 11:05:08.828421 21305 net.cpp:159] Memory required for data: 2696240
I0506 11:05:08.828429 21305 layer_factory.hpp:77] Creating layer conv4
I0506 11:05:08.828449 21305 net.cpp:94] Creating Layer conv4
I0506 11:05:08.828459 21305 net.cpp:435] conv4 <- conv3
I0506 11:05:08.828472 21305 net.cpp:409] conv4 -> conv4
I0506 11:05:08.857398 21305 net.cpp:144] Setting up conv4
I0506 11:05:08.857437 21305 net.cpp:151] Top shape: 20 128 5 5 (64000)
I0506 11:05:08.857445 21305 net.cpp:159] Memory required for data: 2952240
I0506 11:05:08.857461 21305 layer_factory.hpp:77] Creating layer relu4
I0506 11:05:08.857476 21305 net.cpp:94] Creating Layer relu4
I0506 11:05:08.857483 21305 net.cpp:435] relu4 <- conv4
I0506 11:05:08.857494 21305 net.cpp:396] relu4 -> conv4 (in-place)
I0506 11:05:08.857511 21305 net.cpp:144] Setting up relu4
I0506 11:05:08.857519 21305 net.cpp:151] Top shape: 20 128 5 5 (64000)
I0506 11:05:08.857525 21305 net.cpp:159] Memory required for data: 3208240
I0506 11:05:08.857532 21305 layer_factory.hpp:77] Creating layer conv5
I0506 11:05:08.857550 21305 net.cpp:94] Creating Layer conv5
I0506 11:05:08.857558 21305 net.cpp:435] conv5 <- conv4
I0506 11:05:08.857569 21305 net.cpp:409] conv5 -> conv5
I0506 11:05:08.882889 21305 net.cpp:144] Setting up conv5
I0506 11:05:08.882926 21305 net.cpp:151] Top shape: 20 128 5 5 (64000)
I0506 11:05:08.882935 21305 net.cpp:159] Memory required for data: 3464240
I0506 11:05:08.882953 21305 layer_factory.hpp:77] Creating layer relu5
I0506 11:05:08.882966 21305 net.cpp:94] Creating Layer relu5
I0506 11:05:08.882973 21305 net.cpp:435] relu5 <- conv5
I0506 11:05:08.882984 21305 net.cpp:396] relu5 -> conv5 (in-place)
I0506 11:05:08.882998 21305 net.cpp:144] Setting up relu5
I0506 11:05:08.883008 21305 net.cpp:151] Top shape: 20 128 5 5 (64000)
I0506 11:05:08.883021 21305 net.cpp:159] Memory required for data: 3720240
I0506 11:05:08.883028 21305 layer_factory.hpp:77] Creating layer pool5
I0506 11:05:08.883038 21305 net.cpp:94] Creating Layer pool5
I0506 11:05:08.883046 21305 net.cpp:435] pool5 <- conv5
I0506 11:05:08.883054 21305 net.cpp:409] pool5 -> pool5
I0506 11:05:08.883141 21305 net.cpp:144] Setting up pool5
I0506 11:05:08.883155 21305 net.cpp:151] Top shape: 20 128 2 2 (10240)
I0506 11:05:08.883162 21305 net.cpp:159] Memory required for data: 3761200
I0506 11:05:08.883167 21305 layer_factory.hpp:77] Creating layer ip1
I0506 11:05:08.883179 21305 net.cpp:94] Creating Layer ip1
I0506 11:05:08.883185 21305 net.cpp:435] ip1 <- pool5
I0506 11:05:08.883195 21305 net.cpp:409] ip1 -> ip1
I0506 11:05:08.909073 21305 net.cpp:144] Setting up ip1
I0506 11:05:08.909107 21305 net.cpp:151] Top shape: 20 1024 (20480)
I0506 11:05:08.909114 21305 net.cpp:159] Memory required for data: 3843120
I0506 11:05:08.909127 21305 layer_factory.hpp:77] Creating layer ip2
I0506 11:05:08.909142 21305 net.cpp:94] Creating Layer ip2
I0506 11:05:08.909149 21305 net.cpp:435] ip2 <- ip1
I0506 11:05:08.909159 21305 net.cpp:409] ip2 -> ip2
I0506 11:05:08.932438 21305 net.cpp:144] Setting up ip2
I0506 11:05:08.932471 21305 net.cpp:151] Top shape: 20 512 (10240)
I0506 11:05:08.932476 21305 net.cpp:159] Memory required for data: 3884080
I0506 11:05:08.932488 21305 layer_factory.hpp:77] Creating layer ip3
I0506 11:05:08.932504 21305 net.cpp:94] Creating Layer ip3
I0506 11:05:08.932512 21305 net.cpp:435] ip3 <- ip2
I0506 11:05:08.932520 21305 net.cpp:409] ip3 -> ip3
I0506 11:05:08.933785 21305 net.cpp:144] Setting up ip3
I0506 11:05:08.933799 21305 net.cpp:151] Top shape: 20 50 (1000)
I0506 11:05:08.933804 21305 net.cpp:159] Memory required for data: 3888080
I0506 11:05:08.933812 21305 layer_factory.hpp:77] Creating layer ip3_ip3_0_split
I0506 11:05:08.933821 21305 net.cpp:94] Creating Layer ip3_ip3_0_split
I0506 11:05:08.933826 21305 net.cpp:435] ip3_ip3_0_split <- ip3
I0506 11:05:08.933833 21305 net.cpp:409] ip3_ip3_0_split -> ip3_ip3_0_split_0
I0506 11:05:08.933845 21305 net.cpp:409] ip3_ip3_0_split -> ip3_ip3_0_split_1
I0506 11:05:08.933909 21305 net.cpp:144] Setting up ip3_ip3_0_split
I0506 11:05:08.933918 21305 net.cpp:151] Top shape: 20 50 (1000)
I0506 11:05:08.933924 21305 net.cpp:151] Top shape: 20 50 (1000)
I0506 11:05:08.933929 21305 net.cpp:159] Memory required for data: 3896080
I0506 11:05:08.933934 21305 layer_factory.hpp:77] Creating layer accuracy
I0506 11:05:08.933943 21305 net.cpp:94] Creating Layer accuracy
I0506 11:05:08.933948 21305 net.cpp:435] accuracy <- ip3_ip3_0_split_0
I0506 11:05:08.933954 21305 net.cpp:435] accuracy <- label_intercept_1_split_0
I0506 11:05:08.933960 21305 net.cpp:409] accuracy -> accuracy
…
