…
I0502 09:55:50.438351 21919 net.cpp:323] The NetState phase (0) differed from the phase (1) specified by a rule in layer intercept
I0502 09:55:50.438367 21919 net.cpp:323] The NetState phase (0) differed from the phase (1) specified by a rule in layer loss
I0502 09:55:50.438452 21919 net.cpp:52] Initializing net from parameters: 
state {
  phase: TRAIN
}
layer {
  name: "parameters"
  type: "HDF5Data"
  top: "data"
  top: "label"
  include {
    phase: TRAIN
  }
  hdf5_data_param {
    source: "/home/purduethu/scratch/radon/d/deng106/CNNStatisticalModel/distributions/input/50_distributions_100_sample_size_train-parameters-path.txt"
    batch_size: 20
  }
}
layer {
  name: "conv1"
  type: "Convolution"
  bottom: "data"
  top: "conv1"
  param {
    lr_mult: 1
  }
  param {
    lr_mult: 2
  }
  convolution_param {
    num_output: 64
    pad: 2
    kernel_size: 5
    stride: 1
    weight_filler {
      type: "gaussian"
      std: 0.0001
    }
    bias_filler {
      type: "constant"
    }
  }
}
layer {
  name: "relu1"
  type: "ReLU"
  bottom: "conv1"
  top: "conv1"
}
layer {
  name: "conv2"
  type: "Convolution"
  bottom: "conv1"
  top: "conv2"
  param {
    lr_mult: 1
  }
  param {
    lr_mult: 2
  }
  convolution_param {
    num_output: 64
    pad: 2
    kernel_size: 5
    stride: 1
    weight_filler {
      type: "gaussian"
      std: 0.01
    }
    bias_filler {
      type: "constant"
    }
  }
}
layer {
  name: "relu2"
  type: "ReLU"
  bottom: "conv2"
  top: "conv2"
}
layer {
  name: "pool2"
  type: "Pooling"
  bottom: "conv2"
  top: "pool2"
  pooling_param {
    pool: MAX
    kernel_size: 3
    stride: 2
  }
}
layer {
  name: "conv3"
  type: "Convolution"
  bottom: "pool2"
  top: "conv3"
  param {
    lr_mult: 1
  }
  param {
    lr_mult: 2
  }
  convolution_param {
    num_output: 64
    pad: 2
    kernel_size: 5
    stride: 1
    weight_filler {
      type: "gaussian"
      std: 0.01
    }
    bias_filler {
      type: "constant"
    }
  }
}
layer {
  name: "relu3"
  type: "ReLU"
  bottom: "conv3"
  top: "conv3"
}
layer {
  name: "conv4"
  type: "Convolution"
  bottom: "conv3"
  top: "conv4"
  param {
    lr_mult: 1
  }
  param {
    lr_mult: 2
  }
  convolution_param {
    num_output: 64
    pad: 2
    kernel_size: 5
    stride: 1
    weight_filler {
      type: "gaussian"
      std: 0.01
    }
    bias_filler {
      type: "constant"
    }
  }
}
layer {
  name: "relu4"
  type: "ReLU"
  bottom: "conv4"
  top: "conv4"
}
layer {
  name: "conv5"
  type: "Convolution"
  bottom: "conv4"
  top: "conv5"
  param {
    lr_mult: 1
  }
  param {
    lr_mult: 2
  }
  convolution_param {
    num_output: 64
    pad: 2
    kernel_size: 5
    stride: 1
    weight_filler {
      type: "gaussian"
      std: 0.01
    }
    bias_filler {
      type: "constant"
    }
  }
}
layer {
  name: "relu5"
  type: "ReLU"
  bottom: "conv5"
  top: "conv5"
}
layer {
  name: "pool5"
  type: "Pooling"
  bottom: "conv5"
  top: "pool5"
  pooling_param {
    pool: AVE
    kernel_size: 3
    stride: 2
  }
}
layer {
  name: "ip1"
  type: "InnerProduct"
  bottom: "pool5"
  top: "ip1"
  param {
    lr_mult: 1
  }
  param {
    lr_mult: 2
  }
  inner_product_param {
    num_output: 64
    weight_filler {
      type: "gaussian"
      std: 0.1
    }
    bias_filler {
      type: "constant"
    }
  }
}
layer {
  name: "ip2"
  type: "InnerProduct"
  bottom: "ip1"
  top: "ip2"
  param {
    lr_mult: 1
  }
  param {
    lr_mult: 2
  }
  inner_product_param {
    num_output: 64
    weight_filler {
      type: "gaussian"
      std: 0.1
    }
    bias_filler {
      type: "constant"
    }
  }
}
layer {
  name: "ip3"
  type: "InnerProduct"
  bottom: "ip2"
  top: "ip3"
  param {
    lr_mult: 1
  }
  param {
    lr_mult: 2
  }
  inner_product_param {
    num_output: 1
    weight_filler {
      type: "gaussian"
      std: 0.1
    }
    bias_filler {
      type: "constant"
    }
  }
}
layer {
  name: "loss"
  type: "HuberLoss"
  bottom: "ip3"
  bottom: "label"
  top: "loss"
  include {
    phase: TRAIN
  }
}
I0502 09:55:50.438506 21919 layer_factory.hpp:77] Creating layer parameters
I0502 09:55:50.438521 21919 net.cpp:94] Creating Layer parameters
I0502 09:55:50.438527 21919 net.cpp:409] parameters -> data
I0502 09:55:50.438540 21919 net.cpp:409] parameters -> label
I0502 09:55:50.438549 21919 hdf5_data_layer.cpp:79] Loading list of HDF5 filenames from: /home/purduethu/scratch/radon/d/deng106/CNNStatisticalModel/distributions/input/50_distributions_100_sample_size_train-parameters-path.txt
I0502 09:55:50.438565 21919 hdf5_data_layer.cpp:93] Number of HDF5 files: 1
I0502 09:55:50.438987 21919 hdf5.cpp:32] Datatype class: H5T_FLOAT
I0502 09:55:50.606382 21919 net.cpp:144] Setting up parameters
I0502 09:55:50.606416 21919 net.cpp:151] Top shape: 20 1 10 10 (2000)
I0502 09:55:50.606422 21919 net.cpp:151] Top shape: 20 (20)
I0502 09:55:50.606426 21919 net.cpp:159] Memory required for data: 8080
I0502 09:55:50.606433 21919 layer_factory.hpp:77] Creating layer conv1
I0502 09:55:50.606449 21919 net.cpp:94] Creating Layer conv1
I0502 09:55:50.606454 21919 net.cpp:435] conv1 <- data
I0502 09:55:50.606462 21919 net.cpp:409] conv1 -> conv1
I0502 09:55:50.610709 21919 net.cpp:144] Setting up conv1
I0502 09:55:50.610729 21919 net.cpp:151] Top shape: 20 64 10 10 (128000)
I0502 09:55:50.610734 21919 net.cpp:159] Memory required for data: 520080
I0502 09:55:50.610746 21919 layer_factory.hpp:77] Creating layer relu1
I0502 09:55:50.610755 21919 net.cpp:94] Creating Layer relu1
I0502 09:55:50.610760 21919 net.cpp:435] relu1 <- conv1
I0502 09:55:50.610765 21919 net.cpp:396] relu1 -> conv1 (in-place)
I0502 09:55:50.610774 21919 net.cpp:144] Setting up relu1
I0502 09:55:50.610780 21919 net.cpp:151] Top shape: 20 64 10 10 (128000)
I0502 09:55:50.610783 21919 net.cpp:159] Memory required for data: 1032080
I0502 09:55:50.610787 21919 layer_factory.hpp:77] Creating layer conv2
I0502 09:55:50.610796 21919 net.cpp:94] Creating Layer conv2
I0502 09:55:50.610800 21919 net.cpp:435] conv2 <- conv1
I0502 09:55:50.610806 21919 net.cpp:409] conv2 -> conv2
I0502 09:55:50.616864 21919 net.cpp:144] Setting up conv2
I0502 09:55:50.616879 21919 net.cpp:151] Top shape: 20 64 10 10 (128000)
I0502 09:55:50.616884 21919 net.cpp:159] Memory required for data: 1544080
I0502 09:55:50.616894 21919 layer_factory.hpp:77] Creating layer relu2
I0502 09:55:50.616901 21919 net.cpp:94] Creating Layer relu2
I0502 09:55:50.616906 21919 net.cpp:435] relu2 <- conv2
I0502 09:55:50.616911 21919 net.cpp:396] relu2 -> conv2 (in-place)
I0502 09:55:50.616919 21919 net.cpp:144] Setting up relu2
I0502 09:55:50.616925 21919 net.cpp:151] Top shape: 20 64 10 10 (128000)
I0502 09:55:50.616928 21919 net.cpp:159] Memory required for data: 2056080
I0502 09:55:50.616932 21919 layer_factory.hpp:77] Creating layer pool2
I0502 09:55:50.616945 21919 net.cpp:94] Creating Layer pool2
I0502 09:55:50.616950 21919 net.cpp:435] pool2 <- conv2
I0502 09:55:50.616955 21919 net.cpp:409] pool2 -> pool2
I0502 09:55:50.617013 21919 net.cpp:144] Setting up pool2
I0502 09:55:50.617022 21919 net.cpp:151] Top shape: 20 64 5 5 (32000)
I0502 09:55:50.617025 21919 net.cpp:159] Memory required for data: 2184080
I0502 09:55:50.617029 21919 layer_factory.hpp:77] Creating layer conv3
I0502 09:55:50.617038 21919 net.cpp:94] Creating Layer conv3
I0502 09:55:50.617043 21919 net.cpp:435] conv3 <- pool2
I0502 09:55:50.617048 21919 net.cpp:409] conv3 -> conv3
I0502 09:55:50.621788 21919 net.cpp:144] Setting up conv3
I0502 09:55:50.621803 21919 net.cpp:151] Top shape: 20 64 5 5 (32000)
I0502 09:55:50.621807 21919 net.cpp:159] Memory required for data: 2312080
I0502 09:55:50.621816 21919 layer_factory.hpp:77] Creating layer relu3
I0502 09:55:50.621824 21919 net.cpp:94] Creating Layer relu3
I0502 09:55:50.621827 21919 net.cpp:435] relu3 <- conv3
I0502 09:55:50.621834 21919 net.cpp:396] relu3 -> conv3 (in-place)
I0502 09:55:50.621840 21919 net.cpp:144] Setting up relu3
I0502 09:55:50.621846 21919 net.cpp:151] Top shape: 20 64 5 5 (32000)
I0502 09:55:50.621850 21919 net.cpp:159] Memory required for data: 2440080
I0502 09:55:50.621853 21919 layer_factory.hpp:77] Creating layer conv4
I0502 09:55:50.621862 21919 net.cpp:94] Creating Layer conv4
I0502 09:55:50.621866 21919 net.cpp:435] conv4 <- conv3
I0502 09:55:50.621872 21919 net.cpp:409] conv4 -> conv4
I0502 09:55:50.626195 21919 net.cpp:144] Setting up conv4
I0502 09:55:50.626209 21919 net.cpp:151] Top shape: 20 64 5 5 (32000)
I0502 09:55:50.626214 21919 net.cpp:159] Memory required for data: 2568080
I0502 09:55:50.626221 21919 layer_factory.hpp:77] Creating layer relu4
I0502 09:55:50.626229 21919 net.cpp:94] Creating Layer relu4
I0502 09:55:50.626232 21919 net.cpp:435] relu4 <- conv4
I0502 09:55:50.626237 21919 net.cpp:396] relu4 -> conv4 (in-place)
I0502 09:55:50.626245 21919 net.cpp:144] Setting up relu4
I0502 09:55:50.626250 21919 net.cpp:151] Top shape: 20 64 5 5 (32000)
I0502 09:55:50.626255 21919 net.cpp:159] Memory required for data: 2696080
I0502 09:55:50.626258 21919 layer_factory.hpp:77] Creating layer conv5
I0502 09:55:50.626266 21919 net.cpp:94] Creating Layer conv5
I0502 09:55:50.626271 21919 net.cpp:435] conv5 <- conv4
I0502 09:55:50.626276 21919 net.cpp:409] conv5 -> conv5
I0502 09:55:50.631029 21919 net.cpp:144] Setting up conv5
I0502 09:55:50.631044 21919 net.cpp:151] Top shape: 20 64 5 5 (32000)
I0502 09:55:50.631048 21919 net.cpp:159] Memory required for data: 2824080
I0502 09:55:50.631057 21919 layer_factory.hpp:77] Creating layer relu5
I0502 09:55:50.631064 21919 net.cpp:94] Creating Layer relu5
I0502 09:55:50.631069 21919 net.cpp:435] relu5 <- conv5
I0502 09:55:50.631074 21919 net.cpp:396] relu5 -> conv5 (in-place)
I0502 09:55:50.631081 21919 net.cpp:144] Setting up relu5
I0502 09:55:50.631088 21919 net.cpp:151] Top shape: 20 64 5 5 (32000)
I0502 09:55:50.631090 21919 net.cpp:159] Memory required for data: 2952080
I0502 09:55:50.631094 21919 layer_factory.hpp:77] Creating layer pool5
I0502 09:55:50.631099 21919 net.cpp:94] Creating Layer pool5
I0502 09:55:50.631103 21919 net.cpp:435] pool5 <- conv5
I0502 09:55:50.631108 21919 net.cpp:409] pool5 -> pool5
I0502 09:55:50.631148 21919 net.cpp:144] Setting up pool5
I0502 09:55:50.631157 21919 net.cpp:151] Top shape: 20 64 2 2 (5120)
I0502 09:55:50.631161 21919 net.cpp:159] Memory required for data: 2972560
I0502 09:55:50.631165 21919 layer_factory.hpp:77] Creating layer ip1
I0502 09:55:50.631175 21919 net.cpp:94] Creating Layer ip1
I0502 09:55:50.631181 21919 net.cpp:435] ip1 <- pool5
I0502 09:55:50.631186 21919 net.cpp:409] ip1 -> ip1
I0502 09:55:50.632596 21919 net.cpp:144] Setting up ip1
I0502 09:55:50.632611 21919 net.cpp:151] Top shape: 20 64 (1280)
I0502 09:55:50.632616 21919 net.cpp:159] Memory required for data: 2977680
I0502 09:55:50.632622 21919 layer_factory.hpp:77] Creating layer ip2
I0502 09:55:50.632629 21919 net.cpp:94] Creating Layer ip2
I0502 09:55:50.632638 21919 net.cpp:435] ip2 <- ip1
I0502 09:55:50.632645 21919 net.cpp:409] ip2 -> ip2
I0502 09:55:50.632860 21919 net.cpp:144] Setting up ip2
I0502 09:55:50.632869 21919 net.cpp:151] Top shape: 20 64 (1280)
I0502 09:55:50.632874 21919 net.cpp:159] Memory required for data: 2982800
I0502 09:55:50.632880 21919 layer_factory.hpp:77] Creating layer ip3
I0502 09:55:50.632887 21919 net.cpp:94] Creating Layer ip3
I0502 09:55:50.632891 21919 net.cpp:435] ip3 <- ip2
I0502 09:55:50.632896 21919 net.cpp:409] ip3 -> ip3
I0502 09:55:50.633004 21919 net.cpp:144] Setting up ip3
I0502 09:55:50.633013 21919 net.cpp:151] Top shape: 20 1 (20)
I0502 09:55:50.633016 21919 net.cpp:159] Memory required for data: 2982880
I0502 09:55:50.633023 21919 layer_factory.hpp:77] Creating layer loss
I0502 09:55:50.633034 21919 net.cpp:94] Creating Layer loss
I0502 09:55:50.633038 21919 net.cpp:435] loss <- ip3
I0502 09:55:50.633044 21919 net.cpp:435] loss <- label
I0502 09:55:50.633049 21919 net.cpp:409] loss -> loss
I0502 09:55:50.633101 21919 net.cpp:144] Setting up loss
…
I0502 09:55:50.695544 21919 net.cpp:323] The NetState phase (0) differed from the phase (1) specified by a rule in layer intercept
I0502 09:55:50.695560 21919 net.cpp:323] The NetState phase (0) differed from the phase (1) specified by a rule in layer accuracy
I0502 09:55:50.695652 21919 net.cpp:52] Initializing net from parameters: 
state {
  phase: TRAIN
}
layer {
  name: "parameters"
  type: "HDF5Data"
  top: "data"
  top: "label"
  include {
    phase: TRAIN
  }
  hdf5_data_param {
    source: "/home/purduethu/scratch/radon/d/deng106/CNNStatisticalModel/distributions/input/50_distributions_100_sample_size_train-distributions-path.txt"
    batch_size: 20
  }
}
layer {
  name: "conv1"
  type: "Convolution"
  bottom: "data"
  top: "conv1"
  param {
    lr_mult: 1
  }
  param {
    lr_mult: 2
  }
  convolution_param {
    num_output: 64
    pad: 2
    kernel_size: 5
    stride: 1
    weight_filler {
      type: "gaussian"
      std: 0.0001
    }
    bias_filler {
      type: "constant"
    }
  }
}
layer {
  name: "relu1"
  type: "ReLU"
  bottom: "conv1"
  top: "conv1"
}
layer {
  name: "conv2"
  type: "Convolution"
  bottom: "conv1"
  top: "conv2"
  param {
    lr_mult: 1
  }
  param {
    lr_mult: 2
  }
  convolution_param {
    num_output: 64
    pad: 2
    kernel_size: 5
    stride: 1
    weight_filler {
      type: "gaussian"
      std: 0.01
    }
    bias_filler {
      type: "constant"
    }
  }
}
layer {
  name: "relu2"
  type: "ReLU"
  bottom: "conv2"
  top: "conv2"
}
layer {
  name: "pool2"
  type: "Pooling"
  bottom: "conv2"
  top: "pool2"
  pooling_param {
    pool: MAX
    kernel_size: 3
    stride: 2
  }
}
layer {
  name: "conv3"
  type: "Convolution"
  bottom: "pool2"
  top: "conv3"
  param {
    lr_mult: 1
  }
  param {
    lr_mult: 2
  }
  convolution_param {
    num_output: 64
    pad: 2
    kernel_size: 5
    stride: 1
    weight_filler {
      type: "gaussian"
      std: 0.01
    }
    bias_filler {
      type: "constant"
    }
  }
}
layer {
  name: "relu3"
  type: "ReLU"
  bottom: "conv3"
  top: "conv3"
}
layer {
  name: "conv4"
  type: "Convolution"
  bottom: "conv3"
  top: "conv4"
  param {
    lr_mult: 1
  }
  param {
    lr_mult: 2
  }
  convolution_param {
    num_output: 64
    pad: 2
    kernel_size: 5
    stride: 1
    weight_filler {
      type: "gaussian"
      std: 0.01
    }
    bias_filler {
      type: "constant"
    }
  }
}
layer {
  name: "relu4"
  type: "ReLU"
  bottom: "conv4"
  top: "conv4"
}
layer {
  name: "conv5"
  type: "Convolution"
  bottom: "conv4"
  top: "conv5"
  param {
    lr_mult: 1
  }
  param {
    lr_mult: 2
  }
  convolution_param {
    num_output: 64
    pad: 2
    kernel_size: 5
    stride: 1
    weight_filler {
      type: "gaussian"
      std: 0.01
    }
    bias_filler {
      type: "constant"
    }
  }
}
layer {
  name: "relu5"
  type: "ReLU"
  bottom: "conv5"
  top: "conv5"
}
layer {
  name: "pool5"
  type: "Pooling"
  bottom: "conv5"
  top: "pool5"
  pooling_param {
    pool: AVE
    kernel_size: 3
    stride: 2
  }
}
layer {
  name: "ip1"
  type: "InnerProduct"
  bottom: "pool5"
  top: "ip1"
  param {
    lr_mult: 1
  }
  param {
    lr_mult: 2
  }
  inner_product_param {
    num_output: 64
    weight_filler {
      type: "gaussian"
      std: 0.1
    }
    bias_filler {
      type: "constant"
    }
  }
}
layer {
  name: "ip2"
  type: "InnerProduct"
  bottom: "ip1"
  top: "ip2"
  param {
    lr_mult: 1
  }
  param {
    lr_mult: 2
  }
  inner_product_param {
    num_output: 64
    weight_filler {
      type: "gaussian"
      std: 0.1
    }
    bias_filler {
      type: "constant"
    }
  }
}
layer {
  name: "ip3"
  type: "InnerProduct"
  bottom: "ip2"
  top: "ip3"
  param {
    lr_mult: 1
  }
  param {
    lr_mult: 2
  }
  inner_product_param {
    num_output: 50
    weight_filler {
      type: "gaussian"
      std: 0.1
    }
    bias_filler {
      type: "constant"
    }
  }
}
layer {
  name: "loss"
  type: "SoftmaxWithLoss"
  bottom: "ip3"
  bottom: "label"
  top: "loss"
}
I0502 09:55:50.695703 21919 layer_factory.hpp:77] Creating layer parameters
I0502 09:55:50.695710 21919 net.cpp:94] Creating Layer parameters
I0502 09:55:50.695715 21919 net.cpp:409] parameters -> data
I0502 09:55:50.695722 21919 net.cpp:409] parameters -> label
I0502 09:55:50.695729 21919 hdf5_data_layer.cpp:79] Loading list of HDF5 filenames from: /home/purduethu/scratch/radon/d/deng106/CNNStatisticalModel/distributions/input/50_distributions_100_sample_size_train-distributions-path.txt
I0502 09:55:50.695746 21919 hdf5_data_layer.cpp:93] Number of HDF5 files: 1
I0502 09:55:50.857928 21919 hdf5.cpp:35] Datatype class: H5T_INTEGER
I0502 09:55:50.861253 21919 net.cpp:144] Setting up parameters
I0502 09:55:50.861279 21919 net.cpp:151] Top shape: 20 1 10 10 (2000)
I0502 09:55:50.861284 21919 net.cpp:151] Top shape: 20 (20)
I0502 09:55:50.861289 21919 net.cpp:159] Memory required for data: 8080
I0502 09:55:50.861294 21919 layer_factory.hpp:77] Creating layer conv1
I0502 09:55:50.861310 21919 net.cpp:94] Creating Layer conv1
I0502 09:55:50.861315 21919 net.cpp:435] conv1 <- data
I0502 09:55:50.861322 21919 net.cpp:409] conv1 -> conv1
I0502 09:55:50.863029 21919 net.cpp:144] Setting up conv1
I0502 09:55:50.863044 21919 net.cpp:151] Top shape: 20 64 10 10 (128000)
I0502 09:55:50.863049 21919 net.cpp:159] Memory required for data: 520080
I0502 09:55:50.863060 21919 layer_factory.hpp:77] Creating layer relu1
I0502 09:55:50.863068 21919 net.cpp:94] Creating Layer relu1
I0502 09:55:50.863072 21919 net.cpp:435] relu1 <- conv1
I0502 09:55:50.863077 21919 net.cpp:396] relu1 -> conv1 (in-place)
I0502 09:55:50.863085 21919 net.cpp:144] Setting up relu1
I0502 09:55:50.863091 21919 net.cpp:151] Top shape: 20 64 10 10 (128000)
I0502 09:55:50.863095 21919 net.cpp:159] Memory required for data: 1032080
I0502 09:55:50.863098 21919 layer_factory.hpp:77] Creating layer conv2
I0502 09:55:50.863106 21919 net.cpp:94] Creating Layer conv2
I0502 09:55:50.863111 21919 net.cpp:435] conv2 <- conv1
I0502 09:55:50.863116 21919 net.cpp:409] conv2 -> conv2
I0502 09:55:50.868394 21919 net.cpp:144] Setting up conv2
I0502 09:55:50.868408 21919 net.cpp:151] Top shape: 20 64 10 10 (128000)
I0502 09:55:50.868413 21919 net.cpp:159] Memory required for data: 1544080
I0502 09:55:50.868422 21919 layer_factory.hpp:77] Creating layer relu2
I0502 09:55:50.868429 21919 net.cpp:94] Creating Layer relu2
I0502 09:55:50.868433 21919 net.cpp:435] relu2 <- conv2
I0502 09:55:50.868439 21919 net.cpp:396] relu2 -> conv2 (in-place)
I0502 09:55:50.868446 21919 net.cpp:144] Setting up relu2
I0502 09:55:50.868451 21919 net.cpp:151] Top shape: 20 64 10 10 (128000)
I0502 09:55:50.868455 21919 net.cpp:159] Memory required for data: 2056080
I0502 09:55:50.868459 21919 layer_factory.hpp:77] Creating layer pool2
I0502 09:55:50.868466 21919 net.cpp:94] Creating Layer pool2
I0502 09:55:50.868470 21919 net.cpp:435] pool2 <- conv2
I0502 09:55:50.868475 21919 net.cpp:409] pool2 -> pool2
I0502 09:55:50.868532 21919 net.cpp:144] Setting up pool2
I0502 09:55:50.868541 21919 net.cpp:151] Top shape: 20 64 5 5 (32000)
I0502 09:55:50.868544 21919 net.cpp:159] Memory required for data: 2184080
I0502 09:55:50.868548 21919 layer_factory.hpp:77] Creating layer conv3
I0502 09:55:50.868566 21919 net.cpp:94] Creating Layer conv3
I0502 09:55:50.868571 21919 net.cpp:435] conv3 <- pool2
I0502 09:55:50.868577 21919 net.cpp:409] conv3 -> conv3
I0502 09:55:50.874264 21919 net.cpp:144] Setting up conv3
I0502 09:55:50.874279 21919 net.cpp:151] Top shape: 20 64 5 5 (32000)
I0502 09:55:50.874284 21919 net.cpp:159] Memory required for data: 2312080
I0502 09:55:50.874294 21919 layer_factory.hpp:77] Creating layer relu3
I0502 09:55:50.874300 21919 net.cpp:94] Creating Layer relu3
I0502 09:55:50.874305 21919 net.cpp:435] relu3 <- conv3
I0502 09:55:50.874310 21919 net.cpp:396] relu3 -> conv3 (in-place)
I0502 09:55:50.874317 21919 net.cpp:144] Setting up relu3
I0502 09:55:50.874323 21919 net.cpp:151] Top shape: 20 64 5 5 (32000)
I0502 09:55:50.874326 21919 net.cpp:159] Memory required for data: 2440080
I0502 09:55:50.874330 21919 layer_factory.hpp:77] Creating layer conv4
I0502 09:55:50.874339 21919 net.cpp:94] Creating Layer conv4
I0502 09:55:50.874343 21919 net.cpp:435] conv4 <- conv3
I0502 09:55:50.874348 21919 net.cpp:409] conv4 -> conv4
I0502 09:55:50.879153 21919 net.cpp:144] Setting up conv4
I0502 09:55:50.879166 21919 net.cpp:151] Top shape: 20 64 5 5 (32000)
I0502 09:55:50.879170 21919 net.cpp:159] Memory required for data: 2568080
I0502 09:55:50.879179 21919 layer_factory.hpp:77] Creating layer relu4
I0502 09:55:50.879184 21919 net.cpp:94] Creating Layer relu4
I0502 09:55:50.879189 21919 net.cpp:435] relu4 <- conv4
I0502 09:55:50.879194 21919 net.cpp:396] relu4 -> conv4 (in-place)
I0502 09:55:50.879202 21919 net.cpp:144] Setting up relu4
I0502 09:55:50.879207 21919 net.cpp:151] Top shape: 20 64 5 5 (32000)
I0502 09:55:50.879211 21919 net.cpp:159] Memory required for data: 2696080
I0502 09:55:50.879215 21919 layer_factory.hpp:77] Creating layer conv5
I0502 09:55:50.879223 21919 net.cpp:94] Creating Layer conv5
I0502 09:55:50.879227 21919 net.cpp:435] conv5 <- conv4
I0502 09:55:50.879232 21919 net.cpp:409] conv5 -> conv5
I0502 09:55:50.883577 21919 net.cpp:144] Setting up conv5
I0502 09:55:50.883591 21919 net.cpp:151] Top shape: 20 64 5 5 (32000)
I0502 09:55:50.883596 21919 net.cpp:159] Memory required for data: 2824080
I0502 09:55:50.883605 21919 layer_factory.hpp:77] Creating layer relu5
I0502 09:55:50.883611 21919 net.cpp:94] Creating Layer relu5
I0502 09:55:50.883615 21919 net.cpp:435] relu5 <- conv5
I0502 09:55:50.883621 21919 net.cpp:396] relu5 -> conv5 (in-place)
I0502 09:55:50.883628 21919 net.cpp:144] Setting up relu5
I0502 09:55:50.883633 21919 net.cpp:151] Top shape: 20 64 5 5 (32000)
I0502 09:55:50.883637 21919 net.cpp:159] Memory required for data: 2952080
I0502 09:55:50.883641 21919 layer_factory.hpp:77] Creating layer pool5
I0502 09:55:50.883647 21919 net.cpp:94] Creating Layer pool5
I0502 09:55:50.883651 21919 net.cpp:435] pool5 <- conv5
I0502 09:55:50.883656 21919 net.cpp:409] pool5 -> pool5
I0502 09:55:50.883692 21919 net.cpp:144] Setting up pool5
I0502 09:55:50.883702 21919 net.cpp:151] Top shape: 20 64 2 2 (5120)
I0502 09:55:50.883705 21919 net.cpp:159] Memory required for data: 2972560
I0502 09:55:50.883709 21919 layer_factory.hpp:77] Creating layer ip1
I0502 09:55:50.883716 21919 net.cpp:94] Creating Layer ip1
I0502 09:55:50.883720 21919 net.cpp:435] ip1 <- pool5
I0502 09:55:50.883726 21919 net.cpp:409] ip1 -> ip1
I0502 09:55:50.884249 21919 net.cpp:144] Setting up ip1
I0502 09:55:50.884258 21919 net.cpp:151] Top shape: 20 64 (1280)
I0502 09:55:50.884263 21919 net.cpp:159] Memory required for data: 2977680
I0502 09:55:50.884269 21919 layer_factory.hpp:77] Creating layer ip2
I0502 09:55:50.884276 21919 net.cpp:94] Creating Layer ip2
I0502 09:55:50.884280 21919 net.cpp:435] ip2 <- ip1
I0502 09:55:50.884285 21919 net.cpp:409] ip2 -> ip2
I0502 09:55:50.884608 21919 net.cpp:144] Setting up ip2
I0502 09:55:50.884624 21919 net.cpp:151] Top shape: 20 64 (1280)
I0502 09:55:50.884629 21919 net.cpp:159] Memory required for data: 2982800
I0502 09:55:50.884639 21919 layer_factory.hpp:77] Creating layer ip3
I0502 09:55:50.884649 21919 net.cpp:94] Creating Layer ip3
I0502 09:55:50.884656 21919 net.cpp:435] ip3 <- ip2
I0502 09:55:50.884665 21919 net.cpp:409] ip3 -> ip3
I0502 09:55:50.884944 21919 net.cpp:144] Setting up ip3
I0502 09:55:50.884958 21919 net.cpp:151] Top shape: 20 50 (1000)
I0502 09:55:50.884969 21919 net.cpp:159] Memory required for data: 2986800
I0502 09:55:50.884980 21919 layer_factory.hpp:77] Creating layer loss
I0502 09:55:50.884991 21919 net.cpp:94] Creating Layer loss
I0502 09:55:50.884997 21919 net.cpp:435] loss <- ip3
I0502 09:55:50.885004 21919 net.cpp:435] loss <- label
I0502 09:55:50.885013 21919 net.cpp:409] loss -> loss
I0502 09:55:50.885025 21919 layer_factory.hpp:77] Creating layer loss
…
I0502 09:55:50.888566 21919 solver.cpp:181] Creating test net (#0) specified by net file: ./protocol/dis_50_100_dimension.protocol_distribution
I0502 09:55:50.888593 21919 net.cpp:323] The NetState phase (1) differed from the phase (0) specified by a rule in layer parameters
I0502 09:55:50.888696 21919 net.cpp:52] Initializing net from parameters: 
state {
  phase: TEST
}
layer {
  name: "intercept"
  type: "HDF5Data"
  top: "data"
  top: "label"
  include {
    phase: TEST
  }
  hdf5_data_param {
    source: "/home/purduethu/scratch/radon/d/deng106/CNNStatisticalModel/distributions/input/50_distributions_100_sample_size_test-distributions-path.txt"
    batch_size: 20
  }
}
layer {
  name: "conv1"
  type: "Convolution"
  bottom: "data"
  top: "conv1"
  param {
    lr_mult: 1
  }
  param {
    lr_mult: 2
  }
  convolution_param {
    num_output: 64
    pad: 2
    kernel_size: 5
    stride: 1
    weight_filler {
      type: "gaussian"
      std: 0.0001
    }
    bias_filler {
      type: "constant"
    }
  }
}
layer {
  name: "relu1"
  type: "ReLU"
  bottom: "conv1"
  top: "conv1"
}
layer {
  name: "conv2"
  type: "Convolution"
  bottom: "conv1"
  top: "conv2"
  param {
    lr_mult: 1
  }
  param {
    lr_mult: 2
  }
  convolution_param {
    num_output: 64
    pad: 2
    kernel_size: 5
    stride: 1
    weight_filler {
      type: "gaussian"
      std: 0.01
    }
    bias_filler {
      type: "constant"
    }
  }
}
layer {
  name: "relu2"
  type: "ReLU"
  bottom: "conv2"
  top: "conv2"
}
layer {
  name: "pool2"
  type: "Pooling"
  bottom: "conv2"
  top: "pool2"
  pooling_param {
    pool: MAX
    kernel_size: 3
    stride: 2
  }
}
layer {
  name: "conv3"
  type: "Convolution"
  bottom: "pool2"
  top: "conv3"
  param {
    lr_mult: 1
  }
  param {
    lr_mult: 2
  }
  convolution_param {
    num_output: 64
    pad: 2
    kernel_size: 5
    stride: 1
    weight_filler {
      type: "gaussian"
      std: 0.01
    }
    bias_filler {
      type: "constant"
    }
  }
}
layer {
  name: "relu3"
  type: "ReLU"
  bottom: "conv3"
  top: "conv3"
}
layer {
  name: "conv4"
  type: "Convolution"
  bottom: "conv3"
  top: "conv4"
  param {
    lr_mult: 1
  }
  param {
    lr_mult: 2
  }
  convolution_param {
    num_output: 64
    pad: 2
    kernel_size: 5
    stride: 1
    weight_filler {
      type: "gaussian"
      std: 0.01
    }
    bias_filler {
      type: "constant"
    }
  }
}
layer {
  name: "relu4"
  type: "ReLU"
  bottom: "conv4"
  top: "conv4"
}
layer {
  name: "conv5"
  type: "Convolution"
  bottom: "conv4"
  top: "conv5"
  param {
    lr_mult: 1
  }
  param {
    lr_mult: 2
  }
  convolution_param {
    num_output: 64
    pad: 2
    kernel_size: 5
    stride: 1
    weight_filler {
      type: "gaussian"
      std: 0.01
    }
    bias_filler {
      type: "constant"
    }
  }
}
layer {
  name: "relu5"
  type: "ReLU"
  bottom: "conv5"
  top: "conv5"
}
layer {
  name: "pool5"
  type: "Pooling"
  bottom: "conv5"
  top: "pool5"
  pooling_param {
    pool: AVE
    kernel_size: 3
    stride: 2
  }
}
layer {
  name: "ip1"
  type: "InnerProduct"
  bottom: "pool5"
  top: "ip1"
  param {
    lr_mult: 1
  }
  param {
    lr_mult: 2
  }
  inner_product_param {
    num_output: 64
    weight_filler {
      type: "gaussian"
      std: 0.1
    }
    bias_filler {
      type: "constant"
    }
  }
}
layer {
  name: "ip2"
  type: "InnerProduct"
  bottom: "ip1"
  top: "ip2"
  param {
    lr_mult: 1
  }
  param {
    lr_mult: 2
  }
  inner_product_param {
    num_output: 64
    weight_filler {
      type: "gaussian"
      std: 0.1
    }
    bias_filler {
      type: "constant"
    }
  }
}
layer {
  name: "ip3"
  type: "InnerProduct"
  bottom: "ip2"
  top: "ip3"
  param {
    lr_mult: 1
  }
  param {
    lr_mult: 2
  }
  inner_product_param {
    num_output: 50
    weight_filler {
      type: "gaussian"
      std: 0.1
    }
    bias_filler {
      type: "constant"
    }
  }
}
layer {
  name: "accuracy"
  type: "Accuracy"
  bottom: "ip3"
  bottom: "label"
  top: "accuracy"
  include {
    phase: TEST
  }
}
layer {
  name: "loss"
  type: "SoftmaxWithLoss"
  bottom: "ip3"
  bottom: "label"
  top: "loss"
}
I0502 09:55:50.888764 21919 layer_factory.hpp:77] Creating layer intercept
I0502 09:55:50.888773 21919 net.cpp:94] Creating Layer intercept
I0502 09:55:50.888778 21919 net.cpp:409] intercept -> data
I0502 09:55:50.888785 21919 net.cpp:409] intercept -> label
I0502 09:55:50.888792 21919 hdf5_data_layer.cpp:79] Loading list of HDF5 filenames from: /home/purduethu/scratch/radon/d/deng106/CNNStatisticalModel/distributions/input/50_distributions_100_sample_size_test-distributions-path.txt
I0502 09:55:50.888811 21919 hdf5_data_layer.cpp:93] Number of HDF5 files: 1
I0502 09:55:50.931561 21919 net.cpp:144] Setting up intercept
I0502 09:55:50.931596 21919 net.cpp:151] Top shape: 20 1 10 10 (2000)
I0502 09:55:50.931602 21919 net.cpp:151] Top shape: 20 (20)
I0502 09:55:50.931607 21919 net.cpp:159] Memory required for data: 8080
I0502 09:55:50.931614 21919 layer_factory.hpp:77] Creating layer label_intercept_1_split
I0502 09:55:50.931634 21919 net.cpp:94] Creating Layer label_intercept_1_split
I0502 09:55:50.931639 21919 net.cpp:435] label_intercept_1_split <- label
I0502 09:55:50.931645 21919 net.cpp:409] label_intercept_1_split -> label_intercept_1_split_0
I0502 09:55:50.931654 21919 net.cpp:409] label_intercept_1_split -> label_intercept_1_split_1
I0502 09:55:50.931699 21919 net.cpp:144] Setting up label_intercept_1_split
I0502 09:55:50.931706 21919 net.cpp:151] Top shape: 20 (20)
I0502 09:55:50.931711 21919 net.cpp:151] Top shape: 20 (20)
I0502 09:55:50.931715 21919 net.cpp:159] Memory required for data: 8240
I0502 09:55:50.931718 21919 layer_factory.hpp:77] Creating layer conv1
I0502 09:55:50.931730 21919 net.cpp:94] Creating Layer conv1
I0502 09:55:50.931735 21919 net.cpp:435] conv1 <- data
I0502 09:55:50.931740 21919 net.cpp:409] conv1 -> conv1
I0502 09:55:50.932593 21919 net.cpp:144] Setting up conv1
I0502 09:55:50.932608 21919 net.cpp:151] Top shape: 20 64 10 10 (128000)
I0502 09:55:50.932620 21919 net.cpp:159] Memory required for data: 520240
I0502 09:55:50.932631 21919 layer_factory.hpp:77] Creating layer relu1
I0502 09:55:50.932638 21919 net.cpp:94] Creating Layer relu1
I0502 09:55:50.932643 21919 net.cpp:435] relu1 <- conv1
I0502 09:55:50.932648 21919 net.cpp:396] relu1 -> conv1 (in-place)
I0502 09:55:50.932657 21919 net.cpp:144] Setting up relu1
I0502 09:55:50.932662 21919 net.cpp:151] Top shape: 20 64 10 10 (128000)
I0502 09:55:50.932664 21919 net.cpp:159] Memory required for data: 1032240
I0502 09:55:50.932668 21919 layer_factory.hpp:77] Creating layer conv2
I0502 09:55:50.932677 21919 net.cpp:94] Creating Layer conv2
I0502 09:55:50.932682 21919 net.cpp:435] conv2 <- conv1
I0502 09:55:50.932687 21919 net.cpp:409] conv2 -> conv2
I0502 09:55:50.936789 21919 net.cpp:144] Setting up conv2
I0502 09:55:50.936803 21919 net.cpp:151] Top shape: 20 64 10 10 (128000)
I0502 09:55:50.936808 21919 net.cpp:159] Memory required for data: 1544240
I0502 09:55:50.936818 21919 layer_factory.hpp:77] Creating layer relu2
I0502 09:55:50.936825 21919 net.cpp:94] Creating Layer relu2
I0502 09:55:50.936830 21919 net.cpp:435] relu2 <- conv2
I0502 09:55:50.936836 21919 net.cpp:396] relu2 -> conv2 (in-place)
I0502 09:55:50.936842 21919 net.cpp:144] Setting up relu2
I0502 09:55:50.936847 21919 net.cpp:151] Top shape: 20 64 10 10 (128000)
I0502 09:55:50.936851 21919 net.cpp:159] Memory required for data: 2056240
I0502 09:55:50.936854 21919 layer_factory.hpp:77] Creating layer pool2
I0502 09:55:50.936861 21919 net.cpp:94] Creating Layer pool2
I0502 09:55:50.936864 21919 net.cpp:435] pool2 <- conv2
I0502 09:55:50.936869 21919 net.cpp:409] pool2 -> pool2
I0502 09:55:50.936929 21919 net.cpp:144] Setting up pool2
I0502 09:55:50.936938 21919 net.cpp:151] Top shape: 20 64 5 5 (32000)
I0502 09:55:50.936941 21919 net.cpp:159] Memory required for data: 2184240
I0502 09:55:50.936944 21919 layer_factory.hpp:77] Creating layer conv3
I0502 09:55:50.936954 21919 net.cpp:94] Creating Layer conv3
I0502 09:55:50.936959 21919 net.cpp:435] conv3 <- pool2
I0502 09:55:50.936964 21919 net.cpp:409] conv3 -> conv3
I0502 09:55:50.941434 21919 net.cpp:144] Setting up conv3
I0502 09:55:50.941448 21919 net.cpp:151] Top shape: 20 64 5 5 (32000)
I0502 09:55:50.941453 21919 net.cpp:159] Memory required for data: 2312240
I0502 09:55:50.941462 21919 layer_factory.hpp:77] Creating layer relu3
I0502 09:55:50.941469 21919 net.cpp:94] Creating Layer relu3
I0502 09:55:50.941474 21919 net.cpp:435] relu3 <- conv3
I0502 09:55:50.941480 21919 net.cpp:396] relu3 -> conv3 (in-place)
I0502 09:55:50.941488 21919 net.cpp:144] Setting up relu3
I0502 09:55:50.941493 21919 net.cpp:151] Top shape: 20 64 5 5 (32000)
I0502 09:55:50.941498 21919 net.cpp:159] Memory required for data: 2440240
I0502 09:55:50.941500 21919 layer_factory.hpp:77] Creating layer conv4
I0502 09:55:50.941510 21919 net.cpp:94] Creating Layer conv4
I0502 09:55:50.941514 21919 net.cpp:435] conv4 <- conv3
I0502 09:55:50.941519 21919 net.cpp:409] conv4 -> conv4
I0502 09:55:50.945086 21919 net.cpp:144] Setting up conv4
I0502 09:55:50.945098 21919 net.cpp:151] Top shape: 20 64 5 5 (32000)
I0502 09:55:50.945103 21919 net.cpp:159] Memory required for data: 2568240
I0502 09:55:50.945111 21919 layer_factory.hpp:77] Creating layer relu4
I0502 09:55:50.945116 21919 net.cpp:94] Creating Layer relu4
I0502 09:55:50.945121 21919 net.cpp:435] relu4 <- conv4
I0502 09:55:50.945125 21919 net.cpp:396] relu4 -> conv4 (in-place)
I0502 09:55:50.945132 21919 net.cpp:144] Setting up relu4
I0502 09:55:50.945137 21919 net.cpp:151] Top shape: 20 64 5 5 (32000)
I0502 09:55:50.945142 21919 net.cpp:159] Memory required for data: 2696240
I0502 09:55:50.945144 21919 layer_factory.hpp:77] Creating layer conv5
I0502 09:55:50.945155 21919 net.cpp:94] Creating Layer conv5
I0502 09:55:50.945159 21919 net.cpp:435] conv5 <- conv4
I0502 09:55:50.945165 21919 net.cpp:409] conv5 -> conv5
I0502 09:55:50.949201 21919 net.cpp:144] Setting up conv5
I0502 09:55:50.949215 21919 net.cpp:151] Top shape: 20 64 5 5 (32000)
I0502 09:55:50.949220 21919 net.cpp:159] Memory required for data: 2824240
I0502 09:55:50.949234 21919 layer_factory.hpp:77] Creating layer relu5
I0502 09:55:50.949241 21919 net.cpp:94] Creating Layer relu5
I0502 09:55:50.949245 21919 net.cpp:435] relu5 <- conv5
I0502 09:55:50.949250 21919 net.cpp:396] relu5 -> conv5 (in-place)
I0502 09:55:50.949257 21919 net.cpp:144] Setting up relu5
I0502 09:55:50.949262 21919 net.cpp:151] Top shape: 20 64 5 5 (32000)
I0502 09:55:50.949266 21919 net.cpp:159] Memory required for data: 2952240
I0502 09:55:50.949270 21919 layer_factory.hpp:77] Creating layer pool5
I0502 09:55:50.949275 21919 net.cpp:94] Creating Layer pool5
I0502 09:55:50.949280 21919 net.cpp:435] pool5 <- conv5
I0502 09:55:50.949285 21919 net.cpp:409] pool5 -> pool5
I0502 09:55:50.949326 21919 net.cpp:144] Setting up pool5
I0502 09:55:50.949334 21919 net.cpp:151] Top shape: 20 64 2 2 (5120)
I0502 09:55:50.949338 21919 net.cpp:159] Memory required for data: 2972720
I0502 09:55:50.949342 21919 layer_factory.hpp:77] Creating layer ip1
I0502 09:55:50.949350 21919 net.cpp:94] Creating Layer ip1
I0502 09:55:50.949354 21919 net.cpp:435] ip1 <- pool5
I0502 09:55:50.949360 21919 net.cpp:409] ip1 -> ip1
I0502 09:55:50.949892 21919 net.cpp:144] Setting up ip1
I0502 09:55:50.949900 21919 net.cpp:151] Top shape: 20 64 (1280)
I0502 09:55:50.949904 21919 net.cpp:159] Memory required for data: 2977840
I0502 09:55:50.949910 21919 layer_factory.hpp:77] Creating layer ip2
I0502 09:55:50.949918 21919 net.cpp:94] Creating Layer ip2
I0502 09:55:50.949921 21919 net.cpp:435] ip2 <- ip1
I0502 09:55:50.949928 21919 net.cpp:409] ip2 -> ip2
I0502 09:55:50.950168 21919 net.cpp:144] Setting up ip2
I0502 09:55:50.950176 21919 net.cpp:151] Top shape: 20 64 (1280)
I0502 09:55:50.950181 21919 net.cpp:159] Memory required for data: 2982960
I0502 09:55:50.950186 21919 layer_factory.hpp:77] Creating layer ip3
I0502 09:55:50.950194 21919 net.cpp:94] Creating Layer ip3
I0502 09:55:50.950199 21919 net.cpp:435] ip3 <- ip2
I0502 09:55:50.950204 21919 net.cpp:409] ip3 -> ip3
I0502 09:55:50.950413 21919 net.cpp:144] Setting up ip3
I0502 09:55:50.950423 21919 net.cpp:151] Top shape: 20 50 (1000)
I0502 09:55:50.950426 21919 net.cpp:159] Memory required for data: 2986960
I0502 09:55:50.950431 21919 layer_factory.hpp:77] Creating layer ip3_ip3_0_split
I0502 09:55:50.950438 21919 net.cpp:94] Creating Layer ip3_ip3_0_split
I0502 09:55:50.950441 21919 net.cpp:435] ip3_ip3_0_split <- ip3
I0502 09:55:50.950448 21919 net.cpp:409] ip3_ip3_0_split -> ip3_ip3_0_split_0
I0502 09:55:50.950454 21919 net.cpp:409] ip3_ip3_0_split -> ip3_ip3_0_split_1
I0502 09:55:50.950500 21919 net.cpp:144] Setting up ip3_ip3_0_split
I0502 09:55:50.950506 21919 net.cpp:151] Top shape: 20 50 (1000)
I0502 09:55:50.950511 21919 net.cpp:151] Top shape: 20 50 (1000)
I0502 09:55:50.950515 21919 net.cpp:159] Memory required for data: 2994960
I0502 09:55:50.950518 21919 layer_factory.hpp:77] Creating layer accuracy
I0502 09:55:50.950525 21919 net.cpp:94] Creating Layer accuracy
I0502 09:55:50.950528 21919 net.cpp:435] accuracy <- ip3_ip3_0_split_0
I0502 09:55:50.950533 21919 net.cpp:435] accuracy <- label_intercept_1_split_0
I0502 09:55:50.950539 21919 net.cpp:409] accuracy -> accuracy
…
