…
I0507 21:08:10.804996  7416 net.cpp:323] The NetState phase (0) differed from the phase (1) specified by a rule in layer intercept
I0507 21:08:10.805011  7416 net.cpp:323] The NetState phase (0) differed from the phase (1) specified by a rule in layer loss
I0507 21:08:10.805088  7416 net.cpp:52] Initializing net from parameters: 
state {
  phase: TRAIN
}
layer {
  name: "parameters"
  type: "HDF5Data"
  top: "data"
  top: "label"
  include {
    phase: TRAIN
  }
  hdf5_data_param {
    source: "/home/purduethu/scratch/radon/d/deng106/CNNStatisticalModel/distributions/input/20_distributions_400_sample_size_train-parameters-path.txt"
    batch_size: 20
  }
}
layer {
  name: "conv1"
  type: "Convolution"
  bottom: "data"
  top: "conv1"
  param {
    lr_mult: 1
  }
  param {
    lr_mult: 2
  }
  convolution_param {
    num_output: 64
    pad: 2
    kernel_size: 5
    stride: 1
    weight_filler {
      type: "gaussian"
      std: 0.0001
    }
    bias_filler {
      type: "constant"
    }
  }
}
layer {
  name: "relu1"
  type: "ReLU"
  bottom: "conv1"
  top: "conv1"
}
layer {
  name: "conv2"
  type: "Convolution"
  bottom: "conv1"
  top: "conv2"
  param {
    lr_mult: 1
  }
  param {
    lr_mult: 2
  }
  convolution_param {
    num_output: 64
    pad: 2
    kernel_size: 5
    stride: 1
    weight_filler {
      type: "gaussian"
      std: 0.01
    }
    bias_filler {
      type: "constant"
    }
  }
}
layer {
  name: "relu2"
  type: "ReLU"
  bottom: "conv2"
  top: "conv2"
}
layer {
  name: "pool2"
  type: "Pooling"
  bottom: "conv2"
  top: "pool2"
  pooling_param {
    pool: MAX
    kernel_size: 3
    stride: 2
  }
}
layer {
  name: "conv3"
  type: "Convolution"
  bottom: "pool2"
  top: "conv3"
  param {
    lr_mult: 1
  }
  param {
    lr_mult: 2
  }
  convolution_param {
    num_output: 64
    pad: 2
    kernel_size: 5
    stride: 1
    weight_filler {
      type: "gaussian"
      std: 0.01
    }
    bias_filler {
      type: "constant"
    }
  }
}
layer {
  name: "relu3"
  type: "ReLU"
  bottom: "conv3"
  top: "conv3"
}
layer {
  name: "conv4"
  type: "Convolution"
  bottom: "conv3"
  top: "conv4"
  param {
    lr_mult: 1
  }
  param {
    lr_mult: 2
  }
  convolution_param {
    num_output: 64
    pad: 2
    kernel_size: 5
    stride: 1
    weight_filler {
      type: "gaussian"
      std: 0.01
    }
    bias_filler {
      type: "constant"
    }
  }
}
layer {
  name: "relu4"
  type: "ReLU"
  bottom: "conv4"
  top: "conv4"
}
layer {
  name: "conv5"
  type: "Convolution"
  bottom: "conv4"
  top: "conv5"
  param {
    lr_mult: 1
  }
  param {
    lr_mult: 2
  }
  convolution_param {
    num_output: 64
    pad: 2
    kernel_size: 5
    stride: 1
    weight_filler {
      type: "gaussian"
      std: 0.01
    }
    bias_filler {
      type: "constant"
    }
  }
}
layer {
  name: "relu5"
  type: "ReLU"
  bottom: "conv5"
  top: "conv5"
}
layer {
  name: "pool5"
  type: "Pooling"
  bottom: "conv5"
  top: "pool5"
  pooling_param {
    pool: AVE
    kernel_size: 3
    stride: 2
  }
}
layer {
  name: "ip1"
  type: "InnerProduct"
  bottom: "pool5"
  top: "ip1"
  param {
    lr_mult: 1
  }
  param {
    lr_mult: 2
  }
  inner_product_param {
    num_output: 64
    weight_filler {
      type: "gaussian"
      std: 0.1
    }
    bias_filler {
      type: "constant"
    }
  }
}
layer {
  name: "ip2"
  type: "InnerProduct"
  bottom: "ip1"
  top: "ip2"
  param {
    lr_mult: 1
  }
  param {
    lr_mult: 2
  }
  inner_product_param {
    num_output: 64
    weight_filler {
      type: "gaussian"
      std: 0.1
    }
    bias_filler {
      type: "constant"
    }
  }
}
layer {
  name: "ip3"
  type: "InnerProduct"
  bottom: "ip2"
  top: "ip3"
  param {
    lr_mult: 1
  }
  param {
    lr_mult: 2
  }
  inner_product_param {
    num_output: 1
    weight_filler {
      type: "gaussian"
      std: 0.1
    }
    bias_filler {
      type: "constant"
    }
  }
}
layer {
  name: "loss"
  type: "HuberLoss"
  bottom: "ip3"
  bottom: "label"
  top: "loss"
  include {
    phase: TRAIN
  }
}
I0507 21:08:10.805138  7416 layer_factory.hpp:77] Creating layer parameters
I0507 21:08:10.805152  7416 net.cpp:94] Creating Layer parameters
I0507 21:08:10.805157  7416 net.cpp:409] parameters -> data
I0507 21:08:10.805169  7416 net.cpp:409] parameters -> label
I0507 21:08:10.805176  7416 hdf5_data_layer.cpp:79] Loading list of HDF5 filenames from: /home/purduethu/scratch/radon/d/deng106/CNNStatisticalModel/distributions/input/20_distributions_400_sample_size_train-parameters-path.txt
I0507 21:08:10.805191  7416 hdf5_data_layer.cpp:93] Number of HDF5 files: 1
I0507 21:08:10.805690  7416 hdf5.cpp:32] Datatype class: H5T_FLOAT
I0507 21:08:11.071585  7416 net.cpp:144] Setting up parameters
I0507 21:08:11.071616  7416 net.cpp:151] Top shape: 20 1 20 20 (8000)
I0507 21:08:11.071621  7416 net.cpp:151] Top shape: 20 (20)
I0507 21:08:11.071624  7416 net.cpp:159] Memory required for data: 32080
I0507 21:08:11.071630  7416 layer_factory.hpp:77] Creating layer conv1
I0507 21:08:11.071646  7416 net.cpp:94] Creating Layer conv1
I0507 21:08:11.071650  7416 net.cpp:435] conv1 <- data
I0507 21:08:11.071656  7416 net.cpp:409] conv1 -> conv1
I0507 21:08:11.076937  7416 net.cpp:144] Setting up conv1
I0507 21:08:11.076952  7416 net.cpp:151] Top shape: 20 64 20 20 (512000)
I0507 21:08:11.076956  7416 net.cpp:159] Memory required for data: 2080080
I0507 21:08:11.076966  7416 layer_factory.hpp:77] Creating layer relu1
I0507 21:08:11.076973  7416 net.cpp:94] Creating Layer relu1
I0507 21:08:11.076977  7416 net.cpp:435] relu1 <- conv1
I0507 21:08:11.076982  7416 net.cpp:396] relu1 -> conv1 (in-place)
I0507 21:08:11.076988  7416 net.cpp:144] Setting up relu1
I0507 21:08:11.076993  7416 net.cpp:151] Top shape: 20 64 20 20 (512000)
I0507 21:08:11.076997  7416 net.cpp:159] Memory required for data: 4128080
I0507 21:08:11.076999  7416 layer_factory.hpp:77] Creating layer conv2
I0507 21:08:11.077006  7416 net.cpp:94] Creating Layer conv2
I0507 21:08:11.077010  7416 net.cpp:435] conv2 <- conv1
I0507 21:08:11.077015  7416 net.cpp:409] conv2 -> conv2
I0507 21:08:11.087834  7416 net.cpp:144] Setting up conv2
I0507 21:08:11.087849  7416 net.cpp:151] Top shape: 20 64 20 20 (512000)
I0507 21:08:11.087853  7416 net.cpp:159] Memory required for data: 6176080
I0507 21:08:11.087860  7416 layer_factory.hpp:77] Creating layer relu2
I0507 21:08:11.087867  7416 net.cpp:94] Creating Layer relu2
I0507 21:08:11.087872  7416 net.cpp:435] relu2 <- conv2
I0507 21:08:11.087875  7416 net.cpp:396] relu2 -> conv2 (in-place)
I0507 21:08:11.087882  7416 net.cpp:144] Setting up relu2
I0507 21:08:11.087887  7416 net.cpp:151] Top shape: 20 64 20 20 (512000)
I0507 21:08:11.087889  7416 net.cpp:159] Memory required for data: 8224080
I0507 21:08:11.087893  7416 layer_factory.hpp:77] Creating layer pool2
I0507 21:08:11.087904  7416 net.cpp:94] Creating Layer pool2
I0507 21:08:11.087908  7416 net.cpp:435] pool2 <- conv2
I0507 21:08:11.087913  7416 net.cpp:409] pool2 -> pool2
I0507 21:08:11.087963  7416 net.cpp:144] Setting up pool2
I0507 21:08:11.087970  7416 net.cpp:151] Top shape: 20 64 10 10 (128000)
I0507 21:08:11.087973  7416 net.cpp:159] Memory required for data: 8736080
I0507 21:08:11.087976  7416 layer_factory.hpp:77] Creating layer conv3
I0507 21:08:11.087985  7416 net.cpp:94] Creating Layer conv3
I0507 21:08:11.087988  7416 net.cpp:435] conv3 <- pool2
I0507 21:08:11.087992  7416 net.cpp:409] conv3 -> conv3
I0507 21:08:11.093291  7416 net.cpp:144] Setting up conv3
I0507 21:08:11.093303  7416 net.cpp:151] Top shape: 20 64 10 10 (128000)
I0507 21:08:11.093307  7416 net.cpp:159] Memory required for data: 9248080
I0507 21:08:11.093315  7416 layer_factory.hpp:77] Creating layer relu3
I0507 21:08:11.093322  7416 net.cpp:94] Creating Layer relu3
I0507 21:08:11.093324  7416 net.cpp:435] relu3 <- conv3
I0507 21:08:11.093329  7416 net.cpp:396] relu3 -> conv3 (in-place)
I0507 21:08:11.093335  7416 net.cpp:144] Setting up relu3
I0507 21:08:11.093340  7416 net.cpp:151] Top shape: 20 64 10 10 (128000)
I0507 21:08:11.093343  7416 net.cpp:159] Memory required for data: 9760080
I0507 21:08:11.093345  7416 layer_factory.hpp:77] Creating layer conv4
I0507 21:08:11.093354  7416 net.cpp:94] Creating Layer conv4
I0507 21:08:11.093358  7416 net.cpp:435] conv4 <- conv3
I0507 21:08:11.093363  7416 net.cpp:409] conv4 -> conv4
I0507 21:08:11.098619  7416 net.cpp:144] Setting up conv4
I0507 21:08:11.098633  7416 net.cpp:151] Top shape: 20 64 10 10 (128000)
I0507 21:08:11.098636  7416 net.cpp:159] Memory required for data: 10272080
I0507 21:08:11.098642  7416 layer_factory.hpp:77] Creating layer relu4
I0507 21:08:11.098649  7416 net.cpp:94] Creating Layer relu4
I0507 21:08:11.098651  7416 net.cpp:435] relu4 <- conv4
I0507 21:08:11.098656  7416 net.cpp:396] relu4 -> conv4 (in-place)
I0507 21:08:11.098664  7416 net.cpp:144] Setting up relu4
I0507 21:08:11.098667  7416 net.cpp:151] Top shape: 20 64 10 10 (128000)
I0507 21:08:11.098670  7416 net.cpp:159] Memory required for data: 10784080
I0507 21:08:11.098673  7416 layer_factory.hpp:77] Creating layer conv5
I0507 21:08:11.098681  7416 net.cpp:94] Creating Layer conv5
I0507 21:08:11.098685  7416 net.cpp:435] conv5 <- conv4
I0507 21:08:11.098690  7416 net.cpp:409] conv5 -> conv5
I0507 21:08:11.104766  7416 net.cpp:144] Setting up conv5
I0507 21:08:11.104779  7416 net.cpp:151] Top shape: 20 64 10 10 (128000)
I0507 21:08:11.104784  7416 net.cpp:159] Memory required for data: 11296080
I0507 21:08:11.104791  7416 layer_factory.hpp:77] Creating layer relu5
I0507 21:08:11.104797  7416 net.cpp:94] Creating Layer relu5
I0507 21:08:11.104801  7416 net.cpp:435] relu5 <- conv5
I0507 21:08:11.104805  7416 net.cpp:396] relu5 -> conv5 (in-place)
I0507 21:08:11.104812  7416 net.cpp:144] Setting up relu5
I0507 21:08:11.104816  7416 net.cpp:151] Top shape: 20 64 10 10 (128000)
I0507 21:08:11.104820  7416 net.cpp:159] Memory required for data: 11808080
I0507 21:08:11.104822  7416 layer_factory.hpp:77] Creating layer pool5
I0507 21:08:11.104826  7416 net.cpp:94] Creating Layer pool5
I0507 21:08:11.104830  7416 net.cpp:435] pool5 <- conv5
I0507 21:08:11.104833  7416 net.cpp:409] pool5 -> pool5
I0507 21:08:11.104871  7416 net.cpp:144] Setting up pool5
I0507 21:08:11.104878  7416 net.cpp:151] Top shape: 20 64 5 5 (32000)
I0507 21:08:11.104882  7416 net.cpp:159] Memory required for data: 11936080
I0507 21:08:11.104884  7416 layer_factory.hpp:77] Creating layer ip1
I0507 21:08:11.104894  7416 net.cpp:94] Creating Layer ip1
I0507 21:08:11.104898  7416 net.cpp:435] ip1 <- pool5
I0507 21:08:11.104902  7416 net.cpp:409] ip1 -> ip1
I0507 21:08:11.107427  7416 net.cpp:144] Setting up ip1
I0507 21:08:11.107434  7416 net.cpp:151] Top shape: 20 64 (1280)
I0507 21:08:11.107439  7416 net.cpp:159] Memory required for data: 11941200
I0507 21:08:11.107444  7416 layer_factory.hpp:77] Creating layer ip2
I0507 21:08:11.107450  7416 net.cpp:94] Creating Layer ip2
I0507 21:08:11.107456  7416 net.cpp:435] ip2 <- ip1
I0507 21:08:11.107461  7416 net.cpp:409] ip2 -> ip2
I0507 21:08:11.107666  7416 net.cpp:144] Setting up ip2
I0507 21:08:11.107671  7416 net.cpp:151] Top shape: 20 64 (1280)
I0507 21:08:11.107676  7416 net.cpp:159] Memory required for data: 11946320
I0507 21:08:11.107679  7416 layer_factory.hpp:77] Creating layer ip3
I0507 21:08:11.107686  7416 net.cpp:94] Creating Layer ip3
I0507 21:08:11.107688  7416 net.cpp:435] ip3 <- ip2
I0507 21:08:11.107692  7416 net.cpp:409] ip3 -> ip3
I0507 21:08:11.107790  7416 net.cpp:144] Setting up ip3
I0507 21:08:11.107797  7416 net.cpp:151] Top shape: 20 1 (20)
I0507 21:08:11.107800  7416 net.cpp:159] Memory required for data: 11946400
I0507 21:08:11.107805  7416 layer_factory.hpp:77] Creating layer loss
I0507 21:08:11.107815  7416 net.cpp:94] Creating Layer loss
I0507 21:08:11.107818  7416 net.cpp:435] loss <- ip3
I0507 21:08:11.107821  7416 net.cpp:435] loss <- label
I0507 21:08:11.107826  7416 net.cpp:409] loss -> loss
I0507 21:08:11.107875  7416 net.cpp:144] Setting up loss
…
I0507 21:08:11.196645  7416 net.cpp:323] The NetState phase (0) differed from the phase (1) specified by a rule in layer intercept
I0507 21:08:11.196662  7416 net.cpp:323] The NetState phase (0) differed from the phase (1) specified by a rule in layer accuracy
I0507 21:08:11.196750  7416 net.cpp:52] Initializing net from parameters: 
state {
  phase: TRAIN
}
layer {
  name: "parameters"
  type: "HDF5Data"
  top: "data"
  top: "label"
  include {
    phase: TRAIN
  }
  hdf5_data_param {
    source: "/home/purduethu/scratch/radon/d/deng106/CNNStatisticalModel/distributions/input/20_distributions_400_sample_size_train-distributions-path.txt"
    batch_size: 20
  }
}
layer {
  name: "conv1"
  type: "Convolution"
  bottom: "data"
  top: "conv1"
  param {
    lr_mult: 1
  }
  param {
    lr_mult: 2
  }
  convolution_param {
    num_output: 64
    pad: 2
    kernel_size: 5
    stride: 1
    weight_filler {
      type: "gaussian"
      std: 0.0001
    }
    bias_filler {
      type: "constant"
    }
  }
}
layer {
  name: "relu1"
  type: "ReLU"
  bottom: "conv1"
  top: "conv1"
}
layer {
  name: "conv2"
  type: "Convolution"
  bottom: "conv1"
  top: "conv2"
  param {
    lr_mult: 1
  }
  param {
    lr_mult: 2
  }
  convolution_param {
    num_output: 64
    pad: 2
    kernel_size: 5
    stride: 1
    weight_filler {
      type: "gaussian"
      std: 0.01
    }
    bias_filler {
      type: "constant"
    }
  }
}
layer {
  name: "relu2"
  type: "ReLU"
  bottom: "conv2"
  top: "conv2"
}
layer {
  name: "pool2"
  type: "Pooling"
  bottom: "conv2"
  top: "pool2"
  pooling_param {
    pool: MAX
    kernel_size: 3
    stride: 2
  }
}
layer {
  name: "conv3"
  type: "Convolution"
  bottom: "pool2"
  top: "conv3"
  param {
    lr_mult: 1
  }
  param {
    lr_mult: 2
  }
  convolution_param {
    num_output: 64
    pad: 2
    kernel_size: 5
    stride: 1
    weight_filler {
      type: "gaussian"
      std: 0.01
    }
    bias_filler {
      type: "constant"
    }
  }
}
layer {
  name: "relu3"
  type: "ReLU"
  bottom: "conv3"
  top: "conv3"
}
layer {
  name: "conv4"
  type: "Convolution"
  bottom: "conv3"
  top: "conv4"
  param {
    lr_mult: 1
  }
  param {
    lr_mult: 2
  }
  convolution_param {
    num_output: 64
    pad: 2
    kernel_size: 5
    stride: 1
    weight_filler {
      type: "gaussian"
      std: 0.01
    }
    bias_filler {
      type: "constant"
    }
  }
}
layer {
  name: "relu4"
  type: "ReLU"
  bottom: "conv4"
  top: "conv4"
}
layer {
  name: "conv5"
  type: "Convolution"
  bottom: "conv4"
  top: "conv5"
  param {
    lr_mult: 1
  }
  param {
    lr_mult: 2
  }
  convolution_param {
    num_output: 64
    pad: 2
    kernel_size: 5
    stride: 1
    weight_filler {
      type: "gaussian"
      std: 0.01
    }
    bias_filler {
      type: "constant"
    }
  }
}
layer {
  name: "relu5"
  type: "ReLU"
  bottom: "conv5"
  top: "conv5"
}
layer {
  name: "pool5"
  type: "Pooling"
  bottom: "conv5"
  top: "pool5"
  pooling_param {
    pool: AVE
    kernel_size: 3
    stride: 2
  }
}
layer {
  name: "ip1"
  type: "InnerProduct"
  bottom: "pool5"
  top: "ip1"
  param {
    lr_mult: 1
  }
  param {
    lr_mult: 2
  }
  inner_product_param {
    num_output: 64
    weight_filler {
      type: "gaussian"
      std: 0.1
    }
    bias_filler {
      type: "constant"
    }
  }
}
layer {
  name: "ip2"
  type: "InnerProduct"
  bottom: "ip1"
  top: "ip2"
  param {
    lr_mult: 1
  }
  param {
    lr_mult: 2
  }
  inner_product_param {
    num_output: 64
    weight_filler {
      type: "gaussian"
      std: 0.1
    }
    bias_filler {
      type: "constant"
    }
  }
}
layer {
  name: "ip3"
  type: "InnerProduct"
  bottom: "ip2"
  top: "ip3"
  param {
    lr_mult: 1
  }
  param {
    lr_mult: 2
  }
  inner_product_param {
    num_output: 50
    weight_filler {
      type: "gaussian"
      std: 0.1
    }
    bias_filler {
      type: "constant"
    }
  }
}
layer {
  name: "loss"
  type: "SoftmaxWithLoss"
  bottom: "ip3"
  bottom: "label"
  top: "loss"
}
I0507 21:08:11.196800  7416 layer_factory.hpp:77] Creating layer parameters
I0507 21:08:11.196808  7416 net.cpp:94] Creating Layer parameters
I0507 21:08:11.196812  7416 net.cpp:409] parameters -> data
I0507 21:08:11.196820  7416 net.cpp:409] parameters -> label
I0507 21:08:11.196825  7416 hdf5_data_layer.cpp:79] Loading list of HDF5 filenames from: /home/purduethu/scratch/radon/d/deng106/CNNStatisticalModel/distributions/input/20_distributions_400_sample_size_train-distributions-path.txt
I0507 21:08:11.196840  7416 hdf5_data_layer.cpp:93] Number of HDF5 files: 1
I0507 21:08:11.450443  7416 hdf5.cpp:35] Datatype class: H5T_INTEGER
I0507 21:08:11.451458  7416 net.cpp:144] Setting up parameters
I0507 21:08:11.451473  7416 net.cpp:151] Top shape: 20 1 20 20 (8000)
I0507 21:08:11.451478  7416 net.cpp:151] Top shape: 20 (20)
I0507 21:08:11.451481  7416 net.cpp:159] Memory required for data: 32080
I0507 21:08:11.451488  7416 layer_factory.hpp:77] Creating layer conv1
I0507 21:08:11.451503  7416 net.cpp:94] Creating Layer conv1
I0507 21:08:11.451506  7416 net.cpp:435] conv1 <- data
I0507 21:08:11.451512  7416 net.cpp:409] conv1 -> conv1
I0507 21:08:11.454257  7416 net.cpp:144] Setting up conv1
I0507 21:08:11.454270  7416 net.cpp:151] Top shape: 20 64 20 20 (512000)
I0507 21:08:11.454274  7416 net.cpp:159] Memory required for data: 2080080
I0507 21:08:11.454283  7416 layer_factory.hpp:77] Creating layer relu1
I0507 21:08:11.454290  7416 net.cpp:94] Creating Layer relu1
I0507 21:08:11.454294  7416 net.cpp:435] relu1 <- conv1
I0507 21:08:11.454298  7416 net.cpp:396] relu1 -> conv1 (in-place)
I0507 21:08:11.454305  7416 net.cpp:144] Setting up relu1
I0507 21:08:11.454310  7416 net.cpp:151] Top shape: 20 64 20 20 (512000)
I0507 21:08:11.454313  7416 net.cpp:159] Memory required for data: 4128080
I0507 21:08:11.454315  7416 layer_factory.hpp:77] Creating layer conv2
I0507 21:08:11.454324  7416 net.cpp:94] Creating Layer conv2
I0507 21:08:11.454326  7416 net.cpp:435] conv2 <- conv1
I0507 21:08:11.454330  7416 net.cpp:409] conv2 -> conv2
I0507 21:08:11.463599  7416 net.cpp:144] Setting up conv2
I0507 21:08:11.463613  7416 net.cpp:151] Top shape: 20 64 20 20 (512000)
I0507 21:08:11.463618  7416 net.cpp:159] Memory required for data: 6176080
I0507 21:08:11.463625  7416 layer_factory.hpp:77] Creating layer relu2
I0507 21:08:11.463632  7416 net.cpp:94] Creating Layer relu2
I0507 21:08:11.463635  7416 net.cpp:435] relu2 <- conv2
I0507 21:08:11.463639  7416 net.cpp:396] relu2 -> conv2 (in-place)
I0507 21:08:11.463646  7416 net.cpp:144] Setting up relu2
I0507 21:08:11.463650  7416 net.cpp:151] Top shape: 20 64 20 20 (512000)
I0507 21:08:11.463654  7416 net.cpp:159] Memory required for data: 8224080
I0507 21:08:11.463656  7416 layer_factory.hpp:77] Creating layer pool2
I0507 21:08:11.463662  7416 net.cpp:94] Creating Layer pool2
I0507 21:08:11.463665  7416 net.cpp:435] pool2 <- conv2
I0507 21:08:11.463670  7416 net.cpp:409] pool2 -> pool2
I0507 21:08:11.463719  7416 net.cpp:144] Setting up pool2
I0507 21:08:11.463726  7416 net.cpp:151] Top shape: 20 64 10 10 (128000)
I0507 21:08:11.463729  7416 net.cpp:159] Memory required for data: 8736080
I0507 21:08:11.463732  7416 layer_factory.hpp:77] Creating layer conv3
I0507 21:08:11.463740  7416 net.cpp:94] Creating Layer conv3
I0507 21:08:11.463743  7416 net.cpp:435] conv3 <- pool2
I0507 21:08:11.463754  7416 net.cpp:409] conv3 -> conv3
I0507 21:08:11.469907  7416 net.cpp:144] Setting up conv3
I0507 21:08:11.469921  7416 net.cpp:151] Top shape: 20 64 10 10 (128000)
I0507 21:08:11.469925  7416 net.cpp:159] Memory required for data: 9248080
I0507 21:08:11.469933  7416 layer_factory.hpp:77] Creating layer relu3
I0507 21:08:11.469939  7416 net.cpp:94] Creating Layer relu3
I0507 21:08:11.469944  7416 net.cpp:435] relu3 <- conv3
I0507 21:08:11.469947  7416 net.cpp:396] relu3 -> conv3 (in-place)
I0507 21:08:11.469954  7416 net.cpp:144] Setting up relu3
I0507 21:08:11.469959  7416 net.cpp:151] Top shape: 20 64 10 10 (128000)
I0507 21:08:11.469961  7416 net.cpp:159] Memory required for data: 9760080
I0507 21:08:11.469964  7416 layer_factory.hpp:77] Creating layer conv4
I0507 21:08:11.469972  7416 net.cpp:94] Creating Layer conv4
I0507 21:08:11.469976  7416 net.cpp:435] conv4 <- conv3
I0507 21:08:11.469981  7416 net.cpp:409] conv4 -> conv4
I0507 21:08:11.475273  7416 net.cpp:144] Setting up conv4
I0507 21:08:11.475287  7416 net.cpp:151] Top shape: 20 64 10 10 (128000)
I0507 21:08:11.475291  7416 net.cpp:159] Memory required for data: 10272080
I0507 21:08:11.475297  7416 layer_factory.hpp:77] Creating layer relu4
I0507 21:08:11.475302  7416 net.cpp:94] Creating Layer relu4
I0507 21:08:11.475306  7416 net.cpp:435] relu4 <- conv4
I0507 21:08:11.475311  7416 net.cpp:396] relu4 -> conv4 (in-place)
I0507 21:08:11.475317  7416 net.cpp:144] Setting up relu4
I0507 21:08:11.475322  7416 net.cpp:151] Top shape: 20 64 10 10 (128000)
I0507 21:08:11.475324  7416 net.cpp:159] Memory required for data: 10784080
I0507 21:08:11.475327  7416 layer_factory.hpp:77] Creating layer conv5
I0507 21:08:11.475334  7416 net.cpp:94] Creating Layer conv5
I0507 21:08:11.475337  7416 net.cpp:435] conv5 <- conv4
I0507 21:08:11.475342  7416 net.cpp:409] conv5 -> conv5
I0507 21:08:11.480604  7416 net.cpp:144] Setting up conv5
I0507 21:08:11.480618  7416 net.cpp:151] Top shape: 20 64 10 10 (128000)
I0507 21:08:11.480623  7416 net.cpp:159] Memory required for data: 11296080
I0507 21:08:11.480630  7416 layer_factory.hpp:77] Creating layer relu5
I0507 21:08:11.480636  7416 net.cpp:94] Creating Layer relu5
I0507 21:08:11.480639  7416 net.cpp:435] relu5 <- conv5
I0507 21:08:11.480644  7416 net.cpp:396] relu5 -> conv5 (in-place)
I0507 21:08:11.480650  7416 net.cpp:144] Setting up relu5
I0507 21:08:11.480655  7416 net.cpp:151] Top shape: 20 64 10 10 (128000)
I0507 21:08:11.480657  7416 net.cpp:159] Memory required for data: 11808080
I0507 21:08:11.480660  7416 layer_factory.hpp:77] Creating layer pool5
I0507 21:08:11.480665  7416 net.cpp:94] Creating Layer pool5
I0507 21:08:11.480669  7416 net.cpp:435] pool5 <- conv5
I0507 21:08:11.480672  7416 net.cpp:409] pool5 -> pool5
I0507 21:08:11.480706  7416 net.cpp:144] Setting up pool5
I0507 21:08:11.480713  7416 net.cpp:151] Top shape: 20 64 5 5 (32000)
I0507 21:08:11.480716  7416 net.cpp:159] Memory required for data: 11936080
I0507 21:08:11.480720  7416 layer_factory.hpp:77] Creating layer ip1
I0507 21:08:11.480726  7416 net.cpp:94] Creating Layer ip1
I0507 21:08:11.480729  7416 net.cpp:435] ip1 <- pool5
I0507 21:08:11.480734  7416 net.cpp:409] ip1 -> ip1
I0507 21:08:11.483264  7416 net.cpp:144] Setting up ip1
I0507 21:08:11.483273  7416 net.cpp:151] Top shape: 20 64 (1280)
I0507 21:08:11.483276  7416 net.cpp:159] Memory required for data: 11941200
I0507 21:08:11.483281  7416 layer_factory.hpp:77] Creating layer ip2
I0507 21:08:11.483286  7416 net.cpp:94] Creating Layer ip2
I0507 21:08:11.483290  7416 net.cpp:435] ip2 <- ip1
I0507 21:08:11.483294  7416 net.cpp:409] ip2 -> ip2
I0507 21:08:11.483506  7416 net.cpp:144] Setting up ip2
I0507 21:08:11.483513  7416 net.cpp:151] Top shape: 20 64 (1280)
I0507 21:08:11.483516  7416 net.cpp:159] Memory required for data: 11946320
I0507 21:08:11.483521  7416 layer_factory.hpp:77] Creating layer ip3
I0507 21:08:11.483527  7416 net.cpp:94] Creating Layer ip3
I0507 21:08:11.483530  7416 net.cpp:435] ip3 <- ip2
I0507 21:08:11.483536  7416 net.cpp:409] ip3 -> ip3
I0507 21:08:11.483726  7416 net.cpp:144] Setting up ip3
I0507 21:08:11.483733  7416 net.cpp:151] Top shape: 20 50 (1000)
I0507 21:08:11.483737  7416 net.cpp:159] Memory required for data: 11950320
I0507 21:08:11.483742  7416 layer_factory.hpp:77] Creating layer loss
I0507 21:08:11.483748  7416 net.cpp:94] Creating Layer loss
I0507 21:08:11.483752  7416 net.cpp:435] loss <- ip3
I0507 21:08:11.483755  7416 net.cpp:435] loss <- label
I0507 21:08:11.483759  7416 net.cpp:409] loss -> loss
I0507 21:08:11.483765  7416 layer_factory.hpp:77] Creating layer loss
…
I0507 21:08:11.484269  7416 solver.cpp:181] Creating test net (#0) specified by net file: ./protocol/dis_20_400_dimension.protocol_distribution
I0507 21:08:11.484295  7416 net.cpp:323] The NetState phase (1) differed from the phase (0) specified by a rule in layer parameters
I0507 21:08:11.484388  7416 net.cpp:52] Initializing net from parameters: 
state {
  phase: TEST
}
layer {
  name: "intercept"
  type: "HDF5Data"
  top: "data"
  top: "label"
  include {
    phase: TEST
  }
  hdf5_data_param {
    source: "/home/purduethu/scratch/radon/d/deng106/CNNStatisticalModel/distributions/input/20_distributions_400_sample_size_test-distributions-path.txt"
    batch_size: 20
  }
}
layer {
  name: "conv1"
  type: "Convolution"
  bottom: "data"
  top: "conv1"
  param {
    lr_mult: 1
  }
  param {
    lr_mult: 2
  }
  convolution_param {
    num_output: 64
    pad: 2
    kernel_size: 5
    stride: 1
    weight_filler {
      type: "gaussian"
      std: 0.0001
    }
    bias_filler {
      type: "constant"
    }
  }
}
layer {
  name: "relu1"
  type: "ReLU"
  bottom: "conv1"
  top: "conv1"
}
layer {
  name: "conv2"
  type: "Convolution"
  bottom: "conv1"
  top: "conv2"
  param {
    lr_mult: 1
  }
  param {
    lr_mult: 2
  }
  convolution_param {
    num_output: 64
    pad: 2
    kernel_size: 5
    stride: 1
    weight_filler {
      type: "gaussian"
      std: 0.01
    }
    bias_filler {
      type: "constant"
    }
  }
}
layer {
  name: "relu2"
  type: "ReLU"
  bottom: "conv2"
  top: "conv2"
}
layer {
  name: "pool2"
  type: "Pooling"
  bottom: "conv2"
  top: "pool2"
  pooling_param {
    pool: MAX
    kernel_size: 3
    stride: 2
  }
}
layer {
  name: "conv3"
  type: "Convolution"
  bottom: "pool2"
  top: "conv3"
  param {
    lr_mult: 1
  }
  param {
    lr_mult: 2
  }
  convolution_param {
    num_output: 64
    pad: 2
    kernel_size: 5
    stride: 1
    weight_filler {
      type: "gaussian"
      std: 0.01
    }
    bias_filler {
      type: "constant"
    }
  }
}
layer {
  name: "relu3"
  type: "ReLU"
  bottom: "conv3"
  top: "conv3"
}
layer {
  name: "conv4"
  type: "Convolution"
  bottom: "conv3"
  top: "conv4"
  param {
    lr_mult: 1
  }
  param {
    lr_mult: 2
  }
  convolution_param {
    num_output: 64
    pad: 2
    kernel_size: 5
    stride: 1
    weight_filler {
      type: "gaussian"
      std: 0.01
    }
    bias_filler {
      type: "constant"
    }
  }
}
layer {
  name: "relu4"
  type: "ReLU"
  bottom: "conv4"
  top: "conv4"
}
layer {
  name: "conv5"
  type: "Convolution"
  bottom: "conv4"
  top: "conv5"
  param {
    lr_mult: 1
  }
  param {
    lr_mult: 2
  }
  convolution_param {
    num_output: 64
    pad: 2
    kernel_size: 5
    stride: 1
    weight_filler {
      type: "gaussian"
      std: 0.01
    }
    bias_filler {
      type: "constant"
    }
  }
}
layer {
  name: "relu5"
  type: "ReLU"
  bottom: "conv5"
  top: "conv5"
}
layer {
  name: "pool5"
  type: "Pooling"
  bottom: "conv5"
  top: "pool5"
  pooling_param {
    pool: AVE
    kernel_size: 3
    stride: 2
  }
}
layer {
  name: "ip1"
  type: "InnerProduct"
  bottom: "pool5"
  top: "ip1"
  param {
    lr_mult: 1
  }
  param {
    lr_mult: 2
  }
  inner_product_param {
    num_output: 64
    weight_filler {
      type: "gaussian"
      std: 0.1
    }
    bias_filler {
      type: "constant"
    }
  }
}
layer {
  name: "ip2"
  type: "InnerProduct"
  bottom: "ip1"
  top: "ip2"
  param {
    lr_mult: 1
  }
  param {
    lr_mult: 2
  }
  inner_product_param {
    num_output: 64
    weight_filler {
      type: "gaussian"
      std: 0.1
    }
    bias_filler {
      type: "constant"
    }
  }
}
layer {
  name: "ip3"
  type: "InnerProduct"
  bottom: "ip2"
  top: "ip3"
  param {
    lr_mult: 1
  }
  param {
    lr_mult: 2
  }
  inner_product_param {
    num_output: 50
    weight_filler {
      type: "gaussian"
      std: 0.1
    }
    bias_filler {
      type: "constant"
    }
  }
}
layer {
  name: "accuracy"
  type: "Accuracy"
  bottom: "ip3"
  bottom: "label"
  top: "accuracy"
  include {
    phase: TEST
  }
}
layer {
  name: "loss"
  type: "SoftmaxWithLoss"
  bottom: "ip3"
  bottom: "label"
  top: "loss"
}
I0507 21:08:11.484452  7416 layer_factory.hpp:77] Creating layer intercept
I0507 21:08:11.484459  7416 net.cpp:94] Creating Layer intercept
I0507 21:08:11.484463  7416 net.cpp:409] intercept -> data
I0507 21:08:11.484469  7416 net.cpp:409] intercept -> label
I0507 21:08:11.484475  7416 hdf5_data_layer.cpp:79] Loading list of HDF5 filenames from: /home/purduethu/scratch/radon/d/deng106/CNNStatisticalModel/distributions/input/20_distributions_400_sample_size_test-distributions-path.txt
I0507 21:08:11.484493  7416 hdf5_data_layer.cpp:93] Number of HDF5 files: 1
I0507 21:08:11.548737  7416 net.cpp:144] Setting up intercept
I0507 21:08:11.548770  7416 net.cpp:151] Top shape: 20 1 20 20 (8000)
I0507 21:08:11.548775  7416 net.cpp:151] Top shape: 20 (20)
I0507 21:08:11.548779  7416 net.cpp:159] Memory required for data: 32080
I0507 21:08:11.548784  7416 layer_factory.hpp:77] Creating layer label_intercept_1_split
I0507 21:08:11.548802  7416 net.cpp:94] Creating Layer label_intercept_1_split
I0507 21:08:11.548806  7416 net.cpp:435] label_intercept_1_split <- label
I0507 21:08:11.548813  7416 net.cpp:409] label_intercept_1_split -> label_intercept_1_split_0
I0507 21:08:11.548821  7416 net.cpp:409] label_intercept_1_split -> label_intercept_1_split_1
I0507 21:08:11.548861  7416 net.cpp:144] Setting up label_intercept_1_split
I0507 21:08:11.548866  7416 net.cpp:151] Top shape: 20 (20)
I0507 21:08:11.548871  7416 net.cpp:151] Top shape: 20 (20)
I0507 21:08:11.548873  7416 net.cpp:159] Memory required for data: 32240
I0507 21:08:11.548877  7416 layer_factory.hpp:77] Creating layer conv1
I0507 21:08:11.548887  7416 net.cpp:94] Creating Layer conv1
I0507 21:08:11.548890  7416 net.cpp:435] conv1 <- data
I0507 21:08:11.548895  7416 net.cpp:409] conv1 -> conv1
I0507 21:08:11.550218  7416 net.cpp:144] Setting up conv1
I0507 21:08:11.550238  7416 net.cpp:151] Top shape: 20 64 20 20 (512000)
I0507 21:08:11.550243  7416 net.cpp:159] Memory required for data: 2080240
I0507 21:08:11.550252  7416 layer_factory.hpp:77] Creating layer relu1
I0507 21:08:11.550259  7416 net.cpp:94] Creating Layer relu1
I0507 21:08:11.550263  7416 net.cpp:435] relu1 <- conv1
I0507 21:08:11.550267  7416 net.cpp:396] relu1 -> conv1 (in-place)
I0507 21:08:11.550274  7416 net.cpp:144] Setting up relu1
I0507 21:08:11.550278  7416 net.cpp:151] Top shape: 20 64 20 20 (512000)
I0507 21:08:11.550282  7416 net.cpp:159] Memory required for data: 4128240
I0507 21:08:11.550284  7416 layer_factory.hpp:77] Creating layer conv2
I0507 21:08:11.550292  7416 net.cpp:94] Creating Layer conv2
I0507 21:08:11.550295  7416 net.cpp:435] conv2 <- conv1
I0507 21:08:11.550300  7416 net.cpp:409] conv2 -> conv2
I0507 21:08:11.555222  7416 net.cpp:144] Setting up conv2
I0507 21:08:11.555234  7416 net.cpp:151] Top shape: 20 64 20 20 (512000)
I0507 21:08:11.555238  7416 net.cpp:159] Memory required for data: 6176240
I0507 21:08:11.555246  7416 layer_factory.hpp:77] Creating layer relu2
I0507 21:08:11.555253  7416 net.cpp:94] Creating Layer relu2
I0507 21:08:11.555255  7416 net.cpp:435] relu2 <- conv2
I0507 21:08:11.555260  7416 net.cpp:396] relu2 -> conv2 (in-place)
I0507 21:08:11.555266  7416 net.cpp:144] Setting up relu2
I0507 21:08:11.555271  7416 net.cpp:151] Top shape: 20 64 20 20 (512000)
I0507 21:08:11.555274  7416 net.cpp:159] Memory required for data: 8224240
I0507 21:08:11.555276  7416 layer_factory.hpp:77] Creating layer pool2
I0507 21:08:11.555282  7416 net.cpp:94] Creating Layer pool2
I0507 21:08:11.555285  7416 net.cpp:435] pool2 <- conv2
I0507 21:08:11.555289  7416 net.cpp:409] pool2 -> pool2
I0507 21:08:11.555339  7416 net.cpp:144] Setting up pool2
I0507 21:08:11.555346  7416 net.cpp:151] Top shape: 20 64 10 10 (128000)
I0507 21:08:11.555349  7416 net.cpp:159] Memory required for data: 8736240
I0507 21:08:11.555352  7416 layer_factory.hpp:77] Creating layer conv3
I0507 21:08:11.555359  7416 net.cpp:94] Creating Layer conv3
I0507 21:08:11.555363  7416 net.cpp:435] conv3 <- pool2
I0507 21:08:11.555368  7416 net.cpp:409] conv3 -> conv3
I0507 21:08:11.560142  7416 net.cpp:144] Setting up conv3
I0507 21:08:11.560156  7416 net.cpp:151] Top shape: 20 64 10 10 (128000)
I0507 21:08:11.560160  7416 net.cpp:159] Memory required for data: 9248240
I0507 21:08:11.560168  7416 layer_factory.hpp:77] Creating layer relu3
I0507 21:08:11.560174  7416 net.cpp:94] Creating Layer relu3
I0507 21:08:11.560178  7416 net.cpp:435] relu3 <- conv3
I0507 21:08:11.560183  7416 net.cpp:396] relu3 -> conv3 (in-place)
I0507 21:08:11.560189  7416 net.cpp:144] Setting up relu3
I0507 21:08:11.560194  7416 net.cpp:151] Top shape: 20 64 10 10 (128000)
I0507 21:08:11.560196  7416 net.cpp:159] Memory required for data: 9760240
I0507 21:08:11.560199  7416 layer_factory.hpp:77] Creating layer conv4
I0507 21:08:11.560206  7416 net.cpp:94] Creating Layer conv4
I0507 21:08:11.560210  7416 net.cpp:435] conv4 <- conv3
I0507 21:08:11.560214  7416 net.cpp:409] conv4 -> conv4
I0507 21:08:11.563735  7416 net.cpp:144] Setting up conv4
I0507 21:08:11.563747  7416 net.cpp:151] Top shape: 20 64 10 10 (128000)
I0507 21:08:11.563751  7416 net.cpp:159] Memory required for data: 10272240
I0507 21:08:11.563757  7416 layer_factory.hpp:77] Creating layer relu4
I0507 21:08:11.563762  7416 net.cpp:94] Creating Layer relu4
I0507 21:08:11.563766  7416 net.cpp:435] relu4 <- conv4
I0507 21:08:11.563771  7416 net.cpp:396] relu4 -> conv4 (in-place)
I0507 21:08:11.563777  7416 net.cpp:144] Setting up relu4
I0507 21:08:11.563781  7416 net.cpp:151] Top shape: 20 64 10 10 (128000)
I0507 21:08:11.563784  7416 net.cpp:159] Memory required for data: 10784240
I0507 21:08:11.563787  7416 layer_factory.hpp:77] Creating layer conv5
I0507 21:08:11.563794  7416 net.cpp:94] Creating Layer conv5
I0507 21:08:11.563797  7416 net.cpp:435] conv5 <- conv4
I0507 21:08:11.563802  7416 net.cpp:409] conv5 -> conv5
I0507 21:08:11.567741  7416 net.cpp:144] Setting up conv5
I0507 21:08:11.567759  7416 net.cpp:151] Top shape: 20 64 10 10 (128000)
I0507 21:08:11.567762  7416 net.cpp:159] Memory required for data: 11296240
I0507 21:08:11.567770  7416 layer_factory.hpp:77] Creating layer relu5
I0507 21:08:11.567776  7416 net.cpp:94] Creating Layer relu5
I0507 21:08:11.567780  7416 net.cpp:435] relu5 <- conv5
I0507 21:08:11.567785  7416 net.cpp:396] relu5 -> conv5 (in-place)
I0507 21:08:11.567790  7416 net.cpp:144] Setting up relu5
I0507 21:08:11.567795  7416 net.cpp:151] Top shape: 20 64 10 10 (128000)
I0507 21:08:11.567797  7416 net.cpp:159] Memory required for data: 11808240
I0507 21:08:11.567800  7416 layer_factory.hpp:77] Creating layer pool5
I0507 21:08:11.567806  7416 net.cpp:94] Creating Layer pool5
I0507 21:08:11.567808  7416 net.cpp:435] pool5 <- conv5
I0507 21:08:11.567812  7416 net.cpp:409] pool5 -> pool5
I0507 21:08:11.567847  7416 net.cpp:144] Setting up pool5
I0507 21:08:11.567853  7416 net.cpp:151] Top shape: 20 64 5 5 (32000)
I0507 21:08:11.567855  7416 net.cpp:159] Memory required for data: 11936240
I0507 21:08:11.567859  7416 layer_factory.hpp:77] Creating layer ip1
I0507 21:08:11.567865  7416 net.cpp:94] Creating Layer ip1
I0507 21:08:11.567868  7416 net.cpp:435] ip1 <- pool5
I0507 21:08:11.567873  7416 net.cpp:409] ip1 -> ip1
I0507 21:08:11.570417  7416 net.cpp:144] Setting up ip1
I0507 21:08:11.570426  7416 net.cpp:151] Top shape: 20 64 (1280)
I0507 21:08:11.570430  7416 net.cpp:159] Memory required for data: 11941360
I0507 21:08:11.570436  7416 layer_factory.hpp:77] Creating layer ip2
I0507 21:08:11.570441  7416 net.cpp:94] Creating Layer ip2
I0507 21:08:11.570444  7416 net.cpp:435] ip2 <- ip1
I0507 21:08:11.570449  7416 net.cpp:409] ip2 -> ip2
I0507 21:08:11.570673  7416 net.cpp:144] Setting up ip2
I0507 21:08:11.570680  7416 net.cpp:151] Top shape: 20 64 (1280)
I0507 21:08:11.570683  7416 net.cpp:159] Memory required for data: 11946480
I0507 21:08:11.570688  7416 layer_factory.hpp:77] Creating layer ip3
I0507 21:08:11.570696  7416 net.cpp:94] Creating Layer ip3
I0507 21:08:11.570699  7416 net.cpp:435] ip3 <- ip2
I0507 21:08:11.570704  7416 net.cpp:409] ip3 -> ip3
I0507 21:08:11.570905  7416 net.cpp:144] Setting up ip3
I0507 21:08:11.570912  7416 net.cpp:151] Top shape: 20 50 (1000)
I0507 21:08:11.570915  7416 net.cpp:159] Memory required for data: 11950480
I0507 21:08:11.570919  7416 layer_factory.hpp:77] Creating layer ip3_ip3_0_split
I0507 21:08:11.570924  7416 net.cpp:94] Creating Layer ip3_ip3_0_split
I0507 21:08:11.570929  7416 net.cpp:435] ip3_ip3_0_split <- ip3
I0507 21:08:11.570932  7416 net.cpp:409] ip3_ip3_0_split -> ip3_ip3_0_split_0
I0507 21:08:11.570937  7416 net.cpp:409] ip3_ip3_0_split -> ip3_ip3_0_split_1
I0507 21:08:11.570976  7416 net.cpp:144] Setting up ip3_ip3_0_split
I0507 21:08:11.570983  7416 net.cpp:151] Top shape: 20 50 (1000)
I0507 21:08:11.570986  7416 net.cpp:151] Top shape: 20 50 (1000)
I0507 21:08:11.570989  7416 net.cpp:159] Memory required for data: 11958480
I0507 21:08:11.570992  7416 layer_factory.hpp:77] Creating layer accuracy
I0507 21:08:11.570998  7416 net.cpp:94] Creating Layer accuracy
I0507 21:08:11.571002  7416 net.cpp:435] accuracy <- ip3_ip3_0_split_0
I0507 21:08:11.571004  7416 net.cpp:435] accuracy <- label_intercept_1_split_0
I0507 21:08:11.571008  7416 net.cpp:409] accuracy -> accuracy
…
