…
I0505 09:33:16.518399  6049 net.cpp:323] The NetState phase (0) differed from the phase (1) specified by a rule in layer intercept
I0505 09:33:16.518414  6049 net.cpp:323] The NetState phase (0) differed from the phase (1) specified by a rule in layer accuracy
I0505 09:33:16.518491  6049 net.cpp:52] Initializing net from parameters: 
state {
  phase: TRAIN
}
layer {
  name: "parameters"
  type: "HDF5Data"
  top: "data"
  top: "label"
  include {
    phase: TRAIN
  }
  hdf5_data_param {
    source: "/home/purduethu/scratch/radon/d/deng106/CNNStatisticalModel/distributions/input/5_distributions_400_sample_size_train-distributions-path.txt"
    batch_size: 20
  }
}
layer {
  name: "conv1"
  type: "Convolution"
  bottom: "data"
  top: "conv1"
  param {
    lr_mult: 1
  }
  param {
    lr_mult: 2
  }
  convolution_param {
    num_output: 64
    pad: 2
    kernel_size: 5
    stride: 1
    weight_filler {
      type: "gaussian"
      std: 0.0001
    }
    bias_filler {
      type: "constant"
    }
  }
}
layer {
  name: "relu1"
  type: "ReLU"
  bottom: "conv1"
  top: "conv1"
}
layer {
  name: "pool1"
  type: "Pooling"
  bottom: "conv1"
  top: "pool1"
  pooling_param {
    pool: MAX
    kernel_size: 3
    stride: 2
  }
}
layer {
  name: "conv2"
  type: "Convolution"
  bottom: "pool1"
  top: "conv2"
  param {
    lr_mult: 1
  }
  param {
    lr_mult: 2
  }
  convolution_param {
    num_output: 128
    pad: 2
    kernel_size: 5
    stride: 1
    weight_filler {
      type: "gaussian"
      std: 0.01
    }
    bias_filler {
      type: "constant"
    }
  }
}
layer {
  name: "relu2"
  type: "ReLU"
  bottom: "conv2"
  top: "conv2"
}
layer {
  name: "conv3"
  type: "Convolution"
  bottom: "conv2"
  top: "conv3"
  param {
    lr_mult: 1
  }
  param {
    lr_mult: 2
  }
  convolution_param {
    num_output: 128
    pad: 2
    kernel_size: 5
    stride: 1
    weight_filler {
      type: "gaussian"
      std: 0.01
    }
    bias_filler {
      type: "constant"
    }
  }
}
layer {
  name: "relu3"
  type: "ReLU"
  bottom: "conv3"
  top: "conv3"
}
layer {
  name: "pool3"
  type: "Pooling"
  bottom: "conv3"
  top: "pool3"
  pooling_param {
    pool: AVE
    kernel_size: 3
    stride: 2
  }
}
layer {
  name: "ip1"
  type: "InnerProduct"
  bottom: "pool3"
  top: "ip1"
  param {
    lr_mult: 1
  }
  param {
    lr_mult: 2
  }
  inner_product_param {
    num_output: 512
    weight_filler {
      type: "gaussian"
      std: 0.1
    }
    bias_filler {
      type: "constant"
    }
  }
}
layer {
  name: "ip2"
  type: "InnerProduct"
  bottom: "ip1"
  top: "ip2"
  param {
    lr_mult: 1
  }
  param {
    lr_mult: 2
  }
  inner_product_param {
    num_output: 256
    weight_filler {
      type: "gaussian"
      std: 0.1
    }
    bias_filler {
      type: "constant"
    }
  }
}
layer {
  name: "ip3"
  type: "InnerProduct"
  bottom: "ip2"
  top: "ip3"
  param {
    lr_mult: 1
  }
  param {
    lr_mult: 2
  }
  inner_product_param {
    num_output: 50
    weight_filler {
      type: "gaussian"
      std: 0.1
    }
    bias_filler {
      type: "constant"
    }
  }
}
layer {
  name: "loss"
  type: "SoftmaxWithLoss"
  bottom: "ip3"
  bottom: "label"
  top: "loss"
}
I0505 09:33:16.518556  6049 layer_factory.hpp:77] Creating layer parameters
I0505 09:33:16.518570  6049 net.cpp:94] Creating Layer parameters
I0505 09:33:16.518576  6049 net.cpp:409] parameters -> data
I0505 09:33:16.518602  6049 net.cpp:409] parameters -> label
I0505 09:33:16.518613  6049 hdf5_data_layer.cpp:79] Loading list of HDF5 filenames from: /home/purduethu/scratch/radon/d/deng106/CNNStatisticalModel/distributions/input/5_distributions_400_sample_size_train-distributions-path.txt
I0505 09:33:16.518635  6049 hdf5_data_layer.cpp:93] Number of HDF5 files: 1
I0505 09:33:16.519114  6049 hdf5.cpp:32] Datatype class: H5T_FLOAT
I0505 09:33:16.580662  6049 hdf5.cpp:35] Datatype class: H5T_INTEGER
I0505 09:33:16.581775  6049 net.cpp:144] Setting up parameters
I0505 09:33:16.581794  6049 net.cpp:151] Top shape: 20 1 20 20 (8000)
I0505 09:33:16.581799  6049 net.cpp:151] Top shape: 20 (20)
I0505 09:33:16.581802  6049 net.cpp:159] Memory required for data: 32080
I0505 09:33:16.581810  6049 layer_factory.hpp:77] Creating layer conv1
I0505 09:33:16.581833  6049 net.cpp:94] Creating Layer conv1
I0505 09:33:16.581840  6049 net.cpp:435] conv1 <- data
I0505 09:33:16.581851  6049 net.cpp:409] conv1 -> conv1
I0505 09:33:16.586689  6049 net.cpp:144] Setting up conv1
I0505 09:33:16.586709  6049 net.cpp:151] Top shape: 20 64 20 20 (512000)
I0505 09:33:16.586712  6049 net.cpp:159] Memory required for data: 2080080
I0505 09:33:16.586724  6049 layer_factory.hpp:77] Creating layer relu1
I0505 09:33:16.586732  6049 net.cpp:94] Creating Layer relu1
I0505 09:33:16.586736  6049 net.cpp:435] relu1 <- conv1
I0505 09:33:16.586740  6049 net.cpp:396] relu1 -> conv1 (in-place)
I0505 09:33:16.586758  6049 net.cpp:144] Setting up relu1
I0505 09:33:16.586765  6049 net.cpp:151] Top shape: 20 64 20 20 (512000)
I0505 09:33:16.586767  6049 net.cpp:159] Memory required for data: 4128080
I0505 09:33:16.586771  6049 layer_factory.hpp:77] Creating layer pool1
I0505 09:33:16.586778  6049 net.cpp:94] Creating Layer pool1
I0505 09:33:16.586781  6049 net.cpp:435] pool1 <- conv1
I0505 09:33:16.586786  6049 net.cpp:409] pool1 -> pool1
I0505 09:33:16.586827  6049 net.cpp:144] Setting up pool1
I0505 09:33:16.586833  6049 net.cpp:151] Top shape: 20 64 10 10 (128000)
I0505 09:33:16.586836  6049 net.cpp:159] Memory required for data: 4640080
I0505 09:33:16.586840  6049 layer_factory.hpp:77] Creating layer conv2
I0505 09:33:16.586849  6049 net.cpp:94] Creating Layer conv2
I0505 09:33:16.586853  6049 net.cpp:435] conv2 <- pool1
I0505 09:33:16.586858  6049 net.cpp:409] conv2 -> conv2
I0505 09:33:16.597137  6049 net.cpp:144] Setting up conv2
I0505 09:33:16.597162  6049 net.cpp:151] Top shape: 20 128 10 10 (256000)
I0505 09:33:16.597165  6049 net.cpp:159] Memory required for data: 5664080
I0505 09:33:16.597175  6049 layer_factory.hpp:77] Creating layer relu2
I0505 09:33:16.597182  6049 net.cpp:94] Creating Layer relu2
I0505 09:33:16.597187  6049 net.cpp:435] relu2 <- conv2
I0505 09:33:16.597193  6049 net.cpp:396] relu2 -> conv2 (in-place)
I0505 09:33:16.597200  6049 net.cpp:144] Setting up relu2
I0505 09:33:16.597205  6049 net.cpp:151] Top shape: 20 128 10 10 (256000)
I0505 09:33:16.597208  6049 net.cpp:159] Memory required for data: 6688080
I0505 09:33:16.597213  6049 layer_factory.hpp:77] Creating layer conv3
I0505 09:33:16.597220  6049 net.cpp:94] Creating Layer conv3
I0505 09:33:16.597224  6049 net.cpp:435] conv3 <- conv2
I0505 09:33:16.597229  6049 net.cpp:409] conv3 -> conv3
I0505 09:33:16.614890  6049 net.cpp:144] Setting up conv3
I0505 09:33:16.614922  6049 net.cpp:151] Top shape: 20 128 10 10 (256000)
I0505 09:33:16.614926  6049 net.cpp:159] Memory required for data: 7712080
I0505 09:33:16.614938  6049 layer_factory.hpp:77] Creating layer relu3
I0505 09:33:16.614953  6049 net.cpp:94] Creating Layer relu3
I0505 09:33:16.614959  6049 net.cpp:435] relu3 <- conv3
I0505 09:33:16.614964  6049 net.cpp:396] relu3 -> conv3 (in-place)
I0505 09:33:16.614972  6049 net.cpp:144] Setting up relu3
I0505 09:33:16.614977  6049 net.cpp:151] Top shape: 20 128 10 10 (256000)
I0505 09:33:16.614980  6049 net.cpp:159] Memory required for data: 8736080
I0505 09:33:16.614984  6049 layer_factory.hpp:77] Creating layer pool3
I0505 09:33:16.614991  6049 net.cpp:94] Creating Layer pool3
I0505 09:33:16.615002  6049 net.cpp:435] pool3 <- conv3
I0505 09:33:16.615007  6049 net.cpp:409] pool3 -> pool3
I0505 09:33:16.615051  6049 net.cpp:144] Setting up pool3
I0505 09:33:16.615057  6049 net.cpp:151] Top shape: 20 128 5 5 (64000)
I0505 09:33:16.615061  6049 net.cpp:159] Memory required for data: 8992080
I0505 09:33:16.615063  6049 layer_factory.hpp:77] Creating layer ip1
I0505 09:33:16.615074  6049 net.cpp:94] Creating Layer ip1
I0505 09:33:16.615078  6049 net.cpp:435] ip1 <- pool3
I0505 09:33:16.615083  6049 net.cpp:409] ip1 -> ip1
I0505 09:33:16.655372  6049 net.cpp:144] Setting up ip1
I0505 09:33:16.655410  6049 net.cpp:151] Top shape: 20 512 (10240)
I0505 09:33:16.655414  6049 net.cpp:159] Memory required for data: 9033040
I0505 09:33:16.655422  6049 layer_factory.hpp:77] Creating layer ip2
I0505 09:33:16.655433  6049 net.cpp:94] Creating Layer ip2
I0505 09:33:16.655438  6049 net.cpp:435] ip2 <- ip1
I0505 09:33:16.655444  6049 net.cpp:409] ip2 -> ip2
I0505 09:33:16.658639  6049 net.cpp:144] Setting up ip2
I0505 09:33:16.658648  6049 net.cpp:151] Top shape: 20 256 (5120)
I0505 09:33:16.658651  6049 net.cpp:159] Memory required for data: 9053520
I0505 09:33:16.658659  6049 layer_factory.hpp:77] Creating layer ip3
I0505 09:33:16.658665  6049 net.cpp:94] Creating Layer ip3
I0505 09:33:16.658668  6049 net.cpp:435] ip3 <- ip2
I0505 09:33:16.658674  6049 net.cpp:409] ip3 -> ip3
I0505 09:33:16.659803  6049 net.cpp:144] Setting up ip3
I0505 09:33:16.659816  6049 net.cpp:151] Top shape: 20 50 (1000)
I0505 09:33:16.659819  6049 net.cpp:159] Memory required for data: 9057520
I0505 09:33:16.659826  6049 layer_factory.hpp:77] Creating layer loss
I0505 09:33:16.659832  6049 net.cpp:94] Creating Layer loss
I0505 09:33:16.659835  6049 net.cpp:435] loss <- ip3
I0505 09:33:16.659839  6049 net.cpp:435] loss <- label
I0505 09:33:16.659845  6049 net.cpp:409] loss -> loss
I0505 09:33:16.659858  6049 layer_factory.hpp:77] Creating layer loss
…
I0505 09:33:16.660284  6049 solver.cpp:181] Creating test net (#0) specified by net file: ./protocol/dis_5_400_dimension.protocol_distribution
I0505 09:33:16.660307  6049 net.cpp:323] The NetState phase (1) differed from the phase (0) specified by a rule in layer parameters
I0505 09:33:16.660398  6049 net.cpp:52] Initializing net from parameters: 
state {
  phase: TEST
}
layer {
  name: "intercept"
  type: "HDF5Data"
  top: "data"
  top: "label"
  include {
    phase: TEST
  }
  hdf5_data_param {
    source: "/home/purduethu/scratch/radon/d/deng106/CNNStatisticalModel/distributions/input/5_distributions_400_sample_size_test-distributions-path.txt"
    batch_size: 20
  }
}
layer {
  name: "conv1"
  type: "Convolution"
  bottom: "data"
  top: "conv1"
  param {
    lr_mult: 1
  }
  param {
    lr_mult: 2
  }
  convolution_param {
    num_output: 64
    pad: 2
    kernel_size: 5
    stride: 1
    weight_filler {
      type: "gaussian"
      std: 0.0001
    }
    bias_filler {
      type: "constant"
    }
  }
}
layer {
  name: "relu1"
  type: "ReLU"
  bottom: "conv1"
  top: "conv1"
}
layer {
  name: "pool1"
  type: "Pooling"
  bottom: "conv1"
  top: "pool1"
  pooling_param {
    pool: MAX
    kernel_size: 3
    stride: 2
  }
}
layer {
  name: "conv2"
  type: "Convolution"
  bottom: "pool1"
  top: "conv2"
  param {
    lr_mult: 1
  }
  param {
    lr_mult: 2
  }
  convolution_param {
    num_output: 128
    pad: 2
    kernel_size: 5
    stride: 1
    weight_filler {
      type: "gaussian"
      std: 0.01
    }
    bias_filler {
      type: "constant"
    }
  }
}
layer {
  name: "relu2"
  type: "ReLU"
  bottom: "conv2"
  top: "conv2"
}
layer {
  name: "conv3"
  type: "Convolution"
  bottom: "conv2"
  top: "conv3"
  param {
    lr_mult: 1
  }
  param {
    lr_mult: 2
  }
  convolution_param {
    num_output: 128
    pad: 2
    kernel_size: 5
    stride: 1
    weight_filler {
      type: "gaussian"
      std: 0.01
    }
    bias_filler {
      type: "constant"
    }
  }
}
layer {
  name: "relu3"
  type: "ReLU"
  bottom: "conv3"
  top: "conv3"
}
layer {
  name: "pool3"
  type: "Pooling"
  bottom: "conv3"
  top: "pool3"
  pooling_param {
    pool: AVE
    kernel_size: 3
    stride: 2
  }
}
layer {
  name: "ip1"
  type: "InnerProduct"
  bottom: "pool3"
  top: "ip1"
  param {
    lr_mult: 1
  }
  param {
    lr_mult: 2
  }
  inner_product_param {
    num_output: 512
    weight_filler {
      type: "gaussian"
      std: 0.1
    }
    bias_filler {
      type: "constant"
    }
  }
}
layer {
  name: "ip2"
  type: "InnerProduct"
  bottom: "ip1"
  top: "ip2"
  param {
    lr_mult: 1
  }
  param {
    lr_mult: 2
  }
  inner_product_param {
    num_output: 256
    weight_filler {
      type: "gaussian"
      std: 0.1
    }
    bias_filler {
      type: "constant"
    }
  }
}
layer {
  name: "ip3"
  type: "InnerProduct"
  bottom: "ip2"
  top: "ip3"
  param {
    lr_mult: 1
  }
  param {
    lr_mult: 2
  }
  inner_product_param {
    num_output: 50
    weight_filler {
      type: "gaussian"
      std: 0.1
    }
    bias_filler {
      type: "constant"
    }
  }
}
layer {
  name: "accuracy"
  type: "Accuracy"
  bottom: "ip3"
  bottom: "label"
  top: "accuracy"
  include {
    phase: TEST
  }
}
layer {
  name: "loss"
  type: "SoftmaxWithLoss"
  bottom: "ip3"
  bottom: "label"
  top: "loss"
}
I0505 09:33:16.660464  6049 layer_factory.hpp:77] Creating layer intercept
I0505 09:33:16.660472  6049 net.cpp:94] Creating Layer intercept
I0505 09:33:16.660476  6049 net.cpp:409] intercept -> data
I0505 09:33:16.660483  6049 net.cpp:409] intercept -> label
I0505 09:33:16.660490  6049 hdf5_data_layer.cpp:79] Loading list of HDF5 filenames from: /home/purduethu/scratch/radon/d/deng106/CNNStatisticalModel/distributions/input/5_distributions_400_sample_size_test-distributions-path.txt
I0505 09:33:16.660508  6049 hdf5_data_layer.cpp:93] Number of HDF5 files: 1
I0505 09:33:16.676293  6049 net.cpp:144] Setting up intercept
I0505 09:33:16.676327  6049 net.cpp:151] Top shape: 20 1 20 20 (8000)
I0505 09:33:16.676332  6049 net.cpp:151] Top shape: 20 (20)
I0505 09:33:16.676336  6049 net.cpp:159] Memory required for data: 32080
I0505 09:33:16.676342  6049 layer_factory.hpp:77] Creating layer label_intercept_1_split
I0505 09:33:16.676362  6049 net.cpp:94] Creating Layer label_intercept_1_split
I0505 09:33:16.676374  6049 net.cpp:435] label_intercept_1_split <- label
I0505 09:33:16.676380  6049 net.cpp:409] label_intercept_1_split -> label_intercept_1_split_0
I0505 09:33:16.676389  6049 net.cpp:409] label_intercept_1_split -> label_intercept_1_split_1
I0505 09:33:16.676416  6049 net.cpp:144] Setting up label_intercept_1_split
I0505 09:33:16.676422  6049 net.cpp:151] Top shape: 20 (20)
I0505 09:33:16.676426  6049 net.cpp:151] Top shape: 20 (20)
I0505 09:33:16.676429  6049 net.cpp:159] Memory required for data: 32240
I0505 09:33:16.676440  6049 layer_factory.hpp:77] Creating layer conv1
I0505 09:33:16.676452  6049 net.cpp:94] Creating Layer conv1
I0505 09:33:16.676455  6049 net.cpp:435] conv1 <- data
I0505 09:33:16.676460  6049 net.cpp:409] conv1 -> conv1
I0505 09:33:16.677135  6049 net.cpp:144] Setting up conv1
I0505 09:33:16.677148  6049 net.cpp:151] Top shape: 20 64 20 20 (512000)
I0505 09:33:16.677152  6049 net.cpp:159] Memory required for data: 2080240
I0505 09:33:16.677161  6049 layer_factory.hpp:77] Creating layer relu1
I0505 09:33:16.677168  6049 net.cpp:94] Creating Layer relu1
I0505 09:33:16.677172  6049 net.cpp:435] relu1 <- conv1
I0505 09:33:16.677176  6049 net.cpp:396] relu1 -> conv1 (in-place)
I0505 09:33:16.677184  6049 net.cpp:144] Setting up relu1
I0505 09:33:16.677188  6049 net.cpp:151] Top shape: 20 64 20 20 (512000)
I0505 09:33:16.677192  6049 net.cpp:159] Memory required for data: 4128240
I0505 09:33:16.677196  6049 layer_factory.hpp:77] Creating layer pool1
I0505 09:33:16.677201  6049 net.cpp:94] Creating Layer pool1
I0505 09:33:16.677206  6049 net.cpp:435] pool1 <- conv1
I0505 09:33:16.677209  6049 net.cpp:409] pool1 -> pool1
I0505 09:33:16.677240  6049 net.cpp:144] Setting up pool1
I0505 09:33:16.677248  6049 net.cpp:151] Top shape: 20 64 10 10 (128000)
I0505 09:33:16.677250  6049 net.cpp:159] Memory required for data: 4640240
I0505 09:33:16.677253  6049 layer_factory.hpp:77] Creating layer conv2
I0505 09:33:16.677261  6049 net.cpp:94] Creating Layer conv2
I0505 09:33:16.677264  6049 net.cpp:435] conv2 <- pool1
I0505 09:33:16.677269  6049 net.cpp:409] conv2 -> conv2
I0505 09:33:16.684574  6049 net.cpp:144] Setting up conv2
I0505 09:33:16.684594  6049 net.cpp:151] Top shape: 20 128 10 10 (256000)
I0505 09:33:16.684598  6049 net.cpp:159] Memory required for data: 5664240
I0505 09:33:16.684607  6049 layer_factory.hpp:77] Creating layer relu2
I0505 09:33:16.684615  6049 net.cpp:94] Creating Layer relu2
I0505 09:33:16.684619  6049 net.cpp:435] relu2 <- conv2
I0505 09:33:16.684624  6049 net.cpp:396] relu2 -> conv2 (in-place)
I0505 09:33:16.684631  6049 net.cpp:144] Setting up relu2
I0505 09:33:16.684636  6049 net.cpp:151] Top shape: 20 128 10 10 (256000)
I0505 09:33:16.684639  6049 net.cpp:159] Memory required for data: 6688240
I0505 09:33:16.684643  6049 layer_factory.hpp:77] Creating layer conv3
I0505 09:33:16.684650  6049 net.cpp:94] Creating Layer conv3
I0505 09:33:16.684654  6049 net.cpp:435] conv3 <- conv2
I0505 09:33:16.684659  6049 net.cpp:409] conv3 -> conv3
I0505 09:33:16.698153  6049 net.cpp:144] Setting up conv3
I0505 09:33:16.698181  6049 net.cpp:151] Top shape: 20 128 10 10 (256000)
I0505 09:33:16.698186  6049 net.cpp:159] Memory required for data: 7712240
I0505 09:33:16.698197  6049 layer_factory.hpp:77] Creating layer relu3
I0505 09:33:16.698207  6049 net.cpp:94] Creating Layer relu3
I0505 09:33:16.698211  6049 net.cpp:435] relu3 <- conv3
I0505 09:33:16.698216  6049 net.cpp:396] relu3 -> conv3 (in-place)
I0505 09:33:16.698225  6049 net.cpp:144] Setting up relu3
I0505 09:33:16.698230  6049 net.cpp:151] Top shape: 20 128 10 10 (256000)
I0505 09:33:16.698232  6049 net.cpp:159] Memory required for data: 8736240
I0505 09:33:16.698236  6049 layer_factory.hpp:77] Creating layer pool3
I0505 09:33:16.698241  6049 net.cpp:94] Creating Layer pool3
I0505 09:33:16.698246  6049 net.cpp:435] pool3 <- conv3
I0505 09:33:16.698249  6049 net.cpp:409] pool3 -> pool3
I0505 09:33:16.698281  6049 net.cpp:144] Setting up pool3
I0505 09:33:16.698287  6049 net.cpp:151] Top shape: 20 128 5 5 (64000)
I0505 09:33:16.698297  6049 net.cpp:159] Memory required for data: 8992240
I0505 09:33:16.698300  6049 layer_factory.hpp:77] Creating layer ip1
I0505 09:33:16.698308  6049 net.cpp:94] Creating Layer ip1
I0505 09:33:16.698312  6049 net.cpp:435] ip1 <- pool3
I0505 09:33:16.698317  6049 net.cpp:409] ip1 -> ip1
I0505 09:33:16.738582  6049 net.cpp:144] Setting up ip1
I0505 09:33:16.738617  6049 net.cpp:151] Top shape: 20 512 (10240)
I0505 09:33:16.738622  6049 net.cpp:159] Memory required for data: 9033200
I0505 09:33:16.738643  6049 layer_factory.hpp:77] Creating layer ip2
I0505 09:33:16.738653  6049 net.cpp:94] Creating Layer ip2
I0505 09:33:16.738658  6049 net.cpp:435] ip2 <- ip1
I0505 09:33:16.738664  6049 net.cpp:409] ip2 -> ip2
I0505 09:33:16.741856  6049 net.cpp:144] Setting up ip2
I0505 09:33:16.741864  6049 net.cpp:151] Top shape: 20 256 (5120)
I0505 09:33:16.741868  6049 net.cpp:159] Memory required for data: 9053680
I0505 09:33:16.741876  6049 layer_factory.hpp:77] Creating layer ip3
I0505 09:33:16.741883  6049 net.cpp:94] Creating Layer ip3
I0505 09:33:16.741886  6049 net.cpp:435] ip3 <- ip2
I0505 09:33:16.741891  6049 net.cpp:409] ip3 -> ip3
I0505 09:33:16.742275  6049 net.cpp:144] Setting up ip3
I0505 09:33:16.742282  6049 net.cpp:151] Top shape: 20 50 (1000)
I0505 09:33:16.742285  6049 net.cpp:159] Memory required for data: 9057680
I0505 09:33:16.742290  6049 layer_factory.hpp:77] Creating layer ip3_ip3_0_split
I0505 09:33:16.742296  6049 net.cpp:94] Creating Layer ip3_ip3_0_split
I0505 09:33:16.742300  6049 net.cpp:435] ip3_ip3_0_split <- ip3
I0505 09:33:16.742303  6049 net.cpp:409] ip3_ip3_0_split -> ip3_ip3_0_split_0
I0505 09:33:16.742310  6049 net.cpp:409] ip3_ip3_0_split -> ip3_ip3_0_split_1
I0505 09:33:16.742333  6049 net.cpp:144] Setting up ip3_ip3_0_split
I0505 09:33:16.742339  6049 net.cpp:151] Top shape: 20 50 (1000)
I0505 09:33:16.742342  6049 net.cpp:151] Top shape: 20 50 (1000)
I0505 09:33:16.742346  6049 net.cpp:159] Memory required for data: 9065680
I0505 09:33:16.742348  6049 layer_factory.hpp:77] Creating layer accuracy
I0505 09:33:16.742354  6049 net.cpp:94] Creating Layer accuracy
I0505 09:33:16.742358  6049 net.cpp:435] accuracy <- ip3_ip3_0_split_0
I0505 09:33:16.742362  6049 net.cpp:435] accuracy <- label_intercept_1_split_0
I0505 09:33:16.742367  6049 net.cpp:409] accuracy -> accuracy
…
