…
I0505 16:42:25.279641  8200 net.cpp:323] The NetState phase (0) differed from the phase (1) specified by a rule in layer intercept
I0505 16:42:25.279655  8200 net.cpp:323] The NetState phase (0) differed from the phase (1) specified by a rule in layer loss
I0505 16:42:25.279723  8200 net.cpp:52] Initializing net from parameters: 
state {
  phase: TRAIN
}
layer {
  name: "parameters"
  type: "HDF5Data"
  top: "data"
  top: "label"
  include {
    phase: TRAIN
  }
  hdf5_data_param {
    source: "/home/purduethu/scratch/radon/d/deng106/CNNStatisticalModel/distributions/input/50_distributions_100_sample_size_train-parameters-path.txt"
    batch_size: 20
  }
}
layer {
  name: "conv1"
  type: "Convolution"
  bottom: "data"
  top: "conv1"
  param {
    lr_mult: 1
  }
  param {
    lr_mult: 2
  }
  convolution_param {
    num_output: 64
    pad: 2
    kernel_size: 5
    stride: 1
    weight_filler {
      type: "gaussian"
      std: 0.0001
    }
    bias_filler {
      type: "constant"
    }
  }
}
layer {
  name: "relu1"
  type: "ReLU"
  bottom: "conv1"
  top: "conv1"
}
layer {
  name: "pool1"
  type: "Pooling"
  bottom: "conv1"
  top: "pool1"
  pooling_param {
    pool: MAX
    kernel_size: 3
    stride: 2
  }
}
layer {
  name: "conv2"
  type: "Convolution"
  bottom: "pool1"
  top: "conv2"
  param {
    lr_mult: 1
  }
  param {
    lr_mult: 2
  }
  convolution_param {
    num_output: 128
    pad: 2
    kernel_size: 5
    stride: 1
    weight_filler {
      type: "gaussian"
      std: 0.01
    }
    bias_filler {
      type: "constant"
    }
  }
}
layer {
  name: "relu2"
  type: "ReLU"
  bottom: "conv2"
  top: "conv2"
}
layer {
  name: "conv3"
  type: "Convolution"
  bottom: "conv2"
  top: "conv3"
  param {
    lr_mult: 1
  }
  param {
    lr_mult: 2
  }
  convolution_param {
    num_output: 128
    pad: 2
    kernel_size: 5
    stride: 1
    weight_filler {
      type: "gaussian"
      std: 0.01
    }
    bias_filler {
      type: "constant"
    }
  }
}
layer {
  name: "relu3"
  type: "ReLU"
  bottom: "conv3"
  top: "conv3"
}
layer {
  name: "pool3"
  type: "Pooling"
  bottom: "conv3"
  top: "pool3"
  pooling_param {
    pool: AVE
    kernel_size: 3
    stride: 2
  }
}
layer {
  name: "ip1"
  type: "InnerProduct"
  bottom: "pool3"
  top: "ip1"
  param {
    lr_mult: 1
  }
  param {
    lr_mult: 2
  }
  inner_product_param {
    num_output: 512
    weight_filler {
      type: "gaussian"
      std: 0.1
    }
    bias_filler {
      type: "constant"
    }
  }
}
layer {
  name: "ip2"
  type: "InnerProduct"
  bottom: "ip1"
  top: "ip2"
  param {
    lr_mult: 1
  }
  param {
    lr_mult: 2
  }
  inner_product_param {
    num_output: 256
    weight_filler {
      type: "gaussian"
      std: 0.1
    }
    bias_filler {
      type: "constant"
    }
  }
}
layer {
  name: "ip3"
  type: "InnerProduct"
  bottom: "ip2"
  top: "ip3"
  param {
    lr_mult: 1
  }
  param {
    lr_mult: 2
  }
  inner_product_param {
    num_output: 1
    weight_filler {
      type: "gaussian"
      std: 0.1
    }
    bias_filler {
      type: "constant"
    }
  }
}
layer {
  name: "loss"
  type: "HuberLoss"
  bottom: "ip3"
  bottom: "label"
  top: "loss"
  include {
    phase: TRAIN
  }
}
I0505 16:42:25.279772  8200 layer_factory.hpp:77] Creating layer parameters
I0505 16:42:25.279783  8200 net.cpp:94] Creating Layer parameters
I0505 16:42:25.279788  8200 net.cpp:409] parameters -> data
I0505 16:42:25.279798  8200 net.cpp:409] parameters -> label
I0505 16:42:25.279803  8200 hdf5_data_layer.cpp:79] Loading list of HDF5 filenames from: /home/purduethu/scratch/radon/d/deng106/CNNStatisticalModel/distributions/input/50_distributions_100_sample_size_train-parameters-path.txt
I0505 16:42:25.279819  8200 hdf5_data_layer.cpp:93] Number of HDF5 files: 1
I0505 16:42:25.280372  8200 hdf5.cpp:32] Datatype class: H5T_FLOAT
I0505 16:42:25.445749  8200 net.cpp:144] Setting up parameters
I0505 16:42:25.445782  8200 net.cpp:151] Top shape: 20 1 10 10 (2000)
I0505 16:42:25.445787  8200 net.cpp:151] Top shape: 20 (20)
I0505 16:42:25.445791  8200 net.cpp:159] Memory required for data: 8080
I0505 16:42:25.445797  8200 layer_factory.hpp:77] Creating layer conv1
I0505 16:42:25.445819  8200 net.cpp:94] Creating Layer conv1
I0505 16:42:25.445824  8200 net.cpp:435] conv1 <- data
I0505 16:42:25.445830  8200 net.cpp:409] conv1 -> conv1
I0505 16:42:25.450152  8200 net.cpp:144] Setting up conv1
I0505 16:42:25.450170  8200 net.cpp:151] Top shape: 20 64 10 10 (128000)
I0505 16:42:25.450173  8200 net.cpp:159] Memory required for data: 520080
I0505 16:42:25.450183  8200 layer_factory.hpp:77] Creating layer relu1
I0505 16:42:25.450192  8200 net.cpp:94] Creating Layer relu1
I0505 16:42:25.450196  8200 net.cpp:435] relu1 <- conv1
I0505 16:42:25.450201  8200 net.cpp:396] relu1 -> conv1 (in-place)
I0505 16:42:25.450215  8200 net.cpp:144] Setting up relu1
I0505 16:42:25.450219  8200 net.cpp:151] Top shape: 20 64 10 10 (128000)
I0505 16:42:25.450222  8200 net.cpp:159] Memory required for data: 1032080
I0505 16:42:25.450225  8200 layer_factory.hpp:77] Creating layer pool1
I0505 16:42:25.450232  8200 net.cpp:94] Creating Layer pool1
I0505 16:42:25.450234  8200 net.cpp:435] pool1 <- conv1
I0505 16:42:25.450238  8200 net.cpp:409] pool1 -> pool1
I0505 16:42:25.450290  8200 net.cpp:144] Setting up pool1
I0505 16:42:25.450297  8200 net.cpp:151] Top shape: 20 64 5 5 (32000)
I0505 16:42:25.450300  8200 net.cpp:159] Memory required for data: 1160080
I0505 16:42:25.450304  8200 layer_factory.hpp:77] Creating layer conv2
I0505 16:42:25.450312  8200 net.cpp:94] Creating Layer conv2
I0505 16:42:25.450316  8200 net.cpp:435] conv2 <- pool1
I0505 16:42:25.450320  8200 net.cpp:409] conv2 -> conv2
I0505 16:42:25.459417  8200 net.cpp:144] Setting up conv2
I0505 16:42:25.459432  8200 net.cpp:151] Top shape: 20 128 5 5 (64000)
I0505 16:42:25.459436  8200 net.cpp:159] Memory required for data: 1416080
I0505 16:42:25.459444  8200 layer_factory.hpp:77] Creating layer relu2
I0505 16:42:25.459450  8200 net.cpp:94] Creating Layer relu2
I0505 16:42:25.459455  8200 net.cpp:435] relu2 <- conv2
I0505 16:42:25.459458  8200 net.cpp:396] relu2 -> conv2 (in-place)
I0505 16:42:25.459465  8200 net.cpp:144] Setting up relu2
I0505 16:42:25.459470  8200 net.cpp:151] Top shape: 20 128 5 5 (64000)
I0505 16:42:25.459472  8200 net.cpp:159] Memory required for data: 1672080
I0505 16:42:25.459475  8200 layer_factory.hpp:77] Creating layer conv3
I0505 16:42:25.459482  8200 net.cpp:94] Creating Layer conv3
I0505 16:42:25.459486  8200 net.cpp:435] conv3 <- conv2
I0505 16:42:25.459491  8200 net.cpp:409] conv3 -> conv3
I0505 16:42:25.474457  8200 net.cpp:144] Setting up conv3
I0505 16:42:25.474473  8200 net.cpp:151] Top shape: 20 128 5 5 (64000)
I0505 16:42:25.474478  8200 net.cpp:159] Memory required for data: 1928080
I0505 16:42:25.474485  8200 layer_factory.hpp:77] Creating layer relu3
I0505 16:42:25.474498  8200 net.cpp:94] Creating Layer relu3
I0505 16:42:25.474503  8200 net.cpp:435] relu3 <- conv3
I0505 16:42:25.474508  8200 net.cpp:396] relu3 -> conv3 (in-place)
I0505 16:42:25.474514  8200 net.cpp:144] Setting up relu3
I0505 16:42:25.474519  8200 net.cpp:151] Top shape: 20 128 5 5 (64000)
I0505 16:42:25.474521  8200 net.cpp:159] Memory required for data: 2184080
I0505 16:42:25.474524  8200 layer_factory.hpp:77] Creating layer pool3
I0505 16:42:25.474530  8200 net.cpp:94] Creating Layer pool3
I0505 16:42:25.474534  8200 net.cpp:435] pool3 <- conv3
I0505 16:42:25.474537  8200 net.cpp:409] pool3 -> pool3
I0505 16:42:25.474575  8200 net.cpp:144] Setting up pool3
I0505 16:42:25.474582  8200 net.cpp:151] Top shape: 20 128 2 2 (10240)
I0505 16:42:25.474586  8200 net.cpp:159] Memory required for data: 2225040
I0505 16:42:25.474588  8200 layer_factory.hpp:77] Creating layer ip1
I0505 16:42:25.474598  8200 net.cpp:94] Creating Layer ip1
I0505 16:42:25.474601  8200 net.cpp:435] ip1 <- pool3
I0505 16:42:25.474606  8200 net.cpp:409] ip1 -> ip1
I0505 16:42:25.481778  8200 net.cpp:144] Setting up ip1
I0505 16:42:25.481793  8200 net.cpp:151] Top shape: 20 512 (10240)
I0505 16:42:25.481797  8200 net.cpp:159] Memory required for data: 2266000
I0505 16:42:25.481803  8200 layer_factory.hpp:77] Creating layer ip2
I0505 16:42:25.481812  8200 net.cpp:94] Creating Layer ip2
I0505 16:42:25.481815  8200 net.cpp:435] ip2 <- ip1
I0505 16:42:25.481820  8200 net.cpp:409] ip2 -> ip2
I0505 16:42:25.485769  8200 net.cpp:144] Setting up ip2
I0505 16:42:25.485782  8200 net.cpp:151] Top shape: 20 256 (5120)
I0505 16:42:25.485786  8200 net.cpp:159] Memory required for data: 2286480
I0505 16:42:25.485795  8200 layer_factory.hpp:77] Creating layer ip3
I0505 16:42:25.485800  8200 net.cpp:94] Creating Layer ip3
I0505 16:42:25.485805  8200 net.cpp:435] ip3 <- ip2
I0505 16:42:25.485810  8200 net.cpp:409] ip3 -> ip3
I0505 16:42:25.485908  8200 net.cpp:144] Setting up ip3
I0505 16:42:25.485914  8200 net.cpp:151] Top shape: 20 1 (20)
I0505 16:42:25.485918  8200 net.cpp:159] Memory required for data: 2286560
I0505 16:42:25.485922  8200 layer_factory.hpp:77] Creating layer loss
I0505 16:42:25.485929  8200 net.cpp:94] Creating Layer loss
I0505 16:42:25.485931  8200 net.cpp:435] loss <- ip3
I0505 16:42:25.485935  8200 net.cpp:435] loss <- label
I0505 16:42:25.485939  8200 net.cpp:409] loss -> loss
I0505 16:42:25.485985  8200 net.cpp:144] Setting up loss
…
I0505 16:42:25.602735  8200 net.cpp:323] The NetState phase (0) differed from the phase (1) specified by a rule in layer intercept
I0505 16:42:25.602761  8200 net.cpp:323] The NetState phase (0) differed from the phase (1) specified by a rule in layer accuracy
I0505 16:42:25.602908  8200 net.cpp:52] Initializing net from parameters: 
state {
  phase: TRAIN
}
layer {
  name: "parameters"
  type: "HDF5Data"
  top: "data"
  top: "label"
  include {
    phase: TRAIN
  }
  hdf5_data_param {
    source: "/home/purduethu/scratch/radon/d/deng106/CNNStatisticalModel/distributions/input/50_distributions_100_sample_size_train-distributions-path.txt"
    batch_size: 20
  }
}
layer {
  name: "conv1"
  type: "Convolution"
  bottom: "data"
  top: "conv1"
  param {
    lr_mult: 1
  }
  param {
    lr_mult: 2
  }
  convolution_param {
    num_output: 64
    pad: 2
    kernel_size: 5
    stride: 1
    weight_filler {
      type: "gaussian"
      std: 0.0001
    }
    bias_filler {
      type: "constant"
    }
  }
}
layer {
  name: "relu1"
  type: "ReLU"
  bottom: "conv1"
  top: "conv1"
}
layer {
  name: "pool1"
  type: "Pooling"
  bottom: "conv1"
  top: "pool1"
  pooling_param {
    pool: MAX
    kernel_size: 3
    stride: 2
  }
}
layer {
  name: "conv2"
  type: "Convolution"
  bottom: "pool1"
  top: "conv2"
  param {
    lr_mult: 1
  }
  param {
    lr_mult: 2
  }
  convolution_param {
    num_output: 128
    pad: 2
    kernel_size: 5
    stride: 1
    weight_filler {
      type: "gaussian"
      std: 0.01
    }
    bias_filler {
      type: "constant"
    }
  }
}
layer {
  name: "relu2"
  type: "ReLU"
  bottom: "conv2"
  top: "conv2"
}
layer {
  name: "conv3"
  type: "Convolution"
  bottom: "conv2"
  top: "conv3"
  param {
    lr_mult: 1
  }
  param {
    lr_mult: 2
  }
  convolution_param {
    num_output: 128
    pad: 2
    kernel_size: 5
    stride: 1
    weight_filler {
      type: "gaussian"
      std: 0.01
    }
    bias_filler {
      type: "constant"
    }
  }
}
layer {
  name: "relu3"
  type: "ReLU"
  bottom: "conv3"
  top: "conv3"
}
layer {
  name: "pool3"
  type: "Pooling"
  bottom: "conv3"
  top: "pool3"
  pooling_param {
    pool: AVE
    kernel_size: 3
    stride: 2
  }
}
layer {
  name: "ip1"
  type: "InnerProduct"
  bottom: "pool3"
  top: "ip1"
  param {
    lr_mult: 1
  }
  param {
    lr_mult: 2
  }
  inner_product_param {
    num_output: 512
    weight_filler {
      type: "gaussian"
      std: 0.1
    }
    bias_filler {
      type: "constant"
    }
  }
}
layer {
  name: "ip2"
  type: "InnerProduct"
  bottom: "ip1"
  top: "ip2"
  param {
    lr_mult: 1
  }
  param {
    lr_mult: 2
  }
  inner_product_param {
    num_output: 256
    weight_filler {
      type: "gaussian"
      std: 0.1
    }
    bias_filler {
      type: "constant"
    }
  }
}
layer {
  name: "ip3"
  type: "InnerProduct"
  bottom: "ip2"
  top: "ip3"
  param {
    lr_mult: 1
  }
  param {
    lr_mult: 2
  }
  inner_product_param {
    num_output: 50
    weight_filler {
      type: "gaussian"
      std: 0.1
    }
    bias_filler {
      type: "constant"
    }
  }
}
layer {
  name: "loss"
  type: "SoftmaxWithLoss"
  bottom: "ip3"
  bottom: "label"
  top: "loss"
}
I0505 16:42:25.602993  8200 layer_factory.hpp:77] Creating layer parameters
I0505 16:42:25.603008  8200 net.cpp:94] Creating Layer parameters
I0505 16:42:25.603015  8200 net.cpp:409] parameters -> data
I0505 16:42:25.603029  8200 net.cpp:409] parameters -> label
I0505 16:42:25.603041  8200 hdf5_data_layer.cpp:79] Loading list of HDF5 filenames from: /home/purduethu/scratch/radon/d/deng106/CNNStatisticalModel/distributions/input/50_distributions_100_sample_size_train-distributions-path.txt
I0505 16:42:25.603066  8200 hdf5_data_layer.cpp:93] Number of HDF5 files: 1
I0505 16:42:25.804023  8200 hdf5.cpp:35] Datatype class: H5T_INTEGER
I0505 16:42:25.807256  8200 net.cpp:144] Setting up parameters
I0505 16:42:25.807278  8200 net.cpp:151] Top shape: 20 1 10 10 (2000)
I0505 16:42:25.807283  8200 net.cpp:151] Top shape: 20 (20)
I0505 16:42:25.807286  8200 net.cpp:159] Memory required for data: 8080
I0505 16:42:25.807292  8200 layer_factory.hpp:77] Creating layer conv1
I0505 16:42:25.807309  8200 net.cpp:94] Creating Layer conv1
I0505 16:42:25.807313  8200 net.cpp:435] conv1 <- data
I0505 16:42:25.807319  8200 net.cpp:409] conv1 -> conv1
I0505 16:42:25.809137  8200 net.cpp:144] Setting up conv1
I0505 16:42:25.809154  8200 net.cpp:151] Top shape: 20 64 10 10 (128000)
I0505 16:42:25.809156  8200 net.cpp:159] Memory required for data: 520080
I0505 16:42:25.809167  8200 layer_factory.hpp:77] Creating layer relu1
I0505 16:42:25.809175  8200 net.cpp:94] Creating Layer relu1
I0505 16:42:25.809180  8200 net.cpp:435] relu1 <- conv1
I0505 16:42:25.809183  8200 net.cpp:396] relu1 -> conv1 (in-place)
I0505 16:42:25.809191  8200 net.cpp:144] Setting up relu1
I0505 16:42:25.809195  8200 net.cpp:151] Top shape: 20 64 10 10 (128000)
I0505 16:42:25.809198  8200 net.cpp:159] Memory required for data: 1032080
I0505 16:42:25.809201  8200 layer_factory.hpp:77] Creating layer pool1
I0505 16:42:25.809208  8200 net.cpp:94] Creating Layer pool1
I0505 16:42:25.809211  8200 net.cpp:435] pool1 <- conv1
I0505 16:42:25.809222  8200 net.cpp:409] pool1 -> pool1
I0505 16:42:25.809276  8200 net.cpp:144] Setting up pool1
I0505 16:42:25.809283  8200 net.cpp:151] Top shape: 20 64 5 5 (32000)
I0505 16:42:25.809286  8200 net.cpp:159] Memory required for data: 1160080
I0505 16:42:25.809289  8200 layer_factory.hpp:77] Creating layer conv2
I0505 16:42:25.809298  8200 net.cpp:94] Creating Layer conv2
I0505 16:42:25.809303  8200 net.cpp:435] conv2 <- pool1
I0505 16:42:25.809306  8200 net.cpp:409] conv2 -> conv2
I0505 16:42:25.818608  8200 net.cpp:144] Setting up conv2
I0505 16:42:25.818622  8200 net.cpp:151] Top shape: 20 128 5 5 (64000)
I0505 16:42:25.818626  8200 net.cpp:159] Memory required for data: 1416080
I0505 16:42:25.818634  8200 layer_factory.hpp:77] Creating layer relu2
I0505 16:42:25.818641  8200 net.cpp:94] Creating Layer relu2
I0505 16:42:25.818645  8200 net.cpp:435] relu2 <- conv2
I0505 16:42:25.818650  8200 net.cpp:396] relu2 -> conv2 (in-place)
I0505 16:42:25.818656  8200 net.cpp:144] Setting up relu2
I0505 16:42:25.818660  8200 net.cpp:151] Top shape: 20 128 5 5 (64000)
I0505 16:42:25.818663  8200 net.cpp:159] Memory required for data: 1672080
I0505 16:42:25.818666  8200 layer_factory.hpp:77] Creating layer conv3
I0505 16:42:25.818675  8200 net.cpp:94] Creating Layer conv3
I0505 16:42:25.818677  8200 net.cpp:435] conv3 <- conv2
I0505 16:42:25.818682  8200 net.cpp:409] conv3 -> conv3
I0505 16:42:25.833742  8200 net.cpp:144] Setting up conv3
I0505 16:42:25.833757  8200 net.cpp:151] Top shape: 20 128 5 5 (64000)
I0505 16:42:25.833761  8200 net.cpp:159] Memory required for data: 1928080
I0505 16:42:25.833770  8200 layer_factory.hpp:77] Creating layer relu3
I0505 16:42:25.833776  8200 net.cpp:94] Creating Layer relu3
I0505 16:42:25.833780  8200 net.cpp:435] relu3 <- conv3
I0505 16:42:25.833784  8200 net.cpp:396] relu3 -> conv3 (in-place)
I0505 16:42:25.833791  8200 net.cpp:144] Setting up relu3
I0505 16:42:25.833796  8200 net.cpp:151] Top shape: 20 128 5 5 (64000)
I0505 16:42:25.833798  8200 net.cpp:159] Memory required for data: 2184080
I0505 16:42:25.833801  8200 layer_factory.hpp:77] Creating layer pool3
I0505 16:42:25.833807  8200 net.cpp:94] Creating Layer pool3
I0505 16:42:25.833811  8200 net.cpp:435] pool3 <- conv3
I0505 16:42:25.833814  8200 net.cpp:409] pool3 -> pool3
I0505 16:42:25.833858  8200 net.cpp:144] Setting up pool3
I0505 16:42:25.833863  8200 net.cpp:151] Top shape: 20 128 2 2 (10240)
I0505 16:42:25.833866  8200 net.cpp:159] Memory required for data: 2225040
I0505 16:42:25.833870  8200 layer_factory.hpp:77] Creating layer ip1
I0505 16:42:25.833878  8200 net.cpp:94] Creating Layer ip1
I0505 16:42:25.833880  8200 net.cpp:435] ip1 <- pool3
I0505 16:42:25.833885  8200 net.cpp:409] ip1 -> ip1
I0505 16:42:25.840386  8200 net.cpp:144] Setting up ip1
I0505 16:42:25.840396  8200 net.cpp:151] Top shape: 20 512 (10240)
I0505 16:42:25.840399  8200 net.cpp:159] Memory required for data: 2266000
I0505 16:42:25.840405  8200 layer_factory.hpp:77] Creating layer ip2
I0505 16:42:25.840411  8200 net.cpp:94] Creating Layer ip2
I0505 16:42:25.840415  8200 net.cpp:435] ip2 <- ip1
I0505 16:42:25.840420  8200 net.cpp:409] ip2 -> ip2
I0505 16:42:25.843727  8200 net.cpp:144] Setting up ip2
I0505 16:42:25.843736  8200 net.cpp:151] Top shape: 20 256 (5120)
I0505 16:42:25.843739  8200 net.cpp:159] Memory required for data: 2286480
I0505 16:42:25.843746  8200 layer_factory.hpp:77] Creating layer ip3
I0505 16:42:25.843751  8200 net.cpp:94] Creating Layer ip3
I0505 16:42:25.843755  8200 net.cpp:435] ip3 <- ip2
I0505 16:42:25.843760  8200 net.cpp:409] ip3 -> ip3
I0505 16:42:25.845064  8200 net.cpp:144] Setting up ip3
I0505 16:42:25.845078  8200 net.cpp:151] Top shape: 20 50 (1000)
I0505 16:42:25.845082  8200 net.cpp:159] Memory required for data: 2290480
I0505 16:42:25.845088  8200 layer_factory.hpp:77] Creating layer loss
I0505 16:42:25.845095  8200 net.cpp:94] Creating Layer loss
I0505 16:42:25.845098  8200 net.cpp:435] loss <- ip3
I0505 16:42:25.845103  8200 net.cpp:435] loss <- label
I0505 16:42:25.845108  8200 net.cpp:409] loss -> loss
I0505 16:42:25.845121  8200 layer_factory.hpp:77] Creating layer loss
…
I0505 16:42:25.845569  8200 solver.cpp:181] Creating test net (#0) specified by net file: ./protocol/dis_50_100_dimension.protocol_distribution
I0505 16:42:25.845593  8200 net.cpp:323] The NetState phase (1) differed from the phase (0) specified by a rule in layer parameters
I0505 16:42:25.845677  8200 net.cpp:52] Initializing net from parameters: 
state {
  phase: TEST
}
layer {
  name: "intercept"
  type: "HDF5Data"
  top: "data"
  top: "label"
  include {
    phase: TEST
  }
  hdf5_data_param {
    source: "/home/purduethu/scratch/radon/d/deng106/CNNStatisticalModel/distributions/input/50_distributions_100_sample_size_test-distributions-path.txt"
    batch_size: 20
  }
}
layer {
  name: "conv1"
  type: "Convolution"
  bottom: "data"
  top: "conv1"
  param {
    lr_mult: 1
  }
  param {
    lr_mult: 2
  }
  convolution_param {
    num_output: 64
    pad: 2
    kernel_size: 5
    stride: 1
    weight_filler {
      type: "gaussian"
      std: 0.0001
    }
    bias_filler {
      type: "constant"
    }
  }
}
layer {
  name: "relu1"
  type: "ReLU"
  bottom: "conv1"
  top: "conv1"
}
layer {
  name: "pool1"
  type: "Pooling"
  bottom: "conv1"
  top: "pool1"
  pooling_param {
    pool: MAX
    kernel_size: 3
    stride: 2
  }
}
layer {
  name: "conv2"
  type: "Convolution"
  bottom: "pool1"
  top: "conv2"
  param {
    lr_mult: 1
  }
  param {
    lr_mult: 2
  }
  convolution_param {
    num_output: 128
    pad: 2
    kernel_size: 5
    stride: 1
    weight_filler {
      type: "gaussian"
      std: 0.01
    }
    bias_filler {
      type: "constant"
    }
  }
}
layer {
  name: "relu2"
  type: "ReLU"
  bottom: "conv2"
  top: "conv2"
}
layer {
  name: "conv3"
  type: "Convolution"
  bottom: "conv2"
  top: "conv3"
  param {
    lr_mult: 1
  }
  param {
    lr_mult: 2
  }
  convolution_param {
    num_output: 128
    pad: 2
    kernel_size: 5
    stride: 1
    weight_filler {
      type: "gaussian"
      std: 0.01
    }
    bias_filler {
      type: "constant"
    }
  }
}
layer {
  name: "relu3"
  type: "ReLU"
  bottom: "conv3"
  top: "conv3"
}
layer {
  name: "pool3"
  type: "Pooling"
  bottom: "conv3"
  top: "pool3"
  pooling_param {
    pool: AVE
    kernel_size: 3
    stride: 2
  }
}
layer {
  name: "ip1"
  type: "InnerProduct"
  bottom: "pool3"
  top: "ip1"
  param {
    lr_mult: 1
  }
  param {
    lr_mult: 2
  }
  inner_product_param {
    num_output: 512
    weight_filler {
      type: "gaussian"
      std: 0.1
    }
    bias_filler {
      type: "constant"
    }
  }
}
layer {
  name: "ip2"
  type: "InnerProduct"
  bottom: "ip1"
  top: "ip2"
  param {
    lr_mult: 1
  }
  param {
    lr_mult: 2
  }
  inner_product_param {
    num_output: 256
    weight_filler {
      type: "gaussian"
      std: 0.1
    }
    bias_filler {
      type: "constant"
    }
  }
}
layer {
  name: "ip3"
  type: "InnerProduct"
  bottom: "ip2"
  top: "ip3"
  param {
    lr_mult: 1
  }
  param {
    lr_mult: 2
  }
  inner_product_param {
    num_output: 50
    weight_filler {
      type: "gaussian"
      std: 0.1
    }
    bias_filler {
      type: "constant"
    }
  }
}
layer {
  name: "accuracy"
  type: "Accuracy"
  bottom: "ip3"
  bottom: "label"
  top: "accuracy"
  include {
    phase: TEST
  }
}
layer {
  name: "loss"
  type: "SoftmaxWithLoss"
  bottom: "ip3"
  bottom: "label"
  top: "loss"
}
I0505 16:42:25.845736  8200 layer_factory.hpp:77] Creating layer intercept
I0505 16:42:25.845744  8200 net.cpp:94] Creating Layer intercept
I0505 16:42:25.845748  8200 net.cpp:409] intercept -> data
I0505 16:42:25.845755  8200 net.cpp:409] intercept -> label
I0505 16:42:25.845762  8200 hdf5_data_layer.cpp:79] Loading list of HDF5 filenames from: /home/purduethu/scratch/radon/d/deng106/CNNStatisticalModel/distributions/input/50_distributions_100_sample_size_test-distributions-path.txt
I0505 16:42:25.845788  8200 hdf5_data_layer.cpp:93] Number of HDF5 files: 1
I0505 16:42:25.888460  8200 net.cpp:144] Setting up intercept
I0505 16:42:25.888495  8200 net.cpp:151] Top shape: 20 1 10 10 (2000)
I0505 16:42:25.888500  8200 net.cpp:151] Top shape: 20 (20)
I0505 16:42:25.888504  8200 net.cpp:159] Memory required for data: 8080
I0505 16:42:25.888510  8200 layer_factory.hpp:77] Creating layer label_intercept_1_split
I0505 16:42:25.888530  8200 net.cpp:94] Creating Layer label_intercept_1_split
I0505 16:42:25.888535  8200 net.cpp:435] label_intercept_1_split <- label
I0505 16:42:25.888541  8200 net.cpp:409] label_intercept_1_split -> label_intercept_1_split_0
I0505 16:42:25.888559  8200 net.cpp:409] label_intercept_1_split -> label_intercept_1_split_1
I0505 16:42:25.888608  8200 net.cpp:144] Setting up label_intercept_1_split
I0505 16:42:25.888615  8200 net.cpp:151] Top shape: 20 (20)
I0505 16:42:25.888619  8200 net.cpp:151] Top shape: 20 (20)
I0505 16:42:25.888622  8200 net.cpp:159] Memory required for data: 8240
I0505 16:42:25.888625  8200 layer_factory.hpp:77] Creating layer conv1
I0505 16:42:25.888636  8200 net.cpp:94] Creating Layer conv1
I0505 16:42:25.888639  8200 net.cpp:435] conv1 <- data
I0505 16:42:25.888644  8200 net.cpp:409] conv1 -> conv1
I0505 16:42:25.889487  8200 net.cpp:144] Setting up conv1
I0505 16:42:25.889503  8200 net.cpp:151] Top shape: 20 64 10 10 (128000)
I0505 16:42:25.889506  8200 net.cpp:159] Memory required for data: 520240
I0505 16:42:25.889518  8200 layer_factory.hpp:77] Creating layer relu1
I0505 16:42:25.889524  8200 net.cpp:94] Creating Layer relu1
I0505 16:42:25.889528  8200 net.cpp:435] relu1 <- conv1
I0505 16:42:25.889533  8200 net.cpp:396] relu1 -> conv1 (in-place)
I0505 16:42:25.889539  8200 net.cpp:144] Setting up relu1
I0505 16:42:25.889544  8200 net.cpp:151] Top shape: 20 64 10 10 (128000)
I0505 16:42:25.889546  8200 net.cpp:159] Memory required for data: 1032240
I0505 16:42:25.889549  8200 layer_factory.hpp:77] Creating layer pool1
I0505 16:42:25.889556  8200 net.cpp:94] Creating Layer pool1
I0505 16:42:25.889560  8200 net.cpp:435] pool1 <- conv1
I0505 16:42:25.889564  8200 net.cpp:409] pool1 -> pool1
I0505 16:42:25.889621  8200 net.cpp:144] Setting up pool1
I0505 16:42:25.889627  8200 net.cpp:151] Top shape: 20 64 5 5 (32000)
I0505 16:42:25.889631  8200 net.cpp:159] Memory required for data: 1160240
I0505 16:42:25.889634  8200 layer_factory.hpp:77] Creating layer conv2
I0505 16:42:25.889642  8200 net.cpp:94] Creating Layer conv2
I0505 16:42:25.889645  8200 net.cpp:435] conv2 <- pool1
I0505 16:42:25.889650  8200 net.cpp:409] conv2 -> conv2
I0505 16:42:25.897347  8200 net.cpp:144] Setting up conv2
I0505 16:42:25.897362  8200 net.cpp:151] Top shape: 20 128 5 5 (64000)
I0505 16:42:25.897366  8200 net.cpp:159] Memory required for data: 1416240
I0505 16:42:25.897374  8200 layer_factory.hpp:77] Creating layer relu2
I0505 16:42:25.897387  8200 net.cpp:94] Creating Layer relu2
I0505 16:42:25.897392  8200 net.cpp:435] relu2 <- conv2
I0505 16:42:25.897395  8200 net.cpp:396] relu2 -> conv2 (in-place)
I0505 16:42:25.897403  8200 net.cpp:144] Setting up relu2
I0505 16:42:25.897408  8200 net.cpp:151] Top shape: 20 128 5 5 (64000)
I0505 16:42:25.897410  8200 net.cpp:159] Memory required for data: 1672240
I0505 16:42:25.897413  8200 layer_factory.hpp:77] Creating layer conv3
I0505 16:42:25.897420  8200 net.cpp:94] Creating Layer conv3
I0505 16:42:25.897424  8200 net.cpp:435] conv3 <- conv2
I0505 16:42:25.897428  8200 net.cpp:409] conv3 -> conv3
I0505 16:42:25.910506  8200 net.cpp:144] Setting up conv3
I0505 16:42:25.910519  8200 net.cpp:151] Top shape: 20 128 5 5 (64000)
I0505 16:42:25.910523  8200 net.cpp:159] Memory required for data: 1928240
I0505 16:42:25.910531  8200 layer_factory.hpp:77] Creating layer relu3
I0505 16:42:25.910539  8200 net.cpp:94] Creating Layer relu3
I0505 16:42:25.910542  8200 net.cpp:435] relu3 <- conv3
I0505 16:42:25.910547  8200 net.cpp:396] relu3 -> conv3 (in-place)
I0505 16:42:25.910554  8200 net.cpp:144] Setting up relu3
I0505 16:42:25.910558  8200 net.cpp:151] Top shape: 20 128 5 5 (64000)
I0505 16:42:25.910562  8200 net.cpp:159] Memory required for data: 2184240
I0505 16:42:25.910564  8200 layer_factory.hpp:77] Creating layer pool3
I0505 16:42:25.910569  8200 net.cpp:94] Creating Layer pool3
I0505 16:42:25.910573  8200 net.cpp:435] pool3 <- conv3
I0505 16:42:25.910576  8200 net.cpp:409] pool3 -> pool3
I0505 16:42:25.910614  8200 net.cpp:144] Setting up pool3
I0505 16:42:25.910621  8200 net.cpp:151] Top shape: 20 128 2 2 (10240)
I0505 16:42:25.910624  8200 net.cpp:159] Memory required for data: 2225200
I0505 16:42:25.910627  8200 layer_factory.hpp:77] Creating layer ip1
I0505 16:42:25.910634  8200 net.cpp:94] Creating Layer ip1
I0505 16:42:25.910637  8200 net.cpp:435] ip1 <- pool3
I0505 16:42:25.910642  8200 net.cpp:409] ip1 -> ip1
I0505 16:42:25.917177  8200 net.cpp:144] Setting up ip1
I0505 16:42:25.917187  8200 net.cpp:151] Top shape: 20 512 (10240)
I0505 16:42:25.917191  8200 net.cpp:159] Memory required for data: 2266160
I0505 16:42:25.917196  8200 layer_factory.hpp:77] Creating layer ip2
I0505 16:42:25.917203  8200 net.cpp:94] Creating Layer ip2
I0505 16:42:25.917207  8200 net.cpp:435] ip2 <- ip1
I0505 16:42:25.917212  8200 net.cpp:409] ip2 -> ip2
I0505 16:42:25.921382  8200 net.cpp:144] Setting up ip2
I0505 16:42:25.921396  8200 net.cpp:151] Top shape: 20 256 (5120)
I0505 16:42:25.921401  8200 net.cpp:159] Memory required for data: 2286640
I0505 16:42:25.921408  8200 layer_factory.hpp:77] Creating layer ip3
I0505 16:42:25.921416  8200 net.cpp:94] Creating Layer ip3
I0505 16:42:25.921419  8200 net.cpp:435] ip3 <- ip2
I0505 16:42:25.921425  8200 net.cpp:409] ip3 -> ip3
I0505 16:42:25.921875  8200 net.cpp:144] Setting up ip3
I0505 16:42:25.921882  8200 net.cpp:151] Top shape: 20 50 (1000)
I0505 16:42:25.921885  8200 net.cpp:159] Memory required for data: 2290640
I0505 16:42:25.921890  8200 layer_factory.hpp:77] Creating layer ip3_ip3_0_split
I0505 16:42:25.921896  8200 net.cpp:94] Creating Layer ip3_ip3_0_split
I0505 16:42:25.921900  8200 net.cpp:435] ip3_ip3_0_split <- ip3
I0505 16:42:25.921905  8200 net.cpp:409] ip3_ip3_0_split -> ip3_ip3_0_split_0
I0505 16:42:25.921911  8200 net.cpp:409] ip3_ip3_0_split -> ip3_ip3_0_split_1
I0505 16:42:25.921952  8200 net.cpp:144] Setting up ip3_ip3_0_split
I0505 16:42:25.921957  8200 net.cpp:151] Top shape: 20 50 (1000)
I0505 16:42:25.921962  8200 net.cpp:151] Top shape: 20 50 (1000)
I0505 16:42:25.921964  8200 net.cpp:159] Memory required for data: 2298640
I0505 16:42:25.921967  8200 layer_factory.hpp:77] Creating layer accuracy
I0505 16:42:25.921974  8200 net.cpp:94] Creating Layer accuracy
I0505 16:42:25.921977  8200 net.cpp:435] accuracy <- ip3_ip3_0_split_0
I0505 16:42:25.921982  8200 net.cpp:435] accuracy <- label_intercept_1_split_0
I0505 16:42:25.921985  8200 net.cpp:409] accuracy -> accuracy
…
