…
I0503 12:14:57.782094 20617 net.cpp:323] The NetState phase (0) differed from the phase (1) specified by a rule in layer intercept
I0503 12:14:57.782110 20617 net.cpp:323] The NetState phase (0) differed from the phase (1) specified by a rule in layer accuracy
I0503 12:14:57.782207 20617 net.cpp:52] Initializing net from parameters: 
state {
  phase: TRAIN
}
layer {
  name: "parameters"
  type: "HDF5Data"
  top: "data"
  top: "label"
  include {
    phase: TRAIN
  }
  hdf5_data_param {
    source: "/home/purduethu/scratch/radon/d/deng106/CNNStatisticalModel/distributions/input/20_distributions_100_sample_size_train-distributions-path.txt"
    batch_size: 20
  }
}
layer {
  name: "conv1"
  type: "Convolution"
  bottom: "data"
  top: "conv1"
  param {
    lr_mult: 1
  }
  param {
    lr_mult: 2
  }
  convolution_param {
    num_output: 64
    pad: 2
    kernel_size: 5
    stride: 1
    weight_filler {
      type: "gaussian"
      std: 0.0001
    }
    bias_filler {
      type: "constant"
    }
  }
}
layer {
  name: "relu1"
  type: "ReLU"
  bottom: "conv1"
  top: "conv1"
}
layer {
  name: "conv2"
  type: "Convolution"
  bottom: "conv1"
  top: "conv2"
  param {
    lr_mult: 1
  }
  param {
    lr_mult: 2
  }
  convolution_param {
    num_output: 64
    pad: 2
    kernel_size: 5
    stride: 1
    weight_filler {
      type: "gaussian"
      std: 0.01
    }
    bias_filler {
      type: "constant"
    }
  }
}
layer {
  name: "relu2"
  type: "ReLU"
  bottom: "conv2"
  top: "conv2"
}
layer {
  name: "pool2"
  type: "Pooling"
  bottom: "conv2"
  top: "pool2"
  pooling_param {
    pool: MAX
    kernel_size: 3
    stride: 2
  }
}
layer {
  name: "conv3"
  type: "Convolution"
  bottom: "pool2"
  top: "conv3"
  param {
    lr_mult: 1
  }
  param {
    lr_mult: 2
  }
  convolution_param {
    num_output: 128
    pad: 2
    kernel_size: 5
    stride: 1
    weight_filler {
      type: "gaussian"
      std: 0.01
    }
    bias_filler {
      type: "constant"
    }
  }
}
layer {
  name: "relu3"
  type: "ReLU"
  bottom: "conv3"
  top: "conv3"
}
layer {
  name: "conv4"
  type: "Convolution"
  bottom: "conv3"
  top: "conv4"
  param {
    lr_mult: 1
  }
  param {
    lr_mult: 2
  }
  convolution_param {
    num_output: 128
    pad: 2
    kernel_size: 5
    stride: 1
    weight_filler {
      type: "gaussian"
      std: 0.01
    }
    bias_filler {
      type: "constant"
    }
  }
}
layer {
  name: "relu4"
  type: "ReLU"
  bottom: "conv4"
  top: "conv4"
}
layer {
  name: "conv5"
  type: "Convolution"
  bottom: "conv4"
  top: "conv5"
  param {
    lr_mult: 1
  }
  param {
    lr_mult: 2
  }
  convolution_param {
    num_output: 128
    pad: 2
    kernel_size: 5
    stride: 1
    weight_filler {
      type: "gaussian"
      std: 0.01
    }
    bias_filler {
      type: "constant"
    }
  }
}
layer {
  name: "relu5"
  type: "ReLU"
  bottom: "conv5"
  top: "conv5"
}
layer {
  name: "pool5"
  type: "Pooling"
  bottom: "conv5"
  top: "pool5"
  pooling_param {
    pool: AVE
    kernel_size: 3
    stride: 2
  }
}
layer {
  name: "ip1"
  type: "InnerProduct"
  bottom: "pool5"
  top: "ip1"
  param {
    lr_mult: 1
  }
  param {
    lr_mult: 2
  }
  inner_product_param {
    num_output: 1024
    weight_filler {
      type: "gaussian"
      std: 0.1
    }
    bias_filler {
      type: "constant"
    }
  }
}
layer {
  name: "ip2"
  type: "InnerProduct"
  bottom: "ip1"
  top: "ip2"
  param {
    lr_mult: 1
  }
  param {
    lr_mult: 2
  }
  inner_product_param {
    num_output: 512
    weight_filler {
      type: "gaussian"
      std: 0.1
    }
    bias_filler {
      type: "constant"
    }
  }
}
layer {
  name: "ip3"
  type: "InnerProduct"
  bottom: "ip2"
  top: "ip3"
  param {
    lr_mult: 1
  }
  param {
    lr_mult: 2
  }
  inner_product_param {
    num_output: 50
    weight_filler {
      type: "gaussian"
      std: 0.1
    }
    bias_filler {
      type: "constant"
    }
  }
}
layer {
  name: "loss"
  type: "SoftmaxWithLoss"
  bottom: "ip3"
  bottom: "label"
  top: "loss"
}
I0503 12:14:57.782282 20617 layer_factory.hpp:77] Creating layer parameters
I0503 12:14:57.782296 20617 net.cpp:94] Creating Layer parameters
I0503 12:14:57.782302 20617 net.cpp:409] parameters -> data
I0503 12:14:57.782320 20617 net.cpp:409] parameters -> label
I0503 12:14:57.782333 20617 hdf5_data_layer.cpp:79] Loading list of HDF5 filenames from: /home/purduethu/scratch/radon/d/deng106/CNNStatisticalModel/distributions/input/20_distributions_100_sample_size_train-distributions-path.txt
I0503 12:14:57.782356 20617 hdf5_data_layer.cpp:93] Number of HDF5 files: 1
I0503 12:14:57.782922 20617 hdf5.cpp:32] Datatype class: H5T_FLOAT
I0503 12:14:57.848788 20617 hdf5.cpp:35] Datatype class: H5T_INTEGER
I0503 12:14:57.850575 20617 net.cpp:144] Setting up parameters
I0503 12:14:57.850596 20617 net.cpp:151] Top shape: 20 1 10 10 (2000)
I0503 12:14:57.850602 20617 net.cpp:151] Top shape: 20 (20)
I0503 12:14:57.850606 20617 net.cpp:159] Memory required for data: 8080
I0503 12:14:57.850613 20617 layer_factory.hpp:77] Creating layer conv1
I0503 12:14:57.850636 20617 net.cpp:94] Creating Layer conv1
I0503 12:14:57.850642 20617 net.cpp:435] conv1 <- data
I0503 12:14:57.850653 20617 net.cpp:409] conv1 -> conv1
I0503 12:14:57.856607 20617 net.cpp:144] Setting up conv1
I0503 12:14:57.856622 20617 net.cpp:151] Top shape: 20 64 10 10 (128000)
I0503 12:14:57.856626 20617 net.cpp:159] Memory required for data: 520080
I0503 12:14:57.856638 20617 layer_factory.hpp:77] Creating layer relu1
I0503 12:14:57.856647 20617 net.cpp:94] Creating Layer relu1
I0503 12:14:57.856650 20617 net.cpp:435] relu1 <- conv1
I0503 12:14:57.856654 20617 net.cpp:396] relu1 -> conv1 (in-place)
I0503 12:14:57.856669 20617 net.cpp:144] Setting up relu1
I0503 12:14:57.856675 20617 net.cpp:151] Top shape: 20 64 10 10 (128000)
I0503 12:14:57.856678 20617 net.cpp:159] Memory required for data: 1032080
I0503 12:14:57.856681 20617 layer_factory.hpp:77] Creating layer conv2
I0503 12:14:57.856689 20617 net.cpp:94] Creating Layer conv2
I0503 12:14:57.856693 20617 net.cpp:435] conv2 <- conv1
I0503 12:14:57.856698 20617 net.cpp:409] conv2 -> conv2
I0503 12:14:57.861848 20617 net.cpp:144] Setting up conv2
I0503 12:14:57.861862 20617 net.cpp:151] Top shape: 20 64 10 10 (128000)
I0503 12:14:57.861867 20617 net.cpp:159] Memory required for data: 1544080
I0503 12:14:57.861874 20617 layer_factory.hpp:77] Creating layer relu2
I0503 12:14:57.861881 20617 net.cpp:94] Creating Layer relu2
I0503 12:14:57.861886 20617 net.cpp:435] relu2 <- conv2
I0503 12:14:57.861891 20617 net.cpp:396] relu2 -> conv2 (in-place)
I0503 12:14:57.861897 20617 net.cpp:144] Setting up relu2
I0503 12:14:57.861902 20617 net.cpp:151] Top shape: 20 64 10 10 (128000)
I0503 12:14:57.861905 20617 net.cpp:159] Memory required for data: 2056080
I0503 12:14:57.861908 20617 layer_factory.hpp:77] Creating layer pool2
I0503 12:14:57.861922 20617 net.cpp:94] Creating Layer pool2
I0503 12:14:57.861927 20617 net.cpp:435] pool2 <- conv2
I0503 12:14:57.861932 20617 net.cpp:409] pool2 -> pool2
I0503 12:14:57.861974 20617 net.cpp:144] Setting up pool2
I0503 12:14:57.861982 20617 net.cpp:151] Top shape: 20 64 5 5 (32000)
I0503 12:14:57.861985 20617 net.cpp:159] Memory required for data: 2184080
I0503 12:14:57.861989 20617 layer_factory.hpp:77] Creating layer conv3
I0503 12:14:57.861997 20617 net.cpp:94] Creating Layer conv3
I0503 12:14:57.862000 20617 net.cpp:435] conv3 <- pool2
I0503 12:14:57.862013 20617 net.cpp:409] conv3 -> conv3
I0503 12:14:57.870226 20617 net.cpp:144] Setting up conv3
I0503 12:14:57.870240 20617 net.cpp:151] Top shape: 20 128 5 5 (64000)
I0503 12:14:57.870245 20617 net.cpp:159] Memory required for data: 2440080
I0503 12:14:57.870254 20617 layer_factory.hpp:77] Creating layer relu3
I0503 12:14:57.870260 20617 net.cpp:94] Creating Layer relu3
I0503 12:14:57.870263 20617 net.cpp:435] relu3 <- conv3
I0503 12:14:57.870268 20617 net.cpp:396] relu3 -> conv3 (in-place)
I0503 12:14:57.870275 20617 net.cpp:144] Setting up relu3
I0503 12:14:57.870280 20617 net.cpp:151] Top shape: 20 128 5 5 (64000)
I0503 12:14:57.870283 20617 net.cpp:159] Memory required for data: 2696080
I0503 12:14:57.870286 20617 layer_factory.hpp:77] Creating layer conv4
I0503 12:14:57.870296 20617 net.cpp:94] Creating Layer conv4
I0503 12:14:57.870299 20617 net.cpp:435] conv4 <- conv3
I0503 12:14:57.870304 20617 net.cpp:409] conv4 -> conv4
I0503 12:14:57.885087 20617 net.cpp:144] Setting up conv4
I0503 12:14:57.885102 20617 net.cpp:151] Top shape: 20 128 5 5 (64000)
I0503 12:14:57.885107 20617 net.cpp:159] Memory required for data: 2952080
I0503 12:14:57.885113 20617 layer_factory.hpp:77] Creating layer relu4
I0503 12:14:57.885118 20617 net.cpp:94] Creating Layer relu4
I0503 12:14:57.885123 20617 net.cpp:435] relu4 <- conv4
I0503 12:14:57.885128 20617 net.cpp:396] relu4 -> conv4 (in-place)
I0503 12:14:57.885135 20617 net.cpp:144] Setting up relu4
I0503 12:14:57.885140 20617 net.cpp:151] Top shape: 20 128 5 5 (64000)
I0503 12:14:57.885143 20617 net.cpp:159] Memory required for data: 3208080
I0503 12:14:57.885146 20617 layer_factory.hpp:77] Creating layer conv5
I0503 12:14:57.885154 20617 net.cpp:94] Creating Layer conv5
I0503 12:14:57.885159 20617 net.cpp:435] conv5 <- conv4
I0503 12:14:57.885164 20617 net.cpp:409] conv5 -> conv5
I0503 12:14:57.899667 20617 net.cpp:144] Setting up conv5
I0503 12:14:57.899682 20617 net.cpp:151] Top shape: 20 128 5 5 (64000)
I0503 12:14:57.899688 20617 net.cpp:159] Memory required for data: 3464080
I0503 12:14:57.899695 20617 layer_factory.hpp:77] Creating layer relu5
I0503 12:14:57.899701 20617 net.cpp:94] Creating Layer relu5
I0503 12:14:57.899705 20617 net.cpp:435] relu5 <- conv5
I0503 12:14:57.899710 20617 net.cpp:396] relu5 -> conv5 (in-place)
I0503 12:14:57.899718 20617 net.cpp:144] Setting up relu5
I0503 12:14:57.899722 20617 net.cpp:151] Top shape: 20 128 5 5 (64000)
I0503 12:14:57.899726 20617 net.cpp:159] Memory required for data: 3720080
I0503 12:14:57.899729 20617 layer_factory.hpp:77] Creating layer pool5
I0503 12:14:57.899734 20617 net.cpp:94] Creating Layer pool5
I0503 12:14:57.899737 20617 net.cpp:435] pool5 <- conv5
I0503 12:14:57.899742 20617 net.cpp:409] pool5 -> pool5
I0503 12:14:57.899776 20617 net.cpp:144] Setting up pool5
I0503 12:14:57.899785 20617 net.cpp:151] Top shape: 20 128 2 2 (10240)
I0503 12:14:57.899787 20617 net.cpp:159] Memory required for data: 3761040
I0503 12:14:57.899791 20617 layer_factory.hpp:77] Creating layer ip1
I0503 12:14:57.899801 20617 net.cpp:94] Creating Layer ip1
I0503 12:14:57.899803 20617 net.cpp:435] ip1 <- pool5
I0503 12:14:57.899809 20617 net.cpp:409] ip1 -> ip1
I0503 12:14:57.913911 20617 net.cpp:144] Setting up ip1
I0503 12:14:57.913926 20617 net.cpp:151] Top shape: 20 1024 (20480)
I0503 12:14:57.913930 20617 net.cpp:159] Memory required for data: 3842960
I0503 12:14:57.913936 20617 layer_factory.hpp:77] Creating layer ip2
I0503 12:14:57.913944 20617 net.cpp:94] Creating Layer ip2
I0503 12:14:57.913952 20617 net.cpp:435] ip2 <- ip1
I0503 12:14:57.913959 20617 net.cpp:409] ip2 -> ip2
I0503 12:14:57.927392 20617 net.cpp:144] Setting up ip2
I0503 12:14:57.927407 20617 net.cpp:151] Top shape: 20 512 (10240)
I0503 12:14:57.927410 20617 net.cpp:159] Memory required for data: 3883920
I0503 12:14:57.927417 20617 layer_factory.hpp:77] Creating layer ip3
I0503 12:14:57.927423 20617 net.cpp:94] Creating Layer ip3
I0503 12:14:57.927426 20617 net.cpp:435] ip3 <- ip2
I0503 12:14:57.927433 20617 net.cpp:409] ip3 -> ip3
I0503 12:14:57.928791 20617 net.cpp:144] Setting up ip3
I0503 12:14:57.928804 20617 net.cpp:151] Top shape: 20 50 (1000)
I0503 12:14:57.928808 20617 net.cpp:159] Memory required for data: 3887920
I0503 12:14:57.928814 20617 layer_factory.hpp:77] Creating layer loss
I0503 12:14:57.928822 20617 net.cpp:94] Creating Layer loss
I0503 12:14:57.928825 20617 net.cpp:435] loss <- ip3
I0503 12:14:57.928830 20617 net.cpp:435] loss <- label
I0503 12:14:57.928835 20617 net.cpp:409] loss -> loss
I0503 12:14:57.928848 20617 layer_factory.hpp:77] Creating layer loss
…
I0503 12:14:57.929358 20617 solver.cpp:181] Creating test net (#0) specified by net file: ./protocol/dis_20_100_dimension.protocol_distribution
I0503 12:14:57.929386 20617 net.cpp:323] The NetState phase (1) differed from the phase (0) specified by a rule in layer parameters
I0503 12:14:57.929492 20617 net.cpp:52] Initializing net from parameters: 
state {
  phase: TEST
}
layer {
  name: "intercept"
  type: "HDF5Data"
  top: "data"
  top: "label"
  include {
    phase: TEST
  }
  hdf5_data_param {
    source: "/home/purduethu/scratch/radon/d/deng106/CNNStatisticalModel/distributions/input/20_distributions_100_sample_size_test-distributions-path.txt"
    batch_size: 20
  }
}
layer {
  name: "conv1"
  type: "Convolution"
  bottom: "data"
  top: "conv1"
  param {
    lr_mult: 1
  }
  param {
    lr_mult: 2
  }
  convolution_param {
    num_output: 64
    pad: 2
    kernel_size: 5
    stride: 1
    weight_filler {
      type: "gaussian"
      std: 0.0001
    }
    bias_filler {
      type: "constant"
    }
  }
}
layer {
  name: "relu1"
  type: "ReLU"
  bottom: "conv1"
  top: "conv1"
}
layer {
  name: "conv2"
  type: "Convolution"
  bottom: "conv1"
  top: "conv2"
  param {
    lr_mult: 1
  }
  param {
    lr_mult: 2
  }
  convolution_param {
    num_output: 64
    pad: 2
    kernel_size: 5
    stride: 1
    weight_filler {
      type: "gaussian"
      std: 0.01
    }
    bias_filler {
      type: "constant"
    }
  }
}
layer {
  name: "relu2"
  type: "ReLU"
  bottom: "conv2"
  top: "conv2"
}
layer {
  name: "pool2"
  type: "Pooling"
  bottom: "conv2"
  top: "pool2"
  pooling_param {
    pool: MAX
    kernel_size: 3
    stride: 2
  }
}
layer {
  name: "conv3"
  type: "Convolution"
  bottom: "pool2"
  top: "conv3"
  param {
    lr_mult: 1
  }
  param {
    lr_mult: 2
  }
  convolution_param {
    num_output: 128
    pad: 2
    kernel_size: 5
    stride: 1
    weight_filler {
      type: "gaussian"
      std: 0.01
    }
    bias_filler {
      type: "constant"
    }
  }
}
layer {
  name: "relu3"
  type: "ReLU"
  bottom: "conv3"
  top: "conv3"
}
layer {
  name: "conv4"
  type: "Convolution"
  bottom: "conv3"
  top: "conv4"
  param {
    lr_mult: 1
  }
  param {
    lr_mult: 2
  }
  convolution_param {
    num_output: 128
    pad: 2
    kernel_size: 5
    stride: 1
    weight_filler {
      type: "gaussian"
      std: 0.01
    }
    bias_filler {
      type: "constant"
    }
  }
}
layer {
  name: "relu4"
  type: "ReLU"
  bottom: "conv4"
  top: "conv4"
}
layer {
  name: "conv5"
  type: "Convolution"
  bottom: "conv4"
  top: "conv5"
  param {
    lr_mult: 1
  }
  param {
    lr_mult: 2
  }
  convolution_param {
    num_output: 128
    pad: 2
    kernel_size: 5
    stride: 1
    weight_filler {
      type: "gaussian"
      std: 0.01
    }
    bias_filler {
      type: "constant"
    }
  }
}
layer {
  name: "relu5"
  type: "ReLU"
  bottom: "conv5"
  top: "conv5"
}
layer {
  name: "pool5"
  type: "Pooling"
  bottom: "conv5"
  top: "pool5"
  pooling_param {
    pool: AVE
    kernel_size: 3
    stride: 2
  }
}
layer {
  name: "ip1"
  type: "InnerProduct"
  bottom: "pool5"
  top: "ip1"
  param {
    lr_mult: 1
  }
  param {
    lr_mult: 2
  }
  inner_product_param {
    num_output: 1024
    weight_filler {
      type: "gaussian"
      std: 0.1
    }
    bias_filler {
      type: "constant"
    }
  }
}
layer {
  name: "ip2"
  type: "InnerProduct"
  bottom: "ip1"
  top: "ip2"
  param {
    lr_mult: 1
  }
  param {
    lr_mult: 2
  }
  inner_product_param {
    num_output: 512
    weight_filler {
      type: "gaussian"
      std: 0.1
    }
    bias_filler {
      type: "constant"
    }
  }
}
layer {
  name: "ip3"
  type: "InnerProduct"
  bottom: "ip2"
  top: "ip3"
  param {
    lr_mult: 1
  }
  param {
    lr_mult: 2
  }
  inner_product_param {
    num_output: 50
    weight_filler {
      type: "gaussian"
      std: 0.1
    }
    bias_filler {
      type: "constant"
    }
  }
}
layer {
  name: "accuracy"
  type: "Accuracy"
  bottom: "ip3"
  bottom: "label"
  top: "accuracy"
  include {
    phase: TEST
  }
}
layer {
  name: "loss"
  type: "SoftmaxWithLoss"
  bottom: "ip3"
  bottom: "label"
  top: "loss"
}
I0503 12:14:57.929567 20617 layer_factory.hpp:77] Creating layer intercept
I0503 12:14:57.929576 20617 net.cpp:94] Creating Layer intercept
I0503 12:14:57.929580 20617 net.cpp:409] intercept -> data
I0503 12:14:57.929587 20617 net.cpp:409] intercept -> label
I0503 12:14:57.929594 20617 hdf5_data_layer.cpp:79] Loading list of HDF5 filenames from: /home/purduethu/scratch/radon/d/deng106/CNNStatisticalModel/distributions/input/20_distributions_100_sample_size_test-distributions-path.txt
I0503 12:14:57.929613 20617 hdf5_data_layer.cpp:93] Number of HDF5 files: 1
I0503 12:14:57.946621 20617 net.cpp:144] Setting up intercept
I0503 12:14:57.946656 20617 net.cpp:151] Top shape: 20 1 10 10 (2000)
I0503 12:14:57.946662 20617 net.cpp:151] Top shape: 20 (20)
I0503 12:14:57.946666 20617 net.cpp:159] Memory required for data: 8080
I0503 12:14:57.946671 20617 layer_factory.hpp:77] Creating layer label_intercept_1_split
I0503 12:14:57.946691 20617 net.cpp:94] Creating Layer label_intercept_1_split
I0503 12:14:57.946696 20617 net.cpp:435] label_intercept_1_split <- label
I0503 12:14:57.946702 20617 net.cpp:409] label_intercept_1_split -> label_intercept_1_split_0
I0503 12:14:57.946710 20617 net.cpp:409] label_intercept_1_split -> label_intercept_1_split_1
I0503 12:14:57.946745 20617 net.cpp:144] Setting up label_intercept_1_split
I0503 12:14:57.946753 20617 net.cpp:151] Top shape: 20 (20)
I0503 12:14:57.946756 20617 net.cpp:151] Top shape: 20 (20)
I0503 12:14:57.946759 20617 net.cpp:159] Memory required for data: 8240
I0503 12:14:57.946763 20617 layer_factory.hpp:77] Creating layer conv1
I0503 12:14:57.946774 20617 net.cpp:94] Creating Layer conv1
I0503 12:14:57.946777 20617 net.cpp:435] conv1 <- data
I0503 12:14:57.946782 20617 net.cpp:409] conv1 -> conv1
I0503 12:14:57.947504 20617 net.cpp:144] Setting up conv1
I0503 12:14:57.947525 20617 net.cpp:151] Top shape: 20 64 10 10 (128000)
I0503 12:14:57.947530 20617 net.cpp:159] Memory required for data: 520240
I0503 12:14:57.947538 20617 layer_factory.hpp:77] Creating layer relu1
I0503 12:14:57.947546 20617 net.cpp:94] Creating Layer relu1
I0503 12:14:57.947549 20617 net.cpp:435] relu1 <- conv1
I0503 12:14:57.947554 20617 net.cpp:396] relu1 -> conv1 (in-place)
I0503 12:14:57.947562 20617 net.cpp:144] Setting up relu1
I0503 12:14:57.947566 20617 net.cpp:151] Top shape: 20 64 10 10 (128000)
I0503 12:14:57.947569 20617 net.cpp:159] Memory required for data: 1032240
I0503 12:14:57.947573 20617 layer_factory.hpp:77] Creating layer conv2
I0503 12:14:57.947582 20617 net.cpp:94] Creating Layer conv2
I0503 12:14:57.947585 20617 net.cpp:435] conv2 <- conv1
I0503 12:14:57.947590 20617 net.cpp:409] conv2 -> conv2
I0503 12:14:57.951719 20617 net.cpp:144] Setting up conv2
I0503 12:14:57.951731 20617 net.cpp:151] Top shape: 20 64 10 10 (128000)
I0503 12:14:57.951736 20617 net.cpp:159] Memory required for data: 1544240
I0503 12:14:57.951743 20617 layer_factory.hpp:77] Creating layer relu2
I0503 12:14:57.951750 20617 net.cpp:94] Creating Layer relu2
I0503 12:14:57.951753 20617 net.cpp:435] relu2 <- conv2
I0503 12:14:57.951758 20617 net.cpp:396] relu2 -> conv2 (in-place)
I0503 12:14:57.951766 20617 net.cpp:144] Setting up relu2
I0503 12:14:57.951771 20617 net.cpp:151] Top shape: 20 64 10 10 (128000)
I0503 12:14:57.951773 20617 net.cpp:159] Memory required for data: 2056240
I0503 12:14:57.951776 20617 layer_factory.hpp:77] Creating layer pool2
I0503 12:14:57.951782 20617 net.cpp:94] Creating Layer pool2
I0503 12:14:57.951786 20617 net.cpp:435] pool2 <- conv2
I0503 12:14:57.951791 20617 net.cpp:409] pool2 -> pool2
I0503 12:14:57.951824 20617 net.cpp:144] Setting up pool2
I0503 12:14:57.951831 20617 net.cpp:151] Top shape: 20 64 5 5 (32000)
I0503 12:14:57.951834 20617 net.cpp:159] Memory required for data: 2184240
I0503 12:14:57.951838 20617 layer_factory.hpp:77] Creating layer conv3
I0503 12:14:57.951845 20617 net.cpp:94] Creating Layer conv3
I0503 12:14:57.951849 20617 net.cpp:435] conv3 <- pool2
I0503 12:14:57.951854 20617 net.cpp:409] conv3 -> conv3
I0503 12:14:57.959372 20617 net.cpp:144] Setting up conv3
I0503 12:14:57.959385 20617 net.cpp:151] Top shape: 20 128 5 5 (64000)
I0503 12:14:57.959389 20617 net.cpp:159] Memory required for data: 2440240
I0503 12:14:57.959398 20617 layer_factory.hpp:77] Creating layer relu3
I0503 12:14:57.959404 20617 net.cpp:94] Creating Layer relu3
I0503 12:14:57.959408 20617 net.cpp:435] relu3 <- conv3
I0503 12:14:57.959414 20617 net.cpp:396] relu3 -> conv3 (in-place)
I0503 12:14:57.959420 20617 net.cpp:144] Setting up relu3
I0503 12:14:57.959425 20617 net.cpp:151] Top shape: 20 128 5 5 (64000)
I0503 12:14:57.959429 20617 net.cpp:159] Memory required for data: 2696240
I0503 12:14:57.959431 20617 layer_factory.hpp:77] Creating layer conv4
I0503 12:14:57.959439 20617 net.cpp:94] Creating Layer conv4
I0503 12:14:57.959442 20617 net.cpp:435] conv4 <- conv3
I0503 12:14:57.959447 20617 net.cpp:409] conv4 -> conv4
I0503 12:14:57.972683 20617 net.cpp:144] Setting up conv4
I0503 12:14:57.972699 20617 net.cpp:151] Top shape: 20 128 5 5 (64000)
I0503 12:14:57.972703 20617 net.cpp:159] Memory required for data: 2952240
I0503 12:14:57.972710 20617 layer_factory.hpp:77] Creating layer relu4
I0503 12:14:57.972717 20617 net.cpp:94] Creating Layer relu4
I0503 12:14:57.972720 20617 net.cpp:435] relu4 <- conv4
I0503 12:14:57.972729 20617 net.cpp:396] relu4 -> conv4 (in-place)
I0503 12:14:57.972738 20617 net.cpp:144] Setting up relu4
I0503 12:14:57.972743 20617 net.cpp:151] Top shape: 20 128 5 5 (64000)
I0503 12:14:57.972745 20617 net.cpp:159] Memory required for data: 3208240
I0503 12:14:57.972748 20617 layer_factory.hpp:77] Creating layer conv5
I0503 12:14:57.972756 20617 net.cpp:94] Creating Layer conv5
I0503 12:14:57.972759 20617 net.cpp:435] conv5 <- conv4
I0503 12:14:57.972764 20617 net.cpp:409] conv5 -> conv5
I0503 12:14:57.986068 20617 net.cpp:144] Setting up conv5
I0503 12:14:57.986119 20617 net.cpp:151] Top shape: 20 128 5 5 (64000)
I0503 12:14:57.986132 20617 net.cpp:159] Memory required for data: 3464240
I0503 12:14:57.986155 20617 layer_factory.hpp:77] Creating layer relu5
I0503 12:14:57.986171 20617 net.cpp:94] Creating Layer relu5
I0503 12:14:57.986181 20617 net.cpp:435] relu5 <- conv5
I0503 12:14:57.986193 20617 net.cpp:396] relu5 -> conv5 (in-place)
I0503 12:14:57.986212 20617 net.cpp:144] Setting up relu5
I0503 12:14:57.986225 20617 net.cpp:151] Top shape: 20 128 5 5 (64000)
I0503 12:14:57.986234 20617 net.cpp:159] Memory required for data: 3720240
I0503 12:14:57.986243 20617 layer_factory.hpp:77] Creating layer pool5
I0503 12:14:57.986260 20617 net.cpp:94] Creating Layer pool5
I0503 12:14:57.986263 20617 net.cpp:435] pool5 <- conv5
I0503 12:14:57.986268 20617 net.cpp:409] pool5 -> pool5
I0503 12:14:57.986294 20617 net.cpp:144] Setting up pool5
I0503 12:14:57.986299 20617 net.cpp:151] Top shape: 20 128 2 2 (10240)
I0503 12:14:57.986302 20617 net.cpp:159] Memory required for data: 3761200
I0503 12:14:57.986305 20617 layer_factory.hpp:77] Creating layer ip1
I0503 12:14:57.986312 20617 net.cpp:94] Creating Layer ip1
I0503 12:14:57.986315 20617 net.cpp:435] ip1 <- pool5
I0503 12:14:57.986320 20617 net.cpp:409] ip1 -> ip1
I0503 12:14:57.999805 20617 net.cpp:144] Setting up ip1
I0503 12:14:57.999819 20617 net.cpp:151] Top shape: 20 1024 (20480)
I0503 12:14:57.999824 20617 net.cpp:159] Memory required for data: 3843120
I0503 12:14:57.999830 20617 layer_factory.hpp:77] Creating layer ip2
I0503 12:14:57.999836 20617 net.cpp:94] Creating Layer ip2
I0503 12:14:57.999840 20617 net.cpp:435] ip2 <- ip1
I0503 12:14:57.999845 20617 net.cpp:409] ip2 -> ip2
I0503 12:14:58.013288 20617 net.cpp:144] Setting up ip2
I0503 12:14:58.013303 20617 net.cpp:151] Top shape: 20 512 (10240)
I0503 12:14:58.013306 20617 net.cpp:159] Memory required for data: 3884080
I0503 12:14:58.013312 20617 layer_factory.hpp:77] Creating layer ip3
I0503 12:14:58.013320 20617 net.cpp:94] Creating Layer ip3
I0503 12:14:58.013324 20617 net.cpp:435] ip3 <- ip2
I0503 12:14:58.013329 20617 net.cpp:409] ip3 -> ip3
I0503 12:14:58.014041 20617 net.cpp:144] Setting up ip3
I0503 12:14:58.014050 20617 net.cpp:151] Top shape: 20 50 (1000)
I0503 12:14:58.014052 20617 net.cpp:159] Memory required for data: 3888080
I0503 12:14:58.014057 20617 layer_factory.hpp:77] Creating layer ip3_ip3_0_split
I0503 12:14:58.014063 20617 net.cpp:94] Creating Layer ip3_ip3_0_split
I0503 12:14:58.014066 20617 net.cpp:435] ip3_ip3_0_split <- ip3
I0503 12:14:58.014071 20617 net.cpp:409] ip3_ip3_0_split -> ip3_ip3_0_split_0
I0503 12:14:58.014076 20617 net.cpp:409] ip3_ip3_0_split -> ip3_ip3_0_split_1
I0503 12:14:58.014103 20617 net.cpp:144] Setting up ip3_ip3_0_split
I0503 12:14:58.014108 20617 net.cpp:151] Top shape: 20 50 (1000)
I0503 12:14:58.014112 20617 net.cpp:151] Top shape: 20 50 (1000)
I0503 12:14:58.014116 20617 net.cpp:159] Memory required for data: 3896080
I0503 12:14:58.014118 20617 layer_factory.hpp:77] Creating layer accuracy
I0503 12:14:58.014124 20617 net.cpp:94] Creating Layer accuracy
I0503 12:14:58.014127 20617 net.cpp:435] accuracy <- ip3_ip3_0_split_0
I0503 12:14:58.014132 20617 net.cpp:435] accuracy <- label_intercept_1_split_0
I0503 12:14:58.014137 20617 net.cpp:409] accuracy -> accuracy
…
