…
I0507 04:18:57.821143 31356 net.cpp:323] The NetState phase (0) differed from the phase (1) specified by a rule in layer intercept
I0507 04:18:57.821166 31356 net.cpp:323] The NetState phase (0) differed from the phase (1) specified by a rule in layer loss
I0507 04:18:57.821288 31356 net.cpp:52] Initializing net from parameters: 
state {
  phase: TRAIN
}
layer {
  name: "parameters"
  type: "HDF5Data"
  top: "data"
  top: "label"
  include {
    phase: TRAIN
  }
  hdf5_data_param {
    source: "/home/purduethu/scratch/radon/d/deng106/CNNStatisticalModel/distributions/input/50_distributions_100_sample_size_train-parameters-path.txt"
    batch_size: 20
  }
}
layer {
  name: "conv1"
  type: "Convolution"
  bottom: "data"
  top: "conv1"
  param {
    lr_mult: 1
  }
  param {
    lr_mult: 2
  }
  convolution_param {
    num_output: 64
    pad: 2
    kernel_size: 5
    stride: 1
    weight_filler {
      type: "gaussian"
      std: 0.0001
    }
    bias_filler {
      type: "constant"
    }
  }
}
layer {
  name: "relu1"
  type: "ReLU"
  bottom: "conv1"
  top: "conv1"
}
layer {
  name: "conv2"
  type: "Convolution"
  bottom: "conv1"
  top: "conv2"
  param {
    lr_mult: 1
  }
  param {
    lr_mult: 2
  }
  convolution_param {
    num_output: 64
    pad: 2
    kernel_size: 5
    stride: 1
    weight_filler {
      type: "gaussian"
      std: 0.01
    }
    bias_filler {
      type: "constant"
    }
  }
}
layer {
  name: "relu2"
  type: "ReLU"
  bottom: "conv2"
  top: "conv2"
}
layer {
  name: "pool2"
  type: "Pooling"
  bottom: "conv2"
  top: "pool2"
  pooling_param {
    pool: MAX
    kernel_size: 3
    stride: 2
  }
}
layer {
  name: "conv3"
  type: "Convolution"
  bottom: "pool2"
  top: "conv3"
  param {
    lr_mult: 1
  }
  param {
    lr_mult: 2
  }
  convolution_param {
    num_output: 64
    pad: 2
    kernel_size: 5
    stride: 1
    weight_filler {
      type: "gaussian"
      std: 0.01
    }
    bias_filler {
      type: "constant"
    }
  }
}
layer {
  name: "relu3"
  type: "ReLU"
  bottom: "conv3"
  top: "conv3"
}
layer {
  name: "conv4"
  type: "Convolution"
  bottom: "conv3"
  top: "conv4"
  param {
    lr_mult: 1
  }
  param {
    lr_mult: 2
  }
  convolution_param {
    num_output: 64
    pad: 2
    kernel_size: 5
    stride: 1
    weight_filler {
      type: "gaussian"
      std: 0.01
    }
    bias_filler {
      type: "constant"
    }
  }
}
layer {
  name: "relu4"
  type: "ReLU"
  bottom: "conv4"
  top: "conv4"
}
layer {
  name: "conv5"
  type: "Convolution"
  bottom: "conv4"
  top: "conv5"
  param {
    lr_mult: 1
  }
  param {
    lr_mult: 2
  }
  convolution_param {
    num_output: 64
    pad: 2
    kernel_size: 5
    stride: 1
    weight_filler {
      type: "gaussian"
      std: 0.01
    }
    bias_filler {
      type: "constant"
    }
  }
}
layer {
  name: "relu5"
  type: "ReLU"
  bottom: "conv5"
  top: "conv5"
}
layer {
  name: "pool5"
  type: "Pooling"
  bottom: "conv5"
  top: "pool5"
  pooling_param {
    pool: AVE
    kernel_size: 3
    stride: 2
  }
}
layer {
  name: "ip1"
  type: "InnerProduct"
  bottom: "pool5"
  top: "ip1"
  param {
    lr_mult: 1
  }
  param {
    lr_mult: 2
  }
  inner_product_param {
    num_output: 64
    weight_filler {
      type: "gaussian"
      std: 0.1
    }
    bias_filler {
      type: "constant"
    }
  }
}
layer {
  name: "ip2"
  type: "InnerProduct"
  bottom: "ip1"
  top: "ip2"
  param {
    lr_mult: 1
  }
  param {
    lr_mult: 2
  }
  inner_product_param {
    num_output: 64
    weight_filler {
      type: "gaussian"
      std: 0.1
    }
    bias_filler {
      type: "constant"
    }
  }
}
layer {
  name: "ip3"
  type: "InnerProduct"
  bottom: "ip2"
  top: "ip3"
  param {
    lr_mult: 1
  }
  param {
    lr_mult: 2
  }
  inner_product_param {
    num_output: 1
    weight_filler {
      type: "gaussian"
      std: 0.1
    }
    bias_filler {
      type: "constant"
    }
  }
}
layer {
  name: "loss"
  type: "HuberLoss"
  bottom: "ip3"
  bottom: "label"
  top: "loss"
  include {
    phase: TRAIN
  }
}
I0507 04:18:57.821367 31356 layer_factory.hpp:77] Creating layer parameters
I0507 04:18:57.821383 31356 net.cpp:94] Creating Layer parameters
I0507 04:18:57.821390 31356 net.cpp:409] parameters -> data
I0507 04:18:57.821403 31356 net.cpp:409] parameters -> label
I0507 04:18:57.821413 31356 hdf5_data_layer.cpp:79] Loading list of HDF5 filenames from: /home/purduethu/scratch/radon/d/deng106/CNNStatisticalModel/distributions/input/50_distributions_100_sample_size_train-parameters-path.txt
I0507 04:18:57.821434 31356 hdf5_data_layer.cpp:93] Number of HDF5 files: 1
I0507 04:18:57.822202 31356 hdf5.cpp:32] Datatype class: H5T_FLOAT
I0507 04:18:58.003176 31356 net.cpp:144] Setting up parameters
I0507 04:18:58.003209 31356 net.cpp:151] Top shape: 20 1 10 10 (2000)
I0507 04:18:58.003216 31356 net.cpp:151] Top shape: 20 (20)
I0507 04:18:58.003218 31356 net.cpp:159] Memory required for data: 8080
I0507 04:18:58.003226 31356 layer_factory.hpp:77] Creating layer conv1
I0507 04:18:58.003247 31356 net.cpp:94] Creating Layer conv1
I0507 04:18:58.003252 31356 net.cpp:435] conv1 <- data
I0507 04:18:58.003258 31356 net.cpp:409] conv1 -> conv1
I0507 04:18:58.007484 31356 net.cpp:144] Setting up conv1
I0507 04:18:58.007500 31356 net.cpp:151] Top shape: 20 64 10 10 (128000)
I0507 04:18:58.007504 31356 net.cpp:159] Memory required for data: 520080
I0507 04:18:58.007515 31356 layer_factory.hpp:77] Creating layer relu1
I0507 04:18:58.007524 31356 net.cpp:94] Creating Layer relu1
I0507 04:18:58.007527 31356 net.cpp:435] relu1 <- conv1
I0507 04:18:58.007532 31356 net.cpp:396] relu1 -> conv1 (in-place)
I0507 04:18:58.007545 31356 net.cpp:144] Setting up relu1
I0507 04:18:58.007550 31356 net.cpp:151] Top shape: 20 64 10 10 (128000)
I0507 04:18:58.007553 31356 net.cpp:159] Memory required for data: 1032080
I0507 04:18:58.007556 31356 layer_factory.hpp:77] Creating layer conv2
I0507 04:18:58.007565 31356 net.cpp:94] Creating Layer conv2
I0507 04:18:58.007567 31356 net.cpp:435] conv2 <- conv1
I0507 04:18:58.007572 31356 net.cpp:409] conv2 -> conv2
I0507 04:18:58.013644 31356 net.cpp:144] Setting up conv2
I0507 04:18:58.013659 31356 net.cpp:151] Top shape: 20 64 10 10 (128000)
I0507 04:18:58.013662 31356 net.cpp:159] Memory required for data: 1544080
I0507 04:18:58.013670 31356 layer_factory.hpp:77] Creating layer relu2
I0507 04:18:58.013677 31356 net.cpp:94] Creating Layer relu2
I0507 04:18:58.013681 31356 net.cpp:435] relu2 <- conv2
I0507 04:18:58.013685 31356 net.cpp:396] relu2 -> conv2 (in-place)
I0507 04:18:58.013692 31356 net.cpp:144] Setting up relu2
I0507 04:18:58.013696 31356 net.cpp:151] Top shape: 20 64 10 10 (128000)
I0507 04:18:58.013700 31356 net.cpp:159] Memory required for data: 2056080
I0507 04:18:58.013702 31356 layer_factory.hpp:77] Creating layer pool2
I0507 04:18:58.013708 31356 net.cpp:94] Creating Layer pool2
I0507 04:18:58.013711 31356 net.cpp:435] pool2 <- conv2
I0507 04:18:58.013715 31356 net.cpp:409] pool2 -> pool2
I0507 04:18:58.013766 31356 net.cpp:144] Setting up pool2
I0507 04:18:58.013772 31356 net.cpp:151] Top shape: 20 64 5 5 (32000)
I0507 04:18:58.013777 31356 net.cpp:159] Memory required for data: 2184080
I0507 04:18:58.013779 31356 layer_factory.hpp:77] Creating layer conv3
I0507 04:18:58.013787 31356 net.cpp:94] Creating Layer conv3
I0507 04:18:58.013790 31356 net.cpp:435] conv3 <- pool2
I0507 04:18:58.013802 31356 net.cpp:409] conv3 -> conv3
I0507 04:18:58.018676 31356 net.cpp:144] Setting up conv3
I0507 04:18:58.018690 31356 net.cpp:151] Top shape: 20 64 5 5 (32000)
I0507 04:18:58.018694 31356 net.cpp:159] Memory required for data: 2312080
I0507 04:18:58.018702 31356 layer_factory.hpp:77] Creating layer relu3
I0507 04:18:58.018708 31356 net.cpp:94] Creating Layer relu3
I0507 04:18:58.018712 31356 net.cpp:435] relu3 <- conv3
I0507 04:18:58.018717 31356 net.cpp:396] relu3 -> conv3 (in-place)
I0507 04:18:58.018723 31356 net.cpp:144] Setting up relu3
I0507 04:18:58.018728 31356 net.cpp:151] Top shape: 20 64 5 5 (32000)
I0507 04:18:58.018730 31356 net.cpp:159] Memory required for data: 2440080
I0507 04:18:58.018733 31356 layer_factory.hpp:77] Creating layer conv4
I0507 04:18:58.018743 31356 net.cpp:94] Creating Layer conv4
I0507 04:18:58.018746 31356 net.cpp:435] conv4 <- conv3
I0507 04:18:58.018750 31356 net.cpp:409] conv4 -> conv4
I0507 04:18:58.023154 31356 net.cpp:144] Setting up conv4
I0507 04:18:58.023166 31356 net.cpp:151] Top shape: 20 64 5 5 (32000)
I0507 04:18:58.023170 31356 net.cpp:159] Memory required for data: 2568080
I0507 04:18:58.023176 31356 layer_factory.hpp:77] Creating layer relu4
I0507 04:18:58.023182 31356 net.cpp:94] Creating Layer relu4
I0507 04:18:58.023185 31356 net.cpp:435] relu4 <- conv4
I0507 04:18:58.023190 31356 net.cpp:396] relu4 -> conv4 (in-place)
I0507 04:18:58.023196 31356 net.cpp:144] Setting up relu4
I0507 04:18:58.023201 31356 net.cpp:151] Top shape: 20 64 5 5 (32000)
I0507 04:18:58.023205 31356 net.cpp:159] Memory required for data: 2696080
I0507 04:18:58.023207 31356 layer_factory.hpp:77] Creating layer conv5
I0507 04:18:58.023216 31356 net.cpp:94] Creating Layer conv5
I0507 04:18:58.023218 31356 net.cpp:435] conv5 <- conv4
I0507 04:18:58.023223 31356 net.cpp:409] conv5 -> conv5
I0507 04:18:58.028090 31356 net.cpp:144] Setting up conv5
I0507 04:18:58.028103 31356 net.cpp:151] Top shape: 20 64 5 5 (32000)
I0507 04:18:58.028107 31356 net.cpp:159] Memory required for data: 2824080
I0507 04:18:58.028116 31356 layer_factory.hpp:77] Creating layer relu5
I0507 04:18:58.028122 31356 net.cpp:94] Creating Layer relu5
I0507 04:18:58.028126 31356 net.cpp:435] relu5 <- conv5
I0507 04:18:58.028131 31356 net.cpp:396] relu5 -> conv5 (in-place)
I0507 04:18:58.028137 31356 net.cpp:144] Setting up relu5
I0507 04:18:58.028141 31356 net.cpp:151] Top shape: 20 64 5 5 (32000)
I0507 04:18:58.028144 31356 net.cpp:159] Memory required for data: 2952080
I0507 04:18:58.028147 31356 layer_factory.hpp:77] Creating layer pool5
I0507 04:18:58.028153 31356 net.cpp:94] Creating Layer pool5
I0507 04:18:58.028156 31356 net.cpp:435] pool5 <- conv5
I0507 04:18:58.028161 31356 net.cpp:409] pool5 -> pool5
I0507 04:18:58.028197 31356 net.cpp:144] Setting up pool5
I0507 04:18:58.028203 31356 net.cpp:151] Top shape: 20 64 2 2 (5120)
I0507 04:18:58.028206 31356 net.cpp:159] Memory required for data: 2972560
I0507 04:18:58.028209 31356 layer_factory.hpp:77] Creating layer ip1
I0507 04:18:58.028218 31356 net.cpp:94] Creating Layer ip1
I0507 04:18:58.028223 31356 net.cpp:435] ip1 <- pool5
I0507 04:18:58.028226 31356 net.cpp:409] ip1 -> ip1
I0507 04:18:58.029578 31356 net.cpp:144] Setting up ip1
I0507 04:18:58.029592 31356 net.cpp:151] Top shape: 20 64 (1280)
I0507 04:18:58.029597 31356 net.cpp:159] Memory required for data: 2977680
I0507 04:18:58.029603 31356 layer_factory.hpp:77] Creating layer ip2
I0507 04:18:58.029610 31356 net.cpp:94] Creating Layer ip2
I0507 04:18:58.029614 31356 net.cpp:435] ip2 <- ip1
I0507 04:18:58.029619 31356 net.cpp:409] ip2 -> ip2
I0507 04:18:58.029834 31356 net.cpp:144] Setting up ip2
I0507 04:18:58.029840 31356 net.cpp:151] Top shape: 20 64 (1280)
I0507 04:18:58.029844 31356 net.cpp:159] Memory required for data: 2982800
I0507 04:18:58.029848 31356 layer_factory.hpp:77] Creating layer ip3
I0507 04:18:58.029855 31356 net.cpp:94] Creating Layer ip3
I0507 04:18:58.029857 31356 net.cpp:435] ip3 <- ip2
I0507 04:18:58.029862 31356 net.cpp:409] ip3 -> ip3
I0507 04:18:58.029968 31356 net.cpp:144] Setting up ip3
I0507 04:18:58.029975 31356 net.cpp:151] Top shape: 20 1 (20)
I0507 04:18:58.029978 31356 net.cpp:159] Memory required for data: 2982880
I0507 04:18:58.029983 31356 layer_factory.hpp:77] Creating layer loss
I0507 04:18:58.029990 31356 net.cpp:94] Creating Layer loss
I0507 04:18:58.029994 31356 net.cpp:435] loss <- ip3
I0507 04:18:58.029997 31356 net.cpp:435] loss <- label
I0507 04:18:58.030001 31356 net.cpp:409] loss -> loss
I0507 04:18:58.030053 31356 net.cpp:144] Setting up loss
…
I0507 04:18:58.091784 31356 net.cpp:323] The NetState phase (0) differed from the phase (1) specified by a rule in layer intercept
I0507 04:18:58.091800 31356 net.cpp:323] The NetState phase (0) differed from the phase (1) specified by a rule in layer accuracy
I0507 04:18:58.091891 31356 net.cpp:52] Initializing net from parameters: 
state {
  phase: TRAIN
}
layer {
  name: "parameters"
  type: "HDF5Data"
  top: "data"
  top: "label"
  include {
    phase: TRAIN
  }
  hdf5_data_param {
    source: "/home/purduethu/scratch/radon/d/deng106/CNNStatisticalModel/distributions/input/50_distributions_100_sample_size_train-distributions-path.txt"
    batch_size: 20
  }
}
layer {
  name: "conv1"
  type: "Convolution"
  bottom: "data"
  top: "conv1"
  param {
    lr_mult: 1
  }
  param {
    lr_mult: 2
  }
  convolution_param {
    num_output: 64
    pad: 2
    kernel_size: 5
    stride: 1
    weight_filler {
      type: "gaussian"
      std: 0.0001
    }
    bias_filler {
      type: "constant"
    }
  }
}
layer {
  name: "relu1"
  type: "ReLU"
  bottom: "conv1"
  top: "conv1"
}
layer {
  name: "conv2"
  type: "Convolution"
  bottom: "conv1"
  top: "conv2"
  param {
    lr_mult: 1
  }
  param {
    lr_mult: 2
  }
  convolution_param {
    num_output: 64
    pad: 2
    kernel_size: 5
    stride: 1
    weight_filler {
      type: "gaussian"
      std: 0.01
    }
    bias_filler {
      type: "constant"
    }
  }
}
layer {
  name: "relu2"
  type: "ReLU"
  bottom: "conv2"
  top: "conv2"
}
layer {
  name: "pool2"
  type: "Pooling"
  bottom: "conv2"
  top: "pool2"
  pooling_param {
    pool: MAX
    kernel_size: 3
    stride: 2
  }
}
layer {
  name: "conv3"
  type: "Convolution"
  bottom: "pool2"
  top: "conv3"
  param {
    lr_mult: 1
  }
  param {
    lr_mult: 2
  }
  convolution_param {
    num_output: 64
    pad: 2
    kernel_size: 5
    stride: 1
    weight_filler {
      type: "gaussian"
      std: 0.01
    }
    bias_filler {
      type: "constant"
    }
  }
}
layer {
  name: "relu3"
  type: "ReLU"
  bottom: "conv3"
  top: "conv3"
}
layer {
  name: "conv4"
  type: "Convolution"
  bottom: "conv3"
  top: "conv4"
  param {
    lr_mult: 1
  }
  param {
    lr_mult: 2
  }
  convolution_param {
    num_output: 64
    pad: 2
    kernel_size: 5
    stride: 1
    weight_filler {
      type: "gaussian"
      std: 0.01
    }
    bias_filler {
      type: "constant"
    }
  }
}
layer {
  name: "relu4"
  type: "ReLU"
  bottom: "conv4"
  top: "conv4"
}
layer {
  name: "conv5"
  type: "Convolution"
  bottom: "conv4"
  top: "conv5"
  param {
    lr_mult: 1
  }
  param {
    lr_mult: 2
  }
  convolution_param {
    num_output: 64
    pad: 2
    kernel_size: 5
    stride: 1
    weight_filler {
      type: "gaussian"
      std: 0.01
    }
    bias_filler {
      type: "constant"
    }
  }
}
layer {
  name: "relu5"
  type: "ReLU"
  bottom: "conv5"
  top: "conv5"
}
layer {
  name: "pool5"
  type: "Pooling"
  bottom: "conv5"
  top: "pool5"
  pooling_param {
    pool: AVE
    kernel_size: 3
    stride: 2
  }
}
layer {
  name: "ip1"
  type: "InnerProduct"
  bottom: "pool5"
  top: "ip1"
  param {
    lr_mult: 1
  }
  param {
    lr_mult: 2
  }
  inner_product_param {
    num_output: 64
    weight_filler {
      type: "gaussian"
      std: 0.1
    }
    bias_filler {
      type: "constant"
    }
  }
}
layer {
  name: "ip2"
  type: "InnerProduct"
  bottom: "ip1"
  top: "ip2"
  param {
    lr_mult: 1
  }
  param {
    lr_mult: 2
  }
  inner_product_param {
    num_output: 64
    weight_filler {
      type: "gaussian"
      std: 0.1
    }
    bias_filler {
      type: "constant"
    }
  }
}
layer {
  name: "ip3"
  type: "InnerProduct"
  bottom: "ip2"
  top: "ip3"
  param {
    lr_mult: 1
  }
  param {
    lr_mult: 2
  }
  inner_product_param {
    num_output: 50
    weight_filler {
      type: "gaussian"
      std: 0.1
    }
    bias_filler {
      type: "constant"
    }
  }
}
layer {
  name: "loss"
  type: "SoftmaxWithLoss"
  bottom: "ip3"
  bottom: "label"
  top: "loss"
}
I0507 04:18:58.091943 31356 layer_factory.hpp:77] Creating layer parameters
I0507 04:18:58.091951 31356 net.cpp:94] Creating Layer parameters
I0507 04:18:58.091955 31356 net.cpp:409] parameters -> data
I0507 04:18:58.091961 31356 net.cpp:409] parameters -> label
I0507 04:18:58.091967 31356 hdf5_data_layer.cpp:79] Loading list of HDF5 filenames from: /home/purduethu/scratch/radon/d/deng106/CNNStatisticalModel/distributions/input/50_distributions_100_sample_size_train-distributions-path.txt
I0507 04:18:58.091984 31356 hdf5_data_layer.cpp:93] Number of HDF5 files: 1
I0507 04:18:58.252310 31356 hdf5.cpp:35] Datatype class: H5T_INTEGER
I0507 04:18:58.255393 31356 net.cpp:144] Setting up parameters
I0507 04:18:58.255414 31356 net.cpp:151] Top shape: 20 1 10 10 (2000)
I0507 04:18:58.255419 31356 net.cpp:151] Top shape: 20 (20)
I0507 04:18:58.255424 31356 net.cpp:159] Memory required for data: 8080
I0507 04:18:58.255429 31356 layer_factory.hpp:77] Creating layer conv1
I0507 04:18:58.255445 31356 net.cpp:94] Creating Layer conv1
I0507 04:18:58.255450 31356 net.cpp:435] conv1 <- data
I0507 04:18:58.255455 31356 net.cpp:409] conv1 -> conv1
I0507 04:18:58.257206 31356 net.cpp:144] Setting up conv1
I0507 04:18:58.257220 31356 net.cpp:151] Top shape: 20 64 10 10 (128000)
I0507 04:18:58.257225 31356 net.cpp:159] Memory required for data: 520080
I0507 04:18:58.257236 31356 layer_factory.hpp:77] Creating layer relu1
I0507 04:18:58.257242 31356 net.cpp:94] Creating Layer relu1
I0507 04:18:58.257246 31356 net.cpp:435] relu1 <- conv1
I0507 04:18:58.257251 31356 net.cpp:396] relu1 -> conv1 (in-place)
I0507 04:18:58.257258 31356 net.cpp:144] Setting up relu1
I0507 04:18:58.257262 31356 net.cpp:151] Top shape: 20 64 10 10 (128000)
I0507 04:18:58.257266 31356 net.cpp:159] Memory required for data: 1032080
I0507 04:18:58.257268 31356 layer_factory.hpp:77] Creating layer conv2
I0507 04:18:58.257277 31356 net.cpp:94] Creating Layer conv2
I0507 04:18:58.257279 31356 net.cpp:435] conv2 <- conv1
I0507 04:18:58.257284 31356 net.cpp:409] conv2 -> conv2
I0507 04:18:58.262610 31356 net.cpp:144] Setting up conv2
I0507 04:18:58.262624 31356 net.cpp:151] Top shape: 20 64 10 10 (128000)
I0507 04:18:58.262627 31356 net.cpp:159] Memory required for data: 1544080
I0507 04:18:58.262636 31356 layer_factory.hpp:77] Creating layer relu2
I0507 04:18:58.262642 31356 net.cpp:94] Creating Layer relu2
I0507 04:18:58.262646 31356 net.cpp:435] relu2 <- conv2
I0507 04:18:58.262650 31356 net.cpp:396] relu2 -> conv2 (in-place)
I0507 04:18:58.262657 31356 net.cpp:144] Setting up relu2
I0507 04:18:58.262661 31356 net.cpp:151] Top shape: 20 64 10 10 (128000)
I0507 04:18:58.262665 31356 net.cpp:159] Memory required for data: 2056080
I0507 04:18:58.262667 31356 layer_factory.hpp:77] Creating layer pool2
I0507 04:18:58.262673 31356 net.cpp:94] Creating Layer pool2
I0507 04:18:58.262676 31356 net.cpp:435] pool2 <- conv2
I0507 04:18:58.262681 31356 net.cpp:409] pool2 -> pool2
I0507 04:18:58.262729 31356 net.cpp:144] Setting up pool2
I0507 04:18:58.262735 31356 net.cpp:151] Top shape: 20 64 5 5 (32000)
I0507 04:18:58.262739 31356 net.cpp:159] Memory required for data: 2184080
I0507 04:18:58.262742 31356 layer_factory.hpp:77] Creating layer conv3
I0507 04:18:58.262749 31356 net.cpp:94] Creating Layer conv3
I0507 04:18:58.262753 31356 net.cpp:435] conv3 <- pool2
I0507 04:18:58.262758 31356 net.cpp:409] conv3 -> conv3
I0507 04:18:58.268558 31356 net.cpp:144] Setting up conv3
I0507 04:18:58.268573 31356 net.cpp:151] Top shape: 20 64 5 5 (32000)
I0507 04:18:58.268576 31356 net.cpp:159] Memory required for data: 2312080
I0507 04:18:58.268585 31356 layer_factory.hpp:77] Creating layer relu3
I0507 04:18:58.268590 31356 net.cpp:94] Creating Layer relu3
I0507 04:18:58.268594 31356 net.cpp:435] relu3 <- conv3
I0507 04:18:58.268599 31356 net.cpp:396] relu3 -> conv3 (in-place)
I0507 04:18:58.268605 31356 net.cpp:144] Setting up relu3
I0507 04:18:58.268610 31356 net.cpp:151] Top shape: 20 64 5 5 (32000)
I0507 04:18:58.268618 31356 net.cpp:159] Memory required for data: 2440080
I0507 04:18:58.268622 31356 layer_factory.hpp:77] Creating layer conv4
I0507 04:18:58.268630 31356 net.cpp:94] Creating Layer conv4
I0507 04:18:58.268635 31356 net.cpp:435] conv4 <- conv3
I0507 04:18:58.268640 31356 net.cpp:409] conv4 -> conv4
I0507 04:18:58.273533 31356 net.cpp:144] Setting up conv4
I0507 04:18:58.273547 31356 net.cpp:151] Top shape: 20 64 5 5 (32000)
I0507 04:18:58.273551 31356 net.cpp:159] Memory required for data: 2568080
I0507 04:18:58.273557 31356 layer_factory.hpp:77] Creating layer relu4
I0507 04:18:58.273563 31356 net.cpp:94] Creating Layer relu4
I0507 04:18:58.273567 31356 net.cpp:435] relu4 <- conv4
I0507 04:18:58.273571 31356 net.cpp:396] relu4 -> conv4 (in-place)
I0507 04:18:58.273578 31356 net.cpp:144] Setting up relu4
I0507 04:18:58.273582 31356 net.cpp:151] Top shape: 20 64 5 5 (32000)
I0507 04:18:58.273586 31356 net.cpp:159] Memory required for data: 2696080
I0507 04:18:58.273588 31356 layer_factory.hpp:77] Creating layer conv5
I0507 04:18:58.273596 31356 net.cpp:94] Creating Layer conv5
I0507 04:18:58.273599 31356 net.cpp:435] conv5 <- conv4
I0507 04:18:58.273603 31356 net.cpp:409] conv5 -> conv5
I0507 04:18:58.278028 31356 net.cpp:144] Setting up conv5
I0507 04:18:58.278040 31356 net.cpp:151] Top shape: 20 64 5 5 (32000)
I0507 04:18:58.278044 31356 net.cpp:159] Memory required for data: 2824080
I0507 04:18:58.278053 31356 layer_factory.hpp:77] Creating layer relu5
I0507 04:18:58.278059 31356 net.cpp:94] Creating Layer relu5
I0507 04:18:58.278062 31356 net.cpp:435] relu5 <- conv5
I0507 04:18:58.278066 31356 net.cpp:396] relu5 -> conv5 (in-place)
I0507 04:18:58.278074 31356 net.cpp:144] Setting up relu5
I0507 04:18:58.278077 31356 net.cpp:151] Top shape: 20 64 5 5 (32000)
I0507 04:18:58.278080 31356 net.cpp:159] Memory required for data: 2952080
I0507 04:18:58.278084 31356 layer_factory.hpp:77] Creating layer pool5
I0507 04:18:58.278089 31356 net.cpp:94] Creating Layer pool5
I0507 04:18:58.278091 31356 net.cpp:435] pool5 <- conv5
I0507 04:18:58.278095 31356 net.cpp:409] pool5 -> pool5
I0507 04:18:58.278129 31356 net.cpp:144] Setting up pool5
I0507 04:18:58.278136 31356 net.cpp:151] Top shape: 20 64 2 2 (5120)
I0507 04:18:58.278139 31356 net.cpp:159] Memory required for data: 2972560
I0507 04:18:58.278142 31356 layer_factory.hpp:77] Creating layer ip1
I0507 04:18:58.278149 31356 net.cpp:94] Creating Layer ip1
I0507 04:18:58.278152 31356 net.cpp:435] ip1 <- pool5
I0507 04:18:58.278157 31356 net.cpp:409] ip1 -> ip1
I0507 04:18:58.278703 31356 net.cpp:144] Setting up ip1
I0507 04:18:58.278710 31356 net.cpp:151] Top shape: 20 64 (1280)
I0507 04:18:58.278713 31356 net.cpp:159] Memory required for data: 2977680
I0507 04:18:58.278718 31356 layer_factory.hpp:77] Creating layer ip2
I0507 04:18:58.278724 31356 net.cpp:94] Creating Layer ip2
I0507 04:18:58.278728 31356 net.cpp:435] ip2 <- ip1
I0507 04:18:58.278733 31356 net.cpp:409] ip2 -> ip2
I0507 04:18:58.278956 31356 net.cpp:144] Setting up ip2
I0507 04:18:58.278964 31356 net.cpp:151] Top shape: 20 64 (1280)
I0507 04:18:58.278966 31356 net.cpp:159] Memory required for data: 2982800
I0507 04:18:58.278971 31356 layer_factory.hpp:77] Creating layer ip3
I0507 04:18:58.278976 31356 net.cpp:94] Creating Layer ip3
I0507 04:18:58.278980 31356 net.cpp:435] ip3 <- ip2
I0507 04:18:58.278985 31356 net.cpp:409] ip3 -> ip3
I0507 04:18:58.279180 31356 net.cpp:144] Setting up ip3
I0507 04:18:58.279188 31356 net.cpp:151] Top shape: 20 50 (1000)
I0507 04:18:58.279191 31356 net.cpp:159] Memory required for data: 2986800
I0507 04:18:58.279197 31356 layer_factory.hpp:77] Creating layer loss
I0507 04:18:58.279203 31356 net.cpp:94] Creating Layer loss
I0507 04:18:58.279206 31356 net.cpp:435] loss <- ip3
I0507 04:18:58.279211 31356 net.cpp:435] loss <- label
I0507 04:18:58.279216 31356 net.cpp:409] loss -> loss
I0507 04:18:58.279222 31356 layer_factory.hpp:77] Creating layer loss
…
I0507 04:18:58.280580 31356 solver.cpp:181] Creating test net (#0) specified by net file: ./protocol/dis_50_100_dimension.protocol_distribution
I0507 04:18:58.280607 31356 net.cpp:323] The NetState phase (1) differed from the phase (0) specified by a rule in layer parameters
I0507 04:18:58.280704 31356 net.cpp:52] Initializing net from parameters: 
state {
  phase: TEST
}
layer {
  name: "intercept"
  type: "HDF5Data"
  top: "data"
  top: "label"
  include {
    phase: TEST
  }
  hdf5_data_param {
    source: "/home/purduethu/scratch/radon/d/deng106/CNNStatisticalModel/distributions/input/50_distributions_100_sample_size_test-distributions-path.txt"
    batch_size: 20
  }
}
layer {
  name: "conv1"
  type: "Convolution"
  bottom: "data"
  top: "conv1"
  param {
    lr_mult: 1
  }
  param {
    lr_mult: 2
  }
  convolution_param {
    num_output: 64
    pad: 2
    kernel_size: 5
    stride: 1
    weight_filler {
      type: "gaussian"
      std: 0.0001
    }
    bias_filler {
      type: "constant"
    }
  }
}
layer {
  name: "relu1"
  type: "ReLU"
  bottom: "conv1"
  top: "conv1"
}
layer {
  name: "conv2"
  type: "Convolution"
  bottom: "conv1"
  top: "conv2"
  param {
    lr_mult: 1
  }
  param {
    lr_mult: 2
  }
  convolution_param {
    num_output: 64
    pad: 2
    kernel_size: 5
    stride: 1
    weight_filler {
      type: "gaussian"
      std: 0.01
    }
    bias_filler {
      type: "constant"
    }
  }
}
layer {
  name: "relu2"
  type: "ReLU"
  bottom: "conv2"
  top: "conv2"
}
layer {
  name: "pool2"
  type: "Pooling"
  bottom: "conv2"
  top: "pool2"
  pooling_param {
    pool: MAX
    kernel_size: 3
    stride: 2
  }
}
layer {
  name: "conv3"
  type: "Convolution"
  bottom: "pool2"
  top: "conv3"
  param {
    lr_mult: 1
  }
  param {
    lr_mult: 2
  }
  convolution_param {
    num_output: 64
    pad: 2
    kernel_size: 5
    stride: 1
    weight_filler {
      type: "gaussian"
      std: 0.01
    }
    bias_filler {
      type: "constant"
    }
  }
}
layer {
  name: "relu3"
  type: "ReLU"
  bottom: "conv3"
  top: "conv3"
}
layer {
  name: "conv4"
  type: "Convolution"
  bottom: "conv3"
  top: "conv4"
  param {
    lr_mult: 1
  }
  param {
    lr_mult: 2
  }
  convolution_param {
    num_output: 64
    pad: 2
    kernel_size: 5
    stride: 1
    weight_filler {
      type: "gaussian"
      std: 0.01
    }
    bias_filler {
      type: "constant"
    }
  }
}
layer {
  name: "relu4"
  type: "ReLU"
  bottom: "conv4"
  top: "conv4"
}
layer {
  name: "conv5"
  type: "Convolution"
  bottom: "conv4"
  top: "conv5"
  param {
    lr_mult: 1
  }
  param {
    lr_mult: 2
  }
  convolution_param {
    num_output: 64
    pad: 2
    kernel_size: 5
    stride: 1
    weight_filler {
      type: "gaussian"
      std: 0.01
    }
    bias_filler {
      type: "constant"
    }
  }
}
layer {
  name: "relu5"
  type: "ReLU"
  bottom: "conv5"
  top: "conv5"
}
layer {
  name: "pool5"
  type: "Pooling"
  bottom: "conv5"
  top: "pool5"
  pooling_param {
    pool: AVE
    kernel_size: 3
    stride: 2
  }
}
layer {
  name: "ip1"
  type: "InnerProduct"
  bottom: "pool5"
  top: "ip1"
  param {
    lr_mult: 1
  }
  param {
    lr_mult: 2
  }
  inner_product_param {
    num_output: 64
    weight_filler {
      type: "gaussian"
      std: 0.1
    }
    bias_filler {
      type: "constant"
    }
  }
}
layer {
  name: "ip2"
  type: "InnerProduct"
  bottom: "ip1"
  top: "ip2"
  param {
    lr_mult: 1
  }
  param {
    lr_mult: 2
  }
  inner_product_param {
    num_output: 64
    weight_filler {
      type: "gaussian"
      std: 0.1
    }
    bias_filler {
      type: "constant"
    }
  }
}
layer {
  name: "ip3"
  type: "InnerProduct"
  bottom: "ip2"
  top: "ip3"
  param {
    lr_mult: 1
  }
  param {
    lr_mult: 2
  }
  inner_product_param {
    num_output: 50
    weight_filler {
      type: "gaussian"
      std: 0.1
    }
    bias_filler {
      type: "constant"
    }
  }
}
layer {
  name: "accuracy"
  type: "Accuracy"
  bottom: "ip3"
  bottom: "label"
  top: "accuracy"
  include {
    phase: TEST
  }
}
layer {
  name: "loss"
  type: "SoftmaxWithLoss"
  bottom: "ip3"
  bottom: "label"
  top: "loss"
}
I0507 04:18:58.280771 31356 layer_factory.hpp:77] Creating layer intercept
I0507 04:18:58.280781 31356 net.cpp:94] Creating Layer intercept
I0507 04:18:58.280784 31356 net.cpp:409] intercept -> data
I0507 04:18:58.280791 31356 net.cpp:409] intercept -> label
I0507 04:18:58.280797 31356 hdf5_data_layer.cpp:79] Loading list of HDF5 filenames from: /home/purduethu/scratch/radon/d/deng106/CNNStatisticalModel/distributions/input/50_distributions_100_sample_size_test-distributions-path.txt
I0507 04:18:58.280815 31356 hdf5_data_layer.cpp:93] Number of HDF5 files: 1
I0507 04:18:58.322839 31356 net.cpp:144] Setting up intercept
I0507 04:18:58.322875 31356 net.cpp:151] Top shape: 20 1 10 10 (2000)
I0507 04:18:58.322880 31356 net.cpp:151] Top shape: 20 (20)
I0507 04:18:58.322882 31356 net.cpp:159] Memory required for data: 8080
I0507 04:18:58.322888 31356 layer_factory.hpp:77] Creating layer label_intercept_1_split
I0507 04:18:58.322906 31356 net.cpp:94] Creating Layer label_intercept_1_split
I0507 04:18:58.322911 31356 net.cpp:435] label_intercept_1_split <- label
I0507 04:18:58.322917 31356 net.cpp:409] label_intercept_1_split -> label_intercept_1_split_0
I0507 04:18:58.322926 31356 net.cpp:409] label_intercept_1_split -> label_intercept_1_split_1
I0507 04:18:58.322965 31356 net.cpp:144] Setting up label_intercept_1_split
I0507 04:18:58.322971 31356 net.cpp:151] Top shape: 20 (20)
I0507 04:18:58.322975 31356 net.cpp:151] Top shape: 20 (20)
I0507 04:18:58.322978 31356 net.cpp:159] Memory required for data: 8240
I0507 04:18:58.322981 31356 layer_factory.hpp:77] Creating layer conv1
I0507 04:18:58.322993 31356 net.cpp:94] Creating Layer conv1
I0507 04:18:58.322996 31356 net.cpp:435] conv1 <- data
I0507 04:18:58.323001 31356 net.cpp:409] conv1 -> conv1
I0507 04:18:58.323804 31356 net.cpp:144] Setting up conv1
I0507 04:18:58.323818 31356 net.cpp:151] Top shape: 20 64 10 10 (128000)
I0507 04:18:58.323822 31356 net.cpp:159] Memory required for data: 520240
I0507 04:18:58.323832 31356 layer_factory.hpp:77] Creating layer relu1
I0507 04:18:58.323838 31356 net.cpp:94] Creating Layer relu1
I0507 04:18:58.323842 31356 net.cpp:435] relu1 <- conv1
I0507 04:18:58.323845 31356 net.cpp:396] relu1 -> conv1 (in-place)
I0507 04:18:58.323853 31356 net.cpp:144] Setting up relu1
I0507 04:18:58.323858 31356 net.cpp:151] Top shape: 20 64 10 10 (128000)
I0507 04:18:58.323860 31356 net.cpp:159] Memory required for data: 1032240
I0507 04:18:58.323871 31356 layer_factory.hpp:77] Creating layer conv2
I0507 04:18:58.323880 31356 net.cpp:94] Creating Layer conv2
I0507 04:18:58.323884 31356 net.cpp:435] conv2 <- conv1
I0507 04:18:58.323889 31356 net.cpp:409] conv2 -> conv2
I0507 04:18:58.328016 31356 net.cpp:144] Setting up conv2
I0507 04:18:58.328030 31356 net.cpp:151] Top shape: 20 64 10 10 (128000)
I0507 04:18:58.328033 31356 net.cpp:159] Memory required for data: 1544240
I0507 04:18:58.328042 31356 layer_factory.hpp:77] Creating layer relu2
I0507 04:18:58.328047 31356 net.cpp:94] Creating Layer relu2
I0507 04:18:58.328052 31356 net.cpp:435] relu2 <- conv2
I0507 04:18:58.328055 31356 net.cpp:396] relu2 -> conv2 (in-place)
I0507 04:18:58.328061 31356 net.cpp:144] Setting up relu2
I0507 04:18:58.328066 31356 net.cpp:151] Top shape: 20 64 10 10 (128000)
I0507 04:18:58.328069 31356 net.cpp:159] Memory required for data: 2056240
I0507 04:18:58.328073 31356 layer_factory.hpp:77] Creating layer pool2
I0507 04:18:58.328079 31356 net.cpp:94] Creating Layer pool2
I0507 04:18:58.328083 31356 net.cpp:435] pool2 <- conv2
I0507 04:18:58.328086 31356 net.cpp:409] pool2 -> pool2
I0507 04:18:58.328140 31356 net.cpp:144] Setting up pool2
I0507 04:18:58.328145 31356 net.cpp:151] Top shape: 20 64 5 5 (32000)
I0507 04:18:58.328148 31356 net.cpp:159] Memory required for data: 2184240
I0507 04:18:58.328151 31356 layer_factory.hpp:77] Creating layer conv3
I0507 04:18:58.328161 31356 net.cpp:94] Creating Layer conv3
I0507 04:18:58.328163 31356 net.cpp:435] conv3 <- pool2
I0507 04:18:58.328169 31356 net.cpp:409] conv3 -> conv3
I0507 04:18:58.332654 31356 net.cpp:144] Setting up conv3
I0507 04:18:58.332669 31356 net.cpp:151] Top shape: 20 64 5 5 (32000)
I0507 04:18:58.332672 31356 net.cpp:159] Memory required for data: 2312240
I0507 04:18:58.332680 31356 layer_factory.hpp:77] Creating layer relu3
I0507 04:18:58.332689 31356 net.cpp:94] Creating Layer relu3
I0507 04:18:58.332692 31356 net.cpp:435] relu3 <- conv3
I0507 04:18:58.332696 31356 net.cpp:396] relu3 -> conv3 (in-place)
I0507 04:18:58.332703 31356 net.cpp:144] Setting up relu3
I0507 04:18:58.332708 31356 net.cpp:151] Top shape: 20 64 5 5 (32000)
I0507 04:18:58.332711 31356 net.cpp:159] Memory required for data: 2440240
I0507 04:18:58.332715 31356 layer_factory.hpp:77] Creating layer conv4
I0507 04:18:58.332722 31356 net.cpp:94] Creating Layer conv4
I0507 04:18:58.332726 31356 net.cpp:435] conv4 <- conv3
I0507 04:18:58.332731 31356 net.cpp:409] conv4 -> conv4
I0507 04:18:58.336310 31356 net.cpp:144] Setting up conv4
I0507 04:18:58.336323 31356 net.cpp:151] Top shape: 20 64 5 5 (32000)
I0507 04:18:58.336328 31356 net.cpp:159] Memory required for data: 2568240
I0507 04:18:58.336333 31356 layer_factory.hpp:77] Creating layer relu4
I0507 04:18:58.336339 31356 net.cpp:94] Creating Layer relu4
I0507 04:18:58.336344 31356 net.cpp:435] relu4 <- conv4
I0507 04:18:58.336347 31356 net.cpp:396] relu4 -> conv4 (in-place)
I0507 04:18:58.336354 31356 net.cpp:144] Setting up relu4
I0507 04:18:58.336359 31356 net.cpp:151] Top shape: 20 64 5 5 (32000)
I0507 04:18:58.336361 31356 net.cpp:159] Memory required for data: 2696240
I0507 04:18:58.336364 31356 layer_factory.hpp:77] Creating layer conv5
I0507 04:18:58.336372 31356 net.cpp:94] Creating Layer conv5
I0507 04:18:58.336376 31356 net.cpp:435] conv5 <- conv4
I0507 04:18:58.336381 31356 net.cpp:409] conv5 -> conv5
I0507 04:18:58.340423 31356 net.cpp:144] Setting up conv5
I0507 04:18:58.340437 31356 net.cpp:151] Top shape: 20 64 5 5 (32000)
I0507 04:18:58.340441 31356 net.cpp:159] Memory required for data: 2824240
I0507 04:18:58.340450 31356 layer_factory.hpp:77] Creating layer relu5
I0507 04:18:58.340456 31356 net.cpp:94] Creating Layer relu5
I0507 04:18:58.340458 31356 net.cpp:435] relu5 <- conv5
I0507 04:18:58.340464 31356 net.cpp:396] relu5 -> conv5 (in-place)
I0507 04:18:58.340471 31356 net.cpp:144] Setting up relu5
I0507 04:18:58.340474 31356 net.cpp:151] Top shape: 20 64 5 5 (32000)
I0507 04:18:58.340477 31356 net.cpp:159] Memory required for data: 2952240
I0507 04:18:58.340484 31356 layer_factory.hpp:77] Creating layer pool5
I0507 04:18:58.340490 31356 net.cpp:94] Creating Layer pool5
I0507 04:18:58.340493 31356 net.cpp:435] pool5 <- conv5
I0507 04:18:58.340498 31356 net.cpp:409] pool5 -> pool5
I0507 04:18:58.340534 31356 net.cpp:144] Setting up pool5
I0507 04:18:58.340541 31356 net.cpp:151] Top shape: 20 64 2 2 (5120)
I0507 04:18:58.340544 31356 net.cpp:159] Memory required for data: 2972720
I0507 04:18:58.340548 31356 layer_factory.hpp:77] Creating layer ip1
I0507 04:18:58.340564 31356 net.cpp:94] Creating Layer ip1
I0507 04:18:58.340569 31356 net.cpp:435] ip1 <- pool5
I0507 04:18:58.340574 31356 net.cpp:409] ip1 -> ip1
I0507 04:18:58.341109 31356 net.cpp:144] Setting up ip1
I0507 04:18:58.341116 31356 net.cpp:151] Top shape: 20 64 (1280)
I0507 04:18:58.341120 31356 net.cpp:159] Memory required for data: 2977840
I0507 04:18:58.341125 31356 layer_factory.hpp:77] Creating layer ip2
I0507 04:18:58.341131 31356 net.cpp:94] Creating Layer ip2
I0507 04:18:58.341135 31356 net.cpp:435] ip2 <- ip1
I0507 04:18:58.341140 31356 net.cpp:409] ip2 -> ip2
I0507 04:18:58.341367 31356 net.cpp:144] Setting up ip2
I0507 04:18:58.341374 31356 net.cpp:151] Top shape: 20 64 (1280)
I0507 04:18:58.341377 31356 net.cpp:159] Memory required for data: 2982960
I0507 04:18:58.341382 31356 layer_factory.hpp:77] Creating layer ip3
I0507 04:18:58.341388 31356 net.cpp:94] Creating Layer ip3
I0507 04:18:58.341392 31356 net.cpp:435] ip3 <- ip2
I0507 04:18:58.341398 31356 net.cpp:409] ip3 -> ip3
I0507 04:18:58.341596 31356 net.cpp:144] Setting up ip3
I0507 04:18:58.341603 31356 net.cpp:151] Top shape: 20 50 (1000)
I0507 04:18:58.341608 31356 net.cpp:159] Memory required for data: 2986960
I0507 04:18:58.341612 31356 layer_factory.hpp:77] Creating layer ip3_ip3_0_split
I0507 04:18:58.341616 31356 net.cpp:94] Creating Layer ip3_ip3_0_split
I0507 04:18:58.341620 31356 net.cpp:435] ip3_ip3_0_split <- ip3
I0507 04:18:58.341625 31356 net.cpp:409] ip3_ip3_0_split -> ip3_ip3_0_split_0
I0507 04:18:58.341630 31356 net.cpp:409] ip3_ip3_0_split -> ip3_ip3_0_split_1
I0507 04:18:58.341670 31356 net.cpp:144] Setting up ip3_ip3_0_split
I0507 04:18:58.341676 31356 net.cpp:151] Top shape: 20 50 (1000)
I0507 04:18:58.341681 31356 net.cpp:151] Top shape: 20 50 (1000)
I0507 04:18:58.341683 31356 net.cpp:159] Memory required for data: 2994960
I0507 04:18:58.341686 31356 layer_factory.hpp:77] Creating layer accuracy
I0507 04:18:58.341693 31356 net.cpp:94] Creating Layer accuracy
I0507 04:18:58.341696 31356 net.cpp:435] accuracy <- ip3_ip3_0_split_0
I0507 04:18:58.341701 31356 net.cpp:435] accuracy <- label_intercept_1_split_0
I0507 04:18:58.341704 31356 net.cpp:409] accuracy -> accuracy
…
