…
I0501 19:57:44.228937 14377 net.cpp:323] The NetState phase (0) differed from the phase (1) specified by a rule in layer intercept
I0501 19:57:44.228953 14377 net.cpp:323] The NetState phase (0) differed from the phase (1) specified by a rule in layer loss
I0501 19:57:44.229044 14377 net.cpp:52] Initializing net from parameters: 
state {
  phase: TRAIN
}
layer {
  name: "parameters"
  type: "HDF5Data"
  top: "data"
  top: "label"
  include {
    phase: TRAIN
  }
  hdf5_data_param {
    source: "/home/purduethu/scratch/radon/d/deng106/CNNStatisticalModel/distributions/input/5_distributions_400_sample_size_train-parameters-path.txt"
    batch_size: 20
  }
}
layer {
  name: "conv1"
  type: "Convolution"
  bottom: "data"
  top: "conv1"
  param {
    lr_mult: 1
  }
  param {
    lr_mult: 2
  }
  convolution_param {
    num_output: 64
    pad: 2
    kernel_size: 5
    stride: 1
    weight_filler {
      type: "gaussian"
      std: 0.0001
    }
    bias_filler {
      type: "constant"
    }
  }
}
layer {
  name: "relu1"
  type: "ReLU"
  bottom: "conv1"
  top: "conv1"
}
layer {
  name: "conv2"
  type: "Convolution"
  bottom: "conv1"
  top: "conv2"
  param {
    lr_mult: 1
  }
  param {
    lr_mult: 2
  }
  convolution_param {
    num_output: 64
    pad: 2
    kernel_size: 5
    stride: 1
    weight_filler {
      type: "gaussian"
      std: 0.01
    }
    bias_filler {
      type: "constant"
    }
  }
}
layer {
  name: "relu2"
  type: "ReLU"
  bottom: "conv2"
  top: "conv2"
}
layer {
  name: "pool2"
  type: "Pooling"
  bottom: "conv2"
  top: "pool2"
  pooling_param {
    pool: MAX
    kernel_size: 3
    stride: 2
  }
}
layer {
  name: "conv3"
  type: "Convolution"
  bottom: "pool2"
  top: "conv3"
  param {
    lr_mult: 1
  }
  param {
    lr_mult: 2
  }
  convolution_param {
    num_output: 64
    pad: 2
    kernel_size: 5
    stride: 1
    weight_filler {
      type: "gaussian"
      std: 0.01
    }
    bias_filler {
      type: "constant"
    }
  }
}
layer {
  name: "relu3"
  type: "ReLU"
  bottom: "conv3"
  top: "conv3"
}
layer {
  name: "conv4"
  type: "Convolution"
  bottom: "conv3"
  top: "conv4"
  param {
    lr_mult: 1
  }
  param {
    lr_mult: 2
  }
  convolution_param {
    num_output: 64
    pad: 2
    kernel_size: 5
    stride: 1
    weight_filler {
      type: "gaussian"
      std: 0.01
    }
    bias_filler {
      type: "constant"
    }
  }
}
layer {
  name: "relu4"
  type: "ReLU"
  bottom: "conv4"
  top: "conv4"
}
layer {
  name: "conv5"
  type: "Convolution"
  bottom: "conv4"
  top: "conv5"
  param {
    lr_mult: 1
  }
  param {
    lr_mult: 2
  }
  convolution_param {
    num_output: 64
    pad: 2
    kernel_size: 5
    stride: 1
    weight_filler {
      type: "gaussian"
      std: 0.01
    }
    bias_filler {
      type: "constant"
    }
  }
}
layer {
  name: "relu5"
  type: "ReLU"
  bottom: "conv5"
  top: "conv5"
}
layer {
  name: "pool5"
  type: "Pooling"
  bottom: "conv5"
  top: "pool5"
  pooling_param {
    pool: AVE
    kernel_size: 3
    stride: 2
  }
}
layer {
  name: "ip1"
  type: "InnerProduct"
  bottom: "pool5"
  top: "ip1"
  param {
    lr_mult: 1
  }
  param {
    lr_mult: 2
  }
  inner_product_param {
    num_output: 64
    weight_filler {
      type: "gaussian"
      std: 0.1
    }
    bias_filler {
      type: "constant"
    }
  }
}
layer {
  name: "ip2"
  type: "InnerProduct"
  bottom: "ip1"
  top: "ip2"
  param {
    lr_mult: 1
  }
  param {
    lr_mult: 2
  }
  inner_product_param {
    num_output: 64
    weight_filler {
      type: "gaussian"
      std: 0.1
    }
    bias_filler {
      type: "constant"
    }
  }
}
layer {
  name: "ip3"
  type: "InnerProduct"
  bottom: "ip2"
  top: "ip3"
  param {
    lr_mult: 1
  }
  param {
    lr_mult: 2
  }
  inner_product_param {
    num_output: 1
    weight_filler {
      type: "gaussian"
      std: 0.1
    }
    bias_filler {
      type: "constant"
    }
  }
}
layer {
  name: "loss"
  type: "HuberLoss"
  bottom: "ip3"
  bottom: "label"
  top: "loss"
  include {
    phase: TRAIN
  }
}
I0501 19:57:44.229120 14377 layer_factory.hpp:77] Creating layer parameters
I0501 19:57:44.229135 14377 net.cpp:94] Creating Layer parameters
I0501 19:57:44.229140 14377 net.cpp:409] parameters -> data
I0501 19:57:44.229159 14377 net.cpp:409] parameters -> label
I0501 19:57:44.229171 14377 hdf5_data_layer.cpp:79] Loading list of HDF5 filenames from: /home/purduethu/scratch/radon/d/deng106/CNNStatisticalModel/distributions/input/5_distributions_400_sample_size_train-parameters-path.txt
I0501 19:57:44.229192 14377 hdf5_data_layer.cpp:93] Number of HDF5 files: 1
I0501 19:57:44.229687 14377 hdf5.cpp:32] Datatype class: H5T_FLOAT
I0501 19:57:44.292214 14377 net.cpp:144] Setting up parameters
I0501 19:57:44.292246 14377 net.cpp:151] Top shape: 20 1 20 20 (8000)
I0501 19:57:44.292253 14377 net.cpp:151] Top shape: 20 (20)
I0501 19:57:44.292256 14377 net.cpp:159] Memory required for data: 32080
I0501 19:57:44.292263 14377 layer_factory.hpp:77] Creating layer conv1
I0501 19:57:44.292282 14377 net.cpp:94] Creating Layer conv1
I0501 19:57:44.292289 14377 net.cpp:435] conv1 <- data
I0501 19:57:44.292299 14377 net.cpp:409] conv1 -> conv1
I0501 19:57:44.297104 14377 net.cpp:144] Setting up conv1
I0501 19:57:44.297119 14377 net.cpp:151] Top shape: 20 64 20 20 (512000)
I0501 19:57:44.297123 14377 net.cpp:159] Memory required for data: 2080080
I0501 19:57:44.297134 14377 layer_factory.hpp:77] Creating layer relu1
I0501 19:57:44.297142 14377 net.cpp:94] Creating Layer relu1
I0501 19:57:44.297147 14377 net.cpp:435] relu1 <- conv1
I0501 19:57:44.297150 14377 net.cpp:396] relu1 -> conv1 (in-place)
I0501 19:57:44.297165 14377 net.cpp:144] Setting up relu1
I0501 19:57:44.297171 14377 net.cpp:151] Top shape: 20 64 20 20 (512000)
I0501 19:57:44.297174 14377 net.cpp:159] Memory required for data: 4128080
I0501 19:57:44.297178 14377 layer_factory.hpp:77] Creating layer conv2
I0501 19:57:44.297185 14377 net.cpp:94] Creating Layer conv2
I0501 19:57:44.297189 14377 net.cpp:435] conv2 <- conv1
I0501 19:57:44.297194 14377 net.cpp:409] conv2 -> conv2
I0501 19:57:44.308220 14377 net.cpp:144] Setting up conv2
I0501 19:57:44.308236 14377 net.cpp:151] Top shape: 20 64 20 20 (512000)
I0501 19:57:44.308241 14377 net.cpp:159] Memory required for data: 6176080
I0501 19:57:44.308249 14377 layer_factory.hpp:77] Creating layer relu2
I0501 19:57:44.308256 14377 net.cpp:94] Creating Layer relu2
I0501 19:57:44.308260 14377 net.cpp:435] relu2 <- conv2
I0501 19:57:44.308264 14377 net.cpp:396] relu2 -> conv2 (in-place)
I0501 19:57:44.308272 14377 net.cpp:144] Setting up relu2
I0501 19:57:44.308276 14377 net.cpp:151] Top shape: 20 64 20 20 (512000)
I0501 19:57:44.308279 14377 net.cpp:159] Memory required for data: 8224080
I0501 19:57:44.308284 14377 layer_factory.hpp:77] Creating layer pool2
I0501 19:57:44.308290 14377 net.cpp:94] Creating Layer pool2
I0501 19:57:44.308300 14377 net.cpp:435] pool2 <- conv2
I0501 19:57:44.308305 14377 net.cpp:409] pool2 -> pool2
I0501 19:57:44.308349 14377 net.cpp:144] Setting up pool2
I0501 19:57:44.308357 14377 net.cpp:151] Top shape: 20 64 10 10 (128000)
I0501 19:57:44.308360 14377 net.cpp:159] Memory required for data: 8736080
I0501 19:57:44.308364 14377 layer_factory.hpp:77] Creating layer conv3
I0501 19:57:44.308372 14377 net.cpp:94] Creating Layer conv3
I0501 19:57:44.308375 14377 net.cpp:435] conv3 <- pool2
I0501 19:57:44.308380 14377 net.cpp:409] conv3 -> conv3
I0501 19:57:44.313699 14377 net.cpp:144] Setting up conv3
I0501 19:57:44.313714 14377 net.cpp:151] Top shape: 20 64 10 10 (128000)
I0501 19:57:44.313717 14377 net.cpp:159] Memory required for data: 9248080
I0501 19:57:44.313725 14377 layer_factory.hpp:77] Creating layer relu3
I0501 19:57:44.313731 14377 net.cpp:94] Creating Layer relu3
I0501 19:57:44.313735 14377 net.cpp:435] relu3 <- conv3
I0501 19:57:44.313740 14377 net.cpp:396] relu3 -> conv3 (in-place)
I0501 19:57:44.313747 14377 net.cpp:144] Setting up relu3
I0501 19:57:44.313751 14377 net.cpp:151] Top shape: 20 64 10 10 (128000)
I0501 19:57:44.313755 14377 net.cpp:159] Memory required for data: 9760080
I0501 19:57:44.313758 14377 layer_factory.hpp:77] Creating layer conv4
I0501 19:57:44.313766 14377 net.cpp:94] Creating Layer conv4
I0501 19:57:44.313771 14377 net.cpp:435] conv4 <- conv3
I0501 19:57:44.313776 14377 net.cpp:409] conv4 -> conv4
I0501 19:57:44.319042 14377 net.cpp:144] Setting up conv4
I0501 19:57:44.319056 14377 net.cpp:151] Top shape: 20 64 10 10 (128000)
I0501 19:57:44.319061 14377 net.cpp:159] Memory required for data: 10272080
I0501 19:57:44.319067 14377 layer_factory.hpp:77] Creating layer relu4
I0501 19:57:44.319072 14377 net.cpp:94] Creating Layer relu4
I0501 19:57:44.319077 14377 net.cpp:435] relu4 <- conv4
I0501 19:57:44.319082 14377 net.cpp:396] relu4 -> conv4 (in-place)
I0501 19:57:44.319088 14377 net.cpp:144] Setting up relu4
I0501 19:57:44.319093 14377 net.cpp:151] Top shape: 20 64 10 10 (128000)
I0501 19:57:44.319097 14377 net.cpp:159] Memory required for data: 10784080
I0501 19:57:44.319099 14377 layer_factory.hpp:77] Creating layer conv5
I0501 19:57:44.319108 14377 net.cpp:94] Creating Layer conv5
I0501 19:57:44.319111 14377 net.cpp:435] conv5 <- conv4
I0501 19:57:44.319116 14377 net.cpp:409] conv5 -> conv5
I0501 19:57:44.324412 14377 net.cpp:144] Setting up conv5
I0501 19:57:44.324426 14377 net.cpp:151] Top shape: 20 64 10 10 (128000)
I0501 19:57:44.324430 14377 net.cpp:159] Memory required for data: 11296080
I0501 19:57:44.324440 14377 layer_factory.hpp:77] Creating layer relu5
I0501 19:57:44.324445 14377 net.cpp:94] Creating Layer relu5
I0501 19:57:44.324448 14377 net.cpp:435] relu5 <- conv5
I0501 19:57:44.324453 14377 net.cpp:396] relu5 -> conv5 (in-place)
I0501 19:57:44.324460 14377 net.cpp:144] Setting up relu5
I0501 19:57:44.324465 14377 net.cpp:151] Top shape: 20 64 10 10 (128000)
I0501 19:57:44.324467 14377 net.cpp:159] Memory required for data: 11808080
I0501 19:57:44.324471 14377 layer_factory.hpp:77] Creating layer pool5
I0501 19:57:44.324476 14377 net.cpp:94] Creating Layer pool5
I0501 19:57:44.324479 14377 net.cpp:435] pool5 <- conv5
I0501 19:57:44.324483 14377 net.cpp:409] pool5 -> pool5
I0501 19:57:44.324517 14377 net.cpp:144] Setting up pool5
I0501 19:57:44.324524 14377 net.cpp:151] Top shape: 20 64 5 5 (32000)
I0501 19:57:44.324527 14377 net.cpp:159] Memory required for data: 11936080
I0501 19:57:44.324530 14377 layer_factory.hpp:77] Creating layer ip1
I0501 19:57:44.324540 14377 net.cpp:94] Creating Layer ip1
I0501 19:57:44.324544 14377 net.cpp:435] ip1 <- pool5
I0501 19:57:44.324549 14377 net.cpp:409] ip1 -> ip1
I0501 19:57:44.327117 14377 net.cpp:144] Setting up ip1
I0501 19:57:44.327126 14377 net.cpp:151] Top shape: 20 64 (1280)
I0501 19:57:44.327128 14377 net.cpp:159] Memory required for data: 11941200
I0501 19:57:44.327133 14377 layer_factory.hpp:77] Creating layer ip2
I0501 19:57:44.327141 14377 net.cpp:94] Creating Layer ip2
I0501 19:57:44.327143 14377 net.cpp:435] ip2 <- ip1
I0501 19:57:44.327152 14377 net.cpp:409] ip2 -> ip2
I0501 19:57:44.327322 14377 net.cpp:144] Setting up ip2
I0501 19:57:44.327329 14377 net.cpp:151] Top shape: 20 64 (1280)
I0501 19:57:44.327332 14377 net.cpp:159] Memory required for data: 11946320
I0501 19:57:44.327337 14377 layer_factory.hpp:77] Creating layer ip3
I0501 19:57:44.327343 14377 net.cpp:94] Creating Layer ip3
I0501 19:57:44.327347 14377 net.cpp:435] ip3 <- ip2
I0501 19:57:44.327352 14377 net.cpp:409] ip3 -> ip3
I0501 19:57:44.327414 14377 net.cpp:144] Setting up ip3
I0501 19:57:44.327426 14377 net.cpp:151] Top shape: 20 1 (20)
I0501 19:57:44.327430 14377 net.cpp:159] Memory required for data: 11946400
I0501 19:57:44.327435 14377 layer_factory.hpp:77] Creating layer loss
I0501 19:57:44.327445 14377 net.cpp:94] Creating Layer loss
I0501 19:57:44.327448 14377 net.cpp:435] loss <- ip3
I0501 19:57:44.327452 14377 net.cpp:435] loss <- label
I0501 19:57:44.327458 14377 net.cpp:409] loss -> loss
I0501 19:57:44.327494 14377 net.cpp:144] Setting up loss
…
