…
I0506 12:04:30.207063 21422 net.cpp:323] The NetState phase (0) differed from the phase (1) specified by a rule in layer intercept
I0506 12:04:30.207078 21422 net.cpp:323] The NetState phase (0) differed from the phase (1) specified by a rule in layer loss
I0506 12:04:30.207160 21422 net.cpp:52] Initializing net from parameters: 
state {
  phase: TRAIN
}
layer {
  name: "parameters"
  type: "HDF5Data"
  top: "data"
  top: "label"
  include {
    phase: TRAIN
  }
  hdf5_data_param {
    source: "/home/purduethu/scratch/radon/d/deng106/CNNStatisticalModel/distributions/input/50_distributions_100_sample_size_train-parameters-path.txt"
    batch_size: 20
  }
}
layer {
  name: "conv1"
  type: "Convolution"
  bottom: "data"
  top: "conv1"
  param {
    lr_mult: 1
  }
  param {
    lr_mult: 2
  }
  convolution_param {
    num_output: 64
    pad: 2
    kernel_size: 5
    stride: 1
    weight_filler {
      type: "gaussian"
      std: 0.0001
    }
    bias_filler {
      type: "constant"
    }
  }
}
layer {
  name: "relu1"
  type: "ReLU"
  bottom: "conv1"
  top: "conv1"
}
layer {
  name: "conv2"
  type: "Convolution"
  bottom: "conv1"
  top: "conv2"
  param {
    lr_mult: 1
  }
  param {
    lr_mult: 2
  }
  convolution_param {
    num_output: 64
    pad: 2
    kernel_size: 5
    stride: 1
    weight_filler {
      type: "gaussian"
      std: 0.01
    }
    bias_filler {
      type: "constant"
    }
  }
}
layer {
  name: "relu2"
  type: "ReLU"
  bottom: "conv2"
  top: "conv2"
}
layer {
  name: "pool2"
  type: "Pooling"
  bottom: "conv2"
  top: "pool2"
  pooling_param {
    pool: MAX
    kernel_size: 3
    stride: 2
  }
}
layer {
  name: "conv3"
  type: "Convolution"
  bottom: "pool2"
  top: "conv3"
  param {
    lr_mult: 1
  }
  param {
    lr_mult: 2
  }
  convolution_param {
    num_output: 128
    pad: 2
    kernel_size: 5
    stride: 1
    weight_filler {
      type: "gaussian"
      std: 0.01
    }
    bias_filler {
      type: "constant"
    }
  }
}
layer {
  name: "relu3"
  type: "ReLU"
  bottom: "conv3"
  top: "conv3"
}
layer {
  name: "conv4"
  type: "Convolution"
  bottom: "conv3"
  top: "conv4"
  param {
    lr_mult: 1
  }
  param {
    lr_mult: 2
  }
  convolution_param {
    num_output: 128
    pad: 2
    kernel_size: 5
    stride: 1
    weight_filler {
      type: "gaussian"
      std: 0.01
    }
    bias_filler {
      type: "constant"
    }
  }
}
layer {
  name: "relu4"
  type: "ReLU"
  bottom: "conv4"
  top: "conv4"
}
layer {
  name: "conv5"
  type: "Convolution"
  bottom: "conv4"
  top: "conv5"
  param {
    lr_mult: 1
  }
  param {
    lr_mult: 2
  }
  convolution_param {
    num_output: 128
    pad: 2
    kernel_size: 5
    stride: 1
    weight_filler {
      type: "gaussian"
      std: 0.01
    }
    bias_filler {
      type: "constant"
    }
  }
}
layer {
  name: "relu5"
  type: "ReLU"
  bottom: "conv5"
  top: "conv5"
}
layer {
  name: "pool5"
  type: "Pooling"
  bottom: "conv5"
  top: "pool5"
  pooling_param {
    pool: AVE
    kernel_size: 3
    stride: 2
  }
}
layer {
  name: "ip1"
  type: "InnerProduct"
  bottom: "pool5"
  top: "ip1"
  param {
    lr_mult: 1
  }
  param {
    lr_mult: 2
  }
  inner_product_param {
    num_output: 1024
    weight_filler {
      type: "gaussian"
      std: 0.1
    }
    bias_filler {
      type: "constant"
    }
  }
}
layer {
  name: "ip2"
  type: "InnerProduct"
  bottom: "ip1"
  top: "ip2"
  param {
    lr_mult: 1
  }
  param {
    lr_mult: 2
  }
  inner_product_param {
    num_output: 512
    weight_filler {
      type: "gaussian"
      std: 0.1
    }
    bias_filler {
      type: "constant"
    }
  }
}
layer {
  name: "ip3"
  type: "InnerProduct"
  bottom: "ip2"
  top: "ip3"
  param {
    lr_mult: 1
  }
  param {
    lr_mult: 2
  }
  inner_product_param {
    num_output: 1
    weight_filler {
      type: "gaussian"
      std: 0.1
    }
    bias_filler {
      type: "constant"
    }
  }
}
layer {
  name: "loss"
  type: "HuberLoss"
  bottom: "ip3"
  bottom: "label"
  top: "loss"
  include {
    phase: TRAIN
  }
}
I0506 12:04:30.207213 21422 layer_factory.hpp:77] Creating layer parameters
I0506 12:04:30.207231 21422 net.cpp:94] Creating Layer parameters
I0506 12:04:30.207236 21422 net.cpp:409] parameters -> data
I0506 12:04:30.207244 21422 net.cpp:409] parameters -> label
I0506 12:04:30.207252 21422 hdf5_data_layer.cpp:79] Loading list of HDF5 filenames from: /home/purduethu/scratch/radon/d/deng106/CNNStatisticalModel/distributions/input/50_distributions_100_sample_size_train-parameters-path.txt
I0506 12:04:30.207265 21422 hdf5_data_layer.cpp:93] Number of HDF5 files: 1
I0506 12:04:30.207671 21422 hdf5.cpp:32] Datatype class: H5T_FLOAT
I0506 12:04:30.367868 21422 net.cpp:144] Setting up parameters
I0506 12:04:30.367899 21422 net.cpp:151] Top shape: 20 1 10 10 (2000)
I0506 12:04:30.367905 21422 net.cpp:151] Top shape: 20 (20)
I0506 12:04:30.367908 21422 net.cpp:159] Memory required for data: 8080
I0506 12:04:30.367915 21422 layer_factory.hpp:77] Creating layer conv1
I0506 12:04:30.367930 21422 net.cpp:94] Creating Layer conv1
I0506 12:04:30.367935 21422 net.cpp:435] conv1 <- data
I0506 12:04:30.367941 21422 net.cpp:409] conv1 -> conv1
I0506 12:04:30.372290 21422 net.cpp:144] Setting up conv1
I0506 12:04:30.372306 21422 net.cpp:151] Top shape: 20 64 10 10 (128000)
I0506 12:04:30.372310 21422 net.cpp:159] Memory required for data: 520080
I0506 12:04:30.372320 21422 layer_factory.hpp:77] Creating layer relu1
I0506 12:04:30.372328 21422 net.cpp:94] Creating Layer relu1
I0506 12:04:30.372331 21422 net.cpp:435] relu1 <- conv1
I0506 12:04:30.372336 21422 net.cpp:396] relu1 -> conv1 (in-place)
I0506 12:04:30.372344 21422 net.cpp:144] Setting up relu1
I0506 12:04:30.372349 21422 net.cpp:151] Top shape: 20 64 10 10 (128000)
I0506 12:04:30.372351 21422 net.cpp:159] Memory required for data: 1032080
I0506 12:04:30.372354 21422 layer_factory.hpp:77] Creating layer conv2
I0506 12:04:30.372361 21422 net.cpp:94] Creating Layer conv2
I0506 12:04:30.372365 21422 net.cpp:435] conv2 <- conv1
I0506 12:04:30.372370 21422 net.cpp:409] conv2 -> conv2
I0506 12:04:30.378497 21422 net.cpp:144] Setting up conv2
I0506 12:04:30.378512 21422 net.cpp:151] Top shape: 20 64 10 10 (128000)
I0506 12:04:30.378515 21422 net.cpp:159] Memory required for data: 1544080
I0506 12:04:30.378523 21422 layer_factory.hpp:77] Creating layer relu2
I0506 12:04:30.378530 21422 net.cpp:94] Creating Layer relu2
I0506 12:04:30.378533 21422 net.cpp:435] relu2 <- conv2
I0506 12:04:30.378538 21422 net.cpp:396] relu2 -> conv2 (in-place)
I0506 12:04:30.378545 21422 net.cpp:144] Setting up relu2
I0506 12:04:30.378549 21422 net.cpp:151] Top shape: 20 64 10 10 (128000)
I0506 12:04:30.378552 21422 net.cpp:159] Memory required for data: 2056080
I0506 12:04:30.378556 21422 layer_factory.hpp:77] Creating layer pool2
I0506 12:04:30.378561 21422 net.cpp:94] Creating Layer pool2
I0506 12:04:30.378563 21422 net.cpp:435] pool2 <- conv2
I0506 12:04:30.378568 21422 net.cpp:409] pool2 -> pool2
I0506 12:04:30.378625 21422 net.cpp:144] Setting up pool2
I0506 12:04:30.378633 21422 net.cpp:151] Top shape: 20 64 5 5 (32000)
I0506 12:04:30.378635 21422 net.cpp:159] Memory required for data: 2184080
I0506 12:04:30.378638 21422 layer_factory.hpp:77] Creating layer conv3
I0506 12:04:30.378646 21422 net.cpp:94] Creating Layer conv3
I0506 12:04:30.378655 21422 net.cpp:435] conv3 <- pool2
I0506 12:04:30.378660 21422 net.cpp:409] conv3 -> conv3
I0506 12:04:30.386903 21422 net.cpp:144] Setting up conv3
I0506 12:04:30.386917 21422 net.cpp:151] Top shape: 20 128 5 5 (64000)
I0506 12:04:30.386921 21422 net.cpp:159] Memory required for data: 2440080
I0506 12:04:30.386929 21422 layer_factory.hpp:77] Creating layer relu3
I0506 12:04:30.386934 21422 net.cpp:94] Creating Layer relu3
I0506 12:04:30.386939 21422 net.cpp:435] relu3 <- conv3
I0506 12:04:30.386942 21422 net.cpp:396] relu3 -> conv3 (in-place)
I0506 12:04:30.386950 21422 net.cpp:144] Setting up relu3
I0506 12:04:30.386953 21422 net.cpp:151] Top shape: 20 128 5 5 (64000)
I0506 12:04:30.386956 21422 net.cpp:159] Memory required for data: 2696080
I0506 12:04:30.386960 21422 layer_factory.hpp:77] Creating layer conv4
I0506 12:04:30.386967 21422 net.cpp:94] Creating Layer conv4
I0506 12:04:30.386971 21422 net.cpp:435] conv4 <- conv3
I0506 12:04:30.386976 21422 net.cpp:409] conv4 -> conv4
I0506 12:04:30.401777 21422 net.cpp:144] Setting up conv4
I0506 12:04:30.401793 21422 net.cpp:151] Top shape: 20 128 5 5 (64000)
I0506 12:04:30.401796 21422 net.cpp:159] Memory required for data: 2952080
I0506 12:04:30.401803 21422 layer_factory.hpp:77] Creating layer relu4
I0506 12:04:30.401808 21422 net.cpp:94] Creating Layer relu4
I0506 12:04:30.401811 21422 net.cpp:435] relu4 <- conv4
I0506 12:04:30.401815 21422 net.cpp:396] relu4 -> conv4 (in-place)
I0506 12:04:30.401823 21422 net.cpp:144] Setting up relu4
I0506 12:04:30.401828 21422 net.cpp:151] Top shape: 20 128 5 5 (64000)
I0506 12:04:30.401830 21422 net.cpp:159] Memory required for data: 3208080
I0506 12:04:30.401834 21422 layer_factory.hpp:77] Creating layer conv5
I0506 12:04:30.401840 21422 net.cpp:94] Creating Layer conv5
I0506 12:04:30.401844 21422 net.cpp:435] conv5 <- conv4
I0506 12:04:30.401849 21422 net.cpp:409] conv5 -> conv5
I0506 12:04:30.416299 21422 net.cpp:144] Setting up conv5
I0506 12:04:30.416313 21422 net.cpp:151] Top shape: 20 128 5 5 (64000)
I0506 12:04:30.416317 21422 net.cpp:159] Memory required for data: 3464080
I0506 12:04:30.416326 21422 layer_factory.hpp:77] Creating layer relu5
I0506 12:04:30.416332 21422 net.cpp:94] Creating Layer relu5
I0506 12:04:30.416335 21422 net.cpp:435] relu5 <- conv5
I0506 12:04:30.416339 21422 net.cpp:396] relu5 -> conv5 (in-place)
I0506 12:04:30.416347 21422 net.cpp:144] Setting up relu5
I0506 12:04:30.416352 21422 net.cpp:151] Top shape: 20 128 5 5 (64000)
I0506 12:04:30.416354 21422 net.cpp:159] Memory required for data: 3720080
I0506 12:04:30.416357 21422 layer_factory.hpp:77] Creating layer pool5
I0506 12:04:30.416363 21422 net.cpp:94] Creating Layer pool5
I0506 12:04:30.416365 21422 net.cpp:435] pool5 <- conv5
I0506 12:04:30.416369 21422 net.cpp:409] pool5 -> pool5
I0506 12:04:30.416409 21422 net.cpp:144] Setting up pool5
I0506 12:04:30.416415 21422 net.cpp:151] Top shape: 20 128 2 2 (10240)
I0506 12:04:30.416419 21422 net.cpp:159] Memory required for data: 3761040
I0506 12:04:30.416421 21422 layer_factory.hpp:77] Creating layer ip1
I0506 12:04:30.416431 21422 net.cpp:94] Creating Layer ip1
I0506 12:04:30.416435 21422 net.cpp:435] ip1 <- pool5
I0506 12:04:30.416440 21422 net.cpp:409] ip1 -> ip1
I0506 12:04:30.430256 21422 net.cpp:144] Setting up ip1
I0506 12:04:30.430270 21422 net.cpp:151] Top shape: 20 1024 (20480)
I0506 12:04:30.430274 21422 net.cpp:159] Memory required for data: 3842960
I0506 12:04:30.430280 21422 layer_factory.hpp:77] Creating layer ip2
I0506 12:04:30.430287 21422 net.cpp:94] Creating Layer ip2
I0506 12:04:30.430291 21422 net.cpp:435] ip2 <- ip1
I0506 12:04:30.430296 21422 net.cpp:409] ip2 -> ip2
I0506 12:04:30.443269 21422 net.cpp:144] Setting up ip2
I0506 12:04:30.443281 21422 net.cpp:151] Top shape: 20 512 (10240)
I0506 12:04:30.443285 21422 net.cpp:159] Memory required for data: 3883920
I0506 12:04:30.443290 21422 layer_factory.hpp:77] Creating layer ip3
I0506 12:04:30.443297 21422 net.cpp:94] Creating Layer ip3
I0506 12:04:30.443300 21422 net.cpp:435] ip3 <- ip2
I0506 12:04:30.443311 21422 net.cpp:409] ip3 -> ip3
I0506 12:04:30.443424 21422 net.cpp:144] Setting up ip3
I0506 12:04:30.443431 21422 net.cpp:151] Top shape: 20 1 (20)
I0506 12:04:30.443434 21422 net.cpp:159] Memory required for data: 3884000
I0506 12:04:30.443439 21422 layer_factory.hpp:77] Creating layer loss
I0506 12:04:30.443451 21422 net.cpp:94] Creating Layer loss
I0506 12:04:30.443454 21422 net.cpp:435] loss <- ip3
I0506 12:04:30.443459 21422 net.cpp:435] loss <- label
I0506 12:04:30.443462 21422 net.cpp:409] loss -> loss
I0506 12:04:30.443512 21422 net.cpp:144] Setting up loss
…
I0506 12:04:30.549176 21422 net.cpp:323] The NetState phase (0) differed from the phase (1) specified by a rule in layer intercept
I0506 12:04:30.549192 21422 net.cpp:323] The NetState phase (0) differed from the phase (1) specified by a rule in layer accuracy
I0506 12:04:30.549278 21422 net.cpp:52] Initializing net from parameters: 
state {
  phase: TRAIN
}
layer {
  name: "parameters"
  type: "HDF5Data"
  top: "data"
  top: "label"
  include {
    phase: TRAIN
  }
  hdf5_data_param {
    source: "/home/purduethu/scratch/radon/d/deng106/CNNStatisticalModel/distributions/input/50_distributions_100_sample_size_train-distributions-path.txt"
    batch_size: 20
  }
}
layer {
  name: "conv1"
  type: "Convolution"
  bottom: "data"
  top: "conv1"
  param {
    lr_mult: 1
  }
  param {
    lr_mult: 2
  }
  convolution_param {
    num_output: 64
    pad: 2
    kernel_size: 5
    stride: 1
    weight_filler {
      type: "gaussian"
      std: 0.0001
    }
    bias_filler {
      type: "constant"
    }
  }
}
layer {
  name: "relu1"
  type: "ReLU"
  bottom: "conv1"
  top: "conv1"
}
layer {
  name: "conv2"
  type: "Convolution"
  bottom: "conv1"
  top: "conv2"
  param {
    lr_mult: 1
  }
  param {
    lr_mult: 2
  }
  convolution_param {
    num_output: 64
    pad: 2
    kernel_size: 5
    stride: 1
    weight_filler {
      type: "gaussian"
      std: 0.01
    }
    bias_filler {
      type: "constant"
    }
  }
}
layer {
  name: "relu2"
  type: "ReLU"
  bottom: "conv2"
  top: "conv2"
}
layer {
  name: "pool2"
  type: "Pooling"
  bottom: "conv2"
  top: "pool2"
  pooling_param {
    pool: MAX
    kernel_size: 3
    stride: 2
  }
}
layer {
  name: "conv3"
  type: "Convolution"
  bottom: "pool2"
  top: "conv3"
  param {
    lr_mult: 1
  }
  param {
    lr_mult: 2
  }
  convolution_param {
    num_output: 128
    pad: 2
    kernel_size: 5
    stride: 1
    weight_filler {
      type: "gaussian"
      std: 0.01
    }
    bias_filler {
      type: "constant"
    }
  }
}
layer {
  name: "relu3"
  type: "ReLU"
  bottom: "conv3"
  top: "conv3"
}
layer {
  name: "conv4"
  type: "Convolution"
  bottom: "conv3"
  top: "conv4"
  param {
    lr_mult: 1
  }
  param {
    lr_mult: 2
  }
  convolution_param {
    num_output: 128
    pad: 2
    kernel_size: 5
    stride: 1
    weight_filler {
      type: "gaussian"
      std: 0.01
    }
    bias_filler {
      type: "constant"
    }
  }
}
layer {
  name: "relu4"
  type: "ReLU"
  bottom: "conv4"
  top: "conv4"
}
layer {
  name: "conv5"
  type: "Convolution"
  bottom: "conv4"
  top: "conv5"
  param {
    lr_mult: 1
  }
  param {
    lr_mult: 2
  }
  convolution_param {
    num_output: 128
    pad: 2
    kernel_size: 5
    stride: 1
    weight_filler {
      type: "gaussian"
      std: 0.01
    }
    bias_filler {
      type: "constant"
    }
  }
}
layer {
  name: "relu5"
  type: "ReLU"
  bottom: "conv5"
  top: "conv5"
}
layer {
  name: "pool5"
  type: "Pooling"
  bottom: "conv5"
  top: "pool5"
  pooling_param {
    pool: AVE
    kernel_size: 3
    stride: 2
  }
}
layer {
  name: "ip1"
  type: "InnerProduct"
  bottom: "pool5"
  top: "ip1"
  param {
    lr_mult: 1
  }
  param {
    lr_mult: 2
  }
  inner_product_param {
    num_output: 1024
    weight_filler {
      type: "gaussian"
      std: 0.1
    }
    bias_filler {
      type: "constant"
    }
  }
}
layer {
  name: "ip2"
  type: "InnerProduct"
  bottom: "ip1"
  top: "ip2"
  param {
    lr_mult: 1
  }
  param {
    lr_mult: 2
  }
  inner_product_param {
    num_output: 512
    weight_filler {
      type: "gaussian"
      std: 0.1
    }
    bias_filler {
      type: "constant"
    }
  }
}
layer {
  name: "ip3"
  type: "InnerProduct"
  bottom: "ip2"
  top: "ip3"
  param {
    lr_mult: 1
  }
  param {
    lr_mult: 2
  }
  inner_product_param {
    num_output: 50
    weight_filler {
      type: "gaussian"
      std: 0.1
    }
    bias_filler {
      type: "constant"
    }
  }
}
layer {
  name: "loss"
  type: "SoftmaxWithLoss"
  bottom: "ip3"
  bottom: "label"
  top: "loss"
}
I0506 12:04:30.549331 21422 layer_factory.hpp:77] Creating layer parameters
I0506 12:04:30.549340 21422 net.cpp:94] Creating Layer parameters
I0506 12:04:30.549343 21422 net.cpp:409] parameters -> data
I0506 12:04:30.549350 21422 net.cpp:409] parameters -> label
I0506 12:04:30.549356 21422 hdf5_data_layer.cpp:79] Loading list of HDF5 filenames from: /home/purduethu/scratch/radon/d/deng106/CNNStatisticalModel/distributions/input/50_distributions_100_sample_size_train-distributions-path.txt
I0506 12:04:30.549372 21422 hdf5_data_layer.cpp:93] Number of HDF5 files: 1
I0506 12:04:30.704185 21422 hdf5.cpp:35] Datatype class: H5T_INTEGER
I0506 12:04:30.707231 21422 net.cpp:144] Setting up parameters
I0506 12:04:30.707252 21422 net.cpp:151] Top shape: 20 1 10 10 (2000)
I0506 12:04:30.707255 21422 net.cpp:151] Top shape: 20 (20)
I0506 12:04:30.707259 21422 net.cpp:159] Memory required for data: 8080
I0506 12:04:30.707265 21422 layer_factory.hpp:77] Creating layer conv1
I0506 12:04:30.707281 21422 net.cpp:94] Creating Layer conv1
I0506 12:04:30.707285 21422 net.cpp:435] conv1 <- data
I0506 12:04:30.707291 21422 net.cpp:409] conv1 -> conv1
I0506 12:04:30.709275 21422 net.cpp:144] Setting up conv1
I0506 12:04:30.709290 21422 net.cpp:151] Top shape: 20 64 10 10 (128000)
I0506 12:04:30.709293 21422 net.cpp:159] Memory required for data: 520080
I0506 12:04:30.709303 21422 layer_factory.hpp:77] Creating layer relu1
I0506 12:04:30.709311 21422 net.cpp:94] Creating Layer relu1
I0506 12:04:30.709314 21422 net.cpp:435] relu1 <- conv1
I0506 12:04:30.709318 21422 net.cpp:396] relu1 -> conv1 (in-place)
I0506 12:04:30.709326 21422 net.cpp:144] Setting up relu1
I0506 12:04:30.709331 21422 net.cpp:151] Top shape: 20 64 10 10 (128000)
I0506 12:04:30.709333 21422 net.cpp:159] Memory required for data: 1032080
I0506 12:04:30.709336 21422 layer_factory.hpp:77] Creating layer conv2
I0506 12:04:30.709343 21422 net.cpp:94] Creating Layer conv2
I0506 12:04:30.709347 21422 net.cpp:435] conv2 <- conv1
I0506 12:04:30.709352 21422 net.cpp:409] conv2 -> conv2
I0506 12:04:30.714756 21422 net.cpp:144] Setting up conv2
I0506 12:04:30.714769 21422 net.cpp:151] Top shape: 20 64 10 10 (128000)
I0506 12:04:30.714773 21422 net.cpp:159] Memory required for data: 1544080
I0506 12:04:30.714781 21422 layer_factory.hpp:77] Creating layer relu2
I0506 12:04:30.714787 21422 net.cpp:94] Creating Layer relu2
I0506 12:04:30.714790 21422 net.cpp:435] relu2 <- conv2
I0506 12:04:30.714795 21422 net.cpp:396] relu2 -> conv2 (in-place)
I0506 12:04:30.714802 21422 net.cpp:144] Setting up relu2
I0506 12:04:30.714807 21422 net.cpp:151] Top shape: 20 64 10 10 (128000)
I0506 12:04:30.714809 21422 net.cpp:159] Memory required for data: 2056080
I0506 12:04:30.714812 21422 layer_factory.hpp:77] Creating layer pool2
I0506 12:04:30.714818 21422 net.cpp:94] Creating Layer pool2
I0506 12:04:30.714821 21422 net.cpp:435] pool2 <- conv2
I0506 12:04:30.714825 21422 net.cpp:409] pool2 -> pool2
I0506 12:04:30.714880 21422 net.cpp:144] Setting up pool2
I0506 12:04:30.714887 21422 net.cpp:151] Top shape: 20 64 5 5 (32000)
I0506 12:04:30.714890 21422 net.cpp:159] Memory required for data: 2184080
I0506 12:04:30.714893 21422 layer_factory.hpp:77] Creating layer conv3
I0506 12:04:30.714901 21422 net.cpp:94] Creating Layer conv3
I0506 12:04:30.714905 21422 net.cpp:435] conv3 <- pool2
I0506 12:04:30.714910 21422 net.cpp:409] conv3 -> conv3
I0506 12:04:30.723633 21422 net.cpp:144] Setting up conv3
I0506 12:04:30.723646 21422 net.cpp:151] Top shape: 20 128 5 5 (64000)
I0506 12:04:30.723650 21422 net.cpp:159] Memory required for data: 2440080
I0506 12:04:30.723659 21422 layer_factory.hpp:77] Creating layer relu3
I0506 12:04:30.723664 21422 net.cpp:94] Creating Layer relu3
I0506 12:04:30.723667 21422 net.cpp:435] relu3 <- conv3
I0506 12:04:30.723671 21422 net.cpp:396] relu3 -> conv3 (in-place)
I0506 12:04:30.723685 21422 net.cpp:144] Setting up relu3
I0506 12:04:30.723690 21422 net.cpp:151] Top shape: 20 128 5 5 (64000)
I0506 12:04:30.723693 21422 net.cpp:159] Memory required for data: 2696080
I0506 12:04:30.723696 21422 layer_factory.hpp:77] Creating layer conv4
I0506 12:04:30.723704 21422 net.cpp:94] Creating Layer conv4
I0506 12:04:30.723707 21422 net.cpp:435] conv4 <- conv3
I0506 12:04:30.723712 21422 net.cpp:409] conv4 -> conv4
I0506 12:04:30.738198 21422 net.cpp:144] Setting up conv4
I0506 12:04:30.738211 21422 net.cpp:151] Top shape: 20 128 5 5 (64000)
I0506 12:04:30.738215 21422 net.cpp:159] Memory required for data: 2952080
I0506 12:04:30.738221 21422 layer_factory.hpp:77] Creating layer relu4
I0506 12:04:30.738227 21422 net.cpp:94] Creating Layer relu4
I0506 12:04:30.738230 21422 net.cpp:435] relu4 <- conv4
I0506 12:04:30.738235 21422 net.cpp:396] relu4 -> conv4 (in-place)
I0506 12:04:30.738242 21422 net.cpp:144] Setting up relu4
I0506 12:04:30.738246 21422 net.cpp:151] Top shape: 20 128 5 5 (64000)
I0506 12:04:30.738250 21422 net.cpp:159] Memory required for data: 3208080
I0506 12:04:30.738252 21422 layer_factory.hpp:77] Creating layer conv5
I0506 12:04:30.738260 21422 net.cpp:94] Creating Layer conv5
I0506 12:04:30.738263 21422 net.cpp:435] conv5 <- conv4
I0506 12:04:30.738268 21422 net.cpp:409] conv5 -> conv5
I0506 12:04:30.753242 21422 net.cpp:144] Setting up conv5
I0506 12:04:30.753255 21422 net.cpp:151] Top shape: 20 128 5 5 (64000)
I0506 12:04:30.753259 21422 net.cpp:159] Memory required for data: 3464080
I0506 12:04:30.753268 21422 layer_factory.hpp:77] Creating layer relu5
I0506 12:04:30.753273 21422 net.cpp:94] Creating Layer relu5
I0506 12:04:30.753276 21422 net.cpp:435] relu5 <- conv5
I0506 12:04:30.753281 21422 net.cpp:396] relu5 -> conv5 (in-place)
I0506 12:04:30.753288 21422 net.cpp:144] Setting up relu5
I0506 12:04:30.753293 21422 net.cpp:151] Top shape: 20 128 5 5 (64000)
I0506 12:04:30.753295 21422 net.cpp:159] Memory required for data: 3720080
I0506 12:04:30.753298 21422 layer_factory.hpp:77] Creating layer pool5
I0506 12:04:30.753304 21422 net.cpp:94] Creating Layer pool5
I0506 12:04:30.753306 21422 net.cpp:435] pool5 <- conv5
I0506 12:04:30.753311 21422 net.cpp:409] pool5 -> pool5
I0506 12:04:30.753350 21422 net.cpp:144] Setting up pool5
I0506 12:04:30.753357 21422 net.cpp:151] Top shape: 20 128 2 2 (10240)
I0506 12:04:30.753360 21422 net.cpp:159] Memory required for data: 3761040
I0506 12:04:30.753365 21422 layer_factory.hpp:77] Creating layer ip1
I0506 12:04:30.753371 21422 net.cpp:94] Creating Layer ip1
I0506 12:04:30.753374 21422 net.cpp:435] ip1 <- pool5
I0506 12:04:30.753379 21422 net.cpp:409] ip1 -> ip1
I0506 12:04:30.766518 21422 net.cpp:144] Setting up ip1
I0506 12:04:30.766532 21422 net.cpp:151] Top shape: 20 1024 (20480)
I0506 12:04:30.766536 21422 net.cpp:159] Memory required for data: 3842960
I0506 12:04:30.766542 21422 layer_factory.hpp:77] Creating layer ip2
I0506 12:04:30.766548 21422 net.cpp:94] Creating Layer ip2
I0506 12:04:30.766552 21422 net.cpp:435] ip2 <- ip1
I0506 12:04:30.766557 21422 net.cpp:409] ip2 -> ip2
I0506 12:04:30.779592 21422 net.cpp:144] Setting up ip2
I0506 12:04:30.779605 21422 net.cpp:151] Top shape: 20 512 (10240)
I0506 12:04:30.779609 21422 net.cpp:159] Memory required for data: 3883920
I0506 12:04:30.779615 21422 layer_factory.hpp:77] Creating layer ip3
I0506 12:04:30.779621 21422 net.cpp:94] Creating Layer ip3
I0506 12:04:30.779625 21422 net.cpp:435] ip3 <- ip2
I0506 12:04:30.779630 21422 net.cpp:409] ip3 -> ip3
I0506 12:04:30.781183 21422 net.cpp:144] Setting up ip3
I0506 12:04:30.781195 21422 net.cpp:151] Top shape: 20 50 (1000)
I0506 12:04:30.781199 21422 net.cpp:159] Memory required for data: 3887920
I0506 12:04:30.781205 21422 layer_factory.hpp:77] Creating layer loss
I0506 12:04:30.781213 21422 net.cpp:94] Creating Layer loss
I0506 12:04:30.781215 21422 net.cpp:435] loss <- ip3
I0506 12:04:30.781219 21422 net.cpp:435] loss <- label
I0506 12:04:30.781224 21422 net.cpp:409] loss -> loss
I0506 12:04:30.781231 21422 layer_factory.hpp:77] Creating layer loss
…
I0506 12:04:30.781747 21422 solver.cpp:181] Creating test net (#0) specified by net file: ./protocol/dis_50_100_dimension.protocol_distribution
I0506 12:04:30.781774 21422 net.cpp:323] The NetState phase (1) differed from the phase (0) specified by a rule in layer parameters
I0506 12:04:30.781869 21422 net.cpp:52] Initializing net from parameters: 
state {
  phase: TEST
}
layer {
  name: "intercept"
  type: "HDF5Data"
  top: "data"
  top: "label"
  include {
    phase: TEST
  }
  hdf5_data_param {
    source: "/home/purduethu/scratch/radon/d/deng106/CNNStatisticalModel/distributions/input/50_distributions_100_sample_size_test-distributions-path.txt"
    batch_size: 20
  }
}
layer {
  name: "conv1"
  type: "Convolution"
  bottom: "data"
  top: "conv1"
  param {
    lr_mult: 1
  }
  param {
    lr_mult: 2
  }
  convolution_param {
    num_output: 64
    pad: 2
    kernel_size: 5
    stride: 1
    weight_filler {
      type: "gaussian"
      std: 0.0001
    }
    bias_filler {
      type: "constant"
    }
  }
}
layer {
  name: "relu1"
  type: "ReLU"
  bottom: "conv1"
  top: "conv1"
}
layer {
  name: "conv2"
  type: "Convolution"
  bottom: "conv1"
  top: "conv2"
  param {
    lr_mult: 1
  }
  param {
    lr_mult: 2
  }
  convolution_param {
    num_output: 64
    pad: 2
    kernel_size: 5
    stride: 1
    weight_filler {
      type: "gaussian"
      std: 0.01
    }
    bias_filler {
      type: "constant"
    }
  }
}
layer {
  name: "relu2"
  type: "ReLU"
  bottom: "conv2"
  top: "conv2"
}
layer {
  name: "pool2"
  type: "Pooling"
  bottom: "conv2"
  top: "pool2"
  pooling_param {
    pool: MAX
    kernel_size: 3
    stride: 2
  }
}
layer {
  name: "conv3"
  type: "Convolution"
  bottom: "pool2"
  top: "conv3"
  param {
    lr_mult: 1
  }
  param {
    lr_mult: 2
  }
  convolution_param {
    num_output: 128
    pad: 2
    kernel_size: 5
    stride: 1
    weight_filler {
      type: "gaussian"
      std: 0.01
    }
    bias_filler {
      type: "constant"
    }
  }
}
layer {
  name: "relu3"
  type: "ReLU"
  bottom: "conv3"
  top: "conv3"
}
layer {
  name: "conv4"
  type: "Convolution"
  bottom: "conv3"
  top: "conv4"
  param {
    lr_mult: 1
  }
  param {
    lr_mult: 2
  }
  convolution_param {
    num_output: 128
    pad: 2
    kernel_size: 5
    stride: 1
    weight_filler {
      type: "gaussian"
      std: 0.01
    }
    bias_filler {
      type: "constant"
    }
  }
}
layer {
  name: "relu4"
  type: "ReLU"
  bottom: "conv4"
  top: "conv4"
}
layer {
  name: "conv5"
  type: "Convolution"
  bottom: "conv4"
  top: "conv5"
  param {
    lr_mult: 1
  }
  param {
    lr_mult: 2
  }
  convolution_param {
    num_output: 128
    pad: 2
    kernel_size: 5
    stride: 1
    weight_filler {
      type: "gaussian"
      std: 0.01
    }
    bias_filler {
      type: "constant"
    }
  }
}
layer {
  name: "relu5"
  type: "ReLU"
  bottom: "conv5"
  top: "conv5"
}
layer {
  name: "pool5"
  type: "Pooling"
  bottom: "conv5"
  top: "pool5"
  pooling_param {
    pool: AVE
    kernel_size: 3
    stride: 2
  }
}
layer {
  name: "ip1"
  type: "InnerProduct"
  bottom: "pool5"
  top: "ip1"
  param {
    lr_mult: 1
  }
  param {
    lr_mult: 2
  }
  inner_product_param {
    num_output: 1024
    weight_filler {
      type: "gaussian"
      std: 0.1
    }
    bias_filler {
      type: "constant"
    }
  }
}
layer {
  name: "ip2"
  type: "InnerProduct"
  bottom: "ip1"
  top: "ip2"
  param {
    lr_mult: 1
  }
  param {
    lr_mult: 2
  }
  inner_product_param {
    num_output: 512
    weight_filler {
      type: "gaussian"
      std: 0.1
    }
    bias_filler {
      type: "constant"
    }
  }
}
layer {
  name: "ip3"
  type: "InnerProduct"
  bottom: "ip2"
  top: "ip3"
  param {
    lr_mult: 1
  }
  param {
    lr_mult: 2
  }
  inner_product_param {
    num_output: 50
    weight_filler {
      type: "gaussian"
      std: 0.1
    }
    bias_filler {
      type: "constant"
    }
  }
}
layer {
  name: "accuracy"
  type: "Accuracy"
  bottom: "ip3"
  bottom: "label"
  top: "accuracy"
  include {
    phase: TEST
  }
}
layer {
  name: "loss"
  type: "SoftmaxWithLoss"
  bottom: "ip3"
  bottom: "label"
  top: "loss"
}
I0506 12:04:30.781932 21422 layer_factory.hpp:77] Creating layer intercept
I0506 12:04:30.781940 21422 net.cpp:94] Creating Layer intercept
I0506 12:04:30.781944 21422 net.cpp:409] intercept -> data
I0506 12:04:30.781951 21422 net.cpp:409] intercept -> label
I0506 12:04:30.781956 21422 hdf5_data_layer.cpp:79] Loading list of HDF5 filenames from: /home/purduethu/scratch/radon/d/deng106/CNNStatisticalModel/distributions/input/50_distributions_100_sample_size_test-distributions-path.txt
I0506 12:04:30.781975 21422 hdf5_data_layer.cpp:93] Number of HDF5 files: 1
I0506 12:04:30.822816 21422 net.cpp:144] Setting up intercept
I0506 12:04:30.822849 21422 net.cpp:151] Top shape: 20 1 10 10 (2000)
I0506 12:04:30.822854 21422 net.cpp:151] Top shape: 20 (20)
I0506 12:04:30.822857 21422 net.cpp:159] Memory required for data: 8080
I0506 12:04:30.822863 21422 layer_factory.hpp:77] Creating layer label_intercept_1_split
I0506 12:04:30.822881 21422 net.cpp:94] Creating Layer label_intercept_1_split
I0506 12:04:30.822886 21422 net.cpp:435] label_intercept_1_split <- label
I0506 12:04:30.822891 21422 net.cpp:409] label_intercept_1_split -> label_intercept_1_split_0
I0506 12:04:30.822901 21422 net.cpp:409] label_intercept_1_split -> label_intercept_1_split_1
I0506 12:04:30.822944 21422 net.cpp:144] Setting up label_intercept_1_split
I0506 12:04:30.822952 21422 net.cpp:151] Top shape: 20 (20)
I0506 12:04:30.822954 21422 net.cpp:151] Top shape: 20 (20)
I0506 12:04:30.822957 21422 net.cpp:159] Memory required for data: 8240
I0506 12:04:30.822960 21422 layer_factory.hpp:77] Creating layer conv1
I0506 12:04:30.822971 21422 net.cpp:94] Creating Layer conv1
I0506 12:04:30.822974 21422 net.cpp:435] conv1 <- data
I0506 12:04:30.822979 21422 net.cpp:409] conv1 -> conv1
I0506 12:04:30.823920 21422 net.cpp:144] Setting up conv1
I0506 12:04:30.823935 21422 net.cpp:151] Top shape: 20 64 10 10 (128000)
I0506 12:04:30.823937 21422 net.cpp:159] Memory required for data: 520240
I0506 12:04:30.823946 21422 layer_factory.hpp:77] Creating layer relu1
I0506 12:04:30.823953 21422 net.cpp:94] Creating Layer relu1
I0506 12:04:30.823956 21422 net.cpp:435] relu1 <- conv1
I0506 12:04:30.823961 21422 net.cpp:396] relu1 -> conv1 (in-place)
I0506 12:04:30.823967 21422 net.cpp:144] Setting up relu1
I0506 12:04:30.823972 21422 net.cpp:151] Top shape: 20 64 10 10 (128000)
I0506 12:04:30.823982 21422 net.cpp:159] Memory required for data: 1032240
I0506 12:04:30.823987 21422 layer_factory.hpp:77] Creating layer conv2
I0506 12:04:30.823993 21422 net.cpp:94] Creating Layer conv2
I0506 12:04:30.823997 21422 net.cpp:435] conv2 <- conv1
I0506 12:04:30.824002 21422 net.cpp:409] conv2 -> conv2
I0506 12:04:30.828173 21422 net.cpp:144] Setting up conv2
I0506 12:04:30.828187 21422 net.cpp:151] Top shape: 20 64 10 10 (128000)
I0506 12:04:30.828191 21422 net.cpp:159] Memory required for data: 1544240
I0506 12:04:30.828198 21422 layer_factory.hpp:77] Creating layer relu2
I0506 12:04:30.828205 21422 net.cpp:94] Creating Layer relu2
I0506 12:04:30.828208 21422 net.cpp:435] relu2 <- conv2
I0506 12:04:30.828213 21422 net.cpp:396] relu2 -> conv2 (in-place)
I0506 12:04:30.828219 21422 net.cpp:144] Setting up relu2
I0506 12:04:30.828224 21422 net.cpp:151] Top shape: 20 64 10 10 (128000)
I0506 12:04:30.828227 21422 net.cpp:159] Memory required for data: 2056240
I0506 12:04:30.828229 21422 layer_factory.hpp:77] Creating layer pool2
I0506 12:04:30.828236 21422 net.cpp:94] Creating Layer pool2
I0506 12:04:30.828239 21422 net.cpp:435] pool2 <- conv2
I0506 12:04:30.828243 21422 net.cpp:409] pool2 -> pool2
I0506 12:04:30.828305 21422 net.cpp:144] Setting up pool2
I0506 12:04:30.828311 21422 net.cpp:151] Top shape: 20 64 5 5 (32000)
I0506 12:04:30.828315 21422 net.cpp:159] Memory required for data: 2184240
I0506 12:04:30.828317 21422 layer_factory.hpp:77] Creating layer conv3
I0506 12:04:30.828325 21422 net.cpp:94] Creating Layer conv3
I0506 12:04:30.828330 21422 net.cpp:435] conv3 <- pool2
I0506 12:04:30.828335 21422 net.cpp:409] conv3 -> conv3
I0506 12:04:30.834460 21422 net.cpp:144] Setting up conv3
I0506 12:04:30.834472 21422 net.cpp:151] Top shape: 20 128 5 5 (64000)
I0506 12:04:30.834476 21422 net.cpp:159] Memory required for data: 2440240
I0506 12:04:30.834483 21422 layer_factory.hpp:77] Creating layer relu3
I0506 12:04:30.834491 21422 net.cpp:94] Creating Layer relu3
I0506 12:04:30.834496 21422 net.cpp:435] relu3 <- conv3
I0506 12:04:30.834499 21422 net.cpp:396] relu3 -> conv3 (in-place)
I0506 12:04:30.834507 21422 net.cpp:144] Setting up relu3
I0506 12:04:30.834511 21422 net.cpp:151] Top shape: 20 128 5 5 (64000)
I0506 12:04:30.834514 21422 net.cpp:159] Memory required for data: 2696240
I0506 12:04:30.834517 21422 layer_factory.hpp:77] Creating layer conv4
I0506 12:04:30.834525 21422 net.cpp:94] Creating Layer conv4
I0506 12:04:30.834529 21422 net.cpp:435] conv4 <- conv3
I0506 12:04:30.834533 21422 net.cpp:409] conv4 -> conv4
I0506 12:04:30.847090 21422 net.cpp:144] Setting up conv4
I0506 12:04:30.847105 21422 net.cpp:151] Top shape: 20 128 5 5 (64000)
I0506 12:04:30.847108 21422 net.cpp:159] Memory required for data: 2952240
I0506 12:04:30.847115 21422 layer_factory.hpp:77] Creating layer relu4
I0506 12:04:30.847120 21422 net.cpp:94] Creating Layer relu4
I0506 12:04:30.847123 21422 net.cpp:435] relu4 <- conv4
I0506 12:04:30.847127 21422 net.cpp:396] relu4 -> conv4 (in-place)
I0506 12:04:30.847134 21422 net.cpp:144] Setting up relu4
I0506 12:04:30.847138 21422 net.cpp:151] Top shape: 20 128 5 5 (64000)
I0506 12:04:30.847141 21422 net.cpp:159] Memory required for data: 3208240
I0506 12:04:30.847144 21422 layer_factory.hpp:77] Creating layer conv5
I0506 12:04:30.847153 21422 net.cpp:94] Creating Layer conv5
I0506 12:04:30.847157 21422 net.cpp:435] conv5 <- conv4
I0506 12:04:30.847162 21422 net.cpp:409] conv5 -> conv5
I0506 12:04:30.859731 21422 net.cpp:144] Setting up conv5
I0506 12:04:30.859745 21422 net.cpp:151] Top shape: 20 128 5 5 (64000)
I0506 12:04:30.859748 21422 net.cpp:159] Memory required for data: 3464240
I0506 12:04:30.859757 21422 layer_factory.hpp:77] Creating layer relu5
I0506 12:04:30.859763 21422 net.cpp:94] Creating Layer relu5
I0506 12:04:30.859767 21422 net.cpp:435] relu5 <- conv5
I0506 12:04:30.859772 21422 net.cpp:396] relu5 -> conv5 (in-place)
I0506 12:04:30.859779 21422 net.cpp:144] Setting up relu5
I0506 12:04:30.859783 21422 net.cpp:151] Top shape: 20 128 5 5 (64000)
I0506 12:04:30.859791 21422 net.cpp:159] Memory required for data: 3720240
I0506 12:04:30.859794 21422 layer_factory.hpp:77] Creating layer pool5
I0506 12:04:30.859799 21422 net.cpp:94] Creating Layer pool5
I0506 12:04:30.859802 21422 net.cpp:435] pool5 <- conv5
I0506 12:04:30.859807 21422 net.cpp:409] pool5 -> pool5
I0506 12:04:30.859848 21422 net.cpp:144] Setting up pool5
I0506 12:04:30.859854 21422 net.cpp:151] Top shape: 20 128 2 2 (10240)
I0506 12:04:30.859858 21422 net.cpp:159] Memory required for data: 3761200
I0506 12:04:30.859860 21422 layer_factory.hpp:77] Creating layer ip1
I0506 12:04:30.859868 21422 net.cpp:94] Creating Layer ip1
I0506 12:04:30.859870 21422 net.cpp:435] ip1 <- pool5
I0506 12:04:30.859876 21422 net.cpp:409] ip1 -> ip1
I0506 12:04:30.873019 21422 net.cpp:144] Setting up ip1
I0506 12:04:30.873033 21422 net.cpp:151] Top shape: 20 1024 (20480)
I0506 12:04:30.873036 21422 net.cpp:159] Memory required for data: 3843120
I0506 12:04:30.873041 21422 layer_factory.hpp:77] Creating layer ip2
I0506 12:04:30.873049 21422 net.cpp:94] Creating Layer ip2
I0506 12:04:30.873051 21422 net.cpp:435] ip2 <- ip1
I0506 12:04:30.873056 21422 net.cpp:409] ip2 -> ip2
I0506 12:04:30.886138 21422 net.cpp:144] Setting up ip2
I0506 12:04:30.886152 21422 net.cpp:151] Top shape: 20 512 (10240)
I0506 12:04:30.886154 21422 net.cpp:159] Memory required for data: 3884080
I0506 12:04:30.886160 21422 layer_factory.hpp:77] Creating layer ip3
I0506 12:04:30.886168 21422 net.cpp:94] Creating Layer ip3
I0506 12:04:30.886173 21422 net.cpp:435] ip3 <- ip2
I0506 12:04:30.886178 21422 net.cpp:409] ip3 -> ip3
I0506 12:04:30.886914 21422 net.cpp:144] Setting up ip3
I0506 12:04:30.886920 21422 net.cpp:151] Top shape: 20 50 (1000)
I0506 12:04:30.886924 21422 net.cpp:159] Memory required for data: 3888080
I0506 12:04:30.886929 21422 layer_factory.hpp:77] Creating layer ip3_ip3_0_split
I0506 12:04:30.886934 21422 net.cpp:94] Creating Layer ip3_ip3_0_split
I0506 12:04:30.886937 21422 net.cpp:435] ip3_ip3_0_split <- ip3
I0506 12:04:30.886941 21422 net.cpp:409] ip3_ip3_0_split -> ip3_ip3_0_split_0
I0506 12:04:30.886947 21422 net.cpp:409] ip3_ip3_0_split -> ip3_ip3_0_split_1
I0506 12:04:30.886992 21422 net.cpp:144] Setting up ip3_ip3_0_split
I0506 12:04:30.886998 21422 net.cpp:151] Top shape: 20 50 (1000)
I0506 12:04:30.887001 21422 net.cpp:151] Top shape: 20 50 (1000)
I0506 12:04:30.887004 21422 net.cpp:159] Memory required for data: 3896080
I0506 12:04:30.887007 21422 layer_factory.hpp:77] Creating layer accuracy
I0506 12:04:30.887012 21422 net.cpp:94] Creating Layer accuracy
I0506 12:04:30.887015 21422 net.cpp:435] accuracy <- ip3_ip3_0_split_0
I0506 12:04:30.887020 21422 net.cpp:435] accuracy <- label_intercept_1_split_0
I0506 12:04:30.887025 21422 net.cpp:409] accuracy -> accuracy
…
