…
I0503 11:56:14.836722 20558 net.cpp:323] The NetState phase (0) differed from the phase (1) specified by a rule in layer intercept
I0503 11:56:14.836740 20558 net.cpp:323] The NetState phase (0) differed from the phase (1) specified by a rule in layer accuracy
I0503 11:56:14.836832 20558 net.cpp:52] Initializing net from parameters: 
state {
  phase: TRAIN
}
layer {
  name: "parameters"
  type: "HDF5Data"
  top: "data"
  top: "label"
  include {
    phase: TRAIN
  }
  hdf5_data_param {
    source: "/home/purduethu/scratch/radon/d/deng106/CNNStatisticalModel/distributions/input/20_distributions_100_sample_size_train-distributions-path.txt"
    batch_size: 20
  }
}
layer {
  name: "conv1"
  type: "Convolution"
  bottom: "data"
  top: "conv1"
  param {
    lr_mult: 1
  }
  param {
    lr_mult: 2
  }
  convolution_param {
    num_output: 64
    pad: 2
    kernel_size: 5
    stride: 1
    weight_filler {
      type: "gaussian"
      std: 0.0001
    }
    bias_filler {
      type: "constant"
    }
  }
}
layer {
  name: "relu1"
  type: "ReLU"
  bottom: "conv1"
  top: "conv1"
}
layer {
  name: "conv2"
  type: "Convolution"
  bottom: "conv1"
  top: "conv2"
  param {
    lr_mult: 1
  }
  param {
    lr_mult: 2
  }
  convolution_param {
    num_output: 64
    pad: 2
    kernel_size: 5
    stride: 1
    weight_filler {
      type: "gaussian"
      std: 0.01
    }
    bias_filler {
      type: "constant"
    }
  }
}
layer {
  name: "relu2"
  type: "ReLU"
  bottom: "conv2"
  top: "conv2"
}
layer {
  name: "pool2"
  type: "Pooling"
  bottom: "conv2"
  top: "pool2"
  pooling_param {
    pool: MAX
    kernel_size: 3
    stride: 2
  }
}
layer {
  name: "conv3"
  type: "Convolution"
  bottom: "pool2"
  top: "conv3"
  param {
    lr_mult: 1
  }
  param {
    lr_mult: 2
  }
  convolution_param {
    num_output: 128
    pad: 2
    kernel_size: 5
    stride: 1
    weight_filler {
      type: "gaussian"
      std: 0.01
    }
    bias_filler {
      type: "constant"
    }
  }
}
layer {
  name: "relu3"
  type: "ReLU"
  bottom: "conv3"
  top: "conv3"
}
layer {
  name: "conv4"
  type: "Convolution"
  bottom: "conv3"
  top: "conv4"
  param {
    lr_mult: 1
  }
  param {
    lr_mult: 2
  }
  convolution_param {
    num_output: 128
    pad: 2
    kernel_size: 5
    stride: 1
    weight_filler {
      type: "gaussian"
      std: 0.01
    }
    bias_filler {
      type: "constant"
    }
  }
}
layer {
  name: "relu4"
  type: "ReLU"
  bottom: "conv4"
  top: "conv4"
}
layer {
  name: "conv5"
  type: "Convolution"
  bottom: "conv4"
  top: "conv5"
  param {
    lr_mult: 1
  }
  param {
    lr_mult: 2
  }
  convolution_param {
    num_output: 128
    pad: 2
    kernel_size: 5
    stride: 1
    weight_filler {
      type: "gaussian"
      std: 0.01
    }
    bias_filler {
      type: "constant"
    }
  }
}
layer {
  name: "relu5"
  type: "ReLU"
  bottom: "conv5"
  top: "conv5"
}
layer {
  name: "pool5"
  type: "Pooling"
  bottom: "conv5"
  top: "pool5"
  pooling_param {
    pool: AVE
    kernel_size: 3
    stride: 2
  }
}
layer {
  name: "ip1"
  type: "InnerProduct"
  bottom: "pool5"
  top: "ip1"
  param {
    lr_mult: 1
  }
  param {
    lr_mult: 2
  }
  inner_product_param {
    num_output: 1024
    weight_filler {
      type: "gaussian"
      std: 0.1
    }
    bias_filler {
      type: "constant"
    }
  }
}
layer {
  name: "ip2"
  type: "InnerProduct"
  bottom: "ip1"
  top: "ip2"
  param {
    lr_mult: 1
  }
  param {
    lr_mult: 2
  }
  inner_product_param {
    num_output: 512
    weight_filler {
      type: "gaussian"
      std: 0.1
    }
    bias_filler {
      type: "constant"
    }
  }
}
layer {
  name: "ip3"
  type: "InnerProduct"
  bottom: "ip2"
  top: "ip3"
  param {
    lr_mult: 1
  }
  param {
    lr_mult: 2
  }
  inner_product_param {
    num_output: 50
    weight_filler {
      type: "gaussian"
      std: 0.1
    }
    bias_filler {
      type: "constant"
    }
  }
}
layer {
  name: "loss"
  type: "SoftmaxWithLoss"
  bottom: "ip3"
  bottom: "label"
  top: "loss"
}
I0503 11:56:14.836910 20558 layer_factory.hpp:77] Creating layer parameters
I0503 11:56:14.836923 20558 net.cpp:94] Creating Layer parameters
I0503 11:56:14.836930 20558 net.cpp:409] parameters -> data
I0503 11:56:14.836948 20558 net.cpp:409] parameters -> label
I0503 11:56:14.836959 20558 hdf5_data_layer.cpp:79] Loading list of HDF5 filenames from: /home/purduethu/scratch/radon/d/deng106/CNNStatisticalModel/distributions/input/20_distributions_100_sample_size_train-distributions-path.txt
I0503 11:56:14.836982 20558 hdf5_data_layer.cpp:93] Number of HDF5 files: 1
I0503 11:56:14.837568 20558 hdf5.cpp:32] Datatype class: H5T_FLOAT
I0503 11:56:14.903223 20558 hdf5.cpp:35] Datatype class: H5T_INTEGER
I0503 11:56:14.904969 20558 net.cpp:144] Setting up parameters
I0503 11:56:14.904991 20558 net.cpp:151] Top shape: 20 1 10 10 (2000)
I0503 11:56:14.904997 20558 net.cpp:151] Top shape: 20 (20)
I0503 11:56:14.905001 20558 net.cpp:159] Memory required for data: 8080
I0503 11:56:14.905009 20558 layer_factory.hpp:77] Creating layer conv1
I0503 11:56:14.905028 20558 net.cpp:94] Creating Layer conv1
I0503 11:56:14.905033 20558 net.cpp:435] conv1 <- data
I0503 11:56:14.905045 20558 net.cpp:409] conv1 -> conv1
I0503 11:56:14.908926 20558 net.cpp:144] Setting up conv1
I0503 11:56:14.908941 20558 net.cpp:151] Top shape: 20 64 10 10 (128000)
I0503 11:56:14.908946 20558 net.cpp:159] Memory required for data: 520080
I0503 11:56:14.908957 20558 layer_factory.hpp:77] Creating layer relu1
I0503 11:56:14.908967 20558 net.cpp:94] Creating Layer relu1
I0503 11:56:14.908970 20558 net.cpp:435] relu1 <- conv1
I0503 11:56:14.908974 20558 net.cpp:396] relu1 -> conv1 (in-place)
I0503 11:56:14.908987 20558 net.cpp:144] Setting up relu1
I0503 11:56:14.908991 20558 net.cpp:151] Top shape: 20 64 10 10 (128000)
I0503 11:56:14.908994 20558 net.cpp:159] Memory required for data: 1032080
I0503 11:56:14.908998 20558 layer_factory.hpp:77] Creating layer conv2
I0503 11:56:14.909006 20558 net.cpp:94] Creating Layer conv2
I0503 11:56:14.909010 20558 net.cpp:435] conv2 <- conv1
I0503 11:56:14.909015 20558 net.cpp:409] conv2 -> conv2
I0503 11:56:14.914283 20558 net.cpp:144] Setting up conv2
I0503 11:56:14.914296 20558 net.cpp:151] Top shape: 20 64 10 10 (128000)
I0503 11:56:14.914300 20558 net.cpp:159] Memory required for data: 1544080
I0503 11:56:14.914309 20558 layer_factory.hpp:77] Creating layer relu2
I0503 11:56:14.914315 20558 net.cpp:94] Creating Layer relu2
I0503 11:56:14.914319 20558 net.cpp:435] relu2 <- conv2
I0503 11:56:14.914324 20558 net.cpp:396] relu2 -> conv2 (in-place)
I0503 11:56:14.914331 20558 net.cpp:144] Setting up relu2
I0503 11:56:14.914336 20558 net.cpp:151] Top shape: 20 64 10 10 (128000)
I0503 11:56:14.914340 20558 net.cpp:159] Memory required for data: 2056080
I0503 11:56:14.914343 20558 layer_factory.hpp:77] Creating layer pool2
I0503 11:56:14.914358 20558 net.cpp:94] Creating Layer pool2
I0503 11:56:14.914362 20558 net.cpp:435] pool2 <- conv2
I0503 11:56:14.914367 20558 net.cpp:409] pool2 -> pool2
I0503 11:56:14.914410 20558 net.cpp:144] Setting up pool2
I0503 11:56:14.914418 20558 net.cpp:151] Top shape: 20 64 5 5 (32000)
I0503 11:56:14.914422 20558 net.cpp:159] Memory required for data: 2184080
I0503 11:56:14.914425 20558 layer_factory.hpp:77] Creating layer conv3
I0503 11:56:14.914433 20558 net.cpp:94] Creating Layer conv3
I0503 11:56:14.914436 20558 net.cpp:435] conv3 <- pool2
I0503 11:56:14.914449 20558 net.cpp:409] conv3 -> conv3
I0503 11:56:14.922711 20558 net.cpp:144] Setting up conv3
I0503 11:56:14.922725 20558 net.cpp:151] Top shape: 20 128 5 5 (64000)
I0503 11:56:14.922730 20558 net.cpp:159] Memory required for data: 2440080
I0503 11:56:14.922739 20558 layer_factory.hpp:77] Creating layer relu3
I0503 11:56:14.922744 20558 net.cpp:94] Creating Layer relu3
I0503 11:56:14.922749 20558 net.cpp:435] relu3 <- conv3
I0503 11:56:14.922754 20558 net.cpp:396] relu3 -> conv3 (in-place)
I0503 11:56:14.922760 20558 net.cpp:144] Setting up relu3
I0503 11:56:14.922765 20558 net.cpp:151] Top shape: 20 128 5 5 (64000)
I0503 11:56:14.922768 20558 net.cpp:159] Memory required for data: 2696080
I0503 11:56:14.922772 20558 layer_factory.hpp:77] Creating layer conv4
I0503 11:56:14.922781 20558 net.cpp:94] Creating Layer conv4
I0503 11:56:14.922785 20558 net.cpp:435] conv4 <- conv3
I0503 11:56:14.922791 20558 net.cpp:409] conv4 -> conv4
I0503 11:56:14.937994 20558 net.cpp:144] Setting up conv4
I0503 11:56:14.938009 20558 net.cpp:151] Top shape: 20 128 5 5 (64000)
I0503 11:56:14.938014 20558 net.cpp:159] Memory required for data: 2952080
I0503 11:56:14.938019 20558 layer_factory.hpp:77] Creating layer relu4
I0503 11:56:14.938025 20558 net.cpp:94] Creating Layer relu4
I0503 11:56:14.938030 20558 net.cpp:435] relu4 <- conv4
I0503 11:56:14.938035 20558 net.cpp:396] relu4 -> conv4 (in-place)
I0503 11:56:14.938042 20558 net.cpp:144] Setting up relu4
I0503 11:56:14.938047 20558 net.cpp:151] Top shape: 20 128 5 5 (64000)
I0503 11:56:14.938050 20558 net.cpp:159] Memory required for data: 3208080
I0503 11:56:14.938055 20558 layer_factory.hpp:77] Creating layer conv5
I0503 11:56:14.938061 20558 net.cpp:94] Creating Layer conv5
I0503 11:56:14.938066 20558 net.cpp:435] conv5 <- conv4
I0503 11:56:14.938071 20558 net.cpp:409] conv5 -> conv5
I0503 11:56:14.952989 20558 net.cpp:144] Setting up conv5
I0503 11:56:14.953006 20558 net.cpp:151] Top shape: 20 128 5 5 (64000)
I0503 11:56:14.953011 20558 net.cpp:159] Memory required for data: 3464080
I0503 11:56:14.953018 20558 layer_factory.hpp:77] Creating layer relu5
I0503 11:56:14.953025 20558 net.cpp:94] Creating Layer relu5
I0503 11:56:14.953029 20558 net.cpp:435] relu5 <- conv5
I0503 11:56:14.953033 20558 net.cpp:396] relu5 -> conv5 (in-place)
I0503 11:56:14.953042 20558 net.cpp:144] Setting up relu5
I0503 11:56:14.953047 20558 net.cpp:151] Top shape: 20 128 5 5 (64000)
I0503 11:56:14.953049 20558 net.cpp:159] Memory required for data: 3720080
I0503 11:56:14.953052 20558 layer_factory.hpp:77] Creating layer pool5
I0503 11:56:14.953058 20558 net.cpp:94] Creating Layer pool5
I0503 11:56:14.953061 20558 net.cpp:435] pool5 <- conv5
I0503 11:56:14.953066 20558 net.cpp:409] pool5 -> pool5
I0503 11:56:14.953101 20558 net.cpp:144] Setting up pool5
I0503 11:56:14.953109 20558 net.cpp:151] Top shape: 20 128 2 2 (10240)
I0503 11:56:14.953112 20558 net.cpp:159] Memory required for data: 3761040
I0503 11:56:14.953116 20558 layer_factory.hpp:77] Creating layer ip1
I0503 11:56:14.953126 20558 net.cpp:94] Creating Layer ip1
I0503 11:56:14.953130 20558 net.cpp:435] ip1 <- pool5
I0503 11:56:14.953135 20558 net.cpp:409] ip1 -> ip1
I0503 11:56:14.967229 20558 net.cpp:144] Setting up ip1
I0503 11:56:14.967244 20558 net.cpp:151] Top shape: 20 1024 (20480)
I0503 11:56:14.967248 20558 net.cpp:159] Memory required for data: 3842960
I0503 11:56:14.967255 20558 layer_factory.hpp:77] Creating layer ip2
I0503 11:56:14.967262 20558 net.cpp:94] Creating Layer ip2
I0503 11:56:14.967270 20558 net.cpp:435] ip2 <- ip1
I0503 11:56:14.967278 20558 net.cpp:409] ip2 -> ip2
I0503 11:56:14.980716 20558 net.cpp:144] Setting up ip2
I0503 11:56:14.980731 20558 net.cpp:151] Top shape: 20 512 (10240)
I0503 11:56:14.980734 20558 net.cpp:159] Memory required for data: 3883920
I0503 11:56:14.980741 20558 layer_factory.hpp:77] Creating layer ip3
I0503 11:56:14.980747 20558 net.cpp:94] Creating Layer ip3
I0503 11:56:14.980751 20558 net.cpp:435] ip3 <- ip2
I0503 11:56:14.980756 20558 net.cpp:409] ip3 -> ip3
I0503 11:56:14.982112 20558 net.cpp:144] Setting up ip3
I0503 11:56:14.982125 20558 net.cpp:151] Top shape: 20 50 (1000)
I0503 11:56:14.982128 20558 net.cpp:159] Memory required for data: 3887920
I0503 11:56:14.982134 20558 layer_factory.hpp:77] Creating layer loss
I0503 11:56:14.982142 20558 net.cpp:94] Creating Layer loss
I0503 11:56:14.982146 20558 net.cpp:435] loss <- ip3
I0503 11:56:14.982151 20558 net.cpp:435] loss <- label
I0503 11:56:14.982156 20558 net.cpp:409] loss -> loss
I0503 11:56:14.982168 20558 layer_factory.hpp:77] Creating layer loss
…
I0503 11:56:14.982683 20558 solver.cpp:181] Creating test net (#0) specified by net file: ./protocol/dis_20_100_dimension.protocol_distribution
I0503 11:56:14.982712 20558 net.cpp:323] The NetState phase (1) differed from the phase (0) specified by a rule in layer parameters
I0503 11:56:14.982812 20558 net.cpp:52] Initializing net from parameters: 
state {
  phase: TEST
}
layer {
  name: "intercept"
  type: "HDF5Data"
  top: "data"
  top: "label"
  include {
    phase: TEST
  }
  hdf5_data_param {
    source: "/home/purduethu/scratch/radon/d/deng106/CNNStatisticalModel/distributions/input/20_distributions_100_sample_size_test-distributions-path.txt"
    batch_size: 20
  }
}
layer {
  name: "conv1"
  type: "Convolution"
  bottom: "data"
  top: "conv1"
  param {
    lr_mult: 1
  }
  param {
    lr_mult: 2
  }
  convolution_param {
    num_output: 64
    pad: 2
    kernel_size: 5
    stride: 1
    weight_filler {
      type: "gaussian"
      std: 0.0001
    }
    bias_filler {
      type: "constant"
    }
  }
}
layer {
  name: "relu1"
  type: "ReLU"
  bottom: "conv1"
  top: "conv1"
}
layer {
  name: "conv2"
  type: "Convolution"
  bottom: "conv1"
  top: "conv2"
  param {
    lr_mult: 1
  }
  param {
    lr_mult: 2
  }
  convolution_param {
    num_output: 64
    pad: 2
    kernel_size: 5
    stride: 1
    weight_filler {
      type: "gaussian"
      std: 0.01
    }
    bias_filler {
      type: "constant"
    }
  }
}
layer {
  name: "relu2"
  type: "ReLU"
  bottom: "conv2"
  top: "conv2"
}
layer {
  name: "pool2"
  type: "Pooling"
  bottom: "conv2"
  top: "pool2"
  pooling_param {
    pool: MAX
    kernel_size: 3
    stride: 2
  }
}
layer {
  name: "conv3"
  type: "Convolution"
  bottom: "pool2"
  top: "conv3"
  param {
    lr_mult: 1
  }
  param {
    lr_mult: 2
  }
  convolution_param {
    num_output: 128
    pad: 2
    kernel_size: 5
    stride: 1
    weight_filler {
      type: "gaussian"
      std: 0.01
    }
    bias_filler {
      type: "constant"
    }
  }
}
layer {
  name: "relu3"
  type: "ReLU"
  bottom: "conv3"
  top: "conv3"
}
layer {
  name: "conv4"
  type: "Convolution"
  bottom: "conv3"
  top: "conv4"
  param {
    lr_mult: 1
  }
  param {
    lr_mult: 2
  }
  convolution_param {
    num_output: 128
    pad: 2
    kernel_size: 5
    stride: 1
    weight_filler {
      type: "gaussian"
      std: 0.01
    }
    bias_filler {
      type: "constant"
    }
  }
}
layer {
  name: "relu4"
  type: "ReLU"
  bottom: "conv4"
  top: "conv4"
}
layer {
  name: "conv5"
  type: "Convolution"
  bottom: "conv4"
  top: "conv5"
  param {
    lr_mult: 1
  }
  param {
    lr_mult: 2
  }
  convolution_param {
    num_output: 128
    pad: 2
    kernel_size: 5
    stride: 1
    weight_filler {
      type: "gaussian"
      std: 0.01
    }
    bias_filler {
      type: "constant"
    }
  }
}
layer {
  name: "relu5"
  type: "ReLU"
  bottom: "conv5"
  top: "conv5"
}
layer {
  name: "pool5"
  type: "Pooling"
  bottom: "conv5"
  top: "pool5"
  pooling_param {
    pool: AVE
    kernel_size: 3
    stride: 2
  }
}
layer {
  name: "ip1"
  type: "InnerProduct"
  bottom: "pool5"
  top: "ip1"
  param {
    lr_mult: 1
  }
  param {
    lr_mult: 2
  }
  inner_product_param {
    num_output: 1024
    weight_filler {
      type: "gaussian"
      std: 0.1
    }
    bias_filler {
      type: "constant"
    }
  }
}
layer {
  name: "ip2"
  type: "InnerProduct"
  bottom: "ip1"
  top: "ip2"
  param {
    lr_mult: 1
  }
  param {
    lr_mult: 2
  }
  inner_product_param {
    num_output: 512
    weight_filler {
      type: "gaussian"
      std: 0.1
    }
    bias_filler {
      type: "constant"
    }
  }
}
layer {
  name: "ip3"
  type: "InnerProduct"
  bottom: "ip2"
  top: "ip3"
  param {
    lr_mult: 1
  }
  param {
    lr_mult: 2
  }
  inner_product_param {
    num_output: 50
    weight_filler {
      type: "gaussian"
      std: 0.1
    }
    bias_filler {
      type: "constant"
    }
  }
}
layer {
  name: "accuracy"
  type: "Accuracy"
  bottom: "ip3"
  bottom: "label"
  top: "accuracy"
  include {
    phase: TEST
  }
}
layer {
  name: "loss"
  type: "SoftmaxWithLoss"
  bottom: "ip3"
  bottom: "label"
  top: "loss"
}
I0503 11:56:14.982887 20558 layer_factory.hpp:77] Creating layer intercept
I0503 11:56:14.982894 20558 net.cpp:94] Creating Layer intercept
I0503 11:56:14.982899 20558 net.cpp:409] intercept -> data
I0503 11:56:14.982906 20558 net.cpp:409] intercept -> label
I0503 11:56:14.982913 20558 hdf5_data_layer.cpp:79] Loading list of HDF5 filenames from: /home/purduethu/scratch/radon/d/deng106/CNNStatisticalModel/distributions/input/20_distributions_100_sample_size_test-distributions-path.txt
I0503 11:56:14.982933 20558 hdf5_data_layer.cpp:93] Number of HDF5 files: 1
I0503 11:56:15.000438 20558 net.cpp:144] Setting up intercept
I0503 11:56:15.000473 20558 net.cpp:151] Top shape: 20 1 10 10 (2000)
I0503 11:56:15.000478 20558 net.cpp:151] Top shape: 20 (20)
I0503 11:56:15.000483 20558 net.cpp:159] Memory required for data: 8080
I0503 11:56:15.000488 20558 layer_factory.hpp:77] Creating layer label_intercept_1_split
I0503 11:56:15.000507 20558 net.cpp:94] Creating Layer label_intercept_1_split
I0503 11:56:15.000512 20558 net.cpp:435] label_intercept_1_split <- label
I0503 11:56:15.000519 20558 net.cpp:409] label_intercept_1_split -> label_intercept_1_split_0
I0503 11:56:15.000527 20558 net.cpp:409] label_intercept_1_split -> label_intercept_1_split_1
I0503 11:56:15.000577 20558 net.cpp:144] Setting up label_intercept_1_split
I0503 11:56:15.000586 20558 net.cpp:151] Top shape: 20 (20)
I0503 11:56:15.000589 20558 net.cpp:151] Top shape: 20 (20)
I0503 11:56:15.000593 20558 net.cpp:159] Memory required for data: 8240
I0503 11:56:15.000597 20558 layer_factory.hpp:77] Creating layer conv1
I0503 11:56:15.000608 20558 net.cpp:94] Creating Layer conv1
I0503 11:56:15.000612 20558 net.cpp:435] conv1 <- data
I0503 11:56:15.000617 20558 net.cpp:409] conv1 -> conv1
I0503 11:56:15.001324 20558 net.cpp:144] Setting up conv1
I0503 11:56:15.001345 20558 net.cpp:151] Top shape: 20 64 10 10 (128000)
I0503 11:56:15.001349 20558 net.cpp:159] Memory required for data: 520240
I0503 11:56:15.001359 20558 layer_factory.hpp:77] Creating layer relu1
I0503 11:56:15.001366 20558 net.cpp:94] Creating Layer relu1
I0503 11:56:15.001370 20558 net.cpp:435] relu1 <- conv1
I0503 11:56:15.001374 20558 net.cpp:396] relu1 -> conv1 (in-place)
I0503 11:56:15.001382 20558 net.cpp:144] Setting up relu1
I0503 11:56:15.001387 20558 net.cpp:151] Top shape: 20 64 10 10 (128000)
I0503 11:56:15.001390 20558 net.cpp:159] Memory required for data: 1032240
I0503 11:56:15.001394 20558 layer_factory.hpp:77] Creating layer conv2
I0503 11:56:15.001404 20558 net.cpp:94] Creating Layer conv2
I0503 11:56:15.001406 20558 net.cpp:435] conv2 <- conv1
I0503 11:56:15.001412 20558 net.cpp:409] conv2 -> conv2
I0503 11:56:15.005430 20558 net.cpp:144] Setting up conv2
I0503 11:56:15.005445 20558 net.cpp:151] Top shape: 20 64 10 10 (128000)
I0503 11:56:15.005448 20558 net.cpp:159] Memory required for data: 1544240
I0503 11:56:15.005456 20558 layer_factory.hpp:77] Creating layer relu2
I0503 11:56:15.005462 20558 net.cpp:94] Creating Layer relu2
I0503 11:56:15.005466 20558 net.cpp:435] relu2 <- conv2
I0503 11:56:15.005471 20558 net.cpp:396] relu2 -> conv2 (in-place)
I0503 11:56:15.005478 20558 net.cpp:144] Setting up relu2
I0503 11:56:15.005483 20558 net.cpp:151] Top shape: 20 64 10 10 (128000)
I0503 11:56:15.005486 20558 net.cpp:159] Memory required for data: 2056240
I0503 11:56:15.005491 20558 layer_factory.hpp:77] Creating layer pool2
I0503 11:56:15.005496 20558 net.cpp:94] Creating Layer pool2
I0503 11:56:15.005501 20558 net.cpp:435] pool2 <- conv2
I0503 11:56:15.005506 20558 net.cpp:409] pool2 -> pool2
I0503 11:56:15.005539 20558 net.cpp:144] Setting up pool2
I0503 11:56:15.005547 20558 net.cpp:151] Top shape: 20 64 5 5 (32000)
I0503 11:56:15.005550 20558 net.cpp:159] Memory required for data: 2184240
I0503 11:56:15.005553 20558 layer_factory.hpp:77] Creating layer conv3
I0503 11:56:15.005561 20558 net.cpp:94] Creating Layer conv3
I0503 11:56:15.005565 20558 net.cpp:435] conv3 <- pool2
I0503 11:56:15.005570 20558 net.cpp:409] conv3 -> conv3
I0503 11:56:15.012810 20558 net.cpp:144] Setting up conv3
I0503 11:56:15.012825 20558 net.cpp:151] Top shape: 20 128 5 5 (64000)
I0503 11:56:15.012830 20558 net.cpp:159] Memory required for data: 2440240
I0503 11:56:15.012838 20558 layer_factory.hpp:77] Creating layer relu3
I0503 11:56:15.012845 20558 net.cpp:94] Creating Layer relu3
I0503 11:56:15.012850 20558 net.cpp:435] relu3 <- conv3
I0503 11:56:15.012854 20558 net.cpp:396] relu3 -> conv3 (in-place)
I0503 11:56:15.012861 20558 net.cpp:144] Setting up relu3
I0503 11:56:15.012866 20558 net.cpp:151] Top shape: 20 128 5 5 (64000)
I0503 11:56:15.012868 20558 net.cpp:159] Memory required for data: 2696240
I0503 11:56:15.012872 20558 layer_factory.hpp:77] Creating layer conv4
I0503 11:56:15.012879 20558 net.cpp:94] Creating Layer conv4
I0503 11:56:15.012883 20558 net.cpp:435] conv4 <- conv3
I0503 11:56:15.012888 20558 net.cpp:409] conv4 -> conv4
I0503 11:56:15.025540 20558 net.cpp:144] Setting up conv4
I0503 11:56:15.025554 20558 net.cpp:151] Top shape: 20 128 5 5 (64000)
I0503 11:56:15.025558 20558 net.cpp:159] Memory required for data: 2952240
I0503 11:56:15.025565 20558 layer_factory.hpp:77] Creating layer relu4
I0503 11:56:15.025571 20558 net.cpp:94] Creating Layer relu4
I0503 11:56:15.025575 20558 net.cpp:435] relu4 <- conv4
I0503 11:56:15.025584 20558 net.cpp:396] relu4 -> conv4 (in-place)
I0503 11:56:15.025591 20558 net.cpp:144] Setting up relu4
I0503 11:56:15.025596 20558 net.cpp:151] Top shape: 20 128 5 5 (64000)
I0503 11:56:15.025599 20558 net.cpp:159] Memory required for data: 3208240
I0503 11:56:15.025604 20558 layer_factory.hpp:77] Creating layer conv5
I0503 11:56:15.025610 20558 net.cpp:94] Creating Layer conv5
I0503 11:56:15.025614 20558 net.cpp:435] conv5 <- conv4
I0503 11:56:15.025619 20558 net.cpp:409] conv5 -> conv5
I0503 11:56:15.038326 20558 net.cpp:144] Setting up conv5
I0503 11:56:15.038347 20558 net.cpp:151] Top shape: 20 128 5 5 (64000)
I0503 11:56:15.038352 20558 net.cpp:159] Memory required for data: 3464240
I0503 11:56:15.038360 20558 layer_factory.hpp:77] Creating layer relu5
I0503 11:56:15.038367 20558 net.cpp:94] Creating Layer relu5
I0503 11:56:15.038370 20558 net.cpp:435] relu5 <- conv5
I0503 11:56:15.038375 20558 net.cpp:396] relu5 -> conv5 (in-place)
I0503 11:56:15.038383 20558 net.cpp:144] Setting up relu5
I0503 11:56:15.038386 20558 net.cpp:151] Top shape: 20 128 5 5 (64000)
I0503 11:56:15.038390 20558 net.cpp:159] Memory required for data: 3720240
I0503 11:56:15.038393 20558 layer_factory.hpp:77] Creating layer pool5
I0503 11:56:15.038398 20558 net.cpp:94] Creating Layer pool5
I0503 11:56:15.038401 20558 net.cpp:435] pool5 <- conv5
I0503 11:56:15.038406 20558 net.cpp:409] pool5 -> pool5
I0503 11:56:15.038431 20558 net.cpp:144] Setting up pool5
I0503 11:56:15.038439 20558 net.cpp:151] Top shape: 20 128 2 2 (10240)
I0503 11:56:15.038441 20558 net.cpp:159] Memory required for data: 3761200
I0503 11:56:15.038445 20558 layer_factory.hpp:77] Creating layer ip1
I0503 11:56:15.038453 20558 net.cpp:94] Creating Layer ip1
I0503 11:56:15.038456 20558 net.cpp:435] ip1 <- pool5
I0503 11:56:15.038461 20558 net.cpp:409] ip1 -> ip1
I0503 11:56:15.051956 20558 net.cpp:144] Setting up ip1
I0503 11:56:15.051970 20558 net.cpp:151] Top shape: 20 1024 (20480)
I0503 11:56:15.051975 20558 net.cpp:159] Memory required for data: 3843120
I0503 11:56:15.051980 20558 layer_factory.hpp:77] Creating layer ip2
I0503 11:56:15.051987 20558 net.cpp:94] Creating Layer ip2
I0503 11:56:15.051991 20558 net.cpp:435] ip2 <- ip1
I0503 11:56:15.051996 20558 net.cpp:409] ip2 -> ip2
I0503 11:56:15.065451 20558 net.cpp:144] Setting up ip2
I0503 11:56:15.065464 20558 net.cpp:151] Top shape: 20 512 (10240)
I0503 11:56:15.065469 20558 net.cpp:159] Memory required for data: 3884080
I0503 11:56:15.065474 20558 layer_factory.hpp:77] Creating layer ip3
I0503 11:56:15.065482 20558 net.cpp:94] Creating Layer ip3
I0503 11:56:15.065486 20558 net.cpp:435] ip3 <- ip2
I0503 11:56:15.065492 20558 net.cpp:409] ip3 -> ip3
I0503 11:56:15.066203 20558 net.cpp:144] Setting up ip3
I0503 11:56:15.066210 20558 net.cpp:151] Top shape: 20 50 (1000)
I0503 11:56:15.066215 20558 net.cpp:159] Memory required for data: 3888080
I0503 11:56:15.066220 20558 layer_factory.hpp:77] Creating layer ip3_ip3_0_split
I0503 11:56:15.066226 20558 net.cpp:94] Creating Layer ip3_ip3_0_split
I0503 11:56:15.066229 20558 net.cpp:435] ip3_ip3_0_split <- ip3
I0503 11:56:15.066233 20558 net.cpp:409] ip3_ip3_0_split -> ip3_ip3_0_split_0
I0503 11:56:15.066239 20558 net.cpp:409] ip3_ip3_0_split -> ip3_ip3_0_split_1
I0503 11:56:15.066264 20558 net.cpp:144] Setting up ip3_ip3_0_split
I0503 11:56:15.066270 20558 net.cpp:151] Top shape: 20 50 (1000)
I0503 11:56:15.066274 20558 net.cpp:151] Top shape: 20 50 (1000)
I0503 11:56:15.066278 20558 net.cpp:159] Memory required for data: 3896080
I0503 11:56:15.066282 20558 layer_factory.hpp:77] Creating layer accuracy
I0503 11:56:15.066287 20558 net.cpp:94] Creating Layer accuracy
I0503 11:56:15.066292 20558 net.cpp:435] accuracy <- ip3_ip3_0_split_0
I0503 11:56:15.066295 20558 net.cpp:435] accuracy <- label_intercept_1_split_0
I0503 11:56:15.066300 20558 net.cpp:409] accuracy -> accuracy
…
