…
I0502 17:07:11.377744 11756 net.cpp:323] The NetState phase (0) differed from the phase (1) specified by a rule in layer intercept
I0502 17:07:11.377760 11756 net.cpp:323] The NetState phase (0) differed from the phase (1) specified by a rule in layer accuracy
I0502 17:07:11.377849 11756 net.cpp:52] Initializing net from parameters: 
state {
  phase: TRAIN
}
layer {
  name: "parameters"
  type: "HDF5Data"
  top: "data"
  top: "label"
  include {
    phase: TRAIN
  }
  hdf5_data_param {
    source: "/home/purduethu/scratch/radon/d/deng106/CNNStatisticalModel/distributions/input/20_distributions_900_sample_size_train-distributions-path.txt"
    batch_size: 20
  }
}
layer {
  name: "conv1"
  type: "Convolution"
  bottom: "data"
  top: "conv1"
  param {
    lr_mult: 1
  }
  param {
    lr_mult: 2
  }
  convolution_param {
    num_output: 64
    pad: 2
    kernel_size: 5
    stride: 1
    weight_filler {
      type: "gaussian"
      std: 0.0001
    }
    bias_filler {
      type: "constant"
    }
  }
}
layer {
  name: "relu1"
  type: "ReLU"
  bottom: "conv1"
  top: "conv1"
}
layer {
  name: "conv2"
  type: "Convolution"
  bottom: "conv1"
  top: "conv2"
  param {
    lr_mult: 1
  }
  param {
    lr_mult: 2
  }
  convolution_param {
    num_output: 64
    pad: 2
    kernel_size: 5
    stride: 1
    weight_filler {
      type: "gaussian"
      std: 0.01
    }
    bias_filler {
      type: "constant"
    }
  }
}
layer {
  name: "relu2"
  type: "ReLU"
  bottom: "conv2"
  top: "conv2"
}
layer {
  name: "pool2"
  type: "Pooling"
  bottom: "conv2"
  top: "pool2"
  pooling_param {
    pool: MAX
    kernel_size: 3
    stride: 2
  }
}
layer {
  name: "conv3"
  type: "Convolution"
  bottom: "pool2"
  top: "conv3"
  param {
    lr_mult: 1
  }
  param {
    lr_mult: 2
  }
  convolution_param {
    num_output: 64
    pad: 2
    kernel_size: 5
    stride: 1
    weight_filler {
      type: "gaussian"
      std: 0.01
    }
    bias_filler {
      type: "constant"
    }
  }
}
layer {
  name: "relu3"
  type: "ReLU"
  bottom: "conv3"
  top: "conv3"
}
layer {
  name: "conv4"
  type: "Convolution"
  bottom: "conv3"
  top: "conv4"
  param {
    lr_mult: 1
  }
  param {
    lr_mult: 2
  }
  convolution_param {
    num_output: 64
    pad: 2
    kernel_size: 5
    stride: 1
    weight_filler {
      type: "gaussian"
      std: 0.01
    }
    bias_filler {
      type: "constant"
    }
  }
}
layer {
  name: "relu4"
  type: "ReLU"
  bottom: "conv4"
  top: "conv4"
}
layer {
  name: "conv5"
  type: "Convolution"
  bottom: "conv4"
  top: "conv5"
  param {
    lr_mult: 1
  }
  param {
    lr_mult: 2
  }
  convolution_param {
    num_output: 64
    pad: 2
    kernel_size: 5
    stride: 1
    weight_filler {
      type: "gaussian"
      std: 0.01
    }
    bias_filler {
      type: "constant"
    }
  }
}
layer {
  name: "relu5"
  type: "ReLU"
  bottom: "conv5"
  top: "conv5"
}
layer {
  name: "pool5"
  type: "Pooling"
  bottom: "conv5"
  top: "pool5"
  pooling_param {
    pool: AVE
    kernel_size: 3
    stride: 2
  }
}
layer {
  name: "ip1"
  type: "InnerProduct"
  bottom: "pool5"
  top: "ip1"
  param {
    lr_mult: 1
  }
  param {
    lr_mult: 2
  }
  inner_product_param {
    num_output: 64
    weight_filler {
      type: "gaussian"
      std: 0.1
    }
    bias_filler {
      type: "constant"
    }
  }
}
layer {
  name: "ip2"
  type: "InnerProduct"
  bottom: "ip1"
  top: "ip2"
  param {
    lr_mult: 1
  }
  param {
    lr_mult: 2
  }
  inner_product_param {
    num_output: 64
    weight_filler {
      type: "gaussian"
      std: 0.1
    }
    bias_filler {
      type: "constant"
    }
  }
}
layer {
  name: "ip3"
  type: "InnerProduct"
  bottom: "ip2"
  top: "ip3"
  param {
    lr_mult: 1
  }
  param {
    lr_mult: 2
  }
  inner_product_param {
    num_output: 50
    weight_filler {
      type: "gaussian"
      std: 0.1
    }
    bias_filler {
      type: "constant"
    }
  }
}
layer {
  name: "loss"
  type: "SoftmaxWithLoss"
  bottom: "ip3"
  bottom: "label"
  top: "loss"
}
I0502 17:07:11.377924 11756 layer_factory.hpp:77] Creating layer parameters
I0502 17:07:11.377939 11756 net.cpp:94] Creating Layer parameters
I0502 17:07:11.377945 11756 net.cpp:409] parameters -> data
I0502 17:07:11.377965 11756 net.cpp:409] parameters -> label
I0502 17:07:11.377975 11756 hdf5_data_layer.cpp:79] Loading list of HDF5 filenames from: /home/purduethu/scratch/radon/d/deng106/CNNStatisticalModel/distributions/input/20_distributions_900_sample_size_train-distributions-path.txt
I0502 17:07:11.377997 11756 hdf5_data_layer.cpp:93] Number of HDF5 files: 1
I0502 17:07:11.378450 11756 hdf5.cpp:32] Datatype class: H5T_FLOAT
I0502 17:07:11.952242 11756 hdf5.cpp:35] Datatype class: H5T_INTEGER
I0502 17:07:11.953989 11756 net.cpp:144] Setting up parameters
I0502 17:07:11.954010 11756 net.cpp:151] Top shape: 20 1 30 30 (18000)
I0502 17:07:11.954016 11756 net.cpp:151] Top shape: 20 (20)
I0502 17:07:11.954020 11756 net.cpp:159] Memory required for data: 72080
I0502 17:07:11.954028 11756 layer_factory.hpp:77] Creating layer conv1
I0502 17:07:11.954048 11756 net.cpp:94] Creating Layer conv1
I0502 17:07:11.954054 11756 net.cpp:435] conv1 <- data
I0502 17:07:11.954066 11756 net.cpp:409] conv1 -> conv1
I0502 17:07:11.962405 11756 net.cpp:144] Setting up conv1
I0502 17:07:11.962450 11756 net.cpp:151] Top shape: 20 64 30 30 (1152000)
I0502 17:07:11.962462 11756 net.cpp:159] Memory required for data: 4680080
I0502 17:07:11.962491 11756 layer_factory.hpp:77] Creating layer relu1
I0502 17:07:11.962512 11756 net.cpp:94] Creating Layer relu1
I0502 17:07:11.962525 11756 net.cpp:435] relu1 <- conv1
I0502 17:07:11.962539 11756 net.cpp:396] relu1 -> conv1 (in-place)
I0502 17:07:11.962577 11756 net.cpp:144] Setting up relu1
I0502 17:07:11.962594 11756 net.cpp:151] Top shape: 20 64 30 30 (1152000)
I0502 17:07:11.962604 11756 net.cpp:159] Memory required for data: 9288080
I0502 17:07:11.962613 11756 layer_factory.hpp:77] Creating layer conv2
I0502 17:07:11.962635 11756 net.cpp:94] Creating Layer conv2
I0502 17:07:11.962646 11756 net.cpp:435] conv2 <- conv1
I0502 17:07:11.962661 11756 net.cpp:409] conv2 -> conv2
I0502 17:07:11.986623 11756 net.cpp:144] Setting up conv2
I0502 17:07:11.986660 11756 net.cpp:151] Top shape: 20 64 30 30 (1152000)
I0502 17:07:11.986671 11756 net.cpp:159] Memory required for data: 13896080
I0502 17:07:11.986692 11756 layer_factory.hpp:77] Creating layer relu2
I0502 17:07:11.986711 11756 net.cpp:94] Creating Layer relu2
I0502 17:07:11.986721 11756 net.cpp:435] relu2 <- conv2
I0502 17:07:11.986734 11756 net.cpp:396] relu2 -> conv2 (in-place)
I0502 17:07:11.986754 11756 net.cpp:144] Setting up relu2
I0502 17:07:11.986768 11756 net.cpp:151] Top shape: 20 64 30 30 (1152000)
I0502 17:07:11.986776 11756 net.cpp:159] Memory required for data: 18504080
I0502 17:07:11.986785 11756 layer_factory.hpp:77] Creating layer pool2
I0502 17:07:11.986814 11756 net.cpp:94] Creating Layer pool2
I0502 17:07:11.986826 11756 net.cpp:435] pool2 <- conv2
I0502 17:07:11.986840 11756 net.cpp:409] pool2 -> pool2
I0502 17:07:11.986943 11756 net.cpp:144] Setting up pool2
I0502 17:07:11.986959 11756 net.cpp:151] Top shape: 20 64 15 15 (288000)
I0502 17:07:11.986969 11756 net.cpp:159] Memory required for data: 19656080
I0502 17:07:11.986979 11756 layer_factory.hpp:77] Creating layer conv3
I0502 17:07:11.986997 11756 net.cpp:94] Creating Layer conv3
I0502 17:07:11.987007 11756 net.cpp:435] conv3 <- pool2
I0502 17:07:11.987040 11756 net.cpp:409] conv3 -> conv3
I0502 17:07:12.003799 11756 net.cpp:144] Setting up conv3
I0502 17:07:12.003841 11756 net.cpp:151] Top shape: 20 64 15 15 (288000)
I0502 17:07:12.003852 11756 net.cpp:159] Memory required for data: 20808080
I0502 17:07:12.003875 11756 layer_factory.hpp:77] Creating layer relu3
I0502 17:07:12.003890 11756 net.cpp:94] Creating Layer relu3
I0502 17:07:12.003898 11756 net.cpp:435] relu3 <- conv3
I0502 17:07:12.003911 11756 net.cpp:396] relu3 -> conv3 (in-place)
I0502 17:07:12.003929 11756 net.cpp:144] Setting up relu3
I0502 17:07:12.003942 11756 net.cpp:151] Top shape: 20 64 15 15 (288000)
I0502 17:07:12.003950 11756 net.cpp:159] Memory required for data: 21960080
I0502 17:07:12.003958 11756 layer_factory.hpp:77] Creating layer conv4
I0502 17:07:12.003978 11756 net.cpp:94] Creating Layer conv4
I0502 17:07:12.003988 11756 net.cpp:435] conv4 <- conv3
I0502 17:07:12.004001 11756 net.cpp:409] conv4 -> conv4
I0502 17:07:12.017585 11756 net.cpp:144] Setting up conv4
I0502 17:07:12.017617 11756 net.cpp:151] Top shape: 20 64 15 15 (288000)
I0502 17:07:12.017628 11756 net.cpp:159] Memory required for data: 23112080
I0502 17:07:12.017643 11756 layer_factory.hpp:77] Creating layer relu4
I0502 17:07:12.017657 11756 net.cpp:94] Creating Layer relu4
I0502 17:07:12.017666 11756 net.cpp:435] relu4 <- conv4
I0502 17:07:12.017678 11756 net.cpp:396] relu4 -> conv4 (in-place)
I0502 17:07:12.017695 11756 net.cpp:144] Setting up relu4
I0502 17:07:12.017706 11756 net.cpp:151] Top shape: 20 64 15 15 (288000)
I0502 17:07:12.017714 11756 net.cpp:159] Memory required for data: 24264080
I0502 17:07:12.017722 11756 layer_factory.hpp:77] Creating layer conv5
I0502 17:07:12.017740 11756 net.cpp:94] Creating Layer conv5
I0502 17:07:12.017748 11756 net.cpp:435] conv5 <- conv4
I0502 17:07:12.017760 11756 net.cpp:409] conv5 -> conv5
I0502 17:07:12.032181 11756 net.cpp:144] Setting up conv5
I0502 17:07:12.032222 11756 net.cpp:151] Top shape: 20 64 15 15 (288000)
I0502 17:07:12.032234 11756 net.cpp:159] Memory required for data: 25416080
I0502 17:07:12.032269 11756 layer_factory.hpp:77] Creating layer relu5
I0502 17:07:12.032282 11756 net.cpp:94] Creating Layer relu5
I0502 17:07:12.032291 11756 net.cpp:435] relu5 <- conv5
I0502 17:07:12.032302 11756 net.cpp:396] relu5 -> conv5 (in-place)
I0502 17:07:12.032318 11756 net.cpp:144] Setting up relu5
I0502 17:07:12.032330 11756 net.cpp:151] Top shape: 20 64 15 15 (288000)
I0502 17:07:12.032337 11756 net.cpp:159] Memory required for data: 26568080
I0502 17:07:12.032346 11756 layer_factory.hpp:77] Creating layer pool5
I0502 17:07:12.032356 11756 net.cpp:94] Creating Layer pool5
I0502 17:07:12.032363 11756 net.cpp:435] pool5 <- conv5
I0502 17:07:12.032374 11756 net.cpp:409] pool5 -> pool5
I0502 17:07:12.032438 11756 net.cpp:144] Setting up pool5
I0502 17:07:12.032452 11756 net.cpp:151] Top shape: 20 64 7 7 (62720)
I0502 17:07:12.032460 11756 net.cpp:159] Memory required for data: 26818960
I0502 17:07:12.032469 11756 layer_factory.hpp:77] Creating layer ip1
I0502 17:07:12.032486 11756 net.cpp:94] Creating Layer ip1
I0502 17:07:12.032495 11756 net.cpp:435] ip1 <- pool5
I0502 17:07:12.032505 11756 net.cpp:409] ip1 -> ip1
I0502 17:07:12.043313 11756 net.cpp:144] Setting up ip1
I0502 17:07:12.043331 11756 net.cpp:151] Top shape: 20 64 (1280)
I0502 17:07:12.043340 11756 net.cpp:159] Memory required for data: 26824080
I0502 17:07:12.043352 11756 layer_factory.hpp:77] Creating layer ip2
I0502 17:07:12.043372 11756 net.cpp:94] Creating Layer ip2
I0502 17:07:12.043382 11756 net.cpp:435] ip2 <- ip1
I0502 17:07:12.043393 11756 net.cpp:409] ip2 -> ip2
I0502 17:07:12.043761 11756 net.cpp:144] Setting up ip2
I0502 17:07:12.043776 11756 net.cpp:151] Top shape: 20 64 (1280)
I0502 17:07:12.043783 11756 net.cpp:159] Memory required for data: 26829200
I0502 17:07:12.043794 11756 layer_factory.hpp:77] Creating layer ip3
I0502 17:07:12.043807 11756 net.cpp:94] Creating Layer ip3
I0502 17:07:12.043813 11756 net.cpp:435] ip3 <- ip2
I0502 17:07:12.043824 11756 net.cpp:409] ip3 -> ip3
I0502 17:07:12.044144 11756 net.cpp:144] Setting up ip3
I0502 17:07:12.044158 11756 net.cpp:151] Top shape: 20 50 (1000)
I0502 17:07:12.044167 11756 net.cpp:159] Memory required for data: 26833200
I0502 17:07:12.044178 11756 layer_factory.hpp:77] Creating layer loss
I0502 17:07:12.044191 11756 net.cpp:94] Creating Layer loss
I0502 17:07:12.044199 11756 net.cpp:435] loss <- ip3
I0502 17:07:12.044209 11756 net.cpp:435] loss <- label
I0502 17:07:12.044219 11756 net.cpp:409] loss -> loss
I0502 17:07:12.044239 11756 layer_factory.hpp:77] Creating layer loss
…
I0502 17:07:12.045253 11756 solver.cpp:181] Creating test net (#0) specified by net file: ./protocol/dis_20_900_dimension.protocol_distribution
I0502 17:07:12.045303 11756 net.cpp:323] The NetState phase (1) differed from the phase (0) specified by a rule in layer parameters
I0502 17:07:12.045490 11756 net.cpp:52] Initializing net from parameters: 
state {
  phase: TEST
}
layer {
  name: "intercept"
  type: "HDF5Data"
  top: "data"
  top: "label"
  include {
    phase: TEST
  }
  hdf5_data_param {
    source: "/home/purduethu/scratch/radon/d/deng106/CNNStatisticalModel/distributions/input/20_distributions_900_sample_size_test-distributions-path.txt"
    batch_size: 20
  }
}
layer {
  name: "conv1"
  type: "Convolution"
  bottom: "data"
  top: "conv1"
  param {
    lr_mult: 1
  }
  param {
    lr_mult: 2
  }
  convolution_param {
    num_output: 64
    pad: 2
    kernel_size: 5
    stride: 1
    weight_filler {
      type: "gaussian"
      std: 0.0001
    }
    bias_filler {
      type: "constant"
    }
  }
}
layer {
  name: "relu1"
  type: "ReLU"
  bottom: "conv1"
  top: "conv1"
}
layer {
  name: "conv2"
  type: "Convolution"
  bottom: "conv1"
  top: "conv2"
  param {
    lr_mult: 1
  }
  param {
    lr_mult: 2
  }
  convolution_param {
    num_output: 64
    pad: 2
    kernel_size: 5
    stride: 1
    weight_filler {
      type: "gaussian"
      std: 0.01
    }
    bias_filler {
      type: "constant"
    }
  }
}
layer {
  name: "relu2"
  type: "ReLU"
  bottom: "conv2"
  top: "conv2"
}
layer {
  name: "pool2"
  type: "Pooling"
  bottom: "conv2"
  top: "pool2"
  pooling_param {
    pool: MAX
    kernel_size: 3
    stride: 2
  }
}
layer {
  name: "conv3"
  type: "Convolution"
  bottom: "pool2"
  top: "conv3"
  param {
    lr_mult: 1
  }
  param {
    lr_mult: 2
  }
  convolution_param {
    num_output: 64
    pad: 2
    kernel_size: 5
    stride: 1
    weight_filler {
      type: "gaussian"
      std: 0.01
    }
    bias_filler {
      type: "constant"
    }
  }
}
layer {
  name: "relu3"
  type: "ReLU"
  bottom: "conv3"
  top: "conv3"
}
layer {
  name: "conv4"
  type: "Convolution"
  bottom: "conv3"
  top: "conv4"
  param {
    lr_mult: 1
  }
  param {
    lr_mult: 2
  }
  convolution_param {
    num_output: 64
    pad: 2
    kernel_size: 5
    stride: 1
    weight_filler {
      type: "gaussian"
      std: 0.01
    }
    bias_filler {
      type: "constant"
    }
  }
}
layer {
  name: "relu4"
  type: "ReLU"
  bottom: "conv4"
  top: "conv4"
}
layer {
  name: "conv5"
  type: "Convolution"
  bottom: "conv4"
  top: "conv5"
  param {
    lr_mult: 1
  }
  param {
    lr_mult: 2
  }
  convolution_param {
    num_output: 64
    pad: 2
    kernel_size: 5
    stride: 1
    weight_filler {
      type: "gaussian"
      std: 0.01
    }
    bias_filler {
      type: "constant"
    }
  }
}
layer {
  name: "relu5"
  type: "ReLU"
  bottom: "conv5"
  top: "conv5"
}
layer {
  name: "pool5"
  type: "Pooling"
  bottom: "conv5"
  top: "pool5"
  pooling_param {
    pool: AVE
    kernel_size: 3
    stride: 2
  }
}
layer {
  name: "ip1"
  type: "InnerProduct"
  bottom: "pool5"
  top: "ip1"
  param {
    lr_mult: 1
  }
  param {
    lr_mult: 2
  }
  inner_product_param {
    num_output: 64
    weight_filler {
      type: "gaussian"
      std: 0.1
    }
    bias_filler {
      type: "constant"
    }
  }
}
layer {
  name: "ip2"
  type: "InnerProduct"
  bottom: "ip1"
  top: "ip2"
  param {
    lr_mult: 1
  }
  param {
    lr_mult: 2
  }
  inner_product_param {
    num_output: 64
    weight_filler {
      type: "gaussian"
      std: 0.1
    }
    bias_filler {
      type: "constant"
    }
  }
}
layer {
  name: "ip3"
  type: "InnerProduct"
  bottom: "ip2"
  top: "ip3"
  param {
    lr_mult: 1
  }
  param {
    lr_mult: 2
  }
  inner_product_param {
    num_output: 50
    weight_filler {
      type: "gaussian"
      std: 0.1
    }
    bias_filler {
      type: "constant"
    }
  }
}
layer {
  name: "accuracy"
  type: "Accuracy"
  bottom: "ip3"
  bottom: "label"
  top: "accuracy"
  include {
    phase: TEST
  }
}
layer {
  name: "loss"
  type: "SoftmaxWithLoss"
  bottom: "ip3"
  bottom: "label"
  top: "loss"
}
I0502 17:07:12.045629 11756 layer_factory.hpp:77] Creating layer intercept
I0502 17:07:12.045644 11756 net.cpp:94] Creating Layer intercept
I0502 17:07:12.045653 11756 net.cpp:409] intercept -> data
I0502 17:07:12.045668 11756 net.cpp:409] intercept -> label
I0502 17:07:12.045681 11756 hdf5_data_layer.cpp:79] Loading list of HDF5 filenames from: /home/purduethu/scratch/radon/d/deng106/CNNStatisticalModel/distributions/input/20_distributions_900_sample_size_test-distributions-path.txt
I0502 17:07:12.045713 11756 hdf5_data_layer.cpp:93] Number of HDF5 files: 1
I0502 17:07:12.231714 11756 net.cpp:144] Setting up intercept
I0502 17:07:12.231746 11756 net.cpp:151] Top shape: 20 1 30 30 (18000)
I0502 17:07:12.231753 11756 net.cpp:151] Top shape: 20 (20)
I0502 17:07:12.231757 11756 net.cpp:159] Memory required for data: 72080
I0502 17:07:12.231765 11756 layer_factory.hpp:77] Creating layer label_intercept_1_split
I0502 17:07:12.231783 11756 net.cpp:94] Creating Layer label_intercept_1_split
I0502 17:07:12.231788 11756 net.cpp:435] label_intercept_1_split <- label
I0502 17:07:12.231796 11756 net.cpp:409] label_intercept_1_split -> label_intercept_1_split_0
I0502 17:07:12.231806 11756 net.cpp:409] label_intercept_1_split -> label_intercept_1_split_1
I0502 17:07:12.231842 11756 net.cpp:144] Setting up label_intercept_1_split
I0502 17:07:12.231850 11756 net.cpp:151] Top shape: 20 (20)
I0502 17:07:12.231855 11756 net.cpp:151] Top shape: 20 (20)
I0502 17:07:12.231858 11756 net.cpp:159] Memory required for data: 72240
I0502 17:07:12.231863 11756 layer_factory.hpp:77] Creating layer conv1
I0502 17:07:12.231875 11756 net.cpp:94] Creating Layer conv1
I0502 17:07:12.231879 11756 net.cpp:435] conv1 <- data
I0502 17:07:12.231885 11756 net.cpp:409] conv1 -> conv1
I0502 17:07:12.233234 11756 net.cpp:144] Setting up conv1
I0502 17:07:12.233250 11756 net.cpp:151] Top shape: 20 64 30 30 (1152000)
I0502 17:07:12.233255 11756 net.cpp:159] Memory required for data: 4680240
I0502 17:07:12.233266 11756 layer_factory.hpp:77] Creating layer relu1
I0502 17:07:12.233273 11756 net.cpp:94] Creating Layer relu1
I0502 17:07:12.233278 11756 net.cpp:435] relu1 <- conv1
I0502 17:07:12.233283 11756 net.cpp:396] relu1 -> conv1 (in-place)
I0502 17:07:12.233292 11756 net.cpp:144] Setting up relu1
I0502 17:07:12.233297 11756 net.cpp:151] Top shape: 20 64 30 30 (1152000)
I0502 17:07:12.233301 11756 net.cpp:159] Memory required for data: 9288240
I0502 17:07:12.233305 11756 layer_factory.hpp:77] Creating layer conv2
I0502 17:07:12.233314 11756 net.cpp:94] Creating Layer conv2
I0502 17:07:12.233319 11756 net.cpp:435] conv2 <- conv1
I0502 17:07:12.233325 11756 net.cpp:409] conv2 -> conv2
I0502 17:07:12.240283 11756 net.cpp:144] Setting up conv2
I0502 17:07:12.240299 11756 net.cpp:151] Top shape: 20 64 30 30 (1152000)
I0502 17:07:12.240304 11756 net.cpp:159] Memory required for data: 13896240
I0502 17:07:12.240314 11756 layer_factory.hpp:77] Creating layer relu2
I0502 17:07:12.240320 11756 net.cpp:94] Creating Layer relu2
I0502 17:07:12.240324 11756 net.cpp:435] relu2 <- conv2
I0502 17:07:12.240330 11756 net.cpp:396] relu2 -> conv2 (in-place)
I0502 17:07:12.240339 11756 net.cpp:144] Setting up relu2
I0502 17:07:12.240345 11756 net.cpp:151] Top shape: 20 64 30 30 (1152000)
I0502 17:07:12.240347 11756 net.cpp:159] Memory required for data: 18504240
I0502 17:07:12.240351 11756 layer_factory.hpp:77] Creating layer pool2
I0502 17:07:12.240358 11756 net.cpp:94] Creating Layer pool2
I0502 17:07:12.240362 11756 net.cpp:435] pool2 <- conv2
I0502 17:07:12.240367 11756 net.cpp:409] pool2 -> pool2
I0502 17:07:12.240404 11756 net.cpp:144] Setting up pool2
I0502 17:07:12.240411 11756 net.cpp:151] Top shape: 20 64 15 15 (288000)
I0502 17:07:12.240416 11756 net.cpp:159] Memory required for data: 19656240
I0502 17:07:12.240418 11756 layer_factory.hpp:77] Creating layer conv3
I0502 17:07:12.240427 11756 net.cpp:94] Creating Layer conv3
I0502 17:07:12.240432 11756 net.cpp:435] conv3 <- pool2
I0502 17:07:12.240438 11756 net.cpp:409] conv3 -> conv3
I0502 17:07:12.246681 11756 net.cpp:144] Setting up conv3
I0502 17:07:12.246697 11756 net.cpp:151] Top shape: 20 64 15 15 (288000)
I0502 17:07:12.246702 11756 net.cpp:159] Memory required for data: 20808240
I0502 17:07:12.246711 11756 layer_factory.hpp:77] Creating layer relu3
I0502 17:07:12.246719 11756 net.cpp:94] Creating Layer relu3
I0502 17:07:12.246723 11756 net.cpp:435] relu3 <- conv3
I0502 17:07:12.246729 11756 net.cpp:396] relu3 -> conv3 (in-place)
I0502 17:07:12.246737 11756 net.cpp:144] Setting up relu3
I0502 17:07:12.246742 11756 net.cpp:151] Top shape: 20 64 15 15 (288000)
I0502 17:07:12.246747 11756 net.cpp:159] Memory required for data: 21960240
I0502 17:07:12.246750 11756 layer_factory.hpp:77] Creating layer conv4
I0502 17:07:12.246758 11756 net.cpp:94] Creating Layer conv4
I0502 17:07:12.246762 11756 net.cpp:435] conv4 <- conv3
I0502 17:07:12.246768 11756 net.cpp:409] conv4 -> conv4
I0502 17:07:12.252279 11756 net.cpp:144] Setting up conv4
I0502 17:07:12.252295 11756 net.cpp:151] Top shape: 20 64 15 15 (288000)
I0502 17:07:12.252300 11756 net.cpp:159] Memory required for data: 23112240
I0502 17:07:12.252306 11756 layer_factory.hpp:77] Creating layer relu4
I0502 17:07:12.252312 11756 net.cpp:94] Creating Layer relu4
I0502 17:07:12.252321 11756 net.cpp:435] relu4 <- conv4
I0502 17:07:12.252327 11756 net.cpp:396] relu4 -> conv4 (in-place)
I0502 17:07:12.252336 11756 net.cpp:144] Setting up relu4
I0502 17:07:12.252341 11756 net.cpp:151] Top shape: 20 64 15 15 (288000)
I0502 17:07:12.252344 11756 net.cpp:159] Memory required for data: 24264240
I0502 17:07:12.252348 11756 layer_factory.hpp:77] Creating layer conv5
I0502 17:07:12.252357 11756 net.cpp:94] Creating Layer conv5
I0502 17:07:12.252360 11756 net.cpp:435] conv5 <- conv4
I0502 17:07:12.252367 11756 net.cpp:409] conv5 -> conv5
I0502 17:07:12.257558 11756 net.cpp:144] Setting up conv5
I0502 17:07:12.257573 11756 net.cpp:151] Top shape: 20 64 15 15 (288000)
I0502 17:07:12.257578 11756 net.cpp:159] Memory required for data: 25416240
I0502 17:07:12.257587 11756 layer_factory.hpp:77] Creating layer relu5
I0502 17:07:12.257594 11756 net.cpp:94] Creating Layer relu5
I0502 17:07:12.257598 11756 net.cpp:435] relu5 <- conv5
I0502 17:07:12.257603 11756 net.cpp:396] relu5 -> conv5 (in-place)
I0502 17:07:12.257611 11756 net.cpp:144] Setting up relu5
I0502 17:07:12.257616 11756 net.cpp:151] Top shape: 20 64 15 15 (288000)
I0502 17:07:12.257619 11756 net.cpp:159] Memory required for data: 26568240
I0502 17:07:12.257623 11756 layer_factory.hpp:77] Creating layer pool5
I0502 17:07:12.257629 11756 net.cpp:94] Creating Layer pool5
I0502 17:07:12.257633 11756 net.cpp:435] pool5 <- conv5
I0502 17:07:12.257638 11756 net.cpp:409] pool5 -> pool5
I0502 17:07:12.257664 11756 net.cpp:144] Setting up pool5
I0502 17:07:12.257671 11756 net.cpp:151] Top shape: 20 64 7 7 (62720)
I0502 17:07:12.257675 11756 net.cpp:159] Memory required for data: 26819120
I0502 17:07:12.257678 11756 layer_factory.hpp:77] Creating layer ip1
I0502 17:07:12.257686 11756 net.cpp:94] Creating Layer ip1
I0502 17:07:12.257690 11756 net.cpp:435] ip1 <- pool5
I0502 17:07:12.257695 11756 net.cpp:409] ip1 -> ip1
I0502 17:07:12.262887 11756 net.cpp:144] Setting up ip1
I0502 17:07:12.262897 11756 net.cpp:151] Top shape: 20 64 (1280)
I0502 17:07:12.262900 11756 net.cpp:159] Memory required for data: 26824240
I0502 17:07:12.262907 11756 layer_factory.hpp:77] Creating layer ip2
I0502 17:07:12.262913 11756 net.cpp:94] Creating Layer ip2
I0502 17:07:12.262917 11756 net.cpp:435] ip2 <- ip1
I0502 17:07:12.262923 11756 net.cpp:409] ip2 -> ip2
I0502 17:07:12.263100 11756 net.cpp:144] Setting up ip2
I0502 17:07:12.263106 11756 net.cpp:151] Top shape: 20 64 (1280)
I0502 17:07:12.263110 11756 net.cpp:159] Memory required for data: 26829360
I0502 17:07:12.263115 11756 layer_factory.hpp:77] Creating layer ip3
I0502 17:07:12.263123 11756 net.cpp:94] Creating Layer ip3
I0502 17:07:12.263126 11756 net.cpp:435] ip3 <- ip2
I0502 17:07:12.263131 11756 net.cpp:409] ip3 -> ip3
I0502 17:07:12.263285 11756 net.cpp:144] Setting up ip3
I0502 17:07:12.263293 11756 net.cpp:151] Top shape: 20 50 (1000)
I0502 17:07:12.263295 11756 net.cpp:159] Memory required for data: 26833360
I0502 17:07:12.263300 11756 layer_factory.hpp:77] Creating layer ip3_ip3_0_split
I0502 17:07:12.263306 11756 net.cpp:94] Creating Layer ip3_ip3_0_split
I0502 17:07:12.263310 11756 net.cpp:435] ip3_ip3_0_split <- ip3
I0502 17:07:12.263314 11756 net.cpp:409] ip3_ip3_0_split -> ip3_ip3_0_split_0
I0502 17:07:12.263320 11756 net.cpp:409] ip3_ip3_0_split -> ip3_ip3_0_split_1
I0502 17:07:12.263345 11756 net.cpp:144] Setting up ip3_ip3_0_split
I0502 17:07:12.263351 11756 net.cpp:151] Top shape: 20 50 (1000)
I0502 17:07:12.263355 11756 net.cpp:151] Top shape: 20 50 (1000)
I0502 17:07:12.263360 11756 net.cpp:159] Memory required for data: 26841360
I0502 17:07:12.263362 11756 layer_factory.hpp:77] Creating layer accuracy
I0502 17:07:12.263368 11756 net.cpp:94] Creating Layer accuracy
I0502 17:07:12.263372 11756 net.cpp:435] accuracy <- ip3_ip3_0_split_0
I0502 17:07:12.263376 11756 net.cpp:435] accuracy <- label_intercept_1_split_0
I0502 17:07:12.263381 11756 net.cpp:409] accuracy -> accuracy
…
