…
I0505 07:28:38.536612  4661 net.cpp:323] The NetState phase (0) differed from the phase (1) specified by a rule in layer intercept
I0505 07:28:38.536628  4661 net.cpp:323] The NetState phase (0) differed from the phase (1) specified by a rule in layer loss
I0505 07:28:38.536705  4661 net.cpp:52] Initializing net from parameters: 
state {
  phase: TRAIN
}
layer {
  name: "parameters"
  type: "HDF5Data"
  top: "data"
  top: "label"
  include {
    phase: TRAIN
  }
  hdf5_data_param {
    source: "/home/purduethu/scratch/radon/d/deng106/CNNStatisticalModel/distributions/input/5_distributions_900_sample_size_train-parameters-path.txt"
    batch_size: 20
  }
}
layer {
  name: "conv1"
  type: "Convolution"
  bottom: "data"
  top: "conv1"
  param {
    lr_mult: 1
  }
  param {
    lr_mult: 2
  }
  convolution_param {
    num_output: 64
    pad: 2
    kernel_size: 5
    stride: 1
    weight_filler {
      type: "gaussian"
      std: 0.0001
    }
    bias_filler {
      type: "constant"
    }
  }
}
layer {
  name: "relu1"
  type: "ReLU"
  bottom: "conv1"
  top: "conv1"
}
layer {
  name: "pool1"
  type: "Pooling"
  bottom: "conv1"
  top: "pool1"
  pooling_param {
    pool: MAX
    kernel_size: 3
    stride: 2
  }
}
layer {
  name: "conv2"
  type: "Convolution"
  bottom: "pool1"
  top: "conv2"
  param {
    lr_mult: 1
  }
  param {
    lr_mult: 2
  }
  convolution_param {
    num_output: 128
    pad: 2
    kernel_size: 5
    stride: 1
    weight_filler {
      type: "gaussian"
      std: 0.01
    }
    bias_filler {
      type: "constant"
    }
  }
}
layer {
  name: "relu2"
  type: "ReLU"
  bottom: "conv2"
  top: "conv2"
}
layer {
  name: "conv3"
  type: "Convolution"
  bottom: "conv2"
  top: "conv3"
  param {
    lr_mult: 1
  }
  param {
    lr_mult: 2
  }
  convolution_param {
    num_output: 128
    pad: 2
    kernel_size: 5
    stride: 1
    weight_filler {
      type: "gaussian"
      std: 0.01
    }
    bias_filler {
      type: "constant"
    }
  }
}
layer {
  name: "relu3"
  type: "ReLU"
  bottom: "conv3"
  top: "conv3"
}
layer {
  name: "pool3"
  type: "Pooling"
  bottom: "conv3"
  top: "pool3"
  pooling_param {
    pool: AVE
    kernel_size: 3
    stride: 2
  }
}
layer {
  name: "ip1"
  type: "InnerProduct"
  bottom: "pool3"
  top: "ip1"
  param {
    lr_mult: 1
  }
  param {
    lr_mult: 2
  }
  inner_product_param {
    num_output: 512
    weight_filler {
      type: "gaussian"
      std: 0.1
    }
    bias_filler {
      type: "constant"
    }
  }
}
layer {
  name: "ip2"
  type: "InnerProduct"
  bottom: "ip1"
  top: "ip2"
  param {
    lr_mult: 1
  }
  param {
    lr_mult: 2
  }
  inner_product_param {
    num_output: 256
    weight_filler {
      type: "gaussian"
      std: 0.1
    }
    bias_filler {
      type: "constant"
    }
  }
}
layer {
  name: "ip3"
  type: "InnerProduct"
  bottom: "ip2"
  top: "ip3"
  param {
    lr_mult: 1
  }
  param {
    lr_mult: 2
  }
  inner_product_param {
    num_output: 1
    weight_filler {
      type: "gaussian"
      std: 0.1
    }
    bias_filler {
      type: "constant"
    }
  }
}
layer {
  name: "loss"
  type: "HuberLoss"
  bottom: "ip3"
  bottom: "label"
  top: "loss"
  include {
    phase: TRAIN
  }
}
I0505 07:28:38.536767  4661 layer_factory.hpp:77] Creating layer parameters
I0505 07:28:38.536782  4661 net.cpp:94] Creating Layer parameters
I0505 07:28:38.536795  4661 net.cpp:409] parameters -> data
I0505 07:28:38.536814  4661 net.cpp:409] parameters -> label
I0505 07:28:38.536825  4661 hdf5_data_layer.cpp:79] Loading list of HDF5 filenames from: /home/purduethu/scratch/radon/d/deng106/CNNStatisticalModel/distributions/input/5_distributions_900_sample_size_train-parameters-path.txt
I0505 07:28:38.536847  4661 hdf5_data_layer.cpp:93] Number of HDF5 files: 1
I0505 07:28:38.537330  4661 hdf5.cpp:32] Datatype class: H5T_FLOAT
I0505 07:28:38.676939  4661 net.cpp:144] Setting up parameters
I0505 07:28:38.676972  4661 net.cpp:151] Top shape: 20 1 30 30 (18000)
I0505 07:28:38.676978  4661 net.cpp:151] Top shape: 20 (20)
I0505 07:28:38.676982  4661 net.cpp:159] Memory required for data: 72080
I0505 07:28:38.676990  4661 layer_factory.hpp:77] Creating layer conv1
I0505 07:28:38.677009  4661 net.cpp:94] Creating Layer conv1
I0505 07:28:38.677014  4661 net.cpp:435] conv1 <- data
I0505 07:28:38.677026  4661 net.cpp:409] conv1 -> conv1
I0505 07:28:38.685539  4661 net.cpp:144] Setting up conv1
I0505 07:28:38.685559  4661 net.cpp:151] Top shape: 20 64 30 30 (1152000)
I0505 07:28:38.685562  4661 net.cpp:159] Memory required for data: 4680080
I0505 07:28:38.685575  4661 layer_factory.hpp:77] Creating layer relu1
I0505 07:28:38.685583  4661 net.cpp:94] Creating Layer relu1
I0505 07:28:38.685587  4661 net.cpp:435] relu1 <- conv1
I0505 07:28:38.685592  4661 net.cpp:396] relu1 -> conv1 (in-place)
I0505 07:28:38.685605  4661 net.cpp:144] Setting up relu1
I0505 07:28:38.685609  4661 net.cpp:151] Top shape: 20 64 30 30 (1152000)
I0505 07:28:38.685612  4661 net.cpp:159] Memory required for data: 9288080
I0505 07:28:38.685616  4661 layer_factory.hpp:77] Creating layer pool1
I0505 07:28:38.685623  4661 net.cpp:94] Creating Layer pool1
I0505 07:28:38.685626  4661 net.cpp:435] pool1 <- conv1
I0505 07:28:38.685631  4661 net.cpp:409] pool1 -> pool1
I0505 07:28:38.685674  4661 net.cpp:144] Setting up pool1
I0505 07:28:38.685681  4661 net.cpp:151] Top shape: 20 64 15 15 (288000)
I0505 07:28:38.685685  4661 net.cpp:159] Memory required for data: 10440080
I0505 07:28:38.685688  4661 layer_factory.hpp:77] Creating layer conv2
I0505 07:28:38.685698  4661 net.cpp:94] Creating Layer conv2
I0505 07:28:38.685701  4661 net.cpp:435] conv2 <- pool1
I0505 07:28:38.685706  4661 net.cpp:409] conv2 -> conv2
I0505 07:28:38.698942  4661 net.cpp:144] Setting up conv2
I0505 07:28:38.698963  4661 net.cpp:151] Top shape: 20 128 15 15 (576000)
I0505 07:28:38.698969  4661 net.cpp:159] Memory required for data: 12744080
I0505 07:28:38.698981  4661 layer_factory.hpp:77] Creating layer relu2
I0505 07:28:38.698988  4661 net.cpp:94] Creating Layer relu2
I0505 07:28:38.698994  4661 net.cpp:435] relu2 <- conv2
I0505 07:28:38.699000  4661 net.cpp:396] relu2 -> conv2 (in-place)
I0505 07:28:38.699010  4661 net.cpp:144] Setting up relu2
I0505 07:28:38.699018  4661 net.cpp:151] Top shape: 20 128 15 15 (576000)
I0505 07:28:38.699021  4661 net.cpp:159] Memory required for data: 15048080
I0505 07:28:38.699025  4661 layer_factory.hpp:77] Creating layer conv3
I0505 07:28:38.699036  4661 net.cpp:94] Creating Layer conv3
I0505 07:28:38.699041  4661 net.cpp:435] conv3 <- conv2
I0505 07:28:38.699048  4661 net.cpp:409] conv3 -> conv3
I0505 07:28:38.721191  4661 net.cpp:144] Setting up conv3
I0505 07:28:38.721212  4661 net.cpp:151] Top shape: 20 128 15 15 (576000)
I0505 07:28:38.721218  4661 net.cpp:159] Memory required for data: 17352080
I0505 07:28:38.721230  4661 layer_factory.hpp:77] Creating layer relu3
I0505 07:28:38.721238  4661 net.cpp:94] Creating Layer relu3
I0505 07:28:38.721251  4661 net.cpp:435] relu3 <- conv3
I0505 07:28:38.721258  4661 net.cpp:396] relu3 -> conv3 (in-place)
I0505 07:28:38.721268  4661 net.cpp:144] Setting up relu3
I0505 07:28:38.721276  4661 net.cpp:151] Top shape: 20 128 15 15 (576000)
I0505 07:28:38.721279  4661 net.cpp:159] Memory required for data: 19656080
I0505 07:28:38.721284  4661 layer_factory.hpp:77] Creating layer pool3
I0505 07:28:38.721292  4661 net.cpp:94] Creating Layer pool3
I0505 07:28:38.721297  4661 net.cpp:435] pool3 <- conv3
I0505 07:28:38.721312  4661 net.cpp:409] pool3 -> pool3
I0505 07:28:38.721359  4661 net.cpp:144] Setting up pool3
I0505 07:28:38.721367  4661 net.cpp:151] Top shape: 20 128 7 7 (125440)
I0505 07:28:38.721372  4661 net.cpp:159] Memory required for data: 20157840
I0505 07:28:38.721376  4661 layer_factory.hpp:77] Creating layer ip1
I0505 07:28:38.721390  4661 net.cpp:94] Creating Layer ip1
I0505 07:28:38.721395  4661 net.cpp:435] ip1 <- pool3
I0505 07:28:38.721400  4661 net.cpp:409] ip1 -> ip1
I0505 07:28:38.802741  4661 net.cpp:144] Setting up ip1
I0505 07:28:38.802772  4661 net.cpp:151] Top shape: 20 512 (10240)
I0505 07:28:38.802776  4661 net.cpp:159] Memory required for data: 20198800
I0505 07:28:38.802784  4661 layer_factory.hpp:77] Creating layer ip2
I0505 07:28:38.802794  4661 net.cpp:94] Creating Layer ip2
I0505 07:28:38.802798  4661 net.cpp:435] ip2 <- ip1
I0505 07:28:38.802805  4661 net.cpp:409] ip2 -> ip2
I0505 07:28:38.806094  4661 net.cpp:144] Setting up ip2
I0505 07:28:38.806103  4661 net.cpp:151] Top shape: 20 256 (5120)
I0505 07:28:38.806107  4661 net.cpp:159] Memory required for data: 20219280
I0505 07:28:38.806115  4661 layer_factory.hpp:77] Creating layer ip3
I0505 07:28:38.806123  4661 net.cpp:94] Creating Layer ip3
I0505 07:28:38.806125  4661 net.cpp:435] ip3 <- ip2
I0505 07:28:38.806130  4661 net.cpp:409] ip3 -> ip3
I0505 07:28:38.806197  4661 net.cpp:144] Setting up ip3
I0505 07:28:38.806203  4661 net.cpp:151] Top shape: 20 1 (20)
I0505 07:28:38.806207  4661 net.cpp:159] Memory required for data: 20219360
I0505 07:28:38.806212  4661 layer_factory.hpp:77] Creating layer loss
I0505 07:28:38.806226  4661 net.cpp:94] Creating Layer loss
I0505 07:28:38.806231  4661 net.cpp:435] loss <- ip3
I0505 07:28:38.806234  4661 net.cpp:435] loss <- label
I0505 07:28:38.806241  4661 net.cpp:409] loss -> loss
I0505 07:28:38.806277  4661 net.cpp:144] Setting up loss
…
