…
I0501 20:16:21.329306 14491 net.cpp:323] The NetState phase (0) differed from the phase (1) specified by a rule in layer intercept
I0501 20:16:21.329324 14491 net.cpp:323] The NetState phase (0) differed from the phase (1) specified by a rule in layer accuracy
I0501 20:16:21.329416 14491 net.cpp:52] Initializing net from parameters: 
state {
  phase: TRAIN
}
layer {
  name: "parameters"
  type: "HDF5Data"
  top: "data"
  top: "label"
  include {
    phase: TRAIN
  }
  hdf5_data_param {
    source: "/home/purduethu/scratch/radon/d/deng106/CNNStatisticalModel/distributions/input/50_distributions_900_sample_size_train-distributions-path.txt"
    batch_size: 20
  }
}
layer {
  name: "conv1"
  type: "Convolution"
  bottom: "data"
  top: "conv1"
  param {
    lr_mult: 1
  }
  param {
    lr_mult: 2
  }
  convolution_param {
    num_output: 64
    pad: 2
    kernel_size: 5
    stride: 1
    weight_filler {
      type: "gaussian"
      std: 0.0001
    }
    bias_filler {
      type: "constant"
    }
  }
}
layer {
  name: "relu1"
  type: "ReLU"
  bottom: "conv1"
  top: "conv1"
}
layer {
  name: "conv2"
  type: "Convolution"
  bottom: "conv1"
  top: "conv2"
  param {
    lr_mult: 1
  }
  param {
    lr_mult: 2
  }
  convolution_param {
    num_output: 64
    pad: 2
    kernel_size: 5
    stride: 1
    weight_filler {
      type: "gaussian"
      std: 0.01
    }
    bias_filler {
      type: "constant"
    }
  }
}
layer {
  name: "relu2"
  type: "ReLU"
  bottom: "conv2"
  top: "conv2"
}
layer {
  name: "pool2"
  type: "Pooling"
  bottom: "conv2"
  top: "pool2"
  pooling_param {
    pool: MAX
    kernel_size: 3
    stride: 2
  }
}
layer {
  name: "conv3"
  type: "Convolution"
  bottom: "pool2"
  top: "conv3"
  param {
    lr_mult: 1
  }
  param {
    lr_mult: 2
  }
  convolution_param {
    num_output: 64
    pad: 2
    kernel_size: 5
    stride: 1
    weight_filler {
      type: "gaussian"
      std: 0.01
    }
    bias_filler {
      type: "constant"
    }
  }
}
layer {
  name: "relu3"
  type: "ReLU"
  bottom: "conv3"
  top: "conv3"
}
layer {
  name: "conv4"
  type: "Convolution"
  bottom: "conv3"
  top: "conv4"
  param {
    lr_mult: 1
  }
  param {
    lr_mult: 2
  }
  convolution_param {
    num_output: 64
    pad: 2
    kernel_size: 5
    stride: 1
    weight_filler {
      type: "gaussian"
      std: 0.01
    }
    bias_filler {
      type: "constant"
    }
  }
}
layer {
  name: "relu4"
  type: "ReLU"
  bottom: "conv4"
  top: "conv4"
}
layer {
  name: "conv5"
  type: "Convolution"
  bottom: "conv4"
  top: "conv5"
  param {
    lr_mult: 1
  }
  param {
    lr_mult: 2
  }
  convolution_param {
    num_output: 64
    pad: 2
    kernel_size: 5
    stride: 1
    weight_filler {
      type: "gaussian"
      std: 0.01
    }
    bias_filler {
      type: "constant"
    }
  }
}
layer {
  name: "relu5"
  type: "ReLU"
  bottom: "conv5"
  top: "conv5"
}
layer {
  name: "pool5"
  type: "Pooling"
  bottom: "conv5"
  top: "pool5"
  pooling_param {
    pool: AVE
    kernel_size: 3
    stride: 2
  }
}
layer {
  name: "ip1"
  type: "InnerProduct"
  bottom: "pool5"
  top: "ip1"
  param {
    lr_mult: 1
  }
  param {
    lr_mult: 2
  }
  inner_product_param {
    num_output: 64
    weight_filler {
      type: "gaussian"
      std: 0.1
    }
    bias_filler {
      type: "constant"
    }
  }
}
layer {
  name: "ip2"
  type: "InnerProduct"
  bottom: "ip1"
  top: "ip2"
  param {
    lr_mult: 1
  }
  param {
    lr_mult: 2
  }
  inner_product_param {
    num_output: 64
    weight_filler {
      type: "gaussian"
      std: 0.1
    }
    bias_filler {
      type: "constant"
    }
  }
}
layer {
  name: "ip3"
  type: "InnerProduct"
  bottom: "ip2"
  top: "ip3"
  param {
    lr_mult: 1
  }
  param {
    lr_mult: 2
  }
  inner_product_param {
    num_output: 50
    weight_filler {
      type: "gaussian"
      std: 0.1
    }
    bias_filler {
      type: "constant"
    }
  }
}
layer {
  name: "loss"
  type: "SoftmaxWithLoss"
  bottom: "ip3"
  bottom: "label"
  top: "loss"
}
I0501 20:16:21.329493 14491 layer_factory.hpp:77] Creating layer parameters
I0501 20:16:21.329506 14491 net.cpp:94] Creating Layer parameters
I0501 20:16:21.329512 14491 net.cpp:409] parameters -> data
I0501 20:16:21.329532 14491 net.cpp:409] parameters -> label
I0501 20:16:21.329542 14491 hdf5_data_layer.cpp:79] Loading list of HDF5 filenames from: /home/purduethu/scratch/radon/d/deng106/CNNStatisticalModel/distributions/input/50_distributions_900_sample_size_train-distributions-path.txt
I0501 20:16:21.329565 14491 hdf5_data_layer.cpp:93] Number of HDF5 files: 1
I0501 20:16:21.330148 14491 hdf5.cpp:32] Datatype class: H5T_FLOAT
I0501 20:16:22.758780 14491 hdf5.cpp:35] Datatype class: H5T_INTEGER
I0501 20:16:22.761523 14491 net.cpp:144] Setting up parameters
I0501 20:16:22.761541 14491 net.cpp:151] Top shape: 20 1 30 30 (18000)
I0501 20:16:22.761548 14491 net.cpp:151] Top shape: 20 (20)
I0501 20:16:22.761551 14491 net.cpp:159] Memory required for data: 72080
I0501 20:16:22.761559 14491 layer_factory.hpp:77] Creating layer conv1
I0501 20:16:22.761576 14491 net.cpp:94] Creating Layer conv1
I0501 20:16:22.761582 14491 net.cpp:435] conv1 <- data
I0501 20:16:22.761593 14491 net.cpp:409] conv1 -> conv1
I0501 20:16:22.767494 14491 net.cpp:144] Setting up conv1
I0501 20:16:22.767508 14491 net.cpp:151] Top shape: 20 64 30 30 (1152000)
I0501 20:16:22.767513 14491 net.cpp:159] Memory required for data: 4680080
I0501 20:16:22.767524 14491 layer_factory.hpp:77] Creating layer relu1
I0501 20:16:22.767534 14491 net.cpp:94] Creating Layer relu1
I0501 20:16:22.767537 14491 net.cpp:435] relu1 <- conv1
I0501 20:16:22.767542 14491 net.cpp:396] relu1 -> conv1 (in-place)
I0501 20:16:22.767554 14491 net.cpp:144] Setting up relu1
I0501 20:16:22.767560 14491 net.cpp:151] Top shape: 20 64 30 30 (1152000)
I0501 20:16:22.767562 14491 net.cpp:159] Memory required for data: 9288080
I0501 20:16:22.767566 14491 layer_factory.hpp:77] Creating layer conv2
I0501 20:16:22.767575 14491 net.cpp:94] Creating Layer conv2
I0501 20:16:22.767578 14491 net.cpp:435] conv2 <- conv1
I0501 20:16:22.767583 14491 net.cpp:409] conv2 -> conv2
I0501 20:16:22.783171 14491 net.cpp:144] Setting up conv2
I0501 20:16:22.783211 14491 net.cpp:151] Top shape: 20 64 30 30 (1152000)
I0501 20:16:22.783224 14491 net.cpp:159] Memory required for data: 13896080
I0501 20:16:22.783247 14491 layer_factory.hpp:77] Creating layer relu2
I0501 20:16:22.783267 14491 net.cpp:94] Creating Layer relu2
I0501 20:16:22.783279 14491 net.cpp:435] relu2 <- conv2
I0501 20:16:22.783293 14491 net.cpp:396] relu2 -> conv2 (in-place)
I0501 20:16:22.783314 14491 net.cpp:144] Setting up relu2
I0501 20:16:22.783329 14491 net.cpp:151] Top shape: 20 64 30 30 (1152000)
I0501 20:16:22.783339 14491 net.cpp:159] Memory required for data: 18504080
I0501 20:16:22.783349 14491 layer_factory.hpp:77] Creating layer pool2
I0501 20:16:22.783377 14491 net.cpp:94] Creating Layer pool2
I0501 20:16:22.783390 14491 net.cpp:435] pool2 <- conv2
I0501 20:16:22.783403 14491 net.cpp:409] pool2 -> pool2
I0501 20:16:22.783514 14491 net.cpp:144] Setting up pool2
I0501 20:16:22.783522 14491 net.cpp:151] Top shape: 20 64 15 15 (288000)
I0501 20:16:22.783525 14491 net.cpp:159] Memory required for data: 19656080
I0501 20:16:22.783529 14491 layer_factory.hpp:77] Creating layer conv3
I0501 20:16:22.783536 14491 net.cpp:94] Creating Layer conv3
I0501 20:16:22.783540 14491 net.cpp:435] conv3 <- pool2
I0501 20:16:22.783555 14491 net.cpp:409] conv3 -> conv3
I0501 20:16:22.792016 14491 net.cpp:144] Setting up conv3
I0501 20:16:22.792031 14491 net.cpp:151] Top shape: 20 64 15 15 (288000)
I0501 20:16:22.792035 14491 net.cpp:159] Memory required for data: 20808080
I0501 20:16:22.792044 14491 layer_factory.hpp:77] Creating layer relu3
I0501 20:16:22.792050 14491 net.cpp:94] Creating Layer relu3
I0501 20:16:22.792055 14491 net.cpp:435] relu3 <- conv3
I0501 20:16:22.792060 14491 net.cpp:396] relu3 -> conv3 (in-place)
I0501 20:16:22.792068 14491 net.cpp:144] Setting up relu3
I0501 20:16:22.792073 14491 net.cpp:151] Top shape: 20 64 15 15 (288000)
I0501 20:16:22.792076 14491 net.cpp:159] Memory required for data: 21960080
I0501 20:16:22.792080 14491 layer_factory.hpp:77] Creating layer conv4
I0501 20:16:22.792090 14491 net.cpp:94] Creating Layer conv4
I0501 20:16:22.792094 14491 net.cpp:435] conv4 <- conv3
I0501 20:16:22.792099 14491 net.cpp:409] conv4 -> conv4
I0501 20:16:22.799762 14491 net.cpp:144] Setting up conv4
I0501 20:16:22.799777 14491 net.cpp:151] Top shape: 20 64 15 15 (288000)
I0501 20:16:22.799780 14491 net.cpp:159] Memory required for data: 23112080
I0501 20:16:22.799787 14491 layer_factory.hpp:77] Creating layer relu4
I0501 20:16:22.799794 14491 net.cpp:94] Creating Layer relu4
I0501 20:16:22.799798 14491 net.cpp:435] relu4 <- conv4
I0501 20:16:22.799803 14491 net.cpp:396] relu4 -> conv4 (in-place)
I0501 20:16:22.799811 14491 net.cpp:144] Setting up relu4
I0501 20:16:22.799816 14491 net.cpp:151] Top shape: 20 64 15 15 (288000)
I0501 20:16:22.799819 14491 net.cpp:159] Memory required for data: 24264080
I0501 20:16:22.799823 14491 layer_factory.hpp:77] Creating layer conv5
I0501 20:16:22.799831 14491 net.cpp:94] Creating Layer conv5
I0501 20:16:22.799835 14491 net.cpp:435] conv5 <- conv4
I0501 20:16:22.799840 14491 net.cpp:409] conv5 -> conv5
I0501 20:16:22.807410 14491 net.cpp:144] Setting up conv5
I0501 20:16:22.807425 14491 net.cpp:151] Top shape: 20 64 15 15 (288000)
I0501 20:16:22.807430 14491 net.cpp:159] Memory required for data: 25416080
I0501 20:16:22.807438 14491 layer_factory.hpp:77] Creating layer relu5
I0501 20:16:22.807446 14491 net.cpp:94] Creating Layer relu5
I0501 20:16:22.807449 14491 net.cpp:435] relu5 <- conv5
I0501 20:16:22.807454 14491 net.cpp:396] relu5 -> conv5 (in-place)
I0501 20:16:22.807462 14491 net.cpp:144] Setting up relu5
I0501 20:16:22.807467 14491 net.cpp:151] Top shape: 20 64 15 15 (288000)
I0501 20:16:22.807471 14491 net.cpp:159] Memory required for data: 26568080
I0501 20:16:22.807474 14491 layer_factory.hpp:77] Creating layer pool5
I0501 20:16:22.807479 14491 net.cpp:94] Creating Layer pool5
I0501 20:16:22.807483 14491 net.cpp:435] pool5 <- conv5
I0501 20:16:22.807488 14491 net.cpp:409] pool5 -> pool5
I0501 20:16:22.807523 14491 net.cpp:144] Setting up pool5
I0501 20:16:22.807531 14491 net.cpp:151] Top shape: 20 64 7 7 (62720)
I0501 20:16:22.807534 14491 net.cpp:159] Memory required for data: 26818960
I0501 20:16:22.807538 14491 layer_factory.hpp:77] Creating layer ip1
I0501 20:16:22.807548 14491 net.cpp:94] Creating Layer ip1
I0501 20:16:22.807552 14491 net.cpp:435] ip1 <- pool5
I0501 20:16:22.807559 14491 net.cpp:409] ip1 -> ip1
I0501 20:16:22.813347 14491 net.cpp:144] Setting up ip1
I0501 20:16:22.813361 14491 net.cpp:151] Top shape: 20 64 (1280)
I0501 20:16:22.813365 14491 net.cpp:159] Memory required for data: 26824080
I0501 20:16:22.813372 14491 layer_factory.hpp:77] Creating layer ip2
I0501 20:16:22.813383 14491 net.cpp:94] Creating Layer ip2
I0501 20:16:22.813388 14491 net.cpp:435] ip2 <- ip1
I0501 20:16:22.813393 14491 net.cpp:409] ip2 -> ip2
I0501 20:16:22.813572 14491 net.cpp:144] Setting up ip2
I0501 20:16:22.813580 14491 net.cpp:151] Top shape: 20 64 (1280)
I0501 20:16:22.813582 14491 net.cpp:159] Memory required for data: 26829200
I0501 20:16:22.813588 14491 layer_factory.hpp:77] Creating layer ip3
I0501 20:16:22.813594 14491 net.cpp:94] Creating Layer ip3
I0501 20:16:22.813598 14491 net.cpp:435] ip3 <- ip2
I0501 20:16:22.813603 14491 net.cpp:409] ip3 -> ip3
I0501 20:16:22.813760 14491 net.cpp:144] Setting up ip3
I0501 20:16:22.813767 14491 net.cpp:151] Top shape: 20 50 (1000)
I0501 20:16:22.813771 14491 net.cpp:159] Memory required for data: 26833200
I0501 20:16:22.813776 14491 layer_factory.hpp:77] Creating layer loss
I0501 20:16:22.813782 14491 net.cpp:94] Creating Layer loss
I0501 20:16:22.813786 14491 net.cpp:435] loss <- ip3
I0501 20:16:22.813791 14491 net.cpp:435] loss <- label
I0501 20:16:22.813796 14491 net.cpp:409] loss -> loss
I0501 20:16:22.813807 14491 layer_factory.hpp:77] Creating layer loss
…
I0501 20:16:22.814326 14491 solver.cpp:181] Creating test net (#0) specified by net file: ./protocol/dis_50_900_dimension.protocol_distribution
I0501 20:16:22.814353 14491 net.cpp:323] The NetState phase (1) differed from the phase (0) specified by a rule in layer parameters
I0501 20:16:22.814455 14491 net.cpp:52] Initializing net from parameters: 
state {
  phase: TEST
}
layer {
  name: "intercept"
  type: "HDF5Data"
  top: "data"
  top: "label"
  include {
    phase: TEST
  }
  hdf5_data_param {
    source: "/home/purduethu/scratch/radon/d/deng106/CNNStatisticalModel/distributions/input/50_distributions_900_sample_size_test-distributions-path.txt"
    batch_size: 20
  }
}
layer {
  name: "conv1"
  type: "Convolution"
  bottom: "data"
  top: "conv1"
  param {
    lr_mult: 1
  }
  param {
    lr_mult: 2
  }
  convolution_param {
    num_output: 64
    pad: 2
    kernel_size: 5
    stride: 1
    weight_filler {
      type: "gaussian"
      std: 0.0001
    }
    bias_filler {
      type: "constant"
    }
  }
}
layer {
  name: "relu1"
  type: "ReLU"
  bottom: "conv1"
  top: "conv1"
}
layer {
  name: "conv2"
  type: "Convolution"
  bottom: "conv1"
  top: "conv2"
  param {
    lr_mult: 1
  }
  param {
    lr_mult: 2
  }
  convolution_param {
    num_output: 64
    pad: 2
    kernel_size: 5
    stride: 1
    weight_filler {
      type: "gaussian"
      std: 0.01
    }
    bias_filler {
      type: "constant"
    }
  }
}
layer {
  name: "relu2"
  type: "ReLU"
  bottom: "conv2"
  top: "conv2"
}
layer {
  name: "pool2"
  type: "Pooling"
  bottom: "conv2"
  top: "pool2"
  pooling_param {
    pool: MAX
    kernel_size: 3
    stride: 2
  }
}
layer {
  name: "conv3"
  type: "Convolution"
  bottom: "pool2"
  top: "conv3"
  param {
    lr_mult: 1
  }
  param {
    lr_mult: 2
  }
  convolution_param {
    num_output: 64
    pad: 2
    kernel_size: 5
    stride: 1
    weight_filler {
      type: "gaussian"
      std: 0.01
    }
    bias_filler {
      type: "constant"
    }
  }
}
layer {
  name: "relu3"
  type: "ReLU"
  bottom: "conv3"
  top: "conv3"
}
layer {
  name: "conv4"
  type: "Convolution"
  bottom: "conv3"
  top: "conv4"
  param {
    lr_mult: 1
  }
  param {
    lr_mult: 2
  }
  convolution_param {
    num_output: 64
    pad: 2
    kernel_size: 5
    stride: 1
    weight_filler {
      type: "gaussian"
      std: 0.01
    }
    bias_filler {
      type: "constant"
    }
  }
}
layer {
  name: "relu4"
  type: "ReLU"
  bottom: "conv4"
  top: "conv4"
}
layer {
  name: "conv5"
  type: "Convolution"
  bottom: "conv4"
  top: "conv5"
  param {
    lr_mult: 1
  }
  param {
    lr_mult: 2
  }
  convolution_param {
    num_output: 64
    pad: 2
    kernel_size: 5
    stride: 1
    weight_filler {
      type: "gaussian"
      std: 0.01
    }
    bias_filler {
      type: "constant"
    }
  }
}
layer {
  name: "relu5"
  type: "ReLU"
  bottom: "conv5"
  top: "conv5"
}
layer {
  name: "pool5"
  type: "Pooling"
  bottom: "conv5"
  top: "pool5"
  pooling_param {
    pool: AVE
    kernel_size: 3
    stride: 2
  }
}
layer {
  name: "ip1"
  type: "InnerProduct"
  bottom: "pool5"
  top: "ip1"
  param {
    lr_mult: 1
  }
  param {
    lr_mult: 2
  }
  inner_product_param {
    num_output: 64
    weight_filler {
      type: "gaussian"
      std: 0.1
    }
    bias_filler {
      type: "constant"
    }
  }
}
layer {
  name: "ip2"
  type: "InnerProduct"
  bottom: "ip1"
  top: "ip2"
  param {
    lr_mult: 1
  }
  param {
    lr_mult: 2
  }
  inner_product_param {
    num_output: 64
    weight_filler {
      type: "gaussian"
      std: 0.1
    }
    bias_filler {
      type: "constant"
    }
  }
}
layer {
  name: "ip3"
  type: "InnerProduct"
  bottom: "ip2"
  top: "ip3"
  param {
    lr_mult: 1
  }
  param {
    lr_mult: 2
  }
  inner_product_param {
    num_output: 50
    weight_filler {
      type: "gaussian"
      std: 0.1
    }
    bias_filler {
      type: "constant"
    }
  }
}
layer {
  name: "accuracy"
  type: "Accuracy"
  bottom: "ip3"
  bottom: "label"
  top: "accuracy"
  include {
    phase: TEST
  }
}
layer {
  name: "loss"
  type: "SoftmaxWithLoss"
  bottom: "ip3"
  bottom: "label"
  top: "loss"
}
I0501 20:16:22.814529 14491 layer_factory.hpp:77] Creating layer intercept
I0501 20:16:22.814538 14491 net.cpp:94] Creating Layer intercept
I0501 20:16:22.814543 14491 net.cpp:409] intercept -> data
I0501 20:16:22.814549 14491 net.cpp:409] intercept -> label
I0501 20:16:22.814556 14491 hdf5_data_layer.cpp:79] Loading list of HDF5 filenames from: /home/purduethu/scratch/radon/d/deng106/CNNStatisticalModel/distributions/input/50_distributions_900_sample_size_test-distributions-path.txt
I0501 20:16:22.814575 14491 hdf5_data_layer.cpp:93] Number of HDF5 files: 1
I0501 20:16:23.160887 14491 net.cpp:144] Setting up intercept
I0501 20:16:23.160923 14491 net.cpp:151] Top shape: 20 1 30 30 (18000)
I0501 20:16:23.160928 14491 net.cpp:151] Top shape: 20 (20)
I0501 20:16:23.160931 14491 net.cpp:159] Memory required for data: 72080
I0501 20:16:23.160936 14491 layer_factory.hpp:77] Creating layer label_intercept_1_split
I0501 20:16:23.160956 14491 net.cpp:94] Creating Layer label_intercept_1_split
I0501 20:16:23.160961 14491 net.cpp:435] label_intercept_1_split <- label
I0501 20:16:23.160967 14491 net.cpp:409] label_intercept_1_split -> label_intercept_1_split_0
I0501 20:16:23.160975 14491 net.cpp:409] label_intercept_1_split -> label_intercept_1_split_1
I0501 20:16:23.161013 14491 net.cpp:144] Setting up label_intercept_1_split
I0501 20:16:23.161020 14491 net.cpp:151] Top shape: 20 (20)
I0501 20:16:23.161025 14491 net.cpp:151] Top shape: 20 (20)
I0501 20:16:23.161027 14491 net.cpp:159] Memory required for data: 72240
I0501 20:16:23.161031 14491 layer_factory.hpp:77] Creating layer conv1
I0501 20:16:23.161041 14491 net.cpp:94] Creating Layer conv1
I0501 20:16:23.161044 14491 net.cpp:435] conv1 <- data
I0501 20:16:23.161049 14491 net.cpp:409] conv1 -> conv1
I0501 20:16:23.162406 14491 net.cpp:144] Setting up conv1
I0501 20:16:23.162420 14491 net.cpp:151] Top shape: 20 64 30 30 (1152000)
I0501 20:16:23.162425 14491 net.cpp:159] Memory required for data: 4680240
I0501 20:16:23.162433 14491 layer_factory.hpp:77] Creating layer relu1
I0501 20:16:23.162441 14491 net.cpp:94] Creating Layer relu1
I0501 20:16:23.162444 14491 net.cpp:435] relu1 <- conv1
I0501 20:16:23.162449 14491 net.cpp:396] relu1 -> conv1 (in-place)
I0501 20:16:23.162456 14491 net.cpp:144] Setting up relu1
I0501 20:16:23.162461 14491 net.cpp:151] Top shape: 20 64 30 30 (1152000)
I0501 20:16:23.162464 14491 net.cpp:159] Memory required for data: 9288240
I0501 20:16:23.162467 14491 layer_factory.hpp:77] Creating layer conv2
I0501 20:16:23.162477 14491 net.cpp:94] Creating Layer conv2
I0501 20:16:23.162480 14491 net.cpp:435] conv2 <- conv1
I0501 20:16:23.162485 14491 net.cpp:409] conv2 -> conv2
I0501 20:16:23.169039 14491 net.cpp:144] Setting up conv2
I0501 20:16:23.169054 14491 net.cpp:151] Top shape: 20 64 30 30 (1152000)
I0501 20:16:23.169059 14491 net.cpp:159] Memory required for data: 13896240
I0501 20:16:23.169066 14491 layer_factory.hpp:77] Creating layer relu2
I0501 20:16:23.169073 14491 net.cpp:94] Creating Layer relu2
I0501 20:16:23.169076 14491 net.cpp:435] relu2 <- conv2
I0501 20:16:23.169081 14491 net.cpp:396] relu2 -> conv2 (in-place)
I0501 20:16:23.169090 14491 net.cpp:144] Setting up relu2
I0501 20:16:23.169093 14491 net.cpp:151] Top shape: 20 64 30 30 (1152000)
I0501 20:16:23.169097 14491 net.cpp:159] Memory required for data: 18504240
I0501 20:16:23.169100 14491 layer_factory.hpp:77] Creating layer pool2
I0501 20:16:23.169106 14491 net.cpp:94] Creating Layer pool2
I0501 20:16:23.169111 14491 net.cpp:435] pool2 <- conv2
I0501 20:16:23.169114 14491 net.cpp:409] pool2 -> pool2
I0501 20:16:23.169149 14491 net.cpp:144] Setting up pool2
I0501 20:16:23.169157 14491 net.cpp:151] Top shape: 20 64 15 15 (288000)
I0501 20:16:23.169159 14491 net.cpp:159] Memory required for data: 19656240
I0501 20:16:23.169163 14491 layer_factory.hpp:77] Creating layer conv3
I0501 20:16:23.169172 14491 net.cpp:94] Creating Layer conv3
I0501 20:16:23.169174 14491 net.cpp:435] conv3 <- pool2
I0501 20:16:23.169179 14491 net.cpp:409] conv3 -> conv3
I0501 20:16:23.174036 14491 net.cpp:144] Setting up conv3
I0501 20:16:23.174052 14491 net.cpp:151] Top shape: 20 64 15 15 (288000)
I0501 20:16:23.174057 14491 net.cpp:159] Memory required for data: 20808240
I0501 20:16:23.174064 14491 layer_factory.hpp:77] Creating layer relu3
I0501 20:16:23.174072 14491 net.cpp:94] Creating Layer relu3
I0501 20:16:23.174075 14491 net.cpp:435] relu3 <- conv3
I0501 20:16:23.174080 14491 net.cpp:396] relu3 -> conv3 (in-place)
I0501 20:16:23.174088 14491 net.cpp:144] Setting up relu3
I0501 20:16:23.174093 14491 net.cpp:151] Top shape: 20 64 15 15 (288000)
I0501 20:16:23.174095 14491 net.cpp:159] Memory required for data: 21960240
I0501 20:16:23.174099 14491 layer_factory.hpp:77] Creating layer conv4
I0501 20:16:23.174106 14491 net.cpp:94] Creating Layer conv4
I0501 20:16:23.174110 14491 net.cpp:435] conv4 <- conv3
I0501 20:16:23.174115 14491 net.cpp:409] conv4 -> conv4
I0501 20:16:23.178603 14491 net.cpp:144] Setting up conv4
I0501 20:16:23.178618 14491 net.cpp:151] Top shape: 20 64 15 15 (288000)
I0501 20:16:23.178622 14491 net.cpp:159] Memory required for data: 23112240
I0501 20:16:23.178628 14491 layer_factory.hpp:77] Creating layer relu4
I0501 20:16:23.178634 14491 net.cpp:94] Creating Layer relu4
I0501 20:16:23.178642 14491 net.cpp:435] relu4 <- conv4
I0501 20:16:23.178647 14491 net.cpp:396] relu4 -> conv4 (in-place)
I0501 20:16:23.178654 14491 net.cpp:144] Setting up relu4
I0501 20:16:23.178659 14491 net.cpp:151] Top shape: 20 64 15 15 (288000)
I0501 20:16:23.178663 14491 net.cpp:159] Memory required for data: 24264240
I0501 20:16:23.178666 14491 layer_factory.hpp:77] Creating layer conv5
I0501 20:16:23.178673 14491 net.cpp:94] Creating Layer conv5
I0501 20:16:23.178678 14491 net.cpp:435] conv5 <- conv4
I0501 20:16:23.178683 14491 net.cpp:409] conv5 -> conv5
I0501 20:16:23.183815 14491 net.cpp:144] Setting up conv5
I0501 20:16:23.183828 14491 net.cpp:151] Top shape: 20 64 15 15 (288000)
I0501 20:16:23.183832 14491 net.cpp:159] Memory required for data: 25416240
I0501 20:16:23.183840 14491 layer_factory.hpp:77] Creating layer relu5
I0501 20:16:23.183846 14491 net.cpp:94] Creating Layer relu5
I0501 20:16:23.183851 14491 net.cpp:435] relu5 <- conv5
I0501 20:16:23.183856 14491 net.cpp:396] relu5 -> conv5 (in-place)
I0501 20:16:23.183862 14491 net.cpp:144] Setting up relu5
I0501 20:16:23.183866 14491 net.cpp:151] Top shape: 20 64 15 15 (288000)
I0501 20:16:23.183869 14491 net.cpp:159] Memory required for data: 26568240
I0501 20:16:23.183873 14491 layer_factory.hpp:77] Creating layer pool5
I0501 20:16:23.183878 14491 net.cpp:94] Creating Layer pool5
I0501 20:16:23.183881 14491 net.cpp:435] pool5 <- conv5
I0501 20:16:23.183886 14491 net.cpp:409] pool5 -> pool5
I0501 20:16:23.183912 14491 net.cpp:144] Setting up pool5
I0501 20:16:23.183917 14491 net.cpp:151] Top shape: 20 64 7 7 (62720)
I0501 20:16:23.183921 14491 net.cpp:159] Memory required for data: 26819120
I0501 20:16:23.183924 14491 layer_factory.hpp:77] Creating layer ip1
I0501 20:16:23.183931 14491 net.cpp:94] Creating Layer ip1
I0501 20:16:23.183934 14491 net.cpp:435] ip1 <- pool5
I0501 20:16:23.183939 14491 net.cpp:409] ip1 -> ip1
I0501 20:16:23.188675 14491 net.cpp:144] Setting up ip1
I0501 20:16:23.188684 14491 net.cpp:151] Top shape: 20 64 (1280)
I0501 20:16:23.188688 14491 net.cpp:159] Memory required for data: 26824240
I0501 20:16:23.188693 14491 layer_factory.hpp:77] Creating layer ip2
I0501 20:16:23.188699 14491 net.cpp:94] Creating Layer ip2
I0501 20:16:23.188704 14491 net.cpp:435] ip2 <- ip1
I0501 20:16:23.188707 14491 net.cpp:409] ip2 -> ip2
I0501 20:16:23.188886 14491 net.cpp:144] Setting up ip2
I0501 20:16:23.188892 14491 net.cpp:151] Top shape: 20 64 (1280)
I0501 20:16:23.188895 14491 net.cpp:159] Memory required for data: 26829360
I0501 20:16:23.188900 14491 layer_factory.hpp:77] Creating layer ip3
I0501 20:16:23.188907 14491 net.cpp:94] Creating Layer ip3
I0501 20:16:23.188911 14491 net.cpp:435] ip3 <- ip2
I0501 20:16:23.188915 14491 net.cpp:409] ip3 -> ip3
I0501 20:16:23.189059 14491 net.cpp:144] Setting up ip3
I0501 20:16:23.189064 14491 net.cpp:151] Top shape: 20 50 (1000)
I0501 20:16:23.189067 14491 net.cpp:159] Memory required for data: 26833360
I0501 20:16:23.189072 14491 layer_factory.hpp:77] Creating layer ip3_ip3_0_split
I0501 20:16:23.189077 14491 net.cpp:94] Creating Layer ip3_ip3_0_split
I0501 20:16:23.189080 14491 net.cpp:435] ip3_ip3_0_split <- ip3
I0501 20:16:23.189085 14491 net.cpp:409] ip3_ip3_0_split -> ip3_ip3_0_split_0
I0501 20:16:23.189090 14491 net.cpp:409] ip3_ip3_0_split -> ip3_ip3_0_split_1
I0501 20:16:23.189112 14491 net.cpp:144] Setting up ip3_ip3_0_split
I0501 20:16:23.189118 14491 net.cpp:151] Top shape: 20 50 (1000)
I0501 20:16:23.189122 14491 net.cpp:151] Top shape: 20 50 (1000)
I0501 20:16:23.189126 14491 net.cpp:159] Memory required for data: 26841360
I0501 20:16:23.189128 14491 layer_factory.hpp:77] Creating layer accuracy
I0501 20:16:23.189133 14491 net.cpp:94] Creating Layer accuracy
I0501 20:16:23.189136 14491 net.cpp:435] accuracy <- ip3_ip3_0_split_0
I0501 20:16:23.189141 14491 net.cpp:435] accuracy <- label_intercept_1_split_0
I0501 20:16:23.189144 14491 net.cpp:409] accuracy -> accuracy
…
