…
I0505 09:08:59.477619  5722 net.cpp:323] The NetState phase (0) differed from the phase (1) specified by a rule in layer intercept
I0505 09:08:59.477634  5722 net.cpp:323] The NetState phase (0) differed from the phase (1) specified by a rule in layer accuracy
I0505 09:08:59.477718  5722 net.cpp:52] Initializing net from parameters: 
state {
  phase: TRAIN
}
layer {
  name: "parameters"
  type: "HDF5Data"
  top: "data"
  top: "label"
  include {
    phase: TRAIN
  }
  hdf5_data_param {
    source: "/home/purduethu/scratch/radon/d/deng106/CNNStatisticalModel/distributions/input/20_distributions_100_sample_size_train-distributions-path.txt"
    batch_size: 20
  }
}
layer {
  name: "conv1"
  type: "Convolution"
  bottom: "data"
  top: "conv1"
  param {
    lr_mult: 1
  }
  param {
    lr_mult: 2
  }
  convolution_param {
    num_output: 64
    pad: 2
    kernel_size: 5
    stride: 1
    weight_filler {
      type: "gaussian"
      std: 0.0001
    }
    bias_filler {
      type: "constant"
    }
  }
}
layer {
  name: "relu1"
  type: "ReLU"
  bottom: "conv1"
  top: "conv1"
}
layer {
  name: "pool1"
  type: "Pooling"
  bottom: "conv1"
  top: "pool1"
  pooling_param {
    pool: MAX
    kernel_size: 3
    stride: 2
  }
}
layer {
  name: "conv2"
  type: "Convolution"
  bottom: "pool1"
  top: "conv2"
  param {
    lr_mult: 1
  }
  param {
    lr_mult: 2
  }
  convolution_param {
    num_output: 128
    pad: 2
    kernel_size: 5
    stride: 1
    weight_filler {
      type: "gaussian"
      std: 0.01
    }
    bias_filler {
      type: "constant"
    }
  }
}
layer {
  name: "relu2"
  type: "ReLU"
  bottom: "conv2"
  top: "conv2"
}
layer {
  name: "conv3"
  type: "Convolution"
  bottom: "conv2"
  top: "conv3"
  param {
    lr_mult: 1
  }
  param {
    lr_mult: 2
  }
  convolution_param {
    num_output: 128
    pad: 2
    kernel_size: 5
    stride: 1
    weight_filler {
      type: "gaussian"
      std: 0.01
    }
    bias_filler {
      type: "constant"
    }
  }
}
layer {
  name: "relu3"
  type: "ReLU"
  bottom: "conv3"
  top: "conv3"
}
layer {
  name: "pool3"
  type: "Pooling"
  bottom: "conv3"
  top: "pool3"
  pooling_param {
    pool: AVE
    kernel_size: 3
    stride: 2
  }
}
layer {
  name: "ip1"
  type: "InnerProduct"
  bottom: "pool3"
  top: "ip1"
  param {
    lr_mult: 1
  }
  param {
    lr_mult: 2
  }
  inner_product_param {
    num_output: 512
    weight_filler {
      type: "gaussian"
      std: 0.1
    }
    bias_filler {
      type: "constant"
    }
  }
}
layer {
  name: "ip2"
  type: "InnerProduct"
  bottom: "ip1"
  top: "ip2"
  param {
    lr_mult: 1
  }
  param {
    lr_mult: 2
  }
  inner_product_param {
    num_output: 256
    weight_filler {
      type: "gaussian"
      std: 0.1
    }
    bias_filler {
      type: "constant"
    }
  }
}
layer {
  name: "ip3"
  type: "InnerProduct"
  bottom: "ip2"
  top: "ip3"
  param {
    lr_mult: 1
  }
  param {
    lr_mult: 2
  }
  inner_product_param {
    num_output: 50
    weight_filler {
      type: "gaussian"
      std: 0.1
    }
    bias_filler {
      type: "constant"
    }
  }
}
layer {
  name: "loss"
  type: "SoftmaxWithLoss"
  bottom: "ip3"
  bottom: "label"
  top: "loss"
}
I0505 09:08:59.477784  5722 layer_factory.hpp:77] Creating layer parameters
I0505 09:08:59.477799  5722 net.cpp:94] Creating Layer parameters
I0505 09:08:59.477813  5722 net.cpp:409] parameters -> data
I0505 09:08:59.477833  5722 net.cpp:409] parameters -> label
I0505 09:08:59.477843  5722 hdf5_data_layer.cpp:79] Loading list of HDF5 filenames from: /home/purduethu/scratch/radon/d/deng106/CNNStatisticalModel/distributions/input/20_distributions_100_sample_size_train-distributions-path.txt
I0505 09:08:59.477866  5722 hdf5_data_layer.cpp:93] Number of HDF5 files: 1
I0505 09:08:59.478364  5722 hdf5.cpp:32] Datatype class: H5T_FLOAT
I0505 09:08:59.544164  5722 hdf5.cpp:35] Datatype class: H5T_INTEGER
I0505 09:08:59.545778  5722 net.cpp:144] Setting up parameters
I0505 09:08:59.545797  5722 net.cpp:151] Top shape: 20 1 10 10 (2000)
I0505 09:08:59.545804  5722 net.cpp:151] Top shape: 20 (20)
I0505 09:08:59.545809  5722 net.cpp:159] Memory required for data: 8080
I0505 09:08:59.545816  5722 layer_factory.hpp:77] Creating layer conv1
I0505 09:08:59.545835  5722 net.cpp:94] Creating Layer conv1
I0505 09:08:59.545841  5722 net.cpp:435] conv1 <- data
I0505 09:08:59.545852  5722 net.cpp:409] conv1 -> conv1
I0505 09:08:59.549670  5722 net.cpp:144] Setting up conv1
I0505 09:08:59.549686  5722 net.cpp:151] Top shape: 20 64 10 10 (128000)
I0505 09:08:59.549690  5722 net.cpp:159] Memory required for data: 520080
I0505 09:08:59.549702  5722 layer_factory.hpp:77] Creating layer relu1
I0505 09:08:59.549711  5722 net.cpp:94] Creating Layer relu1
I0505 09:08:59.549715  5722 net.cpp:435] relu1 <- conv1
I0505 09:08:59.549721  5722 net.cpp:396] relu1 -> conv1 (in-place)
I0505 09:08:59.549732  5722 net.cpp:144] Setting up relu1
I0505 09:08:59.549737  5722 net.cpp:151] Top shape: 20 64 10 10 (128000)
I0505 09:08:59.549741  5722 net.cpp:159] Memory required for data: 1032080
I0505 09:08:59.549744  5722 layer_factory.hpp:77] Creating layer pool1
I0505 09:08:59.549752  5722 net.cpp:94] Creating Layer pool1
I0505 09:08:59.549756  5722 net.cpp:435] pool1 <- conv1
I0505 09:08:59.549760  5722 net.cpp:409] pool1 -> pool1
I0505 09:08:59.549805  5722 net.cpp:144] Setting up pool1
I0505 09:08:59.549813  5722 net.cpp:151] Top shape: 20 64 5 5 (32000)
I0505 09:08:59.549816  5722 net.cpp:159] Memory required for data: 1160080
I0505 09:08:59.549820  5722 layer_factory.hpp:77] Creating layer conv2
I0505 09:08:59.549829  5722 net.cpp:94] Creating Layer conv2
I0505 09:08:59.549834  5722 net.cpp:435] conv2 <- pool1
I0505 09:08:59.549839  5722 net.cpp:409] conv2 -> conv2
I0505 09:08:59.558202  5722 net.cpp:144] Setting up conv2
I0505 09:08:59.558239  5722 net.cpp:151] Top shape: 20 128 5 5 (64000)
I0505 09:08:59.558253  5722 net.cpp:159] Memory required for data: 1416080
I0505 09:08:59.558275  5722 layer_factory.hpp:77] Creating layer relu2
I0505 09:08:59.558292  5722 net.cpp:94] Creating Layer relu2
I0505 09:08:59.558303  5722 net.cpp:435] relu2 <- conv2
I0505 09:08:59.558318  5722 net.cpp:396] relu2 -> conv2 (in-place)
I0505 09:08:59.558338  5722 net.cpp:144] Setting up relu2
I0505 09:08:59.558352  5722 net.cpp:151] Top shape: 20 128 5 5 (64000)
I0505 09:08:59.558362  5722 net.cpp:159] Memory required for data: 1672080
I0505 09:08:59.558372  5722 layer_factory.hpp:77] Creating layer conv3
I0505 09:08:59.558393  5722 net.cpp:94] Creating Layer conv3
I0505 09:08:59.558403  5722 net.cpp:435] conv3 <- conv2
I0505 09:08:59.558418  5722 net.cpp:409] conv3 -> conv3
I0505 09:08:59.573879  5722 net.cpp:144] Setting up conv3
I0505 09:08:59.573894  5722 net.cpp:151] Top shape: 20 128 5 5 (64000)
I0505 09:08:59.573899  5722 net.cpp:159] Memory required for data: 1928080
I0505 09:08:59.573907  5722 layer_factory.hpp:77] Creating layer relu3
I0505 09:08:59.573920  5722 net.cpp:94] Creating Layer relu3
I0505 09:08:59.573925  5722 net.cpp:435] relu3 <- conv3
I0505 09:08:59.573930  5722 net.cpp:396] relu3 -> conv3 (in-place)
I0505 09:08:59.573936  5722 net.cpp:144] Setting up relu3
I0505 09:08:59.573941  5722 net.cpp:151] Top shape: 20 128 5 5 (64000)
I0505 09:08:59.573945  5722 net.cpp:159] Memory required for data: 2184080
I0505 09:08:59.573948  5722 layer_factory.hpp:77] Creating layer pool3
I0505 09:08:59.573954  5722 net.cpp:94] Creating Layer pool3
I0505 09:08:59.573964  5722 net.cpp:435] pool3 <- conv3
I0505 09:08:59.573969  5722 net.cpp:409] pool3 -> pool3
I0505 09:08:59.574002  5722 net.cpp:144] Setting up pool3
I0505 09:08:59.574009  5722 net.cpp:151] Top shape: 20 128 2 2 (10240)
I0505 09:08:59.574012  5722 net.cpp:159] Memory required for data: 2225040
I0505 09:08:59.574015  5722 layer_factory.hpp:77] Creating layer ip1
I0505 09:08:59.574025  5722 net.cpp:94] Creating Layer ip1
I0505 09:08:59.574029  5722 net.cpp:435] ip1 <- pool3
I0505 09:08:59.574034  5722 net.cpp:409] ip1 -> ip1
I0505 09:08:59.581774  5722 net.cpp:144] Setting up ip1
I0505 09:08:59.581789  5722 net.cpp:151] Top shape: 20 512 (10240)
I0505 09:08:59.581794  5722 net.cpp:159] Memory required for data: 2266000
I0505 09:08:59.581800  5722 layer_factory.hpp:77] Creating layer ip2
I0505 09:08:59.581807  5722 net.cpp:94] Creating Layer ip2
I0505 09:08:59.581812  5722 net.cpp:435] ip2 <- ip1
I0505 09:08:59.581817  5722 net.cpp:409] ip2 -> ip2
I0505 09:08:59.585067  5722 net.cpp:144] Setting up ip2
I0505 09:08:59.585077  5722 net.cpp:151] Top shape: 20 256 (5120)
I0505 09:08:59.585080  5722 net.cpp:159] Memory required for data: 2286480
I0505 09:08:59.585088  5722 layer_factory.hpp:77] Creating layer ip3
I0505 09:08:59.585094  5722 net.cpp:94] Creating Layer ip3
I0505 09:08:59.585098  5722 net.cpp:435] ip3 <- ip2
I0505 09:08:59.585103  5722 net.cpp:409] ip3 -> ip3
I0505 09:08:59.586135  5722 net.cpp:144] Setting up ip3
I0505 09:08:59.586148  5722 net.cpp:151] Top shape: 20 50 (1000)
I0505 09:08:59.586153  5722 net.cpp:159] Memory required for data: 2290480
I0505 09:08:59.586158  5722 layer_factory.hpp:77] Creating layer loss
I0505 09:08:59.586165  5722 net.cpp:94] Creating Layer loss
I0505 09:08:59.586169  5722 net.cpp:435] loss <- ip3
I0505 09:08:59.586174  5722 net.cpp:435] loss <- label
I0505 09:08:59.586179  5722 net.cpp:409] loss -> loss
I0505 09:08:59.586190  5722 layer_factory.hpp:77] Creating layer loss
…
I0505 09:08:59.586621  5722 solver.cpp:181] Creating test net (#0) specified by net file: ./protocol/dis_20_100_dimension.protocol_distribution
I0505 09:08:59.586647  5722 net.cpp:323] The NetState phase (1) differed from the phase (0) specified by a rule in layer parameters
I0505 09:08:59.586736  5722 net.cpp:52] Initializing net from parameters: 
state {
  phase: TEST
}
layer {
  name: "intercept"
  type: "HDF5Data"
  top: "data"
  top: "label"
  include {
    phase: TEST
  }
  hdf5_data_param {
    source: "/home/purduethu/scratch/radon/d/deng106/CNNStatisticalModel/distributions/input/20_distributions_100_sample_size_test-distributions-path.txt"
    batch_size: 20
  }
}
layer {
  name: "conv1"
  type: "Convolution"
  bottom: "data"
  top: "conv1"
  param {
    lr_mult: 1
  }
  param {
    lr_mult: 2
  }
  convolution_param {
    num_output: 64
    pad: 2
    kernel_size: 5
    stride: 1
    weight_filler {
      type: "gaussian"
      std: 0.0001
    }
    bias_filler {
      type: "constant"
    }
  }
}
layer {
  name: "relu1"
  type: "ReLU"
  bottom: "conv1"
  top: "conv1"
}
layer {
  name: "pool1"
  type: "Pooling"
  bottom: "conv1"
  top: "pool1"
  pooling_param {
    pool: MAX
    kernel_size: 3
    stride: 2
  }
}
layer {
  name: "conv2"
  type: "Convolution"
  bottom: "pool1"
  top: "conv2"
  param {
    lr_mult: 1
  }
  param {
    lr_mult: 2
  }
  convolution_param {
    num_output: 128
    pad: 2
    kernel_size: 5
    stride: 1
    weight_filler {
      type: "gaussian"
      std: 0.01
    }
    bias_filler {
      type: "constant"
    }
  }
}
layer {
  name: "relu2"
  type: "ReLU"
  bottom: "conv2"
  top: "conv2"
}
layer {
  name: "conv3"
  type: "Convolution"
  bottom: "conv2"
  top: "conv3"
  param {
    lr_mult: 1
  }
  param {
    lr_mult: 2
  }
  convolution_param {
    num_output: 128
    pad: 2
    kernel_size: 5
    stride: 1
    weight_filler {
      type: "gaussian"
      std: 0.01
    }
    bias_filler {
      type: "constant"
    }
  }
}
layer {
  name: "relu3"
  type: "ReLU"
  bottom: "conv3"
  top: "conv3"
}
layer {
  name: "pool3"
  type: "Pooling"
  bottom: "conv3"
  top: "pool3"
  pooling_param {
    pool: AVE
    kernel_size: 3
    stride: 2
  }
}
layer {
  name: "ip1"
  type: "InnerProduct"
  bottom: "pool3"
  top: "ip1"
  param {
    lr_mult: 1
  }
  param {
    lr_mult: 2
  }
  inner_product_param {
    num_output: 512
    weight_filler {
      type: "gaussian"
      std: 0.1
    }
    bias_filler {
      type: "constant"
    }
  }
}
layer {
  name: "ip2"
  type: "InnerProduct"
  bottom: "ip1"
  top: "ip2"
  param {
    lr_mult: 1
  }
  param {
    lr_mult: 2
  }
  inner_product_param {
    num_output: 256
    weight_filler {
      type: "gaussian"
      std: 0.1
    }
    bias_filler {
      type: "constant"
    }
  }
}
layer {
  name: "ip3"
  type: "InnerProduct"
  bottom: "ip2"
  top: "ip3"
  param {
    lr_mult: 1
  }
  param {
    lr_mult: 2
  }
  inner_product_param {
    num_output: 50
    weight_filler {
      type: "gaussian"
      std: 0.1
    }
    bias_filler {
      type: "constant"
    }
  }
}
layer {
  name: "accuracy"
  type: "Accuracy"
  bottom: "ip3"
  bottom: "label"
  top: "accuracy"
  include {
    phase: TEST
  }
}
layer {
  name: "loss"
  type: "SoftmaxWithLoss"
  bottom: "ip3"
  bottom: "label"
  top: "loss"
}
I0505 09:08:59.586802  5722 layer_factory.hpp:77] Creating layer intercept
I0505 09:08:59.586810  5722 net.cpp:94] Creating Layer intercept
I0505 09:08:59.586814  5722 net.cpp:409] intercept -> data
I0505 09:08:59.586822  5722 net.cpp:409] intercept -> label
I0505 09:08:59.586828  5722 hdf5_data_layer.cpp:79] Loading list of HDF5 filenames from: /home/purduethu/scratch/radon/d/deng106/CNNStatisticalModel/distributions/input/20_distributions_100_sample_size_test-distributions-path.txt
I0505 09:08:59.586848  5722 hdf5_data_layer.cpp:93] Number of HDF5 files: 1
I0505 09:08:59.604583  5722 net.cpp:144] Setting up intercept
I0505 09:08:59.604616  5722 net.cpp:151] Top shape: 20 1 10 10 (2000)
I0505 09:08:59.604622  5722 net.cpp:151] Top shape: 20 (20)
I0505 09:08:59.604626  5722 net.cpp:159] Memory required for data: 8080
I0505 09:08:59.604632  5722 layer_factory.hpp:77] Creating layer label_intercept_1_split
I0505 09:08:59.604648  5722 net.cpp:94] Creating Layer label_intercept_1_split
I0505 09:08:59.604660  5722 net.cpp:435] label_intercept_1_split <- label
I0505 09:08:59.604667  5722 net.cpp:409] label_intercept_1_split -> label_intercept_1_split_0
I0505 09:08:59.604676  5722 net.cpp:409] label_intercept_1_split -> label_intercept_1_split_1
I0505 09:08:59.604704  5722 net.cpp:144] Setting up label_intercept_1_split
I0505 09:08:59.604710  5722 net.cpp:151] Top shape: 20 (20)
I0505 09:08:59.604714  5722 net.cpp:151] Top shape: 20 (20)
I0505 09:08:59.604718  5722 net.cpp:159] Memory required for data: 8240
I0505 09:08:59.604729  5722 layer_factory.hpp:77] Creating layer conv1
I0505 09:08:59.604742  5722 net.cpp:94] Creating Layer conv1
I0505 09:08:59.604745  5722 net.cpp:435] conv1 <- data
I0505 09:08:59.604750  5722 net.cpp:409] conv1 -> conv1
I0505 09:08:59.605412  5722 net.cpp:144] Setting up conv1
I0505 09:08:59.605427  5722 net.cpp:151] Top shape: 20 64 10 10 (128000)
I0505 09:08:59.605430  5722 net.cpp:159] Memory required for data: 520240
I0505 09:08:59.605440  5722 layer_factory.hpp:77] Creating layer relu1
I0505 09:08:59.605448  5722 net.cpp:94] Creating Layer relu1
I0505 09:08:59.605453  5722 net.cpp:435] relu1 <- conv1
I0505 09:08:59.605456  5722 net.cpp:396] relu1 -> conv1 (in-place)
I0505 09:08:59.605464  5722 net.cpp:144] Setting up relu1
I0505 09:08:59.605469  5722 net.cpp:151] Top shape: 20 64 10 10 (128000)
I0505 09:08:59.605473  5722 net.cpp:159] Memory required for data: 1032240
I0505 09:08:59.605476  5722 layer_factory.hpp:77] Creating layer pool1
I0505 09:08:59.605484  5722 net.cpp:94] Creating Layer pool1
I0505 09:08:59.605487  5722 net.cpp:435] pool1 <- conv1
I0505 09:08:59.605491  5722 net.cpp:409] pool1 -> pool1
I0505 09:08:59.605528  5722 net.cpp:144] Setting up pool1
I0505 09:08:59.605535  5722 net.cpp:151] Top shape: 20 64 5 5 (32000)
I0505 09:08:59.605538  5722 net.cpp:159] Memory required for data: 1160240
I0505 09:08:59.605542  5722 layer_factory.hpp:77] Creating layer conv2
I0505 09:08:59.605551  5722 net.cpp:94] Creating Layer conv2
I0505 09:08:59.605554  5722 net.cpp:435] conv2 <- pool1
I0505 09:08:59.605559  5722 net.cpp:409] conv2 -> conv2
I0505 09:08:59.614750  5722 net.cpp:144] Setting up conv2
I0505 09:08:59.614766  5722 net.cpp:151] Top shape: 20 128 5 5 (64000)
I0505 09:08:59.614771  5722 net.cpp:159] Memory required for data: 1416240
I0505 09:08:59.614780  5722 layer_factory.hpp:77] Creating layer relu2
I0505 09:08:59.614786  5722 net.cpp:94] Creating Layer relu2
I0505 09:08:59.614791  5722 net.cpp:435] relu2 <- conv2
I0505 09:08:59.614796  5722 net.cpp:396] relu2 -> conv2 (in-place)
I0505 09:08:59.614804  5722 net.cpp:144] Setting up relu2
I0505 09:08:59.614809  5722 net.cpp:151] Top shape: 20 128 5 5 (64000)
I0505 09:08:59.614812  5722 net.cpp:159] Memory required for data: 1672240
I0505 09:08:59.614815  5722 layer_factory.hpp:77] Creating layer conv3
I0505 09:08:59.614823  5722 net.cpp:94] Creating Layer conv3
I0505 09:08:59.614827  5722 net.cpp:435] conv3 <- conv2
I0505 09:08:59.614833  5722 net.cpp:409] conv3 -> conv3
I0505 09:08:59.627513  5722 net.cpp:144] Setting up conv3
I0505 09:08:59.627527  5722 net.cpp:151] Top shape: 20 128 5 5 (64000)
I0505 09:08:59.627532  5722 net.cpp:159] Memory required for data: 1928240
I0505 09:08:59.627540  5722 layer_factory.hpp:77] Creating layer relu3
I0505 09:08:59.627548  5722 net.cpp:94] Creating Layer relu3
I0505 09:08:59.627552  5722 net.cpp:435] relu3 <- conv3
I0505 09:08:59.627557  5722 net.cpp:396] relu3 -> conv3 (in-place)
I0505 09:08:59.627565  5722 net.cpp:144] Setting up relu3
I0505 09:08:59.627570  5722 net.cpp:151] Top shape: 20 128 5 5 (64000)
I0505 09:08:59.627573  5722 net.cpp:159] Memory required for data: 2184240
I0505 09:08:59.627578  5722 layer_factory.hpp:77] Creating layer pool3
I0505 09:08:59.627583  5722 net.cpp:94] Creating Layer pool3
I0505 09:08:59.627586  5722 net.cpp:435] pool3 <- conv3
I0505 09:08:59.627591  5722 net.cpp:409] pool3 -> pool3
I0505 09:08:59.627616  5722 net.cpp:144] Setting up pool3
I0505 09:08:59.627624  5722 net.cpp:151] Top shape: 20 128 2 2 (10240)
I0505 09:08:59.627631  5722 net.cpp:159] Memory required for data: 2225200
I0505 09:08:59.627635  5722 layer_factory.hpp:77] Creating layer ip1
I0505 09:08:59.627642  5722 net.cpp:94] Creating Layer ip1
I0505 09:08:59.627646  5722 net.cpp:435] ip1 <- pool3
I0505 09:08:59.627651  5722 net.cpp:409] ip1 -> ip1
I0505 09:08:59.634105  5722 net.cpp:144] Setting up ip1
I0505 09:08:59.634115  5722 net.cpp:151] Top shape: 20 512 (10240)
I0505 09:08:59.634119  5722 net.cpp:159] Memory required for data: 2266160
I0505 09:08:59.634131  5722 layer_factory.hpp:77] Creating layer ip2
I0505 09:08:59.634138  5722 net.cpp:94] Creating Layer ip2
I0505 09:08:59.634142  5722 net.cpp:435] ip2 <- ip1
I0505 09:08:59.634147  5722 net.cpp:409] ip2 -> ip2
I0505 09:08:59.637428  5722 net.cpp:144] Setting up ip2
I0505 09:08:59.637436  5722 net.cpp:151] Top shape: 20 256 (5120)
I0505 09:08:59.637439  5722 net.cpp:159] Memory required for data: 2286640
I0505 09:08:59.637447  5722 layer_factory.hpp:77] Creating layer ip3
I0505 09:08:59.637454  5722 net.cpp:94] Creating Layer ip3
I0505 09:08:59.637457  5722 net.cpp:435] ip3 <- ip2
I0505 09:08:59.637464  5722 net.cpp:409] ip3 -> ip3
I0505 09:08:59.637845  5722 net.cpp:144] Setting up ip3
I0505 09:08:59.637852  5722 net.cpp:151] Top shape: 20 50 (1000)
I0505 09:08:59.637856  5722 net.cpp:159] Memory required for data: 2290640
I0505 09:08:59.637861  5722 layer_factory.hpp:77] Creating layer ip3_ip3_0_split
I0505 09:08:59.637866  5722 net.cpp:94] Creating Layer ip3_ip3_0_split
I0505 09:08:59.637871  5722 net.cpp:435] ip3_ip3_0_split <- ip3
I0505 09:08:59.637876  5722 net.cpp:409] ip3_ip3_0_split -> ip3_ip3_0_split_0
I0505 09:08:59.637881  5722 net.cpp:409] ip3_ip3_0_split -> ip3_ip3_0_split_1
I0505 09:08:59.637905  5722 net.cpp:144] Setting up ip3_ip3_0_split
I0505 09:08:59.637912  5722 net.cpp:151] Top shape: 20 50 (1000)
I0505 09:08:59.637915  5722 net.cpp:151] Top shape: 20 50 (1000)
I0505 09:08:59.637919  5722 net.cpp:159] Memory required for data: 2298640
I0505 09:08:59.637923  5722 layer_factory.hpp:77] Creating layer accuracy
I0505 09:08:59.637928  5722 net.cpp:94] Creating Layer accuracy
I0505 09:08:59.637933  5722 net.cpp:435] accuracy <- ip3_ip3_0_split_0
I0505 09:08:59.637936  5722 net.cpp:435] accuracy <- label_intercept_1_split_0
I0505 09:08:59.637941  5722 net.cpp:409] accuracy -> accuracy
…
