…
I0505 17:06:10.731674  8269 net.cpp:323] The NetState phase (0) differed from the phase (1) specified by a rule in layer intercept
I0505 17:06:10.731688  8269 net.cpp:323] The NetState phase (0) differed from the phase (1) specified by a rule in layer loss
I0505 17:06:10.731756  8269 net.cpp:52] Initializing net from parameters: 
state {
  phase: TRAIN
}
layer {
  name: "parameters"
  type: "HDF5Data"
  top: "data"
  top: "label"
  include {
    phase: TRAIN
  }
  hdf5_data_param {
    source: "/home/purduethu/scratch/radon/d/deng106/CNNStatisticalModel/distributions/input/20_distributions_900_sample_size_train-parameters-path.txt"
    batch_size: 20
  }
}
layer {
  name: "conv1"
  type: "Convolution"
  bottom: "data"
  top: "conv1"
  param {
    lr_mult: 1
  }
  param {
    lr_mult: 2
  }
  convolution_param {
    num_output: 64
    pad: 2
    kernel_size: 5
    stride: 1
    weight_filler {
      type: "gaussian"
      std: 0.0001
    }
    bias_filler {
      type: "constant"
    }
  }
}
layer {
  name: "relu1"
  type: "ReLU"
  bottom: "conv1"
  top: "conv1"
}
layer {
  name: "pool1"
  type: "Pooling"
  bottom: "conv1"
  top: "pool1"
  pooling_param {
    pool: MAX
    kernel_size: 3
    stride: 2
  }
}
layer {
  name: "conv2"
  type: "Convolution"
  bottom: "pool1"
  top: "conv2"
  param {
    lr_mult: 1
  }
  param {
    lr_mult: 2
  }
  convolution_param {
    num_output: 128
    pad: 2
    kernel_size: 5
    stride: 1
    weight_filler {
      type: "gaussian"
      std: 0.01
    }
    bias_filler {
      type: "constant"
    }
  }
}
layer {
  name: "relu2"
  type: "ReLU"
  bottom: "conv2"
  top: "conv2"
}
layer {
  name: "conv3"
  type: "Convolution"
  bottom: "conv2"
  top: "conv3"
  param {
    lr_mult: 1
  }
  param {
    lr_mult: 2
  }
  convolution_param {
    num_output: 128
    pad: 2
    kernel_size: 5
    stride: 1
    weight_filler {
      type: "gaussian"
      std: 0.01
    }
    bias_filler {
      type: "constant"
    }
  }
}
layer {
  name: "relu3"
  type: "ReLU"
  bottom: "conv3"
  top: "conv3"
}
layer {
  name: "pool3"
  type: "Pooling"
  bottom: "conv3"
  top: "pool3"
  pooling_param {
    pool: AVE
    kernel_size: 3
    stride: 2
  }
}
layer {
  name: "ip1"
  type: "InnerProduct"
  bottom: "pool3"
  top: "ip1"
  param {
    lr_mult: 1
  }
  param {
    lr_mult: 2
  }
  inner_product_param {
    num_output: 512
    weight_filler {
      type: "gaussian"
      std: 0.1
    }
    bias_filler {
      type: "constant"
    }
  }
}
layer {
  name: "ip2"
  type: "InnerProduct"
  bottom: "ip1"
  top: "ip2"
  param {
    lr_mult: 1
  }
  param {
    lr_mult: 2
  }
  inner_product_param {
    num_output: 256
    weight_filler {
      type: "gaussian"
      std: 0.1
    }
    bias_filler {
      type: "constant"
    }
  }
}
layer {
  name: "ip3"
  type: "InnerProduct"
  bottom: "ip2"
  top: "ip3"
  param {
    lr_mult: 1
  }
  param {
    lr_mult: 2
  }
  inner_product_param {
    num_output: 1
    weight_filler {
      type: "gaussian"
      std: 0.1
    }
    bias_filler {
      type: "constant"
    }
  }
}
layer {
  name: "loss"
  type: "HuberLoss"
  bottom: "ip3"
  bottom: "label"
  top: "loss"
  include {
    phase: TRAIN
  }
}
I0505 17:06:10.731804  8269 layer_factory.hpp:77] Creating layer parameters
I0505 17:06:10.731817  8269 net.cpp:94] Creating Layer parameters
I0505 17:06:10.731822  8269 net.cpp:409] parameters -> data
I0505 17:06:10.731830  8269 net.cpp:409] parameters -> label
I0505 17:06:10.731842  8269 hdf5_data_layer.cpp:79] Loading list of HDF5 filenames from: /home/purduethu/scratch/radon/d/deng106/CNNStatisticalModel/distributions/input/20_distributions_900_sample_size_train-parameters-path.txt
I0505 17:06:10.731856  8269 hdf5_data_layer.cpp:93] Number of HDF5 files: 1
I0505 17:06:10.732403  8269 hdf5.cpp:32] Datatype class: H5T_FLOAT
I0505 17:06:11.308825  8269 net.cpp:144] Setting up parameters
I0505 17:06:11.308856  8269 net.cpp:151] Top shape: 20 1 30 30 (18000)
I0505 17:06:11.308862  8269 net.cpp:151] Top shape: 20 (20)
I0505 17:06:11.308876  8269 net.cpp:159] Memory required for data: 72080
I0505 17:06:11.308882  8269 layer_factory.hpp:77] Creating layer conv1
I0505 17:06:11.308898  8269 net.cpp:94] Creating Layer conv1
I0505 17:06:11.308902  8269 net.cpp:435] conv1 <- data
I0505 17:06:11.308908  8269 net.cpp:409] conv1 -> conv1
I0505 17:06:11.315352  8269 net.cpp:144] Setting up conv1
I0505 17:06:11.315368  8269 net.cpp:151] Top shape: 20 64 30 30 (1152000)
I0505 17:06:11.315372  8269 net.cpp:159] Memory required for data: 4680080
I0505 17:06:11.315382  8269 layer_factory.hpp:77] Creating layer relu1
I0505 17:06:11.315389  8269 net.cpp:94] Creating Layer relu1
I0505 17:06:11.315392  8269 net.cpp:435] relu1 <- conv1
I0505 17:06:11.315397  8269 net.cpp:396] relu1 -> conv1 (in-place)
I0505 17:06:11.315408  8269 net.cpp:144] Setting up relu1
I0505 17:06:11.315412  8269 net.cpp:151] Top shape: 20 64 30 30 (1152000)
I0505 17:06:11.315415  8269 net.cpp:159] Memory required for data: 9288080
I0505 17:06:11.315418  8269 layer_factory.hpp:77] Creating layer pool1
I0505 17:06:11.315424  8269 net.cpp:94] Creating Layer pool1
I0505 17:06:11.315428  8269 net.cpp:435] pool1 <- conv1
I0505 17:06:11.315431  8269 net.cpp:409] pool1 -> pool1
I0505 17:06:11.315479  8269 net.cpp:144] Setting up pool1
I0505 17:06:11.315485  8269 net.cpp:151] Top shape: 20 64 15 15 (288000)
I0505 17:06:11.315488  8269 net.cpp:159] Memory required for data: 10440080
I0505 17:06:11.315491  8269 layer_factory.hpp:77] Creating layer conv2
I0505 17:06:11.315500  8269 net.cpp:94] Creating Layer conv2
I0505 17:06:11.315503  8269 net.cpp:435] conv2 <- pool1
I0505 17:06:11.315508  8269 net.cpp:409] conv2 -> conv2
I0505 17:06:11.328167  8269 net.cpp:144] Setting up conv2
I0505 17:06:11.328182  8269 net.cpp:151] Top shape: 20 128 15 15 (576000)
I0505 17:06:11.328186  8269 net.cpp:159] Memory required for data: 12744080
I0505 17:06:11.328194  8269 layer_factory.hpp:77] Creating layer relu2
I0505 17:06:11.328200  8269 net.cpp:94] Creating Layer relu2
I0505 17:06:11.328204  8269 net.cpp:435] relu2 <- conv2
I0505 17:06:11.328208  8269 net.cpp:396] relu2 -> conv2 (in-place)
I0505 17:06:11.328215  8269 net.cpp:144] Setting up relu2
I0505 17:06:11.328219  8269 net.cpp:151] Top shape: 20 128 15 15 (576000)
I0505 17:06:11.328222  8269 net.cpp:159] Memory required for data: 15048080
I0505 17:06:11.328225  8269 layer_factory.hpp:77] Creating layer conv3
I0505 17:06:11.328233  8269 net.cpp:94] Creating Layer conv3
I0505 17:06:11.328236  8269 net.cpp:435] conv3 <- conv2
I0505 17:06:11.328240  8269 net.cpp:409] conv3 -> conv3
I0505 17:06:11.350034  8269 net.cpp:144] Setting up conv3
I0505 17:06:11.350050  8269 net.cpp:151] Top shape: 20 128 15 15 (576000)
I0505 17:06:11.350054  8269 net.cpp:159] Memory required for data: 17352080
I0505 17:06:11.350061  8269 layer_factory.hpp:77] Creating layer relu3
I0505 17:06:11.350075  8269 net.cpp:94] Creating Layer relu3
I0505 17:06:11.350078  8269 net.cpp:435] relu3 <- conv3
I0505 17:06:11.350082  8269 net.cpp:396] relu3 -> conv3 (in-place)
I0505 17:06:11.350090  8269 net.cpp:144] Setting up relu3
I0505 17:06:11.350095  8269 net.cpp:151] Top shape: 20 128 15 15 (576000)
I0505 17:06:11.350097  8269 net.cpp:159] Memory required for data: 19656080
I0505 17:06:11.350100  8269 layer_factory.hpp:77] Creating layer pool3
I0505 17:06:11.350106  8269 net.cpp:94] Creating Layer pool3
I0505 17:06:11.350108  8269 net.cpp:435] pool3 <- conv3
I0505 17:06:11.350112  8269 net.cpp:409] pool3 -> pool3
I0505 17:06:11.350152  8269 net.cpp:144] Setting up pool3
I0505 17:06:11.350158  8269 net.cpp:151] Top shape: 20 128 7 7 (125440)
I0505 17:06:11.350162  8269 net.cpp:159] Memory required for data: 20157840
I0505 17:06:11.350164  8269 layer_factory.hpp:77] Creating layer ip1
I0505 17:06:11.350172  8269 net.cpp:94] Creating Layer ip1
I0505 17:06:11.350174  8269 net.cpp:435] ip1 <- pool3
I0505 17:06:11.350179  8269 net.cpp:409] ip1 -> ip1
I0505 17:06:11.428555  8269 net.cpp:144] Setting up ip1
I0505 17:06:11.428583  8269 net.cpp:151] Top shape: 20 512 (10240)
I0505 17:06:11.428587  8269 net.cpp:159] Memory required for data: 20198800
I0505 17:06:11.428596  8269 layer_factory.hpp:77] Creating layer ip2
I0505 17:06:11.428606  8269 net.cpp:94] Creating Layer ip2
I0505 17:06:11.428611  8269 net.cpp:435] ip2 <- ip1
I0505 17:06:11.428617  8269 net.cpp:409] ip2 -> ip2
I0505 17:06:11.431756  8269 net.cpp:144] Setting up ip2
I0505 17:06:11.431766  8269 net.cpp:151] Top shape: 20 256 (5120)
I0505 17:06:11.431768  8269 net.cpp:159] Memory required for data: 20219280
I0505 17:06:11.431776  8269 layer_factory.hpp:77] Creating layer ip3
I0505 17:06:11.431782  8269 net.cpp:94] Creating Layer ip3
I0505 17:06:11.431784  8269 net.cpp:435] ip3 <- ip2
I0505 17:06:11.431789  8269 net.cpp:409] ip3 -> ip3
I0505 17:06:11.431888  8269 net.cpp:144] Setting up ip3
I0505 17:06:11.431895  8269 net.cpp:151] Top shape: 20 1 (20)
I0505 17:06:11.431898  8269 net.cpp:159] Memory required for data: 20219360
I0505 17:06:11.431902  8269 layer_factory.hpp:77] Creating layer loss
I0505 17:06:11.431915  8269 net.cpp:94] Creating Layer loss
I0505 17:06:11.431920  8269 net.cpp:435] loss <- ip3
I0505 17:06:11.431922  8269 net.cpp:435] loss <- label
I0505 17:06:11.431927  8269 net.cpp:409] loss -> loss
I0505 17:06:11.431977  8269 net.cpp:144] Setting up loss
…
I0505 17:06:11.692252  8269 net.cpp:323] The NetState phase (0) differed from the phase (1) specified by a rule in layer intercept
I0505 17:06:11.692265  8269 net.cpp:323] The NetState phase (0) differed from the phase (1) specified by a rule in layer accuracy
I0505 17:06:11.692334  8269 net.cpp:52] Initializing net from parameters: 
state {
  phase: TRAIN
}
layer {
  name: "parameters"
  type: "HDF5Data"
  top: "data"
  top: "label"
  include {
    phase: TRAIN
  }
  hdf5_data_param {
    source: "/home/purduethu/scratch/radon/d/deng106/CNNStatisticalModel/distributions/input/20_distributions_900_sample_size_train-distributions-path.txt"
    batch_size: 20
  }
}
layer {
  name: "conv1"
  type: "Convolution"
  bottom: "data"
  top: "conv1"
  param {
    lr_mult: 1
  }
  param {
    lr_mult: 2
  }
  convolution_param {
    num_output: 64
    pad: 2
    kernel_size: 5
    stride: 1
    weight_filler {
      type: "gaussian"
      std: 0.0001
    }
    bias_filler {
      type: "constant"
    }
  }
}
layer {
  name: "relu1"
  type: "ReLU"
  bottom: "conv1"
  top: "conv1"
}
layer {
  name: "pool1"
  type: "Pooling"
  bottom: "conv1"
  top: "pool1"
  pooling_param {
    pool: MAX
    kernel_size: 3
    stride: 2
  }
}
layer {
  name: "conv2"
  type: "Convolution"
  bottom: "pool1"
  top: "conv2"
  param {
    lr_mult: 1
  }
  param {
    lr_mult: 2
  }
  convolution_param {
    num_output: 128
    pad: 2
    kernel_size: 5
    stride: 1
    weight_filler {
      type: "gaussian"
      std: 0.01
    }
    bias_filler {
      type: "constant"
    }
  }
}
layer {
  name: "relu2"
  type: "ReLU"
  bottom: "conv2"
  top: "conv2"
}
layer {
  name: "conv3"
  type: "Convolution"
  bottom: "conv2"
  top: "conv3"
  param {
    lr_mult: 1
  }
  param {
    lr_mult: 2
  }
  convolution_param {
    num_output: 128
    pad: 2
    kernel_size: 5
    stride: 1
    weight_filler {
      type: "gaussian"
      std: 0.01
    }
    bias_filler {
      type: "constant"
    }
  }
}
layer {
  name: "relu3"
  type: "ReLU"
  bottom: "conv3"
  top: "conv3"
}
layer {
  name: "pool3"
  type: "Pooling"
  bottom: "conv3"
  top: "pool3"
  pooling_param {
    pool: AVE
    kernel_size: 3
    stride: 2
  }
}
layer {
  name: "ip1"
  type: "InnerProduct"
  bottom: "pool3"
  top: "ip1"
  param {
    lr_mult: 1
  }
  param {
    lr_mult: 2
  }
  inner_product_param {
    num_output: 512
    weight_filler {
      type: "gaussian"
      std: 0.1
    }
    bias_filler {
      type: "constant"
    }
  }
}
layer {
  name: "ip2"
  type: "InnerProduct"
  bottom: "ip1"
  top: "ip2"
  param {
    lr_mult: 1
  }
  param {
    lr_mult: 2
  }
  inner_product_param {
    num_output: 256
    weight_filler {
      type: "gaussian"
      std: 0.1
    }
    bias_filler {
      type: "constant"
    }
  }
}
layer {
  name: "ip3"
  type: "InnerProduct"
  bottom: "ip2"
  top: "ip3"
  param {
    lr_mult: 1
  }
  param {
    lr_mult: 2
  }
  inner_product_param {
    num_output: 50
    weight_filler {
      type: "gaussian"
      std: 0.1
    }
    bias_filler {
      type: "constant"
    }
  }
}
layer {
  name: "loss"
  type: "SoftmaxWithLoss"
  bottom: "ip3"
  bottom: "label"
  top: "loss"
}
I0505 17:06:11.692378  8269 layer_factory.hpp:77] Creating layer parameters
I0505 17:06:11.692385  8269 net.cpp:94] Creating Layer parameters
I0505 17:06:11.692389  8269 net.cpp:409] parameters -> data
I0505 17:06:11.692395  8269 net.cpp:409] parameters -> label
I0505 17:06:11.692401  8269 hdf5_data_layer.cpp:79] Loading list of HDF5 filenames from: /home/purduethu/scratch/radon/d/deng106/CNNStatisticalModel/distributions/input/20_distributions_900_sample_size_train-distributions-path.txt
I0505 17:06:11.692415  8269 hdf5_data_layer.cpp:93] Number of HDF5 files: 1
I0505 17:06:12.262465  8269 hdf5.cpp:35] Datatype class: H5T_INTEGER
I0505 17:06:12.263495  8269 net.cpp:144] Setting up parameters
I0505 17:06:12.263510  8269 net.cpp:151] Top shape: 20 1 30 30 (18000)
I0505 17:06:12.263515  8269 net.cpp:151] Top shape: 20 (20)
I0505 17:06:12.263519  8269 net.cpp:159] Memory required for data: 72080
I0505 17:06:12.263525  8269 layer_factory.hpp:77] Creating layer conv1
I0505 17:06:12.263540  8269 net.cpp:94] Creating Layer conv1
I0505 17:06:12.263545  8269 net.cpp:435] conv1 <- data
I0505 17:06:12.263550  8269 net.cpp:409] conv1 -> conv1
I0505 17:06:12.267117  8269 net.cpp:144] Setting up conv1
I0505 17:06:12.267132  8269 net.cpp:151] Top shape: 20 64 30 30 (1152000)
I0505 17:06:12.267135  8269 net.cpp:159] Memory required for data: 4680080
I0505 17:06:12.267145  8269 layer_factory.hpp:77] Creating layer relu1
I0505 17:06:12.267153  8269 net.cpp:94] Creating Layer relu1
I0505 17:06:12.267156  8269 net.cpp:435] relu1 <- conv1
I0505 17:06:12.267160  8269 net.cpp:396] relu1 -> conv1 (in-place)
I0505 17:06:12.267168  8269 net.cpp:144] Setting up relu1
I0505 17:06:12.267172  8269 net.cpp:151] Top shape: 20 64 30 30 (1152000)
I0505 17:06:12.267174  8269 net.cpp:159] Memory required for data: 9288080
I0505 17:06:12.267177  8269 layer_factory.hpp:77] Creating layer pool1
I0505 17:06:12.267184  8269 net.cpp:94] Creating Layer pool1
I0505 17:06:12.267194  8269 net.cpp:435] pool1 <- conv1
I0505 17:06:12.267197  8269 net.cpp:409] pool1 -> pool1
I0505 17:06:12.267247  8269 net.cpp:144] Setting up pool1
I0505 17:06:12.267254  8269 net.cpp:151] Top shape: 20 64 15 15 (288000)
I0505 17:06:12.267257  8269 net.cpp:159] Memory required for data: 10440080
I0505 17:06:12.267261  8269 layer_factory.hpp:77] Creating layer conv2
I0505 17:06:12.267268  8269 net.cpp:94] Creating Layer conv2
I0505 17:06:12.267272  8269 net.cpp:435] conv2 <- pool1
I0505 17:06:12.267277  8269 net.cpp:409] conv2 -> conv2
I0505 17:06:12.280829  8269 net.cpp:144] Setting up conv2
I0505 17:06:12.280846  8269 net.cpp:151] Top shape: 20 128 15 15 (576000)
I0505 17:06:12.280850  8269 net.cpp:159] Memory required for data: 12744080
I0505 17:06:12.280859  8269 layer_factory.hpp:77] Creating layer relu2
I0505 17:06:12.280865  8269 net.cpp:94] Creating Layer relu2
I0505 17:06:12.280869  8269 net.cpp:435] relu2 <- conv2
I0505 17:06:12.280874  8269 net.cpp:396] relu2 -> conv2 (in-place)
I0505 17:06:12.280880  8269 net.cpp:144] Setting up relu2
I0505 17:06:12.280884  8269 net.cpp:151] Top shape: 20 128 15 15 (576000)
I0505 17:06:12.280887  8269 net.cpp:159] Memory required for data: 15048080
I0505 17:06:12.280890  8269 layer_factory.hpp:77] Creating layer conv3
I0505 17:06:12.280899  8269 net.cpp:94] Creating Layer conv3
I0505 17:06:12.280901  8269 net.cpp:435] conv3 <- conv2
I0505 17:06:12.280906  8269 net.cpp:409] conv3 -> conv3
I0505 17:06:12.304432  8269 net.cpp:144] Setting up conv3
I0505 17:06:12.304473  8269 net.cpp:151] Top shape: 20 128 15 15 (576000)
I0505 17:06:12.304484  8269 net.cpp:159] Memory required for data: 17352080
I0505 17:06:12.304507  8269 layer_factory.hpp:77] Creating layer relu3
I0505 17:06:12.304522  8269 net.cpp:94] Creating Layer relu3
I0505 17:06:12.304539  8269 net.cpp:435] relu3 <- conv3
I0505 17:06:12.304543  8269 net.cpp:396] relu3 -> conv3 (in-place)
I0505 17:06:12.304558  8269 net.cpp:144] Setting up relu3
I0505 17:06:12.304564  8269 net.cpp:151] Top shape: 20 128 15 15 (576000)
I0505 17:06:12.304567  8269 net.cpp:159] Memory required for data: 19656080
I0505 17:06:12.304570  8269 layer_factory.hpp:77] Creating layer pool3
I0505 17:06:12.304576  8269 net.cpp:94] Creating Layer pool3
I0505 17:06:12.304579  8269 net.cpp:435] pool3 <- conv3
I0505 17:06:12.304584  8269 net.cpp:409] pool3 -> pool3
I0505 17:06:12.304623  8269 net.cpp:144] Setting up pool3
I0505 17:06:12.304630  8269 net.cpp:151] Top shape: 20 128 7 7 (125440)
I0505 17:06:12.304633  8269 net.cpp:159] Memory required for data: 20157840
I0505 17:06:12.304636  8269 layer_factory.hpp:77] Creating layer ip1
I0505 17:06:12.304643  8269 net.cpp:94] Creating Layer ip1
I0505 17:06:12.304646  8269 net.cpp:435] ip1 <- pool3
I0505 17:06:12.304651  8269 net.cpp:409] ip1 -> ip1
I0505 17:06:12.383080  8269 net.cpp:144] Setting up ip1
I0505 17:06:12.383112  8269 net.cpp:151] Top shape: 20 512 (10240)
I0505 17:06:12.383116  8269 net.cpp:159] Memory required for data: 20198800
I0505 17:06:12.383124  8269 layer_factory.hpp:77] Creating layer ip2
I0505 17:06:12.383134  8269 net.cpp:94] Creating Layer ip2
I0505 17:06:12.383139  8269 net.cpp:435] ip2 <- ip1
I0505 17:06:12.383146  8269 net.cpp:409] ip2 -> ip2
I0505 17:06:12.386317  8269 net.cpp:144] Setting up ip2
I0505 17:06:12.386329  8269 net.cpp:151] Top shape: 20 256 (5120)
I0505 17:06:12.386332  8269 net.cpp:159] Memory required for data: 20219280
I0505 17:06:12.386342  8269 layer_factory.hpp:77] Creating layer ip3
I0505 17:06:12.386348  8269 net.cpp:94] Creating Layer ip3
I0505 17:06:12.386350  8269 net.cpp:435] ip3 <- ip2
I0505 17:06:12.386355  8269 net.cpp:409] ip3 -> ip3
I0505 17:06:12.387754  8269 net.cpp:144] Setting up ip3
I0505 17:06:12.387768  8269 net.cpp:151] Top shape: 20 50 (1000)
I0505 17:06:12.387771  8269 net.cpp:159] Memory required for data: 20223280
I0505 17:06:12.387778  8269 layer_factory.hpp:77] Creating layer loss
I0505 17:06:12.387784  8269 net.cpp:94] Creating Layer loss
I0505 17:06:12.387787  8269 net.cpp:435] loss <- ip3
I0505 17:06:12.387791  8269 net.cpp:435] loss <- label
I0505 17:06:12.387802  8269 net.cpp:409] loss -> loss
I0505 17:06:12.387811  8269 layer_factory.hpp:77] Creating layer loss
…
I0505 17:06:12.388254  8269 solver.cpp:181] Creating test net (#0) specified by net file: ./protocol/dis_20_900_dimension.protocol_distribution
I0505 17:06:12.388278  8269 net.cpp:323] The NetState phase (1) differed from the phase (0) specified by a rule in layer parameters
I0505 17:06:12.388360  8269 net.cpp:52] Initializing net from parameters: 
state {
  phase: TEST
}
layer {
  name: "intercept"
  type: "HDF5Data"
  top: "data"
  top: "label"
  include {
    phase: TEST
  }
  hdf5_data_param {
    source: "/home/purduethu/scratch/radon/d/deng106/CNNStatisticalModel/distributions/input/20_distributions_900_sample_size_test-distributions-path.txt"
    batch_size: 20
  }
}
layer {
  name: "conv1"
  type: "Convolution"
  bottom: "data"
  top: "conv1"
  param {
    lr_mult: 1
  }
  param {
    lr_mult: 2
  }
  convolution_param {
    num_output: 64
    pad: 2
    kernel_size: 5
    stride: 1
    weight_filler {
      type: "gaussian"
      std: 0.0001
    }
    bias_filler {
      type: "constant"
    }
  }
}
layer {
  name: "relu1"
  type: "ReLU"
  bottom: "conv1"
  top: "conv1"
}
layer {
  name: "pool1"
  type: "Pooling"
  bottom: "conv1"
  top: "pool1"
  pooling_param {
    pool: MAX
    kernel_size: 3
    stride: 2
  }
}
layer {
  name: "conv2"
  type: "Convolution"
  bottom: "pool1"
  top: "conv2"
  param {
    lr_mult: 1
  }
  param {
    lr_mult: 2
  }
  convolution_param {
    num_output: 128
    pad: 2
    kernel_size: 5
    stride: 1
    weight_filler {
      type: "gaussian"
      std: 0.01
    }
    bias_filler {
      type: "constant"
    }
  }
}
layer {
  name: "relu2"
  type: "ReLU"
  bottom: "conv2"
  top: "conv2"
}
layer {
  name: "conv3"
  type: "Convolution"
  bottom: "conv2"
  top: "conv3"
  param {
    lr_mult: 1
  }
  param {
    lr_mult: 2
  }
  convolution_param {
    num_output: 128
    pad: 2
    kernel_size: 5
    stride: 1
    weight_filler {
      type: "gaussian"
      std: 0.01
    }
    bias_filler {
      type: "constant"
    }
  }
}
layer {
  name: "relu3"
  type: "ReLU"
  bottom: "conv3"
  top: "conv3"
}
layer {
  name: "pool3"
  type: "Pooling"
  bottom: "conv3"
  top: "pool3"
  pooling_param {
    pool: AVE
    kernel_size: 3
    stride: 2
  }
}
layer {
  name: "ip1"
  type: "InnerProduct"
  bottom: "pool3"
  top: "ip1"
  param {
    lr_mult: 1
  }
  param {
    lr_mult: 2
  }
  inner_product_param {
    num_output: 512
    weight_filler {
      type: "gaussian"
      std: 0.1
    }
    bias_filler {
      type: "constant"
    }
  }
}
layer {
  name: "ip2"
  type: "InnerProduct"
  bottom: "ip1"
  top: "ip2"
  param {
    lr_mult: 1
  }
  param {
    lr_mult: 2
  }
  inner_product_param {
    num_output: 256
    weight_filler {
      type: "gaussian"
      std: 0.1
    }
    bias_filler {
      type: "constant"
    }
  }
}
layer {
  name: "ip3"
  type: "InnerProduct"
  bottom: "ip2"
  top: "ip3"
  param {
    lr_mult: 1
  }
  param {
    lr_mult: 2
  }
  inner_product_param {
    num_output: 50
    weight_filler {
      type: "gaussian"
      std: 0.1
    }
    bias_filler {
      type: "constant"
    }
  }
}
layer {
  name: "accuracy"
  type: "Accuracy"
  bottom: "ip3"
  bottom: "label"
  top: "accuracy"
  include {
    phase: TEST
  }
}
layer {
  name: "loss"
  type: "SoftmaxWithLoss"
  bottom: "ip3"
  bottom: "label"
  top: "loss"
}
I0505 17:06:12.388417  8269 layer_factory.hpp:77] Creating layer intercept
I0505 17:06:12.388427  8269 net.cpp:94] Creating Layer intercept
I0505 17:06:12.388430  8269 net.cpp:409] intercept -> data
I0505 17:06:12.388437  8269 net.cpp:409] intercept -> label
I0505 17:06:12.388442  8269 hdf5_data_layer.cpp:79] Loading list of HDF5 filenames from: /home/purduethu/scratch/radon/d/deng106/CNNStatisticalModel/distributions/input/20_distributions_900_sample_size_test-distributions-path.txt
I0505 17:06:12.388461  8269 hdf5_data_layer.cpp:93] Number of HDF5 files: 1
I0505 17:06:12.531736  8269 net.cpp:144] Setting up intercept
I0505 17:06:12.531770  8269 net.cpp:151] Top shape: 20 1 30 30 (18000)
I0505 17:06:12.531775  8269 net.cpp:151] Top shape: 20 (20)
I0505 17:06:12.531779  8269 net.cpp:159] Memory required for data: 72080
I0505 17:06:12.531785  8269 layer_factory.hpp:77] Creating layer label_intercept_1_split
I0505 17:06:12.531803  8269 net.cpp:94] Creating Layer label_intercept_1_split
I0505 17:06:12.531807  8269 net.cpp:435] label_intercept_1_split <- label
I0505 17:06:12.531814  8269 net.cpp:409] label_intercept_1_split -> label_intercept_1_split_0
I0505 17:06:12.531823  8269 net.cpp:409] label_intercept_1_split -> label_intercept_1_split_1
I0505 17:06:12.531865  8269 net.cpp:144] Setting up label_intercept_1_split
I0505 17:06:12.531873  8269 net.cpp:151] Top shape: 20 (20)
I0505 17:06:12.531877  8269 net.cpp:151] Top shape: 20 (20)
I0505 17:06:12.531880  8269 net.cpp:159] Memory required for data: 72240
I0505 17:06:12.531883  8269 layer_factory.hpp:77] Creating layer conv1
I0505 17:06:12.531895  8269 net.cpp:94] Creating Layer conv1
I0505 17:06:12.531898  8269 net.cpp:435] conv1 <- data
I0505 17:06:12.531903  8269 net.cpp:409] conv1 -> conv1
I0505 17:06:12.533489  8269 net.cpp:144] Setting up conv1
I0505 17:06:12.533504  8269 net.cpp:151] Top shape: 20 64 30 30 (1152000)
I0505 17:06:12.533509  8269 net.cpp:159] Memory required for data: 4680240
I0505 17:06:12.533519  8269 layer_factory.hpp:77] Creating layer relu1
I0505 17:06:12.533525  8269 net.cpp:94] Creating Layer relu1
I0505 17:06:12.533529  8269 net.cpp:435] relu1 <- conv1
I0505 17:06:12.533534  8269 net.cpp:396] relu1 -> conv1 (in-place)
I0505 17:06:12.533540  8269 net.cpp:144] Setting up relu1
I0505 17:06:12.533545  8269 net.cpp:151] Top shape: 20 64 30 30 (1152000)
I0505 17:06:12.533546  8269 net.cpp:159] Memory required for data: 9288240
I0505 17:06:12.533550  8269 layer_factory.hpp:77] Creating layer pool1
I0505 17:06:12.533556  8269 net.cpp:94] Creating Layer pool1
I0505 17:06:12.533560  8269 net.cpp:435] pool1 <- conv1
I0505 17:06:12.533563  8269 net.cpp:409] pool1 -> pool1
I0505 17:06:12.533615  8269 net.cpp:144] Setting up pool1
I0505 17:06:12.533622  8269 net.cpp:151] Top shape: 20 64 15 15 (288000)
I0505 17:06:12.533625  8269 net.cpp:159] Memory required for data: 10440240
I0505 17:06:12.533629  8269 layer_factory.hpp:77] Creating layer conv2
I0505 17:06:12.533637  8269 net.cpp:94] Creating Layer conv2
I0505 17:06:12.533640  8269 net.cpp:435] conv2 <- pool1
I0505 17:06:12.533644  8269 net.cpp:409] conv2 -> conv2
I0505 17:06:12.542189  8269 net.cpp:144] Setting up conv2
I0505 17:06:12.542204  8269 net.cpp:151] Top shape: 20 128 15 15 (576000)
I0505 17:06:12.542207  8269 net.cpp:159] Memory required for data: 12744240
I0505 17:06:12.542222  8269 layer_factory.hpp:77] Creating layer relu2
I0505 17:06:12.542227  8269 net.cpp:94] Creating Layer relu2
I0505 17:06:12.542232  8269 net.cpp:435] relu2 <- conv2
I0505 17:06:12.542235  8269 net.cpp:396] relu2 -> conv2 (in-place)
I0505 17:06:12.542243  8269 net.cpp:144] Setting up relu2
I0505 17:06:12.542246  8269 net.cpp:151] Top shape: 20 128 15 15 (576000)
I0505 17:06:12.542249  8269 net.cpp:159] Memory required for data: 15048240
I0505 17:06:12.542253  8269 layer_factory.hpp:77] Creating layer conv3
I0505 17:06:12.542259  8269 net.cpp:94] Creating Layer conv3
I0505 17:06:12.542263  8269 net.cpp:435] conv3 <- conv2
I0505 17:06:12.542268  8269 net.cpp:409] conv3 -> conv3
I0505 17:06:12.557976  8269 net.cpp:144] Setting up conv3
I0505 17:06:12.557991  8269 net.cpp:151] Top shape: 20 128 15 15 (576000)
I0505 17:06:12.557996  8269 net.cpp:159] Memory required for data: 17352240
I0505 17:06:12.558004  8269 layer_factory.hpp:77] Creating layer relu3
I0505 17:06:12.558012  8269 net.cpp:94] Creating Layer relu3
I0505 17:06:12.558014  8269 net.cpp:435] relu3 <- conv3
I0505 17:06:12.558019  8269 net.cpp:396] relu3 -> conv3 (in-place)
I0505 17:06:12.558027  8269 net.cpp:144] Setting up relu3
I0505 17:06:12.558030  8269 net.cpp:151] Top shape: 20 128 15 15 (576000)
I0505 17:06:12.558033  8269 net.cpp:159] Memory required for data: 19656240
I0505 17:06:12.558037  8269 layer_factory.hpp:77] Creating layer pool3
I0505 17:06:12.558042  8269 net.cpp:94] Creating Layer pool3
I0505 17:06:12.558044  8269 net.cpp:435] pool3 <- conv3
I0505 17:06:12.558048  8269 net.cpp:409] pool3 -> pool3
I0505 17:06:12.558087  8269 net.cpp:144] Setting up pool3
I0505 17:06:12.558095  8269 net.cpp:151] Top shape: 20 128 7 7 (125440)
I0505 17:06:12.558099  8269 net.cpp:159] Memory required for data: 20158000
I0505 17:06:12.558101  8269 layer_factory.hpp:77] Creating layer ip1
I0505 17:06:12.558109  8269 net.cpp:94] Creating Layer ip1
I0505 17:06:12.558111  8269 net.cpp:435] ip1 <- pool3
I0505 17:06:12.558116  8269 net.cpp:409] ip1 -> ip1
I0505 17:06:12.638787  8269 net.cpp:144] Setting up ip1
I0505 17:06:12.638823  8269 net.cpp:151] Top shape: 20 512 (10240)
I0505 17:06:12.638826  8269 net.cpp:159] Memory required for data: 20198960
I0505 17:06:12.638834  8269 layer_factory.hpp:77] Creating layer ip2
I0505 17:06:12.638844  8269 net.cpp:94] Creating Layer ip2
I0505 17:06:12.638849  8269 net.cpp:435] ip2 <- ip1
I0505 17:06:12.638856  8269 net.cpp:409] ip2 -> ip2
I0505 17:06:12.642144  8269 net.cpp:144] Setting up ip2
I0505 17:06:12.642158  8269 net.cpp:151] Top shape: 20 256 (5120)
I0505 17:06:12.642161  8269 net.cpp:159] Memory required for data: 20219440
I0505 17:06:12.642170  8269 layer_factory.hpp:77] Creating layer ip3
I0505 17:06:12.642176  8269 net.cpp:94] Creating Layer ip3
I0505 17:06:12.642179  8269 net.cpp:435] ip3 <- ip2
I0505 17:06:12.642184  8269 net.cpp:409] ip3 -> ip3
I0505 17:06:12.642623  8269 net.cpp:144] Setting up ip3
I0505 17:06:12.642630  8269 net.cpp:151] Top shape: 20 50 (1000)
I0505 17:06:12.642633  8269 net.cpp:159] Memory required for data: 20223440
I0505 17:06:12.642638  8269 layer_factory.hpp:77] Creating layer ip3_ip3_0_split
I0505 17:06:12.642644  8269 net.cpp:94] Creating Layer ip3_ip3_0_split
I0505 17:06:12.642647  8269 net.cpp:435] ip3_ip3_0_split <- ip3
I0505 17:06:12.642652  8269 net.cpp:409] ip3_ip3_0_split -> ip3_ip3_0_split_0
I0505 17:06:12.642657  8269 net.cpp:409] ip3_ip3_0_split -> ip3_ip3_0_split_1
I0505 17:06:12.642698  8269 net.cpp:144] Setting up ip3_ip3_0_split
I0505 17:06:12.642704  8269 net.cpp:151] Top shape: 20 50 (1000)
I0505 17:06:12.642706  8269 net.cpp:151] Top shape: 20 50 (1000)
I0505 17:06:12.642709  8269 net.cpp:159] Memory required for data: 20231440
I0505 17:06:12.642712  8269 layer_factory.hpp:77] Creating layer accuracy
I0505 17:06:12.642717  8269 net.cpp:94] Creating Layer accuracy
I0505 17:06:12.642720  8269 net.cpp:435] accuracy <- ip3_ip3_0_split_0
I0505 17:06:12.642724  8269 net.cpp:435] accuracy <- label_intercept_1_split_0
I0505 17:06:12.642729  8269 net.cpp:409] accuracy -> accuracy
…
