…
I0503 10:59:43.148073 20280 net.cpp:323] The NetState phase (0) differed from the phase (1) specified by a rule in layer intercept
I0503 10:59:43.148092 20280 net.cpp:323] The NetState phase (0) differed from the phase (1) specified by a rule in layer accuracy
I0503 10:59:43.148186 20280 net.cpp:52] Initializing net from parameters: 
state {
  phase: TRAIN
}
layer {
  name: "parameters"
  type: "HDF5Data"
  top: "data"
  top: "label"
  include {
    phase: TRAIN
  }
  hdf5_data_param {
    source: "/home/purduethu/scratch/radon/d/deng106/CNNStatisticalModel/distributions/input/20_distributions_900_sample_size_train-distributions-path.txt"
    batch_size: 20
  }
}
layer {
  name: "conv1"
  type: "Convolution"
  bottom: "data"
  top: "conv1"
  param {
    lr_mult: 1
  }
  param {
    lr_mult: 2
  }
  convolution_param {
    num_output: 64
    pad: 2
    kernel_size: 5
    stride: 1
    weight_filler {
      type: "gaussian"
      std: 0.0001
    }
    bias_filler {
      type: "constant"
    }
  }
}
layer {
  name: "relu1"
  type: "ReLU"
  bottom: "conv1"
  top: "conv1"
}
layer {
  name: "conv2"
  type: "Convolution"
  bottom: "conv1"
  top: "conv2"
  param {
    lr_mult: 1
  }
  param {
    lr_mult: 2
  }
  convolution_param {
    num_output: 64
    pad: 2
    kernel_size: 5
    stride: 1
    weight_filler {
      type: "gaussian"
      std: 0.01
    }
    bias_filler {
      type: "constant"
    }
  }
}
layer {
  name: "relu2"
  type: "ReLU"
  bottom: "conv2"
  top: "conv2"
}
layer {
  name: "pool2"
  type: "Pooling"
  bottom: "conv2"
  top: "pool2"
  pooling_param {
    pool: MAX
    kernel_size: 3
    stride: 2
  }
}
layer {
  name: "conv3"
  type: "Convolution"
  bottom: "pool2"
  top: "conv3"
  param {
    lr_mult: 1
  }
  param {
    lr_mult: 2
  }
  convolution_param {
    num_output: 128
    pad: 2
    kernel_size: 5
    stride: 1
    weight_filler {
      type: "gaussian"
      std: 0.01
    }
    bias_filler {
      type: "constant"
    }
  }
}
layer {
  name: "relu3"
  type: "ReLU"
  bottom: "conv3"
  top: "conv3"
}
layer {
  name: "conv4"
  type: "Convolution"
  bottom: "conv3"
  top: "conv4"
  param {
    lr_mult: 1
  }
  param {
    lr_mult: 2
  }
  convolution_param {
    num_output: 128
    pad: 2
    kernel_size: 5
    stride: 1
    weight_filler {
      type: "gaussian"
      std: 0.01
    }
    bias_filler {
      type: "constant"
    }
  }
}
layer {
  name: "relu4"
  type: "ReLU"
  bottom: "conv4"
  top: "conv4"
}
layer {
  name: "conv5"
  type: "Convolution"
  bottom: "conv4"
  top: "conv5"
  param {
    lr_mult: 1
  }
  param {
    lr_mult: 2
  }
  convolution_param {
    num_output: 128
    pad: 2
    kernel_size: 5
    stride: 1
    weight_filler {
      type: "gaussian"
      std: 0.01
    }
    bias_filler {
      type: "constant"
    }
  }
}
layer {
  name: "relu5"
  type: "ReLU"
  bottom: "conv5"
  top: "conv5"
}
layer {
  name: "pool5"
  type: "Pooling"
  bottom: "conv5"
  top: "pool5"
  pooling_param {
    pool: AVE
    kernel_size: 3
    stride: 2
  }
}
layer {
  name: "ip1"
  type: "InnerProduct"
  bottom: "pool5"
  top: "ip1"
  param {
    lr_mult: 1
  }
  param {
    lr_mult: 2
  }
  inner_product_param {
    num_output: 1024
    weight_filler {
      type: "gaussian"
      std: 0.1
    }
    bias_filler {
      type: "constant"
    }
  }
}
layer {
  name: "ip2"
  type: "InnerProduct"
  bottom: "ip1"
  top: "ip2"
  param {
    lr_mult: 1
  }
  param {
    lr_mult: 2
  }
  inner_product_param {
    num_output: 512
    weight_filler {
      type: "gaussian"
      std: 0.1
    }
    bias_filler {
      type: "constant"
    }
  }
}
layer {
  name: "ip3"
  type: "InnerProduct"
  bottom: "ip2"
  top: "ip3"
  param {
    lr_mult: 1
  }
  param {
    lr_mult: 2
  }
  inner_product_param {
    num_output: 50
    weight_filler {
      type: "gaussian"
      std: 0.1
    }
    bias_filler {
      type: "constant"
    }
  }
}
layer {
  name: "loss"
  type: "SoftmaxWithLoss"
  bottom: "ip3"
  bottom: "label"
  top: "loss"
}
I0503 10:59:43.148262 20280 layer_factory.hpp:77] Creating layer parameters
I0503 10:59:43.148279 20280 net.cpp:94] Creating Layer parameters
I0503 10:59:43.148286 20280 net.cpp:409] parameters -> data
I0503 10:59:43.148306 20280 net.cpp:409] parameters -> label
I0503 10:59:43.148317 20280 hdf5_data_layer.cpp:79] Loading list of HDF5 filenames from: /home/purduethu/scratch/radon/d/deng106/CNNStatisticalModel/distributions/input/20_distributions_900_sample_size_train-distributions-path.txt
I0503 10:59:43.148342 20280 hdf5_data_layer.cpp:93] Number of HDF5 files: 1
I0503 10:59:43.148944 20280 hdf5.cpp:32] Datatype class: H5T_FLOAT
I0503 10:59:43.711827 20280 hdf5.cpp:35] Datatype class: H5T_INTEGER
I0503 10:59:43.713543 20280 net.cpp:144] Setting up parameters
I0503 10:59:43.713564 20280 net.cpp:151] Top shape: 20 1 30 30 (18000)
I0503 10:59:43.713572 20280 net.cpp:151] Top shape: 20 (20)
I0503 10:59:43.713575 20280 net.cpp:159] Memory required for data: 72080
I0503 10:59:43.713582 20280 layer_factory.hpp:77] Creating layer conv1
I0503 10:59:43.713601 20280 net.cpp:94] Creating Layer conv1
I0503 10:59:43.713608 20280 net.cpp:435] conv1 <- data
I0503 10:59:43.713619 20280 net.cpp:409] conv1 -> conv1
I0503 10:59:43.719434 20280 net.cpp:144] Setting up conv1
I0503 10:59:43.719450 20280 net.cpp:151] Top shape: 20 64 30 30 (1152000)
I0503 10:59:43.719455 20280 net.cpp:159] Memory required for data: 4680080
I0503 10:59:43.719467 20280 layer_factory.hpp:77] Creating layer relu1
I0503 10:59:43.719476 20280 net.cpp:94] Creating Layer relu1
I0503 10:59:43.719481 20280 net.cpp:435] relu1 <- conv1
I0503 10:59:43.719486 20280 net.cpp:396] relu1 -> conv1 (in-place)
I0503 10:59:43.719503 20280 net.cpp:144] Setting up relu1
I0503 10:59:43.719509 20280 net.cpp:151] Top shape: 20 64 30 30 (1152000)
I0503 10:59:43.719513 20280 net.cpp:159] Memory required for data: 9288080
I0503 10:59:43.719516 20280 layer_factory.hpp:77] Creating layer conv2
I0503 10:59:43.719525 20280 net.cpp:94] Creating Layer conv2
I0503 10:59:43.719529 20280 net.cpp:435] conv2 <- conv1
I0503 10:59:43.719535 20280 net.cpp:409] conv2 -> conv2
I0503 10:59:43.733809 20280 net.cpp:144] Setting up conv2
I0503 10:59:43.733825 20280 net.cpp:151] Top shape: 20 64 30 30 (1152000)
I0503 10:59:43.733829 20280 net.cpp:159] Memory required for data: 13896080
I0503 10:59:43.733839 20280 layer_factory.hpp:77] Creating layer relu2
I0503 10:59:43.733846 20280 net.cpp:94] Creating Layer relu2
I0503 10:59:43.733850 20280 net.cpp:435] relu2 <- conv2
I0503 10:59:43.733856 20280 net.cpp:396] relu2 -> conv2 (in-place)
I0503 10:59:43.733865 20280 net.cpp:144] Setting up relu2
I0503 10:59:43.733870 20280 net.cpp:151] Top shape: 20 64 30 30 (1152000)
I0503 10:59:43.733873 20280 net.cpp:159] Memory required for data: 18504080
I0503 10:59:43.733877 20280 layer_factory.hpp:77] Creating layer pool2
I0503 10:59:43.733892 20280 net.cpp:94] Creating Layer pool2
I0503 10:59:43.733896 20280 net.cpp:435] pool2 <- conv2
I0503 10:59:43.733902 20280 net.cpp:409] pool2 -> pool2
I0503 10:59:43.733947 20280 net.cpp:144] Setting up pool2
I0503 10:59:43.733955 20280 net.cpp:151] Top shape: 20 64 15 15 (288000)
I0503 10:59:43.733959 20280 net.cpp:159] Memory required for data: 19656080
I0503 10:59:43.733963 20280 layer_factory.hpp:77] Creating layer conv3
I0503 10:59:43.733971 20280 net.cpp:94] Creating Layer conv3
I0503 10:59:43.733976 20280 net.cpp:435] conv3 <- pool2
I0503 10:59:43.733990 20280 net.cpp:409] conv3 -> conv3
I0503 10:59:43.746222 20280 net.cpp:144] Setting up conv3
I0503 10:59:43.746237 20280 net.cpp:151] Top shape: 20 128 15 15 (576000)
I0503 10:59:43.746243 20280 net.cpp:159] Memory required for data: 21960080
I0503 10:59:43.746251 20280 layer_factory.hpp:77] Creating layer relu3
I0503 10:59:43.746258 20280 net.cpp:94] Creating Layer relu3
I0503 10:59:43.746263 20280 net.cpp:435] relu3 <- conv3
I0503 10:59:43.746268 20280 net.cpp:396] relu3 -> conv3 (in-place)
I0503 10:59:43.746275 20280 net.cpp:144] Setting up relu3
I0503 10:59:43.746281 20280 net.cpp:151] Top shape: 20 128 15 15 (576000)
I0503 10:59:43.746284 20280 net.cpp:159] Memory required for data: 24264080
I0503 10:59:43.746289 20280 layer_factory.hpp:77] Creating layer conv4
I0503 10:59:43.746297 20280 net.cpp:94] Creating Layer conv4
I0503 10:59:43.746302 20280 net.cpp:435] conv4 <- conv3
I0503 10:59:43.746309 20280 net.cpp:409] conv4 -> conv4
I0503 10:59:43.767271 20280 net.cpp:144] Setting up conv4
I0503 10:59:43.767287 20280 net.cpp:151] Top shape: 20 128 15 15 (576000)
I0503 10:59:43.767292 20280 net.cpp:159] Memory required for data: 26568080
I0503 10:59:43.767299 20280 layer_factory.hpp:77] Creating layer relu4
I0503 10:59:43.767305 20280 net.cpp:94] Creating Layer relu4
I0503 10:59:43.767310 20280 net.cpp:435] relu4 <- conv4
I0503 10:59:43.767316 20280 net.cpp:396] relu4 -> conv4 (in-place)
I0503 10:59:43.767324 20280 net.cpp:144] Setting up relu4
I0503 10:59:43.767329 20280 net.cpp:151] Top shape: 20 128 15 15 (576000)
I0503 10:59:43.767333 20280 net.cpp:159] Memory required for data: 28872080
I0503 10:59:43.767336 20280 layer_factory.hpp:77] Creating layer conv5
I0503 10:59:43.767345 20280 net.cpp:94] Creating Layer conv5
I0503 10:59:43.767349 20280 net.cpp:435] conv5 <- conv4
I0503 10:59:43.767355 20280 net.cpp:409] conv5 -> conv5
I0503 10:59:43.788054 20280 net.cpp:144] Setting up conv5
I0503 10:59:43.788082 20280 net.cpp:151] Top shape: 20 128 15 15 (576000)
I0503 10:59:43.788094 20280 net.cpp:159] Memory required for data: 31176080
I0503 10:59:43.788112 20280 layer_factory.hpp:77] Creating layer relu5
I0503 10:59:43.788125 20280 net.cpp:94] Creating Layer relu5
I0503 10:59:43.788133 20280 net.cpp:435] relu5 <- conv5
I0503 10:59:43.788144 20280 net.cpp:396] relu5 -> conv5 (in-place)
I0503 10:59:43.788161 20280 net.cpp:144] Setting up relu5
I0503 10:59:43.788172 20280 net.cpp:151] Top shape: 20 128 15 15 (576000)
I0503 10:59:43.788179 20280 net.cpp:159] Memory required for data: 33480080
I0503 10:59:43.788187 20280 layer_factory.hpp:77] Creating layer pool5
I0503 10:59:43.788198 20280 net.cpp:94] Creating Layer pool5
I0503 10:59:43.788206 20280 net.cpp:435] pool5 <- conv5
I0503 10:59:43.788216 20280 net.cpp:409] pool5 -> pool5
I0503 10:59:43.788285 20280 net.cpp:144] Setting up pool5
I0503 10:59:43.788300 20280 net.cpp:151] Top shape: 20 128 7 7 (125440)
I0503 10:59:43.788308 20280 net.cpp:159] Memory required for data: 33981840
I0503 10:59:43.788316 20280 layer_factory.hpp:77] Creating layer ip1
I0503 10:59:43.788334 20280 net.cpp:94] Creating Layer ip1
I0503 10:59:43.788343 20280 net.cpp:435] ip1 <- pool5
I0503 10:59:43.788354 20280 net.cpp:409] ip1 -> ip1
I0503 10:59:43.943789 20280 net.cpp:144] Setting up ip1
I0503 10:59:43.943812 20280 net.cpp:151] Top shape: 20 1024 (20480)
I0503 10:59:43.943817 20280 net.cpp:159] Memory required for data: 34063760
I0503 10:59:43.943826 20280 layer_factory.hpp:77] Creating layer ip2
I0503 10:59:43.943843 20280 net.cpp:94] Creating Layer ip2
I0503 10:59:43.943848 20280 net.cpp:435] ip2 <- ip1
I0503 10:59:43.943856 20280 net.cpp:409] ip2 -> ip2
I0503 10:59:43.956784 20280 net.cpp:144] Setting up ip2
I0503 10:59:43.956799 20280 net.cpp:151] Top shape: 20 512 (10240)
I0503 10:59:43.956804 20280 net.cpp:159] Memory required for data: 34104720
I0503 10:59:43.956809 20280 layer_factory.hpp:77] Creating layer ip3
I0503 10:59:43.956816 20280 net.cpp:94] Creating Layer ip3
I0503 10:59:43.956821 20280 net.cpp:435] ip3 <- ip2
I0503 10:59:43.956826 20280 net.cpp:409] ip3 -> ip3
I0503 10:59:43.958118 20280 net.cpp:144] Setting up ip3
I0503 10:59:43.958130 20280 net.cpp:151] Top shape: 20 50 (1000)
I0503 10:59:43.958135 20280 net.cpp:159] Memory required for data: 34108720
I0503 10:59:43.958142 20280 layer_factory.hpp:77] Creating layer loss
I0503 10:59:43.958150 20280 net.cpp:94] Creating Layer loss
I0503 10:59:43.958154 20280 net.cpp:435] loss <- ip3
I0503 10:59:43.958159 20280 net.cpp:435] loss <- label
I0503 10:59:43.958166 20280 net.cpp:409] loss -> loss
I0503 10:59:43.958178 20280 layer_factory.hpp:77] Creating layer loss
…
I0503 10:59:43.958683 20280 solver.cpp:181] Creating test net (#0) specified by net file: ./protocol/dis_20_900_dimension.protocol_distribution
I0503 10:59:43.958710 20280 net.cpp:323] The NetState phase (1) differed from the phase (0) specified by a rule in layer parameters
I0503 10:59:43.958808 20280 net.cpp:52] Initializing net from parameters: 
state {
  phase: TEST
}
layer {
  name: "intercept"
  type: "HDF5Data"
  top: "data"
  top: "label"
  include {
    phase: TEST
  }
  hdf5_data_param {
    source: "/home/purduethu/scratch/radon/d/deng106/CNNStatisticalModel/distributions/input/20_distributions_900_sample_size_test-distributions-path.txt"
    batch_size: 20
  }
}
layer {
  name: "conv1"
  type: "Convolution"
  bottom: "data"
  top: "conv1"
  param {
    lr_mult: 1
  }
  param {
    lr_mult: 2
  }
  convolution_param {
    num_output: 64
    pad: 2
    kernel_size: 5
    stride: 1
    weight_filler {
      type: "gaussian"
      std: 0.0001
    }
    bias_filler {
      type: "constant"
    }
  }
}
layer {
  name: "relu1"
  type: "ReLU"
  bottom: "conv1"
  top: "conv1"
}
layer {
  name: "conv2"
  type: "Convolution"
  bottom: "conv1"
  top: "conv2"
  param {
    lr_mult: 1
  }
  param {
    lr_mult: 2
  }
  convolution_param {
    num_output: 64
    pad: 2
    kernel_size: 5
    stride: 1
    weight_filler {
      type: "gaussian"
      std: 0.01
    }
    bias_filler {
      type: "constant"
    }
  }
}
layer {
  name: "relu2"
  type: "ReLU"
  bottom: "conv2"
  top: "conv2"
}
layer {
  name: "pool2"
  type: "Pooling"
  bottom: "conv2"
  top: "pool2"
  pooling_param {
    pool: MAX
    kernel_size: 3
    stride: 2
  }
}
layer {
  name: "conv3"
  type: "Convolution"
  bottom: "pool2"
  top: "conv3"
  param {
    lr_mult: 1
  }
  param {
    lr_mult: 2
  }
  convolution_param {
    num_output: 128
    pad: 2
    kernel_size: 5
    stride: 1
    weight_filler {
      type: "gaussian"
      std: 0.01
    }
    bias_filler {
      type: "constant"
    }
  }
}
layer {
  name: "relu3"
  type: "ReLU"
  bottom: "conv3"
  top: "conv3"
}
layer {
  name: "conv4"
  type: "Convolution"
  bottom: "conv3"
  top: "conv4"
  param {
    lr_mult: 1
  }
  param {
    lr_mult: 2
  }
  convolution_param {
    num_output: 128
    pad: 2
    kernel_size: 5
    stride: 1
    weight_filler {
      type: "gaussian"
      std: 0.01
    }
    bias_filler {
      type: "constant"
    }
  }
}
layer {
  name: "relu4"
  type: "ReLU"
  bottom: "conv4"
  top: "conv4"
}
layer {
  name: "conv5"
  type: "Convolution"
  bottom: "conv4"
  top: "conv5"
  param {
    lr_mult: 1
  }
  param {
    lr_mult: 2
  }
  convolution_param {
    num_output: 128
    pad: 2
    kernel_size: 5
    stride: 1
    weight_filler {
      type: "gaussian"
      std: 0.01
    }
    bias_filler {
      type: "constant"
    }
  }
}
layer {
  name: "relu5"
  type: "ReLU"
  bottom: "conv5"
  top: "conv5"
}
layer {
  name: "pool5"
  type: "Pooling"
  bottom: "conv5"
  top: "pool5"
  pooling_param {
    pool: AVE
    kernel_size: 3
    stride: 2
  }
}
layer {
  name: "ip1"
  type: "InnerProduct"
  bottom: "pool5"
  top: "ip1"
  param {
    lr_mult: 1
  }
  param {
    lr_mult: 2
  }
  inner_product_param {
    num_output: 1024
    weight_filler {
      type: "gaussian"
      std: 0.1
    }
    bias_filler {
      type: "constant"
    }
  }
}
layer {
  name: "ip2"
  type: "InnerProduct"
  bottom: "ip1"
  top: "ip2"
  param {
    lr_mult: 1
  }
  param {
    lr_mult: 2
  }
  inner_product_param {
    num_output: 512
    weight_filler {
      type: "gaussian"
      std: 0.1
    }
    bias_filler {
      type: "constant"
    }
  }
}
layer {
  name: "ip3"
  type: "InnerProduct"
  bottom: "ip2"
  top: "ip3"
  param {
    lr_mult: 1
  }
  param {
    lr_mult: 2
  }
  inner_product_param {
    num_output: 50
    weight_filler {
      type: "gaussian"
      std: 0.1
    }
    bias_filler {
      type: "constant"
    }
  }
}
layer {
  name: "accuracy"
  type: "Accuracy"
  bottom: "ip3"
  bottom: "label"
  top: "accuracy"
  include {
    phase: TEST
  }
}
layer {
  name: "loss"
  type: "SoftmaxWithLoss"
  bottom: "ip3"
  bottom: "label"
  top: "loss"
}
I0503 10:59:43.958880 20280 layer_factory.hpp:77] Creating layer intercept
I0503 10:59:43.958889 20280 net.cpp:94] Creating Layer intercept
I0503 10:59:43.958894 20280 net.cpp:409] intercept -> data
I0503 10:59:43.958901 20280 net.cpp:409] intercept -> label
I0503 10:59:43.958909 20280 hdf5_data_layer.cpp:79] Loading list of HDF5 filenames from: /home/purduethu/scratch/radon/d/deng106/CNNStatisticalModel/distributions/input/20_distributions_900_sample_size_test-distributions-path.txt
I0503 10:59:43.958927 20280 hdf5_data_layer.cpp:93] Number of HDF5 files: 1
I0503 10:59:44.098963 20280 net.cpp:144] Setting up intercept
I0503 10:59:44.098999 20280 net.cpp:151] Top shape: 20 1 30 30 (18000)
I0503 10:59:44.099005 20280 net.cpp:151] Top shape: 20 (20)
I0503 10:59:44.099009 20280 net.cpp:159] Memory required for data: 72080
I0503 10:59:44.099015 20280 layer_factory.hpp:77] Creating layer label_intercept_1_split
I0503 10:59:44.099035 20280 net.cpp:94] Creating Layer label_intercept_1_split
I0503 10:59:44.099040 20280 net.cpp:435] label_intercept_1_split <- label
I0503 10:59:44.099046 20280 net.cpp:409] label_intercept_1_split -> label_intercept_1_split_0
I0503 10:59:44.099064 20280 net.cpp:409] label_intercept_1_split -> label_intercept_1_split_1
I0503 10:59:44.099093 20280 net.cpp:144] Setting up label_intercept_1_split
I0503 10:59:44.099100 20280 net.cpp:151] Top shape: 20 (20)
I0503 10:59:44.099105 20280 net.cpp:151] Top shape: 20 (20)
I0503 10:59:44.099109 20280 net.cpp:159] Memory required for data: 72240
I0503 10:59:44.099112 20280 layer_factory.hpp:77] Creating layer conv1
I0503 10:59:44.099125 20280 net.cpp:94] Creating Layer conv1
I0503 10:59:44.099129 20280 net.cpp:435] conv1 <- data
I0503 10:59:44.099135 20280 net.cpp:409] conv1 -> conv1
I0503 10:59:44.100425 20280 net.cpp:144] Setting up conv1
I0503 10:59:44.100440 20280 net.cpp:151] Top shape: 20 64 30 30 (1152000)
I0503 10:59:44.100443 20280 net.cpp:159] Memory required for data: 4680240
I0503 10:59:44.100453 20280 layer_factory.hpp:77] Creating layer relu1
I0503 10:59:44.100461 20280 net.cpp:94] Creating Layer relu1
I0503 10:59:44.100466 20280 net.cpp:435] relu1 <- conv1
I0503 10:59:44.100471 20280 net.cpp:396] relu1 -> conv1 (in-place)
I0503 10:59:44.100479 20280 net.cpp:144] Setting up relu1
I0503 10:59:44.100486 20280 net.cpp:151] Top shape: 20 64 30 30 (1152000)
I0503 10:59:44.100488 20280 net.cpp:159] Memory required for data: 9288240
I0503 10:59:44.100492 20280 layer_factory.hpp:77] Creating layer conv2
I0503 10:59:44.100502 20280 net.cpp:94] Creating Layer conv2
I0503 10:59:44.100505 20280 net.cpp:435] conv2 <- conv1
I0503 10:59:44.100512 20280 net.cpp:409] conv2 -> conv2
I0503 10:59:44.106683 20280 net.cpp:144] Setting up conv2
I0503 10:59:44.106711 20280 net.cpp:151] Top shape: 20 64 30 30 (1152000)
I0503 10:59:44.106720 20280 net.cpp:159] Memory required for data: 13896240
I0503 10:59:44.106739 20280 layer_factory.hpp:77] Creating layer relu2
I0503 10:59:44.106750 20280 net.cpp:94] Creating Layer relu2
I0503 10:59:44.106760 20280 net.cpp:435] relu2 <- conv2
I0503 10:59:44.106770 20280 net.cpp:396] relu2 -> conv2 (in-place)
I0503 10:59:44.106786 20280 net.cpp:144] Setting up relu2
I0503 10:59:44.106796 20280 net.cpp:151] Top shape: 20 64 30 30 (1152000)
I0503 10:59:44.106804 20280 net.cpp:159] Memory required for data: 18504240
I0503 10:59:44.106812 20280 layer_factory.hpp:77] Creating layer pool2
I0503 10:59:44.106824 20280 net.cpp:94] Creating Layer pool2
I0503 10:59:44.106832 20280 net.cpp:435] pool2 <- conv2
I0503 10:59:44.106842 20280 net.cpp:409] pool2 -> pool2
I0503 10:59:44.106919 20280 net.cpp:144] Setting up pool2
I0503 10:59:44.106932 20280 net.cpp:151] Top shape: 20 64 15 15 (288000)
I0503 10:59:44.106940 20280 net.cpp:159] Memory required for data: 19656240
I0503 10:59:44.106948 20280 layer_factory.hpp:77] Creating layer conv3
I0503 10:59:44.106964 20280 net.cpp:94] Creating Layer conv3
I0503 10:59:44.106973 20280 net.cpp:435] conv3 <- pool2
I0503 10:59:44.106984 20280 net.cpp:409] conv3 -> conv3
I0503 10:59:44.114821 20280 net.cpp:144] Setting up conv3
I0503 10:59:44.114837 20280 net.cpp:151] Top shape: 20 128 15 15 (576000)
I0503 10:59:44.114842 20280 net.cpp:159] Memory required for data: 21960240
I0503 10:59:44.114851 20280 layer_factory.hpp:77] Creating layer relu3
I0503 10:59:44.114858 20280 net.cpp:94] Creating Layer relu3
I0503 10:59:44.114863 20280 net.cpp:435] relu3 <- conv3
I0503 10:59:44.114868 20280 net.cpp:396] relu3 -> conv3 (in-place)
I0503 10:59:44.114876 20280 net.cpp:144] Setting up relu3
I0503 10:59:44.114881 20280 net.cpp:151] Top shape: 20 128 15 15 (576000)
I0503 10:59:44.114886 20280 net.cpp:159] Memory required for data: 24264240
I0503 10:59:44.114888 20280 layer_factory.hpp:77] Creating layer conv4
I0503 10:59:44.114897 20280 net.cpp:94] Creating Layer conv4
I0503 10:59:44.114902 20280 net.cpp:435] conv4 <- conv3
I0503 10:59:44.114907 20280 net.cpp:409] conv4 -> conv4
I0503 10:59:44.129390 20280 net.cpp:144] Setting up conv4
I0503 10:59:44.129406 20280 net.cpp:151] Top shape: 20 128 15 15 (576000)
I0503 10:59:44.129411 20280 net.cpp:159] Memory required for data: 26568240
I0503 10:59:44.129418 20280 layer_factory.hpp:77] Creating layer relu4
I0503 10:59:44.129425 20280 net.cpp:94] Creating Layer relu4
I0503 10:59:44.129433 20280 net.cpp:435] relu4 <- conv4
I0503 10:59:44.129439 20280 net.cpp:396] relu4 -> conv4 (in-place)
I0503 10:59:44.129447 20280 net.cpp:144] Setting up relu4
I0503 10:59:44.129452 20280 net.cpp:151] Top shape: 20 128 15 15 (576000)
I0503 10:59:44.129456 20280 net.cpp:159] Memory required for data: 28872240
I0503 10:59:44.129459 20280 layer_factory.hpp:77] Creating layer conv5
I0503 10:59:44.129468 20280 net.cpp:94] Creating Layer conv5
I0503 10:59:44.129472 20280 net.cpp:435] conv5 <- conv4
I0503 10:59:44.129477 20280 net.cpp:409] conv5 -> conv5
I0503 10:59:44.143733 20280 net.cpp:144] Setting up conv5
I0503 10:59:44.143748 20280 net.cpp:151] Top shape: 20 128 15 15 (576000)
I0503 10:59:44.143754 20280 net.cpp:159] Memory required for data: 31176240
I0503 10:59:44.143762 20280 layer_factory.hpp:77] Creating layer relu5
I0503 10:59:44.143769 20280 net.cpp:94] Creating Layer relu5
I0503 10:59:44.143774 20280 net.cpp:435] relu5 <- conv5
I0503 10:59:44.143779 20280 net.cpp:396] relu5 -> conv5 (in-place)
I0503 10:59:44.143787 20280 net.cpp:144] Setting up relu5
I0503 10:59:44.143792 20280 net.cpp:151] Top shape: 20 128 15 15 (576000)
I0503 10:59:44.143796 20280 net.cpp:159] Memory required for data: 33480240
I0503 10:59:44.143800 20280 layer_factory.hpp:77] Creating layer pool5
I0503 10:59:44.143805 20280 net.cpp:94] Creating Layer pool5
I0503 10:59:44.143810 20280 net.cpp:435] pool5 <- conv5
I0503 10:59:44.143815 20280 net.cpp:409] pool5 -> pool5
I0503 10:59:44.143841 20280 net.cpp:144] Setting up pool5
I0503 10:59:44.143849 20280 net.cpp:151] Top shape: 20 128 7 7 (125440)
I0503 10:59:44.143853 20280 net.cpp:159] Memory required for data: 33982000
I0503 10:59:44.143857 20280 layer_factory.hpp:77] Creating layer ip1
I0503 10:59:44.143864 20280 net.cpp:94] Creating Layer ip1
I0503 10:59:44.143868 20280 net.cpp:435] ip1 <- pool5
I0503 10:59:44.143873 20280 net.cpp:409] ip1 -> ip1
I0503 10:59:44.298369 20280 net.cpp:144] Setting up ip1
I0503 10:59:44.298408 20280 net.cpp:151] Top shape: 20 1024 (20480)
I0503 10:59:44.298413 20280 net.cpp:159] Memory required for data: 34063920
I0503 10:59:44.298421 20280 layer_factory.hpp:77] Creating layer ip2
I0503 10:59:44.298432 20280 net.cpp:94] Creating Layer ip2
I0503 10:59:44.298437 20280 net.cpp:435] ip2 <- ip1
I0503 10:59:44.298444 20280 net.cpp:409] ip2 -> ip2
I0503 10:59:44.311419 20280 net.cpp:144] Setting up ip2
I0503 10:59:44.311432 20280 net.cpp:151] Top shape: 20 512 (10240)
I0503 10:59:44.311437 20280 net.cpp:159] Memory required for data: 34104880
I0503 10:59:44.311444 20280 layer_factory.hpp:77] Creating layer ip3
I0503 10:59:44.311452 20280 net.cpp:94] Creating Layer ip3
I0503 10:59:44.311457 20280 net.cpp:435] ip3 <- ip2
I0503 10:59:44.311463 20280 net.cpp:409] ip3 -> ip3
I0503 10:59:44.312145 20280 net.cpp:144] Setting up ip3
I0503 10:59:44.312153 20280 net.cpp:151] Top shape: 20 50 (1000)
I0503 10:59:44.312157 20280 net.cpp:159] Memory required for data: 34108880
I0503 10:59:44.312162 20280 layer_factory.hpp:77] Creating layer ip3_ip3_0_split
I0503 10:59:44.312168 20280 net.cpp:94] Creating Layer ip3_ip3_0_split
I0503 10:59:44.312172 20280 net.cpp:435] ip3_ip3_0_split <- ip3
I0503 10:59:44.312177 20280 net.cpp:409] ip3_ip3_0_split -> ip3_ip3_0_split_0
I0503 10:59:44.312185 20280 net.cpp:409] ip3_ip3_0_split -> ip3_ip3_0_split_1
I0503 10:59:44.312211 20280 net.cpp:144] Setting up ip3_ip3_0_split
I0503 10:59:44.312217 20280 net.cpp:151] Top shape: 20 50 (1000)
I0503 10:59:44.312222 20280 net.cpp:151] Top shape: 20 50 (1000)
I0503 10:59:44.312225 20280 net.cpp:159] Memory required for data: 34116880
I0503 10:59:44.312228 20280 layer_factory.hpp:77] Creating layer accuracy
I0503 10:59:44.312240 20280 net.cpp:94] Creating Layer accuracy
I0503 10:59:44.312244 20280 net.cpp:435] accuracy <- ip3_ip3_0_split_0
I0503 10:59:44.312249 20280 net.cpp:435] accuracy <- label_intercept_1_split_0
I0503 10:59:44.312254 20280 net.cpp:409] accuracy -> accuracy
…
