…
I0504 11:51:21.144908 26401 net.cpp:323] The NetState phase (0) differed from the phase (1) specified by a rule in layer intercept
I0504 11:51:21.144937 26401 net.cpp:323] The NetState phase (0) differed from the phase (1) specified by a rule in layer loss
I0504 11:51:21.145018 26401 net.cpp:52] Initializing net from parameters: 
state {
  phase: TRAIN
}
layer {
  name: "parameters"
  type: "HDF5Data"
  top: "data"
  top: "label"
  include {
    phase: TRAIN
  }
  hdf5_data_param {
    source: "/home/purduethu/scratch/radon/d/deng106/CNNStatisticalModel/distributions/input/5_distributions_100_sample_size_train-parameters-path.txt"
    batch_size: 20
  }
}
layer {
  name: "conv1"
  type: "Convolution"
  bottom: "data"
  top: "conv1"
  param {
    lr_mult: 1
  }
  param {
    lr_mult: 2
  }
  convolution_param {
    num_output: 64
    pad: 2
    kernel_size: 5
    stride: 1
    weight_filler {
      type: "gaussian"
      std: 0.0001
    }
    bias_filler {
      type: "constant"
    }
  }
}
layer {
  name: "relu1"
  type: "ReLU"
  bottom: "conv1"
  top: "conv1"
}
layer {
  name: "conv2"
  type: "Convolution"
  bottom: "conv1"
  top: "conv2"
  param {
    lr_mult: 1
  }
  param {
    lr_mult: 2
  }
  convolution_param {
    num_output: 64
    pad: 2
    kernel_size: 5
    stride: 1
    weight_filler {
      type: "gaussian"
      std: 0.01
    }
    bias_filler {
      type: "constant"
    }
  }
}
layer {
  name: "relu2"
  type: "ReLU"
  bottom: "conv2"
  top: "conv2"
}
layer {
  name: "pool2"
  type: "Pooling"
  bottom: "conv2"
  top: "pool2"
  pooling_param {
    pool: MAX
    kernel_size: 3
    stride: 2
  }
}
layer {
  name: "conv3"
  type: "Convolution"
  bottom: "pool2"
  top: "conv3"
  param {
    lr_mult: 1
  }
  param {
    lr_mult: 2
  }
  convolution_param {
    num_output: 128
    pad: 2
    kernel_size: 5
    stride: 1
    weight_filler {
      type: "gaussian"
      std: 0.01
    }
    bias_filler {
      type: "constant"
    }
  }
}
layer {
  name: "relu3"
  type: "ReLU"
  bottom: "conv3"
  top: "conv3"
}
layer {
  name: "conv4"
  type: "Convolution"
  bottom: "conv3"
  top: "conv4"
  param {
    lr_mult: 1
  }
  param {
    lr_mult: 2
  }
  convolution_param {
    num_output: 128
    pad: 2
    kernel_size: 5
    stride: 1
    weight_filler {
      type: "gaussian"
      std: 0.01
    }
    bias_filler {
      type: "constant"
    }
  }
}
layer {
  name: "relu4"
  type: "ReLU"
  bottom: "conv4"
  top: "conv4"
}
layer {
  name: "conv5"
  type: "Convolution"
  bottom: "conv4"
  top: "conv5"
  param {
    lr_mult: 1
  }
  param {
    lr_mult: 2
  }
  convolution_param {
    num_output: 128
    pad: 2
    kernel_size: 5
    stride: 1
    weight_filler {
      type: "gaussian"
      std: 0.01
    }
    bias_filler {
      type: "constant"
    }
  }
}
layer {
  name: "relu5"
  type: "ReLU"
  bottom: "conv5"
  top: "conv5"
}
layer {
  name: "pool5"
  type: "Pooling"
  bottom: "conv5"
  top: "pool5"
  pooling_param {
    pool: AVE
    kernel_size: 3
    stride: 2
  }
}
layer {
  name: "ip1"
  type: "InnerProduct"
  bottom: "pool5"
  top: "ip1"
  param {
    lr_mult: 1
  }
  param {
    lr_mult: 2
  }
  inner_product_param {
    num_output: 1024
    weight_filler {
      type: "gaussian"
      std: 0.1
    }
    bias_filler {
      type: "constant"
    }
  }
}
layer {
  name: "ip2"
  type: "InnerProduct"
  bottom: "ip1"
  top: "ip2"
  param {
    lr_mult: 1
  }
  param {
    lr_mult: 2
  }
  inner_product_param {
    num_output: 512
    weight_filler {
      type: "gaussian"
      std: 0.1
    }
    bias_filler {
      type: "constant"
    }
  }
}
layer {
  name: "ip3"
  type: "InnerProduct"
  bottom: "ip2"
  top: "ip3"
  param {
    lr_mult: 1
  }
  param {
    lr_mult: 2
  }
  inner_product_param {
    num_output: 1
    weight_filler {
      type: "gaussian"
      std: 0.1
    }
    bias_filler {
      type: "constant"
    }
  }
}
layer {
  name: "loss"
  type: "HuberLoss"
  bottom: "ip3"
  bottom: "label"
  top: "loss"
  include {
    phase: TRAIN
  }
}
I0504 11:51:21.145072 26401 layer_factory.hpp:77] Creating layer parameters
I0504 11:51:21.145086 26401 net.cpp:94] Creating Layer parameters
I0504 11:51:21.145089 26401 net.cpp:409] parameters -> data
I0504 11:51:21.145099 26401 net.cpp:409] parameters -> label
I0504 11:51:21.145108 26401 hdf5_data_layer.cpp:79] Loading list of HDF5 filenames from: /home/purduethu/scratch/radon/d/deng106/CNNStatisticalModel/distributions/input/5_distributions_100_sample_size_train-parameters-path.txt
I0504 11:51:21.145123 26401 hdf5_data_layer.cpp:93] Number of HDF5 files: 1
I0504 11:51:21.145651 26401 hdf5.cpp:32] Datatype class: H5T_FLOAT
I0504 11:51:21.164196 26401 net.cpp:144] Setting up parameters
I0504 11:51:21.164229 26401 net.cpp:151] Top shape: 20 1 10 10 (2000)
I0504 11:51:21.164234 26401 net.cpp:151] Top shape: 20 (20)
I0504 11:51:21.164238 26401 net.cpp:159] Memory required for data: 8080
I0504 11:51:21.164244 26401 layer_factory.hpp:77] Creating layer conv1
I0504 11:51:21.164265 26401 net.cpp:94] Creating Layer conv1
I0504 11:51:21.164270 26401 net.cpp:435] conv1 <- data
I0504 11:51:21.164276 26401 net.cpp:409] conv1 -> conv1
I0504 11:51:21.169150 26401 net.cpp:144] Setting up conv1
I0504 11:51:21.169186 26401 net.cpp:151] Top shape: 20 64 10 10 (128000)
I0504 11:51:21.169195 26401 net.cpp:159] Memory required for data: 520080
I0504 11:51:21.169217 26401 layer_factory.hpp:77] Creating layer relu1
I0504 11:51:21.169234 26401 net.cpp:94] Creating Layer relu1
I0504 11:51:21.169241 26401 net.cpp:435] relu1 <- conv1
I0504 11:51:21.169251 26401 net.cpp:396] relu1 -> conv1 (in-place)
I0504 11:51:21.169276 26401 net.cpp:144] Setting up relu1
I0504 11:51:21.169286 26401 net.cpp:151] Top shape: 20 64 10 10 (128000)
I0504 11:51:21.169293 26401 net.cpp:159] Memory required for data: 1032080
I0504 11:51:21.169301 26401 layer_factory.hpp:77] Creating layer conv2
I0504 11:51:21.169317 26401 net.cpp:94] Creating Layer conv2
I0504 11:51:21.169324 26401 net.cpp:435] conv2 <- conv1
I0504 11:51:21.169334 26401 net.cpp:409] conv2 -> conv2
I0504 11:51:21.180513 26401 net.cpp:144] Setting up conv2
I0504 11:51:21.180546 26401 net.cpp:151] Top shape: 20 64 10 10 (128000)
I0504 11:51:21.180579 26401 net.cpp:159] Memory required for data: 1544080
I0504 11:51:21.180601 26401 layer_factory.hpp:77] Creating layer relu2
I0504 11:51:21.180615 26401 net.cpp:94] Creating Layer relu2
I0504 11:51:21.180624 26401 net.cpp:435] relu2 <- conv2
I0504 11:51:21.180634 26401 net.cpp:396] relu2 -> conv2 (in-place)
I0504 11:51:21.180649 26401 net.cpp:144] Setting up relu2
I0504 11:51:21.180660 26401 net.cpp:151] Top shape: 20 64 10 10 (128000)
I0504 11:51:21.180667 26401 net.cpp:159] Memory required for data: 2056080
I0504 11:51:21.180675 26401 layer_factory.hpp:77] Creating layer pool2
I0504 11:51:21.180686 26401 net.cpp:94] Creating Layer pool2
I0504 11:51:21.180703 26401 net.cpp:435] pool2 <- conv2
I0504 11:51:21.180714 26401 net.cpp:409] pool2 -> pool2
I0504 11:51:21.180824 26401 net.cpp:144] Setting up pool2
I0504 11:51:21.180837 26401 net.cpp:151] Top shape: 20 64 5 5 (32000)
I0504 11:51:21.180843 26401 net.cpp:159] Memory required for data: 2184080
I0504 11:51:21.180850 26401 layer_factory.hpp:77] Creating layer conv3
I0504 11:51:21.180862 26401 net.cpp:94] Creating Layer conv3
I0504 11:51:21.180868 26401 net.cpp:435] conv3 <- pool2
I0504 11:51:21.180877 26401 net.cpp:409] conv3 -> conv3
I0504 11:51:21.194970 26401 net.cpp:144] Setting up conv3
I0504 11:51:21.194995 26401 net.cpp:151] Top shape: 20 128 5 5 (64000)
I0504 11:51:21.195003 26401 net.cpp:159] Memory required for data: 2440080
I0504 11:51:21.195016 26401 layer_factory.hpp:77] Creating layer relu3
I0504 11:51:21.195027 26401 net.cpp:94] Creating Layer relu3
I0504 11:51:21.195034 26401 net.cpp:435] relu3 <- conv3
I0504 11:51:21.195041 26401 net.cpp:396] relu3 -> conv3 (in-place)
I0504 11:51:21.195053 26401 net.cpp:144] Setting up relu3
I0504 11:51:21.195061 26401 net.cpp:151] Top shape: 20 128 5 5 (64000)
I0504 11:51:21.195066 26401 net.cpp:159] Memory required for data: 2696080
I0504 11:51:21.195072 26401 layer_factory.hpp:77] Creating layer conv4
I0504 11:51:21.195086 26401 net.cpp:94] Creating Layer conv4
I0504 11:51:21.195091 26401 net.cpp:435] conv4 <- conv3
I0504 11:51:21.195101 26401 net.cpp:409] conv4 -> conv4
I0504 11:51:21.219540 26401 net.cpp:144] Setting up conv4
I0504 11:51:21.219568 26401 net.cpp:151] Top shape: 20 128 5 5 (64000)
I0504 11:51:21.219574 26401 net.cpp:159] Memory required for data: 2952080
I0504 11:51:21.219585 26401 layer_factory.hpp:77] Creating layer relu4
I0504 11:51:21.219595 26401 net.cpp:94] Creating Layer relu4
I0504 11:51:21.219602 26401 net.cpp:435] relu4 <- conv4
I0504 11:51:21.219609 26401 net.cpp:396] relu4 -> conv4 (in-place)
I0504 11:51:21.219622 26401 net.cpp:144] Setting up relu4
I0504 11:51:21.219630 26401 net.cpp:151] Top shape: 20 128 5 5 (64000)
I0504 11:51:21.219635 26401 net.cpp:159] Memory required for data: 3208080
I0504 11:51:21.219640 26401 layer_factory.hpp:77] Creating layer conv5
I0504 11:51:21.219652 26401 net.cpp:94] Creating Layer conv5
I0504 11:51:21.219658 26401 net.cpp:435] conv5 <- conv4
I0504 11:51:21.219666 26401 net.cpp:409] conv5 -> conv5
I0504 11:51:21.242202 26401 net.cpp:144] Setting up conv5
I0504 11:51:21.242231 26401 net.cpp:151] Top shape: 20 128 5 5 (64000)
I0504 11:51:21.242238 26401 net.cpp:159] Memory required for data: 3464080
I0504 11:51:21.242252 26401 layer_factory.hpp:77] Creating layer relu5
I0504 11:51:21.242261 26401 net.cpp:94] Creating Layer relu5
I0504 11:51:21.242267 26401 net.cpp:435] relu5 <- conv5
I0504 11:51:21.242274 26401 net.cpp:396] relu5 -> conv5 (in-place)
I0504 11:51:21.242286 26401 net.cpp:144] Setting up relu5
I0504 11:51:21.242293 26401 net.cpp:151] Top shape: 20 128 5 5 (64000)
I0504 11:51:21.242298 26401 net.cpp:159] Memory required for data: 3720080
I0504 11:51:21.242303 26401 layer_factory.hpp:77] Creating layer pool5
I0504 11:51:21.242311 26401 net.cpp:94] Creating Layer pool5
I0504 11:51:21.242316 26401 net.cpp:435] pool5 <- conv5
I0504 11:51:21.242322 26401 net.cpp:409] pool5 -> pool5
I0504 11:51:21.242382 26401 net.cpp:144] Setting up pool5
I0504 11:51:21.242393 26401 net.cpp:151] Top shape: 20 128 2 2 (10240)
I0504 11:51:21.242398 26401 net.cpp:159] Memory required for data: 3761040
I0504 11:51:21.242401 26401 layer_factory.hpp:77] Creating layer ip1
I0504 11:51:21.242415 26401 net.cpp:94] Creating Layer ip1
I0504 11:51:21.242420 26401 net.cpp:435] ip1 <- pool5
I0504 11:51:21.242427 26401 net.cpp:409] ip1 -> ip1
I0504 11:51:21.264734 26401 net.cpp:144] Setting up ip1
I0504 11:51:21.264763 26401 net.cpp:151] Top shape: 20 1024 (20480)
I0504 11:51:21.264770 26401 net.cpp:159] Memory required for data: 3842960
I0504 11:51:21.264781 26401 layer_factory.hpp:77] Creating layer ip2
I0504 11:51:21.264792 26401 net.cpp:94] Creating Layer ip2
I0504 11:51:21.264799 26401 net.cpp:435] ip2 <- ip1
I0504 11:51:21.264814 26401 net.cpp:409] ip2 -> ip2
I0504 11:51:21.284343 26401 net.cpp:144] Setting up ip2
I0504 11:51:21.284368 26401 net.cpp:151] Top shape: 20 512 (10240)
I0504 11:51:21.284373 26401 net.cpp:159] Memory required for data: 3883920
I0504 11:51:21.284381 26401 layer_factory.hpp:77] Creating layer ip3
I0504 11:51:21.284390 26401 net.cpp:94] Creating Layer ip3
I0504 11:51:21.284396 26401 net.cpp:435] ip3 <- ip2
I0504 11:51:21.284404 26401 net.cpp:409] ip3 -> ip3
I0504 11:51:21.284570 26401 net.cpp:144] Setting up ip3
I0504 11:51:21.284582 26401 net.cpp:151] Top shape: 20 1 (20)
I0504 11:51:21.284587 26401 net.cpp:159] Memory required for data: 3884000
I0504 11:51:21.284595 26401 layer_factory.hpp:77] Creating layer loss
I0504 11:51:21.284605 26401 net.cpp:94] Creating Layer loss
I0504 11:51:21.284610 26401 net.cpp:435] loss <- ip3
I0504 11:51:21.284615 26401 net.cpp:435] loss <- label
I0504 11:51:21.284621 26401 net.cpp:409] loss -> loss
I0504 11:51:21.284688 26401 net.cpp:144] Setting up loss
…
I0504 11:51:21.371867 26401 net.cpp:323] The NetState phase (0) differed from the phase (1) specified by a rule in layer intercept
I0504 11:51:21.371883 26401 net.cpp:323] The NetState phase (0) differed from the phase (1) specified by a rule in layer accuracy
I0504 11:51:21.371974 26401 net.cpp:52] Initializing net from parameters: 
state {
  phase: TRAIN
}
layer {
  name: "parameters"
  type: "HDF5Data"
  top: "data"
  top: "label"
  include {
    phase: TRAIN
  }
  hdf5_data_param {
    source: "/home/purduethu/scratch/radon/d/deng106/CNNStatisticalModel/distributions/input/5_distributions_100_sample_size_train-distributions-path.txt"
    batch_size: 20
  }
}
layer {
  name: "conv1"
  type: "Convolution"
  bottom: "data"
  top: "conv1"
  param {
    lr_mult: 1
  }
  param {
    lr_mult: 2
  }
  convolution_param {
    num_output: 64
    pad: 2
    kernel_size: 5
    stride: 1
    weight_filler {
      type: "gaussian"
      std: 0.0001
    }
    bias_filler {
      type: "constant"
    }
  }
}
layer {
  name: "relu1"
  type: "ReLU"
  bottom: "conv1"
  top: "conv1"
}
layer {
  name: "conv2"
  type: "Convolution"
  bottom: "conv1"
  top: "conv2"
  param {
    lr_mult: 1
  }
  param {
    lr_mult: 2
  }
  convolution_param {
    num_output: 64
    pad: 2
    kernel_size: 5
    stride: 1
    weight_filler {
      type: "gaussian"
      std: 0.01
    }
    bias_filler {
      type: "constant"
    }
  }
}
layer {
  name: "relu2"
  type: "ReLU"
  bottom: "conv2"
  top: "conv2"
}
layer {
  name: "pool2"
  type: "Pooling"
  bottom: "conv2"
  top: "pool2"
  pooling_param {
    pool: MAX
    kernel_size: 3
    stride: 2
  }
}
layer {
  name: "conv3"
  type: "Convolution"
  bottom: "pool2"
  top: "conv3"
  param {
    lr_mult: 1
  }
  param {
    lr_mult: 2
  }
  convolution_param {
    num_output: 128
    pad: 2
    kernel_size: 5
    stride: 1
    weight_filler {
      type: "gaussian"
      std: 0.01
    }
    bias_filler {
      type: "constant"
    }
  }
}
layer {
  name: "relu3"
  type: "ReLU"
  bottom: "conv3"
  top: "conv3"
}
layer {
  name: "conv4"
  type: "Convolution"
  bottom: "conv3"
  top: "conv4"
  param {
    lr_mult: 1
  }
  param {
    lr_mult: 2
  }
  convolution_param {
    num_output: 128
    pad: 2
    kernel_size: 5
    stride: 1
    weight_filler {
      type: "gaussian"
      std: 0.01
    }
    bias_filler {
      type: "constant"
    }
  }
}
layer {
  name: "relu4"
  type: "ReLU"
  bottom: "conv4"
  top: "conv4"
}
layer {
  name: "conv5"
  type: "Convolution"
  bottom: "conv4"
  top: "conv5"
  param {
    lr_mult: 1
  }
  param {
    lr_mult: 2
  }
  convolution_param {
    num_output: 128
    pad: 2
    kernel_size: 5
    stride: 1
    weight_filler {
      type: "gaussian"
      std: 0.01
    }
    bias_filler {
      type: "constant"
    }
  }
}
layer {
  name: "relu5"
  type: "ReLU"
  bottom: "conv5"
  top: "conv5"
}
layer {
  name: "pool5"
  type: "Pooling"
  bottom: "conv5"
  top: "pool5"
  pooling_param {
    pool: AVE
    kernel_size: 3
    stride: 2
  }
}
layer {
  name: "ip1"
  type: "InnerProduct"
  bottom: "pool5"
  top: "ip1"
  param {
    lr_mult: 1
  }
  param {
    lr_mult: 2
  }
  inner_product_param {
    num_output: 1024
    weight_filler {
      type: "gaussian"
      std: 0.1
    }
    bias_filler {
      type: "constant"
    }
  }
}
layer {
  name: "ip2"
  type: "InnerProduct"
  bottom: "ip1"
  top: "ip2"
  param {
    lr_mult: 1
  }
  param {
    lr_mult: 2
  }
  inner_product_param {
    num_output: 512
    weight_filler {
      type: "gaussian"
      std: 0.1
    }
    bias_filler {
      type: "constant"
    }
  }
}
layer {
  name: "ip3"
  type: "InnerProduct"
  bottom: "ip2"
  top: "ip3"
  param {
    lr_mult: 1
  }
  param {
    lr_mult: 2
  }
  inner_product_param {
    num_output: 50
    weight_filler {
      type: "gaussian"
      std: 0.1
    }
    bias_filler {
      type: "constant"
    }
  }
}
layer {
  name: "loss"
  type: "SoftmaxWithLoss"
  bottom: "ip3"
  bottom: "label"
  top: "loss"
}
I0504 11:51:21.372031 26401 layer_factory.hpp:77] Creating layer parameters
I0504 11:51:21.372040 26401 net.cpp:94] Creating Layer parameters
I0504 11:51:21.372045 26401 net.cpp:409] parameters -> data
I0504 11:51:21.372052 26401 net.cpp:409] parameters -> label
I0504 11:51:21.372058 26401 hdf5_data_layer.cpp:79] Loading list of HDF5 filenames from: /home/purduethu/scratch/radon/d/deng106/CNNStatisticalModel/distributions/input/5_distributions_100_sample_size_train-distributions-path.txt
I0504 11:51:21.372074 26401 hdf5_data_layer.cpp:93] Number of HDF5 files: 1
I0504 11:51:21.389021 26401 hdf5.cpp:35] Datatype class: H5T_INTEGER
I0504 11:51:21.389483 26401 net.cpp:144] Setting up parameters
I0504 11:51:21.389502 26401 net.cpp:151] Top shape: 20 1 10 10 (2000)
I0504 11:51:21.389508 26401 net.cpp:151] Top shape: 20 (20)
I0504 11:51:21.389511 26401 net.cpp:159] Memory required for data: 8080
I0504 11:51:21.389518 26401 layer_factory.hpp:77] Creating layer conv1
I0504 11:51:21.389534 26401 net.cpp:94] Creating Layer conv1
I0504 11:51:21.389539 26401 net.cpp:435] conv1 <- data
I0504 11:51:21.389545 26401 net.cpp:409] conv1 -> conv1
I0504 11:51:21.391438 26401 net.cpp:144] Setting up conv1
I0504 11:51:21.391451 26401 net.cpp:151] Top shape: 20 64 10 10 (128000)
I0504 11:51:21.391455 26401 net.cpp:159] Memory required for data: 520080
I0504 11:51:21.391465 26401 layer_factory.hpp:77] Creating layer relu1
I0504 11:51:21.391474 26401 net.cpp:94] Creating Layer relu1
I0504 11:51:21.391477 26401 net.cpp:435] relu1 <- conv1
I0504 11:51:21.391481 26401 net.cpp:396] relu1 -> conv1 (in-place)
I0504 11:51:21.391489 26401 net.cpp:144] Setting up relu1
I0504 11:51:21.391494 26401 net.cpp:151] Top shape: 20 64 10 10 (128000)
I0504 11:51:21.391497 26401 net.cpp:159] Memory required for data: 1032080
I0504 11:51:21.391500 26401 layer_factory.hpp:77] Creating layer conv2
I0504 11:51:21.391508 26401 net.cpp:94] Creating Layer conv2
I0504 11:51:21.391511 26401 net.cpp:435] conv2 <- conv1
I0504 11:51:21.391516 26401 net.cpp:409] conv2 -> conv2
I0504 11:51:21.397256 26401 net.cpp:144] Setting up conv2
I0504 11:51:21.397271 26401 net.cpp:151] Top shape: 20 64 10 10 (128000)
I0504 11:51:21.397275 26401 net.cpp:159] Memory required for data: 1544080
I0504 11:51:21.397284 26401 layer_factory.hpp:77] Creating layer relu2
I0504 11:51:21.397290 26401 net.cpp:94] Creating Layer relu2
I0504 11:51:21.397294 26401 net.cpp:435] relu2 <- conv2
I0504 11:51:21.397299 26401 net.cpp:396] relu2 -> conv2 (in-place)
I0504 11:51:21.397306 26401 net.cpp:144] Setting up relu2
I0504 11:51:21.397310 26401 net.cpp:151] Top shape: 20 64 10 10 (128000)
I0504 11:51:21.397313 26401 net.cpp:159] Memory required for data: 2056080
I0504 11:51:21.397316 26401 layer_factory.hpp:77] Creating layer pool2
I0504 11:51:21.397322 26401 net.cpp:94] Creating Layer pool2
I0504 11:51:21.397325 26401 net.cpp:435] pool2 <- conv2
I0504 11:51:21.397330 26401 net.cpp:409] pool2 -> pool2
I0504 11:51:21.397383 26401 net.cpp:144] Setting up pool2
I0504 11:51:21.397392 26401 net.cpp:151] Top shape: 20 64 5 5 (32000)
I0504 11:51:21.397394 26401 net.cpp:159] Memory required for data: 2184080
I0504 11:51:21.397397 26401 layer_factory.hpp:77] Creating layer conv3
I0504 11:51:21.397404 26401 net.cpp:94] Creating Layer conv3
I0504 11:51:21.397408 26401 net.cpp:435] conv3 <- pool2
I0504 11:51:21.397413 26401 net.cpp:409] conv3 -> conv3
I0504 11:51:21.406569 26401 net.cpp:144] Setting up conv3
I0504 11:51:21.406592 26401 net.cpp:151] Top shape: 20 128 5 5 (64000)
I0504 11:51:21.406597 26401 net.cpp:159] Memory required for data: 2440080
I0504 11:51:21.406606 26401 layer_factory.hpp:77] Creating layer relu3
I0504 11:51:21.406612 26401 net.cpp:94] Creating Layer relu3
I0504 11:51:21.406616 26401 net.cpp:435] relu3 <- conv3
I0504 11:51:21.406621 26401 net.cpp:396] relu3 -> conv3 (in-place)
I0504 11:51:21.406628 26401 net.cpp:144] Setting up relu3
I0504 11:51:21.406633 26401 net.cpp:151] Top shape: 20 128 5 5 (64000)
I0504 11:51:21.406636 26401 net.cpp:159] Memory required for data: 2696080
I0504 11:51:21.406639 26401 layer_factory.hpp:77] Creating layer conv4
I0504 11:51:21.406647 26401 net.cpp:94] Creating Layer conv4
I0504 11:51:21.406651 26401 net.cpp:435] conv4 <- conv3
I0504 11:51:21.406656 26401 net.cpp:409] conv4 -> conv4
I0504 11:51:21.421835 26401 net.cpp:144] Setting up conv4
I0504 11:51:21.421855 26401 net.cpp:151] Top shape: 20 128 5 5 (64000)
I0504 11:51:21.421860 26401 net.cpp:159] Memory required for data: 2952080
I0504 11:51:21.421867 26401 layer_factory.hpp:77] Creating layer relu4
I0504 11:51:21.421875 26401 net.cpp:94] Creating Layer relu4
I0504 11:51:21.421878 26401 net.cpp:435] relu4 <- conv4
I0504 11:51:21.421883 26401 net.cpp:396] relu4 -> conv4 (in-place)
I0504 11:51:21.421891 26401 net.cpp:144] Setting up relu4
I0504 11:51:21.421896 26401 net.cpp:151] Top shape: 20 128 5 5 (64000)
I0504 11:51:21.421898 26401 net.cpp:159] Memory required for data: 3208080
I0504 11:51:21.421902 26401 layer_factory.hpp:77] Creating layer conv5
I0504 11:51:21.421911 26401 net.cpp:94] Creating Layer conv5
I0504 11:51:21.421913 26401 net.cpp:435] conv5 <- conv4
I0504 11:51:21.421918 26401 net.cpp:409] conv5 -> conv5
I0504 11:51:21.437561 26401 net.cpp:144] Setting up conv5
I0504 11:51:21.437582 26401 net.cpp:151] Top shape: 20 128 5 5 (64000)
I0504 11:51:21.437587 26401 net.cpp:159] Memory required for data: 3464080
I0504 11:51:21.437597 26401 layer_factory.hpp:77] Creating layer relu5
I0504 11:51:21.437603 26401 net.cpp:94] Creating Layer relu5
I0504 11:51:21.437608 26401 net.cpp:435] relu5 <- conv5
I0504 11:51:21.437611 26401 net.cpp:396] relu5 -> conv5 (in-place)
I0504 11:51:21.437619 26401 net.cpp:144] Setting up relu5
I0504 11:51:21.437624 26401 net.cpp:151] Top shape: 20 128 5 5 (64000)
I0504 11:51:21.437628 26401 net.cpp:159] Memory required for data: 3720080
I0504 11:51:21.437630 26401 layer_factory.hpp:77] Creating layer pool5
I0504 11:51:21.437635 26401 net.cpp:94] Creating Layer pool5
I0504 11:51:21.437638 26401 net.cpp:435] pool5 <- conv5
I0504 11:51:21.437644 26401 net.cpp:409] pool5 -> pool5
I0504 11:51:21.437682 26401 net.cpp:144] Setting up pool5
I0504 11:51:21.437690 26401 net.cpp:151] Top shape: 20 128 2 2 (10240)
I0504 11:51:21.437692 26401 net.cpp:159] Memory required for data: 3761040
I0504 11:51:21.437695 26401 layer_factory.hpp:77] Creating layer ip1
I0504 11:51:21.437702 26401 net.cpp:94] Creating Layer ip1
I0504 11:51:21.437705 26401 net.cpp:435] ip1 <- pool5
I0504 11:51:21.437710 26401 net.cpp:409] ip1 -> ip1
I0504 11:51:21.451436 26401 net.cpp:144] Setting up ip1
I0504 11:51:21.451453 26401 net.cpp:151] Top shape: 20 1024 (20480)
I0504 11:51:21.451457 26401 net.cpp:159] Memory required for data: 3842960
I0504 11:51:21.451464 26401 layer_factory.hpp:77] Creating layer ip2
I0504 11:51:21.451474 26401 net.cpp:94] Creating Layer ip2
I0504 11:51:21.451478 26401 net.cpp:435] ip2 <- ip1
I0504 11:51:21.451485 26401 net.cpp:409] ip2 -> ip2
I0504 11:51:21.465198 26401 net.cpp:144] Setting up ip2
I0504 11:51:21.465217 26401 net.cpp:151] Top shape: 20 512 (10240)
I0504 11:51:21.465220 26401 net.cpp:159] Memory required for data: 3883920
I0504 11:51:21.465227 26401 layer_factory.hpp:77] Creating layer ip3
I0504 11:51:21.465235 26401 net.cpp:94] Creating Layer ip3
I0504 11:51:21.465239 26401 net.cpp:435] ip3 <- ip2
I0504 11:51:21.465245 26401 net.cpp:409] ip3 -> ip3
I0504 11:51:21.466017 26401 net.cpp:144] Setting up ip3
I0504 11:51:21.466027 26401 net.cpp:151] Top shape: 20 50 (1000)
I0504 11:51:21.466035 26401 net.cpp:159] Memory required for data: 3887920
I0504 11:51:21.466040 26401 layer_factory.hpp:77] Creating layer loss
I0504 11:51:21.466050 26401 net.cpp:94] Creating Layer loss
I0504 11:51:21.466053 26401 net.cpp:435] loss <- ip3
I0504 11:51:21.466058 26401 net.cpp:435] loss <- label
I0504 11:51:21.466063 26401 net.cpp:409] loss -> loss
I0504 11:51:21.466069 26401 layer_factory.hpp:77] Creating layer loss
…
I0504 11:51:21.466606 26401 solver.cpp:181] Creating test net (#0) specified by net file: ./protocol/dis_5_100_dimension.protocol_distribution
I0504 11:51:21.466634 26401 net.cpp:323] The NetState phase (1) differed from the phase (0) specified by a rule in layer parameters
I0504 11:51:21.466733 26401 net.cpp:52] Initializing net from parameters: 
state {
  phase: TEST
}
layer {
  name: "intercept"
  type: "HDF5Data"
  top: "data"
  top: "label"
  include {
    phase: TEST
  }
  hdf5_data_param {
    source: "/home/purduethu/scratch/radon/d/deng106/CNNStatisticalModel/distributions/input/5_distributions_100_sample_size_test-distributions-path.txt"
    batch_size: 20
  }
}
layer {
  name: "conv1"
  type: "Convolution"
  bottom: "data"
  top: "conv1"
  param {
    lr_mult: 1
  }
  param {
    lr_mult: 2
  }
  convolution_param {
    num_output: 64
    pad: 2
    kernel_size: 5
    stride: 1
    weight_filler {
      type: "gaussian"
      std: 0.0001
    }
    bias_filler {
      type: "constant"
    }
  }
}
layer {
  name: "relu1"
  type: "ReLU"
  bottom: "conv1"
  top: "conv1"
}
layer {
  name: "conv2"
  type: "Convolution"
  bottom: "conv1"
  top: "conv2"
  param {
    lr_mult: 1
  }
  param {
    lr_mult: 2
  }
  convolution_param {
    num_output: 64
    pad: 2
    kernel_size: 5
    stride: 1
    weight_filler {
      type: "gaussian"
      std: 0.01
    }
    bias_filler {
      type: "constant"
    }
  }
}
layer {
  name: "relu2"
  type: "ReLU"
  bottom: "conv2"
  top: "conv2"
}
layer {
  name: "pool2"
  type: "Pooling"
  bottom: "conv2"
  top: "pool2"
  pooling_param {
    pool: MAX
    kernel_size: 3
    stride: 2
  }
}
layer {
  name: "conv3"
  type: "Convolution"
  bottom: "pool2"
  top: "conv3"
  param {
    lr_mult: 1
  }
  param {
    lr_mult: 2
  }
  convolution_param {
    num_output: 128
    pad: 2
    kernel_size: 5
    stride: 1
    weight_filler {
      type: "gaussian"
      std: 0.01
    }
    bias_filler {
      type: "constant"
    }
  }
}
layer {
  name: "relu3"
  type: "ReLU"
  bottom: "conv3"
  top: "conv3"
}
layer {
  name: "conv4"
  type: "Convolution"
  bottom: "conv3"
  top: "conv4"
  param {
    lr_mult: 1
  }
  param {
    lr_mult: 2
  }
  convolution_param {
    num_output: 128
    pad: 2
    kernel_size: 5
    stride: 1
    weight_filler {
      type: "gaussian"
      std: 0.01
    }
    bias_filler {
      type: "constant"
    }
  }
}
layer {
  name: "relu4"
  type: "ReLU"
  bottom: "conv4"
  top: "conv4"
}
layer {
  name: "conv5"
  type: "Convolution"
  bottom: "conv4"
  top: "conv5"
  param {
    lr_mult: 1
  }
  param {
    lr_mult: 2
  }
  convolution_param {
    num_output: 128
    pad: 2
    kernel_size: 5
    stride: 1
    weight_filler {
      type: "gaussian"
      std: 0.01
    }
    bias_filler {
      type: "constant"
    }
  }
}
layer {
  name: "relu5"
  type: "ReLU"
  bottom: "conv5"
  top: "conv5"
}
layer {
  name: "pool5"
  type: "Pooling"
  bottom: "conv5"
  top: "pool5"
  pooling_param {
    pool: AVE
    kernel_size: 3
    stride: 2
  }
}
layer {
  name: "ip1"
  type: "InnerProduct"
  bottom: "pool5"
  top: "ip1"
  param {
    lr_mult: 1
  }
  param {
    lr_mult: 2
  }
  inner_product_param {
    num_output: 1024
    weight_filler {
      type: "gaussian"
      std: 0.1
    }
    bias_filler {
      type: "constant"
    }
  }
}
layer {
  name: "ip2"
  type: "InnerProduct"
  bottom: "ip1"
  top: "ip2"
  param {
    lr_mult: 1
  }
  param {
    lr_mult: 2
  }
  inner_product_param {
    num_output: 512
    weight_filler {
      type: "gaussian"
      std: 0.1
    }
    bias_filler {
      type: "constant"
    }
  }
}
layer {
  name: "ip3"
  type: "InnerProduct"
  bottom: "ip2"
  top: "ip3"
  param {
    lr_mult: 1
  }
  param {
    lr_mult: 2
  }
  inner_product_param {
    num_output: 50
    weight_filler {
      type: "gaussian"
      std: 0.1
    }
    bias_filler {
      type: "constant"
    }
  }
}
layer {
  name: "accuracy"
  type: "Accuracy"
  bottom: "ip3"
  bottom: "label"
  top: "accuracy"
  include {
    phase: TEST
  }
}
layer {
  name: "loss"
  type: "SoftmaxWithLoss"
  bottom: "ip3"
  bottom: "label"
  top: "loss"
}
I0504 11:51:21.466807 26401 layer_factory.hpp:77] Creating layer intercept
I0504 11:51:21.466816 26401 net.cpp:94] Creating Layer intercept
I0504 11:51:21.466820 26401 net.cpp:409] intercept -> data
I0504 11:51:21.466826 26401 net.cpp:409] intercept -> label
I0504 11:51:21.466832 26401 hdf5_data_layer.cpp:79] Loading list of HDF5 filenames from: /home/purduethu/scratch/radon/d/deng106/CNNStatisticalModel/distributions/input/5_distributions_100_sample_size_test-distributions-path.txt
I0504 11:51:21.466852 26401 hdf5_data_layer.cpp:93] Number of HDF5 files: 1
I0504 11:51:21.471524 26401 net.cpp:144] Setting up intercept
I0504 11:51:21.471555 26401 net.cpp:151] Top shape: 20 1 10 10 (2000)
I0504 11:51:21.471560 26401 net.cpp:151] Top shape: 20 (20)
I0504 11:51:21.471563 26401 net.cpp:159] Memory required for data: 8080
I0504 11:51:21.471570 26401 layer_factory.hpp:77] Creating layer label_intercept_1_split
I0504 11:51:21.471587 26401 net.cpp:94] Creating Layer label_intercept_1_split
I0504 11:51:21.471591 26401 net.cpp:435] label_intercept_1_split <- label
I0504 11:51:21.471597 26401 net.cpp:409] label_intercept_1_split -> label_intercept_1_split_0
I0504 11:51:21.471606 26401 net.cpp:409] label_intercept_1_split -> label_intercept_1_split_1
I0504 11:51:21.471647 26401 net.cpp:144] Setting up label_intercept_1_split
I0504 11:51:21.471653 26401 net.cpp:151] Top shape: 20 (20)
I0504 11:51:21.471657 26401 net.cpp:151] Top shape: 20 (20)
I0504 11:51:21.471660 26401 net.cpp:159] Memory required for data: 8240
I0504 11:51:21.471663 26401 layer_factory.hpp:77] Creating layer conv1
I0504 11:51:21.471673 26401 net.cpp:94] Creating Layer conv1
I0504 11:51:21.471676 26401 net.cpp:435] conv1 <- data
I0504 11:51:21.471681 26401 net.cpp:409] conv1 -> conv1
I0504 11:51:21.472496 26401 net.cpp:144] Setting up conv1
I0504 11:51:21.472509 26401 net.cpp:151] Top shape: 20 64 10 10 (128000)
I0504 11:51:21.472519 26401 net.cpp:159] Memory required for data: 520240
I0504 11:51:21.472532 26401 layer_factory.hpp:77] Creating layer relu1
I0504 11:51:21.472537 26401 net.cpp:94] Creating Layer relu1
I0504 11:51:21.472542 26401 net.cpp:435] relu1 <- conv1
I0504 11:51:21.472545 26401 net.cpp:396] relu1 -> conv1 (in-place)
I0504 11:51:21.472570 26401 net.cpp:144] Setting up relu1
I0504 11:51:21.472576 26401 net.cpp:151] Top shape: 20 64 10 10 (128000)
I0504 11:51:21.472579 26401 net.cpp:159] Memory required for data: 1032240
I0504 11:51:21.472584 26401 layer_factory.hpp:77] Creating layer conv2
I0504 11:51:21.472591 26401 net.cpp:94] Creating Layer conv2
I0504 11:51:21.472594 26401 net.cpp:435] conv2 <- conv1
I0504 11:51:21.472599 26401 net.cpp:409] conv2 -> conv2
I0504 11:51:21.476811 26401 net.cpp:144] Setting up conv2
I0504 11:51:21.476826 26401 net.cpp:151] Top shape: 20 64 10 10 (128000)
I0504 11:51:21.476830 26401 net.cpp:159] Memory required for data: 1544240
I0504 11:51:21.476838 26401 layer_factory.hpp:77] Creating layer relu2
I0504 11:51:21.476845 26401 net.cpp:94] Creating Layer relu2
I0504 11:51:21.476848 26401 net.cpp:435] relu2 <- conv2
I0504 11:51:21.476852 26401 net.cpp:396] relu2 -> conv2 (in-place)
I0504 11:51:21.476860 26401 net.cpp:144] Setting up relu2
I0504 11:51:21.476863 26401 net.cpp:151] Top shape: 20 64 10 10 (128000)
I0504 11:51:21.476866 26401 net.cpp:159] Memory required for data: 2056240
I0504 11:51:21.476869 26401 layer_factory.hpp:77] Creating layer pool2
I0504 11:51:21.476874 26401 net.cpp:94] Creating Layer pool2
I0504 11:51:21.476877 26401 net.cpp:435] pool2 <- conv2
I0504 11:51:21.476882 26401 net.cpp:409] pool2 -> pool2
I0504 11:51:21.476935 26401 net.cpp:144] Setting up pool2
I0504 11:51:21.476943 26401 net.cpp:151] Top shape: 20 64 5 5 (32000)
I0504 11:51:21.476945 26401 net.cpp:159] Memory required for data: 2184240
I0504 11:51:21.476948 26401 layer_factory.hpp:77] Creating layer conv3
I0504 11:51:21.476955 26401 net.cpp:94] Creating Layer conv3
I0504 11:51:21.476959 26401 net.cpp:435] conv3 <- pool2
I0504 11:51:21.476964 26401 net.cpp:409] conv3 -> conv3
I0504 11:51:21.483240 26401 net.cpp:144] Setting up conv3
I0504 11:51:21.483253 26401 net.cpp:151] Top shape: 20 128 5 5 (64000)
I0504 11:51:21.483256 26401 net.cpp:159] Memory required for data: 2440240
I0504 11:51:21.483265 26401 layer_factory.hpp:77] Creating layer relu3
I0504 11:51:21.483271 26401 net.cpp:94] Creating Layer relu3
I0504 11:51:21.483275 26401 net.cpp:435] relu3 <- conv3
I0504 11:51:21.483279 26401 net.cpp:396] relu3 -> conv3 (in-place)
I0504 11:51:21.483286 26401 net.cpp:144] Setting up relu3
I0504 11:51:21.483290 26401 net.cpp:151] Top shape: 20 128 5 5 (64000)
I0504 11:51:21.483294 26401 net.cpp:159] Memory required for data: 2696240
I0504 11:51:21.483296 26401 layer_factory.hpp:77] Creating layer conv4
I0504 11:51:21.483304 26401 net.cpp:94] Creating Layer conv4
I0504 11:51:21.483307 26401 net.cpp:435] conv4 <- conv3
I0504 11:51:21.483311 26401 net.cpp:409] conv4 -> conv4
I0504 11:51:21.496459 26401 net.cpp:144] Setting up conv4
I0504 11:51:21.496476 26401 net.cpp:151] Top shape: 20 128 5 5 (64000)
I0504 11:51:21.496479 26401 net.cpp:159] Memory required for data: 2952240
I0504 11:51:21.496486 26401 layer_factory.hpp:77] Creating layer relu4
I0504 11:51:21.496492 26401 net.cpp:94] Creating Layer relu4
I0504 11:51:21.496496 26401 net.cpp:435] relu4 <- conv4
I0504 11:51:21.496501 26401 net.cpp:396] relu4 -> conv4 (in-place)
I0504 11:51:21.496508 26401 net.cpp:144] Setting up relu4
I0504 11:51:21.496513 26401 net.cpp:151] Top shape: 20 128 5 5 (64000)
I0504 11:51:21.496515 26401 net.cpp:159] Memory required for data: 3208240
I0504 11:51:21.496518 26401 layer_factory.hpp:77] Creating layer conv5
I0504 11:51:21.496527 26401 net.cpp:94] Creating Layer conv5
I0504 11:51:21.496531 26401 net.cpp:435] conv5 <- conv4
I0504 11:51:21.496534 26401 net.cpp:409] conv5 -> conv5
I0504 11:51:21.509567 26401 net.cpp:144] Setting up conv5
I0504 11:51:21.509587 26401 net.cpp:151] Top shape: 20 128 5 5 (64000)
I0504 11:51:21.509596 26401 net.cpp:159] Memory required for data: 3464240
I0504 11:51:21.509606 26401 layer_factory.hpp:77] Creating layer relu5
I0504 11:51:21.509613 26401 net.cpp:94] Creating Layer relu5
I0504 11:51:21.509618 26401 net.cpp:435] relu5 <- conv5
I0504 11:51:21.509621 26401 net.cpp:396] relu5 -> conv5 (in-place)
I0504 11:51:21.509629 26401 net.cpp:144] Setting up relu5
I0504 11:51:21.509634 26401 net.cpp:151] Top shape: 20 128 5 5 (64000)
I0504 11:51:21.509636 26401 net.cpp:159] Memory required for data: 3720240
I0504 11:51:21.509639 26401 layer_factory.hpp:77] Creating layer pool5
I0504 11:51:21.509644 26401 net.cpp:94] Creating Layer pool5
I0504 11:51:21.509647 26401 net.cpp:435] pool5 <- conv5
I0504 11:51:21.509651 26401 net.cpp:409] pool5 -> pool5
I0504 11:51:21.509690 26401 net.cpp:144] Setting up pool5
I0504 11:51:21.509697 26401 net.cpp:151] Top shape: 20 128 2 2 (10240)
I0504 11:51:21.509699 26401 net.cpp:159] Memory required for data: 3761200
I0504 11:51:21.509703 26401 layer_factory.hpp:77] Creating layer ip1
I0504 11:51:21.509711 26401 net.cpp:94] Creating Layer ip1
I0504 11:51:21.509713 26401 net.cpp:435] ip1 <- pool5
I0504 11:51:21.509718 26401 net.cpp:409] ip1 -> ip1
I0504 11:51:21.523484 26401 net.cpp:144] Setting up ip1
I0504 11:51:21.523504 26401 net.cpp:151] Top shape: 20 1024 (20480)
I0504 11:51:21.523509 26401 net.cpp:159] Memory required for data: 3843120
I0504 11:51:21.523515 26401 layer_factory.hpp:77] Creating layer ip2
I0504 11:51:21.523522 26401 net.cpp:94] Creating Layer ip2
I0504 11:51:21.523526 26401 net.cpp:435] ip2 <- ip1
I0504 11:51:21.523531 26401 net.cpp:409] ip2 -> ip2
I0504 11:51:21.537269 26401 net.cpp:144] Setting up ip2
I0504 11:51:21.537287 26401 net.cpp:151] Top shape: 20 512 (10240)
I0504 11:51:21.537292 26401 net.cpp:159] Memory required for data: 3884080
I0504 11:51:21.537297 26401 layer_factory.hpp:77] Creating layer ip3
I0504 11:51:21.537307 26401 net.cpp:94] Creating Layer ip3
I0504 11:51:21.537310 26401 net.cpp:435] ip3 <- ip2
I0504 11:51:21.537315 26401 net.cpp:409] ip3 -> ip3
I0504 11:51:21.538080 26401 net.cpp:144] Setting up ip3
I0504 11:51:21.538089 26401 net.cpp:151] Top shape: 20 50 (1000)
I0504 11:51:21.538091 26401 net.cpp:159] Memory required for data: 3888080
I0504 11:51:21.538096 26401 layer_factory.hpp:77] Creating layer ip3_ip3_0_split
I0504 11:51:21.538102 26401 net.cpp:94] Creating Layer ip3_ip3_0_split
I0504 11:51:21.538105 26401 net.cpp:435] ip3_ip3_0_split <- ip3
I0504 11:51:21.538110 26401 net.cpp:409] ip3_ip3_0_split -> ip3_ip3_0_split_0
I0504 11:51:21.538115 26401 net.cpp:409] ip3_ip3_0_split -> ip3_ip3_0_split_1
I0504 11:51:21.538156 26401 net.cpp:144] Setting up ip3_ip3_0_split
I0504 11:51:21.538162 26401 net.cpp:151] Top shape: 20 50 (1000)
I0504 11:51:21.538166 26401 net.cpp:151] Top shape: 20 50 (1000)
I0504 11:51:21.538169 26401 net.cpp:159] Memory required for data: 3896080
I0504 11:51:21.538172 26401 layer_factory.hpp:77] Creating layer accuracy
I0504 11:51:21.538177 26401 net.cpp:94] Creating Layer accuracy
I0504 11:51:21.538180 26401 net.cpp:435] accuracy <- ip3_ip3_0_split_0
I0504 11:51:21.538184 26401 net.cpp:435] accuracy <- label_intercept_1_split_0
I0504 11:51:21.538189 26401 net.cpp:409] accuracy -> accuracy
…
