…
I0502 21:38:31.450798 14000 net.cpp:323] The NetState phase (0) differed from the phase (1) specified by a rule in layer intercept
I0502 21:38:31.450814 14000 net.cpp:323] The NetState phase (0) differed from the phase (1) specified by a rule in layer loss
I0502 21:38:31.450902 14000 net.cpp:52] Initializing net from parameters: 
state {
  phase: TRAIN
}
layer {
  name: "parameters"
  type: "HDF5Data"
  top: "data"
  top: "label"
  include {
    phase: TRAIN
  }
  hdf5_data_param {
    source: "/home/purduethu/scratch/radon/d/deng106/CNNStatisticalModel/distributions/input/50_distributions_900_sample_size_train-parameters-path.txt"
    batch_size: 20
  }
}
layer {
  name: "conv1"
  type: "Convolution"
  bottom: "data"
  top: "conv1"
  param {
    lr_mult: 1
  }
  param {
    lr_mult: 2
  }
  convolution_param {
    num_output: 64
    pad: 2
    kernel_size: 5
    stride: 1
    weight_filler {
      type: "gaussian"
      std: 0.0001
    }
    bias_filler {
      type: "constant"
    }
  }
}
layer {
  name: "relu1"
  type: "ReLU"
  bottom: "conv1"
  top: "conv1"
}
layer {
  name: "conv2"
  type: "Convolution"
  bottom: "conv1"
  top: "conv2"
  param {
    lr_mult: 1
  }
  param {
    lr_mult: 2
  }
  convolution_param {
    num_output: 64
    pad: 2
    kernel_size: 5
    stride: 1
    weight_filler {
      type: "gaussian"
      std: 0.01
    }
    bias_filler {
      type: "constant"
    }
  }
}
layer {
  name: "relu2"
  type: "ReLU"
  bottom: "conv2"
  top: "conv2"
}
layer {
  name: "pool2"
  type: "Pooling"
  bottom: "conv2"
  top: "pool2"
  pooling_param {
    pool: MAX
    kernel_size: 3
    stride: 2
  }
}
layer {
  name: "conv3"
  type: "Convolution"
  bottom: "pool2"
  top: "conv3"
  param {
    lr_mult: 1
  }
  param {
    lr_mult: 2
  }
  convolution_param {
    num_output: 128
    pad: 2
    kernel_size: 5
    stride: 1
    weight_filler {
      type: "gaussian"
      std: 0.01
    }
    bias_filler {
      type: "constant"
    }
  }
}
layer {
  name: "relu3"
  type: "ReLU"
  bottom: "conv3"
  top: "conv3"
}
layer {
  name: "conv4"
  type: "Convolution"
  bottom: "conv3"
  top: "conv4"
  param {
    lr_mult: 1
  }
  param {
    lr_mult: 2
  }
  convolution_param {
    num_output: 128
    pad: 2
    kernel_size: 5
    stride: 1
    weight_filler {
      type: "gaussian"
      std: 0.01
    }
    bias_filler {
      type: "constant"
    }
  }
}
layer {
  name: "relu4"
  type: "ReLU"
  bottom: "conv4"
  top: "conv4"
}
layer {
  name: "conv5"
  type: "Convolution"
  bottom: "conv4"
  top: "conv5"
  param {
    lr_mult: 1
  }
  param {
    lr_mult: 2
  }
  convolution_param {
    num_output: 128
    pad: 2
    kernel_size: 5
    stride: 1
    weight_filler {
      type: "gaussian"
      std: 0.01
    }
    bias_filler {
      type: "constant"
    }
  }
}
layer {
  name: "relu5"
  type: "ReLU"
  bottom: "conv5"
  top: "conv5"
}
layer {
  name: "pool5"
  type: "Pooling"
  bottom: "conv5"
  top: "pool5"
  pooling_param {
    pool: AVE
    kernel_size: 3
    stride: 2
  }
}
layer {
  name: "ip1"
  type: "InnerProduct"
  bottom: "pool5"
  top: "ip1"
  param {
    lr_mult: 1
  }
  param {
    lr_mult: 2
  }
  inner_product_param {
    num_output: 1024
    weight_filler {
      type: "gaussian"
      std: 0.1
    }
    bias_filler {
      type: "constant"
    }
  }
}
layer {
  name: "ip2"
  type: "InnerProduct"
  bottom: "ip1"
  top: "ip2"
  param {
    lr_mult: 1
  }
  param {
    lr_mult: 2
  }
  inner_product_param {
    num_output: 512
    weight_filler {
      type: "gaussian"
      std: 0.1
    }
    bias_filler {
      type: "constant"
    }
  }
}
layer {
  name: "ip3"
  type: "InnerProduct"
  bottom: "ip2"
  top: "ip3"
  param {
    lr_mult: 1
  }
  param {
    lr_mult: 2
  }
  inner_product_param {
    num_output: 1
    weight_filler {
      type: "gaussian"
      std: 0.1
    }
    bias_filler {
      type: "constant"
    }
  }
}
layer {
  name: "loss"
  type: "HuberLoss"
  bottom: "ip3"
  bottom: "label"
  top: "loss"
  include {
    phase: TRAIN
  }
}
I0502 21:38:31.450958 14000 layer_factory.hpp:77] Creating layer parameters
I0502 21:38:31.450973 14000 net.cpp:94] Creating Layer parameters
I0502 21:38:31.450976 14000 net.cpp:409] parameters -> data
I0502 21:38:31.450986 14000 net.cpp:409] parameters -> label
I0502 21:38:31.450997 14000 hdf5_data_layer.cpp:79] Loading list of HDF5 filenames from: /home/purduethu/scratch/radon/d/deng106/CNNStatisticalModel/distributions/input/50_distributions_900_sample_size_train-parameters-path.txt
I0502 21:38:31.451014 14000 hdf5_data_layer.cpp:93] Number of HDF5 files: 1
I0502 21:38:31.451578 14000 hdf5.cpp:32] Datatype class: H5T_FLOAT
I0502 21:38:32.943950 14000 net.cpp:144] Setting up parameters
I0502 21:38:32.943984 14000 net.cpp:151] Top shape: 20 1 30 30 (18000)
I0502 21:38:32.943989 14000 net.cpp:151] Top shape: 20 (20)
I0502 21:38:32.943992 14000 net.cpp:159] Memory required for data: 72080
I0502 21:38:32.944000 14000 layer_factory.hpp:77] Creating layer conv1
I0502 21:38:32.944021 14000 net.cpp:94] Creating Layer conv1
I0502 21:38:32.944026 14000 net.cpp:435] conv1 <- data
I0502 21:38:32.944032 14000 net.cpp:409] conv1 -> conv1
I0502 21:38:32.950759 14000 net.cpp:144] Setting up conv1
I0502 21:38:32.950778 14000 net.cpp:151] Top shape: 20 64 30 30 (1152000)
I0502 21:38:32.950783 14000 net.cpp:159] Memory required for data: 4680080
I0502 21:38:32.950793 14000 layer_factory.hpp:77] Creating layer relu1
I0502 21:38:32.950801 14000 net.cpp:94] Creating Layer relu1
I0502 21:38:32.950805 14000 net.cpp:435] relu1 <- conv1
I0502 21:38:32.950809 14000 net.cpp:396] relu1 -> conv1 (in-place)
I0502 21:38:32.950821 14000 net.cpp:144] Setting up relu1
I0502 21:38:32.950826 14000 net.cpp:151] Top shape: 20 64 30 30 (1152000)
I0502 21:38:32.950829 14000 net.cpp:159] Memory required for data: 9288080
I0502 21:38:32.950832 14000 layer_factory.hpp:77] Creating layer conv2
I0502 21:38:32.950841 14000 net.cpp:94] Creating Layer conv2
I0502 21:38:32.950845 14000 net.cpp:435] conv2 <- conv1
I0502 21:38:32.950850 14000 net.cpp:409] conv2 -> conv2
I0502 21:38:32.967999 14000 net.cpp:144] Setting up conv2
I0502 21:38:32.968016 14000 net.cpp:151] Top shape: 20 64 30 30 (1152000)
I0502 21:38:32.968020 14000 net.cpp:159] Memory required for data: 13896080
I0502 21:38:32.968029 14000 layer_factory.hpp:77] Creating layer relu2
I0502 21:38:32.968035 14000 net.cpp:94] Creating Layer relu2
I0502 21:38:32.968039 14000 net.cpp:435] relu2 <- conv2
I0502 21:38:32.968044 14000 net.cpp:396] relu2 -> conv2 (in-place)
I0502 21:38:32.968050 14000 net.cpp:144] Setting up relu2
I0502 21:38:32.968055 14000 net.cpp:151] Top shape: 20 64 30 30 (1152000)
I0502 21:38:32.968058 14000 net.cpp:159] Memory required for data: 18504080
I0502 21:38:32.968061 14000 layer_factory.hpp:77] Creating layer pool2
I0502 21:38:32.968073 14000 net.cpp:94] Creating Layer pool2
I0502 21:38:32.968077 14000 net.cpp:435] pool2 <- conv2
I0502 21:38:32.968081 14000 net.cpp:409] pool2 -> pool2
I0502 21:38:32.968133 14000 net.cpp:144] Setting up pool2
I0502 21:38:32.968140 14000 net.cpp:151] Top shape: 20 64 15 15 (288000)
I0502 21:38:32.968143 14000 net.cpp:159] Memory required for data: 19656080
I0502 21:38:32.968147 14000 layer_factory.hpp:77] Creating layer conv3
I0502 21:38:32.968154 14000 net.cpp:94] Creating Layer conv3
I0502 21:38:32.968158 14000 net.cpp:435] conv3 <- pool2
I0502 21:38:32.968163 14000 net.cpp:409] conv3 -> conv3
I0502 21:38:32.981513 14000 net.cpp:144] Setting up conv3
I0502 21:38:32.981528 14000 net.cpp:151] Top shape: 20 128 15 15 (576000)
I0502 21:38:32.981533 14000 net.cpp:159] Memory required for data: 21960080
I0502 21:38:32.981540 14000 layer_factory.hpp:77] Creating layer relu3
I0502 21:38:32.981546 14000 net.cpp:94] Creating Layer relu3
I0502 21:38:32.981550 14000 net.cpp:435] relu3 <- conv3
I0502 21:38:32.981554 14000 net.cpp:396] relu3 -> conv3 (in-place)
I0502 21:38:32.981561 14000 net.cpp:144] Setting up relu3
I0502 21:38:32.981566 14000 net.cpp:151] Top shape: 20 128 15 15 (576000)
I0502 21:38:32.981570 14000 net.cpp:159] Memory required for data: 24264080
I0502 21:38:32.981571 14000 layer_factory.hpp:77] Creating layer conv4
I0502 21:38:32.981580 14000 net.cpp:94] Creating Layer conv4
I0502 21:38:32.981583 14000 net.cpp:435] conv4 <- conv3
I0502 21:38:32.981588 14000 net.cpp:409] conv4 -> conv4
I0502 21:38:33.004709 14000 net.cpp:144] Setting up conv4
I0502 21:38:33.004726 14000 net.cpp:151] Top shape: 20 128 15 15 (576000)
I0502 21:38:33.004730 14000 net.cpp:159] Memory required for data: 26568080
I0502 21:38:33.004737 14000 layer_factory.hpp:77] Creating layer relu4
I0502 21:38:33.004743 14000 net.cpp:94] Creating Layer relu4
I0502 21:38:33.004747 14000 net.cpp:435] relu4 <- conv4
I0502 21:38:33.004752 14000 net.cpp:396] relu4 -> conv4 (in-place)
I0502 21:38:33.004760 14000 net.cpp:144] Setting up relu4
I0502 21:38:33.004765 14000 net.cpp:151] Top shape: 20 128 15 15 (576000)
I0502 21:38:33.004768 14000 net.cpp:159] Memory required for data: 28872080
I0502 21:38:33.004771 14000 layer_factory.hpp:77] Creating layer conv5
I0502 21:38:33.004779 14000 net.cpp:94] Creating Layer conv5
I0502 21:38:33.004783 14000 net.cpp:435] conv5 <- conv4
I0502 21:38:33.004788 14000 net.cpp:409] conv5 -> conv5
I0502 21:38:33.027617 14000 net.cpp:144] Setting up conv5
I0502 21:38:33.027633 14000 net.cpp:151] Top shape: 20 128 15 15 (576000)
I0502 21:38:33.027637 14000 net.cpp:159] Memory required for data: 31176080
I0502 21:38:33.027647 14000 layer_factory.hpp:77] Creating layer relu5
I0502 21:38:33.027652 14000 net.cpp:94] Creating Layer relu5
I0502 21:38:33.027657 14000 net.cpp:435] relu5 <- conv5
I0502 21:38:33.027662 14000 net.cpp:396] relu5 -> conv5 (in-place)
I0502 21:38:33.027668 14000 net.cpp:144] Setting up relu5
I0502 21:38:33.027673 14000 net.cpp:151] Top shape: 20 128 15 15 (576000)
I0502 21:38:33.027675 14000 net.cpp:159] Memory required for data: 33480080
I0502 21:38:33.027678 14000 layer_factory.hpp:77] Creating layer pool5
I0502 21:38:33.027683 14000 net.cpp:94] Creating Layer pool5
I0502 21:38:33.027688 14000 net.cpp:435] pool5 <- conv5
I0502 21:38:33.027691 14000 net.cpp:409] pool5 -> pool5
I0502 21:38:33.027732 14000 net.cpp:144] Setting up pool5
I0502 21:38:33.027740 14000 net.cpp:151] Top shape: 20 128 7 7 (125440)
I0502 21:38:33.027742 14000 net.cpp:159] Memory required for data: 33981840
I0502 21:38:33.027745 14000 layer_factory.hpp:77] Creating layer ip1
I0502 21:38:33.027755 14000 net.cpp:94] Creating Layer ip1
I0502 21:38:33.027760 14000 net.cpp:435] ip1 <- pool5
I0502 21:38:33.027765 14000 net.cpp:409] ip1 -> ip1
I0502 21:38:33.190994 14000 net.cpp:144] Setting up ip1
I0502 21:38:33.191026 14000 net.cpp:151] Top shape: 20 1024 (20480)
I0502 21:38:33.191030 14000 net.cpp:159] Memory required for data: 34063760
I0502 21:38:33.191040 14000 layer_factory.hpp:77] Creating layer ip2
I0502 21:38:33.191051 14000 net.cpp:94] Creating Layer ip2
I0502 21:38:33.191063 14000 net.cpp:435] ip2 <- ip1
I0502 21:38:33.191071 14000 net.cpp:409] ip2 -> ip2
I0502 21:38:33.204272 14000 net.cpp:144] Setting up ip2
I0502 21:38:33.204286 14000 net.cpp:151] Top shape: 20 512 (10240)
I0502 21:38:33.204289 14000 net.cpp:159] Memory required for data: 34104720
I0502 21:38:33.204295 14000 layer_factory.hpp:77] Creating layer ip3
I0502 21:38:33.204303 14000 net.cpp:94] Creating Layer ip3
I0502 21:38:33.204306 14000 net.cpp:435] ip3 <- ip2
I0502 21:38:33.204311 14000 net.cpp:409] ip3 -> ip3
I0502 21:38:33.204423 14000 net.cpp:144] Setting up ip3
I0502 21:38:33.204430 14000 net.cpp:151] Top shape: 20 1 (20)
I0502 21:38:33.204433 14000 net.cpp:159] Memory required for data: 34104800
I0502 21:38:33.204438 14000 layer_factory.hpp:77] Creating layer loss
I0502 21:38:33.204452 14000 net.cpp:94] Creating Layer loss
I0502 21:38:33.204455 14000 net.cpp:435] loss <- ip3
I0502 21:38:33.204459 14000 net.cpp:435] loss <- label
I0502 21:38:33.204463 14000 net.cpp:409] loss -> loss
I0502 21:38:33.204514 14000 net.cpp:144] Setting up loss
…
I0502 21:38:33.877378 14000 net.cpp:323] The NetState phase (0) differed from the phase (1) specified by a rule in layer intercept
I0502 21:38:33.877394 14000 net.cpp:323] The NetState phase (0) differed from the phase (1) specified by a rule in layer accuracy
I0502 21:38:33.877490 14000 net.cpp:52] Initializing net from parameters: 
state {
  phase: TRAIN
}
layer {
  name: "parameters"
  type: "HDF5Data"
  top: "data"
  top: "label"
  include {
    phase: TRAIN
  }
  hdf5_data_param {
    source: "/home/purduethu/scratch/radon/d/deng106/CNNStatisticalModel/distributions/input/50_distributions_900_sample_size_train-distributions-path.txt"
    batch_size: 20
  }
}
layer {
  name: "conv1"
  type: "Convolution"
  bottom: "data"
  top: "conv1"
  param {
    lr_mult: 1
  }
  param {
    lr_mult: 2
  }
  convolution_param {
    num_output: 64
    pad: 2
    kernel_size: 5
    stride: 1
    weight_filler {
      type: "gaussian"
      std: 0.0001
    }
    bias_filler {
      type: "constant"
    }
  }
}
layer {
  name: "relu1"
  type: "ReLU"
  bottom: "conv1"
  top: "conv1"
}
layer {
  name: "conv2"
  type: "Convolution"
  bottom: "conv1"
  top: "conv2"
  param {
    lr_mult: 1
  }
  param {
    lr_mult: 2
  }
  convolution_param {
    num_output: 64
    pad: 2
    kernel_size: 5
    stride: 1
    weight_filler {
      type: "gaussian"
      std: 0.01
    }
    bias_filler {
      type: "constant"
    }
  }
}
layer {
  name: "relu2"
  type: "ReLU"
  bottom: "conv2"
  top: "conv2"
}
layer {
  name: "pool2"
  type: "Pooling"
  bottom: "conv2"
  top: "pool2"
  pooling_param {
    pool: MAX
    kernel_size: 3
    stride: 2
  }
}
layer {
  name: "conv3"
  type: "Convolution"
  bottom: "pool2"
  top: "conv3"
  param {
    lr_mult: 1
  }
  param {
    lr_mult: 2
  }
  convolution_param {
    num_output: 128
    pad: 2
    kernel_size: 5
    stride: 1
    weight_filler {
      type: "gaussian"
      std: 0.01
    }
    bias_filler {
      type: "constant"
    }
  }
}
layer {
  name: "relu3"
  type: "ReLU"
  bottom: "conv3"
  top: "conv3"
}
layer {
  name: "conv4"
  type: "Convolution"
  bottom: "conv3"
  top: "conv4"
  param {
    lr_mult: 1
  }
  param {
    lr_mult: 2
  }
  convolution_param {
    num_output: 128
    pad: 2
    kernel_size: 5
    stride: 1
    weight_filler {
      type: "gaussian"
      std: 0.01
    }
    bias_filler {
      type: "constant"
    }
  }
}
layer {
  name: "relu4"
  type: "ReLU"
  bottom: "conv4"
  top: "conv4"
}
layer {
  name: "conv5"
  type: "Convolution"
  bottom: "conv4"
  top: "conv5"
  param {
    lr_mult: 1
  }
  param {
    lr_mult: 2
  }
  convolution_param {
    num_output: 128
    pad: 2
    kernel_size: 5
    stride: 1
    weight_filler {
      type: "gaussian"
      std: 0.01
    }
    bias_filler {
      type: "constant"
    }
  }
}
layer {
  name: "relu5"
  type: "ReLU"
  bottom: "conv5"
  top: "conv5"
}
layer {
  name: "pool5"
  type: "Pooling"
  bottom: "conv5"
  top: "pool5"
  pooling_param {
    pool: AVE
    kernel_size: 3
    stride: 2
  }
}
layer {
  name: "ip1"
  type: "InnerProduct"
  bottom: "pool5"
  top: "ip1"
  param {
    lr_mult: 1
  }
  param {
    lr_mult: 2
  }
  inner_product_param {
    num_output: 1024
    weight_filler {
      type: "gaussian"
      std: 0.1
    }
    bias_filler {
      type: "constant"
    }
  }
}
layer {
  name: "ip2"
  type: "InnerProduct"
  bottom: "ip1"
  top: "ip2"
  param {
    lr_mult: 1
  }
  param {
    lr_mult: 2
  }
  inner_product_param {
    num_output: 512
    weight_filler {
      type: "gaussian"
      std: 0.1
    }
    bias_filler {
      type: "constant"
    }
  }
}
layer {
  name: "ip3"
  type: "InnerProduct"
  bottom: "ip2"
  top: "ip3"
  param {
    lr_mult: 1
  }
  param {
    lr_mult: 2
  }
  inner_product_param {
    num_output: 50
    weight_filler {
      type: "gaussian"
      std: 0.1
    }
    bias_filler {
      type: "constant"
    }
  }
}
layer {
  name: "loss"
  type: "SoftmaxWithLoss"
  bottom: "ip3"
  bottom: "label"
  top: "loss"
}
I0502 21:38:33.877547 14000 layer_factory.hpp:77] Creating layer parameters
I0502 21:38:33.877555 14000 net.cpp:94] Creating Layer parameters
I0502 21:38:33.877559 14000 net.cpp:409] parameters -> data
I0502 21:38:33.877566 14000 net.cpp:409] parameters -> label
I0502 21:38:33.877573 14000 hdf5_data_layer.cpp:79] Loading list of HDF5 filenames from: /home/purduethu/scratch/radon/d/deng106/CNNStatisticalModel/distributions/input/50_distributions_900_sample_size_train-distributions-path.txt
I0502 21:38:33.877588 14000 hdf5_data_layer.cpp:93] Number of HDF5 files: 1
I0502 21:38:35.344270 14000 hdf5.cpp:35] Datatype class: H5T_INTEGER
I0502 21:38:35.347474 14000 net.cpp:144] Setting up parameters
I0502 21:38:35.347496 14000 net.cpp:151] Top shape: 20 1 30 30 (18000)
I0502 21:38:35.347501 14000 net.cpp:151] Top shape: 20 (20)
I0502 21:38:35.347503 14000 net.cpp:159] Memory required for data: 72080
I0502 21:38:35.347509 14000 layer_factory.hpp:77] Creating layer conv1
I0502 21:38:35.347525 14000 net.cpp:94] Creating Layer conv1
I0502 21:38:35.347529 14000 net.cpp:435] conv1 <- data
I0502 21:38:35.347535 14000 net.cpp:409] conv1 -> conv1
I0502 21:38:35.351080 14000 net.cpp:144] Setting up conv1
I0502 21:38:35.351094 14000 net.cpp:151] Top shape: 20 64 30 30 (1152000)
I0502 21:38:35.351099 14000 net.cpp:159] Memory required for data: 4680080
I0502 21:38:35.351107 14000 layer_factory.hpp:77] Creating layer relu1
I0502 21:38:35.351115 14000 net.cpp:94] Creating Layer relu1
I0502 21:38:35.351119 14000 net.cpp:435] relu1 <- conv1
I0502 21:38:35.351124 14000 net.cpp:396] relu1 -> conv1 (in-place)
I0502 21:38:35.351130 14000 net.cpp:144] Setting up relu1
I0502 21:38:35.351135 14000 net.cpp:151] Top shape: 20 64 30 30 (1152000)
I0502 21:38:35.351137 14000 net.cpp:159] Memory required for data: 9288080
I0502 21:38:35.351140 14000 layer_factory.hpp:77] Creating layer conv2
I0502 21:38:35.351148 14000 net.cpp:94] Creating Layer conv2
I0502 21:38:35.351151 14000 net.cpp:435] conv2 <- conv1
I0502 21:38:35.351156 14000 net.cpp:409] conv2 -> conv2
I0502 21:38:35.367270 14000 net.cpp:144] Setting up conv2
I0502 21:38:35.367286 14000 net.cpp:151] Top shape: 20 64 30 30 (1152000)
I0502 21:38:35.367290 14000 net.cpp:159] Memory required for data: 13896080
I0502 21:38:35.367298 14000 layer_factory.hpp:77] Creating layer relu2
I0502 21:38:35.367305 14000 net.cpp:94] Creating Layer relu2
I0502 21:38:35.367310 14000 net.cpp:435] relu2 <- conv2
I0502 21:38:35.367313 14000 net.cpp:396] relu2 -> conv2 (in-place)
I0502 21:38:35.367321 14000 net.cpp:144] Setting up relu2
I0502 21:38:35.367326 14000 net.cpp:151] Top shape: 20 64 30 30 (1152000)
I0502 21:38:35.367328 14000 net.cpp:159] Memory required for data: 18504080
I0502 21:38:35.367331 14000 layer_factory.hpp:77] Creating layer pool2
I0502 21:38:35.367336 14000 net.cpp:94] Creating Layer pool2
I0502 21:38:35.367339 14000 net.cpp:435] pool2 <- conv2
I0502 21:38:35.367343 14000 net.cpp:409] pool2 -> pool2
I0502 21:38:35.367398 14000 net.cpp:144] Setting up pool2
I0502 21:38:35.367406 14000 net.cpp:151] Top shape: 20 64 15 15 (288000)
I0502 21:38:35.367409 14000 net.cpp:159] Memory required for data: 19656080
I0502 21:38:35.367413 14000 layer_factory.hpp:77] Creating layer conv3
I0502 21:38:35.367420 14000 net.cpp:94] Creating Layer conv3
I0502 21:38:35.367430 14000 net.cpp:435] conv3 <- pool2
I0502 21:38:35.367435 14000 net.cpp:409] conv3 -> conv3
I0502 21:38:35.381433 14000 net.cpp:144] Setting up conv3
I0502 21:38:35.381449 14000 net.cpp:151] Top shape: 20 128 15 15 (576000)
I0502 21:38:35.381453 14000 net.cpp:159] Memory required for data: 21960080
I0502 21:38:35.381463 14000 layer_factory.hpp:77] Creating layer relu3
I0502 21:38:35.381469 14000 net.cpp:94] Creating Layer relu3
I0502 21:38:35.381472 14000 net.cpp:435] relu3 <- conv3
I0502 21:38:35.381477 14000 net.cpp:396] relu3 -> conv3 (in-place)
I0502 21:38:35.381486 14000 net.cpp:144] Setting up relu3
I0502 21:38:35.381491 14000 net.cpp:151] Top shape: 20 128 15 15 (576000)
I0502 21:38:35.381494 14000 net.cpp:159] Memory required for data: 24264080
I0502 21:38:35.381497 14000 layer_factory.hpp:77] Creating layer conv4
I0502 21:38:35.381505 14000 net.cpp:94] Creating Layer conv4
I0502 21:38:35.381510 14000 net.cpp:435] conv4 <- conv3
I0502 21:38:35.381515 14000 net.cpp:409] conv4 -> conv4
I0502 21:38:35.404543 14000 net.cpp:144] Setting up conv4
I0502 21:38:35.404570 14000 net.cpp:151] Top shape: 20 128 15 15 (576000)
I0502 21:38:35.404575 14000 net.cpp:159] Memory required for data: 26568080
I0502 21:38:35.404582 14000 layer_factory.hpp:77] Creating layer relu4
I0502 21:38:35.404589 14000 net.cpp:94] Creating Layer relu4
I0502 21:38:35.404593 14000 net.cpp:435] relu4 <- conv4
I0502 21:38:35.404598 14000 net.cpp:396] relu4 -> conv4 (in-place)
I0502 21:38:35.404605 14000 net.cpp:144] Setting up relu4
I0502 21:38:35.404610 14000 net.cpp:151] Top shape: 20 128 15 15 (576000)
I0502 21:38:35.404613 14000 net.cpp:159] Memory required for data: 28872080
I0502 21:38:35.404616 14000 layer_factory.hpp:77] Creating layer conv5
I0502 21:38:35.404624 14000 net.cpp:94] Creating Layer conv5
I0502 21:38:35.404628 14000 net.cpp:435] conv5 <- conv4
I0502 21:38:35.404633 14000 net.cpp:409] conv5 -> conv5
I0502 21:38:35.427323 14000 net.cpp:144] Setting up conv5
I0502 21:38:35.427342 14000 net.cpp:151] Top shape: 20 128 15 15 (576000)
I0502 21:38:35.427346 14000 net.cpp:159] Memory required for data: 31176080
I0502 21:38:35.427356 14000 layer_factory.hpp:77] Creating layer relu5
I0502 21:38:35.427364 14000 net.cpp:94] Creating Layer relu5
I0502 21:38:35.427368 14000 net.cpp:435] relu5 <- conv5
I0502 21:38:35.427372 14000 net.cpp:396] relu5 -> conv5 (in-place)
I0502 21:38:35.427381 14000 net.cpp:144] Setting up relu5
I0502 21:38:35.427384 14000 net.cpp:151] Top shape: 20 128 15 15 (576000)
I0502 21:38:35.427387 14000 net.cpp:159] Memory required for data: 33480080
I0502 21:38:35.427390 14000 layer_factory.hpp:77] Creating layer pool5
I0502 21:38:35.427397 14000 net.cpp:94] Creating Layer pool5
I0502 21:38:35.427399 14000 net.cpp:435] pool5 <- conv5
I0502 21:38:35.427403 14000 net.cpp:409] pool5 -> pool5
I0502 21:38:35.427446 14000 net.cpp:144] Setting up pool5
I0502 21:38:35.427454 14000 net.cpp:151] Top shape: 20 128 7 7 (125440)
I0502 21:38:35.427458 14000 net.cpp:159] Memory required for data: 33981840
I0502 21:38:35.427460 14000 layer_factory.hpp:77] Creating layer ip1
I0502 21:38:35.427466 14000 net.cpp:94] Creating Layer ip1
I0502 21:38:35.427470 14000 net.cpp:435] ip1 <- pool5
I0502 21:38:35.427474 14000 net.cpp:409] ip1 -> ip1
I0502 21:38:35.583780 14000 net.cpp:144] Setting up ip1
I0502 21:38:35.583812 14000 net.cpp:151] Top shape: 20 1024 (20480)
I0502 21:38:35.583817 14000 net.cpp:159] Memory required for data: 34063760
I0502 21:38:35.583825 14000 layer_factory.hpp:77] Creating layer ip2
I0502 21:38:35.583837 14000 net.cpp:94] Creating Layer ip2
I0502 21:38:35.583840 14000 net.cpp:435] ip2 <- ip1
I0502 21:38:35.583847 14000 net.cpp:409] ip2 -> ip2
I0502 21:38:35.597103 14000 net.cpp:144] Setting up ip2
I0502 21:38:35.597133 14000 net.cpp:151] Top shape: 20 512 (10240)
I0502 21:38:35.597137 14000 net.cpp:159] Memory required for data: 34104720
I0502 21:38:35.597144 14000 layer_factory.hpp:77] Creating layer ip3
I0502 21:38:35.597152 14000 net.cpp:94] Creating Layer ip3
I0502 21:38:35.597157 14000 net.cpp:435] ip3 <- ip2
I0502 21:38:35.597168 14000 net.cpp:409] ip3 -> ip3
I0502 21:38:35.598762 14000 net.cpp:144] Setting up ip3
I0502 21:38:35.598775 14000 net.cpp:151] Top shape: 20 50 (1000)
I0502 21:38:35.598779 14000 net.cpp:159] Memory required for data: 34108720
I0502 21:38:35.598785 14000 layer_factory.hpp:77] Creating layer loss
I0502 21:38:35.598793 14000 net.cpp:94] Creating Layer loss
I0502 21:38:35.598798 14000 net.cpp:435] loss <- ip3
I0502 21:38:35.598801 14000 net.cpp:435] loss <- label
I0502 21:38:35.598806 14000 net.cpp:409] loss -> loss
I0502 21:38:35.598814 14000 layer_factory.hpp:77] Creating layer loss
…
I0502 21:38:35.599339 14000 solver.cpp:181] Creating test net (#0) specified by net file: ./protocol/dis_50_900_dimension.protocol_distribution
I0502 21:38:35.599365 14000 net.cpp:323] The NetState phase (1) differed from the phase (0) specified by a rule in layer parameters
I0502 21:38:35.599467 14000 net.cpp:52] Initializing net from parameters: 
state {
  phase: TEST
}
layer {
  name: "intercept"
  type: "HDF5Data"
  top: "data"
  top: "label"
  include {
    phase: TEST
  }
  hdf5_data_param {
    source: "/home/purduethu/scratch/radon/d/deng106/CNNStatisticalModel/distributions/input/50_distributions_900_sample_size_test-distributions-path.txt"
    batch_size: 20
  }
}
layer {
  name: "conv1"
  type: "Convolution"
  bottom: "data"
  top: "conv1"
  param {
    lr_mult: 1
  }
  param {
    lr_mult: 2
  }
  convolution_param {
    num_output: 64
    pad: 2
    kernel_size: 5
    stride: 1
    weight_filler {
      type: "gaussian"
      std: 0.0001
    }
    bias_filler {
      type: "constant"
    }
  }
}
layer {
  name: "relu1"
  type: "ReLU"
  bottom: "conv1"
  top: "conv1"
}
layer {
  name: "conv2"
  type: "Convolution"
  bottom: "conv1"
  top: "conv2"
  param {
    lr_mult: 1
  }
  param {
    lr_mult: 2
  }
  convolution_param {
    num_output: 64
    pad: 2
    kernel_size: 5
    stride: 1
    weight_filler {
      type: "gaussian"
      std: 0.01
    }
    bias_filler {
      type: "constant"
    }
  }
}
layer {
  name: "relu2"
  type: "ReLU"
  bottom: "conv2"
  top: "conv2"
}
layer {
  name: "pool2"
  type: "Pooling"
  bottom: "conv2"
  top: "pool2"
  pooling_param {
    pool: MAX
    kernel_size: 3
    stride: 2
  }
}
layer {
  name: "conv3"
  type: "Convolution"
  bottom: "pool2"
  top: "conv3"
  param {
    lr_mult: 1
  }
  param {
    lr_mult: 2
  }
  convolution_param {
    num_output: 128
    pad: 2
    kernel_size: 5
    stride: 1
    weight_filler {
      type: "gaussian"
      std: 0.01
    }
    bias_filler {
      type: "constant"
    }
  }
}
layer {
  name: "relu3"
  type: "ReLU"
  bottom: "conv3"
  top: "conv3"
}
layer {
  name: "conv4"
  type: "Convolution"
  bottom: "conv3"
  top: "conv4"
  param {
    lr_mult: 1
  }
  param {
    lr_mult: 2
  }
  convolution_param {
    num_output: 128
    pad: 2
    kernel_size: 5
    stride: 1
    weight_filler {
      type: "gaussian"
      std: 0.01
    }
    bias_filler {
      type: "constant"
    }
  }
}
layer {
  name: "relu4"
  type: "ReLU"
  bottom: "conv4"
  top: "conv4"
}
layer {
  name: "conv5"
  type: "Convolution"
  bottom: "conv4"
  top: "conv5"
  param {
    lr_mult: 1
  }
  param {
    lr_mult: 2
  }
  convolution_param {
    num_output: 128
    pad: 2
    kernel_size: 5
    stride: 1
    weight_filler {
      type: "gaussian"
      std: 0.01
    }
    bias_filler {
      type: "constant"
    }
  }
}
layer {
  name: "relu5"
  type: "ReLU"
  bottom: "conv5"
  top: "conv5"
}
layer {
  name: "pool5"
  type: "Pooling"
  bottom: "conv5"
  top: "pool5"
  pooling_param {
    pool: AVE
    kernel_size: 3
    stride: 2
  }
}
layer {
  name: "ip1"
  type: "InnerProduct"
  bottom: "pool5"
  top: "ip1"
  param {
    lr_mult: 1
  }
  param {
    lr_mult: 2
  }
  inner_product_param {
    num_output: 1024
    weight_filler {
      type: "gaussian"
      std: 0.1
    }
    bias_filler {
      type: "constant"
    }
  }
}
layer {
  name: "ip2"
  type: "InnerProduct"
  bottom: "ip1"
  top: "ip2"
  param {
    lr_mult: 1
  }
  param {
    lr_mult: 2
  }
  inner_product_param {
    num_output: 512
    weight_filler {
      type: "gaussian"
      std: 0.1
    }
    bias_filler {
      type: "constant"
    }
  }
}
layer {
  name: "ip3"
  type: "InnerProduct"
  bottom: "ip2"
  top: "ip3"
  param {
    lr_mult: 1
  }
  param {
    lr_mult: 2
  }
  inner_product_param {
    num_output: 50
    weight_filler {
      type: "gaussian"
      std: 0.1
    }
    bias_filler {
      type: "constant"
    }
  }
}
layer {
  name: "accuracy"
  type: "Accuracy"
  bottom: "ip3"
  bottom: "label"
  top: "accuracy"
  include {
    phase: TEST
  }
}
layer {
  name: "loss"
  type: "SoftmaxWithLoss"
  bottom: "ip3"
  bottom: "label"
  top: "loss"
}
I0502 21:38:35.599537 14000 layer_factory.hpp:77] Creating layer intercept
I0502 21:38:35.599546 14000 net.cpp:94] Creating Layer intercept
I0502 21:38:35.599550 14000 net.cpp:409] intercept -> data
I0502 21:38:35.599557 14000 net.cpp:409] intercept -> label
I0502 21:38:35.599563 14000 hdf5_data_layer.cpp:79] Loading list of HDF5 filenames from: /home/purduethu/scratch/radon/d/deng106/CNNStatisticalModel/distributions/input/50_distributions_900_sample_size_test-distributions-path.txt
I0502 21:38:35.599581 14000 hdf5_data_layer.cpp:93] Number of HDF5 files: 1
I0502 21:38:35.956321 14000 net.cpp:144] Setting up intercept
I0502 21:38:35.956357 14000 net.cpp:151] Top shape: 20 1 30 30 (18000)
I0502 21:38:35.956362 14000 net.cpp:151] Top shape: 20 (20)
I0502 21:38:35.956364 14000 net.cpp:159] Memory required for data: 72080
I0502 21:38:35.956370 14000 layer_factory.hpp:77] Creating layer label_intercept_1_split
I0502 21:38:35.956389 14000 net.cpp:94] Creating Layer label_intercept_1_split
I0502 21:38:35.956393 14000 net.cpp:435] label_intercept_1_split <- label
I0502 21:38:35.956399 14000 net.cpp:409] label_intercept_1_split -> label_intercept_1_split_0
I0502 21:38:35.956408 14000 net.cpp:409] label_intercept_1_split -> label_intercept_1_split_1
I0502 21:38:35.956450 14000 net.cpp:144] Setting up label_intercept_1_split
I0502 21:38:35.956456 14000 net.cpp:151] Top shape: 20 (20)
I0502 21:38:35.956460 14000 net.cpp:151] Top shape: 20 (20)
I0502 21:38:35.956462 14000 net.cpp:159] Memory required for data: 72240
I0502 21:38:35.956465 14000 layer_factory.hpp:77] Creating layer conv1
I0502 21:38:35.956476 14000 net.cpp:94] Creating Layer conv1
I0502 21:38:35.956490 14000 net.cpp:435] conv1 <- data
I0502 21:38:35.956496 14000 net.cpp:409] conv1 -> conv1
I0502 21:38:35.958073 14000 net.cpp:144] Setting up conv1
I0502 21:38:35.958088 14000 net.cpp:151] Top shape: 20 64 30 30 (1152000)
I0502 21:38:35.958091 14000 net.cpp:159] Memory required for data: 4680240
I0502 21:38:35.958101 14000 layer_factory.hpp:77] Creating layer relu1
I0502 21:38:35.958108 14000 net.cpp:94] Creating Layer relu1
I0502 21:38:35.958112 14000 net.cpp:435] relu1 <- conv1
I0502 21:38:35.958115 14000 net.cpp:396] relu1 -> conv1 (in-place)
I0502 21:38:35.958122 14000 net.cpp:144] Setting up relu1
I0502 21:38:35.958127 14000 net.cpp:151] Top shape: 20 64 30 30 (1152000)
I0502 21:38:35.958130 14000 net.cpp:159] Memory required for data: 9288240
I0502 21:38:35.958133 14000 layer_factory.hpp:77] Creating layer conv2
I0502 21:38:35.958143 14000 net.cpp:94] Creating Layer conv2
I0502 21:38:35.958148 14000 net.cpp:435] conv2 <- conv1
I0502 21:38:35.958151 14000 net.cpp:409] conv2 -> conv2
I0502 21:38:35.964864 14000 net.cpp:144] Setting up conv2
I0502 21:38:35.964900 14000 net.cpp:151] Top shape: 20 64 30 30 (1152000)
I0502 21:38:35.964910 14000 net.cpp:159] Memory required for data: 13896240
I0502 21:38:35.964932 14000 layer_factory.hpp:77] Creating layer relu2
I0502 21:38:35.964937 14000 net.cpp:94] Creating Layer relu2
I0502 21:38:35.964941 14000 net.cpp:435] relu2 <- conv2
I0502 21:38:35.964947 14000 net.cpp:396] relu2 -> conv2 (in-place)
I0502 21:38:35.964953 14000 net.cpp:144] Setting up relu2
I0502 21:38:35.964958 14000 net.cpp:151] Top shape: 20 64 30 30 (1152000)
I0502 21:38:35.964962 14000 net.cpp:159] Memory required for data: 18504240
I0502 21:38:35.964964 14000 layer_factory.hpp:77] Creating layer pool2
I0502 21:38:35.964969 14000 net.cpp:94] Creating Layer pool2
I0502 21:38:35.964972 14000 net.cpp:435] pool2 <- conv2
I0502 21:38:35.964977 14000 net.cpp:409] pool2 -> pool2
I0502 21:38:35.965031 14000 net.cpp:144] Setting up pool2
I0502 21:38:35.965039 14000 net.cpp:151] Top shape: 20 64 15 15 (288000)
I0502 21:38:35.965042 14000 net.cpp:159] Memory required for data: 19656240
I0502 21:38:35.965045 14000 layer_factory.hpp:77] Creating layer conv3
I0502 21:38:35.965054 14000 net.cpp:94] Creating Layer conv3
I0502 21:38:35.965059 14000 net.cpp:435] conv3 <- pool2
I0502 21:38:35.965064 14000 net.cpp:409] conv3 -> conv3
I0502 21:38:35.972693 14000 net.cpp:144] Setting up conv3
I0502 21:38:35.972709 14000 net.cpp:151] Top shape: 20 128 15 15 (576000)
I0502 21:38:35.972713 14000 net.cpp:159] Memory required for data: 21960240
I0502 21:38:35.972721 14000 layer_factory.hpp:77] Creating layer relu3
I0502 21:38:35.972728 14000 net.cpp:94] Creating Layer relu3
I0502 21:38:35.972733 14000 net.cpp:435] relu3 <- conv3
I0502 21:38:35.972736 14000 net.cpp:396] relu3 -> conv3 (in-place)
I0502 21:38:35.972743 14000 net.cpp:144] Setting up relu3
I0502 21:38:35.972748 14000 net.cpp:151] Top shape: 20 128 15 15 (576000)
I0502 21:38:35.972750 14000 net.cpp:159] Memory required for data: 24264240
I0502 21:38:35.972754 14000 layer_factory.hpp:77] Creating layer conv4
I0502 21:38:35.972764 14000 net.cpp:94] Creating Layer conv4
I0502 21:38:35.972767 14000 net.cpp:435] conv4 <- conv3
I0502 21:38:35.972771 14000 net.cpp:409] conv4 -> conv4
I0502 21:38:35.988476 14000 net.cpp:144] Setting up conv4
I0502 21:38:35.988494 14000 net.cpp:151] Top shape: 20 128 15 15 (576000)
I0502 21:38:35.988498 14000 net.cpp:159] Memory required for data: 26568240
I0502 21:38:35.988505 14000 layer_factory.hpp:77] Creating layer relu4
I0502 21:38:35.988512 14000 net.cpp:94] Creating Layer relu4
I0502 21:38:35.988515 14000 net.cpp:435] relu4 <- conv4
I0502 21:38:35.988519 14000 net.cpp:396] relu4 -> conv4 (in-place)
I0502 21:38:35.988528 14000 net.cpp:144] Setting up relu4
I0502 21:38:35.988531 14000 net.cpp:151] Top shape: 20 128 15 15 (576000)
I0502 21:38:35.988534 14000 net.cpp:159] Memory required for data: 28872240
I0502 21:38:35.988538 14000 layer_factory.hpp:77] Creating layer conv5
I0502 21:38:35.988546 14000 net.cpp:94] Creating Layer conv5
I0502 21:38:35.988559 14000 net.cpp:435] conv5 <- conv4
I0502 21:38:35.988574 14000 net.cpp:409] conv5 -> conv5
I0502 21:38:36.003818 14000 net.cpp:144] Setting up conv5
I0502 21:38:36.003836 14000 net.cpp:151] Top shape: 20 128 15 15 (576000)
I0502 21:38:36.003840 14000 net.cpp:159] Memory required for data: 31176240
I0502 21:38:36.003851 14000 layer_factory.hpp:77] Creating layer relu5
I0502 21:38:36.003859 14000 net.cpp:94] Creating Layer relu5
I0502 21:38:36.003862 14000 net.cpp:435] relu5 <- conv5
I0502 21:38:36.003867 14000 net.cpp:396] relu5 -> conv5 (in-place)
I0502 21:38:36.003875 14000 net.cpp:144] Setting up relu5
I0502 21:38:36.003880 14000 net.cpp:151] Top shape: 20 128 15 15 (576000)
I0502 21:38:36.003882 14000 net.cpp:159] Memory required for data: 33480240
I0502 21:38:36.003885 14000 layer_factory.hpp:77] Creating layer pool5
I0502 21:38:36.003890 14000 net.cpp:94] Creating Layer pool5
I0502 21:38:36.003893 14000 net.cpp:435] pool5 <- conv5
I0502 21:38:36.003898 14000 net.cpp:409] pool5 -> pool5
I0502 21:38:36.003942 14000 net.cpp:144] Setting up pool5
I0502 21:38:36.003949 14000 net.cpp:151] Top shape: 20 128 7 7 (125440)
I0502 21:38:36.003952 14000 net.cpp:159] Memory required for data: 33982000
I0502 21:38:36.003955 14000 layer_factory.hpp:77] Creating layer ip1
I0502 21:38:36.003964 14000 net.cpp:94] Creating Layer ip1
I0502 21:38:36.003968 14000 net.cpp:435] ip1 <- pool5
I0502 21:38:36.003973 14000 net.cpp:409] ip1 -> ip1
I0502 21:38:36.159397 14000 net.cpp:144] Setting up ip1
I0502 21:38:36.159432 14000 net.cpp:151] Top shape: 20 1024 (20480)
I0502 21:38:36.159436 14000 net.cpp:159] Memory required for data: 34063920
I0502 21:38:36.159446 14000 layer_factory.hpp:77] Creating layer ip2
I0502 21:38:36.159454 14000 net.cpp:94] Creating Layer ip2
I0502 21:38:36.159459 14000 net.cpp:435] ip2 <- ip1
I0502 21:38:36.159466 14000 net.cpp:409] ip2 -> ip2
I0502 21:38:36.172744 14000 net.cpp:144] Setting up ip2
I0502 21:38:36.172765 14000 net.cpp:151] Top shape: 20 512 (10240)
I0502 21:38:36.172770 14000 net.cpp:159] Memory required for data: 34104880
I0502 21:38:36.172776 14000 layer_factory.hpp:77] Creating layer ip3
I0502 21:38:36.172786 14000 net.cpp:94] Creating Layer ip3
I0502 21:38:36.172791 14000 net.cpp:435] ip3 <- ip2
I0502 21:38:36.172798 14000 net.cpp:409] ip3 -> ip3
I0502 21:38:36.173557 14000 net.cpp:144] Setting up ip3
I0502 21:38:36.173564 14000 net.cpp:151] Top shape: 20 50 (1000)
I0502 21:38:36.173568 14000 net.cpp:159] Memory required for data: 34108880
I0502 21:38:36.173573 14000 layer_factory.hpp:77] Creating layer ip3_ip3_0_split
I0502 21:38:36.173578 14000 net.cpp:94] Creating Layer ip3_ip3_0_split
I0502 21:38:36.173581 14000 net.cpp:435] ip3_ip3_0_split <- ip3
I0502 21:38:36.173588 14000 net.cpp:409] ip3_ip3_0_split -> ip3_ip3_0_split_0
I0502 21:38:36.173593 14000 net.cpp:409] ip3_ip3_0_split -> ip3_ip3_0_split_1
I0502 21:38:36.173635 14000 net.cpp:144] Setting up ip3_ip3_0_split
I0502 21:38:36.173642 14000 net.cpp:151] Top shape: 20 50 (1000)
I0502 21:38:36.173646 14000 net.cpp:151] Top shape: 20 50 (1000)
I0502 21:38:36.173650 14000 net.cpp:159] Memory required for data: 34116880
I0502 21:38:36.173652 14000 layer_factory.hpp:77] Creating layer accuracy
I0502 21:38:36.173657 14000 net.cpp:94] Creating Layer accuracy
I0502 21:38:36.173661 14000 net.cpp:435] accuracy <- ip3_ip3_0_split_0
I0502 21:38:36.173666 14000 net.cpp:435] accuracy <- label_intercept_1_split_0
I0502 21:38:36.173669 14000 net.cpp:409] accuracy -> accuracy
…
