…
I0506 13:22:22.768813 21591 net.cpp:323] The NetState phase (0) differed from the phase (1) specified by a rule in layer intercept
I0506 13:22:22.768831 21591 net.cpp:323] The NetState phase (0) differed from the phase (1) specified by a rule in layer loss
I0506 13:22:22.768913 21591 net.cpp:52] Initializing net from parameters: 
state {
  phase: TRAIN
}
layer {
  name: "parameters"
  type: "HDF5Data"
  top: "data"
  top: "label"
  include {
    phase: TRAIN
  }
  hdf5_data_param {
    source: "/home/purduethu/scratch/radon/d/deng106/CNNStatisticalModel/distributions/input/50_distributions_100_sample_size_train-parameters-path.txt"
    batch_size: 20
  }
}
layer {
  name: "conv1"
  type: "Convolution"
  bottom: "data"
  top: "conv1"
  param {
    lr_mult: 1
  }
  param {
    lr_mult: 2
  }
  convolution_param {
    num_output: 64
    pad: 2
    kernel_size: 5
    stride: 1
    weight_filler {
      type: "gaussian"
      std: 0.0001
    }
    bias_filler {
      type: "constant"
    }
  }
}
layer {
  name: "relu1"
  type: "ReLU"
  bottom: "conv1"
  top: "conv1"
}
layer {
  name: "conv2"
  type: "Convolution"
  bottom: "conv1"
  top: "conv2"
  param {
    lr_mult: 1
  }
  param {
    lr_mult: 2
  }
  convolution_param {
    num_output: 64
    pad: 2
    kernel_size: 5
    stride: 1
    weight_filler {
      type: "gaussian"
      std: 0.01
    }
    bias_filler {
      type: "constant"
    }
  }
}
layer {
  name: "relu2"
  type: "ReLU"
  bottom: "conv2"
  top: "conv2"
}
layer {
  name: "pool2"
  type: "Pooling"
  bottom: "conv2"
  top: "pool2"
  pooling_param {
    pool: MAX
    kernel_size: 3
    stride: 2
  }
}
layer {
  name: "conv3"
  type: "Convolution"
  bottom: "pool2"
  top: "conv3"
  param {
    lr_mult: 1
  }
  param {
    lr_mult: 2
  }
  convolution_param {
    num_output: 128
    pad: 2
    kernel_size: 5
    stride: 1
    weight_filler {
      type: "gaussian"
      std: 0.01
    }
    bias_filler {
      type: "constant"
    }
  }
}
layer {
  name: "relu3"
  type: "ReLU"
  bottom: "conv3"
  top: "conv3"
}
layer {
  name: "conv4"
  type: "Convolution"
  bottom: "conv3"
  top: "conv4"
  param {
    lr_mult: 1
  }
  param {
    lr_mult: 2
  }
  convolution_param {
    num_output: 128
    pad: 2
    kernel_size: 5
    stride: 1
    weight_filler {
      type: "gaussian"
      std: 0.01
    }
    bias_filler {
      type: "constant"
    }
  }
}
layer {
  name: "relu4"
  type: "ReLU"
  bottom: "conv4"
  top: "conv4"
}
layer {
  name: "conv5"
  type: "Convolution"
  bottom: "conv4"
  top: "conv5"
  param {
    lr_mult: 1
  }
  param {
    lr_mult: 2
  }
  convolution_param {
    num_output: 128
    pad: 2
    kernel_size: 5
    stride: 1
    weight_filler {
      type: "gaussian"
      std: 0.01
    }
    bias_filler {
      type: "constant"
    }
  }
}
layer {
  name: "relu5"
  type: "ReLU"
  bottom: "conv5"
  top: "conv5"
}
layer {
  name: "pool5"
  type: "Pooling"
  bottom: "conv5"
  top: "pool5"
  pooling_param {
    pool: AVE
    kernel_size: 3
    stride: 2
  }
}
layer {
  name: "ip1"
  type: "InnerProduct"
  bottom: "pool5"
  top: "ip1"
  param {
    lr_mult: 1
  }
  param {
    lr_mult: 2
  }
  inner_product_param {
    num_output: 1024
    weight_filler {
      type: "gaussian"
      std: 0.1
    }
    bias_filler {
      type: "constant"
    }
  }
}
layer {
  name: "ip2"
  type: "InnerProduct"
  bottom: "ip1"
  top: "ip2"
  param {
    lr_mult: 1
  }
  param {
    lr_mult: 2
  }
  inner_product_param {
    num_output: 512
    weight_filler {
      type: "gaussian"
      std: 0.1
    }
    bias_filler {
      type: "constant"
    }
  }
}
layer {
  name: "ip3"
  type: "InnerProduct"
  bottom: "ip2"
  top: "ip3"
  param {
    lr_mult: 1
  }
  param {
    lr_mult: 2
  }
  inner_product_param {
    num_output: 1
    weight_filler {
      type: "gaussian"
      std: 0.1
    }
    bias_filler {
      type: "constant"
    }
  }
}
layer {
  name: "loss"
  type: "HuberLoss"
  bottom: "ip3"
  bottom: "label"
  top: "loss"
  include {
    phase: TRAIN
  }
}
I0506 13:22:22.768967 21591 layer_factory.hpp:77] Creating layer parameters
I0506 13:22:22.768981 21591 net.cpp:94] Creating Layer parameters
I0506 13:22:22.768986 21591 net.cpp:409] parameters -> data
I0506 13:22:22.768996 21591 net.cpp:409] parameters -> label
I0506 13:22:22.769001 21591 hdf5_data_layer.cpp:79] Loading list of HDF5 filenames from: /home/purduethu/scratch/radon/d/deng106/CNNStatisticalModel/distributions/input/50_distributions_100_sample_size_train-parameters-path.txt
I0506 13:22:22.769017 21591 hdf5_data_layer.cpp:93] Number of HDF5 files: 1
I0506 13:22:22.769567 21591 hdf5.cpp:32] Datatype class: H5T_FLOAT
I0506 13:22:22.933532 21591 net.cpp:144] Setting up parameters
I0506 13:22:22.933569 21591 net.cpp:151] Top shape: 20 1 10 10 (2000)
I0506 13:22:22.933575 21591 net.cpp:151] Top shape: 20 (20)
I0506 13:22:22.933579 21591 net.cpp:159] Memory required for data: 8080
I0506 13:22:22.933585 21591 layer_factory.hpp:77] Creating layer conv1
I0506 13:22:22.933607 21591 net.cpp:94] Creating Layer conv1
I0506 13:22:22.933612 21591 net.cpp:435] conv1 <- data
I0506 13:22:22.933619 21591 net.cpp:409] conv1 -> conv1
I0506 13:22:22.937852 21591 net.cpp:144] Setting up conv1
I0506 13:22:22.937870 21591 net.cpp:151] Top shape: 20 64 10 10 (128000)
I0506 13:22:22.937875 21591 net.cpp:159] Memory required for data: 520080
I0506 13:22:22.937885 21591 layer_factory.hpp:77] Creating layer relu1
I0506 13:22:22.937893 21591 net.cpp:94] Creating Layer relu1
I0506 13:22:22.937897 21591 net.cpp:435] relu1 <- conv1
I0506 13:22:22.937901 21591 net.cpp:396] relu1 -> conv1 (in-place)
I0506 13:22:22.937913 21591 net.cpp:144] Setting up relu1
I0506 13:22:22.937918 21591 net.cpp:151] Top shape: 20 64 10 10 (128000)
I0506 13:22:22.937922 21591 net.cpp:159] Memory required for data: 1032080
I0506 13:22:22.937925 21591 layer_factory.hpp:77] Creating layer conv2
I0506 13:22:22.937933 21591 net.cpp:94] Creating Layer conv2
I0506 13:22:22.937937 21591 net.cpp:435] conv2 <- conv1
I0506 13:22:22.937942 21591 net.cpp:409] conv2 -> conv2
I0506 13:22:22.943975 21591 net.cpp:144] Setting up conv2
I0506 13:22:22.943992 21591 net.cpp:151] Top shape: 20 64 10 10 (128000)
I0506 13:22:22.943996 21591 net.cpp:159] Memory required for data: 1544080
I0506 13:22:22.944005 21591 layer_factory.hpp:77] Creating layer relu2
I0506 13:22:22.944012 21591 net.cpp:94] Creating Layer relu2
I0506 13:22:22.944016 21591 net.cpp:435] relu2 <- conv2
I0506 13:22:22.944021 21591 net.cpp:396] relu2 -> conv2 (in-place)
I0506 13:22:22.944028 21591 net.cpp:144] Setting up relu2
I0506 13:22:22.944032 21591 net.cpp:151] Top shape: 20 64 10 10 (128000)
I0506 13:22:22.944036 21591 net.cpp:159] Memory required for data: 2056080
I0506 13:22:22.944039 21591 layer_factory.hpp:77] Creating layer pool2
I0506 13:22:22.944046 21591 net.cpp:94] Creating Layer pool2
I0506 13:22:22.944048 21591 net.cpp:435] pool2 <- conv2
I0506 13:22:22.944052 21591 net.cpp:409] pool2 -> pool2
I0506 13:22:22.944103 21591 net.cpp:144] Setting up pool2
I0506 13:22:22.944111 21591 net.cpp:151] Top shape: 20 64 5 5 (32000)
I0506 13:22:22.944114 21591 net.cpp:159] Memory required for data: 2184080
I0506 13:22:22.944118 21591 layer_factory.hpp:77] Creating layer conv3
I0506 13:22:22.944126 21591 net.cpp:94] Creating Layer conv3
I0506 13:22:22.944135 21591 net.cpp:435] conv3 <- pool2
I0506 13:22:22.944141 21591 net.cpp:409] conv3 -> conv3
I0506 13:22:22.952358 21591 net.cpp:144] Setting up conv3
I0506 13:22:22.952373 21591 net.cpp:151] Top shape: 20 128 5 5 (64000)
I0506 13:22:22.952378 21591 net.cpp:159] Memory required for data: 2440080
I0506 13:22:22.952385 21591 layer_factory.hpp:77] Creating layer relu3
I0506 13:22:22.952392 21591 net.cpp:94] Creating Layer relu3
I0506 13:22:22.952395 21591 net.cpp:435] relu3 <- conv3
I0506 13:22:22.952400 21591 net.cpp:396] relu3 -> conv3 (in-place)
I0506 13:22:22.952407 21591 net.cpp:144] Setting up relu3
I0506 13:22:22.952412 21591 net.cpp:151] Top shape: 20 128 5 5 (64000)
I0506 13:22:22.952415 21591 net.cpp:159] Memory required for data: 2696080
I0506 13:22:22.952419 21591 layer_factory.hpp:77] Creating layer conv4
I0506 13:22:22.952427 21591 net.cpp:94] Creating Layer conv4
I0506 13:22:22.952430 21591 net.cpp:435] conv4 <- conv3
I0506 13:22:22.952435 21591 net.cpp:409] conv4 -> conv4
I0506 13:22:22.967231 21591 net.cpp:144] Setting up conv4
I0506 13:22:22.967248 21591 net.cpp:151] Top shape: 20 128 5 5 (64000)
I0506 13:22:22.967252 21591 net.cpp:159] Memory required for data: 2952080
I0506 13:22:22.967259 21591 layer_factory.hpp:77] Creating layer relu4
I0506 13:22:22.967267 21591 net.cpp:94] Creating Layer relu4
I0506 13:22:22.967270 21591 net.cpp:435] relu4 <- conv4
I0506 13:22:22.967274 21591 net.cpp:396] relu4 -> conv4 (in-place)
I0506 13:22:22.967283 21591 net.cpp:144] Setting up relu4
I0506 13:22:22.967286 21591 net.cpp:151] Top shape: 20 128 5 5 (64000)
I0506 13:22:22.967289 21591 net.cpp:159] Memory required for data: 3208080
I0506 13:22:22.967293 21591 layer_factory.hpp:77] Creating layer conv5
I0506 13:22:22.967300 21591 net.cpp:94] Creating Layer conv5
I0506 13:22:22.967304 21591 net.cpp:435] conv5 <- conv4
I0506 13:22:22.967309 21591 net.cpp:409] conv5 -> conv5
I0506 13:22:22.981621 21591 net.cpp:144] Setting up conv5
I0506 13:22:22.981639 21591 net.cpp:151] Top shape: 20 128 5 5 (64000)
I0506 13:22:22.981643 21591 net.cpp:159] Memory required for data: 3464080
I0506 13:22:22.981652 21591 layer_factory.hpp:77] Creating layer relu5
I0506 13:22:22.981660 21591 net.cpp:94] Creating Layer relu5
I0506 13:22:22.981663 21591 net.cpp:435] relu5 <- conv5
I0506 13:22:22.981668 21591 net.cpp:396] relu5 -> conv5 (in-place)
I0506 13:22:22.981676 21591 net.cpp:144] Setting up relu5
I0506 13:22:22.981680 21591 net.cpp:151] Top shape: 20 128 5 5 (64000)
I0506 13:22:22.981683 21591 net.cpp:159] Memory required for data: 3720080
I0506 13:22:22.981688 21591 layer_factory.hpp:77] Creating layer pool5
I0506 13:22:22.981693 21591 net.cpp:94] Creating Layer pool5
I0506 13:22:22.981696 21591 net.cpp:435] pool5 <- conv5
I0506 13:22:22.981700 21591 net.cpp:409] pool5 -> pool5
I0506 13:22:22.981740 21591 net.cpp:144] Setting up pool5
I0506 13:22:22.981748 21591 net.cpp:151] Top shape: 20 128 2 2 (10240)
I0506 13:22:22.981751 21591 net.cpp:159] Memory required for data: 3761040
I0506 13:22:22.981755 21591 layer_factory.hpp:77] Creating layer ip1
I0506 13:22:22.981765 21591 net.cpp:94] Creating Layer ip1
I0506 13:22:22.981768 21591 net.cpp:435] ip1 <- pool5
I0506 13:22:22.981773 21591 net.cpp:409] ip1 -> ip1
I0506 13:22:22.995913 21591 net.cpp:144] Setting up ip1
I0506 13:22:22.995934 21591 net.cpp:151] Top shape: 20 1024 (20480)
I0506 13:22:22.995939 21591 net.cpp:159] Memory required for data: 3842960
I0506 13:22:22.995945 21591 layer_factory.hpp:77] Creating layer ip2
I0506 13:22:22.995954 21591 net.cpp:94] Creating Layer ip2
I0506 13:22:22.995959 21591 net.cpp:435] ip2 <- ip1
I0506 13:22:22.995965 21591 net.cpp:409] ip2 -> ip2
I0506 13:22:23.009279 21591 net.cpp:144] Setting up ip2
I0506 13:22:23.009296 21591 net.cpp:151] Top shape: 20 512 (10240)
I0506 13:22:23.009300 21591 net.cpp:159] Memory required for data: 3883920
I0506 13:22:23.009307 21591 layer_factory.hpp:77] Creating layer ip3
I0506 13:22:23.009316 21591 net.cpp:94] Creating Layer ip3
I0506 13:22:23.009320 21591 net.cpp:435] ip3 <- ip2
I0506 13:22:23.009333 21591 net.cpp:409] ip3 -> ip3
I0506 13:22:23.009449 21591 net.cpp:144] Setting up ip3
I0506 13:22:23.009457 21591 net.cpp:151] Top shape: 20 1 (20)
I0506 13:22:23.009460 21591 net.cpp:159] Memory required for data: 3884000
I0506 13:22:23.009466 21591 layer_factory.hpp:77] Creating layer loss
I0506 13:22:23.009475 21591 net.cpp:94] Creating Layer loss
I0506 13:22:23.009479 21591 net.cpp:435] loss <- ip3
I0506 13:22:23.009482 21591 net.cpp:435] loss <- label
I0506 13:22:23.009487 21591 net.cpp:409] loss -> loss
I0506 13:22:23.009541 21591 net.cpp:144] Setting up loss
…
I0506 13:22:23.117099 21591 net.cpp:323] The NetState phase (0) differed from the phase (1) specified by a rule in layer intercept
I0506 13:22:23.117115 21591 net.cpp:323] The NetState phase (0) differed from the phase (1) specified by a rule in layer accuracy
I0506 13:22:23.117205 21591 net.cpp:52] Initializing net from parameters: 
state {
  phase: TRAIN
}
layer {
  name: "parameters"
  type: "HDF5Data"
  top: "data"
  top: "label"
  include {
    phase: TRAIN
  }
  hdf5_data_param {
    source: "/home/purduethu/scratch/radon/d/deng106/CNNStatisticalModel/distributions/input/50_distributions_100_sample_size_train-distributions-path.txt"
    batch_size: 20
  }
}
layer {
  name: "conv1"
  type: "Convolution"
  bottom: "data"
  top: "conv1"
  param {
    lr_mult: 1
  }
  param {
    lr_mult: 2
  }
  convolution_param {
    num_output: 64
    pad: 2
    kernel_size: 5
    stride: 1
    weight_filler {
      type: "gaussian"
      std: 0.0001
    }
    bias_filler {
      type: "constant"
    }
  }
}
layer {
  name: "relu1"
  type: "ReLU"
  bottom: "conv1"
  top: "conv1"
}
layer {
  name: "conv2"
  type: "Convolution"
  bottom: "conv1"
  top: "conv2"
  param {
    lr_mult: 1
  }
  param {
    lr_mult: 2
  }
  convolution_param {
    num_output: 64
    pad: 2
    kernel_size: 5
    stride: 1
    weight_filler {
      type: "gaussian"
      std: 0.01
    }
    bias_filler {
      type: "constant"
    }
  }
}
layer {
  name: "relu2"
  type: "ReLU"
  bottom: "conv2"
  top: "conv2"
}
layer {
  name: "pool2"
  type: "Pooling"
  bottom: "conv2"
  top: "pool2"
  pooling_param {
    pool: MAX
    kernel_size: 3
    stride: 2
  }
}
layer {
  name: "conv3"
  type: "Convolution"
  bottom: "pool2"
  top: "conv3"
  param {
    lr_mult: 1
  }
  param {
    lr_mult: 2
  }
  convolution_param {
    num_output: 128
    pad: 2
    kernel_size: 5
    stride: 1
    weight_filler {
      type: "gaussian"
      std: 0.01
    }
    bias_filler {
      type: "constant"
    }
  }
}
layer {
  name: "relu3"
  type: "ReLU"
  bottom: "conv3"
  top: "conv3"
}
layer {
  name: "conv4"
  type: "Convolution"
  bottom: "conv3"
  top: "conv4"
  param {
    lr_mult: 1
  }
  param {
    lr_mult: 2
  }
  convolution_param {
    num_output: 128
    pad: 2
    kernel_size: 5
    stride: 1
    weight_filler {
      type: "gaussian"
      std: 0.01
    }
    bias_filler {
      type: "constant"
    }
  }
}
layer {
  name: "relu4"
  type: "ReLU"
  bottom: "conv4"
  top: "conv4"
}
layer {
  name: "conv5"
  type: "Convolution"
  bottom: "conv4"
  top: "conv5"
  param {
    lr_mult: 1
  }
  param {
    lr_mult: 2
  }
  convolution_param {
    num_output: 128
    pad: 2
    kernel_size: 5
    stride: 1
    weight_filler {
      type: "gaussian"
      std: 0.01
    }
    bias_filler {
      type: "constant"
    }
  }
}
layer {
  name: "relu5"
  type: "ReLU"
  bottom: "conv5"
  top: "conv5"
}
layer {
  name: "pool5"
  type: "Pooling"
  bottom: "conv5"
  top: "pool5"
  pooling_param {
    pool: AVE
    kernel_size: 3
    stride: 2
  }
}
layer {
  name: "ip1"
  type: "InnerProduct"
  bottom: "pool5"
  top: "ip1"
  param {
    lr_mult: 1
  }
  param {
    lr_mult: 2
  }
  inner_product_param {
    num_output: 1024
    weight_filler {
      type: "gaussian"
      std: 0.1
    }
    bias_filler {
      type: "constant"
    }
  }
}
layer {
  name: "ip2"
  type: "InnerProduct"
  bottom: "ip1"
  top: "ip2"
  param {
    lr_mult: 1
  }
  param {
    lr_mult: 2
  }
  inner_product_param {
    num_output: 512
    weight_filler {
      type: "gaussian"
      std: 0.1
    }
    bias_filler {
      type: "constant"
    }
  }
}
layer {
  name: "ip3"
  type: "InnerProduct"
  bottom: "ip2"
  top: "ip3"
  param {
    lr_mult: 1
  }
  param {
    lr_mult: 2
  }
  inner_product_param {
    num_output: 50
    weight_filler {
      type: "gaussian"
      std: 0.1
    }
    bias_filler {
      type: "constant"
    }
  }
}
layer {
  name: "loss"
  type: "SoftmaxWithLoss"
  bottom: "ip3"
  bottom: "label"
  top: "loss"
}
I0506 13:22:23.117257 21591 layer_factory.hpp:77] Creating layer parameters
I0506 13:22:23.117266 21591 net.cpp:94] Creating Layer parameters
I0506 13:22:23.117270 21591 net.cpp:409] parameters -> data
I0506 13:22:23.117277 21591 net.cpp:409] parameters -> label
I0506 13:22:23.117285 21591 hdf5_data_layer.cpp:79] Loading list of HDF5 filenames from: /home/purduethu/scratch/radon/d/deng106/CNNStatisticalModel/distributions/input/50_distributions_100_sample_size_train-distributions-path.txt
I0506 13:22:23.117300 21591 hdf5_data_layer.cpp:93] Number of HDF5 files: 1
I0506 13:22:23.274721 21591 hdf5.cpp:35] Datatype class: H5T_INTEGER
I0506 13:22:23.277863 21591 net.cpp:144] Setting up parameters
I0506 13:22:23.277886 21591 net.cpp:151] Top shape: 20 1 10 10 (2000)
I0506 13:22:23.277892 21591 net.cpp:151] Top shape: 20 (20)
I0506 13:22:23.277896 21591 net.cpp:159] Memory required for data: 8080
I0506 13:22:23.277902 21591 layer_factory.hpp:77] Creating layer conv1
I0506 13:22:23.277918 21591 net.cpp:94] Creating Layer conv1
I0506 13:22:23.277922 21591 net.cpp:435] conv1 <- data
I0506 13:22:23.277930 21591 net.cpp:409] conv1 -> conv1
I0506 13:22:23.279702 21591 net.cpp:144] Setting up conv1
I0506 13:22:23.279718 21591 net.cpp:151] Top shape: 20 64 10 10 (128000)
I0506 13:22:23.279723 21591 net.cpp:159] Memory required for data: 520080
I0506 13:22:23.279733 21591 layer_factory.hpp:77] Creating layer relu1
I0506 13:22:23.279742 21591 net.cpp:94] Creating Layer relu1
I0506 13:22:23.279747 21591 net.cpp:435] relu1 <- conv1
I0506 13:22:23.279750 21591 net.cpp:396] relu1 -> conv1 (in-place)
I0506 13:22:23.279759 21591 net.cpp:144] Setting up relu1
I0506 13:22:23.279763 21591 net.cpp:151] Top shape: 20 64 10 10 (128000)
I0506 13:22:23.279767 21591 net.cpp:159] Memory required for data: 1032080
I0506 13:22:23.279770 21591 layer_factory.hpp:77] Creating layer conv2
I0506 13:22:23.279778 21591 net.cpp:94] Creating Layer conv2
I0506 13:22:23.279781 21591 net.cpp:435] conv2 <- conv1
I0506 13:22:23.279788 21591 net.cpp:409] conv2 -> conv2
I0506 13:22:23.285166 21591 net.cpp:144] Setting up conv2
I0506 13:22:23.285179 21591 net.cpp:151] Top shape: 20 64 10 10 (128000)
I0506 13:22:23.285183 21591 net.cpp:159] Memory required for data: 1544080
I0506 13:22:23.285192 21591 layer_factory.hpp:77] Creating layer relu2
I0506 13:22:23.285199 21591 net.cpp:94] Creating Layer relu2
I0506 13:22:23.285203 21591 net.cpp:435] relu2 <- conv2
I0506 13:22:23.285208 21591 net.cpp:396] relu2 -> conv2 (in-place)
I0506 13:22:23.285215 21591 net.cpp:144] Setting up relu2
I0506 13:22:23.285220 21591 net.cpp:151] Top shape: 20 64 10 10 (128000)
I0506 13:22:23.285223 21591 net.cpp:159] Memory required for data: 2056080
I0506 13:22:23.285228 21591 layer_factory.hpp:77] Creating layer pool2
I0506 13:22:23.285233 21591 net.cpp:94] Creating Layer pool2
I0506 13:22:23.285236 21591 net.cpp:435] pool2 <- conv2
I0506 13:22:23.285241 21591 net.cpp:409] pool2 -> pool2
I0506 13:22:23.285293 21591 net.cpp:144] Setting up pool2
I0506 13:22:23.285301 21591 net.cpp:151] Top shape: 20 64 5 5 (32000)
I0506 13:22:23.285305 21591 net.cpp:159] Memory required for data: 2184080
I0506 13:22:23.285308 21591 layer_factory.hpp:77] Creating layer conv3
I0506 13:22:23.285316 21591 net.cpp:94] Creating Layer conv3
I0506 13:22:23.285320 21591 net.cpp:435] conv3 <- pool2
I0506 13:22:23.285326 21591 net.cpp:409] conv3 -> conv3
I0506 13:22:23.294034 21591 net.cpp:144] Setting up conv3
I0506 13:22:23.294049 21591 net.cpp:151] Top shape: 20 128 5 5 (64000)
I0506 13:22:23.294054 21591 net.cpp:159] Memory required for data: 2440080
I0506 13:22:23.294061 21591 layer_factory.hpp:77] Creating layer relu3
I0506 13:22:23.294068 21591 net.cpp:94] Creating Layer relu3
I0506 13:22:23.294072 21591 net.cpp:435] relu3 <- conv3
I0506 13:22:23.294077 21591 net.cpp:396] relu3 -> conv3 (in-place)
I0506 13:22:23.294090 21591 net.cpp:144] Setting up relu3
I0506 13:22:23.294096 21591 net.cpp:151] Top shape: 20 128 5 5 (64000)
I0506 13:22:23.294100 21591 net.cpp:159] Memory required for data: 2696080
I0506 13:22:23.294102 21591 layer_factory.hpp:77] Creating layer conv4
I0506 13:22:23.294111 21591 net.cpp:94] Creating Layer conv4
I0506 13:22:23.294116 21591 net.cpp:435] conv4 <- conv3
I0506 13:22:23.294121 21591 net.cpp:409] conv4 -> conv4
I0506 13:22:23.308866 21591 net.cpp:144] Setting up conv4
I0506 13:22:23.308887 21591 net.cpp:151] Top shape: 20 128 5 5 (64000)
I0506 13:22:23.308892 21591 net.cpp:159] Memory required for data: 2952080
I0506 13:22:23.308899 21591 layer_factory.hpp:77] Creating layer relu4
I0506 13:22:23.308907 21591 net.cpp:94] Creating Layer relu4
I0506 13:22:23.308910 21591 net.cpp:435] relu4 <- conv4
I0506 13:22:23.308914 21591 net.cpp:396] relu4 -> conv4 (in-place)
I0506 13:22:23.308923 21591 net.cpp:144] Setting up relu4
I0506 13:22:23.308926 21591 net.cpp:151] Top shape: 20 128 5 5 (64000)
I0506 13:22:23.308930 21591 net.cpp:159] Memory required for data: 3208080
I0506 13:22:23.308933 21591 layer_factory.hpp:77] Creating layer conv5
I0506 13:22:23.308941 21591 net.cpp:94] Creating Layer conv5
I0506 13:22:23.308945 21591 net.cpp:435] conv5 <- conv4
I0506 13:22:23.308950 21591 net.cpp:409] conv5 -> conv5
I0506 13:22:23.323900 21591 net.cpp:144] Setting up conv5
I0506 13:22:23.323917 21591 net.cpp:151] Top shape: 20 128 5 5 (64000)
I0506 13:22:23.323921 21591 net.cpp:159] Memory required for data: 3464080
I0506 13:22:23.323931 21591 layer_factory.hpp:77] Creating layer relu5
I0506 13:22:23.323940 21591 net.cpp:94] Creating Layer relu5
I0506 13:22:23.323943 21591 net.cpp:435] relu5 <- conv5
I0506 13:22:23.323948 21591 net.cpp:396] relu5 -> conv5 (in-place)
I0506 13:22:23.323956 21591 net.cpp:144] Setting up relu5
I0506 13:22:23.323961 21591 net.cpp:151] Top shape: 20 128 5 5 (64000)
I0506 13:22:23.323963 21591 net.cpp:159] Memory required for data: 3720080
I0506 13:22:23.323966 21591 layer_factory.hpp:77] Creating layer pool5
I0506 13:22:23.323972 21591 net.cpp:94] Creating Layer pool5
I0506 13:22:23.323976 21591 net.cpp:435] pool5 <- conv5
I0506 13:22:23.323979 21591 net.cpp:409] pool5 -> pool5
I0506 13:22:23.324019 21591 net.cpp:144] Setting up pool5
I0506 13:22:23.324026 21591 net.cpp:151] Top shape: 20 128 2 2 (10240)
I0506 13:22:23.324030 21591 net.cpp:159] Memory required for data: 3761040
I0506 13:22:23.324033 21591 layer_factory.hpp:77] Creating layer ip1
I0506 13:22:23.324040 21591 net.cpp:94] Creating Layer ip1
I0506 13:22:23.324043 21591 net.cpp:435] ip1 <- pool5
I0506 13:22:23.324048 21591 net.cpp:409] ip1 -> ip1
I0506 13:22:23.337409 21591 net.cpp:144] Setting up ip1
I0506 13:22:23.337424 21591 net.cpp:151] Top shape: 20 1024 (20480)
I0506 13:22:23.337430 21591 net.cpp:159] Memory required for data: 3842960
I0506 13:22:23.337435 21591 layer_factory.hpp:77] Creating layer ip2
I0506 13:22:23.337443 21591 net.cpp:94] Creating Layer ip2
I0506 13:22:23.337447 21591 net.cpp:435] ip2 <- ip1
I0506 13:22:23.337452 21591 net.cpp:409] ip2 -> ip2
I0506 13:22:23.350518 21591 net.cpp:144] Setting up ip2
I0506 13:22:23.350534 21591 net.cpp:151] Top shape: 20 512 (10240)
I0506 13:22:23.350538 21591 net.cpp:159] Memory required for data: 3883920
I0506 13:22:23.350545 21591 layer_factory.hpp:77] Creating layer ip3
I0506 13:22:23.350553 21591 net.cpp:94] Creating Layer ip3
I0506 13:22:23.350556 21591 net.cpp:435] ip3 <- ip2
I0506 13:22:23.350561 21591 net.cpp:409] ip3 -> ip3
I0506 13:22:23.352098 21591 net.cpp:144] Setting up ip3
I0506 13:22:23.352113 21591 net.cpp:151] Top shape: 20 50 (1000)
I0506 13:22:23.352116 21591 net.cpp:159] Memory required for data: 3887920
I0506 13:22:23.352123 21591 layer_factory.hpp:77] Creating layer loss
I0506 13:22:23.352130 21591 net.cpp:94] Creating Layer loss
I0506 13:22:23.352134 21591 net.cpp:435] loss <- ip3
I0506 13:22:23.352138 21591 net.cpp:435] loss <- label
I0506 13:22:23.352144 21591 net.cpp:409] loss -> loss
I0506 13:22:23.352151 21591 layer_factory.hpp:77] Creating layer loss
…
I0506 13:22:23.352694 21591 solver.cpp:181] Creating test net (#0) specified by net file: ./protocol/dis_50_100_dimension.protocol_distribution
I0506 13:22:23.352722 21591 net.cpp:323] The NetState phase (1) differed from the phase (0) specified by a rule in layer parameters
I0506 13:22:23.352819 21591 net.cpp:52] Initializing net from parameters: 
state {
  phase: TEST
}
layer {
  name: "intercept"
  type: "HDF5Data"
  top: "data"
  top: "label"
  include {
    phase: TEST
  }
  hdf5_data_param {
    source: "/home/purduethu/scratch/radon/d/deng106/CNNStatisticalModel/distributions/input/50_distributions_100_sample_size_test-distributions-path.txt"
    batch_size: 20
  }
}
layer {
  name: "conv1"
  type: "Convolution"
  bottom: "data"
  top: "conv1"
  param {
    lr_mult: 1
  }
  param {
    lr_mult: 2
  }
  convolution_param {
    num_output: 64
    pad: 2
    kernel_size: 5
    stride: 1
    weight_filler {
      type: "gaussian"
      std: 0.0001
    }
    bias_filler {
      type: "constant"
    }
  }
}
layer {
  name: "relu1"
  type: "ReLU"
  bottom: "conv1"
  top: "conv1"
}
layer {
  name: "conv2"
  type: "Convolution"
  bottom: "conv1"
  top: "conv2"
  param {
    lr_mult: 1
  }
  param {
    lr_mult: 2
  }
  convolution_param {
    num_output: 64
    pad: 2
    kernel_size: 5
    stride: 1
    weight_filler {
      type: "gaussian"
      std: 0.01
    }
    bias_filler {
      type: "constant"
    }
  }
}
layer {
  name: "relu2"
  type: "ReLU"
  bottom: "conv2"
  top: "conv2"
}
layer {
  name: "pool2"
  type: "Pooling"
  bottom: "conv2"
  top: "pool2"
  pooling_param {
    pool: MAX
    kernel_size: 3
    stride: 2
  }
}
layer {
  name: "conv3"
  type: "Convolution"
  bottom: "pool2"
  top: "conv3"
  param {
    lr_mult: 1
  }
  param {
    lr_mult: 2
  }
  convolution_param {
    num_output: 128
    pad: 2
    kernel_size: 5
    stride: 1
    weight_filler {
      type: "gaussian"
      std: 0.01
    }
    bias_filler {
      type: "constant"
    }
  }
}
layer {
  name: "relu3"
  type: "ReLU"
  bottom: "conv3"
  top: "conv3"
}
layer {
  name: "conv4"
  type: "Convolution"
  bottom: "conv3"
  top: "conv4"
  param {
    lr_mult: 1
  }
  param {
    lr_mult: 2
  }
  convolution_param {
    num_output: 128
    pad: 2
    kernel_size: 5
    stride: 1
    weight_filler {
      type: "gaussian"
      std: 0.01
    }
    bias_filler {
      type: "constant"
    }
  }
}
layer {
  name: "relu4"
  type: "ReLU"
  bottom: "conv4"
  top: "conv4"
}
layer {
  name: "conv5"
  type: "Convolution"
  bottom: "conv4"
  top: "conv5"
  param {
    lr_mult: 1
  }
  param {
    lr_mult: 2
  }
  convolution_param {
    num_output: 128
    pad: 2
    kernel_size: 5
    stride: 1
    weight_filler {
      type: "gaussian"
      std: 0.01
    }
    bias_filler {
      type: "constant"
    }
  }
}
layer {
  name: "relu5"
  type: "ReLU"
  bottom: "conv5"
  top: "conv5"
}
layer {
  name: "pool5"
  type: "Pooling"
  bottom: "conv5"
  top: "pool5"
  pooling_param {
    pool: AVE
    kernel_size: 3
    stride: 2
  }
}
layer {
  name: "ip1"
  type: "InnerProduct"
  bottom: "pool5"
  top: "ip1"
  param {
    lr_mult: 1
  }
  param {
    lr_mult: 2
  }
  inner_product_param {
    num_output: 1024
    weight_filler {
      type: "gaussian"
      std: 0.1
    }
    bias_filler {
      type: "constant"
    }
  }
}
layer {
  name: "ip2"
  type: "InnerProduct"
  bottom: "ip1"
  top: "ip2"
  param {
    lr_mult: 1
  }
  param {
    lr_mult: 2
  }
  inner_product_param {
    num_output: 512
    weight_filler {
      type: "gaussian"
      std: 0.1
    }
    bias_filler {
      type: "constant"
    }
  }
}
layer {
  name: "ip3"
  type: "InnerProduct"
  bottom: "ip2"
  top: "ip3"
  param {
    lr_mult: 1
  }
  param {
    lr_mult: 2
  }
  inner_product_param {
    num_output: 50
    weight_filler {
      type: "gaussian"
      std: 0.1
    }
    bias_filler {
      type: "constant"
    }
  }
}
layer {
  name: "accuracy"
  type: "Accuracy"
  bottom: "ip3"
  bottom: "label"
  top: "accuracy"
  include {
    phase: TEST
  }
}
layer {
  name: "loss"
  type: "SoftmaxWithLoss"
  bottom: "ip3"
  bottom: "label"
  top: "loss"
}
I0506 13:22:23.352895 21591 layer_factory.hpp:77] Creating layer intercept
I0506 13:22:23.352905 21591 net.cpp:94] Creating Layer intercept
I0506 13:22:23.352908 21591 net.cpp:409] intercept -> data
I0506 13:22:23.352916 21591 net.cpp:409] intercept -> label
I0506 13:22:23.352921 21591 hdf5_data_layer.cpp:79] Loading list of HDF5 filenames from: /home/purduethu/scratch/radon/d/deng106/CNNStatisticalModel/distributions/input/50_distributions_100_sample_size_test-distributions-path.txt
I0506 13:22:23.352941 21591 hdf5_data_layer.cpp:93] Number of HDF5 files: 1
I0506 13:22:23.394021 21591 net.cpp:144] Setting up intercept
I0506 13:22:23.394053 21591 net.cpp:151] Top shape: 20 1 10 10 (2000)
I0506 13:22:23.394058 21591 net.cpp:151] Top shape: 20 (20)
I0506 13:22:23.394062 21591 net.cpp:159] Memory required for data: 8080
I0506 13:22:23.394068 21591 layer_factory.hpp:77] Creating layer label_intercept_1_split
I0506 13:22:23.394088 21591 net.cpp:94] Creating Layer label_intercept_1_split
I0506 13:22:23.394091 21591 net.cpp:435] label_intercept_1_split <- label
I0506 13:22:23.394098 21591 net.cpp:409] label_intercept_1_split -> label_intercept_1_split_0
I0506 13:22:23.394105 21591 net.cpp:409] label_intercept_1_split -> label_intercept_1_split_1
I0506 13:22:23.394146 21591 net.cpp:144] Setting up label_intercept_1_split
I0506 13:22:23.394152 21591 net.cpp:151] Top shape: 20 (20)
I0506 13:22:23.394156 21591 net.cpp:151] Top shape: 20 (20)
I0506 13:22:23.394160 21591 net.cpp:159] Memory required for data: 8240
I0506 13:22:23.394162 21591 layer_factory.hpp:77] Creating layer conv1
I0506 13:22:23.394173 21591 net.cpp:94] Creating Layer conv1
I0506 13:22:23.394177 21591 net.cpp:435] conv1 <- data
I0506 13:22:23.394182 21591 net.cpp:409] conv1 -> conv1
I0506 13:22:23.395025 21591 net.cpp:144] Setting up conv1
I0506 13:22:23.395038 21591 net.cpp:151] Top shape: 20 64 10 10 (128000)
I0506 13:22:23.395042 21591 net.cpp:159] Memory required for data: 520240
I0506 13:22:23.395052 21591 layer_factory.hpp:77] Creating layer relu1
I0506 13:22:23.395059 21591 net.cpp:94] Creating Layer relu1
I0506 13:22:23.395062 21591 net.cpp:435] relu1 <- conv1
I0506 13:22:23.395067 21591 net.cpp:396] relu1 -> conv1 (in-place)
I0506 13:22:23.395073 21591 net.cpp:144] Setting up relu1
I0506 13:22:23.395078 21591 net.cpp:151] Top shape: 20 64 10 10 (128000)
I0506 13:22:23.395090 21591 net.cpp:159] Memory required for data: 1032240
I0506 13:22:23.395093 21591 layer_factory.hpp:77] Creating layer conv2
I0506 13:22:23.395102 21591 net.cpp:94] Creating Layer conv2
I0506 13:22:23.395105 21591 net.cpp:435] conv2 <- conv1
I0506 13:22:23.395110 21591 net.cpp:409] conv2 -> conv2
I0506 13:22:23.399216 21591 net.cpp:144] Setting up conv2
I0506 13:22:23.399230 21591 net.cpp:151] Top shape: 20 64 10 10 (128000)
I0506 13:22:23.399235 21591 net.cpp:159] Memory required for data: 1544240
I0506 13:22:23.399242 21591 layer_factory.hpp:77] Creating layer relu2
I0506 13:22:23.399248 21591 net.cpp:94] Creating Layer relu2
I0506 13:22:23.399252 21591 net.cpp:435] relu2 <- conv2
I0506 13:22:23.399258 21591 net.cpp:396] relu2 -> conv2 (in-place)
I0506 13:22:23.399265 21591 net.cpp:144] Setting up relu2
I0506 13:22:23.399269 21591 net.cpp:151] Top shape: 20 64 10 10 (128000)
I0506 13:22:23.399272 21591 net.cpp:159] Memory required for data: 2056240
I0506 13:22:23.399276 21591 layer_factory.hpp:77] Creating layer pool2
I0506 13:22:23.399281 21591 net.cpp:94] Creating Layer pool2
I0506 13:22:23.399284 21591 net.cpp:435] pool2 <- conv2
I0506 13:22:23.399289 21591 net.cpp:409] pool2 -> pool2
I0506 13:22:23.399346 21591 net.cpp:144] Setting up pool2
I0506 13:22:23.399354 21591 net.cpp:151] Top shape: 20 64 5 5 (32000)
I0506 13:22:23.399358 21591 net.cpp:159] Memory required for data: 2184240
I0506 13:22:23.399360 21591 layer_factory.hpp:77] Creating layer conv3
I0506 13:22:23.399370 21591 net.cpp:94] Creating Layer conv3
I0506 13:22:23.399374 21591 net.cpp:435] conv3 <- pool2
I0506 13:22:23.399379 21591 net.cpp:409] conv3 -> conv3
I0506 13:22:23.405500 21591 net.cpp:144] Setting up conv3
I0506 13:22:23.405514 21591 net.cpp:151] Top shape: 20 128 5 5 (64000)
I0506 13:22:23.405517 21591 net.cpp:159] Memory required for data: 2440240
I0506 13:22:23.405525 21591 layer_factory.hpp:77] Creating layer relu3
I0506 13:22:23.405534 21591 net.cpp:94] Creating Layer relu3
I0506 13:22:23.405539 21591 net.cpp:435] relu3 <- conv3
I0506 13:22:23.405542 21591 net.cpp:396] relu3 -> conv3 (in-place)
I0506 13:22:23.405550 21591 net.cpp:144] Setting up relu3
I0506 13:22:23.405553 21591 net.cpp:151] Top shape: 20 128 5 5 (64000)
I0506 13:22:23.405556 21591 net.cpp:159] Memory required for data: 2696240
I0506 13:22:23.405560 21591 layer_factory.hpp:77] Creating layer conv4
I0506 13:22:23.405568 21591 net.cpp:94] Creating Layer conv4
I0506 13:22:23.405571 21591 net.cpp:435] conv4 <- conv3
I0506 13:22:23.405577 21591 net.cpp:409] conv4 -> conv4
I0506 13:22:23.418403 21591 net.cpp:144] Setting up conv4
I0506 13:22:23.418421 21591 net.cpp:151] Top shape: 20 128 5 5 (64000)
I0506 13:22:23.418424 21591 net.cpp:159] Memory required for data: 2952240
I0506 13:22:23.418431 21591 layer_factory.hpp:77] Creating layer relu4
I0506 13:22:23.418437 21591 net.cpp:94] Creating Layer relu4
I0506 13:22:23.418442 21591 net.cpp:435] relu4 <- conv4
I0506 13:22:23.418445 21591 net.cpp:396] relu4 -> conv4 (in-place)
I0506 13:22:23.418453 21591 net.cpp:144] Setting up relu4
I0506 13:22:23.418457 21591 net.cpp:151] Top shape: 20 128 5 5 (64000)
I0506 13:22:23.418460 21591 net.cpp:159] Memory required for data: 3208240
I0506 13:22:23.418463 21591 layer_factory.hpp:77] Creating layer conv5
I0506 13:22:23.418473 21591 net.cpp:94] Creating Layer conv5
I0506 13:22:23.418476 21591 net.cpp:435] conv5 <- conv4
I0506 13:22:23.418483 21591 net.cpp:409] conv5 -> conv5
I0506 13:22:23.431033 21591 net.cpp:144] Setting up conv5
I0506 13:22:23.431048 21591 net.cpp:151] Top shape: 20 128 5 5 (64000)
I0506 13:22:23.431052 21591 net.cpp:159] Memory required for data: 3464240
I0506 13:22:23.431061 21591 layer_factory.hpp:77] Creating layer relu5
I0506 13:22:23.431068 21591 net.cpp:94] Creating Layer relu5
I0506 13:22:23.431072 21591 net.cpp:435] relu5 <- conv5
I0506 13:22:23.431077 21591 net.cpp:396] relu5 -> conv5 (in-place)
I0506 13:22:23.431084 21591 net.cpp:144] Setting up relu5
I0506 13:22:23.431088 21591 net.cpp:151] Top shape: 20 128 5 5 (64000)
I0506 13:22:23.431097 21591 net.cpp:159] Memory required for data: 3720240
I0506 13:22:23.431102 21591 layer_factory.hpp:77] Creating layer pool5
I0506 13:22:23.431108 21591 net.cpp:94] Creating Layer pool5
I0506 13:22:23.431112 21591 net.cpp:435] pool5 <- conv5
I0506 13:22:23.431115 21591 net.cpp:409] pool5 -> pool5
I0506 13:22:23.431154 21591 net.cpp:144] Setting up pool5
I0506 13:22:23.431162 21591 net.cpp:151] Top shape: 20 128 2 2 (10240)
I0506 13:22:23.431165 21591 net.cpp:159] Memory required for data: 3761200
I0506 13:22:23.431169 21591 layer_factory.hpp:77] Creating layer ip1
I0506 13:22:23.431176 21591 net.cpp:94] Creating Layer ip1
I0506 13:22:23.431180 21591 net.cpp:435] ip1 <- pool5
I0506 13:22:23.431185 21591 net.cpp:409] ip1 -> ip1
I0506 13:22:23.444365 21591 net.cpp:144] Setting up ip1
I0506 13:22:23.444380 21591 net.cpp:151] Top shape: 20 1024 (20480)
I0506 13:22:23.444383 21591 net.cpp:159] Memory required for data: 3843120
I0506 13:22:23.444391 21591 layer_factory.hpp:77] Creating layer ip2
I0506 13:22:23.444399 21591 net.cpp:94] Creating Layer ip2
I0506 13:22:23.444402 21591 net.cpp:435] ip2 <- ip1
I0506 13:22:23.444407 21591 net.cpp:409] ip2 -> ip2
I0506 13:22:23.457564 21591 net.cpp:144] Setting up ip2
I0506 13:22:23.457581 21591 net.cpp:151] Top shape: 20 512 (10240)
I0506 13:22:23.457583 21591 net.cpp:159] Memory required for data: 3884080
I0506 13:22:23.457589 21591 layer_factory.hpp:77] Creating layer ip3
I0506 13:22:23.457600 21591 net.cpp:94] Creating Layer ip3
I0506 13:22:23.457604 21591 net.cpp:435] ip3 <- ip2
I0506 13:22:23.457609 21591 net.cpp:409] ip3 -> ip3
I0506 13:22:23.458343 21591 net.cpp:144] Setting up ip3
I0506 13:22:23.458351 21591 net.cpp:151] Top shape: 20 50 (1000)
I0506 13:22:23.458354 21591 net.cpp:159] Memory required for data: 3888080
I0506 13:22:23.458359 21591 layer_factory.hpp:77] Creating layer ip3_ip3_0_split
I0506 13:22:23.458365 21591 net.cpp:94] Creating Layer ip3_ip3_0_split
I0506 13:22:23.458369 21591 net.cpp:435] ip3_ip3_0_split <- ip3
I0506 13:22:23.458372 21591 net.cpp:409] ip3_ip3_0_split -> ip3_ip3_0_split_0
I0506 13:22:23.458379 21591 net.cpp:409] ip3_ip3_0_split -> ip3_ip3_0_split_1
I0506 13:22:23.458422 21591 net.cpp:144] Setting up ip3_ip3_0_split
I0506 13:22:23.458428 21591 net.cpp:151] Top shape: 20 50 (1000)
I0506 13:22:23.458432 21591 net.cpp:151] Top shape: 20 50 (1000)
I0506 13:22:23.458436 21591 net.cpp:159] Memory required for data: 3896080
I0506 13:22:23.458438 21591 layer_factory.hpp:77] Creating layer accuracy
I0506 13:22:23.458444 21591 net.cpp:94] Creating Layer accuracy
I0506 13:22:23.458447 21591 net.cpp:435] accuracy <- ip3_ip3_0_split_0
I0506 13:22:23.458451 21591 net.cpp:435] accuracy <- label_intercept_1_split_0
I0506 13:22:23.458456 21591 net.cpp:409] accuracy -> accuracy
…
