…
I0503 12:07:47.620829 20593 net.cpp:323] The NetState phase (0) differed from the phase (1) specified by a rule in layer intercept
I0503 12:07:47.620846 20593 net.cpp:323] The NetState phase (0) differed from the phase (1) specified by a rule in layer accuracy
I0503 12:07:47.620939 20593 net.cpp:52] Initializing net from parameters: 
state {
  phase: TRAIN
}
layer {
  name: "parameters"
  type: "HDF5Data"
  top: "data"
  top: "label"
  include {
    phase: TRAIN
  }
  hdf5_data_param {
    source: "/home/purduethu/scratch/radon/d/deng106/CNNStatisticalModel/distributions/input/5_distributions_900_sample_size_train-distributions-path.txt"
    batch_size: 20
  }
}
layer {
  name: "conv1"
  type: "Convolution"
  bottom: "data"
  top: "conv1"
  param {
    lr_mult: 1
  }
  param {
    lr_mult: 2
  }
  convolution_param {
    num_output: 64
    pad: 2
    kernel_size: 5
    stride: 1
    weight_filler {
      type: "gaussian"
      std: 0.0001
    }
    bias_filler {
      type: "constant"
    }
  }
}
layer {
  name: "relu1"
  type: "ReLU"
  bottom: "conv1"
  top: "conv1"
}
layer {
  name: "conv2"
  type: "Convolution"
  bottom: "conv1"
  top: "conv2"
  param {
    lr_mult: 1
  }
  param {
    lr_mult: 2
  }
  convolution_param {
    num_output: 64
    pad: 2
    kernel_size: 5
    stride: 1
    weight_filler {
      type: "gaussian"
      std: 0.01
    }
    bias_filler {
      type: "constant"
    }
  }
}
layer {
  name: "relu2"
  type: "ReLU"
  bottom: "conv2"
  top: "conv2"
}
layer {
  name: "pool2"
  type: "Pooling"
  bottom: "conv2"
  top: "pool2"
  pooling_param {
    pool: MAX
    kernel_size: 3
    stride: 2
  }
}
layer {
  name: "conv3"
  type: "Convolution"
  bottom: "pool2"
  top: "conv3"
  param {
    lr_mult: 1
  }
  param {
    lr_mult: 2
  }
  convolution_param {
    num_output: 128
    pad: 2
    kernel_size: 5
    stride: 1
    weight_filler {
      type: "gaussian"
      std: 0.01
    }
    bias_filler {
      type: "constant"
    }
  }
}
layer {
  name: "relu3"
  type: "ReLU"
  bottom: "conv3"
  top: "conv3"
}
layer {
  name: "conv4"
  type: "Convolution"
  bottom: "conv3"
  top: "conv4"
  param {
    lr_mult: 1
  }
  param {
    lr_mult: 2
  }
  convolution_param {
    num_output: 128
    pad: 2
    kernel_size: 5
    stride: 1
    weight_filler {
      type: "gaussian"
      std: 0.01
    }
    bias_filler {
      type: "constant"
    }
  }
}
layer {
  name: "relu4"
  type: "ReLU"
  bottom: "conv4"
  top: "conv4"
}
layer {
  name: "conv5"
  type: "Convolution"
  bottom: "conv4"
  top: "conv5"
  param {
    lr_mult: 1
  }
  param {
    lr_mult: 2
  }
  convolution_param {
    num_output: 128
    pad: 2
    kernel_size: 5
    stride: 1
    weight_filler {
      type: "gaussian"
      std: 0.01
    }
    bias_filler {
      type: "constant"
    }
  }
}
layer {
  name: "relu5"
  type: "ReLU"
  bottom: "conv5"
  top: "conv5"
}
layer {
  name: "pool5"
  type: "Pooling"
  bottom: "conv5"
  top: "pool5"
  pooling_param {
    pool: AVE
    kernel_size: 3
    stride: 2
  }
}
layer {
  name: "ip1"
  type: "InnerProduct"
  bottom: "pool5"
  top: "ip1"
  param {
    lr_mult: 1
  }
  param {
    lr_mult: 2
  }
  inner_product_param {
    num_output: 1024
    weight_filler {
      type: "gaussian"
      std: 0.1
    }
    bias_filler {
      type: "constant"
    }
  }
}
layer {
  name: "ip2"
  type: "InnerProduct"
  bottom: "ip1"
  top: "ip2"
  param {
    lr_mult: 1
  }
  param {
    lr_mult: 2
  }
  inner_product_param {
    num_output: 512
    weight_filler {
      type: "gaussian"
      std: 0.1
    }
    bias_filler {
      type: "constant"
    }
  }
}
layer {
  name: "ip3"
  type: "InnerProduct"
  bottom: "ip2"
  top: "ip3"
  param {
    lr_mult: 1
  }
  param {
    lr_mult: 2
  }
  inner_product_param {
    num_output: 50
    weight_filler {
      type: "gaussian"
      std: 0.1
    }
    bias_filler {
      type: "constant"
    }
  }
}
layer {
  name: "loss"
  type: "SoftmaxWithLoss"
  bottom: "ip3"
  bottom: "label"
  top: "loss"
}
I0503 12:07:47.621014 20593 layer_factory.hpp:77] Creating layer parameters
I0503 12:07:47.621029 20593 net.cpp:94] Creating Layer parameters
I0503 12:07:47.621035 20593 net.cpp:409] parameters -> data
I0503 12:07:47.621055 20593 net.cpp:409] parameters -> label
I0503 12:07:47.621065 20593 hdf5_data_layer.cpp:79] Loading list of HDF5 filenames from: /home/purduethu/scratch/radon/d/deng106/CNNStatisticalModel/distributions/input/5_distributions_900_sample_size_train-distributions-path.txt
I0503 12:07:47.621088 20593 hdf5_data_layer.cpp:93] Number of HDF5 files: 1
I0503 12:07:47.621577 20593 hdf5.cpp:32] Datatype class: H5T_FLOAT
I0503 12:07:47.758596 20593 hdf5.cpp:35] Datatype class: H5T_INTEGER
I0503 12:07:47.759728 20593 net.cpp:144] Setting up parameters
I0503 12:07:47.759747 20593 net.cpp:151] Top shape: 20 1 30 30 (18000)
I0503 12:07:47.759752 20593 net.cpp:151] Top shape: 20 (20)
I0503 12:07:47.759757 20593 net.cpp:159] Memory required for data: 72080
I0503 12:07:47.759764 20593 layer_factory.hpp:77] Creating layer conv1
I0503 12:07:47.759788 20593 net.cpp:94] Creating Layer conv1
I0503 12:07:47.759793 20593 net.cpp:435] conv1 <- data
I0503 12:07:47.759804 20593 net.cpp:409] conv1 -> conv1
I0503 12:07:47.765764 20593 net.cpp:144] Setting up conv1
I0503 12:07:47.765781 20593 net.cpp:151] Top shape: 20 64 30 30 (1152000)
I0503 12:07:47.765786 20593 net.cpp:159] Memory required for data: 4680080
I0503 12:07:47.765797 20593 layer_factory.hpp:77] Creating layer relu1
I0503 12:07:47.765805 20593 net.cpp:94] Creating Layer relu1
I0503 12:07:47.765810 20593 net.cpp:435] relu1 <- conv1
I0503 12:07:47.765815 20593 net.cpp:396] relu1 -> conv1 (in-place)
I0503 12:07:47.765830 20593 net.cpp:144] Setting up relu1
I0503 12:07:47.765836 20593 net.cpp:151] Top shape: 20 64 30 30 (1152000)
I0503 12:07:47.765838 20593 net.cpp:159] Memory required for data: 9288080
I0503 12:07:47.765841 20593 layer_factory.hpp:77] Creating layer conv2
I0503 12:07:47.765849 20593 net.cpp:94] Creating Layer conv2
I0503 12:07:47.765853 20593 net.cpp:435] conv2 <- conv1
I0503 12:07:47.765858 20593 net.cpp:409] conv2 -> conv2
I0503 12:07:47.781172 20593 net.cpp:144] Setting up conv2
I0503 12:07:47.781188 20593 net.cpp:151] Top shape: 20 64 30 30 (1152000)
I0503 12:07:47.781193 20593 net.cpp:159] Memory required for data: 13896080
I0503 12:07:47.781201 20593 layer_factory.hpp:77] Creating layer relu2
I0503 12:07:47.781208 20593 net.cpp:94] Creating Layer relu2
I0503 12:07:47.781213 20593 net.cpp:435] relu2 <- conv2
I0503 12:07:47.781216 20593 net.cpp:396] relu2 -> conv2 (in-place)
I0503 12:07:47.781224 20593 net.cpp:144] Setting up relu2
I0503 12:07:47.781229 20593 net.cpp:151] Top shape: 20 64 30 30 (1152000)
I0503 12:07:47.781231 20593 net.cpp:159] Memory required for data: 18504080
I0503 12:07:47.781235 20593 layer_factory.hpp:77] Creating layer pool2
I0503 12:07:47.781250 20593 net.cpp:94] Creating Layer pool2
I0503 12:07:47.781253 20593 net.cpp:435] pool2 <- conv2
I0503 12:07:47.781258 20593 net.cpp:409] pool2 -> pool2
I0503 12:07:47.781303 20593 net.cpp:144] Setting up pool2
I0503 12:07:47.781311 20593 net.cpp:151] Top shape: 20 64 15 15 (288000)
I0503 12:07:47.781314 20593 net.cpp:159] Memory required for data: 19656080
I0503 12:07:47.781318 20593 layer_factory.hpp:77] Creating layer conv3
I0503 12:07:47.781327 20593 net.cpp:94] Creating Layer conv3
I0503 12:07:47.781329 20593 net.cpp:435] conv3 <- pool2
I0503 12:07:47.781342 20593 net.cpp:409] conv3 -> conv3
I0503 12:07:47.793843 20593 net.cpp:144] Setting up conv3
I0503 12:07:47.793859 20593 net.cpp:151] Top shape: 20 128 15 15 (576000)
I0503 12:07:47.793864 20593 net.cpp:159] Memory required for data: 21960080
I0503 12:07:47.793872 20593 layer_factory.hpp:77] Creating layer relu3
I0503 12:07:47.793879 20593 net.cpp:94] Creating Layer relu3
I0503 12:07:47.793884 20593 net.cpp:435] relu3 <- conv3
I0503 12:07:47.793889 20593 net.cpp:396] relu3 -> conv3 (in-place)
I0503 12:07:47.793895 20593 net.cpp:144] Setting up relu3
I0503 12:07:47.793900 20593 net.cpp:151] Top shape: 20 128 15 15 (576000)
I0503 12:07:47.793903 20593 net.cpp:159] Memory required for data: 24264080
I0503 12:07:47.793906 20593 layer_factory.hpp:77] Creating layer conv4
I0503 12:07:47.793915 20593 net.cpp:94] Creating Layer conv4
I0503 12:07:47.793918 20593 net.cpp:435] conv4 <- conv3
I0503 12:07:47.793923 20593 net.cpp:409] conv4 -> conv4
I0503 12:07:47.815907 20593 net.cpp:144] Setting up conv4
I0503 12:07:47.815923 20593 net.cpp:151] Top shape: 20 128 15 15 (576000)
I0503 12:07:47.815927 20593 net.cpp:159] Memory required for data: 26568080
I0503 12:07:47.815933 20593 layer_factory.hpp:77] Creating layer relu4
I0503 12:07:47.815939 20593 net.cpp:94] Creating Layer relu4
I0503 12:07:47.815943 20593 net.cpp:435] relu4 <- conv4
I0503 12:07:47.815948 20593 net.cpp:396] relu4 -> conv4 (in-place)
I0503 12:07:47.815956 20593 net.cpp:144] Setting up relu4
I0503 12:07:47.815960 20593 net.cpp:151] Top shape: 20 128 15 15 (576000)
I0503 12:07:47.815964 20593 net.cpp:159] Memory required for data: 28872080
I0503 12:07:47.815968 20593 layer_factory.hpp:77] Creating layer conv5
I0503 12:07:47.815975 20593 net.cpp:94] Creating Layer conv5
I0503 12:07:47.815979 20593 net.cpp:435] conv5 <- conv4
I0503 12:07:47.815984 20593 net.cpp:409] conv5 -> conv5
I0503 12:07:47.837530 20593 net.cpp:144] Setting up conv5
I0503 12:07:47.837548 20593 net.cpp:151] Top shape: 20 128 15 15 (576000)
I0503 12:07:47.837551 20593 net.cpp:159] Memory required for data: 31176080
I0503 12:07:47.837560 20593 layer_factory.hpp:77] Creating layer relu5
I0503 12:07:47.837568 20593 net.cpp:94] Creating Layer relu5
I0503 12:07:47.837570 20593 net.cpp:435] relu5 <- conv5
I0503 12:07:47.837575 20593 net.cpp:396] relu5 -> conv5 (in-place)
I0503 12:07:47.837582 20593 net.cpp:144] Setting up relu5
I0503 12:07:47.837587 20593 net.cpp:151] Top shape: 20 128 15 15 (576000)
I0503 12:07:47.837590 20593 net.cpp:159] Memory required for data: 33480080
I0503 12:07:47.837594 20593 layer_factory.hpp:77] Creating layer pool5
I0503 12:07:47.837599 20593 net.cpp:94] Creating Layer pool5
I0503 12:07:47.837602 20593 net.cpp:435] pool5 <- conv5
I0503 12:07:47.837607 20593 net.cpp:409] pool5 -> pool5
I0503 12:07:47.837643 20593 net.cpp:144] Setting up pool5
I0503 12:07:47.837651 20593 net.cpp:151] Top shape: 20 128 7 7 (125440)
I0503 12:07:47.837654 20593 net.cpp:159] Memory required for data: 33981840
I0503 12:07:47.837658 20593 layer_factory.hpp:77] Creating layer ip1
I0503 12:07:47.837667 20593 net.cpp:94] Creating Layer ip1
I0503 12:07:47.837671 20593 net.cpp:435] ip1 <- pool5
I0503 12:07:47.837677 20593 net.cpp:409] ip1 -> ip1
I0503 12:07:48.000273 20593 net.cpp:144] Setting up ip1
I0503 12:07:48.000295 20593 net.cpp:151] Top shape: 20 1024 (20480)
I0503 12:07:48.000299 20593 net.cpp:159] Memory required for data: 34063760
I0503 12:07:48.000308 20593 layer_factory.hpp:77] Creating layer ip2
I0503 12:07:48.000325 20593 net.cpp:94] Creating Layer ip2
I0503 12:07:48.000330 20593 net.cpp:435] ip2 <- ip1
I0503 12:07:48.000337 20593 net.cpp:409] ip2 -> ip2
I0503 12:07:48.013928 20593 net.cpp:144] Setting up ip2
I0503 12:07:48.013943 20593 net.cpp:151] Top shape: 20 512 (10240)
I0503 12:07:48.013947 20593 net.cpp:159] Memory required for data: 34104720
I0503 12:07:48.013953 20593 layer_factory.hpp:77] Creating layer ip3
I0503 12:07:48.013960 20593 net.cpp:94] Creating Layer ip3
I0503 12:07:48.013963 20593 net.cpp:435] ip3 <- ip2
I0503 12:07:48.013969 20593 net.cpp:409] ip3 -> ip3
I0503 12:07:48.014688 20593 net.cpp:144] Setting up ip3
I0503 12:07:48.014696 20593 net.cpp:151] Top shape: 20 50 (1000)
I0503 12:07:48.014699 20593 net.cpp:159] Memory required for data: 34108720
I0503 12:07:48.014705 20593 layer_factory.hpp:77] Creating layer loss
I0503 12:07:48.014714 20593 net.cpp:94] Creating Layer loss
I0503 12:07:48.014716 20593 net.cpp:435] loss <- ip3
I0503 12:07:48.014720 20593 net.cpp:435] loss <- label
I0503 12:07:48.014727 20593 net.cpp:409] loss -> loss
I0503 12:07:48.014744 20593 layer_factory.hpp:77] Creating layer loss
…
I0503 12:07:48.015259 20593 solver.cpp:181] Creating test net (#0) specified by net file: ./protocol/dis_5_900_dimension.protocol_distribution
I0503 12:07:48.015288 20593 net.cpp:323] The NetState phase (1) differed from the phase (0) specified by a rule in layer parameters
I0503 12:07:48.015386 20593 net.cpp:52] Initializing net from parameters: 
state {
  phase: TEST
}
layer {
  name: "intercept"
  type: "HDF5Data"
  top: "data"
  top: "label"
  include {
    phase: TEST
  }
  hdf5_data_param {
    source: "/home/purduethu/scratch/radon/d/deng106/CNNStatisticalModel/distributions/input/5_distributions_900_sample_size_test-distributions-path.txt"
    batch_size: 20
  }
}
layer {
  name: "conv1"
  type: "Convolution"
  bottom: "data"
  top: "conv1"
  param {
    lr_mult: 1
  }
  param {
    lr_mult: 2
  }
  convolution_param {
    num_output: 64
    pad: 2
    kernel_size: 5
    stride: 1
    weight_filler {
      type: "gaussian"
      std: 0.0001
    }
    bias_filler {
      type: "constant"
    }
  }
}
layer {
  name: "relu1"
  type: "ReLU"
  bottom: "conv1"
  top: "conv1"
}
layer {
  name: "conv2"
  type: "Convolution"
  bottom: "conv1"
  top: "conv2"
  param {
    lr_mult: 1
  }
  param {
    lr_mult: 2
  }
  convolution_param {
    num_output: 64
    pad: 2
    kernel_size: 5
    stride: 1
    weight_filler {
      type: "gaussian"
      std: 0.01
    }
    bias_filler {
      type: "constant"
    }
  }
}
layer {
  name: "relu2"
  type: "ReLU"
  bottom: "conv2"
  top: "conv2"
}
layer {
  name: "pool2"
  type: "Pooling"
  bottom: "conv2"
  top: "pool2"
  pooling_param {
    pool: MAX
    kernel_size: 3
    stride: 2
  }
}
layer {
  name: "conv3"
  type: "Convolution"
  bottom: "pool2"
  top: "conv3"
  param {
    lr_mult: 1
  }
  param {
    lr_mult: 2
  }
  convolution_param {
    num_output: 128
    pad: 2
    kernel_size: 5
    stride: 1
    weight_filler {
      type: "gaussian"
      std: 0.01
    }
    bias_filler {
      type: "constant"
    }
  }
}
layer {
  name: "relu3"
  type: "ReLU"
  bottom: "conv3"
  top: "conv3"
}
layer {
  name: "conv4"
  type: "Convolution"
  bottom: "conv3"
  top: "conv4"
  param {
    lr_mult: 1
  }
  param {
    lr_mult: 2
  }
  convolution_param {
    num_output: 128
    pad: 2
    kernel_size: 5
    stride: 1
    weight_filler {
      type: "gaussian"
      std: 0.01
    }
    bias_filler {
      type: "constant"
    }
  }
}
layer {
  name: "relu4"
  type: "ReLU"
  bottom: "conv4"
  top: "conv4"
}
layer {
  name: "conv5"
  type: "Convolution"
  bottom: "conv4"
  top: "conv5"
  param {
    lr_mult: 1
  }
  param {
    lr_mult: 2
  }
  convolution_param {
    num_output: 128
    pad: 2
    kernel_size: 5
    stride: 1
    weight_filler {
      type: "gaussian"
      std: 0.01
    }
    bias_filler {
      type: "constant"
    }
  }
}
layer {
  name: "relu5"
  type: "ReLU"
  bottom: "conv5"
  top: "conv5"
}
layer {
  name: "pool5"
  type: "Pooling"
  bottom: "conv5"
  top: "pool5"
  pooling_param {
    pool: AVE
    kernel_size: 3
    stride: 2
  }
}
layer {
  name: "ip1"
  type: "InnerProduct"
  bottom: "pool5"
  top: "ip1"
  param {
    lr_mult: 1
  }
  param {
    lr_mult: 2
  }
  inner_product_param {
    num_output: 1024
    weight_filler {
      type: "gaussian"
      std: 0.1
    }
    bias_filler {
      type: "constant"
    }
  }
}
layer {
  name: "ip2"
  type: "InnerProduct"
  bottom: "ip1"
  top: "ip2"
  param {
    lr_mult: 1
  }
  param {
    lr_mult: 2
  }
  inner_product_param {
    num_output: 512
    weight_filler {
      type: "gaussian"
      std: 0.1
    }
    bias_filler {
      type: "constant"
    }
  }
}
layer {
  name: "ip3"
  type: "InnerProduct"
  bottom: "ip2"
  top: "ip3"
  param {
    lr_mult: 1
  }
  param {
    lr_mult: 2
  }
  inner_product_param {
    num_output: 50
    weight_filler {
      type: "gaussian"
      std: 0.1
    }
    bias_filler {
      type: "constant"
    }
  }
}
layer {
  name: "accuracy"
  type: "Accuracy"
  bottom: "ip3"
  bottom: "label"
  top: "accuracy"
  include {
    phase: TEST
  }
}
layer {
  name: "loss"
  type: "SoftmaxWithLoss"
  bottom: "ip3"
  bottom: "label"
  top: "loss"
}
I0503 12:07:48.015461 20593 layer_factory.hpp:77] Creating layer intercept
I0503 12:07:48.015470 20593 net.cpp:94] Creating Layer intercept
I0503 12:07:48.015475 20593 net.cpp:409] intercept -> data
I0503 12:07:48.015481 20593 net.cpp:409] intercept -> label
I0503 12:07:48.015488 20593 hdf5_data_layer.cpp:79] Loading list of HDF5 filenames from: /home/purduethu/scratch/radon/d/deng106/CNNStatisticalModel/distributions/input/5_distributions_900_sample_size_test-distributions-path.txt
I0503 12:07:48.015507 20593 hdf5_data_layer.cpp:93] Number of HDF5 files: 1
I0503 12:07:48.052013 20593 net.cpp:144] Setting up intercept
I0503 12:07:48.052043 20593 net.cpp:151] Top shape: 20 1 30 30 (18000)
I0503 12:07:48.052048 20593 net.cpp:151] Top shape: 20 (20)
I0503 12:07:48.052052 20593 net.cpp:159] Memory required for data: 72080
I0503 12:07:48.052058 20593 layer_factory.hpp:77] Creating layer label_intercept_1_split
I0503 12:07:48.052075 20593 net.cpp:94] Creating Layer label_intercept_1_split
I0503 12:07:48.052080 20593 net.cpp:435] label_intercept_1_split <- label
I0503 12:07:48.052088 20593 net.cpp:409] label_intercept_1_split -> label_intercept_1_split_0
I0503 12:07:48.052095 20593 net.cpp:409] label_intercept_1_split -> label_intercept_1_split_1
I0503 12:07:48.052130 20593 net.cpp:144] Setting up label_intercept_1_split
I0503 12:07:48.052137 20593 net.cpp:151] Top shape: 20 (20)
I0503 12:07:48.052140 20593 net.cpp:151] Top shape: 20 (20)
I0503 12:07:48.052145 20593 net.cpp:159] Memory required for data: 72240
I0503 12:07:48.052147 20593 layer_factory.hpp:77] Creating layer conv1
I0503 12:07:48.052158 20593 net.cpp:94] Creating Layer conv1
I0503 12:07:48.052162 20593 net.cpp:435] conv1 <- data
I0503 12:07:48.052167 20593 net.cpp:409] conv1 -> conv1
I0503 12:07:48.053417 20593 net.cpp:144] Setting up conv1
I0503 12:07:48.053432 20593 net.cpp:151] Top shape: 20 64 30 30 (1152000)
I0503 12:07:48.053436 20593 net.cpp:159] Memory required for data: 4680240
I0503 12:07:48.053445 20593 layer_factory.hpp:77] Creating layer relu1
I0503 12:07:48.053452 20593 net.cpp:94] Creating Layer relu1
I0503 12:07:48.053457 20593 net.cpp:435] relu1 <- conv1
I0503 12:07:48.053460 20593 net.cpp:396] relu1 -> conv1 (in-place)
I0503 12:07:48.053468 20593 net.cpp:144] Setting up relu1
I0503 12:07:48.053473 20593 net.cpp:151] Top shape: 20 64 30 30 (1152000)
I0503 12:07:48.053477 20593 net.cpp:159] Memory required for data: 9288240
I0503 12:07:48.053479 20593 layer_factory.hpp:77] Creating layer conv2
I0503 12:07:48.053488 20593 net.cpp:94] Creating Layer conv2
I0503 12:07:48.053491 20593 net.cpp:435] conv2 <- conv1
I0503 12:07:48.053496 20593 net.cpp:409] conv2 -> conv2
I0503 12:07:48.059798 20593 net.cpp:144] Setting up conv2
I0503 12:07:48.059813 20593 net.cpp:151] Top shape: 20 64 30 30 (1152000)
I0503 12:07:48.059818 20593 net.cpp:159] Memory required for data: 13896240
I0503 12:07:48.059825 20593 layer_factory.hpp:77] Creating layer relu2
I0503 12:07:48.059831 20593 net.cpp:94] Creating Layer relu2
I0503 12:07:48.059835 20593 net.cpp:435] relu2 <- conv2
I0503 12:07:48.059840 20593 net.cpp:396] relu2 -> conv2 (in-place)
I0503 12:07:48.059847 20593 net.cpp:144] Setting up relu2
I0503 12:07:48.059852 20593 net.cpp:151] Top shape: 20 64 30 30 (1152000)
I0503 12:07:48.059855 20593 net.cpp:159] Memory required for data: 18504240
I0503 12:07:48.059859 20593 layer_factory.hpp:77] Creating layer pool2
I0503 12:07:48.059865 20593 net.cpp:94] Creating Layer pool2
I0503 12:07:48.059869 20593 net.cpp:435] pool2 <- conv2
I0503 12:07:48.059872 20593 net.cpp:409] pool2 -> pool2
I0503 12:07:48.059908 20593 net.cpp:144] Setting up pool2
I0503 12:07:48.059916 20593 net.cpp:151] Top shape: 20 64 15 15 (288000)
I0503 12:07:48.059918 20593 net.cpp:159] Memory required for data: 19656240
I0503 12:07:48.059922 20593 layer_factory.hpp:77] Creating layer conv3
I0503 12:07:48.059929 20593 net.cpp:94] Creating Layer conv3
I0503 12:07:48.059933 20593 net.cpp:435] conv3 <- pool2
I0503 12:07:48.059938 20593 net.cpp:409] conv3 -> conv3
I0503 12:07:48.067400 20593 net.cpp:144] Setting up conv3
I0503 12:07:48.067415 20593 net.cpp:151] Top shape: 20 128 15 15 (576000)
I0503 12:07:48.067420 20593 net.cpp:159] Memory required for data: 21960240
I0503 12:07:48.067428 20593 layer_factory.hpp:77] Creating layer relu3
I0503 12:07:48.067435 20593 net.cpp:94] Creating Layer relu3
I0503 12:07:48.067440 20593 net.cpp:435] relu3 <- conv3
I0503 12:07:48.067445 20593 net.cpp:396] relu3 -> conv3 (in-place)
I0503 12:07:48.067451 20593 net.cpp:144] Setting up relu3
I0503 12:07:48.067456 20593 net.cpp:151] Top shape: 20 128 15 15 (576000)
I0503 12:07:48.067459 20593 net.cpp:159] Memory required for data: 24264240
I0503 12:07:48.067462 20593 layer_factory.hpp:77] Creating layer conv4
I0503 12:07:48.067471 20593 net.cpp:94] Creating Layer conv4
I0503 12:07:48.067474 20593 net.cpp:435] conv4 <- conv3
I0503 12:07:48.067479 20593 net.cpp:409] conv4 -> conv4
I0503 12:07:48.082593 20593 net.cpp:144] Setting up conv4
I0503 12:07:48.082609 20593 net.cpp:151] Top shape: 20 128 15 15 (576000)
I0503 12:07:48.082614 20593 net.cpp:159] Memory required for data: 26568240
I0503 12:07:48.082620 20593 layer_factory.hpp:77] Creating layer relu4
I0503 12:07:48.082626 20593 net.cpp:94] Creating Layer relu4
I0503 12:07:48.082635 20593 net.cpp:435] relu4 <- conv4
I0503 12:07:48.082640 20593 net.cpp:396] relu4 -> conv4 (in-place)
I0503 12:07:48.082648 20593 net.cpp:144] Setting up relu4
I0503 12:07:48.082653 20593 net.cpp:151] Top shape: 20 128 15 15 (576000)
I0503 12:07:48.082656 20593 net.cpp:159] Memory required for data: 28872240
I0503 12:07:48.082659 20593 layer_factory.hpp:77] Creating layer conv5
I0503 12:07:48.082667 20593 net.cpp:94] Creating Layer conv5
I0503 12:07:48.082671 20593 net.cpp:435] conv5 <- conv4
I0503 12:07:48.082676 20593 net.cpp:409] conv5 -> conv5
I0503 12:07:48.097358 20593 net.cpp:144] Setting up conv5
I0503 12:07:48.097373 20593 net.cpp:151] Top shape: 20 128 15 15 (576000)
I0503 12:07:48.097378 20593 net.cpp:159] Memory required for data: 31176240
I0503 12:07:48.097386 20593 layer_factory.hpp:77] Creating layer relu5
I0503 12:07:48.097393 20593 net.cpp:94] Creating Layer relu5
I0503 12:07:48.097396 20593 net.cpp:435] relu5 <- conv5
I0503 12:07:48.097401 20593 net.cpp:396] relu5 -> conv5 (in-place)
I0503 12:07:48.097409 20593 net.cpp:144] Setting up relu5
I0503 12:07:48.097412 20593 net.cpp:151] Top shape: 20 128 15 15 (576000)
I0503 12:07:48.097415 20593 net.cpp:159] Memory required for data: 33480240
I0503 12:07:48.097419 20593 layer_factory.hpp:77] Creating layer pool5
I0503 12:07:48.097424 20593 net.cpp:94] Creating Layer pool5
I0503 12:07:48.097426 20593 net.cpp:435] pool5 <- conv5
I0503 12:07:48.097431 20593 net.cpp:409] pool5 -> pool5
I0503 12:07:48.097457 20593 net.cpp:144] Setting up pool5
I0503 12:07:48.097465 20593 net.cpp:151] Top shape: 20 128 7 7 (125440)
I0503 12:07:48.097467 20593 net.cpp:159] Memory required for data: 33982000
I0503 12:07:48.097470 20593 layer_factory.hpp:77] Creating layer ip1
I0503 12:07:48.097477 20593 net.cpp:94] Creating Layer ip1
I0503 12:07:48.097481 20593 net.cpp:435] ip1 <- pool5
I0503 12:07:48.097486 20593 net.cpp:409] ip1 -> ip1
I0503 12:07:48.252022 20593 net.cpp:144] Setting up ip1
I0503 12:07:48.252058 20593 net.cpp:151] Top shape: 20 1024 (20480)
I0503 12:07:48.252063 20593 net.cpp:159] Memory required for data: 34063920
I0503 12:07:48.252071 20593 layer_factory.hpp:77] Creating layer ip2
I0503 12:07:48.252082 20593 net.cpp:94] Creating Layer ip2
I0503 12:07:48.252087 20593 net.cpp:435] ip2 <- ip1
I0503 12:07:48.252094 20593 net.cpp:409] ip2 -> ip2
I0503 12:07:48.265075 20593 net.cpp:144] Setting up ip2
I0503 12:07:48.265089 20593 net.cpp:151] Top shape: 20 512 (10240)
I0503 12:07:48.265092 20593 net.cpp:159] Memory required for data: 34104880
I0503 12:07:48.265099 20593 layer_factory.hpp:77] Creating layer ip3
I0503 12:07:48.265106 20593 net.cpp:94] Creating Layer ip3
I0503 12:07:48.265110 20593 net.cpp:435] ip3 <- ip2
I0503 12:07:48.265115 20593 net.cpp:409] ip3 -> ip3
I0503 12:07:48.265790 20593 net.cpp:144] Setting up ip3
I0503 12:07:48.265797 20593 net.cpp:151] Top shape: 20 50 (1000)
I0503 12:07:48.265800 20593 net.cpp:159] Memory required for data: 34108880
I0503 12:07:48.265805 20593 layer_factory.hpp:77] Creating layer ip3_ip3_0_split
I0503 12:07:48.265811 20593 net.cpp:94] Creating Layer ip3_ip3_0_split
I0503 12:07:48.265815 20593 net.cpp:435] ip3_ip3_0_split <- ip3
I0503 12:07:48.265820 20593 net.cpp:409] ip3_ip3_0_split -> ip3_ip3_0_split_0
I0503 12:07:48.265825 20593 net.cpp:409] ip3_ip3_0_split -> ip3_ip3_0_split_1
I0503 12:07:48.265849 20593 net.cpp:144] Setting up ip3_ip3_0_split
I0503 12:07:48.265856 20593 net.cpp:151] Top shape: 20 50 (1000)
I0503 12:07:48.265858 20593 net.cpp:151] Top shape: 20 50 (1000)
I0503 12:07:48.265861 20593 net.cpp:159] Memory required for data: 34116880
I0503 12:07:48.265864 20593 layer_factory.hpp:77] Creating layer accuracy
I0503 12:07:48.265871 20593 net.cpp:94] Creating Layer accuracy
I0503 12:07:48.265873 20593 net.cpp:435] accuracy <- ip3_ip3_0_split_0
I0503 12:07:48.265877 20593 net.cpp:435] accuracy <- label_intercept_1_split_0
I0503 12:07:48.265882 20593 net.cpp:409] accuracy -> accuracy
…
