…
I0504 00:11:49.016971 23106 net.cpp:323] The NetState phase (0) differed from the phase (1) specified by a rule in layer intercept
I0504 00:11:49.016988 23106 net.cpp:323] The NetState phase (0) differed from the phase (1) specified by a rule in layer loss
I0504 00:11:49.017066 23106 net.cpp:52] Initializing net from parameters: 
state {
  phase: TRAIN
}
layer {
  name: "parameters"
  type: "HDF5Data"
  top: "data"
  top: "label"
  include {
    phase: TRAIN
  }
  hdf5_data_param {
    source: "/home/purduethu/scratch/radon/d/deng106/CNNStatisticalModel/distributions/input/20_distributions_100_sample_size_train-parameters-path.txt"
    batch_size: 20
  }
}
layer {
  name: "conv1"
  type: "Convolution"
  bottom: "data"
  top: "conv1"
  param {
    lr_mult: 1
  }
  param {
    lr_mult: 2
  }
  convolution_param {
    num_output: 64
    pad: 2
    kernel_size: 5
    stride: 1
    weight_filler {
      type: "gaussian"
      std: 0.0001
    }
    bias_filler {
      type: "constant"
    }
  }
}
layer {
  name: "relu1"
  type: "ReLU"
  bottom: "conv1"
  top: "conv1"
}
layer {
  name: "conv2"
  type: "Convolution"
  bottom: "conv1"
  top: "conv2"
  param {
    lr_mult: 1
  }
  param {
    lr_mult: 2
  }
  convolution_param {
    num_output: 64
    pad: 2
    kernel_size: 5
    stride: 1
    weight_filler {
      type: "gaussian"
      std: 0.01
    }
    bias_filler {
      type: "constant"
    }
  }
}
layer {
  name: "relu2"
  type: "ReLU"
  bottom: "conv2"
  top: "conv2"
}
layer {
  name: "pool2"
  type: "Pooling"
  bottom: "conv2"
  top: "pool2"
  pooling_param {
    pool: MAX
    kernel_size: 3
    stride: 2
  }
}
layer {
  name: "conv3"
  type: "Convolution"
  bottom: "pool2"
  top: "conv3"
  param {
    lr_mult: 1
  }
  param {
    lr_mult: 2
  }
  convolution_param {
    num_output: 128
    pad: 2
    kernel_size: 5
    stride: 1
    weight_filler {
      type: "gaussian"
      std: 0.01
    }
    bias_filler {
      type: "constant"
    }
  }
}
layer {
  name: "relu3"
  type: "ReLU"
  bottom: "conv3"
  top: "conv3"
}
layer {
  name: "conv4"
  type: "Convolution"
  bottom: "conv3"
  top: "conv4"
  param {
    lr_mult: 1
  }
  param {
    lr_mult: 2
  }
  convolution_param {
    num_output: 128
    pad: 2
    kernel_size: 5
    stride: 1
    weight_filler {
      type: "gaussian"
      std: 0.01
    }
    bias_filler {
      type: "constant"
    }
  }
}
layer {
  name: "relu4"
  type: "ReLU"
  bottom: "conv4"
  top: "conv4"
}
layer {
  name: "conv5"
  type: "Convolution"
  bottom: "conv4"
  top: "conv5"
  param {
    lr_mult: 1
  }
  param {
    lr_mult: 2
  }
  convolution_param {
    num_output: 128
    pad: 2
    kernel_size: 5
    stride: 1
    weight_filler {
      type: "gaussian"
      std: 0.01
    }
    bias_filler {
      type: "constant"
    }
  }
}
layer {
  name: "relu5"
  type: "ReLU"
  bottom: "conv5"
  top: "conv5"
}
layer {
  name: "pool5"
  type: "Pooling"
  bottom: "conv5"
  top: "pool5"
  pooling_param {
    pool: AVE
    kernel_size: 3
    stride: 2
  }
}
layer {
  name: "ip1"
  type: "InnerProduct"
  bottom: "pool5"
  top: "ip1"
  param {
    lr_mult: 1
  }
  param {
    lr_mult: 2
  }
  inner_product_param {
    num_output: 1024
    weight_filler {
      type: "gaussian"
      std: 0.1
    }
    bias_filler {
      type: "constant"
    }
  }
}
layer {
  name: "ip2"
  type: "InnerProduct"
  bottom: "ip1"
  top: "ip2"
  param {
    lr_mult: 1
  }
  param {
    lr_mult: 2
  }
  inner_product_param {
    num_output: 512
    weight_filler {
      type: "gaussian"
      std: 0.1
    }
    bias_filler {
      type: "constant"
    }
  }
}
layer {
  name: "ip3"
  type: "InnerProduct"
  bottom: "ip2"
  top: "ip3"
  param {
    lr_mult: 1
  }
  param {
    lr_mult: 2
  }
  inner_product_param {
    num_output: 1
    weight_filler {
      type: "gaussian"
      std: 0.1
    }
    bias_filler {
      type: "constant"
    }
  }
}
layer {
  name: "loss"
  type: "HuberLoss"
  bottom: "ip3"
  bottom: "label"
  top: "loss"
  include {
    phase: TRAIN
  }
}
I0504 00:11:49.017119 23106 layer_factory.hpp:77] Creating layer parameters
I0504 00:11:49.017132 23106 net.cpp:94] Creating Layer parameters
I0504 00:11:49.017138 23106 net.cpp:409] parameters -> data
I0504 00:11:49.017146 23106 net.cpp:409] parameters -> label
I0504 00:11:49.017155 23106 hdf5_data_layer.cpp:79] Loading list of HDF5 filenames from: /home/purduethu/scratch/radon/d/deng106/CNNStatisticalModel/distributions/input/20_distributions_100_sample_size_train-parameters-path.txt
I0504 00:11:49.017170 23106 hdf5_data_layer.cpp:93] Number of HDF5 files: 1
I0504 00:11:49.017715 23106 hdf5.cpp:32] Datatype class: H5T_FLOAT
I0504 00:11:49.084883 23106 net.cpp:144] Setting up parameters
I0504 00:11:49.084913 23106 net.cpp:151] Top shape: 20 1 10 10 (2000)
I0504 00:11:49.084918 23106 net.cpp:151] Top shape: 20 (20)
I0504 00:11:49.084923 23106 net.cpp:159] Memory required for data: 8080
I0504 00:11:49.084928 23106 layer_factory.hpp:77] Creating layer conv1
I0504 00:11:49.084947 23106 net.cpp:94] Creating Layer conv1
I0504 00:11:49.084952 23106 net.cpp:435] conv1 <- data
I0504 00:11:49.084959 23106 net.cpp:409] conv1 -> conv1
I0504 00:11:49.089052 23106 net.cpp:144] Setting up conv1
I0504 00:11:49.089067 23106 net.cpp:151] Top shape: 20 64 10 10 (128000)
I0504 00:11:49.089072 23106 net.cpp:159] Memory required for data: 520080
I0504 00:11:49.089082 23106 layer_factory.hpp:77] Creating layer relu1
I0504 00:11:49.089089 23106 net.cpp:94] Creating Layer relu1
I0504 00:11:49.089093 23106 net.cpp:435] relu1 <- conv1
I0504 00:11:49.089097 23106 net.cpp:396] relu1 -> conv1 (in-place)
I0504 00:11:49.089108 23106 net.cpp:144] Setting up relu1
I0504 00:11:49.089113 23106 net.cpp:151] Top shape: 20 64 10 10 (128000)
I0504 00:11:49.089117 23106 net.cpp:159] Memory required for data: 1032080
I0504 00:11:49.089120 23106 layer_factory.hpp:77] Creating layer conv2
I0504 00:11:49.089128 23106 net.cpp:94] Creating Layer conv2
I0504 00:11:49.089131 23106 net.cpp:435] conv2 <- conv1
I0504 00:11:49.089136 23106 net.cpp:409] conv2 -> conv2
I0504 00:11:49.094369 23106 net.cpp:144] Setting up conv2
I0504 00:11:49.094385 23106 net.cpp:151] Top shape: 20 64 10 10 (128000)
I0504 00:11:49.094389 23106 net.cpp:159] Memory required for data: 1544080
I0504 00:11:49.094398 23106 layer_factory.hpp:77] Creating layer relu2
I0504 00:11:49.094404 23106 net.cpp:94] Creating Layer relu2
I0504 00:11:49.094408 23106 net.cpp:435] relu2 <- conv2
I0504 00:11:49.094413 23106 net.cpp:396] relu2 -> conv2 (in-place)
I0504 00:11:49.094419 23106 net.cpp:144] Setting up relu2
I0504 00:11:49.094424 23106 net.cpp:151] Top shape: 20 64 10 10 (128000)
I0504 00:11:49.094427 23106 net.cpp:159] Memory required for data: 2056080
I0504 00:11:49.094430 23106 layer_factory.hpp:77] Creating layer pool2
I0504 00:11:49.094436 23106 net.cpp:94] Creating Layer pool2
I0504 00:11:49.094446 23106 net.cpp:435] pool2 <- conv2
I0504 00:11:49.094451 23106 net.cpp:409] pool2 -> pool2
I0504 00:11:49.094508 23106 net.cpp:144] Setting up pool2
I0504 00:11:49.094516 23106 net.cpp:151] Top shape: 20 64 5 5 (32000)
I0504 00:11:49.094521 23106 net.cpp:159] Memory required for data: 2184080
I0504 00:11:49.094523 23106 layer_factory.hpp:77] Creating layer conv3
I0504 00:11:49.094532 23106 net.cpp:94] Creating Layer conv3
I0504 00:11:49.094535 23106 net.cpp:435] conv3 <- pool2
I0504 00:11:49.094540 23106 net.cpp:409] conv3 -> conv3
I0504 00:11:49.102651 23106 net.cpp:144] Setting up conv3
I0504 00:11:49.102666 23106 net.cpp:151] Top shape: 20 128 5 5 (64000)
I0504 00:11:49.102670 23106 net.cpp:159] Memory required for data: 2440080
I0504 00:11:49.102679 23106 layer_factory.hpp:77] Creating layer relu3
I0504 00:11:49.102684 23106 net.cpp:94] Creating Layer relu3
I0504 00:11:49.102689 23106 net.cpp:435] relu3 <- conv3
I0504 00:11:49.102694 23106 net.cpp:396] relu3 -> conv3 (in-place)
I0504 00:11:49.102700 23106 net.cpp:144] Setting up relu3
I0504 00:11:49.102705 23106 net.cpp:151] Top shape: 20 128 5 5 (64000)
I0504 00:11:49.102707 23106 net.cpp:159] Memory required for data: 2696080
I0504 00:11:49.102710 23106 layer_factory.hpp:77] Creating layer conv4
I0504 00:11:49.102718 23106 net.cpp:94] Creating Layer conv4
I0504 00:11:49.102722 23106 net.cpp:435] conv4 <- conv3
I0504 00:11:49.102727 23106 net.cpp:409] conv4 -> conv4
I0504 00:11:49.117548 23106 net.cpp:144] Setting up conv4
I0504 00:11:49.117565 23106 net.cpp:151] Top shape: 20 128 5 5 (64000)
I0504 00:11:49.117569 23106 net.cpp:159] Memory required for data: 2952080
I0504 00:11:49.117578 23106 layer_factory.hpp:77] Creating layer relu4
I0504 00:11:49.117584 23106 net.cpp:94] Creating Layer relu4
I0504 00:11:49.117588 23106 net.cpp:435] relu4 <- conv4
I0504 00:11:49.117593 23106 net.cpp:396] relu4 -> conv4 (in-place)
I0504 00:11:49.117600 23106 net.cpp:144] Setting up relu4
I0504 00:11:49.117604 23106 net.cpp:151] Top shape: 20 128 5 5 (64000)
I0504 00:11:49.117607 23106 net.cpp:159] Memory required for data: 3208080
I0504 00:11:49.117610 23106 layer_factory.hpp:77] Creating layer conv5
I0504 00:11:49.117619 23106 net.cpp:94] Creating Layer conv5
I0504 00:11:49.117621 23106 net.cpp:435] conv5 <- conv4
I0504 00:11:49.117626 23106 net.cpp:409] conv5 -> conv5
I0504 00:11:49.132079 23106 net.cpp:144] Setting up conv5
I0504 00:11:49.132095 23106 net.cpp:151] Top shape: 20 128 5 5 (64000)
I0504 00:11:49.132100 23106 net.cpp:159] Memory required for data: 3464080
I0504 00:11:49.132110 23106 layer_factory.hpp:77] Creating layer relu5
I0504 00:11:49.132117 23106 net.cpp:94] Creating Layer relu5
I0504 00:11:49.132120 23106 net.cpp:435] relu5 <- conv5
I0504 00:11:49.132125 23106 net.cpp:396] relu5 -> conv5 (in-place)
I0504 00:11:49.132133 23106 net.cpp:144] Setting up relu5
I0504 00:11:49.132136 23106 net.cpp:151] Top shape: 20 128 5 5 (64000)
I0504 00:11:49.132139 23106 net.cpp:159] Memory required for data: 3720080
I0504 00:11:49.132143 23106 layer_factory.hpp:77] Creating layer pool5
I0504 00:11:49.132148 23106 net.cpp:94] Creating Layer pool5
I0504 00:11:49.132153 23106 net.cpp:435] pool5 <- conv5
I0504 00:11:49.132156 23106 net.cpp:409] pool5 -> pool5
I0504 00:11:49.132197 23106 net.cpp:144] Setting up pool5
I0504 00:11:49.132205 23106 net.cpp:151] Top shape: 20 128 2 2 (10240)
I0504 00:11:49.132208 23106 net.cpp:159] Memory required for data: 3761040
I0504 00:11:49.132211 23106 layer_factory.hpp:77] Creating layer ip1
I0504 00:11:49.132221 23106 net.cpp:94] Creating Layer ip1
I0504 00:11:49.132225 23106 net.cpp:435] ip1 <- pool5
I0504 00:11:49.132230 23106 net.cpp:409] ip1 -> ip1
I0504 00:11:49.146147 23106 net.cpp:144] Setting up ip1
I0504 00:11:49.146167 23106 net.cpp:151] Top shape: 20 1024 (20480)
I0504 00:11:49.146170 23106 net.cpp:159] Memory required for data: 3842960
I0504 00:11:49.146178 23106 layer_factory.hpp:77] Creating layer ip2
I0504 00:11:49.146186 23106 net.cpp:94] Creating Layer ip2
I0504 00:11:49.146196 23106 net.cpp:435] ip2 <- ip1
I0504 00:11:49.146203 23106 net.cpp:409] ip2 -> ip2
I0504 00:11:49.159226 23106 net.cpp:144] Setting up ip2
I0504 00:11:49.159241 23106 net.cpp:151] Top shape: 20 512 (10240)
I0504 00:11:49.159245 23106 net.cpp:159] Memory required for data: 3883920
I0504 00:11:49.159251 23106 layer_factory.hpp:77] Creating layer ip3
I0504 00:11:49.159258 23106 net.cpp:94] Creating Layer ip3
I0504 00:11:49.159261 23106 net.cpp:435] ip3 <- ip2
I0504 00:11:49.159267 23106 net.cpp:409] ip3 -> ip3
I0504 00:11:49.159386 23106 net.cpp:144] Setting up ip3
I0504 00:11:49.159394 23106 net.cpp:151] Top shape: 20 1 (20)
I0504 00:11:49.159396 23106 net.cpp:159] Memory required for data: 3884000
I0504 00:11:49.159402 23106 layer_factory.hpp:77] Creating layer loss
I0504 00:11:49.159410 23106 net.cpp:94] Creating Layer loss
I0504 00:11:49.159413 23106 net.cpp:435] loss <- ip3
I0504 00:11:49.159417 23106 net.cpp:435] loss <- label
I0504 00:11:49.159421 23106 net.cpp:409] loss -> loss
I0504 00:11:49.159473 23106 net.cpp:144] Setting up loss
…
I0504 00:11:49.254842 23106 net.cpp:323] The NetState phase (0) differed from the phase (1) specified by a rule in layer intercept
I0504 00:11:49.254858 23106 net.cpp:323] The NetState phase (0) differed from the phase (1) specified by a rule in layer accuracy
I0504 00:11:49.254941 23106 net.cpp:52] Initializing net from parameters: 
state {
  phase: TRAIN
}
layer {
  name: "parameters"
  type: "HDF5Data"
  top: "data"
  top: "label"
  include {
    phase: TRAIN
  }
  hdf5_data_param {
    source: "/home/purduethu/scratch/radon/d/deng106/CNNStatisticalModel/distributions/input/20_distributions_100_sample_size_train-distributions-path.txt"
    batch_size: 20
  }
}
layer {
  name: "conv1"
  type: "Convolution"
  bottom: "data"
  top: "conv1"
  param {
    lr_mult: 1
  }
  param {
    lr_mult: 2
  }
  convolution_param {
    num_output: 64
    pad: 2
    kernel_size: 5
    stride: 1
    weight_filler {
      type: "gaussian"
      std: 0.0001
    }
    bias_filler {
      type: "constant"
    }
  }
}
layer {
  name: "relu1"
  type: "ReLU"
  bottom: "conv1"
  top: "conv1"
}
layer {
  name: "conv2"
  type: "Convolution"
  bottom: "conv1"
  top: "conv2"
  param {
    lr_mult: 1
  }
  param {
    lr_mult: 2
  }
  convolution_param {
    num_output: 64
    pad: 2
    kernel_size: 5
    stride: 1
    weight_filler {
      type: "gaussian"
      std: 0.01
    }
    bias_filler {
      type: "constant"
    }
  }
}
layer {
  name: "relu2"
  type: "ReLU"
  bottom: "conv2"
  top: "conv2"
}
layer {
  name: "pool2"
  type: "Pooling"
  bottom: "conv2"
  top: "pool2"
  pooling_param {
    pool: MAX
    kernel_size: 3
    stride: 2
  }
}
layer {
  name: "conv3"
  type: "Convolution"
  bottom: "pool2"
  top: "conv3"
  param {
    lr_mult: 1
  }
  param {
    lr_mult: 2
  }
  convolution_param {
    num_output: 128
    pad: 2
    kernel_size: 5
    stride: 1
    weight_filler {
      type: "gaussian"
      std: 0.01
    }
    bias_filler {
      type: "constant"
    }
  }
}
layer {
  name: "relu3"
  type: "ReLU"
  bottom: "conv3"
  top: "conv3"
}
layer {
  name: "conv4"
  type: "Convolution"
  bottom: "conv3"
  top: "conv4"
  param {
    lr_mult: 1
  }
  param {
    lr_mult: 2
  }
  convolution_param {
    num_output: 128
    pad: 2
    kernel_size: 5
    stride: 1
    weight_filler {
      type: "gaussian"
      std: 0.01
    }
    bias_filler {
      type: "constant"
    }
  }
}
layer {
  name: "relu4"
  type: "ReLU"
  bottom: "conv4"
  top: "conv4"
}
layer {
  name: "conv5"
  type: "Convolution"
  bottom: "conv4"
  top: "conv5"
  param {
    lr_mult: 1
  }
  param {
    lr_mult: 2
  }
  convolution_param {
    num_output: 128
    pad: 2
    kernel_size: 5
    stride: 1
    weight_filler {
      type: "gaussian"
      std: 0.01
    }
    bias_filler {
      type: "constant"
    }
  }
}
layer {
  name: "relu5"
  type: "ReLU"
  bottom: "conv5"
  top: "conv5"
}
layer {
  name: "pool5"
  type: "Pooling"
  bottom: "conv5"
  top: "pool5"
  pooling_param {
    pool: AVE
    kernel_size: 3
    stride: 2
  }
}
layer {
  name: "ip1"
  type: "InnerProduct"
  bottom: "pool5"
  top: "ip1"
  param {
    lr_mult: 1
  }
  param {
    lr_mult: 2
  }
  inner_product_param {
    num_output: 1024
    weight_filler {
      type: "gaussian"
      std: 0.1
    }
    bias_filler {
      type: "constant"
    }
  }
}
layer {
  name: "ip2"
  type: "InnerProduct"
  bottom: "ip1"
  top: "ip2"
  param {
    lr_mult: 1
  }
  param {
    lr_mult: 2
  }
  inner_product_param {
    num_output: 512
    weight_filler {
      type: "gaussian"
      std: 0.1
    }
    bias_filler {
      type: "constant"
    }
  }
}
layer {
  name: "ip3"
  type: "InnerProduct"
  bottom: "ip2"
  top: "ip3"
  param {
    lr_mult: 1
  }
  param {
    lr_mult: 2
  }
  inner_product_param {
    num_output: 50
    weight_filler {
      type: "gaussian"
      std: 0.1
    }
    bias_filler {
      type: "constant"
    }
  }
}
layer {
  name: "loss"
  type: "SoftmaxWithLoss"
  bottom: "ip3"
  bottom: "label"
  top: "loss"
}
I0504 00:11:49.254998 23106 layer_factory.hpp:77] Creating layer parameters
I0504 00:11:49.255007 23106 net.cpp:94] Creating Layer parameters
I0504 00:11:49.255012 23106 net.cpp:409] parameters -> data
I0504 00:11:49.255018 23106 net.cpp:409] parameters -> label
I0504 00:11:49.255023 23106 hdf5_data_layer.cpp:79] Loading list of HDF5 filenames from: /home/purduethu/scratch/radon/d/deng106/CNNStatisticalModel/distributions/input/20_distributions_100_sample_size_train-distributions-path.txt
I0504 00:11:49.255039 23106 hdf5_data_layer.cpp:93] Number of HDF5 files: 1
I0504 00:11:49.319224 23106 hdf5.cpp:35] Datatype class: H5T_INTEGER
I0504 00:11:49.320276 23106 net.cpp:144] Setting up parameters
I0504 00:11:49.320291 23106 net.cpp:151] Top shape: 20 1 10 10 (2000)
I0504 00:11:49.320297 23106 net.cpp:151] Top shape: 20 (20)
I0504 00:11:49.320299 23106 net.cpp:159] Memory required for data: 8080
I0504 00:11:49.320305 23106 layer_factory.hpp:77] Creating layer conv1
I0504 00:11:49.320322 23106 net.cpp:94] Creating Layer conv1
I0504 00:11:49.320325 23106 net.cpp:435] conv1 <- data
I0504 00:11:49.320333 23106 net.cpp:409] conv1 -> conv1
I0504 00:11:49.322130 23106 net.cpp:144] Setting up conv1
I0504 00:11:49.322145 23106 net.cpp:151] Top shape: 20 64 10 10 (128000)
I0504 00:11:49.322149 23106 net.cpp:159] Memory required for data: 520080
I0504 00:11:49.322160 23106 layer_factory.hpp:77] Creating layer relu1
I0504 00:11:49.322166 23106 net.cpp:94] Creating Layer relu1
I0504 00:11:49.322170 23106 net.cpp:435] relu1 <- conv1
I0504 00:11:49.322175 23106 net.cpp:396] relu1 -> conv1 (in-place)
I0504 00:11:49.322182 23106 net.cpp:144] Setting up relu1
I0504 00:11:49.322186 23106 net.cpp:151] Top shape: 20 64 10 10 (128000)
I0504 00:11:49.322190 23106 net.cpp:159] Memory required for data: 1032080
I0504 00:11:49.322192 23106 layer_factory.hpp:77] Creating layer conv2
I0504 00:11:49.322201 23106 net.cpp:94] Creating Layer conv2
I0504 00:11:49.322203 23106 net.cpp:435] conv2 <- conv1
I0504 00:11:49.322208 23106 net.cpp:409] conv2 -> conv2
I0504 00:11:49.327579 23106 net.cpp:144] Setting up conv2
I0504 00:11:49.327594 23106 net.cpp:151] Top shape: 20 64 10 10 (128000)
I0504 00:11:49.327599 23106 net.cpp:159] Memory required for data: 1544080
I0504 00:11:49.327606 23106 layer_factory.hpp:77] Creating layer relu2
I0504 00:11:49.327612 23106 net.cpp:94] Creating Layer relu2
I0504 00:11:49.327616 23106 net.cpp:435] relu2 <- conv2
I0504 00:11:49.327621 23106 net.cpp:396] relu2 -> conv2 (in-place)
I0504 00:11:49.327627 23106 net.cpp:144] Setting up relu2
I0504 00:11:49.327632 23106 net.cpp:151] Top shape: 20 64 10 10 (128000)
I0504 00:11:49.327636 23106 net.cpp:159] Memory required for data: 2056080
I0504 00:11:49.327638 23106 layer_factory.hpp:77] Creating layer pool2
I0504 00:11:49.327644 23106 net.cpp:94] Creating Layer pool2
I0504 00:11:49.327647 23106 net.cpp:435] pool2 <- conv2
I0504 00:11:49.327652 23106 net.cpp:409] pool2 -> pool2
I0504 00:11:49.327710 23106 net.cpp:144] Setting up pool2
I0504 00:11:49.327718 23106 net.cpp:151] Top shape: 20 64 5 5 (32000)
I0504 00:11:49.327723 23106 net.cpp:159] Memory required for data: 2184080
I0504 00:11:49.327725 23106 layer_factory.hpp:77] Creating layer conv3
I0504 00:11:49.327733 23106 net.cpp:94] Creating Layer conv3
I0504 00:11:49.327736 23106 net.cpp:435] conv3 <- pool2
I0504 00:11:49.327741 23106 net.cpp:409] conv3 -> conv3
I0504 00:11:49.336400 23106 net.cpp:144] Setting up conv3
I0504 00:11:49.336416 23106 net.cpp:151] Top shape: 20 128 5 5 (64000)
I0504 00:11:49.336421 23106 net.cpp:159] Memory required for data: 2440080
I0504 00:11:49.336428 23106 layer_factory.hpp:77] Creating layer relu3
I0504 00:11:49.336436 23106 net.cpp:94] Creating Layer relu3
I0504 00:11:49.336439 23106 net.cpp:435] relu3 <- conv3
I0504 00:11:49.336443 23106 net.cpp:396] relu3 -> conv3 (in-place)
I0504 00:11:49.336450 23106 net.cpp:144] Setting up relu3
I0504 00:11:49.336455 23106 net.cpp:151] Top shape: 20 128 5 5 (64000)
I0504 00:11:49.336457 23106 net.cpp:159] Memory required for data: 2696080
I0504 00:11:49.336462 23106 layer_factory.hpp:77] Creating layer conv4
I0504 00:11:49.336469 23106 net.cpp:94] Creating Layer conv4
I0504 00:11:49.336473 23106 net.cpp:435] conv4 <- conv3
I0504 00:11:49.336477 23106 net.cpp:409] conv4 -> conv4
I0504 00:11:49.351131 23106 net.cpp:144] Setting up conv4
I0504 00:11:49.351148 23106 net.cpp:151] Top shape: 20 128 5 5 (64000)
I0504 00:11:49.351153 23106 net.cpp:159] Memory required for data: 2952080
I0504 00:11:49.351161 23106 layer_factory.hpp:77] Creating layer relu4
I0504 00:11:49.351166 23106 net.cpp:94] Creating Layer relu4
I0504 00:11:49.351171 23106 net.cpp:435] relu4 <- conv4
I0504 00:11:49.351176 23106 net.cpp:396] relu4 -> conv4 (in-place)
I0504 00:11:49.351182 23106 net.cpp:144] Setting up relu4
I0504 00:11:49.351186 23106 net.cpp:151] Top shape: 20 128 5 5 (64000)
I0504 00:11:49.351189 23106 net.cpp:159] Memory required for data: 3208080
I0504 00:11:49.351192 23106 layer_factory.hpp:77] Creating layer conv5
I0504 00:11:49.351200 23106 net.cpp:94] Creating Layer conv5
I0504 00:11:49.351204 23106 net.cpp:435] conv5 <- conv4
I0504 00:11:49.351208 23106 net.cpp:409] conv5 -> conv5
I0504 00:11:49.366127 23106 net.cpp:144] Setting up conv5
I0504 00:11:49.366147 23106 net.cpp:151] Top shape: 20 128 5 5 (64000)
I0504 00:11:49.366150 23106 net.cpp:159] Memory required for data: 3464080
I0504 00:11:49.366161 23106 layer_factory.hpp:77] Creating layer relu5
I0504 00:11:49.366168 23106 net.cpp:94] Creating Layer relu5
I0504 00:11:49.366173 23106 net.cpp:435] relu5 <- conv5
I0504 00:11:49.366176 23106 net.cpp:396] relu5 -> conv5 (in-place)
I0504 00:11:49.366184 23106 net.cpp:144] Setting up relu5
I0504 00:11:49.366189 23106 net.cpp:151] Top shape: 20 128 5 5 (64000)
I0504 00:11:49.366191 23106 net.cpp:159] Memory required for data: 3720080
I0504 00:11:49.366194 23106 layer_factory.hpp:77] Creating layer pool5
I0504 00:11:49.366200 23106 net.cpp:94] Creating Layer pool5
I0504 00:11:49.366204 23106 net.cpp:435] pool5 <- conv5
I0504 00:11:49.366209 23106 net.cpp:409] pool5 -> pool5
I0504 00:11:49.366250 23106 net.cpp:144] Setting up pool5
I0504 00:11:49.366257 23106 net.cpp:151] Top shape: 20 128 2 2 (10240)
I0504 00:11:49.366261 23106 net.cpp:159] Memory required for data: 3761040
I0504 00:11:49.366264 23106 layer_factory.hpp:77] Creating layer ip1
I0504 00:11:49.366271 23106 net.cpp:94] Creating Layer ip1
I0504 00:11:49.366274 23106 net.cpp:435] ip1 <- pool5
I0504 00:11:49.366279 23106 net.cpp:409] ip1 -> ip1
I0504 00:11:49.379387 23106 net.cpp:144] Setting up ip1
I0504 00:11:49.379405 23106 net.cpp:151] Top shape: 20 1024 (20480)
I0504 00:11:49.379408 23106 net.cpp:159] Memory required for data: 3842960
I0504 00:11:49.379415 23106 layer_factory.hpp:77] Creating layer ip2
I0504 00:11:49.379422 23106 net.cpp:94] Creating Layer ip2
I0504 00:11:49.379426 23106 net.cpp:435] ip2 <- ip1
I0504 00:11:49.379431 23106 net.cpp:409] ip2 -> ip2
I0504 00:11:49.392575 23106 net.cpp:144] Setting up ip2
I0504 00:11:49.392591 23106 net.cpp:151] Top shape: 20 512 (10240)
I0504 00:11:49.392596 23106 net.cpp:159] Memory required for data: 3883920
I0504 00:11:49.392602 23106 layer_factory.hpp:77] Creating layer ip3
I0504 00:11:49.392609 23106 net.cpp:94] Creating Layer ip3
I0504 00:11:49.392613 23106 net.cpp:435] ip3 <- ip2
I0504 00:11:49.392618 23106 net.cpp:409] ip3 -> ip3
I0504 00:11:49.393380 23106 net.cpp:144] Setting up ip3
I0504 00:11:49.393388 23106 net.cpp:151] Top shape: 20 50 (1000)
I0504 00:11:49.393399 23106 net.cpp:159] Memory required for data: 3887920
I0504 00:11:49.393404 23106 layer_factory.hpp:77] Creating layer loss
I0504 00:11:49.393411 23106 net.cpp:94] Creating Layer loss
I0504 00:11:49.393415 23106 net.cpp:435] loss <- ip3
I0504 00:11:49.393419 23106 net.cpp:435] loss <- label
I0504 00:11:49.393424 23106 net.cpp:409] loss -> loss
I0504 00:11:49.393430 23106 layer_factory.hpp:77] Creating layer loss
…
I0504 00:11:49.393980 23106 solver.cpp:181] Creating test net (#0) specified by net file: ./protocol/dis_20_100_dimension.protocol_distribution
I0504 00:11:49.394006 23106 net.cpp:323] The NetState phase (1) differed from the phase (0) specified by a rule in layer parameters
I0504 00:11:49.394098 23106 net.cpp:52] Initializing net from parameters: 
state {
  phase: TEST
}
layer {
  name: "intercept"
  type: "HDF5Data"
  top: "data"
  top: "label"
  include {
    phase: TEST
  }
  hdf5_data_param {
    source: "/home/purduethu/scratch/radon/d/deng106/CNNStatisticalModel/distributions/input/20_distributions_100_sample_size_test-distributions-path.txt"
    batch_size: 20
  }
}
layer {
  name: "conv1"
  type: "Convolution"
  bottom: "data"
  top: "conv1"
  param {
    lr_mult: 1
  }
  param {
    lr_mult: 2
  }
  convolution_param {
    num_output: 64
    pad: 2
    kernel_size: 5
    stride: 1
    weight_filler {
      type: "gaussian"
      std: 0.0001
    }
    bias_filler {
      type: "constant"
    }
  }
}
layer {
  name: "relu1"
  type: "ReLU"
  bottom: "conv1"
  top: "conv1"
}
layer {
  name: "conv2"
  type: "Convolution"
  bottom: "conv1"
  top: "conv2"
  param {
    lr_mult: 1
  }
  param {
    lr_mult: 2
  }
  convolution_param {
    num_output: 64
    pad: 2
    kernel_size: 5
    stride: 1
    weight_filler {
      type: "gaussian"
      std: 0.01
    }
    bias_filler {
      type: "constant"
    }
  }
}
layer {
  name: "relu2"
  type: "ReLU"
  bottom: "conv2"
  top: "conv2"
}
layer {
  name: "pool2"
  type: "Pooling"
  bottom: "conv2"
  top: "pool2"
  pooling_param {
    pool: MAX
    kernel_size: 3
    stride: 2
  }
}
layer {
  name: "conv3"
  type: "Convolution"
  bottom: "pool2"
  top: "conv3"
  param {
    lr_mult: 1
  }
  param {
    lr_mult: 2
  }
  convolution_param {
    num_output: 128
    pad: 2
    kernel_size: 5
    stride: 1
    weight_filler {
      type: "gaussian"
      std: 0.01
    }
    bias_filler {
      type: "constant"
    }
  }
}
layer {
  name: "relu3"
  type: "ReLU"
  bottom: "conv3"
  top: "conv3"
}
layer {
  name: "conv4"
  type: "Convolution"
  bottom: "conv3"
  top: "conv4"
  param {
    lr_mult: 1
  }
  param {
    lr_mult: 2
  }
  convolution_param {
    num_output: 128
    pad: 2
    kernel_size: 5
    stride: 1
    weight_filler {
      type: "gaussian"
      std: 0.01
    }
    bias_filler {
      type: "constant"
    }
  }
}
layer {
  name: "relu4"
  type: "ReLU"
  bottom: "conv4"
  top: "conv4"
}
layer {
  name: "conv5"
  type: "Convolution"
  bottom: "conv4"
  top: "conv5"
  param {
    lr_mult: 1
  }
  param {
    lr_mult: 2
  }
  convolution_param {
    num_output: 128
    pad: 2
    kernel_size: 5
    stride: 1
    weight_filler {
      type: "gaussian"
      std: 0.01
    }
    bias_filler {
      type: "constant"
    }
  }
}
layer {
  name: "relu5"
  type: "ReLU"
  bottom: "conv5"
  top: "conv5"
}
layer {
  name: "pool5"
  type: "Pooling"
  bottom: "conv5"
  top: "pool5"
  pooling_param {
    pool: AVE
    kernel_size: 3
    stride: 2
  }
}
layer {
  name: "ip1"
  type: "InnerProduct"
  bottom: "pool5"
  top: "ip1"
  param {
    lr_mult: 1
  }
  param {
    lr_mult: 2
  }
  inner_product_param {
    num_output: 1024
    weight_filler {
      type: "gaussian"
      std: 0.1
    }
    bias_filler {
      type: "constant"
    }
  }
}
layer {
  name: "ip2"
  type: "InnerProduct"
  bottom: "ip1"
  top: "ip2"
  param {
    lr_mult: 1
  }
  param {
    lr_mult: 2
  }
  inner_product_param {
    num_output: 512
    weight_filler {
      type: "gaussian"
      std: 0.1
    }
    bias_filler {
      type: "constant"
    }
  }
}
layer {
  name: "ip3"
  type: "InnerProduct"
  bottom: "ip2"
  top: "ip3"
  param {
    lr_mult: 1
  }
  param {
    lr_mult: 2
  }
  inner_product_param {
    num_output: 50
    weight_filler {
      type: "gaussian"
      std: 0.1
    }
    bias_filler {
      type: "constant"
    }
  }
}
layer {
  name: "accuracy"
  type: "Accuracy"
  bottom: "ip3"
  bottom: "label"
  top: "accuracy"
  include {
    phase: TEST
  }
}
layer {
  name: "loss"
  type: "SoftmaxWithLoss"
  bottom: "ip3"
  bottom: "label"
  top: "loss"
}
I0504 00:11:49.394162 23106 layer_factory.hpp:77] Creating layer intercept
I0504 00:11:49.394171 23106 net.cpp:94] Creating Layer intercept
I0504 00:11:49.394176 23106 net.cpp:409] intercept -> data
I0504 00:11:49.394181 23106 net.cpp:409] intercept -> label
I0504 00:11:49.394187 23106 hdf5_data_layer.cpp:79] Loading list of HDF5 filenames from: /home/purduethu/scratch/radon/d/deng106/CNNStatisticalModel/distributions/input/20_distributions_100_sample_size_test-distributions-path.txt
I0504 00:11:49.394207 23106 hdf5_data_layer.cpp:93] Number of HDF5 files: 1
I0504 00:11:49.411566 23106 net.cpp:144] Setting up intercept
I0504 00:11:49.411597 23106 net.cpp:151] Top shape: 20 1 10 10 (2000)
I0504 00:11:49.411602 23106 net.cpp:151] Top shape: 20 (20)
I0504 00:11:49.411607 23106 net.cpp:159] Memory required for data: 8080
I0504 00:11:49.411612 23106 layer_factory.hpp:77] Creating layer label_intercept_1_split
I0504 00:11:49.411629 23106 net.cpp:94] Creating Layer label_intercept_1_split
I0504 00:11:49.411634 23106 net.cpp:435] label_intercept_1_split <- label
I0504 00:11:49.411640 23106 net.cpp:409] label_intercept_1_split -> label_intercept_1_split_0
I0504 00:11:49.411648 23106 net.cpp:409] label_intercept_1_split -> label_intercept_1_split_1
I0504 00:11:49.411691 23106 net.cpp:144] Setting up label_intercept_1_split
I0504 00:11:49.411698 23106 net.cpp:151] Top shape: 20 (20)
I0504 00:11:49.411702 23106 net.cpp:151] Top shape: 20 (20)
I0504 00:11:49.411705 23106 net.cpp:159] Memory required for data: 8240
I0504 00:11:49.411708 23106 layer_factory.hpp:77] Creating layer conv1
I0504 00:11:49.411720 23106 net.cpp:94] Creating Layer conv1
I0504 00:11:49.411723 23106 net.cpp:435] conv1 <- data
I0504 00:11:49.411727 23106 net.cpp:409] conv1 -> conv1
I0504 00:11:49.412603 23106 net.cpp:144] Setting up conv1
I0504 00:11:49.412621 23106 net.cpp:151] Top shape: 20 64 10 10 (128000)
I0504 00:11:49.412631 23106 net.cpp:159] Memory required for data: 520240
I0504 00:11:49.412642 23106 layer_factory.hpp:77] Creating layer relu1
I0504 00:11:49.412648 23106 net.cpp:94] Creating Layer relu1
I0504 00:11:49.412652 23106 net.cpp:435] relu1 <- conv1
I0504 00:11:49.412657 23106 net.cpp:396] relu1 -> conv1 (in-place)
I0504 00:11:49.412663 23106 net.cpp:144] Setting up relu1
I0504 00:11:49.412668 23106 net.cpp:151] Top shape: 20 64 10 10 (128000)
I0504 00:11:49.412672 23106 net.cpp:159] Memory required for data: 1032240
I0504 00:11:49.412674 23106 layer_factory.hpp:77] Creating layer conv2
I0504 00:11:49.412683 23106 net.cpp:94] Creating Layer conv2
I0504 00:11:49.412686 23106 net.cpp:435] conv2 <- conv1
I0504 00:11:49.412690 23106 net.cpp:409] conv2 -> conv2
I0504 00:11:49.416797 23106 net.cpp:144] Setting up conv2
I0504 00:11:49.416815 23106 net.cpp:151] Top shape: 20 64 10 10 (128000)
I0504 00:11:49.416818 23106 net.cpp:159] Memory required for data: 1544240
I0504 00:11:49.416826 23106 layer_factory.hpp:77] Creating layer relu2
I0504 00:11:49.416833 23106 net.cpp:94] Creating Layer relu2
I0504 00:11:49.416837 23106 net.cpp:435] relu2 <- conv2
I0504 00:11:49.416842 23106 net.cpp:396] relu2 -> conv2 (in-place)
I0504 00:11:49.416849 23106 net.cpp:144] Setting up relu2
I0504 00:11:49.416853 23106 net.cpp:151] Top shape: 20 64 10 10 (128000)
I0504 00:11:49.416857 23106 net.cpp:159] Memory required for data: 2056240
I0504 00:11:49.416859 23106 layer_factory.hpp:77] Creating layer pool2
I0504 00:11:49.416865 23106 net.cpp:94] Creating Layer pool2
I0504 00:11:49.416869 23106 net.cpp:435] pool2 <- conv2
I0504 00:11:49.416873 23106 net.cpp:409] pool2 -> pool2
I0504 00:11:49.416932 23106 net.cpp:144] Setting up pool2
I0504 00:11:49.416939 23106 net.cpp:151] Top shape: 20 64 5 5 (32000)
I0504 00:11:49.416944 23106 net.cpp:159] Memory required for data: 2184240
I0504 00:11:49.416946 23106 layer_factory.hpp:77] Creating layer conv3
I0504 00:11:49.416954 23106 net.cpp:94] Creating Layer conv3
I0504 00:11:49.416957 23106 net.cpp:435] conv3 <- pool2
I0504 00:11:49.416962 23106 net.cpp:409] conv3 -> conv3
I0504 00:11:49.422953 23106 net.cpp:144] Setting up conv3
I0504 00:11:49.422967 23106 net.cpp:151] Top shape: 20 128 5 5 (64000)
I0504 00:11:49.422971 23106 net.cpp:159] Memory required for data: 2440240
I0504 00:11:49.422979 23106 layer_factory.hpp:77] Creating layer relu3
I0504 00:11:49.422986 23106 net.cpp:94] Creating Layer relu3
I0504 00:11:49.422989 23106 net.cpp:435] relu3 <- conv3
I0504 00:11:49.422994 23106 net.cpp:396] relu3 -> conv3 (in-place)
I0504 00:11:49.423001 23106 net.cpp:144] Setting up relu3
I0504 00:11:49.423005 23106 net.cpp:151] Top shape: 20 128 5 5 (64000)
I0504 00:11:49.423008 23106 net.cpp:159] Memory required for data: 2696240
I0504 00:11:49.423012 23106 layer_factory.hpp:77] Creating layer conv4
I0504 00:11:49.423018 23106 net.cpp:94] Creating Layer conv4
I0504 00:11:49.423022 23106 net.cpp:435] conv4 <- conv3
I0504 00:11:49.423027 23106 net.cpp:409] conv4 -> conv4
I0504 00:11:49.435511 23106 net.cpp:144] Setting up conv4
I0504 00:11:49.435529 23106 net.cpp:151] Top shape: 20 128 5 5 (64000)
I0504 00:11:49.435534 23106 net.cpp:159] Memory required for data: 2952240
I0504 00:11:49.435540 23106 layer_factory.hpp:77] Creating layer relu4
I0504 00:11:49.435547 23106 net.cpp:94] Creating Layer relu4
I0504 00:11:49.435551 23106 net.cpp:435] relu4 <- conv4
I0504 00:11:49.435556 23106 net.cpp:396] relu4 -> conv4 (in-place)
I0504 00:11:49.435564 23106 net.cpp:144] Setting up relu4
I0504 00:11:49.435569 23106 net.cpp:151] Top shape: 20 128 5 5 (64000)
I0504 00:11:49.435571 23106 net.cpp:159] Memory required for data: 3208240
I0504 00:11:49.435575 23106 layer_factory.hpp:77] Creating layer conv5
I0504 00:11:49.435582 23106 net.cpp:94] Creating Layer conv5
I0504 00:11:49.435585 23106 net.cpp:435] conv5 <- conv4
I0504 00:11:49.435590 23106 net.cpp:409] conv5 -> conv5
I0504 00:11:49.448107 23106 net.cpp:144] Setting up conv5
I0504 00:11:49.448145 23106 net.cpp:151] Top shape: 20 128 5 5 (64000)
I0504 00:11:49.448168 23106 net.cpp:159] Memory required for data: 3464240
I0504 00:11:49.448194 23106 layer_factory.hpp:77] Creating layer relu5
I0504 00:11:49.448211 23106 net.cpp:94] Creating Layer relu5
I0504 00:11:49.448222 23106 net.cpp:435] relu5 <- conv5
I0504 00:11:49.448235 23106 net.cpp:396] relu5 -> conv5 (in-place)
I0504 00:11:49.448261 23106 net.cpp:144] Setting up relu5
I0504 00:11:49.448266 23106 net.cpp:151] Top shape: 20 128 5 5 (64000)
I0504 00:11:49.448269 23106 net.cpp:159] Memory required for data: 3720240
I0504 00:11:49.448272 23106 layer_factory.hpp:77] Creating layer pool5
I0504 00:11:49.448278 23106 net.cpp:94] Creating Layer pool5
I0504 00:11:49.448282 23106 net.cpp:435] pool5 <- conv5
I0504 00:11:49.448285 23106 net.cpp:409] pool5 -> pool5
I0504 00:11:49.448325 23106 net.cpp:144] Setting up pool5
I0504 00:11:49.448333 23106 net.cpp:151] Top shape: 20 128 2 2 (10240)
I0504 00:11:49.448335 23106 net.cpp:159] Memory required for data: 3761200
I0504 00:11:49.448339 23106 layer_factory.hpp:77] Creating layer ip1
I0504 00:11:49.448356 23106 net.cpp:94] Creating Layer ip1
I0504 00:11:49.448359 23106 net.cpp:435] ip1 <- pool5
I0504 00:11:49.448364 23106 net.cpp:409] ip1 -> ip1
I0504 00:11:49.461494 23106 net.cpp:144] Setting up ip1
I0504 00:11:49.461511 23106 net.cpp:151] Top shape: 20 1024 (20480)
I0504 00:11:49.461515 23106 net.cpp:159] Memory required for data: 3843120
I0504 00:11:49.461521 23106 layer_factory.hpp:77] Creating layer ip2
I0504 00:11:49.461529 23106 net.cpp:94] Creating Layer ip2
I0504 00:11:49.461532 23106 net.cpp:435] ip2 <- ip1
I0504 00:11:49.461539 23106 net.cpp:409] ip2 -> ip2
I0504 00:11:49.474706 23106 net.cpp:144] Setting up ip2
I0504 00:11:49.474722 23106 net.cpp:151] Top shape: 20 512 (10240)
I0504 00:11:49.474726 23106 net.cpp:159] Memory required for data: 3884080
I0504 00:11:49.474732 23106 layer_factory.hpp:77] Creating layer ip3
I0504 00:11:49.474743 23106 net.cpp:94] Creating Layer ip3
I0504 00:11:49.474747 23106 net.cpp:435] ip3 <- ip2
I0504 00:11:49.474753 23106 net.cpp:409] ip3 -> ip3
I0504 00:11:49.475507 23106 net.cpp:144] Setting up ip3
I0504 00:11:49.475514 23106 net.cpp:151] Top shape: 20 50 (1000)
I0504 00:11:49.475517 23106 net.cpp:159] Memory required for data: 3888080
I0504 00:11:49.475522 23106 layer_factory.hpp:77] Creating layer ip3_ip3_0_split
I0504 00:11:49.475529 23106 net.cpp:94] Creating Layer ip3_ip3_0_split
I0504 00:11:49.475533 23106 net.cpp:435] ip3_ip3_0_split <- ip3
I0504 00:11:49.475538 23106 net.cpp:409] ip3_ip3_0_split -> ip3_ip3_0_split_0
I0504 00:11:49.475543 23106 net.cpp:409] ip3_ip3_0_split -> ip3_ip3_0_split_1
I0504 00:11:49.475587 23106 net.cpp:144] Setting up ip3_ip3_0_split
I0504 00:11:49.475594 23106 net.cpp:151] Top shape: 20 50 (1000)
I0504 00:11:49.475599 23106 net.cpp:151] Top shape: 20 50 (1000)
I0504 00:11:49.475601 23106 net.cpp:159] Memory required for data: 3896080
I0504 00:11:49.475605 23106 layer_factory.hpp:77] Creating layer accuracy
I0504 00:11:49.475611 23106 net.cpp:94] Creating Layer accuracy
I0504 00:11:49.475615 23106 net.cpp:435] accuracy <- ip3_ip3_0_split_0
I0504 00:11:49.475618 23106 net.cpp:435] accuracy <- label_intercept_1_split_0
I0504 00:11:49.475622 23106 net.cpp:409] accuracy -> accuracy
…
