…
I0503 05:21:20.068356 18433 net.cpp:323] The NetState phase (0) differed from the phase (1) specified by a rule in layer intercept
I0503 05:21:20.068372 18433 net.cpp:323] The NetState phase (0) differed from the phase (1) specified by a rule in layer loss
I0503 05:21:20.068450 18433 net.cpp:52] Initializing net from parameters: 
state {
  phase: TRAIN
}
layer {
  name: "parameters"
  type: "HDF5Data"
  top: "data"
  top: "label"
  include {
    phase: TRAIN
  }
  hdf5_data_param {
    source: "/home/purduethu/scratch/radon/d/deng106/CNNStatisticalModel/distributions/input/5_distributions_400_sample_size_train-parameters-path.txt"
    batch_size: 20
  }
}
layer {
  name: "conv1"
  type: "Convolution"
  bottom: "data"
  top: "conv1"
  param {
    lr_mult: 1
  }
  param {
    lr_mult: 2
  }
  convolution_param {
    num_output: 64
    pad: 2
    kernel_size: 5
    stride: 1
    weight_filler {
      type: "gaussian"
      std: 0.0001
    }
    bias_filler {
      type: "constant"
    }
  }
}
layer {
  name: "relu1"
  type: "ReLU"
  bottom: "conv1"
  top: "conv1"
}
layer {
  name: "conv2"
  type: "Convolution"
  bottom: "conv1"
  top: "conv2"
  param {
    lr_mult: 1
  }
  param {
    lr_mult: 2
  }
  convolution_param {
    num_output: 64
    pad: 2
    kernel_size: 5
    stride: 1
    weight_filler {
      type: "gaussian"
      std: 0.01
    }
    bias_filler {
      type: "constant"
    }
  }
}
layer {
  name: "relu2"
  type: "ReLU"
  bottom: "conv2"
  top: "conv2"
}
layer {
  name: "pool2"
  type: "Pooling"
  bottom: "conv2"
  top: "pool2"
  pooling_param {
    pool: MAX
    kernel_size: 3
    stride: 2
  }
}
layer {
  name: "conv3"
  type: "Convolution"
  bottom: "pool2"
  top: "conv3"
  param {
    lr_mult: 1
  }
  param {
    lr_mult: 2
  }
  convolution_param {
    num_output: 128
    pad: 2
    kernel_size: 5
    stride: 1
    weight_filler {
      type: "gaussian"
      std: 0.01
    }
    bias_filler {
      type: "constant"
    }
  }
}
layer {
  name: "relu3"
  type: "ReLU"
  bottom: "conv3"
  top: "conv3"
}
layer {
  name: "conv4"
  type: "Convolution"
  bottom: "conv3"
  top: "conv4"
  param {
    lr_mult: 1
  }
  param {
    lr_mult: 2
  }
  convolution_param {
    num_output: 128
    pad: 2
    kernel_size: 5
    stride: 1
    weight_filler {
      type: "gaussian"
      std: 0.01
    }
    bias_filler {
      type: "constant"
    }
  }
}
layer {
  name: "relu4"
  type: "ReLU"
  bottom: "conv4"
  top: "conv4"
}
layer {
  name: "conv5"
  type: "Convolution"
  bottom: "conv4"
  top: "conv5"
  param {
    lr_mult: 1
  }
  param {
    lr_mult: 2
  }
  convolution_param {
    num_output: 128
    pad: 2
    kernel_size: 5
    stride: 1
    weight_filler {
      type: "gaussian"
      std: 0.01
    }
    bias_filler {
      type: "constant"
    }
  }
}
layer {
  name: "relu5"
  type: "ReLU"
  bottom: "conv5"
  top: "conv5"
}
layer {
  name: "pool5"
  type: "Pooling"
  bottom: "conv5"
  top: "pool5"
  pooling_param {
    pool: AVE
    kernel_size: 3
    stride: 2
  }
}
layer {
  name: "ip1"
  type: "InnerProduct"
  bottom: "pool5"
  top: "ip1"
  param {
    lr_mult: 1
  }
  param {
    lr_mult: 2
  }
  inner_product_param {
    num_output: 1024
    weight_filler {
      type: "gaussian"
      std: 0.1
    }
    bias_filler {
      type: "constant"
    }
  }
}
layer {
  name: "ip2"
  type: "InnerProduct"
  bottom: "ip1"
  top: "ip2"
  param {
    lr_mult: 1
  }
  param {
    lr_mult: 2
  }
  inner_product_param {
    num_output: 512
    weight_filler {
      type: "gaussian"
      std: 0.1
    }
    bias_filler {
      type: "constant"
    }
  }
}
layer {
  name: "ip3"
  type: "InnerProduct"
  bottom: "ip2"
  top: "ip3"
  param {
    lr_mult: 1
  }
  param {
    lr_mult: 2
  }
  inner_product_param {
    num_output: 1
    weight_filler {
      type: "gaussian"
      std: 0.1
    }
    bias_filler {
      type: "constant"
    }
  }
}
layer {
  name: "loss"
  type: "HuberLoss"
  bottom: "ip3"
  bottom: "label"
  top: "loss"
  include {
    phase: TRAIN
  }
}
I0503 05:21:20.068507 18433 layer_factory.hpp:77] Creating layer parameters
I0503 05:21:20.068523 18433 net.cpp:94] Creating Layer parameters
I0503 05:21:20.068528 18433 net.cpp:409] parameters -> data
I0503 05:21:20.068537 18433 net.cpp:409] parameters -> label
I0503 05:21:20.068543 18433 hdf5_data_layer.cpp:79] Loading list of HDF5 filenames from: /home/purduethu/scratch/radon/d/deng106/CNNStatisticalModel/distributions/input/5_distributions_400_sample_size_train-parameters-path.txt
I0503 05:21:20.068570 18433 hdf5_data_layer.cpp:93] Number of HDF5 files: 1
I0503 05:21:20.069126 18433 hdf5.cpp:32] Datatype class: H5T_FLOAT
I0503 05:21:20.139798 18433 net.cpp:144] Setting up parameters
I0503 05:21:20.139829 18433 net.cpp:151] Top shape: 20 1 20 20 (8000)
I0503 05:21:20.139834 18433 net.cpp:151] Top shape: 20 (20)
I0503 05:21:20.139838 18433 net.cpp:159] Memory required for data: 32080
I0503 05:21:20.139844 18433 layer_factory.hpp:77] Creating layer conv1
I0503 05:21:20.139860 18433 net.cpp:94] Creating Layer conv1
I0503 05:21:20.139864 18433 net.cpp:435] conv1 <- data
I0503 05:21:20.139870 18433 net.cpp:409] conv1 -> conv1
I0503 05:21:20.147804 18433 net.cpp:144] Setting up conv1
I0503 05:21:20.147827 18433 net.cpp:151] Top shape: 20 64 20 20 (512000)
I0503 05:21:20.147832 18433 net.cpp:159] Memory required for data: 2080080
I0503 05:21:20.147843 18433 layer_factory.hpp:77] Creating layer relu1
I0503 05:21:20.147853 18433 net.cpp:94] Creating Layer relu1
I0503 05:21:20.147857 18433 net.cpp:435] relu1 <- conv1
I0503 05:21:20.147862 18433 net.cpp:396] relu1 -> conv1 (in-place)
I0503 05:21:20.147871 18433 net.cpp:144] Setting up relu1
I0503 05:21:20.147874 18433 net.cpp:151] Top shape: 20 64 20 20 (512000)
I0503 05:21:20.147877 18433 net.cpp:159] Memory required for data: 4128080
I0503 05:21:20.147881 18433 layer_factory.hpp:77] Creating layer conv2
I0503 05:21:20.147891 18433 net.cpp:94] Creating Layer conv2
I0503 05:21:20.147893 18433 net.cpp:435] conv2 <- conv1
I0503 05:21:20.147898 18433 net.cpp:409] conv2 -> conv2
I0503 05:21:20.158718 18433 net.cpp:144] Setting up conv2
I0503 05:21:20.158735 18433 net.cpp:151] Top shape: 20 64 20 20 (512000)
I0503 05:21:20.158740 18433 net.cpp:159] Memory required for data: 6176080
I0503 05:21:20.158748 18433 layer_factory.hpp:77] Creating layer relu2
I0503 05:21:20.158756 18433 net.cpp:94] Creating Layer relu2
I0503 05:21:20.158759 18433 net.cpp:435] relu2 <- conv2
I0503 05:21:20.158764 18433 net.cpp:396] relu2 -> conv2 (in-place)
I0503 05:21:20.158771 18433 net.cpp:144] Setting up relu2
I0503 05:21:20.158776 18433 net.cpp:151] Top shape: 20 64 20 20 (512000)
I0503 05:21:20.158779 18433 net.cpp:159] Memory required for data: 8224080
I0503 05:21:20.158782 18433 layer_factory.hpp:77] Creating layer pool2
I0503 05:21:20.158787 18433 net.cpp:94] Creating Layer pool2
I0503 05:21:20.158797 18433 net.cpp:435] pool2 <- conv2
I0503 05:21:20.158802 18433 net.cpp:409] pool2 -> pool2
I0503 05:21:20.158856 18433 net.cpp:144] Setting up pool2
I0503 05:21:20.158864 18433 net.cpp:151] Top shape: 20 64 10 10 (128000)
I0503 05:21:20.158867 18433 net.cpp:159] Memory required for data: 8736080
I0503 05:21:20.158870 18433 layer_factory.hpp:77] Creating layer conv3
I0503 05:21:20.158879 18433 net.cpp:94] Creating Layer conv3
I0503 05:21:20.158881 18433 net.cpp:435] conv3 <- pool2
I0503 05:21:20.158886 18433 net.cpp:409] conv3 -> conv3
I0503 05:21:20.168103 18433 net.cpp:144] Setting up conv3
I0503 05:21:20.168118 18433 net.cpp:151] Top shape: 20 128 10 10 (256000)
I0503 05:21:20.168123 18433 net.cpp:159] Memory required for data: 9760080
I0503 05:21:20.168130 18433 layer_factory.hpp:77] Creating layer relu3
I0503 05:21:20.168136 18433 net.cpp:94] Creating Layer relu3
I0503 05:21:20.168140 18433 net.cpp:435] relu3 <- conv3
I0503 05:21:20.168144 18433 net.cpp:396] relu3 -> conv3 (in-place)
I0503 05:21:20.168151 18433 net.cpp:144] Setting up relu3
I0503 05:21:20.168155 18433 net.cpp:151] Top shape: 20 128 10 10 (256000)
I0503 05:21:20.168159 18433 net.cpp:159] Memory required for data: 10784080
I0503 05:21:20.168161 18433 layer_factory.hpp:77] Creating layer conv4
I0503 05:21:20.168169 18433 net.cpp:94] Creating Layer conv4
I0503 05:21:20.168174 18433 net.cpp:435] conv4 <- conv3
I0503 05:21:20.168177 18433 net.cpp:409] conv4 -> conv4
I0503 05:21:20.185588 18433 net.cpp:144] Setting up conv4
I0503 05:21:20.185606 18433 net.cpp:151] Top shape: 20 128 10 10 (256000)
I0503 05:21:20.185611 18433 net.cpp:159] Memory required for data: 11808080
I0503 05:21:20.185616 18433 layer_factory.hpp:77] Creating layer relu4
I0503 05:21:20.185623 18433 net.cpp:94] Creating Layer relu4
I0503 05:21:20.185626 18433 net.cpp:435] relu4 <- conv4
I0503 05:21:20.185631 18433 net.cpp:396] relu4 -> conv4 (in-place)
I0503 05:21:20.185639 18433 net.cpp:144] Setting up relu4
I0503 05:21:20.185643 18433 net.cpp:151] Top shape: 20 128 10 10 (256000)
I0503 05:21:20.185647 18433 net.cpp:159] Memory required for data: 12832080
I0503 05:21:20.185649 18433 layer_factory.hpp:77] Creating layer conv5
I0503 05:21:20.185663 18433 net.cpp:94] Creating Layer conv5
I0503 05:21:20.185667 18433 net.cpp:435] conv5 <- conv4
I0503 05:21:20.185672 18433 net.cpp:409] conv5 -> conv5
I0503 05:21:20.202616 18433 net.cpp:144] Setting up conv5
I0503 05:21:20.202638 18433 net.cpp:151] Top shape: 20 128 10 10 (256000)
I0503 05:21:20.202642 18433 net.cpp:159] Memory required for data: 13856080
I0503 05:21:20.202653 18433 layer_factory.hpp:77] Creating layer relu5
I0503 05:21:20.202661 18433 net.cpp:94] Creating Layer relu5
I0503 05:21:20.202666 18433 net.cpp:435] relu5 <- conv5
I0503 05:21:20.202671 18433 net.cpp:396] relu5 -> conv5 (in-place)
I0503 05:21:20.202678 18433 net.cpp:144] Setting up relu5
I0503 05:21:20.202682 18433 net.cpp:151] Top shape: 20 128 10 10 (256000)
I0503 05:21:20.202685 18433 net.cpp:159] Memory required for data: 14880080
I0503 05:21:20.202688 18433 layer_factory.hpp:77] Creating layer pool5
I0503 05:21:20.202694 18433 net.cpp:94] Creating Layer pool5
I0503 05:21:20.202698 18433 net.cpp:435] pool5 <- conv5
I0503 05:21:20.202702 18433 net.cpp:409] pool5 -> pool5
I0503 05:21:20.202747 18433 net.cpp:144] Setting up pool5
I0503 05:21:20.202754 18433 net.cpp:151] Top shape: 20 128 5 5 (64000)
I0503 05:21:20.202757 18433 net.cpp:159] Memory required for data: 15136080
I0503 05:21:20.202760 18433 layer_factory.hpp:77] Creating layer ip1
I0503 05:21:20.202769 18433 net.cpp:94] Creating Layer ip1
I0503 05:21:20.202772 18433 net.cpp:435] ip1 <- pool5
I0503 05:21:20.202777 18433 net.cpp:409] ip1 -> ip1
I0503 05:21:20.286200 18433 net.cpp:144] Setting up ip1
I0503 05:21:20.286236 18433 net.cpp:151] Top shape: 20 1024 (20480)
I0503 05:21:20.286239 18433 net.cpp:159] Memory required for data: 15218000
I0503 05:21:20.286249 18433 layer_factory.hpp:77] Creating layer ip2
I0503 05:21:20.286259 18433 net.cpp:94] Creating Layer ip2
I0503 05:21:20.286270 18433 net.cpp:435] ip2 <- ip1
I0503 05:21:20.286278 18433 net.cpp:409] ip2 -> ip2
I0503 05:21:20.299727 18433 net.cpp:144] Setting up ip2
I0503 05:21:20.299751 18433 net.cpp:151] Top shape: 20 512 (10240)
I0503 05:21:20.299754 18433 net.cpp:159] Memory required for data: 15258960
I0503 05:21:20.299762 18433 layer_factory.hpp:77] Creating layer ip3
I0503 05:21:20.299769 18433 net.cpp:94] Creating Layer ip3
I0503 05:21:20.299773 18433 net.cpp:435] ip3 <- ip2
I0503 05:21:20.299780 18433 net.cpp:409] ip3 -> ip3
I0503 05:21:20.299906 18433 net.cpp:144] Setting up ip3
I0503 05:21:20.299913 18433 net.cpp:151] Top shape: 20 1 (20)
I0503 05:21:20.299916 18433 net.cpp:159] Memory required for data: 15259040
I0503 05:21:20.299921 18433 layer_factory.hpp:77] Creating layer loss
I0503 05:21:20.299935 18433 net.cpp:94] Creating Layer loss
I0503 05:21:20.299938 18433 net.cpp:435] loss <- ip3
I0503 05:21:20.299942 18433 net.cpp:435] loss <- label
I0503 05:21:20.299947 18433 net.cpp:409] loss -> loss
I0503 05:21:20.299998 18433 net.cpp:144] Setting up loss
…
I0503 05:21:20.456504 18433 net.cpp:323] The NetState phase (0) differed from the phase (1) specified by a rule in layer intercept
I0503 05:21:20.456521 18433 net.cpp:323] The NetState phase (0) differed from the phase (1) specified by a rule in layer accuracy
I0503 05:21:20.456625 18433 net.cpp:52] Initializing net from parameters: 
state {
  phase: TRAIN
}
layer {
  name: "parameters"
  type: "HDF5Data"
  top: "data"
  top: "label"
  include {
    phase: TRAIN
  }
  hdf5_data_param {
    source: "/home/purduethu/scratch/radon/d/deng106/CNNStatisticalModel/distributions/input/5_distributions_400_sample_size_train-distributions-path.txt"
    batch_size: 20
  }
}
layer {
  name: "conv1"
  type: "Convolution"
  bottom: "data"
  top: "conv1"
  param {
    lr_mult: 1
  }
  param {
    lr_mult: 2
  }
  convolution_param {
    num_output: 64
    pad: 2
    kernel_size: 5
    stride: 1
    weight_filler {
      type: "gaussian"
      std: 0.0001
    }
    bias_filler {
      type: "constant"
    }
  }
}
layer {
  name: "relu1"
  type: "ReLU"
  bottom: "conv1"
  top: "conv1"
}
layer {
  name: "conv2"
  type: "Convolution"
  bottom: "conv1"
  top: "conv2"
  param {
    lr_mult: 1
  }
  param {
    lr_mult: 2
  }
  convolution_param {
    num_output: 64
    pad: 2
    kernel_size: 5
    stride: 1
    weight_filler {
      type: "gaussian"
      std: 0.01
    }
    bias_filler {
      type: "constant"
    }
  }
}
layer {
  name: "relu2"
  type: "ReLU"
  bottom: "conv2"
  top: "conv2"
}
layer {
  name: "pool2"
  type: "Pooling"
  bottom: "conv2"
  top: "pool2"
  pooling_param {
    pool: MAX
    kernel_size: 3
    stride: 2
  }
}
layer {
  name: "conv3"
  type: "Convolution"
  bottom: "pool2"
  top: "conv3"
  param {
    lr_mult: 1
  }
  param {
    lr_mult: 2
  }
  convolution_param {
    num_output: 128
    pad: 2
    kernel_size: 5
    stride: 1
    weight_filler {
      type: "gaussian"
      std: 0.01
    }
    bias_filler {
      type: "constant"
    }
  }
}
layer {
  name: "relu3"
  type: "ReLU"
  bottom: "conv3"
  top: "conv3"
}
layer {
  name: "conv4"
  type: "Convolution"
  bottom: "conv3"
  top: "conv4"
  param {
    lr_mult: 1
  }
  param {
    lr_mult: 2
  }
  convolution_param {
    num_output: 128
    pad: 2
    kernel_size: 5
    stride: 1
    weight_filler {
      type: "gaussian"
      std: 0.01
    }
    bias_filler {
      type: "constant"
    }
  }
}
layer {
  name: "relu4"
  type: "ReLU"
  bottom: "conv4"
  top: "conv4"
}
layer {
  name: "conv5"
  type: "Convolution"
  bottom: "conv4"
  top: "conv5"
  param {
    lr_mult: 1
  }
  param {
    lr_mult: 2
  }
  convolution_param {
    num_output: 128
    pad: 2
    kernel_size: 5
    stride: 1
    weight_filler {
      type: "gaussian"
      std: 0.01
    }
    bias_filler {
      type: "constant"
    }
  }
}
layer {
  name: "relu5"
  type: "ReLU"
  bottom: "conv5"
  top: "conv5"
}
layer {
  name: "pool5"
  type: "Pooling"
  bottom: "conv5"
  top: "pool5"
  pooling_param {
    pool: AVE
    kernel_size: 3
    stride: 2
  }
}
layer {
  name: "ip1"
  type: "InnerProduct"
  bottom: "pool5"
  top: "ip1"
  param {
    lr_mult: 1
  }
  param {
    lr_mult: 2
  }
  inner_product_param {
    num_output: 1024
    weight_filler {
      type: "gaussian"
      std: 0.1
    }
    bias_filler {
      type: "constant"
    }
  }
}
layer {
  name: "ip2"
  type: "InnerProduct"
  bottom: "ip1"
  top: "ip2"
  param {
    lr_mult: 1
  }
  param {
    lr_mult: 2
  }
  inner_product_param {
    num_output: 512
    weight_filler {
      type: "gaussian"
      std: 0.1
    }
    bias_filler {
      type: "constant"
    }
  }
}
layer {
  name: "ip3"
  type: "InnerProduct"
  bottom: "ip2"
  top: "ip3"
  param {
    lr_mult: 1
  }
  param {
    lr_mult: 2
  }
  inner_product_param {
    num_output: 50
    weight_filler {
      type: "gaussian"
      std: 0.1
    }
    bias_filler {
      type: "constant"
    }
  }
}
layer {
  name: "loss"
  type: "SoftmaxWithLoss"
  bottom: "ip3"
  bottom: "label"
  top: "loss"
}
I0503 05:21:20.456681 18433 layer_factory.hpp:77] Creating layer parameters
I0503 05:21:20.456691 18433 net.cpp:94] Creating Layer parameters
I0503 05:21:20.456694 18433 net.cpp:409] parameters -> data
I0503 05:21:20.456701 18433 net.cpp:409] parameters -> label
I0503 05:21:20.456707 18433 hdf5_data_layer.cpp:79] Loading list of HDF5 filenames from: /home/purduethu/scratch/radon/d/deng106/CNNStatisticalModel/distributions/input/5_distributions_400_sample_size_train-distributions-path.txt
I0503 05:21:20.456723 18433 hdf5_data_layer.cpp:93] Number of HDF5 files: 1
I0503 05:21:20.518555 18433 hdf5.cpp:35] Datatype class: H5T_INTEGER
I0503 05:21:20.518996 18433 net.cpp:144] Setting up parameters
I0503 05:21:20.519011 18433 net.cpp:151] Top shape: 20 1 20 20 (8000)
I0503 05:21:20.519016 18433 net.cpp:151] Top shape: 20 (20)
I0503 05:21:20.519018 18433 net.cpp:159] Memory required for data: 32080
I0503 05:21:20.519024 18433 layer_factory.hpp:77] Creating layer conv1
I0503 05:21:20.519040 18433 net.cpp:94] Creating Layer conv1
I0503 05:21:20.519044 18433 net.cpp:435] conv1 <- data
I0503 05:21:20.519050 18433 net.cpp:409] conv1 -> conv1
I0503 05:21:20.521348 18433 net.cpp:144] Setting up conv1
I0503 05:21:20.521364 18433 net.cpp:151] Top shape: 20 64 20 20 (512000)
I0503 05:21:20.521368 18433 net.cpp:159] Memory required for data: 2080080
I0503 05:21:20.521378 18433 layer_factory.hpp:77] Creating layer relu1
I0503 05:21:20.521385 18433 net.cpp:94] Creating Layer relu1
I0503 05:21:20.521389 18433 net.cpp:435] relu1 <- conv1
I0503 05:21:20.521392 18433 net.cpp:396] relu1 -> conv1 (in-place)
I0503 05:21:20.521399 18433 net.cpp:144] Setting up relu1
I0503 05:21:20.521404 18433 net.cpp:151] Top shape: 20 64 20 20 (512000)
I0503 05:21:20.521406 18433 net.cpp:159] Memory required for data: 4128080
I0503 05:21:20.521409 18433 layer_factory.hpp:77] Creating layer conv2
I0503 05:21:20.521417 18433 net.cpp:94] Creating Layer conv2
I0503 05:21:20.521420 18433 net.cpp:435] conv2 <- conv1
I0503 05:21:20.521425 18433 net.cpp:409] conv2 -> conv2
I0503 05:21:20.531725 18433 net.cpp:144] Setting up conv2
I0503 05:21:20.531764 18433 net.cpp:151] Top shape: 20 64 20 20 (512000)
I0503 05:21:20.531774 18433 net.cpp:159] Memory required for data: 6176080
I0503 05:21:20.531796 18433 layer_factory.hpp:77] Creating layer relu2
I0503 05:21:20.531814 18433 net.cpp:94] Creating Layer relu2
I0503 05:21:20.531824 18433 net.cpp:435] relu2 <- conv2
I0503 05:21:20.531837 18433 net.cpp:396] relu2 -> conv2 (in-place)
I0503 05:21:20.531857 18433 net.cpp:144] Setting up relu2
I0503 05:21:20.531867 18433 net.cpp:151] Top shape: 20 64 20 20 (512000)
I0503 05:21:20.531877 18433 net.cpp:159] Memory required for data: 8224080
I0503 05:21:20.531885 18433 layer_factory.hpp:77] Creating layer pool2
I0503 05:21:20.531898 18433 net.cpp:94] Creating Layer pool2
I0503 05:21:20.531908 18433 net.cpp:435] pool2 <- conv2
I0503 05:21:20.531919 18433 net.cpp:409] pool2 -> pool2
I0503 05:21:20.532053 18433 net.cpp:144] Setting up pool2
I0503 05:21:20.532070 18433 net.cpp:151] Top shape: 20 64 10 10 (128000)
I0503 05:21:20.532079 18433 net.cpp:159] Memory required for data: 8736080
I0503 05:21:20.532088 18433 layer_factory.hpp:77] Creating layer conv3
I0503 05:21:20.532107 18433 net.cpp:94] Creating Layer conv3
I0503 05:21:20.532116 18433 net.cpp:435] conv3 <- pool2
I0503 05:21:20.532142 18433 net.cpp:409] conv3 -> conv3
I0503 05:21:20.542287 18433 net.cpp:144] Setting up conv3
I0503 05:21:20.542302 18433 net.cpp:151] Top shape: 20 128 10 10 (256000)
I0503 05:21:20.542306 18433 net.cpp:159] Memory required for data: 9760080
I0503 05:21:20.542315 18433 layer_factory.hpp:77] Creating layer relu3
I0503 05:21:20.542321 18433 net.cpp:94] Creating Layer relu3
I0503 05:21:20.542325 18433 net.cpp:435] relu3 <- conv3
I0503 05:21:20.542330 18433 net.cpp:396] relu3 -> conv3 (in-place)
I0503 05:21:20.542336 18433 net.cpp:144] Setting up relu3
I0503 05:21:20.542341 18433 net.cpp:151] Top shape: 20 128 10 10 (256000)
I0503 05:21:20.542345 18433 net.cpp:159] Memory required for data: 10784080
I0503 05:21:20.542346 18433 layer_factory.hpp:77] Creating layer conv4
I0503 05:21:20.542356 18433 net.cpp:94] Creating Layer conv4
I0503 05:21:20.542358 18433 net.cpp:435] conv4 <- conv3
I0503 05:21:20.542363 18433 net.cpp:409] conv4 -> conv4
I0503 05:21:20.560431 18433 net.cpp:144] Setting up conv4
I0503 05:21:20.560448 18433 net.cpp:151] Top shape: 20 128 10 10 (256000)
I0503 05:21:20.560452 18433 net.cpp:159] Memory required for data: 11808080
I0503 05:21:20.560459 18433 layer_factory.hpp:77] Creating layer relu4
I0503 05:21:20.560467 18433 net.cpp:94] Creating Layer relu4
I0503 05:21:20.560470 18433 net.cpp:435] relu4 <- conv4
I0503 05:21:20.560474 18433 net.cpp:396] relu4 -> conv4 (in-place)
I0503 05:21:20.560482 18433 net.cpp:144] Setting up relu4
I0503 05:21:20.560487 18433 net.cpp:151] Top shape: 20 128 10 10 (256000)
I0503 05:21:20.560489 18433 net.cpp:159] Memory required for data: 12832080
I0503 05:21:20.560492 18433 layer_factory.hpp:77] Creating layer conv5
I0503 05:21:20.560500 18433 net.cpp:94] Creating Layer conv5
I0503 05:21:20.560503 18433 net.cpp:435] conv5 <- conv4
I0503 05:21:20.560508 18433 net.cpp:409] conv5 -> conv5
I0503 05:21:20.578027 18433 net.cpp:144] Setting up conv5
I0503 05:21:20.578047 18433 net.cpp:151] Top shape: 20 128 10 10 (256000)
I0503 05:21:20.578050 18433 net.cpp:159] Memory required for data: 13856080
I0503 05:21:20.578061 18433 layer_factory.hpp:77] Creating layer relu5
I0503 05:21:20.578069 18433 net.cpp:94] Creating Layer relu5
I0503 05:21:20.578073 18433 net.cpp:435] relu5 <- conv5
I0503 05:21:20.578078 18433 net.cpp:396] relu5 -> conv5 (in-place)
I0503 05:21:20.578086 18433 net.cpp:144] Setting up relu5
I0503 05:21:20.578090 18433 net.cpp:151] Top shape: 20 128 10 10 (256000)
I0503 05:21:20.578094 18433 net.cpp:159] Memory required for data: 14880080
I0503 05:21:20.578096 18433 layer_factory.hpp:77] Creating layer pool5
I0503 05:21:20.578102 18433 net.cpp:94] Creating Layer pool5
I0503 05:21:20.578105 18433 net.cpp:435] pool5 <- conv5
I0503 05:21:20.578109 18433 net.cpp:409] pool5 -> pool5
I0503 05:21:20.578150 18433 net.cpp:144] Setting up pool5
I0503 05:21:20.578157 18433 net.cpp:151] Top shape: 20 128 5 5 (64000)
I0503 05:21:20.578161 18433 net.cpp:159] Memory required for data: 15136080
I0503 05:21:20.578163 18433 layer_factory.hpp:77] Creating layer ip1
I0503 05:21:20.578171 18433 net.cpp:94] Creating Layer ip1
I0503 05:21:20.578174 18433 net.cpp:435] ip1 <- pool5
I0503 05:21:20.578179 18433 net.cpp:409] ip1 -> ip1
I0503 05:21:20.658268 18433 net.cpp:144] Setting up ip1
I0503 05:21:20.658303 18433 net.cpp:151] Top shape: 20 1024 (20480)
I0503 05:21:20.658308 18433 net.cpp:159] Memory required for data: 15218000
I0503 05:21:20.658315 18433 layer_factory.hpp:77] Creating layer ip2
I0503 05:21:20.658325 18433 net.cpp:94] Creating Layer ip2
I0503 05:21:20.658330 18433 net.cpp:435] ip2 <- ip1
I0503 05:21:20.658337 18433 net.cpp:409] ip2 -> ip2
I0503 05:21:20.671725 18433 net.cpp:144] Setting up ip2
I0503 05:21:20.671746 18433 net.cpp:151] Top shape: 20 512 (10240)
I0503 05:21:20.671751 18433 net.cpp:159] Memory required for data: 15258960
I0503 05:21:20.671757 18433 layer_factory.hpp:77] Creating layer ip3
I0503 05:21:20.671766 18433 net.cpp:94] Creating Layer ip3
I0503 05:21:20.671771 18433 net.cpp:435] ip3 <- ip2
I0503 05:21:20.671777 18433 net.cpp:409] ip3 -> ip3
I0503 05:21:20.672525 18433 net.cpp:144] Setting up ip3
I0503 05:21:20.672534 18433 net.cpp:151] Top shape: 20 50 (1000)
I0503 05:21:20.672538 18433 net.cpp:159] Memory required for data: 15262960
I0503 05:21:20.672543 18433 layer_factory.hpp:77] Creating layer loss
I0503 05:21:20.672554 18433 net.cpp:94] Creating Layer loss
I0503 05:21:20.672569 18433 net.cpp:435] loss <- ip3
I0503 05:21:20.672574 18433 net.cpp:435] loss <- label
I0503 05:21:20.672577 18433 net.cpp:409] loss -> loss
I0503 05:21:20.672585 18433 layer_factory.hpp:77] Creating layer loss
…
I0503 05:21:20.673112 18433 solver.cpp:181] Creating test net (#0) specified by net file: ./protocol/dis_5_400_dimension.protocol_distribution
I0503 05:21:20.673138 18433 net.cpp:323] The NetState phase (1) differed from the phase (0) specified by a rule in layer parameters
I0503 05:21:20.673233 18433 net.cpp:52] Initializing net from parameters: 
state {
  phase: TEST
}
layer {
  name: "intercept"
  type: "HDF5Data"
  top: "data"
  top: "label"
  include {
    phase: TEST
  }
  hdf5_data_param {
    source: "/home/purduethu/scratch/radon/d/deng106/CNNStatisticalModel/distributions/input/5_distributions_400_sample_size_test-distributions-path.txt"
    batch_size: 20
  }
}
layer {
  name: "conv1"
  type: "Convolution"
  bottom: "data"
  top: "conv1"
  param {
    lr_mult: 1
  }
  param {
    lr_mult: 2
  }
  convolution_param {
    num_output: 64
    pad: 2
    kernel_size: 5
    stride: 1
    weight_filler {
      type: "gaussian"
      std: 0.0001
    }
    bias_filler {
      type: "constant"
    }
  }
}
layer {
  name: "relu1"
  type: "ReLU"
  bottom: "conv1"
  top: "conv1"
}
layer {
  name: "conv2"
  type: "Convolution"
  bottom: "conv1"
  top: "conv2"
  param {
    lr_mult: 1
  }
  param {
    lr_mult: 2
  }
  convolution_param {
    num_output: 64
    pad: 2
    kernel_size: 5
    stride: 1
    weight_filler {
      type: "gaussian"
      std: 0.01
    }
    bias_filler {
      type: "constant"
    }
  }
}
layer {
  name: "relu2"
  type: "ReLU"
  bottom: "conv2"
  top: "conv2"
}
layer {
  name: "pool2"
  type: "Pooling"
  bottom: "conv2"
  top: "pool2"
  pooling_param {
    pool: MAX
    kernel_size: 3
    stride: 2
  }
}
layer {
  name: "conv3"
  type: "Convolution"
  bottom: "pool2"
  top: "conv3"
  param {
    lr_mult: 1
  }
  param {
    lr_mult: 2
  }
  convolution_param {
    num_output: 128
    pad: 2
    kernel_size: 5
    stride: 1
    weight_filler {
      type: "gaussian"
      std: 0.01
    }
    bias_filler {
      type: "constant"
    }
  }
}
layer {
  name: "relu3"
  type: "ReLU"
  bottom: "conv3"
  top: "conv3"
}
layer {
  name: "conv4"
  type: "Convolution"
  bottom: "conv3"
  top: "conv4"
  param {
    lr_mult: 1
  }
  param {
    lr_mult: 2
  }
  convolution_param {
    num_output: 128
    pad: 2
    kernel_size: 5
    stride: 1
    weight_filler {
      type: "gaussian"
      std: 0.01
    }
    bias_filler {
      type: "constant"
    }
  }
}
layer {
  name: "relu4"
  type: "ReLU"
  bottom: "conv4"
  top: "conv4"
}
layer {
  name: "conv5"
  type: "Convolution"
  bottom: "conv4"
  top: "conv5"
  param {
    lr_mult: 1
  }
  param {
    lr_mult: 2
  }
  convolution_param {
    num_output: 128
    pad: 2
    kernel_size: 5
    stride: 1
    weight_filler {
      type: "gaussian"
      std: 0.01
    }
    bias_filler {
      type: "constant"
    }
  }
}
layer {
  name: "relu5"
  type: "ReLU"
  bottom: "conv5"
  top: "conv5"
}
layer {
  name: "pool5"
  type: "Pooling"
  bottom: "conv5"
  top: "pool5"
  pooling_param {
    pool: AVE
    kernel_size: 3
    stride: 2
  }
}
layer {
  name: "ip1"
  type: "InnerProduct"
  bottom: "pool5"
  top: "ip1"
  param {
    lr_mult: 1
  }
  param {
    lr_mult: 2
  }
  inner_product_param {
    num_output: 1024
    weight_filler {
      type: "gaussian"
      std: 0.1
    }
    bias_filler {
      type: "constant"
    }
  }
}
layer {
  name: "ip2"
  type: "InnerProduct"
  bottom: "ip1"
  top: "ip2"
  param {
    lr_mult: 1
  }
  param {
    lr_mult: 2
  }
  inner_product_param {
    num_output: 512
    weight_filler {
      type: "gaussian"
      std: 0.1
    }
    bias_filler {
      type: "constant"
    }
  }
}
layer {
  name: "ip3"
  type: "InnerProduct"
  bottom: "ip2"
  top: "ip3"
  param {
    lr_mult: 1
  }
  param {
    lr_mult: 2
  }
  inner_product_param {
    num_output: 50
    weight_filler {
      type: "gaussian"
      std: 0.1
    }
    bias_filler {
      type: "constant"
    }
  }
}
layer {
  name: "accuracy"
  type: "Accuracy"
  bottom: "ip3"
  bottom: "label"
  top: "accuracy"
  include {
    phase: TEST
  }
}
layer {
  name: "loss"
  type: "SoftmaxWithLoss"
  bottom: "ip3"
  bottom: "label"
  top: "loss"
}
I0503 05:21:20.673303 18433 layer_factory.hpp:77] Creating layer intercept
I0503 05:21:20.673312 18433 net.cpp:94] Creating Layer intercept
I0503 05:21:20.673316 18433 net.cpp:409] intercept -> data
I0503 05:21:20.673322 18433 net.cpp:409] intercept -> label
I0503 05:21:20.673327 18433 hdf5_data_layer.cpp:79] Loading list of HDF5 filenames from: /home/purduethu/scratch/radon/d/deng106/CNNStatisticalModel/distributions/input/5_distributions_400_sample_size_test-distributions-path.txt
I0503 05:21:20.673347 18433 hdf5_data_layer.cpp:93] Number of HDF5 files: 1
I0503 05:21:20.689893 18433 net.cpp:144] Setting up intercept
I0503 05:21:20.689924 18433 net.cpp:151] Top shape: 20 1 20 20 (8000)
I0503 05:21:20.689929 18433 net.cpp:151] Top shape: 20 (20)
I0503 05:21:20.689932 18433 net.cpp:159] Memory required for data: 32080
I0503 05:21:20.689939 18433 layer_factory.hpp:77] Creating layer label_intercept_1_split
I0503 05:21:20.689955 18433 net.cpp:94] Creating Layer label_intercept_1_split
I0503 05:21:20.689960 18433 net.cpp:435] label_intercept_1_split <- label
I0503 05:21:20.689965 18433 net.cpp:409] label_intercept_1_split -> label_intercept_1_split_0
I0503 05:21:20.689973 18433 net.cpp:409] label_intercept_1_split -> label_intercept_1_split_1
I0503 05:21:20.690014 18433 net.cpp:144] Setting up label_intercept_1_split
I0503 05:21:20.690021 18433 net.cpp:151] Top shape: 20 (20)
I0503 05:21:20.690024 18433 net.cpp:151] Top shape: 20 (20)
I0503 05:21:20.690027 18433 net.cpp:159] Memory required for data: 32240
I0503 05:21:20.690030 18433 layer_factory.hpp:77] Creating layer conv1
I0503 05:21:20.690040 18433 net.cpp:94] Creating Layer conv1
I0503 05:21:20.690043 18433 net.cpp:435] conv1 <- data
I0503 05:21:20.690048 18433 net.cpp:409] conv1 -> conv1
I0503 05:21:20.690861 18433 net.cpp:144] Setting up conv1
I0503 05:21:20.690881 18433 net.cpp:151] Top shape: 20 64 20 20 (512000)
I0503 05:21:20.690886 18433 net.cpp:159] Memory required for data: 2080240
I0503 05:21:20.690894 18433 layer_factory.hpp:77] Creating layer relu1
I0503 05:21:20.690901 18433 net.cpp:94] Creating Layer relu1
I0503 05:21:20.690904 18433 net.cpp:435] relu1 <- conv1
I0503 05:21:20.690908 18433 net.cpp:396] relu1 -> conv1 (in-place)
I0503 05:21:20.690915 18433 net.cpp:144] Setting up relu1
I0503 05:21:20.690919 18433 net.cpp:151] Top shape: 20 64 20 20 (512000)
I0503 05:21:20.690922 18433 net.cpp:159] Memory required for data: 4128240
I0503 05:21:20.690925 18433 layer_factory.hpp:77] Creating layer conv2
I0503 05:21:20.690933 18433 net.cpp:94] Creating Layer conv2
I0503 05:21:20.690937 18433 net.cpp:435] conv2 <- conv1
I0503 05:21:20.690942 18433 net.cpp:409] conv2 -> conv2
I0503 05:21:20.695969 18433 net.cpp:144] Setting up conv2
I0503 05:21:20.695986 18433 net.cpp:151] Top shape: 20 64 20 20 (512000)
I0503 05:21:20.695989 18433 net.cpp:159] Memory required for data: 6176240
I0503 05:21:20.695997 18433 layer_factory.hpp:77] Creating layer relu2
I0503 05:21:20.696004 18433 net.cpp:94] Creating Layer relu2
I0503 05:21:20.696007 18433 net.cpp:435] relu2 <- conv2
I0503 05:21:20.696012 18433 net.cpp:396] relu2 -> conv2 (in-place)
I0503 05:21:20.696018 18433 net.cpp:144] Setting up relu2
I0503 05:21:20.696023 18433 net.cpp:151] Top shape: 20 64 20 20 (512000)
I0503 05:21:20.696025 18433 net.cpp:159] Memory required for data: 8224240
I0503 05:21:20.696028 18433 layer_factory.hpp:77] Creating layer pool2
I0503 05:21:20.696034 18433 net.cpp:94] Creating Layer pool2
I0503 05:21:20.696038 18433 net.cpp:435] pool2 <- conv2
I0503 05:21:20.696041 18433 net.cpp:409] pool2 -> pool2
I0503 05:21:20.696094 18433 net.cpp:144] Setting up pool2
I0503 05:21:20.696101 18433 net.cpp:151] Top shape: 20 64 10 10 (128000)
I0503 05:21:20.696105 18433 net.cpp:159] Memory required for data: 8736240
I0503 05:21:20.696107 18433 layer_factory.hpp:77] Creating layer conv3
I0503 05:21:20.696115 18433 net.cpp:94] Creating Layer conv3
I0503 05:21:20.696118 18433 net.cpp:435] conv3 <- pool2
I0503 05:21:20.696123 18433 net.cpp:409] conv3 -> conv3
I0503 05:21:20.703292 18433 net.cpp:144] Setting up conv3
I0503 05:21:20.703306 18433 net.cpp:151] Top shape: 20 128 10 10 (256000)
I0503 05:21:20.703310 18433 net.cpp:159] Memory required for data: 9760240
I0503 05:21:20.703318 18433 layer_factory.hpp:77] Creating layer relu3
I0503 05:21:20.703325 18433 net.cpp:94] Creating Layer relu3
I0503 05:21:20.703330 18433 net.cpp:435] relu3 <- conv3
I0503 05:21:20.703333 18433 net.cpp:396] relu3 -> conv3 (in-place)
I0503 05:21:20.703341 18433 net.cpp:144] Setting up relu3
I0503 05:21:20.703344 18433 net.cpp:151] Top shape: 20 128 10 10 (256000)
I0503 05:21:20.703347 18433 net.cpp:159] Memory required for data: 10784240
I0503 05:21:20.703351 18433 layer_factory.hpp:77] Creating layer conv4
I0503 05:21:20.703357 18433 net.cpp:94] Creating Layer conv4
I0503 05:21:20.703361 18433 net.cpp:435] conv4 <- conv3
I0503 05:21:20.703366 18433 net.cpp:409] conv4 -> conv4
I0503 05:21:20.718406 18433 net.cpp:144] Setting up conv4
I0503 05:21:20.718423 18433 net.cpp:151] Top shape: 20 128 10 10 (256000)
I0503 05:21:20.718427 18433 net.cpp:159] Memory required for data: 11808240
I0503 05:21:20.718435 18433 layer_factory.hpp:77] Creating layer relu4
I0503 05:21:20.718441 18433 net.cpp:94] Creating Layer relu4
I0503 05:21:20.718444 18433 net.cpp:435] relu4 <- conv4
I0503 05:21:20.718449 18433 net.cpp:396] relu4 -> conv4 (in-place)
I0503 05:21:20.718456 18433 net.cpp:144] Setting up relu4
I0503 05:21:20.718461 18433 net.cpp:151] Top shape: 20 128 10 10 (256000)
I0503 05:21:20.718463 18433 net.cpp:159] Memory required for data: 12832240
I0503 05:21:20.718466 18433 layer_factory.hpp:77] Creating layer conv5
I0503 05:21:20.718474 18433 net.cpp:94] Creating Layer conv5
I0503 05:21:20.718477 18433 net.cpp:435] conv5 <- conv4
I0503 05:21:20.718482 18433 net.cpp:409] conv5 -> conv5
I0503 05:21:20.737896 18433 net.cpp:144] Setting up conv5
I0503 05:21:20.737922 18433 net.cpp:151] Top shape: 20 128 10 10 (256000)
I0503 05:21:20.737926 18433 net.cpp:159] Memory required for data: 13856240
I0503 05:21:20.737936 18433 layer_factory.hpp:77] Creating layer relu5
I0503 05:21:20.737943 18433 net.cpp:94] Creating Layer relu5
I0503 05:21:20.737947 18433 net.cpp:435] relu5 <- conv5
I0503 05:21:20.737952 18433 net.cpp:396] relu5 -> conv5 (in-place)
I0503 05:21:20.737959 18433 net.cpp:144] Setting up relu5
I0503 05:21:20.737963 18433 net.cpp:151] Top shape: 20 128 10 10 (256000)
I0503 05:21:20.737967 18433 net.cpp:159] Memory required for data: 14880240
I0503 05:21:20.737969 18433 layer_factory.hpp:77] Creating layer pool5
I0503 05:21:20.737974 18433 net.cpp:94] Creating Layer pool5
I0503 05:21:20.737978 18433 net.cpp:435] pool5 <- conv5
I0503 05:21:20.737982 18433 net.cpp:409] pool5 -> pool5
I0503 05:21:20.738024 18433 net.cpp:144] Setting up pool5
I0503 05:21:20.738031 18433 net.cpp:151] Top shape: 20 128 5 5 (64000)
I0503 05:21:20.738034 18433 net.cpp:159] Memory required for data: 15136240
I0503 05:21:20.738037 18433 layer_factory.hpp:77] Creating layer ip1
I0503 05:21:20.738044 18433 net.cpp:94] Creating Layer ip1
I0503 05:21:20.738047 18433 net.cpp:435] ip1 <- pool5
I0503 05:21:20.738052 18433 net.cpp:409] ip1 -> ip1
I0503 05:21:20.817723 18433 net.cpp:144] Setting up ip1
I0503 05:21:20.817757 18433 net.cpp:151] Top shape: 20 1024 (20480)
I0503 05:21:20.817761 18433 net.cpp:159] Memory required for data: 15218160
I0503 05:21:20.817770 18433 layer_factory.hpp:77] Creating layer ip2
I0503 05:21:20.817781 18433 net.cpp:94] Creating Layer ip2
I0503 05:21:20.817786 18433 net.cpp:435] ip2 <- ip1
I0503 05:21:20.817792 18433 net.cpp:409] ip2 -> ip2
I0503 05:21:20.831068 18433 net.cpp:144] Setting up ip2
I0503 05:21:20.831089 18433 net.cpp:151] Top shape: 20 512 (10240)
I0503 05:21:20.831092 18433 net.cpp:159] Memory required for data: 15259120
I0503 05:21:20.831100 18433 layer_factory.hpp:77] Creating layer ip3
I0503 05:21:20.831111 18433 net.cpp:94] Creating Layer ip3
I0503 05:21:20.831115 18433 net.cpp:435] ip3 <- ip2
I0503 05:21:20.831122 18433 net.cpp:409] ip3 -> ip3
I0503 05:21:20.831856 18433 net.cpp:144] Setting up ip3
I0503 05:21:20.831866 18433 net.cpp:151] Top shape: 20 50 (1000)
I0503 05:21:20.831868 18433 net.cpp:159] Memory required for data: 15263120
I0503 05:21:20.831873 18433 layer_factory.hpp:77] Creating layer ip3_ip3_0_split
I0503 05:21:20.831879 18433 net.cpp:94] Creating Layer ip3_ip3_0_split
I0503 05:21:20.831883 18433 net.cpp:435] ip3_ip3_0_split <- ip3
I0503 05:21:20.831887 18433 net.cpp:409] ip3_ip3_0_split -> ip3_ip3_0_split_0
I0503 05:21:20.831893 18433 net.cpp:409] ip3_ip3_0_split -> ip3_ip3_0_split_1
I0503 05:21:20.831933 18433 net.cpp:144] Setting up ip3_ip3_0_split
I0503 05:21:20.831938 18433 net.cpp:151] Top shape: 20 50 (1000)
I0503 05:21:20.831941 18433 net.cpp:151] Top shape: 20 50 (1000)
I0503 05:21:20.831944 18433 net.cpp:159] Memory required for data: 15271120
I0503 05:21:20.831948 18433 layer_factory.hpp:77] Creating layer accuracy
I0503 05:21:20.831954 18433 net.cpp:94] Creating Layer accuracy
I0503 05:21:20.831956 18433 net.cpp:435] accuracy <- ip3_ip3_0_split_0
I0503 05:21:20.831960 18433 net.cpp:435] accuracy <- label_intercept_1_split_0
I0503 05:21:20.831965 18433 net.cpp:409] accuracy -> accuracy
…
