…
I0505 05:34:56.450193  3591 net.cpp:323] The NetState phase (0) differed from the phase (1) specified by a rule in layer intercept
I0505 05:34:56.450207  3591 net.cpp:323] The NetState phase (0) differed from the phase (1) specified by a rule in layer accuracy
I0505 05:34:56.450286  3591 net.cpp:52] Initializing net from parameters: 
state {
  phase: TRAIN
}
layer {
  name: "parameters"
  type: "HDF5Data"
  top: "data"
  top: "label"
  include {
    phase: TRAIN
  }
  hdf5_data_param {
    source: "/home/purduethu/scratch/radon/d/deng106/CNNStatisticalModel/distributions/input/20_distributions_100_sample_size_train-distributions-path.txt"
    batch_size: 20
  }
}
layer {
  name: "conv1"
  type: "Convolution"
  bottom: "data"
  top: "conv1"
  param {
    lr_mult: 1
  }
  param {
    lr_mult: 2
  }
  convolution_param {
    num_output: 64
    pad: 2
    kernel_size: 5
    stride: 1
    weight_filler {
      type: "gaussian"
      std: 0.0001
    }
    bias_filler {
      type: "constant"
    }
  }
}
layer {
  name: "relu1"
  type: "ReLU"
  bottom: "conv1"
  top: "conv1"
}
layer {
  name: "pool1"
  type: "Pooling"
  bottom: "conv1"
  top: "pool1"
  pooling_param {
    pool: MAX
    kernel_size: 3
    stride: 2
  }
}
layer {
  name: "conv2"
  type: "Convolution"
  bottom: "pool1"
  top: "conv2"
  param {
    lr_mult: 1
  }
  param {
    lr_mult: 2
  }
  convolution_param {
    num_output: 128
    pad: 2
    kernel_size: 5
    stride: 1
    weight_filler {
      type: "gaussian"
      std: 0.01
    }
    bias_filler {
      type: "constant"
    }
  }
}
layer {
  name: "relu2"
  type: "ReLU"
  bottom: "conv2"
  top: "conv2"
}
layer {
  name: "conv3"
  type: "Convolution"
  bottom: "conv2"
  top: "conv3"
  param {
    lr_mult: 1
  }
  param {
    lr_mult: 2
  }
  convolution_param {
    num_output: 128
    pad: 2
    kernel_size: 5
    stride: 1
    weight_filler {
      type: "gaussian"
      std: 0.01
    }
    bias_filler {
      type: "constant"
    }
  }
}
layer {
  name: "relu3"
  type: "ReLU"
  bottom: "conv3"
  top: "conv3"
}
layer {
  name: "pool3"
  type: "Pooling"
  bottom: "conv3"
  top: "pool3"
  pooling_param {
    pool: AVE
    kernel_size: 3
    stride: 2
  }
}
layer {
  name: "ip1"
  type: "InnerProduct"
  bottom: "pool3"
  top: "ip1"
  param {
    lr_mult: 1
  }
  param {
    lr_mult: 2
  }
  inner_product_param {
    num_output: 512
    weight_filler {
      type: "gaussian"
      std: 0.1
    }
    bias_filler {
      type: "constant"
    }
  }
}
layer {
  name: "ip2"
  type: "InnerProduct"
  bottom: "ip1"
  top: "ip2"
  param {
    lr_mult: 1
  }
  param {
    lr_mult: 2
  }
  inner_product_param {
    num_output: 256
    weight_filler {
      type: "gaussian"
      std: 0.1
    }
    bias_filler {
      type: "constant"
    }
  }
}
layer {
  name: "ip3"
  type: "InnerProduct"
  bottom: "ip2"
  top: "ip3"
  param {
    lr_mult: 1
  }
  param {
    lr_mult: 2
  }
  inner_product_param {
    num_output: 50
    weight_filler {
      type: "gaussian"
      std: 0.1
    }
    bias_filler {
      type: "constant"
    }
  }
}
layer {
  name: "loss"
  type: "SoftmaxWithLoss"
  bottom: "ip3"
  bottom: "label"
  top: "loss"
}
I0505 05:34:56.450350  3591 layer_factory.hpp:77] Creating layer parameters
I0505 05:34:56.450363  3591 net.cpp:94] Creating Layer parameters
I0505 05:34:56.450376  3591 net.cpp:409] parameters -> data
I0505 05:34:56.450395  3591 net.cpp:409] parameters -> label
I0505 05:34:56.450407  3591 hdf5_data_layer.cpp:79] Loading list of HDF5 filenames from: /home/purduethu/scratch/radon/d/deng106/CNNStatisticalModel/distributions/input/20_distributions_100_sample_size_train-distributions-path.txt
I0505 05:34:56.450428  3591 hdf5_data_layer.cpp:93] Number of HDF5 files: 1
I0505 05:34:56.450913  3591 hdf5.cpp:32] Datatype class: H5T_FLOAT
I0505 05:34:56.516064  3591 hdf5.cpp:35] Datatype class: H5T_INTEGER
I0505 05:34:56.517658  3591 net.cpp:144] Setting up parameters
I0505 05:34:56.517678  3591 net.cpp:151] Top shape: 20 1 10 10 (2000)
I0505 05:34:56.517683  3591 net.cpp:151] Top shape: 20 (20)
I0505 05:34:56.517688  3591 net.cpp:159] Memory required for data: 8080
I0505 05:34:56.517694  3591 layer_factory.hpp:77] Creating layer conv1
I0505 05:34:56.517719  3591 net.cpp:94] Creating Layer conv1
I0505 05:34:56.517725  3591 net.cpp:435] conv1 <- data
I0505 05:34:56.517736  3591 net.cpp:409] conv1 -> conv1
I0505 05:34:56.521466  3591 net.cpp:144] Setting up conv1
I0505 05:34:56.521481  3591 net.cpp:151] Top shape: 20 64 10 10 (128000)
I0505 05:34:56.521486  3591 net.cpp:159] Memory required for data: 520080
I0505 05:34:56.521497  3591 layer_factory.hpp:77] Creating layer relu1
I0505 05:34:56.521504  3591 net.cpp:94] Creating Layer relu1
I0505 05:34:56.521508  3591 net.cpp:435] relu1 <- conv1
I0505 05:34:56.521513  3591 net.cpp:396] relu1 -> conv1 (in-place)
I0505 05:34:56.521528  3591 net.cpp:144] Setting up relu1
I0505 05:34:56.521534  3591 net.cpp:151] Top shape: 20 64 10 10 (128000)
I0505 05:34:56.521538  3591 net.cpp:159] Memory required for data: 1032080
I0505 05:34:56.521540  3591 layer_factory.hpp:77] Creating layer pool1
I0505 05:34:56.521548  3591 net.cpp:94] Creating Layer pool1
I0505 05:34:56.521553  3591 net.cpp:435] pool1 <- conv1
I0505 05:34:56.521556  3591 net.cpp:409] pool1 -> pool1
I0505 05:34:56.521601  3591 net.cpp:144] Setting up pool1
I0505 05:34:56.521607  3591 net.cpp:151] Top shape: 20 64 5 5 (32000)
I0505 05:34:56.521611  3591 net.cpp:159] Memory required for data: 1160080
I0505 05:34:56.521615  3591 layer_factory.hpp:77] Creating layer conv2
I0505 05:34:56.521623  3591 net.cpp:94] Creating Layer conv2
I0505 05:34:56.521627  3591 net.cpp:435] conv2 <- pool1
I0505 05:34:56.521632  3591 net.cpp:409] conv2 -> conv2
I0505 05:34:56.529712  3591 net.cpp:144] Setting up conv2
I0505 05:34:56.529728  3591 net.cpp:151] Top shape: 20 128 5 5 (64000)
I0505 05:34:56.529733  3591 net.cpp:159] Memory required for data: 1416080
I0505 05:34:56.529742  3591 layer_factory.hpp:77] Creating layer relu2
I0505 05:34:56.529747  3591 net.cpp:94] Creating Layer relu2
I0505 05:34:56.529752  3591 net.cpp:435] relu2 <- conv2
I0505 05:34:56.529762  3591 net.cpp:396] relu2 -> conv2 (in-place)
I0505 05:34:56.529769  3591 net.cpp:144] Setting up relu2
I0505 05:34:56.529774  3591 net.cpp:151] Top shape: 20 128 5 5 (64000)
I0505 05:34:56.529778  3591 net.cpp:159] Memory required for data: 1672080
I0505 05:34:56.529781  3591 layer_factory.hpp:77] Creating layer conv3
I0505 05:34:56.529789  3591 net.cpp:94] Creating Layer conv3
I0505 05:34:56.529793  3591 net.cpp:435] conv3 <- conv2
I0505 05:34:56.529798  3591 net.cpp:409] conv3 -> conv3
I0505 05:34:56.544495  3591 net.cpp:144] Setting up conv3
I0505 05:34:56.544509  3591 net.cpp:151] Top shape: 20 128 5 5 (64000)
I0505 05:34:56.544514  3591 net.cpp:159] Memory required for data: 1928080
I0505 05:34:56.544523  3591 layer_factory.hpp:77] Creating layer relu3
I0505 05:34:56.544534  3591 net.cpp:94] Creating Layer relu3
I0505 05:34:56.544538  3591 net.cpp:435] relu3 <- conv3
I0505 05:34:56.544543  3591 net.cpp:396] relu3 -> conv3 (in-place)
I0505 05:34:56.544559  3591 net.cpp:144] Setting up relu3
I0505 05:34:56.544566  3591 net.cpp:151] Top shape: 20 128 5 5 (64000)
I0505 05:34:56.544569  3591 net.cpp:159] Memory required for data: 2184080
I0505 05:34:56.544572  3591 layer_factory.hpp:77] Creating layer pool3
I0505 05:34:56.544579  3591 net.cpp:94] Creating Layer pool3
I0505 05:34:56.544590  3591 net.cpp:435] pool3 <- conv3
I0505 05:34:56.544595  3591 net.cpp:409] pool3 -> pool3
I0505 05:34:56.544628  3591 net.cpp:144] Setting up pool3
I0505 05:34:56.544636  3591 net.cpp:151] Top shape: 20 128 2 2 (10240)
I0505 05:34:56.544638  3591 net.cpp:159] Memory required for data: 2225040
I0505 05:34:56.544642  3591 layer_factory.hpp:77] Creating layer ip1
I0505 05:34:56.544651  3591 net.cpp:94] Creating Layer ip1
I0505 05:34:56.544656  3591 net.cpp:435] ip1 <- pool3
I0505 05:34:56.544659  3591 net.cpp:409] ip1 -> ip1
I0505 05:34:56.557797  3591 net.cpp:144] Setting up ip1
I0505 05:34:56.557813  3591 net.cpp:151] Top shape: 20 512 (10240)
I0505 05:34:56.557818  3591 net.cpp:159] Memory required for data: 2266000
I0505 05:34:56.557824  3591 layer_factory.hpp:77] Creating layer ip2
I0505 05:34:56.557832  3591 net.cpp:94] Creating Layer ip2
I0505 05:34:56.557835  3591 net.cpp:435] ip2 <- ip1
I0505 05:34:56.557842  3591 net.cpp:409] ip2 -> ip2
I0505 05:34:56.561092  3591 net.cpp:144] Setting up ip2
I0505 05:34:56.561102  3591 net.cpp:151] Top shape: 20 256 (5120)
I0505 05:34:56.561106  3591 net.cpp:159] Memory required for data: 2286480
I0505 05:34:56.561115  3591 layer_factory.hpp:77] Creating layer ip3
I0505 05:34:56.561121  3591 net.cpp:94] Creating Layer ip3
I0505 05:34:56.561125  3591 net.cpp:435] ip3 <- ip2
I0505 05:34:56.561130  3591 net.cpp:409] ip3 -> ip3
I0505 05:34:56.562160  3591 net.cpp:144] Setting up ip3
I0505 05:34:56.562172  3591 net.cpp:151] Top shape: 20 50 (1000)
I0505 05:34:56.562176  3591 net.cpp:159] Memory required for data: 2290480
I0505 05:34:56.562182  3591 layer_factory.hpp:77] Creating layer loss
I0505 05:34:56.562188  3591 net.cpp:94] Creating Layer loss
I0505 05:34:56.562192  3591 net.cpp:435] loss <- ip3
I0505 05:34:56.562197  3591 net.cpp:435] loss <- label
I0505 05:34:56.562202  3591 net.cpp:409] loss -> loss
I0505 05:34:56.562213  3591 layer_factory.hpp:77] Creating layer loss
…
I0505 05:34:56.562649  3591 solver.cpp:181] Creating test net (#0) specified by net file: ./protocol/dis_20_100_dimension.protocol_distribution
I0505 05:34:56.562674  3591 net.cpp:323] The NetState phase (1) differed from the phase (0) specified by a rule in layer parameters
I0505 05:34:56.562764  3591 net.cpp:52] Initializing net from parameters: 
state {
  phase: TEST
}
layer {
  name: "intercept"
  type: "HDF5Data"
  top: "data"
  top: "label"
  include {
    phase: TEST
  }
  hdf5_data_param {
    source: "/home/purduethu/scratch/radon/d/deng106/CNNStatisticalModel/distributions/input/20_distributions_100_sample_size_test-distributions-path.txt"
    batch_size: 20
  }
}
layer {
  name: "conv1"
  type: "Convolution"
  bottom: "data"
  top: "conv1"
  param {
    lr_mult: 1
  }
  param {
    lr_mult: 2
  }
  convolution_param {
    num_output: 64
    pad: 2
    kernel_size: 5
    stride: 1
    weight_filler {
      type: "gaussian"
      std: 0.0001
    }
    bias_filler {
      type: "constant"
    }
  }
}
layer {
  name: "relu1"
  type: "ReLU"
  bottom: "conv1"
  top: "conv1"
}
layer {
  name: "pool1"
  type: "Pooling"
  bottom: "conv1"
  top: "pool1"
  pooling_param {
    pool: MAX
    kernel_size: 3
    stride: 2
  }
}
layer {
  name: "conv2"
  type: "Convolution"
  bottom: "pool1"
  top: "conv2"
  param {
    lr_mult: 1
  }
  param {
    lr_mult: 2
  }
  convolution_param {
    num_output: 128
    pad: 2
    kernel_size: 5
    stride: 1
    weight_filler {
      type: "gaussian"
      std: 0.01
    }
    bias_filler {
      type: "constant"
    }
  }
}
layer {
  name: "relu2"
  type: "ReLU"
  bottom: "conv2"
  top: "conv2"
}
layer {
  name: "conv3"
  type: "Convolution"
  bottom: "conv2"
  top: "conv3"
  param {
    lr_mult: 1
  }
  param {
    lr_mult: 2
  }
  convolution_param {
    num_output: 128
    pad: 2
    kernel_size: 5
    stride: 1
    weight_filler {
      type: "gaussian"
      std: 0.01
    }
    bias_filler {
      type: "constant"
    }
  }
}
layer {
  name: "relu3"
  type: "ReLU"
  bottom: "conv3"
  top: "conv3"
}
layer {
  name: "pool3"
  type: "Pooling"
  bottom: "conv3"
  top: "pool3"
  pooling_param {
    pool: AVE
    kernel_size: 3
    stride: 2
  }
}
layer {
  name: "ip1"
  type: "InnerProduct"
  bottom: "pool3"
  top: "ip1"
  param {
    lr_mult: 1
  }
  param {
    lr_mult: 2
  }
  inner_product_param {
    num_output: 512
    weight_filler {
      type: "gaussian"
      std: 0.1
    }
    bias_filler {
      type: "constant"
    }
  }
}
layer {
  name: "ip2"
  type: "InnerProduct"
  bottom: "ip1"
  top: "ip2"
  param {
    lr_mult: 1
  }
  param {
    lr_mult: 2
  }
  inner_product_param {
    num_output: 256
    weight_filler {
      type: "gaussian"
      std: 0.1
    }
    bias_filler {
      type: "constant"
    }
  }
}
layer {
  name: "ip3"
  type: "InnerProduct"
  bottom: "ip2"
  top: "ip3"
  param {
    lr_mult: 1
  }
  param {
    lr_mult: 2
  }
  inner_product_param {
    num_output: 50
    weight_filler {
      type: "gaussian"
      std: 0.1
    }
    bias_filler {
      type: "constant"
    }
  }
}
layer {
  name: "accuracy"
  type: "Accuracy"
  bottom: "ip3"
  bottom: "label"
  top: "accuracy"
  include {
    phase: TEST
  }
}
layer {
  name: "loss"
  type: "SoftmaxWithLoss"
  bottom: "ip3"
  bottom: "label"
  top: "loss"
}
I0505 05:34:56.562827  3591 layer_factory.hpp:77] Creating layer intercept
I0505 05:34:56.562836  3591 net.cpp:94] Creating Layer intercept
I0505 05:34:56.562840  3591 net.cpp:409] intercept -> data
I0505 05:34:56.562847  3591 net.cpp:409] intercept -> label
I0505 05:34:56.562855  3591 hdf5_data_layer.cpp:79] Loading list of HDF5 filenames from: /home/purduethu/scratch/radon/d/deng106/CNNStatisticalModel/distributions/input/20_distributions_100_sample_size_test-distributions-path.txt
I0505 05:34:56.562873  3591 hdf5_data_layer.cpp:93] Number of HDF5 files: 1
I0505 05:34:56.580943  3591 net.cpp:144] Setting up intercept
I0505 05:34:56.580976  3591 net.cpp:151] Top shape: 20 1 10 10 (2000)
I0505 05:34:56.580981  3591 net.cpp:151] Top shape: 20 (20)
I0505 05:34:56.580984  3591 net.cpp:159] Memory required for data: 8080
I0505 05:34:56.580991  3591 layer_factory.hpp:77] Creating layer label_intercept_1_split
I0505 05:34:56.581007  3591 net.cpp:94] Creating Layer label_intercept_1_split
I0505 05:34:56.581018  3591 net.cpp:435] label_intercept_1_split <- label
I0505 05:34:56.581025  3591 net.cpp:409] label_intercept_1_split -> label_intercept_1_split_0
I0505 05:34:56.581034  3591 net.cpp:409] label_intercept_1_split -> label_intercept_1_split_1
I0505 05:34:56.581063  3591 net.cpp:144] Setting up label_intercept_1_split
I0505 05:34:56.581068  3591 net.cpp:151] Top shape: 20 (20)
I0505 05:34:56.581073  3591 net.cpp:151] Top shape: 20 (20)
I0505 05:34:56.581075  3591 net.cpp:159] Memory required for data: 8240
I0505 05:34:56.581086  3591 layer_factory.hpp:77] Creating layer conv1
I0505 05:34:56.581097  3591 net.cpp:94] Creating Layer conv1
I0505 05:34:56.581100  3591 net.cpp:435] conv1 <- data
I0505 05:34:56.581105  3591 net.cpp:409] conv1 -> conv1
I0505 05:34:56.581763  3591 net.cpp:144] Setting up conv1
I0505 05:34:56.581775  3591 net.cpp:151] Top shape: 20 64 10 10 (128000)
I0505 05:34:56.581779  3591 net.cpp:159] Memory required for data: 520240
I0505 05:34:56.581789  3591 layer_factory.hpp:77] Creating layer relu1
I0505 05:34:56.581796  3591 net.cpp:94] Creating Layer relu1
I0505 05:34:56.581800  3591 net.cpp:435] relu1 <- conv1
I0505 05:34:56.581805  3591 net.cpp:396] relu1 -> conv1 (in-place)
I0505 05:34:56.581812  3591 net.cpp:144] Setting up relu1
I0505 05:34:56.581816  3591 net.cpp:151] Top shape: 20 64 10 10 (128000)
I0505 05:34:56.581820  3591 net.cpp:159] Memory required for data: 1032240
I0505 05:34:56.581823  3591 layer_factory.hpp:77] Creating layer pool1
I0505 05:34:56.581830  3591 net.cpp:94] Creating Layer pool1
I0505 05:34:56.581833  3591 net.cpp:435] pool1 <- conv1
I0505 05:34:56.581838  3591 net.cpp:409] pool1 -> pool1
I0505 05:34:56.581874  3591 net.cpp:144] Setting up pool1
I0505 05:34:56.581881  3591 net.cpp:151] Top shape: 20 64 5 5 (32000)
I0505 05:34:56.581883  3591 net.cpp:159] Memory required for data: 1160240
I0505 05:34:56.581887  3591 layer_factory.hpp:77] Creating layer conv2
I0505 05:34:56.581895  3591 net.cpp:94] Creating Layer conv2
I0505 05:34:56.581898  3591 net.cpp:435] conv2 <- pool1
I0505 05:34:56.581903  3591 net.cpp:409] conv2 -> conv2
I0505 05:34:56.589913  3591 net.cpp:144] Setting up conv2
I0505 05:34:56.589927  3591 net.cpp:151] Top shape: 20 128 5 5 (64000)
I0505 05:34:56.589931  3591 net.cpp:159] Memory required for data: 1416240
I0505 05:34:56.589939  3591 layer_factory.hpp:77] Creating layer relu2
I0505 05:34:56.589946  3591 net.cpp:94] Creating Layer relu2
I0505 05:34:56.589951  3591 net.cpp:435] relu2 <- conv2
I0505 05:34:56.589954  3591 net.cpp:396] relu2 -> conv2 (in-place)
I0505 05:34:56.589962  3591 net.cpp:144] Setting up relu2
I0505 05:34:56.589967  3591 net.cpp:151] Top shape: 20 128 5 5 (64000)
I0505 05:34:56.589969  3591 net.cpp:159] Memory required for data: 1672240
I0505 05:34:56.589972  3591 layer_factory.hpp:77] Creating layer conv3
I0505 05:34:56.589980  3591 net.cpp:94] Creating Layer conv3
I0505 05:34:56.589984  3591 net.cpp:435] conv3 <- conv2
I0505 05:34:56.589989  3591 net.cpp:409] conv3 -> conv3
I0505 05:34:56.604254  3591 net.cpp:144] Setting up conv3
I0505 05:34:56.604267  3591 net.cpp:151] Top shape: 20 128 5 5 (64000)
I0505 05:34:56.604271  3591 net.cpp:159] Memory required for data: 1928240
I0505 05:34:56.604279  3591 layer_factory.hpp:77] Creating layer relu3
I0505 05:34:56.604287  3591 net.cpp:94] Creating Layer relu3
I0505 05:34:56.604290  3591 net.cpp:435] relu3 <- conv3
I0505 05:34:56.604295  3591 net.cpp:396] relu3 -> conv3 (in-place)
I0505 05:34:56.604302  3591 net.cpp:144] Setting up relu3
I0505 05:34:56.604307  3591 net.cpp:151] Top shape: 20 128 5 5 (64000)
I0505 05:34:56.604310  3591 net.cpp:159] Memory required for data: 2184240
I0505 05:34:56.604313  3591 layer_factory.hpp:77] Creating layer pool3
I0505 05:34:56.604318  3591 net.cpp:94] Creating Layer pool3
I0505 05:34:56.604321  3591 net.cpp:435] pool3 <- conv3
I0505 05:34:56.604326  3591 net.cpp:409] pool3 -> pool3
I0505 05:34:56.604351  3591 net.cpp:144] Setting up pool3
I0505 05:34:56.604358  3591 net.cpp:151] Top shape: 20 128 2 2 (10240)
I0505 05:34:56.604367  3591 net.cpp:159] Memory required for data: 2225200
I0505 05:34:56.604369  3591 layer_factory.hpp:77] Creating layer ip1
I0505 05:34:56.604377  3591 net.cpp:94] Creating Layer ip1
I0505 05:34:56.604380  3591 net.cpp:435] ip1 <- pool3
I0505 05:34:56.604385  3591 net.cpp:409] ip1 -> ip1
I0505 05:34:56.610831  3591 net.cpp:144] Setting up ip1
I0505 05:34:56.610841  3591 net.cpp:151] Top shape: 20 512 (10240)
I0505 05:34:56.610844  3591 net.cpp:159] Memory required for data: 2266160
I0505 05:34:56.610857  3591 layer_factory.hpp:77] Creating layer ip2
I0505 05:34:56.610862  3591 net.cpp:94] Creating Layer ip2
I0505 05:34:56.610867  3591 net.cpp:435] ip2 <- ip1
I0505 05:34:56.610872  3591 net.cpp:409] ip2 -> ip2
I0505 05:34:56.614142  3591 net.cpp:144] Setting up ip2
I0505 05:34:56.614151  3591 net.cpp:151] Top shape: 20 256 (5120)
I0505 05:34:56.614154  3591 net.cpp:159] Memory required for data: 2286640
I0505 05:34:56.614161  3591 layer_factory.hpp:77] Creating layer ip3
I0505 05:34:56.614168  3591 net.cpp:94] Creating Layer ip3
I0505 05:34:56.614171  3591 net.cpp:435] ip3 <- ip2
I0505 05:34:56.614176  3591 net.cpp:409] ip3 -> ip3
I0505 05:34:56.614559  3591 net.cpp:144] Setting up ip3
I0505 05:34:56.614567  3591 net.cpp:151] Top shape: 20 50 (1000)
I0505 05:34:56.614570  3591 net.cpp:159] Memory required for data: 2290640
I0505 05:34:56.614575  3591 layer_factory.hpp:77] Creating layer ip3_ip3_0_split
I0505 05:34:56.614580  3591 net.cpp:94] Creating Layer ip3_ip3_0_split
I0505 05:34:56.614583  3591 net.cpp:435] ip3_ip3_0_split <- ip3
I0505 05:34:56.614588  3591 net.cpp:409] ip3_ip3_0_split -> ip3_ip3_0_split_0
I0505 05:34:56.614593  3591 net.cpp:409] ip3_ip3_0_split -> ip3_ip3_0_split_1
I0505 05:34:56.614617  3591 net.cpp:144] Setting up ip3_ip3_0_split
I0505 05:34:56.614624  3591 net.cpp:151] Top shape: 20 50 (1000)
I0505 05:34:56.614626  3591 net.cpp:151] Top shape: 20 50 (1000)
I0505 05:34:56.614629  3591 net.cpp:159] Memory required for data: 2298640
I0505 05:34:56.614634  3591 layer_factory.hpp:77] Creating layer accuracy
I0505 05:34:56.614644  3591 net.cpp:94] Creating Layer accuracy
I0505 05:34:56.614646  3591 net.cpp:435] accuracy <- ip3_ip3_0_split_0
I0505 05:34:56.614650  3591 net.cpp:435] accuracy <- label_intercept_1_split_0
I0505 05:34:56.614655  3591 net.cpp:409] accuracy -> accuracy
…
