…
I0502 19:47:16.868777 12843 net.cpp:323] The NetState phase (0) differed from the phase (1) specified by a rule in layer intercept
I0502 19:47:16.868793 12843 net.cpp:323] The NetState phase (0) differed from the phase (1) specified by a rule in layer accuracy
I0502 19:47:16.868885 12843 net.cpp:52] Initializing net from parameters: 
state {
  phase: TRAIN
}
layer {
  name: "parameters"
  type: "HDF5Data"
  top: "data"
  top: "label"
  include {
    phase: TRAIN
  }
  hdf5_data_param {
    source: "/home/purduethu/scratch/radon/d/deng106/CNNStatisticalModel/distributions/input/5_distributions_900_sample_size_train-distributions-path.txt"
    batch_size: 20
  }
}
layer {
  name: "conv1"
  type: "Convolution"
  bottom: "data"
  top: "conv1"
  param {
    lr_mult: 1
  }
  param {
    lr_mult: 2
  }
  convolution_param {
    num_output: 64
    pad: 2
    kernel_size: 5
    stride: 1
    weight_filler {
      type: "gaussian"
      std: 0.0001
    }
    bias_filler {
      type: "constant"
    }
  }
}
layer {
  name: "relu1"
  type: "ReLU"
  bottom: "conv1"
  top: "conv1"
}
layer {
  name: "conv2"
  type: "Convolution"
  bottom: "conv1"
  top: "conv2"
  param {
    lr_mult: 1
  }
  param {
    lr_mult: 2
  }
  convolution_param {
    num_output: 64
    pad: 2
    kernel_size: 5
    stride: 1
    weight_filler {
      type: "gaussian"
      std: 0.01
    }
    bias_filler {
      type: "constant"
    }
  }
}
layer {
  name: "relu2"
  type: "ReLU"
  bottom: "conv2"
  top: "conv2"
}
layer {
  name: "pool2"
  type: "Pooling"
  bottom: "conv2"
  top: "pool2"
  pooling_param {
    pool: MAX
    kernel_size: 3
    stride: 2
  }
}
layer {
  name: "conv3"
  type: "Convolution"
  bottom: "pool2"
  top: "conv3"
  param {
    lr_mult: 1
  }
  param {
    lr_mult: 2
  }
  convolution_param {
    num_output: 64
    pad: 2
    kernel_size: 5
    stride: 1
    weight_filler {
      type: "gaussian"
      std: 0.01
    }
    bias_filler {
      type: "constant"
    }
  }
}
layer {
  name: "relu3"
  type: "ReLU"
  bottom: "conv3"
  top: "conv3"
}
layer {
  name: "conv4"
  type: "Convolution"
  bottom: "conv3"
  top: "conv4"
  param {
    lr_mult: 1
  }
  param {
    lr_mult: 2
  }
  convolution_param {
    num_output: 64
    pad: 2
    kernel_size: 5
    stride: 1
    weight_filler {
      type: "gaussian"
      std: 0.01
    }
    bias_filler {
      type: "constant"
    }
  }
}
layer {
  name: "relu4"
  type: "ReLU"
  bottom: "conv4"
  top: "conv4"
}
layer {
  name: "conv5"
  type: "Convolution"
  bottom: "conv4"
  top: "conv5"
  param {
    lr_mult: 1
  }
  param {
    lr_mult: 2
  }
  convolution_param {
    num_output: 64
    pad: 2
    kernel_size: 5
    stride: 1
    weight_filler {
      type: "gaussian"
      std: 0.01
    }
    bias_filler {
      type: "constant"
    }
  }
}
layer {
  name: "relu5"
  type: "ReLU"
  bottom: "conv5"
  top: "conv5"
}
layer {
  name: "pool5"
  type: "Pooling"
  bottom: "conv5"
  top: "pool5"
  pooling_param {
    pool: AVE
    kernel_size: 3
    stride: 2
  }
}
layer {
  name: "ip1"
  type: "InnerProduct"
  bottom: "pool5"
  top: "ip1"
  param {
    lr_mult: 1
  }
  param {
    lr_mult: 2
  }
  inner_product_param {
    num_output: 64
    weight_filler {
      type: "gaussian"
      std: 0.1
    }
    bias_filler {
      type: "constant"
    }
  }
}
layer {
  name: "ip2"
  type: "InnerProduct"
  bottom: "ip1"
  top: "ip2"
  param {
    lr_mult: 1
  }
  param {
    lr_mult: 2
  }
  inner_product_param {
    num_output: 64
    weight_filler {
      type: "gaussian"
      std: 0.1
    }
    bias_filler {
      type: "constant"
    }
  }
}
layer {
  name: "ip3"
  type: "InnerProduct"
  bottom: "ip2"
  top: "ip3"
  param {
    lr_mult: 1
  }
  param {
    lr_mult: 2
  }
  inner_product_param {
    num_output: 50
    weight_filler {
      type: "gaussian"
      std: 0.1
    }
    bias_filler {
      type: "constant"
    }
  }
}
layer {
  name: "loss"
  type: "SoftmaxWithLoss"
  bottom: "ip3"
  bottom: "label"
  top: "loss"
}
I0502 19:47:16.868962 12843 layer_factory.hpp:77] Creating layer parameters
I0502 19:47:16.868976 12843 net.cpp:94] Creating Layer parameters
I0502 19:47:16.868983 12843 net.cpp:409] parameters -> data
I0502 19:47:16.869001 12843 net.cpp:409] parameters -> label
I0502 19:47:16.869011 12843 hdf5_data_layer.cpp:79] Loading list of HDF5 filenames from: /home/purduethu/scratch/radon/d/deng106/CNNStatisticalModel/distributions/input/5_distributions_900_sample_size_train-distributions-path.txt
I0502 19:47:16.869035 12843 hdf5_data_layer.cpp:93] Number of HDF5 files: 1
I0502 19:47:16.869606 12843 hdf5.cpp:32] Datatype class: H5T_FLOAT
I0502 19:47:17.007182 12843 hdf5.cpp:35] Datatype class: H5T_INTEGER
I0502 19:47:17.008342 12843 net.cpp:144] Setting up parameters
I0502 19:47:17.008363 12843 net.cpp:151] Top shape: 20 1 30 30 (18000)
I0502 19:47:17.008368 12843 net.cpp:151] Top shape: 20 (20)
I0502 19:47:17.008373 12843 net.cpp:159] Memory required for data: 72080
I0502 19:47:17.008379 12843 layer_factory.hpp:77] Creating layer conv1
I0502 19:47:17.008399 12843 net.cpp:94] Creating Layer conv1
I0502 19:47:17.008404 12843 net.cpp:435] conv1 <- data
I0502 19:47:17.008415 12843 net.cpp:409] conv1 -> conv1
I0502 19:47:17.018050 12843 net.cpp:144] Setting up conv1
I0502 19:47:17.018093 12843 net.cpp:151] Top shape: 20 64 30 30 (1152000)
I0502 19:47:17.018105 12843 net.cpp:159] Memory required for data: 4680080
I0502 19:47:17.018136 12843 layer_factory.hpp:77] Creating layer relu1
I0502 19:47:17.018157 12843 net.cpp:94] Creating Layer relu1
I0502 19:47:17.018167 12843 net.cpp:435] relu1 <- conv1
I0502 19:47:17.018182 12843 net.cpp:396] relu1 -> conv1 (in-place)
I0502 19:47:17.018218 12843 net.cpp:144] Setting up relu1
I0502 19:47:17.018234 12843 net.cpp:151] Top shape: 20 64 30 30 (1152000)
I0502 19:47:17.018242 12843 net.cpp:159] Memory required for data: 9288080
I0502 19:47:17.018251 12843 layer_factory.hpp:77] Creating layer conv2
I0502 19:47:17.018272 12843 net.cpp:94] Creating Layer conv2
I0502 19:47:17.018282 12843 net.cpp:435] conv2 <- conv1
I0502 19:47:17.018296 12843 net.cpp:409] conv2 -> conv2
I0502 19:47:17.044034 12843 net.cpp:144] Setting up conv2
I0502 19:47:17.044054 12843 net.cpp:151] Top shape: 20 64 30 30 (1152000)
I0502 19:47:17.044059 12843 net.cpp:159] Memory required for data: 13896080
I0502 19:47:17.044067 12843 layer_factory.hpp:77] Creating layer relu2
I0502 19:47:17.044075 12843 net.cpp:94] Creating Layer relu2
I0502 19:47:17.044078 12843 net.cpp:435] relu2 <- conv2
I0502 19:47:17.044083 12843 net.cpp:396] relu2 -> conv2 (in-place)
I0502 19:47:17.044091 12843 net.cpp:144] Setting up relu2
I0502 19:47:17.044096 12843 net.cpp:151] Top shape: 20 64 30 30 (1152000)
I0502 19:47:17.044100 12843 net.cpp:159] Memory required for data: 18504080
I0502 19:47:17.044102 12843 layer_factory.hpp:77] Creating layer pool2
I0502 19:47:17.044117 12843 net.cpp:94] Creating Layer pool2
I0502 19:47:17.044121 12843 net.cpp:435] pool2 <- conv2
I0502 19:47:17.044126 12843 net.cpp:409] pool2 -> pool2
I0502 19:47:17.044179 12843 net.cpp:144] Setting up pool2
I0502 19:47:17.044188 12843 net.cpp:151] Top shape: 20 64 15 15 (288000)
I0502 19:47:17.044191 12843 net.cpp:159] Memory required for data: 19656080
I0502 19:47:17.044194 12843 layer_factory.hpp:77] Creating layer conv3
I0502 19:47:17.044203 12843 net.cpp:94] Creating Layer conv3
I0502 19:47:17.044206 12843 net.cpp:435] conv3 <- pool2
I0502 19:47:17.044219 12843 net.cpp:409] conv3 -> conv3
I0502 19:47:17.054960 12843 net.cpp:144] Setting up conv3
I0502 19:47:17.054988 12843 net.cpp:151] Top shape: 20 64 15 15 (288000)
I0502 19:47:17.054996 12843 net.cpp:159] Memory required for data: 20808080
I0502 19:47:17.055014 12843 layer_factory.hpp:77] Creating layer relu3
I0502 19:47:17.055025 12843 net.cpp:94] Creating Layer relu3
I0502 19:47:17.055033 12843 net.cpp:435] relu3 <- conv3
I0502 19:47:17.055042 12843 net.cpp:396] relu3 -> conv3 (in-place)
I0502 19:47:17.055058 12843 net.cpp:144] Setting up relu3
I0502 19:47:17.055066 12843 net.cpp:151] Top shape: 20 64 15 15 (288000)
I0502 19:47:17.055073 12843 net.cpp:159] Memory required for data: 21960080
I0502 19:47:17.055079 12843 layer_factory.hpp:77] Creating layer conv4
I0502 19:47:17.055095 12843 net.cpp:94] Creating Layer conv4
I0502 19:47:17.055102 12843 net.cpp:435] conv4 <- conv3
I0502 19:47:17.055112 12843 net.cpp:409] conv4 -> conv4
I0502 19:47:17.068001 12843 net.cpp:144] Setting up conv4
I0502 19:47:17.068027 12843 net.cpp:151] Top shape: 20 64 15 15 (288000)
I0502 19:47:17.068035 12843 net.cpp:159] Memory required for data: 23112080
I0502 19:47:17.068048 12843 layer_factory.hpp:77] Creating layer relu4
I0502 19:47:17.068058 12843 net.cpp:94] Creating Layer relu4
I0502 19:47:17.068065 12843 net.cpp:435] relu4 <- conv4
I0502 19:47:17.068074 12843 net.cpp:396] relu4 -> conv4 (in-place)
I0502 19:47:17.068087 12843 net.cpp:144] Setting up relu4
I0502 19:47:17.068096 12843 net.cpp:151] Top shape: 20 64 15 15 (288000)
I0502 19:47:17.068102 12843 net.cpp:159] Memory required for data: 24264080
I0502 19:47:17.068109 12843 layer_factory.hpp:77] Creating layer conv5
I0502 19:47:17.068123 12843 net.cpp:94] Creating Layer conv5
I0502 19:47:17.068130 12843 net.cpp:435] conv5 <- conv4
I0502 19:47:17.068140 12843 net.cpp:409] conv5 -> conv5
I0502 19:47:17.079891 12843 net.cpp:144] Setting up conv5
I0502 19:47:17.079918 12843 net.cpp:151] Top shape: 20 64 15 15 (288000)
I0502 19:47:17.079926 12843 net.cpp:159] Memory required for data: 25416080
I0502 19:47:17.079943 12843 layer_factory.hpp:77] Creating layer relu5
I0502 19:47:17.079954 12843 net.cpp:94] Creating Layer relu5
I0502 19:47:17.079962 12843 net.cpp:435] relu5 <- conv5
I0502 19:47:17.079972 12843 net.cpp:396] relu5 -> conv5 (in-place)
I0502 19:47:17.079984 12843 net.cpp:144] Setting up relu5
I0502 19:47:17.079993 12843 net.cpp:151] Top shape: 20 64 15 15 (288000)
I0502 19:47:17.079999 12843 net.cpp:159] Memory required for data: 26568080
I0502 19:47:17.080005 12843 layer_factory.hpp:77] Creating layer pool5
I0502 19:47:17.080015 12843 net.cpp:94] Creating Layer pool5
I0502 19:47:17.080021 12843 net.cpp:435] pool5 <- conv5
I0502 19:47:17.080029 12843 net.cpp:409] pool5 -> pool5
I0502 19:47:17.080090 12843 net.cpp:144] Setting up pool5
I0502 19:47:17.080103 12843 net.cpp:151] Top shape: 20 64 7 7 (62720)
I0502 19:47:17.080111 12843 net.cpp:159] Memory required for data: 26818960
I0502 19:47:17.080116 12843 layer_factory.hpp:77] Creating layer ip1
I0502 19:47:17.080132 12843 net.cpp:94] Creating Layer ip1
I0502 19:47:17.080138 12843 net.cpp:435] ip1 <- pool5
I0502 19:47:17.080148 12843 net.cpp:409] ip1 -> ip1
I0502 19:47:17.090234 12843 net.cpp:144] Setting up ip1
I0502 19:47:17.090255 12843 net.cpp:151] Top shape: 20 64 (1280)
I0502 19:47:17.090263 12843 net.cpp:159] Memory required for data: 26824080
I0502 19:47:17.090273 12843 layer_factory.hpp:77] Creating layer ip2
I0502 19:47:17.090291 12843 net.cpp:94] Creating Layer ip2
I0502 19:47:17.090298 12843 net.cpp:435] ip2 <- ip1
I0502 19:47:17.090307 12843 net.cpp:409] ip2 -> ip2
I0502 19:47:17.090608 12843 net.cpp:144] Setting up ip2
I0502 19:47:17.090620 12843 net.cpp:151] Top shape: 20 64 (1280)
I0502 19:47:17.090626 12843 net.cpp:159] Memory required for data: 26829200
I0502 19:47:17.090636 12843 layer_factory.hpp:77] Creating layer ip3
I0502 19:47:17.090644 12843 net.cpp:94] Creating Layer ip3
I0502 19:47:17.090651 12843 net.cpp:435] ip3 <- ip2
I0502 19:47:17.090658 12843 net.cpp:409] ip3 -> ip3
I0502 19:47:17.090922 12843 net.cpp:144] Setting up ip3
I0502 19:47:17.090934 12843 net.cpp:151] Top shape: 20 50 (1000)
I0502 19:47:17.090940 12843 net.cpp:159] Memory required for data: 26833200
I0502 19:47:17.090948 12843 layer_factory.hpp:77] Creating layer loss
I0502 19:47:17.090960 12843 net.cpp:94] Creating Layer loss
I0502 19:47:17.090965 12843 net.cpp:435] loss <- ip3
I0502 19:47:17.090972 12843 net.cpp:435] loss <- label
I0502 19:47:17.090981 12843 net.cpp:409] loss -> loss
I0502 19:47:17.090996 12843 layer_factory.hpp:77] Creating layer loss
…
I0502 19:47:17.091823 12843 solver.cpp:181] Creating test net (#0) specified by net file: ./protocol/dis_5_900_dimension.protocol_distribution
I0502 19:47:17.091867 12843 net.cpp:323] The NetState phase (1) differed from the phase (0) specified by a rule in layer parameters
I0502 19:47:17.092026 12843 net.cpp:52] Initializing net from parameters: 
state {
  phase: TEST
}
layer {
  name: "intercept"
  type: "HDF5Data"
  top: "data"
  top: "label"
  include {
    phase: TEST
  }
  hdf5_data_param {
    source: "/home/purduethu/scratch/radon/d/deng106/CNNStatisticalModel/distributions/input/5_distributions_900_sample_size_test-distributions-path.txt"
    batch_size: 20
  }
}
layer {
  name: "conv1"
  type: "Convolution"
  bottom: "data"
  top: "conv1"
  param {
    lr_mult: 1
  }
  param {
    lr_mult: 2
  }
  convolution_param {
    num_output: 64
    pad: 2
    kernel_size: 5
    stride: 1
    weight_filler {
      type: "gaussian"
      std: 0.0001
    }
    bias_filler {
      type: "constant"
    }
  }
}
layer {
  name: "relu1"
  type: "ReLU"
  bottom: "conv1"
  top: "conv1"
}
layer {
  name: "conv2"
  type: "Convolution"
  bottom: "conv1"
  top: "conv2"
  param {
    lr_mult: 1
  }
  param {
    lr_mult: 2
  }
  convolution_param {
    num_output: 64
    pad: 2
    kernel_size: 5
    stride: 1
    weight_filler {
      type: "gaussian"
      std: 0.01
    }
    bias_filler {
      type: "constant"
    }
  }
}
layer {
  name: "relu2"
  type: "ReLU"
  bottom: "conv2"
  top: "conv2"
}
layer {
  name: "pool2"
  type: "Pooling"
  bottom: "conv2"
  top: "pool2"
  pooling_param {
    pool: MAX
    kernel_size: 3
    stride: 2
  }
}
layer {
  name: "conv3"
  type: "Convolution"
  bottom: "pool2"
  top: "conv3"
  param {
    lr_mult: 1
  }
  param {
    lr_mult: 2
  }
  convolution_param {
    num_output: 64
    pad: 2
    kernel_size: 5
    stride: 1
    weight_filler {
      type: "gaussian"
      std: 0.01
    }
    bias_filler {
      type: "constant"
    }
  }
}
layer {
  name: "relu3"
  type: "ReLU"
  bottom: "conv3"
  top: "conv3"
}
layer {
  name: "conv4"
  type: "Convolution"
  bottom: "conv3"
  top: "conv4"
  param {
    lr_mult: 1
  }
  param {
    lr_mult: 2
  }
  convolution_param {
    num_output: 64
    pad: 2
    kernel_size: 5
    stride: 1
    weight_filler {
      type: "gaussian"
      std: 0.01
    }
    bias_filler {
      type: "constant"
    }
  }
}
layer {
  name: "relu4"
  type: "ReLU"
  bottom: "conv4"
  top: "conv4"
}
layer {
  name: "conv5"
  type: "Convolution"
  bottom: "conv4"
  top: "conv5"
  param {
    lr_mult: 1
  }
  param {
    lr_mult: 2
  }
  convolution_param {
    num_output: 64
    pad: 2
    kernel_size: 5
    stride: 1
    weight_filler {
      type: "gaussian"
      std: 0.01
    }
    bias_filler {
      type: "constant"
    }
  }
}
layer {
  name: "relu5"
  type: "ReLU"
  bottom: "conv5"
  top: "conv5"
}
layer {
  name: "pool5"
  type: "Pooling"
  bottom: "conv5"
  top: "pool5"
  pooling_param {
    pool: AVE
    kernel_size: 3
    stride: 2
  }
}
layer {
  name: "ip1"
  type: "InnerProduct"
  bottom: "pool5"
  top: "ip1"
  param {
    lr_mult: 1
  }
  param {
    lr_mult: 2
  }
  inner_product_param {
    num_output: 64
    weight_filler {
      type: "gaussian"
      std: 0.1
    }
    bias_filler {
      type: "constant"
    }
  }
}
layer {
  name: "ip2"
  type: "InnerProduct"
  bottom: "ip1"
  top: "ip2"
  param {
    lr_mult: 1
  }
  param {
    lr_mult: 2
  }
  inner_product_param {
    num_output: 64
    weight_filler {
      type: "gaussian"
      std: 0.1
    }
    bias_filler {
      type: "constant"
    }
  }
}
layer {
  name: "ip3"
  type: "InnerProduct"
  bottom: "ip2"
  top: "ip3"
  param {
    lr_mult: 1
  }
  param {
    lr_mult: 2
  }
  inner_product_param {
    num_output: 50
    weight_filler {
      type: "gaussian"
      std: 0.1
    }
    bias_filler {
      type: "constant"
    }
  }
}
layer {
  name: "accuracy"
  type: "Accuracy"
  bottom: "ip3"
  bottom: "label"
  top: "accuracy"
  include {
    phase: TEST
  }
}
layer {
  name: "loss"
  type: "SoftmaxWithLoss"
  bottom: "ip3"
  bottom: "label"
  top: "loss"
}
I0502 19:47:17.092144 12843 layer_factory.hpp:77] Creating layer intercept
I0502 19:47:17.092156 12843 net.cpp:94] Creating Layer intercept
I0502 19:47:17.092164 12843 net.cpp:409] intercept -> data
I0502 19:47:17.092176 12843 net.cpp:409] intercept -> label
I0502 19:47:17.092186 12843 hdf5_data_layer.cpp:79] Loading list of HDF5 filenames from: /home/purduethu/scratch/radon/d/deng106/CNNStatisticalModel/distributions/input/5_distributions_900_sample_size_test-distributions-path.txt
I0502 19:47:17.092212 12843 hdf5_data_layer.cpp:93] Number of HDF5 files: 1
I0502 19:47:17.142161 12843 net.cpp:144] Setting up intercept
I0502 19:47:17.142196 12843 net.cpp:151] Top shape: 20 1 30 30 (18000)
I0502 19:47:17.142204 12843 net.cpp:151] Top shape: 20 (20)
I0502 19:47:17.142210 12843 net.cpp:159] Memory required for data: 72080
I0502 19:47:17.142216 12843 layer_factory.hpp:77] Creating layer label_intercept_1_split
I0502 19:47:17.142236 12843 net.cpp:94] Creating Layer label_intercept_1_split
I0502 19:47:17.142243 12843 net.cpp:435] label_intercept_1_split <- label
I0502 19:47:17.142251 12843 net.cpp:409] label_intercept_1_split -> label_intercept_1_split_0
I0502 19:47:17.142263 12843 net.cpp:409] label_intercept_1_split -> label_intercept_1_split_1
I0502 19:47:17.142312 12843 net.cpp:144] Setting up label_intercept_1_split
I0502 19:47:17.142323 12843 net.cpp:151] Top shape: 20 (20)
I0502 19:47:17.142328 12843 net.cpp:151] Top shape: 20 (20)
I0502 19:47:17.142333 12843 net.cpp:159] Memory required for data: 72240
I0502 19:47:17.142338 12843 layer_factory.hpp:77] Creating layer conv1
I0502 19:47:17.142351 12843 net.cpp:94] Creating Layer conv1
I0502 19:47:17.142357 12843 net.cpp:435] conv1 <- data
I0502 19:47:17.142364 12843 net.cpp:409] conv1 -> conv1
I0502 19:47:17.144420 12843 net.cpp:144] Setting up conv1
I0502 19:47:17.144448 12843 net.cpp:151] Top shape: 20 64 30 30 (1152000)
I0502 19:47:17.144453 12843 net.cpp:159] Memory required for data: 4680240
I0502 19:47:17.144462 12843 layer_factory.hpp:77] Creating layer relu1
I0502 19:47:17.144469 12843 net.cpp:94] Creating Layer relu1
I0502 19:47:17.144474 12843 net.cpp:435] relu1 <- conv1
I0502 19:47:17.144479 12843 net.cpp:396] relu1 -> conv1 (in-place)
I0502 19:47:17.144486 12843 net.cpp:144] Setting up relu1
I0502 19:47:17.144491 12843 net.cpp:151] Top shape: 20 64 30 30 (1152000)
I0502 19:47:17.144495 12843 net.cpp:159] Memory required for data: 9288240
I0502 19:47:17.144497 12843 layer_factory.hpp:77] Creating layer conv2
I0502 19:47:17.144506 12843 net.cpp:94] Creating Layer conv2
I0502 19:47:17.144510 12843 net.cpp:435] conv2 <- conv1
I0502 19:47:17.144515 12843 net.cpp:409] conv2 -> conv2
I0502 19:47:17.153652 12843 net.cpp:144] Setting up conv2
I0502 19:47:17.153677 12843 net.cpp:151] Top shape: 20 64 30 30 (1152000)
I0502 19:47:17.153684 12843 net.cpp:159] Memory required for data: 13896240
I0502 19:47:17.153698 12843 layer_factory.hpp:77] Creating layer relu2
I0502 19:47:17.153708 12843 net.cpp:94] Creating Layer relu2
I0502 19:47:17.153714 12843 net.cpp:435] relu2 <- conv2
I0502 19:47:17.153723 12843 net.cpp:396] relu2 -> conv2 (in-place)
I0502 19:47:17.153734 12843 net.cpp:144] Setting up relu2
I0502 19:47:17.153743 12843 net.cpp:151] Top shape: 20 64 30 30 (1152000)
I0502 19:47:17.153748 12843 net.cpp:159] Memory required for data: 18504240
I0502 19:47:17.153753 12843 layer_factory.hpp:77] Creating layer pool2
I0502 19:47:17.153762 12843 net.cpp:94] Creating Layer pool2
I0502 19:47:17.153769 12843 net.cpp:435] pool2 <- conv2
I0502 19:47:17.153775 12843 net.cpp:409] pool2 -> pool2
I0502 19:47:17.153832 12843 net.cpp:144] Setting up pool2
I0502 19:47:17.153843 12843 net.cpp:151] Top shape: 20 64 15 15 (288000)
I0502 19:47:17.153849 12843 net.cpp:159] Memory required for data: 19656240
I0502 19:47:17.153854 12843 layer_factory.hpp:77] Creating layer conv3
I0502 19:47:17.153867 12843 net.cpp:94] Creating Layer conv3
I0502 19:47:17.153873 12843 net.cpp:435] conv3 <- pool2
I0502 19:47:17.153882 12843 net.cpp:409] conv3 -> conv3
I0502 19:47:17.161329 12843 net.cpp:144] Setting up conv3
I0502 19:47:17.161351 12843 net.cpp:151] Top shape: 20 64 15 15 (288000)
I0502 19:47:17.161357 12843 net.cpp:159] Memory required for data: 20808240
I0502 19:47:17.161371 12843 layer_factory.hpp:77] Creating layer relu3
I0502 19:47:17.161382 12843 net.cpp:94] Creating Layer relu3
I0502 19:47:17.161388 12843 net.cpp:435] relu3 <- conv3
I0502 19:47:17.161396 12843 net.cpp:396] relu3 -> conv3 (in-place)
I0502 19:47:17.161407 12843 net.cpp:144] Setting up relu3
I0502 19:47:17.161414 12843 net.cpp:151] Top shape: 20 64 15 15 (288000)
I0502 19:47:17.161419 12843 net.cpp:159] Memory required for data: 21960240
I0502 19:47:17.161425 12843 layer_factory.hpp:77] Creating layer conv4
I0502 19:47:17.161437 12843 net.cpp:94] Creating Layer conv4
I0502 19:47:17.161442 12843 net.cpp:435] conv4 <- conv3
I0502 19:47:17.161450 12843 net.cpp:409] conv4 -> conv4
I0502 19:47:17.169944 12843 net.cpp:144] Setting up conv4
I0502 19:47:17.169966 12843 net.cpp:151] Top shape: 20 64 15 15 (288000)
I0502 19:47:17.169973 12843 net.cpp:159] Memory required for data: 23112240
I0502 19:47:17.169982 12843 layer_factory.hpp:77] Creating layer relu4
I0502 19:47:17.169998 12843 net.cpp:94] Creating Layer relu4
I0502 19:47:17.170009 12843 net.cpp:435] relu4 <- conv4
I0502 19:47:17.170018 12843 net.cpp:396] relu4 -> conv4 (in-place)
I0502 19:47:17.170029 12843 net.cpp:144] Setting up relu4
I0502 19:47:17.170037 12843 net.cpp:151] Top shape: 20 64 15 15 (288000)
I0502 19:47:17.170042 12843 net.cpp:159] Memory required for data: 24264240
I0502 19:47:17.170047 12843 layer_factory.hpp:77] Creating layer conv5
I0502 19:47:17.170058 12843 net.cpp:94] Creating Layer conv5
I0502 19:47:17.170063 12843 net.cpp:435] conv5 <- conv4
I0502 19:47:17.170069 12843 net.cpp:409] conv5 -> conv5
I0502 19:47:17.176637 12843 net.cpp:144] Setting up conv5
I0502 19:47:17.176661 12843 net.cpp:151] Top shape: 20 64 15 15 (288000)
I0502 19:47:17.176666 12843 net.cpp:159] Memory required for data: 25416240
I0502 19:47:17.176679 12843 layer_factory.hpp:77] Creating layer relu5
I0502 19:47:17.176688 12843 net.cpp:94] Creating Layer relu5
I0502 19:47:17.176694 12843 net.cpp:435] relu5 <- conv5
I0502 19:47:17.176702 12843 net.cpp:396] relu5 -> conv5 (in-place)
I0502 19:47:17.176712 12843 net.cpp:144] Setting up relu5
I0502 19:47:17.176719 12843 net.cpp:151] Top shape: 20 64 15 15 (288000)
I0502 19:47:17.176724 12843 net.cpp:159] Memory required for data: 26568240
I0502 19:47:17.176728 12843 layer_factory.hpp:77] Creating layer pool5
I0502 19:47:17.176736 12843 net.cpp:94] Creating Layer pool5
I0502 19:47:17.176741 12843 net.cpp:435] pool5 <- conv5
I0502 19:47:17.176748 12843 net.cpp:409] pool5 -> pool5
I0502 19:47:17.176787 12843 net.cpp:144] Setting up pool5
I0502 19:47:17.176797 12843 net.cpp:151] Top shape: 20 64 7 7 (62720)
I0502 19:47:17.176802 12843 net.cpp:159] Memory required for data: 26819120
I0502 19:47:17.176807 12843 layer_factory.hpp:77] Creating layer ip1
I0502 19:47:17.176817 12843 net.cpp:94] Creating Layer ip1
I0502 19:47:17.176822 12843 net.cpp:435] ip1 <- pool5
I0502 19:47:17.176829 12843 net.cpp:409] ip1 -> ip1
I0502 19:47:17.185400 12843 net.cpp:144] Setting up ip1
I0502 19:47:17.185418 12843 net.cpp:151] Top shape: 20 64 (1280)
I0502 19:47:17.185425 12843 net.cpp:159] Memory required for data: 26824240
I0502 19:47:17.185433 12843 layer_factory.hpp:77] Creating layer ip2
I0502 19:47:17.185442 12843 net.cpp:94] Creating Layer ip2
I0502 19:47:17.185448 12843 net.cpp:435] ip2 <- ip1
I0502 19:47:17.185456 12843 net.cpp:409] ip2 -> ip2
I0502 19:47:17.185720 12843 net.cpp:144] Setting up ip2
I0502 19:47:17.185731 12843 net.cpp:151] Top shape: 20 64 (1280)
I0502 19:47:17.185736 12843 net.cpp:159] Memory required for data: 26829360
I0502 19:47:17.185745 12843 layer_factory.hpp:77] Creating layer ip3
I0502 19:47:17.185755 12843 net.cpp:94] Creating Layer ip3
I0502 19:47:17.185760 12843 net.cpp:435] ip3 <- ip2
I0502 19:47:17.185766 12843 net.cpp:409] ip3 -> ip3
I0502 19:47:17.185989 12843 net.cpp:144] Setting up ip3
I0502 19:47:17.185999 12843 net.cpp:151] Top shape: 20 50 (1000)
I0502 19:47:17.186004 12843 net.cpp:159] Memory required for data: 26833360
I0502 19:47:17.186012 12843 layer_factory.hpp:77] Creating layer ip3_ip3_0_split
I0502 19:47:17.186019 12843 net.cpp:94] Creating Layer ip3_ip3_0_split
I0502 19:47:17.186024 12843 net.cpp:435] ip3_ip3_0_split <- ip3
I0502 19:47:17.186030 12843 net.cpp:409] ip3_ip3_0_split -> ip3_ip3_0_split_0
I0502 19:47:17.186038 12843 net.cpp:409] ip3_ip3_0_split -> ip3_ip3_0_split_1
I0502 19:47:17.186075 12843 net.cpp:144] Setting up ip3_ip3_0_split
I0502 19:47:17.186084 12843 net.cpp:151] Top shape: 20 50 (1000)
I0502 19:47:17.186089 12843 net.cpp:151] Top shape: 20 50 (1000)
I0502 19:47:17.186094 12843 net.cpp:159] Memory required for data: 26841360
I0502 19:47:17.186098 12843 layer_factory.hpp:77] Creating layer accuracy
I0502 19:47:17.186107 12843 net.cpp:94] Creating Layer accuracy
I0502 19:47:17.186111 12843 net.cpp:435] accuracy <- ip3_ip3_0_split_0
I0502 19:47:17.186117 12843 net.cpp:435] accuracy <- label_intercept_1_split_0
I0502 19:47:17.186125 12843 net.cpp:409] accuracy -> accuracy
…
