…
I0503 07:25:22.888614 18920 net.cpp:323] The NetState phase (0) differed from the phase (1) specified by a rule in layer intercept
I0503 07:25:22.888633 18920 net.cpp:323] The NetState phase (0) differed from the phase (1) specified by a rule in layer loss
I0503 07:25:22.888723 18920 net.cpp:52] Initializing net from parameters: 
state {
  phase: TRAIN
}
layer {
  name: "parameters"
  type: "HDF5Data"
  top: "data"
  top: "label"
  include {
    phase: TRAIN
  }
  hdf5_data_param {
    source: "/home/purduethu/scratch/radon/d/deng106/CNNStatisticalModel/distributions/input/50_distributions_100_sample_size_train-parameters-path.txt"
    batch_size: 20
  }
}
layer {
  name: "conv1"
  type: "Convolution"
  bottom: "data"
  top: "conv1"
  param {
    lr_mult: 1
  }
  param {
    lr_mult: 2
  }
  convolution_param {
    num_output: 64
    pad: 2
    kernel_size: 5
    stride: 1
    weight_filler {
      type: "gaussian"
      std: 0.0001
    }
    bias_filler {
      type: "constant"
    }
  }
}
layer {
  name: "relu1"
  type: "ReLU"
  bottom: "conv1"
  top: "conv1"
}
layer {
  name: "conv2"
  type: "Convolution"
  bottom: "conv1"
  top: "conv2"
  param {
    lr_mult: 1
  }
  param {
    lr_mult: 2
  }
  convolution_param {
    num_output: 64
    pad: 2
    kernel_size: 5
    stride: 1
    weight_filler {
      type: "gaussian"
      std: 0.01
    }
    bias_filler {
      type: "constant"
    }
  }
}
layer {
  name: "relu2"
  type: "ReLU"
  bottom: "conv2"
  top: "conv2"
}
layer {
  name: "pool2"
  type: "Pooling"
  bottom: "conv2"
  top: "pool2"
  pooling_param {
    pool: MAX
    kernel_size: 3
    stride: 2
  }
}
layer {
  name: "conv3"
  type: "Convolution"
  bottom: "pool2"
  top: "conv3"
  param {
    lr_mult: 1
  }
  param {
    lr_mult: 2
  }
  convolution_param {
    num_output: 128
    pad: 2
    kernel_size: 5
    stride: 1
    weight_filler {
      type: "gaussian"
      std: 0.01
    }
    bias_filler {
      type: "constant"
    }
  }
}
layer {
  name: "relu3"
  type: "ReLU"
  bottom: "conv3"
  top: "conv3"
}
layer {
  name: "conv4"
  type: "Convolution"
  bottom: "conv3"
  top: "conv4"
  param {
    lr_mult: 1
  }
  param {
    lr_mult: 2
  }
  convolution_param {
    num_output: 128
    pad: 2
    kernel_size: 5
    stride: 1
    weight_filler {
      type: "gaussian"
      std: 0.01
    }
    bias_filler {
      type: "constant"
    }
  }
}
layer {
  name: "relu4"
  type: "ReLU"
  bottom: "conv4"
  top: "conv4"
}
layer {
  name: "conv5"
  type: "Convolution"
  bottom: "conv4"
  top: "conv5"
  param {
    lr_mult: 1
  }
  param {
    lr_mult: 2
  }
  convolution_param {
    num_output: 128
    pad: 2
    kernel_size: 5
    stride: 1
    weight_filler {
      type: "gaussian"
      std: 0.01
    }
    bias_filler {
      type: "constant"
    }
  }
}
layer {
  name: "relu5"
  type: "ReLU"
  bottom: "conv5"
  top: "conv5"
}
layer {
  name: "pool5"
  type: "Pooling"
  bottom: "conv5"
  top: "pool5"
  pooling_param {
    pool: AVE
    kernel_size: 3
    stride: 2
  }
}
layer {
  name: "ip1"
  type: "InnerProduct"
  bottom: "pool5"
  top: "ip1"
  param {
    lr_mult: 1
  }
  param {
    lr_mult: 2
  }
  inner_product_param {
    num_output: 1024
    weight_filler {
      type: "gaussian"
      std: 0.1
    }
    bias_filler {
      type: "constant"
    }
  }
}
layer {
  name: "ip2"
  type: "InnerProduct"
  bottom: "ip1"
  top: "ip2"
  param {
    lr_mult: 1
  }
  param {
    lr_mult: 2
  }
  inner_product_param {
    num_output: 512
    weight_filler {
      type: "gaussian"
      std: 0.1
    }
    bias_filler {
      type: "constant"
    }
  }
}
layer {
  name: "ip3"
  type: "InnerProduct"
  bottom: "ip2"
  top: "ip3"
  param {
    lr_mult: 1
  }
  param {
    lr_mult: 2
  }
  inner_product_param {
    num_output: 1
    weight_filler {
      type: "gaussian"
      std: 0.1
    }
    bias_filler {
      type: "constant"
    }
  }
}
layer {
  name: "loss"
  type: "HuberLoss"
  bottom: "ip3"
  bottom: "label"
  top: "loss"
  include {
    phase: TRAIN
  }
}
I0503 07:25:22.888798 18920 layer_factory.hpp:77] Creating layer parameters
I0503 07:25:22.888813 18920 net.cpp:94] Creating Layer parameters
I0503 07:25:22.888818 18920 net.cpp:409] parameters -> data
I0503 07:25:22.888839 18920 net.cpp:409] parameters -> label
I0503 07:25:22.888849 18920 hdf5_data_layer.cpp:79] Loading list of HDF5 filenames from: /home/purduethu/scratch/radon/d/deng106/CNNStatisticalModel/distributions/input/50_distributions_100_sample_size_train-parameters-path.txt
I0503 07:25:22.888871 18920 hdf5_data_layer.cpp:93] Number of HDF5 files: 1
I0503 07:25:22.889451 18920 hdf5.cpp:32] Datatype class: H5T_FLOAT
I0503 07:25:23.054683 18920 net.cpp:144] Setting up parameters
I0503 07:25:23.054715 18920 net.cpp:151] Top shape: 20 1 10 10 (2000)
I0503 07:25:23.054721 18920 net.cpp:151] Top shape: 20 (20)
I0503 07:25:23.054725 18920 net.cpp:159] Memory required for data: 8080
I0503 07:25:23.054733 18920 layer_factory.hpp:77] Creating layer conv1
I0503 07:25:23.054757 18920 net.cpp:94] Creating Layer conv1
I0503 07:25:23.054764 18920 net.cpp:435] conv1 <- data
I0503 07:25:23.054775 18920 net.cpp:409] conv1 -> conv1
I0503 07:25:23.058657 18920 net.cpp:144] Setting up conv1
I0503 07:25:23.058672 18920 net.cpp:151] Top shape: 20 64 10 10 (128000)
I0503 07:25:23.058676 18920 net.cpp:159] Memory required for data: 520080
I0503 07:25:23.058688 18920 layer_factory.hpp:77] Creating layer relu1
I0503 07:25:23.058696 18920 net.cpp:94] Creating Layer relu1
I0503 07:25:23.058701 18920 net.cpp:435] relu1 <- conv1
I0503 07:25:23.058706 18920 net.cpp:396] relu1 -> conv1 (in-place)
I0503 07:25:23.058722 18920 net.cpp:144] Setting up relu1
I0503 07:25:23.058727 18920 net.cpp:151] Top shape: 20 64 10 10 (128000)
I0503 07:25:23.058730 18920 net.cpp:159] Memory required for data: 1032080
I0503 07:25:23.058733 18920 layer_factory.hpp:77] Creating layer conv2
I0503 07:25:23.058742 18920 net.cpp:94] Creating Layer conv2
I0503 07:25:23.058745 18920 net.cpp:435] conv2 <- conv1
I0503 07:25:23.058750 18920 net.cpp:409] conv2 -> conv2
I0503 07:25:23.064713 18920 net.cpp:144] Setting up conv2
I0503 07:25:23.064726 18920 net.cpp:151] Top shape: 20 64 10 10 (128000)
I0503 07:25:23.064730 18920 net.cpp:159] Memory required for data: 1544080
I0503 07:25:23.064738 18920 layer_factory.hpp:77] Creating layer relu2
I0503 07:25:23.064745 18920 net.cpp:94] Creating Layer relu2
I0503 07:25:23.064749 18920 net.cpp:435] relu2 <- conv2
I0503 07:25:23.064754 18920 net.cpp:396] relu2 -> conv2 (in-place)
I0503 07:25:23.064761 18920 net.cpp:144] Setting up relu2
I0503 07:25:23.064766 18920 net.cpp:151] Top shape: 20 64 10 10 (128000)
I0503 07:25:23.064770 18920 net.cpp:159] Memory required for data: 2056080
I0503 07:25:23.064774 18920 layer_factory.hpp:77] Creating layer pool2
I0503 07:25:23.064781 18920 net.cpp:94] Creating Layer pool2
I0503 07:25:23.064791 18920 net.cpp:435] pool2 <- conv2
I0503 07:25:23.064796 18920 net.cpp:409] pool2 -> pool2
I0503 07:25:23.064839 18920 net.cpp:144] Setting up pool2
I0503 07:25:23.064847 18920 net.cpp:151] Top shape: 20 64 5 5 (32000)
I0503 07:25:23.064851 18920 net.cpp:159] Memory required for data: 2184080
I0503 07:25:23.064853 18920 layer_factory.hpp:77] Creating layer conv3
I0503 07:25:23.064862 18920 net.cpp:94] Creating Layer conv3
I0503 07:25:23.064867 18920 net.cpp:435] conv3 <- pool2
I0503 07:25:23.064872 18920 net.cpp:409] conv3 -> conv3
I0503 07:25:23.073129 18920 net.cpp:144] Setting up conv3
I0503 07:25:23.073144 18920 net.cpp:151] Top shape: 20 128 5 5 (64000)
I0503 07:25:23.073148 18920 net.cpp:159] Memory required for data: 2440080
I0503 07:25:23.073156 18920 layer_factory.hpp:77] Creating layer relu3
I0503 07:25:23.073163 18920 net.cpp:94] Creating Layer relu3
I0503 07:25:23.073168 18920 net.cpp:435] relu3 <- conv3
I0503 07:25:23.073171 18920 net.cpp:396] relu3 -> conv3 (in-place)
I0503 07:25:23.073179 18920 net.cpp:144] Setting up relu3
I0503 07:25:23.073184 18920 net.cpp:151] Top shape: 20 128 5 5 (64000)
I0503 07:25:23.073186 18920 net.cpp:159] Memory required for data: 2696080
I0503 07:25:23.073190 18920 layer_factory.hpp:77] Creating layer conv4
I0503 07:25:23.073199 18920 net.cpp:94] Creating Layer conv4
I0503 07:25:23.073202 18920 net.cpp:435] conv4 <- conv3
I0503 07:25:23.073207 18920 net.cpp:409] conv4 -> conv4
I0503 07:25:23.088491 18920 net.cpp:144] Setting up conv4
I0503 07:25:23.088506 18920 net.cpp:151] Top shape: 20 128 5 5 (64000)
I0503 07:25:23.088510 18920 net.cpp:159] Memory required for data: 2952080
I0503 07:25:23.088516 18920 layer_factory.hpp:77] Creating layer relu4
I0503 07:25:23.088523 18920 net.cpp:94] Creating Layer relu4
I0503 07:25:23.088527 18920 net.cpp:435] relu4 <- conv4
I0503 07:25:23.088531 18920 net.cpp:396] relu4 -> conv4 (in-place)
I0503 07:25:23.088539 18920 net.cpp:144] Setting up relu4
I0503 07:25:23.088544 18920 net.cpp:151] Top shape: 20 128 5 5 (64000)
I0503 07:25:23.088547 18920 net.cpp:159] Memory required for data: 3208080
I0503 07:25:23.088559 18920 layer_factory.hpp:77] Creating layer conv5
I0503 07:25:23.088569 18920 net.cpp:94] Creating Layer conv5
I0503 07:25:23.088573 18920 net.cpp:435] conv5 <- conv4
I0503 07:25:23.088578 18920 net.cpp:409] conv5 -> conv5
I0503 07:25:23.103299 18920 net.cpp:144] Setting up conv5
I0503 07:25:23.103314 18920 net.cpp:151] Top shape: 20 128 5 5 (64000)
I0503 07:25:23.103319 18920 net.cpp:159] Memory required for data: 3464080
I0503 07:25:23.103328 18920 layer_factory.hpp:77] Creating layer relu5
I0503 07:25:23.103334 18920 net.cpp:94] Creating Layer relu5
I0503 07:25:23.103338 18920 net.cpp:435] relu5 <- conv5
I0503 07:25:23.103343 18920 net.cpp:396] relu5 -> conv5 (in-place)
I0503 07:25:23.103350 18920 net.cpp:144] Setting up relu5
I0503 07:25:23.103355 18920 net.cpp:151] Top shape: 20 128 5 5 (64000)
I0503 07:25:23.103358 18920 net.cpp:159] Memory required for data: 3720080
I0503 07:25:23.103363 18920 layer_factory.hpp:77] Creating layer pool5
I0503 07:25:23.103368 18920 net.cpp:94] Creating Layer pool5
I0503 07:25:23.103370 18920 net.cpp:435] pool5 <- conv5
I0503 07:25:23.103375 18920 net.cpp:409] pool5 -> pool5
I0503 07:25:23.103410 18920 net.cpp:144] Setting up pool5
I0503 07:25:23.103416 18920 net.cpp:151] Top shape: 20 128 2 2 (10240)
I0503 07:25:23.103420 18920 net.cpp:159] Memory required for data: 3761040
I0503 07:25:23.103423 18920 layer_factory.hpp:77] Creating layer ip1
I0503 07:25:23.103432 18920 net.cpp:94] Creating Layer ip1
I0503 07:25:23.103436 18920 net.cpp:435] ip1 <- pool5
I0503 07:25:23.103441 18920 net.cpp:409] ip1 -> ip1
I0503 07:25:23.117565 18920 net.cpp:144] Setting up ip1
I0503 07:25:23.117579 18920 net.cpp:151] Top shape: 20 1024 (20480)
I0503 07:25:23.117584 18920 net.cpp:159] Memory required for data: 3842960
I0503 07:25:23.117590 18920 layer_factory.hpp:77] Creating layer ip2
I0503 07:25:23.117597 18920 net.cpp:94] Creating Layer ip2
I0503 07:25:23.117601 18920 net.cpp:435] ip2 <- ip1
I0503 07:25:23.117611 18920 net.cpp:409] ip2 -> ip2
I0503 07:25:23.131053 18920 net.cpp:144] Setting up ip2
I0503 07:25:23.131067 18920 net.cpp:151] Top shape: 20 512 (10240)
I0503 07:25:23.131072 18920 net.cpp:159] Memory required for data: 3883920
I0503 07:25:23.131078 18920 layer_factory.hpp:77] Creating layer ip3
I0503 07:25:23.131085 18920 net.cpp:94] Creating Layer ip3
I0503 07:25:23.131089 18920 net.cpp:435] ip3 <- ip2
I0503 07:25:23.131094 18920 net.cpp:409] ip3 -> ip3
I0503 07:25:23.131170 18920 net.cpp:144] Setting up ip3
I0503 07:25:23.131177 18920 net.cpp:151] Top shape: 20 1 (20)
I0503 07:25:23.131188 18920 net.cpp:159] Memory required for data: 3884000
I0503 07:25:23.131194 18920 layer_factory.hpp:77] Creating layer loss
I0503 07:25:23.131206 18920 net.cpp:94] Creating Layer loss
I0503 07:25:23.131209 18920 net.cpp:435] loss <- ip3
I0503 07:25:23.131213 18920 net.cpp:435] loss <- label
I0503 07:25:23.131219 18920 net.cpp:409] loss -> loss
I0503 07:25:23.131255 18920 net.cpp:144] Setting up loss
…
