…
I0501 20:09:33.261276 14451 net.cpp:323] The NetState phase (0) differed from the phase (1) specified by a rule in layer intercept
I0501 20:09:33.261292 14451 net.cpp:323] The NetState phase (0) differed from the phase (1) specified by a rule in layer loss
I0501 20:09:33.261384 14451 net.cpp:52] Initializing net from parameters: 
state {
  phase: TRAIN
}
layer {
  name: "parameters"
  type: "HDF5Data"
  top: "data"
  top: "label"
  include {
    phase: TRAIN
  }
  hdf5_data_param {
    source: "/home/purduethu/scratch/radon/d/deng106/CNNStatisticalModel/distributions/input/5_distributions_100_sample_size_train-parameters-path.txt"
    batch_size: 20
  }
}
layer {
  name: "conv1"
  type: "Convolution"
  bottom: "data"
  top: "conv1"
  param {
    lr_mult: 1
  }
  param {
    lr_mult: 2
  }
  convolution_param {
    num_output: 64
    pad: 2
    kernel_size: 5
    stride: 1
    weight_filler {
      type: "gaussian"
      std: 0.0001
    }
    bias_filler {
      type: "constant"
    }
  }
}
layer {
  name: "relu1"
  type: "ReLU"
  bottom: "conv1"
  top: "conv1"
}
layer {
  name: "conv2"
  type: "Convolution"
  bottom: "conv1"
  top: "conv2"
  param {
    lr_mult: 1
  }
  param {
    lr_mult: 2
  }
  convolution_param {
    num_output: 64
    pad: 2
    kernel_size: 5
    stride: 1
    weight_filler {
      type: "gaussian"
      std: 0.01
    }
    bias_filler {
      type: "constant"
    }
  }
}
layer {
  name: "relu2"
  type: "ReLU"
  bottom: "conv2"
  top: "conv2"
}
layer {
  name: "pool2"
  type: "Pooling"
  bottom: "conv2"
  top: "pool2"
  pooling_param {
    pool: MAX
    kernel_size: 3
    stride: 2
  }
}
layer {
  name: "conv3"
  type: "Convolution"
  bottom: "pool2"
  top: "conv3"
  param {
    lr_mult: 1
  }
  param {
    lr_mult: 2
  }
  convolution_param {
    num_output: 64
    pad: 2
    kernel_size: 5
    stride: 1
    weight_filler {
      type: "gaussian"
      std: 0.01
    }
    bias_filler {
      type: "constant"
    }
  }
}
layer {
  name: "relu3"
  type: "ReLU"
  bottom: "conv3"
  top: "conv3"
}
layer {
  name: "conv4"
  type: "Convolution"
  bottom: "conv3"
  top: "conv4"
  param {
    lr_mult: 1
  }
  param {
    lr_mult: 2
  }
  convolution_param {
    num_output: 64
    pad: 2
    kernel_size: 5
    stride: 1
    weight_filler {
      type: "gaussian"
      std: 0.01
    }
    bias_filler {
      type: "constant"
    }
  }
}
layer {
  name: "relu4"
  type: "ReLU"
  bottom: "conv4"
  top: "conv4"
}
layer {
  name: "conv5"
  type: "Convolution"
  bottom: "conv4"
  top: "conv5"
  param {
    lr_mult: 1
  }
  param {
    lr_mult: 2
  }
  convolution_param {
    num_output: 64
    pad: 2
    kernel_size: 5
    stride: 1
    weight_filler {
      type: "gaussian"
      std: 0.01
    }
    bias_filler {
      type: "constant"
    }
  }
}
layer {
  name: "relu5"
  type: "ReLU"
  bottom: "conv5"
  top: "conv5"
}
layer {
  name: "pool5"
  type: "Pooling"
  bottom: "conv5"
  top: "pool5"
  pooling_param {
    pool: AVE
    kernel_size: 3
    stride: 2
  }
}
layer {
  name: "ip1"
  type: "InnerProduct"
  bottom: "pool5"
  top: "ip1"
  param {
    lr_mult: 1
  }
  param {
    lr_mult: 2
  }
  inner_product_param {
    num_output: 64
    weight_filler {
      type: "gaussian"
      std: 0.1
    }
    bias_filler {
      type: "constant"
    }
  }
}
layer {
  name: "ip2"
  type: "InnerProduct"
  bottom: "ip1"
  top: "ip2"
  param {
    lr_mult: 1
  }
  param {
    lr_mult: 2
  }
  inner_product_param {
    num_output: 64
    weight_filler {
      type: "gaussian"
      std: 0.1
    }
    bias_filler {
      type: "constant"
    }
  }
}
layer {
  name: "ip3"
  type: "InnerProduct"
  bottom: "ip2"
  top: "ip3"
  param {
    lr_mult: 1
  }
  param {
    lr_mult: 2
  }
  inner_product_param {
    num_output: 1
    weight_filler {
      type: "gaussian"
      std: 0.1
    }
    bias_filler {
      type: "constant"
    }
  }
}
layer {
  name: "loss"
  type: "HuberLoss"
  bottom: "ip3"
  bottom: "label"
  top: "loss"
  include {
    phase: TRAIN
  }
}
I0501 20:09:33.261461 14451 layer_factory.hpp:77] Creating layer parameters
I0501 20:09:33.261476 14451 net.cpp:94] Creating Layer parameters
I0501 20:09:33.261482 14451 net.cpp:409] parameters -> data
I0501 20:09:33.261502 14451 net.cpp:409] parameters -> label
I0501 20:09:33.261512 14451 hdf5_data_layer.cpp:79] Loading list of HDF5 filenames from: /home/purduethu/scratch/radon/d/deng106/CNNStatisticalModel/distributions/input/5_distributions_100_sample_size_train-parameters-path.txt
I0501 20:09:33.261534 14451 hdf5_data_layer.cpp:93] Number of HDF5 files: 1
I0501 20:09:33.262102 14451 hdf5.cpp:32] Datatype class: H5T_FLOAT
I0501 20:09:33.279337 14451 net.cpp:144] Setting up parameters
I0501 20:09:33.279369 14451 net.cpp:151] Top shape: 20 1 10 10 (2000)
I0501 20:09:33.279376 14451 net.cpp:151] Top shape: 20 (20)
I0501 20:09:33.279379 14451 net.cpp:159] Memory required for data: 8080
I0501 20:09:33.279387 14451 layer_factory.hpp:77] Creating layer conv1
I0501 20:09:33.279412 14451 net.cpp:94] Creating Layer conv1
I0501 20:09:33.279417 14451 net.cpp:435] conv1 <- data
I0501 20:09:33.279428 14451 net.cpp:409] conv1 -> conv1
I0501 20:09:33.283185 14451 net.cpp:144] Setting up conv1
I0501 20:09:33.283201 14451 net.cpp:151] Top shape: 20 64 10 10 (128000)
I0501 20:09:33.283205 14451 net.cpp:159] Memory required for data: 520080
I0501 20:09:33.283217 14451 layer_factory.hpp:77] Creating layer relu1
I0501 20:09:33.283226 14451 net.cpp:94] Creating Layer relu1
I0501 20:09:33.283229 14451 net.cpp:435] relu1 <- conv1
I0501 20:09:33.283233 14451 net.cpp:396] relu1 -> conv1 (in-place)
I0501 20:09:33.283249 14451 net.cpp:144] Setting up relu1
I0501 20:09:33.283254 14451 net.cpp:151] Top shape: 20 64 10 10 (128000)
I0501 20:09:33.283258 14451 net.cpp:159] Memory required for data: 1032080
I0501 20:09:33.283262 14451 layer_factory.hpp:77] Creating layer conv2
I0501 20:09:33.283269 14451 net.cpp:94] Creating Layer conv2
I0501 20:09:33.283272 14451 net.cpp:435] conv2 <- conv1
I0501 20:09:33.283277 14451 net.cpp:409] conv2 -> conv2
I0501 20:09:33.289048 14451 net.cpp:144] Setting up conv2
I0501 20:09:33.289063 14451 net.cpp:151] Top shape: 20 64 10 10 (128000)
I0501 20:09:33.289067 14451 net.cpp:159] Memory required for data: 1544080
I0501 20:09:33.289075 14451 layer_factory.hpp:77] Creating layer relu2
I0501 20:09:33.289082 14451 net.cpp:94] Creating Layer relu2
I0501 20:09:33.289085 14451 net.cpp:435] relu2 <- conv2
I0501 20:09:33.289090 14451 net.cpp:396] relu2 -> conv2 (in-place)
I0501 20:09:33.289098 14451 net.cpp:144] Setting up relu2
I0501 20:09:33.289103 14451 net.cpp:151] Top shape: 20 64 10 10 (128000)
I0501 20:09:33.289105 14451 net.cpp:159] Memory required for data: 2056080
I0501 20:09:33.289108 14451 layer_factory.hpp:77] Creating layer pool2
I0501 20:09:33.289116 14451 net.cpp:94] Creating Layer pool2
I0501 20:09:33.289125 14451 net.cpp:435] pool2 <- conv2
I0501 20:09:33.289131 14451 net.cpp:409] pool2 -> pool2
I0501 20:09:33.289175 14451 net.cpp:144] Setting up pool2
I0501 20:09:33.289182 14451 net.cpp:151] Top shape: 20 64 5 5 (32000)
I0501 20:09:33.289186 14451 net.cpp:159] Memory required for data: 2184080
I0501 20:09:33.289189 14451 layer_factory.hpp:77] Creating layer conv3
I0501 20:09:33.289197 14451 net.cpp:94] Creating Layer conv3
I0501 20:09:33.289201 14451 net.cpp:435] conv3 <- pool2
I0501 20:09:33.289206 14451 net.cpp:409] conv3 -> conv3
I0501 20:09:33.293936 14451 net.cpp:144] Setting up conv3
I0501 20:09:33.293951 14451 net.cpp:151] Top shape: 20 64 5 5 (32000)
I0501 20:09:33.293954 14451 net.cpp:159] Memory required for data: 2312080
I0501 20:09:33.293963 14451 layer_factory.hpp:77] Creating layer relu3
I0501 20:09:33.293969 14451 net.cpp:94] Creating Layer relu3
I0501 20:09:33.293973 14451 net.cpp:435] relu3 <- conv3
I0501 20:09:33.293978 14451 net.cpp:396] relu3 -> conv3 (in-place)
I0501 20:09:33.293985 14451 net.cpp:144] Setting up relu3
I0501 20:09:33.293990 14451 net.cpp:151] Top shape: 20 64 5 5 (32000)
I0501 20:09:33.293993 14451 net.cpp:159] Memory required for data: 2440080
I0501 20:09:33.293997 14451 layer_factory.hpp:77] Creating layer conv4
I0501 20:09:33.294005 14451 net.cpp:94] Creating Layer conv4
I0501 20:09:33.294008 14451 net.cpp:435] conv4 <- conv3
I0501 20:09:33.294013 14451 net.cpp:409] conv4 -> conv4
I0501 20:09:33.298305 14451 net.cpp:144] Setting up conv4
I0501 20:09:33.298318 14451 net.cpp:151] Top shape: 20 64 5 5 (32000)
I0501 20:09:33.298322 14451 net.cpp:159] Memory required for data: 2568080
I0501 20:09:33.298328 14451 layer_factory.hpp:77] Creating layer relu4
I0501 20:09:33.298334 14451 net.cpp:94] Creating Layer relu4
I0501 20:09:33.298338 14451 net.cpp:435] relu4 <- conv4
I0501 20:09:33.298343 14451 net.cpp:396] relu4 -> conv4 (in-place)
I0501 20:09:33.298349 14451 net.cpp:144] Setting up relu4
I0501 20:09:33.298354 14451 net.cpp:151] Top shape: 20 64 5 5 (32000)
I0501 20:09:33.298357 14451 net.cpp:159] Memory required for data: 2696080
I0501 20:09:33.298360 14451 layer_factory.hpp:77] Creating layer conv5
I0501 20:09:33.298368 14451 net.cpp:94] Creating Layer conv5
I0501 20:09:33.298372 14451 net.cpp:435] conv5 <- conv4
I0501 20:09:33.298377 14451 net.cpp:409] conv5 -> conv5
I0501 20:09:33.303064 14451 net.cpp:144] Setting up conv5
I0501 20:09:33.303078 14451 net.cpp:151] Top shape: 20 64 5 5 (32000)
I0501 20:09:33.303082 14451 net.cpp:159] Memory required for data: 2824080
I0501 20:09:33.303091 14451 layer_factory.hpp:77] Creating layer relu5
I0501 20:09:33.303097 14451 net.cpp:94] Creating Layer relu5
I0501 20:09:33.303102 14451 net.cpp:435] relu5 <- conv5
I0501 20:09:33.303105 14451 net.cpp:396] relu5 -> conv5 (in-place)
I0501 20:09:33.303112 14451 net.cpp:144] Setting up relu5
I0501 20:09:33.303117 14451 net.cpp:151] Top shape: 20 64 5 5 (32000)
I0501 20:09:33.303120 14451 net.cpp:159] Memory required for data: 2952080
I0501 20:09:33.303123 14451 layer_factory.hpp:77] Creating layer pool5
I0501 20:09:33.303128 14451 net.cpp:94] Creating Layer pool5
I0501 20:09:33.303133 14451 net.cpp:435] pool5 <- conv5
I0501 20:09:33.303136 14451 net.cpp:409] pool5 -> pool5
I0501 20:09:33.303169 14451 net.cpp:144] Setting up pool5
I0501 20:09:33.303176 14451 net.cpp:151] Top shape: 20 64 2 2 (5120)
I0501 20:09:33.303179 14451 net.cpp:159] Memory required for data: 2972560
I0501 20:09:33.303182 14451 layer_factory.hpp:77] Creating layer ip1
I0501 20:09:33.303192 14451 net.cpp:94] Creating Layer ip1
I0501 20:09:33.303195 14451 net.cpp:435] ip1 <- pool5
I0501 20:09:33.303200 14451 net.cpp:409] ip1 -> ip1
I0501 20:09:33.304323 14451 net.cpp:144] Setting up ip1
I0501 20:09:33.304337 14451 net.cpp:151] Top shape: 20 64 (1280)
I0501 20:09:33.304342 14451 net.cpp:159] Memory required for data: 2977680
I0501 20:09:33.304347 14451 layer_factory.hpp:77] Creating layer ip2
I0501 20:09:33.304354 14451 net.cpp:94] Creating Layer ip2
I0501 20:09:33.304358 14451 net.cpp:435] ip2 <- ip1
I0501 20:09:33.304368 14451 net.cpp:409] ip2 -> ip2
I0501 20:09:33.304536 14451 net.cpp:144] Setting up ip2
I0501 20:09:33.304544 14451 net.cpp:151] Top shape: 20 64 (1280)
I0501 20:09:33.304548 14451 net.cpp:159] Memory required for data: 2982800
I0501 20:09:33.304560 14451 layer_factory.hpp:77] Creating layer ip3
I0501 20:09:33.304569 14451 net.cpp:94] Creating Layer ip3
I0501 20:09:33.304571 14451 net.cpp:435] ip3 <- ip2
I0501 20:09:33.304576 14451 net.cpp:409] ip3 -> ip3
I0501 20:09:33.304641 14451 net.cpp:144] Setting up ip3
I0501 20:09:33.304647 14451 net.cpp:151] Top shape: 20 1 (20)
I0501 20:09:33.304656 14451 net.cpp:159] Memory required for data: 2982880
I0501 20:09:33.304661 14451 layer_factory.hpp:77] Creating layer loss
I0501 20:09:33.304669 14451 net.cpp:94] Creating Layer loss
I0501 20:09:33.304672 14451 net.cpp:435] loss <- ip3
I0501 20:09:33.304677 14451 net.cpp:435] loss <- label
I0501 20:09:33.304682 14451 net.cpp:409] loss -> loss
I0501 20:09:33.304720 14451 net.cpp:144] Setting up loss
…
