…
I0507 15:25:17.449506  4187 net.cpp:323] The NetState phase (0) differed from the phase (1) specified by a rule in layer intercept
I0507 15:25:17.449522  4187 net.cpp:323] The NetState phase (0) differed from the phase (1) specified by a rule in layer loss
I0507 15:25:17.449599  4187 net.cpp:52] Initializing net from parameters: 
state {
  phase: TRAIN
}
layer {
  name: "parameters"
  type: "HDF5Data"
  top: "data"
  top: "label"
  include {
    phase: TRAIN
  }
  hdf5_data_param {
    source: "/home/purduethu/scratch/radon/d/deng106/CNNStatisticalModel/distributions/input/50_distributions_400_sample_size_train-parameters-path.txt"
    batch_size: 20
  }
}
layer {
  name: "conv1"
  type: "Convolution"
  bottom: "data"
  top: "conv1"
  param {
    lr_mult: 1
  }
  param {
    lr_mult: 2
  }
  convolution_param {
    num_output: 64
    pad: 2
    kernel_size: 5
    stride: 1
    weight_filler {
      type: "gaussian"
      std: 0.0001
    }
    bias_filler {
      type: "constant"
    }
  }
}
layer {
  name: "relu1"
  type: "ReLU"
  bottom: "conv1"
  top: "conv1"
}
layer {
  name: "conv2"
  type: "Convolution"
  bottom: "conv1"
  top: "conv2"
  param {
    lr_mult: 1
  }
  param {
    lr_mult: 2
  }
  convolution_param {
    num_output: 64
    pad: 2
    kernel_size: 5
    stride: 1
    weight_filler {
      type: "gaussian"
      std: 0.01
    }
    bias_filler {
      type: "constant"
    }
  }
}
layer {
  name: "relu2"
  type: "ReLU"
  bottom: "conv2"
  top: "conv2"
}
layer {
  name: "pool2"
  type: "Pooling"
  bottom: "conv2"
  top: "pool2"
  pooling_param {
    pool: MAX
    kernel_size: 3
    stride: 2
  }
}
layer {
  name: "conv3"
  type: "Convolution"
  bottom: "pool2"
  top: "conv3"
  param {
    lr_mult: 1
  }
  param {
    lr_mult: 2
  }
  convolution_param {
    num_output: 64
    pad: 2
    kernel_size: 5
    stride: 1
    weight_filler {
      type: "gaussian"
      std: 0.01
    }
    bias_filler {
      type: "constant"
    }
  }
}
layer {
  name: "relu3"
  type: "ReLU"
  bottom: "conv3"
  top: "conv3"
}
layer {
  name: "conv4"
  type: "Convolution"
  bottom: "conv3"
  top: "conv4"
  param {
    lr_mult: 1
  }
  param {
    lr_mult: 2
  }
  convolution_param {
    num_output: 64
    pad: 2
    kernel_size: 5
    stride: 1
    weight_filler {
      type: "gaussian"
      std: 0.01
    }
    bias_filler {
      type: "constant"
    }
  }
}
layer {
  name: "relu4"
  type: "ReLU"
  bottom: "conv4"
  top: "conv4"
}
layer {
  name: "conv5"
  type: "Convolution"
  bottom: "conv4"
  top: "conv5"
  param {
    lr_mult: 1
  }
  param {
    lr_mult: 2
  }
  convolution_param {
    num_output: 64
    pad: 2
    kernel_size: 5
    stride: 1
    weight_filler {
      type: "gaussian"
      std: 0.01
    }
    bias_filler {
      type: "constant"
    }
  }
}
layer {
  name: "relu5"
  type: "ReLU"
  bottom: "conv5"
  top: "conv5"
}
layer {
  name: "pool5"
  type: "Pooling"
  bottom: "conv5"
  top: "pool5"
  pooling_param {
    pool: AVE
    kernel_size: 3
    stride: 2
  }
}
layer {
  name: "ip1"
  type: "InnerProduct"
  bottom: "pool5"
  top: "ip1"
  param {
    lr_mult: 1
  }
  param {
    lr_mult: 2
  }
  inner_product_param {
    num_output: 64
    weight_filler {
      type: "gaussian"
      std: 0.1
    }
    bias_filler {
      type: "constant"
    }
  }
}
layer {
  name: "ip2"
  type: "InnerProduct"
  bottom: "ip1"
  top: "ip2"
  param {
    lr_mult: 1
  }
  param {
    lr_mult: 2
  }
  inner_product_param {
    num_output: 64
    weight_filler {
      type: "gaussian"
      std: 0.1
    }
    bias_filler {
      type: "constant"
    }
  }
}
layer {
  name: "ip3"
  type: "InnerProduct"
  bottom: "ip2"
  top: "ip3"
  param {
    lr_mult: 1
  }
  param {
    lr_mult: 2
  }
  inner_product_param {
    num_output: 1
    weight_filler {
      type: "gaussian"
      std: 0.1
    }
    bias_filler {
      type: "constant"
    }
  }
}
layer {
  name: "loss"
  type: "HuberLoss"
  bottom: "ip3"
  bottom: "label"
  top: "loss"
  include {
    phase: TRAIN
  }
}
I0507 15:25:17.449652  4187 layer_factory.hpp:77] Creating layer parameters
I0507 15:25:17.449664  4187 net.cpp:94] Creating Layer parameters
I0507 15:25:17.449669  4187 net.cpp:409] parameters -> data
I0507 15:25:17.449678  4187 net.cpp:409] parameters -> label
I0507 15:25:17.449684  4187 hdf5_data_layer.cpp:79] Loading list of HDF5 filenames from: /home/purduethu/scratch/radon/d/deng106/CNNStatisticalModel/distributions/input/50_distributions_400_sample_size_train-parameters-path.txt
I0507 15:25:17.449699  4187 hdf5_data_layer.cpp:93] Number of HDF5 files: 1
I0507 15:25:17.450103  4187 hdf5.cpp:32] Datatype class: H5T_FLOAT
I0507 15:25:18.084441  4187 net.cpp:144] Setting up parameters
I0507 15:25:18.084475  4187 net.cpp:151] Top shape: 20 1 20 20 (8000)
I0507 15:25:18.084480  4187 net.cpp:151] Top shape: 20 (20)
I0507 15:25:18.084483  4187 net.cpp:159] Memory required for data: 32080
I0507 15:25:18.084489  4187 layer_factory.hpp:77] Creating layer conv1
I0507 15:25:18.084511  4187 net.cpp:94] Creating Layer conv1
I0507 15:25:18.084517  4187 net.cpp:435] conv1 <- data
I0507 15:25:18.084522  4187 net.cpp:409] conv1 -> conv1
I0507 15:25:18.089953  4187 net.cpp:144] Setting up conv1
I0507 15:25:18.089972  4187 net.cpp:151] Top shape: 20 64 20 20 (512000)
I0507 15:25:18.089975  4187 net.cpp:159] Memory required for data: 2080080
I0507 15:25:18.089987  4187 layer_factory.hpp:77] Creating layer relu1
I0507 15:25:18.089995  4187 net.cpp:94] Creating Layer relu1
I0507 15:25:18.089999  4187 net.cpp:435] relu1 <- conv1
I0507 15:25:18.090003  4187 net.cpp:396] relu1 -> conv1 (in-place)
I0507 15:25:18.090015  4187 net.cpp:144] Setting up relu1
I0507 15:25:18.090019  4187 net.cpp:151] Top shape: 20 64 20 20 (512000)
I0507 15:25:18.090023  4187 net.cpp:159] Memory required for data: 4128080
I0507 15:25:18.090025  4187 layer_factory.hpp:77] Creating layer conv2
I0507 15:25:18.090034  4187 net.cpp:94] Creating Layer conv2
I0507 15:25:18.090037  4187 net.cpp:435] conv2 <- conv1
I0507 15:25:18.090044  4187 net.cpp:409] conv2 -> conv2
I0507 15:25:18.101754  4187 net.cpp:144] Setting up conv2
I0507 15:25:18.101770  4187 net.cpp:151] Top shape: 20 64 20 20 (512000)
I0507 15:25:18.101774  4187 net.cpp:159] Memory required for data: 6176080
I0507 15:25:18.101783  4187 layer_factory.hpp:77] Creating layer relu2
I0507 15:25:18.101789  4187 net.cpp:94] Creating Layer relu2
I0507 15:25:18.101793  4187 net.cpp:435] relu2 <- conv2
I0507 15:25:18.101797  4187 net.cpp:396] relu2 -> conv2 (in-place)
I0507 15:25:18.101804  4187 net.cpp:144] Setting up relu2
I0507 15:25:18.101809  4187 net.cpp:151] Top shape: 20 64 20 20 (512000)
I0507 15:25:18.101811  4187 net.cpp:159] Memory required for data: 8224080
I0507 15:25:18.101814  4187 layer_factory.hpp:77] Creating layer pool2
I0507 15:25:18.101825  4187 net.cpp:94] Creating Layer pool2
I0507 15:25:18.101830  4187 net.cpp:435] pool2 <- conv2
I0507 15:25:18.101833  4187 net.cpp:409] pool2 -> pool2
I0507 15:25:18.101889  4187 net.cpp:144] Setting up pool2
I0507 15:25:18.101897  4187 net.cpp:151] Top shape: 20 64 10 10 (128000)
I0507 15:25:18.101900  4187 net.cpp:159] Memory required for data: 8736080
I0507 15:25:18.101903  4187 layer_factory.hpp:77] Creating layer conv3
I0507 15:25:18.101912  4187 net.cpp:94] Creating Layer conv3
I0507 15:25:18.101914  4187 net.cpp:435] conv3 <- pool2
I0507 15:25:18.101919  4187 net.cpp:409] conv3 -> conv3
I0507 15:25:18.107275  4187 net.cpp:144] Setting up conv3
I0507 15:25:18.107288  4187 net.cpp:151] Top shape: 20 64 10 10 (128000)
I0507 15:25:18.107292  4187 net.cpp:159] Memory required for data: 9248080
I0507 15:25:18.107300  4187 layer_factory.hpp:77] Creating layer relu3
I0507 15:25:18.107306  4187 net.cpp:94] Creating Layer relu3
I0507 15:25:18.107311  4187 net.cpp:435] relu3 <- conv3
I0507 15:25:18.107314  4187 net.cpp:396] relu3 -> conv3 (in-place)
I0507 15:25:18.107321  4187 net.cpp:144] Setting up relu3
I0507 15:25:18.107326  4187 net.cpp:151] Top shape: 20 64 10 10 (128000)
I0507 15:25:18.107328  4187 net.cpp:159] Memory required for data: 9760080
I0507 15:25:18.107331  4187 layer_factory.hpp:77] Creating layer conv4
I0507 15:25:18.107341  4187 net.cpp:94] Creating Layer conv4
I0507 15:25:18.107343  4187 net.cpp:435] conv4 <- conv3
I0507 15:25:18.107348  4187 net.cpp:409] conv4 -> conv4
I0507 15:25:18.112747  4187 net.cpp:144] Setting up conv4
I0507 15:25:18.112761  4187 net.cpp:151] Top shape: 20 64 10 10 (128000)
I0507 15:25:18.112764  4187 net.cpp:159] Memory required for data: 10272080
I0507 15:25:18.112771  4187 layer_factory.hpp:77] Creating layer relu4
I0507 15:25:18.112776  4187 net.cpp:94] Creating Layer relu4
I0507 15:25:18.112781  4187 net.cpp:435] relu4 <- conv4
I0507 15:25:18.112785  4187 net.cpp:396] relu4 -> conv4 (in-place)
I0507 15:25:18.112792  4187 net.cpp:144] Setting up relu4
I0507 15:25:18.112797  4187 net.cpp:151] Top shape: 20 64 10 10 (128000)
I0507 15:25:18.112799  4187 net.cpp:159] Memory required for data: 10784080
I0507 15:25:18.112802  4187 layer_factory.hpp:77] Creating layer conv5
I0507 15:25:18.112809  4187 net.cpp:94] Creating Layer conv5
I0507 15:25:18.112813  4187 net.cpp:435] conv5 <- conv4
I0507 15:25:18.112818  4187 net.cpp:409] conv5 -> conv5
I0507 15:25:18.118198  4187 net.cpp:144] Setting up conv5
I0507 15:25:18.118212  4187 net.cpp:151] Top shape: 20 64 10 10 (128000)
I0507 15:25:18.118216  4187 net.cpp:159] Memory required for data: 11296080
I0507 15:25:18.118224  4187 layer_factory.hpp:77] Creating layer relu5
I0507 15:25:18.118230  4187 net.cpp:94] Creating Layer relu5
I0507 15:25:18.118233  4187 net.cpp:435] relu5 <- conv5
I0507 15:25:18.118238  4187 net.cpp:396] relu5 -> conv5 (in-place)
I0507 15:25:18.118245  4187 net.cpp:144] Setting up relu5
I0507 15:25:18.118249  4187 net.cpp:151] Top shape: 20 64 10 10 (128000)
I0507 15:25:18.118252  4187 net.cpp:159] Memory required for data: 11808080
I0507 15:25:18.118255  4187 layer_factory.hpp:77] Creating layer pool5
I0507 15:25:18.118260  4187 net.cpp:94] Creating Layer pool5
I0507 15:25:18.118263  4187 net.cpp:435] pool5 <- conv5
I0507 15:25:18.118268  4187 net.cpp:409] pool5 -> pool5
I0507 15:25:18.118306  4187 net.cpp:144] Setting up pool5
I0507 15:25:18.118314  4187 net.cpp:151] Top shape: 20 64 5 5 (32000)
I0507 15:25:18.118317  4187 net.cpp:159] Memory required for data: 11936080
I0507 15:25:18.118320  4187 layer_factory.hpp:77] Creating layer ip1
I0507 15:25:18.118330  4187 net.cpp:94] Creating Layer ip1
I0507 15:25:18.118333  4187 net.cpp:435] ip1 <- pool5
I0507 15:25:18.118337  4187 net.cpp:409] ip1 -> ip1
I0507 15:25:18.120841  4187 net.cpp:144] Setting up ip1
I0507 15:25:18.120860  4187 net.cpp:151] Top shape: 20 64 (1280)
I0507 15:25:18.120863  4187 net.cpp:159] Memory required for data: 11941200
I0507 15:25:18.120868  4187 layer_factory.hpp:77] Creating layer ip2
I0507 15:25:18.120874  4187 net.cpp:94] Creating Layer ip2
I0507 15:25:18.120882  4187 net.cpp:435] ip2 <- ip1
I0507 15:25:18.120887  4187 net.cpp:409] ip2 -> ip2
I0507 15:25:18.121096  4187 net.cpp:144] Setting up ip2
I0507 15:25:18.121104  4187 net.cpp:151] Top shape: 20 64 (1280)
I0507 15:25:18.121106  4187 net.cpp:159] Memory required for data: 11946320
I0507 15:25:18.121111  4187 layer_factory.hpp:77] Creating layer ip3
I0507 15:25:18.121117  4187 net.cpp:94] Creating Layer ip3
I0507 15:25:18.121120  4187 net.cpp:435] ip3 <- ip2
I0507 15:25:18.121124  4187 net.cpp:409] ip3 -> ip3
I0507 15:25:18.121225  4187 net.cpp:144] Setting up ip3
I0507 15:25:18.121232  4187 net.cpp:151] Top shape: 20 1 (20)
I0507 15:25:18.121234  4187 net.cpp:159] Memory required for data: 11946400
I0507 15:25:18.121239  4187 layer_factory.hpp:77] Creating layer loss
I0507 15:25:18.121246  4187 net.cpp:94] Creating Layer loss
I0507 15:25:18.121249  4187 net.cpp:435] loss <- ip3
I0507 15:25:18.121253  4187 net.cpp:435] loss <- label
I0507 15:25:18.121258  4187 net.cpp:409] loss -> loss
I0507 15:25:18.121309  4187 net.cpp:144] Setting up loss
…
I0507 15:25:18.303993  4187 net.cpp:323] The NetState phase (0) differed from the phase (1) specified by a rule in layer intercept
I0507 15:25:18.304008  4187 net.cpp:323] The NetState phase (0) differed from the phase (1) specified by a rule in layer accuracy
I0507 15:25:18.304093  4187 net.cpp:52] Initializing net from parameters: 
state {
  phase: TRAIN
}
layer {
  name: "parameters"
  type: "HDF5Data"
  top: "data"
  top: "label"
  include {
    phase: TRAIN
  }
  hdf5_data_param {
    source: "/home/purduethu/scratch/radon/d/deng106/CNNStatisticalModel/distributions/input/50_distributions_400_sample_size_train-distributions-path.txt"
    batch_size: 20
  }
}
layer {
  name: "conv1"
  type: "Convolution"
  bottom: "data"
  top: "conv1"
  param {
    lr_mult: 1
  }
  param {
    lr_mult: 2
  }
  convolution_param {
    num_output: 64
    pad: 2
    kernel_size: 5
    stride: 1
    weight_filler {
      type: "gaussian"
      std: 0.0001
    }
    bias_filler {
      type: "constant"
    }
  }
}
layer {
  name: "relu1"
  type: "ReLU"
  bottom: "conv1"
  top: "conv1"
}
layer {
  name: "conv2"
  type: "Convolution"
  bottom: "conv1"
  top: "conv2"
  param {
    lr_mult: 1
  }
  param {
    lr_mult: 2
  }
  convolution_param {
    num_output: 64
    pad: 2
    kernel_size: 5
    stride: 1
    weight_filler {
      type: "gaussian"
      std: 0.01
    }
    bias_filler {
      type: "constant"
    }
  }
}
layer {
  name: "relu2"
  type: "ReLU"
  bottom: "conv2"
  top: "conv2"
}
layer {
  name: "pool2"
  type: "Pooling"
  bottom: "conv2"
  top: "pool2"
  pooling_param {
    pool: MAX
    kernel_size: 3
    stride: 2
  }
}
layer {
  name: "conv3"
  type: "Convolution"
  bottom: "pool2"
  top: "conv3"
  param {
    lr_mult: 1
  }
  param {
    lr_mult: 2
  }
  convolution_param {
    num_output: 64
    pad: 2
    kernel_size: 5
    stride: 1
    weight_filler {
      type: "gaussian"
      std: 0.01
    }
    bias_filler {
      type: "constant"
    }
  }
}
layer {
  name: "relu3"
  type: "ReLU"
  bottom: "conv3"
  top: "conv3"
}
layer {
  name: "conv4"
  type: "Convolution"
  bottom: "conv3"
  top: "conv4"
  param {
    lr_mult: 1
  }
  param {
    lr_mult: 2
  }
  convolution_param {
    num_output: 64
    pad: 2
    kernel_size: 5
    stride: 1
    weight_filler {
      type: "gaussian"
      std: 0.01
    }
    bias_filler {
      type: "constant"
    }
  }
}
layer {
  name: "relu4"
  type: "ReLU"
  bottom: "conv4"
  top: "conv4"
}
layer {
  name: "conv5"
  type: "Convolution"
  bottom: "conv4"
  top: "conv5"
  param {
    lr_mult: 1
  }
  param {
    lr_mult: 2
  }
  convolution_param {
    num_output: 64
    pad: 2
    kernel_size: 5
    stride: 1
    weight_filler {
      type: "gaussian"
      std: 0.01
    }
    bias_filler {
      type: "constant"
    }
  }
}
layer {
  name: "relu5"
  type: "ReLU"
  bottom: "conv5"
  top: "conv5"
}
layer {
  name: "pool5"
  type: "Pooling"
  bottom: "conv5"
  top: "pool5"
  pooling_param {
    pool: AVE
    kernel_size: 3
    stride: 2
  }
}
layer {
  name: "ip1"
  type: "InnerProduct"
  bottom: "pool5"
  top: "ip1"
  param {
    lr_mult: 1
  }
  param {
    lr_mult: 2
  }
  inner_product_param {
    num_output: 64
    weight_filler {
      type: "gaussian"
      std: 0.1
    }
    bias_filler {
      type: "constant"
    }
  }
}
layer {
  name: "ip2"
  type: "InnerProduct"
  bottom: "ip1"
  top: "ip2"
  param {
    lr_mult: 1
  }
  param {
    lr_mult: 2
  }
  inner_product_param {
    num_output: 64
    weight_filler {
      type: "gaussian"
      std: 0.1
    }
    bias_filler {
      type: "constant"
    }
  }
}
layer {
  name: "ip3"
  type: "InnerProduct"
  bottom: "ip2"
  top: "ip3"
  param {
    lr_mult: 1
  }
  param {
    lr_mult: 2
  }
  inner_product_param {
    num_output: 50
    weight_filler {
      type: "gaussian"
      std: 0.1
    }
    bias_filler {
      type: "constant"
    }
  }
}
layer {
  name: "loss"
  type: "SoftmaxWithLoss"
  bottom: "ip3"
  bottom: "label"
  top: "loss"
}
I0507 15:25:18.304146  4187 layer_factory.hpp:77] Creating layer parameters
I0507 15:25:18.304154  4187 net.cpp:94] Creating Layer parameters
I0507 15:25:18.304158  4187 net.cpp:409] parameters -> data
I0507 15:25:18.304165  4187 net.cpp:409] parameters -> label
I0507 15:25:18.304172  4187 hdf5_data_layer.cpp:79] Loading list of HDF5 filenames from: /home/purduethu/scratch/radon/d/deng106/CNNStatisticalModel/distributions/input/50_distributions_400_sample_size_train-distributions-path.txt
I0507 15:25:18.304186  4187 hdf5_data_layer.cpp:93] Number of HDF5 files: 1
I0507 15:25:18.942435  4187 hdf5.cpp:35] Datatype class: H5T_INTEGER
I0507 15:25:18.945531  4187 net.cpp:144] Setting up parameters
I0507 15:25:18.945547  4187 net.cpp:151] Top shape: 20 1 20 20 (8000)
I0507 15:25:18.945552  4187 net.cpp:151] Top shape: 20 (20)
I0507 15:25:18.945556  4187 net.cpp:159] Memory required for data: 32080
I0507 15:25:18.945562  4187 layer_factory.hpp:77] Creating layer conv1
I0507 15:25:18.945578  4187 net.cpp:94] Creating Layer conv1
I0507 15:25:18.945582  4187 net.cpp:435] conv1 <- data
I0507 15:25:18.945588  4187 net.cpp:409] conv1 -> conv1
I0507 15:25:18.948266  4187 net.cpp:144] Setting up conv1
I0507 15:25:18.948281  4187 net.cpp:151] Top shape: 20 64 20 20 (512000)
I0507 15:25:18.948284  4187 net.cpp:159] Memory required for data: 2080080
I0507 15:25:18.948294  4187 layer_factory.hpp:77] Creating layer relu1
I0507 15:25:18.948302  4187 net.cpp:94] Creating Layer relu1
I0507 15:25:18.948307  4187 net.cpp:435] relu1 <- conv1
I0507 15:25:18.948310  4187 net.cpp:396] relu1 -> conv1 (in-place)
I0507 15:25:18.948318  4187 net.cpp:144] Setting up relu1
I0507 15:25:18.948323  4187 net.cpp:151] Top shape: 20 64 20 20 (512000)
I0507 15:25:18.948325  4187 net.cpp:159] Memory required for data: 4128080
I0507 15:25:18.948328  4187 layer_factory.hpp:77] Creating layer conv2
I0507 15:25:18.948336  4187 net.cpp:94] Creating Layer conv2
I0507 15:25:18.948339  4187 net.cpp:435] conv2 <- conv1
I0507 15:25:18.948343  4187 net.cpp:409] conv2 -> conv2
I0507 15:25:18.958407  4187 net.cpp:144] Setting up conv2
I0507 15:25:18.958422  4187 net.cpp:151] Top shape: 20 64 20 20 (512000)
I0507 15:25:18.958426  4187 net.cpp:159] Memory required for data: 6176080
I0507 15:25:18.958434  4187 layer_factory.hpp:77] Creating layer relu2
I0507 15:25:18.958441  4187 net.cpp:94] Creating Layer relu2
I0507 15:25:18.958444  4187 net.cpp:435] relu2 <- conv2
I0507 15:25:18.958449  4187 net.cpp:396] relu2 -> conv2 (in-place)
I0507 15:25:18.958456  4187 net.cpp:144] Setting up relu2
I0507 15:25:18.958461  4187 net.cpp:151] Top shape: 20 64 20 20 (512000)
I0507 15:25:18.958463  4187 net.cpp:159] Memory required for data: 8224080
I0507 15:25:18.958467  4187 layer_factory.hpp:77] Creating layer pool2
I0507 15:25:18.958472  4187 net.cpp:94] Creating Layer pool2
I0507 15:25:18.958475  4187 net.cpp:435] pool2 <- conv2
I0507 15:25:18.958479  4187 net.cpp:409] pool2 -> pool2
I0507 15:25:18.958534  4187 net.cpp:144] Setting up pool2
I0507 15:25:18.958540  4187 net.cpp:151] Top shape: 20 64 10 10 (128000)
I0507 15:25:18.958544  4187 net.cpp:159] Memory required for data: 8736080
I0507 15:25:18.958547  4187 layer_factory.hpp:77] Creating layer conv3
I0507 15:25:18.958554  4187 net.cpp:94] Creating Layer conv3
I0507 15:25:18.958559  4187 net.cpp:435] conv3 <- pool2
I0507 15:25:18.958570  4187 net.cpp:409] conv3 -> conv3
I0507 15:25:18.963963  4187 net.cpp:144] Setting up conv3
I0507 15:25:18.963976  4187 net.cpp:151] Top shape: 20 64 10 10 (128000)
I0507 15:25:18.963980  4187 net.cpp:159] Memory required for data: 9248080
I0507 15:25:18.963989  4187 layer_factory.hpp:77] Creating layer relu3
I0507 15:25:18.963994  4187 net.cpp:94] Creating Layer relu3
I0507 15:25:18.963997  4187 net.cpp:435] relu3 <- conv3
I0507 15:25:18.964002  4187 net.cpp:396] relu3 -> conv3 (in-place)
I0507 15:25:18.964010  4187 net.cpp:144] Setting up relu3
I0507 15:25:18.964013  4187 net.cpp:151] Top shape: 20 64 10 10 (128000)
I0507 15:25:18.964016  4187 net.cpp:159] Memory required for data: 9760080
I0507 15:25:18.964020  4187 layer_factory.hpp:77] Creating layer conv4
I0507 15:25:18.964027  4187 net.cpp:94] Creating Layer conv4
I0507 15:25:18.964031  4187 net.cpp:435] conv4 <- conv3
I0507 15:25:18.964035  4187 net.cpp:409] conv4 -> conv4
I0507 15:25:18.969463  4187 net.cpp:144] Setting up conv4
I0507 15:25:18.969476  4187 net.cpp:151] Top shape: 20 64 10 10 (128000)
I0507 15:25:18.969480  4187 net.cpp:159] Memory required for data: 10272080
I0507 15:25:18.969486  4187 layer_factory.hpp:77] Creating layer relu4
I0507 15:25:18.969492  4187 net.cpp:94] Creating Layer relu4
I0507 15:25:18.969496  4187 net.cpp:435] relu4 <- conv4
I0507 15:25:18.969501  4187 net.cpp:396] relu4 -> conv4 (in-place)
I0507 15:25:18.969507  4187 net.cpp:144] Setting up relu4
I0507 15:25:18.969511  4187 net.cpp:151] Top shape: 20 64 10 10 (128000)
I0507 15:25:18.969514  4187 net.cpp:159] Memory required for data: 10784080
I0507 15:25:18.969517  4187 layer_factory.hpp:77] Creating layer conv5
I0507 15:25:18.969524  4187 net.cpp:94] Creating Layer conv5
I0507 15:25:18.969528  4187 net.cpp:435] conv5 <- conv4
I0507 15:25:18.969532  4187 net.cpp:409] conv5 -> conv5
I0507 15:25:18.974941  4187 net.cpp:144] Setting up conv5
I0507 15:25:18.974954  4187 net.cpp:151] Top shape: 20 64 10 10 (128000)
I0507 15:25:18.974958  4187 net.cpp:159] Memory required for data: 11296080
I0507 15:25:18.974967  4187 layer_factory.hpp:77] Creating layer relu5
I0507 15:25:18.974972  4187 net.cpp:94] Creating Layer relu5
I0507 15:25:18.974977  4187 net.cpp:435] relu5 <- conv5
I0507 15:25:18.974980  4187 net.cpp:396] relu5 -> conv5 (in-place)
I0507 15:25:18.974987  4187 net.cpp:144] Setting up relu5
I0507 15:25:18.974992  4187 net.cpp:151] Top shape: 20 64 10 10 (128000)
I0507 15:25:18.974994  4187 net.cpp:159] Memory required for data: 11808080
I0507 15:25:18.974997  4187 layer_factory.hpp:77] Creating layer pool5
I0507 15:25:18.975002  4187 net.cpp:94] Creating Layer pool5
I0507 15:25:18.975005  4187 net.cpp:435] pool5 <- conv5
I0507 15:25:18.975009  4187 net.cpp:409] pool5 -> pool5
I0507 15:25:18.975046  4187 net.cpp:144] Setting up pool5
I0507 15:25:18.975054  4187 net.cpp:151] Top shape: 20 64 5 5 (32000)
I0507 15:25:18.975056  4187 net.cpp:159] Memory required for data: 11936080
I0507 15:25:18.975059  4187 layer_factory.hpp:77] Creating layer ip1
I0507 15:25:18.975066  4187 net.cpp:94] Creating Layer ip1
I0507 15:25:18.975069  4187 net.cpp:435] ip1 <- pool5
I0507 15:25:18.975075  4187 net.cpp:409] ip1 -> ip1
I0507 15:25:18.978428  4187 net.cpp:144] Setting up ip1
I0507 15:25:18.978441  4187 net.cpp:151] Top shape: 20 64 (1280)
I0507 15:25:18.978446  4187 net.cpp:159] Memory required for data: 11941200
I0507 15:25:18.978451  4187 layer_factory.hpp:77] Creating layer ip2
I0507 15:25:18.978458  4187 net.cpp:94] Creating Layer ip2
I0507 15:25:18.978461  4187 net.cpp:435] ip2 <- ip1
I0507 15:25:18.978466  4187 net.cpp:409] ip2 -> ip2
I0507 15:25:18.978685  4187 net.cpp:144] Setting up ip2
I0507 15:25:18.978693  4187 net.cpp:151] Top shape: 20 64 (1280)
I0507 15:25:18.978696  4187 net.cpp:159] Memory required for data: 11946320
I0507 15:25:18.978701  4187 layer_factory.hpp:77] Creating layer ip3
I0507 15:25:18.978706  4187 net.cpp:94] Creating Layer ip3
I0507 15:25:18.978710  4187 net.cpp:435] ip3 <- ip2
I0507 15:25:18.978714  4187 net.cpp:409] ip3 -> ip3
I0507 15:25:18.978911  4187 net.cpp:144] Setting up ip3
I0507 15:25:18.978919  4187 net.cpp:151] Top shape: 20 50 (1000)
I0507 15:25:18.978921  4187 net.cpp:159] Memory required for data: 11950320
I0507 15:25:18.978926  4187 layer_factory.hpp:77] Creating layer loss
I0507 15:25:18.978934  4187 net.cpp:94] Creating Layer loss
I0507 15:25:18.978936  4187 net.cpp:435] loss <- ip3
I0507 15:25:18.978940  4187 net.cpp:435] loss <- label
I0507 15:25:18.978945  4187 net.cpp:409] loss -> loss
I0507 15:25:18.978951  4187 layer_factory.hpp:77] Creating layer loss
…
I0507 15:25:18.979455  4187 solver.cpp:181] Creating test net (#0) specified by net file: ./protocol/dis_50_400_dimension.protocol_distribution
I0507 15:25:18.979481  4187 net.cpp:323] The NetState phase (1) differed from the phase (0) specified by a rule in layer parameters
I0507 15:25:18.979574  4187 net.cpp:52] Initializing net from parameters: 
state {
  phase: TEST
}
layer {
  name: "intercept"
  type: "HDF5Data"
  top: "data"
  top: "label"
  include {
    phase: TEST
  }
  hdf5_data_param {
    source: "/home/purduethu/scratch/radon/d/deng106/CNNStatisticalModel/distributions/input/50_distributions_400_sample_size_test-distributions-path.txt"
    batch_size: 20
  }
}
layer {
  name: "conv1"
  type: "Convolution"
  bottom: "data"
  top: "conv1"
  param {
    lr_mult: 1
  }
  param {
    lr_mult: 2
  }
  convolution_param {
    num_output: 64
    pad: 2
    kernel_size: 5
    stride: 1
    weight_filler {
      type: "gaussian"
      std: 0.0001
    }
    bias_filler {
      type: "constant"
    }
  }
}
layer {
  name: "relu1"
  type: "ReLU"
  bottom: "conv1"
  top: "conv1"
}
layer {
  name: "conv2"
  type: "Convolution"
  bottom: "conv1"
  top: "conv2"
  param {
    lr_mult: 1
  }
  param {
    lr_mult: 2
  }
  convolution_param {
    num_output: 64
    pad: 2
    kernel_size: 5
    stride: 1
    weight_filler {
      type: "gaussian"
      std: 0.01
    }
    bias_filler {
      type: "constant"
    }
  }
}
layer {
  name: "relu2"
  type: "ReLU"
  bottom: "conv2"
  top: "conv2"
}
layer {
  name: "pool2"
  type: "Pooling"
  bottom: "conv2"
  top: "pool2"
  pooling_param {
    pool: MAX
    kernel_size: 3
    stride: 2
  }
}
layer {
  name: "conv3"
  type: "Convolution"
  bottom: "pool2"
  top: "conv3"
  param {
    lr_mult: 1
  }
  param {
    lr_mult: 2
  }
  convolution_param {
    num_output: 64
    pad: 2
    kernel_size: 5
    stride: 1
    weight_filler {
      type: "gaussian"
      std: 0.01
    }
    bias_filler {
      type: "constant"
    }
  }
}
layer {
  name: "relu3"
  type: "ReLU"
  bottom: "conv3"
  top: "conv3"
}
layer {
  name: "conv4"
  type: "Convolution"
  bottom: "conv3"
  top: "conv4"
  param {
    lr_mult: 1
  }
  param {
    lr_mult: 2
  }
  convolution_param {
    num_output: 64
    pad: 2
    kernel_size: 5
    stride: 1
    weight_filler {
      type: "gaussian"
      std: 0.01
    }
    bias_filler {
      type: "constant"
    }
  }
}
layer {
  name: "relu4"
  type: "ReLU"
  bottom: "conv4"
  top: "conv4"
}
layer {
  name: "conv5"
  type: "Convolution"
  bottom: "conv4"
  top: "conv5"
  param {
    lr_mult: 1
  }
  param {
    lr_mult: 2
  }
  convolution_param {
    num_output: 64
    pad: 2
    kernel_size: 5
    stride: 1
    weight_filler {
      type: "gaussian"
      std: 0.01
    }
    bias_filler {
      type: "constant"
    }
  }
}
layer {
  name: "relu5"
  type: "ReLU"
  bottom: "conv5"
  top: "conv5"
}
layer {
  name: "pool5"
  type: "Pooling"
  bottom: "conv5"
  top: "pool5"
  pooling_param {
    pool: AVE
    kernel_size: 3
    stride: 2
  }
}
layer {
  name: "ip1"
  type: "InnerProduct"
  bottom: "pool5"
  top: "ip1"
  param {
    lr_mult: 1
  }
  param {
    lr_mult: 2
  }
  inner_product_param {
    num_output: 64
    weight_filler {
      type: "gaussian"
      std: 0.1
    }
    bias_filler {
      type: "constant"
    }
  }
}
layer {
  name: "ip2"
  type: "InnerProduct"
  bottom: "ip1"
  top: "ip2"
  param {
    lr_mult: 1
  }
  param {
    lr_mult: 2
  }
  inner_product_param {
    num_output: 64
    weight_filler {
      type: "gaussian"
      std: 0.1
    }
    bias_filler {
      type: "constant"
    }
  }
}
layer {
  name: "ip3"
  type: "InnerProduct"
  bottom: "ip2"
  top: "ip3"
  param {
    lr_mult: 1
  }
  param {
    lr_mult: 2
  }
  inner_product_param {
    num_output: 50
    weight_filler {
      type: "gaussian"
      std: 0.1
    }
    bias_filler {
      type: "constant"
    }
  }
}
layer {
  name: "accuracy"
  type: "Accuracy"
  bottom: "ip3"
  bottom: "label"
  top: "accuracy"
  include {
    phase: TEST
  }
}
layer {
  name: "loss"
  type: "SoftmaxWithLoss"
  bottom: "ip3"
  bottom: "label"
  top: "loss"
}
I0507 15:25:18.979637  4187 layer_factory.hpp:77] Creating layer intercept
I0507 15:25:18.979645  4187 net.cpp:94] Creating Layer intercept
I0507 15:25:18.979650  4187 net.cpp:409] intercept -> data
I0507 15:25:18.979656  4187 net.cpp:409] intercept -> label
I0507 15:25:18.979661  4187 hdf5_data_layer.cpp:79] Loading list of HDF5 filenames from: /home/purduethu/scratch/radon/d/deng106/CNNStatisticalModel/distributions/input/50_distributions_400_sample_size_test-distributions-path.txt
I0507 15:25:18.979679  4187 hdf5_data_layer.cpp:93] Number of HDF5 files: 1
I0507 15:25:19.140944  4187 net.cpp:144] Setting up intercept
I0507 15:25:19.140975  4187 net.cpp:151] Top shape: 20 1 20 20 (8000)
I0507 15:25:19.140981  4187 net.cpp:151] Top shape: 20 (20)
I0507 15:25:19.140985  4187 net.cpp:159] Memory required for data: 32080
I0507 15:25:19.140991  4187 layer_factory.hpp:77] Creating layer label_intercept_1_split
I0507 15:25:19.141010  4187 net.cpp:94] Creating Layer label_intercept_1_split
I0507 15:25:19.141014  4187 net.cpp:435] label_intercept_1_split <- label
I0507 15:25:19.141021  4187 net.cpp:409] label_intercept_1_split -> label_intercept_1_split_0
I0507 15:25:19.141029  4187 net.cpp:409] label_intercept_1_split -> label_intercept_1_split_1
I0507 15:25:19.141070  4187 net.cpp:144] Setting up label_intercept_1_split
I0507 15:25:19.141077  4187 net.cpp:151] Top shape: 20 (20)
I0507 15:25:19.141080  4187 net.cpp:151] Top shape: 20 (20)
I0507 15:25:19.141083  4187 net.cpp:159] Memory required for data: 32240
I0507 15:25:19.141086  4187 layer_factory.hpp:77] Creating layer conv1
I0507 15:25:19.141098  4187 net.cpp:94] Creating Layer conv1
I0507 15:25:19.141100  4187 net.cpp:435] conv1 <- data
I0507 15:25:19.141105  4187 net.cpp:409] conv1 -> conv1
I0507 15:25:19.142449  4187 net.cpp:144] Setting up conv1
I0507 15:25:19.142469  4187 net.cpp:151] Top shape: 20 64 20 20 (512000)
I0507 15:25:19.142473  4187 net.cpp:159] Memory required for data: 2080240
I0507 15:25:19.142483  4187 layer_factory.hpp:77] Creating layer relu1
I0507 15:25:19.142490  4187 net.cpp:94] Creating Layer relu1
I0507 15:25:19.142493  4187 net.cpp:435] relu1 <- conv1
I0507 15:25:19.142498  4187 net.cpp:396] relu1 -> conv1 (in-place)
I0507 15:25:19.142504  4187 net.cpp:144] Setting up relu1
I0507 15:25:19.142509  4187 net.cpp:151] Top shape: 20 64 20 20 (512000)
I0507 15:25:19.142513  4187 net.cpp:159] Memory required for data: 4128240
I0507 15:25:19.142515  4187 layer_factory.hpp:77] Creating layer conv2
I0507 15:25:19.142523  4187 net.cpp:94] Creating Layer conv2
I0507 15:25:19.142526  4187 net.cpp:435] conv2 <- conv1
I0507 15:25:19.142530  4187 net.cpp:409] conv2 -> conv2
I0507 15:25:19.147629  4187 net.cpp:144] Setting up conv2
I0507 15:25:19.147644  4187 net.cpp:151] Top shape: 20 64 20 20 (512000)
I0507 15:25:19.147647  4187 net.cpp:159] Memory required for data: 6176240
I0507 15:25:19.147655  4187 layer_factory.hpp:77] Creating layer relu2
I0507 15:25:19.147661  4187 net.cpp:94] Creating Layer relu2
I0507 15:25:19.147665  4187 net.cpp:435] relu2 <- conv2
I0507 15:25:19.147670  4187 net.cpp:396] relu2 -> conv2 (in-place)
I0507 15:25:19.147677  4187 net.cpp:144] Setting up relu2
I0507 15:25:19.147681  4187 net.cpp:151] Top shape: 20 64 20 20 (512000)
I0507 15:25:19.147685  4187 net.cpp:159] Memory required for data: 8224240
I0507 15:25:19.147687  4187 layer_factory.hpp:77] Creating layer pool2
I0507 15:25:19.147692  4187 net.cpp:94] Creating Layer pool2
I0507 15:25:19.147696  4187 net.cpp:435] pool2 <- conv2
I0507 15:25:19.147701  4187 net.cpp:409] pool2 -> pool2
I0507 15:25:19.147758  4187 net.cpp:144] Setting up pool2
I0507 15:25:19.147764  4187 net.cpp:151] Top shape: 20 64 10 10 (128000)
I0507 15:25:19.147766  4187 net.cpp:159] Memory required for data: 8736240
I0507 15:25:19.147770  4187 layer_factory.hpp:77] Creating layer conv3
I0507 15:25:19.147779  4187 net.cpp:94] Creating Layer conv3
I0507 15:25:19.147783  4187 net.cpp:435] conv3 <- pool2
I0507 15:25:19.147788  4187 net.cpp:409] conv3 -> conv3
I0507 15:25:19.151772  4187 net.cpp:144] Setting up conv3
I0507 15:25:19.151784  4187 net.cpp:151] Top shape: 20 64 10 10 (128000)
I0507 15:25:19.151788  4187 net.cpp:159] Memory required for data: 9248240
I0507 15:25:19.151796  4187 layer_factory.hpp:77] Creating layer relu3
I0507 15:25:19.151803  4187 net.cpp:94] Creating Layer relu3
I0507 15:25:19.151806  4187 net.cpp:435] relu3 <- conv3
I0507 15:25:19.151810  4187 net.cpp:396] relu3 -> conv3 (in-place)
I0507 15:25:19.151818  4187 net.cpp:144] Setting up relu3
I0507 15:25:19.151821  4187 net.cpp:151] Top shape: 20 64 10 10 (128000)
I0507 15:25:19.151824  4187 net.cpp:159] Memory required for data: 9760240
I0507 15:25:19.151828  4187 layer_factory.hpp:77] Creating layer conv4
I0507 15:25:19.151836  4187 net.cpp:94] Creating Layer conv4
I0507 15:25:19.151839  4187 net.cpp:435] conv4 <- conv3
I0507 15:25:19.151845  4187 net.cpp:409] conv4 -> conv4
I0507 15:25:19.155423  4187 net.cpp:144] Setting up conv4
I0507 15:25:19.155436  4187 net.cpp:151] Top shape: 20 64 10 10 (128000)
I0507 15:25:19.155441  4187 net.cpp:159] Memory required for data: 10272240
I0507 15:25:19.155447  4187 layer_factory.hpp:77] Creating layer relu4
I0507 15:25:19.155452  4187 net.cpp:94] Creating Layer relu4
I0507 15:25:19.155455  4187 net.cpp:435] relu4 <- conv4
I0507 15:25:19.155459  4187 net.cpp:396] relu4 -> conv4 (in-place)
I0507 15:25:19.155465  4187 net.cpp:144] Setting up relu4
I0507 15:25:19.155469  4187 net.cpp:151] Top shape: 20 64 10 10 (128000)
I0507 15:25:19.155472  4187 net.cpp:159] Memory required for data: 10784240
I0507 15:25:19.155475  4187 layer_factory.hpp:77] Creating layer conv5
I0507 15:25:19.155484  4187 net.cpp:94] Creating Layer conv5
I0507 15:25:19.155488  4187 net.cpp:435] conv5 <- conv4
I0507 15:25:19.155493  4187 net.cpp:409] conv5 -> conv5
I0507 15:25:19.160331  4187 net.cpp:144] Setting up conv5
I0507 15:25:19.160348  4187 net.cpp:151] Top shape: 20 64 10 10 (128000)
I0507 15:25:19.160352  4187 net.cpp:159] Memory required for data: 11296240
I0507 15:25:19.160362  4187 layer_factory.hpp:77] Creating layer relu5
I0507 15:25:19.160367  4187 net.cpp:94] Creating Layer relu5
I0507 15:25:19.160372  4187 net.cpp:435] relu5 <- conv5
I0507 15:25:19.160377  4187 net.cpp:396] relu5 -> conv5 (in-place)
I0507 15:25:19.160382  4187 net.cpp:144] Setting up relu5
I0507 15:25:19.160387  4187 net.cpp:151] Top shape: 20 64 10 10 (128000)
I0507 15:25:19.160389  4187 net.cpp:159] Memory required for data: 11808240
I0507 15:25:19.160392  4187 layer_factory.hpp:77] Creating layer pool5
I0507 15:25:19.160398  4187 net.cpp:94] Creating Layer pool5
I0507 15:25:19.160400  4187 net.cpp:435] pool5 <- conv5
I0507 15:25:19.160405  4187 net.cpp:409] pool5 -> pool5
I0507 15:25:19.160445  4187 net.cpp:144] Setting up pool5
I0507 15:25:19.160452  4187 net.cpp:151] Top shape: 20 64 5 5 (32000)
I0507 15:25:19.160455  4187 net.cpp:159] Memory required for data: 11936240
I0507 15:25:19.160459  4187 layer_factory.hpp:77] Creating layer ip1
I0507 15:25:19.160465  4187 net.cpp:94] Creating Layer ip1
I0507 15:25:19.160470  4187 net.cpp:435] ip1 <- pool5
I0507 15:25:19.160475  4187 net.cpp:409] ip1 -> ip1
I0507 15:25:19.163029  4187 net.cpp:144] Setting up ip1
I0507 15:25:19.163038  4187 net.cpp:151] Top shape: 20 64 (1280)
I0507 15:25:19.163043  4187 net.cpp:159] Memory required for data: 11941360
I0507 15:25:19.163048  4187 layer_factory.hpp:77] Creating layer ip2
I0507 15:25:19.163053  4187 net.cpp:94] Creating Layer ip2
I0507 15:25:19.163056  4187 net.cpp:435] ip2 <- ip1
I0507 15:25:19.163061  4187 net.cpp:409] ip2 -> ip2
I0507 15:25:19.163300  4187 net.cpp:144] Setting up ip2
I0507 15:25:19.163307  4187 net.cpp:151] Top shape: 20 64 (1280)
I0507 15:25:19.163311  4187 net.cpp:159] Memory required for data: 11946480
I0507 15:25:19.163316  4187 layer_factory.hpp:77] Creating layer ip3
I0507 15:25:19.163322  4187 net.cpp:94] Creating Layer ip3
I0507 15:25:19.163326  4187 net.cpp:435] ip3 <- ip2
I0507 15:25:19.163331  4187 net.cpp:409] ip3 -> ip3
I0507 15:25:19.163537  4187 net.cpp:144] Setting up ip3
I0507 15:25:19.163544  4187 net.cpp:151] Top shape: 20 50 (1000)
I0507 15:25:19.163547  4187 net.cpp:159] Memory required for data: 11950480
I0507 15:25:19.163552  4187 layer_factory.hpp:77] Creating layer ip3_ip3_0_split
I0507 15:25:19.163558  4187 net.cpp:94] Creating Layer ip3_ip3_0_split
I0507 15:25:19.163560  4187 net.cpp:435] ip3_ip3_0_split <- ip3
I0507 15:25:19.163565  4187 net.cpp:409] ip3_ip3_0_split -> ip3_ip3_0_split_0
I0507 15:25:19.163570  4187 net.cpp:409] ip3_ip3_0_split -> ip3_ip3_0_split_1
I0507 15:25:19.163614  4187 net.cpp:144] Setting up ip3_ip3_0_split
I0507 15:25:19.163619  4187 net.cpp:151] Top shape: 20 50 (1000)
I0507 15:25:19.163622  4187 net.cpp:151] Top shape: 20 50 (1000)
I0507 15:25:19.163625  4187 net.cpp:159] Memory required for data: 11958480
I0507 15:25:19.163630  4187 layer_factory.hpp:77] Creating layer accuracy
I0507 15:25:19.163635  4187 net.cpp:94] Creating Layer accuracy
I0507 15:25:19.163637  4187 net.cpp:435] accuracy <- ip3_ip3_0_split_0
I0507 15:25:19.163641  4187 net.cpp:435] accuracy <- label_intercept_1_split_0
I0507 15:25:19.163646  4187 net.cpp:409] accuracy -> accuracy
…
