…
I0507 17:32:08.650981  5373 net.cpp:323] The NetState phase (0) differed from the phase (1) specified by a rule in layer intercept
I0507 17:32:08.650997  5373 net.cpp:323] The NetState phase (0) differed from the phase (1) specified by a rule in layer loss
I0507 17:32:08.651079  5373 net.cpp:52] Initializing net from parameters: 
state {
  phase: TRAIN
}
layer {
  name: "parameters"
  type: "HDF5Data"
  top: "data"
  top: "label"
  include {
    phase: TRAIN
  }
  hdf5_data_param {
    source: "/home/purduethu/scratch/radon/d/deng106/CNNStatisticalModel/distributions/input/5_distributions_900_sample_size_train-parameters-path.txt"
    batch_size: 20
  }
}
layer {
  name: "conv1"
  type: "Convolution"
  bottom: "data"
  top: "conv1"
  param {
    lr_mult: 1
  }
  param {
    lr_mult: 2
  }
  convolution_param {
    num_output: 64
    pad: 2
    kernel_size: 5
    stride: 1
    weight_filler {
      type: "gaussian"
      std: 0.0001
    }
    bias_filler {
      type: "constant"
    }
  }
}
layer {
  name: "relu1"
  type: "ReLU"
  bottom: "conv1"
  top: "conv1"
}
layer {
  name: "conv2"
  type: "Convolution"
  bottom: "conv1"
  top: "conv2"
  param {
    lr_mult: 1
  }
  param {
    lr_mult: 2
  }
  convolution_param {
    num_output: 64
    pad: 2
    kernel_size: 5
    stride: 1
    weight_filler {
      type: "gaussian"
      std: 0.01
    }
    bias_filler {
      type: "constant"
    }
  }
}
layer {
  name: "relu2"
  type: "ReLU"
  bottom: "conv2"
  top: "conv2"
}
layer {
  name: "pool2"
  type: "Pooling"
  bottom: "conv2"
  top: "pool2"
  pooling_param {
    pool: MAX
    kernel_size: 3
    stride: 2
  }
}
layer {
  name: "conv3"
  type: "Convolution"
  bottom: "pool2"
  top: "conv3"
  param {
    lr_mult: 1
  }
  param {
    lr_mult: 2
  }
  convolution_param {
    num_output: 64
    pad: 2
    kernel_size: 5
    stride: 1
    weight_filler {
      type: "gaussian"
      std: 0.01
    }
    bias_filler {
      type: "constant"
    }
  }
}
layer {
  name: "relu3"
  type: "ReLU"
  bottom: "conv3"
  top: "conv3"
}
layer {
  name: "conv4"
  type: "Convolution"
  bottom: "conv3"
  top: "conv4"
  param {
    lr_mult: 1
  }
  param {
    lr_mult: 2
  }
  convolution_param {
    num_output: 64
    pad: 2
    kernel_size: 5
    stride: 1
    weight_filler {
      type: "gaussian"
      std: 0.01
    }
    bias_filler {
      type: "constant"
    }
  }
}
layer {
  name: "relu4"
  type: "ReLU"
  bottom: "conv4"
  top: "conv4"
}
layer {
  name: "conv5"
  type: "Convolution"
  bottom: "conv4"
  top: "conv5"
  param {
    lr_mult: 1
  }
  param {
    lr_mult: 2
  }
  convolution_param {
    num_output: 64
    pad: 2
    kernel_size: 5
    stride: 1
    weight_filler {
      type: "gaussian"
      std: 0.01
    }
    bias_filler {
      type: "constant"
    }
  }
}
layer {
  name: "relu5"
  type: "ReLU"
  bottom: "conv5"
  top: "conv5"
}
layer {
  name: "pool5"
  type: "Pooling"
  bottom: "conv5"
  top: "pool5"
  pooling_param {
    pool: AVE
    kernel_size: 3
    stride: 2
  }
}
layer {
  name: "ip1"
  type: "InnerProduct"
  bottom: "pool5"
  top: "ip1"
  param {
    lr_mult: 1
  }
  param {
    lr_mult: 2
  }
  inner_product_param {
    num_output: 64
    weight_filler {
      type: "gaussian"
      std: 0.1
    }
    bias_filler {
      type: "constant"
    }
  }
}
layer {
  name: "ip2"
  type: "InnerProduct"
  bottom: "ip1"
  top: "ip2"
  param {
    lr_mult: 1
  }
  param {
    lr_mult: 2
  }
  inner_product_param {
    num_output: 64
    weight_filler {
      type: "gaussian"
      std: 0.1
    }
    bias_filler {
      type: "constant"
    }
  }
}
layer {
  name: "ip3"
  type: "InnerProduct"
  bottom: "ip2"
  top: "ip3"
  param {
    lr_mult: 1
  }
  param {
    lr_mult: 2
  }
  inner_product_param {
    num_output: 1
    weight_filler {
      type: "gaussian"
      std: 0.1
    }
    bias_filler {
      type: "constant"
    }
  }
}
layer {
  name: "loss"
  type: "HuberLoss"
  bottom: "ip3"
  bottom: "label"
  top: "loss"
  include {
    phase: TRAIN
  }
}
I0507 17:32:08.651130  5373 layer_factory.hpp:77] Creating layer parameters
I0507 17:32:08.651146  5373 net.cpp:94] Creating Layer parameters
I0507 17:32:08.651151  5373 net.cpp:409] parameters -> data
I0507 17:32:08.651160  5373 net.cpp:409] parameters -> label
I0507 17:32:08.651166  5373 hdf5_data_layer.cpp:79] Loading list of HDF5 filenames from: /home/purduethu/scratch/radon/d/deng106/CNNStatisticalModel/distributions/input/5_distributions_900_sample_size_train-parameters-path.txt
I0507 17:32:08.651181  5373 hdf5_data_layer.cpp:93] Number of HDF5 files: 1
I0507 17:32:08.651690  5373 hdf5.cpp:32] Datatype class: H5T_FLOAT
I0507 17:32:08.789175  5373 net.cpp:144] Setting up parameters
I0507 17:32:08.789204  5373 net.cpp:151] Top shape: 20 1 30 30 (18000)
I0507 17:32:08.789209  5373 net.cpp:151] Top shape: 20 (20)
I0507 17:32:08.789213  5373 net.cpp:159] Memory required for data: 72080
I0507 17:32:08.789218  5373 layer_factory.hpp:77] Creating layer conv1
I0507 17:32:08.789234  5373 net.cpp:94] Creating Layer conv1
I0507 17:32:08.789239  5373 net.cpp:435] conv1 <- data
I0507 17:32:08.789245  5373 net.cpp:409] conv1 -> conv1
I0507 17:32:08.795734  5373 net.cpp:144] Setting up conv1
I0507 17:32:08.795749  5373 net.cpp:151] Top shape: 20 64 30 30 (1152000)
I0507 17:32:08.795753  5373 net.cpp:159] Memory required for data: 4680080
I0507 17:32:08.795763  5373 layer_factory.hpp:77] Creating layer relu1
I0507 17:32:08.795771  5373 net.cpp:94] Creating Layer relu1
I0507 17:32:08.795774  5373 net.cpp:435] relu1 <- conv1
I0507 17:32:08.795779  5373 net.cpp:396] relu1 -> conv1 (in-place)
I0507 17:32:08.795786  5373 net.cpp:144] Setting up relu1
I0507 17:32:08.795790  5373 net.cpp:151] Top shape: 20 64 30 30 (1152000)
I0507 17:32:08.795794  5373 net.cpp:159] Memory required for data: 9288080
I0507 17:32:08.795796  5373 layer_factory.hpp:77] Creating layer conv2
I0507 17:32:08.795804  5373 net.cpp:94] Creating Layer conv2
I0507 17:32:08.795807  5373 net.cpp:435] conv2 <- conv1
I0507 17:32:08.795811  5373 net.cpp:409] conv2 -> conv2
I0507 17:32:08.811118  5373 net.cpp:144] Setting up conv2
I0507 17:32:08.811157  5373 net.cpp:151] Top shape: 20 64 30 30 (1152000)
I0507 17:32:08.811167  5373 net.cpp:159] Memory required for data: 13896080
I0507 17:32:08.811188  5373 layer_factory.hpp:77] Creating layer relu2
I0507 17:32:08.811206  5373 net.cpp:94] Creating Layer relu2
I0507 17:32:08.811218  5373 net.cpp:435] relu2 <- conv2
I0507 17:32:08.811229  5373 net.cpp:396] relu2 -> conv2 (in-place)
I0507 17:32:08.811249  5373 net.cpp:144] Setting up relu2
I0507 17:32:08.811261  5373 net.cpp:151] Top shape: 20 64 30 30 (1152000)
I0507 17:32:08.811269  5373 net.cpp:159] Memory required for data: 18504080
I0507 17:32:08.811277  5373 layer_factory.hpp:77] Creating layer pool2
I0507 17:32:08.811303  5373 net.cpp:94] Creating Layer pool2
I0507 17:32:08.811313  5373 net.cpp:435] pool2 <- conv2
I0507 17:32:08.811326  5373 net.cpp:409] pool2 -> pool2
I0507 17:32:08.811419  5373 net.cpp:144] Setting up pool2
I0507 17:32:08.811425  5373 net.cpp:151] Top shape: 20 64 15 15 (288000)
I0507 17:32:08.811429  5373 net.cpp:159] Memory required for data: 19656080
I0507 17:32:08.811432  5373 layer_factory.hpp:77] Creating layer conv3
I0507 17:32:08.811439  5373 net.cpp:94] Creating Layer conv3
I0507 17:32:08.811444  5373 net.cpp:435] conv3 <- pool2
I0507 17:32:08.811449  5373 net.cpp:409] conv3 -> conv3
I0507 17:32:08.819707  5373 net.cpp:144] Setting up conv3
I0507 17:32:08.819722  5373 net.cpp:151] Top shape: 20 64 15 15 (288000)
I0507 17:32:08.819726  5373 net.cpp:159] Memory required for data: 20808080
I0507 17:32:08.819735  5373 layer_factory.hpp:77] Creating layer relu3
I0507 17:32:08.819741  5373 net.cpp:94] Creating Layer relu3
I0507 17:32:08.819743  5373 net.cpp:435] relu3 <- conv3
I0507 17:32:08.819748  5373 net.cpp:396] relu3 -> conv3 (in-place)
I0507 17:32:08.819756  5373 net.cpp:144] Setting up relu3
I0507 17:32:08.819759  5373 net.cpp:151] Top shape: 20 64 15 15 (288000)
I0507 17:32:08.819762  5373 net.cpp:159] Memory required for data: 21960080
I0507 17:32:08.819766  5373 layer_factory.hpp:77] Creating layer conv4
I0507 17:32:08.819773  5373 net.cpp:94] Creating Layer conv4
I0507 17:32:08.819777  5373 net.cpp:435] conv4 <- conv3
I0507 17:32:08.819782  5373 net.cpp:409] conv4 -> conv4
I0507 17:32:08.827164  5373 net.cpp:144] Setting up conv4
I0507 17:32:08.827179  5373 net.cpp:151] Top shape: 20 64 15 15 (288000)
I0507 17:32:08.827183  5373 net.cpp:159] Memory required for data: 23112080
I0507 17:32:08.827189  5373 layer_factory.hpp:77] Creating layer relu4
I0507 17:32:08.827195  5373 net.cpp:94] Creating Layer relu4
I0507 17:32:08.827199  5373 net.cpp:435] relu4 <- conv4
I0507 17:32:08.827203  5373 net.cpp:396] relu4 -> conv4 (in-place)
I0507 17:32:08.827210  5373 net.cpp:144] Setting up relu4
I0507 17:32:08.827215  5373 net.cpp:151] Top shape: 20 64 15 15 (288000)
I0507 17:32:08.827217  5373 net.cpp:159] Memory required for data: 24264080
I0507 17:32:08.827220  5373 layer_factory.hpp:77] Creating layer conv5
I0507 17:32:08.827229  5373 net.cpp:94] Creating Layer conv5
I0507 17:32:08.827231  5373 net.cpp:435] conv5 <- conv4
I0507 17:32:08.827236  5373 net.cpp:409] conv5 -> conv5
I0507 17:32:08.834555  5373 net.cpp:144] Setting up conv5
I0507 17:32:08.834569  5373 net.cpp:151] Top shape: 20 64 15 15 (288000)
I0507 17:32:08.834573  5373 net.cpp:159] Memory required for data: 25416080
I0507 17:32:08.834581  5373 layer_factory.hpp:77] Creating layer relu5
I0507 17:32:08.834588  5373 net.cpp:94] Creating Layer relu5
I0507 17:32:08.834591  5373 net.cpp:435] relu5 <- conv5
I0507 17:32:08.834595  5373 net.cpp:396] relu5 -> conv5 (in-place)
I0507 17:32:08.834602  5373 net.cpp:144] Setting up relu5
I0507 17:32:08.834606  5373 net.cpp:151] Top shape: 20 64 15 15 (288000)
I0507 17:32:08.834609  5373 net.cpp:159] Memory required for data: 26568080
I0507 17:32:08.834612  5373 layer_factory.hpp:77] Creating layer pool5
I0507 17:32:08.834617  5373 net.cpp:94] Creating Layer pool5
I0507 17:32:08.834620  5373 net.cpp:435] pool5 <- conv5
I0507 17:32:08.834625  5373 net.cpp:409] pool5 -> pool5
I0507 17:32:08.834661  5373 net.cpp:144] Setting up pool5
I0507 17:32:08.834667  5373 net.cpp:151] Top shape: 20 64 7 7 (62720)
I0507 17:32:08.834671  5373 net.cpp:159] Memory required for data: 26818960
I0507 17:32:08.834673  5373 layer_factory.hpp:77] Creating layer ip1
I0507 17:32:08.834682  5373 net.cpp:94] Creating Layer ip1
I0507 17:32:08.834686  5373 net.cpp:435] ip1 <- pool5
I0507 17:32:08.834691  5373 net.cpp:409] ip1 -> ip1
I0507 17:32:08.840348  5373 net.cpp:144] Setting up ip1
I0507 17:32:08.840361  5373 net.cpp:151] Top shape: 20 64 (1280)
I0507 17:32:08.840365  5373 net.cpp:159] Memory required for data: 26824080
I0507 17:32:08.840371  5373 layer_factory.hpp:77] Creating layer ip2
I0507 17:32:08.840378  5373 net.cpp:94] Creating Layer ip2
I0507 17:32:08.840386  5373 net.cpp:435] ip2 <- ip1
I0507 17:32:08.840392  5373 net.cpp:409] ip2 -> ip2
I0507 17:32:08.840606  5373 net.cpp:144] Setting up ip2
I0507 17:32:08.840615  5373 net.cpp:151] Top shape: 20 64 (1280)
I0507 17:32:08.840617  5373 net.cpp:159] Memory required for data: 26829200
I0507 17:32:08.840622  5373 layer_factory.hpp:77] Creating layer ip3
I0507 17:32:08.840628  5373 net.cpp:94] Creating Layer ip3
I0507 17:32:08.840632  5373 net.cpp:435] ip3 <- ip2
I0507 17:32:08.840636  5373 net.cpp:409] ip3 -> ip3
I0507 17:32:08.840735  5373 net.cpp:144] Setting up ip3
I0507 17:32:08.840741  5373 net.cpp:151] Top shape: 20 1 (20)
I0507 17:32:08.840744  5373 net.cpp:159] Memory required for data: 26829280
I0507 17:32:08.840749  5373 layer_factory.hpp:77] Creating layer loss
I0507 17:32:08.840760  5373 net.cpp:94] Creating Layer loss
I0507 17:32:08.840764  5373 net.cpp:435] loss <- ip3
I0507 17:32:08.840767  5373 net.cpp:435] loss <- label
I0507 17:32:08.840771  5373 net.cpp:409] loss -> loss
I0507 17:32:08.840821  5373 net.cpp:144] Setting up loss
…
I0507 17:32:08.906734  5373 net.cpp:323] The NetState phase (0) differed from the phase (1) specified by a rule in layer intercept
I0507 17:32:08.906749  5373 net.cpp:323] The NetState phase (0) differed from the phase (1) specified by a rule in layer accuracy
I0507 17:32:08.906831  5373 net.cpp:52] Initializing net from parameters: 
state {
  phase: TRAIN
}
layer {
  name: "parameters"
  type: "HDF5Data"
  top: "data"
  top: "label"
  include {
    phase: TRAIN
  }
  hdf5_data_param {
    source: "/home/purduethu/scratch/radon/d/deng106/CNNStatisticalModel/distributions/input/5_distributions_900_sample_size_train-distributions-path.txt"
    batch_size: 20
  }
}
layer {
  name: "conv1"
  type: "Convolution"
  bottom: "data"
  top: "conv1"
  param {
    lr_mult: 1
  }
  param {
    lr_mult: 2
  }
  convolution_param {
    num_output: 64
    pad: 2
    kernel_size: 5
    stride: 1
    weight_filler {
      type: "gaussian"
      std: 0.0001
    }
    bias_filler {
      type: "constant"
    }
  }
}
layer {
  name: "relu1"
  type: "ReLU"
  bottom: "conv1"
  top: "conv1"
}
layer {
  name: "conv2"
  type: "Convolution"
  bottom: "conv1"
  top: "conv2"
  param {
    lr_mult: 1
  }
  param {
    lr_mult: 2
  }
  convolution_param {
    num_output: 64
    pad: 2
    kernel_size: 5
    stride: 1
    weight_filler {
      type: "gaussian"
      std: 0.01
    }
    bias_filler {
      type: "constant"
    }
  }
}
layer {
  name: "relu2"
  type: "ReLU"
  bottom: "conv2"
  top: "conv2"
}
layer {
  name: "pool2"
  type: "Pooling"
  bottom: "conv2"
  top: "pool2"
  pooling_param {
    pool: MAX
    kernel_size: 3
    stride: 2
  }
}
layer {
  name: "conv3"
  type: "Convolution"
  bottom: "pool2"
  top: "conv3"
  param {
    lr_mult: 1
  }
  param {
    lr_mult: 2
  }
  convolution_param {
    num_output: 64
    pad: 2
    kernel_size: 5
    stride: 1
    weight_filler {
      type: "gaussian"
      std: 0.01
    }
    bias_filler {
      type: "constant"
    }
  }
}
layer {
  name: "relu3"
  type: "ReLU"
  bottom: "conv3"
  top: "conv3"
}
layer {
  name: "conv4"
  type: "Convolution"
  bottom: "conv3"
  top: "conv4"
  param {
    lr_mult: 1
  }
  param {
    lr_mult: 2
  }
  convolution_param {
    num_output: 64
    pad: 2
    kernel_size: 5
    stride: 1
    weight_filler {
      type: "gaussian"
      std: 0.01
    }
    bias_filler {
      type: "constant"
    }
  }
}
layer {
  name: "relu4"
  type: "ReLU"
  bottom: "conv4"
  top: "conv4"
}
layer {
  name: "conv5"
  type: "Convolution"
  bottom: "conv4"
  top: "conv5"
  param {
    lr_mult: 1
  }
  param {
    lr_mult: 2
  }
  convolution_param {
    num_output: 64
    pad: 2
    kernel_size: 5
    stride: 1
    weight_filler {
      type: "gaussian"
      std: 0.01
    }
    bias_filler {
      type: "constant"
    }
  }
}
layer {
  name: "relu5"
  type: "ReLU"
  bottom: "conv5"
  top: "conv5"
}
layer {
  name: "pool5"
  type: "Pooling"
  bottom: "conv5"
  top: "pool5"
  pooling_param {
    pool: AVE
    kernel_size: 3
    stride: 2
  }
}
layer {
  name: "ip1"
  type: "InnerProduct"
  bottom: "pool5"
  top: "ip1"
  param {
    lr_mult: 1
  }
  param {
    lr_mult: 2
  }
  inner_product_param {
    num_output: 64
    weight_filler {
      type: "gaussian"
      std: 0.1
    }
    bias_filler {
      type: "constant"
    }
  }
}
layer {
  name: "ip2"
  type: "InnerProduct"
  bottom: "ip1"
  top: "ip2"
  param {
    lr_mult: 1
  }
  param {
    lr_mult: 2
  }
  inner_product_param {
    num_output: 64
    weight_filler {
      type: "gaussian"
      std: 0.1
    }
    bias_filler {
      type: "constant"
    }
  }
}
layer {
  name: "ip3"
  type: "InnerProduct"
  bottom: "ip2"
  top: "ip3"
  param {
    lr_mult: 1
  }
  param {
    lr_mult: 2
  }
  inner_product_param {
    num_output: 50
    weight_filler {
      type: "gaussian"
      std: 0.1
    }
    bias_filler {
      type: "constant"
    }
  }
}
layer {
  name: "loss"
  type: "SoftmaxWithLoss"
  bottom: "ip3"
  bottom: "label"
  top: "loss"
}
I0507 17:32:08.906879  5373 layer_factory.hpp:77] Creating layer parameters
I0507 17:32:08.906886  5373 net.cpp:94] Creating Layer parameters
I0507 17:32:08.906890  5373 net.cpp:409] parameters -> data
I0507 17:32:08.906898  5373 net.cpp:409] parameters -> label
I0507 17:32:08.906903  5373 hdf5_data_layer.cpp:79] Loading list of HDF5 filenames from: /home/purduethu/scratch/radon/d/deng106/CNNStatisticalModel/distributions/input/5_distributions_900_sample_size_train-distributions-path.txt
I0507 17:32:08.906918  5373 hdf5_data_layer.cpp:93] Number of HDF5 files: 1
I0507 17:32:09.041126  5373 hdf5.cpp:35] Datatype class: H5T_INTEGER
I0507 17:32:09.041555  5373 net.cpp:144] Setting up parameters
I0507 17:32:09.041569  5373 net.cpp:151] Top shape: 20 1 30 30 (18000)
I0507 17:32:09.041574  5373 net.cpp:151] Top shape: 20 (20)
I0507 17:32:09.041577  5373 net.cpp:159] Memory required for data: 72080
I0507 17:32:09.041584  5373 layer_factory.hpp:77] Creating layer conv1
I0507 17:32:09.041599  5373 net.cpp:94] Creating Layer conv1
I0507 17:32:09.041604  5373 net.cpp:435] conv1 <- data
I0507 17:32:09.041610  5373 net.cpp:409] conv1 -> conv1
I0507 17:32:09.045091  5373 net.cpp:144] Setting up conv1
I0507 17:32:09.045105  5373 net.cpp:151] Top shape: 20 64 30 30 (1152000)
I0507 17:32:09.045109  5373 net.cpp:159] Memory required for data: 4680080
I0507 17:32:09.045119  5373 layer_factory.hpp:77] Creating layer relu1
I0507 17:32:09.045126  5373 net.cpp:94] Creating Layer relu1
I0507 17:32:09.045130  5373 net.cpp:435] relu1 <- conv1
I0507 17:32:09.045135  5373 net.cpp:396] relu1 -> conv1 (in-place)
I0507 17:32:09.045141  5373 net.cpp:144] Setting up relu1
I0507 17:32:09.045145  5373 net.cpp:151] Top shape: 20 64 30 30 (1152000)
I0507 17:32:09.045148  5373 net.cpp:159] Memory required for data: 9288080
I0507 17:32:09.045151  5373 layer_factory.hpp:77] Creating layer conv2
I0507 17:32:09.045158  5373 net.cpp:94] Creating Layer conv2
I0507 17:32:09.045162  5373 net.cpp:435] conv2 <- conv1
I0507 17:32:09.045166  5373 net.cpp:409] conv2 -> conv2
I0507 17:32:09.060016  5373 net.cpp:144] Setting up conv2
I0507 17:32:09.060055  5373 net.cpp:151] Top shape: 20 64 30 30 (1152000)
I0507 17:32:09.060066  5373 net.cpp:159] Memory required for data: 13896080
I0507 17:32:09.060087  5373 layer_factory.hpp:77] Creating layer relu2
I0507 17:32:09.060104  5373 net.cpp:94] Creating Layer relu2
I0507 17:32:09.060115  5373 net.cpp:435] relu2 <- conv2
I0507 17:32:09.060128  5373 net.cpp:396] relu2 -> conv2 (in-place)
I0507 17:32:09.060148  5373 net.cpp:144] Setting up relu2
I0507 17:32:09.060159  5373 net.cpp:151] Top shape: 20 64 30 30 (1152000)
I0507 17:32:09.060168  5373 net.cpp:159] Memory required for data: 18504080
I0507 17:32:09.060187  5373 layer_factory.hpp:77] Creating layer pool2
I0507 17:32:09.060194  5373 net.cpp:94] Creating Layer pool2
I0507 17:32:09.060196  5373 net.cpp:435] pool2 <- conv2
I0507 17:32:09.060200  5373 net.cpp:409] pool2 -> pool2
I0507 17:32:09.060251  5373 net.cpp:144] Setting up pool2
I0507 17:32:09.060258  5373 net.cpp:151] Top shape: 20 64 15 15 (288000)
I0507 17:32:09.060261  5373 net.cpp:159] Memory required for data: 19656080
I0507 17:32:09.060264  5373 layer_factory.hpp:77] Creating layer conv3
I0507 17:32:09.060272  5373 net.cpp:94] Creating Layer conv3
I0507 17:32:09.060276  5373 net.cpp:435] conv3 <- pool2
I0507 17:32:09.060287  5373 net.cpp:409] conv3 -> conv3
I0507 17:32:09.068619  5373 net.cpp:144] Setting up conv3
I0507 17:32:09.068634  5373 net.cpp:151] Top shape: 20 64 15 15 (288000)
I0507 17:32:09.068637  5373 net.cpp:159] Memory required for data: 20808080
I0507 17:32:09.068645  5373 layer_factory.hpp:77] Creating layer relu3
I0507 17:32:09.068651  5373 net.cpp:94] Creating Layer relu3
I0507 17:32:09.068655  5373 net.cpp:435] relu3 <- conv3
I0507 17:32:09.068660  5373 net.cpp:396] relu3 -> conv3 (in-place)
I0507 17:32:09.068666  5373 net.cpp:144] Setting up relu3
I0507 17:32:09.068670  5373 net.cpp:151] Top shape: 20 64 15 15 (288000)
I0507 17:32:09.068673  5373 net.cpp:159] Memory required for data: 21960080
I0507 17:32:09.068676  5373 layer_factory.hpp:77] Creating layer conv4
I0507 17:32:09.068684  5373 net.cpp:94] Creating Layer conv4
I0507 17:32:09.068688  5373 net.cpp:435] conv4 <- conv3
I0507 17:32:09.068693  5373 net.cpp:409] conv4 -> conv4
I0507 17:32:09.076092  5373 net.cpp:144] Setting up conv4
I0507 17:32:09.076105  5373 net.cpp:151] Top shape: 20 64 15 15 (288000)
I0507 17:32:09.076109  5373 net.cpp:159] Memory required for data: 23112080
I0507 17:32:09.076115  5373 layer_factory.hpp:77] Creating layer relu4
I0507 17:32:09.076122  5373 net.cpp:94] Creating Layer relu4
I0507 17:32:09.076125  5373 net.cpp:435] relu4 <- conv4
I0507 17:32:09.076129  5373 net.cpp:396] relu4 -> conv4 (in-place)
I0507 17:32:09.076136  5373 net.cpp:144] Setting up relu4
I0507 17:32:09.076140  5373 net.cpp:151] Top shape: 20 64 15 15 (288000)
I0507 17:32:09.076143  5373 net.cpp:159] Memory required for data: 24264080
I0507 17:32:09.076146  5373 layer_factory.hpp:77] Creating layer conv5
I0507 17:32:09.076154  5373 net.cpp:94] Creating Layer conv5
I0507 17:32:09.076158  5373 net.cpp:435] conv5 <- conv4
I0507 17:32:09.076162  5373 net.cpp:409] conv5 -> conv5
I0507 17:32:09.084316  5373 net.cpp:144] Setting up conv5
I0507 17:32:09.084329  5373 net.cpp:151] Top shape: 20 64 15 15 (288000)
I0507 17:32:09.084333  5373 net.cpp:159] Memory required for data: 25416080
I0507 17:32:09.084342  5373 layer_factory.hpp:77] Creating layer relu5
I0507 17:32:09.084347  5373 net.cpp:94] Creating Layer relu5
I0507 17:32:09.084350  5373 net.cpp:435] relu5 <- conv5
I0507 17:32:09.084355  5373 net.cpp:396] relu5 -> conv5 (in-place)
I0507 17:32:09.084362  5373 net.cpp:144] Setting up relu5
I0507 17:32:09.084367  5373 net.cpp:151] Top shape: 20 64 15 15 (288000)
I0507 17:32:09.084369  5373 net.cpp:159] Memory required for data: 26568080
I0507 17:32:09.084372  5373 layer_factory.hpp:77] Creating layer pool5
I0507 17:32:09.084377  5373 net.cpp:94] Creating Layer pool5
I0507 17:32:09.084380  5373 net.cpp:435] pool5 <- conv5
I0507 17:32:09.084384  5373 net.cpp:409] pool5 -> pool5
I0507 17:32:09.084422  5373 net.cpp:144] Setting up pool5
I0507 17:32:09.084429  5373 net.cpp:151] Top shape: 20 64 7 7 (62720)
I0507 17:32:09.084432  5373 net.cpp:159] Memory required for data: 26818960
I0507 17:32:09.084435  5373 layer_factory.hpp:77] Creating layer ip1
I0507 17:32:09.084442  5373 net.cpp:94] Creating Layer ip1
I0507 17:32:09.084446  5373 net.cpp:435] ip1 <- pool5
I0507 17:32:09.084450  5373 net.cpp:409] ip1 -> ip1
I0507 17:32:09.089326  5373 net.cpp:144] Setting up ip1
I0507 17:32:09.089335  5373 net.cpp:151] Top shape: 20 64 (1280)
I0507 17:32:09.089339  5373 net.cpp:159] Memory required for data: 26824080
I0507 17:32:09.089344  5373 layer_factory.hpp:77] Creating layer ip2
I0507 17:32:09.089350  5373 net.cpp:94] Creating Layer ip2
I0507 17:32:09.089354  5373 net.cpp:435] ip2 <- ip1
I0507 17:32:09.089359  5373 net.cpp:409] ip2 -> ip2
I0507 17:32:09.089581  5373 net.cpp:144] Setting up ip2
I0507 17:32:09.089589  5373 net.cpp:151] Top shape: 20 64 (1280)
I0507 17:32:09.089592  5373 net.cpp:159] Memory required for data: 26829200
I0507 17:32:09.089597  5373 layer_factory.hpp:77] Creating layer ip3
I0507 17:32:09.089603  5373 net.cpp:94] Creating Layer ip3
I0507 17:32:09.089607  5373 net.cpp:435] ip3 <- ip2
I0507 17:32:09.089610  5373 net.cpp:409] ip3 -> ip3
I0507 17:32:09.089809  5373 net.cpp:144] Setting up ip3
I0507 17:32:09.089818  5373 net.cpp:151] Top shape: 20 50 (1000)
I0507 17:32:09.089819  5373 net.cpp:159] Memory required for data: 26833200
I0507 17:32:09.089824  5373 layer_factory.hpp:77] Creating layer loss
I0507 17:32:09.089833  5373 net.cpp:94] Creating Layer loss
I0507 17:32:09.089836  5373 net.cpp:435] loss <- ip3
I0507 17:32:09.089839  5373 net.cpp:435] loss <- label
I0507 17:32:09.089844  5373 net.cpp:409] loss -> loss
I0507 17:32:09.089850  5373 layer_factory.hpp:77] Creating layer loss
…
I0507 17:32:09.090359  5373 solver.cpp:181] Creating test net (#0) specified by net file: ./protocol/dis_5_900_dimension.protocol_distribution
I0507 17:32:09.090384  5373 net.cpp:323] The NetState phase (1) differed from the phase (0) specified by a rule in layer parameters
I0507 17:32:09.090482  5373 net.cpp:52] Initializing net from parameters: 
state {
  phase: TEST
}
layer {
  name: "intercept"
  type: "HDF5Data"
  top: "data"
  top: "label"
  include {
    phase: TEST
  }
  hdf5_data_param {
    source: "/home/purduethu/scratch/radon/d/deng106/CNNStatisticalModel/distributions/input/5_distributions_900_sample_size_test-distributions-path.txt"
    batch_size: 20
  }
}
layer {
  name: "conv1"
  type: "Convolution"
  bottom: "data"
  top: "conv1"
  param {
    lr_mult: 1
  }
  param {
    lr_mult: 2
  }
  convolution_param {
    num_output: 64
    pad: 2
    kernel_size: 5
    stride: 1
    weight_filler {
      type: "gaussian"
      std: 0.0001
    }
    bias_filler {
      type: "constant"
    }
  }
}
layer {
  name: "relu1"
  type: "ReLU"
  bottom: "conv1"
  top: "conv1"
}
layer {
  name: "conv2"
  type: "Convolution"
  bottom: "conv1"
  top: "conv2"
  param {
    lr_mult: 1
  }
  param {
    lr_mult: 2
  }
  convolution_param {
    num_output: 64
    pad: 2
    kernel_size: 5
    stride: 1
    weight_filler {
      type: "gaussian"
      std: 0.01
    }
    bias_filler {
      type: "constant"
    }
  }
}
layer {
  name: "relu2"
  type: "ReLU"
  bottom: "conv2"
  top: "conv2"
}
layer {
  name: "pool2"
  type: "Pooling"
  bottom: "conv2"
  top: "pool2"
  pooling_param {
    pool: MAX
    kernel_size: 3
    stride: 2
  }
}
layer {
  name: "conv3"
  type: "Convolution"
  bottom: "pool2"
  top: "conv3"
  param {
    lr_mult: 1
  }
  param {
    lr_mult: 2
  }
  convolution_param {
    num_output: 64
    pad: 2
    kernel_size: 5
    stride: 1
    weight_filler {
      type: "gaussian"
      std: 0.01
    }
    bias_filler {
      type: "constant"
    }
  }
}
layer {
  name: "relu3"
  type: "ReLU"
  bottom: "conv3"
  top: "conv3"
}
layer {
  name: "conv4"
  type: "Convolution"
  bottom: "conv3"
  top: "conv4"
  param {
    lr_mult: 1
  }
  param {
    lr_mult: 2
  }
  convolution_param {
    num_output: 64
    pad: 2
    kernel_size: 5
    stride: 1
    weight_filler {
      type: "gaussian"
      std: 0.01
    }
    bias_filler {
      type: "constant"
    }
  }
}
layer {
  name: "relu4"
  type: "ReLU"
  bottom: "conv4"
  top: "conv4"
}
layer {
  name: "conv5"
  type: "Convolution"
  bottom: "conv4"
  top: "conv5"
  param {
    lr_mult: 1
  }
  param {
    lr_mult: 2
  }
  convolution_param {
    num_output: 64
    pad: 2
    kernel_size: 5
    stride: 1
    weight_filler {
      type: "gaussian"
      std: 0.01
    }
    bias_filler {
      type: "constant"
    }
  }
}
layer {
  name: "relu5"
  type: "ReLU"
  bottom: "conv5"
  top: "conv5"
}
layer {
  name: "pool5"
  type: "Pooling"
  bottom: "conv5"
  top: "pool5"
  pooling_param {
    pool: AVE
    kernel_size: 3
    stride: 2
  }
}
layer {
  name: "ip1"
  type: "InnerProduct"
  bottom: "pool5"
  top: "ip1"
  param {
    lr_mult: 1
  }
  param {
    lr_mult: 2
  }
  inner_product_param {
    num_output: 64
    weight_filler {
      type: "gaussian"
      std: 0.1
    }
    bias_filler {
      type: "constant"
    }
  }
}
layer {
  name: "ip2"
  type: "InnerProduct"
  bottom: "ip1"
  top: "ip2"
  param {
    lr_mult: 1
  }
  param {
    lr_mult: 2
  }
  inner_product_param {
    num_output: 64
    weight_filler {
      type: "gaussian"
      std: 0.1
    }
    bias_filler {
      type: "constant"
    }
  }
}
layer {
  name: "ip3"
  type: "InnerProduct"
  bottom: "ip2"
  top: "ip3"
  param {
    lr_mult: 1
  }
  param {
    lr_mult: 2
  }
  inner_product_param {
    num_output: 50
    weight_filler {
      type: "gaussian"
      std: 0.1
    }
    bias_filler {
      type: "constant"
    }
  }
}
layer {
  name: "accuracy"
  type: "Accuracy"
  bottom: "ip3"
  bottom: "label"
  top: "accuracy"
  include {
    phase: TEST
  }
}
layer {
  name: "loss"
  type: "SoftmaxWithLoss"
  bottom: "ip3"
  bottom: "label"
  top: "loss"
}
I0507 17:32:09.090550  5373 layer_factory.hpp:77] Creating layer intercept
I0507 17:32:09.090559  5373 net.cpp:94] Creating Layer intercept
I0507 17:32:09.090562  5373 net.cpp:409] intercept -> data
I0507 17:32:09.090569  5373 net.cpp:409] intercept -> label
I0507 17:32:09.090574  5373 hdf5_data_layer.cpp:79] Loading list of HDF5 filenames from: /home/purduethu/scratch/radon/d/deng106/CNNStatisticalModel/distributions/input/5_distributions_900_sample_size_test-distributions-path.txt
I0507 17:32:09.090593  5373 hdf5_data_layer.cpp:93] Number of HDF5 files: 1
I0507 17:32:09.125331  5373 net.cpp:144] Setting up intercept
I0507 17:32:09.125363  5373 net.cpp:151] Top shape: 20 1 30 30 (18000)
I0507 17:32:09.125368  5373 net.cpp:151] Top shape: 20 (20)
I0507 17:32:09.125371  5373 net.cpp:159] Memory required for data: 72080
I0507 17:32:09.125377  5373 layer_factory.hpp:77] Creating layer label_intercept_1_split
I0507 17:32:09.125394  5373 net.cpp:94] Creating Layer label_intercept_1_split
I0507 17:32:09.125398  5373 net.cpp:435] label_intercept_1_split <- label
I0507 17:32:09.125404  5373 net.cpp:409] label_intercept_1_split -> label_intercept_1_split_0
I0507 17:32:09.125412  5373 net.cpp:409] label_intercept_1_split -> label_intercept_1_split_1
I0507 17:32:09.125453  5373 net.cpp:144] Setting up label_intercept_1_split
I0507 17:32:09.125459  5373 net.cpp:151] Top shape: 20 (20)
I0507 17:32:09.125463  5373 net.cpp:151] Top shape: 20 (20)
I0507 17:32:09.125466  5373 net.cpp:159] Memory required for data: 72240
I0507 17:32:09.125469  5373 layer_factory.hpp:77] Creating layer conv1
I0507 17:32:09.125479  5373 net.cpp:94] Creating Layer conv1
I0507 17:32:09.125483  5373 net.cpp:435] conv1 <- data
I0507 17:32:09.125488  5373 net.cpp:409] conv1 -> conv1
I0507 17:32:09.126991  5373 net.cpp:144] Setting up conv1
I0507 17:32:09.127012  5373 net.cpp:151] Top shape: 20 64 30 30 (1152000)
I0507 17:32:09.127015  5373 net.cpp:159] Memory required for data: 4680240
I0507 17:32:09.127025  5373 layer_factory.hpp:77] Creating layer relu1
I0507 17:32:09.127032  5373 net.cpp:94] Creating Layer relu1
I0507 17:32:09.127037  5373 net.cpp:435] relu1 <- conv1
I0507 17:32:09.127040  5373 net.cpp:396] relu1 -> conv1 (in-place)
I0507 17:32:09.127048  5373 net.cpp:144] Setting up relu1
I0507 17:32:09.127051  5373 net.cpp:151] Top shape: 20 64 30 30 (1152000)
I0507 17:32:09.127054  5373 net.cpp:159] Memory required for data: 9288240
I0507 17:32:09.127058  5373 layer_factory.hpp:77] Creating layer conv2
I0507 17:32:09.127065  5373 net.cpp:94] Creating Layer conv2
I0507 17:32:09.127069  5373 net.cpp:435] conv2 <- conv1
I0507 17:32:09.127074  5373 net.cpp:409] conv2 -> conv2
I0507 17:32:09.133313  5373 net.cpp:144] Setting up conv2
I0507 17:32:09.133327  5373 net.cpp:151] Top shape: 20 64 30 30 (1152000)
I0507 17:32:09.133330  5373 net.cpp:159] Memory required for data: 13896240
I0507 17:32:09.133337  5373 layer_factory.hpp:77] Creating layer relu2
I0507 17:32:09.133343  5373 net.cpp:94] Creating Layer relu2
I0507 17:32:09.133347  5373 net.cpp:435] relu2 <- conv2
I0507 17:32:09.133352  5373 net.cpp:396] relu2 -> conv2 (in-place)
I0507 17:32:09.133358  5373 net.cpp:144] Setting up relu2
I0507 17:32:09.133363  5373 net.cpp:151] Top shape: 20 64 30 30 (1152000)
I0507 17:32:09.133364  5373 net.cpp:159] Memory required for data: 18504240
I0507 17:32:09.133368  5373 layer_factory.hpp:77] Creating layer pool2
I0507 17:32:09.133373  5373 net.cpp:94] Creating Layer pool2
I0507 17:32:09.133376  5373 net.cpp:435] pool2 <- conv2
I0507 17:32:09.133380  5373 net.cpp:409] pool2 -> pool2
I0507 17:32:09.133430  5373 net.cpp:144] Setting up pool2
I0507 17:32:09.133437  5373 net.cpp:151] Top shape: 20 64 15 15 (288000)
I0507 17:32:09.133440  5373 net.cpp:159] Memory required for data: 19656240
I0507 17:32:09.133443  5373 layer_factory.hpp:77] Creating layer conv3
I0507 17:32:09.133451  5373 net.cpp:94] Creating Layer conv3
I0507 17:32:09.133455  5373 net.cpp:435] conv3 <- pool2
I0507 17:32:09.133460  5373 net.cpp:409] conv3 -> conv3
I0507 17:32:09.138458  5373 net.cpp:144] Setting up conv3
I0507 17:32:09.138473  5373 net.cpp:151] Top shape: 20 64 15 15 (288000)
I0507 17:32:09.138478  5373 net.cpp:159] Memory required for data: 20808240
I0507 17:32:09.138485  5373 layer_factory.hpp:77] Creating layer relu3
I0507 17:32:09.138491  5373 net.cpp:94] Creating Layer relu3
I0507 17:32:09.138495  5373 net.cpp:435] relu3 <- conv3
I0507 17:32:09.138499  5373 net.cpp:396] relu3 -> conv3 (in-place)
I0507 17:32:09.138506  5373 net.cpp:144] Setting up relu3
I0507 17:32:09.138510  5373 net.cpp:151] Top shape: 20 64 15 15 (288000)
I0507 17:32:09.138514  5373 net.cpp:159] Memory required for data: 21960240
I0507 17:32:09.138516  5373 layer_factory.hpp:77] Creating layer conv4
I0507 17:32:09.138523  5373 net.cpp:94] Creating Layer conv4
I0507 17:32:09.138527  5373 net.cpp:435] conv4 <- conv3
I0507 17:32:09.138531  5373 net.cpp:409] conv4 -> conv4
I0507 17:32:09.143885  5373 net.cpp:144] Setting up conv4
I0507 17:32:09.143899  5373 net.cpp:151] Top shape: 20 64 15 15 (288000)
I0507 17:32:09.143903  5373 net.cpp:159] Memory required for data: 23112240
I0507 17:32:09.143909  5373 layer_factory.hpp:77] Creating layer relu4
I0507 17:32:09.143914  5373 net.cpp:94] Creating Layer relu4
I0507 17:32:09.143918  5373 net.cpp:435] relu4 <- conv4
I0507 17:32:09.143923  5373 net.cpp:396] relu4 -> conv4 (in-place)
I0507 17:32:09.143929  5373 net.cpp:144] Setting up relu4
I0507 17:32:09.143934  5373 net.cpp:151] Top shape: 20 64 15 15 (288000)
I0507 17:32:09.143936  5373 net.cpp:159] Memory required for data: 24264240
I0507 17:32:09.143939  5373 layer_factory.hpp:77] Creating layer conv5
I0507 17:32:09.143947  5373 net.cpp:94] Creating Layer conv5
I0507 17:32:09.143951  5373 net.cpp:435] conv5 <- conv4
I0507 17:32:09.143955  5373 net.cpp:409] conv5 -> conv5
I0507 17:32:09.148536  5373 net.cpp:144] Setting up conv5
I0507 17:32:09.148598  5373 net.cpp:151] Top shape: 20 64 15 15 (288000)
I0507 17:32:09.148610  5373 net.cpp:159] Memory required for data: 25416240
I0507 17:32:09.148633  5373 layer_factory.hpp:77] Creating layer relu5
I0507 17:32:09.148654  5373 net.cpp:94] Creating Layer relu5
I0507 17:32:09.148658  5373 net.cpp:435] relu5 <- conv5
I0507 17:32:09.148663  5373 net.cpp:396] relu5 -> conv5 (in-place)
I0507 17:32:09.148669  5373 net.cpp:144] Setting up relu5
I0507 17:32:09.148674  5373 net.cpp:151] Top shape: 20 64 15 15 (288000)
I0507 17:32:09.148676  5373 net.cpp:159] Memory required for data: 26568240
I0507 17:32:09.148679  5373 layer_factory.hpp:77] Creating layer pool5
I0507 17:32:09.148684  5373 net.cpp:94] Creating Layer pool5
I0507 17:32:09.148686  5373 net.cpp:435] pool5 <- conv5
I0507 17:32:09.148690  5373 net.cpp:409] pool5 -> pool5
I0507 17:32:09.148725  5373 net.cpp:144] Setting up pool5
I0507 17:32:09.148732  5373 net.cpp:151] Top shape: 20 64 7 7 (62720)
I0507 17:32:09.148736  5373 net.cpp:159] Memory required for data: 26819120
I0507 17:32:09.148738  5373 layer_factory.hpp:77] Creating layer ip1
I0507 17:32:09.148746  5373 net.cpp:94] Creating Layer ip1
I0507 17:32:09.148748  5373 net.cpp:435] ip1 <- pool5
I0507 17:32:09.148752  5373 net.cpp:409] ip1 -> ip1
I0507 17:32:09.153614  5373 net.cpp:144] Setting up ip1
I0507 17:32:09.153623  5373 net.cpp:151] Top shape: 20 64 (1280)
I0507 17:32:09.153626  5373 net.cpp:159] Memory required for data: 26824240
I0507 17:32:09.153631  5373 layer_factory.hpp:77] Creating layer ip2
I0507 17:32:09.153637  5373 net.cpp:94] Creating Layer ip2
I0507 17:32:09.153641  5373 net.cpp:435] ip2 <- ip1
I0507 17:32:09.153646  5373 net.cpp:409] ip2 -> ip2
I0507 17:32:09.153865  5373 net.cpp:144] Setting up ip2
I0507 17:32:09.153872  5373 net.cpp:151] Top shape: 20 64 (1280)
I0507 17:32:09.153875  5373 net.cpp:159] Memory required for data: 26829360
I0507 17:32:09.153880  5373 layer_factory.hpp:77] Creating layer ip3
I0507 17:32:09.153887  5373 net.cpp:94] Creating Layer ip3
I0507 17:32:09.153892  5373 net.cpp:435] ip3 <- ip2
I0507 17:32:09.153895  5373 net.cpp:409] ip3 -> ip3
I0507 17:32:09.154088  5373 net.cpp:144] Setting up ip3
I0507 17:32:09.154094  5373 net.cpp:151] Top shape: 20 50 (1000)
I0507 17:32:09.154098  5373 net.cpp:159] Memory required for data: 26833360
I0507 17:32:09.154103  5373 layer_factory.hpp:77] Creating layer ip3_ip3_0_split
I0507 17:32:09.154108  5373 net.cpp:94] Creating Layer ip3_ip3_0_split
I0507 17:32:09.154110  5373 net.cpp:435] ip3_ip3_0_split <- ip3
I0507 17:32:09.154114  5373 net.cpp:409] ip3_ip3_0_split -> ip3_ip3_0_split_0
I0507 17:32:09.154120  5373 net.cpp:409] ip3_ip3_0_split -> ip3_ip3_0_split_1
I0507 17:32:09.154158  5373 net.cpp:144] Setting up ip3_ip3_0_split
I0507 17:32:09.154165  5373 net.cpp:151] Top shape: 20 50 (1000)
I0507 17:32:09.154167  5373 net.cpp:151] Top shape: 20 50 (1000)
I0507 17:32:09.154170  5373 net.cpp:159] Memory required for data: 26841360
I0507 17:32:09.154173  5373 layer_factory.hpp:77] Creating layer accuracy
I0507 17:32:09.154180  5373 net.cpp:94] Creating Layer accuracy
I0507 17:32:09.154182  5373 net.cpp:435] accuracy <- ip3_ip3_0_split_0
I0507 17:32:09.154186  5373 net.cpp:435] accuracy <- label_intercept_1_split_0
I0507 17:32:09.154191  5373 net.cpp:409] accuracy -> accuracy
…
