…
I0504 04:42:03.593350 24044 net.cpp:323] The NetState phase (0) differed from the phase (1) specified by a rule in layer intercept
I0504 04:42:03.593369 24044 net.cpp:323] The NetState phase (0) differed from the phase (1) specified by a rule in layer loss
I0504 04:42:03.593459 24044 net.cpp:52] Initializing net from parameters: 
state {
  phase: TRAIN
}
layer {
  name: "parameters"
  type: "HDF5Data"
  top: "data"
  top: "label"
  include {
    phase: TRAIN
  }
  hdf5_data_param {
    source: "/home/purduethu/scratch/radon/d/deng106/CNNStatisticalModel/distributions/input/20_distributions_100_sample_size_train-parameters-path.txt"
    batch_size: 20
  }
}
layer {
  name: "conv1"
  type: "Convolution"
  bottom: "data"
  top: "conv1"
  param {
    lr_mult: 1
  }
  param {
    lr_mult: 2
  }
  convolution_param {
    num_output: 64
    pad: 2
    kernel_size: 5
    stride: 1
    weight_filler {
      type: "gaussian"
      std: 0.0001
    }
    bias_filler {
      type: "constant"
    }
  }
}
layer {
  name: "relu1"
  type: "ReLU"
  bottom: "conv1"
  top: "conv1"
}
layer {
  name: "conv2"
  type: "Convolution"
  bottom: "conv1"
  top: "conv2"
  param {
    lr_mult: 1
  }
  param {
    lr_mult: 2
  }
  convolution_param {
    num_output: 64
    pad: 2
    kernel_size: 5
    stride: 1
    weight_filler {
      type: "gaussian"
      std: 0.01
    }
    bias_filler {
      type: "constant"
    }
  }
}
layer {
  name: "relu2"
  type: "ReLU"
  bottom: "conv2"
  top: "conv2"
}
layer {
  name: "pool2"
  type: "Pooling"
  bottom: "conv2"
  top: "pool2"
  pooling_param {
    pool: MAX
    kernel_size: 3
    stride: 2
  }
}
layer {
  name: "conv3"
  type: "Convolution"
  bottom: "pool2"
  top: "conv3"
  param {
    lr_mult: 1
  }
  param {
    lr_mult: 2
  }
  convolution_param {
    num_output: 128
    pad: 2
    kernel_size: 5
    stride: 1
    weight_filler {
      type: "gaussian"
      std: 0.01
    }
    bias_filler {
      type: "constant"
    }
  }
}
layer {
  name: "relu3"
  type: "ReLU"
  bottom: "conv3"
  top: "conv3"
}
layer {
  name: "conv4"
  type: "Convolution"
  bottom: "conv3"
  top: "conv4"
  param {
    lr_mult: 1
  }
  param {
    lr_mult: 2
  }
  convolution_param {
    num_output: 128
    pad: 2
    kernel_size: 5
    stride: 1
    weight_filler {
      type: "gaussian"
      std: 0.01
    }
    bias_filler {
      type: "constant"
    }
  }
}
layer {
  name: "relu4"
  type: "ReLU"
  bottom: "conv4"
  top: "conv4"
}
layer {
  name: "conv5"
  type: "Convolution"
  bottom: "conv4"
  top: "conv5"
  param {
    lr_mult: 1
  }
  param {
    lr_mult: 2
  }
  convolution_param {
    num_output: 128
    pad: 2
    kernel_size: 5
    stride: 1
    weight_filler {
      type: "gaussian"
      std: 0.01
    }
    bias_filler {
      type: "constant"
    }
  }
}
layer {
  name: "relu5"
  type: "ReLU"
  bottom: "conv5"
  top: "conv5"
}
layer {
  name: "pool5"
  type: "Pooling"
  bottom: "conv5"
  top: "pool5"
  pooling_param {
    pool: AVE
    kernel_size: 3
    stride: 2
  }
}
layer {
  name: "ip1"
  type: "InnerProduct"
  bottom: "pool5"
  top: "ip1"
  param {
    lr_mult: 1
  }
  param {
    lr_mult: 2
  }
  inner_product_param {
    num_output: 1024
    weight_filler {
      type: "gaussian"
      std: 0.1
    }
    bias_filler {
      type: "constant"
    }
  }
}
layer {
  name: "ip2"
  type: "InnerProduct"
  bottom: "ip1"
  top: "ip2"
  param {
    lr_mult: 1
  }
  param {
    lr_mult: 2
  }
  inner_product_param {
    num_output: 512
    weight_filler {
      type: "gaussian"
      std: 0.1
    }
    bias_filler {
      type: "constant"
    }
  }
}
layer {
  name: "ip3"
  type: "InnerProduct"
  bottom: "ip2"
  top: "ip3"
  param {
    lr_mult: 1
  }
  param {
    lr_mult: 2
  }
  inner_product_param {
    num_output: 1
    weight_filler {
      type: "gaussian"
      std: 0.1
    }
    bias_filler {
      type: "constant"
    }
  }
}
layer {
  name: "loss"
  type: "HuberLoss"
  bottom: "ip3"
  bottom: "label"
  top: "loss"
  include {
    phase: TRAIN
  }
}
I0504 04:42:03.593549 24044 layer_factory.hpp:77] Creating layer parameters
I0504 04:42:03.593564 24044 net.cpp:94] Creating Layer parameters
I0504 04:42:03.593569 24044 net.cpp:409] parameters -> data
I0504 04:42:03.593588 24044 net.cpp:409] parameters -> label
I0504 04:42:03.593598 24044 hdf5_data_layer.cpp:79] Loading list of HDF5 filenames from: /home/purduethu/scratch/radon/d/deng106/CNNStatisticalModel/distributions/input/20_distributions_100_sample_size_train-parameters-path.txt
I0504 04:42:03.593626 24044 hdf5_data_layer.cpp:93] Number of HDF5 files: 1
I0504 04:42:03.594240 24044 hdf5.cpp:32] Datatype class: H5T_FLOAT
I0504 04:42:03.659770 24044 net.cpp:144] Setting up parameters
I0504 04:42:03.659802 24044 net.cpp:151] Top shape: 20 1 10 10 (2000)
I0504 04:42:03.659808 24044 net.cpp:151] Top shape: 20 (20)
I0504 04:42:03.659812 24044 net.cpp:159] Memory required for data: 8080
I0504 04:42:03.659819 24044 layer_factory.hpp:77] Creating layer conv1
I0504 04:42:03.659843 24044 net.cpp:94] Creating Layer conv1
I0504 04:42:03.659850 24044 net.cpp:435] conv1 <- data
I0504 04:42:03.659860 24044 net.cpp:409] conv1 -> conv1
I0504 04:42:03.663621 24044 net.cpp:144] Setting up conv1
I0504 04:42:03.663636 24044 net.cpp:151] Top shape: 20 64 10 10 (128000)
I0504 04:42:03.663640 24044 net.cpp:159] Memory required for data: 520080
I0504 04:42:03.663651 24044 layer_factory.hpp:77] Creating layer relu1
I0504 04:42:03.663660 24044 net.cpp:94] Creating Layer relu1
I0504 04:42:03.663663 24044 net.cpp:435] relu1 <- conv1
I0504 04:42:03.663668 24044 net.cpp:396] relu1 -> conv1 (in-place)
I0504 04:42:03.663683 24044 net.cpp:144] Setting up relu1
I0504 04:42:03.663689 24044 net.cpp:151] Top shape: 20 64 10 10 (128000)
I0504 04:42:03.663692 24044 net.cpp:159] Memory required for data: 1032080
I0504 04:42:03.663696 24044 layer_factory.hpp:77] Creating layer conv2
I0504 04:42:03.663703 24044 net.cpp:94] Creating Layer conv2
I0504 04:42:03.663707 24044 net.cpp:435] conv2 <- conv1
I0504 04:42:03.663712 24044 net.cpp:409] conv2 -> conv2
I0504 04:42:03.668926 24044 net.cpp:144] Setting up conv2
I0504 04:42:03.668941 24044 net.cpp:151] Top shape: 20 64 10 10 (128000)
I0504 04:42:03.668944 24044 net.cpp:159] Memory required for data: 1544080
I0504 04:42:03.668952 24044 layer_factory.hpp:77] Creating layer relu2
I0504 04:42:03.668959 24044 net.cpp:94] Creating Layer relu2
I0504 04:42:03.668963 24044 net.cpp:435] relu2 <- conv2
I0504 04:42:03.668967 24044 net.cpp:396] relu2 -> conv2 (in-place)
I0504 04:42:03.668975 24044 net.cpp:144] Setting up relu2
I0504 04:42:03.668979 24044 net.cpp:151] Top shape: 20 64 10 10 (128000)
I0504 04:42:03.668983 24044 net.cpp:159] Memory required for data: 2056080
I0504 04:42:03.668987 24044 layer_factory.hpp:77] Creating layer pool2
I0504 04:42:03.668993 24044 net.cpp:94] Creating Layer pool2
I0504 04:42:03.669003 24044 net.cpp:435] pool2 <- conv2
I0504 04:42:03.669008 24044 net.cpp:409] pool2 -> pool2
I0504 04:42:03.669051 24044 net.cpp:144] Setting up pool2
I0504 04:42:03.669059 24044 net.cpp:151] Top shape: 20 64 5 5 (32000)
I0504 04:42:03.669062 24044 net.cpp:159] Memory required for data: 2184080
I0504 04:42:03.669065 24044 layer_factory.hpp:77] Creating layer conv3
I0504 04:42:03.669075 24044 net.cpp:94] Creating Layer conv3
I0504 04:42:03.669078 24044 net.cpp:435] conv3 <- pool2
I0504 04:42:03.669083 24044 net.cpp:409] conv3 -> conv3
I0504 04:42:03.677179 24044 net.cpp:144] Setting up conv3
I0504 04:42:03.677193 24044 net.cpp:151] Top shape: 20 128 5 5 (64000)
I0504 04:42:03.677197 24044 net.cpp:159] Memory required for data: 2440080
I0504 04:42:03.677206 24044 layer_factory.hpp:77] Creating layer relu3
I0504 04:42:03.677211 24044 net.cpp:94] Creating Layer relu3
I0504 04:42:03.677215 24044 net.cpp:435] relu3 <- conv3
I0504 04:42:03.677220 24044 net.cpp:396] relu3 -> conv3 (in-place)
I0504 04:42:03.677227 24044 net.cpp:144] Setting up relu3
I0504 04:42:03.677232 24044 net.cpp:151] Top shape: 20 128 5 5 (64000)
I0504 04:42:03.677234 24044 net.cpp:159] Memory required for data: 2696080
I0504 04:42:03.677238 24044 layer_factory.hpp:77] Creating layer conv4
I0504 04:42:03.677247 24044 net.cpp:94] Creating Layer conv4
I0504 04:42:03.677250 24044 net.cpp:435] conv4 <- conv3
I0504 04:42:03.677255 24044 net.cpp:409] conv4 -> conv4
I0504 04:42:03.692047 24044 net.cpp:144] Setting up conv4
I0504 04:42:03.692061 24044 net.cpp:151] Top shape: 20 128 5 5 (64000)
I0504 04:42:03.692066 24044 net.cpp:159] Memory required for data: 2952080
I0504 04:42:03.692072 24044 layer_factory.hpp:77] Creating layer relu4
I0504 04:42:03.692078 24044 net.cpp:94] Creating Layer relu4
I0504 04:42:03.692082 24044 net.cpp:435] relu4 <- conv4
I0504 04:42:03.692087 24044 net.cpp:396] relu4 -> conv4 (in-place)
I0504 04:42:03.692095 24044 net.cpp:144] Setting up relu4
I0504 04:42:03.692100 24044 net.cpp:151] Top shape: 20 128 5 5 (64000)
I0504 04:42:03.692102 24044 net.cpp:159] Memory required for data: 3208080
I0504 04:42:03.692106 24044 layer_factory.hpp:77] Creating layer conv5
I0504 04:42:03.692113 24044 net.cpp:94] Creating Layer conv5
I0504 04:42:03.692117 24044 net.cpp:435] conv5 <- conv4
I0504 04:42:03.692122 24044 net.cpp:409] conv5 -> conv5
I0504 04:42:03.706550 24044 net.cpp:144] Setting up conv5
I0504 04:42:03.706565 24044 net.cpp:151] Top shape: 20 128 5 5 (64000)
I0504 04:42:03.706570 24044 net.cpp:159] Memory required for data: 3464080
I0504 04:42:03.706579 24044 layer_factory.hpp:77] Creating layer relu5
I0504 04:42:03.706585 24044 net.cpp:94] Creating Layer relu5
I0504 04:42:03.706589 24044 net.cpp:435] relu5 <- conv5
I0504 04:42:03.706594 24044 net.cpp:396] relu5 -> conv5 (in-place)
I0504 04:42:03.706601 24044 net.cpp:144] Setting up relu5
I0504 04:42:03.706606 24044 net.cpp:151] Top shape: 20 128 5 5 (64000)
I0504 04:42:03.706609 24044 net.cpp:159] Memory required for data: 3720080
I0504 04:42:03.706614 24044 layer_factory.hpp:77] Creating layer pool5
I0504 04:42:03.706619 24044 net.cpp:94] Creating Layer pool5
I0504 04:42:03.706621 24044 net.cpp:435] pool5 <- conv5
I0504 04:42:03.706626 24044 net.cpp:409] pool5 -> pool5
I0504 04:42:03.706660 24044 net.cpp:144] Setting up pool5
I0504 04:42:03.706667 24044 net.cpp:151] Top shape: 20 128 2 2 (10240)
I0504 04:42:03.706671 24044 net.cpp:159] Memory required for data: 3761040
I0504 04:42:03.706674 24044 layer_factory.hpp:77] Creating layer ip1
I0504 04:42:03.706683 24044 net.cpp:94] Creating Layer ip1
I0504 04:42:03.706687 24044 net.cpp:435] ip1 <- pool5
I0504 04:42:03.706692 24044 net.cpp:409] ip1 -> ip1
I0504 04:42:03.720412 24044 net.cpp:144] Setting up ip1
I0504 04:42:03.720427 24044 net.cpp:151] Top shape: 20 1024 (20480)
I0504 04:42:03.720430 24044 net.cpp:159] Memory required for data: 3842960
I0504 04:42:03.720438 24044 layer_factory.hpp:77] Creating layer ip2
I0504 04:42:03.720444 24044 net.cpp:94] Creating Layer ip2
I0504 04:42:03.720448 24044 net.cpp:435] ip2 <- ip1
I0504 04:42:03.720458 24044 net.cpp:409] ip2 -> ip2
I0504 04:42:03.733285 24044 net.cpp:144] Setting up ip2
I0504 04:42:03.733299 24044 net.cpp:151] Top shape: 20 512 (10240)
I0504 04:42:03.733304 24044 net.cpp:159] Memory required for data: 3883920
I0504 04:42:03.733309 24044 layer_factory.hpp:77] Creating layer ip3
I0504 04:42:03.733315 24044 net.cpp:94] Creating Layer ip3
I0504 04:42:03.733319 24044 net.cpp:435] ip3 <- ip2
I0504 04:42:03.733325 24044 net.cpp:409] ip3 -> ip3
I0504 04:42:03.733400 24044 net.cpp:144] Setting up ip3
I0504 04:42:03.733407 24044 net.cpp:151] Top shape: 20 1 (20)
I0504 04:42:03.733417 24044 net.cpp:159] Memory required for data: 3884000
I0504 04:42:03.733423 24044 layer_factory.hpp:77] Creating layer loss
I0504 04:42:03.733431 24044 net.cpp:94] Creating Layer loss
I0504 04:42:03.733435 24044 net.cpp:435] loss <- ip3
I0504 04:42:03.733439 24044 net.cpp:435] loss <- label
I0504 04:42:03.733444 24044 net.cpp:409] loss -> loss
I0504 04:42:03.733479 24044 net.cpp:144] Setting up loss
…
