…
I0506 11:14:22.741605 21330 net.cpp:323] The NetState phase (0) differed from the phase (1) specified by a rule in layer intercept
I0506 11:14:22.741621 21330 net.cpp:323] The NetState phase (0) differed from the phase (1) specified by a rule in layer loss
I0506 11:14:22.741698 21330 net.cpp:52] Initializing net from parameters: 
state {
  phase: TRAIN
}
layer {
  name: "parameters"
  type: "HDF5Data"
  top: "data"
  top: "label"
  include {
    phase: TRAIN
  }
  hdf5_data_param {
    source: "/home/purduethu/scratch/radon/d/deng106/CNNStatisticalModel/distributions/input/50_distributions_100_sample_size_train-parameters-path.txt"
    batch_size: 20
  }
}
layer {
  name: "conv1"
  type: "Convolution"
  bottom: "data"
  top: "conv1"
  param {
    lr_mult: 1
  }
  param {
    lr_mult: 2
  }
  convolution_param {
    num_output: 64
    pad: 2
    kernel_size: 5
    stride: 1
    weight_filler {
      type: "gaussian"
      std: 0.0001
    }
    bias_filler {
      type: "constant"
    }
  }
}
layer {
  name: "relu1"
  type: "ReLU"
  bottom: "conv1"
  top: "conv1"
}
layer {
  name: "conv2"
  type: "Convolution"
  bottom: "conv1"
  top: "conv2"
  param {
    lr_mult: 1
  }
  param {
    lr_mult: 2
  }
  convolution_param {
    num_output: 64
    pad: 2
    kernel_size: 5
    stride: 1
    weight_filler {
      type: "gaussian"
      std: 0.01
    }
    bias_filler {
      type: "constant"
    }
  }
}
layer {
  name: "relu2"
  type: "ReLU"
  bottom: "conv2"
  top: "conv2"
}
layer {
  name: "pool2"
  type: "Pooling"
  bottom: "conv2"
  top: "pool2"
  pooling_param {
    pool: MAX
    kernel_size: 3
    stride: 2
  }
}
layer {
  name: "conv3"
  type: "Convolution"
  bottom: "pool2"
  top: "conv3"
  param {
    lr_mult: 1
  }
  param {
    lr_mult: 2
  }
  convolution_param {
    num_output: 128
    pad: 2
    kernel_size: 5
    stride: 1
    weight_filler {
      type: "gaussian"
      std: 0.01
    }
    bias_filler {
      type: "constant"
    }
  }
}
layer {
  name: "relu3"
  type: "ReLU"
  bottom: "conv3"
  top: "conv3"
}
layer {
  name: "conv4"
  type: "Convolution"
  bottom: "conv3"
  top: "conv4"
  param {
    lr_mult: 1
  }
  param {
    lr_mult: 2
  }
  convolution_param {
    num_output: 128
    pad: 2
    kernel_size: 5
    stride: 1
    weight_filler {
      type: "gaussian"
      std: 0.01
    }
    bias_filler {
      type: "constant"
    }
  }
}
layer {
  name: "relu4"
  type: "ReLU"
  bottom: "conv4"
  top: "conv4"
}
layer {
  name: "conv5"
  type: "Convolution"
  bottom: "conv4"
  top: "conv5"
  param {
    lr_mult: 1
  }
  param {
    lr_mult: 2
  }
  convolution_param {
    num_output: 128
    pad: 2
    kernel_size: 5
    stride: 1
    weight_filler {
      type: "gaussian"
      std: 0.01
    }
    bias_filler {
      type: "constant"
    }
  }
}
layer {
  name: "relu5"
  type: "ReLU"
  bottom: "conv5"
  top: "conv5"
}
layer {
  name: "pool5"
  type: "Pooling"
  bottom: "conv5"
  top: "pool5"
  pooling_param {
    pool: AVE
    kernel_size: 3
    stride: 2
  }
}
layer {
  name: "ip1"
  type: "InnerProduct"
  bottom: "pool5"
  top: "ip1"
  param {
    lr_mult: 1
  }
  param {
    lr_mult: 2
  }
  inner_product_param {
    num_output: 1024
    weight_filler {
      type: "gaussian"
      std: 0.1
    }
    bias_filler {
      type: "constant"
    }
  }
}
layer {
  name: "ip2"
  type: "InnerProduct"
  bottom: "ip1"
  top: "ip2"
  param {
    lr_mult: 1
  }
  param {
    lr_mult: 2
  }
  inner_product_param {
    num_output: 512
    weight_filler {
      type: "gaussian"
      std: 0.1
    }
    bias_filler {
      type: "constant"
    }
  }
}
layer {
  name: "ip3"
  type: "InnerProduct"
  bottom: "ip2"
  top: "ip3"
  param {
    lr_mult: 1
  }
  param {
    lr_mult: 2
  }
  inner_product_param {
    num_output: 1
    weight_filler {
      type: "gaussian"
      std: 0.1
    }
    bias_filler {
      type: "constant"
    }
  }
}
layer {
  name: "loss"
  type: "HuberLoss"
  bottom: "ip3"
  bottom: "label"
  top: "loss"
  include {
    phase: TRAIN
  }
}
I0506 11:14:22.741750 21330 layer_factory.hpp:77] Creating layer parameters
I0506 11:14:22.741765 21330 net.cpp:94] Creating Layer parameters
I0506 11:14:22.741770 21330 net.cpp:409] parameters -> data
I0506 11:14:22.741778 21330 net.cpp:409] parameters -> label
I0506 11:14:22.741788 21330 hdf5_data_layer.cpp:79] Loading list of HDF5 filenames from: /home/purduethu/scratch/radon/d/deng106/CNNStatisticalModel/distributions/input/50_distributions_100_sample_size_train-parameters-path.txt
I0506 11:14:22.741804 21330 hdf5_data_layer.cpp:93] Number of HDF5 files: 1
I0506 11:14:22.742311 21330 hdf5.cpp:32] Datatype class: H5T_FLOAT
I0506 11:14:22.903986 21330 net.cpp:144] Setting up parameters
I0506 11:14:22.904018 21330 net.cpp:151] Top shape: 20 1 10 10 (2000)
I0506 11:14:22.904023 21330 net.cpp:151] Top shape: 20 (20)
I0506 11:14:22.904027 21330 net.cpp:159] Memory required for data: 8080
I0506 11:14:22.904034 21330 layer_factory.hpp:77] Creating layer conv1
I0506 11:14:22.904057 21330 net.cpp:94] Creating Layer conv1
I0506 11:14:22.904062 21330 net.cpp:435] conv1 <- data
I0506 11:14:22.904068 21330 net.cpp:409] conv1 -> conv1
I0506 11:14:22.908453 21330 net.cpp:144] Setting up conv1
I0506 11:14:22.908473 21330 net.cpp:151] Top shape: 20 64 10 10 (128000)
I0506 11:14:22.908478 21330 net.cpp:159] Memory required for data: 520080
I0506 11:14:22.908488 21330 layer_factory.hpp:77] Creating layer relu1
I0506 11:14:22.908498 21330 net.cpp:94] Creating Layer relu1
I0506 11:14:22.908502 21330 net.cpp:435] relu1 <- conv1
I0506 11:14:22.908506 21330 net.cpp:396] relu1 -> conv1 (in-place)
I0506 11:14:22.908519 21330 net.cpp:144] Setting up relu1
I0506 11:14:22.908524 21330 net.cpp:151] Top shape: 20 64 10 10 (128000)
I0506 11:14:22.908526 21330 net.cpp:159] Memory required for data: 1032080
I0506 11:14:22.908529 21330 layer_factory.hpp:77] Creating layer conv2
I0506 11:14:22.908538 21330 net.cpp:94] Creating Layer conv2
I0506 11:14:22.908541 21330 net.cpp:435] conv2 <- conv1
I0506 11:14:22.908547 21330 net.cpp:409] conv2 -> conv2
I0506 11:14:22.914649 21330 net.cpp:144] Setting up conv2
I0506 11:14:22.914667 21330 net.cpp:151] Top shape: 20 64 10 10 (128000)
I0506 11:14:22.914671 21330 net.cpp:159] Memory required for data: 1544080
I0506 11:14:22.914680 21330 layer_factory.hpp:77] Creating layer relu2
I0506 11:14:22.914688 21330 net.cpp:94] Creating Layer relu2
I0506 11:14:22.914692 21330 net.cpp:435] relu2 <- conv2
I0506 11:14:22.914696 21330 net.cpp:396] relu2 -> conv2 (in-place)
I0506 11:14:22.914705 21330 net.cpp:144] Setting up relu2
I0506 11:14:22.914708 21330 net.cpp:151] Top shape: 20 64 10 10 (128000)
I0506 11:14:22.914711 21330 net.cpp:159] Memory required for data: 2056080
I0506 11:14:22.914714 21330 layer_factory.hpp:77] Creating layer pool2
I0506 11:14:22.914721 21330 net.cpp:94] Creating Layer pool2
I0506 11:14:22.914723 21330 net.cpp:435] pool2 <- conv2
I0506 11:14:22.914728 21330 net.cpp:409] pool2 -> pool2
I0506 11:14:22.914788 21330 net.cpp:144] Setting up pool2
I0506 11:14:22.914795 21330 net.cpp:151] Top shape: 20 64 5 5 (32000)
I0506 11:14:22.914799 21330 net.cpp:159] Memory required for data: 2184080
I0506 11:14:22.914803 21330 layer_factory.hpp:77] Creating layer conv3
I0506 11:14:22.914810 21330 net.cpp:94] Creating Layer conv3
I0506 11:14:22.914819 21330 net.cpp:435] conv3 <- pool2
I0506 11:14:22.914825 21330 net.cpp:409] conv3 -> conv3
I0506 11:14:22.923053 21330 net.cpp:144] Setting up conv3
I0506 11:14:22.923069 21330 net.cpp:151] Top shape: 20 128 5 5 (64000)
I0506 11:14:22.923074 21330 net.cpp:159] Memory required for data: 2440080
I0506 11:14:22.923082 21330 layer_factory.hpp:77] Creating layer relu3
I0506 11:14:22.923089 21330 net.cpp:94] Creating Layer relu3
I0506 11:14:22.923092 21330 net.cpp:435] relu3 <- conv3
I0506 11:14:22.923097 21330 net.cpp:396] relu3 -> conv3 (in-place)
I0506 11:14:22.923105 21330 net.cpp:144] Setting up relu3
I0506 11:14:22.923108 21330 net.cpp:151] Top shape: 20 128 5 5 (64000)
I0506 11:14:22.923111 21330 net.cpp:159] Memory required for data: 2696080
I0506 11:14:22.923115 21330 layer_factory.hpp:77] Creating layer conv4
I0506 11:14:22.923123 21330 net.cpp:94] Creating Layer conv4
I0506 11:14:22.923127 21330 net.cpp:435] conv4 <- conv3
I0506 11:14:22.923132 21330 net.cpp:409] conv4 -> conv4
I0506 11:14:22.938210 21330 net.cpp:144] Setting up conv4
I0506 11:14:22.938233 21330 net.cpp:151] Top shape: 20 128 5 5 (64000)
I0506 11:14:22.938238 21330 net.cpp:159] Memory required for data: 2952080
I0506 11:14:22.938246 21330 layer_factory.hpp:77] Creating layer relu4
I0506 11:14:22.938253 21330 net.cpp:94] Creating Layer relu4
I0506 11:14:22.938257 21330 net.cpp:435] relu4 <- conv4
I0506 11:14:22.938262 21330 net.cpp:396] relu4 -> conv4 (in-place)
I0506 11:14:22.938271 21330 net.cpp:144] Setting up relu4
I0506 11:14:22.938275 21330 net.cpp:151] Top shape: 20 128 5 5 (64000)
I0506 11:14:22.938278 21330 net.cpp:159] Memory required for data: 3208080
I0506 11:14:22.938282 21330 layer_factory.hpp:77] Creating layer conv5
I0506 11:14:22.938290 21330 net.cpp:94] Creating Layer conv5
I0506 11:14:22.938294 21330 net.cpp:435] conv5 <- conv4
I0506 11:14:22.938299 21330 net.cpp:409] conv5 -> conv5
I0506 11:14:22.952788 21330 net.cpp:144] Setting up conv5
I0506 11:14:22.952811 21330 net.cpp:151] Top shape: 20 128 5 5 (64000)
I0506 11:14:22.952816 21330 net.cpp:159] Memory required for data: 3464080
I0506 11:14:22.952826 21330 layer_factory.hpp:77] Creating layer relu5
I0506 11:14:22.952833 21330 net.cpp:94] Creating Layer relu5
I0506 11:14:22.952837 21330 net.cpp:435] relu5 <- conv5
I0506 11:14:22.952842 21330 net.cpp:396] relu5 -> conv5 (in-place)
I0506 11:14:22.952850 21330 net.cpp:144] Setting up relu5
I0506 11:14:22.952855 21330 net.cpp:151] Top shape: 20 128 5 5 (64000)
I0506 11:14:22.952858 21330 net.cpp:159] Memory required for data: 3720080
I0506 11:14:22.952862 21330 layer_factory.hpp:77] Creating layer pool5
I0506 11:14:22.952867 21330 net.cpp:94] Creating Layer pool5
I0506 11:14:22.952870 21330 net.cpp:435] pool5 <- conv5
I0506 11:14:22.952874 21330 net.cpp:409] pool5 -> pool5
I0506 11:14:22.952919 21330 net.cpp:144] Setting up pool5
I0506 11:14:22.952927 21330 net.cpp:151] Top shape: 20 128 2 2 (10240)
I0506 11:14:22.952930 21330 net.cpp:159] Memory required for data: 3761040
I0506 11:14:22.952934 21330 layer_factory.hpp:77] Creating layer ip1
I0506 11:14:22.952944 21330 net.cpp:94] Creating Layer ip1
I0506 11:14:22.952947 21330 net.cpp:435] ip1 <- pool5
I0506 11:14:22.952952 21330 net.cpp:409] ip1 -> ip1
I0506 11:14:22.966946 21330 net.cpp:144] Setting up ip1
I0506 11:14:22.966974 21330 net.cpp:151] Top shape: 20 1024 (20480)
I0506 11:14:22.966977 21330 net.cpp:159] Memory required for data: 3842960
I0506 11:14:22.966985 21330 layer_factory.hpp:77] Creating layer ip2
I0506 11:14:22.966995 21330 net.cpp:94] Creating Layer ip2
I0506 11:14:22.967000 21330 net.cpp:435] ip2 <- ip1
I0506 11:14:22.967005 21330 net.cpp:409] ip2 -> ip2
I0506 11:14:22.980084 21330 net.cpp:144] Setting up ip2
I0506 11:14:22.980110 21330 net.cpp:151] Top shape: 20 512 (10240)
I0506 11:14:22.980114 21330 net.cpp:159] Memory required for data: 3883920
I0506 11:14:22.980121 21330 layer_factory.hpp:77] Creating layer ip3
I0506 11:14:22.980131 21330 net.cpp:94] Creating Layer ip3
I0506 11:14:22.980135 21330 net.cpp:435] ip3 <- ip2
I0506 11:14:22.980147 21330 net.cpp:409] ip3 -> ip3
I0506 11:14:22.980273 21330 net.cpp:144] Setting up ip3
I0506 11:14:22.980280 21330 net.cpp:151] Top shape: 20 1 (20)
I0506 11:14:22.980283 21330 net.cpp:159] Memory required for data: 3884000
I0506 11:14:22.980288 21330 layer_factory.hpp:77] Creating layer loss
I0506 11:14:22.980303 21330 net.cpp:94] Creating Layer loss
I0506 11:14:22.980306 21330 net.cpp:435] loss <- ip3
I0506 11:14:22.980310 21330 net.cpp:435] loss <- label
I0506 11:14:22.980315 21330 net.cpp:409] loss -> loss
I0506 11:14:22.980370 21330 net.cpp:144] Setting up loss
…
I0506 11:14:23.088047 21330 net.cpp:323] The NetState phase (0) differed from the phase (1) specified by a rule in layer intercept
I0506 11:14:23.088063 21330 net.cpp:323] The NetState phase (0) differed from the phase (1) specified by a rule in layer accuracy
I0506 11:14:23.088148 21330 net.cpp:52] Initializing net from parameters: 
state {
  phase: TRAIN
}
layer {
  name: "parameters"
  type: "HDF5Data"
  top: "data"
  top: "label"
  include {
    phase: TRAIN
  }
  hdf5_data_param {
    source: "/home/purduethu/scratch/radon/d/deng106/CNNStatisticalModel/distributions/input/50_distributions_100_sample_size_train-distributions-path.txt"
    batch_size: 20
  }
}
layer {
  name: "conv1"
  type: "Convolution"
  bottom: "data"
  top: "conv1"
  param {
    lr_mult: 1
  }
  param {
    lr_mult: 2
  }
  convolution_param {
    num_output: 64
    pad: 2
    kernel_size: 5
    stride: 1
    weight_filler {
      type: "gaussian"
      std: 0.0001
    }
    bias_filler {
      type: "constant"
    }
  }
}
layer {
  name: "relu1"
  type: "ReLU"
  bottom: "conv1"
  top: "conv1"
}
layer {
  name: "conv2"
  type: "Convolution"
  bottom: "conv1"
  top: "conv2"
  param {
    lr_mult: 1
  }
  param {
    lr_mult: 2
  }
  convolution_param {
    num_output: 64
    pad: 2
    kernel_size: 5
    stride: 1
    weight_filler {
      type: "gaussian"
      std: 0.01
    }
    bias_filler {
      type: "constant"
    }
  }
}
layer {
  name: "relu2"
  type: "ReLU"
  bottom: "conv2"
  top: "conv2"
}
layer {
  name: "pool2"
  type: "Pooling"
  bottom: "conv2"
  top: "pool2"
  pooling_param {
    pool: MAX
    kernel_size: 3
    stride: 2
  }
}
layer {
  name: "conv3"
  type: "Convolution"
  bottom: "pool2"
  top: "conv3"
  param {
    lr_mult: 1
  }
  param {
    lr_mult: 2
  }
  convolution_param {
    num_output: 128
    pad: 2
    kernel_size: 5
    stride: 1
    weight_filler {
      type: "gaussian"
      std: 0.01
    }
    bias_filler {
      type: "constant"
    }
  }
}
layer {
  name: "relu3"
  type: "ReLU"
  bottom: "conv3"
  top: "conv3"
}
layer {
  name: "conv4"
  type: "Convolution"
  bottom: "conv3"
  top: "conv4"
  param {
    lr_mult: 1
  }
  param {
    lr_mult: 2
  }
  convolution_param {
    num_output: 128
    pad: 2
    kernel_size: 5
    stride: 1
    weight_filler {
      type: "gaussian"
      std: 0.01
    }
    bias_filler {
      type: "constant"
    }
  }
}
layer {
  name: "relu4"
  type: "ReLU"
  bottom: "conv4"
  top: "conv4"
}
layer {
  name: "conv5"
  type: "Convolution"
  bottom: "conv4"
  top: "conv5"
  param {
    lr_mult: 1
  }
  param {
    lr_mult: 2
  }
  convolution_param {
    num_output: 128
    pad: 2
    kernel_size: 5
    stride: 1
    weight_filler {
      type: "gaussian"
      std: 0.01
    }
    bias_filler {
      type: "constant"
    }
  }
}
layer {
  name: "relu5"
  type: "ReLU"
  bottom: "conv5"
  top: "conv5"
}
layer {
  name: "pool5"
  type: "Pooling"
  bottom: "conv5"
  top: "pool5"
  pooling_param {
    pool: AVE
    kernel_size: 3
    stride: 2
  }
}
layer {
  name: "ip1"
  type: "InnerProduct"
  bottom: "pool5"
  top: "ip1"
  param {
    lr_mult: 1
  }
  param {
    lr_mult: 2
  }
  inner_product_param {
    num_output: 1024
    weight_filler {
      type: "gaussian"
      std: 0.1
    }
    bias_filler {
      type: "constant"
    }
  }
}
layer {
  name: "ip2"
  type: "InnerProduct"
  bottom: "ip1"
  top: "ip2"
  param {
    lr_mult: 1
  }
  param {
    lr_mult: 2
  }
  inner_product_param {
    num_output: 512
    weight_filler {
      type: "gaussian"
      std: 0.1
    }
    bias_filler {
      type: "constant"
    }
  }
}
layer {
  name: "ip3"
  type: "InnerProduct"
  bottom: "ip2"
  top: "ip3"
  param {
    lr_mult: 1
  }
  param {
    lr_mult: 2
  }
  inner_product_param {
    num_output: 50
    weight_filler {
      type: "gaussian"
      std: 0.1
    }
    bias_filler {
      type: "constant"
    }
  }
}
layer {
  name: "loss"
  type: "SoftmaxWithLoss"
  bottom: "ip3"
  bottom: "label"
  top: "loss"
}
I0506 11:14:23.088204 21330 layer_factory.hpp:77] Creating layer parameters
I0506 11:14:23.088213 21330 net.cpp:94] Creating Layer parameters
I0506 11:14:23.088217 21330 net.cpp:409] parameters -> data
I0506 11:14:23.088224 21330 net.cpp:409] parameters -> label
I0506 11:14:23.088230 21330 hdf5_data_layer.cpp:79] Loading list of HDF5 filenames from: /home/purduethu/scratch/radon/d/deng106/CNNStatisticalModel/distributions/input/50_distributions_100_sample_size_train-distributions-path.txt
I0506 11:14:23.088248 21330 hdf5_data_layer.cpp:93] Number of HDF5 files: 1
I0506 11:14:23.244714 21330 hdf5.cpp:35] Datatype class: H5T_INTEGER
I0506 11:14:23.247963 21330 net.cpp:144] Setting up parameters
I0506 11:14:23.247984 21330 net.cpp:151] Top shape: 20 1 10 10 (2000)
I0506 11:14:23.247989 21330 net.cpp:151] Top shape: 20 (20)
I0506 11:14:23.247992 21330 net.cpp:159] Memory required for data: 8080
I0506 11:14:23.247998 21330 layer_factory.hpp:77] Creating layer conv1
I0506 11:14:23.248015 21330 net.cpp:94] Creating Layer conv1
I0506 11:14:23.248019 21330 net.cpp:435] conv1 <- data
I0506 11:14:23.248025 21330 net.cpp:409] conv1 -> conv1
I0506 11:14:23.249943 21330 net.cpp:144] Setting up conv1
I0506 11:14:23.249959 21330 net.cpp:151] Top shape: 20 64 10 10 (128000)
I0506 11:14:23.249963 21330 net.cpp:159] Memory required for data: 520080
I0506 11:14:23.249974 21330 layer_factory.hpp:77] Creating layer relu1
I0506 11:14:23.249982 21330 net.cpp:94] Creating Layer relu1
I0506 11:14:23.249986 21330 net.cpp:435] relu1 <- conv1
I0506 11:14:23.249990 21330 net.cpp:396] relu1 -> conv1 (in-place)
I0506 11:14:23.249999 21330 net.cpp:144] Setting up relu1
I0506 11:14:23.250002 21330 net.cpp:151] Top shape: 20 64 10 10 (128000)
I0506 11:14:23.250005 21330 net.cpp:159] Memory required for data: 1032080
I0506 11:14:23.250008 21330 layer_factory.hpp:77] Creating layer conv2
I0506 11:14:23.250016 21330 net.cpp:94] Creating Layer conv2
I0506 11:14:23.250020 21330 net.cpp:435] conv2 <- conv1
I0506 11:14:23.250025 21330 net.cpp:409] conv2 -> conv2
I0506 11:14:23.255480 21330 net.cpp:144] Setting up conv2
I0506 11:14:23.255494 21330 net.cpp:151] Top shape: 20 64 10 10 (128000)
I0506 11:14:23.255498 21330 net.cpp:159] Memory required for data: 1544080
I0506 11:14:23.255506 21330 layer_factory.hpp:77] Creating layer relu2
I0506 11:14:23.255513 21330 net.cpp:94] Creating Layer relu2
I0506 11:14:23.255517 21330 net.cpp:435] relu2 <- conv2
I0506 11:14:23.255522 21330 net.cpp:396] relu2 -> conv2 (in-place)
I0506 11:14:23.255529 21330 net.cpp:144] Setting up relu2
I0506 11:14:23.255534 21330 net.cpp:151] Top shape: 20 64 10 10 (128000)
I0506 11:14:23.255537 21330 net.cpp:159] Memory required for data: 2056080
I0506 11:14:23.255540 21330 layer_factory.hpp:77] Creating layer pool2
I0506 11:14:23.255547 21330 net.cpp:94] Creating Layer pool2
I0506 11:14:23.255549 21330 net.cpp:435] pool2 <- conv2
I0506 11:14:23.255553 21330 net.cpp:409] pool2 -> pool2
I0506 11:14:23.255612 21330 net.cpp:144] Setting up pool2
I0506 11:14:23.255620 21330 net.cpp:151] Top shape: 20 64 5 5 (32000)
I0506 11:14:23.255622 21330 net.cpp:159] Memory required for data: 2184080
I0506 11:14:23.255626 21330 layer_factory.hpp:77] Creating layer conv3
I0506 11:14:23.255635 21330 net.cpp:94] Creating Layer conv3
I0506 11:14:23.255637 21330 net.cpp:435] conv3 <- pool2
I0506 11:14:23.255642 21330 net.cpp:409] conv3 -> conv3
I0506 11:14:23.264425 21330 net.cpp:144] Setting up conv3
I0506 11:14:23.264443 21330 net.cpp:151] Top shape: 20 128 5 5 (64000)
I0506 11:14:23.264447 21330 net.cpp:159] Memory required for data: 2440080
I0506 11:14:23.264456 21330 layer_factory.hpp:77] Creating layer relu3
I0506 11:14:23.264462 21330 net.cpp:94] Creating Layer relu3
I0506 11:14:23.264467 21330 net.cpp:435] relu3 <- conv3
I0506 11:14:23.264472 21330 net.cpp:396] relu3 -> conv3 (in-place)
I0506 11:14:23.264484 21330 net.cpp:144] Setting up relu3
I0506 11:14:23.264489 21330 net.cpp:151] Top shape: 20 128 5 5 (64000)
I0506 11:14:23.264493 21330 net.cpp:159] Memory required for data: 2696080
I0506 11:14:23.264497 21330 layer_factory.hpp:77] Creating layer conv4
I0506 11:14:23.264505 21330 net.cpp:94] Creating Layer conv4
I0506 11:14:23.264508 21330 net.cpp:435] conv4 <- conv3
I0506 11:14:23.264513 21330 net.cpp:409] conv4 -> conv4
I0506 11:14:23.279369 21330 net.cpp:144] Setting up conv4
I0506 11:14:23.279392 21330 net.cpp:151] Top shape: 20 128 5 5 (64000)
I0506 11:14:23.279397 21330 net.cpp:159] Memory required for data: 2952080
I0506 11:14:23.279404 21330 layer_factory.hpp:77] Creating layer relu4
I0506 11:14:23.279412 21330 net.cpp:94] Creating Layer relu4
I0506 11:14:23.279417 21330 net.cpp:435] relu4 <- conv4
I0506 11:14:23.279422 21330 net.cpp:396] relu4 -> conv4 (in-place)
I0506 11:14:23.279429 21330 net.cpp:144] Setting up relu4
I0506 11:14:23.279433 21330 net.cpp:151] Top shape: 20 128 5 5 (64000)
I0506 11:14:23.279436 21330 net.cpp:159] Memory required for data: 3208080
I0506 11:14:23.279439 21330 layer_factory.hpp:77] Creating layer conv5
I0506 11:14:23.279448 21330 net.cpp:94] Creating Layer conv5
I0506 11:14:23.279451 21330 net.cpp:435] conv5 <- conv4
I0506 11:14:23.279456 21330 net.cpp:409] conv5 -> conv5
I0506 11:14:23.294446 21330 net.cpp:144] Setting up conv5
I0506 11:14:23.294471 21330 net.cpp:151] Top shape: 20 128 5 5 (64000)
I0506 11:14:23.294474 21330 net.cpp:159] Memory required for data: 3464080
I0506 11:14:23.294486 21330 layer_factory.hpp:77] Creating layer relu5
I0506 11:14:23.294494 21330 net.cpp:94] Creating Layer relu5
I0506 11:14:23.294498 21330 net.cpp:435] relu5 <- conv5
I0506 11:14:23.294504 21330 net.cpp:396] relu5 -> conv5 (in-place)
I0506 11:14:23.294512 21330 net.cpp:144] Setting up relu5
I0506 11:14:23.294517 21330 net.cpp:151] Top shape: 20 128 5 5 (64000)
I0506 11:14:23.294519 21330 net.cpp:159] Memory required for data: 3720080
I0506 11:14:23.294523 21330 layer_factory.hpp:77] Creating layer pool5
I0506 11:14:23.294528 21330 net.cpp:94] Creating Layer pool5
I0506 11:14:23.294531 21330 net.cpp:435] pool5 <- conv5
I0506 11:14:23.294536 21330 net.cpp:409] pool5 -> pool5
I0506 11:14:23.294584 21330 net.cpp:144] Setting up pool5
I0506 11:14:23.294591 21330 net.cpp:151] Top shape: 20 128 2 2 (10240)
I0506 11:14:23.294595 21330 net.cpp:159] Memory required for data: 3761040
I0506 11:14:23.294597 21330 layer_factory.hpp:77] Creating layer ip1
I0506 11:14:23.294605 21330 net.cpp:94] Creating Layer ip1
I0506 11:14:23.294608 21330 net.cpp:435] ip1 <- pool5
I0506 11:14:23.294613 21330 net.cpp:409] ip1 -> ip1
I0506 11:14:23.307803 21330 net.cpp:144] Setting up ip1
I0506 11:14:23.307824 21330 net.cpp:151] Top shape: 20 1024 (20480)
I0506 11:14:23.307828 21330 net.cpp:159] Memory required for data: 3842960
I0506 11:14:23.307835 21330 layer_factory.hpp:77] Creating layer ip2
I0506 11:14:23.307844 21330 net.cpp:94] Creating Layer ip2
I0506 11:14:23.307848 21330 net.cpp:435] ip2 <- ip1
I0506 11:14:23.307853 21330 net.cpp:409] ip2 -> ip2
I0506 11:14:23.321115 21330 net.cpp:144] Setting up ip2
I0506 11:14:23.321138 21330 net.cpp:151] Top shape: 20 512 (10240)
I0506 11:14:23.321142 21330 net.cpp:159] Memory required for data: 3883920
I0506 11:14:23.321151 21330 layer_factory.hpp:77] Creating layer ip3
I0506 11:14:23.321159 21330 net.cpp:94] Creating Layer ip3
I0506 11:14:23.321163 21330 net.cpp:435] ip3 <- ip2
I0506 11:14:23.321169 21330 net.cpp:409] ip3 -> ip3
I0506 11:14:23.322793 21330 net.cpp:144] Setting up ip3
I0506 11:14:23.322806 21330 net.cpp:151] Top shape: 20 50 (1000)
I0506 11:14:23.322810 21330 net.cpp:159] Memory required for data: 3887920
I0506 11:14:23.322816 21330 layer_factory.hpp:77] Creating layer loss
I0506 11:14:23.322825 21330 net.cpp:94] Creating Layer loss
I0506 11:14:23.322829 21330 net.cpp:435] loss <- ip3
I0506 11:14:23.322834 21330 net.cpp:435] loss <- label
I0506 11:14:23.322839 21330 net.cpp:409] loss -> loss
I0506 11:14:23.322846 21330 layer_factory.hpp:77] Creating layer loss
…
I0506 11:14:23.323385 21330 solver.cpp:181] Creating test net (#0) specified by net file: ./protocol/dis_50_100_dimension.protocol_distribution
I0506 11:14:23.323410 21330 net.cpp:323] The NetState phase (1) differed from the phase (0) specified by a rule in layer parameters
I0506 11:14:23.323501 21330 net.cpp:52] Initializing net from parameters: 
state {
  phase: TEST
}
layer {
  name: "intercept"
  type: "HDF5Data"
  top: "data"
  top: "label"
  include {
    phase: TEST
  }
  hdf5_data_param {
    source: "/home/purduethu/scratch/radon/d/deng106/CNNStatisticalModel/distributions/input/50_distributions_100_sample_size_test-distributions-path.txt"
    batch_size: 20
  }
}
layer {
  name: "conv1"
  type: "Convolution"
  bottom: "data"
  top: "conv1"
  param {
    lr_mult: 1
  }
  param {
    lr_mult: 2
  }
  convolution_param {
    num_output: 64
    pad: 2
    kernel_size: 5
    stride: 1
    weight_filler {
      type: "gaussian"
      std: 0.0001
    }
    bias_filler {
      type: "constant"
    }
  }
}
layer {
  name: "relu1"
  type: "ReLU"
  bottom: "conv1"
  top: "conv1"
}
layer {
  name: "conv2"
  type: "Convolution"
  bottom: "conv1"
  top: "conv2"
  param {
    lr_mult: 1
  }
  param {
    lr_mult: 2
  }
  convolution_param {
    num_output: 64
    pad: 2
    kernel_size: 5
    stride: 1
    weight_filler {
      type: "gaussian"
      std: 0.01
    }
    bias_filler {
      type: "constant"
    }
  }
}
layer {
  name: "relu2"
  type: "ReLU"
  bottom: "conv2"
  top: "conv2"
}
layer {
  name: "pool2"
  type: "Pooling"
  bottom: "conv2"
  top: "pool2"
  pooling_param {
    pool: MAX
    kernel_size: 3
    stride: 2
  }
}
layer {
  name: "conv3"
  type: "Convolution"
  bottom: "pool2"
  top: "conv3"
  param {
    lr_mult: 1
  }
  param {
    lr_mult: 2
  }
  convolution_param {
    num_output: 128
    pad: 2
    kernel_size: 5
    stride: 1
    weight_filler {
      type: "gaussian"
      std: 0.01
    }
    bias_filler {
      type: "constant"
    }
  }
}
layer {
  name: "relu3"
  type: "ReLU"
  bottom: "conv3"
  top: "conv3"
}
layer {
  name: "conv4"
  type: "Convolution"
  bottom: "conv3"
  top: "conv4"
  param {
    lr_mult: 1
  }
  param {
    lr_mult: 2
  }
  convolution_param {
    num_output: 128
    pad: 2
    kernel_size: 5
    stride: 1
    weight_filler {
      type: "gaussian"
      std: 0.01
    }
    bias_filler {
      type: "constant"
    }
  }
}
layer {
  name: "relu4"
  type: "ReLU"
  bottom: "conv4"
  top: "conv4"
}
layer {
  name: "conv5"
  type: "Convolution"
  bottom: "conv4"
  top: "conv5"
  param {
    lr_mult: 1
  }
  param {
    lr_mult: 2
  }
  convolution_param {
    num_output: 128
    pad: 2
    kernel_size: 5
    stride: 1
    weight_filler {
      type: "gaussian"
      std: 0.01
    }
    bias_filler {
      type: "constant"
    }
  }
}
layer {
  name: "relu5"
  type: "ReLU"
  bottom: "conv5"
  top: "conv5"
}
layer {
  name: "pool5"
  type: "Pooling"
  bottom: "conv5"
  top: "pool5"
  pooling_param {
    pool: AVE
    kernel_size: 3
    stride: 2
  }
}
layer {
  name: "ip1"
  type: "InnerProduct"
  bottom: "pool5"
  top: "ip1"
  param {
    lr_mult: 1
  }
  param {
    lr_mult: 2
  }
  inner_product_param {
    num_output: 1024
    weight_filler {
      type: "gaussian"
      std: 0.1
    }
    bias_filler {
      type: "constant"
    }
  }
}
layer {
  name: "ip2"
  type: "InnerProduct"
  bottom: "ip1"
  top: "ip2"
  param {
    lr_mult: 1
  }
  param {
    lr_mult: 2
  }
  inner_product_param {
    num_output: 512
    weight_filler {
      type: "gaussian"
      std: 0.1
    }
    bias_filler {
      type: "constant"
    }
  }
}
layer {
  name: "ip3"
  type: "InnerProduct"
  bottom: "ip2"
  top: "ip3"
  param {
    lr_mult: 1
  }
  param {
    lr_mult: 2
  }
  inner_product_param {
    num_output: 50
    weight_filler {
      type: "gaussian"
      std: 0.1
    }
    bias_filler {
      type: "constant"
    }
  }
}
layer {
  name: "accuracy"
  type: "Accuracy"
  bottom: "ip3"
  bottom: "label"
  top: "accuracy"
  include {
    phase: TEST
  }
}
layer {
  name: "loss"
  type: "SoftmaxWithLoss"
  bottom: "ip3"
  bottom: "label"
  top: "loss"
}
I0506 11:14:23.323567 21330 layer_factory.hpp:77] Creating layer intercept
I0506 11:14:23.323577 21330 net.cpp:94] Creating Layer intercept
I0506 11:14:23.323581 21330 net.cpp:409] intercept -> data
I0506 11:14:23.323588 21330 net.cpp:409] intercept -> label
I0506 11:14:23.323595 21330 hdf5_data_layer.cpp:79] Loading list of HDF5 filenames from: /home/purduethu/scratch/radon/d/deng106/CNNStatisticalModel/distributions/input/50_distributions_100_sample_size_test-distributions-path.txt
I0506 11:14:23.323613 21330 hdf5_data_layer.cpp:93] Number of HDF5 files: 1
I0506 11:14:23.364859 21330 net.cpp:144] Setting up intercept
I0506 11:14:23.364892 21330 net.cpp:151] Top shape: 20 1 10 10 (2000)
I0506 11:14:23.364897 21330 net.cpp:151] Top shape: 20 (20)
I0506 11:14:23.364912 21330 net.cpp:159] Memory required for data: 8080
I0506 11:14:23.364917 21330 layer_factory.hpp:77] Creating layer label_intercept_1_split
I0506 11:14:23.364936 21330 net.cpp:94] Creating Layer label_intercept_1_split
I0506 11:14:23.364941 21330 net.cpp:435] label_intercept_1_split <- label
I0506 11:14:23.364946 21330 net.cpp:409] label_intercept_1_split -> label_intercept_1_split_0
I0506 11:14:23.364955 21330 net.cpp:409] label_intercept_1_split -> label_intercept_1_split_1
I0506 11:14:23.365000 21330 net.cpp:144] Setting up label_intercept_1_split
I0506 11:14:23.365006 21330 net.cpp:151] Top shape: 20 (20)
I0506 11:14:23.365010 21330 net.cpp:151] Top shape: 20 (20)
I0506 11:14:23.365012 21330 net.cpp:159] Memory required for data: 8240
I0506 11:14:23.365016 21330 layer_factory.hpp:77] Creating layer conv1
I0506 11:14:23.365026 21330 net.cpp:94] Creating Layer conv1
I0506 11:14:23.365031 21330 net.cpp:435] conv1 <- data
I0506 11:14:23.365036 21330 net.cpp:409] conv1 -> conv1
I0506 11:14:23.365926 21330 net.cpp:144] Setting up conv1
I0506 11:14:23.365939 21330 net.cpp:151] Top shape: 20 64 10 10 (128000)
I0506 11:14:23.365943 21330 net.cpp:159] Memory required for data: 520240
I0506 11:14:23.365952 21330 layer_factory.hpp:77] Creating layer relu1
I0506 11:14:23.365958 21330 net.cpp:94] Creating Layer relu1
I0506 11:14:23.365962 21330 net.cpp:435] relu1 <- conv1
I0506 11:14:23.365967 21330 net.cpp:396] relu1 -> conv1 (in-place)
I0506 11:14:23.365973 21330 net.cpp:144] Setting up relu1
I0506 11:14:23.365978 21330 net.cpp:151] Top shape: 20 64 10 10 (128000)
I0506 11:14:23.365988 21330 net.cpp:159] Memory required for data: 1032240
I0506 11:14:23.365991 21330 layer_factory.hpp:77] Creating layer conv2
I0506 11:14:23.365998 21330 net.cpp:94] Creating Layer conv2
I0506 11:14:23.366003 21330 net.cpp:435] conv2 <- conv1
I0506 11:14:23.366008 21330 net.cpp:409] conv2 -> conv2
I0506 11:14:23.370165 21330 net.cpp:144] Setting up conv2
I0506 11:14:23.370182 21330 net.cpp:151] Top shape: 20 64 10 10 (128000)
I0506 11:14:23.370185 21330 net.cpp:159] Memory required for data: 1544240
I0506 11:14:23.370194 21330 layer_factory.hpp:77] Creating layer relu2
I0506 11:14:23.370200 21330 net.cpp:94] Creating Layer relu2
I0506 11:14:23.370204 21330 net.cpp:435] relu2 <- conv2
I0506 11:14:23.370208 21330 net.cpp:396] relu2 -> conv2 (in-place)
I0506 11:14:23.370216 21330 net.cpp:144] Setting up relu2
I0506 11:14:23.370220 21330 net.cpp:151] Top shape: 20 64 10 10 (128000)
I0506 11:14:23.370223 21330 net.cpp:159] Memory required for data: 2056240
I0506 11:14:23.370226 21330 layer_factory.hpp:77] Creating layer pool2
I0506 11:14:23.370234 21330 net.cpp:94] Creating Layer pool2
I0506 11:14:23.370236 21330 net.cpp:435] pool2 <- conv2
I0506 11:14:23.370241 21330 net.cpp:409] pool2 -> pool2
I0506 11:14:23.370307 21330 net.cpp:144] Setting up pool2
I0506 11:14:23.370314 21330 net.cpp:151] Top shape: 20 64 5 5 (32000)
I0506 11:14:23.370317 21330 net.cpp:159] Memory required for data: 2184240
I0506 11:14:23.370321 21330 layer_factory.hpp:77] Creating layer conv3
I0506 11:14:23.370329 21330 net.cpp:94] Creating Layer conv3
I0506 11:14:23.370333 21330 net.cpp:435] conv3 <- pool2
I0506 11:14:23.370339 21330 net.cpp:409] conv3 -> conv3
I0506 11:14:23.376370 21330 net.cpp:144] Setting up conv3
I0506 11:14:23.376384 21330 net.cpp:151] Top shape: 20 128 5 5 (64000)
I0506 11:14:23.376387 21330 net.cpp:159] Memory required for data: 2440240
I0506 11:14:23.376395 21330 layer_factory.hpp:77] Creating layer relu3
I0506 11:14:23.376402 21330 net.cpp:94] Creating Layer relu3
I0506 11:14:23.376405 21330 net.cpp:435] relu3 <- conv3
I0506 11:14:23.376410 21330 net.cpp:396] relu3 -> conv3 (in-place)
I0506 11:14:23.376417 21330 net.cpp:144] Setting up relu3
I0506 11:14:23.376421 21330 net.cpp:151] Top shape: 20 128 5 5 (64000)
I0506 11:14:23.376425 21330 net.cpp:159] Memory required for data: 2696240
I0506 11:14:23.376427 21330 layer_factory.hpp:77] Creating layer conv4
I0506 11:14:23.376437 21330 net.cpp:94] Creating Layer conv4
I0506 11:14:23.376441 21330 net.cpp:435] conv4 <- conv3
I0506 11:14:23.376446 21330 net.cpp:409] conv4 -> conv4
I0506 11:14:23.389190 21330 net.cpp:144] Setting up conv4
I0506 11:14:23.389212 21330 net.cpp:151] Top shape: 20 128 5 5 (64000)
I0506 11:14:23.389216 21330 net.cpp:159] Memory required for data: 2952240
I0506 11:14:23.389223 21330 layer_factory.hpp:77] Creating layer relu4
I0506 11:14:23.389230 21330 net.cpp:94] Creating Layer relu4
I0506 11:14:23.389235 21330 net.cpp:435] relu4 <- conv4
I0506 11:14:23.389241 21330 net.cpp:396] relu4 -> conv4 (in-place)
I0506 11:14:23.389248 21330 net.cpp:144] Setting up relu4
I0506 11:14:23.389253 21330 net.cpp:151] Top shape: 20 128 5 5 (64000)
I0506 11:14:23.389256 21330 net.cpp:159] Memory required for data: 3208240
I0506 11:14:23.389259 21330 layer_factory.hpp:77] Creating layer conv5
I0506 11:14:23.389268 21330 net.cpp:94] Creating Layer conv5
I0506 11:14:23.389272 21330 net.cpp:435] conv5 <- conv4
I0506 11:14:23.389276 21330 net.cpp:409] conv5 -> conv5
I0506 11:14:23.401829 21330 net.cpp:144] Setting up conv5
I0506 11:14:23.401851 21330 net.cpp:151] Top shape: 20 128 5 5 (64000)
I0506 11:14:23.401855 21330 net.cpp:159] Memory required for data: 3464240
I0506 11:14:23.401866 21330 layer_factory.hpp:77] Creating layer relu5
I0506 11:14:23.401875 21330 net.cpp:94] Creating Layer relu5
I0506 11:14:23.401878 21330 net.cpp:435] relu5 <- conv5
I0506 11:14:23.401885 21330 net.cpp:396] relu5 -> conv5 (in-place)
I0506 11:14:23.401892 21330 net.cpp:144] Setting up relu5
I0506 11:14:23.401897 21330 net.cpp:151] Top shape: 20 128 5 5 (64000)
I0506 11:14:23.401906 21330 net.cpp:159] Memory required for data: 3720240
I0506 11:14:23.401909 21330 layer_factory.hpp:77] Creating layer pool5
I0506 11:14:23.401916 21330 net.cpp:94] Creating Layer pool5
I0506 11:14:23.401919 21330 net.cpp:435] pool5 <- conv5
I0506 11:14:23.401924 21330 net.cpp:409] pool5 -> pool5
I0506 11:14:23.401973 21330 net.cpp:144] Setting up pool5
I0506 11:14:23.401979 21330 net.cpp:151] Top shape: 20 128 2 2 (10240)
I0506 11:14:23.401983 21330 net.cpp:159] Memory required for data: 3761200
I0506 11:14:23.401986 21330 layer_factory.hpp:77] Creating layer ip1
I0506 11:14:23.401994 21330 net.cpp:94] Creating Layer ip1
I0506 11:14:23.401998 21330 net.cpp:435] ip1 <- pool5
I0506 11:14:23.402003 21330 net.cpp:409] ip1 -> ip1
I0506 11:14:23.415231 21330 net.cpp:144] Setting up ip1
I0506 11:14:23.415253 21330 net.cpp:151] Top shape: 20 1024 (20480)
I0506 11:14:23.415257 21330 net.cpp:159] Memory required for data: 3843120
I0506 11:14:23.415264 21330 layer_factory.hpp:77] Creating layer ip2
I0506 11:14:23.415274 21330 net.cpp:94] Creating Layer ip2
I0506 11:14:23.415278 21330 net.cpp:435] ip2 <- ip1
I0506 11:14:23.415284 21330 net.cpp:409] ip2 -> ip2
I0506 11:14:23.428513 21330 net.cpp:144] Setting up ip2
I0506 11:14:23.428539 21330 net.cpp:151] Top shape: 20 512 (10240)
I0506 11:14:23.428542 21330 net.cpp:159] Memory required for data: 3884080
I0506 11:14:23.428552 21330 layer_factory.hpp:77] Creating layer ip3
I0506 11:14:23.428578 21330 net.cpp:94] Creating Layer ip3
I0506 11:14:23.428582 21330 net.cpp:435] ip3 <- ip2
I0506 11:14:23.428588 21330 net.cpp:409] ip3 -> ip3
I0506 11:14:23.429358 21330 net.cpp:144] Setting up ip3
I0506 11:14:23.429368 21330 net.cpp:151] Top shape: 20 50 (1000)
I0506 11:14:23.429370 21330 net.cpp:159] Memory required for data: 3888080
I0506 11:14:23.429375 21330 layer_factory.hpp:77] Creating layer ip3_ip3_0_split
I0506 11:14:23.429381 21330 net.cpp:94] Creating Layer ip3_ip3_0_split
I0506 11:14:23.429384 21330 net.cpp:435] ip3_ip3_0_split <- ip3
I0506 11:14:23.429389 21330 net.cpp:409] ip3_ip3_0_split -> ip3_ip3_0_split_0
I0506 11:14:23.429394 21330 net.cpp:409] ip3_ip3_0_split -> ip3_ip3_0_split_1
I0506 11:14:23.429440 21330 net.cpp:144] Setting up ip3_ip3_0_split
I0506 11:14:23.429446 21330 net.cpp:151] Top shape: 20 50 (1000)
I0506 11:14:23.429450 21330 net.cpp:151] Top shape: 20 50 (1000)
I0506 11:14:23.429453 21330 net.cpp:159] Memory required for data: 3896080
I0506 11:14:23.429456 21330 layer_factory.hpp:77] Creating layer accuracy
I0506 11:14:23.429461 21330 net.cpp:94] Creating Layer accuracy
I0506 11:14:23.429464 21330 net.cpp:435] accuracy <- ip3_ip3_0_split_0
I0506 11:14:23.429468 21330 net.cpp:435] accuracy <- label_intercept_1_split_0
I0506 11:14:23.429473 21330 net.cpp:409] accuracy -> accuracy
…
