…
I0505 00:13:15.234521  1084 net.cpp:323] The NetState phase (0) differed from the phase (1) specified by a rule in layer intercept
I0505 00:13:15.234536  1084 net.cpp:323] The NetState phase (0) differed from the phase (1) specified by a rule in layer loss
I0505 00:13:15.234616  1084 net.cpp:52] Initializing net from parameters: 
state {
  phase: TRAIN
}
layer {
  name: "parameters"
  type: "HDF5Data"
  top: "data"
  top: "label"
  include {
    phase: TRAIN
  }
  hdf5_data_param {
    source: "/home/purduethu/scratch/radon/d/deng106/CNNStatisticalModel/distributions/input/20_distributions_100_sample_size_train-parameters-path.txt"
    batch_size: 20
  }
}
layer {
  name: "conv1"
  type: "Convolution"
  bottom: "data"
  top: "conv1"
  param {
    lr_mult: 1
  }
  param {
    lr_mult: 2
  }
  convolution_param {
    num_output: 64
    pad: 2
    kernel_size: 5
    stride: 1
    weight_filler {
      type: "gaussian"
      std: 0.0001
    }
    bias_filler {
      type: "constant"
    }
  }
}
layer {
  name: "relu1"
  type: "ReLU"
  bottom: "conv1"
  top: "conv1"
}
layer {
  name: "pool1"
  type: "Pooling"
  bottom: "conv1"
  top: "pool1"
  pooling_param {
    pool: MAX
    kernel_size: 3
    stride: 2
  }
}
layer {
  name: "conv2"
  type: "Convolution"
  bottom: "pool1"
  top: "conv2"
  param {
    lr_mult: 1
  }
  param {
    lr_mult: 2
  }
  convolution_param {
    num_output: 128
    pad: 2
    kernel_size: 5
    stride: 1
    weight_filler {
      type: "gaussian"
      std: 0.01
    }
    bias_filler {
      type: "constant"
    }
  }
}
layer {
  name: "relu2"
  type: "ReLU"
  bottom: "conv2"
  top: "conv2"
}
layer {
  name: "conv3"
  type: "Convolution"
  bottom: "conv2"
  top: "conv3"
  param {
    lr_mult: 1
  }
  param {
    lr_mult: 2
  }
  convolution_param {
    num_output: 128
    pad: 2
    kernel_size: 5
    stride: 1
    weight_filler {
      type: "gaussian"
      std: 0.01
    }
    bias_filler {
      type: "constant"
    }
  }
}
layer {
  name: "relu3"
  type: "ReLU"
  bottom: "conv3"
  top: "conv3"
}
layer {
  name: "pool3"
  type: "Pooling"
  bottom: "conv3"
  top: "pool3"
  pooling_param {
    pool: AVE
    kernel_size: 3
    stride: 2
  }
}
layer {
  name: "ip1"
  type: "InnerProduct"
  bottom: "pool3"
  top: "ip1"
  param {
    lr_mult: 1
  }
  param {
    lr_mult: 2
  }
  inner_product_param {
    num_output: 512
    weight_filler {
      type: "gaussian"
      std: 0.1
    }
    bias_filler {
      type: "constant"
    }
  }
}
layer {
  name: "ip2"
  type: "InnerProduct"
  bottom: "ip1"
  top: "ip2"
  param {
    lr_mult: 1
  }
  param {
    lr_mult: 2
  }
  inner_product_param {
    num_output: 256
    weight_filler {
      type: "gaussian"
      std: 0.1
    }
    bias_filler {
      type: "constant"
    }
  }
}
layer {
  name: "ip3"
  type: "InnerProduct"
  bottom: "ip2"
  top: "ip3"
  param {
    lr_mult: 1
  }
  param {
    lr_mult: 2
  }
  inner_product_param {
    num_output: 1
    weight_filler {
      type: "gaussian"
      std: 0.1
    }
    bias_filler {
      type: "constant"
    }
  }
}
layer {
  name: "loss"
  type: "HuberLoss"
  bottom: "ip3"
  bottom: "label"
  top: "loss"
  include {
    phase: TRAIN
  }
}
I0505 00:13:15.234679  1084 layer_factory.hpp:77] Creating layer parameters
I0505 00:13:15.234694  1084 net.cpp:94] Creating Layer parameters
I0505 00:13:15.234707  1084 net.cpp:409] parameters -> data
I0505 00:13:15.234729  1084 net.cpp:409] parameters -> label
I0505 00:13:15.234738  1084 hdf5_data_layer.cpp:79] Loading list of HDF5 filenames from: /home/purduethu/scratch/radon/d/deng106/CNNStatisticalModel/distributions/input/20_distributions_100_sample_size_train-parameters-path.txt
I0505 00:13:15.234760  1084 hdf5_data_layer.cpp:93] Number of HDF5 files: 1
I0505 00:13:15.235244  1084 hdf5.cpp:32] Datatype class: H5T_FLOAT
I0505 00:13:15.303407  1084 net.cpp:144] Setting up parameters
I0505 00:13:15.303439  1084 net.cpp:151] Top shape: 20 1 10 10 (2000)
I0505 00:13:15.303445  1084 net.cpp:151] Top shape: 20 (20)
I0505 00:13:15.303449  1084 net.cpp:159] Memory required for data: 8080
I0505 00:13:15.303457  1084 layer_factory.hpp:77] Creating layer conv1
I0505 00:13:15.303477  1084 net.cpp:94] Creating Layer conv1
I0505 00:13:15.303481  1084 net.cpp:435] conv1 <- data
I0505 00:13:15.303493  1084 net.cpp:409] conv1 -> conv1
I0505 00:13:15.307205  1084 net.cpp:144] Setting up conv1
I0505 00:13:15.307221  1084 net.cpp:151] Top shape: 20 64 10 10 (128000)
I0505 00:13:15.307226  1084 net.cpp:159] Memory required for data: 520080
I0505 00:13:15.307238  1084 layer_factory.hpp:77] Creating layer relu1
I0505 00:13:15.307246  1084 net.cpp:94] Creating Layer relu1
I0505 00:13:15.307250  1084 net.cpp:435] relu1 <- conv1
I0505 00:13:15.307255  1084 net.cpp:396] relu1 -> conv1 (in-place)
I0505 00:13:15.307266  1084 net.cpp:144] Setting up relu1
I0505 00:13:15.307271  1084 net.cpp:151] Top shape: 20 64 10 10 (128000)
I0505 00:13:15.307274  1084 net.cpp:159] Memory required for data: 1032080
I0505 00:13:15.307278  1084 layer_factory.hpp:77] Creating layer pool1
I0505 00:13:15.307286  1084 net.cpp:94] Creating Layer pool1
I0505 00:13:15.307288  1084 net.cpp:435] pool1 <- conv1
I0505 00:13:15.307293  1084 net.cpp:409] pool1 -> pool1
I0505 00:13:15.307341  1084 net.cpp:144] Setting up pool1
I0505 00:13:15.307348  1084 net.cpp:151] Top shape: 20 64 5 5 (32000)
I0505 00:13:15.307351  1084 net.cpp:159] Memory required for data: 1160080
I0505 00:13:15.307355  1084 layer_factory.hpp:77] Creating layer conv2
I0505 00:13:15.307364  1084 net.cpp:94] Creating Layer conv2
I0505 00:13:15.307368  1084 net.cpp:435] conv2 <- pool1
I0505 00:13:15.307373  1084 net.cpp:409] conv2 -> conv2
I0505 00:13:15.315475  1084 net.cpp:144] Setting up conv2
I0505 00:13:15.315493  1084 net.cpp:151] Top shape: 20 128 5 5 (64000)
I0505 00:13:15.315498  1084 net.cpp:159] Memory required for data: 1416080
I0505 00:13:15.315506  1084 layer_factory.hpp:77] Creating layer relu2
I0505 00:13:15.315513  1084 net.cpp:94] Creating Layer relu2
I0505 00:13:15.315517  1084 net.cpp:435] relu2 <- conv2
I0505 00:13:15.315522  1084 net.cpp:396] relu2 -> conv2 (in-place)
I0505 00:13:15.315529  1084 net.cpp:144] Setting up relu2
I0505 00:13:15.315534  1084 net.cpp:151] Top shape: 20 128 5 5 (64000)
I0505 00:13:15.315537  1084 net.cpp:159] Memory required for data: 1672080
I0505 00:13:15.315541  1084 layer_factory.hpp:77] Creating layer conv3
I0505 00:13:15.315548  1084 net.cpp:94] Creating Layer conv3
I0505 00:13:15.315552  1084 net.cpp:435] conv3 <- conv2
I0505 00:13:15.315557  1084 net.cpp:409] conv3 -> conv3
I0505 00:13:15.330312  1084 net.cpp:144] Setting up conv3
I0505 00:13:15.330341  1084 net.cpp:151] Top shape: 20 128 5 5 (64000)
I0505 00:13:15.330346  1084 net.cpp:159] Memory required for data: 1928080
I0505 00:13:15.330358  1084 layer_factory.hpp:77] Creating layer relu3
I0505 00:13:15.330366  1084 net.cpp:94] Creating Layer relu3
I0505 00:13:15.330379  1084 net.cpp:435] relu3 <- conv3
I0505 00:13:15.330384  1084 net.cpp:396] relu3 -> conv3 (in-place)
I0505 00:13:15.330394  1084 net.cpp:144] Setting up relu3
I0505 00:13:15.330399  1084 net.cpp:151] Top shape: 20 128 5 5 (64000)
I0505 00:13:15.330402  1084 net.cpp:159] Memory required for data: 2184080
I0505 00:13:15.330405  1084 layer_factory.hpp:77] Creating layer pool3
I0505 00:13:15.330412  1084 net.cpp:94] Creating Layer pool3
I0505 00:13:15.330416  1084 net.cpp:435] pool3 <- conv3
I0505 00:13:15.330428  1084 net.cpp:409] pool3 -> pool3
I0505 00:13:15.330469  1084 net.cpp:144] Setting up pool3
I0505 00:13:15.330476  1084 net.cpp:151] Top shape: 20 128 2 2 (10240)
I0505 00:13:15.330480  1084 net.cpp:159] Memory required for data: 2225040
I0505 00:13:15.330483  1084 layer_factory.hpp:77] Creating layer ip1
I0505 00:13:15.330493  1084 net.cpp:94] Creating Layer ip1
I0505 00:13:15.330497  1084 net.cpp:435] ip1 <- pool3
I0505 00:13:15.330502  1084 net.cpp:409] ip1 -> ip1
I0505 00:13:15.338296  1084 net.cpp:144] Setting up ip1
I0505 00:13:15.338320  1084 net.cpp:151] Top shape: 20 512 (10240)
I0505 00:13:15.338323  1084 net.cpp:159] Memory required for data: 2266000
I0505 00:13:15.338330  1084 layer_factory.hpp:77] Creating layer ip2
I0505 00:13:15.338340  1084 net.cpp:94] Creating Layer ip2
I0505 00:13:15.338343  1084 net.cpp:435] ip2 <- ip1
I0505 00:13:15.338349  1084 net.cpp:409] ip2 -> ip2
I0505 00:13:15.341629  1084 net.cpp:144] Setting up ip2
I0505 00:13:15.341639  1084 net.cpp:151] Top shape: 20 256 (5120)
I0505 00:13:15.341642  1084 net.cpp:159] Memory required for data: 2286480
I0505 00:13:15.341650  1084 layer_factory.hpp:77] Creating layer ip3
I0505 00:13:15.341657  1084 net.cpp:94] Creating Layer ip3
I0505 00:13:15.341661  1084 net.cpp:435] ip3 <- ip2
I0505 00:13:15.341665  1084 net.cpp:409] ip3 -> ip3
I0505 00:13:15.341732  1084 net.cpp:144] Setting up ip3
I0505 00:13:15.341737  1084 net.cpp:151] Top shape: 20 1 (20)
I0505 00:13:15.341742  1084 net.cpp:159] Memory required for data: 2286560
I0505 00:13:15.341747  1084 layer_factory.hpp:77] Creating layer loss
I0505 00:13:15.341758  1084 net.cpp:94] Creating Layer loss
I0505 00:13:15.341763  1084 net.cpp:435] loss <- ip3
I0505 00:13:15.341765  1084 net.cpp:435] loss <- label
I0505 00:13:15.341771  1084 net.cpp:409] loss -> loss
I0505 00:13:15.341807  1084 net.cpp:144] Setting up loss
…
