…
I0502 14:36:33.437168  7510 net.cpp:323] The NetState phase (0) differed from the phase (1) specified by a rule in layer intercept
I0502 14:36:33.437185  7510 net.cpp:323] The NetState phase (0) differed from the phase (1) specified by a rule in layer loss
I0502 14:36:33.437274  7510 net.cpp:52] Initializing net from parameters: 
state {
  phase: TRAIN
}
layer {
  name: "parameters"
  type: "HDF5Data"
  top: "data"
  top: "label"
  include {
    phase: TRAIN
  }
  hdf5_data_param {
    source: "/home/purduethu/scratch/radon/d/deng106/CNNStatisticalModel/distributions/input/50_distributions_100_sample_size_train-parameters-path.txt"
    batch_size: 20
  }
}
layer {
  name: "conv1"
  type: "Convolution"
  bottom: "data"
  top: "conv1"
  param {
    lr_mult: 1
  }
  param {
    lr_mult: 2
  }
  convolution_param {
    num_output: 64
    pad: 2
    kernel_size: 5
    stride: 1
    weight_filler {
      type: "gaussian"
      std: 0.0001
    }
    bias_filler {
      type: "constant"
    }
  }
}
layer {
  name: "relu1"
  type: "ReLU"
  bottom: "conv1"
  top: "conv1"
}
layer {
  name: "conv2"
  type: "Convolution"
  bottom: "conv1"
  top: "conv2"
  param {
    lr_mult: 1
  }
  param {
    lr_mult: 2
  }
  convolution_param {
    num_output: 64
    pad: 2
    kernel_size: 5
    stride: 1
    weight_filler {
      type: "gaussian"
      std: 0.01
    }
    bias_filler {
      type: "constant"
    }
  }
}
layer {
  name: "relu2"
  type: "ReLU"
  bottom: "conv2"
  top: "conv2"
}
layer {
  name: "pool2"
  type: "Pooling"
  bottom: "conv2"
  top: "pool2"
  pooling_param {
    pool: MAX
    kernel_size: 3
    stride: 2
  }
}
layer {
  name: "conv3"
  type: "Convolution"
  bottom: "pool2"
  top: "conv3"
  param {
    lr_mult: 1
  }
  param {
    lr_mult: 2
  }
  convolution_param {
    num_output: 64
    pad: 2
    kernel_size: 5
    stride: 1
    weight_filler {
      type: "gaussian"
      std: 0.01
    }
    bias_filler {
      type: "constant"
    }
  }
}
layer {
  name: "relu3"
  type: "ReLU"
  bottom: "conv3"
  top: "conv3"
}
layer {
  name: "conv4"
  type: "Convolution"
  bottom: "conv3"
  top: "conv4"
  param {
    lr_mult: 1
  }
  param {
    lr_mult: 2
  }
  convolution_param {
    num_output: 64
    pad: 2
    kernel_size: 5
    stride: 1
    weight_filler {
      type: "gaussian"
      std: 0.01
    }
    bias_filler {
      type: "constant"
    }
  }
}
layer {
  name: "relu4"
  type: "ReLU"
  bottom: "conv4"
  top: "conv4"
}
layer {
  name: "conv5"
  type: "Convolution"
  bottom: "conv4"
  top: "conv5"
  param {
    lr_mult: 1
  }
  param {
    lr_mult: 2
  }
  convolution_param {
    num_output: 64
    pad: 2
    kernel_size: 5
    stride: 1
    weight_filler {
      type: "gaussian"
      std: 0.01
    }
    bias_filler {
      type: "constant"
    }
  }
}
layer {
  name: "relu5"
  type: "ReLU"
  bottom: "conv5"
  top: "conv5"
}
layer {
  name: "pool5"
  type: "Pooling"
  bottom: "conv5"
  top: "pool5"
  pooling_param {
    pool: AVE
    kernel_size: 3
    stride: 2
  }
}
layer {
  name: "ip1"
  type: "InnerProduct"
  bottom: "pool5"
  top: "ip1"
  param {
    lr_mult: 1
  }
  param {
    lr_mult: 2
  }
  inner_product_param {
    num_output: 64
    weight_filler {
      type: "gaussian"
      std: 0.1
    }
    bias_filler {
      type: "constant"
    }
  }
}
layer {
  name: "ip2"
  type: "InnerProduct"
  bottom: "ip1"
  top: "ip2"
  param {
    lr_mult: 1
  }
  param {
    lr_mult: 2
  }
  inner_product_param {
    num_output: 64
    weight_filler {
      type: "gaussian"
      std: 0.1
    }
    bias_filler {
      type: "constant"
    }
  }
}
layer {
  name: "ip3"
  type: "InnerProduct"
  bottom: "ip2"
  top: "ip3"
  param {
    lr_mult: 1
  }
  param {
    lr_mult: 2
  }
  inner_product_param {
    num_output: 1
    weight_filler {
      type: "gaussian"
      std: 0.1
    }
    bias_filler {
      type: "constant"
    }
  }
}
layer {
  name: "loss"
  type: "HuberLoss"
  bottom: "ip3"
  bottom: "label"
  top: "loss"
  include {
    phase: TRAIN
  }
}
I0502 14:36:33.437350  7510 layer_factory.hpp:77] Creating layer parameters
I0502 14:36:33.437364  7510 net.cpp:94] Creating Layer parameters
I0502 14:36:33.437371  7510 net.cpp:409] parameters -> data
I0502 14:36:33.437389  7510 net.cpp:409] parameters -> label
I0502 14:36:33.437399  7510 hdf5_data_layer.cpp:79] Loading list of HDF5 filenames from: /home/purduethu/scratch/radon/d/deng106/CNNStatisticalModel/distributions/input/50_distributions_100_sample_size_train-parameters-path.txt
I0502 14:36:33.437422  7510 hdf5_data_layer.cpp:93] Number of HDF5 files: 1
I0502 14:36:33.437883  7510 hdf5.cpp:32] Datatype class: H5T_FLOAT
I0502 14:36:33.606667  7510 net.cpp:144] Setting up parameters
I0502 14:36:33.606701  7510 net.cpp:151] Top shape: 20 1 10 10 (2000)
I0502 14:36:33.606708  7510 net.cpp:151] Top shape: 20 (20)
I0502 14:36:33.606711  7510 net.cpp:159] Memory required for data: 8080
I0502 14:36:33.606719  7510 layer_factory.hpp:77] Creating layer conv1
I0502 14:36:33.606745  7510 net.cpp:94] Creating Layer conv1
I0502 14:36:33.606750  7510 net.cpp:435] conv1 <- data
I0502 14:36:33.606762  7510 net.cpp:409] conv1 -> conv1
I0502 14:36:33.612639  7510 net.cpp:144] Setting up conv1
I0502 14:36:33.612689  7510 net.cpp:151] Top shape: 20 64 10 10 (128000)
I0502 14:36:33.612701  7510 net.cpp:159] Memory required for data: 520080
I0502 14:36:33.612731  7510 layer_factory.hpp:77] Creating layer relu1
I0502 14:36:33.612752  7510 net.cpp:94] Creating Layer relu1
I0502 14:36:33.612763  7510 net.cpp:435] relu1 <- conv1
I0502 14:36:33.612777  7510 net.cpp:396] relu1 -> conv1 (in-place)
I0502 14:36:33.612814  7510 net.cpp:144] Setting up relu1
I0502 14:36:33.612829  7510 net.cpp:151] Top shape: 20 64 10 10 (128000)
I0502 14:36:33.612839  7510 net.cpp:159] Memory required for data: 1032080
I0502 14:36:33.612848  7510 layer_factory.hpp:77] Creating layer conv2
I0502 14:36:33.612870  7510 net.cpp:94] Creating Layer conv2
I0502 14:36:33.612881  7510 net.cpp:435] conv2 <- conv1
I0502 14:36:33.612895  7510 net.cpp:409] conv2 -> conv2
I0502 14:36:33.625646  7510 net.cpp:144] Setting up conv2
I0502 14:36:33.625692  7510 net.cpp:151] Top shape: 20 64 10 10 (128000)
I0502 14:36:33.625704  7510 net.cpp:159] Memory required for data: 1544080
I0502 14:36:33.625727  7510 layer_factory.hpp:77] Creating layer relu2
I0502 14:36:33.625746  7510 net.cpp:94] Creating Layer relu2
I0502 14:36:33.625757  7510 net.cpp:435] relu2 <- conv2
I0502 14:36:33.625771  7510 net.cpp:396] relu2 -> conv2 (in-place)
I0502 14:36:33.625790  7510 net.cpp:144] Setting up relu2
I0502 14:36:33.625802  7510 net.cpp:151] Top shape: 20 64 10 10 (128000)
I0502 14:36:33.625810  7510 net.cpp:159] Memory required for data: 2056080
I0502 14:36:33.625819  7510 layer_factory.hpp:77] Creating layer pool2
I0502 14:36:33.625835  7510 net.cpp:94] Creating Layer pool2
I0502 14:36:33.625855  7510 net.cpp:435] pool2 <- conv2
I0502 14:36:33.625869  7510 net.cpp:409] pool2 -> pool2
I0502 14:36:33.625974  7510 net.cpp:144] Setting up pool2
I0502 14:36:33.625993  7510 net.cpp:151] Top shape: 20 64 5 5 (32000)
I0502 14:36:33.626000  7510 net.cpp:159] Memory required for data: 2184080
I0502 14:36:33.626009  7510 layer_factory.hpp:77] Creating layer conv3
I0502 14:36:33.626029  7510 net.cpp:94] Creating Layer conv3
I0502 14:36:33.626039  7510 net.cpp:435] conv3 <- pool2
I0502 14:36:33.626051  7510 net.cpp:409] conv3 -> conv3
I0502 14:36:33.636340  7510 net.cpp:144] Setting up conv3
I0502 14:36:33.636376  7510 net.cpp:151] Top shape: 20 64 5 5 (32000)
I0502 14:36:33.636387  7510 net.cpp:159] Memory required for data: 2312080
I0502 14:36:33.636407  7510 layer_factory.hpp:77] Creating layer relu3
I0502 14:36:33.636421  7510 net.cpp:94] Creating Layer relu3
I0502 14:36:33.636430  7510 net.cpp:435] relu3 <- conv3
I0502 14:36:33.636442  7510 net.cpp:396] relu3 -> conv3 (in-place)
I0502 14:36:33.636458  7510 net.cpp:144] Setting up relu3
I0502 14:36:33.636471  7510 net.cpp:151] Top shape: 20 64 5 5 (32000)
I0502 14:36:33.636478  7510 net.cpp:159] Memory required for data: 2440080
I0502 14:36:33.636487  7510 layer_factory.hpp:77] Creating layer conv4
I0502 14:36:33.636507  7510 net.cpp:94] Creating Layer conv4
I0502 14:36:33.636514  7510 net.cpp:435] conv4 <- conv3
I0502 14:36:33.636526  7510 net.cpp:409] conv4 -> conv4
I0502 14:36:33.645334  7510 net.cpp:144] Setting up conv4
I0502 14:36:33.645370  7510 net.cpp:151] Top shape: 20 64 5 5 (32000)
I0502 14:36:33.645378  7510 net.cpp:159] Memory required for data: 2568080
I0502 14:36:33.645393  7510 layer_factory.hpp:77] Creating layer relu4
I0502 14:36:33.645407  7510 net.cpp:94] Creating Layer relu4
I0502 14:36:33.645416  7510 net.cpp:435] relu4 <- conv4
I0502 14:36:33.645427  7510 net.cpp:396] relu4 -> conv4 (in-place)
I0502 14:36:33.645444  7510 net.cpp:144] Setting up relu4
I0502 14:36:33.645454  7510 net.cpp:151] Top shape: 20 64 5 5 (32000)
I0502 14:36:33.645462  7510 net.cpp:159] Memory required for data: 2696080
I0502 14:36:33.645469  7510 layer_factory.hpp:77] Creating layer conv5
I0502 14:36:33.645486  7510 net.cpp:94] Creating Layer conv5
I0502 14:36:33.645494  7510 net.cpp:435] conv5 <- conv4
I0502 14:36:33.645505  7510 net.cpp:409] conv5 -> conv5
I0502 14:36:33.654742  7510 net.cpp:144] Setting up conv5
I0502 14:36:33.654778  7510 net.cpp:151] Top shape: 20 64 5 5 (32000)
I0502 14:36:33.654788  7510 net.cpp:159] Memory required for data: 2824080
I0502 14:36:33.654808  7510 layer_factory.hpp:77] Creating layer relu5
I0502 14:36:33.654822  7510 net.cpp:94] Creating Layer relu5
I0502 14:36:33.654831  7510 net.cpp:435] relu5 <- conv5
I0502 14:36:33.654841  7510 net.cpp:396] relu5 -> conv5 (in-place)
I0502 14:36:33.654857  7510 net.cpp:144] Setting up relu5
I0502 14:36:33.654868  7510 net.cpp:151] Top shape: 20 64 5 5 (32000)
I0502 14:36:33.654875  7510 net.cpp:159] Memory required for data: 2952080
I0502 14:36:33.654882  7510 layer_factory.hpp:77] Creating layer pool5
I0502 14:36:33.654894  7510 net.cpp:94] Creating Layer pool5
I0502 14:36:33.654901  7510 net.cpp:435] pool5 <- conv5
I0502 14:36:33.654912  7510 net.cpp:409] pool5 -> pool5
I0502 14:36:33.654984  7510 net.cpp:144] Setting up pool5
I0502 14:36:33.654999  7510 net.cpp:151] Top shape: 20 64 2 2 (5120)
I0502 14:36:33.655007  7510 net.cpp:159] Memory required for data: 2972560
I0502 14:36:33.655014  7510 layer_factory.hpp:77] Creating layer ip1
I0502 14:36:33.655033  7510 net.cpp:94] Creating Layer ip1
I0502 14:36:33.655041  7510 net.cpp:435] ip1 <- pool5
I0502 14:36:33.655052  7510 net.cpp:409] ip1 -> ip1
I0502 14:36:33.657440  7510 net.cpp:144] Setting up ip1
I0502 14:36:33.657467  7510 net.cpp:151] Top shape: 20 64 (1280)
I0502 14:36:33.657475  7510 net.cpp:159] Memory required for data: 2977680
I0502 14:36:33.657488  7510 layer_factory.hpp:77] Creating layer ip2
I0502 14:36:33.657501  7510 net.cpp:94] Creating Layer ip2
I0502 14:36:33.657510  7510 net.cpp:435] ip2 <- ip1
I0502 14:36:33.657531  7510 net.cpp:409] ip2 -> ip2
I0502 14:36:33.657899  7510 net.cpp:144] Setting up ip2
I0502 14:36:33.657912  7510 net.cpp:151] Top shape: 20 64 (1280)
I0502 14:36:33.657920  7510 net.cpp:159] Memory required for data: 2982800
I0502 14:36:33.657932  7510 layer_factory.hpp:77] Creating layer ip3
I0502 14:36:33.657943  7510 net.cpp:94] Creating Layer ip3
I0502 14:36:33.657949  7510 net.cpp:435] ip3 <- ip2
I0502 14:36:33.657959  7510 net.cpp:409] ip3 -> ip3
I0502 14:36:33.658093  7510 net.cpp:144] Setting up ip3
I0502 14:36:33.658105  7510 net.cpp:151] Top shape: 20 1 (20)
I0502 14:36:33.658124  7510 net.cpp:159] Memory required for data: 2982880
I0502 14:36:33.658135  7510 layer_factory.hpp:77] Creating layer loss
I0502 14:36:33.658156  7510 net.cpp:94] Creating Layer loss
I0502 14:36:33.658164  7510 net.cpp:435] loss <- ip3
I0502 14:36:33.658174  7510 net.cpp:435] loss <- label
I0502 14:36:33.658185  7510 net.cpp:409] loss -> loss
I0502 14:36:33.658257  7510 net.cpp:144] Setting up loss
…
