…
I0502 04:44:55.105422 18614 net.cpp:323] The NetState phase (0) differed from the phase (1) specified by a rule in layer intercept
I0502 04:44:55.105439 18614 net.cpp:323] The NetState phase (0) differed from the phase (1) specified by a rule in layer loss
I0502 04:44:55.105532 18614 net.cpp:52] Initializing net from parameters: 
state {
  phase: TRAIN
}
layer {
  name: "parameters"
  type: "HDF5Data"
  top: "data"
  top: "label"
  include {
    phase: TRAIN
  }
  hdf5_data_param {
    source: "/home/purduethu/scratch/radon/d/deng106/CNNStatisticalModel/distributions/input/20_distributions_100_sample_size_train-parameters-path.txt"
    batch_size: 20
  }
}
layer {
  name: "conv1"
  type: "Convolution"
  bottom: "data"
  top: "conv1"
  param {
    lr_mult: 1
  }
  param {
    lr_mult: 2
  }
  convolution_param {
    num_output: 64
    pad: 2
    kernel_size: 5
    stride: 1
    weight_filler {
      type: "gaussian"
      std: 0.0001
    }
    bias_filler {
      type: "constant"
    }
  }
}
layer {
  name: "relu1"
  type: "ReLU"
  bottom: "conv1"
  top: "conv1"
}
layer {
  name: "conv2"
  type: "Convolution"
  bottom: "conv1"
  top: "conv2"
  param {
    lr_mult: 1
  }
  param {
    lr_mult: 2
  }
  convolution_param {
    num_output: 64
    pad: 2
    kernel_size: 5
    stride: 1
    weight_filler {
      type: "gaussian"
      std: 0.01
    }
    bias_filler {
      type: "constant"
    }
  }
}
layer {
  name: "relu2"
  type: "ReLU"
  bottom: "conv2"
  top: "conv2"
}
layer {
  name: "pool2"
  type: "Pooling"
  bottom: "conv2"
  top: "pool2"
  pooling_param {
    pool: MAX
    kernel_size: 3
    stride: 2
  }
}
layer {
  name: "conv3"
  type: "Convolution"
  bottom: "pool2"
  top: "conv3"
  param {
    lr_mult: 1
  }
  param {
    lr_mult: 2
  }
  convolution_param {
    num_output: 64
    pad: 2
    kernel_size: 5
    stride: 1
    weight_filler {
      type: "gaussian"
      std: 0.01
    }
    bias_filler {
      type: "constant"
    }
  }
}
layer {
  name: "relu3"
  type: "ReLU"
  bottom: "conv3"
  top: "conv3"
}
layer {
  name: "conv4"
  type: "Convolution"
  bottom: "conv3"
  top: "conv4"
  param {
    lr_mult: 1
  }
  param {
    lr_mult: 2
  }
  convolution_param {
    num_output: 64
    pad: 2
    kernel_size: 5
    stride: 1
    weight_filler {
      type: "gaussian"
      std: 0.01
    }
    bias_filler {
      type: "constant"
    }
  }
}
layer {
  name: "relu4"
  type: "ReLU"
  bottom: "conv4"
  top: "conv4"
}
layer {
  name: "conv5"
  type: "Convolution"
  bottom: "conv4"
  top: "conv5"
  param {
    lr_mult: 1
  }
  param {
    lr_mult: 2
  }
  convolution_param {
    num_output: 64
    pad: 2
    kernel_size: 5
    stride: 1
    weight_filler {
      type: "gaussian"
      std: 0.01
    }
    bias_filler {
      type: "constant"
    }
  }
}
layer {
  name: "relu5"
  type: "ReLU"
  bottom: "conv5"
  top: "conv5"
}
layer {
  name: "pool5"
  type: "Pooling"
  bottom: "conv5"
  top: "pool5"
  pooling_param {
    pool: AVE
    kernel_size: 3
    stride: 2
  }
}
layer {
  name: "ip1"
  type: "InnerProduct"
  bottom: "pool5"
  top: "ip1"
  param {
    lr_mult: 1
  }
  param {
    lr_mult: 2
  }
  inner_product_param {
    num_output: 64
    weight_filler {
      type: "gaussian"
      std: 0.1
    }
    bias_filler {
      type: "constant"
    }
  }
}
layer {
  name: "ip2"
  type: "InnerProduct"
  bottom: "ip1"
  top: "ip2"
  param {
    lr_mult: 1
  }
  param {
    lr_mult: 2
  }
  inner_product_param {
    num_output: 64
    weight_filler {
      type: "gaussian"
      std: 0.1
    }
    bias_filler {
      type: "constant"
    }
  }
}
layer {
  name: "ip3"
  type: "InnerProduct"
  bottom: "ip2"
  top: "ip3"
  param {
    lr_mult: 1
  }
  param {
    lr_mult: 2
  }
  inner_product_param {
    num_output: 1
    weight_filler {
      type: "gaussian"
      std: 0.1
    }
    bias_filler {
      type: "constant"
    }
  }
}
layer {
  name: "loss"
  type: "HuberLoss"
  bottom: "ip3"
  bottom: "label"
  top: "loss"
  include {
    phase: TRAIN
  }
}
I0502 04:44:55.105608 18614 layer_factory.hpp:77] Creating layer parameters
I0502 04:44:55.105623 18614 net.cpp:94] Creating Layer parameters
I0502 04:44:55.105629 18614 net.cpp:409] parameters -> data
I0502 04:44:55.105650 18614 net.cpp:409] parameters -> label
I0502 04:44:55.105660 18614 hdf5_data_layer.cpp:79] Loading list of HDF5 filenames from: /home/purduethu/scratch/radon/d/deng106/CNNStatisticalModel/distributions/input/20_distributions_100_sample_size_train-parameters-path.txt
I0502 04:44:55.105682 18614 hdf5_data_layer.cpp:93] Number of HDF5 files: 1
I0502 04:44:55.106303 18614 hdf5.cpp:32] Datatype class: H5T_FLOAT
I0502 04:44:55.176326 18614 net.cpp:144] Setting up parameters
I0502 04:44:55.176358 18614 net.cpp:151] Top shape: 20 1 10 10 (2000)
I0502 04:44:55.176364 18614 net.cpp:151] Top shape: 20 (20)
I0502 04:44:55.176368 18614 net.cpp:159] Memory required for data: 8080
I0502 04:44:55.176375 18614 layer_factory.hpp:77] Creating layer conv1
I0502 04:44:55.176400 18614 net.cpp:94] Creating Layer conv1
I0502 04:44:55.176406 18614 net.cpp:435] conv1 <- data
I0502 04:44:55.176419 18614 net.cpp:409] conv1 -> conv1
I0502 04:44:55.180250 18614 net.cpp:144] Setting up conv1
I0502 04:44:55.180265 18614 net.cpp:151] Top shape: 20 64 10 10 (128000)
I0502 04:44:55.180269 18614 net.cpp:159] Memory required for data: 520080
I0502 04:44:55.180281 18614 layer_factory.hpp:77] Creating layer relu1
I0502 04:44:55.180289 18614 net.cpp:94] Creating Layer relu1
I0502 04:44:55.180294 18614 net.cpp:435] relu1 <- conv1
I0502 04:44:55.180297 18614 net.cpp:396] relu1 -> conv1 (in-place)
I0502 04:44:55.180313 18614 net.cpp:144] Setting up relu1
I0502 04:44:55.180318 18614 net.cpp:151] Top shape: 20 64 10 10 (128000)
I0502 04:44:55.180321 18614 net.cpp:159] Memory required for data: 1032080
I0502 04:44:55.180325 18614 layer_factory.hpp:77] Creating layer conv2
I0502 04:44:55.180333 18614 net.cpp:94] Creating Layer conv2
I0502 04:44:55.180336 18614 net.cpp:435] conv2 <- conv1
I0502 04:44:55.180341 18614 net.cpp:409] conv2 -> conv2
I0502 04:44:55.185535 18614 net.cpp:144] Setting up conv2
I0502 04:44:55.185549 18614 net.cpp:151] Top shape: 20 64 10 10 (128000)
I0502 04:44:55.185554 18614 net.cpp:159] Memory required for data: 1544080
I0502 04:44:55.185561 18614 layer_factory.hpp:77] Creating layer relu2
I0502 04:44:55.185569 18614 net.cpp:94] Creating Layer relu2
I0502 04:44:55.185572 18614 net.cpp:435] relu2 <- conv2
I0502 04:44:55.185576 18614 net.cpp:396] relu2 -> conv2 (in-place)
I0502 04:44:55.185583 18614 net.cpp:144] Setting up relu2
I0502 04:44:55.185588 18614 net.cpp:151] Top shape: 20 64 10 10 (128000)
I0502 04:44:55.185591 18614 net.cpp:159] Memory required for data: 2056080
I0502 04:44:55.185595 18614 layer_factory.hpp:77] Creating layer pool2
I0502 04:44:55.185602 18614 net.cpp:94] Creating Layer pool2
I0502 04:44:55.185611 18614 net.cpp:435] pool2 <- conv2
I0502 04:44:55.185617 18614 net.cpp:409] pool2 -> pool2
I0502 04:44:55.185660 18614 net.cpp:144] Setting up pool2
I0502 04:44:55.185668 18614 net.cpp:151] Top shape: 20 64 5 5 (32000)
I0502 04:44:55.185672 18614 net.cpp:159] Memory required for data: 2184080
I0502 04:44:55.185674 18614 layer_factory.hpp:77] Creating layer conv3
I0502 04:44:55.185683 18614 net.cpp:94] Creating Layer conv3
I0502 04:44:55.185686 18614 net.cpp:435] conv3 <- pool2
I0502 04:44:55.185691 18614 net.cpp:409] conv3 -> conv3
I0502 04:44:55.190491 18614 net.cpp:144] Setting up conv3
I0502 04:44:55.190505 18614 net.cpp:151] Top shape: 20 64 5 5 (32000)
I0502 04:44:55.190510 18614 net.cpp:159] Memory required for data: 2312080
I0502 04:44:55.190517 18614 layer_factory.hpp:77] Creating layer relu3
I0502 04:44:55.190523 18614 net.cpp:94] Creating Layer relu3
I0502 04:44:55.190527 18614 net.cpp:435] relu3 <- conv3
I0502 04:44:55.190532 18614 net.cpp:396] relu3 -> conv3 (in-place)
I0502 04:44:55.190539 18614 net.cpp:144] Setting up relu3
I0502 04:44:55.190543 18614 net.cpp:151] Top shape: 20 64 5 5 (32000)
I0502 04:44:55.190547 18614 net.cpp:159] Memory required for data: 2440080
I0502 04:44:55.190551 18614 layer_factory.hpp:77] Creating layer conv4
I0502 04:44:55.190559 18614 net.cpp:94] Creating Layer conv4
I0502 04:44:55.190562 18614 net.cpp:435] conv4 <- conv3
I0502 04:44:55.190567 18614 net.cpp:409] conv4 -> conv4
I0502 04:44:55.194906 18614 net.cpp:144] Setting up conv4
I0502 04:44:55.194921 18614 net.cpp:151] Top shape: 20 64 5 5 (32000)
I0502 04:44:55.194924 18614 net.cpp:159] Memory required for data: 2568080
I0502 04:44:55.194931 18614 layer_factory.hpp:77] Creating layer relu4
I0502 04:44:55.194936 18614 net.cpp:94] Creating Layer relu4
I0502 04:44:55.194941 18614 net.cpp:435] relu4 <- conv4
I0502 04:44:55.194946 18614 net.cpp:396] relu4 -> conv4 (in-place)
I0502 04:44:55.194952 18614 net.cpp:144] Setting up relu4
I0502 04:44:55.194957 18614 net.cpp:151] Top shape: 20 64 5 5 (32000)
I0502 04:44:55.194959 18614 net.cpp:159] Memory required for data: 2696080
I0502 04:44:55.194963 18614 layer_factory.hpp:77] Creating layer conv5
I0502 04:44:55.194970 18614 net.cpp:94] Creating Layer conv5
I0502 04:44:55.194973 18614 net.cpp:435] conv5 <- conv4
I0502 04:44:55.194978 18614 net.cpp:409] conv5 -> conv5
I0502 04:44:55.200386 18614 net.cpp:144] Setting up conv5
I0502 04:44:55.200399 18614 net.cpp:151] Top shape: 20 64 5 5 (32000)
I0502 04:44:55.200403 18614 net.cpp:159] Memory required for data: 2824080
I0502 04:44:55.200412 18614 layer_factory.hpp:77] Creating layer relu5
I0502 04:44:55.200418 18614 net.cpp:94] Creating Layer relu5
I0502 04:44:55.200423 18614 net.cpp:435] relu5 <- conv5
I0502 04:44:55.200428 18614 net.cpp:396] relu5 -> conv5 (in-place)
I0502 04:44:55.200434 18614 net.cpp:144] Setting up relu5
I0502 04:44:55.200438 18614 net.cpp:151] Top shape: 20 64 5 5 (32000)
I0502 04:44:55.200443 18614 net.cpp:159] Memory required for data: 2952080
I0502 04:44:55.200445 18614 layer_factory.hpp:77] Creating layer pool5
I0502 04:44:55.200450 18614 net.cpp:94] Creating Layer pool5
I0502 04:44:55.200453 18614 net.cpp:435] pool5 <- conv5
I0502 04:44:55.200459 18614 net.cpp:409] pool5 -> pool5
I0502 04:44:55.200491 18614 net.cpp:144] Setting up pool5
I0502 04:44:55.200498 18614 net.cpp:151] Top shape: 20 64 2 2 (5120)
I0502 04:44:55.200502 18614 net.cpp:159] Memory required for data: 2972560
I0502 04:44:55.200505 18614 layer_factory.hpp:77] Creating layer ip1
I0502 04:44:55.200515 18614 net.cpp:94] Creating Layer ip1
I0502 04:44:55.200520 18614 net.cpp:435] ip1 <- pool5
I0502 04:44:55.200525 18614 net.cpp:409] ip1 -> ip1
I0502 04:44:55.201668 18614 net.cpp:144] Setting up ip1
I0502 04:44:55.201681 18614 net.cpp:151] Top shape: 20 64 (1280)
I0502 04:44:55.201685 18614 net.cpp:159] Memory required for data: 2977680
I0502 04:44:55.201691 18614 layer_factory.hpp:77] Creating layer ip2
I0502 04:44:55.201699 18614 net.cpp:94] Creating Layer ip2
I0502 04:44:55.201702 18614 net.cpp:435] ip2 <- ip1
I0502 04:44:55.201711 18614 net.cpp:409] ip2 -> ip2
I0502 04:44:55.201884 18614 net.cpp:144] Setting up ip2
I0502 04:44:55.201890 18614 net.cpp:151] Top shape: 20 64 (1280)
I0502 04:44:55.201894 18614 net.cpp:159] Memory required for data: 2982800
I0502 04:44:55.201898 18614 layer_factory.hpp:77] Creating layer ip3
I0502 04:44:55.201905 18614 net.cpp:94] Creating Layer ip3
I0502 04:44:55.201908 18614 net.cpp:435] ip3 <- ip2
I0502 04:44:55.201912 18614 net.cpp:409] ip3 -> ip3
I0502 04:44:55.201977 18614 net.cpp:144] Setting up ip3
I0502 04:44:55.201982 18614 net.cpp:151] Top shape: 20 1 (20)
I0502 04:44:55.201992 18614 net.cpp:159] Memory required for data: 2982880
I0502 04:44:55.201997 18614 layer_factory.hpp:77] Creating layer loss
I0502 04:44:55.202008 18614 net.cpp:94] Creating Layer loss
I0502 04:44:55.202011 18614 net.cpp:435] loss <- ip3
I0502 04:44:55.202015 18614 net.cpp:435] loss <- label
I0502 04:44:55.202020 18614 net.cpp:409] loss -> loss
I0502 04:44:55.202057 18614 net.cpp:144] Setting up loss
…
