…
I0507 14:41:06.615741  3632 net.cpp:323] The NetState phase (0) differed from the phase (1) specified by a rule in layer intercept
I0507 14:41:06.615756  3632 net.cpp:323] The NetState phase (0) differed from the phase (1) specified by a rule in layer loss
I0507 14:41:06.615834  3632 net.cpp:52] Initializing net from parameters: 
state {
  phase: TRAIN
}
layer {
  name: "parameters"
  type: "HDF5Data"
  top: "data"
  top: "label"
  include {
    phase: TRAIN
  }
  hdf5_data_param {
    source: "/home/purduethu/scratch/radon/d/deng106/CNNStatisticalModel/distributions/input/50_distributions_900_sample_size_train-parameters-path.txt"
    batch_size: 20
  }
}
layer {
  name: "conv1"
  type: "Convolution"
  bottom: "data"
  top: "conv1"
  param {
    lr_mult: 1
  }
  param {
    lr_mult: 2
  }
  convolution_param {
    num_output: 64
    pad: 2
    kernel_size: 5
    stride: 1
    weight_filler {
      type: "gaussian"
      std: 0.0001
    }
    bias_filler {
      type: "constant"
    }
  }
}
layer {
  name: "relu1"
  type: "ReLU"
  bottom: "conv1"
  top: "conv1"
}
layer {
  name: "conv2"
  type: "Convolution"
  bottom: "conv1"
  top: "conv2"
  param {
    lr_mult: 1
  }
  param {
    lr_mult: 2
  }
  convolution_param {
    num_output: 64
    pad: 2
    kernel_size: 5
    stride: 1
    weight_filler {
      type: "gaussian"
      std: 0.01
    }
    bias_filler {
      type: "constant"
    }
  }
}
layer {
  name: "relu2"
  type: "ReLU"
  bottom: "conv2"
  top: "conv2"
}
layer {
  name: "pool2"
  type: "Pooling"
  bottom: "conv2"
  top: "pool2"
  pooling_param {
    pool: MAX
    kernel_size: 3
    stride: 2
  }
}
layer {
  name: "conv3"
  type: "Convolution"
  bottom: "pool2"
  top: "conv3"
  param {
    lr_mult: 1
  }
  param {
    lr_mult: 2
  }
  convolution_param {
    num_output: 64
    pad: 2
    kernel_size: 5
    stride: 1
    weight_filler {
      type: "gaussian"
      std: 0.01
    }
    bias_filler {
      type: "constant"
    }
  }
}
layer {
  name: "relu3"
  type: "ReLU"
  bottom: "conv3"
  top: "conv3"
}
layer {
  name: "conv4"
  type: "Convolution"
  bottom: "conv3"
  top: "conv4"
  param {
    lr_mult: 1
  }
  param {
    lr_mult: 2
  }
  convolution_param {
    num_output: 64
    pad: 2
    kernel_size: 5
    stride: 1
    weight_filler {
      type: "gaussian"
      std: 0.01
    }
    bias_filler {
      type: "constant"
    }
  }
}
layer {
  name: "relu4"
  type: "ReLU"
  bottom: "conv4"
  top: "conv4"
}
layer {
  name: "conv5"
  type: "Convolution"
  bottom: "conv4"
  top: "conv5"
  param {
    lr_mult: 1
  }
  param {
    lr_mult: 2
  }
  convolution_param {
    num_output: 64
    pad: 2
    kernel_size: 5
    stride: 1
    weight_filler {
      type: "gaussian"
      std: 0.01
    }
    bias_filler {
      type: "constant"
    }
  }
}
layer {
  name: "relu5"
  type: "ReLU"
  bottom: "conv5"
  top: "conv5"
}
layer {
  name: "pool5"
  type: "Pooling"
  bottom: "conv5"
  top: "pool5"
  pooling_param {
    pool: AVE
    kernel_size: 3
    stride: 2
  }
}
layer {
  name: "ip1"
  type: "InnerProduct"
  bottom: "pool5"
  top: "ip1"
  param {
    lr_mult: 1
  }
  param {
    lr_mult: 2
  }
  inner_product_param {
    num_output: 64
    weight_filler {
      type: "gaussian"
      std: 0.1
    }
    bias_filler {
      type: "constant"
    }
  }
}
layer {
  name: "ip2"
  type: "InnerProduct"
  bottom: "ip1"
  top: "ip2"
  param {
    lr_mult: 1
  }
  param {
    lr_mult: 2
  }
  inner_product_param {
    num_output: 64
    weight_filler {
      type: "gaussian"
      std: 0.1
    }
    bias_filler {
      type: "constant"
    }
  }
}
layer {
  name: "ip3"
  type: "InnerProduct"
  bottom: "ip2"
  top: "ip3"
  param {
    lr_mult: 1
  }
  param {
    lr_mult: 2
  }
  inner_product_param {
    num_output: 1
    weight_filler {
      type: "gaussian"
      std: 0.1
    }
    bias_filler {
      type: "constant"
    }
  }
}
layer {
  name: "loss"
  type: "HuberLoss"
  bottom: "ip3"
  bottom: "label"
  top: "loss"
  include {
    phase: TRAIN
  }
}
I0507 14:41:06.615885  3632 layer_factory.hpp:77] Creating layer parameters
I0507 14:41:06.615897  3632 net.cpp:94] Creating Layer parameters
I0507 14:41:06.615901  3632 net.cpp:409] parameters -> data
I0507 14:41:06.615911  3632 net.cpp:409] parameters -> label
I0507 14:41:06.615921  3632 hdf5_data_layer.cpp:79] Loading list of HDF5 filenames from: /home/purduethu/scratch/radon/d/deng106/CNNStatisticalModel/distributions/input/50_distributions_900_sample_size_train-parameters-path.txt
I0507 14:41:06.615936  3632 hdf5_data_layer.cpp:93] Number of HDF5 files: 1
I0507 14:41:06.616350  3632 hdf5.cpp:32] Datatype class: H5T_FLOAT
I0507 14:41:08.056892  3632 net.cpp:144] Setting up parameters
I0507 14:41:08.056924  3632 net.cpp:151] Top shape: 20 1 30 30 (18000)
I0507 14:41:08.056929  3632 net.cpp:151] Top shape: 20 (20)
I0507 14:41:08.056933  3632 net.cpp:159] Memory required for data: 72080
I0507 14:41:08.056939  3632 layer_factory.hpp:77] Creating layer conv1
I0507 14:41:08.056955  3632 net.cpp:94] Creating Layer conv1
I0507 14:41:08.056960  3632 net.cpp:435] conv1 <- data
I0507 14:41:08.056967  3632 net.cpp:409] conv1 -> conv1
I0507 14:41:08.063535  3632 net.cpp:144] Setting up conv1
I0507 14:41:08.063554  3632 net.cpp:151] Top shape: 20 64 30 30 (1152000)
I0507 14:41:08.063557  3632 net.cpp:159] Memory required for data: 4680080
I0507 14:41:08.063568  3632 layer_factory.hpp:77] Creating layer relu1
I0507 14:41:08.063576  3632 net.cpp:94] Creating Layer relu1
I0507 14:41:08.063580  3632 net.cpp:435] relu1 <- conv1
I0507 14:41:08.063585  3632 net.cpp:396] relu1 -> conv1 (in-place)
I0507 14:41:08.063596  3632 net.cpp:144] Setting up relu1
I0507 14:41:08.063601  3632 net.cpp:151] Top shape: 20 64 30 30 (1152000)
I0507 14:41:08.063603  3632 net.cpp:159] Memory required for data: 9288080
I0507 14:41:08.063606  3632 layer_factory.hpp:77] Creating layer conv2
I0507 14:41:08.063614  3632 net.cpp:94] Creating Layer conv2
I0507 14:41:08.063618  3632 net.cpp:435] conv2 <- conv1
I0507 14:41:08.063623  3632 net.cpp:409] conv2 -> conv2
I0507 14:41:08.080687  3632 net.cpp:144] Setting up conv2
I0507 14:41:08.080701  3632 net.cpp:151] Top shape: 20 64 30 30 (1152000)
I0507 14:41:08.080705  3632 net.cpp:159] Memory required for data: 13896080
I0507 14:41:08.080713  3632 layer_factory.hpp:77] Creating layer relu2
I0507 14:41:08.080720  3632 net.cpp:94] Creating Layer relu2
I0507 14:41:08.080724  3632 net.cpp:435] relu2 <- conv2
I0507 14:41:08.080729  3632 net.cpp:396] relu2 -> conv2 (in-place)
I0507 14:41:08.080735  3632 net.cpp:144] Setting up relu2
I0507 14:41:08.080739  3632 net.cpp:151] Top shape: 20 64 30 30 (1152000)
I0507 14:41:08.080742  3632 net.cpp:159] Memory required for data: 18504080
I0507 14:41:08.080745  3632 layer_factory.hpp:77] Creating layer pool2
I0507 14:41:08.080757  3632 net.cpp:94] Creating Layer pool2
I0507 14:41:08.080761  3632 net.cpp:435] pool2 <- conv2
I0507 14:41:08.080765  3632 net.cpp:409] pool2 -> pool2
I0507 14:41:08.080822  3632 net.cpp:144] Setting up pool2
I0507 14:41:08.080829  3632 net.cpp:151] Top shape: 20 64 15 15 (288000)
I0507 14:41:08.080832  3632 net.cpp:159] Memory required for data: 19656080
I0507 14:41:08.080835  3632 layer_factory.hpp:77] Creating layer conv3
I0507 14:41:08.080843  3632 net.cpp:94] Creating Layer conv3
I0507 14:41:08.080847  3632 net.cpp:435] conv3 <- pool2
I0507 14:41:08.080852  3632 net.cpp:409] conv3 -> conv3
I0507 14:41:08.090296  3632 net.cpp:144] Setting up conv3
I0507 14:41:08.090312  3632 net.cpp:151] Top shape: 20 64 15 15 (288000)
I0507 14:41:08.090317  3632 net.cpp:159] Memory required for data: 20808080
I0507 14:41:08.090325  3632 layer_factory.hpp:77] Creating layer relu3
I0507 14:41:08.090332  3632 net.cpp:94] Creating Layer relu3
I0507 14:41:08.090335  3632 net.cpp:435] relu3 <- conv3
I0507 14:41:08.090340  3632 net.cpp:396] relu3 -> conv3 (in-place)
I0507 14:41:08.090348  3632 net.cpp:144] Setting up relu3
I0507 14:41:08.090353  3632 net.cpp:151] Top shape: 20 64 15 15 (288000)
I0507 14:41:08.090355  3632 net.cpp:159] Memory required for data: 21960080
I0507 14:41:08.090359  3632 layer_factory.hpp:77] Creating layer conv4
I0507 14:41:08.090368  3632 net.cpp:94] Creating Layer conv4
I0507 14:41:08.090373  3632 net.cpp:435] conv4 <- conv3
I0507 14:41:08.090378  3632 net.cpp:409] conv4 -> conv4
I0507 14:41:08.098767  3632 net.cpp:144] Setting up conv4
I0507 14:41:08.098794  3632 net.cpp:151] Top shape: 20 64 15 15 (288000)
I0507 14:41:08.098801  3632 net.cpp:159] Memory required for data: 23112080
I0507 14:41:08.098814  3632 layer_factory.hpp:77] Creating layer relu4
I0507 14:41:08.098824  3632 net.cpp:94] Creating Layer relu4
I0507 14:41:08.098831  3632 net.cpp:435] relu4 <- conv4
I0507 14:41:08.098840  3632 net.cpp:396] relu4 -> conv4 (in-place)
I0507 14:41:08.098853  3632 net.cpp:144] Setting up relu4
I0507 14:41:08.098860  3632 net.cpp:151] Top shape: 20 64 15 15 (288000)
I0507 14:41:08.098866  3632 net.cpp:159] Memory required for data: 24264080
I0507 14:41:08.098872  3632 layer_factory.hpp:77] Creating layer conv5
I0507 14:41:08.098886  3632 net.cpp:94] Creating Layer conv5
I0507 14:41:08.098892  3632 net.cpp:435] conv5 <- conv4
I0507 14:41:08.098912  3632 net.cpp:409] conv5 -> conv5
I0507 14:41:08.107041  3632 net.cpp:144] Setting up conv5
I0507 14:41:08.107058  3632 net.cpp:151] Top shape: 20 64 15 15 (288000)
I0507 14:41:08.107061  3632 net.cpp:159] Memory required for data: 25416080
I0507 14:41:08.107070  3632 layer_factory.hpp:77] Creating layer relu5
I0507 14:41:08.107077  3632 net.cpp:94] Creating Layer relu5
I0507 14:41:08.107080  3632 net.cpp:435] relu5 <- conv5
I0507 14:41:08.107085  3632 net.cpp:396] relu5 -> conv5 (in-place)
I0507 14:41:08.107094  3632 net.cpp:144] Setting up relu5
I0507 14:41:08.107097  3632 net.cpp:151] Top shape: 20 64 15 15 (288000)
I0507 14:41:08.107100  3632 net.cpp:159] Memory required for data: 26568080
I0507 14:41:08.107105  3632 layer_factory.hpp:77] Creating layer pool5
I0507 14:41:08.107110  3632 net.cpp:94] Creating Layer pool5
I0507 14:41:08.107112  3632 net.cpp:435] pool5 <- conv5
I0507 14:41:08.107116  3632 net.cpp:409] pool5 -> pool5
I0507 14:41:08.107161  3632 net.cpp:144] Setting up pool5
I0507 14:41:08.107169  3632 net.cpp:151] Top shape: 20 64 7 7 (62720)
I0507 14:41:08.107172  3632 net.cpp:159] Memory required for data: 26818960
I0507 14:41:08.107177  3632 layer_factory.hpp:77] Creating layer ip1
I0507 14:41:08.107183  3632 net.cpp:94] Creating Layer ip1
I0507 14:41:08.107187  3632 net.cpp:435] ip1 <- pool5
I0507 14:41:08.107192  3632 net.cpp:409] ip1 -> ip1
I0507 14:41:08.113360  3632 net.cpp:144] Setting up ip1
I0507 14:41:08.113375  3632 net.cpp:151] Top shape: 20 64 (1280)
I0507 14:41:08.113379  3632 net.cpp:159] Memory required for data: 26824080
I0507 14:41:08.113386  3632 layer_factory.hpp:77] Creating layer ip2
I0507 14:41:08.113394  3632 net.cpp:94] Creating Layer ip2
I0507 14:41:08.113402  3632 net.cpp:435] ip2 <- ip1
I0507 14:41:08.113409  3632 net.cpp:409] ip2 -> ip2
I0507 14:41:08.113651  3632 net.cpp:144] Setting up ip2
I0507 14:41:08.113659  3632 net.cpp:151] Top shape: 20 64 (1280)
I0507 14:41:08.113663  3632 net.cpp:159] Memory required for data: 26829200
I0507 14:41:08.113668  3632 layer_factory.hpp:77] Creating layer ip3
I0507 14:41:08.113674  3632 net.cpp:94] Creating Layer ip3
I0507 14:41:08.113678  3632 net.cpp:435] ip3 <- ip2
I0507 14:41:08.113683  3632 net.cpp:409] ip3 -> ip3
I0507 14:41:08.113803  3632 net.cpp:144] Setting up ip3
I0507 14:41:08.113811  3632 net.cpp:151] Top shape: 20 1 (20)
I0507 14:41:08.113814  3632 net.cpp:159] Memory required for data: 26829280
I0507 14:41:08.113821  3632 layer_factory.hpp:77] Creating layer loss
I0507 14:41:08.113831  3632 net.cpp:94] Creating Layer loss
I0507 14:41:08.113836  3632 net.cpp:435] loss <- ip3
I0507 14:41:08.113839  3632 net.cpp:435] loss <- label
I0507 14:41:08.113844  3632 net.cpp:409] loss -> loss
I0507 14:41:08.113903  3632 net.cpp:144] Setting up loss
…
I0507 14:41:08.506142  3632 net.cpp:323] The NetState phase (0) differed from the phase (1) specified by a rule in layer intercept
I0507 14:41:08.506158  3632 net.cpp:323] The NetState phase (0) differed from the phase (1) specified by a rule in layer accuracy
I0507 14:41:08.506247  3632 net.cpp:52] Initializing net from parameters: 
state {
  phase: TRAIN
}
layer {
  name: "parameters"
  type: "HDF5Data"
  top: "data"
  top: "label"
  include {
    phase: TRAIN
  }
  hdf5_data_param {
    source: "/home/purduethu/scratch/radon/d/deng106/CNNStatisticalModel/distributions/input/50_distributions_900_sample_size_train-distributions-path.txt"
    batch_size: 20
  }
}
layer {
  name: "conv1"
  type: "Convolution"
  bottom: "data"
  top: "conv1"
  param {
    lr_mult: 1
  }
  param {
    lr_mult: 2
  }
  convolution_param {
    num_output: 64
    pad: 2
    kernel_size: 5
    stride: 1
    weight_filler {
      type: "gaussian"
      std: 0.0001
    }
    bias_filler {
      type: "constant"
    }
  }
}
layer {
  name: "relu1"
  type: "ReLU"
  bottom: "conv1"
  top: "conv1"
}
layer {
  name: "conv2"
  type: "Convolution"
  bottom: "conv1"
  top: "conv2"
  param {
    lr_mult: 1
  }
  param {
    lr_mult: 2
  }
  convolution_param {
    num_output: 64
    pad: 2
    kernel_size: 5
    stride: 1
    weight_filler {
      type: "gaussian"
      std: 0.01
    }
    bias_filler {
      type: "constant"
    }
  }
}
layer {
  name: "relu2"
  type: "ReLU"
  bottom: "conv2"
  top: "conv2"
}
layer {
  name: "pool2"
  type: "Pooling"
  bottom: "conv2"
  top: "pool2"
  pooling_param {
    pool: MAX
    kernel_size: 3
    stride: 2
  }
}
layer {
  name: "conv3"
  type: "Convolution"
  bottom: "pool2"
  top: "conv3"
  param {
    lr_mult: 1
  }
  param {
    lr_mult: 2
  }
  convolution_param {
    num_output: 64
    pad: 2
    kernel_size: 5
    stride: 1
    weight_filler {
      type: "gaussian"
      std: 0.01
    }
    bias_filler {
      type: "constant"
    }
  }
}
layer {
  name: "relu3"
  type: "ReLU"
  bottom: "conv3"
  top: "conv3"
}
layer {
  name: "conv4"
  type: "Convolution"
  bottom: "conv3"
  top: "conv4"
  param {
    lr_mult: 1
  }
  param {
    lr_mult: 2
  }
  convolution_param {
    num_output: 64
    pad: 2
    kernel_size: 5
    stride: 1
    weight_filler {
      type: "gaussian"
      std: 0.01
    }
    bias_filler {
      type: "constant"
    }
  }
}
layer {
  name: "relu4"
  type: "ReLU"
  bottom: "conv4"
  top: "conv4"
}
layer {
  name: "conv5"
  type: "Convolution"
  bottom: "conv4"
  top: "conv5"
  param {
    lr_mult: 1
  }
  param {
    lr_mult: 2
  }
  convolution_param {
    num_output: 64
    pad: 2
    kernel_size: 5
    stride: 1
    weight_filler {
      type: "gaussian"
      std: 0.01
    }
    bias_filler {
      type: "constant"
    }
  }
}
layer {
  name: "relu5"
  type: "ReLU"
  bottom: "conv5"
  top: "conv5"
}
layer {
  name: "pool5"
  type: "Pooling"
  bottom: "conv5"
  top: "pool5"
  pooling_param {
    pool: AVE
    kernel_size: 3
    stride: 2
  }
}
layer {
  name: "ip1"
  type: "InnerProduct"
  bottom: "pool5"
  top: "ip1"
  param {
    lr_mult: 1
  }
  param {
    lr_mult: 2
  }
  inner_product_param {
    num_output: 64
    weight_filler {
      type: "gaussian"
      std: 0.1
    }
    bias_filler {
      type: "constant"
    }
  }
}
layer {
  name: "ip2"
  type: "InnerProduct"
  bottom: "ip1"
  top: "ip2"
  param {
    lr_mult: 1
  }
  param {
    lr_mult: 2
  }
  inner_product_param {
    num_output: 64
    weight_filler {
      type: "gaussian"
      std: 0.1
    }
    bias_filler {
      type: "constant"
    }
  }
}
layer {
  name: "ip3"
  type: "InnerProduct"
  bottom: "ip2"
  top: "ip3"
  param {
    lr_mult: 1
  }
  param {
    lr_mult: 2
  }
  inner_product_param {
    num_output: 50
    weight_filler {
      type: "gaussian"
      std: 0.1
    }
    bias_filler {
      type: "constant"
    }
  }
}
layer {
  name: "loss"
  type: "SoftmaxWithLoss"
  bottom: "ip3"
  bottom: "label"
  top: "loss"
}
I0507 14:41:08.506299  3632 layer_factory.hpp:77] Creating layer parameters
I0507 14:41:08.506307  3632 net.cpp:94] Creating Layer parameters
I0507 14:41:08.506311  3632 net.cpp:409] parameters -> data
I0507 14:41:08.506319  3632 net.cpp:409] parameters -> label
I0507 14:41:08.506323  3632 hdf5_data_layer.cpp:79] Loading list of HDF5 filenames from: /home/purduethu/scratch/radon/d/deng106/CNNStatisticalModel/distributions/input/50_distributions_900_sample_size_train-distributions-path.txt
I0507 14:41:08.506340  3632 hdf5_data_layer.cpp:93] Number of HDF5 files: 1
I0507 14:41:09.928381  3632 hdf5.cpp:35] Datatype class: H5T_INTEGER
I0507 14:41:09.931715  3632 net.cpp:144] Setting up parameters
I0507 14:41:09.931740  3632 net.cpp:151] Top shape: 20 1 30 30 (18000)
I0507 14:41:09.931744  3632 net.cpp:151] Top shape: 20 (20)
I0507 14:41:09.931747  3632 net.cpp:159] Memory required for data: 72080
I0507 14:41:09.931753  3632 layer_factory.hpp:77] Creating layer conv1
I0507 14:41:09.931771  3632 net.cpp:94] Creating Layer conv1
I0507 14:41:09.931776  3632 net.cpp:435] conv1 <- data
I0507 14:41:09.931782  3632 net.cpp:409] conv1 -> conv1
I0507 14:41:09.935241  3632 net.cpp:144] Setting up conv1
I0507 14:41:09.935256  3632 net.cpp:151] Top shape: 20 64 30 30 (1152000)
I0507 14:41:09.935261  3632 net.cpp:159] Memory required for data: 4680080
I0507 14:41:09.935271  3632 layer_factory.hpp:77] Creating layer relu1
I0507 14:41:09.935277  3632 net.cpp:94] Creating Layer relu1
I0507 14:41:09.935281  3632 net.cpp:435] relu1 <- conv1
I0507 14:41:09.935286  3632 net.cpp:396] relu1 -> conv1 (in-place)
I0507 14:41:09.935292  3632 net.cpp:144] Setting up relu1
I0507 14:41:09.935297  3632 net.cpp:151] Top shape: 20 64 30 30 (1152000)
I0507 14:41:09.935299  3632 net.cpp:159] Memory required for data: 9288080
I0507 14:41:09.935302  3632 layer_factory.hpp:77] Creating layer conv2
I0507 14:41:09.935309  3632 net.cpp:94] Creating Layer conv2
I0507 14:41:09.935313  3632 net.cpp:435] conv2 <- conv1
I0507 14:41:09.935317  3632 net.cpp:409] conv2 -> conv2
I0507 14:41:09.951429  3632 net.cpp:144] Setting up conv2
I0507 14:41:09.951444  3632 net.cpp:151] Top shape: 20 64 30 30 (1152000)
I0507 14:41:09.951448  3632 net.cpp:159] Memory required for data: 13896080
I0507 14:41:09.951457  3632 layer_factory.hpp:77] Creating layer relu2
I0507 14:41:09.951462  3632 net.cpp:94] Creating Layer relu2
I0507 14:41:09.951467  3632 net.cpp:435] relu2 <- conv2
I0507 14:41:09.951470  3632 net.cpp:396] relu2 -> conv2 (in-place)
I0507 14:41:09.951478  3632 net.cpp:144] Setting up relu2
I0507 14:41:09.951481  3632 net.cpp:151] Top shape: 20 64 30 30 (1152000)
I0507 14:41:09.951484  3632 net.cpp:159] Memory required for data: 18504080
I0507 14:41:09.951488  3632 layer_factory.hpp:77] Creating layer pool2
I0507 14:41:09.951493  3632 net.cpp:94] Creating Layer pool2
I0507 14:41:09.951496  3632 net.cpp:435] pool2 <- conv2
I0507 14:41:09.951500  3632 net.cpp:409] pool2 -> pool2
I0507 14:41:09.951556  3632 net.cpp:144] Setting up pool2
I0507 14:41:09.951565  3632 net.cpp:151] Top shape: 20 64 15 15 (288000)
I0507 14:41:09.951567  3632 net.cpp:159] Memory required for data: 19656080
I0507 14:41:09.951570  3632 layer_factory.hpp:77] Creating layer conv3
I0507 14:41:09.951578  3632 net.cpp:94] Creating Layer conv3
I0507 14:41:09.951581  3632 net.cpp:435] conv3 <- pool2
I0507 14:41:09.951592  3632 net.cpp:409] conv3 -> conv3
I0507 14:41:09.960451  3632 net.cpp:144] Setting up conv3
I0507 14:41:09.960466  3632 net.cpp:151] Top shape: 20 64 15 15 (288000)
I0507 14:41:09.960470  3632 net.cpp:159] Memory required for data: 20808080
I0507 14:41:09.960479  3632 layer_factory.hpp:77] Creating layer relu3
I0507 14:41:09.960484  3632 net.cpp:94] Creating Layer relu3
I0507 14:41:09.960489  3632 net.cpp:435] relu3 <- conv3
I0507 14:41:09.960492  3632 net.cpp:396] relu3 -> conv3 (in-place)
I0507 14:41:09.960500  3632 net.cpp:144] Setting up relu3
I0507 14:41:09.960503  3632 net.cpp:151] Top shape: 20 64 15 15 (288000)
I0507 14:41:09.960506  3632 net.cpp:159] Memory required for data: 21960080
I0507 14:41:09.960510  3632 layer_factory.hpp:77] Creating layer conv4
I0507 14:41:09.960517  3632 net.cpp:94] Creating Layer conv4
I0507 14:41:09.960521  3632 net.cpp:435] conv4 <- conv3
I0507 14:41:09.960525  3632 net.cpp:409] conv4 -> conv4
I0507 14:41:09.969331  3632 net.cpp:144] Setting up conv4
I0507 14:41:09.969346  3632 net.cpp:151] Top shape: 20 64 15 15 (288000)
I0507 14:41:09.969349  3632 net.cpp:159] Memory required for data: 23112080
I0507 14:41:09.969355  3632 layer_factory.hpp:77] Creating layer relu4
I0507 14:41:09.969362  3632 net.cpp:94] Creating Layer relu4
I0507 14:41:09.969365  3632 net.cpp:435] relu4 <- conv4
I0507 14:41:09.969369  3632 net.cpp:396] relu4 -> conv4 (in-place)
I0507 14:41:09.969377  3632 net.cpp:144] Setting up relu4
I0507 14:41:09.969380  3632 net.cpp:151] Top shape: 20 64 15 15 (288000)
I0507 14:41:09.969383  3632 net.cpp:159] Memory required for data: 24264080
I0507 14:41:09.969386  3632 layer_factory.hpp:77] Creating layer conv5
I0507 14:41:09.969393  3632 net.cpp:94] Creating Layer conv5
I0507 14:41:09.969398  3632 net.cpp:435] conv5 <- conv4
I0507 14:41:09.969401  3632 net.cpp:409] conv5 -> conv5
I0507 14:41:09.977468  3632 net.cpp:144] Setting up conv5
I0507 14:41:09.977483  3632 net.cpp:151] Top shape: 20 64 15 15 (288000)
I0507 14:41:09.977486  3632 net.cpp:159] Memory required for data: 25416080
I0507 14:41:09.977494  3632 layer_factory.hpp:77] Creating layer relu5
I0507 14:41:09.977500  3632 net.cpp:94] Creating Layer relu5
I0507 14:41:09.977504  3632 net.cpp:435] relu5 <- conv5
I0507 14:41:09.977509  3632 net.cpp:396] relu5 -> conv5 (in-place)
I0507 14:41:09.977515  3632 net.cpp:144] Setting up relu5
I0507 14:41:09.977519  3632 net.cpp:151] Top shape: 20 64 15 15 (288000)
I0507 14:41:09.977522  3632 net.cpp:159] Memory required for data: 26568080
I0507 14:41:09.977525  3632 layer_factory.hpp:77] Creating layer pool5
I0507 14:41:09.977530  3632 net.cpp:94] Creating Layer pool5
I0507 14:41:09.977533  3632 net.cpp:435] pool5 <- conv5
I0507 14:41:09.977537  3632 net.cpp:409] pool5 -> pool5
I0507 14:41:09.977577  3632 net.cpp:144] Setting up pool5
I0507 14:41:09.977584  3632 net.cpp:151] Top shape: 20 64 7 7 (62720)
I0507 14:41:09.977587  3632 net.cpp:159] Memory required for data: 26818960
I0507 14:41:09.977591  3632 layer_factory.hpp:77] Creating layer ip1
I0507 14:41:09.977597  3632 net.cpp:94] Creating Layer ip1
I0507 14:41:09.977602  3632 net.cpp:435] ip1 <- pool5
I0507 14:41:09.977605  3632 net.cpp:409] ip1 -> ip1
I0507 14:41:09.982476  3632 net.cpp:144] Setting up ip1
I0507 14:41:09.982486  3632 net.cpp:151] Top shape: 20 64 (1280)
I0507 14:41:09.982489  3632 net.cpp:159] Memory required for data: 26824080
I0507 14:41:09.982494  3632 layer_factory.hpp:77] Creating layer ip2
I0507 14:41:09.982501  3632 net.cpp:94] Creating Layer ip2
I0507 14:41:09.982504  3632 net.cpp:435] ip2 <- ip1
I0507 14:41:09.982509  3632 net.cpp:409] ip2 -> ip2
I0507 14:41:09.982739  3632 net.cpp:144] Setting up ip2
I0507 14:41:09.982748  3632 net.cpp:151] Top shape: 20 64 (1280)
I0507 14:41:09.982750  3632 net.cpp:159] Memory required for data: 26829200
I0507 14:41:09.982755  3632 layer_factory.hpp:77] Creating layer ip3
I0507 14:41:09.982761  3632 net.cpp:94] Creating Layer ip3
I0507 14:41:09.982764  3632 net.cpp:435] ip3 <- ip2
I0507 14:41:09.982769  3632 net.cpp:409] ip3 -> ip3
I0507 14:41:09.982976  3632 net.cpp:144] Setting up ip3
I0507 14:41:09.982985  3632 net.cpp:151] Top shape: 20 50 (1000)
I0507 14:41:09.982988  3632 net.cpp:159] Memory required for data: 26833200
I0507 14:41:09.982993  3632 layer_factory.hpp:77] Creating layer loss
I0507 14:41:09.983000  3632 net.cpp:94] Creating Layer loss
I0507 14:41:09.983002  3632 net.cpp:435] loss <- ip3
I0507 14:41:09.983006  3632 net.cpp:435] loss <- label
I0507 14:41:09.983011  3632 net.cpp:409] loss -> loss
I0507 14:41:09.983017  3632 layer_factory.hpp:77] Creating layer loss
…
I0507 14:41:09.983544  3632 solver.cpp:181] Creating test net (#0) specified by net file: ./protocol/dis_50_900_dimension.protocol_distribution
I0507 14:41:09.983570  3632 net.cpp:323] The NetState phase (1) differed from the phase (0) specified by a rule in layer parameters
I0507 14:41:09.983665  3632 net.cpp:52] Initializing net from parameters: 
state {
  phase: TEST
}
layer {
  name: "intercept"
  type: "HDF5Data"
  top: "data"
  top: "label"
  include {
    phase: TEST
  }
  hdf5_data_param {
    source: "/home/purduethu/scratch/radon/d/deng106/CNNStatisticalModel/distributions/input/50_distributions_900_sample_size_test-distributions-path.txt"
    batch_size: 20
  }
}
layer {
  name: "conv1"
  type: "Convolution"
  bottom: "data"
  top: "conv1"
  param {
    lr_mult: 1
  }
  param {
    lr_mult: 2
  }
  convolution_param {
    num_output: 64
    pad: 2
    kernel_size: 5
    stride: 1
    weight_filler {
      type: "gaussian"
      std: 0.0001
    }
    bias_filler {
      type: "constant"
    }
  }
}
layer {
  name: "relu1"
  type: "ReLU"
  bottom: "conv1"
  top: "conv1"
}
layer {
  name: "conv2"
  type: "Convolution"
  bottom: "conv1"
  top: "conv2"
  param {
    lr_mult: 1
  }
  param {
    lr_mult: 2
  }
  convolution_param {
    num_output: 64
    pad: 2
    kernel_size: 5
    stride: 1
    weight_filler {
      type: "gaussian"
      std: 0.01
    }
    bias_filler {
      type: "constant"
    }
  }
}
layer {
  name: "relu2"
  type: "ReLU"
  bottom: "conv2"
  top: "conv2"
}
layer {
  name: "pool2"
  type: "Pooling"
  bottom: "conv2"
  top: "pool2"
  pooling_param {
    pool: MAX
    kernel_size: 3
    stride: 2
  }
}
layer {
  name: "conv3"
  type: "Convolution"
  bottom: "pool2"
  top: "conv3"
  param {
    lr_mult: 1
  }
  param {
    lr_mult: 2
  }
  convolution_param {
    num_output: 64
    pad: 2
    kernel_size: 5
    stride: 1
    weight_filler {
      type: "gaussian"
      std: 0.01
    }
    bias_filler {
      type: "constant"
    }
  }
}
layer {
  name: "relu3"
  type: "ReLU"
  bottom: "conv3"
  top: "conv3"
}
layer {
  name: "conv4"
  type: "Convolution"
  bottom: "conv3"
  top: "conv4"
  param {
    lr_mult: 1
  }
  param {
    lr_mult: 2
  }
  convolution_param {
    num_output: 64
    pad: 2
    kernel_size: 5
    stride: 1
    weight_filler {
      type: "gaussian"
      std: 0.01
    }
    bias_filler {
      type: "constant"
    }
  }
}
layer {
  name: "relu4"
  type: "ReLU"
  bottom: "conv4"
  top: "conv4"
}
layer {
  name: "conv5"
  type: "Convolution"
  bottom: "conv4"
  top: "conv5"
  param {
    lr_mult: 1
  }
  param {
    lr_mult: 2
  }
  convolution_param {
    num_output: 64
    pad: 2
    kernel_size: 5
    stride: 1
    weight_filler {
      type: "gaussian"
      std: 0.01
    }
    bias_filler {
      type: "constant"
    }
  }
}
layer {
  name: "relu5"
  type: "ReLU"
  bottom: "conv5"
  top: "conv5"
}
layer {
  name: "pool5"
  type: "Pooling"
  bottom: "conv5"
  top: "pool5"
  pooling_param {
    pool: AVE
    kernel_size: 3
    stride: 2
  }
}
layer {
  name: "ip1"
  type: "InnerProduct"
  bottom: "pool5"
  top: "ip1"
  param {
    lr_mult: 1
  }
  param {
    lr_mult: 2
  }
  inner_product_param {
    num_output: 64
    weight_filler {
      type: "gaussian"
      std: 0.1
    }
    bias_filler {
      type: "constant"
    }
  }
}
layer {
  name: "ip2"
  type: "InnerProduct"
  bottom: "ip1"
  top: "ip2"
  param {
    lr_mult: 1
  }
  param {
    lr_mult: 2
  }
  inner_product_param {
    num_output: 64
    weight_filler {
      type: "gaussian"
      std: 0.1
    }
    bias_filler {
      type: "constant"
    }
  }
}
layer {
  name: "ip3"
  type: "InnerProduct"
  bottom: "ip2"
  top: "ip3"
  param {
    lr_mult: 1
  }
  param {
    lr_mult: 2
  }
  inner_product_param {
    num_output: 50
    weight_filler {
      type: "gaussian"
      std: 0.1
    }
    bias_filler {
      type: "constant"
    }
  }
}
layer {
  name: "accuracy"
  type: "Accuracy"
  bottom: "ip3"
  bottom: "label"
  top: "accuracy"
  include {
    phase: TEST
  }
}
layer {
  name: "loss"
  type: "SoftmaxWithLoss"
  bottom: "ip3"
  bottom: "label"
  top: "loss"
}
I0507 14:41:09.983728  3632 layer_factory.hpp:77] Creating layer intercept
I0507 14:41:09.983736  3632 net.cpp:94] Creating Layer intercept
I0507 14:41:09.983741  3632 net.cpp:409] intercept -> data
I0507 14:41:09.983747  3632 net.cpp:409] intercept -> label
I0507 14:41:09.983752  3632 hdf5_data_layer.cpp:79] Loading list of HDF5 filenames from: /home/purduethu/scratch/radon/d/deng106/CNNStatisticalModel/distributions/input/50_distributions_900_sample_size_test-distributions-path.txt
I0507 14:41:09.983772  3632 hdf5_data_layer.cpp:93] Number of HDF5 files: 1
I0507 14:41:10.352942  3632 net.cpp:144] Setting up intercept
I0507 14:41:10.352975  3632 net.cpp:151] Top shape: 20 1 30 30 (18000)
I0507 14:41:10.352980  3632 net.cpp:151] Top shape: 20 (20)
I0507 14:41:10.352983  3632 net.cpp:159] Memory required for data: 72080
I0507 14:41:10.352989  3632 layer_factory.hpp:77] Creating layer label_intercept_1_split
I0507 14:41:10.353008  3632 net.cpp:94] Creating Layer label_intercept_1_split
I0507 14:41:10.353013  3632 net.cpp:435] label_intercept_1_split <- label
I0507 14:41:10.353018  3632 net.cpp:409] label_intercept_1_split -> label_intercept_1_split_0
I0507 14:41:10.353026  3632 net.cpp:409] label_intercept_1_split -> label_intercept_1_split_1
I0507 14:41:10.353070  3632 net.cpp:144] Setting up label_intercept_1_split
I0507 14:41:10.353075  3632 net.cpp:151] Top shape: 20 (20)
I0507 14:41:10.353080  3632 net.cpp:151] Top shape: 20 (20)
I0507 14:41:10.353082  3632 net.cpp:159] Memory required for data: 72240
I0507 14:41:10.353085  3632 layer_factory.hpp:77] Creating layer conv1
I0507 14:41:10.353096  3632 net.cpp:94] Creating Layer conv1
I0507 14:41:10.353099  3632 net.cpp:435] conv1 <- data
I0507 14:41:10.353104  3632 net.cpp:409] conv1 -> conv1
I0507 14:41:10.354631  3632 net.cpp:144] Setting up conv1
I0507 14:41:10.354645  3632 net.cpp:151] Top shape: 20 64 30 30 (1152000)
I0507 14:41:10.354650  3632 net.cpp:159] Memory required for data: 4680240
I0507 14:41:10.354658  3632 layer_factory.hpp:77] Creating layer relu1
I0507 14:41:10.354665  3632 net.cpp:94] Creating Layer relu1
I0507 14:41:10.354668  3632 net.cpp:435] relu1 <- conv1
I0507 14:41:10.354672  3632 net.cpp:396] relu1 -> conv1 (in-place)
I0507 14:41:10.354679  3632 net.cpp:144] Setting up relu1
I0507 14:41:10.354683  3632 net.cpp:151] Top shape: 20 64 30 30 (1152000)
I0507 14:41:10.354686  3632 net.cpp:159] Memory required for data: 9288240
I0507 14:41:10.354689  3632 layer_factory.hpp:77] Creating layer conv2
I0507 14:41:10.354697  3632 net.cpp:94] Creating Layer conv2
I0507 14:41:10.354701  3632 net.cpp:435] conv2 <- conv1
I0507 14:41:10.354706  3632 net.cpp:409] conv2 -> conv2
I0507 14:41:10.362447  3632 net.cpp:144] Setting up conv2
I0507 14:41:10.362462  3632 net.cpp:151] Top shape: 20 64 30 30 (1152000)
I0507 14:41:10.362465  3632 net.cpp:159] Memory required for data: 13896240
I0507 14:41:10.362473  3632 layer_factory.hpp:77] Creating layer relu2
I0507 14:41:10.362479  3632 net.cpp:94] Creating Layer relu2
I0507 14:41:10.362483  3632 net.cpp:435] relu2 <- conv2
I0507 14:41:10.362488  3632 net.cpp:396] relu2 -> conv2 (in-place)
I0507 14:41:10.362493  3632 net.cpp:144] Setting up relu2
I0507 14:41:10.362498  3632 net.cpp:151] Top shape: 20 64 30 30 (1152000)
I0507 14:41:10.362500  3632 net.cpp:159] Memory required for data: 18504240
I0507 14:41:10.362504  3632 layer_factory.hpp:77] Creating layer pool2
I0507 14:41:10.362509  3632 net.cpp:94] Creating Layer pool2
I0507 14:41:10.362512  3632 net.cpp:435] pool2 <- conv2
I0507 14:41:10.362517  3632 net.cpp:409] pool2 -> pool2
I0507 14:41:10.362581  3632 net.cpp:144] Setting up pool2
I0507 14:41:10.362587  3632 net.cpp:151] Top shape: 20 64 15 15 (288000)
I0507 14:41:10.362589  3632 net.cpp:159] Memory required for data: 19656240
I0507 14:41:10.362593  3632 layer_factory.hpp:77] Creating layer conv3
I0507 14:41:10.362601  3632 net.cpp:94] Creating Layer conv3
I0507 14:41:10.362606  3632 net.cpp:435] conv3 <- pool2
I0507 14:41:10.362610  3632 net.cpp:409] conv3 -> conv3
I0507 14:41:10.367755  3632 net.cpp:144] Setting up conv3
I0507 14:41:10.367769  3632 net.cpp:151] Top shape: 20 64 15 15 (288000)
I0507 14:41:10.367774  3632 net.cpp:159] Memory required for data: 20808240
I0507 14:41:10.367781  3632 layer_factory.hpp:77] Creating layer relu3
I0507 14:41:10.367789  3632 net.cpp:94] Creating Layer relu3
I0507 14:41:10.367791  3632 net.cpp:435] relu3 <- conv3
I0507 14:41:10.367797  3632 net.cpp:396] relu3 -> conv3 (in-place)
I0507 14:41:10.367805  3632 net.cpp:144] Setting up relu3
I0507 14:41:10.367810  3632 net.cpp:151] Top shape: 20 64 15 15 (288000)
I0507 14:41:10.367811  3632 net.cpp:159] Memory required for data: 21960240
I0507 14:41:10.367815  3632 layer_factory.hpp:77] Creating layer conv4
I0507 14:41:10.367823  3632 net.cpp:94] Creating Layer conv4
I0507 14:41:10.367826  3632 net.cpp:435] conv4 <- conv3
I0507 14:41:10.367832  3632 net.cpp:409] conv4 -> conv4
I0507 14:41:10.372548  3632 net.cpp:144] Setting up conv4
I0507 14:41:10.372573  3632 net.cpp:151] Top shape: 20 64 15 15 (288000)
I0507 14:41:10.372576  3632 net.cpp:159] Memory required for data: 23112240
I0507 14:41:10.372583  3632 layer_factory.hpp:77] Creating layer relu4
I0507 14:41:10.372588  3632 net.cpp:94] Creating Layer relu4
I0507 14:41:10.372592  3632 net.cpp:435] relu4 <- conv4
I0507 14:41:10.372596  3632 net.cpp:396] relu4 -> conv4 (in-place)
I0507 14:41:10.372603  3632 net.cpp:144] Setting up relu4
I0507 14:41:10.372607  3632 net.cpp:151] Top shape: 20 64 15 15 (288000)
I0507 14:41:10.372611  3632 net.cpp:159] Memory required for data: 24264240
I0507 14:41:10.372613  3632 layer_factory.hpp:77] Creating layer conv5
I0507 14:41:10.372622  3632 net.cpp:94] Creating Layer conv5
I0507 14:41:10.372625  3632 net.cpp:435] conv5 <- conv4
I0507 14:41:10.372632  3632 net.cpp:409] conv5 -> conv5
I0507 14:41:10.377337  3632 net.cpp:144] Setting up conv5
I0507 14:41:10.377352  3632 net.cpp:151] Top shape: 20 64 15 15 (288000)
I0507 14:41:10.377357  3632 net.cpp:159] Memory required for data: 25416240
I0507 14:41:10.377364  3632 layer_factory.hpp:77] Creating layer relu5
I0507 14:41:10.377372  3632 net.cpp:94] Creating Layer relu5
I0507 14:41:10.377375  3632 net.cpp:435] relu5 <- conv5
I0507 14:41:10.377379  3632 net.cpp:396] relu5 -> conv5 (in-place)
I0507 14:41:10.377387  3632 net.cpp:144] Setting up relu5
I0507 14:41:10.377390  3632 net.cpp:151] Top shape: 20 64 15 15 (288000)
I0507 14:41:10.377393  3632 net.cpp:159] Memory required for data: 26568240
I0507 14:41:10.377396  3632 layer_factory.hpp:77] Creating layer pool5
I0507 14:41:10.377401  3632 net.cpp:94] Creating Layer pool5
I0507 14:41:10.377405  3632 net.cpp:435] pool5 <- conv5
I0507 14:41:10.377409  3632 net.cpp:409] pool5 -> pool5
I0507 14:41:10.377451  3632 net.cpp:144] Setting up pool5
I0507 14:41:10.377460  3632 net.cpp:151] Top shape: 20 64 7 7 (62720)
I0507 14:41:10.377461  3632 net.cpp:159] Memory required for data: 26819120
I0507 14:41:10.377465  3632 layer_factory.hpp:77] Creating layer ip1
I0507 14:41:10.377471  3632 net.cpp:94] Creating Layer ip1
I0507 14:41:10.377475  3632 net.cpp:435] ip1 <- pool5
I0507 14:41:10.377480  3632 net.cpp:409] ip1 -> ip1
I0507 14:41:10.383123  3632 net.cpp:144] Setting up ip1
I0507 14:41:10.383136  3632 net.cpp:151] Top shape: 20 64 (1280)
I0507 14:41:10.383141  3632 net.cpp:159] Memory required for data: 26824240
I0507 14:41:10.383146  3632 layer_factory.hpp:77] Creating layer ip2
I0507 14:41:10.383152  3632 net.cpp:94] Creating Layer ip2
I0507 14:41:10.383157  3632 net.cpp:435] ip2 <- ip1
I0507 14:41:10.383160  3632 net.cpp:409] ip2 -> ip2
I0507 14:41:10.383404  3632 net.cpp:144] Setting up ip2
I0507 14:41:10.383412  3632 net.cpp:151] Top shape: 20 64 (1280)
I0507 14:41:10.383415  3632 net.cpp:159] Memory required for data: 26829360
I0507 14:41:10.383420  3632 layer_factory.hpp:77] Creating layer ip3
I0507 14:41:10.383429  3632 net.cpp:94] Creating Layer ip3
I0507 14:41:10.383432  3632 net.cpp:435] ip3 <- ip2
I0507 14:41:10.383437  3632 net.cpp:409] ip3 -> ip3
I0507 14:41:10.383642  3632 net.cpp:144] Setting up ip3
I0507 14:41:10.383651  3632 net.cpp:151] Top shape: 20 50 (1000)
I0507 14:41:10.383653  3632 net.cpp:159] Memory required for data: 26833360
I0507 14:41:10.383658  3632 layer_factory.hpp:77] Creating layer ip3_ip3_0_split
I0507 14:41:10.383663  3632 net.cpp:94] Creating Layer ip3_ip3_0_split
I0507 14:41:10.383666  3632 net.cpp:435] ip3_ip3_0_split <- ip3
I0507 14:41:10.383671  3632 net.cpp:409] ip3_ip3_0_split -> ip3_ip3_0_split_0
I0507 14:41:10.383675  3632 net.cpp:409] ip3_ip3_0_split -> ip3_ip3_0_split_1
I0507 14:41:10.383718  3632 net.cpp:144] Setting up ip3_ip3_0_split
I0507 14:41:10.383724  3632 net.cpp:151] Top shape: 20 50 (1000)
I0507 14:41:10.383728  3632 net.cpp:151] Top shape: 20 50 (1000)
I0507 14:41:10.383730  3632 net.cpp:159] Memory required for data: 26841360
I0507 14:41:10.383733  3632 layer_factory.hpp:77] Creating layer accuracy
I0507 14:41:10.383739  3632 net.cpp:94] Creating Layer accuracy
I0507 14:41:10.383743  3632 net.cpp:435] accuracy <- ip3_ip3_0_split_0
I0507 14:41:10.383746  3632 net.cpp:435] accuracy <- label_intercept_1_split_0
I0507 14:41:10.383749  3632 net.cpp:409] accuracy -> accuracy
…
