…
I0503 08:32:32.597363 19611 net.cpp:323] The NetState phase (0) differed from the phase (1) specified by a rule in layer intercept
I0503 08:32:32.597381 19611 net.cpp:323] The NetState phase (0) differed from the phase (1) specified by a rule in layer loss
I0503 08:32:32.597477 19611 net.cpp:52] Initializing net from parameters: 
state {
  phase: TRAIN
}
layer {
  name: "parameters"
  type: "HDF5Data"
  top: "data"
  top: "label"
  include {
    phase: TRAIN
  }
  hdf5_data_param {
    source: "/home/purduethu/scratch/radon/d/deng106/CNNStatisticalModel/distributions/input/20_distributions_100_sample_size_train-parameters-path.txt"
    batch_size: 20
  }
}
layer {
  name: "conv1"
  type: "Convolution"
  bottom: "data"
  top: "conv1"
  param {
    lr_mult: 1
  }
  param {
    lr_mult: 2
  }
  convolution_param {
    num_output: 64
    pad: 2
    kernel_size: 5
    stride: 1
    weight_filler {
      type: "gaussian"
      std: 0.0001
    }
    bias_filler {
      type: "constant"
    }
  }
}
layer {
  name: "relu1"
  type: "ReLU"
  bottom: "conv1"
  top: "conv1"
}
layer {
  name: "conv2"
  type: "Convolution"
  bottom: "conv1"
  top: "conv2"
  param {
    lr_mult: 1
  }
  param {
    lr_mult: 2
  }
  convolution_param {
    num_output: 64
    pad: 2
    kernel_size: 5
    stride: 1
    weight_filler {
      type: "gaussian"
      std: 0.01
    }
    bias_filler {
      type: "constant"
    }
  }
}
layer {
  name: "relu2"
  type: "ReLU"
  bottom: "conv2"
  top: "conv2"
}
layer {
  name: "pool2"
  type: "Pooling"
  bottom: "conv2"
  top: "pool2"
  pooling_param {
    pool: MAX
    kernel_size: 3
    stride: 2
  }
}
layer {
  name: "conv3"
  type: "Convolution"
  bottom: "pool2"
  top: "conv3"
  param {
    lr_mult: 1
  }
  param {
    lr_mult: 2
  }
  convolution_param {
    num_output: 128
    pad: 2
    kernel_size: 5
    stride: 1
    weight_filler {
      type: "gaussian"
      std: 0.01
    }
    bias_filler {
      type: "constant"
    }
  }
}
layer {
  name: "relu3"
  type: "ReLU"
  bottom: "conv3"
  top: "conv3"
}
layer {
  name: "conv4"
  type: "Convolution"
  bottom: "conv3"
  top: "conv4"
  param {
    lr_mult: 1
  }
  param {
    lr_mult: 2
  }
  convolution_param {
    num_output: 128
    pad: 2
    kernel_size: 5
    stride: 1
    weight_filler {
      type: "gaussian"
      std: 0.01
    }
    bias_filler {
      type: "constant"
    }
  }
}
layer {
  name: "relu4"
  type: "ReLU"
  bottom: "conv4"
  top: "conv4"
}
layer {
  name: "conv5"
  type: "Convolution"
  bottom: "conv4"
  top: "conv5"
  param {
    lr_mult: 1
  }
  param {
    lr_mult: 2
  }
  convolution_param {
    num_output: 128
    pad: 2
    kernel_size: 5
    stride: 1
    weight_filler {
      type: "gaussian"
      std: 0.01
    }
    bias_filler {
      type: "constant"
    }
  }
}
layer {
  name: "relu5"
  type: "ReLU"
  bottom: "conv5"
  top: "conv5"
}
layer {
  name: "pool5"
  type: "Pooling"
  bottom: "conv5"
  top: "pool5"
  pooling_param {
    pool: AVE
    kernel_size: 3
    stride: 2
  }
}
layer {
  name: "ip1"
  type: "InnerProduct"
  bottom: "pool5"
  top: "ip1"
  param {
    lr_mult: 1
  }
  param {
    lr_mult: 2
  }
  inner_product_param {
    num_output: 1024
    weight_filler {
      type: "gaussian"
      std: 0.1
    }
    bias_filler {
      type: "constant"
    }
  }
}
layer {
  name: "ip2"
  type: "InnerProduct"
  bottom: "ip1"
  top: "ip2"
  param {
    lr_mult: 1
  }
  param {
    lr_mult: 2
  }
  inner_product_param {
    num_output: 512
    weight_filler {
      type: "gaussian"
      std: 0.1
    }
    bias_filler {
      type: "constant"
    }
  }
}
layer {
  name: "ip3"
  type: "InnerProduct"
  bottom: "ip2"
  top: "ip3"
  param {
    lr_mult: 1
  }
  param {
    lr_mult: 2
  }
  inner_product_param {
    num_output: 1
    weight_filler {
      type: "gaussian"
      std: 0.1
    }
    bias_filler {
      type: "constant"
    }
  }
}
layer {
  name: "loss"
  type: "HuberLoss"
  bottom: "ip3"
  bottom: "label"
  top: "loss"
  include {
    phase: TRAIN
  }
}
I0503 08:32:32.597554 19611 layer_factory.hpp:77] Creating layer parameters
I0503 08:32:32.597569 19611 net.cpp:94] Creating Layer parameters
I0503 08:32:32.597575 19611 net.cpp:409] parameters -> data
I0503 08:32:32.597594 19611 net.cpp:409] parameters -> label
I0503 08:32:32.597604 19611 hdf5_data_layer.cpp:79] Loading list of HDF5 filenames from: /home/purduethu/scratch/radon/d/deng106/CNNStatisticalModel/distributions/input/20_distributions_100_sample_size_train-parameters-path.txt
I0503 08:32:32.597627 19611 hdf5_data_layer.cpp:93] Number of HDF5 files: 1
I0503 08:32:32.598199 19611 hdf5.cpp:32] Datatype class: H5T_FLOAT
I0503 08:32:32.665946 19611 net.cpp:144] Setting up parameters
I0503 08:32:32.665978 19611 net.cpp:151] Top shape: 20 1 10 10 (2000)
I0503 08:32:32.665984 19611 net.cpp:151] Top shape: 20 (20)
I0503 08:32:32.665988 19611 net.cpp:159] Memory required for data: 8080
I0503 08:32:32.665997 19611 layer_factory.hpp:77] Creating layer conv1
I0503 08:32:32.666019 19611 net.cpp:94] Creating Layer conv1
I0503 08:32:32.666025 19611 net.cpp:435] conv1 <- data
I0503 08:32:32.666036 19611 net.cpp:409] conv1 -> conv1
I0503 08:32:32.669912 19611 net.cpp:144] Setting up conv1
I0503 08:32:32.669927 19611 net.cpp:151] Top shape: 20 64 10 10 (128000)
I0503 08:32:32.669932 19611 net.cpp:159] Memory required for data: 520080
I0503 08:32:32.669944 19611 layer_factory.hpp:77] Creating layer relu1
I0503 08:32:32.669951 19611 net.cpp:94] Creating Layer relu1
I0503 08:32:32.669955 19611 net.cpp:435] relu1 <- conv1
I0503 08:32:32.669960 19611 net.cpp:396] relu1 -> conv1 (in-place)
I0503 08:32:32.669978 19611 net.cpp:144] Setting up relu1
I0503 08:32:32.669983 19611 net.cpp:151] Top shape: 20 64 10 10 (128000)
I0503 08:32:32.669986 19611 net.cpp:159] Memory required for data: 1032080
I0503 08:32:32.669991 19611 layer_factory.hpp:77] Creating layer conv2
I0503 08:32:32.669998 19611 net.cpp:94] Creating Layer conv2
I0503 08:32:32.670001 19611 net.cpp:435] conv2 <- conv1
I0503 08:32:32.670006 19611 net.cpp:409] conv2 -> conv2
I0503 08:32:32.675165 19611 net.cpp:144] Setting up conv2
I0503 08:32:32.675180 19611 net.cpp:151] Top shape: 20 64 10 10 (128000)
I0503 08:32:32.675184 19611 net.cpp:159] Memory required for data: 1544080
I0503 08:32:32.675192 19611 layer_factory.hpp:77] Creating layer relu2
I0503 08:32:32.675199 19611 net.cpp:94] Creating Layer relu2
I0503 08:32:32.675204 19611 net.cpp:435] relu2 <- conv2
I0503 08:32:32.675209 19611 net.cpp:396] relu2 -> conv2 (in-place)
I0503 08:32:32.675215 19611 net.cpp:144] Setting up relu2
I0503 08:32:32.675220 19611 net.cpp:151] Top shape: 20 64 10 10 (128000)
I0503 08:32:32.675223 19611 net.cpp:159] Memory required for data: 2056080
I0503 08:32:32.675226 19611 layer_factory.hpp:77] Creating layer pool2
I0503 08:32:32.675235 19611 net.cpp:94] Creating Layer pool2
I0503 08:32:32.675245 19611 net.cpp:435] pool2 <- conv2
I0503 08:32:32.675249 19611 net.cpp:409] pool2 -> pool2
I0503 08:32:32.675294 19611 net.cpp:144] Setting up pool2
I0503 08:32:32.675302 19611 net.cpp:151] Top shape: 20 64 5 5 (32000)
I0503 08:32:32.675305 19611 net.cpp:159] Memory required for data: 2184080
I0503 08:32:32.675308 19611 layer_factory.hpp:77] Creating layer conv3
I0503 08:32:32.675318 19611 net.cpp:94] Creating Layer conv3
I0503 08:32:32.675321 19611 net.cpp:435] conv3 <- pool2
I0503 08:32:32.675326 19611 net.cpp:409] conv3 -> conv3
I0503 08:32:32.683486 19611 net.cpp:144] Setting up conv3
I0503 08:32:32.683501 19611 net.cpp:151] Top shape: 20 128 5 5 (64000)
I0503 08:32:32.683504 19611 net.cpp:159] Memory required for data: 2440080
I0503 08:32:32.683513 19611 layer_factory.hpp:77] Creating layer relu3
I0503 08:32:32.683519 19611 net.cpp:94] Creating Layer relu3
I0503 08:32:32.683523 19611 net.cpp:435] relu3 <- conv3
I0503 08:32:32.683528 19611 net.cpp:396] relu3 -> conv3 (in-place)
I0503 08:32:32.683535 19611 net.cpp:144] Setting up relu3
I0503 08:32:32.683540 19611 net.cpp:151] Top shape: 20 128 5 5 (64000)
I0503 08:32:32.683543 19611 net.cpp:159] Memory required for data: 2696080
I0503 08:32:32.683547 19611 layer_factory.hpp:77] Creating layer conv4
I0503 08:32:32.683555 19611 net.cpp:94] Creating Layer conv4
I0503 08:32:32.683559 19611 net.cpp:435] conv4 <- conv3
I0503 08:32:32.683564 19611 net.cpp:409] conv4 -> conv4
I0503 08:32:32.698457 19611 net.cpp:144] Setting up conv4
I0503 08:32:32.698473 19611 net.cpp:151] Top shape: 20 128 5 5 (64000)
I0503 08:32:32.698477 19611 net.cpp:159] Memory required for data: 2952080
I0503 08:32:32.698484 19611 layer_factory.hpp:77] Creating layer relu4
I0503 08:32:32.698492 19611 net.cpp:94] Creating Layer relu4
I0503 08:32:32.698495 19611 net.cpp:435] relu4 <- conv4
I0503 08:32:32.698500 19611 net.cpp:396] relu4 -> conv4 (in-place)
I0503 08:32:32.698508 19611 net.cpp:144] Setting up relu4
I0503 08:32:32.698513 19611 net.cpp:151] Top shape: 20 128 5 5 (64000)
I0503 08:32:32.698515 19611 net.cpp:159] Memory required for data: 3208080
I0503 08:32:32.698519 19611 layer_factory.hpp:77] Creating layer conv5
I0503 08:32:32.698526 19611 net.cpp:94] Creating Layer conv5
I0503 08:32:32.698530 19611 net.cpp:435] conv5 <- conv4
I0503 08:32:32.698535 19611 net.cpp:409] conv5 -> conv5
I0503 08:32:32.713213 19611 net.cpp:144] Setting up conv5
I0503 08:32:32.713253 19611 net.cpp:151] Top shape: 20 128 5 5 (64000)
I0503 08:32:32.713265 19611 net.cpp:159] Memory required for data: 3464080
I0503 08:32:32.713289 19611 layer_factory.hpp:77] Creating layer relu5
I0503 08:32:32.713305 19611 net.cpp:94] Creating Layer relu5
I0503 08:32:32.713316 19611 net.cpp:435] relu5 <- conv5
I0503 08:32:32.713330 19611 net.cpp:396] relu5 -> conv5 (in-place)
I0503 08:32:32.713351 19611 net.cpp:144] Setting up relu5
I0503 08:32:32.713364 19611 net.cpp:151] Top shape: 20 128 5 5 (64000)
I0503 08:32:32.713374 19611 net.cpp:159] Memory required for data: 3720080
I0503 08:32:32.713383 19611 layer_factory.hpp:77] Creating layer pool5
I0503 08:32:32.713397 19611 net.cpp:94] Creating Layer pool5
I0503 08:32:32.713407 19611 net.cpp:435] pool5 <- conv5
I0503 08:32:32.713419 19611 net.cpp:409] pool5 -> pool5
I0503 08:32:32.713507 19611 net.cpp:144] Setting up pool5
I0503 08:32:32.713526 19611 net.cpp:151] Top shape: 20 128 2 2 (10240)
I0503 08:32:32.713536 19611 net.cpp:159] Memory required for data: 3761040
I0503 08:32:32.713546 19611 layer_factory.hpp:77] Creating layer ip1
I0503 08:32:32.713567 19611 net.cpp:94] Creating Layer ip1
I0503 08:32:32.713577 19611 net.cpp:435] ip1 <- pool5
I0503 08:32:32.713591 19611 net.cpp:409] ip1 -> ip1
I0503 08:32:32.727705 19611 net.cpp:144] Setting up ip1
I0503 08:32:32.727720 19611 net.cpp:151] Top shape: 20 1024 (20480)
I0503 08:32:32.727725 19611 net.cpp:159] Memory required for data: 3842960
I0503 08:32:32.727731 19611 layer_factory.hpp:77] Creating layer ip2
I0503 08:32:32.727738 19611 net.cpp:94] Creating Layer ip2
I0503 08:32:32.727742 19611 net.cpp:435] ip2 <- ip1
I0503 08:32:32.727752 19611 net.cpp:409] ip2 -> ip2
I0503 08:32:32.741183 19611 net.cpp:144] Setting up ip2
I0503 08:32:32.741197 19611 net.cpp:151] Top shape: 20 512 (10240)
I0503 08:32:32.741201 19611 net.cpp:159] Memory required for data: 3883920
I0503 08:32:32.741207 19611 layer_factory.hpp:77] Creating layer ip3
I0503 08:32:32.741214 19611 net.cpp:94] Creating Layer ip3
I0503 08:32:32.741217 19611 net.cpp:435] ip3 <- ip2
I0503 08:32:32.741224 19611 net.cpp:409] ip3 -> ip3
I0503 08:32:32.741302 19611 net.cpp:144] Setting up ip3
I0503 08:32:32.741307 19611 net.cpp:151] Top shape: 20 1 (20)
I0503 08:32:32.741319 19611 net.cpp:159] Memory required for data: 3884000
I0503 08:32:32.741325 19611 layer_factory.hpp:77] Creating layer loss
I0503 08:32:32.741333 19611 net.cpp:94] Creating Layer loss
I0503 08:32:32.741336 19611 net.cpp:435] loss <- ip3
I0503 08:32:32.741340 19611 net.cpp:435] loss <- label
I0503 08:32:32.741346 19611 net.cpp:409] loss -> loss
I0503 08:32:32.741382 19611 net.cpp:144] Setting up loss
…
