…
I0501 18:21:16.259814 13941 net.cpp:323] The NetState phase (0) differed from the phase (1) specified by a rule in layer intercept
I0501 18:21:16.259831 13941 net.cpp:323] The NetState phase (0) differed from the phase (1) specified by a rule in layer loss
I0501 18:21:16.259923 13941 net.cpp:52] Initializing net from parameters: 
state {
  phase: TRAIN
}
layer {
  name: "parameters"
  type: "HDF5Data"
  top: "data"
  top: "label"
  include {
    phase: TRAIN
  }
  hdf5_data_param {
    source: "/home/purduethu/scratch/radon/d/deng106/CNNStatisticalModel/distributions/input/50_distributions_900_sample_size_train-parameters-path.txt"
    batch_size: 20
  }
}
layer {
  name: "conv1"
  type: "Convolution"
  bottom: "data"
  top: "conv1"
  param {
    lr_mult: 1
  }
  param {
    lr_mult: 2
  }
  convolution_param {
    num_output: 64
    pad: 2
    kernel_size: 5
    stride: 1
    weight_filler {
      type: "gaussian"
      std: 0.0001
    }
    bias_filler {
      type: "constant"
    }
  }
}
layer {
  name: "relu1"
  type: "ReLU"
  bottom: "conv1"
  top: "conv1"
}
layer {
  name: "conv2"
  type: "Convolution"
  bottom: "conv1"
  top: "conv2"
  param {
    lr_mult: 1
  }
  param {
    lr_mult: 2
  }
  convolution_param {
    num_output: 64
    pad: 2
    kernel_size: 5
    stride: 1
    weight_filler {
      type: "gaussian"
      std: 0.01
    }
    bias_filler {
      type: "constant"
    }
  }
}
layer {
  name: "relu2"
  type: "ReLU"
  bottom: "conv2"
  top: "conv2"
}
layer {
  name: "pool2"
  type: "Pooling"
  bottom: "conv2"
  top: "pool2"
  pooling_param {
    pool: MAX
    kernel_size: 3
    stride: 2
  }
}
layer {
  name: "conv3"
  type: "Convolution"
  bottom: "pool2"
  top: "conv3"
  param {
    lr_mult: 1
  }
  param {
    lr_mult: 2
  }
  convolution_param {
    num_output: 64
    pad: 2
    kernel_size: 5
    stride: 1
    weight_filler {
      type: "gaussian"
      std: 0.01
    }
    bias_filler {
      type: "constant"
    }
  }
}
layer {
  name: "relu3"
  type: "ReLU"
  bottom: "conv3"
  top: "conv3"
}
layer {
  name: "conv4"
  type: "Convolution"
  bottom: "conv3"
  top: "conv4"
  param {
    lr_mult: 1
  }
  param {
    lr_mult: 2
  }
  convolution_param {
    num_output: 64
    pad: 2
    kernel_size: 5
    stride: 1
    weight_filler {
      type: "gaussian"
      std: 0.01
    }
    bias_filler {
      type: "constant"
    }
  }
}
layer {
  name: "relu4"
  type: "ReLU"
  bottom: "conv4"
  top: "conv4"
}
layer {
  name: "conv5"
  type: "Convolution"
  bottom: "conv4"
  top: "conv5"
  param {
    lr_mult: 1
  }
  param {
    lr_mult: 2
  }
  convolution_param {
    num_output: 64
    pad: 2
    kernel_size: 5
    stride: 1
    weight_filler {
      type: "gaussian"
      std: 0.01
    }
    bias_filler {
      type: "constant"
    }
  }
}
layer {
  name: "relu5"
  type: "ReLU"
  bottom: "conv5"
  top: "conv5"
}
layer {
  name: "pool5"
  type: "Pooling"
  bottom: "conv5"
  top: "pool5"
  pooling_param {
    pool: AVE
    kernel_size: 3
    stride: 2
  }
}
layer {
  name: "ip1"
  type: "InnerProduct"
  bottom: "pool5"
  top: "ip1"
  param {
    lr_mult: 1
  }
  param {
    lr_mult: 2
  }
  inner_product_param {
    num_output: 64
    weight_filler {
      type: "gaussian"
      std: 0.1
    }
    bias_filler {
      type: "constant"
    }
  }
}
layer {
  name: "ip2"
  type: "InnerProduct"
  bottom: "ip1"
  top: "ip2"
  param {
    lr_mult: 1
  }
  param {
    lr_mult: 2
  }
  inner_product_param {
    num_output: 64
    weight_filler {
      type: "gaussian"
      std: 0.1
    }
    bias_filler {
      type: "constant"
    }
  }
}
layer {
  name: "ip3"
  type: "InnerProduct"
  bottom: "ip2"
  top: "ip3"
  param {
    lr_mult: 1
  }
  param {
    lr_mult: 2
  }
  inner_product_param {
    num_output: 1
    weight_filler {
      type: "gaussian"
      std: 0.1
    }
    bias_filler {
      type: "constant"
    }
  }
}
layer {
  name: "loss"
  type: "HuberLoss"
  bottom: "ip3"
  bottom: "label"
  top: "loss"
  include {
    phase: TRAIN
  }
}
I0501 18:21:16.259999 13941 layer_factory.hpp:77] Creating layer parameters
I0501 18:21:16.260012 13941 net.cpp:94] Creating Layer parameters
I0501 18:21:16.260017 13941 net.cpp:409] parameters -> data
I0501 18:21:16.260036 13941 net.cpp:409] parameters -> label
I0501 18:21:16.260049 13941 hdf5_data_layer.cpp:79] Loading list of HDF5 filenames from: /home/purduethu/scratch/radon/d/deng106/CNNStatisticalModel/distributions/input/50_distributions_900_sample_size_train-parameters-path.txt
I0501 18:21:16.260071 13941 hdf5_data_layer.cpp:93] Number of HDF5 files: 1
I0501 18:21:16.260643 13941 hdf5.cpp:32] Datatype class: H5T_FLOAT
I0501 18:21:17.714082 13941 net.cpp:144] Setting up parameters
I0501 18:21:17.714118 13941 net.cpp:151] Top shape: 20 1 30 30 (18000)
I0501 18:21:17.714124 13941 net.cpp:151] Top shape: 20 (20)
I0501 18:21:17.714128 13941 net.cpp:159] Memory required for data: 72080
I0501 18:21:17.714135 13941 layer_factory.hpp:77] Creating layer conv1
I0501 18:21:17.714159 13941 net.cpp:94] Creating Layer conv1
I0501 18:21:17.714165 13941 net.cpp:435] conv1 <- data
I0501 18:21:17.714176 13941 net.cpp:409] conv1 -> conv1
I0501 18:21:17.720181 13941 net.cpp:144] Setting up conv1
I0501 18:21:17.720203 13941 net.cpp:151] Top shape: 20 64 30 30 (1152000)
I0501 18:21:17.720208 13941 net.cpp:159] Memory required for data: 4680080
I0501 18:21:17.720221 13941 layer_factory.hpp:77] Creating layer relu1
I0501 18:21:17.720229 13941 net.cpp:94] Creating Layer relu1
I0501 18:21:17.720233 13941 net.cpp:435] relu1 <- conv1
I0501 18:21:17.720237 13941 net.cpp:396] relu1 -> conv1 (in-place)
I0501 18:21:17.720254 13941 net.cpp:144] Setting up relu1
I0501 18:21:17.720259 13941 net.cpp:151] Top shape: 20 64 30 30 (1152000)
I0501 18:21:17.720263 13941 net.cpp:159] Memory required for data: 9288080
I0501 18:21:17.720265 13941 layer_factory.hpp:77] Creating layer conv2
I0501 18:21:17.720274 13941 net.cpp:94] Creating Layer conv2
I0501 18:21:17.720278 13941 net.cpp:435] conv2 <- conv1
I0501 18:21:17.720283 13941 net.cpp:409] conv2 -> conv2
I0501 18:21:17.735855 13941 net.cpp:144] Setting up conv2
I0501 18:21:17.735895 13941 net.cpp:151] Top shape: 20 64 30 30 (1152000)
I0501 18:21:17.735906 13941 net.cpp:159] Memory required for data: 13896080
I0501 18:21:17.735929 13941 layer_factory.hpp:77] Creating layer relu2
I0501 18:21:17.735946 13941 net.cpp:94] Creating Layer relu2
I0501 18:21:17.735957 13941 net.cpp:435] relu2 <- conv2
I0501 18:21:17.735970 13941 net.cpp:396] relu2 -> conv2 (in-place)
I0501 18:21:17.735991 13941 net.cpp:144] Setting up relu2
I0501 18:21:17.736003 13941 net.cpp:151] Top shape: 20 64 30 30 (1152000)
I0501 18:21:17.736012 13941 net.cpp:159] Memory required for data: 18504080
I0501 18:21:17.736021 13941 layer_factory.hpp:77] Creating layer pool2
I0501 18:21:17.736037 13941 net.cpp:94] Creating Layer pool2
I0501 18:21:17.736057 13941 net.cpp:435] pool2 <- conv2
I0501 18:21:17.736071 13941 net.cpp:409] pool2 -> pool2
I0501 18:21:17.736158 13941 net.cpp:144] Setting up pool2
I0501 18:21:17.736166 13941 net.cpp:151] Top shape: 20 64 15 15 (288000)
I0501 18:21:17.736168 13941 net.cpp:159] Memory required for data: 19656080
I0501 18:21:17.736171 13941 layer_factory.hpp:77] Creating layer conv3
I0501 18:21:17.736179 13941 net.cpp:94] Creating Layer conv3
I0501 18:21:17.736182 13941 net.cpp:435] conv3 <- pool2
I0501 18:21:17.736187 13941 net.cpp:409] conv3 -> conv3
I0501 18:21:17.744753 13941 net.cpp:144] Setting up conv3
I0501 18:21:17.744770 13941 net.cpp:151] Top shape: 20 64 15 15 (288000)
I0501 18:21:17.744773 13941 net.cpp:159] Memory required for data: 20808080
I0501 18:21:17.744782 13941 layer_factory.hpp:77] Creating layer relu3
I0501 18:21:17.744789 13941 net.cpp:94] Creating Layer relu3
I0501 18:21:17.744793 13941 net.cpp:435] relu3 <- conv3
I0501 18:21:17.744798 13941 net.cpp:396] relu3 -> conv3 (in-place)
I0501 18:21:17.744806 13941 net.cpp:144] Setting up relu3
I0501 18:21:17.744810 13941 net.cpp:151] Top shape: 20 64 15 15 (288000)
I0501 18:21:17.744813 13941 net.cpp:159] Memory required for data: 21960080
I0501 18:21:17.744817 13941 layer_factory.hpp:77] Creating layer conv4
I0501 18:21:17.744827 13941 net.cpp:94] Creating Layer conv4
I0501 18:21:17.744829 13941 net.cpp:435] conv4 <- conv3
I0501 18:21:17.744835 13941 net.cpp:409] conv4 -> conv4
I0501 18:21:17.752323 13941 net.cpp:144] Setting up conv4
I0501 18:21:17.752341 13941 net.cpp:151] Top shape: 20 64 15 15 (288000)
I0501 18:21:17.752344 13941 net.cpp:159] Memory required for data: 23112080
I0501 18:21:17.752351 13941 layer_factory.hpp:77] Creating layer relu4
I0501 18:21:17.752357 13941 net.cpp:94] Creating Layer relu4
I0501 18:21:17.752362 13941 net.cpp:435] relu4 <- conv4
I0501 18:21:17.752367 13941 net.cpp:396] relu4 -> conv4 (in-place)
I0501 18:21:17.752374 13941 net.cpp:144] Setting up relu4
I0501 18:21:17.752379 13941 net.cpp:151] Top shape: 20 64 15 15 (288000)
I0501 18:21:17.752382 13941 net.cpp:159] Memory required for data: 24264080
I0501 18:21:17.752385 13941 layer_factory.hpp:77] Creating layer conv5
I0501 18:21:17.752394 13941 net.cpp:94] Creating Layer conv5
I0501 18:21:17.752398 13941 net.cpp:435] conv5 <- conv4
I0501 18:21:17.752403 13941 net.cpp:409] conv5 -> conv5
I0501 18:21:17.759945 13941 net.cpp:144] Setting up conv5
I0501 18:21:17.759984 13941 net.cpp:151] Top shape: 20 64 15 15 (288000)
I0501 18:21:17.759996 13941 net.cpp:159] Memory required for data: 25416080
I0501 18:21:17.760026 13941 layer_factory.hpp:77] Creating layer relu5
I0501 18:21:17.760032 13941 net.cpp:94] Creating Layer relu5
I0501 18:21:17.760036 13941 net.cpp:435] relu5 <- conv5
I0501 18:21:17.760041 13941 net.cpp:396] relu5 -> conv5 (in-place)
I0501 18:21:17.760049 13941 net.cpp:144] Setting up relu5
I0501 18:21:17.760054 13941 net.cpp:151] Top shape: 20 64 15 15 (288000)
I0501 18:21:17.760057 13941 net.cpp:159] Memory required for data: 26568080
I0501 18:21:17.760061 13941 layer_factory.hpp:77] Creating layer pool5
I0501 18:21:17.760066 13941 net.cpp:94] Creating Layer pool5
I0501 18:21:17.760069 13941 net.cpp:435] pool5 <- conv5
I0501 18:21:17.760074 13941 net.cpp:409] pool5 -> pool5
I0501 18:21:17.760112 13941 net.cpp:144] Setting up pool5
I0501 18:21:17.760119 13941 net.cpp:151] Top shape: 20 64 7 7 (62720)
I0501 18:21:17.760123 13941 net.cpp:159] Memory required for data: 26818960
I0501 18:21:17.760126 13941 layer_factory.hpp:77] Creating layer ip1
I0501 18:21:17.760136 13941 net.cpp:94] Creating Layer ip1
I0501 18:21:17.760139 13941 net.cpp:435] ip1 <- pool5
I0501 18:21:17.760145 13941 net.cpp:409] ip1 -> ip1
I0501 18:21:17.766091 13941 net.cpp:144] Setting up ip1
I0501 18:21:17.766106 13941 net.cpp:151] Top shape: 20 64 (1280)
I0501 18:21:17.766111 13941 net.cpp:159] Memory required for data: 26824080
I0501 18:21:17.766118 13941 layer_factory.hpp:77] Creating layer ip2
I0501 18:21:17.766124 13941 net.cpp:94] Creating Layer ip2
I0501 18:21:17.766132 13941 net.cpp:435] ip2 <- ip1
I0501 18:21:17.766139 13941 net.cpp:409] ip2 -> ip2
I0501 18:21:17.766324 13941 net.cpp:144] Setting up ip2
I0501 18:21:17.766332 13941 net.cpp:151] Top shape: 20 64 (1280)
I0501 18:21:17.766335 13941 net.cpp:159] Memory required for data: 26829200
I0501 18:21:17.766340 13941 layer_factory.hpp:77] Creating layer ip3
I0501 18:21:17.766346 13941 net.cpp:94] Creating Layer ip3
I0501 18:21:17.766350 13941 net.cpp:435] ip3 <- ip2
I0501 18:21:17.766355 13941 net.cpp:409] ip3 -> ip3
I0501 18:21:17.766425 13941 net.cpp:144] Setting up ip3
I0501 18:21:17.766438 13941 net.cpp:151] Top shape: 20 1 (20)
I0501 18:21:17.766441 13941 net.cpp:159] Memory required for data: 26829280
I0501 18:21:17.766446 13941 layer_factory.hpp:77] Creating layer loss
I0501 18:21:17.766454 13941 net.cpp:94] Creating Layer loss
I0501 18:21:17.766458 13941 net.cpp:435] loss <- ip3
I0501 18:21:17.766463 13941 net.cpp:435] loss <- label
I0501 18:21:17.766468 13941 net.cpp:409] loss -> loss
I0501 18:21:17.766505 13941 net.cpp:144] Setting up loss
…
