…
I0501 03:52:42.205229 30450 net.cpp:323] The NetState phase (0) differed from the phase (1) specified by a rule in layer intercept
I0501 03:52:42.205245 30450 net.cpp:323] The NetState phase (0) differed from the phase (1) specified by a rule in layer loss
I0501 03:52:42.205323 30450 net.cpp:52] Initializing net from parameters: 
state {
  phase: TRAIN
}
layer {
  name: "parameters"
  type: "HDF5Data"
  top: "data"
  top: "label"
  include {
    phase: TRAIN
  }
  hdf5_data_param {
    source: "/home/purduethu/scratch/radon/d/deng106/CNNStatisticalModel/distributions/input/50_distributions_400_sample_size_train-parameters-path.txt"
    batch_size: 20
  }
}
layer {
  name: "conv1"
  type: "Convolution"
  bottom: "data"
  top: "conv1"
  param {
    lr_mult: 1
  }
  param {
    lr_mult: 2
  }
  convolution_param {
    num_output: 64
    pad: 2
    kernel_size: 5
    stride: 1
    weight_filler {
      type: "gaussian"
      std: 0.0001
    }
    bias_filler {
      type: "constant"
    }
  }
}
layer {
  name: "relu1"
  type: "ReLU"
  bottom: "conv1"
  top: "conv1"
}
layer {
  name: "conv2"
  type: "Convolution"
  bottom: "conv1"
  top: "conv2"
  param {
    lr_mult: 1
  }
  param {
    lr_mult: 2
  }
  convolution_param {
    num_output: 64
    pad: 2
    kernel_size: 5
    stride: 1
    weight_filler {
      type: "gaussian"
      std: 0.01
    }
    bias_filler {
      type: "constant"
    }
  }
}
layer {
  name: "relu2"
  type: "ReLU"
  bottom: "conv2"
  top: "conv2"
}
layer {
  name: "pool2"
  type: "Pooling"
  bottom: "conv2"
  top: "pool2"
  pooling_param {
    pool: MAX
    kernel_size: 3
    stride: 2
  }
}
layer {
  name: "conv3"
  type: "Convolution"
  bottom: "pool2"
  top: "conv3"
  param {
    lr_mult: 1
  }
  param {
    lr_mult: 2
  }
  convolution_param {
    num_output: 128
    pad: 2
    kernel_size: 5
    stride: 1
    weight_filler {
      type: "gaussian"
      std: 0.01
    }
    bias_filler {
      type: "constant"
    }
  }
}
layer {
  name: "relu3"
  type: "ReLU"
  bottom: "conv3"
  top: "conv3"
}
layer {
  name: "conv4"
  type: "Convolution"
  bottom: "conv3"
  top: "conv4"
  param {
    lr_mult: 1
  }
  param {
    lr_mult: 2
  }
  convolution_param {
    num_output: 128
    pad: 2
    kernel_size: 5
    stride: 1
    weight_filler {
      type: "gaussian"
      std: 0.01
    }
    bias_filler {
      type: "constant"
    }
  }
}
layer {
  name: "relu4"
  type: "ReLU"
  bottom: "conv4"
  top: "conv4"
}
layer {
  name: "conv5"
  type: "Convolution"
  bottom: "conv4"
  top: "conv5"
  param {
    lr_mult: 1
  }
  param {
    lr_mult: 2
  }
  convolution_param {
    num_output: 128
    pad: 2
    kernel_size: 5
    stride: 1
    weight_filler {
      type: "gaussian"
      std: 0.01
    }
    bias_filler {
      type: "constant"
    }
  }
}
layer {
  name: "relu5"
  type: "ReLU"
  bottom: "conv5"
  top: "conv5"
}
layer {
  name: "pool5"
  type: "Pooling"
  bottom: "conv5"
  top: "pool5"
  pooling_param {
    pool: AVE
    kernel_size: 3
    stride: 2
  }
}
layer {
  name: "ip1"
  type: "InnerProduct"
  bottom: "pool5"
  top: "ip1"
  param {
    lr_mult: 1
  }
  param {
    lr_mult: 2
  }
  inner_product_param {
    num_output: 1024
    weight_filler {
      type: "gaussian"
      std: 0.1
    }
    bias_filler {
      type: "constant"
    }
  }
}
layer {
  name: "ip2"
  type: "InnerProduct"
  bottom: "ip1"
  top: "ip2"
  param {
    lr_mult: 1
  }
  param {
    lr_mult: 2
  }
  inner_product_param {
    num_output: 512
    weight_filler {
      type: "gaussian"
      std: 0.1
    }
    bias_filler {
      type: "constant"
    }
  }
}
layer {
  name: "ip3"
  type: "InnerProduct"
  bottom: "ip2"
  top: "ip3"
  param {
    lr_mult: 1
  }
  param {
    lr_mult: 2
  }
  inner_product_param {
    num_output: 1
    weight_filler {
      type: "gaussian"
      std: 0.1
    }
    bias_filler {
      type: "constant"
    }
  }
}
layer {
  name: "loss"
  type: "HuberLoss"
  bottom: "ip3"
  bottom: "label"
  top: "loss"
  include {
    phase: TRAIN
  }
}
I0501 03:52:42.205375 30450 layer_factory.hpp:77] Creating layer parameters
I0501 03:52:42.205390 30450 net.cpp:94] Creating Layer parameters
I0501 03:52:42.205394 30450 net.cpp:409] parameters -> data
I0501 03:52:42.205407 30450 net.cpp:409] parameters -> label
I0501 03:52:42.205415 30450 hdf5_data_layer.cpp:79] Loading list of HDF5 filenames from: /home/purduethu/scratch/radon/d/deng106/CNNStatisticalModel/distributions/input/50_distributions_400_sample_size_train-parameters-path.txt
I0501 03:52:42.205428 30450 hdf5_data_layer.cpp:93] Number of HDF5 files: 1
I0501 03:52:42.205968 30450 hdf5.cpp:32] Datatype class: H5T_FLOAT
I0501 03:52:42.848395 30450 net.cpp:144] Setting up parameters
I0501 03:52:42.848425 30450 net.cpp:151] Top shape: 20 1 20 20 (8000)
I0501 03:52:42.848430 30450 net.cpp:151] Top shape: 20 (20)
I0501 03:52:42.848433 30450 net.cpp:159] Memory required for data: 32080
I0501 03:52:42.848439 30450 layer_factory.hpp:77] Creating layer conv1
I0501 03:52:42.848455 30450 net.cpp:94] Creating Layer conv1
I0501 03:52:42.848459 30450 net.cpp:435] conv1 <- data
I0501 03:52:42.848466 30450 net.cpp:409] conv1 -> conv1
I0501 03:52:42.868746 30450 net.cpp:144] Setting up conv1
I0501 03:52:42.868770 30450 net.cpp:151] Top shape: 20 64 20 20 (512000)
I0501 03:52:42.868774 30450 net.cpp:159] Memory required for data: 2080080
I0501 03:52:42.868785 30450 layer_factory.hpp:77] Creating layer relu1
I0501 03:52:42.868794 30450 net.cpp:94] Creating Layer relu1
I0501 03:52:42.868798 30450 net.cpp:435] relu1 <- conv1
I0501 03:52:42.868803 30450 net.cpp:396] relu1 -> conv1 (in-place)
I0501 03:52:42.868811 30450 net.cpp:144] Setting up relu1
I0501 03:52:42.868816 30450 net.cpp:151] Top shape: 20 64 20 20 (512000)
I0501 03:52:42.868819 30450 net.cpp:159] Memory required for data: 4128080
I0501 03:52:42.868821 30450 layer_factory.hpp:77] Creating layer conv2
I0501 03:52:42.868831 30450 net.cpp:94] Creating Layer conv2
I0501 03:52:42.868834 30450 net.cpp:435] conv2 <- conv1
I0501 03:52:42.868839 30450 net.cpp:409] conv2 -> conv2
I0501 03:52:42.883074 30450 net.cpp:144] Setting up conv2
I0501 03:52:42.883092 30450 net.cpp:151] Top shape: 20 64 20 20 (512000)
I0501 03:52:42.883096 30450 net.cpp:159] Memory required for data: 6176080
I0501 03:52:42.883105 30450 layer_factory.hpp:77] Creating layer relu2
I0501 03:52:42.883112 30450 net.cpp:94] Creating Layer relu2
I0501 03:52:42.883116 30450 net.cpp:435] relu2 <- conv2
I0501 03:52:42.883121 30450 net.cpp:396] relu2 -> conv2 (in-place)
I0501 03:52:42.883129 30450 net.cpp:144] Setting up relu2
I0501 03:52:42.883133 30450 net.cpp:151] Top shape: 20 64 20 20 (512000)
I0501 03:52:42.883136 30450 net.cpp:159] Memory required for data: 8224080
I0501 03:52:42.883139 30450 layer_factory.hpp:77] Creating layer pool2
I0501 03:52:42.883144 30450 net.cpp:94] Creating Layer pool2
I0501 03:52:42.883153 30450 net.cpp:435] pool2 <- conv2
I0501 03:52:42.883158 30450 net.cpp:409] pool2 -> pool2
I0501 03:52:42.883211 30450 net.cpp:144] Setting up pool2
I0501 03:52:42.883219 30450 net.cpp:151] Top shape: 20 64 10 10 (128000)
I0501 03:52:42.883222 30450 net.cpp:159] Memory required for data: 8736080
I0501 03:52:42.883225 30450 layer_factory.hpp:77] Creating layer conv3
I0501 03:52:42.883234 30450 net.cpp:94] Creating Layer conv3
I0501 03:52:42.883237 30450 net.cpp:435] conv3 <- pool2
I0501 03:52:42.883242 30450 net.cpp:409] conv3 -> conv3
I0501 03:52:42.895829 30450 net.cpp:144] Setting up conv3
I0501 03:52:42.895845 30450 net.cpp:151] Top shape: 20 128 10 10 (256000)
I0501 03:52:42.895849 30450 net.cpp:159] Memory required for data: 9760080
I0501 03:52:42.895858 30450 layer_factory.hpp:77] Creating layer relu3
I0501 03:52:42.895864 30450 net.cpp:94] Creating Layer relu3
I0501 03:52:42.895867 30450 net.cpp:435] relu3 <- conv3
I0501 03:52:42.895872 30450 net.cpp:396] relu3 -> conv3 (in-place)
I0501 03:52:42.895879 30450 net.cpp:144] Setting up relu3
I0501 03:52:42.895884 30450 net.cpp:151] Top shape: 20 128 10 10 (256000)
I0501 03:52:42.895886 30450 net.cpp:159] Memory required for data: 10784080
I0501 03:52:42.895889 30450 layer_factory.hpp:77] Creating layer conv4
I0501 03:52:42.895897 30450 net.cpp:94] Creating Layer conv4
I0501 03:52:42.895901 30450 net.cpp:435] conv4 <- conv3
I0501 03:52:42.895905 30450 net.cpp:409] conv4 -> conv4
I0501 03:52:42.918319 30450 net.cpp:144] Setting up conv4
I0501 03:52:42.918340 30450 net.cpp:151] Top shape: 20 128 10 10 (256000)
I0501 03:52:42.918344 30450 net.cpp:159] Memory required for data: 11808080
I0501 03:52:42.918351 30450 layer_factory.hpp:77] Creating layer relu4
I0501 03:52:42.918357 30450 net.cpp:94] Creating Layer relu4
I0501 03:52:42.918361 30450 net.cpp:435] relu4 <- conv4
I0501 03:52:42.918366 30450 net.cpp:396] relu4 -> conv4 (in-place)
I0501 03:52:42.918375 30450 net.cpp:144] Setting up relu4
I0501 03:52:42.918378 30450 net.cpp:151] Top shape: 20 128 10 10 (256000)
I0501 03:52:42.918381 30450 net.cpp:159] Memory required for data: 12832080
I0501 03:52:42.918385 30450 layer_factory.hpp:77] Creating layer conv5
I0501 03:52:42.918391 30450 net.cpp:94] Creating Layer conv5
I0501 03:52:42.918395 30450 net.cpp:435] conv5 <- conv4
I0501 03:52:42.918400 30450 net.cpp:409] conv5 -> conv5
I0501 03:52:42.935852 30450 net.cpp:144] Setting up conv5
I0501 03:52:42.935873 30450 net.cpp:151] Top shape: 20 128 10 10 (256000)
I0501 03:52:42.935876 30450 net.cpp:159] Memory required for data: 13856080
I0501 03:52:42.935886 30450 layer_factory.hpp:77] Creating layer relu5
I0501 03:52:42.935894 30450 net.cpp:94] Creating Layer relu5
I0501 03:52:42.935897 30450 net.cpp:435] relu5 <- conv5
I0501 03:52:42.935902 30450 net.cpp:396] relu5 -> conv5 (in-place)
I0501 03:52:42.935909 30450 net.cpp:144] Setting up relu5
I0501 03:52:42.935914 30450 net.cpp:151] Top shape: 20 128 10 10 (256000)
I0501 03:52:42.935916 30450 net.cpp:159] Memory required for data: 14880080
I0501 03:52:42.935920 30450 layer_factory.hpp:77] Creating layer pool5
I0501 03:52:42.935925 30450 net.cpp:94] Creating Layer pool5
I0501 03:52:42.935928 30450 net.cpp:435] pool5 <- conv5
I0501 03:52:42.935932 30450 net.cpp:409] pool5 -> pool5
I0501 03:52:42.935974 30450 net.cpp:144] Setting up pool5
I0501 03:52:42.935981 30450 net.cpp:151] Top shape: 20 128 5 5 (64000)
I0501 03:52:42.935986 30450 net.cpp:159] Memory required for data: 15136080
I0501 03:52:42.935988 30450 layer_factory.hpp:77] Creating layer ip1
I0501 03:52:42.935998 30450 net.cpp:94] Creating Layer ip1
I0501 03:52:42.936002 30450 net.cpp:435] ip1 <- pool5
I0501 03:52:42.936007 30450 net.cpp:409] ip1 -> ip1
I0501 03:52:43.015583 30450 net.cpp:144] Setting up ip1
I0501 03:52:43.015616 30450 net.cpp:151] Top shape: 20 1024 (20480)
I0501 03:52:43.015620 30450 net.cpp:159] Memory required for data: 15218000
I0501 03:52:43.015630 30450 layer_factory.hpp:77] Creating layer ip2
I0501 03:52:43.015640 30450 net.cpp:94] Creating Layer ip2
I0501 03:52:43.015652 30450 net.cpp:435] ip2 <- ip1
I0501 03:52:43.015660 30450 net.cpp:409] ip2 -> ip2
I0501 03:52:43.029013 30450 net.cpp:144] Setting up ip2
I0501 03:52:43.029032 30450 net.cpp:151] Top shape: 20 512 (10240)
I0501 03:52:43.029036 30450 net.cpp:159] Memory required for data: 15258960
I0501 03:52:43.029042 30450 layer_factory.hpp:77] Creating layer ip3
I0501 03:52:43.029049 30450 net.cpp:94] Creating Layer ip3
I0501 03:52:43.029053 30450 net.cpp:435] ip3 <- ip2
I0501 03:52:43.029059 30450 net.cpp:409] ip3 -> ip3
I0501 03:52:43.029170 30450 net.cpp:144] Setting up ip3
I0501 03:52:43.029176 30450 net.cpp:151] Top shape: 20 1 (20)
I0501 03:52:43.029180 30450 net.cpp:159] Memory required for data: 15259040
I0501 03:52:43.029184 30450 layer_factory.hpp:77] Creating layer loss
I0501 03:52:43.029198 30450 net.cpp:94] Creating Layer loss
I0501 03:52:43.029201 30450 net.cpp:435] loss <- ip3
I0501 03:52:43.029206 30450 net.cpp:435] loss <- label
I0501 03:52:43.029209 30450 net.cpp:409] loss -> loss
I0501 03:52:43.029259 30450 net.cpp:144] Setting up loss
…
I0501 03:52:43.325943 30450 net.cpp:323] The NetState phase (0) differed from the phase (1) specified by a rule in layer intercept
I0501 03:52:43.325959 30450 net.cpp:323] The NetState phase (0) differed from the phase (1) specified by a rule in layer accuracy
I0501 03:52:43.326043 30450 net.cpp:52] Initializing net from parameters: 
state {
  phase: TRAIN
}
layer {
  name: "parameters"
  type: "HDF5Data"
  top: "data"
  top: "label"
  include {
    phase: TRAIN
  }
  hdf5_data_param {
    source: "/home/purduethu/scratch/radon/d/deng106/CNNStatisticalModel/distributions/input/50_distributions_400_sample_size_train-distributions-path.txt"
    batch_size: 20
  }
}
layer {
  name: "conv1"
  type: "Convolution"
  bottom: "data"
  top: "conv1"
  param {
    lr_mult: 1
  }
  param {
    lr_mult: 2
  }
  convolution_param {
    num_output: 64
    pad: 2
    kernel_size: 5
    stride: 1
    weight_filler {
      type: "gaussian"
      std: 0.0001
    }
    bias_filler {
      type: "constant"
    }
  }
}
layer {
  name: "relu1"
  type: "ReLU"
  bottom: "conv1"
  top: "conv1"
}
layer {
  name: "conv2"
  type: "Convolution"
  bottom: "conv1"
  top: "conv2"
  param {
    lr_mult: 1
  }
  param {
    lr_mult: 2
  }
  convolution_param {
    num_output: 64
    pad: 2
    kernel_size: 5
    stride: 1
    weight_filler {
      type: "gaussian"
      std: 0.01
    }
    bias_filler {
      type: "constant"
    }
  }
}
layer {
  name: "relu2"
  type: "ReLU"
  bottom: "conv2"
  top: "conv2"
}
layer {
  name: "pool2"
  type: "Pooling"
  bottom: "conv2"
  top: "pool2"
  pooling_param {
    pool: MAX
    kernel_size: 3
    stride: 2
  }
}
layer {
  name: "conv3"
  type: "Convolution"
  bottom: "pool2"
  top: "conv3"
  param {
    lr_mult: 1
  }
  param {
    lr_mult: 2
  }
  convolution_param {
    num_output: 128
    pad: 2
    kernel_size: 5
    stride: 1
    weight_filler {
      type: "gaussian"
      std: 0.01
    }
    bias_filler {
      type: "constant"
    }
  }
}
layer {
  name: "relu3"
  type: "ReLU"
  bottom: "conv3"
  top: "conv3"
}
layer {
  name: "conv4"
  type: "Convolution"
  bottom: "conv3"
  top: "conv4"
  param {
    lr_mult: 1
  }
  param {
    lr_mult: 2
  }
  convolution_param {
    num_output: 128
    pad: 2
    kernel_size: 5
    stride: 1
    weight_filler {
      type: "gaussian"
      std: 0.01
    }
    bias_filler {
      type: "constant"
    }
  }
}
layer {
  name: "relu4"
  type: "ReLU"
  bottom: "conv4"
  top: "conv4"
}
layer {
  name: "conv5"
  type: "Convolution"
  bottom: "conv4"
  top: "conv5"
  param {
    lr_mult: 1
  }
  param {
    lr_mult: 2
  }
  convolution_param {
    num_output: 128
    pad: 2
    kernel_size: 5
    stride: 1
    weight_filler {
      type: "gaussian"
      std: 0.01
    }
    bias_filler {
      type: "constant"
    }
  }
}
layer {
  name: "relu5"
  type: "ReLU"
  bottom: "conv5"
  top: "conv5"
}
layer {
  name: "pool5"
  type: "Pooling"
  bottom: "conv5"
  top: "pool5"
  pooling_param {
    pool: AVE
    kernel_size: 3
    stride: 2
  }
}
layer {
  name: "ip1"
  type: "InnerProduct"
  bottom: "pool5"
  top: "ip1"
  param {
    lr_mult: 1
  }
  param {
    lr_mult: 2
  }
  inner_product_param {
    num_output: 1024
    weight_filler {
      type: "gaussian"
      std: 0.1
    }
    bias_filler {
      type: "constant"
    }
  }
}
layer {
  name: "ip2"
  type: "InnerProduct"
  bottom: "ip1"
  top: "ip2"
  param {
    lr_mult: 1
  }
  param {
    lr_mult: 2
  }
  inner_product_param {
    num_output: 512
    weight_filler {
      type: "gaussian"
      std: 0.1
    }
    bias_filler {
      type: "constant"
    }
  }
}
layer {
  name: "ip3"
  type: "InnerProduct"
  bottom: "ip2"
  top: "ip3"
  param {
    lr_mult: 1
  }
  param {
    lr_mult: 2
  }
  inner_product_param {
    num_output: 50
    weight_filler {
      type: "gaussian"
      std: 0.1
    }
    bias_filler {
      type: "constant"
    }
  }
}
layer {
  name: "loss"
  type: "SoftmaxWithLoss"
  bottom: "ip3"
  bottom: "label"
  top: "loss"
}
I0501 03:52:43.326093 30450 layer_factory.hpp:77] Creating layer parameters
I0501 03:52:43.326102 30450 net.cpp:94] Creating Layer parameters
I0501 03:52:43.326104 30450 net.cpp:409] parameters -> data
I0501 03:52:43.326112 30450 net.cpp:409] parameters -> label
I0501 03:52:43.326117 30450 hdf5_data_layer.cpp:79] Loading list of HDF5 filenames from: /home/purduethu/scratch/radon/d/deng106/CNNStatisticalModel/distributions/input/50_distributions_400_sample_size_train-distributions-path.txt
I0501 03:52:43.326133 30450 hdf5_data_layer.cpp:93] Number of HDF5 files: 1
I0501 03:52:43.975575 30450 hdf5.cpp:35] Datatype class: H5T_INTEGER
I0501 03:52:43.978617 30450 net.cpp:144] Setting up parameters
I0501 03:52:43.978633 30450 net.cpp:151] Top shape: 20 1 20 20 (8000)
I0501 03:52:43.978638 30450 net.cpp:151] Top shape: 20 (20)
I0501 03:52:43.978641 30450 net.cpp:159] Memory required for data: 32080
I0501 03:52:43.978647 30450 layer_factory.hpp:77] Creating layer conv1
I0501 03:52:43.978664 30450 net.cpp:94] Creating Layer conv1
I0501 03:52:43.978668 30450 net.cpp:435] conv1 <- data
I0501 03:52:43.978674 30450 net.cpp:409] conv1 -> conv1
I0501 03:52:43.982300 30450 net.cpp:144] Setting up conv1
I0501 03:52:43.982318 30450 net.cpp:151] Top shape: 20 64 20 20 (512000)
I0501 03:52:43.982322 30450 net.cpp:159] Memory required for data: 2080080
I0501 03:52:43.982333 30450 layer_factory.hpp:77] Creating layer relu1
I0501 03:52:43.982342 30450 net.cpp:94] Creating Layer relu1
I0501 03:52:43.982345 30450 net.cpp:435] relu1 <- conv1
I0501 03:52:43.982349 30450 net.cpp:396] relu1 -> conv1 (in-place)
I0501 03:52:43.982357 30450 net.cpp:144] Setting up relu1
I0501 03:52:43.982362 30450 net.cpp:151] Top shape: 20 64 20 20 (512000)
I0501 03:52:43.982364 30450 net.cpp:159] Memory required for data: 4128080
I0501 03:52:43.982367 30450 layer_factory.hpp:77] Creating layer conv2
I0501 03:52:43.982375 30450 net.cpp:94] Creating Layer conv2
I0501 03:52:43.982378 30450 net.cpp:435] conv2 <- conv1
I0501 03:52:43.982383 30450 net.cpp:409] conv2 -> conv2
I0501 03:52:43.992907 30450 net.cpp:144] Setting up conv2
I0501 03:52:43.992923 30450 net.cpp:151] Top shape: 20 64 20 20 (512000)
I0501 03:52:43.992926 30450 net.cpp:159] Memory required for data: 6176080
I0501 03:52:43.992934 30450 layer_factory.hpp:77] Creating layer relu2
I0501 03:52:43.992940 30450 net.cpp:94] Creating Layer relu2
I0501 03:52:43.992944 30450 net.cpp:435] relu2 <- conv2
I0501 03:52:43.992949 30450 net.cpp:396] relu2 -> conv2 (in-place)
I0501 03:52:43.992955 30450 net.cpp:144] Setting up relu2
I0501 03:52:43.992959 30450 net.cpp:151] Top shape: 20 64 20 20 (512000)
I0501 03:52:43.992962 30450 net.cpp:159] Memory required for data: 8224080
I0501 03:52:43.992965 30450 layer_factory.hpp:77] Creating layer pool2
I0501 03:52:43.992971 30450 net.cpp:94] Creating Layer pool2
I0501 03:52:43.992974 30450 net.cpp:435] pool2 <- conv2
I0501 03:52:43.992979 30450 net.cpp:409] pool2 -> pool2
I0501 03:52:43.993031 30450 net.cpp:144] Setting up pool2
I0501 03:52:43.993038 30450 net.cpp:151] Top shape: 20 64 10 10 (128000)
I0501 03:52:43.993041 30450 net.cpp:159] Memory required for data: 8736080
I0501 03:52:43.993044 30450 layer_factory.hpp:77] Creating layer conv3
I0501 03:52:43.993052 30450 net.cpp:94] Creating Layer conv3
I0501 03:52:43.993055 30450 net.cpp:435] conv3 <- pool2
I0501 03:52:43.993067 30450 net.cpp:409] conv3 -> conv3
I0501 03:52:44.007608 30450 net.cpp:144] Setting up conv3
I0501 03:52:44.007649 30450 net.cpp:151] Top shape: 20 128 10 10 (256000)
I0501 03:52:44.007653 30450 net.cpp:159] Memory required for data: 9760080
I0501 03:52:44.007661 30450 layer_factory.hpp:77] Creating layer relu3
I0501 03:52:44.007668 30450 net.cpp:94] Creating Layer relu3
I0501 03:52:44.007673 30450 net.cpp:435] relu3 <- conv3
I0501 03:52:44.007678 30450 net.cpp:396] relu3 -> conv3 (in-place)
I0501 03:52:44.007684 30450 net.cpp:144] Setting up relu3
I0501 03:52:44.007688 30450 net.cpp:151] Top shape: 20 128 10 10 (256000)
I0501 03:52:44.007691 30450 net.cpp:159] Memory required for data: 10784080
I0501 03:52:44.007694 30450 layer_factory.hpp:77] Creating layer conv4
I0501 03:52:44.007704 30450 net.cpp:94] Creating Layer conv4
I0501 03:52:44.007706 30450 net.cpp:435] conv4 <- conv3
I0501 03:52:44.007711 30450 net.cpp:409] conv4 -> conv4
I0501 03:52:44.026295 30450 net.cpp:144] Setting up conv4
I0501 03:52:44.026314 30450 net.cpp:151] Top shape: 20 128 10 10 (256000)
I0501 03:52:44.026319 30450 net.cpp:159] Memory required for data: 11808080
I0501 03:52:44.026324 30450 layer_factory.hpp:77] Creating layer relu4
I0501 03:52:44.026331 30450 net.cpp:94] Creating Layer relu4
I0501 03:52:44.026335 30450 net.cpp:435] relu4 <- conv4
I0501 03:52:44.026340 30450 net.cpp:396] relu4 -> conv4 (in-place)
I0501 03:52:44.026347 30450 net.cpp:144] Setting up relu4
I0501 03:52:44.026351 30450 net.cpp:151] Top shape: 20 128 10 10 (256000)
I0501 03:52:44.026355 30450 net.cpp:159] Memory required for data: 12832080
I0501 03:52:44.026357 30450 layer_factory.hpp:77] Creating layer conv5
I0501 03:52:44.026365 30450 net.cpp:94] Creating Layer conv5
I0501 03:52:44.026368 30450 net.cpp:435] conv5 <- conv4
I0501 03:52:44.026372 30450 net.cpp:409] conv5 -> conv5
I0501 03:52:44.045811 30450 net.cpp:144] Setting up conv5
I0501 03:52:44.045831 30450 net.cpp:151] Top shape: 20 128 10 10 (256000)
I0501 03:52:44.045835 30450 net.cpp:159] Memory required for data: 13856080
I0501 03:52:44.045845 30450 layer_factory.hpp:77] Creating layer relu5
I0501 03:52:44.045852 30450 net.cpp:94] Creating Layer relu5
I0501 03:52:44.045856 30450 net.cpp:435] relu5 <- conv5
I0501 03:52:44.045861 30450 net.cpp:396] relu5 -> conv5 (in-place)
I0501 03:52:44.045868 30450 net.cpp:144] Setting up relu5
I0501 03:52:44.045872 30450 net.cpp:151] Top shape: 20 128 10 10 (256000)
I0501 03:52:44.045876 30450 net.cpp:159] Memory required for data: 14880080
I0501 03:52:44.045878 30450 layer_factory.hpp:77] Creating layer pool5
I0501 03:52:44.045883 30450 net.cpp:94] Creating Layer pool5
I0501 03:52:44.045886 30450 net.cpp:435] pool5 <- conv5
I0501 03:52:44.045891 30450 net.cpp:409] pool5 -> pool5
I0501 03:52:44.045930 30450 net.cpp:144] Setting up pool5
I0501 03:52:44.045936 30450 net.cpp:151] Top shape: 20 128 5 5 (64000)
I0501 03:52:44.045940 30450 net.cpp:159] Memory required for data: 15136080
I0501 03:52:44.045943 30450 layer_factory.hpp:77] Creating layer ip1
I0501 03:52:44.045949 30450 net.cpp:94] Creating Layer ip1
I0501 03:52:44.045953 30450 net.cpp:435] ip1 <- pool5
I0501 03:52:44.045958 30450 net.cpp:409] ip1 -> ip1
I0501 03:52:44.125763 30450 net.cpp:144] Setting up ip1
I0501 03:52:44.125797 30450 net.cpp:151] Top shape: 20 1024 (20480)
I0501 03:52:44.125800 30450 net.cpp:159] Memory required for data: 15218000
I0501 03:52:44.125809 30450 layer_factory.hpp:77] Creating layer ip2
I0501 03:52:44.125819 30450 net.cpp:94] Creating Layer ip2
I0501 03:52:44.125823 30450 net.cpp:435] ip2 <- ip1
I0501 03:52:44.125829 30450 net.cpp:409] ip2 -> ip2
I0501 03:52:44.139077 30450 net.cpp:144] Setting up ip2
I0501 03:52:44.139096 30450 net.cpp:151] Top shape: 20 512 (10240)
I0501 03:52:44.139101 30450 net.cpp:159] Memory required for data: 15258960
I0501 03:52:44.139106 30450 layer_factory.hpp:77] Creating layer ip3
I0501 03:52:44.139113 30450 net.cpp:94] Creating Layer ip3
I0501 03:52:44.139117 30450 net.cpp:435] ip3 <- ip2
I0501 03:52:44.139122 30450 net.cpp:409] ip3 -> ip3
I0501 03:52:44.142349 30450 net.cpp:144] Setting up ip3
I0501 03:52:44.142367 30450 net.cpp:151] Top shape: 20 50 (1000)
I0501 03:52:44.142371 30450 net.cpp:159] Memory required for data: 15262960
I0501 03:52:44.142379 30450 layer_factory.hpp:77] Creating layer loss
I0501 03:52:44.142386 30450 net.cpp:94] Creating Layer loss
I0501 03:52:44.142390 30450 net.cpp:435] loss <- ip3
I0501 03:52:44.142395 30450 net.cpp:435] loss <- label
I0501 03:52:44.142400 30450 net.cpp:409] loss -> loss
I0501 03:52:44.142407 30450 layer_factory.hpp:77] Creating layer loss
…
I0501 03:52:44.142923 30450 solver.cpp:181] Creating test net (#0) specified by net file: ./protocol/dis_50_400_dimension.protocol_distribution
I0501 03:52:44.142951 30450 net.cpp:323] The NetState phase (1) differed from the phase (0) specified by a rule in layer parameters
I0501 03:52:44.143044 30450 net.cpp:52] Initializing net from parameters: 
state {
  phase: TEST
}
layer {
  name: "intercept"
  type: "HDF5Data"
  top: "data"
  top: "label"
  include {
    phase: TEST
  }
  hdf5_data_param {
    source: "/home/purduethu/scratch/radon/d/deng106/CNNStatisticalModel/distributions/input/50_distributions_400_sample_size_test-distributions-path.txt"
    batch_size: 20
  }
}
layer {
  name: "conv1"
  type: "Convolution"
  bottom: "data"
  top: "conv1"
  param {
    lr_mult: 1
  }
  param {
    lr_mult: 2
  }
  convolution_param {
    num_output: 64
    pad: 2
    kernel_size: 5
    stride: 1
    weight_filler {
      type: "gaussian"
      std: 0.0001
    }
    bias_filler {
      type: "constant"
    }
  }
}
layer {
  name: "relu1"
  type: "ReLU"
  bottom: "conv1"
  top: "conv1"
}
layer {
  name: "conv2"
  type: "Convolution"
  bottom: "conv1"
  top: "conv2"
  param {
    lr_mult: 1
  }
  param {
    lr_mult: 2
  }
  convolution_param {
    num_output: 64
    pad: 2
    kernel_size: 5
    stride: 1
    weight_filler {
      type: "gaussian"
      std: 0.01
    }
    bias_filler {
      type: "constant"
    }
  }
}
layer {
  name: "relu2"
  type: "ReLU"
  bottom: "conv2"
  top: "conv2"
}
layer {
  name: "pool2"
  type: "Pooling"
  bottom: "conv2"
  top: "pool2"
  pooling_param {
    pool: MAX
    kernel_size: 3
    stride: 2
  }
}
layer {
  name: "conv3"
  type: "Convolution"
  bottom: "pool2"
  top: "conv3"
  param {
    lr_mult: 1
  }
  param {
    lr_mult: 2
  }
  convolution_param {
    num_output: 128
    pad: 2
    kernel_size: 5
    stride: 1
    weight_filler {
      type: "gaussian"
      std: 0.01
    }
    bias_filler {
      type: "constant"
    }
  }
}
layer {
  name: "relu3"
  type: "ReLU"
  bottom: "conv3"
  top: "conv3"
}
layer {
  name: "conv4"
  type: "Convolution"
  bottom: "conv3"
  top: "conv4"
  param {
    lr_mult: 1
  }
  param {
    lr_mult: 2
  }
  convolution_param {
    num_output: 128
    pad: 2
    kernel_size: 5
    stride: 1
    weight_filler {
      type: "gaussian"
      std: 0.01
    }
    bias_filler {
      type: "constant"
    }
  }
}
layer {
  name: "relu4"
  type: "ReLU"
  bottom: "conv4"
  top: "conv4"
}
layer {
  name: "conv5"
  type: "Convolution"
  bottom: "conv4"
  top: "conv5"
  param {
    lr_mult: 1
  }
  param {
    lr_mult: 2
  }
  convolution_param {
    num_output: 128
    pad: 2
    kernel_size: 5
    stride: 1
    weight_filler {
      type: "gaussian"
      std: 0.01
    }
    bias_filler {
      type: "constant"
    }
  }
}
layer {
  name: "relu5"
  type: "ReLU"
  bottom: "conv5"
  top: "conv5"
}
layer {
  name: "pool5"
  type: "Pooling"
  bottom: "conv5"
  top: "pool5"
  pooling_param {
    pool: AVE
    kernel_size: 3
    stride: 2
  }
}
layer {
  name: "ip1"
  type: "InnerProduct"
  bottom: "pool5"
  top: "ip1"
  param {
    lr_mult: 1
  }
  param {
    lr_mult: 2
  }
  inner_product_param {
    num_output: 1024
    weight_filler {
      type: "gaussian"
      std: 0.1
    }
    bias_filler {
      type: "constant"
    }
  }
}
layer {
  name: "ip2"
  type: "InnerProduct"
  bottom: "ip1"
  top: "ip2"
  param {
    lr_mult: 1
  }
  param {
    lr_mult: 2
  }
  inner_product_param {
    num_output: 512
    weight_filler {
      type: "gaussian"
      std: 0.1
    }
    bias_filler {
      type: "constant"
    }
  }
}
layer {
  name: "ip3"
  type: "InnerProduct"
  bottom: "ip2"
  top: "ip3"
  param {
    lr_mult: 1
  }
  param {
    lr_mult: 2
  }
  inner_product_param {
    num_output: 50
    weight_filler {
      type: "gaussian"
      std: 0.1
    }
    bias_filler {
      type: "constant"
    }
  }
}
layer {
  name: "accuracy"
  type: "Accuracy"
  bottom: "ip3"
  bottom: "label"
  top: "accuracy"
  include {
    phase: TEST
  }
}
layer {
  name: "loss"
  type: "SoftmaxWithLoss"
  bottom: "ip3"
  bottom: "label"
  top: "loss"
}
I0501 03:52:44.143111 30450 layer_factory.hpp:77] Creating layer intercept
I0501 03:52:44.143121 30450 net.cpp:94] Creating Layer intercept
I0501 03:52:44.143124 30450 net.cpp:409] intercept -> data
I0501 03:52:44.143131 30450 net.cpp:409] intercept -> label
I0501 03:52:44.143136 30450 hdf5_data_layer.cpp:79] Loading list of HDF5 filenames from: /home/purduethu/scratch/radon/d/deng106/CNNStatisticalModel/distributions/input/50_distributions_400_sample_size_test-distributions-path.txt
I0501 03:52:44.143157 30450 hdf5_data_layer.cpp:93] Number of HDF5 files: 1
I0501 03:52:44.307078 30450 net.cpp:144] Setting up intercept
I0501 03:52:44.307112 30450 net.cpp:151] Top shape: 20 1 20 20 (8000)
I0501 03:52:44.307117 30450 net.cpp:151] Top shape: 20 (20)
I0501 03:52:44.307121 30450 net.cpp:159] Memory required for data: 32080
I0501 03:52:44.307127 30450 layer_factory.hpp:77] Creating layer label_intercept_1_split
I0501 03:52:44.307147 30450 net.cpp:94] Creating Layer label_intercept_1_split
I0501 03:52:44.307152 30450 net.cpp:435] label_intercept_1_split <- label
I0501 03:52:44.307158 30450 net.cpp:409] label_intercept_1_split -> label_intercept_1_split_0
I0501 03:52:44.307166 30450 net.cpp:409] label_intercept_1_split -> label_intercept_1_split_1
I0501 03:52:44.307211 30450 net.cpp:144] Setting up label_intercept_1_split
I0501 03:52:44.307217 30450 net.cpp:151] Top shape: 20 (20)
I0501 03:52:44.307221 30450 net.cpp:151] Top shape: 20 (20)
I0501 03:52:44.307224 30450 net.cpp:159] Memory required for data: 32240
I0501 03:52:44.307227 30450 layer_factory.hpp:77] Creating layer conv1
I0501 03:52:44.307238 30450 net.cpp:94] Creating Layer conv1
I0501 03:52:44.307241 30450 net.cpp:435] conv1 <- data
I0501 03:52:44.307246 30450 net.cpp:409] conv1 -> conv1
I0501 03:52:44.308096 30450 net.cpp:144] Setting up conv1
I0501 03:52:44.308109 30450 net.cpp:151] Top shape: 20 64 20 20 (512000)
I0501 03:52:44.308113 30450 net.cpp:159] Memory required for data: 2080240
I0501 03:52:44.308123 30450 layer_factory.hpp:77] Creating layer relu1
I0501 03:52:44.308130 30450 net.cpp:94] Creating Layer relu1
I0501 03:52:44.308133 30450 net.cpp:435] relu1 <- conv1
I0501 03:52:44.308138 30450 net.cpp:396] relu1 -> conv1 (in-place)
I0501 03:52:44.308145 30450 net.cpp:144] Setting up relu1
I0501 03:52:44.308148 30450 net.cpp:151] Top shape: 20 64 20 20 (512000)
I0501 03:52:44.308151 30450 net.cpp:159] Memory required for data: 4128240
I0501 03:52:44.308154 30450 layer_factory.hpp:77] Creating layer conv2
I0501 03:52:44.308163 30450 net.cpp:94] Creating Layer conv2
I0501 03:52:44.308166 30450 net.cpp:435] conv2 <- conv1
I0501 03:52:44.308171 30450 net.cpp:409] conv2 -> conv2
I0501 03:52:44.313480 30450 net.cpp:144] Setting up conv2
I0501 03:52:44.313494 30450 net.cpp:151] Top shape: 20 64 20 20 (512000)
I0501 03:52:44.313498 30450 net.cpp:159] Memory required for data: 6176240
I0501 03:52:44.313508 30450 layer_factory.hpp:77] Creating layer relu2
I0501 03:52:44.313514 30450 net.cpp:94] Creating Layer relu2
I0501 03:52:44.313518 30450 net.cpp:435] relu2 <- conv2
I0501 03:52:44.313524 30450 net.cpp:396] relu2 -> conv2 (in-place)
I0501 03:52:44.313529 30450 net.cpp:144] Setting up relu2
I0501 03:52:44.313534 30450 net.cpp:151] Top shape: 20 64 20 20 (512000)
I0501 03:52:44.313536 30450 net.cpp:159] Memory required for data: 8224240
I0501 03:52:44.313539 30450 layer_factory.hpp:77] Creating layer pool2
I0501 03:52:44.313545 30450 net.cpp:94] Creating Layer pool2
I0501 03:52:44.313549 30450 net.cpp:435] pool2 <- conv2
I0501 03:52:44.313552 30450 net.cpp:409] pool2 -> pool2
I0501 03:52:44.313608 30450 net.cpp:144] Setting up pool2
I0501 03:52:44.313616 30450 net.cpp:151] Top shape: 20 64 10 10 (128000)
I0501 03:52:44.313617 30450 net.cpp:159] Memory required for data: 8736240
I0501 03:52:44.313621 30450 layer_factory.hpp:77] Creating layer conv3
I0501 03:52:44.313630 30450 net.cpp:94] Creating Layer conv3
I0501 03:52:44.313634 30450 net.cpp:435] conv3 <- pool2
I0501 03:52:44.313638 30450 net.cpp:409] conv3 -> conv3
I0501 03:52:44.320906 30450 net.cpp:144] Setting up conv3
I0501 03:52:44.320920 30450 net.cpp:151] Top shape: 20 128 10 10 (256000)
I0501 03:52:44.320924 30450 net.cpp:159] Memory required for data: 9760240
I0501 03:52:44.320933 30450 layer_factory.hpp:77] Creating layer relu3
I0501 03:52:44.320940 30450 net.cpp:94] Creating Layer relu3
I0501 03:52:44.320945 30450 net.cpp:435] relu3 <- conv3
I0501 03:52:44.320950 30450 net.cpp:396] relu3 -> conv3 (in-place)
I0501 03:52:44.320956 30450 net.cpp:144] Setting up relu3
I0501 03:52:44.320960 30450 net.cpp:151] Top shape: 20 128 10 10 (256000)
I0501 03:52:44.320963 30450 net.cpp:159] Memory required for data: 10784240
I0501 03:52:44.320966 30450 layer_factory.hpp:77] Creating layer conv4
I0501 03:52:44.320974 30450 net.cpp:94] Creating Layer conv4
I0501 03:52:44.320978 30450 net.cpp:435] conv4 <- conv3
I0501 03:52:44.320983 30450 net.cpp:409] conv4 -> conv4
I0501 03:52:44.334941 30450 net.cpp:144] Setting up conv4
I0501 03:52:44.334960 30450 net.cpp:151] Top shape: 20 128 10 10 (256000)
I0501 03:52:44.334964 30450 net.cpp:159] Memory required for data: 11808240
I0501 03:52:44.334971 30450 layer_factory.hpp:77] Creating layer relu4
I0501 03:52:44.334978 30450 net.cpp:94] Creating Layer relu4
I0501 03:52:44.334982 30450 net.cpp:435] relu4 <- conv4
I0501 03:52:44.334987 30450 net.cpp:396] relu4 -> conv4 (in-place)
I0501 03:52:44.334995 30450 net.cpp:144] Setting up relu4
I0501 03:52:44.334998 30450 net.cpp:151] Top shape: 20 128 10 10 (256000)
I0501 03:52:44.335001 30450 net.cpp:159] Memory required for data: 12832240
I0501 03:52:44.335005 30450 layer_factory.hpp:77] Creating layer conv5
I0501 03:52:44.335013 30450 net.cpp:94] Creating Layer conv5
I0501 03:52:44.335016 30450 net.cpp:435] conv5 <- conv4
I0501 03:52:44.335021 30450 net.cpp:409] conv5 -> conv5
I0501 03:52:44.348577 30450 net.cpp:144] Setting up conv5
I0501 03:52:44.348593 30450 net.cpp:151] Top shape: 20 128 10 10 (256000)
I0501 03:52:44.348598 30450 net.cpp:159] Memory required for data: 13856240
I0501 03:52:44.348608 30450 layer_factory.hpp:77] Creating layer relu5
I0501 03:52:44.348614 30450 net.cpp:94] Creating Layer relu5
I0501 03:52:44.348618 30450 net.cpp:435] relu5 <- conv5
I0501 03:52:44.348623 30450 net.cpp:396] relu5 -> conv5 (in-place)
I0501 03:52:44.348629 30450 net.cpp:144] Setting up relu5
I0501 03:52:44.348634 30450 net.cpp:151] Top shape: 20 128 10 10 (256000)
I0501 03:52:44.348636 30450 net.cpp:159] Memory required for data: 14880240
I0501 03:52:44.348639 30450 layer_factory.hpp:77] Creating layer pool5
I0501 03:52:44.348646 30450 net.cpp:94] Creating Layer pool5
I0501 03:52:44.348649 30450 net.cpp:435] pool5 <- conv5
I0501 03:52:44.348654 30450 net.cpp:409] pool5 -> pool5
I0501 03:52:44.348696 30450 net.cpp:144] Setting up pool5
I0501 03:52:44.348703 30450 net.cpp:151] Top shape: 20 128 5 5 (64000)
I0501 03:52:44.348706 30450 net.cpp:159] Memory required for data: 15136240
I0501 03:52:44.348709 30450 layer_factory.hpp:77] Creating layer ip1
I0501 03:52:44.348717 30450 net.cpp:94] Creating Layer ip1
I0501 03:52:44.348721 30450 net.cpp:435] ip1 <- pool5
I0501 03:52:44.348726 30450 net.cpp:409] ip1 -> ip1
I0501 03:52:44.428519 30450 net.cpp:144] Setting up ip1
I0501 03:52:44.428567 30450 net.cpp:151] Top shape: 20 1024 (20480)
I0501 03:52:44.428572 30450 net.cpp:159] Memory required for data: 15218160
I0501 03:52:44.428581 30450 layer_factory.hpp:77] Creating layer ip2
I0501 03:52:44.428591 30450 net.cpp:94] Creating Layer ip2
I0501 03:52:44.428596 30450 net.cpp:435] ip2 <- ip1
I0501 03:52:44.428603 30450 net.cpp:409] ip2 -> ip2
I0501 03:52:44.441893 30450 net.cpp:144] Setting up ip2
I0501 03:52:44.441912 30450 net.cpp:151] Top shape: 20 512 (10240)
I0501 03:52:44.441915 30450 net.cpp:159] Memory required for data: 15259120
I0501 03:52:44.441922 30450 layer_factory.hpp:77] Creating layer ip3
I0501 03:52:44.441934 30450 net.cpp:94] Creating Layer ip3
I0501 03:52:44.441939 30450 net.cpp:435] ip3 <- ip2
I0501 03:52:44.441944 30450 net.cpp:409] ip3 -> ip3
I0501 03:52:44.442706 30450 net.cpp:144] Setting up ip3
I0501 03:52:44.442714 30450 net.cpp:151] Top shape: 20 50 (1000)
I0501 03:52:44.442718 30450 net.cpp:159] Memory required for data: 15263120
I0501 03:52:44.442723 30450 layer_factory.hpp:77] Creating layer ip3_ip3_0_split
I0501 03:52:44.442728 30450 net.cpp:94] Creating Layer ip3_ip3_0_split
I0501 03:52:44.442730 30450 net.cpp:435] ip3_ip3_0_split <- ip3
I0501 03:52:44.442734 30450 net.cpp:409] ip3_ip3_0_split -> ip3_ip3_0_split_0
I0501 03:52:44.442739 30450 net.cpp:409] ip3_ip3_0_split -> ip3_ip3_0_split_1
I0501 03:52:44.442781 30450 net.cpp:144] Setting up ip3_ip3_0_split
I0501 03:52:44.442788 30450 net.cpp:151] Top shape: 20 50 (1000)
I0501 03:52:44.442791 30450 net.cpp:151] Top shape: 20 50 (1000)
I0501 03:52:44.442795 30450 net.cpp:159] Memory required for data: 15271120
I0501 03:52:44.442797 30450 layer_factory.hpp:77] Creating layer accuracy
I0501 03:52:44.442803 30450 net.cpp:94] Creating Layer accuracy
I0501 03:52:44.442806 30450 net.cpp:435] accuracy <- ip3_ip3_0_split_0
I0501 03:52:44.442809 30450 net.cpp:435] accuracy <- label_intercept_1_split_0
I0501 03:52:44.442813 30450 net.cpp:409] accuracy -> accuracy
…
