…
I0502 18:58:32.235255 12370 net.cpp:323] The NetState phase (0) differed from the phase (1) specified by a rule in layer intercept
I0502 18:58:32.235270 12370 net.cpp:323] The NetState phase (0) differed from the phase (1) specified by a rule in layer accuracy
I0502 18:58:32.235358 12370 net.cpp:52] Initializing net from parameters: 
state {
  phase: TRAIN
}
layer {
  name: "parameters"
  type: "HDF5Data"
  top: "data"
  top: "label"
  include {
    phase: TRAIN
  }
  hdf5_data_param {
    source: "/home/purduethu/scratch/radon/d/deng106/CNNStatisticalModel/distributions/input/5_distributions_900_sample_size_train-distributions-path.txt"
    batch_size: 20
  }
}
layer {
  name: "conv1"
  type: "Convolution"
  bottom: "data"
  top: "conv1"
  param {
    lr_mult: 1
  }
  param {
    lr_mult: 2
  }
  convolution_param {
    num_output: 64
    pad: 2
    kernel_size: 5
    stride: 1
    weight_filler {
      type: "gaussian"
      std: 0.0001
    }
    bias_filler {
      type: "constant"
    }
  }
}
layer {
  name: "relu1"
  type: "ReLU"
  bottom: "conv1"
  top: "conv1"
}
layer {
  name: "conv2"
  type: "Convolution"
  bottom: "conv1"
  top: "conv2"
  param {
    lr_mult: 1
  }
  param {
    lr_mult: 2
  }
  convolution_param {
    num_output: 64
    pad: 2
    kernel_size: 5
    stride: 1
    weight_filler {
      type: "gaussian"
      std: 0.01
    }
    bias_filler {
      type: "constant"
    }
  }
}
layer {
  name: "relu2"
  type: "ReLU"
  bottom: "conv2"
  top: "conv2"
}
layer {
  name: "pool2"
  type: "Pooling"
  bottom: "conv2"
  top: "pool2"
  pooling_param {
    pool: MAX
    kernel_size: 3
    stride: 2
  }
}
layer {
  name: "conv3"
  type: "Convolution"
  bottom: "pool2"
  top: "conv3"
  param {
    lr_mult: 1
  }
  param {
    lr_mult: 2
  }
  convolution_param {
    num_output: 64
    pad: 2
    kernel_size: 5
    stride: 1
    weight_filler {
      type: "gaussian"
      std: 0.01
    }
    bias_filler {
      type: "constant"
    }
  }
}
layer {
  name: "relu3"
  type: "ReLU"
  bottom: "conv3"
  top: "conv3"
}
layer {
  name: "conv4"
  type: "Convolution"
  bottom: "conv3"
  top: "conv4"
  param {
    lr_mult: 1
  }
  param {
    lr_mult: 2
  }
  convolution_param {
    num_output: 64
    pad: 2
    kernel_size: 5
    stride: 1
    weight_filler {
      type: "gaussian"
      std: 0.01
    }
    bias_filler {
      type: "constant"
    }
  }
}
layer {
  name: "relu4"
  type: "ReLU"
  bottom: "conv4"
  top: "conv4"
}
layer {
  name: "conv5"
  type: "Convolution"
  bottom: "conv4"
  top: "conv5"
  param {
    lr_mult: 1
  }
  param {
    lr_mult: 2
  }
  convolution_param {
    num_output: 64
    pad: 2
    kernel_size: 5
    stride: 1
    weight_filler {
      type: "gaussian"
      std: 0.01
    }
    bias_filler {
      type: "constant"
    }
  }
}
layer {
  name: "relu5"
  type: "ReLU"
  bottom: "conv5"
  top: "conv5"
}
layer {
  name: "pool5"
  type: "Pooling"
  bottom: "conv5"
  top: "pool5"
  pooling_param {
    pool: AVE
    kernel_size: 3
    stride: 2
  }
}
layer {
  name: "ip1"
  type: "InnerProduct"
  bottom: "pool5"
  top: "ip1"
  param {
    lr_mult: 1
  }
  param {
    lr_mult: 2
  }
  inner_product_param {
    num_output: 64
    weight_filler {
      type: "gaussian"
      std: 0.1
    }
    bias_filler {
      type: "constant"
    }
  }
}
layer {
  name: "ip2"
  type: "InnerProduct"
  bottom: "ip1"
  top: "ip2"
  param {
    lr_mult: 1
  }
  param {
    lr_mult: 2
  }
  inner_product_param {
    num_output: 64
    weight_filler {
      type: "gaussian"
      std: 0.1
    }
    bias_filler {
      type: "constant"
    }
  }
}
layer {
  name: "ip3"
  type: "InnerProduct"
  bottom: "ip2"
  top: "ip3"
  param {
    lr_mult: 1
  }
  param {
    lr_mult: 2
  }
  inner_product_param {
    num_output: 50
    weight_filler {
      type: "gaussian"
      std: 0.1
    }
    bias_filler {
      type: "constant"
    }
  }
}
layer {
  name: "loss"
  type: "SoftmaxWithLoss"
  bottom: "ip3"
  bottom: "label"
  top: "loss"
}
I0502 18:58:32.235432 12370 layer_factory.hpp:77] Creating layer parameters
I0502 18:58:32.235445 12370 net.cpp:94] Creating Layer parameters
I0502 18:58:32.235452 12370 net.cpp:409] parameters -> data
I0502 18:58:32.235471 12370 net.cpp:409] parameters -> label
I0502 18:58:32.235481 12370 hdf5_data_layer.cpp:79] Loading list of HDF5 filenames from: /home/purduethu/scratch/radon/d/deng106/CNNStatisticalModel/distributions/input/5_distributions_900_sample_size_train-distributions-path.txt
I0502 18:58:32.235508 12370 hdf5_data_layer.cpp:93] Number of HDF5 files: 1
I0502 18:58:32.236085 12370 hdf5.cpp:32] Datatype class: H5T_FLOAT
I0502 18:58:32.374202 12370 hdf5.cpp:35] Datatype class: H5T_INTEGER
I0502 18:58:32.375398 12370 net.cpp:144] Setting up parameters
I0502 18:58:32.375417 12370 net.cpp:151] Top shape: 20 1 30 30 (18000)
I0502 18:58:32.375422 12370 net.cpp:151] Top shape: 20 (20)
I0502 18:58:32.375427 12370 net.cpp:159] Memory required for data: 72080
I0502 18:58:32.375434 12370 layer_factory.hpp:77] Creating layer conv1
I0502 18:58:32.375458 12370 net.cpp:94] Creating Layer conv1
I0502 18:58:32.375463 12370 net.cpp:435] conv1 <- data
I0502 18:58:32.375473 12370 net.cpp:409] conv1 -> conv1
I0502 18:58:32.381626 12370 net.cpp:144] Setting up conv1
I0502 18:58:32.381641 12370 net.cpp:151] Top shape: 20 64 30 30 (1152000)
I0502 18:58:32.381646 12370 net.cpp:159] Memory required for data: 4680080
I0502 18:58:32.381657 12370 layer_factory.hpp:77] Creating layer relu1
I0502 18:58:32.381664 12370 net.cpp:94] Creating Layer relu1
I0502 18:58:32.381669 12370 net.cpp:435] relu1 <- conv1
I0502 18:58:32.381674 12370 net.cpp:396] relu1 -> conv1 (in-place)
I0502 18:58:32.381687 12370 net.cpp:144] Setting up relu1
I0502 18:58:32.381693 12370 net.cpp:151] Top shape: 20 64 30 30 (1152000)
I0502 18:58:32.381696 12370 net.cpp:159] Memory required for data: 9288080
I0502 18:58:32.381700 12370 layer_factory.hpp:77] Creating layer conv2
I0502 18:58:32.381707 12370 net.cpp:94] Creating Layer conv2
I0502 18:58:32.381711 12370 net.cpp:435] conv2 <- conv1
I0502 18:58:32.381716 12370 net.cpp:409] conv2 -> conv2
I0502 18:58:32.398988 12370 net.cpp:144] Setting up conv2
I0502 18:58:32.399004 12370 net.cpp:151] Top shape: 20 64 30 30 (1152000)
I0502 18:58:32.399008 12370 net.cpp:159] Memory required for data: 13896080
I0502 18:58:32.399016 12370 layer_factory.hpp:77] Creating layer relu2
I0502 18:58:32.399024 12370 net.cpp:94] Creating Layer relu2
I0502 18:58:32.399026 12370 net.cpp:435] relu2 <- conv2
I0502 18:58:32.399031 12370 net.cpp:396] relu2 -> conv2 (in-place)
I0502 18:58:32.399039 12370 net.cpp:144] Setting up relu2
I0502 18:58:32.399044 12370 net.cpp:151] Top shape: 20 64 30 30 (1152000)
I0502 18:58:32.399046 12370 net.cpp:159] Memory required for data: 18504080
I0502 18:58:32.399049 12370 layer_factory.hpp:77] Creating layer pool2
I0502 18:58:32.399063 12370 net.cpp:94] Creating Layer pool2
I0502 18:58:32.399067 12370 net.cpp:435] pool2 <- conv2
I0502 18:58:32.399072 12370 net.cpp:409] pool2 -> pool2
I0502 18:58:32.399116 12370 net.cpp:144] Setting up pool2
I0502 18:58:32.399122 12370 net.cpp:151] Top shape: 20 64 15 15 (288000)
I0502 18:58:32.399127 12370 net.cpp:159] Memory required for data: 19656080
I0502 18:58:32.399129 12370 layer_factory.hpp:77] Creating layer conv3
I0502 18:58:32.399137 12370 net.cpp:94] Creating Layer conv3
I0502 18:58:32.399142 12370 net.cpp:435] conv3 <- pool2
I0502 18:58:32.399154 12370 net.cpp:409] conv3 -> conv3
I0502 18:58:32.407359 12370 net.cpp:144] Setting up conv3
I0502 18:58:32.407376 12370 net.cpp:151] Top shape: 20 64 15 15 (288000)
I0502 18:58:32.407379 12370 net.cpp:159] Memory required for data: 20808080
I0502 18:58:32.407387 12370 layer_factory.hpp:77] Creating layer relu3
I0502 18:58:32.407393 12370 net.cpp:94] Creating Layer relu3
I0502 18:58:32.407397 12370 net.cpp:435] relu3 <- conv3
I0502 18:58:32.407402 12370 net.cpp:396] relu3 -> conv3 (in-place)
I0502 18:58:32.407409 12370 net.cpp:144] Setting up relu3
I0502 18:58:32.407414 12370 net.cpp:151] Top shape: 20 64 15 15 (288000)
I0502 18:58:32.407418 12370 net.cpp:159] Memory required for data: 21960080
I0502 18:58:32.407420 12370 layer_factory.hpp:77] Creating layer conv4
I0502 18:58:32.407429 12370 net.cpp:94] Creating Layer conv4
I0502 18:58:32.407433 12370 net.cpp:435] conv4 <- conv3
I0502 18:58:32.407438 12370 net.cpp:409] conv4 -> conv4
I0502 18:58:32.418161 12370 net.cpp:144] Setting up conv4
I0502 18:58:32.418177 12370 net.cpp:151] Top shape: 20 64 15 15 (288000)
I0502 18:58:32.418181 12370 net.cpp:159] Memory required for data: 23112080
I0502 18:58:32.418187 12370 layer_factory.hpp:77] Creating layer relu4
I0502 18:58:32.418193 12370 net.cpp:94] Creating Layer relu4
I0502 18:58:32.418197 12370 net.cpp:435] relu4 <- conv4
I0502 18:58:32.418202 12370 net.cpp:396] relu4 -> conv4 (in-place)
I0502 18:58:32.418210 12370 net.cpp:144] Setting up relu4
I0502 18:58:32.418215 12370 net.cpp:151] Top shape: 20 64 15 15 (288000)
I0502 18:58:32.418217 12370 net.cpp:159] Memory required for data: 24264080
I0502 18:58:32.418220 12370 layer_factory.hpp:77] Creating layer conv5
I0502 18:58:32.418228 12370 net.cpp:94] Creating Layer conv5
I0502 18:58:32.418232 12370 net.cpp:435] conv5 <- conv4
I0502 18:58:32.418236 12370 net.cpp:409] conv5 -> conv5
I0502 18:58:32.425887 12370 net.cpp:144] Setting up conv5
I0502 18:58:32.425904 12370 net.cpp:151] Top shape: 20 64 15 15 (288000)
I0502 18:58:32.425907 12370 net.cpp:159] Memory required for data: 25416080
I0502 18:58:32.425916 12370 layer_factory.hpp:77] Creating layer relu5
I0502 18:58:32.425922 12370 net.cpp:94] Creating Layer relu5
I0502 18:58:32.425926 12370 net.cpp:435] relu5 <- conv5
I0502 18:58:32.425930 12370 net.cpp:396] relu5 -> conv5 (in-place)
I0502 18:58:32.425938 12370 net.cpp:144] Setting up relu5
I0502 18:58:32.425943 12370 net.cpp:151] Top shape: 20 64 15 15 (288000)
I0502 18:58:32.425946 12370 net.cpp:159] Memory required for data: 26568080
I0502 18:58:32.425950 12370 layer_factory.hpp:77] Creating layer pool5
I0502 18:58:32.425954 12370 net.cpp:94] Creating Layer pool5
I0502 18:58:32.425957 12370 net.cpp:435] pool5 <- conv5
I0502 18:58:32.425962 12370 net.cpp:409] pool5 -> pool5
I0502 18:58:32.425997 12370 net.cpp:144] Setting up pool5
I0502 18:58:32.426003 12370 net.cpp:151] Top shape: 20 64 7 7 (62720)
I0502 18:58:32.426007 12370 net.cpp:159] Memory required for data: 26818960
I0502 18:58:32.426009 12370 layer_factory.hpp:77] Creating layer ip1
I0502 18:58:32.426019 12370 net.cpp:94] Creating Layer ip1
I0502 18:58:32.426023 12370 net.cpp:435] ip1 <- pool5
I0502 18:58:32.426028 12370 net.cpp:409] ip1 -> ip1
I0502 18:58:32.431555 12370 net.cpp:144] Setting up ip1
I0502 18:58:32.431568 12370 net.cpp:151] Top shape: 20 64 (1280)
I0502 18:58:32.431572 12370 net.cpp:159] Memory required for data: 26824080
I0502 18:58:32.431577 12370 layer_factory.hpp:77] Creating layer ip2
I0502 18:58:32.431588 12370 net.cpp:94] Creating Layer ip2
I0502 18:58:32.431593 12370 net.cpp:435] ip2 <- ip1
I0502 18:58:32.431599 12370 net.cpp:409] ip2 -> ip2
I0502 18:58:32.431767 12370 net.cpp:144] Setting up ip2
I0502 18:58:32.431774 12370 net.cpp:151] Top shape: 20 64 (1280)
I0502 18:58:32.431778 12370 net.cpp:159] Memory required for data: 26829200
I0502 18:58:32.431783 12370 layer_factory.hpp:77] Creating layer ip3
I0502 18:58:32.431789 12370 net.cpp:94] Creating Layer ip3
I0502 18:58:32.431792 12370 net.cpp:435] ip3 <- ip2
I0502 18:58:32.431797 12370 net.cpp:409] ip3 -> ip3
I0502 18:58:32.431946 12370 net.cpp:144] Setting up ip3
I0502 18:58:32.431952 12370 net.cpp:151] Top shape: 20 50 (1000)
I0502 18:58:32.431955 12370 net.cpp:159] Memory required for data: 26833200
I0502 18:58:32.431960 12370 layer_factory.hpp:77] Creating layer loss
I0502 18:58:32.431967 12370 net.cpp:94] Creating Layer loss
I0502 18:58:32.431970 12370 net.cpp:435] loss <- ip3
I0502 18:58:32.431974 12370 net.cpp:435] loss <- label
I0502 18:58:32.431979 12370 net.cpp:409] loss -> loss
I0502 18:58:32.431989 12370 layer_factory.hpp:77] Creating layer loss
…
I0502 18:58:32.432473 12370 solver.cpp:181] Creating test net (#0) specified by net file: ./protocol/dis_5_900_dimension.protocol_distribution
I0502 18:58:32.432502 12370 net.cpp:323] The NetState phase (1) differed from the phase (0) specified by a rule in layer parameters
I0502 18:58:32.432608 12370 net.cpp:52] Initializing net from parameters: 
state {
  phase: TEST
}
layer {
  name: "intercept"
  type: "HDF5Data"
  top: "data"
  top: "label"
  include {
    phase: TEST
  }
  hdf5_data_param {
    source: "/home/purduethu/scratch/radon/d/deng106/CNNStatisticalModel/distributions/input/5_distributions_900_sample_size_test-distributions-path.txt"
    batch_size: 20
  }
}
layer {
  name: "conv1"
  type: "Convolution"
  bottom: "data"
  top: "conv1"
  param {
    lr_mult: 1
  }
  param {
    lr_mult: 2
  }
  convolution_param {
    num_output: 64
    pad: 2
    kernel_size: 5
    stride: 1
    weight_filler {
      type: "gaussian"
      std: 0.0001
    }
    bias_filler {
      type: "constant"
    }
  }
}
layer {
  name: "relu1"
  type: "ReLU"
  bottom: "conv1"
  top: "conv1"
}
layer {
  name: "conv2"
  type: "Convolution"
  bottom: "conv1"
  top: "conv2"
  param {
    lr_mult: 1
  }
  param {
    lr_mult: 2
  }
  convolution_param {
    num_output: 64
    pad: 2
    kernel_size: 5
    stride: 1
    weight_filler {
      type: "gaussian"
      std: 0.01
    }
    bias_filler {
      type: "constant"
    }
  }
}
layer {
  name: "relu2"
  type: "ReLU"
  bottom: "conv2"
  top: "conv2"
}
layer {
  name: "pool2"
  type: "Pooling"
  bottom: "conv2"
  top: "pool2"
  pooling_param {
    pool: MAX
    kernel_size: 3
    stride: 2
  }
}
layer {
  name: "conv3"
  type: "Convolution"
  bottom: "pool2"
  top: "conv3"
  param {
    lr_mult: 1
  }
  param {
    lr_mult: 2
  }
  convolution_param {
    num_output: 64
    pad: 2
    kernel_size: 5
    stride: 1
    weight_filler {
      type: "gaussian"
      std: 0.01
    }
    bias_filler {
      type: "constant"
    }
  }
}
layer {
  name: "relu3"
  type: "ReLU"
  bottom: "conv3"
  top: "conv3"
}
layer {
  name: "conv4"
  type: "Convolution"
  bottom: "conv3"
  top: "conv4"
  param {
    lr_mult: 1
  }
  param {
    lr_mult: 2
  }
  convolution_param {
    num_output: 64
    pad: 2
    kernel_size: 5
    stride: 1
    weight_filler {
      type: "gaussian"
      std: 0.01
    }
    bias_filler {
      type: "constant"
    }
  }
}
layer {
  name: "relu4"
  type: "ReLU"
  bottom: "conv4"
  top: "conv4"
}
layer {
  name: "conv5"
  type: "Convolution"
  bottom: "conv4"
  top: "conv5"
  param {
    lr_mult: 1
  }
  param {
    lr_mult: 2
  }
  convolution_param {
    num_output: 64
    pad: 2
    kernel_size: 5
    stride: 1
    weight_filler {
      type: "gaussian"
      std: 0.01
    }
    bias_filler {
      type: "constant"
    }
  }
}
layer {
  name: "relu5"
  type: "ReLU"
  bottom: "conv5"
  top: "conv5"
}
layer {
  name: "pool5"
  type: "Pooling"
  bottom: "conv5"
  top: "pool5"
  pooling_param {
    pool: AVE
    kernel_size: 3
    stride: 2
  }
}
layer {
  name: "ip1"
  type: "InnerProduct"
  bottom: "pool5"
  top: "ip1"
  param {
    lr_mult: 1
  }
  param {
    lr_mult: 2
  }
  inner_product_param {
    num_output: 64
    weight_filler {
      type: "gaussian"
      std: 0.1
    }
    bias_filler {
      type: "constant"
    }
  }
}
layer {
  name: "ip2"
  type: "InnerProduct"
  bottom: "ip1"
  top: "ip2"
  param {
    lr_mult: 1
  }
  param {
    lr_mult: 2
  }
  inner_product_param {
    num_output: 64
    weight_filler {
      type: "gaussian"
      std: 0.1
    }
    bias_filler {
      type: "constant"
    }
  }
}
layer {
  name: "ip3"
  type: "InnerProduct"
  bottom: "ip2"
  top: "ip3"
  param {
    lr_mult: 1
  }
  param {
    lr_mult: 2
  }
  inner_product_param {
    num_output: 50
    weight_filler {
      type: "gaussian"
      std: 0.1
    }
    bias_filler {
      type: "constant"
    }
  }
}
layer {
  name: "accuracy"
  type: "Accuracy"
  bottom: "ip3"
  bottom: "label"
  top: "accuracy"
  include {
    phase: TEST
  }
}
layer {
  name: "loss"
  type: "SoftmaxWithLoss"
  bottom: "ip3"
  bottom: "label"
  top: "loss"
}
I0502 18:58:32.432683 12370 layer_factory.hpp:77] Creating layer intercept
I0502 18:58:32.432692 12370 net.cpp:94] Creating Layer intercept
I0502 18:58:32.432695 12370 net.cpp:409] intercept -> data
I0502 18:58:32.432703 12370 net.cpp:409] intercept -> label
I0502 18:58:32.432709 12370 hdf5_data_layer.cpp:79] Loading list of HDF5 filenames from: /home/purduethu/scratch/radon/d/deng106/CNNStatisticalModel/distributions/input/5_distributions_900_sample_size_test-distributions-path.txt
I0502 18:58:32.432729 12370 hdf5_data_layer.cpp:93] Number of HDF5 files: 1
I0502 18:58:32.468974 12370 net.cpp:144] Setting up intercept
I0502 18:58:32.469004 12370 net.cpp:151] Top shape: 20 1 30 30 (18000)
I0502 18:58:32.469010 12370 net.cpp:151] Top shape: 20 (20)
I0502 18:58:32.469014 12370 net.cpp:159] Memory required for data: 72080
I0502 18:58:32.469020 12370 layer_factory.hpp:77] Creating layer label_intercept_1_split
I0502 18:58:32.469036 12370 net.cpp:94] Creating Layer label_intercept_1_split
I0502 18:58:32.469040 12370 net.cpp:435] label_intercept_1_split <- label
I0502 18:58:32.469046 12370 net.cpp:409] label_intercept_1_split -> label_intercept_1_split_0
I0502 18:58:32.469055 12370 net.cpp:409] label_intercept_1_split -> label_intercept_1_split_1
I0502 18:58:32.469089 12370 net.cpp:144] Setting up label_intercept_1_split
I0502 18:58:32.469095 12370 net.cpp:151] Top shape: 20 (20)
I0502 18:58:32.469099 12370 net.cpp:151] Top shape: 20 (20)
I0502 18:58:32.469102 12370 net.cpp:159] Memory required for data: 72240
I0502 18:58:32.469105 12370 layer_factory.hpp:77] Creating layer conv1
I0502 18:58:32.469116 12370 net.cpp:94] Creating Layer conv1
I0502 18:58:32.469120 12370 net.cpp:435] conv1 <- data
I0502 18:58:32.469125 12370 net.cpp:409] conv1 -> conv1
I0502 18:58:32.470280 12370 net.cpp:144] Setting up conv1
I0502 18:58:32.470301 12370 net.cpp:151] Top shape: 20 64 30 30 (1152000)
I0502 18:58:32.470306 12370 net.cpp:159] Memory required for data: 4680240
I0502 18:58:32.470316 12370 layer_factory.hpp:77] Creating layer relu1
I0502 18:58:32.470322 12370 net.cpp:94] Creating Layer relu1
I0502 18:58:32.470326 12370 net.cpp:435] relu1 <- conv1
I0502 18:58:32.470331 12370 net.cpp:396] relu1 -> conv1 (in-place)
I0502 18:58:32.470338 12370 net.cpp:144] Setting up relu1
I0502 18:58:32.470343 12370 net.cpp:151] Top shape: 20 64 30 30 (1152000)
I0502 18:58:32.470346 12370 net.cpp:159] Memory required for data: 9288240
I0502 18:58:32.470350 12370 layer_factory.hpp:77] Creating layer conv2
I0502 18:58:32.470358 12370 net.cpp:94] Creating Layer conv2
I0502 18:58:32.470361 12370 net.cpp:435] conv2 <- conv1
I0502 18:58:32.470366 12370 net.cpp:409] conv2 -> conv2
I0502 18:58:32.476840 12370 net.cpp:144] Setting up conv2
I0502 18:58:32.476855 12370 net.cpp:151] Top shape: 20 64 30 30 (1152000)
I0502 18:58:32.476858 12370 net.cpp:159] Memory required for data: 13896240
I0502 18:58:32.476866 12370 layer_factory.hpp:77] Creating layer relu2
I0502 18:58:32.476872 12370 net.cpp:94] Creating Layer relu2
I0502 18:58:32.476876 12370 net.cpp:435] relu2 <- conv2
I0502 18:58:32.476881 12370 net.cpp:396] relu2 -> conv2 (in-place)
I0502 18:58:32.476887 12370 net.cpp:144] Setting up relu2
I0502 18:58:32.476892 12370 net.cpp:151] Top shape: 20 64 30 30 (1152000)
I0502 18:58:32.476896 12370 net.cpp:159] Memory required for data: 18504240
I0502 18:58:32.476898 12370 layer_factory.hpp:77] Creating layer pool2
I0502 18:58:32.476903 12370 net.cpp:94] Creating Layer pool2
I0502 18:58:32.476907 12370 net.cpp:435] pool2 <- conv2
I0502 18:58:32.476910 12370 net.cpp:409] pool2 -> pool2
I0502 18:58:32.476944 12370 net.cpp:144] Setting up pool2
I0502 18:58:32.476950 12370 net.cpp:151] Top shape: 20 64 15 15 (288000)
I0502 18:58:32.476953 12370 net.cpp:159] Memory required for data: 19656240
I0502 18:58:32.476956 12370 layer_factory.hpp:77] Creating layer conv3
I0502 18:58:32.476964 12370 net.cpp:94] Creating Layer conv3
I0502 18:58:32.476969 12370 net.cpp:435] conv3 <- pool2
I0502 18:58:32.476974 12370 net.cpp:409] conv3 -> conv3
I0502 18:58:32.481539 12370 net.cpp:144] Setting up conv3
I0502 18:58:32.481555 12370 net.cpp:151] Top shape: 20 64 15 15 (288000)
I0502 18:58:32.481559 12370 net.cpp:159] Memory required for data: 20808240
I0502 18:58:32.481567 12370 layer_factory.hpp:77] Creating layer relu3
I0502 18:58:32.481575 12370 net.cpp:94] Creating Layer relu3
I0502 18:58:32.481578 12370 net.cpp:435] relu3 <- conv3
I0502 18:58:32.481583 12370 net.cpp:396] relu3 -> conv3 (in-place)
I0502 18:58:32.481590 12370 net.cpp:144] Setting up relu3
I0502 18:58:32.481595 12370 net.cpp:151] Top shape: 20 64 15 15 (288000)
I0502 18:58:32.481598 12370 net.cpp:159] Memory required for data: 21960240
I0502 18:58:32.481602 12370 layer_factory.hpp:77] Creating layer conv4
I0502 18:58:32.481609 12370 net.cpp:94] Creating Layer conv4
I0502 18:58:32.481613 12370 net.cpp:435] conv4 <- conv3
I0502 18:58:32.481618 12370 net.cpp:409] conv4 -> conv4
I0502 18:58:32.485899 12370 net.cpp:144] Setting up conv4
I0502 18:58:32.485915 12370 net.cpp:151] Top shape: 20 64 15 15 (288000)
I0502 18:58:32.485919 12370 net.cpp:159] Memory required for data: 23112240
I0502 18:58:32.485925 12370 layer_factory.hpp:77] Creating layer relu4
I0502 18:58:32.485931 12370 net.cpp:94] Creating Layer relu4
I0502 18:58:32.485939 12370 net.cpp:435] relu4 <- conv4
I0502 18:58:32.485944 12370 net.cpp:396] relu4 -> conv4 (in-place)
I0502 18:58:32.485952 12370 net.cpp:144] Setting up relu4
I0502 18:58:32.485957 12370 net.cpp:151] Top shape: 20 64 15 15 (288000)
I0502 18:58:32.485960 12370 net.cpp:159] Memory required for data: 24264240
I0502 18:58:32.485963 12370 layer_factory.hpp:77] Creating layer conv5
I0502 18:58:32.485971 12370 net.cpp:94] Creating Layer conv5
I0502 18:58:32.485975 12370 net.cpp:435] conv5 <- conv4
I0502 18:58:32.485980 12370 net.cpp:409] conv5 -> conv5
I0502 18:58:32.490653 12370 net.cpp:144] Setting up conv5
I0502 18:58:32.490667 12370 net.cpp:151] Top shape: 20 64 15 15 (288000)
I0502 18:58:32.490671 12370 net.cpp:159] Memory required for data: 25416240
I0502 18:58:32.490680 12370 layer_factory.hpp:77] Creating layer relu5
I0502 18:58:32.490687 12370 net.cpp:94] Creating Layer relu5
I0502 18:58:32.490690 12370 net.cpp:435] relu5 <- conv5
I0502 18:58:32.490695 12370 net.cpp:396] relu5 -> conv5 (in-place)
I0502 18:58:32.490702 12370 net.cpp:144] Setting up relu5
I0502 18:58:32.490707 12370 net.cpp:151] Top shape: 20 64 15 15 (288000)
I0502 18:58:32.490710 12370 net.cpp:159] Memory required for data: 26568240
I0502 18:58:32.490713 12370 layer_factory.hpp:77] Creating layer pool5
I0502 18:58:32.490718 12370 net.cpp:94] Creating Layer pool5
I0502 18:58:32.490721 12370 net.cpp:435] pool5 <- conv5
I0502 18:58:32.490726 12370 net.cpp:409] pool5 -> pool5
I0502 18:58:32.490751 12370 net.cpp:144] Setting up pool5
I0502 18:58:32.490758 12370 net.cpp:151] Top shape: 20 64 7 7 (62720)
I0502 18:58:32.490761 12370 net.cpp:159] Memory required for data: 26819120
I0502 18:58:32.490764 12370 layer_factory.hpp:77] Creating layer ip1
I0502 18:58:32.490772 12370 net.cpp:94] Creating Layer ip1
I0502 18:58:32.490774 12370 net.cpp:435] ip1 <- pool5
I0502 18:58:32.490779 12370 net.cpp:409] ip1 -> ip1
I0502 18:58:32.496310 12370 net.cpp:144] Setting up ip1
I0502 18:58:32.496325 12370 net.cpp:151] Top shape: 20 64 (1280)
I0502 18:58:32.496328 12370 net.cpp:159] Memory required for data: 26824240
I0502 18:58:32.496333 12370 layer_factory.hpp:77] Creating layer ip2
I0502 18:58:32.496340 12370 net.cpp:94] Creating Layer ip2
I0502 18:58:32.496345 12370 net.cpp:435] ip2 <- ip1
I0502 18:58:32.496350 12370 net.cpp:409] ip2 -> ip2
I0502 18:58:32.496521 12370 net.cpp:144] Setting up ip2
I0502 18:58:32.496528 12370 net.cpp:151] Top shape: 20 64 (1280)
I0502 18:58:32.496531 12370 net.cpp:159] Memory required for data: 26829360
I0502 18:58:32.496536 12370 layer_factory.hpp:77] Creating layer ip3
I0502 18:58:32.496543 12370 net.cpp:94] Creating Layer ip3
I0502 18:58:32.496546 12370 net.cpp:435] ip3 <- ip2
I0502 18:58:32.496554 12370 net.cpp:409] ip3 -> ip3
I0502 18:58:32.496702 12370 net.cpp:144] Setting up ip3
I0502 18:58:32.496709 12370 net.cpp:151] Top shape: 20 50 (1000)
I0502 18:58:32.496712 12370 net.cpp:159] Memory required for data: 26833360
I0502 18:58:32.496717 12370 layer_factory.hpp:77] Creating layer ip3_ip3_0_split
I0502 18:58:32.496722 12370 net.cpp:94] Creating Layer ip3_ip3_0_split
I0502 18:58:32.496726 12370 net.cpp:435] ip3_ip3_0_split <- ip3
I0502 18:58:32.496729 12370 net.cpp:409] ip3_ip3_0_split -> ip3_ip3_0_split_0
I0502 18:58:32.496734 12370 net.cpp:409] ip3_ip3_0_split -> ip3_ip3_0_split_1
I0502 18:58:32.496758 12370 net.cpp:144] Setting up ip3_ip3_0_split
I0502 18:58:32.496764 12370 net.cpp:151] Top shape: 20 50 (1000)
I0502 18:58:32.496768 12370 net.cpp:151] Top shape: 20 50 (1000)
I0502 18:58:32.496772 12370 net.cpp:159] Memory required for data: 26841360
I0502 18:58:32.496774 12370 layer_factory.hpp:77] Creating layer accuracy
I0502 18:58:32.496779 12370 net.cpp:94] Creating Layer accuracy
I0502 18:58:32.496783 12370 net.cpp:435] accuracy <- ip3_ip3_0_split_0
I0502 18:58:32.496786 12370 net.cpp:435] accuracy <- label_intercept_1_split_0
I0502 18:58:32.496791 12370 net.cpp:409] accuracy -> accuracy
…
