…
I0502 14:06:37.907349  5267 net.cpp:323] The NetState phase (0) differed from the phase (1) specified by a rule in layer intercept
I0502 14:06:37.907366  5267 net.cpp:323] The NetState phase (0) differed from the phase (1) specified by a rule in layer loss
I0502 14:06:37.907459  5267 net.cpp:52] Initializing net from parameters: 
state {
  phase: TRAIN
}
layer {
  name: "parameters"
  type: "HDF5Data"
  top: "data"
  top: "label"
  include {
    phase: TRAIN
  }
  hdf5_data_param {
    source: "/home/purduethu/scratch/radon/d/deng106/CNNStatisticalModel/distributions/input/50_distributions_900_sample_size_train-parameters-path.txt"
    batch_size: 20
  }
}
layer {
  name: "conv1"
  type: "Convolution"
  bottom: "data"
  top: "conv1"
  param {
    lr_mult: 1
  }
  param {
    lr_mult: 2
  }
  convolution_param {
    num_output: 64
    pad: 2
    kernel_size: 5
    stride: 1
    weight_filler {
      type: "gaussian"
      std: 0.0001
    }
    bias_filler {
      type: "constant"
    }
  }
}
layer {
  name: "relu1"
  type: "ReLU"
  bottom: "conv1"
  top: "conv1"
}
layer {
  name: "conv2"
  type: "Convolution"
  bottom: "conv1"
  top: "conv2"
  param {
    lr_mult: 1
  }
  param {
    lr_mult: 2
  }
  convolution_param {
    num_output: 64
    pad: 2
    kernel_size: 5
    stride: 1
    weight_filler {
      type: "gaussian"
      std: 0.01
    }
    bias_filler {
      type: "constant"
    }
  }
}
layer {
  name: "relu2"
  type: "ReLU"
  bottom: "conv2"
  top: "conv2"
}
layer {
  name: "pool2"
  type: "Pooling"
  bottom: "conv2"
  top: "pool2"
  pooling_param {
    pool: MAX
    kernel_size: 3
    stride: 2
  }
}
layer {
  name: "conv3"
  type: "Convolution"
  bottom: "pool2"
  top: "conv3"
  param {
    lr_mult: 1
  }
  param {
    lr_mult: 2
  }
  convolution_param {
    num_output: 64
    pad: 2
    kernel_size: 5
    stride: 1
    weight_filler {
      type: "gaussian"
      std: 0.01
    }
    bias_filler {
      type: "constant"
    }
  }
}
layer {
  name: "relu3"
  type: "ReLU"
  bottom: "conv3"
  top: "conv3"
}
layer {
  name: "conv4"
  type: "Convolution"
  bottom: "conv3"
  top: "conv4"
  param {
    lr_mult: 1
  }
  param {
    lr_mult: 2
  }
  convolution_param {
    num_output: 64
    pad: 2
    kernel_size: 5
    stride: 1
    weight_filler {
      type: "gaussian"
      std: 0.01
    }
    bias_filler {
      type: "constant"
    }
  }
}
layer {
  name: "relu4"
  type: "ReLU"
  bottom: "conv4"
  top: "conv4"
}
layer {
  name: "conv5"
  type: "Convolution"
  bottom: "conv4"
  top: "conv5"
  param {
    lr_mult: 1
  }
  param {
    lr_mult: 2
  }
  convolution_param {
    num_output: 64
    pad: 2
    kernel_size: 5
    stride: 1
    weight_filler {
      type: "gaussian"
      std: 0.01
    }
    bias_filler {
      type: "constant"
    }
  }
}
layer {
  name: "relu5"
  type: "ReLU"
  bottom: "conv5"
  top: "conv5"
}
layer {
  name: "pool5"
  type: "Pooling"
  bottom: "conv5"
  top: "pool5"
  pooling_param {
    pool: AVE
    kernel_size: 3
    stride: 2
  }
}
layer {
  name: "ip1"
  type: "InnerProduct"
  bottom: "pool5"
  top: "ip1"
  param {
    lr_mult: 1
  }
  param {
    lr_mult: 2
  }
  inner_product_param {
    num_output: 64
    weight_filler {
      type: "gaussian"
      std: 0.1
    }
    bias_filler {
      type: "constant"
    }
  }
}
layer {
  name: "ip2"
  type: "InnerProduct"
  bottom: "ip1"
  top: "ip2"
  param {
    lr_mult: 1
  }
  param {
    lr_mult: 2
  }
  inner_product_param {
    num_output: 64
    weight_filler {
      type: "gaussian"
      std: 0.1
    }
    bias_filler {
      type: "constant"
    }
  }
}
layer {
  name: "ip3"
  type: "InnerProduct"
  bottom: "ip2"
  top: "ip3"
  param {
    lr_mult: 1
  }
  param {
    lr_mult: 2
  }
  inner_product_param {
    num_output: 1
    weight_filler {
      type: "gaussian"
      std: 0.1
    }
    bias_filler {
      type: "constant"
    }
  }
}
layer {
  name: "loss"
  type: "HuberLoss"
  bottom: "ip3"
  bottom: "label"
  top: "loss"
  include {
    phase: TRAIN
  }
}
I0502 14:06:37.907537  5267 layer_factory.hpp:77] Creating layer parameters
I0502 14:06:37.907552  5267 net.cpp:94] Creating Layer parameters
I0502 14:06:37.907558  5267 net.cpp:409] parameters -> data
I0502 14:06:37.907579  5267 net.cpp:409] parameters -> label
I0502 14:06:37.907589  5267 hdf5_data_layer.cpp:79] Loading list of HDF5 filenames from: /home/purduethu/scratch/radon/d/deng106/CNNStatisticalModel/distributions/input/50_distributions_900_sample_size_train-parameters-path.txt
I0502 14:06:37.907611  5267 hdf5_data_layer.cpp:93] Number of HDF5 files: 1
I0502 14:06:37.908255  5267 hdf5.cpp:32] Datatype class: H5T_FLOAT
I0502 14:06:39.371748  5267 net.cpp:144] Setting up parameters
I0502 14:06:39.371783  5267 net.cpp:151] Top shape: 20 1 30 30 (18000)
I0502 14:06:39.371789  5267 net.cpp:151] Top shape: 20 (20)
I0502 14:06:39.371793  5267 net.cpp:159] Memory required for data: 72080
I0502 14:06:39.371801  5267 layer_factory.hpp:77] Creating layer conv1
I0502 14:06:39.371826  5267 net.cpp:94] Creating Layer conv1
I0502 14:06:39.371832  5267 net.cpp:435] conv1 <- data
I0502 14:06:39.371843  5267 net.cpp:409] conv1 -> conv1
I0502 14:06:39.378217  5267 net.cpp:144] Setting up conv1
I0502 14:06:39.378233  5267 net.cpp:151] Top shape: 20 64 30 30 (1152000)
I0502 14:06:39.378238  5267 net.cpp:159] Memory required for data: 4680080
I0502 14:06:39.378249  5267 layer_factory.hpp:77] Creating layer relu1
I0502 14:06:39.378257  5267 net.cpp:94] Creating Layer relu1
I0502 14:06:39.378262  5267 net.cpp:435] relu1 <- conv1
I0502 14:06:39.378267  5267 net.cpp:396] relu1 -> conv1 (in-place)
I0502 14:06:39.378283  5267 net.cpp:144] Setting up relu1
I0502 14:06:39.378288  5267 net.cpp:151] Top shape: 20 64 30 30 (1152000)
I0502 14:06:39.378291  5267 net.cpp:159] Memory required for data: 9288080
I0502 14:06:39.378295  5267 layer_factory.hpp:77] Creating layer conv2
I0502 14:06:39.378304  5267 net.cpp:94] Creating Layer conv2
I0502 14:06:39.378306  5267 net.cpp:435] conv2 <- conv1
I0502 14:06:39.378311  5267 net.cpp:409] conv2 -> conv2
I0502 14:06:39.393419  5267 net.cpp:144] Setting up conv2
I0502 14:06:39.393435  5267 net.cpp:151] Top shape: 20 64 30 30 (1152000)
I0502 14:06:39.393440  5267 net.cpp:159] Memory required for data: 13896080
I0502 14:06:39.393447  5267 layer_factory.hpp:77] Creating layer relu2
I0502 14:06:39.393455  5267 net.cpp:94] Creating Layer relu2
I0502 14:06:39.393458  5267 net.cpp:435] relu2 <- conv2
I0502 14:06:39.393463  5267 net.cpp:396] relu2 -> conv2 (in-place)
I0502 14:06:39.393471  5267 net.cpp:144] Setting up relu2
I0502 14:06:39.393476  5267 net.cpp:151] Top shape: 20 64 30 30 (1152000)
I0502 14:06:39.393479  5267 net.cpp:159] Memory required for data: 18504080
I0502 14:06:39.393482  5267 layer_factory.hpp:77] Creating layer pool2
I0502 14:06:39.393491  5267 net.cpp:94] Creating Layer pool2
I0502 14:06:39.393501  5267 net.cpp:435] pool2 <- conv2
I0502 14:06:39.393506  5267 net.cpp:409] pool2 -> pool2
I0502 14:06:39.393551  5267 net.cpp:144] Setting up pool2
I0502 14:06:39.393558  5267 net.cpp:151] Top shape: 20 64 15 15 (288000)
I0502 14:06:39.393563  5267 net.cpp:159] Memory required for data: 19656080
I0502 14:06:39.393565  5267 layer_factory.hpp:77] Creating layer conv3
I0502 14:06:39.393573  5267 net.cpp:94] Creating Layer conv3
I0502 14:06:39.393577  5267 net.cpp:435] conv3 <- pool2
I0502 14:06:39.393582  5267 net.cpp:409] conv3 -> conv3
I0502 14:06:39.401619  5267 net.cpp:144] Setting up conv3
I0502 14:06:39.401634  5267 net.cpp:151] Top shape: 20 64 15 15 (288000)
I0502 14:06:39.401638  5267 net.cpp:159] Memory required for data: 20808080
I0502 14:06:39.401648  5267 layer_factory.hpp:77] Creating layer relu3
I0502 14:06:39.401654  5267 net.cpp:94] Creating Layer relu3
I0502 14:06:39.401657  5267 net.cpp:435] relu3 <- conv3
I0502 14:06:39.401662  5267 net.cpp:396] relu3 -> conv3 (in-place)
I0502 14:06:39.401669  5267 net.cpp:144] Setting up relu3
I0502 14:06:39.401674  5267 net.cpp:151] Top shape: 20 64 15 15 (288000)
I0502 14:06:39.401677  5267 net.cpp:159] Memory required for data: 21960080
I0502 14:06:39.401680  5267 layer_factory.hpp:77] Creating layer conv4
I0502 14:06:39.401690  5267 net.cpp:94] Creating Layer conv4
I0502 14:06:39.401693  5267 net.cpp:435] conv4 <- conv3
I0502 14:06:39.401698  5267 net.cpp:409] conv4 -> conv4
I0502 14:06:39.408854  5267 net.cpp:144] Setting up conv4
I0502 14:06:39.408870  5267 net.cpp:151] Top shape: 20 64 15 15 (288000)
I0502 14:06:39.408874  5267 net.cpp:159] Memory required for data: 23112080
I0502 14:06:39.408881  5267 layer_factory.hpp:77] Creating layer relu4
I0502 14:06:39.408887  5267 net.cpp:94] Creating Layer relu4
I0502 14:06:39.408891  5267 net.cpp:435] relu4 <- conv4
I0502 14:06:39.408896  5267 net.cpp:396] relu4 -> conv4 (in-place)
I0502 14:06:39.408905  5267 net.cpp:144] Setting up relu4
I0502 14:06:39.408910  5267 net.cpp:151] Top shape: 20 64 15 15 (288000)
I0502 14:06:39.408912  5267 net.cpp:159] Memory required for data: 24264080
I0502 14:06:39.408916  5267 layer_factory.hpp:77] Creating layer conv5
I0502 14:06:39.408924  5267 net.cpp:94] Creating Layer conv5
I0502 14:06:39.408928  5267 net.cpp:435] conv5 <- conv4
I0502 14:06:39.408933  5267 net.cpp:409] conv5 -> conv5
I0502 14:06:39.417484  5267 net.cpp:144] Setting up conv5
I0502 14:06:39.417498  5267 net.cpp:151] Top shape: 20 64 15 15 (288000)
I0502 14:06:39.417502  5267 net.cpp:159] Memory required for data: 25416080
I0502 14:06:39.417511  5267 layer_factory.hpp:77] Creating layer relu5
I0502 14:06:39.417518  5267 net.cpp:94] Creating Layer relu5
I0502 14:06:39.417522  5267 net.cpp:435] relu5 <- conv5
I0502 14:06:39.417526  5267 net.cpp:396] relu5 -> conv5 (in-place)
I0502 14:06:39.417533  5267 net.cpp:144] Setting up relu5
I0502 14:06:39.417538  5267 net.cpp:151] Top shape: 20 64 15 15 (288000)
I0502 14:06:39.417542  5267 net.cpp:159] Memory required for data: 26568080
I0502 14:06:39.417546  5267 layer_factory.hpp:77] Creating layer pool5
I0502 14:06:39.417551  5267 net.cpp:94] Creating Layer pool5
I0502 14:06:39.417554  5267 net.cpp:435] pool5 <- conv5
I0502 14:06:39.417558  5267 net.cpp:409] pool5 -> pool5
I0502 14:06:39.417593  5267 net.cpp:144] Setting up pool5
I0502 14:06:39.417600  5267 net.cpp:151] Top shape: 20 64 7 7 (62720)
I0502 14:06:39.417604  5267 net.cpp:159] Memory required for data: 26818960
I0502 14:06:39.417608  5267 layer_factory.hpp:77] Creating layer ip1
I0502 14:06:39.417618  5267 net.cpp:94] Creating Layer ip1
I0502 14:06:39.417621  5267 net.cpp:435] ip1 <- pool5
I0502 14:06:39.417626  5267 net.cpp:409] ip1 -> ip1
I0502 14:06:39.423115  5267 net.cpp:144] Setting up ip1
I0502 14:06:39.423130  5267 net.cpp:151] Top shape: 20 64 (1280)
I0502 14:06:39.423135  5267 net.cpp:159] Memory required for data: 26824080
I0502 14:06:39.423141  5267 layer_factory.hpp:77] Creating layer ip2
I0502 14:06:39.423147  5267 net.cpp:94] Creating Layer ip2
I0502 14:06:39.423156  5267 net.cpp:435] ip2 <- ip1
I0502 14:06:39.423161  5267 net.cpp:409] ip2 -> ip2
I0502 14:06:39.423333  5267 net.cpp:144] Setting up ip2
I0502 14:06:39.423341  5267 net.cpp:151] Top shape: 20 64 (1280)
I0502 14:06:39.423343  5267 net.cpp:159] Memory required for data: 26829200
I0502 14:06:39.423349  5267 layer_factory.hpp:77] Creating layer ip3
I0502 14:06:39.423355  5267 net.cpp:94] Creating Layer ip3
I0502 14:06:39.423359  5267 net.cpp:435] ip3 <- ip2
I0502 14:06:39.423363  5267 net.cpp:409] ip3 -> ip3
I0502 14:06:39.423429  5267 net.cpp:144] Setting up ip3
I0502 14:06:39.423440  5267 net.cpp:151] Top shape: 20 1 (20)
I0502 14:06:39.423444  5267 net.cpp:159] Memory required for data: 26829280
I0502 14:06:39.423449  5267 layer_factory.hpp:77] Creating layer loss
I0502 14:06:39.423456  5267 net.cpp:94] Creating Layer loss
I0502 14:06:39.423460  5267 net.cpp:435] loss <- ip3
I0502 14:06:39.423465  5267 net.cpp:435] loss <- label
I0502 14:06:39.423470  5267 net.cpp:409] loss -> loss
I0502 14:06:39.423504  5267 net.cpp:144] Setting up loss
…
