…
I0503 09:00:52.695490 19691 net.cpp:323] The NetState phase (0) differed from the phase (1) specified by a rule in layer intercept
I0503 09:00:52.695508 19691 net.cpp:323] The NetState phase (0) differed from the phase (1) specified by a rule in layer loss
I0503 09:00:52.695601 19691 net.cpp:52] Initializing net from parameters: 
state {
  phase: TRAIN
}
layer {
  name: "parameters"
  type: "HDF5Data"
  top: "data"
  top: "label"
  include {
    phase: TRAIN
  }
  hdf5_data_param {
    source: "/home/purduethu/scratch/radon/d/deng106/CNNStatisticalModel/distributions/input/20_distributions_100_sample_size_train-parameters-path.txt"
    batch_size: 20
  }
}
layer {
  name: "conv1"
  type: "Convolution"
  bottom: "data"
  top: "conv1"
  param {
    lr_mult: 1
  }
  param {
    lr_mult: 2
  }
  convolution_param {
    num_output: 64
    pad: 2
    kernel_size: 5
    stride: 1
    weight_filler {
      type: "gaussian"
      std: 0.0001
    }
    bias_filler {
      type: "constant"
    }
  }
}
layer {
  name: "relu1"
  type: "ReLU"
  bottom: "conv1"
  top: "conv1"
}
layer {
  name: "conv2"
  type: "Convolution"
  bottom: "conv1"
  top: "conv2"
  param {
    lr_mult: 1
  }
  param {
    lr_mult: 2
  }
  convolution_param {
    num_output: 64
    pad: 2
    kernel_size: 5
    stride: 1
    weight_filler {
      type: "gaussian"
      std: 0.01
    }
    bias_filler {
      type: "constant"
    }
  }
}
layer {
  name: "relu2"
  type: "ReLU"
  bottom: "conv2"
  top: "conv2"
}
layer {
  name: "pool2"
  type: "Pooling"
  bottom: "conv2"
  top: "pool2"
  pooling_param {
    pool: MAX
    kernel_size: 3
    stride: 2
  }
}
layer {
  name: "conv3"
  type: "Convolution"
  bottom: "pool2"
  top: "conv3"
  param {
    lr_mult: 1
  }
  param {
    lr_mult: 2
  }
  convolution_param {
    num_output: 128
    pad: 2
    kernel_size: 5
    stride: 1
    weight_filler {
      type: "gaussian"
      std: 0.01
    }
    bias_filler {
      type: "constant"
    }
  }
}
layer {
  name: "relu3"
  type: "ReLU"
  bottom: "conv3"
  top: "conv3"
}
layer {
  name: "conv4"
  type: "Convolution"
  bottom: "conv3"
  top: "conv4"
  param {
    lr_mult: 1
  }
  param {
    lr_mult: 2
  }
  convolution_param {
    num_output: 128
    pad: 2
    kernel_size: 5
    stride: 1
    weight_filler {
      type: "gaussian"
      std: 0.01
    }
    bias_filler {
      type: "constant"
    }
  }
}
layer {
  name: "relu4"
  type: "ReLU"
  bottom: "conv4"
  top: "conv4"
}
layer {
  name: "conv5"
  type: "Convolution"
  bottom: "conv4"
  top: "conv5"
  param {
    lr_mult: 1
  }
  param {
    lr_mult: 2
  }
  convolution_param {
    num_output: 128
    pad: 2
    kernel_size: 5
    stride: 1
    weight_filler {
      type: "gaussian"
      std: 0.01
    }
    bias_filler {
      type: "constant"
    }
  }
}
layer {
  name: "relu5"
  type: "ReLU"
  bottom: "conv5"
  top: "conv5"
}
layer {
  name: "pool5"
  type: "Pooling"
  bottom: "conv5"
  top: "pool5"
  pooling_param {
    pool: AVE
    kernel_size: 3
    stride: 2
  }
}
layer {
  name: "ip1"
  type: "InnerProduct"
  bottom: "pool5"
  top: "ip1"
  param {
    lr_mult: 1
  }
  param {
    lr_mult: 2
  }
  inner_product_param {
    num_output: 1024
    weight_filler {
      type: "gaussian"
      std: 0.1
    }
    bias_filler {
      type: "constant"
    }
  }
}
layer {
  name: "ip2"
  type: "InnerProduct"
  bottom: "ip1"
  top: "ip2"
  param {
    lr_mult: 1
  }
  param {
    lr_mult: 2
  }
  inner_product_param {
    num_output: 512
    weight_filler {
      type: "gaussian"
      std: 0.1
    }
    bias_filler {
      type: "constant"
    }
  }
}
layer {
  name: "ip3"
  type: "InnerProduct"
  bottom: "ip2"
  top: "ip3"
  param {
    lr_mult: 1
  }
  param {
    lr_mult: 2
  }
  inner_product_param {
    num_output: 1
    weight_filler {
      type: "gaussian"
      std: 0.1
    }
    bias_filler {
      type: "constant"
    }
  }
}
layer {
  name: "loss"
  type: "HuberLoss"
  bottom: "ip3"
  bottom: "label"
  top: "loss"
  include {
    phase: TRAIN
  }
}
I0503 09:00:52.695678 19691 layer_factory.hpp:77] Creating layer parameters
I0503 09:00:52.695693 19691 net.cpp:94] Creating Layer parameters
I0503 09:00:52.695698 19691 net.cpp:409] parameters -> data
I0503 09:00:52.695718 19691 net.cpp:409] parameters -> label
I0503 09:00:52.695727 19691 hdf5_data_layer.cpp:79] Loading list of HDF5 filenames from: /home/purduethu/scratch/radon/d/deng106/CNNStatisticalModel/distributions/input/20_distributions_100_sample_size_train-parameters-path.txt
I0503 09:00:52.695750 19691 hdf5_data_layer.cpp:93] Number of HDF5 files: 1
I0503 09:00:52.696213 19691 hdf5.cpp:32] Datatype class: H5T_FLOAT
I0503 09:00:52.763903 19691 net.cpp:144] Setting up parameters
I0503 09:00:52.763936 19691 net.cpp:151] Top shape: 20 1 10 10 (2000)
I0503 09:00:52.763942 19691 net.cpp:151] Top shape: 20 (20)
I0503 09:00:52.763947 19691 net.cpp:159] Memory required for data: 8080
I0503 09:00:52.763954 19691 layer_factory.hpp:77] Creating layer conv1
I0503 09:00:52.763979 19691 net.cpp:94] Creating Layer conv1
I0503 09:00:52.763985 19691 net.cpp:435] conv1 <- data
I0503 09:00:52.763996 19691 net.cpp:409] conv1 -> conv1
I0503 09:00:52.767786 19691 net.cpp:144] Setting up conv1
I0503 09:00:52.767802 19691 net.cpp:151] Top shape: 20 64 10 10 (128000)
I0503 09:00:52.767805 19691 net.cpp:159] Memory required for data: 520080
I0503 09:00:52.767817 19691 layer_factory.hpp:77] Creating layer relu1
I0503 09:00:52.767827 19691 net.cpp:94] Creating Layer relu1
I0503 09:00:52.767830 19691 net.cpp:435] relu1 <- conv1
I0503 09:00:52.767835 19691 net.cpp:396] relu1 -> conv1 (in-place)
I0503 09:00:52.767853 19691 net.cpp:144] Setting up relu1
I0503 09:00:52.767858 19691 net.cpp:151] Top shape: 20 64 10 10 (128000)
I0503 09:00:52.767863 19691 net.cpp:159] Memory required for data: 1032080
I0503 09:00:52.767865 19691 layer_factory.hpp:77] Creating layer conv2
I0503 09:00:52.767874 19691 net.cpp:94] Creating Layer conv2
I0503 09:00:52.767876 19691 net.cpp:435] conv2 <- conv1
I0503 09:00:52.767881 19691 net.cpp:409] conv2 -> conv2
I0503 09:00:52.773066 19691 net.cpp:144] Setting up conv2
I0503 09:00:52.773080 19691 net.cpp:151] Top shape: 20 64 10 10 (128000)
I0503 09:00:52.773084 19691 net.cpp:159] Memory required for data: 1544080
I0503 09:00:52.773092 19691 layer_factory.hpp:77] Creating layer relu2
I0503 09:00:52.773099 19691 net.cpp:94] Creating Layer relu2
I0503 09:00:52.773103 19691 net.cpp:435] relu2 <- conv2
I0503 09:00:52.773108 19691 net.cpp:396] relu2 -> conv2 (in-place)
I0503 09:00:52.773115 19691 net.cpp:144] Setting up relu2
I0503 09:00:52.773120 19691 net.cpp:151] Top shape: 20 64 10 10 (128000)
I0503 09:00:52.773123 19691 net.cpp:159] Memory required for data: 2056080
I0503 09:00:52.773126 19691 layer_factory.hpp:77] Creating layer pool2
I0503 09:00:52.773134 19691 net.cpp:94] Creating Layer pool2
I0503 09:00:52.773144 19691 net.cpp:435] pool2 <- conv2
I0503 09:00:52.773149 19691 net.cpp:409] pool2 -> pool2
I0503 09:00:52.773193 19691 net.cpp:144] Setting up pool2
I0503 09:00:52.773201 19691 net.cpp:151] Top shape: 20 64 5 5 (32000)
I0503 09:00:52.773205 19691 net.cpp:159] Memory required for data: 2184080
I0503 09:00:52.773208 19691 layer_factory.hpp:77] Creating layer conv3
I0503 09:00:52.773216 19691 net.cpp:94] Creating Layer conv3
I0503 09:00:52.773219 19691 net.cpp:435] conv3 <- pool2
I0503 09:00:52.773224 19691 net.cpp:409] conv3 -> conv3
I0503 09:00:52.781476 19691 net.cpp:144] Setting up conv3
I0503 09:00:52.781491 19691 net.cpp:151] Top shape: 20 128 5 5 (64000)
I0503 09:00:52.781494 19691 net.cpp:159] Memory required for data: 2440080
I0503 09:00:52.781503 19691 layer_factory.hpp:77] Creating layer relu3
I0503 09:00:52.781509 19691 net.cpp:94] Creating Layer relu3
I0503 09:00:52.781513 19691 net.cpp:435] relu3 <- conv3
I0503 09:00:52.781518 19691 net.cpp:396] relu3 -> conv3 (in-place)
I0503 09:00:52.781525 19691 net.cpp:144] Setting up relu3
I0503 09:00:52.781530 19691 net.cpp:151] Top shape: 20 128 5 5 (64000)
I0503 09:00:52.781533 19691 net.cpp:159] Memory required for data: 2696080
I0503 09:00:52.781536 19691 layer_factory.hpp:77] Creating layer conv4
I0503 09:00:52.781545 19691 net.cpp:94] Creating Layer conv4
I0503 09:00:52.781548 19691 net.cpp:435] conv4 <- conv3
I0503 09:00:52.781553 19691 net.cpp:409] conv4 -> conv4
I0503 09:00:52.796602 19691 net.cpp:144] Setting up conv4
I0503 09:00:52.796615 19691 net.cpp:151] Top shape: 20 128 5 5 (64000)
I0503 09:00:52.796619 19691 net.cpp:159] Memory required for data: 2952080
I0503 09:00:52.796627 19691 layer_factory.hpp:77] Creating layer relu4
I0503 09:00:52.796633 19691 net.cpp:94] Creating Layer relu4
I0503 09:00:52.796636 19691 net.cpp:435] relu4 <- conv4
I0503 09:00:52.796641 19691 net.cpp:396] relu4 -> conv4 (in-place)
I0503 09:00:52.796648 19691 net.cpp:144] Setting up relu4
I0503 09:00:52.796653 19691 net.cpp:151] Top shape: 20 128 5 5 (64000)
I0503 09:00:52.796656 19691 net.cpp:159] Memory required for data: 3208080
I0503 09:00:52.796660 19691 layer_factory.hpp:77] Creating layer conv5
I0503 09:00:52.796669 19691 net.cpp:94] Creating Layer conv5
I0503 09:00:52.796671 19691 net.cpp:435] conv5 <- conv4
I0503 09:00:52.796676 19691 net.cpp:409] conv5 -> conv5
I0503 09:00:52.811465 19691 net.cpp:144] Setting up conv5
I0503 09:00:52.811480 19691 net.cpp:151] Top shape: 20 128 5 5 (64000)
I0503 09:00:52.811483 19691 net.cpp:159] Memory required for data: 3464080
I0503 09:00:52.811492 19691 layer_factory.hpp:77] Creating layer relu5
I0503 09:00:52.811498 19691 net.cpp:94] Creating Layer relu5
I0503 09:00:52.811502 19691 net.cpp:435] relu5 <- conv5
I0503 09:00:52.811507 19691 net.cpp:396] relu5 -> conv5 (in-place)
I0503 09:00:52.811516 19691 net.cpp:144] Setting up relu5
I0503 09:00:52.811520 19691 net.cpp:151] Top shape: 20 128 5 5 (64000)
I0503 09:00:52.811523 19691 net.cpp:159] Memory required for data: 3720080
I0503 09:00:52.811527 19691 layer_factory.hpp:77] Creating layer pool5
I0503 09:00:52.811532 19691 net.cpp:94] Creating Layer pool5
I0503 09:00:52.811535 19691 net.cpp:435] pool5 <- conv5
I0503 09:00:52.811540 19691 net.cpp:409] pool5 -> pool5
I0503 09:00:52.811576 19691 net.cpp:144] Setting up pool5
I0503 09:00:52.811584 19691 net.cpp:151] Top shape: 20 128 2 2 (10240)
I0503 09:00:52.811588 19691 net.cpp:159] Memory required for data: 3761040
I0503 09:00:52.811590 19691 layer_factory.hpp:77] Creating layer ip1
I0503 09:00:52.811600 19691 net.cpp:94] Creating Layer ip1
I0503 09:00:52.811604 19691 net.cpp:435] ip1 <- pool5
I0503 09:00:52.811609 19691 net.cpp:409] ip1 -> ip1
I0503 09:00:52.825695 19691 net.cpp:144] Setting up ip1
I0503 09:00:52.825708 19691 net.cpp:151] Top shape: 20 1024 (20480)
I0503 09:00:52.825712 19691 net.cpp:159] Memory required for data: 3842960
I0503 09:00:52.825719 19691 layer_factory.hpp:77] Creating layer ip2
I0503 09:00:52.825726 19691 net.cpp:94] Creating Layer ip2
I0503 09:00:52.825731 19691 net.cpp:435] ip2 <- ip1
I0503 09:00:52.825740 19691 net.cpp:409] ip2 -> ip2
I0503 09:00:52.839176 19691 net.cpp:144] Setting up ip2
I0503 09:00:52.839190 19691 net.cpp:151] Top shape: 20 512 (10240)
I0503 09:00:52.839195 19691 net.cpp:159] Memory required for data: 3883920
I0503 09:00:52.839200 19691 layer_factory.hpp:77] Creating layer ip3
I0503 09:00:52.839206 19691 net.cpp:94] Creating Layer ip3
I0503 09:00:52.839210 19691 net.cpp:435] ip3 <- ip2
I0503 09:00:52.839216 19691 net.cpp:409] ip3 -> ip3
I0503 09:00:52.839294 19691 net.cpp:144] Setting up ip3
I0503 09:00:52.839300 19691 net.cpp:151] Top shape: 20 1 (20)
I0503 09:00:52.839311 19691 net.cpp:159] Memory required for data: 3884000
I0503 09:00:52.839318 19691 layer_factory.hpp:77] Creating layer loss
I0503 09:00:52.839326 19691 net.cpp:94] Creating Layer loss
I0503 09:00:52.839329 19691 net.cpp:435] loss <- ip3
I0503 09:00:52.839334 19691 net.cpp:435] loss <- label
I0503 09:00:52.839339 19691 net.cpp:409] loss -> loss
I0503 09:00:52.839375 19691 net.cpp:144] Setting up loss
…
