…
I0504 01:00:42.762199 23347 net.cpp:323] The NetState phase (0) differed from the phase (1) specified by a rule in layer intercept
I0504 01:00:42.762215 23347 net.cpp:323] The NetState phase (0) differed from the phase (1) specified by a rule in layer loss
I0504 01:00:42.762295 23347 net.cpp:52] Initializing net from parameters: 
state {
  phase: TRAIN
}
layer {
  name: "parameters"
  type: "HDF5Data"
  top: "data"
  top: "label"
  include {
    phase: TRAIN
  }
  hdf5_data_param {
    source: "/home/purduethu/scratch/radon/d/deng106/CNNStatisticalModel/distributions/input/5_distributions_900_sample_size_train-parameters-path.txt"
    batch_size: 20
  }
}
layer {
  name: "conv1"
  type: "Convolution"
  bottom: "data"
  top: "conv1"
  param {
    lr_mult: 1
  }
  param {
    lr_mult: 2
  }
  convolution_param {
    num_output: 64
    pad: 2
    kernel_size: 5
    stride: 1
    weight_filler {
      type: "gaussian"
      std: 0.0001
    }
    bias_filler {
      type: "constant"
    }
  }
}
layer {
  name: "relu1"
  type: "ReLU"
  bottom: "conv1"
  top: "conv1"
}
layer {
  name: "conv2"
  type: "Convolution"
  bottom: "conv1"
  top: "conv2"
  param {
    lr_mult: 1
  }
  param {
    lr_mult: 2
  }
  convolution_param {
    num_output: 64
    pad: 2
    kernel_size: 5
    stride: 1
    weight_filler {
      type: "gaussian"
      std: 0.01
    }
    bias_filler {
      type: "constant"
    }
  }
}
layer {
  name: "relu2"
  type: "ReLU"
  bottom: "conv2"
  top: "conv2"
}
layer {
  name: "pool2"
  type: "Pooling"
  bottom: "conv2"
  top: "pool2"
  pooling_param {
    pool: MAX
    kernel_size: 3
    stride: 2
  }
}
layer {
  name: "conv3"
  type: "Convolution"
  bottom: "pool2"
  top: "conv3"
  param {
    lr_mult: 1
  }
  param {
    lr_mult: 2
  }
  convolution_param {
    num_output: 128
    pad: 2
    kernel_size: 5
    stride: 1
    weight_filler {
      type: "gaussian"
      std: 0.01
    }
    bias_filler {
      type: "constant"
    }
  }
}
layer {
  name: "relu3"
  type: "ReLU"
  bottom: "conv3"
  top: "conv3"
}
layer {
  name: "conv4"
  type: "Convolution"
  bottom: "conv3"
  top: "conv4"
  param {
    lr_mult: 1
  }
  param {
    lr_mult: 2
  }
  convolution_param {
    num_output: 128
    pad: 2
    kernel_size: 5
    stride: 1
    weight_filler {
      type: "gaussian"
      std: 0.01
    }
    bias_filler {
      type: "constant"
    }
  }
}
layer {
  name: "relu4"
  type: "ReLU"
  bottom: "conv4"
  top: "conv4"
}
layer {
  name: "conv5"
  type: "Convolution"
  bottom: "conv4"
  top: "conv5"
  param {
    lr_mult: 1
  }
  param {
    lr_mult: 2
  }
  convolution_param {
    num_output: 128
    pad: 2
    kernel_size: 5
    stride: 1
    weight_filler {
      type: "gaussian"
      std: 0.01
    }
    bias_filler {
      type: "constant"
    }
  }
}
layer {
  name: "relu5"
  type: "ReLU"
  bottom: "conv5"
  top: "conv5"
}
layer {
  name: "pool5"
  type: "Pooling"
  bottom: "conv5"
  top: "pool5"
  pooling_param {
    pool: AVE
    kernel_size: 3
    stride: 2
  }
}
layer {
  name: "ip1"
  type: "InnerProduct"
  bottom: "pool5"
  top: "ip1"
  param {
    lr_mult: 1
  }
  param {
    lr_mult: 2
  }
  inner_product_param {
    num_output: 1024
    weight_filler {
      type: "gaussian"
      std: 0.1
    }
    bias_filler {
      type: "constant"
    }
  }
}
layer {
  name: "ip2"
  type: "InnerProduct"
  bottom: "ip1"
  top: "ip2"
  param {
    lr_mult: 1
  }
  param {
    lr_mult: 2
  }
  inner_product_param {
    num_output: 512
    weight_filler {
      type: "gaussian"
      std: 0.1
    }
    bias_filler {
      type: "constant"
    }
  }
}
layer {
  name: "ip3"
  type: "InnerProduct"
  bottom: "ip2"
  top: "ip3"
  param {
    lr_mult: 1
  }
  param {
    lr_mult: 2
  }
  inner_product_param {
    num_output: 1
    weight_filler {
      type: "gaussian"
      std: 0.1
    }
    bias_filler {
      type: "constant"
    }
  }
}
layer {
  name: "loss"
  type: "HuberLoss"
  bottom: "ip3"
  bottom: "label"
  top: "loss"
  include {
    phase: TRAIN
  }
}
I0504 01:00:42.762347 23347 layer_factory.hpp:77] Creating layer parameters
I0504 01:00:42.762358 23347 net.cpp:94] Creating Layer parameters
I0504 01:00:42.762362 23347 net.cpp:409] parameters -> data
I0504 01:00:42.762372 23347 net.cpp:409] parameters -> label
I0504 01:00:42.762380 23347 hdf5_data_layer.cpp:79] Loading list of HDF5 filenames from: /home/purduethu/scratch/radon/d/deng106/CNNStatisticalModel/distributions/input/5_distributions_900_sample_size_train-parameters-path.txt
I0504 01:00:42.762394 23347 hdf5_data_layer.cpp:93] Number of HDF5 files: 1
I0504 01:00:42.762926 23347 hdf5.cpp:32] Datatype class: H5T_FLOAT
I0504 01:00:42.902247 23347 net.cpp:144] Setting up parameters
I0504 01:00:42.902276 23347 net.cpp:151] Top shape: 20 1 30 30 (18000)
I0504 01:00:42.902281 23347 net.cpp:151] Top shape: 20 (20)
I0504 01:00:42.902285 23347 net.cpp:159] Memory required for data: 72080
I0504 01:00:42.902292 23347 layer_factory.hpp:77] Creating layer conv1
I0504 01:00:42.902313 23347 net.cpp:94] Creating Layer conv1
I0504 01:00:42.902328 23347 net.cpp:435] conv1 <- data
I0504 01:00:42.902335 23347 net.cpp:409] conv1 -> conv1
I0504 01:00:42.908656 23347 net.cpp:144] Setting up conv1
I0504 01:00:42.908679 23347 net.cpp:151] Top shape: 20 64 30 30 (1152000)
I0504 01:00:42.908682 23347 net.cpp:159] Memory required for data: 4680080
I0504 01:00:42.908694 23347 layer_factory.hpp:77] Creating layer relu1
I0504 01:00:42.908702 23347 net.cpp:94] Creating Layer relu1
I0504 01:00:42.908706 23347 net.cpp:435] relu1 <- conv1
I0504 01:00:42.908711 23347 net.cpp:396] relu1 -> conv1 (in-place)
I0504 01:00:42.908723 23347 net.cpp:144] Setting up relu1
I0504 01:00:42.908728 23347 net.cpp:151] Top shape: 20 64 30 30 (1152000)
I0504 01:00:42.908731 23347 net.cpp:159] Memory required for data: 9288080
I0504 01:00:42.908735 23347 layer_factory.hpp:77] Creating layer conv2
I0504 01:00:42.908742 23347 net.cpp:94] Creating Layer conv2
I0504 01:00:42.908746 23347 net.cpp:435] conv2 <- conv1
I0504 01:00:42.908749 23347 net.cpp:409] conv2 -> conv2
I0504 01:00:42.924129 23347 net.cpp:144] Setting up conv2
I0504 01:00:42.924168 23347 net.cpp:151] Top shape: 20 64 30 30 (1152000)
I0504 01:00:42.924180 23347 net.cpp:159] Memory required for data: 13896080
I0504 01:00:42.924202 23347 layer_factory.hpp:77] Creating layer relu2
I0504 01:00:42.924221 23347 net.cpp:94] Creating Layer relu2
I0504 01:00:42.924230 23347 net.cpp:435] relu2 <- conv2
I0504 01:00:42.924243 23347 net.cpp:396] relu2 -> conv2 (in-place)
I0504 01:00:42.924263 23347 net.cpp:144] Setting up relu2
I0504 01:00:42.924274 23347 net.cpp:151] Top shape: 20 64 30 30 (1152000)
I0504 01:00:42.924283 23347 net.cpp:159] Memory required for data: 18504080
I0504 01:00:42.924291 23347 layer_factory.hpp:77] Creating layer pool2
I0504 01:00:42.924304 23347 net.cpp:94] Creating Layer pool2
I0504 01:00:42.924325 23347 net.cpp:435] pool2 <- conv2
I0504 01:00:42.924340 23347 net.cpp:409] pool2 -> pool2
I0504 01:00:42.924429 23347 net.cpp:144] Setting up pool2
I0504 01:00:42.924437 23347 net.cpp:151] Top shape: 20 64 15 15 (288000)
I0504 01:00:42.924439 23347 net.cpp:159] Memory required for data: 19656080
I0504 01:00:42.924443 23347 layer_factory.hpp:77] Creating layer conv3
I0504 01:00:42.924450 23347 net.cpp:94] Creating Layer conv3
I0504 01:00:42.924454 23347 net.cpp:435] conv3 <- pool2
I0504 01:00:42.924459 23347 net.cpp:409] conv3 -> conv3
I0504 01:00:42.939177 23347 net.cpp:144] Setting up conv3
I0504 01:00:42.939215 23347 net.cpp:151] Top shape: 20 128 15 15 (576000)
I0504 01:00:42.939226 23347 net.cpp:159] Memory required for data: 21960080
I0504 01:00:42.939249 23347 layer_factory.hpp:77] Creating layer relu3
I0504 01:00:42.939265 23347 net.cpp:94] Creating Layer relu3
I0504 01:00:42.939275 23347 net.cpp:435] relu3 <- conv3
I0504 01:00:42.939287 23347 net.cpp:396] relu3 -> conv3 (in-place)
I0504 01:00:42.939306 23347 net.cpp:144] Setting up relu3
I0504 01:00:42.939318 23347 net.cpp:151] Top shape: 20 128 15 15 (576000)
I0504 01:00:42.939327 23347 net.cpp:159] Memory required for data: 24264080
I0504 01:00:42.939335 23347 layer_factory.hpp:77] Creating layer conv4
I0504 01:00:42.939357 23347 net.cpp:94] Creating Layer conv4
I0504 01:00:42.939368 23347 net.cpp:435] conv4 <- conv3
I0504 01:00:42.939380 23347 net.cpp:409] conv4 -> conv4
I0504 01:00:42.965147 23347 net.cpp:144] Setting up conv4
I0504 01:00:42.965167 23347 net.cpp:151] Top shape: 20 128 15 15 (576000)
I0504 01:00:42.965173 23347 net.cpp:159] Memory required for data: 26568080
I0504 01:00:42.965180 23347 layer_factory.hpp:77] Creating layer relu4
I0504 01:00:42.965188 23347 net.cpp:94] Creating Layer relu4
I0504 01:00:42.965191 23347 net.cpp:435] relu4 <- conv4
I0504 01:00:42.965198 23347 net.cpp:396] relu4 -> conv4 (in-place)
I0504 01:00:42.965205 23347 net.cpp:144] Setting up relu4
I0504 01:00:42.965210 23347 net.cpp:151] Top shape: 20 128 15 15 (576000)
I0504 01:00:42.965214 23347 net.cpp:159] Memory required for data: 28872080
I0504 01:00:42.965217 23347 layer_factory.hpp:77] Creating layer conv5
I0504 01:00:42.965226 23347 net.cpp:94] Creating Layer conv5
I0504 01:00:42.965230 23347 net.cpp:435] conv5 <- conv4
I0504 01:00:42.965235 23347 net.cpp:409] conv5 -> conv5
I0504 01:00:42.988343 23347 net.cpp:144] Setting up conv5
I0504 01:00:42.988363 23347 net.cpp:151] Top shape: 20 128 15 15 (576000)
I0504 01:00:42.988368 23347 net.cpp:159] Memory required for data: 31176080
I0504 01:00:42.988379 23347 layer_factory.hpp:77] Creating layer relu5
I0504 01:00:42.988386 23347 net.cpp:94] Creating Layer relu5
I0504 01:00:42.988390 23347 net.cpp:435] relu5 <- conv5
I0504 01:00:42.988395 23347 net.cpp:396] relu5 -> conv5 (in-place)
I0504 01:00:42.988404 23347 net.cpp:144] Setting up relu5
I0504 01:00:42.988409 23347 net.cpp:151] Top shape: 20 128 15 15 (576000)
I0504 01:00:42.988411 23347 net.cpp:159] Memory required for data: 33480080
I0504 01:00:42.988415 23347 layer_factory.hpp:77] Creating layer pool5
I0504 01:00:42.988420 23347 net.cpp:94] Creating Layer pool5
I0504 01:00:42.988423 23347 net.cpp:435] pool5 <- conv5
I0504 01:00:42.988430 23347 net.cpp:409] pool5 -> pool5
I0504 01:00:42.988476 23347 net.cpp:144] Setting up pool5
I0504 01:00:42.988484 23347 net.cpp:151] Top shape: 20 128 7 7 (125440)
I0504 01:00:42.988487 23347 net.cpp:159] Memory required for data: 33981840
I0504 01:00:42.988490 23347 layer_factory.hpp:77] Creating layer ip1
I0504 01:00:42.988502 23347 net.cpp:94] Creating Layer ip1
I0504 01:00:42.988507 23347 net.cpp:435] ip1 <- pool5
I0504 01:00:42.988512 23347 net.cpp:409] ip1 -> ip1
I0504 01:00:43.152411 23347 net.cpp:144] Setting up ip1
I0504 01:00:43.152451 23347 net.cpp:151] Top shape: 20 1024 (20480)
I0504 01:00:43.152454 23347 net.cpp:159] Memory required for data: 34063760
I0504 01:00:43.152463 23347 layer_factory.hpp:77] Creating layer ip2
I0504 01:00:43.152474 23347 net.cpp:94] Creating Layer ip2
I0504 01:00:43.152485 23347 net.cpp:435] ip2 <- ip1
I0504 01:00:43.152494 23347 net.cpp:409] ip2 -> ip2
I0504 01:00:43.165894 23347 net.cpp:144] Setting up ip2
I0504 01:00:43.165915 23347 net.cpp:151] Top shape: 20 512 (10240)
I0504 01:00:43.165918 23347 net.cpp:159] Memory required for data: 34104720
I0504 01:00:43.165925 23347 layer_factory.hpp:77] Creating layer ip3
I0504 01:00:43.165935 23347 net.cpp:94] Creating Layer ip3
I0504 01:00:43.165940 23347 net.cpp:435] ip3 <- ip2
I0504 01:00:43.165946 23347 net.cpp:409] ip3 -> ip3
I0504 01:00:43.166064 23347 net.cpp:144] Setting up ip3
I0504 01:00:43.166071 23347 net.cpp:151] Top shape: 20 1 (20)
I0504 01:00:43.166074 23347 net.cpp:159] Memory required for data: 34104800
I0504 01:00:43.166079 23347 layer_factory.hpp:77] Creating layer loss
I0504 01:00:43.166087 23347 net.cpp:94] Creating Layer loss
I0504 01:00:43.166091 23347 net.cpp:435] loss <- ip3
I0504 01:00:43.166095 23347 net.cpp:435] loss <- label
I0504 01:00:43.166100 23347 net.cpp:409] loss -> loss
I0504 01:00:43.166149 23347 net.cpp:144] Setting up loss
…
I0504 01:00:43.423797 23347 net.cpp:323] The NetState phase (0) differed from the phase (1) specified by a rule in layer intercept
I0504 01:00:43.423812 23347 net.cpp:323] The NetState phase (0) differed from the phase (1) specified by a rule in layer accuracy
I0504 01:00:43.423900 23347 net.cpp:52] Initializing net from parameters: 
state {
  phase: TRAIN
}
layer {
  name: "parameters"
  type: "HDF5Data"
  top: "data"
  top: "label"
  include {
    phase: TRAIN
  }
  hdf5_data_param {
    source: "/home/purduethu/scratch/radon/d/deng106/CNNStatisticalModel/distributions/input/5_distributions_900_sample_size_train-distributions-path.txt"
    batch_size: 20
  }
}
layer {
  name: "conv1"
  type: "Convolution"
  bottom: "data"
  top: "conv1"
  param {
    lr_mult: 1
  }
  param {
    lr_mult: 2
  }
  convolution_param {
    num_output: 64
    pad: 2
    kernel_size: 5
    stride: 1
    weight_filler {
      type: "gaussian"
      std: 0.0001
    }
    bias_filler {
      type: "constant"
    }
  }
}
layer {
  name: "relu1"
  type: "ReLU"
  bottom: "conv1"
  top: "conv1"
}
layer {
  name: "conv2"
  type: "Convolution"
  bottom: "conv1"
  top: "conv2"
  param {
    lr_mult: 1
  }
  param {
    lr_mult: 2
  }
  convolution_param {
    num_output: 64
    pad: 2
    kernel_size: 5
    stride: 1
    weight_filler {
      type: "gaussian"
      std: 0.01
    }
    bias_filler {
      type: "constant"
    }
  }
}
layer {
  name: "relu2"
  type: "ReLU"
  bottom: "conv2"
  top: "conv2"
}
layer {
  name: "pool2"
  type: "Pooling"
  bottom: "conv2"
  top: "pool2"
  pooling_param {
    pool: MAX
    kernel_size: 3
    stride: 2
  }
}
layer {
  name: "conv3"
  type: "Convolution"
  bottom: "pool2"
  top: "conv3"
  param {
    lr_mult: 1
  }
  param {
    lr_mult: 2
  }
  convolution_param {
    num_output: 128
    pad: 2
    kernel_size: 5
    stride: 1
    weight_filler {
      type: "gaussian"
      std: 0.01
    }
    bias_filler {
      type: "constant"
    }
  }
}
layer {
  name: "relu3"
  type: "ReLU"
  bottom: "conv3"
  top: "conv3"
}
layer {
  name: "conv4"
  type: "Convolution"
  bottom: "conv3"
  top: "conv4"
  param {
    lr_mult: 1
  }
  param {
    lr_mult: 2
  }
  convolution_param {
    num_output: 128
    pad: 2
    kernel_size: 5
    stride: 1
    weight_filler {
      type: "gaussian"
      std: 0.01
    }
    bias_filler {
      type: "constant"
    }
  }
}
layer {
  name: "relu4"
  type: "ReLU"
  bottom: "conv4"
  top: "conv4"
}
layer {
  name: "conv5"
  type: "Convolution"
  bottom: "conv4"
  top: "conv5"
  param {
    lr_mult: 1
  }
  param {
    lr_mult: 2
  }
  convolution_param {
    num_output: 128
    pad: 2
    kernel_size: 5
    stride: 1
    weight_filler {
      type: "gaussian"
      std: 0.01
    }
    bias_filler {
      type: "constant"
    }
  }
}
layer {
  name: "relu5"
  type: "ReLU"
  bottom: "conv5"
  top: "conv5"
}
layer {
  name: "pool5"
  type: "Pooling"
  bottom: "conv5"
  top: "pool5"
  pooling_param {
    pool: AVE
    kernel_size: 3
    stride: 2
  }
}
layer {
  name: "ip1"
  type: "InnerProduct"
  bottom: "pool5"
  top: "ip1"
  param {
    lr_mult: 1
  }
  param {
    lr_mult: 2
  }
  inner_product_param {
    num_output: 1024
    weight_filler {
      type: "gaussian"
      std: 0.1
    }
    bias_filler {
      type: "constant"
    }
  }
}
layer {
  name: "ip2"
  type: "InnerProduct"
  bottom: "ip1"
  top: "ip2"
  param {
    lr_mult: 1
  }
  param {
    lr_mult: 2
  }
  inner_product_param {
    num_output: 512
    weight_filler {
      type: "gaussian"
      std: 0.1
    }
    bias_filler {
      type: "constant"
    }
  }
}
layer {
  name: "ip3"
  type: "InnerProduct"
  bottom: "ip2"
  top: "ip3"
  param {
    lr_mult: 1
  }
  param {
    lr_mult: 2
  }
  inner_product_param {
    num_output: 50
    weight_filler {
      type: "gaussian"
      std: 0.1
    }
    bias_filler {
      type: "constant"
    }
  }
}
layer {
  name: "loss"
  type: "SoftmaxWithLoss"
  bottom: "ip3"
  bottom: "label"
  top: "loss"
}
I0504 01:00:43.423951 23347 layer_factory.hpp:77] Creating layer parameters
I0504 01:00:43.423959 23347 net.cpp:94] Creating Layer parameters
I0504 01:00:43.423964 23347 net.cpp:409] parameters -> data
I0504 01:00:43.423969 23347 net.cpp:409] parameters -> label
I0504 01:00:43.423975 23347 hdf5_data_layer.cpp:79] Loading list of HDF5 filenames from: /home/purduethu/scratch/radon/d/deng106/CNNStatisticalModel/distributions/input/5_distributions_900_sample_size_train-distributions-path.txt
I0504 01:00:43.423991 23347 hdf5_data_layer.cpp:93] Number of HDF5 files: 1
I0504 01:00:43.560292 23347 hdf5.cpp:35] Datatype class: H5T_INTEGER
I0504 01:00:43.560750 23347 net.cpp:144] Setting up parameters
I0504 01:00:43.560765 23347 net.cpp:151] Top shape: 20 1 30 30 (18000)
I0504 01:00:43.560770 23347 net.cpp:151] Top shape: 20 (20)
I0504 01:00:43.560772 23347 net.cpp:159] Memory required for data: 72080
I0504 01:00:43.560778 23347 layer_factory.hpp:77] Creating layer conv1
I0504 01:00:43.560794 23347 net.cpp:94] Creating Layer conv1
I0504 01:00:43.560798 23347 net.cpp:435] conv1 <- data
I0504 01:00:43.560806 23347 net.cpp:409] conv1 -> conv1
I0504 01:00:43.564309 23347 net.cpp:144] Setting up conv1
I0504 01:00:43.564323 23347 net.cpp:151] Top shape: 20 64 30 30 (1152000)
I0504 01:00:43.564327 23347 net.cpp:159] Memory required for data: 4680080
I0504 01:00:43.564337 23347 layer_factory.hpp:77] Creating layer relu1
I0504 01:00:43.564344 23347 net.cpp:94] Creating Layer relu1
I0504 01:00:43.564347 23347 net.cpp:435] relu1 <- conv1
I0504 01:00:43.564352 23347 net.cpp:396] relu1 -> conv1 (in-place)
I0504 01:00:43.564359 23347 net.cpp:144] Setting up relu1
I0504 01:00:43.564363 23347 net.cpp:151] Top shape: 20 64 30 30 (1152000)
I0504 01:00:43.564366 23347 net.cpp:159] Memory required for data: 9288080
I0504 01:00:43.564368 23347 layer_factory.hpp:77] Creating layer conv2
I0504 01:00:43.564376 23347 net.cpp:94] Creating Layer conv2
I0504 01:00:43.564379 23347 net.cpp:435] conv2 <- conv1
I0504 01:00:43.564384 23347 net.cpp:409] conv2 -> conv2
I0504 01:00:43.580004 23347 net.cpp:144] Setting up conv2
I0504 01:00:43.580024 23347 net.cpp:151] Top shape: 20 64 30 30 (1152000)
I0504 01:00:43.580027 23347 net.cpp:159] Memory required for data: 13896080
I0504 01:00:43.580036 23347 layer_factory.hpp:77] Creating layer relu2
I0504 01:00:43.580044 23347 net.cpp:94] Creating Layer relu2
I0504 01:00:43.580046 23347 net.cpp:435] relu2 <- conv2
I0504 01:00:43.580051 23347 net.cpp:396] relu2 -> conv2 (in-place)
I0504 01:00:43.580059 23347 net.cpp:144] Setting up relu2
I0504 01:00:43.580063 23347 net.cpp:151] Top shape: 20 64 30 30 (1152000)
I0504 01:00:43.580066 23347 net.cpp:159] Memory required for data: 18504080
I0504 01:00:43.580068 23347 layer_factory.hpp:77] Creating layer pool2
I0504 01:00:43.580075 23347 net.cpp:94] Creating Layer pool2
I0504 01:00:43.580077 23347 net.cpp:435] pool2 <- conv2
I0504 01:00:43.580081 23347 net.cpp:409] pool2 -> pool2
I0504 01:00:43.580134 23347 net.cpp:144] Setting up pool2
I0504 01:00:43.580142 23347 net.cpp:151] Top shape: 20 64 15 15 (288000)
I0504 01:00:43.580145 23347 net.cpp:159] Memory required for data: 19656080
I0504 01:00:43.580148 23347 layer_factory.hpp:77] Creating layer conv3
I0504 01:00:43.580155 23347 net.cpp:94] Creating Layer conv3
I0504 01:00:43.580159 23347 net.cpp:435] conv3 <- pool2
I0504 01:00:43.580171 23347 net.cpp:409] conv3 -> conv3
I0504 01:00:43.593572 23347 net.cpp:144] Setting up conv3
I0504 01:00:43.593588 23347 net.cpp:151] Top shape: 20 128 15 15 (576000)
I0504 01:00:43.593592 23347 net.cpp:159] Memory required for data: 21960080
I0504 01:00:43.593601 23347 layer_factory.hpp:77] Creating layer relu3
I0504 01:00:43.593607 23347 net.cpp:94] Creating Layer relu3
I0504 01:00:43.593611 23347 net.cpp:435] relu3 <- conv3
I0504 01:00:43.593616 23347 net.cpp:396] relu3 -> conv3 (in-place)
I0504 01:00:43.593622 23347 net.cpp:144] Setting up relu3
I0504 01:00:43.593626 23347 net.cpp:151] Top shape: 20 128 15 15 (576000)
I0504 01:00:43.593629 23347 net.cpp:159] Memory required for data: 24264080
I0504 01:00:43.593631 23347 layer_factory.hpp:77] Creating layer conv4
I0504 01:00:43.593641 23347 net.cpp:94] Creating Layer conv4
I0504 01:00:43.593643 23347 net.cpp:435] conv4 <- conv3
I0504 01:00:43.593648 23347 net.cpp:409] conv4 -> conv4
I0504 01:00:43.618281 23347 net.cpp:144] Setting up conv4
I0504 01:00:43.618300 23347 net.cpp:151] Top shape: 20 128 15 15 (576000)
I0504 01:00:43.618304 23347 net.cpp:159] Memory required for data: 26568080
I0504 01:00:43.618311 23347 layer_factory.hpp:77] Creating layer relu4
I0504 01:00:43.618319 23347 net.cpp:94] Creating Layer relu4
I0504 01:00:43.618322 23347 net.cpp:435] relu4 <- conv4
I0504 01:00:43.618327 23347 net.cpp:396] relu4 -> conv4 (in-place)
I0504 01:00:43.618335 23347 net.cpp:144] Setting up relu4
I0504 01:00:43.618338 23347 net.cpp:151] Top shape: 20 128 15 15 (576000)
I0504 01:00:43.618341 23347 net.cpp:159] Memory required for data: 28872080
I0504 01:00:43.618345 23347 layer_factory.hpp:77] Creating layer conv5
I0504 01:00:43.618352 23347 net.cpp:94] Creating Layer conv5
I0504 01:00:43.618355 23347 net.cpp:435] conv5 <- conv4
I0504 01:00:43.618360 23347 net.cpp:409] conv5 -> conv5
I0504 01:00:43.640486 23347 net.cpp:144] Setting up conv5
I0504 01:00:43.640504 23347 net.cpp:151] Top shape: 20 128 15 15 (576000)
I0504 01:00:43.640508 23347 net.cpp:159] Memory required for data: 31176080
I0504 01:00:43.640517 23347 layer_factory.hpp:77] Creating layer relu5
I0504 01:00:43.640523 23347 net.cpp:94] Creating Layer relu5
I0504 01:00:43.640527 23347 net.cpp:435] relu5 <- conv5
I0504 01:00:43.640532 23347 net.cpp:396] relu5 -> conv5 (in-place)
I0504 01:00:43.640538 23347 net.cpp:144] Setting up relu5
I0504 01:00:43.640542 23347 net.cpp:151] Top shape: 20 128 15 15 (576000)
I0504 01:00:43.640545 23347 net.cpp:159] Memory required for data: 33480080
I0504 01:00:43.640548 23347 layer_factory.hpp:77] Creating layer pool5
I0504 01:00:43.640563 23347 net.cpp:94] Creating Layer pool5
I0504 01:00:43.640566 23347 net.cpp:435] pool5 <- conv5
I0504 01:00:43.640573 23347 net.cpp:409] pool5 -> pool5
I0504 01:00:43.640615 23347 net.cpp:144] Setting up pool5
I0504 01:00:43.640624 23347 net.cpp:151] Top shape: 20 128 7 7 (125440)
I0504 01:00:43.640625 23347 net.cpp:159] Memory required for data: 33981840
I0504 01:00:43.640628 23347 layer_factory.hpp:77] Creating layer ip1
I0504 01:00:43.640636 23347 net.cpp:94] Creating Layer ip1
I0504 01:00:43.640640 23347 net.cpp:435] ip1 <- pool5
I0504 01:00:43.640645 23347 net.cpp:409] ip1 -> ip1
I0504 01:00:43.796917 23347 net.cpp:144] Setting up ip1
I0504 01:00:43.796952 23347 net.cpp:151] Top shape: 20 1024 (20480)
I0504 01:00:43.796955 23347 net.cpp:159] Memory required for data: 34063760
I0504 01:00:43.796963 23347 layer_factory.hpp:77] Creating layer ip2
I0504 01:00:43.796973 23347 net.cpp:94] Creating Layer ip2
I0504 01:00:43.796978 23347 net.cpp:435] ip2 <- ip1
I0504 01:00:43.796988 23347 net.cpp:409] ip2 -> ip2
I0504 01:00:43.810302 23347 net.cpp:144] Setting up ip2
I0504 01:00:43.810320 23347 net.cpp:151] Top shape: 20 512 (10240)
I0504 01:00:43.810324 23347 net.cpp:159] Memory required for data: 34104720
I0504 01:00:43.810330 23347 layer_factory.hpp:77] Creating layer ip3
I0504 01:00:43.810340 23347 net.cpp:94] Creating Layer ip3
I0504 01:00:43.810344 23347 net.cpp:435] ip3 <- ip2
I0504 01:00:43.810350 23347 net.cpp:409] ip3 -> ip3
I0504 01:00:43.811131 23347 net.cpp:144] Setting up ip3
I0504 01:00:43.811138 23347 net.cpp:151] Top shape: 20 50 (1000)
I0504 01:00:43.811141 23347 net.cpp:159] Memory required for data: 34108720
I0504 01:00:43.811146 23347 layer_factory.hpp:77] Creating layer loss
I0504 01:00:43.811153 23347 net.cpp:94] Creating Layer loss
I0504 01:00:43.811156 23347 net.cpp:435] loss <- ip3
I0504 01:00:43.811161 23347 net.cpp:435] loss <- label
I0504 01:00:43.811166 23347 net.cpp:409] loss -> loss
I0504 01:00:43.811172 23347 layer_factory.hpp:77] Creating layer loss
…
I0504 01:00:43.811692 23347 solver.cpp:181] Creating test net (#0) specified by net file: ./protocol/dis_5_900_dimension.protocol_distribution
I0504 01:00:43.811718 23347 net.cpp:323] The NetState phase (1) differed from the phase (0) specified by a rule in layer parameters
I0504 01:00:43.811813 23347 net.cpp:52] Initializing net from parameters: 
state {
  phase: TEST
}
layer {
  name: "intercept"
  type: "HDF5Data"
  top: "data"
  top: "label"
  include {
    phase: TEST
  }
  hdf5_data_param {
    source: "/home/purduethu/scratch/radon/d/deng106/CNNStatisticalModel/distributions/input/5_distributions_900_sample_size_test-distributions-path.txt"
    batch_size: 20
  }
}
layer {
  name: "conv1"
  type: "Convolution"
  bottom: "data"
  top: "conv1"
  param {
    lr_mult: 1
  }
  param {
    lr_mult: 2
  }
  convolution_param {
    num_output: 64
    pad: 2
    kernel_size: 5
    stride: 1
    weight_filler {
      type: "gaussian"
      std: 0.0001
    }
    bias_filler {
      type: "constant"
    }
  }
}
layer {
  name: "relu1"
  type: "ReLU"
  bottom: "conv1"
  top: "conv1"
}
layer {
  name: "conv2"
  type: "Convolution"
  bottom: "conv1"
  top: "conv2"
  param {
    lr_mult: 1
  }
  param {
    lr_mult: 2
  }
  convolution_param {
    num_output: 64
    pad: 2
    kernel_size: 5
    stride: 1
    weight_filler {
      type: "gaussian"
      std: 0.01
    }
    bias_filler {
      type: "constant"
    }
  }
}
layer {
  name: "relu2"
  type: "ReLU"
  bottom: "conv2"
  top: "conv2"
}
layer {
  name: "pool2"
  type: "Pooling"
  bottom: "conv2"
  top: "pool2"
  pooling_param {
    pool: MAX
    kernel_size: 3
    stride: 2
  }
}
layer {
  name: "conv3"
  type: "Convolution"
  bottom: "pool2"
  top: "conv3"
  param {
    lr_mult: 1
  }
  param {
    lr_mult: 2
  }
  convolution_param {
    num_output: 128
    pad: 2
    kernel_size: 5
    stride: 1
    weight_filler {
      type: "gaussian"
      std: 0.01
    }
    bias_filler {
      type: "constant"
    }
  }
}
layer {
  name: "relu3"
  type: "ReLU"
  bottom: "conv3"
  top: "conv3"
}
layer {
  name: "conv4"
  type: "Convolution"
  bottom: "conv3"
  top: "conv4"
  param {
    lr_mult: 1
  }
  param {
    lr_mult: 2
  }
  convolution_param {
    num_output: 128
    pad: 2
    kernel_size: 5
    stride: 1
    weight_filler {
      type: "gaussian"
      std: 0.01
    }
    bias_filler {
      type: "constant"
    }
  }
}
layer {
  name: "relu4"
  type: "ReLU"
  bottom: "conv4"
  top: "conv4"
}
layer {
  name: "conv5"
  type: "Convolution"
  bottom: "conv4"
  top: "conv5"
  param {
    lr_mult: 1
  }
  param {
    lr_mult: 2
  }
  convolution_param {
    num_output: 128
    pad: 2
    kernel_size: 5
    stride: 1
    weight_filler {
      type: "gaussian"
      std: 0.01
    }
    bias_filler {
      type: "constant"
    }
  }
}
layer {
  name: "relu5"
  type: "ReLU"
  bottom: "conv5"
  top: "conv5"
}
layer {
  name: "pool5"
  type: "Pooling"
  bottom: "conv5"
  top: "pool5"
  pooling_param {
    pool: AVE
    kernel_size: 3
    stride: 2
  }
}
layer {
  name: "ip1"
  type: "InnerProduct"
  bottom: "pool5"
  top: "ip1"
  param {
    lr_mult: 1
  }
  param {
    lr_mult: 2
  }
  inner_product_param {
    num_output: 1024
    weight_filler {
      type: "gaussian"
      std: 0.1
    }
    bias_filler {
      type: "constant"
    }
  }
}
layer {
  name: "ip2"
  type: "InnerProduct"
  bottom: "ip1"
  top: "ip2"
  param {
    lr_mult: 1
  }
  param {
    lr_mult: 2
  }
  inner_product_param {
    num_output: 512
    weight_filler {
      type: "gaussian"
      std: 0.1
    }
    bias_filler {
      type: "constant"
    }
  }
}
layer {
  name: "ip3"
  type: "InnerProduct"
  bottom: "ip2"
  top: "ip3"
  param {
    lr_mult: 1
  }
  param {
    lr_mult: 2
  }
  inner_product_param {
    num_output: 50
    weight_filler {
      type: "gaussian"
      std: 0.1
    }
    bias_filler {
      type: "constant"
    }
  }
}
layer {
  name: "accuracy"
  type: "Accuracy"
  bottom: "ip3"
  bottom: "label"
  top: "accuracy"
  include {
    phase: TEST
  }
}
layer {
  name: "loss"
  type: "SoftmaxWithLoss"
  bottom: "ip3"
  bottom: "label"
  top: "loss"
}
I0504 01:00:43.811880 23347 layer_factory.hpp:77] Creating layer intercept
I0504 01:00:43.811889 23347 net.cpp:94] Creating Layer intercept
I0504 01:00:43.811893 23347 net.cpp:409] intercept -> data
I0504 01:00:43.811899 23347 net.cpp:409] intercept -> label
I0504 01:00:43.811904 23347 hdf5_data_layer.cpp:79] Loading list of HDF5 filenames from: /home/purduethu/scratch/radon/d/deng106/CNNStatisticalModel/distributions/input/5_distributions_900_sample_size_test-distributions-path.txt
I0504 01:00:43.811924 23347 hdf5_data_layer.cpp:93] Number of HDF5 files: 1
I0504 01:00:43.846861 23347 net.cpp:144] Setting up intercept
I0504 01:00:43.846892 23347 net.cpp:151] Top shape: 20 1 30 30 (18000)
I0504 01:00:43.846897 23347 net.cpp:151] Top shape: 20 (20)
I0504 01:00:43.846900 23347 net.cpp:159] Memory required for data: 72080
I0504 01:00:43.846906 23347 layer_factory.hpp:77] Creating layer label_intercept_1_split
I0504 01:00:43.846925 23347 net.cpp:94] Creating Layer label_intercept_1_split
I0504 01:00:43.846928 23347 net.cpp:435] label_intercept_1_split <- label
I0504 01:00:43.846935 23347 net.cpp:409] label_intercept_1_split -> label_intercept_1_split_0
I0504 01:00:43.846943 23347 net.cpp:409] label_intercept_1_split -> label_intercept_1_split_1
I0504 01:00:43.846983 23347 net.cpp:144] Setting up label_intercept_1_split
I0504 01:00:43.846989 23347 net.cpp:151] Top shape: 20 (20)
I0504 01:00:43.846993 23347 net.cpp:151] Top shape: 20 (20)
I0504 01:00:43.846997 23347 net.cpp:159] Memory required for data: 72240
I0504 01:00:43.846998 23347 layer_factory.hpp:77] Creating layer conv1
I0504 01:00:43.847010 23347 net.cpp:94] Creating Layer conv1
I0504 01:00:43.847013 23347 net.cpp:435] conv1 <- data
I0504 01:00:43.847018 23347 net.cpp:409] conv1 -> conv1
I0504 01:00:43.848490 23347 net.cpp:144] Setting up conv1
I0504 01:00:43.848507 23347 net.cpp:151] Top shape: 20 64 30 30 (1152000)
I0504 01:00:43.848511 23347 net.cpp:159] Memory required for data: 4680240
I0504 01:00:43.848521 23347 layer_factory.hpp:77] Creating layer relu1
I0504 01:00:43.848529 23347 net.cpp:94] Creating Layer relu1
I0504 01:00:43.848533 23347 net.cpp:435] relu1 <- conv1
I0504 01:00:43.848537 23347 net.cpp:396] relu1 -> conv1 (in-place)
I0504 01:00:43.848546 23347 net.cpp:144] Setting up relu1
I0504 01:00:43.848549 23347 net.cpp:151] Top shape: 20 64 30 30 (1152000)
I0504 01:00:43.848570 23347 net.cpp:159] Memory required for data: 9288240
I0504 01:00:43.848574 23347 layer_factory.hpp:77] Creating layer conv2
I0504 01:00:43.848582 23347 net.cpp:94] Creating Layer conv2
I0504 01:00:43.848587 23347 net.cpp:435] conv2 <- conv1
I0504 01:00:43.848592 23347 net.cpp:409] conv2 -> conv2
I0504 01:00:43.855281 23347 net.cpp:144] Setting up conv2
I0504 01:00:43.855298 23347 net.cpp:151] Top shape: 20 64 30 30 (1152000)
I0504 01:00:43.855300 23347 net.cpp:159] Memory required for data: 13896240
I0504 01:00:43.855309 23347 layer_factory.hpp:77] Creating layer relu2
I0504 01:00:43.855315 23347 net.cpp:94] Creating Layer relu2
I0504 01:00:43.855319 23347 net.cpp:435] relu2 <- conv2
I0504 01:00:43.855324 23347 net.cpp:396] relu2 -> conv2 (in-place)
I0504 01:00:43.855330 23347 net.cpp:144] Setting up relu2
I0504 01:00:43.855334 23347 net.cpp:151] Top shape: 20 64 30 30 (1152000)
I0504 01:00:43.855337 23347 net.cpp:159] Memory required for data: 18504240
I0504 01:00:43.855340 23347 layer_factory.hpp:77] Creating layer pool2
I0504 01:00:43.855346 23347 net.cpp:94] Creating Layer pool2
I0504 01:00:43.855348 23347 net.cpp:435] pool2 <- conv2
I0504 01:00:43.855353 23347 net.cpp:409] pool2 -> pool2
I0504 01:00:43.855407 23347 net.cpp:144] Setting up pool2
I0504 01:00:43.855414 23347 net.cpp:151] Top shape: 20 64 15 15 (288000)
I0504 01:00:43.855417 23347 net.cpp:159] Memory required for data: 19656240
I0504 01:00:43.855420 23347 layer_factory.hpp:77] Creating layer conv3
I0504 01:00:43.855427 23347 net.cpp:94] Creating Layer conv3
I0504 01:00:43.855430 23347 net.cpp:435] conv3 <- pool2
I0504 01:00:43.855435 23347 net.cpp:409] conv3 -> conv3
I0504 01:00:43.863000 23347 net.cpp:144] Setting up conv3
I0504 01:00:43.863016 23347 net.cpp:151] Top shape: 20 128 15 15 (576000)
I0504 01:00:43.863020 23347 net.cpp:159] Memory required for data: 21960240
I0504 01:00:43.863029 23347 layer_factory.hpp:77] Creating layer relu3
I0504 01:00:43.863035 23347 net.cpp:94] Creating Layer relu3
I0504 01:00:43.863039 23347 net.cpp:435] relu3 <- conv3
I0504 01:00:43.863044 23347 net.cpp:396] relu3 -> conv3 (in-place)
I0504 01:00:43.863050 23347 net.cpp:144] Setting up relu3
I0504 01:00:43.863054 23347 net.cpp:151] Top shape: 20 128 15 15 (576000)
I0504 01:00:43.863057 23347 net.cpp:159] Memory required for data: 24264240
I0504 01:00:43.863060 23347 layer_factory.hpp:77] Creating layer conv4
I0504 01:00:43.863067 23347 net.cpp:94] Creating Layer conv4
I0504 01:00:43.863070 23347 net.cpp:435] conv4 <- conv3
I0504 01:00:43.863075 23347 net.cpp:409] conv4 -> conv4
I0504 01:00:43.878577 23347 net.cpp:144] Setting up conv4
I0504 01:00:43.878594 23347 net.cpp:151] Top shape: 20 128 15 15 (576000)
I0504 01:00:43.878598 23347 net.cpp:159] Memory required for data: 26568240
I0504 01:00:43.878605 23347 layer_factory.hpp:77] Creating layer relu4
I0504 01:00:43.878612 23347 net.cpp:94] Creating Layer relu4
I0504 01:00:43.878615 23347 net.cpp:435] relu4 <- conv4
I0504 01:00:43.878619 23347 net.cpp:396] relu4 -> conv4 (in-place)
I0504 01:00:43.878626 23347 net.cpp:144] Setting up relu4
I0504 01:00:43.878630 23347 net.cpp:151] Top shape: 20 128 15 15 (576000)
I0504 01:00:43.878633 23347 net.cpp:159] Memory required for data: 28872240
I0504 01:00:43.878636 23347 layer_factory.hpp:77] Creating layer conv5
I0504 01:00:43.878644 23347 net.cpp:94] Creating Layer conv5
I0504 01:00:43.878648 23347 net.cpp:435] conv5 <- conv4
I0504 01:00:43.878653 23347 net.cpp:409] conv5 -> conv5
I0504 01:00:43.893774 23347 net.cpp:144] Setting up conv5
I0504 01:00:43.893791 23347 net.cpp:151] Top shape: 20 128 15 15 (576000)
I0504 01:00:43.893795 23347 net.cpp:159] Memory required for data: 31176240
I0504 01:00:43.893805 23347 layer_factory.hpp:77] Creating layer relu5
I0504 01:00:43.893811 23347 net.cpp:94] Creating Layer relu5
I0504 01:00:43.893815 23347 net.cpp:435] relu5 <- conv5
I0504 01:00:43.893820 23347 net.cpp:396] relu5 -> conv5 (in-place)
I0504 01:00:43.893826 23347 net.cpp:144] Setting up relu5
I0504 01:00:43.893831 23347 net.cpp:151] Top shape: 20 128 15 15 (576000)
I0504 01:00:43.893833 23347 net.cpp:159] Memory required for data: 33480240
I0504 01:00:43.893836 23347 layer_factory.hpp:77] Creating layer pool5
I0504 01:00:43.893841 23347 net.cpp:94] Creating Layer pool5
I0504 01:00:43.893844 23347 net.cpp:435] pool5 <- conv5
I0504 01:00:43.893848 23347 net.cpp:409] pool5 -> pool5
I0504 01:00:43.893887 23347 net.cpp:144] Setting up pool5
I0504 01:00:43.893894 23347 net.cpp:151] Top shape: 20 128 7 7 (125440)
I0504 01:00:43.893898 23347 net.cpp:159] Memory required for data: 33982000
I0504 01:00:43.893900 23347 layer_factory.hpp:77] Creating layer ip1
I0504 01:00:43.893906 23347 net.cpp:94] Creating Layer ip1
I0504 01:00:43.893910 23347 net.cpp:435] ip1 <- pool5
I0504 01:00:43.893914 23347 net.cpp:409] ip1 -> ip1
I0504 01:00:44.052654 23347 net.cpp:144] Setting up ip1
I0504 01:00:44.052690 23347 net.cpp:151] Top shape: 20 1024 (20480)
I0504 01:00:44.052695 23347 net.cpp:159] Memory required for data: 34063920
I0504 01:00:44.052705 23347 layer_factory.hpp:77] Creating layer ip2
I0504 01:00:44.052716 23347 net.cpp:94] Creating Layer ip2
I0504 01:00:44.052721 23347 net.cpp:435] ip2 <- ip1
I0504 01:00:44.052726 23347 net.cpp:409] ip2 -> ip2
I0504 01:00:44.066066 23347 net.cpp:144] Setting up ip2
I0504 01:00:44.066087 23347 net.cpp:151] Top shape: 20 512 (10240)
I0504 01:00:44.066090 23347 net.cpp:159] Memory required for data: 34104880
I0504 01:00:44.066097 23347 layer_factory.hpp:77] Creating layer ip3
I0504 01:00:44.066107 23347 net.cpp:94] Creating Layer ip3
I0504 01:00:44.066112 23347 net.cpp:435] ip3 <- ip2
I0504 01:00:44.066118 23347 net.cpp:409] ip3 -> ip3
I0504 01:00:44.066874 23347 net.cpp:144] Setting up ip3
I0504 01:00:44.066881 23347 net.cpp:151] Top shape: 20 50 (1000)
I0504 01:00:44.066884 23347 net.cpp:159] Memory required for data: 34108880
I0504 01:00:44.066890 23347 layer_factory.hpp:77] Creating layer ip3_ip3_0_split
I0504 01:00:44.066895 23347 net.cpp:94] Creating Layer ip3_ip3_0_split
I0504 01:00:44.066898 23347 net.cpp:435] ip3_ip3_0_split <- ip3
I0504 01:00:44.066903 23347 net.cpp:409] ip3_ip3_0_split -> ip3_ip3_0_split_0
I0504 01:00:44.066908 23347 net.cpp:409] ip3_ip3_0_split -> ip3_ip3_0_split_1
I0504 01:00:44.066951 23347 net.cpp:144] Setting up ip3_ip3_0_split
I0504 01:00:44.066956 23347 net.cpp:151] Top shape: 20 50 (1000)
I0504 01:00:44.066961 23347 net.cpp:151] Top shape: 20 50 (1000)
I0504 01:00:44.066963 23347 net.cpp:159] Memory required for data: 34116880
I0504 01:00:44.066967 23347 layer_factory.hpp:77] Creating layer accuracy
I0504 01:00:44.066972 23347 net.cpp:94] Creating Layer accuracy
I0504 01:00:44.066975 23347 net.cpp:435] accuracy <- ip3_ip3_0_split_0
I0504 01:00:44.066979 23347 net.cpp:435] accuracy <- label_intercept_1_split_0
I0504 01:00:44.066983 23347 net.cpp:409] accuracy -> accuracy
…
