…
I0503 23:18:07.788230 22978 net.cpp:323] The NetState phase (0) differed from the phase (1) specified by a rule in layer intercept
I0503 23:18:07.788251 22978 net.cpp:323] The NetState phase (0) differed from the phase (1) specified by a rule in layer loss
I0503 23:18:07.788360 22978 net.cpp:52] Initializing net from parameters: 
state {
  phase: TRAIN
}
layer {
  name: "parameters"
  type: "HDF5Data"
  top: "data"
  top: "label"
  include {
    phase: TRAIN
  }
  hdf5_data_param {
    source: "/home/purduethu/scratch/radon/d/deng106/CNNStatisticalModel/distributions/input/20_distributions_400_sample_size_train-parameters-path.txt"
    batch_size: 20
  }
}
layer {
  name: "conv1"
  type: "Convolution"
  bottom: "data"
  top: "conv1"
  param {
    lr_mult: 1
  }
  param {
    lr_mult: 2
  }
  convolution_param {
    num_output: 64
    pad: 2
    kernel_size: 5
    stride: 1
    weight_filler {
      type: "gaussian"
      std: 0.0001
    }
    bias_filler {
      type: "constant"
    }
  }
}
layer {
  name: "relu1"
  type: "ReLU"
  bottom: "conv1"
  top: "conv1"
}
layer {
  name: "conv2"
  type: "Convolution"
  bottom: "conv1"
  top: "conv2"
  param {
    lr_mult: 1
  }
  param {
    lr_mult: 2
  }
  convolution_param {
    num_output: 64
    pad: 2
    kernel_size: 5
    stride: 1
    weight_filler {
      type: "gaussian"
      std: 0.01
    }
    bias_filler {
      type: "constant"
    }
  }
}
layer {
  name: "relu2"
  type: "ReLU"
  bottom: "conv2"
  top: "conv2"
}
layer {
  name: "pool2"
  type: "Pooling"
  bottom: "conv2"
  top: "pool2"
  pooling_param {
    pool: MAX
    kernel_size: 3
    stride: 2
  }
}
layer {
  name: "conv3"
  type: "Convolution"
  bottom: "pool2"
  top: "conv3"
  param {
    lr_mult: 1
  }
  param {
    lr_mult: 2
  }
  convolution_param {
    num_output: 128
    pad: 2
    kernel_size: 5
    stride: 1
    weight_filler {
      type: "gaussian"
      std: 0.01
    }
    bias_filler {
      type: "constant"
    }
  }
}
layer {
  name: "relu3"
  type: "ReLU"
  bottom: "conv3"
  top: "conv3"
}
layer {
  name: "conv4"
  type: "Convolution"
  bottom: "conv3"
  top: "conv4"
  param {
    lr_mult: 1
  }
  param {
    lr_mult: 2
  }
  convolution_param {
    num_output: 128
    pad: 2
    kernel_size: 5
    stride: 1
    weight_filler {
      type: "gaussian"
      std: 0.01
    }
    bias_filler {
      type: "constant"
    }
  }
}
layer {
  name: "relu4"
  type: "ReLU"
  bottom: "conv4"
  top: "conv4"
}
layer {
  name: "conv5"
  type: "Convolution"
  bottom: "conv4"
  top: "conv5"
  param {
    lr_mult: 1
  }
  param {
    lr_mult: 2
  }
  convolution_param {
    num_output: 128
    pad: 2
    kernel_size: 5
    stride: 1
    weight_filler {
      type: "gaussian"
      std: 0.01
    }
    bias_filler {
      type: "constant"
    }
  }
}
layer {
  name: "relu5"
  type: "ReLU"
  bottom: "conv5"
  top: "conv5"
}
layer {
  name: "pool5"
  type: "Pooling"
  bottom: "conv5"
  top: "pool5"
  pooling_param {
    pool: AVE
    kernel_size: 3
    stride: 2
  }
}
layer {
  name: "ip1"
  type: "InnerProduct"
  bottom: "pool5"
  top: "ip1"
  param {
    lr_mult: 1
  }
  param {
    lr_mult: 2
  }
  inner_product_param {
    num_output: 1024
    weight_filler {
      type: "gaussian"
      std: 0.1
    }
    bias_filler {
      type: "constant"
    }
  }
}
layer {
  name: "ip2"
  type: "InnerProduct"
  bottom: "ip1"
  top: "ip2"
  param {
    lr_mult: 1
  }
  param {
    lr_mult: 2
  }
  inner_product_param {
    num_output: 512
    weight_filler {
      type: "gaussian"
      std: 0.1
    }
    bias_filler {
      type: "constant"
    }
  }
}
layer {
  name: "ip3"
  type: "InnerProduct"
  bottom: "ip2"
  top: "ip3"
  param {
    lr_mult: 1
  }
  param {
    lr_mult: 2
  }
  inner_product_param {
    num_output: 1
    weight_filler {
      type: "gaussian"
      std: 0.1
    }
    bias_filler {
      type: "constant"
    }
  }
}
layer {
  name: "loss"
  type: "HuberLoss"
  bottom: "ip3"
  bottom: "label"
  top: "loss"
  include {
    phase: TRAIN
  }
}
I0503 23:18:07.788427 22978 layer_factory.hpp:77] Creating layer parameters
I0503 23:18:07.788442 22978 net.cpp:94] Creating Layer parameters
I0503 23:18:07.788449 22978 net.cpp:409] parameters -> data
I0503 23:18:07.788460 22978 net.cpp:409] parameters -> label
I0503 23:18:07.788472 22978 hdf5_data_layer.cpp:79] Loading list of HDF5 filenames from: /home/purduethu/scratch/radon/d/deng106/CNNStatisticalModel/distributions/input/20_distributions_400_sample_size_train-parameters-path.txt
I0503 23:18:07.788491 22978 hdf5_data_layer.cpp:93] Number of HDF5 files: 1
I0503 23:18:07.789207 22978 hdf5.cpp:32] Datatype class: H5T_FLOAT
I0503 23:18:08.112696 22978 net.cpp:144] Setting up parameters
I0503 23:18:08.112730 22978 net.cpp:151] Top shape: 20 1 20 20 (8000)
I0503 23:18:08.112735 22978 net.cpp:151] Top shape: 20 (20)
I0503 23:18:08.112737 22978 net.cpp:159] Memory required for data: 32080
I0503 23:18:08.112743 22978 layer_factory.hpp:77] Creating layer conv1
I0503 23:18:08.112761 22978 net.cpp:94] Creating Layer conv1
I0503 23:18:08.112764 22978 net.cpp:435] conv1 <- data
I0503 23:18:08.112771 22978 net.cpp:409] conv1 -> conv1
I0503 23:18:08.119529 22978 net.cpp:144] Setting up conv1
I0503 23:18:08.119576 22978 net.cpp:151] Top shape: 20 64 20 20 (512000)
I0503 23:18:08.119587 22978 net.cpp:159] Memory required for data: 2080080
I0503 23:18:08.119613 22978 layer_factory.hpp:77] Creating layer relu1
I0503 23:18:08.119634 22978 net.cpp:94] Creating Layer relu1
I0503 23:18:08.119644 22978 net.cpp:435] relu1 <- conv1
I0503 23:18:08.119657 22978 net.cpp:396] relu1 -> conv1 (in-place)
I0503 23:18:08.119688 22978 net.cpp:144] Setting up relu1
I0503 23:18:08.119701 22978 net.cpp:151] Top shape: 20 64 20 20 (512000)
I0503 23:18:08.119710 22978 net.cpp:159] Memory required for data: 4128080
I0503 23:18:08.119719 22978 layer_factory.hpp:77] Creating layer conv2
I0503 23:18:08.119740 22978 net.cpp:94] Creating Layer conv2
I0503 23:18:08.119750 22978 net.cpp:435] conv2 <- conv1
I0503 23:18:08.119762 22978 net.cpp:409] conv2 -> conv2
I0503 23:18:08.142166 22978 net.cpp:144] Setting up conv2
I0503 23:18:08.142217 22978 net.cpp:151] Top shape: 20 64 20 20 (512000)
I0503 23:18:08.142227 22978 net.cpp:159] Memory required for data: 6176080
I0503 23:18:08.142247 22978 layer_factory.hpp:77] Creating layer relu2
I0503 23:18:08.142264 22978 net.cpp:94] Creating Layer relu2
I0503 23:18:08.142274 22978 net.cpp:435] relu2 <- conv2
I0503 23:18:08.142285 22978 net.cpp:396] relu2 -> conv2 (in-place)
I0503 23:18:08.142303 22978 net.cpp:144] Setting up relu2
I0503 23:18:08.142315 22978 net.cpp:151] Top shape: 20 64 20 20 (512000)
I0503 23:18:08.142323 22978 net.cpp:159] Memory required for data: 8224080
I0503 23:18:08.142330 22978 layer_factory.hpp:77] Creating layer pool2
I0503 23:18:08.142343 22978 net.cpp:94] Creating Layer pool2
I0503 23:18:08.142360 22978 net.cpp:435] pool2 <- conv2
I0503 23:18:08.142374 22978 net.cpp:409] pool2 -> pool2
I0503 23:18:08.142499 22978 net.cpp:144] Setting up pool2
I0503 23:18:08.142518 22978 net.cpp:151] Top shape: 20 64 10 10 (128000)
I0503 23:18:08.142525 22978 net.cpp:159] Memory required for data: 8736080
I0503 23:18:08.142534 22978 layer_factory.hpp:77] Creating layer conv3
I0503 23:18:08.142552 22978 net.cpp:94] Creating Layer conv3
I0503 23:18:08.142561 22978 net.cpp:435] conv3 <- pool2
I0503 23:18:08.142573 22978 net.cpp:409] conv3 -> conv3
I0503 23:18:08.163136 22978 net.cpp:144] Setting up conv3
I0503 23:18:08.163168 22978 net.cpp:151] Top shape: 20 128 10 10 (256000)
I0503 23:18:08.163177 22978 net.cpp:159] Memory required for data: 9760080
I0503 23:18:08.163197 22978 layer_factory.hpp:77] Creating layer relu3
I0503 23:18:08.163210 22978 net.cpp:94] Creating Layer relu3
I0503 23:18:08.163218 22978 net.cpp:435] relu3 <- conv3
I0503 23:18:08.163229 22978 net.cpp:396] relu3 -> conv3 (in-place)
I0503 23:18:08.163246 22978 net.cpp:144] Setting up relu3
I0503 23:18:08.163257 22978 net.cpp:151] Top shape: 20 128 10 10 (256000)
I0503 23:18:08.163264 22978 net.cpp:159] Memory required for data: 10784080
I0503 23:18:08.163271 22978 layer_factory.hpp:77] Creating layer conv4
I0503 23:18:08.163290 22978 net.cpp:94] Creating Layer conv4
I0503 23:18:08.163300 22978 net.cpp:435] conv4 <- conv3
I0503 23:18:08.163311 22978 net.cpp:409] conv4 -> conv4
I0503 23:18:08.201817 22978 net.cpp:144] Setting up conv4
I0503 23:18:08.201848 22978 net.cpp:151] Top shape: 20 128 10 10 (256000)
I0503 23:18:08.201855 22978 net.cpp:159] Memory required for data: 11808080
I0503 23:18:08.201869 22978 layer_factory.hpp:77] Creating layer relu4
I0503 23:18:08.201880 22978 net.cpp:94] Creating Layer relu4
I0503 23:18:08.201889 22978 net.cpp:435] relu4 <- conv4
I0503 23:18:08.201897 22978 net.cpp:396] relu4 -> conv4 (in-place)
I0503 23:18:08.201912 22978 net.cpp:144] Setting up relu4
I0503 23:18:08.201921 22978 net.cpp:151] Top shape: 20 128 10 10 (256000)
I0503 23:18:08.201926 22978 net.cpp:159] Memory required for data: 12832080
I0503 23:18:08.201932 22978 layer_factory.hpp:77] Creating layer conv5
I0503 23:18:08.201948 22978 net.cpp:94] Creating Layer conv5
I0503 23:18:08.201954 22978 net.cpp:435] conv5 <- conv4
I0503 23:18:08.201964 22978 net.cpp:409] conv5 -> conv5
I0503 23:18:08.230128 22978 net.cpp:144] Setting up conv5
I0503 23:18:08.230161 22978 net.cpp:151] Top shape: 20 128 10 10 (256000)
I0503 23:18:08.230172 22978 net.cpp:159] Memory required for data: 13856080
I0503 23:18:08.230195 22978 layer_factory.hpp:77] Creating layer relu5
I0503 23:18:08.230211 22978 net.cpp:94] Creating Layer relu5
I0503 23:18:08.230221 22978 net.cpp:435] relu5 <- conv5
I0503 23:18:08.230232 22978 net.cpp:396] relu5 -> conv5 (in-place)
I0503 23:18:08.230249 22978 net.cpp:144] Setting up relu5
I0503 23:18:08.230262 22978 net.cpp:151] Top shape: 20 128 10 10 (256000)
I0503 23:18:08.230270 22978 net.cpp:159] Memory required for data: 14880080
I0503 23:18:08.230279 22978 layer_factory.hpp:77] Creating layer pool5
I0503 23:18:08.230291 22978 net.cpp:94] Creating Layer pool5
I0503 23:18:08.230300 22978 net.cpp:435] pool5 <- conv5
I0503 23:18:08.230312 22978 net.cpp:409] pool5 -> pool5
I0503 23:18:08.230397 22978 net.cpp:144] Setting up pool5
I0503 23:18:08.230415 22978 net.cpp:151] Top shape: 20 128 5 5 (64000)
I0503 23:18:08.230424 22978 net.cpp:159] Memory required for data: 15136080
I0503 23:18:08.230433 22978 layer_factory.hpp:77] Creating layer ip1
I0503 23:18:08.230448 22978 net.cpp:94] Creating Layer ip1
I0503 23:18:08.230458 22978 net.cpp:435] ip1 <- pool5
I0503 23:18:08.230470 22978 net.cpp:409] ip1 -> ip1
I0503 23:18:08.347973 22978 net.cpp:144] Setting up ip1
I0503 23:18:08.348011 22978 net.cpp:151] Top shape: 20 1024 (20480)
I0503 23:18:08.348016 22978 net.cpp:159] Memory required for data: 15218000
I0503 23:18:08.348026 22978 layer_factory.hpp:77] Creating layer ip2
I0503 23:18:08.348037 22978 net.cpp:94] Creating Layer ip2
I0503 23:18:08.348050 22978 net.cpp:435] ip2 <- ip1
I0503 23:18:08.348059 22978 net.cpp:409] ip2 -> ip2
I0503 23:18:08.364140 22978 net.cpp:144] Setting up ip2
I0503 23:18:08.364164 22978 net.cpp:151] Top shape: 20 512 (10240)
I0503 23:18:08.364168 22978 net.cpp:159] Memory required for data: 15258960
I0503 23:18:08.364176 22978 layer_factory.hpp:77] Creating layer ip3
I0503 23:18:08.364186 22978 net.cpp:94] Creating Layer ip3
I0503 23:18:08.364190 22978 net.cpp:435] ip3 <- ip2
I0503 23:18:08.364197 22978 net.cpp:409] ip3 -> ip3
I0503 23:18:08.364326 22978 net.cpp:144] Setting up ip3
I0503 23:18:08.364334 22978 net.cpp:151] Top shape: 20 1 (20)
I0503 23:18:08.364338 22978 net.cpp:159] Memory required for data: 15259040
I0503 23:18:08.364343 22978 layer_factory.hpp:77] Creating layer loss
I0503 23:18:08.364359 22978 net.cpp:94] Creating Layer loss
I0503 23:18:08.364363 22978 net.cpp:435] loss <- ip3
I0503 23:18:08.364367 22978 net.cpp:435] loss <- label
I0503 23:18:08.364372 22978 net.cpp:409] loss -> loss
I0503 23:18:08.364428 22978 net.cpp:144] Setting up loss
…
I0503 23:18:08.657058 22978 net.cpp:323] The NetState phase (0) differed from the phase (1) specified by a rule in layer intercept
I0503 23:18:08.657076 22978 net.cpp:323] The NetState phase (0) differed from the phase (1) specified by a rule in layer accuracy
I0503 23:18:08.657179 22978 net.cpp:52] Initializing net from parameters: 
state {
  phase: TRAIN
}
layer {
  name: "parameters"
  type: "HDF5Data"
  top: "data"
  top: "label"
  include {
    phase: TRAIN
  }
  hdf5_data_param {
    source: "/home/purduethu/scratch/radon/d/deng106/CNNStatisticalModel/distributions/input/20_distributions_400_sample_size_train-distributions-path.txt"
    batch_size: 20
  }
}
layer {
  name: "conv1"
  type: "Convolution"
  bottom: "data"
  top: "conv1"
  param {
    lr_mult: 1
  }
  param {
    lr_mult: 2
  }
  convolution_param {
    num_output: 64
    pad: 2
    kernel_size: 5
    stride: 1
    weight_filler {
      type: "gaussian"
      std: 0.0001
    }
    bias_filler {
      type: "constant"
    }
  }
}
layer {
  name: "relu1"
  type: "ReLU"
  bottom: "conv1"
  top: "conv1"
}
layer {
  name: "conv2"
  type: "Convolution"
  bottom: "conv1"
  top: "conv2"
  param {
    lr_mult: 1
  }
  param {
    lr_mult: 2
  }
  convolution_param {
    num_output: 64
    pad: 2
    kernel_size: 5
    stride: 1
    weight_filler {
      type: "gaussian"
      std: 0.01
    }
    bias_filler {
      type: "constant"
    }
  }
}
layer {
  name: "relu2"
  type: "ReLU"
  bottom: "conv2"
  top: "conv2"
}
layer {
  name: "pool2"
  type: "Pooling"
  bottom: "conv2"
  top: "pool2"
  pooling_param {
    pool: MAX
    kernel_size: 3
    stride: 2
  }
}
layer {
  name: "conv3"
  type: "Convolution"
  bottom: "pool2"
  top: "conv3"
  param {
    lr_mult: 1
  }
  param {
    lr_mult: 2
  }
  convolution_param {
    num_output: 128
    pad: 2
    kernel_size: 5
    stride: 1
    weight_filler {
      type: "gaussian"
      std: 0.01
    }
    bias_filler {
      type: "constant"
    }
  }
}
layer {
  name: "relu3"
  type: "ReLU"
  bottom: "conv3"
  top: "conv3"
}
layer {
  name: "conv4"
  type: "Convolution"
  bottom: "conv3"
  top: "conv4"
  param {
    lr_mult: 1
  }
  param {
    lr_mult: 2
  }
  convolution_param {
    num_output: 128
    pad: 2
    kernel_size: 5
    stride: 1
    weight_filler {
      type: "gaussian"
      std: 0.01
    }
    bias_filler {
      type: "constant"
    }
  }
}
layer {
  name: "relu4"
  type: "ReLU"
  bottom: "conv4"
  top: "conv4"
}
layer {
  name: "conv5"
  type: "Convolution"
  bottom: "conv4"
  top: "conv5"
  param {
    lr_mult: 1
  }
  param {
    lr_mult: 2
  }
  convolution_param {
    num_output: 128
    pad: 2
    kernel_size: 5
    stride: 1
    weight_filler {
      type: "gaussian"
      std: 0.01
    }
    bias_filler {
      type: "constant"
    }
  }
}
layer {
  name: "relu5"
  type: "ReLU"
  bottom: "conv5"
  top: "conv5"
}
layer {
  name: "pool5"
  type: "Pooling"
  bottom: "conv5"
  top: "pool5"
  pooling_param {
    pool: AVE
    kernel_size: 3
    stride: 2
  }
}
layer {
  name: "ip1"
  type: "InnerProduct"
  bottom: "pool5"
  top: "ip1"
  param {
    lr_mult: 1
  }
  param {
    lr_mult: 2
  }
  inner_product_param {
    num_output: 1024
    weight_filler {
      type: "gaussian"
      std: 0.1
    }
    bias_filler {
      type: "constant"
    }
  }
}
layer {
  name: "ip2"
  type: "InnerProduct"
  bottom: "ip1"
  top: "ip2"
  param {
    lr_mult: 1
  }
  param {
    lr_mult: 2
  }
  inner_product_param {
    num_output: 512
    weight_filler {
      type: "gaussian"
      std: 0.1
    }
    bias_filler {
      type: "constant"
    }
  }
}
layer {
  name: "ip3"
  type: "InnerProduct"
  bottom: "ip2"
  top: "ip3"
  param {
    lr_mult: 1
  }
  param {
    lr_mult: 2
  }
  inner_product_param {
    num_output: 50
    weight_filler {
      type: "gaussian"
      std: 0.1
    }
    bias_filler {
      type: "constant"
    }
  }
}
layer {
  name: "loss"
  type: "SoftmaxWithLoss"
  bottom: "ip3"
  bottom: "label"
  top: "loss"
}
I0503 23:18:08.657241 22978 layer_factory.hpp:77] Creating layer parameters
I0503 23:18:08.657251 22978 net.cpp:94] Creating Layer parameters
I0503 23:18:08.657255 22978 net.cpp:409] parameters -> data
I0503 23:18:08.657263 22978 net.cpp:409] parameters -> label
I0503 23:18:08.657270 22978 hdf5_data_layer.cpp:79] Loading list of HDF5 filenames from: /home/purduethu/scratch/radon/d/deng106/CNNStatisticalModel/distributions/input/20_distributions_400_sample_size_train-distributions-path.txt
I0503 23:18:08.657289 22978 hdf5_data_layer.cpp:93] Number of HDF5 files: 1
I0503 23:18:08.925110 22978 hdf5.cpp:35] Datatype class: H5T_INTEGER
I0503 23:18:08.926146 22978 net.cpp:144] Setting up parameters
I0503 23:18:08.926162 22978 net.cpp:151] Top shape: 20 1 20 20 (8000)
I0503 23:18:08.926165 22978 net.cpp:151] Top shape: 20 (20)
I0503 23:18:08.926169 22978 net.cpp:159] Memory required for data: 32080
I0503 23:18:08.926174 22978 layer_factory.hpp:77] Creating layer conv1
I0503 23:18:08.926190 22978 net.cpp:94] Creating Layer conv1
I0503 23:18:08.926194 22978 net.cpp:435] conv1 <- data
I0503 23:18:08.926200 22978 net.cpp:409] conv1 -> conv1
I0503 23:18:08.928567 22978 net.cpp:144] Setting up conv1
I0503 23:18:08.928584 22978 net.cpp:151] Top shape: 20 64 20 20 (512000)
I0503 23:18:08.928588 22978 net.cpp:159] Memory required for data: 2080080
I0503 23:18:08.928597 22978 layer_factory.hpp:77] Creating layer relu1
I0503 23:18:08.928606 22978 net.cpp:94] Creating Layer relu1
I0503 23:18:08.928609 22978 net.cpp:435] relu1 <- conv1
I0503 23:18:08.928613 22978 net.cpp:396] relu1 -> conv1 (in-place)
I0503 23:18:08.928622 22978 net.cpp:144] Setting up relu1
I0503 23:18:08.928625 22978 net.cpp:151] Top shape: 20 64 20 20 (512000)
I0503 23:18:08.928628 22978 net.cpp:159] Memory required for data: 4128080
I0503 23:18:08.928632 22978 layer_factory.hpp:77] Creating layer conv2
I0503 23:18:08.928638 22978 net.cpp:94] Creating Layer conv2
I0503 23:18:08.928642 22978 net.cpp:435] conv2 <- conv1
I0503 23:18:08.928647 22978 net.cpp:409] conv2 -> conv2
I0503 23:18:08.939712 22978 net.cpp:144] Setting up conv2
I0503 23:18:08.939740 22978 net.cpp:151] Top shape: 20 64 20 20 (512000)
I0503 23:18:08.939748 22978 net.cpp:159] Memory required for data: 6176080
I0503 23:18:08.939762 22978 layer_factory.hpp:77] Creating layer relu2
I0503 23:18:08.939774 22978 net.cpp:94] Creating Layer relu2
I0503 23:18:08.939781 22978 net.cpp:435] relu2 <- conv2
I0503 23:18:08.939790 22978 net.cpp:396] relu2 -> conv2 (in-place)
I0503 23:18:08.939803 22978 net.cpp:144] Setting up relu2
I0503 23:18:08.939812 22978 net.cpp:151] Top shape: 20 64 20 20 (512000)
I0503 23:18:08.939817 22978 net.cpp:159] Memory required for data: 8224080
I0503 23:18:08.939823 22978 layer_factory.hpp:77] Creating layer pool2
I0503 23:18:08.939833 22978 net.cpp:94] Creating Layer pool2
I0503 23:18:08.939838 22978 net.cpp:435] pool2 <- conv2
I0503 23:18:08.939846 22978 net.cpp:409] pool2 -> pool2
I0503 23:18:08.939946 22978 net.cpp:144] Setting up pool2
I0503 23:18:08.939960 22978 net.cpp:151] Top shape: 20 64 10 10 (128000)
I0503 23:18:08.939965 22978 net.cpp:159] Memory required for data: 8736080
I0503 23:18:08.939971 22978 layer_factory.hpp:77] Creating layer conv3
I0503 23:18:08.939986 22978 net.cpp:94] Creating Layer conv3
I0503 23:18:08.939992 22978 net.cpp:435] conv3 <- pool2
I0503 23:18:08.940011 22978 net.cpp:409] conv3 -> conv3
I0503 23:18:08.950733 22978 net.cpp:144] Setting up conv3
I0503 23:18:08.950750 22978 net.cpp:151] Top shape: 20 128 10 10 (256000)
I0503 23:18:08.950754 22978 net.cpp:159] Memory required for data: 9760080
I0503 23:18:08.950762 22978 layer_factory.hpp:77] Creating layer relu3
I0503 23:18:08.950768 22978 net.cpp:94] Creating Layer relu3
I0503 23:18:08.950773 22978 net.cpp:435] relu3 <- conv3
I0503 23:18:08.950778 22978 net.cpp:396] relu3 -> conv3 (in-place)
I0503 23:18:08.950784 22978 net.cpp:144] Setting up relu3
I0503 23:18:08.950788 22978 net.cpp:151] Top shape: 20 128 10 10 (256000)
I0503 23:18:08.950791 22978 net.cpp:159] Memory required for data: 10784080
I0503 23:18:08.950794 22978 layer_factory.hpp:77] Creating layer conv4
I0503 23:18:08.950803 22978 net.cpp:94] Creating Layer conv4
I0503 23:18:08.950805 22978 net.cpp:435] conv4 <- conv3
I0503 23:18:08.950810 22978 net.cpp:409] conv4 -> conv4
I0503 23:18:08.970921 22978 net.cpp:144] Setting up conv4
I0503 23:18:08.970942 22978 net.cpp:151] Top shape: 20 128 10 10 (256000)
I0503 23:18:08.970947 22978 net.cpp:159] Memory required for data: 11808080
I0503 23:18:08.970953 22978 layer_factory.hpp:77] Creating layer relu4
I0503 23:18:08.970960 22978 net.cpp:94] Creating Layer relu4
I0503 23:18:08.970964 22978 net.cpp:435] relu4 <- conv4
I0503 23:18:08.970969 22978 net.cpp:396] relu4 -> conv4 (in-place)
I0503 23:18:08.970976 22978 net.cpp:144] Setting up relu4
I0503 23:18:08.970981 22978 net.cpp:151] Top shape: 20 128 10 10 (256000)
I0503 23:18:08.970984 22978 net.cpp:159] Memory required for data: 12832080
I0503 23:18:08.970988 22978 layer_factory.hpp:77] Creating layer conv5
I0503 23:18:08.970995 22978 net.cpp:94] Creating Layer conv5
I0503 23:18:08.970999 22978 net.cpp:435] conv5 <- conv4
I0503 23:18:08.971004 22978 net.cpp:409] conv5 -> conv5
I0503 23:18:08.989253 22978 net.cpp:144] Setting up conv5
I0503 23:18:08.989271 22978 net.cpp:151] Top shape: 20 128 10 10 (256000)
I0503 23:18:08.989275 22978 net.cpp:159] Memory required for data: 13856080
I0503 23:18:08.989286 22978 layer_factory.hpp:77] Creating layer relu5
I0503 23:18:08.989293 22978 net.cpp:94] Creating Layer relu5
I0503 23:18:08.989296 22978 net.cpp:435] relu5 <- conv5
I0503 23:18:08.989301 22978 net.cpp:396] relu5 -> conv5 (in-place)
I0503 23:18:08.989308 22978 net.cpp:144] Setting up relu5
I0503 23:18:08.989312 22978 net.cpp:151] Top shape: 20 128 10 10 (256000)
I0503 23:18:08.989315 22978 net.cpp:159] Memory required for data: 14880080
I0503 23:18:08.989318 22978 layer_factory.hpp:77] Creating layer pool5
I0503 23:18:08.989323 22978 net.cpp:94] Creating Layer pool5
I0503 23:18:08.989326 22978 net.cpp:435] pool5 <- conv5
I0503 23:18:08.989331 22978 net.cpp:409] pool5 -> pool5
I0503 23:18:08.989369 22978 net.cpp:144] Setting up pool5
I0503 23:18:08.989377 22978 net.cpp:151] Top shape: 20 128 5 5 (64000)
I0503 23:18:08.989380 22978 net.cpp:159] Memory required for data: 15136080
I0503 23:18:08.989383 22978 layer_factory.hpp:77] Creating layer ip1
I0503 23:18:08.989390 22978 net.cpp:94] Creating Layer ip1
I0503 23:18:08.989393 22978 net.cpp:435] ip1 <- pool5
I0503 23:18:08.989398 22978 net.cpp:409] ip1 -> ip1
I0503 23:18:09.070204 22978 net.cpp:144] Setting up ip1
I0503 23:18:09.070238 22978 net.cpp:151] Top shape: 20 1024 (20480)
I0503 23:18:09.070242 22978 net.cpp:159] Memory required for data: 15218000
I0503 23:18:09.070250 22978 layer_factory.hpp:77] Creating layer ip2
I0503 23:18:09.070261 22978 net.cpp:94] Creating Layer ip2
I0503 23:18:09.070266 22978 net.cpp:435] ip2 <- ip1
I0503 23:18:09.070271 22978 net.cpp:409] ip2 -> ip2
I0503 23:18:09.083488 22978 net.cpp:144] Setting up ip2
I0503 23:18:09.083509 22978 net.cpp:151] Top shape: 20 512 (10240)
I0503 23:18:09.083513 22978 net.cpp:159] Memory required for data: 15258960
I0503 23:18:09.083519 22978 layer_factory.hpp:77] Creating layer ip3
I0503 23:18:09.083528 22978 net.cpp:94] Creating Layer ip3
I0503 23:18:09.083531 22978 net.cpp:435] ip3 <- ip2
I0503 23:18:09.083537 22978 net.cpp:409] ip3 -> ip3
I0503 23:18:09.084280 22978 net.cpp:144] Setting up ip3
I0503 23:18:09.084287 22978 net.cpp:151] Top shape: 20 50 (1000)
I0503 23:18:09.084291 22978 net.cpp:159] Memory required for data: 15262960
I0503 23:18:09.084296 22978 layer_factory.hpp:77] Creating layer loss
I0503 23:18:09.084305 22978 net.cpp:94] Creating Layer loss
I0503 23:18:09.084307 22978 net.cpp:435] loss <- ip3
I0503 23:18:09.084311 22978 net.cpp:435] loss <- label
I0503 23:18:09.084316 22978 net.cpp:409] loss -> loss
I0503 23:18:09.084322 22978 layer_factory.hpp:77] Creating layer loss
…
I0503 23:18:09.084867 22978 solver.cpp:181] Creating test net (#0) specified by net file: ./protocol/dis_20_400_dimension.protocol_distribution
I0503 23:18:09.084894 22978 net.cpp:323] The NetState phase (1) differed from the phase (0) specified by a rule in layer parameters
I0503 23:18:09.084986 22978 net.cpp:52] Initializing net from parameters: 
state {
  phase: TEST
}
layer {
  name: "intercept"
  type: "HDF5Data"
  top: "data"
  top: "label"
  include {
    phase: TEST
  }
  hdf5_data_param {
    source: "/home/purduethu/scratch/radon/d/deng106/CNNStatisticalModel/distributions/input/20_distributions_400_sample_size_test-distributions-path.txt"
    batch_size: 20
  }
}
layer {
  name: "conv1"
  type: "Convolution"
  bottom: "data"
  top: "conv1"
  param {
    lr_mult: 1
  }
  param {
    lr_mult: 2
  }
  convolution_param {
    num_output: 64
    pad: 2
    kernel_size: 5
    stride: 1
    weight_filler {
      type: "gaussian"
      std: 0.0001
    }
    bias_filler {
      type: "constant"
    }
  }
}
layer {
  name: "relu1"
  type: "ReLU"
  bottom: "conv1"
  top: "conv1"
}
layer {
  name: "conv2"
  type: "Convolution"
  bottom: "conv1"
  top: "conv2"
  param {
    lr_mult: 1
  }
  param {
    lr_mult: 2
  }
  convolution_param {
    num_output: 64
    pad: 2
    kernel_size: 5
    stride: 1
    weight_filler {
      type: "gaussian"
      std: 0.01
    }
    bias_filler {
      type: "constant"
    }
  }
}
layer {
  name: "relu2"
  type: "ReLU"
  bottom: "conv2"
  top: "conv2"
}
layer {
  name: "pool2"
  type: "Pooling"
  bottom: "conv2"
  top: "pool2"
  pooling_param {
    pool: MAX
    kernel_size: 3
    stride: 2
  }
}
layer {
  name: "conv3"
  type: "Convolution"
  bottom: "pool2"
  top: "conv3"
  param {
    lr_mult: 1
  }
  param {
    lr_mult: 2
  }
  convolution_param {
    num_output: 128
    pad: 2
    kernel_size: 5
    stride: 1
    weight_filler {
      type: "gaussian"
      std: 0.01
    }
    bias_filler {
      type: "constant"
    }
  }
}
layer {
  name: "relu3"
  type: "ReLU"
  bottom: "conv3"
  top: "conv3"
}
layer {
  name: "conv4"
  type: "Convolution"
  bottom: "conv3"
  top: "conv4"
  param {
    lr_mult: 1
  }
  param {
    lr_mult: 2
  }
  convolution_param {
    num_output: 128
    pad: 2
    kernel_size: 5
    stride: 1
    weight_filler {
      type: "gaussian"
      std: 0.01
    }
    bias_filler {
      type: "constant"
    }
  }
}
layer {
  name: "relu4"
  type: "ReLU"
  bottom: "conv4"
  top: "conv4"
}
layer {
  name: "conv5"
  type: "Convolution"
  bottom: "conv4"
  top: "conv5"
  param {
    lr_mult: 1
  }
  param {
    lr_mult: 2
  }
  convolution_param {
    num_output: 128
    pad: 2
    kernel_size: 5
    stride: 1
    weight_filler {
      type: "gaussian"
      std: 0.01
    }
    bias_filler {
      type: "constant"
    }
  }
}
layer {
  name: "relu5"
  type: "ReLU"
  bottom: "conv5"
  top: "conv5"
}
layer {
  name: "pool5"
  type: "Pooling"
  bottom: "conv5"
  top: "pool5"
  pooling_param {
    pool: AVE
    kernel_size: 3
    stride: 2
  }
}
layer {
  name: "ip1"
  type: "InnerProduct"
  bottom: "pool5"
  top: "ip1"
  param {
    lr_mult: 1
  }
  param {
    lr_mult: 2
  }
  inner_product_param {
    num_output: 1024
    weight_filler {
      type: "gaussian"
      std: 0.1
    }
    bias_filler {
      type: "constant"
    }
  }
}
layer {
  name: "ip2"
  type: "InnerProduct"
  bottom: "ip1"
  top: "ip2"
  param {
    lr_mult: 1
  }
  param {
    lr_mult: 2
  }
  inner_product_param {
    num_output: 512
    weight_filler {
      type: "gaussian"
      std: 0.1
    }
    bias_filler {
      type: "constant"
    }
  }
}
layer {
  name: "ip3"
  type: "InnerProduct"
  bottom: "ip2"
  top: "ip3"
  param {
    lr_mult: 1
  }
  param {
    lr_mult: 2
  }
  inner_product_param {
    num_output: 50
    weight_filler {
      type: "gaussian"
      std: 0.1
    }
    bias_filler {
      type: "constant"
    }
  }
}
layer {
  name: "accuracy"
  type: "Accuracy"
  bottom: "ip3"
  bottom: "label"
  top: "accuracy"
  include {
    phase: TEST
  }
}
layer {
  name: "loss"
  type: "SoftmaxWithLoss"
  bottom: "ip3"
  bottom: "label"
  top: "loss"
}
I0503 23:18:09.085055 22978 layer_factory.hpp:77] Creating layer intercept
I0503 23:18:09.085064 22978 net.cpp:94] Creating Layer intercept
I0503 23:18:09.085068 22978 net.cpp:409] intercept -> data
I0503 23:18:09.085075 22978 net.cpp:409] intercept -> label
I0503 23:18:09.085081 22978 hdf5_data_layer.cpp:79] Loading list of HDF5 filenames from: /home/purduethu/scratch/radon/d/deng106/CNNStatisticalModel/distributions/input/20_distributions_400_sample_size_test-distributions-path.txt
I0503 23:18:09.085101 22978 hdf5_data_layer.cpp:93] Number of HDF5 files: 1
I0503 23:18:09.149694 22978 net.cpp:144] Setting up intercept
I0503 23:18:09.149730 22978 net.cpp:151] Top shape: 20 1 20 20 (8000)
I0503 23:18:09.149735 22978 net.cpp:151] Top shape: 20 (20)
I0503 23:18:09.149739 22978 net.cpp:159] Memory required for data: 32080
I0503 23:18:09.149745 22978 layer_factory.hpp:77] Creating layer label_intercept_1_split
I0503 23:18:09.149756 22978 net.cpp:94] Creating Layer label_intercept_1_split
I0503 23:18:09.149760 22978 net.cpp:435] label_intercept_1_split <- label
I0503 23:18:09.149766 22978 net.cpp:409] label_intercept_1_split -> label_intercept_1_split_0
I0503 23:18:09.149775 22978 net.cpp:409] label_intercept_1_split -> label_intercept_1_split_1
I0503 23:18:09.149822 22978 net.cpp:144] Setting up label_intercept_1_split
I0503 23:18:09.149829 22978 net.cpp:151] Top shape: 20 (20)
I0503 23:18:09.149833 22978 net.cpp:151] Top shape: 20 (20)
I0503 23:18:09.149837 22978 net.cpp:159] Memory required for data: 32240
I0503 23:18:09.149839 22978 layer_factory.hpp:77] Creating layer conv1
I0503 23:18:09.149850 22978 net.cpp:94] Creating Layer conv1
I0503 23:18:09.149853 22978 net.cpp:435] conv1 <- data
I0503 23:18:09.149858 22978 net.cpp:409] conv1 -> conv1
I0503 23:18:09.150698 22978 net.cpp:144] Setting up conv1
I0503 23:18:09.150712 22978 net.cpp:151] Top shape: 20 64 20 20 (512000)
I0503 23:18:09.150717 22978 net.cpp:159] Memory required for data: 2080240
I0503 23:18:09.150727 22978 layer_factory.hpp:77] Creating layer relu1
I0503 23:18:09.150733 22978 net.cpp:94] Creating Layer relu1
I0503 23:18:09.150738 22978 net.cpp:435] relu1 <- conv1
I0503 23:18:09.150741 22978 net.cpp:396] relu1 -> conv1 (in-place)
I0503 23:18:09.150748 22978 net.cpp:144] Setting up relu1
I0503 23:18:09.150753 22978 net.cpp:151] Top shape: 20 64 20 20 (512000)
I0503 23:18:09.150755 22978 net.cpp:159] Memory required for data: 4128240
I0503 23:18:09.150758 22978 layer_factory.hpp:77] Creating layer conv2
I0503 23:18:09.150766 22978 net.cpp:94] Creating Layer conv2
I0503 23:18:09.150769 22978 net.cpp:435] conv2 <- conv1
I0503 23:18:09.150774 22978 net.cpp:409] conv2 -> conv2
I0503 23:18:09.156718 22978 net.cpp:144] Setting up conv2
I0503 23:18:09.156731 22978 net.cpp:151] Top shape: 20 64 20 20 (512000)
I0503 23:18:09.156735 22978 net.cpp:159] Memory required for data: 6176240
I0503 23:18:09.156744 22978 layer_factory.hpp:77] Creating layer relu2
I0503 23:18:09.156749 22978 net.cpp:94] Creating Layer relu2
I0503 23:18:09.156754 22978 net.cpp:435] relu2 <- conv2
I0503 23:18:09.156757 22978 net.cpp:396] relu2 -> conv2 (in-place)
I0503 23:18:09.156764 22978 net.cpp:144] Setting up relu2
I0503 23:18:09.156769 22978 net.cpp:151] Top shape: 20 64 20 20 (512000)
I0503 23:18:09.156771 22978 net.cpp:159] Memory required for data: 8224240
I0503 23:18:09.156774 22978 layer_factory.hpp:77] Creating layer pool2
I0503 23:18:09.156780 22978 net.cpp:94] Creating Layer pool2
I0503 23:18:09.156783 22978 net.cpp:435] pool2 <- conv2
I0503 23:18:09.156787 22978 net.cpp:409] pool2 -> pool2
I0503 23:18:09.156841 22978 net.cpp:144] Setting up pool2
I0503 23:18:09.156848 22978 net.cpp:151] Top shape: 20 64 10 10 (128000)
I0503 23:18:09.156852 22978 net.cpp:159] Memory required for data: 8736240
I0503 23:18:09.156855 22978 layer_factory.hpp:77] Creating layer conv3
I0503 23:18:09.156862 22978 net.cpp:94] Creating Layer conv3
I0503 23:18:09.156867 22978 net.cpp:435] conv3 <- pool2
I0503 23:18:09.156870 22978 net.cpp:409] conv3 -> conv3
I0503 23:18:09.164219 22978 net.cpp:144] Setting up conv3
I0503 23:18:09.164233 22978 net.cpp:151] Top shape: 20 128 10 10 (256000)
I0503 23:18:09.164237 22978 net.cpp:159] Memory required for data: 9760240
I0503 23:18:09.164245 22978 layer_factory.hpp:77] Creating layer relu3
I0503 23:18:09.164252 22978 net.cpp:94] Creating Layer relu3
I0503 23:18:09.164255 22978 net.cpp:435] relu3 <- conv3
I0503 23:18:09.164260 22978 net.cpp:396] relu3 -> conv3 (in-place)
I0503 23:18:09.164268 22978 net.cpp:144] Setting up relu3
I0503 23:18:09.164271 22978 net.cpp:151] Top shape: 20 128 10 10 (256000)
I0503 23:18:09.164274 22978 net.cpp:159] Memory required for data: 10784240
I0503 23:18:09.164278 22978 layer_factory.hpp:77] Creating layer conv4
I0503 23:18:09.164284 22978 net.cpp:94] Creating Layer conv4
I0503 23:18:09.164288 22978 net.cpp:435] conv4 <- conv3
I0503 23:18:09.164293 22978 net.cpp:409] conv4 -> conv4
I0503 23:18:09.178225 22978 net.cpp:144] Setting up conv4
I0503 23:18:09.178243 22978 net.cpp:151] Top shape: 20 128 10 10 (256000)
I0503 23:18:09.178247 22978 net.cpp:159] Memory required for data: 11808240
I0503 23:18:09.178253 22978 layer_factory.hpp:77] Creating layer relu4
I0503 23:18:09.178261 22978 net.cpp:94] Creating Layer relu4
I0503 23:18:09.178263 22978 net.cpp:435] relu4 <- conv4
I0503 23:18:09.178268 22978 net.cpp:396] relu4 -> conv4 (in-place)
I0503 23:18:09.178275 22978 net.cpp:144] Setting up relu4
I0503 23:18:09.178279 22978 net.cpp:151] Top shape: 20 128 10 10 (256000)
I0503 23:18:09.178282 22978 net.cpp:159] Memory required for data: 12832240
I0503 23:18:09.178285 22978 layer_factory.hpp:77] Creating layer conv5
I0503 23:18:09.178294 22978 net.cpp:94] Creating Layer conv5
I0503 23:18:09.178297 22978 net.cpp:435] conv5 <- conv4
I0503 23:18:09.178303 22978 net.cpp:409] conv5 -> conv5
I0503 23:18:09.191788 22978 net.cpp:144] Setting up conv5
I0503 23:18:09.191807 22978 net.cpp:151] Top shape: 20 128 10 10 (256000)
I0503 23:18:09.191810 22978 net.cpp:159] Memory required for data: 13856240
I0503 23:18:09.191819 22978 layer_factory.hpp:77] Creating layer relu5
I0503 23:18:09.191826 22978 net.cpp:94] Creating Layer relu5
I0503 23:18:09.191830 22978 net.cpp:435] relu5 <- conv5
I0503 23:18:09.191834 22978 net.cpp:396] relu5 -> conv5 (in-place)
I0503 23:18:09.191841 22978 net.cpp:144] Setting up relu5
I0503 23:18:09.191846 22978 net.cpp:151] Top shape: 20 128 10 10 (256000)
I0503 23:18:09.191849 22978 net.cpp:159] Memory required for data: 14880240
I0503 23:18:09.191853 22978 layer_factory.hpp:77] Creating layer pool5
I0503 23:18:09.191857 22978 net.cpp:94] Creating Layer pool5
I0503 23:18:09.191860 22978 net.cpp:435] pool5 <- conv5
I0503 23:18:09.191865 22978 net.cpp:409] pool5 -> pool5
I0503 23:18:09.191905 22978 net.cpp:144] Setting up pool5
I0503 23:18:09.191912 22978 net.cpp:151] Top shape: 20 128 5 5 (64000)
I0503 23:18:09.191915 22978 net.cpp:159] Memory required for data: 15136240
I0503 23:18:09.191918 22978 layer_factory.hpp:77] Creating layer ip1
I0503 23:18:09.191926 22978 net.cpp:94] Creating Layer ip1
I0503 23:18:09.191928 22978 net.cpp:435] ip1 <- pool5
I0503 23:18:09.191933 22978 net.cpp:409] ip1 -> ip1
I0503 23:18:09.271410 22978 net.cpp:144] Setting up ip1
I0503 23:18:09.271445 22978 net.cpp:151] Top shape: 20 1024 (20480)
I0503 23:18:09.271450 22978 net.cpp:159] Memory required for data: 15218160
I0503 23:18:09.271458 22978 layer_factory.hpp:77] Creating layer ip2
I0503 23:18:09.271469 22978 net.cpp:94] Creating Layer ip2
I0503 23:18:09.271474 22978 net.cpp:435] ip2 <- ip1
I0503 23:18:09.271481 22978 net.cpp:409] ip2 -> ip2
I0503 23:18:09.286052 22978 net.cpp:144] Setting up ip2
I0503 23:18:09.286074 22978 net.cpp:151] Top shape: 20 512 (10240)
I0503 23:18:09.286077 22978 net.cpp:159] Memory required for data: 15259120
I0503 23:18:09.286084 22978 layer_factory.hpp:77] Creating layer ip3
I0503 23:18:09.286097 22978 net.cpp:94] Creating Layer ip3
I0503 23:18:09.286100 22978 net.cpp:435] ip3 <- ip2
I0503 23:18:09.286106 22978 net.cpp:409] ip3 -> ip3
I0503 23:18:09.286855 22978 net.cpp:144] Setting up ip3
I0503 23:18:09.286864 22978 net.cpp:151] Top shape: 20 50 (1000)
I0503 23:18:09.286866 22978 net.cpp:159] Memory required for data: 15263120
I0503 23:18:09.286871 22978 layer_factory.hpp:77] Creating layer ip3_ip3_0_split
I0503 23:18:09.286877 22978 net.cpp:94] Creating Layer ip3_ip3_0_split
I0503 23:18:09.286880 22978 net.cpp:435] ip3_ip3_0_split <- ip3
I0503 23:18:09.286885 22978 net.cpp:409] ip3_ip3_0_split -> ip3_ip3_0_split_0
I0503 23:18:09.286890 22978 net.cpp:409] ip3_ip3_0_split -> ip3_ip3_0_split_1
I0503 23:18:09.286936 22978 net.cpp:144] Setting up ip3_ip3_0_split
I0503 23:18:09.286942 22978 net.cpp:151] Top shape: 20 50 (1000)
I0503 23:18:09.286945 22978 net.cpp:151] Top shape: 20 50 (1000)
I0503 23:18:09.286948 22978 net.cpp:159] Memory required for data: 15271120
I0503 23:18:09.286952 22978 layer_factory.hpp:77] Creating layer accuracy
I0503 23:18:09.286957 22978 net.cpp:94] Creating Layer accuracy
I0503 23:18:09.286960 22978 net.cpp:435] accuracy <- ip3_ip3_0_split_0
I0503 23:18:09.286964 22978 net.cpp:435] accuracy <- label_intercept_1_split_0
I0503 23:18:09.286968 22978 net.cpp:409] accuracy -> accuracy
…
