…
I0501 17:56:46.653182 13781 net.cpp:323] The NetState phase (0) differed from the phase (1) specified by a rule in layer intercept
I0501 17:56:46.653197 13781 net.cpp:323] The NetState phase (0) differed from the phase (1) specified by a rule in layer loss
I0501 17:56:46.653275 13781 net.cpp:52] Initializing net from parameters: 
state {
  phase: TRAIN
}
layer {
  name: "parameters"
  type: "HDF5Data"
  top: "data"
  top: "label"
  include {
    phase: TRAIN
  }
  hdf5_data_param {
    source: "/home/purduethu/scratch/radon/d/deng106/CNNStatisticalModel/distributions/input/5_distributions_100_sample_size_train-parameters-path.txt"
    batch_size: 20
  }
}
layer {
  name: "conv1"
  type: "Convolution"
  bottom: "data"
  top: "conv1"
  param {
    lr_mult: 1
  }
  param {
    lr_mult: 2
  }
  convolution_param {
    num_output: 64
    pad: 2
    kernel_size: 5
    stride: 1
    weight_filler {
      type: "gaussian"
      std: 0.0001
    }
    bias_filler {
      type: "constant"
    }
  }
}
layer {
  name: "relu1"
  type: "ReLU"
  bottom: "conv1"
  top: "conv1"
}
layer {
  name: "conv2"
  type: "Convolution"
  bottom: "conv1"
  top: "conv2"
  param {
    lr_mult: 1
  }
  param {
    lr_mult: 2
  }
  convolution_param {
    num_output: 64
    pad: 2
    kernel_size: 5
    stride: 1
    weight_filler {
      type: "gaussian"
      std: 0.01
    }
    bias_filler {
      type: "constant"
    }
  }
}
layer {
  name: "relu2"
  type: "ReLU"
  bottom: "conv2"
  top: "conv2"
}
layer {
  name: "pool2"
  type: "Pooling"
  bottom: "conv2"
  top: "pool2"
  pooling_param {
    pool: MAX
    kernel_size: 3
    stride: 2
  }
}
layer {
  name: "conv3"
  type: "Convolution"
  bottom: "pool2"
  top: "conv3"
  param {
    lr_mult: 1
  }
  param {
    lr_mult: 2
  }
  convolution_param {
    num_output: 64
    pad: 2
    kernel_size: 5
    stride: 1
    weight_filler {
      type: "gaussian"
      std: 0.01
    }
    bias_filler {
      type: "constant"
    }
  }
}
layer {
  name: "relu3"
  type: "ReLU"
  bottom: "conv3"
  top: "conv3"
}
layer {
  name: "conv4"
  type: "Convolution"
  bottom: "conv3"
  top: "conv4"
  param {
    lr_mult: 1
  }
  param {
    lr_mult: 2
  }
  convolution_param {
    num_output: 64
    pad: 2
    kernel_size: 5
    stride: 1
    weight_filler {
      type: "gaussian"
      std: 0.01
    }
    bias_filler {
      type: "constant"
    }
  }
}
layer {
  name: "relu4"
  type: "ReLU"
  bottom: "conv4"
  top: "conv4"
}
layer {
  name: "conv5"
  type: "Convolution"
  bottom: "conv4"
  top: "conv5"
  param {
    lr_mult: 1
  }
  param {
    lr_mult: 2
  }
  convolution_param {
    num_output: 64
    pad: 2
    kernel_size: 5
    stride: 1
    weight_filler {
      type: "gaussian"
      std: 0.01
    }
    bias_filler {
      type: "constant"
    }
  }
}
layer {
  name: "relu5"
  type: "ReLU"
  bottom: "conv5"
  top: "conv5"
}
layer {
  name: "pool5"
  type: "Pooling"
  bottom: "conv5"
  top: "pool5"
  pooling_param {
    pool: AVE
    kernel_size: 3
    stride: 2
  }
}
layer {
  name: "ip1"
  type: "InnerProduct"
  bottom: "pool5"
  top: "ip1"
  param {
    lr_mult: 1
  }
  param {
    lr_mult: 2
  }
  inner_product_param {
    num_output: 64
    weight_filler {
      type: "gaussian"
      std: 0.1
    }
    bias_filler {
      type: "constant"
    }
  }
}
layer {
  name: "ip2"
  type: "InnerProduct"
  bottom: "ip1"
  top: "ip2"
  param {
    lr_mult: 1
  }
  param {
    lr_mult: 2
  }
  inner_product_param {
    num_output: 64
    weight_filler {
      type: "gaussian"
      std: 0.1
    }
    bias_filler {
      type: "constant"
    }
  }
}
layer {
  name: "ip3"
  type: "InnerProduct"
  bottom: "ip2"
  top: "ip3"
  param {
    lr_mult: 1
  }
  param {
    lr_mult: 2
  }
  inner_product_param {
    num_output: 1
    weight_filler {
      type: "gaussian"
      std: 0.1
    }
    bias_filler {
      type: "constant"
    }
  }
}
layer {
  name: "loss"
  type: "HuberLoss"
  bottom: "ip3"
  bottom: "label"
  top: "loss"
  include {
    phase: TRAIN
  }
}
I0501 17:56:46.653331 13781 layer_factory.hpp:77] Creating layer parameters
I0501 17:56:46.653344 13781 net.cpp:94] Creating Layer parameters
I0501 17:56:46.653348 13781 net.cpp:409] parameters -> data
I0501 17:56:46.653357 13781 net.cpp:409] parameters -> label
I0501 17:56:46.653368 13781 hdf5_data_layer.cpp:79] Loading list of HDF5 filenames from: /home/purduethu/scratch/radon/d/deng106/CNNStatisticalModel/distributions/input/5_distributions_100_sample_size_train-parameters-path.txt
I0501 17:56:46.653782 13781 hdf5_data_layer.cpp:93] Number of HDF5 files: 1
I0501 17:56:46.654435 13781 hdf5.cpp:32] Datatype class: H5T_FLOAT
I0501 17:56:46.680349 13781 net.cpp:144] Setting up parameters
I0501 17:56:46.680379 13781 net.cpp:151] Top shape: 20 1 10 10 (2000)
I0501 17:56:46.680384 13781 net.cpp:151] Top shape: 20 (20)
I0501 17:56:46.680387 13781 net.cpp:159] Memory required for data: 8080
I0501 17:56:46.680393 13781 layer_factory.hpp:77] Creating layer conv1
I0501 17:56:46.680409 13781 net.cpp:94] Creating Layer conv1
I0501 17:56:46.680413 13781 net.cpp:435] conv1 <- data
I0501 17:56:46.680419 13781 net.cpp:409] conv1 -> conv1
I0501 17:56:46.684512 13781 net.cpp:144] Setting up conv1
I0501 17:56:46.684528 13781 net.cpp:151] Top shape: 20 64 10 10 (128000)
I0501 17:56:46.684532 13781 net.cpp:159] Memory required for data: 520080
I0501 17:56:46.684542 13781 layer_factory.hpp:77] Creating layer relu1
I0501 17:56:46.684562 13781 net.cpp:94] Creating Layer relu1
I0501 17:56:46.684571 13781 net.cpp:435] relu1 <- conv1
I0501 17:56:46.684576 13781 net.cpp:396] relu1 -> conv1 (in-place)
I0501 17:56:46.684588 13781 net.cpp:144] Setting up relu1
I0501 17:56:46.684593 13781 net.cpp:151] Top shape: 20 64 10 10 (128000)
I0501 17:56:46.684597 13781 net.cpp:159] Memory required for data: 1032080
I0501 17:56:46.684599 13781 layer_factory.hpp:77] Creating layer conv2
I0501 17:56:46.684608 13781 net.cpp:94] Creating Layer conv2
I0501 17:56:46.684612 13781 net.cpp:435] conv2 <- conv1
I0501 17:56:46.684617 13781 net.cpp:409] conv2 -> conv2
I0501 17:56:46.690688 13781 net.cpp:144] Setting up conv2
I0501 17:56:46.690702 13781 net.cpp:151] Top shape: 20 64 10 10 (128000)
I0501 17:56:46.690706 13781 net.cpp:159] Memory required for data: 1544080
I0501 17:56:46.690714 13781 layer_factory.hpp:77] Creating layer relu2
I0501 17:56:46.690721 13781 net.cpp:94] Creating Layer relu2
I0501 17:56:46.690726 13781 net.cpp:435] relu2 <- conv2
I0501 17:56:46.690729 13781 net.cpp:396] relu2 -> conv2 (in-place)
I0501 17:56:46.690737 13781 net.cpp:144] Setting up relu2
I0501 17:56:46.690742 13781 net.cpp:151] Top shape: 20 64 10 10 (128000)
I0501 17:56:46.690744 13781 net.cpp:159] Memory required for data: 2056080
I0501 17:56:46.690747 13781 layer_factory.hpp:77] Creating layer pool2
I0501 17:56:46.690758 13781 net.cpp:94] Creating Layer pool2
I0501 17:56:46.690762 13781 net.cpp:435] pool2 <- conv2
I0501 17:56:46.690767 13781 net.cpp:409] pool2 -> pool2
I0501 17:56:46.690824 13781 net.cpp:144] Setting up pool2
I0501 17:56:46.690831 13781 net.cpp:151] Top shape: 20 64 5 5 (32000)
I0501 17:56:46.690835 13781 net.cpp:159] Memory required for data: 2184080
I0501 17:56:46.690838 13781 layer_factory.hpp:77] Creating layer conv3
I0501 17:56:46.690845 13781 net.cpp:94] Creating Layer conv3
I0501 17:56:46.690850 13781 net.cpp:435] conv3 <- pool2
I0501 17:56:46.690855 13781 net.cpp:409] conv3 -> conv3
I0501 17:56:46.695765 13781 net.cpp:144] Setting up conv3
I0501 17:56:46.695778 13781 net.cpp:151] Top shape: 20 64 5 5 (32000)
I0501 17:56:46.695781 13781 net.cpp:159] Memory required for data: 2312080
I0501 17:56:46.695789 13781 layer_factory.hpp:77] Creating layer relu3
I0501 17:56:46.695796 13781 net.cpp:94] Creating Layer relu3
I0501 17:56:46.695799 13781 net.cpp:435] relu3 <- conv3
I0501 17:56:46.695804 13781 net.cpp:396] relu3 -> conv3 (in-place)
I0501 17:56:46.695811 13781 net.cpp:144] Setting up relu3
I0501 17:56:46.695816 13781 net.cpp:151] Top shape: 20 64 5 5 (32000)
I0501 17:56:46.695818 13781 net.cpp:159] Memory required for data: 2440080
I0501 17:56:46.695822 13781 layer_factory.hpp:77] Creating layer conv4
I0501 17:56:46.695829 13781 net.cpp:94] Creating Layer conv4
I0501 17:56:46.695833 13781 net.cpp:435] conv4 <- conv3
I0501 17:56:46.695838 13781 net.cpp:409] conv4 -> conv4
I0501 17:56:46.700268 13781 net.cpp:144] Setting up conv4
I0501 17:56:46.700281 13781 net.cpp:151] Top shape: 20 64 5 5 (32000)
I0501 17:56:46.700285 13781 net.cpp:159] Memory required for data: 2568080
I0501 17:56:46.700291 13781 layer_factory.hpp:77] Creating layer relu4
I0501 17:56:46.700297 13781 net.cpp:94] Creating Layer relu4
I0501 17:56:46.700301 13781 net.cpp:435] relu4 <- conv4
I0501 17:56:46.700306 13781 net.cpp:396] relu4 -> conv4 (in-place)
I0501 17:56:46.700312 13781 net.cpp:144] Setting up relu4
I0501 17:56:46.700317 13781 net.cpp:151] Top shape: 20 64 5 5 (32000)
I0501 17:56:46.700320 13781 net.cpp:159] Memory required for data: 2696080
I0501 17:56:46.700323 13781 layer_factory.hpp:77] Creating layer conv5
I0501 17:56:46.700330 13781 net.cpp:94] Creating Layer conv5
I0501 17:56:46.700335 13781 net.cpp:435] conv5 <- conv4
I0501 17:56:46.700338 13781 net.cpp:409] conv5 -> conv5
I0501 17:56:46.705245 13781 net.cpp:144] Setting up conv5
I0501 17:56:46.705258 13781 net.cpp:151] Top shape: 20 64 5 5 (32000)
I0501 17:56:46.705262 13781 net.cpp:159] Memory required for data: 2824080
I0501 17:56:46.705271 13781 layer_factory.hpp:77] Creating layer relu5
I0501 17:56:46.705276 13781 net.cpp:94] Creating Layer relu5
I0501 17:56:46.705281 13781 net.cpp:435] relu5 <- conv5
I0501 17:56:46.705286 13781 net.cpp:396] relu5 -> conv5 (in-place)
I0501 17:56:46.705293 13781 net.cpp:144] Setting up relu5
I0501 17:56:46.705297 13781 net.cpp:151] Top shape: 20 64 5 5 (32000)
I0501 17:56:46.705301 13781 net.cpp:159] Memory required for data: 2952080
I0501 17:56:46.705303 13781 layer_factory.hpp:77] Creating layer pool5
I0501 17:56:46.705308 13781 net.cpp:94] Creating Layer pool5
I0501 17:56:46.705312 13781 net.cpp:435] pool5 <- conv5
I0501 17:56:46.705315 13781 net.cpp:409] pool5 -> pool5
I0501 17:56:46.705356 13781 net.cpp:144] Setting up pool5
I0501 17:56:46.705363 13781 net.cpp:151] Top shape: 20 64 2 2 (5120)
I0501 17:56:46.705366 13781 net.cpp:159] Memory required for data: 2972560
I0501 17:56:46.705369 13781 layer_factory.hpp:77] Creating layer ip1
I0501 17:56:46.705377 13781 net.cpp:94] Creating Layer ip1
I0501 17:56:46.705380 13781 net.cpp:435] ip1 <- pool5
I0501 17:56:46.705385 13781 net.cpp:409] ip1 -> ip1
I0501 17:56:46.706708 13781 net.cpp:144] Setting up ip1
I0501 17:56:46.706722 13781 net.cpp:151] Top shape: 20 64 (1280)
I0501 17:56:46.706724 13781 net.cpp:159] Memory required for data: 2977680
I0501 17:56:46.706730 13781 layer_factory.hpp:77] Creating layer ip2
I0501 17:56:46.706737 13781 net.cpp:94] Creating Layer ip2
I0501 17:56:46.706745 13781 net.cpp:435] ip2 <- ip1
I0501 17:56:46.706753 13781 net.cpp:409] ip2 -> ip2
I0501 17:56:46.706975 13781 net.cpp:144] Setting up ip2
I0501 17:56:46.706984 13781 net.cpp:151] Top shape: 20 64 (1280)
I0501 17:56:46.706986 13781 net.cpp:159] Memory required for data: 2982800
I0501 17:56:46.706991 13781 layer_factory.hpp:77] Creating layer ip3
I0501 17:56:46.706997 13781 net.cpp:94] Creating Layer ip3
I0501 17:56:46.707001 13781 net.cpp:435] ip3 <- ip2
I0501 17:56:46.707006 13781 net.cpp:409] ip3 -> ip3
I0501 17:56:46.707119 13781 net.cpp:144] Setting up ip3
I0501 17:56:46.707126 13781 net.cpp:151] Top shape: 20 1 (20)
I0501 17:56:46.707129 13781 net.cpp:159] Memory required for data: 2982880
I0501 17:56:46.707134 13781 layer_factory.hpp:77] Creating layer loss
I0501 17:56:46.707145 13781 net.cpp:94] Creating Layer loss
I0501 17:56:46.707149 13781 net.cpp:435] loss <- ip3
I0501 17:56:46.707152 13781 net.cpp:435] loss <- label
I0501 17:56:46.707157 13781 net.cpp:409] loss -> loss
I0501 17:56:46.707216 13781 net.cpp:144] Setting up loss
…
I0501 17:56:46.733685 13781 net.cpp:323] The NetState phase (0) differed from the phase (1) specified by a rule in layer intercept
I0501 17:56:46.733700 13781 net.cpp:323] The NetState phase (0) differed from the phase (1) specified by a rule in layer accuracy
I0501 17:56:46.733788 13781 net.cpp:52] Initializing net from parameters: 
state {
  phase: TRAIN
}
layer {
  name: "parameters"
  type: "HDF5Data"
  top: "data"
  top: "label"
  include {
    phase: TRAIN
  }
  hdf5_data_param {
    source: "/home/purduethu/scratch/radon/d/deng106/CNNStatisticalModel/distributions/input/5_distributions_100_sample_size_train-distributions-path.txt"
    batch_size: 20
  }
}
layer {
  name: "conv1"
  type: "Convolution"
  bottom: "data"
  top: "conv1"
  param {
    lr_mult: 1
  }
  param {
    lr_mult: 2
  }
  convolution_param {
    num_output: 64
    pad: 2
    kernel_size: 5
    stride: 1
    weight_filler {
      type: "gaussian"
      std: 0.0001
    }
    bias_filler {
      type: "constant"
    }
  }
}
layer {
  name: "relu1"
  type: "ReLU"
  bottom: "conv1"
  top: "conv1"
}
layer {
  name: "conv2"
  type: "Convolution"
  bottom: "conv1"
  top: "conv2"
  param {
    lr_mult: 1
  }
  param {
    lr_mult: 2
  }
  convolution_param {
    num_output: 64
    pad: 2
    kernel_size: 5
    stride: 1
    weight_filler {
      type: "gaussian"
      std: 0.01
    }
    bias_filler {
      type: "constant"
    }
  }
}
layer {
  name: "relu2"
  type: "ReLU"
  bottom: "conv2"
  top: "conv2"
}
layer {
  name: "pool2"
  type: "Pooling"
  bottom: "conv2"
  top: "pool2"
  pooling_param {
    pool: MAX
    kernel_size: 3
    stride: 2
  }
}
layer {
  name: "conv3"
  type: "Convolution"
  bottom: "pool2"
  top: "conv3"
  param {
    lr_mult: 1
  }
  param {
    lr_mult: 2
  }
  convolution_param {
    num_output: 64
    pad: 2
    kernel_size: 5
    stride: 1
    weight_filler {
      type: "gaussian"
      std: 0.01
    }
    bias_filler {
      type: "constant"
    }
  }
}
layer {
  name: "relu3"
  type: "ReLU"
  bottom: "conv3"
  top: "conv3"
}
layer {
  name: "conv4"
  type: "Convolution"
  bottom: "conv3"
  top: "conv4"
  param {
    lr_mult: 1
  }
  param {
    lr_mult: 2
  }
  convolution_param {
    num_output: 64
    pad: 2
    kernel_size: 5
    stride: 1
    weight_filler {
      type: "gaussian"
      std: 0.01
    }
    bias_filler {
      type: "constant"
    }
  }
}
layer {
  name: "relu4"
  type: "ReLU"
  bottom: "conv4"
  top: "conv4"
}
layer {
  name: "conv5"
  type: "Convolution"
  bottom: "conv4"
  top: "conv5"
  param {
    lr_mult: 1
  }
  param {
    lr_mult: 2
  }
  convolution_param {
    num_output: 64
    pad: 2
    kernel_size: 5
    stride: 1
    weight_filler {
      type: "gaussian"
      std: 0.01
    }
    bias_filler {
      type: "constant"
    }
  }
}
layer {
  name: "relu5"
  type: "ReLU"
  bottom: "conv5"
  top: "conv5"
}
layer {
  name: "pool5"
  type: "Pooling"
  bottom: "conv5"
  top: "pool5"
  pooling_param {
    pool: AVE
    kernel_size: 3
    stride: 2
  }
}
layer {
  name: "ip1"
  type: "InnerProduct"
  bottom: "pool5"
  top: "ip1"
  param {
    lr_mult: 1
  }
  param {
    lr_mult: 2
  }
  inner_product_param {
    num_output: 64
    weight_filler {
      type: "gaussian"
      std: 0.1
    }
    bias_filler {
      type: "constant"
    }
  }
}
layer {
  name: "ip2"
  type: "InnerProduct"
  bottom: "ip1"
  top: "ip2"
  param {
    lr_mult: 1
  }
  param {
    lr_mult: 2
  }
  inner_product_param {
    num_output: 64
    weight_filler {
      type: "gaussian"
      std: 0.1
    }
    bias_filler {
      type: "constant"
    }
  }
}
layer {
  name: "ip3"
  type: "InnerProduct"
  bottom: "ip2"
  top: "ip3"
  param {
    lr_mult: 1
  }
  param {
    lr_mult: 2
  }
  inner_product_param {
    num_output: 50
    weight_filler {
      type: "gaussian"
      std: 0.1
    }
    bias_filler {
      type: "constant"
    }
  }
}
layer {
  name: "loss"
  type: "SoftmaxWithLoss"
  bottom: "ip3"
  bottom: "label"
  top: "loss"
}
I0501 17:56:46.733839 13781 layer_factory.hpp:77] Creating layer parameters
I0501 17:56:46.733847 13781 net.cpp:94] Creating Layer parameters
I0501 17:56:46.733851 13781 net.cpp:409] parameters -> data
I0501 17:56:46.733858 13781 net.cpp:409] parameters -> label
I0501 17:56:46.733865 13781 hdf5_data_layer.cpp:79] Loading list of HDF5 filenames from: /home/purduethu/scratch/radon/d/deng106/CNNStatisticalModel/distributions/input/5_distributions_100_sample_size_train-distributions-path.txt
I0501 17:56:46.733963 13781 hdf5_data_layer.cpp:93] Number of HDF5 files: 1
I0501 17:56:46.757490 13781 hdf5.cpp:35] Datatype class: H5T_INTEGER
I0501 17:56:46.757928 13781 net.cpp:144] Setting up parameters
I0501 17:56:46.757941 13781 net.cpp:151] Top shape: 20 1 10 10 (2000)
I0501 17:56:46.757946 13781 net.cpp:151] Top shape: 20 (20)
I0501 17:56:46.757951 13781 net.cpp:159] Memory required for data: 8080
I0501 17:56:46.757956 13781 layer_factory.hpp:77] Creating layer conv1
I0501 17:56:46.757972 13781 net.cpp:94] Creating Layer conv1
I0501 17:56:46.757977 13781 net.cpp:435] conv1 <- data
I0501 17:56:46.757983 13781 net.cpp:409] conv1 -> conv1
I0501 17:56:46.759682 13781 net.cpp:144] Setting up conv1
I0501 17:56:46.759696 13781 net.cpp:151] Top shape: 20 64 10 10 (128000)
I0501 17:56:46.759699 13781 net.cpp:159] Memory required for data: 520080
I0501 17:56:46.759709 13781 layer_factory.hpp:77] Creating layer relu1
I0501 17:56:46.759716 13781 net.cpp:94] Creating Layer relu1
I0501 17:56:46.759721 13781 net.cpp:435] relu1 <- conv1
I0501 17:56:46.759724 13781 net.cpp:396] relu1 -> conv1 (in-place)
I0501 17:56:46.759732 13781 net.cpp:144] Setting up relu1
I0501 17:56:46.759737 13781 net.cpp:151] Top shape: 20 64 10 10 (128000)
I0501 17:56:46.759739 13781 net.cpp:159] Memory required for data: 1032080
I0501 17:56:46.759742 13781 layer_factory.hpp:77] Creating layer conv2
I0501 17:56:46.759749 13781 net.cpp:94] Creating Layer conv2
I0501 17:56:46.759753 13781 net.cpp:435] conv2 <- conv1
I0501 17:56:46.759757 13781 net.cpp:409] conv2 -> conv2
I0501 17:56:46.765173 13781 net.cpp:144] Setting up conv2
I0501 17:56:46.765187 13781 net.cpp:151] Top shape: 20 64 10 10 (128000)
I0501 17:56:46.765192 13781 net.cpp:159] Memory required for data: 1544080
I0501 17:56:46.765198 13781 layer_factory.hpp:77] Creating layer relu2
I0501 17:56:46.765205 13781 net.cpp:94] Creating Layer relu2
I0501 17:56:46.765209 13781 net.cpp:435] relu2 <- conv2
I0501 17:56:46.765213 13781 net.cpp:396] relu2 -> conv2 (in-place)
I0501 17:56:46.765220 13781 net.cpp:144] Setting up relu2
I0501 17:56:46.765224 13781 net.cpp:151] Top shape: 20 64 10 10 (128000)
I0501 17:56:46.765228 13781 net.cpp:159] Memory required for data: 2056080
I0501 17:56:46.765230 13781 layer_factory.hpp:77] Creating layer pool2
I0501 17:56:46.765236 13781 net.cpp:94] Creating Layer pool2
I0501 17:56:46.765239 13781 net.cpp:435] pool2 <- conv2
I0501 17:56:46.765244 13781 net.cpp:409] pool2 -> pool2
I0501 17:56:46.765300 13781 net.cpp:144] Setting up pool2
I0501 17:56:46.765306 13781 net.cpp:151] Top shape: 20 64 5 5 (32000)
I0501 17:56:46.765311 13781 net.cpp:159] Memory required for data: 2184080
I0501 17:56:46.765313 13781 layer_factory.hpp:77] Creating layer conv3
I0501 17:56:46.765321 13781 net.cpp:94] Creating Layer conv3
I0501 17:56:46.765324 13781 net.cpp:435] conv3 <- pool2
I0501 17:56:46.765329 13781 net.cpp:409] conv3 -> conv3
I0501 17:56:46.770277 13781 net.cpp:144] Setting up conv3
I0501 17:56:46.770297 13781 net.cpp:151] Top shape: 20 64 5 5 (32000)
I0501 17:56:46.770300 13781 net.cpp:159] Memory required for data: 2312080
I0501 17:56:46.770308 13781 layer_factory.hpp:77] Creating layer relu3
I0501 17:56:46.770315 13781 net.cpp:94] Creating Layer relu3
I0501 17:56:46.770318 13781 net.cpp:435] relu3 <- conv3
I0501 17:56:46.770323 13781 net.cpp:396] relu3 -> conv3 (in-place)
I0501 17:56:46.770330 13781 net.cpp:144] Setting up relu3
I0501 17:56:46.770334 13781 net.cpp:151] Top shape: 20 64 5 5 (32000)
I0501 17:56:46.770337 13781 net.cpp:159] Memory required for data: 2440080
I0501 17:56:46.770340 13781 layer_factory.hpp:77] Creating layer conv4
I0501 17:56:46.770349 13781 net.cpp:94] Creating Layer conv4
I0501 17:56:46.770352 13781 net.cpp:435] conv4 <- conv3
I0501 17:56:46.770357 13781 net.cpp:409] conv4 -> conv4
I0501 17:56:46.776110 13781 net.cpp:144] Setting up conv4
I0501 17:56:46.776124 13781 net.cpp:151] Top shape: 20 64 5 5 (32000)
I0501 17:56:46.776129 13781 net.cpp:159] Memory required for data: 2568080
I0501 17:56:46.776134 13781 layer_factory.hpp:77] Creating layer relu4
I0501 17:56:46.776140 13781 net.cpp:94] Creating Layer relu4
I0501 17:56:46.776144 13781 net.cpp:435] relu4 <- conv4
I0501 17:56:46.776149 13781 net.cpp:396] relu4 -> conv4 (in-place)
I0501 17:56:46.776156 13781 net.cpp:144] Setting up relu4
I0501 17:56:46.776160 13781 net.cpp:151] Top shape: 20 64 5 5 (32000)
I0501 17:56:46.776163 13781 net.cpp:159] Memory required for data: 2696080
I0501 17:56:46.776166 13781 layer_factory.hpp:77] Creating layer conv5
I0501 17:56:46.776175 13781 net.cpp:94] Creating Layer conv5
I0501 17:56:46.776177 13781 net.cpp:435] conv5 <- conv4
I0501 17:56:46.776182 13781 net.cpp:409] conv5 -> conv5
I0501 17:56:46.780638 13781 net.cpp:144] Setting up conv5
I0501 17:56:46.780652 13781 net.cpp:151] Top shape: 20 64 5 5 (32000)
I0501 17:56:46.780655 13781 net.cpp:159] Memory required for data: 2824080
I0501 17:56:46.780664 13781 layer_factory.hpp:77] Creating layer relu5
I0501 17:56:46.780669 13781 net.cpp:94] Creating Layer relu5
I0501 17:56:46.780673 13781 net.cpp:435] relu5 <- conv5
I0501 17:56:46.780678 13781 net.cpp:396] relu5 -> conv5 (in-place)
I0501 17:56:46.780684 13781 net.cpp:144] Setting up relu5
I0501 17:56:46.780689 13781 net.cpp:151] Top shape: 20 64 5 5 (32000)
I0501 17:56:46.780691 13781 net.cpp:159] Memory required for data: 2952080
I0501 17:56:46.780694 13781 layer_factory.hpp:77] Creating layer pool5
I0501 17:56:46.780699 13781 net.cpp:94] Creating Layer pool5
I0501 17:56:46.780702 13781 net.cpp:435] pool5 <- conv5
I0501 17:56:46.780707 13781 net.cpp:409] pool5 -> pool5
I0501 17:56:46.780743 13781 net.cpp:144] Setting up pool5
I0501 17:56:46.780750 13781 net.cpp:151] Top shape: 20 64 2 2 (5120)
I0501 17:56:46.780753 13781 net.cpp:159] Memory required for data: 2972560
I0501 17:56:46.780756 13781 layer_factory.hpp:77] Creating layer ip1
I0501 17:56:46.780763 13781 net.cpp:94] Creating Layer ip1
I0501 17:56:46.780766 13781 net.cpp:435] ip1 <- pool5
I0501 17:56:46.780771 13781 net.cpp:409] ip1 -> ip1
I0501 17:56:46.781294 13781 net.cpp:144] Setting up ip1
I0501 17:56:46.781302 13781 net.cpp:151] Top shape: 20 64 (1280)
I0501 17:56:46.781306 13781 net.cpp:159] Memory required for data: 2977680
I0501 17:56:46.781311 13781 layer_factory.hpp:77] Creating layer ip2
I0501 17:56:46.781318 13781 net.cpp:94] Creating Layer ip2
I0501 17:56:46.781322 13781 net.cpp:435] ip2 <- ip1
I0501 17:56:46.781327 13781 net.cpp:409] ip2 -> ip2
I0501 17:56:46.781559 13781 net.cpp:144] Setting up ip2
I0501 17:56:46.781566 13781 net.cpp:151] Top shape: 20 64 (1280)
I0501 17:56:46.781569 13781 net.cpp:159] Memory required for data: 2982800
I0501 17:56:46.781574 13781 layer_factory.hpp:77] Creating layer ip3
I0501 17:56:46.781581 13781 net.cpp:94] Creating Layer ip3
I0501 17:56:46.781585 13781 net.cpp:435] ip3 <- ip2
I0501 17:56:46.781590 13781 net.cpp:409] ip3 -> ip3
I0501 17:56:46.781795 13781 net.cpp:144] Setting up ip3
I0501 17:56:46.781803 13781 net.cpp:151] Top shape: 20 50 (1000)
I0501 17:56:46.781810 13781 net.cpp:159] Memory required for data: 2986800
I0501 17:56:46.781816 13781 layer_factory.hpp:77] Creating layer loss
I0501 17:56:46.781822 13781 net.cpp:94] Creating Layer loss
I0501 17:56:46.781826 13781 net.cpp:435] loss <- ip3
I0501 17:56:46.781829 13781 net.cpp:435] loss <- label
I0501 17:56:46.781833 13781 net.cpp:409] loss -> loss
I0501 17:56:46.781841 13781 layer_factory.hpp:77] Creating layer loss
…
I0501 17:56:46.783174 13781 solver.cpp:181] Creating test net (#0) specified by net file: ./protocol/dis_5_100_dimension.protocol_distribution
I0501 17:56:46.783200 13781 net.cpp:323] The NetState phase (1) differed from the phase (0) specified by a rule in layer parameters
I0501 17:56:46.783298 13781 net.cpp:52] Initializing net from parameters: 
state {
  phase: TEST
}
layer {
  name: "intercept"
  type: "HDF5Data"
  top: "data"
  top: "label"
  include {
    phase: TEST
  }
  hdf5_data_param {
    source: "/home/purduethu/scratch/radon/d/deng106/CNNStatisticalModel/distributions/input/5_distributions_100_sample_size_test-distributions-path.txt"
    batch_size: 20
  }
}
layer {
  name: "conv1"
  type: "Convolution"
  bottom: "data"
  top: "conv1"
  param {
    lr_mult: 1
  }
  param {
    lr_mult: 2
  }
  convolution_param {
    num_output: 64
    pad: 2
    kernel_size: 5
    stride: 1
    weight_filler {
      type: "gaussian"
      std: 0.0001
    }
    bias_filler {
      type: "constant"
    }
  }
}
layer {
  name: "relu1"
  type: "ReLU"
  bottom: "conv1"
  top: "conv1"
}
layer {
  name: "conv2"
  type: "Convolution"
  bottom: "conv1"
  top: "conv2"
  param {
    lr_mult: 1
  }
  param {
    lr_mult: 2
  }
  convolution_param {
    num_output: 64
    pad: 2
    kernel_size: 5
    stride: 1
    weight_filler {
      type: "gaussian"
      std: 0.01
    }
    bias_filler {
      type: "constant"
    }
  }
}
layer {
  name: "relu2"
  type: "ReLU"
  bottom: "conv2"
  top: "conv2"
}
layer {
  name: "pool2"
  type: "Pooling"
  bottom: "conv2"
  top: "pool2"
  pooling_param {
    pool: MAX
    kernel_size: 3
    stride: 2
  }
}
layer {
  name: "conv3"
  type: "Convolution"
  bottom: "pool2"
  top: "conv3"
  param {
    lr_mult: 1
  }
  param {
    lr_mult: 2
  }
  convolution_param {
    num_output: 64
    pad: 2
    kernel_size: 5
    stride: 1
    weight_filler {
      type: "gaussian"
      std: 0.01
    }
    bias_filler {
      type: "constant"
    }
  }
}
layer {
  name: "relu3"
  type: "ReLU"
  bottom: "conv3"
  top: "conv3"
}
layer {
  name: "conv4"
  type: "Convolution"
  bottom: "conv3"
  top: "conv4"
  param {
    lr_mult: 1
  }
  param {
    lr_mult: 2
  }
  convolution_param {
    num_output: 64
    pad: 2
    kernel_size: 5
    stride: 1
    weight_filler {
      type: "gaussian"
      std: 0.01
    }
    bias_filler {
      type: "constant"
    }
  }
}
layer {
  name: "relu4"
  type: "ReLU"
  bottom: "conv4"
  top: "conv4"
}
layer {
  name: "conv5"
  type: "Convolution"
  bottom: "conv4"
  top: "conv5"
  param {
    lr_mult: 1
  }
  param {
    lr_mult: 2
  }
  convolution_param {
    num_output: 64
    pad: 2
    kernel_size: 5
    stride: 1
    weight_filler {
      type: "gaussian"
      std: 0.01
    }
    bias_filler {
      type: "constant"
    }
  }
}
layer {
  name: "relu5"
  type: "ReLU"
  bottom: "conv5"
  top: "conv5"
}
layer {
  name: "pool5"
  type: "Pooling"
  bottom: "conv5"
  top: "pool5"
  pooling_param {
    pool: AVE
    kernel_size: 3
    stride: 2
  }
}
layer {
  name: "ip1"
  type: "InnerProduct"
  bottom: "pool5"
  top: "ip1"
  param {
    lr_mult: 1
  }
  param {
    lr_mult: 2
  }
  inner_product_param {
    num_output: 64
    weight_filler {
      type: "gaussian"
      std: 0.1
    }
    bias_filler {
      type: "constant"
    }
  }
}
layer {
  name: "ip2"
  type: "InnerProduct"
  bottom: "ip1"
  top: "ip2"
  param {
    lr_mult: 1
  }
  param {
    lr_mult: 2
  }
  inner_product_param {
    num_output: 64
    weight_filler {
      type: "gaussian"
      std: 0.1
    }
    bias_filler {
      type: "constant"
    }
  }
}
layer {
  name: "ip3"
  type: "InnerProduct"
  bottom: "ip2"
  top: "ip3"
  param {
    lr_mult: 1
  }
  param {
    lr_mult: 2
  }
  inner_product_param {
    num_output: 50
    weight_filler {
      type: "gaussian"
      std: 0.1
    }
    bias_filler {
      type: "constant"
    }
  }
}
layer {
  name: "accuracy"
  type: "Accuracy"
  bottom: "ip3"
  bottom: "label"
  top: "accuracy"
  include {
    phase: TEST
  }
}
layer {
  name: "loss"
  type: "SoftmaxWithLoss"
  bottom: "ip3"
  bottom: "label"
  top: "loss"
}
I0501 17:56:46.783367 13781 layer_factory.hpp:77] Creating layer intercept
I0501 17:56:46.783376 13781 net.cpp:94] Creating Layer intercept
I0501 17:56:46.783380 13781 net.cpp:409] intercept -> data
I0501 17:56:46.783387 13781 net.cpp:409] intercept -> label
I0501 17:56:46.783393 13781 hdf5_data_layer.cpp:79] Loading list of HDF5 filenames from: /home/purduethu/scratch/radon/d/deng106/CNNStatisticalModel/distributions/input/5_distributions_100_sample_size_test-distributions-path.txt
I0501 17:56:46.783511 13781 hdf5_data_layer.cpp:93] Number of HDF5 files: 1
I0501 17:56:46.790549 13781 net.cpp:144] Setting up intercept
I0501 17:56:46.790570 13781 net.cpp:151] Top shape: 20 1 10 10 (2000)
I0501 17:56:46.790575 13781 net.cpp:151] Top shape: 20 (20)
I0501 17:56:46.790577 13781 net.cpp:159] Memory required for data: 8080
I0501 17:56:46.790582 13781 layer_factory.hpp:77] Creating layer label_intercept_1_split
I0501 17:56:46.790596 13781 net.cpp:94] Creating Layer label_intercept_1_split
I0501 17:56:46.790599 13781 net.cpp:435] label_intercept_1_split <- label
I0501 17:56:46.790604 13781 net.cpp:409] label_intercept_1_split -> label_intercept_1_split_0
I0501 17:56:46.790612 13781 net.cpp:409] label_intercept_1_split -> label_intercept_1_split_1
I0501 17:56:46.790655 13781 net.cpp:144] Setting up label_intercept_1_split
I0501 17:56:46.790662 13781 net.cpp:151] Top shape: 20 (20)
I0501 17:56:46.790665 13781 net.cpp:151] Top shape: 20 (20)
I0501 17:56:46.790668 13781 net.cpp:159] Memory required for data: 8240
I0501 17:56:46.790671 13781 layer_factory.hpp:77] Creating layer conv1
I0501 17:56:46.790679 13781 net.cpp:94] Creating Layer conv1
I0501 17:56:46.790683 13781 net.cpp:435] conv1 <- data
I0501 17:56:46.790688 13781 net.cpp:409] conv1 -> conv1
I0501 17:56:46.791412 13781 net.cpp:144] Setting up conv1
I0501 17:56:46.791425 13781 net.cpp:151] Top shape: 20 64 10 10 (128000)
I0501 17:56:46.791429 13781 net.cpp:159] Memory required for data: 520240
I0501 17:56:46.791442 13781 layer_factory.hpp:77] Creating layer relu1
I0501 17:56:46.791450 13781 net.cpp:94] Creating Layer relu1
I0501 17:56:46.791453 13781 net.cpp:435] relu1 <- conv1
I0501 17:56:46.791457 13781 net.cpp:396] relu1 -> conv1 (in-place)
I0501 17:56:46.791465 13781 net.cpp:144] Setting up relu1
I0501 17:56:46.791468 13781 net.cpp:151] Top shape: 20 64 10 10 (128000)
I0501 17:56:46.791471 13781 net.cpp:159] Memory required for data: 1032240
I0501 17:56:46.791474 13781 layer_factory.hpp:77] Creating layer conv2
I0501 17:56:46.791482 13781 net.cpp:94] Creating Layer conv2
I0501 17:56:46.791486 13781 net.cpp:435] conv2 <- conv1
I0501 17:56:46.791491 13781 net.cpp:409] conv2 -> conv2
I0501 17:56:46.795490 13781 net.cpp:144] Setting up conv2
I0501 17:56:46.795503 13781 net.cpp:151] Top shape: 20 64 10 10 (128000)
I0501 17:56:46.795507 13781 net.cpp:159] Memory required for data: 1544240
I0501 17:56:46.795514 13781 layer_factory.hpp:77] Creating layer relu2
I0501 17:56:46.795521 13781 net.cpp:94] Creating Layer relu2
I0501 17:56:46.795524 13781 net.cpp:435] relu2 <- conv2
I0501 17:56:46.795528 13781 net.cpp:396] relu2 -> conv2 (in-place)
I0501 17:56:46.795536 13781 net.cpp:144] Setting up relu2
I0501 17:56:46.795539 13781 net.cpp:151] Top shape: 20 64 10 10 (128000)
I0501 17:56:46.795542 13781 net.cpp:159] Memory required for data: 2056240
I0501 17:56:46.795545 13781 layer_factory.hpp:77] Creating layer pool2
I0501 17:56:46.795552 13781 net.cpp:94] Creating Layer pool2
I0501 17:56:46.795554 13781 net.cpp:435] pool2 <- conv2
I0501 17:56:46.795558 13781 net.cpp:409] pool2 -> pool2
I0501 17:56:46.795614 13781 net.cpp:144] Setting up pool2
I0501 17:56:46.795620 13781 net.cpp:151] Top shape: 20 64 5 5 (32000)
I0501 17:56:46.795624 13781 net.cpp:159] Memory required for data: 2184240
I0501 17:56:46.795626 13781 layer_factory.hpp:77] Creating layer conv3
I0501 17:56:46.795634 13781 net.cpp:94] Creating Layer conv3
I0501 17:56:46.795637 13781 net.cpp:435] conv3 <- pool2
I0501 17:56:46.795642 13781 net.cpp:409] conv3 -> conv3
I0501 17:56:46.799157 13781 net.cpp:144] Setting up conv3
I0501 17:56:46.799170 13781 net.cpp:151] Top shape: 20 64 5 5 (32000)
I0501 17:56:46.799175 13781 net.cpp:159] Memory required for data: 2312240
I0501 17:56:46.799182 13781 layer_factory.hpp:77] Creating layer relu3
I0501 17:56:46.799188 13781 net.cpp:94] Creating Layer relu3
I0501 17:56:46.799192 13781 net.cpp:435] relu3 <- conv3
I0501 17:56:46.799197 13781 net.cpp:396] relu3 -> conv3 (in-place)
I0501 17:56:46.799203 13781 net.cpp:144] Setting up relu3
I0501 17:56:46.799208 13781 net.cpp:151] Top shape: 20 64 5 5 (32000)
I0501 17:56:46.799211 13781 net.cpp:159] Memory required for data: 2440240
I0501 17:56:46.799214 13781 layer_factory.hpp:77] Creating layer conv4
I0501 17:56:46.799221 13781 net.cpp:94] Creating Layer conv4
I0501 17:56:46.799224 13781 net.cpp:435] conv4 <- conv3
I0501 17:56:46.799229 13781 net.cpp:409] conv4 -> conv4
I0501 17:56:46.802749 13781 net.cpp:144] Setting up conv4
I0501 17:56:46.802762 13781 net.cpp:151] Top shape: 20 64 5 5 (32000)
I0501 17:56:46.802767 13781 net.cpp:159] Memory required for data: 2568240
I0501 17:56:46.802772 13781 layer_factory.hpp:77] Creating layer relu4
I0501 17:56:46.802778 13781 net.cpp:94] Creating Layer relu4
I0501 17:56:46.802781 13781 net.cpp:435] relu4 <- conv4
I0501 17:56:46.802785 13781 net.cpp:396] relu4 -> conv4 (in-place)
I0501 17:56:46.802793 13781 net.cpp:144] Setting up relu4
I0501 17:56:46.802796 13781 net.cpp:151] Top shape: 20 64 5 5 (32000)
I0501 17:56:46.802799 13781 net.cpp:159] Memory required for data: 2696240
I0501 17:56:46.802803 13781 layer_factory.hpp:77] Creating layer conv5
I0501 17:56:46.802809 13781 net.cpp:94] Creating Layer conv5
I0501 17:56:46.802814 13781 net.cpp:435] conv5 <- conv4
I0501 17:56:46.802817 13781 net.cpp:409] conv5 -> conv5
I0501 17:56:46.807538 13781 net.cpp:144] Setting up conv5
I0501 17:56:46.807552 13781 net.cpp:151] Top shape: 20 64 5 5 (32000)
I0501 17:56:46.807556 13781 net.cpp:159] Memory required for data: 2824240
I0501 17:56:46.807569 13781 layer_factory.hpp:77] Creating layer relu5
I0501 17:56:46.807575 13781 net.cpp:94] Creating Layer relu5
I0501 17:56:46.807579 13781 net.cpp:435] relu5 <- conv5
I0501 17:56:46.807584 13781 net.cpp:396] relu5 -> conv5 (in-place)
I0501 17:56:46.807590 13781 net.cpp:144] Setting up relu5
I0501 17:56:46.807595 13781 net.cpp:151] Top shape: 20 64 5 5 (32000)
I0501 17:56:46.807598 13781 net.cpp:159] Memory required for data: 2952240
I0501 17:56:46.807601 13781 layer_factory.hpp:77] Creating layer pool5
I0501 17:56:46.807606 13781 net.cpp:94] Creating Layer pool5
I0501 17:56:46.807610 13781 net.cpp:435] pool5 <- conv5
I0501 17:56:46.807613 13781 net.cpp:409] pool5 -> pool5
I0501 17:56:46.807651 13781 net.cpp:144] Setting up pool5
I0501 17:56:46.807658 13781 net.cpp:151] Top shape: 20 64 2 2 (5120)
I0501 17:56:46.807662 13781 net.cpp:159] Memory required for data: 2972720
I0501 17:56:46.807664 13781 layer_factory.hpp:77] Creating layer ip1
I0501 17:56:46.807672 13781 net.cpp:94] Creating Layer ip1
I0501 17:56:46.807674 13781 net.cpp:435] ip1 <- pool5
I0501 17:56:46.807679 13781 net.cpp:409] ip1 -> ip1
I0501 17:56:46.808209 13781 net.cpp:144] Setting up ip1
I0501 17:56:46.808218 13781 net.cpp:151] Top shape: 20 64 (1280)
I0501 17:56:46.808220 13781 net.cpp:159] Memory required for data: 2977840
I0501 17:56:46.808225 13781 layer_factory.hpp:77] Creating layer ip2
I0501 17:56:46.808231 13781 net.cpp:94] Creating Layer ip2
I0501 17:56:46.808234 13781 net.cpp:435] ip2 <- ip1
I0501 17:56:46.808239 13781 net.cpp:409] ip2 -> ip2
I0501 17:56:46.808461 13781 net.cpp:144] Setting up ip2
I0501 17:56:46.808468 13781 net.cpp:151] Top shape: 20 64 (1280)
I0501 17:56:46.808472 13781 net.cpp:159] Memory required for data: 2982960
I0501 17:56:46.808477 13781 layer_factory.hpp:77] Creating layer ip3
I0501 17:56:46.808483 13781 net.cpp:94] Creating Layer ip3
I0501 17:56:46.808486 13781 net.cpp:435] ip3 <- ip2
I0501 17:56:46.808491 13781 net.cpp:409] ip3 -> ip3
I0501 17:56:46.808703 13781 net.cpp:144] Setting up ip3
I0501 17:56:46.808712 13781 net.cpp:151] Top shape: 20 50 (1000)
I0501 17:56:46.808715 13781 net.cpp:159] Memory required for data: 2986960
I0501 17:56:46.808720 13781 layer_factory.hpp:77] Creating layer ip3_ip3_0_split
I0501 17:56:46.808725 13781 net.cpp:94] Creating Layer ip3_ip3_0_split
I0501 17:56:46.808729 13781 net.cpp:435] ip3_ip3_0_split <- ip3
I0501 17:56:46.808733 13781 net.cpp:409] ip3_ip3_0_split -> ip3_ip3_0_split_0
I0501 17:56:46.808738 13781 net.cpp:409] ip3_ip3_0_split -> ip3_ip3_0_split_1
I0501 17:56:46.808779 13781 net.cpp:144] Setting up ip3_ip3_0_split
I0501 17:56:46.808784 13781 net.cpp:151] Top shape: 20 50 (1000)
I0501 17:56:46.808789 13781 net.cpp:151] Top shape: 20 50 (1000)
I0501 17:56:46.808791 13781 net.cpp:159] Memory required for data: 2994960
I0501 17:56:46.808794 13781 layer_factory.hpp:77] Creating layer accuracy
I0501 17:56:46.808799 13781 net.cpp:94] Creating Layer accuracy
I0501 17:56:46.808802 13781 net.cpp:435] accuracy <- ip3_ip3_0_split_0
I0501 17:56:46.808806 13781 net.cpp:435] accuracy <- label_intercept_1_split_0
I0501 17:56:46.808810 13781 net.cpp:409] accuracy -> accuracy
…
