…
I0507 20:26:23.861578  7048 net.cpp:323] The NetState phase (0) differed from the phase (1) specified by a rule in layer intercept
I0507 20:26:23.861594  7048 net.cpp:323] The NetState phase (0) differed from the phase (1) specified by a rule in layer loss
I0507 20:26:23.861676  7048 net.cpp:52] Initializing net from parameters: 
state {
  phase: TRAIN
}
layer {
  name: "parameters"
  type: "HDF5Data"
  top: "data"
  top: "label"
  include {
    phase: TRAIN
  }
  hdf5_data_param {
    source: "/home/purduethu/scratch/radon/d/deng106/CNNStatisticalModel/distributions/input/20_distributions_900_sample_size_train-parameters-path.txt"
    batch_size: 20
  }
}
layer {
  name: "conv1"
  type: "Convolution"
  bottom: "data"
  top: "conv1"
  param {
    lr_mult: 1
  }
  param {
    lr_mult: 2
  }
  convolution_param {
    num_output: 64
    pad: 2
    kernel_size: 5
    stride: 1
    weight_filler {
      type: "gaussian"
      std: 0.0001
    }
    bias_filler {
      type: "constant"
    }
  }
}
layer {
  name: "relu1"
  type: "ReLU"
  bottom: "conv1"
  top: "conv1"
}
layer {
  name: "conv2"
  type: "Convolution"
  bottom: "conv1"
  top: "conv2"
  param {
    lr_mult: 1
  }
  param {
    lr_mult: 2
  }
  convolution_param {
    num_output: 64
    pad: 2
    kernel_size: 5
    stride: 1
    weight_filler {
      type: "gaussian"
      std: 0.01
    }
    bias_filler {
      type: "constant"
    }
  }
}
layer {
  name: "relu2"
  type: "ReLU"
  bottom: "conv2"
  top: "conv2"
}
layer {
  name: "pool2"
  type: "Pooling"
  bottom: "conv2"
  top: "pool2"
  pooling_param {
    pool: MAX
    kernel_size: 3
    stride: 2
  }
}
layer {
  name: "conv3"
  type: "Convolution"
  bottom: "pool2"
  top: "conv3"
  param {
    lr_mult: 1
  }
  param {
    lr_mult: 2
  }
  convolution_param {
    num_output: 64
    pad: 2
    kernel_size: 5
    stride: 1
    weight_filler {
      type: "gaussian"
      std: 0.01
    }
    bias_filler {
      type: "constant"
    }
  }
}
layer {
  name: "relu3"
  type: "ReLU"
  bottom: "conv3"
  top: "conv3"
}
layer {
  name: "conv4"
  type: "Convolution"
  bottom: "conv3"
  top: "conv4"
  param {
    lr_mult: 1
  }
  param {
    lr_mult: 2
  }
  convolution_param {
    num_output: 64
    pad: 2
    kernel_size: 5
    stride: 1
    weight_filler {
      type: "gaussian"
      std: 0.01
    }
    bias_filler {
      type: "constant"
    }
  }
}
layer {
  name: "relu4"
  type: "ReLU"
  bottom: "conv4"
  top: "conv4"
}
layer {
  name: "conv5"
  type: "Convolution"
  bottom: "conv4"
  top: "conv5"
  param {
    lr_mult: 1
  }
  param {
    lr_mult: 2
  }
  convolution_param {
    num_output: 64
    pad: 2
    kernel_size: 5
    stride: 1
    weight_filler {
      type: "gaussian"
      std: 0.01
    }
    bias_filler {
      type: "constant"
    }
  }
}
layer {
  name: "relu5"
  type: "ReLU"
  bottom: "conv5"
  top: "conv5"
}
layer {
  name: "pool5"
  type: "Pooling"
  bottom: "conv5"
  top: "pool5"
  pooling_param {
    pool: AVE
    kernel_size: 3
    stride: 2
  }
}
layer {
  name: "ip1"
  type: "InnerProduct"
  bottom: "pool5"
  top: "ip1"
  param {
    lr_mult: 1
  }
  param {
    lr_mult: 2
  }
  inner_product_param {
    num_output: 64
    weight_filler {
      type: "gaussian"
      std: 0.1
    }
    bias_filler {
      type: "constant"
    }
  }
}
layer {
  name: "ip2"
  type: "InnerProduct"
  bottom: "ip1"
  top: "ip2"
  param {
    lr_mult: 1
  }
  param {
    lr_mult: 2
  }
  inner_product_param {
    num_output: 64
    weight_filler {
      type: "gaussian"
      std: 0.1
    }
    bias_filler {
      type: "constant"
    }
  }
}
layer {
  name: "ip3"
  type: "InnerProduct"
  bottom: "ip2"
  top: "ip3"
  param {
    lr_mult: 1
  }
  param {
    lr_mult: 2
  }
  inner_product_param {
    num_output: 1
    weight_filler {
      type: "gaussian"
      std: 0.1
    }
    bias_filler {
      type: "constant"
    }
  }
}
layer {
  name: "loss"
  type: "HuberLoss"
  bottom: "ip3"
  bottom: "label"
  top: "loss"
  include {
    phase: TRAIN
  }
}
I0507 20:26:23.861729  7048 layer_factory.hpp:77] Creating layer parameters
I0507 20:26:23.861742  7048 net.cpp:94] Creating Layer parameters
I0507 20:26:23.861747  7048 net.cpp:409] parameters -> data
I0507 20:26:23.861755  7048 net.cpp:409] parameters -> label
I0507 20:26:23.861766  7048 hdf5_data_layer.cpp:79] Loading list of HDF5 filenames from: /home/purduethu/scratch/radon/d/deng106/CNNStatisticalModel/distributions/input/20_distributions_900_sample_size_train-parameters-path.txt
I0507 20:26:23.861780  7048 hdf5_data_layer.cpp:93] Number of HDF5 files: 1
I0507 20:26:23.862329  7048 hdf5.cpp:32] Datatype class: H5T_FLOAT
I0507 20:26:24.438344  7048 net.cpp:144] Setting up parameters
I0507 20:26:24.438372  7048 net.cpp:151] Top shape: 20 1 30 30 (18000)
I0507 20:26:24.438377  7048 net.cpp:151] Top shape: 20 (20)
I0507 20:26:24.438381  7048 net.cpp:159] Memory required for data: 72080
I0507 20:26:24.438387  7048 layer_factory.hpp:77] Creating layer conv1
I0507 20:26:24.438403  7048 net.cpp:94] Creating Layer conv1
I0507 20:26:24.438407  7048 net.cpp:435] conv1 <- data
I0507 20:26:24.438415  7048 net.cpp:409] conv1 -> conv1
I0507 20:26:24.445034  7048 net.cpp:144] Setting up conv1
I0507 20:26:24.445050  7048 net.cpp:151] Top shape: 20 64 30 30 (1152000)
I0507 20:26:24.445053  7048 net.cpp:159] Memory required for data: 4680080
I0507 20:26:24.445063  7048 layer_factory.hpp:77] Creating layer relu1
I0507 20:26:24.445071  7048 net.cpp:94] Creating Layer relu1
I0507 20:26:24.445075  7048 net.cpp:435] relu1 <- conv1
I0507 20:26:24.445080  7048 net.cpp:396] relu1 -> conv1 (in-place)
I0507 20:26:24.445091  7048 net.cpp:144] Setting up relu1
I0507 20:26:24.445096  7048 net.cpp:151] Top shape: 20 64 30 30 (1152000)
I0507 20:26:24.445097  7048 net.cpp:159] Memory required for data: 9288080
I0507 20:26:24.445101  7048 layer_factory.hpp:77] Creating layer conv2
I0507 20:26:24.445108  7048 net.cpp:94] Creating Layer conv2
I0507 20:26:24.445112  7048 net.cpp:435] conv2 <- conv1
I0507 20:26:24.445116  7048 net.cpp:409] conv2 -> conv2
I0507 20:26:24.459463  7048 net.cpp:144] Setting up conv2
I0507 20:26:24.459478  7048 net.cpp:151] Top shape: 20 64 30 30 (1152000)
I0507 20:26:24.459481  7048 net.cpp:159] Memory required for data: 13896080
I0507 20:26:24.459491  7048 layer_factory.hpp:77] Creating layer relu2
I0507 20:26:24.459496  7048 net.cpp:94] Creating Layer relu2
I0507 20:26:24.459501  7048 net.cpp:435] relu2 <- conv2
I0507 20:26:24.459504  7048 net.cpp:396] relu2 -> conv2 (in-place)
I0507 20:26:24.459511  7048 net.cpp:144] Setting up relu2
I0507 20:26:24.459516  7048 net.cpp:151] Top shape: 20 64 30 30 (1152000)
I0507 20:26:24.459518  7048 net.cpp:159] Memory required for data: 18504080
I0507 20:26:24.459522  7048 layer_factory.hpp:77] Creating layer pool2
I0507 20:26:24.459534  7048 net.cpp:94] Creating Layer pool2
I0507 20:26:24.459537  7048 net.cpp:435] pool2 <- conv2
I0507 20:26:24.459542  7048 net.cpp:409] pool2 -> pool2
I0507 20:26:24.459592  7048 net.cpp:144] Setting up pool2
I0507 20:26:24.459599  7048 net.cpp:151] Top shape: 20 64 15 15 (288000)
I0507 20:26:24.459602  7048 net.cpp:159] Memory required for data: 19656080
I0507 20:26:24.459606  7048 layer_factory.hpp:77] Creating layer conv3
I0507 20:26:24.459614  7048 net.cpp:94] Creating Layer conv3
I0507 20:26:24.459617  7048 net.cpp:435] conv3 <- pool2
I0507 20:26:24.459622  7048 net.cpp:409] conv3 -> conv3
I0507 20:26:24.468004  7048 net.cpp:144] Setting up conv3
I0507 20:26:24.468019  7048 net.cpp:151] Top shape: 20 64 15 15 (288000)
I0507 20:26:24.468022  7048 net.cpp:159] Memory required for data: 20808080
I0507 20:26:24.468030  7048 layer_factory.hpp:77] Creating layer relu3
I0507 20:26:24.468036  7048 net.cpp:94] Creating Layer relu3
I0507 20:26:24.468040  7048 net.cpp:435] relu3 <- conv3
I0507 20:26:24.468045  7048 net.cpp:396] relu3 -> conv3 (in-place)
I0507 20:26:24.468052  7048 net.cpp:144] Setting up relu3
I0507 20:26:24.468056  7048 net.cpp:151] Top shape: 20 64 15 15 (288000)
I0507 20:26:24.468060  7048 net.cpp:159] Memory required for data: 21960080
I0507 20:26:24.468062  7048 layer_factory.hpp:77] Creating layer conv4
I0507 20:26:24.468071  7048 net.cpp:94] Creating Layer conv4
I0507 20:26:24.468075  7048 net.cpp:435] conv4 <- conv3
I0507 20:26:24.468080  7048 net.cpp:409] conv4 -> conv4
I0507 20:26:24.475538  7048 net.cpp:144] Setting up conv4
I0507 20:26:24.475553  7048 net.cpp:151] Top shape: 20 64 15 15 (288000)
I0507 20:26:24.475558  7048 net.cpp:159] Memory required for data: 23112080
I0507 20:26:24.475564  7048 layer_factory.hpp:77] Creating layer relu4
I0507 20:26:24.475569  7048 net.cpp:94] Creating Layer relu4
I0507 20:26:24.475574  7048 net.cpp:435] relu4 <- conv4
I0507 20:26:24.475577  7048 net.cpp:396] relu4 -> conv4 (in-place)
I0507 20:26:24.475584  7048 net.cpp:144] Setting up relu4
I0507 20:26:24.475589  7048 net.cpp:151] Top shape: 20 64 15 15 (288000)
I0507 20:26:24.475592  7048 net.cpp:159] Memory required for data: 24264080
I0507 20:26:24.475595  7048 layer_factory.hpp:77] Creating layer conv5
I0507 20:26:24.475602  7048 net.cpp:94] Creating Layer conv5
I0507 20:26:24.475606  7048 net.cpp:435] conv5 <- conv4
I0507 20:26:24.475610  7048 net.cpp:409] conv5 -> conv5
I0507 20:26:24.483916  7048 net.cpp:144] Setting up conv5
I0507 20:26:24.483930  7048 net.cpp:151] Top shape: 20 64 15 15 (288000)
I0507 20:26:24.483935  7048 net.cpp:159] Memory required for data: 25416080
I0507 20:26:24.483943  7048 layer_factory.hpp:77] Creating layer relu5
I0507 20:26:24.483949  7048 net.cpp:94] Creating Layer relu5
I0507 20:26:24.483953  7048 net.cpp:435] relu5 <- conv5
I0507 20:26:24.483958  7048 net.cpp:396] relu5 -> conv5 (in-place)
I0507 20:26:24.483965  7048 net.cpp:144] Setting up relu5
I0507 20:26:24.483969  7048 net.cpp:151] Top shape: 20 64 15 15 (288000)
I0507 20:26:24.483973  7048 net.cpp:159] Memory required for data: 26568080
I0507 20:26:24.483975  7048 layer_factory.hpp:77] Creating layer pool5
I0507 20:26:24.483980  7048 net.cpp:94] Creating Layer pool5
I0507 20:26:24.483983  7048 net.cpp:435] pool5 <- conv5
I0507 20:26:24.483988  7048 net.cpp:409] pool5 -> pool5
I0507 20:26:24.484025  7048 net.cpp:144] Setting up pool5
I0507 20:26:24.484032  7048 net.cpp:151] Top shape: 20 64 7 7 (62720)
I0507 20:26:24.484035  7048 net.cpp:159] Memory required for data: 26818960
I0507 20:26:24.484038  7048 layer_factory.hpp:77] Creating layer ip1
I0507 20:26:24.484045  7048 net.cpp:94] Creating Layer ip1
I0507 20:26:24.484048  7048 net.cpp:435] ip1 <- pool5
I0507 20:26:24.484053  7048 net.cpp:409] ip1 -> ip1
I0507 20:26:24.488909  7048 net.cpp:144] Setting up ip1
I0507 20:26:24.488919  7048 net.cpp:151] Top shape: 20 64 (1280)
I0507 20:26:24.488922  7048 net.cpp:159] Memory required for data: 26824080
I0507 20:26:24.488929  7048 layer_factory.hpp:77] Creating layer ip2
I0507 20:26:24.488934  7048 net.cpp:94] Creating Layer ip2
I0507 20:26:24.488942  7048 net.cpp:435] ip2 <- ip1
I0507 20:26:24.488947  7048 net.cpp:409] ip2 -> ip2
I0507 20:26:24.489154  7048 net.cpp:144] Setting up ip2
I0507 20:26:24.489161  7048 net.cpp:151] Top shape: 20 64 (1280)
I0507 20:26:24.489164  7048 net.cpp:159] Memory required for data: 26829200
I0507 20:26:24.489169  7048 layer_factory.hpp:77] Creating layer ip3
I0507 20:26:24.489176  7048 net.cpp:94] Creating Layer ip3
I0507 20:26:24.489178  7048 net.cpp:435] ip3 <- ip2
I0507 20:26:24.489183  7048 net.cpp:409] ip3 -> ip3
I0507 20:26:24.489280  7048 net.cpp:144] Setting up ip3
I0507 20:26:24.489287  7048 net.cpp:151] Top shape: 20 1 (20)
I0507 20:26:24.489290  7048 net.cpp:159] Memory required for data: 26829280
I0507 20:26:24.489295  7048 layer_factory.hpp:77] Creating layer loss
I0507 20:26:24.489305  7048 net.cpp:94] Creating Layer loss
I0507 20:26:24.489308  7048 net.cpp:435] loss <- ip3
I0507 20:26:24.489312  7048 net.cpp:435] loss <- label
I0507 20:26:24.489316  7048 net.cpp:409] loss -> loss
I0507 20:26:24.489367  7048 net.cpp:144] Setting up loss
…
I0507 20:26:24.664278  7048 net.cpp:323] The NetState phase (0) differed from the phase (1) specified by a rule in layer intercept
I0507 20:26:24.664294  7048 net.cpp:323] The NetState phase (0) differed from the phase (1) specified by a rule in layer accuracy
I0507 20:26:24.664382  7048 net.cpp:52] Initializing net from parameters: 
state {
  phase: TRAIN
}
layer {
  name: "parameters"
  type: "HDF5Data"
  top: "data"
  top: "label"
  include {
    phase: TRAIN
  }
  hdf5_data_param {
    source: "/home/purduethu/scratch/radon/d/deng106/CNNStatisticalModel/distributions/input/20_distributions_900_sample_size_train-distributions-path.txt"
    batch_size: 20
  }
}
layer {
  name: "conv1"
  type: "Convolution"
  bottom: "data"
  top: "conv1"
  param {
    lr_mult: 1
  }
  param {
    lr_mult: 2
  }
  convolution_param {
    num_output: 64
    pad: 2
    kernel_size: 5
    stride: 1
    weight_filler {
      type: "gaussian"
      std: 0.0001
    }
    bias_filler {
      type: "constant"
    }
  }
}
layer {
  name: "relu1"
  type: "ReLU"
  bottom: "conv1"
  top: "conv1"
}
layer {
  name: "conv2"
  type: "Convolution"
  bottom: "conv1"
  top: "conv2"
  param {
    lr_mult: 1
  }
  param {
    lr_mult: 2
  }
  convolution_param {
    num_output: 64
    pad: 2
    kernel_size: 5
    stride: 1
    weight_filler {
      type: "gaussian"
      std: 0.01
    }
    bias_filler {
      type: "constant"
    }
  }
}
layer {
  name: "relu2"
  type: "ReLU"
  bottom: "conv2"
  top: "conv2"
}
layer {
  name: "pool2"
  type: "Pooling"
  bottom: "conv2"
  top: "pool2"
  pooling_param {
    pool: MAX
    kernel_size: 3
    stride: 2
  }
}
layer {
  name: "conv3"
  type: "Convolution"
  bottom: "pool2"
  top: "conv3"
  param {
    lr_mult: 1
  }
  param {
    lr_mult: 2
  }
  convolution_param {
    num_output: 64
    pad: 2
    kernel_size: 5
    stride: 1
    weight_filler {
      type: "gaussian"
      std: 0.01
    }
    bias_filler {
      type: "constant"
    }
  }
}
layer {
  name: "relu3"
  type: "ReLU"
  bottom: "conv3"
  top: "conv3"
}
layer {
  name: "conv4"
  type: "Convolution"
  bottom: "conv3"
  top: "conv4"
  param {
    lr_mult: 1
  }
  param {
    lr_mult: 2
  }
  convolution_param {
    num_output: 64
    pad: 2
    kernel_size: 5
    stride: 1
    weight_filler {
      type: "gaussian"
      std: 0.01
    }
    bias_filler {
      type: "constant"
    }
  }
}
layer {
  name: "relu4"
  type: "ReLU"
  bottom: "conv4"
  top: "conv4"
}
layer {
  name: "conv5"
  type: "Convolution"
  bottom: "conv4"
  top: "conv5"
  param {
    lr_mult: 1
  }
  param {
    lr_mult: 2
  }
  convolution_param {
    num_output: 64
    pad: 2
    kernel_size: 5
    stride: 1
    weight_filler {
      type: "gaussian"
      std: 0.01
    }
    bias_filler {
      type: "constant"
    }
  }
}
layer {
  name: "relu5"
  type: "ReLU"
  bottom: "conv5"
  top: "conv5"
}
layer {
  name: "pool5"
  type: "Pooling"
  bottom: "conv5"
  top: "pool5"
  pooling_param {
    pool: AVE
    kernel_size: 3
    stride: 2
  }
}
layer {
  name: "ip1"
  type: "InnerProduct"
  bottom: "pool5"
  top: "ip1"
  param {
    lr_mult: 1
  }
  param {
    lr_mult: 2
  }
  inner_product_param {
    num_output: 64
    weight_filler {
      type: "gaussian"
      std: 0.1
    }
    bias_filler {
      type: "constant"
    }
  }
}
layer {
  name: "ip2"
  type: "InnerProduct"
  bottom: "ip1"
  top: "ip2"
  param {
    lr_mult: 1
  }
  param {
    lr_mult: 2
  }
  inner_product_param {
    num_output: 64
    weight_filler {
      type: "gaussian"
      std: 0.1
    }
    bias_filler {
      type: "constant"
    }
  }
}
layer {
  name: "ip3"
  type: "InnerProduct"
  bottom: "ip2"
  top: "ip3"
  param {
    lr_mult: 1
  }
  param {
    lr_mult: 2
  }
  inner_product_param {
    num_output: 50
    weight_filler {
      type: "gaussian"
      std: 0.1
    }
    bias_filler {
      type: "constant"
    }
  }
}
layer {
  name: "loss"
  type: "SoftmaxWithLoss"
  bottom: "ip3"
  bottom: "label"
  top: "loss"
}
I0507 20:26:24.664436  7048 layer_factory.hpp:77] Creating layer parameters
I0507 20:26:24.664445  7048 net.cpp:94] Creating Layer parameters
I0507 20:26:24.664449  7048 net.cpp:409] parameters -> data
I0507 20:26:24.664455  7048 net.cpp:409] parameters -> label
I0507 20:26:24.664461  7048 hdf5_data_layer.cpp:79] Loading list of HDF5 filenames from: /home/purduethu/scratch/radon/d/deng106/CNNStatisticalModel/distributions/input/20_distributions_900_sample_size_train-distributions-path.txt
I0507 20:26:24.664477  7048 hdf5_data_layer.cpp:93] Number of HDF5 files: 1
I0507 20:26:25.229655  7048 hdf5.cpp:35] Datatype class: H5T_INTEGER
I0507 20:26:25.231627  7048 net.cpp:144] Setting up parameters
I0507 20:26:25.231643  7048 net.cpp:151] Top shape: 20 1 30 30 (18000)
I0507 20:26:25.231648  7048 net.cpp:151] Top shape: 20 (20)
I0507 20:26:25.231652  7048 net.cpp:159] Memory required for data: 72080
I0507 20:26:25.231658  7048 layer_factory.hpp:77] Creating layer conv1
I0507 20:26:25.231674  7048 net.cpp:94] Creating Layer conv1
I0507 20:26:25.231678  7048 net.cpp:435] conv1 <- data
I0507 20:26:25.231684  7048 net.cpp:409] conv1 -> conv1
I0507 20:26:25.235167  7048 net.cpp:144] Setting up conv1
I0507 20:26:25.235203  7048 net.cpp:151] Top shape: 20 64 30 30 (1152000)
I0507 20:26:25.235214  7048 net.cpp:159] Memory required for data: 4680080
I0507 20:26:25.235240  7048 layer_factory.hpp:77] Creating layer relu1
I0507 20:26:25.235258  7048 net.cpp:94] Creating Layer relu1
I0507 20:26:25.235268  7048 net.cpp:435] relu1 <- conv1
I0507 20:26:25.235281  7048 net.cpp:396] relu1 -> conv1 (in-place)
I0507 20:26:25.235301  7048 net.cpp:144] Setting up relu1
I0507 20:26:25.235312  7048 net.cpp:151] Top shape: 20 64 30 30 (1152000)
I0507 20:26:25.235321  7048 net.cpp:159] Memory required for data: 9288080
I0507 20:26:25.235330  7048 layer_factory.hpp:77] Creating layer conv2
I0507 20:26:25.235349  7048 net.cpp:94] Creating Layer conv2
I0507 20:26:25.235359  7048 net.cpp:435] conv2 <- conv1
I0507 20:26:25.235373  7048 net.cpp:409] conv2 -> conv2
I0507 20:26:25.251319  7048 net.cpp:144] Setting up conv2
I0507 20:26:25.251337  7048 net.cpp:151] Top shape: 20 64 30 30 (1152000)
I0507 20:26:25.251341  7048 net.cpp:159] Memory required for data: 13896080
I0507 20:26:25.251349  7048 layer_factory.hpp:77] Creating layer relu2
I0507 20:26:25.251355  7048 net.cpp:94] Creating Layer relu2
I0507 20:26:25.251359  7048 net.cpp:435] relu2 <- conv2
I0507 20:26:25.251374  7048 net.cpp:396] relu2 -> conv2 (in-place)
I0507 20:26:25.251381  7048 net.cpp:144] Setting up relu2
I0507 20:26:25.251386  7048 net.cpp:151] Top shape: 20 64 30 30 (1152000)
I0507 20:26:25.251389  7048 net.cpp:159] Memory required for data: 18504080
I0507 20:26:25.251392  7048 layer_factory.hpp:77] Creating layer pool2
I0507 20:26:25.251399  7048 net.cpp:94] Creating Layer pool2
I0507 20:26:25.251401  7048 net.cpp:435] pool2 <- conv2
I0507 20:26:25.251406  7048 net.cpp:409] pool2 -> pool2
I0507 20:26:25.251456  7048 net.cpp:144] Setting up pool2
I0507 20:26:25.251464  7048 net.cpp:151] Top shape: 20 64 15 15 (288000)
I0507 20:26:25.251467  7048 net.cpp:159] Memory required for data: 19656080
I0507 20:26:25.251471  7048 layer_factory.hpp:77] Creating layer conv3
I0507 20:26:25.251477  7048 net.cpp:94] Creating Layer conv3
I0507 20:26:25.251482  7048 net.cpp:435] conv3 <- pool2
I0507 20:26:25.251492  7048 net.cpp:409] conv3 -> conv3
I0507 20:26:25.260248  7048 net.cpp:144] Setting up conv3
I0507 20:26:25.260262  7048 net.cpp:151] Top shape: 20 64 15 15 (288000)
I0507 20:26:25.260267  7048 net.cpp:159] Memory required for data: 20808080
I0507 20:26:25.260275  7048 layer_factory.hpp:77] Creating layer relu3
I0507 20:26:25.260282  7048 net.cpp:94] Creating Layer relu3
I0507 20:26:25.260284  7048 net.cpp:435] relu3 <- conv3
I0507 20:26:25.260289  7048 net.cpp:396] relu3 -> conv3 (in-place)
I0507 20:26:25.260296  7048 net.cpp:144] Setting up relu3
I0507 20:26:25.260300  7048 net.cpp:151] Top shape: 20 64 15 15 (288000)
I0507 20:26:25.260303  7048 net.cpp:159] Memory required for data: 21960080
I0507 20:26:25.260306  7048 layer_factory.hpp:77] Creating layer conv4
I0507 20:26:25.260314  7048 net.cpp:94] Creating Layer conv4
I0507 20:26:25.260318  7048 net.cpp:435] conv4 <- conv3
I0507 20:26:25.260324  7048 net.cpp:409] conv4 -> conv4
I0507 20:26:25.268251  7048 net.cpp:144] Setting up conv4
I0507 20:26:25.268266  7048 net.cpp:151] Top shape: 20 64 15 15 (288000)
I0507 20:26:25.268270  7048 net.cpp:159] Memory required for data: 23112080
I0507 20:26:25.268276  7048 layer_factory.hpp:77] Creating layer relu4
I0507 20:26:25.268282  7048 net.cpp:94] Creating Layer relu4
I0507 20:26:25.268286  7048 net.cpp:435] relu4 <- conv4
I0507 20:26:25.268290  7048 net.cpp:396] relu4 -> conv4 (in-place)
I0507 20:26:25.268297  7048 net.cpp:144] Setting up relu4
I0507 20:26:25.268301  7048 net.cpp:151] Top shape: 20 64 15 15 (288000)
I0507 20:26:25.268304  7048 net.cpp:159] Memory required for data: 24264080
I0507 20:26:25.268307  7048 layer_factory.hpp:77] Creating layer conv5
I0507 20:26:25.268316  7048 net.cpp:94] Creating Layer conv5
I0507 20:26:25.268319  7048 net.cpp:435] conv5 <- conv4
I0507 20:26:25.268323  7048 net.cpp:409] conv5 -> conv5
I0507 20:26:25.276095  7048 net.cpp:144] Setting up conv5
I0507 20:26:25.276110  7048 net.cpp:151] Top shape: 20 64 15 15 (288000)
I0507 20:26:25.276114  7048 net.cpp:159] Memory required for data: 25416080
I0507 20:26:25.276124  7048 layer_factory.hpp:77] Creating layer relu5
I0507 20:26:25.276129  7048 net.cpp:94] Creating Layer relu5
I0507 20:26:25.276132  7048 net.cpp:435] relu5 <- conv5
I0507 20:26:25.276137  7048 net.cpp:396] relu5 -> conv5 (in-place)
I0507 20:26:25.276144  7048 net.cpp:144] Setting up relu5
I0507 20:26:25.276149  7048 net.cpp:151] Top shape: 20 64 15 15 (288000)
I0507 20:26:25.276152  7048 net.cpp:159] Memory required for data: 26568080
I0507 20:26:25.276156  7048 layer_factory.hpp:77] Creating layer pool5
I0507 20:26:25.276161  7048 net.cpp:94] Creating Layer pool5
I0507 20:26:25.276165  7048 net.cpp:435] pool5 <- conv5
I0507 20:26:25.276168  7048 net.cpp:409] pool5 -> pool5
I0507 20:26:25.276204  7048 net.cpp:144] Setting up pool5
I0507 20:26:25.276212  7048 net.cpp:151] Top shape: 20 64 7 7 (62720)
I0507 20:26:25.276216  7048 net.cpp:159] Memory required for data: 26818960
I0507 20:26:25.276219  7048 layer_factory.hpp:77] Creating layer ip1
I0507 20:26:25.276226  7048 net.cpp:94] Creating Layer ip1
I0507 20:26:25.276229  7048 net.cpp:435] ip1 <- pool5
I0507 20:26:25.276233  7048 net.cpp:409] ip1 -> ip1
I0507 20:26:25.282038  7048 net.cpp:144] Setting up ip1
I0507 20:26:25.282053  7048 net.cpp:151] Top shape: 20 64 (1280)
I0507 20:26:25.282058  7048 net.cpp:159] Memory required for data: 26824080
I0507 20:26:25.282063  7048 layer_factory.hpp:77] Creating layer ip2
I0507 20:26:25.282070  7048 net.cpp:94] Creating Layer ip2
I0507 20:26:25.282074  7048 net.cpp:435] ip2 <- ip1
I0507 20:26:25.282079  7048 net.cpp:409] ip2 -> ip2
I0507 20:26:25.282296  7048 net.cpp:144] Setting up ip2
I0507 20:26:25.282304  7048 net.cpp:151] Top shape: 20 64 (1280)
I0507 20:26:25.282306  7048 net.cpp:159] Memory required for data: 26829200
I0507 20:26:25.282312  7048 layer_factory.hpp:77] Creating layer ip3
I0507 20:26:25.282317  7048 net.cpp:94] Creating Layer ip3
I0507 20:26:25.282321  7048 net.cpp:435] ip3 <- ip2
I0507 20:26:25.282325  7048 net.cpp:409] ip3 -> ip3
I0507 20:26:25.282519  7048 net.cpp:144] Setting up ip3
I0507 20:26:25.282526  7048 net.cpp:151] Top shape: 20 50 (1000)
I0507 20:26:25.282531  7048 net.cpp:159] Memory required for data: 26833200
I0507 20:26:25.282534  7048 layer_factory.hpp:77] Creating layer loss
I0507 20:26:25.282541  7048 net.cpp:94] Creating Layer loss
I0507 20:26:25.282546  7048 net.cpp:435] loss <- ip3
I0507 20:26:25.282548  7048 net.cpp:435] loss <- label
I0507 20:26:25.282553  7048 net.cpp:409] loss -> loss
I0507 20:26:25.282559  7048 layer_factory.hpp:77] Creating layer loss
…
I0507 20:26:25.283071  7048 solver.cpp:181] Creating test net (#0) specified by net file: ./protocol/dis_20_900_dimension.protocol_distribution
I0507 20:26:25.283097  7048 net.cpp:323] The NetState phase (1) differed from the phase (0) specified by a rule in layer parameters
I0507 20:26:25.283192  7048 net.cpp:52] Initializing net from parameters: 
state {
  phase: TEST
}
layer {
  name: "intercept"
  type: "HDF5Data"
  top: "data"
  top: "label"
  include {
    phase: TEST
  }
  hdf5_data_param {
    source: "/home/purduethu/scratch/radon/d/deng106/CNNStatisticalModel/distributions/input/20_distributions_900_sample_size_test-distributions-path.txt"
    batch_size: 20
  }
}
layer {
  name: "conv1"
  type: "Convolution"
  bottom: "data"
  top: "conv1"
  param {
    lr_mult: 1
  }
  param {
    lr_mult: 2
  }
  convolution_param {
    num_output: 64
    pad: 2
    kernel_size: 5
    stride: 1
    weight_filler {
      type: "gaussian"
      std: 0.0001
    }
    bias_filler {
      type: "constant"
    }
  }
}
layer {
  name: "relu1"
  type: "ReLU"
  bottom: "conv1"
  top: "conv1"
}
layer {
  name: "conv2"
  type: "Convolution"
  bottom: "conv1"
  top: "conv2"
  param {
    lr_mult: 1
  }
  param {
    lr_mult: 2
  }
  convolution_param {
    num_output: 64
    pad: 2
    kernel_size: 5
    stride: 1
    weight_filler {
      type: "gaussian"
      std: 0.01
    }
    bias_filler {
      type: "constant"
    }
  }
}
layer {
  name: "relu2"
  type: "ReLU"
  bottom: "conv2"
  top: "conv2"
}
layer {
  name: "pool2"
  type: "Pooling"
  bottom: "conv2"
  top: "pool2"
  pooling_param {
    pool: MAX
    kernel_size: 3
    stride: 2
  }
}
layer {
  name: "conv3"
  type: "Convolution"
  bottom: "pool2"
  top: "conv3"
  param {
    lr_mult: 1
  }
  param {
    lr_mult: 2
  }
  convolution_param {
    num_output: 64
    pad: 2
    kernel_size: 5
    stride: 1
    weight_filler {
      type: "gaussian"
      std: 0.01
    }
    bias_filler {
      type: "constant"
    }
  }
}
layer {
  name: "relu3"
  type: "ReLU"
  bottom: "conv3"
  top: "conv3"
}
layer {
  name: "conv4"
  type: "Convolution"
  bottom: "conv3"
  top: "conv4"
  param {
    lr_mult: 1
  }
  param {
    lr_mult: 2
  }
  convolution_param {
    num_output: 64
    pad: 2
    kernel_size: 5
    stride: 1
    weight_filler {
      type: "gaussian"
      std: 0.01
    }
    bias_filler {
      type: "constant"
    }
  }
}
layer {
  name: "relu4"
  type: "ReLU"
  bottom: "conv4"
  top: "conv4"
}
layer {
  name: "conv5"
  type: "Convolution"
  bottom: "conv4"
  top: "conv5"
  param {
    lr_mult: 1
  }
  param {
    lr_mult: 2
  }
  convolution_param {
    num_output: 64
    pad: 2
    kernel_size: 5
    stride: 1
    weight_filler {
      type: "gaussian"
      std: 0.01
    }
    bias_filler {
      type: "constant"
    }
  }
}
layer {
  name: "relu5"
  type: "ReLU"
  bottom: "conv5"
  top: "conv5"
}
layer {
  name: "pool5"
  type: "Pooling"
  bottom: "conv5"
  top: "pool5"
  pooling_param {
    pool: AVE
    kernel_size: 3
    stride: 2
  }
}
layer {
  name: "ip1"
  type: "InnerProduct"
  bottom: "pool5"
  top: "ip1"
  param {
    lr_mult: 1
  }
  param {
    lr_mult: 2
  }
  inner_product_param {
    num_output: 64
    weight_filler {
      type: "gaussian"
      std: 0.1
    }
    bias_filler {
      type: "constant"
    }
  }
}
layer {
  name: "ip2"
  type: "InnerProduct"
  bottom: "ip1"
  top: "ip2"
  param {
    lr_mult: 1
  }
  param {
    lr_mult: 2
  }
  inner_product_param {
    num_output: 64
    weight_filler {
      type: "gaussian"
      std: 0.1
    }
    bias_filler {
      type: "constant"
    }
  }
}
layer {
  name: "ip3"
  type: "InnerProduct"
  bottom: "ip2"
  top: "ip3"
  param {
    lr_mult: 1
  }
  param {
    lr_mult: 2
  }
  inner_product_param {
    num_output: 50
    weight_filler {
      type: "gaussian"
      std: 0.1
    }
    bias_filler {
      type: "constant"
    }
  }
}
layer {
  name: "accuracy"
  type: "Accuracy"
  bottom: "ip3"
  bottom: "label"
  top: "accuracy"
  include {
    phase: TEST
  }
}
layer {
  name: "loss"
  type: "SoftmaxWithLoss"
  bottom: "ip3"
  bottom: "label"
  top: "loss"
}
I0507 20:26:25.283257  7048 layer_factory.hpp:77] Creating layer intercept
I0507 20:26:25.283264  7048 net.cpp:94] Creating Layer intercept
I0507 20:26:25.283268  7048 net.cpp:409] intercept -> data
I0507 20:26:25.283275  7048 net.cpp:409] intercept -> label
I0507 20:26:25.283282  7048 hdf5_data_layer.cpp:79] Loading list of HDF5 filenames from: /home/purduethu/scratch/radon/d/deng106/CNNStatisticalModel/distributions/input/20_distributions_900_sample_size_test-distributions-path.txt
I0507 20:26:25.283299  7048 hdf5_data_layer.cpp:93] Number of HDF5 files: 1
I0507 20:26:25.425838  7048 net.cpp:144] Setting up intercept
I0507 20:26:25.425873  7048 net.cpp:151] Top shape: 20 1 30 30 (18000)
I0507 20:26:25.425878  7048 net.cpp:151] Top shape: 20 (20)
I0507 20:26:25.425880  7048 net.cpp:159] Memory required for data: 72080
I0507 20:26:25.425886  7048 layer_factory.hpp:77] Creating layer label_intercept_1_split
I0507 20:26:25.425897  7048 net.cpp:94] Creating Layer label_intercept_1_split
I0507 20:26:25.425901  7048 net.cpp:435] label_intercept_1_split <- label
I0507 20:26:25.425907  7048 net.cpp:409] label_intercept_1_split -> label_intercept_1_split_0
I0507 20:26:25.425915  7048 net.cpp:409] label_intercept_1_split -> label_intercept_1_split_1
I0507 20:26:25.425963  7048 net.cpp:144] Setting up label_intercept_1_split
I0507 20:26:25.425969  7048 net.cpp:151] Top shape: 20 (20)
I0507 20:26:25.425973  7048 net.cpp:151] Top shape: 20 (20)
I0507 20:26:25.425976  7048 net.cpp:159] Memory required for data: 72240
I0507 20:26:25.425979  7048 layer_factory.hpp:77] Creating layer conv1
I0507 20:26:25.425989  7048 net.cpp:94] Creating Layer conv1
I0507 20:26:25.425993  7048 net.cpp:435] conv1 <- data
I0507 20:26:25.425997  7048 net.cpp:409] conv1 -> conv1
I0507 20:26:25.427503  7048 net.cpp:144] Setting up conv1
I0507 20:26:25.427517  7048 net.cpp:151] Top shape: 20 64 30 30 (1152000)
I0507 20:26:25.427521  7048 net.cpp:159] Memory required for data: 4680240
I0507 20:26:25.427531  7048 layer_factory.hpp:77] Creating layer relu1
I0507 20:26:25.427537  7048 net.cpp:94] Creating Layer relu1
I0507 20:26:25.427541  7048 net.cpp:435] relu1 <- conv1
I0507 20:26:25.427546  7048 net.cpp:396] relu1 -> conv1 (in-place)
I0507 20:26:25.427552  7048 net.cpp:144] Setting up relu1
I0507 20:26:25.427556  7048 net.cpp:151] Top shape: 20 64 30 30 (1152000)
I0507 20:26:25.427559  7048 net.cpp:159] Memory required for data: 9288240
I0507 20:26:25.427562  7048 layer_factory.hpp:77] Creating layer conv2
I0507 20:26:25.427570  7048 net.cpp:94] Creating Layer conv2
I0507 20:26:25.427574  7048 net.cpp:435] conv2 <- conv1
I0507 20:26:25.427578  7048 net.cpp:409] conv2 -> conv2
I0507 20:26:25.434170  7048 net.cpp:144] Setting up conv2
I0507 20:26:25.434185  7048 net.cpp:151] Top shape: 20 64 30 30 (1152000)
I0507 20:26:25.434188  7048 net.cpp:159] Memory required for data: 13896240
I0507 20:26:25.434196  7048 layer_factory.hpp:77] Creating layer relu2
I0507 20:26:25.434201  7048 net.cpp:94] Creating Layer relu2
I0507 20:26:25.434206  7048 net.cpp:435] relu2 <- conv2
I0507 20:26:25.434209  7048 net.cpp:396] relu2 -> conv2 (in-place)
I0507 20:26:25.434216  7048 net.cpp:144] Setting up relu2
I0507 20:26:25.434221  7048 net.cpp:151] Top shape: 20 64 30 30 (1152000)
I0507 20:26:25.434223  7048 net.cpp:159] Memory required for data: 18504240
I0507 20:26:25.434226  7048 layer_factory.hpp:77] Creating layer pool2
I0507 20:26:25.434232  7048 net.cpp:94] Creating Layer pool2
I0507 20:26:25.434236  7048 net.cpp:435] pool2 <- conv2
I0507 20:26:25.434240  7048 net.cpp:409] pool2 -> pool2
I0507 20:26:25.434293  7048 net.cpp:144] Setting up pool2
I0507 20:26:25.434298  7048 net.cpp:151] Top shape: 20 64 15 15 (288000)
I0507 20:26:25.434303  7048 net.cpp:159] Memory required for data: 19656240
I0507 20:26:25.434305  7048 layer_factory.hpp:77] Creating layer conv3
I0507 20:26:25.434314  7048 net.cpp:94] Creating Layer conv3
I0507 20:26:25.434316  7048 net.cpp:435] conv3 <- pool2
I0507 20:26:25.434321  7048 net.cpp:409] conv3 -> conv3
I0507 20:26:25.439422  7048 net.cpp:144] Setting up conv3
I0507 20:26:25.439436  7048 net.cpp:151] Top shape: 20 64 15 15 (288000)
I0507 20:26:25.439440  7048 net.cpp:159] Memory required for data: 20808240
I0507 20:26:25.439448  7048 layer_factory.hpp:77] Creating layer relu3
I0507 20:26:25.439455  7048 net.cpp:94] Creating Layer relu3
I0507 20:26:25.439460  7048 net.cpp:435] relu3 <- conv3
I0507 20:26:25.439463  7048 net.cpp:396] relu3 -> conv3 (in-place)
I0507 20:26:25.439471  7048 net.cpp:144] Setting up relu3
I0507 20:26:25.439476  7048 net.cpp:151] Top shape: 20 64 15 15 (288000)
I0507 20:26:25.439478  7048 net.cpp:159] Memory required for data: 21960240
I0507 20:26:25.439481  7048 layer_factory.hpp:77] Creating layer conv4
I0507 20:26:25.439488  7048 net.cpp:94] Creating Layer conv4
I0507 20:26:25.439492  7048 net.cpp:435] conv4 <- conv3
I0507 20:26:25.439496  7048 net.cpp:409] conv4 -> conv4
I0507 20:26:25.444262  7048 net.cpp:144] Setting up conv4
I0507 20:26:25.444277  7048 net.cpp:151] Top shape: 20 64 15 15 (288000)
I0507 20:26:25.444280  7048 net.cpp:159] Memory required for data: 23112240
I0507 20:26:25.444286  7048 layer_factory.hpp:77] Creating layer relu4
I0507 20:26:25.444293  7048 net.cpp:94] Creating Layer relu4
I0507 20:26:25.444296  7048 net.cpp:435] relu4 <- conv4
I0507 20:26:25.444301  7048 net.cpp:396] relu4 -> conv4 (in-place)
I0507 20:26:25.444308  7048 net.cpp:144] Setting up relu4
I0507 20:26:25.444313  7048 net.cpp:151] Top shape: 20 64 15 15 (288000)
I0507 20:26:25.444315  7048 net.cpp:159] Memory required for data: 24264240
I0507 20:26:25.444319  7048 layer_factory.hpp:77] Creating layer conv5
I0507 20:26:25.444325  7048 net.cpp:94] Creating Layer conv5
I0507 20:26:25.444329  7048 net.cpp:435] conv5 <- conv4
I0507 20:26:25.444334  7048 net.cpp:409] conv5 -> conv5
I0507 20:26:25.449867  7048 net.cpp:144] Setting up conv5
I0507 20:26:25.449882  7048 net.cpp:151] Top shape: 20 64 15 15 (288000)
I0507 20:26:25.449887  7048 net.cpp:159] Memory required for data: 25416240
I0507 20:26:25.449895  7048 layer_factory.hpp:77] Creating layer relu5
I0507 20:26:25.449901  7048 net.cpp:94] Creating Layer relu5
I0507 20:26:25.449905  7048 net.cpp:435] relu5 <- conv5
I0507 20:26:25.449909  7048 net.cpp:396] relu5 -> conv5 (in-place)
I0507 20:26:25.449916  7048 net.cpp:144] Setting up relu5
I0507 20:26:25.449920  7048 net.cpp:151] Top shape: 20 64 15 15 (288000)
I0507 20:26:25.449924  7048 net.cpp:159] Memory required for data: 26568240
I0507 20:26:25.449928  7048 layer_factory.hpp:77] Creating layer pool5
I0507 20:26:25.449931  7048 net.cpp:94] Creating Layer pool5
I0507 20:26:25.449934  7048 net.cpp:435] pool5 <- conv5
I0507 20:26:25.449941  7048 net.cpp:409] pool5 -> pool5
I0507 20:26:25.449980  7048 net.cpp:144] Setting up pool5
I0507 20:26:25.449986  7048 net.cpp:151] Top shape: 20 64 7 7 (62720)
I0507 20:26:25.449990  7048 net.cpp:159] Memory required for data: 26819120
I0507 20:26:25.449993  7048 layer_factory.hpp:77] Creating layer ip1
I0507 20:26:25.450000  7048 net.cpp:94] Creating Layer ip1
I0507 20:26:25.450003  7048 net.cpp:435] ip1 <- pool5
I0507 20:26:25.450007  7048 net.cpp:409] ip1 -> ip1
I0507 20:26:25.454862  7048 net.cpp:144] Setting up ip1
I0507 20:26:25.454872  7048 net.cpp:151] Top shape: 20 64 (1280)
I0507 20:26:25.454875  7048 net.cpp:159] Memory required for data: 26824240
I0507 20:26:25.454881  7048 layer_factory.hpp:77] Creating layer ip2
I0507 20:26:25.454887  7048 net.cpp:94] Creating Layer ip2
I0507 20:26:25.454890  7048 net.cpp:435] ip2 <- ip1
I0507 20:26:25.454895  7048 net.cpp:409] ip2 -> ip2
I0507 20:26:25.455132  7048 net.cpp:144] Setting up ip2
I0507 20:26:25.455140  7048 net.cpp:151] Top shape: 20 64 (1280)
I0507 20:26:25.455143  7048 net.cpp:159] Memory required for data: 26829360
I0507 20:26:25.455148  7048 layer_factory.hpp:77] Creating layer ip3
I0507 20:26:25.455157  7048 net.cpp:94] Creating Layer ip3
I0507 20:26:25.455160  7048 net.cpp:435] ip3 <- ip2
I0507 20:26:25.455165  7048 net.cpp:409] ip3 -> ip3
I0507 20:26:25.455365  7048 net.cpp:144] Setting up ip3
I0507 20:26:25.455374  7048 net.cpp:151] Top shape: 20 50 (1000)
I0507 20:26:25.455376  7048 net.cpp:159] Memory required for data: 26833360
I0507 20:26:25.455381  7048 layer_factory.hpp:77] Creating layer ip3_ip3_0_split
I0507 20:26:25.455385  7048 net.cpp:94] Creating Layer ip3_ip3_0_split
I0507 20:26:25.455389  7048 net.cpp:435] ip3_ip3_0_split <- ip3
I0507 20:26:25.455394  7048 net.cpp:409] ip3_ip3_0_split -> ip3_ip3_0_split_0
I0507 20:26:25.455400  7048 net.cpp:409] ip3_ip3_0_split -> ip3_ip3_0_split_1
I0507 20:26:25.455441  7048 net.cpp:144] Setting up ip3_ip3_0_split
I0507 20:26:25.455448  7048 net.cpp:151] Top shape: 20 50 (1000)
I0507 20:26:25.455451  7048 net.cpp:151] Top shape: 20 50 (1000)
I0507 20:26:25.455454  7048 net.cpp:159] Memory required for data: 26841360
I0507 20:26:25.455457  7048 layer_factory.hpp:77] Creating layer accuracy
I0507 20:26:25.455463  7048 net.cpp:94] Creating Layer accuracy
I0507 20:26:25.455466  7048 net.cpp:435] accuracy <- ip3_ip3_0_split_0
I0507 20:26:25.455471  7048 net.cpp:435] accuracy <- label_intercept_1_split_0
I0507 20:26:25.455476  7048 net.cpp:409] accuracy -> accuracy
…
