…
I0505 08:49:24.855710  5386 net.cpp:323] The NetState phase (0) differed from the phase (1) specified by a rule in layer intercept
I0505 08:49:24.855726  5386 net.cpp:323] The NetState phase (0) differed from the phase (1) specified by a rule in layer accuracy
I0505 08:49:24.855808  5386 net.cpp:52] Initializing net from parameters: 
state {
  phase: TRAIN
}
layer {
  name: "parameters"
  type: "HDF5Data"
  top: "data"
  top: "label"
  include {
    phase: TRAIN
  }
  hdf5_data_param {
    source: "/home/purduethu/scratch/radon/d/deng106/CNNStatisticalModel/distributions/input/20_distributions_900_sample_size_train-distributions-path.txt"
    batch_size: 20
  }
}
layer {
  name: "conv1"
  type: "Convolution"
  bottom: "data"
  top: "conv1"
  param {
    lr_mult: 1
  }
  param {
    lr_mult: 2
  }
  convolution_param {
    num_output: 64
    pad: 2
    kernel_size: 5
    stride: 1
    weight_filler {
      type: "gaussian"
      std: 0.0001
    }
    bias_filler {
      type: "constant"
    }
  }
}
layer {
  name: "relu1"
  type: "ReLU"
  bottom: "conv1"
  top: "conv1"
}
layer {
  name: "pool1"
  type: "Pooling"
  bottom: "conv1"
  top: "pool1"
  pooling_param {
    pool: MAX
    kernel_size: 3
    stride: 2
  }
}
layer {
  name: "conv2"
  type: "Convolution"
  bottom: "pool1"
  top: "conv2"
  param {
    lr_mult: 1
  }
  param {
    lr_mult: 2
  }
  convolution_param {
    num_output: 128
    pad: 2
    kernel_size: 5
    stride: 1
    weight_filler {
      type: "gaussian"
      std: 0.01
    }
    bias_filler {
      type: "constant"
    }
  }
}
layer {
  name: "relu2"
  type: "ReLU"
  bottom: "conv2"
  top: "conv2"
}
layer {
  name: "conv3"
  type: "Convolution"
  bottom: "conv2"
  top: "conv3"
  param {
    lr_mult: 1
  }
  param {
    lr_mult: 2
  }
  convolution_param {
    num_output: 128
    pad: 2
    kernel_size: 5
    stride: 1
    weight_filler {
      type: "gaussian"
      std: 0.01
    }
    bias_filler {
      type: "constant"
    }
  }
}
layer {
  name: "relu3"
  type: "ReLU"
  bottom: "conv3"
  top: "conv3"
}
layer {
  name: "pool3"
  type: "Pooling"
  bottom: "conv3"
  top: "pool3"
  pooling_param {
    pool: AVE
    kernel_size: 3
    stride: 2
  }
}
layer {
  name: "ip1"
  type: "InnerProduct"
  bottom: "pool3"
  top: "ip1"
  param {
    lr_mult: 1
  }
  param {
    lr_mult: 2
  }
  inner_product_param {
    num_output: 512
    weight_filler {
      type: "gaussian"
      std: 0.1
    }
    bias_filler {
      type: "constant"
    }
  }
}
layer {
  name: "ip2"
  type: "InnerProduct"
  bottom: "ip1"
  top: "ip2"
  param {
    lr_mult: 1
  }
  param {
    lr_mult: 2
  }
  inner_product_param {
    num_output: 256
    weight_filler {
      type: "gaussian"
      std: 0.1
    }
    bias_filler {
      type: "constant"
    }
  }
}
layer {
  name: "ip3"
  type: "InnerProduct"
  bottom: "ip2"
  top: "ip3"
  param {
    lr_mult: 1
  }
  param {
    lr_mult: 2
  }
  inner_product_param {
    num_output: 50
    weight_filler {
      type: "gaussian"
      std: 0.1
    }
    bias_filler {
      type: "constant"
    }
  }
}
layer {
  name: "loss"
  type: "SoftmaxWithLoss"
  bottom: "ip3"
  bottom: "label"
  top: "loss"
}
I0505 08:49:24.855872  5386 layer_factory.hpp:77] Creating layer parameters
I0505 08:49:24.855887  5386 net.cpp:94] Creating Layer parameters
I0505 08:49:24.855901  5386 net.cpp:409] parameters -> data
I0505 08:49:24.855921  5386 net.cpp:409] parameters -> label
I0505 08:49:24.855931  5386 hdf5_data_layer.cpp:79] Loading list of HDF5 filenames from: /home/purduethu/scratch/radon/d/deng106/CNNStatisticalModel/distributions/input/20_distributions_900_sample_size_train-distributions-path.txt
I0505 08:49:24.855954  5386 hdf5_data_layer.cpp:93] Number of HDF5 files: 1
I0505 08:49:24.856539  5386 hdf5.cpp:32] Datatype class: H5T_FLOAT
I0505 08:49:25.426579  5386 hdf5.cpp:35] Datatype class: H5T_INTEGER
I0505 08:49:25.428242  5386 net.cpp:144] Setting up parameters
I0505 08:49:25.428262  5386 net.cpp:151] Top shape: 20 1 30 30 (18000)
I0505 08:49:25.428268  5386 net.cpp:151] Top shape: 20 (20)
I0505 08:49:25.428272  5386 net.cpp:159] Memory required for data: 72080
I0505 08:49:25.428280  5386 layer_factory.hpp:77] Creating layer conv1
I0505 08:49:25.428299  5386 net.cpp:94] Creating Layer conv1
I0505 08:49:25.428304  5386 net.cpp:435] conv1 <- data
I0505 08:49:25.428316  5386 net.cpp:409] conv1 -> conv1
I0505 08:49:25.434154  5386 net.cpp:144] Setting up conv1
I0505 08:49:25.434170  5386 net.cpp:151] Top shape: 20 64 30 30 (1152000)
I0505 08:49:25.434173  5386 net.cpp:159] Memory required for data: 4680080
I0505 08:49:25.434185  5386 layer_factory.hpp:77] Creating layer relu1
I0505 08:49:25.434195  5386 net.cpp:94] Creating Layer relu1
I0505 08:49:25.434198  5386 net.cpp:435] relu1 <- conv1
I0505 08:49:25.434203  5386 net.cpp:396] relu1 -> conv1 (in-place)
I0505 08:49:25.434219  5386 net.cpp:144] Setting up relu1
I0505 08:49:25.434226  5386 net.cpp:151] Top shape: 20 64 30 30 (1152000)
I0505 08:49:25.434228  5386 net.cpp:159] Memory required for data: 9288080
I0505 08:49:25.434232  5386 layer_factory.hpp:77] Creating layer pool1
I0505 08:49:25.434240  5386 net.cpp:94] Creating Layer pool1
I0505 08:49:25.434243  5386 net.cpp:435] pool1 <- conv1
I0505 08:49:25.434248  5386 net.cpp:409] pool1 -> pool1
I0505 08:49:25.434293  5386 net.cpp:144] Setting up pool1
I0505 08:49:25.434299  5386 net.cpp:151] Top shape: 20 64 15 15 (288000)
I0505 08:49:25.434303  5386 net.cpp:159] Memory required for data: 10440080
I0505 08:49:25.434306  5386 layer_factory.hpp:77] Creating layer conv2
I0505 08:49:25.434315  5386 net.cpp:94] Creating Layer conv2
I0505 08:49:25.434319  5386 net.cpp:435] conv2 <- pool1
I0505 08:49:25.434324  5386 net.cpp:409] conv2 -> conv2
I0505 08:49:25.446593  5386 net.cpp:144] Setting up conv2
I0505 08:49:25.446609  5386 net.cpp:151] Top shape: 20 128 15 15 (576000)
I0505 08:49:25.446614  5386 net.cpp:159] Memory required for data: 12744080
I0505 08:49:25.446622  5386 layer_factory.hpp:77] Creating layer relu2
I0505 08:49:25.446629  5386 net.cpp:94] Creating Layer relu2
I0505 08:49:25.446632  5386 net.cpp:435] relu2 <- conv2
I0505 08:49:25.446637  5386 net.cpp:396] relu2 -> conv2 (in-place)
I0505 08:49:25.446645  5386 net.cpp:144] Setting up relu2
I0505 08:49:25.446650  5386 net.cpp:151] Top shape: 20 128 15 15 (576000)
I0505 08:49:25.446653  5386 net.cpp:159] Memory required for data: 15048080
I0505 08:49:25.446656  5386 layer_factory.hpp:77] Creating layer conv3
I0505 08:49:25.446665  5386 net.cpp:94] Creating Layer conv3
I0505 08:49:25.446668  5386 net.cpp:435] conv3 <- conv2
I0505 08:49:25.446673  5386 net.cpp:409] conv3 -> conv3
I0505 08:49:25.468102  5386 net.cpp:144] Setting up conv3
I0505 08:49:25.468118  5386 net.cpp:151] Top shape: 20 128 15 15 (576000)
I0505 08:49:25.468122  5386 net.cpp:159] Memory required for data: 17352080
I0505 08:49:25.468138  5386 layer_factory.hpp:77] Creating layer relu3
I0505 08:49:25.468145  5386 net.cpp:94] Creating Layer relu3
I0505 08:49:25.468150  5386 net.cpp:435] relu3 <- conv3
I0505 08:49:25.468154  5386 net.cpp:396] relu3 -> conv3 (in-place)
I0505 08:49:25.468163  5386 net.cpp:144] Setting up relu3
I0505 08:49:25.468168  5386 net.cpp:151] Top shape: 20 128 15 15 (576000)
I0505 08:49:25.468170  5386 net.cpp:159] Memory required for data: 19656080
I0505 08:49:25.468174  5386 layer_factory.hpp:77] Creating layer pool3
I0505 08:49:25.468188  5386 net.cpp:94] Creating Layer pool3
I0505 08:49:25.468191  5386 net.cpp:435] pool3 <- conv3
I0505 08:49:25.468196  5386 net.cpp:409] pool3 -> pool3
I0505 08:49:25.468231  5386 net.cpp:144] Setting up pool3
I0505 08:49:25.468240  5386 net.cpp:151] Top shape: 20 128 7 7 (125440)
I0505 08:49:25.468242  5386 net.cpp:159] Memory required for data: 20157840
I0505 08:49:25.468246  5386 layer_factory.hpp:77] Creating layer ip1
I0505 08:49:25.468255  5386 net.cpp:94] Creating Layer ip1
I0505 08:49:25.468260  5386 net.cpp:435] ip1 <- pool3
I0505 08:49:25.468264  5386 net.cpp:409] ip1 -> ip1
I0505 08:49:25.545284  5386 net.cpp:144] Setting up ip1
I0505 08:49:25.545317  5386 net.cpp:151] Top shape: 20 512 (10240)
I0505 08:49:25.545321  5386 net.cpp:159] Memory required for data: 20198800
I0505 08:49:25.545331  5386 layer_factory.hpp:77] Creating layer ip2
I0505 08:49:25.545341  5386 net.cpp:94] Creating Layer ip2
I0505 08:49:25.545346  5386 net.cpp:435] ip2 <- ip1
I0505 08:49:25.545352  5386 net.cpp:409] ip2 -> ip2
I0505 08:49:25.548456  5386 net.cpp:144] Setting up ip2
I0505 08:49:25.548465  5386 net.cpp:151] Top shape: 20 256 (5120)
I0505 08:49:25.548468  5386 net.cpp:159] Memory required for data: 20219280
I0505 08:49:25.548476  5386 layer_factory.hpp:77] Creating layer ip3
I0505 08:49:25.548483  5386 net.cpp:94] Creating Layer ip3
I0505 08:49:25.548486  5386 net.cpp:435] ip3 <- ip2
I0505 08:49:25.548491  5386 net.cpp:409] ip3 -> ip3
I0505 08:49:25.549584  5386 net.cpp:144] Setting up ip3
I0505 08:49:25.549598  5386 net.cpp:151] Top shape: 20 50 (1000)
I0505 08:49:25.549602  5386 net.cpp:159] Memory required for data: 20223280
I0505 08:49:25.549608  5386 layer_factory.hpp:77] Creating layer loss
I0505 08:49:25.549615  5386 net.cpp:94] Creating Layer loss
I0505 08:49:25.549619  5386 net.cpp:435] loss <- ip3
I0505 08:49:25.549623  5386 net.cpp:435] loss <- label
I0505 08:49:25.549629  5386 net.cpp:409] loss -> loss
I0505 08:49:25.549641  5386 layer_factory.hpp:77] Creating layer loss
…
I0505 08:49:25.550070  5386 solver.cpp:181] Creating test net (#0) specified by net file: ./protocol/dis_20_900_dimension.protocol_distribution
I0505 08:49:25.550101  5386 net.cpp:323] The NetState phase (1) differed from the phase (0) specified by a rule in layer parameters
I0505 08:49:25.550184  5386 net.cpp:52] Initializing net from parameters: 
state {
  phase: TEST
}
layer {
  name: "intercept"
  type: "HDF5Data"
  top: "data"
  top: "label"
  include {
    phase: TEST
  }
  hdf5_data_param {
    source: "/home/purduethu/scratch/radon/d/deng106/CNNStatisticalModel/distributions/input/20_distributions_900_sample_size_test-distributions-path.txt"
    batch_size: 20
  }
}
layer {
  name: "conv1"
  type: "Convolution"
  bottom: "data"
  top: "conv1"
  param {
    lr_mult: 1
  }
  param {
    lr_mult: 2
  }
  convolution_param {
    num_output: 64
    pad: 2
    kernel_size: 5
    stride: 1
    weight_filler {
      type: "gaussian"
      std: 0.0001
    }
    bias_filler {
      type: "constant"
    }
  }
}
layer {
  name: "relu1"
  type: "ReLU"
  bottom: "conv1"
  top: "conv1"
}
layer {
  name: "pool1"
  type: "Pooling"
  bottom: "conv1"
  top: "pool1"
  pooling_param {
    pool: MAX
    kernel_size: 3
    stride: 2
  }
}
layer {
  name: "conv2"
  type: "Convolution"
  bottom: "pool1"
  top: "conv2"
  param {
    lr_mult: 1
  }
  param {
    lr_mult: 2
  }
  convolution_param {
    num_output: 128
    pad: 2
    kernel_size: 5
    stride: 1
    weight_filler {
      type: "gaussian"
      std: 0.01
    }
    bias_filler {
      type: "constant"
    }
  }
}
layer {
  name: "relu2"
  type: "ReLU"
  bottom: "conv2"
  top: "conv2"
}
layer {
  name: "conv3"
  type: "Convolution"
  bottom: "conv2"
  top: "conv3"
  param {
    lr_mult: 1
  }
  param {
    lr_mult: 2
  }
  convolution_param {
    num_output: 128
    pad: 2
    kernel_size: 5
    stride: 1
    weight_filler {
      type: "gaussian"
      std: 0.01
    }
    bias_filler {
      type: "constant"
    }
  }
}
layer {
  name: "relu3"
  type: "ReLU"
  bottom: "conv3"
  top: "conv3"
}
layer {
  name: "pool3"
  type: "Pooling"
  bottom: "conv3"
  top: "pool3"
  pooling_param {
    pool: AVE
    kernel_size: 3
    stride: 2
  }
}
layer {
  name: "ip1"
  type: "InnerProduct"
  bottom: "pool3"
  top: "ip1"
  param {
    lr_mult: 1
  }
  param {
    lr_mult: 2
  }
  inner_product_param {
    num_output: 512
    weight_filler {
      type: "gaussian"
      std: 0.1
    }
    bias_filler {
      type: "constant"
    }
  }
}
layer {
  name: "ip2"
  type: "InnerProduct"
  bottom: "ip1"
  top: "ip2"
  param {
    lr_mult: 1
  }
  param {
    lr_mult: 2
  }
  inner_product_param {
    num_output: 256
    weight_filler {
      type: "gaussian"
      std: 0.1
    }
    bias_filler {
      type: "constant"
    }
  }
}
layer {
  name: "ip3"
  type: "InnerProduct"
  bottom: "ip2"
  top: "ip3"
  param {
    lr_mult: 1
  }
  param {
    lr_mult: 2
  }
  inner_product_param {
    num_output: 50
    weight_filler {
      type: "gaussian"
      std: 0.1
    }
    bias_filler {
      type: "constant"
    }
  }
}
layer {
  name: "accuracy"
  type: "Accuracy"
  bottom: "ip3"
  bottom: "label"
  top: "accuracy"
  include {
    phase: TEST
  }
}
layer {
  name: "loss"
  type: "SoftmaxWithLoss"
  bottom: "ip3"
  bottom: "label"
  top: "loss"
}
I0505 08:49:25.550247  5386 layer_factory.hpp:77] Creating layer intercept
I0505 08:49:25.550256  5386 net.cpp:94] Creating Layer intercept
I0505 08:49:25.550261  5386 net.cpp:409] intercept -> data
I0505 08:49:25.550268  5386 net.cpp:409] intercept -> label
I0505 08:49:25.550274  5386 hdf5_data_layer.cpp:79] Loading list of HDF5 filenames from: /home/purduethu/scratch/radon/d/deng106/CNNStatisticalModel/distributions/input/20_distributions_900_sample_size_test-distributions-path.txt
I0505 08:49:25.550293  5386 hdf5_data_layer.cpp:93] Number of HDF5 files: 1
I0505 08:49:25.689404  5386 net.cpp:144] Setting up intercept
I0505 08:49:25.689435  5386 net.cpp:151] Top shape: 20 1 30 30 (18000)
I0505 08:49:25.689440  5386 net.cpp:151] Top shape: 20 (20)
I0505 08:49:25.689443  5386 net.cpp:159] Memory required for data: 72080
I0505 08:49:25.689450  5386 layer_factory.hpp:77] Creating layer label_intercept_1_split
I0505 08:49:25.689472  5386 net.cpp:94] Creating Layer label_intercept_1_split
I0505 08:49:25.689477  5386 net.cpp:435] label_intercept_1_split <- label
I0505 08:49:25.689483  5386 net.cpp:409] label_intercept_1_split -> label_intercept_1_split_0
I0505 08:49:25.689492  5386 net.cpp:409] label_intercept_1_split -> label_intercept_1_split_1
I0505 08:49:25.689520  5386 net.cpp:144] Setting up label_intercept_1_split
I0505 08:49:25.689527  5386 net.cpp:151] Top shape: 20 (20)
I0505 08:49:25.689530  5386 net.cpp:151] Top shape: 20 (20)
I0505 08:49:25.689540  5386 net.cpp:159] Memory required for data: 72240
I0505 08:49:25.689544  5386 layer_factory.hpp:77] Creating layer conv1
I0505 08:49:25.689555  5386 net.cpp:94] Creating Layer conv1
I0505 08:49:25.689559  5386 net.cpp:435] conv1 <- data
I0505 08:49:25.689564  5386 net.cpp:409] conv1 -> conv1
I0505 08:49:25.690762  5386 net.cpp:144] Setting up conv1
I0505 08:49:25.690775  5386 net.cpp:151] Top shape: 20 64 30 30 (1152000)
I0505 08:49:25.690779  5386 net.cpp:159] Memory required for data: 4680240
I0505 08:49:25.690788  5386 layer_factory.hpp:77] Creating layer relu1
I0505 08:49:25.690796  5386 net.cpp:94] Creating Layer relu1
I0505 08:49:25.690799  5386 net.cpp:435] relu1 <- conv1
I0505 08:49:25.690804  5386 net.cpp:396] relu1 -> conv1 (in-place)
I0505 08:49:25.690812  5386 net.cpp:144] Setting up relu1
I0505 08:49:25.690817  5386 net.cpp:151] Top shape: 20 64 30 30 (1152000)
I0505 08:49:25.690820  5386 net.cpp:159] Memory required for data: 9288240
I0505 08:49:25.690824  5386 layer_factory.hpp:77] Creating layer pool1
I0505 08:49:25.690830  5386 net.cpp:94] Creating Layer pool1
I0505 08:49:25.690834  5386 net.cpp:435] pool1 <- conv1
I0505 08:49:25.690840  5386 net.cpp:409] pool1 -> pool1
I0505 08:49:25.690872  5386 net.cpp:144] Setting up pool1
I0505 08:49:25.690878  5386 net.cpp:151] Top shape: 20 64 15 15 (288000)
I0505 08:49:25.690882  5386 net.cpp:159] Memory required for data: 10440240
I0505 08:49:25.690886  5386 layer_factory.hpp:77] Creating layer conv2
I0505 08:49:25.690892  5386 net.cpp:94] Creating Layer conv2
I0505 08:49:25.690896  5386 net.cpp:435] conv2 <- pool1
I0505 08:49:25.690901  5386 net.cpp:409] conv2 -> conv2
I0505 08:49:25.698729  5386 net.cpp:144] Setting up conv2
I0505 08:49:25.698745  5386 net.cpp:151] Top shape: 20 128 15 15 (576000)
I0505 08:49:25.698750  5386 net.cpp:159] Memory required for data: 12744240
I0505 08:49:25.698758  5386 layer_factory.hpp:77] Creating layer relu2
I0505 08:49:25.698765  5386 net.cpp:94] Creating Layer relu2
I0505 08:49:25.698768  5386 net.cpp:435] relu2 <- conv2
I0505 08:49:25.698773  5386 net.cpp:396] relu2 -> conv2 (in-place)
I0505 08:49:25.698781  5386 net.cpp:144] Setting up relu2
I0505 08:49:25.698786  5386 net.cpp:151] Top shape: 20 128 15 15 (576000)
I0505 08:49:25.698788  5386 net.cpp:159] Memory required for data: 15048240
I0505 08:49:25.698792  5386 layer_factory.hpp:77] Creating layer conv3
I0505 08:49:25.698799  5386 net.cpp:94] Creating Layer conv3
I0505 08:49:25.698803  5386 net.cpp:435] conv3 <- conv2
I0505 08:49:25.698808  5386 net.cpp:409] conv3 -> conv3
I0505 08:49:25.713407  5386 net.cpp:144] Setting up conv3
I0505 08:49:25.713421  5386 net.cpp:151] Top shape: 20 128 15 15 (576000)
I0505 08:49:25.713426  5386 net.cpp:159] Memory required for data: 17352240
I0505 08:49:25.713434  5386 layer_factory.hpp:77] Creating layer relu3
I0505 08:49:25.713443  5386 net.cpp:94] Creating Layer relu3
I0505 08:49:25.713445  5386 net.cpp:435] relu3 <- conv3
I0505 08:49:25.713450  5386 net.cpp:396] relu3 -> conv3 (in-place)
I0505 08:49:25.713457  5386 net.cpp:144] Setting up relu3
I0505 08:49:25.713462  5386 net.cpp:151] Top shape: 20 128 15 15 (576000)
I0505 08:49:25.713466  5386 net.cpp:159] Memory required for data: 19656240
I0505 08:49:25.713469  5386 layer_factory.hpp:77] Creating layer pool3
I0505 08:49:25.713474  5386 net.cpp:94] Creating Layer pool3
I0505 08:49:25.713479  5386 net.cpp:435] pool3 <- conv3
I0505 08:49:25.713482  5386 net.cpp:409] pool3 -> pool3
I0505 08:49:25.713510  5386 net.cpp:144] Setting up pool3
I0505 08:49:25.713522  5386 net.cpp:151] Top shape: 20 128 7 7 (125440)
I0505 08:49:25.713526  5386 net.cpp:159] Memory required for data: 20158000
I0505 08:49:25.713529  5386 layer_factory.hpp:77] Creating layer ip1
I0505 08:49:25.713536  5386 net.cpp:94] Creating Layer ip1
I0505 08:49:25.713541  5386 net.cpp:435] ip1 <- pool3
I0505 08:49:25.713546  5386 net.cpp:409] ip1 -> ip1
I0505 08:49:25.790776  5386 net.cpp:144] Setting up ip1
I0505 08:49:25.790807  5386 net.cpp:151] Top shape: 20 512 (10240)
I0505 08:49:25.790812  5386 net.cpp:159] Memory required for data: 20198960
I0505 08:49:25.790832  5386 layer_factory.hpp:77] Creating layer ip2
I0505 08:49:25.790843  5386 net.cpp:94] Creating Layer ip2
I0505 08:49:25.790848  5386 net.cpp:435] ip2 <- ip1
I0505 08:49:25.790854  5386 net.cpp:409] ip2 -> ip2
I0505 08:49:25.793995  5386 net.cpp:144] Setting up ip2
I0505 08:49:25.794003  5386 net.cpp:151] Top shape: 20 256 (5120)
I0505 08:49:25.794008  5386 net.cpp:159] Memory required for data: 20219440
I0505 08:49:25.794015  5386 layer_factory.hpp:77] Creating layer ip3
I0505 08:49:25.794023  5386 net.cpp:94] Creating Layer ip3
I0505 08:49:25.794025  5386 net.cpp:435] ip3 <- ip2
I0505 08:49:25.794030  5386 net.cpp:409] ip3 -> ip3
I0505 08:49:25.794400  5386 net.cpp:144] Setting up ip3
I0505 08:49:25.794407  5386 net.cpp:151] Top shape: 20 50 (1000)
I0505 08:49:25.794410  5386 net.cpp:159] Memory required for data: 20223440
I0505 08:49:25.794415  5386 layer_factory.hpp:77] Creating layer ip3_ip3_0_split
I0505 08:49:25.794421  5386 net.cpp:94] Creating Layer ip3_ip3_0_split
I0505 08:49:25.794425  5386 net.cpp:435] ip3_ip3_0_split <- ip3
I0505 08:49:25.794430  5386 net.cpp:409] ip3_ip3_0_split -> ip3_ip3_0_split_0
I0505 08:49:25.794435  5386 net.cpp:409] ip3_ip3_0_split -> ip3_ip3_0_split_1
I0505 08:49:25.794459  5386 net.cpp:144] Setting up ip3_ip3_0_split
I0505 08:49:25.794476  5386 net.cpp:151] Top shape: 20 50 (1000)
I0505 08:49:25.794479  5386 net.cpp:151] Top shape: 20 50 (1000)
I0505 08:49:25.794483  5386 net.cpp:159] Memory required for data: 20231440
I0505 08:49:25.794486  5386 layer_factory.hpp:77] Creating layer accuracy
I0505 08:49:25.794492  5386 net.cpp:94] Creating Layer accuracy
I0505 08:49:25.794497  5386 net.cpp:435] accuracy <- ip3_ip3_0_split_0
I0505 08:49:25.794500  5386 net.cpp:435] accuracy <- label_intercept_1_split_0
I0505 08:49:25.794505  5386 net.cpp:409] accuracy -> accuracy
…
