…
I0502 02:46:39.960647 17215 net.cpp:323] The NetState phase (0) differed from the phase (1) specified by a rule in layer intercept
I0502 02:46:39.960665 17215 net.cpp:323] The NetState phase (0) differed from the phase (1) specified by a rule in layer loss
I0502 02:46:39.960749 17215 net.cpp:52] Initializing net from parameters: 
state {
  phase: TRAIN
}
layer {
  name: "parameters"
  type: "HDF5Data"
  top: "data"
  top: "label"
  include {
    phase: TRAIN
  }
  hdf5_data_param {
    source: "/home/purduethu/scratch/radon/d/deng106/CNNStatisticalModel/distributions/input/5_distributions_400_sample_size_train-parameters-path.txt"
    batch_size: 20
  }
}
layer {
  name: "conv1"
  type: "Convolution"
  bottom: "data"
  top: "conv1"
  param {
    lr_mult: 1
  }
  param {
    lr_mult: 2
  }
  convolution_param {
    num_output: 64
    pad: 2
    kernel_size: 5
    stride: 1
    weight_filler {
      type: "gaussian"
      std: 0.0001
    }
    bias_filler {
      type: "constant"
    }
  }
}
layer {
  name: "relu1"
  type: "ReLU"
  bottom: "conv1"
  top: "conv1"
}
layer {
  name: "conv2"
  type: "Convolution"
  bottom: "conv1"
  top: "conv2"
  param {
    lr_mult: 1
  }
  param {
    lr_mult: 2
  }
  convolution_param {
    num_output: 64
    pad: 2
    kernel_size: 5
    stride: 1
    weight_filler {
      type: "gaussian"
      std: 0.01
    }
    bias_filler {
      type: "constant"
    }
  }
}
layer {
  name: "relu2"
  type: "ReLU"
  bottom: "conv2"
  top: "conv2"
}
layer {
  name: "pool2"
  type: "Pooling"
  bottom: "conv2"
  top: "pool2"
  pooling_param {
    pool: MAX
    kernel_size: 3
    stride: 2
  }
}
layer {
  name: "conv3"
  type: "Convolution"
  bottom: "pool2"
  top: "conv3"
  param {
    lr_mult: 1
  }
  param {
    lr_mult: 2
  }
  convolution_param {
    num_output: 64
    pad: 2
    kernel_size: 5
    stride: 1
    weight_filler {
      type: "gaussian"
      std: 0.01
    }
    bias_filler {
      type: "constant"
    }
  }
}
layer {
  name: "relu3"
  type: "ReLU"
  bottom: "conv3"
  top: "conv3"
}
layer {
  name: "conv4"
  type: "Convolution"
  bottom: "conv3"
  top: "conv4"
  param {
    lr_mult: 1
  }
  param {
    lr_mult: 2
  }
  convolution_param {
    num_output: 64
    pad: 2
    kernel_size: 5
    stride: 1
    weight_filler {
      type: "gaussian"
      std: 0.01
    }
    bias_filler {
      type: "constant"
    }
  }
}
layer {
  name: "relu4"
  type: "ReLU"
  bottom: "conv4"
  top: "conv4"
}
layer {
  name: "conv5"
  type: "Convolution"
  bottom: "conv4"
  top: "conv5"
  param {
    lr_mult: 1
  }
  param {
    lr_mult: 2
  }
  convolution_param {
    num_output: 64
    pad: 2
    kernel_size: 5
    stride: 1
    weight_filler {
      type: "gaussian"
      std: 0.01
    }
    bias_filler {
      type: "constant"
    }
  }
}
layer {
  name: "relu5"
  type: "ReLU"
  bottom: "conv5"
  top: "conv5"
}
layer {
  name: "pool5"
  type: "Pooling"
  bottom: "conv5"
  top: "pool5"
  pooling_param {
    pool: AVE
    kernel_size: 3
    stride: 2
  }
}
layer {
  name: "ip1"
  type: "InnerProduct"
  bottom: "pool5"
  top: "ip1"
  param {
    lr_mult: 1
  }
  param {
    lr_mult: 2
  }
  inner_product_param {
    num_output: 64
    weight_filler {
      type: "gaussian"
      std: 0.1
    }
    bias_filler {
      type: "constant"
    }
  }
}
layer {
  name: "ip2"
  type: "InnerProduct"
  bottom: "ip1"
  top: "ip2"
  param {
    lr_mult: 1
  }
  param {
    lr_mult: 2
  }
  inner_product_param {
    num_output: 64
    weight_filler {
      type: "gaussian"
      std: 0.1
    }
    bias_filler {
      type: "constant"
    }
  }
}
layer {
  name: "ip3"
  type: "InnerProduct"
  bottom: "ip2"
  top: "ip3"
  param {
    lr_mult: 1
  }
  param {
    lr_mult: 2
  }
  inner_product_param {
    num_output: 1
    weight_filler {
      type: "gaussian"
      std: 0.1
    }
    bias_filler {
      type: "constant"
    }
  }
}
layer {
  name: "loss"
  type: "HuberLoss"
  bottom: "ip3"
  bottom: "label"
  top: "loss"
  include {
    phase: TRAIN
  }
}
I0502 02:46:39.960804 17215 layer_factory.hpp:77] Creating layer parameters
I0502 02:46:39.960822 17215 net.cpp:94] Creating Layer parameters
I0502 02:46:39.960827 17215 net.cpp:409] parameters -> data
I0502 02:46:39.960836 17215 net.cpp:409] parameters -> label
I0502 02:46:39.960844 17215 hdf5_data_layer.cpp:79] Loading list of HDF5 filenames from: /home/purduethu/scratch/radon/d/deng106/CNNStatisticalModel/distributions/input/5_distributions_400_sample_size_train-parameters-path.txt
I0502 02:46:39.960858 17215 hdf5_data_layer.cpp:93] Number of HDF5 files: 1
I0502 02:46:39.961413 17215 hdf5.cpp:32] Datatype class: H5T_FLOAT
I0502 02:46:40.024616 17215 net.cpp:144] Setting up parameters
I0502 02:46:40.024644 17215 net.cpp:151] Top shape: 20 1 20 20 (8000)
I0502 02:46:40.024649 17215 net.cpp:151] Top shape: 20 (20)
I0502 02:46:40.024653 17215 net.cpp:159] Memory required for data: 32080
I0502 02:46:40.024658 17215 layer_factory.hpp:77] Creating layer conv1
I0502 02:46:40.024679 17215 net.cpp:94] Creating Layer conv1
I0502 02:46:40.024684 17215 net.cpp:435] conv1 <- data
I0502 02:46:40.024690 17215 net.cpp:409] conv1 -> conv1
I0502 02:46:40.029933 17215 net.cpp:144] Setting up conv1
I0502 02:46:40.029949 17215 net.cpp:151] Top shape: 20 64 20 20 (512000)
I0502 02:46:40.029953 17215 net.cpp:159] Memory required for data: 2080080
I0502 02:46:40.029963 17215 layer_factory.hpp:77] Creating layer relu1
I0502 02:46:40.029970 17215 net.cpp:94] Creating Layer relu1
I0502 02:46:40.029973 17215 net.cpp:435] relu1 <- conv1
I0502 02:46:40.029978 17215 net.cpp:396] relu1 -> conv1 (in-place)
I0502 02:46:40.029989 17215 net.cpp:144] Setting up relu1
I0502 02:46:40.029994 17215 net.cpp:151] Top shape: 20 64 20 20 (512000)
I0502 02:46:40.029997 17215 net.cpp:159] Memory required for data: 4128080
I0502 02:46:40.029999 17215 layer_factory.hpp:77] Creating layer conv2
I0502 02:46:40.030007 17215 net.cpp:94] Creating Layer conv2
I0502 02:46:40.030011 17215 net.cpp:435] conv2 <- conv1
I0502 02:46:40.030015 17215 net.cpp:409] conv2 -> conv2
I0502 02:46:40.040652 17215 net.cpp:144] Setting up conv2
I0502 02:46:40.040666 17215 net.cpp:151] Top shape: 20 64 20 20 (512000)
I0502 02:46:40.040670 17215 net.cpp:159] Memory required for data: 6176080
I0502 02:46:40.040678 17215 layer_factory.hpp:77] Creating layer relu2
I0502 02:46:40.040684 17215 net.cpp:94] Creating Layer relu2
I0502 02:46:40.040688 17215 net.cpp:435] relu2 <- conv2
I0502 02:46:40.040693 17215 net.cpp:396] relu2 -> conv2 (in-place)
I0502 02:46:40.040699 17215 net.cpp:144] Setting up relu2
I0502 02:46:40.040704 17215 net.cpp:151] Top shape: 20 64 20 20 (512000)
I0502 02:46:40.040707 17215 net.cpp:159] Memory required for data: 8224080
I0502 02:46:40.040709 17215 layer_factory.hpp:77] Creating layer pool2
I0502 02:46:40.040721 17215 net.cpp:94] Creating Layer pool2
I0502 02:46:40.040725 17215 net.cpp:435] pool2 <- conv2
I0502 02:46:40.040729 17215 net.cpp:409] pool2 -> pool2
I0502 02:46:40.040781 17215 net.cpp:144] Setting up pool2
I0502 02:46:40.040788 17215 net.cpp:151] Top shape: 20 64 10 10 (128000)
I0502 02:46:40.040791 17215 net.cpp:159] Memory required for data: 8736080
I0502 02:46:40.040794 17215 layer_factory.hpp:77] Creating layer conv3
I0502 02:46:40.040802 17215 net.cpp:94] Creating Layer conv3
I0502 02:46:40.040807 17215 net.cpp:435] conv3 <- pool2
I0502 02:46:40.040812 17215 net.cpp:409] conv3 -> conv3
I0502 02:46:40.045922 17215 net.cpp:144] Setting up conv3
I0502 02:46:40.045935 17215 net.cpp:151] Top shape: 20 64 10 10 (128000)
I0502 02:46:40.045939 17215 net.cpp:159] Memory required for data: 9248080
I0502 02:46:40.045946 17215 layer_factory.hpp:77] Creating layer relu3
I0502 02:46:40.045953 17215 net.cpp:94] Creating Layer relu3
I0502 02:46:40.045956 17215 net.cpp:435] relu3 <- conv3
I0502 02:46:40.045960 17215 net.cpp:396] relu3 -> conv3 (in-place)
I0502 02:46:40.045967 17215 net.cpp:144] Setting up relu3
I0502 02:46:40.045972 17215 net.cpp:151] Top shape: 20 64 10 10 (128000)
I0502 02:46:40.045974 17215 net.cpp:159] Memory required for data: 9760080
I0502 02:46:40.045977 17215 layer_factory.hpp:77] Creating layer conv4
I0502 02:46:40.045985 17215 net.cpp:94] Creating Layer conv4
I0502 02:46:40.045989 17215 net.cpp:435] conv4 <- conv3
I0502 02:46:40.045994 17215 net.cpp:409] conv4 -> conv4
I0502 02:46:40.051147 17215 net.cpp:144] Setting up conv4
I0502 02:46:40.051161 17215 net.cpp:151] Top shape: 20 64 10 10 (128000)
I0502 02:46:40.051164 17215 net.cpp:159] Memory required for data: 10272080
I0502 02:46:40.051170 17215 layer_factory.hpp:77] Creating layer relu4
I0502 02:46:40.051177 17215 net.cpp:94] Creating Layer relu4
I0502 02:46:40.051179 17215 net.cpp:435] relu4 <- conv4
I0502 02:46:40.051183 17215 net.cpp:396] relu4 -> conv4 (in-place)
I0502 02:46:40.051190 17215 net.cpp:144] Setting up relu4
I0502 02:46:40.051195 17215 net.cpp:151] Top shape: 20 64 10 10 (128000)
I0502 02:46:40.051198 17215 net.cpp:159] Memory required for data: 10784080
I0502 02:46:40.051201 17215 layer_factory.hpp:77] Creating layer conv5
I0502 02:46:40.051208 17215 net.cpp:94] Creating Layer conv5
I0502 02:46:40.051211 17215 net.cpp:435] conv5 <- conv4
I0502 02:46:40.051216 17215 net.cpp:409] conv5 -> conv5
I0502 02:46:40.056417 17215 net.cpp:144] Setting up conv5
I0502 02:46:40.056432 17215 net.cpp:151] Top shape: 20 64 10 10 (128000)
I0502 02:46:40.056435 17215 net.cpp:159] Memory required for data: 11296080
I0502 02:46:40.056442 17215 layer_factory.hpp:77] Creating layer relu5
I0502 02:46:40.056449 17215 net.cpp:94] Creating Layer relu5
I0502 02:46:40.056453 17215 net.cpp:435] relu5 <- conv5
I0502 02:46:40.056457 17215 net.cpp:396] relu5 -> conv5 (in-place)
I0502 02:46:40.056464 17215 net.cpp:144] Setting up relu5
I0502 02:46:40.056468 17215 net.cpp:151] Top shape: 20 64 10 10 (128000)
I0502 02:46:40.056471 17215 net.cpp:159] Memory required for data: 11808080
I0502 02:46:40.056474 17215 layer_factory.hpp:77] Creating layer pool5
I0502 02:46:40.056480 17215 net.cpp:94] Creating Layer pool5
I0502 02:46:40.056483 17215 net.cpp:435] pool5 <- conv5
I0502 02:46:40.056488 17215 net.cpp:409] pool5 -> pool5
I0502 02:46:40.056524 17215 net.cpp:144] Setting up pool5
I0502 02:46:40.056531 17215 net.cpp:151] Top shape: 20 64 5 5 (32000)
I0502 02:46:40.056535 17215 net.cpp:159] Memory required for data: 11936080
I0502 02:46:40.056537 17215 layer_factory.hpp:77] Creating layer ip1
I0502 02:46:40.056546 17215 net.cpp:94] Creating Layer ip1
I0502 02:46:40.056558 17215 net.cpp:435] ip1 <- pool5
I0502 02:46:40.056565 17215 net.cpp:409] ip1 -> ip1
I0502 02:46:40.059098 17215 net.cpp:144] Setting up ip1
I0502 02:46:40.059106 17215 net.cpp:151] Top shape: 20 64 (1280)
I0502 02:46:40.059109 17215 net.cpp:159] Memory required for data: 11941200
I0502 02:46:40.059114 17215 layer_factory.hpp:77] Creating layer ip2
I0502 02:46:40.059120 17215 net.cpp:94] Creating Layer ip2
I0502 02:46:40.059128 17215 net.cpp:435] ip2 <- ip1
I0502 02:46:40.059132 17215 net.cpp:409] ip2 -> ip2
I0502 02:46:40.059345 17215 net.cpp:144] Setting up ip2
I0502 02:46:40.059351 17215 net.cpp:151] Top shape: 20 64 (1280)
I0502 02:46:40.059355 17215 net.cpp:159] Memory required for data: 11946320
I0502 02:46:40.059360 17215 layer_factory.hpp:77] Creating layer ip3
I0502 02:46:40.059365 17215 net.cpp:94] Creating Layer ip3
I0502 02:46:40.059370 17215 net.cpp:435] ip3 <- ip2
I0502 02:46:40.059375 17215 net.cpp:409] ip3 -> ip3
I0502 02:46:40.059478 17215 net.cpp:144] Setting up ip3
I0502 02:46:40.059484 17215 net.cpp:151] Top shape: 20 1 (20)
I0502 02:46:40.059487 17215 net.cpp:159] Memory required for data: 11946400
I0502 02:46:40.059492 17215 layer_factory.hpp:77] Creating layer loss
I0502 02:46:40.059499 17215 net.cpp:94] Creating Layer loss
I0502 02:46:40.059502 17215 net.cpp:435] loss <- ip3
I0502 02:46:40.059505 17215 net.cpp:435] loss <- label
I0502 02:46:40.059510 17215 net.cpp:409] loss -> loss
I0502 02:46:40.059563 17215 net.cpp:144] Setting up loss
…
I0502 02:46:40.100329 17215 net.cpp:323] The NetState phase (0) differed from the phase (1) specified by a rule in layer intercept
I0502 02:46:40.100348 17215 net.cpp:323] The NetState phase (0) differed from the phase (1) specified by a rule in layer accuracy
I0502 02:46:40.100440 17215 net.cpp:52] Initializing net from parameters: 
state {
  phase: TRAIN
}
layer {
  name: "parameters"
  type: "HDF5Data"
  top: "data"
  top: "label"
  include {
    phase: TRAIN
  }
  hdf5_data_param {
    source: "/home/purduethu/scratch/radon/d/deng106/CNNStatisticalModel/distributions/input/5_distributions_400_sample_size_train-distributions-path.txt"
    batch_size: 20
  }
}
layer {
  name: "conv1"
  type: "Convolution"
  bottom: "data"
  top: "conv1"
  param {
    lr_mult: 1
  }
  param {
    lr_mult: 2
  }
  convolution_param {
    num_output: 64
    pad: 2
    kernel_size: 5
    stride: 1
    weight_filler {
      type: "gaussian"
      std: 0.0001
    }
    bias_filler {
      type: "constant"
    }
  }
}
layer {
  name: "relu1"
  type: "ReLU"
  bottom: "conv1"
  top: "conv1"
}
layer {
  name: "conv2"
  type: "Convolution"
  bottom: "conv1"
  top: "conv2"
  param {
    lr_mult: 1
  }
  param {
    lr_mult: 2
  }
  convolution_param {
    num_output: 64
    pad: 2
    kernel_size: 5
    stride: 1
    weight_filler {
      type: "gaussian"
      std: 0.01
    }
    bias_filler {
      type: "constant"
    }
  }
}
layer {
  name: "relu2"
  type: "ReLU"
  bottom: "conv2"
  top: "conv2"
}
layer {
  name: "pool2"
  type: "Pooling"
  bottom: "conv2"
  top: "pool2"
  pooling_param {
    pool: MAX
    kernel_size: 3
    stride: 2
  }
}
layer {
  name: "conv3"
  type: "Convolution"
  bottom: "pool2"
  top: "conv3"
  param {
    lr_mult: 1
  }
  param {
    lr_mult: 2
  }
  convolution_param {
    num_output: 64
    pad: 2
    kernel_size: 5
    stride: 1
    weight_filler {
      type: "gaussian"
      std: 0.01
    }
    bias_filler {
      type: "constant"
    }
  }
}
layer {
  name: "relu3"
  type: "ReLU"
  bottom: "conv3"
  top: "conv3"
}
layer {
  name: "conv4"
  type: "Convolution"
  bottom: "conv3"
  top: "conv4"
  param {
    lr_mult: 1
  }
  param {
    lr_mult: 2
  }
  convolution_param {
    num_output: 64
    pad: 2
    kernel_size: 5
    stride: 1
    weight_filler {
      type: "gaussian"
      std: 0.01
    }
    bias_filler {
      type: "constant"
    }
  }
}
layer {
  name: "relu4"
  type: "ReLU"
  bottom: "conv4"
  top: "conv4"
}
layer {
  name: "conv5"
  type: "Convolution"
  bottom: "conv4"
  top: "conv5"
  param {
    lr_mult: 1
  }
  param {
    lr_mult: 2
  }
  convolution_param {
    num_output: 64
    pad: 2
    kernel_size: 5
    stride: 1
    weight_filler {
      type: "gaussian"
      std: 0.01
    }
    bias_filler {
      type: "constant"
    }
  }
}
layer {
  name: "relu5"
  type: "ReLU"
  bottom: "conv5"
  top: "conv5"
}
layer {
  name: "pool5"
  type: "Pooling"
  bottom: "conv5"
  top: "pool5"
  pooling_param {
    pool: AVE
    kernel_size: 3
    stride: 2
  }
}
layer {
  name: "ip1"
  type: "InnerProduct"
  bottom: "pool5"
  top: "ip1"
  param {
    lr_mult: 1
  }
  param {
    lr_mult: 2
  }
  inner_product_param {
    num_output: 64
    weight_filler {
      type: "gaussian"
      std: 0.1
    }
    bias_filler {
      type: "constant"
    }
  }
}
layer {
  name: "ip2"
  type: "InnerProduct"
  bottom: "ip1"
  top: "ip2"
  param {
    lr_mult: 1
  }
  param {
    lr_mult: 2
  }
  inner_product_param {
    num_output: 64
    weight_filler {
      type: "gaussian"
      std: 0.1
    }
    bias_filler {
      type: "constant"
    }
  }
}
layer {
  name: "ip3"
  type: "InnerProduct"
  bottom: "ip2"
  top: "ip3"
  param {
    lr_mult: 1
  }
  param {
    lr_mult: 2
  }
  inner_product_param {
    num_output: 50
    weight_filler {
      type: "gaussian"
      std: 0.1
    }
    bias_filler {
      type: "constant"
    }
  }
}
layer {
  name: "loss"
  type: "SoftmaxWithLoss"
  bottom: "ip3"
  bottom: "label"
  top: "loss"
}
I0502 02:46:40.100492 17215 layer_factory.hpp:77] Creating layer parameters
I0502 02:46:40.100499 17215 net.cpp:94] Creating Layer parameters
I0502 02:46:40.100503 17215 net.cpp:409] parameters -> data
I0502 02:46:40.100509 17215 net.cpp:409] parameters -> label
I0502 02:46:40.100515 17215 hdf5_data_layer.cpp:79] Loading list of HDF5 filenames from: /home/purduethu/scratch/radon/d/deng106/CNNStatisticalModel/distributions/input/5_distributions_400_sample_size_train-distributions-path.txt
I0502 02:46:40.100533 17215 hdf5_data_layer.cpp:93] Number of HDF5 files: 1
I0502 02:46:40.161960 17215 hdf5.cpp:35] Datatype class: H5T_INTEGER
I0502 02:46:40.162382 17215 net.cpp:144] Setting up parameters
I0502 02:46:40.162397 17215 net.cpp:151] Top shape: 20 1 20 20 (8000)
I0502 02:46:40.162401 17215 net.cpp:151] Top shape: 20 (20)
I0502 02:46:40.162405 17215 net.cpp:159] Memory required for data: 32080
I0502 02:46:40.162410 17215 layer_factory.hpp:77] Creating layer conv1
I0502 02:46:40.162425 17215 net.cpp:94] Creating Layer conv1
I0502 02:46:40.162430 17215 net.cpp:435] conv1 <- data
I0502 02:46:40.162436 17215 net.cpp:409] conv1 -> conv1
I0502 02:46:40.165154 17215 net.cpp:144] Setting up conv1
I0502 02:46:40.165169 17215 net.cpp:151] Top shape: 20 64 20 20 (512000)
I0502 02:46:40.165174 17215 net.cpp:159] Memory required for data: 2080080
I0502 02:46:40.165184 17215 layer_factory.hpp:77] Creating layer relu1
I0502 02:46:40.165191 17215 net.cpp:94] Creating Layer relu1
I0502 02:46:40.165195 17215 net.cpp:435] relu1 <- conv1
I0502 02:46:40.165199 17215 net.cpp:396] relu1 -> conv1 (in-place)
I0502 02:46:40.165206 17215 net.cpp:144] Setting up relu1
I0502 02:46:40.165211 17215 net.cpp:151] Top shape: 20 64 20 20 (512000)
I0502 02:46:40.165215 17215 net.cpp:159] Memory required for data: 4128080
I0502 02:46:40.165216 17215 layer_factory.hpp:77] Creating layer conv2
I0502 02:46:40.165225 17215 net.cpp:94] Creating Layer conv2
I0502 02:46:40.165228 17215 net.cpp:435] conv2 <- conv1
I0502 02:46:40.165232 17215 net.cpp:409] conv2 -> conv2
I0502 02:46:40.177006 17215 net.cpp:144] Setting up conv2
I0502 02:46:40.177022 17215 net.cpp:151] Top shape: 20 64 20 20 (512000)
I0502 02:46:40.177026 17215 net.cpp:159] Memory required for data: 6176080
I0502 02:46:40.177034 17215 layer_factory.hpp:77] Creating layer relu2
I0502 02:46:40.177040 17215 net.cpp:94] Creating Layer relu2
I0502 02:46:40.177044 17215 net.cpp:435] relu2 <- conv2
I0502 02:46:40.177048 17215 net.cpp:396] relu2 -> conv2 (in-place)
I0502 02:46:40.177055 17215 net.cpp:144] Setting up relu2
I0502 02:46:40.177060 17215 net.cpp:151] Top shape: 20 64 20 20 (512000)
I0502 02:46:40.177062 17215 net.cpp:159] Memory required for data: 8224080
I0502 02:46:40.177065 17215 layer_factory.hpp:77] Creating layer pool2
I0502 02:46:40.177072 17215 net.cpp:94] Creating Layer pool2
I0502 02:46:40.177074 17215 net.cpp:435] pool2 <- conv2
I0502 02:46:40.177078 17215 net.cpp:409] pool2 -> pool2
I0502 02:46:40.177129 17215 net.cpp:144] Setting up pool2
I0502 02:46:40.177135 17215 net.cpp:151] Top shape: 20 64 10 10 (128000)
I0502 02:46:40.177139 17215 net.cpp:159] Memory required for data: 8736080
I0502 02:46:40.177141 17215 layer_factory.hpp:77] Creating layer conv3
I0502 02:46:40.177150 17215 net.cpp:94] Creating Layer conv3
I0502 02:46:40.177152 17215 net.cpp:435] conv3 <- pool2
I0502 02:46:40.177157 17215 net.cpp:409] conv3 -> conv3
I0502 02:46:40.182337 17215 net.cpp:144] Setting up conv3
I0502 02:46:40.182351 17215 net.cpp:151] Top shape: 20 64 10 10 (128000)
I0502 02:46:40.182354 17215 net.cpp:159] Memory required for data: 9248080
I0502 02:46:40.182363 17215 layer_factory.hpp:77] Creating layer relu3
I0502 02:46:40.182368 17215 net.cpp:94] Creating Layer relu3
I0502 02:46:40.182371 17215 net.cpp:435] relu3 <- conv3
I0502 02:46:40.182376 17215 net.cpp:396] relu3 -> conv3 (in-place)
I0502 02:46:40.182382 17215 net.cpp:144] Setting up relu3
I0502 02:46:40.182387 17215 net.cpp:151] Top shape: 20 64 10 10 (128000)
I0502 02:46:40.182390 17215 net.cpp:159] Memory required for data: 9760080
I0502 02:46:40.182394 17215 layer_factory.hpp:77] Creating layer conv4
I0502 02:46:40.182401 17215 net.cpp:94] Creating Layer conv4
I0502 02:46:40.182404 17215 net.cpp:435] conv4 <- conv3
I0502 02:46:40.182410 17215 net.cpp:409] conv4 -> conv4
I0502 02:46:40.189483 17215 net.cpp:144] Setting up conv4
I0502 02:46:40.189497 17215 net.cpp:151] Top shape: 20 64 10 10 (128000)
I0502 02:46:40.189502 17215 net.cpp:159] Memory required for data: 10272080
I0502 02:46:40.189507 17215 layer_factory.hpp:77] Creating layer relu4
I0502 02:46:40.189512 17215 net.cpp:94] Creating Layer relu4
I0502 02:46:40.189517 17215 net.cpp:435] relu4 <- conv4
I0502 02:46:40.189520 17215 net.cpp:396] relu4 -> conv4 (in-place)
I0502 02:46:40.189527 17215 net.cpp:144] Setting up relu4
I0502 02:46:40.189532 17215 net.cpp:151] Top shape: 20 64 10 10 (128000)
I0502 02:46:40.189534 17215 net.cpp:159] Memory required for data: 10784080
I0502 02:46:40.189538 17215 layer_factory.hpp:77] Creating layer conv5
I0502 02:46:40.189544 17215 net.cpp:94] Creating Layer conv5
I0502 02:46:40.189548 17215 net.cpp:435] conv5 <- conv4
I0502 02:46:40.189553 17215 net.cpp:409] conv5 -> conv5
I0502 02:46:40.194787 17215 net.cpp:144] Setting up conv5
I0502 02:46:40.194800 17215 net.cpp:151] Top shape: 20 64 10 10 (128000)
I0502 02:46:40.194804 17215 net.cpp:159] Memory required for data: 11296080
I0502 02:46:40.194813 17215 layer_factory.hpp:77] Creating layer relu5
I0502 02:46:40.194818 17215 net.cpp:94] Creating Layer relu5
I0502 02:46:40.194821 17215 net.cpp:435] relu5 <- conv5
I0502 02:46:40.194826 17215 net.cpp:396] relu5 -> conv5 (in-place)
I0502 02:46:40.194833 17215 net.cpp:144] Setting up relu5
I0502 02:46:40.194836 17215 net.cpp:151] Top shape: 20 64 10 10 (128000)
I0502 02:46:40.194839 17215 net.cpp:159] Memory required for data: 11808080
I0502 02:46:40.194842 17215 layer_factory.hpp:77] Creating layer pool5
I0502 02:46:40.194847 17215 net.cpp:94] Creating Layer pool5
I0502 02:46:40.194850 17215 net.cpp:435] pool5 <- conv5
I0502 02:46:40.194854 17215 net.cpp:409] pool5 -> pool5
I0502 02:46:40.194888 17215 net.cpp:144] Setting up pool5
I0502 02:46:40.194895 17215 net.cpp:151] Top shape: 20 64 5 5 (32000)
I0502 02:46:40.194897 17215 net.cpp:159] Memory required for data: 11936080
I0502 02:46:40.194900 17215 layer_factory.hpp:77] Creating layer ip1
I0502 02:46:40.194907 17215 net.cpp:94] Creating Layer ip1
I0502 02:46:40.194911 17215 net.cpp:435] ip1 <- pool5
I0502 02:46:40.194916 17215 net.cpp:409] ip1 -> ip1
I0502 02:46:40.197466 17215 net.cpp:144] Setting up ip1
I0502 02:46:40.197476 17215 net.cpp:151] Top shape: 20 64 (1280)
I0502 02:46:40.197479 17215 net.cpp:159] Memory required for data: 11941200
I0502 02:46:40.197485 17215 layer_factory.hpp:77] Creating layer ip2
I0502 02:46:40.197492 17215 net.cpp:94] Creating Layer ip2
I0502 02:46:40.197496 17215 net.cpp:435] ip2 <- ip1
I0502 02:46:40.197501 17215 net.cpp:409] ip2 -> ip2
I0502 02:46:40.197722 17215 net.cpp:144] Setting up ip2
I0502 02:46:40.197731 17215 net.cpp:151] Top shape: 20 64 (1280)
I0502 02:46:40.197733 17215 net.cpp:159] Memory required for data: 11946320
I0502 02:46:40.197737 17215 layer_factory.hpp:77] Creating layer ip3
I0502 02:46:40.197744 17215 net.cpp:94] Creating Layer ip3
I0502 02:46:40.197747 17215 net.cpp:435] ip3 <- ip2
I0502 02:46:40.197751 17215 net.cpp:409] ip3 -> ip3
I0502 02:46:40.197947 17215 net.cpp:144] Setting up ip3
I0502 02:46:40.197957 17215 net.cpp:151] Top shape: 20 50 (1000)
I0502 02:46:40.197960 17215 net.cpp:159] Memory required for data: 11950320
I0502 02:46:40.197965 17215 layer_factory.hpp:77] Creating layer loss
I0502 02:46:40.197973 17215 net.cpp:94] Creating Layer loss
I0502 02:46:40.197976 17215 net.cpp:435] loss <- ip3
I0502 02:46:40.197979 17215 net.cpp:435] loss <- label
I0502 02:46:40.197983 17215 net.cpp:409] loss -> loss
I0502 02:46:40.197990 17215 layer_factory.hpp:77] Creating layer loss
…
I0502 02:46:40.198503 17215 solver.cpp:181] Creating test net (#0) specified by net file: ./protocol/dis_5_400_dimension.protocol_distribution
I0502 02:46:40.198529 17215 net.cpp:323] The NetState phase (1) differed from the phase (0) specified by a rule in layer parameters
I0502 02:46:40.198631 17215 net.cpp:52] Initializing net from parameters: 
state {
  phase: TEST
}
layer {
  name: "intercept"
  type: "HDF5Data"
  top: "data"
  top: "label"
  include {
    phase: TEST
  }
  hdf5_data_param {
    source: "/home/purduethu/scratch/radon/d/deng106/CNNStatisticalModel/distributions/input/5_distributions_400_sample_size_test-distributions-path.txt"
    batch_size: 20
  }
}
layer {
  name: "conv1"
  type: "Convolution"
  bottom: "data"
  top: "conv1"
  param {
    lr_mult: 1
  }
  param {
    lr_mult: 2
  }
  convolution_param {
    num_output: 64
    pad: 2
    kernel_size: 5
    stride: 1
    weight_filler {
      type: "gaussian"
      std: 0.0001
    }
    bias_filler {
      type: "constant"
    }
  }
}
layer {
  name: "relu1"
  type: "ReLU"
  bottom: "conv1"
  top: "conv1"
}
layer {
  name: "conv2"
  type: "Convolution"
  bottom: "conv1"
  top: "conv2"
  param {
    lr_mult: 1
  }
  param {
    lr_mult: 2
  }
  convolution_param {
    num_output: 64
    pad: 2
    kernel_size: 5
    stride: 1
    weight_filler {
      type: "gaussian"
      std: 0.01
    }
    bias_filler {
      type: "constant"
    }
  }
}
layer {
  name: "relu2"
  type: "ReLU"
  bottom: "conv2"
  top: "conv2"
}
layer {
  name: "pool2"
  type: "Pooling"
  bottom: "conv2"
  top: "pool2"
  pooling_param {
    pool: MAX
    kernel_size: 3
    stride: 2
  }
}
layer {
  name: "conv3"
  type: "Convolution"
  bottom: "pool2"
  top: "conv3"
  param {
    lr_mult: 1
  }
  param {
    lr_mult: 2
  }
  convolution_param {
    num_output: 64
    pad: 2
    kernel_size: 5
    stride: 1
    weight_filler {
      type: "gaussian"
      std: 0.01
    }
    bias_filler {
      type: "constant"
    }
  }
}
layer {
  name: "relu3"
  type: "ReLU"
  bottom: "conv3"
  top: "conv3"
}
layer {
  name: "conv4"
  type: "Convolution"
  bottom: "conv3"
  top: "conv4"
  param {
    lr_mult: 1
  }
  param {
    lr_mult: 2
  }
  convolution_param {
    num_output: 64
    pad: 2
    kernel_size: 5
    stride: 1
    weight_filler {
      type: "gaussian"
      std: 0.01
    }
    bias_filler {
      type: "constant"
    }
  }
}
layer {
  name: "relu4"
  type: "ReLU"
  bottom: "conv4"
  top: "conv4"
}
layer {
  name: "conv5"
  type: "Convolution"
  bottom: "conv4"
  top: "conv5"
  param {
    lr_mult: 1
  }
  param {
    lr_mult: 2
  }
  convolution_param {
    num_output: 64
    pad: 2
    kernel_size: 5
    stride: 1
    weight_filler {
      type: "gaussian"
      std: 0.01
    }
    bias_filler {
      type: "constant"
    }
  }
}
layer {
  name: "relu5"
  type: "ReLU"
  bottom: "conv5"
  top: "conv5"
}
layer {
  name: "pool5"
  type: "Pooling"
  bottom: "conv5"
  top: "pool5"
  pooling_param {
    pool: AVE
    kernel_size: 3
    stride: 2
  }
}
layer {
  name: "ip1"
  type: "InnerProduct"
  bottom: "pool5"
  top: "ip1"
  param {
    lr_mult: 1
  }
  param {
    lr_mult: 2
  }
  inner_product_param {
    num_output: 64
    weight_filler {
      type: "gaussian"
      std: 0.1
    }
    bias_filler {
      type: "constant"
    }
  }
}
layer {
  name: "ip2"
  type: "InnerProduct"
  bottom: "ip1"
  top: "ip2"
  param {
    lr_mult: 1
  }
  param {
    lr_mult: 2
  }
  inner_product_param {
    num_output: 64
    weight_filler {
      type: "gaussian"
      std: 0.1
    }
    bias_filler {
      type: "constant"
    }
  }
}
layer {
  name: "ip3"
  type: "InnerProduct"
  bottom: "ip2"
  top: "ip3"
  param {
    lr_mult: 1
  }
  param {
    lr_mult: 2
  }
  inner_product_param {
    num_output: 50
    weight_filler {
      type: "gaussian"
      std: 0.1
    }
    bias_filler {
      type: "constant"
    }
  }
}
layer {
  name: "accuracy"
  type: "Accuracy"
  bottom: "ip3"
  bottom: "label"
  top: "accuracy"
  include {
    phase: TEST
  }
}
layer {
  name: "loss"
  type: "SoftmaxWithLoss"
  bottom: "ip3"
  bottom: "label"
  top: "loss"
}
I0502 02:46:40.198700 17215 layer_factory.hpp:77] Creating layer intercept
I0502 02:46:40.198709 17215 net.cpp:94] Creating Layer intercept
I0502 02:46:40.198712 17215 net.cpp:409] intercept -> data
I0502 02:46:40.198719 17215 net.cpp:409] intercept -> label
I0502 02:46:40.198725 17215 hdf5_data_layer.cpp:79] Loading list of HDF5 filenames from: /home/purduethu/scratch/radon/d/deng106/CNNStatisticalModel/distributions/input/5_distributions_400_sample_size_test-distributions-path.txt
I0502 02:46:40.198745 17215 hdf5_data_layer.cpp:93] Number of HDF5 files: 1
I0502 02:46:40.215101 17215 net.cpp:144] Setting up intercept
I0502 02:46:40.215132 17215 net.cpp:151] Top shape: 20 1 20 20 (8000)
I0502 02:46:40.215137 17215 net.cpp:151] Top shape: 20 (20)
I0502 02:46:40.215140 17215 net.cpp:159] Memory required for data: 32080
I0502 02:46:40.215147 17215 layer_factory.hpp:77] Creating layer label_intercept_1_split
I0502 02:46:40.215164 17215 net.cpp:94] Creating Layer label_intercept_1_split
I0502 02:46:40.215169 17215 net.cpp:435] label_intercept_1_split <- label
I0502 02:46:40.215174 17215 net.cpp:409] label_intercept_1_split -> label_intercept_1_split_0
I0502 02:46:40.215183 17215 net.cpp:409] label_intercept_1_split -> label_intercept_1_split_1
I0502 02:46:40.215221 17215 net.cpp:144] Setting up label_intercept_1_split
I0502 02:46:40.215227 17215 net.cpp:151] Top shape: 20 (20)
I0502 02:46:40.215231 17215 net.cpp:151] Top shape: 20 (20)
I0502 02:46:40.215234 17215 net.cpp:159] Memory required for data: 32240
I0502 02:46:40.215236 17215 layer_factory.hpp:77] Creating layer conv1
I0502 02:46:40.215247 17215 net.cpp:94] Creating Layer conv1
I0502 02:46:40.215250 17215 net.cpp:435] conv1 <- data
I0502 02:46:40.215255 17215 net.cpp:409] conv1 -> conv1
I0502 02:46:40.216578 17215 net.cpp:144] Setting up conv1
I0502 02:46:40.216598 17215 net.cpp:151] Top shape: 20 64 20 20 (512000)
I0502 02:46:40.216601 17215 net.cpp:159] Memory required for data: 2080240
I0502 02:46:40.216611 17215 layer_factory.hpp:77] Creating layer relu1
I0502 02:46:40.216617 17215 net.cpp:94] Creating Layer relu1
I0502 02:46:40.216620 17215 net.cpp:435] relu1 <- conv1
I0502 02:46:40.216625 17215 net.cpp:396] relu1 -> conv1 (in-place)
I0502 02:46:40.216632 17215 net.cpp:144] Setting up relu1
I0502 02:46:40.216636 17215 net.cpp:151] Top shape: 20 64 20 20 (512000)
I0502 02:46:40.216639 17215 net.cpp:159] Memory required for data: 4128240
I0502 02:46:40.216642 17215 layer_factory.hpp:77] Creating layer conv2
I0502 02:46:40.216650 17215 net.cpp:94] Creating Layer conv2
I0502 02:46:40.216653 17215 net.cpp:435] conv2 <- conv1
I0502 02:46:40.216658 17215 net.cpp:409] conv2 -> conv2
I0502 02:46:40.222326 17215 net.cpp:144] Setting up conv2
I0502 02:46:40.222340 17215 net.cpp:151] Top shape: 20 64 20 20 (512000)
I0502 02:46:40.222344 17215 net.cpp:159] Memory required for data: 6176240
I0502 02:46:40.222352 17215 layer_factory.hpp:77] Creating layer relu2
I0502 02:46:40.222357 17215 net.cpp:94] Creating Layer relu2
I0502 02:46:40.222362 17215 net.cpp:435] relu2 <- conv2
I0502 02:46:40.222365 17215 net.cpp:396] relu2 -> conv2 (in-place)
I0502 02:46:40.222373 17215 net.cpp:144] Setting up relu2
I0502 02:46:40.222376 17215 net.cpp:151] Top shape: 20 64 20 20 (512000)
I0502 02:46:40.222379 17215 net.cpp:159] Memory required for data: 8224240
I0502 02:46:40.222383 17215 layer_factory.hpp:77] Creating layer pool2
I0502 02:46:40.222388 17215 net.cpp:94] Creating Layer pool2
I0502 02:46:40.222390 17215 net.cpp:435] pool2 <- conv2
I0502 02:46:40.222394 17215 net.cpp:409] pool2 -> pool2
I0502 02:46:40.222445 17215 net.cpp:144] Setting up pool2
I0502 02:46:40.222451 17215 net.cpp:151] Top shape: 20 64 10 10 (128000)
I0502 02:46:40.222455 17215 net.cpp:159] Memory required for data: 8736240
I0502 02:46:40.222457 17215 layer_factory.hpp:77] Creating layer conv3
I0502 02:46:40.222465 17215 net.cpp:94] Creating Layer conv3
I0502 02:46:40.222470 17215 net.cpp:435] conv3 <- pool2
I0502 02:46:40.222473 17215 net.cpp:409] conv3 -> conv3
I0502 02:46:40.228225 17215 net.cpp:144] Setting up conv3
I0502 02:46:40.228240 17215 net.cpp:151] Top shape: 20 64 10 10 (128000)
I0502 02:46:40.228243 17215 net.cpp:159] Memory required for data: 9248240
I0502 02:46:40.228250 17215 layer_factory.hpp:77] Creating layer relu3
I0502 02:46:40.228257 17215 net.cpp:94] Creating Layer relu3
I0502 02:46:40.228260 17215 net.cpp:435] relu3 <- conv3
I0502 02:46:40.228265 17215 net.cpp:396] relu3 -> conv3 (in-place)
I0502 02:46:40.228271 17215 net.cpp:144] Setting up relu3
I0502 02:46:40.228276 17215 net.cpp:151] Top shape: 20 64 10 10 (128000)
I0502 02:46:40.228278 17215 net.cpp:159] Memory required for data: 9760240
I0502 02:46:40.228281 17215 layer_factory.hpp:77] Creating layer conv4
I0502 02:46:40.228288 17215 net.cpp:94] Creating Layer conv4
I0502 02:46:40.228292 17215 net.cpp:435] conv4 <- conv3
I0502 02:46:40.228296 17215 net.cpp:409] conv4 -> conv4
I0502 02:46:40.231756 17215 net.cpp:144] Setting up conv4
I0502 02:46:40.231770 17215 net.cpp:151] Top shape: 20 64 10 10 (128000)
I0502 02:46:40.231773 17215 net.cpp:159] Memory required for data: 10272240
I0502 02:46:40.231779 17215 layer_factory.hpp:77] Creating layer relu4
I0502 02:46:40.231784 17215 net.cpp:94] Creating Layer relu4
I0502 02:46:40.231787 17215 net.cpp:435] relu4 <- conv4
I0502 02:46:40.231792 17215 net.cpp:396] relu4 -> conv4 (in-place)
I0502 02:46:40.231798 17215 net.cpp:144] Setting up relu4
I0502 02:46:40.231802 17215 net.cpp:151] Top shape: 20 64 10 10 (128000)
I0502 02:46:40.231806 17215 net.cpp:159] Memory required for data: 10784240
I0502 02:46:40.231808 17215 layer_factory.hpp:77] Creating layer conv5
I0502 02:46:40.231817 17215 net.cpp:94] Creating Layer conv5
I0502 02:46:40.231819 17215 net.cpp:435] conv5 <- conv4
I0502 02:46:40.231823 17215 net.cpp:409] conv5 -> conv5
I0502 02:46:40.235740 17215 net.cpp:144] Setting up conv5
I0502 02:46:40.235757 17215 net.cpp:151] Top shape: 20 64 10 10 (128000)
I0502 02:46:40.235761 17215 net.cpp:159] Memory required for data: 11296240
I0502 02:46:40.235769 17215 layer_factory.hpp:77] Creating layer relu5
I0502 02:46:40.235775 17215 net.cpp:94] Creating Layer relu5
I0502 02:46:40.235780 17215 net.cpp:435] relu5 <- conv5
I0502 02:46:40.235783 17215 net.cpp:396] relu5 -> conv5 (in-place)
I0502 02:46:40.235790 17215 net.cpp:144] Setting up relu5
I0502 02:46:40.235795 17215 net.cpp:151] Top shape: 20 64 10 10 (128000)
I0502 02:46:40.235797 17215 net.cpp:159] Memory required for data: 11808240
I0502 02:46:40.235800 17215 layer_factory.hpp:77] Creating layer pool5
I0502 02:46:40.235805 17215 net.cpp:94] Creating Layer pool5
I0502 02:46:40.235807 17215 net.cpp:435] pool5 <- conv5
I0502 02:46:40.235811 17215 net.cpp:409] pool5 -> pool5
I0502 02:46:40.235846 17215 net.cpp:144] Setting up pool5
I0502 02:46:40.235852 17215 net.cpp:151] Top shape: 20 64 5 5 (32000)
I0502 02:46:40.235854 17215 net.cpp:159] Memory required for data: 11936240
I0502 02:46:40.235857 17215 layer_factory.hpp:77] Creating layer ip1
I0502 02:46:40.235864 17215 net.cpp:94] Creating Layer ip1
I0502 02:46:40.235867 17215 net.cpp:435] ip1 <- pool5
I0502 02:46:40.235872 17215 net.cpp:409] ip1 -> ip1
I0502 02:46:40.238502 17215 net.cpp:144] Setting up ip1
I0502 02:46:40.238513 17215 net.cpp:151] Top shape: 20 64 (1280)
I0502 02:46:40.238517 17215 net.cpp:159] Memory required for data: 11941360
I0502 02:46:40.238521 17215 layer_factory.hpp:77] Creating layer ip2
I0502 02:46:40.238528 17215 net.cpp:94] Creating Layer ip2
I0502 02:46:40.238530 17215 net.cpp:435] ip2 <- ip1
I0502 02:46:40.238535 17215 net.cpp:409] ip2 -> ip2
I0502 02:46:40.238755 17215 net.cpp:144] Setting up ip2
I0502 02:46:40.238762 17215 net.cpp:151] Top shape: 20 64 (1280)
I0502 02:46:40.238765 17215 net.cpp:159] Memory required for data: 11946480
I0502 02:46:40.238770 17215 layer_factory.hpp:77] Creating layer ip3
I0502 02:46:40.238776 17215 net.cpp:94] Creating Layer ip3
I0502 02:46:40.238780 17215 net.cpp:435] ip3 <- ip2
I0502 02:46:40.238785 17215 net.cpp:409] ip3 -> ip3
I0502 02:46:40.238975 17215 net.cpp:144] Setting up ip3
I0502 02:46:40.238981 17215 net.cpp:151] Top shape: 20 50 (1000)
I0502 02:46:40.238984 17215 net.cpp:159] Memory required for data: 11950480
I0502 02:46:40.238988 17215 layer_factory.hpp:77] Creating layer ip3_ip3_0_split
I0502 02:46:40.238993 17215 net.cpp:94] Creating Layer ip3_ip3_0_split
I0502 02:46:40.238996 17215 net.cpp:435] ip3_ip3_0_split <- ip3
I0502 02:46:40.239001 17215 net.cpp:409] ip3_ip3_0_split -> ip3_ip3_0_split_0
I0502 02:46:40.239006 17215 net.cpp:409] ip3_ip3_0_split -> ip3_ip3_0_split_1
I0502 02:46:40.239042 17215 net.cpp:144] Setting up ip3_ip3_0_split
I0502 02:46:40.239048 17215 net.cpp:151] Top shape: 20 50 (1000)
I0502 02:46:40.239051 17215 net.cpp:151] Top shape: 20 50 (1000)
I0502 02:46:40.239054 17215 net.cpp:159] Memory required for data: 11958480
I0502 02:46:40.239058 17215 layer_factory.hpp:77] Creating layer accuracy
I0502 02:46:40.239063 17215 net.cpp:94] Creating Layer accuracy
I0502 02:46:40.239065 17215 net.cpp:435] accuracy <- ip3_ip3_0_split_0
I0502 02:46:40.239069 17215 net.cpp:435] accuracy <- label_intercept_1_split_0
I0502 02:46:40.239073 17215 net.cpp:409] accuracy -> accuracy
…
