…
I0507 23:02:13.711926  8684 net.cpp:323] The NetState phase (0) differed from the phase (1) specified by a rule in layer intercept
I0507 23:02:13.711942  8684 net.cpp:323] The NetState phase (0) differed from the phase (1) specified by a rule in layer loss
I0507 23:02:13.712024  8684 net.cpp:52] Initializing net from parameters: 
state {
  phase: TRAIN
}
layer {
  name: "parameters"
  type: "HDF5Data"
  top: "data"
  top: "label"
  include {
    phase: TRAIN
  }
  hdf5_data_param {
    source: "/home/purduethu/scratch/radon/d/deng106/CNNStatisticalModel/distributions/input/5_distributions_100_sample_size_train-parameters-path.txt"
    batch_size: 20
  }
}
layer {
  name: "conv1"
  type: "Convolution"
  bottom: "data"
  top: "conv1"
  param {
    lr_mult: 1
  }
  param {
    lr_mult: 2
  }
  convolution_param {
    num_output: 64
    pad: 2
    kernel_size: 5
    stride: 1
    weight_filler {
      type: "gaussian"
      std: 0.0001
    }
    bias_filler {
      type: "constant"
    }
  }
}
layer {
  name: "relu1"
  type: "ReLU"
  bottom: "conv1"
  top: "conv1"
}
layer {
  name: "conv2"
  type: "Convolution"
  bottom: "conv1"
  top: "conv2"
  param {
    lr_mult: 1
  }
  param {
    lr_mult: 2
  }
  convolution_param {
    num_output: 64
    pad: 2
    kernel_size: 5
    stride: 1
    weight_filler {
      type: "gaussian"
      std: 0.01
    }
    bias_filler {
      type: "constant"
    }
  }
}
layer {
  name: "relu2"
  type: "ReLU"
  bottom: "conv2"
  top: "conv2"
}
layer {
  name: "pool2"
  type: "Pooling"
  bottom: "conv2"
  top: "pool2"
  pooling_param {
    pool: MAX
    kernel_size: 3
    stride: 2
  }
}
layer {
  name: "conv3"
  type: "Convolution"
  bottom: "pool2"
  top: "conv3"
  param {
    lr_mult: 1
  }
  param {
    lr_mult: 2
  }
  convolution_param {
    num_output: 64
    pad: 2
    kernel_size: 5
    stride: 1
    weight_filler {
      type: "gaussian"
      std: 0.01
    }
    bias_filler {
      type: "constant"
    }
  }
}
layer {
  name: "relu3"
  type: "ReLU"
  bottom: "conv3"
  top: "conv3"
}
layer {
  name: "conv4"
  type: "Convolution"
  bottom: "conv3"
  top: "conv4"
  param {
    lr_mult: 1
  }
  param {
    lr_mult: 2
  }
  convolution_param {
    num_output: 64
    pad: 2
    kernel_size: 5
    stride: 1
    weight_filler {
      type: "gaussian"
      std: 0.01
    }
    bias_filler {
      type: "constant"
    }
  }
}
layer {
  name: "relu4"
  type: "ReLU"
  bottom: "conv4"
  top: "conv4"
}
layer {
  name: "conv5"
  type: "Convolution"
  bottom: "conv4"
  top: "conv5"
  param {
    lr_mult: 1
  }
  param {
    lr_mult: 2
  }
  convolution_param {
    num_output: 64
    pad: 2
    kernel_size: 5
    stride: 1
    weight_filler {
      type: "gaussian"
      std: 0.01
    }
    bias_filler {
      type: "constant"
    }
  }
}
layer {
  name: "relu5"
  type: "ReLU"
  bottom: "conv5"
  top: "conv5"
}
layer {
  name: "pool5"
  type: "Pooling"
  bottom: "conv5"
  top: "pool5"
  pooling_param {
    pool: AVE
    kernel_size: 3
    stride: 2
  }
}
layer {
  name: "ip1"
  type: "InnerProduct"
  bottom: "pool5"
  top: "ip1"
  param {
    lr_mult: 1
  }
  param {
    lr_mult: 2
  }
  inner_product_param {
    num_output: 64
    weight_filler {
      type: "gaussian"
      std: 0.1
    }
    bias_filler {
      type: "constant"
    }
  }
}
layer {
  name: "ip2"
  type: "InnerProduct"
  bottom: "ip1"
  top: "ip2"
  param {
    lr_mult: 1
  }
  param {
    lr_mult: 2
  }
  inner_product_param {
    num_output: 64
    weight_filler {
      type: "gaussian"
      std: 0.1
    }
    bias_filler {
      type: "constant"
    }
  }
}
layer {
  name: "ip3"
  type: "InnerProduct"
  bottom: "ip2"
  top: "ip3"
  param {
    lr_mult: 1
  }
  param {
    lr_mult: 2
  }
  inner_product_param {
    num_output: 1
    weight_filler {
      type: "gaussian"
      std: 0.1
    }
    bias_filler {
      type: "constant"
    }
  }
}
layer {
  name: "loss"
  type: "HuberLoss"
  bottom: "ip3"
  bottom: "label"
  top: "loss"
  include {
    phase: TRAIN
  }
}
I0507 23:02:13.712079  8684 layer_factory.hpp:77] Creating layer parameters
I0507 23:02:13.712091  8684 net.cpp:94] Creating Layer parameters
I0507 23:02:13.712096  8684 net.cpp:409] parameters -> data
I0507 23:02:13.712105  8684 net.cpp:409] parameters -> label
I0507 23:02:13.712116  8684 hdf5_data_layer.cpp:79] Loading list of HDF5 filenames from: /home/purduethu/scratch/radon/d/deng106/CNNStatisticalModel/distributions/input/5_distributions_100_sample_size_train-parameters-path.txt
I0507 23:02:13.712132  8684 hdf5_data_layer.cpp:93] Number of HDF5 files: 1
I0507 23:02:13.712667  8684 hdf5.cpp:32] Datatype class: H5T_FLOAT
I0507 23:02:13.731276  8684 net.cpp:144] Setting up parameters
I0507 23:02:13.731308  8684 net.cpp:151] Top shape: 20 1 10 10 (2000)
I0507 23:02:13.731313  8684 net.cpp:151] Top shape: 20 (20)
I0507 23:02:13.731317  8684 net.cpp:159] Memory required for data: 8080
I0507 23:02:13.731323  8684 layer_factory.hpp:77] Creating layer conv1
I0507 23:02:13.731339  8684 net.cpp:94] Creating Layer conv1
I0507 23:02:13.731344  8684 net.cpp:435] conv1 <- data
I0507 23:02:13.731350  8684 net.cpp:409] conv1 -> conv1
I0507 23:02:13.740839  8684 net.cpp:144] Setting up conv1
I0507 23:02:13.740883  8684 net.cpp:151] Top shape: 20 64 10 10 (128000)
I0507 23:02:13.740895  8684 net.cpp:159] Memory required for data: 520080
I0507 23:02:13.740921  8684 layer_factory.hpp:77] Creating layer relu1
I0507 23:02:13.740938  8684 net.cpp:94] Creating Layer relu1
I0507 23:02:13.740948  8684 net.cpp:435] relu1 <- conv1
I0507 23:02:13.740962  8684 net.cpp:396] relu1 -> conv1 (in-place)
I0507 23:02:13.740990  8684 net.cpp:144] Setting up relu1
I0507 23:02:13.741003  8684 net.cpp:151] Top shape: 20 64 10 10 (128000)
I0507 23:02:13.741013  8684 net.cpp:159] Memory required for data: 1032080
I0507 23:02:13.741020  8684 layer_factory.hpp:77] Creating layer conv2
I0507 23:02:13.741041  8684 net.cpp:94] Creating Layer conv2
I0507 23:02:13.741050  8684 net.cpp:435] conv2 <- conv1
I0507 23:02:13.741065  8684 net.cpp:409] conv2 -> conv2
I0507 23:02:13.754668  8684 net.cpp:144] Setting up conv2
I0507 23:02:13.754710  8684 net.cpp:151] Top shape: 20 64 10 10 (128000)
I0507 23:02:13.754724  8684 net.cpp:159] Memory required for data: 1544080
I0507 23:02:13.754753  8684 layer_factory.hpp:77] Creating layer relu2
I0507 23:02:13.754776  8684 net.cpp:94] Creating Layer relu2
I0507 23:02:13.754791  8684 net.cpp:435] relu2 <- conv2
I0507 23:02:13.754808  8684 net.cpp:396] relu2 -> conv2 (in-place)
I0507 23:02:13.754833  8684 net.cpp:144] Setting up relu2
I0507 23:02:13.754853  8684 net.cpp:151] Top shape: 20 64 10 10 (128000)
I0507 23:02:13.754865  8684 net.cpp:159] Memory required for data: 2056080
I0507 23:02:13.754878  8684 layer_factory.hpp:77] Creating layer pool2
I0507 23:02:13.754910  8684 net.cpp:94] Creating Layer pool2
I0507 23:02:13.754925  8684 net.cpp:435] pool2 <- conv2
I0507 23:02:13.754943  8684 net.cpp:409] pool2 -> pool2
I0507 23:02:13.755095  8684 net.cpp:144] Setting up pool2
I0507 23:02:13.755120  8684 net.cpp:151] Top shape: 20 64 5 5 (32000)
I0507 23:02:13.755133  8684 net.cpp:159] Memory required for data: 2184080
I0507 23:02:13.755147  8684 layer_factory.hpp:77] Creating layer conv3
I0507 23:02:13.755174  8684 net.cpp:94] Creating Layer conv3
I0507 23:02:13.755188  8684 net.cpp:435] conv3 <- pool2
I0507 23:02:13.755208  8684 net.cpp:409] conv3 -> conv3
I0507 23:02:13.766424  8684 net.cpp:144] Setting up conv3
I0507 23:02:13.766466  8684 net.cpp:151] Top shape: 20 64 5 5 (32000)
I0507 23:02:13.766477  8684 net.cpp:159] Memory required for data: 2312080
I0507 23:02:13.766500  8684 layer_factory.hpp:77] Creating layer relu3
I0507 23:02:13.766516  8684 net.cpp:94] Creating Layer relu3
I0507 23:02:13.766526  8684 net.cpp:435] relu3 <- conv3
I0507 23:02:13.766541  8684 net.cpp:396] relu3 -> conv3 (in-place)
I0507 23:02:13.766561  8684 net.cpp:144] Setting up relu3
I0507 23:02:13.766573  8684 net.cpp:151] Top shape: 20 64 5 5 (32000)
I0507 23:02:13.766582  8684 net.cpp:159] Memory required for data: 2440080
I0507 23:02:13.766590  8684 layer_factory.hpp:77] Creating layer conv4
I0507 23:02:13.766613  8684 net.cpp:94] Creating Layer conv4
I0507 23:02:13.766621  8684 net.cpp:435] conv4 <- conv3
I0507 23:02:13.766635  8684 net.cpp:409] conv4 -> conv4
I0507 23:02:13.776713  8684 net.cpp:144] Setting up conv4
I0507 23:02:13.776747  8684 net.cpp:151] Top shape: 20 64 5 5 (32000)
I0507 23:02:13.776757  8684 net.cpp:159] Memory required for data: 2568080
I0507 23:02:13.776774  8684 layer_factory.hpp:77] Creating layer relu4
I0507 23:02:13.776789  8684 net.cpp:94] Creating Layer relu4
I0507 23:02:13.776799  8684 net.cpp:435] relu4 <- conv4
I0507 23:02:13.776813  8684 net.cpp:396] relu4 -> conv4 (in-place)
I0507 23:02:13.776830  8684 net.cpp:144] Setting up relu4
I0507 23:02:13.776844  8684 net.cpp:151] Top shape: 20 64 5 5 (32000)
I0507 23:02:13.776851  8684 net.cpp:159] Memory required for data: 2696080
I0507 23:02:13.776860  8684 layer_factory.hpp:77] Creating layer conv5
I0507 23:02:13.776880  8684 net.cpp:94] Creating Layer conv5
I0507 23:02:13.776890  8684 net.cpp:435] conv5 <- conv4
I0507 23:02:13.776902  8684 net.cpp:409] conv5 -> conv5
I0507 23:02:13.787681  8684 net.cpp:144] Setting up conv5
I0507 23:02:13.787714  8684 net.cpp:151] Top shape: 20 64 5 5 (32000)
I0507 23:02:13.787724  8684 net.cpp:159] Memory required for data: 2824080
I0507 23:02:13.787744  8684 layer_factory.hpp:77] Creating layer relu5
I0507 23:02:13.787760  8684 net.cpp:94] Creating Layer relu5
I0507 23:02:13.787768  8684 net.cpp:435] relu5 <- conv5
I0507 23:02:13.787781  8684 net.cpp:396] relu5 -> conv5 (in-place)
I0507 23:02:13.787798  8684 net.cpp:144] Setting up relu5
I0507 23:02:13.787809  8684 net.cpp:151] Top shape: 20 64 5 5 (32000)
I0507 23:02:13.787817  8684 net.cpp:159] Memory required for data: 2952080
I0507 23:02:13.787825  8684 layer_factory.hpp:77] Creating layer pool5
I0507 23:02:13.787840  8684 net.cpp:94] Creating Layer pool5
I0507 23:02:13.787849  8684 net.cpp:435] pool5 <- conv5
I0507 23:02:13.787860  8684 net.cpp:409] pool5 -> pool5
I0507 23:02:13.787948  8684 net.cpp:144] Setting up pool5
I0507 23:02:13.787966  8684 net.cpp:151] Top shape: 20 64 2 2 (5120)
I0507 23:02:13.787973  8684 net.cpp:159] Memory required for data: 2972560
I0507 23:02:13.787981  8684 layer_factory.hpp:77] Creating layer ip1
I0507 23:02:13.787995  8684 net.cpp:94] Creating Layer ip1
I0507 23:02:13.788003  8684 net.cpp:435] ip1 <- pool5
I0507 23:02:13.788017  8684 net.cpp:409] ip1 -> ip1
I0507 23:02:13.791100  8684 net.cpp:144] Setting up ip1
I0507 23:02:13.791131  8684 net.cpp:151] Top shape: 20 64 (1280)
I0507 23:02:13.791141  8684 net.cpp:159] Memory required for data: 2977680
I0507 23:02:13.791157  8684 layer_factory.hpp:77] Creating layer ip2
I0507 23:02:13.791172  8684 net.cpp:94] Creating Layer ip2
I0507 23:02:13.791189  8684 net.cpp:435] ip2 <- ip1
I0507 23:02:13.791203  8684 net.cpp:409] ip2 -> ip2
I0507 23:02:13.791762  8684 net.cpp:144] Setting up ip2
I0507 23:02:13.791779  8684 net.cpp:151] Top shape: 20 64 (1280)
I0507 23:02:13.791786  8684 net.cpp:159] Memory required for data: 2982800
I0507 23:02:13.791800  8684 layer_factory.hpp:77] Creating layer ip3
I0507 23:02:13.791815  8684 net.cpp:94] Creating Layer ip3
I0507 23:02:13.791824  8684 net.cpp:435] ip3 <- ip2
I0507 23:02:13.791838  8684 net.cpp:409] ip3 -> ip3
I0507 23:02:13.792110  8684 net.cpp:144] Setting up ip3
I0507 23:02:13.792125  8684 net.cpp:151] Top shape: 20 1 (20)
I0507 23:02:13.792132  8684 net.cpp:159] Memory required for data: 2982880
I0507 23:02:13.792145  8684 layer_factory.hpp:77] Creating layer loss
I0507 23:02:13.792167  8684 net.cpp:94] Creating Layer loss
I0507 23:02:13.792176  8684 net.cpp:435] loss <- ip3
I0507 23:02:13.792186  8684 net.cpp:435] loss <- label
I0507 23:02:13.792199  8684 net.cpp:409] loss -> loss
I0507 23:02:13.792326  8684 net.cpp:144] Setting up loss
…
I0507 23:02:13.841444  8684 net.cpp:323] The NetState phase (0) differed from the phase (1) specified by a rule in layer intercept
I0507 23:02:13.841473  8684 net.cpp:323] The NetState phase (0) differed from the phase (1) specified by a rule in layer accuracy
I0507 23:02:13.841639  8684 net.cpp:52] Initializing net from parameters: 
state {
  phase: TRAIN
}
layer {
  name: "parameters"
  type: "HDF5Data"
  top: "data"
  top: "label"
  include {
    phase: TRAIN
  }
  hdf5_data_param {
    source: "/home/purduethu/scratch/radon/d/deng106/CNNStatisticalModel/distributions/input/5_distributions_100_sample_size_train-distributions-path.txt"
    batch_size: 20
  }
}
layer {
  name: "conv1"
  type: "Convolution"
  bottom: "data"
  top: "conv1"
  param {
    lr_mult: 1
  }
  param {
    lr_mult: 2
  }
  convolution_param {
    num_output: 64
    pad: 2
    kernel_size: 5
    stride: 1
    weight_filler {
      type: "gaussian"
      std: 0.0001
    }
    bias_filler {
      type: "constant"
    }
  }
}
layer {
  name: "relu1"
  type: "ReLU"
  bottom: "conv1"
  top: "conv1"
}
layer {
  name: "conv2"
  type: "Convolution"
  bottom: "conv1"
  top: "conv2"
  param {
    lr_mult: 1
  }
  param {
    lr_mult: 2
  }
  convolution_param {
    num_output: 64
    pad: 2
    kernel_size: 5
    stride: 1
    weight_filler {
      type: "gaussian"
      std: 0.01
    }
    bias_filler {
      type: "constant"
    }
  }
}
layer {
  name: "relu2"
  type: "ReLU"
  bottom: "conv2"
  top: "conv2"
}
layer {
  name: "pool2"
  type: "Pooling"
  bottom: "conv2"
  top: "pool2"
  pooling_param {
    pool: MAX
    kernel_size: 3
    stride: 2
  }
}
layer {
  name: "conv3"
  type: "Convolution"
  bottom: "pool2"
  top: "conv3"
  param {
    lr_mult: 1
  }
  param {
    lr_mult: 2
  }
  convolution_param {
    num_output: 64
    pad: 2
    kernel_size: 5
    stride: 1
    weight_filler {
      type: "gaussian"
      std: 0.01
    }
    bias_filler {
      type: "constant"
    }
  }
}
layer {
  name: "relu3"
  type: "ReLU"
  bottom: "conv3"
  top: "conv3"
}
layer {
  name: "conv4"
  type: "Convolution"
  bottom: "conv3"
  top: "conv4"
  param {
    lr_mult: 1
  }
  param {
    lr_mult: 2
  }
  convolution_param {
    num_output: 64
    pad: 2
    kernel_size: 5
    stride: 1
    weight_filler {
      type: "gaussian"
      std: 0.01
    }
    bias_filler {
      type: "constant"
    }
  }
}
layer {
  name: "relu4"
  type: "ReLU"
  bottom: "conv4"
  top: "conv4"
}
layer {
  name: "conv5"
  type: "Convolution"
  bottom: "conv4"
  top: "conv5"
  param {
    lr_mult: 1
  }
  param {
    lr_mult: 2
  }
  convolution_param {
    num_output: 64
    pad: 2
    kernel_size: 5
    stride: 1
    weight_filler {
      type: "gaussian"
      std: 0.01
    }
    bias_filler {
      type: "constant"
    }
  }
}
layer {
  name: "relu5"
  type: "ReLU"
  bottom: "conv5"
  top: "conv5"
}
layer {
  name: "pool5"
  type: "Pooling"
  bottom: "conv5"
  top: "pool5"
  pooling_param {
    pool: AVE
    kernel_size: 3
    stride: 2
  }
}
layer {
  name: "ip1"
  type: "InnerProduct"
  bottom: "pool5"
  top: "ip1"
  param {
    lr_mult: 1
  }
  param {
    lr_mult: 2
  }
  inner_product_param {
    num_output: 64
    weight_filler {
      type: "gaussian"
      std: 0.1
    }
    bias_filler {
      type: "constant"
    }
  }
}
layer {
  name: "ip2"
  type: "InnerProduct"
  bottom: "ip1"
  top: "ip2"
  param {
    lr_mult: 1
  }
  param {
    lr_mult: 2
  }
  inner_product_param {
    num_output: 64
    weight_filler {
      type: "gaussian"
      std: 0.1
    }
    bias_filler {
      type: "constant"
    }
  }
}
layer {
  name: "ip3"
  type: "InnerProduct"
  bottom: "ip2"
  top: "ip3"
  param {
    lr_mult: 1
  }
  param {
    lr_mult: 2
  }
  inner_product_param {
    num_output: 50
    weight_filler {
      type: "gaussian"
      std: 0.1
    }
    bias_filler {
      type: "constant"
    }
  }
}
layer {
  name: "loss"
  type: "SoftmaxWithLoss"
  bottom: "ip3"
  bottom: "label"
  top: "loss"
}
I0507 23:02:13.841735  8684 layer_factory.hpp:77] Creating layer parameters
I0507 23:02:13.841750  8684 net.cpp:94] Creating Layer parameters
I0507 23:02:13.841758  8684 net.cpp:409] parameters -> data
I0507 23:02:13.841770  8684 net.cpp:409] parameters -> label
I0507 23:02:13.841783  8684 hdf5_data_layer.cpp:79] Loading list of HDF5 filenames from: /home/purduethu/scratch/radon/d/deng106/CNNStatisticalModel/distributions/input/5_distributions_100_sample_size_train-distributions-path.txt
I0507 23:02:13.841809  8684 hdf5_data_layer.cpp:93] Number of HDF5 files: 1
I0507 23:02:13.866506  8684 hdf5.cpp:35] Datatype class: H5T_INTEGER
I0507 23:02:13.867132  8684 net.cpp:144] Setting up parameters
I0507 23:02:13.867152  8684 net.cpp:151] Top shape: 20 1 10 10 (2000)
I0507 23:02:13.867161  8684 net.cpp:151] Top shape: 20 (20)
I0507 23:02:13.867166  8684 net.cpp:159] Memory required for data: 8080
I0507 23:02:13.867175  8684 layer_factory.hpp:77] Creating layer conv1
I0507 23:02:13.867197  8684 net.cpp:94] Creating Layer conv1
I0507 23:02:13.867203  8684 net.cpp:435] conv1 <- data
I0507 23:02:13.867214  8684 net.cpp:409] conv1 -> conv1
I0507 23:02:13.869284  8684 net.cpp:144] Setting up conv1
I0507 23:02:13.869307  8684 net.cpp:151] Top shape: 20 64 10 10 (128000)
I0507 23:02:13.869313  8684 net.cpp:159] Memory required for data: 520080
I0507 23:02:13.869329  8684 layer_factory.hpp:77] Creating layer relu1
I0507 23:02:13.869341  8684 net.cpp:94] Creating Layer relu1
I0507 23:02:13.869348  8684 net.cpp:435] relu1 <- conv1
I0507 23:02:13.869354  8684 net.cpp:396] relu1 -> conv1 (in-place)
I0507 23:02:13.869366  8684 net.cpp:144] Setting up relu1
I0507 23:02:13.869374  8684 net.cpp:151] Top shape: 20 64 10 10 (128000)
I0507 23:02:13.869379  8684 net.cpp:159] Memory required for data: 1032080
I0507 23:02:13.869385  8684 layer_factory.hpp:77] Creating layer conv2
I0507 23:02:13.869396  8684 net.cpp:94] Creating Layer conv2
I0507 23:02:13.869402  8684 net.cpp:435] conv2 <- conv1
I0507 23:02:13.869410  8684 net.cpp:409] conv2 -> conv2
I0507 23:02:13.877265  8684 net.cpp:144] Setting up conv2
I0507 23:02:13.877286  8684 net.cpp:151] Top shape: 20 64 10 10 (128000)
I0507 23:02:13.877292  8684 net.cpp:159] Memory required for data: 1544080
I0507 23:02:13.877305  8684 layer_factory.hpp:77] Creating layer relu2
I0507 23:02:13.877315  8684 net.cpp:94] Creating Layer relu2
I0507 23:02:13.877321  8684 net.cpp:435] relu2 <- conv2
I0507 23:02:13.877328  8684 net.cpp:396] relu2 -> conv2 (in-place)
I0507 23:02:13.877339  8684 net.cpp:144] Setting up relu2
I0507 23:02:13.877346  8684 net.cpp:151] Top shape: 20 64 10 10 (128000)
I0507 23:02:13.877351  8684 net.cpp:159] Memory required for data: 2056080
I0507 23:02:13.877357  8684 layer_factory.hpp:77] Creating layer pool2
I0507 23:02:13.877364  8684 net.cpp:94] Creating Layer pool2
I0507 23:02:13.877368  8684 net.cpp:435] pool2 <- conv2
I0507 23:02:13.877377  8684 net.cpp:409] pool2 -> pool2
I0507 23:02:13.877451  8684 net.cpp:144] Setting up pool2
I0507 23:02:13.877461  8684 net.cpp:151] Top shape: 20 64 5 5 (32000)
I0507 23:02:13.877466  8684 net.cpp:159] Memory required for data: 2184080
I0507 23:02:13.877471  8684 layer_factory.hpp:77] Creating layer conv3
I0507 23:02:13.877483  8684 net.cpp:94] Creating Layer conv3
I0507 23:02:13.877488  8684 net.cpp:435] conv3 <- pool2
I0507 23:02:13.877496  8684 net.cpp:409] conv3 -> conv3
I0507 23:02:13.884619  8684 net.cpp:144] Setting up conv3
I0507 23:02:13.884649  8684 net.cpp:151] Top shape: 20 64 5 5 (32000)
I0507 23:02:13.884656  8684 net.cpp:159] Memory required for data: 2312080
I0507 23:02:13.884668  8684 layer_factory.hpp:77] Creating layer relu3
I0507 23:02:13.884677  8684 net.cpp:94] Creating Layer relu3
I0507 23:02:13.884683  8684 net.cpp:435] relu3 <- conv3
I0507 23:02:13.884690  8684 net.cpp:396] relu3 -> conv3 (in-place)
I0507 23:02:13.884701  8684 net.cpp:144] Setting up relu3
I0507 23:02:13.884708  8684 net.cpp:151] Top shape: 20 64 5 5 (32000)
I0507 23:02:13.884713  8684 net.cpp:159] Memory required for data: 2440080
I0507 23:02:13.884718  8684 layer_factory.hpp:77] Creating layer conv4
I0507 23:02:13.884732  8684 net.cpp:94] Creating Layer conv4
I0507 23:02:13.884737  8684 net.cpp:435] conv4 <- conv3
I0507 23:02:13.884744  8684 net.cpp:409] conv4 -> conv4
I0507 23:02:13.892940  8684 net.cpp:144] Setting up conv4
I0507 23:02:13.892959  8684 net.cpp:151] Top shape: 20 64 5 5 (32000)
I0507 23:02:13.892966  8684 net.cpp:159] Memory required for data: 2568080
I0507 23:02:13.892976  8684 layer_factory.hpp:77] Creating layer relu4
I0507 23:02:13.892984  8684 net.cpp:94] Creating Layer relu4
I0507 23:02:13.892990  8684 net.cpp:435] relu4 <- conv4
I0507 23:02:13.892997  8684 net.cpp:396] relu4 -> conv4 (in-place)
I0507 23:02:13.893008  8684 net.cpp:144] Setting up relu4
I0507 23:02:13.893015  8684 net.cpp:151] Top shape: 20 64 5 5 (32000)
I0507 23:02:13.893019  8684 net.cpp:159] Memory required for data: 2696080
I0507 23:02:13.893024  8684 layer_factory.hpp:77] Creating layer conv5
I0507 23:02:13.893034  8684 net.cpp:94] Creating Layer conv5
I0507 23:02:13.893040  8684 net.cpp:435] conv5 <- conv4
I0507 23:02:13.893048  8684 net.cpp:409] conv5 -> conv5
I0507 23:02:13.899204  8684 net.cpp:144] Setting up conv5
I0507 23:02:13.899222  8684 net.cpp:151] Top shape: 20 64 5 5 (32000)
I0507 23:02:13.899229  8684 net.cpp:159] Memory required for data: 2824080
I0507 23:02:13.899240  8684 layer_factory.hpp:77] Creating layer relu5
I0507 23:02:13.899248  8684 net.cpp:94] Creating Layer relu5
I0507 23:02:13.899255  8684 net.cpp:435] relu5 <- conv5
I0507 23:02:13.899260  8684 net.cpp:396] relu5 -> conv5 (in-place)
I0507 23:02:13.899271  8684 net.cpp:144] Setting up relu5
I0507 23:02:13.899277  8684 net.cpp:151] Top shape: 20 64 5 5 (32000)
I0507 23:02:13.899282  8684 net.cpp:159] Memory required for data: 2952080
I0507 23:02:13.899286  8684 layer_factory.hpp:77] Creating layer pool5
I0507 23:02:13.899293  8684 net.cpp:94] Creating Layer pool5
I0507 23:02:13.899298  8684 net.cpp:435] pool5 <- conv5
I0507 23:02:13.899304  8684 net.cpp:409] pool5 -> pool5
I0507 23:02:13.899353  8684 net.cpp:144] Setting up pool5
I0507 23:02:13.899363  8684 net.cpp:151] Top shape: 20 64 2 2 (5120)
I0507 23:02:13.899369  8684 net.cpp:159] Memory required for data: 2972560
I0507 23:02:13.899374  8684 layer_factory.hpp:77] Creating layer ip1
I0507 23:02:13.899382  8684 net.cpp:94] Creating Layer ip1
I0507 23:02:13.899387  8684 net.cpp:435] ip1 <- pool5
I0507 23:02:13.899394  8684 net.cpp:409] ip1 -> ip1
I0507 23:02:13.900213  8684 net.cpp:144] Setting up ip1
I0507 23:02:13.900224  8684 net.cpp:151] Top shape: 20 64 (1280)
I0507 23:02:13.900229  8684 net.cpp:159] Memory required for data: 2977680
I0507 23:02:13.900238  8684 layer_factory.hpp:77] Creating layer ip2
I0507 23:02:13.900248  8684 net.cpp:94] Creating Layer ip2
I0507 23:02:13.900252  8684 net.cpp:435] ip2 <- ip1
I0507 23:02:13.900261  8684 net.cpp:409] ip2 -> ip2
I0507 23:02:13.900624  8684 net.cpp:144] Setting up ip2
I0507 23:02:13.900635  8684 net.cpp:151] Top shape: 20 64 (1280)
I0507 23:02:13.900640  8684 net.cpp:159] Memory required for data: 2982800
I0507 23:02:13.900648  8684 layer_factory.hpp:77] Creating layer ip3
I0507 23:02:13.900656  8684 net.cpp:94] Creating Layer ip3
I0507 23:02:13.900661  8684 net.cpp:435] ip3 <- ip2
I0507 23:02:13.900671  8684 net.cpp:409] ip3 -> ip3
I0507 23:02:13.900977  8684 net.cpp:144] Setting up ip3
I0507 23:02:13.900987  8684 net.cpp:151] Top shape: 20 50 (1000)
I0507 23:02:13.900997  8684 net.cpp:159] Memory required for data: 2986800
I0507 23:02:13.901005  8684 layer_factory.hpp:77] Creating layer loss
I0507 23:02:13.901016  8684 net.cpp:94] Creating Layer loss
I0507 23:02:13.901021  8684 net.cpp:435] loss <- ip3
I0507 23:02:13.901027  8684 net.cpp:435] loss <- label
I0507 23:02:13.901034  8684 net.cpp:409] loss -> loss
I0507 23:02:13.901044  8684 layer_factory.hpp:77] Creating layer loss
…
I0507 23:02:13.902925  8684 solver.cpp:181] Creating test net (#0) specified by net file: ./protocol/dis_5_100_dimension.protocol_distribution
I0507 23:02:13.902963  8684 net.cpp:323] The NetState phase (1) differed from the phase (0) specified by a rule in layer parameters
I0507 23:02:13.903110  8684 net.cpp:52] Initializing net from parameters: 
state {
  phase: TEST
}
layer {
  name: "intercept"
  type: "HDF5Data"
  top: "data"
  top: "label"
  include {
    phase: TEST
  }
  hdf5_data_param {
    source: "/home/purduethu/scratch/radon/d/deng106/CNNStatisticalModel/distributions/input/5_distributions_100_sample_size_test-distributions-path.txt"
    batch_size: 20
  }
}
layer {
  name: "conv1"
  type: "Convolution"
  bottom: "data"
  top: "conv1"
  param {
    lr_mult: 1
  }
  param {
    lr_mult: 2
  }
  convolution_param {
    num_output: 64
    pad: 2
    kernel_size: 5
    stride: 1
    weight_filler {
      type: "gaussian"
      std: 0.0001
    }
    bias_filler {
      type: "constant"
    }
  }
}
layer {
  name: "relu1"
  type: "ReLU"
  bottom: "conv1"
  top: "conv1"
}
layer {
  name: "conv2"
  type: "Convolution"
  bottom: "conv1"
  top: "conv2"
  param {
    lr_mult: 1
  }
  param {
    lr_mult: 2
  }
  convolution_param {
    num_output: 64
    pad: 2
    kernel_size: 5
    stride: 1
    weight_filler {
      type: "gaussian"
      std: 0.01
    }
    bias_filler {
      type: "constant"
    }
  }
}
layer {
  name: "relu2"
  type: "ReLU"
  bottom: "conv2"
  top: "conv2"
}
layer {
  name: "pool2"
  type: "Pooling"
  bottom: "conv2"
  top: "pool2"
  pooling_param {
    pool: MAX
    kernel_size: 3
    stride: 2
  }
}
layer {
  name: "conv3"
  type: "Convolution"
  bottom: "pool2"
  top: "conv3"
  param {
    lr_mult: 1
  }
  param {
    lr_mult: 2
  }
  convolution_param {
    num_output: 64
    pad: 2
    kernel_size: 5
    stride: 1
    weight_filler {
      type: "gaussian"
      std: 0.01
    }
    bias_filler {
      type: "constant"
    }
  }
}
layer {
  name: "relu3"
  type: "ReLU"
  bottom: "conv3"
  top: "conv3"
}
layer {
  name: "conv4"
  type: "Convolution"
  bottom: "conv3"
  top: "conv4"
  param {
    lr_mult: 1
  }
  param {
    lr_mult: 2
  }
  convolution_param {
    num_output: 64
    pad: 2
    kernel_size: 5
    stride: 1
    weight_filler {
      type: "gaussian"
      std: 0.01
    }
    bias_filler {
      type: "constant"
    }
  }
}
layer {
  name: "relu4"
  type: "ReLU"
  bottom: "conv4"
  top: "conv4"
}
layer {
  name: "conv5"
  type: "Convolution"
  bottom: "conv4"
  top: "conv5"
  param {
    lr_mult: 1
  }
  param {
    lr_mult: 2
  }
  convolution_param {
    num_output: 64
    pad: 2
    kernel_size: 5
    stride: 1
    weight_filler {
      type: "gaussian"
      std: 0.01
    }
    bias_filler {
      type: "constant"
    }
  }
}
layer {
  name: "relu5"
  type: "ReLU"
  bottom: "conv5"
  top: "conv5"
}
layer {
  name: "pool5"
  type: "Pooling"
  bottom: "conv5"
  top: "pool5"
  pooling_param {
    pool: AVE
    kernel_size: 3
    stride: 2
  }
}
layer {
  name: "ip1"
  type: "InnerProduct"
  bottom: "pool5"
  top: "ip1"
  param {
    lr_mult: 1
  }
  param {
    lr_mult: 2
  }
  inner_product_param {
    num_output: 64
    weight_filler {
      type: "gaussian"
      std: 0.1
    }
    bias_filler {
      type: "constant"
    }
  }
}
layer {
  name: "ip2"
  type: "InnerProduct"
  bottom: "ip1"
  top: "ip2"
  param {
    lr_mult: 1
  }
  param {
    lr_mult: 2
  }
  inner_product_param {
    num_output: 64
    weight_filler {
      type: "gaussian"
      std: 0.1
    }
    bias_filler {
      type: "constant"
    }
  }
}
layer {
  name: "ip3"
  type: "InnerProduct"
  bottom: "ip2"
  top: "ip3"
  param {
    lr_mult: 1
  }
  param {
    lr_mult: 2
  }
  inner_product_param {
    num_output: 50
    weight_filler {
      type: "gaussian"
      std: 0.1
    }
    bias_filler {
      type: "constant"
    }
  }
}
layer {
  name: "accuracy"
  type: "Accuracy"
  bottom: "ip3"
  bottom: "label"
  top: "accuracy"
  include {
    phase: TEST
  }
}
layer {
  name: "loss"
  type: "SoftmaxWithLoss"
  bottom: "ip3"
  bottom: "label"
  top: "loss"
}
I0507 23:02:13.903210  8684 layer_factory.hpp:77] Creating layer intercept
I0507 23:02:13.903223  8684 net.cpp:94] Creating Layer intercept
I0507 23:02:13.903228  8684 net.cpp:409] intercept -> data
I0507 23:02:13.903239  8684 net.cpp:409] intercept -> label
I0507 23:02:13.903247  8684 hdf5_data_layer.cpp:79] Loading list of HDF5 filenames from: /home/purduethu/scratch/radon/d/deng106/CNNStatisticalModel/distributions/input/5_distributions_100_sample_size_test-distributions-path.txt
I0507 23:02:13.903272  8684 hdf5_data_layer.cpp:93] Number of HDF5 files: 1
I0507 23:02:13.909231  8684 net.cpp:144] Setting up intercept
I0507 23:02:13.909263  8684 net.cpp:151] Top shape: 20 1 10 10 (2000)
I0507 23:02:13.909271  8684 net.cpp:151] Top shape: 20 (20)
I0507 23:02:13.909276  8684 net.cpp:159] Memory required for data: 8080
I0507 23:02:13.909283  8684 layer_factory.hpp:77] Creating layer label_intercept_1_split
I0507 23:02:13.909296  8684 net.cpp:94] Creating Layer label_intercept_1_split
I0507 23:02:13.909301  8684 net.cpp:435] label_intercept_1_split <- label
I0507 23:02:13.909310  8684 net.cpp:409] label_intercept_1_split -> label_intercept_1_split_0
I0507 23:02:13.909322  8684 net.cpp:409] label_intercept_1_split -> label_intercept_1_split_1
I0507 23:02:13.909384  8684 net.cpp:144] Setting up label_intercept_1_split
I0507 23:02:13.909394  8684 net.cpp:151] Top shape: 20 (20)
I0507 23:02:13.909399  8684 net.cpp:151] Top shape: 20 (20)
I0507 23:02:13.909404  8684 net.cpp:159] Memory required for data: 8240
I0507 23:02:13.909409  8684 layer_factory.hpp:77] Creating layer conv1
I0507 23:02:13.909421  8684 net.cpp:94] Creating Layer conv1
I0507 23:02:13.909426  8684 net.cpp:435] conv1 <- data
I0507 23:02:13.909433  8684 net.cpp:409] conv1 -> conv1
I0507 23:02:13.910357  8684 net.cpp:144] Setting up conv1
I0507 23:02:13.910375  8684 net.cpp:151] Top shape: 20 64 10 10 (128000)
I0507 23:02:13.910382  8684 net.cpp:159] Memory required for data: 520240
I0507 23:02:13.910403  8684 layer_factory.hpp:77] Creating layer relu1
I0507 23:02:13.910413  8684 net.cpp:94] Creating Layer relu1
I0507 23:02:13.910418  8684 net.cpp:435] relu1 <- conv1
I0507 23:02:13.910424  8684 net.cpp:396] relu1 -> conv1 (in-place)
I0507 23:02:13.910434  8684 net.cpp:144] Setting up relu1
I0507 23:02:13.910441  8684 net.cpp:151] Top shape: 20 64 10 10 (128000)
I0507 23:02:13.910445  8684 net.cpp:159] Memory required for data: 1032240
I0507 23:02:13.910449  8684 layer_factory.hpp:77] Creating layer conv2
I0507 23:02:13.910461  8684 net.cpp:94] Creating Layer conv2
I0507 23:02:13.910466  8684 net.cpp:435] conv2 <- conv1
I0507 23:02:13.910473  8684 net.cpp:409] conv2 -> conv2
I0507 23:02:13.916112  8684 net.cpp:144] Setting up conv2
I0507 23:02:13.916131  8684 net.cpp:151] Top shape: 20 64 10 10 (128000)
I0507 23:02:13.916136  8684 net.cpp:159] Memory required for data: 1544240
I0507 23:02:13.916147  8684 layer_factory.hpp:77] Creating layer relu2
I0507 23:02:13.916155  8684 net.cpp:94] Creating Layer relu2
I0507 23:02:13.916160  8684 net.cpp:435] relu2 <- conv2
I0507 23:02:13.916167  8684 net.cpp:396] relu2 -> conv2 (in-place)
I0507 23:02:13.916177  8684 net.cpp:144] Setting up relu2
I0507 23:02:13.916182  8684 net.cpp:151] Top shape: 20 64 10 10 (128000)
I0507 23:02:13.916187  8684 net.cpp:159] Memory required for data: 2056240
I0507 23:02:13.916190  8684 layer_factory.hpp:77] Creating layer pool2
I0507 23:02:13.916198  8684 net.cpp:94] Creating Layer pool2
I0507 23:02:13.916203  8684 net.cpp:435] pool2 <- conv2
I0507 23:02:13.916208  8684 net.cpp:409] pool2 -> pool2
I0507 23:02:13.916276  8684 net.cpp:144] Setting up pool2
I0507 23:02:13.916285  8684 net.cpp:151] Top shape: 20 64 5 5 (32000)
I0507 23:02:13.916290  8684 net.cpp:159] Memory required for data: 2184240
I0507 23:02:13.916295  8684 layer_factory.hpp:77] Creating layer conv3
I0507 23:02:13.916304  8684 net.cpp:94] Creating Layer conv3
I0507 23:02:13.916309  8684 net.cpp:435] conv3 <- pool2
I0507 23:02:13.916316  8684 net.cpp:409] conv3 -> conv3
I0507 23:02:13.921228  8684 net.cpp:144] Setting up conv3
I0507 23:02:13.921245  8684 net.cpp:151] Top shape: 20 64 5 5 (32000)
I0507 23:02:13.921250  8684 net.cpp:159] Memory required for data: 2312240
I0507 23:02:13.921262  8684 layer_factory.hpp:77] Creating layer relu3
I0507 23:02:13.921270  8684 net.cpp:94] Creating Layer relu3
I0507 23:02:13.921275  8684 net.cpp:435] relu3 <- conv3
I0507 23:02:13.921281  8684 net.cpp:396] relu3 -> conv3 (in-place)
I0507 23:02:13.921291  8684 net.cpp:144] Setting up relu3
I0507 23:02:13.921298  8684 net.cpp:151] Top shape: 20 64 5 5 (32000)
I0507 23:02:13.921301  8684 net.cpp:159] Memory required for data: 2440240
I0507 23:02:13.921305  8684 layer_factory.hpp:77] Creating layer conv4
I0507 23:02:13.921315  8684 net.cpp:94] Creating Layer conv4
I0507 23:02:13.921320  8684 net.cpp:435] conv4 <- conv3
I0507 23:02:13.921327  8684 net.cpp:409] conv4 -> conv4
I0507 23:02:13.926223  8684 net.cpp:144] Setting up conv4
I0507 23:02:13.926239  8684 net.cpp:151] Top shape: 20 64 5 5 (32000)
I0507 23:02:13.926244  8684 net.cpp:159] Memory required for data: 2568240
I0507 23:02:13.926252  8684 layer_factory.hpp:77] Creating layer relu4
I0507 23:02:13.926259  8684 net.cpp:94] Creating Layer relu4
I0507 23:02:13.926265  8684 net.cpp:435] relu4 <- conv4
I0507 23:02:13.926270  8684 net.cpp:396] relu4 -> conv4 (in-place)
I0507 23:02:13.926280  8684 net.cpp:144] Setting up relu4
I0507 23:02:13.926285  8684 net.cpp:151] Top shape: 20 64 5 5 (32000)
I0507 23:02:13.926290  8684 net.cpp:159] Memory required for data: 2696240
I0507 23:02:13.926293  8684 layer_factory.hpp:77] Creating layer conv5
I0507 23:02:13.926303  8684 net.cpp:94] Creating Layer conv5
I0507 23:02:13.926308  8684 net.cpp:435] conv5 <- conv4
I0507 23:02:13.926314  8684 net.cpp:409] conv5 -> conv5
I0507 23:02:13.932721  8684 net.cpp:144] Setting up conv5
I0507 23:02:13.932739  8684 net.cpp:151] Top shape: 20 64 5 5 (32000)
I0507 23:02:13.932745  8684 net.cpp:159] Memory required for data: 2824240
I0507 23:02:13.932762  8684 layer_factory.hpp:77] Creating layer relu5
I0507 23:02:13.932770  8684 net.cpp:94] Creating Layer relu5
I0507 23:02:13.932775  8684 net.cpp:435] relu5 <- conv5
I0507 23:02:13.932782  8684 net.cpp:396] relu5 -> conv5 (in-place)
I0507 23:02:13.932791  8684 net.cpp:144] Setting up relu5
I0507 23:02:13.932797  8684 net.cpp:151] Top shape: 20 64 5 5 (32000)
I0507 23:02:13.932801  8684 net.cpp:159] Memory required for data: 2952240
I0507 23:02:13.932806  8684 layer_factory.hpp:77] Creating layer pool5
I0507 23:02:13.932812  8684 net.cpp:94] Creating Layer pool5
I0507 23:02:13.932816  8684 net.cpp:435] pool5 <- conv5
I0507 23:02:13.932822  8684 net.cpp:409] pool5 -> pool5
I0507 23:02:13.932868  8684 net.cpp:144] Setting up pool5
I0507 23:02:13.932875  8684 net.cpp:151] Top shape: 20 64 2 2 (5120)
I0507 23:02:13.932879  8684 net.cpp:159] Memory required for data: 2972720
I0507 23:02:13.932884  8684 layer_factory.hpp:77] Creating layer ip1
I0507 23:02:13.932893  8684 net.cpp:94] Creating Layer ip1
I0507 23:02:13.932898  8684 net.cpp:435] ip1 <- pool5
I0507 23:02:13.932904  8684 net.cpp:409] ip1 -> ip1
I0507 23:02:13.933632  8684 net.cpp:144] Setting up ip1
I0507 23:02:13.933642  8684 net.cpp:151] Top shape: 20 64 (1280)
I0507 23:02:13.933647  8684 net.cpp:159] Memory required for data: 2977840
I0507 23:02:13.933655  8684 layer_factory.hpp:77] Creating layer ip2
I0507 23:02:13.933662  8684 net.cpp:94] Creating Layer ip2
I0507 23:02:13.933666  8684 net.cpp:435] ip2 <- ip1
I0507 23:02:13.933673  8684 net.cpp:409] ip2 -> ip2
I0507 23:02:13.933972  8684 net.cpp:144] Setting up ip2
I0507 23:02:13.933981  8684 net.cpp:151] Top shape: 20 64 (1280)
I0507 23:02:13.933985  8684 net.cpp:159] Memory required for data: 2982960
I0507 23:02:13.933992  8684 layer_factory.hpp:77] Creating layer ip3
I0507 23:02:13.934000  8684 net.cpp:94] Creating Layer ip3
I0507 23:02:13.934005  8684 net.cpp:435] ip3 <- ip2
I0507 23:02:13.934011  8684 net.cpp:409] ip3 -> ip3
I0507 23:02:13.934269  8684 net.cpp:144] Setting up ip3
I0507 23:02:13.934278  8684 net.cpp:151] Top shape: 20 50 (1000)
I0507 23:02:13.934281  8684 net.cpp:159] Memory required for data: 2986960
I0507 23:02:13.934288  8684 layer_factory.hpp:77] Creating layer ip3_ip3_0_split
I0507 23:02:13.934294  8684 net.cpp:94] Creating Layer ip3_ip3_0_split
I0507 23:02:13.934299  8684 net.cpp:435] ip3_ip3_0_split <- ip3
I0507 23:02:13.934305  8684 net.cpp:409] ip3_ip3_0_split -> ip3_ip3_0_split_0
I0507 23:02:13.934312  8684 net.cpp:409] ip3_ip3_0_split -> ip3_ip3_0_split_1
I0507 23:02:13.934362  8684 net.cpp:144] Setting up ip3_ip3_0_split
I0507 23:02:13.934370  8684 net.cpp:151] Top shape: 20 50 (1000)
I0507 23:02:13.934375  8684 net.cpp:151] Top shape: 20 50 (1000)
I0507 23:02:13.934378  8684 net.cpp:159] Memory required for data: 2994960
I0507 23:02:13.934383  8684 layer_factory.hpp:77] Creating layer accuracy
I0507 23:02:13.934391  8684 net.cpp:94] Creating Layer accuracy
I0507 23:02:13.934396  8684 net.cpp:435] accuracy <- ip3_ip3_0_split_0
I0507 23:02:13.934401  8684 net.cpp:435] accuracy <- label_intercept_1_split_0
I0507 23:02:13.934406  8684 net.cpp:409] accuracy -> accuracy
…
