…
I0505 07:57:22.494762  4843 net.cpp:323] The NetState phase (0) differed from the phase (1) specified by a rule in layer intercept
I0505 07:57:22.494777  4843 net.cpp:323] The NetState phase (0) differed from the phase (1) specified by a rule in layer loss
I0505 07:57:22.494858  4843 net.cpp:52] Initializing net from parameters: 
state {
  phase: TRAIN
}
layer {
  name: "parameters"
  type: "HDF5Data"
  top: "data"
  top: "label"
  include {
    phase: TRAIN
  }
  hdf5_data_param {
    source: "/home/purduethu/scratch/radon/d/deng106/CNNStatisticalModel/distributions/input/5_distributions_100_sample_size_train-parameters-path.txt"
    batch_size: 20
  }
}
layer {
  name: "conv1"
  type: "Convolution"
  bottom: "data"
  top: "conv1"
  param {
    lr_mult: 1
  }
  param {
    lr_mult: 2
  }
  convolution_param {
    num_output: 64
    pad: 2
    kernel_size: 5
    stride: 1
    weight_filler {
      type: "gaussian"
      std: 0.0001
    }
    bias_filler {
      type: "constant"
    }
  }
}
layer {
  name: "relu1"
  type: "ReLU"
  bottom: "conv1"
  top: "conv1"
}
layer {
  name: "pool1"
  type: "Pooling"
  bottom: "conv1"
  top: "pool1"
  pooling_param {
    pool: MAX
    kernel_size: 3
    stride: 2
  }
}
layer {
  name: "conv2"
  type: "Convolution"
  bottom: "pool1"
  top: "conv2"
  param {
    lr_mult: 1
  }
  param {
    lr_mult: 2
  }
  convolution_param {
    num_output: 128
    pad: 2
    kernel_size: 5
    stride: 1
    weight_filler {
      type: "gaussian"
      std: 0.01
    }
    bias_filler {
      type: "constant"
    }
  }
}
layer {
  name: "relu2"
  type: "ReLU"
  bottom: "conv2"
  top: "conv2"
}
layer {
  name: "conv3"
  type: "Convolution"
  bottom: "conv2"
  top: "conv3"
  param {
    lr_mult: 1
  }
  param {
    lr_mult: 2
  }
  convolution_param {
    num_output: 128
    pad: 2
    kernel_size: 5
    stride: 1
    weight_filler {
      type: "gaussian"
      std: 0.01
    }
    bias_filler {
      type: "constant"
    }
  }
}
layer {
  name: "relu3"
  type: "ReLU"
  bottom: "conv3"
  top: "conv3"
}
layer {
  name: "pool3"
  type: "Pooling"
  bottom: "conv3"
  top: "pool3"
  pooling_param {
    pool: AVE
    kernel_size: 3
    stride: 2
  }
}
layer {
  name: "ip1"
  type: "InnerProduct"
  bottom: "pool3"
  top: "ip1"
  param {
    lr_mult: 1
  }
  param {
    lr_mult: 2
  }
  inner_product_param {
    num_output: 512
    weight_filler {
      type: "gaussian"
      std: 0.1
    }
    bias_filler {
      type: "constant"
    }
  }
}
layer {
  name: "ip2"
  type: "InnerProduct"
  bottom: "ip1"
  top: "ip2"
  param {
    lr_mult: 1
  }
  param {
    lr_mult: 2
  }
  inner_product_param {
    num_output: 256
    weight_filler {
      type: "gaussian"
      std: 0.1
    }
    bias_filler {
      type: "constant"
    }
  }
}
layer {
  name: "ip3"
  type: "InnerProduct"
  bottom: "ip2"
  top: "ip3"
  param {
    lr_mult: 1
  }
  param {
    lr_mult: 2
  }
  inner_product_param {
    num_output: 1
    weight_filler {
      type: "gaussian"
      std: 0.1
    }
    bias_filler {
      type: "constant"
    }
  }
}
layer {
  name: "loss"
  type: "HuberLoss"
  bottom: "ip3"
  bottom: "label"
  top: "loss"
  include {
    phase: TRAIN
  }
}
I0505 07:57:22.494926  4843 layer_factory.hpp:77] Creating layer parameters
I0505 07:57:22.494940  4843 net.cpp:94] Creating Layer parameters
I0505 07:57:22.494954  4843 net.cpp:409] parameters -> data
I0505 07:57:22.494974  4843 net.cpp:409] parameters -> label
I0505 07:57:22.494985  4843 hdf5_data_layer.cpp:79] Loading list of HDF5 filenames from: /home/purduethu/scratch/radon/d/deng106/CNNStatisticalModel/distributions/input/5_distributions_100_sample_size_train-parameters-path.txt
I0505 07:57:22.495009  4843 hdf5_data_layer.cpp:93] Number of HDF5 files: 1
I0505 07:57:22.495542  4843 hdf5.cpp:32] Datatype class: H5T_FLOAT
I0505 07:57:22.514751  4843 net.cpp:144] Setting up parameters
I0505 07:57:22.514785  4843 net.cpp:151] Top shape: 20 1 10 10 (2000)
I0505 07:57:22.514791  4843 net.cpp:151] Top shape: 20 (20)
I0505 07:57:22.514794  4843 net.cpp:159] Memory required for data: 8080
I0505 07:57:22.514802  4843 layer_factory.hpp:77] Creating layer conv1
I0505 07:57:22.514820  4843 net.cpp:94] Creating Layer conv1
I0505 07:57:22.514825  4843 net.cpp:435] conv1 <- data
I0505 07:57:22.514837  4843 net.cpp:409] conv1 -> conv1
I0505 07:57:22.518674  4843 net.cpp:144] Setting up conv1
I0505 07:57:22.518689  4843 net.cpp:151] Top shape: 20 64 10 10 (128000)
I0505 07:57:22.518694  4843 net.cpp:159] Memory required for data: 520080
I0505 07:57:22.518707  4843 layer_factory.hpp:77] Creating layer relu1
I0505 07:57:22.518714  4843 net.cpp:94] Creating Layer relu1
I0505 07:57:22.518718  4843 net.cpp:435] relu1 <- conv1
I0505 07:57:22.518723  4843 net.cpp:396] relu1 -> conv1 (in-place)
I0505 07:57:22.518738  4843 net.cpp:144] Setting up relu1
I0505 07:57:22.518744  4843 net.cpp:151] Top shape: 20 64 10 10 (128000)
I0505 07:57:22.518748  4843 net.cpp:159] Memory required for data: 1032080
I0505 07:57:22.518751  4843 layer_factory.hpp:77] Creating layer pool1
I0505 07:57:22.518759  4843 net.cpp:94] Creating Layer pool1
I0505 07:57:22.518762  4843 net.cpp:435] pool1 <- conv1
I0505 07:57:22.518767  4843 net.cpp:409] pool1 -> pool1
I0505 07:57:22.518811  4843 net.cpp:144] Setting up pool1
I0505 07:57:22.518820  4843 net.cpp:151] Top shape: 20 64 5 5 (32000)
I0505 07:57:22.518822  4843 net.cpp:159] Memory required for data: 1160080
I0505 07:57:22.518826  4843 layer_factory.hpp:77] Creating layer conv2
I0505 07:57:22.518836  4843 net.cpp:94] Creating Layer conv2
I0505 07:57:22.518839  4843 net.cpp:435] conv2 <- pool1
I0505 07:57:22.518844  4843 net.cpp:409] conv2 -> conv2
I0505 07:57:22.527508  4843 net.cpp:144] Setting up conv2
I0505 07:57:22.527523  4843 net.cpp:151] Top shape: 20 128 5 5 (64000)
I0505 07:57:22.527526  4843 net.cpp:159] Memory required for data: 1416080
I0505 07:57:22.527534  4843 layer_factory.hpp:77] Creating layer relu2
I0505 07:57:22.527541  4843 net.cpp:94] Creating Layer relu2
I0505 07:57:22.527545  4843 net.cpp:435] relu2 <- conv2
I0505 07:57:22.527550  4843 net.cpp:396] relu2 -> conv2 (in-place)
I0505 07:57:22.527557  4843 net.cpp:144] Setting up relu2
I0505 07:57:22.527562  4843 net.cpp:151] Top shape: 20 128 5 5 (64000)
I0505 07:57:22.527565  4843 net.cpp:159] Memory required for data: 1672080
I0505 07:57:22.527570  4843 layer_factory.hpp:77] Creating layer conv3
I0505 07:57:22.527577  4843 net.cpp:94] Creating Layer conv3
I0505 07:57:22.527581  4843 net.cpp:435] conv3 <- conv2
I0505 07:57:22.527586  4843 net.cpp:409] conv3 -> conv3
I0505 07:57:22.542306  4843 net.cpp:144] Setting up conv3
I0505 07:57:22.542321  4843 net.cpp:151] Top shape: 20 128 5 5 (64000)
I0505 07:57:22.542326  4843 net.cpp:159] Memory required for data: 1928080
I0505 07:57:22.542335  4843 layer_factory.hpp:77] Creating layer relu3
I0505 07:57:22.542341  4843 net.cpp:94] Creating Layer relu3
I0505 07:57:22.542352  4843 net.cpp:435] relu3 <- conv3
I0505 07:57:22.542358  4843 net.cpp:396] relu3 -> conv3 (in-place)
I0505 07:57:22.542366  4843 net.cpp:144] Setting up relu3
I0505 07:57:22.542371  4843 net.cpp:151] Top shape: 20 128 5 5 (64000)
I0505 07:57:22.542374  4843 net.cpp:159] Memory required for data: 2184080
I0505 07:57:22.542377  4843 layer_factory.hpp:77] Creating layer pool3
I0505 07:57:22.542384  4843 net.cpp:94] Creating Layer pool3
I0505 07:57:22.542387  4843 net.cpp:435] pool3 <- conv3
I0505 07:57:22.542399  4843 net.cpp:409] pool3 -> pool3
I0505 07:57:22.542433  4843 net.cpp:144] Setting up pool3
I0505 07:57:22.542440  4843 net.cpp:151] Top shape: 20 128 2 2 (10240)
I0505 07:57:22.542444  4843 net.cpp:159] Memory required for data: 2225040
I0505 07:57:22.542448  4843 layer_factory.hpp:77] Creating layer ip1
I0505 07:57:22.542457  4843 net.cpp:94] Creating Layer ip1
I0505 07:57:22.542461  4843 net.cpp:435] ip1 <- pool3
I0505 07:57:22.542466  4843 net.cpp:409] ip1 -> ip1
I0505 07:57:22.549279  4843 net.cpp:144] Setting up ip1
I0505 07:57:22.549293  4843 net.cpp:151] Top shape: 20 512 (10240)
I0505 07:57:22.549299  4843 net.cpp:159] Memory required for data: 2266000
I0505 07:57:22.549304  4843 layer_factory.hpp:77] Creating layer ip2
I0505 07:57:22.549311  4843 net.cpp:94] Creating Layer ip2
I0505 07:57:22.549315  4843 net.cpp:435] ip2 <- ip1
I0505 07:57:22.549320  4843 net.cpp:409] ip2 -> ip2
I0505 07:57:22.553076  4843 net.cpp:144] Setting up ip2
I0505 07:57:22.553089  4843 net.cpp:151] Top shape: 20 256 (5120)
I0505 07:57:22.553093  4843 net.cpp:159] Memory required for data: 2286480
I0505 07:57:22.553102  4843 layer_factory.hpp:77] Creating layer ip3
I0505 07:57:22.553108  4843 net.cpp:94] Creating Layer ip3
I0505 07:57:22.553112  4843 net.cpp:435] ip3 <- ip2
I0505 07:57:22.553118  4843 net.cpp:409] ip3 -> ip3
I0505 07:57:22.553187  4843 net.cpp:144] Setting up ip3
I0505 07:57:22.553195  4843 net.cpp:151] Top shape: 20 1 (20)
I0505 07:57:22.553198  4843 net.cpp:159] Memory required for data: 2286560
I0505 07:57:22.553203  4843 layer_factory.hpp:77] Creating layer loss
I0505 07:57:22.553215  4843 net.cpp:94] Creating Layer loss
I0505 07:57:22.553218  4843 net.cpp:435] loss <- ip3
I0505 07:57:22.553223  4843 net.cpp:435] loss <- label
I0505 07:57:22.553228  4843 net.cpp:409] loss -> loss
I0505 07:57:22.553266  4843 net.cpp:144] Setting up loss
…
