…
I0502 04:54:20.893273 18659 net.cpp:323] The NetState phase (0) differed from the phase (1) specified by a rule in layer intercept
I0502 04:54:20.893290 18659 net.cpp:323] The NetState phase (0) differed from the phase (1) specified by a rule in layer loss
I0502 04:54:20.893379 18659 net.cpp:52] Initializing net from parameters: 
state {
  phase: TRAIN
}
layer {
  name: "parameters"
  type: "HDF5Data"
  top: "data"
  top: "label"
  include {
    phase: TRAIN
  }
  hdf5_data_param {
    source: "/home/purduethu/scratch/radon/d/deng106/CNNStatisticalModel/distributions/input/20_distributions_100_sample_size_train-parameters-path.txt"
    batch_size: 20
  }
}
layer {
  name: "conv1"
  type: "Convolution"
  bottom: "data"
  top: "conv1"
  param {
    lr_mult: 1
  }
  param {
    lr_mult: 2
  }
  convolution_param {
    num_output: 64
    pad: 2
    kernel_size: 5
    stride: 1
    weight_filler {
      type: "gaussian"
      std: 0.0001
    }
    bias_filler {
      type: "constant"
    }
  }
}
layer {
  name: "relu1"
  type: "ReLU"
  bottom: "conv1"
  top: "conv1"
}
layer {
  name: "conv2"
  type: "Convolution"
  bottom: "conv1"
  top: "conv2"
  param {
    lr_mult: 1
  }
  param {
    lr_mult: 2
  }
  convolution_param {
    num_output: 64
    pad: 2
    kernel_size: 5
    stride: 1
    weight_filler {
      type: "gaussian"
      std: 0.01
    }
    bias_filler {
      type: "constant"
    }
  }
}
layer {
  name: "relu2"
  type: "ReLU"
  bottom: "conv2"
  top: "conv2"
}
layer {
  name: "pool2"
  type: "Pooling"
  bottom: "conv2"
  top: "pool2"
  pooling_param {
    pool: MAX
    kernel_size: 3
    stride: 2
  }
}
layer {
  name: "conv3"
  type: "Convolution"
  bottom: "pool2"
  top: "conv3"
  param {
    lr_mult: 1
  }
  param {
    lr_mult: 2
  }
  convolution_param {
    num_output: 64
    pad: 2
    kernel_size: 5
    stride: 1
    weight_filler {
      type: "gaussian"
      std: 0.01
    }
    bias_filler {
      type: "constant"
    }
  }
}
layer {
  name: "relu3"
  type: "ReLU"
  bottom: "conv3"
  top: "conv3"
}
layer {
  name: "conv4"
  type: "Convolution"
  bottom: "conv3"
  top: "conv4"
  param {
    lr_mult: 1
  }
  param {
    lr_mult: 2
  }
  convolution_param {
    num_output: 64
    pad: 2
    kernel_size: 5
    stride: 1
    weight_filler {
      type: "gaussian"
      std: 0.01
    }
    bias_filler {
      type: "constant"
    }
  }
}
layer {
  name: "relu4"
  type: "ReLU"
  bottom: "conv4"
  top: "conv4"
}
layer {
  name: "conv5"
  type: "Convolution"
  bottom: "conv4"
  top: "conv5"
  param {
    lr_mult: 1
  }
  param {
    lr_mult: 2
  }
  convolution_param {
    num_output: 64
    pad: 2
    kernel_size: 5
    stride: 1
    weight_filler {
      type: "gaussian"
      std: 0.01
    }
    bias_filler {
      type: "constant"
    }
  }
}
layer {
  name: "relu5"
  type: "ReLU"
  bottom: "conv5"
  top: "conv5"
}
layer {
  name: "pool5"
  type: "Pooling"
  bottom: "conv5"
  top: "pool5"
  pooling_param {
    pool: AVE
    kernel_size: 3
    stride: 2
  }
}
layer {
  name: "ip1"
  type: "InnerProduct"
  bottom: "pool5"
  top: "ip1"
  param {
    lr_mult: 1
  }
  param {
    lr_mult: 2
  }
  inner_product_param {
    num_output: 64
    weight_filler {
      type: "gaussian"
      std: 0.1
    }
    bias_filler {
      type: "constant"
    }
  }
}
layer {
  name: "ip2"
  type: "InnerProduct"
  bottom: "ip1"
  top: "ip2"
  param {
    lr_mult: 1
  }
  param {
    lr_mult: 2
  }
  inner_product_param {
    num_output: 64
    weight_filler {
      type: "gaussian"
      std: 0.1
    }
    bias_filler {
      type: "constant"
    }
  }
}
layer {
  name: "ip3"
  type: "InnerProduct"
  bottom: "ip2"
  top: "ip3"
  param {
    lr_mult: 1
  }
  param {
    lr_mult: 2
  }
  inner_product_param {
    num_output: 1
    weight_filler {
      type: "gaussian"
      std: 0.1
    }
    bias_filler {
      type: "constant"
    }
  }
}
layer {
  name: "loss"
  type: "HuberLoss"
  bottom: "ip3"
  bottom: "label"
  top: "loss"
  include {
    phase: TRAIN
  }
}
I0502 04:54:20.893455 18659 layer_factory.hpp:77] Creating layer parameters
I0502 04:54:20.893470 18659 net.cpp:94] Creating Layer parameters
I0502 04:54:20.893474 18659 net.cpp:409] parameters -> data
I0502 04:54:20.893494 18659 net.cpp:409] parameters -> label
I0502 04:54:20.893503 18659 hdf5_data_layer.cpp:79] Loading list of HDF5 filenames from: /home/purduethu/scratch/radon/d/deng106/CNNStatisticalModel/distributions/input/20_distributions_100_sample_size_train-parameters-path.txt
I0502 04:54:20.893527 18659 hdf5_data_layer.cpp:93] Number of HDF5 files: 1
I0502 04:54:20.893990 18659 hdf5.cpp:32] Datatype class: H5T_FLOAT
I0502 04:54:20.961165 18659 net.cpp:144] Setting up parameters
I0502 04:54:20.961199 18659 net.cpp:151] Top shape: 20 1 10 10 (2000)
I0502 04:54:20.961205 18659 net.cpp:151] Top shape: 20 (20)
I0502 04:54:20.961208 18659 net.cpp:159] Memory required for data: 8080
I0502 04:54:20.961215 18659 layer_factory.hpp:77] Creating layer conv1
I0502 04:54:20.961233 18659 net.cpp:94] Creating Layer conv1
I0502 04:54:20.961239 18659 net.cpp:435] conv1 <- data
I0502 04:54:20.961251 18659 net.cpp:409] conv1 -> conv1
I0502 04:54:20.964996 18659 net.cpp:144] Setting up conv1
I0502 04:54:20.965011 18659 net.cpp:151] Top shape: 20 64 10 10 (128000)
I0502 04:54:20.965015 18659 net.cpp:159] Memory required for data: 520080
I0502 04:54:20.965026 18659 layer_factory.hpp:77] Creating layer relu1
I0502 04:54:20.965035 18659 net.cpp:94] Creating Layer relu1
I0502 04:54:20.965039 18659 net.cpp:435] relu1 <- conv1
I0502 04:54:20.965044 18659 net.cpp:396] relu1 -> conv1 (in-place)
I0502 04:54:20.965054 18659 net.cpp:144] Setting up relu1
I0502 04:54:20.965059 18659 net.cpp:151] Top shape: 20 64 10 10 (128000)
I0502 04:54:20.965062 18659 net.cpp:159] Memory required for data: 1032080
I0502 04:54:20.965066 18659 layer_factory.hpp:77] Creating layer conv2
I0502 04:54:20.965073 18659 net.cpp:94] Creating Layer conv2
I0502 04:54:20.965077 18659 net.cpp:435] conv2 <- conv1
I0502 04:54:20.965082 18659 net.cpp:409] conv2 -> conv2
I0502 04:54:20.970131 18659 net.cpp:144] Setting up conv2
I0502 04:54:20.970145 18659 net.cpp:151] Top shape: 20 64 10 10 (128000)
I0502 04:54:20.970149 18659 net.cpp:159] Memory required for data: 1544080
I0502 04:54:20.970156 18659 layer_factory.hpp:77] Creating layer relu2
I0502 04:54:20.970163 18659 net.cpp:94] Creating Layer relu2
I0502 04:54:20.970167 18659 net.cpp:435] relu2 <- conv2
I0502 04:54:20.970171 18659 net.cpp:396] relu2 -> conv2 (in-place)
I0502 04:54:20.970178 18659 net.cpp:144] Setting up relu2
I0502 04:54:20.970183 18659 net.cpp:151] Top shape: 20 64 10 10 (128000)
I0502 04:54:20.970186 18659 net.cpp:159] Memory required for data: 2056080
I0502 04:54:20.970190 18659 layer_factory.hpp:77] Creating layer pool2
I0502 04:54:20.970196 18659 net.cpp:94] Creating Layer pool2
I0502 04:54:20.970206 18659 net.cpp:435] pool2 <- conv2
I0502 04:54:20.970211 18659 net.cpp:409] pool2 -> pool2
I0502 04:54:20.970257 18659 net.cpp:144] Setting up pool2
I0502 04:54:20.970263 18659 net.cpp:151] Top shape: 20 64 5 5 (32000)
I0502 04:54:20.970268 18659 net.cpp:159] Memory required for data: 2184080
I0502 04:54:20.970270 18659 layer_factory.hpp:77] Creating layer conv3
I0502 04:54:20.970278 18659 net.cpp:94] Creating Layer conv3
I0502 04:54:20.970281 18659 net.cpp:435] conv3 <- pool2
I0502 04:54:20.970286 18659 net.cpp:409] conv3 -> conv3
I0502 04:54:20.974988 18659 net.cpp:144] Setting up conv3
I0502 04:54:20.975003 18659 net.cpp:151] Top shape: 20 64 5 5 (32000)
I0502 04:54:20.975006 18659 net.cpp:159] Memory required for data: 2312080
I0502 04:54:20.975014 18659 layer_factory.hpp:77] Creating layer relu3
I0502 04:54:20.975020 18659 net.cpp:94] Creating Layer relu3
I0502 04:54:20.975024 18659 net.cpp:435] relu3 <- conv3
I0502 04:54:20.975028 18659 net.cpp:396] relu3 -> conv3 (in-place)
I0502 04:54:20.975035 18659 net.cpp:144] Setting up relu3
I0502 04:54:20.975040 18659 net.cpp:151] Top shape: 20 64 5 5 (32000)
I0502 04:54:20.975044 18659 net.cpp:159] Memory required for data: 2440080
I0502 04:54:20.975046 18659 layer_factory.hpp:77] Creating layer conv4
I0502 04:54:20.975054 18659 net.cpp:94] Creating Layer conv4
I0502 04:54:20.975059 18659 net.cpp:435] conv4 <- conv3
I0502 04:54:20.975064 18659 net.cpp:409] conv4 -> conv4
I0502 04:54:20.979286 18659 net.cpp:144] Setting up conv4
I0502 04:54:20.979300 18659 net.cpp:151] Top shape: 20 64 5 5 (32000)
I0502 04:54:20.979303 18659 net.cpp:159] Memory required for data: 2568080
I0502 04:54:20.979310 18659 layer_factory.hpp:77] Creating layer relu4
I0502 04:54:20.979315 18659 net.cpp:94] Creating Layer relu4
I0502 04:54:20.979320 18659 net.cpp:435] relu4 <- conv4
I0502 04:54:20.979323 18659 net.cpp:396] relu4 -> conv4 (in-place)
I0502 04:54:20.979331 18659 net.cpp:144] Setting up relu4
I0502 04:54:20.979334 18659 net.cpp:151] Top shape: 20 64 5 5 (32000)
I0502 04:54:20.979338 18659 net.cpp:159] Memory required for data: 2696080
I0502 04:54:20.979341 18659 layer_factory.hpp:77] Creating layer conv5
I0502 04:54:20.979348 18659 net.cpp:94] Creating Layer conv5
I0502 04:54:20.979352 18659 net.cpp:435] conv5 <- conv4
I0502 04:54:20.979357 18659 net.cpp:409] conv5 -> conv5
I0502 04:54:20.985890 18659 net.cpp:144] Setting up conv5
I0502 04:54:20.985904 18659 net.cpp:151] Top shape: 20 64 5 5 (32000)
I0502 04:54:20.985908 18659 net.cpp:159] Memory required for data: 2824080
I0502 04:54:20.985918 18659 layer_factory.hpp:77] Creating layer relu5
I0502 04:54:20.985924 18659 net.cpp:94] Creating Layer relu5
I0502 04:54:20.985926 18659 net.cpp:435] relu5 <- conv5
I0502 04:54:20.985931 18659 net.cpp:396] relu5 -> conv5 (in-place)
I0502 04:54:20.985937 18659 net.cpp:144] Setting up relu5
I0502 04:54:20.985942 18659 net.cpp:151] Top shape: 20 64 5 5 (32000)
I0502 04:54:20.985945 18659 net.cpp:159] Memory required for data: 2952080
I0502 04:54:20.985949 18659 layer_factory.hpp:77] Creating layer pool5
I0502 04:54:20.985954 18659 net.cpp:94] Creating Layer pool5
I0502 04:54:20.985957 18659 net.cpp:435] pool5 <- conv5
I0502 04:54:20.985961 18659 net.cpp:409] pool5 -> pool5
I0502 04:54:20.985994 18659 net.cpp:144] Setting up pool5
I0502 04:54:20.986001 18659 net.cpp:151] Top shape: 20 64 2 2 (5120)
I0502 04:54:20.986004 18659 net.cpp:159] Memory required for data: 2972560
I0502 04:54:20.986007 18659 layer_factory.hpp:77] Creating layer ip1
I0502 04:54:20.986017 18659 net.cpp:94] Creating Layer ip1
I0502 04:54:20.986021 18659 net.cpp:435] ip1 <- pool5
I0502 04:54:20.986026 18659 net.cpp:409] ip1 -> ip1
I0502 04:54:20.987123 18659 net.cpp:144] Setting up ip1
I0502 04:54:20.987138 18659 net.cpp:151] Top shape: 20 64 (1280)
I0502 04:54:20.987141 18659 net.cpp:159] Memory required for data: 2977680
I0502 04:54:20.987146 18659 layer_factory.hpp:77] Creating layer ip2
I0502 04:54:20.987154 18659 net.cpp:94] Creating Layer ip2
I0502 04:54:20.987157 18659 net.cpp:435] ip2 <- ip1
I0502 04:54:20.987166 18659 net.cpp:409] ip2 -> ip2
I0502 04:54:20.987334 18659 net.cpp:144] Setting up ip2
I0502 04:54:20.987340 18659 net.cpp:151] Top shape: 20 64 (1280)
I0502 04:54:20.987344 18659 net.cpp:159] Memory required for data: 2982800
I0502 04:54:20.987349 18659 layer_factory.hpp:77] Creating layer ip3
I0502 04:54:20.987354 18659 net.cpp:94] Creating Layer ip3
I0502 04:54:20.987357 18659 net.cpp:435] ip3 <- ip2
I0502 04:54:20.987362 18659 net.cpp:409] ip3 -> ip3
I0502 04:54:20.987424 18659 net.cpp:144] Setting up ip3
I0502 04:54:20.987431 18659 net.cpp:151] Top shape: 20 1 (20)
I0502 04:54:20.987439 18659 net.cpp:159] Memory required for data: 2982880
I0502 04:54:20.987444 18659 layer_factory.hpp:77] Creating layer loss
I0502 04:54:20.987455 18659 net.cpp:94] Creating Layer loss
I0502 04:54:20.987459 18659 net.cpp:435] loss <- ip3
I0502 04:54:20.987462 18659 net.cpp:435] loss <- label
I0502 04:54:20.987468 18659 net.cpp:409] loss -> loss
I0502 04:54:20.987504 18659 net.cpp:144] Setting up loss
…
