…
I0507 00:24:35.469271 30045 net.cpp:323] The NetState phase (0) differed from the phase (1) specified by a rule in layer intercept
I0507 00:24:35.469287 30045 net.cpp:323] The NetState phase (0) differed from the phase (1) specified by a rule in layer loss
I0507 00:24:35.469365 30045 net.cpp:52] Initializing net from parameters: 
state {
  phase: TRAIN
}
layer {
  name: "parameters"
  type: "HDF5Data"
  top: "data"
  top: "label"
  include {
    phase: TRAIN
  }
  hdf5_data_param {
    source: "/home/purduethu/scratch/radon/d/deng106/CNNStatisticalModel/distributions/input/50_distributions_100_sample_size_train-parameters-path.txt"
    batch_size: 20
  }
}
layer {
  name: "conv1"
  type: "Convolution"
  bottom: "data"
  top: "conv1"
  param {
    lr_mult: 1
  }
  param {
    lr_mult: 2
  }
  convolution_param {
    num_output: 64
    pad: 2
    kernel_size: 5
    stride: 1
    weight_filler {
      type: "gaussian"
      std: 0.0001
    }
    bias_filler {
      type: "constant"
    }
  }
}
layer {
  name: "relu1"
  type: "ReLU"
  bottom: "conv1"
  top: "conv1"
}
layer {
  name: "conv2"
  type: "Convolution"
  bottom: "conv1"
  top: "conv2"
  param {
    lr_mult: 1
  }
  param {
    lr_mult: 2
  }
  convolution_param {
    num_output: 64
    pad: 2
    kernel_size: 5
    stride: 1
    weight_filler {
      type: "gaussian"
      std: 0.01
    }
    bias_filler {
      type: "constant"
    }
  }
}
layer {
  name: "relu2"
  type: "ReLU"
  bottom: "conv2"
  top: "conv2"
}
layer {
  name: "pool2"
  type: "Pooling"
  bottom: "conv2"
  top: "pool2"
  pooling_param {
    pool: MAX
    kernel_size: 3
    stride: 2
  }
}
layer {
  name: "conv3"
  type: "Convolution"
  bottom: "pool2"
  top: "conv3"
  param {
    lr_mult: 1
  }
  param {
    lr_mult: 2
  }
  convolution_param {
    num_output: 64
    pad: 2
    kernel_size: 5
    stride: 1
    weight_filler {
      type: "gaussian"
      std: 0.01
    }
    bias_filler {
      type: "constant"
    }
  }
}
layer {
  name: "relu3"
  type: "ReLU"
  bottom: "conv3"
  top: "conv3"
}
layer {
  name: "conv4"
  type: "Convolution"
  bottom: "conv3"
  top: "conv4"
  param {
    lr_mult: 1
  }
  param {
    lr_mult: 2
  }
  convolution_param {
    num_output: 64
    pad: 2
    kernel_size: 5
    stride: 1
    weight_filler {
      type: "gaussian"
      std: 0.01
    }
    bias_filler {
      type: "constant"
    }
  }
}
layer {
  name: "relu4"
  type: "ReLU"
  bottom: "conv4"
  top: "conv4"
}
layer {
  name: "conv5"
  type: "Convolution"
  bottom: "conv4"
  top: "conv5"
  param {
    lr_mult: 1
  }
  param {
    lr_mult: 2
  }
  convolution_param {
    num_output: 64
    pad: 2
    kernel_size: 5
    stride: 1
    weight_filler {
      type: "gaussian"
      std: 0.01
    }
    bias_filler {
      type: "constant"
    }
  }
}
layer {
  name: "relu5"
  type: "ReLU"
  bottom: "conv5"
  top: "conv5"
}
layer {
  name: "pool5"
  type: "Pooling"
  bottom: "conv5"
  top: "pool5"
  pooling_param {
    pool: AVE
    kernel_size: 3
    stride: 2
  }
}
layer {
  name: "ip1"
  type: "InnerProduct"
  bottom: "pool5"
  top: "ip1"
  param {
    lr_mult: 1
  }
  param {
    lr_mult: 2
  }
  inner_product_param {
    num_output: 64
    weight_filler {
      type: "gaussian"
      std: 0.1
    }
    bias_filler {
      type: "constant"
    }
  }
}
layer {
  name: "ip2"
  type: "InnerProduct"
  bottom: "ip1"
  top: "ip2"
  param {
    lr_mult: 1
  }
  param {
    lr_mult: 2
  }
  inner_product_param {
    num_output: 64
    weight_filler {
      type: "gaussian"
      std: 0.1
    }
    bias_filler {
      type: "constant"
    }
  }
}
layer {
  name: "ip3"
  type: "InnerProduct"
  bottom: "ip2"
  top: "ip3"
  param {
    lr_mult: 1
  }
  param {
    lr_mult: 2
  }
  inner_product_param {
    num_output: 1
    weight_filler {
      type: "gaussian"
      std: 0.1
    }
    bias_filler {
      type: "constant"
    }
  }
}
layer {
  name: "loss"
  type: "HuberLoss"
  bottom: "ip3"
  bottom: "label"
  top: "loss"
  include {
    phase: TRAIN
  }
}
I0507 00:24:35.469418 30045 layer_factory.hpp:77] Creating layer parameters
I0507 00:24:35.469430 30045 net.cpp:94] Creating Layer parameters
I0507 00:24:35.469435 30045 net.cpp:409] parameters -> data
I0507 00:24:35.469444 30045 net.cpp:409] parameters -> label
I0507 00:24:35.469451 30045 hdf5_data_layer.cpp:79] Loading list of HDF5 filenames from: /home/purduethu/scratch/radon/d/deng106/CNNStatisticalModel/distributions/input/50_distributions_100_sample_size_train-parameters-path.txt
I0507 00:24:35.469467 30045 hdf5_data_layer.cpp:93] Number of HDF5 files: 1
I0507 00:24:35.470007 30045 hdf5.cpp:32] Datatype class: H5T_FLOAT
I0507 00:24:35.630223 30045 net.cpp:144] Setting up parameters
I0507 00:24:35.630256 30045 net.cpp:151] Top shape: 20 1 10 10 (2000)
I0507 00:24:35.630261 30045 net.cpp:151] Top shape: 20 (20)
I0507 00:24:35.630265 30045 net.cpp:159] Memory required for data: 8080
I0507 00:24:35.630272 30045 layer_factory.hpp:77] Creating layer conv1
I0507 00:24:35.630293 30045 net.cpp:94] Creating Layer conv1
I0507 00:24:35.630298 30045 net.cpp:435] conv1 <- data
I0507 00:24:35.630306 30045 net.cpp:409] conv1 -> conv1
I0507 00:24:35.634464 30045 net.cpp:144] Setting up conv1
I0507 00:24:35.634479 30045 net.cpp:151] Top shape: 20 64 10 10 (128000)
I0507 00:24:35.634483 30045 net.cpp:159] Memory required for data: 520080
I0507 00:24:35.634495 30045 layer_factory.hpp:77] Creating layer relu1
I0507 00:24:35.634501 30045 net.cpp:94] Creating Layer relu1
I0507 00:24:35.634505 30045 net.cpp:435] relu1 <- conv1
I0507 00:24:35.634510 30045 net.cpp:396] relu1 -> conv1 (in-place)
I0507 00:24:35.634524 30045 net.cpp:144] Setting up relu1
I0507 00:24:35.634529 30045 net.cpp:151] Top shape: 20 64 10 10 (128000)
I0507 00:24:35.634532 30045 net.cpp:159] Memory required for data: 1032080
I0507 00:24:35.634536 30045 layer_factory.hpp:77] Creating layer conv2
I0507 00:24:35.634544 30045 net.cpp:94] Creating Layer conv2
I0507 00:24:35.634547 30045 net.cpp:435] conv2 <- conv1
I0507 00:24:35.634552 30045 net.cpp:409] conv2 -> conv2
I0507 00:24:35.640612 30045 net.cpp:144] Setting up conv2
I0507 00:24:35.640626 30045 net.cpp:151] Top shape: 20 64 10 10 (128000)
I0507 00:24:35.640630 30045 net.cpp:159] Memory required for data: 1544080
I0507 00:24:35.640640 30045 layer_factory.hpp:77] Creating layer relu2
I0507 00:24:35.640646 30045 net.cpp:94] Creating Layer relu2
I0507 00:24:35.640650 30045 net.cpp:435] relu2 <- conv2
I0507 00:24:35.640655 30045 net.cpp:396] relu2 -> conv2 (in-place)
I0507 00:24:35.640661 30045 net.cpp:144] Setting up relu2
I0507 00:24:35.640666 30045 net.cpp:151] Top shape: 20 64 10 10 (128000)
I0507 00:24:35.640669 30045 net.cpp:159] Memory required for data: 2056080
I0507 00:24:35.640672 30045 layer_factory.hpp:77] Creating layer pool2
I0507 00:24:35.640678 30045 net.cpp:94] Creating Layer pool2
I0507 00:24:35.640682 30045 net.cpp:435] pool2 <- conv2
I0507 00:24:35.640686 30045 net.cpp:409] pool2 -> pool2
I0507 00:24:35.640744 30045 net.cpp:144] Setting up pool2
I0507 00:24:35.640753 30045 net.cpp:151] Top shape: 20 64 5 5 (32000)
I0507 00:24:35.640756 30045 net.cpp:159] Memory required for data: 2184080
I0507 00:24:35.640760 30045 layer_factory.hpp:77] Creating layer conv3
I0507 00:24:35.640769 30045 net.cpp:94] Creating Layer conv3
I0507 00:24:35.640772 30045 net.cpp:435] conv3 <- pool2
I0507 00:24:35.640784 30045 net.cpp:409] conv3 -> conv3
I0507 00:24:35.645671 30045 net.cpp:144] Setting up conv3
I0507 00:24:35.645685 30045 net.cpp:151] Top shape: 20 64 5 5 (32000)
I0507 00:24:35.645689 30045 net.cpp:159] Memory required for data: 2312080
I0507 00:24:35.645699 30045 layer_factory.hpp:77] Creating layer relu3
I0507 00:24:35.645704 30045 net.cpp:94] Creating Layer relu3
I0507 00:24:35.645709 30045 net.cpp:435] relu3 <- conv3
I0507 00:24:35.645714 30045 net.cpp:396] relu3 -> conv3 (in-place)
I0507 00:24:35.645720 30045 net.cpp:144] Setting up relu3
I0507 00:24:35.645725 30045 net.cpp:151] Top shape: 20 64 5 5 (32000)
I0507 00:24:35.645727 30045 net.cpp:159] Memory required for data: 2440080
I0507 00:24:35.645731 30045 layer_factory.hpp:77] Creating layer conv4
I0507 00:24:35.645740 30045 net.cpp:94] Creating Layer conv4
I0507 00:24:35.645743 30045 net.cpp:435] conv4 <- conv3
I0507 00:24:35.645748 30045 net.cpp:409] conv4 -> conv4
I0507 00:24:35.650158 30045 net.cpp:144] Setting up conv4
I0507 00:24:35.650172 30045 net.cpp:151] Top shape: 20 64 5 5 (32000)
I0507 00:24:35.650177 30045 net.cpp:159] Memory required for data: 2568080
I0507 00:24:35.650182 30045 layer_factory.hpp:77] Creating layer relu4
I0507 00:24:35.650188 30045 net.cpp:94] Creating Layer relu4
I0507 00:24:35.650192 30045 net.cpp:435] relu4 <- conv4
I0507 00:24:35.650197 30045 net.cpp:396] relu4 -> conv4 (in-place)
I0507 00:24:35.650203 30045 net.cpp:144] Setting up relu4
I0507 00:24:35.650208 30045 net.cpp:151] Top shape: 20 64 5 5 (32000)
I0507 00:24:35.650212 30045 net.cpp:159] Memory required for data: 2696080
I0507 00:24:35.650214 30045 layer_factory.hpp:77] Creating layer conv5
I0507 00:24:35.650223 30045 net.cpp:94] Creating Layer conv5
I0507 00:24:35.650226 30045 net.cpp:435] conv5 <- conv4
I0507 00:24:35.650231 30045 net.cpp:409] conv5 -> conv5
I0507 00:24:35.655074 30045 net.cpp:144] Setting up conv5
I0507 00:24:35.655087 30045 net.cpp:151] Top shape: 20 64 5 5 (32000)
I0507 00:24:35.655092 30045 net.cpp:159] Memory required for data: 2824080
I0507 00:24:35.655100 30045 layer_factory.hpp:77] Creating layer relu5
I0507 00:24:35.655107 30045 net.cpp:94] Creating Layer relu5
I0507 00:24:35.655110 30045 net.cpp:435] relu5 <- conv5
I0507 00:24:35.655115 30045 net.cpp:396] relu5 -> conv5 (in-place)
I0507 00:24:35.655122 30045 net.cpp:144] Setting up relu5
I0507 00:24:35.655127 30045 net.cpp:151] Top shape: 20 64 5 5 (32000)
I0507 00:24:35.655130 30045 net.cpp:159] Memory required for data: 2952080
I0507 00:24:35.655133 30045 layer_factory.hpp:77] Creating layer pool5
I0507 00:24:35.655138 30045 net.cpp:94] Creating Layer pool5
I0507 00:24:35.655141 30045 net.cpp:435] pool5 <- conv5
I0507 00:24:35.655146 30045 net.cpp:409] pool5 -> pool5
I0507 00:24:35.655187 30045 net.cpp:144] Setting up pool5
I0507 00:24:35.655195 30045 net.cpp:151] Top shape: 20 64 2 2 (5120)
I0507 00:24:35.655200 30045 net.cpp:159] Memory required for data: 2972560
I0507 00:24:35.655203 30045 layer_factory.hpp:77] Creating layer ip1
I0507 00:24:35.655213 30045 net.cpp:94] Creating Layer ip1
I0507 00:24:35.655217 30045 net.cpp:435] ip1 <- pool5
I0507 00:24:35.655222 30045 net.cpp:409] ip1 -> ip1
I0507 00:24:35.656558 30045 net.cpp:144] Setting up ip1
I0507 00:24:35.656571 30045 net.cpp:151] Top shape: 20 64 (1280)
I0507 00:24:35.656575 30045 net.cpp:159] Memory required for data: 2977680
I0507 00:24:35.656582 30045 layer_factory.hpp:77] Creating layer ip2
I0507 00:24:35.656589 30045 net.cpp:94] Creating Layer ip2
I0507 00:24:35.656594 30045 net.cpp:435] ip2 <- ip1
I0507 00:24:35.656599 30045 net.cpp:409] ip2 -> ip2
I0507 00:24:35.656817 30045 net.cpp:144] Setting up ip2
I0507 00:24:35.656826 30045 net.cpp:151] Top shape: 20 64 (1280)
I0507 00:24:35.656831 30045 net.cpp:159] Memory required for data: 2982800
I0507 00:24:35.656836 30045 layer_factory.hpp:77] Creating layer ip3
I0507 00:24:35.656842 30045 net.cpp:94] Creating Layer ip3
I0507 00:24:35.656846 30045 net.cpp:435] ip3 <- ip2
I0507 00:24:35.656850 30045 net.cpp:409] ip3 -> ip3
I0507 00:24:35.656967 30045 net.cpp:144] Setting up ip3
I0507 00:24:35.656975 30045 net.cpp:151] Top shape: 20 1 (20)
I0507 00:24:35.656980 30045 net.cpp:159] Memory required for data: 2982880
I0507 00:24:35.656985 30045 layer_factory.hpp:77] Creating layer loss
I0507 00:24:35.656992 30045 net.cpp:94] Creating Layer loss
I0507 00:24:35.656996 30045 net.cpp:435] loss <- ip3
I0507 00:24:35.656999 30045 net.cpp:435] loss <- label
I0507 00:24:35.657004 30045 net.cpp:409] loss -> loss
I0507 00:24:35.657063 30045 net.cpp:144] Setting up loss
…
I0507 00:24:35.718080 30045 net.cpp:323] The NetState phase (0) differed from the phase (1) specified by a rule in layer intercept
I0507 00:24:35.718096 30045 net.cpp:323] The NetState phase (0) differed from the phase (1) specified by a rule in layer accuracy
I0507 00:24:35.718181 30045 net.cpp:52] Initializing net from parameters: 
state {
  phase: TRAIN
}
layer {
  name: "parameters"
  type: "HDF5Data"
  top: "data"
  top: "label"
  include {
    phase: TRAIN
  }
  hdf5_data_param {
    source: "/home/purduethu/scratch/radon/d/deng106/CNNStatisticalModel/distributions/input/50_distributions_100_sample_size_train-distributions-path.txt"
    batch_size: 20
  }
}
layer {
  name: "conv1"
  type: "Convolution"
  bottom: "data"
  top: "conv1"
  param {
    lr_mult: 1
  }
  param {
    lr_mult: 2
  }
  convolution_param {
    num_output: 64
    pad: 2
    kernel_size: 5
    stride: 1
    weight_filler {
      type: "gaussian"
      std: 0.0001
    }
    bias_filler {
      type: "constant"
    }
  }
}
layer {
  name: "relu1"
  type: "ReLU"
  bottom: "conv1"
  top: "conv1"
}
layer {
  name: "conv2"
  type: "Convolution"
  bottom: "conv1"
  top: "conv2"
  param {
    lr_mult: 1
  }
  param {
    lr_mult: 2
  }
  convolution_param {
    num_output: 64
    pad: 2
    kernel_size: 5
    stride: 1
    weight_filler {
      type: "gaussian"
      std: 0.01
    }
    bias_filler {
      type: "constant"
    }
  }
}
layer {
  name: "relu2"
  type: "ReLU"
  bottom: "conv2"
  top: "conv2"
}
layer {
  name: "pool2"
  type: "Pooling"
  bottom: "conv2"
  top: "pool2"
  pooling_param {
    pool: MAX
    kernel_size: 3
    stride: 2
  }
}
layer {
  name: "conv3"
  type: "Convolution"
  bottom: "pool2"
  top: "conv3"
  param {
    lr_mult: 1
  }
  param {
    lr_mult: 2
  }
  convolution_param {
    num_output: 64
    pad: 2
    kernel_size: 5
    stride: 1
    weight_filler {
      type: "gaussian"
      std: 0.01
    }
    bias_filler {
      type: "constant"
    }
  }
}
layer {
  name: "relu3"
  type: "ReLU"
  bottom: "conv3"
  top: "conv3"
}
layer {
  name: "conv4"
  type: "Convolution"
  bottom: "conv3"
  top: "conv4"
  param {
    lr_mult: 1
  }
  param {
    lr_mult: 2
  }
  convolution_param {
    num_output: 64
    pad: 2
    kernel_size: 5
    stride: 1
    weight_filler {
      type: "gaussian"
      std: 0.01
    }
    bias_filler {
      type: "constant"
    }
  }
}
layer {
  name: "relu4"
  type: "ReLU"
  bottom: "conv4"
  top: "conv4"
}
layer {
  name: "conv5"
  type: "Convolution"
  bottom: "conv4"
  top: "conv5"
  param {
    lr_mult: 1
  }
  param {
    lr_mult: 2
  }
  convolution_param {
    num_output: 64
    pad: 2
    kernel_size: 5
    stride: 1
    weight_filler {
      type: "gaussian"
      std: 0.01
    }
    bias_filler {
      type: "constant"
    }
  }
}
layer {
  name: "relu5"
  type: "ReLU"
  bottom: "conv5"
  top: "conv5"
}
layer {
  name: "pool5"
  type: "Pooling"
  bottom: "conv5"
  top: "pool5"
  pooling_param {
    pool: AVE
    kernel_size: 3
    stride: 2
  }
}
layer {
  name: "ip1"
  type: "InnerProduct"
  bottom: "pool5"
  top: "ip1"
  param {
    lr_mult: 1
  }
  param {
    lr_mult: 2
  }
  inner_product_param {
    num_output: 64
    weight_filler {
      type: "gaussian"
      std: 0.1
    }
    bias_filler {
      type: "constant"
    }
  }
}
layer {
  name: "ip2"
  type: "InnerProduct"
  bottom: "ip1"
  top: "ip2"
  param {
    lr_mult: 1
  }
  param {
    lr_mult: 2
  }
  inner_product_param {
    num_output: 64
    weight_filler {
      type: "gaussian"
      std: 0.1
    }
    bias_filler {
      type: "constant"
    }
  }
}
layer {
  name: "ip3"
  type: "InnerProduct"
  bottom: "ip2"
  top: "ip3"
  param {
    lr_mult: 1
  }
  param {
    lr_mult: 2
  }
  inner_product_param {
    num_output: 50
    weight_filler {
      type: "gaussian"
      std: 0.1
    }
    bias_filler {
      type: "constant"
    }
  }
}
layer {
  name: "loss"
  type: "SoftmaxWithLoss"
  bottom: "ip3"
  bottom: "label"
  top: "loss"
}
I0507 00:24:35.718235 30045 layer_factory.hpp:77] Creating layer parameters
I0507 00:24:35.718245 30045 net.cpp:94] Creating Layer parameters
I0507 00:24:35.718250 30045 net.cpp:409] parameters -> data
I0507 00:24:35.718256 30045 net.cpp:409] parameters -> label
I0507 00:24:35.718262 30045 hdf5_data_layer.cpp:79] Loading list of HDF5 filenames from: /home/purduethu/scratch/radon/d/deng106/CNNStatisticalModel/distributions/input/50_distributions_100_sample_size_train-distributions-path.txt
I0507 00:24:35.718279 30045 hdf5_data_layer.cpp:93] Number of HDF5 files: 1
I0507 00:24:35.873723 30045 hdf5.cpp:35] Datatype class: H5T_INTEGER
I0507 00:24:35.876745 30045 net.cpp:144] Setting up parameters
I0507 00:24:35.876763 30045 net.cpp:151] Top shape: 20 1 10 10 (2000)
I0507 00:24:35.876768 30045 net.cpp:151] Top shape: 20 (20)
I0507 00:24:35.876772 30045 net.cpp:159] Memory required for data: 8080
I0507 00:24:35.876778 30045 layer_factory.hpp:77] Creating layer conv1
I0507 00:24:35.876796 30045 net.cpp:94] Creating Layer conv1
I0507 00:24:35.876799 30045 net.cpp:435] conv1 <- data
I0507 00:24:35.876806 30045 net.cpp:409] conv1 -> conv1
I0507 00:24:35.878576 30045 net.cpp:144] Setting up conv1
I0507 00:24:35.878589 30045 net.cpp:151] Top shape: 20 64 10 10 (128000)
I0507 00:24:35.878593 30045 net.cpp:159] Memory required for data: 520080
I0507 00:24:35.878604 30045 layer_factory.hpp:77] Creating layer relu1
I0507 00:24:35.878612 30045 net.cpp:94] Creating Layer relu1
I0507 00:24:35.878617 30045 net.cpp:435] relu1 <- conv1
I0507 00:24:35.878620 30045 net.cpp:396] relu1 -> conv1 (in-place)
I0507 00:24:35.878628 30045 net.cpp:144] Setting up relu1
I0507 00:24:35.878633 30045 net.cpp:151] Top shape: 20 64 10 10 (128000)
I0507 00:24:35.878636 30045 net.cpp:159] Memory required for data: 1032080
I0507 00:24:35.878639 30045 layer_factory.hpp:77] Creating layer conv2
I0507 00:24:35.878648 30045 net.cpp:94] Creating Layer conv2
I0507 00:24:35.878650 30045 net.cpp:435] conv2 <- conv1
I0507 00:24:35.878656 30045 net.cpp:409] conv2 -> conv2
I0507 00:24:35.883967 30045 net.cpp:144] Setting up conv2
I0507 00:24:35.883980 30045 net.cpp:151] Top shape: 20 64 10 10 (128000)
I0507 00:24:35.883985 30045 net.cpp:159] Memory required for data: 1544080
I0507 00:24:35.883992 30045 layer_factory.hpp:77] Creating layer relu2
I0507 00:24:35.883999 30045 net.cpp:94] Creating Layer relu2
I0507 00:24:35.884003 30045 net.cpp:435] relu2 <- conv2
I0507 00:24:35.884008 30045 net.cpp:396] relu2 -> conv2 (in-place)
I0507 00:24:35.884016 30045 net.cpp:144] Setting up relu2
I0507 00:24:35.884019 30045 net.cpp:151] Top shape: 20 64 10 10 (128000)
I0507 00:24:35.884023 30045 net.cpp:159] Memory required for data: 2056080
I0507 00:24:35.884027 30045 layer_factory.hpp:77] Creating layer pool2
I0507 00:24:35.884032 30045 net.cpp:94] Creating Layer pool2
I0507 00:24:35.884037 30045 net.cpp:435] pool2 <- conv2
I0507 00:24:35.884040 30045 net.cpp:409] pool2 -> pool2
I0507 00:24:35.884096 30045 net.cpp:144] Setting up pool2
I0507 00:24:35.884105 30045 net.cpp:151] Top shape: 20 64 5 5 (32000)
I0507 00:24:35.884109 30045 net.cpp:159] Memory required for data: 2184080
I0507 00:24:35.884112 30045 layer_factory.hpp:77] Creating layer conv3
I0507 00:24:35.884120 30045 net.cpp:94] Creating Layer conv3
I0507 00:24:35.884124 30045 net.cpp:435] conv3 <- pool2
I0507 00:24:35.884130 30045 net.cpp:409] conv3 -> conv3
I0507 00:24:35.889883 30045 net.cpp:144] Setting up conv3
I0507 00:24:35.889899 30045 net.cpp:151] Top shape: 20 64 5 5 (32000)
I0507 00:24:35.889902 30045 net.cpp:159] Memory required for data: 2312080
I0507 00:24:35.889910 30045 layer_factory.hpp:77] Creating layer relu3
I0507 00:24:35.889916 30045 net.cpp:94] Creating Layer relu3
I0507 00:24:35.889920 30045 net.cpp:435] relu3 <- conv3
I0507 00:24:35.889925 30045 net.cpp:396] relu3 -> conv3 (in-place)
I0507 00:24:35.889932 30045 net.cpp:144] Setting up relu3
I0507 00:24:35.889937 30045 net.cpp:151] Top shape: 20 64 5 5 (32000)
I0507 00:24:35.889946 30045 net.cpp:159] Memory required for data: 2440080
I0507 00:24:35.889950 30045 layer_factory.hpp:77] Creating layer conv4
I0507 00:24:35.889960 30045 net.cpp:94] Creating Layer conv4
I0507 00:24:35.889963 30045 net.cpp:435] conv4 <- conv3
I0507 00:24:35.889968 30045 net.cpp:409] conv4 -> conv4
I0507 00:24:35.894852 30045 net.cpp:144] Setting up conv4
I0507 00:24:35.894866 30045 net.cpp:151] Top shape: 20 64 5 5 (32000)
I0507 00:24:35.894870 30045 net.cpp:159] Memory required for data: 2568080
I0507 00:24:35.894877 30045 layer_factory.hpp:77] Creating layer relu4
I0507 00:24:35.894883 30045 net.cpp:94] Creating Layer relu4
I0507 00:24:35.894887 30045 net.cpp:435] relu4 <- conv4
I0507 00:24:35.894891 30045 net.cpp:396] relu4 -> conv4 (in-place)
I0507 00:24:35.894898 30045 net.cpp:144] Setting up relu4
I0507 00:24:35.894903 30045 net.cpp:151] Top shape: 20 64 5 5 (32000)
I0507 00:24:35.894906 30045 net.cpp:159] Memory required for data: 2696080
I0507 00:24:35.894911 30045 layer_factory.hpp:77] Creating layer conv5
I0507 00:24:35.894917 30045 net.cpp:94] Creating Layer conv5
I0507 00:24:35.894922 30045 net.cpp:435] conv5 <- conv4
I0507 00:24:35.894927 30045 net.cpp:409] conv5 -> conv5
I0507 00:24:35.899360 30045 net.cpp:144] Setting up conv5
I0507 00:24:35.899374 30045 net.cpp:151] Top shape: 20 64 5 5 (32000)
I0507 00:24:35.899377 30045 net.cpp:159] Memory required for data: 2824080
I0507 00:24:35.899386 30045 layer_factory.hpp:77] Creating layer relu5
I0507 00:24:35.899392 30045 net.cpp:94] Creating Layer relu5
I0507 00:24:35.899396 30045 net.cpp:435] relu5 <- conv5
I0507 00:24:35.899401 30045 net.cpp:396] relu5 -> conv5 (in-place)
I0507 00:24:35.899407 30045 net.cpp:144] Setting up relu5
I0507 00:24:35.899412 30045 net.cpp:151] Top shape: 20 64 5 5 (32000)
I0507 00:24:35.899415 30045 net.cpp:159] Memory required for data: 2952080
I0507 00:24:35.899420 30045 layer_factory.hpp:77] Creating layer pool5
I0507 00:24:35.899425 30045 net.cpp:94] Creating Layer pool5
I0507 00:24:35.899427 30045 net.cpp:435] pool5 <- conv5
I0507 00:24:35.899432 30045 net.cpp:409] pool5 -> pool5
I0507 00:24:35.899469 30045 net.cpp:144] Setting up pool5
I0507 00:24:35.899477 30045 net.cpp:151] Top shape: 20 64 2 2 (5120)
I0507 00:24:35.899482 30045 net.cpp:159] Memory required for data: 2972560
I0507 00:24:35.899484 30045 layer_factory.hpp:77] Creating layer ip1
I0507 00:24:35.899492 30045 net.cpp:94] Creating Layer ip1
I0507 00:24:35.899495 30045 net.cpp:435] ip1 <- pool5
I0507 00:24:35.899500 30045 net.cpp:409] ip1 -> ip1
I0507 00:24:35.900020 30045 net.cpp:144] Setting up ip1
I0507 00:24:35.900029 30045 net.cpp:151] Top shape: 20 64 (1280)
I0507 00:24:35.900033 30045 net.cpp:159] Memory required for data: 2977680
I0507 00:24:35.900039 30045 layer_factory.hpp:77] Creating layer ip2
I0507 00:24:35.900045 30045 net.cpp:94] Creating Layer ip2
I0507 00:24:35.900049 30045 net.cpp:435] ip2 <- ip1
I0507 00:24:35.900054 30045 net.cpp:409] ip2 -> ip2
I0507 00:24:35.900285 30045 net.cpp:144] Setting up ip2
I0507 00:24:35.900293 30045 net.cpp:151] Top shape: 20 64 (1280)
I0507 00:24:35.900296 30045 net.cpp:159] Memory required for data: 2982800
I0507 00:24:35.900302 30045 layer_factory.hpp:77] Creating layer ip3
I0507 00:24:35.900308 30045 net.cpp:94] Creating Layer ip3
I0507 00:24:35.900312 30045 net.cpp:435] ip3 <- ip2
I0507 00:24:35.900317 30045 net.cpp:409] ip3 -> ip3
I0507 00:24:35.900519 30045 net.cpp:144] Setting up ip3
I0507 00:24:35.900527 30045 net.cpp:151] Top shape: 20 50 (1000)
I0507 00:24:35.900532 30045 net.cpp:159] Memory required for data: 2986800
I0507 00:24:35.900537 30045 layer_factory.hpp:77] Creating layer loss
I0507 00:24:35.900543 30045 net.cpp:94] Creating Layer loss
I0507 00:24:35.900547 30045 net.cpp:435] loss <- ip3
I0507 00:24:35.900560 30045 net.cpp:435] loss <- label
I0507 00:24:35.900566 30045 net.cpp:409] loss -> loss
I0507 00:24:35.900574 30045 layer_factory.hpp:77] Creating layer loss
…
I0507 00:24:35.901931 30045 solver.cpp:181] Creating test net (#0) specified by net file: ./protocol/dis_50_100_dimension.protocol_distribution
I0507 00:24:35.901957 30045 net.cpp:323] The NetState phase (1) differed from the phase (0) specified by a rule in layer parameters
I0507 00:24:35.902051 30045 net.cpp:52] Initializing net from parameters: 
state {
  phase: TEST
}
layer {
  name: "intercept"
  type: "HDF5Data"
  top: "data"
  top: "label"
  include {
    phase: TEST
  }
  hdf5_data_param {
    source: "/home/purduethu/scratch/radon/d/deng106/CNNStatisticalModel/distributions/input/50_distributions_100_sample_size_test-distributions-path.txt"
    batch_size: 20
  }
}
layer {
  name: "conv1"
  type: "Convolution"
  bottom: "data"
  top: "conv1"
  param {
    lr_mult: 1
  }
  param {
    lr_mult: 2
  }
  convolution_param {
    num_output: 64
    pad: 2
    kernel_size: 5
    stride: 1
    weight_filler {
      type: "gaussian"
      std: 0.0001
    }
    bias_filler {
      type: "constant"
    }
  }
}
layer {
  name: "relu1"
  type: "ReLU"
  bottom: "conv1"
  top: "conv1"
}
layer {
  name: "conv2"
  type: "Convolution"
  bottom: "conv1"
  top: "conv2"
  param {
    lr_mult: 1
  }
  param {
    lr_mult: 2
  }
  convolution_param {
    num_output: 64
    pad: 2
    kernel_size: 5
    stride: 1
    weight_filler {
      type: "gaussian"
      std: 0.01
    }
    bias_filler {
      type: "constant"
    }
  }
}
layer {
  name: "relu2"
  type: "ReLU"
  bottom: "conv2"
  top: "conv2"
}
layer {
  name: "pool2"
  type: "Pooling"
  bottom: "conv2"
  top: "pool2"
  pooling_param {
    pool: MAX
    kernel_size: 3
    stride: 2
  }
}
layer {
  name: "conv3"
  type: "Convolution"
  bottom: "pool2"
  top: "conv3"
  param {
    lr_mult: 1
  }
  param {
    lr_mult: 2
  }
  convolution_param {
    num_output: 64
    pad: 2
    kernel_size: 5
    stride: 1
    weight_filler {
      type: "gaussian"
      std: 0.01
    }
    bias_filler {
      type: "constant"
    }
  }
}
layer {
  name: "relu3"
  type: "ReLU"
  bottom: "conv3"
  top: "conv3"
}
layer {
  name: "conv4"
  type: "Convolution"
  bottom: "conv3"
  top: "conv4"
  param {
    lr_mult: 1
  }
  param {
    lr_mult: 2
  }
  convolution_param {
    num_output: 64
    pad: 2
    kernel_size: 5
    stride: 1
    weight_filler {
      type: "gaussian"
      std: 0.01
    }
    bias_filler {
      type: "constant"
    }
  }
}
layer {
  name: "relu4"
  type: "ReLU"
  bottom: "conv4"
  top: "conv4"
}
layer {
  name: "conv5"
  type: "Convolution"
  bottom: "conv4"
  top: "conv5"
  param {
    lr_mult: 1
  }
  param {
    lr_mult: 2
  }
  convolution_param {
    num_output: 64
    pad: 2
    kernel_size: 5
    stride: 1
    weight_filler {
      type: "gaussian"
      std: 0.01
    }
    bias_filler {
      type: "constant"
    }
  }
}
layer {
  name: "relu5"
  type: "ReLU"
  bottom: "conv5"
  top: "conv5"
}
layer {
  name: "pool5"
  type: "Pooling"
  bottom: "conv5"
  top: "pool5"
  pooling_param {
    pool: AVE
    kernel_size: 3
    stride: 2
  }
}
layer {
  name: "ip1"
  type: "InnerProduct"
  bottom: "pool5"
  top: "ip1"
  param {
    lr_mult: 1
  }
  param {
    lr_mult: 2
  }
  inner_product_param {
    num_output: 64
    weight_filler {
      type: "gaussian"
      std: 0.1
    }
    bias_filler {
      type: "constant"
    }
  }
}
layer {
  name: "ip2"
  type: "InnerProduct"
  bottom: "ip1"
  top: "ip2"
  param {
    lr_mult: 1
  }
  param {
    lr_mult: 2
  }
  inner_product_param {
    num_output: 64
    weight_filler {
      type: "gaussian"
      std: 0.1
    }
    bias_filler {
      type: "constant"
    }
  }
}
layer {
  name: "ip3"
  type: "InnerProduct"
  bottom: "ip2"
  top: "ip3"
  param {
    lr_mult: 1
  }
  param {
    lr_mult: 2
  }
  inner_product_param {
    num_output: 50
    weight_filler {
      type: "gaussian"
      std: 0.1
    }
    bias_filler {
      type: "constant"
    }
  }
}
layer {
  name: "accuracy"
  type: "Accuracy"
  bottom: "ip3"
  bottom: "label"
  top: "accuracy"
  include {
    phase: TEST
  }
}
layer {
  name: "loss"
  type: "SoftmaxWithLoss"
  bottom: "ip3"
  bottom: "label"
  top: "loss"
}
I0507 00:24:35.902117 30045 layer_factory.hpp:77] Creating layer intercept
I0507 00:24:35.902127 30045 net.cpp:94] Creating Layer intercept
I0507 00:24:35.902132 30045 net.cpp:409] intercept -> data
I0507 00:24:35.902138 30045 net.cpp:409] intercept -> label
I0507 00:24:35.902144 30045 hdf5_data_layer.cpp:79] Loading list of HDF5 filenames from: /home/purduethu/scratch/radon/d/deng106/CNNStatisticalModel/distributions/input/50_distributions_100_sample_size_test-distributions-path.txt
I0507 00:24:35.902163 30045 hdf5_data_layer.cpp:93] Number of HDF5 files: 1
I0507 00:24:35.943181 30045 net.cpp:144] Setting up intercept
I0507 00:24:35.943215 30045 net.cpp:151] Top shape: 20 1 10 10 (2000)
I0507 00:24:35.943222 30045 net.cpp:151] Top shape: 20 (20)
I0507 00:24:35.943224 30045 net.cpp:159] Memory required for data: 8080
I0507 00:24:35.943231 30045 layer_factory.hpp:77] Creating layer label_intercept_1_split
I0507 00:24:35.943250 30045 net.cpp:94] Creating Layer label_intercept_1_split
I0507 00:24:35.943255 30045 net.cpp:435] label_intercept_1_split <- label
I0507 00:24:35.943261 30045 net.cpp:409] label_intercept_1_split -> label_intercept_1_split_0
I0507 00:24:35.943271 30045 net.cpp:409] label_intercept_1_split -> label_intercept_1_split_1
I0507 00:24:35.943316 30045 net.cpp:144] Setting up label_intercept_1_split
I0507 00:24:35.943325 30045 net.cpp:151] Top shape: 20 (20)
I0507 00:24:35.943328 30045 net.cpp:151] Top shape: 20 (20)
I0507 00:24:35.943332 30045 net.cpp:159] Memory required for data: 8240
I0507 00:24:35.943336 30045 layer_factory.hpp:77] Creating layer conv1
I0507 00:24:35.943347 30045 net.cpp:94] Creating Layer conv1
I0507 00:24:35.943351 30045 net.cpp:435] conv1 <- data
I0507 00:24:35.943356 30045 net.cpp:409] conv1 -> conv1
I0507 00:24:35.944200 30045 net.cpp:144] Setting up conv1
I0507 00:24:35.944212 30045 net.cpp:151] Top shape: 20 64 10 10 (128000)
I0507 00:24:35.944217 30045 net.cpp:159] Memory required for data: 520240
I0507 00:24:35.944226 30045 layer_factory.hpp:77] Creating layer relu1
I0507 00:24:35.944233 30045 net.cpp:94] Creating Layer relu1
I0507 00:24:35.944237 30045 net.cpp:435] relu1 <- conv1
I0507 00:24:35.944242 30045 net.cpp:396] relu1 -> conv1 (in-place)
I0507 00:24:35.944250 30045 net.cpp:144] Setting up relu1
I0507 00:24:35.944254 30045 net.cpp:151] Top shape: 20 64 10 10 (128000)
I0507 00:24:35.944257 30045 net.cpp:159] Memory required for data: 1032240
I0507 00:24:35.944268 30045 layer_factory.hpp:77] Creating layer conv2
I0507 00:24:35.944278 30045 net.cpp:94] Creating Layer conv2
I0507 00:24:35.944280 30045 net.cpp:435] conv2 <- conv1
I0507 00:24:35.944286 30045 net.cpp:409] conv2 -> conv2
I0507 00:24:35.948366 30045 net.cpp:144] Setting up conv2
I0507 00:24:35.948379 30045 net.cpp:151] Top shape: 20 64 10 10 (128000)
I0507 00:24:35.948384 30045 net.cpp:159] Memory required for data: 1544240
I0507 00:24:35.948392 30045 layer_factory.hpp:77] Creating layer relu2
I0507 00:24:35.948400 30045 net.cpp:94] Creating Layer relu2
I0507 00:24:35.948403 30045 net.cpp:435] relu2 <- conv2
I0507 00:24:35.948408 30045 net.cpp:396] relu2 -> conv2 (in-place)
I0507 00:24:35.948415 30045 net.cpp:144] Setting up relu2
I0507 00:24:35.948420 30045 net.cpp:151] Top shape: 20 64 10 10 (128000)
I0507 00:24:35.948423 30045 net.cpp:159] Memory required for data: 2056240
I0507 00:24:35.948426 30045 layer_factory.hpp:77] Creating layer pool2
I0507 00:24:35.948432 30045 net.cpp:94] Creating Layer pool2
I0507 00:24:35.948436 30045 net.cpp:435] pool2 <- conv2
I0507 00:24:35.948441 30045 net.cpp:409] pool2 -> pool2
I0507 00:24:35.948500 30045 net.cpp:144] Setting up pool2
I0507 00:24:35.948509 30045 net.cpp:151] Top shape: 20 64 5 5 (32000)
I0507 00:24:35.948513 30045 net.cpp:159] Memory required for data: 2184240
I0507 00:24:35.948516 30045 layer_factory.hpp:77] Creating layer conv3
I0507 00:24:35.948525 30045 net.cpp:94] Creating Layer conv3
I0507 00:24:35.948529 30045 net.cpp:435] conv3 <- pool2
I0507 00:24:35.948535 30045 net.cpp:409] conv3 -> conv3
I0507 00:24:35.953017 30045 net.cpp:144] Setting up conv3
I0507 00:24:35.953032 30045 net.cpp:151] Top shape: 20 64 5 5 (32000)
I0507 00:24:35.953035 30045 net.cpp:159] Memory required for data: 2312240
I0507 00:24:35.953044 30045 layer_factory.hpp:77] Creating layer relu3
I0507 00:24:35.953050 30045 net.cpp:94] Creating Layer relu3
I0507 00:24:35.953054 30045 net.cpp:435] relu3 <- conv3
I0507 00:24:35.953059 30045 net.cpp:396] relu3 -> conv3 (in-place)
I0507 00:24:35.953066 30045 net.cpp:144] Setting up relu3
I0507 00:24:35.953071 30045 net.cpp:151] Top shape: 20 64 5 5 (32000)
I0507 00:24:35.953074 30045 net.cpp:159] Memory required for data: 2440240
I0507 00:24:35.953078 30045 layer_factory.hpp:77] Creating layer conv4
I0507 00:24:35.953086 30045 net.cpp:94] Creating Layer conv4
I0507 00:24:35.953090 30045 net.cpp:435] conv4 <- conv3
I0507 00:24:35.953096 30045 net.cpp:409] conv4 -> conv4
I0507 00:24:35.956634 30045 net.cpp:144] Setting up conv4
I0507 00:24:35.956647 30045 net.cpp:151] Top shape: 20 64 5 5 (32000)
I0507 00:24:35.956651 30045 net.cpp:159] Memory required for data: 2568240
I0507 00:24:35.956657 30045 layer_factory.hpp:77] Creating layer relu4
I0507 00:24:35.956663 30045 net.cpp:94] Creating Layer relu4
I0507 00:24:35.956666 30045 net.cpp:435] relu4 <- conv4
I0507 00:24:35.956671 30045 net.cpp:396] relu4 -> conv4 (in-place)
I0507 00:24:35.956678 30045 net.cpp:144] Setting up relu4
I0507 00:24:35.956682 30045 net.cpp:151] Top shape: 20 64 5 5 (32000)
I0507 00:24:35.956686 30045 net.cpp:159] Memory required for data: 2696240
I0507 00:24:35.956689 30045 layer_factory.hpp:77] Creating layer conv5
I0507 00:24:35.956697 30045 net.cpp:94] Creating Layer conv5
I0507 00:24:35.956701 30045 net.cpp:435] conv5 <- conv4
I0507 00:24:35.956707 30045 net.cpp:409] conv5 -> conv5
I0507 00:24:35.960698 30045 net.cpp:144] Setting up conv5
I0507 00:24:35.960712 30045 net.cpp:151] Top shape: 20 64 5 5 (32000)
I0507 00:24:35.960716 30045 net.cpp:159] Memory required for data: 2824240
I0507 00:24:35.960726 30045 layer_factory.hpp:77] Creating layer relu5
I0507 00:24:35.960732 30045 net.cpp:94] Creating Layer relu5
I0507 00:24:35.960736 30045 net.cpp:435] relu5 <- conv5
I0507 00:24:35.960741 30045 net.cpp:396] relu5 -> conv5 (in-place)
I0507 00:24:35.960748 30045 net.cpp:144] Setting up relu5
I0507 00:24:35.960753 30045 net.cpp:151] Top shape: 20 64 5 5 (32000)
I0507 00:24:35.960757 30045 net.cpp:159] Memory required for data: 2952240
I0507 00:24:35.960763 30045 layer_factory.hpp:77] Creating layer pool5
I0507 00:24:35.960769 30045 net.cpp:94] Creating Layer pool5
I0507 00:24:35.960772 30045 net.cpp:435] pool5 <- conv5
I0507 00:24:35.960777 30045 net.cpp:409] pool5 -> pool5
I0507 00:24:35.960819 30045 net.cpp:144] Setting up pool5
I0507 00:24:35.960826 30045 net.cpp:151] Top shape: 20 64 2 2 (5120)
I0507 00:24:35.960830 30045 net.cpp:159] Memory required for data: 2972720
I0507 00:24:35.960834 30045 layer_factory.hpp:77] Creating layer ip1
I0507 00:24:35.960840 30045 net.cpp:94] Creating Layer ip1
I0507 00:24:35.960844 30045 net.cpp:435] ip1 <- pool5
I0507 00:24:35.960851 30045 net.cpp:409] ip1 -> ip1
I0507 00:24:35.961385 30045 net.cpp:144] Setting up ip1
I0507 00:24:35.961395 30045 net.cpp:151] Top shape: 20 64 (1280)
I0507 00:24:35.961397 30045 net.cpp:159] Memory required for data: 2977840
I0507 00:24:35.961403 30045 layer_factory.hpp:77] Creating layer ip2
I0507 00:24:35.961410 30045 net.cpp:94] Creating Layer ip2
I0507 00:24:35.961413 30045 net.cpp:435] ip2 <- ip1
I0507 00:24:35.961418 30045 net.cpp:409] ip2 -> ip2
I0507 00:24:35.961654 30045 net.cpp:144] Setting up ip2
I0507 00:24:35.961663 30045 net.cpp:151] Top shape: 20 64 (1280)
I0507 00:24:35.961668 30045 net.cpp:159] Memory required for data: 2982960
I0507 00:24:35.961673 30045 layer_factory.hpp:77] Creating layer ip3
I0507 00:24:35.961681 30045 net.cpp:94] Creating Layer ip3
I0507 00:24:35.961685 30045 net.cpp:435] ip3 <- ip2
I0507 00:24:35.961691 30045 net.cpp:409] ip3 -> ip3
I0507 00:24:35.961904 30045 net.cpp:144] Setting up ip3
I0507 00:24:35.961912 30045 net.cpp:151] Top shape: 20 50 (1000)
I0507 00:24:35.961915 30045 net.cpp:159] Memory required for data: 2986960
I0507 00:24:35.961920 30045 layer_factory.hpp:77] Creating layer ip3_ip3_0_split
I0507 00:24:35.961926 30045 net.cpp:94] Creating Layer ip3_ip3_0_split
I0507 00:24:35.961930 30045 net.cpp:435] ip3_ip3_0_split <- ip3
I0507 00:24:35.961935 30045 net.cpp:409] ip3_ip3_0_split -> ip3_ip3_0_split_0
I0507 00:24:35.961940 30045 net.cpp:409] ip3_ip3_0_split -> ip3_ip3_0_split_1
I0507 00:24:35.961983 30045 net.cpp:144] Setting up ip3_ip3_0_split
I0507 00:24:35.961990 30045 net.cpp:151] Top shape: 20 50 (1000)
I0507 00:24:35.961994 30045 net.cpp:151] Top shape: 20 50 (1000)
I0507 00:24:35.961998 30045 net.cpp:159] Memory required for data: 2994960
I0507 00:24:35.962002 30045 layer_factory.hpp:77] Creating layer accuracy
I0507 00:24:35.962007 30045 net.cpp:94] Creating Layer accuracy
I0507 00:24:35.962011 30045 net.cpp:435] accuracy <- ip3_ip3_0_split_0
I0507 00:24:35.962015 30045 net.cpp:435] accuracy <- label_intercept_1_split_0
I0507 00:24:35.962019 30045 net.cpp:409] accuracy -> accuracy
…
