…
I0503 17:23:49.704236 21549 net.cpp:323] The NetState phase (0) differed from the phase (1) specified by a rule in layer intercept
I0503 17:23:49.704252 21549 net.cpp:323] The NetState phase (0) differed from the phase (1) specified by a rule in layer accuracy
I0503 17:23:49.704344 21549 net.cpp:52] Initializing net from parameters: 
state {
  phase: TRAIN
}
layer {
  name: "parameters"
  type: "HDF5Data"
  top: "data"
  top: "label"
  include {
    phase: TRAIN
  }
  hdf5_data_param {
    source: "/home/purduethu/scratch/radon/d/deng106/CNNStatisticalModel/distributions/input/50_distributions_900_sample_size_train-distributions-path.txt"
    batch_size: 20
  }
}
layer {
  name: "conv1"
  type: "Convolution"
  bottom: "data"
  top: "conv1"
  param {
    lr_mult: 1
  }
  param {
    lr_mult: 2
  }
  convolution_param {
    num_output: 64
    pad: 2
    kernel_size: 5
    stride: 1
    weight_filler {
      type: "gaussian"
      std: 0.0001
    }
    bias_filler {
      type: "constant"
    }
  }
}
layer {
  name: "relu1"
  type: "ReLU"
  bottom: "conv1"
  top: "conv1"
}
layer {
  name: "conv2"
  type: "Convolution"
  bottom: "conv1"
  top: "conv2"
  param {
    lr_mult: 1
  }
  param {
    lr_mult: 2
  }
  convolution_param {
    num_output: 64
    pad: 2
    kernel_size: 5
    stride: 1
    weight_filler {
      type: "gaussian"
      std: 0.01
    }
    bias_filler {
      type: "constant"
    }
  }
}
layer {
  name: "relu2"
  type: "ReLU"
  bottom: "conv2"
  top: "conv2"
}
layer {
  name: "pool2"
  type: "Pooling"
  bottom: "conv2"
  top: "pool2"
  pooling_param {
    pool: MAX
    kernel_size: 3
    stride: 2
  }
}
layer {
  name: "conv3"
  type: "Convolution"
  bottom: "pool2"
  top: "conv3"
  param {
    lr_mult: 1
  }
  param {
    lr_mult: 2
  }
  convolution_param {
    num_output: 128
    pad: 2
    kernel_size: 5
    stride: 1
    weight_filler {
      type: "gaussian"
      std: 0.01
    }
    bias_filler {
      type: "constant"
    }
  }
}
layer {
  name: "relu3"
  type: "ReLU"
  bottom: "conv3"
  top: "conv3"
}
layer {
  name: "conv4"
  type: "Convolution"
  bottom: "conv3"
  top: "conv4"
  param {
    lr_mult: 1
  }
  param {
    lr_mult: 2
  }
  convolution_param {
    num_output: 128
    pad: 2
    kernel_size: 5
    stride: 1
    weight_filler {
      type: "gaussian"
      std: 0.01
    }
    bias_filler {
      type: "constant"
    }
  }
}
layer {
  name: "relu4"
  type: "ReLU"
  bottom: "conv4"
  top: "conv4"
}
layer {
  name: "conv5"
  type: "Convolution"
  bottom: "conv4"
  top: "conv5"
  param {
    lr_mult: 1
  }
  param {
    lr_mult: 2
  }
  convolution_param {
    num_output: 128
    pad: 2
    kernel_size: 5
    stride: 1
    weight_filler {
      type: "gaussian"
      std: 0.01
    }
    bias_filler {
      type: "constant"
    }
  }
}
layer {
  name: "relu5"
  type: "ReLU"
  bottom: "conv5"
  top: "conv5"
}
layer {
  name: "pool5"
  type: "Pooling"
  bottom: "conv5"
  top: "pool5"
  pooling_param {
    pool: AVE
    kernel_size: 3
    stride: 2
  }
}
layer {
  name: "ip1"
  type: "InnerProduct"
  bottom: "pool5"
  top: "ip1"
  param {
    lr_mult: 1
  }
  param {
    lr_mult: 2
  }
  inner_product_param {
    num_output: 1024
    weight_filler {
      type: "gaussian"
      std: 0.1
    }
    bias_filler {
      type: "constant"
    }
  }
}
layer {
  name: "ip2"
  type: "InnerProduct"
  bottom: "ip1"
  top: "ip2"
  param {
    lr_mult: 1
  }
  param {
    lr_mult: 2
  }
  inner_product_param {
    num_output: 512
    weight_filler {
      type: "gaussian"
      std: 0.1
    }
    bias_filler {
      type: "constant"
    }
  }
}
layer {
  name: "ip3"
  type: "InnerProduct"
  bottom: "ip2"
  top: "ip3"
  param {
    lr_mult: 1
  }
  param {
    lr_mult: 2
  }
  inner_product_param {
    num_output: 50
    weight_filler {
      type: "gaussian"
      std: 0.1
    }
    bias_filler {
      type: "constant"
    }
  }
}
layer {
  name: "loss"
  type: "SoftmaxWithLoss"
  bottom: "ip3"
  bottom: "label"
  top: "loss"
}
I0503 17:23:49.704421 21549 layer_factory.hpp:77] Creating layer parameters
I0503 17:23:49.704434 21549 net.cpp:94] Creating Layer parameters
I0503 17:23:49.704440 21549 net.cpp:409] parameters -> data
I0503 17:23:49.704460 21549 net.cpp:409] parameters -> label
I0503 17:23:49.704470 21549 hdf5_data_layer.cpp:79] Loading list of HDF5 filenames from: /home/purduethu/scratch/radon/d/deng106/CNNStatisticalModel/distributions/input/50_distributions_900_sample_size_train-distributions-path.txt
I0503 17:23:49.704493 21549 hdf5_data_layer.cpp:93] Number of HDF5 files: 1
I0503 17:23:49.704979 21549 hdf5.cpp:32] Datatype class: H5T_FLOAT
I0503 17:23:51.140527 21549 hdf5.cpp:35] Datatype class: H5T_INTEGER
I0503 17:23:51.142949 21549 net.cpp:144] Setting up parameters
I0503 17:23:51.142968 21549 net.cpp:151] Top shape: 20 1 30 30 (18000)
I0503 17:23:51.142973 21549 net.cpp:151] Top shape: 20 (20)
I0503 17:23:51.142977 21549 net.cpp:159] Memory required for data: 72080
I0503 17:23:51.142984 21549 layer_factory.hpp:77] Creating layer conv1
I0503 17:23:51.143008 21549 net.cpp:94] Creating Layer conv1
I0503 17:23:51.143014 21549 net.cpp:435] conv1 <- data
I0503 17:23:51.143025 21549 net.cpp:409] conv1 -> conv1
I0503 17:23:51.148808 21549 net.cpp:144] Setting up conv1
I0503 17:23:51.148824 21549 net.cpp:151] Top shape: 20 64 30 30 (1152000)
I0503 17:23:51.148828 21549 net.cpp:159] Memory required for data: 4680080
I0503 17:23:51.148840 21549 layer_factory.hpp:77] Creating layer relu1
I0503 17:23:51.148849 21549 net.cpp:94] Creating Layer relu1
I0503 17:23:51.148852 21549 net.cpp:435] relu1 <- conv1
I0503 17:23:51.148857 21549 net.cpp:396] relu1 -> conv1 (in-place)
I0503 17:23:51.148874 21549 net.cpp:144] Setting up relu1
I0503 17:23:51.148880 21549 net.cpp:151] Top shape: 20 64 30 30 (1152000)
I0503 17:23:51.148882 21549 net.cpp:159] Memory required for data: 9288080
I0503 17:23:51.148886 21549 layer_factory.hpp:77] Creating layer conv2
I0503 17:23:51.148893 21549 net.cpp:94] Creating Layer conv2
I0503 17:23:51.148897 21549 net.cpp:435] conv2 <- conv1
I0503 17:23:51.148902 21549 net.cpp:409] conv2 -> conv2
I0503 17:23:51.164257 21549 net.cpp:144] Setting up conv2
I0503 17:23:51.164296 21549 net.cpp:151] Top shape: 20 64 30 30 (1152000)
I0503 17:23:51.164309 21549 net.cpp:159] Memory required for data: 13896080
I0503 17:23:51.164331 21549 layer_factory.hpp:77] Creating layer relu2
I0503 17:23:51.164350 21549 net.cpp:94] Creating Layer relu2
I0503 17:23:51.164361 21549 net.cpp:435] relu2 <- conv2
I0503 17:23:51.164374 21549 net.cpp:396] relu2 -> conv2 (in-place)
I0503 17:23:51.164394 21549 net.cpp:144] Setting up relu2
I0503 17:23:51.164407 21549 net.cpp:151] Top shape: 20 64 30 30 (1152000)
I0503 17:23:51.164417 21549 net.cpp:159] Memory required for data: 18504080
I0503 17:23:51.164425 21549 layer_factory.hpp:77] Creating layer pool2
I0503 17:23:51.164454 21549 net.cpp:94] Creating Layer pool2
I0503 17:23:51.164466 21549 net.cpp:435] pool2 <- conv2
I0503 17:23:51.164480 21549 net.cpp:409] pool2 -> pool2
I0503 17:23:51.164616 21549 net.cpp:144] Setting up pool2
I0503 17:23:51.164639 21549 net.cpp:151] Top shape: 20 64 15 15 (288000)
I0503 17:23:51.164649 21549 net.cpp:159] Memory required for data: 19656080
I0503 17:23:51.164659 21549 layer_factory.hpp:77] Creating layer conv3
I0503 17:23:51.164688 21549 net.cpp:94] Creating Layer conv3
I0503 17:23:51.164692 21549 net.cpp:435] conv3 <- pool2
I0503 17:23:51.164705 21549 net.cpp:409] conv3 -> conv3
I0503 17:23:51.177489 21549 net.cpp:144] Setting up conv3
I0503 17:23:51.177528 21549 net.cpp:151] Top shape: 20 128 15 15 (576000)
I0503 17:23:51.177541 21549 net.cpp:159] Memory required for data: 21960080
I0503 17:23:51.177563 21549 layer_factory.hpp:77] Creating layer relu3
I0503 17:23:51.177580 21549 net.cpp:94] Creating Layer relu3
I0503 17:23:51.177592 21549 net.cpp:435] relu3 <- conv3
I0503 17:23:51.177604 21549 net.cpp:396] relu3 -> conv3 (in-place)
I0503 17:23:51.177624 21549 net.cpp:144] Setting up relu3
I0503 17:23:51.177637 21549 net.cpp:151] Top shape: 20 128 15 15 (576000)
I0503 17:23:51.177646 21549 net.cpp:159] Memory required for data: 24264080
I0503 17:23:51.177655 21549 layer_factory.hpp:77] Creating layer conv4
I0503 17:23:51.177678 21549 net.cpp:94] Creating Layer conv4
I0503 17:23:51.177688 21549 net.cpp:435] conv4 <- conv3
I0503 17:23:51.177702 21549 net.cpp:409] conv4 -> conv4
I0503 17:23:51.200316 21549 net.cpp:144] Setting up conv4
I0503 17:23:51.200356 21549 net.cpp:151] Top shape: 20 128 15 15 (576000)
I0503 17:23:51.200368 21549 net.cpp:159] Memory required for data: 26568080
I0503 17:23:51.200387 21549 layer_factory.hpp:77] Creating layer relu4
I0503 17:23:51.200402 21549 net.cpp:94] Creating Layer relu4
I0503 17:23:51.200413 21549 net.cpp:435] relu4 <- conv4
I0503 17:23:51.200426 21549 net.cpp:396] relu4 -> conv4 (in-place)
I0503 17:23:51.200446 21549 net.cpp:144] Setting up relu4
I0503 17:23:51.200459 21549 net.cpp:151] Top shape: 20 128 15 15 (576000)
I0503 17:23:51.200469 21549 net.cpp:159] Memory required for data: 28872080
I0503 17:23:51.200477 21549 layer_factory.hpp:77] Creating layer conv5
I0503 17:23:51.200497 21549 net.cpp:94] Creating Layer conv5
I0503 17:23:51.200507 21549 net.cpp:435] conv5 <- conv4
I0503 17:23:51.200521 21549 net.cpp:409] conv5 -> conv5
I0503 17:23:51.223103 21549 net.cpp:144] Setting up conv5
I0503 17:23:51.223142 21549 net.cpp:151] Top shape: 20 128 15 15 (576000)
I0503 17:23:51.223155 21549 net.cpp:159] Memory required for data: 31176080
I0503 17:23:51.223177 21549 layer_factory.hpp:77] Creating layer relu5
I0503 17:23:51.223193 21549 net.cpp:94] Creating Layer relu5
I0503 17:23:51.223204 21549 net.cpp:435] relu5 <- conv5
I0503 17:23:51.223217 21549 net.cpp:396] relu5 -> conv5 (in-place)
I0503 17:23:51.223237 21549 net.cpp:144] Setting up relu5
I0503 17:23:51.223250 21549 net.cpp:151] Top shape: 20 128 15 15 (576000)
I0503 17:23:51.223260 21549 net.cpp:159] Memory required for data: 33480080
I0503 17:23:51.223269 21549 layer_factory.hpp:77] Creating layer pool5
I0503 17:23:51.223282 21549 net.cpp:94] Creating Layer pool5
I0503 17:23:51.223292 21549 net.cpp:435] pool5 <- conv5
I0503 17:23:51.223309 21549 net.cpp:409] pool5 -> pool5
I0503 17:23:51.223392 21549 net.cpp:144] Setting up pool5
I0503 17:23:51.223410 21549 net.cpp:151] Top shape: 20 128 7 7 (125440)
I0503 17:23:51.223420 21549 net.cpp:159] Memory required for data: 33981840
I0503 17:23:51.223429 21549 layer_factory.hpp:77] Creating layer ip1
I0503 17:23:51.223453 21549 net.cpp:94] Creating Layer ip1
I0503 17:23:51.223464 21549 net.cpp:435] ip1 <- pool5
I0503 17:23:51.223477 21549 net.cpp:409] ip1 -> ip1
I0503 17:23:51.382921 21549 net.cpp:144] Setting up ip1
I0503 17:23:51.382956 21549 net.cpp:151] Top shape: 20 1024 (20480)
I0503 17:23:51.382961 21549 net.cpp:159] Memory required for data: 34063760
I0503 17:23:51.382968 21549 layer_factory.hpp:77] Creating layer ip2
I0503 17:23:51.382988 21549 net.cpp:94] Creating Layer ip2
I0503 17:23:51.382994 21549 net.cpp:435] ip2 <- ip1
I0503 17:23:51.383000 21549 net.cpp:409] ip2 -> ip2
I0503 17:23:51.395923 21549 net.cpp:144] Setting up ip2
I0503 17:23:51.395936 21549 net.cpp:151] Top shape: 20 512 (10240)
I0503 17:23:51.395941 21549 net.cpp:159] Memory required for data: 34104720
I0503 17:23:51.395946 21549 layer_factory.hpp:77] Creating layer ip3
I0503 17:23:51.395953 21549 net.cpp:94] Creating Layer ip3
I0503 17:23:51.395956 21549 net.cpp:435] ip3 <- ip2
I0503 17:23:51.395962 21549 net.cpp:409] ip3 -> ip3
I0503 17:23:51.397294 21549 net.cpp:144] Setting up ip3
I0503 17:23:51.397307 21549 net.cpp:151] Top shape: 20 50 (1000)
I0503 17:23:51.397311 21549 net.cpp:159] Memory required for data: 34108720
I0503 17:23:51.397317 21549 layer_factory.hpp:77] Creating layer loss
I0503 17:23:51.397325 21549 net.cpp:94] Creating Layer loss
I0503 17:23:51.397330 21549 net.cpp:435] loss <- ip3
I0503 17:23:51.397333 21549 net.cpp:435] loss <- label
I0503 17:23:51.397339 21549 net.cpp:409] loss -> loss
I0503 17:23:51.397351 21549 layer_factory.hpp:77] Creating layer loss
…
I0503 17:23:51.397843 21549 solver.cpp:181] Creating test net (#0) specified by net file: ./protocol/dis_50_900_dimension.protocol_distribution
I0503 17:23:51.397871 21549 net.cpp:323] The NetState phase (1) differed from the phase (0) specified by a rule in layer parameters
I0503 17:23:51.397967 21549 net.cpp:52] Initializing net from parameters: 
state {
  phase: TEST
}
layer {
  name: "intercept"
  type: "HDF5Data"
  top: "data"
  top: "label"
  include {
    phase: TEST
  }
  hdf5_data_param {
    source: "/home/purduethu/scratch/radon/d/deng106/CNNStatisticalModel/distributions/input/50_distributions_900_sample_size_test-distributions-path.txt"
    batch_size: 20
  }
}
layer {
  name: "conv1"
  type: "Convolution"
  bottom: "data"
  top: "conv1"
  param {
    lr_mult: 1
  }
  param {
    lr_mult: 2
  }
  convolution_param {
    num_output: 64
    pad: 2
    kernel_size: 5
    stride: 1
    weight_filler {
      type: "gaussian"
      std: 0.0001
    }
    bias_filler {
      type: "constant"
    }
  }
}
layer {
  name: "relu1"
  type: "ReLU"
  bottom: "conv1"
  top: "conv1"
}
layer {
  name: "conv2"
  type: "Convolution"
  bottom: "conv1"
  top: "conv2"
  param {
    lr_mult: 1
  }
  param {
    lr_mult: 2
  }
  convolution_param {
    num_output: 64
    pad: 2
    kernel_size: 5
    stride: 1
    weight_filler {
      type: "gaussian"
      std: 0.01
    }
    bias_filler {
      type: "constant"
    }
  }
}
layer {
  name: "relu2"
  type: "ReLU"
  bottom: "conv2"
  top: "conv2"
}
layer {
  name: "pool2"
  type: "Pooling"
  bottom: "conv2"
  top: "pool2"
  pooling_param {
    pool: MAX
    kernel_size: 3
    stride: 2
  }
}
layer {
  name: "conv3"
  type: "Convolution"
  bottom: "pool2"
  top: "conv3"
  param {
    lr_mult: 1
  }
  param {
    lr_mult: 2
  }
  convolution_param {
    num_output: 128
    pad: 2
    kernel_size: 5
    stride: 1
    weight_filler {
      type: "gaussian"
      std: 0.01
    }
    bias_filler {
      type: "constant"
    }
  }
}
layer {
  name: "relu3"
  type: "ReLU"
  bottom: "conv3"
  top: "conv3"
}
layer {
  name: "conv4"
  type: "Convolution"
  bottom: "conv3"
  top: "conv4"
  param {
    lr_mult: 1
  }
  param {
    lr_mult: 2
  }
  convolution_param {
    num_output: 128
    pad: 2
    kernel_size: 5
    stride: 1
    weight_filler {
      type: "gaussian"
      std: 0.01
    }
    bias_filler {
      type: "constant"
    }
  }
}
layer {
  name: "relu4"
  type: "ReLU"
  bottom: "conv4"
  top: "conv4"
}
layer {
  name: "conv5"
  type: "Convolution"
  bottom: "conv4"
  top: "conv5"
  param {
    lr_mult: 1
  }
  param {
    lr_mult: 2
  }
  convolution_param {
    num_output: 128
    pad: 2
    kernel_size: 5
    stride: 1
    weight_filler {
      type: "gaussian"
      std: 0.01
    }
    bias_filler {
      type: "constant"
    }
  }
}
layer {
  name: "relu5"
  type: "ReLU"
  bottom: "conv5"
  top: "conv5"
}
layer {
  name: "pool5"
  type: "Pooling"
  bottom: "conv5"
  top: "pool5"
  pooling_param {
    pool: AVE
    kernel_size: 3
    stride: 2
  }
}
layer {
  name: "ip1"
  type: "InnerProduct"
  bottom: "pool5"
  top: "ip1"
  param {
    lr_mult: 1
  }
  param {
    lr_mult: 2
  }
  inner_product_param {
    num_output: 1024
    weight_filler {
      type: "gaussian"
      std: 0.1
    }
    bias_filler {
      type: "constant"
    }
  }
}
layer {
  name: "ip2"
  type: "InnerProduct"
  bottom: "ip1"
  top: "ip2"
  param {
    lr_mult: 1
  }
  param {
    lr_mult: 2
  }
  inner_product_param {
    num_output: 512
    weight_filler {
      type: "gaussian"
      std: 0.1
    }
    bias_filler {
      type: "constant"
    }
  }
}
layer {
  name: "ip3"
  type: "InnerProduct"
  bottom: "ip2"
  top: "ip3"
  param {
    lr_mult: 1
  }
  param {
    lr_mult: 2
  }
  inner_product_param {
    num_output: 50
    weight_filler {
      type: "gaussian"
      std: 0.1
    }
    bias_filler {
      type: "constant"
    }
  }
}
layer {
  name: "accuracy"
  type: "Accuracy"
  bottom: "ip3"
  bottom: "label"
  top: "accuracy"
  include {
    phase: TEST
  }
}
layer {
  name: "loss"
  type: "SoftmaxWithLoss"
  bottom: "ip3"
  bottom: "label"
  top: "loss"
}
I0503 17:23:51.398039 21549 layer_factory.hpp:77] Creating layer intercept
I0503 17:23:51.398048 21549 net.cpp:94] Creating Layer intercept
I0503 17:23:51.398052 21549 net.cpp:409] intercept -> data
I0503 17:23:51.398059 21549 net.cpp:409] intercept -> label
I0503 17:23:51.398066 21549 hdf5_data_layer.cpp:79] Loading list of HDF5 filenames from: /home/purduethu/scratch/radon/d/deng106/CNNStatisticalModel/distributions/input/50_distributions_900_sample_size_test-distributions-path.txt
I0503 17:23:51.398085 21549 hdf5_data_layer.cpp:93] Number of HDF5 files: 1
I0503 17:23:51.760654 21549 net.cpp:144] Setting up intercept
I0503 17:23:51.760691 21549 net.cpp:151] Top shape: 20 1 30 30 (18000)
I0503 17:23:51.760697 21549 net.cpp:151] Top shape: 20 (20)
I0503 17:23:51.760701 21549 net.cpp:159] Memory required for data: 72080
I0503 17:23:51.760707 21549 layer_factory.hpp:77] Creating layer label_intercept_1_split
I0503 17:23:51.760727 21549 net.cpp:94] Creating Layer label_intercept_1_split
I0503 17:23:51.760732 21549 net.cpp:435] label_intercept_1_split <- label
I0503 17:23:51.760738 21549 net.cpp:409] label_intercept_1_split -> label_intercept_1_split_0
I0503 17:23:51.760756 21549 net.cpp:409] label_intercept_1_split -> label_intercept_1_split_1
I0503 17:23:51.760783 21549 net.cpp:144] Setting up label_intercept_1_split
I0503 17:23:51.760789 21549 net.cpp:151] Top shape: 20 (20)
I0503 17:23:51.760793 21549 net.cpp:151] Top shape: 20 (20)
I0503 17:23:51.760797 21549 net.cpp:159] Memory required for data: 72240
I0503 17:23:51.760799 21549 layer_factory.hpp:77] Creating layer conv1
I0503 17:23:51.760810 21549 net.cpp:94] Creating Layer conv1
I0503 17:23:51.760814 21549 net.cpp:435] conv1 <- data
I0503 17:23:51.760819 21549 net.cpp:409] conv1 -> conv1
I0503 17:23:51.762164 21549 net.cpp:144] Setting up conv1
I0503 17:23:51.762178 21549 net.cpp:151] Top shape: 20 64 30 30 (1152000)
I0503 17:23:51.762182 21549 net.cpp:159] Memory required for data: 4680240
I0503 17:23:51.762192 21549 layer_factory.hpp:77] Creating layer relu1
I0503 17:23:51.762199 21549 net.cpp:94] Creating Layer relu1
I0503 17:23:51.762203 21549 net.cpp:435] relu1 <- conv1
I0503 17:23:51.762207 21549 net.cpp:396] relu1 -> conv1 (in-place)
I0503 17:23:51.762215 21549 net.cpp:144] Setting up relu1
I0503 17:23:51.762220 21549 net.cpp:151] Top shape: 20 64 30 30 (1152000)
I0503 17:23:51.762223 21549 net.cpp:159] Memory required for data: 9288240
I0503 17:23:51.762226 21549 layer_factory.hpp:77] Creating layer conv2
I0503 17:23:51.762235 21549 net.cpp:94] Creating Layer conv2
I0503 17:23:51.762238 21549 net.cpp:435] conv2 <- conv1
I0503 17:23:51.762243 21549 net.cpp:409] conv2 -> conv2
I0503 17:23:51.768908 21549 net.cpp:144] Setting up conv2
I0503 17:23:51.768924 21549 net.cpp:151] Top shape: 20 64 30 30 (1152000)
I0503 17:23:51.768929 21549 net.cpp:159] Memory required for data: 13896240
I0503 17:23:51.768936 21549 layer_factory.hpp:77] Creating layer relu2
I0503 17:23:51.768944 21549 net.cpp:94] Creating Layer relu2
I0503 17:23:51.768946 21549 net.cpp:435] relu2 <- conv2
I0503 17:23:51.768951 21549 net.cpp:396] relu2 -> conv2 (in-place)
I0503 17:23:51.768959 21549 net.cpp:144] Setting up relu2
I0503 17:23:51.768963 21549 net.cpp:151] Top shape: 20 64 30 30 (1152000)
I0503 17:23:51.768966 21549 net.cpp:159] Memory required for data: 18504240
I0503 17:23:51.768970 21549 layer_factory.hpp:77] Creating layer pool2
I0503 17:23:51.768976 21549 net.cpp:94] Creating Layer pool2
I0503 17:23:51.768980 21549 net.cpp:435] pool2 <- conv2
I0503 17:23:51.768985 21549 net.cpp:409] pool2 -> pool2
I0503 17:23:51.769019 21549 net.cpp:144] Setting up pool2
I0503 17:23:51.769026 21549 net.cpp:151] Top shape: 20 64 15 15 (288000)
I0503 17:23:51.769029 21549 net.cpp:159] Memory required for data: 19656240
I0503 17:23:51.769032 21549 layer_factory.hpp:77] Creating layer conv3
I0503 17:23:51.769040 21549 net.cpp:94] Creating Layer conv3
I0503 17:23:51.769044 21549 net.cpp:435] conv3 <- pool2
I0503 17:23:51.769049 21549 net.cpp:409] conv3 -> conv3
I0503 17:23:51.776432 21549 net.cpp:144] Setting up conv3
I0503 17:23:51.776473 21549 net.cpp:151] Top shape: 20 128 15 15 (576000)
I0503 17:23:51.776484 21549 net.cpp:159] Memory required for data: 21960240
I0503 17:23:51.776507 21549 layer_factory.hpp:77] Creating layer relu3
I0503 17:23:51.776525 21549 net.cpp:94] Creating Layer relu3
I0503 17:23:51.776537 21549 net.cpp:435] relu3 <- conv3
I0503 17:23:51.776568 21549 net.cpp:396] relu3 -> conv3 (in-place)
I0503 17:23:51.776592 21549 net.cpp:144] Setting up relu3
I0503 17:23:51.776605 21549 net.cpp:151] Top shape: 20 128 15 15 (576000)
I0503 17:23:51.776615 21549 net.cpp:159] Memory required for data: 24264240
I0503 17:23:51.776624 21549 layer_factory.hpp:77] Creating layer conv4
I0503 17:23:51.776645 21549 net.cpp:94] Creating Layer conv4
I0503 17:23:51.776655 21549 net.cpp:435] conv4 <- conv3
I0503 17:23:51.776669 21549 net.cpp:409] conv4 -> conv4
I0503 17:23:51.791677 21549 net.cpp:144] Setting up conv4
I0503 17:23:51.791693 21549 net.cpp:151] Top shape: 20 128 15 15 (576000)
I0503 17:23:51.791697 21549 net.cpp:159] Memory required for data: 26568240
I0503 17:23:51.791703 21549 layer_factory.hpp:77] Creating layer relu4
I0503 17:23:51.791709 21549 net.cpp:94] Creating Layer relu4
I0503 17:23:51.791718 21549 net.cpp:435] relu4 <- conv4
I0503 17:23:51.791723 21549 net.cpp:396] relu4 -> conv4 (in-place)
I0503 17:23:51.791730 21549 net.cpp:144] Setting up relu4
I0503 17:23:51.791735 21549 net.cpp:151] Top shape: 20 128 15 15 (576000)
I0503 17:23:51.791738 21549 net.cpp:159] Memory required for data: 28872240
I0503 17:23:51.791741 21549 layer_factory.hpp:77] Creating layer conv5
I0503 17:23:51.791749 21549 net.cpp:94] Creating Layer conv5
I0503 17:23:51.791754 21549 net.cpp:435] conv5 <- conv4
I0503 17:23:51.791759 21549 net.cpp:409] conv5 -> conv5
I0503 17:23:51.806447 21549 net.cpp:144] Setting up conv5
I0503 17:23:51.806486 21549 net.cpp:151] Top shape: 20 128 15 15 (576000)
I0503 17:23:51.806499 21549 net.cpp:159] Memory required for data: 31176240
I0503 17:23:51.806522 21549 layer_factory.hpp:77] Creating layer relu5
I0503 17:23:51.806538 21549 net.cpp:94] Creating Layer relu5
I0503 17:23:51.806550 21549 net.cpp:435] relu5 <- conv5
I0503 17:23:51.806562 21549 net.cpp:396] relu5 -> conv5 (in-place)
I0503 17:23:51.806582 21549 net.cpp:144] Setting up relu5
I0503 17:23:51.806596 21549 net.cpp:151] Top shape: 20 128 15 15 (576000)
I0503 17:23:51.806604 21549 net.cpp:159] Memory required for data: 33480240
I0503 17:23:51.806614 21549 layer_factory.hpp:77] Creating layer pool5
I0503 17:23:51.806627 21549 net.cpp:94] Creating Layer pool5
I0503 17:23:51.806637 21549 net.cpp:435] pool5 <- conv5
I0503 17:23:51.806649 21549 net.cpp:409] pool5 -> pool5
I0503 17:23:51.806700 21549 net.cpp:144] Setting up pool5
I0503 17:23:51.806707 21549 net.cpp:151] Top shape: 20 128 7 7 (125440)
I0503 17:23:51.806710 21549 net.cpp:159] Memory required for data: 33982000
I0503 17:23:51.806713 21549 layer_factory.hpp:77] Creating layer ip1
I0503 17:23:51.806720 21549 net.cpp:94] Creating Layer ip1
I0503 17:23:51.806725 21549 net.cpp:435] ip1 <- pool5
I0503 17:23:51.806730 21549 net.cpp:409] ip1 -> ip1
I0503 17:23:51.961344 21549 net.cpp:144] Setting up ip1
I0503 17:23:51.961377 21549 net.cpp:151] Top shape: 20 1024 (20480)
I0503 17:23:51.961382 21549 net.cpp:159] Memory required for data: 34063920
I0503 17:23:51.961390 21549 layer_factory.hpp:77] Creating layer ip2
I0503 17:23:51.961400 21549 net.cpp:94] Creating Layer ip2
I0503 17:23:51.961405 21549 net.cpp:435] ip2 <- ip1
I0503 17:23:51.961412 21549 net.cpp:409] ip2 -> ip2
I0503 17:23:51.974354 21549 net.cpp:144] Setting up ip2
I0503 17:23:51.974366 21549 net.cpp:151] Top shape: 20 512 (10240)
I0503 17:23:51.974370 21549 net.cpp:159] Memory required for data: 34104880
I0503 17:23:51.974376 21549 layer_factory.hpp:77] Creating layer ip3
I0503 17:23:51.974385 21549 net.cpp:94] Creating Layer ip3
I0503 17:23:51.974390 21549 net.cpp:435] ip3 <- ip2
I0503 17:23:51.974395 21549 net.cpp:409] ip3 -> ip3
I0503 17:23:51.975065 21549 net.cpp:144] Setting up ip3
I0503 17:23:51.975072 21549 net.cpp:151] Top shape: 20 50 (1000)
I0503 17:23:51.975075 21549 net.cpp:159] Memory required for data: 34108880
I0503 17:23:51.975080 21549 layer_factory.hpp:77] Creating layer ip3_ip3_0_split
I0503 17:23:51.975086 21549 net.cpp:94] Creating Layer ip3_ip3_0_split
I0503 17:23:51.975090 21549 net.cpp:435] ip3_ip3_0_split <- ip3
I0503 17:23:51.975095 21549 net.cpp:409] ip3_ip3_0_split -> ip3_ip3_0_split_0
I0503 17:23:51.975100 21549 net.cpp:409] ip3_ip3_0_split -> ip3_ip3_0_split_1
I0503 17:23:51.975126 21549 net.cpp:144] Setting up ip3_ip3_0_split
I0503 17:23:51.975131 21549 net.cpp:151] Top shape: 20 50 (1000)
I0503 17:23:51.975134 21549 net.cpp:151] Top shape: 20 50 (1000)
I0503 17:23:51.975137 21549 net.cpp:159] Memory required for data: 34116880
I0503 17:23:51.975141 21549 layer_factory.hpp:77] Creating layer accuracy
I0503 17:23:51.975147 21549 net.cpp:94] Creating Layer accuracy
I0503 17:23:51.975149 21549 net.cpp:435] accuracy <- ip3_ip3_0_split_0
I0503 17:23:51.975154 21549 net.cpp:435] accuracy <- label_intercept_1_split_0
I0503 17:23:51.975158 21549 net.cpp:409] accuracy -> accuracy
…
