…
I0503 16:50:26.816054 21439 net.cpp:323] The NetState phase (0) differed from the phase (1) specified by a rule in layer intercept
I0503 16:50:26.816081 21439 net.cpp:323] The NetState phase (0) differed from the phase (1) specified by a rule in layer accuracy
I0503 16:50:26.816234 21439 net.cpp:52] Initializing net from parameters: 
state {
  phase: TRAIN
}
layer {
  name: "parameters"
  type: "HDF5Data"
  top: "data"
  top: "label"
  include {
    phase: TRAIN
  }
  hdf5_data_param {
    source: "/home/purduethu/scratch/radon/d/deng106/CNNStatisticalModel/distributions/input/5_distributions_400_sample_size_train-distributions-path.txt"
    batch_size: 20
  }
}
layer {
  name: "conv1"
  type: "Convolution"
  bottom: "data"
  top: "conv1"
  param {
    lr_mult: 1
  }
  param {
    lr_mult: 2
  }
  convolution_param {
    num_output: 64
    pad: 2
    kernel_size: 5
    stride: 1
    weight_filler {
      type: "gaussian"
      std: 0.0001
    }
    bias_filler {
      type: "constant"
    }
  }
}
layer {
  name: "relu1"
  type: "ReLU"
  bottom: "conv1"
  top: "conv1"
}
layer {
  name: "conv2"
  type: "Convolution"
  bottom: "conv1"
  top: "conv2"
  param {
    lr_mult: 1
  }
  param {
    lr_mult: 2
  }
  convolution_param {
    num_output: 64
    pad: 2
    kernel_size: 5
    stride: 1
    weight_filler {
      type: "gaussian"
      std: 0.01
    }
    bias_filler {
      type: "constant"
    }
  }
}
layer {
  name: "relu2"
  type: "ReLU"
  bottom: "conv2"
  top: "conv2"
}
layer {
  name: "pool2"
  type: "Pooling"
  bottom: "conv2"
  top: "pool2"
  pooling_param {
    pool: MAX
    kernel_size: 3
    stride: 2
  }
}
layer {
  name: "conv3"
  type: "Convolution"
  bottom: "pool2"
  top: "conv3"
  param {
    lr_mult: 1
  }
  param {
    lr_mult: 2
  }
  convolution_param {
    num_output: 128
    pad: 2
    kernel_size: 5
    stride: 1
    weight_filler {
      type: "gaussian"
      std: 0.01
    }
    bias_filler {
      type: "constant"
    }
  }
}
layer {
  name: "relu3"
  type: "ReLU"
  bottom: "conv3"
  top: "conv3"
}
layer {
  name: "conv4"
  type: "Convolution"
  bottom: "conv3"
  top: "conv4"
  param {
    lr_mult: 1
  }
  param {
    lr_mult: 2
  }
  convolution_param {
    num_output: 128
    pad: 2
    kernel_size: 5
    stride: 1
    weight_filler {
      type: "gaussian"
      std: 0.01
    }
    bias_filler {
      type: "constant"
    }
  }
}
layer {
  name: "relu4"
  type: "ReLU"
  bottom: "conv4"
  top: "conv4"
}
layer {
  name: "conv5"
  type: "Convolution"
  bottom: "conv4"
  top: "conv5"
  param {
    lr_mult: 1
  }
  param {
    lr_mult: 2
  }
  convolution_param {
    num_output: 128
    pad: 2
    kernel_size: 5
    stride: 1
    weight_filler {
      type: "gaussian"
      std: 0.01
    }
    bias_filler {
      type: "constant"
    }
  }
}
layer {
  name: "relu5"
  type: "ReLU"
  bottom: "conv5"
  top: "conv5"
}
layer {
  name: "pool5"
  type: "Pooling"
  bottom: "conv5"
  top: "pool5"
  pooling_param {
    pool: AVE
    kernel_size: 3
    stride: 2
  }
}
layer {
  name: "ip1"
  type: "InnerProduct"
  bottom: "pool5"
  top: "ip1"
  param {
    lr_mult: 1
  }
  param {
    lr_mult: 2
  }
  inner_product_param {
    num_output: 1024
    weight_filler {
      type: "gaussian"
      std: 0.1
    }
    bias_filler {
      type: "constant"
    }
  }
}
layer {
  name: "ip2"
  type: "InnerProduct"
  bottom: "ip1"
  top: "ip2"
  param {
    lr_mult: 1
  }
  param {
    lr_mult: 2
  }
  inner_product_param {
    num_output: 512
    weight_filler {
      type: "gaussian"
      std: 0.1
    }
    bias_filler {
      type: "constant"
    }
  }
}
layer {
  name: "ip3"
  type: "InnerProduct"
  bottom: "ip2"
  top: "ip3"
  param {
    lr_mult: 1
  }
  param {
    lr_mult: 2
  }
  inner_product_param {
    num_output: 50
    weight_filler {
      type: "gaussian"
      std: 0.1
    }
    bias_filler {
      type: "constant"
    }
  }
}
layer {
  name: "loss"
  type: "SoftmaxWithLoss"
  bottom: "ip3"
  bottom: "label"
  top: "loss"
}
I0503 16:50:26.816349 21439 layer_factory.hpp:77] Creating layer parameters
I0503 16:50:26.816371 21439 net.cpp:94] Creating Layer parameters
I0503 16:50:26.816380 21439 net.cpp:409] parameters -> data
I0503 16:50:26.816409 21439 net.cpp:409] parameters -> label
I0503 16:50:26.816426 21439 hdf5_data_layer.cpp:79] Loading list of HDF5 filenames from: /home/purduethu/scratch/radon/d/deng106/CNNStatisticalModel/distributions/input/5_distributions_400_sample_size_train-distributions-path.txt
I0503 16:50:26.816457 21439 hdf5_data_layer.cpp:93] Number of HDF5 files: 1
I0503 16:50:26.817575 21439 hdf5.cpp:32] Datatype class: H5T_FLOAT
I0503 16:50:26.927121 21439 hdf5.cpp:35] Datatype class: H5T_INTEGER
I0503 16:50:26.928721 21439 net.cpp:144] Setting up parameters
I0503 16:50:26.928748 21439 net.cpp:151] Top shape: 20 1 20 20 (8000)
I0503 16:50:26.928757 21439 net.cpp:151] Top shape: 20 (20)
I0503 16:50:26.928763 21439 net.cpp:159] Memory required for data: 32080
I0503 16:50:26.928773 21439 layer_factory.hpp:77] Creating layer conv1
I0503 16:50:26.928799 21439 net.cpp:94] Creating Layer conv1
I0503 16:50:26.928807 21439 net.cpp:435] conv1 <- data
I0503 16:50:26.928822 21439 net.cpp:409] conv1 -> conv1
I0503 16:50:26.935477 21439 net.cpp:144] Setting up conv1
I0503 16:50:26.935501 21439 net.cpp:151] Top shape: 20 64 20 20 (512000)
I0503 16:50:26.935508 21439 net.cpp:159] Memory required for data: 2080080
I0503 16:50:26.935525 21439 layer_factory.hpp:77] Creating layer relu1
I0503 16:50:26.935536 21439 net.cpp:94] Creating Layer relu1
I0503 16:50:26.935544 21439 net.cpp:435] relu1 <- conv1
I0503 16:50:26.935550 21439 net.cpp:396] relu1 -> conv1 (in-place)
I0503 16:50:26.935567 21439 net.cpp:144] Setting up relu1
I0503 16:50:26.935575 21439 net.cpp:151] Top shape: 20 64 20 20 (512000)
I0503 16:50:26.935581 21439 net.cpp:159] Memory required for data: 4128080
I0503 16:50:26.935586 21439 layer_factory.hpp:77] Creating layer conv2
I0503 16:50:26.935598 21439 net.cpp:94] Creating Layer conv2
I0503 16:50:26.935605 21439 net.cpp:435] conv2 <- conv1
I0503 16:50:26.935612 21439 net.cpp:409] conv2 -> conv2
I0503 16:50:26.948382 21439 net.cpp:144] Setting up conv2
I0503 16:50:26.948405 21439 net.cpp:151] Top shape: 20 64 20 20 (512000)
I0503 16:50:26.948412 21439 net.cpp:159] Memory required for data: 6176080
I0503 16:50:26.948424 21439 layer_factory.hpp:77] Creating layer relu2
I0503 16:50:26.948436 21439 net.cpp:94] Creating Layer relu2
I0503 16:50:26.948441 21439 net.cpp:435] relu2 <- conv2
I0503 16:50:26.948448 21439 net.cpp:396] relu2 -> conv2 (in-place)
I0503 16:50:26.948459 21439 net.cpp:144] Setting up relu2
I0503 16:50:26.948467 21439 net.cpp:151] Top shape: 20 64 20 20 (512000)
I0503 16:50:26.948472 21439 net.cpp:159] Memory required for data: 8224080
I0503 16:50:26.948477 21439 layer_factory.hpp:77] Creating layer pool2
I0503 16:50:26.948495 21439 net.cpp:94] Creating Layer pool2
I0503 16:50:26.948501 21439 net.cpp:435] pool2 <- conv2
I0503 16:50:26.948509 21439 net.cpp:409] pool2 -> pool2
I0503 16:50:26.948585 21439 net.cpp:144] Setting up pool2
I0503 16:50:26.948598 21439 net.cpp:151] Top shape: 20 64 10 10 (128000)
I0503 16:50:26.948603 21439 net.cpp:159] Memory required for data: 8736080
I0503 16:50:26.948608 21439 layer_factory.hpp:77] Creating layer conv3
I0503 16:50:26.948621 21439 net.cpp:94] Creating Layer conv3
I0503 16:50:26.948626 21439 net.cpp:435] conv3 <- pool2
I0503 16:50:26.948645 21439 net.cpp:409] conv3 -> conv3
I0503 16:50:26.961359 21439 net.cpp:144] Setting up conv3
I0503 16:50:26.961380 21439 net.cpp:151] Top shape: 20 128 10 10 (256000)
I0503 16:50:26.961386 21439 net.cpp:159] Memory required for data: 9760080
I0503 16:50:26.961398 21439 layer_factory.hpp:77] Creating layer relu3
I0503 16:50:26.961407 21439 net.cpp:94] Creating Layer relu3
I0503 16:50:26.961412 21439 net.cpp:435] relu3 <- conv3
I0503 16:50:26.961421 21439 net.cpp:396] relu3 -> conv3 (in-place)
I0503 16:50:26.961431 21439 net.cpp:144] Setting up relu3
I0503 16:50:26.961437 21439 net.cpp:151] Top shape: 20 128 10 10 (256000)
I0503 16:50:26.961442 21439 net.cpp:159] Memory required for data: 10784080
I0503 16:50:26.961447 21439 layer_factory.hpp:77] Creating layer conv4
I0503 16:50:26.961459 21439 net.cpp:94] Creating Layer conv4
I0503 16:50:26.961465 21439 net.cpp:435] conv4 <- conv3
I0503 16:50:26.961472 21439 net.cpp:409] conv4 -> conv4
I0503 16:50:26.984869 21439 net.cpp:144] Setting up conv4
I0503 16:50:26.984890 21439 net.cpp:151] Top shape: 20 128 10 10 (256000)
I0503 16:50:26.984896 21439 net.cpp:159] Memory required for data: 11808080
I0503 16:50:26.984905 21439 layer_factory.hpp:77] Creating layer relu4
I0503 16:50:26.984915 21439 net.cpp:94] Creating Layer relu4
I0503 16:50:26.984920 21439 net.cpp:435] relu4 <- conv4
I0503 16:50:26.984926 21439 net.cpp:396] relu4 -> conv4 (in-place)
I0503 16:50:26.984936 21439 net.cpp:144] Setting up relu4
I0503 16:50:26.984943 21439 net.cpp:151] Top shape: 20 128 10 10 (256000)
I0503 16:50:26.984948 21439 net.cpp:159] Memory required for data: 12832080
I0503 16:50:26.984952 21439 layer_factory.hpp:77] Creating layer conv5
I0503 16:50:26.984963 21439 net.cpp:94] Creating Layer conv5
I0503 16:50:26.984968 21439 net.cpp:435] conv5 <- conv4
I0503 16:50:26.984975 21439 net.cpp:409] conv5 -> conv5
I0503 16:50:27.007076 21439 net.cpp:144] Setting up conv5
I0503 16:50:27.007097 21439 net.cpp:151] Top shape: 20 128 10 10 (256000)
I0503 16:50:27.007103 21439 net.cpp:159] Memory required for data: 13856080
I0503 16:50:27.007115 21439 layer_factory.hpp:77] Creating layer relu5
I0503 16:50:27.007123 21439 net.cpp:94] Creating Layer relu5
I0503 16:50:27.007128 21439 net.cpp:435] relu5 <- conv5
I0503 16:50:27.007135 21439 net.cpp:396] relu5 -> conv5 (in-place)
I0503 16:50:27.007145 21439 net.cpp:144] Setting up relu5
I0503 16:50:27.007153 21439 net.cpp:151] Top shape: 20 128 10 10 (256000)
I0503 16:50:27.007156 21439 net.cpp:159] Memory required for data: 14880080
I0503 16:50:27.007161 21439 layer_factory.hpp:77] Creating layer pool5
I0503 16:50:27.007169 21439 net.cpp:94] Creating Layer pool5
I0503 16:50:27.007172 21439 net.cpp:435] pool5 <- conv5
I0503 16:50:27.007179 21439 net.cpp:409] pool5 -> pool5
I0503 16:50:27.007225 21439 net.cpp:144] Setting up pool5
I0503 16:50:27.007235 21439 net.cpp:151] Top shape: 20 128 5 5 (64000)
I0503 16:50:27.007239 21439 net.cpp:159] Memory required for data: 15136080
I0503 16:50:27.007243 21439 layer_factory.hpp:77] Creating layer ip1
I0503 16:50:27.007256 21439 net.cpp:94] Creating Layer ip1
I0503 16:50:27.007261 21439 net.cpp:435] ip1 <- pool5
I0503 16:50:27.007268 21439 net.cpp:409] ip1 -> ip1
I0503 16:50:27.109375 21439 net.cpp:144] Setting up ip1
I0503 16:50:27.109406 21439 net.cpp:151] Top shape: 20 1024 (20480)
I0503 16:50:27.109411 21439 net.cpp:159] Memory required for data: 15218000
I0503 16:50:27.109421 21439 layer_factory.hpp:77] Creating layer ip2
I0503 16:50:27.109437 21439 net.cpp:94] Creating Layer ip2
I0503 16:50:27.109442 21439 net.cpp:435] ip2 <- ip1
I0503 16:50:27.109449 21439 net.cpp:409] ip2 -> ip2
I0503 16:50:27.123766 21439 net.cpp:144] Setting up ip2
I0503 16:50:27.123780 21439 net.cpp:151] Top shape: 20 512 (10240)
I0503 16:50:27.123785 21439 net.cpp:159] Memory required for data: 15258960
I0503 16:50:27.123790 21439 layer_factory.hpp:77] Creating layer ip3
I0503 16:50:27.123797 21439 net.cpp:94] Creating Layer ip3
I0503 16:50:27.123801 21439 net.cpp:435] ip3 <- ip2
I0503 16:50:27.123807 21439 net.cpp:409] ip3 -> ip3
I0503 16:50:27.124548 21439 net.cpp:144] Setting up ip3
I0503 16:50:27.124567 21439 net.cpp:151] Top shape: 20 50 (1000)
I0503 16:50:27.124570 21439 net.cpp:159] Memory required for data: 15262960
I0503 16:50:27.124577 21439 layer_factory.hpp:77] Creating layer loss
I0503 16:50:27.124584 21439 net.cpp:94] Creating Layer loss
I0503 16:50:27.124588 21439 net.cpp:435] loss <- ip3
I0503 16:50:27.124593 21439 net.cpp:435] loss <- label
I0503 16:50:27.124598 21439 net.cpp:409] loss -> loss
I0503 16:50:27.124610 21439 layer_factory.hpp:77] Creating layer loss
…
I0503 16:50:27.125136 21439 solver.cpp:181] Creating test net (#0) specified by net file: ./protocol/dis_5_400_dimension.protocol_distribution
I0503 16:50:27.125164 21439 net.cpp:323] The NetState phase (1) differed from the phase (0) specified by a rule in layer parameters
I0503 16:50:27.125264 21439 net.cpp:52] Initializing net from parameters: 
state {
  phase: TEST
}
layer {
  name: "intercept"
  type: "HDF5Data"
  top: "data"
  top: "label"
  include {
    phase: TEST
  }
  hdf5_data_param {
    source: "/home/purduethu/scratch/radon/d/deng106/CNNStatisticalModel/distributions/input/5_distributions_400_sample_size_test-distributions-path.txt"
    batch_size: 20
  }
}
layer {
  name: "conv1"
  type: "Convolution"
  bottom: "data"
  top: "conv1"
  param {
    lr_mult: 1
  }
  param {
    lr_mult: 2
  }
  convolution_param {
    num_output: 64
    pad: 2
    kernel_size: 5
    stride: 1
    weight_filler {
      type: "gaussian"
      std: 0.0001
    }
    bias_filler {
      type: "constant"
    }
  }
}
layer {
  name: "relu1"
  type: "ReLU"
  bottom: "conv1"
  top: "conv1"
}
layer {
  name: "conv2"
  type: "Convolution"
  bottom: "conv1"
  top: "conv2"
  param {
    lr_mult: 1
  }
  param {
    lr_mult: 2
  }
  convolution_param {
    num_output: 64
    pad: 2
    kernel_size: 5
    stride: 1
    weight_filler {
      type: "gaussian"
      std: 0.01
    }
    bias_filler {
      type: "constant"
    }
  }
}
layer {
  name: "relu2"
  type: "ReLU"
  bottom: "conv2"
  top: "conv2"
}
layer {
  name: "pool2"
  type: "Pooling"
  bottom: "conv2"
  top: "pool2"
  pooling_param {
    pool: MAX
    kernel_size: 3
    stride: 2
  }
}
layer {
  name: "conv3"
  type: "Convolution"
  bottom: "pool2"
  top: "conv3"
  param {
    lr_mult: 1
  }
  param {
    lr_mult: 2
  }
  convolution_param {
    num_output: 128
    pad: 2
    kernel_size: 5
    stride: 1
    weight_filler {
      type: "gaussian"
      std: 0.01
    }
    bias_filler {
      type: "constant"
    }
  }
}
layer {
  name: "relu3"
  type: "ReLU"
  bottom: "conv3"
  top: "conv3"
}
layer {
  name: "conv4"
  type: "Convolution"
  bottom: "conv3"
  top: "conv4"
  param {
    lr_mult: 1
  }
  param {
    lr_mult: 2
  }
  convolution_param {
    num_output: 128
    pad: 2
    kernel_size: 5
    stride: 1
    weight_filler {
      type: "gaussian"
      std: 0.01
    }
    bias_filler {
      type: "constant"
    }
  }
}
layer {
  name: "relu4"
  type: "ReLU"
  bottom: "conv4"
  top: "conv4"
}
layer {
  name: "conv5"
  type: "Convolution"
  bottom: "conv4"
  top: "conv5"
  param {
    lr_mult: 1
  }
  param {
    lr_mult: 2
  }
  convolution_param {
    num_output: 128
    pad: 2
    kernel_size: 5
    stride: 1
    weight_filler {
      type: "gaussian"
      std: 0.01
    }
    bias_filler {
      type: "constant"
    }
  }
}
layer {
  name: "relu5"
  type: "ReLU"
  bottom: "conv5"
  top: "conv5"
}
layer {
  name: "pool5"
  type: "Pooling"
  bottom: "conv5"
  top: "pool5"
  pooling_param {
    pool: AVE
    kernel_size: 3
    stride: 2
  }
}
layer {
  name: "ip1"
  type: "InnerProduct"
  bottom: "pool5"
  top: "ip1"
  param {
    lr_mult: 1
  }
  param {
    lr_mult: 2
  }
  inner_product_param {
    num_output: 1024
    weight_filler {
      type: "gaussian"
      std: 0.1
    }
    bias_filler {
      type: "constant"
    }
  }
}
layer {
  name: "ip2"
  type: "InnerProduct"
  bottom: "ip1"
  top: "ip2"
  param {
    lr_mult: 1
  }
  param {
    lr_mult: 2
  }
  inner_product_param {
    num_output: 512
    weight_filler {
      type: "gaussian"
      std: 0.1
    }
    bias_filler {
      type: "constant"
    }
  }
}
layer {
  name: "ip3"
  type: "InnerProduct"
  bottom: "ip2"
  top: "ip3"
  param {
    lr_mult: 1
  }
  param {
    lr_mult: 2
  }
  inner_product_param {
    num_output: 50
    weight_filler {
      type: "gaussian"
      std: 0.1
    }
    bias_filler {
      type: "constant"
    }
  }
}
layer {
  name: "accuracy"
  type: "Accuracy"
  bottom: "ip3"
  bottom: "label"
  top: "accuracy"
  include {
    phase: TEST
  }
}
layer {
  name: "loss"
  type: "SoftmaxWithLoss"
  bottom: "ip3"
  bottom: "label"
  top: "loss"
}
I0503 16:50:27.125339 21439 layer_factory.hpp:77] Creating layer intercept
I0503 16:50:27.125349 21439 net.cpp:94] Creating Layer intercept
I0503 16:50:27.125352 21439 net.cpp:409] intercept -> data
I0503 16:50:27.125360 21439 net.cpp:409] intercept -> label
I0503 16:50:27.125366 21439 hdf5_data_layer.cpp:79] Loading list of HDF5 filenames from: /home/purduethu/scratch/radon/d/deng106/CNNStatisticalModel/distributions/input/5_distributions_400_sample_size_test-distributions-path.txt
I0503 16:50:27.125385 21439 hdf5_data_layer.cpp:93] Number of HDF5 files: 1
I0503 16:50:27.142026 21439 net.cpp:144] Setting up intercept
I0503 16:50:27.142055 21439 net.cpp:151] Top shape: 20 1 20 20 (8000)
I0503 16:50:27.142060 21439 net.cpp:151] Top shape: 20 (20)
I0503 16:50:27.142065 21439 net.cpp:159] Memory required for data: 32080
I0503 16:50:27.142071 21439 layer_factory.hpp:77] Creating layer label_intercept_1_split
I0503 16:50:27.142086 21439 net.cpp:94] Creating Layer label_intercept_1_split
I0503 16:50:27.142092 21439 net.cpp:435] label_intercept_1_split <- label
I0503 16:50:27.142097 21439 net.cpp:409] label_intercept_1_split -> label_intercept_1_split_0
I0503 16:50:27.142107 21439 net.cpp:409] label_intercept_1_split -> label_intercept_1_split_1
I0503 16:50:27.142141 21439 net.cpp:144] Setting up label_intercept_1_split
I0503 16:50:27.142148 21439 net.cpp:151] Top shape: 20 (20)
I0503 16:50:27.142153 21439 net.cpp:151] Top shape: 20 (20)
I0503 16:50:27.142155 21439 net.cpp:159] Memory required for data: 32240
I0503 16:50:27.142159 21439 layer_factory.hpp:77] Creating layer conv1
I0503 16:50:27.142170 21439 net.cpp:94] Creating Layer conv1
I0503 16:50:27.142174 21439 net.cpp:435] conv1 <- data
I0503 16:50:27.142179 21439 net.cpp:409] conv1 -> conv1
I0503 16:50:27.142819 21439 net.cpp:144] Setting up conv1
I0503 16:50:27.142832 21439 net.cpp:151] Top shape: 20 64 20 20 (512000)
I0503 16:50:27.142837 21439 net.cpp:159] Memory required for data: 2080240
I0503 16:50:27.142846 21439 layer_factory.hpp:77] Creating layer relu1
I0503 16:50:27.142853 21439 net.cpp:94] Creating Layer relu1
I0503 16:50:27.142858 21439 net.cpp:435] relu1 <- conv1
I0503 16:50:27.142861 21439 net.cpp:396] relu1 -> conv1 (in-place)
I0503 16:50:27.142869 21439 net.cpp:144] Setting up relu1
I0503 16:50:27.142874 21439 net.cpp:151] Top shape: 20 64 20 20 (512000)
I0503 16:50:27.142877 21439 net.cpp:159] Memory required for data: 4128240
I0503 16:50:27.142881 21439 layer_factory.hpp:77] Creating layer conv2
I0503 16:50:27.142889 21439 net.cpp:94] Creating Layer conv2
I0503 16:50:27.142894 21439 net.cpp:435] conv2 <- conv1
I0503 16:50:27.142899 21439 net.cpp:409] conv2 -> conv2
I0503 16:50:27.147778 21439 net.cpp:144] Setting up conv2
I0503 16:50:27.147794 21439 net.cpp:151] Top shape: 20 64 20 20 (512000)
I0503 16:50:27.147797 21439 net.cpp:159] Memory required for data: 6176240
I0503 16:50:27.147805 21439 layer_factory.hpp:77] Creating layer relu2
I0503 16:50:27.147811 21439 net.cpp:94] Creating Layer relu2
I0503 16:50:27.147815 21439 net.cpp:435] relu2 <- conv2
I0503 16:50:27.147820 21439 net.cpp:396] relu2 -> conv2 (in-place)
I0503 16:50:27.147827 21439 net.cpp:144] Setting up relu2
I0503 16:50:27.147831 21439 net.cpp:151] Top shape: 20 64 20 20 (512000)
I0503 16:50:27.147835 21439 net.cpp:159] Memory required for data: 8224240
I0503 16:50:27.147838 21439 layer_factory.hpp:77] Creating layer pool2
I0503 16:50:27.147845 21439 net.cpp:94] Creating Layer pool2
I0503 16:50:27.147847 21439 net.cpp:435] pool2 <- conv2
I0503 16:50:27.147851 21439 net.cpp:409] pool2 -> pool2
I0503 16:50:27.147886 21439 net.cpp:144] Setting up pool2
I0503 16:50:27.147892 21439 net.cpp:151] Top shape: 20 64 10 10 (128000)
I0503 16:50:27.147896 21439 net.cpp:159] Memory required for data: 8736240
I0503 16:50:27.147898 21439 layer_factory.hpp:77] Creating layer conv3
I0503 16:50:27.147907 21439 net.cpp:94] Creating Layer conv3
I0503 16:50:27.147910 21439 net.cpp:435] conv3 <- pool2
I0503 16:50:27.147915 21439 net.cpp:409] conv3 -> conv3
I0503 16:50:27.154953 21439 net.cpp:144] Setting up conv3
I0503 16:50:27.154966 21439 net.cpp:151] Top shape: 20 128 10 10 (256000)
I0503 16:50:27.154971 21439 net.cpp:159] Memory required for data: 9760240
I0503 16:50:27.154979 21439 layer_factory.hpp:77] Creating layer relu3
I0503 16:50:27.154986 21439 net.cpp:94] Creating Layer relu3
I0503 16:50:27.154989 21439 net.cpp:435] relu3 <- conv3
I0503 16:50:27.154994 21439 net.cpp:396] relu3 -> conv3 (in-place)
I0503 16:50:27.155001 21439 net.cpp:144] Setting up relu3
I0503 16:50:27.155006 21439 net.cpp:151] Top shape: 20 128 10 10 (256000)
I0503 16:50:27.155009 21439 net.cpp:159] Memory required for data: 10784240
I0503 16:50:27.155012 21439 layer_factory.hpp:77] Creating layer conv4
I0503 16:50:27.155020 21439 net.cpp:94] Creating Layer conv4
I0503 16:50:27.155025 21439 net.cpp:435] conv4 <- conv3
I0503 16:50:27.155030 21439 net.cpp:409] conv4 -> conv4
I0503 16:50:27.168536 21439 net.cpp:144] Setting up conv4
I0503 16:50:27.168558 21439 net.cpp:151] Top shape: 20 128 10 10 (256000)
I0503 16:50:27.168565 21439 net.cpp:159] Memory required for data: 11808240
I0503 16:50:27.168570 21439 layer_factory.hpp:77] Creating layer relu4
I0503 16:50:27.168576 21439 net.cpp:94] Creating Layer relu4
I0503 16:50:27.168584 21439 net.cpp:435] relu4 <- conv4
I0503 16:50:27.168591 21439 net.cpp:396] relu4 -> conv4 (in-place)
I0503 16:50:27.168597 21439 net.cpp:144] Setting up relu4
I0503 16:50:27.168602 21439 net.cpp:151] Top shape: 20 128 10 10 (256000)
I0503 16:50:27.168606 21439 net.cpp:159] Memory required for data: 12832240
I0503 16:50:27.168608 21439 layer_factory.hpp:77] Creating layer conv5
I0503 16:50:27.168617 21439 net.cpp:94] Creating Layer conv5
I0503 16:50:27.168619 21439 net.cpp:435] conv5 <- conv4
I0503 16:50:27.168624 21439 net.cpp:409] conv5 -> conv5
I0503 16:50:27.181907 21439 net.cpp:144] Setting up conv5
I0503 16:50:27.181922 21439 net.cpp:151] Top shape: 20 128 10 10 (256000)
I0503 16:50:27.181927 21439 net.cpp:159] Memory required for data: 13856240
I0503 16:50:27.181936 21439 layer_factory.hpp:77] Creating layer relu5
I0503 16:50:27.181942 21439 net.cpp:94] Creating Layer relu5
I0503 16:50:27.181946 21439 net.cpp:435] relu5 <- conv5
I0503 16:50:27.181951 21439 net.cpp:396] relu5 -> conv5 (in-place)
I0503 16:50:27.181957 21439 net.cpp:144] Setting up relu5
I0503 16:50:27.181962 21439 net.cpp:151] Top shape: 20 128 10 10 (256000)
I0503 16:50:27.181965 21439 net.cpp:159] Memory required for data: 14880240
I0503 16:50:27.181969 21439 layer_factory.hpp:77] Creating layer pool5
I0503 16:50:27.181974 21439 net.cpp:94] Creating Layer pool5
I0503 16:50:27.181977 21439 net.cpp:435] pool5 <- conv5
I0503 16:50:27.181982 21439 net.cpp:409] pool5 -> pool5
I0503 16:50:27.182008 21439 net.cpp:144] Setting up pool5
I0503 16:50:27.182014 21439 net.cpp:151] Top shape: 20 128 5 5 (64000)
I0503 16:50:27.182018 21439 net.cpp:159] Memory required for data: 15136240
I0503 16:50:27.182021 21439 layer_factory.hpp:77] Creating layer ip1
I0503 16:50:27.182029 21439 net.cpp:94] Creating Layer ip1
I0503 16:50:27.182031 21439 net.cpp:435] ip1 <- pool5
I0503 16:50:27.182036 21439 net.cpp:409] ip1 -> ip1
I0503 16:50:27.267015 21439 net.cpp:144] Setting up ip1
I0503 16:50:27.267046 21439 net.cpp:151] Top shape: 20 1024 (20480)
I0503 16:50:27.267050 21439 net.cpp:159] Memory required for data: 15218160
I0503 16:50:27.267058 21439 layer_factory.hpp:77] Creating layer ip2
I0503 16:50:27.267067 21439 net.cpp:94] Creating Layer ip2
I0503 16:50:27.267071 21439 net.cpp:435] ip2 <- ip1
I0503 16:50:27.267077 21439 net.cpp:409] ip2 -> ip2
I0503 16:50:27.280961 21439 net.cpp:144] Setting up ip2
I0503 16:50:27.280974 21439 net.cpp:151] Top shape: 20 512 (10240)
I0503 16:50:27.280978 21439 net.cpp:159] Memory required for data: 15259120
I0503 16:50:27.280984 21439 layer_factory.hpp:77] Creating layer ip3
I0503 16:50:27.280993 21439 net.cpp:94] Creating Layer ip3
I0503 16:50:27.280997 21439 net.cpp:435] ip3 <- ip2
I0503 16:50:27.281003 21439 net.cpp:409] ip3 -> ip3
I0503 16:50:27.281728 21439 net.cpp:144] Setting up ip3
I0503 16:50:27.281735 21439 net.cpp:151] Top shape: 20 50 (1000)
I0503 16:50:27.281738 21439 net.cpp:159] Memory required for data: 15263120
I0503 16:50:27.281744 21439 layer_factory.hpp:77] Creating layer ip3_ip3_0_split
I0503 16:50:27.281749 21439 net.cpp:94] Creating Layer ip3_ip3_0_split
I0503 16:50:27.281754 21439 net.cpp:435] ip3_ip3_0_split <- ip3
I0503 16:50:27.281757 21439 net.cpp:409] ip3_ip3_0_split -> ip3_ip3_0_split_0
I0503 16:50:27.281764 21439 net.cpp:409] ip3_ip3_0_split -> ip3_ip3_0_split_1
I0503 16:50:27.281788 21439 net.cpp:144] Setting up ip3_ip3_0_split
I0503 16:50:27.281795 21439 net.cpp:151] Top shape: 20 50 (1000)
I0503 16:50:27.281798 21439 net.cpp:151] Top shape: 20 50 (1000)
I0503 16:50:27.281801 21439 net.cpp:159] Memory required for data: 15271120
I0503 16:50:27.281805 21439 layer_factory.hpp:77] Creating layer accuracy
I0503 16:50:27.281810 21439 net.cpp:94] Creating Layer accuracy
I0503 16:50:27.281813 21439 net.cpp:435] accuracy <- ip3_ip3_0_split_0
I0503 16:50:27.281818 21439 net.cpp:435] accuracy <- label_intercept_1_split_0
I0503 16:50:27.281823 21439 net.cpp:409] accuracy -> accuracy
…
