…
I0506 04:30:36.057109 12856 net.cpp:323] The NetState phase (0) differed from the phase (1) specified by a rule in layer intercept
I0506 04:30:36.057126 12856 net.cpp:323] The NetState phase (0) differed from the phase (1) specified by a rule in layer loss
I0506 04:30:36.057207 12856 net.cpp:52] Initializing net from parameters: 
state {
  phase: TRAIN
}
layer {
  name: "parameters"
  type: "HDF5Data"
  top: "data"
  top: "label"
  include {
    phase: TRAIN
  }
  hdf5_data_param {
    source: "/home/purduethu/scratch/radon/d/deng106/CNNStatisticalModel/distributions/input/50_distributions_100_sample_size_train-parameters-path.txt"
    batch_size: 20
  }
}
layer {
  name: "conv1"
  type: "Convolution"
  bottom: "data"
  top: "conv1"
  param {
    lr_mult: 1
  }
  param {
    lr_mult: 2
  }
  convolution_param {
    num_output: 64
    pad: 2
    kernel_size: 5
    stride: 1
    weight_filler {
      type: "gaussian"
      std: 0.0001
    }
    bias_filler {
      type: "constant"
    }
  }
}
layer {
  name: "relu1"
  type: "ReLU"
  bottom: "conv1"
  top: "conv1"
}
layer {
  name: "conv2"
  type: "Convolution"
  bottom: "conv1"
  top: "conv2"
  param {
    lr_mult: 1
  }
  param {
    lr_mult: 2
  }
  convolution_param {
    num_output: 64
    pad: 2
    kernel_size: 5
    stride: 1
    weight_filler {
      type: "gaussian"
      std: 0.01
    }
    bias_filler {
      type: "constant"
    }
  }
}
layer {
  name: "relu2"
  type: "ReLU"
  bottom: "conv2"
  top: "conv2"
}
layer {
  name: "pool2"
  type: "Pooling"
  bottom: "conv2"
  top: "pool2"
  pooling_param {
    pool: MAX
    kernel_size: 3
    stride: 2
  }
}
layer {
  name: "conv3"
  type: "Convolution"
  bottom: "pool2"
  top: "conv3"
  param {
    lr_mult: 1
  }
  param {
    lr_mult: 2
  }
  convolution_param {
    num_output: 128
    pad: 2
    kernel_size: 5
    stride: 1
    weight_filler {
      type: "gaussian"
      std: 0.01
    }
    bias_filler {
      type: "constant"
    }
  }
}
layer {
  name: "relu3"
  type: "ReLU"
  bottom: "conv3"
  top: "conv3"
}
layer {
  name: "conv4"
  type: "Convolution"
  bottom: "conv3"
  top: "conv4"
  param {
    lr_mult: 1
  }
  param {
    lr_mult: 2
  }
  convolution_param {
    num_output: 128
    pad: 2
    kernel_size: 5
    stride: 1
    weight_filler {
      type: "gaussian"
      std: 0.01
    }
    bias_filler {
      type: "constant"
    }
  }
}
layer {
  name: "relu4"
  type: "ReLU"
  bottom: "conv4"
  top: "conv4"
}
layer {
  name: "conv5"
  type: "Convolution"
  bottom: "conv4"
  top: "conv5"
  param {
    lr_mult: 1
  }
  param {
    lr_mult: 2
  }
  convolution_param {
    num_output: 128
    pad: 2
    kernel_size: 5
    stride: 1
    weight_filler {
      type: "gaussian"
      std: 0.01
    }
    bias_filler {
      type: "constant"
    }
  }
}
layer {
  name: "relu5"
  type: "ReLU"
  bottom: "conv5"
  top: "conv5"
}
layer {
  name: "pool5"
  type: "Pooling"
  bottom: "conv5"
  top: "pool5"
  pooling_param {
    pool: AVE
    kernel_size: 3
    stride: 2
  }
}
layer {
  name: "ip1"
  type: "InnerProduct"
  bottom: "pool5"
  top: "ip1"
  param {
    lr_mult: 1
  }
  param {
    lr_mult: 2
  }
  inner_product_param {
    num_output: 1024
    weight_filler {
      type: "gaussian"
      std: 0.1
    }
    bias_filler {
      type: "constant"
    }
  }
}
layer {
  name: "ip2"
  type: "InnerProduct"
  bottom: "ip1"
  top: "ip2"
  param {
    lr_mult: 1
  }
  param {
    lr_mult: 2
  }
  inner_product_param {
    num_output: 512
    weight_filler {
      type: "gaussian"
      std: 0.1
    }
    bias_filler {
      type: "constant"
    }
  }
}
layer {
  name: "ip3"
  type: "InnerProduct"
  bottom: "ip2"
  top: "ip3"
  param {
    lr_mult: 1
  }
  param {
    lr_mult: 2
  }
  inner_product_param {
    num_output: 1
    weight_filler {
      type: "gaussian"
      std: 0.1
    }
    bias_filler {
      type: "constant"
    }
  }
}
layer {
  name: "loss"
  type: "HuberLoss"
  bottom: "ip3"
  bottom: "label"
  top: "loss"
  include {
    phase: TRAIN
  }
}
I0506 04:30:36.057261 12856 layer_factory.hpp:77] Creating layer parameters
I0506 04:30:36.057274 12856 net.cpp:94] Creating Layer parameters
I0506 04:30:36.057279 12856 net.cpp:409] parameters -> data
I0506 04:30:36.057288 12856 net.cpp:409] parameters -> label
I0506 04:30:36.057296 12856 hdf5_data_layer.cpp:79] Loading list of HDF5 filenames from: /home/purduethu/scratch/radon/d/deng106/CNNStatisticalModel/distributions/input/50_distributions_100_sample_size_train-parameters-path.txt
I0506 04:30:36.057310 12856 hdf5_data_layer.cpp:93] Number of HDF5 files: 1
I0506 04:30:36.057873 12856 hdf5.cpp:32] Datatype class: H5T_FLOAT
I0506 04:30:36.222896 12856 net.cpp:144] Setting up parameters
I0506 04:30:36.222926 12856 net.cpp:151] Top shape: 20 1 10 10 (2000)
I0506 04:30:36.222931 12856 net.cpp:151] Top shape: 20 (20)
I0506 04:30:36.222935 12856 net.cpp:159] Memory required for data: 8080
I0506 04:30:36.222941 12856 layer_factory.hpp:77] Creating layer conv1
I0506 04:30:36.222962 12856 net.cpp:94] Creating Layer conv1
I0506 04:30:36.222967 12856 net.cpp:435] conv1 <- data
I0506 04:30:36.222973 12856 net.cpp:409] conv1 -> conv1
I0506 04:30:36.227078 12856 net.cpp:144] Setting up conv1
I0506 04:30:36.227095 12856 net.cpp:151] Top shape: 20 64 10 10 (128000)
I0506 04:30:36.227098 12856 net.cpp:159] Memory required for data: 520080
I0506 04:30:36.227108 12856 layer_factory.hpp:77] Creating layer relu1
I0506 04:30:36.227116 12856 net.cpp:94] Creating Layer relu1
I0506 04:30:36.227120 12856 net.cpp:435] relu1 <- conv1
I0506 04:30:36.227125 12856 net.cpp:396] relu1 -> conv1 (in-place)
I0506 04:30:36.227136 12856 net.cpp:144] Setting up relu1
I0506 04:30:36.227140 12856 net.cpp:151] Top shape: 20 64 10 10 (128000)
I0506 04:30:36.227144 12856 net.cpp:159] Memory required for data: 1032080
I0506 04:30:36.227146 12856 layer_factory.hpp:77] Creating layer conv2
I0506 04:30:36.227154 12856 net.cpp:94] Creating Layer conv2
I0506 04:30:36.227157 12856 net.cpp:435] conv2 <- conv1
I0506 04:30:36.227162 12856 net.cpp:409] conv2 -> conv2
I0506 04:30:36.233173 12856 net.cpp:144] Setting up conv2
I0506 04:30:36.233188 12856 net.cpp:151] Top shape: 20 64 10 10 (128000)
I0506 04:30:36.233192 12856 net.cpp:159] Memory required for data: 1544080
I0506 04:30:36.233201 12856 layer_factory.hpp:77] Creating layer relu2
I0506 04:30:36.233207 12856 net.cpp:94] Creating Layer relu2
I0506 04:30:36.233211 12856 net.cpp:435] relu2 <- conv2
I0506 04:30:36.233216 12856 net.cpp:396] relu2 -> conv2 (in-place)
I0506 04:30:36.233222 12856 net.cpp:144] Setting up relu2
I0506 04:30:36.233227 12856 net.cpp:151] Top shape: 20 64 10 10 (128000)
I0506 04:30:36.233229 12856 net.cpp:159] Memory required for data: 2056080
I0506 04:30:36.233232 12856 layer_factory.hpp:77] Creating layer pool2
I0506 04:30:36.233237 12856 net.cpp:94] Creating Layer pool2
I0506 04:30:36.233240 12856 net.cpp:435] pool2 <- conv2
I0506 04:30:36.233244 12856 net.cpp:409] pool2 -> pool2
I0506 04:30:36.233295 12856 net.cpp:144] Setting up pool2
I0506 04:30:36.233302 12856 net.cpp:151] Top shape: 20 64 5 5 (32000)
I0506 04:30:36.233305 12856 net.cpp:159] Memory required for data: 2184080
I0506 04:30:36.233309 12856 layer_factory.hpp:77] Creating layer conv3
I0506 04:30:36.233316 12856 net.cpp:94] Creating Layer conv3
I0506 04:30:36.233326 12856 net.cpp:435] conv3 <- pool2
I0506 04:30:36.233331 12856 net.cpp:409] conv3 -> conv3
I0506 04:30:36.241518 12856 net.cpp:144] Setting up conv3
I0506 04:30:36.241533 12856 net.cpp:151] Top shape: 20 128 5 5 (64000)
I0506 04:30:36.241535 12856 net.cpp:159] Memory required for data: 2440080
I0506 04:30:36.241544 12856 layer_factory.hpp:77] Creating layer relu3
I0506 04:30:36.241550 12856 net.cpp:94] Creating Layer relu3
I0506 04:30:36.241554 12856 net.cpp:435] relu3 <- conv3
I0506 04:30:36.241557 12856 net.cpp:396] relu3 -> conv3 (in-place)
I0506 04:30:36.241564 12856 net.cpp:144] Setting up relu3
I0506 04:30:36.241569 12856 net.cpp:151] Top shape: 20 128 5 5 (64000)
I0506 04:30:36.241571 12856 net.cpp:159] Memory required for data: 2696080
I0506 04:30:36.241575 12856 layer_factory.hpp:77] Creating layer conv4
I0506 04:30:36.241582 12856 net.cpp:94] Creating Layer conv4
I0506 04:30:36.241585 12856 net.cpp:435] conv4 <- conv3
I0506 04:30:36.241590 12856 net.cpp:409] conv4 -> conv4
I0506 04:30:36.256422 12856 net.cpp:144] Setting up conv4
I0506 04:30:36.256438 12856 net.cpp:151] Top shape: 20 128 5 5 (64000)
I0506 04:30:36.256441 12856 net.cpp:159] Memory required for data: 2952080
I0506 04:30:36.256448 12856 layer_factory.hpp:77] Creating layer relu4
I0506 04:30:36.256453 12856 net.cpp:94] Creating Layer relu4
I0506 04:30:36.256456 12856 net.cpp:435] relu4 <- conv4
I0506 04:30:36.256461 12856 net.cpp:396] relu4 -> conv4 (in-place)
I0506 04:30:36.256469 12856 net.cpp:144] Setting up relu4
I0506 04:30:36.256472 12856 net.cpp:151] Top shape: 20 128 5 5 (64000)
I0506 04:30:36.256475 12856 net.cpp:159] Memory required for data: 3208080
I0506 04:30:36.256479 12856 layer_factory.hpp:77] Creating layer conv5
I0506 04:30:36.256485 12856 net.cpp:94] Creating Layer conv5
I0506 04:30:36.256489 12856 net.cpp:435] conv5 <- conv4
I0506 04:30:36.256494 12856 net.cpp:409] conv5 -> conv5
I0506 04:30:36.271000 12856 net.cpp:144] Setting up conv5
I0506 04:30:36.271018 12856 net.cpp:151] Top shape: 20 128 5 5 (64000)
I0506 04:30:36.271021 12856 net.cpp:159] Memory required for data: 3464080
I0506 04:30:36.271030 12856 layer_factory.hpp:77] Creating layer relu5
I0506 04:30:36.271036 12856 net.cpp:94] Creating Layer relu5
I0506 04:30:36.271039 12856 net.cpp:435] relu5 <- conv5
I0506 04:30:36.271044 12856 net.cpp:396] relu5 -> conv5 (in-place)
I0506 04:30:36.271051 12856 net.cpp:144] Setting up relu5
I0506 04:30:36.271055 12856 net.cpp:151] Top shape: 20 128 5 5 (64000)
I0506 04:30:36.271059 12856 net.cpp:159] Memory required for data: 3720080
I0506 04:30:36.271061 12856 layer_factory.hpp:77] Creating layer pool5
I0506 04:30:36.271066 12856 net.cpp:94] Creating Layer pool5
I0506 04:30:36.271070 12856 net.cpp:435] pool5 <- conv5
I0506 04:30:36.271073 12856 net.cpp:409] pool5 -> pool5
I0506 04:30:36.271111 12856 net.cpp:144] Setting up pool5
I0506 04:30:36.271117 12856 net.cpp:151] Top shape: 20 128 2 2 (10240)
I0506 04:30:36.271121 12856 net.cpp:159] Memory required for data: 3761040
I0506 04:30:36.271123 12856 layer_factory.hpp:77] Creating layer ip1
I0506 04:30:36.271133 12856 net.cpp:94] Creating Layer ip1
I0506 04:30:36.271136 12856 net.cpp:435] ip1 <- pool5
I0506 04:30:36.271142 12856 net.cpp:409] ip1 -> ip1
I0506 04:30:36.285261 12856 net.cpp:144] Setting up ip1
I0506 04:30:36.285279 12856 net.cpp:151] Top shape: 20 1024 (20480)
I0506 04:30:36.285282 12856 net.cpp:159] Memory required for data: 3842960
I0506 04:30:36.285289 12856 layer_factory.hpp:77] Creating layer ip2
I0506 04:30:36.285295 12856 net.cpp:94] Creating Layer ip2
I0506 04:30:36.285300 12856 net.cpp:435] ip2 <- ip1
I0506 04:30:36.285305 12856 net.cpp:409] ip2 -> ip2
I0506 04:30:36.298553 12856 net.cpp:144] Setting up ip2
I0506 04:30:36.298568 12856 net.cpp:151] Top shape: 20 512 (10240)
I0506 04:30:36.298573 12856 net.cpp:159] Memory required for data: 3883920
I0506 04:30:36.298578 12856 layer_factory.hpp:77] Creating layer ip3
I0506 04:30:36.298584 12856 net.cpp:94] Creating Layer ip3
I0506 04:30:36.298588 12856 net.cpp:435] ip3 <- ip2
I0506 04:30:36.298599 12856 net.cpp:409] ip3 -> ip3
I0506 04:30:36.298709 12856 net.cpp:144] Setting up ip3
I0506 04:30:36.298717 12856 net.cpp:151] Top shape: 20 1 (20)
I0506 04:30:36.298719 12856 net.cpp:159] Memory required for data: 3884000
I0506 04:30:36.298723 12856 layer_factory.hpp:77] Creating layer loss
I0506 04:30:36.298732 12856 net.cpp:94] Creating Layer loss
I0506 04:30:36.298735 12856 net.cpp:435] loss <- ip3
I0506 04:30:36.298738 12856 net.cpp:435] loss <- label
I0506 04:30:36.298743 12856 net.cpp:409] loss -> loss
I0506 04:30:36.298794 12856 net.cpp:144] Setting up loss
…
I0506 04:30:36.404736 12856 net.cpp:323] The NetState phase (0) differed from the phase (1) specified by a rule in layer intercept
I0506 04:30:36.404752 12856 net.cpp:323] The NetState phase (0) differed from the phase (1) specified by a rule in layer accuracy
I0506 04:30:36.404840 12856 net.cpp:52] Initializing net from parameters: 
state {
  phase: TRAIN
}
layer {
  name: "parameters"
  type: "HDF5Data"
  top: "data"
  top: "label"
  include {
    phase: TRAIN
  }
  hdf5_data_param {
    source: "/home/purduethu/scratch/radon/d/deng106/CNNStatisticalModel/distributions/input/50_distributions_100_sample_size_train-distributions-path.txt"
    batch_size: 20
  }
}
layer {
  name: "conv1"
  type: "Convolution"
  bottom: "data"
  top: "conv1"
  param {
    lr_mult: 1
  }
  param {
    lr_mult: 2
  }
  convolution_param {
    num_output: 64
    pad: 2
    kernel_size: 5
    stride: 1
    weight_filler {
      type: "gaussian"
      std: 0.0001
    }
    bias_filler {
      type: "constant"
    }
  }
}
layer {
  name: "relu1"
  type: "ReLU"
  bottom: "conv1"
  top: "conv1"
}
layer {
  name: "conv2"
  type: "Convolution"
  bottom: "conv1"
  top: "conv2"
  param {
    lr_mult: 1
  }
  param {
    lr_mult: 2
  }
  convolution_param {
    num_output: 64
    pad: 2
    kernel_size: 5
    stride: 1
    weight_filler {
      type: "gaussian"
      std: 0.01
    }
    bias_filler {
      type: "constant"
    }
  }
}
layer {
  name: "relu2"
  type: "ReLU"
  bottom: "conv2"
  top: "conv2"
}
layer {
  name: "pool2"
  type: "Pooling"
  bottom: "conv2"
  top: "pool2"
  pooling_param {
    pool: MAX
    kernel_size: 3
    stride: 2
  }
}
layer {
  name: "conv3"
  type: "Convolution"
  bottom: "pool2"
  top: "conv3"
  param {
    lr_mult: 1
  }
  param {
    lr_mult: 2
  }
  convolution_param {
    num_output: 128
    pad: 2
    kernel_size: 5
    stride: 1
    weight_filler {
      type: "gaussian"
      std: 0.01
    }
    bias_filler {
      type: "constant"
    }
  }
}
layer {
  name: "relu3"
  type: "ReLU"
  bottom: "conv3"
  top: "conv3"
}
layer {
  name: "conv4"
  type: "Convolution"
  bottom: "conv3"
  top: "conv4"
  param {
    lr_mult: 1
  }
  param {
    lr_mult: 2
  }
  convolution_param {
    num_output: 128
    pad: 2
    kernel_size: 5
    stride: 1
    weight_filler {
      type: "gaussian"
      std: 0.01
    }
    bias_filler {
      type: "constant"
    }
  }
}
layer {
  name: "relu4"
  type: "ReLU"
  bottom: "conv4"
  top: "conv4"
}
layer {
  name: "conv5"
  type: "Convolution"
  bottom: "conv4"
  top: "conv5"
  param {
    lr_mult: 1
  }
  param {
    lr_mult: 2
  }
  convolution_param {
    num_output: 128
    pad: 2
    kernel_size: 5
    stride: 1
    weight_filler {
      type: "gaussian"
      std: 0.01
    }
    bias_filler {
      type: "constant"
    }
  }
}
layer {
  name: "relu5"
  type: "ReLU"
  bottom: "conv5"
  top: "conv5"
}
layer {
  name: "pool5"
  type: "Pooling"
  bottom: "conv5"
  top: "pool5"
  pooling_param {
    pool: AVE
    kernel_size: 3
    stride: 2
  }
}
layer {
  name: "ip1"
  type: "InnerProduct"
  bottom: "pool5"
  top: "ip1"
  param {
    lr_mult: 1
  }
  param {
    lr_mult: 2
  }
  inner_product_param {
    num_output: 1024
    weight_filler {
      type: "gaussian"
      std: 0.1
    }
    bias_filler {
      type: "constant"
    }
  }
}
layer {
  name: "ip2"
  type: "InnerProduct"
  bottom: "ip1"
  top: "ip2"
  param {
    lr_mult: 1
  }
  param {
    lr_mult: 2
  }
  inner_product_param {
    num_output: 512
    weight_filler {
      type: "gaussian"
      std: 0.1
    }
    bias_filler {
      type: "constant"
    }
  }
}
layer {
  name: "ip3"
  type: "InnerProduct"
  bottom: "ip2"
  top: "ip3"
  param {
    lr_mult: 1
  }
  param {
    lr_mult: 2
  }
  inner_product_param {
    num_output: 50
    weight_filler {
      type: "gaussian"
      std: 0.1
    }
    bias_filler {
      type: "constant"
    }
  }
}
layer {
  name: "loss"
  type: "SoftmaxWithLoss"
  bottom: "ip3"
  bottom: "label"
  top: "loss"
}
I0506 04:30:36.404901 12856 layer_factory.hpp:77] Creating layer parameters
I0506 04:30:36.404911 12856 net.cpp:94] Creating Layer parameters
I0506 04:30:36.404913 12856 net.cpp:409] parameters -> data
I0506 04:30:36.404920 12856 net.cpp:409] parameters -> label
I0506 04:30:36.404925 12856 hdf5_data_layer.cpp:79] Loading list of HDF5 filenames from: /home/purduethu/scratch/radon/d/deng106/CNNStatisticalModel/distributions/input/50_distributions_100_sample_size_train-distributions-path.txt
I0506 04:30:36.404942 12856 hdf5_data_layer.cpp:93] Number of HDF5 files: 1
I0506 04:30:36.560798 12856 hdf5.cpp:35] Datatype class: H5T_INTEGER
I0506 04:30:36.563910 12856 net.cpp:144] Setting up parameters
I0506 04:30:36.563928 12856 net.cpp:151] Top shape: 20 1 10 10 (2000)
I0506 04:30:36.563933 12856 net.cpp:151] Top shape: 20 (20)
I0506 04:30:36.563937 12856 net.cpp:159] Memory required for data: 8080
I0506 04:30:36.563943 12856 layer_factory.hpp:77] Creating layer conv1
I0506 04:30:36.563959 12856 net.cpp:94] Creating Layer conv1
I0506 04:30:36.563964 12856 net.cpp:435] conv1 <- data
I0506 04:30:36.563971 12856 net.cpp:409] conv1 -> conv1
I0506 04:30:36.565762 12856 net.cpp:144] Setting up conv1
I0506 04:30:36.565775 12856 net.cpp:151] Top shape: 20 64 10 10 (128000)
I0506 04:30:36.565779 12856 net.cpp:159] Memory required for data: 520080
I0506 04:30:36.565789 12856 layer_factory.hpp:77] Creating layer relu1
I0506 04:30:36.565796 12856 net.cpp:94] Creating Layer relu1
I0506 04:30:36.565800 12856 net.cpp:435] relu1 <- conv1
I0506 04:30:36.565804 12856 net.cpp:396] relu1 -> conv1 (in-place)
I0506 04:30:36.565812 12856 net.cpp:144] Setting up relu1
I0506 04:30:36.565816 12856 net.cpp:151] Top shape: 20 64 10 10 (128000)
I0506 04:30:36.565819 12856 net.cpp:159] Memory required for data: 1032080
I0506 04:30:36.565822 12856 layer_factory.hpp:77] Creating layer conv2
I0506 04:30:36.565830 12856 net.cpp:94] Creating Layer conv2
I0506 04:30:36.565834 12856 net.cpp:435] conv2 <- conv1
I0506 04:30:36.565838 12856 net.cpp:409] conv2 -> conv2
I0506 04:30:36.571141 12856 net.cpp:144] Setting up conv2
I0506 04:30:36.571156 12856 net.cpp:151] Top shape: 20 64 10 10 (128000)
I0506 04:30:36.571159 12856 net.cpp:159] Memory required for data: 1544080
I0506 04:30:36.571167 12856 layer_factory.hpp:77] Creating layer relu2
I0506 04:30:36.571174 12856 net.cpp:94] Creating Layer relu2
I0506 04:30:36.571178 12856 net.cpp:435] relu2 <- conv2
I0506 04:30:36.571182 12856 net.cpp:396] relu2 -> conv2 (in-place)
I0506 04:30:36.571189 12856 net.cpp:144] Setting up relu2
I0506 04:30:36.571193 12856 net.cpp:151] Top shape: 20 64 10 10 (128000)
I0506 04:30:36.571197 12856 net.cpp:159] Memory required for data: 2056080
I0506 04:30:36.571200 12856 layer_factory.hpp:77] Creating layer pool2
I0506 04:30:36.571207 12856 net.cpp:94] Creating Layer pool2
I0506 04:30:36.571209 12856 net.cpp:435] pool2 <- conv2
I0506 04:30:36.571213 12856 net.cpp:409] pool2 -> pool2
I0506 04:30:36.571264 12856 net.cpp:144] Setting up pool2
I0506 04:30:36.571271 12856 net.cpp:151] Top shape: 20 64 5 5 (32000)
I0506 04:30:36.571275 12856 net.cpp:159] Memory required for data: 2184080
I0506 04:30:36.571279 12856 layer_factory.hpp:77] Creating layer conv3
I0506 04:30:36.571286 12856 net.cpp:94] Creating Layer conv3
I0506 04:30:36.571290 12856 net.cpp:435] conv3 <- pool2
I0506 04:30:36.571295 12856 net.cpp:409] conv3 -> conv3
I0506 04:30:36.579928 12856 net.cpp:144] Setting up conv3
I0506 04:30:36.579943 12856 net.cpp:151] Top shape: 20 128 5 5 (64000)
I0506 04:30:36.579947 12856 net.cpp:159] Memory required for data: 2440080
I0506 04:30:36.579955 12856 layer_factory.hpp:77] Creating layer relu3
I0506 04:30:36.579962 12856 net.cpp:94] Creating Layer relu3
I0506 04:30:36.579965 12856 net.cpp:435] relu3 <- conv3
I0506 04:30:36.579970 12856 net.cpp:396] relu3 -> conv3 (in-place)
I0506 04:30:36.579983 12856 net.cpp:144] Setting up relu3
I0506 04:30:36.579988 12856 net.cpp:151] Top shape: 20 128 5 5 (64000)
I0506 04:30:36.579991 12856 net.cpp:159] Memory required for data: 2696080
I0506 04:30:36.579994 12856 layer_factory.hpp:77] Creating layer conv4
I0506 04:30:36.580003 12856 net.cpp:94] Creating Layer conv4
I0506 04:30:36.580006 12856 net.cpp:435] conv4 <- conv3
I0506 04:30:36.580010 12856 net.cpp:409] conv4 -> conv4
I0506 04:30:36.594516 12856 net.cpp:144] Setting up conv4
I0506 04:30:36.594532 12856 net.cpp:151] Top shape: 20 128 5 5 (64000)
I0506 04:30:36.594535 12856 net.cpp:159] Memory required for data: 2952080
I0506 04:30:36.594542 12856 layer_factory.hpp:77] Creating layer relu4
I0506 04:30:36.594547 12856 net.cpp:94] Creating Layer relu4
I0506 04:30:36.594550 12856 net.cpp:435] relu4 <- conv4
I0506 04:30:36.594555 12856 net.cpp:396] relu4 -> conv4 (in-place)
I0506 04:30:36.594561 12856 net.cpp:144] Setting up relu4
I0506 04:30:36.594566 12856 net.cpp:151] Top shape: 20 128 5 5 (64000)
I0506 04:30:36.594569 12856 net.cpp:159] Memory required for data: 3208080
I0506 04:30:36.594571 12856 layer_factory.hpp:77] Creating layer conv5
I0506 04:30:36.594579 12856 net.cpp:94] Creating Layer conv5
I0506 04:30:36.594583 12856 net.cpp:435] conv5 <- conv4
I0506 04:30:36.594588 12856 net.cpp:409] conv5 -> conv5
I0506 04:30:36.609321 12856 net.cpp:144] Setting up conv5
I0506 04:30:36.609336 12856 net.cpp:151] Top shape: 20 128 5 5 (64000)
I0506 04:30:36.609340 12856 net.cpp:159] Memory required for data: 3464080
I0506 04:30:36.609349 12856 layer_factory.hpp:77] Creating layer relu5
I0506 04:30:36.609355 12856 net.cpp:94] Creating Layer relu5
I0506 04:30:36.609359 12856 net.cpp:435] relu5 <- conv5
I0506 04:30:36.609364 12856 net.cpp:396] relu5 -> conv5 (in-place)
I0506 04:30:36.609370 12856 net.cpp:144] Setting up relu5
I0506 04:30:36.609375 12856 net.cpp:151] Top shape: 20 128 5 5 (64000)
I0506 04:30:36.609378 12856 net.cpp:159] Memory required for data: 3720080
I0506 04:30:36.609380 12856 layer_factory.hpp:77] Creating layer pool5
I0506 04:30:36.609386 12856 net.cpp:94] Creating Layer pool5
I0506 04:30:36.609390 12856 net.cpp:435] pool5 <- conv5
I0506 04:30:36.609393 12856 net.cpp:409] pool5 -> pool5
I0506 04:30:36.609429 12856 net.cpp:144] Setting up pool5
I0506 04:30:36.609436 12856 net.cpp:151] Top shape: 20 128 2 2 (10240)
I0506 04:30:36.609439 12856 net.cpp:159] Memory required for data: 3761040
I0506 04:30:36.609442 12856 layer_factory.hpp:77] Creating layer ip1
I0506 04:30:36.609449 12856 net.cpp:94] Creating Layer ip1
I0506 04:30:36.609452 12856 net.cpp:435] ip1 <- pool5
I0506 04:30:36.609457 12856 net.cpp:409] ip1 -> ip1
I0506 04:30:36.622534 12856 net.cpp:144] Setting up ip1
I0506 04:30:36.622550 12856 net.cpp:151] Top shape: 20 1024 (20480)
I0506 04:30:36.622552 12856 net.cpp:159] Memory required for data: 3842960
I0506 04:30:36.622558 12856 layer_factory.hpp:77] Creating layer ip2
I0506 04:30:36.622565 12856 net.cpp:94] Creating Layer ip2
I0506 04:30:36.622570 12856 net.cpp:435] ip2 <- ip1
I0506 04:30:36.622575 12856 net.cpp:409] ip2 -> ip2
I0506 04:30:36.635607 12856 net.cpp:144] Setting up ip2
I0506 04:30:36.635622 12856 net.cpp:151] Top shape: 20 512 (10240)
I0506 04:30:36.635625 12856 net.cpp:159] Memory required for data: 3883920
I0506 04:30:36.635632 12856 layer_factory.hpp:77] Creating layer ip3
I0506 04:30:36.635638 12856 net.cpp:94] Creating Layer ip3
I0506 04:30:36.635641 12856 net.cpp:435] ip3 <- ip2
I0506 04:30:36.635646 12856 net.cpp:409] ip3 -> ip3
I0506 04:30:36.637212 12856 net.cpp:144] Setting up ip3
I0506 04:30:36.637225 12856 net.cpp:151] Top shape: 20 50 (1000)
I0506 04:30:36.637228 12856 net.cpp:159] Memory required for data: 3887920
I0506 04:30:36.637234 12856 layer_factory.hpp:77] Creating layer loss
I0506 04:30:36.637243 12856 net.cpp:94] Creating Layer loss
I0506 04:30:36.637246 12856 net.cpp:435] loss <- ip3
I0506 04:30:36.637250 12856 net.cpp:435] loss <- label
I0506 04:30:36.637254 12856 net.cpp:409] loss -> loss
I0506 04:30:36.637261 12856 layer_factory.hpp:77] Creating layer loss
…
I0506 04:30:36.637787 12856 solver.cpp:181] Creating test net (#0) specified by net file: ./protocol/dis_50_100_dimension.protocol_distribution
I0506 04:30:36.637814 12856 net.cpp:323] The NetState phase (1) differed from the phase (0) specified by a rule in layer parameters
I0506 04:30:36.637905 12856 net.cpp:52] Initializing net from parameters: 
state {
  phase: TEST
}
layer {
  name: "intercept"
  type: "HDF5Data"
  top: "data"
  top: "label"
  include {
    phase: TEST
  }
  hdf5_data_param {
    source: "/home/purduethu/scratch/radon/d/deng106/CNNStatisticalModel/distributions/input/50_distributions_100_sample_size_test-distributions-path.txt"
    batch_size: 20
  }
}
layer {
  name: "conv1"
  type: "Convolution"
  bottom: "data"
  top: "conv1"
  param {
    lr_mult: 1
  }
  param {
    lr_mult: 2
  }
  convolution_param {
    num_output: 64
    pad: 2
    kernel_size: 5
    stride: 1
    weight_filler {
      type: "gaussian"
      std: 0.0001
    }
    bias_filler {
      type: "constant"
    }
  }
}
layer {
  name: "relu1"
  type: "ReLU"
  bottom: "conv1"
  top: "conv1"
}
layer {
  name: "conv2"
  type: "Convolution"
  bottom: "conv1"
  top: "conv2"
  param {
    lr_mult: 1
  }
  param {
    lr_mult: 2
  }
  convolution_param {
    num_output: 64
    pad: 2
    kernel_size: 5
    stride: 1
    weight_filler {
      type: "gaussian"
      std: 0.01
    }
    bias_filler {
      type: "constant"
    }
  }
}
layer {
  name: "relu2"
  type: "ReLU"
  bottom: "conv2"
  top: "conv2"
}
layer {
  name: "pool2"
  type: "Pooling"
  bottom: "conv2"
  top: "pool2"
  pooling_param {
    pool: MAX
    kernel_size: 3
    stride: 2
  }
}
layer {
  name: "conv3"
  type: "Convolution"
  bottom: "pool2"
  top: "conv3"
  param {
    lr_mult: 1
  }
  param {
    lr_mult: 2
  }
  convolution_param {
    num_output: 128
    pad: 2
    kernel_size: 5
    stride: 1
    weight_filler {
      type: "gaussian"
      std: 0.01
    }
    bias_filler {
      type: "constant"
    }
  }
}
layer {
  name: "relu3"
  type: "ReLU"
  bottom: "conv3"
  top: "conv3"
}
layer {
  name: "conv4"
  type: "Convolution"
  bottom: "conv3"
  top: "conv4"
  param {
    lr_mult: 1
  }
  param {
    lr_mult: 2
  }
  convolution_param {
    num_output: 128
    pad: 2
    kernel_size: 5
    stride: 1
    weight_filler {
      type: "gaussian"
      std: 0.01
    }
    bias_filler {
      type: "constant"
    }
  }
}
layer {
  name: "relu4"
  type: "ReLU"
  bottom: "conv4"
  top: "conv4"
}
layer {
  name: "conv5"
  type: "Convolution"
  bottom: "conv4"
  top: "conv5"
  param {
    lr_mult: 1
  }
  param {
    lr_mult: 2
  }
  convolution_param {
    num_output: 128
    pad: 2
    kernel_size: 5
    stride: 1
    weight_filler {
      type: "gaussian"
      std: 0.01
    }
    bias_filler {
      type: "constant"
    }
  }
}
layer {
  name: "relu5"
  type: "ReLU"
  bottom: "conv5"
  top: "conv5"
}
layer {
  name: "pool5"
  type: "Pooling"
  bottom: "conv5"
  top: "pool5"
  pooling_param {
    pool: AVE
    kernel_size: 3
    stride: 2
  }
}
layer {
  name: "ip1"
  type: "InnerProduct"
  bottom: "pool5"
  top: "ip1"
  param {
    lr_mult: 1
  }
  param {
    lr_mult: 2
  }
  inner_product_param {
    num_output: 1024
    weight_filler {
      type: "gaussian"
      std: 0.1
    }
    bias_filler {
      type: "constant"
    }
  }
}
layer {
  name: "ip2"
  type: "InnerProduct"
  bottom: "ip1"
  top: "ip2"
  param {
    lr_mult: 1
  }
  param {
    lr_mult: 2
  }
  inner_product_param {
    num_output: 512
    weight_filler {
      type: "gaussian"
      std: 0.1
    }
    bias_filler {
      type: "constant"
    }
  }
}
layer {
  name: "ip3"
  type: "InnerProduct"
  bottom: "ip2"
  top: "ip3"
  param {
    lr_mult: 1
  }
  param {
    lr_mult: 2
  }
  inner_product_param {
    num_output: 50
    weight_filler {
      type: "gaussian"
      std: 0.1
    }
    bias_filler {
      type: "constant"
    }
  }
}
layer {
  name: "accuracy"
  type: "Accuracy"
  bottom: "ip3"
  bottom: "label"
  top: "accuracy"
  include {
    phase: TEST
  }
}
layer {
  name: "loss"
  type: "SoftmaxWithLoss"
  bottom: "ip3"
  bottom: "label"
  top: "loss"
}
I0506 04:30:36.637969 12856 layer_factory.hpp:77] Creating layer intercept
I0506 04:30:36.637976 12856 net.cpp:94] Creating Layer intercept
I0506 04:30:36.637980 12856 net.cpp:409] intercept -> data
I0506 04:30:36.637987 12856 net.cpp:409] intercept -> label
I0506 04:30:36.637992 12856 hdf5_data_layer.cpp:79] Loading list of HDF5 filenames from: /home/purduethu/scratch/radon/d/deng106/CNNStatisticalModel/distributions/input/50_distributions_100_sample_size_test-distributions-path.txt
I0506 04:30:36.638011 12856 hdf5_data_layer.cpp:93] Number of HDF5 files: 1
I0506 04:30:36.678484 12856 net.cpp:144] Setting up intercept
I0506 04:30:36.678519 12856 net.cpp:151] Top shape: 20 1 10 10 (2000)
I0506 04:30:36.678524 12856 net.cpp:151] Top shape: 20 (20)
I0506 04:30:36.678526 12856 net.cpp:159] Memory required for data: 8080
I0506 04:30:36.678534 12856 layer_factory.hpp:77] Creating layer label_intercept_1_split
I0506 04:30:36.678550 12856 net.cpp:94] Creating Layer label_intercept_1_split
I0506 04:30:36.678555 12856 net.cpp:435] label_intercept_1_split <- label
I0506 04:30:36.678560 12856 net.cpp:409] label_intercept_1_split -> label_intercept_1_split_0
I0506 04:30:36.678568 12856 net.cpp:409] label_intercept_1_split -> label_intercept_1_split_1
I0506 04:30:36.678608 12856 net.cpp:144] Setting up label_intercept_1_split
I0506 04:30:36.678613 12856 net.cpp:151] Top shape: 20 (20)
I0506 04:30:36.678617 12856 net.cpp:151] Top shape: 20 (20)
I0506 04:30:36.678620 12856 net.cpp:159] Memory required for data: 8240
I0506 04:30:36.678623 12856 layer_factory.hpp:77] Creating layer conv1
I0506 04:30:36.678633 12856 net.cpp:94] Creating Layer conv1
I0506 04:30:36.678637 12856 net.cpp:435] conv1 <- data
I0506 04:30:36.678642 12856 net.cpp:409] conv1 -> conv1
I0506 04:30:36.679415 12856 net.cpp:144] Setting up conv1
I0506 04:30:36.679428 12856 net.cpp:151] Top shape: 20 64 10 10 (128000)
I0506 04:30:36.679432 12856 net.cpp:159] Memory required for data: 520240
I0506 04:30:36.679441 12856 layer_factory.hpp:77] Creating layer relu1
I0506 04:30:36.679448 12856 net.cpp:94] Creating Layer relu1
I0506 04:30:36.679451 12856 net.cpp:435] relu1 <- conv1
I0506 04:30:36.679455 12856 net.cpp:396] relu1 -> conv1 (in-place)
I0506 04:30:36.679462 12856 net.cpp:144] Setting up relu1
I0506 04:30:36.679466 12856 net.cpp:151] Top shape: 20 64 10 10 (128000)
I0506 04:30:36.679476 12856 net.cpp:159] Memory required for data: 1032240
I0506 04:30:36.679481 12856 layer_factory.hpp:77] Creating layer conv2
I0506 04:30:36.679488 12856 net.cpp:94] Creating Layer conv2
I0506 04:30:36.679491 12856 net.cpp:435] conv2 <- conv1
I0506 04:30:36.679497 12856 net.cpp:409] conv2 -> conv2
I0506 04:30:36.683580 12856 net.cpp:144] Setting up conv2
I0506 04:30:36.683593 12856 net.cpp:151] Top shape: 20 64 10 10 (128000)
I0506 04:30:36.683598 12856 net.cpp:159] Memory required for data: 1544240
I0506 04:30:36.683604 12856 layer_factory.hpp:77] Creating layer relu2
I0506 04:30:36.683610 12856 net.cpp:94] Creating Layer relu2
I0506 04:30:36.683614 12856 net.cpp:435] relu2 <- conv2
I0506 04:30:36.683619 12856 net.cpp:396] relu2 -> conv2 (in-place)
I0506 04:30:36.683625 12856 net.cpp:144] Setting up relu2
I0506 04:30:36.683629 12856 net.cpp:151] Top shape: 20 64 10 10 (128000)
I0506 04:30:36.683632 12856 net.cpp:159] Memory required for data: 2056240
I0506 04:30:36.683635 12856 layer_factory.hpp:77] Creating layer pool2
I0506 04:30:36.683641 12856 net.cpp:94] Creating Layer pool2
I0506 04:30:36.683645 12856 net.cpp:435] pool2 <- conv2
I0506 04:30:36.683650 12856 net.cpp:409] pool2 -> pool2
I0506 04:30:36.683701 12856 net.cpp:144] Setting up pool2
I0506 04:30:36.683708 12856 net.cpp:151] Top shape: 20 64 5 5 (32000)
I0506 04:30:36.683712 12856 net.cpp:159] Memory required for data: 2184240
I0506 04:30:36.683714 12856 layer_factory.hpp:77] Creating layer conv3
I0506 04:30:36.683723 12856 net.cpp:94] Creating Layer conv3
I0506 04:30:36.683727 12856 net.cpp:435] conv3 <- pool2
I0506 04:30:36.683732 12856 net.cpp:409] conv3 -> conv3
I0506 04:30:36.689833 12856 net.cpp:144] Setting up conv3
I0506 04:30:36.689846 12856 net.cpp:151] Top shape: 20 128 5 5 (64000)
I0506 04:30:36.689848 12856 net.cpp:159] Memory required for data: 2440240
I0506 04:30:36.689857 12856 layer_factory.hpp:77] Creating layer relu3
I0506 04:30:36.689864 12856 net.cpp:94] Creating Layer relu3
I0506 04:30:36.689867 12856 net.cpp:435] relu3 <- conv3
I0506 04:30:36.689872 12856 net.cpp:396] relu3 -> conv3 (in-place)
I0506 04:30:36.689878 12856 net.cpp:144] Setting up relu3
I0506 04:30:36.689882 12856 net.cpp:151] Top shape: 20 128 5 5 (64000)
I0506 04:30:36.689885 12856 net.cpp:159] Memory required for data: 2696240
I0506 04:30:36.689888 12856 layer_factory.hpp:77] Creating layer conv4
I0506 04:30:36.689896 12856 net.cpp:94] Creating Layer conv4
I0506 04:30:36.689899 12856 net.cpp:435] conv4 <- conv3
I0506 04:30:36.689904 12856 net.cpp:409] conv4 -> conv4
I0506 04:30:36.702536 12856 net.cpp:144] Setting up conv4
I0506 04:30:36.702549 12856 net.cpp:151] Top shape: 20 128 5 5 (64000)
I0506 04:30:36.702553 12856 net.cpp:159] Memory required for data: 2952240
I0506 04:30:36.702559 12856 layer_factory.hpp:77] Creating layer relu4
I0506 04:30:36.702565 12856 net.cpp:94] Creating Layer relu4
I0506 04:30:36.702569 12856 net.cpp:435] relu4 <- conv4
I0506 04:30:36.702574 12856 net.cpp:396] relu4 -> conv4 (in-place)
I0506 04:30:36.702579 12856 net.cpp:144] Setting up relu4
I0506 04:30:36.702584 12856 net.cpp:151] Top shape: 20 128 5 5 (64000)
I0506 04:30:36.702586 12856 net.cpp:159] Memory required for data: 3208240
I0506 04:30:36.702589 12856 layer_factory.hpp:77] Creating layer conv5
I0506 04:30:36.702597 12856 net.cpp:94] Creating Layer conv5
I0506 04:30:36.702600 12856 net.cpp:435] conv5 <- conv4
I0506 04:30:36.702606 12856 net.cpp:409] conv5 -> conv5
I0506 04:30:36.715307 12856 net.cpp:144] Setting up conv5
I0506 04:30:36.715342 12856 net.cpp:151] Top shape: 20 128 5 5 (64000)
I0506 04:30:36.715361 12856 net.cpp:159] Memory required for data: 3464240
I0506 04:30:36.715369 12856 layer_factory.hpp:77] Creating layer relu5
I0506 04:30:36.715378 12856 net.cpp:94] Creating Layer relu5
I0506 04:30:36.715380 12856 net.cpp:435] relu5 <- conv5
I0506 04:30:36.715384 12856 net.cpp:396] relu5 -> conv5 (in-place)
I0506 04:30:36.715391 12856 net.cpp:144] Setting up relu5
I0506 04:30:36.715395 12856 net.cpp:151] Top shape: 20 128 5 5 (64000)
I0506 04:30:36.715401 12856 net.cpp:159] Memory required for data: 3720240
I0506 04:30:36.715404 12856 layer_factory.hpp:77] Creating layer pool5
I0506 04:30:36.715410 12856 net.cpp:94] Creating Layer pool5
I0506 04:30:36.715414 12856 net.cpp:435] pool5 <- conv5
I0506 04:30:36.715417 12856 net.cpp:409] pool5 -> pool5
I0506 04:30:36.715454 12856 net.cpp:144] Setting up pool5
I0506 04:30:36.715461 12856 net.cpp:151] Top shape: 20 128 2 2 (10240)
I0506 04:30:36.715464 12856 net.cpp:159] Memory required for data: 3761200
I0506 04:30:36.715467 12856 layer_factory.hpp:77] Creating layer ip1
I0506 04:30:36.715474 12856 net.cpp:94] Creating Layer ip1
I0506 04:30:36.715477 12856 net.cpp:435] ip1 <- pool5
I0506 04:30:36.715482 12856 net.cpp:409] ip1 -> ip1
I0506 04:30:36.728579 12856 net.cpp:144] Setting up ip1
I0506 04:30:36.728591 12856 net.cpp:151] Top shape: 20 1024 (20480)
I0506 04:30:36.728595 12856 net.cpp:159] Memory required for data: 3843120
I0506 04:30:36.728601 12856 layer_factory.hpp:77] Creating layer ip2
I0506 04:30:36.728610 12856 net.cpp:94] Creating Layer ip2
I0506 04:30:36.728612 12856 net.cpp:435] ip2 <- ip1
I0506 04:30:36.728617 12856 net.cpp:409] ip2 -> ip2
I0506 04:30:36.741746 12856 net.cpp:144] Setting up ip2
I0506 04:30:36.741758 12856 net.cpp:151] Top shape: 20 512 (10240)
I0506 04:30:36.741762 12856 net.cpp:159] Memory required for data: 3884080
I0506 04:30:36.741767 12856 layer_factory.hpp:77] Creating layer ip3
I0506 04:30:36.741776 12856 net.cpp:94] Creating Layer ip3
I0506 04:30:36.741780 12856 net.cpp:435] ip3 <- ip2
I0506 04:30:36.741785 12856 net.cpp:409] ip3 -> ip3
I0506 04:30:36.742511 12856 net.cpp:144] Setting up ip3
I0506 04:30:36.742518 12856 net.cpp:151] Top shape: 20 50 (1000)
I0506 04:30:36.742522 12856 net.cpp:159] Memory required for data: 3888080
I0506 04:30:36.742527 12856 layer_factory.hpp:77] Creating layer ip3_ip3_0_split
I0506 04:30:36.742532 12856 net.cpp:94] Creating Layer ip3_ip3_0_split
I0506 04:30:36.742534 12856 net.cpp:435] ip3_ip3_0_split <- ip3
I0506 04:30:36.742538 12856 net.cpp:409] ip3_ip3_0_split -> ip3_ip3_0_split_0
I0506 04:30:36.742545 12856 net.cpp:409] ip3_ip3_0_split -> ip3_ip3_0_split_1
I0506 04:30:36.742586 12856 net.cpp:144] Setting up ip3_ip3_0_split
I0506 04:30:36.742593 12856 net.cpp:151] Top shape: 20 50 (1000)
I0506 04:30:36.742596 12856 net.cpp:151] Top shape: 20 50 (1000)
I0506 04:30:36.742599 12856 net.cpp:159] Memory required for data: 3896080
I0506 04:30:36.742601 12856 layer_factory.hpp:77] Creating layer accuracy
I0506 04:30:36.742607 12856 net.cpp:94] Creating Layer accuracy
I0506 04:30:36.742609 12856 net.cpp:435] accuracy <- ip3_ip3_0_split_0
I0506 04:30:36.742614 12856 net.cpp:435] accuracy <- label_intercept_1_split_0
I0506 04:30:36.742619 12856 net.cpp:409] accuracy -> accuracy
…
