…
I0503 10:49:24.617719 20225 net.cpp:323] The NetState phase (0) differed from the phase (1) specified by a rule in layer intercept
I0503 10:49:24.617735 20225 net.cpp:323] The NetState phase (0) differed from the phase (1) specified by a rule in layer accuracy
I0503 10:49:24.617827 20225 net.cpp:52] Initializing net from parameters: 
state {
  phase: TRAIN
}
layer {
  name: "parameters"
  type: "HDF5Data"
  top: "data"
  top: "label"
  include {
    phase: TRAIN
  }
  hdf5_data_param {
    source: "/home/purduethu/scratch/radon/d/deng106/CNNStatisticalModel/distributions/input/50_distributions_400_sample_size_train-distributions-path.txt"
    batch_size: 20
  }
}
layer {
  name: "conv1"
  type: "Convolution"
  bottom: "data"
  top: "conv1"
  param {
    lr_mult: 1
  }
  param {
    lr_mult: 2
  }
  convolution_param {
    num_output: 64
    pad: 2
    kernel_size: 5
    stride: 1
    weight_filler {
      type: "gaussian"
      std: 0.0001
    }
    bias_filler {
      type: "constant"
    }
  }
}
layer {
  name: "relu1"
  type: "ReLU"
  bottom: "conv1"
  top: "conv1"
}
layer {
  name: "conv2"
  type: "Convolution"
  bottom: "conv1"
  top: "conv2"
  param {
    lr_mult: 1
  }
  param {
    lr_mult: 2
  }
  convolution_param {
    num_output: 64
    pad: 2
    kernel_size: 5
    stride: 1
    weight_filler {
      type: "gaussian"
      std: 0.01
    }
    bias_filler {
      type: "constant"
    }
  }
}
layer {
  name: "relu2"
  type: "ReLU"
  bottom: "conv2"
  top: "conv2"
}
layer {
  name: "pool2"
  type: "Pooling"
  bottom: "conv2"
  top: "pool2"
  pooling_param {
    pool: MAX
    kernel_size: 3
    stride: 2
  }
}
layer {
  name: "conv3"
  type: "Convolution"
  bottom: "pool2"
  top: "conv3"
  param {
    lr_mult: 1
  }
  param {
    lr_mult: 2
  }
  convolution_param {
    num_output: 128
    pad: 2
    kernel_size: 5
    stride: 1
    weight_filler {
      type: "gaussian"
      std: 0.01
    }
    bias_filler {
      type: "constant"
    }
  }
}
layer {
  name: "relu3"
  type: "ReLU"
  bottom: "conv3"
  top: "conv3"
}
layer {
  name: "conv4"
  type: "Convolution"
  bottom: "conv3"
  top: "conv4"
  param {
    lr_mult: 1
  }
  param {
    lr_mult: 2
  }
  convolution_param {
    num_output: 128
    pad: 2
    kernel_size: 5
    stride: 1
    weight_filler {
      type: "gaussian"
      std: 0.01
    }
    bias_filler {
      type: "constant"
    }
  }
}
layer {
  name: "relu4"
  type: "ReLU"
  bottom: "conv4"
  top: "conv4"
}
layer {
  name: "conv5"
  type: "Convolution"
  bottom: "conv4"
  top: "conv5"
  param {
    lr_mult: 1
  }
  param {
    lr_mult: 2
  }
  convolution_param {
    num_output: 128
    pad: 2
    kernel_size: 5
    stride: 1
    weight_filler {
      type: "gaussian"
      std: 0.01
    }
    bias_filler {
      type: "constant"
    }
  }
}
layer {
  name: "relu5"
  type: "ReLU"
  bottom: "conv5"
  top: "conv5"
}
layer {
  name: "pool5"
  type: "Pooling"
  bottom: "conv5"
  top: "pool5"
  pooling_param {
    pool: AVE
    kernel_size: 3
    stride: 2
  }
}
layer {
  name: "ip1"
  type: "InnerProduct"
  bottom: "pool5"
  top: "ip1"
  param {
    lr_mult: 1
  }
  param {
    lr_mult: 2
  }
  inner_product_param {
    num_output: 1024
    weight_filler {
      type: "gaussian"
      std: 0.1
    }
    bias_filler {
      type: "constant"
    }
  }
}
layer {
  name: "ip2"
  type: "InnerProduct"
  bottom: "ip1"
  top: "ip2"
  param {
    lr_mult: 1
  }
  param {
    lr_mult: 2
  }
  inner_product_param {
    num_output: 512
    weight_filler {
      type: "gaussian"
      std: 0.1
    }
    bias_filler {
      type: "constant"
    }
  }
}
layer {
  name: "ip3"
  type: "InnerProduct"
  bottom: "ip2"
  top: "ip3"
  param {
    lr_mult: 1
  }
  param {
    lr_mult: 2
  }
  inner_product_param {
    num_output: 50
    weight_filler {
      type: "gaussian"
      std: 0.1
    }
    bias_filler {
      type: "constant"
    }
  }
}
layer {
  name: "loss"
  type: "SoftmaxWithLoss"
  bottom: "ip3"
  bottom: "label"
  top: "loss"
}
I0503 10:49:24.617904 20225 layer_factory.hpp:77] Creating layer parameters
I0503 10:49:24.617919 20225 net.cpp:94] Creating Layer parameters
I0503 10:49:24.617925 20225 net.cpp:409] parameters -> data
I0503 10:49:24.617945 20225 net.cpp:409] parameters -> label
I0503 10:49:24.617956 20225 hdf5_data_layer.cpp:79] Loading list of HDF5 filenames from: /home/purduethu/scratch/radon/d/deng106/CNNStatisticalModel/distributions/input/50_distributions_400_sample_size_train-distributions-path.txt
I0503 10:49:24.617979 20225 hdf5_data_layer.cpp:93] Number of HDF5 files: 1
I0503 10:49:24.618574 20225 hdf5.cpp:32] Datatype class: H5T_FLOAT
I0503 10:49:25.273763 20225 hdf5.cpp:35] Datatype class: H5T_INTEGER
I0503 10:49:25.276563 20225 net.cpp:144] Setting up parameters
I0503 10:49:25.276582 20225 net.cpp:151] Top shape: 20 1 20 20 (8000)
I0503 10:49:25.276588 20225 net.cpp:151] Top shape: 20 (20)
I0503 10:49:25.276592 20225 net.cpp:159] Memory required for data: 32080
I0503 10:49:25.276599 20225 layer_factory.hpp:77] Creating layer conv1
I0503 10:49:25.276618 20225 net.cpp:94] Creating Layer conv1
I0503 10:49:25.276623 20225 net.cpp:435] conv1 <- data
I0503 10:49:25.276635 20225 net.cpp:409] conv1 -> conv1
I0503 10:49:25.281466 20225 net.cpp:144] Setting up conv1
I0503 10:49:25.281481 20225 net.cpp:151] Top shape: 20 64 20 20 (512000)
I0503 10:49:25.281486 20225 net.cpp:159] Memory required for data: 2080080
I0503 10:49:25.281497 20225 layer_factory.hpp:77] Creating layer relu1
I0503 10:49:25.281504 20225 net.cpp:94] Creating Layer relu1
I0503 10:49:25.281508 20225 net.cpp:435] relu1 <- conv1
I0503 10:49:25.281512 20225 net.cpp:396] relu1 -> conv1 (in-place)
I0503 10:49:25.281528 20225 net.cpp:144] Setting up relu1
I0503 10:49:25.281533 20225 net.cpp:151] Top shape: 20 64 20 20 (512000)
I0503 10:49:25.281538 20225 net.cpp:159] Memory required for data: 4128080
I0503 10:49:25.281540 20225 layer_factory.hpp:77] Creating layer conv2
I0503 10:49:25.281548 20225 net.cpp:94] Creating Layer conv2
I0503 10:49:25.281551 20225 net.cpp:435] conv2 <- conv1
I0503 10:49:25.281556 20225 net.cpp:409] conv2 -> conv2
I0503 10:49:25.291883 20225 net.cpp:144] Setting up conv2
I0503 10:49:25.291923 20225 net.cpp:151] Top shape: 20 64 20 20 (512000)
I0503 10:49:25.291936 20225 net.cpp:159] Memory required for data: 6176080
I0503 10:49:25.291959 20225 layer_factory.hpp:77] Creating layer relu2
I0503 10:49:25.291977 20225 net.cpp:94] Creating Layer relu2
I0503 10:49:25.291988 20225 net.cpp:435] relu2 <- conv2
I0503 10:49:25.292001 20225 net.cpp:396] relu2 -> conv2 (in-place)
I0503 10:49:25.292022 20225 net.cpp:144] Setting up relu2
I0503 10:49:25.292037 20225 net.cpp:151] Top shape: 20 64 20 20 (512000)
I0503 10:49:25.292047 20225 net.cpp:159] Memory required for data: 8224080
I0503 10:49:25.292055 20225 layer_factory.hpp:77] Creating layer pool2
I0503 10:49:25.292085 20225 net.cpp:94] Creating Layer pool2
I0503 10:49:25.292096 20225 net.cpp:435] pool2 <- conv2
I0503 10:49:25.292110 20225 net.cpp:409] pool2 -> pool2
I0503 10:49:25.292222 20225 net.cpp:144] Setting up pool2
I0503 10:49:25.292243 20225 net.cpp:151] Top shape: 20 64 10 10 (128000)
I0503 10:49:25.292254 20225 net.cpp:159] Memory required for data: 8736080
I0503 10:49:25.292263 20225 layer_factory.hpp:77] Creating layer conv3
I0503 10:49:25.292284 20225 net.cpp:94] Creating Layer conv3
I0503 10:49:25.292294 20225 net.cpp:435] conv3 <- pool2
I0503 10:49:25.292325 20225 net.cpp:409] conv3 -> conv3
I0503 10:49:25.301447 20225 net.cpp:144] Setting up conv3
I0503 10:49:25.301462 20225 net.cpp:151] Top shape: 20 128 10 10 (256000)
I0503 10:49:25.301467 20225 net.cpp:159] Memory required for data: 9760080
I0503 10:49:25.301476 20225 layer_factory.hpp:77] Creating layer relu3
I0503 10:49:25.301481 20225 net.cpp:94] Creating Layer relu3
I0503 10:49:25.301486 20225 net.cpp:435] relu3 <- conv3
I0503 10:49:25.301491 20225 net.cpp:396] relu3 -> conv3 (in-place)
I0503 10:49:25.301497 20225 net.cpp:144] Setting up relu3
I0503 10:49:25.301502 20225 net.cpp:151] Top shape: 20 128 10 10 (256000)
I0503 10:49:25.301506 20225 net.cpp:159] Memory required for data: 10784080
I0503 10:49:25.301509 20225 layer_factory.hpp:77] Creating layer conv4
I0503 10:49:25.301517 20225 net.cpp:94] Creating Layer conv4
I0503 10:49:25.301522 20225 net.cpp:435] conv4 <- conv3
I0503 10:49:25.301527 20225 net.cpp:409] conv4 -> conv4
I0503 10:49:25.318722 20225 net.cpp:144] Setting up conv4
I0503 10:49:25.318737 20225 net.cpp:151] Top shape: 20 128 10 10 (256000)
I0503 10:49:25.318742 20225 net.cpp:159] Memory required for data: 11808080
I0503 10:49:25.318749 20225 layer_factory.hpp:77] Creating layer relu4
I0503 10:49:25.318755 20225 net.cpp:94] Creating Layer relu4
I0503 10:49:25.318759 20225 net.cpp:435] relu4 <- conv4
I0503 10:49:25.318764 20225 net.cpp:396] relu4 -> conv4 (in-place)
I0503 10:49:25.318771 20225 net.cpp:144] Setting up relu4
I0503 10:49:25.318776 20225 net.cpp:151] Top shape: 20 128 10 10 (256000)
I0503 10:49:25.318779 20225 net.cpp:159] Memory required for data: 12832080
I0503 10:49:25.318783 20225 layer_factory.hpp:77] Creating layer conv5
I0503 10:49:25.318790 20225 net.cpp:94] Creating Layer conv5
I0503 10:49:25.318794 20225 net.cpp:435] conv5 <- conv4
I0503 10:49:25.318799 20225 net.cpp:409] conv5 -> conv5
I0503 10:49:25.335494 20225 net.cpp:144] Setting up conv5
I0503 10:49:25.335510 20225 net.cpp:151] Top shape: 20 128 10 10 (256000)
I0503 10:49:25.335513 20225 net.cpp:159] Memory required for data: 13856080
I0503 10:49:25.335522 20225 layer_factory.hpp:77] Creating layer relu5
I0503 10:49:25.335530 20225 net.cpp:94] Creating Layer relu5
I0503 10:49:25.335532 20225 net.cpp:435] relu5 <- conv5
I0503 10:49:25.335537 20225 net.cpp:396] relu5 -> conv5 (in-place)
I0503 10:49:25.335544 20225 net.cpp:144] Setting up relu5
I0503 10:49:25.335549 20225 net.cpp:151] Top shape: 20 128 10 10 (256000)
I0503 10:49:25.335553 20225 net.cpp:159] Memory required for data: 14880080
I0503 10:49:25.335556 20225 layer_factory.hpp:77] Creating layer pool5
I0503 10:49:25.335561 20225 net.cpp:94] Creating Layer pool5
I0503 10:49:25.335566 20225 net.cpp:435] pool5 <- conv5
I0503 10:49:25.335569 20225 net.cpp:409] pool5 -> pool5
I0503 10:49:25.335604 20225 net.cpp:144] Setting up pool5
I0503 10:49:25.335613 20225 net.cpp:151] Top shape: 20 128 5 5 (64000)
I0503 10:49:25.335616 20225 net.cpp:159] Memory required for data: 15136080
I0503 10:49:25.335619 20225 layer_factory.hpp:77] Creating layer ip1
I0503 10:49:25.335629 20225 net.cpp:94] Creating Layer ip1
I0503 10:49:25.335633 20225 net.cpp:435] ip1 <- pool5
I0503 10:49:25.335638 20225 net.cpp:409] ip1 -> ip1
I0503 10:49:25.414750 20225 net.cpp:144] Setting up ip1
I0503 10:49:25.414770 20225 net.cpp:151] Top shape: 20 1024 (20480)
I0503 10:49:25.414775 20225 net.cpp:159] Memory required for data: 15218000
I0503 10:49:25.414783 20225 layer_factory.hpp:77] Creating layer ip2
I0503 10:49:25.414799 20225 net.cpp:94] Creating Layer ip2
I0503 10:49:25.414804 20225 net.cpp:435] ip2 <- ip1
I0503 10:49:25.414810 20225 net.cpp:409] ip2 -> ip2
I0503 10:49:25.427681 20225 net.cpp:144] Setting up ip2
I0503 10:49:25.427695 20225 net.cpp:151] Top shape: 20 512 (10240)
I0503 10:49:25.427700 20225 net.cpp:159] Memory required for data: 15258960
I0503 10:49:25.427706 20225 layer_factory.hpp:77] Creating layer ip3
I0503 10:49:25.427712 20225 net.cpp:94] Creating Layer ip3
I0503 10:49:25.427716 20225 net.cpp:435] ip3 <- ip2
I0503 10:49:25.427721 20225 net.cpp:409] ip3 -> ip3
I0503 10:49:25.429057 20225 net.cpp:144] Setting up ip3
I0503 10:49:25.429069 20225 net.cpp:151] Top shape: 20 50 (1000)
I0503 10:49:25.429075 20225 net.cpp:159] Memory required for data: 15262960
I0503 10:49:25.429080 20225 layer_factory.hpp:77] Creating layer loss
I0503 10:49:25.429090 20225 net.cpp:94] Creating Layer loss
I0503 10:49:25.429093 20225 net.cpp:435] loss <- ip3
I0503 10:49:25.429097 20225 net.cpp:435] loss <- label
I0503 10:49:25.429103 20225 net.cpp:409] loss -> loss
I0503 10:49:25.429116 20225 layer_factory.hpp:77] Creating layer loss
…
I0503 10:49:25.429611 20225 solver.cpp:181] Creating test net (#0) specified by net file: ./protocol/dis_50_400_dimension.protocol_distribution
I0503 10:49:25.429639 20225 net.cpp:323] The NetState phase (1) differed from the phase (0) specified by a rule in layer parameters
I0503 10:49:25.429733 20225 net.cpp:52] Initializing net from parameters: 
state {
  phase: TEST
}
layer {
  name: "intercept"
  type: "HDF5Data"
  top: "data"
  top: "label"
  include {
    phase: TEST
  }
  hdf5_data_param {
    source: "/home/purduethu/scratch/radon/d/deng106/CNNStatisticalModel/distributions/input/50_distributions_400_sample_size_test-distributions-path.txt"
    batch_size: 20
  }
}
layer {
  name: "conv1"
  type: "Convolution"
  bottom: "data"
  top: "conv1"
  param {
    lr_mult: 1
  }
  param {
    lr_mult: 2
  }
  convolution_param {
    num_output: 64
    pad: 2
    kernel_size: 5
    stride: 1
    weight_filler {
      type: "gaussian"
      std: 0.0001
    }
    bias_filler {
      type: "constant"
    }
  }
}
layer {
  name: "relu1"
  type: "ReLU"
  bottom: "conv1"
  top: "conv1"
}
layer {
  name: "conv2"
  type: "Convolution"
  bottom: "conv1"
  top: "conv2"
  param {
    lr_mult: 1
  }
  param {
    lr_mult: 2
  }
  convolution_param {
    num_output: 64
    pad: 2
    kernel_size: 5
    stride: 1
    weight_filler {
      type: "gaussian"
      std: 0.01
    }
    bias_filler {
      type: "constant"
    }
  }
}
layer {
  name: "relu2"
  type: "ReLU"
  bottom: "conv2"
  top: "conv2"
}
layer {
  name: "pool2"
  type: "Pooling"
  bottom: "conv2"
  top: "pool2"
  pooling_param {
    pool: MAX
    kernel_size: 3
    stride: 2
  }
}
layer {
  name: "conv3"
  type: "Convolution"
  bottom: "pool2"
  top: "conv3"
  param {
    lr_mult: 1
  }
  param {
    lr_mult: 2
  }
  convolution_param {
    num_output: 128
    pad: 2
    kernel_size: 5
    stride: 1
    weight_filler {
      type: "gaussian"
      std: 0.01
    }
    bias_filler {
      type: "constant"
    }
  }
}
layer {
  name: "relu3"
  type: "ReLU"
  bottom: "conv3"
  top: "conv3"
}
layer {
  name: "conv4"
  type: "Convolution"
  bottom: "conv3"
  top: "conv4"
  param {
    lr_mult: 1
  }
  param {
    lr_mult: 2
  }
  convolution_param {
    num_output: 128
    pad: 2
    kernel_size: 5
    stride: 1
    weight_filler {
      type: "gaussian"
      std: 0.01
    }
    bias_filler {
      type: "constant"
    }
  }
}
layer {
  name: "relu4"
  type: "ReLU"
  bottom: "conv4"
  top: "conv4"
}
layer {
  name: "conv5"
  type: "Convolution"
  bottom: "conv4"
  top: "conv5"
  param {
    lr_mult: 1
  }
  param {
    lr_mult: 2
  }
  convolution_param {
    num_output: 128
    pad: 2
    kernel_size: 5
    stride: 1
    weight_filler {
      type: "gaussian"
      std: 0.01
    }
    bias_filler {
      type: "constant"
    }
  }
}
layer {
  name: "relu5"
  type: "ReLU"
  bottom: "conv5"
  top: "conv5"
}
layer {
  name: "pool5"
  type: "Pooling"
  bottom: "conv5"
  top: "pool5"
  pooling_param {
    pool: AVE
    kernel_size: 3
    stride: 2
  }
}
layer {
  name: "ip1"
  type: "InnerProduct"
  bottom: "pool5"
  top: "ip1"
  param {
    lr_mult: 1
  }
  param {
    lr_mult: 2
  }
  inner_product_param {
    num_output: 1024
    weight_filler {
      type: "gaussian"
      std: 0.1
    }
    bias_filler {
      type: "constant"
    }
  }
}
layer {
  name: "ip2"
  type: "InnerProduct"
  bottom: "ip1"
  top: "ip2"
  param {
    lr_mult: 1
  }
  param {
    lr_mult: 2
  }
  inner_product_param {
    num_output: 512
    weight_filler {
      type: "gaussian"
      std: 0.1
    }
    bias_filler {
      type: "constant"
    }
  }
}
layer {
  name: "ip3"
  type: "InnerProduct"
  bottom: "ip2"
  top: "ip3"
  param {
    lr_mult: 1
  }
  param {
    lr_mult: 2
  }
  inner_product_param {
    num_output: 50
    weight_filler {
      type: "gaussian"
      std: 0.1
    }
    bias_filler {
      type: "constant"
    }
  }
}
layer {
  name: "accuracy"
  type: "Accuracy"
  bottom: "ip3"
  bottom: "label"
  top: "accuracy"
  include {
    phase: TEST
  }
}
layer {
  name: "loss"
  type: "SoftmaxWithLoss"
  bottom: "ip3"
  bottom: "label"
  top: "loss"
}
I0503 10:49:25.429805 20225 layer_factory.hpp:77] Creating layer intercept
I0503 10:49:25.429814 20225 net.cpp:94] Creating Layer intercept
I0503 10:49:25.429818 20225 net.cpp:409] intercept -> data
I0503 10:49:25.429826 20225 net.cpp:409] intercept -> label
I0503 10:49:25.429832 20225 hdf5_data_layer.cpp:79] Loading list of HDF5 filenames from: /home/purduethu/scratch/radon/d/deng106/CNNStatisticalModel/distributions/input/50_distributions_400_sample_size_test-distributions-path.txt
I0503 10:49:25.429852 20225 hdf5_data_layer.cpp:93] Number of HDF5 files: 1
I0503 10:49:25.590577 20225 net.cpp:144] Setting up intercept
I0503 10:49:25.590612 20225 net.cpp:151] Top shape: 20 1 20 20 (8000)
I0503 10:49:25.590618 20225 net.cpp:151] Top shape: 20 (20)
I0503 10:49:25.590621 20225 net.cpp:159] Memory required for data: 32080
I0503 10:49:25.590626 20225 layer_factory.hpp:77] Creating layer label_intercept_1_split
I0503 10:49:25.590646 20225 net.cpp:94] Creating Layer label_intercept_1_split
I0503 10:49:25.590651 20225 net.cpp:435] label_intercept_1_split <- label
I0503 10:49:25.590657 20225 net.cpp:409] label_intercept_1_split -> label_intercept_1_split_0
I0503 10:49:25.590665 20225 net.cpp:409] label_intercept_1_split -> label_intercept_1_split_1
I0503 10:49:25.590701 20225 net.cpp:144] Setting up label_intercept_1_split
I0503 10:49:25.590709 20225 net.cpp:151] Top shape: 20 (20)
I0503 10:49:25.590713 20225 net.cpp:151] Top shape: 20 (20)
I0503 10:49:25.590716 20225 net.cpp:159] Memory required for data: 32240
I0503 10:49:25.590719 20225 layer_factory.hpp:77] Creating layer conv1
I0503 10:49:25.590730 20225 net.cpp:94] Creating Layer conv1
I0503 10:49:25.590734 20225 net.cpp:435] conv1 <- data
I0503 10:49:25.590739 20225 net.cpp:409] conv1 -> conv1
I0503 10:49:25.591423 20225 net.cpp:144] Setting up conv1
I0503 10:49:25.591436 20225 net.cpp:151] Top shape: 20 64 20 20 (512000)
I0503 10:49:25.591440 20225 net.cpp:159] Memory required for data: 2080240
I0503 10:49:25.591450 20225 layer_factory.hpp:77] Creating layer relu1
I0503 10:49:25.591457 20225 net.cpp:94] Creating Layer relu1
I0503 10:49:25.591461 20225 net.cpp:435] relu1 <- conv1
I0503 10:49:25.591465 20225 net.cpp:396] relu1 -> conv1 (in-place)
I0503 10:49:25.591473 20225 net.cpp:144] Setting up relu1
I0503 10:49:25.591478 20225 net.cpp:151] Top shape: 20 64 20 20 (512000)
I0503 10:49:25.591481 20225 net.cpp:159] Memory required for data: 4128240
I0503 10:49:25.591485 20225 layer_factory.hpp:77] Creating layer conv2
I0503 10:49:25.591493 20225 net.cpp:94] Creating Layer conv2
I0503 10:49:25.591497 20225 net.cpp:435] conv2 <- conv1
I0503 10:49:25.591502 20225 net.cpp:409] conv2 -> conv2
I0503 10:49:25.596272 20225 net.cpp:144] Setting up conv2
I0503 10:49:25.596287 20225 net.cpp:151] Top shape: 20 64 20 20 (512000)
I0503 10:49:25.596290 20225 net.cpp:159] Memory required for data: 6176240
I0503 10:49:25.596299 20225 layer_factory.hpp:77] Creating layer relu2
I0503 10:49:25.596305 20225 net.cpp:94] Creating Layer relu2
I0503 10:49:25.596309 20225 net.cpp:435] relu2 <- conv2
I0503 10:49:25.596313 20225 net.cpp:396] relu2 -> conv2 (in-place)
I0503 10:49:25.596320 20225 net.cpp:144] Setting up relu2
I0503 10:49:25.596325 20225 net.cpp:151] Top shape: 20 64 20 20 (512000)
I0503 10:49:25.596329 20225 net.cpp:159] Memory required for data: 8224240
I0503 10:49:25.596333 20225 layer_factory.hpp:77] Creating layer pool2
I0503 10:49:25.596338 20225 net.cpp:94] Creating Layer pool2
I0503 10:49:25.596341 20225 net.cpp:435] pool2 <- conv2
I0503 10:49:25.596346 20225 net.cpp:409] pool2 -> pool2
I0503 10:49:25.596379 20225 net.cpp:144] Setting up pool2
I0503 10:49:25.596386 20225 net.cpp:151] Top shape: 20 64 10 10 (128000)
I0503 10:49:25.596390 20225 net.cpp:159] Memory required for data: 8736240
I0503 10:49:25.596395 20225 layer_factory.hpp:77] Creating layer conv3
I0503 10:49:25.596402 20225 net.cpp:94] Creating Layer conv3
I0503 10:49:25.596405 20225 net.cpp:435] conv3 <- pool2
I0503 10:49:25.596411 20225 net.cpp:409] conv3 -> conv3
I0503 10:49:25.603500 20225 net.cpp:144] Setting up conv3
I0503 10:49:25.603536 20225 net.cpp:151] Top shape: 20 128 10 10 (256000)
I0503 10:49:25.603549 20225 net.cpp:159] Memory required for data: 9760240
I0503 10:49:25.603572 20225 layer_factory.hpp:77] Creating layer relu3
I0503 10:49:25.603590 20225 net.cpp:94] Creating Layer relu3
I0503 10:49:25.603600 20225 net.cpp:435] relu3 <- conv3
I0503 10:49:25.603613 20225 net.cpp:396] relu3 -> conv3 (in-place)
I0503 10:49:25.603633 20225 net.cpp:144] Setting up relu3
I0503 10:49:25.603647 20225 net.cpp:151] Top shape: 20 128 10 10 (256000)
I0503 10:49:25.603657 20225 net.cpp:159] Memory required for data: 10784240
I0503 10:49:25.603667 20225 layer_factory.hpp:77] Creating layer conv4
I0503 10:49:25.603688 20225 net.cpp:94] Creating Layer conv4
I0503 10:49:25.603698 20225 net.cpp:435] conv4 <- conv3
I0503 10:49:25.603711 20225 net.cpp:409] conv4 -> conv4
I0503 10:49:25.616930 20225 net.cpp:144] Setting up conv4
I0503 10:49:25.616945 20225 net.cpp:151] Top shape: 20 128 10 10 (256000)
I0503 10:49:25.616950 20225 net.cpp:159] Memory required for data: 11808240
I0503 10:49:25.616956 20225 layer_factory.hpp:77] Creating layer relu4
I0503 10:49:25.616962 20225 net.cpp:94] Creating Layer relu4
I0503 10:49:25.616971 20225 net.cpp:435] relu4 <- conv4
I0503 10:49:25.616976 20225 net.cpp:396] relu4 -> conv4 (in-place)
I0503 10:49:25.616982 20225 net.cpp:144] Setting up relu4
I0503 10:49:25.616987 20225 net.cpp:151] Top shape: 20 128 10 10 (256000)
I0503 10:49:25.616991 20225 net.cpp:159] Memory required for data: 12832240
I0503 10:49:25.616994 20225 layer_factory.hpp:77] Creating layer conv5
I0503 10:49:25.617002 20225 net.cpp:94] Creating Layer conv5
I0503 10:49:25.617005 20225 net.cpp:435] conv5 <- conv4
I0503 10:49:25.617010 20225 net.cpp:409] conv5 -> conv5
I0503 10:49:25.629719 20225 net.cpp:144] Setting up conv5
I0503 10:49:25.629734 20225 net.cpp:151] Top shape: 20 128 10 10 (256000)
I0503 10:49:25.629737 20225 net.cpp:159] Memory required for data: 13856240
I0503 10:49:25.629746 20225 layer_factory.hpp:77] Creating layer relu5
I0503 10:49:25.629752 20225 net.cpp:94] Creating Layer relu5
I0503 10:49:25.629756 20225 net.cpp:435] relu5 <- conv5
I0503 10:49:25.629760 20225 net.cpp:396] relu5 -> conv5 (in-place)
I0503 10:49:25.629767 20225 net.cpp:144] Setting up relu5
I0503 10:49:25.629772 20225 net.cpp:151] Top shape: 20 128 10 10 (256000)
I0503 10:49:25.629776 20225 net.cpp:159] Memory required for data: 14880240
I0503 10:49:25.629779 20225 layer_factory.hpp:77] Creating layer pool5
I0503 10:49:25.629784 20225 net.cpp:94] Creating Layer pool5
I0503 10:49:25.629787 20225 net.cpp:435] pool5 <- conv5
I0503 10:49:25.629791 20225 net.cpp:409] pool5 -> pool5
I0503 10:49:25.629818 20225 net.cpp:144] Setting up pool5
I0503 10:49:25.629825 20225 net.cpp:151] Top shape: 20 128 5 5 (64000)
I0503 10:49:25.629829 20225 net.cpp:159] Memory required for data: 15136240
I0503 10:49:25.629832 20225 layer_factory.hpp:77] Creating layer ip1
I0503 10:49:25.629839 20225 net.cpp:94] Creating Layer ip1
I0503 10:49:25.629842 20225 net.cpp:435] ip1 <- pool5
I0503 10:49:25.629848 20225 net.cpp:409] ip1 -> ip1
I0503 10:49:25.709221 20225 net.cpp:144] Setting up ip1
I0503 10:49:25.709252 20225 net.cpp:151] Top shape: 20 1024 (20480)
I0503 10:49:25.709257 20225 net.cpp:159] Memory required for data: 15218160
I0503 10:49:25.709264 20225 layer_factory.hpp:77] Creating layer ip2
I0503 10:49:25.709275 20225 net.cpp:94] Creating Layer ip2
I0503 10:49:25.709280 20225 net.cpp:435] ip2 <- ip1
I0503 10:49:25.709285 20225 net.cpp:409] ip2 -> ip2
I0503 10:49:25.722283 20225 net.cpp:144] Setting up ip2
I0503 10:49:25.722297 20225 net.cpp:151] Top shape: 20 512 (10240)
I0503 10:49:25.722301 20225 net.cpp:159] Memory required for data: 15259120
I0503 10:49:25.722306 20225 layer_factory.hpp:77] Creating layer ip3
I0503 10:49:25.722316 20225 net.cpp:94] Creating Layer ip3
I0503 10:49:25.722319 20225 net.cpp:435] ip3 <- ip2
I0503 10:49:25.722324 20225 net.cpp:409] ip3 -> ip3
I0503 10:49:25.723001 20225 net.cpp:144] Setting up ip3
I0503 10:49:25.723008 20225 net.cpp:151] Top shape: 20 50 (1000)
I0503 10:49:25.723011 20225 net.cpp:159] Memory required for data: 15263120
I0503 10:49:25.723016 20225 layer_factory.hpp:77] Creating layer ip3_ip3_0_split
I0503 10:49:25.723022 20225 net.cpp:94] Creating Layer ip3_ip3_0_split
I0503 10:49:25.723026 20225 net.cpp:435] ip3_ip3_0_split <- ip3
I0503 10:49:25.723031 20225 net.cpp:409] ip3_ip3_0_split -> ip3_ip3_0_split_0
I0503 10:49:25.723037 20225 net.cpp:409] ip3_ip3_0_split -> ip3_ip3_0_split_1
I0503 10:49:25.723065 20225 net.cpp:144] Setting up ip3_ip3_0_split
I0503 10:49:25.723071 20225 net.cpp:151] Top shape: 20 50 (1000)
I0503 10:49:25.723076 20225 net.cpp:151] Top shape: 20 50 (1000)
I0503 10:49:25.723079 20225 net.cpp:159] Memory required for data: 15271120
I0503 10:49:25.723083 20225 layer_factory.hpp:77] Creating layer accuracy
I0503 10:49:25.723093 20225 net.cpp:94] Creating Layer accuracy
I0503 10:49:25.723096 20225 net.cpp:435] accuracy <- ip3_ip3_0_split_0
I0503 10:49:25.723101 20225 net.cpp:435] accuracy <- label_intercept_1_split_0
I0503 10:49:25.723105 20225 net.cpp:409] accuracy -> accuracy
…
