…
I0505 04:23:07.908318  3271 net.cpp:323] The NetState phase (0) differed from the phase (1) specified by a rule in layer intercept
I0505 04:23:07.908334  3271 net.cpp:323] The NetState phase (0) differed from the phase (1) specified by a rule in layer loss
I0505 04:23:07.908412  3271 net.cpp:52] Initializing net from parameters: 
state {
  phase: TRAIN
}
layer {
  name: "parameters"
  type: "HDF5Data"
  top: "data"
  top: "label"
  include {
    phase: TRAIN
  }
  hdf5_data_param {
    source: "/home/purduethu/scratch/radon/d/deng106/CNNStatisticalModel/distributions/input/5_distributions_100_sample_size_train-parameters-path.txt"
    batch_size: 20
  }
}
layer {
  name: "conv1"
  type: "Convolution"
  bottom: "data"
  top: "conv1"
  param {
    lr_mult: 1
  }
  param {
    lr_mult: 2
  }
  convolution_param {
    num_output: 64
    pad: 2
    kernel_size: 5
    stride: 1
    weight_filler {
      type: "gaussian"
      std: 0.0001
    }
    bias_filler {
      type: "constant"
    }
  }
}
layer {
  name: "relu1"
  type: "ReLU"
  bottom: "conv1"
  top: "conv1"
}
layer {
  name: "pool1"
  type: "Pooling"
  bottom: "conv1"
  top: "pool1"
  pooling_param {
    pool: MAX
    kernel_size: 3
    stride: 2
  }
}
layer {
  name: "conv2"
  type: "Convolution"
  bottom: "pool1"
  top: "conv2"
  param {
    lr_mult: 1
  }
  param {
    lr_mult: 2
  }
  convolution_param {
    num_output: 128
    pad: 2
    kernel_size: 5
    stride: 1
    weight_filler {
      type: "gaussian"
      std: 0.01
    }
    bias_filler {
      type: "constant"
    }
  }
}
layer {
  name: "relu2"
  type: "ReLU"
  bottom: "conv2"
  top: "conv2"
}
layer {
  name: "conv3"
  type: "Convolution"
  bottom: "conv2"
  top: "conv3"
  param {
    lr_mult: 1
  }
  param {
    lr_mult: 2
  }
  convolution_param {
    num_output: 128
    pad: 2
    kernel_size: 5
    stride: 1
    weight_filler {
      type: "gaussian"
      std: 0.01
    }
    bias_filler {
      type: "constant"
    }
  }
}
layer {
  name: "relu3"
  type: "ReLU"
  bottom: "conv3"
  top: "conv3"
}
layer {
  name: "pool3"
  type: "Pooling"
  bottom: "conv3"
  top: "pool3"
  pooling_param {
    pool: AVE
    kernel_size: 3
    stride: 2
  }
}
layer {
  name: "ip1"
  type: "InnerProduct"
  bottom: "pool3"
  top: "ip1"
  param {
    lr_mult: 1
  }
  param {
    lr_mult: 2
  }
  inner_product_param {
    num_output: 512
    weight_filler {
      type: "gaussian"
      std: 0.1
    }
    bias_filler {
      type: "constant"
    }
  }
}
layer {
  name: "ip2"
  type: "InnerProduct"
  bottom: "ip1"
  top: "ip2"
  param {
    lr_mult: 1
  }
  param {
    lr_mult: 2
  }
  inner_product_param {
    num_output: 256
    weight_filler {
      type: "gaussian"
      std: 0.1
    }
    bias_filler {
      type: "constant"
    }
  }
}
layer {
  name: "ip3"
  type: "InnerProduct"
  bottom: "ip2"
  top: "ip3"
  param {
    lr_mult: 1
  }
  param {
    lr_mult: 2
  }
  inner_product_param {
    num_output: 1
    weight_filler {
      type: "gaussian"
      std: 0.1
    }
    bias_filler {
      type: "constant"
    }
  }
}
layer {
  name: "loss"
  type: "HuberLoss"
  bottom: "ip3"
  bottom: "label"
  top: "loss"
  include {
    phase: TRAIN
  }
}
I0505 04:23:07.908476  3271 layer_factory.hpp:77] Creating layer parameters
I0505 04:23:07.908493  3271 net.cpp:94] Creating Layer parameters
I0505 04:23:07.908505  3271 net.cpp:409] parameters -> data
I0505 04:23:07.908525  3271 net.cpp:409] parameters -> label
I0505 04:23:07.908536  3271 hdf5_data_layer.cpp:79] Loading list of HDF5 filenames from: /home/purduethu/scratch/radon/d/deng106/CNNStatisticalModel/distributions/input/5_distributions_100_sample_size_train-parameters-path.txt
I0505 04:23:07.908570  3271 hdf5_data_layer.cpp:93] Number of HDF5 files: 1
I0505 04:23:07.909085  3271 hdf5.cpp:32] Datatype class: H5T_FLOAT
I0505 04:23:07.926738  3271 net.cpp:144] Setting up parameters
I0505 04:23:07.926770  3271 net.cpp:151] Top shape: 20 1 10 10 (2000)
I0505 04:23:07.926775  3271 net.cpp:151] Top shape: 20 (20)
I0505 04:23:07.926779  3271 net.cpp:159] Memory required for data: 8080
I0505 04:23:07.926787  3271 layer_factory.hpp:77] Creating layer conv1
I0505 04:23:07.926807  3271 net.cpp:94] Creating Layer conv1
I0505 04:23:07.926812  3271 net.cpp:435] conv1 <- data
I0505 04:23:07.926823  3271 net.cpp:409] conv1 -> conv1
I0505 04:23:07.930639  3271 net.cpp:144] Setting up conv1
I0505 04:23:07.930655  3271 net.cpp:151] Top shape: 20 64 10 10 (128000)
I0505 04:23:07.930658  3271 net.cpp:159] Memory required for data: 520080
I0505 04:23:07.930670  3271 layer_factory.hpp:77] Creating layer relu1
I0505 04:23:07.930678  3271 net.cpp:94] Creating Layer relu1
I0505 04:23:07.930682  3271 net.cpp:435] relu1 <- conv1
I0505 04:23:07.930686  3271 net.cpp:396] relu1 -> conv1 (in-place)
I0505 04:23:07.930702  3271 net.cpp:144] Setting up relu1
I0505 04:23:07.930708  3271 net.cpp:151] Top shape: 20 64 10 10 (128000)
I0505 04:23:07.930711  3271 net.cpp:159] Memory required for data: 1032080
I0505 04:23:07.930714  3271 layer_factory.hpp:77] Creating layer pool1
I0505 04:23:07.930722  3271 net.cpp:94] Creating Layer pool1
I0505 04:23:07.930726  3271 net.cpp:435] pool1 <- conv1
I0505 04:23:07.930730  3271 net.cpp:409] pool1 -> pool1
I0505 04:23:07.930778  3271 net.cpp:144] Setting up pool1
I0505 04:23:07.930785  3271 net.cpp:151] Top shape: 20 64 5 5 (32000)
I0505 04:23:07.930788  3271 net.cpp:159] Memory required for data: 1160080
I0505 04:23:07.930791  3271 layer_factory.hpp:77] Creating layer conv2
I0505 04:23:07.930800  3271 net.cpp:94] Creating Layer conv2
I0505 04:23:07.930804  3271 net.cpp:435] conv2 <- pool1
I0505 04:23:07.930809  3271 net.cpp:409] conv2 -> conv2
I0505 04:23:07.939589  3271 net.cpp:144] Setting up conv2
I0505 04:23:07.939604  3271 net.cpp:151] Top shape: 20 128 5 5 (64000)
I0505 04:23:07.939609  3271 net.cpp:159] Memory required for data: 1416080
I0505 04:23:07.939616  3271 layer_factory.hpp:77] Creating layer relu2
I0505 04:23:07.939622  3271 net.cpp:94] Creating Layer relu2
I0505 04:23:07.939626  3271 net.cpp:435] relu2 <- conv2
I0505 04:23:07.939631  3271 net.cpp:396] relu2 -> conv2 (in-place)
I0505 04:23:07.939638  3271 net.cpp:144] Setting up relu2
I0505 04:23:07.939642  3271 net.cpp:151] Top shape: 20 128 5 5 (64000)
I0505 04:23:07.939646  3271 net.cpp:159] Memory required for data: 1672080
I0505 04:23:07.939649  3271 layer_factory.hpp:77] Creating layer conv3
I0505 04:23:07.939657  3271 net.cpp:94] Creating Layer conv3
I0505 04:23:07.939661  3271 net.cpp:435] conv3 <- conv2
I0505 04:23:07.939666  3271 net.cpp:409] conv3 -> conv3
I0505 04:23:07.954622  3271 net.cpp:144] Setting up conv3
I0505 04:23:07.954637  3271 net.cpp:151] Top shape: 20 128 5 5 (64000)
I0505 04:23:07.954640  3271 net.cpp:159] Memory required for data: 1928080
I0505 04:23:07.954649  3271 layer_factory.hpp:77] Creating layer relu3
I0505 04:23:07.954655  3271 net.cpp:94] Creating Layer relu3
I0505 04:23:07.954665  3271 net.cpp:435] relu3 <- conv3
I0505 04:23:07.954671  3271 net.cpp:396] relu3 -> conv3 (in-place)
I0505 04:23:07.954679  3271 net.cpp:144] Setting up relu3
I0505 04:23:07.954684  3271 net.cpp:151] Top shape: 20 128 5 5 (64000)
I0505 04:23:07.954686  3271 net.cpp:159] Memory required for data: 2184080
I0505 04:23:07.954690  3271 layer_factory.hpp:77] Creating layer pool3
I0505 04:23:07.954696  3271 net.cpp:94] Creating Layer pool3
I0505 04:23:07.954699  3271 net.cpp:435] pool3 <- conv3
I0505 04:23:07.954710  3271 net.cpp:409] pool3 -> pool3
I0505 04:23:07.954743  3271 net.cpp:144] Setting up pool3
I0505 04:23:07.954751  3271 net.cpp:151] Top shape: 20 128 2 2 (10240)
I0505 04:23:07.954754  3271 net.cpp:159] Memory required for data: 2225040
I0505 04:23:07.954757  3271 layer_factory.hpp:77] Creating layer ip1
I0505 04:23:07.954767  3271 net.cpp:94] Creating Layer ip1
I0505 04:23:07.954771  3271 net.cpp:435] ip1 <- pool3
I0505 04:23:07.954776  3271 net.cpp:409] ip1 -> ip1
I0505 04:23:07.961874  3271 net.cpp:144] Setting up ip1
I0505 04:23:07.961886  3271 net.cpp:151] Top shape: 20 512 (10240)
I0505 04:23:07.961891  3271 net.cpp:159] Memory required for data: 2266000
I0505 04:23:07.961897  3271 layer_factory.hpp:77] Creating layer ip2
I0505 04:23:07.961905  3271 net.cpp:94] Creating Layer ip2
I0505 04:23:07.961908  3271 net.cpp:435] ip2 <- ip1
I0505 04:23:07.961913  3271 net.cpp:409] ip2 -> ip2
I0505 04:23:07.965806  3271 net.cpp:144] Setting up ip2
I0505 04:23:07.965821  3271 net.cpp:151] Top shape: 20 256 (5120)
I0505 04:23:07.965824  3271 net.cpp:159] Memory required for data: 2286480
I0505 04:23:07.965832  3271 layer_factory.hpp:77] Creating layer ip3
I0505 04:23:07.965839  3271 net.cpp:94] Creating Layer ip3
I0505 04:23:07.965843  3271 net.cpp:435] ip3 <- ip2
I0505 04:23:07.965848  3271 net.cpp:409] ip3 -> ip3
I0505 04:23:07.965919  3271 net.cpp:144] Setting up ip3
I0505 04:23:07.965925  3271 net.cpp:151] Top shape: 20 1 (20)
I0505 04:23:07.965929  3271 net.cpp:159] Memory required for data: 2286560
I0505 04:23:07.965934  3271 layer_factory.hpp:77] Creating layer loss
I0505 04:23:07.965942  3271 net.cpp:94] Creating Layer loss
I0505 04:23:07.965946  3271 net.cpp:435] loss <- ip3
I0505 04:23:07.965951  3271 net.cpp:435] loss <- label
I0505 04:23:07.965956  3271 net.cpp:409] loss -> loss
I0505 04:23:07.965992  3271 net.cpp:144] Setting up loss
…
