…
I0504 03:46:37.040310 23854 net.cpp:323] The NetState phase (0) differed from the phase (1) specified by a rule in layer intercept
I0504 03:46:37.040326 23854 net.cpp:323] The NetState phase (0) differed from the phase (1) specified by a rule in layer loss
I0504 03:46:37.040426 23854 net.cpp:52] Initializing net from parameters: 
state {
  phase: TRAIN
}
layer {
  name: "parameters"
  type: "HDF5Data"
  top: "data"
  top: "label"
  include {
    phase: TRAIN
  }
  hdf5_data_param {
    source: "/home/purduethu/scratch/radon/d/deng106/CNNStatisticalModel/distributions/input/20_distributions_900_sample_size_train-parameters-path.txt"
    batch_size: 20
  }
}
layer {
  name: "conv1"
  type: "Convolution"
  bottom: "data"
  top: "conv1"
  param {
    lr_mult: 1
  }
  param {
    lr_mult: 2
  }
  convolution_param {
    num_output: 64
    pad: 2
    kernel_size: 5
    stride: 1
    weight_filler {
      type: "gaussian"
      std: 0.0001
    }
    bias_filler {
      type: "constant"
    }
  }
}
layer {
  name: "relu1"
  type: "ReLU"
  bottom: "conv1"
  top: "conv1"
}
layer {
  name: "conv2"
  type: "Convolution"
  bottom: "conv1"
  top: "conv2"
  param {
    lr_mult: 1
  }
  param {
    lr_mult: 2
  }
  convolution_param {
    num_output: 64
    pad: 2
    kernel_size: 5
    stride: 1
    weight_filler {
      type: "gaussian"
      std: 0.01
    }
    bias_filler {
      type: "constant"
    }
  }
}
layer {
  name: "relu2"
  type: "ReLU"
  bottom: "conv2"
  top: "conv2"
}
layer {
  name: "pool2"
  type: "Pooling"
  bottom: "conv2"
  top: "pool2"
  pooling_param {
    pool: MAX
    kernel_size: 3
    stride: 2
  }
}
layer {
  name: "conv3"
  type: "Convolution"
  bottom: "pool2"
  top: "conv3"
  param {
    lr_mult: 1
  }
  param {
    lr_mult: 2
  }
  convolution_param {
    num_output: 128
    pad: 2
    kernel_size: 5
    stride: 1
    weight_filler {
      type: "gaussian"
      std: 0.01
    }
    bias_filler {
      type: "constant"
    }
  }
}
layer {
  name: "relu3"
  type: "ReLU"
  bottom: "conv3"
  top: "conv3"
}
layer {
  name: "conv4"
  type: "Convolution"
  bottom: "conv3"
  top: "conv4"
  param {
    lr_mult: 1
  }
  param {
    lr_mult: 2
  }
  convolution_param {
    num_output: 128
    pad: 2
    kernel_size: 5
    stride: 1
    weight_filler {
      type: "gaussian"
      std: 0.01
    }
    bias_filler {
      type: "constant"
    }
  }
}
layer {
  name: "relu4"
  type: "ReLU"
  bottom: "conv4"
  top: "conv4"
}
layer {
  name: "conv5"
  type: "Convolution"
  bottom: "conv4"
  top: "conv5"
  param {
    lr_mult: 1
  }
  param {
    lr_mult: 2
  }
  convolution_param {
    num_output: 128
    pad: 2
    kernel_size: 5
    stride: 1
    weight_filler {
      type: "gaussian"
      std: 0.01
    }
    bias_filler {
      type: "constant"
    }
  }
}
layer {
  name: "relu5"
  type: "ReLU"
  bottom: "conv5"
  top: "conv5"
}
layer {
  name: "pool5"
  type: "Pooling"
  bottom: "conv5"
  top: "pool5"
  pooling_param {
    pool: AVE
    kernel_size: 3
    stride: 2
  }
}
layer {
  name: "ip1"
  type: "InnerProduct"
  bottom: "pool5"
  top: "ip1"
  param {
    lr_mult: 1
  }
  param {
    lr_mult: 2
  }
  inner_product_param {
    num_output: 1024
    weight_filler {
      type: "gaussian"
      std: 0.1
    }
    bias_filler {
      type: "constant"
    }
  }
}
layer {
  name: "ip2"
  type: "InnerProduct"
  bottom: "ip1"
  top: "ip2"
  param {
    lr_mult: 1
  }
  param {
    lr_mult: 2
  }
  inner_product_param {
    num_output: 512
    weight_filler {
      type: "gaussian"
      std: 0.1
    }
    bias_filler {
      type: "constant"
    }
  }
}
layer {
  name: "ip3"
  type: "InnerProduct"
  bottom: "ip2"
  top: "ip3"
  param {
    lr_mult: 1
  }
  param {
    lr_mult: 2
  }
  inner_product_param {
    num_output: 1
    weight_filler {
      type: "gaussian"
      std: 0.1
    }
    bias_filler {
      type: "constant"
    }
  }
}
layer {
  name: "loss"
  type: "HuberLoss"
  bottom: "ip3"
  bottom: "label"
  top: "loss"
  include {
    phase: TRAIN
  }
}
I0504 03:46:37.040505 23854 layer_factory.hpp:77] Creating layer parameters
I0504 03:46:37.040519 23854 net.cpp:94] Creating Layer parameters
I0504 03:46:37.040525 23854 net.cpp:409] parameters -> data
I0504 03:46:37.040544 23854 net.cpp:409] parameters -> label
I0504 03:46:37.040571 23854 hdf5_data_layer.cpp:79] Loading list of HDF5 filenames from: /home/purduethu/scratch/radon/d/deng106/CNNStatisticalModel/distributions/input/20_distributions_900_sample_size_train-parameters-path.txt
I0504 03:46:37.040602 23854 hdf5_data_layer.cpp:93] Number of HDF5 files: 1
I0504 03:46:37.041086 23854 hdf5.cpp:32] Datatype class: H5T_FLOAT
I0504 03:46:37.627483 23854 net.cpp:144] Setting up parameters
I0504 03:46:37.627516 23854 net.cpp:151] Top shape: 20 1 30 30 (18000)
I0504 03:46:37.627522 23854 net.cpp:151] Top shape: 20 (20)
I0504 03:46:37.627526 23854 net.cpp:159] Memory required for data: 72080
I0504 03:46:37.627533 23854 layer_factory.hpp:77] Creating layer conv1
I0504 03:46:37.627557 23854 net.cpp:94] Creating Layer conv1
I0504 03:46:37.627563 23854 net.cpp:435] conv1 <- data
I0504 03:46:37.627574 23854 net.cpp:409] conv1 -> conv1
I0504 03:46:37.633464 23854 net.cpp:144] Setting up conv1
I0504 03:46:37.633486 23854 net.cpp:151] Top shape: 20 64 30 30 (1152000)
I0504 03:46:37.633491 23854 net.cpp:159] Memory required for data: 4680080
I0504 03:46:37.633504 23854 layer_factory.hpp:77] Creating layer relu1
I0504 03:46:37.633513 23854 net.cpp:94] Creating Layer relu1
I0504 03:46:37.633518 23854 net.cpp:435] relu1 <- conv1
I0504 03:46:37.633523 23854 net.cpp:396] relu1 -> conv1 (in-place)
I0504 03:46:37.633543 23854 net.cpp:144] Setting up relu1
I0504 03:46:37.633548 23854 net.cpp:151] Top shape: 20 64 30 30 (1152000)
I0504 03:46:37.633551 23854 net.cpp:159] Memory required for data: 9288080
I0504 03:46:37.633555 23854 layer_factory.hpp:77] Creating layer conv2
I0504 03:46:37.633564 23854 net.cpp:94] Creating Layer conv2
I0504 03:46:37.633569 23854 net.cpp:435] conv2 <- conv1
I0504 03:46:37.633574 23854 net.cpp:409] conv2 -> conv2
I0504 03:46:37.648627 23854 net.cpp:144] Setting up conv2
I0504 03:46:37.648666 23854 net.cpp:151] Top shape: 20 64 30 30 (1152000)
I0504 03:46:37.648679 23854 net.cpp:159] Memory required for data: 13896080
I0504 03:46:37.648701 23854 layer_factory.hpp:77] Creating layer relu2
I0504 03:46:37.648720 23854 net.cpp:94] Creating Layer relu2
I0504 03:46:37.648731 23854 net.cpp:435] relu2 <- conv2
I0504 03:46:37.648744 23854 net.cpp:396] relu2 -> conv2 (in-place)
I0504 03:46:37.648764 23854 net.cpp:144] Setting up relu2
I0504 03:46:37.648778 23854 net.cpp:151] Top shape: 20 64 30 30 (1152000)
I0504 03:46:37.648787 23854 net.cpp:159] Memory required for data: 18504080
I0504 03:46:37.648797 23854 layer_factory.hpp:77] Creating layer pool2
I0504 03:46:37.648813 23854 net.cpp:94] Creating Layer pool2
I0504 03:46:37.648834 23854 net.cpp:435] pool2 <- conv2
I0504 03:46:37.648849 23854 net.cpp:409] pool2 -> pool2
I0504 03:46:37.648967 23854 net.cpp:144] Setting up pool2
I0504 03:46:37.648973 23854 net.cpp:151] Top shape: 20 64 15 15 (288000)
I0504 03:46:37.648977 23854 net.cpp:159] Memory required for data: 19656080
I0504 03:46:37.648980 23854 layer_factory.hpp:77] Creating layer conv3
I0504 03:46:37.648989 23854 net.cpp:94] Creating Layer conv3
I0504 03:46:37.648993 23854 net.cpp:435] conv3 <- pool2
I0504 03:46:37.648998 23854 net.cpp:409] conv3 -> conv3
I0504 03:46:37.661525 23854 net.cpp:144] Setting up conv3
I0504 03:46:37.661541 23854 net.cpp:151] Top shape: 20 128 15 15 (576000)
I0504 03:46:37.661546 23854 net.cpp:159] Memory required for data: 21960080
I0504 03:46:37.661556 23854 layer_factory.hpp:77] Creating layer relu3
I0504 03:46:37.661562 23854 net.cpp:94] Creating Layer relu3
I0504 03:46:37.661566 23854 net.cpp:435] relu3 <- conv3
I0504 03:46:37.661571 23854 net.cpp:396] relu3 -> conv3 (in-place)
I0504 03:46:37.661579 23854 net.cpp:144] Setting up relu3
I0504 03:46:37.661583 23854 net.cpp:151] Top shape: 20 128 15 15 (576000)
I0504 03:46:37.661586 23854 net.cpp:159] Memory required for data: 24264080
I0504 03:46:37.661590 23854 layer_factory.hpp:77] Creating layer conv4
I0504 03:46:37.661599 23854 net.cpp:94] Creating Layer conv4
I0504 03:46:37.661603 23854 net.cpp:435] conv4 <- conv3
I0504 03:46:37.661608 23854 net.cpp:409] conv4 -> conv4
I0504 03:46:37.683612 23854 net.cpp:144] Setting up conv4
I0504 03:46:37.683631 23854 net.cpp:151] Top shape: 20 128 15 15 (576000)
I0504 03:46:37.683635 23854 net.cpp:159] Memory required for data: 26568080
I0504 03:46:37.683642 23854 layer_factory.hpp:77] Creating layer relu4
I0504 03:46:37.683650 23854 net.cpp:94] Creating Layer relu4
I0504 03:46:37.683653 23854 net.cpp:435] relu4 <- conv4
I0504 03:46:37.683658 23854 net.cpp:396] relu4 -> conv4 (in-place)
I0504 03:46:37.683666 23854 net.cpp:144] Setting up relu4
I0504 03:46:37.683671 23854 net.cpp:151] Top shape: 20 128 15 15 (576000)
I0504 03:46:37.683675 23854 net.cpp:159] Memory required for data: 28872080
I0504 03:46:37.683677 23854 layer_factory.hpp:77] Creating layer conv5
I0504 03:46:37.683686 23854 net.cpp:94] Creating Layer conv5
I0504 03:46:37.683689 23854 net.cpp:435] conv5 <- conv4
I0504 03:46:37.683694 23854 net.cpp:409] conv5 -> conv5
I0504 03:46:37.705016 23854 net.cpp:144] Setting up conv5
I0504 03:46:37.705035 23854 net.cpp:151] Top shape: 20 128 15 15 (576000)
I0504 03:46:37.705040 23854 net.cpp:159] Memory required for data: 31176080
I0504 03:46:37.705050 23854 layer_factory.hpp:77] Creating layer relu5
I0504 03:46:37.705057 23854 net.cpp:94] Creating Layer relu5
I0504 03:46:37.705061 23854 net.cpp:435] relu5 <- conv5
I0504 03:46:37.705066 23854 net.cpp:396] relu5 -> conv5 (in-place)
I0504 03:46:37.705073 23854 net.cpp:144] Setting up relu5
I0504 03:46:37.705078 23854 net.cpp:151] Top shape: 20 128 15 15 (576000)
I0504 03:46:37.705081 23854 net.cpp:159] Memory required for data: 33480080
I0504 03:46:37.705085 23854 layer_factory.hpp:77] Creating layer pool5
I0504 03:46:37.705090 23854 net.cpp:94] Creating Layer pool5
I0504 03:46:37.705093 23854 net.cpp:435] pool5 <- conv5
I0504 03:46:37.705097 23854 net.cpp:409] pool5 -> pool5
I0504 03:46:37.705139 23854 net.cpp:144] Setting up pool5
I0504 03:46:37.705147 23854 net.cpp:151] Top shape: 20 128 7 7 (125440)
I0504 03:46:37.705149 23854 net.cpp:159] Memory required for data: 33981840
I0504 03:46:37.705152 23854 layer_factory.hpp:77] Creating layer ip1
I0504 03:46:37.705163 23854 net.cpp:94] Creating Layer ip1
I0504 03:46:37.705166 23854 net.cpp:435] ip1 <- pool5
I0504 03:46:37.705171 23854 net.cpp:409] ip1 -> ip1
I0504 03:46:37.859874 23854 net.cpp:144] Setting up ip1
I0504 03:46:37.859910 23854 net.cpp:151] Top shape: 20 1024 (20480)
I0504 03:46:37.859915 23854 net.cpp:159] Memory required for data: 34063760
I0504 03:46:37.859922 23854 layer_factory.hpp:77] Creating layer ip2
I0504 03:46:37.859932 23854 net.cpp:94] Creating Layer ip2
I0504 03:46:37.859947 23854 net.cpp:435] ip2 <- ip1
I0504 03:46:37.859954 23854 net.cpp:409] ip2 -> ip2
I0504 03:46:37.872983 23854 net.cpp:144] Setting up ip2
I0504 03:46:37.873005 23854 net.cpp:151] Top shape: 20 512 (10240)
I0504 03:46:37.873009 23854 net.cpp:159] Memory required for data: 34104720
I0504 03:46:37.873016 23854 layer_factory.hpp:77] Creating layer ip3
I0504 03:46:37.873024 23854 net.cpp:94] Creating Layer ip3
I0504 03:46:37.873028 23854 net.cpp:435] ip3 <- ip2
I0504 03:46:37.873034 23854 net.cpp:409] ip3 -> ip3
I0504 03:46:37.873112 23854 net.cpp:144] Setting up ip3
I0504 03:46:37.873131 23854 net.cpp:151] Top shape: 20 1 (20)
I0504 03:46:37.873133 23854 net.cpp:159] Memory required for data: 34104800
I0504 03:46:37.873138 23854 layer_factory.hpp:77] Creating layer loss
I0504 03:46:37.873147 23854 net.cpp:94] Creating Layer loss
I0504 03:46:37.873150 23854 net.cpp:435] loss <- ip3
I0504 03:46:37.873154 23854 net.cpp:435] loss <- label
I0504 03:46:37.873160 23854 net.cpp:409] loss -> loss
I0504 03:46:37.873203 23854 net.cpp:144] Setting up loss
…
