…
I0507 02:57:27.322329 31025 net.cpp:323] The NetState phase (0) differed from the phase (1) specified by a rule in layer intercept
I0507 02:57:27.322345 31025 net.cpp:323] The NetState phase (0) differed from the phase (1) specified by a rule in layer loss
I0507 02:57:27.322422 31025 net.cpp:52] Initializing net from parameters: 
state {
  phase: TRAIN
}
layer {
  name: "parameters"
  type: "HDF5Data"
  top: "data"
  top: "label"
  include {
    phase: TRAIN
  }
  hdf5_data_param {
    source: "/home/purduethu/scratch/radon/d/deng106/CNNStatisticalModel/distributions/input/50_distributions_100_sample_size_train-parameters-path.txt"
    batch_size: 20
  }
}
layer {
  name: "conv1"
  type: "Convolution"
  bottom: "data"
  top: "conv1"
  param {
    lr_mult: 1
  }
  param {
    lr_mult: 2
  }
  convolution_param {
    num_output: 64
    pad: 2
    kernel_size: 5
    stride: 1
    weight_filler {
      type: "gaussian"
      std: 0.0001
    }
    bias_filler {
      type: "constant"
    }
  }
}
layer {
  name: "relu1"
  type: "ReLU"
  bottom: "conv1"
  top: "conv1"
}
layer {
  name: "conv2"
  type: "Convolution"
  bottom: "conv1"
  top: "conv2"
  param {
    lr_mult: 1
  }
  param {
    lr_mult: 2
  }
  convolution_param {
    num_output: 64
    pad: 2
    kernel_size: 5
    stride: 1
    weight_filler {
      type: "gaussian"
      std: 0.01
    }
    bias_filler {
      type: "constant"
    }
  }
}
layer {
  name: "relu2"
  type: "ReLU"
  bottom: "conv2"
  top: "conv2"
}
layer {
  name: "pool2"
  type: "Pooling"
  bottom: "conv2"
  top: "pool2"
  pooling_param {
    pool: MAX
    kernel_size: 3
    stride: 2
  }
}
layer {
  name: "conv3"
  type: "Convolution"
  bottom: "pool2"
  top: "conv3"
  param {
    lr_mult: 1
  }
  param {
    lr_mult: 2
  }
  convolution_param {
    num_output: 64
    pad: 2
    kernel_size: 5
    stride: 1
    weight_filler {
      type: "gaussian"
      std: 0.01
    }
    bias_filler {
      type: "constant"
    }
  }
}
layer {
  name: "relu3"
  type: "ReLU"
  bottom: "conv3"
  top: "conv3"
}
layer {
  name: "conv4"
  type: "Convolution"
  bottom: "conv3"
  top: "conv4"
  param {
    lr_mult: 1
  }
  param {
    lr_mult: 2
  }
  convolution_param {
    num_output: 64
    pad: 2
    kernel_size: 5
    stride: 1
    weight_filler {
      type: "gaussian"
      std: 0.01
    }
    bias_filler {
      type: "constant"
    }
  }
}
layer {
  name: "relu4"
  type: "ReLU"
  bottom: "conv4"
  top: "conv4"
}
layer {
  name: "conv5"
  type: "Convolution"
  bottom: "conv4"
  top: "conv5"
  param {
    lr_mult: 1
  }
  param {
    lr_mult: 2
  }
  convolution_param {
    num_output: 64
    pad: 2
    kernel_size: 5
    stride: 1
    weight_filler {
      type: "gaussian"
      std: 0.01
    }
    bias_filler {
      type: "constant"
    }
  }
}
layer {
  name: "relu5"
  type: "ReLU"
  bottom: "conv5"
  top: "conv5"
}
layer {
  name: "pool5"
  type: "Pooling"
  bottom: "conv5"
  top: "pool5"
  pooling_param {
    pool: AVE
    kernel_size: 3
    stride: 2
  }
}
layer {
  name: "ip1"
  type: "InnerProduct"
  bottom: "pool5"
  top: "ip1"
  param {
    lr_mult: 1
  }
  param {
    lr_mult: 2
  }
  inner_product_param {
    num_output: 64
    weight_filler {
      type: "gaussian"
      std: 0.1
    }
    bias_filler {
      type: "constant"
    }
  }
}
layer {
  name: "ip2"
  type: "InnerProduct"
  bottom: "ip1"
  top: "ip2"
  param {
    lr_mult: 1
  }
  param {
    lr_mult: 2
  }
  inner_product_param {
    num_output: 64
    weight_filler {
      type: "gaussian"
      std: 0.1
    }
    bias_filler {
      type: "constant"
    }
  }
}
layer {
  name: "ip3"
  type: "InnerProduct"
  bottom: "ip2"
  top: "ip3"
  param {
    lr_mult: 1
  }
  param {
    lr_mult: 2
  }
  inner_product_param {
    num_output: 1
    weight_filler {
      type: "gaussian"
      std: 0.1
    }
    bias_filler {
      type: "constant"
    }
  }
}
layer {
  name: "loss"
  type: "HuberLoss"
  bottom: "ip3"
  bottom: "label"
  top: "loss"
  include {
    phase: TRAIN
  }
}
I0507 02:57:27.322474 31025 layer_factory.hpp:77] Creating layer parameters
I0507 02:57:27.322489 31025 net.cpp:94] Creating Layer parameters
I0507 02:57:27.322494 31025 net.cpp:409] parameters -> data
I0507 02:57:27.322506 31025 net.cpp:409] parameters -> label
I0507 02:57:27.322513 31025 hdf5_data_layer.cpp:79] Loading list of HDF5 filenames from: /home/purduethu/scratch/radon/d/deng106/CNNStatisticalModel/distributions/input/50_distributions_100_sample_size_train-parameters-path.txt
I0507 02:57:27.322528 31025 hdf5_data_layer.cpp:93] Number of HDF5 files: 1
I0507 02:57:27.323070 31025 hdf5.cpp:32] Datatype class: H5T_FLOAT
I0507 02:57:27.484388 31025 net.cpp:144] Setting up parameters
I0507 02:57:27.484421 31025 net.cpp:151] Top shape: 20 1 10 10 (2000)
I0507 02:57:27.484427 31025 net.cpp:151] Top shape: 20 (20)
I0507 02:57:27.484431 31025 net.cpp:159] Memory required for data: 8080
I0507 02:57:27.484436 31025 layer_factory.hpp:77] Creating layer conv1
I0507 02:57:27.484452 31025 net.cpp:94] Creating Layer conv1
I0507 02:57:27.484457 31025 net.cpp:435] conv1 <- data
I0507 02:57:27.484462 31025 net.cpp:409] conv1 -> conv1
I0507 02:57:27.488651 31025 net.cpp:144] Setting up conv1
I0507 02:57:27.488668 31025 net.cpp:151] Top shape: 20 64 10 10 (128000)
I0507 02:57:27.488672 31025 net.cpp:159] Memory required for data: 520080
I0507 02:57:27.488682 31025 layer_factory.hpp:77] Creating layer relu1
I0507 02:57:27.488692 31025 net.cpp:94] Creating Layer relu1
I0507 02:57:27.488694 31025 net.cpp:435] relu1 <- conv1
I0507 02:57:27.488699 31025 net.cpp:396] relu1 -> conv1 (in-place)
I0507 02:57:27.488708 31025 net.cpp:144] Setting up relu1
I0507 02:57:27.488711 31025 net.cpp:151] Top shape: 20 64 10 10 (128000)
I0507 02:57:27.488714 31025 net.cpp:159] Memory required for data: 1032080
I0507 02:57:27.488718 31025 layer_factory.hpp:77] Creating layer conv2
I0507 02:57:27.488725 31025 net.cpp:94] Creating Layer conv2
I0507 02:57:27.488729 31025 net.cpp:435] conv2 <- conv1
I0507 02:57:27.488734 31025 net.cpp:409] conv2 -> conv2
I0507 02:57:27.494827 31025 net.cpp:144] Setting up conv2
I0507 02:57:27.494843 31025 net.cpp:151] Top shape: 20 64 10 10 (128000)
I0507 02:57:27.494845 31025 net.cpp:159] Memory required for data: 1544080
I0507 02:57:27.494853 31025 layer_factory.hpp:77] Creating layer relu2
I0507 02:57:27.494860 31025 net.cpp:94] Creating Layer relu2
I0507 02:57:27.494864 31025 net.cpp:435] relu2 <- conv2
I0507 02:57:27.494868 31025 net.cpp:396] relu2 -> conv2 (in-place)
I0507 02:57:27.494875 31025 net.cpp:144] Setting up relu2
I0507 02:57:27.494879 31025 net.cpp:151] Top shape: 20 64 10 10 (128000)
I0507 02:57:27.494882 31025 net.cpp:159] Memory required for data: 2056080
I0507 02:57:27.494885 31025 layer_factory.hpp:77] Creating layer pool2
I0507 02:57:27.494891 31025 net.cpp:94] Creating Layer pool2
I0507 02:57:27.494894 31025 net.cpp:435] pool2 <- conv2
I0507 02:57:27.494899 31025 net.cpp:409] pool2 -> pool2
I0507 02:57:27.494954 31025 net.cpp:144] Setting up pool2
I0507 02:57:27.494962 31025 net.cpp:151] Top shape: 20 64 5 5 (32000)
I0507 02:57:27.494966 31025 net.cpp:159] Memory required for data: 2184080
I0507 02:57:27.494969 31025 layer_factory.hpp:77] Creating layer conv3
I0507 02:57:27.494976 31025 net.cpp:94] Creating Layer conv3
I0507 02:57:27.494981 31025 net.cpp:435] conv3 <- pool2
I0507 02:57:27.494990 31025 net.cpp:409] conv3 -> conv3
I0507 02:57:27.499887 31025 net.cpp:144] Setting up conv3
I0507 02:57:27.499902 31025 net.cpp:151] Top shape: 20 64 5 5 (32000)
I0507 02:57:27.499905 31025 net.cpp:159] Memory required for data: 2312080
I0507 02:57:27.499913 31025 layer_factory.hpp:77] Creating layer relu3
I0507 02:57:27.499919 31025 net.cpp:94] Creating Layer relu3
I0507 02:57:27.499923 31025 net.cpp:435] relu3 <- conv3
I0507 02:57:27.499927 31025 net.cpp:396] relu3 -> conv3 (in-place)
I0507 02:57:27.499934 31025 net.cpp:144] Setting up relu3
I0507 02:57:27.499938 31025 net.cpp:151] Top shape: 20 64 5 5 (32000)
I0507 02:57:27.499941 31025 net.cpp:159] Memory required for data: 2440080
I0507 02:57:27.499944 31025 layer_factory.hpp:77] Creating layer conv4
I0507 02:57:27.499953 31025 net.cpp:94] Creating Layer conv4
I0507 02:57:27.499956 31025 net.cpp:435] conv4 <- conv3
I0507 02:57:27.499961 31025 net.cpp:409] conv4 -> conv4
I0507 02:57:27.504392 31025 net.cpp:144] Setting up conv4
I0507 02:57:27.504405 31025 net.cpp:151] Top shape: 20 64 5 5 (32000)
I0507 02:57:27.504410 31025 net.cpp:159] Memory required for data: 2568080
I0507 02:57:27.504415 31025 layer_factory.hpp:77] Creating layer relu4
I0507 02:57:27.504421 31025 net.cpp:94] Creating Layer relu4
I0507 02:57:27.504425 31025 net.cpp:435] relu4 <- conv4
I0507 02:57:27.504429 31025 net.cpp:396] relu4 -> conv4 (in-place)
I0507 02:57:27.504436 31025 net.cpp:144] Setting up relu4
I0507 02:57:27.504441 31025 net.cpp:151] Top shape: 20 64 5 5 (32000)
I0507 02:57:27.504443 31025 net.cpp:159] Memory required for data: 2696080
I0507 02:57:27.504446 31025 layer_factory.hpp:77] Creating layer conv5
I0507 02:57:27.504453 31025 net.cpp:94] Creating Layer conv5
I0507 02:57:27.504456 31025 net.cpp:435] conv5 <- conv4
I0507 02:57:27.504462 31025 net.cpp:409] conv5 -> conv5
I0507 02:57:27.509369 31025 net.cpp:144] Setting up conv5
I0507 02:57:27.509383 31025 net.cpp:151] Top shape: 20 64 5 5 (32000)
I0507 02:57:27.509387 31025 net.cpp:159] Memory required for data: 2824080
I0507 02:57:27.509395 31025 layer_factory.hpp:77] Creating layer relu5
I0507 02:57:27.509402 31025 net.cpp:94] Creating Layer relu5
I0507 02:57:27.509404 31025 net.cpp:435] relu5 <- conv5
I0507 02:57:27.509409 31025 net.cpp:396] relu5 -> conv5 (in-place)
I0507 02:57:27.509416 31025 net.cpp:144] Setting up relu5
I0507 02:57:27.509420 31025 net.cpp:151] Top shape: 20 64 5 5 (32000)
I0507 02:57:27.509423 31025 net.cpp:159] Memory required for data: 2952080
I0507 02:57:27.509426 31025 layer_factory.hpp:77] Creating layer pool5
I0507 02:57:27.509431 31025 net.cpp:94] Creating Layer pool5
I0507 02:57:27.509434 31025 net.cpp:435] pool5 <- conv5
I0507 02:57:27.509438 31025 net.cpp:409] pool5 -> pool5
I0507 02:57:27.509477 31025 net.cpp:144] Setting up pool5
I0507 02:57:27.509485 31025 net.cpp:151] Top shape: 20 64 2 2 (5120)
I0507 02:57:27.509488 31025 net.cpp:159] Memory required for data: 2972560
I0507 02:57:27.509491 31025 layer_factory.hpp:77] Creating layer ip1
I0507 02:57:27.509500 31025 net.cpp:94] Creating Layer ip1
I0507 02:57:27.509505 31025 net.cpp:435] ip1 <- pool5
I0507 02:57:27.509508 31025 net.cpp:409] ip1 -> ip1
I0507 02:57:27.510834 31025 net.cpp:144] Setting up ip1
I0507 02:57:27.510848 31025 net.cpp:151] Top shape: 20 64 (1280)
I0507 02:57:27.510851 31025 net.cpp:159] Memory required for data: 2977680
I0507 02:57:27.510857 31025 layer_factory.hpp:77] Creating layer ip2
I0507 02:57:27.510864 31025 net.cpp:94] Creating Layer ip2
I0507 02:57:27.510869 31025 net.cpp:435] ip2 <- ip1
I0507 02:57:27.510874 31025 net.cpp:409] ip2 -> ip2
I0507 02:57:27.511090 31025 net.cpp:144] Setting up ip2
I0507 02:57:27.511096 31025 net.cpp:151] Top shape: 20 64 (1280)
I0507 02:57:27.511099 31025 net.cpp:159] Memory required for data: 2982800
I0507 02:57:27.511106 31025 layer_factory.hpp:77] Creating layer ip3
I0507 02:57:27.511111 31025 net.cpp:94] Creating Layer ip3
I0507 02:57:27.511114 31025 net.cpp:435] ip3 <- ip2
I0507 02:57:27.511118 31025 net.cpp:409] ip3 -> ip3
I0507 02:57:27.511234 31025 net.cpp:144] Setting up ip3
I0507 02:57:27.511241 31025 net.cpp:151] Top shape: 20 1 (20)
I0507 02:57:27.511245 31025 net.cpp:159] Memory required for data: 2982880
I0507 02:57:27.511250 31025 layer_factory.hpp:77] Creating layer loss
I0507 02:57:27.511260 31025 net.cpp:94] Creating Layer loss
I0507 02:57:27.511265 31025 net.cpp:435] loss <- ip3
I0507 02:57:27.511267 31025 net.cpp:435] loss <- label
I0507 02:57:27.511272 31025 net.cpp:409] loss -> loss
I0507 02:57:27.511325 31025 net.cpp:144] Setting up loss
…
I0507 02:57:27.572782 31025 net.cpp:323] The NetState phase (0) differed from the phase (1) specified by a rule in layer intercept
I0507 02:57:27.572798 31025 net.cpp:323] The NetState phase (0) differed from the phase (1) specified by a rule in layer accuracy
I0507 02:57:27.572885 31025 net.cpp:52] Initializing net from parameters: 
state {
  phase: TRAIN
}
layer {
  name: "parameters"
  type: "HDF5Data"
  top: "data"
  top: "label"
  include {
    phase: TRAIN
  }
  hdf5_data_param {
    source: "/home/purduethu/scratch/radon/d/deng106/CNNStatisticalModel/distributions/input/50_distributions_100_sample_size_train-distributions-path.txt"
    batch_size: 20
  }
}
layer {
  name: "conv1"
  type: "Convolution"
  bottom: "data"
  top: "conv1"
  param {
    lr_mult: 1
  }
  param {
    lr_mult: 2
  }
  convolution_param {
    num_output: 64
    pad: 2
    kernel_size: 5
    stride: 1
    weight_filler {
      type: "gaussian"
      std: 0.0001
    }
    bias_filler {
      type: "constant"
    }
  }
}
layer {
  name: "relu1"
  type: "ReLU"
  bottom: "conv1"
  top: "conv1"
}
layer {
  name: "conv2"
  type: "Convolution"
  bottom: "conv1"
  top: "conv2"
  param {
    lr_mult: 1
  }
  param {
    lr_mult: 2
  }
  convolution_param {
    num_output: 64
    pad: 2
    kernel_size: 5
    stride: 1
    weight_filler {
      type: "gaussian"
      std: 0.01
    }
    bias_filler {
      type: "constant"
    }
  }
}
layer {
  name: "relu2"
  type: "ReLU"
  bottom: "conv2"
  top: "conv2"
}
layer {
  name: "pool2"
  type: "Pooling"
  bottom: "conv2"
  top: "pool2"
  pooling_param {
    pool: MAX
    kernel_size: 3
    stride: 2
  }
}
layer {
  name: "conv3"
  type: "Convolution"
  bottom: "pool2"
  top: "conv3"
  param {
    lr_mult: 1
  }
  param {
    lr_mult: 2
  }
  convolution_param {
    num_output: 64
    pad: 2
    kernel_size: 5
    stride: 1
    weight_filler {
      type: "gaussian"
      std: 0.01
    }
    bias_filler {
      type: "constant"
    }
  }
}
layer {
  name: "relu3"
  type: "ReLU"
  bottom: "conv3"
  top: "conv3"
}
layer {
  name: "conv4"
  type: "Convolution"
  bottom: "conv3"
  top: "conv4"
  param {
    lr_mult: 1
  }
  param {
    lr_mult: 2
  }
  convolution_param {
    num_output: 64
    pad: 2
    kernel_size: 5
    stride: 1
    weight_filler {
      type: "gaussian"
      std: 0.01
    }
    bias_filler {
      type: "constant"
    }
  }
}
layer {
  name: "relu4"
  type: "ReLU"
  bottom: "conv4"
  top: "conv4"
}
layer {
  name: "conv5"
  type: "Convolution"
  bottom: "conv4"
  top: "conv5"
  param {
    lr_mult: 1
  }
  param {
    lr_mult: 2
  }
  convolution_param {
    num_output: 64
    pad: 2
    kernel_size: 5
    stride: 1
    weight_filler {
      type: "gaussian"
      std: 0.01
    }
    bias_filler {
      type: "constant"
    }
  }
}
layer {
  name: "relu5"
  type: "ReLU"
  bottom: "conv5"
  top: "conv5"
}
layer {
  name: "pool5"
  type: "Pooling"
  bottom: "conv5"
  top: "pool5"
  pooling_param {
    pool: AVE
    kernel_size: 3
    stride: 2
  }
}
layer {
  name: "ip1"
  type: "InnerProduct"
  bottom: "pool5"
  top: "ip1"
  param {
    lr_mult: 1
  }
  param {
    lr_mult: 2
  }
  inner_product_param {
    num_output: 64
    weight_filler {
      type: "gaussian"
      std: 0.1
    }
    bias_filler {
      type: "constant"
    }
  }
}
layer {
  name: "ip2"
  type: "InnerProduct"
  bottom: "ip1"
  top: "ip2"
  param {
    lr_mult: 1
  }
  param {
    lr_mult: 2
  }
  inner_product_param {
    num_output: 64
    weight_filler {
      type: "gaussian"
      std: 0.1
    }
    bias_filler {
      type: "constant"
    }
  }
}
layer {
  name: "ip3"
  type: "InnerProduct"
  bottom: "ip2"
  top: "ip3"
  param {
    lr_mult: 1
  }
  param {
    lr_mult: 2
  }
  inner_product_param {
    num_output: 50
    weight_filler {
      type: "gaussian"
      std: 0.1
    }
    bias_filler {
      type: "constant"
    }
  }
}
layer {
  name: "loss"
  type: "SoftmaxWithLoss"
  bottom: "ip3"
  bottom: "label"
  top: "loss"
}
I0507 02:57:27.572934 31025 layer_factory.hpp:77] Creating layer parameters
I0507 02:57:27.572942 31025 net.cpp:94] Creating Layer parameters
I0507 02:57:27.572947 31025 net.cpp:409] parameters -> data
I0507 02:57:27.572953 31025 net.cpp:409] parameters -> label
I0507 02:57:27.572959 31025 hdf5_data_layer.cpp:79] Loading list of HDF5 filenames from: /home/purduethu/scratch/radon/d/deng106/CNNStatisticalModel/distributions/input/50_distributions_100_sample_size_train-distributions-path.txt
I0507 02:57:27.572975 31025 hdf5_data_layer.cpp:93] Number of HDF5 files: 1
I0507 02:57:27.729286 31025 hdf5.cpp:35] Datatype class: H5T_INTEGER
I0507 02:57:27.732287 31025 net.cpp:144] Setting up parameters
I0507 02:57:27.732311 31025 net.cpp:151] Top shape: 20 1 10 10 (2000)
I0507 02:57:27.732316 31025 net.cpp:151] Top shape: 20 (20)
I0507 02:57:27.732318 31025 net.cpp:159] Memory required for data: 8080
I0507 02:57:27.732324 31025 layer_factory.hpp:77] Creating layer conv1
I0507 02:57:27.732339 31025 net.cpp:94] Creating Layer conv1
I0507 02:57:27.732343 31025 net.cpp:435] conv1 <- data
I0507 02:57:27.732349 31025 net.cpp:409] conv1 -> conv1
I0507 02:57:27.734094 31025 net.cpp:144] Setting up conv1
I0507 02:57:27.734108 31025 net.cpp:151] Top shape: 20 64 10 10 (128000)
I0507 02:57:27.734112 31025 net.cpp:159] Memory required for data: 520080
I0507 02:57:27.734122 31025 layer_factory.hpp:77] Creating layer relu1
I0507 02:57:27.734129 31025 net.cpp:94] Creating Layer relu1
I0507 02:57:27.734133 31025 net.cpp:435] relu1 <- conv1
I0507 02:57:27.734138 31025 net.cpp:396] relu1 -> conv1 (in-place)
I0507 02:57:27.734144 31025 net.cpp:144] Setting up relu1
I0507 02:57:27.734148 31025 net.cpp:151] Top shape: 20 64 10 10 (128000)
I0507 02:57:27.734151 31025 net.cpp:159] Memory required for data: 1032080
I0507 02:57:27.734154 31025 layer_factory.hpp:77] Creating layer conv2
I0507 02:57:27.734161 31025 net.cpp:94] Creating Layer conv2
I0507 02:57:27.734164 31025 net.cpp:435] conv2 <- conv1
I0507 02:57:27.734169 31025 net.cpp:409] conv2 -> conv2
I0507 02:57:27.739495 31025 net.cpp:144] Setting up conv2
I0507 02:57:27.739508 31025 net.cpp:151] Top shape: 20 64 10 10 (128000)
I0507 02:57:27.739512 31025 net.cpp:159] Memory required for data: 1544080
I0507 02:57:27.739521 31025 layer_factory.hpp:77] Creating layer relu2
I0507 02:57:27.739526 31025 net.cpp:94] Creating Layer relu2
I0507 02:57:27.739531 31025 net.cpp:435] relu2 <- conv2
I0507 02:57:27.739536 31025 net.cpp:396] relu2 -> conv2 (in-place)
I0507 02:57:27.739542 31025 net.cpp:144] Setting up relu2
I0507 02:57:27.739545 31025 net.cpp:151] Top shape: 20 64 10 10 (128000)
I0507 02:57:27.739548 31025 net.cpp:159] Memory required for data: 2056080
I0507 02:57:27.739552 31025 layer_factory.hpp:77] Creating layer pool2
I0507 02:57:27.739557 31025 net.cpp:94] Creating Layer pool2
I0507 02:57:27.739560 31025 net.cpp:435] pool2 <- conv2
I0507 02:57:27.739564 31025 net.cpp:409] pool2 -> pool2
I0507 02:57:27.739620 31025 net.cpp:144] Setting up pool2
I0507 02:57:27.739629 31025 net.cpp:151] Top shape: 20 64 5 5 (32000)
I0507 02:57:27.739631 31025 net.cpp:159] Memory required for data: 2184080
I0507 02:57:27.739634 31025 layer_factory.hpp:77] Creating layer conv3
I0507 02:57:27.739642 31025 net.cpp:94] Creating Layer conv3
I0507 02:57:27.739645 31025 net.cpp:435] conv3 <- pool2
I0507 02:57:27.739650 31025 net.cpp:409] conv3 -> conv3
I0507 02:57:27.745421 31025 net.cpp:144] Setting up conv3
I0507 02:57:27.745435 31025 net.cpp:151] Top shape: 20 64 5 5 (32000)
I0507 02:57:27.745438 31025 net.cpp:159] Memory required for data: 2312080
I0507 02:57:27.745446 31025 layer_factory.hpp:77] Creating layer relu3
I0507 02:57:27.745452 31025 net.cpp:94] Creating Layer relu3
I0507 02:57:27.745456 31025 net.cpp:435] relu3 <- conv3
I0507 02:57:27.745460 31025 net.cpp:396] relu3 -> conv3 (in-place)
I0507 02:57:27.745467 31025 net.cpp:144] Setting up relu3
I0507 02:57:27.745471 31025 net.cpp:151] Top shape: 20 64 5 5 (32000)
I0507 02:57:27.745481 31025 net.cpp:159] Memory required for data: 2440080
I0507 02:57:27.745483 31025 layer_factory.hpp:77] Creating layer conv4
I0507 02:57:27.745492 31025 net.cpp:94] Creating Layer conv4
I0507 02:57:27.745496 31025 net.cpp:435] conv4 <- conv3
I0507 02:57:27.745501 31025 net.cpp:409] conv4 -> conv4
I0507 02:57:27.750411 31025 net.cpp:144] Setting up conv4
I0507 02:57:27.750425 31025 net.cpp:151] Top shape: 20 64 5 5 (32000)
I0507 02:57:27.750429 31025 net.cpp:159] Memory required for data: 2568080
I0507 02:57:27.750435 31025 layer_factory.hpp:77] Creating layer relu4
I0507 02:57:27.750442 31025 net.cpp:94] Creating Layer relu4
I0507 02:57:27.750444 31025 net.cpp:435] relu4 <- conv4
I0507 02:57:27.750449 31025 net.cpp:396] relu4 -> conv4 (in-place)
I0507 02:57:27.750457 31025 net.cpp:144] Setting up relu4
I0507 02:57:27.750460 31025 net.cpp:151] Top shape: 20 64 5 5 (32000)
I0507 02:57:27.750463 31025 net.cpp:159] Memory required for data: 2696080
I0507 02:57:27.750466 31025 layer_factory.hpp:77] Creating layer conv5
I0507 02:57:27.750473 31025 net.cpp:94] Creating Layer conv5
I0507 02:57:27.750476 31025 net.cpp:435] conv5 <- conv4
I0507 02:57:27.750481 31025 net.cpp:409] conv5 -> conv5
I0507 02:57:27.754911 31025 net.cpp:144] Setting up conv5
I0507 02:57:27.754925 31025 net.cpp:151] Top shape: 20 64 5 5 (32000)
I0507 02:57:27.754928 31025 net.cpp:159] Memory required for data: 2824080
I0507 02:57:27.754936 31025 layer_factory.hpp:77] Creating layer relu5
I0507 02:57:27.754942 31025 net.cpp:94] Creating Layer relu5
I0507 02:57:27.754945 31025 net.cpp:435] relu5 <- conv5
I0507 02:57:27.754951 31025 net.cpp:396] relu5 -> conv5 (in-place)
I0507 02:57:27.754957 31025 net.cpp:144] Setting up relu5
I0507 02:57:27.754961 31025 net.cpp:151] Top shape: 20 64 5 5 (32000)
I0507 02:57:27.754964 31025 net.cpp:159] Memory required for data: 2952080
I0507 02:57:27.754967 31025 layer_factory.hpp:77] Creating layer pool5
I0507 02:57:27.754972 31025 net.cpp:94] Creating Layer pool5
I0507 02:57:27.754976 31025 net.cpp:435] pool5 <- conv5
I0507 02:57:27.754979 31025 net.cpp:409] pool5 -> pool5
I0507 02:57:27.755015 31025 net.cpp:144] Setting up pool5
I0507 02:57:27.755023 31025 net.cpp:151] Top shape: 20 64 2 2 (5120)
I0507 02:57:27.755026 31025 net.cpp:159] Memory required for data: 2972560
I0507 02:57:27.755029 31025 layer_factory.hpp:77] Creating layer ip1
I0507 02:57:27.755036 31025 net.cpp:94] Creating Layer ip1
I0507 02:57:27.755039 31025 net.cpp:435] ip1 <- pool5
I0507 02:57:27.755043 31025 net.cpp:409] ip1 -> ip1
I0507 02:57:27.755563 31025 net.cpp:144] Setting up ip1
I0507 02:57:27.755571 31025 net.cpp:151] Top shape: 20 64 (1280)
I0507 02:57:27.755575 31025 net.cpp:159] Memory required for data: 2977680
I0507 02:57:27.755580 31025 layer_factory.hpp:77] Creating layer ip2
I0507 02:57:27.755586 31025 net.cpp:94] Creating Layer ip2
I0507 02:57:27.755589 31025 net.cpp:435] ip2 <- ip1
I0507 02:57:27.755594 31025 net.cpp:409] ip2 -> ip2
I0507 02:57:27.755821 31025 net.cpp:144] Setting up ip2
I0507 02:57:27.755828 31025 net.cpp:151] Top shape: 20 64 (1280)
I0507 02:57:27.755831 31025 net.cpp:159] Memory required for data: 2982800
I0507 02:57:27.755836 31025 layer_factory.hpp:77] Creating layer ip3
I0507 02:57:27.755842 31025 net.cpp:94] Creating Layer ip3
I0507 02:57:27.755846 31025 net.cpp:435] ip3 <- ip2
I0507 02:57:27.755849 31025 net.cpp:409] ip3 -> ip3
I0507 02:57:27.756048 31025 net.cpp:144] Setting up ip3
I0507 02:57:27.756055 31025 net.cpp:151] Top shape: 20 50 (1000)
I0507 02:57:27.756058 31025 net.cpp:159] Memory required for data: 2986800
I0507 02:57:27.756063 31025 layer_factory.hpp:77] Creating layer loss
I0507 02:57:27.756070 31025 net.cpp:94] Creating Layer loss
I0507 02:57:27.756073 31025 net.cpp:435] loss <- ip3
I0507 02:57:27.756077 31025 net.cpp:435] loss <- label
I0507 02:57:27.756081 31025 net.cpp:409] loss -> loss
I0507 02:57:27.756088 31025 layer_factory.hpp:77] Creating layer loss
…
I0507 02:57:27.757454 31025 solver.cpp:181] Creating test net (#0) specified by net file: ./protocol/dis_50_100_dimension.protocol_distribution
I0507 02:57:27.757480 31025 net.cpp:323] The NetState phase (1) differed from the phase (0) specified by a rule in layer parameters
I0507 02:57:27.757573 31025 net.cpp:52] Initializing net from parameters: 
state {
  phase: TEST
}
layer {
  name: "intercept"
  type: "HDF5Data"
  top: "data"
  top: "label"
  include {
    phase: TEST
  }
  hdf5_data_param {
    source: "/home/purduethu/scratch/radon/d/deng106/CNNStatisticalModel/distributions/input/50_distributions_100_sample_size_test-distributions-path.txt"
    batch_size: 20
  }
}
layer {
  name: "conv1"
  type: "Convolution"
  bottom: "data"
  top: "conv1"
  param {
    lr_mult: 1
  }
  param {
    lr_mult: 2
  }
  convolution_param {
    num_output: 64
    pad: 2
    kernel_size: 5
    stride: 1
    weight_filler {
      type: "gaussian"
      std: 0.0001
    }
    bias_filler {
      type: "constant"
    }
  }
}
layer {
  name: "relu1"
  type: "ReLU"
  bottom: "conv1"
  top: "conv1"
}
layer {
  name: "conv2"
  type: "Convolution"
  bottom: "conv1"
  top: "conv2"
  param {
    lr_mult: 1
  }
  param {
    lr_mult: 2
  }
  convolution_param {
    num_output: 64
    pad: 2
    kernel_size: 5
    stride: 1
    weight_filler {
      type: "gaussian"
      std: 0.01
    }
    bias_filler {
      type: "constant"
    }
  }
}
layer {
  name: "relu2"
  type: "ReLU"
  bottom: "conv2"
  top: "conv2"
}
layer {
  name: "pool2"
  type: "Pooling"
  bottom: "conv2"
  top: "pool2"
  pooling_param {
    pool: MAX
    kernel_size: 3
    stride: 2
  }
}
layer {
  name: "conv3"
  type: "Convolution"
  bottom: "pool2"
  top: "conv3"
  param {
    lr_mult: 1
  }
  param {
    lr_mult: 2
  }
  convolution_param {
    num_output: 64
    pad: 2
    kernel_size: 5
    stride: 1
    weight_filler {
      type: "gaussian"
      std: 0.01
    }
    bias_filler {
      type: "constant"
    }
  }
}
layer {
  name: "relu3"
  type: "ReLU"
  bottom: "conv3"
  top: "conv3"
}
layer {
  name: "conv4"
  type: "Convolution"
  bottom: "conv3"
  top: "conv4"
  param {
    lr_mult: 1
  }
  param {
    lr_mult: 2
  }
  convolution_param {
    num_output: 64
    pad: 2
    kernel_size: 5
    stride: 1
    weight_filler {
      type: "gaussian"
      std: 0.01
    }
    bias_filler {
      type: "constant"
    }
  }
}
layer {
  name: "relu4"
  type: "ReLU"
  bottom: "conv4"
  top: "conv4"
}
layer {
  name: "conv5"
  type: "Convolution"
  bottom: "conv4"
  top: "conv5"
  param {
    lr_mult: 1
  }
  param {
    lr_mult: 2
  }
  convolution_param {
    num_output: 64
    pad: 2
    kernel_size: 5
    stride: 1
    weight_filler {
      type: "gaussian"
      std: 0.01
    }
    bias_filler {
      type: "constant"
    }
  }
}
layer {
  name: "relu5"
  type: "ReLU"
  bottom: "conv5"
  top: "conv5"
}
layer {
  name: "pool5"
  type: "Pooling"
  bottom: "conv5"
  top: "pool5"
  pooling_param {
    pool: AVE
    kernel_size: 3
    stride: 2
  }
}
layer {
  name: "ip1"
  type: "InnerProduct"
  bottom: "pool5"
  top: "ip1"
  param {
    lr_mult: 1
  }
  param {
    lr_mult: 2
  }
  inner_product_param {
    num_output: 64
    weight_filler {
      type: "gaussian"
      std: 0.1
    }
    bias_filler {
      type: "constant"
    }
  }
}
layer {
  name: "ip2"
  type: "InnerProduct"
  bottom: "ip1"
  top: "ip2"
  param {
    lr_mult: 1
  }
  param {
    lr_mult: 2
  }
  inner_product_param {
    num_output: 64
    weight_filler {
      type: "gaussian"
      std: 0.1
    }
    bias_filler {
      type: "constant"
    }
  }
}
layer {
  name: "ip3"
  type: "InnerProduct"
  bottom: "ip2"
  top: "ip3"
  param {
    lr_mult: 1
  }
  param {
    lr_mult: 2
  }
  inner_product_param {
    num_output: 50
    weight_filler {
      type: "gaussian"
      std: 0.1
    }
    bias_filler {
      type: "constant"
    }
  }
}
layer {
  name: "accuracy"
  type: "Accuracy"
  bottom: "ip3"
  bottom: "label"
  top: "accuracy"
  include {
    phase: TEST
  }
}
layer {
  name: "loss"
  type: "SoftmaxWithLoss"
  bottom: "ip3"
  bottom: "label"
  top: "loss"
}
I0507 02:57:27.757637 31025 layer_factory.hpp:77] Creating layer intercept
I0507 02:57:27.757645 31025 net.cpp:94] Creating Layer intercept
I0507 02:57:27.757649 31025 net.cpp:409] intercept -> data
I0507 02:57:27.757655 31025 net.cpp:409] intercept -> label
I0507 02:57:27.757661 31025 hdf5_data_layer.cpp:79] Loading list of HDF5 filenames from: /home/purduethu/scratch/radon/d/deng106/CNNStatisticalModel/distributions/input/50_distributions_100_sample_size_test-distributions-path.txt
I0507 02:57:27.757679 31025 hdf5_data_layer.cpp:93] Number of HDF5 files: 1
I0507 02:57:27.799093 31025 net.cpp:144] Setting up intercept
I0507 02:57:27.799125 31025 net.cpp:151] Top shape: 20 1 10 10 (2000)
I0507 02:57:27.799131 31025 net.cpp:151] Top shape: 20 (20)
I0507 02:57:27.799134 31025 net.cpp:159] Memory required for data: 8080
I0507 02:57:27.799140 31025 layer_factory.hpp:77] Creating layer label_intercept_1_split
I0507 02:57:27.799160 31025 net.cpp:94] Creating Layer label_intercept_1_split
I0507 02:57:27.799165 31025 net.cpp:435] label_intercept_1_split <- label
I0507 02:57:27.799170 31025 net.cpp:409] label_intercept_1_split -> label_intercept_1_split_0
I0507 02:57:27.799178 31025 net.cpp:409] label_intercept_1_split -> label_intercept_1_split_1
I0507 02:57:27.799222 31025 net.cpp:144] Setting up label_intercept_1_split
I0507 02:57:27.799228 31025 net.cpp:151] Top shape: 20 (20)
I0507 02:57:27.799232 31025 net.cpp:151] Top shape: 20 (20)
I0507 02:57:27.799235 31025 net.cpp:159] Memory required for data: 8240
I0507 02:57:27.799238 31025 layer_factory.hpp:77] Creating layer conv1
I0507 02:57:27.799249 31025 net.cpp:94] Creating Layer conv1
I0507 02:57:27.799252 31025 net.cpp:435] conv1 <- data
I0507 02:57:27.799257 31025 net.cpp:409] conv1 -> conv1
I0507 02:57:27.800060 31025 net.cpp:144] Setting up conv1
I0507 02:57:27.800072 31025 net.cpp:151] Top shape: 20 64 10 10 (128000)
I0507 02:57:27.800076 31025 net.cpp:159] Memory required for data: 520240
I0507 02:57:27.800086 31025 layer_factory.hpp:77] Creating layer relu1
I0507 02:57:27.800092 31025 net.cpp:94] Creating Layer relu1
I0507 02:57:27.800096 31025 net.cpp:435] relu1 <- conv1
I0507 02:57:27.800101 31025 net.cpp:396] relu1 -> conv1 (in-place)
I0507 02:57:27.800107 31025 net.cpp:144] Setting up relu1
I0507 02:57:27.800112 31025 net.cpp:151] Top shape: 20 64 10 10 (128000)
I0507 02:57:27.800114 31025 net.cpp:159] Memory required for data: 1032240
I0507 02:57:27.800125 31025 layer_factory.hpp:77] Creating layer conv2
I0507 02:57:27.800133 31025 net.cpp:94] Creating Layer conv2
I0507 02:57:27.800137 31025 net.cpp:435] conv2 <- conv1
I0507 02:57:27.800142 31025 net.cpp:409] conv2 -> conv2
I0507 02:57:27.804214 31025 net.cpp:144] Setting up conv2
I0507 02:57:27.804227 31025 net.cpp:151] Top shape: 20 64 10 10 (128000)
I0507 02:57:27.804231 31025 net.cpp:159] Memory required for data: 1544240
I0507 02:57:27.804239 31025 layer_factory.hpp:77] Creating layer relu2
I0507 02:57:27.804245 31025 net.cpp:94] Creating Layer relu2
I0507 02:57:27.804249 31025 net.cpp:435] relu2 <- conv2
I0507 02:57:27.804253 31025 net.cpp:396] relu2 -> conv2 (in-place)
I0507 02:57:27.804260 31025 net.cpp:144] Setting up relu2
I0507 02:57:27.804263 31025 net.cpp:151] Top shape: 20 64 10 10 (128000)
I0507 02:57:27.804266 31025 net.cpp:159] Memory required for data: 2056240
I0507 02:57:27.804270 31025 layer_factory.hpp:77] Creating layer pool2
I0507 02:57:27.804276 31025 net.cpp:94] Creating Layer pool2
I0507 02:57:27.804280 31025 net.cpp:435] pool2 <- conv2
I0507 02:57:27.804285 31025 net.cpp:409] pool2 -> pool2
I0507 02:57:27.804344 31025 net.cpp:144] Setting up pool2
I0507 02:57:27.804352 31025 net.cpp:151] Top shape: 20 64 5 5 (32000)
I0507 02:57:27.804355 31025 net.cpp:159] Memory required for data: 2184240
I0507 02:57:27.804358 31025 layer_factory.hpp:77] Creating layer conv3
I0507 02:57:27.804368 31025 net.cpp:94] Creating Layer conv3
I0507 02:57:27.804371 31025 net.cpp:435] conv3 <- pool2
I0507 02:57:27.804376 31025 net.cpp:409] conv3 -> conv3
I0507 02:57:27.808847 31025 net.cpp:144] Setting up conv3
I0507 02:57:27.808861 31025 net.cpp:151] Top shape: 20 64 5 5 (32000)
I0507 02:57:27.808864 31025 net.cpp:159] Memory required for data: 2312240
I0507 02:57:27.808873 31025 layer_factory.hpp:77] Creating layer relu3
I0507 02:57:27.808881 31025 net.cpp:94] Creating Layer relu3
I0507 02:57:27.808884 31025 net.cpp:435] relu3 <- conv3
I0507 02:57:27.808889 31025 net.cpp:396] relu3 -> conv3 (in-place)
I0507 02:57:27.808897 31025 net.cpp:144] Setting up relu3
I0507 02:57:27.808900 31025 net.cpp:151] Top shape: 20 64 5 5 (32000)
I0507 02:57:27.808903 31025 net.cpp:159] Memory required for data: 2440240
I0507 02:57:27.808907 31025 layer_factory.hpp:77] Creating layer conv4
I0507 02:57:27.808914 31025 net.cpp:94] Creating Layer conv4
I0507 02:57:27.808917 31025 net.cpp:435] conv4 <- conv3
I0507 02:57:27.808923 31025 net.cpp:409] conv4 -> conv4
I0507 02:57:27.812467 31025 net.cpp:144] Setting up conv4
I0507 02:57:27.812480 31025 net.cpp:151] Top shape: 20 64 5 5 (32000)
I0507 02:57:27.812484 31025 net.cpp:159] Memory required for data: 2568240
I0507 02:57:27.812490 31025 layer_factory.hpp:77] Creating layer relu4
I0507 02:57:27.812496 31025 net.cpp:94] Creating Layer relu4
I0507 02:57:27.812500 31025 net.cpp:435] relu4 <- conv4
I0507 02:57:27.812505 31025 net.cpp:396] relu4 -> conv4 (in-place)
I0507 02:57:27.812512 31025 net.cpp:144] Setting up relu4
I0507 02:57:27.812516 31025 net.cpp:151] Top shape: 20 64 5 5 (32000)
I0507 02:57:27.812520 31025 net.cpp:159] Memory required for data: 2696240
I0507 02:57:27.812522 31025 layer_factory.hpp:77] Creating layer conv5
I0507 02:57:27.812528 31025 net.cpp:94] Creating Layer conv5
I0507 02:57:27.812531 31025 net.cpp:435] conv5 <- conv4
I0507 02:57:27.812537 31025 net.cpp:409] conv5 -> conv5
I0507 02:57:27.816545 31025 net.cpp:144] Setting up conv5
I0507 02:57:27.816573 31025 net.cpp:151] Top shape: 20 64 5 5 (32000)
I0507 02:57:27.816578 31025 net.cpp:159] Memory required for data: 2824240
I0507 02:57:27.816586 31025 layer_factory.hpp:77] Creating layer relu5
I0507 02:57:27.816592 31025 net.cpp:94] Creating Layer relu5
I0507 02:57:27.816596 31025 net.cpp:435] relu5 <- conv5
I0507 02:57:27.816601 31025 net.cpp:396] relu5 -> conv5 (in-place)
I0507 02:57:27.816608 31025 net.cpp:144] Setting up relu5
I0507 02:57:27.816612 31025 net.cpp:151] Top shape: 20 64 5 5 (32000)
I0507 02:57:27.816615 31025 net.cpp:159] Memory required for data: 2952240
I0507 02:57:27.816622 31025 layer_factory.hpp:77] Creating layer pool5
I0507 02:57:27.816627 31025 net.cpp:94] Creating Layer pool5
I0507 02:57:27.816630 31025 net.cpp:435] pool5 <- conv5
I0507 02:57:27.816637 31025 net.cpp:409] pool5 -> pool5
I0507 02:57:27.816676 31025 net.cpp:144] Setting up pool5
I0507 02:57:27.816684 31025 net.cpp:151] Top shape: 20 64 2 2 (5120)
I0507 02:57:27.816686 31025 net.cpp:159] Memory required for data: 2972720
I0507 02:57:27.816689 31025 layer_factory.hpp:77] Creating layer ip1
I0507 02:57:27.816696 31025 net.cpp:94] Creating Layer ip1
I0507 02:57:27.816700 31025 net.cpp:435] ip1 <- pool5
I0507 02:57:27.816705 31025 net.cpp:409] ip1 -> ip1
I0507 02:57:27.817237 31025 net.cpp:144] Setting up ip1
I0507 02:57:27.817245 31025 net.cpp:151] Top shape: 20 64 (1280)
I0507 02:57:27.817248 31025 net.cpp:159] Memory required for data: 2977840
I0507 02:57:27.817253 31025 layer_factory.hpp:77] Creating layer ip2
I0507 02:57:27.817260 31025 net.cpp:94] Creating Layer ip2
I0507 02:57:27.817265 31025 net.cpp:435] ip2 <- ip1
I0507 02:57:27.817268 31025 net.cpp:409] ip2 -> ip2
I0507 02:57:27.817503 31025 net.cpp:144] Setting up ip2
I0507 02:57:27.817510 31025 net.cpp:151] Top shape: 20 64 (1280)
I0507 02:57:27.817513 31025 net.cpp:159] Memory required for data: 2982960
I0507 02:57:27.817518 31025 layer_factory.hpp:77] Creating layer ip3
I0507 02:57:27.817526 31025 net.cpp:94] Creating Layer ip3
I0507 02:57:27.817529 31025 net.cpp:435] ip3 <- ip2
I0507 02:57:27.817534 31025 net.cpp:409] ip3 -> ip3
I0507 02:57:27.817744 31025 net.cpp:144] Setting up ip3
I0507 02:57:27.817751 31025 net.cpp:151] Top shape: 20 50 (1000)
I0507 02:57:27.817754 31025 net.cpp:159] Memory required for data: 2986960
I0507 02:57:27.817759 31025 layer_factory.hpp:77] Creating layer ip3_ip3_0_split
I0507 02:57:27.817764 31025 net.cpp:94] Creating Layer ip3_ip3_0_split
I0507 02:57:27.817767 31025 net.cpp:435] ip3_ip3_0_split <- ip3
I0507 02:57:27.817772 31025 net.cpp:409] ip3_ip3_0_split -> ip3_ip3_0_split_0
I0507 02:57:27.817777 31025 net.cpp:409] ip3_ip3_0_split -> ip3_ip3_0_split_1
I0507 02:57:27.817822 31025 net.cpp:144] Setting up ip3_ip3_0_split
I0507 02:57:27.817828 31025 net.cpp:151] Top shape: 20 50 (1000)
I0507 02:57:27.817831 31025 net.cpp:151] Top shape: 20 50 (1000)
I0507 02:57:27.817834 31025 net.cpp:159] Memory required for data: 2994960
I0507 02:57:27.817837 31025 layer_factory.hpp:77] Creating layer accuracy
I0507 02:57:27.817843 31025 net.cpp:94] Creating Layer accuracy
I0507 02:57:27.817847 31025 net.cpp:435] accuracy <- ip3_ip3_0_split_0
I0507 02:57:27.817850 31025 net.cpp:435] accuracy <- label_intercept_1_split_0
I0507 02:57:27.817854 31025 net.cpp:409] accuracy -> accuracy
…
