…
I0502 15:13:21.956699  9781 net.cpp:323] The NetState phase (0) differed from the phase (1) specified by a rule in layer intercept
I0502 15:13:21.956717  9781 net.cpp:323] The NetState phase (0) differed from the phase (1) specified by a rule in layer loss
I0502 15:13:21.956811  9781 net.cpp:52] Initializing net from parameters: 
state {
  phase: TRAIN
}
layer {
  name: "parameters"
  type: "HDF5Data"
  top: "data"
  top: "label"
  include {
    phase: TRAIN
  }
  hdf5_data_param {
    source: "/home/purduethu/scratch/radon/d/deng106/CNNStatisticalModel/distributions/input/20_distributions_100_sample_size_train-parameters-path.txt"
    batch_size: 20
  }
}
layer {
  name: "conv1"
  type: "Convolution"
  bottom: "data"
  top: "conv1"
  param {
    lr_mult: 1
  }
  param {
    lr_mult: 2
  }
  convolution_param {
    num_output: 64
    pad: 2
    kernel_size: 5
    stride: 1
    weight_filler {
      type: "gaussian"
      std: 0.0001
    }
    bias_filler {
      type: "constant"
    }
  }
}
layer {
  name: "relu1"
  type: "ReLU"
  bottom: "conv1"
  top: "conv1"
}
layer {
  name: "conv2"
  type: "Convolution"
  bottom: "conv1"
  top: "conv2"
  param {
    lr_mult: 1
  }
  param {
    lr_mult: 2
  }
  convolution_param {
    num_output: 64
    pad: 2
    kernel_size: 5
    stride: 1
    weight_filler {
      type: "gaussian"
      std: 0.01
    }
    bias_filler {
      type: "constant"
    }
  }
}
layer {
  name: "relu2"
  type: "ReLU"
  bottom: "conv2"
  top: "conv2"
}
layer {
  name: "pool2"
  type: "Pooling"
  bottom: "conv2"
  top: "pool2"
  pooling_param {
    pool: MAX
    kernel_size: 3
    stride: 2
  }
}
layer {
  name: "conv3"
  type: "Convolution"
  bottom: "pool2"
  top: "conv3"
  param {
    lr_mult: 1
  }
  param {
    lr_mult: 2
  }
  convolution_param {
    num_output: 64
    pad: 2
    kernel_size: 5
    stride: 1
    weight_filler {
      type: "gaussian"
      std: 0.01
    }
    bias_filler {
      type: "constant"
    }
  }
}
layer {
  name: "relu3"
  type: "ReLU"
  bottom: "conv3"
  top: "conv3"
}
layer {
  name: "conv4"
  type: "Convolution"
  bottom: "conv3"
  top: "conv4"
  param {
    lr_mult: 1
  }
  param {
    lr_mult: 2
  }
  convolution_param {
    num_output: 64
    pad: 2
    kernel_size: 5
    stride: 1
    weight_filler {
      type: "gaussian"
      std: 0.01
    }
    bias_filler {
      type: "constant"
    }
  }
}
layer {
  name: "relu4"
  type: "ReLU"
  bottom: "conv4"
  top: "conv4"
}
layer {
  name: "conv5"
  type: "Convolution"
  bottom: "conv4"
  top: "conv5"
  param {
    lr_mult: 1
  }
  param {
    lr_mult: 2
  }
  convolution_param {
    num_output: 64
    pad: 2
    kernel_size: 5
    stride: 1
    weight_filler {
      type: "gaussian"
      std: 0.01
    }
    bias_filler {
      type: "constant"
    }
  }
}
layer {
  name: "relu5"
  type: "ReLU"
  bottom: "conv5"
  top: "conv5"
}
layer {
  name: "pool5"
  type: "Pooling"
  bottom: "conv5"
  top: "pool5"
  pooling_param {
    pool: AVE
    kernel_size: 3
    stride: 2
  }
}
layer {
  name: "ip1"
  type: "InnerProduct"
  bottom: "pool5"
  top: "ip1"
  param {
    lr_mult: 1
  }
  param {
    lr_mult: 2
  }
  inner_product_param {
    num_output: 64
    weight_filler {
      type: "gaussian"
      std: 0.1
    }
    bias_filler {
      type: "constant"
    }
  }
}
layer {
  name: "ip2"
  type: "InnerProduct"
  bottom: "ip1"
  top: "ip2"
  param {
    lr_mult: 1
  }
  param {
    lr_mult: 2
  }
  inner_product_param {
    num_output: 64
    weight_filler {
      type: "gaussian"
      std: 0.1
    }
    bias_filler {
      type: "constant"
    }
  }
}
layer {
  name: "ip3"
  type: "InnerProduct"
  bottom: "ip2"
  top: "ip3"
  param {
    lr_mult: 1
  }
  param {
    lr_mult: 2
  }
  inner_product_param {
    num_output: 1
    weight_filler {
      type: "gaussian"
      std: 0.1
    }
    bias_filler {
      type: "constant"
    }
  }
}
layer {
  name: "loss"
  type: "HuberLoss"
  bottom: "ip3"
  bottom: "label"
  top: "loss"
  include {
    phase: TRAIN
  }
}
I0502 15:13:21.956894  9781 layer_factory.hpp:77] Creating layer parameters
I0502 15:13:21.956909  9781 net.cpp:94] Creating Layer parameters
I0502 15:13:21.956915  9781 net.cpp:409] parameters -> data
I0502 15:13:21.956935  9781 net.cpp:409] parameters -> label
I0502 15:13:21.956948  9781 hdf5_data_layer.cpp:79] Loading list of HDF5 filenames from: /home/purduethu/scratch/radon/d/deng106/CNNStatisticalModel/distributions/input/20_distributions_100_sample_size_train-parameters-path.txt
I0502 15:13:21.956970  9781 hdf5_data_layer.cpp:93] Number of HDF5 files: 1
I0502 15:13:21.957613  9781 hdf5.cpp:32] Datatype class: H5T_FLOAT
I0502 15:13:22.028702  9781 net.cpp:144] Setting up parameters
I0502 15:13:22.028733  9781 net.cpp:151] Top shape: 20 1 10 10 (2000)
I0502 15:13:22.028739  9781 net.cpp:151] Top shape: 20 (20)
I0502 15:13:22.028743  9781 net.cpp:159] Memory required for data: 8080
I0502 15:13:22.028749  9781 layer_factory.hpp:77] Creating layer conv1
I0502 15:13:22.028775  9781 net.cpp:94] Creating Layer conv1
I0502 15:13:22.028781  9781 net.cpp:435] conv1 <- data
I0502 15:13:22.028794  9781 net.cpp:409] conv1 -> conv1
I0502 15:13:22.032826  9781 net.cpp:144] Setting up conv1
I0502 15:13:22.032842  9781 net.cpp:151] Top shape: 20 64 10 10 (128000)
I0502 15:13:22.032846  9781 net.cpp:159] Memory required for data: 520080
I0502 15:13:22.032858  9781 layer_factory.hpp:77] Creating layer relu1
I0502 15:13:22.032866  9781 net.cpp:94] Creating Layer relu1
I0502 15:13:22.032871  9781 net.cpp:435] relu1 <- conv1
I0502 15:13:22.032874  9781 net.cpp:396] relu1 -> conv1 (in-place)
I0502 15:13:22.032891  9781 net.cpp:144] Setting up relu1
I0502 15:13:22.032896  9781 net.cpp:151] Top shape: 20 64 10 10 (128000)
I0502 15:13:22.032899  9781 net.cpp:159] Memory required for data: 1032080
I0502 15:13:22.032903  9781 layer_factory.hpp:77] Creating layer conv2
I0502 15:13:22.032910  9781 net.cpp:94] Creating Layer conv2
I0502 15:13:22.032914  9781 net.cpp:435] conv2 <- conv1
I0502 15:13:22.032919  9781 net.cpp:409] conv2 -> conv2
I0502 15:13:22.038172  9781 net.cpp:144] Setting up conv2
I0502 15:13:22.038187  9781 net.cpp:151] Top shape: 20 64 10 10 (128000)
I0502 15:13:22.038192  9781 net.cpp:159] Memory required for data: 1544080
I0502 15:13:22.038199  9781 layer_factory.hpp:77] Creating layer relu2
I0502 15:13:22.038205  9781 net.cpp:94] Creating Layer relu2
I0502 15:13:22.038209  9781 net.cpp:435] relu2 <- conv2
I0502 15:13:22.038214  9781 net.cpp:396] relu2 -> conv2 (in-place)
I0502 15:13:22.038221  9781 net.cpp:144] Setting up relu2
I0502 15:13:22.038226  9781 net.cpp:151] Top shape: 20 64 10 10 (128000)
I0502 15:13:22.038229  9781 net.cpp:159] Memory required for data: 2056080
I0502 15:13:22.038233  9781 layer_factory.hpp:77] Creating layer pool2
I0502 15:13:22.038240  9781 net.cpp:94] Creating Layer pool2
I0502 15:13:22.038250  9781 net.cpp:435] pool2 <- conv2
I0502 15:13:22.038255  9781 net.cpp:409] pool2 -> pool2
I0502 15:13:22.038300  9781 net.cpp:144] Setting up pool2
I0502 15:13:22.038307  9781 net.cpp:151] Top shape: 20 64 5 5 (32000)
I0502 15:13:22.038311  9781 net.cpp:159] Memory required for data: 2184080
I0502 15:13:22.038314  9781 layer_factory.hpp:77] Creating layer conv3
I0502 15:13:22.038322  9781 net.cpp:94] Creating Layer conv3
I0502 15:13:22.038326  9781 net.cpp:435] conv3 <- pool2
I0502 15:13:22.038331  9781 net.cpp:409] conv3 -> conv3
I0502 15:13:22.043944  9781 net.cpp:144] Setting up conv3
I0502 15:13:22.043958  9781 net.cpp:151] Top shape: 20 64 5 5 (32000)
I0502 15:13:22.043963  9781 net.cpp:159] Memory required for data: 2312080
I0502 15:13:22.043972  9781 layer_factory.hpp:77] Creating layer relu3
I0502 15:13:22.043977  9781 net.cpp:94] Creating Layer relu3
I0502 15:13:22.043982  9781 net.cpp:435] relu3 <- conv3
I0502 15:13:22.043987  9781 net.cpp:396] relu3 -> conv3 (in-place)
I0502 15:13:22.043993  9781 net.cpp:144] Setting up relu3
I0502 15:13:22.043998  9781 net.cpp:151] Top shape: 20 64 5 5 (32000)
I0502 15:13:22.044001  9781 net.cpp:159] Memory required for data: 2440080
I0502 15:13:22.044004  9781 layer_factory.hpp:77] Creating layer conv4
I0502 15:13:22.044013  9781 net.cpp:94] Creating Layer conv4
I0502 15:13:22.044016  9781 net.cpp:435] conv4 <- conv3
I0502 15:13:22.044021  9781 net.cpp:409] conv4 -> conv4
I0502 15:13:22.048441  9781 net.cpp:144] Setting up conv4
I0502 15:13:22.048455  9781 net.cpp:151] Top shape: 20 64 5 5 (32000)
I0502 15:13:22.048460  9781 net.cpp:159] Memory required for data: 2568080
I0502 15:13:22.048465  9781 layer_factory.hpp:77] Creating layer relu4
I0502 15:13:22.048471  9781 net.cpp:94] Creating Layer relu4
I0502 15:13:22.048475  9781 net.cpp:435] relu4 <- conv4
I0502 15:13:22.048480  9781 net.cpp:396] relu4 -> conv4 (in-place)
I0502 15:13:22.048487  9781 net.cpp:144] Setting up relu4
I0502 15:13:22.048491  9781 net.cpp:151] Top shape: 20 64 5 5 (32000)
I0502 15:13:22.048494  9781 net.cpp:159] Memory required for data: 2696080
I0502 15:13:22.048497  9781 layer_factory.hpp:77] Creating layer conv5
I0502 15:13:22.048506  9781 net.cpp:94] Creating Layer conv5
I0502 15:13:22.048509  9781 net.cpp:435] conv5 <- conv4
I0502 15:13:22.048513  9781 net.cpp:409] conv5 -> conv5
I0502 15:13:22.054069  9781 net.cpp:144] Setting up conv5
I0502 15:13:22.054082  9781 net.cpp:151] Top shape: 20 64 5 5 (32000)
I0502 15:13:22.054087  9781 net.cpp:159] Memory required for data: 2824080
I0502 15:13:22.054095  9781 layer_factory.hpp:77] Creating layer relu5
I0502 15:13:22.054101  9781 net.cpp:94] Creating Layer relu5
I0502 15:13:22.054105  9781 net.cpp:435] relu5 <- conv5
I0502 15:13:22.054111  9781 net.cpp:396] relu5 -> conv5 (in-place)
I0502 15:13:22.054117  9781 net.cpp:144] Setting up relu5
I0502 15:13:22.054122  9781 net.cpp:151] Top shape: 20 64 5 5 (32000)
I0502 15:13:22.054126  9781 net.cpp:159] Memory required for data: 2952080
I0502 15:13:22.054128  9781 layer_factory.hpp:77] Creating layer pool5
I0502 15:13:22.054133  9781 net.cpp:94] Creating Layer pool5
I0502 15:13:22.054137  9781 net.cpp:435] pool5 <- conv5
I0502 15:13:22.054141  9781 net.cpp:409] pool5 -> pool5
I0502 15:13:22.054174  9781 net.cpp:144] Setting up pool5
I0502 15:13:22.054183  9781 net.cpp:151] Top shape: 20 64 2 2 (5120)
I0502 15:13:22.054185  9781 net.cpp:159] Memory required for data: 2972560
I0502 15:13:22.054188  9781 layer_factory.hpp:77] Creating layer ip1
I0502 15:13:22.054198  9781 net.cpp:94] Creating Layer ip1
I0502 15:13:22.054203  9781 net.cpp:435] ip1 <- pool5
I0502 15:13:22.054208  9781 net.cpp:409] ip1 -> ip1
I0502 15:13:22.055395  9781 net.cpp:144] Setting up ip1
I0502 15:13:22.055408  9781 net.cpp:151] Top shape: 20 64 (1280)
I0502 15:13:22.055413  9781 net.cpp:159] Memory required for data: 2977680
I0502 15:13:22.055418  9781 layer_factory.hpp:77] Creating layer ip2
I0502 15:13:22.055425  9781 net.cpp:94] Creating Layer ip2
I0502 15:13:22.055429  9781 net.cpp:435] ip2 <- ip1
I0502 15:13:22.055438  9781 net.cpp:409] ip2 -> ip2
I0502 15:13:22.055611  9781 net.cpp:144] Setting up ip2
I0502 15:13:22.055619  9781 net.cpp:151] Top shape: 20 64 (1280)
I0502 15:13:22.055621  9781 net.cpp:159] Memory required for data: 2982800
I0502 15:13:22.055627  9781 layer_factory.hpp:77] Creating layer ip3
I0502 15:13:22.055634  9781 net.cpp:94] Creating Layer ip3
I0502 15:13:22.055636  9781 net.cpp:435] ip3 <- ip2
I0502 15:13:22.055641  9781 net.cpp:409] ip3 -> ip3
I0502 15:13:22.055706  9781 net.cpp:144] Setting up ip3
I0502 15:13:22.055711  9781 net.cpp:151] Top shape: 20 1 (20)
I0502 15:13:22.055721  9781 net.cpp:159] Memory required for data: 2982880
I0502 15:13:22.055726  9781 layer_factory.hpp:77] Creating layer loss
I0502 15:13:22.055733  9781 net.cpp:94] Creating Layer loss
I0502 15:13:22.055737  9781 net.cpp:435] loss <- ip3
I0502 15:13:22.055740  9781 net.cpp:435] loss <- label
I0502 15:13:22.055747  9781 net.cpp:409] loss -> loss
I0502 15:13:22.055783  9781 net.cpp:144] Setting up loss
…
