…
I0504 06:17:05.257262 24448 net.cpp:323] The NetState phase (0) differed from the phase (1) specified by a rule in layer intercept
I0504 06:17:05.257278 24448 net.cpp:323] The NetState phase (0) differed from the phase (1) specified by a rule in layer loss
I0504 06:17:05.257356 24448 net.cpp:52] Initializing net from parameters: 
state {
  phase: TRAIN
}
layer {
  name: "parameters"
  type: "HDF5Data"
  top: "data"
  top: "label"
  include {
    phase: TRAIN
  }
  hdf5_data_param {
    source: "/home/purduethu/scratch/radon/d/deng106/CNNStatisticalModel/distributions/input/20_distributions_900_sample_size_train-parameters-path.txt"
    batch_size: 20
  }
}
layer {
  name: "conv1"
  type: "Convolution"
  bottom: "data"
  top: "conv1"
  param {
    lr_mult: 1
  }
  param {
    lr_mult: 2
  }
  convolution_param {
    num_output: 64
    pad: 2
    kernel_size: 5
    stride: 1
    weight_filler {
      type: "gaussian"
      std: 0.0001
    }
    bias_filler {
      type: "constant"
    }
  }
}
layer {
  name: "relu1"
  type: "ReLU"
  bottom: "conv1"
  top: "conv1"
}
layer {
  name: "conv2"
  type: "Convolution"
  bottom: "conv1"
  top: "conv2"
  param {
    lr_mult: 1
  }
  param {
    lr_mult: 2
  }
  convolution_param {
    num_output: 64
    pad: 2
    kernel_size: 5
    stride: 1
    weight_filler {
      type: "gaussian"
      std: 0.01
    }
    bias_filler {
      type: "constant"
    }
  }
}
layer {
  name: "relu2"
  type: "ReLU"
  bottom: "conv2"
  top: "conv2"
}
layer {
  name: "pool2"
  type: "Pooling"
  bottom: "conv2"
  top: "pool2"
  pooling_param {
    pool: MAX
    kernel_size: 3
    stride: 2
  }
}
layer {
  name: "conv3"
  type: "Convolution"
  bottom: "pool2"
  top: "conv3"
  param {
    lr_mult: 1
  }
  param {
    lr_mult: 2
  }
  convolution_param {
    num_output: 128
    pad: 2
    kernel_size: 5
    stride: 1
    weight_filler {
      type: "gaussian"
      std: 0.01
    }
    bias_filler {
      type: "constant"
    }
  }
}
layer {
  name: "relu3"
  type: "ReLU"
  bottom: "conv3"
  top: "conv3"
}
layer {
  name: "conv4"
  type: "Convolution"
  bottom: "conv3"
  top: "conv4"
  param {
    lr_mult: 1
  }
  param {
    lr_mult: 2
  }
  convolution_param {
    num_output: 128
    pad: 2
    kernel_size: 5
    stride: 1
    weight_filler {
      type: "gaussian"
      std: 0.01
    }
    bias_filler {
      type: "constant"
    }
  }
}
layer {
  name: "relu4"
  type: "ReLU"
  bottom: "conv4"
  top: "conv4"
}
layer {
  name: "conv5"
  type: "Convolution"
  bottom: "conv4"
  top: "conv5"
  param {
    lr_mult: 1
  }
  param {
    lr_mult: 2
  }
  convolution_param {
    num_output: 128
    pad: 2
    kernel_size: 5
    stride: 1
    weight_filler {
      type: "gaussian"
      std: 0.01
    }
    bias_filler {
      type: "constant"
    }
  }
}
layer {
  name: "relu5"
  type: "ReLU"
  bottom: "conv5"
  top: "conv5"
}
layer {
  name: "pool5"
  type: "Pooling"
  bottom: "conv5"
  top: "pool5"
  pooling_param {
    pool: AVE
    kernel_size: 3
    stride: 2
  }
}
layer {
  name: "ip1"
  type: "InnerProduct"
  bottom: "pool5"
  top: "ip1"
  param {
    lr_mult: 1
  }
  param {
    lr_mult: 2
  }
  inner_product_param {
    num_output: 1024
    weight_filler {
      type: "gaussian"
      std: 0.1
    }
    bias_filler {
      type: "constant"
    }
  }
}
layer {
  name: "ip2"
  type: "InnerProduct"
  bottom: "ip1"
  top: "ip2"
  param {
    lr_mult: 1
  }
  param {
    lr_mult: 2
  }
  inner_product_param {
    num_output: 512
    weight_filler {
      type: "gaussian"
      std: 0.1
    }
    bias_filler {
      type: "constant"
    }
  }
}
layer {
  name: "ip3"
  type: "InnerProduct"
  bottom: "ip2"
  top: "ip3"
  param {
    lr_mult: 1
  }
  param {
    lr_mult: 2
  }
  inner_product_param {
    num_output: 1
    weight_filler {
      type: "gaussian"
      std: 0.1
    }
    bias_filler {
      type: "constant"
    }
  }
}
layer {
  name: "loss"
  type: "HuberLoss"
  bottom: "ip3"
  bottom: "label"
  top: "loss"
  include {
    phase: TRAIN
  }
}
I0504 06:17:05.257410 24448 layer_factory.hpp:77] Creating layer parameters
I0504 06:17:05.257423 24448 net.cpp:94] Creating Layer parameters
I0504 06:17:05.257428 24448 net.cpp:409] parameters -> data
I0504 06:17:05.257437 24448 net.cpp:409] parameters -> label
I0504 06:17:05.257443 24448 hdf5_data_layer.cpp:79] Loading list of HDF5 filenames from: /home/purduethu/scratch/radon/d/deng106/CNNStatisticalModel/distributions/input/20_distributions_900_sample_size_train-parameters-path.txt
I0504 06:17:05.257458 24448 hdf5_data_layer.cpp:93] Number of HDF5 files: 1
I0504 06:17:05.258025 24448 hdf5.cpp:32] Datatype class: H5T_FLOAT
I0504 06:17:05.842670 24448 net.cpp:144] Setting up parameters
I0504 06:17:05.842702 24448 net.cpp:151] Top shape: 20 1 30 30 (18000)
I0504 06:17:05.842707 24448 net.cpp:151] Top shape: 20 (20)
I0504 06:17:05.842711 24448 net.cpp:159] Memory required for data: 72080
I0504 06:17:05.842717 24448 layer_factory.hpp:77] Creating layer conv1
I0504 06:17:05.842739 24448 net.cpp:94] Creating Layer conv1
I0504 06:17:05.842744 24448 net.cpp:435] conv1 <- data
I0504 06:17:05.842751 24448 net.cpp:409] conv1 -> conv1
I0504 06:17:05.850003 24448 net.cpp:144] Setting up conv1
I0504 06:17:05.850021 24448 net.cpp:151] Top shape: 20 64 30 30 (1152000)
I0504 06:17:05.850026 24448 net.cpp:159] Memory required for data: 4680080
I0504 06:17:05.850038 24448 layer_factory.hpp:77] Creating layer relu1
I0504 06:17:05.850046 24448 net.cpp:94] Creating Layer relu1
I0504 06:17:05.850050 24448 net.cpp:435] relu1 <- conv1
I0504 06:17:05.850055 24448 net.cpp:396] relu1 -> conv1 (in-place)
I0504 06:17:05.850067 24448 net.cpp:144] Setting up relu1
I0504 06:17:05.850072 24448 net.cpp:151] Top shape: 20 64 30 30 (1152000)
I0504 06:17:05.850075 24448 net.cpp:159] Memory required for data: 9288080
I0504 06:17:05.850080 24448 layer_factory.hpp:77] Creating layer conv2
I0504 06:17:05.850087 24448 net.cpp:94] Creating Layer conv2
I0504 06:17:05.850091 24448 net.cpp:435] conv2 <- conv1
I0504 06:17:05.850096 24448 net.cpp:409] conv2 -> conv2
I0504 06:17:05.864984 24448 net.cpp:144] Setting up conv2
I0504 06:17:05.865000 24448 net.cpp:151] Top shape: 20 64 30 30 (1152000)
I0504 06:17:05.865005 24448 net.cpp:159] Memory required for data: 13896080
I0504 06:17:05.865012 24448 layer_factory.hpp:77] Creating layer relu2
I0504 06:17:05.865020 24448 net.cpp:94] Creating Layer relu2
I0504 06:17:05.865023 24448 net.cpp:435] relu2 <- conv2
I0504 06:17:05.865027 24448 net.cpp:396] relu2 -> conv2 (in-place)
I0504 06:17:05.865034 24448 net.cpp:144] Setting up relu2
I0504 06:17:05.865039 24448 net.cpp:151] Top shape: 20 64 30 30 (1152000)
I0504 06:17:05.865042 24448 net.cpp:159] Memory required for data: 18504080
I0504 06:17:05.865046 24448 layer_factory.hpp:77] Creating layer pool2
I0504 06:17:05.865058 24448 net.cpp:94] Creating Layer pool2
I0504 06:17:05.865061 24448 net.cpp:435] pool2 <- conv2
I0504 06:17:05.865067 24448 net.cpp:409] pool2 -> pool2
I0504 06:17:05.865118 24448 net.cpp:144] Setting up pool2
I0504 06:17:05.865125 24448 net.cpp:151] Top shape: 20 64 15 15 (288000)
I0504 06:17:05.865128 24448 net.cpp:159] Memory required for data: 19656080
I0504 06:17:05.865133 24448 layer_factory.hpp:77] Creating layer conv3
I0504 06:17:05.865140 24448 net.cpp:94] Creating Layer conv3
I0504 06:17:05.865144 24448 net.cpp:435] conv3 <- pool2
I0504 06:17:05.865149 24448 net.cpp:409] conv3 -> conv3
I0504 06:17:05.877696 24448 net.cpp:144] Setting up conv3
I0504 06:17:05.877712 24448 net.cpp:151] Top shape: 20 128 15 15 (576000)
I0504 06:17:05.877717 24448 net.cpp:159] Memory required for data: 21960080
I0504 06:17:05.877725 24448 layer_factory.hpp:77] Creating layer relu3
I0504 06:17:05.877732 24448 net.cpp:94] Creating Layer relu3
I0504 06:17:05.877735 24448 net.cpp:435] relu3 <- conv3
I0504 06:17:05.877740 24448 net.cpp:396] relu3 -> conv3 (in-place)
I0504 06:17:05.877748 24448 net.cpp:144] Setting up relu3
I0504 06:17:05.877753 24448 net.cpp:151] Top shape: 20 128 15 15 (576000)
I0504 06:17:05.877755 24448 net.cpp:159] Memory required for data: 24264080
I0504 06:17:05.877758 24448 layer_factory.hpp:77] Creating layer conv4
I0504 06:17:05.877768 24448 net.cpp:94] Creating Layer conv4
I0504 06:17:05.877771 24448 net.cpp:435] conv4 <- conv3
I0504 06:17:05.877776 24448 net.cpp:409] conv4 -> conv4
I0504 06:17:05.899607 24448 net.cpp:144] Setting up conv4
I0504 06:17:05.899627 24448 net.cpp:151] Top shape: 20 128 15 15 (576000)
I0504 06:17:05.899632 24448 net.cpp:159] Memory required for data: 26568080
I0504 06:17:05.899639 24448 layer_factory.hpp:77] Creating layer relu4
I0504 06:17:05.899646 24448 net.cpp:94] Creating Layer relu4
I0504 06:17:05.899651 24448 net.cpp:435] relu4 <- conv4
I0504 06:17:05.899655 24448 net.cpp:396] relu4 -> conv4 (in-place)
I0504 06:17:05.899662 24448 net.cpp:144] Setting up relu4
I0504 06:17:05.899667 24448 net.cpp:151] Top shape: 20 128 15 15 (576000)
I0504 06:17:05.899670 24448 net.cpp:159] Memory required for data: 28872080
I0504 06:17:05.899673 24448 layer_factory.hpp:77] Creating layer conv5
I0504 06:17:05.899682 24448 net.cpp:94] Creating Layer conv5
I0504 06:17:05.899685 24448 net.cpp:435] conv5 <- conv4
I0504 06:17:05.899690 24448 net.cpp:409] conv5 -> conv5
I0504 06:17:05.923267 24448 net.cpp:144] Setting up conv5
I0504 06:17:05.923287 24448 net.cpp:151] Top shape: 20 128 15 15 (576000)
I0504 06:17:05.923291 24448 net.cpp:159] Memory required for data: 31176080
I0504 06:17:05.923302 24448 layer_factory.hpp:77] Creating layer relu5
I0504 06:17:05.923310 24448 net.cpp:94] Creating Layer relu5
I0504 06:17:05.923315 24448 net.cpp:435] relu5 <- conv5
I0504 06:17:05.923319 24448 net.cpp:396] relu5 -> conv5 (in-place)
I0504 06:17:05.923326 24448 net.cpp:144] Setting up relu5
I0504 06:17:05.923331 24448 net.cpp:151] Top shape: 20 128 15 15 (576000)
I0504 06:17:05.923334 24448 net.cpp:159] Memory required for data: 33480080
I0504 06:17:05.923337 24448 layer_factory.hpp:77] Creating layer pool5
I0504 06:17:05.923343 24448 net.cpp:94] Creating Layer pool5
I0504 06:17:05.923346 24448 net.cpp:435] pool5 <- conv5
I0504 06:17:05.923351 24448 net.cpp:409] pool5 -> pool5
I0504 06:17:05.923393 24448 net.cpp:144] Setting up pool5
I0504 06:17:05.923400 24448 net.cpp:151] Top shape: 20 128 7 7 (125440)
I0504 06:17:05.923403 24448 net.cpp:159] Memory required for data: 33981840
I0504 06:17:05.923408 24448 layer_factory.hpp:77] Creating layer ip1
I0504 06:17:05.923418 24448 net.cpp:94] Creating Layer ip1
I0504 06:17:05.923421 24448 net.cpp:435] ip1 <- pool5
I0504 06:17:05.923426 24448 net.cpp:409] ip1 -> ip1
I0504 06:17:06.079288 24448 net.cpp:144] Setting up ip1
I0504 06:17:06.079324 24448 net.cpp:151] Top shape: 20 1024 (20480)
I0504 06:17:06.079329 24448 net.cpp:159] Memory required for data: 34063760
I0504 06:17:06.079337 24448 layer_factory.hpp:77] Creating layer ip2
I0504 06:17:06.079349 24448 net.cpp:94] Creating Layer ip2
I0504 06:17:06.079362 24448 net.cpp:435] ip2 <- ip1
I0504 06:17:06.079370 24448 net.cpp:409] ip2 -> ip2
I0504 06:17:06.092536 24448 net.cpp:144] Setting up ip2
I0504 06:17:06.092567 24448 net.cpp:151] Top shape: 20 512 (10240)
I0504 06:17:06.092572 24448 net.cpp:159] Memory required for data: 34104720
I0504 06:17:06.092579 24448 layer_factory.hpp:77] Creating layer ip3
I0504 06:17:06.092587 24448 net.cpp:94] Creating Layer ip3
I0504 06:17:06.092592 24448 net.cpp:435] ip3 <- ip2
I0504 06:17:06.092597 24448 net.cpp:409] ip3 -> ip3
I0504 06:17:06.092710 24448 net.cpp:144] Setting up ip3
I0504 06:17:06.092717 24448 net.cpp:151] Top shape: 20 1 (20)
I0504 06:17:06.092720 24448 net.cpp:159] Memory required for data: 34104800
I0504 06:17:06.092725 24448 layer_factory.hpp:77] Creating layer loss
I0504 06:17:06.092734 24448 net.cpp:94] Creating Layer loss
I0504 06:17:06.092738 24448 net.cpp:435] loss <- ip3
I0504 06:17:06.092742 24448 net.cpp:435] loss <- label
I0504 06:17:06.092746 24448 net.cpp:409] loss -> loss
I0504 06:17:06.092803 24448 net.cpp:144] Setting up loss
…
I0504 06:17:06.461933 24448 net.cpp:323] The NetState phase (0) differed from the phase (1) specified by a rule in layer intercept
I0504 06:17:06.461948 24448 net.cpp:323] The NetState phase (0) differed from the phase (1) specified by a rule in layer accuracy
I0504 06:17:06.462033 24448 net.cpp:52] Initializing net from parameters: 
state {
  phase: TRAIN
}
layer {
  name: "parameters"
  type: "HDF5Data"
  top: "data"
  top: "label"
  include {
    phase: TRAIN
  }
  hdf5_data_param {
    source: "/home/purduethu/scratch/radon/d/deng106/CNNStatisticalModel/distributions/input/20_distributions_900_sample_size_train-distributions-path.txt"
    batch_size: 20
  }
}
layer {
  name: "conv1"
  type: "Convolution"
  bottom: "data"
  top: "conv1"
  param {
    lr_mult: 1
  }
  param {
    lr_mult: 2
  }
  convolution_param {
    num_output: 64
    pad: 2
    kernel_size: 5
    stride: 1
    weight_filler {
      type: "gaussian"
      std: 0.0001
    }
    bias_filler {
      type: "constant"
    }
  }
}
layer {
  name: "relu1"
  type: "ReLU"
  bottom: "conv1"
  top: "conv1"
}
layer {
  name: "conv2"
  type: "Convolution"
  bottom: "conv1"
  top: "conv2"
  param {
    lr_mult: 1
  }
  param {
    lr_mult: 2
  }
  convolution_param {
    num_output: 64
    pad: 2
    kernel_size: 5
    stride: 1
    weight_filler {
      type: "gaussian"
      std: 0.01
    }
    bias_filler {
      type: "constant"
    }
  }
}
layer {
  name: "relu2"
  type: "ReLU"
  bottom: "conv2"
  top: "conv2"
}
layer {
  name: "pool2"
  type: "Pooling"
  bottom: "conv2"
  top: "pool2"
  pooling_param {
    pool: MAX
    kernel_size: 3
    stride: 2
  }
}
layer {
  name: "conv3"
  type: "Convolution"
  bottom: "pool2"
  top: "conv3"
  param {
    lr_mult: 1
  }
  param {
    lr_mult: 2
  }
  convolution_param {
    num_output: 128
    pad: 2
    kernel_size: 5
    stride: 1
    weight_filler {
      type: "gaussian"
      std: 0.01
    }
    bias_filler {
      type: "constant"
    }
  }
}
layer {
  name: "relu3"
  type: "ReLU"
  bottom: "conv3"
  top: "conv3"
}
layer {
  name: "conv4"
  type: "Convolution"
  bottom: "conv3"
  top: "conv4"
  param {
    lr_mult: 1
  }
  param {
    lr_mult: 2
  }
  convolution_param {
    num_output: 128
    pad: 2
    kernel_size: 5
    stride: 1
    weight_filler {
      type: "gaussian"
      std: 0.01
    }
    bias_filler {
      type: "constant"
    }
  }
}
layer {
  name: "relu4"
  type: "ReLU"
  bottom: "conv4"
  top: "conv4"
}
layer {
  name: "conv5"
  type: "Convolution"
  bottom: "conv4"
  top: "conv5"
  param {
    lr_mult: 1
  }
  param {
    lr_mult: 2
  }
  convolution_param {
    num_output: 128
    pad: 2
    kernel_size: 5
    stride: 1
    weight_filler {
      type: "gaussian"
      std: 0.01
    }
    bias_filler {
      type: "constant"
    }
  }
}
layer {
  name: "relu5"
  type: "ReLU"
  bottom: "conv5"
  top: "conv5"
}
layer {
  name: "pool5"
  type: "Pooling"
  bottom: "conv5"
  top: "pool5"
  pooling_param {
    pool: AVE
    kernel_size: 3
    stride: 2
  }
}
layer {
  name: "ip1"
  type: "InnerProduct"
  bottom: "pool5"
  top: "ip1"
  param {
    lr_mult: 1
  }
  param {
    lr_mult: 2
  }
  inner_product_param {
    num_output: 1024
    weight_filler {
      type: "gaussian"
      std: 0.1
    }
    bias_filler {
      type: "constant"
    }
  }
}
layer {
  name: "ip2"
  type: "InnerProduct"
  bottom: "ip1"
  top: "ip2"
  param {
    lr_mult: 1
  }
  param {
    lr_mult: 2
  }
  inner_product_param {
    num_output: 512
    weight_filler {
      type: "gaussian"
      std: 0.1
    }
    bias_filler {
      type: "constant"
    }
  }
}
layer {
  name: "ip3"
  type: "InnerProduct"
  bottom: "ip2"
  top: "ip3"
  param {
    lr_mult: 1
  }
  param {
    lr_mult: 2
  }
  inner_product_param {
    num_output: 50
    weight_filler {
      type: "gaussian"
      std: 0.1
    }
    bias_filler {
      type: "constant"
    }
  }
}
layer {
  name: "loss"
  type: "SoftmaxWithLoss"
  bottom: "ip3"
  bottom: "label"
  top: "loss"
}
I0504 06:17:06.462085 24448 layer_factory.hpp:77] Creating layer parameters
I0504 06:17:06.462095 24448 net.cpp:94] Creating Layer parameters
I0504 06:17:06.462098 24448 net.cpp:409] parameters -> data
I0504 06:17:06.462105 24448 net.cpp:409] parameters -> label
I0504 06:17:06.462110 24448 hdf5_data_layer.cpp:79] Loading list of HDF5 filenames from: /home/purduethu/scratch/radon/d/deng106/CNNStatisticalModel/distributions/input/20_distributions_900_sample_size_train-distributions-path.txt
I0504 06:17:06.462126 24448 hdf5_data_layer.cpp:93] Number of HDF5 files: 1
I0504 06:17:07.044754 24448 hdf5.cpp:35] Datatype class: H5T_INTEGER
I0504 06:17:07.045838 24448 net.cpp:144] Setting up parameters
I0504 06:17:07.045855 24448 net.cpp:151] Top shape: 20 1 30 30 (18000)
I0504 06:17:07.045859 24448 net.cpp:151] Top shape: 20 (20)
I0504 06:17:07.045863 24448 net.cpp:159] Memory required for data: 72080
I0504 06:17:07.045869 24448 layer_factory.hpp:77] Creating layer conv1
I0504 06:17:07.045886 24448 net.cpp:94] Creating Layer conv1
I0504 06:17:07.045891 24448 net.cpp:435] conv1 <- data
I0504 06:17:07.045897 24448 net.cpp:409] conv1 -> conv1
I0504 06:17:07.050521 24448 net.cpp:144] Setting up conv1
I0504 06:17:07.050559 24448 net.cpp:151] Top shape: 20 64 30 30 (1152000)
I0504 06:17:07.050570 24448 net.cpp:159] Memory required for data: 4680080
I0504 06:17:07.050596 24448 layer_factory.hpp:77] Creating layer relu1
I0504 06:17:07.050616 24448 net.cpp:94] Creating Layer relu1
I0504 06:17:07.050626 24448 net.cpp:435] relu1 <- conv1
I0504 06:17:07.050638 24448 net.cpp:396] relu1 -> conv1 (in-place)
I0504 06:17:07.050659 24448 net.cpp:144] Setting up relu1
I0504 06:17:07.050673 24448 net.cpp:151] Top shape: 20 64 30 30 (1152000)
I0504 06:17:07.050681 24448 net.cpp:159] Memory required for data: 9288080
I0504 06:17:07.050690 24448 layer_factory.hpp:77] Creating layer conv2
I0504 06:17:07.050711 24448 net.cpp:94] Creating Layer conv2
I0504 06:17:07.050721 24448 net.cpp:435] conv2 <- conv1
I0504 06:17:07.050735 24448 net.cpp:409] conv2 -> conv2
I0504 06:17:07.066644 24448 net.cpp:144] Setting up conv2
I0504 06:17:07.066687 24448 net.cpp:151] Top shape: 20 64 30 30 (1152000)
I0504 06:17:07.066699 24448 net.cpp:159] Memory required for data: 13896080
I0504 06:17:07.066722 24448 layer_factory.hpp:77] Creating layer relu2
I0504 06:17:07.066741 24448 net.cpp:94] Creating Layer relu2
I0504 06:17:07.066752 24448 net.cpp:435] relu2 <- conv2
I0504 06:17:07.066766 24448 net.cpp:396] relu2 -> conv2 (in-place)
I0504 06:17:07.066786 24448 net.cpp:144] Setting up relu2
I0504 06:17:07.066798 24448 net.cpp:151] Top shape: 20 64 30 30 (1152000)
I0504 06:17:07.066807 24448 net.cpp:159] Memory required for data: 18504080
I0504 06:17:07.066817 24448 layer_factory.hpp:77] Creating layer pool2
I0504 06:17:07.066831 24448 net.cpp:94] Creating Layer pool2
I0504 06:17:07.066840 24448 net.cpp:435] pool2 <- conv2
I0504 06:17:07.066853 24448 net.cpp:409] pool2 -> pool2
I0504 06:17:07.066990 24448 net.cpp:144] Setting up pool2
I0504 06:17:07.067009 24448 net.cpp:151] Top shape: 20 64 15 15 (288000)
I0504 06:17:07.067018 24448 net.cpp:159] Memory required for data: 19656080
I0504 06:17:07.067028 24448 layer_factory.hpp:77] Creating layer conv3
I0504 06:17:07.067049 24448 net.cpp:94] Creating Layer conv3
I0504 06:17:07.067071 24448 net.cpp:435] conv3 <- pool2
I0504 06:17:07.067086 24448 net.cpp:409] conv3 -> conv3
I0504 06:17:07.080623 24448 net.cpp:144] Setting up conv3
I0504 06:17:07.080641 24448 net.cpp:151] Top shape: 20 128 15 15 (576000)
I0504 06:17:07.080646 24448 net.cpp:159] Memory required for data: 21960080
I0504 06:17:07.080654 24448 layer_factory.hpp:77] Creating layer relu3
I0504 06:17:07.080662 24448 net.cpp:94] Creating Layer relu3
I0504 06:17:07.080664 24448 net.cpp:435] relu3 <- conv3
I0504 06:17:07.080669 24448 net.cpp:396] relu3 -> conv3 (in-place)
I0504 06:17:07.080677 24448 net.cpp:144] Setting up relu3
I0504 06:17:07.080682 24448 net.cpp:151] Top shape: 20 128 15 15 (576000)
I0504 06:17:07.080685 24448 net.cpp:159] Memory required for data: 24264080
I0504 06:17:07.080688 24448 layer_factory.hpp:77] Creating layer conv4
I0504 06:17:07.080698 24448 net.cpp:94] Creating Layer conv4
I0504 06:17:07.080701 24448 net.cpp:435] conv4 <- conv3
I0504 06:17:07.080706 24448 net.cpp:409] conv4 -> conv4
I0504 06:17:07.103832 24448 net.cpp:144] Setting up conv4
I0504 06:17:07.103850 24448 net.cpp:151] Top shape: 20 128 15 15 (576000)
I0504 06:17:07.103854 24448 net.cpp:159] Memory required for data: 26568080
I0504 06:17:07.103863 24448 layer_factory.hpp:77] Creating layer relu4
I0504 06:17:07.103870 24448 net.cpp:94] Creating Layer relu4
I0504 06:17:07.103874 24448 net.cpp:435] relu4 <- conv4
I0504 06:17:07.103879 24448 net.cpp:396] relu4 -> conv4 (in-place)
I0504 06:17:07.103886 24448 net.cpp:144] Setting up relu4
I0504 06:17:07.103891 24448 net.cpp:151] Top shape: 20 128 15 15 (576000)
I0504 06:17:07.103894 24448 net.cpp:159] Memory required for data: 28872080
I0504 06:17:07.103898 24448 layer_factory.hpp:77] Creating layer conv5
I0504 06:17:07.103905 24448 net.cpp:94] Creating Layer conv5
I0504 06:17:07.103909 24448 net.cpp:435] conv5 <- conv4
I0504 06:17:07.103914 24448 net.cpp:409] conv5 -> conv5
I0504 06:17:07.126492 24448 net.cpp:144] Setting up conv5
I0504 06:17:07.126534 24448 net.cpp:151] Top shape: 20 128 15 15 (576000)
I0504 06:17:07.126546 24448 net.cpp:159] Memory required for data: 31176080
I0504 06:17:07.126571 24448 layer_factory.hpp:77] Creating layer relu5
I0504 06:17:07.126588 24448 net.cpp:94] Creating Layer relu5
I0504 06:17:07.126600 24448 net.cpp:435] relu5 <- conv5
I0504 06:17:07.126613 24448 net.cpp:396] relu5 -> conv5 (in-place)
I0504 06:17:07.126632 24448 net.cpp:144] Setting up relu5
I0504 06:17:07.126646 24448 net.cpp:151] Top shape: 20 128 15 15 (576000)
I0504 06:17:07.126655 24448 net.cpp:159] Memory required for data: 33480080
I0504 06:17:07.126664 24448 layer_factory.hpp:77] Creating layer pool5
I0504 06:17:07.126677 24448 net.cpp:94] Creating Layer pool5
I0504 06:17:07.126688 24448 net.cpp:435] pool5 <- conv5
I0504 06:17:07.126699 24448 net.cpp:409] pool5 -> pool5
I0504 06:17:07.126794 24448 net.cpp:144] Setting up pool5
I0504 06:17:07.126812 24448 net.cpp:151] Top shape: 20 128 7 7 (125440)
I0504 06:17:07.126821 24448 net.cpp:159] Memory required for data: 33981840
I0504 06:17:07.126832 24448 layer_factory.hpp:77] Creating layer ip1
I0504 06:17:07.126847 24448 net.cpp:94] Creating Layer ip1
I0504 06:17:07.126857 24448 net.cpp:435] ip1 <- pool5
I0504 06:17:07.126870 24448 net.cpp:409] ip1 -> ip1
I0504 06:17:07.283084 24448 net.cpp:144] Setting up ip1
I0504 06:17:07.283118 24448 net.cpp:151] Top shape: 20 1024 (20480)
I0504 06:17:07.283121 24448 net.cpp:159] Memory required for data: 34063760
I0504 06:17:07.283131 24448 layer_factory.hpp:77] Creating layer ip2
I0504 06:17:07.283141 24448 net.cpp:94] Creating Layer ip2
I0504 06:17:07.283146 24448 net.cpp:435] ip2 <- ip1
I0504 06:17:07.283154 24448 net.cpp:409] ip2 -> ip2
I0504 06:17:07.296427 24448 net.cpp:144] Setting up ip2
I0504 06:17:07.296444 24448 net.cpp:151] Top shape: 20 512 (10240)
I0504 06:17:07.296448 24448 net.cpp:159] Memory required for data: 34104720
I0504 06:17:07.296455 24448 layer_factory.hpp:77] Creating layer ip3
I0504 06:17:07.296463 24448 net.cpp:94] Creating Layer ip3
I0504 06:17:07.296466 24448 net.cpp:435] ip3 <- ip2
I0504 06:17:07.296478 24448 net.cpp:409] ip3 -> ip3
I0504 06:17:07.297255 24448 net.cpp:144] Setting up ip3
I0504 06:17:07.297264 24448 net.cpp:151] Top shape: 20 50 (1000)
I0504 06:17:07.297267 24448 net.cpp:159] Memory required for data: 34108720
I0504 06:17:07.297273 24448 layer_factory.hpp:77] Creating layer loss
I0504 06:17:07.297281 24448 net.cpp:94] Creating Layer loss
I0504 06:17:07.297284 24448 net.cpp:435] loss <- ip3
I0504 06:17:07.297288 24448 net.cpp:435] loss <- label
I0504 06:17:07.297292 24448 net.cpp:409] loss -> loss
I0504 06:17:07.297300 24448 layer_factory.hpp:77] Creating layer loss
…
I0504 06:17:07.297814 24448 solver.cpp:181] Creating test net (#0) specified by net file: ./protocol/dis_20_900_dimension.protocol_distribution
I0504 06:17:07.297839 24448 net.cpp:323] The NetState phase (1) differed from the phase (0) specified by a rule in layer parameters
I0504 06:17:07.297930 24448 net.cpp:52] Initializing net from parameters: 
state {
  phase: TEST
}
layer {
  name: "intercept"
  type: "HDF5Data"
  top: "data"
  top: "label"
  include {
    phase: TEST
  }
  hdf5_data_param {
    source: "/home/purduethu/scratch/radon/d/deng106/CNNStatisticalModel/distributions/input/20_distributions_900_sample_size_test-distributions-path.txt"
    batch_size: 20
  }
}
layer {
  name: "conv1"
  type: "Convolution"
  bottom: "data"
  top: "conv1"
  param {
    lr_mult: 1
  }
  param {
    lr_mult: 2
  }
  convolution_param {
    num_output: 64
    pad: 2
    kernel_size: 5
    stride: 1
    weight_filler {
      type: "gaussian"
      std: 0.0001
    }
    bias_filler {
      type: "constant"
    }
  }
}
layer {
  name: "relu1"
  type: "ReLU"
  bottom: "conv1"
  top: "conv1"
}
layer {
  name: "conv2"
  type: "Convolution"
  bottom: "conv1"
  top: "conv2"
  param {
    lr_mult: 1
  }
  param {
    lr_mult: 2
  }
  convolution_param {
    num_output: 64
    pad: 2
    kernel_size: 5
    stride: 1
    weight_filler {
      type: "gaussian"
      std: 0.01
    }
    bias_filler {
      type: "constant"
    }
  }
}
layer {
  name: "relu2"
  type: "ReLU"
  bottom: "conv2"
  top: "conv2"
}
layer {
  name: "pool2"
  type: "Pooling"
  bottom: "conv2"
  top: "pool2"
  pooling_param {
    pool: MAX
    kernel_size: 3
    stride: 2
  }
}
layer {
  name: "conv3"
  type: "Convolution"
  bottom: "pool2"
  top: "conv3"
  param {
    lr_mult: 1
  }
  param {
    lr_mult: 2
  }
  convolution_param {
    num_output: 128
    pad: 2
    kernel_size: 5
    stride: 1
    weight_filler {
      type: "gaussian"
      std: 0.01
    }
    bias_filler {
      type: "constant"
    }
  }
}
layer {
  name: "relu3"
  type: "ReLU"
  bottom: "conv3"
  top: "conv3"
}
layer {
  name: "conv4"
  type: "Convolution"
  bottom: "conv3"
  top: "conv4"
  param {
    lr_mult: 1
  }
  param {
    lr_mult: 2
  }
  convolution_param {
    num_output: 128
    pad: 2
    kernel_size: 5
    stride: 1
    weight_filler {
      type: "gaussian"
      std: 0.01
    }
    bias_filler {
      type: "constant"
    }
  }
}
layer {
  name: "relu4"
  type: "ReLU"
  bottom: "conv4"
  top: "conv4"
}
layer {
  name: "conv5"
  type: "Convolution"
  bottom: "conv4"
  top: "conv5"
  param {
    lr_mult: 1
  }
  param {
    lr_mult: 2
  }
  convolution_param {
    num_output: 128
    pad: 2
    kernel_size: 5
    stride: 1
    weight_filler {
      type: "gaussian"
      std: 0.01
    }
    bias_filler {
      type: "constant"
    }
  }
}
layer {
  name: "relu5"
  type: "ReLU"
  bottom: "conv5"
  top: "conv5"
}
layer {
  name: "pool5"
  type: "Pooling"
  bottom: "conv5"
  top: "pool5"
  pooling_param {
    pool: AVE
    kernel_size: 3
    stride: 2
  }
}
layer {
  name: "ip1"
  type: "InnerProduct"
  bottom: "pool5"
  top: "ip1"
  param {
    lr_mult: 1
  }
  param {
    lr_mult: 2
  }
  inner_product_param {
    num_output: 1024
    weight_filler {
      type: "gaussian"
      std: 0.1
    }
    bias_filler {
      type: "constant"
    }
  }
}
layer {
  name: "ip2"
  type: "InnerProduct"
  bottom: "ip1"
  top: "ip2"
  param {
    lr_mult: 1
  }
  param {
    lr_mult: 2
  }
  inner_product_param {
    num_output: 512
    weight_filler {
      type: "gaussian"
      std: 0.1
    }
    bias_filler {
      type: "constant"
    }
  }
}
layer {
  name: "ip3"
  type: "InnerProduct"
  bottom: "ip2"
  top: "ip3"
  param {
    lr_mult: 1
  }
  param {
    lr_mult: 2
  }
  inner_product_param {
    num_output: 50
    weight_filler {
      type: "gaussian"
      std: 0.1
    }
    bias_filler {
      type: "constant"
    }
  }
}
layer {
  name: "accuracy"
  type: "Accuracy"
  bottom: "ip3"
  bottom: "label"
  top: "accuracy"
  include {
    phase: TEST
  }
}
layer {
  name: "loss"
  type: "SoftmaxWithLoss"
  bottom: "ip3"
  bottom: "label"
  top: "loss"
}
I0504 06:17:07.297998 24448 layer_factory.hpp:77] Creating layer intercept
I0504 06:17:07.298007 24448 net.cpp:94] Creating Layer intercept
I0504 06:17:07.298012 24448 net.cpp:409] intercept -> data
I0504 06:17:07.298019 24448 net.cpp:409] intercept -> label
I0504 06:17:07.298024 24448 hdf5_data_layer.cpp:79] Loading list of HDF5 filenames from: /home/purduethu/scratch/radon/d/deng106/CNNStatisticalModel/distributions/input/20_distributions_900_sample_size_test-distributions-path.txt
I0504 06:17:07.298044 24448 hdf5_data_layer.cpp:93] Number of HDF5 files: 1
I0504 06:17:07.449472 24448 net.cpp:144] Setting up intercept
I0504 06:17:07.449507 24448 net.cpp:151] Top shape: 20 1 30 30 (18000)
I0504 06:17:07.449513 24448 net.cpp:151] Top shape: 20 (20)
I0504 06:17:07.449517 24448 net.cpp:159] Memory required for data: 72080
I0504 06:17:07.449522 24448 layer_factory.hpp:77] Creating layer label_intercept_1_split
I0504 06:17:07.449540 24448 net.cpp:94] Creating Layer label_intercept_1_split
I0504 06:17:07.449546 24448 net.cpp:435] label_intercept_1_split <- label
I0504 06:17:07.449553 24448 net.cpp:409] label_intercept_1_split -> label_intercept_1_split_0
I0504 06:17:07.449560 24448 net.cpp:409] label_intercept_1_split -> label_intercept_1_split_1
I0504 06:17:07.449604 24448 net.cpp:144] Setting up label_intercept_1_split
I0504 06:17:07.449610 24448 net.cpp:151] Top shape: 20 (20)
I0504 06:17:07.449615 24448 net.cpp:151] Top shape: 20 (20)
I0504 06:17:07.449617 24448 net.cpp:159] Memory required for data: 72240
I0504 06:17:07.449620 24448 layer_factory.hpp:77] Creating layer conv1
I0504 06:17:07.449631 24448 net.cpp:94] Creating Layer conv1
I0504 06:17:07.449635 24448 net.cpp:435] conv1 <- data
I0504 06:17:07.449640 24448 net.cpp:409] conv1 -> conv1
I0504 06:17:07.452625 24448 net.cpp:144] Setting up conv1
I0504 06:17:07.452641 24448 net.cpp:151] Top shape: 20 64 30 30 (1152000)
I0504 06:17:07.452644 24448 net.cpp:159] Memory required for data: 4680240
I0504 06:17:07.452656 24448 layer_factory.hpp:77] Creating layer relu1
I0504 06:17:07.452662 24448 net.cpp:94] Creating Layer relu1
I0504 06:17:07.452666 24448 net.cpp:435] relu1 <- conv1
I0504 06:17:07.452671 24448 net.cpp:396] relu1 -> conv1 (in-place)
I0504 06:17:07.452678 24448 net.cpp:144] Setting up relu1
I0504 06:17:07.452682 24448 net.cpp:151] Top shape: 20 64 30 30 (1152000)
I0504 06:17:07.452685 24448 net.cpp:159] Memory required for data: 9288240
I0504 06:17:07.452689 24448 layer_factory.hpp:77] Creating layer conv2
I0504 06:17:07.452697 24448 net.cpp:94] Creating Layer conv2
I0504 06:17:07.452702 24448 net.cpp:435] conv2 <- conv1
I0504 06:17:07.452706 24448 net.cpp:409] conv2 -> conv2
I0504 06:17:07.459372 24448 net.cpp:144] Setting up conv2
I0504 06:17:07.459391 24448 net.cpp:151] Top shape: 20 64 30 30 (1152000)
I0504 06:17:07.459395 24448 net.cpp:159] Memory required for data: 13896240
I0504 06:17:07.459404 24448 layer_factory.hpp:77] Creating layer relu2
I0504 06:17:07.459411 24448 net.cpp:94] Creating Layer relu2
I0504 06:17:07.459414 24448 net.cpp:435] relu2 <- conv2
I0504 06:17:07.459419 24448 net.cpp:396] relu2 -> conv2 (in-place)
I0504 06:17:07.459426 24448 net.cpp:144] Setting up relu2
I0504 06:17:07.459431 24448 net.cpp:151] Top shape: 20 64 30 30 (1152000)
I0504 06:17:07.459434 24448 net.cpp:159] Memory required for data: 18504240
I0504 06:17:07.459437 24448 layer_factory.hpp:77] Creating layer pool2
I0504 06:17:07.459444 24448 net.cpp:94] Creating Layer pool2
I0504 06:17:07.459447 24448 net.cpp:435] pool2 <- conv2
I0504 06:17:07.459451 24448 net.cpp:409] pool2 -> pool2
I0504 06:17:07.459513 24448 net.cpp:144] Setting up pool2
I0504 06:17:07.459520 24448 net.cpp:151] Top shape: 20 64 15 15 (288000)
I0504 06:17:07.459523 24448 net.cpp:159] Memory required for data: 19656240
I0504 06:17:07.459527 24448 layer_factory.hpp:77] Creating layer conv3
I0504 06:17:07.459534 24448 net.cpp:94] Creating Layer conv3
I0504 06:17:07.459538 24448 net.cpp:435] conv3 <- pool2
I0504 06:17:07.459543 24448 net.cpp:409] conv3 -> conv3
I0504 06:17:07.467151 24448 net.cpp:144] Setting up conv3
I0504 06:17:07.467166 24448 net.cpp:151] Top shape: 20 128 15 15 (576000)
I0504 06:17:07.467170 24448 net.cpp:159] Memory required for data: 21960240
I0504 06:17:07.467180 24448 layer_factory.hpp:77] Creating layer relu3
I0504 06:17:07.467186 24448 net.cpp:94] Creating Layer relu3
I0504 06:17:07.467190 24448 net.cpp:435] relu3 <- conv3
I0504 06:17:07.467195 24448 net.cpp:396] relu3 -> conv3 (in-place)
I0504 06:17:07.467201 24448 net.cpp:144] Setting up relu3
I0504 06:17:07.467206 24448 net.cpp:151] Top shape: 20 128 15 15 (576000)
I0504 06:17:07.467209 24448 net.cpp:159] Memory required for data: 24264240
I0504 06:17:07.467212 24448 layer_factory.hpp:77] Creating layer conv4
I0504 06:17:07.467221 24448 net.cpp:94] Creating Layer conv4
I0504 06:17:07.467223 24448 net.cpp:435] conv4 <- conv3
I0504 06:17:07.467228 24448 net.cpp:409] conv4 -> conv4
I0504 06:17:07.484338 24448 net.cpp:144] Setting up conv4
I0504 06:17:07.484380 24448 net.cpp:151] Top shape: 20 128 15 15 (576000)
I0504 06:17:07.484392 24448 net.cpp:159] Memory required for data: 26568240
I0504 06:17:07.484411 24448 layer_factory.hpp:77] Creating layer relu4
I0504 06:17:07.484427 24448 net.cpp:94] Creating Layer relu4
I0504 06:17:07.484438 24448 net.cpp:435] relu4 <- conv4
I0504 06:17:07.484452 24448 net.cpp:396] relu4 -> conv4 (in-place)
I0504 06:17:07.484472 24448 net.cpp:144] Setting up relu4
I0504 06:17:07.484484 24448 net.cpp:151] Top shape: 20 128 15 15 (576000)
I0504 06:17:07.484494 24448 net.cpp:159] Memory required for data: 28872240
I0504 06:17:07.484503 24448 layer_factory.hpp:77] Creating layer conv5
I0504 06:17:07.484524 24448 net.cpp:94] Creating Layer conv5
I0504 06:17:07.484534 24448 net.cpp:435] conv5 <- conv4
I0504 06:17:07.484580 24448 net.cpp:409] conv5 -> conv5
I0504 06:17:07.499910 24448 net.cpp:144] Setting up conv5
I0504 06:17:07.499927 24448 net.cpp:151] Top shape: 20 128 15 15 (576000)
I0504 06:17:07.499930 24448 net.cpp:159] Memory required for data: 31176240
I0504 06:17:07.499940 24448 layer_factory.hpp:77] Creating layer relu5
I0504 06:17:07.499948 24448 net.cpp:94] Creating Layer relu5
I0504 06:17:07.499951 24448 net.cpp:435] relu5 <- conv5
I0504 06:17:07.499955 24448 net.cpp:396] relu5 -> conv5 (in-place)
I0504 06:17:07.499963 24448 net.cpp:144] Setting up relu5
I0504 06:17:07.499967 24448 net.cpp:151] Top shape: 20 128 15 15 (576000)
I0504 06:17:07.499970 24448 net.cpp:159] Memory required for data: 33480240
I0504 06:17:07.499974 24448 layer_factory.hpp:77] Creating layer pool5
I0504 06:17:07.499979 24448 net.cpp:94] Creating Layer pool5
I0504 06:17:07.499982 24448 net.cpp:435] pool5 <- conv5
I0504 06:17:07.499987 24448 net.cpp:409] pool5 -> pool5
I0504 06:17:07.500025 24448 net.cpp:144] Setting up pool5
I0504 06:17:07.500032 24448 net.cpp:151] Top shape: 20 128 7 7 (125440)
I0504 06:17:07.500036 24448 net.cpp:159] Memory required for data: 33982000
I0504 06:17:07.500039 24448 layer_factory.hpp:77] Creating layer ip1
I0504 06:17:07.500046 24448 net.cpp:94] Creating Layer ip1
I0504 06:17:07.500049 24448 net.cpp:435] ip1 <- pool5
I0504 06:17:07.500054 24448 net.cpp:409] ip1 -> ip1
I0504 06:17:07.656285 24448 net.cpp:144] Setting up ip1
I0504 06:17:07.656322 24448 net.cpp:151] Top shape: 20 1024 (20480)
I0504 06:17:07.656325 24448 net.cpp:159] Memory required for data: 34063920
I0504 06:17:07.656334 24448 layer_factory.hpp:77] Creating layer ip2
I0504 06:17:07.656344 24448 net.cpp:94] Creating Layer ip2
I0504 06:17:07.656349 24448 net.cpp:435] ip2 <- ip1
I0504 06:17:07.656358 24448 net.cpp:409] ip2 -> ip2
I0504 06:17:07.669649 24448 net.cpp:144] Setting up ip2
I0504 06:17:07.669669 24448 net.cpp:151] Top shape: 20 512 (10240)
I0504 06:17:07.669673 24448 net.cpp:159] Memory required for data: 34104880
I0504 06:17:07.669680 24448 layer_factory.hpp:77] Creating layer ip3
I0504 06:17:07.669690 24448 net.cpp:94] Creating Layer ip3
I0504 06:17:07.669695 24448 net.cpp:435] ip3 <- ip2
I0504 06:17:07.669700 24448 net.cpp:409] ip3 -> ip3
I0504 06:17:07.670475 24448 net.cpp:144] Setting up ip3
I0504 06:17:07.670483 24448 net.cpp:151] Top shape: 20 50 (1000)
I0504 06:17:07.670487 24448 net.cpp:159] Memory required for data: 34108880
I0504 06:17:07.670492 24448 layer_factory.hpp:77] Creating layer ip3_ip3_0_split
I0504 06:17:07.670500 24448 net.cpp:94] Creating Layer ip3_ip3_0_split
I0504 06:17:07.670503 24448 net.cpp:435] ip3_ip3_0_split <- ip3
I0504 06:17:07.670507 24448 net.cpp:409] ip3_ip3_0_split -> ip3_ip3_0_split_0
I0504 06:17:07.670513 24448 net.cpp:409] ip3_ip3_0_split -> ip3_ip3_0_split_1
I0504 06:17:07.670555 24448 net.cpp:144] Setting up ip3_ip3_0_split
I0504 06:17:07.670562 24448 net.cpp:151] Top shape: 20 50 (1000)
I0504 06:17:07.670567 24448 net.cpp:151] Top shape: 20 50 (1000)
I0504 06:17:07.670569 24448 net.cpp:159] Memory required for data: 34116880
I0504 06:17:07.670572 24448 layer_factory.hpp:77] Creating layer accuracy
I0504 06:17:07.670579 24448 net.cpp:94] Creating Layer accuracy
I0504 06:17:07.670583 24448 net.cpp:435] accuracy <- ip3_ip3_0_split_0
I0504 06:17:07.670588 24448 net.cpp:435] accuracy <- label_intercept_1_split_0
I0504 06:17:07.670591 24448 net.cpp:409] accuracy -> accuracy
…
