…
I0502 16:34:37.132493 11625 net.cpp:323] The NetState phase (0) differed from the phase (1) specified by a rule in layer intercept
I0502 16:34:37.132509 11625 net.cpp:323] The NetState phase (0) differed from the phase (1) specified by a rule in layer accuracy
I0502 16:34:37.132611 11625 net.cpp:52] Initializing net from parameters: 
state {
  phase: TRAIN
}
layer {
  name: "parameters"
  type: "HDF5Data"
  top: "data"
  top: "label"
  include {
    phase: TRAIN
  }
  hdf5_data_param {
    source: "/home/purduethu/scratch/radon/d/deng106/CNNStatisticalModel/distributions/input/50_distributions_100_sample_size_train-distributions-path.txt"
    batch_size: 20
  }
}
layer {
  name: "conv1"
  type: "Convolution"
  bottom: "data"
  top: "conv1"
  param {
    lr_mult: 1
  }
  param {
    lr_mult: 2
  }
  convolution_param {
    num_output: 64
    pad: 2
    kernel_size: 5
    stride: 1
    weight_filler {
      type: "gaussian"
      std: 0.0001
    }
    bias_filler {
      type: "constant"
    }
  }
}
layer {
  name: "relu1"
  type: "ReLU"
  bottom: "conv1"
  top: "conv1"
}
layer {
  name: "conv2"
  type: "Convolution"
  bottom: "conv1"
  top: "conv2"
  param {
    lr_mult: 1
  }
  param {
    lr_mult: 2
  }
  convolution_param {
    num_output: 64
    pad: 2
    kernel_size: 5
    stride: 1
    weight_filler {
      type: "gaussian"
      std: 0.01
    }
    bias_filler {
      type: "constant"
    }
  }
}
layer {
  name: "relu2"
  type: "ReLU"
  bottom: "conv2"
  top: "conv2"
}
layer {
  name: "pool2"
  type: "Pooling"
  bottom: "conv2"
  top: "pool2"
  pooling_param {
    pool: MAX
    kernel_size: 3
    stride: 2
  }
}
layer {
  name: "conv3"
  type: "Convolution"
  bottom: "pool2"
  top: "conv3"
  param {
    lr_mult: 1
  }
  param {
    lr_mult: 2
  }
  convolution_param {
    num_output: 64
    pad: 2
    kernel_size: 5
    stride: 1
    weight_filler {
      type: "gaussian"
      std: 0.01
    }
    bias_filler {
      type: "constant"
    }
  }
}
layer {
  name: "relu3"
  type: "ReLU"
  bottom: "conv3"
  top: "conv3"
}
layer {
  name: "conv4"
  type: "Convolution"
  bottom: "conv3"
  top: "conv4"
  param {
    lr_mult: 1
  }
  param {
    lr_mult: 2
  }
  convolution_param {
    num_output: 64
    pad: 2
    kernel_size: 5
    stride: 1
    weight_filler {
      type: "gaussian"
      std: 0.01
    }
    bias_filler {
      type: "constant"
    }
  }
}
layer {
  name: "relu4"
  type: "ReLU"
  bottom: "conv4"
  top: "conv4"
}
layer {
  name: "conv5"
  type: "Convolution"
  bottom: "conv4"
  top: "conv5"
  param {
    lr_mult: 1
  }
  param {
    lr_mult: 2
  }
  convolution_param {
    num_output: 64
    pad: 2
    kernel_size: 5
    stride: 1
    weight_filler {
      type: "gaussian"
      std: 0.01
    }
    bias_filler {
      type: "constant"
    }
  }
}
layer {
  name: "relu5"
  type: "ReLU"
  bottom: "conv5"
  top: "conv5"
}
layer {
  name: "pool5"
  type: "Pooling"
  bottom: "conv5"
  top: "pool5"
  pooling_param {
    pool: AVE
    kernel_size: 3
    stride: 2
  }
}
layer {
  name: "ip1"
  type: "InnerProduct"
  bottom: "pool5"
  top: "ip1"
  param {
    lr_mult: 1
  }
  param {
    lr_mult: 2
  }
  inner_product_param {
    num_output: 64
    weight_filler {
      type: "gaussian"
      std: 0.1
    }
    bias_filler {
      type: "constant"
    }
  }
}
layer {
  name: "ip2"
  type: "InnerProduct"
  bottom: "ip1"
  top: "ip2"
  param {
    lr_mult: 1
  }
  param {
    lr_mult: 2
  }
  inner_product_param {
    num_output: 64
    weight_filler {
      type: "gaussian"
      std: 0.1
    }
    bias_filler {
      type: "constant"
    }
  }
}
layer {
  name: "ip3"
  type: "InnerProduct"
  bottom: "ip2"
  top: "ip3"
  param {
    lr_mult: 1
  }
  param {
    lr_mult: 2
  }
  inner_product_param {
    num_output: 50
    weight_filler {
      type: "gaussian"
      std: 0.1
    }
    bias_filler {
      type: "constant"
    }
  }
}
layer {
  name: "loss"
  type: "SoftmaxWithLoss"
  bottom: "ip3"
  bottom: "label"
  top: "loss"
}
I0502 16:34:37.132689 11625 layer_factory.hpp:77] Creating layer parameters
I0502 16:34:37.132704 11625 net.cpp:94] Creating Layer parameters
I0502 16:34:37.132710 11625 net.cpp:409] parameters -> data
I0502 16:34:37.132730 11625 net.cpp:409] parameters -> label
I0502 16:34:37.132740 11625 hdf5_data_layer.cpp:79] Loading list of HDF5 filenames from: /home/purduethu/scratch/radon/d/deng106/CNNStatisticalModel/distributions/input/50_distributions_100_sample_size_train-distributions-path.txt
I0502 16:34:37.132764 11625 hdf5_data_layer.cpp:93] Number of HDF5 files: 1
I0502 16:34:37.133379 11625 hdf5.cpp:32] Datatype class: H5T_FLOAT
I0502 16:34:37.291916 11625 hdf5.cpp:35] Datatype class: H5T_INTEGER
I0502 16:34:37.294737 11625 net.cpp:144] Setting up parameters
I0502 16:34:37.294761 11625 net.cpp:151] Top shape: 20 1 10 10 (2000)
I0502 16:34:37.294767 11625 net.cpp:151] Top shape: 20 (20)
I0502 16:34:37.294770 11625 net.cpp:159] Memory required for data: 8080
I0502 16:34:37.294778 11625 layer_factory.hpp:77] Creating layer conv1
I0502 16:34:37.294802 11625 net.cpp:94] Creating Layer conv1
I0502 16:34:37.294808 11625 net.cpp:435] conv1 <- data
I0502 16:34:37.294821 11625 net.cpp:409] conv1 -> conv1
I0502 16:34:37.300621 11625 net.cpp:144] Setting up conv1
I0502 16:34:37.300637 11625 net.cpp:151] Top shape: 20 64 10 10 (128000)
I0502 16:34:37.300642 11625 net.cpp:159] Memory required for data: 520080
I0502 16:34:37.300653 11625 layer_factory.hpp:77] Creating layer relu1
I0502 16:34:37.300662 11625 net.cpp:94] Creating Layer relu1
I0502 16:34:37.300667 11625 net.cpp:435] relu1 <- conv1
I0502 16:34:37.300670 11625 net.cpp:396] relu1 -> conv1 (in-place)
I0502 16:34:37.300686 11625 net.cpp:144] Setting up relu1
I0502 16:34:37.300693 11625 net.cpp:151] Top shape: 20 64 10 10 (128000)
I0502 16:34:37.300695 11625 net.cpp:159] Memory required for data: 1032080
I0502 16:34:37.300698 11625 layer_factory.hpp:77] Creating layer conv2
I0502 16:34:37.300707 11625 net.cpp:94] Creating Layer conv2
I0502 16:34:37.300711 11625 net.cpp:435] conv2 <- conv1
I0502 16:34:37.300716 11625 net.cpp:409] conv2 -> conv2
I0502 16:34:37.308226 11625 net.cpp:144] Setting up conv2
I0502 16:34:37.308240 11625 net.cpp:151] Top shape: 20 64 10 10 (128000)
I0502 16:34:37.308244 11625 net.cpp:159] Memory required for data: 1544080
I0502 16:34:37.308253 11625 layer_factory.hpp:77] Creating layer relu2
I0502 16:34:37.308260 11625 net.cpp:94] Creating Layer relu2
I0502 16:34:37.308264 11625 net.cpp:435] relu2 <- conv2
I0502 16:34:37.308269 11625 net.cpp:396] relu2 -> conv2 (in-place)
I0502 16:34:37.308276 11625 net.cpp:144] Setting up relu2
I0502 16:34:37.308280 11625 net.cpp:151] Top shape: 20 64 10 10 (128000)
I0502 16:34:37.308284 11625 net.cpp:159] Memory required for data: 2056080
I0502 16:34:37.308287 11625 layer_factory.hpp:77] Creating layer pool2
I0502 16:34:37.308301 11625 net.cpp:94] Creating Layer pool2
I0502 16:34:37.308305 11625 net.cpp:435] pool2 <- conv2
I0502 16:34:37.308310 11625 net.cpp:409] pool2 -> pool2
I0502 16:34:37.308354 11625 net.cpp:144] Setting up pool2
I0502 16:34:37.308362 11625 net.cpp:151] Top shape: 20 64 5 5 (32000)
I0502 16:34:37.308367 11625 net.cpp:159] Memory required for data: 2184080
I0502 16:34:37.308369 11625 layer_factory.hpp:77] Creating layer conv3
I0502 16:34:37.308377 11625 net.cpp:94] Creating Layer conv3
I0502 16:34:37.308382 11625 net.cpp:435] conv3 <- pool2
I0502 16:34:37.308395 11625 net.cpp:409] conv3 -> conv3
I0502 16:34:37.315691 11625 net.cpp:144] Setting up conv3
I0502 16:34:37.315706 11625 net.cpp:151] Top shape: 20 64 5 5 (32000)
I0502 16:34:37.315711 11625 net.cpp:159] Memory required for data: 2312080
I0502 16:34:37.315719 11625 layer_factory.hpp:77] Creating layer relu3
I0502 16:34:37.315726 11625 net.cpp:94] Creating Layer relu3
I0502 16:34:37.315729 11625 net.cpp:435] relu3 <- conv3
I0502 16:34:37.315734 11625 net.cpp:396] relu3 -> conv3 (in-place)
I0502 16:34:37.315742 11625 net.cpp:144] Setting up relu3
I0502 16:34:37.315747 11625 net.cpp:151] Top shape: 20 64 5 5 (32000)
I0502 16:34:37.315749 11625 net.cpp:159] Memory required for data: 2440080
I0502 16:34:37.315753 11625 layer_factory.hpp:77] Creating layer conv4
I0502 16:34:37.315762 11625 net.cpp:94] Creating Layer conv4
I0502 16:34:37.315767 11625 net.cpp:435] conv4 <- conv3
I0502 16:34:37.315771 11625 net.cpp:409] conv4 -> conv4
I0502 16:34:37.323051 11625 net.cpp:144] Setting up conv4
I0502 16:34:37.323066 11625 net.cpp:151] Top shape: 20 64 5 5 (32000)
I0502 16:34:37.323071 11625 net.cpp:159] Memory required for data: 2568080
I0502 16:34:37.323077 11625 layer_factory.hpp:77] Creating layer relu4
I0502 16:34:37.323084 11625 net.cpp:94] Creating Layer relu4
I0502 16:34:37.323088 11625 net.cpp:435] relu4 <- conv4
I0502 16:34:37.323093 11625 net.cpp:396] relu4 -> conv4 (in-place)
I0502 16:34:37.323101 11625 net.cpp:144] Setting up relu4
I0502 16:34:37.323106 11625 net.cpp:151] Top shape: 20 64 5 5 (32000)
I0502 16:34:37.323109 11625 net.cpp:159] Memory required for data: 2696080
I0502 16:34:37.323112 11625 layer_factory.hpp:77] Creating layer conv5
I0502 16:34:37.323120 11625 net.cpp:94] Creating Layer conv5
I0502 16:34:37.323124 11625 net.cpp:435] conv5 <- conv4
I0502 16:34:37.323129 11625 net.cpp:409] conv5 -> conv5
I0502 16:34:37.330440 11625 net.cpp:144] Setting up conv5
I0502 16:34:37.330454 11625 net.cpp:151] Top shape: 20 64 5 5 (32000)
I0502 16:34:37.330458 11625 net.cpp:159] Memory required for data: 2824080
I0502 16:34:37.330467 11625 layer_factory.hpp:77] Creating layer relu5
I0502 16:34:37.330473 11625 net.cpp:94] Creating Layer relu5
I0502 16:34:37.330477 11625 net.cpp:435] relu5 <- conv5
I0502 16:34:37.330482 11625 net.cpp:396] relu5 -> conv5 (in-place)
I0502 16:34:37.330489 11625 net.cpp:144] Setting up relu5
I0502 16:34:37.330494 11625 net.cpp:151] Top shape: 20 64 5 5 (32000)
I0502 16:34:37.330498 11625 net.cpp:159] Memory required for data: 2952080
I0502 16:34:37.330502 11625 layer_factory.hpp:77] Creating layer pool5
I0502 16:34:37.330507 11625 net.cpp:94] Creating Layer pool5
I0502 16:34:37.330510 11625 net.cpp:435] pool5 <- conv5
I0502 16:34:37.330515 11625 net.cpp:409] pool5 -> pool5
I0502 16:34:37.330549 11625 net.cpp:144] Setting up pool5
I0502 16:34:37.330556 11625 net.cpp:151] Top shape: 20 64 2 2 (5120)
I0502 16:34:37.330559 11625 net.cpp:159] Memory required for data: 2972560
I0502 16:34:37.330564 11625 layer_factory.hpp:77] Creating layer ip1
I0502 16:34:37.330574 11625 net.cpp:94] Creating Layer ip1
I0502 16:34:37.330576 11625 net.cpp:435] ip1 <- pool5
I0502 16:34:37.330581 11625 net.cpp:409] ip1 -> ip1
I0502 16:34:37.331723 11625 net.cpp:144] Setting up ip1
I0502 16:34:37.331737 11625 net.cpp:151] Top shape: 20 64 (1280)
I0502 16:34:37.331742 11625 net.cpp:159] Memory required for data: 2977680
I0502 16:34:37.331748 11625 layer_factory.hpp:77] Creating layer ip2
I0502 16:34:37.331754 11625 net.cpp:94] Creating Layer ip2
I0502 16:34:37.331763 11625 net.cpp:435] ip2 <- ip1
I0502 16:34:37.331768 11625 net.cpp:409] ip2 -> ip2
I0502 16:34:37.331935 11625 net.cpp:144] Setting up ip2
I0502 16:34:37.331943 11625 net.cpp:151] Top shape: 20 64 (1280)
I0502 16:34:37.331946 11625 net.cpp:159] Memory required for data: 2982800
I0502 16:34:37.331951 11625 layer_factory.hpp:77] Creating layer ip3
I0502 16:34:37.331956 11625 net.cpp:94] Creating Layer ip3
I0502 16:34:37.331960 11625 net.cpp:435] ip3 <- ip2
I0502 16:34:37.331965 11625 net.cpp:409] ip3 -> ip3
I0502 16:34:37.332108 11625 net.cpp:144] Setting up ip3
I0502 16:34:37.332120 11625 net.cpp:151] Top shape: 20 50 (1000)
I0502 16:34:37.332124 11625 net.cpp:159] Memory required for data: 2986800
I0502 16:34:37.332129 11625 layer_factory.hpp:77] Creating layer loss
I0502 16:34:37.332136 11625 net.cpp:94] Creating Layer loss
I0502 16:34:37.332140 11625 net.cpp:435] loss <- ip3
I0502 16:34:37.332144 11625 net.cpp:435] loss <- label
I0502 16:34:37.332149 11625 net.cpp:409] loss -> loss
I0502 16:34:37.332159 11625 layer_factory.hpp:77] Creating layer loss
…
I0502 16:34:37.333341 11625 solver.cpp:181] Creating test net (#0) specified by net file: ./protocol/dis_50_100_dimension.protocol_distribution
I0502 16:34:37.333369 11625 net.cpp:323] The NetState phase (1) differed from the phase (0) specified by a rule in layer parameters
I0502 16:34:37.333465 11625 net.cpp:52] Initializing net from parameters: 
state {
  phase: TEST
}
layer {
  name: "intercept"
  type: "HDF5Data"
  top: "data"
  top: "label"
  include {
    phase: TEST
  }
  hdf5_data_param {
    source: "/home/purduethu/scratch/radon/d/deng106/CNNStatisticalModel/distributions/input/50_distributions_100_sample_size_test-distributions-path.txt"
    batch_size: 20
  }
}
layer {
  name: "conv1"
  type: "Convolution"
  bottom: "data"
  top: "conv1"
  param {
    lr_mult: 1
  }
  param {
    lr_mult: 2
  }
  convolution_param {
    num_output: 64
    pad: 2
    kernel_size: 5
    stride: 1
    weight_filler {
      type: "gaussian"
      std: 0.0001
    }
    bias_filler {
      type: "constant"
    }
  }
}
layer {
  name: "relu1"
  type: "ReLU"
  bottom: "conv1"
  top: "conv1"
}
layer {
  name: "conv2"
  type: "Convolution"
  bottom: "conv1"
  top: "conv2"
  param {
    lr_mult: 1
  }
  param {
    lr_mult: 2
  }
  convolution_param {
    num_output: 64
    pad: 2
    kernel_size: 5
    stride: 1
    weight_filler {
      type: "gaussian"
      std: 0.01
    }
    bias_filler {
      type: "constant"
    }
  }
}
layer {
  name: "relu2"
  type: "ReLU"
  bottom: "conv2"
  top: "conv2"
}
layer {
  name: "pool2"
  type: "Pooling"
  bottom: "conv2"
  top: "pool2"
  pooling_param {
    pool: MAX
    kernel_size: 3
    stride: 2
  }
}
layer {
  name: "conv3"
  type: "Convolution"
  bottom: "pool2"
  top: "conv3"
  param {
    lr_mult: 1
  }
  param {
    lr_mult: 2
  }
  convolution_param {
    num_output: 64
    pad: 2
    kernel_size: 5
    stride: 1
    weight_filler {
      type: "gaussian"
      std: 0.01
    }
    bias_filler {
      type: "constant"
    }
  }
}
layer {
  name: "relu3"
  type: "ReLU"
  bottom: "conv3"
  top: "conv3"
}
layer {
  name: "conv4"
  type: "Convolution"
  bottom: "conv3"
  top: "conv4"
  param {
    lr_mult: 1
  }
  param {
    lr_mult: 2
  }
  convolution_param {
    num_output: 64
    pad: 2
    kernel_size: 5
    stride: 1
    weight_filler {
      type: "gaussian"
      std: 0.01
    }
    bias_filler {
      type: "constant"
    }
  }
}
layer {
  name: "relu4"
  type: "ReLU"
  bottom: "conv4"
  top: "conv4"
}
layer {
  name: "conv5"
  type: "Convolution"
  bottom: "conv4"
  top: "conv5"
  param {
    lr_mult: 1
  }
  param {
    lr_mult: 2
  }
  convolution_param {
    num_output: 64
    pad: 2
    kernel_size: 5
    stride: 1
    weight_filler {
      type: "gaussian"
      std: 0.01
    }
    bias_filler {
      type: "constant"
    }
  }
}
layer {
  name: "relu5"
  type: "ReLU"
  bottom: "conv5"
  top: "conv5"
}
layer {
  name: "pool5"
  type: "Pooling"
  bottom: "conv5"
  top: "pool5"
  pooling_param {
    pool: AVE
    kernel_size: 3
    stride: 2
  }
}
layer {
  name: "ip1"
  type: "InnerProduct"
  bottom: "pool5"
  top: "ip1"
  param {
    lr_mult: 1
  }
  param {
    lr_mult: 2
  }
  inner_product_param {
    num_output: 64
    weight_filler {
      type: "gaussian"
      std: 0.1
    }
    bias_filler {
      type: "constant"
    }
  }
}
layer {
  name: "ip2"
  type: "InnerProduct"
  bottom: "ip1"
  top: "ip2"
  param {
    lr_mult: 1
  }
  param {
    lr_mult: 2
  }
  inner_product_param {
    num_output: 64
    weight_filler {
      type: "gaussian"
      std: 0.1
    }
    bias_filler {
      type: "constant"
    }
  }
}
layer {
  name: "ip3"
  type: "InnerProduct"
  bottom: "ip2"
  top: "ip3"
  param {
    lr_mult: 1
  }
  param {
    lr_mult: 2
  }
  inner_product_param {
    num_output: 50
    weight_filler {
      type: "gaussian"
      std: 0.1
    }
    bias_filler {
      type: "constant"
    }
  }
}
layer {
  name: "accuracy"
  type: "Accuracy"
  bottom: "ip3"
  bottom: "label"
  top: "accuracy"
  include {
    phase: TEST
  }
}
layer {
  name: "loss"
  type: "SoftmaxWithLoss"
  bottom: "ip3"
  bottom: "label"
  top: "loss"
}
I0502 16:34:37.333539 11625 layer_factory.hpp:77] Creating layer intercept
I0502 16:34:37.333547 11625 net.cpp:94] Creating Layer intercept
I0502 16:34:37.333551 11625 net.cpp:409] intercept -> data
I0502 16:34:37.333559 11625 net.cpp:409] intercept -> label
I0502 16:34:37.333564 11625 hdf5_data_layer.cpp:79] Loading list of HDF5 filenames from: /home/purduethu/scratch/radon/d/deng106/CNNStatisticalModel/distributions/input/50_distributions_100_sample_size_test-distributions-path.txt
I0502 16:34:37.333585 11625 hdf5_data_layer.cpp:93] Number of HDF5 files: 1
I0502 16:34:37.374783 11625 net.cpp:144] Setting up intercept
I0502 16:34:37.374817 11625 net.cpp:151] Top shape: 20 1 10 10 (2000)
I0502 16:34:37.374824 11625 net.cpp:151] Top shape: 20 (20)
I0502 16:34:37.374826 11625 net.cpp:159] Memory required for data: 8080
I0502 16:34:37.374832 11625 layer_factory.hpp:77] Creating layer label_intercept_1_split
I0502 16:34:37.374853 11625 net.cpp:94] Creating Layer label_intercept_1_split
I0502 16:34:37.374857 11625 net.cpp:435] label_intercept_1_split <- label
I0502 16:34:37.374863 11625 net.cpp:409] label_intercept_1_split -> label_intercept_1_split_0
I0502 16:34:37.374872 11625 net.cpp:409] label_intercept_1_split -> label_intercept_1_split_1
I0502 16:34:37.374909 11625 net.cpp:144] Setting up label_intercept_1_split
I0502 16:34:37.374917 11625 net.cpp:151] Top shape: 20 (20)
I0502 16:34:37.374920 11625 net.cpp:151] Top shape: 20 (20)
I0502 16:34:37.374923 11625 net.cpp:159] Memory required for data: 8240
I0502 16:34:37.374927 11625 layer_factory.hpp:77] Creating layer conv1
I0502 16:34:37.374938 11625 net.cpp:94] Creating Layer conv1
I0502 16:34:37.374943 11625 net.cpp:435] conv1 <- data
I0502 16:34:37.374948 11625 net.cpp:409] conv1 -> conv1
I0502 16:34:37.378463 11625 net.cpp:144] Setting up conv1
I0502 16:34:37.378486 11625 net.cpp:151] Top shape: 20 64 10 10 (128000)
I0502 16:34:37.378490 11625 net.cpp:159] Memory required for data: 520240
I0502 16:34:37.378500 11625 layer_factory.hpp:77] Creating layer relu1
I0502 16:34:37.378507 11625 net.cpp:94] Creating Layer relu1
I0502 16:34:37.378511 11625 net.cpp:435] relu1 <- conv1
I0502 16:34:37.378516 11625 net.cpp:396] relu1 -> conv1 (in-place)
I0502 16:34:37.378523 11625 net.cpp:144] Setting up relu1
I0502 16:34:37.378528 11625 net.cpp:151] Top shape: 20 64 10 10 (128000)
I0502 16:34:37.378532 11625 net.cpp:159] Memory required for data: 1032240
I0502 16:34:37.378535 11625 layer_factory.hpp:77] Creating layer conv2
I0502 16:34:37.378545 11625 net.cpp:94] Creating Layer conv2
I0502 16:34:37.378548 11625 net.cpp:435] conv2 <- conv1
I0502 16:34:37.378553 11625 net.cpp:409] conv2 -> conv2
I0502 16:34:37.384658 11625 net.cpp:144] Setting up conv2
I0502 16:34:37.384672 11625 net.cpp:151] Top shape: 20 64 10 10 (128000)
I0502 16:34:37.384677 11625 net.cpp:159] Memory required for data: 1544240
I0502 16:34:37.384685 11625 layer_factory.hpp:77] Creating layer relu2
I0502 16:34:37.384691 11625 net.cpp:94] Creating Layer relu2
I0502 16:34:37.384696 11625 net.cpp:435] relu2 <- conv2
I0502 16:34:37.384701 11625 net.cpp:396] relu2 -> conv2 (in-place)
I0502 16:34:37.384707 11625 net.cpp:144] Setting up relu2
I0502 16:34:37.384712 11625 net.cpp:151] Top shape: 20 64 10 10 (128000)
I0502 16:34:37.384716 11625 net.cpp:159] Memory required for data: 2056240
I0502 16:34:37.384719 11625 layer_factory.hpp:77] Creating layer pool2
I0502 16:34:37.384726 11625 net.cpp:94] Creating Layer pool2
I0502 16:34:37.384729 11625 net.cpp:435] pool2 <- conv2
I0502 16:34:37.384733 11625 net.cpp:409] pool2 -> pool2
I0502 16:34:37.384768 11625 net.cpp:144] Setting up pool2
I0502 16:34:37.384774 11625 net.cpp:151] Top shape: 20 64 5 5 (32000)
I0502 16:34:37.384778 11625 net.cpp:159] Memory required for data: 2184240
I0502 16:34:37.384781 11625 layer_factory.hpp:77] Creating layer conv3
I0502 16:34:37.384789 11625 net.cpp:94] Creating Layer conv3
I0502 16:34:37.384793 11625 net.cpp:435] conv3 <- pool2
I0502 16:34:37.384799 11625 net.cpp:409] conv3 -> conv3
I0502 16:34:37.391010 11625 net.cpp:144] Setting up conv3
I0502 16:34:37.391024 11625 net.cpp:151] Top shape: 20 64 5 5 (32000)
I0502 16:34:37.391028 11625 net.cpp:159] Memory required for data: 2312240
I0502 16:34:37.391037 11625 layer_factory.hpp:77] Creating layer relu3
I0502 16:34:37.391044 11625 net.cpp:94] Creating Layer relu3
I0502 16:34:37.391048 11625 net.cpp:435] relu3 <- conv3
I0502 16:34:37.391053 11625 net.cpp:396] relu3 -> conv3 (in-place)
I0502 16:34:37.391060 11625 net.cpp:144] Setting up relu3
I0502 16:34:37.391065 11625 net.cpp:151] Top shape: 20 64 5 5 (32000)
I0502 16:34:37.391068 11625 net.cpp:159] Memory required for data: 2440240
I0502 16:34:37.391072 11625 layer_factory.hpp:77] Creating layer conv4
I0502 16:34:37.391080 11625 net.cpp:94] Creating Layer conv4
I0502 16:34:37.391084 11625 net.cpp:435] conv4 <- conv3
I0502 16:34:37.391089 11625 net.cpp:409] conv4 -> conv4
I0502 16:34:37.397374 11625 net.cpp:144] Setting up conv4
I0502 16:34:37.397389 11625 net.cpp:151] Top shape: 20 64 5 5 (32000)
I0502 16:34:37.397394 11625 net.cpp:159] Memory required for data: 2568240
I0502 16:34:37.397400 11625 layer_factory.hpp:77] Creating layer relu4
I0502 16:34:37.397406 11625 net.cpp:94] Creating Layer relu4
I0502 16:34:37.397410 11625 net.cpp:435] relu4 <- conv4
I0502 16:34:37.397419 11625 net.cpp:396] relu4 -> conv4 (in-place)
I0502 16:34:37.397428 11625 net.cpp:144] Setting up relu4
I0502 16:34:37.397433 11625 net.cpp:151] Top shape: 20 64 5 5 (32000)
I0502 16:34:37.397435 11625 net.cpp:159] Memory required for data: 2696240
I0502 16:34:37.397439 11625 layer_factory.hpp:77] Creating layer conv5
I0502 16:34:37.397447 11625 net.cpp:94] Creating Layer conv5
I0502 16:34:37.397451 11625 net.cpp:435] conv5 <- conv4
I0502 16:34:37.397456 11625 net.cpp:409] conv5 -> conv5
I0502 16:34:37.403728 11625 net.cpp:144] Setting up conv5
I0502 16:34:37.403748 11625 net.cpp:151] Top shape: 20 64 5 5 (32000)
I0502 16:34:37.403753 11625 net.cpp:159] Memory required for data: 2824240
I0502 16:34:37.403761 11625 layer_factory.hpp:77] Creating layer relu5
I0502 16:34:37.403767 11625 net.cpp:94] Creating Layer relu5
I0502 16:34:37.403771 11625 net.cpp:435] relu5 <- conv5
I0502 16:34:37.403776 11625 net.cpp:396] relu5 -> conv5 (in-place)
I0502 16:34:37.403784 11625 net.cpp:144] Setting up relu5
I0502 16:34:37.403789 11625 net.cpp:151] Top shape: 20 64 5 5 (32000)
I0502 16:34:37.403791 11625 net.cpp:159] Memory required for data: 2952240
I0502 16:34:37.403795 11625 layer_factory.hpp:77] Creating layer pool5
I0502 16:34:37.403800 11625 net.cpp:94] Creating Layer pool5
I0502 16:34:37.403803 11625 net.cpp:435] pool5 <- conv5
I0502 16:34:37.403808 11625 net.cpp:409] pool5 -> pool5
I0502 16:34:37.403834 11625 net.cpp:144] Setting up pool5
I0502 16:34:37.403841 11625 net.cpp:151] Top shape: 20 64 2 2 (5120)
I0502 16:34:37.403843 11625 net.cpp:159] Memory required for data: 2972720
I0502 16:34:37.403847 11625 layer_factory.hpp:77] Creating layer ip1
I0502 16:34:37.403853 11625 net.cpp:94] Creating Layer ip1
I0502 16:34:37.403857 11625 net.cpp:435] ip1 <- pool5
I0502 16:34:37.403862 11625 net.cpp:409] ip1 -> ip1
I0502 16:34:37.404327 11625 net.cpp:144] Setting up ip1
I0502 16:34:37.404335 11625 net.cpp:151] Top shape: 20 64 (1280)
I0502 16:34:37.404338 11625 net.cpp:159] Memory required for data: 2977840
I0502 16:34:37.404345 11625 layer_factory.hpp:77] Creating layer ip2
I0502 16:34:37.404350 11625 net.cpp:94] Creating Layer ip2
I0502 16:34:37.404353 11625 net.cpp:435] ip2 <- ip1
I0502 16:34:37.404358 11625 net.cpp:409] ip2 -> ip2
I0502 16:34:37.404525 11625 net.cpp:144] Setting up ip2
I0502 16:34:37.404532 11625 net.cpp:151] Top shape: 20 64 (1280)
I0502 16:34:37.404536 11625 net.cpp:159] Memory required for data: 2982960
I0502 16:34:37.404541 11625 layer_factory.hpp:77] Creating layer ip3
I0502 16:34:37.404547 11625 net.cpp:94] Creating Layer ip3
I0502 16:34:37.404563 11625 net.cpp:435] ip3 <- ip2
I0502 16:34:37.404572 11625 net.cpp:409] ip3 -> ip3
I0502 16:34:37.404726 11625 net.cpp:144] Setting up ip3
I0502 16:34:37.404733 11625 net.cpp:151] Top shape: 20 50 (1000)
I0502 16:34:37.404736 11625 net.cpp:159] Memory required for data: 2986960
I0502 16:34:37.404742 11625 layer_factory.hpp:77] Creating layer ip3_ip3_0_split
I0502 16:34:37.404747 11625 net.cpp:94] Creating Layer ip3_ip3_0_split
I0502 16:34:37.404750 11625 net.cpp:435] ip3_ip3_0_split <- ip3
I0502 16:34:37.404757 11625 net.cpp:409] ip3_ip3_0_split -> ip3_ip3_0_split_0
I0502 16:34:37.404762 11625 net.cpp:409] ip3_ip3_0_split -> ip3_ip3_0_split_1
I0502 16:34:37.404788 11625 net.cpp:144] Setting up ip3_ip3_0_split
I0502 16:34:37.404793 11625 net.cpp:151] Top shape: 20 50 (1000)
I0502 16:34:37.404798 11625 net.cpp:151] Top shape: 20 50 (1000)
I0502 16:34:37.404800 11625 net.cpp:159] Memory required for data: 2994960
I0502 16:34:37.404803 11625 layer_factory.hpp:77] Creating layer accuracy
I0502 16:34:37.404810 11625 net.cpp:94] Creating Layer accuracy
I0502 16:34:37.404814 11625 net.cpp:435] accuracy <- ip3_ip3_0_split_0
I0502 16:34:37.404819 11625 net.cpp:435] accuracy <- label_intercept_1_split_0
I0502 16:34:37.404824 11625 net.cpp:409] accuracy -> accuracy
…
