…
I0502 20:22:16.983068 13152 net.cpp:323] The NetState phase (0) differed from the phase (1) specified by a rule in layer intercept
I0502 20:22:16.983085 13152 net.cpp:323] The NetState phase (0) differed from the phase (1) specified by a rule in layer accuracy
I0502 20:22:16.983173 13152 net.cpp:52] Initializing net from parameters: 
state {
  phase: TRAIN
}
layer {
  name: "parameters"
  type: "HDF5Data"
  top: "data"
  top: "label"
  include {
    phase: TRAIN
  }
  hdf5_data_param {
    source: "/home/purduethu/scratch/radon/d/deng106/CNNStatisticalModel/distributions/input/5_distributions_100_sample_size_train-distributions-path.txt"
    batch_size: 20
  }
}
layer {
  name: "conv1"
  type: "Convolution"
  bottom: "data"
  top: "conv1"
  param {
    lr_mult: 1
  }
  param {
    lr_mult: 2
  }
  convolution_param {
    num_output: 64
    pad: 2
    kernel_size: 5
    stride: 1
    weight_filler {
      type: "gaussian"
      std: 0.0001
    }
    bias_filler {
      type: "constant"
    }
  }
}
layer {
  name: "relu1"
  type: "ReLU"
  bottom: "conv1"
  top: "conv1"
}
layer {
  name: "conv2"
  type: "Convolution"
  bottom: "conv1"
  top: "conv2"
  param {
    lr_mult: 1
  }
  param {
    lr_mult: 2
  }
  convolution_param {
    num_output: 64
    pad: 2
    kernel_size: 5
    stride: 1
    weight_filler {
      type: "gaussian"
      std: 0.01
    }
    bias_filler {
      type: "constant"
    }
  }
}
layer {
  name: "relu2"
  type: "ReLU"
  bottom: "conv2"
  top: "conv2"
}
layer {
  name: "pool2"
  type: "Pooling"
  bottom: "conv2"
  top: "pool2"
  pooling_param {
    pool: MAX
    kernel_size: 3
    stride: 2
  }
}
layer {
  name: "conv3"
  type: "Convolution"
  bottom: "pool2"
  top: "conv3"
  param {
    lr_mult: 1
  }
  param {
    lr_mult: 2
  }
  convolution_param {
    num_output: 64
    pad: 2
    kernel_size: 5
    stride: 1
    weight_filler {
      type: "gaussian"
      std: 0.01
    }
    bias_filler {
      type: "constant"
    }
  }
}
layer {
  name: "relu3"
  type: "ReLU"
  bottom: "conv3"
  top: "conv3"
}
layer {
  name: "conv4"
  type: "Convolution"
  bottom: "conv3"
  top: "conv4"
  param {
    lr_mult: 1
  }
  param {
    lr_mult: 2
  }
  convolution_param {
    num_output: 64
    pad: 2
    kernel_size: 5
    stride: 1
    weight_filler {
      type: "gaussian"
      std: 0.01
    }
    bias_filler {
      type: "constant"
    }
  }
}
layer {
  name: "relu4"
  type: "ReLU"
  bottom: "conv4"
  top: "conv4"
}
layer {
  name: "conv5"
  type: "Convolution"
  bottom: "conv4"
  top: "conv5"
  param {
    lr_mult: 1
  }
  param {
    lr_mult: 2
  }
  convolution_param {
    num_output: 64
    pad: 2
    kernel_size: 5
    stride: 1
    weight_filler {
      type: "gaussian"
      std: 0.01
    }
    bias_filler {
      type: "constant"
    }
  }
}
layer {
  name: "relu5"
  type: "ReLU"
  bottom: "conv5"
  top: "conv5"
}
layer {
  name: "pool5"
  type: "Pooling"
  bottom: "conv5"
  top: "pool5"
  pooling_param {
    pool: AVE
    kernel_size: 3
    stride: 2
  }
}
layer {
  name: "ip1"
  type: "InnerProduct"
  bottom: "pool5"
  top: "ip1"
  param {
    lr_mult: 1
  }
  param {
    lr_mult: 2
  }
  inner_product_param {
    num_output: 64
    weight_filler {
      type: "gaussian"
      std: 0.1
    }
    bias_filler {
      type: "constant"
    }
  }
}
layer {
  name: "ip2"
  type: "InnerProduct"
  bottom: "ip1"
  top: "ip2"
  param {
    lr_mult: 1
  }
  param {
    lr_mult: 2
  }
  inner_product_param {
    num_output: 64
    weight_filler {
      type: "gaussian"
      std: 0.1
    }
    bias_filler {
      type: "constant"
    }
  }
}
layer {
  name: "ip3"
  type: "InnerProduct"
  bottom: "ip2"
  top: "ip3"
  param {
    lr_mult: 1
  }
  param {
    lr_mult: 2
  }
  inner_product_param {
    num_output: 50
    weight_filler {
      type: "gaussian"
      std: 0.1
    }
    bias_filler {
      type: "constant"
    }
  }
}
layer {
  name: "loss"
  type: "SoftmaxWithLoss"
  bottom: "ip3"
  bottom: "label"
  top: "loss"
}
I0502 20:22:16.983247 13152 layer_factory.hpp:77] Creating layer parameters
I0502 20:22:16.983260 13152 net.cpp:94] Creating Layer parameters
I0502 20:22:16.983266 13152 net.cpp:409] parameters -> data
I0502 20:22:16.983285 13152 net.cpp:409] parameters -> label
I0502 20:22:16.983295 13152 hdf5_data_layer.cpp:79] Loading list of HDF5 filenames from: /home/purduethu/scratch/radon/d/deng106/CNNStatisticalModel/distributions/input/5_distributions_100_sample_size_train-distributions-path.txt
I0502 20:22:16.983317 13152 hdf5_data_layer.cpp:93] Number of HDF5 files: 1
I0502 20:22:16.983768 13152 hdf5.cpp:32] Datatype class: H5T_FLOAT
I0502 20:22:16.999933 13152 hdf5.cpp:35] Datatype class: H5T_INTEGER
I0502 20:22:17.001085 13152 net.cpp:144] Setting up parameters
I0502 20:22:17.001102 13152 net.cpp:151] Top shape: 20 1 10 10 (2000)
I0502 20:22:17.001108 13152 net.cpp:151] Top shape: 20 (20)
I0502 20:22:17.001112 13152 net.cpp:159] Memory required for data: 8080
I0502 20:22:17.001119 13152 layer_factory.hpp:77] Creating layer conv1
I0502 20:22:17.001138 13152 net.cpp:94] Creating Layer conv1
I0502 20:22:17.001144 13152 net.cpp:435] conv1 <- data
I0502 20:22:17.001155 13152 net.cpp:409] conv1 -> conv1
I0502 20:22:17.008023 13152 net.cpp:144] Setting up conv1
I0502 20:22:17.008039 13152 net.cpp:151] Top shape: 20 64 10 10 (128000)
I0502 20:22:17.008044 13152 net.cpp:159] Memory required for data: 520080
I0502 20:22:17.008055 13152 layer_factory.hpp:77] Creating layer relu1
I0502 20:22:17.008064 13152 net.cpp:94] Creating Layer relu1
I0502 20:22:17.008067 13152 net.cpp:435] relu1 <- conv1
I0502 20:22:17.008072 13152 net.cpp:396] relu1 -> conv1 (in-place)
I0502 20:22:17.008083 13152 net.cpp:144] Setting up relu1
I0502 20:22:17.008088 13152 net.cpp:151] Top shape: 20 64 10 10 (128000)
I0502 20:22:17.008091 13152 net.cpp:159] Memory required for data: 1032080
I0502 20:22:17.008095 13152 layer_factory.hpp:77] Creating layer conv2
I0502 20:22:17.008102 13152 net.cpp:94] Creating Layer conv2
I0502 20:22:17.008106 13152 net.cpp:435] conv2 <- conv1
I0502 20:22:17.008111 13152 net.cpp:409] conv2 -> conv2
I0502 20:22:17.015439 13152 net.cpp:144] Setting up conv2
I0502 20:22:17.015453 13152 net.cpp:151] Top shape: 20 64 10 10 (128000)
I0502 20:22:17.015457 13152 net.cpp:159] Memory required for data: 1544080
I0502 20:22:17.015465 13152 layer_factory.hpp:77] Creating layer relu2
I0502 20:22:17.015473 13152 net.cpp:94] Creating Layer relu2
I0502 20:22:17.015477 13152 net.cpp:435] relu2 <- conv2
I0502 20:22:17.015481 13152 net.cpp:396] relu2 -> conv2 (in-place)
I0502 20:22:17.015488 13152 net.cpp:144] Setting up relu2
I0502 20:22:17.015493 13152 net.cpp:151] Top shape: 20 64 10 10 (128000)
I0502 20:22:17.015497 13152 net.cpp:159] Memory required for data: 2056080
I0502 20:22:17.015501 13152 layer_factory.hpp:77] Creating layer pool2
I0502 20:22:17.015513 13152 net.cpp:94] Creating Layer pool2
I0502 20:22:17.015518 13152 net.cpp:435] pool2 <- conv2
I0502 20:22:17.015522 13152 net.cpp:409] pool2 -> pool2
I0502 20:22:17.015568 13152 net.cpp:144] Setting up pool2
I0502 20:22:17.015576 13152 net.cpp:151] Top shape: 20 64 5 5 (32000)
I0502 20:22:17.015580 13152 net.cpp:159] Memory required for data: 2184080
I0502 20:22:17.015583 13152 layer_factory.hpp:77] Creating layer conv3
I0502 20:22:17.015591 13152 net.cpp:94] Creating Layer conv3
I0502 20:22:17.015594 13152 net.cpp:435] conv3 <- pool2
I0502 20:22:17.015607 13152 net.cpp:409] conv3 -> conv3
I0502 20:22:17.020584 13152 net.cpp:144] Setting up conv3
I0502 20:22:17.020599 13152 net.cpp:151] Top shape: 20 64 5 5 (32000)
I0502 20:22:17.020603 13152 net.cpp:159] Memory required for data: 2312080
I0502 20:22:17.020612 13152 layer_factory.hpp:77] Creating layer relu3
I0502 20:22:17.020617 13152 net.cpp:94] Creating Layer relu3
I0502 20:22:17.020622 13152 net.cpp:435] relu3 <- conv3
I0502 20:22:17.020625 13152 net.cpp:396] relu3 -> conv3 (in-place)
I0502 20:22:17.020632 13152 net.cpp:144] Setting up relu3
I0502 20:22:17.020637 13152 net.cpp:151] Top shape: 20 64 5 5 (32000)
I0502 20:22:17.020640 13152 net.cpp:159] Memory required for data: 2440080
I0502 20:22:17.020643 13152 layer_factory.hpp:77] Creating layer conv4
I0502 20:22:17.020653 13152 net.cpp:94] Creating Layer conv4
I0502 20:22:17.020655 13152 net.cpp:435] conv4 <- conv3
I0502 20:22:17.020660 13152 net.cpp:409] conv4 -> conv4
I0502 20:22:17.025676 13152 net.cpp:144] Setting up conv4
I0502 20:22:17.025692 13152 net.cpp:151] Top shape: 20 64 5 5 (32000)
I0502 20:22:17.025697 13152 net.cpp:159] Memory required for data: 2568080
I0502 20:22:17.025703 13152 layer_factory.hpp:77] Creating layer relu4
I0502 20:22:17.025709 13152 net.cpp:94] Creating Layer relu4
I0502 20:22:17.025713 13152 net.cpp:435] relu4 <- conv4
I0502 20:22:17.025717 13152 net.cpp:396] relu4 -> conv4 (in-place)
I0502 20:22:17.025725 13152 net.cpp:144] Setting up relu4
I0502 20:22:17.025729 13152 net.cpp:151] Top shape: 20 64 5 5 (32000)
I0502 20:22:17.025733 13152 net.cpp:159] Memory required for data: 2696080
I0502 20:22:17.025737 13152 layer_factory.hpp:77] Creating layer conv5
I0502 20:22:17.025743 13152 net.cpp:94] Creating Layer conv5
I0502 20:22:17.025748 13152 net.cpp:435] conv5 <- conv4
I0502 20:22:17.025753 13152 net.cpp:409] conv5 -> conv5
I0502 20:22:17.030870 13152 net.cpp:144] Setting up conv5
I0502 20:22:17.030884 13152 net.cpp:151] Top shape: 20 64 5 5 (32000)
I0502 20:22:17.030889 13152 net.cpp:159] Memory required for data: 2824080
I0502 20:22:17.030897 13152 layer_factory.hpp:77] Creating layer relu5
I0502 20:22:17.030903 13152 net.cpp:94] Creating Layer relu5
I0502 20:22:17.030906 13152 net.cpp:435] relu5 <- conv5
I0502 20:22:17.030911 13152 net.cpp:396] relu5 -> conv5 (in-place)
I0502 20:22:17.030918 13152 net.cpp:144] Setting up relu5
I0502 20:22:17.030923 13152 net.cpp:151] Top shape: 20 64 5 5 (32000)
I0502 20:22:17.030926 13152 net.cpp:159] Memory required for data: 2952080
I0502 20:22:17.030930 13152 layer_factory.hpp:77] Creating layer pool5
I0502 20:22:17.030935 13152 net.cpp:94] Creating Layer pool5
I0502 20:22:17.030937 13152 net.cpp:435] pool5 <- conv5
I0502 20:22:17.030942 13152 net.cpp:409] pool5 -> pool5
I0502 20:22:17.030975 13152 net.cpp:144] Setting up pool5
I0502 20:22:17.030982 13152 net.cpp:151] Top shape: 20 64 2 2 (5120)
I0502 20:22:17.030985 13152 net.cpp:159] Memory required for data: 2972560
I0502 20:22:17.030989 13152 layer_factory.hpp:77] Creating layer ip1
I0502 20:22:17.030998 13152 net.cpp:94] Creating Layer ip1
I0502 20:22:17.031002 13152 net.cpp:435] ip1 <- pool5
I0502 20:22:17.031007 13152 net.cpp:409] ip1 -> ip1
I0502 20:22:17.032130 13152 net.cpp:144] Setting up ip1
I0502 20:22:17.032143 13152 net.cpp:151] Top shape: 20 64 (1280)
I0502 20:22:17.032147 13152 net.cpp:159] Memory required for data: 2977680
I0502 20:22:17.032153 13152 layer_factory.hpp:77] Creating layer ip2
I0502 20:22:17.032160 13152 net.cpp:94] Creating Layer ip2
I0502 20:22:17.032167 13152 net.cpp:435] ip2 <- ip1
I0502 20:22:17.032173 13152 net.cpp:409] ip2 -> ip2
I0502 20:22:17.032341 13152 net.cpp:144] Setting up ip2
I0502 20:22:17.032347 13152 net.cpp:151] Top shape: 20 64 (1280)
I0502 20:22:17.032351 13152 net.cpp:159] Memory required for data: 2982800
I0502 20:22:17.032356 13152 layer_factory.hpp:77] Creating layer ip3
I0502 20:22:17.032361 13152 net.cpp:94] Creating Layer ip3
I0502 20:22:17.032366 13152 net.cpp:435] ip3 <- ip2
I0502 20:22:17.032369 13152 net.cpp:409] ip3 -> ip3
I0502 20:22:17.032510 13152 net.cpp:144] Setting up ip3
I0502 20:22:17.032522 13152 net.cpp:151] Top shape: 20 50 (1000)
I0502 20:22:17.032526 13152 net.cpp:159] Memory required for data: 2986800
I0502 20:22:17.032531 13152 layer_factory.hpp:77] Creating layer loss
I0502 20:22:17.032537 13152 net.cpp:94] Creating Layer loss
I0502 20:22:17.032541 13152 net.cpp:435] loss <- ip3
I0502 20:22:17.032544 13152 net.cpp:435] loss <- label
I0502 20:22:17.032557 13152 net.cpp:409] loss -> loss
I0502 20:22:17.032568 13152 layer_factory.hpp:77] Creating layer loss
…
I0502 20:22:17.033732 13152 solver.cpp:181] Creating test net (#0) specified by net file: ./protocol/dis_5_100_dimension.protocol_distribution
I0502 20:22:17.033759 13152 net.cpp:323] The NetState phase (1) differed from the phase (0) specified by a rule in layer parameters
I0502 20:22:17.033854 13152 net.cpp:52] Initializing net from parameters: 
state {
  phase: TEST
}
layer {
  name: "intercept"
  type: "HDF5Data"
  top: "data"
  top: "label"
  include {
    phase: TEST
  }
  hdf5_data_param {
    source: "/home/purduethu/scratch/radon/d/deng106/CNNStatisticalModel/distributions/input/5_distributions_100_sample_size_test-distributions-path.txt"
    batch_size: 20
  }
}
layer {
  name: "conv1"
  type: "Convolution"
  bottom: "data"
  top: "conv1"
  param {
    lr_mult: 1
  }
  param {
    lr_mult: 2
  }
  convolution_param {
    num_output: 64
    pad: 2
    kernel_size: 5
    stride: 1
    weight_filler {
      type: "gaussian"
      std: 0.0001
    }
    bias_filler {
      type: "constant"
    }
  }
}
layer {
  name: "relu1"
  type: "ReLU"
  bottom: "conv1"
  top: "conv1"
}
layer {
  name: "conv2"
  type: "Convolution"
  bottom: "conv1"
  top: "conv2"
  param {
    lr_mult: 1
  }
  param {
    lr_mult: 2
  }
  convolution_param {
    num_output: 64
    pad: 2
    kernel_size: 5
    stride: 1
    weight_filler {
      type: "gaussian"
      std: 0.01
    }
    bias_filler {
      type: "constant"
    }
  }
}
layer {
  name: "relu2"
  type: "ReLU"
  bottom: "conv2"
  top: "conv2"
}
layer {
  name: "pool2"
  type: "Pooling"
  bottom: "conv2"
  top: "pool2"
  pooling_param {
    pool: MAX
    kernel_size: 3
    stride: 2
  }
}
layer {
  name: "conv3"
  type: "Convolution"
  bottom: "pool2"
  top: "conv3"
  param {
    lr_mult: 1
  }
  param {
    lr_mult: 2
  }
  convolution_param {
    num_output: 64
    pad: 2
    kernel_size: 5
    stride: 1
    weight_filler {
      type: "gaussian"
      std: 0.01
    }
    bias_filler {
      type: "constant"
    }
  }
}
layer {
  name: "relu3"
  type: "ReLU"
  bottom: "conv3"
  top: "conv3"
}
layer {
  name: "conv4"
  type: "Convolution"
  bottom: "conv3"
  top: "conv4"
  param {
    lr_mult: 1
  }
  param {
    lr_mult: 2
  }
  convolution_param {
    num_output: 64
    pad: 2
    kernel_size: 5
    stride: 1
    weight_filler {
      type: "gaussian"
      std: 0.01
    }
    bias_filler {
      type: "constant"
    }
  }
}
layer {
  name: "relu4"
  type: "ReLU"
  bottom: "conv4"
  top: "conv4"
}
layer {
  name: "conv5"
  type: "Convolution"
  bottom: "conv4"
  top: "conv5"
  param {
    lr_mult: 1
  }
  param {
    lr_mult: 2
  }
  convolution_param {
    num_output: 64
    pad: 2
    kernel_size: 5
    stride: 1
    weight_filler {
      type: "gaussian"
      std: 0.01
    }
    bias_filler {
      type: "constant"
    }
  }
}
layer {
  name: "relu5"
  type: "ReLU"
  bottom: "conv5"
  top: "conv5"
}
layer {
  name: "pool5"
  type: "Pooling"
  bottom: "conv5"
  top: "pool5"
  pooling_param {
    pool: AVE
    kernel_size: 3
    stride: 2
  }
}
layer {
  name: "ip1"
  type: "InnerProduct"
  bottom: "pool5"
  top: "ip1"
  param {
    lr_mult: 1
  }
  param {
    lr_mult: 2
  }
  inner_product_param {
    num_output: 64
    weight_filler {
      type: "gaussian"
      std: 0.1
    }
    bias_filler {
      type: "constant"
    }
  }
}
layer {
  name: "ip2"
  type: "InnerProduct"
  bottom: "ip1"
  top: "ip2"
  param {
    lr_mult: 1
  }
  param {
    lr_mult: 2
  }
  inner_product_param {
    num_output: 64
    weight_filler {
      type: "gaussian"
      std: 0.1
    }
    bias_filler {
      type: "constant"
    }
  }
}
layer {
  name: "ip3"
  type: "InnerProduct"
  bottom: "ip2"
  top: "ip3"
  param {
    lr_mult: 1
  }
  param {
    lr_mult: 2
  }
  inner_product_param {
    num_output: 50
    weight_filler {
      type: "gaussian"
      std: 0.1
    }
    bias_filler {
      type: "constant"
    }
  }
}
layer {
  name: "accuracy"
  type: "Accuracy"
  bottom: "ip3"
  bottom: "label"
  top: "accuracy"
  include {
    phase: TEST
  }
}
layer {
  name: "loss"
  type: "SoftmaxWithLoss"
  bottom: "ip3"
  bottom: "label"
  top: "loss"
}
I0502 20:22:17.033926 13152 layer_factory.hpp:77] Creating layer intercept
I0502 20:22:17.033934 13152 net.cpp:94] Creating Layer intercept
I0502 20:22:17.033938 13152 net.cpp:409] intercept -> data
I0502 20:22:17.033946 13152 net.cpp:409] intercept -> label
I0502 20:22:17.033951 13152 hdf5_data_layer.cpp:79] Loading list of HDF5 filenames from: /home/purduethu/scratch/radon/d/deng106/CNNStatisticalModel/distributions/input/5_distributions_100_sample_size_test-distributions-path.txt
I0502 20:22:17.033970 13152 hdf5_data_layer.cpp:93] Number of HDF5 files: 1
I0502 20:22:17.038105 13152 net.cpp:144] Setting up intercept
I0502 20:22:17.038133 13152 net.cpp:151] Top shape: 20 1 10 10 (2000)
I0502 20:22:17.038138 13152 net.cpp:151] Top shape: 20 (20)
I0502 20:22:17.038141 13152 net.cpp:159] Memory required for data: 8080
I0502 20:22:17.038146 13152 layer_factory.hpp:77] Creating layer label_intercept_1_split
I0502 20:22:17.038162 13152 net.cpp:94] Creating Layer label_intercept_1_split
I0502 20:22:17.038167 13152 net.cpp:435] label_intercept_1_split <- label
I0502 20:22:17.038172 13152 net.cpp:409] label_intercept_1_split -> label_intercept_1_split_0
I0502 20:22:17.038180 13152 net.cpp:409] label_intercept_1_split -> label_intercept_1_split_1
I0502 20:22:17.038213 13152 net.cpp:144] Setting up label_intercept_1_split
I0502 20:22:17.038219 13152 net.cpp:151] Top shape: 20 (20)
I0502 20:22:17.038223 13152 net.cpp:151] Top shape: 20 (20)
I0502 20:22:17.038226 13152 net.cpp:159] Memory required for data: 8240
I0502 20:22:17.038230 13152 layer_factory.hpp:77] Creating layer conv1
I0502 20:22:17.038239 13152 net.cpp:94] Creating Layer conv1
I0502 20:22:17.038244 13152 net.cpp:435] conv1 <- data
I0502 20:22:17.038249 13152 net.cpp:409] conv1 -> conv1
I0502 20:22:17.040644 13152 net.cpp:144] Setting up conv1
I0502 20:22:17.040665 13152 net.cpp:151] Top shape: 20 64 10 10 (128000)
I0502 20:22:17.040670 13152 net.cpp:159] Memory required for data: 520240
I0502 20:22:17.040679 13152 layer_factory.hpp:77] Creating layer relu1
I0502 20:22:17.040685 13152 net.cpp:94] Creating Layer relu1
I0502 20:22:17.040689 13152 net.cpp:435] relu1 <- conv1
I0502 20:22:17.040693 13152 net.cpp:396] relu1 -> conv1 (in-place)
I0502 20:22:17.040700 13152 net.cpp:144] Setting up relu1
I0502 20:22:17.040705 13152 net.cpp:151] Top shape: 20 64 10 10 (128000)
I0502 20:22:17.040709 13152 net.cpp:159] Memory required for data: 1032240
I0502 20:22:17.040711 13152 layer_factory.hpp:77] Creating layer conv2
I0502 20:22:17.040719 13152 net.cpp:94] Creating Layer conv2
I0502 20:22:17.040724 13152 net.cpp:435] conv2 <- conv1
I0502 20:22:17.040729 13152 net.cpp:409] conv2 -> conv2
I0502 20:22:17.044904 13152 net.cpp:144] Setting up conv2
I0502 20:22:17.044917 13152 net.cpp:151] Top shape: 20 64 10 10 (128000)
I0502 20:22:17.044921 13152 net.cpp:159] Memory required for data: 1544240
I0502 20:22:17.044929 13152 layer_factory.hpp:77] Creating layer relu2
I0502 20:22:17.044935 13152 net.cpp:94] Creating Layer relu2
I0502 20:22:17.044939 13152 net.cpp:435] relu2 <- conv2
I0502 20:22:17.044944 13152 net.cpp:396] relu2 -> conv2 (in-place)
I0502 20:22:17.044950 13152 net.cpp:144] Setting up relu2
I0502 20:22:17.044955 13152 net.cpp:151] Top shape: 20 64 10 10 (128000)
I0502 20:22:17.044958 13152 net.cpp:159] Memory required for data: 2056240
I0502 20:22:17.044961 13152 layer_factory.hpp:77] Creating layer pool2
I0502 20:22:17.044967 13152 net.cpp:94] Creating Layer pool2
I0502 20:22:17.044970 13152 net.cpp:435] pool2 <- conv2
I0502 20:22:17.044975 13152 net.cpp:409] pool2 -> pool2
I0502 20:22:17.045008 13152 net.cpp:144] Setting up pool2
I0502 20:22:17.045016 13152 net.cpp:151] Top shape: 20 64 5 5 (32000)
I0502 20:22:17.045018 13152 net.cpp:159] Memory required for data: 2184240
I0502 20:22:17.045022 13152 layer_factory.hpp:77] Creating layer conv3
I0502 20:22:17.045029 13152 net.cpp:94] Creating Layer conv3
I0502 20:22:17.045032 13152 net.cpp:435] conv3 <- pool2
I0502 20:22:17.045037 13152 net.cpp:409] conv3 -> conv3
I0502 20:22:17.052566 13152 net.cpp:144] Setting up conv3
I0502 20:22:17.052580 13152 net.cpp:151] Top shape: 20 64 5 5 (32000)
I0502 20:22:17.052584 13152 net.cpp:159] Memory required for data: 2312240
I0502 20:22:17.052592 13152 layer_factory.hpp:77] Creating layer relu3
I0502 20:22:17.052599 13152 net.cpp:94] Creating Layer relu3
I0502 20:22:17.052603 13152 net.cpp:435] relu3 <- conv3
I0502 20:22:17.052608 13152 net.cpp:396] relu3 -> conv3 (in-place)
I0502 20:22:17.052615 13152 net.cpp:144] Setting up relu3
I0502 20:22:17.052620 13152 net.cpp:151] Top shape: 20 64 5 5 (32000)
I0502 20:22:17.052623 13152 net.cpp:159] Memory required for data: 2440240
I0502 20:22:17.052626 13152 layer_factory.hpp:77] Creating layer conv4
I0502 20:22:17.052634 13152 net.cpp:94] Creating Layer conv4
I0502 20:22:17.052637 13152 net.cpp:435] conv4 <- conv3
I0502 20:22:17.052642 13152 net.cpp:409] conv4 -> conv4
I0502 20:22:17.056491 13152 net.cpp:144] Setting up conv4
I0502 20:22:17.056504 13152 net.cpp:151] Top shape: 20 64 5 5 (32000)
I0502 20:22:17.056509 13152 net.cpp:159] Memory required for data: 2568240
I0502 20:22:17.056514 13152 layer_factory.hpp:77] Creating layer relu4
I0502 20:22:17.056520 13152 net.cpp:94] Creating Layer relu4
I0502 20:22:17.056524 13152 net.cpp:435] relu4 <- conv4
I0502 20:22:17.056532 13152 net.cpp:396] relu4 -> conv4 (in-place)
I0502 20:22:17.056540 13152 net.cpp:144] Setting up relu4
I0502 20:22:17.056545 13152 net.cpp:151] Top shape: 20 64 5 5 (32000)
I0502 20:22:17.056548 13152 net.cpp:159] Memory required for data: 2696240
I0502 20:22:17.056560 13152 layer_factory.hpp:77] Creating layer conv5
I0502 20:22:17.056568 13152 net.cpp:94] Creating Layer conv5
I0502 20:22:17.056571 13152 net.cpp:435] conv5 <- conv4
I0502 20:22:17.056576 13152 net.cpp:409] conv5 -> conv5
I0502 20:22:17.060708 13152 net.cpp:144] Setting up conv5
I0502 20:22:17.060721 13152 net.cpp:151] Top shape: 20 64 5 5 (32000)
I0502 20:22:17.060731 13152 net.cpp:159] Memory required for data: 2824240
I0502 20:22:17.060740 13152 layer_factory.hpp:77] Creating layer relu5
I0502 20:22:17.060746 13152 net.cpp:94] Creating Layer relu5
I0502 20:22:17.060750 13152 net.cpp:435] relu5 <- conv5
I0502 20:22:17.060755 13152 net.cpp:396] relu5 -> conv5 (in-place)
I0502 20:22:17.060761 13152 net.cpp:144] Setting up relu5
I0502 20:22:17.060766 13152 net.cpp:151] Top shape: 20 64 5 5 (32000)
I0502 20:22:17.060770 13152 net.cpp:159] Memory required for data: 2952240
I0502 20:22:17.060772 13152 layer_factory.hpp:77] Creating layer pool5
I0502 20:22:17.060776 13152 net.cpp:94] Creating Layer pool5
I0502 20:22:17.060781 13152 net.cpp:435] pool5 <- conv5
I0502 20:22:17.060784 13152 net.cpp:409] pool5 -> pool5
I0502 20:22:17.060808 13152 net.cpp:144] Setting up pool5
I0502 20:22:17.060816 13152 net.cpp:151] Top shape: 20 64 2 2 (5120)
I0502 20:22:17.060818 13152 net.cpp:159] Memory required for data: 2972720
I0502 20:22:17.060822 13152 layer_factory.hpp:77] Creating layer ip1
I0502 20:22:17.060827 13152 net.cpp:94] Creating Layer ip1
I0502 20:22:17.060832 13152 net.cpp:435] ip1 <- pool5
I0502 20:22:17.060837 13152 net.cpp:409] ip1 -> ip1
I0502 20:22:17.061302 13152 net.cpp:144] Setting up ip1
I0502 20:22:17.061309 13152 net.cpp:151] Top shape: 20 64 (1280)
I0502 20:22:17.061313 13152 net.cpp:159] Memory required for data: 2977840
I0502 20:22:17.061318 13152 layer_factory.hpp:77] Creating layer ip2
I0502 20:22:17.061324 13152 net.cpp:94] Creating Layer ip2
I0502 20:22:17.061327 13152 net.cpp:435] ip2 <- ip1
I0502 20:22:17.061332 13152 net.cpp:409] ip2 -> ip2
I0502 20:22:17.061497 13152 net.cpp:144] Setting up ip2
I0502 20:22:17.061504 13152 net.cpp:151] Top shape: 20 64 (1280)
I0502 20:22:17.061507 13152 net.cpp:159] Memory required for data: 2982960
I0502 20:22:17.061512 13152 layer_factory.hpp:77] Creating layer ip3
I0502 20:22:17.061519 13152 net.cpp:94] Creating Layer ip3
I0502 20:22:17.061523 13152 net.cpp:435] ip3 <- ip2
I0502 20:22:17.061527 13152 net.cpp:409] ip3 -> ip3
I0502 20:22:17.061671 13152 net.cpp:144] Setting up ip3
I0502 20:22:17.061678 13152 net.cpp:151] Top shape: 20 50 (1000)
I0502 20:22:17.061681 13152 net.cpp:159] Memory required for data: 2986960
I0502 20:22:17.061686 13152 layer_factory.hpp:77] Creating layer ip3_ip3_0_split
I0502 20:22:17.061691 13152 net.cpp:94] Creating Layer ip3_ip3_0_split
I0502 20:22:17.061694 13152 net.cpp:435] ip3_ip3_0_split <- ip3
I0502 20:22:17.061698 13152 net.cpp:409] ip3_ip3_0_split -> ip3_ip3_0_split_0
I0502 20:22:17.061704 13152 net.cpp:409] ip3_ip3_0_split -> ip3_ip3_0_split_1
I0502 20:22:17.061728 13152 net.cpp:144] Setting up ip3_ip3_0_split
I0502 20:22:17.061733 13152 net.cpp:151] Top shape: 20 50 (1000)
I0502 20:22:17.061738 13152 net.cpp:151] Top shape: 20 50 (1000)
I0502 20:22:17.061740 13152 net.cpp:159] Memory required for data: 2994960
I0502 20:22:17.061743 13152 layer_factory.hpp:77] Creating layer accuracy
I0502 20:22:17.061749 13152 net.cpp:94] Creating Layer accuracy
I0502 20:22:17.061753 13152 net.cpp:435] accuracy <- ip3_ip3_0_split_0
I0502 20:22:17.061756 13152 net.cpp:435] accuracy <- label_intercept_1_split_0
I0502 20:22:17.061761 13152 net.cpp:409] accuracy -> accuracy
…
