…
I0502 03:47:30.828621 18327 net.cpp:323] The NetState phase (0) differed from the phase (1) specified by a rule in layer intercept
I0502 03:47:30.828639 18327 net.cpp:323] The NetState phase (0) differed from the phase (1) specified by a rule in layer loss
I0502 03:47:30.828732 18327 net.cpp:52] Initializing net from parameters: 
state {
  phase: TRAIN
}
layer {
  name: "parameters"
  type: "HDF5Data"
  top: "data"
  top: "label"
  include {
    phase: TRAIN
  }
  hdf5_data_param {
    source: "/home/purduethu/scratch/radon/d/deng106/CNNStatisticalModel/distributions/input/50_distributions_900_sample_size_train-parameters-path.txt"
    batch_size: 20
  }
}
layer {
  name: "conv1"
  type: "Convolution"
  bottom: "data"
  top: "conv1"
  param {
    lr_mult: 1
  }
  param {
    lr_mult: 2
  }
  convolution_param {
    num_output: 64
    pad: 2
    kernel_size: 5
    stride: 1
    weight_filler {
      type: "gaussian"
      std: 0.0001
    }
    bias_filler {
      type: "constant"
    }
  }
}
layer {
  name: "relu1"
  type: "ReLU"
  bottom: "conv1"
  top: "conv1"
}
layer {
  name: "conv2"
  type: "Convolution"
  bottom: "conv1"
  top: "conv2"
  param {
    lr_mult: 1
  }
  param {
    lr_mult: 2
  }
  convolution_param {
    num_output: 64
    pad: 2
    kernel_size: 5
    stride: 1
    weight_filler {
      type: "gaussian"
      std: 0.01
    }
    bias_filler {
      type: "constant"
    }
  }
}
layer {
  name: "relu2"
  type: "ReLU"
  bottom: "conv2"
  top: "conv2"
}
layer {
  name: "pool2"
  type: "Pooling"
  bottom: "conv2"
  top: "pool2"
  pooling_param {
    pool: MAX
    kernel_size: 3
    stride: 2
  }
}
layer {
  name: "conv3"
  type: "Convolution"
  bottom: "pool2"
  top: "conv3"
  param {
    lr_mult: 1
  }
  param {
    lr_mult: 2
  }
  convolution_param {
    num_output: 64
    pad: 2
    kernel_size: 5
    stride: 1
    weight_filler {
      type: "gaussian"
      std: 0.01
    }
    bias_filler {
      type: "constant"
    }
  }
}
layer {
  name: "relu3"
  type: "ReLU"
  bottom: "conv3"
  top: "conv3"
}
layer {
  name: "conv4"
  type: "Convolution"
  bottom: "conv3"
  top: "conv4"
  param {
    lr_mult: 1
  }
  param {
    lr_mult: 2
  }
  convolution_param {
    num_output: 64
    pad: 2
    kernel_size: 5
    stride: 1
    weight_filler {
      type: "gaussian"
      std: 0.01
    }
    bias_filler {
      type: "constant"
    }
  }
}
layer {
  name: "relu4"
  type: "ReLU"
  bottom: "conv4"
  top: "conv4"
}
layer {
  name: "conv5"
  type: "Convolution"
  bottom: "conv4"
  top: "conv5"
  param {
    lr_mult: 1
  }
  param {
    lr_mult: 2
  }
  convolution_param {
    num_output: 64
    pad: 2
    kernel_size: 5
    stride: 1
    weight_filler {
      type: "gaussian"
      std: 0.01
    }
    bias_filler {
      type: "constant"
    }
  }
}
layer {
  name: "relu5"
  type: "ReLU"
  bottom: "conv5"
  top: "conv5"
}
layer {
  name: "pool5"
  type: "Pooling"
  bottom: "conv5"
  top: "pool5"
  pooling_param {
    pool: AVE
    kernel_size: 3
    stride: 2
  }
}
layer {
  name: "ip1"
  type: "InnerProduct"
  bottom: "pool5"
  top: "ip1"
  param {
    lr_mult: 1
  }
  param {
    lr_mult: 2
  }
  inner_product_param {
    num_output: 64
    weight_filler {
      type: "gaussian"
      std: 0.1
    }
    bias_filler {
      type: "constant"
    }
  }
}
layer {
  name: "ip2"
  type: "InnerProduct"
  bottom: "ip1"
  top: "ip2"
  param {
    lr_mult: 1
  }
  param {
    lr_mult: 2
  }
  inner_product_param {
    num_output: 64
    weight_filler {
      type: "gaussian"
      std: 0.1
    }
    bias_filler {
      type: "constant"
    }
  }
}
layer {
  name: "ip3"
  type: "InnerProduct"
  bottom: "ip2"
  top: "ip3"
  param {
    lr_mult: 1
  }
  param {
    lr_mult: 2
  }
  inner_product_param {
    num_output: 1
    weight_filler {
      type: "gaussian"
      std: 0.1
    }
    bias_filler {
      type: "constant"
    }
  }
}
layer {
  name: "loss"
  type: "HuberLoss"
  bottom: "ip3"
  bottom: "label"
  top: "loss"
  include {
    phase: TRAIN
  }
}
I0502 03:47:30.828809 18327 layer_factory.hpp:77] Creating layer parameters
I0502 03:47:30.828825 18327 net.cpp:94] Creating Layer parameters
I0502 03:47:30.828831 18327 net.cpp:409] parameters -> data
I0502 03:47:30.828851 18327 net.cpp:409] parameters -> label
I0502 03:47:30.828862 18327 hdf5_data_layer.cpp:79] Loading list of HDF5 filenames from: /home/purduethu/scratch/radon/d/deng106/CNNStatisticalModel/distributions/input/50_distributions_900_sample_size_train-parameters-path.txt
I0502 03:47:30.828884 18327 hdf5_data_layer.cpp:93] Number of HDF5 files: 1
I0502 03:47:30.829466 18327 hdf5.cpp:32] Datatype class: H5T_FLOAT
I0502 03:47:32.268482 18327 net.cpp:144] Setting up parameters
I0502 03:47:32.268517 18327 net.cpp:151] Top shape: 20 1 30 30 (18000)
I0502 03:47:32.268523 18327 net.cpp:151] Top shape: 20 (20)
I0502 03:47:32.268527 18327 net.cpp:159] Memory required for data: 72080
I0502 03:47:32.268534 18327 layer_factory.hpp:77] Creating layer conv1
I0502 03:47:32.268581 18327 net.cpp:94] Creating Layer conv1
I0502 03:47:32.268589 18327 net.cpp:435] conv1 <- data
I0502 03:47:32.268600 18327 net.cpp:409] conv1 -> conv1
I0502 03:47:32.274466 18327 net.cpp:144] Setting up conv1
I0502 03:47:32.274482 18327 net.cpp:151] Top shape: 20 64 30 30 (1152000)
I0502 03:47:32.274487 18327 net.cpp:159] Memory required for data: 4680080
I0502 03:47:32.274498 18327 layer_factory.hpp:77] Creating layer relu1
I0502 03:47:32.274507 18327 net.cpp:94] Creating Layer relu1
I0502 03:47:32.274510 18327 net.cpp:435] relu1 <- conv1
I0502 03:47:32.274515 18327 net.cpp:396] relu1 -> conv1 (in-place)
I0502 03:47:32.274531 18327 net.cpp:144] Setting up relu1
I0502 03:47:32.274538 18327 net.cpp:151] Top shape: 20 64 30 30 (1152000)
I0502 03:47:32.274540 18327 net.cpp:159] Memory required for data: 9288080
I0502 03:47:32.274544 18327 layer_factory.hpp:77] Creating layer conv2
I0502 03:47:32.274551 18327 net.cpp:94] Creating Layer conv2
I0502 03:47:32.274555 18327 net.cpp:435] conv2 <- conv1
I0502 03:47:32.274560 18327 net.cpp:409] conv2 -> conv2
I0502 03:47:32.289690 18327 net.cpp:144] Setting up conv2
I0502 03:47:32.289705 18327 net.cpp:151] Top shape: 20 64 30 30 (1152000)
I0502 03:47:32.289710 18327 net.cpp:159] Memory required for data: 13896080
I0502 03:47:32.289717 18327 layer_factory.hpp:77] Creating layer relu2
I0502 03:47:32.289724 18327 net.cpp:94] Creating Layer relu2
I0502 03:47:32.289728 18327 net.cpp:435] relu2 <- conv2
I0502 03:47:32.289732 18327 net.cpp:396] relu2 -> conv2 (in-place)
I0502 03:47:32.289741 18327 net.cpp:144] Setting up relu2
I0502 03:47:32.289746 18327 net.cpp:151] Top shape: 20 64 30 30 (1152000)
I0502 03:47:32.289748 18327 net.cpp:159] Memory required for data: 18504080
I0502 03:47:32.289752 18327 layer_factory.hpp:77] Creating layer pool2
I0502 03:47:32.289758 18327 net.cpp:94] Creating Layer pool2
I0502 03:47:32.289768 18327 net.cpp:435] pool2 <- conv2
I0502 03:47:32.289774 18327 net.cpp:409] pool2 -> pool2
I0502 03:47:32.289819 18327 net.cpp:144] Setting up pool2
I0502 03:47:32.289826 18327 net.cpp:151] Top shape: 20 64 15 15 (288000)
I0502 03:47:32.289830 18327 net.cpp:159] Memory required for data: 19656080
I0502 03:47:32.289834 18327 layer_factory.hpp:77] Creating layer conv3
I0502 03:47:32.289841 18327 net.cpp:94] Creating Layer conv3
I0502 03:47:32.289844 18327 net.cpp:435] conv3 <- pool2
I0502 03:47:32.289849 18327 net.cpp:409] conv3 -> conv3
I0502 03:47:32.297971 18327 net.cpp:144] Setting up conv3
I0502 03:47:32.297986 18327 net.cpp:151] Top shape: 20 64 15 15 (288000)
I0502 03:47:32.297991 18327 net.cpp:159] Memory required for data: 20808080
I0502 03:47:32.297998 18327 layer_factory.hpp:77] Creating layer relu3
I0502 03:47:32.298005 18327 net.cpp:94] Creating Layer relu3
I0502 03:47:32.298009 18327 net.cpp:435] relu3 <- conv3
I0502 03:47:32.298013 18327 net.cpp:396] relu3 -> conv3 (in-place)
I0502 03:47:32.298022 18327 net.cpp:144] Setting up relu3
I0502 03:47:32.298025 18327 net.cpp:151] Top shape: 20 64 15 15 (288000)
I0502 03:47:32.298029 18327 net.cpp:159] Memory required for data: 21960080
I0502 03:47:32.298032 18327 layer_factory.hpp:77] Creating layer conv4
I0502 03:47:32.298040 18327 net.cpp:94] Creating Layer conv4
I0502 03:47:32.298044 18327 net.cpp:435] conv4 <- conv3
I0502 03:47:32.298048 18327 net.cpp:409] conv4 -> conv4
I0502 03:47:32.305120 18327 net.cpp:144] Setting up conv4
I0502 03:47:32.305135 18327 net.cpp:151] Top shape: 20 64 15 15 (288000)
I0502 03:47:32.305140 18327 net.cpp:159] Memory required for data: 23112080
I0502 03:47:32.305145 18327 layer_factory.hpp:77] Creating layer relu4
I0502 03:47:32.305151 18327 net.cpp:94] Creating Layer relu4
I0502 03:47:32.305155 18327 net.cpp:435] relu4 <- conv4
I0502 03:47:32.305160 18327 net.cpp:396] relu4 -> conv4 (in-place)
I0502 03:47:32.305167 18327 net.cpp:144] Setting up relu4
I0502 03:47:32.305172 18327 net.cpp:151] Top shape: 20 64 15 15 (288000)
I0502 03:47:32.305176 18327 net.cpp:159] Memory required for data: 24264080
I0502 03:47:32.305178 18327 layer_factory.hpp:77] Creating layer conv5
I0502 03:47:32.305186 18327 net.cpp:94] Creating Layer conv5
I0502 03:47:32.305189 18327 net.cpp:435] conv5 <- conv4
I0502 03:47:32.305194 18327 net.cpp:409] conv5 -> conv5
I0502 03:47:32.312613 18327 net.cpp:144] Setting up conv5
I0502 03:47:32.312628 18327 net.cpp:151] Top shape: 20 64 15 15 (288000)
I0502 03:47:32.312633 18327 net.cpp:159] Memory required for data: 25416080
I0502 03:47:32.312641 18327 layer_factory.hpp:77] Creating layer relu5
I0502 03:47:32.312647 18327 net.cpp:94] Creating Layer relu5
I0502 03:47:32.312651 18327 net.cpp:435] relu5 <- conv5
I0502 03:47:32.312655 18327 net.cpp:396] relu5 -> conv5 (in-place)
I0502 03:47:32.312662 18327 net.cpp:144] Setting up relu5
I0502 03:47:32.312667 18327 net.cpp:151] Top shape: 20 64 15 15 (288000)
I0502 03:47:32.312670 18327 net.cpp:159] Memory required for data: 26568080
I0502 03:47:32.312674 18327 layer_factory.hpp:77] Creating layer pool5
I0502 03:47:32.312680 18327 net.cpp:94] Creating Layer pool5
I0502 03:47:32.312682 18327 net.cpp:435] pool5 <- conv5
I0502 03:47:32.312686 18327 net.cpp:409] pool5 -> pool5
I0502 03:47:32.312721 18327 net.cpp:144] Setting up pool5
I0502 03:47:32.312728 18327 net.cpp:151] Top shape: 20 64 7 7 (62720)
I0502 03:47:32.312731 18327 net.cpp:159] Memory required for data: 26818960
I0502 03:47:32.312734 18327 layer_factory.hpp:77] Creating layer ip1
I0502 03:47:32.312744 18327 net.cpp:94] Creating Layer ip1
I0502 03:47:32.312748 18327 net.cpp:435] ip1 <- pool5
I0502 03:47:32.312752 18327 net.cpp:409] ip1 -> ip1
I0502 03:47:32.318203 18327 net.cpp:144] Setting up ip1
I0502 03:47:32.318217 18327 net.cpp:151] Top shape: 20 64 (1280)
I0502 03:47:32.318220 18327 net.cpp:159] Memory required for data: 26824080
I0502 03:47:32.318226 18327 layer_factory.hpp:77] Creating layer ip2
I0502 03:47:32.318233 18327 net.cpp:94] Creating Layer ip2
I0502 03:47:32.318241 18327 net.cpp:435] ip2 <- ip1
I0502 03:47:32.318248 18327 net.cpp:409] ip2 -> ip2
I0502 03:47:32.318418 18327 net.cpp:144] Setting up ip2
I0502 03:47:32.318424 18327 net.cpp:151] Top shape: 20 64 (1280)
I0502 03:47:32.318428 18327 net.cpp:159] Memory required for data: 26829200
I0502 03:47:32.318433 18327 layer_factory.hpp:77] Creating layer ip3
I0502 03:47:32.318439 18327 net.cpp:94] Creating Layer ip3
I0502 03:47:32.318441 18327 net.cpp:435] ip3 <- ip2
I0502 03:47:32.318446 18327 net.cpp:409] ip3 -> ip3
I0502 03:47:32.318509 18327 net.cpp:144] Setting up ip3
I0502 03:47:32.318521 18327 net.cpp:151] Top shape: 20 1 (20)
I0502 03:47:32.318524 18327 net.cpp:159] Memory required for data: 26829280
I0502 03:47:32.318529 18327 layer_factory.hpp:77] Creating layer loss
I0502 03:47:32.318536 18327 net.cpp:94] Creating Layer loss
I0502 03:47:32.318541 18327 net.cpp:435] loss <- ip3
I0502 03:47:32.318543 18327 net.cpp:435] loss <- label
I0502 03:47:32.318549 18327 net.cpp:409] loss -> loss
I0502 03:47:32.318583 18327 net.cpp:144] Setting up loss
…
