…
I0503 18:20:12.044144 21817 net.cpp:323] The NetState phase (0) differed from the phase (1) specified by a rule in layer intercept
I0503 18:20:12.044160 21817 net.cpp:323] The NetState phase (0) differed from the phase (1) specified by a rule in layer accuracy
I0503 18:20:12.044252 21817 net.cpp:52] Initializing net from parameters: 
state {
  phase: TRAIN
}
layer {
  name: "parameters"
  type: "HDF5Data"
  top: "data"
  top: "label"
  include {
    phase: TRAIN
  }
  hdf5_data_param {
    source: "/home/purduethu/scratch/radon/d/deng106/CNNStatisticalModel/distributions/input/20_distributions_900_sample_size_train-distributions-path.txt"
    batch_size: 20
  }
}
layer {
  name: "conv1"
  type: "Convolution"
  bottom: "data"
  top: "conv1"
  param {
    lr_mult: 1
  }
  param {
    lr_mult: 2
  }
  convolution_param {
    num_output: 64
    pad: 2
    kernel_size: 5
    stride: 1
    weight_filler {
      type: "gaussian"
      std: 0.0001
    }
    bias_filler {
      type: "constant"
    }
  }
}
layer {
  name: "relu1"
  type: "ReLU"
  bottom: "conv1"
  top: "conv1"
}
layer {
  name: "conv2"
  type: "Convolution"
  bottom: "conv1"
  top: "conv2"
  param {
    lr_mult: 1
  }
  param {
    lr_mult: 2
  }
  convolution_param {
    num_output: 64
    pad: 2
    kernel_size: 5
    stride: 1
    weight_filler {
      type: "gaussian"
      std: 0.01
    }
    bias_filler {
      type: "constant"
    }
  }
}
layer {
  name: "relu2"
  type: "ReLU"
  bottom: "conv2"
  top: "conv2"
}
layer {
  name: "pool2"
  type: "Pooling"
  bottom: "conv2"
  top: "pool2"
  pooling_param {
    pool: MAX
    kernel_size: 3
    stride: 2
  }
}
layer {
  name: "conv3"
  type: "Convolution"
  bottom: "pool2"
  top: "conv3"
  param {
    lr_mult: 1
  }
  param {
    lr_mult: 2
  }
  convolution_param {
    num_output: 128
    pad: 2
    kernel_size: 5
    stride: 1
    weight_filler {
      type: "gaussian"
      std: 0.01
    }
    bias_filler {
      type: "constant"
    }
  }
}
layer {
  name: "relu3"
  type: "ReLU"
  bottom: "conv3"
  top: "conv3"
}
layer {
  name: "conv4"
  type: "Convolution"
  bottom: "conv3"
  top: "conv4"
  param {
    lr_mult: 1
  }
  param {
    lr_mult: 2
  }
  convolution_param {
    num_output: 128
    pad: 2
    kernel_size: 5
    stride: 1
    weight_filler {
      type: "gaussian"
      std: 0.01
    }
    bias_filler {
      type: "constant"
    }
  }
}
layer {
  name: "relu4"
  type: "ReLU"
  bottom: "conv4"
  top: "conv4"
}
layer {
  name: "conv5"
  type: "Convolution"
  bottom: "conv4"
  top: "conv5"
  param {
    lr_mult: 1
  }
  param {
    lr_mult: 2
  }
  convolution_param {
    num_output: 128
    pad: 2
    kernel_size: 5
    stride: 1
    weight_filler {
      type: "gaussian"
      std: 0.01
    }
    bias_filler {
      type: "constant"
    }
  }
}
layer {
  name: "relu5"
  type: "ReLU"
  bottom: "conv5"
  top: "conv5"
}
layer {
  name: "pool5"
  type: "Pooling"
  bottom: "conv5"
  top: "pool5"
  pooling_param {
    pool: AVE
    kernel_size: 3
    stride: 2
  }
}
layer {
  name: "ip1"
  type: "InnerProduct"
  bottom: "pool5"
  top: "ip1"
  param {
    lr_mult: 1
  }
  param {
    lr_mult: 2
  }
  inner_product_param {
    num_output: 1024
    weight_filler {
      type: "gaussian"
      std: 0.1
    }
    bias_filler {
      type: "constant"
    }
  }
}
layer {
  name: "ip2"
  type: "InnerProduct"
  bottom: "ip1"
  top: "ip2"
  param {
    lr_mult: 1
  }
  param {
    lr_mult: 2
  }
  inner_product_param {
    num_output: 512
    weight_filler {
      type: "gaussian"
      std: 0.1
    }
    bias_filler {
      type: "constant"
    }
  }
}
layer {
  name: "ip3"
  type: "InnerProduct"
  bottom: "ip2"
  top: "ip3"
  param {
    lr_mult: 1
  }
  param {
    lr_mult: 2
  }
  inner_product_param {
    num_output: 50
    weight_filler {
      type: "gaussian"
      std: 0.1
    }
    bias_filler {
      type: "constant"
    }
  }
}
layer {
  name: "loss"
  type: "SoftmaxWithLoss"
  bottom: "ip3"
  bottom: "label"
  top: "loss"
}
I0503 18:20:12.044328 21817 layer_factory.hpp:77] Creating layer parameters
I0503 18:20:12.044343 21817 net.cpp:94] Creating Layer parameters
I0503 18:20:12.044349 21817 net.cpp:409] parameters -> data
I0503 18:20:12.044369 21817 net.cpp:409] parameters -> label
I0503 18:20:12.044379 21817 hdf5_data_layer.cpp:79] Loading list of HDF5 filenames from: /home/purduethu/scratch/radon/d/deng106/CNNStatisticalModel/distributions/input/20_distributions_900_sample_size_train-distributions-path.txt
I0503 18:20:12.044406 21817 hdf5_data_layer.cpp:93] Number of HDF5 files: 1
I0503 18:20:12.045035 21817 hdf5.cpp:32] Datatype class: H5T_FLOAT
I0503 18:20:12.620018 21817 hdf5.cpp:35] Datatype class: H5T_INTEGER
I0503 18:20:12.621734 21817 net.cpp:144] Setting up parameters
I0503 18:20:12.621753 21817 net.cpp:151] Top shape: 20 1 30 30 (18000)
I0503 18:20:12.621759 21817 net.cpp:151] Top shape: 20 (20)
I0503 18:20:12.621762 21817 net.cpp:159] Memory required for data: 72080
I0503 18:20:12.621770 21817 layer_factory.hpp:77] Creating layer conv1
I0503 18:20:12.621793 21817 net.cpp:94] Creating Layer conv1
I0503 18:20:12.621799 21817 net.cpp:435] conv1 <- data
I0503 18:20:12.621810 21817 net.cpp:409] conv1 -> conv1
I0503 18:20:12.627585 21817 net.cpp:144] Setting up conv1
I0503 18:20:12.627601 21817 net.cpp:151] Top shape: 20 64 30 30 (1152000)
I0503 18:20:12.627605 21817 net.cpp:159] Memory required for data: 4680080
I0503 18:20:12.627616 21817 layer_factory.hpp:77] Creating layer relu1
I0503 18:20:12.627625 21817 net.cpp:94] Creating Layer relu1
I0503 18:20:12.627629 21817 net.cpp:435] relu1 <- conv1
I0503 18:20:12.627634 21817 net.cpp:396] relu1 -> conv1 (in-place)
I0503 18:20:12.627650 21817 net.cpp:144] Setting up relu1
I0503 18:20:12.627655 21817 net.cpp:151] Top shape: 20 64 30 30 (1152000)
I0503 18:20:12.627658 21817 net.cpp:159] Memory required for data: 9288080
I0503 18:20:12.627661 21817 layer_factory.hpp:77] Creating layer conv2
I0503 18:20:12.627670 21817 net.cpp:94] Creating Layer conv2
I0503 18:20:12.627673 21817 net.cpp:435] conv2 <- conv1
I0503 18:20:12.627678 21817 net.cpp:409] conv2 -> conv2
I0503 18:20:12.642313 21817 net.cpp:144] Setting up conv2
I0503 18:20:12.642328 21817 net.cpp:151] Top shape: 20 64 30 30 (1152000)
I0503 18:20:12.642333 21817 net.cpp:159] Memory required for data: 13896080
I0503 18:20:12.642340 21817 layer_factory.hpp:77] Creating layer relu2
I0503 18:20:12.642348 21817 net.cpp:94] Creating Layer relu2
I0503 18:20:12.642351 21817 net.cpp:435] relu2 <- conv2
I0503 18:20:12.642356 21817 net.cpp:396] relu2 -> conv2 (in-place)
I0503 18:20:12.642364 21817 net.cpp:144] Setting up relu2
I0503 18:20:12.642369 21817 net.cpp:151] Top shape: 20 64 30 30 (1152000)
I0503 18:20:12.642371 21817 net.cpp:159] Memory required for data: 18504080
I0503 18:20:12.642374 21817 layer_factory.hpp:77] Creating layer pool2
I0503 18:20:12.642390 21817 net.cpp:94] Creating Layer pool2
I0503 18:20:12.642393 21817 net.cpp:435] pool2 <- conv2
I0503 18:20:12.642397 21817 net.cpp:409] pool2 -> pool2
I0503 18:20:12.642441 21817 net.cpp:144] Setting up pool2
I0503 18:20:12.642447 21817 net.cpp:151] Top shape: 20 64 15 15 (288000)
I0503 18:20:12.642451 21817 net.cpp:159] Memory required for data: 19656080
I0503 18:20:12.642454 21817 layer_factory.hpp:77] Creating layer conv3
I0503 18:20:12.642462 21817 net.cpp:94] Creating Layer conv3
I0503 18:20:12.642465 21817 net.cpp:435] conv3 <- pool2
I0503 18:20:12.642478 21817 net.cpp:409] conv3 -> conv3
I0503 18:20:12.658691 21817 net.cpp:144] Setting up conv3
I0503 18:20:12.658706 21817 net.cpp:151] Top shape: 20 128 15 15 (576000)
I0503 18:20:12.658711 21817 net.cpp:159] Memory required for data: 21960080
I0503 18:20:12.658720 21817 layer_factory.hpp:77] Creating layer relu3
I0503 18:20:12.658725 21817 net.cpp:94] Creating Layer relu3
I0503 18:20:12.658730 21817 net.cpp:435] relu3 <- conv3
I0503 18:20:12.658733 21817 net.cpp:396] relu3 -> conv3 (in-place)
I0503 18:20:12.658741 21817 net.cpp:144] Setting up relu3
I0503 18:20:12.658746 21817 net.cpp:151] Top shape: 20 128 15 15 (576000)
I0503 18:20:12.658748 21817 net.cpp:159] Memory required for data: 24264080
I0503 18:20:12.658751 21817 layer_factory.hpp:77] Creating layer conv4
I0503 18:20:12.658761 21817 net.cpp:94] Creating Layer conv4
I0503 18:20:12.658764 21817 net.cpp:435] conv4 <- conv3
I0503 18:20:12.658769 21817 net.cpp:409] conv4 -> conv4
I0503 18:20:12.680377 21817 net.cpp:144] Setting up conv4
I0503 18:20:12.680392 21817 net.cpp:151] Top shape: 20 128 15 15 (576000)
I0503 18:20:12.680397 21817 net.cpp:159] Memory required for data: 26568080
I0503 18:20:12.680402 21817 layer_factory.hpp:77] Creating layer relu4
I0503 18:20:12.680408 21817 net.cpp:94] Creating Layer relu4
I0503 18:20:12.680413 21817 net.cpp:435] relu4 <- conv4
I0503 18:20:12.680418 21817 net.cpp:396] relu4 -> conv4 (in-place)
I0503 18:20:12.680424 21817 net.cpp:144] Setting up relu4
I0503 18:20:12.680428 21817 net.cpp:151] Top shape: 20 128 15 15 (576000)
I0503 18:20:12.680431 21817 net.cpp:159] Memory required for data: 28872080
I0503 18:20:12.680434 21817 layer_factory.hpp:77] Creating layer conv5
I0503 18:20:12.680443 21817 net.cpp:94] Creating Layer conv5
I0503 18:20:12.680445 21817 net.cpp:435] conv5 <- conv4
I0503 18:20:12.680450 21817 net.cpp:409] conv5 -> conv5
I0503 18:20:12.701644 21817 net.cpp:144] Setting up conv5
I0503 18:20:12.701659 21817 net.cpp:151] Top shape: 20 128 15 15 (576000)
I0503 18:20:12.701663 21817 net.cpp:159] Memory required for data: 31176080
I0503 18:20:12.701673 21817 layer_factory.hpp:77] Creating layer relu5
I0503 18:20:12.701678 21817 net.cpp:94] Creating Layer relu5
I0503 18:20:12.701683 21817 net.cpp:435] relu5 <- conv5
I0503 18:20:12.701686 21817 net.cpp:396] relu5 -> conv5 (in-place)
I0503 18:20:12.701694 21817 net.cpp:144] Setting up relu5
I0503 18:20:12.701699 21817 net.cpp:151] Top shape: 20 128 15 15 (576000)
I0503 18:20:12.701701 21817 net.cpp:159] Memory required for data: 33480080
I0503 18:20:12.701704 21817 layer_factory.hpp:77] Creating layer pool5
I0503 18:20:12.701710 21817 net.cpp:94] Creating Layer pool5
I0503 18:20:12.701714 21817 net.cpp:435] pool5 <- conv5
I0503 18:20:12.701717 21817 net.cpp:409] pool5 -> pool5
I0503 18:20:12.701752 21817 net.cpp:144] Setting up pool5
I0503 18:20:12.701759 21817 net.cpp:151] Top shape: 20 128 7 7 (125440)
I0503 18:20:12.701763 21817 net.cpp:159] Memory required for data: 33981840
I0503 18:20:12.701766 21817 layer_factory.hpp:77] Creating layer ip1
I0503 18:20:12.701776 21817 net.cpp:94] Creating Layer ip1
I0503 18:20:12.701779 21817 net.cpp:435] ip1 <- pool5
I0503 18:20:12.701784 21817 net.cpp:409] ip1 -> ip1
I0503 18:20:12.856771 21817 net.cpp:144] Setting up ip1
I0503 18:20:12.856791 21817 net.cpp:151] Top shape: 20 1024 (20480)
I0503 18:20:12.856796 21817 net.cpp:159] Memory required for data: 34063760
I0503 18:20:12.856804 21817 layer_factory.hpp:77] Creating layer ip2
I0503 18:20:12.856824 21817 net.cpp:94] Creating Layer ip2
I0503 18:20:12.856829 21817 net.cpp:435] ip2 <- ip1
I0503 18:20:12.856837 21817 net.cpp:409] ip2 -> ip2
I0503 18:20:12.869768 21817 net.cpp:144] Setting up ip2
I0503 18:20:12.869781 21817 net.cpp:151] Top shape: 20 512 (10240)
I0503 18:20:12.869786 21817 net.cpp:159] Memory required for data: 34104720
I0503 18:20:12.869791 21817 layer_factory.hpp:77] Creating layer ip3
I0503 18:20:12.869798 21817 net.cpp:94] Creating Layer ip3
I0503 18:20:12.869802 21817 net.cpp:435] ip3 <- ip2
I0503 18:20:12.869807 21817 net.cpp:409] ip3 -> ip3
I0503 18:20:12.871120 21817 net.cpp:144] Setting up ip3
I0503 18:20:12.871132 21817 net.cpp:151] Top shape: 20 50 (1000)
I0503 18:20:12.871136 21817 net.cpp:159] Memory required for data: 34108720
I0503 18:20:12.871142 21817 layer_factory.hpp:77] Creating layer loss
I0503 18:20:12.871150 21817 net.cpp:94] Creating Layer loss
I0503 18:20:12.871155 21817 net.cpp:435] loss <- ip3
I0503 18:20:12.871158 21817 net.cpp:435] loss <- label
I0503 18:20:12.871165 21817 net.cpp:409] loss -> loss
I0503 18:20:12.871176 21817 layer_factory.hpp:77] Creating layer loss
…
I0503 18:20:12.871665 21817 solver.cpp:181] Creating test net (#0) specified by net file: ./protocol/dis_20_900_dimension.protocol_distribution
I0503 18:20:12.871692 21817 net.cpp:323] The NetState phase (1) differed from the phase (0) specified by a rule in layer parameters
I0503 18:20:12.871785 21817 net.cpp:52] Initializing net from parameters: 
state {
  phase: TEST
}
layer {
  name: "intercept"
  type: "HDF5Data"
  top: "data"
  top: "label"
  include {
    phase: TEST
  }
  hdf5_data_param {
    source: "/home/purduethu/scratch/radon/d/deng106/CNNStatisticalModel/distributions/input/20_distributions_900_sample_size_test-distributions-path.txt"
    batch_size: 20
  }
}
layer {
  name: "conv1"
  type: "Convolution"
  bottom: "data"
  top: "conv1"
  param {
    lr_mult: 1
  }
  param {
    lr_mult: 2
  }
  convolution_param {
    num_output: 64
    pad: 2
    kernel_size: 5
    stride: 1
    weight_filler {
      type: "gaussian"
      std: 0.0001
    }
    bias_filler {
      type: "constant"
    }
  }
}
layer {
  name: "relu1"
  type: "ReLU"
  bottom: "conv1"
  top: "conv1"
}
layer {
  name: "conv2"
  type: "Convolution"
  bottom: "conv1"
  top: "conv2"
  param {
    lr_mult: 1
  }
  param {
    lr_mult: 2
  }
  convolution_param {
    num_output: 64
    pad: 2
    kernel_size: 5
    stride: 1
    weight_filler {
      type: "gaussian"
      std: 0.01
    }
    bias_filler {
      type: "constant"
    }
  }
}
layer {
  name: "relu2"
  type: "ReLU"
  bottom: "conv2"
  top: "conv2"
}
layer {
  name: "pool2"
  type: "Pooling"
  bottom: "conv2"
  top: "pool2"
  pooling_param {
    pool: MAX
    kernel_size: 3
    stride: 2
  }
}
layer {
  name: "conv3"
  type: "Convolution"
  bottom: "pool2"
  top: "conv3"
  param {
    lr_mult: 1
  }
  param {
    lr_mult: 2
  }
  convolution_param {
    num_output: 128
    pad: 2
    kernel_size: 5
    stride: 1
    weight_filler {
      type: "gaussian"
      std: 0.01
    }
    bias_filler {
      type: "constant"
    }
  }
}
layer {
  name: "relu3"
  type: "ReLU"
  bottom: "conv3"
  top: "conv3"
}
layer {
  name: "conv4"
  type: "Convolution"
  bottom: "conv3"
  top: "conv4"
  param {
    lr_mult: 1
  }
  param {
    lr_mult: 2
  }
  convolution_param {
    num_output: 128
    pad: 2
    kernel_size: 5
    stride: 1
    weight_filler {
      type: "gaussian"
      std: 0.01
    }
    bias_filler {
      type: "constant"
    }
  }
}
layer {
  name: "relu4"
  type: "ReLU"
  bottom: "conv4"
  top: "conv4"
}
layer {
  name: "conv5"
  type: "Convolution"
  bottom: "conv4"
  top: "conv5"
  param {
    lr_mult: 1
  }
  param {
    lr_mult: 2
  }
  convolution_param {
    num_output: 128
    pad: 2
    kernel_size: 5
    stride: 1
    weight_filler {
      type: "gaussian"
      std: 0.01
    }
    bias_filler {
      type: "constant"
    }
  }
}
layer {
  name: "relu5"
  type: "ReLU"
  bottom: "conv5"
  top: "conv5"
}
layer {
  name: "pool5"
  type: "Pooling"
  bottom: "conv5"
  top: "pool5"
  pooling_param {
    pool: AVE
    kernel_size: 3
    stride: 2
  }
}
layer {
  name: "ip1"
  type: "InnerProduct"
  bottom: "pool5"
  top: "ip1"
  param {
    lr_mult: 1
  }
  param {
    lr_mult: 2
  }
  inner_product_param {
    num_output: 1024
    weight_filler {
      type: "gaussian"
      std: 0.1
    }
    bias_filler {
      type: "constant"
    }
  }
}
layer {
  name: "ip2"
  type: "InnerProduct"
  bottom: "ip1"
  top: "ip2"
  param {
    lr_mult: 1
  }
  param {
    lr_mult: 2
  }
  inner_product_param {
    num_output: 512
    weight_filler {
      type: "gaussian"
      std: 0.1
    }
    bias_filler {
      type: "constant"
    }
  }
}
layer {
  name: "ip3"
  type: "InnerProduct"
  bottom: "ip2"
  top: "ip3"
  param {
    lr_mult: 1
  }
  param {
    lr_mult: 2
  }
  inner_product_param {
    num_output: 50
    weight_filler {
      type: "gaussian"
      std: 0.1
    }
    bias_filler {
      type: "constant"
    }
  }
}
layer {
  name: "accuracy"
  type: "Accuracy"
  bottom: "ip3"
  bottom: "label"
  top: "accuracy"
  include {
    phase: TEST
  }
}
layer {
  name: "loss"
  type: "SoftmaxWithLoss"
  bottom: "ip3"
  bottom: "label"
  top: "loss"
}
I0503 18:20:12.871855 21817 layer_factory.hpp:77] Creating layer intercept
I0503 18:20:12.871863 21817 net.cpp:94] Creating Layer intercept
I0503 18:20:12.871867 21817 net.cpp:409] intercept -> data
I0503 18:20:12.871875 21817 net.cpp:409] intercept -> label
I0503 18:20:12.871881 21817 hdf5_data_layer.cpp:79] Loading list of HDF5 filenames from: /home/purduethu/scratch/radon/d/deng106/CNNStatisticalModel/distributions/input/20_distributions_900_sample_size_test-distributions-path.txt
I0503 18:20:12.871901 21817 hdf5_data_layer.cpp:93] Number of HDF5 files: 1
I0503 18:20:13.012342 21817 net.cpp:144] Setting up intercept
I0503 18:20:13.012377 21817 net.cpp:151] Top shape: 20 1 30 30 (18000)
I0503 18:20:13.012382 21817 net.cpp:151] Top shape: 20 (20)
I0503 18:20:13.012385 21817 net.cpp:159] Memory required for data: 72080
I0503 18:20:13.012392 21817 layer_factory.hpp:77] Creating layer label_intercept_1_split
I0503 18:20:13.012411 21817 net.cpp:94] Creating Layer label_intercept_1_split
I0503 18:20:13.012416 21817 net.cpp:435] label_intercept_1_split <- label
I0503 18:20:13.012423 21817 net.cpp:409] label_intercept_1_split -> label_intercept_1_split_0
I0503 18:20:13.012439 21817 net.cpp:409] label_intercept_1_split -> label_intercept_1_split_1
I0503 18:20:13.012466 21817 net.cpp:144] Setting up label_intercept_1_split
I0503 18:20:13.012472 21817 net.cpp:151] Top shape: 20 (20)
I0503 18:20:13.012476 21817 net.cpp:151] Top shape: 20 (20)
I0503 18:20:13.012478 21817 net.cpp:159] Memory required for data: 72240
I0503 18:20:13.012482 21817 layer_factory.hpp:77] Creating layer conv1
I0503 18:20:13.012493 21817 net.cpp:94] Creating Layer conv1
I0503 18:20:13.012496 21817 net.cpp:435] conv1 <- data
I0503 18:20:13.012501 21817 net.cpp:409] conv1 -> conv1
I0503 18:20:13.013821 21817 net.cpp:144] Setting up conv1
I0503 18:20:13.013835 21817 net.cpp:151] Top shape: 20 64 30 30 (1152000)
I0503 18:20:13.013839 21817 net.cpp:159] Memory required for data: 4680240
I0503 18:20:13.013849 21817 layer_factory.hpp:77] Creating layer relu1
I0503 18:20:13.013856 21817 net.cpp:94] Creating Layer relu1
I0503 18:20:13.013860 21817 net.cpp:435] relu1 <- conv1
I0503 18:20:13.013864 21817 net.cpp:396] relu1 -> conv1 (in-place)
I0503 18:20:13.013871 21817 net.cpp:144] Setting up relu1
I0503 18:20:13.013876 21817 net.cpp:151] Top shape: 20 64 30 30 (1152000)
I0503 18:20:13.013880 21817 net.cpp:159] Memory required for data: 9288240
I0503 18:20:13.013882 21817 layer_factory.hpp:77] Creating layer conv2
I0503 18:20:13.013890 21817 net.cpp:94] Creating Layer conv2
I0503 18:20:13.013895 21817 net.cpp:435] conv2 <- conv1
I0503 18:20:13.013898 21817 net.cpp:409] conv2 -> conv2
I0503 18:20:13.020040 21817 net.cpp:144] Setting up conv2
I0503 18:20:13.020054 21817 net.cpp:151] Top shape: 20 64 30 30 (1152000)
I0503 18:20:13.020057 21817 net.cpp:159] Memory required for data: 13896240
I0503 18:20:13.020066 21817 layer_factory.hpp:77] Creating layer relu2
I0503 18:20:13.020071 21817 net.cpp:94] Creating Layer relu2
I0503 18:20:13.020076 21817 net.cpp:435] relu2 <- conv2
I0503 18:20:13.020079 21817 net.cpp:396] relu2 -> conv2 (in-place)
I0503 18:20:13.020087 21817 net.cpp:144] Setting up relu2
I0503 18:20:13.020090 21817 net.cpp:151] Top shape: 20 64 30 30 (1152000)
I0503 18:20:13.020093 21817 net.cpp:159] Memory required for data: 18504240
I0503 18:20:13.020097 21817 layer_factory.hpp:77] Creating layer pool2
I0503 18:20:13.020102 21817 net.cpp:94] Creating Layer pool2
I0503 18:20:13.020105 21817 net.cpp:435] pool2 <- conv2
I0503 18:20:13.020109 21817 net.cpp:409] pool2 -> pool2
I0503 18:20:13.020143 21817 net.cpp:144] Setting up pool2
I0503 18:20:13.020149 21817 net.cpp:151] Top shape: 20 64 15 15 (288000)
I0503 18:20:13.020153 21817 net.cpp:159] Memory required for data: 19656240
I0503 18:20:13.020155 21817 layer_factory.hpp:77] Creating layer conv3
I0503 18:20:13.020164 21817 net.cpp:94] Creating Layer conv3
I0503 18:20:13.020166 21817 net.cpp:435] conv3 <- pool2
I0503 18:20:13.020171 21817 net.cpp:409] conv3 -> conv3
I0503 18:20:13.027945 21817 net.cpp:144] Setting up conv3
I0503 18:20:13.027959 21817 net.cpp:151] Top shape: 20 128 15 15 (576000)
I0503 18:20:13.027963 21817 net.cpp:159] Memory required for data: 21960240
I0503 18:20:13.027971 21817 layer_factory.hpp:77] Creating layer relu3
I0503 18:20:13.027979 21817 net.cpp:94] Creating Layer relu3
I0503 18:20:13.027982 21817 net.cpp:435] relu3 <- conv3
I0503 18:20:13.027987 21817 net.cpp:396] relu3 -> conv3 (in-place)
I0503 18:20:13.027994 21817 net.cpp:144] Setting up relu3
I0503 18:20:13.027999 21817 net.cpp:151] Top shape: 20 128 15 15 (576000)
I0503 18:20:13.028002 21817 net.cpp:159] Memory required for data: 24264240
I0503 18:20:13.028005 21817 layer_factory.hpp:77] Creating layer conv4
I0503 18:20:13.028012 21817 net.cpp:94] Creating Layer conv4
I0503 18:20:13.028015 21817 net.cpp:435] conv4 <- conv3
I0503 18:20:13.028020 21817 net.cpp:409] conv4 -> conv4
I0503 18:20:13.044699 21817 net.cpp:144] Setting up conv4
I0503 18:20:13.044739 21817 net.cpp:151] Top shape: 20 128 15 15 (576000)
I0503 18:20:13.044750 21817 net.cpp:159] Memory required for data: 26568240
I0503 18:20:13.044767 21817 layer_factory.hpp:77] Creating layer relu4
I0503 18:20:13.044783 21817 net.cpp:94] Creating Layer relu4
I0503 18:20:13.044803 21817 net.cpp:435] relu4 <- conv4
I0503 18:20:13.044818 21817 net.cpp:396] relu4 -> conv4 (in-place)
I0503 18:20:13.044838 21817 net.cpp:144] Setting up relu4
I0503 18:20:13.044852 21817 net.cpp:151] Top shape: 20 128 15 15 (576000)
I0503 18:20:13.044860 21817 net.cpp:159] Memory required for data: 28872240
I0503 18:20:13.044869 21817 layer_factory.hpp:77] Creating layer conv5
I0503 18:20:13.044888 21817 net.cpp:94] Creating Layer conv5
I0503 18:20:13.044898 21817 net.cpp:435] conv5 <- conv4
I0503 18:20:13.044911 21817 net.cpp:409] conv5 -> conv5
I0503 18:20:13.059370 21817 net.cpp:144] Setting up conv5
I0503 18:20:13.059386 21817 net.cpp:151] Top shape: 20 128 15 15 (576000)
I0503 18:20:13.059389 21817 net.cpp:159] Memory required for data: 31176240
I0503 18:20:13.059397 21817 layer_factory.hpp:77] Creating layer relu5
I0503 18:20:13.059403 21817 net.cpp:94] Creating Layer relu5
I0503 18:20:13.059407 21817 net.cpp:435] relu5 <- conv5
I0503 18:20:13.059412 21817 net.cpp:396] relu5 -> conv5 (in-place)
I0503 18:20:13.059418 21817 net.cpp:144] Setting up relu5
I0503 18:20:13.059423 21817 net.cpp:151] Top shape: 20 128 15 15 (576000)
I0503 18:20:13.059427 21817 net.cpp:159] Memory required for data: 33480240
I0503 18:20:13.059429 21817 layer_factory.hpp:77] Creating layer pool5
I0503 18:20:13.059434 21817 net.cpp:94] Creating Layer pool5
I0503 18:20:13.059437 21817 net.cpp:435] pool5 <- conv5
I0503 18:20:13.059442 21817 net.cpp:409] pool5 -> pool5
I0503 18:20:13.059468 21817 net.cpp:144] Setting up pool5
I0503 18:20:13.059473 21817 net.cpp:151] Top shape: 20 128 7 7 (125440)
I0503 18:20:13.059476 21817 net.cpp:159] Memory required for data: 33982000
I0503 18:20:13.059480 21817 layer_factory.hpp:77] Creating layer ip1
I0503 18:20:13.059486 21817 net.cpp:94] Creating Layer ip1
I0503 18:20:13.059489 21817 net.cpp:435] ip1 <- pool5
I0503 18:20:13.059494 21817 net.cpp:409] ip1 -> ip1
I0503 18:20:13.214402 21817 net.cpp:144] Setting up ip1
I0503 18:20:13.214439 21817 net.cpp:151] Top shape: 20 1024 (20480)
I0503 18:20:13.214443 21817 net.cpp:159] Memory required for data: 34063920
I0503 18:20:13.214452 21817 layer_factory.hpp:77] Creating layer ip2
I0503 18:20:13.214462 21817 net.cpp:94] Creating Layer ip2
I0503 18:20:13.214467 21817 net.cpp:435] ip2 <- ip1
I0503 18:20:13.214473 21817 net.cpp:409] ip2 -> ip2
I0503 18:20:13.227421 21817 net.cpp:144] Setting up ip2
I0503 18:20:13.227433 21817 net.cpp:151] Top shape: 20 512 (10240)
I0503 18:20:13.227437 21817 net.cpp:159] Memory required for data: 34104880
I0503 18:20:13.227443 21817 layer_factory.hpp:77] Creating layer ip3
I0503 18:20:13.227452 21817 net.cpp:94] Creating Layer ip3
I0503 18:20:13.227455 21817 net.cpp:435] ip3 <- ip2
I0503 18:20:13.227460 21817 net.cpp:409] ip3 -> ip3
I0503 18:20:13.228154 21817 net.cpp:144] Setting up ip3
I0503 18:20:13.228162 21817 net.cpp:151] Top shape: 20 50 (1000)
I0503 18:20:13.228164 21817 net.cpp:159] Memory required for data: 34108880
I0503 18:20:13.228169 21817 layer_factory.hpp:77] Creating layer ip3_ip3_0_split
I0503 18:20:13.228175 21817 net.cpp:94] Creating Layer ip3_ip3_0_split
I0503 18:20:13.228179 21817 net.cpp:435] ip3_ip3_0_split <- ip3
I0503 18:20:13.228183 21817 net.cpp:409] ip3_ip3_0_split -> ip3_ip3_0_split_0
I0503 18:20:13.228188 21817 net.cpp:409] ip3_ip3_0_split -> ip3_ip3_0_split_1
I0503 18:20:13.228214 21817 net.cpp:144] Setting up ip3_ip3_0_split
I0503 18:20:13.228219 21817 net.cpp:151] Top shape: 20 50 (1000)
I0503 18:20:13.228222 21817 net.cpp:151] Top shape: 20 50 (1000)
I0503 18:20:13.228225 21817 net.cpp:159] Memory required for data: 34116880
I0503 18:20:13.228229 21817 layer_factory.hpp:77] Creating layer accuracy
I0503 18:20:13.228235 21817 net.cpp:94] Creating Layer accuracy
I0503 18:20:13.228238 21817 net.cpp:435] accuracy <- ip3_ip3_0_split_0
I0503 18:20:13.228241 21817 net.cpp:435] accuracy <- label_intercept_1_split_0
I0503 18:20:13.228246 21817 net.cpp:409] accuracy -> accuracy
…
