…
I0503 04:55:15.292790 18363 net.cpp:323] The NetState phase (0) differed from the phase (1) specified by a rule in layer intercept
I0503 04:55:15.292807 18363 net.cpp:323] The NetState phase (0) differed from the phase (1) specified by a rule in layer loss
I0503 04:55:15.292887 18363 net.cpp:52] Initializing net from parameters: 
state {
  phase: TRAIN
}
layer {
  name: "parameters"
  type: "HDF5Data"
  top: "data"
  top: "label"
  include {
    phase: TRAIN
  }
  hdf5_data_param {
    source: "/home/purduethu/scratch/radon/d/deng106/CNNStatisticalModel/distributions/input/5_distributions_400_sample_size_train-parameters-path.txt"
    batch_size: 20
  }
}
layer {
  name: "conv1"
  type: "Convolution"
  bottom: "data"
  top: "conv1"
  param {
    lr_mult: 1
  }
  param {
    lr_mult: 2
  }
  convolution_param {
    num_output: 64
    pad: 2
    kernel_size: 5
    stride: 1
    weight_filler {
      type: "gaussian"
      std: 0.0001
    }
    bias_filler {
      type: "constant"
    }
  }
}
layer {
  name: "relu1"
  type: "ReLU"
  bottom: "conv1"
  top: "conv1"
}
layer {
  name: "conv2"
  type: "Convolution"
  bottom: "conv1"
  top: "conv2"
  param {
    lr_mult: 1
  }
  param {
    lr_mult: 2
  }
  convolution_param {
    num_output: 64
    pad: 2
    kernel_size: 5
    stride: 1
    weight_filler {
      type: "gaussian"
      std: 0.01
    }
    bias_filler {
      type: "constant"
    }
  }
}
layer {
  name: "relu2"
  type: "ReLU"
  bottom: "conv2"
  top: "conv2"
}
layer {
  name: "pool2"
  type: "Pooling"
  bottom: "conv2"
  top: "pool2"
  pooling_param {
    pool: MAX
    kernel_size: 3
    stride: 2
  }
}
layer {
  name: "conv3"
  type: "Convolution"
  bottom: "pool2"
  top: "conv3"
  param {
    lr_mult: 1
  }
  param {
    lr_mult: 2
  }
  convolution_param {
    num_output: 128
    pad: 2
    kernel_size: 5
    stride: 1
    weight_filler {
      type: "gaussian"
      std: 0.01
    }
    bias_filler {
      type: "constant"
    }
  }
}
layer {
  name: "relu3"
  type: "ReLU"
  bottom: "conv3"
  top: "conv3"
}
layer {
  name: "conv4"
  type: "Convolution"
  bottom: "conv3"
  top: "conv4"
  param {
    lr_mult: 1
  }
  param {
    lr_mult: 2
  }
  convolution_param {
    num_output: 128
    pad: 2
    kernel_size: 5
    stride: 1
    weight_filler {
      type: "gaussian"
      std: 0.01
    }
    bias_filler {
      type: "constant"
    }
  }
}
layer {
  name: "relu4"
  type: "ReLU"
  bottom: "conv4"
  top: "conv4"
}
layer {
  name: "conv5"
  type: "Convolution"
  bottom: "conv4"
  top: "conv5"
  param {
    lr_mult: 1
  }
  param {
    lr_mult: 2
  }
  convolution_param {
    num_output: 128
    pad: 2
    kernel_size: 5
    stride: 1
    weight_filler {
      type: "gaussian"
      std: 0.01
    }
    bias_filler {
      type: "constant"
    }
  }
}
layer {
  name: "relu5"
  type: "ReLU"
  bottom: "conv5"
  top: "conv5"
}
layer {
  name: "pool5"
  type: "Pooling"
  bottom: "conv5"
  top: "pool5"
  pooling_param {
    pool: AVE
    kernel_size: 3
    stride: 2
  }
}
layer {
  name: "ip1"
  type: "InnerProduct"
  bottom: "pool5"
  top: "ip1"
  param {
    lr_mult: 1
  }
  param {
    lr_mult: 2
  }
  inner_product_param {
    num_output: 1024
    weight_filler {
      type: "gaussian"
      std: 0.1
    }
    bias_filler {
      type: "constant"
    }
  }
}
layer {
  name: "ip2"
  type: "InnerProduct"
  bottom: "ip1"
  top: "ip2"
  param {
    lr_mult: 1
  }
  param {
    lr_mult: 2
  }
  inner_product_param {
    num_output: 512
    weight_filler {
      type: "gaussian"
      std: 0.1
    }
    bias_filler {
      type: "constant"
    }
  }
}
layer {
  name: "ip3"
  type: "InnerProduct"
  bottom: "ip2"
  top: "ip3"
  param {
    lr_mult: 1
  }
  param {
    lr_mult: 2
  }
  inner_product_param {
    num_output: 1
    weight_filler {
      type: "gaussian"
      std: 0.1
    }
    bias_filler {
      type: "constant"
    }
  }
}
layer {
  name: "loss"
  type: "HuberLoss"
  bottom: "ip3"
  bottom: "label"
  top: "loss"
  include {
    phase: TRAIN
  }
}
I0503 04:55:15.292954 18363 layer_factory.hpp:77] Creating layer parameters
I0503 04:55:15.292966 18363 net.cpp:94] Creating Layer parameters
I0503 04:55:15.292971 18363 net.cpp:409] parameters -> data
I0503 04:55:15.292984 18363 net.cpp:409] parameters -> label
I0503 04:55:15.292990 18363 hdf5_data_layer.cpp:79] Loading list of HDF5 filenames from: /home/purduethu/scratch/radon/d/deng106/CNNStatisticalModel/distributions/input/5_distributions_400_sample_size_train-parameters-path.txt
I0503 04:55:15.293007 18363 hdf5_data_layer.cpp:93] Number of HDF5 files: 1
I0503 04:55:15.293553 18363 hdf5.cpp:32] Datatype class: H5T_FLOAT
I0503 04:55:15.356281 18363 net.cpp:144] Setting up parameters
I0503 04:55:15.356312 18363 net.cpp:151] Top shape: 20 1 20 20 (8000)
I0503 04:55:15.356317 18363 net.cpp:151] Top shape: 20 (20)
I0503 04:55:15.356319 18363 net.cpp:159] Memory required for data: 32080
I0503 04:55:15.356326 18363 layer_factory.hpp:77] Creating layer conv1
I0503 04:55:15.356343 18363 net.cpp:94] Creating Layer conv1
I0503 04:55:15.356345 18363 net.cpp:435] conv1 <- data
I0503 04:55:15.356353 18363 net.cpp:409] conv1 -> conv1
I0503 04:55:15.361722 18363 net.cpp:144] Setting up conv1
I0503 04:55:15.361744 18363 net.cpp:151] Top shape: 20 64 20 20 (512000)
I0503 04:55:15.361748 18363 net.cpp:159] Memory required for data: 2080080
I0503 04:55:15.361759 18363 layer_factory.hpp:77] Creating layer relu1
I0503 04:55:15.361768 18363 net.cpp:94] Creating Layer relu1
I0503 04:55:15.361770 18363 net.cpp:435] relu1 <- conv1
I0503 04:55:15.361775 18363 net.cpp:396] relu1 -> conv1 (in-place)
I0503 04:55:15.361783 18363 net.cpp:144] Setting up relu1
I0503 04:55:15.361786 18363 net.cpp:151] Top shape: 20 64 20 20 (512000)
I0503 04:55:15.361789 18363 net.cpp:159] Memory required for data: 4128080
I0503 04:55:15.361793 18363 layer_factory.hpp:77] Creating layer conv2
I0503 04:55:15.361801 18363 net.cpp:94] Creating Layer conv2
I0503 04:55:15.361804 18363 net.cpp:435] conv2 <- conv1
I0503 04:55:15.361809 18363 net.cpp:409] conv2 -> conv2
I0503 04:55:15.372664 18363 net.cpp:144] Setting up conv2
I0503 04:55:15.372680 18363 net.cpp:151] Top shape: 20 64 20 20 (512000)
I0503 04:55:15.372684 18363 net.cpp:159] Memory required for data: 6176080
I0503 04:55:15.372692 18363 layer_factory.hpp:77] Creating layer relu2
I0503 04:55:15.372699 18363 net.cpp:94] Creating Layer relu2
I0503 04:55:15.372704 18363 net.cpp:435] relu2 <- conv2
I0503 04:55:15.372707 18363 net.cpp:396] relu2 -> conv2 (in-place)
I0503 04:55:15.372714 18363 net.cpp:144] Setting up relu2
I0503 04:55:15.372719 18363 net.cpp:151] Top shape: 20 64 20 20 (512000)
I0503 04:55:15.372721 18363 net.cpp:159] Memory required for data: 8224080
I0503 04:55:15.372725 18363 layer_factory.hpp:77] Creating layer pool2
I0503 04:55:15.372730 18363 net.cpp:94] Creating Layer pool2
I0503 04:55:15.372738 18363 net.cpp:435] pool2 <- conv2
I0503 04:55:15.372745 18363 net.cpp:409] pool2 -> pool2
I0503 04:55:15.372802 18363 net.cpp:144] Setting up pool2
I0503 04:55:15.372809 18363 net.cpp:151] Top shape: 20 64 10 10 (128000)
I0503 04:55:15.372812 18363 net.cpp:159] Memory required for data: 8736080
I0503 04:55:15.372817 18363 layer_factory.hpp:77] Creating layer conv3
I0503 04:55:15.372824 18363 net.cpp:94] Creating Layer conv3
I0503 04:55:15.372828 18363 net.cpp:435] conv3 <- pool2
I0503 04:55:15.372833 18363 net.cpp:409] conv3 -> conv3
I0503 04:55:15.382122 18363 net.cpp:144] Setting up conv3
I0503 04:55:15.382138 18363 net.cpp:151] Top shape: 20 128 10 10 (256000)
I0503 04:55:15.382141 18363 net.cpp:159] Memory required for data: 9760080
I0503 04:55:15.382149 18363 layer_factory.hpp:77] Creating layer relu3
I0503 04:55:15.382155 18363 net.cpp:94] Creating Layer relu3
I0503 04:55:15.382158 18363 net.cpp:435] relu3 <- conv3
I0503 04:55:15.382164 18363 net.cpp:396] relu3 -> conv3 (in-place)
I0503 04:55:15.382170 18363 net.cpp:144] Setting up relu3
I0503 04:55:15.382174 18363 net.cpp:151] Top shape: 20 128 10 10 (256000)
I0503 04:55:15.382177 18363 net.cpp:159] Memory required for data: 10784080
I0503 04:55:15.382179 18363 layer_factory.hpp:77] Creating layer conv4
I0503 04:55:15.382187 18363 net.cpp:94] Creating Layer conv4
I0503 04:55:15.382191 18363 net.cpp:435] conv4 <- conv3
I0503 04:55:15.382195 18363 net.cpp:409] conv4 -> conv4
I0503 04:55:15.399876 18363 net.cpp:144] Setting up conv4
I0503 04:55:15.399895 18363 net.cpp:151] Top shape: 20 128 10 10 (256000)
I0503 04:55:15.399899 18363 net.cpp:159] Memory required for data: 11808080
I0503 04:55:15.399906 18363 layer_factory.hpp:77] Creating layer relu4
I0503 04:55:15.399912 18363 net.cpp:94] Creating Layer relu4
I0503 04:55:15.399916 18363 net.cpp:435] relu4 <- conv4
I0503 04:55:15.399921 18363 net.cpp:396] relu4 -> conv4 (in-place)
I0503 04:55:15.399930 18363 net.cpp:144] Setting up relu4
I0503 04:55:15.399933 18363 net.cpp:151] Top shape: 20 128 10 10 (256000)
I0503 04:55:15.399936 18363 net.cpp:159] Memory required for data: 12832080
I0503 04:55:15.399940 18363 layer_factory.hpp:77] Creating layer conv5
I0503 04:55:15.399947 18363 net.cpp:94] Creating Layer conv5
I0503 04:55:15.399950 18363 net.cpp:435] conv5 <- conv4
I0503 04:55:15.399955 18363 net.cpp:409] conv5 -> conv5
I0503 04:55:15.417150 18363 net.cpp:144] Setting up conv5
I0503 04:55:15.417167 18363 net.cpp:151] Top shape: 20 128 10 10 (256000)
I0503 04:55:15.417171 18363 net.cpp:159] Memory required for data: 13856080
I0503 04:55:15.417181 18363 layer_factory.hpp:77] Creating layer relu5
I0503 04:55:15.417186 18363 net.cpp:94] Creating Layer relu5
I0503 04:55:15.417189 18363 net.cpp:435] relu5 <- conv5
I0503 04:55:15.417194 18363 net.cpp:396] relu5 -> conv5 (in-place)
I0503 04:55:15.417201 18363 net.cpp:144] Setting up relu5
I0503 04:55:15.417206 18363 net.cpp:151] Top shape: 20 128 10 10 (256000)
I0503 04:55:15.417208 18363 net.cpp:159] Memory required for data: 14880080
I0503 04:55:15.417210 18363 layer_factory.hpp:77] Creating layer pool5
I0503 04:55:15.417217 18363 net.cpp:94] Creating Layer pool5
I0503 04:55:15.417220 18363 net.cpp:435] pool5 <- conv5
I0503 04:55:15.417227 18363 net.cpp:409] pool5 -> pool5
I0503 04:55:15.417271 18363 net.cpp:144] Setting up pool5
I0503 04:55:15.417279 18363 net.cpp:151] Top shape: 20 128 5 5 (64000)
I0503 04:55:15.417281 18363 net.cpp:159] Memory required for data: 15136080
I0503 04:55:15.417284 18363 layer_factory.hpp:77] Creating layer ip1
I0503 04:55:15.417295 18363 net.cpp:94] Creating Layer ip1
I0503 04:55:15.417299 18363 net.cpp:435] ip1 <- pool5
I0503 04:55:15.417302 18363 net.cpp:409] ip1 -> ip1
I0503 04:55:15.497933 18363 net.cpp:144] Setting up ip1
I0503 04:55:15.497968 18363 net.cpp:151] Top shape: 20 1024 (20480)
I0503 04:55:15.497972 18363 net.cpp:159] Memory required for data: 15218000
I0503 04:55:15.497980 18363 layer_factory.hpp:77] Creating layer ip2
I0503 04:55:15.497992 18363 net.cpp:94] Creating Layer ip2
I0503 04:55:15.498003 18363 net.cpp:435] ip2 <- ip1
I0503 04:55:15.498009 18363 net.cpp:409] ip2 -> ip2
I0503 04:55:15.511396 18363 net.cpp:144] Setting up ip2
I0503 04:55:15.511414 18363 net.cpp:151] Top shape: 20 512 (10240)
I0503 04:55:15.511417 18363 net.cpp:159] Memory required for data: 15258960
I0503 04:55:15.511422 18363 layer_factory.hpp:77] Creating layer ip3
I0503 04:55:15.511430 18363 net.cpp:94] Creating Layer ip3
I0503 04:55:15.511433 18363 net.cpp:435] ip3 <- ip2
I0503 04:55:15.511438 18363 net.cpp:409] ip3 -> ip3
I0503 04:55:15.511569 18363 net.cpp:144] Setting up ip3
I0503 04:55:15.511576 18363 net.cpp:151] Top shape: 20 1 (20)
I0503 04:55:15.511579 18363 net.cpp:159] Memory required for data: 15259040
I0503 04:55:15.511584 18363 layer_factory.hpp:77] Creating layer loss
I0503 04:55:15.511600 18363 net.cpp:94] Creating Layer loss
I0503 04:55:15.511603 18363 net.cpp:435] loss <- ip3
I0503 04:55:15.511606 18363 net.cpp:435] loss <- label
I0503 04:55:15.511611 18363 net.cpp:409] loss -> loss
I0503 04:55:15.511667 18363 net.cpp:144] Setting up loss
…
I0503 04:55:15.666411 18363 net.cpp:323] The NetState phase (0) differed from the phase (1) specified by a rule in layer intercept
I0503 04:55:15.666427 18363 net.cpp:323] The NetState phase (0) differed from the phase (1) specified by a rule in layer accuracy
I0503 04:55:15.666517 18363 net.cpp:52] Initializing net from parameters: 
state {
  phase: TRAIN
}
layer {
  name: "parameters"
  type: "HDF5Data"
  top: "data"
  top: "label"
  include {
    phase: TRAIN
  }
  hdf5_data_param {
    source: "/home/purduethu/scratch/radon/d/deng106/CNNStatisticalModel/distributions/input/5_distributions_400_sample_size_train-distributions-path.txt"
    batch_size: 20
  }
}
layer {
  name: "conv1"
  type: "Convolution"
  bottom: "data"
  top: "conv1"
  param {
    lr_mult: 1
  }
  param {
    lr_mult: 2
  }
  convolution_param {
    num_output: 64
    pad: 2
    kernel_size: 5
    stride: 1
    weight_filler {
      type: "gaussian"
      std: 0.0001
    }
    bias_filler {
      type: "constant"
    }
  }
}
layer {
  name: "relu1"
  type: "ReLU"
  bottom: "conv1"
  top: "conv1"
}
layer {
  name: "conv2"
  type: "Convolution"
  bottom: "conv1"
  top: "conv2"
  param {
    lr_mult: 1
  }
  param {
    lr_mult: 2
  }
  convolution_param {
    num_output: 64
    pad: 2
    kernel_size: 5
    stride: 1
    weight_filler {
      type: "gaussian"
      std: 0.01
    }
    bias_filler {
      type: "constant"
    }
  }
}
layer {
  name: "relu2"
  type: "ReLU"
  bottom: "conv2"
  top: "conv2"
}
layer {
  name: "pool2"
  type: "Pooling"
  bottom: "conv2"
  top: "pool2"
  pooling_param {
    pool: MAX
    kernel_size: 3
    stride: 2
  }
}
layer {
  name: "conv3"
  type: "Convolution"
  bottom: "pool2"
  top: "conv3"
  param {
    lr_mult: 1
  }
  param {
    lr_mult: 2
  }
  convolution_param {
    num_output: 128
    pad: 2
    kernel_size: 5
    stride: 1
    weight_filler {
      type: "gaussian"
      std: 0.01
    }
    bias_filler {
      type: "constant"
    }
  }
}
layer {
  name: "relu3"
  type: "ReLU"
  bottom: "conv3"
  top: "conv3"
}
layer {
  name: "conv4"
  type: "Convolution"
  bottom: "conv3"
  top: "conv4"
  param {
    lr_mult: 1
  }
  param {
    lr_mult: 2
  }
  convolution_param {
    num_output: 128
    pad: 2
    kernel_size: 5
    stride: 1
    weight_filler {
      type: "gaussian"
      std: 0.01
    }
    bias_filler {
      type: "constant"
    }
  }
}
layer {
  name: "relu4"
  type: "ReLU"
  bottom: "conv4"
  top: "conv4"
}
layer {
  name: "conv5"
  type: "Convolution"
  bottom: "conv4"
  top: "conv5"
  param {
    lr_mult: 1
  }
  param {
    lr_mult: 2
  }
  convolution_param {
    num_output: 128
    pad: 2
    kernel_size: 5
    stride: 1
    weight_filler {
      type: "gaussian"
      std: 0.01
    }
    bias_filler {
      type: "constant"
    }
  }
}
layer {
  name: "relu5"
  type: "ReLU"
  bottom: "conv5"
  top: "conv5"
}
layer {
  name: "pool5"
  type: "Pooling"
  bottom: "conv5"
  top: "pool5"
  pooling_param {
    pool: AVE
    kernel_size: 3
    stride: 2
  }
}
layer {
  name: "ip1"
  type: "InnerProduct"
  bottom: "pool5"
  top: "ip1"
  param {
    lr_mult: 1
  }
  param {
    lr_mult: 2
  }
  inner_product_param {
    num_output: 1024
    weight_filler {
      type: "gaussian"
      std: 0.1
    }
    bias_filler {
      type: "constant"
    }
  }
}
layer {
  name: "ip2"
  type: "InnerProduct"
  bottom: "ip1"
  top: "ip2"
  param {
    lr_mult: 1
  }
  param {
    lr_mult: 2
  }
  inner_product_param {
    num_output: 512
    weight_filler {
      type: "gaussian"
      std: 0.1
    }
    bias_filler {
      type: "constant"
    }
  }
}
layer {
  name: "ip3"
  type: "InnerProduct"
  bottom: "ip2"
  top: "ip3"
  param {
    lr_mult: 1
  }
  param {
    lr_mult: 2
  }
  inner_product_param {
    num_output: 50
    weight_filler {
      type: "gaussian"
      std: 0.1
    }
    bias_filler {
      type: "constant"
    }
  }
}
layer {
  name: "loss"
  type: "SoftmaxWithLoss"
  bottom: "ip3"
  bottom: "label"
  top: "loss"
}
I0503 04:55:15.666568 18363 layer_factory.hpp:77] Creating layer parameters
I0503 04:55:15.666576 18363 net.cpp:94] Creating Layer parameters
I0503 04:55:15.666580 18363 net.cpp:409] parameters -> data
I0503 04:55:15.666586 18363 net.cpp:409] parameters -> label
I0503 04:55:15.666592 18363 hdf5_data_layer.cpp:79] Loading list of HDF5 filenames from: /home/purduethu/scratch/radon/d/deng106/CNNStatisticalModel/distributions/input/5_distributions_400_sample_size_train-distributions-path.txt
I0503 04:55:15.666610 18363 hdf5_data_layer.cpp:93] Number of HDF5 files: 1
I0503 04:55:15.729568 18363 hdf5.cpp:35] Datatype class: H5T_INTEGER
I0503 04:55:15.730057 18363 net.cpp:144] Setting up parameters
I0503 04:55:15.730072 18363 net.cpp:151] Top shape: 20 1 20 20 (8000)
I0503 04:55:15.730075 18363 net.cpp:151] Top shape: 20 (20)
I0503 04:55:15.730078 18363 net.cpp:159] Memory required for data: 32080
I0503 04:55:15.730084 18363 layer_factory.hpp:77] Creating layer conv1
I0503 04:55:15.730101 18363 net.cpp:94] Creating Layer conv1
I0503 04:55:15.730105 18363 net.cpp:435] conv1 <- data
I0503 04:55:15.730111 18363 net.cpp:409] conv1 -> conv1
I0503 04:55:15.732597 18363 net.cpp:144] Setting up conv1
I0503 04:55:15.732612 18363 net.cpp:151] Top shape: 20 64 20 20 (512000)
I0503 04:55:15.732616 18363 net.cpp:159] Memory required for data: 2080080
I0503 04:55:15.732626 18363 layer_factory.hpp:77] Creating layer relu1
I0503 04:55:15.732633 18363 net.cpp:94] Creating Layer relu1
I0503 04:55:15.732636 18363 net.cpp:435] relu1 <- conv1
I0503 04:55:15.732641 18363 net.cpp:396] relu1 -> conv1 (in-place)
I0503 04:55:15.732648 18363 net.cpp:144] Setting up relu1
I0503 04:55:15.732652 18363 net.cpp:151] Top shape: 20 64 20 20 (512000)
I0503 04:55:15.732656 18363 net.cpp:159] Memory required for data: 4128080
I0503 04:55:15.732658 18363 layer_factory.hpp:77] Creating layer conv2
I0503 04:55:15.732666 18363 net.cpp:94] Creating Layer conv2
I0503 04:55:15.732669 18363 net.cpp:435] conv2 <- conv1
I0503 04:55:15.732673 18363 net.cpp:409] conv2 -> conv2
I0503 04:55:15.743499 18363 net.cpp:144] Setting up conv2
I0503 04:55:15.743538 18363 net.cpp:151] Top shape: 20 64 20 20 (512000)
I0503 04:55:15.743549 18363 net.cpp:159] Memory required for data: 6176080
I0503 04:55:15.743571 18363 layer_factory.hpp:77] Creating layer relu2
I0503 04:55:15.743587 18363 net.cpp:94] Creating Layer relu2
I0503 04:55:15.743597 18363 net.cpp:435] relu2 <- conv2
I0503 04:55:15.743610 18363 net.cpp:396] relu2 -> conv2 (in-place)
I0503 04:55:15.743630 18363 net.cpp:144] Setting up relu2
I0503 04:55:15.743641 18363 net.cpp:151] Top shape: 20 64 20 20 (512000)
I0503 04:55:15.743650 18363 net.cpp:159] Memory required for data: 8224080
I0503 04:55:15.743659 18363 layer_factory.hpp:77] Creating layer pool2
I0503 04:55:15.743672 18363 net.cpp:94] Creating Layer pool2
I0503 04:55:15.743680 18363 net.cpp:435] pool2 <- conv2
I0503 04:55:15.743693 18363 net.cpp:409] pool2 -> pool2
I0503 04:55:15.743845 18363 net.cpp:144] Setting up pool2
I0503 04:55:15.743862 18363 net.cpp:151] Top shape: 20 64 10 10 (128000)
I0503 04:55:15.743871 18363 net.cpp:159] Memory required for data: 8736080
I0503 04:55:15.743880 18363 layer_factory.hpp:77] Creating layer conv3
I0503 04:55:15.743899 18363 net.cpp:94] Creating Layer conv3
I0503 04:55:15.743909 18363 net.cpp:435] conv3 <- pool2
I0503 04:55:15.743937 18363 net.cpp:409] conv3 -> conv3
I0503 04:55:15.755039 18363 net.cpp:144] Setting up conv3
I0503 04:55:15.755055 18363 net.cpp:151] Top shape: 20 128 10 10 (256000)
I0503 04:55:15.755059 18363 net.cpp:159] Memory required for data: 9760080
I0503 04:55:15.755067 18363 layer_factory.hpp:77] Creating layer relu3
I0503 04:55:15.755074 18363 net.cpp:94] Creating Layer relu3
I0503 04:55:15.755077 18363 net.cpp:435] relu3 <- conv3
I0503 04:55:15.755081 18363 net.cpp:396] relu3 -> conv3 (in-place)
I0503 04:55:15.755089 18363 net.cpp:144] Setting up relu3
I0503 04:55:15.755092 18363 net.cpp:151] Top shape: 20 128 10 10 (256000)
I0503 04:55:15.755095 18363 net.cpp:159] Memory required for data: 10784080
I0503 04:55:15.755098 18363 layer_factory.hpp:77] Creating layer conv4
I0503 04:55:15.755107 18363 net.cpp:94] Creating Layer conv4
I0503 04:55:15.755110 18363 net.cpp:435] conv4 <- conv3
I0503 04:55:15.755115 18363 net.cpp:409] conv4 -> conv4
I0503 04:55:15.773624 18363 net.cpp:144] Setting up conv4
I0503 04:55:15.773643 18363 net.cpp:151] Top shape: 20 128 10 10 (256000)
I0503 04:55:15.773646 18363 net.cpp:159] Memory required for data: 11808080
I0503 04:55:15.773653 18363 layer_factory.hpp:77] Creating layer relu4
I0503 04:55:15.773659 18363 net.cpp:94] Creating Layer relu4
I0503 04:55:15.773663 18363 net.cpp:435] relu4 <- conv4
I0503 04:55:15.773668 18363 net.cpp:396] relu4 -> conv4 (in-place)
I0503 04:55:15.773674 18363 net.cpp:144] Setting up relu4
I0503 04:55:15.773679 18363 net.cpp:151] Top shape: 20 128 10 10 (256000)
I0503 04:55:15.773681 18363 net.cpp:159] Memory required for data: 12832080
I0503 04:55:15.773684 18363 layer_factory.hpp:77] Creating layer conv5
I0503 04:55:15.773692 18363 net.cpp:94] Creating Layer conv5
I0503 04:55:15.773695 18363 net.cpp:435] conv5 <- conv4
I0503 04:55:15.773700 18363 net.cpp:409] conv5 -> conv5
I0503 04:55:15.792055 18363 net.cpp:144] Setting up conv5
I0503 04:55:15.792074 18363 net.cpp:151] Top shape: 20 128 10 10 (256000)
I0503 04:55:15.792078 18363 net.cpp:159] Memory required for data: 13856080
I0503 04:55:15.792088 18363 layer_factory.hpp:77] Creating layer relu5
I0503 04:55:15.792094 18363 net.cpp:94] Creating Layer relu5
I0503 04:55:15.792098 18363 net.cpp:435] relu5 <- conv5
I0503 04:55:15.792104 18363 net.cpp:396] relu5 -> conv5 (in-place)
I0503 04:55:15.792110 18363 net.cpp:144] Setting up relu5
I0503 04:55:15.792114 18363 net.cpp:151] Top shape: 20 128 10 10 (256000)
I0503 04:55:15.792117 18363 net.cpp:159] Memory required for data: 14880080
I0503 04:55:15.792120 18363 layer_factory.hpp:77] Creating layer pool5
I0503 04:55:15.792127 18363 net.cpp:94] Creating Layer pool5
I0503 04:55:15.792131 18363 net.cpp:435] pool5 <- conv5
I0503 04:55:15.792136 18363 net.cpp:409] pool5 -> pool5
I0503 04:55:15.792183 18363 net.cpp:144] Setting up pool5
I0503 04:55:15.792191 18363 net.cpp:151] Top shape: 20 128 5 5 (64000)
I0503 04:55:15.792193 18363 net.cpp:159] Memory required for data: 15136080
I0503 04:55:15.792196 18363 layer_factory.hpp:77] Creating layer ip1
I0503 04:55:15.792204 18363 net.cpp:94] Creating Layer ip1
I0503 04:55:15.792207 18363 net.cpp:435] ip1 <- pool5
I0503 04:55:15.792212 18363 net.cpp:409] ip1 -> ip1
I0503 04:55:15.873471 18363 net.cpp:144] Setting up ip1
I0503 04:55:15.873507 18363 net.cpp:151] Top shape: 20 1024 (20480)
I0503 04:55:15.873512 18363 net.cpp:159] Memory required for data: 15218000
I0503 04:55:15.873519 18363 layer_factory.hpp:77] Creating layer ip2
I0503 04:55:15.873530 18363 net.cpp:94] Creating Layer ip2
I0503 04:55:15.873535 18363 net.cpp:435] ip2 <- ip1
I0503 04:55:15.873541 18363 net.cpp:409] ip2 -> ip2
I0503 04:55:15.886967 18363 net.cpp:144] Setting up ip2
I0503 04:55:15.886984 18363 net.cpp:151] Top shape: 20 512 (10240)
I0503 04:55:15.886988 18363 net.cpp:159] Memory required for data: 15258960
I0503 04:55:15.886993 18363 layer_factory.hpp:77] Creating layer ip3
I0503 04:55:15.887001 18363 net.cpp:94] Creating Layer ip3
I0503 04:55:15.887004 18363 net.cpp:435] ip3 <- ip2
I0503 04:55:15.887009 18363 net.cpp:409] ip3 -> ip3
I0503 04:55:15.887774 18363 net.cpp:144] Setting up ip3
I0503 04:55:15.887783 18363 net.cpp:151] Top shape: 20 50 (1000)
I0503 04:55:15.887785 18363 net.cpp:159] Memory required for data: 15262960
I0503 04:55:15.887790 18363 layer_factory.hpp:77] Creating layer loss
I0503 04:55:15.887800 18363 net.cpp:94] Creating Layer loss
I0503 04:55:15.887804 18363 net.cpp:435] loss <- ip3
I0503 04:55:15.887807 18363 net.cpp:435] loss <- label
I0503 04:55:15.887812 18363 net.cpp:409] loss -> loss
I0503 04:55:15.887820 18363 layer_factory.hpp:77] Creating layer loss
…
I0503 04:55:15.888344 18363 solver.cpp:181] Creating test net (#0) specified by net file: ./protocol/dis_5_400_dimension.protocol_distribution
I0503 04:55:15.888370 18363 net.cpp:323] The NetState phase (1) differed from the phase (0) specified by a rule in layer parameters
I0503 04:55:15.888468 18363 net.cpp:52] Initializing net from parameters: 
state {
  phase: TEST
}
layer {
  name: "intercept"
  type: "HDF5Data"
  top: "data"
  top: "label"
  include {
    phase: TEST
  }
  hdf5_data_param {
    source: "/home/purduethu/scratch/radon/d/deng106/CNNStatisticalModel/distributions/input/5_distributions_400_sample_size_test-distributions-path.txt"
    batch_size: 20
  }
}
layer {
  name: "conv1"
  type: "Convolution"
  bottom: "data"
  top: "conv1"
  param {
    lr_mult: 1
  }
  param {
    lr_mult: 2
  }
  convolution_param {
    num_output: 64
    pad: 2
    kernel_size: 5
    stride: 1
    weight_filler {
      type: "gaussian"
      std: 0.0001
    }
    bias_filler {
      type: "constant"
    }
  }
}
layer {
  name: "relu1"
  type: "ReLU"
  bottom: "conv1"
  top: "conv1"
}
layer {
  name: "conv2"
  type: "Convolution"
  bottom: "conv1"
  top: "conv2"
  param {
    lr_mult: 1
  }
  param {
    lr_mult: 2
  }
  convolution_param {
    num_output: 64
    pad: 2
    kernel_size: 5
    stride: 1
    weight_filler {
      type: "gaussian"
      std: 0.01
    }
    bias_filler {
      type: "constant"
    }
  }
}
layer {
  name: "relu2"
  type: "ReLU"
  bottom: "conv2"
  top: "conv2"
}
layer {
  name: "pool2"
  type: "Pooling"
  bottom: "conv2"
  top: "pool2"
  pooling_param {
    pool: MAX
    kernel_size: 3
    stride: 2
  }
}
layer {
  name: "conv3"
  type: "Convolution"
  bottom: "pool2"
  top: "conv3"
  param {
    lr_mult: 1
  }
  param {
    lr_mult: 2
  }
  convolution_param {
    num_output: 128
    pad: 2
    kernel_size: 5
    stride: 1
    weight_filler {
      type: "gaussian"
      std: 0.01
    }
    bias_filler {
      type: "constant"
    }
  }
}
layer {
  name: "relu3"
  type: "ReLU"
  bottom: "conv3"
  top: "conv3"
}
layer {
  name: "conv4"
  type: "Convolution"
  bottom: "conv3"
  top: "conv4"
  param {
    lr_mult: 1
  }
  param {
    lr_mult: 2
  }
  convolution_param {
    num_output: 128
    pad: 2
    kernel_size: 5
    stride: 1
    weight_filler {
      type: "gaussian"
      std: 0.01
    }
    bias_filler {
      type: "constant"
    }
  }
}
layer {
  name: "relu4"
  type: "ReLU"
  bottom: "conv4"
  top: "conv4"
}
layer {
  name: "conv5"
  type: "Convolution"
  bottom: "conv4"
  top: "conv5"
  param {
    lr_mult: 1
  }
  param {
    lr_mult: 2
  }
  convolution_param {
    num_output: 128
    pad: 2
    kernel_size: 5
    stride: 1
    weight_filler {
      type: "gaussian"
      std: 0.01
    }
    bias_filler {
      type: "constant"
    }
  }
}
layer {
  name: "relu5"
  type: "ReLU"
  bottom: "conv5"
  top: "conv5"
}
layer {
  name: "pool5"
  type: "Pooling"
  bottom: "conv5"
  top: "pool5"
  pooling_param {
    pool: AVE
    kernel_size: 3
    stride: 2
  }
}
layer {
  name: "ip1"
  type: "InnerProduct"
  bottom: "pool5"
  top: "ip1"
  param {
    lr_mult: 1
  }
  param {
    lr_mult: 2
  }
  inner_product_param {
    num_output: 1024
    weight_filler {
      type: "gaussian"
      std: 0.1
    }
    bias_filler {
      type: "constant"
    }
  }
}
layer {
  name: "ip2"
  type: "InnerProduct"
  bottom: "ip1"
  top: "ip2"
  param {
    lr_mult: 1
  }
  param {
    lr_mult: 2
  }
  inner_product_param {
    num_output: 512
    weight_filler {
      type: "gaussian"
      std: 0.1
    }
    bias_filler {
      type: "constant"
    }
  }
}
layer {
  name: "ip3"
  type: "InnerProduct"
  bottom: "ip2"
  top: "ip3"
  param {
    lr_mult: 1
  }
  param {
    lr_mult: 2
  }
  inner_product_param {
    num_output: 50
    weight_filler {
      type: "gaussian"
      std: 0.1
    }
    bias_filler {
      type: "constant"
    }
  }
}
layer {
  name: "accuracy"
  type: "Accuracy"
  bottom: "ip3"
  bottom: "label"
  top: "accuracy"
  include {
    phase: TEST
  }
}
layer {
  name: "loss"
  type: "SoftmaxWithLoss"
  bottom: "ip3"
  bottom: "label"
  top: "loss"
}
I0503 04:55:15.888533 18363 layer_factory.hpp:77] Creating layer intercept
I0503 04:55:15.888541 18363 net.cpp:94] Creating Layer intercept
I0503 04:55:15.888545 18363 net.cpp:409] intercept -> data
I0503 04:55:15.888556 18363 net.cpp:409] intercept -> label
I0503 04:55:15.888572 18363 hdf5_data_layer.cpp:79] Loading list of HDF5 filenames from: /home/purduethu/scratch/radon/d/deng106/CNNStatisticalModel/distributions/input/5_distributions_400_sample_size_test-distributions-path.txt
I0503 04:55:15.888592 18363 hdf5_data_layer.cpp:93] Number of HDF5 files: 1
I0503 04:55:15.905395 18363 net.cpp:144] Setting up intercept
I0503 04:55:15.905427 18363 net.cpp:151] Top shape: 20 1 20 20 (8000)
I0503 04:55:15.905432 18363 net.cpp:151] Top shape: 20 (20)
I0503 04:55:15.905436 18363 net.cpp:159] Memory required for data: 32080
I0503 04:55:15.905442 18363 layer_factory.hpp:77] Creating layer label_intercept_1_split
I0503 04:55:15.905460 18363 net.cpp:94] Creating Layer label_intercept_1_split
I0503 04:55:15.905464 18363 net.cpp:435] label_intercept_1_split <- label
I0503 04:55:15.905470 18363 net.cpp:409] label_intercept_1_split -> label_intercept_1_split_0
I0503 04:55:15.905478 18363 net.cpp:409] label_intercept_1_split -> label_intercept_1_split_1
I0503 04:55:15.905524 18363 net.cpp:144] Setting up label_intercept_1_split
I0503 04:55:15.905529 18363 net.cpp:151] Top shape: 20 (20)
I0503 04:55:15.905534 18363 net.cpp:151] Top shape: 20 (20)
I0503 04:55:15.905536 18363 net.cpp:159] Memory required for data: 32240
I0503 04:55:15.905539 18363 layer_factory.hpp:77] Creating layer conv1
I0503 04:55:15.905550 18363 net.cpp:94] Creating Layer conv1
I0503 04:55:15.905552 18363 net.cpp:435] conv1 <- data
I0503 04:55:15.905557 18363 net.cpp:409] conv1 -> conv1
I0503 04:55:15.906378 18363 net.cpp:144] Setting up conv1
I0503 04:55:15.906397 18363 net.cpp:151] Top shape: 20 64 20 20 (512000)
I0503 04:55:15.906401 18363 net.cpp:159] Memory required for data: 2080240
I0503 04:55:15.906410 18363 layer_factory.hpp:77] Creating layer relu1
I0503 04:55:15.906417 18363 net.cpp:94] Creating Layer relu1
I0503 04:55:15.906421 18363 net.cpp:435] relu1 <- conv1
I0503 04:55:15.906425 18363 net.cpp:396] relu1 -> conv1 (in-place)
I0503 04:55:15.906432 18363 net.cpp:144] Setting up relu1
I0503 04:55:15.906436 18363 net.cpp:151] Top shape: 20 64 20 20 (512000)
I0503 04:55:15.906440 18363 net.cpp:159] Memory required for data: 4128240
I0503 04:55:15.906443 18363 layer_factory.hpp:77] Creating layer conv2
I0503 04:55:15.906451 18363 net.cpp:94] Creating Layer conv2
I0503 04:55:15.906455 18363 net.cpp:435] conv2 <- conv1
I0503 04:55:15.906460 18363 net.cpp:409] conv2 -> conv2
I0503 04:55:15.911756 18363 net.cpp:144] Setting up conv2
I0503 04:55:15.911790 18363 net.cpp:151] Top shape: 20 64 20 20 (512000)
I0503 04:55:15.911800 18363 net.cpp:159] Memory required for data: 6176240
I0503 04:55:15.911823 18363 layer_factory.hpp:77] Creating layer relu2
I0503 04:55:15.911836 18363 net.cpp:94] Creating Layer relu2
I0503 04:55:15.911846 18363 net.cpp:435] relu2 <- conv2
I0503 04:55:15.911859 18363 net.cpp:396] relu2 -> conv2 (in-place)
I0503 04:55:15.911877 18363 net.cpp:144] Setting up relu2
I0503 04:55:15.911890 18363 net.cpp:151] Top shape: 20 64 20 20 (512000)
I0503 04:55:15.911897 18363 net.cpp:159] Memory required for data: 8224240
I0503 04:55:15.911906 18363 layer_factory.hpp:77] Creating layer pool2
I0503 04:55:15.911919 18363 net.cpp:94] Creating Layer pool2
I0503 04:55:15.911928 18363 net.cpp:435] pool2 <- conv2
I0503 04:55:15.911939 18363 net.cpp:409] pool2 -> pool2
I0503 04:55:15.912089 18363 net.cpp:144] Setting up pool2
I0503 04:55:15.912112 18363 net.cpp:151] Top shape: 20 64 10 10 (128000)
I0503 04:55:15.912116 18363 net.cpp:159] Memory required for data: 8736240
I0503 04:55:15.912118 18363 layer_factory.hpp:77] Creating layer conv3
I0503 04:55:15.912127 18363 net.cpp:94] Creating Layer conv3
I0503 04:55:15.912129 18363 net.cpp:435] conv3 <- pool2
I0503 04:55:15.912134 18363 net.cpp:409] conv3 -> conv3
I0503 04:55:15.919436 18363 net.cpp:144] Setting up conv3
I0503 04:55:15.919451 18363 net.cpp:151] Top shape: 20 128 10 10 (256000)
I0503 04:55:15.919456 18363 net.cpp:159] Memory required for data: 9760240
I0503 04:55:15.919463 18363 layer_factory.hpp:77] Creating layer relu3
I0503 04:55:15.919469 18363 net.cpp:94] Creating Layer relu3
I0503 04:55:15.919473 18363 net.cpp:435] relu3 <- conv3
I0503 04:55:15.919478 18363 net.cpp:396] relu3 -> conv3 (in-place)
I0503 04:55:15.919484 18363 net.cpp:144] Setting up relu3
I0503 04:55:15.919488 18363 net.cpp:151] Top shape: 20 128 10 10 (256000)
I0503 04:55:15.919492 18363 net.cpp:159] Memory required for data: 10784240
I0503 04:55:15.919494 18363 layer_factory.hpp:77] Creating layer conv4
I0503 04:55:15.919502 18363 net.cpp:94] Creating Layer conv4
I0503 04:55:15.919505 18363 net.cpp:435] conv4 <- conv3
I0503 04:55:15.919510 18363 net.cpp:409] conv4 -> conv4
I0503 04:55:15.933274 18363 net.cpp:144] Setting up conv4
I0503 04:55:15.933292 18363 net.cpp:151] Top shape: 20 128 10 10 (256000)
I0503 04:55:15.933296 18363 net.cpp:159] Memory required for data: 11808240
I0503 04:55:15.933302 18363 layer_factory.hpp:77] Creating layer relu4
I0503 04:55:15.933308 18363 net.cpp:94] Creating Layer relu4
I0503 04:55:15.933312 18363 net.cpp:435] relu4 <- conv4
I0503 04:55:15.933316 18363 net.cpp:396] relu4 -> conv4 (in-place)
I0503 04:55:15.933323 18363 net.cpp:144] Setting up relu4
I0503 04:55:15.933328 18363 net.cpp:151] Top shape: 20 128 10 10 (256000)
I0503 04:55:15.933331 18363 net.cpp:159] Memory required for data: 12832240
I0503 04:55:15.933333 18363 layer_factory.hpp:77] Creating layer conv5
I0503 04:55:15.933341 18363 net.cpp:94] Creating Layer conv5
I0503 04:55:15.933344 18363 net.cpp:435] conv5 <- conv4
I0503 04:55:15.933349 18363 net.cpp:409] conv5 -> conv5
I0503 04:55:15.946637 18363 net.cpp:144] Setting up conv5
I0503 04:55:15.946660 18363 net.cpp:151] Top shape: 20 128 10 10 (256000)
I0503 04:55:15.946663 18363 net.cpp:159] Memory required for data: 13856240
I0503 04:55:15.946673 18363 layer_factory.hpp:77] Creating layer relu5
I0503 04:55:15.946679 18363 net.cpp:94] Creating Layer relu5
I0503 04:55:15.946683 18363 net.cpp:435] relu5 <- conv5
I0503 04:55:15.946687 18363 net.cpp:396] relu5 -> conv5 (in-place)
I0503 04:55:15.946694 18363 net.cpp:144] Setting up relu5
I0503 04:55:15.946698 18363 net.cpp:151] Top shape: 20 128 10 10 (256000)
I0503 04:55:15.946702 18363 net.cpp:159] Memory required for data: 14880240
I0503 04:55:15.946704 18363 layer_factory.hpp:77] Creating layer pool5
I0503 04:55:15.946709 18363 net.cpp:94] Creating Layer pool5
I0503 04:55:15.946712 18363 net.cpp:435] pool5 <- conv5
I0503 04:55:15.946717 18363 net.cpp:409] pool5 -> pool5
I0503 04:55:15.946759 18363 net.cpp:144] Setting up pool5
I0503 04:55:15.946765 18363 net.cpp:151] Top shape: 20 128 5 5 (64000)
I0503 04:55:15.946768 18363 net.cpp:159] Memory required for data: 15136240
I0503 04:55:15.946771 18363 layer_factory.hpp:77] Creating layer ip1
I0503 04:55:15.946779 18363 net.cpp:94] Creating Layer ip1
I0503 04:55:15.946782 18363 net.cpp:435] ip1 <- pool5
I0503 04:55:15.946787 18363 net.cpp:409] ip1 -> ip1
I0503 04:55:16.028326 18363 net.cpp:144] Setting up ip1
I0503 04:55:16.028363 18363 net.cpp:151] Top shape: 20 1024 (20480)
I0503 04:55:16.028367 18363 net.cpp:159] Memory required for data: 15218160
I0503 04:55:16.028376 18363 layer_factory.hpp:77] Creating layer ip2
I0503 04:55:16.028386 18363 net.cpp:94] Creating Layer ip2
I0503 04:55:16.028391 18363 net.cpp:435] ip2 <- ip1
I0503 04:55:16.028398 18363 net.cpp:409] ip2 -> ip2
I0503 04:55:16.042029 18363 net.cpp:144] Setting up ip2
I0503 04:55:16.042047 18363 net.cpp:151] Top shape: 20 512 (10240)
I0503 04:55:16.042050 18363 net.cpp:159] Memory required for data: 15259120
I0503 04:55:16.042057 18363 layer_factory.hpp:77] Creating layer ip3
I0503 04:55:16.042067 18363 net.cpp:94] Creating Layer ip3
I0503 04:55:16.042070 18363 net.cpp:435] ip3 <- ip2
I0503 04:55:16.042075 18363 net.cpp:409] ip3 -> ip3
I0503 04:55:16.042834 18363 net.cpp:144] Setting up ip3
I0503 04:55:16.042842 18363 net.cpp:151] Top shape: 20 50 (1000)
I0503 04:55:16.042845 18363 net.cpp:159] Memory required for data: 15263120
I0503 04:55:16.042850 18363 layer_factory.hpp:77] Creating layer ip3_ip3_0_split
I0503 04:55:16.042856 18363 net.cpp:94] Creating Layer ip3_ip3_0_split
I0503 04:55:16.042860 18363 net.cpp:435] ip3_ip3_0_split <- ip3
I0503 04:55:16.042865 18363 net.cpp:409] ip3_ip3_0_split -> ip3_ip3_0_split_0
I0503 04:55:16.042870 18363 net.cpp:409] ip3_ip3_0_split -> ip3_ip3_0_split_1
I0503 04:55:16.042913 18363 net.cpp:144] Setting up ip3_ip3_0_split
I0503 04:55:16.042918 18363 net.cpp:151] Top shape: 20 50 (1000)
I0503 04:55:16.042922 18363 net.cpp:151] Top shape: 20 50 (1000)
I0503 04:55:16.042924 18363 net.cpp:159] Memory required for data: 15271120
I0503 04:55:16.042928 18363 layer_factory.hpp:77] Creating layer accuracy
I0503 04:55:16.042934 18363 net.cpp:94] Creating Layer accuracy
I0503 04:55:16.042937 18363 net.cpp:435] accuracy <- ip3_ip3_0_split_0
I0503 04:55:16.042942 18363 net.cpp:435] accuracy <- label_intercept_1_split_0
I0503 04:55:16.042945 18363 net.cpp:409] accuracy -> accuracy
…
