…
I0501 12:59:13.894632 12936 net.cpp:323] The NetState phase (0) differed from the phase (1) specified by a rule in layer intercept
I0501 12:59:13.894649 12936 net.cpp:323] The NetState phase (0) differed from the phase (1) specified by a rule in layer loss
I0501 12:59:13.894726 12936 net.cpp:52] Initializing net from parameters: 
state {
  phase: TRAIN
}
layer {
  name: "parameters"
  type: "HDF5Data"
  top: "data"
  top: "label"
  include {
    phase: TRAIN
  }
  hdf5_data_param {
    source: "/home/purduethu/scratch/radon/d/deng106/CNNStatisticalModel/distributions/input/50_distributions_900_sample_size_train-parameters-path.txt"
    batch_size: 20
  }
}
layer {
  name: "conv1"
  type: "Convolution"
  bottom: "data"
  top: "conv1"
  param {
    lr_mult: 1
  }
  param {
    lr_mult: 2
  }
  convolution_param {
    num_output: 64
    pad: 2
    kernel_size: 5
    stride: 1
    weight_filler {
      type: "gaussian"
      std: 0.0001
    }
    bias_filler {
      type: "constant"
    }
  }
}
layer {
  name: "relu1"
  type: "ReLU"
  bottom: "conv1"
  top: "conv1"
}
layer {
  name: "conv2"
  type: "Convolution"
  bottom: "conv1"
  top: "conv2"
  param {
    lr_mult: 1
  }
  param {
    lr_mult: 2
  }
  convolution_param {
    num_output: 64
    pad: 2
    kernel_size: 5
    stride: 1
    weight_filler {
      type: "gaussian"
      std: 0.01
    }
    bias_filler {
      type: "constant"
    }
  }
}
layer {
  name: "relu2"
  type: "ReLU"
  bottom: "conv2"
  top: "conv2"
}
layer {
  name: "pool2"
  type: "Pooling"
  bottom: "conv2"
  top: "pool2"
  pooling_param {
    pool: MAX
    kernel_size: 3
    stride: 2
  }
}
layer {
  name: "conv3"
  type: "Convolution"
  bottom: "pool2"
  top: "conv3"
  param {
    lr_mult: 1
  }
  param {
    lr_mult: 2
  }
  convolution_param {
    num_output: 64
    pad: 2
    kernel_size: 5
    stride: 1
    weight_filler {
      type: "gaussian"
      std: 0.01
    }
    bias_filler {
      type: "constant"
    }
  }
}
layer {
  name: "relu3"
  type: "ReLU"
  bottom: "conv3"
  top: "conv3"
}
layer {
  name: "conv4"
  type: "Convolution"
  bottom: "conv3"
  top: "conv4"
  param {
    lr_mult: 1
  }
  param {
    lr_mult: 2
  }
  convolution_param {
    num_output: 64
    pad: 2
    kernel_size: 5
    stride: 1
    weight_filler {
      type: "gaussian"
      std: 0.01
    }
    bias_filler {
      type: "constant"
    }
  }
}
layer {
  name: "relu4"
  type: "ReLU"
  bottom: "conv4"
  top: "conv4"
}
layer {
  name: "conv5"
  type: "Convolution"
  bottom: "conv4"
  top: "conv5"
  param {
    lr_mult: 1
  }
  param {
    lr_mult: 2
  }
  convolution_param {
    num_output: 64
    pad: 2
    kernel_size: 5
    stride: 1
    weight_filler {
      type: "gaussian"
      std: 0.01
    }
    bias_filler {
      type: "constant"
    }
  }
}
layer {
  name: "relu5"
  type: "ReLU"
  bottom: "conv5"
  top: "conv5"
}
layer {
  name: "pool5"
  type: "Pooling"
  bottom: "conv5"
  top: "pool5"
  pooling_param {
    pool: AVE
    kernel_size: 3
    stride: 2
  }
}
layer {
  name: "ip1"
  type: "InnerProduct"
  bottom: "pool5"
  top: "ip1"
  param {
    lr_mult: 1
  }
  param {
    lr_mult: 2
  }
  inner_product_param {
    num_output: 64
    weight_filler {
      type: "gaussian"
      std: 0.1
    }
    bias_filler {
      type: "constant"
    }
  }
}
layer {
  name: "ip2"
  type: "InnerProduct"
  bottom: "ip1"
  top: "ip2"
  param {
    lr_mult: 1
  }
  param {
    lr_mult: 2
  }
  inner_product_param {
    num_output: 64
    weight_filler {
      type: "gaussian"
      std: 0.1
    }
    bias_filler {
      type: "constant"
    }
  }
}
layer {
  name: "ip3"
  type: "InnerProduct"
  bottom: "ip2"
  top: "ip3"
  param {
    lr_mult: 1
  }
  param {
    lr_mult: 2
  }
  inner_product_param {
    num_output: 1
    weight_filler {
      type: "gaussian"
      std: 0.1
    }
    bias_filler {
      type: "constant"
    }
  }
}
layer {
  name: "loss"
  type: "HuberLoss"
  bottom: "ip3"
  bottom: "label"
  top: "loss"
  include {
    phase: TRAIN
  }
}
I0501 12:59:13.894778 12936 layer_factory.hpp:77] Creating layer parameters
I0501 12:59:13.894794 12936 net.cpp:94] Creating Layer parameters
I0501 12:59:13.894799 12936 net.cpp:409] parameters -> data
I0501 12:59:13.894809 12936 net.cpp:409] parameters -> label
I0501 12:59:13.894815 12936 hdf5_data_layer.cpp:79] Loading list of HDF5 filenames from: /home/purduethu/scratch/radon/d/deng106/CNNStatisticalModel/distributions/input/50_distributions_900_sample_size_train-parameters-path.txt
I0501 12:59:13.894834 12936 hdf5_data_layer.cpp:93] Number of HDF5 files: 1
I0501 12:59:13.895344 12936 hdf5.cpp:32] Datatype class: H5T_FLOAT
I0501 12:59:15.334450 12936 net.cpp:144] Setting up parameters
I0501 12:59:15.334482 12936 net.cpp:151] Top shape: 20 1 30 30 (18000)
I0501 12:59:15.334487 12936 net.cpp:151] Top shape: 20 (20)
I0501 12:59:15.334491 12936 net.cpp:159] Memory required for data: 72080
I0501 12:59:15.334497 12936 layer_factory.hpp:77] Creating layer conv1
I0501 12:59:15.334519 12936 net.cpp:94] Creating Layer conv1
I0501 12:59:15.334524 12936 net.cpp:435] conv1 <- data
I0501 12:59:15.334532 12936 net.cpp:409] conv1 -> conv1
I0501 12:59:15.341192 12936 net.cpp:144] Setting up conv1
I0501 12:59:15.341233 12936 net.cpp:151] Top shape: 20 64 30 30 (1152000)
I0501 12:59:15.341243 12936 net.cpp:159] Memory required for data: 4680080
I0501 12:59:15.341270 12936 layer_factory.hpp:77] Creating layer relu1
I0501 12:59:15.341289 12936 net.cpp:94] Creating Layer relu1
I0501 12:59:15.341298 12936 net.cpp:435] relu1 <- conv1
I0501 12:59:15.341310 12936 net.cpp:396] relu1 -> conv1 (in-place)
I0501 12:59:15.341338 12936 net.cpp:144] Setting up relu1
I0501 12:59:15.341351 12936 net.cpp:151] Top shape: 20 64 30 30 (1152000)
I0501 12:59:15.341361 12936 net.cpp:159] Memory required for data: 9288080
I0501 12:59:15.341368 12936 layer_factory.hpp:77] Creating layer conv2
I0501 12:59:15.341388 12936 net.cpp:94] Creating Layer conv2
I0501 12:59:15.341398 12936 net.cpp:435] conv2 <- conv1
I0501 12:59:15.341411 12936 net.cpp:409] conv2 -> conv2
I0501 12:59:15.358165 12936 net.cpp:144] Setting up conv2
I0501 12:59:15.358183 12936 net.cpp:151] Top shape: 20 64 30 30 (1152000)
I0501 12:59:15.358186 12936 net.cpp:159] Memory required for data: 13896080
I0501 12:59:15.358196 12936 layer_factory.hpp:77] Creating layer relu2
I0501 12:59:15.358202 12936 net.cpp:94] Creating Layer relu2
I0501 12:59:15.358206 12936 net.cpp:435] relu2 <- conv2
I0501 12:59:15.358211 12936 net.cpp:396] relu2 -> conv2 (in-place)
I0501 12:59:15.358217 12936 net.cpp:144] Setting up relu2
I0501 12:59:15.358220 12936 net.cpp:151] Top shape: 20 64 30 30 (1152000)
I0501 12:59:15.358223 12936 net.cpp:159] Memory required for data: 18504080
I0501 12:59:15.358227 12936 layer_factory.hpp:77] Creating layer pool2
I0501 12:59:15.358237 12936 net.cpp:94] Creating Layer pool2
I0501 12:59:15.358242 12936 net.cpp:435] pool2 <- conv2
I0501 12:59:15.358245 12936 net.cpp:409] pool2 -> pool2
I0501 12:59:15.358302 12936 net.cpp:144] Setting up pool2
I0501 12:59:15.358309 12936 net.cpp:151] Top shape: 20 64 15 15 (288000)
I0501 12:59:15.358312 12936 net.cpp:159] Memory required for data: 19656080
I0501 12:59:15.358315 12936 layer_factory.hpp:77] Creating layer conv3
I0501 12:59:15.358324 12936 net.cpp:94] Creating Layer conv3
I0501 12:59:15.358326 12936 net.cpp:435] conv3 <- pool2
I0501 12:59:15.358331 12936 net.cpp:409] conv3 -> conv3
I0501 12:59:15.367326 12936 net.cpp:144] Setting up conv3
I0501 12:59:15.367341 12936 net.cpp:151] Top shape: 20 64 15 15 (288000)
I0501 12:59:15.367344 12936 net.cpp:159] Memory required for data: 20808080
I0501 12:59:15.367352 12936 layer_factory.hpp:77] Creating layer relu3
I0501 12:59:15.367359 12936 net.cpp:94] Creating Layer relu3
I0501 12:59:15.367362 12936 net.cpp:435] relu3 <- conv3
I0501 12:59:15.367367 12936 net.cpp:396] relu3 -> conv3 (in-place)
I0501 12:59:15.367374 12936 net.cpp:144] Setting up relu3
I0501 12:59:15.367378 12936 net.cpp:151] Top shape: 20 64 15 15 (288000)
I0501 12:59:15.367382 12936 net.cpp:159] Memory required for data: 21960080
I0501 12:59:15.367384 12936 layer_factory.hpp:77] Creating layer conv4
I0501 12:59:15.367393 12936 net.cpp:94] Creating Layer conv4
I0501 12:59:15.367396 12936 net.cpp:435] conv4 <- conv3
I0501 12:59:15.367401 12936 net.cpp:409] conv4 -> conv4
I0501 12:59:15.375854 12936 net.cpp:144] Setting up conv4
I0501 12:59:15.375892 12936 net.cpp:151] Top shape: 20 64 15 15 (288000)
I0501 12:59:15.375905 12936 net.cpp:159] Memory required for data: 23112080
I0501 12:59:15.375921 12936 layer_factory.hpp:77] Creating layer relu4
I0501 12:59:15.375936 12936 net.cpp:94] Creating Layer relu4
I0501 12:59:15.375946 12936 net.cpp:435] relu4 <- conv4
I0501 12:59:15.375958 12936 net.cpp:396] relu4 -> conv4 (in-place)
I0501 12:59:15.375985 12936 net.cpp:144] Setting up relu4
I0501 12:59:15.375989 12936 net.cpp:151] Top shape: 20 64 15 15 (288000)
I0501 12:59:15.375993 12936 net.cpp:159] Memory required for data: 24264080
I0501 12:59:15.375995 12936 layer_factory.hpp:77] Creating layer conv5
I0501 12:59:15.376003 12936 net.cpp:94] Creating Layer conv5
I0501 12:59:15.376008 12936 net.cpp:435] conv5 <- conv4
I0501 12:59:15.376013 12936 net.cpp:409] conv5 -> conv5
I0501 12:59:15.384466 12936 net.cpp:144] Setting up conv5
I0501 12:59:15.384481 12936 net.cpp:151] Top shape: 20 64 15 15 (288000)
I0501 12:59:15.384486 12936 net.cpp:159] Memory required for data: 25416080
I0501 12:59:15.384495 12936 layer_factory.hpp:77] Creating layer relu5
I0501 12:59:15.384501 12936 net.cpp:94] Creating Layer relu5
I0501 12:59:15.384505 12936 net.cpp:435] relu5 <- conv5
I0501 12:59:15.384510 12936 net.cpp:396] relu5 -> conv5 (in-place)
I0501 12:59:15.384516 12936 net.cpp:144] Setting up relu5
I0501 12:59:15.384521 12936 net.cpp:151] Top shape: 20 64 15 15 (288000)
I0501 12:59:15.384524 12936 net.cpp:159] Memory required for data: 26568080
I0501 12:59:15.384527 12936 layer_factory.hpp:77] Creating layer pool5
I0501 12:59:15.384532 12936 net.cpp:94] Creating Layer pool5
I0501 12:59:15.384536 12936 net.cpp:435] pool5 <- conv5
I0501 12:59:15.384539 12936 net.cpp:409] pool5 -> pool5
I0501 12:59:15.384594 12936 net.cpp:144] Setting up pool5
I0501 12:59:15.384604 12936 net.cpp:151] Top shape: 20 64 7 7 (62720)
I0501 12:59:15.384608 12936 net.cpp:159] Memory required for data: 26818960
I0501 12:59:15.384610 12936 layer_factory.hpp:77] Creating layer ip1
I0501 12:59:15.384621 12936 net.cpp:94] Creating Layer ip1
I0501 12:59:15.384624 12936 net.cpp:435] ip1 <- pool5
I0501 12:59:15.384629 12936 net.cpp:409] ip1 -> ip1
I0501 12:59:15.390980 12936 net.cpp:144] Setting up ip1
I0501 12:59:15.390997 12936 net.cpp:151] Top shape: 20 64 (1280)
I0501 12:59:15.391001 12936 net.cpp:159] Memory required for data: 26824080
I0501 12:59:15.391008 12936 layer_factory.hpp:77] Creating layer ip2
I0501 12:59:15.391016 12936 net.cpp:94] Creating Layer ip2
I0501 12:59:15.391024 12936 net.cpp:435] ip2 <- ip1
I0501 12:59:15.391031 12936 net.cpp:409] ip2 -> ip2
I0501 12:59:15.391281 12936 net.cpp:144] Setting up ip2
I0501 12:59:15.391290 12936 net.cpp:151] Top shape: 20 64 (1280)
I0501 12:59:15.391294 12936 net.cpp:159] Memory required for data: 26829200
I0501 12:59:15.391299 12936 layer_factory.hpp:77] Creating layer ip3
I0501 12:59:15.391305 12936 net.cpp:94] Creating Layer ip3
I0501 12:59:15.391309 12936 net.cpp:435] ip3 <- ip2
I0501 12:59:15.391314 12936 net.cpp:409] ip3 -> ip3
I0501 12:59:15.391434 12936 net.cpp:144] Setting up ip3
I0501 12:59:15.391441 12936 net.cpp:151] Top shape: 20 1 (20)
I0501 12:59:15.391444 12936 net.cpp:159] Memory required for data: 26829280
I0501 12:59:15.391449 12936 layer_factory.hpp:77] Creating layer loss
I0501 12:59:15.391458 12936 net.cpp:94] Creating Layer loss
I0501 12:59:15.391460 12936 net.cpp:435] loss <- ip3
I0501 12:59:15.391464 12936 net.cpp:435] loss <- label
I0501 12:59:15.391469 12936 net.cpp:409] loss -> loss
I0501 12:59:15.391527 12936 net.cpp:144] Setting up loss
…
I0501 12:59:15.868176 12936 net.cpp:323] The NetState phase (0) differed from the phase (1) specified by a rule in layer intercept
I0501 12:59:15.868192 12936 net.cpp:323] The NetState phase (0) differed from the phase (1) specified by a rule in layer accuracy
I0501 12:59:15.868280 12936 net.cpp:52] Initializing net from parameters: 
state {
  phase: TRAIN
}
layer {
  name: "parameters"
  type: "HDF5Data"
  top: "data"
  top: "label"
  include {
    phase: TRAIN
  }
  hdf5_data_param {
    source: "/home/purduethu/scratch/radon/d/deng106/CNNStatisticalModel/distributions/input/50_distributions_900_sample_size_train-distributions-path.txt"
    batch_size: 20
  }
}
layer {
  name: "conv1"
  type: "Convolution"
  bottom: "data"
  top: "conv1"
  param {
    lr_mult: 1
  }
  param {
    lr_mult: 2
  }
  convolution_param {
    num_output: 64
    pad: 2
    kernel_size: 5
    stride: 1
    weight_filler {
      type: "gaussian"
      std: 0.0001
    }
    bias_filler {
      type: "constant"
    }
  }
}
layer {
  name: "relu1"
  type: "ReLU"
  bottom: "conv1"
  top: "conv1"
}
layer {
  name: "conv2"
  type: "Convolution"
  bottom: "conv1"
  top: "conv2"
  param {
    lr_mult: 1
  }
  param {
    lr_mult: 2
  }
  convolution_param {
    num_output: 64
    pad: 2
    kernel_size: 5
    stride: 1
    weight_filler {
      type: "gaussian"
      std: 0.01
    }
    bias_filler {
      type: "constant"
    }
  }
}
layer {
  name: "relu2"
  type: "ReLU"
  bottom: "conv2"
  top: "conv2"
}
layer {
  name: "pool2"
  type: "Pooling"
  bottom: "conv2"
  top: "pool2"
  pooling_param {
    pool: MAX
    kernel_size: 3
    stride: 2
  }
}
layer {
  name: "conv3"
  type: "Convolution"
  bottom: "pool2"
  top: "conv3"
  param {
    lr_mult: 1
  }
  param {
    lr_mult: 2
  }
  convolution_param {
    num_output: 64
    pad: 2
    kernel_size: 5
    stride: 1
    weight_filler {
      type: "gaussian"
      std: 0.01
    }
    bias_filler {
      type: "constant"
    }
  }
}
layer {
  name: "relu3"
  type: "ReLU"
  bottom: "conv3"
  top: "conv3"
}
layer {
  name: "conv4"
  type: "Convolution"
  bottom: "conv3"
  top: "conv4"
  param {
    lr_mult: 1
  }
  param {
    lr_mult: 2
  }
  convolution_param {
    num_output: 64
    pad: 2
    kernel_size: 5
    stride: 1
    weight_filler {
      type: "gaussian"
      std: 0.01
    }
    bias_filler {
      type: "constant"
    }
  }
}
layer {
  name: "relu4"
  type: "ReLU"
  bottom: "conv4"
  top: "conv4"
}
layer {
  name: "conv5"
  type: "Convolution"
  bottom: "conv4"
  top: "conv5"
  param {
    lr_mult: 1
  }
  param {
    lr_mult: 2
  }
  convolution_param {
    num_output: 64
    pad: 2
    kernel_size: 5
    stride: 1
    weight_filler {
      type: "gaussian"
      std: 0.01
    }
    bias_filler {
      type: "constant"
    }
  }
}
layer {
  name: "relu5"
  type: "ReLU"
  bottom: "conv5"
  top: "conv5"
}
layer {
  name: "pool5"
  type: "Pooling"
  bottom: "conv5"
  top: "pool5"
  pooling_param {
    pool: AVE
    kernel_size: 3
    stride: 2
  }
}
layer {
  name: "ip1"
  type: "InnerProduct"
  bottom: "pool5"
  top: "ip1"
  param {
    lr_mult: 1
  }
  param {
    lr_mult: 2
  }
  inner_product_param {
    num_output: 64
    weight_filler {
      type: "gaussian"
      std: 0.1
    }
    bias_filler {
      type: "constant"
    }
  }
}
layer {
  name: "ip2"
  type: "InnerProduct"
  bottom: "ip1"
  top: "ip2"
  param {
    lr_mult: 1
  }
  param {
    lr_mult: 2
  }
  inner_product_param {
    num_output: 64
    weight_filler {
      type: "gaussian"
      std: 0.1
    }
    bias_filler {
      type: "constant"
    }
  }
}
layer {
  name: "ip3"
  type: "InnerProduct"
  bottom: "ip2"
  top: "ip3"
  param {
    lr_mult: 1
  }
  param {
    lr_mult: 2
  }
  inner_product_param {
    num_output: 50
    weight_filler {
      type: "gaussian"
      std: 0.1
    }
    bias_filler {
      type: "constant"
    }
  }
}
layer {
  name: "loss"
  type: "SoftmaxWithLoss"
  bottom: "ip3"
  bottom: "label"
  top: "loss"
}
I0501 12:59:15.868331 12936 layer_factory.hpp:77] Creating layer parameters
I0501 12:59:15.868340 12936 net.cpp:94] Creating Layer parameters
I0501 12:59:15.868345 12936 net.cpp:409] parameters -> data
I0501 12:59:15.868350 12936 net.cpp:409] parameters -> label
I0501 12:59:15.868356 12936 hdf5_data_layer.cpp:79] Loading list of HDF5 filenames from: /home/purduethu/scratch/radon/d/deng106/CNNStatisticalModel/distributions/input/50_distributions_900_sample_size_train-distributions-path.txt
I0501 12:59:15.868374 12936 hdf5_data_layer.cpp:93] Number of HDF5 files: 1
I0501 12:59:17.423974 12936 hdf5.cpp:35] Datatype class: H5T_INTEGER
I0501 12:59:17.427119 12936 net.cpp:144] Setting up parameters
I0501 12:59:17.427152 12936 net.cpp:151] Top shape: 20 1 30 30 (18000)
I0501 12:59:17.427157 12936 net.cpp:151] Top shape: 20 (20)
I0501 12:59:17.427160 12936 net.cpp:159] Memory required for data: 72080
I0501 12:59:17.427167 12936 layer_factory.hpp:77] Creating layer conv1
I0501 12:59:17.427186 12936 net.cpp:94] Creating Layer conv1
I0501 12:59:17.427189 12936 net.cpp:435] conv1 <- data
I0501 12:59:17.427196 12936 net.cpp:409] conv1 -> conv1
I0501 12:59:17.430858 12936 net.cpp:144] Setting up conv1
I0501 12:59:17.430887 12936 net.cpp:151] Top shape: 20 64 30 30 (1152000)
I0501 12:59:17.430891 12936 net.cpp:159] Memory required for data: 4680080
I0501 12:59:17.430904 12936 layer_factory.hpp:77] Creating layer relu1
I0501 12:59:17.430914 12936 net.cpp:94] Creating Layer relu1
I0501 12:59:17.430919 12936 net.cpp:435] relu1 <- conv1
I0501 12:59:17.430924 12936 net.cpp:396] relu1 -> conv1 (in-place)
I0501 12:59:17.430933 12936 net.cpp:144] Setting up relu1
I0501 12:59:17.430938 12936 net.cpp:151] Top shape: 20 64 30 30 (1152000)
I0501 12:59:17.430940 12936 net.cpp:159] Memory required for data: 9288080
I0501 12:59:17.430943 12936 layer_factory.hpp:77] Creating layer conv2
I0501 12:59:17.430953 12936 net.cpp:94] Creating Layer conv2
I0501 12:59:17.430956 12936 net.cpp:435] conv2 <- conv1
I0501 12:59:17.430961 12936 net.cpp:409] conv2 -> conv2
I0501 12:59:17.447429 12936 net.cpp:144] Setting up conv2
I0501 12:59:17.447466 12936 net.cpp:151] Top shape: 20 64 30 30 (1152000)
I0501 12:59:17.447470 12936 net.cpp:159] Memory required for data: 13896080
I0501 12:59:17.447485 12936 layer_factory.hpp:77] Creating layer relu2
I0501 12:59:17.447496 12936 net.cpp:94] Creating Layer relu2
I0501 12:59:17.447501 12936 net.cpp:435] relu2 <- conv2
I0501 12:59:17.447506 12936 net.cpp:396] relu2 -> conv2 (in-place)
I0501 12:59:17.447517 12936 net.cpp:144] Setting up relu2
I0501 12:59:17.447521 12936 net.cpp:151] Top shape: 20 64 30 30 (1152000)
I0501 12:59:17.447525 12936 net.cpp:159] Memory required for data: 18504080
I0501 12:59:17.447526 12936 layer_factory.hpp:77] Creating layer pool2
I0501 12:59:17.447533 12936 net.cpp:94] Creating Layer pool2
I0501 12:59:17.447536 12936 net.cpp:435] pool2 <- conv2
I0501 12:59:17.447540 12936 net.cpp:409] pool2 -> pool2
I0501 12:59:17.447657 12936 net.cpp:144] Setting up pool2
I0501 12:59:17.447664 12936 net.cpp:151] Top shape: 20 64 15 15 (288000)
I0501 12:59:17.447667 12936 net.cpp:159] Memory required for data: 19656080
I0501 12:59:17.447670 12936 layer_factory.hpp:77] Creating layer conv3
I0501 12:59:17.447691 12936 net.cpp:94] Creating Layer conv3
I0501 12:59:17.447695 12936 net.cpp:435] conv3 <- pool2
I0501 12:59:17.447707 12936 net.cpp:409] conv3 -> conv3
I0501 12:59:17.456883 12936 net.cpp:144] Setting up conv3
I0501 12:59:17.456940 12936 net.cpp:151] Top shape: 20 64 15 15 (288000)
I0501 12:59:17.456945 12936 net.cpp:159] Memory required for data: 20808080
I0501 12:59:17.456959 12936 layer_factory.hpp:77] Creating layer relu3
I0501 12:59:17.456969 12936 net.cpp:94] Creating Layer relu3
I0501 12:59:17.456974 12936 net.cpp:435] relu3 <- conv3
I0501 12:59:17.456979 12936 net.cpp:396] relu3 -> conv3 (in-place)
I0501 12:59:17.456990 12936 net.cpp:144] Setting up relu3
I0501 12:59:17.456995 12936 net.cpp:151] Top shape: 20 64 15 15 (288000)
I0501 12:59:17.456997 12936 net.cpp:159] Memory required for data: 21960080
I0501 12:59:17.457000 12936 layer_factory.hpp:77] Creating layer conv4
I0501 12:59:17.457011 12936 net.cpp:94] Creating Layer conv4
I0501 12:59:17.457015 12936 net.cpp:435] conv4 <- conv3
I0501 12:59:17.457020 12936 net.cpp:409] conv4 -> conv4
I0501 12:59:17.466112 12936 net.cpp:144] Setting up conv4
I0501 12:59:17.466147 12936 net.cpp:151] Top shape: 20 64 15 15 (288000)
I0501 12:59:17.466151 12936 net.cpp:159] Memory required for data: 23112080
I0501 12:59:17.466162 12936 layer_factory.hpp:77] Creating layer relu4
I0501 12:59:17.466173 12936 net.cpp:94] Creating Layer relu4
I0501 12:59:17.466178 12936 net.cpp:435] relu4 <- conv4
I0501 12:59:17.466184 12936 net.cpp:396] relu4 -> conv4 (in-place)
I0501 12:59:17.466194 12936 net.cpp:144] Setting up relu4
I0501 12:59:17.466198 12936 net.cpp:151] Top shape: 20 64 15 15 (288000)
I0501 12:59:17.466202 12936 net.cpp:159] Memory required for data: 24264080
I0501 12:59:17.466204 12936 layer_factory.hpp:77] Creating layer conv5
I0501 12:59:17.466214 12936 net.cpp:94] Creating Layer conv5
I0501 12:59:17.466217 12936 net.cpp:435] conv5 <- conv4
I0501 12:59:17.466223 12936 net.cpp:409] conv5 -> conv5
I0501 12:59:17.474444 12936 net.cpp:144] Setting up conv5
I0501 12:59:17.474480 12936 net.cpp:151] Top shape: 20 64 15 15 (288000)
I0501 12:59:17.474484 12936 net.cpp:159] Memory required for data: 25416080
I0501 12:59:17.474499 12936 layer_factory.hpp:77] Creating layer relu5
I0501 12:59:17.474509 12936 net.cpp:94] Creating Layer relu5
I0501 12:59:17.474514 12936 net.cpp:435] relu5 <- conv5
I0501 12:59:17.474519 12936 net.cpp:396] relu5 -> conv5 (in-place)
I0501 12:59:17.474529 12936 net.cpp:144] Setting up relu5
I0501 12:59:17.474534 12936 net.cpp:151] Top shape: 20 64 15 15 (288000)
I0501 12:59:17.474536 12936 net.cpp:159] Memory required for data: 26568080
I0501 12:59:17.474539 12936 layer_factory.hpp:77] Creating layer pool5
I0501 12:59:17.474545 12936 net.cpp:94] Creating Layer pool5
I0501 12:59:17.474550 12936 net.cpp:435] pool5 <- conv5
I0501 12:59:17.474553 12936 net.cpp:409] pool5 -> pool5
I0501 12:59:17.474637 12936 net.cpp:144] Setting up pool5
I0501 12:59:17.474643 12936 net.cpp:151] Top shape: 20 64 7 7 (62720)
I0501 12:59:17.474647 12936 net.cpp:159] Memory required for data: 26818960
I0501 12:59:17.474649 12936 layer_factory.hpp:77] Creating layer ip1
I0501 12:59:17.474656 12936 net.cpp:94] Creating Layer ip1
I0501 12:59:17.474659 12936 net.cpp:435] ip1 <- pool5
I0501 12:59:17.474664 12936 net.cpp:409] ip1 -> ip1
I0501 12:59:17.479676 12936 net.cpp:144] Setting up ip1
I0501 12:59:17.479699 12936 net.cpp:151] Top shape: 20 64 (1280)
I0501 12:59:17.479703 12936 net.cpp:159] Memory required for data: 26824080
I0501 12:59:17.479712 12936 layer_factory.hpp:77] Creating layer ip2
I0501 12:59:17.479719 12936 net.cpp:94] Creating Layer ip2
I0501 12:59:17.479723 12936 net.cpp:435] ip2 <- ip1
I0501 12:59:17.479729 12936 net.cpp:409] ip2 -> ip2
I0501 12:59:17.479972 12936 net.cpp:144] Setting up ip2
I0501 12:59:17.479979 12936 net.cpp:151] Top shape: 20 64 (1280)
I0501 12:59:17.479982 12936 net.cpp:159] Memory required for data: 26829200
I0501 12:59:17.479988 12936 layer_factory.hpp:77] Creating layer ip3
I0501 12:59:17.479993 12936 net.cpp:94] Creating Layer ip3
I0501 12:59:17.479996 12936 net.cpp:435] ip3 <- ip2
I0501 12:59:17.480001 12936 net.cpp:409] ip3 -> ip3
I0501 12:59:17.480216 12936 net.cpp:144] Setting up ip3
I0501 12:59:17.480223 12936 net.cpp:151] Top shape: 20 50 (1000)
I0501 12:59:17.480226 12936 net.cpp:159] Memory required for data: 26833200
I0501 12:59:17.480232 12936 layer_factory.hpp:77] Creating layer loss
I0501 12:59:17.480238 12936 net.cpp:94] Creating Layer loss
I0501 12:59:17.480242 12936 net.cpp:435] loss <- ip3
I0501 12:59:17.480245 12936 net.cpp:435] loss <- label
I0501 12:59:17.480249 12936 net.cpp:409] loss -> loss
I0501 12:59:17.480257 12936 layer_factory.hpp:77] Creating layer loss
…
I0501 12:59:17.480818 12936 solver.cpp:181] Creating test net (#0) specified by net file: ./protocol/dis_50_900_dimension.protocol_distribution
I0501 12:59:17.480847 12936 net.cpp:323] The NetState phase (1) differed from the phase (0) specified by a rule in layer parameters
I0501 12:59:17.480942 12936 net.cpp:52] Initializing net from parameters: 
state {
  phase: TEST
}
layer {
  name: "intercept"
  type: "HDF5Data"
  top: "data"
  top: "label"
  include {
    phase: TEST
  }
  hdf5_data_param {
    source: "/home/purduethu/scratch/radon/d/deng106/CNNStatisticalModel/distributions/input/50_distributions_900_sample_size_test-distributions-path.txt"
    batch_size: 20
  }
}
layer {
  name: "conv1"
  type: "Convolution"
  bottom: "data"
  top: "conv1"
  param {
    lr_mult: 1
  }
  param {
    lr_mult: 2
  }
  convolution_param {
    num_output: 64
    pad: 2
    kernel_size: 5
    stride: 1
    weight_filler {
      type: "gaussian"
      std: 0.0001
    }
    bias_filler {
      type: "constant"
    }
  }
}
layer {
  name: "relu1"
  type: "ReLU"
  bottom: "conv1"
  top: "conv1"
}
layer {
  name: "conv2"
  type: "Convolution"
  bottom: "conv1"
  top: "conv2"
  param {
    lr_mult: 1
  }
  param {
    lr_mult: 2
  }
  convolution_param {
    num_output: 64
    pad: 2
    kernel_size: 5
    stride: 1
    weight_filler {
      type: "gaussian"
      std: 0.01
    }
    bias_filler {
      type: "constant"
    }
  }
}
layer {
  name: "relu2"
  type: "ReLU"
  bottom: "conv2"
  top: "conv2"
}
layer {
  name: "pool2"
  type: "Pooling"
  bottom: "conv2"
  top: "pool2"
  pooling_param {
    pool: MAX
    kernel_size: 3
    stride: 2
  }
}
layer {
  name: "conv3"
  type: "Convolution"
  bottom: "pool2"
  top: "conv3"
  param {
    lr_mult: 1
  }
  param {
    lr_mult: 2
  }
  convolution_param {
    num_output: 64
    pad: 2
    kernel_size: 5
    stride: 1
    weight_filler {
      type: "gaussian"
      std: 0.01
    }
    bias_filler {
      type: "constant"
    }
  }
}
layer {
  name: "relu3"
  type: "ReLU"
  bottom: "conv3"
  top: "conv3"
}
layer {
  name: "conv4"
  type: "Convolution"
  bottom: "conv3"
  top: "conv4"
  param {
    lr_mult: 1
  }
  param {
    lr_mult: 2
  }
  convolution_param {
    num_output: 64
    pad: 2
    kernel_size: 5
    stride: 1
    weight_filler {
      type: "gaussian"
      std: 0.01
    }
    bias_filler {
      type: "constant"
    }
  }
}
layer {
  name: "relu4"
  type: "ReLU"
  bottom: "conv4"
  top: "conv4"
}
layer {
  name: "conv5"
  type: "Convolution"
  bottom: "conv4"
  top: "conv5"
  param {
    lr_mult: 1
  }
  param {
    lr_mult: 2
  }
  convolution_param {
    num_output: 64
    pad: 2
    kernel_size: 5
    stride: 1
    weight_filler {
      type: "gaussian"
      std: 0.01
    }
    bias_filler {
      type: "constant"
    }
  }
}
layer {
  name: "relu5"
  type: "ReLU"
  bottom: "conv5"
  top: "conv5"
}
layer {
  name: "pool5"
  type: "Pooling"
  bottom: "conv5"
  top: "pool5"
  pooling_param {
    pool: AVE
    kernel_size: 3
    stride: 2
  }
}
layer {
  name: "ip1"
  type: "InnerProduct"
  bottom: "pool5"
  top: "ip1"
  param {
    lr_mult: 1
  }
  param {
    lr_mult: 2
  }
  inner_product_param {
    num_output: 64
    weight_filler {
      type: "gaussian"
      std: 0.1
    }
    bias_filler {
      type: "constant"
    }
  }
}
layer {
  name: "ip2"
  type: "InnerProduct"
  bottom: "ip1"
  top: "ip2"
  param {
    lr_mult: 1
  }
  param {
    lr_mult: 2
  }
  inner_product_param {
    num_output: 64
    weight_filler {
      type: "gaussian"
      std: 0.1
    }
    bias_filler {
      type: "constant"
    }
  }
}
layer {
  name: "ip3"
  type: "InnerProduct"
  bottom: "ip2"
  top: "ip3"
  param {
    lr_mult: 1
  }
  param {
    lr_mult: 2
  }
  inner_product_param {
    num_output: 50
    weight_filler {
      type: "gaussian"
      std: 0.1
    }
    bias_filler {
      type: "constant"
    }
  }
}
layer {
  name: "accuracy"
  type: "Accuracy"
  bottom: "ip3"
  bottom: "label"
  top: "accuracy"
  include {
    phase: TEST
  }
}
layer {
  name: "loss"
  type: "SoftmaxWithLoss"
  bottom: "ip3"
  bottom: "label"
  top: "loss"
}
I0501 12:59:17.481007 12936 layer_factory.hpp:77] Creating layer intercept
I0501 12:59:17.481015 12936 net.cpp:94] Creating Layer intercept
I0501 12:59:17.481019 12936 net.cpp:409] intercept -> data
I0501 12:59:17.481025 12936 net.cpp:409] intercept -> label
I0501 12:59:17.481031 12936 hdf5_data_layer.cpp:79] Loading list of HDF5 filenames from: /home/purduethu/scratch/radon/d/deng106/CNNStatisticalModel/distributions/input/50_distributions_900_sample_size_test-distributions-path.txt
I0501 12:59:17.481055 12936 hdf5_data_layer.cpp:93] Number of HDF5 files: 1
I0501 12:59:17.845901 12936 net.cpp:144] Setting up intercept
I0501 12:59:17.845937 12936 net.cpp:151] Top shape: 20 1 30 30 (18000)
I0501 12:59:17.845942 12936 net.cpp:151] Top shape: 20 (20)
I0501 12:59:17.845945 12936 net.cpp:159] Memory required for data: 72080
I0501 12:59:17.845952 12936 layer_factory.hpp:77] Creating layer label_intercept_1_split
I0501 12:59:17.845973 12936 net.cpp:94] Creating Layer label_intercept_1_split
I0501 12:59:17.845978 12936 net.cpp:435] label_intercept_1_split <- label
I0501 12:59:17.845984 12936 net.cpp:409] label_intercept_1_split -> label_intercept_1_split_0
I0501 12:59:17.845993 12936 net.cpp:409] label_intercept_1_split -> label_intercept_1_split_1
I0501 12:59:17.846037 12936 net.cpp:144] Setting up label_intercept_1_split
I0501 12:59:17.846043 12936 net.cpp:151] Top shape: 20 (20)
I0501 12:59:17.846046 12936 net.cpp:151] Top shape: 20 (20)
I0501 12:59:17.846050 12936 net.cpp:159] Memory required for data: 72240
I0501 12:59:17.846052 12936 layer_factory.hpp:77] Creating layer conv1
I0501 12:59:17.846063 12936 net.cpp:94] Creating Layer conv1
I0501 12:59:17.846066 12936 net.cpp:435] conv1 <- data
I0501 12:59:17.846071 12936 net.cpp:409] conv1 -> conv1
I0501 12:59:17.847630 12936 net.cpp:144] Setting up conv1
I0501 12:59:17.847645 12936 net.cpp:151] Top shape: 20 64 30 30 (1152000)
I0501 12:59:17.847648 12936 net.cpp:159] Memory required for data: 4680240
I0501 12:59:17.847658 12936 layer_factory.hpp:77] Creating layer relu1
I0501 12:59:17.847666 12936 net.cpp:94] Creating Layer relu1
I0501 12:59:17.847669 12936 net.cpp:435] relu1 <- conv1
I0501 12:59:17.847673 12936 net.cpp:396] relu1 -> conv1 (in-place)
I0501 12:59:17.847681 12936 net.cpp:144] Setting up relu1
I0501 12:59:17.847684 12936 net.cpp:151] Top shape: 20 64 30 30 (1152000)
I0501 12:59:17.847687 12936 net.cpp:159] Memory required for data: 9288240
I0501 12:59:17.847690 12936 layer_factory.hpp:77] Creating layer conv2
I0501 12:59:17.847698 12936 net.cpp:94] Creating Layer conv2
I0501 12:59:17.847702 12936 net.cpp:435] conv2 <- conv1
I0501 12:59:17.847705 12936 net.cpp:409] conv2 -> conv2
I0501 12:59:17.855660 12936 net.cpp:144] Setting up conv2
I0501 12:59:17.855713 12936 net.cpp:151] Top shape: 20 64 30 30 (1152000)
I0501 12:59:17.855725 12936 net.cpp:159] Memory required for data: 13896240
I0501 12:59:17.855752 12936 layer_factory.hpp:77] Creating layer relu2
I0501 12:59:17.855772 12936 net.cpp:94] Creating Layer relu2
I0501 12:59:17.855782 12936 net.cpp:435] relu2 <- conv2
I0501 12:59:17.855794 12936 net.cpp:396] relu2 -> conv2 (in-place)
I0501 12:59:17.855815 12936 net.cpp:144] Setting up relu2
I0501 12:59:17.855828 12936 net.cpp:151] Top shape: 20 64 30 30 (1152000)
I0501 12:59:17.855845 12936 net.cpp:159] Memory required for data: 18504240
I0501 12:59:17.855847 12936 layer_factory.hpp:77] Creating layer pool2
I0501 12:59:17.855854 12936 net.cpp:94] Creating Layer pool2
I0501 12:59:17.855856 12936 net.cpp:435] pool2 <- conv2
I0501 12:59:17.855862 12936 net.cpp:409] pool2 -> pool2
I0501 12:59:17.855983 12936 net.cpp:144] Setting up pool2
I0501 12:59:17.855989 12936 net.cpp:151] Top shape: 20 64 15 15 (288000)
I0501 12:59:17.855993 12936 net.cpp:159] Memory required for data: 19656240
I0501 12:59:17.855995 12936 layer_factory.hpp:77] Creating layer conv3
I0501 12:59:17.856006 12936 net.cpp:94] Creating Layer conv3
I0501 12:59:17.856009 12936 net.cpp:435] conv3 <- pool2
I0501 12:59:17.856015 12936 net.cpp:409] conv3 -> conv3
I0501 12:59:17.861356 12936 net.cpp:144] Setting up conv3
I0501 12:59:17.861383 12936 net.cpp:151] Top shape: 20 64 15 15 (288000)
I0501 12:59:17.861387 12936 net.cpp:159] Memory required for data: 20808240
I0501 12:59:17.861399 12936 layer_factory.hpp:77] Creating layer relu3
I0501 12:59:17.861410 12936 net.cpp:94] Creating Layer relu3
I0501 12:59:17.861415 12936 net.cpp:435] relu3 <- conv3
I0501 12:59:17.861421 12936 net.cpp:396] relu3 -> conv3 (in-place)
I0501 12:59:17.861431 12936 net.cpp:144] Setting up relu3
I0501 12:59:17.861436 12936 net.cpp:151] Top shape: 20 64 15 15 (288000)
I0501 12:59:17.861438 12936 net.cpp:159] Memory required for data: 21960240
I0501 12:59:17.861441 12936 layer_factory.hpp:77] Creating layer conv4
I0501 12:59:17.861452 12936 net.cpp:94] Creating Layer conv4
I0501 12:59:17.861455 12936 net.cpp:435] conv4 <- conv3
I0501 12:59:17.861460 12936 net.cpp:409] conv4 -> conv4
I0501 12:59:17.866432 12936 net.cpp:144] Setting up conv4
I0501 12:59:17.866463 12936 net.cpp:151] Top shape: 20 64 15 15 (288000)
I0501 12:59:17.866467 12936 net.cpp:159] Memory required for data: 23112240
I0501 12:59:17.866477 12936 layer_factory.hpp:77] Creating layer relu4
I0501 12:59:17.866487 12936 net.cpp:94] Creating Layer relu4
I0501 12:59:17.866492 12936 net.cpp:435] relu4 <- conv4
I0501 12:59:17.866497 12936 net.cpp:396] relu4 -> conv4 (in-place)
I0501 12:59:17.866505 12936 net.cpp:144] Setting up relu4
I0501 12:59:17.866510 12936 net.cpp:151] Top shape: 20 64 15 15 (288000)
I0501 12:59:17.866513 12936 net.cpp:159] Memory required for data: 24264240
I0501 12:59:17.866515 12936 layer_factory.hpp:77] Creating layer conv5
I0501 12:59:17.866526 12936 net.cpp:94] Creating Layer conv5
I0501 12:59:17.866530 12936 net.cpp:435] conv5 <- conv4
I0501 12:59:17.866535 12936 net.cpp:409] conv5 -> conv5
I0501 12:59:17.871476 12936 net.cpp:144] Setting up conv5
I0501 12:59:17.871507 12936 net.cpp:151] Top shape: 20 64 15 15 (288000)
I0501 12:59:17.871511 12936 net.cpp:159] Memory required for data: 25416240
I0501 12:59:17.871523 12936 layer_factory.hpp:77] Creating layer relu5
I0501 12:59:17.871533 12936 net.cpp:94] Creating Layer relu5
I0501 12:59:17.871537 12936 net.cpp:435] relu5 <- conv5
I0501 12:59:17.871543 12936 net.cpp:396] relu5 -> conv5 (in-place)
I0501 12:59:17.871552 12936 net.cpp:144] Setting up relu5
I0501 12:59:17.871556 12936 net.cpp:151] Top shape: 20 64 15 15 (288000)
I0501 12:59:17.871559 12936 net.cpp:159] Memory required for data: 26568240
I0501 12:59:17.871562 12936 layer_factory.hpp:77] Creating layer pool5
I0501 12:59:17.871568 12936 net.cpp:94] Creating Layer pool5
I0501 12:59:17.871572 12936 net.cpp:435] pool5 <- conv5
I0501 12:59:17.871577 12936 net.cpp:409] pool5 -> pool5
I0501 12:59:17.871639 12936 net.cpp:144] Setting up pool5
I0501 12:59:17.871646 12936 net.cpp:151] Top shape: 20 64 7 7 (62720)
I0501 12:59:17.871649 12936 net.cpp:159] Memory required for data: 26819120
I0501 12:59:17.871652 12936 layer_factory.hpp:77] Creating layer ip1
I0501 12:59:17.871664 12936 net.cpp:94] Creating Layer ip1
I0501 12:59:17.871667 12936 net.cpp:435] ip1 <- pool5
I0501 12:59:17.871672 12936 net.cpp:409] ip1 -> ip1
I0501 12:59:17.877502 12936 net.cpp:144] Setting up ip1
I0501 12:59:17.877537 12936 net.cpp:151] Top shape: 20 64 (1280)
I0501 12:59:17.877540 12936 net.cpp:159] Memory required for data: 26824240
I0501 12:59:17.877549 12936 layer_factory.hpp:77] Creating layer ip2
I0501 12:59:17.877562 12936 net.cpp:94] Creating Layer ip2
I0501 12:59:17.877566 12936 net.cpp:435] ip2 <- ip1
I0501 12:59:17.877573 12936 net.cpp:409] ip2 -> ip2
I0501 12:59:17.877833 12936 net.cpp:144] Setting up ip2
I0501 12:59:17.877841 12936 net.cpp:151] Top shape: 20 64 (1280)
I0501 12:59:17.877845 12936 net.cpp:159] Memory required for data: 26829360
I0501 12:59:17.877849 12936 layer_factory.hpp:77] Creating layer ip3
I0501 12:59:17.877858 12936 net.cpp:94] Creating Layer ip3
I0501 12:59:17.877861 12936 net.cpp:435] ip3 <- ip2
I0501 12:59:17.877866 12936 net.cpp:409] ip3 -> ip3
I0501 12:59:17.878077 12936 net.cpp:144] Setting up ip3
I0501 12:59:17.878084 12936 net.cpp:151] Top shape: 20 50 (1000)
I0501 12:59:17.878087 12936 net.cpp:159] Memory required for data: 26833360
I0501 12:59:17.878092 12936 layer_factory.hpp:77] Creating layer ip3_ip3_0_split
I0501 12:59:17.878098 12936 net.cpp:94] Creating Layer ip3_ip3_0_split
I0501 12:59:17.878101 12936 net.cpp:435] ip3_ip3_0_split <- ip3
I0501 12:59:17.878105 12936 net.cpp:409] ip3_ip3_0_split -> ip3_ip3_0_split_0
I0501 12:59:17.878110 12936 net.cpp:409] ip3_ip3_0_split -> ip3_ip3_0_split_1
I0501 12:59:17.878154 12936 net.cpp:144] Setting up ip3_ip3_0_split
I0501 12:59:17.878160 12936 net.cpp:151] Top shape: 20 50 (1000)
I0501 12:59:17.878163 12936 net.cpp:151] Top shape: 20 50 (1000)
I0501 12:59:17.878166 12936 net.cpp:159] Memory required for data: 26841360
I0501 12:59:17.878170 12936 layer_factory.hpp:77] Creating layer accuracy
I0501 12:59:17.878175 12936 net.cpp:94] Creating Layer accuracy
I0501 12:59:17.878177 12936 net.cpp:435] accuracy <- ip3_ip3_0_split_0
I0501 12:59:17.878181 12936 net.cpp:435] accuracy <- label_intercept_1_split_0
I0501 12:59:17.878186 12936 net.cpp:409] accuracy -> accuracy
…
