…
I0507 18:13:50.816102  5812 net.cpp:323] The NetState phase (0) differed from the phase (1) specified by a rule in layer intercept
I0507 18:13:50.816118  5812 net.cpp:323] The NetState phase (0) differed from the phase (1) specified by a rule in layer loss
I0507 18:13:50.816198  5812 net.cpp:52] Initializing net from parameters: 
state {
  phase: TRAIN
}
layer {
  name: "parameters"
  type: "HDF5Data"
  top: "data"
  top: "label"
  include {
    phase: TRAIN
  }
  hdf5_data_param {
    source: "/home/purduethu/scratch/radon/d/deng106/CNNStatisticalModel/distributions/input/5_distributions_400_sample_size_train-parameters-path.txt"
    batch_size: 20
  }
}
layer {
  name: "conv1"
  type: "Convolution"
  bottom: "data"
  top: "conv1"
  param {
    lr_mult: 1
  }
  param {
    lr_mult: 2
  }
  convolution_param {
    num_output: 64
    pad: 2
    kernel_size: 5
    stride: 1
    weight_filler {
      type: "gaussian"
      std: 0.0001
    }
    bias_filler {
      type: "constant"
    }
  }
}
layer {
  name: "relu1"
  type: "ReLU"
  bottom: "conv1"
  top: "conv1"
}
layer {
  name: "conv2"
  type: "Convolution"
  bottom: "conv1"
  top: "conv2"
  param {
    lr_mult: 1
  }
  param {
    lr_mult: 2
  }
  convolution_param {
    num_output: 64
    pad: 2
    kernel_size: 5
    stride: 1
    weight_filler {
      type: "gaussian"
      std: 0.01
    }
    bias_filler {
      type: "constant"
    }
  }
}
layer {
  name: "relu2"
  type: "ReLU"
  bottom: "conv2"
  top: "conv2"
}
layer {
  name: "pool2"
  type: "Pooling"
  bottom: "conv2"
  top: "pool2"
  pooling_param {
    pool: MAX
    kernel_size: 3
    stride: 2
  }
}
layer {
  name: "conv3"
  type: "Convolution"
  bottom: "pool2"
  top: "conv3"
  param {
    lr_mult: 1
  }
  param {
    lr_mult: 2
  }
  convolution_param {
    num_output: 64
    pad: 2
    kernel_size: 5
    stride: 1
    weight_filler {
      type: "gaussian"
      std: 0.01
    }
    bias_filler {
      type: "constant"
    }
  }
}
layer {
  name: "relu3"
  type: "ReLU"
  bottom: "conv3"
  top: "conv3"
}
layer {
  name: "conv4"
  type: "Convolution"
  bottom: "conv3"
  top: "conv4"
  param {
    lr_mult: 1
  }
  param {
    lr_mult: 2
  }
  convolution_param {
    num_output: 64
    pad: 2
    kernel_size: 5
    stride: 1
    weight_filler {
      type: "gaussian"
      std: 0.01
    }
    bias_filler {
      type: "constant"
    }
  }
}
layer {
  name: "relu4"
  type: "ReLU"
  bottom: "conv4"
  top: "conv4"
}
layer {
  name: "conv5"
  type: "Convolution"
  bottom: "conv4"
  top: "conv5"
  param {
    lr_mult: 1
  }
  param {
    lr_mult: 2
  }
  convolution_param {
    num_output: 64
    pad: 2
    kernel_size: 5
    stride: 1
    weight_filler {
      type: "gaussian"
      std: 0.01
    }
    bias_filler {
      type: "constant"
    }
  }
}
layer {
  name: "relu5"
  type: "ReLU"
  bottom: "conv5"
  top: "conv5"
}
layer {
  name: "pool5"
  type: "Pooling"
  bottom: "conv5"
  top: "pool5"
  pooling_param {
    pool: AVE
    kernel_size: 3
    stride: 2
  }
}
layer {
  name: "ip1"
  type: "InnerProduct"
  bottom: "pool5"
  top: "ip1"
  param {
    lr_mult: 1
  }
  param {
    lr_mult: 2
  }
  inner_product_param {
    num_output: 64
    weight_filler {
      type: "gaussian"
      std: 0.1
    }
    bias_filler {
      type: "constant"
    }
  }
}
layer {
  name: "ip2"
  type: "InnerProduct"
  bottom: "ip1"
  top: "ip2"
  param {
    lr_mult: 1
  }
  param {
    lr_mult: 2
  }
  inner_product_param {
    num_output: 64
    weight_filler {
      type: "gaussian"
      std: 0.1
    }
    bias_filler {
      type: "constant"
    }
  }
}
layer {
  name: "ip3"
  type: "InnerProduct"
  bottom: "ip2"
  top: "ip3"
  param {
    lr_mult: 1
  }
  param {
    lr_mult: 2
  }
  inner_product_param {
    num_output: 1
    weight_filler {
      type: "gaussian"
      std: 0.1
    }
    bias_filler {
      type: "constant"
    }
  }
}
layer {
  name: "loss"
  type: "HuberLoss"
  bottom: "ip3"
  bottom: "label"
  top: "loss"
  include {
    phase: TRAIN
  }
}
I0507 18:13:50.816252  5812 layer_factory.hpp:77] Creating layer parameters
I0507 18:13:50.816264  5812 net.cpp:94] Creating Layer parameters
I0507 18:13:50.816269  5812 net.cpp:409] parameters -> data
I0507 18:13:50.816277  5812 net.cpp:409] parameters -> label
I0507 18:13:50.816283  5812 hdf5_data_layer.cpp:79] Loading list of HDF5 filenames from: /home/purduethu/scratch/radon/d/deng106/CNNStatisticalModel/distributions/input/5_distributions_400_sample_size_train-parameters-path.txt
I0507 18:13:50.816298  5812 hdf5_data_layer.cpp:93] Number of HDF5 files: 1
I0507 18:13:50.816884  5812 hdf5.cpp:32] Datatype class: H5T_FLOAT
I0507 18:13:50.879523  5812 net.cpp:144] Setting up parameters
I0507 18:13:50.879554  5812 net.cpp:151] Top shape: 20 1 20 20 (8000)
I0507 18:13:50.879559  5812 net.cpp:151] Top shape: 20 (20)
I0507 18:13:50.879562  5812 net.cpp:159] Memory required for data: 32080
I0507 18:13:50.879568  5812 layer_factory.hpp:77] Creating layer conv1
I0507 18:13:50.879590  5812 net.cpp:94] Creating Layer conv1
I0507 18:13:50.879593  5812 net.cpp:435] conv1 <- data
I0507 18:13:50.879600  5812 net.cpp:409] conv1 -> conv1
I0507 18:13:50.884837  5812 net.cpp:144] Setting up conv1
I0507 18:13:50.884856  5812 net.cpp:151] Top shape: 20 64 20 20 (512000)
I0507 18:13:50.884860  5812 net.cpp:159] Memory required for data: 2080080
I0507 18:13:50.884871  5812 layer_factory.hpp:77] Creating layer relu1
I0507 18:13:50.884879  5812 net.cpp:94] Creating Layer relu1
I0507 18:13:50.884883  5812 net.cpp:435] relu1 <- conv1
I0507 18:13:50.884887  5812 net.cpp:396] relu1 -> conv1 (in-place)
I0507 18:13:50.884902  5812 net.cpp:144] Setting up relu1
I0507 18:13:50.884907  5812 net.cpp:151] Top shape: 20 64 20 20 (512000)
I0507 18:13:50.884909  5812 net.cpp:159] Memory required for data: 4128080
I0507 18:13:50.884912  5812 layer_factory.hpp:77] Creating layer conv2
I0507 18:13:50.884920  5812 net.cpp:94] Creating Layer conv2
I0507 18:13:50.884923  5812 net.cpp:435] conv2 <- conv1
I0507 18:13:50.884927  5812 net.cpp:409] conv2 -> conv2
I0507 18:13:50.895594  5812 net.cpp:144] Setting up conv2
I0507 18:13:50.895609  5812 net.cpp:151] Top shape: 20 64 20 20 (512000)
I0507 18:13:50.895613  5812 net.cpp:159] Memory required for data: 6176080
I0507 18:13:50.895622  5812 layer_factory.hpp:77] Creating layer relu2
I0507 18:13:50.895628  5812 net.cpp:94] Creating Layer relu2
I0507 18:13:50.895632  5812 net.cpp:435] relu2 <- conv2
I0507 18:13:50.895637  5812 net.cpp:396] relu2 -> conv2 (in-place)
I0507 18:13:50.895642  5812 net.cpp:144] Setting up relu2
I0507 18:13:50.895647  5812 net.cpp:151] Top shape: 20 64 20 20 (512000)
I0507 18:13:50.895649  5812 net.cpp:159] Memory required for data: 8224080
I0507 18:13:50.895653  5812 layer_factory.hpp:77] Creating layer pool2
I0507 18:13:50.895664  5812 net.cpp:94] Creating Layer pool2
I0507 18:13:50.895668  5812 net.cpp:435] pool2 <- conv2
I0507 18:13:50.895671  5812 net.cpp:409] pool2 -> pool2
I0507 18:13:50.895722  5812 net.cpp:144] Setting up pool2
I0507 18:13:50.895730  5812 net.cpp:151] Top shape: 20 64 10 10 (128000)
I0507 18:13:50.895733  5812 net.cpp:159] Memory required for data: 8736080
I0507 18:13:50.895736  5812 layer_factory.hpp:77] Creating layer conv3
I0507 18:13:50.895743  5812 net.cpp:94] Creating Layer conv3
I0507 18:13:50.895747  5812 net.cpp:435] conv3 <- pool2
I0507 18:13:50.895751  5812 net.cpp:409] conv3 -> conv3
I0507 18:13:50.901059  5812 net.cpp:144] Setting up conv3
I0507 18:13:50.901073  5812 net.cpp:151] Top shape: 20 64 10 10 (128000)
I0507 18:13:50.901077  5812 net.cpp:159] Memory required for data: 9248080
I0507 18:13:50.901084  5812 layer_factory.hpp:77] Creating layer relu3
I0507 18:13:50.901090  5812 net.cpp:94] Creating Layer relu3
I0507 18:13:50.901093  5812 net.cpp:435] relu3 <- conv3
I0507 18:13:50.901098  5812 net.cpp:396] relu3 -> conv3 (in-place)
I0507 18:13:50.901104  5812 net.cpp:144] Setting up relu3
I0507 18:13:50.901108  5812 net.cpp:151] Top shape: 20 64 10 10 (128000)
I0507 18:13:50.901111  5812 net.cpp:159] Memory required for data: 9760080
I0507 18:13:50.901114  5812 layer_factory.hpp:77] Creating layer conv4
I0507 18:13:50.901123  5812 net.cpp:94] Creating Layer conv4
I0507 18:13:50.901125  5812 net.cpp:435] conv4 <- conv3
I0507 18:13:50.901130  5812 net.cpp:409] conv4 -> conv4
I0507 18:13:50.906373  5812 net.cpp:144] Setting up conv4
I0507 18:13:50.906385  5812 net.cpp:151] Top shape: 20 64 10 10 (128000)
I0507 18:13:50.906389  5812 net.cpp:159] Memory required for data: 10272080
I0507 18:13:50.906395  5812 layer_factory.hpp:77] Creating layer relu4
I0507 18:13:50.906401  5812 net.cpp:94] Creating Layer relu4
I0507 18:13:50.906404  5812 net.cpp:435] relu4 <- conv4
I0507 18:13:50.906409  5812 net.cpp:396] relu4 -> conv4 (in-place)
I0507 18:13:50.906415  5812 net.cpp:144] Setting up relu4
I0507 18:13:50.906419  5812 net.cpp:151] Top shape: 20 64 10 10 (128000)
I0507 18:13:50.906422  5812 net.cpp:159] Memory required for data: 10784080
I0507 18:13:50.906425  5812 layer_factory.hpp:77] Creating layer conv5
I0507 18:13:50.906432  5812 net.cpp:94] Creating Layer conv5
I0507 18:13:50.906435  5812 net.cpp:435] conv5 <- conv4
I0507 18:13:50.906440  5812 net.cpp:409] conv5 -> conv5
I0507 18:13:50.911692  5812 net.cpp:144] Setting up conv5
I0507 18:13:50.911706  5812 net.cpp:151] Top shape: 20 64 10 10 (128000)
I0507 18:13:50.911710  5812 net.cpp:159] Memory required for data: 11296080
I0507 18:13:50.911717  5812 layer_factory.hpp:77] Creating layer relu5
I0507 18:13:50.911723  5812 net.cpp:94] Creating Layer relu5
I0507 18:13:50.911726  5812 net.cpp:435] relu5 <- conv5
I0507 18:13:50.911731  5812 net.cpp:396] relu5 -> conv5 (in-place)
I0507 18:13:50.911738  5812 net.cpp:144] Setting up relu5
I0507 18:13:50.911742  5812 net.cpp:151] Top shape: 20 64 10 10 (128000)
I0507 18:13:50.911744  5812 net.cpp:159] Memory required for data: 11808080
I0507 18:13:50.911747  5812 layer_factory.hpp:77] Creating layer pool5
I0507 18:13:50.911752  5812 net.cpp:94] Creating Layer pool5
I0507 18:13:50.911756  5812 net.cpp:435] pool5 <- conv5
I0507 18:13:50.911761  5812 net.cpp:409] pool5 -> pool5
I0507 18:13:50.911798  5812 net.cpp:144] Setting up pool5
I0507 18:13:50.911804  5812 net.cpp:151] Top shape: 20 64 5 5 (32000)
I0507 18:13:50.911806  5812 net.cpp:159] Memory required for data: 11936080
I0507 18:13:50.911809  5812 layer_factory.hpp:77] Creating layer ip1
I0507 18:13:50.911819  5812 net.cpp:94] Creating Layer ip1
I0507 18:13:50.911823  5812 net.cpp:435] ip1 <- pool5
I0507 18:13:50.911828  5812 net.cpp:409] ip1 -> ip1
I0507 18:13:50.914369  5812 net.cpp:144] Setting up ip1
I0507 18:13:50.914378  5812 net.cpp:151] Top shape: 20 64 (1280)
I0507 18:13:50.914381  5812 net.cpp:159] Memory required for data: 11941200
I0507 18:13:50.914386  5812 layer_factory.hpp:77] Creating layer ip2
I0507 18:13:50.914393  5812 net.cpp:94] Creating Layer ip2
I0507 18:13:50.914400  5812 net.cpp:435] ip2 <- ip1
I0507 18:13:50.914405  5812 net.cpp:409] ip2 -> ip2
I0507 18:13:50.914615  5812 net.cpp:144] Setting up ip2
I0507 18:13:50.914623  5812 net.cpp:151] Top shape: 20 64 (1280)
I0507 18:13:50.914624  5812 net.cpp:159] Memory required for data: 11946320
I0507 18:13:50.914629  5812 layer_factory.hpp:77] Creating layer ip3
I0507 18:13:50.914635  5812 net.cpp:94] Creating Layer ip3
I0507 18:13:50.914638  5812 net.cpp:435] ip3 <- ip2
I0507 18:13:50.914644  5812 net.cpp:409] ip3 -> ip3
I0507 18:13:50.914744  5812 net.cpp:144] Setting up ip3
I0507 18:13:50.914750  5812 net.cpp:151] Top shape: 20 1 (20)
I0507 18:13:50.914753  5812 net.cpp:159] Memory required for data: 11946400
I0507 18:13:50.914757  5812 layer_factory.hpp:77] Creating layer loss
I0507 18:13:50.914765  5812 net.cpp:94] Creating Layer loss
I0507 18:13:50.914768  5812 net.cpp:435] loss <- ip3
I0507 18:13:50.914772  5812 net.cpp:435] loss <- label
I0507 18:13:50.914777  5812 net.cpp:409] loss -> loss
I0507 18:13:50.914829  5812 net.cpp:144] Setting up loss
…
I0507 18:13:50.955323  5812 net.cpp:323] The NetState phase (0) differed from the phase (1) specified by a rule in layer intercept
I0507 18:13:50.955341  5812 net.cpp:323] The NetState phase (0) differed from the phase (1) specified by a rule in layer accuracy
I0507 18:13:50.955430  5812 net.cpp:52] Initializing net from parameters: 
state {
  phase: TRAIN
}
layer {
  name: "parameters"
  type: "HDF5Data"
  top: "data"
  top: "label"
  include {
    phase: TRAIN
  }
  hdf5_data_param {
    source: "/home/purduethu/scratch/radon/d/deng106/CNNStatisticalModel/distributions/input/5_distributions_400_sample_size_train-distributions-path.txt"
    batch_size: 20
  }
}
layer {
  name: "conv1"
  type: "Convolution"
  bottom: "data"
  top: "conv1"
  param {
    lr_mult: 1
  }
  param {
    lr_mult: 2
  }
  convolution_param {
    num_output: 64
    pad: 2
    kernel_size: 5
    stride: 1
    weight_filler {
      type: "gaussian"
      std: 0.0001
    }
    bias_filler {
      type: "constant"
    }
  }
}
layer {
  name: "relu1"
  type: "ReLU"
  bottom: "conv1"
  top: "conv1"
}
layer {
  name: "conv2"
  type: "Convolution"
  bottom: "conv1"
  top: "conv2"
  param {
    lr_mult: 1
  }
  param {
    lr_mult: 2
  }
  convolution_param {
    num_output: 64
    pad: 2
    kernel_size: 5
    stride: 1
    weight_filler {
      type: "gaussian"
      std: 0.01
    }
    bias_filler {
      type: "constant"
    }
  }
}
layer {
  name: "relu2"
  type: "ReLU"
  bottom: "conv2"
  top: "conv2"
}
layer {
  name: "pool2"
  type: "Pooling"
  bottom: "conv2"
  top: "pool2"
  pooling_param {
    pool: MAX
    kernel_size: 3
    stride: 2
  }
}
layer {
  name: "conv3"
  type: "Convolution"
  bottom: "pool2"
  top: "conv3"
  param {
    lr_mult: 1
  }
  param {
    lr_mult: 2
  }
  convolution_param {
    num_output: 64
    pad: 2
    kernel_size: 5
    stride: 1
    weight_filler {
      type: "gaussian"
      std: 0.01
    }
    bias_filler {
      type: "constant"
    }
  }
}
layer {
  name: "relu3"
  type: "ReLU"
  bottom: "conv3"
  top: "conv3"
}
layer {
  name: "conv4"
  type: "Convolution"
  bottom: "conv3"
  top: "conv4"
  param {
    lr_mult: 1
  }
  param {
    lr_mult: 2
  }
  convolution_param {
    num_output: 64
    pad: 2
    kernel_size: 5
    stride: 1
    weight_filler {
      type: "gaussian"
      std: 0.01
    }
    bias_filler {
      type: "constant"
    }
  }
}
layer {
  name: "relu4"
  type: "ReLU"
  bottom: "conv4"
  top: "conv4"
}
layer {
  name: "conv5"
  type: "Convolution"
  bottom: "conv4"
  top: "conv5"
  param {
    lr_mult: 1
  }
  param {
    lr_mult: 2
  }
  convolution_param {
    num_output: 64
    pad: 2
    kernel_size: 5
    stride: 1
    weight_filler {
      type: "gaussian"
      std: 0.01
    }
    bias_filler {
      type: "constant"
    }
  }
}
layer {
  name: "relu5"
  type: "ReLU"
  bottom: "conv5"
  top: "conv5"
}
layer {
  name: "pool5"
  type: "Pooling"
  bottom: "conv5"
  top: "pool5"
  pooling_param {
    pool: AVE
    kernel_size: 3
    stride: 2
  }
}
layer {
  name: "ip1"
  type: "InnerProduct"
  bottom: "pool5"
  top: "ip1"
  param {
    lr_mult: 1
  }
  param {
    lr_mult: 2
  }
  inner_product_param {
    num_output: 64
    weight_filler {
      type: "gaussian"
      std: 0.1
    }
    bias_filler {
      type: "constant"
    }
  }
}
layer {
  name: "ip2"
  type: "InnerProduct"
  bottom: "ip1"
  top: "ip2"
  param {
    lr_mult: 1
  }
  param {
    lr_mult: 2
  }
  inner_product_param {
    num_output: 64
    weight_filler {
      type: "gaussian"
      std: 0.1
    }
    bias_filler {
      type: "constant"
    }
  }
}
layer {
  name: "ip3"
  type: "InnerProduct"
  bottom: "ip2"
  top: "ip3"
  param {
    lr_mult: 1
  }
  param {
    lr_mult: 2
  }
  inner_product_param {
    num_output: 50
    weight_filler {
      type: "gaussian"
      std: 0.1
    }
    bias_filler {
      type: "constant"
    }
  }
}
layer {
  name: "loss"
  type: "SoftmaxWithLoss"
  bottom: "ip3"
  bottom: "label"
  top: "loss"
}
I0507 18:13:50.955482  5812 layer_factory.hpp:77] Creating layer parameters
I0507 18:13:50.955489  5812 net.cpp:94] Creating Layer parameters
I0507 18:13:50.955493  5812 net.cpp:409] parameters -> data
I0507 18:13:50.955500  5812 net.cpp:409] parameters -> label
I0507 18:13:50.955505  5812 hdf5_data_layer.cpp:79] Loading list of HDF5 filenames from: /home/purduethu/scratch/radon/d/deng106/CNNStatisticalModel/distributions/input/5_distributions_400_sample_size_train-distributions-path.txt
I0507 18:13:50.955521  5812 hdf5_data_layer.cpp:93] Number of HDF5 files: 1
I0507 18:13:51.016762  5812 hdf5.cpp:35] Datatype class: H5T_INTEGER
I0507 18:13:51.017196  5812 net.cpp:144] Setting up parameters
I0507 18:13:51.017210  5812 net.cpp:151] Top shape: 20 1 20 20 (8000)
I0507 18:13:51.017215  5812 net.cpp:151] Top shape: 20 (20)
I0507 18:13:51.017218  5812 net.cpp:159] Memory required for data: 32080
I0507 18:13:51.017225  5812 layer_factory.hpp:77] Creating layer conv1
I0507 18:13:51.017241  5812 net.cpp:94] Creating Layer conv1
I0507 18:13:51.017244  5812 net.cpp:435] conv1 <- data
I0507 18:13:51.017251  5812 net.cpp:409] conv1 -> conv1
I0507 18:13:51.020035  5812 net.cpp:144] Setting up conv1
I0507 18:13:51.020048  5812 net.cpp:151] Top shape: 20 64 20 20 (512000)
I0507 18:13:51.020052  5812 net.cpp:159] Memory required for data: 2080080
I0507 18:13:51.020062  5812 layer_factory.hpp:77] Creating layer relu1
I0507 18:13:51.020069  5812 net.cpp:94] Creating Layer relu1
I0507 18:13:51.020072  5812 net.cpp:435] relu1 <- conv1
I0507 18:13:51.020076  5812 net.cpp:396] relu1 -> conv1 (in-place)
I0507 18:13:51.020084  5812 net.cpp:144] Setting up relu1
I0507 18:13:51.020088  5812 net.cpp:151] Top shape: 20 64 20 20 (512000)
I0507 18:13:51.020090  5812 net.cpp:159] Memory required for data: 4128080
I0507 18:13:51.020093  5812 layer_factory.hpp:77] Creating layer conv2
I0507 18:13:51.020102  5812 net.cpp:94] Creating Layer conv2
I0507 18:13:51.020104  5812 net.cpp:435] conv2 <- conv1
I0507 18:13:51.020108  5812 net.cpp:409] conv2 -> conv2
I0507 18:13:51.030313  5812 net.cpp:144] Setting up conv2
I0507 18:13:51.030328  5812 net.cpp:151] Top shape: 20 64 20 20 (512000)
I0507 18:13:51.030333  5812 net.cpp:159] Memory required for data: 6176080
I0507 18:13:51.030340  5812 layer_factory.hpp:77] Creating layer relu2
I0507 18:13:51.030347  5812 net.cpp:94] Creating Layer relu2
I0507 18:13:51.030350  5812 net.cpp:435] relu2 <- conv2
I0507 18:13:51.030355  5812 net.cpp:396] relu2 -> conv2 (in-place)
I0507 18:13:51.030361  5812 net.cpp:144] Setting up relu2
I0507 18:13:51.030365  5812 net.cpp:151] Top shape: 20 64 20 20 (512000)
I0507 18:13:51.030369  5812 net.cpp:159] Memory required for data: 8224080
I0507 18:13:51.030371  5812 layer_factory.hpp:77] Creating layer pool2
I0507 18:13:51.030377  5812 net.cpp:94] Creating Layer pool2
I0507 18:13:51.030380  5812 net.cpp:435] pool2 <- conv2
I0507 18:13:51.030385  5812 net.cpp:409] pool2 -> pool2
I0507 18:13:51.030436  5812 net.cpp:144] Setting up pool2
I0507 18:13:51.030442  5812 net.cpp:151] Top shape: 20 64 10 10 (128000)
I0507 18:13:51.030445  5812 net.cpp:159] Memory required for data: 8736080
I0507 18:13:51.030448  5812 layer_factory.hpp:77] Creating layer conv3
I0507 18:13:51.030455  5812 net.cpp:94] Creating Layer conv3
I0507 18:13:51.030458  5812 net.cpp:435] conv3 <- pool2
I0507 18:13:51.030463  5812 net.cpp:409] conv3 -> conv3
I0507 18:13:51.035769  5812 net.cpp:144] Setting up conv3
I0507 18:13:51.035784  5812 net.cpp:151] Top shape: 20 64 10 10 (128000)
I0507 18:13:51.035787  5812 net.cpp:159] Memory required for data: 9248080
I0507 18:13:51.035795  5812 layer_factory.hpp:77] Creating layer relu3
I0507 18:13:51.035801  5812 net.cpp:94] Creating Layer relu3
I0507 18:13:51.035804  5812 net.cpp:435] relu3 <- conv3
I0507 18:13:51.035809  5812 net.cpp:396] relu3 -> conv3 (in-place)
I0507 18:13:51.035815  5812 net.cpp:144] Setting up relu3
I0507 18:13:51.035820  5812 net.cpp:151] Top shape: 20 64 10 10 (128000)
I0507 18:13:51.035822  5812 net.cpp:159] Memory required for data: 9760080
I0507 18:13:51.035825  5812 layer_factory.hpp:77] Creating layer conv4
I0507 18:13:51.035833  5812 net.cpp:94] Creating Layer conv4
I0507 18:13:51.035836  5812 net.cpp:435] conv4 <- conv3
I0507 18:13:51.035840  5812 net.cpp:409] conv4 -> conv4
I0507 18:13:51.041138  5812 net.cpp:144] Setting up conv4
I0507 18:13:51.041152  5812 net.cpp:151] Top shape: 20 64 10 10 (128000)
I0507 18:13:51.041155  5812 net.cpp:159] Memory required for data: 10272080
I0507 18:13:51.041162  5812 layer_factory.hpp:77] Creating layer relu4
I0507 18:13:51.041167  5812 net.cpp:94] Creating Layer relu4
I0507 18:13:51.041170  5812 net.cpp:435] relu4 <- conv4
I0507 18:13:51.041174  5812 net.cpp:396] relu4 -> conv4 (in-place)
I0507 18:13:51.041182  5812 net.cpp:144] Setting up relu4
I0507 18:13:51.041185  5812 net.cpp:151] Top shape: 20 64 10 10 (128000)
I0507 18:13:51.041188  5812 net.cpp:159] Memory required for data: 10784080
I0507 18:13:51.041191  5812 layer_factory.hpp:77] Creating layer conv5
I0507 18:13:51.041198  5812 net.cpp:94] Creating Layer conv5
I0507 18:13:51.041201  5812 net.cpp:435] conv5 <- conv4
I0507 18:13:51.041206  5812 net.cpp:409] conv5 -> conv5
I0507 18:13:51.046486  5812 net.cpp:144] Setting up conv5
I0507 18:13:51.046500  5812 net.cpp:151] Top shape: 20 64 10 10 (128000)
I0507 18:13:51.046504  5812 net.cpp:159] Memory required for data: 11296080
I0507 18:13:51.046511  5812 layer_factory.hpp:77] Creating layer relu5
I0507 18:13:51.046517  5812 net.cpp:94] Creating Layer relu5
I0507 18:13:51.046520  5812 net.cpp:435] relu5 <- conv5
I0507 18:13:51.046525  5812 net.cpp:396] relu5 -> conv5 (in-place)
I0507 18:13:51.046531  5812 net.cpp:144] Setting up relu5
I0507 18:13:51.046535  5812 net.cpp:151] Top shape: 20 64 10 10 (128000)
I0507 18:13:51.046538  5812 net.cpp:159] Memory required for data: 11808080
I0507 18:13:51.046541  5812 layer_factory.hpp:77] Creating layer pool5
I0507 18:13:51.046546  5812 net.cpp:94] Creating Layer pool5
I0507 18:13:51.046550  5812 net.cpp:435] pool5 <- conv5
I0507 18:13:51.046553  5812 net.cpp:409] pool5 -> pool5
I0507 18:13:51.046587  5812 net.cpp:144] Setting up pool5
I0507 18:13:51.046594  5812 net.cpp:151] Top shape: 20 64 5 5 (32000)
I0507 18:13:51.046597  5812 net.cpp:159] Memory required for data: 11936080
I0507 18:13:51.046599  5812 layer_factory.hpp:77] Creating layer ip1
I0507 18:13:51.046605  5812 net.cpp:94] Creating Layer ip1
I0507 18:13:51.046608  5812 net.cpp:435] ip1 <- pool5
I0507 18:13:51.046613  5812 net.cpp:409] ip1 -> ip1
I0507 18:13:51.049165  5812 net.cpp:144] Setting up ip1
I0507 18:13:51.049173  5812 net.cpp:151] Top shape: 20 64 (1280)
I0507 18:13:51.049177  5812 net.cpp:159] Memory required for data: 11941200
I0507 18:13:51.049182  5812 layer_factory.hpp:77] Creating layer ip2
I0507 18:13:51.049187  5812 net.cpp:94] Creating Layer ip2
I0507 18:13:51.049191  5812 net.cpp:435] ip2 <- ip1
I0507 18:13:51.049196  5812 net.cpp:409] ip2 -> ip2
I0507 18:13:51.049417  5812 net.cpp:144] Setting up ip2
I0507 18:13:51.049424  5812 net.cpp:151] Top shape: 20 64 (1280)
I0507 18:13:51.049427  5812 net.cpp:159] Memory required for data: 11946320
I0507 18:13:51.049432  5812 layer_factory.hpp:77] Creating layer ip3
I0507 18:13:51.049437  5812 net.cpp:94] Creating Layer ip3
I0507 18:13:51.049440  5812 net.cpp:435] ip3 <- ip2
I0507 18:13:51.049444  5812 net.cpp:409] ip3 -> ip3
I0507 18:13:51.049638  5812 net.cpp:144] Setting up ip3
I0507 18:13:51.049649  5812 net.cpp:151] Top shape: 20 50 (1000)
I0507 18:13:51.049651  5812 net.cpp:159] Memory required for data: 11950320
I0507 18:13:51.049656  5812 layer_factory.hpp:77] Creating layer loss
I0507 18:13:51.049664  5812 net.cpp:94] Creating Layer loss
I0507 18:13:51.049666  5812 net.cpp:435] loss <- ip3
I0507 18:13:51.049670  5812 net.cpp:435] loss <- label
I0507 18:13:51.049674  5812 net.cpp:409] loss -> loss
I0507 18:13:51.049680  5812 layer_factory.hpp:77] Creating layer loss
…
I0507 18:13:51.050186  5812 solver.cpp:181] Creating test net (#0) specified by net file: ./protocol/dis_5_400_dimension.protocol_distribution
I0507 18:13:51.050212  5812 net.cpp:323] The NetState phase (1) differed from the phase (0) specified by a rule in layer parameters
I0507 18:13:51.050314  5812 net.cpp:52] Initializing net from parameters: 
state {
  phase: TEST
}
layer {
  name: "intercept"
  type: "HDF5Data"
  top: "data"
  top: "label"
  include {
    phase: TEST
  }
  hdf5_data_param {
    source: "/home/purduethu/scratch/radon/d/deng106/CNNStatisticalModel/distributions/input/5_distributions_400_sample_size_test-distributions-path.txt"
    batch_size: 20
  }
}
layer {
  name: "conv1"
  type: "Convolution"
  bottom: "data"
  top: "conv1"
  param {
    lr_mult: 1
  }
  param {
    lr_mult: 2
  }
  convolution_param {
    num_output: 64
    pad: 2
    kernel_size: 5
    stride: 1
    weight_filler {
      type: "gaussian"
      std: 0.0001
    }
    bias_filler {
      type: "constant"
    }
  }
}
layer {
  name: "relu1"
  type: "ReLU"
  bottom: "conv1"
  top: "conv1"
}
layer {
  name: "conv2"
  type: "Convolution"
  bottom: "conv1"
  top: "conv2"
  param {
    lr_mult: 1
  }
  param {
    lr_mult: 2
  }
  convolution_param {
    num_output: 64
    pad: 2
    kernel_size: 5
    stride: 1
    weight_filler {
      type: "gaussian"
      std: 0.01
    }
    bias_filler {
      type: "constant"
    }
  }
}
layer {
  name: "relu2"
  type: "ReLU"
  bottom: "conv2"
  top: "conv2"
}
layer {
  name: "pool2"
  type: "Pooling"
  bottom: "conv2"
  top: "pool2"
  pooling_param {
    pool: MAX
    kernel_size: 3
    stride: 2
  }
}
layer {
  name: "conv3"
  type: "Convolution"
  bottom: "pool2"
  top: "conv3"
  param {
    lr_mult: 1
  }
  param {
    lr_mult: 2
  }
  convolution_param {
    num_output: 64
    pad: 2
    kernel_size: 5
    stride: 1
    weight_filler {
      type: "gaussian"
      std: 0.01
    }
    bias_filler {
      type: "constant"
    }
  }
}
layer {
  name: "relu3"
  type: "ReLU"
  bottom: "conv3"
  top: "conv3"
}
layer {
  name: "conv4"
  type: "Convolution"
  bottom: "conv3"
  top: "conv4"
  param {
    lr_mult: 1
  }
  param {
    lr_mult: 2
  }
  convolution_param {
    num_output: 64
    pad: 2
    kernel_size: 5
    stride: 1
    weight_filler {
      type: "gaussian"
      std: 0.01
    }
    bias_filler {
      type: "constant"
    }
  }
}
layer {
  name: "relu4"
  type: "ReLU"
  bottom: "conv4"
  top: "conv4"
}
layer {
  name: "conv5"
  type: "Convolution"
  bottom: "conv4"
  top: "conv5"
  param {
    lr_mult: 1
  }
  param {
    lr_mult: 2
  }
  convolution_param {
    num_output: 64
    pad: 2
    kernel_size: 5
    stride: 1
    weight_filler {
      type: "gaussian"
      std: 0.01
    }
    bias_filler {
      type: "constant"
    }
  }
}
layer {
  name: "relu5"
  type: "ReLU"
  bottom: "conv5"
  top: "conv5"
}
layer {
  name: "pool5"
  type: "Pooling"
  bottom: "conv5"
  top: "pool5"
  pooling_param {
    pool: AVE
    kernel_size: 3
    stride: 2
  }
}
layer {
  name: "ip1"
  type: "InnerProduct"
  bottom: "pool5"
  top: "ip1"
  param {
    lr_mult: 1
  }
  param {
    lr_mult: 2
  }
  inner_product_param {
    num_output: 64
    weight_filler {
      type: "gaussian"
      std: 0.1
    }
    bias_filler {
      type: "constant"
    }
  }
}
layer {
  name: "ip2"
  type: "InnerProduct"
  bottom: "ip1"
  top: "ip2"
  param {
    lr_mult: 1
  }
  param {
    lr_mult: 2
  }
  inner_product_param {
    num_output: 64
    weight_filler {
      type: "gaussian"
      std: 0.1
    }
    bias_filler {
      type: "constant"
    }
  }
}
layer {
  name: "ip3"
  type: "InnerProduct"
  bottom: "ip2"
  top: "ip3"
  param {
    lr_mult: 1
  }
  param {
    lr_mult: 2
  }
  inner_product_param {
    num_output: 50
    weight_filler {
      type: "gaussian"
      std: 0.1
    }
    bias_filler {
      type: "constant"
    }
  }
}
layer {
  name: "accuracy"
  type: "Accuracy"
  bottom: "ip3"
  bottom: "label"
  top: "accuracy"
  include {
    phase: TEST
  }
}
layer {
  name: "loss"
  type: "SoftmaxWithLoss"
  bottom: "ip3"
  bottom: "label"
  top: "loss"
}
I0507 18:13:51.050384  5812 layer_factory.hpp:77] Creating layer intercept
I0507 18:13:51.050392  5812 net.cpp:94] Creating Layer intercept
I0507 18:13:51.050396  5812 net.cpp:409] intercept -> data
I0507 18:13:51.050402  5812 net.cpp:409] intercept -> label
I0507 18:13:51.050408  5812 hdf5_data_layer.cpp:79] Loading list of HDF5 filenames from: /home/purduethu/scratch/radon/d/deng106/CNNStatisticalModel/distributions/input/5_distributions_400_sample_size_test-distributions-path.txt
I0507 18:13:51.050427  5812 hdf5_data_layer.cpp:93] Number of HDF5 files: 1
I0507 18:13:51.066462  5812 net.cpp:144] Setting up intercept
I0507 18:13:51.066493  5812 net.cpp:151] Top shape: 20 1 20 20 (8000)
I0507 18:13:51.066498  5812 net.cpp:151] Top shape: 20 (20)
I0507 18:13:51.066503  5812 net.cpp:159] Memory required for data: 32080
I0507 18:13:51.066507  5812 layer_factory.hpp:77] Creating layer label_intercept_1_split
I0507 18:13:51.066526  5812 net.cpp:94] Creating Layer label_intercept_1_split
I0507 18:13:51.066530  5812 net.cpp:435] label_intercept_1_split <- label
I0507 18:13:51.066536  5812 net.cpp:409] label_intercept_1_split -> label_intercept_1_split_0
I0507 18:13:51.066545  5812 net.cpp:409] label_intercept_1_split -> label_intercept_1_split_1
I0507 18:13:51.066582  5812 net.cpp:144] Setting up label_intercept_1_split
I0507 18:13:51.066588  5812 net.cpp:151] Top shape: 20 (20)
I0507 18:13:51.066591  5812 net.cpp:151] Top shape: 20 (20)
I0507 18:13:51.066594  5812 net.cpp:159] Memory required for data: 32240
I0507 18:13:51.066597  5812 layer_factory.hpp:77] Creating layer conv1
I0507 18:13:51.066607  5812 net.cpp:94] Creating Layer conv1
I0507 18:13:51.066611  5812 net.cpp:435] conv1 <- data
I0507 18:13:51.066615  5812 net.cpp:409] conv1 -> conv1
I0507 18:13:51.067910  5812 net.cpp:144] Setting up conv1
I0507 18:13:51.067929  5812 net.cpp:151] Top shape: 20 64 20 20 (512000)
I0507 18:13:51.067934  5812 net.cpp:159] Memory required for data: 2080240
I0507 18:13:51.067942  5812 layer_factory.hpp:77] Creating layer relu1
I0507 18:13:51.067950  5812 net.cpp:94] Creating Layer relu1
I0507 18:13:51.067952  5812 net.cpp:435] relu1 <- conv1
I0507 18:13:51.067956  5812 net.cpp:396] relu1 -> conv1 (in-place)
I0507 18:13:51.067963  5812 net.cpp:144] Setting up relu1
I0507 18:13:51.067967  5812 net.cpp:151] Top shape: 20 64 20 20 (512000)
I0507 18:13:51.067970  5812 net.cpp:159] Memory required for data: 4128240
I0507 18:13:51.067973  5812 layer_factory.hpp:77] Creating layer conv2
I0507 18:13:51.067981  5812 net.cpp:94] Creating Layer conv2
I0507 18:13:51.067984  5812 net.cpp:435] conv2 <- conv1
I0507 18:13:51.067988  5812 net.cpp:409] conv2 -> conv2
I0507 18:13:51.073679  5812 net.cpp:144] Setting up conv2
I0507 18:13:51.073693  5812 net.cpp:151] Top shape: 20 64 20 20 (512000)
I0507 18:13:51.073698  5812 net.cpp:159] Memory required for data: 6176240
I0507 18:13:51.073705  5812 layer_factory.hpp:77] Creating layer relu2
I0507 18:13:51.073711  5812 net.cpp:94] Creating Layer relu2
I0507 18:13:51.073714  5812 net.cpp:435] relu2 <- conv2
I0507 18:13:51.073719  5812 net.cpp:396] relu2 -> conv2 (in-place)
I0507 18:13:51.073725  5812 net.cpp:144] Setting up relu2
I0507 18:13:51.073729  5812 net.cpp:151] Top shape: 20 64 20 20 (512000)
I0507 18:13:51.073732  5812 net.cpp:159] Memory required for data: 8224240
I0507 18:13:51.073735  5812 layer_factory.hpp:77] Creating layer pool2
I0507 18:13:51.073741  5812 net.cpp:94] Creating Layer pool2
I0507 18:13:51.073743  5812 net.cpp:435] pool2 <- conv2
I0507 18:13:51.073747  5812 net.cpp:409] pool2 -> pool2
I0507 18:13:51.073798  5812 net.cpp:144] Setting up pool2
I0507 18:13:51.073806  5812 net.cpp:151] Top shape: 20 64 10 10 (128000)
I0507 18:13:51.073808  5812 net.cpp:159] Memory required for data: 8736240
I0507 18:13:51.073812  5812 layer_factory.hpp:77] Creating layer conv3
I0507 18:13:51.073818  5812 net.cpp:94] Creating Layer conv3
I0507 18:13:51.073822  5812 net.cpp:435] conv3 <- pool2
I0507 18:13:51.073827  5812 net.cpp:409] conv3 -> conv3
I0507 18:13:51.077728  5812 net.cpp:144] Setting up conv3
I0507 18:13:51.077740  5812 net.cpp:151] Top shape: 20 64 10 10 (128000)
I0507 18:13:51.077744  5812 net.cpp:159] Memory required for data: 9248240
I0507 18:13:51.077752  5812 layer_factory.hpp:77] Creating layer relu3
I0507 18:13:51.077759  5812 net.cpp:94] Creating Layer relu3
I0507 18:13:51.077762  5812 net.cpp:435] relu3 <- conv3
I0507 18:13:51.077766  5812 net.cpp:396] relu3 -> conv3 (in-place)
I0507 18:13:51.077772  5812 net.cpp:144] Setting up relu3
I0507 18:13:51.077776  5812 net.cpp:151] Top shape: 20 64 10 10 (128000)
I0507 18:13:51.077780  5812 net.cpp:159] Memory required for data: 9760240
I0507 18:13:51.077782  5812 layer_factory.hpp:77] Creating layer conv4
I0507 18:13:51.077790  5812 net.cpp:94] Creating Layer conv4
I0507 18:13:51.077792  5812 net.cpp:435] conv4 <- conv3
I0507 18:13:51.077796  5812 net.cpp:409] conv4 -> conv4
I0507 18:13:51.081248  5812 net.cpp:144] Setting up conv4
I0507 18:13:51.081261  5812 net.cpp:151] Top shape: 20 64 10 10 (128000)
I0507 18:13:51.081264  5812 net.cpp:159] Memory required for data: 10272240
I0507 18:13:51.081270  5812 layer_factory.hpp:77] Creating layer relu4
I0507 18:13:51.081276  5812 net.cpp:94] Creating Layer relu4
I0507 18:13:51.081279  5812 net.cpp:435] relu4 <- conv4
I0507 18:13:51.081284  5812 net.cpp:396] relu4 -> conv4 (in-place)
I0507 18:13:51.081290  5812 net.cpp:144] Setting up relu4
I0507 18:13:51.081295  5812 net.cpp:151] Top shape: 20 64 10 10 (128000)
I0507 18:13:51.081296  5812 net.cpp:159] Memory required for data: 10784240
I0507 18:13:51.081300  5812 layer_factory.hpp:77] Creating layer conv5
I0507 18:13:51.081307  5812 net.cpp:94] Creating Layer conv5
I0507 18:13:51.081310  5812 net.cpp:435] conv5 <- conv4
I0507 18:13:51.081315  5812 net.cpp:409] conv5 -> conv5
I0507 18:13:51.085186  5812 net.cpp:144] Setting up conv5
I0507 18:13:51.085203  5812 net.cpp:151] Top shape: 20 64 10 10 (128000)
I0507 18:13:51.085208  5812 net.cpp:159] Memory required for data: 11296240
I0507 18:13:51.085216  5812 layer_factory.hpp:77] Creating layer relu5
I0507 18:13:51.085222  5812 net.cpp:94] Creating Layer relu5
I0507 18:13:51.085225  5812 net.cpp:435] relu5 <- conv5
I0507 18:13:51.085229  5812 net.cpp:396] relu5 -> conv5 (in-place)
I0507 18:13:51.085237  5812 net.cpp:144] Setting up relu5
I0507 18:13:51.085239  5812 net.cpp:151] Top shape: 20 64 10 10 (128000)
I0507 18:13:51.085242  5812 net.cpp:159] Memory required for data: 11808240
I0507 18:13:51.085245  5812 layer_factory.hpp:77] Creating layer pool5
I0507 18:13:51.085250  5812 net.cpp:94] Creating Layer pool5
I0507 18:13:51.085253  5812 net.cpp:435] pool5 <- conv5
I0507 18:13:51.085256  5812 net.cpp:409] pool5 -> pool5
I0507 18:13:51.085291  5812 net.cpp:144] Setting up pool5
I0507 18:13:51.085299  5812 net.cpp:151] Top shape: 20 64 5 5 (32000)
I0507 18:13:51.085300  5812 net.cpp:159] Memory required for data: 11936240
I0507 18:13:51.085304  5812 layer_factory.hpp:77] Creating layer ip1
I0507 18:13:51.085310  5812 net.cpp:94] Creating Layer ip1
I0507 18:13:51.085314  5812 net.cpp:435] ip1 <- pool5
I0507 18:13:51.085317  5812 net.cpp:409] ip1 -> ip1
I0507 18:13:51.087857  5812 net.cpp:144] Setting up ip1
I0507 18:13:51.087863  5812 net.cpp:151] Top shape: 20 64 (1280)
I0507 18:13:51.087867  5812 net.cpp:159] Memory required for data: 11941360
I0507 18:13:51.087872  5812 layer_factory.hpp:77] Creating layer ip2
I0507 18:13:51.087877  5812 net.cpp:94] Creating Layer ip2
I0507 18:13:51.087880  5812 net.cpp:435] ip2 <- ip1
I0507 18:13:51.087884  5812 net.cpp:409] ip2 -> ip2
I0507 18:13:51.088104  5812 net.cpp:144] Setting up ip2
I0507 18:13:51.088111  5812 net.cpp:151] Top shape: 20 64 (1280)
I0507 18:13:51.088114  5812 net.cpp:159] Memory required for data: 11946480
I0507 18:13:51.088119  5812 layer_factory.hpp:77] Creating layer ip3
I0507 18:13:51.088125  5812 net.cpp:94] Creating Layer ip3
I0507 18:13:51.088129  5812 net.cpp:435] ip3 <- ip2
I0507 18:13:51.088132  5812 net.cpp:409] ip3 -> ip3
I0507 18:13:51.088325  5812 net.cpp:144] Setting up ip3
I0507 18:13:51.088330  5812 net.cpp:151] Top shape: 20 50 (1000)
I0507 18:13:51.088333  5812 net.cpp:159] Memory required for data: 11950480
I0507 18:13:51.088338  5812 layer_factory.hpp:77] Creating layer ip3_ip3_0_split
I0507 18:13:51.088342  5812 net.cpp:94] Creating Layer ip3_ip3_0_split
I0507 18:13:51.088346  5812 net.cpp:435] ip3_ip3_0_split <- ip3
I0507 18:13:51.088349  5812 net.cpp:409] ip3_ip3_0_split -> ip3_ip3_0_split_0
I0507 18:13:51.088354  5812 net.cpp:409] ip3_ip3_0_split -> ip3_ip3_0_split_1
I0507 18:13:51.088392  5812 net.cpp:144] Setting up ip3_ip3_0_split
I0507 18:13:51.088397  5812 net.cpp:151] Top shape: 20 50 (1000)
I0507 18:13:51.088400  5812 net.cpp:151] Top shape: 20 50 (1000)
I0507 18:13:51.088403  5812 net.cpp:159] Memory required for data: 11958480
I0507 18:13:51.088407  5812 layer_factory.hpp:77] Creating layer accuracy
I0507 18:13:51.088412  5812 net.cpp:94] Creating Layer accuracy
I0507 18:13:51.088414  5812 net.cpp:435] accuracy <- ip3_ip3_0_split_0
I0507 18:13:51.088418  5812 net.cpp:435] accuracy <- label_intercept_1_split_0
I0507 18:13:51.088423  5812 net.cpp:409] accuracy -> accuracy
…
