…
I0501 03:35:31.084069 30273 net.cpp:323] The NetState phase (0) differed from the phase (1) specified by a rule in layer intercept
I0501 03:35:31.084085 30273 net.cpp:323] The NetState phase (0) differed from the phase (1) specified by a rule in layer loss
I0501 03:35:31.084166 30273 net.cpp:52] Initializing net from parameters: 
state {
  phase: TRAIN
}
layer {
  name: "parameters"
  type: "HDF5Data"
  top: "data"
  top: "label"
  include {
    phase: TRAIN
  }
  hdf5_data_param {
    source: "/home/purduethu/scratch/radon/d/deng106/CNNStatisticalModel/distributions/input/50_distributions_400_sample_size_train-parameters-path.txt"
    batch_size: 20
  }
}
layer {
  name: "conv1"
  type: "Convolution"
  bottom: "data"
  top: "conv1"
  param {
    lr_mult: 1
  }
  param {
    lr_mult: 2
  }
  convolution_param {
    num_output: 64
    pad: 2
    kernel_size: 5
    stride: 1
    weight_filler {
      type: "gaussian"
      std: 0.0001
    }
    bias_filler {
      type: "constant"
    }
  }
}
layer {
  name: "relu1"
  type: "ReLU"
  bottom: "conv1"
  top: "conv1"
}
layer {
  name: "conv2"
  type: "Convolution"
  bottom: "conv1"
  top: "conv2"
  param {
    lr_mult: 1
  }
  param {
    lr_mult: 2
  }
  convolution_param {
    num_output: 64
    pad: 2
    kernel_size: 5
    stride: 1
    weight_filler {
      type: "gaussian"
      std: 0.01
    }
    bias_filler {
      type: "constant"
    }
  }
}
layer {
  name: "relu2"
  type: "ReLU"
  bottom: "conv2"
  top: "conv2"
}
layer {
  name: "pool2"
  type: "Pooling"
  bottom: "conv2"
  top: "pool2"
  pooling_param {
    pool: MAX
    kernel_size: 3
    stride: 2
  }
}
layer {
  name: "conv3"
  type: "Convolution"
  bottom: "pool2"
  top: "conv3"
  param {
    lr_mult: 1
  }
  param {
    lr_mult: 2
  }
  convolution_param {
    num_output: 128
    pad: 2
    kernel_size: 5
    stride: 1
    weight_filler {
      type: "gaussian"
      std: 0.01
    }
    bias_filler {
      type: "constant"
    }
  }
}
layer {
  name: "relu3"
  type: "ReLU"
  bottom: "conv3"
  top: "conv3"
}
layer {
  name: "conv4"
  type: "Convolution"
  bottom: "conv3"
  top: "conv4"
  param {
    lr_mult: 1
  }
  param {
    lr_mult: 2
  }
  convolution_param {
    num_output: 128
    pad: 2
    kernel_size: 5
    stride: 1
    weight_filler {
      type: "gaussian"
      std: 0.01
    }
    bias_filler {
      type: "constant"
    }
  }
}
layer {
  name: "relu4"
  type: "ReLU"
  bottom: "conv4"
  top: "conv4"
}
layer {
  name: "conv5"
  type: "Convolution"
  bottom: "conv4"
  top: "conv5"
  param {
    lr_mult: 1
  }
  param {
    lr_mult: 2
  }
  convolution_param {
    num_output: 128
    pad: 2
    kernel_size: 5
    stride: 1
    weight_filler {
      type: "gaussian"
      std: 0.01
    }
    bias_filler {
      type: "constant"
    }
  }
}
layer {
  name: "relu5"
  type: "ReLU"
  bottom: "conv5"
  top: "conv5"
}
layer {
  name: "pool5"
  type: "Pooling"
  bottom: "conv5"
  top: "pool5"
  pooling_param {
    pool: AVE
    kernel_size: 3
    stride: 2
  }
}
layer {
  name: "ip1"
  type: "InnerProduct"
  bottom: "pool5"
  top: "ip1"
  param {
    lr_mult: 1
  }
  param {
    lr_mult: 2
  }
  inner_product_param {
    num_output: 1024
    weight_filler {
      type: "gaussian"
      std: 0.1
    }
    bias_filler {
      type: "constant"
    }
  }
}
layer {
  name: "ip2"
  type: "InnerProduct"
  bottom: "ip1"
  top: "ip2"
  param {
    lr_mult: 1
  }
  param {
    lr_mult: 2
  }
  inner_product_param {
    num_output: 512
    weight_filler {
      type: "gaussian"
      std: 0.1
    }
    bias_filler {
      type: "constant"
    }
  }
}
layer {
  name: "ip3"
  type: "InnerProduct"
  bottom: "ip2"
  top: "ip3"
  param {
    lr_mult: 1
  }
  param {
    lr_mult: 2
  }
  inner_product_param {
    num_output: 1
    weight_filler {
      type: "gaussian"
      std: 0.1
    }
    bias_filler {
      type: "constant"
    }
  }
}
layer {
  name: "loss"
  type: "HuberLoss"
  bottom: "ip3"
  bottom: "label"
  top: "loss"
  include {
    phase: TRAIN
  }
}
I0501 03:35:31.084218 30273 layer_factory.hpp:77] Creating layer parameters
I0501 03:35:31.084236 30273 net.cpp:94] Creating Layer parameters
I0501 03:35:31.084241 30273 net.cpp:409] parameters -> data
I0501 03:35:31.084250 30273 net.cpp:409] parameters -> label
I0501 03:35:31.084256 30273 hdf5_data_layer.cpp:79] Loading list of HDF5 filenames from: /home/purduethu/scratch/radon/d/deng106/CNNStatisticalModel/distributions/input/50_distributions_400_sample_size_train-parameters-path.txt
I0501 03:35:31.084271 30273 hdf5_data_layer.cpp:93] Number of HDF5 files: 1
I0501 03:35:31.084806 30273 hdf5.cpp:32] Datatype class: H5T_FLOAT
I0501 03:35:31.723600 30273 net.cpp:144] Setting up parameters
I0501 03:35:31.723631 30273 net.cpp:151] Top shape: 20 1 20 20 (8000)
I0501 03:35:31.723637 30273 net.cpp:151] Top shape: 20 (20)
I0501 03:35:31.723640 30273 net.cpp:159] Memory required for data: 32080
I0501 03:35:31.723647 30273 layer_factory.hpp:77] Creating layer conv1
I0501 03:35:31.723670 30273 net.cpp:94] Creating Layer conv1
I0501 03:35:31.723675 30273 net.cpp:435] conv1 <- data
I0501 03:35:31.723680 30273 net.cpp:409] conv1 -> conv1
I0501 03:35:31.729187 30273 net.cpp:144] Setting up conv1
I0501 03:35:31.729202 30273 net.cpp:151] Top shape: 20 64 20 20 (512000)
I0501 03:35:31.729205 30273 net.cpp:159] Memory required for data: 2080080
I0501 03:35:31.729215 30273 layer_factory.hpp:77] Creating layer relu1
I0501 03:35:31.729223 30273 net.cpp:94] Creating Layer relu1
I0501 03:35:31.729226 30273 net.cpp:435] relu1 <- conv1
I0501 03:35:31.729231 30273 net.cpp:396] relu1 -> conv1 (in-place)
I0501 03:35:31.729241 30273 net.cpp:144] Setting up relu1
I0501 03:35:31.729246 30273 net.cpp:151] Top shape: 20 64 20 20 (512000)
I0501 03:35:31.729249 30273 net.cpp:159] Memory required for data: 4128080
I0501 03:35:31.729252 30273 layer_factory.hpp:77] Creating layer conv2
I0501 03:35:31.729260 30273 net.cpp:94] Creating Layer conv2
I0501 03:35:31.729264 30273 net.cpp:435] conv2 <- conv1
I0501 03:35:31.729269 30273 net.cpp:409] conv2 -> conv2
I0501 03:35:31.740581 30273 net.cpp:144] Setting up conv2
I0501 03:35:31.740620 30273 net.cpp:151] Top shape: 20 64 20 20 (512000)
I0501 03:35:31.740631 30273 net.cpp:159] Memory required for data: 6176080
I0501 03:35:31.740653 30273 layer_factory.hpp:77] Creating layer relu2
I0501 03:35:31.740671 30273 net.cpp:94] Creating Layer relu2
I0501 03:35:31.740682 30273 net.cpp:435] relu2 <- conv2
I0501 03:35:31.740695 30273 net.cpp:396] relu2 -> conv2 (in-place)
I0501 03:35:31.740715 30273 net.cpp:144] Setting up relu2
I0501 03:35:31.740727 30273 net.cpp:151] Top shape: 20 64 20 20 (512000)
I0501 03:35:31.740736 30273 net.cpp:159] Memory required for data: 8224080
I0501 03:35:31.740743 30273 layer_factory.hpp:77] Creating layer pool2
I0501 03:35:31.740757 30273 net.cpp:94] Creating Layer pool2
I0501 03:35:31.740778 30273 net.cpp:435] pool2 <- conv2
I0501 03:35:31.740792 30273 net.cpp:409] pool2 -> pool2
I0501 03:35:31.740942 30273 net.cpp:144] Setting up pool2
I0501 03:35:31.740959 30273 net.cpp:151] Top shape: 20 64 10 10 (128000)
I0501 03:35:31.740968 30273 net.cpp:159] Memory required for data: 8736080
I0501 03:35:31.740978 30273 layer_factory.hpp:77] Creating layer conv3
I0501 03:35:31.741004 30273 net.cpp:94] Creating Layer conv3
I0501 03:35:31.741008 30273 net.cpp:435] conv3 <- pool2
I0501 03:35:31.741014 30273 net.cpp:409] conv3 -> conv3
I0501 03:35:31.750675 30273 net.cpp:144] Setting up conv3
I0501 03:35:31.750690 30273 net.cpp:151] Top shape: 20 128 10 10 (256000)
I0501 03:35:31.750694 30273 net.cpp:159] Memory required for data: 9760080
I0501 03:35:31.750702 30273 layer_factory.hpp:77] Creating layer relu3
I0501 03:35:31.750708 30273 net.cpp:94] Creating Layer relu3
I0501 03:35:31.750712 30273 net.cpp:435] relu3 <- conv3
I0501 03:35:31.750716 30273 net.cpp:396] relu3 -> conv3 (in-place)
I0501 03:35:31.750725 30273 net.cpp:144] Setting up relu3
I0501 03:35:31.750728 30273 net.cpp:151] Top shape: 20 128 10 10 (256000)
I0501 03:35:31.750731 30273 net.cpp:159] Memory required for data: 10784080
I0501 03:35:31.750735 30273 layer_factory.hpp:77] Creating layer conv4
I0501 03:35:31.750742 30273 net.cpp:94] Creating Layer conv4
I0501 03:35:31.750746 30273 net.cpp:435] conv4 <- conv3
I0501 03:35:31.750751 30273 net.cpp:409] conv4 -> conv4
I0501 03:35:31.769001 30273 net.cpp:144] Setting up conv4
I0501 03:35:31.769018 30273 net.cpp:151] Top shape: 20 128 10 10 (256000)
I0501 03:35:31.769022 30273 net.cpp:159] Memory required for data: 11808080
I0501 03:35:31.769029 30273 layer_factory.hpp:77] Creating layer relu4
I0501 03:35:31.769035 30273 net.cpp:94] Creating Layer relu4
I0501 03:35:31.769039 30273 net.cpp:435] relu4 <- conv4
I0501 03:35:31.769043 30273 net.cpp:396] relu4 -> conv4 (in-place)
I0501 03:35:31.769052 30273 net.cpp:144] Setting up relu4
I0501 03:35:31.769055 30273 net.cpp:151] Top shape: 20 128 10 10 (256000)
I0501 03:35:31.769057 30273 net.cpp:159] Memory required for data: 12832080
I0501 03:35:31.769060 30273 layer_factory.hpp:77] Creating layer conv5
I0501 03:35:31.769068 30273 net.cpp:94] Creating Layer conv5
I0501 03:35:31.769071 30273 net.cpp:435] conv5 <- conv4
I0501 03:35:31.769076 30273 net.cpp:409] conv5 -> conv5
I0501 03:35:31.786784 30273 net.cpp:144] Setting up conv5
I0501 03:35:31.786803 30273 net.cpp:151] Top shape: 20 128 10 10 (256000)
I0501 03:35:31.786806 30273 net.cpp:159] Memory required for data: 13856080
I0501 03:35:31.786816 30273 layer_factory.hpp:77] Creating layer relu5
I0501 03:35:31.786823 30273 net.cpp:94] Creating Layer relu5
I0501 03:35:31.786826 30273 net.cpp:435] relu5 <- conv5
I0501 03:35:31.786831 30273 net.cpp:396] relu5 -> conv5 (in-place)
I0501 03:35:31.786839 30273 net.cpp:144] Setting up relu5
I0501 03:35:31.786844 30273 net.cpp:151] Top shape: 20 128 10 10 (256000)
I0501 03:35:31.786845 30273 net.cpp:159] Memory required for data: 14880080
I0501 03:35:31.786849 30273 layer_factory.hpp:77] Creating layer pool5
I0501 03:35:31.786854 30273 net.cpp:94] Creating Layer pool5
I0501 03:35:31.786857 30273 net.cpp:435] pool5 <- conv5
I0501 03:35:31.786861 30273 net.cpp:409] pool5 -> pool5
I0501 03:35:31.786907 30273 net.cpp:144] Setting up pool5
I0501 03:35:31.786916 30273 net.cpp:151] Top shape: 20 128 5 5 (64000)
I0501 03:35:31.786917 30273 net.cpp:159] Memory required for data: 15136080
I0501 03:35:31.786921 30273 layer_factory.hpp:77] Creating layer ip1
I0501 03:35:31.786931 30273 net.cpp:94] Creating Layer ip1
I0501 03:35:31.786934 30273 net.cpp:435] ip1 <- pool5
I0501 03:35:31.786939 30273 net.cpp:409] ip1 -> ip1
I0501 03:35:31.866194 30273 net.cpp:144] Setting up ip1
I0501 03:35:31.866227 30273 net.cpp:151] Top shape: 20 1024 (20480)
I0501 03:35:31.866232 30273 net.cpp:159] Memory required for data: 15218000
I0501 03:35:31.866240 30273 layer_factory.hpp:77] Creating layer ip2
I0501 03:35:31.866250 30273 net.cpp:94] Creating Layer ip2
I0501 03:35:31.866263 30273 net.cpp:435] ip2 <- ip1
I0501 03:35:31.866271 30273 net.cpp:409] ip2 -> ip2
I0501 03:35:31.879483 30273 net.cpp:144] Setting up ip2
I0501 03:35:31.879503 30273 net.cpp:151] Top shape: 20 512 (10240)
I0501 03:35:31.879506 30273 net.cpp:159] Memory required for data: 15258960
I0501 03:35:31.879513 30273 layer_factory.hpp:77] Creating layer ip3
I0501 03:35:31.879521 30273 net.cpp:94] Creating Layer ip3
I0501 03:35:31.879525 30273 net.cpp:435] ip3 <- ip2
I0501 03:35:31.879531 30273 net.cpp:409] ip3 -> ip3
I0501 03:35:31.879650 30273 net.cpp:144] Setting up ip3
I0501 03:35:31.879657 30273 net.cpp:151] Top shape: 20 1 (20)
I0501 03:35:31.879660 30273 net.cpp:159] Memory required for data: 15259040
I0501 03:35:31.879665 30273 layer_factory.hpp:77] Creating layer loss
I0501 03:35:31.879673 30273 net.cpp:94] Creating Layer loss
I0501 03:35:31.879676 30273 net.cpp:435] loss <- ip3
I0501 03:35:31.879680 30273 net.cpp:435] loss <- label
I0501 03:35:31.879684 30273 net.cpp:409] loss -> loss
I0501 03:35:31.879736 30273 net.cpp:144] Setting up loss
…
I0501 03:35:32.174219 30273 net.cpp:323] The NetState phase (0) differed from the phase (1) specified by a rule in layer intercept
I0501 03:35:32.174235 30273 net.cpp:323] The NetState phase (0) differed from the phase (1) specified by a rule in layer accuracy
I0501 03:35:32.174324 30273 net.cpp:52] Initializing net from parameters: 
state {
  phase: TRAIN
}
layer {
  name: "parameters"
  type: "HDF5Data"
  top: "data"
  top: "label"
  include {
    phase: TRAIN
  }
  hdf5_data_param {
    source: "/home/purduethu/scratch/radon/d/deng106/CNNStatisticalModel/distributions/input/50_distributions_400_sample_size_train-distributions-path.txt"
    batch_size: 20
  }
}
layer {
  name: "conv1"
  type: "Convolution"
  bottom: "data"
  top: "conv1"
  param {
    lr_mult: 1
  }
  param {
    lr_mult: 2
  }
  convolution_param {
    num_output: 64
    pad: 2
    kernel_size: 5
    stride: 1
    weight_filler {
      type: "gaussian"
      std: 0.0001
    }
    bias_filler {
      type: "constant"
    }
  }
}
layer {
  name: "relu1"
  type: "ReLU"
  bottom: "conv1"
  top: "conv1"
}
layer {
  name: "conv2"
  type: "Convolution"
  bottom: "conv1"
  top: "conv2"
  param {
    lr_mult: 1
  }
  param {
    lr_mult: 2
  }
  convolution_param {
    num_output: 64
    pad: 2
    kernel_size: 5
    stride: 1
    weight_filler {
      type: "gaussian"
      std: 0.01
    }
    bias_filler {
      type: "constant"
    }
  }
}
layer {
  name: "relu2"
  type: "ReLU"
  bottom: "conv2"
  top: "conv2"
}
layer {
  name: "pool2"
  type: "Pooling"
  bottom: "conv2"
  top: "pool2"
  pooling_param {
    pool: MAX
    kernel_size: 3
    stride: 2
  }
}
layer {
  name: "conv3"
  type: "Convolution"
  bottom: "pool2"
  top: "conv3"
  param {
    lr_mult: 1
  }
  param {
    lr_mult: 2
  }
  convolution_param {
    num_output: 128
    pad: 2
    kernel_size: 5
    stride: 1
    weight_filler {
      type: "gaussian"
      std: 0.01
    }
    bias_filler {
      type: "constant"
    }
  }
}
layer {
  name: "relu3"
  type: "ReLU"
  bottom: "conv3"
  top: "conv3"
}
layer {
  name: "conv4"
  type: "Convolution"
  bottom: "conv3"
  top: "conv4"
  param {
    lr_mult: 1
  }
  param {
    lr_mult: 2
  }
  convolution_param {
    num_output: 128
    pad: 2
    kernel_size: 5
    stride: 1
    weight_filler {
      type: "gaussian"
      std: 0.01
    }
    bias_filler {
      type: "constant"
    }
  }
}
layer {
  name: "relu4"
  type: "ReLU"
  bottom: "conv4"
  top: "conv4"
}
layer {
  name: "conv5"
  type: "Convolution"
  bottom: "conv4"
  top: "conv5"
  param {
    lr_mult: 1
  }
  param {
    lr_mult: 2
  }
  convolution_param {
    num_output: 128
    pad: 2
    kernel_size: 5
    stride: 1
    weight_filler {
      type: "gaussian"
      std: 0.01
    }
    bias_filler {
      type: "constant"
    }
  }
}
layer {
  name: "relu5"
  type: "ReLU"
  bottom: "conv5"
  top: "conv5"
}
layer {
  name: "pool5"
  type: "Pooling"
  bottom: "conv5"
  top: "pool5"
  pooling_param {
    pool: AVE
    kernel_size: 3
    stride: 2
  }
}
layer {
  name: "ip1"
  type: "InnerProduct"
  bottom: "pool5"
  top: "ip1"
  param {
    lr_mult: 1
  }
  param {
    lr_mult: 2
  }
  inner_product_param {
    num_output: 1024
    weight_filler {
      type: "gaussian"
      std: 0.1
    }
    bias_filler {
      type: "constant"
    }
  }
}
layer {
  name: "ip2"
  type: "InnerProduct"
  bottom: "ip1"
  top: "ip2"
  param {
    lr_mult: 1
  }
  param {
    lr_mult: 2
  }
  inner_product_param {
    num_output: 512
    weight_filler {
      type: "gaussian"
      std: 0.1
    }
    bias_filler {
      type: "constant"
    }
  }
}
layer {
  name: "ip3"
  type: "InnerProduct"
  bottom: "ip2"
  top: "ip3"
  param {
    lr_mult: 1
  }
  param {
    lr_mult: 2
  }
  inner_product_param {
    num_output: 50
    weight_filler {
      type: "gaussian"
      std: 0.1
    }
    bias_filler {
      type: "constant"
    }
  }
}
layer {
  name: "loss"
  type: "SoftmaxWithLoss"
  bottom: "ip3"
  bottom: "label"
  top: "loss"
}
I0501 03:35:32.174377 30273 layer_factory.hpp:77] Creating layer parameters
I0501 03:35:32.174386 30273 net.cpp:94] Creating Layer parameters
I0501 03:35:32.174389 30273 net.cpp:409] parameters -> data
I0501 03:35:32.174396 30273 net.cpp:409] parameters -> label
I0501 03:35:32.174401 30273 hdf5_data_layer.cpp:79] Loading list of HDF5 filenames from: /home/purduethu/scratch/radon/d/deng106/CNNStatisticalModel/distributions/input/50_distributions_400_sample_size_train-distributions-path.txt
I0501 03:35:32.174418 30273 hdf5_data_layer.cpp:93] Number of HDF5 files: 1
I0501 03:35:32.814491 30273 hdf5.cpp:35] Datatype class: H5T_INTEGER
I0501 03:35:32.817553 30273 net.cpp:144] Setting up parameters
I0501 03:35:32.817571 30273 net.cpp:151] Top shape: 20 1 20 20 (8000)
I0501 03:35:32.817575 30273 net.cpp:151] Top shape: 20 (20)
I0501 03:35:32.817579 30273 net.cpp:159] Memory required for data: 32080
I0501 03:35:32.817584 30273 layer_factory.hpp:77] Creating layer conv1
I0501 03:35:32.817601 30273 net.cpp:94] Creating Layer conv1
I0501 03:35:32.817606 30273 net.cpp:435] conv1 <- data
I0501 03:35:32.817612 30273 net.cpp:409] conv1 -> conv1
I0501 03:35:32.819919 30273 net.cpp:144] Setting up conv1
I0501 03:35:32.819933 30273 net.cpp:151] Top shape: 20 64 20 20 (512000)
I0501 03:35:32.819937 30273 net.cpp:159] Memory required for data: 2080080
I0501 03:35:32.819947 30273 layer_factory.hpp:77] Creating layer relu1
I0501 03:35:32.819955 30273 net.cpp:94] Creating Layer relu1
I0501 03:35:32.819959 30273 net.cpp:435] relu1 <- conv1
I0501 03:35:32.819963 30273 net.cpp:396] relu1 -> conv1 (in-place)
I0501 03:35:32.819970 30273 net.cpp:144] Setting up relu1
I0501 03:35:32.819974 30273 net.cpp:151] Top shape: 20 64 20 20 (512000)
I0501 03:35:32.819977 30273 net.cpp:159] Memory required for data: 4128080
I0501 03:35:32.819980 30273 layer_factory.hpp:77] Creating layer conv2
I0501 03:35:32.819988 30273 net.cpp:94] Creating Layer conv2
I0501 03:35:32.819991 30273 net.cpp:435] conv2 <- conv1
I0501 03:35:32.819995 30273 net.cpp:409] conv2 -> conv2
I0501 03:35:32.830852 30273 net.cpp:144] Setting up conv2
I0501 03:35:32.830866 30273 net.cpp:151] Top shape: 20 64 20 20 (512000)
I0501 03:35:32.830870 30273 net.cpp:159] Memory required for data: 6176080
I0501 03:35:32.830878 30273 layer_factory.hpp:77] Creating layer relu2
I0501 03:35:32.830885 30273 net.cpp:94] Creating Layer relu2
I0501 03:35:32.830889 30273 net.cpp:435] relu2 <- conv2
I0501 03:35:32.830893 30273 net.cpp:396] relu2 -> conv2 (in-place)
I0501 03:35:32.830900 30273 net.cpp:144] Setting up relu2
I0501 03:35:32.830904 30273 net.cpp:151] Top shape: 20 64 20 20 (512000)
I0501 03:35:32.830907 30273 net.cpp:159] Memory required for data: 8224080
I0501 03:35:32.830910 30273 layer_factory.hpp:77] Creating layer pool2
I0501 03:35:32.830915 30273 net.cpp:94] Creating Layer pool2
I0501 03:35:32.830919 30273 net.cpp:435] pool2 <- conv2
I0501 03:35:32.830922 30273 net.cpp:409] pool2 -> pool2
I0501 03:35:32.830979 30273 net.cpp:144] Setting up pool2
I0501 03:35:32.830986 30273 net.cpp:151] Top shape: 20 64 10 10 (128000)
I0501 03:35:32.830989 30273 net.cpp:159] Memory required for data: 8736080
I0501 03:35:32.830992 30273 layer_factory.hpp:77] Creating layer conv3
I0501 03:35:32.831001 30273 net.cpp:94] Creating Layer conv3
I0501 03:35:32.831003 30273 net.cpp:435] conv3 <- pool2
I0501 03:35:32.831015 30273 net.cpp:409] conv3 -> conv3
I0501 03:35:32.841549 30273 net.cpp:144] Setting up conv3
I0501 03:35:32.841565 30273 net.cpp:151] Top shape: 20 128 10 10 (256000)
I0501 03:35:32.841569 30273 net.cpp:159] Memory required for data: 9760080
I0501 03:35:32.841578 30273 layer_factory.hpp:77] Creating layer relu3
I0501 03:35:32.841583 30273 net.cpp:94] Creating Layer relu3
I0501 03:35:32.841588 30273 net.cpp:435] relu3 <- conv3
I0501 03:35:32.841593 30273 net.cpp:396] relu3 -> conv3 (in-place)
I0501 03:35:32.841599 30273 net.cpp:144] Setting up relu3
I0501 03:35:32.841603 30273 net.cpp:151] Top shape: 20 128 10 10 (256000)
I0501 03:35:32.841605 30273 net.cpp:159] Memory required for data: 10784080
I0501 03:35:32.841609 30273 layer_factory.hpp:77] Creating layer conv4
I0501 03:35:32.841617 30273 net.cpp:94] Creating Layer conv4
I0501 03:35:32.841620 30273 net.cpp:435] conv4 <- conv3
I0501 03:35:32.841625 30273 net.cpp:409] conv4 -> conv4
I0501 03:35:32.859730 30273 net.cpp:144] Setting up conv4
I0501 03:35:32.859753 30273 net.cpp:151] Top shape: 20 128 10 10 (256000)
I0501 03:35:32.859756 30273 net.cpp:159] Memory required for data: 11808080
I0501 03:35:32.859763 30273 layer_factory.hpp:77] Creating layer relu4
I0501 03:35:32.859771 30273 net.cpp:94] Creating Layer relu4
I0501 03:35:32.859774 30273 net.cpp:435] relu4 <- conv4
I0501 03:35:32.859779 30273 net.cpp:396] relu4 -> conv4 (in-place)
I0501 03:35:32.859786 30273 net.cpp:144] Setting up relu4
I0501 03:35:32.859791 30273 net.cpp:151] Top shape: 20 128 10 10 (256000)
I0501 03:35:32.859793 30273 net.cpp:159] Memory required for data: 12832080
I0501 03:35:32.859797 30273 layer_factory.hpp:77] Creating layer conv5
I0501 03:35:32.859804 30273 net.cpp:94] Creating Layer conv5
I0501 03:35:32.859807 30273 net.cpp:435] conv5 <- conv4
I0501 03:35:32.859812 30273 net.cpp:409] conv5 -> conv5
I0501 03:35:32.877627 30273 net.cpp:144] Setting up conv5
I0501 03:35:32.877645 30273 net.cpp:151] Top shape: 20 128 10 10 (256000)
I0501 03:35:32.877648 30273 net.cpp:159] Memory required for data: 13856080
I0501 03:35:32.877658 30273 layer_factory.hpp:77] Creating layer relu5
I0501 03:35:32.877665 30273 net.cpp:94] Creating Layer relu5
I0501 03:35:32.877668 30273 net.cpp:435] relu5 <- conv5
I0501 03:35:32.877672 30273 net.cpp:396] relu5 -> conv5 (in-place)
I0501 03:35:32.877681 30273 net.cpp:144] Setting up relu5
I0501 03:35:32.877684 30273 net.cpp:151] Top shape: 20 128 10 10 (256000)
I0501 03:35:32.877686 30273 net.cpp:159] Memory required for data: 14880080
I0501 03:35:32.877689 30273 layer_factory.hpp:77] Creating layer pool5
I0501 03:35:32.877696 30273 net.cpp:94] Creating Layer pool5
I0501 03:35:32.877698 30273 net.cpp:435] pool5 <- conv5
I0501 03:35:32.877702 30273 net.cpp:409] pool5 -> pool5
I0501 03:35:32.877744 30273 net.cpp:144] Setting up pool5
I0501 03:35:32.877751 30273 net.cpp:151] Top shape: 20 128 5 5 (64000)
I0501 03:35:32.877754 30273 net.cpp:159] Memory required for data: 15136080
I0501 03:35:32.877758 30273 layer_factory.hpp:77] Creating layer ip1
I0501 03:35:32.877764 30273 net.cpp:94] Creating Layer ip1
I0501 03:35:32.877768 30273 net.cpp:435] ip1 <- pool5
I0501 03:35:32.877771 30273 net.cpp:409] ip1 -> ip1
I0501 03:35:32.957190 30273 net.cpp:144] Setting up ip1
I0501 03:35:32.957224 30273 net.cpp:151] Top shape: 20 1024 (20480)
I0501 03:35:32.957228 30273 net.cpp:159] Memory required for data: 15218000
I0501 03:35:32.957237 30273 layer_factory.hpp:77] Creating layer ip2
I0501 03:35:32.957247 30273 net.cpp:94] Creating Layer ip2
I0501 03:35:32.957252 30273 net.cpp:435] ip2 <- ip1
I0501 03:35:32.957258 30273 net.cpp:409] ip2 -> ip2
I0501 03:35:32.970777 30273 net.cpp:144] Setting up ip2
I0501 03:35:32.970794 30273 net.cpp:151] Top shape: 20 512 (10240)
I0501 03:35:32.970798 30273 net.cpp:159] Memory required for data: 15258960
I0501 03:35:32.970804 30273 layer_factory.hpp:77] Creating layer ip3
I0501 03:35:32.970811 30273 net.cpp:94] Creating Layer ip3
I0501 03:35:32.970815 30273 net.cpp:435] ip3 <- ip2
I0501 03:35:32.970820 30273 net.cpp:409] ip3 -> ip3
I0501 03:35:32.972431 30273 net.cpp:144] Setting up ip3
I0501 03:35:32.972445 30273 net.cpp:151] Top shape: 20 50 (1000)
I0501 03:35:32.972447 30273 net.cpp:159] Memory required for data: 15262960
I0501 03:35:32.972453 30273 layer_factory.hpp:77] Creating layer loss
I0501 03:35:32.972462 30273 net.cpp:94] Creating Layer loss
I0501 03:35:32.972466 30273 net.cpp:435] loss <- ip3
I0501 03:35:32.972470 30273 net.cpp:435] loss <- label
I0501 03:35:32.972474 30273 net.cpp:409] loss -> loss
I0501 03:35:32.972482 30273 layer_factory.hpp:77] Creating layer loss
…
I0501 03:35:32.973042 30273 solver.cpp:181] Creating test net (#0) specified by net file: ./protocol/dis_50_400_dimension.protocol_distribution
I0501 03:35:32.973068 30273 net.cpp:323] The NetState phase (1) differed from the phase (0) specified by a rule in layer parameters
I0501 03:35:32.973163 30273 net.cpp:52] Initializing net from parameters: 
state {
  phase: TEST
}
layer {
  name: "intercept"
  type: "HDF5Data"
  top: "data"
  top: "label"
  include {
    phase: TEST
  }
  hdf5_data_param {
    source: "/home/purduethu/scratch/radon/d/deng106/CNNStatisticalModel/distributions/input/50_distributions_400_sample_size_test-distributions-path.txt"
    batch_size: 20
  }
}
layer {
  name: "conv1"
  type: "Convolution"
  bottom: "data"
  top: "conv1"
  param {
    lr_mult: 1
  }
  param {
    lr_mult: 2
  }
  convolution_param {
    num_output: 64
    pad: 2
    kernel_size: 5
    stride: 1
    weight_filler {
      type: "gaussian"
      std: 0.0001
    }
    bias_filler {
      type: "constant"
    }
  }
}
layer {
  name: "relu1"
  type: "ReLU"
  bottom: "conv1"
  top: "conv1"
}
layer {
  name: "conv2"
  type: "Convolution"
  bottom: "conv1"
  top: "conv2"
  param {
    lr_mult: 1
  }
  param {
    lr_mult: 2
  }
  convolution_param {
    num_output: 64
    pad: 2
    kernel_size: 5
    stride: 1
    weight_filler {
      type: "gaussian"
      std: 0.01
    }
    bias_filler {
      type: "constant"
    }
  }
}
layer {
  name: "relu2"
  type: "ReLU"
  bottom: "conv2"
  top: "conv2"
}
layer {
  name: "pool2"
  type: "Pooling"
  bottom: "conv2"
  top: "pool2"
  pooling_param {
    pool: MAX
    kernel_size: 3
    stride: 2
  }
}
layer {
  name: "conv3"
  type: "Convolution"
  bottom: "pool2"
  top: "conv3"
  param {
    lr_mult: 1
  }
  param {
    lr_mult: 2
  }
  convolution_param {
    num_output: 128
    pad: 2
    kernel_size: 5
    stride: 1
    weight_filler {
      type: "gaussian"
      std: 0.01
    }
    bias_filler {
      type: "constant"
    }
  }
}
layer {
  name: "relu3"
  type: "ReLU"
  bottom: "conv3"
  top: "conv3"
}
layer {
  name: "conv4"
  type: "Convolution"
  bottom: "conv3"
  top: "conv4"
  param {
    lr_mult: 1
  }
  param {
    lr_mult: 2
  }
  convolution_param {
    num_output: 128
    pad: 2
    kernel_size: 5
    stride: 1
    weight_filler {
      type: "gaussian"
      std: 0.01
    }
    bias_filler {
      type: "constant"
    }
  }
}
layer {
  name: "relu4"
  type: "ReLU"
  bottom: "conv4"
  top: "conv4"
}
layer {
  name: "conv5"
  type: "Convolution"
  bottom: "conv4"
  top: "conv5"
  param {
    lr_mult: 1
  }
  param {
    lr_mult: 2
  }
  convolution_param {
    num_output: 128
    pad: 2
    kernel_size: 5
    stride: 1
    weight_filler {
      type: "gaussian"
      std: 0.01
    }
    bias_filler {
      type: "constant"
    }
  }
}
layer {
  name: "relu5"
  type: "ReLU"
  bottom: "conv5"
  top: "conv5"
}
layer {
  name: "pool5"
  type: "Pooling"
  bottom: "conv5"
  top: "pool5"
  pooling_param {
    pool: AVE
    kernel_size: 3
    stride: 2
  }
}
layer {
  name: "ip1"
  type: "InnerProduct"
  bottom: "pool5"
  top: "ip1"
  param {
    lr_mult: 1
  }
  param {
    lr_mult: 2
  }
  inner_product_param {
    num_output: 1024
    weight_filler {
      type: "gaussian"
      std: 0.1
    }
    bias_filler {
      type: "constant"
    }
  }
}
layer {
  name: "ip2"
  type: "InnerProduct"
  bottom: "ip1"
  top: "ip2"
  param {
    lr_mult: 1
  }
  param {
    lr_mult: 2
  }
  inner_product_param {
    num_output: 512
    weight_filler {
      type: "gaussian"
      std: 0.1
    }
    bias_filler {
      type: "constant"
    }
  }
}
layer {
  name: "ip3"
  type: "InnerProduct"
  bottom: "ip2"
  top: "ip3"
  param {
    lr_mult: 1
  }
  param {
    lr_mult: 2
  }
  inner_product_param {
    num_output: 50
    weight_filler {
      type: "gaussian"
      std: 0.1
    }
    bias_filler {
      type: "constant"
    }
  }
}
layer {
  name: "accuracy"
  type: "Accuracy"
  bottom: "ip3"
  bottom: "label"
  top: "accuracy"
  include {
    phase: TEST
  }
}
layer {
  name: "loss"
  type: "SoftmaxWithLoss"
  bottom: "ip3"
  bottom: "label"
  top: "loss"
}
I0501 03:35:32.973232 30273 layer_factory.hpp:77] Creating layer intercept
I0501 03:35:32.973242 30273 net.cpp:94] Creating Layer intercept
I0501 03:35:32.973245 30273 net.cpp:409] intercept -> data
I0501 03:35:32.973251 30273 net.cpp:409] intercept -> label
I0501 03:35:32.973258 30273 hdf5_data_layer.cpp:79] Loading list of HDF5 filenames from: /home/purduethu/scratch/radon/d/deng106/CNNStatisticalModel/distributions/input/50_distributions_400_sample_size_test-distributions-path.txt
I0501 03:35:32.973275 30273 hdf5_data_layer.cpp:93] Number of HDF5 files: 1
I0501 03:35:33.140511 30273 net.cpp:144] Setting up intercept
I0501 03:35:33.140544 30273 net.cpp:151] Top shape: 20 1 20 20 (8000)
I0501 03:35:33.140560 30273 net.cpp:151] Top shape: 20 (20)
I0501 03:35:33.140564 30273 net.cpp:159] Memory required for data: 32080
I0501 03:35:33.140583 30273 layer_factory.hpp:77] Creating layer label_intercept_1_split
I0501 03:35:33.140602 30273 net.cpp:94] Creating Layer label_intercept_1_split
I0501 03:35:33.140606 30273 net.cpp:435] label_intercept_1_split <- label
I0501 03:35:33.140612 30273 net.cpp:409] label_intercept_1_split -> label_intercept_1_split_0
I0501 03:35:33.140621 30273 net.cpp:409] label_intercept_1_split -> label_intercept_1_split_1
I0501 03:35:33.140669 30273 net.cpp:144] Setting up label_intercept_1_split
I0501 03:35:33.140676 30273 net.cpp:151] Top shape: 20 (20)
I0501 03:35:33.140678 30273 net.cpp:151] Top shape: 20 (20)
I0501 03:35:33.140681 30273 net.cpp:159] Memory required for data: 32240
I0501 03:35:33.140684 30273 layer_factory.hpp:77] Creating layer conv1
I0501 03:35:33.140696 30273 net.cpp:94] Creating Layer conv1
I0501 03:35:33.140699 30273 net.cpp:435] conv1 <- data
I0501 03:35:33.140704 30273 net.cpp:409] conv1 -> conv1
I0501 03:35:33.141579 30273 net.cpp:144] Setting up conv1
I0501 03:35:33.141592 30273 net.cpp:151] Top shape: 20 64 20 20 (512000)
I0501 03:35:33.141597 30273 net.cpp:159] Memory required for data: 2080240
I0501 03:35:33.141605 30273 layer_factory.hpp:77] Creating layer relu1
I0501 03:35:33.141611 30273 net.cpp:94] Creating Layer relu1
I0501 03:35:33.141615 30273 net.cpp:435] relu1 <- conv1
I0501 03:35:33.141619 30273 net.cpp:396] relu1 -> conv1 (in-place)
I0501 03:35:33.141626 30273 net.cpp:144] Setting up relu1
I0501 03:35:33.141630 30273 net.cpp:151] Top shape: 20 64 20 20 (512000)
I0501 03:35:33.141633 30273 net.cpp:159] Memory required for data: 4128240
I0501 03:35:33.141636 30273 layer_factory.hpp:77] Creating layer conv2
I0501 03:35:33.141644 30273 net.cpp:94] Creating Layer conv2
I0501 03:35:33.141646 30273 net.cpp:435] conv2 <- conv1
I0501 03:35:33.141651 30273 net.cpp:409] conv2 -> conv2
I0501 03:35:33.146914 30273 net.cpp:144] Setting up conv2
I0501 03:35:33.146930 30273 net.cpp:151] Top shape: 20 64 20 20 (512000)
I0501 03:35:33.146934 30273 net.cpp:159] Memory required for data: 6176240
I0501 03:35:33.146942 30273 layer_factory.hpp:77] Creating layer relu2
I0501 03:35:33.146950 30273 net.cpp:94] Creating Layer relu2
I0501 03:35:33.146953 30273 net.cpp:435] relu2 <- conv2
I0501 03:35:33.146958 30273 net.cpp:396] relu2 -> conv2 (in-place)
I0501 03:35:33.146965 30273 net.cpp:144] Setting up relu2
I0501 03:35:33.146970 30273 net.cpp:151] Top shape: 20 64 20 20 (512000)
I0501 03:35:33.146973 30273 net.cpp:159] Memory required for data: 8224240
I0501 03:35:33.146976 30273 layer_factory.hpp:77] Creating layer pool2
I0501 03:35:33.146981 30273 net.cpp:94] Creating Layer pool2
I0501 03:35:33.146984 30273 net.cpp:435] pool2 <- conv2
I0501 03:35:33.146988 30273 net.cpp:409] pool2 -> pool2
I0501 03:35:33.147049 30273 net.cpp:144] Setting up pool2
I0501 03:35:33.147056 30273 net.cpp:151] Top shape: 20 64 10 10 (128000)
I0501 03:35:33.147059 30273 net.cpp:159] Memory required for data: 8736240
I0501 03:35:33.147063 30273 layer_factory.hpp:77] Creating layer conv3
I0501 03:35:33.147071 30273 net.cpp:94] Creating Layer conv3
I0501 03:35:33.147074 30273 net.cpp:435] conv3 <- pool2
I0501 03:35:33.147080 30273 net.cpp:409] conv3 -> conv3
I0501 03:35:33.154399 30273 net.cpp:144] Setting up conv3
I0501 03:35:33.154414 30273 net.cpp:151] Top shape: 20 128 10 10 (256000)
I0501 03:35:33.154417 30273 net.cpp:159] Memory required for data: 9760240
I0501 03:35:33.154425 30273 layer_factory.hpp:77] Creating layer relu3
I0501 03:35:33.154435 30273 net.cpp:94] Creating Layer relu3
I0501 03:35:33.154439 30273 net.cpp:435] relu3 <- conv3
I0501 03:35:33.154444 30273 net.cpp:396] relu3 -> conv3 (in-place)
I0501 03:35:33.154453 30273 net.cpp:144] Setting up relu3
I0501 03:35:33.154456 30273 net.cpp:151] Top shape: 20 128 10 10 (256000)
I0501 03:35:33.154459 30273 net.cpp:159] Memory required for data: 10784240
I0501 03:35:33.154462 30273 layer_factory.hpp:77] Creating layer conv4
I0501 03:35:33.154469 30273 net.cpp:94] Creating Layer conv4
I0501 03:35:33.154474 30273 net.cpp:435] conv4 <- conv3
I0501 03:35:33.154479 30273 net.cpp:409] conv4 -> conv4
I0501 03:35:33.168300 30273 net.cpp:144] Setting up conv4
I0501 03:35:33.168318 30273 net.cpp:151] Top shape: 20 128 10 10 (256000)
I0501 03:35:33.168321 30273 net.cpp:159] Memory required for data: 11808240
I0501 03:35:33.168329 30273 layer_factory.hpp:77] Creating layer relu4
I0501 03:35:33.168335 30273 net.cpp:94] Creating Layer relu4
I0501 03:35:33.168339 30273 net.cpp:435] relu4 <- conv4
I0501 03:35:33.168344 30273 net.cpp:396] relu4 -> conv4 (in-place)
I0501 03:35:33.168351 30273 net.cpp:144] Setting up relu4
I0501 03:35:33.168355 30273 net.cpp:151] Top shape: 20 128 10 10 (256000)
I0501 03:35:33.168359 30273 net.cpp:159] Memory required for data: 12832240
I0501 03:35:33.168361 30273 layer_factory.hpp:77] Creating layer conv5
I0501 03:35:33.168370 30273 net.cpp:94] Creating Layer conv5
I0501 03:35:33.168373 30273 net.cpp:435] conv5 <- conv4
I0501 03:35:33.168378 30273 net.cpp:409] conv5 -> conv5
I0501 03:35:33.181659 30273 net.cpp:144] Setting up conv5
I0501 03:35:33.181677 30273 net.cpp:151] Top shape: 20 128 10 10 (256000)
I0501 03:35:33.181680 30273 net.cpp:159] Memory required for data: 13856240
I0501 03:35:33.181690 30273 layer_factory.hpp:77] Creating layer relu5
I0501 03:35:33.181697 30273 net.cpp:94] Creating Layer relu5
I0501 03:35:33.181700 30273 net.cpp:435] relu5 <- conv5
I0501 03:35:33.181705 30273 net.cpp:396] relu5 -> conv5 (in-place)
I0501 03:35:33.181712 30273 net.cpp:144] Setting up relu5
I0501 03:35:33.181716 30273 net.cpp:151] Top shape: 20 128 10 10 (256000)
I0501 03:35:33.181720 30273 net.cpp:159] Memory required for data: 14880240
I0501 03:35:33.181721 30273 layer_factory.hpp:77] Creating layer pool5
I0501 03:35:33.181726 30273 net.cpp:94] Creating Layer pool5
I0501 03:35:33.181730 30273 net.cpp:435] pool5 <- conv5
I0501 03:35:33.181735 30273 net.cpp:409] pool5 -> pool5
I0501 03:35:33.181780 30273 net.cpp:144] Setting up pool5
I0501 03:35:33.181787 30273 net.cpp:151] Top shape: 20 128 5 5 (64000)
I0501 03:35:33.181790 30273 net.cpp:159] Memory required for data: 15136240
I0501 03:35:33.181793 30273 layer_factory.hpp:77] Creating layer ip1
I0501 03:35:33.181804 30273 net.cpp:94] Creating Layer ip1
I0501 03:35:33.181808 30273 net.cpp:435] ip1 <- pool5
I0501 03:35:33.181814 30273 net.cpp:409] ip1 -> ip1
I0501 03:35:33.261245 30273 net.cpp:144] Setting up ip1
I0501 03:35:33.261281 30273 net.cpp:151] Top shape: 20 1024 (20480)
I0501 03:35:33.261286 30273 net.cpp:159] Memory required for data: 15218160
I0501 03:35:33.261293 30273 layer_factory.hpp:77] Creating layer ip2
I0501 03:35:33.261303 30273 net.cpp:94] Creating Layer ip2
I0501 03:35:33.261308 30273 net.cpp:435] ip2 <- ip1
I0501 03:35:33.261315 30273 net.cpp:409] ip2 -> ip2
I0501 03:35:33.274610 30273 net.cpp:144] Setting up ip2
I0501 03:35:33.274626 30273 net.cpp:151] Top shape: 20 512 (10240)
I0501 03:35:33.274631 30273 net.cpp:159] Memory required for data: 15259120
I0501 03:35:33.274636 30273 layer_factory.hpp:77] Creating layer ip3
I0501 03:35:33.274648 30273 net.cpp:94] Creating Layer ip3
I0501 03:35:33.274652 30273 net.cpp:435] ip3 <- ip2
I0501 03:35:33.274658 30273 net.cpp:409] ip3 -> ip3
I0501 03:35:33.275406 30273 net.cpp:144] Setting up ip3
I0501 03:35:33.275416 30273 net.cpp:151] Top shape: 20 50 (1000)
I0501 03:35:33.275420 30273 net.cpp:159] Memory required for data: 15263120
I0501 03:35:33.275424 30273 layer_factory.hpp:77] Creating layer ip3_ip3_0_split
I0501 03:35:33.275430 30273 net.cpp:94] Creating Layer ip3_ip3_0_split
I0501 03:35:33.275434 30273 net.cpp:435] ip3_ip3_0_split <- ip3
I0501 03:35:33.275439 30273 net.cpp:409] ip3_ip3_0_split -> ip3_ip3_0_split_0
I0501 03:35:33.275444 30273 net.cpp:409] ip3_ip3_0_split -> ip3_ip3_0_split_1
I0501 03:35:33.275488 30273 net.cpp:144] Setting up ip3_ip3_0_split
I0501 03:35:33.275494 30273 net.cpp:151] Top shape: 20 50 (1000)
I0501 03:35:33.275497 30273 net.cpp:151] Top shape: 20 50 (1000)
I0501 03:35:33.275501 30273 net.cpp:159] Memory required for data: 15271120
I0501 03:35:33.275503 30273 layer_factory.hpp:77] Creating layer accuracy
I0501 03:35:33.275509 30273 net.cpp:94] Creating Layer accuracy
I0501 03:35:33.275512 30273 net.cpp:435] accuracy <- ip3_ip3_0_split_0
I0501 03:35:33.275516 30273 net.cpp:435] accuracy <- label_intercept_1_split_0
I0501 03:35:33.275521 30273 net.cpp:409] accuracy -> accuracy
…
