…
I0505 06:06:28.990792  3728 net.cpp:323] The NetState phase (0) differed from the phase (1) specified by a rule in layer intercept
I0505 06:06:28.990808  3728 net.cpp:323] The NetState phase (0) differed from the phase (1) specified by a rule in layer accuracy
I0505 06:06:28.990887  3728 net.cpp:52] Initializing net from parameters: 
state {
  phase: TRAIN
}
layer {
  name: "parameters"
  type: "HDF5Data"
  top: "data"
  top: "label"
  include {
    phase: TRAIN
  }
  hdf5_data_param {
    source: "/home/purduethu/scratch/radon/d/deng106/CNNStatisticalModel/distributions/input/5_distributions_400_sample_size_train-distributions-path.txt"
    batch_size: 20
  }
}
layer {
  name: "conv1"
  type: "Convolution"
  bottom: "data"
  top: "conv1"
  param {
    lr_mult: 1
  }
  param {
    lr_mult: 2
  }
  convolution_param {
    num_output: 64
    pad: 2
    kernel_size: 5
    stride: 1
    weight_filler {
      type: "gaussian"
      std: 0.0001
    }
    bias_filler {
      type: "constant"
    }
  }
}
layer {
  name: "relu1"
  type: "ReLU"
  bottom: "conv1"
  top: "conv1"
}
layer {
  name: "pool1"
  type: "Pooling"
  bottom: "conv1"
  top: "pool1"
  pooling_param {
    pool: MAX
    kernel_size: 3
    stride: 2
  }
}
layer {
  name: "conv2"
  type: "Convolution"
  bottom: "pool1"
  top: "conv2"
  param {
    lr_mult: 1
  }
  param {
    lr_mult: 2
  }
  convolution_param {
    num_output: 128
    pad: 2
    kernel_size: 5
    stride: 1
    weight_filler {
      type: "gaussian"
      std: 0.01
    }
    bias_filler {
      type: "constant"
    }
  }
}
layer {
  name: "relu2"
  type: "ReLU"
  bottom: "conv2"
  top: "conv2"
}
layer {
  name: "conv3"
  type: "Convolution"
  bottom: "conv2"
  top: "conv3"
  param {
    lr_mult: 1
  }
  param {
    lr_mult: 2
  }
  convolution_param {
    num_output: 128
    pad: 2
    kernel_size: 5
    stride: 1
    weight_filler {
      type: "gaussian"
      std: 0.01
    }
    bias_filler {
      type: "constant"
    }
  }
}
layer {
  name: "relu3"
  type: "ReLU"
  bottom: "conv3"
  top: "conv3"
}
layer {
  name: "pool3"
  type: "Pooling"
  bottom: "conv3"
  top: "pool3"
  pooling_param {
    pool: AVE
    kernel_size: 3
    stride: 2
  }
}
layer {
  name: "ip1"
  type: "InnerProduct"
  bottom: "pool3"
  top: "ip1"
  param {
    lr_mult: 1
  }
  param {
    lr_mult: 2
  }
  inner_product_param {
    num_output: 512
    weight_filler {
      type: "gaussian"
      std: 0.1
    }
    bias_filler {
      type: "constant"
    }
  }
}
layer {
  name: "ip2"
  type: "InnerProduct"
  bottom: "ip1"
  top: "ip2"
  param {
    lr_mult: 1
  }
  param {
    lr_mult: 2
  }
  inner_product_param {
    num_output: 256
    weight_filler {
      type: "gaussian"
      std: 0.1
    }
    bias_filler {
      type: "constant"
    }
  }
}
layer {
  name: "ip3"
  type: "InnerProduct"
  bottom: "ip2"
  top: "ip3"
  param {
    lr_mult: 1
  }
  param {
    lr_mult: 2
  }
  inner_product_param {
    num_output: 50
    weight_filler {
      type: "gaussian"
      std: 0.1
    }
    bias_filler {
      type: "constant"
    }
  }
}
layer {
  name: "loss"
  type: "SoftmaxWithLoss"
  bottom: "ip3"
  bottom: "label"
  top: "loss"
}
I0505 06:06:28.990952  3728 layer_factory.hpp:77] Creating layer parameters
I0505 06:06:28.990965  3728 net.cpp:94] Creating Layer parameters
I0505 06:06:28.990972  3728 net.cpp:409] parameters -> data
I0505 06:06:28.991005  3728 net.cpp:409] parameters -> label
I0505 06:06:28.991016  3728 hdf5_data_layer.cpp:79] Loading list of HDF5 filenames from: /home/purduethu/scratch/radon/d/deng106/CNNStatisticalModel/distributions/input/5_distributions_400_sample_size_train-distributions-path.txt
I0505 06:06:28.991040  3728 hdf5_data_layer.cpp:93] Number of HDF5 files: 1
I0505 06:06:28.991624  3728 hdf5.cpp:32] Datatype class: H5T_FLOAT
I0505 06:06:29.053339  3728 hdf5.cpp:35] Datatype class: H5T_INTEGER
I0505 06:06:29.054471  3728 net.cpp:144] Setting up parameters
I0505 06:06:29.054491  3728 net.cpp:151] Top shape: 20 1 20 20 (8000)
I0505 06:06:29.054498  3728 net.cpp:151] Top shape: 20 (20)
I0505 06:06:29.054502  3728 net.cpp:159] Memory required for data: 32080
I0505 06:06:29.054510  3728 layer_factory.hpp:77] Creating layer conv1
I0505 06:06:29.054529  3728 net.cpp:94] Creating Layer conv1
I0505 06:06:29.054535  3728 net.cpp:435] conv1 <- data
I0505 06:06:29.054548  3728 net.cpp:409] conv1 -> conv1
I0505 06:06:29.059270  3728 net.cpp:144] Setting up conv1
I0505 06:06:29.059286  3728 net.cpp:151] Top shape: 20 64 20 20 (512000)
I0505 06:06:29.059290  3728 net.cpp:159] Memory required for data: 2080080
I0505 06:06:29.059303  3728 layer_factory.hpp:77] Creating layer relu1
I0505 06:06:29.059312  3728 net.cpp:94] Creating Layer relu1
I0505 06:06:29.059316  3728 net.cpp:435] relu1 <- conv1
I0505 06:06:29.059321  3728 net.cpp:396] relu1 -> conv1 (in-place)
I0505 06:06:29.059339  3728 net.cpp:144] Setting up relu1
I0505 06:06:29.059345  3728 net.cpp:151] Top shape: 20 64 20 20 (512000)
I0505 06:06:29.059347  3728 net.cpp:159] Memory required for data: 4128080
I0505 06:06:29.059351  3728 layer_factory.hpp:77] Creating layer pool1
I0505 06:06:29.059360  3728 net.cpp:94] Creating Layer pool1
I0505 06:06:29.059363  3728 net.cpp:435] pool1 <- conv1
I0505 06:06:29.059368  3728 net.cpp:409] pool1 -> pool1
I0505 06:06:29.059409  3728 net.cpp:144] Setting up pool1
I0505 06:06:29.059417  3728 net.cpp:151] Top shape: 20 64 10 10 (128000)
I0505 06:06:29.059420  3728 net.cpp:159] Memory required for data: 4640080
I0505 06:06:29.059424  3728 layer_factory.hpp:77] Creating layer conv2
I0505 06:06:29.059433  3728 net.cpp:94] Creating Layer conv2
I0505 06:06:29.059437  3728 net.cpp:435] conv2 <- pool1
I0505 06:06:29.059442  3728 net.cpp:409] conv2 -> conv2
I0505 06:06:29.069739  3728 net.cpp:144] Setting up conv2
I0505 06:06:29.069771  3728 net.cpp:151] Top shape: 20 128 10 10 (256000)
I0505 06:06:29.069775  3728 net.cpp:159] Memory required for data: 5664080
I0505 06:06:29.069784  3728 layer_factory.hpp:77] Creating layer relu2
I0505 06:06:29.069790  3728 net.cpp:94] Creating Layer relu2
I0505 06:06:29.069794  3728 net.cpp:435] relu2 <- conv2
I0505 06:06:29.069799  3728 net.cpp:396] relu2 -> conv2 (in-place)
I0505 06:06:29.069808  3728 net.cpp:144] Setting up relu2
I0505 06:06:29.069813  3728 net.cpp:151] Top shape: 20 128 10 10 (256000)
I0505 06:06:29.069816  3728 net.cpp:159] Memory required for data: 6688080
I0505 06:06:29.069819  3728 layer_factory.hpp:77] Creating layer conv3
I0505 06:06:29.069828  3728 net.cpp:94] Creating Layer conv3
I0505 06:06:29.069831  3728 net.cpp:435] conv3 <- conv2
I0505 06:06:29.069838  3728 net.cpp:409] conv3 -> conv3
I0505 06:06:29.087530  3728 net.cpp:144] Setting up conv3
I0505 06:06:29.087546  3728 net.cpp:151] Top shape: 20 128 10 10 (256000)
I0505 06:06:29.087551  3728 net.cpp:159] Memory required for data: 7712080
I0505 06:06:29.087559  3728 layer_factory.hpp:77] Creating layer relu3
I0505 06:06:29.087574  3728 net.cpp:94] Creating Layer relu3
I0505 06:06:29.087579  3728 net.cpp:435] relu3 <- conv3
I0505 06:06:29.087584  3728 net.cpp:396] relu3 -> conv3 (in-place)
I0505 06:06:29.087591  3728 net.cpp:144] Setting up relu3
I0505 06:06:29.087596  3728 net.cpp:151] Top shape: 20 128 10 10 (256000)
I0505 06:06:29.087600  3728 net.cpp:159] Memory required for data: 8736080
I0505 06:06:29.087604  3728 layer_factory.hpp:77] Creating layer pool3
I0505 06:06:29.087610  3728 net.cpp:94] Creating Layer pool3
I0505 06:06:29.087620  3728 net.cpp:435] pool3 <- conv3
I0505 06:06:29.087626  3728 net.cpp:409] pool3 -> pool3
I0505 06:06:29.087661  3728 net.cpp:144] Setting up pool3
I0505 06:06:29.087669  3728 net.cpp:151] Top shape: 20 128 5 5 (64000)
I0505 06:06:29.087673  3728 net.cpp:159] Memory required for data: 8992080
I0505 06:06:29.087677  3728 layer_factory.hpp:77] Creating layer ip1
I0505 06:06:29.087687  3728 net.cpp:94] Creating Layer ip1
I0505 06:06:29.087692  3728 net.cpp:435] ip1 <- pool3
I0505 06:06:29.087697  3728 net.cpp:409] ip1 -> ip1
I0505 06:06:29.129086  3728 net.cpp:144] Setting up ip1
I0505 06:06:29.129106  3728 net.cpp:151] Top shape: 20 512 (10240)
I0505 06:06:29.129109  3728 net.cpp:159] Memory required for data: 9033040
I0505 06:06:29.129117  3728 layer_factory.hpp:77] Creating layer ip2
I0505 06:06:29.129124  3728 net.cpp:94] Creating Layer ip2
I0505 06:06:29.129129  3728 net.cpp:435] ip2 <- ip1
I0505 06:06:29.129135  3728 net.cpp:409] ip2 -> ip2
I0505 06:06:29.132400  3728 net.cpp:144] Setting up ip2
I0505 06:06:29.132408  3728 net.cpp:151] Top shape: 20 256 (5120)
I0505 06:06:29.132412  3728 net.cpp:159] Memory required for data: 9053520
I0505 06:06:29.132421  3728 layer_factory.hpp:77] Creating layer ip3
I0505 06:06:29.132427  3728 net.cpp:94] Creating Layer ip3
I0505 06:06:29.132431  3728 net.cpp:435] ip3 <- ip2
I0505 06:06:29.132436  3728 net.cpp:409] ip3 -> ip3
I0505 06:06:29.133491  3728 net.cpp:144] Setting up ip3
I0505 06:06:29.133504  3728 net.cpp:151] Top shape: 20 50 (1000)
I0505 06:06:29.133508  3728 net.cpp:159] Memory required for data: 9057520
I0505 06:06:29.133515  3728 layer_factory.hpp:77] Creating layer loss
I0505 06:06:29.133522  3728 net.cpp:94] Creating Layer loss
I0505 06:06:29.133525  3728 net.cpp:435] loss <- ip3
I0505 06:06:29.133530  3728 net.cpp:435] loss <- label
I0505 06:06:29.133538  3728 net.cpp:409] loss -> loss
I0505 06:06:29.133549  3728 layer_factory.hpp:77] Creating layer loss
…
I0505 06:06:29.133991  3728 solver.cpp:181] Creating test net (#0) specified by net file: ./protocol/dis_5_400_dimension.protocol_distribution
I0505 06:06:29.134016  3728 net.cpp:323] The NetState phase (1) differed from the phase (0) specified by a rule in layer parameters
I0505 06:06:29.134107  3728 net.cpp:52] Initializing net from parameters: 
state {
  phase: TEST
}
layer {
  name: "intercept"
  type: "HDF5Data"
  top: "data"
  top: "label"
  include {
    phase: TEST
  }
  hdf5_data_param {
    source: "/home/purduethu/scratch/radon/d/deng106/CNNStatisticalModel/distributions/input/5_distributions_400_sample_size_test-distributions-path.txt"
    batch_size: 20
  }
}
layer {
  name: "conv1"
  type: "Convolution"
  bottom: "data"
  top: "conv1"
  param {
    lr_mult: 1
  }
  param {
    lr_mult: 2
  }
  convolution_param {
    num_output: 64
    pad: 2
    kernel_size: 5
    stride: 1
    weight_filler {
      type: "gaussian"
      std: 0.0001
    }
    bias_filler {
      type: "constant"
    }
  }
}
layer {
  name: "relu1"
  type: "ReLU"
  bottom: "conv1"
  top: "conv1"
}
layer {
  name: "pool1"
  type: "Pooling"
  bottom: "conv1"
  top: "pool1"
  pooling_param {
    pool: MAX
    kernel_size: 3
    stride: 2
  }
}
layer {
  name: "conv2"
  type: "Convolution"
  bottom: "pool1"
  top: "conv2"
  param {
    lr_mult: 1
  }
  param {
    lr_mult: 2
  }
  convolution_param {
    num_output: 128
    pad: 2
    kernel_size: 5
    stride: 1
    weight_filler {
      type: "gaussian"
      std: 0.01
    }
    bias_filler {
      type: "constant"
    }
  }
}
layer {
  name: "relu2"
  type: "ReLU"
  bottom: "conv2"
  top: "conv2"
}
layer {
  name: "conv3"
  type: "Convolution"
  bottom: "conv2"
  top: "conv3"
  param {
    lr_mult: 1
  }
  param {
    lr_mult: 2
  }
  convolution_param {
    num_output: 128
    pad: 2
    kernel_size: 5
    stride: 1
    weight_filler {
      type: "gaussian"
      std: 0.01
    }
    bias_filler {
      type: "constant"
    }
  }
}
layer {
  name: "relu3"
  type: "ReLU"
  bottom: "conv3"
  top: "conv3"
}
layer {
  name: "pool3"
  type: "Pooling"
  bottom: "conv3"
  top: "pool3"
  pooling_param {
    pool: AVE
    kernel_size: 3
    stride: 2
  }
}
layer {
  name: "ip1"
  type: "InnerProduct"
  bottom: "pool3"
  top: "ip1"
  param {
    lr_mult: 1
  }
  param {
    lr_mult: 2
  }
  inner_product_param {
    num_output: 512
    weight_filler {
      type: "gaussian"
      std: 0.1
    }
    bias_filler {
      type: "constant"
    }
  }
}
layer {
  name: "ip2"
  type: "InnerProduct"
  bottom: "ip1"
  top: "ip2"
  param {
    lr_mult: 1
  }
  param {
    lr_mult: 2
  }
  inner_product_param {
    num_output: 256
    weight_filler {
      type: "gaussian"
      std: 0.1
    }
    bias_filler {
      type: "constant"
    }
  }
}
layer {
  name: "ip3"
  type: "InnerProduct"
  bottom: "ip2"
  top: "ip3"
  param {
    lr_mult: 1
  }
  param {
    lr_mult: 2
  }
  inner_product_param {
    num_output: 50
    weight_filler {
      type: "gaussian"
      std: 0.1
    }
    bias_filler {
      type: "constant"
    }
  }
}
layer {
  name: "accuracy"
  type: "Accuracy"
  bottom: "ip3"
  bottom: "label"
  top: "accuracy"
  include {
    phase: TEST
  }
}
layer {
  name: "loss"
  type: "SoftmaxWithLoss"
  bottom: "ip3"
  bottom: "label"
  top: "loss"
}
I0505 06:06:29.134172  3728 layer_factory.hpp:77] Creating layer intercept
I0505 06:06:29.134181  3728 net.cpp:94] Creating Layer intercept
I0505 06:06:29.134186  3728 net.cpp:409] intercept -> data
I0505 06:06:29.134193  3728 net.cpp:409] intercept -> label
I0505 06:06:29.134201  3728 hdf5_data_layer.cpp:79] Loading list of HDF5 filenames from: /home/purduethu/scratch/radon/d/deng106/CNNStatisticalModel/distributions/input/5_distributions_400_sample_size_test-distributions-path.txt
I0505 06:06:29.134219  3728 hdf5_data_layer.cpp:93] Number of HDF5 files: 1
I0505 06:06:29.149935  3728 net.cpp:144] Setting up intercept
I0505 06:06:29.149971  3728 net.cpp:151] Top shape: 20 1 20 20 (8000)
I0505 06:06:29.149976  3728 net.cpp:151] Top shape: 20 (20)
I0505 06:06:29.149981  3728 net.cpp:159] Memory required for data: 32080
I0505 06:06:29.149986  3728 layer_factory.hpp:77] Creating layer label_intercept_1_split
I0505 06:06:29.150007  3728 net.cpp:94] Creating Layer label_intercept_1_split
I0505 06:06:29.150020  3728 net.cpp:435] label_intercept_1_split <- label
I0505 06:06:29.150027  3728 net.cpp:409] label_intercept_1_split -> label_intercept_1_split_0
I0505 06:06:29.150037  3728 net.cpp:409] label_intercept_1_split -> label_intercept_1_split_1
I0505 06:06:29.150065  3728 net.cpp:144] Setting up label_intercept_1_split
I0505 06:06:29.150071  3728 net.cpp:151] Top shape: 20 (20)
I0505 06:06:29.150076  3728 net.cpp:151] Top shape: 20 (20)
I0505 06:06:29.150079  3728 net.cpp:159] Memory required for data: 32240
I0505 06:06:29.150091  3728 layer_factory.hpp:77] Creating layer conv1
I0505 06:06:29.150104  3728 net.cpp:94] Creating Layer conv1
I0505 06:06:29.150107  3728 net.cpp:435] conv1 <- data
I0505 06:06:29.150112  3728 net.cpp:409] conv1 -> conv1
I0505 06:06:29.150751  3728 net.cpp:144] Setting up conv1
I0505 06:06:29.150765  3728 net.cpp:151] Top shape: 20 64 20 20 (512000)
I0505 06:06:29.150769  3728 net.cpp:159] Memory required for data: 2080240
I0505 06:06:29.150779  3728 layer_factory.hpp:77] Creating layer relu1
I0505 06:06:29.150787  3728 net.cpp:94] Creating Layer relu1
I0505 06:06:29.150791  3728 net.cpp:435] relu1 <- conv1
I0505 06:06:29.150796  3728 net.cpp:396] relu1 -> conv1 (in-place)
I0505 06:06:29.150804  3728 net.cpp:144] Setting up relu1
I0505 06:06:29.150810  3728 net.cpp:151] Top shape: 20 64 20 20 (512000)
I0505 06:06:29.150813  3728 net.cpp:159] Memory required for data: 4128240
I0505 06:06:29.150816  3728 layer_factory.hpp:77] Creating layer pool1
I0505 06:06:29.150823  3728 net.cpp:94] Creating Layer pool1
I0505 06:06:29.150827  3728 net.cpp:435] pool1 <- conv1
I0505 06:06:29.150832  3728 net.cpp:409] pool1 -> pool1
I0505 06:06:29.150866  3728 net.cpp:144] Setting up pool1
I0505 06:06:29.150872  3728 net.cpp:151] Top shape: 20 64 10 10 (128000)
I0505 06:06:29.150876  3728 net.cpp:159] Memory required for data: 4640240
I0505 06:06:29.150879  3728 layer_factory.hpp:77] Creating layer conv2
I0505 06:06:29.150887  3728 net.cpp:94] Creating Layer conv2
I0505 06:06:29.150892  3728 net.cpp:435] conv2 <- pool1
I0505 06:06:29.150897  3728 net.cpp:409] conv2 -> conv2
I0505 06:06:29.158236  3728 net.cpp:144] Setting up conv2
I0505 06:06:29.158251  3728 net.cpp:151] Top shape: 20 128 10 10 (256000)
I0505 06:06:29.158255  3728 net.cpp:159] Memory required for data: 5664240
I0505 06:06:29.158263  3728 layer_factory.hpp:77] Creating layer relu2
I0505 06:06:29.158270  3728 net.cpp:94] Creating Layer relu2
I0505 06:06:29.158273  3728 net.cpp:435] relu2 <- conv2
I0505 06:06:29.158279  3728 net.cpp:396] relu2 -> conv2 (in-place)
I0505 06:06:29.158287  3728 net.cpp:144] Setting up relu2
I0505 06:06:29.158291  3728 net.cpp:151] Top shape: 20 128 10 10 (256000)
I0505 06:06:29.158294  3728 net.cpp:159] Memory required for data: 6688240
I0505 06:06:29.158298  3728 layer_factory.hpp:77] Creating layer conv3
I0505 06:06:29.158306  3728 net.cpp:94] Creating Layer conv3
I0505 06:06:29.158310  3728 net.cpp:435] conv3 <- conv2
I0505 06:06:29.158315  3728 net.cpp:409] conv3 -> conv3
I0505 06:06:29.171861  3728 net.cpp:144] Setting up conv3
I0505 06:06:29.171875  3728 net.cpp:151] Top shape: 20 128 10 10 (256000)
I0505 06:06:29.171880  3728 net.cpp:159] Memory required for data: 7712240
I0505 06:06:29.171890  3728 layer_factory.hpp:77] Creating layer relu3
I0505 06:06:29.171896  3728 net.cpp:94] Creating Layer relu3
I0505 06:06:29.171900  3728 net.cpp:435] relu3 <- conv3
I0505 06:06:29.171905  3728 net.cpp:396] relu3 -> conv3 (in-place)
I0505 06:06:29.171912  3728 net.cpp:144] Setting up relu3
I0505 06:06:29.171917  3728 net.cpp:151] Top shape: 20 128 10 10 (256000)
I0505 06:06:29.171921  3728 net.cpp:159] Memory required for data: 8736240
I0505 06:06:29.171926  3728 layer_factory.hpp:77] Creating layer pool3
I0505 06:06:29.171931  3728 net.cpp:94] Creating Layer pool3
I0505 06:06:29.171934  3728 net.cpp:435] pool3 <- conv3
I0505 06:06:29.171939  3728 net.cpp:409] pool3 -> pool3
I0505 06:06:29.171967  3728 net.cpp:144] Setting up pool3
I0505 06:06:29.171973  3728 net.cpp:151] Top shape: 20 128 5 5 (64000)
I0505 06:06:29.171980  3728 net.cpp:159] Memory required for data: 8992240
I0505 06:06:29.171984  3728 layer_factory.hpp:77] Creating layer ip1
I0505 06:06:29.171993  3728 net.cpp:94] Creating Layer ip1
I0505 06:06:29.171996  3728 net.cpp:435] ip1 <- pool3
I0505 06:06:29.172001  3728 net.cpp:409] ip1 -> ip1
I0505 06:06:29.213423  3728 net.cpp:144] Setting up ip1
I0505 06:06:29.213441  3728 net.cpp:151] Top shape: 20 512 (10240)
I0505 06:06:29.213445  3728 net.cpp:159] Memory required for data: 9033200
I0505 06:06:29.213460  3728 layer_factory.hpp:77] Creating layer ip2
I0505 06:06:29.213469  3728 net.cpp:94] Creating Layer ip2
I0505 06:06:29.213474  3728 net.cpp:435] ip2 <- ip1
I0505 06:06:29.213479  3728 net.cpp:409] ip2 -> ip2
I0505 06:06:29.216758  3728 net.cpp:144] Setting up ip2
I0505 06:06:29.216766  3728 net.cpp:151] Top shape: 20 256 (5120)
I0505 06:06:29.216770  3728 net.cpp:159] Memory required for data: 9053680
I0505 06:06:29.216778  3728 layer_factory.hpp:77] Creating layer ip3
I0505 06:06:29.216785  3728 net.cpp:94] Creating Layer ip3
I0505 06:06:29.216789  3728 net.cpp:435] ip3 <- ip2
I0505 06:06:29.216794  3728 net.cpp:409] ip3 -> ip3
I0505 06:06:29.217187  3728 net.cpp:144] Setting up ip3
I0505 06:06:29.217195  3728 net.cpp:151] Top shape: 20 50 (1000)
I0505 06:06:29.217197  3728 net.cpp:159] Memory required for data: 9057680
I0505 06:06:29.217203  3728 layer_factory.hpp:77] Creating layer ip3_ip3_0_split
I0505 06:06:29.217209  3728 net.cpp:94] Creating Layer ip3_ip3_0_split
I0505 06:06:29.217213  3728 net.cpp:435] ip3_ip3_0_split <- ip3
I0505 06:06:29.217217  3728 net.cpp:409] ip3_ip3_0_split -> ip3_ip3_0_split_0
I0505 06:06:29.217223  3728 net.cpp:409] ip3_ip3_0_split -> ip3_ip3_0_split_1
I0505 06:06:29.217249  3728 net.cpp:144] Setting up ip3_ip3_0_split
I0505 06:06:29.217255  3728 net.cpp:151] Top shape: 20 50 (1000)
I0505 06:06:29.217259  3728 net.cpp:151] Top shape: 20 50 (1000)
I0505 06:06:29.217263  3728 net.cpp:159] Memory required for data: 9065680
I0505 06:06:29.217267  3728 layer_factory.hpp:77] Creating layer accuracy
I0505 06:06:29.217278  3728 net.cpp:94] Creating Layer accuracy
I0505 06:06:29.217283  3728 net.cpp:435] accuracy <- ip3_ip3_0_split_0
I0505 06:06:29.217286  3728 net.cpp:435] accuracy <- label_intercept_1_split_0
I0505 06:06:29.217291  3728 net.cpp:409] accuracy -> accuracy
…
