…
I0505 08:21:34.752823  5266 net.cpp:323] The NetState phase (0) differed from the phase (1) specified by a rule in layer intercept
I0505 08:21:34.752838  5266 net.cpp:323] The NetState phase (0) differed from the phase (1) specified by a rule in layer accuracy
I0505 08:21:34.752925  5266 net.cpp:52] Initializing net from parameters: 
state {
  phase: TRAIN
}
layer {
  name: "parameters"
  type: "HDF5Data"
  top: "data"
  top: "label"
  include {
    phase: TRAIN
  }
  hdf5_data_param {
    source: "/home/purduethu/scratch/radon/d/deng106/CNNStatisticalModel/distributions/input/50_distributions_400_sample_size_train-distributions-path.txt"
    batch_size: 20
  }
}
layer {
  name: "conv1"
  type: "Convolution"
  bottom: "data"
  top: "conv1"
  param {
    lr_mult: 1
  }
  param {
    lr_mult: 2
  }
  convolution_param {
    num_output: 64
    pad: 2
    kernel_size: 5
    stride: 1
    weight_filler {
      type: "gaussian"
      std: 0.0001
    }
    bias_filler {
      type: "constant"
    }
  }
}
layer {
  name: "relu1"
  type: "ReLU"
  bottom: "conv1"
  top: "conv1"
}
layer {
  name: "pool1"
  type: "Pooling"
  bottom: "conv1"
  top: "pool1"
  pooling_param {
    pool: MAX
    kernel_size: 3
    stride: 2
  }
}
layer {
  name: "conv2"
  type: "Convolution"
  bottom: "pool1"
  top: "conv2"
  param {
    lr_mult: 1
  }
  param {
    lr_mult: 2
  }
  convolution_param {
    num_output: 128
    pad: 2
    kernel_size: 5
    stride: 1
    weight_filler {
      type: "gaussian"
      std: 0.01
    }
    bias_filler {
      type: "constant"
    }
  }
}
layer {
  name: "relu2"
  type: "ReLU"
  bottom: "conv2"
  top: "conv2"
}
layer {
  name: "conv3"
  type: "Convolution"
  bottom: "conv2"
  top: "conv3"
  param {
    lr_mult: 1
  }
  param {
    lr_mult: 2
  }
  convolution_param {
    num_output: 128
    pad: 2
    kernel_size: 5
    stride: 1
    weight_filler {
      type: "gaussian"
      std: 0.01
    }
    bias_filler {
      type: "constant"
    }
  }
}
layer {
  name: "relu3"
  type: "ReLU"
  bottom: "conv3"
  top: "conv3"
}
layer {
  name: "pool3"
  type: "Pooling"
  bottom: "conv3"
  top: "pool3"
  pooling_param {
    pool: AVE
    kernel_size: 3
    stride: 2
  }
}
layer {
  name: "ip1"
  type: "InnerProduct"
  bottom: "pool3"
  top: "ip1"
  param {
    lr_mult: 1
  }
  param {
    lr_mult: 2
  }
  inner_product_param {
    num_output: 512
    weight_filler {
      type: "gaussian"
      std: 0.1
    }
    bias_filler {
      type: "constant"
    }
  }
}
layer {
  name: "ip2"
  type: "InnerProduct"
  bottom: "ip1"
  top: "ip2"
  param {
    lr_mult: 1
  }
  param {
    lr_mult: 2
  }
  inner_product_param {
    num_output: 256
    weight_filler {
      type: "gaussian"
      std: 0.1
    }
    bias_filler {
      type: "constant"
    }
  }
}
layer {
  name: "ip3"
  type: "InnerProduct"
  bottom: "ip2"
  top: "ip3"
  param {
    lr_mult: 1
  }
  param {
    lr_mult: 2
  }
  inner_product_param {
    num_output: 50
    weight_filler {
      type: "gaussian"
      std: 0.1
    }
    bias_filler {
      type: "constant"
    }
  }
}
layer {
  name: "loss"
  type: "SoftmaxWithLoss"
  bottom: "ip3"
  bottom: "label"
  top: "loss"
}
I0505 08:21:34.752990  5266 layer_factory.hpp:77] Creating layer parameters
I0505 08:21:34.753003  5266 net.cpp:94] Creating Layer parameters
I0505 08:21:34.753015  5266 net.cpp:409] parameters -> data
I0505 08:21:34.753036  5266 net.cpp:409] parameters -> label
I0505 08:21:34.753044  5266 hdf5_data_layer.cpp:79] Loading list of HDF5 filenames from: /home/purduethu/scratch/radon/d/deng106/CNNStatisticalModel/distributions/input/50_distributions_400_sample_size_train-distributions-path.txt
I0505 08:21:34.753067  5266 hdf5_data_layer.cpp:93] Number of HDF5 files: 1
I0505 08:21:34.753625  5266 hdf5.cpp:32] Datatype class: H5T_FLOAT
I0505 08:21:35.397820  5266 hdf5.cpp:35] Datatype class: H5T_INTEGER
I0505 08:21:35.400957  5266 net.cpp:144] Setting up parameters
I0505 08:21:35.400976  5266 net.cpp:151] Top shape: 20 1 20 20 (8000)
I0505 08:21:35.400982  5266 net.cpp:151] Top shape: 20 (20)
I0505 08:21:35.400985  5266 net.cpp:159] Memory required for data: 32080
I0505 08:21:35.400992  5266 layer_factory.hpp:77] Creating layer conv1
I0505 08:21:35.401011  5266 net.cpp:94] Creating Layer conv1
I0505 08:21:35.401017  5266 net.cpp:435] conv1 <- data
I0505 08:21:35.401027  5266 net.cpp:409] conv1 -> conv1
I0505 08:21:35.405747  5266 net.cpp:144] Setting up conv1
I0505 08:21:35.405763  5266 net.cpp:151] Top shape: 20 64 20 20 (512000)
I0505 08:21:35.405767  5266 net.cpp:159] Memory required for data: 2080080
I0505 08:21:35.405778  5266 layer_factory.hpp:77] Creating layer relu1
I0505 08:21:35.405786  5266 net.cpp:94] Creating Layer relu1
I0505 08:21:35.405791  5266 net.cpp:435] relu1 <- conv1
I0505 08:21:35.405796  5266 net.cpp:396] relu1 -> conv1 (in-place)
I0505 08:21:35.405807  5266 net.cpp:144] Setting up relu1
I0505 08:21:35.405812  5266 net.cpp:151] Top shape: 20 64 20 20 (512000)
I0505 08:21:35.405814  5266 net.cpp:159] Memory required for data: 4128080
I0505 08:21:35.405817  5266 layer_factory.hpp:77] Creating layer pool1
I0505 08:21:35.405825  5266 net.cpp:94] Creating Layer pool1
I0505 08:21:35.405828  5266 net.cpp:435] pool1 <- conv1
I0505 08:21:35.405833  5266 net.cpp:409] pool1 -> pool1
I0505 08:21:35.405874  5266 net.cpp:144] Setting up pool1
I0505 08:21:35.405880  5266 net.cpp:151] Top shape: 20 64 10 10 (128000)
I0505 08:21:35.405884  5266 net.cpp:159] Memory required for data: 4640080
I0505 08:21:35.405887  5266 layer_factory.hpp:77] Creating layer conv2
I0505 08:21:35.405895  5266 net.cpp:94] Creating Layer conv2
I0505 08:21:35.405900  5266 net.cpp:435] conv2 <- pool1
I0505 08:21:35.405905  5266 net.cpp:409] conv2 -> conv2
I0505 08:21:35.416091  5266 net.cpp:144] Setting up conv2
I0505 08:21:35.416107  5266 net.cpp:151] Top shape: 20 128 10 10 (256000)
I0505 08:21:35.416111  5266 net.cpp:159] Memory required for data: 5664080
I0505 08:21:35.416119  5266 layer_factory.hpp:77] Creating layer relu2
I0505 08:21:35.416126  5266 net.cpp:94] Creating Layer relu2
I0505 08:21:35.416128  5266 net.cpp:435] relu2 <- conv2
I0505 08:21:35.416133  5266 net.cpp:396] relu2 -> conv2 (in-place)
I0505 08:21:35.416141  5266 net.cpp:144] Setting up relu2
I0505 08:21:35.416146  5266 net.cpp:151] Top shape: 20 128 10 10 (256000)
I0505 08:21:35.416148  5266 net.cpp:159] Memory required for data: 6688080
I0505 08:21:35.416152  5266 layer_factory.hpp:77] Creating layer conv3
I0505 08:21:35.416159  5266 net.cpp:94] Creating Layer conv3
I0505 08:21:35.416163  5266 net.cpp:435] conv3 <- conv2
I0505 08:21:35.416168  5266 net.cpp:409] conv3 -> conv3
I0505 08:21:35.433650  5266 net.cpp:144] Setting up conv3
I0505 08:21:35.433665  5266 net.cpp:151] Top shape: 20 128 10 10 (256000)
I0505 08:21:35.433670  5266 net.cpp:159] Memory required for data: 7712080
I0505 08:21:35.433688  5266 layer_factory.hpp:77] Creating layer relu3
I0505 08:21:35.433696  5266 net.cpp:94] Creating Layer relu3
I0505 08:21:35.433699  5266 net.cpp:435] relu3 <- conv3
I0505 08:21:35.433704  5266 net.cpp:396] relu3 -> conv3 (in-place)
I0505 08:21:35.433712  5266 net.cpp:144] Setting up relu3
I0505 08:21:35.433717  5266 net.cpp:151] Top shape: 20 128 10 10 (256000)
I0505 08:21:35.433719  5266 net.cpp:159] Memory required for data: 8736080
I0505 08:21:35.433722  5266 layer_factory.hpp:77] Creating layer pool3
I0505 08:21:35.433728  5266 net.cpp:94] Creating Layer pool3
I0505 08:21:35.433738  5266 net.cpp:435] pool3 <- conv3
I0505 08:21:35.433743  5266 net.cpp:409] pool3 -> pool3
I0505 08:21:35.433778  5266 net.cpp:144] Setting up pool3
I0505 08:21:35.433784  5266 net.cpp:151] Top shape: 20 128 5 5 (64000)
I0505 08:21:35.433787  5266 net.cpp:159] Memory required for data: 8992080
I0505 08:21:35.433790  5266 layer_factory.hpp:77] Creating layer ip1
I0505 08:21:35.433800  5266 net.cpp:94] Creating Layer ip1
I0505 08:21:35.433804  5266 net.cpp:435] ip1 <- pool3
I0505 08:21:35.433809  5266 net.cpp:409] ip1 -> ip1
I0505 08:21:35.473215  5266 net.cpp:144] Setting up ip1
I0505 08:21:35.473232  5266 net.cpp:151] Top shape: 20 512 (10240)
I0505 08:21:35.473235  5266 net.cpp:159] Memory required for data: 9033040
I0505 08:21:35.473242  5266 layer_factory.hpp:77] Creating layer ip2
I0505 08:21:35.473248  5266 net.cpp:94] Creating Layer ip2
I0505 08:21:35.473251  5266 net.cpp:435] ip2 <- ip1
I0505 08:21:35.473256  5266 net.cpp:409] ip2 -> ip2
I0505 08:21:35.476338  5266 net.cpp:144] Setting up ip2
I0505 08:21:35.476346  5266 net.cpp:151] Top shape: 20 256 (5120)
I0505 08:21:35.476349  5266 net.cpp:159] Memory required for data: 9053520
I0505 08:21:35.476357  5266 layer_factory.hpp:77] Creating layer ip3
I0505 08:21:35.476363  5266 net.cpp:94] Creating Layer ip3
I0505 08:21:35.476366  5266 net.cpp:435] ip3 <- ip2
I0505 08:21:35.476372  5266 net.cpp:409] ip3 -> ip3
I0505 08:21:35.477396  5266 net.cpp:144] Setting up ip3
I0505 08:21:35.477408  5266 net.cpp:151] Top shape: 20 50 (1000)
I0505 08:21:35.477411  5266 net.cpp:159] Memory required for data: 9057520
I0505 08:21:35.477417  5266 layer_factory.hpp:77] Creating layer loss
I0505 08:21:35.477423  5266 net.cpp:94] Creating Layer loss
I0505 08:21:35.477427  5266 net.cpp:435] loss <- ip3
I0505 08:21:35.477432  5266 net.cpp:435] loss <- label
I0505 08:21:35.477437  5266 net.cpp:409] loss -> loss
I0505 08:21:35.477447  5266 layer_factory.hpp:77] Creating layer loss
…
I0505 08:21:35.477867  5266 solver.cpp:181] Creating test net (#0) specified by net file: ./protocol/dis_50_400_dimension.protocol_distribution
I0505 08:21:35.477891  5266 net.cpp:323] The NetState phase (1) differed from the phase (0) specified by a rule in layer parameters
I0505 08:21:35.477979  5266 net.cpp:52] Initializing net from parameters: 
state {
  phase: TEST
}
layer {
  name: "intercept"
  type: "HDF5Data"
  top: "data"
  top: "label"
  include {
    phase: TEST
  }
  hdf5_data_param {
    source: "/home/purduethu/scratch/radon/d/deng106/CNNStatisticalModel/distributions/input/50_distributions_400_sample_size_test-distributions-path.txt"
    batch_size: 20
  }
}
layer {
  name: "conv1"
  type: "Convolution"
  bottom: "data"
  top: "conv1"
  param {
    lr_mult: 1
  }
  param {
    lr_mult: 2
  }
  convolution_param {
    num_output: 64
    pad: 2
    kernel_size: 5
    stride: 1
    weight_filler {
      type: "gaussian"
      std: 0.0001
    }
    bias_filler {
      type: "constant"
    }
  }
}
layer {
  name: "relu1"
  type: "ReLU"
  bottom: "conv1"
  top: "conv1"
}
layer {
  name: "pool1"
  type: "Pooling"
  bottom: "conv1"
  top: "pool1"
  pooling_param {
    pool: MAX
    kernel_size: 3
    stride: 2
  }
}
layer {
  name: "conv2"
  type: "Convolution"
  bottom: "pool1"
  top: "conv2"
  param {
    lr_mult: 1
  }
  param {
    lr_mult: 2
  }
  convolution_param {
    num_output: 128
    pad: 2
    kernel_size: 5
    stride: 1
    weight_filler {
      type: "gaussian"
      std: 0.01
    }
    bias_filler {
      type: "constant"
    }
  }
}
layer {
  name: "relu2"
  type: "ReLU"
  bottom: "conv2"
  top: "conv2"
}
layer {
  name: "conv3"
  type: "Convolution"
  bottom: "conv2"
  top: "conv3"
  param {
    lr_mult: 1
  }
  param {
    lr_mult: 2
  }
  convolution_param {
    num_output: 128
    pad: 2
    kernel_size: 5
    stride: 1
    weight_filler {
      type: "gaussian"
      std: 0.01
    }
    bias_filler {
      type: "constant"
    }
  }
}
layer {
  name: "relu3"
  type: "ReLU"
  bottom: "conv3"
  top: "conv3"
}
layer {
  name: "pool3"
  type: "Pooling"
  bottom: "conv3"
  top: "pool3"
  pooling_param {
    pool: AVE
    kernel_size: 3
    stride: 2
  }
}
layer {
  name: "ip1"
  type: "InnerProduct"
  bottom: "pool3"
  top: "ip1"
  param {
    lr_mult: 1
  }
  param {
    lr_mult: 2
  }
  inner_product_param {
    num_output: 512
    weight_filler {
      type: "gaussian"
      std: 0.1
    }
    bias_filler {
      type: "constant"
    }
  }
}
layer {
  name: "ip2"
  type: "InnerProduct"
  bottom: "ip1"
  top: "ip2"
  param {
    lr_mult: 1
  }
  param {
    lr_mult: 2
  }
  inner_product_param {
    num_output: 256
    weight_filler {
      type: "gaussian"
      std: 0.1
    }
    bias_filler {
      type: "constant"
    }
  }
}
layer {
  name: "ip3"
  type: "InnerProduct"
  bottom: "ip2"
  top: "ip3"
  param {
    lr_mult: 1
  }
  param {
    lr_mult: 2
  }
  inner_product_param {
    num_output: 50
    weight_filler {
      type: "gaussian"
      std: 0.1
    }
    bias_filler {
      type: "constant"
    }
  }
}
layer {
  name: "accuracy"
  type: "Accuracy"
  bottom: "ip3"
  bottom: "label"
  top: "accuracy"
  include {
    phase: TEST
  }
}
layer {
  name: "loss"
  type: "SoftmaxWithLoss"
  bottom: "ip3"
  bottom: "label"
  top: "loss"
}
I0505 08:21:35.478041  5266 layer_factory.hpp:77] Creating layer intercept
I0505 08:21:35.478049  5266 net.cpp:94] Creating Layer intercept
I0505 08:21:35.478054  5266 net.cpp:409] intercept -> data
I0505 08:21:35.478060  5266 net.cpp:409] intercept -> label
I0505 08:21:35.478066  5266 hdf5_data_layer.cpp:79] Loading list of HDF5 filenames from: /home/purduethu/scratch/radon/d/deng106/CNNStatisticalModel/distributions/input/50_distributions_400_sample_size_test-distributions-path.txt
I0505 08:21:35.478085  5266 hdf5_data_layer.cpp:93] Number of HDF5 files: 1
I0505 08:21:35.638120  5266 net.cpp:144] Setting up intercept
I0505 08:21:35.638155  5266 net.cpp:151] Top shape: 20 1 20 20 (8000)
I0505 08:21:35.638160  5266 net.cpp:151] Top shape: 20 (20)
I0505 08:21:35.638164  5266 net.cpp:159] Memory required for data: 32080
I0505 08:21:35.638170  5266 layer_factory.hpp:77] Creating layer label_intercept_1_split
I0505 08:21:35.638197  5266 net.cpp:94] Creating Layer label_intercept_1_split
I0505 08:21:35.638202  5266 net.cpp:435] label_intercept_1_split <- label
I0505 08:21:35.638208  5266 net.cpp:409] label_intercept_1_split -> label_intercept_1_split_0
I0505 08:21:35.638216  5266 net.cpp:409] label_intercept_1_split -> label_intercept_1_split_1
I0505 08:21:35.638243  5266 net.cpp:144] Setting up label_intercept_1_split
I0505 08:21:35.638249  5266 net.cpp:151] Top shape: 20 (20)
I0505 08:21:35.638253  5266 net.cpp:151] Top shape: 20 (20)
I0505 08:21:35.638257  5266 net.cpp:159] Memory required for data: 32240
I0505 08:21:35.638267  5266 layer_factory.hpp:77] Creating layer conv1
I0505 08:21:35.638278  5266 net.cpp:94] Creating Layer conv1
I0505 08:21:35.638281  5266 net.cpp:435] conv1 <- data
I0505 08:21:35.638286  5266 net.cpp:409] conv1 -> conv1
I0505 08:21:35.638949  5266 net.cpp:144] Setting up conv1
I0505 08:21:35.638962  5266 net.cpp:151] Top shape: 20 64 20 20 (512000)
I0505 08:21:35.638967  5266 net.cpp:159] Memory required for data: 2080240
I0505 08:21:35.638975  5266 layer_factory.hpp:77] Creating layer relu1
I0505 08:21:35.638983  5266 net.cpp:94] Creating Layer relu1
I0505 08:21:35.638985  5266 net.cpp:435] relu1 <- conv1
I0505 08:21:35.638990  5266 net.cpp:396] relu1 -> conv1 (in-place)
I0505 08:21:35.638998  5266 net.cpp:144] Setting up relu1
I0505 08:21:35.639003  5266 net.cpp:151] Top shape: 20 64 20 20 (512000)
I0505 08:21:35.639005  5266 net.cpp:159] Memory required for data: 4128240
I0505 08:21:35.639008  5266 layer_factory.hpp:77] Creating layer pool1
I0505 08:21:35.639015  5266 net.cpp:94] Creating Layer pool1
I0505 08:21:35.639019  5266 net.cpp:435] pool1 <- conv1
I0505 08:21:35.639024  5266 net.cpp:409] pool1 -> pool1
I0505 08:21:35.639055  5266 net.cpp:144] Setting up pool1
I0505 08:21:35.639061  5266 net.cpp:151] Top shape: 20 64 10 10 (128000)
I0505 08:21:35.639065  5266 net.cpp:159] Memory required for data: 4640240
I0505 08:21:35.639068  5266 layer_factory.hpp:77] Creating layer conv2
I0505 08:21:35.639076  5266 net.cpp:94] Creating Layer conv2
I0505 08:21:35.639080  5266 net.cpp:435] conv2 <- pool1
I0505 08:21:35.639084  5266 net.cpp:409] conv2 -> conv2
I0505 08:21:35.646450  5266 net.cpp:144] Setting up conv2
I0505 08:21:35.646463  5266 net.cpp:151] Top shape: 20 128 10 10 (256000)
I0505 08:21:35.646467  5266 net.cpp:159] Memory required for data: 5664240
I0505 08:21:35.646476  5266 layer_factory.hpp:77] Creating layer relu2
I0505 08:21:35.646481  5266 net.cpp:94] Creating Layer relu2
I0505 08:21:35.646486  5266 net.cpp:435] relu2 <- conv2
I0505 08:21:35.646491  5266 net.cpp:396] relu2 -> conv2 (in-place)
I0505 08:21:35.646497  5266 net.cpp:144] Setting up relu2
I0505 08:21:35.646502  5266 net.cpp:151] Top shape: 20 128 10 10 (256000)
I0505 08:21:35.646504  5266 net.cpp:159] Memory required for data: 6688240
I0505 08:21:35.646507  5266 layer_factory.hpp:77] Creating layer conv3
I0505 08:21:35.646515  5266 net.cpp:94] Creating Layer conv3
I0505 08:21:35.646518  5266 net.cpp:435] conv3 <- conv2
I0505 08:21:35.646523  5266 net.cpp:409] conv3 -> conv3
I0505 08:21:35.659699  5266 net.cpp:144] Setting up conv3
I0505 08:21:35.659713  5266 net.cpp:151] Top shape: 20 128 10 10 (256000)
I0505 08:21:35.659718  5266 net.cpp:159] Memory required for data: 7712240
I0505 08:21:35.659725  5266 layer_factory.hpp:77] Creating layer relu3
I0505 08:21:35.659732  5266 net.cpp:94] Creating Layer relu3
I0505 08:21:35.659736  5266 net.cpp:435] relu3 <- conv3
I0505 08:21:35.659741  5266 net.cpp:396] relu3 -> conv3 (in-place)
I0505 08:21:35.659747  5266 net.cpp:144] Setting up relu3
I0505 08:21:35.659752  5266 net.cpp:151] Top shape: 20 128 10 10 (256000)
I0505 08:21:35.659755  5266 net.cpp:159] Memory required for data: 8736240
I0505 08:21:35.659759  5266 layer_factory.hpp:77] Creating layer pool3
I0505 08:21:35.659764  5266 net.cpp:94] Creating Layer pool3
I0505 08:21:35.659767  5266 net.cpp:435] pool3 <- conv3
I0505 08:21:35.659771  5266 net.cpp:409] pool3 -> pool3
I0505 08:21:35.659796  5266 net.cpp:144] Setting up pool3
I0505 08:21:35.659806  5266 net.cpp:151] Top shape: 20 128 5 5 (64000)
I0505 08:21:35.659811  5266 net.cpp:159] Memory required for data: 8992240
I0505 08:21:35.659814  5266 layer_factory.hpp:77] Creating layer ip1
I0505 08:21:35.659821  5266 net.cpp:94] Creating Layer ip1
I0505 08:21:35.659824  5266 net.cpp:435] ip1 <- pool3
I0505 08:21:35.659828  5266 net.cpp:409] ip1 -> ip1
I0505 08:21:35.699384  5266 net.cpp:144] Setting up ip1
I0505 08:21:35.699401  5266 net.cpp:151] Top shape: 20 512 (10240)
I0505 08:21:35.699405  5266 net.cpp:159] Memory required for data: 9033200
I0505 08:21:35.699419  5266 layer_factory.hpp:77] Creating layer ip2
I0505 08:21:35.699426  5266 net.cpp:94] Creating Layer ip2
I0505 08:21:35.699430  5266 net.cpp:435] ip2 <- ip1
I0505 08:21:35.699435  5266 net.cpp:409] ip2 -> ip2
I0505 08:21:35.702560  5266 net.cpp:144] Setting up ip2
I0505 08:21:35.702569  5266 net.cpp:151] Top shape: 20 256 (5120)
I0505 08:21:35.702572  5266 net.cpp:159] Memory required for data: 9053680
I0505 08:21:35.702579  5266 layer_factory.hpp:77] Creating layer ip3
I0505 08:21:35.702586  5266 net.cpp:94] Creating Layer ip3
I0505 08:21:35.702589  5266 net.cpp:435] ip3 <- ip2
I0505 08:21:35.702594  5266 net.cpp:409] ip3 -> ip3
I0505 08:21:35.702960  5266 net.cpp:144] Setting up ip3
I0505 08:21:35.702966  5266 net.cpp:151] Top shape: 20 50 (1000)
I0505 08:21:35.702970  5266 net.cpp:159] Memory required for data: 9057680
I0505 08:21:35.702975  5266 layer_factory.hpp:77] Creating layer ip3_ip3_0_split
I0505 08:21:35.702980  5266 net.cpp:94] Creating Layer ip3_ip3_0_split
I0505 08:21:35.702983  5266 net.cpp:435] ip3_ip3_0_split <- ip3
I0505 08:21:35.702987  5266 net.cpp:409] ip3_ip3_0_split -> ip3_ip3_0_split_0
I0505 08:21:35.702993  5266 net.cpp:409] ip3_ip3_0_split -> ip3_ip3_0_split_1
I0505 08:21:35.703016  5266 net.cpp:144] Setting up ip3_ip3_0_split
I0505 08:21:35.703022  5266 net.cpp:151] Top shape: 20 50 (1000)
I0505 08:21:35.703025  5266 net.cpp:151] Top shape: 20 50 (1000)
I0505 08:21:35.703028  5266 net.cpp:159] Memory required for data: 9065680
I0505 08:21:35.703032  5266 layer_factory.hpp:77] Creating layer accuracy
I0505 08:21:35.703038  5266 net.cpp:94] Creating Layer accuracy
I0505 08:21:35.703042  5266 net.cpp:435] accuracy <- ip3_ip3_0_split_0
I0505 08:21:35.703045  5266 net.cpp:435] accuracy <- label_intercept_1_split_0
I0505 08:21:35.703049  5266 net.cpp:409] accuracy -> accuracy
…
