…
I0507 18:41:08.565966  6069 net.cpp:323] The NetState phase (0) differed from the phase (1) specified by a rule in layer intercept
I0507 18:41:08.565982  6069 net.cpp:323] The NetState phase (0) differed from the phase (1) specified by a rule in layer loss
I0507 18:41:08.566069  6069 net.cpp:52] Initializing net from parameters: 
state {
  phase: TRAIN
}
layer {
  name: "parameters"
  type: "HDF5Data"
  top: "data"
  top: "label"
  include {
    phase: TRAIN
  }
  hdf5_data_param {
    source: "/home/purduethu/scratch/radon/d/deng106/CNNStatisticalModel/distributions/input/5_distributions_100_sample_size_train-parameters-path.txt"
    batch_size: 20
  }
}
layer {
  name: "conv1"
  type: "Convolution"
  bottom: "data"
  top: "conv1"
  param {
    lr_mult: 1
  }
  param {
    lr_mult: 2
  }
  convolution_param {
    num_output: 64
    pad: 2
    kernel_size: 5
    stride: 1
    weight_filler {
      type: "gaussian"
      std: 0.0001
    }
    bias_filler {
      type: "constant"
    }
  }
}
layer {
  name: "relu1"
  type: "ReLU"
  bottom: "conv1"
  top: "conv1"
}
layer {
  name: "conv2"
  type: "Convolution"
  bottom: "conv1"
  top: "conv2"
  param {
    lr_mult: 1
  }
  param {
    lr_mult: 2
  }
  convolution_param {
    num_output: 64
    pad: 2
    kernel_size: 5
    stride: 1
    weight_filler {
      type: "gaussian"
      std: 0.01
    }
    bias_filler {
      type: "constant"
    }
  }
}
layer {
  name: "relu2"
  type: "ReLU"
  bottom: "conv2"
  top: "conv2"
}
layer {
  name: "pool2"
  type: "Pooling"
  bottom: "conv2"
  top: "pool2"
  pooling_param {
    pool: MAX
    kernel_size: 3
    stride: 2
  }
}
layer {
  name: "conv3"
  type: "Convolution"
  bottom: "pool2"
  top: "conv3"
  param {
    lr_mult: 1
  }
  param {
    lr_mult: 2
  }
  convolution_param {
    num_output: 64
    pad: 2
    kernel_size: 5
    stride: 1
    weight_filler {
      type: "gaussian"
      std: 0.01
    }
    bias_filler {
      type: "constant"
    }
  }
}
layer {
  name: "relu3"
  type: "ReLU"
  bottom: "conv3"
  top: "conv3"
}
layer {
  name: "conv4"
  type: "Convolution"
  bottom: "conv3"
  top: "conv4"
  param {
    lr_mult: 1
  }
  param {
    lr_mult: 2
  }
  convolution_param {
    num_output: 64
    pad: 2
    kernel_size: 5
    stride: 1
    weight_filler {
      type: "gaussian"
      std: 0.01
    }
    bias_filler {
      type: "constant"
    }
  }
}
layer {
  name: "relu4"
  type: "ReLU"
  bottom: "conv4"
  top: "conv4"
}
layer {
  name: "conv5"
  type: "Convolution"
  bottom: "conv4"
  top: "conv5"
  param {
    lr_mult: 1
  }
  param {
    lr_mult: 2
  }
  convolution_param {
    num_output: 64
    pad: 2
    kernel_size: 5
    stride: 1
    weight_filler {
      type: "gaussian"
      std: 0.01
    }
    bias_filler {
      type: "constant"
    }
  }
}
layer {
  name: "relu5"
  type: "ReLU"
  bottom: "conv5"
  top: "conv5"
}
layer {
  name: "pool5"
  type: "Pooling"
  bottom: "conv5"
  top: "pool5"
  pooling_param {
    pool: AVE
    kernel_size: 3
    stride: 2
  }
}
layer {
  name: "ip1"
  type: "InnerProduct"
  bottom: "pool5"
  top: "ip1"
  param {
    lr_mult: 1
  }
  param {
    lr_mult: 2
  }
  inner_product_param {
    num_output: 64
    weight_filler {
      type: "gaussian"
      std: 0.1
    }
    bias_filler {
      type: "constant"
    }
  }
}
layer {
  name: "ip2"
  type: "InnerProduct"
  bottom: "ip1"
  top: "ip2"
  param {
    lr_mult: 1
  }
  param {
    lr_mult: 2
  }
  inner_product_param {
    num_output: 64
    weight_filler {
      type: "gaussian"
      std: 0.1
    }
    bias_filler {
      type: "constant"
    }
  }
}
layer {
  name: "ip3"
  type: "InnerProduct"
  bottom: "ip2"
  top: "ip3"
  param {
    lr_mult: 1
  }
  param {
    lr_mult: 2
  }
  inner_product_param {
    num_output: 1
    weight_filler {
      type: "gaussian"
      std: 0.1
    }
    bias_filler {
      type: "constant"
    }
  }
}
layer {
  name: "loss"
  type: "HuberLoss"
  bottom: "ip3"
  bottom: "label"
  top: "loss"
  include {
    phase: TRAIN
  }
}
I0507 18:41:08.566125  6069 layer_factory.hpp:77] Creating layer parameters
I0507 18:41:08.566138  6069 net.cpp:94] Creating Layer parameters
I0507 18:41:08.566143  6069 net.cpp:409] parameters -> data
I0507 18:41:08.566153  6069 net.cpp:409] parameters -> label
I0507 18:41:08.566164  6069 hdf5_data_layer.cpp:79] Loading list of HDF5 filenames from: /home/purduethu/scratch/radon/d/deng106/CNNStatisticalModel/distributions/input/5_distributions_100_sample_size_train-parameters-path.txt
I0507 18:41:08.566177  6069 hdf5_data_layer.cpp:93] Number of HDF5 files: 1
I0507 18:41:08.566728  6069 hdf5.cpp:32] Datatype class: H5T_FLOAT
I0507 18:41:08.585185  6069 net.cpp:144] Setting up parameters
I0507 18:41:08.585214  6069 net.cpp:151] Top shape: 20 1 10 10 (2000)
I0507 18:41:08.585220  6069 net.cpp:151] Top shape: 20 (20)
I0507 18:41:08.585223  6069 net.cpp:159] Memory required for data: 8080
I0507 18:41:08.585229  6069 layer_factory.hpp:77] Creating layer conv1
I0507 18:41:08.585250  6069 net.cpp:94] Creating Layer conv1
I0507 18:41:08.585255  6069 net.cpp:435] conv1 <- data
I0507 18:41:08.585261  6069 net.cpp:409] conv1 -> conv1
I0507 18:41:08.589370  6069 net.cpp:144] Setting up conv1
I0507 18:41:08.589385  6069 net.cpp:151] Top shape: 20 64 10 10 (128000)
I0507 18:41:08.589388  6069 net.cpp:159] Memory required for data: 520080
I0507 18:41:08.589399  6069 layer_factory.hpp:77] Creating layer relu1
I0507 18:41:08.589406  6069 net.cpp:94] Creating Layer relu1
I0507 18:41:08.589411  6069 net.cpp:435] relu1 <- conv1
I0507 18:41:08.589414  6069 net.cpp:396] relu1 -> conv1 (in-place)
I0507 18:41:08.589426  6069 net.cpp:144] Setting up relu1
I0507 18:41:08.589432  6069 net.cpp:151] Top shape: 20 64 10 10 (128000)
I0507 18:41:08.589433  6069 net.cpp:159] Memory required for data: 1032080
I0507 18:41:08.589437  6069 layer_factory.hpp:77] Creating layer conv2
I0507 18:41:08.589445  6069 net.cpp:94] Creating Layer conv2
I0507 18:41:08.589448  6069 net.cpp:435] conv2 <- conv1
I0507 18:41:08.589453  6069 net.cpp:409] conv2 -> conv2
I0507 18:41:08.595518  6069 net.cpp:144] Setting up conv2
I0507 18:41:08.595532  6069 net.cpp:151] Top shape: 20 64 10 10 (128000)
I0507 18:41:08.595536  6069 net.cpp:159] Memory required for data: 1544080
I0507 18:41:08.595544  6069 layer_factory.hpp:77] Creating layer relu2
I0507 18:41:08.595551  6069 net.cpp:94] Creating Layer relu2
I0507 18:41:08.595554  6069 net.cpp:435] relu2 <- conv2
I0507 18:41:08.595559  6069 net.cpp:396] relu2 -> conv2 (in-place)
I0507 18:41:08.595566  6069 net.cpp:144] Setting up relu2
I0507 18:41:08.595571  6069 net.cpp:151] Top shape: 20 64 10 10 (128000)
I0507 18:41:08.595573  6069 net.cpp:159] Memory required for data: 2056080
I0507 18:41:08.595577  6069 layer_factory.hpp:77] Creating layer pool2
I0507 18:41:08.595588  6069 net.cpp:94] Creating Layer pool2
I0507 18:41:08.595592  6069 net.cpp:435] pool2 <- conv2
I0507 18:41:08.595597  6069 net.cpp:409] pool2 -> pool2
I0507 18:41:08.595648  6069 net.cpp:144] Setting up pool2
I0507 18:41:08.595655  6069 net.cpp:151] Top shape: 20 64 5 5 (32000)
I0507 18:41:08.595659  6069 net.cpp:159] Memory required for data: 2184080
I0507 18:41:08.595661  6069 layer_factory.hpp:77] Creating layer conv3
I0507 18:41:08.595669  6069 net.cpp:94] Creating Layer conv3
I0507 18:41:08.595672  6069 net.cpp:435] conv3 <- pool2
I0507 18:41:08.595677  6069 net.cpp:409] conv3 -> conv3
I0507 18:41:08.600570  6069 net.cpp:144] Setting up conv3
I0507 18:41:08.600585  6069 net.cpp:151] Top shape: 20 64 5 5 (32000)
I0507 18:41:08.600589  6069 net.cpp:159] Memory required for data: 2312080
I0507 18:41:08.600597  6069 layer_factory.hpp:77] Creating layer relu3
I0507 18:41:08.600603  6069 net.cpp:94] Creating Layer relu3
I0507 18:41:08.600606  6069 net.cpp:435] relu3 <- conv3
I0507 18:41:08.600611  6069 net.cpp:396] relu3 -> conv3 (in-place)
I0507 18:41:08.600617  6069 net.cpp:144] Setting up relu3
I0507 18:41:08.600622  6069 net.cpp:151] Top shape: 20 64 5 5 (32000)
I0507 18:41:08.600625  6069 net.cpp:159] Memory required for data: 2440080
I0507 18:41:08.600627  6069 layer_factory.hpp:77] Creating layer conv4
I0507 18:41:08.600636  6069 net.cpp:94] Creating Layer conv4
I0507 18:41:08.600641  6069 net.cpp:435] conv4 <- conv3
I0507 18:41:08.600644  6069 net.cpp:409] conv4 -> conv4
I0507 18:41:08.605070  6069 net.cpp:144] Setting up conv4
I0507 18:41:08.605083  6069 net.cpp:151] Top shape: 20 64 5 5 (32000)
I0507 18:41:08.605087  6069 net.cpp:159] Memory required for data: 2568080
I0507 18:41:08.605093  6069 layer_factory.hpp:77] Creating layer relu4
I0507 18:41:08.605099  6069 net.cpp:94] Creating Layer relu4
I0507 18:41:08.605103  6069 net.cpp:435] relu4 <- conv4
I0507 18:41:08.605108  6069 net.cpp:396] relu4 -> conv4 (in-place)
I0507 18:41:08.605114  6069 net.cpp:144] Setting up relu4
I0507 18:41:08.605118  6069 net.cpp:151] Top shape: 20 64 5 5 (32000)
I0507 18:41:08.605121  6069 net.cpp:159] Memory required for data: 2696080
I0507 18:41:08.605124  6069 layer_factory.hpp:77] Creating layer conv5
I0507 18:41:08.605132  6069 net.cpp:94] Creating Layer conv5
I0507 18:41:08.605135  6069 net.cpp:435] conv5 <- conv4
I0507 18:41:08.605140  6069 net.cpp:409] conv5 -> conv5
I0507 18:41:08.609983  6069 net.cpp:144] Setting up conv5
I0507 18:41:08.609997  6069 net.cpp:151] Top shape: 20 64 5 5 (32000)
I0507 18:41:08.610000  6069 net.cpp:159] Memory required for data: 2824080
I0507 18:41:08.610008  6069 layer_factory.hpp:77] Creating layer relu5
I0507 18:41:08.610014  6069 net.cpp:94] Creating Layer relu5
I0507 18:41:08.610018  6069 net.cpp:435] relu5 <- conv5
I0507 18:41:08.610023  6069 net.cpp:396] relu5 -> conv5 (in-place)
I0507 18:41:08.610029  6069 net.cpp:144] Setting up relu5
I0507 18:41:08.610033  6069 net.cpp:151] Top shape: 20 64 5 5 (32000)
I0507 18:41:08.610036  6069 net.cpp:159] Memory required for data: 2952080
I0507 18:41:08.610039  6069 layer_factory.hpp:77] Creating layer pool5
I0507 18:41:08.610045  6069 net.cpp:94] Creating Layer pool5
I0507 18:41:08.610049  6069 net.cpp:435] pool5 <- conv5
I0507 18:41:08.610052  6069 net.cpp:409] pool5 -> pool5
I0507 18:41:08.610090  6069 net.cpp:144] Setting up pool5
I0507 18:41:08.610097  6069 net.cpp:151] Top shape: 20 64 2 2 (5120)
I0507 18:41:08.610100  6069 net.cpp:159] Memory required for data: 2972560
I0507 18:41:08.610103  6069 layer_factory.hpp:77] Creating layer ip1
I0507 18:41:08.610113  6069 net.cpp:94] Creating Layer ip1
I0507 18:41:08.610116  6069 net.cpp:435] ip1 <- pool5
I0507 18:41:08.610122  6069 net.cpp:409] ip1 -> ip1
I0507 18:41:08.611441  6069 net.cpp:144] Setting up ip1
I0507 18:41:08.611454  6069 net.cpp:151] Top shape: 20 64 (1280)
I0507 18:41:08.611457  6069 net.cpp:159] Memory required for data: 2977680
I0507 18:41:08.611462  6069 layer_factory.hpp:77] Creating layer ip2
I0507 18:41:08.611469  6069 net.cpp:94] Creating Layer ip2
I0507 18:41:08.611477  6069 net.cpp:435] ip2 <- ip1
I0507 18:41:08.611484  6069 net.cpp:409] ip2 -> ip2
I0507 18:41:08.611693  6069 net.cpp:144] Setting up ip2
I0507 18:41:08.611701  6069 net.cpp:151] Top shape: 20 64 (1280)
I0507 18:41:08.611704  6069 net.cpp:159] Memory required for data: 2982800
I0507 18:41:08.611709  6069 layer_factory.hpp:77] Creating layer ip3
I0507 18:41:08.611716  6069 net.cpp:94] Creating Layer ip3
I0507 18:41:08.611721  6069 net.cpp:435] ip3 <- ip2
I0507 18:41:08.611726  6069 net.cpp:409] ip3 -> ip3
I0507 18:41:08.611830  6069 net.cpp:144] Setting up ip3
I0507 18:41:08.611836  6069 net.cpp:151] Top shape: 20 1 (20)
I0507 18:41:08.611840  6069 net.cpp:159] Memory required for data: 2982880
I0507 18:41:08.611845  6069 layer_factory.hpp:77] Creating layer loss
I0507 18:41:08.611857  6069 net.cpp:94] Creating Layer loss
I0507 18:41:08.611861  6069 net.cpp:435] loss <- ip3
I0507 18:41:08.611865  6069 net.cpp:435] loss <- label
I0507 18:41:08.611870  6069 net.cpp:409] loss -> loss
I0507 18:41:08.611920  6069 net.cpp:144] Setting up loss
…
I0507 18:41:08.635728  6069 net.cpp:323] The NetState phase (0) differed from the phase (1) specified by a rule in layer intercept
I0507 18:41:08.635745  6069 net.cpp:323] The NetState phase (0) differed from the phase (1) specified by a rule in layer accuracy
I0507 18:41:08.635843  6069 net.cpp:52] Initializing net from parameters: 
state {
  phase: TRAIN
}
layer {
  name: "parameters"
  type: "HDF5Data"
  top: "data"
  top: "label"
  include {
    phase: TRAIN
  }
  hdf5_data_param {
    source: "/home/purduethu/scratch/radon/d/deng106/CNNStatisticalModel/distributions/input/5_distributions_100_sample_size_train-distributions-path.txt"
    batch_size: 20
  }
}
layer {
  name: "conv1"
  type: "Convolution"
  bottom: "data"
  top: "conv1"
  param {
    lr_mult: 1
  }
  param {
    lr_mult: 2
  }
  convolution_param {
    num_output: 64
    pad: 2
    kernel_size: 5
    stride: 1
    weight_filler {
      type: "gaussian"
      std: 0.0001
    }
    bias_filler {
      type: "constant"
    }
  }
}
layer {
  name: "relu1"
  type: "ReLU"
  bottom: "conv1"
  top: "conv1"
}
layer {
  name: "conv2"
  type: "Convolution"
  bottom: "conv1"
  top: "conv2"
  param {
    lr_mult: 1
  }
  param {
    lr_mult: 2
  }
  convolution_param {
    num_output: 64
    pad: 2
    kernel_size: 5
    stride: 1
    weight_filler {
      type: "gaussian"
      std: 0.01
    }
    bias_filler {
      type: "constant"
    }
  }
}
layer {
  name: "relu2"
  type: "ReLU"
  bottom: "conv2"
  top: "conv2"
}
layer {
  name: "pool2"
  type: "Pooling"
  bottom: "conv2"
  top: "pool2"
  pooling_param {
    pool: MAX
    kernel_size: 3
    stride: 2
  }
}
layer {
  name: "conv3"
  type: "Convolution"
  bottom: "pool2"
  top: "conv3"
  param {
    lr_mult: 1
  }
  param {
    lr_mult: 2
  }
  convolution_param {
    num_output: 64
    pad: 2
    kernel_size: 5
    stride: 1
    weight_filler {
      type: "gaussian"
      std: 0.01
    }
    bias_filler {
      type: "constant"
    }
  }
}
layer {
  name: "relu3"
  type: "ReLU"
  bottom: "conv3"
  top: "conv3"
}
layer {
  name: "conv4"
  type: "Convolution"
  bottom: "conv3"
  top: "conv4"
  param {
    lr_mult: 1
  }
  param {
    lr_mult: 2
  }
  convolution_param {
    num_output: 64
    pad: 2
    kernel_size: 5
    stride: 1
    weight_filler {
      type: "gaussian"
      std: 0.01
    }
    bias_filler {
      type: "constant"
    }
  }
}
layer {
  name: "relu4"
  type: "ReLU"
  bottom: "conv4"
  top: "conv4"
}
layer {
  name: "conv5"
  type: "Convolution"
  bottom: "conv4"
  top: "conv5"
  param {
    lr_mult: 1
  }
  param {
    lr_mult: 2
  }
  convolution_param {
    num_output: 64
    pad: 2
    kernel_size: 5
    stride: 1
    weight_filler {
      type: "gaussian"
      std: 0.01
    }
    bias_filler {
      type: "constant"
    }
  }
}
layer {
  name: "relu5"
  type: "ReLU"
  bottom: "conv5"
  top: "conv5"
}
layer {
  name: "pool5"
  type: "Pooling"
  bottom: "conv5"
  top: "pool5"
  pooling_param {
    pool: AVE
    kernel_size: 3
    stride: 2
  }
}
layer {
  name: "ip1"
  type: "InnerProduct"
  bottom: "pool5"
  top: "ip1"
  param {
    lr_mult: 1
  }
  param {
    lr_mult: 2
  }
  inner_product_param {
    num_output: 64
    weight_filler {
      type: "gaussian"
      std: 0.1
    }
    bias_filler {
      type: "constant"
    }
  }
}
layer {
  name: "ip2"
  type: "InnerProduct"
  bottom: "ip1"
  top: "ip2"
  param {
    lr_mult: 1
  }
  param {
    lr_mult: 2
  }
  inner_product_param {
    num_output: 64
    weight_filler {
      type: "gaussian"
      std: 0.1
    }
    bias_filler {
      type: "constant"
    }
  }
}
layer {
  name: "ip3"
  type: "InnerProduct"
  bottom: "ip2"
  top: "ip3"
  param {
    lr_mult: 1
  }
  param {
    lr_mult: 2
  }
  inner_product_param {
    num_output: 50
    weight_filler {
      type: "gaussian"
      std: 0.1
    }
    bias_filler {
      type: "constant"
    }
  }
}
layer {
  name: "loss"
  type: "SoftmaxWithLoss"
  bottom: "ip3"
  bottom: "label"
  top: "loss"
}
I0507 18:41:08.635897  6069 layer_factory.hpp:77] Creating layer parameters
I0507 18:41:08.635905  6069 net.cpp:94] Creating Layer parameters
I0507 18:41:08.635910  6069 net.cpp:409] parameters -> data
I0507 18:41:08.635915  6069 net.cpp:409] parameters -> label
I0507 18:41:08.635921  6069 hdf5_data_layer.cpp:79] Loading list of HDF5 filenames from: /home/purduethu/scratch/radon/d/deng106/CNNStatisticalModel/distributions/input/5_distributions_100_sample_size_train-distributions-path.txt
I0507 18:41:08.635937  6069 hdf5_data_layer.cpp:93] Number of HDF5 files: 1
I0507 18:41:08.652096  6069 hdf5.cpp:35] Datatype class: H5T_INTEGER
I0507 18:41:08.652535  6069 net.cpp:144] Setting up parameters
I0507 18:41:08.652549  6069 net.cpp:151] Top shape: 20 1 10 10 (2000)
I0507 18:41:08.652575  6069 net.cpp:151] Top shape: 20 (20)
I0507 18:41:08.652577  6069 net.cpp:159] Memory required for data: 8080
I0507 18:41:08.652583  6069 layer_factory.hpp:77] Creating layer conv1
I0507 18:41:08.652601  6069 net.cpp:94] Creating Layer conv1
I0507 18:41:08.652604  6069 net.cpp:435] conv1 <- data
I0507 18:41:08.652611  6069 net.cpp:409] conv1 -> conv1
I0507 18:41:08.654348  6069 net.cpp:144] Setting up conv1
I0507 18:41:08.654361  6069 net.cpp:151] Top shape: 20 64 10 10 (128000)
I0507 18:41:08.654366  6069 net.cpp:159] Memory required for data: 520080
I0507 18:41:08.654376  6069 layer_factory.hpp:77] Creating layer relu1
I0507 18:41:08.654382  6069 net.cpp:94] Creating Layer relu1
I0507 18:41:08.654386  6069 net.cpp:435] relu1 <- conv1
I0507 18:41:08.654391  6069 net.cpp:396] relu1 -> conv1 (in-place)
I0507 18:41:08.654397  6069 net.cpp:144] Setting up relu1
I0507 18:41:08.654402  6069 net.cpp:151] Top shape: 20 64 10 10 (128000)
I0507 18:41:08.654405  6069 net.cpp:159] Memory required for data: 1032080
I0507 18:41:08.654408  6069 layer_factory.hpp:77] Creating layer conv2
I0507 18:41:08.654417  6069 net.cpp:94] Creating Layer conv2
I0507 18:41:08.654419  6069 net.cpp:435] conv2 <- conv1
I0507 18:41:08.654423  6069 net.cpp:409] conv2 -> conv2
I0507 18:41:08.659785  6069 net.cpp:144] Setting up conv2
I0507 18:41:08.659798  6069 net.cpp:151] Top shape: 20 64 10 10 (128000)
I0507 18:41:08.659802  6069 net.cpp:159] Memory required for data: 1544080
I0507 18:41:08.659811  6069 layer_factory.hpp:77] Creating layer relu2
I0507 18:41:08.659816  6069 net.cpp:94] Creating Layer relu2
I0507 18:41:08.659821  6069 net.cpp:435] relu2 <- conv2
I0507 18:41:08.659824  6069 net.cpp:396] relu2 -> conv2 (in-place)
I0507 18:41:08.659832  6069 net.cpp:144] Setting up relu2
I0507 18:41:08.659835  6069 net.cpp:151] Top shape: 20 64 10 10 (128000)
I0507 18:41:08.659838  6069 net.cpp:159] Memory required for data: 2056080
I0507 18:41:08.659842  6069 layer_factory.hpp:77] Creating layer pool2
I0507 18:41:08.659847  6069 net.cpp:94] Creating Layer pool2
I0507 18:41:08.659850  6069 net.cpp:435] pool2 <- conv2
I0507 18:41:08.659854  6069 net.cpp:409] pool2 -> pool2
I0507 18:41:08.659904  6069 net.cpp:144] Setting up pool2
I0507 18:41:08.659910  6069 net.cpp:151] Top shape: 20 64 5 5 (32000)
I0507 18:41:08.659914  6069 net.cpp:159] Memory required for data: 2184080
I0507 18:41:08.659917  6069 layer_factory.hpp:77] Creating layer conv3
I0507 18:41:08.659924  6069 net.cpp:94] Creating Layer conv3
I0507 18:41:08.659929  6069 net.cpp:435] conv3 <- pool2
I0507 18:41:08.659934  6069 net.cpp:409] conv3 -> conv3
I0507 18:41:08.664865  6069 net.cpp:144] Setting up conv3
I0507 18:41:08.664885  6069 net.cpp:151] Top shape: 20 64 5 5 (32000)
I0507 18:41:08.664890  6069 net.cpp:159] Memory required for data: 2312080
I0507 18:41:08.664897  6069 layer_factory.hpp:77] Creating layer relu3
I0507 18:41:08.664904  6069 net.cpp:94] Creating Layer relu3
I0507 18:41:08.664907  6069 net.cpp:435] relu3 <- conv3
I0507 18:41:08.664911  6069 net.cpp:396] relu3 -> conv3 (in-place)
I0507 18:41:08.664918  6069 net.cpp:144] Setting up relu3
I0507 18:41:08.664923  6069 net.cpp:151] Top shape: 20 64 5 5 (32000)
I0507 18:41:08.664925  6069 net.cpp:159] Memory required for data: 2440080
I0507 18:41:08.664928  6069 layer_factory.hpp:77] Creating layer conv4
I0507 18:41:08.664937  6069 net.cpp:94] Creating Layer conv4
I0507 18:41:08.664940  6069 net.cpp:435] conv4 <- conv3
I0507 18:41:08.664945  6069 net.cpp:409] conv4 -> conv4
I0507 18:41:08.670652  6069 net.cpp:144] Setting up conv4
I0507 18:41:08.670666  6069 net.cpp:151] Top shape: 20 64 5 5 (32000)
I0507 18:41:08.670670  6069 net.cpp:159] Memory required for data: 2568080
I0507 18:41:08.670676  6069 layer_factory.hpp:77] Creating layer relu4
I0507 18:41:08.670682  6069 net.cpp:94] Creating Layer relu4
I0507 18:41:08.670686  6069 net.cpp:435] relu4 <- conv4
I0507 18:41:08.670691  6069 net.cpp:396] relu4 -> conv4 (in-place)
I0507 18:41:08.670697  6069 net.cpp:144] Setting up relu4
I0507 18:41:08.670701  6069 net.cpp:151] Top shape: 20 64 5 5 (32000)
I0507 18:41:08.670704  6069 net.cpp:159] Memory required for data: 2696080
I0507 18:41:08.670707  6069 layer_factory.hpp:77] Creating layer conv5
I0507 18:41:08.670714  6069 net.cpp:94] Creating Layer conv5
I0507 18:41:08.670717  6069 net.cpp:435] conv5 <- conv4
I0507 18:41:08.670722  6069 net.cpp:409] conv5 -> conv5
I0507 18:41:08.675122  6069 net.cpp:144] Setting up conv5
I0507 18:41:08.675135  6069 net.cpp:151] Top shape: 20 64 5 5 (32000)
I0507 18:41:08.675139  6069 net.cpp:159] Memory required for data: 2824080
I0507 18:41:08.675148  6069 layer_factory.hpp:77] Creating layer relu5
I0507 18:41:08.675153  6069 net.cpp:94] Creating Layer relu5
I0507 18:41:08.675156  6069 net.cpp:435] relu5 <- conv5
I0507 18:41:08.675161  6069 net.cpp:396] relu5 -> conv5 (in-place)
I0507 18:41:08.675168  6069 net.cpp:144] Setting up relu5
I0507 18:41:08.675171  6069 net.cpp:151] Top shape: 20 64 5 5 (32000)
I0507 18:41:08.675174  6069 net.cpp:159] Memory required for data: 2952080
I0507 18:41:08.675178  6069 layer_factory.hpp:77] Creating layer pool5
I0507 18:41:08.675182  6069 net.cpp:94] Creating Layer pool5
I0507 18:41:08.675185  6069 net.cpp:435] pool5 <- conv5
I0507 18:41:08.675189  6069 net.cpp:409] pool5 -> pool5
I0507 18:41:08.675223  6069 net.cpp:144] Setting up pool5
I0507 18:41:08.675230  6069 net.cpp:151] Top shape: 20 64 2 2 (5120)
I0507 18:41:08.675233  6069 net.cpp:159] Memory required for data: 2972560
I0507 18:41:08.675236  6069 layer_factory.hpp:77] Creating layer ip1
I0507 18:41:08.675243  6069 net.cpp:94] Creating Layer ip1
I0507 18:41:08.675246  6069 net.cpp:435] ip1 <- pool5
I0507 18:41:08.675251  6069 net.cpp:409] ip1 -> ip1
I0507 18:41:08.675765  6069 net.cpp:144] Setting up ip1
I0507 18:41:08.675771  6069 net.cpp:151] Top shape: 20 64 (1280)
I0507 18:41:08.675775  6069 net.cpp:159] Memory required for data: 2977680
I0507 18:41:08.675781  6069 layer_factory.hpp:77] Creating layer ip2
I0507 18:41:08.675787  6069 net.cpp:94] Creating Layer ip2
I0507 18:41:08.675791  6069 net.cpp:435] ip2 <- ip1
I0507 18:41:08.675796  6069 net.cpp:409] ip2 -> ip2
I0507 18:41:08.676013  6069 net.cpp:144] Setting up ip2
I0507 18:41:08.676020  6069 net.cpp:151] Top shape: 20 64 (1280)
I0507 18:41:08.676023  6069 net.cpp:159] Memory required for data: 2982800
I0507 18:41:08.676028  6069 layer_factory.hpp:77] Creating layer ip3
I0507 18:41:08.676034  6069 net.cpp:94] Creating Layer ip3
I0507 18:41:08.676038  6069 net.cpp:435] ip3 <- ip2
I0507 18:41:08.676043  6069 net.cpp:409] ip3 -> ip3
I0507 18:41:08.676237  6069 net.cpp:144] Setting up ip3
I0507 18:41:08.676244  6069 net.cpp:151] Top shape: 20 50 (1000)
I0507 18:41:08.676251  6069 net.cpp:159] Memory required for data: 2986800
I0507 18:41:08.676257  6069 layer_factory.hpp:77] Creating layer loss
I0507 18:41:08.676265  6069 net.cpp:94] Creating Layer loss
I0507 18:41:08.676268  6069 net.cpp:435] loss <- ip3
I0507 18:41:08.676272  6069 net.cpp:435] loss <- label
I0507 18:41:08.676276  6069 net.cpp:409] loss -> loss
I0507 18:41:08.676283  6069 layer_factory.hpp:77] Creating layer loss
…
I0507 18:41:08.677641  6069 solver.cpp:181] Creating test net (#0) specified by net file: ./protocol/dis_5_100_dimension.protocol_distribution
I0507 18:41:08.677669  6069 net.cpp:323] The NetState phase (1) differed from the phase (0) specified by a rule in layer parameters
I0507 18:41:08.677778  6069 net.cpp:52] Initializing net from parameters: 
state {
  phase: TEST
}
layer {
  name: "intercept"
  type: "HDF5Data"
  top: "data"
  top: "label"
  include {
    phase: TEST
  }
  hdf5_data_param {
    source: "/home/purduethu/scratch/radon/d/deng106/CNNStatisticalModel/distributions/input/5_distributions_100_sample_size_test-distributions-path.txt"
    batch_size: 20
  }
}
layer {
  name: "conv1"
  type: "Convolution"
  bottom: "data"
  top: "conv1"
  param {
    lr_mult: 1
  }
  param {
    lr_mult: 2
  }
  convolution_param {
    num_output: 64
    pad: 2
    kernel_size: 5
    stride: 1
    weight_filler {
      type: "gaussian"
      std: 0.0001
    }
    bias_filler {
      type: "constant"
    }
  }
}
layer {
  name: "relu1"
  type: "ReLU"
  bottom: "conv1"
  top: "conv1"
}
layer {
  name: "conv2"
  type: "Convolution"
  bottom: "conv1"
  top: "conv2"
  param {
    lr_mult: 1
  }
  param {
    lr_mult: 2
  }
  convolution_param {
    num_output: 64
    pad: 2
    kernel_size: 5
    stride: 1
    weight_filler {
      type: "gaussian"
      std: 0.01
    }
    bias_filler {
      type: "constant"
    }
  }
}
layer {
  name: "relu2"
  type: "ReLU"
  bottom: "conv2"
  top: "conv2"
}
layer {
  name: "pool2"
  type: "Pooling"
  bottom: "conv2"
  top: "pool2"
  pooling_param {
    pool: MAX
    kernel_size: 3
    stride: 2
  }
}
layer {
  name: "conv3"
  type: "Convolution"
  bottom: "pool2"
  top: "conv3"
  param {
    lr_mult: 1
  }
  param {
    lr_mult: 2
  }
  convolution_param {
    num_output: 64
    pad: 2
    kernel_size: 5
    stride: 1
    weight_filler {
      type: "gaussian"
      std: 0.01
    }
    bias_filler {
      type: "constant"
    }
  }
}
layer {
  name: "relu3"
  type: "ReLU"
  bottom: "conv3"
  top: "conv3"
}
layer {
  name: "conv4"
  type: "Convolution"
  bottom: "conv3"
  top: "conv4"
  param {
    lr_mult: 1
  }
  param {
    lr_mult: 2
  }
  convolution_param {
    num_output: 64
    pad: 2
    kernel_size: 5
    stride: 1
    weight_filler {
      type: "gaussian"
      std: 0.01
    }
    bias_filler {
      type: "constant"
    }
  }
}
layer {
  name: "relu4"
  type: "ReLU"
  bottom: "conv4"
  top: "conv4"
}
layer {
  name: "conv5"
  type: "Convolution"
  bottom: "conv4"
  top: "conv5"
  param {
    lr_mult: 1
  }
  param {
    lr_mult: 2
  }
  convolution_param {
    num_output: 64
    pad: 2
    kernel_size: 5
    stride: 1
    weight_filler {
      type: "gaussian"
      std: 0.01
    }
    bias_filler {
      type: "constant"
    }
  }
}
layer {
  name: "relu5"
  type: "ReLU"
  bottom: "conv5"
  top: "conv5"
}
layer {
  name: "pool5"
  type: "Pooling"
  bottom: "conv5"
  top: "pool5"
  pooling_param {
    pool: AVE
    kernel_size: 3
    stride: 2
  }
}
layer {
  name: "ip1"
  type: "InnerProduct"
  bottom: "pool5"
  top: "ip1"
  param {
    lr_mult: 1
  }
  param {
    lr_mult: 2
  }
  inner_product_param {
    num_output: 64
    weight_filler {
      type: "gaussian"
      std: 0.1
    }
    bias_filler {
      type: "constant"
    }
  }
}
layer {
  name: "ip2"
  type: "InnerProduct"
  bottom: "ip1"
  top: "ip2"
  param {
    lr_mult: 1
  }
  param {
    lr_mult: 2
  }
  inner_product_param {
    num_output: 64
    weight_filler {
      type: "gaussian"
      std: 0.1
    }
    bias_filler {
      type: "constant"
    }
  }
}
layer {
  name: "ip3"
  type: "InnerProduct"
  bottom: "ip2"
  top: "ip3"
  param {
    lr_mult: 1
  }
  param {
    lr_mult: 2
  }
  inner_product_param {
    num_output: 50
    weight_filler {
      type: "gaussian"
      std: 0.1
    }
    bias_filler {
      type: "constant"
    }
  }
}
layer {
  name: "accuracy"
  type: "Accuracy"
  bottom: "ip3"
  bottom: "label"
  top: "accuracy"
  include {
    phase: TEST
  }
}
layer {
  name: "loss"
  type: "SoftmaxWithLoss"
  bottom: "ip3"
  bottom: "label"
  top: "loss"
}
I0507 18:41:08.677850  6069 layer_factory.hpp:77] Creating layer intercept
I0507 18:41:08.677858  6069 net.cpp:94] Creating Layer intercept
I0507 18:41:08.677862  6069 net.cpp:409] intercept -> data
I0507 18:41:08.677868  6069 net.cpp:409] intercept -> label
I0507 18:41:08.677875  6069 hdf5_data_layer.cpp:79] Loading list of HDF5 filenames from: /home/purduethu/scratch/radon/d/deng106/CNNStatisticalModel/distributions/input/5_distributions_100_sample_size_test-distributions-path.txt
I0507 18:41:08.677893  6069 hdf5_data_layer.cpp:93] Number of HDF5 files: 1
I0507 18:41:08.682394  6069 net.cpp:144] Setting up intercept
I0507 18:41:08.682421  6069 net.cpp:151] Top shape: 20 1 10 10 (2000)
I0507 18:41:08.682426  6069 net.cpp:151] Top shape: 20 (20)
I0507 18:41:08.682430  6069 net.cpp:159] Memory required for data: 8080
I0507 18:41:08.682435  6069 layer_factory.hpp:77] Creating layer label_intercept_1_split
I0507 18:41:08.682452  6069 net.cpp:94] Creating Layer label_intercept_1_split
I0507 18:41:08.682456  6069 net.cpp:435] label_intercept_1_split <- label
I0507 18:41:08.682461  6069 net.cpp:409] label_intercept_1_split -> label_intercept_1_split_0
I0507 18:41:08.682471  6069 net.cpp:409] label_intercept_1_split -> label_intercept_1_split_1
I0507 18:41:08.682509  6069 net.cpp:144] Setting up label_intercept_1_split
I0507 18:41:08.682516  6069 net.cpp:151] Top shape: 20 (20)
I0507 18:41:08.682519  6069 net.cpp:151] Top shape: 20 (20)
I0507 18:41:08.682523  6069 net.cpp:159] Memory required for data: 8240
I0507 18:41:08.682525  6069 layer_factory.hpp:77] Creating layer conv1
I0507 18:41:08.682535  6069 net.cpp:94] Creating Layer conv1
I0507 18:41:08.682539  6069 net.cpp:435] conv1 <- data
I0507 18:41:08.682543  6069 net.cpp:409] conv1 -> conv1
I0507 18:41:08.683266  6069 net.cpp:144] Setting up conv1
I0507 18:41:08.683279  6069 net.cpp:151] Top shape: 20 64 10 10 (128000)
I0507 18:41:08.683282  6069 net.cpp:159] Memory required for data: 520240
I0507 18:41:08.683297  6069 layer_factory.hpp:77] Creating layer relu1
I0507 18:41:08.683305  6069 net.cpp:94] Creating Layer relu1
I0507 18:41:08.683308  6069 net.cpp:435] relu1 <- conv1
I0507 18:41:08.683312  6069 net.cpp:396] relu1 -> conv1 (in-place)
I0507 18:41:08.683320  6069 net.cpp:144] Setting up relu1
I0507 18:41:08.683324  6069 net.cpp:151] Top shape: 20 64 10 10 (128000)
I0507 18:41:08.683327  6069 net.cpp:159] Memory required for data: 1032240
I0507 18:41:08.683331  6069 layer_factory.hpp:77] Creating layer conv2
I0507 18:41:08.683338  6069 net.cpp:94] Creating Layer conv2
I0507 18:41:08.683341  6069 net.cpp:435] conv2 <- conv1
I0507 18:41:08.683346  6069 net.cpp:409] conv2 -> conv2
I0507 18:41:08.687350  6069 net.cpp:144] Setting up conv2
I0507 18:41:08.687362  6069 net.cpp:151] Top shape: 20 64 10 10 (128000)
I0507 18:41:08.687366  6069 net.cpp:159] Memory required for data: 1544240
I0507 18:41:08.687373  6069 layer_factory.hpp:77] Creating layer relu2
I0507 18:41:08.687379  6069 net.cpp:94] Creating Layer relu2
I0507 18:41:08.687383  6069 net.cpp:435] relu2 <- conv2
I0507 18:41:08.687387  6069 net.cpp:396] relu2 -> conv2 (in-place)
I0507 18:41:08.687394  6069 net.cpp:144] Setting up relu2
I0507 18:41:08.687398  6069 net.cpp:151] Top shape: 20 64 10 10 (128000)
I0507 18:41:08.687402  6069 net.cpp:159] Memory required for data: 2056240
I0507 18:41:08.687404  6069 layer_factory.hpp:77] Creating layer pool2
I0507 18:41:08.687409  6069 net.cpp:94] Creating Layer pool2
I0507 18:41:08.687412  6069 net.cpp:435] pool2 <- conv2
I0507 18:41:08.687417  6069 net.cpp:409] pool2 -> pool2
I0507 18:41:08.687465  6069 net.cpp:144] Setting up pool2
I0507 18:41:08.687472  6069 net.cpp:151] Top shape: 20 64 5 5 (32000)
I0507 18:41:08.687475  6069 net.cpp:159] Memory required for data: 2184240
I0507 18:41:08.687479  6069 layer_factory.hpp:77] Creating layer conv3
I0507 18:41:08.687486  6069 net.cpp:94] Creating Layer conv3
I0507 18:41:08.687489  6069 net.cpp:435] conv3 <- pool2
I0507 18:41:08.687494  6069 net.cpp:409] conv3 -> conv3
I0507 18:41:08.691004  6069 net.cpp:144] Setting up conv3
I0507 18:41:08.691016  6069 net.cpp:151] Top shape: 20 64 5 5 (32000)
I0507 18:41:08.691020  6069 net.cpp:159] Memory required for data: 2312240
I0507 18:41:08.691027  6069 layer_factory.hpp:77] Creating layer relu3
I0507 18:41:08.691035  6069 net.cpp:94] Creating Layer relu3
I0507 18:41:08.691037  6069 net.cpp:435] relu3 <- conv3
I0507 18:41:08.691042  6069 net.cpp:396] relu3 -> conv3 (in-place)
I0507 18:41:08.691048  6069 net.cpp:144] Setting up relu3
I0507 18:41:08.691053  6069 net.cpp:151] Top shape: 20 64 5 5 (32000)
I0507 18:41:08.691056  6069 net.cpp:159] Memory required for data: 2440240
I0507 18:41:08.691058  6069 layer_factory.hpp:77] Creating layer conv4
I0507 18:41:08.691066  6069 net.cpp:94] Creating Layer conv4
I0507 18:41:08.691071  6069 net.cpp:435] conv4 <- conv3
I0507 18:41:08.691074  6069 net.cpp:409] conv4 -> conv4
I0507 18:41:08.694581  6069 net.cpp:144] Setting up conv4
I0507 18:41:08.694593  6069 net.cpp:151] Top shape: 20 64 5 5 (32000)
I0507 18:41:08.694597  6069 net.cpp:159] Memory required for data: 2568240
I0507 18:41:08.694602  6069 layer_factory.hpp:77] Creating layer relu4
I0507 18:41:08.694608  6069 net.cpp:94] Creating Layer relu4
I0507 18:41:08.694612  6069 net.cpp:435] relu4 <- conv4
I0507 18:41:08.694617  6069 net.cpp:396] relu4 -> conv4 (in-place)
I0507 18:41:08.694622  6069 net.cpp:144] Setting up relu4
I0507 18:41:08.694628  6069 net.cpp:151] Top shape: 20 64 5 5 (32000)
I0507 18:41:08.694629  6069 net.cpp:159] Memory required for data: 2696240
I0507 18:41:08.694633  6069 layer_factory.hpp:77] Creating layer conv5
I0507 18:41:08.694640  6069 net.cpp:94] Creating Layer conv5
I0507 18:41:08.694643  6069 net.cpp:435] conv5 <- conv4
I0507 18:41:08.694648  6069 net.cpp:409] conv5 -> conv5
I0507 18:41:08.699411  6069 net.cpp:144] Setting up conv5
I0507 18:41:08.699425  6069 net.cpp:151] Top shape: 20 64 5 5 (32000)
I0507 18:41:08.699429  6069 net.cpp:159] Memory required for data: 2824240
I0507 18:41:08.699446  6069 layer_factory.hpp:77] Creating layer relu5
I0507 18:41:08.699452  6069 net.cpp:94] Creating Layer relu5
I0507 18:41:08.699456  6069 net.cpp:435] relu5 <- conv5
I0507 18:41:08.699460  6069 net.cpp:396] relu5 -> conv5 (in-place)
I0507 18:41:08.699467  6069 net.cpp:144] Setting up relu5
I0507 18:41:08.699471  6069 net.cpp:151] Top shape: 20 64 5 5 (32000)
I0507 18:41:08.699475  6069 net.cpp:159] Memory required for data: 2952240
I0507 18:41:08.699477  6069 layer_factory.hpp:77] Creating layer pool5
I0507 18:41:08.699482  6069 net.cpp:94] Creating Layer pool5
I0507 18:41:08.699486  6069 net.cpp:435] pool5 <- conv5
I0507 18:41:08.699489  6069 net.cpp:409] pool5 -> pool5
I0507 18:41:08.699524  6069 net.cpp:144] Setting up pool5
I0507 18:41:08.699532  6069 net.cpp:151] Top shape: 20 64 2 2 (5120)
I0507 18:41:08.699534  6069 net.cpp:159] Memory required for data: 2972720
I0507 18:41:08.699537  6069 layer_factory.hpp:77] Creating layer ip1
I0507 18:41:08.699544  6069 net.cpp:94] Creating Layer ip1
I0507 18:41:08.699548  6069 net.cpp:435] ip1 <- pool5
I0507 18:41:08.699553  6069 net.cpp:409] ip1 -> ip1
I0507 18:41:08.700072  6069 net.cpp:144] Setting up ip1
I0507 18:41:08.700078  6069 net.cpp:151] Top shape: 20 64 (1280)
I0507 18:41:08.700081  6069 net.cpp:159] Memory required for data: 2977840
I0507 18:41:08.700088  6069 layer_factory.hpp:77] Creating layer ip2
I0507 18:41:08.700093  6069 net.cpp:94] Creating Layer ip2
I0507 18:41:08.700095  6069 net.cpp:435] ip2 <- ip1
I0507 18:41:08.700100  6069 net.cpp:409] ip2 -> ip2
I0507 18:41:08.700314  6069 net.cpp:144] Setting up ip2
I0507 18:41:08.700320  6069 net.cpp:151] Top shape: 20 64 (1280)
I0507 18:41:08.700323  6069 net.cpp:159] Memory required for data: 2982960
I0507 18:41:08.700328  6069 layer_factory.hpp:77] Creating layer ip3
I0507 18:41:08.700335  6069 net.cpp:94] Creating Layer ip3
I0507 18:41:08.700337  6069 net.cpp:435] ip3 <- ip2
I0507 18:41:08.700342  6069 net.cpp:409] ip3 -> ip3
I0507 18:41:08.700527  6069 net.cpp:144] Setting up ip3
I0507 18:41:08.700534  6069 net.cpp:151] Top shape: 20 50 (1000)
I0507 18:41:08.700537  6069 net.cpp:159] Memory required for data: 2986960
I0507 18:41:08.700542  6069 layer_factory.hpp:77] Creating layer ip3_ip3_0_split
I0507 18:41:08.700547  6069 net.cpp:94] Creating Layer ip3_ip3_0_split
I0507 18:41:08.700572  6069 net.cpp:435] ip3_ip3_0_split <- ip3
I0507 18:41:08.700578  6069 net.cpp:409] ip3_ip3_0_split -> ip3_ip3_0_split_0
I0507 18:41:08.700584  6069 net.cpp:409] ip3_ip3_0_split -> ip3_ip3_0_split_1
I0507 18:41:08.700624  6069 net.cpp:144] Setting up ip3_ip3_0_split
I0507 18:41:08.700631  6069 net.cpp:151] Top shape: 20 50 (1000)
I0507 18:41:08.700635  6069 net.cpp:151] Top shape: 20 50 (1000)
I0507 18:41:08.700637  6069 net.cpp:159] Memory required for data: 2994960
I0507 18:41:08.700641  6069 layer_factory.hpp:77] Creating layer accuracy
I0507 18:41:08.700646  6069 net.cpp:94] Creating Layer accuracy
I0507 18:41:08.700649  6069 net.cpp:435] accuracy <- ip3_ip3_0_split_0
I0507 18:41:08.700654  6069 net.cpp:435] accuracy <- label_intercept_1_split_0
I0507 18:41:08.700659  6069 net.cpp:409] accuracy -> accuracy
…
