…
I0507 03:33:44.484362 31241 net.cpp:323] The NetState phase (0) differed from the phase (1) specified by a rule in layer intercept
I0507 03:33:44.484378 31241 net.cpp:323] The NetState phase (0) differed from the phase (1) specified by a rule in layer loss
I0507 03:33:44.484455 31241 net.cpp:52] Initializing net from parameters: 
state {
  phase: TRAIN
}
layer {
  name: "parameters"
  type: "HDF5Data"
  top: "data"
  top: "label"
  include {
    phase: TRAIN
  }
  hdf5_data_param {
    source: "/home/purduethu/scratch/radon/d/deng106/CNNStatisticalModel/distributions/input/50_distributions_100_sample_size_train-parameters-path.txt"
    batch_size: 20
  }
}
layer {
  name: "conv1"
  type: "Convolution"
  bottom: "data"
  top: "conv1"
  param {
    lr_mult: 1
  }
  param {
    lr_mult: 2
  }
  convolution_param {
    num_output: 64
    pad: 2
    kernel_size: 5
    stride: 1
    weight_filler {
      type: "gaussian"
      std: 0.0001
    }
    bias_filler {
      type: "constant"
    }
  }
}
layer {
  name: "relu1"
  type: "ReLU"
  bottom: "conv1"
  top: "conv1"
}
layer {
  name: "conv2"
  type: "Convolution"
  bottom: "conv1"
  top: "conv2"
  param {
    lr_mult: 1
  }
  param {
    lr_mult: 2
  }
  convolution_param {
    num_output: 64
    pad: 2
    kernel_size: 5
    stride: 1
    weight_filler {
      type: "gaussian"
      std: 0.01
    }
    bias_filler {
      type: "constant"
    }
  }
}
layer {
  name: "relu2"
  type: "ReLU"
  bottom: "conv2"
  top: "conv2"
}
layer {
  name: "pool2"
  type: "Pooling"
  bottom: "conv2"
  top: "pool2"
  pooling_param {
    pool: MAX
    kernel_size: 3
    stride: 2
  }
}
layer {
  name: "conv3"
  type: "Convolution"
  bottom: "pool2"
  top: "conv3"
  param {
    lr_mult: 1
  }
  param {
    lr_mult: 2
  }
  convolution_param {
    num_output: 64
    pad: 2
    kernel_size: 5
    stride: 1
    weight_filler {
      type: "gaussian"
      std: 0.01
    }
    bias_filler {
      type: "constant"
    }
  }
}
layer {
  name: "relu3"
  type: "ReLU"
  bottom: "conv3"
  top: "conv3"
}
layer {
  name: "conv4"
  type: "Convolution"
  bottom: "conv3"
  top: "conv4"
  param {
    lr_mult: 1
  }
  param {
    lr_mult: 2
  }
  convolution_param {
    num_output: 64
    pad: 2
    kernel_size: 5
    stride: 1
    weight_filler {
      type: "gaussian"
      std: 0.01
    }
    bias_filler {
      type: "constant"
    }
  }
}
layer {
  name: "relu4"
  type: "ReLU"
  bottom: "conv4"
  top: "conv4"
}
layer {
  name: "conv5"
  type: "Convolution"
  bottom: "conv4"
  top: "conv5"
  param {
    lr_mult: 1
  }
  param {
    lr_mult: 2
  }
  convolution_param {
    num_output: 64
    pad: 2
    kernel_size: 5
    stride: 1
    weight_filler {
      type: "gaussian"
      std: 0.01
    }
    bias_filler {
      type: "constant"
    }
  }
}
layer {
  name: "relu5"
  type: "ReLU"
  bottom: "conv5"
  top: "conv5"
}
layer {
  name: "pool5"
  type: "Pooling"
  bottom: "conv5"
  top: "pool5"
  pooling_param {
    pool: AVE
    kernel_size: 3
    stride: 2
  }
}
layer {
  name: "ip1"
  type: "InnerProduct"
  bottom: "pool5"
  top: "ip1"
  param {
    lr_mult: 1
  }
  param {
    lr_mult: 2
  }
  inner_product_param {
    num_output: 64
    weight_filler {
      type: "gaussian"
      std: 0.1
    }
    bias_filler {
      type: "constant"
    }
  }
}
layer {
  name: "ip2"
  type: "InnerProduct"
  bottom: "ip1"
  top: "ip2"
  param {
    lr_mult: 1
  }
  param {
    lr_mult: 2
  }
  inner_product_param {
    num_output: 64
    weight_filler {
      type: "gaussian"
      std: 0.1
    }
    bias_filler {
      type: "constant"
    }
  }
}
layer {
  name: "ip3"
  type: "InnerProduct"
  bottom: "ip2"
  top: "ip3"
  param {
    lr_mult: 1
  }
  param {
    lr_mult: 2
  }
  inner_product_param {
    num_output: 1
    weight_filler {
      type: "gaussian"
      std: 0.1
    }
    bias_filler {
      type: "constant"
    }
  }
}
layer {
  name: "loss"
  type: "HuberLoss"
  bottom: "ip3"
  bottom: "label"
  top: "loss"
  include {
    phase: TRAIN
  }
}
I0507 03:33:44.484509 31241 layer_factory.hpp:77] Creating layer parameters
I0507 03:33:44.484521 31241 net.cpp:94] Creating Layer parameters
I0507 03:33:44.484526 31241 net.cpp:409] parameters -> data
I0507 03:33:44.484535 31241 net.cpp:409] parameters -> label
I0507 03:33:44.484541 31241 hdf5_data_layer.cpp:79] Loading list of HDF5 filenames from: /home/purduethu/scratch/radon/d/deng106/CNNStatisticalModel/distributions/input/50_distributions_100_sample_size_train-parameters-path.txt
I0507 03:33:44.484571 31241 hdf5_data_layer.cpp:93] Number of HDF5 files: 1
I0507 03:33:44.485122 31241 hdf5.cpp:32] Datatype class: H5T_FLOAT
I0507 03:33:44.646214 31241 net.cpp:144] Setting up parameters
I0507 03:33:44.646246 31241 net.cpp:151] Top shape: 20 1 10 10 (2000)
I0507 03:33:44.646251 31241 net.cpp:151] Top shape: 20 (20)
I0507 03:33:44.646255 31241 net.cpp:159] Memory required for data: 8080
I0507 03:33:44.646260 31241 layer_factory.hpp:77] Creating layer conv1
I0507 03:33:44.646282 31241 net.cpp:94] Creating Layer conv1
I0507 03:33:44.646287 31241 net.cpp:435] conv1 <- data
I0507 03:33:44.646293 31241 net.cpp:409] conv1 -> conv1
I0507 03:33:44.650506 31241 net.cpp:144] Setting up conv1
I0507 03:33:44.650524 31241 net.cpp:151] Top shape: 20 64 10 10 (128000)
I0507 03:33:44.650527 31241 net.cpp:159] Memory required for data: 520080
I0507 03:33:44.650538 31241 layer_factory.hpp:77] Creating layer relu1
I0507 03:33:44.650547 31241 net.cpp:94] Creating Layer relu1
I0507 03:33:44.650550 31241 net.cpp:435] relu1 <- conv1
I0507 03:33:44.650554 31241 net.cpp:396] relu1 -> conv1 (in-place)
I0507 03:33:44.650566 31241 net.cpp:144] Setting up relu1
I0507 03:33:44.650570 31241 net.cpp:151] Top shape: 20 64 10 10 (128000)
I0507 03:33:44.650573 31241 net.cpp:159] Memory required for data: 1032080
I0507 03:33:44.650576 31241 layer_factory.hpp:77] Creating layer conv2
I0507 03:33:44.650585 31241 net.cpp:94] Creating Layer conv2
I0507 03:33:44.650588 31241 net.cpp:435] conv2 <- conv1
I0507 03:33:44.650593 31241 net.cpp:409] conv2 -> conv2
I0507 03:33:44.656615 31241 net.cpp:144] Setting up conv2
I0507 03:33:44.656630 31241 net.cpp:151] Top shape: 20 64 10 10 (128000)
I0507 03:33:44.656632 31241 net.cpp:159] Memory required for data: 1544080
I0507 03:33:44.656641 31241 layer_factory.hpp:77] Creating layer relu2
I0507 03:33:44.656647 31241 net.cpp:94] Creating Layer relu2
I0507 03:33:44.656651 31241 net.cpp:435] relu2 <- conv2
I0507 03:33:44.656656 31241 net.cpp:396] relu2 -> conv2 (in-place)
I0507 03:33:44.656662 31241 net.cpp:144] Setting up relu2
I0507 03:33:44.656666 31241 net.cpp:151] Top shape: 20 64 10 10 (128000)
I0507 03:33:44.656669 31241 net.cpp:159] Memory required for data: 2056080
I0507 03:33:44.656672 31241 layer_factory.hpp:77] Creating layer pool2
I0507 03:33:44.656678 31241 net.cpp:94] Creating Layer pool2
I0507 03:33:44.656682 31241 net.cpp:435] pool2 <- conv2
I0507 03:33:44.656685 31241 net.cpp:409] pool2 -> pool2
I0507 03:33:44.656735 31241 net.cpp:144] Setting up pool2
I0507 03:33:44.656743 31241 net.cpp:151] Top shape: 20 64 5 5 (32000)
I0507 03:33:44.656745 31241 net.cpp:159] Memory required for data: 2184080
I0507 03:33:44.656749 31241 layer_factory.hpp:77] Creating layer conv3
I0507 03:33:44.656757 31241 net.cpp:94] Creating Layer conv3
I0507 03:33:44.656760 31241 net.cpp:435] conv3 <- pool2
I0507 03:33:44.656771 31241 net.cpp:409] conv3 -> conv3
I0507 03:33:44.661554 31241 net.cpp:144] Setting up conv3
I0507 03:33:44.661568 31241 net.cpp:151] Top shape: 20 64 5 5 (32000)
I0507 03:33:44.661572 31241 net.cpp:159] Memory required for data: 2312080
I0507 03:33:44.661581 31241 layer_factory.hpp:77] Creating layer relu3
I0507 03:33:44.661586 31241 net.cpp:94] Creating Layer relu3
I0507 03:33:44.661589 31241 net.cpp:435] relu3 <- conv3
I0507 03:33:44.661593 31241 net.cpp:396] relu3 -> conv3 (in-place)
I0507 03:33:44.661600 31241 net.cpp:144] Setting up relu3
I0507 03:33:44.661604 31241 net.cpp:151] Top shape: 20 64 5 5 (32000)
I0507 03:33:44.661607 31241 net.cpp:159] Memory required for data: 2440080
I0507 03:33:44.661610 31241 layer_factory.hpp:77] Creating layer conv4
I0507 03:33:44.661618 31241 net.cpp:94] Creating Layer conv4
I0507 03:33:44.661623 31241 net.cpp:435] conv4 <- conv3
I0507 03:33:44.661628 31241 net.cpp:409] conv4 -> conv4
I0507 03:33:44.665987 31241 net.cpp:144] Setting up conv4
I0507 03:33:44.665999 31241 net.cpp:151] Top shape: 20 64 5 5 (32000)
I0507 03:33:44.666002 31241 net.cpp:159] Memory required for data: 2568080
I0507 03:33:44.666008 31241 layer_factory.hpp:77] Creating layer relu4
I0507 03:33:44.666014 31241 net.cpp:94] Creating Layer relu4
I0507 03:33:44.666018 31241 net.cpp:435] relu4 <- conv4
I0507 03:33:44.666023 31241 net.cpp:396] relu4 -> conv4 (in-place)
I0507 03:33:44.666029 31241 net.cpp:144] Setting up relu4
I0507 03:33:44.666033 31241 net.cpp:151] Top shape: 20 64 5 5 (32000)
I0507 03:33:44.666036 31241 net.cpp:159] Memory required for data: 2696080
I0507 03:33:44.666039 31241 layer_factory.hpp:77] Creating layer conv5
I0507 03:33:44.666048 31241 net.cpp:94] Creating Layer conv5
I0507 03:33:44.666050 31241 net.cpp:435] conv5 <- conv4
I0507 03:33:44.666055 31241 net.cpp:409] conv5 -> conv5
I0507 03:33:44.670856 31241 net.cpp:144] Setting up conv5
I0507 03:33:44.670871 31241 net.cpp:151] Top shape: 20 64 5 5 (32000)
I0507 03:33:44.670874 31241 net.cpp:159] Memory required for data: 2824080
I0507 03:33:44.670882 31241 layer_factory.hpp:77] Creating layer relu5
I0507 03:33:44.670888 31241 net.cpp:94] Creating Layer relu5
I0507 03:33:44.670892 31241 net.cpp:435] relu5 <- conv5
I0507 03:33:44.670897 31241 net.cpp:396] relu5 -> conv5 (in-place)
I0507 03:33:44.670902 31241 net.cpp:144] Setting up relu5
I0507 03:33:44.670907 31241 net.cpp:151] Top shape: 20 64 5 5 (32000)
I0507 03:33:44.670910 31241 net.cpp:159] Memory required for data: 2952080
I0507 03:33:44.670913 31241 layer_factory.hpp:77] Creating layer pool5
I0507 03:33:44.670918 31241 net.cpp:94] Creating Layer pool5
I0507 03:33:44.670922 31241 net.cpp:435] pool5 <- conv5
I0507 03:33:44.670925 31241 net.cpp:409] pool5 -> pool5
I0507 03:33:44.670961 31241 net.cpp:144] Setting up pool5
I0507 03:33:44.670969 31241 net.cpp:151] Top shape: 20 64 2 2 (5120)
I0507 03:33:44.670971 31241 net.cpp:159] Memory required for data: 2972560
I0507 03:33:44.670974 31241 layer_factory.hpp:77] Creating layer ip1
I0507 03:33:44.670984 31241 net.cpp:94] Creating Layer ip1
I0507 03:33:44.670987 31241 net.cpp:435] ip1 <- pool5
I0507 03:33:44.670992 31241 net.cpp:409] ip1 -> ip1
I0507 03:33:44.672307 31241 net.cpp:144] Setting up ip1
I0507 03:33:44.672319 31241 net.cpp:151] Top shape: 20 64 (1280)
I0507 03:33:44.672323 31241 net.cpp:159] Memory required for data: 2977680
I0507 03:33:44.672329 31241 layer_factory.hpp:77] Creating layer ip2
I0507 03:33:44.672335 31241 net.cpp:94] Creating Layer ip2
I0507 03:33:44.672339 31241 net.cpp:435] ip2 <- ip1
I0507 03:33:44.672344 31241 net.cpp:409] ip2 -> ip2
I0507 03:33:44.672559 31241 net.cpp:144] Setting up ip2
I0507 03:33:44.672567 31241 net.cpp:151] Top shape: 20 64 (1280)
I0507 03:33:44.672570 31241 net.cpp:159] Memory required for data: 2982800
I0507 03:33:44.672575 31241 layer_factory.hpp:77] Creating layer ip3
I0507 03:33:44.672581 31241 net.cpp:94] Creating Layer ip3
I0507 03:33:44.672585 31241 net.cpp:435] ip3 <- ip2
I0507 03:33:44.672590 31241 net.cpp:409] ip3 -> ip3
I0507 03:33:44.672703 31241 net.cpp:144] Setting up ip3
I0507 03:33:44.672710 31241 net.cpp:151] Top shape: 20 1 (20)
I0507 03:33:44.672713 31241 net.cpp:159] Memory required for data: 2982880
I0507 03:33:44.672719 31241 layer_factory.hpp:77] Creating layer loss
I0507 03:33:44.672725 31241 net.cpp:94] Creating Layer loss
I0507 03:33:44.672729 31241 net.cpp:435] loss <- ip3
I0507 03:33:44.672732 31241 net.cpp:435] loss <- label
I0507 03:33:44.672737 31241 net.cpp:409] loss -> loss
I0507 03:33:44.672790 31241 net.cpp:144] Setting up loss
…
I0507 03:33:44.733667 31241 net.cpp:323] The NetState phase (0) differed from the phase (1) specified by a rule in layer intercept
I0507 03:33:44.733683 31241 net.cpp:323] The NetState phase (0) differed from the phase (1) specified by a rule in layer accuracy
I0507 03:33:44.733767 31241 net.cpp:52] Initializing net from parameters: 
state {
  phase: TRAIN
}
layer {
  name: "parameters"
  type: "HDF5Data"
  top: "data"
  top: "label"
  include {
    phase: TRAIN
  }
  hdf5_data_param {
    source: "/home/purduethu/scratch/radon/d/deng106/CNNStatisticalModel/distributions/input/50_distributions_100_sample_size_train-distributions-path.txt"
    batch_size: 20
  }
}
layer {
  name: "conv1"
  type: "Convolution"
  bottom: "data"
  top: "conv1"
  param {
    lr_mult: 1
  }
  param {
    lr_mult: 2
  }
  convolution_param {
    num_output: 64
    pad: 2
    kernel_size: 5
    stride: 1
    weight_filler {
      type: "gaussian"
      std: 0.0001
    }
    bias_filler {
      type: "constant"
    }
  }
}
layer {
  name: "relu1"
  type: "ReLU"
  bottom: "conv1"
  top: "conv1"
}
layer {
  name: "conv2"
  type: "Convolution"
  bottom: "conv1"
  top: "conv2"
  param {
    lr_mult: 1
  }
  param {
    lr_mult: 2
  }
  convolution_param {
    num_output: 64
    pad: 2
    kernel_size: 5
    stride: 1
    weight_filler {
      type: "gaussian"
      std: 0.01
    }
    bias_filler {
      type: "constant"
    }
  }
}
layer {
  name: "relu2"
  type: "ReLU"
  bottom: "conv2"
  top: "conv2"
}
layer {
  name: "pool2"
  type: "Pooling"
  bottom: "conv2"
  top: "pool2"
  pooling_param {
    pool: MAX
    kernel_size: 3
    stride: 2
  }
}
layer {
  name: "conv3"
  type: "Convolution"
  bottom: "pool2"
  top: "conv3"
  param {
    lr_mult: 1
  }
  param {
    lr_mult: 2
  }
  convolution_param {
    num_output: 64
    pad: 2
    kernel_size: 5
    stride: 1
    weight_filler {
      type: "gaussian"
      std: 0.01
    }
    bias_filler {
      type: "constant"
    }
  }
}
layer {
  name: "relu3"
  type: "ReLU"
  bottom: "conv3"
  top: "conv3"
}
layer {
  name: "conv4"
  type: "Convolution"
  bottom: "conv3"
  top: "conv4"
  param {
    lr_mult: 1
  }
  param {
    lr_mult: 2
  }
  convolution_param {
    num_output: 64
    pad: 2
    kernel_size: 5
    stride: 1
    weight_filler {
      type: "gaussian"
      std: 0.01
    }
    bias_filler {
      type: "constant"
    }
  }
}
layer {
  name: "relu4"
  type: "ReLU"
  bottom: "conv4"
  top: "conv4"
}
layer {
  name: "conv5"
  type: "Convolution"
  bottom: "conv4"
  top: "conv5"
  param {
    lr_mult: 1
  }
  param {
    lr_mult: 2
  }
  convolution_param {
    num_output: 64
    pad: 2
    kernel_size: 5
    stride: 1
    weight_filler {
      type: "gaussian"
      std: 0.01
    }
    bias_filler {
      type: "constant"
    }
  }
}
layer {
  name: "relu5"
  type: "ReLU"
  bottom: "conv5"
  top: "conv5"
}
layer {
  name: "pool5"
  type: "Pooling"
  bottom: "conv5"
  top: "pool5"
  pooling_param {
    pool: AVE
    kernel_size: 3
    stride: 2
  }
}
layer {
  name: "ip1"
  type: "InnerProduct"
  bottom: "pool5"
  top: "ip1"
  param {
    lr_mult: 1
  }
  param {
    lr_mult: 2
  }
  inner_product_param {
    num_output: 64
    weight_filler {
      type: "gaussian"
      std: 0.1
    }
    bias_filler {
      type: "constant"
    }
  }
}
layer {
  name: "ip2"
  type: "InnerProduct"
  bottom: "ip1"
  top: "ip2"
  param {
    lr_mult: 1
  }
  param {
    lr_mult: 2
  }
  inner_product_param {
    num_output: 64
    weight_filler {
      type: "gaussian"
      std: 0.1
    }
    bias_filler {
      type: "constant"
    }
  }
}
layer {
  name: "ip3"
  type: "InnerProduct"
  bottom: "ip2"
  top: "ip3"
  param {
    lr_mult: 1
  }
  param {
    lr_mult: 2
  }
  inner_product_param {
    num_output: 50
    weight_filler {
      type: "gaussian"
      std: 0.1
    }
    bias_filler {
      type: "constant"
    }
  }
}
layer {
  name: "loss"
  type: "SoftmaxWithLoss"
  bottom: "ip3"
  bottom: "label"
  top: "loss"
}
I0507 03:33:44.733817 31241 layer_factory.hpp:77] Creating layer parameters
I0507 03:33:44.733825 31241 net.cpp:94] Creating Layer parameters
I0507 03:33:44.733829 31241 net.cpp:409] parameters -> data
I0507 03:33:44.733835 31241 net.cpp:409] parameters -> label
I0507 03:33:44.733841 31241 hdf5_data_layer.cpp:79] Loading list of HDF5 filenames from: /home/purduethu/scratch/radon/d/deng106/CNNStatisticalModel/distributions/input/50_distributions_100_sample_size_train-distributions-path.txt
I0507 03:33:44.733856 31241 hdf5_data_layer.cpp:93] Number of HDF5 files: 1
I0507 03:33:44.889763 31241 hdf5.cpp:35] Datatype class: H5T_INTEGER
I0507 03:33:44.892890 31241 net.cpp:144] Setting up parameters
I0507 03:33:44.892916 31241 net.cpp:151] Top shape: 20 1 10 10 (2000)
I0507 03:33:44.892921 31241 net.cpp:151] Top shape: 20 (20)
I0507 03:33:44.892925 31241 net.cpp:159] Memory required for data: 8080
I0507 03:33:44.892930 31241 layer_factory.hpp:77] Creating layer conv1
I0507 03:33:44.892946 31241 net.cpp:94] Creating Layer conv1
I0507 03:33:44.892951 31241 net.cpp:435] conv1 <- data
I0507 03:33:44.892957 31241 net.cpp:409] conv1 -> conv1
I0507 03:33:44.894697 31241 net.cpp:144] Setting up conv1
I0507 03:33:44.894711 31241 net.cpp:151] Top shape: 20 64 10 10 (128000)
I0507 03:33:44.894714 31241 net.cpp:159] Memory required for data: 520080
I0507 03:33:44.894724 31241 layer_factory.hpp:77] Creating layer relu1
I0507 03:33:44.894731 31241 net.cpp:94] Creating Layer relu1
I0507 03:33:44.894736 31241 net.cpp:435] relu1 <- conv1
I0507 03:33:44.894739 31241 net.cpp:396] relu1 -> conv1 (in-place)
I0507 03:33:44.894747 31241 net.cpp:144] Setting up relu1
I0507 03:33:44.894752 31241 net.cpp:151] Top shape: 20 64 10 10 (128000)
I0507 03:33:44.894754 31241 net.cpp:159] Memory required for data: 1032080
I0507 03:33:44.894757 31241 layer_factory.hpp:77] Creating layer conv2
I0507 03:33:44.894764 31241 net.cpp:94] Creating Layer conv2
I0507 03:33:44.894767 31241 net.cpp:435] conv2 <- conv1
I0507 03:33:44.894773 31241 net.cpp:409] conv2 -> conv2
I0507 03:33:44.900074 31241 net.cpp:144] Setting up conv2
I0507 03:33:44.900087 31241 net.cpp:151] Top shape: 20 64 10 10 (128000)
I0507 03:33:44.900091 31241 net.cpp:159] Memory required for data: 1544080
I0507 03:33:44.900099 31241 layer_factory.hpp:77] Creating layer relu2
I0507 03:33:44.900105 31241 net.cpp:94] Creating Layer relu2
I0507 03:33:44.900108 31241 net.cpp:435] relu2 <- conv2
I0507 03:33:44.900113 31241 net.cpp:396] relu2 -> conv2 (in-place)
I0507 03:33:44.900120 31241 net.cpp:144] Setting up relu2
I0507 03:33:44.900125 31241 net.cpp:151] Top shape: 20 64 10 10 (128000)
I0507 03:33:44.900127 31241 net.cpp:159] Memory required for data: 2056080
I0507 03:33:44.900130 31241 layer_factory.hpp:77] Creating layer pool2
I0507 03:33:44.900136 31241 net.cpp:94] Creating Layer pool2
I0507 03:33:44.900140 31241 net.cpp:435] pool2 <- conv2
I0507 03:33:44.900143 31241 net.cpp:409] pool2 -> pool2
I0507 03:33:44.900192 31241 net.cpp:144] Setting up pool2
I0507 03:33:44.900198 31241 net.cpp:151] Top shape: 20 64 5 5 (32000)
I0507 03:33:44.900202 31241 net.cpp:159] Memory required for data: 2184080
I0507 03:33:44.900204 31241 layer_factory.hpp:77] Creating layer conv3
I0507 03:33:44.900213 31241 net.cpp:94] Creating Layer conv3
I0507 03:33:44.900216 31241 net.cpp:435] conv3 <- pool2
I0507 03:33:44.900220 31241 net.cpp:409] conv3 -> conv3
I0507 03:33:44.905903 31241 net.cpp:144] Setting up conv3
I0507 03:33:44.905917 31241 net.cpp:151] Top shape: 20 64 5 5 (32000)
I0507 03:33:44.905921 31241 net.cpp:159] Memory required for data: 2312080
I0507 03:33:44.905930 31241 layer_factory.hpp:77] Creating layer relu3
I0507 03:33:44.905935 31241 net.cpp:94] Creating Layer relu3
I0507 03:33:44.905938 31241 net.cpp:435] relu3 <- conv3
I0507 03:33:44.905942 31241 net.cpp:396] relu3 -> conv3 (in-place)
I0507 03:33:44.905949 31241 net.cpp:144] Setting up relu3
I0507 03:33:44.905953 31241 net.cpp:151] Top shape: 20 64 5 5 (32000)
I0507 03:33:44.905961 31241 net.cpp:159] Memory required for data: 2440080
I0507 03:33:44.905966 31241 layer_factory.hpp:77] Creating layer conv4
I0507 03:33:44.905973 31241 net.cpp:94] Creating Layer conv4
I0507 03:33:44.905977 31241 net.cpp:435] conv4 <- conv3
I0507 03:33:44.905982 31241 net.cpp:409] conv4 -> conv4
I0507 03:33:44.910828 31241 net.cpp:144] Setting up conv4
I0507 03:33:44.910842 31241 net.cpp:151] Top shape: 20 64 5 5 (32000)
I0507 03:33:44.910846 31241 net.cpp:159] Memory required for data: 2568080
I0507 03:33:44.910852 31241 layer_factory.hpp:77] Creating layer relu4
I0507 03:33:44.910858 31241 net.cpp:94] Creating Layer relu4
I0507 03:33:44.910861 31241 net.cpp:435] relu4 <- conv4
I0507 03:33:44.910866 31241 net.cpp:396] relu4 -> conv4 (in-place)
I0507 03:33:44.910873 31241 net.cpp:144] Setting up relu4
I0507 03:33:44.910877 31241 net.cpp:151] Top shape: 20 64 5 5 (32000)
I0507 03:33:44.910881 31241 net.cpp:159] Memory required for data: 2696080
I0507 03:33:44.910883 31241 layer_factory.hpp:77] Creating layer conv5
I0507 03:33:44.910890 31241 net.cpp:94] Creating Layer conv5
I0507 03:33:44.910894 31241 net.cpp:435] conv5 <- conv4
I0507 03:33:44.910898 31241 net.cpp:409] conv5 -> conv5
I0507 03:33:44.915279 31241 net.cpp:144] Setting up conv5
I0507 03:33:44.915292 31241 net.cpp:151] Top shape: 20 64 5 5 (32000)
I0507 03:33:44.915295 31241 net.cpp:159] Memory required for data: 2824080
I0507 03:33:44.915303 31241 layer_factory.hpp:77] Creating layer relu5
I0507 03:33:44.915309 31241 net.cpp:94] Creating Layer relu5
I0507 03:33:44.915313 31241 net.cpp:435] relu5 <- conv5
I0507 03:33:44.915318 31241 net.cpp:396] relu5 -> conv5 (in-place)
I0507 03:33:44.915323 31241 net.cpp:144] Setting up relu5
I0507 03:33:44.915328 31241 net.cpp:151] Top shape: 20 64 5 5 (32000)
I0507 03:33:44.915331 31241 net.cpp:159] Memory required for data: 2952080
I0507 03:33:44.915334 31241 layer_factory.hpp:77] Creating layer pool5
I0507 03:33:44.915339 31241 net.cpp:94] Creating Layer pool5
I0507 03:33:44.915343 31241 net.cpp:435] pool5 <- conv5
I0507 03:33:44.915346 31241 net.cpp:409] pool5 -> pool5
I0507 03:33:44.915380 31241 net.cpp:144] Setting up pool5
I0507 03:33:44.915386 31241 net.cpp:151] Top shape: 20 64 2 2 (5120)
I0507 03:33:44.915390 31241 net.cpp:159] Memory required for data: 2972560
I0507 03:33:44.915392 31241 layer_factory.hpp:77] Creating layer ip1
I0507 03:33:44.915400 31241 net.cpp:94] Creating Layer ip1
I0507 03:33:44.915402 31241 net.cpp:435] ip1 <- pool5
I0507 03:33:44.915407 31241 net.cpp:409] ip1 -> ip1
I0507 03:33:44.915917 31241 net.cpp:144] Setting up ip1
I0507 03:33:44.915925 31241 net.cpp:151] Top shape: 20 64 (1280)
I0507 03:33:44.915928 31241 net.cpp:159] Memory required for data: 2977680
I0507 03:33:44.915933 31241 layer_factory.hpp:77] Creating layer ip2
I0507 03:33:44.915940 31241 net.cpp:94] Creating Layer ip2
I0507 03:33:44.915943 31241 net.cpp:435] ip2 <- ip1
I0507 03:33:44.915948 31241 net.cpp:409] ip2 -> ip2
I0507 03:33:44.916162 31241 net.cpp:144] Setting up ip2
I0507 03:33:44.916168 31241 net.cpp:151] Top shape: 20 64 (1280)
I0507 03:33:44.916172 31241 net.cpp:159] Memory required for data: 2982800
I0507 03:33:44.916177 31241 layer_factory.hpp:77] Creating layer ip3
I0507 03:33:44.916182 31241 net.cpp:94] Creating Layer ip3
I0507 03:33:44.916185 31241 net.cpp:435] ip3 <- ip2
I0507 03:33:44.916190 31241 net.cpp:409] ip3 -> ip3
I0507 03:33:44.916378 31241 net.cpp:144] Setting up ip3
I0507 03:33:44.916385 31241 net.cpp:151] Top shape: 20 50 (1000)
I0507 03:33:44.916388 31241 net.cpp:159] Memory required for data: 2986800
I0507 03:33:44.916393 31241 layer_factory.hpp:77] Creating layer loss
I0507 03:33:44.916399 31241 net.cpp:94] Creating Layer loss
I0507 03:33:44.916402 31241 net.cpp:435] loss <- ip3
I0507 03:33:44.916406 31241 net.cpp:435] loss <- label
I0507 03:33:44.916410 31241 net.cpp:409] loss -> loss
I0507 03:33:44.916417 31241 layer_factory.hpp:77] Creating layer loss
…
I0507 03:33:44.917789 31241 solver.cpp:181] Creating test net (#0) specified by net file: ./protocol/dis_50_100_dimension.protocol_distribution
I0507 03:33:44.917816 31241 net.cpp:323] The NetState phase (1) differed from the phase (0) specified by a rule in layer parameters
I0507 03:33:44.917910 31241 net.cpp:52] Initializing net from parameters: 
state {
  phase: TEST
}
layer {
  name: "intercept"
  type: "HDF5Data"
  top: "data"
  top: "label"
  include {
    phase: TEST
  }
  hdf5_data_param {
    source: "/home/purduethu/scratch/radon/d/deng106/CNNStatisticalModel/distributions/input/50_distributions_100_sample_size_test-distributions-path.txt"
    batch_size: 20
  }
}
layer {
  name: "conv1"
  type: "Convolution"
  bottom: "data"
  top: "conv1"
  param {
    lr_mult: 1
  }
  param {
    lr_mult: 2
  }
  convolution_param {
    num_output: 64
    pad: 2
    kernel_size: 5
    stride: 1
    weight_filler {
      type: "gaussian"
      std: 0.0001
    }
    bias_filler {
      type: "constant"
    }
  }
}
layer {
  name: "relu1"
  type: "ReLU"
  bottom: "conv1"
  top: "conv1"
}
layer {
  name: "conv2"
  type: "Convolution"
  bottom: "conv1"
  top: "conv2"
  param {
    lr_mult: 1
  }
  param {
    lr_mult: 2
  }
  convolution_param {
    num_output: 64
    pad: 2
    kernel_size: 5
    stride: 1
    weight_filler {
      type: "gaussian"
      std: 0.01
    }
    bias_filler {
      type: "constant"
    }
  }
}
layer {
  name: "relu2"
  type: "ReLU"
  bottom: "conv2"
  top: "conv2"
}
layer {
  name: "pool2"
  type: "Pooling"
  bottom: "conv2"
  top: "pool2"
  pooling_param {
    pool: MAX
    kernel_size: 3
    stride: 2
  }
}
layer {
  name: "conv3"
  type: "Convolution"
  bottom: "pool2"
  top: "conv3"
  param {
    lr_mult: 1
  }
  param {
    lr_mult: 2
  }
  convolution_param {
    num_output: 64
    pad: 2
    kernel_size: 5
    stride: 1
    weight_filler {
      type: "gaussian"
      std: 0.01
    }
    bias_filler {
      type: "constant"
    }
  }
}
layer {
  name: "relu3"
  type: "ReLU"
  bottom: "conv3"
  top: "conv3"
}
layer {
  name: "conv4"
  type: "Convolution"
  bottom: "conv3"
  top: "conv4"
  param {
    lr_mult: 1
  }
  param {
    lr_mult: 2
  }
  convolution_param {
    num_output: 64
    pad: 2
    kernel_size: 5
    stride: 1
    weight_filler {
      type: "gaussian"
      std: 0.01
    }
    bias_filler {
      type: "constant"
    }
  }
}
layer {
  name: "relu4"
  type: "ReLU"
  bottom: "conv4"
  top: "conv4"
}
layer {
  name: "conv5"
  type: "Convolution"
  bottom: "conv4"
  top: "conv5"
  param {
    lr_mult: 1
  }
  param {
    lr_mult: 2
  }
  convolution_param {
    num_output: 64
    pad: 2
    kernel_size: 5
    stride: 1
    weight_filler {
      type: "gaussian"
      std: 0.01
    }
    bias_filler {
      type: "constant"
    }
  }
}
layer {
  name: "relu5"
  type: "ReLU"
  bottom: "conv5"
  top: "conv5"
}
layer {
  name: "pool5"
  type: "Pooling"
  bottom: "conv5"
  top: "pool5"
  pooling_param {
    pool: AVE
    kernel_size: 3
    stride: 2
  }
}
layer {
  name: "ip1"
  type: "InnerProduct"
  bottom: "pool5"
  top: "ip1"
  param {
    lr_mult: 1
  }
  param {
    lr_mult: 2
  }
  inner_product_param {
    num_output: 64
    weight_filler {
      type: "gaussian"
      std: 0.1
    }
    bias_filler {
      type: "constant"
    }
  }
}
layer {
  name: "ip2"
  type: "InnerProduct"
  bottom: "ip1"
  top: "ip2"
  param {
    lr_mult: 1
  }
  param {
    lr_mult: 2
  }
  inner_product_param {
    num_output: 64
    weight_filler {
      type: "gaussian"
      std: 0.1
    }
    bias_filler {
      type: "constant"
    }
  }
}
layer {
  name: "ip3"
  type: "InnerProduct"
  bottom: "ip2"
  top: "ip3"
  param {
    lr_mult: 1
  }
  param {
    lr_mult: 2
  }
  inner_product_param {
    num_output: 50
    weight_filler {
      type: "gaussian"
      std: 0.1
    }
    bias_filler {
      type: "constant"
    }
  }
}
layer {
  name: "accuracy"
  type: "Accuracy"
  bottom: "ip3"
  bottom: "label"
  top: "accuracy"
  include {
    phase: TEST
  }
}
layer {
  name: "loss"
  type: "SoftmaxWithLoss"
  bottom: "ip3"
  bottom: "label"
  top: "loss"
}
I0507 03:33:44.917974 31241 layer_factory.hpp:77] Creating layer intercept
I0507 03:33:44.917984 31241 net.cpp:94] Creating Layer intercept
I0507 03:33:44.917987 31241 net.cpp:409] intercept -> data
I0507 03:33:44.917994 31241 net.cpp:409] intercept -> label
I0507 03:33:44.917999 31241 hdf5_data_layer.cpp:79] Loading list of HDF5 filenames from: /home/purduethu/scratch/radon/d/deng106/CNNStatisticalModel/distributions/input/50_distributions_100_sample_size_test-distributions-path.txt
I0507 03:33:44.918020 31241 hdf5_data_layer.cpp:93] Number of HDF5 files: 1
I0507 03:33:44.959379 31241 net.cpp:144] Setting up intercept
I0507 03:33:44.959411 31241 net.cpp:151] Top shape: 20 1 10 10 (2000)
I0507 03:33:44.959417 31241 net.cpp:151] Top shape: 20 (20)
I0507 03:33:44.959420 31241 net.cpp:159] Memory required for data: 8080
I0507 03:33:44.959426 31241 layer_factory.hpp:77] Creating layer label_intercept_1_split
I0507 03:33:44.959446 31241 net.cpp:94] Creating Layer label_intercept_1_split
I0507 03:33:44.959451 31241 net.cpp:435] label_intercept_1_split <- label
I0507 03:33:44.959456 31241 net.cpp:409] label_intercept_1_split -> label_intercept_1_split_0
I0507 03:33:44.959465 31241 net.cpp:409] label_intercept_1_split -> label_intercept_1_split_1
I0507 03:33:44.959506 31241 net.cpp:144] Setting up label_intercept_1_split
I0507 03:33:44.959511 31241 net.cpp:151] Top shape: 20 (20)
I0507 03:33:44.959516 31241 net.cpp:151] Top shape: 20 (20)
I0507 03:33:44.959518 31241 net.cpp:159] Memory required for data: 8240
I0507 03:33:44.959522 31241 layer_factory.hpp:77] Creating layer conv1
I0507 03:33:44.959532 31241 net.cpp:94] Creating Layer conv1
I0507 03:33:44.959535 31241 net.cpp:435] conv1 <- data
I0507 03:33:44.959540 31241 net.cpp:409] conv1 -> conv1
I0507 03:33:44.960363 31241 net.cpp:144] Setting up conv1
I0507 03:33:44.960376 31241 net.cpp:151] Top shape: 20 64 10 10 (128000)
I0507 03:33:44.960379 31241 net.cpp:159] Memory required for data: 520240
I0507 03:33:44.960388 31241 layer_factory.hpp:77] Creating layer relu1
I0507 03:33:44.960396 31241 net.cpp:94] Creating Layer relu1
I0507 03:33:44.960398 31241 net.cpp:435] relu1 <- conv1
I0507 03:33:44.960403 31241 net.cpp:396] relu1 -> conv1 (in-place)
I0507 03:33:44.960410 31241 net.cpp:144] Setting up relu1
I0507 03:33:44.960414 31241 net.cpp:151] Top shape: 20 64 10 10 (128000)
I0507 03:33:44.960417 31241 net.cpp:159] Memory required for data: 1032240
I0507 03:33:44.960427 31241 layer_factory.hpp:77] Creating layer conv2
I0507 03:33:44.960435 31241 net.cpp:94] Creating Layer conv2
I0507 03:33:44.960439 31241 net.cpp:435] conv2 <- conv1
I0507 03:33:44.960443 31241 net.cpp:409] conv2 -> conv2
I0507 03:33:44.964498 31241 net.cpp:144] Setting up conv2
I0507 03:33:44.964511 31241 net.cpp:151] Top shape: 20 64 10 10 (128000)
I0507 03:33:44.964515 31241 net.cpp:159] Memory required for data: 1544240
I0507 03:33:44.964524 31241 layer_factory.hpp:77] Creating layer relu2
I0507 03:33:44.964531 31241 net.cpp:94] Creating Layer relu2
I0507 03:33:44.964534 31241 net.cpp:435] relu2 <- conv2
I0507 03:33:44.964540 31241 net.cpp:396] relu2 -> conv2 (in-place)
I0507 03:33:44.964545 31241 net.cpp:144] Setting up relu2
I0507 03:33:44.964557 31241 net.cpp:151] Top shape: 20 64 10 10 (128000)
I0507 03:33:44.964562 31241 net.cpp:159] Memory required for data: 2056240
I0507 03:33:44.964565 31241 layer_factory.hpp:77] Creating layer pool2
I0507 03:33:44.964571 31241 net.cpp:94] Creating Layer pool2
I0507 03:33:44.964574 31241 net.cpp:435] pool2 <- conv2
I0507 03:33:44.964578 31241 net.cpp:409] pool2 -> pool2
I0507 03:33:44.964632 31241 net.cpp:144] Setting up pool2
I0507 03:33:44.964637 31241 net.cpp:151] Top shape: 20 64 5 5 (32000)
I0507 03:33:44.964640 31241 net.cpp:159] Memory required for data: 2184240
I0507 03:33:44.964644 31241 layer_factory.hpp:77] Creating layer conv3
I0507 03:33:44.964653 31241 net.cpp:94] Creating Layer conv3
I0507 03:33:44.964655 31241 net.cpp:435] conv3 <- pool2
I0507 03:33:44.964661 31241 net.cpp:409] conv3 -> conv3
I0507 03:33:44.969002 31241 net.cpp:144] Setting up conv3
I0507 03:33:44.969015 31241 net.cpp:151] Top shape: 20 64 5 5 (32000)
I0507 03:33:44.969019 31241 net.cpp:159] Memory required for data: 2312240
I0507 03:33:44.969027 31241 layer_factory.hpp:77] Creating layer relu3
I0507 03:33:44.969033 31241 net.cpp:94] Creating Layer relu3
I0507 03:33:44.969038 31241 net.cpp:435] relu3 <- conv3
I0507 03:33:44.969041 31241 net.cpp:396] relu3 -> conv3 (in-place)
I0507 03:33:44.969048 31241 net.cpp:144] Setting up relu3
I0507 03:33:44.969053 31241 net.cpp:151] Top shape: 20 64 5 5 (32000)
I0507 03:33:44.969055 31241 net.cpp:159] Memory required for data: 2440240
I0507 03:33:44.969058 31241 layer_factory.hpp:77] Creating layer conv4
I0507 03:33:44.969068 31241 net.cpp:94] Creating Layer conv4
I0507 03:33:44.969071 31241 net.cpp:435] conv4 <- conv3
I0507 03:33:44.969075 31241 net.cpp:409] conv4 -> conv4
I0507 03:33:44.972607 31241 net.cpp:144] Setting up conv4
I0507 03:33:44.972620 31241 net.cpp:151] Top shape: 20 64 5 5 (32000)
I0507 03:33:44.972625 31241 net.cpp:159] Memory required for data: 2568240
I0507 03:33:44.972630 31241 layer_factory.hpp:77] Creating layer relu4
I0507 03:33:44.972635 31241 net.cpp:94] Creating Layer relu4
I0507 03:33:44.972638 31241 net.cpp:435] relu4 <- conv4
I0507 03:33:44.972643 31241 net.cpp:396] relu4 -> conv4 (in-place)
I0507 03:33:44.972650 31241 net.cpp:144] Setting up relu4
I0507 03:33:44.972653 31241 net.cpp:151] Top shape: 20 64 5 5 (32000)
I0507 03:33:44.972656 31241 net.cpp:159] Memory required for data: 2696240
I0507 03:33:44.972659 31241 layer_factory.hpp:77] Creating layer conv5
I0507 03:33:44.972668 31241 net.cpp:94] Creating Layer conv5
I0507 03:33:44.972671 31241 net.cpp:435] conv5 <- conv4
I0507 03:33:44.972676 31241 net.cpp:409] conv5 -> conv5
I0507 03:33:44.976605 31241 net.cpp:144] Setting up conv5
I0507 03:33:44.976619 31241 net.cpp:151] Top shape: 20 64 5 5 (32000)
I0507 03:33:44.976622 31241 net.cpp:159] Memory required for data: 2824240
I0507 03:33:44.976630 31241 layer_factory.hpp:77] Creating layer relu5
I0507 03:33:44.976636 31241 net.cpp:94] Creating Layer relu5
I0507 03:33:44.976639 31241 net.cpp:435] relu5 <- conv5
I0507 03:33:44.976644 31241 net.cpp:396] relu5 -> conv5 (in-place)
I0507 03:33:44.976650 31241 net.cpp:144] Setting up relu5
I0507 03:33:44.976655 31241 net.cpp:151] Top shape: 20 64 5 5 (32000)
I0507 03:33:44.976657 31241 net.cpp:159] Memory required for data: 2952240
I0507 03:33:44.976665 31241 layer_factory.hpp:77] Creating layer pool5
I0507 03:33:44.976670 31241 net.cpp:94] Creating Layer pool5
I0507 03:33:44.976673 31241 net.cpp:435] pool5 <- conv5
I0507 03:33:44.976678 31241 net.cpp:409] pool5 -> pool5
I0507 03:33:44.976714 31241 net.cpp:144] Setting up pool5
I0507 03:33:44.976721 31241 net.cpp:151] Top shape: 20 64 2 2 (5120)
I0507 03:33:44.976723 31241 net.cpp:159] Memory required for data: 2972720
I0507 03:33:44.976727 31241 layer_factory.hpp:77] Creating layer ip1
I0507 03:33:44.976734 31241 net.cpp:94] Creating Layer ip1
I0507 03:33:44.976737 31241 net.cpp:435] ip1 <- pool5
I0507 03:33:44.976742 31241 net.cpp:409] ip1 -> ip1
I0507 03:33:44.977262 31241 net.cpp:144] Setting up ip1
I0507 03:33:44.977268 31241 net.cpp:151] Top shape: 20 64 (1280)
I0507 03:33:44.977272 31241 net.cpp:159] Memory required for data: 2977840
I0507 03:33:44.977277 31241 layer_factory.hpp:77] Creating layer ip2
I0507 03:33:44.977283 31241 net.cpp:94] Creating Layer ip2
I0507 03:33:44.977285 31241 net.cpp:435] ip2 <- ip1
I0507 03:33:44.977290 31241 net.cpp:409] ip2 -> ip2
I0507 03:33:44.977510 31241 net.cpp:144] Setting up ip2
I0507 03:33:44.977517 31241 net.cpp:151] Top shape: 20 64 (1280)
I0507 03:33:44.977520 31241 net.cpp:159] Memory required for data: 2982960
I0507 03:33:44.977525 31241 layer_factory.hpp:77] Creating layer ip3
I0507 03:33:44.977532 31241 net.cpp:94] Creating Layer ip3
I0507 03:33:44.977535 31241 net.cpp:435] ip3 <- ip2
I0507 03:33:44.977540 31241 net.cpp:409] ip3 -> ip3
I0507 03:33:44.977733 31241 net.cpp:144] Setting up ip3
I0507 03:33:44.977741 31241 net.cpp:151] Top shape: 20 50 (1000)
I0507 03:33:44.977743 31241 net.cpp:159] Memory required for data: 2986960
I0507 03:33:44.977747 31241 layer_factory.hpp:77] Creating layer ip3_ip3_0_split
I0507 03:33:44.977752 31241 net.cpp:94] Creating Layer ip3_ip3_0_split
I0507 03:33:44.977756 31241 net.cpp:435] ip3_ip3_0_split <- ip3
I0507 03:33:44.977761 31241 net.cpp:409] ip3_ip3_0_split -> ip3_ip3_0_split_0
I0507 03:33:44.977766 31241 net.cpp:409] ip3_ip3_0_split -> ip3_ip3_0_split_1
I0507 03:33:44.977805 31241 net.cpp:144] Setting up ip3_ip3_0_split
I0507 03:33:44.977811 31241 net.cpp:151] Top shape: 20 50 (1000)
I0507 03:33:44.977814 31241 net.cpp:151] Top shape: 20 50 (1000)
I0507 03:33:44.977818 31241 net.cpp:159] Memory required for data: 2994960
I0507 03:33:44.977820 31241 layer_factory.hpp:77] Creating layer accuracy
I0507 03:33:44.977825 31241 net.cpp:94] Creating Layer accuracy
I0507 03:33:44.977828 31241 net.cpp:435] accuracy <- ip3_ip3_0_split_0
I0507 03:33:44.977833 31241 net.cpp:435] accuracy <- label_intercept_1_split_0
I0507 03:33:44.977838 31241 net.cpp:409] accuracy -> accuracy
…
