…
I0505 20:32:07.184317  9101 net.cpp:323] The NetState phase (0) differed from the phase (1) specified by a rule in layer intercept
I0505 20:32:07.184331  9101 net.cpp:323] The NetState phase (0) differed from the phase (1) specified by a rule in layer loss
I0505 20:32:07.184397  9101 net.cpp:52] Initializing net from parameters: 
state {
  phase: TRAIN
}
layer {
  name: "parameters"
  type: "HDF5Data"
  top: "data"
  top: "label"
  include {
    phase: TRAIN
  }
  hdf5_data_param {
    source: "/home/purduethu/scratch/radon/d/deng106/CNNStatisticalModel/distributions/input/50_distributions_900_sample_size_train-parameters-path.txt"
    batch_size: 20
  }
}
layer {
  name: "conv1"
  type: "Convolution"
  bottom: "data"
  top: "conv1"
  param {
    lr_mult: 1
  }
  param {
    lr_mult: 2
  }
  convolution_param {
    num_output: 64
    pad: 2
    kernel_size: 5
    stride: 1
    weight_filler {
      type: "gaussian"
      std: 0.0001
    }
    bias_filler {
      type: "constant"
    }
  }
}
layer {
  name: "relu1"
  type: "ReLU"
  bottom: "conv1"
  top: "conv1"
}
layer {
  name: "pool1"
  type: "Pooling"
  bottom: "conv1"
  top: "pool1"
  pooling_param {
    pool: MAX
    kernel_size: 3
    stride: 2
  }
}
layer {
  name: "conv2"
  type: "Convolution"
  bottom: "pool1"
  top: "conv2"
  param {
    lr_mult: 1
  }
  param {
    lr_mult: 2
  }
  convolution_param {
    num_output: 128
    pad: 2
    kernel_size: 5
    stride: 1
    weight_filler {
      type: "gaussian"
      std: 0.01
    }
    bias_filler {
      type: "constant"
    }
  }
}
layer {
  name: "relu2"
  type: "ReLU"
  bottom: "conv2"
  top: "conv2"
}
layer {
  name: "conv3"
  type: "Convolution"
  bottom: "conv2"
  top: "conv3"
  param {
    lr_mult: 1
  }
  param {
    lr_mult: 2
  }
  convolution_param {
    num_output: 128
    pad: 2
    kernel_size: 5
    stride: 1
    weight_filler {
      type: "gaussian"
      std: 0.01
    }
    bias_filler {
      type: "constant"
    }
  }
}
layer {
  name: "relu3"
  type: "ReLU"
  bottom: "conv3"
  top: "conv3"
}
layer {
  name: "pool3"
  type: "Pooling"
  bottom: "conv3"
  top: "pool3"
  pooling_param {
    pool: AVE
    kernel_size: 3
    stride: 2
  }
}
layer {
  name: "ip1"
  type: "InnerProduct"
  bottom: "pool3"
  top: "ip1"
  param {
    lr_mult: 1
  }
  param {
    lr_mult: 2
  }
  inner_product_param {
    num_output: 512
    weight_filler {
      type: "gaussian"
      std: 0.1
    }
    bias_filler {
      type: "constant"
    }
  }
}
layer {
  name: "ip2"
  type: "InnerProduct"
  bottom: "ip1"
  top: "ip2"
  param {
    lr_mult: 1
  }
  param {
    lr_mult: 2
  }
  inner_product_param {
    num_output: 256
    weight_filler {
      type: "gaussian"
      std: 0.1
    }
    bias_filler {
      type: "constant"
    }
  }
}
layer {
  name: "ip3"
  type: "InnerProduct"
  bottom: "ip2"
  top: "ip3"
  param {
    lr_mult: 1
  }
  param {
    lr_mult: 2
  }
  inner_product_param {
    num_output: 1
    weight_filler {
      type: "gaussian"
      std: 0.1
    }
    bias_filler {
      type: "constant"
    }
  }
}
layer {
  name: "loss"
  type: "HuberLoss"
  bottom: "ip3"
  bottom: "label"
  top: "loss"
  include {
    phase: TRAIN
  }
}
I0505 20:32:07.184444  9101 layer_factory.hpp:77] Creating layer parameters
I0505 20:32:07.184459  9101 net.cpp:94] Creating Layer parameters
I0505 20:32:07.184464  9101 net.cpp:409] parameters -> data
I0505 20:32:07.184476  9101 net.cpp:409] parameters -> label
I0505 20:32:07.184484  9101 hdf5_data_layer.cpp:79] Loading list of HDF5 filenames from: /home/purduethu/scratch/radon/d/deng106/CNNStatisticalModel/distributions/input/50_distributions_900_sample_size_train-parameters-path.txt
I0505 20:32:07.184499  9101 hdf5_data_layer.cpp:93] Number of HDF5 files: 1
I0505 20:32:07.185073  9101 hdf5.cpp:32] Datatype class: H5T_FLOAT
I0505 20:32:08.640220  9101 net.cpp:144] Setting up parameters
I0505 20:32:08.640254  9101 net.cpp:151] Top shape: 20 1 30 30 (18000)
I0505 20:32:08.640260  9101 net.cpp:151] Top shape: 20 (20)
I0505 20:32:08.640264  9101 net.cpp:159] Memory required for data: 72080
I0505 20:32:08.640271  9101 layer_factory.hpp:77] Creating layer conv1
I0505 20:32:08.640288  9101 net.cpp:94] Creating Layer conv1
I0505 20:32:08.640292  9101 net.cpp:435] conv1 <- data
I0505 20:32:08.640300  9101 net.cpp:409] conv1 -> conv1
I0505 20:32:08.646870  9101 net.cpp:144] Setting up conv1
I0505 20:32:08.646891  9101 net.cpp:151] Top shape: 20 64 30 30 (1152000)
I0505 20:32:08.646895  9101 net.cpp:159] Memory required for data: 4680080
I0505 20:32:08.646906  9101 layer_factory.hpp:77] Creating layer relu1
I0505 20:32:08.646915  9101 net.cpp:94] Creating Layer relu1
I0505 20:32:08.646919  9101 net.cpp:435] relu1 <- conv1
I0505 20:32:08.646924  9101 net.cpp:396] relu1 -> conv1 (in-place)
I0505 20:32:08.646934  9101 net.cpp:144] Setting up relu1
I0505 20:32:08.646939  9101 net.cpp:151] Top shape: 20 64 30 30 (1152000)
I0505 20:32:08.646941  9101 net.cpp:159] Memory required for data: 9288080
I0505 20:32:08.646944  9101 layer_factory.hpp:77] Creating layer pool1
I0505 20:32:08.646950  9101 net.cpp:94] Creating Layer pool1
I0505 20:32:08.646953  9101 net.cpp:435] pool1 <- conv1
I0505 20:32:08.646958  9101 net.cpp:409] pool1 -> pool1
I0505 20:32:08.647008  9101 net.cpp:144] Setting up pool1
I0505 20:32:08.647017  9101 net.cpp:151] Top shape: 20 64 15 15 (288000)
I0505 20:32:08.647019  9101 net.cpp:159] Memory required for data: 10440080
I0505 20:32:08.647022  9101 layer_factory.hpp:77] Creating layer conv2
I0505 20:32:08.647032  9101 net.cpp:94] Creating Layer conv2
I0505 20:32:08.647037  9101 net.cpp:435] conv2 <- pool1
I0505 20:32:08.647042  9101 net.cpp:409] conv2 -> conv2
I0505 20:32:08.660621  9101 net.cpp:144] Setting up conv2
I0505 20:32:08.660639  9101 net.cpp:151] Top shape: 20 128 15 15 (576000)
I0505 20:32:08.660642  9101 net.cpp:159] Memory required for data: 12744080
I0505 20:32:08.660650  9101 layer_factory.hpp:77] Creating layer relu2
I0505 20:32:08.660657  9101 net.cpp:94] Creating Layer relu2
I0505 20:32:08.660660  9101 net.cpp:435] relu2 <- conv2
I0505 20:32:08.660665  9101 net.cpp:396] relu2 -> conv2 (in-place)
I0505 20:32:08.660673  9101 net.cpp:144] Setting up relu2
I0505 20:32:08.660677  9101 net.cpp:151] Top shape: 20 128 15 15 (576000)
I0505 20:32:08.660681  9101 net.cpp:159] Memory required for data: 15048080
I0505 20:32:08.660684  9101 layer_factory.hpp:77] Creating layer conv3
I0505 20:32:08.660692  9101 net.cpp:94] Creating Layer conv3
I0505 20:32:08.660696  9101 net.cpp:435] conv3 <- conv2
I0505 20:32:08.660701  9101 net.cpp:409] conv3 -> conv3
I0505 20:32:08.683218  9101 net.cpp:144] Setting up conv3
I0505 20:32:08.683234  9101 net.cpp:151] Top shape: 20 128 15 15 (576000)
I0505 20:32:08.683238  9101 net.cpp:159] Memory required for data: 17352080
I0505 20:32:08.683248  9101 layer_factory.hpp:77] Creating layer relu3
I0505 20:32:08.683259  9101 net.cpp:94] Creating Layer relu3
I0505 20:32:08.683264  9101 net.cpp:435] relu3 <- conv3
I0505 20:32:08.683269  9101 net.cpp:396] relu3 -> conv3 (in-place)
I0505 20:32:08.683275  9101 net.cpp:144] Setting up relu3
I0505 20:32:08.683280  9101 net.cpp:151] Top shape: 20 128 15 15 (576000)
I0505 20:32:08.683284  9101 net.cpp:159] Memory required for data: 19656080
I0505 20:32:08.683286  9101 layer_factory.hpp:77] Creating layer pool3
I0505 20:32:08.683292  9101 net.cpp:94] Creating Layer pool3
I0505 20:32:08.683295  9101 net.cpp:435] pool3 <- conv3
I0505 20:32:08.683300  9101 net.cpp:409] pool3 -> pool3
I0505 20:32:08.683339  9101 net.cpp:144] Setting up pool3
I0505 20:32:08.683346  9101 net.cpp:151] Top shape: 20 128 7 7 (125440)
I0505 20:32:08.683349  9101 net.cpp:159] Memory required for data: 20157840
I0505 20:32:08.683353  9101 layer_factory.hpp:77] Creating layer ip1
I0505 20:32:08.683362  9101 net.cpp:94] Creating Layer ip1
I0505 20:32:08.683365  9101 net.cpp:435] ip1 <- pool3
I0505 20:32:08.683370  9101 net.cpp:409] ip1 -> ip1
I0505 20:32:08.762615  9101 net.cpp:144] Setting up ip1
I0505 20:32:08.762652  9101 net.cpp:151] Top shape: 20 512 (10240)
I0505 20:32:08.762656  9101 net.cpp:159] Memory required for data: 20198800
I0505 20:32:08.762666  9101 layer_factory.hpp:77] Creating layer ip2
I0505 20:32:08.762676  9101 net.cpp:94] Creating Layer ip2
I0505 20:32:08.762681  9101 net.cpp:435] ip2 <- ip1
I0505 20:32:08.762687  9101 net.cpp:409] ip2 -> ip2
I0505 20:32:08.765914  9101 net.cpp:144] Setting up ip2
I0505 20:32:08.765923  9101 net.cpp:151] Top shape: 20 256 (5120)
I0505 20:32:08.765928  9101 net.cpp:159] Memory required for data: 20219280
I0505 20:32:08.765934  9101 layer_factory.hpp:77] Creating layer ip3
I0505 20:32:08.765941  9101 net.cpp:94] Creating Layer ip3
I0505 20:32:08.765944  9101 net.cpp:435] ip3 <- ip2
I0505 20:32:08.765949  9101 net.cpp:409] ip3 -> ip3
I0505 20:32:08.766047  9101 net.cpp:144] Setting up ip3
I0505 20:32:08.766053  9101 net.cpp:151] Top shape: 20 1 (20)
I0505 20:32:08.766057  9101 net.cpp:159] Memory required for data: 20219360
I0505 20:32:08.766062  9101 layer_factory.hpp:77] Creating layer loss
I0505 20:32:08.766075  9101 net.cpp:94] Creating Layer loss
I0505 20:32:08.766079  9101 net.cpp:435] loss <- ip3
I0505 20:32:08.766083  9101 net.cpp:435] loss <- label
I0505 20:32:08.766088  9101 net.cpp:409] loss -> loss
I0505 20:32:08.766136  9101 net.cpp:144] Setting up loss
…
I0505 20:32:09.239285  9101 net.cpp:323] The NetState phase (0) differed from the phase (1) specified by a rule in layer intercept
I0505 20:32:09.239301  9101 net.cpp:323] The NetState phase (0) differed from the phase (1) specified by a rule in layer accuracy
I0505 20:32:09.239377  9101 net.cpp:52] Initializing net from parameters: 
state {
  phase: TRAIN
}
layer {
  name: "parameters"
  type: "HDF5Data"
  top: "data"
  top: "label"
  include {
    phase: TRAIN
  }
  hdf5_data_param {
    source: "/home/purduethu/scratch/radon/d/deng106/CNNStatisticalModel/distributions/input/50_distributions_900_sample_size_train-distributions-path.txt"
    batch_size: 20
  }
}
layer {
  name: "conv1"
  type: "Convolution"
  bottom: "data"
  top: "conv1"
  param {
    lr_mult: 1
  }
  param {
    lr_mult: 2
  }
  convolution_param {
    num_output: 64
    pad: 2
    kernel_size: 5
    stride: 1
    weight_filler {
      type: "gaussian"
      std: 0.0001
    }
    bias_filler {
      type: "constant"
    }
  }
}
layer {
  name: "relu1"
  type: "ReLU"
  bottom: "conv1"
  top: "conv1"
}
layer {
  name: "pool1"
  type: "Pooling"
  bottom: "conv1"
  top: "pool1"
  pooling_param {
    pool: MAX
    kernel_size: 3
    stride: 2
  }
}
layer {
  name: "conv2"
  type: "Convolution"
  bottom: "pool1"
  top: "conv2"
  param {
    lr_mult: 1
  }
  param {
    lr_mult: 2
  }
  convolution_param {
    num_output: 128
    pad: 2
    kernel_size: 5
    stride: 1
    weight_filler {
      type: "gaussian"
      std: 0.01
    }
    bias_filler {
      type: "constant"
    }
  }
}
layer {
  name: "relu2"
  type: "ReLU"
  bottom: "conv2"
  top: "conv2"
}
layer {
  name: "conv3"
  type: "Convolution"
  bottom: "conv2"
  top: "conv3"
  param {
    lr_mult: 1
  }
  param {
    lr_mult: 2
  }
  convolution_param {
    num_output: 128
    pad: 2
    kernel_size: 5
    stride: 1
    weight_filler {
      type: "gaussian"
      std: 0.01
    }
    bias_filler {
      type: "constant"
    }
  }
}
layer {
  name: "relu3"
  type: "ReLU"
  bottom: "conv3"
  top: "conv3"
}
layer {
  name: "pool3"
  type: "Pooling"
  bottom: "conv3"
  top: "pool3"
  pooling_param {
    pool: AVE
    kernel_size: 3
    stride: 2
  }
}
layer {
  name: "ip1"
  type: "InnerProduct"
  bottom: "pool3"
  top: "ip1"
  param {
    lr_mult: 1
  }
  param {
    lr_mult: 2
  }
  inner_product_param {
    num_output: 512
    weight_filler {
      type: "gaussian"
      std: 0.1
    }
    bias_filler {
      type: "constant"
    }
  }
}
layer {
  name: "ip2"
  type: "InnerProduct"
  bottom: "ip1"
  top: "ip2"
  param {
    lr_mult: 1
  }
  param {
    lr_mult: 2
  }
  inner_product_param {
    num_output: 256
    weight_filler {
      type: "gaussian"
      std: 0.1
    }
    bias_filler {
      type: "constant"
    }
  }
}
layer {
  name: "ip3"
  type: "InnerProduct"
  bottom: "ip2"
  top: "ip3"
  param {
    lr_mult: 1
  }
  param {
    lr_mult: 2
  }
  inner_product_param {
    num_output: 50
    weight_filler {
      type: "gaussian"
      std: 0.1
    }
    bias_filler {
      type: "constant"
    }
  }
}
layer {
  name: "loss"
  type: "SoftmaxWithLoss"
  bottom: "ip3"
  bottom: "label"
  top: "loss"
}
I0505 20:32:09.239423  9101 layer_factory.hpp:77] Creating layer parameters
I0505 20:32:09.239431  9101 net.cpp:94] Creating Layer parameters
I0505 20:32:09.239435  9101 net.cpp:409] parameters -> data
I0505 20:32:09.239442  9101 net.cpp:409] parameters -> label
I0505 20:32:09.239449  9101 hdf5_data_layer.cpp:79] Loading list of HDF5 filenames from: /home/purduethu/scratch/radon/d/deng106/CNNStatisticalModel/distributions/input/50_distributions_900_sample_size_train-distributions-path.txt
I0505 20:32:09.239464  9101 hdf5_data_layer.cpp:93] Number of HDF5 files: 1
I0505 20:32:10.679829  9101 hdf5.cpp:35] Datatype class: H5T_INTEGER
I0505 20:32:10.682942  9101 net.cpp:144] Setting up parameters
I0505 20:32:10.682970  9101 net.cpp:151] Top shape: 20 1 30 30 (18000)
I0505 20:32:10.682973  9101 net.cpp:151] Top shape: 20 (20)
I0505 20:32:10.682977  9101 net.cpp:159] Memory required for data: 72080
I0505 20:32:10.682982  9101 layer_factory.hpp:77] Creating layer conv1
I0505 20:32:10.682998  9101 net.cpp:94] Creating Layer conv1
I0505 20:32:10.683002  9101 net.cpp:435] conv1 <- data
I0505 20:32:10.683008  9101 net.cpp:409] conv1 -> conv1
I0505 20:32:10.686465  9101 net.cpp:144] Setting up conv1
I0505 20:32:10.686502  9101 net.cpp:151] Top shape: 20 64 30 30 (1152000)
I0505 20:32:10.686513  9101 net.cpp:159] Memory required for data: 4680080
I0505 20:32:10.686539  9101 layer_factory.hpp:77] Creating layer relu1
I0505 20:32:10.686558  9101 net.cpp:94] Creating Layer relu1
I0505 20:32:10.686568  9101 net.cpp:435] relu1 <- conv1
I0505 20:32:10.686579  9101 net.cpp:396] relu1 -> conv1 (in-place)
I0505 20:32:10.686599  9101 net.cpp:144] Setting up relu1
I0505 20:32:10.686612  9101 net.cpp:151] Top shape: 20 64 30 30 (1152000)
I0505 20:32:10.686620  9101 net.cpp:159] Memory required for data: 9288080
I0505 20:32:10.686630  9101 layer_factory.hpp:77] Creating layer pool1
I0505 20:32:10.686643  9101 net.cpp:94] Creating Layer pool1
I0505 20:32:10.686662  9101 net.cpp:435] pool1 <- conv1
I0505 20:32:10.686676  9101 net.cpp:409] pool1 -> pool1
I0505 20:32:10.686805  9101 net.cpp:144] Setting up pool1
I0505 20:32:10.686825  9101 net.cpp:151] Top shape: 20 64 15 15 (288000)
I0505 20:32:10.686843  9101 net.cpp:159] Memory required for data: 10440080
I0505 20:32:10.686846  9101 layer_factory.hpp:77] Creating layer conv2
I0505 20:32:10.686856  9101 net.cpp:94] Creating Layer conv2
I0505 20:32:10.686858  9101 net.cpp:435] conv2 <- pool1
I0505 20:32:10.686863  9101 net.cpp:409] conv2 -> conv2
I0505 20:32:10.700016  9101 net.cpp:144] Setting up conv2
I0505 20:32:10.700032  9101 net.cpp:151] Top shape: 20 128 15 15 (576000)
I0505 20:32:10.700037  9101 net.cpp:159] Memory required for data: 12744080
I0505 20:32:10.700044  9101 layer_factory.hpp:77] Creating layer relu2
I0505 20:32:10.700052  9101 net.cpp:94] Creating Layer relu2
I0505 20:32:10.700054  9101 net.cpp:435] relu2 <- conv2
I0505 20:32:10.700059  9101 net.cpp:396] relu2 -> conv2 (in-place)
I0505 20:32:10.700067  9101 net.cpp:144] Setting up relu2
I0505 20:32:10.700072  9101 net.cpp:151] Top shape: 20 128 15 15 (576000)
I0505 20:32:10.700074  9101 net.cpp:159] Memory required for data: 15048080
I0505 20:32:10.700078  9101 layer_factory.hpp:77] Creating layer conv3
I0505 20:32:10.700084  9101 net.cpp:94] Creating Layer conv3
I0505 20:32:10.700088  9101 net.cpp:435] conv3 <- conv2
I0505 20:32:10.700093  9101 net.cpp:409] conv3 -> conv3
I0505 20:32:10.722496  9101 net.cpp:144] Setting up conv3
I0505 20:32:10.722512  9101 net.cpp:151] Top shape: 20 128 15 15 (576000)
I0505 20:32:10.722515  9101 net.cpp:159] Memory required for data: 17352080
I0505 20:32:10.722524  9101 layer_factory.hpp:77] Creating layer relu3
I0505 20:32:10.722530  9101 net.cpp:94] Creating Layer relu3
I0505 20:32:10.722534  9101 net.cpp:435] relu3 <- conv3
I0505 20:32:10.722538  9101 net.cpp:396] relu3 -> conv3 (in-place)
I0505 20:32:10.722545  9101 net.cpp:144] Setting up relu3
I0505 20:32:10.722550  9101 net.cpp:151] Top shape: 20 128 15 15 (576000)
I0505 20:32:10.722553  9101 net.cpp:159] Memory required for data: 19656080
I0505 20:32:10.722555  9101 layer_factory.hpp:77] Creating layer pool3
I0505 20:32:10.722561  9101 net.cpp:94] Creating Layer pool3
I0505 20:32:10.722564  9101 net.cpp:435] pool3 <- conv3
I0505 20:32:10.722569  9101 net.cpp:409] pool3 -> pool3
I0505 20:32:10.722607  9101 net.cpp:144] Setting up pool3
I0505 20:32:10.722615  9101 net.cpp:151] Top shape: 20 128 7 7 (125440)
I0505 20:32:10.722617  9101 net.cpp:159] Memory required for data: 20157840
I0505 20:32:10.722620  9101 layer_factory.hpp:77] Creating layer ip1
I0505 20:32:10.722627  9101 net.cpp:94] Creating Layer ip1
I0505 20:32:10.722630  9101 net.cpp:435] ip1 <- pool3
I0505 20:32:10.722635  9101 net.cpp:409] ip1 -> ip1
I0505 20:32:10.800510  9101 net.cpp:144] Setting up ip1
I0505 20:32:10.800545  9101 net.cpp:151] Top shape: 20 512 (10240)
I0505 20:32:10.800549  9101 net.cpp:159] Memory required for data: 20198800
I0505 20:32:10.800561  9101 layer_factory.hpp:77] Creating layer ip2
I0505 20:32:10.800572  9101 net.cpp:94] Creating Layer ip2
I0505 20:32:10.800576  9101 net.cpp:435] ip2 <- ip1
I0505 20:32:10.800583  9101 net.cpp:409] ip2 -> ip2
I0505 20:32:10.803753  9101 net.cpp:144] Setting up ip2
I0505 20:32:10.803764  9101 net.cpp:151] Top shape: 20 256 (5120)
I0505 20:32:10.803767  9101 net.cpp:159] Memory required for data: 20219280
I0505 20:32:10.803776  9101 layer_factory.hpp:77] Creating layer ip3
I0505 20:32:10.803781  9101 net.cpp:94] Creating Layer ip3
I0505 20:32:10.803784  9101 net.cpp:435] ip3 <- ip2
I0505 20:32:10.803789  9101 net.cpp:409] ip3 -> ip3
I0505 20:32:10.805212  9101 net.cpp:144] Setting up ip3
I0505 20:32:10.805225  9101 net.cpp:151] Top shape: 20 50 (1000)
I0505 20:32:10.805229  9101 net.cpp:159] Memory required for data: 20223280
I0505 20:32:10.805235  9101 layer_factory.hpp:77] Creating layer loss
I0505 20:32:10.805241  9101 net.cpp:94] Creating Layer loss
I0505 20:32:10.805244  9101 net.cpp:435] loss <- ip3
I0505 20:32:10.805248  9101 net.cpp:435] loss <- label
I0505 20:32:10.805259  9101 net.cpp:409] loss -> loss
I0505 20:32:10.805268  9101 layer_factory.hpp:77] Creating layer loss
…
I0505 20:32:10.805711  9101 solver.cpp:181] Creating test net (#0) specified by net file: ./protocol/dis_50_900_dimension.protocol_distribution
I0505 20:32:10.805735  9101 net.cpp:323] The NetState phase (1) differed from the phase (0) specified by a rule in layer parameters
I0505 20:32:10.805815  9101 net.cpp:52] Initializing net from parameters: 
state {
  phase: TEST
}
layer {
  name: "intercept"
  type: "HDF5Data"
  top: "data"
  top: "label"
  include {
    phase: TEST
  }
  hdf5_data_param {
    source: "/home/purduethu/scratch/radon/d/deng106/CNNStatisticalModel/distributions/input/50_distributions_900_sample_size_test-distributions-path.txt"
    batch_size: 20
  }
}
layer {
  name: "conv1"
  type: "Convolution"
  bottom: "data"
  top: "conv1"
  param {
    lr_mult: 1
  }
  param {
    lr_mult: 2
  }
  convolution_param {
    num_output: 64
    pad: 2
    kernel_size: 5
    stride: 1
    weight_filler {
      type: "gaussian"
      std: 0.0001
    }
    bias_filler {
      type: "constant"
    }
  }
}
layer {
  name: "relu1"
  type: "ReLU"
  bottom: "conv1"
  top: "conv1"
}
layer {
  name: "pool1"
  type: "Pooling"
  bottom: "conv1"
  top: "pool1"
  pooling_param {
    pool: MAX
    kernel_size: 3
    stride: 2
  }
}
layer {
  name: "conv2"
  type: "Convolution"
  bottom: "pool1"
  top: "conv2"
  param {
    lr_mult: 1
  }
  param {
    lr_mult: 2
  }
  convolution_param {
    num_output: 128
    pad: 2
    kernel_size: 5
    stride: 1
    weight_filler {
      type: "gaussian"
      std: 0.01
    }
    bias_filler {
      type: "constant"
    }
  }
}
layer {
  name: "relu2"
  type: "ReLU"
  bottom: "conv2"
  top: "conv2"
}
layer {
  name: "conv3"
  type: "Convolution"
  bottom: "conv2"
  top: "conv3"
  param {
    lr_mult: 1
  }
  param {
    lr_mult: 2
  }
  convolution_param {
    num_output: 128
    pad: 2
    kernel_size: 5
    stride: 1
    weight_filler {
      type: "gaussian"
      std: 0.01
    }
    bias_filler {
      type: "constant"
    }
  }
}
layer {
  name: "relu3"
  type: "ReLU"
  bottom: "conv3"
  top: "conv3"
}
layer {
  name: "pool3"
  type: "Pooling"
  bottom: "conv3"
  top: "pool3"
  pooling_param {
    pool: AVE
    kernel_size: 3
    stride: 2
  }
}
layer {
  name: "ip1"
  type: "InnerProduct"
  bottom: "pool3"
  top: "ip1"
  param {
    lr_mult: 1
  }
  param {
    lr_mult: 2
  }
  inner_product_param {
    num_output: 512
    weight_filler {
      type: "gaussian"
      std: 0.1
    }
    bias_filler {
      type: "constant"
    }
  }
}
layer {
  name: "ip2"
  type: "InnerProduct"
  bottom: "ip1"
  top: "ip2"
  param {
    lr_mult: 1
  }
  param {
    lr_mult: 2
  }
  inner_product_param {
    num_output: 256
    weight_filler {
      type: "gaussian"
      std: 0.1
    }
    bias_filler {
      type: "constant"
    }
  }
}
layer {
  name: "ip3"
  type: "InnerProduct"
  bottom: "ip2"
  top: "ip3"
  param {
    lr_mult: 1
  }
  param {
    lr_mult: 2
  }
  inner_product_param {
    num_output: 50
    weight_filler {
      type: "gaussian"
      std: 0.1
    }
    bias_filler {
      type: "constant"
    }
  }
}
layer {
  name: "accuracy"
  type: "Accuracy"
  bottom: "ip3"
  bottom: "label"
  top: "accuracy"
  include {
    phase: TEST
  }
}
layer {
  name: "loss"
  type: "SoftmaxWithLoss"
  bottom: "ip3"
  bottom: "label"
  top: "loss"
}
I0505 20:32:10.805872  9101 layer_factory.hpp:77] Creating layer intercept
I0505 20:32:10.805881  9101 net.cpp:94] Creating Layer intercept
I0505 20:32:10.805884  9101 net.cpp:409] intercept -> data
I0505 20:32:10.805891  9101 net.cpp:409] intercept -> label
I0505 20:32:10.805896  9101 hdf5_data_layer.cpp:79] Loading list of HDF5 filenames from: /home/purduethu/scratch/radon/d/deng106/CNNStatisticalModel/distributions/input/50_distributions_900_sample_size_test-distributions-path.txt
I0505 20:32:10.805917  9101 hdf5_data_layer.cpp:93] Number of HDF5 files: 1
I0505 20:32:11.173714  9101 net.cpp:144] Setting up intercept
I0505 20:32:11.173748  9101 net.cpp:151] Top shape: 20 1 30 30 (18000)
I0505 20:32:11.173753  9101 net.cpp:151] Top shape: 20 (20)
I0505 20:32:11.173756  9101 net.cpp:159] Memory required for data: 72080
I0505 20:32:11.173763  9101 layer_factory.hpp:77] Creating layer label_intercept_1_split
I0505 20:32:11.173784  9101 net.cpp:94] Creating Layer label_intercept_1_split
I0505 20:32:11.173789  9101 net.cpp:435] label_intercept_1_split <- label
I0505 20:32:11.173794  9101 net.cpp:409] label_intercept_1_split -> label_intercept_1_split_0
I0505 20:32:11.173804  9101 net.cpp:409] label_intercept_1_split -> label_intercept_1_split_1
I0505 20:32:11.173842  9101 net.cpp:144] Setting up label_intercept_1_split
I0505 20:32:11.173849  9101 net.cpp:151] Top shape: 20 (20)
I0505 20:32:11.173852  9101 net.cpp:151] Top shape: 20 (20)
I0505 20:32:11.173856  9101 net.cpp:159] Memory required for data: 72240
I0505 20:32:11.173858  9101 layer_factory.hpp:77] Creating layer conv1
I0505 20:32:11.173869  9101 net.cpp:94] Creating Layer conv1
I0505 20:32:11.173872  9101 net.cpp:435] conv1 <- data
I0505 20:32:11.173877  9101 net.cpp:409] conv1 -> conv1
I0505 20:32:11.175340  9101 net.cpp:144] Setting up conv1
I0505 20:32:11.175354  9101 net.cpp:151] Top shape: 20 64 30 30 (1152000)
I0505 20:32:11.175357  9101 net.cpp:159] Memory required for data: 4680240
I0505 20:32:11.175367  9101 layer_factory.hpp:77] Creating layer relu1
I0505 20:32:11.175374  9101 net.cpp:94] Creating Layer relu1
I0505 20:32:11.175377  9101 net.cpp:435] relu1 <- conv1
I0505 20:32:11.175381  9101 net.cpp:396] relu1 -> conv1 (in-place)
I0505 20:32:11.175390  9101 net.cpp:144] Setting up relu1
I0505 20:32:11.175393  9101 net.cpp:151] Top shape: 20 64 30 30 (1152000)
I0505 20:32:11.175396  9101 net.cpp:159] Memory required for data: 9288240
I0505 20:32:11.175400  9101 layer_factory.hpp:77] Creating layer pool1
I0505 20:32:11.175405  9101 net.cpp:94] Creating Layer pool1
I0505 20:32:11.175408  9101 net.cpp:435] pool1 <- conv1
I0505 20:32:11.175413  9101 net.cpp:409] pool1 -> pool1
I0505 20:32:11.175464  9101 net.cpp:144] Setting up pool1
I0505 20:32:11.175472  9101 net.cpp:151] Top shape: 20 64 15 15 (288000)
I0505 20:32:11.175474  9101 net.cpp:159] Memory required for data: 10440240
I0505 20:32:11.175477  9101 layer_factory.hpp:77] Creating layer conv2
I0505 20:32:11.175485  9101 net.cpp:94] Creating Layer conv2
I0505 20:32:11.175489  9101 net.cpp:435] conv2 <- pool1
I0505 20:32:11.175494  9101 net.cpp:409] conv2 -> conv2
I0505 20:32:11.183941  9101 net.cpp:144] Setting up conv2
I0505 20:32:11.183956  9101 net.cpp:151] Top shape: 20 128 15 15 (576000)
I0505 20:32:11.183960  9101 net.cpp:159] Memory required for data: 12744240
I0505 20:32:11.183975  9101 layer_factory.hpp:77] Creating layer relu2
I0505 20:32:11.183981  9101 net.cpp:94] Creating Layer relu2
I0505 20:32:11.183985  9101 net.cpp:435] relu2 <- conv2
I0505 20:32:11.183990  9101 net.cpp:396] relu2 -> conv2 (in-place)
I0505 20:32:11.183996  9101 net.cpp:144] Setting up relu2
I0505 20:32:11.184001  9101 net.cpp:151] Top shape: 20 128 15 15 (576000)
I0505 20:32:11.184003  9101 net.cpp:159] Memory required for data: 15048240
I0505 20:32:11.184006  9101 layer_factory.hpp:77] Creating layer conv3
I0505 20:32:11.184015  9101 net.cpp:94] Creating Layer conv3
I0505 20:32:11.184017  9101 net.cpp:435] conv3 <- conv2
I0505 20:32:11.184022  9101 net.cpp:409] conv3 -> conv3
I0505 20:32:11.199550  9101 net.cpp:144] Setting up conv3
I0505 20:32:11.199566  9101 net.cpp:151] Top shape: 20 128 15 15 (576000)
I0505 20:32:11.199570  9101 net.cpp:159] Memory required for data: 17352240
I0505 20:32:11.199579  9101 layer_factory.hpp:77] Creating layer relu3
I0505 20:32:11.199586  9101 net.cpp:94] Creating Layer relu3
I0505 20:32:11.199590  9101 net.cpp:435] relu3 <- conv3
I0505 20:32:11.199594  9101 net.cpp:396] relu3 -> conv3 (in-place)
I0505 20:32:11.199601  9101 net.cpp:144] Setting up relu3
I0505 20:32:11.199606  9101 net.cpp:151] Top shape: 20 128 15 15 (576000)
I0505 20:32:11.199609  9101 net.cpp:159] Memory required for data: 19656240
I0505 20:32:11.199612  9101 layer_factory.hpp:77] Creating layer pool3
I0505 20:32:11.199620  9101 net.cpp:94] Creating Layer pool3
I0505 20:32:11.199623  9101 net.cpp:435] pool3 <- conv3
I0505 20:32:11.199628  9101 net.cpp:409] pool3 -> pool3
I0505 20:32:11.199668  9101 net.cpp:144] Setting up pool3
I0505 20:32:11.199676  9101 net.cpp:151] Top shape: 20 128 7 7 (125440)
I0505 20:32:11.199679  9101 net.cpp:159] Memory required for data: 20158000
I0505 20:32:11.199682  9101 layer_factory.hpp:77] Creating layer ip1
I0505 20:32:11.199689  9101 net.cpp:94] Creating Layer ip1
I0505 20:32:11.199692  9101 net.cpp:435] ip1 <- pool3
I0505 20:32:11.199697  9101 net.cpp:409] ip1 -> ip1
I0505 20:32:11.277704  9101 net.cpp:144] Setting up ip1
I0505 20:32:11.277737  9101 net.cpp:151] Top shape: 20 512 (10240)
I0505 20:32:11.277741  9101 net.cpp:159] Memory required for data: 20198960
I0505 20:32:11.277750  9101 layer_factory.hpp:77] Creating layer ip2
I0505 20:32:11.277760  9101 net.cpp:94] Creating Layer ip2
I0505 20:32:11.277763  9101 net.cpp:435] ip2 <- ip1
I0505 20:32:11.277771  9101 net.cpp:409] ip2 -> ip2
I0505 20:32:11.281021  9101 net.cpp:144] Setting up ip2
I0505 20:32:11.281035  9101 net.cpp:151] Top shape: 20 256 (5120)
I0505 20:32:11.281038  9101 net.cpp:159] Memory required for data: 20219440
I0505 20:32:11.281047  9101 layer_factory.hpp:77] Creating layer ip3
I0505 20:32:11.281054  9101 net.cpp:94] Creating Layer ip3
I0505 20:32:11.281059  9101 net.cpp:435] ip3 <- ip2
I0505 20:32:11.281064  9101 net.cpp:409] ip3 -> ip3
I0505 20:32:11.281497  9101 net.cpp:144] Setting up ip3
I0505 20:32:11.281505  9101 net.cpp:151] Top shape: 20 50 (1000)
I0505 20:32:11.281507  9101 net.cpp:159] Memory required for data: 20223440
I0505 20:32:11.281512  9101 layer_factory.hpp:77] Creating layer ip3_ip3_0_split
I0505 20:32:11.281518  9101 net.cpp:94] Creating Layer ip3_ip3_0_split
I0505 20:32:11.281522  9101 net.cpp:435] ip3_ip3_0_split <- ip3
I0505 20:32:11.281525  9101 net.cpp:409] ip3_ip3_0_split -> ip3_ip3_0_split_0
I0505 20:32:11.281530  9101 net.cpp:409] ip3_ip3_0_split -> ip3_ip3_0_split_1
I0505 20:32:11.281571  9101 net.cpp:144] Setting up ip3_ip3_0_split
I0505 20:32:11.281577  9101 net.cpp:151] Top shape: 20 50 (1000)
I0505 20:32:11.281580  9101 net.cpp:151] Top shape: 20 50 (1000)
I0505 20:32:11.281584  9101 net.cpp:159] Memory required for data: 20231440
I0505 20:32:11.281586  9101 layer_factory.hpp:77] Creating layer accuracy
I0505 20:32:11.281591  9101 net.cpp:94] Creating Layer accuracy
I0505 20:32:11.281594  9101 net.cpp:435] accuracy <- ip3_ip3_0_split_0
I0505 20:32:11.281599  9101 net.cpp:435] accuracy <- label_intercept_1_split_0
I0505 20:32:11.281602  9101 net.cpp:409] accuracy -> accuracy
…
