…
I0503 16:43:07.240934 21403 net.cpp:323] The NetState phase (0) differed from the phase (1) specified by a rule in layer intercept
I0503 16:43:07.240952 21403 net.cpp:323] The NetState phase (0) differed from the phase (1) specified by a rule in layer accuracy
I0503 16:43:07.241044 21403 net.cpp:52] Initializing net from parameters: 
state {
  phase: TRAIN
}
layer {
  name: "parameters"
  type: "HDF5Data"
  top: "data"
  top: "label"
  include {
    phase: TRAIN
  }
  hdf5_data_param {
    source: "/home/purduethu/scratch/radon/d/deng106/CNNStatisticalModel/distributions/input/5_distributions_400_sample_size_train-distributions-path.txt"
    batch_size: 20
  }
}
layer {
  name: "conv1"
  type: "Convolution"
  bottom: "data"
  top: "conv1"
  param {
    lr_mult: 1
  }
  param {
    lr_mult: 2
  }
  convolution_param {
    num_output: 64
    pad: 2
    kernel_size: 5
    stride: 1
    weight_filler {
      type: "gaussian"
      std: 0.0001
    }
    bias_filler {
      type: "constant"
    }
  }
}
layer {
  name: "relu1"
  type: "ReLU"
  bottom: "conv1"
  top: "conv1"
}
layer {
  name: "conv2"
  type: "Convolution"
  bottom: "conv1"
  top: "conv2"
  param {
    lr_mult: 1
  }
  param {
    lr_mult: 2
  }
  convolution_param {
    num_output: 64
    pad: 2
    kernel_size: 5
    stride: 1
    weight_filler {
      type: "gaussian"
      std: 0.01
    }
    bias_filler {
      type: "constant"
    }
  }
}
layer {
  name: "relu2"
  type: "ReLU"
  bottom: "conv2"
  top: "conv2"
}
layer {
  name: "pool2"
  type: "Pooling"
  bottom: "conv2"
  top: "pool2"
  pooling_param {
    pool: MAX
    kernel_size: 3
    stride: 2
  }
}
layer {
  name: "conv3"
  type: "Convolution"
  bottom: "pool2"
  top: "conv3"
  param {
    lr_mult: 1
  }
  param {
    lr_mult: 2
  }
  convolution_param {
    num_output: 128
    pad: 2
    kernel_size: 5
    stride: 1
    weight_filler {
      type: "gaussian"
      std: 0.01
    }
    bias_filler {
      type: "constant"
    }
  }
}
layer {
  name: "relu3"
  type: "ReLU"
  bottom: "conv3"
  top: "conv3"
}
layer {
  name: "conv4"
  type: "Convolution"
  bottom: "conv3"
  top: "conv4"
  param {
    lr_mult: 1
  }
  param {
    lr_mult: 2
  }
  convolution_param {
    num_output: 128
    pad: 2
    kernel_size: 5
    stride: 1
    weight_filler {
      type: "gaussian"
      std: 0.01
    }
    bias_filler {
      type: "constant"
    }
  }
}
layer {
  name: "relu4"
  type: "ReLU"
  bottom: "conv4"
  top: "conv4"
}
layer {
  name: "conv5"
  type: "Convolution"
  bottom: "conv4"
  top: "conv5"
  param {
    lr_mult: 1
  }
  param {
    lr_mult: 2
  }
  convolution_param {
    num_output: 128
    pad: 2
    kernel_size: 5
    stride: 1
    weight_filler {
      type: "gaussian"
      std: 0.01
    }
    bias_filler {
      type: "constant"
    }
  }
}
layer {
  name: "relu5"
  type: "ReLU"
  bottom: "conv5"
  top: "conv5"
}
layer {
  name: "pool5"
  type: "Pooling"
  bottom: "conv5"
  top: "pool5"
  pooling_param {
    pool: AVE
    kernel_size: 3
    stride: 2
  }
}
layer {
  name: "ip1"
  type: "InnerProduct"
  bottom: "pool5"
  top: "ip1"
  param {
    lr_mult: 1
  }
  param {
    lr_mult: 2
  }
  inner_product_param {
    num_output: 1024
    weight_filler {
      type: "gaussian"
      std: 0.1
    }
    bias_filler {
      type: "constant"
    }
  }
}
layer {
  name: "ip2"
  type: "InnerProduct"
  bottom: "ip1"
  top: "ip2"
  param {
    lr_mult: 1
  }
  param {
    lr_mult: 2
  }
  inner_product_param {
    num_output: 512
    weight_filler {
      type: "gaussian"
      std: 0.1
    }
    bias_filler {
      type: "constant"
    }
  }
}
layer {
  name: "ip3"
  type: "InnerProduct"
  bottom: "ip2"
  top: "ip3"
  param {
    lr_mult: 1
  }
  param {
    lr_mult: 2
  }
  inner_product_param {
    num_output: 50
    weight_filler {
      type: "gaussian"
      std: 0.1
    }
    bias_filler {
      type: "constant"
    }
  }
}
layer {
  name: "loss"
  type: "SoftmaxWithLoss"
  bottom: "ip3"
  bottom: "label"
  top: "loss"
}
I0503 16:43:07.241120 21403 layer_factory.hpp:77] Creating layer parameters
I0503 16:43:07.241135 21403 net.cpp:94] Creating Layer parameters
I0503 16:43:07.241142 21403 net.cpp:409] parameters -> data
I0503 16:43:07.241161 21403 net.cpp:409] parameters -> label
I0503 16:43:07.241171 21403 hdf5_data_layer.cpp:79] Loading list of HDF5 filenames from: /home/purduethu/scratch/radon/d/deng106/CNNStatisticalModel/distributions/input/5_distributions_400_sample_size_train-distributions-path.txt
I0503 16:43:07.241194 21403 hdf5_data_layer.cpp:93] Number of HDF5 files: 1
I0503 16:43:07.241663 21403 hdf5.cpp:32] Datatype class: H5T_FLOAT
I0503 16:43:07.303987 21403 hdf5.cpp:35] Datatype class: H5T_INTEGER
I0503 16:43:07.305152 21403 net.cpp:144] Setting up parameters
I0503 16:43:07.305173 21403 net.cpp:151] Top shape: 20 1 20 20 (8000)
I0503 16:43:07.305179 21403 net.cpp:151] Top shape: 20 (20)
I0503 16:43:07.305183 21403 net.cpp:159] Memory required for data: 32080
I0503 16:43:07.305191 21403 layer_factory.hpp:77] Creating layer conv1
I0503 16:43:07.305208 21403 net.cpp:94] Creating Layer conv1
I0503 16:43:07.305214 21403 net.cpp:435] conv1 <- data
I0503 16:43:07.305225 21403 net.cpp:409] conv1 -> conv1
I0503 16:43:07.310014 21403 net.cpp:144] Setting up conv1
I0503 16:43:07.310029 21403 net.cpp:151] Top shape: 20 64 20 20 (512000)
I0503 16:43:07.310034 21403 net.cpp:159] Memory required for data: 2080080
I0503 16:43:07.310046 21403 layer_factory.hpp:77] Creating layer relu1
I0503 16:43:07.310055 21403 net.cpp:94] Creating Layer relu1
I0503 16:43:07.310058 21403 net.cpp:435] relu1 <- conv1
I0503 16:43:07.310063 21403 net.cpp:396] relu1 -> conv1 (in-place)
I0503 16:43:07.310082 21403 net.cpp:144] Setting up relu1
I0503 16:43:07.310087 21403 net.cpp:151] Top shape: 20 64 20 20 (512000)
I0503 16:43:07.310091 21403 net.cpp:159] Memory required for data: 4128080
I0503 16:43:07.310094 21403 layer_factory.hpp:77] Creating layer conv2
I0503 16:43:07.310102 21403 net.cpp:94] Creating Layer conv2
I0503 16:43:07.310106 21403 net.cpp:435] conv2 <- conv1
I0503 16:43:07.310111 21403 net.cpp:409] conv2 -> conv2
I0503 16:43:07.320662 21403 net.cpp:144] Setting up conv2
I0503 16:43:07.320678 21403 net.cpp:151] Top shape: 20 64 20 20 (512000)
I0503 16:43:07.320683 21403 net.cpp:159] Memory required for data: 6176080
I0503 16:43:07.320690 21403 layer_factory.hpp:77] Creating layer relu2
I0503 16:43:07.320698 21403 net.cpp:94] Creating Layer relu2
I0503 16:43:07.320701 21403 net.cpp:435] relu2 <- conv2
I0503 16:43:07.320706 21403 net.cpp:396] relu2 -> conv2 (in-place)
I0503 16:43:07.320714 21403 net.cpp:144] Setting up relu2
I0503 16:43:07.320719 21403 net.cpp:151] Top shape: 20 64 20 20 (512000)
I0503 16:43:07.320722 21403 net.cpp:159] Memory required for data: 8224080
I0503 16:43:07.320725 21403 layer_factory.hpp:77] Creating layer pool2
I0503 16:43:07.320739 21403 net.cpp:94] Creating Layer pool2
I0503 16:43:07.320744 21403 net.cpp:435] pool2 <- conv2
I0503 16:43:07.320747 21403 net.cpp:409] pool2 -> pool2
I0503 16:43:07.320792 21403 net.cpp:144] Setting up pool2
I0503 16:43:07.320801 21403 net.cpp:151] Top shape: 20 64 10 10 (128000)
I0503 16:43:07.320804 21403 net.cpp:159] Memory required for data: 8736080
I0503 16:43:07.320808 21403 layer_factory.hpp:77] Creating layer conv3
I0503 16:43:07.320816 21403 net.cpp:94] Creating Layer conv3
I0503 16:43:07.320819 21403 net.cpp:435] conv3 <- pool2
I0503 16:43:07.320833 21403 net.cpp:409] conv3 -> conv3
I0503 16:43:07.330180 21403 net.cpp:144] Setting up conv3
I0503 16:43:07.330204 21403 net.cpp:151] Top shape: 20 128 10 10 (256000)
I0503 16:43:07.330212 21403 net.cpp:159] Memory required for data: 9760080
I0503 16:43:07.330226 21403 layer_factory.hpp:77] Creating layer relu3
I0503 16:43:07.330236 21403 net.cpp:94] Creating Layer relu3
I0503 16:43:07.330243 21403 net.cpp:435] relu3 <- conv3
I0503 16:43:07.330251 21403 net.cpp:396] relu3 -> conv3 (in-place)
I0503 16:43:07.330265 21403 net.cpp:144] Setting up relu3
I0503 16:43:07.330272 21403 net.cpp:151] Top shape: 20 128 10 10 (256000)
I0503 16:43:07.330277 21403 net.cpp:159] Memory required for data: 10784080
I0503 16:43:07.330283 21403 layer_factory.hpp:77] Creating layer conv4
I0503 16:43:07.330297 21403 net.cpp:94] Creating Layer conv4
I0503 16:43:07.330303 21403 net.cpp:435] conv4 <- conv3
I0503 16:43:07.330312 21403 net.cpp:409] conv4 -> conv4
I0503 16:43:07.348320 21403 net.cpp:144] Setting up conv4
I0503 16:43:07.348361 21403 net.cpp:151] Top shape: 20 128 10 10 (256000)
I0503 16:43:07.348377 21403 net.cpp:159] Memory required for data: 11808080
I0503 16:43:07.348383 21403 layer_factory.hpp:77] Creating layer relu4
I0503 16:43:07.348390 21403 net.cpp:94] Creating Layer relu4
I0503 16:43:07.348394 21403 net.cpp:435] relu4 <- conv4
I0503 16:43:07.348399 21403 net.cpp:396] relu4 -> conv4 (in-place)
I0503 16:43:07.348407 21403 net.cpp:144] Setting up relu4
I0503 16:43:07.348412 21403 net.cpp:151] Top shape: 20 128 10 10 (256000)
I0503 16:43:07.348415 21403 net.cpp:159] Memory required for data: 12832080
I0503 16:43:07.348418 21403 layer_factory.hpp:77] Creating layer conv5
I0503 16:43:07.348426 21403 net.cpp:94] Creating Layer conv5
I0503 16:43:07.348430 21403 net.cpp:435] conv5 <- conv4
I0503 16:43:07.348435 21403 net.cpp:409] conv5 -> conv5
I0503 16:43:07.365628 21403 net.cpp:144] Setting up conv5
I0503 16:43:07.365643 21403 net.cpp:151] Top shape: 20 128 10 10 (256000)
I0503 16:43:07.365648 21403 net.cpp:159] Memory required for data: 13856080
I0503 16:43:07.365656 21403 layer_factory.hpp:77] Creating layer relu5
I0503 16:43:07.365664 21403 net.cpp:94] Creating Layer relu5
I0503 16:43:07.365666 21403 net.cpp:435] relu5 <- conv5
I0503 16:43:07.365671 21403 net.cpp:396] relu5 -> conv5 (in-place)
I0503 16:43:07.365679 21403 net.cpp:144] Setting up relu5
I0503 16:43:07.365684 21403 net.cpp:151] Top shape: 20 128 10 10 (256000)
I0503 16:43:07.365686 21403 net.cpp:159] Memory required for data: 14880080
I0503 16:43:07.365689 21403 layer_factory.hpp:77] Creating layer pool5
I0503 16:43:07.365695 21403 net.cpp:94] Creating Layer pool5
I0503 16:43:07.365698 21403 net.cpp:435] pool5 <- conv5
I0503 16:43:07.365703 21403 net.cpp:409] pool5 -> pool5
I0503 16:43:07.365738 21403 net.cpp:144] Setting up pool5
I0503 16:43:07.365746 21403 net.cpp:151] Top shape: 20 128 5 5 (64000)
I0503 16:43:07.365751 21403 net.cpp:159] Memory required for data: 15136080
I0503 16:43:07.365753 21403 layer_factory.hpp:77] Creating layer ip1
I0503 16:43:07.365761 21403 net.cpp:94] Creating Layer ip1
I0503 16:43:07.365764 21403 net.cpp:435] ip1 <- pool5
I0503 16:43:07.365769 21403 net.cpp:409] ip1 -> ip1
I0503 16:43:07.448652 21403 net.cpp:144] Setting up ip1
I0503 16:43:07.448683 21403 net.cpp:151] Top shape: 20 1024 (20480)
I0503 16:43:07.448688 21403 net.cpp:159] Memory required for data: 15218000
I0503 16:43:07.448695 21403 layer_factory.hpp:77] Creating layer ip2
I0503 16:43:07.448714 21403 net.cpp:94] Creating Layer ip2
I0503 16:43:07.448719 21403 net.cpp:435] ip2 <- ip1
I0503 16:43:07.448725 21403 net.cpp:409] ip2 -> ip2
I0503 16:43:07.462265 21403 net.cpp:144] Setting up ip2
I0503 16:43:07.462280 21403 net.cpp:151] Top shape: 20 512 (10240)
I0503 16:43:07.462283 21403 net.cpp:159] Memory required for data: 15258960
I0503 16:43:07.462290 21403 layer_factory.hpp:77] Creating layer ip3
I0503 16:43:07.462296 21403 net.cpp:94] Creating Layer ip3
I0503 16:43:07.462301 21403 net.cpp:435] ip3 <- ip2
I0503 16:43:07.462306 21403 net.cpp:409] ip3 -> ip3
I0503 16:43:07.463022 21403 net.cpp:144] Setting up ip3
I0503 16:43:07.463032 21403 net.cpp:151] Top shape: 20 50 (1000)
I0503 16:43:07.463034 21403 net.cpp:159] Memory required for data: 15262960
I0503 16:43:07.463039 21403 layer_factory.hpp:77] Creating layer loss
I0503 16:43:07.463048 21403 net.cpp:94] Creating Layer loss
I0503 16:43:07.463052 21403 net.cpp:435] loss <- ip3
I0503 16:43:07.463057 21403 net.cpp:435] loss <- label
I0503 16:43:07.463063 21403 net.cpp:409] loss -> loss
I0503 16:43:07.463074 21403 layer_factory.hpp:77] Creating layer loss
…
I0503 16:43:07.463600 21403 solver.cpp:181] Creating test net (#0) specified by net file: ./protocol/dis_5_400_dimension.protocol_distribution
I0503 16:43:07.463629 21403 net.cpp:323] The NetState phase (1) differed from the phase (0) specified by a rule in layer parameters
I0503 16:43:07.463727 21403 net.cpp:52] Initializing net from parameters: 
state {
  phase: TEST
}
layer {
  name: "intercept"
  type: "HDF5Data"
  top: "data"
  top: "label"
  include {
    phase: TEST
  }
  hdf5_data_param {
    source: "/home/purduethu/scratch/radon/d/deng106/CNNStatisticalModel/distributions/input/5_distributions_400_sample_size_test-distributions-path.txt"
    batch_size: 20
  }
}
layer {
  name: "conv1"
  type: "Convolution"
  bottom: "data"
  top: "conv1"
  param {
    lr_mult: 1
  }
  param {
    lr_mult: 2
  }
  convolution_param {
    num_output: 64
    pad: 2
    kernel_size: 5
    stride: 1
    weight_filler {
      type: "gaussian"
      std: 0.0001
    }
    bias_filler {
      type: "constant"
    }
  }
}
layer {
  name: "relu1"
  type: "ReLU"
  bottom: "conv1"
  top: "conv1"
}
layer {
  name: "conv2"
  type: "Convolution"
  bottom: "conv1"
  top: "conv2"
  param {
    lr_mult: 1
  }
  param {
    lr_mult: 2
  }
  convolution_param {
    num_output: 64
    pad: 2
    kernel_size: 5
    stride: 1
    weight_filler {
      type: "gaussian"
      std: 0.01
    }
    bias_filler {
      type: "constant"
    }
  }
}
layer {
  name: "relu2"
  type: "ReLU"
  bottom: "conv2"
  top: "conv2"
}
layer {
  name: "pool2"
  type: "Pooling"
  bottom: "conv2"
  top: "pool2"
  pooling_param {
    pool: MAX
    kernel_size: 3
    stride: 2
  }
}
layer {
  name: "conv3"
  type: "Convolution"
  bottom: "pool2"
  top: "conv3"
  param {
    lr_mult: 1
  }
  param {
    lr_mult: 2
  }
  convolution_param {
    num_output: 128
    pad: 2
    kernel_size: 5
    stride: 1
    weight_filler {
      type: "gaussian"
      std: 0.01
    }
    bias_filler {
      type: "constant"
    }
  }
}
layer {
  name: "relu3"
  type: "ReLU"
  bottom: "conv3"
  top: "conv3"
}
layer {
  name: "conv4"
  type: "Convolution"
  bottom: "conv3"
  top: "conv4"
  param {
    lr_mult: 1
  }
  param {
    lr_mult: 2
  }
  convolution_param {
    num_output: 128
    pad: 2
    kernel_size: 5
    stride: 1
    weight_filler {
      type: "gaussian"
      std: 0.01
    }
    bias_filler {
      type: "constant"
    }
  }
}
layer {
  name: "relu4"
  type: "ReLU"
  bottom: "conv4"
  top: "conv4"
}
layer {
  name: "conv5"
  type: "Convolution"
  bottom: "conv4"
  top: "conv5"
  param {
    lr_mult: 1
  }
  param {
    lr_mult: 2
  }
  convolution_param {
    num_output: 128
    pad: 2
    kernel_size: 5
    stride: 1
    weight_filler {
      type: "gaussian"
      std: 0.01
    }
    bias_filler {
      type: "constant"
    }
  }
}
layer {
  name: "relu5"
  type: "ReLU"
  bottom: "conv5"
  top: "conv5"
}
layer {
  name: "pool5"
  type: "Pooling"
  bottom: "conv5"
  top: "pool5"
  pooling_param {
    pool: AVE
    kernel_size: 3
    stride: 2
  }
}
layer {
  name: "ip1"
  type: "InnerProduct"
  bottom: "pool5"
  top: "ip1"
  param {
    lr_mult: 1
  }
  param {
    lr_mult: 2
  }
  inner_product_param {
    num_output: 1024
    weight_filler {
      type: "gaussian"
      std: 0.1
    }
    bias_filler {
      type: "constant"
    }
  }
}
layer {
  name: "ip2"
  type: "InnerProduct"
  bottom: "ip1"
  top: "ip2"
  param {
    lr_mult: 1
  }
  param {
    lr_mult: 2
  }
  inner_product_param {
    num_output: 512
    weight_filler {
      type: "gaussian"
      std: 0.1
    }
    bias_filler {
      type: "constant"
    }
  }
}
layer {
  name: "ip3"
  type: "InnerProduct"
  bottom: "ip2"
  top: "ip3"
  param {
    lr_mult: 1
  }
  param {
    lr_mult: 2
  }
  inner_product_param {
    num_output: 50
    weight_filler {
      type: "gaussian"
      std: 0.1
    }
    bias_filler {
      type: "constant"
    }
  }
}
layer {
  name: "accuracy"
  type: "Accuracy"
  bottom: "ip3"
  bottom: "label"
  top: "accuracy"
  include {
    phase: TEST
  }
}
layer {
  name: "loss"
  type: "SoftmaxWithLoss"
  bottom: "ip3"
  bottom: "label"
  top: "loss"
}
I0503 16:43:07.463800 21403 layer_factory.hpp:77] Creating layer intercept
I0503 16:43:07.463809 21403 net.cpp:94] Creating Layer intercept
I0503 16:43:07.463812 21403 net.cpp:409] intercept -> data
I0503 16:43:07.463820 21403 net.cpp:409] intercept -> label
I0503 16:43:07.463826 21403 hdf5_data_layer.cpp:79] Loading list of HDF5 filenames from: /home/purduethu/scratch/radon/d/deng106/CNNStatisticalModel/distributions/input/5_distributions_400_sample_size_test-distributions-path.txt
I0503 16:43:07.463845 21403 hdf5_data_layer.cpp:93] Number of HDF5 files: 1
I0503 16:43:07.481014 21403 net.cpp:144] Setting up intercept
I0503 16:43:07.481043 21403 net.cpp:151] Top shape: 20 1 20 20 (8000)
I0503 16:43:07.481050 21403 net.cpp:151] Top shape: 20 (20)
I0503 16:43:07.481052 21403 net.cpp:159] Memory required for data: 32080
I0503 16:43:07.481060 21403 layer_factory.hpp:77] Creating layer label_intercept_1_split
I0503 16:43:07.481076 21403 net.cpp:94] Creating Layer label_intercept_1_split
I0503 16:43:07.481081 21403 net.cpp:435] label_intercept_1_split <- label
I0503 16:43:07.481086 21403 net.cpp:409] label_intercept_1_split -> label_intercept_1_split_0
I0503 16:43:07.481096 21403 net.cpp:409] label_intercept_1_split -> label_intercept_1_split_1
I0503 16:43:07.481129 21403 net.cpp:144] Setting up label_intercept_1_split
I0503 16:43:07.481137 21403 net.cpp:151] Top shape: 20 (20)
I0503 16:43:07.481140 21403 net.cpp:151] Top shape: 20 (20)
I0503 16:43:07.481143 21403 net.cpp:159] Memory required for data: 32240
I0503 16:43:07.481148 21403 layer_factory.hpp:77] Creating layer conv1
I0503 16:43:07.481159 21403 net.cpp:94] Creating Layer conv1
I0503 16:43:07.481163 21403 net.cpp:435] conv1 <- data
I0503 16:43:07.481168 21403 net.cpp:409] conv1 -> conv1
I0503 16:43:07.481858 21403 net.cpp:144] Setting up conv1
I0503 16:43:07.481870 21403 net.cpp:151] Top shape: 20 64 20 20 (512000)
I0503 16:43:07.481874 21403 net.cpp:159] Memory required for data: 2080240
I0503 16:43:07.481884 21403 layer_factory.hpp:77] Creating layer relu1
I0503 16:43:07.481891 21403 net.cpp:94] Creating Layer relu1
I0503 16:43:07.481895 21403 net.cpp:435] relu1 <- conv1
I0503 16:43:07.481900 21403 net.cpp:396] relu1 -> conv1 (in-place)
I0503 16:43:07.481907 21403 net.cpp:144] Setting up relu1
I0503 16:43:07.481912 21403 net.cpp:151] Top shape: 20 64 20 20 (512000)
I0503 16:43:07.481915 21403 net.cpp:159] Memory required for data: 4128240
I0503 16:43:07.481919 21403 layer_factory.hpp:77] Creating layer conv2
I0503 16:43:07.481926 21403 net.cpp:94] Creating Layer conv2
I0503 16:43:07.481930 21403 net.cpp:435] conv2 <- conv1
I0503 16:43:07.481935 21403 net.cpp:409] conv2 -> conv2
I0503 16:43:07.486802 21403 net.cpp:144] Setting up conv2
I0503 16:43:07.486836 21403 net.cpp:151] Top shape: 20 64 20 20 (512000)
I0503 16:43:07.486848 21403 net.cpp:159] Memory required for data: 6176240
I0503 16:43:07.486871 21403 layer_factory.hpp:77] Creating layer relu2
I0503 16:43:07.486886 21403 net.cpp:94] Creating Layer relu2
I0503 16:43:07.486896 21403 net.cpp:435] relu2 <- conv2
I0503 16:43:07.486909 21403 net.cpp:396] relu2 -> conv2 (in-place)
I0503 16:43:07.486928 21403 net.cpp:144] Setting up relu2
I0503 16:43:07.486941 21403 net.cpp:151] Top shape: 20 64 20 20 (512000)
I0503 16:43:07.486950 21403 net.cpp:159] Memory required for data: 8224240
I0503 16:43:07.486959 21403 layer_factory.hpp:77] Creating layer pool2
I0503 16:43:07.486974 21403 net.cpp:94] Creating Layer pool2
I0503 16:43:07.486984 21403 net.cpp:435] pool2 <- conv2
I0503 16:43:07.486995 21403 net.cpp:409] pool2 -> pool2
I0503 16:43:07.487092 21403 net.cpp:144] Setting up pool2
I0503 16:43:07.487107 21403 net.cpp:151] Top shape: 20 64 10 10 (128000)
I0503 16:43:07.487116 21403 net.cpp:159] Memory required for data: 8736240
I0503 16:43:07.487125 21403 layer_factory.hpp:77] Creating layer conv3
I0503 16:43:07.487145 21403 net.cpp:94] Creating Layer conv3
I0503 16:43:07.487155 21403 net.cpp:435] conv3 <- pool2
I0503 16:43:07.487169 21403 net.cpp:409] conv3 -> conv3
I0503 16:43:07.494448 21403 net.cpp:144] Setting up conv3
I0503 16:43:07.494482 21403 net.cpp:151] Top shape: 20 128 10 10 (256000)
I0503 16:43:07.494494 21403 net.cpp:159] Memory required for data: 9760240
I0503 16:43:07.494516 21403 layer_factory.hpp:77] Creating layer relu3
I0503 16:43:07.494535 21403 net.cpp:94] Creating Layer relu3
I0503 16:43:07.494545 21403 net.cpp:435] relu3 <- conv3
I0503 16:43:07.494559 21403 net.cpp:396] relu3 -> conv3 (in-place)
I0503 16:43:07.494577 21403 net.cpp:144] Setting up relu3
I0503 16:43:07.494590 21403 net.cpp:151] Top shape: 20 128 10 10 (256000)
I0503 16:43:07.494599 21403 net.cpp:159] Memory required for data: 10784240
I0503 16:43:07.494609 21403 layer_factory.hpp:77] Creating layer conv4
I0503 16:43:07.494629 21403 net.cpp:94] Creating Layer conv4
I0503 16:43:07.494639 21403 net.cpp:435] conv4 <- conv3
I0503 16:43:07.494657 21403 net.cpp:409] conv4 -> conv4
I0503 16:43:07.508397 21403 net.cpp:144] Setting up conv4
I0503 16:43:07.508411 21403 net.cpp:151] Top shape: 20 128 10 10 (256000)
I0503 16:43:07.508415 21403 net.cpp:159] Memory required for data: 11808240
I0503 16:43:07.508422 21403 layer_factory.hpp:77] Creating layer relu4
I0503 16:43:07.508429 21403 net.cpp:94] Creating Layer relu4
I0503 16:43:07.508436 21403 net.cpp:435] relu4 <- conv4
I0503 16:43:07.508441 21403 net.cpp:396] relu4 -> conv4 (in-place)
I0503 16:43:07.508448 21403 net.cpp:144] Setting up relu4
I0503 16:43:07.508453 21403 net.cpp:151] Top shape: 20 128 10 10 (256000)
I0503 16:43:07.508456 21403 net.cpp:159] Memory required for data: 12832240
I0503 16:43:07.508460 21403 layer_factory.hpp:77] Creating layer conv5
I0503 16:43:07.508467 21403 net.cpp:94] Creating Layer conv5
I0503 16:43:07.508471 21403 net.cpp:435] conv5 <- conv4
I0503 16:43:07.508476 21403 net.cpp:409] conv5 -> conv5
I0503 16:43:07.521767 21403 net.cpp:144] Setting up conv5
I0503 16:43:07.521782 21403 net.cpp:151] Top shape: 20 128 10 10 (256000)
I0503 16:43:07.521787 21403 net.cpp:159] Memory required for data: 13856240
I0503 16:43:07.521795 21403 layer_factory.hpp:77] Creating layer relu5
I0503 16:43:07.521801 21403 net.cpp:94] Creating Layer relu5
I0503 16:43:07.521806 21403 net.cpp:435] relu5 <- conv5
I0503 16:43:07.521811 21403 net.cpp:396] relu5 -> conv5 (in-place)
I0503 16:43:07.521817 21403 net.cpp:144] Setting up relu5
I0503 16:43:07.521821 21403 net.cpp:151] Top shape: 20 128 10 10 (256000)
I0503 16:43:07.521826 21403 net.cpp:159] Memory required for data: 14880240
I0503 16:43:07.521828 21403 layer_factory.hpp:77] Creating layer pool5
I0503 16:43:07.521833 21403 net.cpp:94] Creating Layer pool5
I0503 16:43:07.521836 21403 net.cpp:435] pool5 <- conv5
I0503 16:43:07.521842 21403 net.cpp:409] pool5 -> pool5
I0503 16:43:07.521868 21403 net.cpp:144] Setting up pool5
I0503 16:43:07.521874 21403 net.cpp:151] Top shape: 20 128 5 5 (64000)
I0503 16:43:07.521878 21403 net.cpp:159] Memory required for data: 15136240
I0503 16:43:07.521881 21403 layer_factory.hpp:77] Creating layer ip1
I0503 16:43:07.521888 21403 net.cpp:94] Creating Layer ip1
I0503 16:43:07.521891 21403 net.cpp:435] ip1 <- pool5
I0503 16:43:07.521896 21403 net.cpp:409] ip1 -> ip1
I0503 16:43:07.604750 21403 net.cpp:144] Setting up ip1
I0503 16:43:07.604771 21403 net.cpp:151] Top shape: 20 1024 (20480)
I0503 16:43:07.604775 21403 net.cpp:159] Memory required for data: 15218160
I0503 16:43:07.604782 21403 layer_factory.hpp:77] Creating layer ip2
I0503 16:43:07.604792 21403 net.cpp:94] Creating Layer ip2
I0503 16:43:07.604797 21403 net.cpp:435] ip2 <- ip1
I0503 16:43:07.604804 21403 net.cpp:409] ip2 -> ip2
I0503 16:43:07.618360 21403 net.cpp:144] Setting up ip2
I0503 16:43:07.618374 21403 net.cpp:151] Top shape: 20 512 (10240)
I0503 16:43:07.618378 21403 net.cpp:159] Memory required for data: 15259120
I0503 16:43:07.618384 21403 layer_factory.hpp:77] Creating layer ip3
I0503 16:43:07.618393 21403 net.cpp:94] Creating Layer ip3
I0503 16:43:07.618397 21403 net.cpp:435] ip3 <- ip2
I0503 16:43:07.618402 21403 net.cpp:409] ip3 -> ip3
I0503 16:43:07.619117 21403 net.cpp:144] Setting up ip3
I0503 16:43:07.619123 21403 net.cpp:151] Top shape: 20 50 (1000)
I0503 16:43:07.619127 21403 net.cpp:159] Memory required for data: 15263120
I0503 16:43:07.619132 21403 layer_factory.hpp:77] Creating layer ip3_ip3_0_split
I0503 16:43:07.619138 21403 net.cpp:94] Creating Layer ip3_ip3_0_split
I0503 16:43:07.619141 21403 net.cpp:435] ip3_ip3_0_split <- ip3
I0503 16:43:07.619146 21403 net.cpp:409] ip3_ip3_0_split -> ip3_ip3_0_split_0
I0503 16:43:07.619153 21403 net.cpp:409] ip3_ip3_0_split -> ip3_ip3_0_split_1
I0503 16:43:07.619179 21403 net.cpp:144] Setting up ip3_ip3_0_split
I0503 16:43:07.619184 21403 net.cpp:151] Top shape: 20 50 (1000)
I0503 16:43:07.619189 21403 net.cpp:151] Top shape: 20 50 (1000)
I0503 16:43:07.619191 21403 net.cpp:159] Memory required for data: 15271120
I0503 16:43:07.619194 21403 layer_factory.hpp:77] Creating layer accuracy
I0503 16:43:07.619206 21403 net.cpp:94] Creating Layer accuracy
I0503 16:43:07.619210 21403 net.cpp:435] accuracy <- ip3_ip3_0_split_0
I0503 16:43:07.619215 21403 net.cpp:435] accuracy <- label_intercept_1_split_0
I0503 16:43:07.619220 21403 net.cpp:409] accuracy -> accuracy
…
