…
I0501 02:01:59.423317 29485 net.cpp:323] The NetState phase (0) differed from the phase (1) specified by a rule in layer intercept
I0501 02:01:59.423333 29485 net.cpp:323] The NetState phase (0) differed from the phase (1) specified by a rule in layer loss
I0501 02:01:59.423429 29485 net.cpp:52] Initializing net from parameters: 
state {
  phase: TRAIN
}
layer {
  name: "parameters"
  type: "HDF5Data"
  top: "data"
  top: "label"
  include {
    phase: TRAIN
  }
  hdf5_data_param {
    source: "/home/purduethu/scratch/radon/d/deng106/CNNStatisticalModel/distributions/input/50_distributions_100_sample_size_train-parameters-path.txt"
    batch_size: 20
  }
}
layer {
  name: "conv1"
  type: "Convolution"
  bottom: "data"
  top: "conv1"
  param {
    lr_mult: 1
  }
  param {
    lr_mult: 2
  }
  convolution_param {
    num_output: 64
    pad: 2
    kernel_size: 5
    stride: 1
    weight_filler {
      type: "gaussian"
      std: 0.0001
    }
    bias_filler {
      type: "constant"
    }
  }
}
layer {
  name: "relu1"
  type: "ReLU"
  bottom: "conv1"
  top: "conv1"
}
layer {
  name: "conv2"
  type: "Convolution"
  bottom: "conv1"
  top: "conv2"
  param {
    lr_mult: 1
  }
  param {
    lr_mult: 2
  }
  convolution_param {
    num_output: 64
    pad: 2
    kernel_size: 5
    stride: 1
    weight_filler {
      type: "gaussian"
      std: 0.01
    }
    bias_filler {
      type: "constant"
    }
  }
}
layer {
  name: "relu2"
  type: "ReLU"
  bottom: "conv2"
  top: "conv2"
}
layer {
  name: "pool2"
  type: "Pooling"
  bottom: "conv2"
  top: "pool2"
  pooling_param {
    pool: MAX
    kernel_size: 3
    stride: 2
  }
}
layer {
  name: "conv3"
  type: "Convolution"
  bottom: "pool2"
  top: "conv3"
  param {
    lr_mult: 1
  }
  param {
    lr_mult: 2
  }
  convolution_param {
    num_output: 128
    pad: 2
    kernel_size: 5
    stride: 1
    weight_filler {
      type: "gaussian"
      std: 0.01
    }
    bias_filler {
      type: "constant"
    }
  }
}
layer {
  name: "relu3"
  type: "ReLU"
  bottom: "conv3"
  top: "conv3"
}
layer {
  name: "conv4"
  type: "Convolution"
  bottom: "conv3"
  top: "conv4"
  param {
    lr_mult: 1
  }
  param {
    lr_mult: 2
  }
  convolution_param {
    num_output: 128
    pad: 2
    kernel_size: 5
    stride: 1
    weight_filler {
      type: "gaussian"
      std: 0.01
    }
    bias_filler {
      type: "constant"
    }
  }
}
layer {
  name: "relu4"
  type: "ReLU"
  bottom: "conv4"
  top: "conv4"
}
layer {
  name: "conv5"
  type: "Convolution"
  bottom: "conv4"
  top: "conv5"
  param {
    lr_mult: 1
  }
  param {
    lr_mult: 2
  }
  convolution_param {
    num_output: 128
    pad: 2
    kernel_size: 5
    stride: 1
    weight_filler {
      type: "gaussian"
      std: 0.01
    }
    bias_filler {
      type: "constant"
    }
  }
}
layer {
  name: "relu5"
  type: "ReLU"
  bottom: "conv5"
  top: "conv5"
}
layer {
  name: "pool5"
  type: "Pooling"
  bottom: "conv5"
  top: "pool5"
  pooling_param {
    pool: AVE
    kernel_size: 3
    stride: 2
  }
}
layer {
  name: "ip1"
  type: "InnerProduct"
  bottom: "pool5"
  top: "ip1"
  param {
    lr_mult: 1
  }
  param {
    lr_mult: 2
  }
  inner_product_param {
    num_output: 1024
    weight_filler {
      type: "gaussian"
      std: 0.1
    }
    bias_filler {
      type: "constant"
    }
  }
}
layer {
  name: "ip2"
  type: "InnerProduct"
  bottom: "ip1"
  top: "ip2"
  param {
    lr_mult: 1
  }
  param {
    lr_mult: 2
  }
  inner_product_param {
    num_output: 512
    weight_filler {
      type: "gaussian"
      std: 0.1
    }
    bias_filler {
      type: "constant"
    }
  }
}
layer {
  name: "ip3"
  type: "InnerProduct"
  bottom: "ip2"
  top: "ip3"
  param {
    lr_mult: 1
  }
  param {
    lr_mult: 2
  }
  inner_product_param {
    num_output: 1
    weight_filler {
      type: "gaussian"
      std: 0.1
    }
    bias_filler {
      type: "constant"
    }
  }
}
layer {
  name: "loss"
  type: "HuberLoss"
  bottom: "ip3"
  bottom: "label"
  top: "loss"
  include {
    phase: TRAIN
  }
}
I0501 02:01:59.423511 29485 layer_factory.hpp:77] Creating layer parameters
I0501 02:01:59.423527 29485 net.cpp:94] Creating Layer parameters
I0501 02:01:59.423532 29485 net.cpp:409] parameters -> data
I0501 02:01:59.423552 29485 net.cpp:409] parameters -> label
I0501 02:01:59.423563 29485 hdf5_data_layer.cpp:79] Loading list of HDF5 filenames from: /home/purduethu/scratch/radon/d/deng106/CNNStatisticalModel/distributions/input/50_distributions_100_sample_size_train-parameters-path.txt
I0501 02:01:59.423586 29485 hdf5_data_layer.cpp:93] Number of HDF5 files: 1
I0501 02:01:59.424203 29485 hdf5.cpp:32] Datatype class: H5T_FLOAT
I0501 02:01:59.588345 29485 net.cpp:144] Setting up parameters
I0501 02:01:59.588367 29485 net.cpp:151] Top shape: 20 1 10 10 (2000)
I0501 02:01:59.588373 29485 net.cpp:151] Top shape: 20 (20)
I0501 02:01:59.588377 29485 net.cpp:159] Memory required for data: 8080
I0501 02:01:59.588385 29485 layer_factory.hpp:77] Creating layer conv1
I0501 02:01:59.588405 29485 net.cpp:94] Creating Layer conv1
I0501 02:01:59.588412 29485 net.cpp:435] conv1 <- data
I0501 02:01:59.588421 29485 net.cpp:409] conv1 -> conv1
I0501 02:01:59.592334 29485 net.cpp:144] Setting up conv1
I0501 02:01:59.592350 29485 net.cpp:151] Top shape: 20 64 10 10 (128000)
I0501 02:01:59.592355 29485 net.cpp:159] Memory required for data: 520080
I0501 02:01:59.592366 29485 layer_factory.hpp:77] Creating layer relu1
I0501 02:01:59.592375 29485 net.cpp:94] Creating Layer relu1
I0501 02:01:59.592378 29485 net.cpp:435] relu1 <- conv1
I0501 02:01:59.592383 29485 net.cpp:396] relu1 -> conv1 (in-place)
I0501 02:01:59.592399 29485 net.cpp:144] Setting up relu1
I0501 02:01:59.592404 29485 net.cpp:151] Top shape: 20 64 10 10 (128000)
I0501 02:01:59.592407 29485 net.cpp:159] Memory required for data: 1032080
I0501 02:01:59.592411 29485 layer_factory.hpp:77] Creating layer conv2
I0501 02:01:59.592419 29485 net.cpp:94] Creating Layer conv2
I0501 02:01:59.592423 29485 net.cpp:435] conv2 <- conv1
I0501 02:01:59.592428 29485 net.cpp:409] conv2 -> conv2
I0501 02:01:59.598332 29485 net.cpp:144] Setting up conv2
I0501 02:01:59.598347 29485 net.cpp:151] Top shape: 20 64 10 10 (128000)
I0501 02:01:59.598351 29485 net.cpp:159] Memory required for data: 1544080
I0501 02:01:59.598359 29485 layer_factory.hpp:77] Creating layer relu2
I0501 02:01:59.598366 29485 net.cpp:94] Creating Layer relu2
I0501 02:01:59.598371 29485 net.cpp:435] relu2 <- conv2
I0501 02:01:59.598376 29485 net.cpp:396] relu2 -> conv2 (in-place)
I0501 02:01:59.598383 29485 net.cpp:144] Setting up relu2
I0501 02:01:59.598387 29485 net.cpp:151] Top shape: 20 64 10 10 (128000)
I0501 02:01:59.598392 29485 net.cpp:159] Memory required for data: 2056080
I0501 02:01:59.598394 29485 layer_factory.hpp:77] Creating layer pool2
I0501 02:01:59.598402 29485 net.cpp:94] Creating Layer pool2
I0501 02:01:59.598412 29485 net.cpp:435] pool2 <- conv2
I0501 02:01:59.598417 29485 net.cpp:409] pool2 -> pool2
I0501 02:01:59.598464 29485 net.cpp:144] Setting up pool2
I0501 02:01:59.598470 29485 net.cpp:151] Top shape: 20 64 5 5 (32000)
I0501 02:01:59.598474 29485 net.cpp:159] Memory required for data: 2184080
I0501 02:01:59.598477 29485 layer_factory.hpp:77] Creating layer conv3
I0501 02:01:59.598486 29485 net.cpp:94] Creating Layer conv3
I0501 02:01:59.598490 29485 net.cpp:435] conv3 <- pool2
I0501 02:01:59.598495 29485 net.cpp:409] conv3 -> conv3
I0501 02:01:59.606750 29485 net.cpp:144] Setting up conv3
I0501 02:01:59.606763 29485 net.cpp:151] Top shape: 20 128 5 5 (64000)
I0501 02:01:59.606768 29485 net.cpp:159] Memory required for data: 2440080
I0501 02:01:59.606777 29485 layer_factory.hpp:77] Creating layer relu3
I0501 02:01:59.606783 29485 net.cpp:94] Creating Layer relu3
I0501 02:01:59.606787 29485 net.cpp:435] relu3 <- conv3
I0501 02:01:59.606792 29485 net.cpp:396] relu3 -> conv3 (in-place)
I0501 02:01:59.606799 29485 net.cpp:144] Setting up relu3
I0501 02:01:59.606804 29485 net.cpp:151] Top shape: 20 128 5 5 (64000)
I0501 02:01:59.606807 29485 net.cpp:159] Memory required for data: 2696080
I0501 02:01:59.606811 29485 layer_factory.hpp:77] Creating layer conv4
I0501 02:01:59.606819 29485 net.cpp:94] Creating Layer conv4
I0501 02:01:59.606823 29485 net.cpp:435] conv4 <- conv3
I0501 02:01:59.606828 29485 net.cpp:409] conv4 -> conv4
I0501 02:01:59.621898 29485 net.cpp:144] Setting up conv4
I0501 02:01:59.621913 29485 net.cpp:151] Top shape: 20 128 5 5 (64000)
I0501 02:01:59.621918 29485 net.cpp:159] Memory required for data: 2952080
I0501 02:01:59.621924 29485 layer_factory.hpp:77] Creating layer relu4
I0501 02:01:59.621932 29485 net.cpp:94] Creating Layer relu4
I0501 02:01:59.621935 29485 net.cpp:435] relu4 <- conv4
I0501 02:01:59.621940 29485 net.cpp:396] relu4 -> conv4 (in-place)
I0501 02:01:59.621948 29485 net.cpp:144] Setting up relu4
I0501 02:01:59.621953 29485 net.cpp:151] Top shape: 20 128 5 5 (64000)
I0501 02:01:59.621955 29485 net.cpp:159] Memory required for data: 3208080
I0501 02:01:59.621958 29485 layer_factory.hpp:77] Creating layer conv5
I0501 02:01:59.621966 29485 net.cpp:94] Creating Layer conv5
I0501 02:01:59.621970 29485 net.cpp:435] conv5 <- conv4
I0501 02:01:59.621975 29485 net.cpp:409] conv5 -> conv5
I0501 02:01:59.636589 29485 net.cpp:144] Setting up conv5
I0501 02:01:59.636603 29485 net.cpp:151] Top shape: 20 128 5 5 (64000)
I0501 02:01:59.636607 29485 net.cpp:159] Memory required for data: 3464080
I0501 02:01:59.636616 29485 layer_factory.hpp:77] Creating layer relu5
I0501 02:01:59.636623 29485 net.cpp:94] Creating Layer relu5
I0501 02:01:59.636627 29485 net.cpp:435] relu5 <- conv5
I0501 02:01:59.636631 29485 net.cpp:396] relu5 -> conv5 (in-place)
I0501 02:01:59.636638 29485 net.cpp:144] Setting up relu5
I0501 02:01:59.636643 29485 net.cpp:151] Top shape: 20 128 5 5 (64000)
I0501 02:01:59.636647 29485 net.cpp:159] Memory required for data: 3720080
I0501 02:01:59.636651 29485 layer_factory.hpp:77] Creating layer pool5
I0501 02:01:59.636656 29485 net.cpp:94] Creating Layer pool5
I0501 02:01:59.636659 29485 net.cpp:435] pool5 <- conv5
I0501 02:01:59.636663 29485 net.cpp:409] pool5 -> pool5
I0501 02:01:59.636696 29485 net.cpp:144] Setting up pool5
I0501 02:01:59.636703 29485 net.cpp:151] Top shape: 20 128 2 2 (10240)
I0501 02:01:59.636706 29485 net.cpp:159] Memory required for data: 3761040
I0501 02:01:59.636710 29485 layer_factory.hpp:77] Creating layer ip1
I0501 02:01:59.636720 29485 net.cpp:94] Creating Layer ip1
I0501 02:01:59.636723 29485 net.cpp:435] ip1 <- pool5
I0501 02:01:59.636729 29485 net.cpp:409] ip1 -> ip1
I0501 02:01:59.650354 29485 net.cpp:144] Setting up ip1
I0501 02:01:59.650368 29485 net.cpp:151] Top shape: 20 1024 (20480)
I0501 02:01:59.650372 29485 net.cpp:159] Memory required for data: 3842960
I0501 02:01:59.650378 29485 layer_factory.hpp:77] Creating layer ip2
I0501 02:01:59.650385 29485 net.cpp:94] Creating Layer ip2
I0501 02:01:59.650389 29485 net.cpp:435] ip2 <- ip1
I0501 02:01:59.650398 29485 net.cpp:409] ip2 -> ip2
I0501 02:01:59.663211 29485 net.cpp:144] Setting up ip2
I0501 02:01:59.663224 29485 net.cpp:151] Top shape: 20 512 (10240)
I0501 02:01:59.663228 29485 net.cpp:159] Memory required for data: 3883920
I0501 02:01:59.663234 29485 layer_factory.hpp:77] Creating layer ip3
I0501 02:01:59.663241 29485 net.cpp:94] Creating Layer ip3
I0501 02:01:59.663245 29485 net.cpp:435] ip3 <- ip2
I0501 02:01:59.663250 29485 net.cpp:409] ip3 -> ip3
I0501 02:01:59.663323 29485 net.cpp:144] Setting up ip3
I0501 02:01:59.663329 29485 net.cpp:151] Top shape: 20 1 (20)
I0501 02:01:59.663339 29485 net.cpp:159] Memory required for data: 3884000
I0501 02:01:59.663345 29485 layer_factory.hpp:77] Creating layer loss
I0501 02:01:59.663357 29485 net.cpp:94] Creating Layer loss
I0501 02:01:59.663359 29485 net.cpp:435] loss <- ip3
I0501 02:01:59.663364 29485 net.cpp:435] loss <- label
I0501 02:01:59.663369 29485 net.cpp:409] loss -> loss
I0501 02:01:59.663405 29485 net.cpp:144] Setting up loss
…
