…
I0506 14:40:44.782207 22186 net.cpp:323] The NetState phase (0) differed from the phase (1) specified by a rule in layer intercept
I0506 14:40:44.782222 22186 net.cpp:323] The NetState phase (0) differed from the phase (1) specified by a rule in layer loss
I0506 14:40:44.782304 22186 net.cpp:52] Initializing net from parameters: 
state {
  phase: TRAIN
}
layer {
  name: "parameters"
  type: "HDF5Data"
  top: "data"
  top: "label"
  include {
    phase: TRAIN
  }
  hdf5_data_param {
    source: "/home/purduethu/scratch/radon/d/deng106/CNNStatisticalModel/distributions/input/50_distributions_100_sample_size_train-parameters-path.txt"
    batch_size: 20
  }
}
layer {
  name: "conv1"
  type: "Convolution"
  bottom: "data"
  top: "conv1"
  param {
    lr_mult: 1
  }
  param {
    lr_mult: 2
  }
  convolution_param {
    num_output: 64
    pad: 2
    kernel_size: 5
    stride: 1
    weight_filler {
      type: "gaussian"
      std: 0.0001
    }
    bias_filler {
      type: "constant"
    }
  }
}
layer {
  name: "relu1"
  type: "ReLU"
  bottom: "conv1"
  top: "conv1"
}
layer {
  name: "conv2"
  type: "Convolution"
  bottom: "conv1"
  top: "conv2"
  param {
    lr_mult: 1
  }
  param {
    lr_mult: 2
  }
  convolution_param {
    num_output: 64
    pad: 2
    kernel_size: 5
    stride: 1
    weight_filler {
      type: "gaussian"
      std: 0.01
    }
    bias_filler {
      type: "constant"
    }
  }
}
layer {
  name: "relu2"
  type: "ReLU"
  bottom: "conv2"
  top: "conv2"
}
layer {
  name: "pool2"
  type: "Pooling"
  bottom: "conv2"
  top: "pool2"
  pooling_param {
    pool: MAX
    kernel_size: 3
    stride: 2
  }
}
layer {
  name: "conv3"
  type: "Convolution"
  bottom: "pool2"
  top: "conv3"
  param {
    lr_mult: 1
  }
  param {
    lr_mult: 2
  }
  convolution_param {
    num_output: 128
    pad: 2
    kernel_size: 5
    stride: 1
    weight_filler {
      type: "gaussian"
      std: 0.01
    }
    bias_filler {
      type: "constant"
    }
  }
}
layer {
  name: "relu3"
  type: "ReLU"
  bottom: "conv3"
  top: "conv3"
}
layer {
  name: "conv4"
  type: "Convolution"
  bottom: "conv3"
  top: "conv4"
  param {
    lr_mult: 1
  }
  param {
    lr_mult: 2
  }
  convolution_param {
    num_output: 128
    pad: 2
    kernel_size: 5
    stride: 1
    weight_filler {
      type: "gaussian"
      std: 0.01
    }
    bias_filler {
      type: "constant"
    }
  }
}
layer {
  name: "relu4"
  type: "ReLU"
  bottom: "conv4"
  top: "conv4"
}
layer {
  name: "conv5"
  type: "Convolution"
  bottom: "conv4"
  top: "conv5"
  param {
    lr_mult: 1
  }
  param {
    lr_mult: 2
  }
  convolution_param {
    num_output: 128
    pad: 2
    kernel_size: 5
    stride: 1
    weight_filler {
      type: "gaussian"
      std: 0.01
    }
    bias_filler {
      type: "constant"
    }
  }
}
layer {
  name: "relu5"
  type: "ReLU"
  bottom: "conv5"
  top: "conv5"
}
layer {
  name: "pool5"
  type: "Pooling"
  bottom: "conv5"
  top: "pool5"
  pooling_param {
    pool: AVE
    kernel_size: 3
    stride: 2
  }
}
layer {
  name: "ip1"
  type: "InnerProduct"
  bottom: "pool5"
  top: "ip1"
  param {
    lr_mult: 1
  }
  param {
    lr_mult: 2
  }
  inner_product_param {
    num_output: 1024
    weight_filler {
      type: "gaussian"
      std: 0.1
    }
    bias_filler {
      type: "constant"
    }
  }
}
layer {
  name: "ip2"
  type: "InnerProduct"
  bottom: "ip1"
  top: "ip2"
  param {
    lr_mult: 1
  }
  param {
    lr_mult: 2
  }
  inner_product_param {
    num_output: 512
    weight_filler {
      type: "gaussian"
      std: 0.1
    }
    bias_filler {
      type: "constant"
    }
  }
}
layer {
  name: "ip3"
  type: "InnerProduct"
  bottom: "ip2"
  top: "ip3"
  param {
    lr_mult: 1
  }
  param {
    lr_mult: 2
  }
  inner_product_param {
    num_output: 1
    weight_filler {
      type: "gaussian"
      std: 0.1
    }
    bias_filler {
      type: "constant"
    }
  }
}
layer {
  name: "loss"
  type: "HuberLoss"
  bottom: "ip3"
  bottom: "label"
  top: "loss"
  include {
    phase: TRAIN
  }
}
I0506 14:40:44.782358 22186 layer_factory.hpp:77] Creating layer parameters
I0506 14:40:44.782371 22186 net.cpp:94] Creating Layer parameters
I0506 14:40:44.782376 22186 net.cpp:409] parameters -> data
I0506 14:40:44.782384 22186 net.cpp:409] parameters -> label
I0506 14:40:44.782395 22186 hdf5_data_layer.cpp:79] Loading list of HDF5 filenames from: /home/purduethu/scratch/radon/d/deng106/CNNStatisticalModel/distributions/input/50_distributions_100_sample_size_train-parameters-path.txt
I0506 14:40:44.782410 22186 hdf5_data_layer.cpp:93] Number of HDF5 files: 1
I0506 14:40:44.782966 22186 hdf5.cpp:32] Datatype class: H5T_FLOAT
I0506 14:40:44.947631 22186 net.cpp:144] Setting up parameters
I0506 14:40:44.947664 22186 net.cpp:151] Top shape: 20 1 10 10 (2000)
I0506 14:40:44.947669 22186 net.cpp:151] Top shape: 20 (20)
I0506 14:40:44.947674 22186 net.cpp:159] Memory required for data: 8080
I0506 14:40:44.947679 22186 layer_factory.hpp:77] Creating layer conv1
I0506 14:40:44.947695 22186 net.cpp:94] Creating Layer conv1
I0506 14:40:44.947700 22186 net.cpp:435] conv1 <- data
I0506 14:40:44.947706 22186 net.cpp:409] conv1 -> conv1
I0506 14:40:44.951829 22186 net.cpp:144] Setting up conv1
I0506 14:40:44.951853 22186 net.cpp:151] Top shape: 20 64 10 10 (128000)
I0506 14:40:44.951856 22186 net.cpp:159] Memory required for data: 520080
I0506 14:40:44.951867 22186 layer_factory.hpp:77] Creating layer relu1
I0506 14:40:44.951877 22186 net.cpp:94] Creating Layer relu1
I0506 14:40:44.951881 22186 net.cpp:435] relu1 <- conv1
I0506 14:40:44.951885 22186 net.cpp:396] relu1 -> conv1 (in-place)
I0506 14:40:44.951897 22186 net.cpp:144] Setting up relu1
I0506 14:40:44.951902 22186 net.cpp:151] Top shape: 20 64 10 10 (128000)
I0506 14:40:44.951905 22186 net.cpp:159] Memory required for data: 1032080
I0506 14:40:44.951908 22186 layer_factory.hpp:77] Creating layer conv2
I0506 14:40:44.951917 22186 net.cpp:94] Creating Layer conv2
I0506 14:40:44.951921 22186 net.cpp:435] conv2 <- conv1
I0506 14:40:44.951926 22186 net.cpp:409] conv2 -> conv2
I0506 14:40:44.957993 22186 net.cpp:144] Setting up conv2
I0506 14:40:44.958009 22186 net.cpp:151] Top shape: 20 64 10 10 (128000)
I0506 14:40:44.958014 22186 net.cpp:159] Memory required for data: 1544080
I0506 14:40:44.958022 22186 layer_factory.hpp:77] Creating layer relu2
I0506 14:40:44.958029 22186 net.cpp:94] Creating Layer relu2
I0506 14:40:44.958032 22186 net.cpp:435] relu2 <- conv2
I0506 14:40:44.958037 22186 net.cpp:396] relu2 -> conv2 (in-place)
I0506 14:40:44.958045 22186 net.cpp:144] Setting up relu2
I0506 14:40:44.958050 22186 net.cpp:151] Top shape: 20 64 10 10 (128000)
I0506 14:40:44.958052 22186 net.cpp:159] Memory required for data: 2056080
I0506 14:40:44.958055 22186 layer_factory.hpp:77] Creating layer pool2
I0506 14:40:44.958060 22186 net.cpp:94] Creating Layer pool2
I0506 14:40:44.958063 22186 net.cpp:435] pool2 <- conv2
I0506 14:40:44.958068 22186 net.cpp:409] pool2 -> pool2
I0506 14:40:44.958122 22186 net.cpp:144] Setting up pool2
I0506 14:40:44.958128 22186 net.cpp:151] Top shape: 20 64 5 5 (32000)
I0506 14:40:44.958132 22186 net.cpp:159] Memory required for data: 2184080
I0506 14:40:44.958134 22186 layer_factory.hpp:77] Creating layer conv3
I0506 14:40:44.958143 22186 net.cpp:94] Creating Layer conv3
I0506 14:40:44.958153 22186 net.cpp:435] conv3 <- pool2
I0506 14:40:44.958158 22186 net.cpp:409] conv3 -> conv3
I0506 14:40:44.966342 22186 net.cpp:144] Setting up conv3
I0506 14:40:44.966359 22186 net.cpp:151] Top shape: 20 128 5 5 (64000)
I0506 14:40:44.966363 22186 net.cpp:159] Memory required for data: 2440080
I0506 14:40:44.966372 22186 layer_factory.hpp:77] Creating layer relu3
I0506 14:40:44.966378 22186 net.cpp:94] Creating Layer relu3
I0506 14:40:44.966382 22186 net.cpp:435] relu3 <- conv3
I0506 14:40:44.966387 22186 net.cpp:396] relu3 -> conv3 (in-place)
I0506 14:40:44.966393 22186 net.cpp:144] Setting up relu3
I0506 14:40:44.966398 22186 net.cpp:151] Top shape: 20 128 5 5 (64000)
I0506 14:40:44.966400 22186 net.cpp:159] Memory required for data: 2696080
I0506 14:40:44.966403 22186 layer_factory.hpp:77] Creating layer conv4
I0506 14:40:44.966413 22186 net.cpp:94] Creating Layer conv4
I0506 14:40:44.966416 22186 net.cpp:435] conv4 <- conv3
I0506 14:40:44.966420 22186 net.cpp:409] conv4 -> conv4
I0506 14:40:44.981472 22186 net.cpp:144] Setting up conv4
I0506 14:40:44.981506 22186 net.cpp:151] Top shape: 20 128 5 5 (64000)
I0506 14:40:44.981514 22186 net.cpp:159] Memory required for data: 2952080
I0506 14:40:44.981528 22186 layer_factory.hpp:77] Creating layer relu4
I0506 14:40:44.981540 22186 net.cpp:94] Creating Layer relu4
I0506 14:40:44.981549 22186 net.cpp:435] relu4 <- conv4
I0506 14:40:44.981557 22186 net.cpp:396] relu4 -> conv4 (in-place)
I0506 14:40:44.981573 22186 net.cpp:144] Setting up relu4
I0506 14:40:44.981582 22186 net.cpp:151] Top shape: 20 128 5 5 (64000)
I0506 14:40:44.981588 22186 net.cpp:159] Memory required for data: 3208080
I0506 14:40:44.981595 22186 layer_factory.hpp:77] Creating layer conv5
I0506 14:40:44.981609 22186 net.cpp:94] Creating Layer conv5
I0506 14:40:44.981616 22186 net.cpp:435] conv5 <- conv4
I0506 14:40:44.981626 22186 net.cpp:409] conv5 -> conv5
I0506 14:40:44.996536 22186 net.cpp:144] Setting up conv5
I0506 14:40:44.996570 22186 net.cpp:151] Top shape: 20 128 5 5 (64000)
I0506 14:40:44.996575 22186 net.cpp:159] Memory required for data: 3464080
I0506 14:40:44.996587 22186 layer_factory.hpp:77] Creating layer relu5
I0506 14:40:44.996594 22186 net.cpp:94] Creating Layer relu5
I0506 14:40:44.996598 22186 net.cpp:435] relu5 <- conv5
I0506 14:40:44.996603 22186 net.cpp:396] relu5 -> conv5 (in-place)
I0506 14:40:44.996611 22186 net.cpp:144] Setting up relu5
I0506 14:40:44.996616 22186 net.cpp:151] Top shape: 20 128 5 5 (64000)
I0506 14:40:44.996619 22186 net.cpp:159] Memory required for data: 3720080
I0506 14:40:44.996623 22186 layer_factory.hpp:77] Creating layer pool5
I0506 14:40:44.996628 22186 net.cpp:94] Creating Layer pool5
I0506 14:40:44.996631 22186 net.cpp:435] pool5 <- conv5
I0506 14:40:44.996635 22186 net.cpp:409] pool5 -> pool5
I0506 14:40:44.996680 22186 net.cpp:144] Setting up pool5
I0506 14:40:44.996687 22186 net.cpp:151] Top shape: 20 128 2 2 (10240)
I0506 14:40:44.996690 22186 net.cpp:159] Memory required for data: 3761040
I0506 14:40:44.996693 22186 layer_factory.hpp:77] Creating layer ip1
I0506 14:40:44.996701 22186 net.cpp:94] Creating Layer ip1
I0506 14:40:44.996704 22186 net.cpp:435] ip1 <- pool5
I0506 14:40:44.996708 22186 net.cpp:409] ip1 -> ip1
I0506 14:40:45.010944 22186 net.cpp:144] Setting up ip1
I0506 14:40:45.010972 22186 net.cpp:151] Top shape: 20 1024 (20480)
I0506 14:40:45.010975 22186 net.cpp:159] Memory required for data: 3842960
I0506 14:40:45.010983 22186 layer_factory.hpp:77] Creating layer ip2
I0506 14:40:45.010993 22186 net.cpp:94] Creating Layer ip2
I0506 14:40:45.010998 22186 net.cpp:435] ip2 <- ip1
I0506 14:40:45.011004 22186 net.cpp:409] ip2 -> ip2
I0506 14:40:45.024323 22186 net.cpp:144] Setting up ip2
I0506 14:40:45.024349 22186 net.cpp:151] Top shape: 20 512 (10240)
I0506 14:40:45.024353 22186 net.cpp:159] Memory required for data: 3883920
I0506 14:40:45.024361 22186 layer_factory.hpp:77] Creating layer ip3
I0506 14:40:45.024370 22186 net.cpp:94] Creating Layer ip3
I0506 14:40:45.024374 22186 net.cpp:435] ip3 <- ip2
I0506 14:40:45.024387 22186 net.cpp:409] ip3 -> ip3
I0506 14:40:45.024505 22186 net.cpp:144] Setting up ip3
I0506 14:40:45.024513 22186 net.cpp:151] Top shape: 20 1 (20)
I0506 14:40:45.024516 22186 net.cpp:159] Memory required for data: 3884000
I0506 14:40:45.024521 22186 layer_factory.hpp:77] Creating layer loss
I0506 14:40:45.024536 22186 net.cpp:94] Creating Layer loss
I0506 14:40:45.024539 22186 net.cpp:435] loss <- ip3
I0506 14:40:45.024544 22186 net.cpp:435] loss <- label
I0506 14:40:45.024549 22186 net.cpp:409] loss -> loss
I0506 14:40:45.024602 22186 net.cpp:144] Setting up loss
…
I0506 14:40:45.133054 22186 net.cpp:323] The NetState phase (0) differed from the phase (1) specified by a rule in layer intercept
I0506 14:40:45.133069 22186 net.cpp:323] The NetState phase (0) differed from the phase (1) specified by a rule in layer accuracy
I0506 14:40:45.133155 22186 net.cpp:52] Initializing net from parameters: 
state {
  phase: TRAIN
}
layer {
  name: "parameters"
  type: "HDF5Data"
  top: "data"
  top: "label"
  include {
    phase: TRAIN
  }
  hdf5_data_param {
    source: "/home/purduethu/scratch/radon/d/deng106/CNNStatisticalModel/distributions/input/50_distributions_100_sample_size_train-distributions-path.txt"
    batch_size: 20
  }
}
layer {
  name: "conv1"
  type: "Convolution"
  bottom: "data"
  top: "conv1"
  param {
    lr_mult: 1
  }
  param {
    lr_mult: 2
  }
  convolution_param {
    num_output: 64
    pad: 2
    kernel_size: 5
    stride: 1
    weight_filler {
      type: "gaussian"
      std: 0.0001
    }
    bias_filler {
      type: "constant"
    }
  }
}
layer {
  name: "relu1"
  type: "ReLU"
  bottom: "conv1"
  top: "conv1"
}
layer {
  name: "conv2"
  type: "Convolution"
  bottom: "conv1"
  top: "conv2"
  param {
    lr_mult: 1
  }
  param {
    lr_mult: 2
  }
  convolution_param {
    num_output: 64
    pad: 2
    kernel_size: 5
    stride: 1
    weight_filler {
      type: "gaussian"
      std: 0.01
    }
    bias_filler {
      type: "constant"
    }
  }
}
layer {
  name: "relu2"
  type: "ReLU"
  bottom: "conv2"
  top: "conv2"
}
layer {
  name: "pool2"
  type: "Pooling"
  bottom: "conv2"
  top: "pool2"
  pooling_param {
    pool: MAX
    kernel_size: 3
    stride: 2
  }
}
layer {
  name: "conv3"
  type: "Convolution"
  bottom: "pool2"
  top: "conv3"
  param {
    lr_mult: 1
  }
  param {
    lr_mult: 2
  }
  convolution_param {
    num_output: 128
    pad: 2
    kernel_size: 5
    stride: 1
    weight_filler {
      type: "gaussian"
      std: 0.01
    }
    bias_filler {
      type: "constant"
    }
  }
}
layer {
  name: "relu3"
  type: "ReLU"
  bottom: "conv3"
  top: "conv3"
}
layer {
  name: "conv4"
  type: "Convolution"
  bottom: "conv3"
  top: "conv4"
  param {
    lr_mult: 1
  }
  param {
    lr_mult: 2
  }
  convolution_param {
    num_output: 128
    pad: 2
    kernel_size: 5
    stride: 1
    weight_filler {
      type: "gaussian"
      std: 0.01
    }
    bias_filler {
      type: "constant"
    }
  }
}
layer {
  name: "relu4"
  type: "ReLU"
  bottom: "conv4"
  top: "conv4"
}
layer {
  name: "conv5"
  type: "Convolution"
  bottom: "conv4"
  top: "conv5"
  param {
    lr_mult: 1
  }
  param {
    lr_mult: 2
  }
  convolution_param {
    num_output: 128
    pad: 2
    kernel_size: 5
    stride: 1
    weight_filler {
      type: "gaussian"
      std: 0.01
    }
    bias_filler {
      type: "constant"
    }
  }
}
layer {
  name: "relu5"
  type: "ReLU"
  bottom: "conv5"
  top: "conv5"
}
layer {
  name: "pool5"
  type: "Pooling"
  bottom: "conv5"
  top: "pool5"
  pooling_param {
    pool: AVE
    kernel_size: 3
    stride: 2
  }
}
layer {
  name: "ip1"
  type: "InnerProduct"
  bottom: "pool5"
  top: "ip1"
  param {
    lr_mult: 1
  }
  param {
    lr_mult: 2
  }
  inner_product_param {
    num_output: 1024
    weight_filler {
      type: "gaussian"
      std: 0.1
    }
    bias_filler {
      type: "constant"
    }
  }
}
layer {
  name: "ip2"
  type: "InnerProduct"
  bottom: "ip1"
  top: "ip2"
  param {
    lr_mult: 1
  }
  param {
    lr_mult: 2
  }
  inner_product_param {
    num_output: 512
    weight_filler {
      type: "gaussian"
      std: 0.1
    }
    bias_filler {
      type: "constant"
    }
  }
}
layer {
  name: "ip3"
  type: "InnerProduct"
  bottom: "ip2"
  top: "ip3"
  param {
    lr_mult: 1
  }
  param {
    lr_mult: 2
  }
  inner_product_param {
    num_output: 50
    weight_filler {
      type: "gaussian"
      std: 0.1
    }
    bias_filler {
      type: "constant"
    }
  }
}
layer {
  name: "loss"
  type: "SoftmaxWithLoss"
  bottom: "ip3"
  bottom: "label"
  top: "loss"
}
I0506 14:40:45.133209 22186 layer_factory.hpp:77] Creating layer parameters
I0506 14:40:45.133218 22186 net.cpp:94] Creating Layer parameters
I0506 14:40:45.133221 22186 net.cpp:409] parameters -> data
I0506 14:40:45.133229 22186 net.cpp:409] parameters -> label
I0506 14:40:45.133234 22186 hdf5_data_layer.cpp:79] Loading list of HDF5 filenames from: /home/purduethu/scratch/radon/d/deng106/CNNStatisticalModel/distributions/input/50_distributions_100_sample_size_train-distributions-path.txt
I0506 14:40:45.133250 22186 hdf5_data_layer.cpp:93] Number of HDF5 files: 1
I0506 14:40:45.290745 22186 hdf5.cpp:35] Datatype class: H5T_INTEGER
I0506 14:40:45.293779 22186 net.cpp:144] Setting up parameters
I0506 14:40:45.293802 22186 net.cpp:151] Top shape: 20 1 10 10 (2000)
I0506 14:40:45.293807 22186 net.cpp:151] Top shape: 20 (20)
I0506 14:40:45.293809 22186 net.cpp:159] Memory required for data: 8080
I0506 14:40:45.293815 22186 layer_factory.hpp:77] Creating layer conv1
I0506 14:40:45.293831 22186 net.cpp:94] Creating Layer conv1
I0506 14:40:45.293836 22186 net.cpp:435] conv1 <- data
I0506 14:40:45.293843 22186 net.cpp:409] conv1 -> conv1
I0506 14:40:45.295622 22186 net.cpp:144] Setting up conv1
I0506 14:40:45.295637 22186 net.cpp:151] Top shape: 20 64 10 10 (128000)
I0506 14:40:45.295640 22186 net.cpp:159] Memory required for data: 520080
I0506 14:40:45.295650 22186 layer_factory.hpp:77] Creating layer relu1
I0506 14:40:45.295657 22186 net.cpp:94] Creating Layer relu1
I0506 14:40:45.295661 22186 net.cpp:435] relu1 <- conv1
I0506 14:40:45.295665 22186 net.cpp:396] relu1 -> conv1 (in-place)
I0506 14:40:45.295673 22186 net.cpp:144] Setting up relu1
I0506 14:40:45.295677 22186 net.cpp:151] Top shape: 20 64 10 10 (128000)
I0506 14:40:45.295680 22186 net.cpp:159] Memory required for data: 1032080
I0506 14:40:45.295683 22186 layer_factory.hpp:77] Creating layer conv2
I0506 14:40:45.295691 22186 net.cpp:94] Creating Layer conv2
I0506 14:40:45.295694 22186 net.cpp:435] conv2 <- conv1
I0506 14:40:45.295699 22186 net.cpp:409] conv2 -> conv2
I0506 14:40:45.301128 22186 net.cpp:144] Setting up conv2
I0506 14:40:45.301142 22186 net.cpp:151] Top shape: 20 64 10 10 (128000)
I0506 14:40:45.301146 22186 net.cpp:159] Memory required for data: 1544080
I0506 14:40:45.301154 22186 layer_factory.hpp:77] Creating layer relu2
I0506 14:40:45.301162 22186 net.cpp:94] Creating Layer relu2
I0506 14:40:45.301165 22186 net.cpp:435] relu2 <- conv2
I0506 14:40:45.301169 22186 net.cpp:396] relu2 -> conv2 (in-place)
I0506 14:40:45.301177 22186 net.cpp:144] Setting up relu2
I0506 14:40:45.301180 22186 net.cpp:151] Top shape: 20 64 10 10 (128000)
I0506 14:40:45.301183 22186 net.cpp:159] Memory required for data: 2056080
I0506 14:40:45.301187 22186 layer_factory.hpp:77] Creating layer pool2
I0506 14:40:45.301192 22186 net.cpp:94] Creating Layer pool2
I0506 14:40:45.301195 22186 net.cpp:435] pool2 <- conv2
I0506 14:40:45.301199 22186 net.cpp:409] pool2 -> pool2
I0506 14:40:45.301252 22186 net.cpp:144] Setting up pool2
I0506 14:40:45.301259 22186 net.cpp:151] Top shape: 20 64 5 5 (32000)
I0506 14:40:45.301262 22186 net.cpp:159] Memory required for data: 2184080
I0506 14:40:45.301265 22186 layer_factory.hpp:77] Creating layer conv3
I0506 14:40:45.301273 22186 net.cpp:94] Creating Layer conv3
I0506 14:40:45.301276 22186 net.cpp:435] conv3 <- pool2
I0506 14:40:45.301281 22186 net.cpp:409] conv3 -> conv3
I0506 14:40:45.309995 22186 net.cpp:144] Setting up conv3
I0506 14:40:45.310016 22186 net.cpp:151] Top shape: 20 128 5 5 (64000)
I0506 14:40:45.310019 22186 net.cpp:159] Memory required for data: 2440080
I0506 14:40:45.310029 22186 layer_factory.hpp:77] Creating layer relu3
I0506 14:40:45.310035 22186 net.cpp:94] Creating Layer relu3
I0506 14:40:45.310039 22186 net.cpp:435] relu3 <- conv3
I0506 14:40:45.310044 22186 net.cpp:396] relu3 -> conv3 (in-place)
I0506 14:40:45.310057 22186 net.cpp:144] Setting up relu3
I0506 14:40:45.310062 22186 net.cpp:151] Top shape: 20 128 5 5 (64000)
I0506 14:40:45.310065 22186 net.cpp:159] Memory required for data: 2696080
I0506 14:40:45.310068 22186 layer_factory.hpp:77] Creating layer conv4
I0506 14:40:45.310077 22186 net.cpp:94] Creating Layer conv4
I0506 14:40:45.310081 22186 net.cpp:435] conv4 <- conv3
I0506 14:40:45.310086 22186 net.cpp:409] conv4 -> conv4
I0506 14:40:45.324807 22186 net.cpp:144] Setting up conv4
I0506 14:40:45.324831 22186 net.cpp:151] Top shape: 20 128 5 5 (64000)
I0506 14:40:45.324836 22186 net.cpp:159] Memory required for data: 2952080
I0506 14:40:45.324843 22186 layer_factory.hpp:77] Creating layer relu4
I0506 14:40:45.324851 22186 net.cpp:94] Creating Layer relu4
I0506 14:40:45.324856 22186 net.cpp:435] relu4 <- conv4
I0506 14:40:45.324861 22186 net.cpp:396] relu4 -> conv4 (in-place)
I0506 14:40:45.324868 22186 net.cpp:144] Setting up relu4
I0506 14:40:45.324872 22186 net.cpp:151] Top shape: 20 128 5 5 (64000)
I0506 14:40:45.324875 22186 net.cpp:159] Memory required for data: 3208080
I0506 14:40:45.324879 22186 layer_factory.hpp:77] Creating layer conv5
I0506 14:40:45.324887 22186 net.cpp:94] Creating Layer conv5
I0506 14:40:45.324892 22186 net.cpp:435] conv5 <- conv4
I0506 14:40:45.324897 22186 net.cpp:409] conv5 -> conv5
I0506 14:40:45.339763 22186 net.cpp:144] Setting up conv5
I0506 14:40:45.339787 22186 net.cpp:151] Top shape: 20 128 5 5 (64000)
I0506 14:40:45.339792 22186 net.cpp:159] Memory required for data: 3464080
I0506 14:40:45.339802 22186 layer_factory.hpp:77] Creating layer relu5
I0506 14:40:45.339810 22186 net.cpp:94] Creating Layer relu5
I0506 14:40:45.339815 22186 net.cpp:435] relu5 <- conv5
I0506 14:40:45.339819 22186 net.cpp:396] relu5 -> conv5 (in-place)
I0506 14:40:45.339828 22186 net.cpp:144] Setting up relu5
I0506 14:40:45.339833 22186 net.cpp:151] Top shape: 20 128 5 5 (64000)
I0506 14:40:45.339835 22186 net.cpp:159] Memory required for data: 3720080
I0506 14:40:45.339838 22186 layer_factory.hpp:77] Creating layer pool5
I0506 14:40:45.339843 22186 net.cpp:94] Creating Layer pool5
I0506 14:40:45.339848 22186 net.cpp:435] pool5 <- conv5
I0506 14:40:45.339851 22186 net.cpp:409] pool5 -> pool5
I0506 14:40:45.339893 22186 net.cpp:144] Setting up pool5
I0506 14:40:45.339900 22186 net.cpp:151] Top shape: 20 128 2 2 (10240)
I0506 14:40:45.339903 22186 net.cpp:159] Memory required for data: 3761040
I0506 14:40:45.339906 22186 layer_factory.hpp:77] Creating layer ip1
I0506 14:40:45.339913 22186 net.cpp:94] Creating Layer ip1
I0506 14:40:45.339916 22186 net.cpp:435] ip1 <- pool5
I0506 14:40:45.339921 22186 net.cpp:409] ip1 -> ip1
I0506 14:40:45.353155 22186 net.cpp:144] Setting up ip1
I0506 14:40:45.353179 22186 net.cpp:151] Top shape: 20 1024 (20480)
I0506 14:40:45.353183 22186 net.cpp:159] Memory required for data: 3842960
I0506 14:40:45.353190 22186 layer_factory.hpp:77] Creating layer ip2
I0506 14:40:45.353199 22186 net.cpp:94] Creating Layer ip2
I0506 14:40:45.353204 22186 net.cpp:435] ip2 <- ip1
I0506 14:40:45.353209 22186 net.cpp:409] ip2 -> ip2
I0506 14:40:45.366482 22186 net.cpp:144] Setting up ip2
I0506 14:40:45.366506 22186 net.cpp:151] Top shape: 20 512 (10240)
I0506 14:40:45.366510 22186 net.cpp:159] Memory required for data: 3883920
I0506 14:40:45.366518 22186 layer_factory.hpp:77] Creating layer ip3
I0506 14:40:45.366526 22186 net.cpp:94] Creating Layer ip3
I0506 14:40:45.366530 22186 net.cpp:435] ip3 <- ip2
I0506 14:40:45.366535 22186 net.cpp:409] ip3 -> ip3
I0506 14:40:45.368157 22186 net.cpp:144] Setting up ip3
I0506 14:40:45.368175 22186 net.cpp:151] Top shape: 20 50 (1000)
I0506 14:40:45.368177 22186 net.cpp:159] Memory required for data: 3887920
I0506 14:40:45.368185 22186 layer_factory.hpp:77] Creating layer loss
I0506 14:40:45.368193 22186 net.cpp:94] Creating Layer loss
I0506 14:40:45.368196 22186 net.cpp:435] loss <- ip3
I0506 14:40:45.368201 22186 net.cpp:435] loss <- label
I0506 14:40:45.368206 22186 net.cpp:409] loss -> loss
I0506 14:40:45.368213 22186 layer_factory.hpp:77] Creating layer loss
…
I0506 14:40:45.368762 22186 solver.cpp:181] Creating test net (#0) specified by net file: ./protocol/dis_50_100_dimension.protocol_distribution
I0506 14:40:45.368788 22186 net.cpp:323] The NetState phase (1) differed from the phase (0) specified by a rule in layer parameters
I0506 14:40:45.368885 22186 net.cpp:52] Initializing net from parameters: 
state {
  phase: TEST
}
layer {
  name: "intercept"
  type: "HDF5Data"
  top: "data"
  top: "label"
  include {
    phase: TEST
  }
  hdf5_data_param {
    source: "/home/purduethu/scratch/radon/d/deng106/CNNStatisticalModel/distributions/input/50_distributions_100_sample_size_test-distributions-path.txt"
    batch_size: 20
  }
}
layer {
  name: "conv1"
  type: "Convolution"
  bottom: "data"
  top: "conv1"
  param {
    lr_mult: 1
  }
  param {
    lr_mult: 2
  }
  convolution_param {
    num_output: 64
    pad: 2
    kernel_size: 5
    stride: 1
    weight_filler {
      type: "gaussian"
      std: 0.0001
    }
    bias_filler {
      type: "constant"
    }
  }
}
layer {
  name: "relu1"
  type: "ReLU"
  bottom: "conv1"
  top: "conv1"
}
layer {
  name: "conv2"
  type: "Convolution"
  bottom: "conv1"
  top: "conv2"
  param {
    lr_mult: 1
  }
  param {
    lr_mult: 2
  }
  convolution_param {
    num_output: 64
    pad: 2
    kernel_size: 5
    stride: 1
    weight_filler {
      type: "gaussian"
      std: 0.01
    }
    bias_filler {
      type: "constant"
    }
  }
}
layer {
  name: "relu2"
  type: "ReLU"
  bottom: "conv2"
  top: "conv2"
}
layer {
  name: "pool2"
  type: "Pooling"
  bottom: "conv2"
  top: "pool2"
  pooling_param {
    pool: MAX
    kernel_size: 3
    stride: 2
  }
}
layer {
  name: "conv3"
  type: "Convolution"
  bottom: "pool2"
  top: "conv3"
  param {
    lr_mult: 1
  }
  param {
    lr_mult: 2
  }
  convolution_param {
    num_output: 128
    pad: 2
    kernel_size: 5
    stride: 1
    weight_filler {
      type: "gaussian"
      std: 0.01
    }
    bias_filler {
      type: "constant"
    }
  }
}
layer {
  name: "relu3"
  type: "ReLU"
  bottom: "conv3"
  top: "conv3"
}
layer {
  name: "conv4"
  type: "Convolution"
  bottom: "conv3"
  top: "conv4"
  param {
    lr_mult: 1
  }
  param {
    lr_mult: 2
  }
  convolution_param {
    num_output: 128
    pad: 2
    kernel_size: 5
    stride: 1
    weight_filler {
      type: "gaussian"
      std: 0.01
    }
    bias_filler {
      type: "constant"
    }
  }
}
layer {
  name: "relu4"
  type: "ReLU"
  bottom: "conv4"
  top: "conv4"
}
layer {
  name: "conv5"
  type: "Convolution"
  bottom: "conv4"
  top: "conv5"
  param {
    lr_mult: 1
  }
  param {
    lr_mult: 2
  }
  convolution_param {
    num_output: 128
    pad: 2
    kernel_size: 5
    stride: 1
    weight_filler {
      type: "gaussian"
      std: 0.01
    }
    bias_filler {
      type: "constant"
    }
  }
}
layer {
  name: "relu5"
  type: "ReLU"
  bottom: "conv5"
  top: "conv5"
}
layer {
  name: "pool5"
  type: "Pooling"
  bottom: "conv5"
  top: "pool5"
  pooling_param {
    pool: AVE
    kernel_size: 3
    stride: 2
  }
}
layer {
  name: "ip1"
  type: "InnerProduct"
  bottom: "pool5"
  top: "ip1"
  param {
    lr_mult: 1
  }
  param {
    lr_mult: 2
  }
  inner_product_param {
    num_output: 1024
    weight_filler {
      type: "gaussian"
      std: 0.1
    }
    bias_filler {
      type: "constant"
    }
  }
}
layer {
  name: "ip2"
  type: "InnerProduct"
  bottom: "ip1"
  top: "ip2"
  param {
    lr_mult: 1
  }
  param {
    lr_mult: 2
  }
  inner_product_param {
    num_output: 512
    weight_filler {
      type: "gaussian"
      std: 0.1
    }
    bias_filler {
      type: "constant"
    }
  }
}
layer {
  name: "ip3"
  type: "InnerProduct"
  bottom: "ip2"
  top: "ip3"
  param {
    lr_mult: 1
  }
  param {
    lr_mult: 2
  }
  inner_product_param {
    num_output: 50
    weight_filler {
      type: "gaussian"
      std: 0.1
    }
    bias_filler {
      type: "constant"
    }
  }
}
layer {
  name: "accuracy"
  type: "Accuracy"
  bottom: "ip3"
  bottom: "label"
  top: "accuracy"
  include {
    phase: TEST
  }
}
layer {
  name: "loss"
  type: "SoftmaxWithLoss"
  bottom: "ip3"
  bottom: "label"
  top: "loss"
}
I0506 14:40:45.368960 22186 layer_factory.hpp:77] Creating layer intercept
I0506 14:40:45.368968 22186 net.cpp:94] Creating Layer intercept
I0506 14:40:45.368973 22186 net.cpp:409] intercept -> data
I0506 14:40:45.368979 22186 net.cpp:409] intercept -> label
I0506 14:40:45.368984 22186 hdf5_data_layer.cpp:79] Loading list of HDF5 filenames from: /home/purduethu/scratch/radon/d/deng106/CNNStatisticalModel/distributions/input/50_distributions_100_sample_size_test-distributions-path.txt
I0506 14:40:45.369005 22186 hdf5_data_layer.cpp:93] Number of HDF5 files: 1
I0506 14:40:45.410481 22186 net.cpp:144] Setting up intercept
I0506 14:40:45.410516 22186 net.cpp:151] Top shape: 20 1 10 10 (2000)
I0506 14:40:45.410521 22186 net.cpp:151] Top shape: 20 (20)
I0506 14:40:45.410523 22186 net.cpp:159] Memory required for data: 8080
I0506 14:40:45.410529 22186 layer_factory.hpp:77] Creating layer label_intercept_1_split
I0506 14:40:45.410542 22186 net.cpp:94] Creating Layer label_intercept_1_split
I0506 14:40:45.410545 22186 net.cpp:435] label_intercept_1_split <- label
I0506 14:40:45.410552 22186 net.cpp:409] label_intercept_1_split -> label_intercept_1_split_0
I0506 14:40:45.410560 22186 net.cpp:409] label_intercept_1_split -> label_intercept_1_split_1
I0506 14:40:45.410609 22186 net.cpp:144] Setting up label_intercept_1_split
I0506 14:40:45.410615 22186 net.cpp:151] Top shape: 20 (20)
I0506 14:40:45.410619 22186 net.cpp:151] Top shape: 20 (20)
I0506 14:40:45.410621 22186 net.cpp:159] Memory required for data: 8240
I0506 14:40:45.410624 22186 layer_factory.hpp:77] Creating layer conv1
I0506 14:40:45.410636 22186 net.cpp:94] Creating Layer conv1
I0506 14:40:45.410640 22186 net.cpp:435] conv1 <- data
I0506 14:40:45.410645 22186 net.cpp:409] conv1 -> conv1
I0506 14:40:45.411473 22186 net.cpp:144] Setting up conv1
I0506 14:40:45.411486 22186 net.cpp:151] Top shape: 20 64 10 10 (128000)
I0506 14:40:45.411489 22186 net.cpp:159] Memory required for data: 520240
I0506 14:40:45.411499 22186 layer_factory.hpp:77] Creating layer relu1
I0506 14:40:45.411506 22186 net.cpp:94] Creating Layer relu1
I0506 14:40:45.411509 22186 net.cpp:435] relu1 <- conv1
I0506 14:40:45.411514 22186 net.cpp:396] relu1 -> conv1 (in-place)
I0506 14:40:45.411520 22186 net.cpp:144] Setting up relu1
I0506 14:40:45.411525 22186 net.cpp:151] Top shape: 20 64 10 10 (128000)
I0506 14:40:45.411540 22186 net.cpp:159] Memory required for data: 1032240
I0506 14:40:45.411543 22186 layer_factory.hpp:77] Creating layer conv2
I0506 14:40:45.411550 22186 net.cpp:94] Creating Layer conv2
I0506 14:40:45.411554 22186 net.cpp:435] conv2 <- conv1
I0506 14:40:45.411559 22186 net.cpp:409] conv2 -> conv2
I0506 14:40:45.415650 22186 net.cpp:144] Setting up conv2
I0506 14:40:45.415664 22186 net.cpp:151] Top shape: 20 64 10 10 (128000)
I0506 14:40:45.415668 22186 net.cpp:159] Memory required for data: 1544240
I0506 14:40:45.415675 22186 layer_factory.hpp:77] Creating layer relu2
I0506 14:40:45.415681 22186 net.cpp:94] Creating Layer relu2
I0506 14:40:45.415684 22186 net.cpp:435] relu2 <- conv2
I0506 14:40:45.415689 22186 net.cpp:396] relu2 -> conv2 (in-place)
I0506 14:40:45.415695 22186 net.cpp:144] Setting up relu2
I0506 14:40:45.415699 22186 net.cpp:151] Top shape: 20 64 10 10 (128000)
I0506 14:40:45.415702 22186 net.cpp:159] Memory required for data: 2056240
I0506 14:40:45.415705 22186 layer_factory.hpp:77] Creating layer pool2
I0506 14:40:45.415712 22186 net.cpp:94] Creating Layer pool2
I0506 14:40:45.415716 22186 net.cpp:435] pool2 <- conv2
I0506 14:40:45.415720 22186 net.cpp:409] pool2 -> pool2
I0506 14:40:45.415776 22186 net.cpp:144] Setting up pool2
I0506 14:40:45.415782 22186 net.cpp:151] Top shape: 20 64 5 5 (32000)
I0506 14:40:45.415786 22186 net.cpp:159] Memory required for data: 2184240
I0506 14:40:45.415788 22186 layer_factory.hpp:77] Creating layer conv3
I0506 14:40:45.415798 22186 net.cpp:94] Creating Layer conv3
I0506 14:40:45.415802 22186 net.cpp:435] conv3 <- pool2
I0506 14:40:45.415808 22186 net.cpp:409] conv3 -> conv3
I0506 14:40:45.421897 22186 net.cpp:144] Setting up conv3
I0506 14:40:45.421911 22186 net.cpp:151] Top shape: 20 128 5 5 (64000)
I0506 14:40:45.421916 22186 net.cpp:159] Memory required for data: 2440240
I0506 14:40:45.421923 22186 layer_factory.hpp:77] Creating layer relu3
I0506 14:40:45.421931 22186 net.cpp:94] Creating Layer relu3
I0506 14:40:45.421933 22186 net.cpp:435] relu3 <- conv3
I0506 14:40:45.421938 22186 net.cpp:396] relu3 -> conv3 (in-place)
I0506 14:40:45.421944 22186 net.cpp:144] Setting up relu3
I0506 14:40:45.421948 22186 net.cpp:151] Top shape: 20 128 5 5 (64000)
I0506 14:40:45.421952 22186 net.cpp:159] Memory required for data: 2696240
I0506 14:40:45.421954 22186 layer_factory.hpp:77] Creating layer conv4
I0506 14:40:45.421963 22186 net.cpp:94] Creating Layer conv4
I0506 14:40:45.421967 22186 net.cpp:435] conv4 <- conv3
I0506 14:40:45.421972 22186 net.cpp:409] conv4 -> conv4
I0506 14:40:45.434691 22186 net.cpp:144] Setting up conv4
I0506 14:40:45.434715 22186 net.cpp:151] Top shape: 20 128 5 5 (64000)
I0506 14:40:45.434718 22186 net.cpp:159] Memory required for data: 2952240
I0506 14:40:45.434725 22186 layer_factory.hpp:77] Creating layer relu4
I0506 14:40:45.434732 22186 net.cpp:94] Creating Layer relu4
I0506 14:40:45.434737 22186 net.cpp:435] relu4 <- conv4
I0506 14:40:45.434742 22186 net.cpp:396] relu4 -> conv4 (in-place)
I0506 14:40:45.434751 22186 net.cpp:144] Setting up relu4
I0506 14:40:45.434754 22186 net.cpp:151] Top shape: 20 128 5 5 (64000)
I0506 14:40:45.434757 22186 net.cpp:159] Memory required for data: 3208240
I0506 14:40:45.434761 22186 layer_factory.hpp:77] Creating layer conv5
I0506 14:40:45.434769 22186 net.cpp:94] Creating Layer conv5
I0506 14:40:45.434773 22186 net.cpp:435] conv5 <- conv4
I0506 14:40:45.434777 22186 net.cpp:409] conv5 -> conv5
I0506 14:40:45.447424 22186 net.cpp:144] Setting up conv5
I0506 14:40:45.447449 22186 net.cpp:151] Top shape: 20 128 5 5 (64000)
I0506 14:40:45.447453 22186 net.cpp:159] Memory required for data: 3464240
I0506 14:40:45.447464 22186 layer_factory.hpp:77] Creating layer relu5
I0506 14:40:45.447471 22186 net.cpp:94] Creating Layer relu5
I0506 14:40:45.447475 22186 net.cpp:435] relu5 <- conv5
I0506 14:40:45.447480 22186 net.cpp:396] relu5 -> conv5 (in-place)
I0506 14:40:45.447489 22186 net.cpp:144] Setting up relu5
I0506 14:40:45.447492 22186 net.cpp:151] Top shape: 20 128 5 5 (64000)
I0506 14:40:45.447502 22186 net.cpp:159] Memory required for data: 3720240
I0506 14:40:45.447506 22186 layer_factory.hpp:77] Creating layer pool5
I0506 14:40:45.447513 22186 net.cpp:94] Creating Layer pool5
I0506 14:40:45.447516 22186 net.cpp:435] pool5 <- conv5
I0506 14:40:45.447521 22186 net.cpp:409] pool5 -> pool5
I0506 14:40:45.447563 22186 net.cpp:144] Setting up pool5
I0506 14:40:45.447571 22186 net.cpp:151] Top shape: 20 128 2 2 (10240)
I0506 14:40:45.447573 22186 net.cpp:159] Memory required for data: 3761200
I0506 14:40:45.447576 22186 layer_factory.hpp:77] Creating layer ip1
I0506 14:40:45.447583 22186 net.cpp:94] Creating Layer ip1
I0506 14:40:45.447587 22186 net.cpp:435] ip1 <- pool5
I0506 14:40:45.447592 22186 net.cpp:409] ip1 -> ip1
I0506 14:40:45.461016 22186 net.cpp:144] Setting up ip1
I0506 14:40:45.461042 22186 net.cpp:151] Top shape: 20 1024 (20480)
I0506 14:40:45.461045 22186 net.cpp:159] Memory required for data: 3843120
I0506 14:40:45.461053 22186 layer_factory.hpp:77] Creating layer ip2
I0506 14:40:45.461062 22186 net.cpp:94] Creating Layer ip2
I0506 14:40:45.461066 22186 net.cpp:435] ip2 <- ip1
I0506 14:40:45.461073 22186 net.cpp:409] ip2 -> ip2
I0506 14:40:45.474534 22186 net.cpp:144] Setting up ip2
I0506 14:40:45.474560 22186 net.cpp:151] Top shape: 20 512 (10240)
I0506 14:40:45.474563 22186 net.cpp:159] Memory required for data: 3884080
I0506 14:40:45.474570 22186 layer_factory.hpp:77] Creating layer ip3
I0506 14:40:45.474584 22186 net.cpp:94] Creating Layer ip3
I0506 14:40:45.474588 22186 net.cpp:435] ip3 <- ip2
I0506 14:40:45.474594 22186 net.cpp:409] ip3 -> ip3
I0506 14:40:45.475354 22186 net.cpp:144] Setting up ip3
I0506 14:40:45.475363 22186 net.cpp:151] Top shape: 20 50 (1000)
I0506 14:40:45.475366 22186 net.cpp:159] Memory required for data: 3888080
I0506 14:40:45.475371 22186 layer_factory.hpp:77] Creating layer ip3_ip3_0_split
I0506 14:40:45.475378 22186 net.cpp:94] Creating Layer ip3_ip3_0_split
I0506 14:40:45.475380 22186 net.cpp:435] ip3_ip3_0_split <- ip3
I0506 14:40:45.475384 22186 net.cpp:409] ip3_ip3_0_split -> ip3_ip3_0_split_0
I0506 14:40:45.475390 22186 net.cpp:409] ip3_ip3_0_split -> ip3_ip3_0_split_1
I0506 14:40:45.475432 22186 net.cpp:144] Setting up ip3_ip3_0_split
I0506 14:40:45.475438 22186 net.cpp:151] Top shape: 20 50 (1000)
I0506 14:40:45.475442 22186 net.cpp:151] Top shape: 20 50 (1000)
I0506 14:40:45.475445 22186 net.cpp:159] Memory required for data: 3896080
I0506 14:40:45.475448 22186 layer_factory.hpp:77] Creating layer accuracy
I0506 14:40:45.475455 22186 net.cpp:94] Creating Layer accuracy
I0506 14:40:45.475457 22186 net.cpp:435] accuracy <- ip3_ip3_0_split_0
I0506 14:40:45.475461 22186 net.cpp:435] accuracy <- label_intercept_1_split_0
I0506 14:40:45.475466 22186 net.cpp:409] accuracy -> accuracy
…
