…
I0502 05:19:50.456229 18742 net.cpp:323] The NetState phase (0) differed from the phase (1) specified by a rule in layer intercept
I0502 05:19:50.456246 18742 net.cpp:323] The NetState phase (0) differed from the phase (1) specified by a rule in layer loss
I0502 05:19:50.456341 18742 net.cpp:52] Initializing net from parameters: 
state {
  phase: TRAIN
}
layer {
  name: "parameters"
  type: "HDF5Data"
  top: "data"
  top: "label"
  include {
    phase: TRAIN
  }
  hdf5_data_param {
    source: "/home/purduethu/scratch/radon/d/deng106/CNNStatisticalModel/distributions/input/5_distributions_400_sample_size_train-parameters-path.txt"
    batch_size: 20
  }
}
layer {
  name: "conv1"
  type: "Convolution"
  bottom: "data"
  top: "conv1"
  param {
    lr_mult: 1
  }
  param {
    lr_mult: 2
  }
  convolution_param {
    num_output: 64
    pad: 2
    kernel_size: 5
    stride: 1
    weight_filler {
      type: "gaussian"
      std: 0.0001
    }
    bias_filler {
      type: "constant"
    }
  }
}
layer {
  name: "relu1"
  type: "ReLU"
  bottom: "conv1"
  top: "conv1"
}
layer {
  name: "conv2"
  type: "Convolution"
  bottom: "conv1"
  top: "conv2"
  param {
    lr_mult: 1
  }
  param {
    lr_mult: 2
  }
  convolution_param {
    num_output: 64
    pad: 2
    kernel_size: 5
    stride: 1
    weight_filler {
      type: "gaussian"
      std: 0.01
    }
    bias_filler {
      type: "constant"
    }
  }
}
layer {
  name: "relu2"
  type: "ReLU"
  bottom: "conv2"
  top: "conv2"
}
layer {
  name: "pool2"
  type: "Pooling"
  bottom: "conv2"
  top: "pool2"
  pooling_param {
    pool: MAX
    kernel_size: 3
    stride: 2
  }
}
layer {
  name: "conv3"
  type: "Convolution"
  bottom: "pool2"
  top: "conv3"
  param {
    lr_mult: 1
  }
  param {
    lr_mult: 2
  }
  convolution_param {
    num_output: 64
    pad: 2
    kernel_size: 5
    stride: 1
    weight_filler {
      type: "gaussian"
      std: 0.01
    }
    bias_filler {
      type: "constant"
    }
  }
}
layer {
  name: "relu3"
  type: "ReLU"
  bottom: "conv3"
  top: "conv3"
}
layer {
  name: "conv4"
  type: "Convolution"
  bottom: "conv3"
  top: "conv4"
  param {
    lr_mult: 1
  }
  param {
    lr_mult: 2
  }
  convolution_param {
    num_output: 64
    pad: 2
    kernel_size: 5
    stride: 1
    weight_filler {
      type: "gaussian"
      std: 0.01
    }
    bias_filler {
      type: "constant"
    }
  }
}
layer {
  name: "relu4"
  type: "ReLU"
  bottom: "conv4"
  top: "conv4"
}
layer {
  name: "conv5"
  type: "Convolution"
  bottom: "conv4"
  top: "conv5"
  param {
    lr_mult: 1
  }
  param {
    lr_mult: 2
  }
  convolution_param {
    num_output: 64
    pad: 2
    kernel_size: 5
    stride: 1
    weight_filler {
      type: "gaussian"
      std: 0.01
    }
    bias_filler {
      type: "constant"
    }
  }
}
layer {
  name: "relu5"
  type: "ReLU"
  bottom: "conv5"
  top: "conv5"
}
layer {
  name: "pool5"
  type: "Pooling"
  bottom: "conv5"
  top: "pool5"
  pooling_param {
    pool: AVE
    kernel_size: 3
    stride: 2
  }
}
layer {
  name: "ip1"
  type: "InnerProduct"
  bottom: "pool5"
  top: "ip1"
  param {
    lr_mult: 1
  }
  param {
    lr_mult: 2
  }
  inner_product_param {
    num_output: 64
    weight_filler {
      type: "gaussian"
      std: 0.1
    }
    bias_filler {
      type: "constant"
    }
  }
}
layer {
  name: "ip2"
  type: "InnerProduct"
  bottom: "ip1"
  top: "ip2"
  param {
    lr_mult: 1
  }
  param {
    lr_mult: 2
  }
  inner_product_param {
    num_output: 64
    weight_filler {
      type: "gaussian"
      std: 0.1
    }
    bias_filler {
      type: "constant"
    }
  }
}
layer {
  name: "ip3"
  type: "InnerProduct"
  bottom: "ip2"
  top: "ip3"
  param {
    lr_mult: 1
  }
  param {
    lr_mult: 2
  }
  inner_product_param {
    num_output: 1
    weight_filler {
      type: "gaussian"
      std: 0.1
    }
    bias_filler {
      type: "constant"
    }
  }
}
layer {
  name: "loss"
  type: "HuberLoss"
  bottom: "ip3"
  bottom: "label"
  top: "loss"
  include {
    phase: TRAIN
  }
}
I0502 05:19:50.456415 18742 layer_factory.hpp:77] Creating layer parameters
I0502 05:19:50.456432 18742 net.cpp:94] Creating Layer parameters
I0502 05:19:50.456439 18742 net.cpp:409] parameters -> data
I0502 05:19:50.456459 18742 net.cpp:409] parameters -> label
I0502 05:19:50.456470 18742 hdf5_data_layer.cpp:79] Loading list of HDF5 filenames from: /home/purduethu/scratch/radon/d/deng106/CNNStatisticalModel/distributions/input/5_distributions_400_sample_size_train-parameters-path.txt
I0502 05:19:50.456490 18742 hdf5_data_layer.cpp:93] Number of HDF5 files: 1
I0502 05:19:50.456974 18742 hdf5.cpp:32] Datatype class: H5T_FLOAT
I0502 05:19:50.519690 18742 net.cpp:144] Setting up parameters
I0502 05:19:50.519721 18742 net.cpp:151] Top shape: 20 1 20 20 (8000)
I0502 05:19:50.519728 18742 net.cpp:151] Top shape: 20 (20)
I0502 05:19:50.519732 18742 net.cpp:159] Memory required for data: 32080
I0502 05:19:50.519739 18742 layer_factory.hpp:77] Creating layer conv1
I0502 05:19:50.519758 18742 net.cpp:94] Creating Layer conv1
I0502 05:19:50.519764 18742 net.cpp:435] conv1 <- data
I0502 05:19:50.519775 18742 net.cpp:409] conv1 -> conv1
I0502 05:19:50.524577 18742 net.cpp:144] Setting up conv1
I0502 05:19:50.524592 18742 net.cpp:151] Top shape: 20 64 20 20 (512000)
I0502 05:19:50.524596 18742 net.cpp:159] Memory required for data: 2080080
I0502 05:19:50.524607 18742 layer_factory.hpp:77] Creating layer relu1
I0502 05:19:50.524616 18742 net.cpp:94] Creating Layer relu1
I0502 05:19:50.524619 18742 net.cpp:435] relu1 <- conv1
I0502 05:19:50.524624 18742 net.cpp:396] relu1 -> conv1 (in-place)
I0502 05:19:50.524639 18742 net.cpp:144] Setting up relu1
I0502 05:19:50.524644 18742 net.cpp:151] Top shape: 20 64 20 20 (512000)
I0502 05:19:50.524647 18742 net.cpp:159] Memory required for data: 4128080
I0502 05:19:50.524652 18742 layer_factory.hpp:77] Creating layer conv2
I0502 05:19:50.524658 18742 net.cpp:94] Creating Layer conv2
I0502 05:19:50.524662 18742 net.cpp:435] conv2 <- conv1
I0502 05:19:50.524667 18742 net.cpp:409] conv2 -> conv2
I0502 05:19:50.535904 18742 net.cpp:144] Setting up conv2
I0502 05:19:50.535920 18742 net.cpp:151] Top shape: 20 64 20 20 (512000)
I0502 05:19:50.535924 18742 net.cpp:159] Memory required for data: 6176080
I0502 05:19:50.535933 18742 layer_factory.hpp:77] Creating layer relu2
I0502 05:19:50.535939 18742 net.cpp:94] Creating Layer relu2
I0502 05:19:50.535943 18742 net.cpp:435] relu2 <- conv2
I0502 05:19:50.535948 18742 net.cpp:396] relu2 -> conv2 (in-place)
I0502 05:19:50.535955 18742 net.cpp:144] Setting up relu2
I0502 05:19:50.535960 18742 net.cpp:151] Top shape: 20 64 20 20 (512000)
I0502 05:19:50.535964 18742 net.cpp:159] Memory required for data: 8224080
I0502 05:19:50.535966 18742 layer_factory.hpp:77] Creating layer pool2
I0502 05:19:50.535975 18742 net.cpp:94] Creating Layer pool2
I0502 05:19:50.535985 18742 net.cpp:435] pool2 <- conv2
I0502 05:19:50.535991 18742 net.cpp:409] pool2 -> pool2
I0502 05:19:50.536034 18742 net.cpp:144] Setting up pool2
I0502 05:19:50.536041 18742 net.cpp:151] Top shape: 20 64 10 10 (128000)
I0502 05:19:50.536046 18742 net.cpp:159] Memory required for data: 8736080
I0502 05:19:50.536048 18742 layer_factory.hpp:77] Creating layer conv3
I0502 05:19:50.536056 18742 net.cpp:94] Creating Layer conv3
I0502 05:19:50.536061 18742 net.cpp:435] conv3 <- pool2
I0502 05:19:50.536065 18742 net.cpp:409] conv3 -> conv3
I0502 05:19:50.541321 18742 net.cpp:144] Setting up conv3
I0502 05:19:50.541335 18742 net.cpp:151] Top shape: 20 64 10 10 (128000)
I0502 05:19:50.541339 18742 net.cpp:159] Memory required for data: 9248080
I0502 05:19:50.541348 18742 layer_factory.hpp:77] Creating layer relu3
I0502 05:19:50.541354 18742 net.cpp:94] Creating Layer relu3
I0502 05:19:50.541357 18742 net.cpp:435] relu3 <- conv3
I0502 05:19:50.541363 18742 net.cpp:396] relu3 -> conv3 (in-place)
I0502 05:19:50.541369 18742 net.cpp:144] Setting up relu3
I0502 05:19:50.541374 18742 net.cpp:151] Top shape: 20 64 10 10 (128000)
I0502 05:19:50.541378 18742 net.cpp:159] Memory required for data: 9760080
I0502 05:19:50.541380 18742 layer_factory.hpp:77] Creating layer conv4
I0502 05:19:50.541389 18742 net.cpp:94] Creating Layer conv4
I0502 05:19:50.541393 18742 net.cpp:435] conv4 <- conv3
I0502 05:19:50.541398 18742 net.cpp:409] conv4 -> conv4
I0502 05:19:50.546633 18742 net.cpp:144] Setting up conv4
I0502 05:19:50.546646 18742 net.cpp:151] Top shape: 20 64 10 10 (128000)
I0502 05:19:50.546651 18742 net.cpp:159] Memory required for data: 10272080
I0502 05:19:50.546658 18742 layer_factory.hpp:77] Creating layer relu4
I0502 05:19:50.546663 18742 net.cpp:94] Creating Layer relu4
I0502 05:19:50.546667 18742 net.cpp:435] relu4 <- conv4
I0502 05:19:50.546671 18742 net.cpp:396] relu4 -> conv4 (in-place)
I0502 05:19:50.546679 18742 net.cpp:144] Setting up relu4
I0502 05:19:50.546684 18742 net.cpp:151] Top shape: 20 64 10 10 (128000)
I0502 05:19:50.546686 18742 net.cpp:159] Memory required for data: 10784080
I0502 05:19:50.546690 18742 layer_factory.hpp:77] Creating layer conv5
I0502 05:19:50.546697 18742 net.cpp:94] Creating Layer conv5
I0502 05:19:50.546701 18742 net.cpp:435] conv5 <- conv4
I0502 05:19:50.546706 18742 net.cpp:409] conv5 -> conv5
I0502 05:19:50.551928 18742 net.cpp:144] Setting up conv5
I0502 05:19:50.551941 18742 net.cpp:151] Top shape: 20 64 10 10 (128000)
I0502 05:19:50.551945 18742 net.cpp:159] Memory required for data: 11296080
I0502 05:19:50.551954 18742 layer_factory.hpp:77] Creating layer relu5
I0502 05:19:50.551960 18742 net.cpp:94] Creating Layer relu5
I0502 05:19:50.551964 18742 net.cpp:435] relu5 <- conv5
I0502 05:19:50.551969 18742 net.cpp:396] relu5 -> conv5 (in-place)
I0502 05:19:50.551975 18742 net.cpp:144] Setting up relu5
I0502 05:19:50.551980 18742 net.cpp:151] Top shape: 20 64 10 10 (128000)
I0502 05:19:50.551983 18742 net.cpp:159] Memory required for data: 11808080
I0502 05:19:50.551986 18742 layer_factory.hpp:77] Creating layer pool5
I0502 05:19:50.551991 18742 net.cpp:94] Creating Layer pool5
I0502 05:19:50.551995 18742 net.cpp:435] pool5 <- conv5
I0502 05:19:50.552000 18742 net.cpp:409] pool5 -> pool5
I0502 05:19:50.552033 18742 net.cpp:144] Setting up pool5
I0502 05:19:50.552040 18742 net.cpp:151] Top shape: 20 64 5 5 (32000)
I0502 05:19:50.552043 18742 net.cpp:159] Memory required for data: 11936080
I0502 05:19:50.552047 18742 layer_factory.hpp:77] Creating layer ip1
I0502 05:19:50.552057 18742 net.cpp:94] Creating Layer ip1
I0502 05:19:50.552060 18742 net.cpp:435] ip1 <- pool5
I0502 05:19:50.552065 18742 net.cpp:409] ip1 -> ip1
I0502 05:19:50.554630 18742 net.cpp:144] Setting up ip1
I0502 05:19:50.554637 18742 net.cpp:151] Top shape: 20 64 (1280)
I0502 05:19:50.554641 18742 net.cpp:159] Memory required for data: 11941200
I0502 05:19:50.554646 18742 layer_factory.hpp:77] Creating layer ip2
I0502 05:19:50.554652 18742 net.cpp:94] Creating Layer ip2
I0502 05:19:50.554656 18742 net.cpp:435] ip2 <- ip1
I0502 05:19:50.554666 18742 net.cpp:409] ip2 -> ip2
I0502 05:19:50.554834 18742 net.cpp:144] Setting up ip2
I0502 05:19:50.554841 18742 net.cpp:151] Top shape: 20 64 (1280)
I0502 05:19:50.554846 18742 net.cpp:159] Memory required for data: 11946320
I0502 05:19:50.554850 18742 layer_factory.hpp:77] Creating layer ip3
I0502 05:19:50.554855 18742 net.cpp:94] Creating Layer ip3
I0502 05:19:50.554859 18742 net.cpp:435] ip3 <- ip2
I0502 05:19:50.554863 18742 net.cpp:409] ip3 -> ip3
I0502 05:19:50.554927 18742 net.cpp:144] Setting up ip3
I0502 05:19:50.554939 18742 net.cpp:151] Top shape: 20 1 (20)
I0502 05:19:50.554942 18742 net.cpp:159] Memory required for data: 11946400
I0502 05:19:50.554947 18742 layer_factory.hpp:77] Creating layer loss
I0502 05:19:50.554957 18742 net.cpp:94] Creating Layer loss
I0502 05:19:50.554961 18742 net.cpp:435] loss <- ip3
I0502 05:19:50.554965 18742 net.cpp:435] loss <- label
I0502 05:19:50.554970 18742 net.cpp:409] loss -> loss
I0502 05:19:50.555006 18742 net.cpp:144] Setting up loss
…
