…
I0503 10:26:09.030257 19922 net.cpp:323] The NetState phase (0) differed from the phase (1) specified by a rule in layer intercept
I0503 10:26:09.030272 19922 net.cpp:323] The NetState phase (0) differed from the phase (1) specified by a rule in layer accuracy
I0503 10:26:09.030360 19922 net.cpp:52] Initializing net from parameters: 
state {
  phase: TRAIN
}
layer {
  name: "parameters"
  type: "HDF5Data"
  top: "data"
  top: "label"
  include {
    phase: TRAIN
  }
  hdf5_data_param {
    source: "/home/purduethu/scratch/radon/d/deng106/CNNStatisticalModel/distributions/input/50_distributions_400_sample_size_train-distributions-path.txt"
    batch_size: 20
  }
}
layer {
  name: "conv1"
  type: "Convolution"
  bottom: "data"
  top: "conv1"
  param {
    lr_mult: 1
  }
  param {
    lr_mult: 2
  }
  convolution_param {
    num_output: 64
    pad: 2
    kernel_size: 5
    stride: 1
    weight_filler {
      type: "gaussian"
      std: 0.0001
    }
    bias_filler {
      type: "constant"
    }
  }
}
layer {
  name: "relu1"
  type: "ReLU"
  bottom: "conv1"
  top: "conv1"
}
layer {
  name: "conv2"
  type: "Convolution"
  bottom: "conv1"
  top: "conv2"
  param {
    lr_mult: 1
  }
  param {
    lr_mult: 2
  }
  convolution_param {
    num_output: 64
    pad: 2
    kernel_size: 5
    stride: 1
    weight_filler {
      type: "gaussian"
      std: 0.01
    }
    bias_filler {
      type: "constant"
    }
  }
}
layer {
  name: "relu2"
  type: "ReLU"
  bottom: "conv2"
  top: "conv2"
}
layer {
  name: "pool2"
  type: "Pooling"
  bottom: "conv2"
  top: "pool2"
  pooling_param {
    pool: MAX
    kernel_size: 3
    stride: 2
  }
}
layer {
  name: "conv3"
  type: "Convolution"
  bottom: "pool2"
  top: "conv3"
  param {
    lr_mult: 1
  }
  param {
    lr_mult: 2
  }
  convolution_param {
    num_output: 128
    pad: 2
    kernel_size: 5
    stride: 1
    weight_filler {
      type: "gaussian"
      std: 0.01
    }
    bias_filler {
      type: "constant"
    }
  }
}
layer {
  name: "relu3"
  type: "ReLU"
  bottom: "conv3"
  top: "conv3"
}
layer {
  name: "conv4"
  type: "Convolution"
  bottom: "conv3"
  top: "conv4"
  param {
    lr_mult: 1
  }
  param {
    lr_mult: 2
  }
  convolution_param {
    num_output: 128
    pad: 2
    kernel_size: 5
    stride: 1
    weight_filler {
      type: "gaussian"
      std: 0.01
    }
    bias_filler {
      type: "constant"
    }
  }
}
layer {
  name: "relu4"
  type: "ReLU"
  bottom: "conv4"
  top: "conv4"
}
layer {
  name: "conv5"
  type: "Convolution"
  bottom: "conv4"
  top: "conv5"
  param {
    lr_mult: 1
  }
  param {
    lr_mult: 2
  }
  convolution_param {
    num_output: 128
    pad: 2
    kernel_size: 5
    stride: 1
    weight_filler {
      type: "gaussian"
      std: 0.01
    }
    bias_filler {
      type: "constant"
    }
  }
}
layer {
  name: "relu5"
  type: "ReLU"
  bottom: "conv5"
  top: "conv5"
}
layer {
  name: "pool5"
  type: "Pooling"
  bottom: "conv5"
  top: "pool5"
  pooling_param {
    pool: AVE
    kernel_size: 3
    stride: 2
  }
}
layer {
  name: "ip1"
  type: "InnerProduct"
  bottom: "pool5"
  top: "ip1"
  param {
    lr_mult: 1
  }
  param {
    lr_mult: 2
  }
  inner_product_param {
    num_output: 1024
    weight_filler {
      type: "gaussian"
      std: 0.1
    }
    bias_filler {
      type: "constant"
    }
  }
}
layer {
  name: "ip2"
  type: "InnerProduct"
  bottom: "ip1"
  top: "ip2"
  param {
    lr_mult: 1
  }
  param {
    lr_mult: 2
  }
  inner_product_param {
    num_output: 512
    weight_filler {
      type: "gaussian"
      std: 0.1
    }
    bias_filler {
      type: "constant"
    }
  }
}
layer {
  name: "ip3"
  type: "InnerProduct"
  bottom: "ip2"
  top: "ip3"
  param {
    lr_mult: 1
  }
  param {
    lr_mult: 2
  }
  inner_product_param {
    num_output: 50
    weight_filler {
      type: "gaussian"
      std: 0.1
    }
    bias_filler {
      type: "constant"
    }
  }
}
layer {
  name: "loss"
  type: "SoftmaxWithLoss"
  bottom: "ip3"
  bottom: "label"
  top: "loss"
}
I0503 10:26:09.030433 19922 layer_factory.hpp:77] Creating layer parameters
I0503 10:26:09.030447 19922 net.cpp:94] Creating Layer parameters
I0503 10:26:09.030453 19922 net.cpp:409] parameters -> data
I0503 10:26:09.030472 19922 net.cpp:409] parameters -> label
I0503 10:26:09.030481 19922 hdf5_data_layer.cpp:79] Loading list of HDF5 filenames from: /home/purduethu/scratch/radon/d/deng106/CNNStatisticalModel/distributions/input/50_distributions_400_sample_size_train-distributions-path.txt
I0503 10:26:09.030503 19922 hdf5_data_layer.cpp:93] Number of HDF5 files: 1
I0503 10:26:09.031061 19922 hdf5.cpp:32] Datatype class: H5T_FLOAT
I0503 10:26:09.664914 19922 hdf5.cpp:35] Datatype class: H5T_INTEGER
I0503 10:26:09.667655 19922 net.cpp:144] Setting up parameters
I0503 10:26:09.667677 19922 net.cpp:151] Top shape: 20 1 20 20 (8000)
I0503 10:26:09.667683 19922 net.cpp:151] Top shape: 20 (20)
I0503 10:26:09.667686 19922 net.cpp:159] Memory required for data: 32080
I0503 10:26:09.667695 19922 layer_factory.hpp:77] Creating layer conv1
I0503 10:26:09.667718 19922 net.cpp:94] Creating Layer conv1
I0503 10:26:09.667723 19922 net.cpp:435] conv1 <- data
I0503 10:26:09.667734 19922 net.cpp:409] conv1 -> conv1
I0503 10:26:09.672535 19922 net.cpp:144] Setting up conv1
I0503 10:26:09.672569 19922 net.cpp:151] Top shape: 20 64 20 20 (512000)
I0503 10:26:09.672574 19922 net.cpp:159] Memory required for data: 2080080
I0503 10:26:09.672586 19922 layer_factory.hpp:77] Creating layer relu1
I0503 10:26:09.672595 19922 net.cpp:94] Creating Layer relu1
I0503 10:26:09.672598 19922 net.cpp:435] relu1 <- conv1
I0503 10:26:09.672603 19922 net.cpp:396] relu1 -> conv1 (in-place)
I0503 10:26:09.672619 19922 net.cpp:144] Setting up relu1
I0503 10:26:09.672626 19922 net.cpp:151] Top shape: 20 64 20 20 (512000)
I0503 10:26:09.672628 19922 net.cpp:159] Memory required for data: 4128080
I0503 10:26:09.672631 19922 layer_factory.hpp:77] Creating layer conv2
I0503 10:26:09.672641 19922 net.cpp:94] Creating Layer conv2
I0503 10:26:09.672643 19922 net.cpp:435] conv2 <- conv1
I0503 10:26:09.672648 19922 net.cpp:409] conv2 -> conv2
I0503 10:26:09.683435 19922 net.cpp:144] Setting up conv2
I0503 10:26:09.683451 19922 net.cpp:151] Top shape: 20 64 20 20 (512000)
I0503 10:26:09.683456 19922 net.cpp:159] Memory required for data: 6176080
I0503 10:26:09.683465 19922 layer_factory.hpp:77] Creating layer relu2
I0503 10:26:09.683471 19922 net.cpp:94] Creating Layer relu2
I0503 10:26:09.683475 19922 net.cpp:435] relu2 <- conv2
I0503 10:26:09.683480 19922 net.cpp:396] relu2 -> conv2 (in-place)
I0503 10:26:09.683487 19922 net.cpp:144] Setting up relu2
I0503 10:26:09.683491 19922 net.cpp:151] Top shape: 20 64 20 20 (512000)
I0503 10:26:09.683495 19922 net.cpp:159] Memory required for data: 8224080
I0503 10:26:09.683498 19922 layer_factory.hpp:77] Creating layer pool2
I0503 10:26:09.683512 19922 net.cpp:94] Creating Layer pool2
I0503 10:26:09.683516 19922 net.cpp:435] pool2 <- conv2
I0503 10:26:09.683521 19922 net.cpp:409] pool2 -> pool2
I0503 10:26:09.683564 19922 net.cpp:144] Setting up pool2
I0503 10:26:09.683573 19922 net.cpp:151] Top shape: 20 64 10 10 (128000)
I0503 10:26:09.683575 19922 net.cpp:159] Memory required for data: 8736080
I0503 10:26:09.683579 19922 layer_factory.hpp:77] Creating layer conv3
I0503 10:26:09.683588 19922 net.cpp:94] Creating Layer conv3
I0503 10:26:09.683590 19922 net.cpp:435] conv3 <- pool2
I0503 10:26:09.683604 19922 net.cpp:409] conv3 -> conv3
I0503 10:26:09.693019 19922 net.cpp:144] Setting up conv3
I0503 10:26:09.693034 19922 net.cpp:151] Top shape: 20 128 10 10 (256000)
I0503 10:26:09.693039 19922 net.cpp:159] Memory required for data: 9760080
I0503 10:26:09.693048 19922 layer_factory.hpp:77] Creating layer relu3
I0503 10:26:09.693053 19922 net.cpp:94] Creating Layer relu3
I0503 10:26:09.693058 19922 net.cpp:435] relu3 <- conv3
I0503 10:26:09.693063 19922 net.cpp:396] relu3 -> conv3 (in-place)
I0503 10:26:09.693069 19922 net.cpp:144] Setting up relu3
I0503 10:26:09.693074 19922 net.cpp:151] Top shape: 20 128 10 10 (256000)
I0503 10:26:09.693078 19922 net.cpp:159] Memory required for data: 10784080
I0503 10:26:09.693080 19922 layer_factory.hpp:77] Creating layer conv4
I0503 10:26:09.693089 19922 net.cpp:94] Creating Layer conv4
I0503 10:26:09.693094 19922 net.cpp:435] conv4 <- conv3
I0503 10:26:09.693097 19922 net.cpp:409] conv4 -> conv4
I0503 10:26:09.710619 19922 net.cpp:144] Setting up conv4
I0503 10:26:09.710635 19922 net.cpp:151] Top shape: 20 128 10 10 (256000)
I0503 10:26:09.710639 19922 net.cpp:159] Memory required for data: 11808080
I0503 10:26:09.710646 19922 layer_factory.hpp:77] Creating layer relu4
I0503 10:26:09.710652 19922 net.cpp:94] Creating Layer relu4
I0503 10:26:09.710655 19922 net.cpp:435] relu4 <- conv4
I0503 10:26:09.710660 19922 net.cpp:396] relu4 -> conv4 (in-place)
I0503 10:26:09.710667 19922 net.cpp:144] Setting up relu4
I0503 10:26:09.710672 19922 net.cpp:151] Top shape: 20 128 10 10 (256000)
I0503 10:26:09.710675 19922 net.cpp:159] Memory required for data: 12832080
I0503 10:26:09.710678 19922 layer_factory.hpp:77] Creating layer conv5
I0503 10:26:09.710686 19922 net.cpp:94] Creating Layer conv5
I0503 10:26:09.710690 19922 net.cpp:435] conv5 <- conv4
I0503 10:26:09.710695 19922 net.cpp:409] conv5 -> conv5
I0503 10:26:09.727946 19922 net.cpp:144] Setting up conv5
I0503 10:26:09.727960 19922 net.cpp:151] Top shape: 20 128 10 10 (256000)
I0503 10:26:09.727965 19922 net.cpp:159] Memory required for data: 13856080
I0503 10:26:09.727974 19922 layer_factory.hpp:77] Creating layer relu5
I0503 10:26:09.727980 19922 net.cpp:94] Creating Layer relu5
I0503 10:26:09.727984 19922 net.cpp:435] relu5 <- conv5
I0503 10:26:09.727989 19922 net.cpp:396] relu5 -> conv5 (in-place)
I0503 10:26:09.727996 19922 net.cpp:144] Setting up relu5
I0503 10:26:09.728000 19922 net.cpp:151] Top shape: 20 128 10 10 (256000)
I0503 10:26:09.728004 19922 net.cpp:159] Memory required for data: 14880080
I0503 10:26:09.728008 19922 layer_factory.hpp:77] Creating layer pool5
I0503 10:26:09.728013 19922 net.cpp:94] Creating Layer pool5
I0503 10:26:09.728015 19922 net.cpp:435] pool5 <- conv5
I0503 10:26:09.728020 19922 net.cpp:409] pool5 -> pool5
I0503 10:26:09.728056 19922 net.cpp:144] Setting up pool5
I0503 10:26:09.728063 19922 net.cpp:151] Top shape: 20 128 5 5 (64000)
I0503 10:26:09.728066 19922 net.cpp:159] Memory required for data: 15136080
I0503 10:26:09.728070 19922 layer_factory.hpp:77] Creating layer ip1
I0503 10:26:09.728080 19922 net.cpp:94] Creating Layer ip1
I0503 10:26:09.728083 19922 net.cpp:435] ip1 <- pool5
I0503 10:26:09.728087 19922 net.cpp:409] ip1 -> ip1
I0503 10:26:09.807102 19922 net.cpp:144] Setting up ip1
I0503 10:26:09.807133 19922 net.cpp:151] Top shape: 20 1024 (20480)
I0503 10:26:09.807138 19922 net.cpp:159] Memory required for data: 15218000
I0503 10:26:09.807147 19922 layer_factory.hpp:77] Creating layer ip2
I0503 10:26:09.807165 19922 net.cpp:94] Creating Layer ip2
I0503 10:26:09.807170 19922 net.cpp:435] ip2 <- ip1
I0503 10:26:09.807176 19922 net.cpp:409] ip2 -> ip2
I0503 10:26:09.820128 19922 net.cpp:144] Setting up ip2
I0503 10:26:09.820143 19922 net.cpp:151] Top shape: 20 512 (10240)
I0503 10:26:09.820147 19922 net.cpp:159] Memory required for data: 15258960
I0503 10:26:09.820154 19922 layer_factory.hpp:77] Creating layer ip3
I0503 10:26:09.820161 19922 net.cpp:94] Creating Layer ip3
I0503 10:26:09.820165 19922 net.cpp:435] ip3 <- ip2
I0503 10:26:09.820171 19922 net.cpp:409] ip3 -> ip3
I0503 10:26:09.821521 19922 net.cpp:144] Setting up ip3
I0503 10:26:09.821533 19922 net.cpp:151] Top shape: 20 50 (1000)
I0503 10:26:09.821537 19922 net.cpp:159] Memory required for data: 15262960
I0503 10:26:09.821543 19922 layer_factory.hpp:77] Creating layer loss
I0503 10:26:09.821552 19922 net.cpp:94] Creating Layer loss
I0503 10:26:09.821555 19922 net.cpp:435] loss <- ip3
I0503 10:26:09.821559 19922 net.cpp:435] loss <- label
I0503 10:26:09.821565 19922 net.cpp:409] loss -> loss
I0503 10:26:09.821578 19922 layer_factory.hpp:77] Creating layer loss
…
I0503 10:26:09.822068 19922 solver.cpp:181] Creating test net (#0) specified by net file: ./protocol/dis_50_400_dimension.protocol_distribution
I0503 10:26:09.822096 19922 net.cpp:323] The NetState phase (1) differed from the phase (0) specified by a rule in layer parameters
I0503 10:26:09.822193 19922 net.cpp:52] Initializing net from parameters: 
state {
  phase: TEST
}
layer {
  name: "intercept"
  type: "HDF5Data"
  top: "data"
  top: "label"
  include {
    phase: TEST
  }
  hdf5_data_param {
    source: "/home/purduethu/scratch/radon/d/deng106/CNNStatisticalModel/distributions/input/50_distributions_400_sample_size_test-distributions-path.txt"
    batch_size: 20
  }
}
layer {
  name: "conv1"
  type: "Convolution"
  bottom: "data"
  top: "conv1"
  param {
    lr_mult: 1
  }
  param {
    lr_mult: 2
  }
  convolution_param {
    num_output: 64
    pad: 2
    kernel_size: 5
    stride: 1
    weight_filler {
      type: "gaussian"
      std: 0.0001
    }
    bias_filler {
      type: "constant"
    }
  }
}
layer {
  name: "relu1"
  type: "ReLU"
  bottom: "conv1"
  top: "conv1"
}
layer {
  name: "conv2"
  type: "Convolution"
  bottom: "conv1"
  top: "conv2"
  param {
    lr_mult: 1
  }
  param {
    lr_mult: 2
  }
  convolution_param {
    num_output: 64
    pad: 2
    kernel_size: 5
    stride: 1
    weight_filler {
      type: "gaussian"
      std: 0.01
    }
    bias_filler {
      type: "constant"
    }
  }
}
layer {
  name: "relu2"
  type: "ReLU"
  bottom: "conv2"
  top: "conv2"
}
layer {
  name: "pool2"
  type: "Pooling"
  bottom: "conv2"
  top: "pool2"
  pooling_param {
    pool: MAX
    kernel_size: 3
    stride: 2
  }
}
layer {
  name: "conv3"
  type: "Convolution"
  bottom: "pool2"
  top: "conv3"
  param {
    lr_mult: 1
  }
  param {
    lr_mult: 2
  }
  convolution_param {
    num_output: 128
    pad: 2
    kernel_size: 5
    stride: 1
    weight_filler {
      type: "gaussian"
      std: 0.01
    }
    bias_filler {
      type: "constant"
    }
  }
}
layer {
  name: "relu3"
  type: "ReLU"
  bottom: "conv3"
  top: "conv3"
}
layer {
  name: "conv4"
  type: "Convolution"
  bottom: "conv3"
  top: "conv4"
  param {
    lr_mult: 1
  }
  param {
    lr_mult: 2
  }
  convolution_param {
    num_output: 128
    pad: 2
    kernel_size: 5
    stride: 1
    weight_filler {
      type: "gaussian"
      std: 0.01
    }
    bias_filler {
      type: "constant"
    }
  }
}
layer {
  name: "relu4"
  type: "ReLU"
  bottom: "conv4"
  top: "conv4"
}
layer {
  name: "conv5"
  type: "Convolution"
  bottom: "conv4"
  top: "conv5"
  param {
    lr_mult: 1
  }
  param {
    lr_mult: 2
  }
  convolution_param {
    num_output: 128
    pad: 2
    kernel_size: 5
    stride: 1
    weight_filler {
      type: "gaussian"
      std: 0.01
    }
    bias_filler {
      type: "constant"
    }
  }
}
layer {
  name: "relu5"
  type: "ReLU"
  bottom: "conv5"
  top: "conv5"
}
layer {
  name: "pool5"
  type: "Pooling"
  bottom: "conv5"
  top: "pool5"
  pooling_param {
    pool: AVE
    kernel_size: 3
    stride: 2
  }
}
layer {
  name: "ip1"
  type: "InnerProduct"
  bottom: "pool5"
  top: "ip1"
  param {
    lr_mult: 1
  }
  param {
    lr_mult: 2
  }
  inner_product_param {
    num_output: 1024
    weight_filler {
      type: "gaussian"
      std: 0.1
    }
    bias_filler {
      type: "constant"
    }
  }
}
layer {
  name: "ip2"
  type: "InnerProduct"
  bottom: "ip1"
  top: "ip2"
  param {
    lr_mult: 1
  }
  param {
    lr_mult: 2
  }
  inner_product_param {
    num_output: 512
    weight_filler {
      type: "gaussian"
      std: 0.1
    }
    bias_filler {
      type: "constant"
    }
  }
}
layer {
  name: "ip3"
  type: "InnerProduct"
  bottom: "ip2"
  top: "ip3"
  param {
    lr_mult: 1
  }
  param {
    lr_mult: 2
  }
  inner_product_param {
    num_output: 50
    weight_filler {
      type: "gaussian"
      std: 0.1
    }
    bias_filler {
      type: "constant"
    }
  }
}
layer {
  name: "accuracy"
  type: "Accuracy"
  bottom: "ip3"
  bottom: "label"
  top: "accuracy"
  include {
    phase: TEST
  }
}
layer {
  name: "loss"
  type: "SoftmaxWithLoss"
  bottom: "ip3"
  bottom: "label"
  top: "loss"
}
I0503 10:26:09.822266 19922 layer_factory.hpp:77] Creating layer intercept
I0503 10:26:09.822274 19922 net.cpp:94] Creating Layer intercept
I0503 10:26:09.822278 19922 net.cpp:409] intercept -> data
I0503 10:26:09.822285 19922 net.cpp:409] intercept -> label
I0503 10:26:09.822291 19922 hdf5_data_layer.cpp:79] Loading list of HDF5 filenames from: /home/purduethu/scratch/radon/d/deng106/CNNStatisticalModel/distributions/input/50_distributions_400_sample_size_test-distributions-path.txt
I0503 10:26:09.822310 19922 hdf5_data_layer.cpp:93] Number of HDF5 files: 1
I0503 10:26:09.982604 19922 net.cpp:144] Setting up intercept
I0503 10:26:09.982638 19922 net.cpp:151] Top shape: 20 1 20 20 (8000)
I0503 10:26:09.982645 19922 net.cpp:151] Top shape: 20 (20)
I0503 10:26:09.982647 19922 net.cpp:159] Memory required for data: 32080
I0503 10:26:09.982655 19922 layer_factory.hpp:77] Creating layer label_intercept_1_split
I0503 10:26:09.982674 19922 net.cpp:94] Creating Layer label_intercept_1_split
I0503 10:26:09.982678 19922 net.cpp:435] label_intercept_1_split <- label
I0503 10:26:09.982684 19922 net.cpp:409] label_intercept_1_split -> label_intercept_1_split_0
I0503 10:26:09.982693 19922 net.cpp:409] label_intercept_1_split -> label_intercept_1_split_1
I0503 10:26:09.982728 19922 net.cpp:144] Setting up label_intercept_1_split
I0503 10:26:09.982735 19922 net.cpp:151] Top shape: 20 (20)
I0503 10:26:09.982739 19922 net.cpp:151] Top shape: 20 (20)
I0503 10:26:09.982743 19922 net.cpp:159] Memory required for data: 32240
I0503 10:26:09.982746 19922 layer_factory.hpp:77] Creating layer conv1
I0503 10:26:09.982758 19922 net.cpp:94] Creating Layer conv1
I0503 10:26:09.982760 19922 net.cpp:435] conv1 <- data
I0503 10:26:09.982765 19922 net.cpp:409] conv1 -> conv1
I0503 10:26:09.983455 19922 net.cpp:144] Setting up conv1
I0503 10:26:09.983469 19922 net.cpp:151] Top shape: 20 64 20 20 (512000)
I0503 10:26:09.983474 19922 net.cpp:159] Memory required for data: 2080240
I0503 10:26:09.983482 19922 layer_factory.hpp:77] Creating layer relu1
I0503 10:26:09.983489 19922 net.cpp:94] Creating Layer relu1
I0503 10:26:09.983494 19922 net.cpp:435] relu1 <- conv1
I0503 10:26:09.983499 19922 net.cpp:396] relu1 -> conv1 (in-place)
I0503 10:26:09.983505 19922 net.cpp:144] Setting up relu1
I0503 10:26:09.983510 19922 net.cpp:151] Top shape: 20 64 20 20 (512000)
I0503 10:26:09.983513 19922 net.cpp:159] Memory required for data: 4128240
I0503 10:26:09.983517 19922 layer_factory.hpp:77] Creating layer conv2
I0503 10:26:09.983525 19922 net.cpp:94] Creating Layer conv2
I0503 10:26:09.983528 19922 net.cpp:435] conv2 <- conv1
I0503 10:26:09.983533 19922 net.cpp:409] conv2 -> conv2
I0503 10:26:09.988450 19922 net.cpp:144] Setting up conv2
I0503 10:26:09.988463 19922 net.cpp:151] Top shape: 20 64 20 20 (512000)
I0503 10:26:09.988467 19922 net.cpp:159] Memory required for data: 6176240
I0503 10:26:09.988476 19922 layer_factory.hpp:77] Creating layer relu2
I0503 10:26:09.988482 19922 net.cpp:94] Creating Layer relu2
I0503 10:26:09.988487 19922 net.cpp:435] relu2 <- conv2
I0503 10:26:09.988492 19922 net.cpp:396] relu2 -> conv2 (in-place)
I0503 10:26:09.988498 19922 net.cpp:144] Setting up relu2
I0503 10:26:09.988502 19922 net.cpp:151] Top shape: 20 64 20 20 (512000)
I0503 10:26:09.988505 19922 net.cpp:159] Memory required for data: 8224240
I0503 10:26:09.988509 19922 layer_factory.hpp:77] Creating layer pool2
I0503 10:26:09.988515 19922 net.cpp:94] Creating Layer pool2
I0503 10:26:09.988518 19922 net.cpp:435] pool2 <- conv2
I0503 10:26:09.988523 19922 net.cpp:409] pool2 -> pool2
I0503 10:26:09.988566 19922 net.cpp:144] Setting up pool2
I0503 10:26:09.988574 19922 net.cpp:151] Top shape: 20 64 10 10 (128000)
I0503 10:26:09.988577 19922 net.cpp:159] Memory required for data: 8736240
I0503 10:26:09.988580 19922 layer_factory.hpp:77] Creating layer conv3
I0503 10:26:09.988589 19922 net.cpp:94] Creating Layer conv3
I0503 10:26:09.988592 19922 net.cpp:435] conv3 <- pool2
I0503 10:26:09.988597 19922 net.cpp:409] conv3 -> conv3
I0503 10:26:09.995589 19922 net.cpp:144] Setting up conv3
I0503 10:26:09.995604 19922 net.cpp:151] Top shape: 20 128 10 10 (256000)
I0503 10:26:09.995609 19922 net.cpp:159] Memory required for data: 9760240
I0503 10:26:09.995616 19922 layer_factory.hpp:77] Creating layer relu3
I0503 10:26:09.995623 19922 net.cpp:94] Creating Layer relu3
I0503 10:26:09.995627 19922 net.cpp:435] relu3 <- conv3
I0503 10:26:09.995632 19922 net.cpp:396] relu3 -> conv3 (in-place)
I0503 10:26:09.995640 19922 net.cpp:144] Setting up relu3
I0503 10:26:09.995645 19922 net.cpp:151] Top shape: 20 128 10 10 (256000)
I0503 10:26:09.995647 19922 net.cpp:159] Memory required for data: 10784240
I0503 10:26:09.995651 19922 layer_factory.hpp:77] Creating layer conv4
I0503 10:26:09.995659 19922 net.cpp:94] Creating Layer conv4
I0503 10:26:09.995662 19922 net.cpp:435] conv4 <- conv3
I0503 10:26:09.995667 19922 net.cpp:409] conv4 -> conv4
I0503 10:26:10.008919 19922 net.cpp:144] Setting up conv4
I0503 10:26:10.008935 19922 net.cpp:151] Top shape: 20 128 10 10 (256000)
I0503 10:26:10.008939 19922 net.cpp:159] Memory required for data: 11808240
I0503 10:26:10.008946 19922 layer_factory.hpp:77] Creating layer relu4
I0503 10:26:10.008952 19922 net.cpp:94] Creating Layer relu4
I0503 10:26:10.008960 19922 net.cpp:435] relu4 <- conv4
I0503 10:26:10.008965 19922 net.cpp:396] relu4 -> conv4 (in-place)
I0503 10:26:10.008971 19922 net.cpp:144] Setting up relu4
I0503 10:26:10.008976 19922 net.cpp:151] Top shape: 20 128 10 10 (256000)
I0503 10:26:10.008980 19922 net.cpp:159] Memory required for data: 12832240
I0503 10:26:10.008983 19922 layer_factory.hpp:77] Creating layer conv5
I0503 10:26:10.008991 19922 net.cpp:94] Creating Layer conv5
I0503 10:26:10.008993 19922 net.cpp:435] conv5 <- conv4
I0503 10:26:10.008998 19922 net.cpp:409] conv5 -> conv5
I0503 10:26:10.021816 19922 net.cpp:144] Setting up conv5
I0503 10:26:10.021831 19922 net.cpp:151] Top shape: 20 128 10 10 (256000)
I0503 10:26:10.021836 19922 net.cpp:159] Memory required for data: 13856240
I0503 10:26:10.021844 19922 layer_factory.hpp:77] Creating layer relu5
I0503 10:26:10.021850 19922 net.cpp:94] Creating Layer relu5
I0503 10:26:10.021853 19922 net.cpp:435] relu5 <- conv5
I0503 10:26:10.021858 19922 net.cpp:396] relu5 -> conv5 (in-place)
I0503 10:26:10.021865 19922 net.cpp:144] Setting up relu5
I0503 10:26:10.021870 19922 net.cpp:151] Top shape: 20 128 10 10 (256000)
I0503 10:26:10.021873 19922 net.cpp:159] Memory required for data: 14880240
I0503 10:26:10.021877 19922 layer_factory.hpp:77] Creating layer pool5
I0503 10:26:10.021881 19922 net.cpp:94] Creating Layer pool5
I0503 10:26:10.021884 19922 net.cpp:435] pool5 <- conv5
I0503 10:26:10.021889 19922 net.cpp:409] pool5 -> pool5
I0503 10:26:10.021915 19922 net.cpp:144] Setting up pool5
I0503 10:26:10.021922 19922 net.cpp:151] Top shape: 20 128 5 5 (64000)
I0503 10:26:10.021925 19922 net.cpp:159] Memory required for data: 15136240
I0503 10:26:10.021929 19922 layer_factory.hpp:77] Creating layer ip1
I0503 10:26:10.021935 19922 net.cpp:94] Creating Layer ip1
I0503 10:26:10.021939 19922 net.cpp:435] ip1 <- pool5
I0503 10:26:10.021944 19922 net.cpp:409] ip1 -> ip1
I0503 10:26:10.100807 19922 net.cpp:144] Setting up ip1
I0503 10:26:10.100841 19922 net.cpp:151] Top shape: 20 1024 (20480)
I0503 10:26:10.100844 19922 net.cpp:159] Memory required for data: 15218160
I0503 10:26:10.100852 19922 layer_factory.hpp:77] Creating layer ip2
I0503 10:26:10.100862 19922 net.cpp:94] Creating Layer ip2
I0503 10:26:10.100867 19922 net.cpp:435] ip2 <- ip1
I0503 10:26:10.100873 19922 net.cpp:409] ip2 -> ip2
I0503 10:26:10.113791 19922 net.cpp:144] Setting up ip2
I0503 10:26:10.113806 19922 net.cpp:151] Top shape: 20 512 (10240)
I0503 10:26:10.113808 19922 net.cpp:159] Memory required for data: 15259120
I0503 10:26:10.113814 19922 layer_factory.hpp:77] Creating layer ip3
I0503 10:26:10.113823 19922 net.cpp:94] Creating Layer ip3
I0503 10:26:10.113827 19922 net.cpp:435] ip3 <- ip2
I0503 10:26:10.113833 19922 net.cpp:409] ip3 -> ip3
I0503 10:26:10.114507 19922 net.cpp:144] Setting up ip3
I0503 10:26:10.114516 19922 net.cpp:151] Top shape: 20 50 (1000)
I0503 10:26:10.114518 19922 net.cpp:159] Memory required for data: 15263120
I0503 10:26:10.114523 19922 layer_factory.hpp:77] Creating layer ip3_ip3_0_split
I0503 10:26:10.114529 19922 net.cpp:94] Creating Layer ip3_ip3_0_split
I0503 10:26:10.114532 19922 net.cpp:435] ip3_ip3_0_split <- ip3
I0503 10:26:10.114537 19922 net.cpp:409] ip3_ip3_0_split -> ip3_ip3_0_split_0
I0503 10:26:10.114542 19922 net.cpp:409] ip3_ip3_0_split -> ip3_ip3_0_split_1
I0503 10:26:10.114569 19922 net.cpp:144] Setting up ip3_ip3_0_split
I0503 10:26:10.114575 19922 net.cpp:151] Top shape: 20 50 (1000)
I0503 10:26:10.114579 19922 net.cpp:151] Top shape: 20 50 (1000)
I0503 10:26:10.114583 19922 net.cpp:159] Memory required for data: 15271120
I0503 10:26:10.114585 19922 layer_factory.hpp:77] Creating layer accuracy
I0503 10:26:10.114591 19922 net.cpp:94] Creating Layer accuracy
I0503 10:26:10.114595 19922 net.cpp:435] accuracy <- ip3_ip3_0_split_0
I0503 10:26:10.114599 19922 net.cpp:435] accuracy <- label_intercept_1_split_0
I0503 10:26:10.114605 19922 net.cpp:409] accuracy -> accuracy
…
